…
I0715 11:28:55.986892  7536 decent_q.cpp:595] GPU device name: GeForce GTX 1080 Ti
I0715 11:28:56.827503  7536 net.cpp:369] The NetState phase (1) differed from the phase (0) specified by a rule in layer data
I0715 11:28:56.828423  7536 net.cpp:98] Initializing net from parameters: 
layer {
  name: "data"
  type: "ImageSegData"
  top: "data"
  top: "label"
  include {
    phase: TEST
  }
  transform_param {
    scale: 0.022
    mean_value: 73
    mean_value: 82
    mean_value: 72
  }
  image_data_param {
    source: "../data/val_img_seg_nomap.txt"
    batch_size: 1
    shuffle: false
  }
}
layer {
  name: "resize_down"
  type: "DeephiResize"
  bottom: "data"
  top: "data"
  include {
    phase: TEST
  }
  deephi_resize_param {
    resize_type: BILINEAR
    new_height: 512
    new_width: 1024
  }
}
layer {
  name: "ConvNd_1"
  type: "Convolution"
  bottom: "data"
  top: "ConvNd_1"
  convolution_param {
    num_output: 16
    bias_term: false
    pad: 1
    kernel_size: 3
    group: 1
    stride: 2
    dilation: 1
  }
}
layer {
  name: "BatchNorm_1"
  type: "BatchNorm"
  bottom: "ConvNd_1"
  top: "BatchNorm_1"
  param {
    lr_mult: 1
    decay_mult: 0
  }
  param {
    lr_mult: 1
    decay_mult: 0
  }
  param {
    lr_mult: 0
    decay_mult: 0
  }
  param {
    lr_mult: 0
    decay_mult: 0
  }
  batch_norm_param {
    use_global_stats: true
    eps: 1e-05
    scale_filler {
      type: "constant"
      value: 1
    }
    bias_filler {
      type: "constant"
      value: 0
    }
  }
}
layer {
  name: "Threshold_1"
  type: "ReLU"
  bottom: "BatchNorm_1"
  top: "BatchNorm_1"
}
layer {
  name: "AvgPool2d_1"
  type: "Pooling"
  bottom: "data"
  top: "AvgPool2d_1"
  pooling_param {
    pool: AVE
    kernel_size: 3
    stride: 2
    pad: 0
  }
}
layer {
  name: "Concat_1"
  type: "Concat"
  bottom: "BatchNorm_1"
  bottom: "AvgPool2d_1"
  top: "Concat_1"
  concat_param {
    axis: 1
  }
}
layer {
  name: "BatchNorm_2"
  type: "BatchNorm"
  bottom: "Concat_1"
  top: "BatchNorm_2"
  param {
    lr_mult: 1
    decay_mult: 0
  }
  param {
    lr_mult: 1
    decay_mult: 0
  }
  param {
    lr_mult: 0
    decay_mult: 0
  }
  param {
    lr_mult: 0
    decay_mult: 0
  }
  batch_norm_param {
    use_global_stats: true
    eps: 1e-05
    scale_filler {
      type: "constant"
      value: 1
    }
    bias_filler {
      type: "constant"
      value: 0
    }
  }
}
layer {
  name: "Threshold_2"
  type: "ReLU"
  bottom: "BatchNorm_2"
  top: "BatchNorm_2"
}
layer {
  name: "ConvNd_2"
  type: "Convolution"
  bottom: "BatchNorm_2"
  top: "ConvNd_2"
  convolution_param {
    num_output: 12
    bias_term: false
    pad: 1
    kernel_size: 3
    group: 1
    stride: 2
    weight_filler {
      type: "msra"
    }
    dilation: 1
  }
}
layer {
  name: "ConvNd_3"
  type: "Convolution"
  bottom: "ConvNd_2"
  top: "ConvNd_3"
  convolution_param {
    num_output: 16
    bias_term: false
    pad: 1
    kernel_size: 3
    group: 1
    stride: 1
    weight_filler {
      type: "msra"
    }
    dilation: 1
  }
}
layer {
  name: "ConvNd_4"
  type: "Convolution"
  bottom: "ConvNd_2"
  top: "ConvNd_4"
  convolution_param {
    num_output: 12
    bias_term: false
    pad: 2
    kernel_size: 3
    group: 1
    stride: 1
    weight_filler {
      type: "msra"
    }
    dilation: 2
  }
}
layer {
  name: "ConvNd_5"
  type: "Convolution"
  bottom: "ConvNd_2"
  top: "ConvNd_5"
  convolution_param {
    num_output: 12
    bias_term: false
    pad: 4
    kernel_size: 3
    group: 1
    stride: 1
    weight_filler {
      type: "msra"
    }
    dilation: 4
  }
}
layer {
  name: "Add_1"
  type: "Eltwise"
  bottom: "ConvNd_4"
  bottom: "ConvNd_5"
  top: "Add_1"
}
layer {
  name: "ConvNd_6"
  type: "Convolution"
  bottom: "ConvNd_2"
  top: "ConvNd_6"
  convolution_param {
    num_output: 12
    bias_term: false
    pad: 8
    kernel_size: 3
    group: 1
    stride: 1
    weight_filler {
      type: "msra"
    }
    dilation: 8
  }
}
layer {
  name: "Add_2"
  type: "Eltwise"
  bottom: "Add_1"
  bottom: "ConvNd_6"
  top: "Add_2"
}
layer {
  name: "ConvNd_7"
  type: "Convolution"
  bottom: "ConvNd_2"
  top: "ConvNd_7"
  convolution_param {
    num_output: 12
    bias_term: false
    pad: 16
    kernel_size: 3
    group: 1
    stride: 1
    weight_filler {
      type: "msra"
    }
    dilation: 16
  }
}
layer {
  name: "Add_3"
  type: "Eltwise"
  bottom: "Add_2"
  bottom: "ConvNd_7"
  top: "Add_3"
}
layer {
  name: "Concat_2"
  type: "Concat"
  bottom: "ConvNd_3"
  bottom: "ConvNd_4"
  bottom: "Add_1"
  bottom: "Add_2"
  bottom: "Add_3"
  top: "Concat_2"
  concat_param {
    axis: 1
  }
}
layer {
  name: "BatchNorm_3"
  type: "BatchNorm"
  bottom: "Concat_2"
  top: "BatchNorm_3"
  param {
    lr_mult: 1
    decay_mult: 0
  }
  param {
    lr_mult: 1
    decay_mult: 0
  }
  param {
    lr_mult: 0
    decay_mult: 0
  }
  param {
    lr_mult: 0
    decay_mult: 0
  }
  batch_norm_param {
    use_global_stats: true
    eps: 1e-05
    scale_filler {
      type: "constant"
      value: 1
    }
    bias_filler {
      type: "constant"
      value: 0
    }
  }
}
layer {
  name: "Threshold_3"
  type: "ReLU"
  bottom: "BatchNorm_3"
  top: "BatchNorm_3"
}
layer {
  name: "ConvNd_8"
  type: "Convolution"
  bottom: "BatchNorm_3"
  top: "ConvNd_8"
  convolution_param {
    num_output: 12
    bias_term: false
    pad: 0
    kernel_size: 1
    group: 1
    stride: 1
    weight_filler {
      type: "msra"
    }
    dilation: 1
  }
}
layer {
  name: "ConvNd_9"
  type: "Convolution"
  bottom: "ConvNd_8"
  top: "ConvNd_9"
  convolution_param {
    num_output: 16
    bias_term: false
    pad: 1
    kernel_size: 3
    group: 1
    stride: 1
    weight_filler {
      type: "msra"
    }
    dilation: 1
  }
}
layer {
  name: "ConvNd_10"
  type: "Convolution"
  bottom: "ConvNd_8"
  top: "ConvNd_10"
  convolution_param {
    num_output: 12
    bias_term: false
    pad: 2
    kernel_size: 3
    group: 1
    stride: 1
    weight_filler {
      type: "msra"
    }
    dilation: 2
  }
}
layer {
  name: "ConvNd_11"
  type: "Convolution"
  bottom: "ConvNd_8"
  top: "ConvNd_11"
  convolution_param {
    num_output: 12
    bias_term: false
    pad: 4
    kernel_size: 3
    group: 1
    stride: 1
    weight_filler {
      type: "msra"
    }
    dilation: 4
  }
}
layer {
  name: "Add_4"
  type: "Eltwise"
  bottom: "ConvNd_10"
  bottom: "ConvNd_11"
  top: "Add_4"
}
layer {
  name: "ConvNd_12"
  type: "Convolution"
  bottom: "ConvNd_8"
  top: "ConvNd_12"
  convolution_param {
    num_output: 12
    bias_term: false
    pad: 8
    kernel_size: 3
    group: 1
    stride: 1
    weight_filler {
      type: "msra"
    }
    dilation: 8
  }
}
layer {
  name: "Add_5"
  type: "Eltwise"
  bottom: "Add_4"
  bottom: "ConvNd_12"
  top: "Add_5"
}
layer {
  name: "ConvNd_13"
  type: "Convolution"
  bottom: "ConvNd_8"
  top: "ConvNd_13"
  convolution_param {
    num_output: 12
    bias_term: false
    pad: 16
    kernel_size: 3
    group: 1
    stride: 1
    weight_filler {
      type: "msra"
    }
    dilation: 16
  }
}
layer {
  name: "Add_6"
  type: "Eltwise"
  bottom: "Add_5"
  bottom: "ConvNd_13"
  top: "Add_6"
}
layer {
  name: "Concat_3"
  type: "Concat"
  bottom: "ConvNd_9"
  bottom: "ConvNd_10"
  bottom: "Add_4"
  bottom: "Add_5"
  bottom: "Add_6"
  top: "Concat_3"
  concat_param {
    axis: 1
  }
}
layer {
  name: "Add_7"
  type: "Eltwise"
  bottom: "BatchNorm_3"
  bottom: "Concat_3"
  top: "Add_7"
}
layer {
  name: "BatchNorm_4"
  type: "BatchNorm"
  bottom: "Add_7"
  top: "BatchNorm_4"
  param {
    lr_mult: 1
    decay_mult: 0
  }
  param {
    lr_mult: 1
    decay_mult: 0
  }
  param {
    lr_mult: 0
    decay_mult: 0
  }
  param {
    lr_mult: 0
    decay_mult: 0
  }
  batch_norm_param {
    use_global_stats: true
    eps: 1e-05
    scale_filler {
      type: "constant"
      value: 1
    }
    bias_filler {
      type: "constant"
      value: 0
    }
  }
}
layer {
  name: "Threshold_4"
  type: "ReLU"
  bottom: "BatchNorm_4"
  top: "BatchNorm_4"
}
layer {
  name: "ConvNd_14"
  type: "Convolution"
  bottom: "BatchNorm_4"
  top: "ConvNd_14"
  convolution_param {
    num_output: 12
    bias_term: false
    pad: 0
    kernel_size: 1
    group: 1
    stride: 1
    weight_filler {
      type: "msra"
    }
    dilation: 1
  }
}
layer {
  name: "ConvNd_15"
  type: "Convolution"
  bottom: "ConvNd_14"
  top: "ConvNd_15"
  convolution_param {
    num_output: 16
    bias_term: false
    pad: 1
    kernel_size: 3
    group: 1
    stride: 1
    weight_filler {
      type: "msra"
    }
    dilation: 1
  }
}
layer {
  name: "ConvNd_16"
  type: "Convolution"
  bottom: "ConvNd_14"
  top: "ConvNd_16"
  convolution_param {
    num_output: 12
    bias_term: false
    pad: 2
    kernel_size: 3
    group: 1
    stride: 1
    weight_filler {
      type: "msra"
    }
    dilation: 2
  }
}
layer {
  name: "ConvNd_17"
  type: "Convolution"
  bottom: "ConvNd_14"
  top: "ConvNd_17"
  convolution_param {
    num_output: 12
    bias_term: false
    pad: 4
    kernel_size: 3
    group: 1
    stride: 1
    weight_filler {
      type: "msra"
    }
    dilation: 4
  }
}
layer {
  name: "Add_8"
  type: "Eltwise"
  bottom: "ConvNd_16"
  bottom: "ConvNd_17"
  top: "Add_8"
}
layer {
  name: "ConvNd_18"
  type: "Convolution"
  bottom: "ConvNd_14"
  top: "ConvNd_18"
  convolution_param {
    num_output: 12
    bias_term: false
    pad: 8
    kernel_size: 3
    group: 1
    stride: 1
    weight_filler {
      type: "msra"
    }
    dilation: 8
  }
}
layer {
  name: "Add_9"
  type: "Eltwise"
  bottom: "Add_8"
  bottom: "ConvNd_18"
  top: "Add_9"
}
layer {
  name: "ConvNd_19"
  type: "Convolution"
  bottom: "ConvNd_14"
  top: "ConvNd_19"
  convolution_param {
    num_output: 12
    bias_term: false
    pad: 16
    kernel_size: 3
    group: 1
    stride: 1
    weight_filler {
      type: "msra"
    }
    dilation: 16
  }
}
layer {
  name: "Add_10"
  type: "Eltwise"
  bottom: "Add_9"
  bottom: "ConvNd_19"
  top: "Add_10"
}
layer {
  name: "Concat_4"
  type: "Concat"
  bottom: "ConvNd_15"
  bottom: "ConvNd_16"
  bottom: "Add_8"
  bottom: "Add_9"
  bottom: "Add_10"
  top: "Concat_4"
  concat_param {
    axis: 1
  }
}
layer {
  name: "Add_11"
  type: "Eltwise"
  bottom: "BatchNorm_4"
  bottom: "Concat_4"
  top: "Add_11"
}
layer {
  name: "BatchNorm_5"
  type: "BatchNorm"
  bottom: "Add_11"
  top: "BatchNorm_5"
  param {
    lr_mult: 1
    decay_mult: 0
  }
  param {
    lr_mult: 1
    decay_mult: 0
  }
  param {
    lr_mult: 0
    decay_mult: 0
  }
  param {
    lr_mult: 0
    decay_mult: 0
  }
  batch_norm_param {
    use_global_stats: true
    eps: 1e-05
    scale_filler {
      type: "constant"
      value: 1
    }
    bias_filler {
      type: "constant"
      value: 0
    }
  }
}
layer {
  name: "Threshold_5"
  type: "ReLU"
  bottom: "BatchNorm_5"
  top: "BatchNorm_5"
}
layer {
  name: "AvgPool2d_2"
  type: "Pooling"
  bottom: "data"
  top: "AvgPool2d_2"
  pooling_param {
    pool: AVE
    kernel_size: 3
    stride: 2
    pad: 0
  }
}
layer {
  name: "AvgPool2d_3"
  type: "Pooling"
  bottom: "AvgPool2d_2"
  top: "AvgPool2d_3"
  pooling_param {
    pool: AVE
    kernel_size: 3
    stride: 2
    pad: 0
  }
}
layer {
  name: "Concat_5"
  type: "Concat"
  bottom: "BatchNorm_5"
  bottom: "BatchNorm_3"
  bottom: "AvgPool2d_3"
  top: "Concat_5"
  concat_param {
    axis: 1
  }
}
layer {
  name: "BatchNorm_6"
  type: "BatchNorm"
  bottom: "Concat_5"
  top: "BatchNorm_6"
  param {
    lr_mult: 1
    decay_mult: 0
  }
  param {
    lr_mult: 1
    decay_mult: 0
  }
  param {
    lr_mult: 0
    decay_mult: 0
  }
  param {
    lr_mult: 0
    decay_mult: 0
  }
  batch_norm_param {
    use_global_stats: true
    eps: 1e-05
    scale_filler {
      type: "constant"
      value: 1
    }
    bias_filler {
      type: "constant"
      value: 0
    }
  }
}
layer {
  name: "Threshold_6"
  type: "ReLU"
  bottom: "BatchNorm_6"
  top: "BatchNorm_6"
}
layer {
  name: "ConvNd_20"
  type: "Convolution"
  bottom: "BatchNorm_6"
  top: "ConvNd_20"
  convolution_param {
    num_output: 19
    bias_term: false
    pad: 0
    kernel_size: 1
    group: 1
    stride: 1
    weight_filler {
      type: "msra"
    }
    dilation: 1
  }
}
layer {
  name: "ConvNd_21"
  type: "Convolution"
  bottom: "BatchNorm_6"
  top: "ConvNd_21"
  convolution_param {
    num_output: 25
    bias_term: false
    pad: 1
    kernel_size: 3
    group: 1
    stride: 2
    weight_filler {
      type: "msra"
    }
    dilation: 1
  }
}
layer {
  name: "ConvNd_22"
  type: "Convolution"
  bottom: "ConvNd_21"
  top: "ConvNd_22"
  convolution_param {
    num_output: 28
    bias_term: false
    pad: 1
    kernel_size: 3
    group: 1
    stride: 1
    weight_filler {
      type: "msra"
    }
    dilation: 1
  }
}
layer {
  name: "ConvNd_23"
  type: "Convolution"
  bottom: "ConvNd_21"
  top: "ConvNd_23"
  convolution_param {
    num_output: 25
    bias_term: false
    pad: 2
    kernel_size: 3
    group: 1
    stride: 1
    weight_filler {
      type: "msra"
    }
    dilation: 2
  }
}
layer {
  name: "ConvNd_24"
  type: "Convolution"
  bottom: "ConvNd_21"
  top: "ConvNd_24"
  convolution_param {
    num_output: 25
    bias_term: false
    pad: 4
    kernel_size: 3
    group: 1
    stride: 1
    weight_filler {
      type: "msra"
    }
    dilation: 4
  }
}
layer {
  name: "Add_12"
  type: "Eltwise"
  bottom: "ConvNd_23"
  bottom: "ConvNd_24"
  top: "Add_12"
}
layer {
  name: "ConvNd_25"
  type: "Convolution"
  bottom: "ConvNd_21"
  top: "ConvNd_25"
  convolution_param {
    num_output: 25
    bias_term: false
    pad: 8
    kernel_size: 3
    group: 1
    stride: 1
    weight_filler {
      type: "msra"
    }
    dilation: 8
  }
}
layer {
  name: "Add_13"
  type: "Eltwise"
  bottom: "Add_12"
  bottom: "ConvNd_25"
  top: "Add_13"
}
layer {
  name: "ConvNd_26"
  type: "Convolution"
  bottom: "ConvNd_21"
  top: "ConvNd_26"
  convolution_param {
    num_output: 25
    bias_term: false
    pad: 16
    kernel_size: 3
    group: 1
    stride: 1
    weight_filler {
      type: "msra"
    }
    dilation: 16
  }
}
layer {
  name: "Add_14"
  type: "Eltwise"
  bottom: "Add_13"
  bottom: "ConvNd_26"
  top: "Add_14"
}
layer {
  name: "Concat_6"
  type: "Concat"
  bottom: "ConvNd_22"
  bottom: "ConvNd_23"
  bottom: "Add_12"
  bottom: "Add_13"
  bottom: "Add_14"
  top: "Concat_6"
  concat_param {
    axis: 1
  }
}
layer {
  name: "BatchNorm_7"
  type: "BatchNorm"
  bottom: "Concat_6"
  top: "BatchNorm_7"
  param {
    lr_mult: 1
    decay_mult: 0
  }
  param {
    lr_mult: 1
    decay_mult: 0
  }
  param {
    lr_mult: 0
    decay_mult: 0
  }
  param {
    lr_mult: 0
    decay_mult: 0
  }
  batch_norm_param {
    use_global_stats: true
    eps: 1e-05
    scale_filler {
      type: "constant"
      value: 1
    }
    bias_filler {
      type: "constant"
      value: 0
    }
  }
}
layer {
  name: "Threshold_7"
  type: "ReLU"
  bottom: "BatchNorm_7"
  top: "BatchNorm_7"
}
layer {
  name: "ConvNd_27"
  type: "Convolution"
  bottom: "BatchNorm_7"
  top: "ConvNd_27"
  convolution_param {
    num_output: 25
    bias_term: false
    pad: 0
    kernel_size: 1
    group: 1
    stride: 1
    weight_filler {
      type: "msra"
    }
    dilation: 1
  }
}
layer {
  name: "ConvNd_28"
  type: "Convolution"
  bottom: "ConvNd_27"
  top: "ConvNd_28"
  convolution_param {
    num_output: 28
    bias_term: false
    pad: 1
    kernel_size: 3
    group: 1
    stride: 1
    weight_filler {
      type: "msra"
    }
    dilation: 1
  }
}
layer {
  name: "ConvNd_29"
  type: "Convolution"
  bottom: "ConvNd_27"
  top: "ConvNd_29"
  convolution_param {
    num_output: 25
    bias_term: false
    pad: 2
    kernel_size: 3
    group: 1
    stride: 1
    weight_filler {
      type: "msra"
    }
    dilation: 2
  }
}
layer {
  name: "ConvNd_30"
  type: "Convolution"
  bottom: "ConvNd_27"
  top: "ConvNd_30"
  convolution_param {
    num_output: 25
    bias_term: false
    pad: 4
    kernel_size: 3
    group: 1
    stride: 1
    weight_filler {
      type: "msra"
    }
    dilation: 4
  }
}
layer {
  name: "Add_15"
  type: "Eltwise"
  bottom: "ConvNd_29"
  bottom: "ConvNd_30"
  top: "Add_15"
}
layer {
  name: "ConvNd_31"
  type: "Convolution"
  bottom: "ConvNd_27"
  top: "ConvNd_31"
  convolution_param {
    num_output: 25
    bias_term: false
    pad: 8
    kernel_size: 3
    group: 1
    stride: 1
    weight_filler {
      type: "msra"
    }
    dilation: 8
  }
}
layer {
  name: "Add_16"
  type: "Eltwise"
  bottom: "Add_15"
  bottom: "ConvNd_31"
  top: "Add_16"
}
layer {
  name: "ConvNd_32"
  type: "Convolution"
  bottom: "ConvNd_27"
  top: "ConvNd_32"
  convolution_param {
    num_output: 25
    bias_term: false
    pad: 16
    kernel_size: 3
    group: 1
    stride: 1
    weight_filler {
      type: "msra"
    }
    dilation: 16
  }
}
layer {
  name: "Add_17"
  type: "Eltwise"
  bottom: "Add_16"
  bottom: "ConvNd_32"
  top: "Add_17"
}
layer {
  name: "Concat_7"
  type: "Concat"
  bottom: "ConvNd_28"
  bottom: "ConvNd_29"
  bottom: "Add_15"
  bottom: "Add_16"
  bottom: "Add_17"
  top: "Concat_7"
  concat_param {
    axis: 1
  }
}
layer {
  name: "Add_18"
  type: "Eltwise"
  bottom: "BatchNorm_7"
  bottom: "Concat_7"
  top: "Add_18"
}
layer {
  name: "BatchNorm_8"
  type: "BatchNorm"
  bottom: "Add_18"
  top: "BatchNorm_8"
  param {
    lr_mult: 1
    decay_mult: 0
  }
  param {
    lr_mult: 1
    decay_mult: 0
  }
  param {
    lr_mult: 0
    decay_mult: 0
  }
  param {
    lr_mult: 0
    decay_mult: 0
  }
  batch_norm_param {
    use_global_stats: true
    eps: 1e-05
    scale_filler {
      type: "constant"
      value: 1
    }
    bias_filler {
      type: "constant"
      value: 0
    }
  }
}
layer {
  name: "Threshold_8"
  type: "ReLU"
  bottom: "BatchNorm_8"
  top: "BatchNorm_8"
}
layer {
  name: "ConvNd_33"
  type: "Convolution"
  bottom: "BatchNorm_8"
  top: "ConvNd_33"
  convolution_param {
    num_output: 25
    bias_term: false
    pad: 0
    kernel_size: 1
    group: 1
    stride: 1
    weight_filler {
      type: "msra"
    }
    dilation: 1
  }
}
layer {
  name: "ConvNd_34"
  type: "Convolution"
  bottom: "ConvNd_33"
  top: "ConvNd_34"
  convolution_param {
    num_output: 28
    bias_term: false
    pad: 1
    kernel_size: 3
    group: 1
    stride: 1
    weight_filler {
      type: "msra"
    }
    dilation: 1
  }
}
layer {
  name: "ConvNd_35"
  type: "Convolution"
  bottom: "ConvNd_33"
  top: "ConvNd_35"
  convolution_param {
    num_output: 25
    bias_term: false
    pad: 2
    kernel_size: 3
    group: 1
    stride: 1
    weight_filler {
      type: "msra"
    }
    dilation: 2
  }
}
layer {
  name: "ConvNd_36"
  type: "Convolution"
  bottom: "ConvNd_33"
  top: "ConvNd_36"
  convolution_param {
    num_output: 25
    bias_term: false
    pad: 4
    kernel_size: 3
    group: 1
    stride: 1
    weight_filler {
      type: "msra"
    }
    dilation: 4
  }
}
layer {
  name: "Add_19"
  type: "Eltwise"
  bottom: "ConvNd_35"
  bottom: "ConvNd_36"
  top: "Add_19"
}
layer {
  name: "ConvNd_37"
  type: "Convolution"
  bottom: "ConvNd_33"
  top: "ConvNd_37"
  convolution_param {
    num_output: 25
    bias_term: false
    pad: 8
    kernel_size: 3
    group: 1
    stride: 1
    weight_filler {
      type: "msra"
    }
    dilation: 8
  }
}
layer {
  name: "Add_20"
  type: "Eltwise"
  bottom: "Add_19"
  bottom: "ConvNd_37"
  top: "Add_20"
}
layer {
  name: "ConvNd_38"
  type: "Convolution"
  bottom: "ConvNd_33"
  top: "ConvNd_38"
  convolution_param {
    num_output: 25
    bias_term: false
    pad: 16
    kernel_size: 3
    group: 1
    stride: 1
    weight_filler {
      type: "msra"
    }
    dilation: 16
  }
}
layer {
  name: "Add_21"
  type: "Eltwise"
  bottom: "Add_20"
  bottom: "ConvNd_38"
  top: "Add_21"
}
layer {
  name: "Concat_8"
  type: "Concat"
  bottom: "ConvNd_34"
  bottom: "ConvNd_35"
  bottom: "Add_19"
  bottom: "Add_20"
  bottom: "Add_21"
  top: "Concat_8"
  concat_param {
    axis: 1
  }
}
layer {
  name: "Add_22"
  type: "Eltwise"
  bottom: "BatchNorm_8"
  bottom: "Concat_8"
  top: "Add_22"
}
layer {
  name: "BatchNorm_9"
  type: "BatchNorm"
  bottom: "Add_22"
  top: "BatchNorm_9"
  param {
    lr_mult: 1
    decay_mult: 0
  }
  param {
    lr_mult: 1
    decay_mult: 0
  }
  param {
    lr_mult: 0
    decay_mult: 0
  }
  param {
    lr_mult: 0
    decay_mult: 0
  }
  batch_norm_param {
    use_global_stats: true
    eps: 1e-05
    scale_filler {
      type: "constant"
      value: 1
    }
    bias_filler {
      type: "constant"
      value: 0
    }
  }
}
layer {
  name: "Threshold_9"
  type: "ReLU"
  bottom: "BatchNorm_9"
  top: "BatchNorm_9"
}
layer {
  name: "ConvNd_39"
  type: "Convolution"
  bottom: "BatchNorm_9"
  top: "ConvNd_39"
  convolution_param {
    num_output: 25
    bias_term: false
    pad: 0
    kernel_size: 1
    group: 1
    stride: 1
    weight_filler {
      type: "msra"
    }
    dilation: 1
  }
}
layer {
  name: "ConvNd_40"
  type: "Convolution"
  bottom: "ConvNd_39"
  top: "ConvNd_40"
  convolution_param {
    num_output: 28
    bias_term: false
    pad: 1
    kernel_size: 3
    group: 1
    stride: 1
    weight_filler {
      type: "msra"
    }
    dilation: 1
  }
}
layer {
  name: "ConvNd_41"
  type: "Convolution"
  bottom: "ConvNd_39"
  top: "ConvNd_41"
  convolution_param {
    num_output: 25
    bias_term: false
    pad: 2
    kernel_size: 3
    group: 1
    stride: 1
    weight_filler {
      type: "msra"
    }
    dilation: 2
  }
}
layer {
  name: "ConvNd_42"
  type: "Convolution"
  bottom: "ConvNd_39"
  top: "ConvNd_42"
  convolution_param {
    num_output: 25
    bias_term: false
    pad: 4
    kernel_size: 3
    group: 1
    stride: 1
    weight_filler {
      type: "msra"
    }
    dilation: 4
  }
}
layer {
  name: "Add_23"
  type: "Eltwise"
  bottom: "ConvNd_41"
  bottom: "ConvNd_42"
  top: "Add_23"
}
layer {
  name: "ConvNd_43"
  type: "Convolution"
  bottom: "ConvNd_39"
  top: "ConvNd_43"
  convolution_param {
    num_output: 25
    bias_term: false
    pad: 8
    kernel_size: 3
    group: 1
    stride: 1
    weight_filler {
      type: "msra"
    }
    dilation: 8
  }
}
layer {
  name: "Add_24"
  type: "Eltwise"
  bottom: "Add_23"
  bottom: "ConvNd_43"
  top: "Add_24"
}
layer {
  name: "ConvNd_44"
  type: "Convolution"
  bottom: "ConvNd_39"
  top: "ConvNd_44"
  convolution_param {
    num_output: 25
    bias_term: false
    pad: 16
    kernel_size: 3
    group: 1
    stride: 1
    weight_filler {
      type: "msra"
    }
    dilation: 16
  }
}
layer {
  name: "Add_25"
  type: "Eltwise"
  bottom: "Add_24"
  bottom: "ConvNd_44"
  top: "Add_25"
}
layer {
  name: "Concat_9"
  type: "Concat"
  bottom: "ConvNd_40"
  bottom: "ConvNd_41"
  bottom: "Add_23"
  bottom: "Add_24"
  bottom: "Add_25"
  top: "Concat_9"
  concat_param {
    axis: 1
  }
}
layer {
  name: "Add_26"
  type: "Eltwise"
  bottom: "BatchNorm_9"
  bottom: "Concat_9"
  top: "Add_26"
}
layer {
  name: "BatchNorm_10"
  type: "BatchNorm"
  bottom: "Add_26"
  top: "BatchNorm_10"
  param {
    lr_mult: 1
    decay_mult: 0
  }
  param {
    lr_mult: 1
    decay_mult: 0
  }
  param {
    lr_mult: 0
    decay_mult: 0
  }
  param {
    lr_mult: 0
    decay_mult: 0
  }
  batch_norm_param {
    use_global_stats: true
    eps: 1e-05
    scale_filler {
      type: "constant"
      value: 1
    }
    bias_filler {
      type: "constant"
      value: 0
    }
  }
}
layer {
  name: "Threshold_10"
  type: "ReLU"
  bottom: "BatchNorm_10"
  top: "BatchNorm_10"
}
layer {
  name: "ConvNd_45"
  type: "Convolution"
  bottom: "BatchNorm_10"
  top: "ConvNd_45"
  convolution_param {
    num_output: 25
    bias_term: false
    pad: 0
    kernel_size: 1
    group: 1
    stride: 1
    weight_filler {
      type: "msra"
    }
    dilation: 1
  }
}
layer {
  name: "ConvNd_46"
  type: "Convolution"
  bottom: "ConvNd_45"
  top: "ConvNd_46"
  convolution_param {
    num_output: 28
    bias_term: false
    pad: 1
    kernel_size: 3
    group: 1
    stride: 1
    weight_filler {
      type: "msra"
    }
    dilation: 1
  }
}
layer {
  name: "ConvNd_47"
  type: "Convolution"
  bottom: "ConvNd_45"
  top: "ConvNd_47"
  convolution_param {
    num_output: 25
    bias_term: false
    pad: 2
    kernel_size: 3
    group: 1
    stride: 1
    weight_filler {
      type: "msra"
    }
    dilation: 2
  }
}
layer {
  name: "ConvNd_48"
  type: "Convolution"
  bottom: "ConvNd_45"
  top: "ConvNd_48"
  convolution_param {
    num_output: 25
    bias_term: false
    pad: 4
    kernel_size: 3
    group: 1
    stride: 1
    weight_filler {
      type: "msra"
    }
    dilation: 4
  }
}
layer {
  name: "Add_27"
  type: "Eltwise"
  bottom: "ConvNd_47"
  bottom: "ConvNd_48"
  top: "Add_27"
}
layer {
  name: "ConvNd_49"
  type: "Convolution"
  bottom: "ConvNd_45"
  top: "ConvNd_49"
  convolution_param {
    num_output: 25
    bias_term: false
    pad: 8
    kernel_size: 3
    group: 1
    stride: 1
    weight_filler {
      type: "msra"
    }
    dilation: 8
  }
}
layer {
  name: "Add_28"
  type: "Eltwise"
  bottom: "Add_27"
  bottom: "ConvNd_49"
  top: "Add_28"
}
layer {
  name: "ConvNd_50"
  type: "Convolution"
  bottom: "ConvNd_45"
  top: "ConvNd_50"
  convolution_param {
    num_output: 25
    bias_term: false
    pad: 16
    kernel_size: 3
    group: 1
    stride: 1
    weight_filler {
      type: "msra"
    }
    dilation: 16
  }
}
layer {
  name: "Add_29"
  type: "Eltwise"
  bottom: "Add_28"
  bottom: "ConvNd_50"
  top: "Add_29"
}
layer {
  name: "Concat_10"
  type: "Concat"
  bottom: "ConvNd_46"
  bottom: "ConvNd_47"
  bottom: "Add_27"
  bottom: "Add_28"
  bottom: "Add_29"
  top: "Concat_10"
  concat_param {
    axis: 1
  }
}
layer {
  name: "Add_30"
  type: "Eltwise"
  bottom: "BatchNorm_10"
  bottom: "Concat_10"
  top: "Add_30"
}
layer {
  name: "BatchNorm_11"
  type: "BatchNorm"
  bottom: "Add_30"
  top: "BatchNorm_11"
  param {
    lr_mult: 1
    decay_mult: 0
  }
  param {
    lr_mult: 1
    decay_mult: 0
  }
  param {
    lr_mult: 0
    decay_mult: 0
  }
  param {
    lr_mult: 0
    decay_mult: 0
  }
  batch_norm_param {
    use_global_stats: true
    eps: 1e-05
    scale_filler {
      type: "constant"
      value: 1
    }
    bias_filler {
      type: "constant"
      value: 0
    }
  }
}
layer {
  name: "Threshold_11"
  type: "ReLU"
  bottom: "BatchNorm_11"
  top: "BatchNorm_11"
}
layer {
  name: "ConvNd_51"
  type: "Convolution"
  bottom: "BatchNorm_11"
  top: "ConvNd_51"
  convolution_param {
    num_output: 25
    bias_term: false
    pad: 0
    kernel_size: 1
    group: 1
    stride: 1
    weight_filler {
      type: "msra"
    }
    dilation: 1
  }
}
layer {
  name: "ConvNd_52"
  type: "Convolution"
  bottom: "ConvNd_51"
  top: "ConvNd_52"
  convolution_param {
    num_output: 28
    bias_term: false
    pad: 1
    kernel_size: 3
    group: 1
    stride: 1
    weight_filler {
      type: "msra"
    }
    dilation: 1
  }
}
layer {
  name: "ConvNd_53"
  type: "Convolution"
  bottom: "ConvNd_51"
  top: "ConvNd_53"
  convolution_param {
    num_output: 25
    bias_term: false
    pad: 2
    kernel_size: 3
    group: 1
    stride: 1
    weight_filler {
      type: "msra"
    }
    dilation: 2
  }
}
layer {
  name: "ConvNd_54"
  type: "Convolution"
  bottom: "ConvNd_51"
  top: "ConvNd_54"
  convolution_param {
    num_output: 25
    bias_term: false
    pad: 4
    kernel_size: 3
    group: 1
    stride: 1
    weight_filler {
      type: "msra"
    }
    dilation: 4
  }
}
layer {
  name: "Add_31"
  type: "Eltwise"
  bottom: "ConvNd_53"
  bottom: "ConvNd_54"
  top: "Add_31"
}
layer {
  name: "ConvNd_55"
  type: "Convolution"
  bottom: "ConvNd_51"
  top: "ConvNd_55"
  convolution_param {
    num_output: 25
    bias_term: false
    pad: 8
    kernel_size: 3
    group: 1
    stride: 1
    weight_filler {
      type: "msra"
    }
    dilation: 8
  }
}
layer {
  name: "Add_32"
  type: "Eltwise"
  bottom: "Add_31"
  bottom: "ConvNd_55"
  top: "Add_32"
}
layer {
  name: "ConvNd_56"
  type: "Convolution"
  bottom: "ConvNd_51"
  top: "ConvNd_56"
  convolution_param {
    num_output: 25
    bias_term: false
    pad: 16
    kernel_size: 3
    group: 1
    stride: 1
    weight_filler {
      type: "msra"
    }
    dilation: 16
  }
}
layer {
  name: "Add_33"
  type: "Eltwise"
  bottom: "Add_32"
  bottom: "ConvNd_56"
  top: "Add_33"
}
layer {
  name: "Concat_11"
  type: "Concat"
  bottom: "ConvNd_52"
  bottom: "ConvNd_53"
  bottom: "Add_31"
  bottom: "Add_32"
  bottom: "Add_33"
  top: "Concat_11"
  concat_param {
    axis: 1
  }
}
layer {
  name: "Add_34"
  type: "Eltwise"
  bottom: "BatchNorm_11"
  bottom: "Concat_11"
  top: "Add_34"
}
layer {
  name: "BatchNorm_12"
  type: "BatchNorm"
  bottom: "Add_34"
  top: "BatchNorm_12"
  param {
    lr_mult: 1
    decay_mult: 0
  }
  param {
    lr_mult: 1
    decay_mult: 0
  }
  param {
    lr_mult: 0
    decay_mult: 0
  }
  param {
    lr_mult: 0
    decay_mult: 0
  }
  batch_norm_param {
    use_global_stats: true
    eps: 1e-05
    scale_filler {
      type: "constant"
      value: 1
    }
    bias_filler {
      type: "constant"
      value: 0
    }
  }
}
layer {
  name: "Threshold_12"
  type: "ReLU"
  bottom: "BatchNorm_12"
  top: "BatchNorm_12"
}
layer {
  name: "ConvNd_57"
  type: "Convolution"
  bottom: "BatchNorm_12"
  top: "ConvNd_57"
  convolution_param {
    num_output: 25
    bias_term: false
    pad: 0
    kernel_size: 1
    group: 1
    stride: 1
    weight_filler {
      type: "msra"
    }
    dilation: 1
  }
}
layer {
  name: "ConvNd_58"
  type: "Convolution"
  bottom: "ConvNd_57"
  top: "ConvNd_58"
  convolution_param {
    num_output: 28
    bias_term: false
    pad: 1
    kernel_size: 3
    group: 1
    stride: 1
    weight_filler {
      type: "msra"
    }
    dilation: 1
  }
}
layer {
  name: "ConvNd_59"
  type: "Convolution"
  bottom: "ConvNd_57"
  top: "ConvNd_59"
  convolution_param {
    num_output: 25
    bias_term: false
    pad: 2
    kernel_size: 3
    group: 1
    stride: 1
    weight_filler {
      type: "msra"
    }
    dilation: 2
  }
}
layer {
  name: "ConvNd_60"
  type: "Convolution"
  bottom: "ConvNd_57"
  top: "ConvNd_60"
  convolution_param {
    num_output: 25
    bias_term: false
    pad: 4
    kernel_size: 3
    group: 1
   
I0715 11:28:56.829849  7536 layer_factory.hpp:123] Creating layer data
I0715 11:28:56.829880  7536 net.cpp:140] Creating Layer data
I0715 11:28:56.829892  7536 net.cpp:455] data -> data
I0715 11:28:56.829908  7536 net.cpp:455] data -> label
I0715 11:28:56.829934  7536 image_seg_data_layer.cpp:46] Opening file ../data/val_img_seg_nomap.txt
I0715 11:28:56.830499  7536 image_seg_data_layer.cpp:68] A total of 500 images.
I0715 11:28:56.899286  7536 image_seg_data_layer.cpp:97] output data size: 1,3,1024,2048
I0715 11:28:57.041118  7536 internal_thread.cpp:73] Starting internal thread(s) on GPU 0
I0715 11:28:57.041234  7536 net.cpp:190] Setting up data
I0715 11:28:57.041247  7536 net.cpp:197] Top shape: 1 3 1024 2048 (6291456)
I0715 11:28:57.041255  7536 net.cpp:197] Top shape: 1 1 1024 2048 (2097152)
I0715 11:28:57.041262  7536 net.cpp:205] Memory required for data: 33554432
I0715 11:28:57.041270  7536 layer_factory.hpp:123] Creating layer resize_down
I0715 11:28:57.041287  7536 net.cpp:140] Creating Layer resize_down
I0715 11:28:57.041293  7536 net.cpp:481] resize_down <- data
I0715 11:28:57.041312  7536 net.cpp:442] resize_down -> data (in-place)
I0715 11:28:57.041326  7536 net.cpp:190] Setting up resize_down
I0715 11:28:57.041334  7536 net.cpp:197] Top shape: 1 3 512 1024 (1572864)
I0715 11:28:57.041338  7536 net.cpp:205] Memory required for data: 39845888
I0715 11:28:57.041347  7536 layer_factory.hpp:123] Creating layer data_resize_down_0_split
I0715 11:28:57.041357  7536 net.cpp:140] Creating Layer data_resize_down_0_split
I0715 11:28:57.041363  7536 net.cpp:481] data_resize_down_0_split <- data
I0715 11:28:57.041373  7536 net.cpp:455] data_resize_down_0_split -> data_resize_down_0_split_0
I0715 11:28:57.041389  7536 net.cpp:455] data_resize_down_0_split -> data_resize_down_0_split_1
I0715 11:28:57.041402  7536 net.cpp:455] data_resize_down_0_split -> data_resize_down_0_split_2
I0715 11:28:57.041509  7536 net.cpp:190] Setting up data_resize_down_0_split
I0715 11:28:57.041517  7536 net.cpp:197] Top shape: 1 3 512 1024 (1572864)
I0715 11:28:57.041523  7536 net.cpp:197] Top shape: 1 3 512 1024 (1572864)
I0715 11:28:57.041532  7536 net.cpp:197] Top shape: 1 3 512 1024 (1572864)
I0715 11:28:57.041538  7536 net.cpp:205] Memory required for data: 58720256
I0715 11:28:57.041543  7536 layer_factory.hpp:123] Creating layer ConvNd_1
I0715 11:28:57.041555  7536 net.cpp:140] Creating Layer ConvNd_1
I0715 11:28:57.041563  7536 net.cpp:481] ConvNd_1 <- data_resize_down_0_split_0
I0715 11:28:57.041571  7536 net.cpp:455] ConvNd_1 -> ConvNd_1
I0715 11:28:57.042999  7536 net.cpp:190] Setting up ConvNd_1
I0715 11:28:57.043011  7536 net.cpp:197] Top shape: 1 16 256 512 (2097152)
I0715 11:28:57.043015  7536 net.cpp:205] Memory required for data: 67108864
I0715 11:28:57.043035  7536 layer_factory.hpp:123] Creating layer BatchNorm_1
I0715 11:28:57.043051  7536 net.cpp:140] Creating Layer BatchNorm_1
I0715 11:28:57.043059  7536 net.cpp:481] BatchNorm_1 <- ConvNd_1
I0715 11:28:57.043068  7536 net.cpp:455] BatchNorm_1 -> BatchNorm_1
I0715 11:28:57.044663  7536 net.cpp:190] Setting up BatchNorm_1
I0715 11:28:57.044675  7536 net.cpp:197] Top shape: 1 16 256 512 (2097152)
I0715 11:28:57.044679  7536 net.cpp:205] Memory required for data: 75497472
I0715 11:28:57.044701  7536 layer_factory.hpp:123] Creating layer Threshold_1
I0715 11:28:57.044711  7536 net.cpp:140] Creating Layer Threshold_1
I0715 11:28:57.044718  7536 net.cpp:481] Threshold_1 <- BatchNorm_1
I0715 11:28:57.044729  7536 net.cpp:442] Threshold_1 -> BatchNorm_1 (in-place)
I0715 11:28:57.044746  7536 net.cpp:190] Setting up Threshold_1
I0715 11:28:57.044752  7536 net.cpp:197] Top shape: 1 16 256 512 (2097152)
I0715 11:28:57.044756  7536 net.cpp:205] Memory required for data: 83886080
I0715 11:28:57.044761  7536 layer_factory.hpp:123] Creating layer BatchNorm_1_Threshold_1_0_split
I0715 11:28:57.044772  7536 net.cpp:140] Creating Layer BatchNorm_1_Threshold_1_0_split
I0715 11:28:57.044778  7536 net.cpp:481] BatchNorm_1_Threshold_1_0_split <- BatchNorm_1
I0715 11:28:57.044785  7536 net.cpp:455] BatchNorm_1_Threshold_1_0_split -> BatchNorm_1_Threshold_1_0_split_0
I0715 11:28:57.044798  7536 net.cpp:455] BatchNorm_1_Threshold_1_0_split -> BatchNorm_1_Threshold_1_0_split_1
I0715 11:28:57.044840  7536 net.cpp:190] Setting up BatchNorm_1_Threshold_1_0_split
I0715 11:28:57.044847  7536 net.cpp:197] Top shape: 1 16 256 512 (2097152)
I0715 11:28:57.044852  7536 net.cpp:197] Top shape: 1 16 256 512 (2097152)
I0715 11:28:57.044859  7536 net.cpp:205] Memory required for data: 100663296
I0715 11:28:57.044864  7536 layer_factory.hpp:123] Creating layer AvgPool2d_1
I0715 11:28:57.044876  7536 net.cpp:140] Creating Layer AvgPool2d_1
I0715 11:28:57.044883  7536 net.cpp:481] AvgPool2d_1 <- data_resize_down_0_split_1
I0715 11:28:57.044890  7536 net.cpp:455] AvgPool2d_1 -> AvgPool2d_1
I0715 11:28:57.044925  7536 net.cpp:190] Setting up AvgPool2d_1
I0715 11:28:57.044934  7536 net.cpp:197] Top shape: 1 3 256 512 (393216)
I0715 11:28:57.044937  7536 net.cpp:205] Memory required for data: 102236160
I0715 11:28:57.044945  7536 layer_factory.hpp:123] Creating layer Concat_1
I0715 11:28:57.044955  7536 net.cpp:140] Creating Layer Concat_1
I0715 11:28:57.044962  7536 net.cpp:481] Concat_1 <- BatchNorm_1_Threshold_1_0_split_0
I0715 11:28:57.044967  7536 net.cpp:481] Concat_1 <- AvgPool2d_1
I0715 11:28:57.044975  7536 net.cpp:455] Concat_1 -> Concat_1
I0715 11:28:57.045006  7536 net.cpp:190] Setting up Concat_1
I0715 11:28:57.045012  7536 net.cpp:197] Top shape: 1 19 256 512 (2490368)
I0715 11:28:57.045017  7536 net.cpp:205] Memory required for data: 112197632
I0715 11:28:57.045022  7536 layer_factory.hpp:123] Creating layer BatchNorm_2
I0715 11:28:57.045035  7536 net.cpp:140] Creating Layer BatchNorm_2
I0715 11:28:57.045042  7536 net.cpp:481] BatchNorm_2 <- Concat_1
I0715 11:28:57.045053  7536 net.cpp:455] BatchNorm_2 -> BatchNorm_2
I0715 11:28:57.045722  7536 net.cpp:190] Setting up BatchNorm_2
I0715 11:28:57.045732  7536 net.cpp:197] Top shape: 1 19 256 512 (2490368)
I0715 11:28:57.045737  7536 net.cpp:205] Memory required for data: 122159104
I0715 11:28:57.045754  7536 layer_factory.hpp:123] Creating layer Threshold_2
I0715 11:28:57.045763  7536 net.cpp:140] Creating Layer Threshold_2
I0715 11:28:57.045768  7536 net.cpp:481] Threshold_2 <- BatchNorm_2
I0715 11:28:57.045776  7536 net.cpp:442] Threshold_2 -> BatchNorm_2 (in-place)
I0715 11:28:57.045789  7536 net.cpp:190] Setting up Threshold_2
I0715 11:28:57.045796  7536 net.cpp:197] Top shape: 1 19 256 512 (2490368)
I0715 11:28:57.045801  7536 net.cpp:205] Memory required for data: 132120576
I0715 11:28:57.045809  7536 layer_factory.hpp:123] Creating layer ConvNd_2
I0715 11:28:57.045820  7536 net.cpp:140] Creating Layer ConvNd_2
I0715 11:28:57.045826  7536 net.cpp:481] ConvNd_2 <- BatchNorm_2
I0715 11:28:57.045832  7536 net.cpp:455] ConvNd_2 -> ConvNd_2
I0715 11:28:57.047823  7536 net.cpp:190] Setting up ConvNd_2
I0715 11:28:57.047837  7536 net.cpp:197] Top shape: 1 12 128 256 (393216)
I0715 11:28:57.047840  7536 net.cpp:205] Memory required for data: 133693440
I0715 11:28:57.047847  7536 layer_factory.hpp:123] Creating layer ConvNd_2_ConvNd_2_0_split
I0715 11:28:57.047859  7536 net.cpp:140] Creating Layer ConvNd_2_ConvNd_2_0_split
I0715 11:28:57.047865  7536 net.cpp:481] ConvNd_2_ConvNd_2_0_split <- ConvNd_2
I0715 11:28:57.047875  7536 net.cpp:455] ConvNd_2_ConvNd_2_0_split -> ConvNd_2_ConvNd_2_0_split_0
I0715 11:28:57.047889  7536 net.cpp:455] ConvNd_2_ConvNd_2_0_split -> ConvNd_2_ConvNd_2_0_split_1
I0715 11:28:57.047900  7536 net.cpp:455] ConvNd_2_ConvNd_2_0_split -> ConvNd_2_ConvNd_2_0_split_2
I0715 11:28:57.047912  7536 net.cpp:455] ConvNd_2_ConvNd_2_0_split -> ConvNd_2_ConvNd_2_0_split_3
I0715 11:28:57.047924  7536 net.cpp:455] ConvNd_2_ConvNd_2_0_split -> ConvNd_2_ConvNd_2_0_split_4
I0715 11:28:57.047991  7536 net.cpp:190] Setting up ConvNd_2_ConvNd_2_0_split
I0715 11:28:57.047999  7536 net.cpp:197] Top shape: 1 12 128 256 (393216)
I0715 11:28:57.048004  7536 net.cpp:197] Top shape: 1 12 128 256 (393216)
I0715 11:28:57.048012  7536 net.cpp:197] Top shape: 1 12 128 256 (393216)
I0715 11:28:57.048022  7536 net.cpp:197] Top shape: 1 12 128 256 (393216)
I0715 11:28:57.048029  7536 net.cpp:197] Top shape: 1 12 128 256 (393216)
I0715 11:28:57.048034  7536 net.cpp:205] Memory required for data: 141557760
I0715 11:28:57.048040  7536 layer_factory.hpp:123] Creating layer ConvNd_3
I0715 11:28:57.048054  7536 net.cpp:140] Creating Layer ConvNd_3
I0715 11:28:57.048060  7536 net.cpp:481] ConvNd_3 <- ConvNd_2_ConvNd_2_0_split_0
I0715 11:28:57.048069  7536 net.cpp:455] ConvNd_3 -> ConvNd_3
I0715 11:28:57.048262  7536 net.cpp:190] Setting up ConvNd_3
I0715 11:28:57.048270  7536 net.cpp:197] Top shape: 1 16 128 256 (524288)
I0715 11:28:57.048274  7536 net.cpp:205] Memory required for data: 143654912
I0715 11:28:57.048281  7536 layer_factory.hpp:123] Creating layer ConvNd_4
I0715 11:28:57.048296  7536 net.cpp:140] Creating Layer ConvNd_4
I0715 11:28:57.048302  7536 net.cpp:481] ConvNd_4 <- ConvNd_2_ConvNd_2_0_split_1
I0715 11:28:57.048310  7536 net.cpp:455] ConvNd_4 -> ConvNd_4
I0715 11:28:57.048491  7536 net.cpp:190] Setting up ConvNd_4
I0715 11:28:57.048499  7536 net.cpp:197] Top shape: 1 12 128 256 (393216)
I0715 11:28:57.048503  7536 net.cpp:205] Memory required for data: 145227776
I0715 11:28:57.048511  7536 layer_factory.hpp:123] Creating layer ConvNd_4_ConvNd_4_0_split
I0715 11:28:57.048521  7536 net.cpp:140] Creating Layer ConvNd_4_ConvNd_4_0_split
I0715 11:28:57.048527  7536 net.cpp:481] ConvNd_4_ConvNd_4_0_split <- ConvNd_4
I0715 11:28:57.048535  7536 net.cpp:455] ConvNd_4_ConvNd_4_0_split -> ConvNd_4_ConvNd_4_0_split_0
I0715 11:28:57.048547  7536 net.cpp:455] ConvNd_4_ConvNd_4_0_split -> ConvNd_4_ConvNd_4_0_split_1
I0715 11:28:57.048586  7536 net.cpp:190] Setting up ConvNd_4_ConvNd_4_0_split
I0715 11:28:57.048593  7536 net.cpp:197] Top shape: 1 12 128 256 (393216)
I0715 11:28:57.048599  7536 net.cpp:197] Top shape: 1 12 128 256 (393216)
I0715 11:28:57.048602  7536 net.cpp:205] Memory required for data: 148373504
I0715 11:28:57.048609  7536 layer_factory.hpp:123] Creating layer ConvNd_5
I0715 11:28:57.048624  7536 net.cpp:140] Creating Layer ConvNd_5
I0715 11:28:57.048630  7536 net.cpp:481] ConvNd_5 <- ConvNd_2_ConvNd_2_0_split_2
I0715 11:28:57.048638  7536 net.cpp:455] ConvNd_5 -> ConvNd_5
I0715 11:28:57.048815  7536 net.cpp:190] Setting up ConvNd_5
I0715 11:28:57.048822  7536 net.cpp:197] Top shape: 1 12 128 256 (393216)
I0715 11:28:57.048825  7536 net.cpp:205] Memory required for data: 149946368
I0715 11:28:57.048833  7536 layer_factory.hpp:123] Creating layer Add_1
I0715 11:28:57.048843  7536 net.cpp:140] Creating Layer Add_1
I0715 11:28:57.048851  7536 net.cpp:481] Add_1 <- ConvNd_4_ConvNd_4_0_split_0
I0715 11:28:57.048856  7536 net.cpp:481] Add_1 <- ConvNd_5
I0715 11:28:57.048866  7536 net.cpp:455] Add_1 -> Add_1
I0715 11:28:57.048895  7536 net.cpp:190] Setting up Add_1
I0715 11:28:57.048902  7536 net.cpp:197] Top shape: 1 12 128 256 (393216)
I0715 11:28:57.048905  7536 net.cpp:205] Memory required for data: 151519232
I0715 11:28:57.048910  7536 layer_factory.hpp:123] Creating layer Add_1_Add_1_0_split
I0715 11:28:57.048918  7536 net.cpp:140] Creating Layer Add_1_Add_1_0_split
I0715 11:28:57.048925  7536 net.cpp:481] Add_1_Add_1_0_split <- Add_1
I0715 11:28:57.048934  7536 net.cpp:455] Add_1_Add_1_0_split -> Add_1_Add_1_0_split_0
I0715 11:28:57.048945  7536 net.cpp:455] Add_1_Add_1_0_split -> Add_1_Add_1_0_split_1
I0715 11:28:57.048983  7536 net.cpp:190] Setting up Add_1_Add_1_0_split
I0715 11:28:57.048990  7536 net.cpp:197] Top shape: 1 12 128 256 (393216)
I0715 11:28:57.048995  7536 net.cpp:197] Top shape: 1 12 128 256 (393216)
I0715 11:28:57.049000  7536 net.cpp:205] Memory required for data: 154664960
I0715 11:28:57.049005  7536 layer_factory.hpp:123] Creating layer ConvNd_6
I0715 11:28:57.049018  7536 net.cpp:140] Creating Layer ConvNd_6
I0715 11:28:57.049024  7536 net.cpp:481] ConvNd_6 <- ConvNd_2_ConvNd_2_0_split_3
I0715 11:28:57.049033  7536 net.cpp:455] ConvNd_6 -> ConvNd_6
I0715 11:28:57.049212  7536 net.cpp:190] Setting up ConvNd_6
I0715 11:28:57.049219  7536 net.cpp:197] Top shape: 1 12 128 256 (393216)
I0715 11:28:57.049223  7536 net.cpp:205] Memory required for data: 156237824
I0715 11:28:57.049230  7536 layer_factory.hpp:123] Creating layer Add_2
I0715 11:28:57.049240  7536 net.cpp:140] Creating Layer Add_2
I0715 11:28:57.049247  7536 net.cpp:481] Add_2 <- Add_1_Add_1_0_split_0
I0715 11:28:57.049253  7536 net.cpp:481] Add_2 <- ConvNd_6
I0715 11:28:57.049263  7536 net.cpp:455] Add_2 -> Add_2
I0715 11:28:57.049291  7536 net.cpp:190] Setting up Add_2
I0715 11:28:57.049298  7536 net.cpp:197] Top shape: 1 12 128 256 (393216)
I0715 11:28:57.049301  7536 net.cpp:205] Memory required for data: 157810688
I0715 11:28:57.049305  7536 layer_factory.hpp:123] Creating layer Add_2_Add_2_0_split
I0715 11:28:57.049314  7536 net.cpp:140] Creating Layer Add_2_Add_2_0_split
I0715 11:28:57.049320  7536 net.cpp:481] Add_2_Add_2_0_split <- Add_2
I0715 11:28:57.049329  7536 net.cpp:455] Add_2_Add_2_0_split -> Add_2_Add_2_0_split_0
I0715 11:28:57.049340  7536 net.cpp:455] Add_2_Add_2_0_split -> Add_2_Add_2_0_split_1
I0715 11:28:57.049378  7536 net.cpp:190] Setting up Add_2_Add_2_0_split
I0715 11:28:57.049384  7536 net.cpp:197] Top shape: 1 12 128 256 (393216)
I0715 11:28:57.049389  7536 net.cpp:197] Top shape: 1 12 128 256 (393216)
I0715 11:28:57.049393  7536 net.cpp:205] Memory required for data: 160956416
I0715 11:28:57.049398  7536 layer_factory.hpp:123] Creating layer ConvNd_7
I0715 11:28:57.049412  7536 net.cpp:140] Creating Layer ConvNd_7
I0715 11:28:57.049417  7536 net.cpp:481] ConvNd_7 <- ConvNd_2_ConvNd_2_0_split_4
I0715 11:28:57.049427  7536 net.cpp:455] ConvNd_7 -> ConvNd_7
I0715 11:28:57.049612  7536 net.cpp:190] Setting up ConvNd_7
I0715 11:28:57.049619  7536 net.cpp:197] Top shape: 1 12 128 256 (393216)
I0715 11:28:57.049623  7536 net.cpp:205] Memory required for data: 162529280
I0715 11:28:57.049633  7536 layer_factory.hpp:123] Creating layer Add_3
I0715 11:28:57.049643  7536 net.cpp:140] Creating Layer Add_3
I0715 11:28:57.049650  7536 net.cpp:481] Add_3 <- Add_2_Add_2_0_split_0
I0715 11:28:57.049660  7536 net.cpp:481] Add_3 <- ConvNd_7
I0715 11:28:57.049667  7536 net.cpp:455] Add_3 -> Add_3
I0715 11:28:57.049697  7536 net.cpp:190] Setting up Add_3
I0715 11:28:57.049705  7536 net.cpp:197] Top shape: 1 12 128 256 (393216)
I0715 11:28:57.049707  7536 net.cpp:205] Memory required for data: 164102144
I0715 11:28:57.049712  7536 layer_factory.hpp:123] Creating layer Concat_2
I0715 11:28:57.049721  7536 net.cpp:140] Creating Layer Concat_2
I0715 11:28:57.049728  7536 net.cpp:481] Concat_2 <- ConvNd_3
I0715 11:28:57.049736  7536 net.cpp:481] Concat_2 <- ConvNd_4_ConvNd_4_0_split_1
I0715 11:28:57.049743  7536 net.cpp:481] Concat_2 <- Add_1_Add_1_0_split_1
I0715 11:28:57.049751  7536 net.cpp:481] Concat_2 <- Add_2_Add_2_0_split_1
I0715 11:28:57.049757  7536 net.cpp:481] Concat_2 <- Add_3
I0715 11:28:57.049767  7536 net.cpp:455] Concat_2 -> Concat_2
I0715 11:28:57.049798  7536 net.cpp:190] Setting up Concat_2
I0715 11:28:57.049804  7536 net.cpp:197] Top shape: 1 64 128 256 (2097152)
I0715 11:28:57.049808  7536 net.cpp:205] Memory required for data: 172490752
I0715 11:28:57.049813  7536 layer_factory.hpp:123] Creating layer BatchNorm_3
I0715 11:28:57.049824  7536 net.cpp:140] Creating Layer BatchNorm_3
I0715 11:28:57.049831  7536 net.cpp:481] BatchNorm_3 <- Concat_2
I0715 11:28:57.049842  7536 net.cpp:455] BatchNorm_3 -> BatchNorm_3
I0715 11:28:57.051221  7536 net.cpp:190] Setting up BatchNorm_3
I0715 11:28:57.051234  7536 net.cpp:197] Top shape: 1 64 128 256 (2097152)
I0715 11:28:57.051237  7536 net.cpp:205] Memory required for data: 180879360
I0715 11:28:57.051252  7536 layer_factory.hpp:123] Creating layer Threshold_3
I0715 11:28:57.051262  7536 net.cpp:140] Creating Layer Threshold_3
I0715 11:28:57.051270  7536 net.cpp:481] Threshold_3 <- BatchNorm_3
I0715 11:28:57.051280  7536 net.cpp:442] Threshold_3 -> BatchNorm_3 (in-place)
I0715 11:28:57.051293  7536 net.cpp:190] Setting up Threshold_3
I0715 11:28:57.051302  7536 net.cpp:197] Top shape: 1 64 128 256 (2097152)
I0715 11:28:57.051309  7536 net.cpp:205] Memory required for data: 189267968
I0715 11:28:57.051314  7536 layer_factory.hpp:123] Creating layer BatchNorm_3_Threshold_3_0_split
I0715 11:28:57.051324  7536 net.cpp:140] Creating Layer BatchNorm_3_Threshold_3_0_split
I0715 11:28:57.051331  7536 net.cpp:481] BatchNorm_3_Threshold_3_0_split <- BatchNorm_3
I0715 11:28:57.051339  7536 net.cpp:455] BatchNorm_3_Threshold_3_0_split -> BatchNorm_3_Threshold_3_0_split_0
I0715 11:28:57.051352  7536 net.cpp:455] BatchNorm_3_Threshold_3_0_split -> BatchNorm_3_Threshold_3_0_split_1
I0715 11:28:57.051362  7536 net.cpp:455] BatchNorm_3_Threshold_3_0_split -> BatchNorm_3_Threshold_3_0_split_2
I0715 11:28:57.051412  7536 net.cpp:190] Setting up BatchNorm_3_Threshold_3_0_split
I0715 11:28:57.051419  7536 net.cpp:197] Top shape: 1 64 128 256 (2097152)
I0715 11:28:57.051424  7536 net.cpp:197] Top shape: 1 64 128 256 (2097152)
I0715 11:28:57.051430  7536 net.cpp:197] Top shape: 1 64 128 256 (2097152)
I0715 11:28:57.051436  7536 net.cpp:205] Memory required for data: 214433792
I0715 11:28:57.051442  7536 layer_factory.hpp:123] Creating layer ConvNd_8
I0715 11:28:57.051456  7536 net.cpp:140] Creating Layer ConvNd_8
I0715 11:28:57.051462  7536 net.cpp:481] ConvNd_8 <- BatchNorm_3_Threshold_3_0_split_0
I0715 11:28:57.051470  7536 net.cpp:455] ConvNd_8 -> ConvNd_8
I0715 11:28:57.051661  7536 net.cpp:190] Setting up ConvNd_8
I0715 11:28:57.051671  7536 net.cpp:197] Top shape: 1 12 128 256 (393216)
I0715 11:28:57.051674  7536 net.cpp:205] Memory required for data: 216006656
I0715 11:28:57.051681  7536 layer_factory.hpp:123] Creating layer ConvNd_8_ConvNd_8_0_split
I0715 11:28:57.051692  7536 net.cpp:140] Creating Layer ConvNd_8_ConvNd_8_0_split
I0715 11:28:57.051699  7536 net.cpp:481] ConvNd_8_ConvNd_8_0_split <- ConvNd_8
I0715 11:28:57.051708  7536 net.cpp:455] ConvNd_8_ConvNd_8_0_split -> ConvNd_8_ConvNd_8_0_split_0
I0715 11:28:57.051721  7536 net.cpp:455] ConvNd_8_ConvNd_8_0_split -> ConvNd_8_ConvNd_8_0_split_1
I0715 11:28:57.051733  7536 net.cpp:455] ConvNd_8_ConvNd_8_0_split -> ConvNd_8_ConvNd_8_0_split_2
I0715 11:28:57.051745  7536 net.cpp:455] ConvNd_8_ConvNd_8_0_split -> ConvNd_8_ConvNd_8_0_split_3
I0715 11:28:57.051765  7536 net.cpp:455] ConvNd_8_ConvNd_8_0_split -> ConvNd_8_ConvNd_8_0_split_4
I0715 11:28:57.051838  7536 net.cpp:190] Setting up ConvNd_8_ConvNd_8_0_split
I0715 11:28:57.051846  7536 net.cpp:197] Top shape: 1 12 128 256 (393216)
I0715 11:28:57.051851  7536 net.cpp:197] Top shape: 1 12 128 256 (393216)
I0715 11:28:57.051857  7536 net.cpp:197] Top shape: 1 12 128 256 (393216)
I0715 11:28:57.051865  7536 net.cpp:197] Top shape: 1 12 128 256 (393216)
I0715 11:28:57.051874  7536 net.cpp:197] Top shape: 1 12 128 256 (393216)
I0715 11:28:57.051880  7536 net.cpp:205] Memory required for data: 223870976
I0715 11:28:57.051885  7536 layer_factory.hpp:123] Creating layer ConvNd_9
I0715 11:28:57.051898  7536 net.cpp:140] Creating Layer ConvNd_9
I0715 11:28:57.051903  7536 net.cpp:481] ConvNd_9 <- ConvNd_8_ConvNd_8_0_split_0
I0715 11:28:57.051913  7536 net.cpp:455] ConvNd_9 -> ConvNd_9
I0715 11:28:57.052109  7536 net.cpp:190] Setting up ConvNd_9
I0715 11:28:57.052117  7536 net.cpp:197] Top shape: 1 16 128 256 (524288)
I0715 11:28:57.052121  7536 net.cpp:205] Memory required for data: 225968128
I0715 11:28:57.052129  7536 layer_factory.hpp:123] Creating layer ConvNd_10
I0715 11:28:57.052141  7536 net.cpp:140] Creating Layer ConvNd_10
I0715 11:28:57.052147  7536 net.cpp:481] ConvNd_10 <- ConvNd_8_ConvNd_8_0_split_1
I0715 11:28:57.052156  7536 net.cpp:455] ConvNd_10 -> ConvNd_10
I0715 11:28:57.052342  7536 net.cpp:190] Setting up ConvNd_10
I0715 11:28:57.052350  7536 net.cpp:197] Top shape: 1 12 128 256 (393216)
I0715 11:28:57.052353  7536 net.cpp:205] Memory required for data: 227540992
I0715 11:28:57.052361  7536 layer_factory.hpp:123] Creating layer ConvNd_10_ConvNd_10_0_split
I0715 11:28:57.052372  7536 net.cpp:140] Creating Layer ConvNd_10_ConvNd_10_0_split
I0715 11:28:57.052379  7536 net.cpp:481] ConvNd_10_ConvNd_10_0_split <- ConvNd_10
I0715 11:28:57.052387  7536 net.cpp:455] ConvNd_10_ConvNd_10_0_split -> ConvNd_10_ConvNd_10_0_split_0
I0715 11:28:57.052399  7536 net.cpp:455] ConvNd_10_ConvNd_10_0_split -> ConvNd_10_ConvNd_10_0_split_1
I0715 11:28:57.052439  7536 net.cpp:190] Setting up ConvNd_10_ConvNd_10_0_split
I0715 11:28:57.052445  7536 net.cpp:197] Top shape: 1 12 128 256 (393216)
I0715 11:28:57.052450  7536 net.cpp:197] Top shape: 1 12 128 256 (393216)
I0715 11:28:57.052455  7536 net.cpp:205] Memory required for data: 230686720
I0715 11:28:57.052459  7536 layer_factory.hpp:123] Creating layer ConvNd_11
I0715 11:28:57.052472  7536 net.cpp:140] Creating Layer ConvNd_11
I0715 11:28:57.052479  7536 net.cpp:481] ConvNd_11 <- ConvNd_8_ConvNd_8_0_split_2
I0715 11:28:57.052489  7536 net.cpp:455] ConvNd_11 -> ConvNd_11
I0715 11:28:57.052667  7536 net.cpp:190] Setting up ConvNd_11
I0715 11:28:57.052676  7536 net.cpp:197] Top shape: 1 12 128 256 (393216)
I0715 11:28:57.052680  7536 net.cpp:205] Memory required for data: 232259584
I0715 11:28:57.052686  7536 layer_factory.hpp:123] Creating layer Add_4
I0715 11:28:57.052696  7536 net.cpp:140] Creating Layer Add_4
I0715 11:28:57.052704  7536 net.cpp:481] Add_4 <- ConvNd_10_ConvNd_10_0_split_0
I0715 11:28:57.052711  7536 net.cpp:481] Add_4 <- ConvNd_11
I0715 11:28:57.052721  7536 net.cpp:455] Add_4 -> Add_4
I0715 11:28:57.052749  7536 net.cpp:190] Setting up Add_4
I0715 11:28:57.052755  7536 net.cpp:197] Top shape: 1 12 128 256 (393216)
I0715 11:28:57.052759  7536 net.cpp:205] Memory required for data: 233832448
I0715 11:28:57.052763  7536 layer_factory.hpp:123] Creating layer Add_4_Add_4_0_split
I0715 11:28:57.052772  7536 net.cpp:140] Creating Layer Add_4_Add_4_0_split
I0715 11:28:57.052778  7536 net.cpp:481] Add_4_Add_4_0_split <- Add_4
I0715 11:28:57.052786  7536 net.cpp:455] Add_4_Add_4_0_split -> Add_4_Add_4_0_split_0
I0715 11:28:57.052799  7536 net.cpp:455] Add_4_Add_4_0_split -> Add_4_Add_4_0_split_1
I0715 11:28:57.052836  7536 net.cpp:190] Setting up Add_4_Add_4_0_split
I0715 11:28:57.052844  7536 net.cpp:197] Top shape: 1 12 128 256 (393216)
I0715 11:28:57.052848  7536 net.cpp:197] Top shape: 1 12 128 256 (393216)
I0715 11:28:57.052853  7536 net.cpp:205] Memory required for data: 236978176
I0715 11:28:57.052860  7536 layer_factory.hpp:123] Creating layer ConvNd_12
I0715 11:28:57.052871  7536 net.cpp:140] Creating Layer ConvNd_12
I0715 11:28:57.052878  7536 net.cpp:481] ConvNd_12 <- ConvNd_8_ConvNd_8_0_split_3
I0715 11:28:57.052886  7536 net.cpp:455] ConvNd_12 -> ConvNd_12
I0715 11:28:57.053069  7536 net.cpp:190] Setting up ConvNd_12
I0715 11:28:57.053076  7536 net.cpp:197] Top shape: 1 12 128 256 (393216)
I0715 11:28:57.053081  7536 net.cpp:205] Memory required for data: 238551040
I0715 11:28:57.053087  7536 layer_factory.hpp:123] Creating layer Add_5
I0715 11:28:57.053097  7536 net.cpp:140] Creating Layer Add_5
I0715 11:28:57.053104  7536 net.cpp:481] Add_5 <- Add_4_Add_4_0_split_0
I0715 11:28:57.053110  7536 net.cpp:481] Add_5 <- ConvNd_12
I0715 11:28:57.053120  7536 net.cpp:455] Add_5 -> Add_5
I0715 11:28:57.053148  7536 net.cpp:190] Setting up Add_5
I0715 11:28:57.053154  7536 net.cpp:197] Top shape: 1 12 128 256 (393216)
I0715 11:28:57.053158  7536 net.cpp:205] Memory required for data: 240123904
I0715 11:28:57.053164  7536 layer_factory.hpp:123] Creating layer Add_5_Add_5_0_split
I0715 11:28:57.053171  7536 net.cpp:140] Creating Layer Add_5_Add_5_0_split
I0715 11:28:57.053179  7536 net.cpp:481] Add_5_Add_5_0_split <- Add_5
I0715 11:28:57.053187  7536 net.cpp:455] Add_5_Add_5_0_split -> Add_5_Add_5_0_split_0
I0715 11:28:57.053200  7536 net.cpp:455] Add_5_Add_5_0_split -> Add_5_Add_5_0_split_1
I0715 11:28:57.053236  7536 net.cpp:190] Setting up Add_5_Add_5_0_split
I0715 11:28:57.053243  7536 net.cpp:197] Top shape: 1 12 128 256 (393216)
I0715 11:28:57.053248  7536 net.cpp:197] Top shape: 1 12 128 256 (393216)
I0715 11:28:57.053252  7536 net.cpp:205] Memory required for data: 243269632
I0715 11:28:57.053259  7536 layer_factory.hpp:123] Creating layer ConvNd_13
I0715 11:28:57.053273  7536 net.cpp:140] Creating Layer ConvNd_13
I0715 11:28:57.053279  7536 net.cpp:481] ConvNd_13 <- ConvNd_8_ConvNd_8_0_split_4
I0715 11:28:57.053287  7536 net.cpp:455] ConvNd_13 -> ConvNd_13
I0715 11:28:57.053472  7536 net.cpp:190] Setting up ConvNd_13
I0715 11:28:57.053478  7536 net.cpp:197] Top shape: 1 12 128 256 (393216)
I0715 11:28:57.053483  7536 net.cpp:205] Memory required for data: 244842496
I0715 11:28:57.053488  7536 layer_factory.hpp:123] Creating layer Add_6
I0715 11:28:57.053498  7536 net.cpp:140] Creating Layer Add_6
I0715 11:28:57.053505  7536 net.cpp:481] Add_6 <- Add_5_Add_5_0_split_0
I0715 11:28:57.053512  7536 net.cpp:481] Add_6 <- ConvNd_13
I0715 11:28:57.053522  7536 net.cpp:455] Add_6 -> Add_6
I0715 11:28:57.053551  7536 net.cpp:190] Setting up Add_6
I0715 11:28:57.053557  7536 net.cpp:197] Top shape: 1 12 128 256 (393216)
I0715 11:28:57.053561  7536 net.cpp:205] Memory required for data: 246415360
I0715 11:28:57.053565  7536 layer_factory.hpp:123] Creating layer Concat_3
I0715 11:28:57.053575  7536 net.cpp:140] Creating Layer Concat_3
I0715 11:28:57.053581  7536 net.cpp:481] Concat_3 <- ConvNd_9
I0715 11:28:57.053588  7536 net.cpp:481] Concat_3 <- ConvNd_10_ConvNd_10_0_split_1
I0715 11:28:57.053596  7536 net.cpp:481] Concat_3 <- Add_4_Add_4_0_split_1
I0715 11:28:57.053604  7536 net.cpp:481] Concat_3 <- Add_5_Add_5_0_split_1
I0715 11:28:57.053611  7536 net.cpp:481] Concat_3 <- Add_6
I0715 11:28:57.053622  7536 net.cpp:455] Concat_3 -> Concat_3
I0715 11:28:57.053650  7536 net.cpp:190] Setting up Concat_3
I0715 11:28:57.053656  7536 net.cpp:197] Top shape: 1 64 128 256 (2097152)
I0715 11:28:57.053660  7536 net.cpp:205] Memory required for data: 254803968
I0715 11:28:57.053665  7536 layer_factory.hpp:123] Creating layer Add_7
I0715 11:28:57.053673  7536 net.cpp:140] Creating Layer Add_7
I0715 11:28:57.053679  7536 net.cpp:481] Add_7 <- BatchNorm_3_Threshold_3_0_split_1
I0715 11:28:57.053686  7536 net.cpp:481] Add_7 <- Concat_3
I0715 11:28:57.053695  7536 net.cpp:455] Add_7 -> Add_7
I0715 11:28:57.053725  7536 net.cpp:190] Setting up Add_7
I0715 11:28:57.053730  7536 net.cpp:197] Top shape: 1 64 128 256 (2097152)
I0715 11:28:57.053735  7536 net.cpp:205] Memory required for data: 263192576
I0715 11:28:57.053740  7536 layer_factory.hpp:123] Creating layer BatchNorm_4
I0715 11:28:57.053750  7536 net.cpp:140] Creating Layer BatchNorm_4
I0715 11:28:57.053756  7536 net.cpp:481] BatchNorm_4 <- Add_7
I0715 11:28:57.053766  7536 net.cpp:455] BatchNorm_4 -> BatchNorm_4
I0715 11:28:57.054390  7536 net.cpp:190] Setting up BatchNorm_4
I0715 11:28:57.054399  7536 net.cpp:197] Top shape: 1 64 128 256 (2097152)
I0715 11:28:57.054402  7536 net.cpp:205] Memory required for data: 271581184
I0715 11:28:57.054421  7536 layer_factory.hpp:123] Creating layer Threshold_4
I0715 11:28:57.054430  7536 net.cpp:140] Creating Layer Threshold_4
I0715 11:28:57.054435  7536 net.cpp:481] Threshold_4 <- BatchNorm_4
I0715 11:28:57.054445  7536 net.cpp:442] Threshold_4 -> BatchNorm_4 (in-place)
I0715 11:28:57.054456  7536 net.cpp:190] Setting up Threshold_4
I0715 11:28:57.054464  7536 net.cpp:197] Top shape: 1 64 128 256 (2097152)
I0715 11:28:57.054468  7536 net.cpp:205] Memory required for data: 279969792
I0715 11:28:57.054473  7536 layer_factory.hpp:123] Creating layer BatchNorm_4_Threshold_4_0_split
I0715 11:28:57.054483  7536 net.cpp:140] Creating Layer BatchNorm_4_Threshold_4_0_split
I0715 11:28:57.054489  7536 net.cpp:481] BatchNorm_4_Threshold_4_0_split <- BatchNorm_4
I0715 11:28:57.054497  7536 net.cpp:455] BatchNorm_4_Threshold_4_0_split -> BatchNorm_4_Threshold_4_0_split_0
I0715 11:28:57.054508  7536 net.cpp:455] BatchNorm_4_Threshold_4_0_split -> BatchNorm_4_Threshold_4_0_split_1
I0715 11:28:57.054549  7536 net.cpp:190] Setting up BatchNorm_4_Threshold_4_0_split
I0715 11:28:57.054555  7536 net.cpp:197] Top shape: 1 64 128 256 (2097152)
I0715 11:28:57.054560  7536 net.cpp:197] Top shape: 1 64 128 256 (2097152)
I0715 11:28:57.054564  7536 net.cpp:205] Memory required for data: 296747008
I0715 11:28:57.054571  7536 layer_factory.hpp:123] Creating layer ConvNd_14
I0715 11:28:57.054584  7536 net.cpp:140] Creating Layer ConvNd_14
I0715 11:28:57.054590  7536 net.cpp:481] ConvNd_14 <- BatchNorm_4_Threshold_4_0_split_0
I0715 11:28:57.054600  7536 net.cpp:455] ConvNd_14 -> ConvNd_14
I0715 11:28:57.054782  7536 net.cpp:190] Setting up ConvNd_14
I0715 11:28:57.054790  7536 net.cpp:197] Top shape: 1 12 128 256 (393216)
I0715 11:28:57.054795  7536 net.cpp:205] Memory required for data: 298319872
I0715 11:28:57.054801  7536 layer_factory.hpp:123] Creating layer ConvNd_14_ConvNd_14_0_split
I0715 11:28:57.054813  7536 net.cpp:140] Creating Layer ConvNd_14_ConvNd_14_0_split
I0715 11:28:57.054819  7536 net.cpp:481] ConvNd_14_ConvNd_14_0_split <- ConvNd_14
I0715 11:28:57.054828  7536 net.cpp:455] ConvNd_14_ConvNd_14_0_split -> ConvNd_14_ConvNd_14_0_split_0
I0715 11:28:57.054842  7536 net.cpp:455] ConvNd_14_ConvNd_14_0_split -> ConvNd_14_ConvNd_14_0_split_1
I0715 11:28:57.054857  7536 net.cpp:455] ConvNd_14_ConvNd_14_0_split -> ConvNd_14_ConvNd_14_0_split_2
I0715 11:28:57.054868  7536 net.cpp:455] ConvNd_14_ConvNd_14_0_split -> ConvNd_14_ConvNd_14_0_split_3
I0715 11:28:57.054879  7536 net.cpp:455] ConvNd_14_ConvNd_14_0_split -> ConvNd_14_ConvNd_14_0_split_4
I0715 11:28:57.054949  7536 net.cpp:190] Setting up ConvNd_14_ConvNd_14_0_split
I0715 11:28:57.054955  7536 net.cpp:197] Top shape: 1 12 128 256 (393216)
I0715 11:28:57.054961  7536 net.cpp:197] Top shape: 1 12 128 256 (393216)
I0715 11:28:57.054967  7536 net.cpp:197] Top shape: 1 12 128 256 (393216)
I0715 11:28:57.054975  7536 net.cpp:197] Top shape: 1 12 128 256 (393216)
I0715 11:28:57.054983  7536 net.cpp:197] Top shape: 1 12 128 256 (393216)
I0715 11:28:57.054987  7536 net.cpp:205] Memory required for data: 306184192
I0715 11:28:57.054992  7536 layer_factory.hpp:123] Creating layer ConvNd_15
I0715 11:28:57.055006  7536 net.cpp:140] Creating Layer ConvNd_15
I0715 11:28:57.055012  7536 net.cpp:481] ConvNd_15 <- ConvNd_14_ConvNd_14_0_split_0
I0715 11:28:57.055022  7536 net.cpp:455] ConvNd_15 -> ConvNd_15
I0715 11:28:57.055217  7536 net.cpp:190] Setting up ConvNd_15
I0715 11:28:57.055223  7536 net.cpp:197] Top shape: 1 16 128 256 (524288)
I0715 11:28:57.055227  7536 net.cpp:205] Memory required for data: 308281344
I0715 11:28:57.055234  7536 layer_factory.hpp:123] Creating layer ConvNd_16
I0715 11:28:57.055246  7536 net.cpp:140] Creating Layer ConvNd_16
I0715 11:28:57.055253  7536 net.cpp:481] ConvNd_16 <- ConvNd_14_ConvNd_14_0_split_1
I0715 11:28:57.055265  7536 net.cpp:455] ConvNd_16 -> ConvNd_16
I0715 11:28:57.055454  7536 net.cpp:190] Setting up ConvNd_16
I0715 11:28:57.055461  7536 net.cpp:197] Top shape: 1 12 128 256 (393216)
I0715 11:28:57.055465  7536 net.cpp:205] Memory required for data: 309854208
I0715 11:28:57.055472  7536 layer_factory.hpp:123] Creating layer ConvNd_16_ConvNd_16_0_split
I0715 11:28:57.055482  7536 net.cpp:140] Creating Layer ConvNd_16_ConvNd_16_0_split
I0715 11:28:57.055488  7536 net.cpp:481] ConvNd_16_ConvNd_16_0_split <- ConvNd_16
I0715 11:28:57.055497  7536 net.cpp:455] ConvNd_16_ConvNd_16_0_split -> ConvNd_16_ConvNd_16_0_split_0
I0715 11:28:57.055510  7536 net.cpp:455] ConvNd_16_ConvNd_16_0_split -> ConvNd_16_ConvNd_16_0_split_1
I0715 11:28:57.055549  7536 net.cpp:190] Setting up ConvNd_16_ConvNd_16_0_split
I0715 11:28:57.055555  7536 net.cpp:197] Top shape: 1 12 128 256 (393216)
I0715 11:28:57.055560  7536 net.cpp:197] Top shape: 1 12 128 256 (393216)
I0715 11:28:57.055565  7536 net.cpp:205] Memory required for data: 312999936
I0715 11:28:57.055570  7536 layer_factory.hpp:123] Creating layer ConvNd_17
I0715 11:28:57.055583  7536 net.cpp:140] Creating Layer ConvNd_17
I0715 11:28:57.055589  7536 net.cpp:481] ConvNd_17 <- ConvNd_14_ConvNd_14_0_split_2
I0715 11:28:57.055598  7536 net.cpp:455] ConvNd_17 -> ConvNd_17
I0715 11:28:57.055786  7536 net.cpp:190] Setting up ConvNd_17
I0715 11:28:57.055794  7536 net.cpp:197] Top shape: 1 12 128 256 (393216)
I0715 11:28:57.055799  7536 net.cpp:205] Memory required for data: 314572800
I0715 11:28:57.055805  7536 layer_factory.hpp:123] Creating layer Add_8
I0715 11:28:57.055814  7536 net.cpp:140] Creating Layer Add_8
I0715 11:28:57.055819  7536 net.cpp:481] Add_8 <- ConvNd_16_ConvNd_16_0_split_0
I0715 11:28:57.055827  7536 net.cpp:481] Add_8 <- ConvNd_17
I0715 11:28:57.055836  7536 net.cpp:455] Add_8 -> Add_8
I0715 11:28:57.055866  7536 net.cpp:190] Setting up Add_8
I0715 11:28:57.055872  7536 net.cpp:197] Top shape: 1 12 128 256 (393216)
I0715 11:28:57.055876  7536 net.cpp:205] Memory required for data: 316145664
I0715 11:28:57.055881  7536 layer_factory.hpp:123] Creating layer Add_8_Add_8_0_split
I0715 11:28:57.055888  7536 net.cpp:140] Creating Layer Add_8_Add_8_0_split
I0715 11:28:57.055896  7536 net.cpp:481] Add_8_Add_8_0_split <- Add_8
I0715 11:28:57.055903  7536 net.cpp:455] Add_8_Add_8_0_split -> Add_8_Add_8_0_split_0
I0715 11:28:57.055917  7536 net.cpp:455] Add_8_Add_8_0_split -> Add_8_Add_8_0_split_1
I0715 11:28:57.055953  7536 net.cpp:190] Setting up Add_8_Add_8_0_split
I0715 11:28:57.055959  7536 net.cpp:197] Top shape: 1 12 128 256 (393216)
I0715 11:28:57.055964  7536 net.cpp:197] Top shape: 1 12 128 256 (393216)
I0715 11:28:57.055969  7536 net.cpp:205] Memory required for data: 319291392
I0715 11:28:57.055976  7536 layer_factory.hpp:123] Creating layer ConvNd_18
I0715 11:28:57.055987  7536 net.cpp:140] Creating Layer ConvNd_18
I0715 11:28:57.055994  7536 net.cpp:481] ConvNd_18 <- ConvNd_14_ConvNd_14_0_split_3
I0715 11:28:57.056004  7536 net.cpp:455] ConvNd_18 -> ConvNd_18
I0715 11:28:57.056186  7536 net.cpp:190] Setting up ConvNd_18
I0715 11:28:57.056195  7536 net.cpp:197] Top shape: 1 12 128 256 (393216)
I0715 11:28:57.056197  7536 net.cpp:205] Memory required for data: 320864256
I0715 11:28:57.056205  7536 layer_factory.hpp:123] Creating layer Add_9
I0715 11:28:57.056215  7536 net.cpp:140] Creating Layer Add_9
I0715 11:28:57.056221  7536 net.cpp:481] Add_9 <- Add_8_Add_8_0_split_0
I0715 11:28:57.056228  7536 net.cpp:481] Add_9 <- ConvNd_18
I0715 11:28:57.056237  7536 net.cpp:455] Add_9 -> Add_9
I0715 11:28:57.056267  7536 net.cpp:190] Setting up Add_9
I0715 11:28:57.056273  7536 net.cpp:197] Top shape: 1 12 128 256 (393216)
I0715 11:28:57.056277  7536 net.cpp:205] Memory required for data: 322437120
I0715 11:28:57.056282  7536 layer_factory.hpp:123] Creating layer Add_9_Add_9_0_split
I0715 11:28:57.056289  7536 net.cpp:140] Creating Layer Add_9_Add_9_0_split
I0715 11:28:57.056293  7536 net.cpp:481] Add_9_Add_9_0_split <- Add_9
I0715 11:28:57.056301  7536 net.cpp:455] Add_9_Add_9_0_split -> Add_9_Add_9_0_split_0
I0715 11:28:57.056313  7536 net.cpp:455] Add_9_Add_9_0_split -> Add_9_Add_9_0_split_1
I0715 11:28:57.056351  7536 net.cpp:190] Setting up Add_9_Add_9_0_split
I0715 11:28:57.056358  7536 net.cpp:197] Top shape: 1 12 128 256 (393216)
I0715 11:28:57.056362  7536 net.cpp:197] Top shape: 1 12 128 256 (393216)
I0715 11:28:57.056367  7536 net.cpp:205] Memory required for data: 325582848
I0715 11:28:57.056372  7536 layer_factory.hpp:123] Creating layer ConvNd_19
I0715 11:28:57.056385  7536 net.cpp:140] Creating Layer ConvNd_19
I0715 11:28:57.056392  7536 net.cpp:481] ConvNd_19 <- ConvNd_14_ConvNd_14_0_split_4
I0715 11:28:57.056401  7536 net.cpp:455] ConvNd_19 -> ConvNd_19
I0715 11:28:57.056581  7536 net.cpp:190] Setting up ConvNd_19
I0715 11:28:57.056589  7536 net.cpp:197] Top shape: 1 12 128 256 (393216)
I0715 11:28:57.056592  7536 net.cpp:205] Memory required for data: 327155712
I0715 11:28:57.056601  7536 layer_factory.hpp:123] Creating layer Add_10
I0715 11:28:57.056609  7536 net.cpp:140] Creating Layer Add_10
I0715 11:28:57.056617  7536 net.cpp:481] Add_10 <- Add_9_Add_9_0_split_0
I0715 11:28:57.056623  7536 net.cpp:481] Add_10 <- ConvNd_19
I0715 11:28:57.056632  7536 net.cpp:455] Add_10 -> Add_10
I0715 11:28:57.056660  7536 net.cpp:190] Setting up Add_10
I0715 11:28:57.056666  7536 net.cpp:197] Top shape: 1 12 128 256 (393216)
I0715 11:28:57.056670  7536 net.cpp:205] Memory required for data: 328728576
I0715 11:28:57.056675  7536 layer_factory.hpp:123] Creating layer Concat_4
I0715 11:28:57.056684  7536 net.cpp:140] Creating Layer Concat_4
I0715 11:28:57.056690  7536 net.cpp:481] Concat_4 <- ConvNd_15
I0715 11:28:57.056696  7536 net.cpp:481] Concat_4 <- ConvNd_16_ConvNd_16_0_split_1
I0715 11:28:57.056705  7536 net.cpp:481] Concat_4 <- Add_8_Add_8_0_split_1
I0715 11:28:57.056713  7536 net.cpp:481] Concat_4 <- Add_9_Add_9_0_split_1
I0715 11:28:57.056720  7536 net.cpp:481] Concat_4 <- Add_10
I0715 11:28:57.056728  7536 net.cpp:455] Concat_4 -> Concat_4
I0715 11:28:57.056757  7536 net.cpp:190] Setting up Concat_4
I0715 11:28:57.056764  7536 net.cpp:197] Top shape: 1 64 128 256 (2097152)
I0715 11:28:57.056767  7536 net.cpp:205] Memory required for data: 337117184
I0715 11:28:57.056771  7536 layer_factory.hpp:123] Creating layer Add_11
I0715 11:28:57.056779  7536 net.cpp:140] Creating Layer Add_11
I0715 11:28:57.056787  7536 net.cpp:481] Add_11 <- BatchNorm_4_Threshold_4_0_split_1
I0715 11:28:57.056793  7536 net.cpp:481] Add_11 <- Concat_4
I0715 11:28:57.056802  7536 net.cpp:455] Add_11 -> Add_11
I0715 11:28:57.056828  7536 net.cpp:190] Setting up Add_11
I0715 11:28:57.056835  7536 net.cpp:197] Top shape: 1 64 128 256 (2097152)
I0715 11:28:57.056838  7536 net.cpp:205] Memory required for data: 345505792
I0715 11:28:57.056843  7536 layer_factory.hpp:123] Creating layer BatchNorm_5
I0715 11:28:57.056854  7536 net.cpp:140] Creating Layer BatchNorm_5
I0715 11:28:57.056859  7536 net.cpp:481] BatchNorm_5 <- Add_11
I0715 11:28:57.056869  7536 net.cpp:455] BatchNorm_5 -> BatchNorm_5
I0715 11:28:57.057495  7536 net.cpp:190] Setting up BatchNorm_5
I0715 11:28:57.057504  7536 net.cpp:197] Top shape: 1 64 128 256 (2097152)
I0715 11:28:57.057508  7536 net.cpp:205] Memory required for data: 353894400
I0715 11:28:57.057523  7536 layer_factory.hpp:123] Creating layer Threshold_5
I0715 11:28:57.057531  7536 net.cpp:140] Creating Layer Threshold_5
I0715 11:28:57.057538  7536 net.cpp:481] Threshold_5 <- BatchNorm_5
I0715 11:28:57.057548  7536 net.cpp:442] Threshold_5 -> BatchNorm_5 (in-place)
I0715 11:28:57.057559  7536 net.cpp:190] Setting up Threshold_5
I0715 11:28:57.057569  7536 net.cpp:197] Top shape: 1 64 128 256 (2097152)
I0715 11:28:57.057575  7536 net.cpp:205] Memory required for data: 362283008
I0715 11:28:57.057580  7536 layer_factory.hpp:123] Creating layer AvgPool2d_2
I0715 11:28:57.057590  7536 net.cpp:140] Creating Layer AvgPool2d_2
I0715 11:28:57.057596  7536 net.cpp:481] AvgPool2d_2 <- data_resize_down_0_split_2
I0715 11:28:57.057606  7536 net.cpp:455] AvgPool2d_2 -> AvgPool2d_2
I0715 11:28:57.057638  7536 net.cpp:190] Setting up AvgPool2d_2
I0715 11:28:57.057646  7536 net.cpp:197] Top shape: 1 3 256 512 (393216)
I0715 11:28:57.057648  7536 net.cpp:205] Memory required for data: 363855872
I0715 11:28:57.057653  7536 layer_factory.hpp:123] Creating layer AvgPool2d_3
I0715 11:28:57.057663  7536 net.cpp:140] Creating Layer AvgPool2d_3
I0715 11:28:57.057670  7536 net.cpp:481] AvgPool2d_3 <- AvgPool2d_2
I0715 11:28:57.057677  7536 net.cpp:455] AvgPool2d_3 -> AvgPool2d_3
I0715 11:28:57.057708  7536 net.cpp:190] Setting up AvgPool2d_3
I0715 11:28:57.057713  7536 net.cpp:197] Top shape: 1 3 128 256 (98304)
I0715 11:28:57.057718  7536 net.cpp:205] Memory required for data: 364249088
I0715 11:28:57.057723  7536 layer_factory.hpp:123] Creating layer Concat_5
I0715 11:28:57.057731  7536 net.cpp:140] Creating Layer Concat_5
I0715 11:28:57.057737  7536 net.cpp:481] Concat_5 <- BatchNorm_5
I0715 11:28:57.057744  7536 net.cpp:481] Concat_5 <- BatchNorm_3_Threshold_3_0_split_2
I0715 11:28:57.057751  7536 net.cpp:481] Concat_5 <- AvgPool2d_3
I0715 11:28:57.057761  7536 net.cpp:455] Concat_5 -> Concat_5
I0715 11:28:57.057790  7536 net.cpp:190] Setting up Concat_5
I0715 11:28:57.057796  7536 net.cpp:197] Top shape: 1 131 128 256 (4292608)
I0715 11:28:57.057799  7536 net.cpp:205] Memory required for data: 381419520
I0715 11:28:57.057804  7536 layer_factory.hpp:123] Creating layer BatchNorm_6
I0715 11:28:57.057814  7536 net.cpp:140] Creating Layer BatchNorm_6
I0715 11:28:57.057821  7536 net.cpp:481] BatchNorm_6 <- Concat_5
I0715 11:28:57.057830  7536 net.cpp:455] BatchNorm_6 -> BatchNorm_6
I0715 11:28:57.058457  7536 net.cpp:190] Setting up BatchNorm_6
I0715 11:28:57.058465  7536 net.cpp:197] Top shape: 1 131 128 256 (4292608)
I0715 11:28:57.058470  7536 net.cpp:205] Memory required for data: 398589952
I0715 11:28:57.058483  7536 layer_factory.hpp:123] Creating layer Threshold_6
I0715 11:28:57.058493  7536 net.cpp:140] Creating Layer Threshold_6
I0715 11:28:57.058501  7536 net.cpp:481] Threshold_6 <- BatchNorm_6
I0715 11:28:57.058508  7536 net.cpp:442] Threshold_6 -> BatchNorm_6 (in-place)
I0715 11:28:57.058519  7536 net.cpp:190] Setting up Threshold_6
I0715 11:28:57.058528  7536 net.cpp:197] Top shape: 1 131 128 256 (4292608)
I0715 11:28:57.058532  7536 net.cpp:205] Memory required for data: 415760384
I0715 11:28:57.058540  7536 layer_factory.hpp:123] Creating layer BatchNorm_6_Threshold_6_0_split
I0715 11:28:57.058547  7536 net.cpp:140] Creating Layer BatchNorm_6_Threshold_6_0_split
I0715 11:28:57.058554  7536 net.cpp:481] BatchNorm_6_Threshold_6_0_split <- BatchNorm_6
I0715 11:28:57.058562  7536 net.cpp:455] BatchNorm_6_Threshold_6_0_split -> BatchNorm_6_Threshold_6_0_split_0
I0715 11:28:57.058573  7536 net.cpp:455] BatchNorm_6_Threshold_6_0_split -> BatchNorm_6_Threshold_6_0_split_1
I0715 11:28:57.058614  7536 net.cpp:190] Setting up BatchNorm_6_Threshold_6_0_split
I0715 11:28:57.058619  7536 net.cpp:197] Top shape: 1 131 128 256 (4292608)
I0715 11:28:57.058624  7536 net.cpp:197] Top shape: 1 131 128 256 (4292608)
I0715 11:28:57.058629  7536 net.cpp:205] Memory required for data: 450101248
I0715 11:28:57.058634  7536 layer_factory.hpp:123] Creating layer ConvNd_20
I0715 11:28:57.058646  7536 net.cpp:140] Creating Layer ConvNd_20
I0715 11:28:57.058653  7536 net.cpp:481] ConvNd_20 <- BatchNorm_6_Threshold_6_0_split_0
I0715 11:28:57.058662  7536 net.cpp:455] ConvNd_20 -> ConvNd_20
I0715 11:28:57.058869  7536 net.cpp:190] Setting up ConvNd_20
I0715 11:28:57.058878  7536 net.cpp:197] Top shape: 1 19 128 256 (622592)
I0715 11:28:57.058881  7536 net.cpp:205] Memory required for data: 452591616
I0715 11:28:57.058889  7536 layer_factory.hpp:123] Creating layer ConvNd_21
I0715 11:28:57.058902  7536 net.cpp:140] Creating Layer ConvNd_21
I0715 11:28:57.058909  7536 net.cpp:481] ConvNd_21 <- BatchNorm_6_Threshold_6_0_split_1
I0715 11:28:57.058917  7536 net.cpp:455] ConvNd_21 -> ConvNd_21
I0715 11:28:57.059356  7536 net.cpp:190] Setting up ConvNd_21
I0715 11:28:57.059366  7536 net.cpp:197] Top shape: 1 25 64 128 (204800)
I0715 11:28:57.059370  7536 net.cpp:205] Memory required for data: 453410816
I0715 11:28:57.059376  7536 layer_factory.hpp:123] Creating layer ConvNd_21_ConvNd_21_0_split
I0715 11:28:57.059387  7536 net.cpp:140] Creating Layer ConvNd_21_ConvNd_21_0_split
I0715 11:28:57.059394  7536 net.cpp:481] ConvNd_21_ConvNd_21_0_split <- ConvNd_21
I0715 11:28:57.059404  7536 net.cpp:455] ConvNd_21_ConvNd_21_0_split -> ConvNd_21_ConvNd_21_0_split_0
I0715 11:28:57.059417  7536 net.cpp:455] ConvNd_21_ConvNd_21_0_split -> ConvNd_21_ConvNd_21_0_split_1
I0715 11:28:57.059429  7536 net.cpp:455] ConvNd_21_ConvNd_21_0_split -> ConvNd_21_ConvNd_21_0_split_2
I0715 11:28:57.059440  7536 net.cpp:455] ConvNd_21_ConvNd_21_0_split -> ConvNd_21_ConvNd_21_0_split_3
I0715 11:28:57.059451  7536 net.cpp:455] ConvNd_21_ConvNd_21_0_split -> ConvNd_21_ConvNd_21_0_split_4
I0715 11:28:57.059523  7536 net.cpp:190] Setting up ConvNd_21_ConvNd_21_0_split
I0715 11:28:57.059530  7536 net.cpp:197] Top shape: 1 25 64 128 (204800)
I0715 11:28:57.059535  7536 net.cpp:197] Top shape: 1 25 64 128 (204800)
I0715 11:28:57.059541  7536 net.cpp:197] Top shape: 1 25 64 128 (204800)
I0715 11:28:57.059548  7536 net.cpp:197] Top shape: 1 25 64 128 (204800)
I0715 11:28:57.059556  7536 net.cpp:197] Top shape: 1 25 64 128 (204800)
I0715 11:28:57.059561  7536 net.cpp:205] Memory required for data: 457506816
I0715 11:28:57.059566  7536 layer_factory.hpp:123] Creating layer ConvNd_22
I0715 11:28:57.059579  7536 net.cpp:140] Creating Layer ConvNd_22
I0715 11:28:57.059586  7536 net.cpp:481] ConvNd_22 <- ConvNd_21_ConvNd_21_0_split_0
I0715 11:28:57.059592  7536 net.cpp:455] ConvNd_22 -> ConvNd_22
I0715 11:28:57.060596  7536 net.cpp:190] Setting up ConvNd_22
I0715 11:28:57.060608  7536 net.cpp:197] Top shape: 1 28 64 128 (229376)
I0715 11:28:57.060611  7536 net.cpp:205] Memory required for data: 458424320
I0715 11:28:57.060619  7536 layer_factory.hpp:123] Creating layer ConvNd_23
I0715 11:28:57.060634  7536 net.cpp:140] Creating Layer ConvNd_23
I0715 11:28:57.060642  7536 net.cpp:481] ConvNd_23 <- ConvNd_21_ConvNd_21_0_split_1
I0715 11:28:57.060650  7536 net.cpp:455] ConvNd_23 -> ConvNd_23
I0715 11:28:57.060884  7536 net.cpp:190] Setting up ConvNd_23
I0715 11:28:57.060892  7536 net.cpp:197] Top shape: 1 25 64 128 (204800)
I0715 11:28:57.060895  7536 net.cpp:205] Memory required for data: 459243520
I0715 11:28:57.060902  7536 layer_factory.hpp:123] Creating layer ConvNd_23_ConvNd_23_0_split
I0715 11:28:57.060912  7536 net.cpp:140] Creating Layer ConvNd_23_ConvNd_23_0_split
I0715 11:28:57.060920  7536 net.cpp:481] ConvNd_23_ConvNd_23_0_split <- ConvNd_23
I0715 11:28:57.060928  7536 net.cpp:455] ConvNd_23_ConvNd_23_0_split -> ConvNd_23_ConvNd_23_0_split_0
I0715 11:28:57.060940  7536 net.cpp:455] ConvNd_23_ConvNd_23_0_split -> ConvNd_23_ConvNd_23_0_split_1
I0715 11:28:57.060981  7536 net.cpp:190] Setting up ConvNd_23_ConvNd_23_0_split
I0715 11:28:57.060988  7536 net.cpp:197] Top shape: 1 25 64 128 (204800)
I0715 11:28:57.060993  7536 net.cpp:197] Top shape: 1 25 64 128 (204800)
I0715 11:28:57.060997  7536 net.cpp:205] Memory required for data: 460881920
I0715 11:28:57.061002  7536 layer_factory.hpp:123] Creating layer ConvNd_24
I0715 11:28:57.061015  7536 net.cpp:140] Creating Layer ConvNd_24
I0715 11:28:57.061022  7536 net.cpp:481] ConvNd_24 <- ConvNd_21_ConvNd_21_0_split_2
I0715 11:28:57.061030  7536 net.cpp:455] ConvNd_24 -> ConvNd_24
I0715 11:28:57.061256  7536 net.cpp:190] Setting up ConvNd_24
I0715 11:28:57.061264  7536 net.cpp:197] Top shape: 1 25 64 128 (204800)
I0715 11:28:57.061267  7536 net.cpp:205] Memory required for data: 461701120
I0715 11:28:57.061273  7536 layer_factory.hpp:123] Creating layer Add_12
I0715 11:28:57.061283  7536 net.cpp:140] Creating Layer Add_12
I0715 11:28:57.061290  7536 net.cpp:481] Add_12 <- ConvNd_23_ConvNd_23_0_split_0
I0715 11:28:57.061297  7536 net.cpp:481] Add_12 <- ConvNd_24
I0715 11:28:57.061305  7536 net.cpp:455] Add_12 -> Add_12
I0715 11:28:57.061333  7536 net.cpp:190] Setting up Add_12
I0715 11:28:57.061341  7536 net.cpp:197] Top shape: 1 25 64 128 (204800)
I0715 11:28:57.061343  7536 net.cpp:205] Memory required for data: 462520320
I0715 11:28:57.061348  7536 layer_factory.hpp:123] Creating layer Add_12_Add_12_0_split
I0715 11:28:57.061355  7536 net.cpp:140] Creating Layer Add_12_Add_12_0_split
I0715 11:28:57.061363  7536 net.cpp:481] Add_12_Add_12_0_split <- Add_12
I0715 11:28:57.061372  7536 net.cpp:455] Add_12_Add_12_0_split -> Add_12_Add_12_0_split_0
I0715 11:28:57.061383  7536 net.cpp:455] Add_12_Add_12_0_split -> Add_12_Add_12_0_split_1
I0715 11:28:57.061424  7536 net.cpp:190] Setting up Add_12_Add_12_0_split
I0715 11:28:57.061429  7536 net.cpp:197] Top shape: 1 25 64 128 (204800)
I0715 11:28:57.061434  7536 net.cpp:197] Top shape: 1 25 64 128 (204800)
I0715 11:28:57.061439  7536 net.cpp:205] Memory required for data: 464158720
I0715 11:28:57.061444  7536 layer_factory.hpp:123] Creating layer ConvNd_25
I0715 11:28:57.061457  7536 net.cpp:140] Creating Layer ConvNd_25
I0715 11:28:57.061463  7536 net.cpp:481] ConvNd_25 <- ConvNd_21_ConvNd_21_0_split_3
I0715 11:28:57.061472  7536 net.cpp:455] ConvNd_25 -> ConvNd_25
I0715 11:28:57.061697  7536 net.cpp:190] Setting up ConvNd_25
I0715 11:28:57.061704  7536 net.cpp:197] Top shape: 1 25 64 128 (204800)
I0715 11:28:57.061708  7536 net.cpp:205] Memory required for data: 464977920
I0715 11:28:57.061715  7536 layer_factory.hpp:123] Creating layer Add_13
I0715 11:28:57.061725  7536 net.cpp:140] Creating Layer Add_13
I0715 11:28:57.061733  7536 net.cpp:481] Add_13 <- Add_12_Add_12_0_split_0
I0715 11:28:57.061739  7536 net.cpp:481] Add_13 <- ConvNd_25
I0715 11:28:57.061748  7536 net.cpp:455] Add_13 -> Add_13
I0715 11:28:57.061777  7536 net.cpp:190] Setting up Add_13
I0715 11:28:57.061784  7536 net.cpp:197] Top shape: 1 25 64 128 (204800)
I0715 11:28:57.061787  7536 net.cpp:205] Memory required for data: 465797120
I0715 11:28:57.061792  7536 layer_factory.hpp:123] Creating layer Add_13_Add_13_0_split
I0715 11:28:57.061800  7536 net.cpp:140] Creating Layer Add_13_Add_13_0_split
I0715 11:28:57.061807  7536 net.cpp:481] Add_13_Add_13_0_split <- Add_13
I0715 11:28:57.061815  7536 net.cpp:455] Add_13_Add_13_0_split -> Add_13_Add_13_0_split_0
I0715 11:28:57.061826  7536 net.cpp:455] Add_13_Add_13_0_split -> Add_13_Add_13_0_split_1
I0715 11:28:57.061866  7536 net.cpp:190] Setting up Add_13_Add_13_0_split
I0715 11:28:57.061872  7536 net.cpp:197] Top shape: 1 25 64 128 (204800)
I0715 11:28:57.061877  7536 net.cpp:197] Top shape: 1 25 64 128 (204800)
I0715 11:28:57.061882  7536 net.cpp:205] Memory required for data: 467435520
I0715 11:28:57.061885  7536 layer_factory.hpp:123] Creating layer ConvNd_26
I0715 11:28:57.061899  7536 net.cpp:140] Creating Layer ConvNd_26
I0715 11:28:57.061905  7536 net.cpp:481] ConvNd_26 <- ConvNd_21_ConvNd_21_0_split_4
I0715 11:28:57.061913  7536 net.cpp:455] ConvNd_26 -> ConvNd_26
I0715 11:28:57.062140  7536 net.cpp:190] Setting up ConvNd_26
I0715 11:28:57.062149  7536 net.cpp:197] Top shape: 1 25 64 128 (204800)
I0715 11:28:57.062151  7536 net.cpp:205] Memory required for data: 468254720
I0715 11:28:57.062158  7536 layer_factory.hpp:123] Creating layer Add_14
I0715 11:28:57.062166  7536 net.cpp:140] Creating Layer Add_14
I0715 11:28:57.062173  7536 net.cpp:481] Add_14 <- Add_13_Add_13_0_split_0
I0715 11:28:57.062180  7536 net.cpp:481] Add_14 <- ConvNd_26
I0715 11:28:57.062189  7536 net.cpp:455] Add_14 -> Add_14
I0715 11:28:57.062218  7536 net.cpp:190] Setting up Add_14
I0715 11:28:57.062225  7536 net.cpp:197] Top shape: 1 25 64 128 (204800)
I0715 11:28:57.062228  7536 net.cpp:205] Memory required for data: 469073920
I0715 11:28:57.062233  7536 layer_factory.hpp:123] Creating layer Concat_6
I0715 11:28:57.062242  7536 net.cpp:140] Creating Layer Concat_6
I0715 11:28:57.062248  7536 net.cpp:481] Concat_6 <- ConvNd_22
I0715 11:28:57.062255  7536 net.cpp:481] Concat_6 <- ConvNd_23_ConvNd_23_0_split_1
I0715 11:28:57.062263  7536 net.cpp:481] Concat_6 <- Add_12_Add_12_0_split_1
I0715 11:28:57.062268  7536 net.cpp:481] Concat_6 <- Add_13_Add_13_0_split_1
I0715 11:28:57.062275  7536 net.cpp:481] Concat_6 <- Add_14
I0715 11:28:57.062284  7536 net.cpp:455] Concat_6 -> Concat_6
I0715 11:28:57.062314  7536 net.cpp:190] Setting up Concat_6
I0715 11:28:57.062320  7536 net.cpp:197] Top shape: 1 128 64 128 (1048576)
I0715 11:28:57.062325  7536 net.cpp:205] Memory required for data: 473268224
I0715 11:28:57.062328  7536 layer_factory.hpp:123] Creating layer BatchNorm_7
I0715 11:28:57.062340  7536 net.cpp:140] Creating Layer BatchNorm_7
I0715 11:28:57.062346  7536 net.cpp:481] BatchNorm_7 <- Concat_6
I0715 11:28:57.062355  7536 net.cpp:455] BatchNorm_7 -> BatchNorm_7
I0715 11:28:57.062919  7536 net.cpp:190] Setting up BatchNorm_7
I0715 11:28:57.062928  7536 net.cpp:197] Top shape: 1 128 64 128 (1048576)
I0715 11:28:57.062932  7536 net.cpp:205] Memory required for data: 477462528
I0715 11:28:57.062947  7536 layer_factory.hpp:123] Creating layer Threshold_7
I0715 11:28:57.062955  7536 net.cpp:140] Creating Layer Threshold_7
I0715 11:28:57.062960  7536 net.cpp:481] Threshold_7 <- BatchNorm_7
I0715 11:28:57.062969  7536 net.cpp:442] Threshold_7 -> BatchNorm_7 (in-place)
I0715 11:28:57.062981  7536 net.cpp:190] Setting up Threshold_7
I0715 11:28:57.062989  7536 net.cpp:197] Top shape: 1 128 64 128 (1048576)
I0715 11:28:57.062994  7536 net.cpp:205] Memory required for data: 481656832
I0715 11:28:57.062999  7536 layer_factory.hpp:123] Creating layer BatchNorm_7_Threshold_7_0_split
I0715 11:28:57.063009  7536 net.cpp:140] Creating Layer BatchNorm_7_Threshold_7_0_split
I0715 11:28:57.063014  7536 net.cpp:481] BatchNorm_7_Threshold_7_0_split <- BatchNorm_7
I0715 11:28:57.063022  7536 net.cpp:455] BatchNorm_7_Threshold_7_0_split -> BatchNorm_7_Threshold_7_0_split_0
I0715 11:28:57.063035  7536 net.cpp:455] BatchNorm_7_Threshold_7_0_split -> BatchNorm_7_Threshold_7_0_split_1
I0715 11:28:57.063045  7536 net.cpp:455] BatchNorm_7_Threshold_7_0_split -> BatchNorm_7_Threshold_7_0_split_2
I0715 11:28:57.063094  7536 net.cpp:190] Setting up BatchNorm_7_Threshold_7_0_split
I0715 11:28:57.063100  7536 net.cpp:197] Top shape: 1 128 64 128 (1048576)
I0715 11:28:57.063105  7536 net.cpp:197] Top shape: 1 128 64 128 (1048576)
I0715 11:28:57.063112  7536 net.cpp:197] Top shape: 1 128 64 128 (1048576)
I0715 11:28:57.063118  7536 net.cpp:205] Memory required for data: 494239744
I0715 11:28:57.063123  7536 layer_factory.hpp:123] Creating layer ConvNd_27
I0715 11:28:57.063134  7536 net.cpp:140] Creating Layer ConvNd_27
I0715 11:28:57.063141  7536 net.cpp:481] ConvNd_27 <- BatchNorm_7_Threshold_7_0_split_0
I0715 11:28:57.063148  7536 net.cpp:455] ConvNd_27 -> ConvNd_27
I0715 11:28:57.063361  7536 net.cpp:190] Setting up ConvNd_27
I0715 11:28:57.063369  7536 net.cpp:197] Top shape: 1 25 64 128 (204800)
I0715 11:28:57.063374  7536 net.cpp:205] Memory required for data: 495058944
I0715 11:28:57.063380  7536 layer_factory.hpp:123] Creating layer ConvNd_27_ConvNd_27_0_split
I0715 11:28:57.063391  7536 net.cpp:140] Creating Layer ConvNd_27_ConvNd_27_0_split
I0715 11:28:57.063397  7536 net.cpp:481] ConvNd_27_ConvNd_27_0_split <- ConvNd_27
I0715 11:28:57.063406  7536 net.cpp:455] ConvNd_27_ConvNd_27_0_split -> ConvNd_27_ConvNd_27_0_split_0
I0715 11:28:57.063421  7536 net.cpp:455] ConvNd_27_ConvNd_27_0_split -> ConvNd_27_ConvNd_27_0_split_1
I0715 11:28:57.063431  7536 net.cpp:455] ConvNd_27_ConvNd_27_0_split -> ConvNd_27_ConvNd_27_0_split_2
I0715 11:28:57.063441  7536 net.cpp:455] ConvNd_27_ConvNd_27_0_split -> ConvNd_27_ConvNd_27_0_split_3
I0715 11:28:57.063452  7536 net.cpp:455] ConvNd_27_ConvNd_27_0_split -> ConvNd_27_ConvNd_27_0_split_4
I0715 11:28:57.063524  7536 net.cpp:190] Setting up ConvNd_27_ConvNd_27_0_split
I0715 11:28:57.063529  7536 net.cpp:197] Top shape: 1 25 64 128 (204800)
I0715 11:28:57.063534  7536 net.cpp:197] Top shape: 1 25 64 128 (204800)
I0715 11:28:57.063540  7536 net.cpp:197] Top shape: 1 25 64 128 (204800)
I0715 11:28:57.063549  7536 net.cpp:197] Top shape: 1 25 64 128 (204800)
I0715 11:28:57.063553  7536 net.cpp:197] Top shape: 1 25 64 128 (204800)
I0715 11:28:57.063557  7536 net.cpp:205] Memory required for data: 499154944
I0715 11:28:57.063563  7536 layer_factory.hpp:123] Creating layer ConvNd_28
I0715 11:28:57.063575  7536 net.cpp:140] Creating Layer ConvNd_28
I0715 11:28:57.063581  7536 net.cpp:481] ConvNd_28 <- ConvNd_27_ConvNd_27_0_split_0
I0715 11:28:57.063589  7536 net.cpp:455] ConvNd_28 -> ConvNd_28
I0715 11:28:57.063838  7536 net.cpp:190] Setting up ConvNd_28
I0715 11:28:57.063846  7536 net.cpp:197] Top shape: 1 28 64 128 (229376)
I0715 11:28:57.063850  7536 net.cpp:205] Memory required for data: 500072448
I0715 11:28:57.063858  7536 layer_factory.hpp:123] Creating layer ConvNd_29
I0715 11:28:57.063871  7536 net.cpp:140] Creating Layer ConvNd_29
I0715 11:28:57.063879  7536 net.cpp:481] ConvNd_29 <- ConvNd_27_ConvNd_27_0_split_1
I0715 11:28:57.063886  7536 net.cpp:455] ConvNd_29 -> ConvNd_29
I0715 11:28:57.064116  7536 net.cpp:190] Setting up ConvNd_29
I0715 11:28:57.064124  7536 net.cpp:197] Top shape: 1 25 64 128 (204800)
I0715 11:28:57.064128  7536 net.cpp:205] Memory required for data: 500891648
I0715 11:28:57.064134  7536 layer_factory.hpp:123] Creating layer ConvNd_29_ConvNd_29_0_split
I0715 11:28:57.064144  7536 net.cpp:140] Creating Layer ConvNd_29_ConvNd_29_0_split
I0715 11:28:57.064152  7536 net.cpp:481] ConvNd_29_ConvNd_29_0_split <- ConvNd_29
I0715 11:28:57.064159  7536 net.cpp:455] ConvNd_29_ConvNd_29_0_split -> ConvNd_29_ConvNd_29_0_split_0
I0715 11:28:57.064172  7536 net.cpp:455] ConvNd_29_ConvNd_29_0_split -> ConvNd_29_ConvNd_29_0_split_1
I0715 11:28:57.064213  7536 net.cpp:190] Setting up ConvNd_29_ConvNd_29_0_split
I0715 11:28:57.064219  7536 net.cpp:197] Top shape: 1 25 64 128 (204800)
I0715 11:28:57.064224  7536 net.cpp:197] Top shape: 1 25 64 128 (204800)
I0715 11:28:57.064229  7536 net.cpp:205] Memory required for data: 502530048
I0715 11:28:57.064234  7536 layer_factory.hpp:123] Creating layer ConvNd_30
I0715 11:28:57.064246  7536 net.cpp:140] Creating Layer ConvNd_30
I0715 11:28:57.064252  7536 net.cpp:481] ConvNd_30 <- ConvNd_27_ConvNd_27_0_split_2
I0715 11:28:57.064261  7536 net.cpp:455] ConvNd_30 -> ConvNd_30
I0715 11:28:57.064486  7536 net.cpp:190] Setting up ConvNd_30
I0715 11:28:57.064494  7536 net.cpp:197] Top shape: 1 25 64 128 (204800)
I0715 11:28:57.064497  7536 net.cpp:205] Memory required for data: 503349248
I0715 11:28:57.064510  7536 layer_factory.hpp:123] Creating layer Add_15
I0715 11:28:57.064519  7536 net.cpp:140] Creating Layer Add_15
I0715 11:28:57.064527  7536 net.cpp:481] Add_15 <- ConvNd_29_ConvNd_29_0_split_0
I0715 11:28:57.064534  7536 net.cpp:481] Add_15 <- ConvNd_30
I0715 11:28:57.064544  7536 net.cpp:455] Add_15 -> Add_15
I0715 11:28:57.064577  7536 net.cpp:190] Setting up Add_15
I0715 11:28:57.064584  7536 net.cpp:197] Top shape: 1 25 64 128 (204800)
I0715 11:28:57.064589  7536 net.cpp:205] Memory required for data: 504168448
I0715 11:28:57.064594  7536 layer_factory.hpp:123] Creating layer Add_15_Add_15_0_split
I0715 11:28:57.064600  7536 net.cpp:140] Creating Layer Add_15_Add_15_0_split
I0715 11:28:57.064607  7536 net.cpp:481] Add_15_Add_15_0_split <- Add_15
I0715 11:28:57.064615  7536 net.cpp:455] Add_15_Add_15_0_split -> Add_15_Add_15_0_split_0
I0715 11:28:57.064628  7536 net.cpp:455] Add_15_Add_15_0_split -> Add_15_Add_15_0_split_1
I0715 11:28:57.064667  7536 net.cpp:190] Setting up Add_15_Add_15_0_split
I0715 11:28:57.064674  7536 net.cpp:197] Top shape: 1 25 64 128 (204800)
I0715 11:28:57.064679  7536 net.cpp:197] Top shape: 1 25 64 128 (204800)
I0715 11:28:57.064683  7536 net.cpp:205] Memory required for data: 505806848
I0715 11:28:57.064688  7536 layer_factory.hpp:123] Creating layer ConvNd_31
I0715 11:28:57.064702  7536 net.cpp:140] Creating Layer ConvNd_31
I0715 11:28:57.064708  7536 net.cpp:481] ConvNd_31 <- ConvNd_27_ConvNd_27_0_split_3
I0715 11:28:57.064716  7536 net.cpp:455] ConvNd_31 -> ConvNd_31
I0715 11:28:57.064944  7536 net.cpp:190] Setting up ConvNd_31
I0715 11:28:57.064951  7536 net.cpp:197] Top shape: 1 25 64 128 (204800)
I0715 11:28:57.064955  7536 net.cpp:205] Memory required for data: 506626048
I0715 11:28:57.064962  7536 layer_factory.hpp:123] Creating layer Add_16
I0715 11:28:57.064971  7536 net.cpp:140] Creating Layer Add_16
I0715 11:28:57.064980  7536 net.cpp:481] Add_16 <- Add_15_Add_15_0_split_0
I0715 11:28:57.064985  7536 net.cpp:481] Add_16 <- ConvNd_31
I0715 11:28:57.064996  7536 net.cpp:455] Add_16 -> Add_16
I0715 11:28:57.065026  7536 net.cpp:190] Setting up Add_16
I0715 11:28:57.065032  7536 net.cpp:197] Top shape: 1 25 64 128 (204800)
I0715 11:28:57.065035  7536 net.cpp:205] Memory required for data: 507445248
I0715 11:28:57.065039  7536 layer_factory.hpp:123] Creating layer Add_16_Add_16_0_split
I0715 11:28:57.065047  7536 net.cpp:140] Creating Layer Add_16_Add_16_0_split
I0715 11:28:57.065054  7536 net.cpp:481] Add_16_Add_16_0_split <- Add_16
I0715 11:28:57.065062  7536 net.cpp:455] Add_16_Add_16_0_split -> Add_16_Add_16_0_split_0
I0715 11:28:57.065074  7536 net.cpp:455] Add_16_Add_16_0_split -> Add_16_Add_16_0_split_1
I0715 11:28:57.065114  7536 net.cpp:190] Setting up Add_16_Add_16_0_split
I0715 11:28:57.065120  7536 net.cpp:197] Top shape: 1 25 64 128 (204800)
I0715 11:28:57.065125  7536 net.cpp:197] Top shape: 1 25 64 128 (204800)
I0715 11:28:57.065129  7536 net.cpp:205] Memory required for data: 509083648
I0715 11:28:57.065135  7536 layer_factory.hpp:123] Creating layer ConvNd_32
I0715 11:28:57.065147  7536 net.cpp:140] Creating Layer ConvNd_32
I0715 11:28:57.065155  7536 net.cpp:481] ConvNd_32 <- ConvNd_27_ConvNd_27_0_split_4
I0715 11:28:57.065162  7536 net.cpp:455] ConvNd_32 -> ConvNd_32
I0715 11:28:57.065385  7536 net.cpp:190] Setting up ConvNd_32
I0715 11:28:57.065393  7536 net.cpp:197] Top shape: 1 25 64 128 (204800)
I0715 11:28:57.065397  7536 net.cpp:205] Memory required for data: 509902848
I0715 11:28:57.065403  7536 layer_factory.hpp:123] Creating layer Add_17
I0715 11:28:57.065412  7536 net.cpp:140] Creating Layer Add_17
I0715 11:28:57.065418  7536 net.cpp:481] Add_17 <- Add_16_Add_16_0_split_0
I0715 11:28:57.065425  7536 net.cpp:481] Add_17 <- ConvNd_32
I0715 11:28:57.065434  7536 net.cpp:455] Add_17 -> Add_17
I0715 11:28:57.065464  7536 net.cpp:190] Setting up Add_17
I0715 11:28:57.065470  7536 net.cpp:197] Top shape: 1 25 64 128 (204800)
I0715 11:28:57.065474  7536 net.cpp:205] Memory required for data: 510722048
I0715 11:28:57.065479  7536 layer_factory.hpp:123] Creating layer Concat_7
I0715 11:28:57.065487  7536 net.cpp:140] Creating Layer Concat_7
I0715 11:28:57.065495  7536 net.cpp:481] Concat_7 <- ConvNd_28
I0715 11:28:57.065501  7536 net.cpp:481] Concat_7 <- ConvNd_29_ConvNd_29_0_split_1
I0715 11:28:57.065510  7536 net.cpp:481] Concat_7 <- Add_15_Add_15_0_split_1
I0715 11:28:57.065515  7536 net.cpp:481] Concat_7 <- Add_16_Add_16_0_split_1
I0715 11:28:57.065522  7536 net.cpp:481] Concat_7 <- Add_17
I0715 11:28:57.065531  7536 net.cpp:455] Concat_7 -> Concat_7
I0715 11:28:57.065560  7536 net.cpp:190] Setting up Concat_7
I0715 11:28:57.065567  7536 net.cpp:197] Top shape: 1 128 64 128 (1048576)
I0715 11:28:57.065570  7536 net.cpp:205] Memory required for data: 514916352
I0715 11:28:57.065575  7536 layer_factory.hpp:123] Creating layer Add_18
I0715 11:28:57.065583  7536 net.cpp:140] Creating Layer Add_18
I0715 11:28:57.065590  7536 net.cpp:481] Add_18 <- BatchNorm_7_Threshold_7_0_split_1
I0715 11:28:57.065599  7536 net.cpp:481] Add_18 <- Concat_7
I0715 11:28:57.065608  7536 net.cpp:455] Add_18 -> Add_18
I0715 11:28:57.065636  7536 net.cpp:190] Setting up Add_18
I0715 11:28:57.065642  7536 net.cpp:197] Top shape: 1 128 64 128 (1048576)
I0715 11:28:57.065646  7536 net.cpp:205] Memory required for data: 519110656
I0715 11:28:57.065650  7536 layer_factory.hpp:123] Creating layer BatchNorm_8
I0715 11:28:57.065661  7536 net.cpp:140] Creating Layer BatchNorm_8
I0715 11:28:57.065668  7536 net.cpp:481] BatchNorm_8 <- Add_18
I0715 11:28:57.065677  7536 net.cpp:455] BatchNorm_8 -> BatchNorm_8
I0715 11:28:57.066238  7536 net.cpp:190] Setting up BatchNorm_8
I0715 11:28:57.066247  7536 net.cpp:197] Top shape: 1 128 64 128 (1048576)
I0715 11:28:57.066251  7536 net.cpp:205] Memory required for data: 523304960
I0715 11:28:57.066265  7536 layer_factory.hpp:123] Creating layer Threshold_8
I0715 11:28:57.066274  7536 net.cpp:140] Creating Layer Threshold_8
I0715 11:28:57.066279  7536 net.cpp:481] Threshold_8 <- BatchNorm_8
I0715 11:28:57.066290  7536 net.cpp:442] Threshold_8 -> BatchNorm_8 (in-place)
I0715 11:28:57.066303  7536 net.cpp:190] Setting up Threshold_8
I0715 11:28:57.066310  7536 net.cpp:197] Top shape: 1 128 64 128 (1048576)
I0715 11:28:57.066314  7536 net.cpp:205] Memory required for data: 527499264
I0715 11:28:57.066321  7536 layer_factory.hpp:123] Creating layer BatchNorm_8_Threshold_8_0_split
I0715 11:28:57.066330  7536 net.cpp:140] Creating Layer BatchNorm_8_Threshold_8_0_split
I0715 11:28:57.066337  7536 net.cpp:481] BatchNorm_8_Threshold_8_0_split <- BatchNorm_8
I0715 11:28:57.066345  7536 net.cpp:455] BatchNorm_8_Threshold_8_0_split -> BatchNorm_8_Threshold_8_0_split_0
I0715 11:28:57.066357  7536 net.cpp:455] BatchNorm_8_Threshold_8_0_split -> BatchNorm_8_Threshold_8_0_split_1
I0715 11:28:57.066397  7536 net.cpp:190] Setting up BatchNorm_8_Threshold_8_0_split
I0715 11:28:57.066404  7536 net.cpp:197] Top shape: 1 128 64 128 (1048576)
I0715 11:28:57.066409  7536 net.cpp:197] Top shape: 1 128 64 128 (1048576)
I0715 11:28:57.066413  7536 net.cpp:205] Memory required for data: 535887872
I0715 11:28:57.066421  7536 layer_factory.hpp:123] Creating layer ConvNd_33
I0715 11:28:57.066432  7536 net.cpp:140] Creating Layer ConvNd_33
I0715 11:28:57.066438  7536 net.cpp:481] ConvNd_33 <- BatchNorm_8_Threshold_8_0_split_0
I0715 11:28:57.066447  7536 net.cpp:455] ConvNd_33 -> ConvNd_33
I0715 11:28:57.066654  7536 net.cpp:190] Setting up ConvNd_33
I0715 11:28:57.066663  7536 net.cpp:197] Top shape: 1 25 64 128 (204800)
I0715 11:28:57.066665  7536 net.cpp:205] Memory required for data: 536707072
I0715 11:28:57.066673  7536 layer_factory.hpp:123] Creating layer ConvNd_33_ConvNd_33_0_split
I0715 11:28:57.066684  7536 net.cpp:140] Creating Layer ConvNd_33_ConvNd_33_0_split
I0715 11:28:57.066690  7536 net.cpp:481] ConvNd_33_ConvNd_33_0_split <- ConvNd_33
I0715 11:28:57.066699  7536 net.cpp:455] ConvNd_33_ConvNd_33_0_split -> ConvNd_33_ConvNd_33_0_split_0
I0715 11:28:57.066712  7536 net.cpp:455] ConvNd_33_ConvNd_33_0_split -> ConvNd_33_ConvNd_33_0_split_1
I0715 11:28:57.066722  7536 net.cpp:455] ConvNd_33_ConvNd_33_0_split -> ConvNd_33_ConvNd_33_0_split_2
I0715 11:28:57.066735  7536 net.cpp:455] ConvNd_33_ConvNd_33_0_split -> ConvNd_33_ConvNd_33_0_split_3
I0715 11:28:57.066743  7536 net.cpp:455] ConvNd_33_ConvNd_33_0_split -> ConvNd_33_ConvNd_33_0_split_4
I0715 11:28:57.066814  7536 net.cpp:190] Setting up ConvNd_33_ConvNd_33_0_split
I0715 11:28:57.066821  7536 net.cpp:197] Top shape: 1 25 64 128 (204800)
I0715 11:28:57.066826  7536 net.cpp:197] Top shape: 1 25 64 128 (204800)
I0715 11:28:57.066833  7536 net.cpp:197] Top shape: 1 25 64 128 (204800)
I0715 11:28:57.066840  7536 net.cpp:197] Top shape: 1 25 64 128 (204800)
I0715 11:28:57.066848  7536 net.cpp:197] Top shape: 1 25 64 128 (204800)
I0715 11:28:57.066854  7536 net.cpp:205] Memory required for data: 540803072
I0715 11:28:57.066859  7536 layer_factory.hpp:123] Creating layer ConvNd_34
I0715 11:28:57.066870  7536 net.cpp:140] Creating Layer ConvNd_34
I0715 11:28:57.066877  7536 net.cpp:481] ConvNd_34 <- ConvNd_33_ConvNd_33_0_split_0
I0715 11:28:57.066884  7536 net.cpp:455] ConvNd_34 -> ConvNd_34
I0715 11:28:57.067119  7536 net.cpp:190] Setting up ConvNd_34
I0715 11:28:57.067127  7536 net.cpp:197] Top shape: 1 28 64 128 (229376)
I0715 11:28:57.067131  7536 net.cpp:205] Memory required for data: 541720576
I0715 11:28:57.067138  7536 layer_factory.hpp:123] Creating layer ConvNd_35
I0715 11:28:57.067152  7536 net.cpp:140] Creating Layer ConvNd_35
I0715 11:28:57.067157  7536 net.cpp:481] ConvNd_35 <- ConvNd_33_ConvNd_33_0_split_1
I0715 11:28:57.067167  7536 net.cpp:455] ConvNd_35 -> ConvNd_35
I0715 11:28:57.067397  7536 net.cpp:190] Setting up ConvNd_35
I0715 11:28:57.067405  7536 net.cpp:197] Top shape: 1 25 64 128 (204800)
I0715 11:28:57.067409  7536 net.cpp:205] Memory required for data: 542539776
I0715 11:28:57.067415  7536 layer_factory.hpp:123] Creating layer ConvNd_35_ConvNd_35_0_split
I0715 11:28:57.067423  7536 net.cpp:140] Creating Layer ConvNd_35_ConvNd_35_0_split
I0715 11:28:57.067430  7536 net.cpp:481] ConvNd_35_ConvNd_35_0_split <- ConvNd_35
I0715 11:28:57.067438  7536 net.cpp:455] ConvNd_35_ConvNd_35_0_split -> ConvNd_35_ConvNd_35_0_split_0
I0715 11:28:57.067451  7536 net.cpp:455] ConvNd_35_ConvNd_35_0_split -> ConvNd_35_ConvNd_35_0_split_1
I0715 11:28:57.067492  7536 net.cpp:190] Setting up ConvNd_35_ConvNd_35_0_split
I0715 11:28:57.067497  7536 net.cpp:197] Top shape: 1 25 64 128 (204800)
I0715 11:28:57.067503  7536 net.cpp:197] Top shape: 1 25 64 128 (204800)
I0715 11:28:57.067507  7536 net.cpp:205] Memory required for data: 544178176
I0715 11:28:57.067514  7536 layer_factory.hpp:123] Creating layer ConvNd_36
I0715 11:28:57.067525  7536 net.cpp:140] Creating Layer ConvNd_36
I0715 11:28:57.067531  7536 net.cpp:481] ConvNd_36 <- ConvNd_33_ConvNd_33_0_split_2
I0715 11:28:57.067540  7536 net.cpp:455] ConvNd_36 -> ConvNd_36
I0715 11:28:57.067771  7536 net.cpp:190] Setting up ConvNd_36
I0715 11:28:57.067780  7536 net.cpp:197] Top shape: 1 25 64 128 (204800)
I0715 11:28:57.067782  7536 net.cpp:205] Memory required for data: 544997376
I0715 11:28:57.067790  7536 layer_factory.hpp:123] Creating layer Add_19
I0715 11:28:57.067800  7536 net.cpp:140] Creating Layer Add_19
I0715 11:28:57.067807  7536 net.cpp:481] Add_19 <- ConvNd_35_ConvNd_35_0_split_0
I0715 11:28:57.067813  7536 net.cpp:481] Add_19 <- ConvNd_36
I0715 11:28:57.067823  7536 net.cpp:455] Add_19 -> Add_19
I0715 11:28:57.067852  7536 net.cpp:190] Setting up Add_19
I0715 11:28:57.067859  7536 net.cpp:197] Top shape: 1 25 64 128 (204800)
I0715 11:28:57.067862  7536 net.cpp:205] Memory required for data: 545816576
I0715 11:28:57.067867  7536 layer_factory.hpp:123] Creating layer Add_19_Add_19_0_split
I0715 11:28:57.067878  7536 net.cpp:140] Creating Layer Add_19_Add_19_0_split
I0715 11:28:57.067884  7536 net.cpp:481] Add_19_Add_19_0_split <- Add_19
I0715 11:28:57.067893  7536 net.cpp:455] Add_19_Add_19_0_split -> Add_19_Add_19_0_split_0
I0715 11:28:57.067905  7536 net.cpp:455] Add_19_Add_19_0_split -> Add_19_Add_19_0_split_1
I0715 11:28:57.067945  7536 net.cpp:190] Setting up Add_19_Add_19_0_split
I0715 11:28:57.067951  7536 net.cpp:197] Top shape: 1 25 64 128 (204800)
I0715 11:28:57.067956  7536 net.cpp:197] Top shape: 1 25 64 128 (204800)
I0715 11:28:57.067960  7536 net.cpp:205] Memory required for data: 547454976
I0715 11:28:57.067966  7536 layer_factory.hpp:123] Creating layer ConvNd_37
I0715 11:28:57.067978  7536 net.cpp:140] Creating Layer ConvNd_37
I0715 11:28:57.067984  7536 net.cpp:481] ConvNd_37 <- ConvNd_33_ConvNd_33_0_split_3
I0715 11:28:57.067993  7536 net.cpp:455] ConvNd_37 -> ConvNd_37
I0715 11:28:57.068219  7536 net.cpp:190] Setting up ConvNd_37
I0715 11:28:57.068226  7536 net.cpp:197] Top shape: 1 25 64 128 (204800)
I0715 11:28:57.068230  7536 net.cpp:205] Memory required for data: 548274176
I0715 11:28:57.068238  7536 layer_factory.hpp:123] Creating layer Add_20
I0715 11:28:57.068248  7536 net.cpp:140] Creating Layer Add_20
I0715 11:28:57.068254  7536 net.cpp:481] Add_20 <- Add_19_Add_19_0_split_0
I0715 11:28:57.068260  7536 net.cpp:481] Add_20 <- ConvNd_37
I0715 11:28:57.068270  7536 net.cpp:455] Add_20 -> Add_20
I0715 11:28:57.068300  7536 net.cpp:190] Setting up Add_20
I0715 11:28:57.068305  7536 net.cpp:197] Top shape: 1 25 64 128 (204800)
I0715 11:28:57.068310  7536 net.cpp:205] Memory required for data: 549093376
I0715 11:28:57.068315  7536 layer_factory.hpp:123] Creating layer Add_20_Add_20_0_split
I0715 11:28:57.068322  7536 net.cpp:140] Creating Layer Add_20_Add_20_0_split
I0715 11:28:57.068329  7536 net.cpp:481] Add_20_Add_20_0_split <- Add_20
I0715 11:28:57.068337  7536 net.cpp:455] Add_20_Add_20_0_split -> Add_20_Add_20_0_split_0
I0715 11:28:57.068349  7536 net.cpp:455] Add_20_Add_20_0_split -> Add_20_Add_20_0_split_1
I0715 11:28:57.068390  7536 net.cpp:190] Setting up Add_20_Add_20_0_split
I0715 11:28:57.068397  7536 net.cpp:197] Top shape: 1 25 64 128 (204800)
I0715 11:28:57.068401  7536 net.cpp:197] Top shape: 1 25 64 128 (204800)
I0715 11:28:57.068406  7536 net.cpp:205] Memory required for data: 550731776
I0715 11:28:57.068411  7536 layer_factory.hpp:123] Creating layer ConvNd_38
I0715 11:28:57.068424  7536 net.cpp:140] Creating Layer ConvNd_38
I0715 11:28:57.068431  7536 net.cpp:481] ConvNd_38 <- ConvNd_33_ConvNd_33_0_split_4
I0715 11:28:57.068439  7536 net.cpp:455] ConvNd_38 -> ConvNd_38
I0715 11:28:57.068665  7536 net.cpp:190] Setting up ConvNd_38
I0715 11:28:57.068672  7536 net.cpp:197] Top shape: 1 25 64 128 (204800)
I0715 11:28:57.068676  7536 net.cpp:205] Memory required for data: 551550976
I0715 11:28:57.068683  7536 layer_factory.hpp:123] Creating layer Add_21
I0715 11:28:57.068693  7536 net.cpp:140] Creating Layer Add_21
I0715 11:28:57.068699  7536 net.cpp:481] Add_21 <- Add_20_Add_20_0_split_0
I0715 11:28:57.068706  7536 net.cpp:481] Add_21 <- ConvNd_38
I0715 11:28:57.068717  7536 net.cpp:455] Add_21 -> Add_21
I0715 11:28:57.068744  7536 net.cpp:190] Setting up Add_21
I0715 11:28:57.068751  7536 net.cpp:197] Top shape: 1 25 64 128 (204800)
I0715 11:28:57.068754  7536 net.cpp:205] Memory required for data: 552370176
I0715 11:28:57.068759  7536 layer_factory.hpp:123] Creating layer Concat_8
I0715 11:28:57.068768  7536 net.cpp:140] Creating Layer Concat_8
I0715 11:28:57.068775  7536 net.cpp:481] Concat_8 <- ConvNd_34
I0715 11:28:57.068781  7536 net.cpp:481] Concat_8 <- ConvNd_35_ConvNd_35_0_split_1
I0715 11:28:57.068789  7536 net.cpp:481] Concat_8 <- Add_19_Add_19_0_split_1
I0715 11:28:57.068796  7536 net.cpp:481] Concat_8 <- Add_20_Add_20_0_split_1
I0715 11:28:57.068801  7536 net.cpp:481] Concat_8 <- Add_21
I0715 11:28:57.068811  7536 net.cpp:455] Concat_8 -> Concat_8
I0715 11:28:57.068841  7536 net.cpp:190] Setting up Concat_8
I0715 11:28:57.068847  7536 net.cpp:197] Top shape: 1 128 64 128 (1048576)
I0715 11:28:57.068851  7536 net.cpp:205] Memory required for data: 556564480
I0715 11:28:57.068856  7536 layer_factory.hpp:123] Creating layer Add_22
I0715 11:28:57.068863  7536 net.cpp:140] Creating Layer Add_22
I0715 11:28:57.068871  7536 net.cpp:481] Add_22 <- BatchNorm_8_Threshold_8_0_split_1
I0715 11:28:57.068877  7536 net.cpp:481] Add_22 <- Concat_8
I0715 11:28:57.068886  7536 net.cpp:455] Add_22 -> Add_22
I0715 11:28:57.068914  7536 net.cpp:190] Setting up Add_22
I0715 11:28:57.068922  7536 net.cpp:197] Top shape: 1 128 64 128 (1048576)
I0715 11:28:57.068924  7536 net.cpp:205] Memory required for data: 560758784
I0715 11:28:57.068929  7536 layer_factory.hpp:123] Creating layer BatchNorm_9
I0715 11:28:57.068940  7536 net.cpp:140] Creating Layer BatchNorm_9
I0715 11:28:57.068946  7536 net.cpp:481] BatchNorm_9 <- Add_22
I0715 11:28:57.068955  7536 net.cpp:455] BatchNorm_9 -> BatchNorm_9
I0715 11:28:57.069509  7536 net.cpp:190] Setting up BatchNorm_9
I0715 11:28:57.069517  7536 net.cpp:197] Top shape: 1 128 64 128 (1048576)
I0715 11:28:57.069520  7536 net.cpp:205] Memory required for data: 564953088
I0715 11:28:57.069535  7536 layer_factory.hpp:123] Creating layer Threshold_9
I0715 11:28:57.069545  7536 net.cpp:140] Creating Layer Threshold_9
I0715 11:28:57.069552  7536 net.cpp:481] Threshold_9 <- BatchNorm_9
I0715 11:28:57.069559  7536 net.cpp:442] Threshold_9 -> BatchNorm_9 (in-place)
I0715 11:28:57.069571  7536 net.cpp:190] Setting up Threshold_9
I0715 11:28:57.069578  7536 net.cpp:197] Top shape: 1 128 64 128 (1048576)
I0715 11:28:57.069586  7536 net.cpp:205] Memory required for data: 569147392
I0715 11:28:57.069591  7536 layer_factory.hpp:123] Creating layer BatchNorm_9_Threshold_9_0_split
I0715 11:28:57.069600  7536 net.cpp:140] Creating Layer BatchNorm_9_Threshold_9_0_split
I0715 11:28:57.069607  7536 net.cpp:481] BatchNorm_9_Threshold_9_0_split <- BatchNorm_9
I0715 11:28:57.069614  7536 net.cpp:455] BatchNorm_9_Threshold_9_0_split -> BatchNorm_9_Threshold_9_0_split_0
I0715 11:28:57.069627  7536 net.cpp:455] BatchNorm_9_Threshold_9_0_split -> BatchNorm_9_Threshold_9_0_split_1
I0715 11:28:57.069667  7536 net.cpp:190] Setting up BatchNorm_9_Threshold_9_0_split
I0715 11:28:57.069674  7536 net.cpp:197] Top shape: 1 128 64 128 (1048576)
I0715 11:28:57.069679  7536 net.cpp:197] Top shape: 1 128 64 128 (1048576)
I0715 11:28:57.069684  7536 net.cpp:205] Memory required for data: 577536000
I0715 11:28:57.069689  7536 layer_factory.hpp:123] Creating layer ConvNd_39
I0715 11:28:57.069701  7536 net.cpp:140] Creating Layer ConvNd_39
I0715 11:28:57.069708  7536 net.cpp:481] ConvNd_39 <- BatchNorm_9_Threshold_9_0_split_0
I0715 11:28:57.069717  7536 net.cpp:455] ConvNd_39 -> ConvNd_39
I0715 11:28:57.069924  7536 net.cpp:190] Setting up ConvNd_39
I0715 11:28:57.069932  7536 net.cpp:197] Top shape: 1 25 64 128 (204800)
I0715 11:28:57.069936  7536 net.cpp:205] Memory required for data: 578355200
I0715 11:28:57.069943  7536 layer_factory.hpp:123] Creating layer ConvNd_39_ConvNd_39_0_split
I0715 11:28:57.069954  7536 net.cpp:140] Creating Layer ConvNd_39_ConvNd_39_0_split
I0715 11:28:57.069962  7536 net.cpp:481] ConvNd_39_ConvNd_39_0_split <- ConvNd_39
I0715 11:28:57.069970  7536 net.cpp:455] ConvNd_39_ConvNd_39_0_split -> ConvNd_39_ConvNd_39_0_split_0
I0715 11:28:57.069984  7536 net.cpp:455] ConvNd_39_ConvNd_39_0_split -> ConvNd_39_ConvNd_39_0_split_1
I0715 11:28:57.069993  7536 net.cpp:455] ConvNd_39_ConvNd_39_0_split -> ConvNd_39_ConvNd_39_0_split_2
I0715 11:28:57.070005  7536 net.cpp:455] ConvNd_39_ConvNd_39_0_split -> ConvNd_39_ConvNd_39_0_split_3
I0715 11:28:57.070015  7536 net.cpp:455] ConvNd_39_ConvNd_39_0_split -> ConvNd_39_ConvNd_39_0_split_4
I0715 11:28:57.070086  7536 net.cpp:190] Setting up ConvNd_39_ConvNd_39_0_split
I0715 11:28:57.070092  7536 net.cpp:197] Top shape: 1 25 64 128 (204800)
I0715 11:28:57.070097  7536 net.cpp:197] Top shape: 1 25 64 128 (204800)
I0715 11:28:57.070103  7536 net.cpp:197] Top shape: 1 25 64 128 (204800)
I0715 11:28:57.070111  7536 net.cpp:197] Top shape: 1 25 64 128 (204800)
I0715 11:28:57.070119  7536 net.cpp:197] Top shape: 1 25 64 128 (204800)
I0715 11:28:57.070125  7536 net.cpp:205] Memory required for data: 582451200
I0715 11:28:57.070130  7536 layer_factory.hpp:123] Creating layer ConvNd_40
I0715 11:28:57.070143  7536 net.cpp:140] Creating Layer ConvNd_40
I0715 11:28:57.070150  7536 net.cpp:481] ConvNd_40 <- ConvNd_39_ConvNd_39_0_split_0
I0715 11:28:57.070158  7536 net.cpp:455] ConvNd_40 -> ConvNd_40
I0715 11:28:57.070394  7536 net.cpp:190] Setting up ConvNd_40
I0715 11:28:57.070401  7536 net.cpp:197] Top shape: 1 28 64 128 (229376)
I0715 11:28:57.070405  7536 net.cpp:205] Memory required for data: 583368704
I0715 11:28:57.070412  7536 layer_factory.hpp:123] Creating layer ConvNd_41
I0715 11:28:57.070426  7536 net.cpp:140] Creating Layer ConvNd_41
I0715 11:28:57.070432  7536 net.cpp:481] ConvNd_41 <- ConvNd_39_ConvNd_39_0_split_1
I0715 11:28:57.070441  7536 net.cpp:455] ConvNd_41 -> ConvNd_41
I0715 11:28:57.070672  7536 net.cpp:190] Setting up ConvNd_41
I0715 11:28:57.070680  7536 net.cpp:197] Top shape: 1 25 64 128 (204800)
I0715 11:28:57.070683  7536 net.cpp:205] Memory required for data: 584187904
I0715 11:28:57.070690  7536 layer_factory.hpp:123] Creating layer ConvNd_41_ConvNd_41_0_split
I0715 11:28:57.070699  7536 net.cpp:140] Creating Layer ConvNd_41_ConvNd_41_0_split
I0715 11:28:57.070708  7536 net.cpp:481] ConvNd_41_ConvNd_41_0_split <- ConvNd_41
I0715 11:28:57.070715  7536 net.cpp:455] ConvNd_41_ConvNd_41_0_split -> ConvNd_41_ConvNd_41_0_split_0
I0715 11:28:57.070727  7536 net.cpp:455] ConvNd_41_ConvNd_41_0_split -> ConvNd_41_ConvNd_41_0_split_1
I0715 11:28:57.070768  7536 net.cpp:190] Setting up ConvNd_41_ConvNd_41_0_split
I0715 11:28:57.070775  7536 net.cpp:197] Top shape: 1 25 64 128 (204800)
I0715 11:28:57.070780  7536 net.cpp:197] Top shape: 1 25 64 128 (204800)
I0715 11:28:57.070785  7536 net.cpp:205] Memory required for data: 585826304
I0715 11:28:57.070791  7536 layer_factory.hpp:123] Creating layer ConvNd_42
I0715 11:28:57.070808  7536 net.cpp:140] Creating Layer ConvNd_42
I0715 11:28:57.070816  7536 net.cpp:481] ConvNd_42 <- ConvNd_39_ConvNd_39_0_split_2
I0715 11:28:57.070824  7536 net.cpp:455] ConvNd_42 -> ConvNd_42
I0715 11:28:57.071053  7536 net.cpp:190] Setting up ConvNd_42
I0715 11:28:57.071060  7536 net.cpp:197] Top shape: 1 25 64 128 (204800)
I0715 11:28:57.071064  7536 net.cpp:205] Memory required for data: 586645504
I0715 11:28:57.071072  7536 layer_factory.hpp:123] Creating layer Add_23
I0715 11:28:57.071081  7536 net.cpp:140] Creating Layer Add_23
I0715 11:28:57.071089  7536 net.cpp:481] Add_23 <- ConvNd_41_ConvNd_41_0_split_0
I0715 11:28:57.071094  7536 net.cpp:481] Add_23 <- ConvNd_42
I0715 11:28:57.071105  7536 net.cpp:455] Add_23 -> Add_23
I0715 11:28:57.071135  7536 net.cpp:190] Setting up Add_23
I0715 11:28:57.071141  7536 net.cpp:197] Top shape: 1 25 64 128 (204800)
I0715 11:28:57.071144  7536 net.cpp:205] Memory required for data: 587464704
I0715 11:28:57.071149  7536 layer_factory.hpp:123] Creating layer Add_23_Add_23_0_split
I0715 11:28:57.071156  7536 net.cpp:140] Creating Layer Add_23_Add_23_0_split
I0715 11:28:57.071163  7536 net.cpp:481] Add_23_Add_23_0_split <- Add_23
I0715 11:28:57.071171  7536 net.cpp:455] Add_23_Add_23_0_split -> Add_23_Add_23_0_split_0
I0715 11:28:57.071184  7536 net.cpp:455] Add_23_Add_23_0_split -> Add_23_Add_23_0_split_1
I0715 11:28:57.071223  7536 net.cpp:190] Setting up Add_23_Add_23_0_split
I0715 11:28:57.071229  7536 net.cpp:197] Top shape: 1 25 64 128 (204800)
I0715 11:28:57.071234  7536 net.cpp:197] Top shape: 1 25 64 128 (204800)
I0715 11:28:57.071238  7536 net.cpp:205] Memory required for data: 589103104
I0715 11:28:57.071245  7536 layer_factory.hpp:123] Creating layer ConvNd_43
I0715 11:28:57.071257  7536 net.cpp:140] Creating Layer ConvNd_43
I0715 11:28:57.071264  7536 net.cpp:481] ConvNd_43 <- ConvNd_39_ConvNd_39_0_split_3
I0715 11:28:57.071272  7536 net.cpp:455] ConvNd_43 -> ConvNd_43
I0715 11:28:57.071498  7536 net.cpp:190] Setting up ConvNd_43
I0715 11:28:57.071506  7536 net.cpp:197] Top shape: 1 25 64 128 (204800)
I0715 11:28:57.071509  7536 net.cpp:205] Memory required for data: 589922304
I0715 11:28:57.071516  7536 layer_factory.hpp:123] Creating layer Add_24
I0715 11:28:57.071525  7536 net.cpp:140] Creating Layer Add_24
I0715 11:28:57.071532  7536 net.cpp:481] Add_24 <- Add_23_Add_23_0_split_0
I0715 11:28:57.071539  7536 net.cpp:481] Add_24 <- ConvNd_43
I0715 11:28:57.071549  7536 net.cpp:455] Add_24 -> Add_24
I0715 11:28:57.071579  7536 net.cpp:190] Setting up Add_24
I0715 11:28:57.071586  7536 net.cpp:197] Top shape: 1 25 64 128 (204800)
I0715 11:28:57.071589  7536 net.cpp:205] Memory required for data: 590741504
I0715 11:28:57.071594  7536 layer_factory.hpp:123] Creating layer Add_24_Add_24_0_split
I0715 11:28:57.071601  7536 net.cpp:140] Creating Layer Add_24_Add_24_0_split
I0715 11:28:57.071609  7536 net.cpp:481] Add_24_Add_24_0_split <- Add_24
I0715 11:28:57.071616  7536 net.cpp:455] Add_24_Add_24_0_split -> Add_24_Add_24_0_split_0
I0715 11:28:57.071629  7536 net.cpp:455] Add_24_Add_24_0_split -> Add_24_Add_24_0_split_1
I0715 11:28:57.071669  7536 net.cpp:190] Setting up Add_24_Add_24_0_split
I0715 11:28:57.071676  7536 net.cpp:197] Top shape: 1 25 64 128 (204800)
I0715 11:28:57.071681  7536 net.cpp:197] Top shape: 1 25 64 128 (204800)
I0715 11:28:57.071684  7536 net.cpp:205] Memory required for data: 592379904
I0715 11:28:57.071691  7536 layer_factory.hpp:123] Creating layer ConvNd_44
I0715 11:28:57.071705  7536 net.cpp:140] Creating Layer ConvNd_44
I0715 11:28:57.071712  7536 net.cpp:481] ConvNd_44 <- ConvNd_39_ConvNd_39_0_split_4
I0715 11:28:57.071720  7536 net.cpp:455] ConvNd_44 -> ConvNd_44
I0715 11:28:57.071955  7536 net.cpp:190] Setting up ConvNd_44
I0715 11:28:57.071964  7536 net.cpp:197] Top shape: 1 25 64 128 (204800)
I0715 11:28:57.071967  7536 net.cpp:205] Memory required for data: 593199104
I0715 11:28:57.071974  7536 layer_factory.hpp:123] Creating layer Add_25
I0715 11:28:57.071983  7536 net.cpp:140] Creating Layer Add_25
I0715 11:28:57.071991  7536 net.cpp:481] Add_25 <- Add_24_Add_24_0_split_0
I0715 11:28:57.071998  7536 net.cpp:481] Add_25 <- ConvNd_44
I0715 11:28:57.072005  7536 net.cpp:455] Add_25 -> Add_25
I0715 11:28:57.072036  7536 net.cpp:190] Setting up Add_25
I0715 11:28:57.072041  7536 net.cpp:197] Top shape: 1 25 64 128 (204800)
I0715 11:28:57.072046  7536 net.cpp:205] Memory required for data: 594018304
I0715 11:28:57.072049  7536 layer_factory.hpp:123] Creating layer Concat_9
I0715 11:28:57.072058  7536 net.cpp:140] Creating Layer Concat_9
I0715 11:28:57.072065  7536 net.cpp:481] Concat_9 <- ConvNd_40
I0715 11:28:57.072072  7536 net.cpp:481] Concat_9 <- ConvNd_41_ConvNd_41_0_split_1
I0715 11:28:57.072080  7536 net.cpp:481] Concat_9 <- Add_23_Add_23_0_split_1
I0715 11:28:57.072086  7536 net.cpp:481] Concat_9 <- Add_24_Add_24_0_split_1
I0715 11:28:57.072094  7536 net.cpp:481] Concat_9 <- Add_25
I0715 11:28:57.072104  7536 net.cpp:455] Concat_9 -> Concat_9
I0715 11:28:57.072134  7536 net.cpp:190] Setting up Concat_9
I0715 11:28:57.072141  7536 net.cpp:197] Top shape: 1 128 64 128 (1048576)
I0715 11:28:57.072144  7536 net.cpp:205] Memory required for data: 598212608
I0715 11:28:57.072149  7536 layer_factory.hpp:123] Creating layer Add_26
I0715 11:28:57.072160  7536 net.cpp:140] Creating Layer Add_26
I0715 11:28:57.072166  7536 net.cpp:481] Add_26 <- BatchNorm_9_Threshold_9_0_split_1
I0715 11:28:57.072175  7536 net.cpp:481] Add_26 <- Concat_9
I0715 11:28:57.072185  7536 net.cpp:455] Add_26 -> Add_26
I0715 11:28:57.072212  7536 net.cpp:190] Setting up Add_26
I0715 11:28:57.072219  7536 net.cpp:197] Top shape: 1 128 64 128 (1048576)
I0715 11:28:57.072222  7536 net.cpp:205] Memory required for data: 602406912
I0715 11:28:57.072227  7536 layer_factory.hpp:123] Creating layer BatchNorm_10
I0715 11:28:57.072237  7536 net.cpp:140] Creating Layer BatchNorm_10
I0715 11:28:57.072244  7536 net.cpp:481] BatchNorm_10 <- Add_26
I0715 11:28:57.072257  7536 net.cpp:455] BatchNorm_10 -> BatchNorm_10
I0715 11:28:57.072815  7536 net.cpp:190] Setting up BatchNorm_10
I0715 11:28:57.072824  7536 net.cpp:197] Top shape: 1 128 64 128 (1048576)
I0715 11:28:57.072827  7536 net.cpp:205] Memory required for data: 606601216
I0715 11:28:57.072842  7536 layer_factory.hpp:123] Creating layer Threshold_10
I0715 11:28:57.072852  7536 net.cpp:140] Creating Layer Threshold_10
I0715 11:28:57.072858  7536 net.cpp:481] Threshold_10 <- BatchNorm_10
I0715 11:28:57.072866  7536 net.cpp:442] Threshold_10 -> BatchNorm_10 (in-place)
I0715 11:28:57.072878  7536 net.cpp:190] Setting up Threshold_10
I0715 11:28:57.072886  7536 net.cpp:197] Top shape: 1 128 64 128 (1048576)
I0715 11:28:57.072890  7536 net.cpp:205] Memory required for data: 610795520
I0715 11:28:57.072896  7536 layer_factory.hpp:123] Creating layer BatchNorm_10_Threshold_10_0_split
I0715 11:28:57.072906  7536 net.cpp:140] Creating Layer BatchNorm_10_Threshold_10_0_split
I0715 11:28:57.072911  7536 net.cpp:481] BatchNorm_10_Threshold_10_0_split <- BatchNorm_10
I0715 11:28:57.072918  7536 net.cpp:455] BatchNorm_10_Threshold_10_0_split -> BatchNorm_10_Threshold_10_0_split_0
I0715 11:28:57.072930  7536 net.cpp:455] BatchNorm_10_Threshold_10_0_split -> BatchNorm_10_Threshold_10_0_split_1
I0715 11:28:57.072973  7536 net.cpp:190] Setting up BatchNorm_10_Threshold_10_0_split
I0715 11:28:57.072978  7536 net.cpp:197] Top shape: 1 128 64 128 (1048576)
I0715 11:28:57.072983  7536 net.cpp:197] Top shape: 1 128 64 128 (1048576)
I0715 11:28:57.072988  7536 net.cpp:205] Memory required for data: 619184128
I0715 11:28:57.072995  7536 layer_factory.hpp:123] Creating layer ConvNd_45
I0715 11:28:57.073006  7536 net.cpp:140] Creating Layer ConvNd_45
I0715 11:28:57.073014  7536 net.cpp:481] ConvNd_45 <- BatchNorm_10_Threshold_10_0_split_0
I0715 11:28:57.073021  7536 net.cpp:455] ConvNd_45 -> ConvNd_45
I0715 11:28:57.073230  7536 net.cpp:190] Setting up ConvNd_45
I0715 11:28:57.073237  7536 net.cpp:197] Top shape: 1 25 64 128 (204800)
I0715 11:28:57.073241  7536 net.cpp:205] Memory required for data: 620003328
I0715 11:28:57.073248  7536 layer_factory.hpp:123] Creating layer ConvNd_45_ConvNd_45_0_split
I0715 11:28:57.073258  7536 net.cpp:140] Creating Layer ConvNd_45_ConvNd_45_0_split
I0715 11:28:57.073264  7536 net.cpp:481] ConvNd_45_ConvNd_45_0_split <- ConvNd_45
I0715 11:28:57.073274  7536 net.cpp:455] ConvNd_45_ConvNd_45_0_split -> ConvNd_45_ConvNd_45_0_split_0
I0715 11:28:57.073287  7536 net.cpp:455] ConvNd_45_ConvNd_45_0_split -> ConvNd_45_ConvNd_45_0_split_1
I0715 11:28:57.073300  7536 net.cpp:455] ConvNd_45_ConvNd_45_0_split -> ConvNd_45_ConvNd_45_0_split_2
I0715 11:28:57.073312  7536 net.cpp:455] ConvNd_45_ConvNd_45_0_split -> ConvNd_45_ConvNd_45_0_split_3
I0715 11:28:57.073323  7536 net.cpp:455] ConvNd_45_ConvNd_45_0_split -> ConvNd_45_ConvNd_45_0_split_4
I0715 11:28:57.073393  7536 net.cpp:190] Setting up ConvNd_45_ConvNd_45_0_split
I0715 11:28:57.073400  7536 net.cpp:197] Top shape: 1 25 64 128 (204800)
I0715 11:28:57.073405  7536 net.cpp:197] Top shape: 1 25 64 128 (204800)
I0715 11:28:57.073411  7536 net.cpp:197] Top shape: 1 25 64 128 (204800)
I0715 11:28:57.073418  7536 net.cpp:197] Top shape: 1 25 64 128 (204800)
I0715 11:28:57.073427  7536 net.cpp:197] Top shape: 1 25 64 128 (204800)
I0715 11:28:57.073433  7536 net.cpp:205] Memory required for data: 624099328
I0715 11:28:57.073437  7536 layer_factory.hpp:123] Creating layer ConvNd_46
I0715 11:28:57.073449  7536 net.cpp:140] Creating Layer ConvNd_46
I0715 11:28:57.073457  7536 net.cpp:481] ConvNd_46 <- ConvNd_45_ConvNd_45_0_split_0
I0715 11:28:57.073464  7536 net.cpp:455] ConvNd_46 -> ConvNd_46
I0715 11:28:57.073701  7536 net.cpp:190] Setting up ConvNd_46
I0715 11:28:57.073709  7536 net.cpp:197] Top shape: 1 28 64 128 (229376)
I0715 11:28:57.073714  7536 net.cpp:205] Memory required for data: 625016832
I0715 11:28:57.073721  7536 layer_factory.hpp:123] Creating layer ConvNd_47
I0715 11:28:57.073734  7536 net.cpp:140] Creating Layer ConvNd_47
I0715 11:28:57.073740  7536 net.cpp:481] ConvNd_47 <- ConvNd_45_ConvNd_45_0_split_1
I0715 11:28:57.073748  7536 net.cpp:455] ConvNd_47 -> ConvNd_47
I0715 11:28:57.073977  7536 net.cpp:190] Setting up ConvNd_47
I0715 11:28:57.073984  7536 net.cpp:197] Top shape: 1 25 64 128 (204800)
I0715 11:28:57.073988  7536 net.cpp:205] Memory required for data: 625836032
I0715 11:28:57.073995  7536 layer_factory.hpp:123] Creating layer ConvNd_47_ConvNd_47_0_split
I0715 11:28:57.074005  7536 net.cpp:140] Creating Layer ConvNd_47_ConvNd_47_0_split
I0715 11:28:57.074012  7536 net.cpp:481] ConvNd_47_ConvNd_47_0_split <- ConvNd_47
I0715 11:28:57.074019  7536 net.cpp:455] ConvNd_47_ConvNd_47_0_split -> ConvNd_47_ConvNd_47_0_split_0
I0715 11:28:57.074033  7536 net.cpp:455] ConvNd_47_ConvNd_47_0_split -> ConvNd_47_ConvNd_47_0_split_1
I0715 11:28:57.074074  7536 net.cpp:190] Setting up ConvNd_47_ConvNd_47_0_split
I0715 11:28:57.074079  7536 net.cpp:197] Top shape: 1 25 64 128 (204800)
I0715 11:28:57.074084  7536 net.cpp:197] Top shape: 1 25 64 128 (204800)
I0715 11:28:57.074090  7536 net.cpp:205] Memory required for data: 627474432
I0715 11:28:57.074095  7536 layer_factory.hpp:123] Creating layer ConvNd_48
I0715 11:28:57.074107  7536 net.cpp:140] Creating Layer ConvNd_48
I0715 11:28:57.074113  7536 net.cpp:481] ConvNd_48 <- ConvNd_45_ConvNd_45_0_split_2
I0715 11:28:57.074122  7536 net.cpp:455] ConvNd_48 -> ConvNd_48
I0715 11:28:57.074347  7536 net.cpp:190] Setting up ConvNd_48
I0715 11:28:57.074354  7536 net.cpp:197] Top shape: 1 25 64 128 (204800)
I0715 11:28:57.074358  7536 net.cpp:205] Memory required for data: 628293632
I0715 11:28:57.074365  7536 layer_factory.hpp:123] Creating layer Add_27
I0715 11:28:57.074375  7536 net.cpp:140] Creating Layer Add_27
I0715 11:28:57.074383  7536 net.cpp:481] Add_27 <- ConvNd_47_ConvNd_47_0_split_0
I0715 11:28:57.074388  7536 net.cpp:481] Add_27 <- ConvNd_48
I0715 11:28:57.074398  7536 net.cpp:455] Add_27 -> Add_27
I0715 11:28:57.074429  7536 net.cpp:190] Setting up Add_27
I0715 11:28:57.074434  7536 net.cpp:197] Top shape: 1 25 64 128 (204800)
I0715 11:28:57.074438  7536 net.cpp:205] Memory required for data: 629112832
I0715 11:28:57.074443  7536 layer_factory.hpp:123] Creating layer Add_27_Add_27_0_split
I0715 11:28:57.074450  7536 net.cpp:140] Creating Layer Add_27_Add_27_0_split
I0715 11:28:57.074458  7536 net.cpp:481] Add_27_Add_27_0_split <- Add_27
I0715 11:28:57.074466  7536 net.cpp:455] Add_27_Add_27_0_split -> Add_27_Add_27_0_split_0
I0715 11:28:57.074481  7536 net.cpp:455] Add_27_Add_27_0_split -> Add_27_Add_27_0_split_1
I0715 11:28:57.074513  7536 net.cpp:190] Setting up Add_27_Add_27_0_split
I0715 11:28:57.074518  7536 net.cpp:197] Top shape: 1 25 64 128 (204800)
I0715 11:28:57.074522  7536 net.cpp:197] Top shape: 1 25 64 128 (204800)
I0715 11:28:57.074525  7536 net.cpp:205] Memory required for data: 630751232
I0715 11:28:57.074528  7536 layer_factory.hpp:123] Creating layer ConvNd_49
I0715 11:28:57.074535  7536 net.cpp:140] Creating Layer ConvNd_49
I0715 11:28:57.074539  7536 net.cpp:481] ConvNd_49 <- ConvNd_45_ConvNd_45_0_split_3
I0715 11:28:57.074544  7536 net.cpp:455] ConvNd_49 -> ConvNd_49
I0715 11:28:57.074775  7536 net.cpp:190] Setting up ConvNd_49
I0715 11:28:57.074782  7536 net.cpp:197] Top shape: 1 25 64 128 (204800)
I0715 11:28:57.074786  7536 net.cpp:205] Memory required for data: 631570432
I0715 11:28:57.074793  7536 layer_factory.hpp:123] Creating layer Add_28
I0715 11:28:57.074803  7536 net.cpp:140] Creating Layer Add_28
I0715 11:28:57.074810  7536 net.cpp:481] Add_28 <- Add_27_Add_27_0_split_0
I0715 11:28:57.074816  7536 net.cpp:481] Add_28 <- ConvNd_49
I0715 11:28:57.074826  7536 net.cpp:455] Add_28 -> Add_28
I0715 11:28:57.074856  7536 net.cpp:190] Setting up Add_28
I0715 11:28:57.074862  7536 net.cpp:197] Top shape: 1 25 64 128 (204800)
I0715 11:28:57.074865  7536 net.cpp:205] Memory required for data: 632389632
I0715 11:28:57.074870  7536 layer_factory.hpp:123] Creating layer Add_28_Add_28_0_split
I0715 11:28:57.074880  7536 net.cpp:140] Creating Layer Add_28_Add_28_0_split
I0715 11:28:57.074887  7536 net.cpp:481] Add_28_Add_28_0_split <- Add_28
I0715 11:28:57.074895  7536 net.cpp:455] Add_28_Add_28_0_split -> Add_28_Add_28_0_split_0
I0715 11:28:57.074908  7536 net.cpp:455] Add_28_Add_28_0_split -> Add_28_Add_28_0_split_1
I0715 11:28:57.074946  7536 net.cpp:190] Setting up Add_28_Add_28_0_split
I0715 11:28:57.074954  7536 net.cpp:197] Top shape: 1 25 64 128 (204800)
I0715 11:28:57.074959  7536 net.cpp:197] Top shape: 1 25 64 128 (204800)
I0715 11:28:57.074962  7536 net.cpp:205] Memory required for data: 634028032
I0715 11:28:57.074970  7536 layer_factory.hpp:123] Creating layer ConvNd_50
I0715 11:28:57.074980  7536 net.cpp:140] Creating Layer ConvNd_50
I0715 11:28:57.074987  7536 net.cpp:481] ConvNd_50 <- ConvNd_45_ConvNd_45_0_split_4
I0715 11:28:57.074996  7536 net.cpp:455] ConvNd_50 -> ConvNd_50
I0715 11:28:57.075222  7536 net.cpp:190] Setting up ConvNd_50
I0715 11:28:57.075229  7536 net.cpp:197] Top shape: 1 25 64 128 (204800)
I0715 11:28:57.075232  7536 net.cpp:205] Memory required for data: 634847232
I0715 11:28:57.075239  7536 layer_factory.hpp:123] Creating layer Add_29
I0715 11:28:57.075248  7536 net.cpp:140] Creating Layer Add_29
I0715 11:28:57.075254  7536 net.cpp:481] Add_29 <- Add_28_Add_28_0_split_0
I0715 11:28:57.075260  7536 net.cpp:481] Add_29 <- ConvNd_50
I0715 11:28:57.075269  7536 net.cpp:455] Add_29 -> Add_29
I0715 11:28:57.075297  7536 net.cpp:190] Setting up Add_29
I0715 11:28:57.075304  7536 net.cpp:197] Top shape: 1 25 64 128 (204800)
I0715 11:28:57.075307  7536 net.cpp:205] Memory required for data: 635666432
I0715 11:28:57.075312  7536 layer_factory.hpp:123] Creating layer Concat_10
I0715 11:28:57.075320  7536 net.cpp:140] Creating Layer Concat_10
I0715 11:28:57.075328  7536 net.cpp:481] Concat_10 <- ConvNd_46
I0715 11:28:57.075335  7536 net.cpp:481] Concat_10 <- ConvNd_47_ConvNd_47_0_split_1
I0715 11:28:57.075343  7536 net.cpp:481] Concat_10 <- Add_27_Add_27_0_split_1
I0715 11:28:57.075350  7536 net.cpp:481] Concat_10 <- Add_28_Add_28_0_split_1
I0715 11:28:57.075356  7536 net.cpp:481] Concat_10 <- Add_29
I0715 11:28:57.075364  7536 net.cpp:455] Concat_10 -> Concat_10
I0715 11:28:57.075398  7536 net.cpp:190] Setting up Concat_10
I0715 11:28:57.075404  7536 net.cpp:197] Top shape: 1 128 64 128 (1048576)
I0715 11:28:57.075407  7536 net.cpp:205] Memory required for data: 639860736
I0715 11:28:57.075412  7536 layer_factory.hpp:123] Creating layer Add_30
I0715 11:28:57.075420  7536 net.cpp:140] Creating Layer Add_30
I0715 11:28:57.075428  7536 net.cpp:481] Add_30 <- BatchNorm_10_Threshold_10_0_split_1
I0715 11:28:57.075433  7536 net.cpp:481] Add_30 <- Concat_10
I0715 11:28:57.075441  7536 net.cpp:455] Add_30 -> Add_30
I0715 11:28:57.075470  7536 net.cpp:190] Setting up Add_30
I0715 11:28:57.075476  7536 net.cpp:197] Top shape: 1 128 64 128 (1048576)
I0715 11:28:57.075479  7536 net.cpp:205] Memory required for data: 644055040
I0715 11:28:57.075484  7536 layer_factory.hpp:123] Creating layer BatchNorm_11
I0715 11:28:57.075495  7536 net.cpp:140] Creating Layer BatchNorm_11
I0715 11:28:57.075502  7536 net.cpp:481] BatchNorm_11 <- Add_30
I0715 11:28:57.075510  7536 net.cpp:455] BatchNorm_11 -> BatchNorm_11
I0715 11:28:57.076084  7536 net.cpp:190] Setting up BatchNorm_11
I0715 11:28:57.076093  7536 net.cpp:197] Top shape: 1 128 64 128 (1048576)
I0715 11:28:57.076097  7536 net.cpp:205] Memory required for data: 648249344
I0715 11:28:57.076109  7536 layer_factory.hpp:123] Creating layer Threshold_11
I0715 11:28:57.076120  7536 net.cpp:140] Creating Layer Threshold_11
I0715 11:28:57.076128  7536 net.cpp:481] Threshold_11 <- BatchNorm_11
I0715 11:28:57.076134  7536 net.cpp:442] Threshold_11 -> BatchNorm_11 (in-place)
I0715 11:28:57.076144  7536 net.cpp:190] Setting up Threshold_11
I0715 11:28:57.076151  7536 net.cpp:197] Top shape: 1 128 64 128 (1048576)
I0715 11:28:57.076155  7536 net.cpp:205] Memory required for data: 652443648
I0715 11:28:57.076160  7536 layer_factory.hpp:123] Creating layer BatchNorm_11_Threshold_11_0_split
I0715 11:28:57.076169  7536 net.cpp:140] Creating Layer BatchNorm_11_Threshold_11_0_split
I0715 11:28:57.076174  7536 net.cpp:481] BatchNorm_11_Threshold_11_0_split <- BatchNorm_11
I0715 11:28:57.076182  7536 net.cpp:455] BatchNorm_11_Threshold_11_0_split -> BatchNorm_11_Threshold_11_0_split_0
I0715 11:28:57.076195  7536 net.cpp:455] BatchNorm_11_Threshold_11_0_split -> BatchNorm_11_Threshold_11_0_split_1
I0715 11:28:57.076236  7536 net.cpp:190] Setting up BatchNorm_11_Threshold_11_0_split
I0715 11:28:57.076241  7536 net.cpp:197] Top shape: 1 128 64 128 (1048576)
I0715 11:28:57.076246  7536 net.cpp:197] Top shape: 1 128 64 128 (1048576)
I0715 11:28:57.076251  7536 net.cpp:205] Memory required for data: 660832256
I0715 11:28:57.076256  7536 layer_factory.hpp:123] Creating layer ConvNd_51
I0715 11:28:57.076267  7536 net.cpp:140] Creating Layer ConvNd_51
I0715 11:28:57.076274  7536 net.cpp:481] ConvNd_51 <- BatchNorm_11_Threshold_11_0_split_0
I0715 11:28:57.076282  7536 net.cpp:455] ConvNd_51 -> ConvNd_51
I0715 11:28:57.076488  7536 net.cpp:190] Setting up ConvNd_51
I0715 11:28:57.076495  7536 net.cpp:197] Top shape: 1 25 64 128 (204800)
I0715 11:28:57.076499  7536 net.cpp:205] Memory required for data: 661651456
I0715 11:28:57.076506  7536 layer_factory.hpp:123] Creating layer ConvNd_51_ConvNd_51_0_split
I0715 11:28:57.076515  7536 net.cpp:140] Creating Layer ConvNd_51_ConvNd_51_0_split
I0715 11:28:57.076522  7536 net.cpp:481] ConvNd_51_ConvNd_51_0_split <- ConvNd_51
I0715 11:28:57.076532  7536 net.cpp:455] ConvNd_51_ConvNd_51_0_split -> ConvNd_51_ConvNd_51_0_split_0
I0715 11:28:57.076545  7536 net.cpp:455] ConvNd_51_ConvNd_51_0_split -> ConvNd_51_ConvNd_51_0_split_1
I0715 11:28:57.076556  7536 net.cpp:455] ConvNd_51_ConvNd_51_0_split -> ConvNd_51_ConvNd_51_0_split_2
I0715 11:28:57.076568  7536 net.cpp:455] ConvNd_51_ConvNd_51_0_split -> ConvNd_51_ConvNd_51_0_split_3
I0715 11:28:57.076580  7536 net.cpp:455] ConvNd_51_ConvNd_51_0_split -> ConvNd_51_ConvNd_51_0_split_4
I0715 11:28:57.076649  7536 net.cpp:190] Setting up ConvNd_51_ConvNd_51_0_split
I0715 11:28:57.076656  7536 net.cpp:197] Top shape: 1 25 64 128 (204800)
I0715 11:28:57.076660  7536 net.cpp:197] Top shape: 1 25 64 128 (204800)
I0715 11:28:57.076666  7536 net.cpp:197] Top shape: 1 25 64 128 (204800)
I0715 11:28:57.076673  7536 net.cpp:197] Top shape: 1 25 64 128 (204800)
I0715 11:28:57.076678  7536 net.cpp:197] Top shape: 1 25 64 128 (204800)
I0715 11:28:57.076683  7536 net.cpp:205] Memory required for data: 665747456
I0715 11:28:57.076687  7536 layer_factory.hpp:123] Creating layer ConvNd_52
I0715 11:28:57.076699  7536 net.cpp:140] Creating Layer ConvNd_52
I0715 11:28:57.076705  7536 net.cpp:481] ConvNd_52 <- ConvNd_51_ConvNd_51_0_split_0
I0715 11:28:57.076714  7536 net.cpp:455] ConvNd_52 -> ConvNd_52
I0715 11:28:57.076951  7536 net.cpp:190] Setting up ConvNd_52
I0715 11:28:57.076959  7536 net.cpp:197] Top shape: 1 28 64 128 (229376)
I0715 11:28:57.076962  7536 net.cpp:205] Memory required for data: 666664960
I0715 11:28:57.076969  7536 layer_factory.hpp:123] Creating layer ConvNd_53
I0715 11:28:57.076982  7536 net.cpp:140] Creating Layer ConvNd_53
I0715 11:28:57.076989  7536 net.cpp:481] ConvNd_53 <- ConvNd_51_ConvNd_51_0_split_1
I0715 11:28:57.076998  7536 net.cpp:455] ConvNd_53 -> ConvNd_53
I0715 11:28:57.077225  7536 net.cpp:190] Setting up ConvNd_53
I0715 11:28:57.077234  7536 net.cpp:197] Top shape: 1 25 64 128 (204800)
I0715 11:28:57.077235  7536 net.cpp:205] Memory required for data: 667484160
I0715 11:28:57.077242  7536 layer_factory.hpp:123] Creating layer ConvNd_53_ConvNd_53_0_split
I0715 11:28:57.077251  7536 net.cpp:140] Creating Layer ConvNd_53_ConvNd_53_0_split
I0715 11:28:57.077258  7536 net.cpp:481] ConvNd_53_ConvNd_53_0_split <- ConvNd_53
I0715 11:28:57.077266  7536 net.cpp:455] ConvNd_53_ConvNd_53_0_split -> ConvNd_53_ConvNd_53_0_split_0
I0715 11:28:57.077278  7536 net.cpp:455] ConvNd_53_ConvNd_53_0_split -> ConvNd_53_ConvNd_53_0_split_1
I0715 11:28:57.077319  7536 net.cpp:190] Setting up ConvNd_53_ConvNd_53_0_split
I0715 11:28:57.077325  7536 net.cpp:197] Top shape: 1 25 64 128 (204800)
I0715 11:28:57.077330  7536 net.cpp:197] Top shape: 1 25 64 128 (204800)
I0715 11:28:57.077334  7536 net.cpp:205] Memory required for data: 669122560
I0715 11:28:57.077339  7536 layer_factory.hpp:123] Creating layer ConvNd_54
I0715 11:28:57.077350  7536 net.cpp:140] Creating Layer ConvNd_54
I0715 11:28:57.077358  7536 net.cpp:481] ConvNd_54 <- ConvNd_51_ConvNd_51_0_split_2
I0715 11:28:57.077364  7536 net.cpp:455] ConvNd_54 -> ConvNd_54
I0715 11:28:57.077591  7536 net.cpp:190] Setting up ConvNd_54
I0715 11:28:57.077600  7536 net.cpp:197] Top shape: 1 25 64 128 (204800)
I0715 11:28:57.077602  7536 net.cpp:205] Memory required for data: 669941760
I0715 11:28:57.077608  7536 layer_factory.hpp:123] Creating layer Add_31
I0715 11:28:57.077618  7536 net.cpp:140] Creating Layer Add_31
I0715 11:28:57.077626  7536 net.cpp:481] Add_31 <- ConvNd_53_ConvNd_53_0_split_0
I0715 11:28:57.077632  7536 net.cpp:481] Add_31 <- ConvNd_54
I0715 11:28:57.077642  7536 net.cpp:455] Add_31 -> Add_31
I0715 11:28:57.077672  7536 net.cpp:190] Setting up Add_31
I0715 11:28:57.077678  7536 net.cpp:197] Top shape: 1 25 64 128 (204800)
I0715 11:28:57.077682  7536 net.cpp:205] Memory required for data: 670760960
I0715 11:28:57.077687  7536 layer_factory.hpp:123] Creating layer Add_31_Add_31_0_split
I0715 11:28:57.077694  7536 net.cpp:140] Creating Layer Add_31_Add_31_0_split
I0715 11:28:57.077702  7536 net.cpp:481] Add_31_Add_31_0_split <- Add_31
I0715 11:28:57.077710  7536 net.cpp:455] Add_31_Add_31_0_split -> Add_31_Add_31_0_split_0
I0715 11:28:57.077721  7536 net.cpp:455] Add_31_Add_31_0_split -> Add_31_Add_31_0_split_1
I0715 11:28:57.077761  7536 net.cpp:190] Setting up Add_31_Add_31_0_split
I0715 11:28:57.077769  7536 net.cpp:197] Top shape: 1 25 64 128 (204800)
I0715 11:28:57.077772  7536 net.cpp:197] Top shape: 1 25 64 128 (204800)
I0715 11:28:57.077777  7536 net.cpp:205] Memory required for data: 672399360
I0715 11:28:57.077782  7536 layer_factory.hpp:123] Creating layer ConvNd_55
I0715 11:28:57.077793  7536 net.cpp:140] Creating Layer ConvNd_55
I0715 11:28:57.077800  7536 net.cpp:481] ConvNd_55 <- ConvNd_51_ConvNd_51_0_split_3
I0715 11:28:57.077807  7536 net.cpp:455] ConvNd_55 -> ConvNd_55
I0715 11:28:57.078037  7536 net.cpp:190] Setting up ConvNd_55
I0715 11:28:57.078045  7536 net.cpp:197] Top shape: 1 25 64 128 (204800)
I0715 11:28:57.078048  7536 net.cpp:205] Memory required for data: 673218560
I0715 11:28:57.078055  7536 layer_factory.hpp:123] Creating layer Add_32
I0715 11:28:57.078064  7536 net.cpp:140] Creating Layer Add_32
I0715 11:28:57.078073  7536 net.cpp:481] Add_32 <- Add_31_Add_31_0_split_0
I0715 11:28:57.078079  7536 net.cpp:481] Add_32 <- ConvNd_55
I0715 11:28:57.078088  7536 net.cpp:455] Add_32 -> Add_32
I0715 11:28:57.078117  7536 net.cpp:190] Setting up Add_32
I0715 11:28:57.078124  7536 net.cpp:197] Top shape: 1 25 64 128 (204800)
I0715 11:28:57.078126  7536 net.cpp:205] Memory required for data: 674037760
I0715 11:28:57.078131  7536 layer_factory.hpp:123] Creating layer Add_32_Add_32_0_split
I0715 11:28:57.078141  7536 net.cpp:140] Creating Layer Add_32_Add_32_0_split
I0715 11:28:57.078148  7536 net.cpp:481] Add_32_Add_32_0_split <- Add_32
I0715 11:28:57.078157  7536 net.cpp:455] Add_32_Add_32_0_split -> Add_32_Add_32_0_split_0
I0715 11:28:57.078168  7536 net.cpp:455] Add_32_Add_32_0_split -> Add_32_Add_32_0_split_1
I0715 11:28:57.078209  7536 net.cpp:190] Setting up Add_32_Add_32_0_split
I0715 11:28:57.078217  7536 net.cpp:197] Top shape: 1 25 64 128 (204800)
I0715 11:28:57.078222  7536 net.cpp:197] Top shape: 1 25 64 128 (204800)
I0715 11:28:57.078225  7536 net.cpp:205] Memory required for data: 675676160
I0715 11:28:57.078230  7536 layer_factory.hpp:123] Creating layer ConvNd_56
I0715 11:28:57.078243  7536 net.cpp:140] Creating Layer ConvNd_56
I0715 11:28:57.078248  7536 net.cpp:481] ConvNd_56 <- ConvNd_51_ConvNd_51_0_split_4
I0715 11:28:57.078256  7536 net.cpp:455] ConvNd_56 -> ConvNd_56
I0715 11:28:57.078485  7536 net.cpp:190] Setting up ConvNd_56
I0715 11:28:57.078491  7536 net.cpp:197] Top shape: 1 25 64 128 (204800)
I0715 11:28:57.078495  7536 net.cpp:205] Memory required for data: 676495360
I0715 11:28:57.078501  7536 layer_factory.hpp:123] Creating layer Add_33
I0715 11:28:57.078511  7536 net.cpp:140] Creating Layer Add_33
I0715 11:28:57.078518  7536 net.cpp:481] Add_33 <- Add_32_Add_32_0_split_0
I0715 11:28:57.078526  7536 net.cpp:481] Add_33 <- ConvNd_56
I0715 11:28:57.078532  7536 net.cpp:455] Add_33 -> Add_33
I0715 11:28:57.078562  7536 net.cpp:190] Setting up Add_33
I0715 11:28:57.078568  7536 net.cpp:197] Top shape: 1 25 64 128 (204800)
I0715 11:28:57.078572  7536 net.cpp:205] Memory required for data: 677314560
I0715 11:28:57.078575  7536 layer_factory.hpp:123] Creating layer Concat_11
I0715 11:28:57.078588  7536 net.cpp:140] Creating Layer Concat_11
I0715 11:28:57.078594  7536 net.cpp:481] Concat_11 <- ConvNd_52
I0715 11:28:57.078600  7536 net.cpp:481] Concat_11 <- ConvNd_53_ConvNd_53_0_split_1
I0715 11:28:57.078606  7536 net.cpp:481] Concat_11 <- Add_31_Add_31_0_split_1
I0715 11:28:57.078614  7536 net.cpp:481] Concat_11 <- Add_32_Add_32_0_split_1
I0715 11:28:57.078619  7536 net.cpp:481] Concat_11 <- Add_33
I0715 11:28:57.078627  7536 net.cpp:455] Concat_11 -> Concat_11
I0715 11:28:57.078658  7536 net.cpp:190] Setting up Concat_11
I0715 11:28:57.078665  7536 net.cpp:197] Top shape: 1 128 64 128 (1048576)
I0715 11:28:57.078667  7536 net.cpp:205] Memory required for data: 681508864
I0715 11:28:57.078672  7536 layer_factory.hpp:123] Creating layer Add_34
I0715 11:28:57.078680  7536 net.cpp:140] Creating Layer Add_34
I0715 11:28:57.078687  7536 net.cpp:481] Add_34 <- BatchNorm_11_Threshold_11_0_split_1
I0715 11:28:57.078694  7536 net.cpp:481] Add_34 <- Concat_11
I0715 11:28:57.078703  7536 net.cpp:455] Add_34 -> Add_34
I0715 11:28:57.078732  7536 net.cpp:190] Setting up Add_34
I0715 11:28:57.078739  7536 net.cpp:197] Top shape: 1 128 64 128 (1048576)
I0715 11:28:57.078742  7536 net.cpp:205] Memory required for data: 685703168
I0715 11:28:57.078747  7536 layer_factory.hpp:123] Creating layer BatchNorm_12
I0715 11:28:57.078758  7536 net.cpp:140] Creating Layer BatchNorm_12
I0715 11:28:57.078764  7536 net.cpp:481] BatchNorm_12 <- Add_34
I0715 11:28:57.078774  7536 net.cpp:455] BatchNorm_12 -> BatchNorm_12
I0715 11:28:57.079339  7536 net.cpp:190] Setting up BatchNorm_12
I0715 11:28:57.079349  7536 net.cpp:197] Top shape: 1 128 64 128 (1048576)
I0715 11:28:57.079351  7536 net.cpp:205] Memory required for data: 689897472
I0715 11:28:57.079365  7536 layer_factory.hpp:123] Creating layer Threshold_12
I0715 11:28:57.079375  7536 net.cpp:140] Creating Layer Threshold_12
I0715 11:28:57.079380  7536 net.cpp:481] Threshold_12 <- BatchNorm_12
I0715 11:28:57.079391  7536 net.cpp:442] Threshold_12 -> BatchNorm_12 (in-place)
I0715 11:28:57.079401  7536 net.cpp:190] Setting up Threshold_12
I0715 11:28:57.079411  7536 net.cpp:197] Top shape: 1 128 64 128 (1048576)
I0715 11:28:57.079414  7536 net.cpp:205] Memory required for data: 694091776
I0715 11:28:57.079419  7536 layer_factory.hpp:123] Creating layer BatchNorm_12_Threshold_12_0_split
I0715 11:28:57.079427  7536 net.cpp:140] Creating Layer BatchNorm_12_Threshold_12_0_split
I0715 11:28:57.079433  7536 net.cpp:481] BatchNorm_12_Threshold_12_0_split <- BatchNorm_12
I0715 11:28:57.079442  7536 net.cpp:455] BatchNorm_12_Threshold_12_0_split -> BatchNorm_12_Threshold_12_0_split_0
I0715 11:28:57.079452  7536 net.cpp:455] BatchNorm_12_Threshold_12_0_split -> BatchNorm_12_Threshold_12_0_split_1
I0715 11:28:57.079493  7536 net.cpp:190] Setting up BatchNorm_12_Threshold_12_0_split
I0715 11:28:57.079499  7536 net.cpp:197] Top shape: 1 128 64 128 (1048576)
I0715 11:28:57.079504  7536 net.cpp:197] Top shape: 1 128 64 128 (1048576)
I0715 11:28:57.079509  7536 net.cpp:205] Memory required for data: 702480384
I0715 11:28:57.079514  7536 layer_factory.hpp:123] Creating layer ConvNd_57
I0715 11:28:57.079526  7536 net.cpp:140] Creating Layer ConvNd_57
I0715 11:28:57.079532  7536 net.cpp:481] ConvNd_57 <- BatchNorm_12_Threshold_12_0_split_0
I0715 11:28:57.079540  7536 net.cpp:455] ConvNd_57 -> ConvNd_57
I0715 11:28:57.079749  7536 net.cpp:190] Setting up ConvNd_57
I0715 11:28:57.079762  7536 net.cpp:197] Top shape: 1 25 64 128 (204800)
I0715 11:28:57.079766  7536 net.cpp:205] Memory required for data: 703299584
I0715 11:28:57.079773  7536 layer_factory.hpp:123] Creating layer ConvNd_57_ConvNd_57_0_split
I0715 11:28:57.079783  7536 net.cpp:140] Creating Layer ConvNd_57_ConvNd_57_0_split
I0715 11:28:57.079790  7536 net.cpp:481] ConvNd_57_ConvNd_57_0_split <- ConvNd_57
I0715 11:28:57.079799  7536 net.cpp:455] ConvNd_57_ConvNd_57_0_split -> ConvNd_57_ConvNd_57_0_split_0
I0715 11:28:57.079813  7536 net.cpp:455] ConvNd_57_ConvNd_57_0_split -> ConvNd_57_ConvNd_57_0_split_1
I0715 11:28:57.079824  7536 net.cpp:455] ConvNd_57_ConvNd_57_0_split -> ConvNd_57_ConvNd_57_0_split_2
I0715 11:28:57.079836  7536 net.cpp:455] ConvNd_57_ConvNd_57_0_split -> ConvNd_57_ConvNd_57_0_split_3
I0715 11:28:57.079845  7536 net.cpp:455] ConvNd_57_ConvNd_57_0_split -> ConvNd_57_ConvNd_57_0_split_4
I0715 11:28:57.079916  7536 net.cpp:190] Setting up ConvNd_57_ConvNd_57_0_split
I0715 11:28:57.079923  7536 net.cpp:197] Top shape: 1 25 64 128 (204800)
I0715 11:28:57.079928  7536 net.cpp:197] Top shape: 1 25 64 128 (204800)
I0715 11:28:57.079933  7536 net.cpp:197] Top shape: 1 25 64 128 (204800)
I0715 11:28:57.079939  7536 net.cpp:197] Top shape: 1 25 64 128 (204800)
I0715 11:28:57.079947  7536 net.cpp:197] Top shape: 1 25 64 128 (204800)
I0715 11:28:57.079954  7536 net.cpp:205] Memory required for data: 707395584
I0715 11:28:57.079959  7536 layer_factory.hpp:123] Creating layer ConvNd_58
I0715 11:28:57.079972  7536 net.cpp:140] Creating Layer ConvNd_58
I0715 11:28:57.079979  7536 net.cpp:481] ConvNd_58 <- ConvNd_57_ConvNd_57_0_split_0
I0715 11:28:57.079988  7536 net.cpp:455] ConvNd_58 -> ConvNd_58
I0715 11:28:57.080233  7536 net.cpp:190] Setting up ConvNd_58
I0715 11:28:57.080241  7536 net.cpp:197] Top shape: 1 28 64 128 (229376)
I0715 11:28:57.080245  7536 net.cpp:205] Memory required for data: 708313088
I0715 11:28:57.080252  7536 layer_factory.hpp:123] Creating layer ConvNd_59
I0715 11:28:57.080263  7536 net.cpp:140] Creating Layer ConvNd_59
I0715 11:28:57.080271  7536 net.cpp:481] ConvNd_59 <- ConvNd_57_ConvNd_57_0_split_1
I0715 11:28:57.080279  7536 net.cpp:455] ConvNd_59 -> ConvNd_59
I0715 11:28:57.080509  7536 net.cpp:190] Setting up ConvNd_59
I0715 11:28:57.080516  7536 net.cpp:197] Top shape: 1 25 64 128 (204800)
I0715 11:28:57.080520  7536 net.cpp:205] Memory required for data: 709132288
I0715 11:28:57.080528  7536 layer_factory.hpp:123] Creating layer ConvNd_59_ConvNd_59_0_split
I0715 11:28:57.080535  7536 net.cpp:140] Creating Layer ConvNd_59_ConvNd_59_0_split
I0715 11:28:57.080543  7536 net.cpp:481] ConvNd_59_ConvNd_59_0_split <- ConvNd_59
I0715 11:28:57.080550  7536 net.cpp:455] ConvNd_59_ConvNd_59_0_split -> ConvNd_59_ConvNd_59_0_split_0
I0715 11:28:57.080562  7536 net.cpp:455] ConvNd_59_ConvNd_59_0_split -> ConvNd_59_ConvNd_59_0_split_1
I0715 11:28:57.080605  7536 net.cpp:190] Setting up ConvNd_59_ConvNd_59_0_split
I0715 11:28:57.080611  7536 net.cpp:197] Top shape: 1 25 64 128 (204800)
I0715 11:28:57.080615  7536 net.cpp:197] Top shape: 1 25 64 128 (204800)
I0715 11:28:57.080619  7536 net.cpp:205] Memory required for data: 710770688
I0715 11:28:57.080624  7536 layer_factory.hpp:123] Creating layer ConvNd_60
I0715 11:28:57.080636  7536 net.cpp:140] Creating Layer ConvNd_60
I0715 11:28:57.080642  7536 net.cpp:481] ConvNd_60 <- ConvNd_57_ConvNd_57_0_split_2
I0715 11:28:57.080651  7536 net.cpp:455] ConvNd_60 -> ConvNd_60
I0715 11:28:57.080878  7536 net.cpp:190] Setting up ConvNd_60
I0715 11:28:57.080884  7536 net.cpp:197] Top shape: 1 25 64 128 (204800)
I0715 11:28:57.080886  7536 net.cpp:205] Memory required for data: 711589888
I0715 11:28:57.080891  7536 layer_factory.hpp:123] Creating layer Add_35
I0715 11:28:57.080898  7536 net.cpp:140] Creating Layer Add_35
I0715 11:28:57.080900  7536 net.cpp:481] Add_35 <- ConvNd_59_ConvNd_59_0_split_0
I0715 11:28:57.080905  7536 net.cpp:481] Add_35 <- ConvNd_60
I0715 11:28:57.080910  7536 net.cpp:455] Add_35 -> Add_35
I0715 11:28:57.080930  7536 net.cpp:190] Setting up Add_35
I0715 11:28:57.080936  7536 net.cpp:197] Top shape: 1 25 64 128 (204800)
I0715 11:28:57.080940  7536 net.cpp:205] Memory required for data: 712409088
I0715 11:28:57.080942  7536 layer_factory.hpp:123] Creating layer Add_35_Add_35_0_split
I0715 11:28:57.080947  7536 net.cpp:140] Creating Layer Add_35_Add_35_0_split
I0715 11:28:57.080952  7536 net.cpp:481] Add_35_Add_35_0_split <- Add_35
I0715 11:28:57.080957  7536 net.cpp:455] Add_35_Add_35_0_split -> Add_35_Add_35_0_split_0
I0715 11:28:57.080963  7536 net.cpp:455] Add_35_Add_35_0_split -> Add_35_Add_35_0_split_1
I0715 11:28:57.080994  7536 net.cpp:190] Setting up Add_35_Add_35_0_split
I0715 11:28:57.081001  7536 net.cpp:197] Top shape: 1 25 64 128 (204800)
I0715 11:28:57.081003  7536 net.cpp:197] Top shape: 1 25 64 128 (204800)
I0715 11:28:57.081007  7536 net.cpp:205] Memory required for data: 714047488
I0715 11:28:57.081009  7536 layer_factory.hpp:123] Creating layer ConvNd_61
I0715 11:28:57.081017  7536 net.cpp:140] Creating Layer ConvNd_61
I0715 11:28:57.081022  7536 net.cpp:481] ConvNd_61 <- ConvNd_57_ConvNd_57_0_split_3
I0715 11:28:57.081027  7536 net.cpp:455] ConvNd_61 -> ConvNd_61
I0715 11:28:57.081248  7536 net.cpp:190] Setting up ConvNd_61
I0715 11:28:57.081256  7536 net.cpp:197] Top shape: 1 25 64 128 (204800)
I0715 11:28:57.081259  7536 net.cpp:205] Memory required for data: 714866688
I0715 11:28:57.081264  7536 layer_factory.hpp:123] Creating layer Add_36
I0715 11:28:57.081269  7536 net.cpp:140] Creating Layer Add_36
I0715 11:28:57.081272  7536 net.cpp:481] Add_36 <- Add_35_Add_35_0_split_0
I0715 11:28:57.081276  7536 net.cpp:481] Add_36 <- ConvNd_61
I0715 11:28:57.081281  7536 net.cpp:455] Add_36 -> Add_36
I0715 11:28:57.081302  7536 net.cpp:190] Setting up Add_36
I0715 11:28:57.081307  7536 net.cpp:197] Top shape: 1 25 64 128 (204800)
I0715 11:28:57.081310  7536 net.cpp:205] Memory required for data: 715685888
I0715 11:28:57.081315  7536 layer_factory.hpp:123] Creating layer Add_36_Add_36_0_split
I0715 11:28:57.081318  7536 net.cpp:140] Creating Layer Add_36_Add_36_0_split
I0715 11:28:57.081322  7536 net.cpp:481] Add_36_Add_36_0_split <- Add_36
I0715 11:28:57.081326  7536 net.cpp:455] Add_36_Add_36_0_split -> Add_36_Add_36_0_split_0
I0715 11:28:57.081333  7536 net.cpp:455] Add_36_Add_36_0_split -> Add_36_Add_36_0_split_1
I0715 11:28:57.081362  7536 net.cpp:190] Setting up Add_36_Add_36_0_split
I0715 11:28:57.081368  7536 net.cpp:197] Top shape: 1 25 64 128 (204800)
I0715 11:28:57.081372  7536 net.cpp:197] Top shape: 1 25 64 128 (204800)
I0715 11:28:57.081374  7536 net.cpp:205] Memory required for data: 717324288
I0715 11:28:57.081377  7536 layer_factory.hpp:123] Creating layer ConvNd_62
I0715 11:28:57.081384  7536 net.cpp:140] Creating Layer ConvNd_62
I0715 11:28:57.081389  7536 net.cpp:481] ConvNd_62 <- ConvNd_57_ConvNd_57_0_split_4
I0715 11:28:57.081394  7536 net.cpp:455] ConvNd_62 -> ConvNd_62
I0715 11:28:57.081610  7536 net.cpp:190] Setting up ConvNd_62
I0715 11:28:57.081617  7536 net.cpp:197] Top shape: 1 25 64 128 (204800)
I0715 11:28:57.081620  7536 net.cpp:205] Memory required for data: 718143488
I0715 11:28:57.081625  7536 layer_factory.hpp:123] Creating layer Add_37
I0715 11:28:57.081630  7536 net.cpp:140] Creating Layer Add_37
I0715 11:28:57.081634  7536 net.cpp:481] Add_37 <- Add_36_Add_36_0_split_0
I0715 11:28:57.081637  7536 net.cpp:481] Add_37 <- ConvNd_62
I0715 11:28:57.081642  7536 net.cpp:455] Add_37 -> Add_37
I0715 11:28:57.081661  7536 net.cpp:190] Setting up Add_37
I0715 11:28:57.081667  7536 net.cpp:197] Top shape: 1 25 64 128 (204800)
I0715 11:28:57.081670  7536 net.cpp:205] Memory required for data: 718962688
I0715 11:28:57.081673  7536 layer_factory.hpp:123] Creating layer Concat_12
I0715 11:28:57.081679  7536 net.cpp:140] Creating Layer Concat_12
I0715 11:28:57.081682  7536 net.cpp:481] Concat_12 <- ConvNd_58
I0715 11:28:57.081686  7536 net.cpp:481] Concat_12 <- ConvNd_59_ConvNd_59_0_split_1
I0715 11:28:57.081691  7536 net.cpp:481] Concat_12 <- Add_35_Add_35_0_split_1
I0715 11:28:57.081694  7536 net.cpp:481] Concat_12 <- Add_36_Add_36_0_split_1
I0715 11:28:57.081697  7536 net.cpp:481] Concat_12 <- Add_37
I0715 11:28:57.081702  7536 net.cpp:455] Concat_12 -> Concat_12
I0715 11:28:57.081724  7536 net.cpp:190] Setting up Concat_12
I0715 11:28:57.081730  7536 net.cpp:197] Top shape: 1 128 64 128 (1048576)
I0715 11:28:57.081732  7536 net.cpp:205] Memory required for data: 723156992
I0715 11:28:57.081737  7536 layer_factory.hpp:123] Creating layer Add_38
I0715 11:28:57.081742  7536 net.cpp:140] Creating Layer Add_38
I0715 11:28:57.081746  7536 net.cpp:481] Add_38 <- BatchNorm_12_Threshold_12_0_split_1
I0715 11:28:57.081750  7536 net.cpp:481] Add_38 <- Concat_12
I0715 11:28:57.081754  7536 net.cpp:455] Add_38 -> Add_38
I0715 11:28:57.081773  7536 net.cpp:190] Setting up Add_38
I0715 11:28:57.081779  7536 net.cpp:197] Top shape: 1 128 64 128 (1048576)
I0715 11:28:57.081781  7536 net.cpp:205] Memory required for data: 727351296
I0715 11:28:57.081784  7536 layer_factory.hpp:123] Creating layer BatchNorm_13
I0715 11:28:57.081791  7536 net.cpp:140] Creating Layer BatchNorm_13
I0715 11:28:57.081795  7536 net.cpp:481] BatchNorm_13 <- Add_38
I0715 11:28:57.081801  7536 net.cpp:455] BatchNorm_13 -> BatchNorm_13
I0715 11:28:57.082356  7536 net.cpp:190] Setting up BatchNorm_13
I0715 11:28:57.082365  7536 net.cpp:197] Top shape: 1 128 64 128 (1048576)
I0715 11:28:57.082367  7536 net.cpp:205] Memory required for data: 731545600
I0715 11:28:57.082376  7536 layer_factory.hpp:123] Creating layer Threshold_13
I0715 11:28:57.082382  7536 net.cpp:140] Creating Layer Threshold_13
I0715 11:28:57.082386  7536 net.cpp:481] Threshold_13 <- BatchNorm_13
I0715 11:28:57.082391  7536 net.cpp:442] Threshold_13 -> BatchNorm_13 (in-place)
I0715 11:28:57.082397  7536 net.cpp:190] Setting up Threshold_13
I0715 11:28:57.082402  7536 net.cpp:197] Top shape: 1 128 64 128 (1048576)
I0715 11:28:57.082406  7536 net.cpp:205] Memory required for data: 735739904
I0715 11:28:57.082408  7536 layer_factory.hpp:123] Creating layer BatchNorm_13_Threshold_13_0_split
I0715 11:28:57.082413  7536 net.cpp:140] Creating Layer BatchNorm_13_Threshold_13_0_split
I0715 11:28:57.082417  7536 net.cpp:481] BatchNorm_13_Threshold_13_0_split <- BatchNorm_13
I0715 11:28:57.082422  7536 net.cpp:455] BatchNorm_13_Threshold_13_0_split -> BatchNorm_13_Threshold_13_0_split_0
I0715 11:28:57.082427  7536 net.cpp:455] BatchNorm_13_Threshold_13_0_split -> BatchNorm_13_Threshold_13_0_split_1
I0715 11:28:57.082458  7536 net.cpp:190] Setting up BatchNorm_13_Threshold_13_0_split
I0715 11:28:57.082463  7536 net.cpp:197] Top shape: 1 128 64 128 (1048576)
I0715 11:28:57.082468  7536 net.cpp:197] Top shape: 1 128 64 128 (1048576)
I0715 11:28:57.082470  7536 net.cpp:205] Memory required for data: 744128512
I0715 11:28:57.082473  7536 layer_factory.hpp:123] Creating layer ConvNd_63
I0715 11:28:57.082480  7536 net.cpp:140] Creating Layer ConvNd_63
I0715 11:28:57.082485  7536 net.cpp:481] ConvNd_63 <- BatchNorm_13_Threshold_13_0_split_0
I0715 11:28:57.082491  7536 net.cpp:455] ConvNd_63 -> ConvNd_63
I0715 11:28:57.082687  7536 net.cpp:190] Setting up ConvNd_63
I0715 11:28:57.082695  7536 net.cpp:197] Top shape: 1 25 64 128 (204800)
I0715 11:28:57.082698  7536 net.cpp:205] Memory required for data: 744947712
I0715 11:28:57.082703  7536 layer_factory.hpp:123] Creating layer ConvNd_63_ConvNd_63_0_split
I0715 11:28:57.082708  7536 net.cpp:140] Creating Layer ConvNd_63_ConvNd_63_0_split
I0715 11:28:57.082712  7536 net.cpp:481] ConvNd_63_ConvNd_63_0_split <- ConvNd_63
I0715 11:28:57.082717  7536 net.cpp:455] ConvNd_63_ConvNd_63_0_split -> ConvNd_63_ConvNd_63_0_split_0
I0715 11:28:57.082725  7536 net.cpp:455] ConvNd_63_ConvNd_63_0_split -> ConvNd_63_ConvNd_63_0_split_1
I0715 11:28:57.082731  7536 net.cpp:455] ConvNd_63_ConvNd_63_0_split -> ConvNd_63_ConvNd_63_0_split_2
I0715 11:28:57.082737  7536 net.cpp:455] ConvNd_63_ConvNd_63_0_split -> ConvNd_63_ConvNd_63_0_split_3
I0715 11:28:57.082744  7536 net.cpp:455] ConvNd_63_ConvNd_63_0_split -> ConvNd_63_ConvNd_63_0_split_4
I0715 11:28:57.082806  7536 net.cpp:190] Setting up ConvNd_63_ConvNd_63_0_split
I0715 11:28:57.082813  7536 net.cpp:197] Top shape: 1 25 64 128 (204800)
I0715 11:28:57.082815  7536 net.cpp:197] Top shape: 1 25 64 128 (204800)
I0715 11:28:57.082819  7536 net.cpp:197] Top shape: 1 25 64 128 (204800)
I0715 11:28:57.082823  7536 net.cpp:197] Top shape: 1 25 64 128 (204800)
I0715 11:28:57.082826  7536 net.cpp:197] Top shape: 1 25 64 128 (204800)
I0715 11:28:57.082829  7536 net.cpp:205] Memory required for data: 749043712
I0715 11:28:57.082832  7536 layer_factory.hpp:123] Creating layer ConvNd_64
I0715 11:28:57.082840  7536 net.cpp:140] Creating Layer ConvNd_64
I0715 11:28:57.082844  7536 net.cpp:481] ConvNd_64 <- ConvNd_63_ConvNd_63_0_split_0
I0715 11:28:57.082849  7536 net.cpp:455] ConvNd_64 -> ConvNd_64
I0715 11:28:57.083078  7536 net.cpp:190] Setting up ConvNd_64
I0715 11:28:57.083086  7536 net.cpp:197] Top shape: 1 28 64 128 (229376)
I0715 11:28:57.083089  7536 net.cpp:205] Memory required for data: 749961216
I0715 11:28:57.083101  7536 layer_factory.hpp:123] Creating layer ConvNd_65
I0715 11:28:57.083109  7536 net.cpp:140] Creating Layer ConvNd_65
I0715 11:28:57.083114  7536 net.cpp:481] ConvNd_65 <- ConvNd_63_ConvNd_63_0_split_1
I0715 11:28:57.083120  7536 net.cpp:455] ConvNd_65 -> ConvNd_65
I0715 11:28:57.083341  7536 net.cpp:190] Setting up ConvNd_65
I0715 11:28:57.083348  7536 net.cpp:197] Top shape: 1 25 64 128 (204800)
I0715 11:28:57.083351  7536 net.cpp:205] Memory required for data: 750780416
I0715 11:28:57.083355  7536 layer_factory.hpp:123] Creating layer ConvNd_65_ConvNd_65_0_split
I0715 11:28:57.083364  7536 net.cpp:140] Creating Layer ConvNd_65_ConvNd_65_0_split
I0715 11:28:57.083366  7536 net.cpp:481] ConvNd_65_ConvNd_65_0_split <- ConvNd_65
I0715 11:28:57.083371  7536 net.cpp:455] ConvNd_65_ConvNd_65_0_split -> ConvNd_65_ConvNd_65_0_split_0
I0715 11:28:57.083379  7536 net.cpp:455] ConvNd_65_ConvNd_65_0_split -> ConvNd_65_ConvNd_65_0_split_1
I0715 11:28:57.083410  7536 net.cpp:190] Setting up ConvNd_65_ConvNd_65_0_split
I0715 11:28:57.083415  7536 net.cpp:197] Top shape: 1 25 64 128 (204800)
I0715 11:28:57.083420  7536 net.cpp:197] Top shape: 1 25 64 128 (204800)
I0715 11:28:57.083422  7536 net.cpp:205] Memory required for data: 752418816
I0715 11:28:57.083425  7536 layer_factory.hpp:123] Creating layer ConvNd_66
I0715 11:28:57.083432  7536 net.cpp:140] Creating Layer ConvNd_66
I0715 11:28:57.083436  7536 net.cpp:481] ConvNd_66 <- ConvNd_63_ConvNd_63_0_split_2
I0715 11:28:57.083441  7536 net.cpp:455] ConvNd_66 -> ConvNd_66
I0715 11:28:57.083657  7536 net.cpp:190] Setting up ConvNd_66
I0715 11:28:57.083664  7536 net.cpp:197] Top shape: 1 25 64 128 (204800)
I0715 11:28:57.083667  7536 net.cpp:205] Memory required for data: 753238016
I0715 11:28:57.083672  7536 layer_factory.hpp:123] Creating layer Add_39
I0715 11:28:57.083678  7536 net.cpp:140] Creating Layer Add_39
I0715 11:28:57.083683  7536 net.cpp:481] Add_39 <- ConvNd_65_ConvNd_65_0_split_0
I0715 11:28:57.083686  7536 net.cpp:481] Add_39 <- ConvNd_66
I0715 11:28:57.083691  7536 net.cpp:455] Add_39 -> Add_39
I0715 11:28:57.083711  7536 net.cpp:190] Setting up Add_39
I0715 11:28:57.083717  7536 net.cpp:197] Top shape: 1 25 64 128 (204800)
I0715 11:28:57.083720  7536 net.cpp:205] Memory required for data: 754057216
I0715 11:28:57.083724  7536 layer_factory.hpp:123] Creating layer Add_39_Add_39_0_split
I0715 11:28:57.083729  7536 net.cpp:140] Creating Layer Add_39_Add_39_0_split
I0715 11:28:57.083732  7536 net.cpp:481] Add_39_Add_39_0_split <- Add_39
I0715 11:28:57.083739  7536 net.cpp:455] Add_39_Add_39_0_split -> Add_39_Add_39_0_split_0
I0715 11:28:57.083745  7536 net.cpp:455] Add_39_Add_39_0_split -> Add_39_Add_39_0_split_1
I0715 11:28:57.083786  7536 net.cpp:190] Setting up Add_39_Add_39_0_split
I0715 11:28:57.083793  7536 net.cpp:197] Top shape: 1 25 64 128 (204800)
I0715 11:28:57.083797  7536 net.cpp:197] Top shape: 1 25 64 128 (204800)
I0715 11:28:57.083801  7536 net.cpp:205] Memory required for data: 755695616
I0715 11:28:57.083803  7536 layer_factory.hpp:123] Creating layer ConvNd_67
I0715 11:28:57.083811  7536 net.cpp:140] Creating Layer ConvNd_67
I0715 11:28:57.083815  7536 net.cpp:481] ConvNd_67 <- ConvNd_63_ConvNd_63_0_split_3
I0715 11:28:57.083820  7536 net.cpp:455] ConvNd_67 -> ConvNd_67
I0715 11:28:57.084044  7536 net.cpp:190] Setting up ConvNd_67
I0715 11:28:57.084051  7536 net.cpp:197] Top shape: 1 25 64 128 (204800)
I0715 11:28:57.084054  7536 net.cpp:205] Memory required for data: 756514816
I0715 11:28:57.084059  7536 layer_factory.hpp:123] Creating layer Add_40
I0715 11:28:57.084065  7536 net.cpp:140] Creating Layer Add_40
I0715 11:28:57.084069  7536 net.cpp:481] Add_40 <- Add_39_Add_39_0_split_0
I0715 11:28:57.084074  7536 net.cpp:481] Add_40 <- ConvNd_67
I0715 11:28:57.084079  7536 net.cpp:455] Add_40 -> Add_40
I0715 11:28:57.084100  7536 net.cpp:190] Setting up Add_40
I0715 11:28:57.084105  7536 net.cpp:197] Top shape: 1 25 64 128 (204800)
I0715 11:28:57.084108  7536 net.cpp:205] Memory required for data: 757334016
I0715 11:28:57.084111  7536 layer_factory.hpp:123] Creating layer Add_40_Add_40_0_split
I0715 11:28:57.084116  7536 net.cpp:140] Creating Layer Add_40_Add_40_0_split
I0715 11:28:57.084121  7536 net.cpp:481] Add_40_Add_40_0_split <- Add_40
I0715 11:28:57.084126  7536 net.cpp:455] Add_40_Add_40_0_split -> Add_40_Add_40_0_split_0
I0715 11:28:57.084132  7536 net.cpp:455] Add_40_Add_40_0_split -> Add_40_Add_40_0_split_1
I0715 11:28:57.084162  7536 net.cpp:190] Setting up Add_40_Add_40_0_split
I0715 11:28:57.084168  7536 net.cpp:197] Top shape: 1 25 64 128 (204800)
I0715 11:28:57.084172  7536 net.cpp:197] Top shape: 1 25 64 128 (204800)
I0715 11:28:57.084174  7536 net.cpp:205] Memory required for data: 758972416
I0715 11:28:57.084177  7536 layer_factory.hpp:123] Creating layer ConvNd_68
I0715 11:28:57.084185  7536 net.cpp:140] Creating Layer ConvNd_68
I0715 11:28:57.084189  7536 net.cpp:481] ConvNd_68 <- ConvNd_63_ConvNd_63_0_split_4
I0715 11:28:57.084194  7536 net.cpp:455] ConvNd_68 -> ConvNd_68
I0715 11:28:57.084411  7536 net.cpp:190] Setting up ConvNd_68
I0715 11:28:57.084419  7536 net.cpp:197] Top shape: 1 25 64 128 (204800)
I0715 11:28:57.084420  7536 net.cpp:205] Memory required for data: 759791616
I0715 11:28:57.084425  7536 layer_factory.hpp:123] Creating layer Add_41
I0715 11:28:57.084429  7536 net.cpp:140] Creating Layer Add_41
I0715 11:28:57.084434  7536 net.cpp:481] Add_41 <- Add_40_Add_40_0_split_0
I0715 11:28:57.084437  7536 net.cpp:481] Add_41 <- ConvNd_68
I0715 11:28:57.084442  7536 net.cpp:455] Add_41 -> Add_41
I0715 11:28:57.084461  7536 net.cpp:190] Setting up Add_41
I0715 11:28:57.084467  7536 net.cpp:197] Top shape: 1 25 64 128 (204800)
I0715 11:28:57.084470  7536 net.cpp:205] Memory required for data: 760610816
I0715 11:28:57.084472  7536 layer_factory.hpp:123] Creating layer Concat_13
I0715 11:28:57.084478  7536 net.cpp:140] Creating Layer Concat_13
I0715 11:28:57.084481  7536 net.cpp:481] Concat_13 <- ConvNd_64
I0715 11:28:57.084486  7536 net.cpp:481] Concat_13 <- ConvNd_65_ConvNd_65_0_split_1
I0715 11:28:57.084489  7536 net.cpp:481] Concat_13 <- Add_39_Add_39_0_split_1
I0715 11:28:57.084493  7536 net.cpp:481] Concat_13 <- Add_40_Add_40_0_split_1
I0715 11:28:57.084497  7536 net.cpp:481] Concat_13 <- Add_41
I0715 11:28:57.084501  7536 net.cpp:455] Concat_13 -> Concat_13
I0715 11:28:57.084522  7536 net.cpp:190] Setting up Concat_13
I0715 11:28:57.084528  7536 net.cpp:197] Top shape: 1 128 64 128 (1048576)
I0715 11:28:57.084532  7536 net.cpp:205] Memory required for data: 764805120
I0715 11:28:57.084534  7536 layer_factory.hpp:123] Creating layer Add_42
I0715 11:28:57.084538  7536 net.cpp:140] Creating Layer Add_42
I0715 11:28:57.084542  7536 net.cpp:481] Add_42 <- BatchNorm_13_Threshold_13_0_split_1
I0715 11:28:57.084547  7536 net.cpp:481] Add_42 <- Concat_13
I0715 11:28:57.084550  7536 net.cpp:455] Add_42 -> Add_42
I0715 11:28:57.084569  7536 net.cpp:190] Setting up Add_42
I0715 11:28:57.084575  7536 net.cpp:197] Top shape: 1 128 64 128 (1048576)
I0715 11:28:57.084578  7536 net.cpp:205] Memory required for data: 768999424
I0715 11:28:57.084581  7536 layer_factory.hpp:123] Creating layer BatchNorm_14
I0715 11:28:57.084587  7536 net.cpp:140] Creating Layer BatchNorm_14
I0715 11:28:57.084591  7536 net.cpp:481] BatchNorm_14 <- Add_42
I0715 11:28:57.084597  7536 net.cpp:455] BatchNorm_14 -> BatchNorm_14
I0715 11:28:57.085988  7536 net.cpp:190] Setting up BatchNorm_14
I0715 11:28:57.086000  7536 net.cpp:197] Top shape: 1 128 64 128 (1048576)
I0715 11:28:57.086004  7536 net.cpp:205] Memory required for data: 773193728
I0715 11:28:57.086012  7536 layer_factory.hpp:123] Creating layer Threshold_14
I0715 11:28:57.086019  7536 net.cpp:140] Creating Layer Threshold_14
I0715 11:28:57.086024  7536 net.cpp:481] Threshold_14 <- BatchNorm_14
I0715 11:28:57.086028  7536 net.cpp:442] Threshold_14 -> BatchNorm_14 (in-place)
I0715 11:28:57.086036  7536 net.cpp:190] Setting up Threshold_14
I0715 11:28:57.086041  7536 net.cpp:197] Top shape: 1 128 64 128 (1048576)
I0715 11:28:57.086043  7536 net.cpp:205] Memory required for data: 777388032
I0715 11:28:57.086047  7536 layer_factory.hpp:123] Creating layer BatchNorm_14_Threshold_14_0_split
I0715 11:28:57.086052  7536 net.cpp:140] Creating Layer BatchNorm_14_Threshold_14_0_split
I0715 11:28:57.086057  7536 net.cpp:481] BatchNorm_14_Threshold_14_0_split <- BatchNorm_14
I0715 11:28:57.086062  7536 net.cpp:455] BatchNorm_14_Threshold_14_0_split -> BatchNorm_14_Threshold_14_0_split_0
I0715 11:28:57.086068  7536 net.cpp:455] BatchNorm_14_Threshold_14_0_split -> BatchNorm_14_Threshold_14_0_split_1
I0715 11:28:57.086103  7536 net.cpp:190] Setting up BatchNorm_14_Threshold_14_0_split
I0715 11:28:57.086108  7536 net.cpp:197] Top shape: 1 128 64 128 (1048576)
I0715 11:28:57.086112  7536 net.cpp:197] Top shape: 1 128 64 128 (1048576)
I0715 11:28:57.086115  7536 net.cpp:205] Memory required for data: 785776640
I0715 11:28:57.086118  7536 layer_factory.hpp:123] Creating layer ConvNd_69
I0715 11:28:57.086127  7536 net.cpp:140] Creating Layer ConvNd_69
I0715 11:28:57.086130  7536 net.cpp:481] ConvNd_69 <- BatchNorm_14_Threshold_14_0_split_0
I0715 11:28:57.086136  7536 net.cpp:455] ConvNd_69 -> ConvNd_69
I0715 11:28:57.086344  7536 net.cpp:190] Setting up ConvNd_69
I0715 11:28:57.086352  7536 net.cpp:197] Top shape: 1 25 64 128 (204800)
I0715 11:28:57.086355  7536 net.cpp:205] Memory required for data: 786595840
I0715 11:28:57.086360  7536 layer_factory.hpp:123] Creating layer ConvNd_69_ConvNd_69_0_split
I0715 11:28:57.086365  7536 net.cpp:140] Creating Layer ConvNd_69_ConvNd_69_0_split
I0715 11:28:57.086369  7536 net.cpp:481] ConvNd_69_ConvNd_69_0_split <- ConvNd_69
I0715 11:28:57.086374  7536 net.cpp:455] ConvNd_69_ConvNd_69_0_split -> ConvNd_69_ConvNd_69_0_split_0
I0715 11:28:57.086382  7536 net.cpp:455] ConvNd_69_ConvNd_69_0_split -> ConvNd_69_ConvNd_69_0_split_1
I0715 11:28:57.086390  7536 net.cpp:455] ConvNd_69_ConvNd_69_0_split -> ConvNd_69_ConvNd_69_0_split_2
I0715 11:28:57.086395  7536 net.cpp:455] ConvNd_69_ConvNd_69_0_split -> ConvNd_69_ConvNd_69_0_split_3
I0715 11:28:57.086402  7536 net.cpp:455] ConvNd_69_ConvNd_69_0_split -> ConvNd_69_ConvNd_69_0_split_4
I0715 11:28:57.086465  7536 net.cpp:190] Setting up ConvNd_69_ConvNd_69_0_split
I0715 11:28:57.086472  7536 net.cpp:197] Top shape: 1 25 64 128 (204800)
I0715 11:28:57.086475  7536 net.cpp:197] Top shape: 1 25 64 128 (204800)
I0715 11:28:57.086478  7536 net.cpp:197] Top shape: 1 25 64 128 (204800)
I0715 11:28:57.086483  7536 net.cpp:197] Top shape: 1 25 64 128 (204800)
I0715 11:28:57.086485  7536 net.cpp:197] Top shape: 1 25 64 128 (204800)
I0715 11:28:57.086488  7536 net.cpp:205] Memory required for data: 790691840
I0715 11:28:57.086491  7536 layer_factory.hpp:123] Creating layer ConvNd_70
I0715 11:28:57.086498  7536 net.cpp:140] Creating Layer ConvNd_70
I0715 11:28:57.086503  7536 net.cpp:481] ConvNd_70 <- ConvNd_69_ConvNd_69_0_split_0
I0715 11:28:57.086508  7536 net.cpp:455] ConvNd_70 -> ConvNd_70
I0715 11:28:57.086740  7536 net.cpp:190] Setting up ConvNd_70
I0715 11:28:57.086751  7536 net.cpp:197] Top shape: 1 28 64 128 (229376)
I0715 11:28:57.086755  7536 net.cpp:205] Memory required for data: 791609344
I0715 11:28:57.086762  7536 layer_factory.hpp:123] Creating layer ConvNd_71
I0715 11:28:57.086774  7536 net.cpp:140] Creating Layer ConvNd_71
I0715 11:28:57.086779  7536 net.cpp:481] ConvNd_71 <- ConvNd_69_ConvNd_69_0_split_1
I0715 11:28:57.086786  7536 net.cpp:455] ConvNd_71 -> ConvNd_71
I0715 11:28:57.087067  7536 net.cpp:190] Setting up ConvNd_71
I0715 11:28:57.087077  7536 net.cpp:197] Top shape: 1 25 64 128 (204800)
I0715 11:28:57.087080  7536 net.cpp:205] Memory required for data: 792428544
I0715 11:28:57.087087  7536 layer_factory.hpp:123] Creating layer ConvNd_71_ConvNd_71_0_split
I0715 11:28:57.087095  7536 net.cpp:140] Creating Layer ConvNd_71_ConvNd_71_0_split
I0715 11:28:57.087102  7536 net.cpp:481] ConvNd_71_ConvNd_71_0_split <- ConvNd_71
I0715 11:28:57.087110  7536 net.cpp:455] ConvNd_71_ConvNd_71_0_split -> ConvNd_71_ConvNd_71_0_split_0
I0715 11:28:57.087121  7536 net.cpp:455] ConvNd_71_ConvNd_71_0_split -> ConvNd_71_ConvNd_71_0_split_1
I0715 11:28:57.087163  7536 net.cpp:190] Setting up ConvNd_71_ConvNd_71_0_split
I0715 11:28:57.087172  7536 net.cpp:197] Top shape: 1 25 64 128 (204800)
I0715 11:28:57.087177  7536 net.cpp:197] Top shape: 1 25 64 128 (204800)
I0715 11:28:57.087183  7536 net.cpp:205] Memory required for data: 794066944
I0715 11:28:57.087188  7536 layer_factory.hpp:123] Creating layer ConvNd_72
I0715 11:28:57.087196  7536 net.cpp:140] Creating Layer ConvNd_72
I0715 11:28:57.087203  7536 net.cpp:481] ConvNd_72 <- ConvNd_69_ConvNd_69_0_split_2
I0715 11:28:57.087209  7536 net.cpp:455] ConvNd_72 -> ConvNd_72
I0715 11:28:57.087473  7536 net.cpp:190] Setting up ConvNd_72
I0715 11:28:57.087481  7536 net.cpp:197] Top shape: 1 25 64 128 (204800)
I0715 11:28:57.087484  7536 net.cpp:205] Memory required for data: 794886144
I0715 11:28:57.087491  7536 layer_factory.hpp:123] Creating layer Add_43
I0715 11:28:57.087500  7536 net.cpp:140] Creating Layer Add_43
I0715 11:28:57.087508  7536 net.cpp:481] Add_43 <- ConvNd_71_ConvNd_71_0_split_0
I0715 11:28:57.087515  7536 net.cpp:481] Add_43 <- ConvNd_72
I0715 11:28:57.087525  7536 net.cpp:455] Add_43 -> Add_43
I0715 11:28:57.087558  7536 net.cpp:190] Setting up Add_43
I0715 11:28:57.087563  7536 net.cpp:197] Top shape: 1 25 64 128 (204800)
I0715 11:28:57.087568  7536 net.cpp:205] Memory required for data: 795705344
I0715 11:28:57.087572  7536 layer_factory.hpp:123] Creating layer Add_43_Add_43_0_split
I0715 11:28:57.087580  7536 net.cpp:140] Creating Layer Add_43_Add_43_0_split
I0715 11:28:57.087587  7536 net.cpp:481] Add_43_Add_43_0_split <- Add_43
I0715 11:28:57.087595  7536 net.cpp:455] Add_43_Add_43_0_split -> Add_43_Add_43_0_split_0
I0715 11:28:57.087607  7536 net.cpp:455] Add_43_Add_43_0_split -> Add_43_Add_43_0_split_1
I0715 11:28:57.087649  7536 net.cpp:190] Setting up Add_43_Add_43_0_split
I0715 11:28:57.087656  7536 net.cpp:197] Top shape: 1 25 64 128 (204800)
I0715 11:28:57.087659  7536 net.cpp:197] Top shape: 1 25 64 128 (204800)
I0715 11:28:57.087664  7536 net.cpp:205] Memory required for data: 797343744
I0715 11:28:57.087669  7536 layer_factory.hpp:123] Creating layer ConvNd_73
I0715 11:28:57.087680  7536 net.cpp:140] Creating Layer ConvNd_73
I0715 11:28:57.087687  7536 net.cpp:481] ConvNd_73 <- ConvNd_69_ConvNd_69_0_split_3
I0715 11:28:57.087694  7536 net.cpp:455] ConvNd_73 -> ConvNd_73
I0715 11:28:57.087934  7536 net.cpp:190] Setting up ConvNd_73
I0715 11:28:57.087941  7536 net.cpp:197] Top shape: 1 25 64 128 (204800)
I0715 11:28:57.087944  7536 net.cpp:205] Memory required for data: 798162944
I0715 11:28:57.087951  7536 layer_factory.hpp:123] Creating layer Add_44
I0715 11:28:57.087961  7536 net.cpp:140] Creating Layer Add_44
I0715 11:28:57.087968  7536 net.cpp:481] Add_44 <- Add_43_Add_43_0_split_0
I0715 11:28:57.087975  7536 net.cpp:481] Add_44 <- ConvNd_73
I0715 11:28:57.087985  7536 net.cpp:455] Add_44 -> Add_44
I0715 11:28:57.088016  7536 net.cpp:190] Setting up Add_44
I0715 11:28:57.088021  7536 net.cpp:197] Top shape: 1 25 64 128 (204800)
I0715 11:28:57.088024  7536 net.cpp:205] Memory required for data: 798982144
I0715 11:28:57.088030  7536 layer_factory.hpp:123] Creating layer Add_44_Add_44_0_split
I0715 11:28:57.088037  7536 net.cpp:140] Creating Layer Add_44_Add_44_0_split
I0715 11:28:57.088044  7536 net.cpp:481] Add_44_Add_44_0_split <- Add_44
I0715 11:28:57.088053  7536 net.cpp:455] Add_44_Add_44_0_split -> Add_44_Add_44_0_split_0
I0715 11:28:57.088065  7536 net.cpp:455] Add_44_Add_44_0_split -> Add_44_Add_44_0_split_1
I0715 11:28:57.088106  7536 net.cpp:190] Setting up Add_44_Add_44_0_split
I0715 11:28:57.088112  7536 net.cpp:197] Top shape: 1 25 64 128 (204800)
I0715 11:28:57.088117  7536 net.cpp:197] Top shape: 1 25 64 128 (204800)
I0715 11:28:57.088122  7536 net.cpp:205] Memory required for data: 800620544
I0715 11:28:57.088126  7536 layer_factory.hpp:123] Creating layer ConvNd_74
I0715 11:28:57.088137  7536 net.cpp:140] Creating Layer ConvNd_74
I0715 11:28:57.088145  7536 net.cpp:481] ConvNd_74 <- ConvNd_69_ConvNd_69_0_split_4
I0715 11:28:57.088152  7536 net.cpp:455] ConvNd_74 -> ConvNd_74
I0715 11:28:57.088388  7536 net.cpp:190] Setting up ConvNd_74
I0715 11:28:57.088397  7536 net.cpp:197] Top shape: 1 25 64 128 (204800)
I0715 11:28:57.088399  7536 net.cpp:205] Memory required for data: 801439744
I0715 11:28:57.088407  7536 layer_factory.hpp:123] Creating layer Add_45
I0715 11:28:57.088414  7536 net.cpp:140] Creating Layer Add_45
I0715 11:28:57.088421  7536 net.cpp:481] Add_45 <- Add_44_Add_44_0_split_0
I0715 11:28:57.088428  7536 net.cpp:481] Add_45 <- ConvNd_74
I0715 11:28:57.088435  7536 net.cpp:455] Add_45 -> Add_45
I0715 11:28:57.088464  7536 net.cpp:190] Setting up Add_45
I0715 11:28:57.088470  7536 net.cpp:197] Top shape: 1 25 64 128 (204800)
I0715 11:28:57.088474  7536 net.cpp:205] Memory required for data: 802258944
I0715 11:28:57.088479  7536 layer_factory.hpp:123] Creating layer Concat_14
I0715 11:28:57.088487  7536 net.cpp:140] Creating Layer Concat_14
I0715 11:28:57.088495  7536 net.cpp:481] Concat_14 <- ConvNd_70
I0715 11:28:57.088501  7536 net.cpp:481] Concat_14 <- ConvNd_71_ConvNd_71_0_split_1
I0715 11:28:57.088510  7536 net.cpp:481] Concat_14 <- Add_43_Add_43_0_split_1
I0715 11:28:57.088517  7536 net.cpp:481] Concat_14 <- Add_44_Add_44_0_split_1
I0715 11:28:57.088523  7536 net.cpp:481] Concat_14 <- Add_45
I0715 11:28:57.088531  7536 net.cpp:455] Concat_14 -> Concat_14
I0715 11:28:57.088564  7536 net.cpp:190] Setting up Concat_14
I0715 11:28:57.088570  7536 net.cpp:197] Top shape: 1 128 64 128 (1048576)
I0715 11:28:57.088573  7536 net.cpp:205] Memory required for data: 806453248
I0715 11:28:57.088577  7536 layer_factory.hpp:123] Creating layer Add_46
I0715 11:28:57.088588  7536 net.cpp:140] Creating Layer Add_46
I0715 11:28:57.088595  7536 net.cpp:481] Add_46 <- BatchNorm_14_Threshold_14_0_split_1
I0715 11:28:57.088601  7536 net.cpp:481] Add_46 <- Concat_14
I0715 11:28:57.088611  7536 net.cpp:455] Add_46 -> Add_46
I0715 11:28:57.088640  7536 net.cpp:190] Setting up Add_46
I0715 11:28:57.088646  7536 net.cpp:197] Top shape: 1 128 64 128 (1048576)
I0715 11:28:57.088649  7536 net.cpp:205] Memory required for data: 810647552
I0715 11:28:57.088654  7536 layer_factory.hpp:123] Creating layer BatchNorm_15
I0715 11:28:57.088666  7536 net.cpp:140] Creating Layer BatchNorm_15
I0715 11:28:57.088673  7536 net.cpp:481] BatchNorm_15 <- Add_46
I0715 11:28:57.088681  7536 net.cpp:455] BatchNorm_15 -> BatchNorm_15
I0715 11:28:57.089251  7536 net.cpp:190] Setting up BatchNorm_15
I0715 11:28:57.089259  7536 net.cpp:197] Top shape: 1 128 64 128 (1048576)
I0715 11:28:57.089262  7536 net.cpp:205] Memory required for data: 814841856
I0715 11:28:57.089277  7536 layer_factory.hpp:123] Creating layer Threshold_15
I0715 11:28:57.089287  7536 net.cpp:140] Creating Layer Threshold_15
I0715 11:28:57.089293  7536 net.cpp:481] Threshold_15 <- BatchNorm_15
I0715 11:28:57.089301  7536 net.cpp:442] Threshold_15 -> BatchNorm_15 (in-place)
I0715 11:28:57.089313  7536 net.cpp:190] Setting up Threshold_15
I0715 11:28:57.089321  7536 net.cpp:197] Top shape: 1 128 64 128 (1048576)
I0715 11:28:57.089326  7536 net.cpp:205] Memory required for data: 819036160
I0715 11:28:57.089330  7536 layer_factory.hpp:123] Creating layer Concat_15
I0715 11:28:57.089340  7536 net.cpp:140] Creating Layer Concat_15
I0715 11:28:57.089349  7536 net.cpp:481] Concat_15 <- BatchNorm_7_Threshold_7_0_split_2
I0715 11:28:57.089355  7536 net.cpp:481] Concat_15 <- BatchNorm_15
I0715 11:28:57.089366  7536 net.cpp:455] Concat_15 -> Concat_15
I0715 11:28:57.089397  7536 net.cpp:190] Setting up Concat_15
I0715 11:28:57.089403  7536 net.cpp:197] Top shape: 1 256 64 128 (2097152)
I0715 11:28:57.089406  7536 net.cpp:205] Memory required for data: 827424768
I0715 11:28:57.089411  7536 layer_factory.hpp:123] Creating layer BatchNorm_16
I0715 11:28:57.089421  7536 net.cpp:140] Creating Layer BatchNorm_16
I0715 11:28:57.089428  7536 net.cpp:481] BatchNorm_16 <- Concat_15
I0715 11:28:57.089438  7536 net.cpp:455] BatchNorm_16 -> BatchNorm_16
I0715 11:28:57.090000  7536 net.cpp:190] Setting up BatchNorm_16
I0715 11:28:57.090008  7536 net.cpp:197] Top shape: 1 256 64 128 (2097152)
I0715 11:28:57.090011  7536 net.cpp:205] Memory required for data: 835813376
I0715 11:28:57.090024  7536 layer_factory.hpp:123] Creating layer Threshold_16
I0715 11:28:57.090034  7536 net.cpp:140] Creating Layer Threshold_16
I0715 11:28:57.090039  7536 net.cpp:481] Threshold_16 <- BatchNorm_16
I0715 11:28:57.090046  7536 net.cpp:442] Threshold_16 -> BatchNorm_16 (in-place)
I0715 11:28:57.090057  7536 net.cpp:190] Setting up Threshold_16
I0715 11:28:57.090065  7536 net.cpp:197] Top shape: 1 256 64 128 (2097152)
I0715 11:28:57.090072  7536 net.cpp:205] Memory required for data: 844201984
I0715 11:28:57.090076  7536 layer_factory.hpp:123] Creating layer ConvNd_75
I0715 11:28:57.090088  7536 net.cpp:140] Creating Layer ConvNd_75
I0715 11:28:57.090095  7536 net.cpp:481] ConvNd_75 <- BatchNorm_16
I0715 11:28:57.090104  7536 net.cpp:455] ConvNd_75 -> ConvNd_75
I0715 11:28:57.090329  7536 net.cpp:190] Setting up ConvNd_75
I0715 11:28:57.090338  7536 net.cpp:197] Top shape: 1 19 64 128 (155648)
I0715 11:28:57.090342  7536 net.cpp:205] Memory required for data: 844824576
I0715 11:28:57.090348  7536 layer_factory.hpp:123] Creating layer BatchNorm_17
I0715 11:28:57.090359  7536 net.cpp:140] Creating Layer BatchNorm_17
I0715 11:28:57.090366  7536 net.cpp:481] BatchNorm_17 <- ConvNd_75
I0715 11:28:57.090376  7536 net.cpp:455] BatchNorm_17 -> BatchNorm_17
I0715 11:28:57.091022  7536 net.cpp:190] Setting up BatchNorm_17
I0715 11:28:57.091030  7536 net.cpp:197] Top shape: 1 19 64 128 (155648)
I0715 11:28:57.091033  7536 net.cpp:205] Memory required for data: 845447168
I0715 11:28:57.091048  7536 layer_factory.hpp:123] Creating layer ConvNd_76
I0715 11:28:57.091058  7536 net.cpp:140] Creating Layer ConvNd_76
I0715 11:28:57.091066  7536 net.cpp:481] ConvNd_76 <- BatchNorm_17
I0715 11:28:57.091078  7536 net.cpp:455] ConvNd_76 -> ConvNd_76
I0715 11:28:57.091279  7536 net.cpp:190] Setting up ConvNd_76
I0715 11:28:57.091285  7536 net.cpp:197] Top shape: 1 19 128 256 (622592)
I0715 11:28:57.091289  7536 net.cpp:205] Memory required for data: 847937536
I0715 11:28:57.091296  7536 layer_factory.hpp:123] Creating layer 
I0715 11:28:57.091303  7536 net.cpp:140] Creating Layer 
I0715 11:28:57.091310  7536 net.cpp:481]  <- ConvNd_20
I0715 11:28:57.091317  7536 net.cpp:481]  <- ConvNd_76
I0715 11:28:57.091327  7536 net.cpp:455]  -> 
I0715 11:28:57.091357  7536 net.cpp:190] Setting up 
I0715 11:28:57.091364  7536 net.cpp:197] Top shape: 1 38 128 256 (1245184)
I0715 11:28:57.091367  7536 net.cpp:205] Memory required for data: 852918272
I0715 11:28:57.091372  7536 layer_factory.hpp:123] Creating layer BatchNorm_18
I0715 11:28:57.091382  7536 net.cpp:140] Creating Layer BatchNorm_18
I0715 11:28:57.091388  7536 net.cpp:481] BatchNorm_18 <- 
I0715 11:28:57.091398  7536 net.cpp:455] BatchNorm_18 -> BatchNorm_18
I0715 11:28:57.092074  7536 net.cpp:190] Setting up BatchNorm_18
I0715 11:28:57.092083  7536 net.cpp:197] Top shape: 1 38 128 256 (1245184)
I0715 11:28:57.092087  7536 net.cpp:205] Memory required for data: 857899008
I0715 11:28:57.092100  7536 layer_factory.hpp:123] Creating layer Threshold_17
I0715 11:28:57.092110  7536 net.cpp:140] Creating Layer Threshold_17
I0715 11:28:57.092118  7536 net.cpp:481] Threshold_17 <- BatchNorm_18
I0715 11:28:57.092124  7536 net.cpp:442] Threshold_17 -> BatchNorm_18 (in-place)
I0715 11:28:57.092134  7536 net.cpp:190] Setting up Threshold_17
I0715 11:28:57.092141  7536 net.cpp:197] Top shape: 1 38 128 256 (1245184)
I0715 11:28:57.092145  7536 net.cpp:205] Memory required for data: 862879744
I0715 11:28:57.092149  7536 layer_factory.hpp:123] Creating layer ConvNd_77
I0715 11:28:57.092160  7536 net.cpp:140] Creating Layer ConvNd_77
I0715 11:28:57.092166  7536 net.cpp:481] ConvNd_77 <- BatchNorm_18
I0715 11:28:57.092175  7536 net.cpp:455] ConvNd_77 -> ConvNd_77
I0715 11:28:57.092366  7536 net.cpp:190] Setting up ConvNd_77
I0715 11:28:57.092375  7536 net.cpp:197] Top shape: 1 4 128 256 (131072)
I0715 11:28:57.092377  7536 net.cpp:205] Memory required for data: 863404032
I0715 11:28:57.092384  7536 layer_factory.hpp:123] Creating layer ConvNd_77_ConvNd_77_0_split
I0715 11:28:57.092396  7536 net.cpp:140] Creating Layer ConvNd_77_ConvNd_77_0_split
I0715 11:28:57.092402  7536 net.cpp:481] ConvNd_77_ConvNd_77_0_split <- ConvNd_77
I0715 11:28:57.092411  7536 net.cpp:455] ConvNd_77_ConvNd_77_0_split -> ConvNd_77_ConvNd_77_0_split_0
I0715 11:28:57.092425  7536 net.cpp:455] ConvNd_77_ConvNd_77_0_split -> ConvNd_77_ConvNd_77_0_split_1
I0715 11:28:57.092435  7536 net.cpp:455] ConvNd_77_ConvNd_77_0_split -> ConvNd_77_ConvNd_77_0_split_2
I0715 11:28:57.092448  7536 net.cpp:455] ConvNd_77_ConvNd_77_0_split -> ConvNd_77_ConvNd_77_0_split_3
I0715 11:28:57.092458  7536 net.cpp:455] ConvNd_77_ConvNd_77_0_split -> ConvNd_77_ConvNd_77_0_split_4
I0715 11:28:57.092528  7536 net.cpp:190] Setting up ConvNd_77_ConvNd_77_0_split
I0715 11:28:57.092536  7536 net.cpp:197] Top shape: 1 4 128 256 (131072)
I0715 11:28:57.092540  7536 net.cpp:197] Top shape: 1 4 128 256 (131072)
I0715 11:28:57.092546  7536 net.cpp:197] Top shape: 1 4 128 256 (131072)
I0715 11:28:57.092552  7536 net.cpp:197] Top shape: 1 4 128 256 (131072)
I0715 11:28:57.092561  7536 net.cpp:197] Top shape: 1 4 128 256 (131072)
I0715 11:28:57.092566  7536 net.cpp:205] Memory required for data: 866025472
I0715 11:28:57.092571  7536 layer_factory.hpp:123] Creating layer ConvNd_78
I0715 11:28:57.092581  7536 net.cpp:140] Creating Layer ConvNd_78
I0715 11:28:57.092588  7536 net.cpp:481] ConvNd_78 <- ConvNd_77_ConvNd_77_0_split_0
I0715 11:28:57.092597  7536 net.cpp:455] ConvNd_78 -> ConvNd_78
I0715 11:28:57.092790  7536 net.cpp:190] Setting up ConvNd_78
I0715 11:28:57.092798  7536 net.cpp:197] Top shape: 1 4 128 256 (131072)
I0715 11:28:57.092802  7536 net.cpp:205] Memory required for data: 866549760
I0715 11:28:57.092808  7536 layer_factory.hpp:123] Creating layer ConvNd_79
I0715 11:28:57.092819  7536 net.cpp:140] Creating Layer ConvNd_79
I0715 11:28:57.092826  7536 net.cpp:481] ConvNd_79 <- ConvNd_77_ConvNd_77_0_split_1
I0715 11:28:57.092835  7536 net.cpp:455] ConvNd_79 -> ConvNd_79
I0715 11:28:57.093016  7536 net.cpp:190] Setting up ConvNd_79
I0715 11:28:57.093024  7536 net.cpp:197] Top shape: 1 4 128 256 (131072)
I0715 11:28:57.093027  7536 net.cpp:205] Memory required for data: 867074048
I0715 11:28:57.093034  7536 layer_factory.hpp:123] Creating layer ConvNd_79_ConvNd_79_0_split
I0715 11:28:57.093042  7536 net.cpp:140] Creating Layer ConvNd_79_ConvNd_79_0_split
I0715 11:28:57.093050  7536 net.cpp:481] ConvNd_79_ConvNd_79_0_split <- ConvNd_79
I0715 11:28:57.093057  7536 net.cpp:455] ConvNd_79_ConvNd_79_0_split -> ConvNd_79_ConvNd_79_0_split_0
I0715 11:28:57.093070  7536 net.cpp:455] ConvNd_79_ConvNd_79_0_split -> ConvNd_79_ConvNd_79_0_split_1
I0715 11:28:57.093111  7536 net.cpp:190] Setting up ConvNd_79_ConvNd_79_0_split
I0715 11:28:57.093117  7536 net.cpp:197] Top shape: 1 4 128 256 (131072)
I0715 11:28:57.093122  7536 net.cpp:197] Top shape: 1 4 128 256 (131072)
I0715 11:28:57.093127  7536 net.cpp:205] Memory required for data: 868122624
I0715 11:28:57.093132  7536 layer_factory.hpp:123] Creating layer ConvNd_80
I0715 11:28:57.093143  7536 net.cpp:140] Creating Layer ConvNd_80
I0715 11:28:57.093150  7536 net.cpp:481] ConvNd_80 <- ConvNd_77_ConvNd_77_0_split_2
I0715 11:28:57.093158  7536 net.cpp:455] ConvNd_80 -> ConvNd_80
I0715 11:28:57.093338  7536 net.cpp:190] Setting up ConvNd_80
I0715 11:28:57.093344  7536 net.cpp:197] Top shape: 1 4 128 256 (131072)
I0715 11:28:57.093348  7536 net.cpp:205] Memory required for data: 868646912
I0715 11:28:57.093353  7536 layer_factory.hpp:123] Creating layer Add_47
I0715 11:28:57.093364  7536 net.cpp:140] Creating Layer Add_47
I0715 11:28:57.093370  7536 net.cpp:481] Add_47 <- ConvNd_79_ConvNd_79_0_split_0
I0715 11:28:57.093377  7536 net.cpp:481] Add_47 <- ConvNd_80
I0715 11:28:57.093387  7536 net.cpp:455] Add_47 -> Add_47
I0715 11:28:57.093417  7536 net.cpp:190] Setting up Add_47
I0715 11:28:57.093423  7536 net.cpp:197] Top shape: 1 4 128 256 (131072)
I0715 11:28:57.093427  7536 net.cpp:205] Memory required for data: 869171200
I0715 11:28:57.093431  7536 layer_factory.hpp:123] Creating layer Add_47_Add_47_0_split
I0715 11:28:57.093441  7536 net.cpp:140] Creating Layer Add_47_Add_47_0_split
I0715 11:28:57.093448  7536 net.cpp:481] Add_47_Add_47_0_split <- Add_47
I0715 11:28:57.093456  7536 net.cpp:455] Add_47_Add_47_0_split -> Add_47_Add_47_0_split_0
I0715 11:28:57.093469  7536 net.cpp:455] Add_47_Add_47_0_split -> Add_47_Add_47_0_split_1
I0715 11:28:57.093510  7536 net.cpp:190] Setting up Add_47_Add_47_0_split
I0715 11:28:57.093516  7536 net.cpp:197] Top shape: 1 4 128 256 (131072)
I0715 11:28:57.093521  7536 net.cpp:197] Top shape: 1 4 128 256 (131072)
I0715 11:28:57.093525  7536 net.cpp:205] Memory required for data: 870219776
I0715 11:28:57.093529  7536 layer_factory.hpp:123] Creating layer ConvNd_81
I0715 11:28:57.093541  7536 net.cpp:140] Creating Layer ConvNd_81
I0715 11:28:57.093549  7536 net.cpp:481] ConvNd_81 <- ConvNd_77_ConvNd_77_0_split_3
I0715 11:28:57.093556  7536 net.cpp:455] ConvNd_81 -> ConvNd_81
I0715 11:28:57.093737  7536 net.cpp:190] Setting up ConvNd_81
I0715 11:28:57.093744  7536 net.cpp:197] Top shape: 1 4 128 256 (131072)
I0715 11:28:57.093747  7536 net.cpp:205] Memory required for data: 870744064
I0715 11:28:57.093755  7536 layer_factory.hpp:123] Creating layer Add_48
I0715 11:28:57.093761  7536 net.cpp:140] Creating Layer Add_48
I0715 11:28:57.093768  7536 net.cpp:481] Add_48 <- Add_47_Add_47_0_split_0
I0715 11:28:57.093776  7536 net.cpp:481] Add_48 <- ConvNd_81
I0715 11:28:57.093786  7536 net.cpp:455] Add_48 -> Add_48
I0715 11:28:57.093816  7536 net.cpp:190] Setting up Add_48
I0715 11:28:57.093822  7536 net.cpp:197] Top shape: 1 4 128 256 (131072)
I0715 11:28:57.093824  7536 net.cpp:205] Memory required for data: 871268352
I0715 11:28:57.093829  7536 layer_factory.hpp:123] Creating layer Add_48_Add_48_0_split
I0715 11:28:57.093837  7536 net.cpp:140] Creating Layer Add_48_Add_48_0_split
I0715 11:28:57.093843  7536 net.cpp:481] Add_48_Add_48_0_split <- Add_48
I0715 11:28:57.093852  7536 net.cpp:455] Add_48_Add_48_0_split -> Add_48_Add_48_0_split_0
I0715 11:28:57.093863  7536 net.cpp:455] Add_48_Add_48_0_split -> Add_48_Add_48_0_split_1
I0715 11:28:57.093904  7536 net.cpp:190] Setting up Add_48_Add_48_0_split
I0715 11:28:57.093910  7536 net.cpp:197] Top shape: 1 4 128 256 (131072)
I0715 11:28:57.093915  7536 net.cpp:197] Top shape: 1 4 128 256 (131072)
I0715 11:28:57.093919  7536 net.cpp:205] Memory required for data: 872316928
I0715 11:28:57.093924  7536 layer_factory.hpp:123] Creating layer ConvNd_82
I0715 11:28:57.093935  7536 net.cpp:140] Creating Layer ConvNd_82
I0715 11:28:57.093942  7536 net.cpp:481] ConvNd_82 <- ConvNd_77_ConvNd_77_0_split_4
I0715 11:28:57.093950  7536 net.cpp:455] ConvNd_82 -> ConvNd_82
I0715 11:28:57.094130  7536 net.cpp:190] Setting up ConvNd_82
I0715 11:28:57.094136  7536 net.cpp:197] Top shape: 1 4 128 256 (131072)
I0715 11:28:57.094139  7536 net.cpp:205] Memory required for data: 872841216
I0715 11:28:57.094146  7536 layer_factory.hpp:123] Creating layer Add_49
I0715 11:28:57.094153  7536 net.cpp:140] Creating Layer Add_49
I0715 11:28:57.094161  7536 net.cpp:481] Add_49 <- Add_48_Add_48_0_split_0
I0715 11:28:57.094168  7536 net.cpp:481] Add_49 <- ConvNd_82
I0715 11:28:57.094177  7536 net.cpp:455] Add_49 -> Add_49
I0715 11:28:57.094207  7536 net.cpp:190] Setting up Add_49
I0715 11:28:57.094213  7536 net.cpp:197] Top shape: 1 4 128 256 (131072)
I0715 11:28:57.094216  7536 net.cpp:205] Memory required for data: 873365504
I0715 11:28:57.094220  7536 layer_factory.hpp:123] Creating layer Concat_17
I0715 11:28:57.094229  7536 net.cpp:140] Creating Layer Concat_17
I0715 11:28:57.094236  7536 net.cpp:481] Concat_17 <- ConvNd_78
I0715 11:28:57.094242  7536 net.cpp:481] Concat_17 <- ConvNd_79_ConvNd_79_0_split_1
I0715 11:28:57.094251  7536 net.cpp:481] Concat_17 <- Add_47_Add_47_0_split_1
I0715 11:28:57.094260  7536 net.cpp:481] Concat_17 <- Add_48_Add_48_0_split_1
I0715 11:28:57.094269  7536 net.cpp:481] Concat_17 <- Add_49
I0715 11:28:57.094276  7536 net.cpp:455] Concat_17 -> Concat_17
I0715 11:28:57.094307  7536 net.cpp:190] Setting up Concat_17
I0715 11:28:57.094313  7536 net.cpp:197] Top shape: 1 20 128 256 (655360)
I0715 11:28:57.094316  7536 net.cpp:205] Memory required for data: 875986944
I0715 11:28:57.094321  7536 layer_factory.hpp:123] Creating layer BatchNorm_19
I0715 11:28:57.094331  7536 net.cpp:140] Creating Layer BatchNorm_19
I0715 11:28:57.094338  7536 net.cpp:481] BatchNorm_19 <- Concat_17
I0715 11:28:57.094348  7536 net.cpp:455] BatchNorm_19 -> BatchNorm_19
I0715 11:28:57.095016  7536 net.cpp:190] Setting up BatchNorm_19
I0715 11:28:57.095024  7536 net.cpp:197] Top shape: 1 20 128 256 (655360)
I0715 11:28:57.095027  7536 net.cpp:205] Memory required for data: 878608384
I0715 11:28:57.095041  7536 layer_factory.hpp:123] Creating layer Threshold_18
I0715 11:28:57.095050  7536 net.cpp:140] Creating Layer Threshold_18
I0715 11:28:57.095057  7536 net.cpp:481] Threshold_18 <- BatchNorm_19
I0715 11:28:57.095064  7536 net.cpp:442] Threshold_18 -> BatchNorm_19 (in-place)
I0715 11:28:57.095077  7536 net.cpp:190] Setting up Threshold_18
I0715 11:28:57.095084  7536 net.cpp:197] Top shape: 1 20 128 256 (655360)
I0715 11:28:57.095088  7536 net.cpp:205] Memory required for data: 881229824
I0715 11:28:57.095093  7536 layer_factory.hpp:123] Creating layer ConvNd_83
I0715 11:28:57.095103  7536 net.cpp:140] Creating Layer ConvNd_83
I0715 11:28:57.095110  7536 net.cpp:481] ConvNd_83 <- BatchNorm_19
I0715 11:28:57.095119  7536 net.cpp:455] ConvNd_83 -> ConvNd_83
I0715 11:28:57.095329  7536 net.cpp:190] Setting up ConvNd_83
I0715 11:28:57.095336  7536 net.cpp:197] Top shape: 1 19 256 512 (2490368)
I0715 11:28:57.095340  7536 net.cpp:205] Memory required for data: 891191296
I0715 11:28:57.095346  7536 layer_factory.hpp:123] Creating layer BatchNorm_20
I0715 11:28:57.095363  7536 net.cpp:140] Creating Layer BatchNorm_20
I0715 11:28:57.095371  7536 net.cpp:481] BatchNorm_20 <- ConvNd_83
I0715 11:28:57.095378  7536 net.cpp:455] BatchNorm_20 -> BatchNorm_20
I0715 11:28:57.096122  7536 net.cpp:190] Setting up BatchNorm_20
I0715 11:28:57.096132  7536 net.cpp:197] Top shape: 1 19 256 512 (2490368)
I0715 11:28:57.096134  7536 net.cpp:205] Memory required for data: 901152768
I0715 11:28:57.096148  7536 layer_factory.hpp:123] Creating layer Threshold_19
I0715 11:28:57.096158  7536 net.cpp:140] Creating Layer Threshold_19
I0715 11:28:57.096164  7536 net.cpp:481] Threshold_19 <- BatchNorm_20
I0715 11:28:57.096171  7536 net.cpp:442] Threshold_19 -> BatchNorm_20 (in-place)
I0715 11:28:57.096184  7536 net.cpp:190] Setting up Threshold_19
I0715 11:28:57.096191  7536 net.cpp:197] Top shape: 1 19 256 512 (2490368)
I0715 11:28:57.096196  7536 net.cpp:205] Memory required for data: 911114240
I0715 11:28:57.096201  7536 layer_factory.hpp:123] Creating layer Concat_18
I0715 11:28:57.096210  7536 net.cpp:140] Creating Layer Concat_18
I0715 11:28:57.096215  7536 net.cpp:481] Concat_18 <- BatchNorm_20
I0715 11:28:57.096221  7536 net.cpp:481] Concat_18 <- BatchNorm_1_Threshold_1_0_split_1
I0715 11:28:57.096232  7536 net.cpp:455] Concat_18 -> Concat_18
I0715 11:28:57.096263  7536 net.cpp:190] Setting up Concat_18
I0715 11:28:57.096271  7536 net.cpp:197] Top shape: 1 35 256 512 (4587520)
I0715 11:28:57.096272  7536 net.cpp:205] Memory required for data: 929464320
I0715 11:28:57.096277  7536 layer_factory.hpp:123] Creating layer ConvNd_84
I0715 11:28:57.096289  7536 net.cpp:140] Creating Layer ConvNd_84
I0715 11:28:57.096295  7536 net.cpp:481] ConvNd_84 <- Concat_18
I0715 11:28:57.096303  7536 net.cpp:455] ConvNd_84 -> ConvNd_84
I0715 11:28:57.096556  7536 net.cpp:190] Setting up ConvNd_84
I0715 11:28:57.096565  7536 net.cpp:197] Top shape: 1 19 256 512 (2490368)
I0715 11:28:57.096567  7536 net.cpp:205] Memory required for data: 939425792
I0715 11:28:57.096573  7536 layer_factory.hpp:123] Creating layer BatchNorm_21
I0715 11:28:57.096586  7536 net.cpp:140] Creating Layer BatchNorm_21
I0715 11:28:57.096593  7536 net.cpp:481] BatchNorm_21 <- ConvNd_84
I0715 11:28:57.096602  7536 net.cpp:455] BatchNorm_21 -> BatchNorm_21
I0715 11:28:57.097334  7536 net.cpp:190] Setting up BatchNorm_21
I0715 11:28:57.097343  7536 net.cpp:197] Top shape: 1 19 256 512 (2490368)
I0715 11:28:57.097347  7536 net.cpp:205] Memory required for data: 949387264
I0715 11:28:57.097359  7536 layer_factory.hpp:123] Creating layer Threshold_20
I0715 11:28:57.097369  7536 net.cpp:140] Creating Layer Threshold_20
I0715 11:28:57.097376  7536 net.cpp:481] Threshold_20 <- BatchNorm_21
I0715 11:28:57.097383  7536 net.cpp:442] Threshold_20 -> BatchNorm_21 (in-place)
I0715 11:28:57.097393  7536 net.cpp:190] Setting up Threshold_20
I0715 11:28:57.097400  7536 net.cpp:197] Top shape: 1 19 256 512 (2490368)
I0715 11:28:57.097404  7536 net.cpp:205] Memory required for data: 959348736
I0715 11:28:57.097409  7536 layer_factory.hpp:123] Creating layer ConvNd_85
I0715 11:28:57.097417  7536 net.cpp:140] Creating Layer ConvNd_85
I0715 11:28:57.097424  7536 net.cpp:481] ConvNd_85 <- BatchNorm_21
I0715 11:28:57.097432  7536 net.cpp:455] ConvNd_85 -> ConvNd_85
I0715 11:28:57.097640  7536 net.cpp:190] Setting up ConvNd_85
I0715 11:28:57.097647  7536 net.cpp:197] Top shape: 1 19 512 1024 (9961472)
I0715 11:28:57.097651  7536 net.cpp:205] Memory required for data: 999194624
I0715 11:28:57.097657  7536 layer_factory.hpp:123] Creating layer score
I0715 11:28:57.097666  7536 net.cpp:140] Creating Layer score
I0715 11:28:57.097671  7536 net.cpp:481] score <- ConvNd_85
I0715 11:28:57.097678  7536 net.cpp:455] score -> score
I0715 11:28:57.097748  7536 net.cpp:190] Setting up score
I0715 11:28:57.097754  7536 net.cpp:197] Top shape: 1 19 512 1024 (9961472)
I0715 11:28:57.097756  7536 net.cpp:205] Memory required for data: 1039040512
I0715 11:28:57.097761  7536 layer_factory.hpp:123] Creating layer accuracy
I0715 11:28:57.097798  7536 net.cpp:140] Creating Layer accuracy
I0715 11:28:57.097805  7536 net.cpp:481] accuracy <- score
I0715 11:28:57.097808  7536 net.cpp:481] accuracy <- label
I0715 11:28:57.097816  7536 net.cpp:455] accuracy -> segmentation_eval
I0715 11:28:57.097849  7536 net.cpp:190] Setting up accuracy
I0715 11:28:57.097856  7536 net.cpp:197] Top shape: 3 19 (57)
I0715 11:28:57.097858  7536 net.cpp:205] Memory required for data: 1039040740
I0715 11:28:57.097863  7536 net.cpp:268] accuracy does not need backward computation.
I0715 11:28:57.097877  7536 net.cpp:268] score does not need backward computation.
I0715 11:28:57.097882  7536 net.cpp:268] ConvNd_85 does not need backward computation.
I0715 11:28:57.097887  7536 net.cpp:268] Threshold_20 does not need backward computation.
…
