…
I0715 11:38:26.494473  8010 net.cpp:98] Initializing net from parameters: 
state {
  phase: TRAIN
}
layer {
  name: "data"
  type: "ImageData"
  top: "data"
  top: "label"
  include {
    phase: TRAIN
  }
  transform_param {
    scale: 0.022
    mean_value: 73
    mean_value: 82
    mean_value: 72
    resize_param {
      prob: 1
      resize_mode: WARP
      height: 512
      width: 1024
    }
  }
  image_data_param {
    source: "../data/cityscapes/calibration.txt"
    batch_size: 1
    shuffle: true
    new_height: 512
    new_width: 1024
    root_folder: "../data/cityscapes/calibration_images/"
  }
}
layer {
  name: "ConvNd_1"
  type: "Convolution"
  bottom: "data"
  top: "ConvNd_1"
  convolution_param {
    num_output: 16
    bias_term: false
    pad: 1
    kernel_size: 3
    group: 1
    stride: 2
    dilation: 1
  }
}
layer {
  name: "BatchNorm_1"
  type: "BatchNorm"
  bottom: "ConvNd_1"
  top: "BatchNorm_1"
  param {
    lr_mult: 1
    decay_mult: 0
  }
  param {
    lr_mult: 1
    decay_mult: 0
  }
  param {
    lr_mult: 0
    decay_mult: 0
  }
  param {
    lr_mult: 0
    decay_mult: 0
  }
  batch_norm_param {
    use_global_stats: true
    eps: 1e-05
    scale_filler {
      type: "constant"
      value: 1
    }
    bias_filler {
      type: "constant"
      value: 0
    }
  }
}
layer {
  name: "Threshold_1"
  type: "ReLU"
  bottom: "BatchNorm_1"
  top: "BatchNorm_1"
}
layer {
  name: "AvgPool2d_1"
  type: "Pooling"
  bottom: "data"
  top: "AvgPool2d_1"
  pooling_param {
    pool: AVE
    kernel_size: 3
    stride: 2
    pad: 0
  }
}
layer {
  name: "Concat_1"
  type: "Concat"
  bottom: "BatchNorm_1"
  bottom: "AvgPool2d_1"
  top: "Concat_1"
  concat_param {
    axis: 1
  }
}
layer {
  name: "BatchNorm_2"
  type: "BatchNorm"
  bottom: "Concat_1"
  top: "BatchNorm_2"
  param {
    lr_mult: 1
    decay_mult: 0
  }
  param {
    lr_mult: 1
    decay_mult: 0
  }
  param {
    lr_mult: 0
    decay_mult: 0
  }
  param {
    lr_mult: 0
    decay_mult: 0
  }
  batch_norm_param {
    use_global_stats: true
    eps: 1e-05
    scale_filler {
      type: "constant"
      value: 1
    }
    bias_filler {
      type: "constant"
      value: 0
    }
  }
}
layer {
  name: "Threshold_2"
  type: "ReLU"
  bottom: "BatchNorm_2"
  top: "BatchNorm_2"
}
layer {
  name: "ConvNd_2"
  type: "Convolution"
  bottom: "BatchNorm_2"
  top: "ConvNd_2"
  convolution_param {
    num_output: 12
    bias_term: false
    pad: 1
    kernel_size: 3
    group: 1
    stride: 2
    weight_filler {
      type: "msra"
    }
    dilation: 1
  }
}
layer {
  name: "ConvNd_3"
  type: "Convolution"
  bottom: "ConvNd_2"
  top: "ConvNd_3"
  convolution_param {
    num_output: 16
    bias_term: false
    pad: 1
    kernel_size: 3
    group: 1
    stride: 1
    weight_filler {
      type: "msra"
    }
    dilation: 1
  }
}
layer {
  name: "ConvNd_4"
  type: "Convolution"
  bottom: "ConvNd_2"
  top: "ConvNd_4"
  convolution_param {
    num_output: 12
    bias_term: false
    pad: 2
    kernel_size: 3
    group: 1
    stride: 1
    weight_filler {
      type: "msra"
    }
    dilation: 2
  }
}
layer {
  name: "ConvNd_5"
  type: "Convolution"
  bottom: "ConvNd_2"
  top: "ConvNd_5"
  convolution_param {
    num_output: 12
    bias_term: false
    pad: 4
    kernel_size: 3
    group: 1
    stride: 1
    weight_filler {
      type: "msra"
    }
    dilation: 4
  }
}
layer {
  name: "Add_1"
  type: "Eltwise"
  bottom: "ConvNd_4"
  bottom: "ConvNd_5"
  top: "Add_1"
}
layer {
  name: "ConvNd_6"
  type: "Convolution"
  bottom: "ConvNd_2"
  top: "ConvNd_6"
  convolution_param {
    num_output: 12
    bias_term: false
    pad: 8
    kernel_size: 3
    group: 1
    stride: 1
    weight_filler {
      type: "msra"
    }
    dilation: 8
  }
}
layer {
  name: "Add_2"
  type: "Eltwise"
  bottom: "Add_1"
  bottom: "ConvNd_6"
  top: "Add_2"
}
layer {
  name: "ConvNd_7"
  type: "Convolution"
  bottom: "ConvNd_2"
  top: "ConvNd_7"
  convolution_param {
    num_output: 12
    bias_term: false
    pad: 16
    kernel_size: 3
    group: 1
    stride: 1
    weight_filler {
      type: "msra"
    }
    dilation: 16
  }
}
layer {
  name: "Add_3"
  type: "Eltwise"
  bottom: "Add_2"
  bottom: "ConvNd_7"
  top: "Add_3"
}
layer {
  name: "Concat_2"
  type: "Concat"
  bottom: "ConvNd_3"
  bottom: "ConvNd_4"
  bottom: "Add_1"
  bottom: "Add_2"
  bottom: "Add_3"
  top: "Concat_2"
  concat_param {
    axis: 1
  }
}
layer {
  name: "BatchNorm_3"
  type: "BatchNorm"
  bottom: "Concat_2"
  top: "BatchNorm_3"
  param {
    lr_mult: 1
    decay_mult: 0
  }
  param {
    lr_mult: 1
    decay_mult: 0
  }
  param {
    lr_mult: 0
    decay_mult: 0
  }
  param {
    lr_mult: 0
    decay_mult: 0
  }
  batch_norm_param {
    use_global_stats: true
    eps: 1e-05
    scale_filler {
      type: "constant"
      value: 1
    }
    bias_filler {
      type: "constant"
      value: 0
    }
  }
}
layer {
  name: "Threshold_3"
  type: "ReLU"
  bottom: "BatchNorm_3"
  top: "BatchNorm_3"
}
layer {
  name: "ConvNd_8"
  type: "Convolution"
  bottom: "BatchNorm_3"
  top: "ConvNd_8"
  convolution_param {
    num_output: 12
    bias_term: false
    pad: 0
    kernel_size: 1
    group: 1
    stride: 1
    weight_filler {
      type: "msra"
    }
    dilation: 1
  }
}
layer {
  name: "ConvNd_9"
  type: "Convolution"
  bottom: "ConvNd_8"
  top: "ConvNd_9"
  convolution_param {
    num_output: 16
    bias_term: false
    pad: 1
    kernel_size: 3
    group: 1
    stride: 1
    weight_filler {
      type: "msra"
    }
    dilation: 1
  }
}
layer {
  name: "ConvNd_10"
  type: "Convolution"
  bottom: "ConvNd_8"
  top: "ConvNd_10"
  convolution_param {
    num_output: 12
    bias_term: false
    pad: 2
    kernel_size: 3
    group: 1
    stride: 1
    weight_filler {
      type: "msra"
    }
    dilation: 2
  }
}
layer {
  name: "ConvNd_11"
  type: "Convolution"
  bottom: "ConvNd_8"
  top: "ConvNd_11"
  convolution_param {
    num_output: 12
    bias_term: false
    pad: 4
    kernel_size: 3
    group: 1
    stride: 1
    weight_filler {
      type: "msra"
    }
    dilation: 4
  }
}
layer {
  name: "Add_4"
  type: "Eltwise"
  bottom: "ConvNd_10"
  bottom: "ConvNd_11"
  top: "Add_4"
}
layer {
  name: "ConvNd_12"
  type: "Convolution"
  bottom: "ConvNd_8"
  top: "ConvNd_12"
  convolution_param {
    num_output: 12
    bias_term: false
    pad: 8
    kernel_size: 3
    group: 1
    stride: 1
    weight_filler {
      type: "msra"
    }
    dilation: 8
  }
}
layer {
  name: "Add_5"
  type: "Eltwise"
  bottom: "Add_4"
  bottom: "ConvNd_12"
  top: "Add_5"
}
layer {
  name: "ConvNd_13"
  type: "Convolution"
  bottom: "ConvNd_8"
  top: "ConvNd_13"
  convolution_param {
    num_output: 12
    bias_term: false
    pad: 16
    kernel_size: 3
    group: 1
    stride: 1
    weight_filler {
      type: "msra"
    }
    dilation: 16
  }
}
layer {
  name: "Add_6"
  type: "Eltwise"
  bottom: "Add_5"
  bottom: "ConvNd_13"
  top: "Add_6"
}
layer {
  name: "Concat_3"
  type: "Concat"
  bottom: "ConvNd_9"
  bottom: "ConvNd_10"
  bottom: "Add_4"
  bottom: "Add_5"
  bottom: "Add_6"
  top: "Concat_3"
  concat_param {
    axis: 1
  }
}
layer {
  name: "Add_7"
  type: "Eltwise"
  bottom: "BatchNorm_3"
  bottom: "Concat_3"
  top: "Add_7"
}
layer {
  name: "BatchNorm_4"
  type: "BatchNorm"
  bottom: "Add_7"
  top: "BatchNorm_4"
  param {
    lr_mult: 1
    decay_mult: 0
  }
  param {
    lr_mult: 1
    decay_mult: 0
  }
  param {
    lr_mult: 0
    decay_mult: 0
  }
  param {
    lr_mult: 0
    decay_mult: 0
  }
  batch_norm_param {
    use_global_stats: true
    eps: 1e-05
    scale_filler {
      type: "constant"
      value: 1
    }
    bias_filler {
      type: "constant"
      value: 0
    }
  }
}
layer {
  name: "Threshold_4"
  type: "ReLU"
  bottom: "BatchNorm_4"
  top: "BatchNorm_4"
}
layer {
  name: "ConvNd_14"
  type: "Convolution"
  bottom: "BatchNorm_4"
  top: "ConvNd_14"
  convolution_param {
    num_output: 12
    bias_term: false
    pad: 0
    kernel_size: 1
    group: 1
    stride: 1
    weight_filler {
      type: "msra"
    }
    dilation: 1
  }
}
layer {
  name: "ConvNd_15"
  type: "Convolution"
  bottom: "ConvNd_14"
  top: "ConvNd_15"
  convolution_param {
    num_output: 16
    bias_term: false
    pad: 1
    kernel_size: 3
    group: 1
    stride: 1
    weight_filler {
      type: "msra"
    }
    dilation: 1
  }
}
layer {
  name: "ConvNd_16"
  type: "Convolution"
  bottom: "ConvNd_14"
  top: "ConvNd_16"
  convolution_param {
    num_output: 12
    bias_term: false
    pad: 2
    kernel_size: 3
    group: 1
    stride: 1
    weight_filler {
      type: "msra"
    }
    dilation: 2
  }
}
layer {
  name: "ConvNd_17"
  type: "Convolution"
  bottom: "ConvNd_14"
  top: "ConvNd_17"
  convolution_param {
    num_output: 12
    bias_term: false
    pad: 4
    kernel_size: 3
    group: 1
    stride: 1
    weight_filler {
      type: "msra"
    }
    dilation: 4
  }
}
layer {
  name: "Add_8"
  type: "Eltwise"
  bottom: "ConvNd_16"
  bottom: "ConvNd_17"
  top: "Add_8"
}
layer {
  name: "ConvNd_18"
  type: "Convolution"
  bottom: "ConvNd_14"
  top: "ConvNd_18"
  convolution_param {
    num_output: 12
    bias_term: false
    pad: 8
    kernel_size: 3
    group: 1
    stride: 1
    weight_filler {
      type: "msra"
    }
    dilation: 8
  }
}
layer {
  name: "Add_9"
  type: "Eltwise"
  bottom: "Add_8"
  bottom: "ConvNd_18"
  top: "Add_9"
}
layer {
  name: "ConvNd_19"
  type: "Convolution"
  bottom: "ConvNd_14"
  top: "ConvNd_19"
  convolution_param {
    num_output: 12
    bias_term: false
    pad: 16
    kernel_size: 3
    group: 1
    stride: 1
    weight_filler {
      type: "msra"
    }
    dilation: 16
  }
}
layer {
  name: "Add_10"
  type: "Eltwise"
  bottom: "Add_9"
  bottom: "ConvNd_19"
  top: "Add_10"
}
layer {
  name: "Concat_4"
  type: "Concat"
  bottom: "ConvNd_15"
  bottom: "ConvNd_16"
  bottom: "Add_8"
  bottom: "Add_9"
  bottom: "Add_10"
  top: "Concat_4"
  concat_param {
    axis: 1
  }
}
layer {
  name: "Add_11"
  type: "Eltwise"
  bottom: "BatchNorm_4"
  bottom: "Concat_4"
  top: "Add_11"
}
layer {
  name: "BatchNorm_5"
  type: "BatchNorm"
  bottom: "Add_11"
  top: "BatchNorm_5"
  param {
    lr_mult: 1
    decay_mult: 0
  }
  param {
    lr_mult: 1
    decay_mult: 0
  }
  param {
    lr_mult: 0
    decay_mult: 0
  }
  param {
    lr_mult: 0
    decay_mult: 0
  }
  batch_norm_param {
    use_global_stats: true
    eps: 1e-05
    scale_filler {
      type: "constant"
      value: 1
    }
    bias_filler {
      type: "constant"
      value: 0
    }
  }
}
layer {
  name: "Threshold_5"
  type: "ReLU"
  bottom: "BatchNorm_5"
  top: "BatchNorm_5"
}
layer {
  name: "AvgPool2d_2"
  type: "Pooling"
  bottom: "data"
  top: "AvgPool2d_2"
  pooling_param {
    pool: AVE
    kernel_size: 3
    stride: 2
    pad: 0
  }
}
layer {
  name: "AvgPool2d_3"
  type: "Pooling"
  bottom: "AvgPool2d_2"
  top: "AvgPool2d_3"
  pooling_param {
    pool: AVE
    kernel_size: 3
    stride: 2
    pad: 0
  }
}
layer {
  name: "Concat_5"
  type: "Concat"
  bottom: "BatchNorm_5"
  bottom: "BatchNorm_3"
  bottom: "AvgPool2d_3"
  top: "Concat_5"
  concat_param {
    axis: 1
  }
}
layer {
  name: "BatchNorm_6"
  type: "BatchNorm"
  bottom: "Concat_5"
  top: "BatchNorm_6"
  param {
    lr_mult: 1
    decay_mult: 0
  }
  param {
    lr_mult: 1
    decay_mult: 0
  }
  param {
    lr_mult: 0
    decay_mult: 0
  }
  param {
    lr_mult: 0
    decay_mult: 0
  }
  batch_norm_param {
    use_global_stats: true
    eps: 1e-05
    scale_filler {
      type: "constant"
      value: 1
    }
    bias_filler {
      type: "constant"
      value: 0
    }
  }
}
layer {
  name: "Threshold_6"
  type: "ReLU"
  bottom: "BatchNorm_6"
  top: "BatchNorm_6"
}
layer {
  name: "ConvNd_20"
  type: "Convolution"
  bottom: "BatchNorm_6"
  top: "ConvNd_20"
  convolution_param {
    num_output: 19
    bias_term: false
    pad: 0
    kernel_size: 1
    group: 1
    stride: 1
    weight_filler {
      type: "msra"
    }
    dilation: 1
  }
}
layer {
  name: "ConvNd_21"
  type: "Convolution"
  bottom: "BatchNorm_6"
  top: "ConvNd_21"
  convolution_param {
    num_output: 25
    bias_term: false
    pad: 1
    kernel_size: 3
    group: 1
    stride: 2
    weight_filler {
      type: "msra"
    }
    dilation: 1
  }
}
layer {
  name: "ConvNd_22"
  type: "Convolution"
  bottom: "ConvNd_21"
  top: "ConvNd_22"
  convolution_param {
    num_output: 28
    bias_term: false
    pad: 1
    kernel_size: 3
    group: 1
    stride: 1
    weight_filler {
      type: "msra"
    }
    dilation: 1
  }
}
layer {
  name: "ConvNd_23"
  type: "Convolution"
  bottom: "ConvNd_21"
  top: "ConvNd_23"
  convolution_param {
    num_output: 25
    bias_term: false
    pad: 2
    kernel_size: 3
    group: 1
    stride: 1
    weight_filler {
      type: "msra"
    }
    dilation: 2
  }
}
layer {
  name: "ConvNd_24"
  type: "Convolution"
  bottom: "ConvNd_21"
  top: "ConvNd_24"
  convolution_param {
    num_output: 25
    bias_term: false
    pad: 4
    kernel_size: 3
    group: 1
    stride: 1
    weight_filler {
      type: "msra"
    }
    dilation: 4
  }
}
layer {
  name: "Add_12"
  type: "Eltwise"
  bottom: "ConvNd_23"
  bottom: "ConvNd_24"
  top: "Add_12"
}
layer {
  name: "ConvNd_25"
  type: "Convolution"
  bottom: "ConvNd_21"
  top: "ConvNd_25"
  convolution_param {
    num_output: 25
    bias_term: false
    pad: 8
    kernel_size: 3
    group: 1
    stride: 1
    weight_filler {
      type: "msra"
    }
    dilation: 8
  }
}
layer {
  name: "Add_13"
  type: "Eltwise"
  bottom: "Add_12"
  bottom: "ConvNd_25"
  top: "Add_13"
}
layer {
  name: "ConvNd_26"
  type: "Convolution"
  bottom: "ConvNd_21"
  top: "ConvNd_26"
  convolution_param {
    num_output: 25
    bias_term: false
    pad: 16
    kernel_size: 3
    group: 1
    stride: 1
    weight_filler {
      type: "msra"
    }
    dilation: 16
  }
}
layer {
  name: "Add_14"
  type: "Eltwise"
  bottom: "Add_13"
  bottom: "ConvNd_26"
  top: "Add_14"
}
layer {
  name: "Concat_6"
  type: "Concat"
  bottom: "ConvNd_22"
  bottom: "ConvNd_23"
  bottom: "Add_12"
  bottom: "Add_13"
  bottom: "Add_14"
  top: "Concat_6"
  concat_param {
    axis: 1
  }
}
layer {
  name: "BatchNorm_7"
  type: "BatchNorm"
  bottom: "Concat_6"
  top: "BatchNorm_7"
  param {
    lr_mult: 1
    decay_mult: 0
  }
  param {
    lr_mult: 1
    decay_mult: 0
  }
  param {
    lr_mult: 0
    decay_mult: 0
  }
  param {
    lr_mult: 0
    decay_mult: 0
  }
  batch_norm_param {
    use_global_stats: true
    eps: 1e-05
    scale_filler {
      type: "constant"
      value: 1
    }
    bias_filler {
      type: "constant"
      value: 0
    }
  }
}
layer {
  name: "Threshold_7"
  type: "ReLU"
  bottom: "BatchNorm_7"
  top: "BatchNorm_7"
}
layer {
  name: "ConvNd_27"
  type: "Convolution"
  bottom: "BatchNorm_7"
  top: "ConvNd_27"
  convolution_param {
    num_output: 25
    bias_term: false
    pad: 0
    kernel_size: 1
    group: 1
    stride: 1
    weight_filler {
      type: "msra"
    }
    dilation: 1
  }
}
layer {
  name: "ConvNd_28"
  type: "Convolution"
  bottom: "ConvNd_27"
  top: "ConvNd_28"
  convolution_param {
    num_output: 28
    bias_term: false
    pad: 1
    kernel_size: 3
    group: 1
    stride: 1
    weight_filler {
      type: "msra"
    }
    dilation: 1
  }
}
layer {
  name: "ConvNd_29"
  type: "Convolution"
  bottom: "ConvNd_27"
  top: "ConvNd_29"
  convolution_param {
    num_output: 25
    bias_term: false
    pad: 2
    kernel_size: 3
    group: 1
    stride: 1
    weight_filler {
      type: "msra"
    }
    dilation: 2
  }
}
layer {
  name: "ConvNd_30"
  type: "Convolution"
  bottom: "ConvNd_27"
  top: "ConvNd_30"
  convolution_param {
    num_output: 25
    bias_term: false
    pad: 4
    kernel_size: 3
    group: 1
    stride: 1
    weight_filler {
      type: "msra"
    }
    dilation: 4
  }
}
layer {
  name: "Add_15"
  type: "Eltwise"
  bottom: "ConvNd_29"
  bottom: "ConvNd_30"
  top: "Add_15"
}
layer {
  name: "ConvNd_31"
  type: "Convolution"
  bottom: "ConvNd_27"
  top: "ConvNd_31"
  convolution_param {
    num_output: 25
    bias_term: false
    pad: 8
    kernel_size: 3
    group: 1
    stride: 1
    weight_filler {
      type: "msra"
    }
    dilation: 8
  }
}
layer {
  name: "Add_16"
  type: "Eltwise"
  bottom: "Add_15"
  bottom: "ConvNd_31"
  top: "Add_16"
}
layer {
  name: "ConvNd_32"
  type: "Convolution"
  bottom: "ConvNd_27"
  top: "ConvNd_32"
  convolution_param {
    num_output: 25
    bias_term: false
    pad: 16
    kernel_size: 3
    group: 1
    stride: 1
    weight_filler {
      type: "msra"
    }
    dilation: 16
  }
}
layer {
  name: "Add_17"
  type: "Eltwise"
  bottom: "Add_16"
  bottom: "ConvNd_32"
  top: "Add_17"
}
layer {
  name: "Concat_7"
  type: "Concat"
  bottom: "ConvNd_28"
  bottom: "ConvNd_29"
  bottom: "Add_15"
  bottom: "Add_16"
  bottom: "Add_17"
  top: "Concat_7"
  concat_param {
    axis: 1
  }
}
layer {
  name: "Add_18"
  type: "Eltwise"
  bottom: "BatchNorm_7"
  bottom: "Concat_7"
  top: "Add_18"
}
layer {
  name: "BatchNorm_8"
  type: "BatchNorm"
  bottom: "Add_18"
  top: "BatchNorm_8"
  param {
    lr_mult: 1
    decay_mult: 0
  }
  param {
    lr_mult: 1
    decay_mult: 0
  }
  param {
    lr_mult: 0
    decay_mult: 0
  }
  param {
    lr_mult: 0
    decay_mult: 0
  }
  batch_norm_param {
    use_global_stats: true
    eps: 1e-05
    scale_filler {
      type: "constant"
      value: 1
    }
    bias_filler {
      type: "constant"
      value: 0
    }
  }
}
layer {
  name: "Threshold_8"
  type: "ReLU"
  bottom: "BatchNorm_8"
  top: "BatchNorm_8"
}
layer {
  name: "ConvNd_33"
  type: "Convolution"
  bottom: "BatchNorm_8"
  top: "ConvNd_33"
  convolution_param {
    num_output: 25
    bias_term: false
    pad: 0
    kernel_size: 1
    group: 1
    stride: 1
    weight_filler {
      type: "msra"
    }
    dilation: 1
  }
}
layer {
  name: "ConvNd_34"
  type: "Convolution"
  bottom: "ConvNd_33"
  top: "ConvNd_34"
  convolution_param {
    num_output: 28
    bias_term: false
    pad: 1
    kernel_size: 3
    group: 1
    stride: 1
    weight_filler {
      type: "msra"
    }
    dilation: 1
  }
}
layer {
  name: "ConvNd_35"
  type: "Convolution"
  bottom: "ConvNd_33"
  top: "ConvNd_35"
  convolution_param {
    num_output: 25
    bias_term: false
    pad: 2
    kernel_size: 3
    group: 1
    stride: 1
    weight_filler {
      type: "msra"
    }
    dilation: 2
  }
}
layer {
  name: "ConvNd_36"
  type: "Convolution"
  bottom: "ConvNd_33"
  top: "ConvNd_36"
  convolution_param {
    num_output: 25
    bias_term: false
    pad: 4
    kernel_size: 3
    group: 1
    stride: 1
    weight_filler {
      type: "msra"
    }
    dilation: 4
  }
}
layer {
  name: "Add_19"
  type: "Eltwise"
  bottom: "ConvNd_35"
  bottom: "ConvNd_36"
  top: "Add_19"
}
layer {
  name: "ConvNd_37"
  type: "Convolution"
  bottom: "ConvNd_33"
  top: "ConvNd_37"
  convolution_param {
    num_output: 25
    bias_term: false
    pad: 8
    kernel_size: 3
    group: 1
    stride: 1
    weight_filler {
      type: "msra"
    }
    dilation: 8
  }
}
layer {
  name: "Add_20"
  type: "Eltwise"
  bottom: "Add_19"
  bottom: "ConvNd_37"
  top: "Add_20"
}
layer {
  name: "ConvNd_38"
  type: "Convolution"
  bottom: "ConvNd_33"
  top: "ConvNd_38"
  convolution_param {
    num_output: 25
    bias_term: false
    pad: 16
    kernel_size: 3
    group: 1
    stride: 1
    weight_filler {
      type: "msra"
    }
    dilation: 16
  }
}
layer {
  name: "Add_21"
  type: "Eltwise"
  bottom: "Add_20"
  bottom: "ConvNd_38"
  top: "Add_21"
}
layer {
  name: "Concat_8"
  type: "Concat"
  bottom: "ConvNd_34"
  bottom: "ConvNd_35"
  bottom: "Add_19"
  bottom: "Add_20"
  bottom: "Add_21"
  top: "Concat_8"
  concat_param {
    axis: 1
  }
}
layer {
  name: "Add_22"
  type: "Eltwise"
  bottom: "BatchNorm_8"
  bottom: "Concat_8"
  top: "Add_22"
}
layer {
  name: "BatchNorm_9"
  type: "BatchNorm"
  bottom: "Add_22"
  top: "BatchNorm_9"
  param {
    lr_mult: 1
    decay_mult: 0
  }
  param {
    lr_mult: 1
    decay_mult: 0
  }
  param {
    lr_mult: 0
    decay_mult: 0
  }
  param {
    lr_mult: 0
    decay_mult: 0
  }
  batch_norm_param {
    use_global_stats: true
    eps: 1e-05
    scale_filler {
      type: "constant"
      value: 1
    }
    bias_filler {
      type: "constant"
      value: 0
    }
  }
}
layer {
  name: "Threshold_9"
  type: "ReLU"
  bottom: "BatchNorm_9"
  top: "BatchNorm_9"
}
layer {
  name: "ConvNd_39"
  type: "Convolution"
  bottom: "BatchNorm_9"
  top: "ConvNd_39"
  convolution_param {
    num_output: 25
    bias_term: false
    pad: 0
    kernel_size: 1
    group: 1
    stride: 1
    weight_filler {
      type: "msra"
    }
    dilation: 1
  }
}
layer {
  name: "ConvNd_40"
  type: "Convolution"
  bottom: "ConvNd_39"
  top: "ConvNd_40"
  convolution_param {
    num_output: 28
    bias_term: false
    pad: 1
    kernel_size: 3
    group: 1
    stride: 1
    weight_filler {
      type: "msra"
    }
    dilation: 1
  }
}
layer {
  name: "ConvNd_41"
  type: "Convolution"
  bottom: "ConvNd_39"
  top: "ConvNd_41"
  convolution_param {
    num_output: 25
    bias_term: false
    pad: 2
    kernel_size: 3
    group: 1
    stride: 1
    weight_filler {
      type: "msra"
    }
    dilation: 2
  }
}
layer {
  name: "ConvNd_42"
  type: "Convolution"
  bottom: "ConvNd_39"
  top: "ConvNd_42"
  convolution_param {
    num_output: 25
    bias_term: false
    pad: 4
    kernel_size: 3
    group: 1
    stride: 1
    weight_filler {
      type: "msra"
    }
    dilation: 4
  }
}
layer {
  name: "Add_23"
  type: "Eltwise"
  bottom: "ConvNd_41"
  bottom: "ConvNd_42"
  top: "Add_23"
}
layer {
  name: "ConvNd_43"
  type: "Convolution"
  bottom: "ConvNd_39"
  top: "ConvNd_43"
  convolution_param {
    num_output: 25
    bias_term: false
    pad: 8
    kernel_size: 3
    group: 1
    stride: 1
    weight_filler {
      type: "msra"
    }
    dilation: 8
  }
}
layer {
  name: "Add_24"
  type: "Eltwise"
  bottom: "Add_23"
  bottom: "ConvNd_43"
  top: "Add_24"
}
layer {
  name: "ConvNd_44"
  type: "Convolution"
  bottom: "ConvNd_39"
  top: "ConvNd_44"
  convolution_param {
    num_output: 25
    bias_term: false
    pad: 16
    kernel_size: 3
    group: 1
    stride: 1
    weight_filler {
      type: "msra"
    }
    dilation: 16
  }
}
layer {
  name: "Add_25"
  type: "Eltwise"
  bottom: "Add_24"
  bottom: "ConvNd_44"
  top: "Add_25"
}
layer {
  name: "Concat_9"
  type: "Concat"
  bottom: "ConvNd_40"
  bottom: "ConvNd_41"
  bottom: "Add_23"
  bottom: "Add_24"
  bottom: "Add_25"
  top: "Concat_9"
  concat_param {
    axis: 1
  }
}
layer {
  name: "Add_26"
  type: "Eltwise"
  bottom: "BatchNorm_9"
  bottom: "Concat_9"
  top: "Add_26"
}
layer {
  name: "BatchNorm_10"
  type: "BatchNorm"
  bottom: "Add_26"
  top: "BatchNorm_10"
  param {
    lr_mult: 1
    decay_mult: 0
  }
  param {
    lr_mult: 1
    decay_mult: 0
  }
  param {
    lr_mult: 0
    decay_mult: 0
  }
  param {
    lr_mult: 0
    decay_mult: 0
  }
  batch_norm_param {
    use_global_stats: true
    eps: 1e-05
    scale_filler {
      type: "constant"
      value: 1
    }
    bias_filler {
      type: "constant"
      value: 0
    }
  }
}
layer {
  name: "Threshold_10"
  type: "ReLU"
  bottom: "BatchNorm_10"
  top: "BatchNorm_10"
}
layer {
  name: "ConvNd_45"
  type: "Convolution"
  bottom: "BatchNorm_10"
  top: "ConvNd_45"
  convolution_param {
    num_output: 25
    bias_term: false
    pad: 0
    kernel_size: 1
    group: 1
    stride: 1
    weight_filler {
      type: "msra"
    }
    dilation: 1
  }
}
layer {
  name: "ConvNd_46"
  type: "Convolution"
  bottom: "ConvNd_45"
  top: "ConvNd_46"
  convolution_param {
    num_output: 28
    bias_term: false
    pad: 1
    kernel_size: 3
    group: 1
    stride: 1
    weight_filler {
      type: "msra"
    }
    dilation: 1
  }
}
layer {
  name: "ConvNd_47"
  type: "Convolution"
  bottom: "ConvNd_45"
  top: "ConvNd_47"
  convolution_param {
    num_output: 25
    bias_term: false
    pad: 2
    kernel_size: 3
    group: 1
    stride: 1
    weight_filler {
      type: "msra"
    }
    dilation: 2
  }
}
layer {
  name: "ConvNd_48"
  type: "Convolution"
  bottom: "ConvNd_45"
  top: "ConvNd_48"
  convolution_param {
    num_output: 25
    bias_term: false
    pad: 4
    kernel_size: 3
    group: 1
    stride: 1
    weight_filler {
      type: "msra"
    }
    dilation: 4
  }
}
layer {
  name: "Add_27"
  type: "Eltwise"
  bottom: "ConvNd_47"
  bottom: "ConvNd_48"
  top: "Add_27"
}
layer {
  name: "ConvNd_49"
  type: "Convolution"
  bottom: "ConvNd_45"
  top: "ConvNd_49"
  convolution_param {
    num_output: 25
    bias_term: false
    pad: 8
    kernel_size: 3
    group: 1
    stride: 1
    weight_filler {
      type: "msra"
    }
    dilation: 8
  }
}
layer {
  name: "Add_28"
  type: "Eltwise"
  bottom: "Add_27"
  bottom: "ConvNd_49"
  top: "Add_28"
}
layer {
  name: "ConvNd_50"
  type: "Convolution"
  bottom: "ConvNd_45"
  top: "ConvNd_50"
  convolution_param {
    num_output: 25
    bias_term: false
    pad: 16
    kernel_size: 3
    group: 1
    stride: 1
    weight_filler {
      type: "msra"
    }
    dilation: 16
  }
}
layer {
  name: "Add_29"
  type: "Eltwise"
  bottom: "Add_28"
  bottom: "ConvNd_50"
  top: "Add_29"
}
layer {
  name: "Concat_10"
  type: "Concat"
  bottom: "ConvNd_46"
  bottom: "ConvNd_47"
  bottom: "Add_27"
  bottom: "Add_28"
  bottom: "Add_29"
  top: "Concat_10"
  concat_param {
    axis: 1
  }
}
layer {
  name: "Add_30"
  type: "Eltwise"
  bottom: "BatchNorm_10"
  bottom: "Concat_10"
  top: "Add_30"
}
layer {
  name: "BatchNorm_11"
  type: "BatchNorm"
  bottom: "Add_30"
  top: "BatchNorm_11"
  param {
    lr_mult: 1
    decay_mult: 0
  }
  param {
    lr_mult: 1
    decay_mult: 0
  }
  param {
    lr_mult: 0
    decay_mult: 0
  }
  param {
    lr_mult: 0
    decay_mult: 0
  }
  batch_norm_param {
    use_global_stats: true
    eps: 1e-05
    scale_filler {
      type: "constant"
      value: 1
    }
    bias_filler {
      type: "constant"
      value: 0
    }
  }
}
layer {
  name: "Threshold_11"
  type: "ReLU"
  bottom: "BatchNorm_11"
  top: "BatchNorm_11"
}
layer {
  name: "ConvNd_51"
  type: "Convolution"
  bottom: "BatchNorm_11"
  top: "ConvNd_51"
  convolution_param {
    num_output: 25
    bias_term: false
    pad: 0
    kernel_size: 1
    group: 1
    stride: 1
    weight_filler {
      type: "msra"
    }
    dilation: 1
  }
}
layer {
  name: "ConvNd_52"
  type: "Convolution"
  bottom: "ConvNd_51"
  top: "ConvNd_52"
  convolution_param {
    num_output: 28
    bias_term: false
    pad: 1
    kernel_size: 3
    group: 1
    stride: 1
    weight_filler {
      type: "msra"
    }
    dilation: 1
  }
}
layer {
  name: "ConvNd_53"
  type: "Convolution"
  bottom: "ConvNd_51"
  top: "ConvNd_53"
  convolution_param {
    num_output: 25
    bias_term: false
    pad: 2
    kernel_size: 3
    group: 1
    stride: 1
    weight_filler {
      type: "msra"
    }
    dilation: 2
  }
}
layer {
  name: "ConvNd_54"
  type: "Convolution"
  bottom: "ConvNd_51"
  top: "ConvNd_54"
  convolution_param {
    num_output: 25
    bias_term: false
    pad: 4
    kernel_size: 3
    group: 1
    stride: 1
    weight_filler {
      type: "msra"
    }
    dilation: 4
  }
}
layer {
  name: "Add_31"
  type: "Eltwise"
  bottom: "ConvNd_53"
  bottom: "ConvNd_54"
  top: "Add_31"
}
layer {
  name: "ConvNd_55"
  type: "Convolution"
  bottom: "ConvNd_51"
  top: "ConvNd_55"
  convolution_param {
    num_output: 25
    bias_term: false
    pad: 8
    kernel_size: 3
    group: 1
    stride: 1
    weight_filler {
      type: "msra"
    }
    dilation: 8
  }
}
layer {
  name: "Add_32"
  type: "Eltwise"
  bottom: "Add_31"
  bottom: "ConvNd_55"
  top: "Add_32"
}
layer {
  name: "ConvNd_56"
  type: "Convolution"
  bottom: "ConvNd_51"
  top: "ConvNd_56"
  convolution_param {
    num_output: 25
    bias_term: false
    pad: 16
    kernel_size: 3
    group: 1
    stride: 1
    weight_filler {
      type: "msra"
    }
    dilation: 16
  }
}
layer {
  name: "Add_33"
  type: "Eltwise"
  bottom: "Add_32"
  bottom: "ConvNd_56"
  top: "Add_33"
}
layer {
  name: "Concat_11"
  type: "Concat"
  bottom: "ConvNd_52"
  bottom: "ConvNd_53"
  bottom: "Add_31"
  bottom: "Add_32"
  bottom: "Add_33"
  top: "Concat_11"
  concat_param {
    axis: 1
  }
}
layer {
  name: "Add_34"
  type: "Eltwise"
  bottom: "BatchNorm_11"
  bottom: "Concat_11"
  top: "Add_34"
}
layer {
  name: "BatchNorm_12"
  type: "BatchNorm"
  bottom: "Add_34"
  top: "BatchNorm_12"
  param {
    lr_mult: 1
    decay_mult: 0
  }
  param {
    lr_mult: 1
    decay_mult: 0
  }
  param {
    lr_mult: 0
    decay_mult: 0
  }
  param {
    lr_mult: 0
    decay_mult: 0
  }
  batch_norm_param {
    use_global_stats: true
    eps: 1e-05
    scale_filler {
      type: "constant"
      value: 1
    }
    bias_filler {
      type: "constant"
      value: 0
    }
  }
}
layer {
  name: "Threshold_12"
  type: "ReLU"
  bottom: "BatchNorm_12"
  top: "BatchNorm_12"
}
layer {
  name: "ConvNd_57"
  type: "Convolution"
  bottom: "BatchNorm_12"
  top: "ConvNd_57"
  convolution_param {
    num_output: 25
    bias_term: false
    pad: 0
    kernel_size: 1
    group: 1
    stride: 1
    weight_filler {
      type: "msra"
    }
    dilation: 1
  }
}
layer {
  name: "ConvNd_58"
  type: "Convolution"
  bottom: "ConvNd_57"
  top: "ConvNd_58"
  convolution_param {
    num_output: 28
    bias_term: false
    pad: 1
    kernel_size: 3
    group: 1
    stride: 1
    weight_filler {
      type: "msra"
    }
    dilation: 1
  }
}
layer {
  name: "ConvNd_59"
  type: "Convolution"
  bottom: "ConvNd_57"
  top: "ConvNd_59"
  convolution_param {
    num_output: 25
    bias_term: false
    pad: 2
    kernel_size: 3
    group: 1
    stride: 1
    weight_filler {
      type: "msra"
    }
    dilation: 2
  }
}
layer {
  name: "ConvNd_60"
  type: "Convolution"
  bottom: "ConvNd_57"
  top: "ConvNd_60"
  convolution_param {
    num_output: 25
    bias_term: false
    pad: 4
    kernel_size: 3
    
I0715 11:38:26.495426  8010 layer_factory.hpp:123] Creating layer data
I0715 11:38:26.495450  8010 net.cpp:140] Creating Layer data
I0715 11:38:26.495460  8010 net.cpp:455] data -> data
I0715 11:38:26.495467  8010 net.cpp:455] data -> label
I0715 11:38:26.495486  8010 image_data_layer.cpp:87] Opening file ../data/cityscapes/calibration.txt
I0715 11:38:26.495743  8010 image_data_layer.cpp:97] Shuffling data
I0715 11:38:26.495803  8010 image_data_layer.cpp:102] A total of 1000 images.
I0715 11:38:26.570895  8010 image_data_layer.cpp:130] output data size: 1,3,512,1024
I0715 11:38:26.598978  8010 internal_thread.cpp:73] Starting internal thread(s) on GPU 0
I0715 11:38:26.599046  8010 net.cpp:190] Setting up data
I0715 11:38:26.599058  8010 net.cpp:197] Top shape: 1 3 512 1024 (1572864)
I0715 11:38:26.599063  8010 net.cpp:197] Top shape: 1 (1)
I0715 11:38:26.599066  8010 net.cpp:205] Memory required for data: 6291460
I0715 11:38:26.599071  8010 layer_factory.hpp:123] Creating layer data_data_0_split
I0715 11:38:26.599082  8010 net.cpp:140] Creating Layer data_data_0_split
I0715 11:38:26.599086  8010 net.cpp:481] data_data_0_split <- data
I0715 11:38:26.599098  8010 net.cpp:455] data_data_0_split -> data_data_0_split_0
I0715 11:38:26.599108  8010 net.cpp:455] data_data_0_split -> data_data_0_split_1
I0715 11:38:26.599117  8010 net.cpp:455] data_data_0_split -> data_data_0_split_2
I0715 11:38:26.599221  8010 net.cpp:190] Setting up data_data_0_split
I0715 11:38:26.599227  8010 net.cpp:197] Top shape: 1 3 512 1024 (1572864)
I0715 11:38:26.599231  8010 net.cpp:197] Top shape: 1 3 512 1024 (1572864)
I0715 11:38:26.599236  8010 net.cpp:197] Top shape: 1 3 512 1024 (1572864)
I0715 11:38:26.599239  8010 net.cpp:205] Memory required for data: 25165828
I0715 11:38:26.599242  8010 layer_factory.hpp:123] Creating layer ConvNd_1
I0715 11:38:26.599251  8010 net.cpp:140] Creating Layer ConvNd_1
I0715 11:38:26.599256  8010 net.cpp:481] ConvNd_1 <- data_data_0_split_0
I0715 11:38:26.599261  8010 net.cpp:455] ConvNd_1 -> ConvNd_1
I0715 11:38:26.600494  8010 net.cpp:190] Setting up ConvNd_1
I0715 11:38:26.600505  8010 net.cpp:197] Top shape: 1 16 256 512 (2097152)
I0715 11:38:26.600508  8010 net.cpp:205] Memory required for data: 33554436
I0715 11:38:26.600520  8010 layer_factory.hpp:123] Creating layer BatchNorm_1
I0715 11:38:26.600528  8010 net.cpp:140] Creating Layer BatchNorm_1
I0715 11:38:26.600533  8010 net.cpp:481] BatchNorm_1 <- ConvNd_1
I0715 11:38:26.600538  8010 net.cpp:455] BatchNorm_1 -> BatchNorm_1
I0715 11:38:26.602150  8010 net.cpp:190] Setting up BatchNorm_1
I0715 11:38:26.602161  8010 net.cpp:197] Top shape: 1 16 256 512 (2097152)
I0715 11:38:26.602165  8010 net.cpp:205] Memory required for data: 41943044
I0715 11:38:26.602178  8010 layer_factory.hpp:123] Creating layer Threshold_1
I0715 11:38:26.602185  8010 net.cpp:140] Creating Layer Threshold_1
I0715 11:38:26.602188  8010 net.cpp:481] Threshold_1 <- BatchNorm_1
I0715 11:38:26.602195  8010 net.cpp:442] Threshold_1 -> BatchNorm_1 (in-place)
I0715 11:38:26.602205  8010 net.cpp:190] Setting up Threshold_1
I0715 11:38:26.602210  8010 net.cpp:197] Top shape: 1 16 256 512 (2097152)
I0715 11:38:26.602213  8010 net.cpp:205] Memory required for data: 50331652
I0715 11:38:26.602216  8010 layer_factory.hpp:123] Creating layer BatchNorm_1_Threshold_1_0_split
I0715 11:38:26.602222  8010 net.cpp:140] Creating Layer BatchNorm_1_Threshold_1_0_split
I0715 11:38:26.602224  8010 net.cpp:481] BatchNorm_1_Threshold_1_0_split <- BatchNorm_1
I0715 11:38:26.602229  8010 net.cpp:455] BatchNorm_1_Threshold_1_0_split -> BatchNorm_1_Threshold_1_0_split_0
I0715 11:38:26.602236  8010 net.cpp:455] BatchNorm_1_Threshold_1_0_split -> BatchNorm_1_Threshold_1_0_split_1
I0715 11:38:26.602340  8010 net.cpp:190] Setting up BatchNorm_1_Threshold_1_0_split
I0715 11:38:26.602346  8010 net.cpp:197] Top shape: 1 16 256 512 (2097152)
I0715 11:38:26.602350  8010 net.cpp:197] Top shape: 1 16 256 512 (2097152)
I0715 11:38:26.602353  8010 net.cpp:205] Memory required for data: 67108868
I0715 11:38:26.602356  8010 layer_factory.hpp:123] Creating layer AvgPool2d_1
I0715 11:38:26.602362  8010 net.cpp:140] Creating Layer AvgPool2d_1
I0715 11:38:26.602367  8010 net.cpp:481] AvgPool2d_1 <- data_data_0_split_1
I0715 11:38:26.602373  8010 net.cpp:455] AvgPool2d_1 -> AvgPool2d_1
I0715 11:38:26.602408  8010 net.cpp:190] Setting up AvgPool2d_1
I0715 11:38:26.602414  8010 net.cpp:197] Top shape: 1 3 256 512 (393216)
I0715 11:38:26.602416  8010 net.cpp:205] Memory required for data: 68681732
I0715 11:38:26.602421  8010 layer_factory.hpp:123] Creating layer Concat_1
I0715 11:38:26.602425  8010 net.cpp:140] Creating Layer Concat_1
I0715 11:38:26.602429  8010 net.cpp:481] Concat_1 <- BatchNorm_1_Threshold_1_0_split_0
I0715 11:38:26.602433  8010 net.cpp:481] Concat_1 <- AvgPool2d_1
I0715 11:38:26.602438  8010 net.cpp:455] Concat_1 -> Concat_1
I0715 11:38:26.602461  8010 net.cpp:190] Setting up Concat_1
I0715 11:38:26.602468  8010 net.cpp:197] Top shape: 1 19 256 512 (2490368)
I0715 11:38:26.602470  8010 net.cpp:205] Memory required for data: 78643204
I0715 11:38:26.602473  8010 layer_factory.hpp:123] Creating layer BatchNorm_2
I0715 11:38:26.602480  8010 net.cpp:140] Creating Layer BatchNorm_2
I0715 11:38:26.602483  8010 net.cpp:481] BatchNorm_2 <- Concat_1
I0715 11:38:26.602488  8010 net.cpp:455] BatchNorm_2 -> BatchNorm_2
I0715 11:38:26.603317  8010 net.cpp:190] Setting up BatchNorm_2
I0715 11:38:26.603327  8010 net.cpp:197] Top shape: 1 19 256 512 (2490368)
I0715 11:38:26.603329  8010 net.cpp:205] Memory required for data: 88604676
I0715 11:38:26.603339  8010 layer_factory.hpp:123] Creating layer Threshold_2
I0715 11:38:26.603348  8010 net.cpp:140] Creating Layer Threshold_2
I0715 11:38:26.603350  8010 net.cpp:481] Threshold_2 <- BatchNorm_2
I0715 11:38:26.603355  8010 net.cpp:442] Threshold_2 -> BatchNorm_2 (in-place)
I0715 11:38:26.603361  8010 net.cpp:190] Setting up Threshold_2
I0715 11:38:26.603365  8010 net.cpp:197] Top shape: 1 19 256 512 (2490368)
I0715 11:38:26.603368  8010 net.cpp:205] Memory required for data: 98566148
I0715 11:38:26.603371  8010 layer_factory.hpp:123] Creating layer ConvNd_2
I0715 11:38:26.603379  8010 net.cpp:140] Creating Layer ConvNd_2
I0715 11:38:26.603381  8010 net.cpp:481] ConvNd_2 <- BatchNorm_2
I0715 11:38:26.603386  8010 net.cpp:455] ConvNd_2 -> ConvNd_2
I0715 11:38:26.604367  8010 net.cpp:190] Setting up ConvNd_2
I0715 11:38:26.604379  8010 net.cpp:197] Top shape: 1 12 128 256 (393216)
I0715 11:38:26.604382  8010 net.cpp:205] Memory required for data: 100139012
I0715 11:38:26.604387  8010 layer_factory.hpp:123] Creating layer ConvNd_2_ConvNd_2_0_split
I0715 11:38:26.604394  8010 net.cpp:140] Creating Layer ConvNd_2_ConvNd_2_0_split
I0715 11:38:26.604398  8010 net.cpp:481] ConvNd_2_ConvNd_2_0_split <- ConvNd_2
I0715 11:38:26.604405  8010 net.cpp:455] ConvNd_2_ConvNd_2_0_split -> ConvNd_2_ConvNd_2_0_split_0
I0715 11:38:26.604413  8010 net.cpp:455] ConvNd_2_ConvNd_2_0_split -> ConvNd_2_ConvNd_2_0_split_1
I0715 11:38:26.604420  8010 net.cpp:455] ConvNd_2_ConvNd_2_0_split -> ConvNd_2_ConvNd_2_0_split_2
I0715 11:38:26.604427  8010 net.cpp:455] ConvNd_2_ConvNd_2_0_split -> ConvNd_2_ConvNd_2_0_split_3
I0715 11:38:26.604434  8010 net.cpp:455] ConvNd_2_ConvNd_2_0_split -> ConvNd_2_ConvNd_2_0_split_4
I0715 11:38:26.604494  8010 net.cpp:190] Setting up ConvNd_2_ConvNd_2_0_split
I0715 11:38:26.604501  8010 net.cpp:197] Top shape: 1 12 128 256 (393216)
I0715 11:38:26.604504  8010 net.cpp:197] Top shape: 1 12 128 256 (393216)
I0715 11:38:26.604509  8010 net.cpp:197] Top shape: 1 12 128 256 (393216)
I0715 11:38:26.604513  8010 net.cpp:197] Top shape: 1 12 128 256 (393216)
I0715 11:38:26.604516  8010 net.cpp:197] Top shape: 1 12 128 256 (393216)
I0715 11:38:26.604519  8010 net.cpp:205] Memory required for data: 108003332
I0715 11:38:26.604522  8010 layer_factory.hpp:123] Creating layer ConvNd_3
I0715 11:38:26.604532  8010 net.cpp:140] Creating Layer ConvNd_3
I0715 11:38:26.604535  8010 net.cpp:481] ConvNd_3 <- ConvNd_2_ConvNd_2_0_split_0
I0715 11:38:26.604542  8010 net.cpp:455] ConvNd_3 -> ConvNd_3
I0715 11:38:26.604723  8010 net.cpp:190] Setting up ConvNd_3
I0715 11:38:26.604730  8010 net.cpp:197] Top shape: 1 16 128 256 (524288)
I0715 11:38:26.604733  8010 net.cpp:205] Memory required for data: 110100484
I0715 11:38:26.604737  8010 layer_factory.hpp:123] Creating layer ConvNd_4
I0715 11:38:26.604745  8010 net.cpp:140] Creating Layer ConvNd_4
I0715 11:38:26.604748  8010 net.cpp:481] ConvNd_4 <- ConvNd_2_ConvNd_2_0_split_1
I0715 11:38:26.604753  8010 net.cpp:455] ConvNd_4 -> ConvNd_4
I0715 11:38:26.604915  8010 net.cpp:190] Setting up ConvNd_4
I0715 11:38:26.604921  8010 net.cpp:197] Top shape: 1 12 128 256 (393216)
I0715 11:38:26.604925  8010 net.cpp:205] Memory required for data: 111673348
I0715 11:38:26.604929  8010 layer_factory.hpp:123] Creating layer ConvNd_4_ConvNd_4_0_split
I0715 11:38:26.604933  8010 net.cpp:140] Creating Layer ConvNd_4_ConvNd_4_0_split
I0715 11:38:26.604938  8010 net.cpp:481] ConvNd_4_ConvNd_4_0_split <- ConvNd_4
I0715 11:38:26.604943  8010 net.cpp:455] ConvNd_4_ConvNd_4_0_split -> ConvNd_4_ConvNd_4_0_split_0
I0715 11:38:26.604948  8010 net.cpp:455] ConvNd_4_ConvNd_4_0_split -> ConvNd_4_ConvNd_4_0_split_1
I0715 11:38:26.604977  8010 net.cpp:190] Setting up ConvNd_4_ConvNd_4_0_split
I0715 11:38:26.604982  8010 net.cpp:197] Top shape: 1 12 128 256 (393216)
I0715 11:38:26.604986  8010 net.cpp:197] Top shape: 1 12 128 256 (393216)
I0715 11:38:26.604990  8010 net.cpp:205] Memory required for data: 114819076
I0715 11:38:26.604991  8010 layer_factory.hpp:123] Creating layer ConvNd_5
I0715 11:38:26.604998  8010 net.cpp:140] Creating Layer ConvNd_5
I0715 11:38:26.605003  8010 net.cpp:481] ConvNd_5 <- ConvNd_2_ConvNd_2_0_split_2
I0715 11:38:26.605010  8010 net.cpp:455] ConvNd_5 -> ConvNd_5
I0715 11:38:26.605168  8010 net.cpp:190] Setting up ConvNd_5
I0715 11:38:26.605175  8010 net.cpp:197] Top shape: 1 12 128 256 (393216)
I0715 11:38:26.605178  8010 net.cpp:205] Memory required for data: 116391940
I0715 11:38:26.605183  8010 layer_factory.hpp:123] Creating layer Add_1
I0715 11:38:26.605190  8010 net.cpp:140] Creating Layer Add_1
I0715 11:38:26.605192  8010 net.cpp:481] Add_1 <- ConvNd_4_ConvNd_4_0_split_0
I0715 11:38:26.605197  8010 net.cpp:481] Add_1 <- ConvNd_5
I0715 11:38:26.605202  8010 net.cpp:455] Add_1 -> Add_1
I0715 11:38:26.605219  8010 net.cpp:190] Setting up Add_1
I0715 11:38:26.605226  8010 net.cpp:197] Top shape: 1 12 128 256 (393216)
I0715 11:38:26.605228  8010 net.cpp:205] Memory required for data: 117964804
I0715 11:38:26.605232  8010 layer_factory.hpp:123] Creating layer Add_1_Add_1_0_split
I0715 11:38:26.605237  8010 net.cpp:140] Creating Layer Add_1_Add_1_0_split
I0715 11:38:26.605239  8010 net.cpp:481] Add_1_Add_1_0_split <- Add_1
I0715 11:38:26.605244  8010 net.cpp:455] Add_1_Add_1_0_split -> Add_1_Add_1_0_split_0
I0715 11:38:26.605250  8010 net.cpp:455] Add_1_Add_1_0_split -> Add_1_Add_1_0_split_1
I0715 11:38:26.605275  8010 net.cpp:190] Setting up Add_1_Add_1_0_split
I0715 11:38:26.605280  8010 net.cpp:197] Top shape: 1 12 128 256 (393216)
I0715 11:38:26.605284  8010 net.cpp:197] Top shape: 1 12 128 256 (393216)
I0715 11:38:26.605288  8010 net.cpp:205] Memory required for data: 121110532
I0715 11:38:26.605290  8010 layer_factory.hpp:123] Creating layer ConvNd_6
I0715 11:38:26.605296  8010 net.cpp:140] Creating Layer ConvNd_6
I0715 11:38:26.605301  8010 net.cpp:481] ConvNd_6 <- ConvNd_2_ConvNd_2_0_split_3
I0715 11:38:26.605307  8010 net.cpp:455] ConvNd_6 -> ConvNd_6
I0715 11:38:26.605465  8010 net.cpp:190] Setting up ConvNd_6
I0715 11:38:26.605471  8010 net.cpp:197] Top shape: 1 12 128 256 (393216)
I0715 11:38:26.605475  8010 net.cpp:205] Memory required for data: 122683396
I0715 11:38:26.605479  8010 layer_factory.hpp:123] Creating layer Add_2
I0715 11:38:26.605484  8010 net.cpp:140] Creating Layer Add_2
I0715 11:38:26.605487  8010 net.cpp:481] Add_2 <- Add_1_Add_1_0_split_0
I0715 11:38:26.605492  8010 net.cpp:481] Add_2 <- ConvNd_6
I0715 11:38:26.605496  8010 net.cpp:455] Add_2 -> Add_2
I0715 11:38:26.605513  8010 net.cpp:190] Setting up Add_2
I0715 11:38:26.605520  8010 net.cpp:197] Top shape: 1 12 128 256 (393216)
I0715 11:38:26.605522  8010 net.cpp:205] Memory required for data: 124256260
I0715 11:38:26.605525  8010 layer_factory.hpp:123] Creating layer Add_2_Add_2_0_split
I0715 11:38:26.605530  8010 net.cpp:140] Creating Layer Add_2_Add_2_0_split
I0715 11:38:26.605533  8010 net.cpp:481] Add_2_Add_2_0_split <- Add_2
I0715 11:38:26.605538  8010 net.cpp:455] Add_2_Add_2_0_split -> Add_2_Add_2_0_split_0
I0715 11:38:26.605545  8010 net.cpp:455] Add_2_Add_2_0_split -> Add_2_Add_2_0_split_1
I0715 11:38:26.605568  8010 net.cpp:190] Setting up Add_2_Add_2_0_split
I0715 11:38:26.605573  8010 net.cpp:197] Top shape: 1 12 128 256 (393216)
I0715 11:38:26.605577  8010 net.cpp:197] Top shape: 1 12 128 256 (393216)
I0715 11:38:26.605581  8010 net.cpp:205] Memory required for data: 127401988
I0715 11:38:26.605583  8010 layer_factory.hpp:123] Creating layer ConvNd_7
I0715 11:38:26.605590  8010 net.cpp:140] Creating Layer ConvNd_7
I0715 11:38:26.605594  8010 net.cpp:481] ConvNd_7 <- ConvNd_2_ConvNd_2_0_split_4
I0715 11:38:26.605600  8010 net.cpp:455] ConvNd_7 -> ConvNd_7
I0715 11:38:26.605764  8010 net.cpp:190] Setting up ConvNd_7
I0715 11:38:26.605770  8010 net.cpp:197] Top shape: 1 12 128 256 (393216)
I0715 11:38:26.605773  8010 net.cpp:205] Memory required for data: 128974852
I0715 11:38:26.605780  8010 layer_factory.hpp:123] Creating layer Add_3
I0715 11:38:26.605784  8010 net.cpp:140] Creating Layer Add_3
I0715 11:38:26.605788  8010 net.cpp:481] Add_3 <- Add_2_Add_2_0_split_0
I0715 11:38:26.605792  8010 net.cpp:481] Add_3 <- ConvNd_7
I0715 11:38:26.605798  8010 net.cpp:455] Add_3 -> Add_3
I0715 11:38:26.605816  8010 net.cpp:190] Setting up Add_3
I0715 11:38:26.605823  8010 net.cpp:197] Top shape: 1 12 128 256 (393216)
I0715 11:38:26.605825  8010 net.cpp:205] Memory required for data: 130547716
I0715 11:38:26.605828  8010 layer_factory.hpp:123] Creating layer Concat_2
I0715 11:38:26.605834  8010 net.cpp:140] Creating Layer Concat_2
I0715 11:38:26.605836  8010 net.cpp:481] Concat_2 <- ConvNd_3
I0715 11:38:26.605840  8010 net.cpp:481] Concat_2 <- ConvNd_4_ConvNd_4_0_split_1
I0715 11:38:26.605844  8010 net.cpp:481] Concat_2 <- Add_1_Add_1_0_split_1
I0715 11:38:26.605849  8010 net.cpp:481] Concat_2 <- Add_2_Add_2_0_split_1
I0715 11:38:26.605851  8010 net.cpp:481] Concat_2 <- Add_3
I0715 11:38:26.605857  8010 net.cpp:455] Concat_2 -> Concat_2
I0715 11:38:26.605876  8010 net.cpp:190] Setting up Concat_2
I0715 11:38:26.605882  8010 net.cpp:197] Top shape: 1 64 128 256 (2097152)
I0715 11:38:26.605885  8010 net.cpp:205] Memory required for data: 138936324
I0715 11:38:26.605888  8010 layer_factory.hpp:123] Creating layer BatchNorm_3
I0715 11:38:26.605895  8010 net.cpp:140] Creating Layer BatchNorm_3
I0715 11:38:26.605897  8010 net.cpp:481] BatchNorm_3 <- Concat_2
I0715 11:38:26.605903  8010 net.cpp:455] BatchNorm_3 -> BatchNorm_3
I0715 11:38:26.607252  8010 net.cpp:190] Setting up BatchNorm_3
I0715 11:38:26.607264  8010 net.cpp:197] Top shape: 1 64 128 256 (2097152)
I0715 11:38:26.607267  8010 net.cpp:205] Memory required for data: 147324932
I0715 11:38:26.607276  8010 layer_factory.hpp:123] Creating layer Threshold_3
I0715 11:38:26.607283  8010 net.cpp:140] Creating Layer Threshold_3
I0715 11:38:26.607287  8010 net.cpp:481] Threshold_3 <- BatchNorm_3
I0715 11:38:26.607292  8010 net.cpp:442] Threshold_3 -> BatchNorm_3 (in-place)
I0715 11:38:26.607300  8010 net.cpp:190] Setting up Threshold_3
I0715 11:38:26.607303  8010 net.cpp:197] Top shape: 1 64 128 256 (2097152)
I0715 11:38:26.607306  8010 net.cpp:205] Memory required for data: 155713540
I0715 11:38:26.607309  8010 layer_factory.hpp:123] Creating layer BatchNorm_3_Threshold_3_0_split
I0715 11:38:26.607314  8010 net.cpp:140] Creating Layer BatchNorm_3_Threshold_3_0_split
I0715 11:38:26.607317  8010 net.cpp:481] BatchNorm_3_Threshold_3_0_split <- BatchNorm_3
I0715 11:38:26.607322  8010 net.cpp:455] BatchNorm_3_Threshold_3_0_split -> BatchNorm_3_Threshold_3_0_split_0
I0715 11:38:26.607328  8010 net.cpp:455] BatchNorm_3_Threshold_3_0_split -> BatchNorm_3_Threshold_3_0_split_1
I0715 11:38:26.607337  8010 net.cpp:455] BatchNorm_3_Threshold_3_0_split -> BatchNorm_3_Threshold_3_0_split_2
I0715 11:38:26.607373  8010 net.cpp:190] Setting up BatchNorm_3_Threshold_3_0_split
I0715 11:38:26.607378  8010 net.cpp:197] Top shape: 1 64 128 256 (2097152)
I0715 11:38:26.607383  8010 net.cpp:197] Top shape: 1 64 128 256 (2097152)
I0715 11:38:26.607385  8010 net.cpp:197] Top shape: 1 64 128 256 (2097152)
I0715 11:38:26.607389  8010 net.cpp:205] Memory required for data: 180879364
I0715 11:38:26.607391  8010 layer_factory.hpp:123] Creating layer ConvNd_8
I0715 11:38:26.607399  8010 net.cpp:140] Creating Layer ConvNd_8
I0715 11:38:26.607403  8010 net.cpp:481] ConvNd_8 <- BatchNorm_3_Threshold_3_0_split_0
I0715 11:38:26.607408  8010 net.cpp:455] ConvNd_8 -> ConvNd_8
I0715 11:38:26.607574  8010 net.cpp:190] Setting up ConvNd_8
I0715 11:38:26.607583  8010 net.cpp:197] Top shape: 1 12 128 256 (393216)
I0715 11:38:26.607585  8010 net.cpp:205] Memory required for data: 182452228
I0715 11:38:26.607590  8010 layer_factory.hpp:123] Creating layer ConvNd_8_ConvNd_8_0_split
I0715 11:38:26.607595  8010 net.cpp:140] Creating Layer ConvNd_8_ConvNd_8_0_split
I0715 11:38:26.607599  8010 net.cpp:481] ConvNd_8_ConvNd_8_0_split <- ConvNd_8
I0715 11:38:26.607604  8010 net.cpp:455] ConvNd_8_ConvNd_8_0_split -> ConvNd_8_ConvNd_8_0_split_0
I0715 11:38:26.607611  8010 net.cpp:455] ConvNd_8_ConvNd_8_0_split -> ConvNd_8_ConvNd_8_0_split_1
I0715 11:38:26.607619  8010 net.cpp:455] ConvNd_8_ConvNd_8_0_split -> ConvNd_8_ConvNd_8_0_split_2
I0715 11:38:26.607625  8010 net.cpp:455] ConvNd_8_ConvNd_8_0_split -> ConvNd_8_ConvNd_8_0_split_3
I0715 11:38:26.607630  8010 net.cpp:455] ConvNd_8_ConvNd_8_0_split -> ConvNd_8_ConvNd_8_0_split_4
I0715 11:38:26.607686  8010 net.cpp:190] Setting up ConvNd_8_ConvNd_8_0_split
I0715 11:38:26.607692  8010 net.cpp:197] Top shape: 1 12 128 256 (393216)
I0715 11:38:26.607695  8010 net.cpp:197] Top shape: 1 12 128 256 (393216)
I0715 11:38:26.607698  8010 net.cpp:197] Top shape: 1 12 128 256 (393216)
I0715 11:38:26.607702  8010 net.cpp:197] Top shape: 1 12 128 256 (393216)
I0715 11:38:26.607707  8010 net.cpp:197] Top shape: 1 12 128 256 (393216)
I0715 11:38:26.607708  8010 net.cpp:205] Memory required for data: 190316548
I0715 11:38:26.607712  8010 layer_factory.hpp:123] Creating layer ConvNd_9
I0715 11:38:26.607719  8010 net.cpp:140] Creating Layer ConvNd_9
I0715 11:38:26.607722  8010 net.cpp:481] ConvNd_9 <- ConvNd_8_ConvNd_8_0_split_0
I0715 11:38:26.607728  8010 net.cpp:455] ConvNd_9 -> ConvNd_9
I0715 11:38:26.607910  8010 net.cpp:190] Setting up ConvNd_9
I0715 11:38:26.607919  8010 net.cpp:197] Top shape: 1 16 128 256 (524288)
I0715 11:38:26.607923  8010 net.cpp:205] Memory required for data: 192413700
I0715 11:38:26.607928  8010 layer_factory.hpp:123] Creating layer ConvNd_10
I0715 11:38:26.607934  8010 net.cpp:140] Creating Layer ConvNd_10
I0715 11:38:26.607939  8010 net.cpp:481] ConvNd_10 <- ConvNd_8_ConvNd_8_0_split_1
I0715 11:38:26.607944  8010 net.cpp:455] ConvNd_10 -> ConvNd_10
I0715 11:38:26.608110  8010 net.cpp:190] Setting up ConvNd_10
I0715 11:38:26.608117  8010 net.cpp:197] Top shape: 1 12 128 256 (393216)
I0715 11:38:26.608120  8010 net.cpp:205] Memory required for data: 193986564
I0715 11:38:26.608124  8010 layer_factory.hpp:123] Creating layer ConvNd_10_ConvNd_10_0_split
I0715 11:38:26.608130  8010 net.cpp:140] Creating Layer ConvNd_10_ConvNd_10_0_split
I0715 11:38:26.608134  8010 net.cpp:481] ConvNd_10_ConvNd_10_0_split <- ConvNd_10
I0715 11:38:26.608139  8010 net.cpp:455] ConvNd_10_ConvNd_10_0_split -> ConvNd_10_ConvNd_10_0_split_0
I0715 11:38:26.608145  8010 net.cpp:455] ConvNd_10_ConvNd_10_0_split -> ConvNd_10_ConvNd_10_0_split_1
I0715 11:38:26.608172  8010 net.cpp:190] Setting up ConvNd_10_ConvNd_10_0_split
I0715 11:38:26.608177  8010 net.cpp:197] Top shape: 1 12 128 256 (393216)
I0715 11:38:26.608182  8010 net.cpp:197] Top shape: 1 12 128 256 (393216)
I0715 11:38:26.608184  8010 net.cpp:205] Memory required for data: 197132292
I0715 11:38:26.608187  8010 layer_factory.hpp:123] Creating layer ConvNd_11
I0715 11:38:26.608196  8010 net.cpp:140] Creating Layer ConvNd_11
I0715 11:38:26.608199  8010 net.cpp:481] ConvNd_11 <- ConvNd_8_ConvNd_8_0_split_2
I0715 11:38:26.608204  8010 net.cpp:455] ConvNd_11 -> ConvNd_11
I0715 11:38:26.608367  8010 net.cpp:190] Setting up ConvNd_11
I0715 11:38:26.608374  8010 net.cpp:197] Top shape: 1 12 128 256 (393216)
I0715 11:38:26.608377  8010 net.cpp:205] Memory required for data: 198705156
I0715 11:38:26.608381  8010 layer_factory.hpp:123] Creating layer Add_4
I0715 11:38:26.608387  8010 net.cpp:140] Creating Layer Add_4
I0715 11:38:26.608391  8010 net.cpp:481] Add_4 <- ConvNd_10_ConvNd_10_0_split_0
I0715 11:38:26.608395  8010 net.cpp:481] Add_4 <- ConvNd_11
I0715 11:38:26.608400  8010 net.cpp:455] Add_4 -> Add_4
I0715 11:38:26.608417  8010 net.cpp:190] Setting up Add_4
I0715 11:38:26.608423  8010 net.cpp:197] Top shape: 1 12 128 256 (393216)
I0715 11:38:26.608427  8010 net.cpp:205] Memory required for data: 200278020
I0715 11:38:26.608429  8010 layer_factory.hpp:123] Creating layer Add_4_Add_4_0_split
I0715 11:38:26.608434  8010 net.cpp:140] Creating Layer Add_4_Add_4_0_split
I0715 11:38:26.608438  8010 net.cpp:481] Add_4_Add_4_0_split <- Add_4
I0715 11:38:26.608443  8010 net.cpp:455] Add_4_Add_4_0_split -> Add_4_Add_4_0_split_0
I0715 11:38:26.608448  8010 net.cpp:455] Add_4_Add_4_0_split -> Add_4_Add_4_0_split_1
I0715 11:38:26.608476  8010 net.cpp:190] Setting up Add_4_Add_4_0_split
I0715 11:38:26.608482  8010 net.cpp:197] Top shape: 1 12 128 256 (393216)
I0715 11:38:26.608485  8010 net.cpp:197] Top shape: 1 12 128 256 (393216)
I0715 11:38:26.608489  8010 net.cpp:205] Memory required for data: 203423748
I0715 11:38:26.608491  8010 layer_factory.hpp:123] Creating layer ConvNd_12
I0715 11:38:26.608498  8010 net.cpp:140] Creating Layer ConvNd_12
I0715 11:38:26.608502  8010 net.cpp:481] ConvNd_12 <- ConvNd_8_ConvNd_8_0_split_3
I0715 11:38:26.608507  8010 net.cpp:455] ConvNd_12 -> ConvNd_12
I0715 11:38:26.608670  8010 net.cpp:190] Setting up ConvNd_12
I0715 11:38:26.608677  8010 net.cpp:197] Top shape: 1 12 128 256 (393216)
I0715 11:38:26.608680  8010 net.cpp:205] Memory required for data: 204996612
I0715 11:38:26.608685  8010 layer_factory.hpp:123] Creating layer Add_5
I0715 11:38:26.608690  8010 net.cpp:140] Creating Layer Add_5
I0715 11:38:26.608693  8010 net.cpp:481] Add_5 <- Add_4_Add_4_0_split_0
I0715 11:38:26.608697  8010 net.cpp:481] Add_5 <- ConvNd_12
I0715 11:38:26.608702  8010 net.cpp:455] Add_5 -> Add_5
I0715 11:38:26.608721  8010 net.cpp:190] Setting up Add_5
I0715 11:38:26.608726  8010 net.cpp:197] Top shape: 1 12 128 256 (393216)
I0715 11:38:26.608729  8010 net.cpp:205] Memory required for data: 206569476
I0715 11:38:26.608732  8010 layer_factory.hpp:123] Creating layer Add_5_Add_5_0_split
I0715 11:38:26.608737  8010 net.cpp:140] Creating Layer Add_5_Add_5_0_split
I0715 11:38:26.608741  8010 net.cpp:481] Add_5_Add_5_0_split <- Add_5
I0715 11:38:26.608744  8010 net.cpp:455] Add_5_Add_5_0_split -> Add_5_Add_5_0_split_0
I0715 11:38:26.608750  8010 net.cpp:455] Add_5_Add_5_0_split -> Add_5_Add_5_0_split_1
I0715 11:38:26.608777  8010 net.cpp:190] Setting up Add_5_Add_5_0_split
I0715 11:38:26.608783  8010 net.cpp:197] Top shape: 1 12 128 256 (393216)
I0715 11:38:26.608786  8010 net.cpp:197] Top shape: 1 12 128 256 (393216)
I0715 11:38:26.608789  8010 net.cpp:205] Memory required for data: 209715204
I0715 11:38:26.608791  8010 layer_factory.hpp:123] Creating layer ConvNd_13
I0715 11:38:26.608798  8010 net.cpp:140] Creating Layer ConvNd_13
I0715 11:38:26.608803  8010 net.cpp:481] ConvNd_13 <- ConvNd_8_ConvNd_8_0_split_4
I0715 11:38:26.608808  8010 net.cpp:455] ConvNd_13 -> ConvNd_13
I0715 11:38:26.608969  8010 net.cpp:190] Setting up ConvNd_13
I0715 11:38:26.608975  8010 net.cpp:197] Top shape: 1 12 128 256 (393216)
I0715 11:38:26.608979  8010 net.cpp:205] Memory required for data: 211288068
I0715 11:38:26.608983  8010 layer_factory.hpp:123] Creating layer Add_6
I0715 11:38:26.608989  8010 net.cpp:140] Creating Layer Add_6
I0715 11:38:26.608991  8010 net.cpp:481] Add_6 <- Add_5_Add_5_0_split_0
I0715 11:38:26.608995  8010 net.cpp:481] Add_6 <- ConvNd_13
I0715 11:38:26.609000  8010 net.cpp:455] Add_6 -> Add_6
I0715 11:38:26.609017  8010 net.cpp:190] Setting up Add_6
I0715 11:38:26.609022  8010 net.cpp:197] Top shape: 1 12 128 256 (393216)
I0715 11:38:26.609026  8010 net.cpp:205] Memory required for data: 212860932
I0715 11:38:26.609030  8010 layer_factory.hpp:123] Creating layer Concat_3
I0715 11:38:26.609035  8010 net.cpp:140] Creating Layer Concat_3
I0715 11:38:26.609038  8010 net.cpp:481] Concat_3 <- ConvNd_9
I0715 11:38:26.609042  8010 net.cpp:481] Concat_3 <- ConvNd_10_ConvNd_10_0_split_1
I0715 11:38:26.609046  8010 net.cpp:481] Concat_3 <- Add_4_Add_4_0_split_1
I0715 11:38:26.609050  8010 net.cpp:481] Concat_3 <- Add_5_Add_5_0_split_1
I0715 11:38:26.609053  8010 net.cpp:481] Concat_3 <- Add_6
I0715 11:38:26.609058  8010 net.cpp:455] Concat_3 -> Concat_3
I0715 11:38:26.609076  8010 net.cpp:190] Setting up Concat_3
I0715 11:38:26.609081  8010 net.cpp:197] Top shape: 1 64 128 256 (2097152)
I0715 11:38:26.609084  8010 net.cpp:205] Memory required for data: 221249540
I0715 11:38:26.609087  8010 layer_factory.hpp:123] Creating layer Add_7
I0715 11:38:26.609092  8010 net.cpp:140] Creating Layer Add_7
I0715 11:38:26.609095  8010 net.cpp:481] Add_7 <- BatchNorm_3_Threshold_3_0_split_1
I0715 11:38:26.609099  8010 net.cpp:481] Add_7 <- Concat_3
I0715 11:38:26.609104  8010 net.cpp:455] Add_7 -> Add_7
I0715 11:38:26.609124  8010 net.cpp:190] Setting up Add_7
I0715 11:38:26.609133  8010 net.cpp:197] Top shape: 1 64 128 256 (2097152)
I0715 11:38:26.609139  8010 net.cpp:205] Memory required for data: 229638148
I0715 11:38:26.609145  8010 layer_factory.hpp:123] Creating layer BatchNorm_4
I0715 11:38:26.609155  8010 net.cpp:140] Creating Layer BatchNorm_4
I0715 11:38:26.609160  8010 net.cpp:481] BatchNorm_4 <- Add_7
I0715 11:38:26.609169  8010 net.cpp:455] BatchNorm_4 -> BatchNorm_4
I0715 11:38:26.609874  8010 net.cpp:190] Setting up BatchNorm_4
I0715 11:38:26.609882  8010 net.cpp:197] Top shape: 1 64 128 256 (2097152)
I0715 11:38:26.609885  8010 net.cpp:205] Memory required for data: 238026756
I0715 11:38:26.609896  8010 layer_factory.hpp:123] Creating layer Threshold_4
I0715 11:38:26.609901  8010 net.cpp:140] Creating Layer Threshold_4
I0715 11:38:26.609907  8010 net.cpp:481] Threshold_4 <- BatchNorm_4
I0715 11:38:26.609912  8010 net.cpp:442] Threshold_4 -> BatchNorm_4 (in-place)
I0715 11:38:26.609918  8010 net.cpp:190] Setting up Threshold_4
I0715 11:38:26.609925  8010 net.cpp:197] Top shape: 1 64 128 256 (2097152)
I0715 11:38:26.609927  8010 net.cpp:205] Memory required for data: 246415364
I0715 11:38:26.609930  8010 layer_factory.hpp:123] Creating layer BatchNorm_4_Threshold_4_0_split
I0715 11:38:26.609935  8010 net.cpp:140] Creating Layer BatchNorm_4_Threshold_4_0_split
I0715 11:38:26.609939  8010 net.cpp:481] BatchNorm_4_Threshold_4_0_split <- BatchNorm_4
I0715 11:38:26.609944  8010 net.cpp:455] BatchNorm_4_Threshold_4_0_split -> BatchNorm_4_Threshold_4_0_split_0
I0715 11:38:26.609951  8010 net.cpp:455] BatchNorm_4_Threshold_4_0_split -> BatchNorm_4_Threshold_4_0_split_1
I0715 11:38:26.609978  8010 net.cpp:190] Setting up BatchNorm_4_Threshold_4_0_split
I0715 11:38:26.609984  8010 net.cpp:197] Top shape: 1 64 128 256 (2097152)
I0715 11:38:26.609987  8010 net.cpp:197] Top shape: 1 64 128 256 (2097152)
I0715 11:38:26.609990  8010 net.cpp:205] Memory required for data: 263192580
I0715 11:38:26.609993  8010 layer_factory.hpp:123] Creating layer ConvNd_14
I0715 11:38:26.610000  8010 net.cpp:140] Creating Layer ConvNd_14
I0715 11:38:26.610005  8010 net.cpp:481] ConvNd_14 <- BatchNorm_4_Threshold_4_0_split_0
I0715 11:38:26.610010  8010 net.cpp:455] ConvNd_14 -> ConvNd_14
I0715 11:38:26.610172  8010 net.cpp:190] Setting up ConvNd_14
I0715 11:38:26.610179  8010 net.cpp:197] Top shape: 1 12 128 256 (393216)
I0715 11:38:26.610183  8010 net.cpp:205] Memory required for data: 264765444
I0715 11:38:26.610188  8010 layer_factory.hpp:123] Creating layer ConvNd_14_ConvNd_14_0_split
I0715 11:38:26.610193  8010 net.cpp:140] Creating Layer ConvNd_14_ConvNd_14_0_split
I0715 11:38:26.610196  8010 net.cpp:481] ConvNd_14_ConvNd_14_0_split <- ConvNd_14
I0715 11:38:26.610203  8010 net.cpp:455] ConvNd_14_ConvNd_14_0_split -> ConvNd_14_ConvNd_14_0_split_0
I0715 11:38:26.610209  8010 net.cpp:455] ConvNd_14_ConvNd_14_0_split -> ConvNd_14_ConvNd_14_0_split_1
I0715 11:38:26.610219  8010 net.cpp:455] ConvNd_14_ConvNd_14_0_split -> ConvNd_14_ConvNd_14_0_split_2
I0715 11:38:26.610226  8010 net.cpp:455] ConvNd_14_ConvNd_14_0_split -> ConvNd_14_ConvNd_14_0_split_3
I0715 11:38:26.610231  8010 net.cpp:455] ConvNd_14_ConvNd_14_0_split -> ConvNd_14_ConvNd_14_0_split_4
I0715 11:38:26.610288  8010 net.cpp:190] Setting up ConvNd_14_ConvNd_14_0_split
I0715 11:38:26.610293  8010 net.cpp:197] Top shape: 1 12 128 256 (393216)
I0715 11:38:26.610298  8010 net.cpp:197] Top shape: 1 12 128 256 (393216)
I0715 11:38:26.610301  8010 net.cpp:197] Top shape: 1 12 128 256 (393216)
I0715 11:38:26.610306  8010 net.cpp:197] Top shape: 1 12 128 256 (393216)
I0715 11:38:26.610309  8010 net.cpp:197] Top shape: 1 12 128 256 (393216)
I0715 11:38:26.610312  8010 net.cpp:205] Memory required for data: 272629764
I0715 11:38:26.610314  8010 layer_factory.hpp:123] Creating layer ConvNd_15
I0715 11:38:26.610322  8010 net.cpp:140] Creating Layer ConvNd_15
I0715 11:38:26.610325  8010 net.cpp:481] ConvNd_15 <- ConvNd_14_ConvNd_14_0_split_0
I0715 11:38:26.610332  8010 net.cpp:455] ConvNd_15 -> ConvNd_15
I0715 11:38:26.610504  8010 net.cpp:190] Setting up ConvNd_15
I0715 11:38:26.610512  8010 net.cpp:197] Top shape: 1 16 128 256 (524288)
I0715 11:38:26.610514  8010 net.cpp:205] Memory required for data: 274726916
I0715 11:38:26.610519  8010 layer_factory.hpp:123] Creating layer ConvNd_16
I0715 11:38:26.610527  8010 net.cpp:140] Creating Layer ConvNd_16
I0715 11:38:26.610529  8010 net.cpp:481] ConvNd_16 <- ConvNd_14_ConvNd_14_0_split_1
I0715 11:38:26.610534  8010 net.cpp:455] ConvNd_16 -> ConvNd_16
I0715 11:38:26.610702  8010 net.cpp:190] Setting up ConvNd_16
I0715 11:38:26.610708  8010 net.cpp:197] Top shape: 1 12 128 256 (393216)
I0715 11:38:26.610711  8010 net.cpp:205] Memory required for data: 276299780
I0715 11:38:26.610715  8010 layer_factory.hpp:123] Creating layer ConvNd_16_ConvNd_16_0_split
I0715 11:38:26.610720  8010 net.cpp:140] Creating Layer ConvNd_16_ConvNd_16_0_split
I0715 11:38:26.610725  8010 net.cpp:481] ConvNd_16_ConvNd_16_0_split <- ConvNd_16
I0715 11:38:26.610730  8010 net.cpp:455] ConvNd_16_ConvNd_16_0_split -> ConvNd_16_ConvNd_16_0_split_0
I0715 11:38:26.610736  8010 net.cpp:455] ConvNd_16_ConvNd_16_0_split -> ConvNd_16_ConvNd_16_0_split_1
I0715 11:38:26.610765  8010 net.cpp:190] Setting up ConvNd_16_ConvNd_16_0_split
I0715 11:38:26.610771  8010 net.cpp:197] Top shape: 1 12 128 256 (393216)
I0715 11:38:26.610774  8010 net.cpp:197] Top shape: 1 12 128 256 (393216)
I0715 11:38:26.610777  8010 net.cpp:205] Memory required for data: 279445508
I0715 11:38:26.610780  8010 layer_factory.hpp:123] Creating layer ConvNd_17
I0715 11:38:26.610787  8010 net.cpp:140] Creating Layer ConvNd_17
I0715 11:38:26.610792  8010 net.cpp:481] ConvNd_17 <- ConvNd_14_ConvNd_14_0_split_2
I0715 11:38:26.610797  8010 net.cpp:455] ConvNd_17 -> ConvNd_17
I0715 11:38:26.610961  8010 net.cpp:190] Setting up ConvNd_17
I0715 11:38:26.610967  8010 net.cpp:197] Top shape: 1 12 128 256 (393216)
I0715 11:38:26.610970  8010 net.cpp:205] Memory required for data: 281018372
I0715 11:38:26.610975  8010 layer_factory.hpp:123] Creating layer Add_8
I0715 11:38:26.610981  8010 net.cpp:140] Creating Layer Add_8
I0715 11:38:26.610985  8010 net.cpp:481] Add_8 <- ConvNd_16_ConvNd_16_0_split_0
I0715 11:38:26.610990  8010 net.cpp:481] Add_8 <- ConvNd_17
I0715 11:38:26.610994  8010 net.cpp:455] Add_8 -> Add_8
I0715 11:38:26.611012  8010 net.cpp:190] Setting up Add_8
I0715 11:38:26.611017  8010 net.cpp:197] Top shape: 1 12 128 256 (393216)
I0715 11:38:26.611021  8010 net.cpp:205] Memory required for data: 282591236
I0715 11:38:26.611023  8010 layer_factory.hpp:123] Creating layer Add_8_Add_8_0_split
I0715 11:38:26.611028  8010 net.cpp:140] Creating Layer Add_8_Add_8_0_split
I0715 11:38:26.611032  8010 net.cpp:481] Add_8_Add_8_0_split <- Add_8
I0715 11:38:26.611037  8010 net.cpp:455] Add_8_Add_8_0_split -> Add_8_Add_8_0_split_0
I0715 11:38:26.611042  8010 net.cpp:455] Add_8_Add_8_0_split -> Add_8_Add_8_0_split_1
I0715 11:38:26.611068  8010 net.cpp:190] Setting up Add_8_Add_8_0_split
I0715 11:38:26.611073  8010 net.cpp:197] Top shape: 1 12 128 256 (393216)
I0715 11:38:26.611078  8010 net.cpp:197] Top shape: 1 12 128 256 (393216)
I0715 11:38:26.611080  8010 net.cpp:205] Memory required for data: 285736964
I0715 11:38:26.611083  8010 layer_factory.hpp:123] Creating layer ConvNd_18
I0715 11:38:26.611090  8010 net.cpp:140] Creating Layer ConvNd_18
I0715 11:38:26.611094  8010 net.cpp:481] ConvNd_18 <- ConvNd_14_ConvNd_14_0_split_3
I0715 11:38:26.611100  8010 net.cpp:455] ConvNd_18 -> ConvNd_18
I0715 11:38:26.611265  8010 net.cpp:190] Setting up ConvNd_18
I0715 11:38:26.611271  8010 net.cpp:197] Top shape: 1 12 128 256 (393216)
I0715 11:38:26.611274  8010 net.cpp:205] Memory required for data: 287309828
I0715 11:38:26.611279  8010 layer_factory.hpp:123] Creating layer Add_9
I0715 11:38:26.611285  8010 net.cpp:140] Creating Layer Add_9
I0715 11:38:26.611289  8010 net.cpp:481] Add_9 <- Add_8_Add_8_0_split_0
I0715 11:38:26.611294  8010 net.cpp:481] Add_9 <- ConvNd_18
I0715 11:38:26.611297  8010 net.cpp:455] Add_9 -> Add_9
I0715 11:38:26.611316  8010 net.cpp:190] Setting up Add_9
I0715 11:38:26.611321  8010 net.cpp:197] Top shape: 1 12 128 256 (393216)
I0715 11:38:26.611325  8010 net.cpp:205] Memory required for data: 288882692
I0715 11:38:26.611327  8010 layer_factory.hpp:123] Creating layer Add_9_Add_9_0_split
I0715 11:38:26.611331  8010 net.cpp:140] Creating Layer Add_9_Add_9_0_split
I0715 11:38:26.611335  8010 net.cpp:481] Add_9_Add_9_0_split <- Add_9
I0715 11:38:26.611340  8010 net.cpp:455] Add_9_Add_9_0_split -> Add_9_Add_9_0_split_0
I0715 11:38:26.611346  8010 net.cpp:455] Add_9_Add_9_0_split -> Add_9_Add_9_0_split_1
I0715 11:38:26.611371  8010 net.cpp:190] Setting up Add_9_Add_9_0_split
I0715 11:38:26.611377  8010 net.cpp:197] Top shape: 1 12 128 256 (393216)
I0715 11:38:26.611379  8010 net.cpp:197] Top shape: 1 12 128 256 (393216)
I0715 11:38:26.611382  8010 net.cpp:205] Memory required for data: 292028420
I0715 11:38:26.611385  8010 layer_factory.hpp:123] Creating layer ConvNd_19
I0715 11:38:26.611392  8010 net.cpp:140] Creating Layer ConvNd_19
I0715 11:38:26.611397  8010 net.cpp:481] ConvNd_19 <- ConvNd_14_ConvNd_14_0_split_4
I0715 11:38:26.611402  8010 net.cpp:455] ConvNd_19 -> ConvNd_19
I0715 11:38:26.611568  8010 net.cpp:190] Setting up ConvNd_19
I0715 11:38:26.611574  8010 net.cpp:197] Top shape: 1 12 128 256 (393216)
I0715 11:38:26.611577  8010 net.cpp:205] Memory required for data: 293601284
I0715 11:38:26.611582  8010 layer_factory.hpp:123] Creating layer Add_10
I0715 11:38:26.611589  8010 net.cpp:140] Creating Layer Add_10
I0715 11:38:26.611593  8010 net.cpp:481] Add_10 <- Add_9_Add_9_0_split_0
I0715 11:38:26.611596  8010 net.cpp:481] Add_10 <- ConvNd_19
I0715 11:38:26.611600  8010 net.cpp:455] Add_10 -> Add_10
I0715 11:38:26.611619  8010 net.cpp:190] Setting up Add_10
I0715 11:38:26.611624  8010 net.cpp:197] Top shape: 1 12 128 256 (393216)
I0715 11:38:26.611627  8010 net.cpp:205] Memory required for data: 295174148
I0715 11:38:26.611629  8010 layer_factory.hpp:123] Creating layer Concat_4
I0715 11:38:26.611635  8010 net.cpp:140] Creating Layer Concat_4
I0715 11:38:26.611639  8010 net.cpp:481] Concat_4 <- ConvNd_15
I0715 11:38:26.611644  8010 net.cpp:481] Concat_4 <- ConvNd_16_ConvNd_16_0_split_1
I0715 11:38:26.611646  8010 net.cpp:481] Concat_4 <- Add_8_Add_8_0_split_1
I0715 11:38:26.611651  8010 net.cpp:481] Concat_4 <- Add_9_Add_9_0_split_1
I0715 11:38:26.611654  8010 net.cpp:481] Concat_4 <- Add_10
I0715 11:38:26.611660  8010 net.cpp:455] Concat_4 -> Concat_4
I0715 11:38:26.611677  8010 net.cpp:190] Setting up Concat_4
I0715 11:38:26.611683  8010 net.cpp:197] Top shape: 1 64 128 256 (2097152)
I0715 11:38:26.611686  8010 net.cpp:205] Memory required for data: 303562756
I0715 11:38:26.611688  8010 layer_factory.hpp:123] Creating layer Add_11
I0715 11:38:26.611693  8010 net.cpp:140] Creating Layer Add_11
I0715 11:38:26.611697  8010 net.cpp:481] Add_11 <- BatchNorm_4_Threshold_4_0_split_1
I0715 11:38:26.611701  8010 net.cpp:481] Add_11 <- Concat_4
I0715 11:38:26.611706  8010 net.cpp:455] Add_11 -> Add_11
I0715 11:38:26.611721  8010 net.cpp:190] Setting up Add_11
I0715 11:38:26.611727  8010 net.cpp:197] Top shape: 1 64 128 256 (2097152)
I0715 11:38:26.611730  8010 net.cpp:205] Memory required for data: 311951364
I0715 11:38:26.611732  8010 layer_factory.hpp:123] Creating layer BatchNorm_5
I0715 11:38:26.611739  8010 net.cpp:140] Creating Layer BatchNorm_5
I0715 11:38:26.611744  8010 net.cpp:481] BatchNorm_5 <- Add_11
I0715 11:38:26.611749  8010 net.cpp:455] BatchNorm_5 -> BatchNorm_5
I0715 11:38:26.612357  8010 net.cpp:190] Setting up BatchNorm_5
I0715 11:38:26.612366  8010 net.cpp:197] Top shape: 1 64 128 256 (2097152)
I0715 11:38:26.612370  8010 net.cpp:205] Memory required for data: 320339972
I0715 11:38:26.612377  8010 layer_factory.hpp:123] Creating layer Threshold_5
I0715 11:38:26.612385  8010 net.cpp:140] Creating Layer Threshold_5
I0715 11:38:26.612387  8010 net.cpp:481] Threshold_5 <- BatchNorm_5
I0715 11:38:26.612392  8010 net.cpp:442] Threshold_5 -> BatchNorm_5 (in-place)
I0715 11:38:26.612399  8010 net.cpp:190] Setting up Threshold_5
I0715 11:38:26.612404  8010 net.cpp:197] Top shape: 1 64 128 256 (2097152)
I0715 11:38:26.612406  8010 net.cpp:205] Memory required for data: 328728580
I0715 11:38:26.612411  8010 layer_factory.hpp:123] Creating layer AvgPool2d_2
I0715 11:38:26.612416  8010 net.cpp:140] Creating Layer AvgPool2d_2
I0715 11:38:26.612419  8010 net.cpp:481] AvgPool2d_2 <- data_data_0_split_2
I0715 11:38:26.612424  8010 net.cpp:455] AvgPool2d_2 -> AvgPool2d_2
I0715 11:38:26.612447  8010 net.cpp:190] Setting up AvgPool2d_2
I0715 11:38:26.612452  8010 net.cpp:197] Top shape: 1 3 256 512 (393216)
I0715 11:38:26.612454  8010 net.cpp:205] Memory required for data: 330301444
I0715 11:38:26.612457  8010 layer_factory.hpp:123] Creating layer AvgPool2d_3
I0715 11:38:26.612462  8010 net.cpp:140] Creating Layer AvgPool2d_3
I0715 11:38:26.612468  8010 net.cpp:481] AvgPool2d_3 <- AvgPool2d_2
I0715 11:38:26.612473  8010 net.cpp:455] AvgPool2d_3 -> AvgPool2d_3
I0715 11:38:26.612489  8010 net.cpp:190] Setting up AvgPool2d_3
I0715 11:38:26.612495  8010 net.cpp:197] Top shape: 1 3 128 256 (98304)
I0715 11:38:26.612498  8010 net.cpp:205] Memory required for data: 330694660
I0715 11:38:26.612500  8010 layer_factory.hpp:123] Creating layer Concat_5
I0715 11:38:26.612507  8010 net.cpp:140] Creating Layer Concat_5
I0715 11:38:26.612512  8010 net.cpp:481] Concat_5 <- BatchNorm_5
I0715 11:38:26.612516  8010 net.cpp:481] Concat_5 <- BatchNorm_3_Threshold_3_0_split_2
I0715 11:38:26.612520  8010 net.cpp:481] Concat_5 <- AvgPool2d_3
I0715 11:38:26.612525  8010 net.cpp:455] Concat_5 -> Concat_5
I0715 11:38:26.612543  8010 net.cpp:190] Setting up Concat_5
I0715 11:38:26.612550  8010 net.cpp:197] Top shape: 1 131 128 256 (4292608)
I0715 11:38:26.612551  8010 net.cpp:205] Memory required for data: 347865092
I0715 11:38:26.612555  8010 layer_factory.hpp:123] Creating layer BatchNorm_6
I0715 11:38:26.612561  8010 net.cpp:140] Creating Layer BatchNorm_6
I0715 11:38:26.612566  8010 net.cpp:481] BatchNorm_6 <- Concat_5
I0715 11:38:26.612571  8010 net.cpp:455] BatchNorm_6 -> BatchNorm_6
I0715 11:38:26.613162  8010 net.cpp:190] Setting up BatchNorm_6
I0715 11:38:26.613171  8010 net.cpp:197] Top shape: 1 131 128 256 (4292608)
I0715 11:38:26.613174  8010 net.cpp:205] Memory required for data: 365035524
I0715 11:38:26.613181  8010 layer_factory.hpp:123] Creating layer Threshold_6
I0715 11:38:26.613188  8010 net.cpp:140] Creating Layer Threshold_6
I0715 11:38:26.613191  8010 net.cpp:481] Threshold_6 <- BatchNorm_6
I0715 11:38:26.613196  8010 net.cpp:442] Threshold_6 -> BatchNorm_6 (in-place)
I0715 11:38:26.613202  8010 net.cpp:190] Setting up Threshold_6
I0715 11:38:26.613209  8010 net.cpp:197] Top shape: 1 131 128 256 (4292608)
I0715 11:38:26.613211  8010 net.cpp:205] Memory required for data: 382205956
I0715 11:38:26.613214  8010 layer_factory.hpp:123] Creating layer BatchNorm_6_Threshold_6_0_split
I0715 11:38:26.613219  8010 net.cpp:140] Creating Layer BatchNorm_6_Threshold_6_0_split
I0715 11:38:26.613224  8010 net.cpp:481] BatchNorm_6_Threshold_6_0_split <- BatchNorm_6
I0715 11:38:26.613229  8010 net.cpp:455] BatchNorm_6_Threshold_6_0_split -> BatchNorm_6_Threshold_6_0_split_0
I0715 11:38:26.613234  8010 net.cpp:455] BatchNorm_6_Threshold_6_0_split -> BatchNorm_6_Threshold_6_0_split_1
I0715 11:38:26.613262  8010 net.cpp:190] Setting up BatchNorm_6_Threshold_6_0_split
I0715 11:38:26.613267  8010 net.cpp:197] Top shape: 1 131 128 256 (4292608)
I0715 11:38:26.613271  8010 net.cpp:197] Top shape: 1 131 128 256 (4292608)
I0715 11:38:26.613274  8010 net.cpp:205] Memory required for data: 416546820
I0715 11:38:26.613277  8010 layer_factory.hpp:123] Creating layer ConvNd_20
I0715 11:38:26.613284  8010 net.cpp:140] Creating Layer ConvNd_20
I0715 11:38:26.613289  8010 net.cpp:481] ConvNd_20 <- BatchNorm_6_Threshold_6_0_split_0
I0715 11:38:26.613296  8010 net.cpp:455] ConvNd_20 -> ConvNd_20
I0715 11:38:26.613484  8010 net.cpp:190] Setting up ConvNd_20
I0715 11:38:26.613492  8010 net.cpp:197] Top shape: 1 19 128 256 (622592)
I0715 11:38:26.613494  8010 net.cpp:205] Memory required for data: 419037188
I0715 11:38:26.613499  8010 layer_factory.hpp:123] Creating layer ConvNd_21
I0715 11:38:26.613507  8010 net.cpp:140] Creating Layer ConvNd_21
I0715 11:38:26.613512  8010 net.cpp:481] ConvNd_21 <- BatchNorm_6_Threshold_6_0_split_1
I0715 11:38:26.613518  8010 net.cpp:455] ConvNd_21 -> ConvNd_21
I0715 11:38:26.613934  8010 net.cpp:190] Setting up ConvNd_21
I0715 11:38:26.613941  8010 net.cpp:197] Top shape: 1 25 64 128 (204800)
I0715 11:38:26.613945  8010 net.cpp:205] Memory required for data: 419856388
I0715 11:38:26.613950  8010 layer_factory.hpp:123] Creating layer ConvNd_21_ConvNd_21_0_split
I0715 11:38:26.613955  8010 net.cpp:140] Creating Layer ConvNd_21_ConvNd_21_0_split
I0715 11:38:26.613958  8010 net.cpp:481] ConvNd_21_ConvNd_21_0_split <- ConvNd_21
I0715 11:38:26.613965  8010 net.cpp:455] ConvNd_21_ConvNd_21_0_split -> ConvNd_21_ConvNd_21_0_split_0
I0715 11:38:26.613972  8010 net.cpp:455] ConvNd_21_ConvNd_21_0_split -> ConvNd_21_ConvNd_21_0_split_1
I0715 11:38:26.613979  8010 net.cpp:455] ConvNd_21_ConvNd_21_0_split -> ConvNd_21_ConvNd_21_0_split_2
I0715 11:38:26.613986  8010 net.cpp:455] ConvNd_21_ConvNd_21_0_split -> ConvNd_21_ConvNd_21_0_split_3
I0715 11:38:26.613991  8010 net.cpp:455] ConvNd_21_ConvNd_21_0_split -> ConvNd_21_ConvNd_21_0_split_4
I0715 11:38:26.614049  8010 net.cpp:190] Setting up ConvNd_21_ConvNd_21_0_split
I0715 11:38:26.614055  8010 net.cpp:197] Top shape: 1 25 64 128 (204800)
I0715 11:38:26.614058  8010 net.cpp:197] Top shape: 1 25 64 128 (204800)
I0715 11:38:26.614063  8010 net.cpp:197] Top shape: 1 25 64 128 (204800)
I0715 11:38:26.614066  8010 net.cpp:197] Top shape: 1 25 64 128 (204800)
I0715 11:38:26.614069  8010 net.cpp:197] Top shape: 1 25 64 128 (204800)
I0715 11:38:26.614073  8010 net.cpp:205] Memory required for data: 423952388
I0715 11:38:26.614075  8010 layer_factory.hpp:123] Creating layer ConvNd_22
I0715 11:38:26.614082  8010 net.cpp:140] Creating Layer ConvNd_22
I0715 11:38:26.614086  8010 net.cpp:481] ConvNd_22 <- ConvNd_21_ConvNd_21_0_split_0
I0715 11:38:26.614091  8010 net.cpp:455] ConvNd_22 -> ConvNd_22
I0715 11:38:26.615072  8010 net.cpp:190] Setting up ConvNd_22
I0715 11:38:26.615083  8010 net.cpp:197] Top shape: 1 28 64 128 (229376)
I0715 11:38:26.615087  8010 net.cpp:205] Memory required for data: 424869892
I0715 11:38:26.615092  8010 layer_factory.hpp:123] Creating layer ConvNd_23
I0715 11:38:26.615099  8010 net.cpp:140] Creating Layer ConvNd_23
I0715 11:38:26.615103  8010 net.cpp:481] ConvNd_23 <- ConvNd_21_ConvNd_21_0_split_1
I0715 11:38:26.615108  8010 net.cpp:455] ConvNd_23 -> ConvNd_23
I0715 11:38:26.615324  8010 net.cpp:190] Setting up ConvNd_23
I0715 11:38:26.615330  8010 net.cpp:197] Top shape: 1 25 64 128 (204800)
I0715 11:38:26.615334  8010 net.cpp:205] Memory required for data: 425689092
I0715 11:38:26.615339  8010 layer_factory.hpp:123] Creating layer ConvNd_23_ConvNd_23_0_split
I0715 11:38:26.615344  8010 net.cpp:140] Creating Layer ConvNd_23_ConvNd_23_0_split
I0715 11:38:26.615348  8010 net.cpp:481] ConvNd_23_ConvNd_23_0_split <- ConvNd_23
I0715 11:38:26.615353  8010 net.cpp:455] ConvNd_23_ConvNd_23_0_split -> ConvNd_23_ConvNd_23_0_split_0
I0715 11:38:26.615360  8010 net.cpp:455] ConvNd_23_ConvNd_23_0_split -> ConvNd_23_ConvNd_23_0_split_1
I0715 11:38:26.615391  8010 net.cpp:190] Setting up ConvNd_23_ConvNd_23_0_split
I0715 11:38:26.615396  8010 net.cpp:197] Top shape: 1 25 64 128 (204800)
I0715 11:38:26.615399  8010 net.cpp:197] Top shape: 1 25 64 128 (204800)
I0715 11:38:26.615411  8010 net.cpp:205] Memory required for data: 427327492
I0715 11:38:26.615413  8010 layer_factory.hpp:123] Creating layer ConvNd_24
I0715 11:38:26.615420  8010 net.cpp:140] Creating Layer ConvNd_24
I0715 11:38:26.615424  8010 net.cpp:481] ConvNd_24 <- ConvNd_21_ConvNd_21_0_split_2
I0715 11:38:26.615429  8010 net.cpp:455] ConvNd_24 -> ConvNd_24
I0715 11:38:26.615638  8010 net.cpp:190] Setting up ConvNd_24
I0715 11:38:26.615643  8010 net.cpp:197] Top shape: 1 25 64 128 (204800)
I0715 11:38:26.615646  8010 net.cpp:205] Memory required for data: 428146692
I0715 11:38:26.615650  8010 layer_factory.hpp:123] Creating layer Add_12
I0715 11:38:26.615656  8010 net.cpp:140] Creating Layer Add_12
I0715 11:38:26.615659  8010 net.cpp:481] Add_12 <- ConvNd_23_ConvNd_23_0_split_0
I0715 11:38:26.615664  8010 net.cpp:481] Add_12 <- ConvNd_24
I0715 11:38:26.615669  8010 net.cpp:455] Add_12 -> Add_12
I0715 11:38:26.615686  8010 net.cpp:190] Setting up Add_12
I0715 11:38:26.615692  8010 net.cpp:197] Top shape: 1 25 64 128 (204800)
I0715 11:38:26.615695  8010 net.cpp:205] Memory required for data: 428965892
I0715 11:38:26.615698  8010 layer_factory.hpp:123] Creating layer Add_12_Add_12_0_split
I0715 11:38:26.615703  8010 net.cpp:140] Creating Layer Add_12_Add_12_0_split
I0715 11:38:26.615706  8010 net.cpp:481] Add_12_Add_12_0_split <- Add_12
I0715 11:38:26.615711  8010 net.cpp:455] Add_12_Add_12_0_split -> Add_12_Add_12_0_split_0
I0715 11:38:26.615717  8010 net.cpp:455] Add_12_Add_12_0_split -> Add_12_Add_12_0_split_1
I0715 11:38:26.615744  8010 net.cpp:190] Setting up Add_12_Add_12_0_split
I0715 11:38:26.615751  8010 net.cpp:197] Top shape: 1 25 64 128 (204800)
I0715 11:38:26.615763  8010 net.cpp:197] Top shape: 1 25 64 128 (204800)
I0715 11:38:26.615767  8010 net.cpp:205] Memory required for data: 430604292
I0715 11:38:26.615770  8010 layer_factory.hpp:123] Creating layer ConvNd_25
I0715 11:38:26.615777  8010 net.cpp:140] Creating Layer ConvNd_25
I0715 11:38:26.615780  8010 net.cpp:481] ConvNd_25 <- ConvNd_21_ConvNd_21_0_split_3
I0715 11:38:26.615787  8010 net.cpp:455] ConvNd_25 -> ConvNd_25
I0715 11:38:26.615998  8010 net.cpp:190] Setting up ConvNd_25
I0715 11:38:26.616004  8010 net.cpp:197] Top shape: 1 25 64 128 (204800)
I0715 11:38:26.616008  8010 net.cpp:205] Memory required for data: 431423492
I0715 11:38:26.616012  8010 layer_factory.hpp:123] Creating layer Add_13
I0715 11:38:26.616017  8010 net.cpp:140] Creating Layer Add_13
I0715 11:38:26.616020  8010 net.cpp:481] Add_13 <- Add_12_Add_12_0_split_0
I0715 11:38:26.616025  8010 net.cpp:481] Add_13 <- ConvNd_25
I0715 11:38:26.616030  8010 net.cpp:455] Add_13 -> Add_13
I0715 11:38:26.616048  8010 net.cpp:190] Setting up Add_13
I0715 11:38:26.616055  8010 net.cpp:197] Top shape: 1 25 64 128 (204800)
I0715 11:38:26.616057  8010 net.cpp:205] Memory required for data: 432242692
I0715 11:38:26.616060  8010 layer_factory.hpp:123] Creating layer Add_13_Add_13_0_split
I0715 11:38:26.616065  8010 net.cpp:140] Creating Layer Add_13_Add_13_0_split
I0715 11:38:26.616067  8010 net.cpp:481] Add_13_Add_13_0_split <- Add_13
I0715 11:38:26.616072  8010 net.cpp:455] Add_13_Add_13_0_split -> Add_13_Add_13_0_split_0
I0715 11:38:26.616078  8010 net.cpp:455] Add_13_Add_13_0_split -> Add_13_Add_13_0_split_1
I0715 11:38:26.616106  8010 net.cpp:190] Setting up Add_13_Add_13_0_split
I0715 11:38:26.616111  8010 net.cpp:197] Top shape: 1 25 64 128 (204800)
I0715 11:38:26.616114  8010 net.cpp:197] Top shape: 1 25 64 128 (204800)
I0715 11:38:26.616117  8010 net.cpp:205] Memory required for data: 433881092
I0715 11:38:26.616120  8010 layer_factory.hpp:123] Creating layer ConvNd_26
I0715 11:38:26.616127  8010 net.cpp:140] Creating Layer ConvNd_26
I0715 11:38:26.616130  8010 net.cpp:481] ConvNd_26 <- ConvNd_21_ConvNd_21_0_split_4
I0715 11:38:26.616137  8010 net.cpp:455] ConvNd_26 -> ConvNd_26
I0715 11:38:26.616341  8010 net.cpp:190] Setting up ConvNd_26
I0715 11:38:26.616348  8010 net.cpp:197] Top shape: 1 25 64 128 (204800)
I0715 11:38:26.616350  8010 net.cpp:205] Memory required for data: 434700292
I0715 11:38:26.616355  8010 layer_factory.hpp:123] Creating layer Add_14
I0715 11:38:26.616359  8010 net.cpp:140] Creating Layer Add_14
I0715 11:38:26.616364  8010 net.cpp:481] Add_14 <- Add_13_Add_13_0_split_0
I0715 11:38:26.616367  8010 net.cpp:481] Add_14 <- ConvNd_26
I0715 11:38:26.616372  8010 net.cpp:455] Add_14 -> Add_14
I0715 11:38:26.616390  8010 net.cpp:190] Setting up Add_14
I0715 11:38:26.616395  8010 net.cpp:197] Top shape: 1 25 64 128 (204800)
I0715 11:38:26.616398  8010 net.cpp:205] Memory required for data: 435519492
I0715 11:38:26.616401  8010 layer_factory.hpp:123] Creating layer Concat_6
I0715 11:38:26.616407  8010 net.cpp:140] Creating Layer Concat_6
I0715 11:38:26.616410  8010 net.cpp:481] Concat_6 <- ConvNd_22
I0715 11:38:26.616415  8010 net.cpp:481] Concat_6 <- ConvNd_23_ConvNd_23_0_split_1
I0715 11:38:26.616418  8010 net.cpp:481] Concat_6 <- Add_12_Add_12_0_split_1
I0715 11:38:26.616422  8010 net.cpp:481] Concat_6 <- Add_13_Add_13_0_split_1
I0715 11:38:26.616425  8010 net.cpp:481] Concat_6 <- Add_14
I0715 11:38:26.616430  8010 net.cpp:455] Concat_6 -> Concat_6
I0715 11:38:26.616449  8010 net.cpp:190] Setting up Concat_6
I0715 11:38:26.616454  8010 net.cpp:197] Top shape: 1 128 64 128 (1048576)
I0715 11:38:26.616457  8010 net.cpp:205] Memory required for data: 439713796
I0715 11:38:26.616461  8010 layer_factory.hpp:123] Creating layer BatchNorm_7
I0715 11:38:26.616466  8010 net.cpp:140] Creating Layer BatchNorm_7
I0715 11:38:26.616469  8010 net.cpp:481] BatchNorm_7 <- Concat_6
I0715 11:38:26.616474  8010 net.cpp:455] BatchNorm_7 -> BatchNorm_7
I0715 11:38:26.616998  8010 net.cpp:190] Setting up BatchNorm_7
I0715 11:38:26.617007  8010 net.cpp:197] Top shape: 1 128 64 128 (1048576)
I0715 11:38:26.617009  8010 net.cpp:205] Memory required for data: 443908100
I0715 11:38:26.617017  8010 layer_factory.hpp:123] Creating layer Threshold_7
I0715 11:38:26.617024  8010 net.cpp:140] Creating Layer Threshold_7
I0715 11:38:26.617028  8010 net.cpp:481] Threshold_7 <- BatchNorm_7
I0715 11:38:26.617033  8010 net.cpp:442] Threshold_7 -> BatchNorm_7 (in-place)
I0715 11:38:26.617038  8010 net.cpp:190] Setting up Threshold_7
I0715 11:38:26.617043  8010 net.cpp:197] Top shape: 1 128 64 128 (1048576)
I0715 11:38:26.617045  8010 net.cpp:205] Memory required for data: 448102404
I0715 11:38:26.617048  8010 layer_factory.hpp:123] Creating layer BatchNorm_7_Threshold_7_0_split
I0715 11:38:26.617053  8010 net.cpp:140] Creating Layer BatchNorm_7_Threshold_7_0_split
I0715 11:38:26.617056  8010 net.cpp:481] BatchNorm_7_Threshold_7_0_split <- BatchNorm_7
I0715 11:38:26.617061  8010 net.cpp:455] BatchNorm_7_Threshold_7_0_split -> BatchNorm_7_Threshold_7_0_split_0
I0715 11:38:26.617067  8010 net.cpp:455] BatchNorm_7_Threshold_7_0_split -> BatchNorm_7_Threshold_7_0_split_1
I0715 11:38:26.617074  8010 net.cpp:455] BatchNorm_7_Threshold_7_0_split -> BatchNorm_7_Threshold_7_0_split_2
I0715 11:38:26.617111  8010 net.cpp:190] Setting up BatchNorm_7_Threshold_7_0_split
I0715 11:38:26.617117  8010 net.cpp:197] Top shape: 1 128 64 128 (1048576)
I0715 11:38:26.617121  8010 net.cpp:197] Top shape: 1 128 64 128 (1048576)
I0715 11:38:26.617125  8010 net.cpp:197] Top shape: 1 128 64 128 (1048576)
I0715 11:38:26.617127  8010 net.cpp:205] Memory required for data: 460685316
I0715 11:38:26.617130  8010 layer_factory.hpp:123] Creating layer ConvNd_27
I0715 11:38:26.617137  8010 net.cpp:140] Creating Layer ConvNd_27
I0715 11:38:26.617141  8010 net.cpp:481] ConvNd_27 <- BatchNorm_7_Threshold_7_0_split_0
I0715 11:38:26.617146  8010 net.cpp:455] ConvNd_27 -> ConvNd_27
I0715 11:38:26.617336  8010 net.cpp:190] Setting up ConvNd_27
I0715 11:38:26.617343  8010 net.cpp:197] Top shape: 1 25 64 128 (204800)
I0715 11:38:26.617347  8010 net.cpp:205] Memory required for data: 461504516
I0715 11:38:26.617350  8010 layer_factory.hpp:123] Creating layer ConvNd_27_ConvNd_27_0_split
I0715 11:38:26.617357  8010 net.cpp:140] Creating Layer ConvNd_27_ConvNd_27_0_split
I0715 11:38:26.617359  8010 net.cpp:481] ConvNd_27_ConvNd_27_0_split <- ConvNd_27
I0715 11:38:26.617364  8010 net.cpp:455] ConvNd_27_ConvNd_27_0_split -> ConvNd_27_ConvNd_27_0_split_0
I0715 11:38:26.617372  8010 net.cpp:455] ConvNd_27_ConvNd_27_0_split -> ConvNd_27_ConvNd_27_0_split_1
I0715 11:38:26.617377  8010 net.cpp:455] ConvNd_27_ConvNd_27_0_split -> ConvNd_27_ConvNd_27_0_split_2
I0715 11:38:26.617386  8010 net.cpp:455] ConvNd_27_ConvNd_27_0_split -> ConvNd_27_ConvNd_27_0_split_3
I0715 11:38:26.617391  8010 net.cpp:455] ConvNd_27_ConvNd_27_0_split -> ConvNd_27_ConvNd_27_0_split_4
I0715 11:38:26.617447  8010 net.cpp:190] Setting up ConvNd_27_ConvNd_27_0_split
I0715 11:38:26.617455  8010 net.cpp:197] Top shape: 1 25 64 128 (204800)
I0715 11:38:26.617457  8010 net.cpp:197] Top shape: 1 25 64 128 (204800)
I0715 11:38:26.617461  8010 net.cpp:197] Top shape: 1 25 64 128 (204800)
I0715 11:38:26.617465  8010 net.cpp:197] Top shape: 1 25 64 128 (204800)
I0715 11:38:26.617468  8010 net.cpp:197] Top shape: 1 25 64 128 (204800)
I0715 11:38:26.617471  8010 net.cpp:205] Memory required for data: 465600516
I0715 11:38:26.617475  8010 layer_factory.hpp:123] Creating layer ConvNd_28
I0715 11:38:26.617480  8010 net.cpp:140] Creating Layer ConvNd_28
I0715 11:38:26.617485  8010 net.cpp:481] ConvNd_28 <- ConvNd_27_ConvNd_27_0_split_0
I0715 11:38:26.617489  8010 net.cpp:455] ConvNd_28 -> ConvNd_28
I0715 11:38:26.617704  8010 net.cpp:190] Setting up ConvNd_28
I0715 11:38:26.617712  8010 net.cpp:197] Top shape: 1 28 64 128 (229376)
I0715 11:38:26.617714  8010 net.cpp:205] Memory required for data: 466518020
I0715 11:38:26.617718  8010 layer_factory.hpp:123] Creating layer ConvNd_29
I0715 11:38:26.617725  8010 net.cpp:140] Creating Layer ConvNd_29
I0715 11:38:26.617729  8010 net.cpp:481] ConvNd_29 <- ConvNd_27_ConvNd_27_0_split_1
I0715 11:38:26.617734  8010 net.cpp:455] ConvNd_29 -> ConvNd_29
I0715 11:38:26.617941  8010 net.cpp:190] Setting up ConvNd_29
I0715 11:38:26.617949  8010 net.cpp:197] Top shape: 1 25 64 128 (204800)
I0715 11:38:26.617951  8010 net.cpp:205] Memory required for data: 467337220
I0715 11:38:26.617955  8010 layer_factory.hpp:123] Creating layer ConvNd_29_ConvNd_29_0_split
I0715 11:38:26.617960  8010 net.cpp:140] Creating Layer ConvNd_29_ConvNd_29_0_split
I0715 11:38:26.617964  8010 net.cpp:481] ConvNd_29_ConvNd_29_0_split <- ConvNd_29
I0715 11:38:26.617969  8010 net.cpp:455] ConvNd_29_ConvNd_29_0_split -> ConvNd_29_ConvNd_29_0_split_0
I0715 11:38:26.617974  8010 net.cpp:455] ConvNd_29_ConvNd_29_0_split -> ConvNd_29_ConvNd_29_0_split_1
I0715 11:38:26.618002  8010 net.cpp:190] Setting up ConvNd_29_ConvNd_29_0_split
I0715 11:38:26.618008  8010 net.cpp:197] Top shape: 1 25 64 128 (204800)
I0715 11:38:26.618011  8010 net.cpp:197] Top shape: 1 25 64 128 (204800)
I0715 11:38:26.618014  8010 net.cpp:205] Memory required for data: 468975620
I0715 11:38:26.618017  8010 layer_factory.hpp:123] Creating layer ConvNd_30
I0715 11:38:26.618024  8010 net.cpp:140] Creating Layer ConvNd_30
I0715 11:38:26.618027  8010 net.cpp:481] ConvNd_30 <- ConvNd_27_ConvNd_27_0_split_2
I0715 11:38:26.618032  8010 net.cpp:455] ConvNd_30 -> ConvNd_30
I0715 11:38:26.618235  8010 net.cpp:190] Setting up ConvNd_30
I0715 11:38:26.618242  8010 net.cpp:197] Top shape: 1 25 64 128 (204800)
I0715 11:38:26.618245  8010 net.cpp:205] Memory required for data: 469794820
I0715 11:38:26.618253  8010 layer_factory.hpp:123] Creating layer Add_15
I0715 11:38:26.618258  8010 net.cpp:140] Creating Layer Add_15
I0715 11:38:26.618263  8010 net.cpp:481] Add_15 <- ConvNd_29_ConvNd_29_0_split_0
I0715 11:38:26.618266  8010 net.cpp:481] Add_15 <- ConvNd_30
I0715 11:38:26.618271  8010 net.cpp:455] Add_15 -> Add_15
I0715 11:38:26.618294  8010 net.cpp:190] Setting up Add_15
I0715 11:38:26.618300  8010 net.cpp:197] Top shape: 1 25 64 128 (204800)
I0715 11:38:26.618304  8010 net.cpp:205] Memory required for data: 470614020
I0715 11:38:26.618306  8010 layer_factory.hpp:123] Creating layer Add_15_Add_15_0_split
I0715 11:38:26.618311  8010 net.cpp:140] Creating Layer Add_15_Add_15_0_split
I0715 11:38:26.618314  8010 net.cpp:481] Add_15_Add_15_0_split <- Add_15
I0715 11:38:26.618319  8010 net.cpp:455] Add_15_Add_15_0_split -> Add_15_Add_15_0_split_0
I0715 11:38:26.618325  8010 net.cpp:455] Add_15_Add_15_0_split -> Add_15_Add_15_0_split_1
I0715 11:38:26.618353  8010 net.cpp:190] Setting up Add_15_Add_15_0_split
I0715 11:38:26.618358  8010 net.cpp:197] Top shape: 1 25 64 128 (204800)
I0715 11:38:26.618362  8010 net.cpp:197] Top shape: 1 25 64 128 (204800)
I0715 11:38:26.618366  8010 net.cpp:205] Memory required for data: 472252420
I0715 11:38:26.618368  8010 layer_factory.hpp:123] Creating layer ConvNd_31
I0715 11:38:26.618376  8010 net.cpp:140] Creating Layer ConvNd_31
I0715 11:38:26.618378  8010 net.cpp:481] ConvNd_31 <- ConvNd_27_ConvNd_27_0_split_3
I0715 11:38:26.618383  8010 net.cpp:455] ConvNd_31 -> ConvNd_31
I0715 11:38:26.618590  8010 net.cpp:190] Setting up ConvNd_31
I0715 11:38:26.618597  8010 net.cpp:197] Top shape: 1 25 64 128 (204800)
I0715 11:38:26.618600  8010 net.cpp:205] Memory required for data: 473071620
I0715 11:38:26.618604  8010 layer_factory.hpp:123] Creating layer Add_16
I0715 11:38:26.618609  8010 net.cpp:140] Creating Layer Add_16
I0715 11:38:26.618613  8010 net.cpp:481] Add_16 <- Add_15_Add_15_0_split_0
I0715 11:38:26.618618  8010 net.cpp:481] Add_16 <- ConvNd_31
I0715 11:38:26.618621  8010 net.cpp:455] Add_16 -> Add_16
I0715 11:38:26.618639  8010 net.cpp:190] Setting up Add_16
I0715 11:38:26.618645  8010 net.cpp:197] Top shape: 1 25 64 128 (204800)
I0715 11:38:26.618647  8010 net.cpp:205] Memory required for data: 473890820
I0715 11:38:26.618650  8010 layer_factory.hpp:123] Creating layer Add_16_Add_16_0_split
I0715 11:38:26.618655  8010 net.cpp:140] Creating Layer Add_16_Add_16_0_split
I0715 11:38:26.618659  8010 net.cpp:481] Add_16_Add_16_0_split <- Add_16
I0715 11:38:26.618664  8010 net.cpp:455] Add_16_Add_16_0_split -> Add_16_Add_16_0_split_0
I0715 11:38:26.618669  8010 net.cpp:455] Add_16_Add_16_0_split -> Add_16_Add_16_0_split_1
I0715 11:38:26.618695  8010 net.cpp:190] Setting up Add_16_Add_16_0_split
I0715 11:38:26.618700  8010 net.cpp:197] Top shape: 1 25 64 128 (204800)
I0715 11:38:26.618705  8010 net.cpp:197] Top shape: 1 25 64 128 (204800)
I0715 11:38:26.618706  8010 net.cpp:205] Memory required for data: 475529220
I0715 11:38:26.618710  8010 layer_factory.hpp:123] Creating layer ConvNd_32
I0715 11:38:26.618716  8010 net.cpp:140] Creating Layer ConvNd_32
I0715 11:38:26.618721  8010 net.cpp:481] ConvNd_32 <- ConvNd_27_ConvNd_27_0_split_4
I0715 11:38:26.618726  8010 net.cpp:455] ConvNd_32 -> ConvNd_32
I0715 11:38:26.618932  8010 net.cpp:190] Setting up ConvNd_32
I0715 11:38:26.618938  8010 net.cpp:197] Top shape: 1 25 64 128 (204800)
I0715 11:38:26.618942  8010 net.cpp:205] Memory required for data: 476348420
I0715 11:38:26.618945  8010 layer_factory.hpp:123] Creating layer Add_17
I0715 11:38:26.618950  8010 net.cpp:140] Creating Layer Add_17
I0715 11:38:26.618954  8010 net.cpp:481] Add_17 <- Add_16_Add_16_0_split_0
I0715 11:38:26.618958  8010 net.cpp:481] Add_17 <- ConvNd_32
I0715 11:38:26.618963  8010 net.cpp:455] Add_17 -> Add_17
I0715 11:38:26.618981  8010 net.cpp:190] Setting up Add_17
I0715 11:38:26.618988  8010 net.cpp:197] Top shape: 1 25 64 128 (204800)
I0715 11:38:26.618990  8010 net.cpp:205] Memory required for data: 477167620
I0715 11:38:26.618993  8010 layer_factory.hpp:123] Creating layer Concat_7
I0715 11:38:26.618999  8010 net.cpp:140] Creating Layer Concat_7
I0715 11:38:26.619001  8010 net.cpp:481] Concat_7 <- ConvNd_28
I0715 11:38:26.619005  8010 net.cpp:481] Concat_7 <- ConvNd_29_ConvNd_29_0_split_1
I0715 11:38:26.619009  8010 net.cpp:481] Concat_7 <- Add_15_Add_15_0_split_1
I0715 11:38:26.619014  8010 net.cpp:481] Concat_7 <- Add_16_Add_16_0_split_1
I0715 11:38:26.619017  8010 net.cpp:481] Concat_7 <- Add_17
I0715 11:38:26.619021  8010 net.cpp:455] Concat_7 -> Concat_7
I0715 11:38:26.619040  8010 net.cpp:190] Setting up Concat_7
I0715 11:38:26.619045  8010 net.cpp:197] Top shape: 1 128 64 128 (1048576)
I0715 11:38:26.619048  8010 net.cpp:205] Memory required for data: 481361924
I0715 11:38:26.619050  8010 layer_factory.hpp:123] Creating layer Add_18
I0715 11:38:26.619055  8010 net.cpp:140] Creating Layer Add_18
I0715 11:38:26.619058  8010 net.cpp:481] Add_18 <- BatchNorm_7_Threshold_7_0_split_1
I0715 11:38:26.619062  8010 net.cpp:481] Add_18 <- Concat_7
I0715 11:38:26.619067  8010 net.cpp:455] Add_18 -> Add_18
I0715 11:38:26.619083  8010 net.cpp:190] Setting up Add_18
I0715 11:38:26.619089  8010 net.cpp:197] Top shape: 1 128 64 128 (1048576)
I0715 11:38:26.619091  8010 net.cpp:205] Memory required for data: 485556228
I0715 11:38:26.619094  8010 layer_factory.hpp:123] Creating layer BatchNorm_8
I0715 11:38:26.619102  8010 net.cpp:140] Creating Layer BatchNorm_8
I0715 11:38:26.619104  8010 net.cpp:481] BatchNorm_8 <- Add_18
I0715 11:38:26.619109  8010 net.cpp:455] BatchNorm_8 -> BatchNorm_8
I0715 11:38:26.619627  8010 net.cpp:190] Setting up BatchNorm_8
I0715 11:38:26.619635  8010 net.cpp:197] Top shape: 1 128 64 128 (1048576)
I0715 11:38:26.619638  8010 net.cpp:205] Memory required for data: 489750532
I0715 11:38:26.619647  8010 layer_factory.hpp:123] Creating layer Threshold_8
I0715 11:38:26.619652  8010 net.cpp:140] Creating Layer Threshold_8
I0715 11:38:26.619657  8010 net.cpp:481] Threshold_8 <- BatchNorm_8
I0715 11:38:26.619660  8010 net.cpp:442] Threshold_8 -> BatchNorm_8 (in-place)
I0715 11:38:26.619666  8010 net.cpp:190] Setting up Threshold_8
I0715 11:38:26.619670  8010 net.cpp:197] Top shape: 1 128 64 128 (1048576)
I0715 11:38:26.619673  8010 net.cpp:205] Memory required for data: 493944836
I0715 11:38:26.619676  8010 layer_factory.hpp:123] Creating layer BatchNorm_8_Threshold_8_0_split
I0715 11:38:26.619681  8010 net.cpp:140] Creating Layer BatchNorm_8_Threshold_8_0_split
I0715 11:38:26.619684  8010 net.cpp:481] BatchNorm_8_Threshold_8_0_split <- BatchNorm_8
I0715 11:38:26.619688  8010 net.cpp:455] BatchNorm_8_Threshold_8_0_split -> BatchNorm_8_Threshold_8_0_split_0
I0715 11:38:26.619694  8010 net.cpp:455] BatchNorm_8_Threshold_8_0_split -> BatchNorm_8_Threshold_8_0_split_1
I0715 11:38:26.619724  8010 net.cpp:190] Setting up BatchNorm_8_Threshold_8_0_split
I0715 11:38:26.619729  8010 net.cpp:197] Top shape: 1 128 64 128 (1048576)
I0715 11:38:26.619732  8010 net.cpp:197] Top shape: 1 128 64 128 (1048576)
I0715 11:38:26.619735  8010 net.cpp:205] Memory required for data: 502333444
I0715 11:38:26.619738  8010 layer_factory.hpp:123] Creating layer ConvNd_33
I0715 11:38:26.619745  8010 net.cpp:140] Creating Layer ConvNd_33
I0715 11:38:26.619748  8010 net.cpp:481] ConvNd_33 <- BatchNorm_8_Threshold_8_0_split_0
I0715 11:38:26.619758  8010 net.cpp:455] ConvNd_33 -> ConvNd_33
I0715 11:38:26.619947  8010 net.cpp:190] Setting up ConvNd_33
I0715 11:38:26.619956  8010 net.cpp:197] Top shape: 1 25 64 128 (204800)
I0715 11:38:26.619958  8010 net.cpp:205] Memory required for data: 503152644
I0715 11:38:26.619962  8010 layer_factory.hpp:123] Creating layer ConvNd_33_ConvNd_33_0_split
I0715 11:38:26.619968  8010 net.cpp:140] Creating Layer ConvNd_33_ConvNd_33_0_split
I0715 11:38:26.619971  8010 net.cpp:481] ConvNd_33_ConvNd_33_0_split <- ConvNd_33
I0715 11:38:26.619976  8010 net.cpp:455] ConvNd_33_ConvNd_33_0_split -> ConvNd_33_ConvNd_33_0_split_0
I0715 11:38:26.619983  8010 net.cpp:455] ConvNd_33_ConvNd_33_0_split -> ConvNd_33_ConvNd_33_0_split_1
I0715 11:38:26.619992  8010 net.cpp:455] ConvNd_33_ConvNd_33_0_split -> ConvNd_33_ConvNd_33_0_split_2
I0715 11:38:26.619997  8010 net.cpp:455] ConvNd_33_ConvNd_33_0_split -> ConvNd_33_ConvNd_33_0_split_3
I0715 11:38:26.620003  8010 net.cpp:455] ConvNd_33_ConvNd_33_0_split -> ConvNd_33_ConvNd_33_0_split_4
I0715 11:38:26.620059  8010 net.cpp:190] Setting up ConvNd_33_ConvNd_33_0_split
I0715 11:38:26.620064  8010 net.cpp:197] Top shape: 1 25 64 128 (204800)
I0715 11:38:26.620069  8010 net.cpp:197] Top shape: 1 25 64 128 (204800)
I0715 11:38:26.620071  8010 net.cpp:197] Top shape: 1 25 64 128 (204800)
I0715 11:38:26.620075  8010 net.cpp:197] Top shape: 1 25 64 128 (204800)
I0715 11:38:26.620079  8010 net.cpp:197] Top shape: 1 25 64 128 (204800)
I0715 11:38:26.620081  8010 net.cpp:205] Memory required for data: 507248644
I0715 11:38:26.620085  8010 layer_factory.hpp:123] Creating layer ConvNd_34
I0715 11:38:26.620092  8010 net.cpp:140] Creating Layer ConvNd_34
I0715 11:38:26.620095  8010 net.cpp:481] ConvNd_34 <- ConvNd_33_ConvNd_33_0_split_0
I0715 11:38:26.620100  8010 net.cpp:455] ConvNd_34 -> ConvNd_34
I0715 11:38:26.620316  8010 net.cpp:190] Setting up ConvNd_34
I0715 11:38:26.620322  8010 net.cpp:197] Top shape: 1 28 64 128 (229376)
I0715 11:38:26.620326  8010 net.cpp:205] Memory required for data: 508166148
I0715 11:38:26.620329  8010 layer_factory.hpp:123] Creating layer ConvNd_35
I0715 11:38:26.620337  8010 net.cpp:140] Creating Layer ConvNd_35
I0715 11:38:26.620340  8010 net.cpp:481] ConvNd_35 <- ConvNd_33_ConvNd_33_0_split_1
I0715 11:38:26.620345  8010 net.cpp:455] ConvNd_35 -> ConvNd_35
I0715 11:38:26.620554  8010 net.cpp:190] Setting up ConvNd_35
I0715 11:38:26.620561  8010 net.cpp:197] Top shape: 1 25 64 128 (204800)
I0715 11:38:26.620564  8010 net.cpp:205] Memory required for data: 508985348
I0715 11:38:26.620568  8010 layer_factory.hpp:123] Creating layer ConvNd_35_ConvNd_35_0_split
I0715 11:38:26.620573  8010 net.cpp:140] Creating Layer ConvNd_35_ConvNd_35_0_split
I0715 11:38:26.620576  8010 net.cpp:481] ConvNd_35_ConvNd_35_0_split <- ConvNd_35
I0715 11:38:26.620581  8010 net.cpp:455] ConvNd_35_ConvNd_35_0_split -> ConvNd_35_ConvNd_35_0_split_0
I0715 11:38:26.620589  8010 net.cpp:455] ConvNd_35_ConvNd_35_0_split -> ConvNd_35_ConvNd_35_0_split_1
I0715 11:38:26.620616  8010 net.cpp:190] Setting up ConvNd_35_ConvNd_35_0_split
I0715 11:38:26.620622  8010 net.cpp:197] Top shape: 1 25 64 128 (204800)
I0715 11:38:26.620626  8010 net.cpp:197] Top shape: 1 25 64 128 (204800)
I0715 11:38:26.620630  8010 net.cpp:205] Memory required for data: 510623748
I0715 11:38:26.620631  8010 layer_factory.hpp:123] Creating layer ConvNd_36
I0715 11:38:26.620638  8010 net.cpp:140] Creating Layer ConvNd_36
I0715 11:38:26.620641  8010 net.cpp:481] ConvNd_36 <- ConvNd_33_ConvNd_33_0_split_2
I0715 11:38:26.620646  8010 net.cpp:455] ConvNd_36 -> ConvNd_36
I0715 11:38:26.620852  8010 net.cpp:190] Setting up ConvNd_36
I0715 11:38:26.620858  8010 net.cpp:197] Top shape: 1 25 64 128 (204800)
I0715 11:38:26.620862  8010 net.cpp:205] Memory required for data: 511442948
I0715 11:38:26.620867  8010 layer_factory.hpp:123] Creating layer Add_19
I0715 11:38:26.620872  8010 net.cpp:140] Creating Layer Add_19
I0715 11:38:26.620874  8010 net.cpp:481] Add_19 <- ConvNd_35_ConvNd_35_0_split_0
I0715 11:38:26.620878  8010 net.cpp:481] Add_19 <- ConvNd_36
I0715 11:38:26.620883  8010 net.cpp:455] Add_19 -> Add_19
I0715 11:38:26.620903  8010 net.cpp:190] Setting up Add_19
I0715 11:38:26.620908  8010 net.cpp:197] Top shape: 1 25 64 128 (204800)
I0715 11:38:26.620910  8010 net.cpp:205] Memory required for data: 512262148
I0715 11:38:26.620913  8010 layer_factory.hpp:123] Creating layer Add_19_Add_19_0_split
I0715 11:38:26.620918  8010 net.cpp:140] Creating Layer Add_19_Add_19_0_split
I0715 11:38:26.620921  8010 net.cpp:481] Add_19_Add_19_0_split <- Add_19
I0715 11:38:26.620926  8010 net.cpp:455] Add_19_Add_19_0_split -> Add_19_Add_19_0_split_0
I0715 11:38:26.620932  8010 net.cpp:455] Add_19_Add_19_0_split -> Add_19_Add_19_0_split_1
I0715 11:38:26.620959  8010 net.cpp:190] Setting up Add_19_Add_19_0_split
I0715 11:38:26.620965  8010 net.cpp:197] Top shape: 1 25 64 128 (204800)
I0715 11:38:26.620967  8010 net.cpp:197] Top shape: 1 25 64 128 (204800)
I0715 11:38:26.620970  8010 net.cpp:205] Memory required for data: 513900548
I0715 11:38:26.620975  8010 layer_factory.hpp:123] Creating layer ConvNd_37
I0715 11:38:26.620980  8010 net.cpp:140] Creating Layer ConvNd_37
I0715 11:38:26.620983  8010 net.cpp:481] ConvNd_37 <- ConvNd_33_ConvNd_33_0_split_3
I0715 11:38:26.620990  8010 net.cpp:455] ConvNd_37 -> ConvNd_37
I0715 11:38:26.621196  8010 net.cpp:190] Setting up ConvNd_37
I0715 11:38:26.621202  8010 net.cpp:197] Top shape: 1 25 64 128 (204800)
I0715 11:38:26.621206  8010 net.cpp:205] Memory required for data: 514719748
I0715 11:38:26.621209  8010 layer_factory.hpp:123] Creating layer Add_20
I0715 11:38:26.621214  8010 net.cpp:140] Creating Layer Add_20
I0715 11:38:26.621217  8010 net.cpp:481] Add_20 <- Add_19_Add_19_0_split_0
I0715 11:38:26.621222  8010 net.cpp:481] Add_20 <- ConvNd_37
I0715 11:38:26.621227  8010 net.cpp:455] Add_20 -> Add_20
I0715 11:38:26.621244  8010 net.cpp:190] Setting up Add_20
I0715 11:38:26.621250  8010 net.cpp:197] Top shape: 1 25 64 128 (204800)
I0715 11:38:26.621253  8010 net.cpp:205] Memory required for data: 515538948
I0715 11:38:26.621256  8010 layer_factory.hpp:123] Creating layer Add_20_Add_20_0_split
I0715 11:38:26.621261  8010 net.cpp:140] Creating Layer Add_20_Add_20_0_split
I0715 11:38:26.621264  8010 net.cpp:481] Add_20_Add_20_0_split <- Add_20
I0715 11:38:26.621269  8010 net.cpp:455] Add_20_Add_20_0_split -> Add_20_Add_20_0_split_0
I0715 11:38:26.621275  8010 net.cpp:455] Add_20_Add_20_0_split -> Add_20_Add_20_0_split_1
I0715 11:38:26.621300  8010 net.cpp:190] Setting up Add_20_Add_20_0_split
I0715 11:38:26.621306  8010 net.cpp:197] Top shape: 1 25 64 128 (204800)
I0715 11:38:26.621309  8010 net.cpp:197] Top shape: 1 25 64 128 (204800)
I0715 11:38:26.621312  8010 net.cpp:205] Memory required for data: 517177348
I0715 11:38:26.621316  8010 layer_factory.hpp:123] Creating layer ConvNd_38
I0715 11:38:26.621322  8010 net.cpp:140] Creating Layer ConvNd_38
I0715 11:38:26.621326  8010 net.cpp:481] ConvNd_38 <- ConvNd_33_ConvNd_33_0_split_4
I0715 11:38:26.621331  8010 net.cpp:455] ConvNd_38 -> ConvNd_38
I0715 11:38:26.621534  8010 net.cpp:190] Setting up ConvNd_38
I0715 11:38:26.621541  8010 net.cpp:197] Top shape: 1 25 64 128 (204800)
I0715 11:38:26.621544  8010 net.cpp:205] Memory required for data: 517996548
I0715 11:38:26.621548  8010 layer_factory.hpp:123] Creating layer Add_21
I0715 11:38:26.621554  8010 net.cpp:140] Creating Layer Add_21
I0715 11:38:26.621557  8010 net.cpp:481] Add_21 <- Add_20_Add_20_0_split_0
I0715 11:38:26.621562  8010 net.cpp:481] Add_21 <- ConvNd_38
I0715 11:38:26.621567  8010 net.cpp:455] Add_21 -> Add_21
I0715 11:38:26.621584  8010 net.cpp:190] Setting up Add_21
I0715 11:38:26.621589  8010 net.cpp:197] Top shape: 1 25 64 128 (204800)
I0715 11:38:26.621592  8010 net.cpp:205] Memory required for data: 518815748
I0715 11:38:26.621595  8010 layer_factory.hpp:123] Creating layer Concat_8
I0715 11:38:26.621601  8010 net.cpp:140] Creating Layer Concat_8
I0715 11:38:26.621604  8010 net.cpp:481] Concat_8 <- ConvNd_34
I0715 11:38:26.621608  8010 net.cpp:481] Concat_8 <- ConvNd_35_ConvNd_35_0_split_1
I0715 11:38:26.621613  8010 net.cpp:481] Concat_8 <- Add_19_Add_19_0_split_1
I0715 11:38:26.621616  8010 net.cpp:481] Concat_8 <- Add_20_Add_20_0_split_1
I0715 11:38:26.621620  8010 net.cpp:481] Concat_8 <- Add_21
I0715 11:38:26.621624  8010 net.cpp:455] Concat_8 -> Concat_8
I0715 11:38:26.621644  8010 net.cpp:190] Setting up Concat_8
I0715 11:38:26.621649  8010 net.cpp:197] Top shape: 1 128 64 128 (1048576)
I0715 11:38:26.621652  8010 net.cpp:205] Memory required for data: 523010052
I0715 11:38:26.621655  8010 layer_factory.hpp:123] Creating layer Add_22
I0715 11:38:26.621660  8010 net.cpp:140] Creating Layer Add_22
I0715 11:38:26.621664  8010 net.cpp:481] Add_22 <- BatchNorm_8_Threshold_8_0_split_1
I0715 11:38:26.621667  8010 net.cpp:481] Add_22 <- Concat_8
I0715 11:38:26.621671  8010 net.cpp:455] Add_22 -> Add_22
I0715 11:38:26.621690  8010 net.cpp:190] Setting up Add_22
I0715 11:38:26.621695  8010 net.cpp:197] Top shape: 1 128 64 128 (1048576)
I0715 11:38:26.621697  8010 net.cpp:205] Memory required for data: 527204356
I0715 11:38:26.621701  8010 layer_factory.hpp:123] Creating layer BatchNorm_9
I0715 11:38:26.621706  8010 net.cpp:140] Creating Layer BatchNorm_9
I0715 11:38:26.621709  8010 net.cpp:481] BatchNorm_9 <- Add_22
I0715 11:38:26.621714  8010 net.cpp:455] BatchNorm_9 -> BatchNorm_9
I0715 11:38:26.622238  8010 net.cpp:190] Setting up BatchNorm_9
I0715 11:38:26.622246  8010 net.cpp:197] Top shape: 1 128 64 128 (1048576)
I0715 11:38:26.622249  8010 net.cpp:205] Memory required for data: 531398660
I0715 11:38:26.622257  8010 layer_factory.hpp:123] Creating layer Threshold_9
I0715 11:38:26.622265  8010 net.cpp:140] Creating Layer Threshold_9
I0715 11:38:26.622268  8010 net.cpp:481] Threshold_9 <- BatchNorm_9
I0715 11:38:26.622273  8010 net.cpp:442] Threshold_9 -> BatchNorm_9 (in-place)
I0715 11:38:26.622279  8010 net.cpp:190] Setting up Threshold_9
I0715 11:38:26.622285  8010 net.cpp:197] Top shape: 1 128 64 128 (1048576)
I0715 11:38:26.622288  8010 net.cpp:205] Memory required for data: 535592964
I0715 11:38:26.622292  8010 layer_factory.hpp:123] Creating layer BatchNorm_9_Threshold_9_0_split
I0715 11:38:26.622296  8010 net.cpp:140] Creating Layer BatchNorm_9_Threshold_9_0_split
I0715 11:38:26.622299  8010 net.cpp:481] BatchNorm_9_Threshold_9_0_split <- BatchNorm_9
I0715 11:38:26.622304  8010 net.cpp:455] BatchNorm_9_Threshold_9_0_split -> BatchNorm_9_Threshold_9_0_split_0
I0715 11:38:26.622310  8010 net.cpp:455] BatchNorm_9_Threshold_9_0_split -> BatchNorm_9_Threshold_9_0_split_1
I0715 11:38:26.622339  8010 net.cpp:190] Setting up BatchNorm_9_Threshold_9_0_split
I0715 11:38:26.622344  8010 net.cpp:197] Top shape: 1 128 64 128 (1048576)
I0715 11:38:26.622347  8010 net.cpp:197] Top shape: 1 128 64 128 (1048576)
I0715 11:38:26.622350  8010 net.cpp:205] Memory required for data: 543981572
I0715 11:38:26.622354  8010 layer_factory.hpp:123] Creating layer ConvNd_39
I0715 11:38:26.622360  8010 net.cpp:140] Creating Layer ConvNd_39
I0715 11:38:26.622364  8010 net.cpp:481] ConvNd_39 <- BatchNorm_9_Threshold_9_0_split_0
I0715 11:38:26.622370  8010 net.cpp:455] ConvNd_39 -> ConvNd_39
I0715 11:38:26.622555  8010 net.cpp:190] Setting up ConvNd_39
I0715 11:38:26.622562  8010 net.cpp:197] Top shape: 1 25 64 128 (204800)
I0715 11:38:26.622565  8010 net.cpp:205] Memory required for data: 544800772
I0715 11:38:26.622570  8010 layer_factory.hpp:123] Creating layer ConvNd_39_ConvNd_39_0_split
I0715 11:38:26.622575  8010 net.cpp:140] Creating Layer ConvNd_39_ConvNd_39_0_split
I0715 11:38:26.622578  8010 net.cpp:481] ConvNd_39_ConvNd_39_0_split <- ConvNd_39
I0715 11:38:26.622583  8010 net.cpp:455] ConvNd_39_ConvNd_39_0_split -> ConvNd_39_ConvNd_39_0_split_0
I0715 11:38:26.622591  8010 net.cpp:455] ConvNd_39_ConvNd_39_0_split -> ConvNd_39_ConvNd_39_0_split_1
I0715 11:38:26.622596  8010 net.cpp:455] ConvNd_39_ConvNd_39_0_split -> ConvNd_39_ConvNd_39_0_split_2
I0715 11:38:26.622601  8010 net.cpp:455] ConvNd_39_ConvNd_39_0_split -> ConvNd_39_ConvNd_39_0_split_3
I0715 11:38:26.622607  8010 net.cpp:455] ConvNd_39_ConvNd_39_0_split -> ConvNd_39_ConvNd_39_0_split_4
I0715 11:38:26.622663  8010 net.cpp:190] Setting up ConvNd_39_ConvNd_39_0_split
I0715 11:38:26.622669  8010 net.cpp:197] Top shape: 1 25 64 128 (204800)
I0715 11:38:26.622673  8010 net.cpp:197] Top shape: 1 25 64 128 (204800)
I0715 11:38:26.622676  8010 net.cpp:197] Top shape: 1 25 64 128 (204800)
I0715 11:38:26.622679  8010 net.cpp:197] Top shape: 1 25 64 128 (204800)
I0715 11:38:26.622684  8010 net.cpp:197] Top shape: 1 25 64 128 (204800)
I0715 11:38:26.622685  8010 net.cpp:205] Memory required for data: 548896772
I0715 11:38:26.622689  8010 layer_factory.hpp:123] Creating layer ConvNd_40
I0715 11:38:26.622696  8010 net.cpp:140] Creating Layer ConvNd_40
I0715 11:38:26.622699  8010 net.cpp:481] ConvNd_40 <- ConvNd_39_ConvNd_39_0_split_0
I0715 11:38:26.622704  8010 net.cpp:455] ConvNd_40 -> ConvNd_40
I0715 11:38:26.622918  8010 net.cpp:190] Setting up ConvNd_40
I0715 11:38:26.622925  8010 net.cpp:197] Top shape: 1 28 64 128 (229376)
I0715 11:38:26.622928  8010 net.cpp:205] Memory required for data: 549814276
I0715 11:38:26.622933  8010 layer_factory.hpp:123] Creating layer ConvNd_41
I0715 11:38:26.622939  8010 net.cpp:140] Creating Layer ConvNd_41
I0715 11:38:26.622943  8010 net.cpp:481] ConvNd_41 <- ConvNd_39_ConvNd_39_0_split_1
I0715 11:38:26.622948  8010 net.cpp:455] ConvNd_41 -> ConvNd_41
I0715 11:38:26.623158  8010 net.cpp:190] Setting up ConvNd_41
I0715 11:38:26.623165  8010 net.cpp:197] Top shape: 1 25 64 128 (204800)
I0715 11:38:26.623169  8010 net.cpp:205] Memory required for data: 550633476
I0715 11:38:26.623173  8010 layer_factory.hpp:123] Creating layer ConvNd_41_ConvNd_41_0_split
I0715 11:38:26.623178  8010 net.cpp:140] Creating Layer ConvNd_41_ConvNd_41_0_split
I0715 11:38:26.623181  8010 net.cpp:481] ConvNd_41_ConvNd_41_0_split <- ConvNd_41
I0715 11:38:26.623186  8010 net.cpp:455] ConvNd_41_ConvNd_41_0_split -> ConvNd_41_ConvNd_41_0_split_0
I0715 11:38:26.623193  8010 net.cpp:455] ConvNd_41_ConvNd_41_0_split -> ConvNd_41_ConvNd_41_0_split_1
I0715 11:38:26.623220  8010 net.cpp:190] Setting up ConvNd_41_ConvNd_41_0_split
I0715 11:38:26.623226  8010 net.cpp:197] Top shape: 1 25 64 128 (204800)
I0715 11:38:26.623230  8010 net.cpp:197] Top shape: 1 25 64 128 (204800)
I0715 11:38:26.623234  8010 net.cpp:205] Memory required for data: 552271876
I0715 11:38:26.623236  8010 layer_factory.hpp:123] Creating layer ConvNd_42
I0715 11:38:26.623244  8010 net.cpp:140] Creating Layer ConvNd_42
I0715 11:38:26.623246  8010 net.cpp:481] ConvNd_42 <- ConvNd_39_ConvNd_39_0_split_2
I0715 11:38:26.623251  8010 net.cpp:455] ConvNd_42 -> ConvNd_42
I0715 11:38:26.623456  8010 net.cpp:190] Setting up ConvNd_42
I0715 11:38:26.623463  8010 net.cpp:197] Top shape: 1 25 64 128 (204800)
I0715 11:38:26.623466  8010 net.cpp:205] Memory required for data: 553091076
I0715 11:38:26.623471  8010 layer_factory.hpp:123] Creating layer Add_23
I0715 11:38:26.623478  8010 net.cpp:140] Creating Layer Add_23
I0715 11:38:26.623481  8010 net.cpp:481] Add_23 <- ConvNd_41_ConvNd_41_0_split_0
I0715 11:38:26.623486  8010 net.cpp:481] Add_23 <- ConvNd_42
I0715 11:38:26.623490  8010 net.cpp:455] Add_23 -> Add_23
I0715 11:38:26.623510  8010 net.cpp:190] Setting up Add_23
I0715 11:38:26.623515  8010 net.cpp:197] Top shape: 1 25 64 128 (204800)
I0715 11:38:26.623518  8010 net.cpp:205] Memory required for data: 553910276
I0715 11:38:26.623522  8010 layer_factory.hpp:123] Creating layer Add_23_Add_23_0_split
I0715 11:38:26.623526  8010 net.cpp:140] Creating Layer Add_23_Add_23_0_split
I0715 11:38:26.623529  8010 net.cpp:481] Add_23_Add_23_0_split <- Add_23
I0715 11:38:26.623534  8010 net.cpp:455] Add_23_Add_23_0_split -> Add_23_Add_23_0_split_0
I0715 11:38:26.623540  8010 net.cpp:455] Add_23_Add_23_0_split -> Add_23_Add_23_0_split_1
I0715 11:38:26.623567  8010 net.cpp:190] Setting up Add_23_Add_23_0_split
I0715 11:38:26.623572  8010 net.cpp:197] Top shape: 1 25 64 128 (204800)
I0715 11:38:26.623576  8010 net.cpp:197] Top shape: 1 25 64 128 (204800)
I0715 11:38:26.623579  8010 net.cpp:205] Memory required for data: 555548676
I0715 11:38:26.623582  8010 layer_factory.hpp:123] Creating layer ConvNd_43
I0715 11:38:26.623589  8010 net.cpp:140] Creating Layer ConvNd_43
I0715 11:38:26.623594  8010 net.cpp:481] ConvNd_43 <- ConvNd_39_ConvNd_39_0_split_3
I0715 11:38:26.623598  8010 net.cpp:455] ConvNd_43 -> ConvNd_43
I0715 11:38:26.623814  8010 net.cpp:190] Setting up ConvNd_43
I0715 11:38:26.623821  8010 net.cpp:197] Top shape: 1 25 64 128 (204800)
I0715 11:38:26.623824  8010 net.cpp:205] Memory required for data: 556367876
I0715 11:38:26.623828  8010 layer_factory.hpp:123] Creating layer Add_24
I0715 11:38:26.623833  8010 net.cpp:140] Creating Layer Add_24
I0715 11:38:26.623836  8010 net.cpp:481] Add_24 <- Add_23_Add_23_0_split_0
I0715 11:38:26.623842  8010 net.cpp:481] Add_24 <- ConvNd_43
I0715 11:38:26.623845  8010 net.cpp:455] Add_24 -> Add_24
I0715 11:38:26.623864  8010 net.cpp:190] Setting up Add_24
I0715 11:38:26.623870  8010 net.cpp:197] Top shape: 1 25 64 128 (204800)
I0715 11:38:26.623873  8010 net.cpp:205] Memory required for data: 557187076
I0715 11:38:26.623876  8010 layer_factory.hpp:123] Creating layer Add_24_Add_24_0_split
I0715 11:38:26.623881  8010 net.cpp:140] Creating Layer Add_24_Add_24_0_split
I0715 11:38:26.623884  8010 net.cpp:481] Add_24_Add_24_0_split <- Add_24
I0715 11:38:26.623889  8010 net.cpp:455] Add_24_Add_24_0_split -> Add_24_Add_24_0_split_0
I0715 11:38:26.623895  8010 net.cpp:455] Add_24_Add_24_0_split -> Add_24_Add_24_0_split_1
I0715 11:38:26.623921  8010 net.cpp:190] Setting up Add_24_Add_24_0_split
I0715 11:38:26.623926  8010 net.cpp:197] Top shape: 1 25 64 128 (204800)
I0715 11:38:26.623930  8010 net.cpp:197] Top shape: 1 25 64 128 (204800)
I0715 11:38:26.623934  8010 net.cpp:205] Memory required for data: 558825476
I0715 11:38:26.623936  8010 layer_factory.hpp:123] Creating layer ConvNd_44
I0715 11:38:26.623944  8010 net.cpp:140] Creating Layer ConvNd_44
I0715 11:38:26.623947  8010 net.cpp:481] ConvNd_44 <- ConvNd_39_ConvNd_39_0_split_4
I0715 11:38:26.623952  8010 net.cpp:455] ConvNd_44 -> ConvNd_44
I0715 11:38:26.624161  8010 net.cpp:190] Setting up ConvNd_44
I0715 11:38:26.624168  8010 net.cpp:197] Top shape: 1 25 64 128 (204800)
I0715 11:38:26.624171  8010 net.cpp:205] Memory required for data: 559644676
I0715 11:38:26.624176  8010 layer_factory.hpp:123] Creating layer Add_25
I0715 11:38:26.624181  8010 net.cpp:140] Creating Layer Add_25
I0715 11:38:26.624183  8010 net.cpp:481] Add_25 <- Add_24_Add_24_0_split_0
I0715 11:38:26.624188  8010 net.cpp:481] Add_25 <- ConvNd_44
I0715 11:38:26.624193  8010 net.cpp:455] Add_25 -> Add_25
I0715 11:38:26.624212  8010 net.cpp:190] Setting up Add_25
I0715 11:38:26.624217  8010 net.cpp:197] Top shape: 1 25 64 128 (204800)
I0715 11:38:26.624220  8010 net.cpp:205] Memory required for data: 560463876
I0715 11:38:26.624222  8010 layer_factory.hpp:123] Creating layer Concat_9
I0715 11:38:26.624228  8010 net.cpp:140] Creating Layer Concat_9
I0715 11:38:26.624231  8010 net.cpp:481] Concat_9 <- ConvNd_40
I0715 11:38:26.624235  8010 net.cpp:481] Concat_9 <- ConvNd_41_ConvNd_41_0_split_1
I0715 11:38:26.624239  8010 net.cpp:481] Concat_9 <- Add_23_Add_23_0_split_1
I0715 11:38:26.624243  8010 net.cpp:481] Concat_9 <- Add_24_Add_24_0_split_1
I0715 11:38:26.624246  8010 net.cpp:481] Concat_9 <- Add_25
I0715 11:38:26.624251  8010 net.cpp:455] Concat_9 -> Concat_9
I0715 11:38:26.624270  8010 net.cpp:190] Setting up Concat_9
I0715 11:38:26.624275  8010 net.cpp:197] Top shape: 1 128 64 128 (1048576)
I0715 11:38:26.624279  8010 net.cpp:205] Memory required for data: 564658180
I0715 11:38:26.624281  8010 layer_factory.hpp:123] Creating layer Add_26
I0715 11:38:26.624285  8010 net.cpp:140] Creating Layer Add_26
I0715 11:38:26.624289  8010 net.cpp:481] Add_26 <- BatchNorm_9_Threshold_9_0_split_1
I0715 11:38:26.624294  8010 net.cpp:481] Add_26 <- Concat_9
I0715 11:38:26.624298  8010 net.cpp:455] Add_26 -> Add_26
I0715 11:38:26.624315  8010 net.cpp:190] Setting up Add_26
I0715 11:38:26.624320  8010 net.cpp:197] Top shape: 1 128 64 128 (1048576)
I0715 11:38:26.624323  8010 net.cpp:205] Memory required for data: 568852484
I0715 11:38:26.624326  8010 layer_factory.hpp:123] Creating layer BatchNorm_10
I0715 11:38:26.624332  8010 net.cpp:140] Creating Layer BatchNorm_10
I0715 11:38:26.624336  8010 net.cpp:481] BatchNorm_10 <- Add_26
I0715 11:38:26.624341  8010 net.cpp:455] BatchNorm_10 -> BatchNorm_10
I0715 11:38:26.624868  8010 net.cpp:190] Setting up BatchNorm_10
I0715 11:38:26.624876  8010 net.cpp:197] Top shape: 1 128 64 128 (1048576)
I0715 11:38:26.624879  8010 net.cpp:205] Memory required for data: 573046788
I0715 11:38:26.624887  8010 layer_factory.hpp:123] Creating layer Threshold_10
I0715 11:38:26.624892  8010 net.cpp:140] Creating Layer Threshold_10
I0715 11:38:26.624897  8010 net.cpp:481] Threshold_10 <- BatchNorm_10
I0715 11:38:26.624900  8010 net.cpp:442] Threshold_10 -> BatchNorm_10 (in-place)
I0715 11:38:26.624907  8010 net.cpp:190] Setting up Threshold_10
I0715 11:38:26.624910  8010 net.cpp:197] Top shape: 1 128 64 128 (1048576)
I0715 11:38:26.624913  8010 net.cpp:205] Memory required for data: 577241092
I0715 11:38:26.624917  8010 layer_factory.hpp:123] Creating layer BatchNorm_10_Threshold_10_0_split
I0715 11:38:26.624922  8010 net.cpp:140] Creating Layer BatchNorm_10_Threshold_10_0_split
I0715 11:38:26.624924  8010 net.cpp:481] BatchNorm_10_Threshold_10_0_split <- BatchNorm_10
I0715 11:38:26.624929  8010 net.cpp:455] BatchNorm_10_Threshold_10_0_split -> BatchNorm_10_Threshold_10_0_split_0
I0715 11:38:26.624935  8010 net.cpp:455] BatchNorm_10_Threshold_10_0_split -> BatchNorm_10_Threshold_10_0_split_1
I0715 11:38:26.624963  8010 net.cpp:190] Setting up BatchNorm_10_Threshold_10_0_split
I0715 11:38:26.624970  8010 net.cpp:197] Top shape: 1 128 64 128 (1048576)
I0715 11:38:26.624974  8010 net.cpp:197] Top shape: 1 128 64 128 (1048576)
I0715 11:38:26.624976  8010 net.cpp:205] Memory required for data: 585629700
I0715 11:38:26.624979  8010 layer_factory.hpp:123] Creating layer ConvNd_45
I0715 11:38:26.624986  8010 net.cpp:140] Creating Layer ConvNd_45
I0715 11:38:26.624989  8010 net.cpp:481] ConvNd_45 <- BatchNorm_10_Threshold_10_0_split_0
I0715 11:38:26.624994  8010 net.cpp:455] ConvNd_45 -> ConvNd_45
I0715 11:38:26.625183  8010 net.cpp:190] Setting up ConvNd_45
I0715 11:38:26.625190  8010 net.cpp:197] Top shape: 1 25 64 128 (204800)
I0715 11:38:26.625193  8010 net.cpp:205] Memory required for data: 586448900
I0715 11:38:26.625197  8010 layer_factory.hpp:123] Creating layer ConvNd_45_ConvNd_45_0_split
I0715 11:38:26.625202  8010 net.cpp:140] Creating Layer ConvNd_45_ConvNd_45_0_split
I0715 11:38:26.625206  8010 net.cpp:481] ConvNd_45_ConvNd_45_0_split <- ConvNd_45
I0715 11:38:26.625212  8010 net.cpp:455] ConvNd_45_ConvNd_45_0_split -> ConvNd_45_ConvNd_45_0_split_0
I0715 11:38:26.625219  8010 net.cpp:455] ConvNd_45_ConvNd_45_0_split -> ConvNd_45_ConvNd_45_0_split_1
I0715 11:38:26.625226  8010 net.cpp:455] ConvNd_45_ConvNd_45_0_split -> ConvNd_45_ConvNd_45_0_split_2
I0715 11:38:26.625231  8010 net.cpp:455] ConvNd_45_ConvNd_45_0_split -> ConvNd_45_ConvNd_45_0_split_3
I0715 11:38:26.625237  8010 net.cpp:455] ConvNd_45_ConvNd_45_0_split -> ConvNd_45_ConvNd_45_0_split_4
I0715 11:38:26.625293  8010 net.cpp:190] Setting up ConvNd_45_ConvNd_45_0_split
I0715 11:38:26.625298  8010 net.cpp:197] Top shape: 1 25 64 128 (204800)
I0715 11:38:26.625303  8010 net.cpp:197] Top shape: 1 25 64 128 (204800)
I0715 11:38:26.625306  8010 net.cpp:197] Top shape: 1 25 64 128 (204800)
I0715 11:38:26.625309  8010 net.cpp:197] Top shape: 1 25 64 128 (204800)
I0715 11:38:26.625313  8010 net.cpp:197] Top shape: 1 25 64 128 (204800)
I0715 11:38:26.625316  8010 net.cpp:205] Memory required for data: 590544900
I0715 11:38:26.625319  8010 layer_factory.hpp:123] Creating layer ConvNd_46
I0715 11:38:26.625325  8010 net.cpp:140] Creating Layer ConvNd_46
I0715 11:38:26.625329  8010 net.cpp:481] ConvNd_46 <- ConvNd_45_ConvNd_45_0_split_0
I0715 11:38:26.625334  8010 net.cpp:455] ConvNd_46 -> ConvNd_46
I0715 11:38:26.625550  8010 net.cpp:190] Setting up ConvNd_46
I0715 11:38:26.625556  8010 net.cpp:197] Top shape: 1 28 64 128 (229376)
I0715 11:38:26.625560  8010 net.cpp:205] Memory required for data: 591462404
I0715 11:38:26.625563  8010 layer_factory.hpp:123] Creating layer ConvNd_47
I0715 11:38:26.625571  8010 net.cpp:140] Creating Layer ConvNd_47
I0715 11:38:26.625574  8010 net.cpp:481] ConvNd_47 <- ConvNd_45_ConvNd_45_0_split_1
I0715 11:38:26.625579  8010 net.cpp:455] ConvNd_47 -> ConvNd_47
I0715 11:38:26.625789  8010 net.cpp:190] Setting up ConvNd_47
I0715 11:38:26.625797  8010 net.cpp:197] Top shape: 1 25 64 128 (204800)
I0715 11:38:26.625799  8010 net.cpp:205] Memory required for data: 592281604
I0715 11:38:26.625803  8010 layer_factory.hpp:123] Creating layer ConvNd_47_ConvNd_47_0_split
I0715 11:38:26.625809  8010 net.cpp:140] Creating Layer ConvNd_47_ConvNd_47_0_split
I0715 11:38:26.625813  8010 net.cpp:481] ConvNd_47_ConvNd_47_0_split <- ConvNd_47
I0715 11:38:26.625818  8010 net.cpp:455] ConvNd_47_ConvNd_47_0_split -> ConvNd_47_ConvNd_47_0_split_0
I0715 11:38:26.625823  8010 net.cpp:455] ConvNd_47_ConvNd_47_0_split -> ConvNd_47_ConvNd_47_0_split_1
I0715 11:38:26.625852  8010 net.cpp:190] Setting up ConvNd_47_ConvNd_47_0_split
I0715 11:38:26.625859  8010 net.cpp:197] Top shape: 1 25 64 128 (204800)
I0715 11:38:26.625861  8010 net.cpp:197] Top shape: 1 25 64 128 (204800)
I0715 11:38:26.625864  8010 net.cpp:205] Memory required for data: 593920004
I0715 11:38:26.625867  8010 layer_factory.hpp:123] Creating layer ConvNd_48
I0715 11:38:26.625874  8010 net.cpp:140] Creating Layer ConvNd_48
I0715 11:38:26.625877  8010 net.cpp:481] ConvNd_48 <- ConvNd_45_ConvNd_45_0_split_2
I0715 11:38:26.625882  8010 net.cpp:455] ConvNd_48 -> ConvNd_48
I0715 11:38:26.626088  8010 net.cpp:190] Setting up ConvNd_48
I0715 11:38:26.626096  8010 net.cpp:197] Top shape: 1 25 64 128 (204800)
I0715 11:38:26.626098  8010 net.cpp:205] Memory required for data: 594739204
I0715 11:38:26.626102  8010 layer_factory.hpp:123] Creating layer Add_27
I0715 11:38:26.626107  8010 net.cpp:140] Creating Layer Add_27
I0715 11:38:26.626111  8010 net.cpp:481] Add_27 <- ConvNd_47_ConvNd_47_0_split_0
I0715 11:38:26.626116  8010 net.cpp:481] Add_27 <- ConvNd_48
I0715 11:38:26.626121  8010 net.cpp:455] Add_27 -> Add_27
I0715 11:38:26.626139  8010 net.cpp:190] Setting up Add_27
I0715 11:38:26.626144  8010 net.cpp:197] Top shape: 1 25 64 128 (204800)
I0715 11:38:26.626147  8010 net.cpp:205] Memory required for data: 595558404
I0715 11:38:26.626150  8010 layer_factory.hpp:123] Creating layer Add_27_Add_27_0_split
I0715 11:38:26.626155  8010 net.cpp:140] Creating Layer Add_27_Add_27_0_split
I0715 11:38:26.626158  8010 net.cpp:481] Add_27_Add_27_0_split <- Add_27
I0715 11:38:26.626163  8010 net.cpp:455] Add_27_Add_27_0_split -> Add_27_Add_27_0_split_0
I0715 11:38:26.626169  8010 net.cpp:455] Add_27_Add_27_0_split -> Add_27_Add_27_0_split_1
I0715 11:38:26.626197  8010 net.cpp:190] Setting up Add_27_Add_27_0_split
I0715 11:38:26.626202  8010 net.cpp:197] Top shape: 1 25 64 128 (204800)
I0715 11:38:26.626206  8010 net.cpp:197] Top shape: 1 25 64 128 (204800)
I0715 11:38:26.626209  8010 net.cpp:205] Memory required for data: 597196804
I0715 11:38:26.626212  8010 layer_factory.hpp:123] Creating layer ConvNd_49
I0715 11:38:26.626219  8010 net.cpp:140] Creating Layer ConvNd_49
I0715 11:38:26.626222  8010 net.cpp:481] ConvNd_49 <- ConvNd_45_ConvNd_45_0_split_3
I0715 11:38:26.626227  8010 net.cpp:455] ConvNd_49 -> ConvNd_49
I0715 11:38:26.626436  8010 net.cpp:190] Setting up ConvNd_49
I0715 11:38:26.626443  8010 net.cpp:197] Top shape: 1 25 64 128 (204800)
I0715 11:38:26.626446  8010 net.cpp:205] Memory required for data: 598016004
I0715 11:38:26.626451  8010 layer_factory.hpp:123] Creating layer Add_28
I0715 11:38:26.626456  8010 net.cpp:140] Creating Layer Add_28
I0715 11:38:26.626458  8010 net.cpp:481] Add_28 <- Add_27_Add_27_0_split_0
I0715 11:38:26.626463  8010 net.cpp:481] Add_28 <- ConvNd_49
I0715 11:38:26.626467  8010 net.cpp:455] Add_28 -> Add_28
I0715 11:38:26.626487  8010 net.cpp:190] Setting up Add_28
I0715 11:38:26.626492  8010 net.cpp:197] Top shape: 1 25 64 128 (204800)
I0715 11:38:26.626495  8010 net.cpp:205] Memory required for data: 598835204
I0715 11:38:26.626497  8010 layer_factory.hpp:123] Creating layer Add_28_Add_28_0_split
I0715 11:38:26.626503  8010 net.cpp:140] Creating Layer Add_28_Add_28_0_split
I0715 11:38:26.626507  8010 net.cpp:481] Add_28_Add_28_0_split <- Add_28
I0715 11:38:26.626510  8010 net.cpp:455] Add_28_Add_28_0_split -> Add_28_Add_28_0_split_0
I0715 11:38:26.626516  8010 net.cpp:455] Add_28_Add_28_0_split -> Add_28_Add_28_0_split_1
I0715 11:38:26.626543  8010 net.cpp:190] Setting up Add_28_Add_28_0_split
I0715 11:38:26.626549  8010 net.cpp:197] Top shape: 1 25 64 128 (204800)
I0715 11:38:26.626552  8010 net.cpp:197] Top shape: 1 25 64 128 (204800)
I0715 11:38:26.626555  8010 net.cpp:205] Memory required for data: 600473604
I0715 11:38:26.626559  8010 layer_factory.hpp:123] Creating layer ConvNd_50
I0715 11:38:26.626565  8010 net.cpp:140] Creating Layer ConvNd_50
I0715 11:38:26.626569  8010 net.cpp:481] ConvNd_50 <- ConvNd_45_ConvNd_45_0_split_4
I0715 11:38:26.626574  8010 net.cpp:455] ConvNd_50 -> ConvNd_50
I0715 11:38:26.626782  8010 net.cpp:190] Setting up ConvNd_50
I0715 11:38:26.626788  8010 net.cpp:197] Top shape: 1 25 64 128 (204800)
I0715 11:38:26.626791  8010 net.cpp:205] Memory required for data: 601292804
I0715 11:38:26.626796  8010 layer_factory.hpp:123] Creating layer Add_29
I0715 11:38:26.626801  8010 net.cpp:140] Creating Layer Add_29
I0715 11:38:26.626804  8010 net.cpp:481] Add_29 <- Add_28_Add_28_0_split_0
I0715 11:38:26.626808  8010 net.cpp:481] Add_29 <- ConvNd_50
I0715 11:38:26.626813  8010 net.cpp:455] Add_29 -> Add_29
I0715 11:38:26.626832  8010 net.cpp:190] Setting up Add_29
I0715 11:38:26.626838  8010 net.cpp:197] Top shape: 1 25 64 128 (204800)
I0715 11:38:26.626842  8010 net.cpp:205] Memory required for data: 602112004
I0715 11:38:26.626843  8010 layer_factory.hpp:123] Creating layer Concat_10
I0715 11:38:26.626849  8010 net.cpp:140] Creating Layer Concat_10
I0715 11:38:26.626852  8010 net.cpp:481] Concat_10 <- ConvNd_46
I0715 11:38:26.626857  8010 net.cpp:481] Concat_10 <- ConvNd_47_ConvNd_47_0_split_1
I0715 11:38:26.626860  8010 net.cpp:481] Concat_10 <- Add_27_Add_27_0_split_1
I0715 11:38:26.626865  8010 net.cpp:481] Concat_10 <- Add_28_Add_28_0_split_1
I0715 11:38:26.626868  8010 net.cpp:481] Concat_10 <- Add_29
I0715 11:38:26.626873  8010 net.cpp:455] Concat_10 -> Concat_10
I0715 11:38:26.626893  8010 net.cpp:190] Setting up Concat_10
I0715 11:38:26.626899  8010 net.cpp:197] Top shape: 1 128 64 128 (1048576)
I0715 11:38:26.626901  8010 net.cpp:205] Memory required for data: 606306308
I0715 11:38:26.626904  8010 layer_factory.hpp:123] Creating layer Add_30
I0715 11:38:26.626909  8010 net.cpp:140] Creating Layer Add_30
I0715 11:38:26.626912  8010 net.cpp:481] Add_30 <- BatchNorm_10_Threshold_10_0_split_1
I0715 11:38:26.626916  8010 net.cpp:481] Add_30 <- Concat_10
I0715 11:38:26.626921  8010 net.cpp:455] Add_30 -> Add_30
I0715 11:38:26.626937  8010 net.cpp:190] Setting up Add_30
I0715 11:38:26.626943  8010 net.cpp:197] Top shape: 1 128 64 128 (1048576)
I0715 11:38:26.626945  8010 net.cpp:205] Memory required for data: 610500612
I0715 11:38:26.626948  8010 layer_factory.hpp:123] Creating layer BatchNorm_11
I0715 11:38:26.626955  8010 net.cpp:140] Creating Layer BatchNorm_11
I0715 11:38:26.626958  8010 net.cpp:481] BatchNorm_11 <- Add_30
I0715 11:38:26.626963  8010 net.cpp:455] BatchNorm_11 -> BatchNorm_11
I0715 11:38:26.627491  8010 net.cpp:190] Setting up BatchNorm_11
I0715 11:38:26.627499  8010 net.cpp:197] Top shape: 1 128 64 128 (1048576)
I0715 11:38:26.627503  8010 net.cpp:205] Memory required for data: 614694916
I0715 11:38:26.627511  8010 layer_factory.hpp:123] Creating layer Threshold_11
I0715 11:38:26.627516  8010 net.cpp:140] Creating Layer Threshold_11
I0715 11:38:26.627521  8010 net.cpp:481] Threshold_11 <- BatchNorm_11
I0715 11:38:26.627526  8010 net.cpp:442] Threshold_11 -> BatchNorm_11 (in-place)
I0715 11:38:26.627530  8010 net.cpp:190] Setting up Threshold_11
I0715 11:38:26.627534  8010 net.cpp:197] Top shape: 1 128 64 128 (1048576)
I0715 11:38:26.627537  8010 net.cpp:205] Memory required for data: 618889220
I0715 11:38:26.627540  8010 layer_factory.hpp:123] Creating layer BatchNorm_11_Threshold_11_0_split
I0715 11:38:26.627545  8010 net.cpp:140] Creating Layer BatchNorm_11_Threshold_11_0_split
I0715 11:38:26.627548  8010 net.cpp:481] BatchNorm_11_Threshold_11_0_split <- BatchNorm_11
I0715 11:38:26.627553  8010 net.cpp:455] BatchNorm_11_Threshold_11_0_split -> BatchNorm_11_Threshold_11_0_split_0
I0715 11:38:26.627559  8010 net.cpp:455] BatchNorm_11_Threshold_11_0_split -> BatchNorm_11_Threshold_11_0_split_1
I0715 11:38:26.627588  8010 net.cpp:190] Setting up BatchNorm_11_Threshold_11_0_split
I0715 11:38:26.627593  8010 net.cpp:197] Top shape: 1 128 64 128 (1048576)
I0715 11:38:26.627598  8010 net.cpp:197] Top shape: 1 128 64 128 (1048576)
I0715 11:38:26.627600  8010 net.cpp:205] Memory required for data: 627277828
I0715 11:38:26.627602  8010 layer_factory.hpp:123] Creating layer ConvNd_51
I0715 11:38:26.627609  8010 net.cpp:140] Creating Layer ConvNd_51
I0715 11:38:26.627614  8010 net.cpp:481] ConvNd_51 <- BatchNorm_11_Threshold_11_0_split_0
I0715 11:38:26.627619  8010 net.cpp:455] ConvNd_51 -> ConvNd_51
I0715 11:38:26.627820  8010 net.cpp:190] Setting up ConvNd_51
I0715 11:38:26.627827  8010 net.cpp:197] Top shape: 1 25 64 128 (204800)
I0715 11:38:26.627830  8010 net.cpp:205] Memory required for data: 628097028
I0715 11:38:26.627835  8010 layer_factory.hpp:123] Creating layer ConvNd_51_ConvNd_51_0_split
I0715 11:38:26.627840  8010 net.cpp:140] Creating Layer ConvNd_51_ConvNd_51_0_split
I0715 11:38:26.627844  8010 net.cpp:481] ConvNd_51_ConvNd_51_0_split <- ConvNd_51
I0715 11:38:26.627849  8010 net.cpp:455] ConvNd_51_ConvNd_51_0_split -> ConvNd_51_ConvNd_51_0_split_0
I0715 11:38:26.627856  8010 net.cpp:455] ConvNd_51_ConvNd_51_0_split -> ConvNd_51_ConvNd_51_0_split_1
I0715 11:38:26.627862  8010 net.cpp:455] ConvNd_51_ConvNd_51_0_split -> ConvNd_51_ConvNd_51_0_split_2
I0715 11:38:26.627868  8010 net.cpp:455] ConvNd_51_ConvNd_51_0_split -> ConvNd_51_ConvNd_51_0_split_3
I0715 11:38:26.627874  8010 net.cpp:455] ConvNd_51_ConvNd_51_0_split -> ConvNd_51_ConvNd_51_0_split_4
I0715 11:38:26.627933  8010 net.cpp:190] Setting up ConvNd_51_ConvNd_51_0_split
I0715 11:38:26.627938  8010 net.cpp:197] Top shape: 1 25 64 128 (204800)
I0715 11:38:26.627943  8010 net.cpp:197] Top shape: 1 25 64 128 (204800)
I0715 11:38:26.627945  8010 net.cpp:197] Top shape: 1 25 64 128 (204800)
I0715 11:38:26.627949  8010 net.cpp:197] Top shape: 1 25 64 128 (204800)
I0715 11:38:26.627952  8010 net.cpp:197] Top shape: 1 25 64 128 (204800)
I0715 11:38:26.627955  8010 net.cpp:205] Memory required for data: 632193028
I0715 11:38:26.627959  8010 layer_factory.hpp:123] Creating layer ConvNd_52
I0715 11:38:26.627965  8010 net.cpp:140] Creating Layer ConvNd_52
I0715 11:38:26.627969  8010 net.cpp:481] ConvNd_52 <- ConvNd_51_ConvNd_51_0_split_0
I0715 11:38:26.627974  8010 net.cpp:455] ConvNd_52 -> ConvNd_52
I0715 11:38:26.628193  8010 net.cpp:190] Setting up ConvNd_52
I0715 11:38:26.628201  8010 net.cpp:197] Top shape: 1 28 64 128 (229376)
I0715 11:38:26.628203  8010 net.cpp:205] Memory required for data: 633110532
I0715 11:38:26.628207  8010 layer_factory.hpp:123] Creating layer ConvNd_53
I0715 11:38:26.628216  8010 net.cpp:140] Creating Layer ConvNd_53
I0715 11:38:26.628218  8010 net.cpp:481] ConvNd_53 <- ConvNd_51_ConvNd_51_0_split_1
I0715 11:38:26.628223  8010 net.cpp:455] ConvNd_53 -> ConvNd_53
I0715 11:38:26.628437  8010 net.cpp:190] Setting up ConvNd_53
I0715 11:38:26.628443  8010 net.cpp:197] Top shape: 1 25 64 128 (204800)
I0715 11:38:26.628446  8010 net.cpp:205] Memory required for data: 633929732
I0715 11:38:26.628450  8010 layer_factory.hpp:123] Creating layer ConvNd_53_ConvNd_53_0_split
I0715 11:38:26.628455  8010 net.cpp:140] Creating Layer ConvNd_53_ConvNd_53_0_split
I0715 11:38:26.628458  8010 net.cpp:481] ConvNd_53_ConvNd_53_0_split <- ConvNd_53
I0715 11:38:26.628463  8010 net.cpp:455] ConvNd_53_ConvNd_53_0_split -> ConvNd_53_ConvNd_53_0_split_0
I0715 11:38:26.628469  8010 net.cpp:455] ConvNd_53_ConvNd_53_0_split -> ConvNd_53_ConvNd_53_0_split_1
I0715 11:38:26.628499  8010 net.cpp:190] Setting up ConvNd_53_ConvNd_53_0_split
I0715 11:38:26.628505  8010 net.cpp:197] Top shape: 1 25 64 128 (204800)
I0715 11:38:26.628509  8010 net.cpp:197] Top shape: 1 25 64 128 (204800)
I0715 11:38:26.628511  8010 net.cpp:205] Memory required for data: 635568132
I0715 11:38:26.628515  8010 layer_factory.hpp:123] Creating layer ConvNd_54
I0715 11:38:26.628521  8010 net.cpp:140] Creating Layer ConvNd_54
I0715 11:38:26.628525  8010 net.cpp:481] ConvNd_54 <- ConvNd_51_ConvNd_51_0_split_2
I0715 11:38:26.628530  8010 net.cpp:455] ConvNd_54 -> ConvNd_54
I0715 11:38:26.628741  8010 net.cpp:190] Setting up ConvNd_54
I0715 11:38:26.628747  8010 net.cpp:197] Top shape: 1 25 64 128 (204800)
I0715 11:38:26.628751  8010 net.cpp:205] Memory required for data: 636387332
I0715 11:38:26.628756  8010 layer_factory.hpp:123] Creating layer Add_31
I0715 11:38:26.628760  8010 net.cpp:140] Creating Layer Add_31
I0715 11:38:26.628764  8010 net.cpp:481] Add_31 <- ConvNd_53_ConvNd_53_0_split_0
I0715 11:38:26.628768  8010 net.cpp:481] Add_31 <- ConvNd_54
I0715 11:38:26.628773  8010 net.cpp:455] Add_31 -> Add_31
I0715 11:38:26.628793  8010 net.cpp:190] Setting up Add_31
I0715 11:38:26.628798  8010 net.cpp:197] Top shape: 1 25 64 128 (204800)
I0715 11:38:26.628801  8010 net.cpp:205] Memory required for data: 637206532
I0715 11:38:26.628803  8010 layer_factory.hpp:123] Creating layer Add_31_Add_31_0_split
I0715 11:38:26.628808  8010 net.cpp:140] Creating Layer Add_31_Add_31_0_split
I0715 11:38:26.628811  8010 net.cpp:481] Add_31_Add_31_0_split <- Add_31
I0715 11:38:26.628816  8010 net.cpp:455] Add_31_Add_31_0_split -> Add_31_Add_31_0_split_0
I0715 11:38:26.628823  8010 net.cpp:455] Add_31_Add_31_0_split -> Add_31_Add_31_0_split_1
I0715 11:38:26.628849  8010 net.cpp:190] Setting up Add_31_Add_31_0_split
I0715 11:38:26.628855  8010 net.cpp:197] Top shape: 1 25 64 128 (204800)
I0715 11:38:26.628859  8010 net.cpp:197] Top shape: 1 25 64 128 (204800)
I0715 11:38:26.628862  8010 net.cpp:205] Memory required for data: 638844932
I0715 11:38:26.628865  8010 layer_factory.hpp:123] Creating layer ConvNd_55
I0715 11:38:26.628871  8010 net.cpp:140] Creating Layer ConvNd_55
I0715 11:38:26.628875  8010 net.cpp:481] ConvNd_55 <- ConvNd_51_ConvNd_51_0_split_3
I0715 11:38:26.628880  8010 net.cpp:455] ConvNd_55 -> ConvNd_55
I0715 11:38:26.629089  8010 net.cpp:190] Setting up ConvNd_55
I0715 11:38:26.629096  8010 net.cpp:197] Top shape: 1 25 64 128 (204800)
I0715 11:38:26.629099  8010 net.cpp:205] Memory required for data: 639664132
I0715 11:38:26.629104  8010 layer_factory.hpp:123] Creating layer Add_32
I0715 11:38:26.629109  8010 net.cpp:140] Creating Layer Add_32
I0715 11:38:26.629112  8010 net.cpp:481] Add_32 <- Add_31_Add_31_0_split_0
I0715 11:38:26.629117  8010 net.cpp:481] Add_32 <- ConvNd_55
I0715 11:38:26.629122  8010 net.cpp:455] Add_32 -> Add_32
I0715 11:38:26.629139  8010 net.cpp:190] Setting up Add_32
I0715 11:38:26.629145  8010 net.cpp:197] Top shape: 1 25 64 128 (204800)
I0715 11:38:26.629148  8010 net.cpp:205] Memory required for data: 640483332
I0715 11:38:26.629151  8010 layer_factory.hpp:123] Creating layer Add_32_Add_32_0_split
I0715 11:38:26.629156  8010 net.cpp:140] Creating Layer Add_32_Add_32_0_split
I0715 11:38:26.629159  8010 net.cpp:481] Add_32_Add_32_0_split <- Add_32
I0715 11:38:26.629163  8010 net.cpp:455] Add_32_Add_32_0_split -> Add_32_Add_32_0_split_0
I0715 11:38:26.629170  8010 net.cpp:455] Add_32_Add_32_0_split -> Add_32_Add_32_0_split_1
I0715 11:38:26.629196  8010 net.cpp:190] Setting up Add_32_Add_32_0_split
I0715 11:38:26.629201  8010 net.cpp:197] Top shape: 1 25 64 128 (204800)
I0715 11:38:26.629205  8010 net.cpp:197] Top shape: 1 25 64 128 (204800)
I0715 11:38:26.629209  8010 net.cpp:205] Memory required for data: 642121732
I0715 11:38:26.629210  8010 layer_factory.hpp:123] Creating layer ConvNd_56
I0715 11:38:26.629217  8010 net.cpp:140] Creating Layer ConvNd_56
I0715 11:38:26.629221  8010 net.cpp:481] ConvNd_56 <- ConvNd_51_ConvNd_51_0_split_4
I0715 11:38:26.629226  8010 net.cpp:455] ConvNd_56 -> ConvNd_56
I0715 11:38:26.629438  8010 net.cpp:190] Setting up ConvNd_56
I0715 11:38:26.629444  8010 net.cpp:197] Top shape: 1 25 64 128 (204800)
I0715 11:38:26.629447  8010 net.cpp:205] Memory required for data: 642940932
I0715 11:38:26.629452  8010 layer_factory.hpp:123] Creating layer Add_33
I0715 11:38:26.629457  8010 net.cpp:140] Creating Layer Add_33
I0715 11:38:26.629460  8010 net.cpp:481] Add_33 <- Add_32_Add_32_0_split_0
I0715 11:38:26.629464  8010 net.cpp:481] Add_33 <- ConvNd_56
I0715 11:38:26.629469  8010 net.cpp:455] Add_33 -> Add_33
I0715 11:38:26.629487  8010 net.cpp:190] Setting up Add_33
I0715 11:38:26.629493  8010 net.cpp:197] Top shape: 1 25 64 128 (204800)
I0715 11:38:26.629496  8010 net.cpp:205] Memory required for data: 643760132
I0715 11:38:26.629499  8010 layer_factory.hpp:123] Creating layer Concat_11
I0715 11:38:26.629505  8010 net.cpp:140] Creating Layer Concat_11
I0715 11:38:26.629508  8010 net.cpp:481] Concat_11 <- ConvNd_52
I0715 11:38:26.629513  8010 net.cpp:481] Concat_11 <- ConvNd_53_ConvNd_53_0_split_1
I0715 11:38:26.629516  8010 net.cpp:481] Concat_11 <- Add_31_Add_31_0_split_1
I0715 11:38:26.629520  8010 net.cpp:481] Concat_11 <- Add_32_Add_32_0_split_1
I0715 11:38:26.629523  8010 net.cpp:481] Concat_11 <- Add_33
I0715 11:38:26.629528  8010 net.cpp:455] Concat_11 -> Concat_11
I0715 11:38:26.629549  8010 net.cpp:190] Setting up Concat_11
I0715 11:38:26.629554  8010 net.cpp:197] Top shape: 1 128 64 128 (1048576)
I0715 11:38:26.629557  8010 net.cpp:205] Memory required for data: 647954436
I0715 11:38:26.629559  8010 layer_factory.hpp:123] Creating layer Add_34
I0715 11:38:26.629565  8010 net.cpp:140] Creating Layer Add_34
I0715 11:38:26.629568  8010 net.cpp:481] Add_34 <- BatchNorm_11_Threshold_11_0_split_1
I0715 11:38:26.629572  8010 net.cpp:481] Add_34 <- Concat_11
I0715 11:38:26.629576  8010 net.cpp:455] Add_34 -> Add_34
I0715 11:38:26.629593  8010 net.cpp:190] Setting up Add_34
I0715 11:38:26.629598  8010 net.cpp:197] Top shape: 1 128 64 128 (1048576)
I0715 11:38:26.629601  8010 net.cpp:205] Memory required for data: 652148740
I0715 11:38:26.629604  8010 layer_factory.hpp:123] Creating layer BatchNorm_12
I0715 11:38:26.629611  8010 net.cpp:140] Creating Layer BatchNorm_12
I0715 11:38:26.629614  8010 net.cpp:481] BatchNorm_12 <- Add_34
I0715 11:38:26.629619  8010 net.cpp:455] BatchNorm_12 -> BatchNorm_12
I0715 11:38:26.630156  8010 net.cpp:190] Setting up BatchNorm_12
I0715 11:38:26.630164  8010 net.cpp:197] Top shape: 1 128 64 128 (1048576)
I0715 11:38:26.630167  8010 net.cpp:205] Memory required for data: 656343044
I0715 11:38:26.630175  8010 layer_factory.hpp:123] Creating layer Threshold_12
I0715 11:38:26.630180  8010 net.cpp:140] Creating Layer Threshold_12
I0715 11:38:26.630184  8010 net.cpp:481] Threshold_12 <- BatchNorm_12
I0715 11:38:26.630188  8010 net.cpp:442] Threshold_12 -> BatchNorm_12 (in-place)
I0715 11:38:26.630194  8010 net.cpp:190] Setting up Threshold_12
I0715 11:38:26.630198  8010 net.cpp:197] Top shape: 1 128 64 128 (1048576)
I0715 11:38:26.630201  8010 net.cpp:205] Memory required for data: 660537348
I0715 11:38:26.630204  8010 layer_factory.hpp:123] Creating layer BatchNorm_12_Threshold_12_0_split
I0715 11:38:26.630208  8010 net.cpp:140] Creating Layer BatchNorm_12_Threshold_12_0_split
I0715 11:38:26.630213  8010 net.cpp:481] BatchNorm_12_Threshold_12_0_split <- BatchNorm_12
I0715 11:38:26.630216  8010 net.cpp:455] BatchNorm_12_Threshold_12_0_split -> BatchNorm_12_Threshold_12_0_split_0
I0715 11:38:26.630223  8010 net.cpp:455] BatchNorm_12_Threshold_12_0_split -> BatchNorm_12_Threshold_12_0_split_1
I0715 11:38:26.630252  8010 net.cpp:190] Setting up BatchNorm_12_Threshold_12_0_split
I0715 11:38:26.630259  8010 net.cpp:197] Top shape: 1 128 64 128 (1048576)
I0715 11:38:26.630262  8010 net.cpp:197] Top shape: 1 128 64 128 (1048576)
I0715 11:38:26.630264  8010 net.cpp:205] Memory required for data: 668925956
I0715 11:38:26.630267  8010 layer_factory.hpp:123] Creating layer ConvNd_57
I0715 11:38:26.630275  8010 net.cpp:140] Creating Layer ConvNd_57
I0715 11:38:26.630278  8010 net.cpp:481] ConvNd_57 <- BatchNorm_12_Threshold_12_0_split_0
I0715 11:38:26.630285  8010 net.cpp:455] ConvNd_57 -> ConvNd_57
I0715 11:38:26.630475  8010 net.cpp:190] Setting up ConvNd_57
I0715 11:38:26.630482  8010 net.cpp:197] Top shape: 1 25 64 128 (204800)
I0715 11:38:26.630486  8010 net.cpp:205] Memory required for data: 669745156
I0715 11:38:26.630489  8010 layer_factory.hpp:123] Creating layer ConvNd_57_ConvNd_57_0_split
I0715 11:38:26.630496  8010 net.cpp:140] Creating Layer ConvNd_57_ConvNd_57_0_split
I0715 11:38:26.630498  8010 net.cpp:481] ConvNd_57_ConvNd_57_0_split <- ConvNd_57
I0715 11:38:26.630504  8010 net.cpp:455] ConvNd_57_ConvNd_57_0_split -> ConvNd_57_ConvNd_57_0_split_0
I0715 11:38:26.630511  8010 net.cpp:455] ConvNd_57_ConvNd_57_0_split -> ConvNd_57_ConvNd_57_0_split_1
I0715 11:38:26.630517  8010 net.cpp:455] ConvNd_57_ConvNd_57_0_split -> ConvNd_57_ConvNd_57_0_split_2
I0715 11:38:26.630522  8010 net.cpp:455] ConvNd_57_ConvNd_57_0_split -> ConvNd_57_ConvNd_57_0_split_3
I0715 11:38:26.630528  8010 net.cpp:455] ConvNd_57_ConvNd_57_0_split -> ConvNd_57_ConvNd_57_0_split_4
I0715 11:38:26.630585  8010 net.cpp:190] Setting up ConvNd_57_ConvNd_57_0_split
I0715 11:38:26.630591  8010 net.cpp:197] Top shape: 1 25 64 128 (204800)
I0715 11:38:26.630595  8010 net.cpp:197] Top shape: 1 25 64 128 (204800)
I0715 11:38:26.630599  8010 net.cpp:197] Top shape: 1 25 64 128 (204800)
I0715 11:38:26.630602  8010 net.cpp:197] Top shape: 1 25 64 128 (204800)
I0715 11:38:26.630605  8010 net.cpp:197] Top shape: 1 25 64 128 (204800)
I0715 11:38:26.630609  8010 net.cpp:205] Memory required for data: 673841156
I0715 11:38:26.630611  8010 layer_factory.hpp:123] Creating layer ConvNd_58
I0715 11:38:26.630618  8010 net.cpp:140] Creating Layer ConvNd_58
I0715 11:38:26.630622  8010 net.cpp:481] ConvNd_58 <- ConvNd_57_ConvNd_57_0_split_0
I0715 11:38:26.630627  8010 net.cpp:455] ConvNd_58 -> ConvNd_58
I0715 11:38:26.630847  8010 net.cpp:190] Setting up ConvNd_58
I0715 11:38:26.630854  8010 net.cpp:197] Top shape: 1 28 64 128 (229376)
I0715 11:38:26.630857  8010 net.cpp:205] Memory required for data: 674758660
I0715 11:38:26.630861  8010 layer_factory.hpp:123] Creating layer ConvNd_59
I0715 11:38:26.630868  8010 net.cpp:140] Creating Layer ConvNd_59
I0715 11:38:26.630872  8010 net.cpp:481] ConvNd_59 <- ConvNd_57_ConvNd_57_0_split_1
I0715 11:38:26.630877  8010 net.cpp:455] ConvNd_59 -> ConvNd_59
I0715 11:38:26.631091  8010 net.cpp:190] Setting up ConvNd_59
I0715 11:38:26.631098  8010 net.cpp:197] Top shape: 1 25 64 128 (204800)
I0715 11:38:26.631101  8010 net.cpp:205] Memory required for data: 675577860
I0715 11:38:26.631105  8010 layer_factory.hpp:123] Creating layer ConvNd_59_ConvNd_59_0_split
I0715 11:38:26.631111  8010 net.cpp:140] Creating Layer ConvNd_59_ConvNd_59_0_split
I0715 11:38:26.631114  8010 net.cpp:481] ConvNd_59_ConvNd_59_0_split <- ConvNd_59
I0715 11:38:26.631119  8010 net.cpp:455] ConvNd_59_ConvNd_59_0_split -> ConvNd_59_ConvNd_59_0_split_0
I0715 11:38:26.631125  8010 net.cpp:455] ConvNd_59_ConvNd_59_0_split -> ConvNd_59_ConvNd_59_0_split_1
I0715 11:38:26.631155  8010 net.cpp:190] Setting up ConvNd_59_ConvNd_59_0_split
I0715 11:38:26.631161  8010 net.cpp:197] Top shape: 1 25 64 128 (204800)
I0715 11:38:26.631165  8010 net.cpp:197] Top shape: 1 25 64 128 (204800)
I0715 11:38:26.631167  8010 net.cpp:205] Memory required for data: 677216260
I0715 11:38:26.631170  8010 layer_factory.hpp:123] Creating layer ConvNd_60
I0715 11:38:26.631178  8010 net.cpp:140] Creating Layer ConvNd_60
I0715 11:38:26.631181  8010 net.cpp:481] ConvNd_60 <- ConvNd_57_ConvNd_57_0_split_2
I0715 11:38:26.631186  8010 net.cpp:455] ConvNd_60 -> ConvNd_60
I0715 11:38:26.631394  8010 net.cpp:190] Setting up ConvNd_60
I0715 11:38:26.631402  8010 net.cpp:197] Top shape: 1 25 64 128 (204800)
I0715 11:38:26.631404  8010 net.cpp:205] Memory required for data: 678035460
I0715 11:38:26.631408  8010 layer_factory.hpp:123] Creating layer Add_35
I0715 11:38:26.631414  8010 net.cpp:140] Creating Layer Add_35
I0715 11:38:26.631418  8010 net.cpp:481] Add_35 <- ConvNd_59_ConvNd_59_0_split_0
I0715 11:38:26.631422  8010 net.cpp:481] Add_35 <- ConvNd_60
I0715 11:38:26.631428  8010 net.cpp:455] Add_35 -> Add_35
I0715 11:38:26.631445  8010 net.cpp:190] Setting up Add_35
I0715 11:38:26.631451  8010 net.cpp:197] Top shape: 1 25 64 128 (204800)
I0715 11:38:26.631454  8010 net.cpp:205] Memory required for data: 678854660
I0715 11:38:26.631458  8010 layer_factory.hpp:123] Creating layer Add_35_Add_35_0_split
I0715 11:38:26.631462  8010 net.cpp:140] Creating Layer Add_35_Add_35_0_split
I0715 11:38:26.631465  8010 net.cpp:481] Add_35_Add_35_0_split <- Add_35
I0715 11:38:26.631471  8010 net.cpp:455] Add_35_Add_35_0_split -> Add_35_Add_35_0_split_0
I0715 11:38:26.631477  8010 net.cpp:455] Add_35_Add_35_0_split -> Add_35_Add_35_0_split_1
I0715 11:38:26.631505  8010 net.cpp:190] Setting up Add_35_Add_35_0_split
I0715 11:38:26.631511  8010 net.cpp:197] Top shape: 1 25 64 128 (204800)
I0715 11:38:26.631515  8010 net.cpp:197] Top shape: 1 25 64 128 (204800)
I0715 11:38:26.631518  8010 net.cpp:205] Memory required for data: 680493060
I0715 11:38:26.631520  8010 layer_factory.hpp:123] Creating layer ConvNd_61
I0715 11:38:26.631527  8010 net.cpp:140] Creating Layer ConvNd_61
I0715 11:38:26.631531  8010 net.cpp:481] ConvNd_61 <- ConvNd_57_ConvNd_57_0_split_3
I0715 11:38:26.631536  8010 net.cpp:455] ConvNd_61 -> ConvNd_61
I0715 11:38:26.631758  8010 net.cpp:190] Setting up ConvNd_61
I0715 11:38:26.631767  8010 net.cpp:197] Top shape: 1 25 64 128 (204800)
I0715 11:38:26.631770  8010 net.cpp:205] Memory required for data: 681312260
I0715 11:38:26.631774  8010 layer_factory.hpp:123] Creating layer Add_36
I0715 11:38:26.631779  8010 net.cpp:140] Creating Layer Add_36
I0715 11:38:26.631783  8010 net.cpp:481] Add_36 <- Add_35_Add_35_0_split_0
I0715 11:38:26.631788  8010 net.cpp:481] Add_36 <- ConvNd_61
I0715 11:38:26.631793  8010 net.cpp:455] Add_36 -> Add_36
I0715 11:38:26.631812  8010 net.cpp:190] Setting up Add_36
I0715 11:38:26.631819  8010 net.cpp:197] Top shape: 1 25 64 128 (204800)
I0715 11:38:26.631821  8010 net.cpp:205] Memory required for data: 682131460
I0715 11:38:26.631824  8010 layer_factory.hpp:123] Creating layer Add_36_Add_36_0_split
I0715 11:38:26.631829  8010 net.cpp:140] Creating Layer Add_36_Add_36_0_split
I0715 11:38:26.631834  8010 net.cpp:481] Add_36_Add_36_0_split <- Add_36
I0715 11:38:26.631837  8010 net.cpp:455] Add_36_Add_36_0_split -> Add_36_Add_36_0_split_0
I0715 11:38:26.631844  8010 net.cpp:455] Add_36_Add_36_0_split -> Add_36_Add_36_0_split_1
I0715 11:38:26.631870  8010 net.cpp:190] Setting up Add_36_Add_36_0_split
I0715 11:38:26.631876  8010 net.cpp:197] Top shape: 1 25 64 128 (204800)
I0715 11:38:26.631880  8010 net.cpp:197] Top shape: 1 25 64 128 (204800)
I0715 11:38:26.631882  8010 net.cpp:205] Memory required for data: 683769860
I0715 11:38:26.631886  8010 layer_factory.hpp:123] Creating layer ConvNd_62
I0715 11:38:26.631892  8010 net.cpp:140] Creating Layer ConvNd_62
I0715 11:38:26.631896  8010 net.cpp:481] ConvNd_62 <- ConvNd_57_ConvNd_57_0_split_4
I0715 11:38:26.631901  8010 net.cpp:455] ConvNd_62 -> ConvNd_62
I0715 11:38:26.632110  8010 net.cpp:190] Setting up ConvNd_62
I0715 11:38:26.632117  8010 net.cpp:197] Top shape: 1 25 64 128 (204800)
I0715 11:38:26.632120  8010 net.cpp:205] Memory required for data: 684589060
I0715 11:38:26.632124  8010 layer_factory.hpp:123] Creating layer Add_37
I0715 11:38:26.632129  8010 net.cpp:140] Creating Layer Add_37
I0715 11:38:26.632133  8010 net.cpp:481] Add_37 <- Add_36_Add_36_0_split_0
I0715 11:38:26.632138  8010 net.cpp:481] Add_37 <- ConvNd_62
I0715 11:38:26.632143  8010 net.cpp:455] Add_37 -> Add_37
I0715 11:38:26.632161  8010 net.cpp:190] Setting up Add_37
I0715 11:38:26.632167  8010 net.cpp:197] Top shape: 1 25 64 128 (204800)
I0715 11:38:26.632169  8010 net.cpp:205] Memory required for data: 685408260
I0715 11:38:26.632172  8010 layer_factory.hpp:123] Creating layer Concat_12
I0715 11:38:26.632179  8010 net.cpp:140] Creating Layer Concat_12
I0715 11:38:26.632181  8010 net.cpp:481] Concat_12 <- ConvNd_58
I0715 11:38:26.632185  8010 net.cpp:481] Concat_12 <- ConvNd_59_ConvNd_59_0_split_1
I0715 11:38:26.632189  8010 net.cpp:481] Concat_12 <- Add_35_Add_35_0_split_1
I0715 11:38:26.632194  8010 net.cpp:481] Concat_12 <- Add_36_Add_36_0_split_1
I0715 11:38:26.632197  8010 net.cpp:481] Concat_12 <- Add_37
I0715 11:38:26.632202  8010 net.cpp:455] Concat_12 -> Concat_12
I0715 11:38:26.632221  8010 net.cpp:190] Setting up Concat_12
I0715 11:38:26.632226  8010 net.cpp:197] Top shape: 1 128 64 128 (1048576)
I0715 11:38:26.632230  8010 net.cpp:205] Memory required for data: 689602564
I0715 11:38:26.632232  8010 layer_factory.hpp:123] Creating layer Add_38
I0715 11:38:26.632236  8010 net.cpp:140] Creating Layer Add_38
I0715 11:38:26.632241  8010 net.cpp:481] Add_38 <- BatchNorm_12_Threshold_12_0_split_1
I0715 11:38:26.632244  8010 net.cpp:481] Add_38 <- Concat_12
I0715 11:38:26.632249  8010 net.cpp:455] Add_38 -> Add_38
I0715 11:38:26.632266  8010 net.cpp:190] Setting up Add_38
I0715 11:38:26.632272  8010 net.cpp:197] Top shape: 1 128 64 128 (1048576)
I0715 11:38:26.632275  8010 net.cpp:205] Memory required for data: 693796868
I0715 11:38:26.632278  8010 layer_factory.hpp:123] Creating layer BatchNorm_13
I0715 11:38:26.632284  8010 net.cpp:140] Creating Layer BatchNorm_13
I0715 11:38:26.632287  8010 net.cpp:481] BatchNorm_13 <- Add_38
I0715 11:38:26.632292  8010 net.cpp:455] BatchNorm_13 -> BatchNorm_13
I0715 11:38:26.632824  8010 net.cpp:190] Setting up BatchNorm_13
I0715 11:38:26.632833  8010 net.cpp:197] Top shape: 1 128 64 128 (1048576)
I0715 11:38:26.632835  8010 net.cpp:205] Memory required for data: 697991172
I0715 11:38:26.632844  8010 layer_factory.hpp:123] Creating layer Threshold_13
I0715 11:38:26.632849  8010 net.cpp:140] Creating Layer Threshold_13
I0715 11:38:26.632853  8010 net.cpp:481] Threshold_13 <- BatchNorm_13
I0715 11:38:26.632858  8010 net.cpp:442] Threshold_13 -> BatchNorm_13 (in-place)
…
I0715 11:41:47.821365  8010 net.cpp:481] Concat_13 <- Add_40_Add_40_fixed_0_split_1
I0715 11:41:47.821368  8010 net.cpp:481] Concat_13 <- Add_41
I0715 11:41:47.821373  8010 net.cpp:455] Concat_13 -> Concat_13
I0715 11:41:47.821393  8010 net.cpp:190] Setting up Concat_13
I0715 11:41:47.821398  8010 net.cpp:197] Top shape: 1 128 64 128 (1048576)
I0715 11:41:47.821400  8010 net.cpp:205] Memory required for data: 1048444928
I0715 11:41:47.821403  8010 layer_factory.hpp:123] Creating layer Concat_13_fixed
I0715 11:41:47.821409  8010 net.cpp:140] Creating Layer Concat_13_fixed
I0715 11:41:47.821413  8010 net.cpp:481] Concat_13_fixed <- Concat_13
I0715 11:41:47.821416  8010 net.cpp:442] Concat_13_fixed -> Concat_13 (in-place)
I0715 11:41:47.821442  8010 net.cpp:190] Setting up Concat_13_fixed
I0715 11:41:47.821449  8010 net.cpp:197] Top shape: 1 128 64 128 (1048576)
I0715 11:41:47.821451  8010 net.cpp:205] Memory required for data: 1052639232
I0715 11:41:47.821455  8010 layer_factory.hpp:123] Creating layer Add_42
I0715 11:41:47.821460  8010 net.cpp:140] Creating Layer Add_42
I0715 11:41:47.821463  8010 net.cpp:481] Add_42 <- BatchNorm_13_BatchNorm_13_fixed_0_split_1
I0715 11:41:47.821467  8010 net.cpp:481] Add_42 <- Concat_13
I0715 11:41:47.821472  8010 net.cpp:455] Add_42 -> Add_42
I0715 11:41:47.821488  8010 net.cpp:190] Setting up Add_42
I0715 11:41:47.821494  8010 net.cpp:197] Top shape: 1 128 64 128 (1048576)
I0715 11:41:47.821497  8010 net.cpp:205] Memory required for data: 1056833536
I0715 11:41:47.821501  8010 layer_factory.hpp:123] Creating layer Add_42_fixed
I0715 11:41:47.821506  8010 net.cpp:140] Creating Layer Add_42_fixed
I0715 11:41:47.821508  8010 net.cpp:481] Add_42_fixed <- Add_42
I0715 11:41:47.821512  8010 net.cpp:442] Add_42_fixed -> Add_42 (in-place)
I0715 11:41:47.821537  8010 net.cpp:190] Setting up Add_42_fixed
I0715 11:41:47.821542  8010 net.cpp:197] Top shape: 1 128 64 128 (1048576)
I0715 11:41:47.821545  8010 net.cpp:205] Memory required for data: 1061027840
I0715 11:41:47.821549  8010 layer_factory.hpp:123] Creating layer BatchNorm_14
I0715 11:41:47.821555  8010 net.cpp:140] Creating Layer BatchNorm_14
I0715 11:41:47.821558  8010 net.cpp:481] BatchNorm_14 <- Add_42
I0715 11:41:47.821563  8010 net.cpp:455] BatchNorm_14 -> BatchNorm_14
I0715 11:41:47.821593  8010 layer_factory.hpp:123] Creating layer BatchNorm_14
I0715 11:41:47.821655  8010 layer_factory.hpp:123] Creating layer BatchNorm_14
I0715 11:41:47.821683  8010 layer_factory.hpp:123] Creating layer BatchNorm_14
I0715 11:41:47.821789  8010 net.cpp:190] Setting up BatchNorm_14
I0715 11:41:47.821795  8010 net.cpp:197] Top shape: 1 128 64 128 (1048576)
I0715 11:41:47.821799  8010 net.cpp:205] Memory required for data: 1065222144
I0715 11:41:47.821804  8010 layer_factory.hpp:123] Creating layer Threshold_14
I0715 11:41:47.821808  8010 net.cpp:140] Creating Layer Threshold_14
I0715 11:41:47.821812  8010 net.cpp:481] Threshold_14 <- BatchNorm_14
I0715 11:41:47.821816  8010 net.cpp:442] Threshold_14 -> BatchNorm_14 (in-place)
I0715 11:41:47.821822  8010 net.cpp:190] Setting up Threshold_14
I0715 11:41:47.821826  8010 net.cpp:197] Top shape: 1 128 64 128 (1048576)
I0715 11:41:47.821830  8010 net.cpp:205] Memory required for data: 1069416448
I0715 11:41:47.821832  8010 layer_factory.hpp:123] Creating layer BatchNorm_14_fixed
I0715 11:41:47.821837  8010 net.cpp:140] Creating Layer BatchNorm_14_fixed
I0715 11:41:47.821841  8010 net.cpp:481] BatchNorm_14_fixed <- BatchNorm_14
I0715 11:41:47.821844  8010 net.cpp:442] BatchNorm_14_fixed -> BatchNorm_14 (in-place)
I0715 11:41:47.821869  8010 net.cpp:190] Setting up BatchNorm_14_fixed
I0715 11:41:47.821875  8010 net.cpp:197] Top shape: 1 128 64 128 (1048576)
I0715 11:41:47.821878  8010 net.cpp:205] Memory required for data: 1073610752
I0715 11:41:47.821882  8010 layer_factory.hpp:123] Creating layer BatchNorm_14_BatchNorm_14_fixed_0_split
I0715 11:41:47.821887  8010 net.cpp:140] Creating Layer BatchNorm_14_BatchNorm_14_fixed_0_split
I0715 11:41:47.821890  8010 net.cpp:481] BatchNorm_14_BatchNorm_14_fixed_0_split <- BatchNorm_14
I0715 11:41:47.821895  8010 net.cpp:455] BatchNorm_14_BatchNorm_14_fixed_0_split -> BatchNorm_14_BatchNorm_14_fixed_0_split_0
I0715 11:41:47.821902  8010 net.cpp:455] BatchNorm_14_BatchNorm_14_fixed_0_split -> BatchNorm_14_BatchNorm_14_fixed_0_split_1
I0715 11:41:47.821928  8010 net.cpp:190] Setting up BatchNorm_14_BatchNorm_14_fixed_0_split
I0715 11:41:47.821934  8010 net.cpp:197] Top shape: 1 128 64 128 (1048576)
I0715 11:41:47.821938  8010 net.cpp:197] Top shape: 1 128 64 128 (1048576)
I0715 11:41:47.821940  8010 net.cpp:205] Memory required for data: 1081999360
I0715 11:41:47.821943  8010 layer_factory.hpp:123] Creating layer ConvNd_69
I0715 11:41:47.821952  8010 net.cpp:140] Creating Layer ConvNd_69
I0715 11:41:47.821955  8010 net.cpp:481] ConvNd_69 <- BatchNorm_14_BatchNorm_14_fixed_0_split_0
I0715 11:41:47.821960  8010 net.cpp:455] ConvNd_69 -> ConvNd_69
I0715 11:41:47.822113  8010 layer_factory.hpp:123] Creating layer ConvNd_69
I0715 11:41:47.822336  8010 net.cpp:190] Setting up ConvNd_69
I0715 11:41:47.822345  8010 net.cpp:197] Top shape: 1 25 64 128 (204800)
I0715 11:41:47.822347  8010 net.cpp:205] Memory required for data: 1082818560
I0715 11:41:47.822352  8010 layer_factory.hpp:123] Creating layer ConvNd_69_fixed
I0715 11:41:47.822357  8010 net.cpp:140] Creating Layer ConvNd_69_fixed
I0715 11:41:47.822361  8010 net.cpp:481] ConvNd_69_fixed <- ConvNd_69
I0715 11:41:47.822365  8010 net.cpp:442] ConvNd_69_fixed -> ConvNd_69 (in-place)
I0715 11:41:47.822393  8010 net.cpp:190] Setting up ConvNd_69_fixed
I0715 11:41:47.822399  8010 net.cpp:197] Top shape: 1 25 64 128 (204800)
I0715 11:41:47.822402  8010 net.cpp:205] Memory required for data: 1083637760
I0715 11:41:47.822407  8010 layer_factory.hpp:123] Creating layer ConvNd_69_ConvNd_69_fixed_0_split
I0715 11:41:47.822412  8010 net.cpp:140] Creating Layer ConvNd_69_ConvNd_69_fixed_0_split
I0715 11:41:47.822415  8010 net.cpp:481] ConvNd_69_ConvNd_69_fixed_0_split <- ConvNd_69
I0715 11:41:47.822420  8010 net.cpp:455] ConvNd_69_ConvNd_69_fixed_0_split -> ConvNd_69_ConvNd_69_fixed_0_split_0
I0715 11:41:47.822427  8010 net.cpp:455] ConvNd_69_ConvNd_69_fixed_0_split -> ConvNd_69_ConvNd_69_fixed_0_split_1
I0715 11:41:47.822433  8010 net.cpp:455] ConvNd_69_ConvNd_69_fixed_0_split -> ConvNd_69_ConvNd_69_fixed_0_split_2
I0715 11:41:47.822440  8010 net.cpp:455] ConvNd_69_ConvNd_69_fixed_0_split -> ConvNd_69_ConvNd_69_fixed_0_split_3
I0715 11:41:47.822445  8010 net.cpp:455] ConvNd_69_ConvNd_69_fixed_0_split -> ConvNd_69_ConvNd_69_fixed_0_split_4
I0715 11:41:47.822499  8010 net.cpp:190] Setting up ConvNd_69_ConvNd_69_fixed_0_split
I0715 11:41:47.822505  8010 net.cpp:197] Top shape: 1 25 64 128 (204800)
I0715 11:41:47.822510  8010 net.cpp:197] Top shape: 1 25 64 128 (204800)
I0715 11:41:47.822513  8010 net.cpp:197] Top shape: 1 25 64 128 (204800)
I0715 11:41:47.822516  8010 net.cpp:197] Top shape: 1 25 64 128 (204800)
I0715 11:41:47.822520  8010 net.cpp:197] Top shape: 1 25 64 128 (204800)
I0715 11:41:47.822523  8010 net.cpp:205] Memory required for data: 1087733760
I0715 11:41:47.822526  8010 layer_factory.hpp:123] Creating layer ConvNd_70
I0715 11:41:47.822535  8010 net.cpp:140] Creating Layer ConvNd_70
I0715 11:41:47.822537  8010 net.cpp:481] ConvNd_70 <- ConvNd_69_ConvNd_69_fixed_0_split_0
I0715 11:41:47.822542  8010 net.cpp:455] ConvNd_70 -> ConvNd_70
I0715 11:41:47.822715  8010 layer_factory.hpp:123] Creating layer ConvNd_70
I0715 11:41:47.822962  8010 net.cpp:190] Setting up ConvNd_70
I0715 11:41:47.822970  8010 net.cpp:197] Top shape: 1 28 64 128 (229376)
I0715 11:41:47.822973  8010 net.cpp:205] Memory required for data: 1088651264
I0715 11:41:47.822978  8010 layer_factory.hpp:123] Creating layer ConvNd_71
I0715 11:41:47.822985  8010 net.cpp:140] Creating Layer ConvNd_71
I0715 11:41:47.822991  8010 net.cpp:481] ConvNd_71 <- ConvNd_69_ConvNd_69_fixed_0_split_1
I0715 11:41:47.822998  8010 net.cpp:455] ConvNd_71 -> ConvNd_71
I0715 11:41:47.823166  8010 layer_factory.hpp:123] Creating layer ConvNd_71
I0715 11:41:47.823400  8010 net.cpp:190] Setting up ConvNd_71
I0715 11:41:47.823407  8010 net.cpp:197] Top shape: 1 25 64 128 (204800)
I0715 11:41:47.823411  8010 net.cpp:205] Memory required for data: 1089470464
I0715 11:41:47.823415  8010 layer_factory.hpp:123] Creating layer ConvNd_71_fixed
I0715 11:41:47.823421  8010 net.cpp:140] Creating Layer ConvNd_71_fixed
I0715 11:41:47.823424  8010 net.cpp:481] ConvNd_71_fixed <- ConvNd_71
I0715 11:41:47.823429  8010 net.cpp:442] ConvNd_71_fixed -> ConvNd_71 (in-place)
I0715 11:41:47.823457  8010 net.cpp:190] Setting up ConvNd_71_fixed
I0715 11:41:47.823462  8010 net.cpp:197] Top shape: 1 25 64 128 (204800)
I0715 11:41:47.823465  8010 net.cpp:205] Memory required for data: 1090289664
I0715 11:41:47.823469  8010 layer_factory.hpp:123] Creating layer ConvNd_71_ConvNd_71_fixed_0_split
I0715 11:41:47.823474  8010 net.cpp:140] Creating Layer ConvNd_71_ConvNd_71_fixed_0_split
I0715 11:41:47.823477  8010 net.cpp:481] ConvNd_71_ConvNd_71_fixed_0_split <- ConvNd_71
I0715 11:41:47.823482  8010 net.cpp:455] ConvNd_71_ConvNd_71_fixed_0_split -> ConvNd_71_ConvNd_71_fixed_0_split_0
I0715 11:41:47.823488  8010 net.cpp:455] ConvNd_71_ConvNd_71_fixed_0_split -> ConvNd_71_ConvNd_71_fixed_0_split_1
I0715 11:41:47.823515  8010 net.cpp:190] Setting up ConvNd_71_ConvNd_71_fixed_0_split
I0715 11:41:47.823521  8010 net.cpp:197] Top shape: 1 25 64 128 (204800)
I0715 11:41:47.823525  8010 net.cpp:197] Top shape: 1 25 64 128 (204800)
I0715 11:41:47.823529  8010 net.cpp:205] Memory required for data: 1091928064
I0715 11:41:47.823531  8010 layer_factory.hpp:123] Creating layer ConvNd_72
I0715 11:41:47.823539  8010 net.cpp:140] Creating Layer ConvNd_72
I0715 11:41:47.823542  8010 net.cpp:481] ConvNd_72 <- ConvNd_69_ConvNd_69_fixed_0_split_2
I0715 11:41:47.823547  8010 net.cpp:455] ConvNd_72 -> ConvNd_72
I0715 11:41:47.823714  8010 layer_factory.hpp:123] Creating layer ConvNd_72
I0715 11:41:47.823958  8010 net.cpp:190] Setting up ConvNd_72
I0715 11:41:47.823966  8010 net.cpp:197] Top shape: 1 25 64 128 (204800)
I0715 11:41:47.823968  8010 net.cpp:205] Memory required for data: 1092747264
I0715 11:41:47.823972  8010 layer_factory.hpp:123] Creating layer ConvNd_72_fixed
I0715 11:41:47.823977  8010 net.cpp:140] Creating Layer ConvNd_72_fixed
I0715 11:41:47.823982  8010 net.cpp:481] ConvNd_72_fixed <- ConvNd_72
I0715 11:41:47.823985  8010 net.cpp:442] ConvNd_72_fixed -> ConvNd_72 (in-place)
I0715 11:41:47.824013  8010 net.cpp:190] Setting up ConvNd_72_fixed
I0715 11:41:47.824019  8010 net.cpp:197] Top shape: 1 25 64 128 (204800)
I0715 11:41:47.824023  8010 net.cpp:205] Memory required for data: 1093566464
I0715 11:41:47.824026  8010 layer_factory.hpp:123] Creating layer Add_43
I0715 11:41:47.824031  8010 net.cpp:140] Creating Layer Add_43
I0715 11:41:47.824035  8010 net.cpp:481] Add_43 <- ConvNd_71_ConvNd_71_fixed_0_split_0
I0715 11:41:47.824039  8010 net.cpp:481] Add_43 <- ConvNd_72
I0715 11:41:47.824044  8010 net.cpp:455] Add_43 -> Add_43
I0715 11:41:47.824061  8010 net.cpp:190] Setting up Add_43
I0715 11:41:47.824066  8010 net.cpp:197] Top shape: 1 25 64 128 (204800)
I0715 11:41:47.824069  8010 net.cpp:205] Memory required for data: 1094385664
I0715 11:41:47.824074  8010 layer_factory.hpp:123] Creating layer Add_43_fixed
I0715 11:41:47.824077  8010 net.cpp:140] Creating Layer Add_43_fixed
I0715 11:41:47.824080  8010 net.cpp:481] Add_43_fixed <- Add_43
I0715 11:41:47.824085  8010 net.cpp:442] Add_43_fixed -> Add_43 (in-place)
I0715 11:41:47.824111  8010 net.cpp:190] Setting up Add_43_fixed
I0715 11:41:47.824117  8010 net.cpp:197] Top shape: 1 25 64 128 (204800)
I0715 11:41:47.824120  8010 net.cpp:205] Memory required for data: 1095204864
I0715 11:41:47.824123  8010 layer_factory.hpp:123] Creating layer Add_43_Add_43_fixed_0_split
I0715 11:41:47.824129  8010 net.cpp:140] Creating Layer Add_43_Add_43_fixed_0_split
I0715 11:41:47.824132  8010 net.cpp:481] Add_43_Add_43_fixed_0_split <- Add_43
I0715 11:41:47.824137  8010 net.cpp:455] Add_43_Add_43_fixed_0_split -> Add_43_Add_43_fixed_0_split_0
I0715 11:41:47.824143  8010 net.cpp:455] Add_43_Add_43_fixed_0_split -> Add_43_Add_43_fixed_0_split_1
I0715 11:41:47.824170  8010 net.cpp:190] Setting up Add_43_Add_43_fixed_0_split
I0715 11:41:47.824175  8010 net.cpp:197] Top shape: 1 25 64 128 (204800)
I0715 11:41:47.824179  8010 net.cpp:197] Top shape: 1 25 64 128 (204800)
I0715 11:41:47.824182  8010 net.cpp:205] Memory required for data: 1096843264
I0715 11:41:47.824185  8010 layer_factory.hpp:123] Creating layer ConvNd_73
I0715 11:41:47.824193  8010 net.cpp:140] Creating Layer ConvNd_73
I0715 11:41:47.824196  8010 net.cpp:481] ConvNd_73 <- ConvNd_69_ConvNd_69_fixed_0_split_3
I0715 11:41:47.824201  8010 net.cpp:455] ConvNd_73 -> ConvNd_73
I0715 11:41:47.824368  8010 layer_factory.hpp:123] Creating layer ConvNd_73
I0715 11:41:47.824605  8010 net.cpp:190] Setting up ConvNd_73
I0715 11:41:47.824612  8010 net.cpp:197] Top shape: 1 25 64 128 (204800)
I0715 11:41:47.824615  8010 net.cpp:205] Memory required for data: 1097662464
I0715 11:41:47.824620  8010 layer_factory.hpp:123] Creating layer ConvNd_73_fixed
I0715 11:41:47.824625  8010 net.cpp:140] Creating Layer ConvNd_73_fixed
I0715 11:41:47.824627  8010 net.cpp:481] ConvNd_73_fixed <- ConvNd_73
I0715 11:41:47.824632  8010 net.cpp:442] ConvNd_73_fixed -> ConvNd_73 (in-place)
I0715 11:41:47.824659  8010 net.cpp:190] Setting up ConvNd_73_fixed
I0715 11:41:47.824664  8010 net.cpp:197] Top shape: 1 25 64 128 (204800)
I0715 11:41:47.824667  8010 net.cpp:205] Memory required for data: 1098481664
I0715 11:41:47.824671  8010 layer_factory.hpp:123] Creating layer Add_44
I0715 11:41:47.824677  8010 net.cpp:140] Creating Layer Add_44
I0715 11:41:47.824681  8010 net.cpp:481] Add_44 <- Add_43_Add_43_fixed_0_split_0
I0715 11:41:47.824685  8010 net.cpp:481] Add_44 <- ConvNd_73
I0715 11:41:47.824690  8010 net.cpp:455] Add_44 -> Add_44
I0715 11:41:47.824707  8010 net.cpp:190] Setting up Add_44
I0715 11:41:47.824712  8010 net.cpp:197] Top shape: 1 25 64 128 (204800)
I0715 11:41:47.824715  8010 net.cpp:205] Memory required for data: 1099300864
I0715 11:41:47.824718  8010 layer_factory.hpp:123] Creating layer Add_44_fixed
I0715 11:41:47.824723  8010 net.cpp:140] Creating Layer Add_44_fixed
I0715 11:41:47.824726  8010 net.cpp:481] Add_44_fixed <- Add_44
I0715 11:41:47.824730  8010 net.cpp:442] Add_44_fixed -> Add_44 (in-place)
I0715 11:41:47.824755  8010 net.cpp:190] Setting up Add_44_fixed
I0715 11:41:47.824761  8010 net.cpp:197] Top shape: 1 25 64 128 (204800)
I0715 11:41:47.824764  8010 net.cpp:205] Memory required for data: 1100120064
I0715 11:41:47.824769  8010 layer_factory.hpp:123] Creating layer Add_44_Add_44_fixed_0_split
I0715 11:41:47.824774  8010 net.cpp:140] Creating Layer Add_44_Add_44_fixed_0_split
I0715 11:41:47.824776  8010 net.cpp:481] Add_44_Add_44_fixed_0_split <- Add_44
I0715 11:41:47.824781  8010 net.cpp:455] Add_44_Add_44_fixed_0_split -> Add_44_Add_44_fixed_0_split_0
I0715 11:41:47.824787  8010 net.cpp:455] Add_44_Add_44_fixed_0_split -> Add_44_Add_44_fixed_0_split_1
I0715 11:41:47.824815  8010 net.cpp:190] Setting up Add_44_Add_44_fixed_0_split
I0715 11:41:47.824820  8010 net.cpp:197] Top shape: 1 25 64 128 (204800)
I0715 11:41:47.824823  8010 net.cpp:197] Top shape: 1 25 64 128 (204800)
I0715 11:41:47.824826  8010 net.cpp:205] Memory required for data: 1101758464
I0715 11:41:47.824828  8010 layer_factory.hpp:123] Creating layer ConvNd_74
I0715 11:41:47.824836  8010 net.cpp:140] Creating Layer ConvNd_74
I0715 11:41:47.824839  8010 net.cpp:481] ConvNd_74 <- ConvNd_69_ConvNd_69_fixed_0_split_4
I0715 11:41:47.824846  8010 net.cpp:455] ConvNd_74 -> ConvNd_74
I0715 11:41:47.825012  8010 layer_factory.hpp:123] Creating layer ConvNd_74
I0715 11:41:47.825249  8010 net.cpp:190] Setting up ConvNd_74
I0715 11:41:47.825256  8010 net.cpp:197] Top shape: 1 25 64 128 (204800)
I0715 11:41:47.825259  8010 net.cpp:205] Memory required for data: 1102577664
I0715 11:41:47.825263  8010 layer_factory.hpp:123] Creating layer ConvNd_74_fixed
I0715 11:41:47.825268  8010 net.cpp:140] Creating Layer ConvNd_74_fixed
I0715 11:41:47.825271  8010 net.cpp:481] ConvNd_74_fixed <- ConvNd_74
I0715 11:41:47.825276  8010 net.cpp:442] ConvNd_74_fixed -> ConvNd_74 (in-place)
I0715 11:41:47.825304  8010 net.cpp:190] Setting up ConvNd_74_fixed
I0715 11:41:47.825309  8010 net.cpp:197] Top shape: 1 25 64 128 (204800)
I0715 11:41:47.825312  8010 net.cpp:205] Memory required for data: 1103396864
I0715 11:41:47.825316  8010 layer_factory.hpp:123] Creating layer Add_45
I0715 11:41:47.825321  8010 net.cpp:140] Creating Layer Add_45
I0715 11:41:47.825325  8010 net.cpp:481] Add_45 <- Add_44_Add_44_fixed_0_split_0
I0715 11:41:47.825330  8010 net.cpp:481] Add_45 <- ConvNd_74
I0715 11:41:47.825333  8010 net.cpp:455] Add_45 -> Add_45
I0715 11:41:47.825350  8010 net.cpp:190] Setting up Add_45
I0715 11:41:47.825356  8010 net.cpp:197] Top shape: 1 25 64 128 (204800)
I0715 11:41:47.825358  8010 net.cpp:205] Memory required for data: 1104216064
I0715 11:41:47.825361  8010 layer_factory.hpp:123] Creating layer Concat_14
I0715 11:41:47.825366  8010 net.cpp:140] Creating Layer Concat_14
I0715 11:41:47.825371  8010 net.cpp:481] Concat_14 <- ConvNd_70
I0715 11:41:47.825373  8010 net.cpp:481] Concat_14 <- ConvNd_71_ConvNd_71_fixed_0_split_1
I0715 11:41:47.825378  8010 net.cpp:481] Concat_14 <- Add_43_Add_43_fixed_0_split_1
I0715 11:41:47.825382  8010 net.cpp:481] Concat_14 <- Add_44_Add_44_fixed_0_split_1
I0715 11:41:47.825386  8010 net.cpp:481] Concat_14 <- Add_45
I0715 11:41:47.825390  8010 net.cpp:455] Concat_14 -> Concat_14
I0715 11:41:47.825409  8010 net.cpp:190] Setting up Concat_14
I0715 11:41:47.825415  8010 net.cpp:197] Top shape: 1 128 64 128 (1048576)
I0715 11:41:47.825418  8010 net.cpp:205] Memory required for data: 1108410368
I0715 11:41:47.825421  8010 layer_factory.hpp:123] Creating layer Concat_14_fixed
I0715 11:41:47.825425  8010 net.cpp:140] Creating Layer Concat_14_fixed
I0715 11:41:47.825428  8010 net.cpp:481] Concat_14_fixed <- Concat_14
I0715 11:41:47.825433  8010 net.cpp:442] Concat_14_fixed -> Concat_14 (in-place)
I0715 11:41:47.825459  8010 net.cpp:190] Setting up Concat_14_fixed
I0715 11:41:47.825464  8010 net.cpp:197] Top shape: 1 128 64 128 (1048576)
I0715 11:41:47.825467  8010 net.cpp:205] Memory required for data: 1112604672
I0715 11:41:47.825471  8010 layer_factory.hpp:123] Creating layer Add_46
I0715 11:41:47.825476  8010 net.cpp:140] Creating Layer Add_46
I0715 11:41:47.825479  8010 net.cpp:481] Add_46 <- BatchNorm_14_BatchNorm_14_fixed_0_split_1
I0715 11:41:47.825484  8010 net.cpp:481] Add_46 <- Concat_14
I0715 11:41:47.825489  8010 net.cpp:455] Add_46 -> Add_46
I0715 11:41:47.825505  8010 net.cpp:190] Setting up Add_46
I0715 11:41:47.825510  8010 net.cpp:197] Top shape: 1 128 64 128 (1048576)
I0715 11:41:47.825512  8010 net.cpp:205] Memory required for data: 1116798976
I0715 11:41:47.825516  8010 layer_factory.hpp:123] Creating layer Add_46_fixed
I0715 11:41:47.825520  8010 net.cpp:140] Creating Layer Add_46_fixed
I0715 11:41:47.825523  8010 net.cpp:481] Add_46_fixed <- Add_46
I0715 11:41:47.825527  8010 net.cpp:442] Add_46_fixed -> Add_46 (in-place)
I0715 11:41:47.825553  8010 net.cpp:190] Setting up Add_46_fixed
I0715 11:41:47.825558  8010 net.cpp:197] Top shape: 1 128 64 128 (1048576)
I0715 11:41:47.825562  8010 net.cpp:205] Memory required for data: 1120993280
I0715 11:41:47.825564  8010 layer_factory.hpp:123] Creating layer BatchNorm_15
I0715 11:41:47.825570  8010 net.cpp:140] Creating Layer BatchNorm_15
I0715 11:41:47.825573  8010 net.cpp:481] BatchNorm_15 <- Add_46
I0715 11:41:47.825578  8010 net.cpp:455] BatchNorm_15 -> BatchNorm_15
I0715 11:41:47.825606  8010 layer_factory.hpp:123] Creating layer BatchNorm_15
I0715 11:41:47.825670  8010 layer_factory.hpp:123] Creating layer BatchNorm_15
I0715 11:41:47.825698  8010 layer_factory.hpp:123] Creating layer BatchNorm_15
I0715 11:41:47.825808  8010 net.cpp:190] Setting up BatchNorm_15
I0715 11:41:47.825814  8010 net.cpp:197] Top shape: 1 128 64 128 (1048576)
I0715 11:41:47.825817  8010 net.cpp:205] Memory required for data: 1125187584
I0715 11:41:47.825822  8010 layer_factory.hpp:123] Creating layer Threshold_15
I0715 11:41:47.825827  8010 net.cpp:140] Creating Layer Threshold_15
I0715 11:41:47.825831  8010 net.cpp:481] Threshold_15 <- BatchNorm_15
I0715 11:41:47.825836  8010 net.cpp:442] Threshold_15 -> BatchNorm_15 (in-place)
I0715 11:41:47.825842  8010 net.cpp:190] Setting up Threshold_15
I0715 11:41:47.825845  8010 net.cpp:197] Top shape: 1 128 64 128 (1048576)
I0715 11:41:47.825848  8010 net.cpp:205] Memory required for data: 1129381888
I0715 11:41:47.825851  8010 layer_factory.hpp:123] Creating layer Concat_15
I0715 11:41:47.825856  8010 net.cpp:140] Creating Layer Concat_15
I0715 11:41:47.825860  8010 net.cpp:481] Concat_15 <- BatchNorm_7_BatchNorm_7_fixed_0_split_2
I0715 11:41:47.825865  8010 net.cpp:481] Concat_15 <- BatchNorm_15
I0715 11:41:47.825870  8010 net.cpp:455] Concat_15 -> Concat_15
I0715 11:41:47.825888  8010 net.cpp:190] Setting up Concat_15
I0715 11:41:47.825894  8010 net.cpp:197] Top shape: 1 256 64 128 (2097152)
I0715 11:41:47.825897  8010 net.cpp:205] Memory required for data: 1137770496
I0715 11:41:47.825901  8010 layer_factory.hpp:123] Creating layer Concat_15_fixed
I0715 11:41:47.825904  8010 net.cpp:140] Creating Layer Concat_15_fixed
I0715 11:41:47.825907  8010 net.cpp:481] Concat_15_fixed <- Concat_15
I0715 11:41:47.825911  8010 net.cpp:442] Concat_15_fixed -> Concat_15 (in-place)
I0715 11:41:47.825938  8010 net.cpp:190] Setting up Concat_15_fixed
I0715 11:41:47.825944  8010 net.cpp:197] Top shape: 1 256 64 128 (2097152)
I0715 11:41:47.825947  8010 net.cpp:205] Memory required for data: 1146159104
I0715 11:41:47.825951  8010 layer_factory.hpp:123] Creating layer BatchNorm_16
I0715 11:41:47.825958  8010 net.cpp:140] Creating Layer BatchNorm_16
I0715 11:41:47.825960  8010 net.cpp:481] BatchNorm_16 <- Concat_15
I0715 11:41:47.825965  8010 net.cpp:455] BatchNorm_16 -> BatchNorm_16
I0715 11:41:47.825994  8010 layer_factory.hpp:123] Creating layer BatchNorm_16
I0715 11:41:47.826051  8010 layer_factory.hpp:123] Creating layer BatchNorm_16
I0715 11:41:47.826081  8010 layer_factory.hpp:123] Creating layer BatchNorm_16
I0715 11:41:47.826185  8010 net.cpp:190] Setting up BatchNorm_16
I0715 11:41:47.826191  8010 net.cpp:197] Top shape: 1 256 64 128 (2097152)
I0715 11:41:47.826195  8010 net.cpp:205] Memory required for data: 1154547712
I0715 11:41:47.826200  8010 layer_factory.hpp:123] Creating layer Threshold_16
I0715 11:41:47.826205  8010 net.cpp:140] Creating Layer Threshold_16
I0715 11:41:47.826207  8010 net.cpp:481] Threshold_16 <- BatchNorm_16
I0715 11:41:47.826212  8010 net.cpp:442] Threshold_16 -> BatchNorm_16 (in-place)
I0715 11:41:47.826218  8010 net.cpp:190] Setting up Threshold_16
I0715 11:41:47.826221  8010 net.cpp:197] Top shape: 1 256 64 128 (2097152)
I0715 11:41:47.826225  8010 net.cpp:205] Memory required for data: 1162936320
I0715 11:41:47.826227  8010 layer_factory.hpp:123] Creating layer BatchNorm_16_fixed
I0715 11:41:47.826232  8010 net.cpp:140] Creating Layer BatchNorm_16_fixed
I0715 11:41:47.826236  8010 net.cpp:481] BatchNorm_16_fixed <- BatchNorm_16
I0715 11:41:47.826241  8010 net.cpp:442] BatchNorm_16_fixed -> BatchNorm_16 (in-place)
I0715 11:41:47.826265  8010 net.cpp:190] Setting up BatchNorm_16_fixed
I0715 11:41:47.826272  8010 net.cpp:197] Top shape: 1 256 64 128 (2097152)
I0715 11:41:47.826274  8010 net.cpp:205] Memory required for data: 1171324928
I0715 11:41:47.826278  8010 layer_factory.hpp:123] Creating layer ConvNd_75
I0715 11:41:47.826287  8010 net.cpp:140] Creating Layer ConvNd_75
I0715 11:41:47.826289  8010 net.cpp:481] ConvNd_75 <- BatchNorm_16
I0715 11:41:47.826294  8010 net.cpp:455] ConvNd_75 -> BatchNorm_17
I0715 11:41:47.826491  8010 layer_factory.hpp:123] Creating layer ConvNd_75
I0715 11:41:47.826802  8010 net.cpp:190] Setting up ConvNd_75
I0715 11:41:47.826809  8010 net.cpp:197] Top shape: 1 19 64 128 (155648)
I0715 11:41:47.826812  8010 net.cpp:205] Memory required for data: 1171947520
I0715 11:41:47.826817  8010 layer_factory.hpp:123] Creating layer BatchNorm_17_fixed
I0715 11:41:47.826823  8010 net.cpp:140] Creating Layer BatchNorm_17_fixed
I0715 11:41:47.826826  8010 net.cpp:481] BatchNorm_17_fixed <- BatchNorm_17
I0715 11:41:47.826831  8010 net.cpp:442] BatchNorm_17_fixed -> BatchNorm_17 (in-place)
I0715 11:41:47.826859  8010 net.cpp:190] Setting up BatchNorm_17_fixed
I0715 11:41:47.826865  8010 net.cpp:197] Top shape: 1 19 64 128 (155648)
I0715 11:41:47.826869  8010 net.cpp:205] Memory required for data: 1172570112
I0715 11:41:47.826872  8010 layer_factory.hpp:123] Creating layer ConvNd_76
I0715 11:41:47.826879  8010 net.cpp:140] Creating Layer ConvNd_76
I0715 11:41:47.826882  8010 net.cpp:481] ConvNd_76 <- BatchNorm_17
I0715 11:41:47.826887  8010 net.cpp:455] ConvNd_76 -> ConvNd_76
I0715 11:41:47.827035  8010 layer_factory.hpp:123] Creating layer ConvNd_76
I0715 11:41:47.827250  8010 net.cpp:190] Setting up ConvNd_76
I0715 11:41:47.827258  8010 net.cpp:197] Top shape: 1 19 128 256 (622592)
I0715 11:41:47.827261  8010 net.cpp:205] Memory required for data: 1175060480
I0715 11:41:47.827265  8010 layer_factory.hpp:123] Creating layer 
I0715 11:41:47.827270  8010 net.cpp:140] Creating Layer 
I0715 11:41:47.827275  8010 net.cpp:481]  <- ConvNd_20
I0715 11:41:47.827278  8010 net.cpp:481]  <- ConvNd_76
I0715 11:41:47.827283  8010 net.cpp:455]  -> 
I0715 11:41:47.827302  8010 net.cpp:190] Setting up 
I0715 11:41:47.827308  8010 net.cpp:197] Top shape: 1 38 128 256 (1245184)
I0715 11:41:47.827311  8010 net.cpp:205] Memory required for data: 1180041216
I0715 11:41:47.827313  8010 layer_factory.hpp:123] Creating layer _fixed
I0715 11:41:47.827318  8010 net.cpp:140] Creating Layer _fixed
I0715 11:41:47.827322  8010 net.cpp:481] _fixed <- 
I0715 11:41:47.827325  8010 net.cpp:442] _fixed ->  (in-place)
I0715 11:41:47.827353  8010 net.cpp:190] Setting up _fixed
I0715 11:41:47.827358  8010 net.cpp:197] Top shape: 1 38 128 256 (1245184)
I0715 11:41:47.827361  8010 net.cpp:205] Memory required for data: 1185021952
I0715 11:41:47.827365  8010 layer_factory.hpp:123] Creating layer BatchNorm_18
I0715 11:41:47.827370  8010 net.cpp:140] Creating Layer BatchNorm_18
I0715 11:41:47.827373  8010 net.cpp:481] BatchNorm_18 <- 
I0715 11:41:47.827379  8010 net.cpp:455] BatchNorm_18 -> BatchNorm_18
I0715 11:41:47.827412  8010 layer_factory.hpp:123] Creating layer BatchNorm_18
I0715 11:41:47.827502  8010 layer_factory.hpp:123] Creating layer BatchNorm_18
I0715 11:41:47.827535  8010 layer_factory.hpp:123] Creating layer BatchNorm_18
I0715 11:41:47.827703  8010 net.cpp:190] Setting up BatchNorm_18
I0715 11:41:47.827710  8010 net.cpp:197] Top shape: 1 38 128 256 (1245184)
I0715 11:41:47.827713  8010 net.cpp:205] Memory required for data: 1190002688
I0715 11:41:47.827718  8010 layer_factory.hpp:123] Creating layer Threshold_17
I0715 11:41:47.827723  8010 net.cpp:140] Creating Layer Threshold_17
I0715 11:41:47.827728  8010 net.cpp:481] Threshold_17 <- BatchNorm_18
I0715 11:41:47.827731  8010 net.cpp:442] Threshold_17 -> BatchNorm_18 (in-place)
I0715 11:41:47.827739  8010 net.cpp:190] Setting up Threshold_17
I0715 11:41:47.827742  8010 net.cpp:197] Top shape: 1 38 128 256 (1245184)
I0715 11:41:47.827744  8010 net.cpp:205] Memory required for data: 1194983424
I0715 11:41:47.827749  8010 layer_factory.hpp:123] Creating layer BatchNorm_18_fixed
I0715 11:41:47.827752  8010 net.cpp:140] Creating Layer BatchNorm_18_fixed
I0715 11:41:47.827766  8010 net.cpp:481] BatchNorm_18_fixed <- BatchNorm_18
I0715 11:41:47.827770  8010 net.cpp:442] BatchNorm_18_fixed -> BatchNorm_18 (in-place)
I0715 11:41:47.827798  8010 net.cpp:190] Setting up BatchNorm_18_fixed
I0715 11:41:47.827805  8010 net.cpp:197] Top shape: 1 38 128 256 (1245184)
I0715 11:41:47.827807  8010 net.cpp:205] Memory required for data: 1199964160
I0715 11:41:47.827811  8010 layer_factory.hpp:123] Creating layer ConvNd_77
I0715 11:41:47.827818  8010 net.cpp:140] Creating Layer ConvNd_77
I0715 11:41:47.827821  8010 net.cpp:481] ConvNd_77 <- BatchNorm_18
I0715 11:41:47.827827  8010 net.cpp:455] ConvNd_77 -> ConvNd_77
I0715 11:41:47.827944  8010 layer_factory.hpp:123] Creating layer ConvNd_77
I0715 11:41:47.828131  8010 net.cpp:190] Setting up ConvNd_77
I0715 11:41:47.828138  8010 net.cpp:197] Top shape: 1 4 128 256 (131072)
I0715 11:41:47.828141  8010 net.cpp:205] Memory required for data: 1200488448
I0715 11:41:47.828145  8010 layer_factory.hpp:123] Creating layer ConvNd_77_fixed
I0715 11:41:47.828150  8010 net.cpp:140] Creating Layer ConvNd_77_fixed
I0715 11:41:47.828155  8010 net.cpp:481] ConvNd_77_fixed <- ConvNd_77
I0715 11:41:47.828158  8010 net.cpp:442] ConvNd_77_fixed -> ConvNd_77 (in-place)
I0715 11:41:47.828186  8010 net.cpp:190] Setting up ConvNd_77_fixed
I0715 11:41:47.828191  8010 net.cpp:197] Top shape: 1 4 128 256 (131072)
I0715 11:41:47.828194  8010 net.cpp:205] Memory required for data: 1201012736
I0715 11:41:47.828199  8010 layer_factory.hpp:123] Creating layer ConvNd_77_ConvNd_77_fixed_0_split
I0715 11:41:47.828205  8010 net.cpp:140] Creating Layer ConvNd_77_ConvNd_77_fixed_0_split
I0715 11:41:47.828208  8010 net.cpp:481] ConvNd_77_ConvNd_77_fixed_0_split <- ConvNd_77
I0715 11:41:47.828213  8010 net.cpp:455] ConvNd_77_ConvNd_77_fixed_0_split -> ConvNd_77_ConvNd_77_fixed_0_split_0
I0715 11:41:47.828220  8010 net.cpp:455] ConvNd_77_ConvNd_77_fixed_0_split -> ConvNd_77_ConvNd_77_fixed_0_split_1
I0715 11:41:47.828227  8010 net.cpp:455] ConvNd_77_ConvNd_77_fixed_0_split -> ConvNd_77_ConvNd_77_fixed_0_split_2
I0715 11:41:47.828233  8010 net.cpp:455] ConvNd_77_ConvNd_77_fixed_0_split -> ConvNd_77_ConvNd_77_fixed_0_split_3
I0715 11:41:47.828238  8010 net.cpp:455] ConvNd_77_ConvNd_77_fixed_0_split -> ConvNd_77_ConvNd_77_fixed_0_split_4
I0715 11:41:47.828292  8010 net.cpp:190] Setting up ConvNd_77_ConvNd_77_fixed_0_split
I0715 11:41:47.828297  8010 net.cpp:197] Top shape: 1 4 128 256 (131072)
I0715 11:41:47.828301  8010 net.cpp:197] Top shape: 1 4 128 256 (131072)
I0715 11:41:47.828305  8010 net.cpp:197] Top shape: 1 4 128 256 (131072)
I0715 11:41:47.828308  8010 net.cpp:197] Top shape: 1 4 128 256 (131072)
I0715 11:41:47.828312  8010 net.cpp:197] Top shape: 1 4 128 256 (131072)
I0715 11:41:47.828315  8010 net.cpp:205] Memory required for data: 1203634176
I0715 11:41:47.828317  8010 layer_factory.hpp:123] Creating layer ConvNd_78
I0715 11:41:47.828325  8010 net.cpp:140] Creating Layer ConvNd_78
I0715 11:41:47.828331  8010 net.cpp:481] ConvNd_78 <- ConvNd_77_ConvNd_77_fixed_0_split_0
I0715 11:41:47.828337  8010 net.cpp:455] ConvNd_78 -> ConvNd_78
I0715 11:41:47.828459  8010 layer_factory.hpp:123] Creating layer ConvNd_78
I0715 11:41:47.828647  8010 net.cpp:190] Setting up ConvNd_78
I0715 11:41:47.828655  8010 net.cpp:197] Top shape: 1 4 128 256 (131072)
I0715 11:41:47.828657  8010 net.cpp:205] Memory required for data: 1204158464
I0715 11:41:47.828662  8010 layer_factory.hpp:123] Creating layer ConvNd_79
I0715 11:41:47.828670  8010 net.cpp:140] Creating Layer ConvNd_79
I0715 11:41:47.828675  8010 net.cpp:481] ConvNd_79 <- ConvNd_77_ConvNd_77_fixed_0_split_1
I0715 11:41:47.828680  8010 net.cpp:455] ConvNd_79 -> ConvNd_79
I0715 11:41:47.828794  8010 layer_factory.hpp:123] Creating layer ConvNd_79
I0715 11:41:47.828974  8010 net.cpp:190] Setting up ConvNd_79
I0715 11:41:47.828980  8010 net.cpp:197] Top shape: 1 4 128 256 (131072)
I0715 11:41:47.828984  8010 net.cpp:205] Memory required for data: 1204682752
I0715 11:41:47.828987  8010 layer_factory.hpp:123] Creating layer ConvNd_79_fixed
I0715 11:41:47.828992  8010 net.cpp:140] Creating Layer ConvNd_79_fixed
I0715 11:41:47.828995  8010 net.cpp:481] ConvNd_79_fixed <- ConvNd_79
I0715 11:41:47.829000  8010 net.cpp:442] ConvNd_79_fixed -> ConvNd_79 (in-place)
I0715 11:41:47.829026  8010 net.cpp:190] Setting up ConvNd_79_fixed
I0715 11:41:47.829032  8010 net.cpp:197] Top shape: 1 4 128 256 (131072)
I0715 11:41:47.829035  8010 net.cpp:205] Memory required for data: 1205207040
I0715 11:41:47.829039  8010 layer_factory.hpp:123] Creating layer ConvNd_79_ConvNd_79_fixed_0_split
I0715 11:41:47.829044  8010 net.cpp:140] Creating Layer ConvNd_79_ConvNd_79_fixed_0_split
I0715 11:41:47.829047  8010 net.cpp:481] ConvNd_79_ConvNd_79_fixed_0_split <- ConvNd_79
I0715 11:41:47.829052  8010 net.cpp:455] ConvNd_79_ConvNd_79_fixed_0_split -> ConvNd_79_ConvNd_79_fixed_0_split_0
I0715 11:41:47.829058  8010 net.cpp:455] ConvNd_79_ConvNd_79_fixed_0_split -> ConvNd_79_ConvNd_79_fixed_0_split_1
I0715 11:41:47.829085  8010 net.cpp:190] Setting up ConvNd_79_ConvNd_79_fixed_0_split
I0715 11:41:47.829092  8010 net.cpp:197] Top shape: 1 4 128 256 (131072)
I0715 11:41:47.829095  8010 net.cpp:197] Top shape: 1 4 128 256 (131072)
I0715 11:41:47.829097  8010 net.cpp:205] Memory required for data: 1206255616
I0715 11:41:47.829100  8010 layer_factory.hpp:123] Creating layer ConvNd_80
I0715 11:41:47.829108  8010 net.cpp:140] Creating Layer ConvNd_80
I0715 11:41:47.829111  8010 net.cpp:481] ConvNd_80 <- ConvNd_77_ConvNd_77_fixed_0_split_2
I0715 11:41:47.829118  8010 net.cpp:455] ConvNd_80 -> ConvNd_80
I0715 11:41:47.829231  8010 layer_factory.hpp:123] Creating layer ConvNd_80
I0715 11:41:47.829412  8010 net.cpp:190] Setting up ConvNd_80
I0715 11:41:47.829418  8010 net.cpp:197] Top shape: 1 4 128 256 (131072)
I0715 11:41:47.829421  8010 net.cpp:205] Memory required for data: 1206779904
I0715 11:41:47.829425  8010 layer_factory.hpp:123] Creating layer ConvNd_80_fixed
I0715 11:41:47.829430  8010 net.cpp:140] Creating Layer ConvNd_80_fixed
I0715 11:41:47.829433  8010 net.cpp:481] ConvNd_80_fixed <- ConvNd_80
I0715 11:41:47.829438  8010 net.cpp:442] ConvNd_80_fixed -> ConvNd_80 (in-place)
I0715 11:41:47.829464  8010 net.cpp:190] Setting up ConvNd_80_fixed
I0715 11:41:47.829470  8010 net.cpp:197] Top shape: 1 4 128 256 (131072)
I0715 11:41:47.829473  8010 net.cpp:205] Memory required for data: 1207304192
I0715 11:41:47.829478  8010 layer_factory.hpp:123] Creating layer Add_47
I0715 11:41:47.829483  8010 net.cpp:140] Creating Layer Add_47
I0715 11:41:47.829486  8010 net.cpp:481] Add_47 <- ConvNd_79_ConvNd_79_fixed_0_split_0
I0715 11:41:47.829490  8010 net.cpp:481] Add_47 <- ConvNd_80
I0715 11:41:47.829494  8010 net.cpp:455] Add_47 -> Add_47
I0715 11:41:47.829511  8010 net.cpp:190] Setting up Add_47
I0715 11:41:47.829517  8010 net.cpp:197] Top shape: 1 4 128 256 (131072)
I0715 11:41:47.829520  8010 net.cpp:205] Memory required for data: 1207828480
I0715 11:41:47.829524  8010 layer_factory.hpp:123] Creating layer Add_47_fixed
I0715 11:41:47.829529  8010 net.cpp:140] Creating Layer Add_47_fixed
I0715 11:41:47.829531  8010 net.cpp:481] Add_47_fixed <- Add_47
I0715 11:41:47.829536  8010 net.cpp:442] Add_47_fixed -> Add_47 (in-place)
I0715 11:41:47.829562  8010 net.cpp:190] Setting up Add_47_fixed
I0715 11:41:47.829568  8010 net.cpp:197] Top shape: 1 4 128 256 (131072)
I0715 11:41:47.829571  8010 net.cpp:205] Memory required for data: 1208352768
I0715 11:41:47.829576  8010 layer_factory.hpp:123] Creating layer Add_47_Add_47_fixed_0_split
I0715 11:41:47.829581  8010 net.cpp:140] Creating Layer Add_47_Add_47_fixed_0_split
I0715 11:41:47.829583  8010 net.cpp:481] Add_47_Add_47_fixed_0_split <- Add_47
I0715 11:41:47.829588  8010 net.cpp:455] Add_47_Add_47_fixed_0_split -> Add_47_Add_47_fixed_0_split_0
I0715 11:41:47.829594  8010 net.cpp:455] Add_47_Add_47_fixed_0_split -> Add_47_Add_47_fixed_0_split_1
I0715 11:41:47.829620  8010 net.cpp:190] Setting up Add_47_Add_47_fixed_0_split
I0715 11:41:47.829627  8010 net.cpp:197] Top shape: 1 4 128 256 (131072)
I0715 11:41:47.829630  8010 net.cpp:197] Top shape: 1 4 128 256 (131072)
I0715 11:41:47.829633  8010 net.cpp:205] Memory required for data: 1209401344
I0715 11:41:47.829635  8010 layer_factory.hpp:123] Creating layer ConvNd_81
I0715 11:41:47.829643  8010 net.cpp:140] Creating Layer ConvNd_81
I0715 11:41:47.829646  8010 net.cpp:481] ConvNd_81 <- ConvNd_77_ConvNd_77_fixed_0_split_3
I0715 11:41:47.829651  8010 net.cpp:455] ConvNd_81 -> ConvNd_81
I0715 11:41:47.829766  8010 layer_factory.hpp:123] Creating layer ConvNd_81
I0715 11:41:47.829944  8010 net.cpp:190] Setting up ConvNd_81
I0715 11:41:47.829952  8010 net.cpp:197] Top shape: 1 4 128 256 (131072)
I0715 11:41:47.829954  8010 net.cpp:205] Memory required for data: 1209925632
I0715 11:41:47.829958  8010 layer_factory.hpp:123] Creating layer ConvNd_81_fixed
I0715 11:41:47.829963  8010 net.cpp:140] Creating Layer ConvNd_81_fixed
I0715 11:41:47.829967  8010 net.cpp:481] ConvNd_81_fixed <- ConvNd_81
I0715 11:41:47.829972  8010 net.cpp:442] ConvNd_81_fixed -> ConvNd_81 (in-place)
I0715 11:41:47.829998  8010 net.cpp:190] Setting up ConvNd_81_fixed
I0715 11:41:47.830004  8010 net.cpp:197] Top shape: 1 4 128 256 (131072)
I0715 11:41:47.830008  8010 net.cpp:205] Memory required for data: 1210449920
I0715 11:41:47.830011  8010 layer_factory.hpp:123] Creating layer Add_48
I0715 11:41:47.830016  8010 net.cpp:140] Creating Layer Add_48
I0715 11:41:47.830020  8010 net.cpp:481] Add_48 <- Add_47_Add_47_fixed_0_split_0
I0715 11:41:47.830024  8010 net.cpp:481] Add_48 <- ConvNd_81
I0715 11:41:47.830029  8010 net.cpp:455] Add_48 -> Add_48
I0715 11:41:47.830046  8010 net.cpp:190] Setting up Add_48
I0715 11:41:47.830051  8010 net.cpp:197] Top shape: 1 4 128 256 (131072)
I0715 11:41:47.830055  8010 net.cpp:205] Memory required for data: 1210974208
I0715 11:41:47.830057  8010 layer_factory.hpp:123] Creating layer Add_48_fixed
I0715 11:41:47.830062  8010 net.cpp:140] Creating Layer Add_48_fixed
I0715 11:41:47.830065  8010 net.cpp:481] Add_48_fixed <- Add_48
I0715 11:41:47.830070  8010 net.cpp:442] Add_48_fixed -> Add_48 (in-place)
I0715 11:41:47.830096  8010 net.cpp:190] Setting up Add_48_fixed
I0715 11:41:47.830101  8010 net.cpp:197] Top shape: 1 4 128 256 (131072)
I0715 11:41:47.830104  8010 net.cpp:205] Memory required for data: 1211498496
I0715 11:41:47.830108  8010 layer_factory.hpp:123] Creating layer Add_48_Add_48_fixed_0_split
I0715 11:41:47.830114  8010 net.cpp:140] Creating Layer Add_48_Add_48_fixed_0_split
I0715 11:41:47.830117  8010 net.cpp:481] Add_48_Add_48_fixed_0_split <- Add_48
I0715 11:41:47.830121  8010 net.cpp:455] Add_48_Add_48_fixed_0_split -> Add_48_Add_48_fixed_0_split_0
I0715 11:41:47.830127  8010 net.cpp:455] Add_48_Add_48_fixed_0_split -> Add_48_Add_48_fixed_0_split_1
I0715 11:41:47.830153  8010 net.cpp:190] Setting up Add_48_Add_48_fixed_0_split
I0715 11:41:47.830159  8010 net.cpp:197] Top shape: 1 4 128 256 (131072)
I0715 11:41:47.830163  8010 net.cpp:197] Top shape: 1 4 128 256 (131072)
I0715 11:41:47.830166  8010 net.cpp:205] Memory required for data: 1212547072
I0715 11:41:47.830168  8010 layer_factory.hpp:123] Creating layer ConvNd_82
I0715 11:41:47.830176  8010 net.cpp:140] Creating Layer ConvNd_82
I0715 11:41:47.830179  8010 net.cpp:481] ConvNd_82 <- ConvNd_77_ConvNd_77_fixed_0_split_4
I0715 11:41:47.830185  8010 net.cpp:455] ConvNd_82 -> ConvNd_82
I0715 11:41:47.830301  8010 layer_factory.hpp:123] Creating layer ConvNd_82
I0715 11:41:47.830480  8010 net.cpp:190] Setting up ConvNd_82
I0715 11:41:47.830487  8010 net.cpp:197] Top shape: 1 4 128 256 (131072)
I0715 11:41:47.830489  8010 net.cpp:205] Memory required for data: 1213071360
I0715 11:41:47.830493  8010 layer_factory.hpp:123] Creating layer ConvNd_82_fixed
I0715 11:41:47.830498  8010 net.cpp:140] Creating Layer ConvNd_82_fixed
I0715 11:41:47.830502  8010 net.cpp:481] ConvNd_82_fixed <- ConvNd_82
I0715 11:41:47.830507  8010 net.cpp:442] ConvNd_82_fixed -> ConvNd_82 (in-place)
I0715 11:41:47.830533  8010 net.cpp:190] Setting up ConvNd_82_fixed
I0715 11:41:47.830539  8010 net.cpp:197] Top shape: 1 4 128 256 (131072)
I0715 11:41:47.830543  8010 net.cpp:205] Memory required for data: 1213595648
I0715 11:41:47.830546  8010 layer_factory.hpp:123] Creating layer Add_49
I0715 11:41:47.830551  8010 net.cpp:140] Creating Layer Add_49
I0715 11:41:47.830555  8010 net.cpp:481] Add_49 <- Add_48_Add_48_fixed_0_split_0
I0715 11:41:47.830559  8010 net.cpp:481] Add_49 <- ConvNd_82
I0715 11:41:47.830564  8010 net.cpp:455] Add_49 -> Add_49
I0715 11:41:47.830581  8010 net.cpp:190] Setting up Add_49
I0715 11:41:47.830586  8010 net.cpp:197] Top shape: 1 4 128 256 (131072)
I0715 11:41:47.830590  8010 net.cpp:205] Memory required for data: 1214119936
I0715 11:41:47.830592  8010 layer_factory.hpp:123] Creating layer Concat_17
I0715 11:41:47.830598  8010 net.cpp:140] Creating Layer Concat_17
I0715 11:41:47.830601  8010 net.cpp:481] Concat_17 <- ConvNd_78
I0715 11:41:47.830605  8010 net.cpp:481] Concat_17 <- ConvNd_79_ConvNd_79_fixed_0_split_1
I0715 11:41:47.830610  8010 net.cpp:481] Concat_17 <- Add_47_Add_47_fixed_0_split_1
I0715 11:41:47.830613  8010 net.cpp:481] Concat_17 <- Add_48_Add_48_fixed_0_split_1
I0715 11:41:47.830617  8010 net.cpp:481] Concat_17 <- Add_49
I0715 11:41:47.830622  8010 net.cpp:455] Concat_17 -> Concat_17
I0715 11:41:47.830641  8010 net.cpp:190] Setting up Concat_17
I0715 11:41:47.830646  8010 net.cpp:197] Top shape: 1 20 128 256 (655360)
I0715 11:41:47.830649  8010 net.cpp:205] Memory required for data: 1216741376
I0715 11:41:47.830652  8010 layer_factory.hpp:123] Creating layer Concat_17_fixed
I0715 11:41:47.830657  8010 net.cpp:140] Creating Layer Concat_17_fixed
I0715 11:41:47.830660  8010 net.cpp:481] Concat_17_fixed <- Concat_17
I0715 11:41:47.830664  8010 net.cpp:442] Concat_17_fixed -> Concat_17 (in-place)
I0715 11:41:47.830690  8010 net.cpp:190] Setting up Concat_17_fixed
I0715 11:41:47.830696  8010 net.cpp:197] Top shape: 1 20 128 256 (655360)
I0715 11:41:47.830699  8010 net.cpp:205] Memory required for data: 1219362816
I0715 11:41:47.830703  8010 layer_factory.hpp:123] Creating layer BatchNorm_19
I0715 11:41:47.830709  8010 net.cpp:140] Creating Layer BatchNorm_19
I0715 11:41:47.830713  8010 net.cpp:481] BatchNorm_19 <- Concat_17
I0715 11:41:47.830718  8010 net.cpp:455] BatchNorm_19 -> BatchNorm_19
I0715 11:41:47.830749  8010 layer_factory.hpp:123] Creating layer BatchNorm_19
I0715 11:41:47.831694  8010 layer_factory.hpp:123] Creating layer BatchNorm_19
I0715 11:41:47.831743  8010 layer_factory.hpp:123] Creating layer BatchNorm_19
I0715 11:41:47.831917  8010 net.cpp:190] Setting up BatchNorm_19
I0715 11:41:47.831925  8010 net.cpp:197] Top shape: 1 20 128 256 (655360)
I0715 11:41:47.831928  8010 net.cpp:205] Memory required for data: 1221984256
I0715 11:41:47.831934  8010 layer_factory.hpp:123] Creating layer Threshold_18
I0715 11:41:47.831940  8010 net.cpp:140] Creating Layer Threshold_18
I0715 11:41:47.831944  8010 net.cpp:481] Threshold_18 <- BatchNorm_19
I0715 11:41:47.831948  8010 net.cpp:442] Threshold_18 -> BatchNorm_19 (in-place)
I0715 11:41:47.831955  8010 net.cpp:190] Setting up Threshold_18
I0715 11:41:47.831959  8010 net.cpp:197] Top shape: 1 20 128 256 (655360)
I0715 11:41:47.831962  8010 net.cpp:205] Memory required for data: 1224605696
I0715 11:41:47.831965  8010 layer_factory.hpp:123] Creating layer BatchNorm_19_fixed
I0715 11:41:47.831970  8010 net.cpp:140] Creating Layer BatchNorm_19_fixed
I0715 11:41:47.831974  8010 net.cpp:481] BatchNorm_19_fixed <- BatchNorm_19
I0715 11:41:47.831979  8010 net.cpp:442] BatchNorm_19_fixed -> BatchNorm_19 (in-place)
I0715 11:41:47.832010  8010 net.cpp:190] Setting up BatchNorm_19_fixed
I0715 11:41:47.832015  8010 net.cpp:197] Top shape: 1 20 128 256 (655360)
I0715 11:41:47.832018  8010 net.cpp:205] Memory required for data: 1227227136
I0715 11:41:47.832022  8010 layer_factory.hpp:123] Creating layer ConvNd_83
I0715 11:41:47.832029  8010 net.cpp:140] Creating Layer ConvNd_83
I0715 11:41:47.832032  8010 net.cpp:481] ConvNd_83 <- BatchNorm_19
I0715 11:41:47.832038  8010 net.cpp:455] ConvNd_83 -> BatchNorm_20
I0715 11:41:47.832226  8010 layer_factory.hpp:123] Creating layer ConvNd_83
I0715 11:41:47.832729  8010 net.cpp:190] Setting up ConvNd_83
I0715 11:41:47.832737  8010 net.cpp:197] Top shape: 1 19 256 512 (2490368)
I0715 11:41:47.832741  8010 net.cpp:205] Memory required for data: 1237188608
I0715 11:41:47.832757  8010 layer_factory.hpp:123] Creating layer Threshold_19
I0715 11:41:47.832763  8010 net.cpp:140] Creating Layer Threshold_19
I0715 11:41:47.832767  8010 net.cpp:481] Threshold_19 <- BatchNorm_20
I0715 11:41:47.832772  8010 net.cpp:442] Threshold_19 -> BatchNorm_20 (in-place)
I0715 11:41:47.832777  8010 net.cpp:190] Setting up Threshold_19
I0715 11:41:47.832782  8010 net.cpp:197] Top shape: 1 19 256 512 (2490368)
I0715 11:41:47.832784  8010 net.cpp:205] Memory required for data: 1247150080
I0715 11:41:47.832787  8010 layer_factory.hpp:123] Creating layer Concat_18
I0715 11:41:47.832792  8010 net.cpp:140] Creating Layer Concat_18
I0715 11:41:47.832795  8010 net.cpp:481] Concat_18 <- BatchNorm_20
I0715 11:41:47.832799  8010 net.cpp:481] Concat_18 <- BatchNorm_1_BatchNorm_1_fixed_0_split_1
I0715 11:41:47.832805  8010 net.cpp:455] Concat_18 -> Concat_18
I0715 11:41:47.832828  8010 net.cpp:190] Setting up Concat_18
I0715 11:41:47.832834  8010 net.cpp:197] Top shape: 1 35 256 512 (4587520)
I0715 11:41:47.832837  8010 net.cpp:205] Memory required for data: 1265500160
I0715 11:41:47.832840  8010 layer_factory.hpp:123] Creating layer Concat_18_fixed
I0715 11:41:47.832845  8010 net.cpp:140] Creating Layer Concat_18_fixed
I0715 11:41:47.832849  8010 net.cpp:481] Concat_18_fixed <- Concat_18
I0715 11:41:47.832852  8010 net.cpp:442] Concat_18_fixed -> Concat_18 (in-place)
I0715 11:41:47.832880  8010 net.cpp:190] Setting up Concat_18_fixed
I0715 11:41:47.832886  8010 net.cpp:197] Top shape: 1 35 256 512 (4587520)
I0715 11:41:47.832890  8010 net.cpp:205] Memory required for data: 1283850240
I0715 11:41:47.832893  8010 layer_factory.hpp:123] Creating layer ConvNd_84
I0715 11:41:47.832901  8010 net.cpp:140] Creating Layer ConvNd_84
I0715 11:41:47.832904  8010 net.cpp:481] ConvNd_84 <- Concat_18
I0715 11:41:47.832909  8010 net.cpp:455] ConvNd_84 -> BatchNorm_21
I0715 11:41:47.833118  8010 layer_factory.hpp:123] Creating layer ConvNd_84
I0715 11:41:47.839516  8010 net.cpp:190] Setting up ConvNd_84
I0715 11:41:47.839534  8010 net.cpp:197] Top shape: 1 19 256 512 (2490368)
I0715 11:41:47.839536  8010 net.cpp:205] Memory required for data: 1293811712
I0715 11:41:47.839543  8010 layer_factory.hpp:123] Creating layer Threshold_20
I0715 11:41:47.839550  8010 net.cpp:140] Creating Layer Threshold_20
I0715 11:41:47.839555  8010 net.cpp:481] Threshold_20 <- BatchNorm_21
I0715 11:41:47.839560  8010 net.cpp:442] Threshold_20 -> BatchNorm_21 (in-place)
I0715 11:41:47.839567  8010 net.cpp:190] Setting up Threshold_20
I0715 11:41:47.839572  8010 net.cpp:197] Top shape: 1 19 256 512 (2490368)
I0715 11:41:47.839574  8010 net.cpp:205] Memory required for data: 1303773184
I0715 11:41:47.839577  8010 layer_factory.hpp:123] Creating layer BatchNorm_21_fixed
I0715 11:41:47.839583  8010 net.cpp:140] Creating Layer BatchNorm_21_fixed
I0715 11:41:47.839586  8010 net.cpp:481] BatchNorm_21_fixed <- BatchNorm_21
I0715 11:41:47.839591  8010 net.cpp:442] BatchNorm_21_fixed -> BatchNorm_21 (in-place)
I0715 11:41:47.839624  8010 net.cpp:190] Setting up BatchNorm_21_fixed
I0715 11:41:47.839632  8010 net.cpp:197] Top shape: 1 19 256 512 (2490368)
I0715 11:41:47.839634  8010 net.cpp:205] Memory required for data: 1313734656
I0715 11:41:47.839638  8010 layer_factory.hpp:123] Creating layer ConvNd_85
I0715 11:41:47.839646  8010 net.cpp:140] Creating Layer ConvNd_85
I0715 11:41:47.839649  8010 net.cpp:481] ConvNd_85 <- BatchNorm_21
I0715 11:41:47.839655  8010 net.cpp:455] ConvNd_85 -> ConvNd_85
I0715 11:41:47.839821  8010 layer_factory.hpp:123] Creating layer ConvNd_85
I0715 11:41:47.840042  8010 net.cpp:190] Setting up ConvNd_85
I0715 11:41:47.840050  8010 net.cpp:197] Top shape: 1 19 512 1024 (9961472)
I0715 11:41:47.840054  8010 net.cpp:205] Memory required for data: 1353580544
I0715 11:41:47.840059  8010 layer_factory.hpp:123] Creating layer ConvNd_85_fixed
I0715 11:41:47.840062  8010 net.cpp:140] Creating Layer ConvNd_85_fixed
I0715 11:41:47.840065  8010 net.cpp:481] ConvNd_85_fixed <- ConvNd_85
I0715 11:41:47.840070  8010 net.cpp:442] ConvNd_85_fixed -> ConvNd_85 (in-place)
I0715 11:41:47.840099  8010 net.cpp:190] Setting up ConvNd_85_fixed
I0715 11:41:47.840106  8010 net.cpp:197] Top shape: 1 19 512 1024 (9961472)
I0715 11:41:47.840108  8010 net.cpp:205] Memory required for data: 1393426432
I0715 11:41:47.840112  8010 layer_factory.hpp:123] Creating layer score
I0715 11:41:47.840118  8010 net.cpp:140] Creating Layer score
I0715 11:41:47.840121  8010 net.cpp:481] score <- ConvNd_85
I0715 11:41:47.840126  8010 net.cpp:455] score -> score
I0715 11:41:47.840178  8010 net.cpp:190] Setting up score
I0715 11:41:47.840184  8010 net.cpp:197] Top shape: 1 19 512 1024 (9961472)
I0715 11:41:47.840188  8010 net.cpp:205] Memory required for data: 1433272320
I0715 11:41:47.840191  8010 layer_factory.hpp:123] Creating layer accuracy
I0715 11:41:47.840214  8010 net.cpp:140] Creating Layer accuracy
I0715 11:41:47.840219  8010 net.cpp:481] accuracy <- score
I0715 11:41:47.840222  8010 net.cpp:481] accuracy <- label
I0715 11:41:47.840227  8010 net.cpp:455] accuracy -> segmentation_eval
I0715 11:41:47.840248  8010 net.cpp:190] Setting up accuracy
I0715 11:41:47.840255  8010 net.cpp:197] Top shape: 3 19 (57)
I0715 11:41:47.840257  8010 net.cpp:205] Memory required for data: 1433272548
I0715 11:41:47.840261  8010 net.cpp:268] accuracy does not need backward computation.
I0715 11:41:47.840265  8010 net.cpp:268] score does not need backward computation.
I0715 11:41:47.840268  8010 net.cpp:268] ConvNd_85_fixed does not need backward computation.
I0715 11:41:47.840271  8010 net.cpp:268] ConvNd_85 does not need backward computation.
…
