…
I0121 17:48:35.789845  1741 net.cpp:294] The NetState phase (0) differed from the phase (1) specified by a rule in layer accuracy
I0121 17:48:35.790426  1741 net.cpp:51] Initializing net from parameters: 
name: "miniGoogleNet for CIFAR10, model 3"
state {
  phase: TRAIN
  level: 0
  stage: ""
}
layer {
  name: "data"
  type: "Data"
  top: "data"
  top: "label"
  include {
    phase: TRAIN
  }
  transform_param {
    mirror: true
    mean_file: "cifar10/input/mean.binaryproto"
  }
  data_param {
    source: "cifar10/input/lmdb/train_lmdb"
    batch_size: 128
    backend: LMDB
  }
}
layer {
  name: "conv1/3x3_s1"
  type: "Convolution"
  bottom: "data"
  top: "conv1/3x3_s1"
  param {
    lr_mult: 1
    decay_mult: 1
  }
  param {
    lr_mult: 2
    decay_mult: 0
  }
  convolution_param {
    num_output: 96
    pad: 1
    kernel_size: 3
    stride: 1
    weight_filler {
      type: "xavier"
      std: 0.1
    }
    bias_filler {
      type: "constant"
      value: 0.2
    }
  }
}
layer {
  name: "conv1/bn1"
  type: "BatchNorm"
  bottom: "conv1/3x3_s1"
  top: "conv1/3x3_s1"
  param {
    lr_mult: 0
    decay_mult: 0
  }
  param {
    lr_mult: 0
    decay_mult: 0
  }
  param {
    lr_mult: 0
    decay_mult: 0
  }
  batch_norm_param {
    use_global_stats: false
  }
}
layer {
  name: "conv1/scale1"
  type: "Scale"
  bottom: "conv1/3x3_s1"
  top: "conv1/3x3_s1"
  scale_param {
    bias_term: true
  }
}
layer {
  name: "conv1/relu1"
  type: "ReLU"
  bottom: "conv1/3x3_s1"
  top: "conv1/3x3_s1"
}
layer {
  name: "inception_2a/1x1"
  type: "Convolution"
  bottom: "conv1/3x3_s1"
  top: "inception_2a/1x1"
  param {
    lr_mult: 1
    decay_mult: 1
  }
  param {
    lr_mult: 2
    decay_mult: 0
  }
  convolution_param {
    num_output: 32
    kernel_size: 1
    weight_filler {
      type: "xavier"
      std: 0.03
    }
    bias_filler {
      type: "constant"
      value: 0.2
    }
  }
}
layer {
  name: "inception_2a/1x1/bn1"
  type: "BatchNorm"
  bottom: "inception_2a/1x1"
  top: "inception_2a/1x1"
  param {
    lr_mult: 0
    decay_mult: 0
  }
  param {
    lr_mult: 0
    decay_mult: 0
  }
  param {
    lr_mult: 0
    decay_mult: 0
  }
  batch_norm_param {
    use_global_stats: false
  }
}
layer {
  name: "inception_2a/1x1/scale1"
  type: "Scale"
  bottom: "inception_2a/1x1"
  top: "inception_2a/1x1"
  scale_param {
    bias_term: true
  }
}
layer {
  name: "inception_2a/1x1/relu1"
  type: "ReLU"
  bottom: "inception_2a/1x1"
  top: "inception_2a/1x1"
}
layer {
  name: "inception_2a/3x3"
  type: "Convolution"
  bottom: "conv1/3x3_s1"
  top: "inception_2a/3x3"
  param {
    lr_mult: 1
    decay_mult: 1
  }
  param {
    lr_mult: 2
    decay_mult: 0
  }
  convolution_param {
    num_output: 32
    pad: 1
    kernel_size: 3
    weight_filler {
      type: "xavier"
      std: 0.03
    }
    bias_filler {
      type: "constant"
      value: 0.2
    }
  }
}
layer {
  name: "inception_2a/3x3/bn1"
  type: "BatchNorm"
  bottom: "inception_2a/3x3"
  top: "inception_2a/3x3"
  param {
    lr_mult: 0
    decay_mult: 0
  }
  param {
    lr_mult: 0
    decay_mult: 0
  }
  param {
    lr_mult: 0
    decay_mult: 0
  }
  batch_norm_param {
    use_global_stats: false
  }
}
layer {
  name: "inception_2a/3x3/scale1"
  type: "Scale"
  bottom: "inception_2a/3x3"
  top: "inception_2a/3x3"
  scale_param {
    bias_term: true
  }
}
layer {
  name: "inception_2a/3x3/relu1"
  type: "ReLU"
  bottom: "inception_2a/3x3"
  top: "inception_2a/3x3"
}
layer {
  name: "inception_2a/output"
  type: "Concat"
  bottom: "inception_2a/1x1"
  bottom: "inception_2a/3x3"
  top: "inception_2a/output"
}
layer {
  name: "inception_3a/1x1"
  type: "Convolution"
  bottom: "inception_2a/output"
  top: "inception_3a/1x1"
  param {
    lr_mult: 1
    decay_mult: 1
  }
  param {
    lr_mult: 2
    decay_mult: 0
  }
  convolution_param {
    num_output: 32
    kernel_size: 1
    weight_filler {
      type: "xavier"
      std: 0.03
    }
    bias_filler {
      type: "constant"
      value: 0.2
    }
  }
}
layer {
  name: "inception_3a/1x1/bn1"
  type: "BatchNorm"
  bottom: "inception_3a/1x1"
  top: "inception_3a/1x1"
  param {
    lr_mult: 0
    decay_mult: 0
  }
  param {
    lr_mult: 0
    decay_mult: 0
  }
  param {
    lr_mult: 0
    decay_mult: 0
  }
  batch_norm_param {
    use_global_stats: false
  }
}
layer {
  name: "inception_3a/1x1/scale1"
  type: "Scale"
  bottom: "inception_3a/1x1"
  top: "inception_3a/1x1"
  scale_param {
    bias_term: true
  }
}
layer {
  name: "inception_3a/1x1/relu1"
  type: "ReLU"
  bottom: "inception_3a/1x1"
  top: "inception_3a/1x1"
}
layer {
  name: "inception_3a/3x3"
  type: "Convolution"
  bottom: "inception_2a/output"
  top: "inception_3a/3x3"
  param {
    lr_mult: 1
    decay_mult: 1
  }
  param {
    lr_mult: 2
    decay_mult: 0
  }
  convolution_param {
    num_output: 48
    pad: 1
    kernel_size: 3
    weight_filler {
      type: "xavier"
      std: 0.03
    }
    bias_filler {
      type: "constant"
      value: 0.2
    }
  }
}
layer {
  name: "inception_3a/3x3/bn1"
  type: "BatchNorm"
  bottom: "inception_3a/3x3"
  top: "inception_3a/3x3"
  param {
    lr_mult: 0
    decay_mult: 0
  }
  param {
    lr_mult: 0
    decay_mult: 0
  }
  param {
    lr_mult: 0
    decay_mult: 0
  }
  batch_norm_param {
    use_global_stats: false
  }
}
layer {
  name: "inception_3a/3x3/scale1"
  type: "Scale"
  bottom: "inception_3a/3x3"
  top: "inception_3a/3x3"
  scale_param {
    bias_term: true
  }
}
layer {
  name: "inception_3a/3x3/relu1"
  type: "ReLU"
  bottom: "inception_3a/3x3"
  top: "inception_3a/3x3"
}
layer {
  name: "inception_3a/output"
  type: "Concat"
  bottom: "inception_3a/1x1"
  bottom: "inception_3a/3x3"
  top: "inception_3a/output"
}
layer {
  name: "downsample_4/3x3_s2"
  type: "Convolution"
  bottom: "inception_3a/output"
  top: "downsample_4/3x3_s2"
  param {
    lr_mult: 1
    decay_mult: 1
  }
  param {
    lr_mult: 2
    decay_mult: 0
  }
  convolution_param {
    num_output: 80
    pad: 1
    kernel_size: 3
    stride: 2
    weight_filler {
      type: "xavier"
      std: 0.03
    }
    bias_filler {
      type: "constant"
      value: 0.2
    }
  }
}
layer {
  name: "downsample_4/3x3_s2/bn1"
  type: "BatchNorm"
  bottom: "downsample_4/3x3_s2"
  top: "downsample_4/3x3_s2"
  param {
    lr_mult: 0
    decay_mult: 0
  }
  param {
    lr_mult: 0
    decay_mult: 0
  }
  param {
    lr_mult: 0
    decay_mult: 0
  }
  batch_norm_param {
    use_global_stats: false
  }
}
layer {
  name: "downsample_4/3x3_s2/scale1"
  type: "Scale"
  bottom: "downsample_4/3x3_s2"
  top: "downsample_4/3x3_s2"
  scale_param {
    bias_term: true
  }
}
layer {
  name: "downsample_4/3x3_s2/relu1"
  type: "ReLU"
  bottom: "downsample_4/3x3_s2"
  top: "downsample_4/3x3_s2"
}
layer {
  name: "downsample_4/pool_s2"
  type: "Pooling"
  bottom: "inception_3a/output"
  top: "downsample_4/pool_s2"
  pooling_param {
    pool: MAX
    kernel_size: 3
    stride: 2
  }
}
layer {
  name: "downsample_4/output"
  type: "Concat"
  bottom: "downsample_4/3x3_s2"
  bottom: "downsample_4/pool_s2"
  top: "downsample_4/output"
}
layer {
  name: "inception_5a/1x1"
  type: "Convolution"
  bottom: "downsample_4/output"
  top: "inception_5a/1x1"
  param {
    lr_mult: 1
    decay_mult: 1
  }
  param {
    lr_mult: 2
    decay_mult: 0
  }
  convolution_param {
    num_output: 112
    kernel_size: 1
    weight_filler {
      type: "xavier"
      std: 0.03
    }
    bias_filler {
      type: "constant"
      value: 0.2
    }
  }
}
layer {
  name: "inception_5a/1x1/bn1"
  type: "BatchNorm"
  bottom: "inception_5a/1x1"
  top: "inception_5a/1x1"
  param {
    lr_mult: 0
    decay_mult: 0
  }
  param {
    lr_mult: 0
    decay_mult: 0
  }
  param {
    lr_mult: 0
    decay_mult: 0
  }
  batch_norm_param {
    use_global_stats: false
  }
}
layer {
  name: "inception_5a/1x1/scale1"
  type: "Scale"
  bottom: "inception_5a/1x1"
  top: "inception_5a/1x1"
  scale_param {
    bias_term: true
  }
}
layer {
  name: "inception_5a/1x1/relu1"
  type: "ReLU"
  bottom: "inception_5a/1x1"
  top: "inception_5a/1x1"
}
layer {
  name: "inception_5a/3x3"
  type: "Convolution"
  bottom: "downsample_4/output"
  top: "inception_5a/3x3"
  param {
    lr_mult: 1
    decay_mult: 1
  }
  param {
    lr_mult: 2
    decay_mult: 0
  }
  convolution_param {
    num_output: 48
    pad: 1
    kernel_size: 3
    weight_filler {
      type: "xavier"
      std: 0.03
    }
    bias_filler {
      type: "constant"
      value: 0.2
    }
  }
}
layer {
  name: "inception_5a/3x3/bn1"
  type: "BatchNorm"
  bottom: "inception_5a/3x3"
  top: "inception_5a/3x3"
  param {
    lr_mult: 0
    decay_mult: 0
  }
  param {
    lr_mult: 0
    decay_mult: 0
  }
  param {
    lr_mult: 0
    decay_mult: 0
  }
  batch_norm_param {
    use_global_stats: false
  }
}
layer {
  name: "inception_5a/3x3/scale1"
  type: "Scale"
  bottom: "inception_5a/3x3"
  top: "inception_5a/3x3"
  scale_param {
    bias_term: true
  }
}
layer {
  name: "inception_5a/3x3/relu1"
  type: "ReLU"
  bottom: "inception_5a/3x3"
  top: "inception_5a/3x3"
}
layer {
  name: "inception_5a/output"
  type: "Concat"
  bottom: "inception_5a/1x1"
  bottom: "inception_5a/3x3"
  top: "inception_5a/output"
}
layer {
  name: "inception_6a/1x1"
  type: "Convolution"
  bottom: "inception_5a/output"
  top: "inception_6a/1x1"
  param {
    lr_mult: 1
    decay_mult: 1
  }
  param {
    lr_mult: 2
    decay_mult: 0
  }
  convolution_param {
    num_output: 96
    kernel_size: 1
    weight_filler {
      type: "xavier"
      std: 0.03
    }
    bias_filler {
      type: "constant"
      value: 0.2
    }
  }
}
layer {
  name: "inception_6a/1x1/bn1"
  type: "BatchNorm"
  bottom: "inception_6a/1x1"
  top: "inception_6a/1x1"
  param {
    lr_mult: 0
    decay_mult: 0
  }
  param {
    lr_mult: 0
    decay_mult: 0
  }
  param {
    lr_mult: 0
    decay_mult: 0
  }
  batch_norm_param {
    use_global_stats: false
  }
}
layer {
  name: "inception_6a/1x1/scale1"
  type: "Scale"
  bottom: "inception_6a/1x1"
  top: "inception_6a/1x1"
  scale_param {
    bias_term: true
  }
}
layer {
  name: "inception_6a/1x1/relu1"
  type: "ReLU"
  bottom: "inception_6a/1x1"
  top: "inception_6a/1x1"
}
layer {
  name: "inception_6a/3x3"
  type: "Convolution"
  bottom: "inception_5a/output"
  top: "inception_6a/3x3"
  param {
    lr_mult: 1
    decay_mult: 1
  }
  param {
    lr_mult: 2
    decay_mult: 0
  }
  convolution_param {
    num_output: 64
    pad: 1
    kernel_size: 3
    weight_filler {
      type: "xavier"
      std: 0.03
    }
    bias_filler {
      type: "constant"
      value: 0.2
    }
  }
}
layer {
  name: "inception_6a/3x3/bn1"
  type: "BatchNorm"
  bottom: "inception_6a/3x3"
  top: "inception_6a/3x3"
  param {
    lr_mult: 0
    decay_mult: 0
  }
  param {
    lr_mult: 0
    decay_mult: 0
  }
  param {
    lr_mult: 0
    decay_mult: 0
  }
  batch_norm_param {
    use_global_stats: false
  }
}
layer {
  name: "inception_6a/3x3/scale1"
  type: "Scale"
  bottom: "inception_6a/3x3"
  top: "inception_6a/3x3"
  scale_param {
    bias_term: true
  }
}
layer {
  name: "inception_6a/3x3/relu1"
  type: "ReLU"
  bottom: "inception_6a/3x3"
  top: "inception_6a/3x3"
}
layer {
  name: "inception_6a/output"
  type: "Concat"
  bottom: "inception_6a/1x1"
  bottom: "inception_6a/3x3"
  top: "inception_6a/output"
}
layer {
  name: "inception_7a/1x1"
  type: "Convolution"
  bottom: "inception_6a/output"
  top: "inception_7a/1x1"
  param {
    lr_mult: 1
    decay_mult: 1
  }
  param {
    lr_mult: 2
    decay_mult: 0
  }
  convolution_param {
    num_output: 80
    kernel_size: 1
    weight_filler {
      type: "xavier"
      std: 0.03
    }
    bias_filler {
      type: "constant"
      value: 0.2
    }
  }
}
layer {
  name: "inception_7a/1x1/bn1"
  type: "BatchNorm"
  bottom: "inception_7a/1x1"
  top: "inception_7a/1x1"
  param {
    lr_mult: 0
    decay_mult: 0
  }
  param {
    lr_mult: 0
    decay_mult: 0
  }
  param {
    lr_mult: 0
    decay_mult: 0
  }
  batch_norm_param {
    use_global_stats: false
  }
}
layer {
  name: "inception_7a/1x1/scale1"
  type: "Scale"
  bottom: "inception_7a/1x1"
  top: "inception_7a/1x1"
  scale_param {
    bias_term: true
  }
}
layer {
  name: "inception_7a/1x1/relu1"
  type: "ReLU"
  bottom: "inception_7a/1x1"
  top: "inception_7a/1x1"
}
layer {
  name: "inception_7a/3x3"
  type: "Convolution"
  bottom: "inception_6a/output"
  top: "inception_7a/3x3"
  param {
    lr_mult: 1
    decay_mult: 1
  }
  param {
    lr_mult: 2
    decay_mult: 0
  }
  convolution_param {
    num_output: 80
    pad: 1
    kernel_size: 3
    weight_filler {
      type: "xavier"
      std: 0.03
    }
    bias_filler {
      type: "constant"
      value: 0.2
    }
  }
}
layer {
  name: "inception_7a/3x3/bn1"
  type: "BatchNorm"
  bottom: "inception_7a/3x3"
  top: "inception_7a/3x3"
  param {
    lr_mult: 0
    decay_mult: 0
  }
  param {
    lr_mult: 0
    decay_mult: 0
  }
  param {
    lr_mult: 0
    decay_mult: 0
  }
  batch_norm_param {
    use_global_stats: false
  }
}
layer {
  name: "inception_7a/3x3/scale1"
  type: "Scale"
  bottom: "inception_7a/3x3"
  top: "inception_7a/3x3"
  scale_param {
    bias_term: true
  }
}
layer {
  name: "inception_7a/3x3/relu1"
  type: "ReLU"
  bottom: "inception_7a/3x3"
  top: "inception_7a/3x3"
}
layer {
  name: "inception_7a/output"
  type: "Concat"
  bottom: "inception_7a/1x1"
  bottom: "inception_7a/3x3"
  top: "inception_7a/output"
}
layer {
  name: "inception_8a/1x1"
  type: "Convolution"
  bottom: "inception_7a/output"
  top: "inception_8a/1x1"
  param {
    lr_mult: 1
    decay_mult: 1
  }
  param {
    lr_mult: 2
    decay_mult: 0
  }
  convolution_param {
    num_output: 48
    kernel_size: 1
    weight_filler {
      type: "xavier"
      std: 0.03
    }
    bias_filler {
      type: "constant"
      value: 0.2
    }
  }
}
layer {
  name: "inception_8a/1x1/bn1"
  type: "BatchNorm"
  bottom: "inception_8a/1x1"
  top: "inception_8a/1x1"
  param {
    lr_mult: 0
    decay_mult: 0
  }
  param {
    lr_mult: 0
    decay_mult: 0
  }
  param {
    lr_mult: 0
    decay_mult: 0
  }
  batch_norm_param {
    use_global_stats: false
  }
}
layer {
  name: "inception_8a/1x1/scale1"
  type: "Scale"
  bottom: "inception_8a/1x1"
  top: "inception_8a/1x1"
  scale_param {
    bias_term: true
  }
}
layer {
  name: "inception_8a/1x1/relu1"
  type: "ReLU"
  bottom: "inception_8a/1x1"
  top: "inception_8a/1x1"
}
layer {
  name: "inception_8a/3x3"
  type: "Convolution"
  bottom: "inception_7a/output"
  top: "inception_8a/3x3"
  param {
    lr_mult: 1
    decay_mult: 1
  }
  param {
    lr_mult: 2
    decay_mult: 0
  }
  convolution_param {
    num_output: 96
    pad: 1
    kernel_size: 3
    weight_filler {
      type: "xavier"
      std: 0.03
    }
    bias_filler {
      type: "constant"
      value: 0.2
    }
  }
}
layer {
  name: "inception_8a/3x3/bn1"
  type: "BatchNorm"
  bottom: "inception_8a/3x3"
  top: "inception_8a/3x3"
  param {
    lr_mult: 0
    decay_mult: 0
  }
  param {
    lr_mult: 0
    decay_mult: 0
  }
  param {
    lr_mult: 0
    decay_mult: 0
  }
  batch_norm_param {
    use_global_stats: false
  }
}
layer {
  name: "inception_8a/3x3/scale1"
  type: "Scale"
  bottom: "inception_8a/3x3"
  top: "inception_8a/3x3"
  scale_param {
    bias_term: true
  }
}
layer {
  name: "inception_8a/3x3/relu1"
  type: "ReLU"
  bottom: "inception_8a/3x3"
  top: "inception_8a/3x3"
}
layer {
  name: "inception_8a/output"
  type: "Concat"
  bottom: "inception_8a/1x1"
  bottom: "inception_8a/3x3"
  top: "inception_8a/output"
}
layer {
  name: "downsample_9/3x3_s2"
  type: "Convolution"
  bottom: "inception_8a/output"
  top: "downsample_9/3x3_s2"
  param {
    lr_mult: 1
    decay_mult: 1
  }
  param {
    lr_mult: 2
    decay_mult: 0
  }
  convolution_param {
    num_output: 96
    pad: 1
    kernel_size: 3
    stride: 2
    weight_filler {
      type: "xavier"
      std: 0.03
    }
    bias_filler {
      type: "constant"
      value: 0.2
    }
  }
}
layer {
  name: "downsample_9/3x3_s2/bn1"
  type: "BatchNorm"
  bottom: "downsample_9/3x3_s2"
  top: "downsample_9/3x3_s2"
  param {
    lr_mult: 0
    decay_mult: 0
  }
  param {
    lr_mult: 0
    decay_mult: 0
  }
  param {
    lr_mult: 0
    decay_mult: 0
  }
  batch_norm_param {
    use_global_stats: false
  }
}
layer {
  name: "downsample_9/3x3_s2/scale1"
  type: "Scale"
  bottom: "downsample_9/3x3_s2"
  top: "downsample_9/3x3_s2"
  scale_param {
    bias_term: true
  }
}
layer {
  name: "downsample_9/3x3_s2/relu1"
  type: "ReLU"
  bottom: "downsample_9/3x3_s2"
  top: "downsample_9/3x3_s2"
}
layer {
  name: "downsample_9/pool_s2"
  type: "Pooling"
  bottom: "inception_8a/output"
  top: "downsample_9/pool_s2"
  pooling_param {
    pool: MAX
    kernel_size: 3
    stride: 2
  }
}
layer {
  name: "downsample_9/output"
  type: "Concat"
  bottom: "downsample_9/3x3_s2"
  bottom: "downsample_9/pool_s2"
  top: "downsample_9/output"
}
layer {
  name: "inception_10a/1x1"
  type: "Convolution"
  bottom: "downsample_9/output"
  top: "inception_10a/1x1"
  param {
    lr_mult: 1
    decay_mult: 1
  }
  param {
    lr_mult: 2
    decay_mult: 0
  }
  convolution_param {
    num_output: 176
    kernel_size: 1
    weight_filler {
      type: "xavier"
      std: 0.03
    }
    bias_filler {
      type: "constant"
      value: 0.2
    }
  }
}
layer {
  name: "inception_10a/1x1/bn1"
  type: "BatchNorm"
  bottom: "inception_10a/1x1"
  top: "inception_10a/1x1"
  param {
    lr_mult: 0
    decay_mult: 0
  }
  param {
    lr_mult: 0
    decay_mult: 0
  }
  param {
    lr_mult: 0
    decay_mult: 0
  }
  batch_norm_param {
    use_global_stats: false
  }
}
layer {
  name: "inception_10a/1x1/scale1"
  type: "Scale"
  bottom: "inception_10a/1x1"
  top: "inception_10a/1x1"
  scale_param {
    bias_term: true
  }
}
layer {
  name: "inception_10a/1x1/relu1"
  type: "ReLU"
  bottom: "inception_10a/1x1"
  top: "inception_10a/1x1"
}
layer {
  name: "inception_10a/3x3"
  type: "Convolution"
  bottom: "downsample_9/output"
  top: "inception_10a/3x3"
  param {
    lr_mult: 1
    decay_mult: 1
  }
  param {
    lr_mult: 2
    decay_mult: 0
  }
  convolution_param {
    num_output: 160
    pad: 1
    kernel_size: 3
    weight_filler {
      type: "xavier"
      std: 0.03
    }
    bias_filler {
      type: "constant"
      value: 0.2
    }
  }
}
layer {
  name: "inception_10a/3x3/bn1"
  type: "BatchNorm"
  bottom: "inception_10a/3x3"
  top: "inception_10a/3x3"
  param {
    lr_mult: 0
    decay_mult: 0
  }
  param {
    lr_mult: 0
    decay_mult: 0
  }
  param {
    lr_mult: 0
    decay_mult: 0
  }
  batch_norm_param {
    use_global_stats: false
  }
}
layer {
  name: "inception_10a/3x3/scale1"
  type: "Scale"
  bottom: "inception_10a/3x3"
  top: "inception_10a/3x3"
  scale_param {
    bias_term: true
  }
}
layer {
  name: "inception_10a/3x3/relu1"
  type: "ReLU"
  bottom: "inception_10a/3x3"
  top: "inception_10a/3x3"
}
layer {
  name: "inception_10a/output"
  type: "Concat"
  bottom: "inception_10a/1x1"
  bottom: "inception_10a/3x3"
  top: "inception_10a/output"
}
layer {
  name: "inception_11a/1x1"
  type: "Convolution"
  bottom: "inception_10a/output"
  top: "inception_11a/1x1"
  param {
    lr_mult: 1
    decay_mult: 1
  }
  param {
    lr_mult: 2
    decay_mult: 0
  }
  convolution_param {
    num_output: 176
    kernel_size: 1
    weight_filler {
      type: "xavier"
      std: 0.03
    }
    bias_filler {
      type: "constant"
      value: 0.2
    }
  }
}
layer {
  name: "inception_11a/1x1/bn1"
  type: "BatchNorm"
  bottom: "inception_11a/1x1"
  top: "inception_11a/1x1"
  param {
    lr_mult: 0
    decay_mult: 0
  }
  param {
    lr_mult: 0
    decay_mult: 0
  }
  param {
    lr_mult: 0
    decay_mult: 0
  }
  batch_norm_param {
    use_global_stats: false
  }
}
layer {
  name: "inception_11a/1x1/scale1"
  type: "Scale"
  bottom: "inception_11a/1x1"
  top: "inception_11a/1x1"
  scale_param {
    bias_term: true
  }
}
layer {
  name: "inception_11a/1x1/relu1"
  type: "ReLU"
  bottom: "inception_11a/1x1"
  top: "inception_11a/1x1"
}
layer {
  name: "inception_11a/3x3"
  type: "Convolution"
  bottom: "inception_10a/output"
  top: "inception_11a/3x3"
  param {
    lr_mult: 1
    decay_mult: 1
  }
  param {
    lr_mult: 2
    decay_mult: 0
  }
  convolution_param {
    num_output: 160
    pad: 1
    kernel_size: 3
    weight_filler {
      type: "xavier"
      std: 0.03
    }
    bias_filler {
      type: "constant"
      value: 0.2
    }
  }
}
layer {
  name: "inception_11a/3x3/bn1"
  type: "BatchNorm"
  bottom: "inception_11a/3x3"
  top: "inception_11a/3x3"
  param {
    lr_mult: 0
    decay_mult: 0
  }
  param {
    lr_mult: 0
    decay_mult: 0
  }
  param {
    lr_mult: 0
    decay_mult: 0
  }
  batch_norm_param {
    use_global_stats: false
  }
}
layer {
  name: "inception_11a/3x3/scale1"
  type: "Scale"
  bottom: "inception_11a/3x3"
  top: "inception_11a/3x3"
  scale_param {
    bias_term: true
  }
}
layer {
  name: "inception_11a/3x3/relu1"
  type: "ReLU"
  bottom: "inception_11a/3x3"
  top: "inception_11a/3x3"
}
layer {
  name: "inception_11a/output"
  type: "Concat"
  bottom: "inception_11a/1x1"
  bottom: "inception_11a/3x3"
  top: "inception_11a/output"
}
layer {
  name: "avg_pool_12/8x8_s1"
  type: "Pooling"
  bottom: "inception_11a/output"
  top: "avg_pool_12/8x8_s1"
  pooling_param {
    pool: AVE
    kernel_size: 8
    stride: 1
  }
}
layer {
  name: "drop_8x8_s1"
  type: "Dropout"
  bottom: "avg_pool_12/8x8_s1"
  top: "avg_pool_12/8x8_s1"
  dropout_param {
    dropout_ratio: 0.5
  }
}
layer {
  name: "loss/classifier"
  type: "InnerProduct"
  bottom: "avg_pool_12/8x8_s1"
  top: "loss/classifier"
  param {
    lr_mult: 1
    decay_mult: 1
  }
  param {
    lr_mult: 2
    decay_mult: 0
  }
  inner_product_param {
    num_output: 10
    weight_filler {
      type: "xavier"
    }
    bias_filler {
      type: "constant"
      value: 1
    }
  }
}
layer {
  name: "loss"
  type: "SoftmaxWithLoss"
  bottom: "loss/classifier"
  bottom: "label"
  top: "loss"
}
I0121 17:48:35.792948  1741 layer_factory.hpp:77] Creating layer data
I0121 17:48:35.803140  1741 db_lmdb.cpp:35] Opened lmdb cifar10/input/lmdb/train_lmdb
I0121 17:48:35.812201  1741 net.cpp:84] Creating Layer data
I0121 17:48:35.812224  1741 net.cpp:380] data -> data
I0121 17:48:35.812258  1741 net.cpp:380] data -> label
I0121 17:48:35.812321  1741 data_transformer.cpp:25] Loading mean file from: cifar10/input/mean.binaryproto
I0121 17:48:35.814724  1741 data_layer.cpp:45] output data size: 128,3,32,32
I0121 17:48:35.820502  1741 net.cpp:122] Setting up data
I0121 17:48:35.820536  1741 net.cpp:129] Top shape: 128 3 32 32 (393216)
I0121 17:48:35.820544  1741 net.cpp:129] Top shape: 128 (128)
I0121 17:48:35.820555  1741 net.cpp:137] Memory required for data: 1573376
I0121 17:48:35.820570  1741 layer_factory.hpp:77] Creating layer conv1/3x3_s1
I0121 17:48:35.820605  1741 net.cpp:84] Creating Layer conv1/3x3_s1
I0121 17:48:35.820637  1741 net.cpp:406] conv1/3x3_s1 <- data
I0121 17:48:35.820684  1741 net.cpp:380] conv1/3x3_s1 -> conv1/3x3_s1
I0121 17:48:37.359288  1741 net.cpp:122] Setting up conv1/3x3_s1
I0121 17:48:37.359350  1741 net.cpp:129] Top shape: 128 96 32 32 (12582912)
I0121 17:48:37.359360  1741 net.cpp:137] Memory required for data: 51905024
I0121 17:48:37.359395  1741 layer_factory.hpp:77] Creating layer conv1/bn1
I0121 17:48:37.359426  1741 net.cpp:84] Creating Layer conv1/bn1
I0121 17:48:37.359457  1741 net.cpp:406] conv1/bn1 <- conv1/3x3_s1
I0121 17:48:37.359472  1741 net.cpp:367] conv1/bn1 -> conv1/3x3_s1 (in-place)
I0121 17:48:37.359737  1741 net.cpp:122] Setting up conv1/bn1
I0121 17:48:37.359758  1741 net.cpp:129] Top shape: 128 96 32 32 (12582912)
I0121 17:48:37.359767  1741 net.cpp:137] Memory required for data: 102236672
I0121 17:48:37.359792  1741 layer_factory.hpp:77] Creating layer conv1/scale1
I0121 17:48:37.359865  1741 net.cpp:84] Creating Layer conv1/scale1
I0121 17:48:37.359891  1741 net.cpp:406] conv1/scale1 <- conv1/3x3_s1
I0121 17:48:37.359900  1741 net.cpp:367] conv1/scale1 -> conv1/3x3_s1 (in-place)
I0121 17:48:37.359978  1741 layer_factory.hpp:77] Creating layer conv1/scale1
I0121 17:48:37.360146  1741 net.cpp:122] Setting up conv1/scale1
I0121 17:48:37.360162  1741 net.cpp:129] Top shape: 128 96 32 32 (12582912)
I0121 17:48:37.360168  1741 net.cpp:137] Memory required for data: 152568320
I0121 17:48:37.360177  1741 layer_factory.hpp:77] Creating layer conv1/relu1
I0121 17:48:37.360188  1741 net.cpp:84] Creating Layer conv1/relu1
I0121 17:48:37.360198  1741 net.cpp:406] conv1/relu1 <- conv1/3x3_s1
I0121 17:48:37.360210  1741 net.cpp:367] conv1/relu1 -> conv1/3x3_s1 (in-place)
I0121 17:48:37.361358  1741 net.cpp:122] Setting up conv1/relu1
I0121 17:48:37.361380  1741 net.cpp:129] Top shape: 128 96 32 32 (12582912)
I0121 17:48:37.361385  1741 net.cpp:137] Memory required for data: 202899968
I0121 17:48:37.361392  1741 layer_factory.hpp:77] Creating layer conv1/3x3_s1_conv1/relu1_0_split
I0121 17:48:37.361403  1741 net.cpp:84] Creating Layer conv1/3x3_s1_conv1/relu1_0_split
I0121 17:48:37.361409  1741 net.cpp:406] conv1/3x3_s1_conv1/relu1_0_split <- conv1/3x3_s1
I0121 17:48:37.361418  1741 net.cpp:380] conv1/3x3_s1_conv1/relu1_0_split -> conv1/3x3_s1_conv1/relu1_0_split_0
I0121 17:48:37.361440  1741 net.cpp:380] conv1/3x3_s1_conv1/relu1_0_split -> conv1/3x3_s1_conv1/relu1_0_split_1
I0121 17:48:37.361507  1741 net.cpp:122] Setting up conv1/3x3_s1_conv1/relu1_0_split
I0121 17:48:37.361524  1741 net.cpp:129] Top shape: 128 96 32 32 (12582912)
I0121 17:48:37.361531  1741 net.cpp:129] Top shape: 128 96 32 32 (12582912)
I0121 17:48:37.361536  1741 net.cpp:137] Memory required for data: 303563264
I0121 17:48:37.361541  1741 layer_factory.hpp:77] Creating layer inception_2a/1x1
I0121 17:48:37.361593  1741 net.cpp:84] Creating Layer inception_2a/1x1
I0121 17:48:37.361606  1741 net.cpp:406] inception_2a/1x1 <- conv1/3x3_s1_conv1/relu1_0_split_0
I0121 17:48:37.361615  1741 net.cpp:380] inception_2a/1x1 -> inception_2a/1x1
I0121 17:48:37.362445  1741 net.cpp:122] Setting up inception_2a/1x1
I0121 17:48:37.362470  1741 net.cpp:129] Top shape: 128 32 32 32 (4194304)
I0121 17:48:37.362475  1741 net.cpp:137] Memory required for data: 320340480
I0121 17:48:37.362488  1741 layer_factory.hpp:77] Creating layer inception_2a/1x1/bn1
I0121 17:48:37.362498  1741 net.cpp:84] Creating Layer inception_2a/1x1/bn1
I0121 17:48:37.362509  1741 net.cpp:406] inception_2a/1x1/bn1 <- inception_2a/1x1
I0121 17:48:37.362519  1741 net.cpp:367] inception_2a/1x1/bn1 -> inception_2a/1x1 (in-place)
I0121 17:48:37.362732  1741 net.cpp:122] Setting up inception_2a/1x1/bn1
I0121 17:48:37.362751  1741 net.cpp:129] Top shape: 128 32 32 32 (4194304)
I0121 17:48:37.362756  1741 net.cpp:137] Memory required for data: 337117696
I0121 17:48:37.362766  1741 layer_factory.hpp:77] Creating layer inception_2a/1x1/scale1
I0121 17:48:37.362776  1741 net.cpp:84] Creating Layer inception_2a/1x1/scale1
I0121 17:48:37.362783  1741 net.cpp:406] inception_2a/1x1/scale1 <- inception_2a/1x1
I0121 17:48:37.362792  1741 net.cpp:367] inception_2a/1x1/scale1 -> inception_2a/1x1 (in-place)
I0121 17:48:37.362850  1741 layer_factory.hpp:77] Creating layer inception_2a/1x1/scale1
I0121 17:48:37.362996  1741 net.cpp:122] Setting up inception_2a/1x1/scale1
I0121 17:48:37.363014  1741 net.cpp:129] Top shape: 128 32 32 32 (4194304)
I0121 17:48:37.363019  1741 net.cpp:137] Memory required for data: 353894912
I0121 17:48:37.363042  1741 layer_factory.hpp:77] Creating layer inception_2a/1x1/relu1
I0121 17:48:37.363056  1741 net.cpp:84] Creating Layer inception_2a/1x1/relu1
I0121 17:48:37.363063  1741 net.cpp:406] inception_2a/1x1/relu1 <- inception_2a/1x1
I0121 17:48:37.363072  1741 net.cpp:367] inception_2a/1x1/relu1 -> inception_2a/1x1 (in-place)
I0121 17:48:37.363387  1741 net.cpp:122] Setting up inception_2a/1x1/relu1
I0121 17:48:37.363412  1741 net.cpp:129] Top shape: 128 32 32 32 (4194304)
I0121 17:48:37.363417  1741 net.cpp:137] Memory required for data: 370672128
I0121 17:48:37.363423  1741 layer_factory.hpp:77] Creating layer inception_2a/3x3
I0121 17:48:37.363438  1741 net.cpp:84] Creating Layer inception_2a/3x3
I0121 17:48:37.363456  1741 net.cpp:406] inception_2a/3x3 <- conv1/3x3_s1_conv1/relu1_0_split_1
I0121 17:48:37.363469  1741 net.cpp:380] inception_2a/3x3 -> inception_2a/3x3
I0121 17:48:37.365247  1741 net.cpp:122] Setting up inception_2a/3x3
I0121 17:48:37.365273  1741 net.cpp:129] Top shape: 128 32 32 32 (4194304)
I0121 17:48:37.365279  1741 net.cpp:137] Memory required for data: 387449344
I0121 17:48:37.365288  1741 layer_factory.hpp:77] Creating layer inception_2a/3x3/bn1
I0121 17:48:37.365300  1741 net.cpp:84] Creating Layer inception_2a/3x3/bn1
I0121 17:48:37.365309  1741 net.cpp:406] inception_2a/3x3/bn1 <- inception_2a/3x3
I0121 17:48:37.365321  1741 net.cpp:367] inception_2a/3x3/bn1 -> inception_2a/3x3 (in-place)
I0121 17:48:37.365573  1741 net.cpp:122] Setting up inception_2a/3x3/bn1
I0121 17:48:37.365593  1741 net.cpp:129] Top shape: 128 32 32 32 (4194304)
I0121 17:48:37.365598  1741 net.cpp:137] Memory required for data: 404226560
I0121 17:48:37.365612  1741 layer_factory.hpp:77] Creating layer inception_2a/3x3/scale1
I0121 17:48:37.365623  1741 net.cpp:84] Creating Layer inception_2a/3x3/scale1
I0121 17:48:37.365631  1741 net.cpp:406] inception_2a/3x3/scale1 <- inception_2a/3x3
I0121 17:48:37.365649  1741 net.cpp:367] inception_2a/3x3/scale1 -> inception_2a/3x3 (in-place)
I0121 17:48:37.365717  1741 layer_factory.hpp:77] Creating layer inception_2a/3x3/scale1
I0121 17:48:37.365909  1741 net.cpp:122] Setting up inception_2a/3x3/scale1
I0121 17:48:37.365929  1741 net.cpp:129] Top shape: 128 32 32 32 (4194304)
I0121 17:48:37.365934  1741 net.cpp:137] Memory required for data: 421003776
I0121 17:48:37.365943  1741 layer_factory.hpp:77] Creating layer inception_2a/3x3/relu1
I0121 17:48:37.365953  1741 net.cpp:84] Creating Layer inception_2a/3x3/relu1
I0121 17:48:37.365962  1741 net.cpp:406] inception_2a/3x3/relu1 <- inception_2a/3x3
I0121 17:48:37.365967  1741 net.cpp:367] inception_2a/3x3/relu1 -> inception_2a/3x3 (in-place)
I0121 17:48:37.366127  1741 net.cpp:122] Setting up inception_2a/3x3/relu1
I0121 17:48:37.366148  1741 net.cpp:129] Top shape: 128 32 32 32 (4194304)
I0121 17:48:37.366153  1741 net.cpp:137] Memory required for data: 437780992
I0121 17:48:37.366158  1741 layer_factory.hpp:77] Creating layer inception_2a/output
I0121 17:48:37.366168  1741 net.cpp:84] Creating Layer inception_2a/output
I0121 17:48:37.366174  1741 net.cpp:406] inception_2a/output <- inception_2a/1x1
I0121 17:48:37.366180  1741 net.cpp:406] inception_2a/output <- inception_2a/3x3
I0121 17:48:37.366186  1741 net.cpp:380] inception_2a/output -> inception_2a/output
I0121 17:48:37.366681  1741 net.cpp:122] Setting up inception_2a/output
I0121 17:48:37.366701  1741 net.cpp:129] Top shape: 128 64 32 32 (8388608)
I0121 17:48:37.366706  1741 net.cpp:137] Memory required for data: 471335424
I0121 17:48:37.366711  1741 layer_factory.hpp:77] Creating layer inception_2a/output_inception_2a/output_0_split
I0121 17:48:37.366719  1741 net.cpp:84] Creating Layer inception_2a/output_inception_2a/output_0_split
I0121 17:48:37.366724  1741 net.cpp:406] inception_2a/output_inception_2a/output_0_split <- inception_2a/output
I0121 17:48:37.366735  1741 net.cpp:380] inception_2a/output_inception_2a/output_0_split -> inception_2a/output_inception_2a/output_0_split_0
I0121 17:48:37.366744  1741 net.cpp:380] inception_2a/output_inception_2a/output_0_split -> inception_2a/output_inception_2a/output_0_split_1
I0121 17:48:37.366820  1741 net.cpp:122] Setting up inception_2a/output_inception_2a/output_0_split
I0121 17:48:37.366842  1741 net.cpp:129] Top shape: 128 64 32 32 (8388608)
I0121 17:48:37.366849  1741 net.cpp:129] Top shape: 128 64 32 32 (8388608)
I0121 17:48:37.366853  1741 net.cpp:137] Memory required for data: 538444288
I0121 17:48:37.366859  1741 layer_factory.hpp:77] Creating layer inception_3a/1x1
I0121 17:48:37.366876  1741 net.cpp:84] Creating Layer inception_3a/1x1
I0121 17:48:37.366911  1741 net.cpp:406] inception_3a/1x1 <- inception_2a/output_inception_2a/output_0_split_0
I0121 17:48:37.366950  1741 net.cpp:380] inception_3a/1x1 -> inception_3a/1x1
I0121 17:48:37.367928  1741 net.cpp:122] Setting up inception_3a/1x1
I0121 17:48:37.367957  1741 net.cpp:129] Top shape: 128 32 32 32 (4194304)
I0121 17:48:37.367964  1741 net.cpp:137] Memory required for data: 555221504
I0121 17:48:37.367971  1741 layer_factory.hpp:77] Creating layer inception_3a/1x1/bn1
I0121 17:48:37.367985  1741 net.cpp:84] Creating Layer inception_3a/1x1/bn1
I0121 17:48:37.367990  1741 net.cpp:406] inception_3a/1x1/bn1 <- inception_3a/1x1
I0121 17:48:37.368000  1741 net.cpp:367] inception_3a/1x1/bn1 -> inception_3a/1x1 (in-place)
I0121 17:48:37.368239  1741 net.cpp:122] Setting up inception_3a/1x1/bn1
I0121 17:48:37.368258  1741 net.cpp:129] Top shape: 128 32 32 32 (4194304)
I0121 17:48:37.368263  1741 net.cpp:137] Memory required for data: 571998720
I0121 17:48:37.368275  1741 layer_factory.hpp:77] Creating layer inception_3a/1x1/scale1
I0121 17:48:37.368285  1741 net.cpp:84] Creating Layer inception_3a/1x1/scale1
I0121 17:48:37.368291  1741 net.cpp:406] inception_3a/1x1/scale1 <- inception_3a/1x1
I0121 17:48:37.368297  1741 net.cpp:367] inception_3a/1x1/scale1 -> inception_3a/1x1 (in-place)
I0121 17:48:37.368347  1741 layer_factory.hpp:77] Creating layer inception_3a/1x1/scale1
I0121 17:48:37.368516  1741 net.cpp:122] Setting up inception_3a/1x1/scale1
I0121 17:48:37.368535  1741 net.cpp:129] Top shape: 128 32 32 32 (4194304)
I0121 17:48:37.368540  1741 net.cpp:137] Memory required for data: 588775936
I0121 17:48:37.368547  1741 layer_factory.hpp:77] Creating layer inception_3a/1x1/relu1
I0121 17:48:37.368556  1741 net.cpp:84] Creating Layer inception_3a/1x1/relu1
I0121 17:48:37.368569  1741 net.cpp:406] inception_3a/1x1/relu1 <- inception_3a/1x1
I0121 17:48:37.368578  1741 net.cpp:367] inception_3a/1x1/relu1 -> inception_3a/1x1 (in-place)
I0121 17:48:37.368877  1741 net.cpp:122] Setting up inception_3a/1x1/relu1
I0121 17:48:37.368901  1741 net.cpp:129] Top shape: 128 32 32 32 (4194304)
I0121 17:48:37.368907  1741 net.cpp:137] Memory required for data: 605553152
I0121 17:48:37.368912  1741 layer_factory.hpp:77] Creating layer inception_3a/3x3
I0121 17:48:37.368923  1741 net.cpp:84] Creating Layer inception_3a/3x3
I0121 17:48:37.368934  1741 net.cpp:406] inception_3a/3x3 <- inception_2a/output_inception_2a/output_0_split_1
I0121 17:48:37.368947  1741 net.cpp:380] inception_3a/3x3 -> inception_3a/3x3
I0121 17:48:37.370070  1741 net.cpp:122] Setting up inception_3a/3x3
I0121 17:48:37.370100  1741 net.cpp:129] Top shape: 128 48 32 32 (6291456)
I0121 17:48:37.370105  1741 net.cpp:137] Memory required for data: 630718976
I0121 17:48:37.370115  1741 layer_factory.hpp:77] Creating layer inception_3a/3x3/bn1
I0121 17:48:37.370126  1741 net.cpp:84] Creating Layer inception_3a/3x3/bn1
I0121 17:48:37.370133  1741 net.cpp:406] inception_3a/3x3/bn1 <- inception_3a/3x3
I0121 17:48:37.370142  1741 net.cpp:367] inception_3a/3x3/bn1 -> inception_3a/3x3 (in-place)
I0121 17:48:37.370404  1741 net.cpp:122] Setting up inception_3a/3x3/bn1
I0121 17:48:37.370425  1741 net.cpp:129] Top shape: 128 48 32 32 (6291456)
I0121 17:48:37.370430  1741 net.cpp:137] Memory required for data: 655884800
I0121 17:48:37.370448  1741 layer_factory.hpp:77] Creating layer inception_3a/3x3/scale1
I0121 17:48:37.370465  1741 net.cpp:84] Creating Layer inception_3a/3x3/scale1
I0121 17:48:37.370470  1741 net.cpp:406] inception_3a/3x3/scale1 <- inception_3a/3x3
I0121 17:48:37.370494  1741 net.cpp:367] inception_3a/3x3/scale1 -> inception_3a/3x3 (in-place)
I0121 17:48:37.370555  1741 layer_factory.hpp:77] Creating layer inception_3a/3x3/scale1
I0121 17:48:37.370718  1741 net.cpp:122] Setting up inception_3a/3x3/scale1
I0121 17:48:37.370736  1741 net.cpp:129] Top shape: 128 48 32 32 (6291456)
I0121 17:48:37.370741  1741 net.cpp:137] Memory required for data: 681050624
I0121 17:48:37.370749  1741 layer_factory.hpp:77] Creating layer inception_3a/3x3/relu1
I0121 17:48:37.370759  1741 net.cpp:84] Creating Layer inception_3a/3x3/relu1
I0121 17:48:37.370764  1741 net.cpp:406] inception_3a/3x3/relu1 <- inception_3a/3x3
I0121 17:48:37.370772  1741 net.cpp:367] inception_3a/3x3/relu1 -> inception_3a/3x3 (in-place)
I0121 17:48:37.370935  1741 net.cpp:122] Setting up inception_3a/3x3/relu1
I0121 17:48:37.370956  1741 net.cpp:129] Top shape: 128 48 32 32 (6291456)
I0121 17:48:37.370961  1741 net.cpp:137] Memory required for data: 706216448
I0121 17:48:37.370966  1741 layer_factory.hpp:77] Creating layer inception_3a/output
I0121 17:48:37.370973  1741 net.cpp:84] Creating Layer inception_3a/output
I0121 17:48:37.370981  1741 net.cpp:406] inception_3a/output <- inception_3a/1x1
I0121 17:48:37.370987  1741 net.cpp:406] inception_3a/output <- inception_3a/3x3
I0121 17:48:37.370995  1741 net.cpp:380] inception_3a/output -> inception_3a/output
I0121 17:48:37.371037  1741 net.cpp:122] Setting up inception_3a/output
I0121 17:48:37.371058  1741 net.cpp:129] Top shape: 128 80 32 32 (10485760)
I0121 17:48:37.371065  1741 net.cpp:137] Memory required for data: 748159488
I0121 17:48:37.371073  1741 layer_factory.hpp:77] Creating layer inception_3a/output_inception_3a/output_0_split
I0121 17:48:37.371083  1741 net.cpp:84] Creating Layer inception_3a/output_inception_3a/output_0_split
I0121 17:48:37.371093  1741 net.cpp:406] inception_3a/output_inception_3a/output_0_split <- inception_3a/output
I0121 17:48:37.371103  1741 net.cpp:380] inception_3a/output_inception_3a/output_0_split -> inception_3a/output_inception_3a/output_0_split_0
I0121 17:48:37.371115  1741 net.cpp:380] inception_3a/output_inception_3a/output_0_split -> inception_3a/output_inception_3a/output_0_split_1
I0121 17:48:37.371176  1741 net.cpp:122] Setting up inception_3a/output_inception_3a/output_0_split
I0121 17:48:37.371198  1741 net.cpp:129] Top shape: 128 80 32 32 (10485760)
I0121 17:48:37.371209  1741 net.cpp:129] Top shape: 128 80 32 32 (10485760)
I0121 17:48:37.371215  1741 net.cpp:137] Memory required for data: 832045568
I0121 17:48:37.371222  1741 layer_factory.hpp:77] Creating layer downsample_4/3x3_s2
I0121 17:48:37.371239  1741 net.cpp:84] Creating Layer downsample_4/3x3_s2
I0121 17:48:37.371249  1741 net.cpp:406] downsample_4/3x3_s2 <- inception_3a/output_inception_3a/output_0_split_0
I0121 17:48:37.371259  1741 net.cpp:380] downsample_4/3x3_s2 -> downsample_4/3x3_s2
I0121 17:48:37.372498  1741 net.cpp:122] Setting up downsample_4/3x3_s2
I0121 17:48:37.372525  1741 net.cpp:129] Top shape: 128 80 16 16 (2621440)
I0121 17:48:37.372530  1741 net.cpp:137] Memory required for data: 842531328
I0121 17:48:37.372539  1741 layer_factory.hpp:77] Creating layer downsample_4/3x3_s2/bn1
I0121 17:48:37.372551  1741 net.cpp:84] Creating Layer downsample_4/3x3_s2/bn1
I0121 17:48:37.372566  1741 net.cpp:406] downsample_4/3x3_s2/bn1 <- downsample_4/3x3_s2
I0121 17:48:37.372578  1741 net.cpp:367] downsample_4/3x3_s2/bn1 -> downsample_4/3x3_s2 (in-place)
I0121 17:48:37.372814  1741 net.cpp:122] Setting up downsample_4/3x3_s2/bn1
I0121 17:48:37.372833  1741 net.cpp:129] Top shape: 128 80 16 16 (2621440)
I0121 17:48:37.372843  1741 net.cpp:137] Memory required for data: 853017088
I0121 17:48:37.372856  1741 layer_factory.hpp:77] Creating layer downsample_4/3x3_s2/scale1
I0121 17:48:37.372874  1741 net.cpp:84] Creating Layer downsample_4/3x3_s2/scale1
I0121 17:48:37.372882  1741 net.cpp:406] downsample_4/3x3_s2/scale1 <- downsample_4/3x3_s2
I0121 17:48:37.372892  1741 net.cpp:367] downsample_4/3x3_s2/scale1 -> downsample_4/3x3_s2 (in-place)
I0121 17:48:37.372973  1741 layer_factory.hpp:77] Creating layer downsample_4/3x3_s2/scale1
I0121 17:48:37.373154  1741 net.cpp:122] Setting up downsample_4/3x3_s2/scale1
I0121 17:48:37.373176  1741 net.cpp:129] Top shape: 128 80 16 16 (2621440)
I0121 17:48:37.373185  1741 net.cpp:137] Memory required for data: 863502848
I0121 17:48:37.373196  1741 layer_factory.hpp:77] Creating layer downsample_4/3x3_s2/relu1
I0121 17:48:37.373215  1741 net.cpp:84] Creating Layer downsample_4/3x3_s2/relu1
I0121 17:48:37.373229  1741 net.cpp:406] downsample_4/3x3_s2/relu1 <- downsample_4/3x3_s2
I0121 17:48:37.373240  1741 net.cpp:367] downsample_4/3x3_s2/relu1 -> downsample_4/3x3_s2 (in-place)
I0121 17:48:37.373543  1741 net.cpp:122] Setting up downsample_4/3x3_s2/relu1
I0121 17:48:37.373570  1741 net.cpp:129] Top shape: 128 80 16 16 (2621440)
I0121 17:48:37.373579  1741 net.cpp:137] Memory required for data: 873988608
I0121 17:48:37.373586  1741 layer_factory.hpp:77] Creating layer downsample_4/pool_s2
I0121 17:48:37.373603  1741 net.cpp:84] Creating Layer downsample_4/pool_s2
I0121 17:48:37.373617  1741 net.cpp:406] downsample_4/pool_s2 <- inception_3a/output_inception_3a/output_0_split_1
I0121 17:48:37.373630  1741 net.cpp:380] downsample_4/pool_s2 -> downsample_4/pool_s2
I0121 17:48:37.373734  1741 net.cpp:122] Setting up downsample_4/pool_s2
I0121 17:48:37.373756  1741 net.cpp:129] Top shape: 128 80 16 16 (2621440)
I0121 17:48:37.373785  1741 net.cpp:137] Memory required for data: 884474368
I0121 17:48:37.373795  1741 layer_factory.hpp:77] Creating layer downsample_4/output
I0121 17:48:37.373806  1741 net.cpp:84] Creating Layer downsample_4/output
I0121 17:48:37.373813  1741 net.cpp:406] downsample_4/output <- downsample_4/3x3_s2
I0121 17:48:37.373822  1741 net.cpp:406] downsample_4/output <- downsample_4/pool_s2
I0121 17:48:37.373842  1741 net.cpp:380] downsample_4/output -> downsample_4/output
I0121 17:48:37.373890  1741 net.cpp:122] Setting up downsample_4/output
I0121 17:48:37.373908  1741 net.cpp:129] Top shape: 128 160 16 16 (5242880)
I0121 17:48:37.373916  1741 net.cpp:137] Memory required for data: 905445888
I0121 17:48:37.373922  1741 layer_factory.hpp:77] Creating layer downsample_4/output_downsample_4/output_0_split
I0121 17:48:37.373939  1741 net.cpp:84] Creating Layer downsample_4/output_downsample_4/output_0_split
I0121 17:48:37.373946  1741 net.cpp:406] downsample_4/output_downsample_4/output_0_split <- downsample_4/output
I0121 17:48:37.373961  1741 net.cpp:380] downsample_4/output_downsample_4/output_0_split -> downsample_4/output_downsample_4/output_0_split_0
I0121 17:48:37.373972  1741 net.cpp:380] downsample_4/output_downsample_4/output_0_split -> downsample_4/output_downsample_4/output_0_split_1
I0121 17:48:37.374037  1741 net.cpp:122] Setting up downsample_4/output_downsample_4/output_0_split
I0121 17:48:37.374058  1741 net.cpp:129] Top shape: 128 160 16 16 (5242880)
I0121 17:48:37.374068  1741 net.cpp:129] Top shape: 128 160 16 16 (5242880)
I0121 17:48:37.374073  1741 net.cpp:137] Memory required for data: 947388928
I0121 17:48:37.374084  1741 layer_factory.hpp:77] Creating layer inception_5a/1x1
I0121 17:48:37.374104  1741 net.cpp:84] Creating Layer inception_5a/1x1
I0121 17:48:37.374111  1741 net.cpp:406] inception_5a/1x1 <- downsample_4/output_downsample_4/output_0_split_0
I0121 17:48:37.374121  1741 net.cpp:380] inception_5a/1x1 -> inception_5a/1x1
I0121 17:48:37.375341  1741 net.cpp:122] Setting up inception_5a/1x1
I0121 17:48:37.375367  1741 net.cpp:129] Top shape: 128 112 16 16 (3670016)
I0121 17:48:37.375372  1741 net.cpp:137] Memory required for data: 962068992
I0121 17:48:37.375385  1741 layer_factory.hpp:77] Creating layer inception_5a/1x1/bn1
I0121 17:48:37.375412  1741 net.cpp:84] Creating Layer inception_5a/1x1/bn1
I0121 17:48:37.375430  1741 net.cpp:406] inception_5a/1x1/bn1 <- inception_5a/1x1
I0121 17:48:37.375442  1741 net.cpp:367] inception_5a/1x1/bn1 -> inception_5a/1x1 (in-place)
I0121 17:48:37.375671  1741 net.cpp:122] Setting up inception_5a/1x1/bn1
I0121 17:48:37.375690  1741 net.cpp:129] Top shape: 128 112 16 16 (3670016)
I0121 17:48:37.375706  1741 net.cpp:137] Memory required for data: 976749056
I0121 17:48:37.375720  1741 layer_factory.hpp:77] Creating layer inception_5a/1x1/scale1
I0121 17:48:37.375730  1741 net.cpp:84] Creating Layer inception_5a/1x1/scale1
I0121 17:48:37.375742  1741 net.cpp:406] inception_5a/1x1/scale1 <- inception_5a/1x1
I0121 17:48:37.375751  1741 net.cpp:367] inception_5a/1x1/scale1 -> inception_5a/1x1 (in-place)
I0121 17:48:37.375811  1741 layer_factory.hpp:77] Creating layer inception_5a/1x1/scale1
I0121 17:48:37.375967  1741 net.cpp:122] Setting up inception_5a/1x1/scale1
I0121 17:48:37.375985  1741 net.cpp:129] Top shape: 128 112 16 16 (3670016)
I0121 17:48:37.375989  1741 net.cpp:137] Memory required for data: 991429120
I0121 17:48:37.375998  1741 layer_factory.hpp:77] Creating layer inception_5a/1x1/relu1
I0121 17:48:37.376008  1741 net.cpp:84] Creating Layer inception_5a/1x1/relu1
I0121 17:48:37.376021  1741 net.cpp:406] inception_5a/1x1/relu1 <- inception_5a/1x1
I0121 17:48:37.376031  1741 net.cpp:367] inception_5a/1x1/relu1 -> inception_5a/1x1 (in-place)
I0121 17:48:37.376200  1741 net.cpp:122] Setting up inception_5a/1x1/relu1
I0121 17:48:37.376225  1741 net.cpp:129] Top shape: 128 112 16 16 (3670016)
I0121 17:48:37.376231  1741 net.cpp:137] Memory required for data: 1006109184
I0121 17:48:37.376236  1741 layer_factory.hpp:77] Creating layer inception_5a/3x3
I0121 17:48:37.376250  1741 net.cpp:84] Creating Layer inception_5a/3x3
I0121 17:48:37.376266  1741 net.cpp:406] inception_5a/3x3 <- downsample_4/output_downsample_4/output_0_split_1
I0121 17:48:37.376278  1741 net.cpp:380] inception_5a/3x3 -> inception_5a/3x3
I0121 17:48:37.378468  1741 net.cpp:122] Setting up inception_5a/3x3
I0121 17:48:37.378497  1741 net.cpp:129] Top shape: 128 48 16 16 (1572864)
I0121 17:48:37.378504  1741 net.cpp:137] Memory required for data: 1012400640
I0121 17:48:37.378512  1741 layer_factory.hpp:77] Creating layer inception_5a/3x3/bn1
I0121 17:48:37.378530  1741 net.cpp:84] Creating Layer inception_5a/3x3/bn1
I0121 17:48:37.378540  1741 net.cpp:406] inception_5a/3x3/bn1 <- inception_5a/3x3
I0121 17:48:37.378562  1741 net.cpp:367] inception_5a/3x3/bn1 -> inception_5a/3x3 (in-place)
I0121 17:48:37.378803  1741 net.cpp:122] Setting up inception_5a/3x3/bn1
I0121 17:48:37.378821  1741 net.cpp:129] Top shape: 128 48 16 16 (1572864)
I0121 17:48:37.378825  1741 net.cpp:137] Memory required for data: 1018692096
I0121 17:48:37.378834  1741 layer_factory.hpp:77] Creating layer inception_5a/3x3/scale1
I0121 17:48:37.378844  1741 net.cpp:84] Creating Layer inception_5a/3x3/scale1
I0121 17:48:37.378859  1741 net.cpp:406] inception_5a/3x3/scale1 <- inception_5a/3x3
I0121 17:48:37.378868  1741 net.cpp:367] inception_5a/3x3/scale1 -> inception_5a/3x3 (in-place)
I0121 17:48:37.378962  1741 layer_factory.hpp:77] Creating layer inception_5a/3x3/scale1
I0121 17:48:37.379124  1741 net.cpp:122] Setting up inception_5a/3x3/scale1
I0121 17:48:37.379142  1741 net.cpp:129] Top shape: 128 48 16 16 (1572864)
I0121 17:48:37.379148  1741 net.cpp:137] Memory required for data: 1024983552
I0121 17:48:37.379155  1741 layer_factory.hpp:77] Creating layer inception_5a/3x3/relu1
I0121 17:48:37.379173  1741 net.cpp:84] Creating Layer inception_5a/3x3/relu1
I0121 17:48:37.379180  1741 net.cpp:406] inception_5a/3x3/relu1 <- inception_5a/3x3
I0121 17:48:37.379194  1741 net.cpp:367] inception_5a/3x3/relu1 -> inception_5a/3x3 (in-place)
I0121 17:48:37.379513  1741 net.cpp:122] Setting up inception_5a/3x3/relu1
I0121 17:48:37.379536  1741 net.cpp:129] Top shape: 128 48 16 16 (1572864)
I0121 17:48:37.379541  1741 net.cpp:137] Memory required for data: 1031275008
I0121 17:48:37.379547  1741 layer_factory.hpp:77] Creating layer inception_5a/output
I0121 17:48:37.379555  1741 net.cpp:84] Creating Layer inception_5a/output
I0121 17:48:37.379564  1741 net.cpp:406] inception_5a/output <- inception_5a/1x1
I0121 17:48:37.379571  1741 net.cpp:406] inception_5a/output <- inception_5a/3x3
I0121 17:48:37.379585  1741 net.cpp:380] inception_5a/output -> inception_5a/output
I0121 17:48:37.379640  1741 net.cpp:122] Setting up inception_5a/output
I0121 17:48:37.379663  1741 net.cpp:129] Top shape: 128 160 16 16 (5242880)
I0121 17:48:37.379675  1741 net.cpp:137] Memory required for data: 1052246528
I0121 17:48:37.379683  1741 layer_factory.hpp:77] Creating layer inception_5a/output_inception_5a/output_0_split
I0121 17:48:37.379693  1741 net.cpp:84] Creating Layer inception_5a/output_inception_5a/output_0_split
I0121 17:48:37.379707  1741 net.cpp:406] inception_5a/output_inception_5a/output_0_split <- inception_5a/output
I0121 17:48:37.379719  1741 net.cpp:380] inception_5a/output_inception_5a/output_0_split -> inception_5a/output_inception_5a/output_0_split_0
I0121 17:48:37.379747  1741 net.cpp:380] inception_5a/output_inception_5a/output_0_split -> inception_5a/output_inception_5a/output_0_split_1
I0121 17:48:37.379833  1741 net.cpp:122] Setting up inception_5a/output_inception_5a/output_0_split
I0121 17:48:37.379853  1741 net.cpp:129] Top shape: 128 160 16 16 (5242880)
I0121 17:48:37.379859  1741 net.cpp:129] Top shape: 128 160 16 16 (5242880)
I0121 17:48:37.379863  1741 net.cpp:137] Memory required for data: 1094189568
I0121 17:48:37.379871  1741 layer_factory.hpp:77] Creating layer inception_6a/1x1
I0121 17:48:37.379899  1741 net.cpp:84] Creating Layer inception_6a/1x1
I0121 17:48:37.379916  1741 net.cpp:406] inception_6a/1x1 <- inception_5a/output_inception_5a/output_0_split_0
I0121 17:48:37.379928  1741 net.cpp:380] inception_6a/1x1 -> inception_6a/1x1
I0121 17:48:37.381588  1741 net.cpp:122] Setting up inception_6a/1x1
I0121 17:48:37.381615  1741 net.cpp:129] Top shape: 128 96 16 16 (3145728)
I0121 17:48:37.381620  1741 net.cpp:137] Memory required for data: 1106772480
I0121 17:48:37.381629  1741 layer_factory.hpp:77] Creating layer inception_6a/1x1/bn1
I0121 17:48:37.381649  1741 net.cpp:84] Creating Layer inception_6a/1x1/bn1
I0121 17:48:37.381659  1741 net.cpp:406] inception_6a/1x1/bn1 <- inception_6a/1x1
I0121 17:48:37.381682  1741 net.cpp:367] inception_6a/1x1/bn1 -> inception_6a/1x1 (in-place)
I0121 17:48:37.381956  1741 net.cpp:122] Setting up inception_6a/1x1/bn1
I0121 17:48:37.381975  1741 net.cpp:129] Top shape: 128 96 16 16 (3145728)
I0121 17:48:37.381981  1741 net.cpp:137] Memory required for data: 1119355392
I0121 17:48:37.381991  1741 layer_factory.hpp:77] Creating layer inception_6a/1x1/scale1
I0121 17:48:37.381999  1741 net.cpp:84] Creating Layer inception_6a/1x1/scale1
I0121 17:48:37.382006  1741 net.cpp:406] inception_6a/1x1/scale1 <- inception_6a/1x1
I0121 17:48:37.382014  1741 net.cpp:367] inception_6a/1x1/scale1 -> inception_6a/1x1 (in-place)
I0121 17:48:37.382083  1741 layer_factory.hpp:77] Creating layer inception_6a/1x1/scale1
I0121 17:48:37.382247  1741 net.cpp:122] Setting up inception_6a/1x1/scale1
I0121 17:48:37.382267  1741 net.cpp:129] Top shape: 128 96 16 16 (3145728)
I0121 17:48:37.382277  1741 net.cpp:137] Memory required for data: 1131938304
I0121 17:48:37.382287  1741 layer_factory.hpp:77] Creating layer inception_6a/1x1/relu1
I0121 17:48:37.382305  1741 net.cpp:84] Creating Layer inception_6a/1x1/relu1
I0121 17:48:37.382319  1741 net.cpp:406] inception_6a/1x1/relu1 <- inception_6a/1x1
I0121 17:48:37.382331  1741 net.cpp:367] inception_6a/1x1/relu1 -> inception_6a/1x1 (in-place)
I0121 17:48:37.382619  1741 net.cpp:122] Setting up inception_6a/1x1/relu1
I0121 17:48:37.382647  1741 net.cpp:129] Top shape: 128 96 16 16 (3145728)
I0121 17:48:37.382654  1741 net.cpp:137] Memory required for data: 1144521216
I0121 17:48:37.382663  1741 layer_factory.hpp:77] Creating layer inception_6a/3x3
I0121 17:48:37.382683  1741 net.cpp:84] Creating Layer inception_6a/3x3
I0121 17:48:37.382714  1741 net.cpp:406] inception_6a/3x3 <- inception_5a/output_inception_5a/output_0_split_1
I0121 17:48:37.382740  1741 net.cpp:380] inception_6a/3x3 -> inception_6a/3x3
I0121 17:48:37.384187  1741 net.cpp:122] Setting up inception_6a/3x3
I0121 17:48:37.384217  1741 net.cpp:129] Top shape: 128 64 16 16 (2097152)
I0121 17:48:37.384224  1741 net.cpp:137] Memory required for data: 1152909824
I0121 17:48:37.384271  1741 layer_factory.hpp:77] Creating layer inception_6a/3x3/bn1
I0121 17:48:37.384299  1741 net.cpp:84] Creating Layer inception_6a/3x3/bn1
I0121 17:48:37.384308  1741 net.cpp:406] inception_6a/3x3/bn1 <- inception_6a/3x3
I0121 17:48:37.384331  1741 net.cpp:367] inception_6a/3x3/bn1 -> inception_6a/3x3 (in-place)
I0121 17:48:37.384568  1741 net.cpp:122] Setting up inception_6a/3x3/bn1
I0121 17:48:37.384589  1741 net.cpp:129] Top shape: 128 64 16 16 (2097152)
I0121 17:48:37.384598  1741 net.cpp:137] Memory required for data: 1161298432
I0121 17:48:37.384610  1741 layer_factory.hpp:77] Creating layer inception_6a/3x3/scale1
I0121 17:48:37.384630  1741 net.cpp:84] Creating Layer inception_6a/3x3/scale1
I0121 17:48:37.384640  1741 net.cpp:406] inception_6a/3x3/scale1 <- inception_6a/3x3
I0121 17:48:37.384649  1741 net.cpp:367] inception_6a/3x3/scale1 -> inception_6a/3x3 (in-place)
I0121 17:48:37.384743  1741 layer_factory.hpp:77] Creating layer inception_6a/3x3/scale1
I0121 17:48:37.384914  1741 net.cpp:122] Setting up inception_6a/3x3/scale1
I0121 17:48:37.384934  1741 net.cpp:129] Top shape: 128 64 16 16 (2097152)
I0121 17:48:37.384941  1741 net.cpp:137] Memory required for data: 1169687040
I0121 17:48:37.384953  1741 layer_factory.hpp:77] Creating layer inception_6a/3x3/relu1
I0121 17:48:37.384979  1741 net.cpp:84] Creating Layer inception_6a/3x3/relu1
I0121 17:48:37.384989  1741 net.cpp:406] inception_6a/3x3/relu1 <- inception_6a/3x3
I0121 17:48:37.384999  1741 net.cpp:367] inception_6a/3x3/relu1 -> inception_6a/3x3 (in-place)
I0121 17:48:37.385172  1741 net.cpp:122] Setting up inception_6a/3x3/relu1
I0121 17:48:37.385195  1741 net.cpp:129] Top shape: 128 64 16 16 (2097152)
I0121 17:48:37.385203  1741 net.cpp:137] Memory required for data: 1178075648
I0121 17:48:37.385210  1741 layer_factory.hpp:77] Creating layer inception_6a/output
I0121 17:48:37.385221  1741 net.cpp:84] Creating Layer inception_6a/output
I0121 17:48:37.385236  1741 net.cpp:406] inception_6a/output <- inception_6a/1x1
I0121 17:48:37.385246  1741 net.cpp:406] inception_6a/output <- inception_6a/3x3
I0121 17:48:37.385255  1741 net.cpp:380] inception_6a/output -> inception_6a/output
I0121 17:48:37.385300  1741 net.cpp:122] Setting up inception_6a/output
I0121 17:48:37.385319  1741 net.cpp:129] Top shape: 128 160 16 16 (5242880)
I0121 17:48:37.385327  1741 net.cpp:137] Memory required for data: 1199047168
I0121 17:48:37.385334  1741 layer_factory.hpp:77] Creating layer inception_6a/output_inception_6a/output_0_split
I0121 17:48:37.385344  1741 net.cpp:84] Creating Layer inception_6a/output_inception_6a/output_0_split
I0121 17:48:37.385359  1741 net.cpp:406] inception_6a/output_inception_6a/output_0_split <- inception_6a/output
I0121 17:48:37.385375  1741 net.cpp:380] inception_6a/output_inception_6a/output_0_split -> inception_6a/output_inception_6a/output_0_split_0
I0121 17:48:37.385388  1741 net.cpp:380] inception_6a/output_inception_6a/output_0_split -> inception_6a/output_inception_6a/output_0_split_1
I0121 17:48:37.385457  1741 net.cpp:122] Setting up inception_6a/output_inception_6a/output_0_split
I0121 17:48:37.385478  1741 net.cpp:129] Top shape: 128 160 16 16 (5242880)
I0121 17:48:37.385488  1741 net.cpp:129] Top shape: 128 160 16 16 (5242880)
I0121 17:48:37.385494  1741 net.cpp:137] Memory required for data: 1240990208
I0121 17:48:37.385509  1741 layer_factory.hpp:77] Creating layer inception_7a/1x1
I0121 17:48:37.385529  1741 net.cpp:84] Creating Layer inception_7a/1x1
I0121 17:48:37.385545  1741 net.cpp:406] inception_7a/1x1 <- inception_6a/output_inception_6a/output_0_split_0
I0121 17:48:37.385556  1741 net.cpp:380] inception_7a/1x1 -> inception_7a/1x1
I0121 17:48:37.386636  1741 net.cpp:122] Setting up inception_7a/1x1
I0121 17:48:37.386662  1741 net.cpp:129] Top shape: 128 80 16 16 (2621440)
I0121 17:48:37.386669  1741 net.cpp:137] Memory required for data: 1251475968
I0121 17:48:37.386680  1741 layer_factory.hpp:77] Creating layer inception_7a/1x1/bn1
I0121 17:48:37.386740  1741 net.cpp:84] Creating Layer inception_7a/1x1/bn1
I0121 17:48:37.386757  1741 net.cpp:406] inception_7a/1x1/bn1 <- inception_7a/1x1
I0121 17:48:37.386775  1741 net.cpp:367] inception_7a/1x1/bn1 -> inception_7a/1x1 (in-place)
I0121 17:48:37.387004  1741 net.cpp:122] Setting up inception_7a/1x1/bn1
I0121 17:48:37.387023  1741 net.cpp:129] Top shape: 128 80 16 16 (2621440)
I0121 17:48:37.387032  1741 net.cpp:137] Memory required for data: 1261961728
I0121 17:48:37.387046  1741 layer_factory.hpp:77] Creating layer inception_7a/1x1/scale1
I0121 17:48:37.387071  1741 net.cpp:84] Creating Layer inception_7a/1x1/scale1
I0121 17:48:37.387080  1741 net.cpp:406] inception_7a/1x1/scale1 <- inception_7a/1x1
I0121 17:48:37.387091  1741 net.cpp:367] inception_7a/1x1/scale1 -> inception_7a/1x1 (in-place)
I0121 17:48:37.387156  1741 layer_factory.hpp:77] Creating layer inception_7a/1x1/scale1
I0121 17:48:37.387311  1741 net.cpp:122] Setting up inception_7a/1x1/scale1
I0121 17:48:37.387331  1741 net.cpp:129] Top shape: 128 80 16 16 (2621440)
I0121 17:48:37.387337  1741 net.cpp:137] Memory required for data: 1272447488
I0121 17:48:37.387351  1741 layer_factory.hpp:77] Creating layer inception_7a/1x1/relu1
I0121 17:48:37.387368  1741 net.cpp:84] Creating Layer inception_7a/1x1/relu1
I0121 17:48:37.387377  1741 net.cpp:406] inception_7a/1x1/relu1 <- inception_7a/1x1
I0121 17:48:37.387389  1741 net.cpp:367] inception_7a/1x1/relu1 -> inception_7a/1x1 (in-place)
I0121 17:48:37.387691  1741 net.cpp:122] Setting up inception_7a/1x1/relu1
I0121 17:48:37.387720  1741 net.cpp:129] Top shape: 128 80 16 16 (2621440)
I0121 17:48:37.387728  1741 net.cpp:137] Memory required for data: 1282933248
I0121 17:48:37.387735  1741 layer_factory.hpp:77] Creating layer inception_7a/3x3
I0121 17:48:37.387753  1741 net.cpp:84] Creating Layer inception_7a/3x3
I0121 17:48:37.387766  1741 net.cpp:406] inception_7a/3x3 <- inception_6a/output_inception_6a/output_0_split_1
I0121 17:48:37.387779  1741 net.cpp:380] inception_7a/3x3 -> inception_7a/3x3
I0121 17:48:37.390136  1741 net.cpp:122] Setting up inception_7a/3x3
I0121 17:48:37.390164  1741 net.cpp:129] Top shape: 128 80 16 16 (2621440)
I0121 17:48:37.390169  1741 net.cpp:137] Memory required for data: 1293419008
I0121 17:48:37.390182  1741 layer_factory.hpp:77] Creating layer inception_7a/3x3/bn1
I0121 17:48:37.390208  1741 net.cpp:84] Creating Layer inception_7a/3x3/bn1
I0121 17:48:37.390225  1741 net.cpp:406] inception_7a/3x3/bn1 <- inception_7a/3x3
I0121 17:48:37.390236  1741 net.cpp:367] inception_7a/3x3/bn1 -> inception_7a/3x3 (in-place)
I0121 17:48:37.390476  1741 net.cpp:122] Setting up inception_7a/3x3/bn1
I0121 17:48:37.390494  1741 net.cpp:129] Top shape: 128 80 16 16 (2621440)
I0121 17:48:37.390501  1741 net.cpp:137] Memory required for data: 1303904768
I0121 17:48:37.390517  1741 layer_factory.hpp:77] Creating layer inception_7a/3x3/scale1
I0121 17:48:37.390548  1741 net.cpp:84] Creating Layer inception_7a/3x3/scale1
I0121 17:48:37.390563  1741 net.cpp:406] inception_7a/3x3/scale1 <- inception_7a/3x3
I0121 17:48:37.390578  1741 net.cpp:367] inception_7a/3x3/scale1 -> inception_7a/3x3 (in-place)
I0121 17:48:37.390643  1741 layer_factory.hpp:77] Creating layer inception_7a/3x3/scale1
I0121 17:48:37.390803  1741 net.cpp:122] Setting up inception_7a/3x3/scale1
I0121 17:48:37.390823  1741 net.cpp:129] Top shape: 128 80 16 16 (2621440)
I0121 17:48:37.390832  1741 net.cpp:137] Memory required for data: 1314390528
I0121 17:48:37.390844  1741 layer_factory.hpp:77] Creating layer inception_7a/3x3/relu1
I0121 17:48:37.390866  1741 net.cpp:84] Creating Layer inception_7a/3x3/relu1
I0121 17:48:37.390873  1741 net.cpp:406] inception_7a/3x3/relu1 <- inception_7a/3x3
I0121 17:48:37.390898  1741 net.cpp:367] inception_7a/3x3/relu1 -> inception_7a/3x3 (in-place)
I0121 17:48:37.391085  1741 net.cpp:122] Setting up inception_7a/3x3/relu1
I0121 17:48:37.391106  1741 net.cpp:129] Top shape: 128 80 16 16 (2621440)
I0121 17:48:37.391111  1741 net.cpp:137] Memory required for data: 1324876288
I0121 17:48:37.391119  1741 layer_factory.hpp:77] Creating layer inception_7a/output
I0121 17:48:37.391161  1741 net.cpp:84] Creating Layer inception_7a/output
I0121 17:48:37.391178  1741 net.cpp:406] inception_7a/output <- inception_7a/1x1
I0121 17:48:37.391188  1741 net.cpp:406] inception_7a/output <- inception_7a/3x3
I0121 17:48:37.391199  1741 net.cpp:380] inception_7a/output -> inception_7a/output
I0121 17:48:37.391255  1741 net.cpp:122] Setting up inception_7a/output
I0121 17:48:37.391274  1741 net.cpp:129] Top shape: 128 160 16 16 (5242880)
I0121 17:48:37.391283  1741 net.cpp:137] Memory required for data: 1345847808
I0121 17:48:37.391289  1741 layer_factory.hpp:77] Creating layer inception_7a/output_inception_7a/output_0_split
I0121 17:48:37.391312  1741 net.cpp:84] Creating Layer inception_7a/output_inception_7a/output_0_split
I0121 17:48:37.391320  1741 net.cpp:406] inception_7a/output_inception_7a/output_0_split <- inception_7a/output
I0121 17:48:37.391360  1741 net.cpp:380] inception_7a/output_inception_7a/output_0_split -> inception_7a/output_inception_7a/output_0_split_0
I0121 17:48:37.391391  1741 net.cpp:380] inception_7a/output_inception_7a/output_0_split -> inception_7a/output_inception_7a/output_0_split_1
I0121 17:48:37.391485  1741 net.cpp:122] Setting up inception_7a/output_inception_7a/output_0_split
I0121 17:48:37.391503  1741 net.cpp:129] Top shape: 128 160 16 16 (5242880)
I0121 17:48:37.391510  1741 net.cpp:129] Top shape: 128 160 16 16 (5242880)
I0121 17:48:37.391515  1741 net.cpp:137] Memory required for data: 1387790848
I0121 17:48:37.391530  1741 layer_factory.hpp:77] Creating layer inception_8a/1x1
I0121 17:48:37.391551  1741 net.cpp:84] Creating Layer inception_8a/1x1
I0121 17:48:37.391564  1741 net.cpp:406] inception_8a/1x1 <- inception_7a/output_inception_7a/output_0_split_0
I0121 17:48:37.391582  1741 net.cpp:380] inception_8a/1x1 -> inception_8a/1x1
I0121 17:48:37.392606  1741 net.cpp:122] Setting up inception_8a/1x1
I0121 17:48:37.392632  1741 net.cpp:129] Top shape: 128 48 16 16 (1572864)
I0121 17:48:37.392637  1741 net.cpp:137] Memory required for data: 1394082304
I0121 17:48:37.392647  1741 layer_factory.hpp:77] Creating layer inception_8a/1x1/bn1
I0121 17:48:37.392681  1741 net.cpp:84] Creating Layer inception_8a/1x1/bn1
I0121 17:48:37.392719  1741 net.cpp:406] inception_8a/1x1/bn1 <- inception_8a/1x1
I0121 17:48:37.392758  1741 net.cpp:367] inception_8a/1x1/bn1 -> inception_8a/1x1 (in-place)
I0121 17:48:37.393029  1741 net.cpp:122] Setting up inception_8a/1x1/bn1
I0121 17:48:37.393049  1741 net.cpp:129] Top shape: 128 48 16 16 (1572864)
I0121 17:48:37.393054  1741 net.cpp:137] Memory required for data: 1400373760
I0121 17:48:37.393066  1741 layer_factory.hpp:77] Creating layer inception_8a/1x1/scale1
I0121 17:48:37.393082  1741 net.cpp:84] Creating Layer inception_8a/1x1/scale1
I0121 17:48:37.393091  1741 net.cpp:406] inception_8a/1x1/scale1 <- inception_8a/1x1
I0121 17:48:37.393110  1741 net.cpp:367] inception_8a/1x1/scale1 -> inception_8a/1x1 (in-place)
I0121 17:48:37.393174  1741 layer_factory.hpp:77] Creating layer inception_8a/1x1/scale1
I0121 17:48:37.393335  1741 net.cpp:122] Setting up inception_8a/1x1/scale1
I0121 17:48:37.393352  1741 net.cpp:129] Top shape: 128 48 16 16 (1572864)
I0121 17:48:37.393357  1741 net.cpp:137] Memory required for data: 1406665216
I0121 17:48:37.393365  1741 layer_factory.hpp:77] Creating layer inception_8a/1x1/relu1
I0121 17:48:37.393383  1741 net.cpp:84] Creating Layer inception_8a/1x1/relu1
I0121 17:48:37.393390  1741 net.cpp:406] inception_8a/1x1/relu1 <- inception_8a/1x1
I0121 17:48:37.393412  1741 net.cpp:367] inception_8a/1x1/relu1 -> inception_8a/1x1 (in-place)
I0121 17:48:37.393734  1741 net.cpp:122] Setting up inception_8a/1x1/relu1
I0121 17:48:37.393759  1741 net.cpp:129] Top shape: 128 48 16 16 (1572864)
I0121 17:48:37.393784  1741 net.cpp:137] Memory required for data: 1412956672
I0121 17:48:37.393800  1741 layer_factory.hpp:77] Creating layer inception_8a/3x3
I0121 17:48:37.393817  1741 net.cpp:84] Creating Layer inception_8a/3x3
I0121 17:48:37.393856  1741 net.cpp:406] inception_8a/3x3 <- inception_7a/output_inception_7a/output_0_split_1
I0121 17:48:37.393906  1741 net.cpp:380] inception_8a/3x3 -> inception_8a/3x3
I0121 17:48:37.395642  1741 net.cpp:122] Setting up inception_8a/3x3
I0121 17:48:37.395668  1741 net.cpp:129] Top shape: 128 96 16 16 (3145728)
I0121 17:48:37.395674  1741 net.cpp:137] Memory required for data: 1425539584
I0121 17:48:37.395684  1741 layer_factory.hpp:77] Creating layer inception_8a/3x3/bn1
I0121 17:48:37.395695  1741 net.cpp:84] Creating Layer inception_8a/3x3/bn1
I0121 17:48:37.395711  1741 net.cpp:406] inception_8a/3x3/bn1 <- inception_8a/3x3
I0121 17:48:37.395728  1741 net.cpp:367] inception_8a/3x3/bn1 -> inception_8a/3x3 (in-place)
I0121 17:48:37.395972  1741 net.cpp:122] Setting up inception_8a/3x3/bn1
I0121 17:48:37.395989  1741 net.cpp:129] Top shape: 128 96 16 16 (3145728)
I0121 17:48:37.395994  1741 net.cpp:137] Memory required for data: 1438122496
I0121 17:48:37.396004  1741 layer_factory.hpp:77] Creating layer inception_8a/3x3/scale1
I0121 17:48:37.396014  1741 net.cpp:84] Creating Layer inception_8a/3x3/scale1
I0121 17:48:37.396030  1741 net.cpp:406] inception_8a/3x3/scale1 <- inception_8a/3x3
I0121 17:48:37.396040  1741 net.cpp:367] inception_8a/3x3/scale1 -> inception_8a/3x3 (in-place)
I0121 17:48:37.396100  1741 layer_factory.hpp:77] Creating layer inception_8a/3x3/scale1
I0121 17:48:37.396272  1741 net.cpp:122] Setting up inception_8a/3x3/scale1
I0121 17:48:37.396289  1741 net.cpp:129] Top shape: 128 96 16 16 (3145728)
I0121 17:48:37.396294  1741 net.cpp:137] Memory required for data: 1450705408
I0121 17:48:37.396303  1741 layer_factory.hpp:77] Creating layer inception_8a/3x3/relu1
I0121 17:48:37.396311  1741 net.cpp:84] Creating Layer inception_8a/3x3/relu1
I0121 17:48:37.396317  1741 net.cpp:406] inception_8a/3x3/relu1 <- inception_8a/3x3
I0121 17:48:37.396323  1741 net.cpp:367] inception_8a/3x3/relu1 -> inception_8a/3x3 (in-place)
I0121 17:48:37.396488  1741 net.cpp:122] Setting up inception_8a/3x3/relu1
I0121 17:48:37.396507  1741 net.cpp:129] Top shape: 128 96 16 16 (3145728)
I0121 17:48:37.396512  1741 net.cpp:137] Memory required for data: 1463288320
I0121 17:48:37.396517  1741 layer_factory.hpp:77] Creating layer inception_8a/output
I0121 17:48:37.396525  1741 net.cpp:84] Creating Layer inception_8a/output
I0121 17:48:37.396533  1741 net.cpp:406] inception_8a/output <- inception_8a/1x1
I0121 17:48:37.396538  1741 net.cpp:406] inception_8a/output <- inception_8a/3x3
I0121 17:48:37.396553  1741 net.cpp:380] inception_8a/output -> inception_8a/output
I0121 17:48:37.396595  1741 net.cpp:122] Setting up inception_8a/output
I0121 17:48:37.396615  1741 net.cpp:129] Top shape: 128 144 16 16 (4718592)
I0121 17:48:37.396622  1741 net.cpp:137] Memory required for data: 1482162688
I0121 17:48:37.396639  1741 layer_factory.hpp:77] Creating layer inception_8a/output_inception_8a/output_0_split
I0121 17:48:37.396653  1741 net.cpp:84] Creating Layer inception_8a/output_inception_8a/output_0_split
I0121 17:48:37.396661  1741 net.cpp:406] inception_8a/output_inception_8a/output_0_split <- inception_8a/output
I0121 17:48:37.396670  1741 net.cpp:380] inception_8a/output_inception_8a/output_0_split -> inception_8a/output_inception_8a/output_0_split_0
I0121 17:48:37.396713  1741 net.cpp:380] inception_8a/output_inception_8a/output_0_split -> inception_8a/output_inception_8a/output_0_split_1
I0121 17:48:37.396800  1741 net.cpp:122] Setting up inception_8a/output_inception_8a/output_0_split
I0121 17:48:37.396816  1741 net.cpp:129] Top shape: 128 144 16 16 (4718592)
I0121 17:48:37.396822  1741 net.cpp:129] Top shape: 128 144 16 16 (4718592)
I0121 17:48:37.396826  1741 net.cpp:137] Memory required for data: 1519911424
I0121 17:48:37.396832  1741 layer_factory.hpp:77] Creating layer downsample_9/3x3_s2
I0121 17:48:37.396845  1741 net.cpp:84] Creating Layer downsample_9/3x3_s2
I0121 17:48:37.396858  1741 net.cpp:406] downsample_9/3x3_s2 <- inception_8a/output_inception_8a/output_0_split_0
I0121 17:48:37.396875  1741 net.cpp:380] downsample_9/3x3_s2 -> downsample_9/3x3_s2
I0121 17:48:37.399399  1741 net.cpp:122] Setting up downsample_9/3x3_s2
I0121 17:48:37.399425  1741 net.cpp:129] Top shape: 128 96 8 8 (786432)
I0121 17:48:37.399430  1741 net.cpp:137] Memory required for data: 1523057152
I0121 17:48:37.399443  1741 layer_factory.hpp:77] Creating layer downsample_9/3x3_s2/bn1
I0121 17:48:37.399463  1741 net.cpp:84] Creating Layer downsample_9/3x3_s2/bn1
I0121 17:48:37.399473  1741 net.cpp:406] downsample_9/3x3_s2/bn1 <- downsample_9/3x3_s2
I0121 17:48:37.399487  1741 net.cpp:367] downsample_9/3x3_s2/bn1 -> downsample_9/3x3_s2 (in-place)
I0121 17:48:37.399749  1741 net.cpp:122] Setting up downsample_9/3x3_s2/bn1
I0121 17:48:37.399767  1741 net.cpp:129] Top shape: 128 96 8 8 (786432)
I0121 17:48:37.399772  1741 net.cpp:137] Memory required for data: 1526202880
I0121 17:48:37.399781  1741 layer_factory.hpp:77] Creating layer downsample_9/3x3_s2/scale1
I0121 17:48:37.399791  1741 net.cpp:84] Creating Layer downsample_9/3x3_s2/scale1
I0121 17:48:37.399798  1741 net.cpp:406] downsample_9/3x3_s2/scale1 <- downsample_9/3x3_s2
I0121 17:48:37.399808  1741 net.cpp:367] downsample_9/3x3_s2/scale1 -> downsample_9/3x3_s2 (in-place)
I0121 17:48:37.399883  1741 layer_factory.hpp:77] Creating layer downsample_9/3x3_s2/scale1
I0121 17:48:37.400066  1741 net.cpp:122] Setting up downsample_9/3x3_s2/scale1
I0121 17:48:37.400087  1741 net.cpp:129] Top shape: 128 96 8 8 (786432)
I0121 17:48:37.400094  1741 net.cpp:137] Memory required for data: 1529348608
I0121 17:48:37.400106  1741 layer_factory.hpp:77] Creating layer downsample_9/3x3_s2/relu1
I0121 17:48:37.400126  1741 net.cpp:84] Creating Layer downsample_9/3x3_s2/relu1
I0121 17:48:37.400136  1741 net.cpp:406] downsample_9/3x3_s2/relu1 <- downsample_9/3x3_s2
I0121 17:48:37.400144  1741 net.cpp:367] downsample_9/3x3_s2/relu1 -> downsample_9/3x3_s2 (in-place)
I0121 17:48:37.400604  1741 net.cpp:122] Setting up downsample_9/3x3_s2/relu1
I0121 17:48:37.400631  1741 net.cpp:129] Top shape: 128 96 8 8 (786432)
I0121 17:48:37.400638  1741 net.cpp:137] Memory required for data: 1532494336
I0121 17:48:37.400643  1741 layer_factory.hpp:77] Creating layer downsample_9/pool_s2
I0121 17:48:37.400653  1741 net.cpp:84] Creating Layer downsample_9/pool_s2
I0121 17:48:37.400668  1741 net.cpp:406] downsample_9/pool_s2 <- inception_8a/output_inception_8a/output_0_split_1
I0121 17:48:37.400682  1741 net.cpp:380] downsample_9/pool_s2 -> downsample_9/pool_s2
I0121 17:48:37.400754  1741 net.cpp:122] Setting up downsample_9/pool_s2
I0121 17:48:37.400771  1741 net.cpp:129] Top shape: 128 144 8 8 (1179648)
I0121 17:48:37.400776  1741 net.cpp:137] Memory required for data: 1537212928
I0121 17:48:37.400782  1741 layer_factory.hpp:77] Creating layer downsample_9/output
I0121 17:48:37.400789  1741 net.cpp:84] Creating Layer downsample_9/output
I0121 17:48:37.400796  1741 net.cpp:406] downsample_9/output <- downsample_9/3x3_s2
I0121 17:48:37.400801  1741 net.cpp:406] downsample_9/output <- downsample_9/pool_s2
I0121 17:48:37.400815  1741 net.cpp:380] downsample_9/output -> downsample_9/output
I0121 17:48:37.400861  1741 net.cpp:122] Setting up downsample_9/output
I0121 17:48:37.400884  1741 net.cpp:129] Top shape: 128 240 8 8 (1966080)
I0121 17:48:37.400892  1741 net.cpp:137] Memory required for data: 1545077248
I0121 17:48:37.400900  1741 layer_factory.hpp:77] Creating layer downsample_9/output_downsample_9/output_0_split
I0121 17:48:37.400913  1741 net.cpp:84] Creating Layer downsample_9/output_downsample_9/output_0_split
I0121 17:48:37.400919  1741 net.cpp:406] downsample_9/output_downsample_9/output_0_split <- downsample_9/output
I0121 17:48:37.400929  1741 net.cpp:380] downsample_9/output_downsample_9/output_0_split -> downsample_9/output_downsample_9/output_0_split_0
I0121 17:48:37.400966  1741 net.cpp:380] downsample_9/output_downsample_9/output_0_split -> downsample_9/output_downsample_9/output_0_split_1
I0121 17:48:37.401060  1741 net.cpp:122] Setting up downsample_9/output_downsample_9/output_0_split
I0121 17:48:37.401080  1741 net.cpp:129] Top shape: 128 240 8 8 (1966080)
I0121 17:48:37.401098  1741 net.cpp:129] Top shape: 128 240 8 8 (1966080)
I0121 17:48:37.401104  1741 net.cpp:137] Memory required for data: 1560805888
I0121 17:48:37.401109  1741 layer_factory.hpp:77] Creating layer inception_10a/1x1
I0121 17:48:37.401132  1741 net.cpp:84] Creating Layer inception_10a/1x1
I0121 17:48:37.401166  1741 net.cpp:406] inception_10a/1x1 <- downsample_9/output_downsample_9/output_0_split_0
I0121 17:48:37.401208  1741 net.cpp:380] inception_10a/1x1 -> inception_10a/1x1
I0121 17:48:37.403466  1741 net.cpp:122] Setting up inception_10a/1x1
I0121 17:48:37.403497  1741 net.cpp:129] Top shape: 128 176 8 8 (1441792)
I0121 17:48:37.403506  1741 net.cpp:137] Memory required for data: 1566573056
I0121 17:48:37.403519  1741 layer_factory.hpp:77] Creating layer inception_10a/1x1/bn1
I0121 17:48:37.403535  1741 net.cpp:84] Creating Layer inception_10a/1x1/bn1
I0121 17:48:37.403551  1741 net.cpp:406] inception_10a/1x1/bn1 <- inception_10a/1x1
I0121 17:48:37.403565  1741 net.cpp:367] inception_10a/1x1/bn1 -> inception_10a/1x1 (in-place)
I0121 17:48:37.403834  1741 net.cpp:122] Setting up inception_10a/1x1/bn1
I0121 17:48:37.403854  1741 net.cpp:129] Top shape: 128 176 8 8 (1441792)
I0121 17:48:37.403861  1741 net.cpp:137] Memory required for data: 1572340224
I0121 17:48:37.403875  1741 layer_factory.hpp:77] Creating layer inception_10a/1x1/scale1
I0121 17:48:37.403894  1741 net.cpp:84] Creating Layer inception_10a/1x1/scale1
I0121 17:48:37.403903  1741 net.cpp:406] inception_10a/1x1/scale1 <- inception_10a/1x1
I0121 17:48:37.403915  1741 net.cpp:367] inception_10a/1x1/scale1 -> inception_10a/1x1 (in-place)
I0121 17:48:37.403985  1741 layer_factory.hpp:77] Creating layer inception_10a/1x1/scale1
I0121 17:48:37.404156  1741 net.cpp:122] Setting up inception_10a/1x1/scale1
I0121 17:48:37.404175  1741 net.cpp:129] Top shape: 128 176 8 8 (1441792)
I0121 17:48:37.404183  1741 net.cpp:137] Memory required for data: 1578107392
I0121 17:48:37.404196  1741 layer_factory.hpp:77] Creating layer inception_10a/1x1/relu1
I0121 17:48:37.404218  1741 net.cpp:84] Creating Layer inception_10a/1x1/relu1
I0121 17:48:37.404227  1741 net.cpp:406] inception_10a/1x1/relu1 <- inception_10a/1x1
I0121 17:48:37.404239  1741 net.cpp:367] inception_10a/1x1/relu1 -> inception_10a/1x1 (in-place)
I0121 17:48:37.404402  1741 net.cpp:122] Setting up inception_10a/1x1/relu1
I0121 17:48:37.404423  1741 net.cpp:129] Top shape: 128 176 8 8 (1441792)
I0121 17:48:37.404431  1741 net.cpp:137] Memory required for data: 1583874560
I0121 17:48:37.404438  1741 layer_factory.hpp:77] Creating layer inception_10a/3x3
I0121 17:48:37.404456  1741 net.cpp:84] Creating Layer inception_10a/3x3
I0121 17:48:37.404471  1741 net.cpp:406] inception_10a/3x3 <- downsample_9/output_downsample_9/output_0_split_1
I0121 17:48:37.404484  1741 net.cpp:380] inception_10a/3x3 -> inception_10a/3x3
I0121 17:48:37.408319  1741 net.cpp:122] Setting up inception_10a/3x3
I0121 17:48:37.408347  1741 net.cpp:129] Top shape: 128 160 8 8 (1310720)
I0121 17:48:37.408354  1741 net.cpp:137] Memory required for data: 1589117440
I0121 17:48:37.408365  1741 layer_factory.hpp:77] Creating layer inception_10a/3x3/bn1
I0121 17:48:37.408392  1741 net.cpp:84] Creating Layer inception_10a/3x3/bn1
I0121 17:48:37.408411  1741 net.cpp:406] inception_10a/3x3/bn1 <- inception_10a/3x3
I0121 17:48:37.408426  1741 net.cpp:367] inception_10a/3x3/bn1 -> inception_10a/3x3 (in-place)
I0121 17:48:37.408695  1741 net.cpp:122] Setting up inception_10a/3x3/bn1
I0121 17:48:37.408715  1741 net.cpp:129] Top shape: 128 160 8 8 (1310720)
I0121 17:48:37.408720  1741 net.cpp:137] Memory required for data: 1594360320
I0121 17:48:37.408732  1741 layer_factory.hpp:77] Creating layer inception_10a/3x3/scale1
I0121 17:48:37.408740  1741 net.cpp:84] Creating Layer inception_10a/3x3/scale1
I0121 17:48:37.408747  1741 net.cpp:406] inception_10a/3x3/scale1 <- inception_10a/3x3
I0121 17:48:37.408756  1741 net.cpp:367] inception_10a/3x3/scale1 -> inception_10a/3x3 (in-place)
I0121 17:48:37.408833  1741 layer_factory.hpp:77] Creating layer inception_10a/3x3/scale1
I0121 17:48:37.409041  1741 net.cpp:122] Setting up inception_10a/3x3/scale1
I0121 17:48:37.409060  1741 net.cpp:129] Top shape: 128 160 8 8 (1310720)
I0121 17:48:37.409065  1741 net.cpp:137] Memory required for data: 1599603200
I0121 17:48:37.409075  1741 layer_factory.hpp:77] Creating layer inception_10a/3x3/relu1
I0121 17:48:37.409085  1741 net.cpp:84] Creating Layer inception_10a/3x3/relu1
I0121 17:48:37.409096  1741 net.cpp:406] inception_10a/3x3/relu1 <- inception_10a/3x3
I0121 17:48:37.409106  1741 net.cpp:367] inception_10a/3x3/relu1 -> inception_10a/3x3 (in-place)
I0121 17:48:37.409425  1741 net.cpp:122] Setting up inception_10a/3x3/relu1
I0121 17:48:37.409451  1741 net.cpp:129] Top shape: 128 160 8 8 (1310720)
I0121 17:48:37.409456  1741 net.cpp:137] Memory required for data: 1604846080
I0121 17:48:37.409461  1741 layer_factory.hpp:77] Creating layer inception_10a/output
I0121 17:48:37.409469  1741 net.cpp:84] Creating Layer inception_10a/output
I0121 17:48:37.409476  1741 net.cpp:406] inception_10a/output <- inception_10a/1x1
I0121 17:48:37.409482  1741 net.cpp:406] inception_10a/output <- inception_10a/3x3
I0121 17:48:37.409502  1741 net.cpp:380] inception_10a/output -> inception_10a/output
I0121 17:48:37.409549  1741 net.cpp:122] Setting up inception_10a/output
I0121 17:48:37.409588  1741 net.cpp:129] Top shape: 128 336 8 8 (2752512)
I0121 17:48:37.409615  1741 net.cpp:137] Memory required for data: 1615856128
I0121 17:48:37.409644  1741 layer_factory.hpp:77] Creating layer inception_10a/output_inception_10a/output_0_split
I0121 17:48:37.409670  1741 net.cpp:84] Creating Layer inception_10a/output_inception_10a/output_0_split
I0121 17:48:37.409699  1741 net.cpp:406] inception_10a/output_inception_10a/output_0_split <- inception_10a/output
I0121 17:48:37.409721  1741 net.cpp:380] inception_10a/output_inception_10a/output_0_split -> inception_10a/output_inception_10a/output_0_split_0
I0121 17:48:37.409734  1741 net.cpp:380] inception_10a/output_inception_10a/output_0_split -> inception_10a/output_inception_10a/output_0_split_1
I0121 17:48:37.409834  1741 net.cpp:122] Setting up inception_10a/output_inception_10a/output_0_split
I0121 17:48:37.409858  1741 net.cpp:129] Top shape: 128 336 8 8 (2752512)
I0121 17:48:37.409869  1741 net.cpp:129] Top shape: 128 336 8 8 (2752512)
I0121 17:48:37.409874  1741 net.cpp:137] Memory required for data: 1637876224
I0121 17:48:37.409885  1741 layer_factory.hpp:77] Creating layer inception_11a/1x1
I0121 17:48:37.409925  1741 net.cpp:84] Creating Layer inception_11a/1x1
I0121 17:48:37.409955  1741 net.cpp:406] inception_11a/1x1 <- inception_10a/output_inception_10a/output_0_split_0
I0121 17:48:37.409974  1741 net.cpp:380] inception_11a/1x1 -> inception_11a/1x1
I0121 17:48:37.411280  1741 net.cpp:122] Setting up inception_11a/1x1
I0121 17:48:37.411309  1741 net.cpp:129] Top shape: 128 176 8 8 (1441792)
I0121 17:48:37.411317  1741 net.cpp:137] Memory required for data: 1643643392
I0121 17:48:37.411330  1741 layer_factory.hpp:77] Creating layer inception_11a/1x1/bn1
I0121 17:48:37.411348  1741 net.cpp:84] Creating Layer inception_11a/1x1/bn1
I0121 17:48:37.411365  1741 net.cpp:406] inception_11a/1x1/bn1 <- inception_11a/1x1
I0121 17:48:37.411379  1741 net.cpp:367] inception_11a/1x1/bn1 -> inception_11a/1x1 (in-place)
I0121 17:48:37.411654  1741 net.cpp:122] Setting up inception_11a/1x1/bn1
I0121 17:48:37.411674  1741 net.cpp:129] Top shape: 128 176 8 8 (1441792)
I0121 17:48:37.411679  1741 net.cpp:137] Memory required for data: 1649410560
I0121 17:48:37.411695  1741 layer_factory.hpp:77] Creating layer inception_11a/1x1/scale1
I0121 17:48:37.411715  1741 net.cpp:84] Creating Layer inception_11a/1x1/scale1
I0121 17:48:37.411727  1741 net.cpp:406] inception_11a/1x1/scale1 <- inception_11a/1x1
I0121 17:48:37.411738  1741 net.cpp:367] inception_11a/1x1/scale1 -> inception_11a/1x1 (in-place)
I0121 17:48:37.411849  1741 layer_factory.hpp:77] Creating layer inception_11a/1x1/scale1
I0121 17:48:37.412041  1741 net.cpp:122] Setting up inception_11a/1x1/scale1
I0121 17:48:37.412078  1741 net.cpp:129] Top shape: 128 176 8 8 (1441792)
I0121 17:48:37.412086  1741 net.cpp:137] Memory required for data: 1655177728
I0121 17:48:37.412098  1741 layer_factory.hpp:77] Creating layer inception_11a/1x1/relu1
I0121 17:48:37.412111  1741 net.cpp:84] Creating Layer inception_11a/1x1/relu1
I0121 17:48:37.412120  1741 net.cpp:406] inception_11a/1x1/relu1 <- inception_11a/1x1
I0121 17:48:37.412133  1741 net.cpp:367] inception_11a/1x1/relu1 -> inception_11a/1x1 (in-place)
I0121 17:48:37.412444  1741 net.cpp:122] Setting up inception_11a/1x1/relu1
I0121 17:48:37.412470  1741 net.cpp:129] Top shape: 128 176 8 8 (1441792)
I0121 17:48:37.412480  1741 net.cpp:137] Memory required for data: 1660944896
I0121 17:48:37.412487  1741 layer_factory.hpp:77] Creating layer inception_11a/3x3
I0121 17:48:37.412508  1741 net.cpp:84] Creating Layer inception_11a/3x3
I0121 17:48:37.412525  1741 net.cpp:406] inception_11a/3x3 <- inception_10a/output_inception_10a/output_0_split_1
I0121 17:48:37.412540  1741 net.cpp:380] inception_11a/3x3 -> inception_11a/3x3
I0121 17:48:37.417474  1741 net.cpp:122] Setting up inception_11a/3x3
I0121 17:48:37.417502  1741 net.cpp:129] Top shape: 128 160 8 8 (1310720)
I0121 17:48:37.417510  1741 net.cpp:137] Memory required for data: 1666187776
I0121 17:48:37.417524  1741 layer_factory.hpp:77] Creating layer inception_11a/3x3/bn1
I0121 17:48:37.417552  1741 net.cpp:84] Creating Layer inception_11a/3x3/bn1
I0121 17:48:37.417562  1741 net.cpp:406] inception_11a/3x3/bn1 <- inception_11a/3x3
I0121 17:48:37.417589  1741 net.cpp:367] inception_11a/3x3/bn1 -> inception_11a/3x3 (in-place)
I0121 17:48:37.417898  1741 net.cpp:122] Setting up inception_11a/3x3/bn1
I0121 17:48:37.417920  1741 net.cpp:129] Top shape: 128 160 8 8 (1310720)
I0121 17:48:37.417927  1741 net.cpp:137] Memory required for data: 1671430656
I0121 17:48:37.417973  1741 layer_factory.hpp:77] Creating layer inception_11a/3x3/scale1
I0121 17:48:37.417992  1741 net.cpp:84] Creating Layer inception_11a/3x3/scale1
I0121 17:48:37.418000  1741 net.cpp:406] inception_11a/3x3/scale1 <- inception_11a/3x3
I0121 17:48:37.418013  1741 net.cpp:367] inception_11a/3x3/scale1 -> inception_11a/3x3 (in-place)
I0121 17:48:37.418083  1741 layer_factory.hpp:77] Creating layer inception_11a/3x3/scale1
I0121 17:48:37.418248  1741 net.cpp:122] Setting up inception_11a/3x3/scale1
I0121 17:48:37.418267  1741 net.cpp:129] Top shape: 128 160 8 8 (1310720)
I0121 17:48:37.418275  1741 net.cpp:137] Memory required for data: 1676673536
I0121 17:48:37.418287  1741 layer_factory.hpp:77] Creating layer inception_11a/3x3/relu1
I0121 17:48:37.418308  1741 net.cpp:84] Creating Layer inception_11a/3x3/relu1
I0121 17:48:37.418315  1741 net.cpp:406] inception_11a/3x3/relu1 <- inception_11a/3x3
I0121 17:48:37.418323  1741 net.cpp:367] inception_11a/3x3/relu1 -> inception_11a/3x3 (in-place)
I0121 17:48:37.418521  1741 net.cpp:122] Setting up inception_11a/3x3/relu1
I0121 17:48:37.418545  1741 net.cpp:129] Top shape: 128 160 8 8 (1310720)
I0121 17:48:37.418552  1741 net.cpp:137] Memory required for data: 1681916416
I0121 17:48:37.418560  1741 layer_factory.hpp:77] Creating layer inception_11a/output
I0121 17:48:37.418570  1741 net.cpp:84] Creating Layer inception_11a/output
I0121 17:48:37.418584  1741 net.cpp:406] inception_11a/output <- inception_11a/1x1
I0121 17:48:37.418593  1741 net.cpp:406] inception_11a/output <- inception_11a/3x3
I0121 17:48:37.418607  1741 net.cpp:380] inception_11a/output -> inception_11a/output
I0121 17:48:37.418656  1741 net.cpp:122] Setting up inception_11a/output
I0121 17:48:37.418679  1741 net.cpp:129] Top shape: 128 336 8 8 (2752512)
I0121 17:48:37.418686  1741 net.cpp:137] Memory required for data: 1692926464
I0121 17:48:37.418694  1741 layer_factory.hpp:77] Creating layer avg_pool_12/8x8_s1
I0121 17:48:37.418704  1741 net.cpp:84] Creating Layer avg_pool_12/8x8_s1
I0121 17:48:37.418718  1741 net.cpp:406] avg_pool_12/8x8_s1 <- inception_11a/output
I0121 17:48:37.418730  1741 net.cpp:380] avg_pool_12/8x8_s1 -> avg_pool_12/8x8_s1
I0121 17:48:37.419087  1741 net.cpp:122] Setting up avg_pool_12/8x8_s1
I0121 17:48:37.419117  1741 net.cpp:129] Top shape: 128 336 1 1 (43008)
I0121 17:48:37.419126  1741 net.cpp:137] Memory required for data: 1693098496
I0121 17:48:37.419133  1741 layer_factory.hpp:77] Creating layer drop_8x8_s1
I0121 17:48:37.419147  1741 net.cpp:84] Creating Layer drop_8x8_s1
I0121 17:48:37.419160  1741 net.cpp:406] drop_8x8_s1 <- avg_pool_12/8x8_s1
I0121 17:48:37.419173  1741 net.cpp:367] drop_8x8_s1 -> avg_pool_12/8x8_s1 (in-place)
I0121 17:48:37.419230  1741 net.cpp:122] Setting up drop_8x8_s1
I0121 17:48:37.419251  1741 net.cpp:129] Top shape: 128 336 1 1 (43008)
I0121 17:48:37.419260  1741 net.cpp:137] Memory required for data: 1693270528
I0121 17:48:37.419267  1741 layer_factory.hpp:77] Creating layer loss/classifier
I0121 17:48:37.419288  1741 net.cpp:84] Creating Layer loss/classifier
I0121 17:48:37.419301  1741 net.cpp:406] loss/classifier <- avg_pool_12/8x8_s1
I0121 17:48:37.419313  1741 net.cpp:380] loss/classifier -> loss/classifier
I0121 17:48:37.419513  1741 net.cpp:122] Setting up loss/classifier
I0121 17:48:37.419533  1741 net.cpp:129] Top shape: 128 10 (1280)
I0121 17:48:37.419538  1741 net.cpp:137] Memory required for data: 1693275648
I0121 17:48:37.419546  1741 layer_factory.hpp:77] Creating layer loss
I0121 17:48:37.419562  1741 net.cpp:84] Creating Layer loss
I0121 17:48:37.419600  1741 net.cpp:406] loss <- loss/classifier
I0121 17:48:37.419626  1741 net.cpp:406] loss <- label
I0121 17:48:37.419657  1741 net.cpp:380] loss -> loss
I0121 17:48:37.419703  1741 layer_factory.hpp:77] Creating layer loss
…
I0121 17:48:37.424726  1741 net.cpp:294] The NetState phase (1) differed from the phase (0) specified by a rule in layer data
I0121 17:48:37.425326  1741 net.cpp:51] Initializing net from parameters: 
name: "miniGoogleNet for CIFAR10, model 3"
state {
  phase: TEST
}
layer {
  name: "data"
  type: "Data"
  top: "data"
  top: "label"
  include {
    phase: TEST
  }
  transform_param {
    mirror: false
    mean_file: "cifar10/input/mean.binaryproto"
  }
  data_param {
    source: "cifar10/input/lmdb/valid_lmdb"
    batch_size: 50
    backend: LMDB
  }
}
layer {
  name: "conv1/3x3_s1"
  type: "Convolution"
  bottom: "data"
  top: "conv1/3x3_s1"
  param {
    lr_mult: 1
    decay_mult: 1
  }
  param {
    lr_mult: 2
    decay_mult: 0
  }
  convolution_param {
    num_output: 96
    pad: 1
    kernel_size: 3
    stride: 1
    weight_filler {
      type: "xavier"
      std: 0.1
    }
    bias_filler {
      type: "constant"
      value: 0.2
    }
  }
}
layer {
  name: "conv1/bn1"
  type: "BatchNorm"
  bottom: "conv1/3x3_s1"
  top: "conv1/3x3_s1"
  param {
    lr_mult: 0
    decay_mult: 0
  }
  param {
    lr_mult: 0
    decay_mult: 0
  }
  param {
    lr_mult: 0
    decay_mult: 0
  }
  batch_norm_param {
    use_global_stats: false
  }
}
layer {
  name: "conv1/scale1"
  type: "Scale"
  bottom: "conv1/3x3_s1"
  top: "conv1/3x3_s1"
  scale_param {
    bias_term: true
  }
}
layer {
  name: "conv1/relu1"
  type: "ReLU"
  bottom: "conv1/3x3_s1"
  top: "conv1/3x3_s1"
}
layer {
  name: "inception_2a/1x1"
  type: "Convolution"
  bottom: "conv1/3x3_s1"
  top: "inception_2a/1x1"
  param {
    lr_mult: 1
    decay_mult: 1
  }
  param {
    lr_mult: 2
    decay_mult: 0
  }
  convolution_param {
    num_output: 32
    kernel_size: 1
    weight_filler {
      type: "xavier"
      std: 0.03
    }
    bias_filler {
      type: "constant"
      value: 0.2
    }
  }
}
layer {
  name: "inception_2a/1x1/bn1"
  type: "BatchNorm"
  bottom: "inception_2a/1x1"
  top: "inception_2a/1x1"
  param {
    lr_mult: 0
    decay_mult: 0
  }
  param {
    lr_mult: 0
    decay_mult: 0
  }
  param {
    lr_mult: 0
    decay_mult: 0
  }
  batch_norm_param {
    use_global_stats: false
  }
}
layer {
  name: "inception_2a/1x1/scale1"
  type: "Scale"
  bottom: "inception_2a/1x1"
  top: "inception_2a/1x1"
  scale_param {
    bias_term: true
  }
}
layer {
  name: "inception_2a/1x1/relu1"
  type: "ReLU"
  bottom: "inception_2a/1x1"
  top: "inception_2a/1x1"
}
layer {
  name: "inception_2a/3x3"
  type: "Convolution"
  bottom: "conv1/3x3_s1"
  top: "inception_2a/3x3"
  param {
    lr_mult: 1
    decay_mult: 1
  }
  param {
    lr_mult: 2
    decay_mult: 0
  }
  convolution_param {
    num_output: 32
    pad: 1
    kernel_size: 3
    weight_filler {
      type: "xavier"
      std: 0.03
    }
    bias_filler {
      type: "constant"
      value: 0.2
    }
  }
}
layer {
  name: "inception_2a/3x3/bn1"
  type: "BatchNorm"
  bottom: "inception_2a/3x3"
  top: "inception_2a/3x3"
  param {
    lr_mult: 0
    decay_mult: 0
  }
  param {
    lr_mult: 0
    decay_mult: 0
  }
  param {
    lr_mult: 0
    decay_mult: 0
  }
  batch_norm_param {
    use_global_stats: false
  }
}
layer {
  name: "inception_2a/3x3/scale1"
  type: "Scale"
  bottom: "inception_2a/3x3"
  top: "inception_2a/3x3"
  scale_param {
    bias_term: true
  }
}
layer {
  name: "inception_2a/3x3/relu1"
  type: "ReLU"
  bottom: "inception_2a/3x3"
  top: "inception_2a/3x3"
}
layer {
  name: "inception_2a/output"
  type: "Concat"
  bottom: "inception_2a/1x1"
  bottom: "inception_2a/3x3"
  top: "inception_2a/output"
}
layer {
  name: "inception_3a/1x1"
  type: "Convolution"
  bottom: "inception_2a/output"
  top: "inception_3a/1x1"
  param {
    lr_mult: 1
    decay_mult: 1
  }
  param {
    lr_mult: 2
    decay_mult: 0
  }
  convolution_param {
    num_output: 32
    kernel_size: 1
    weight_filler {
      type: "xavier"
      std: 0.03
    }
    bias_filler {
      type: "constant"
      value: 0.2
    }
  }
}
layer {
  name: "inception_3a/1x1/bn1"
  type: "BatchNorm"
  bottom: "inception_3a/1x1"
  top: "inception_3a/1x1"
  param {
    lr_mult: 0
    decay_mult: 0
  }
  param {
    lr_mult: 0
    decay_mult: 0
  }
  param {
    lr_mult: 0
    decay_mult: 0
  }
  batch_norm_param {
    use_global_stats: false
  }
}
layer {
  name: "inception_3a/1x1/scale1"
  type: "Scale"
  bottom: "inception_3a/1x1"
  top: "inception_3a/1x1"
  scale_param {
    bias_term: true
  }
}
layer {
  name: "inception_3a/1x1/relu1"
  type: "ReLU"
  bottom: "inception_3a/1x1"
  top: "inception_3a/1x1"
}
layer {
  name: "inception_3a/3x3"
  type: "Convolution"
  bottom: "inception_2a/output"
  top: "inception_3a/3x3"
  param {
    lr_mult: 1
    decay_mult: 1
  }
  param {
    lr_mult: 2
    decay_mult: 0
  }
  convolution_param {
    num_output: 48
    pad: 1
    kernel_size: 3
    weight_filler {
      type: "xavier"
      std: 0.03
    }
    bias_filler {
      type: "constant"
      value: 0.2
    }
  }
}
layer {
  name: "inception_3a/3x3/bn1"
  type: "BatchNorm"
  bottom: "inception_3a/3x3"
  top: "inception_3a/3x3"
  param {
    lr_mult: 0
    decay_mult: 0
  }
  param {
    lr_mult: 0
    decay_mult: 0
  }
  param {
    lr_mult: 0
    decay_mult: 0
  }
  batch_norm_param {
    use_global_stats: false
  }
}
layer {
  name: "inception_3a/3x3/scale1"
  type: "Scale"
  bottom: "inception_3a/3x3"
  top: "inception_3a/3x3"
  scale_param {
    bias_term: true
  }
}
layer {
  name: "inception_3a/3x3/relu1"
  type: "ReLU"
  bottom: "inception_3a/3x3"
  top: "inception_3a/3x3"
}
layer {
  name: "inception_3a/output"
  type: "Concat"
  bottom: "inception_3a/1x1"
  bottom: "inception_3a/3x3"
  top: "inception_3a/output"
}
layer {
  name: "downsample_4/3x3_s2"
  type: "Convolution"
  bottom: "inception_3a/output"
  top: "downsample_4/3x3_s2"
  param {
    lr_mult: 1
    decay_mult: 1
  }
  param {
    lr_mult: 2
    decay_mult: 0
  }
  convolution_param {
    num_output: 80
    pad: 1
    kernel_size: 3
    stride: 2
    weight_filler {
      type: "xavier"
      std: 0.03
    }
    bias_filler {
      type: "constant"
      value: 0.2
    }
  }
}
layer {
  name: "downsample_4/3x3_s2/bn1"
  type: "BatchNorm"
  bottom: "downsample_4/3x3_s2"
  top: "downsample_4/3x3_s2"
  param {
    lr_mult: 0
    decay_mult: 0
  }
  param {
    lr_mult: 0
    decay_mult: 0
  }
  param {
    lr_mult: 0
    decay_mult: 0
  }
  batch_norm_param {
    use_global_stats: false
  }
}
layer {
  name: "downsample_4/3x3_s2/scale1"
  type: "Scale"
  bottom: "downsample_4/3x3_s2"
  top: "downsample_4/3x3_s2"
  scale_param {
    bias_term: true
  }
}
layer {
  name: "downsample_4/3x3_s2/relu1"
  type: "ReLU"
  bottom: "downsample_4/3x3_s2"
  top: "downsample_4/3x3_s2"
}
layer {
  name: "downsample_4/pool_s2"
  type: "Pooling"
  bottom: "inception_3a/output"
  top: "downsample_4/pool_s2"
  pooling_param {
    pool: MAX
    kernel_size: 3
    stride: 2
  }
}
layer {
  name: "downsample_4/output"
  type: "Concat"
  bottom: "downsample_4/3x3_s2"
  bottom: "downsample_4/pool_s2"
  top: "downsample_4/output"
}
layer {
  name: "inception_5a/1x1"
  type: "Convolution"
  bottom: "downsample_4/output"
  top: "inception_5a/1x1"
  param {
    lr_mult: 1
    decay_mult: 1
  }
  param {
    lr_mult: 2
    decay_mult: 0
  }
  convolution_param {
    num_output: 112
    kernel_size: 1
    weight_filler {
      type: "xavier"
      std: 0.03
    }
    bias_filler {
      type: "constant"
      value: 0.2
    }
  }
}
layer {
  name: "inception_5a/1x1/bn1"
  type: "BatchNorm"
  bottom: "inception_5a/1x1"
  top: "inception_5a/1x1"
  param {
    lr_mult: 0
    decay_mult: 0
  }
  param {
    lr_mult: 0
    decay_mult: 0
  }
  param {
    lr_mult: 0
    decay_mult: 0
  }
  batch_norm_param {
    use_global_stats: false
  }
}
layer {
  name: "inception_5a/1x1/scale1"
  type: "Scale"
  bottom: "inception_5a/1x1"
  top: "inception_5a/1x1"
  scale_param {
    bias_term: true
  }
}
layer {
  name: "inception_5a/1x1/relu1"
  type: "ReLU"
  bottom: "inception_5a/1x1"
  top: "inception_5a/1x1"
}
layer {
  name: "inception_5a/3x3"
  type: "Convolution"
  bottom: "downsample_4/output"
  top: "inception_5a/3x3"
  param {
    lr_mult: 1
    decay_mult: 1
  }
  param {
    lr_mult: 2
    decay_mult: 0
  }
  convolution_param {
    num_output: 48
    pad: 1
    kernel_size: 3
    weight_filler {
      type: "xavier"
      std: 0.03
    }
    bias_filler {
      type: "constant"
      value: 0.2
    }
  }
}
layer {
  name: "inception_5a/3x3/bn1"
  type: "BatchNorm"
  bottom: "inception_5a/3x3"
  top: "inception_5a/3x3"
  param {
    lr_mult: 0
    decay_mult: 0
  }
  param {
    lr_mult: 0
    decay_mult: 0
  }
  param {
    lr_mult: 0
    decay_mult: 0
  }
  batch_norm_param {
    use_global_stats: false
  }
}
layer {
  name: "inception_5a/3x3/scale1"
  type: "Scale"
  bottom: "inception_5a/3x3"
  top: "inception_5a/3x3"
  scale_param {
    bias_term: true
  }
}
layer {
  name: "inception_5a/3x3/relu1"
  type: "ReLU"
  bottom: "inception_5a/3x3"
  top: "inception_5a/3x3"
}
layer {
  name: "inception_5a/output"
  type: "Concat"
  bottom: "inception_5a/1x1"
  bottom: "inception_5a/3x3"
  top: "inception_5a/output"
}
layer {
  name: "inception_6a/1x1"
  type: "Convolution"
  bottom: "inception_5a/output"
  top: "inception_6a/1x1"
  param {
    lr_mult: 1
    decay_mult: 1
  }
  param {
    lr_mult: 2
    decay_mult: 0
  }
  convolution_param {
    num_output: 96
    kernel_size: 1
    weight_filler {
      type: "xavier"
      std: 0.03
    }
    bias_filler {
      type: "constant"
      value: 0.2
    }
  }
}
layer {
  name: "inception_6a/1x1/bn1"
  type: "BatchNorm"
  bottom: "inception_6a/1x1"
  top: "inception_6a/1x1"
  param {
    lr_mult: 0
    decay_mult: 0
  }
  param {
    lr_mult: 0
    decay_mult: 0
  }
  param {
    lr_mult: 0
    decay_mult: 0
  }
  batch_norm_param {
    use_global_stats: false
  }
}
layer {
  name: "inception_6a/1x1/scale1"
  type: "Scale"
  bottom: "inception_6a/1x1"
  top: "inception_6a/1x1"
  scale_param {
    bias_term: true
  }
}
layer {
  name: "inception_6a/1x1/relu1"
  type: "ReLU"
  bottom: "inception_6a/1x1"
  top: "inception_6a/1x1"
}
layer {
  name: "inception_6a/3x3"
  type: "Convolution"
  bottom: "inception_5a/output"
  top: "inception_6a/3x3"
  param {
    lr_mult: 1
    decay_mult: 1
  }
  param {
    lr_mult: 2
    decay_mult: 0
  }
  convolution_param {
    num_output: 64
    pad: 1
    kernel_size: 3
    weight_filler {
      type: "xavier"
      std: 0.03
    }
    bias_filler {
      type: "constant"
      value: 0.2
    }
  }
}
layer {
  name: "inception_6a/3x3/bn1"
  type: "BatchNorm"
  bottom: "inception_6a/3x3"
  top: "inception_6a/3x3"
  param {
    lr_mult: 0
    decay_mult: 0
  }
  param {
    lr_mult: 0
    decay_mult: 0
  }
  param {
    lr_mult: 0
    decay_mult: 0
  }
  batch_norm_param {
    use_global_stats: false
  }
}
layer {
  name: "inception_6a/3x3/scale1"
  type: "Scale"
  bottom: "inception_6a/3x3"
  top: "inception_6a/3x3"
  scale_param {
    bias_term: true
  }
}
layer {
  name: "inception_6a/3x3/relu1"
  type: "ReLU"
  bottom: "inception_6a/3x3"
  top: "inception_6a/3x3"
}
layer {
  name: "inception_6a/output"
  type: "Concat"
  bottom: "inception_6a/1x1"
  bottom: "inception_6a/3x3"
  top: "inception_6a/output"
}
layer {
  name: "inception_7a/1x1"
  type: "Convolution"
  bottom: "inception_6a/output"
  top: "inception_7a/1x1"
  param {
    lr_mult: 1
    decay_mult: 1
  }
  param {
    lr_mult: 2
    decay_mult: 0
  }
  convolution_param {
    num_output: 80
    kernel_size: 1
    weight_filler {
      type: "xavier"
      std: 0.03
    }
    bias_filler {
      type: "constant"
      value: 0.2
    }
  }
}
layer {
  name: "inception_7a/1x1/bn1"
  type: "BatchNorm"
  bottom: "inception_7a/1x1"
  top: "inception_7a/1x1"
  param {
    lr_mult: 0
    decay_mult: 0
  }
  param {
    lr_mult: 0
    decay_mult: 0
  }
  param {
    lr_mult: 0
    decay_mult: 0
  }
  batch_norm_param {
    use_global_stats: false
  }
}
layer {
  name: "inception_7a/1x1/scale1"
  type: "Scale"
  bottom: "inception_7a/1x1"
  top: "inception_7a/1x1"
  scale_param {
    bias_term: true
  }
}
layer {
  name: "inception_7a/1x1/relu1"
  type: "ReLU"
  bottom: "inception_7a/1x1"
  top: "inception_7a/1x1"
}
layer {
  name: "inception_7a/3x3"
  type: "Convolution"
  bottom: "inception_6a/output"
  top: "inception_7a/3x3"
  param {
    lr_mult: 1
    decay_mult: 1
  }
  param {
    lr_mult: 2
    decay_mult: 0
  }
  convolution_param {
    num_output: 80
    pad: 1
    kernel_size: 3
    weight_filler {
      type: "xavier"
      std: 0.03
    }
    bias_filler {
      type: "constant"
      value: 0.2
    }
  }
}
layer {
  name: "inception_7a/3x3/bn1"
  type: "BatchNorm"
  bottom: "inception_7a/3x3"
  top: "inception_7a/3x3"
  param {
    lr_mult: 0
    decay_mult: 0
  }
  param {
    lr_mult: 0
    decay_mult: 0
  }
  param {
    lr_mult: 0
    decay_mult: 0
  }
  batch_norm_param {
    use_global_stats: false
  }
}
layer {
  name: "inception_7a/3x3/scale1"
  type: "Scale"
  bottom: "inception_7a/3x3"
  top: "inception_7a/3x3"
  scale_param {
    bias_term: true
  }
}
layer {
  name: "inception_7a/3x3/relu1"
  type: "ReLU"
  bottom: "inception_7a/3x3"
  top: "inception_7a/3x3"
}
layer {
  name: "inception_7a/output"
  type: "Concat"
  bottom: "inception_7a/1x1"
  bottom: "inception_7a/3x3"
  top: "inception_7a/output"
}
layer {
  name: "inception_8a/1x1"
  type: "Convolution"
  bottom: "inception_7a/output"
  top: "inception_8a/1x1"
  param {
    lr_mult: 1
    decay_mult: 1
  }
  param {
    lr_mult: 2
    decay_mult: 0
  }
  convolution_param {
    num_output: 48
    kernel_size: 1
    weight_filler {
      type: "xavier"
      std: 0.03
    }
    bias_filler {
      type: "constant"
      value: 0.2
    }
  }
}
layer {
  name: "inception_8a/1x1/bn1"
  type: "BatchNorm"
  bottom: "inception_8a/1x1"
  top: "inception_8a/1x1"
  param {
    lr_mult: 0
    decay_mult: 0
  }
  param {
    lr_mult: 0
    decay_mult: 0
  }
  param {
    lr_mult: 0
    decay_mult: 0
  }
  batch_norm_param {
    use_global_stats: false
  }
}
layer {
  name: "inception_8a/1x1/scale1"
  type: "Scale"
  bottom: "inception_8a/1x1"
  top: "inception_8a/1x1"
  scale_param {
    bias_term: true
  }
}
layer {
  name: "inception_8a/1x1/relu1"
  type: "ReLU"
  bottom: "inception_8a/1x1"
  top: "inception_8a/1x1"
}
layer {
  name: "inception_8a/3x3"
  type: "Convolution"
  bottom: "inception_7a/output"
  top: "inception_8a/3x3"
  param {
    lr_mult: 1
    decay_mult: 1
  }
  param {
    lr_mult: 2
    decay_mult: 0
  }
  convolution_param {
    num_output: 96
    pad: 1
    kernel_size: 3
    weight_filler {
      type: "xavier"
      std: 0.03
    }
    bias_filler {
      type: "constant"
      value: 0.2
    }
  }
}
layer {
  name: "inception_8a/3x3/bn1"
  type: "BatchNorm"
  bottom: "inception_8a/3x3"
  top: "inception_8a/3x3"
  param {
    lr_mult: 0
    decay_mult: 0
  }
  param {
    lr_mult: 0
    decay_mult: 0
  }
  param {
    lr_mult: 0
    decay_mult: 0
  }
  batch_norm_param {
    use_global_stats: false
  }
}
layer {
  name: "inception_8a/3x3/scale1"
  type: "Scale"
  bottom: "inception_8a/3x3"
  top: "inception_8a/3x3"
  scale_param {
    bias_term: true
  }
}
layer {
  name: "inception_8a/3x3/relu1"
  type: "ReLU"
  bottom: "inception_8a/3x3"
  top: "inception_8a/3x3"
}
layer {
  name: "inception_8a/output"
  type: "Concat"
  bottom: "inception_8a/1x1"
  bottom: "inception_8a/3x3"
  top: "inception_8a/output"
}
layer {
  name: "downsample_9/3x3_s2"
  type: "Convolution"
  bottom: "inception_8a/output"
  top: "downsample_9/3x3_s2"
  param {
    lr_mult: 1
    decay_mult: 1
  }
  param {
    lr_mult: 2
    decay_mult: 0
  }
  convolution_param {
    num_output: 96
    pad: 1
    kernel_size: 3
    stride: 2
    weight_filler {
      type: "xavier"
      std: 0.03
    }
    bias_filler {
      type: "constant"
      value: 0.2
    }
  }
}
layer {
  name: "downsample_9/3x3_s2/bn1"
  type: "BatchNorm"
  bottom: "downsample_9/3x3_s2"
  top: "downsample_9/3x3_s2"
  param {
    lr_mult: 0
    decay_mult: 0
  }
  param {
    lr_mult: 0
    decay_mult: 0
  }
  param {
    lr_mult: 0
    decay_mult: 0
  }
  batch_norm_param {
    use_global_stats: false
  }
}
layer {
  name: "downsample_9/3x3_s2/scale1"
  type: "Scale"
  bottom: "downsample_9/3x3_s2"
  top: "downsample_9/3x3_s2"
  scale_param {
    bias_term: true
  }
}
layer {
  name: "downsample_9/3x3_s2/relu1"
  type: "ReLU"
  bottom: "downsample_9/3x3_s2"
  top: "downsample_9/3x3_s2"
}
layer {
  name: "downsample_9/pool_s2"
  type: "Pooling"
  bottom: "inception_8a/output"
  top: "downsample_9/pool_s2"
  pooling_param {
    pool: MAX
    kernel_size: 3
    stride: 2
  }
}
layer {
  name: "downsample_9/output"
  type: "Concat"
  bottom: "downsample_9/3x3_s2"
  bottom: "downsample_9/pool_s2"
  top: "downsample_9/output"
}
layer {
  name: "inception_10a/1x1"
  type: "Convolution"
  bottom: "downsample_9/output"
  top: "inception_10a/1x1"
  param {
    lr_mult: 1
    decay_mult: 1
  }
  param {
    lr_mult: 2
    decay_mult: 0
  }
  convolution_param {
    num_output: 176
    kernel_size: 1
    weight_filler {
      type: "xavier"
      std: 0.03
    }
    bias_filler {
      type: "constant"
      value: 0.2
    }
  }
}
layer {
  name: "inception_10a/1x1/bn1"
  type: "BatchNorm"
  bottom: "inception_10a/1x1"
  top: "inception_10a/1x1"
  param {
    lr_mult: 0
    decay_mult: 0
  }
  param {
    lr_mult: 0
    decay_mult: 0
  }
  param {
    lr_mult: 0
    decay_mult: 0
  }
  batch_norm_param {
    use_global_stats: false
  }
}
layer {
  name: "inception_10a/1x1/scale1"
  type: "Scale"
  bottom: "inception_10a/1x1"
  top: "inception_10a/1x1"
  scale_param {
    bias_term: true
  }
}
layer {
  name: "inception_10a/1x1/relu1"
  type: "ReLU"
  bottom: "inception_10a/1x1"
  top: "inception_10a/1x1"
}
layer {
  name: "inception_10a/3x3"
  type: "Convolution"
  bottom: "downsample_9/output"
  top: "inception_10a/3x3"
  param {
    lr_mult: 1
    decay_mult: 1
  }
  param {
    lr_mult: 2
    decay_mult: 0
  }
  convolution_param {
    num_output: 160
    pad: 1
    kernel_size: 3
    weight_filler {
      type: "xavier"
      std: 0.03
    }
    bias_filler {
      type: "constant"
      value: 0.2
    }
  }
}
layer {
  name: "inception_10a/3x3/bn1"
  type: "BatchNorm"
  bottom: "inception_10a/3x3"
  top: "inception_10a/3x3"
  param {
    lr_mult: 0
    decay_mult: 0
  }
  param {
    lr_mult: 0
    decay_mult: 0
  }
  param {
    lr_mult: 0
    decay_mult: 0
  }
  batch_norm_param {
    use_global_stats: false
  }
}
layer {
  name: "inception_10a/3x3/scale1"
  type: "Scale"
  bottom: "inception_10a/3x3"
  top: "inception_10a/3x3"
  scale_param {
    bias_term: true
  }
}
layer {
  name: "inception_10a/3x3/relu1"
  type: "ReLU"
  bottom: "inception_10a/3x3"
  top: "inception_10a/3x3"
}
layer {
  name: "inception_10a/output"
  type: "Concat"
  bottom: "inception_10a/1x1"
  bottom: "inception_10a/3x3"
  top: "inception_10a/output"
}
layer {
  name: "inception_11a/1x1"
  type: "Convolution"
  bottom: "inception_10a/output"
  top: "inception_11a/1x1"
  param {
    lr_mult: 1
    decay_mult: 1
  }
  param {
    lr_mult: 2
    decay_mult: 0
  }
  convolution_param {
    num_output: 176
    kernel_size: 1
    weight_filler {
      type: "xavier"
      std: 0.03
    }
    bias_filler {
      type: "constant"
      value: 0.2
    }
  }
}
layer {
  name: "inception_11a/1x1/bn1"
  type: "BatchNorm"
  bottom: "inception_11a/1x1"
  top: "inception_11a/1x1"
  param {
    lr_mult: 0
    decay_mult: 0
  }
  param {
    lr_mult: 0
    decay_mult: 0
  }
  param {
    lr_mult: 0
    decay_mult: 0
  }
  batch_norm_param {
    use_global_stats: false
  }
}
layer {
  name: "inception_11a/1x1/scale1"
  type: "Scale"
  bottom: "inception_11a/1x1"
  top: "inception_11a/1x1"
  scale_param {
    bias_term: true
  }
}
layer {
  name: "inception_11a/1x1/relu1"
  type: "ReLU"
  bottom: "inception_11a/1x1"
  top: "inception_11a/1x1"
}
layer {
  name: "inception_11a/3x3"
  type: "Convolution"
  bottom: "inception_10a/output"
  top: "inception_11a/3x3"
  param {
    lr_mult: 1
    decay_mult: 1
  }
  param {
    lr_mult: 2
    decay_mult: 0
  }
  convolution_param {
    num_output: 160
    pad: 1
    kernel_size: 3
    weight_filler {
      type: "xavier"
      std: 0.03
    }
    bias_filler {
      type: "constant"
      value: 0.2
    }
  }
}
layer {
  name: "inception_11a/3x3/bn1"
  type: "BatchNorm"
  bottom: "inception_11a/3x3"
  top: "inception_11a/3x3"
  param {
    lr_mult: 0
    decay_mult: 0
  }
  param {
    lr_mult: 0
    decay_mult: 0
  }
  param {
    lr_mult: 0
    decay_mult: 0
  }
  batch_norm_param {
    use_global_stats: false
  }
}
layer {
  name: "inception_11a/3x3/scale1"
  type: "Scale"
  bottom: "inception_11a/3x3"
  top: "inception_11a/3x3"
  scale_param {
    bias_term: true
  }
}
layer {
  name: "inception_11a/3x3/relu1"
  type: "ReLU"
  bottom: "inception_11a/3x3"
  top: "inception_11a/3x3"
}
layer {
  name: "inception_11a/output"
  type: "Concat"
  bottom: "inception_11a/1x1"
  bottom: "inception_11a/3x3"
  top: "inception_11a/output"
}
layer {
  name: "avg_pool_12/8x8_s1"
  type: "Pooling"
  bottom: "inception_11a/output"
  top: "avg_pool_12/8x8_s1"
  pooling_param {
    pool: AVE
    kernel_size: 8
    stride: 1
  }
}
layer {
  name: "drop_8x8_s1"
  type: "Dropout"
  bottom: "avg_pool_12/8x8_s1"
  top: "avg_pool_12/8x8_s1"
  dropout_param {
    dropout_ratio: 0.5
  }
}
layer {
  name: "loss/classifier"
  type: "InnerProduct"
  bottom: "avg_pool_12/8x8_s1"
  top: "loss/classifier"
  param {
    lr_mult: 1
    decay_mult: 1
  }
  param {
    lr_mult: 2
    decay_mult: 0
  }
  inner_product_param {
    num_output: 10
    weight_filler {
      type: "xavier"
    }
    bias_filler {
      type: "constant"
      value: 1
    }
  }
}
layer {
  name: "loss"
  type: "SoftmaxWithLoss"
  bottom: "loss/classifier"
  bottom: "label"
  top: "loss"
}
layer {
  name: "accuracy"
  type: "Accuracy"
  bottom: "loss/classifier"
  bottom: "label"
  top: "accuracy"
  include {
    phase: TEST
  }
}
I0121 17:48:37.425995  1741 layer_factory.hpp:77] Creating layer data
I0121 17:48:37.428432  1741 db_lmdb.cpp:35] Opened lmdb cifar10/input/lmdb/valid_lmdb
I0121 17:48:37.429630  1741 net.cpp:84] Creating Layer data
I0121 17:48:37.429647  1741 net.cpp:380] data -> data
I0121 17:48:37.429658  1741 net.cpp:380] data -> label
I0121 17:48:37.429667  1741 data_transformer.cpp:25] Loading mean file from: cifar10/input/mean.binaryproto
I0121 17:48:37.429929  1741 data_layer.cpp:45] output data size: 50,3,32,32
I0121 17:48:37.434978  1741 net.cpp:122] Setting up data
I0121 17:48:37.435010  1741 net.cpp:129] Top shape: 50 3 32 32 (153600)
I0121 17:48:37.435019  1741 net.cpp:129] Top shape: 50 (50)
I0121 17:48:37.435022  1741 net.cpp:137] Memory required for data: 614600
I0121 17:48:37.435037  1741 layer_factory.hpp:77] Creating layer label_data_1_split
I0121 17:48:37.435052  1741 net.cpp:84] Creating Layer label_data_1_split
I0121 17:48:37.435061  1741 net.cpp:406] label_data_1_split <- label
I0121 17:48:37.435072  1741 net.cpp:380] label_data_1_split -> label_data_1_split_0
I0121 17:48:37.435111  1741 net.cpp:380] label_data_1_split -> label_data_1_split_1
I0121 17:48:37.435319  1741 net.cpp:122] Setting up label_data_1_split
I0121 17:48:37.435353  1741 net.cpp:129] Top shape: 50 (50)
I0121 17:48:37.435362  1741 net.cpp:129] Top shape: 50 (50)
I0121 17:48:37.435369  1741 net.cpp:137] Memory required for data: 615000
I0121 17:48:37.435377  1741 layer_factory.hpp:77] Creating layer conv1/3x3_s1
I0121 17:48:37.435402  1741 net.cpp:84] Creating Layer conv1/3x3_s1
I0121 17:48:37.435412  1741 net.cpp:406] conv1/3x3_s1 <- data
I0121 17:48:37.435426  1741 net.cpp:380] conv1/3x3_s1 -> conv1/3x3_s1
I0121 17:48:37.436755  1741 net.cpp:122] Setting up conv1/3x3_s1
I0121 17:48:37.436789  1741 net.cpp:129] Top shape: 50 96 32 32 (4915200)
I0121 17:48:37.436797  1741 net.cpp:137] Memory required for data: 20275800
I0121 17:48:37.436815  1741 layer_factory.hpp:77] Creating layer conv1/bn1
I0121 17:48:37.436842  1741 net.cpp:84] Creating Layer conv1/bn1
I0121 17:48:37.436852  1741 net.cpp:406] conv1/bn1 <- conv1/3x3_s1
I0121 17:48:37.436866  1741 net.cpp:367] conv1/bn1 -> conv1/3x3_s1 (in-place)
I0121 17:48:37.437131  1741 net.cpp:122] Setting up conv1/bn1
I0121 17:48:37.437151  1741 net.cpp:129] Top shape: 50 96 32 32 (4915200)
I0121 17:48:37.437160  1741 net.cpp:137] Memory required for data: 39936600
I0121 17:48:37.437178  1741 layer_factory.hpp:77] Creating layer conv1/scale1
I0121 17:48:37.437198  1741 net.cpp:84] Creating Layer conv1/scale1
I0121 17:48:37.437206  1741 net.cpp:406] conv1/scale1 <- conv1/3x3_s1
I0121 17:48:37.437222  1741 net.cpp:367] conv1/scale1 -> conv1/3x3_s1 (in-place)
I0121 17:48:37.437319  1741 layer_factory.hpp:77] Creating layer conv1/scale1
I0121 17:48:37.437515  1741 net.cpp:122] Setting up conv1/scale1
I0121 17:48:37.437536  1741 net.cpp:129] Top shape: 50 96 32 32 (4915200)
I0121 17:48:37.437544  1741 net.cpp:137] Memory required for data: 59597400
I0121 17:48:37.437556  1741 layer_factory.hpp:77] Creating layer conv1/relu1
I0121 17:48:37.437567  1741 net.cpp:84] Creating Layer conv1/relu1
I0121 17:48:37.437573  1741 net.cpp:406] conv1/relu1 <- conv1/3x3_s1
I0121 17:48:37.437592  1741 net.cpp:367] conv1/relu1 -> conv1/3x3_s1 (in-place)
I0121 17:48:37.437944  1741 net.cpp:122] Setting up conv1/relu1
I0121 17:48:37.437979  1741 net.cpp:129] Top shape: 50 96 32 32 (4915200)
I0121 17:48:37.437988  1741 net.cpp:137] Memory required for data: 79258200
I0121 17:48:37.437995  1741 layer_factory.hpp:77] Creating layer conv1/3x3_s1_conv1/relu1_0_split
I0121 17:48:37.438017  1741 net.cpp:84] Creating Layer conv1/3x3_s1_conv1/relu1_0_split
I0121 17:48:37.438032  1741 net.cpp:406] conv1/3x3_s1_conv1/relu1_0_split <- conv1/3x3_s1
I0121 17:48:37.438056  1741 net.cpp:380] conv1/3x3_s1_conv1/relu1_0_split -> conv1/3x3_s1_conv1/relu1_0_split_0
I0121 17:48:37.438081  1741 net.cpp:380] conv1/3x3_s1_conv1/relu1_0_split -> conv1/3x3_s1_conv1/relu1_0_split_1
I0121 17:48:37.438168  1741 net.cpp:122] Setting up conv1/3x3_s1_conv1/relu1_0_split
I0121 17:48:37.438196  1741 net.cpp:129] Top shape: 50 96 32 32 (4915200)
I0121 17:48:37.438208  1741 net.cpp:129] Top shape: 50 96 32 32 (4915200)
I0121 17:48:37.438218  1741 net.cpp:137] Memory required for data: 118579800
I0121 17:48:37.438225  1741 layer_factory.hpp:77] Creating layer inception_2a/1x1
I0121 17:48:37.438243  1741 net.cpp:84] Creating Layer inception_2a/1x1
I0121 17:48:37.438258  1741 net.cpp:406] inception_2a/1x1 <- conv1/3x3_s1_conv1/relu1_0_split_0
I0121 17:48:37.438271  1741 net.cpp:380] inception_2a/1x1 -> inception_2a/1x1
I0121 17:48:37.439817  1741 net.cpp:122] Setting up inception_2a/1x1
I0121 17:48:37.439843  1741 net.cpp:129] Top shape: 50 32 32 32 (1638400)
I0121 17:48:37.439862  1741 net.cpp:137] Memory required for data: 125133400
I0121 17:48:37.439885  1741 layer_factory.hpp:77] Creating layer inception_2a/1x1/bn1
I0121 17:48:37.439911  1741 net.cpp:84] Creating Layer inception_2a/1x1/bn1
I0121 17:48:37.439924  1741 net.cpp:406] inception_2a/1x1/bn1 <- inception_2a/1x1
I0121 17:48:37.439935  1741 net.cpp:367] inception_2a/1x1/bn1 -> inception_2a/1x1 (in-place)
I0121 17:48:37.440227  1741 net.cpp:122] Setting up inception_2a/1x1/bn1
I0121 17:48:37.440248  1741 net.cpp:129] Top shape: 50 32 32 32 (1638400)
I0121 17:48:37.440269  1741 net.cpp:137] Memory required for data: 131687000
I0121 17:48:37.440284  1741 layer_factory.hpp:77] Creating layer inception_2a/1x1/scale1
I0121 17:48:37.440305  1741 net.cpp:84] Creating Layer inception_2a/1x1/scale1
I0121 17:48:37.440313  1741 net.cpp:406] inception_2a/1x1/scale1 <- inception_2a/1x1
I0121 17:48:37.440366  1741 net.cpp:367] inception_2a/1x1/scale1 -> inception_2a/1x1 (in-place)
I0121 17:48:37.440456  1741 layer_factory.hpp:77] Creating layer inception_2a/1x1/scale1
I0121 17:48:37.440695  1741 net.cpp:122] Setting up inception_2a/1x1/scale1
I0121 17:48:37.440713  1741 net.cpp:129] Top shape: 50 32 32 32 (1638400)
I0121 17:48:37.440721  1741 net.cpp:137] Memory required for data: 138240600
I0121 17:48:37.440733  1741 layer_factory.hpp:77] Creating layer inception_2a/1x1/relu1
I0121 17:48:37.440750  1741 net.cpp:84] Creating Layer inception_2a/1x1/relu1
I0121 17:48:37.440759  1741 net.cpp:406] inception_2a/1x1/relu1 <- inception_2a/1x1
I0121 17:48:37.440768  1741 net.cpp:367] inception_2a/1x1/relu1 -> inception_2a/1x1 (in-place)
I0121 17:48:37.441131  1741 net.cpp:122] Setting up inception_2a/1x1/relu1
I0121 17:48:37.441159  1741 net.cpp:129] Top shape: 50 32 32 32 (1638400)
I0121 17:48:37.441165  1741 net.cpp:137] Memory required for data: 144794200
I0121 17:48:37.441172  1741 layer_factory.hpp:77] Creating layer inception_2a/3x3
I0121 17:48:37.441187  1741 net.cpp:84] Creating Layer inception_2a/3x3
I0121 17:48:37.441210  1741 net.cpp:406] inception_2a/3x3 <- conv1/3x3_s1_conv1/relu1_0_split_1
I0121 17:48:37.441224  1741 net.cpp:380] inception_2a/3x3 -> inception_2a/3x3
I0121 17:48:37.442631  1741 net.cpp:122] Setting up inception_2a/3x3
I0121 17:48:37.442664  1741 net.cpp:129] Top shape: 50 32 32 32 (1638400)
I0121 17:48:37.442674  1741 net.cpp:137] Memory required for data: 151347800
I0121 17:48:37.442687  1741 layer_factory.hpp:77] Creating layer inception_2a/3x3/bn1
I0121 17:48:37.442709  1741 net.cpp:84] Creating Layer inception_2a/3x3/bn1
I0121 17:48:37.442718  1741 net.cpp:406] inception_2a/3x3/bn1 <- inception_2a/3x3
I0121 17:48:37.442732  1741 net.cpp:367] inception_2a/3x3/bn1 -> inception_2a/3x3 (in-place)
I0121 17:48:37.443018  1741 net.cpp:122] Setting up inception_2a/3x3/bn1
I0121 17:48:37.443039  1741 net.cpp:129] Top shape: 50 32 32 32 (1638400)
I0121 17:48:37.443048  1741 net.cpp:137] Memory required for data: 157901400
I0121 17:48:37.443074  1741 layer_factory.hpp:77] Creating layer inception_2a/3x3/scale1
I0121 17:48:37.443090  1741 net.cpp:84] Creating Layer inception_2a/3x3/scale1
I0121 17:48:37.443099  1741 net.cpp:406] inception_2a/3x3/scale1 <- inception_2a/3x3
I0121 17:48:37.443107  1741 net.cpp:367] inception_2a/3x3/scale1 -> inception_2a/3x3 (in-place)
I0121 17:48:37.443202  1741 layer_factory.hpp:77] Creating layer inception_2a/3x3/scale1
I0121 17:48:37.443392  1741 net.cpp:122] Setting up inception_2a/3x3/scale1
I0121 17:48:37.443410  1741 net.cpp:129] Top shape: 50 32 32 32 (1638400)
I0121 17:48:37.443418  1741 net.cpp:137] Memory required for data: 164455000
I0121 17:48:37.443431  1741 layer_factory.hpp:77] Creating layer inception_2a/3x3/relu1
I0121 17:48:37.443457  1741 net.cpp:84] Creating Layer inception_2a/3x3/relu1
I0121 17:48:37.443465  1741 net.cpp:406] inception_2a/3x3/relu1 <- inception_2a/3x3
I0121 17:48:37.443475  1741 net.cpp:367] inception_2a/3x3/relu1 -> inception_2a/3x3 (in-place)
I0121 17:48:37.443794  1741 net.cpp:122] Setting up inception_2a/3x3/relu1
I0121 17:48:37.443820  1741 net.cpp:129] Top shape: 50 32 32 32 (1638400)
I0121 17:48:37.443828  1741 net.cpp:137] Memory required for data: 171008600
I0121 17:48:37.443835  1741 layer_factory.hpp:77] Creating layer inception_2a/output
I0121 17:48:37.443847  1741 net.cpp:84] Creating Layer inception_2a/output
I0121 17:48:37.443862  1741 net.cpp:406] inception_2a/output <- inception_2a/1x1
I0121 17:48:37.443872  1741 net.cpp:406] inception_2a/output <- inception_2a/3x3
I0121 17:48:37.443881  1741 net.cpp:380] inception_2a/output -> inception_2a/output
I0121 17:48:37.443940  1741 net.cpp:122] Setting up inception_2a/output
I0121 17:48:37.443962  1741 net.cpp:129] Top shape: 50 64 32 32 (3276800)
I0121 17:48:37.443969  1741 net.cpp:137] Memory required for data: 184115800
I0121 17:48:37.443976  1741 layer_factory.hpp:77] Creating layer inception_2a/output_inception_2a/output_0_split
I0121 17:48:37.443994  1741 net.cpp:84] Creating Layer inception_2a/output_inception_2a/output_0_split
I0121 17:48:37.444007  1741 net.cpp:406] inception_2a/output_inception_2a/output_0_split <- inception_2a/output
I0121 17:48:37.444017  1741 net.cpp:380] inception_2a/output_inception_2a/output_0_split -> inception_2a/output_inception_2a/output_0_split_0
I0121 17:48:37.444028  1741 net.cpp:380] inception_2a/output_inception_2a/output_0_split -> inception_2a/output_inception_2a/output_0_split_1
I0121 17:48:37.444116  1741 net.cpp:122] Setting up inception_2a/output_inception_2a/output_0_split
I0121 17:48:37.444134  1741 net.cpp:129] Top shape: 50 64 32 32 (3276800)
I0121 17:48:37.444144  1741 net.cpp:129] Top shape: 50 64 32 32 (3276800)
I0121 17:48:37.444150  1741 net.cpp:137] Memory required for data: 210330200
I0121 17:48:37.444159  1741 layer_factory.hpp:77] Creating layer inception_3a/1x1
I0121 17:48:37.444182  1741 net.cpp:84] Creating Layer inception_3a/1x1
I0121 17:48:37.444191  1741 net.cpp:406] inception_3a/1x1 <- inception_2a/output_inception_2a/output_0_split_0
I0121 17:48:37.444207  1741 net.cpp:380] inception_3a/1x1 -> inception_3a/1x1
I0121 17:48:37.445262  1741 net.cpp:122] Setting up inception_3a/1x1
I0121 17:48:37.445293  1741 net.cpp:129] Top shape: 50 32 32 32 (1638400)
I0121 17:48:37.445302  1741 net.cpp:137] Memory required for data: 216883800
I0121 17:48:37.445314  1741 layer_factory.hpp:77] Creating layer inception_3a/1x1/bn1
I0121 17:48:37.445338  1741 net.cpp:84] Creating Layer inception_3a/1x1/bn1
I0121 17:48:37.445345  1741 net.cpp:406] inception_3a/1x1/bn1 <- inception_3a/1x1
I0121 17:48:37.445359  1741 net.cpp:367] inception_3a/1x1/bn1 -> inception_3a/1x1 (in-place)
I0121 17:48:37.445654  1741 net.cpp:122] Setting up inception_3a/1x1/bn1
I0121 17:48:37.445674  1741 net.cpp:129] Top shape: 50 32 32 32 (1638400)
I0121 17:48:37.445678  1741 net.cpp:137] Memory required for data: 223437400
I0121 17:48:37.445694  1741 layer_factory.hpp:77] Creating layer inception_3a/1x1/scale1
I0121 17:48:37.445714  1741 net.cpp:84] Creating Layer inception_3a/1x1/scale1
I0121 17:48:37.445724  1741 net.cpp:406] inception_3a/1x1/scale1 <- inception_3a/1x1
I0121 17:48:37.445744  1741 net.cpp:367] inception_3a/1x1/scale1 -> inception_3a/1x1 (in-place)
I0121 17:48:37.445842  1741 layer_factory.hpp:77] Creating layer inception_3a/1x1/scale1
I0121 17:48:37.446022  1741 net.cpp:122] Setting up inception_3a/1x1/scale1
I0121 17:48:37.446041  1741 net.cpp:129] Top shape: 50 32 32 32 (1638400)
I0121 17:48:37.446046  1741 net.cpp:137] Memory required for data: 229991000
I0121 17:48:37.446054  1741 layer_factory.hpp:77] Creating layer inception_3a/1x1/relu1
I0121 17:48:37.446069  1741 net.cpp:84] Creating Layer inception_3a/1x1/relu1
I0121 17:48:37.446106  1741 net.cpp:406] inception_3a/1x1/relu1 <- inception_3a/1x1
I0121 17:48:37.446128  1741 net.cpp:367] inception_3a/1x1/relu1 -> inception_3a/1x1 (in-place)
I0121 17:48:37.446297  1741 net.cpp:122] Setting up inception_3a/1x1/relu1
I0121 17:48:37.446321  1741 net.cpp:129] Top shape: 50 32 32 32 (1638400)
I0121 17:48:37.446331  1741 net.cpp:137] Memory required for data: 236544600
I0121 17:48:37.446337  1741 layer_factory.hpp:77] Creating layer inception_3a/3x3
I0121 17:48:37.446352  1741 net.cpp:84] Creating Layer inception_3a/3x3
I0121 17:48:37.446364  1741 net.cpp:406] inception_3a/3x3 <- inception_2a/output_inception_2a/output_0_split_1
I0121 17:48:37.446378  1741 net.cpp:380] inception_3a/3x3 -> inception_3a/3x3
I0121 17:48:37.448784  1741 net.cpp:122] Setting up inception_3a/3x3
I0121 17:48:37.448817  1741 net.cpp:129] Top shape: 50 48 32 32 (2457600)
I0121 17:48:37.448824  1741 net.cpp:137] Memory required for data: 246375000
I0121 17:48:37.448838  1741 layer_factory.hpp:77] Creating layer inception_3a/3x3/bn1
I0121 17:48:37.448863  1741 net.cpp:84] Creating Layer inception_3a/3x3/bn1
I0121 17:48:37.448870  1741 net.cpp:406] inception_3a/3x3/bn1 <- inception_3a/3x3
I0121 17:48:37.448884  1741 net.cpp:367] inception_3a/3x3/bn1 -> inception_3a/3x3 (in-place)
I0121 17:48:37.449393  1741 net.cpp:122] Setting up inception_3a/3x3/bn1
I0121 17:48:37.449416  1741 net.cpp:129] Top shape: 50 48 32 32 (2457600)
I0121 17:48:37.449424  1741 net.cpp:137] Memory required for data: 256205400
I0121 17:48:37.449447  1741 layer_factory.hpp:77] Creating layer inception_3a/3x3/scale1
I0121 17:48:37.449470  1741 net.cpp:84] Creating Layer inception_3a/3x3/scale1
I0121 17:48:37.449476  1741 net.cpp:406] inception_3a/3x3/scale1 <- inception_3a/3x3
I0121 17:48:37.449492  1741 net.cpp:367] inception_3a/3x3/scale1 -> inception_3a/3x3 (in-place)
I0121 17:48:37.449591  1741 layer_factory.hpp:77] Creating layer inception_3a/3x3/scale1
I0121 17:48:37.449872  1741 net.cpp:122] Setting up inception_3a/3x3/scale1
I0121 17:48:37.449896  1741 net.cpp:129] Top shape: 50 48 32 32 (2457600)
I0121 17:48:37.449904  1741 net.cpp:137] Memory required for data: 266035800
I0121 17:48:37.449916  1741 layer_factory.hpp:77] Creating layer inception_3a/3x3/relu1
I0121 17:48:37.449957  1741 net.cpp:84] Creating Layer inception_3a/3x3/relu1
I0121 17:48:37.449992  1741 net.cpp:406] inception_3a/3x3/relu1 <- inception_3a/3x3
I0121 17:48:37.450037  1741 net.cpp:367] inception_3a/3x3/relu1 -> inception_3a/3x3 (in-place)
I0121 17:48:37.450417  1741 net.cpp:122] Setting up inception_3a/3x3/relu1
I0121 17:48:37.450441  1741 net.cpp:129] Top shape: 50 48 32 32 (2457600)
I0121 17:48:37.450448  1741 net.cpp:137] Memory required for data: 275866200
I0121 17:48:37.450453  1741 layer_factory.hpp:77] Creating layer inception_3a/output
I0121 17:48:37.450460  1741 net.cpp:84] Creating Layer inception_3a/output
I0121 17:48:37.450474  1741 net.cpp:406] inception_3a/output <- inception_3a/1x1
I0121 17:48:37.450480  1741 net.cpp:406] inception_3a/output <- inception_3a/3x3
I0121 17:48:37.450486  1741 net.cpp:380] inception_3a/output -> inception_3a/output
I0121 17:48:37.450531  1741 net.cpp:122] Setting up inception_3a/output
I0121 17:48:37.450547  1741 net.cpp:129] Top shape: 50 80 32 32 (4096000)
I0121 17:48:37.450556  1741 net.cpp:137] Memory required for data: 292250200
I0121 17:48:37.450561  1741 layer_factory.hpp:77] Creating layer inception_3a/output_inception_3a/output_0_split
I0121 17:48:37.450567  1741 net.cpp:84] Creating Layer inception_3a/output_inception_3a/output_0_split
I0121 17:48:37.450574  1741 net.cpp:406] inception_3a/output_inception_3a/output_0_split <- inception_3a/output
I0121 17:48:37.450580  1741 net.cpp:380] inception_3a/output_inception_3a/output_0_split -> inception_3a/output_inception_3a/output_0_split_0
I0121 17:48:37.450587  1741 net.cpp:380] inception_3a/output_inception_3a/output_0_split -> inception_3a/output_inception_3a/output_0_split_1
I0121 17:48:37.450644  1741 net.cpp:122] Setting up inception_3a/output_inception_3a/output_0_split
I0121 17:48:37.450659  1741 net.cpp:129] Top shape: 50 80 32 32 (4096000)
I0121 17:48:37.450665  1741 net.cpp:129] Top shape: 50 80 32 32 (4096000)
I0121 17:48:37.450670  1741 net.cpp:137] Memory required for data: 325018200
I0121 17:48:37.450675  1741 layer_factory.hpp:77] Creating layer downsample_4/3x3_s2
I0121 17:48:37.450690  1741 net.cpp:84] Creating Layer downsample_4/3x3_s2
I0121 17:48:37.450696  1741 net.cpp:406] downsample_4/3x3_s2 <- inception_3a/output_inception_3a/output_0_split_0
I0121 17:48:37.450708  1741 net.cpp:380] downsample_4/3x3_s2 -> downsample_4/3x3_s2
I0121 17:48:37.452121  1741 net.cpp:122] Setting up downsample_4/3x3_s2
I0121 17:48:37.452147  1741 net.cpp:129] Top shape: 50 80 16 16 (1024000)
I0121 17:48:37.452153  1741 net.cpp:137] Memory required for data: 329114200
I0121 17:48:37.452162  1741 layer_factory.hpp:77] Creating layer downsample_4/3x3_s2/bn1
I0121 17:48:37.452173  1741 net.cpp:84] Creating Layer downsample_4/3x3_s2/bn1
I0121 17:48:37.452186  1741 net.cpp:406] downsample_4/3x3_s2/bn1 <- downsample_4/3x3_s2
I0121 17:48:37.452193  1741 net.cpp:367] downsample_4/3x3_s2/bn1 -> downsample_4/3x3_s2 (in-place)
I0121 17:48:37.452448  1741 net.cpp:122] Setting up downsample_4/3x3_s2/bn1
I0121 17:48:37.452463  1741 net.cpp:129] Top shape: 50 80 16 16 (1024000)
I0121 17:48:37.452468  1741 net.cpp:137] Memory required for data: 333210200
I0121 17:48:37.452477  1741 layer_factory.hpp:77] Creating layer downsample_4/3x3_s2/scale1
I0121 17:48:37.452486  1741 net.cpp:84] Creating Layer downsample_4/3x3_s2/scale1
I0121 17:48:37.452492  1741 net.cpp:406] downsample_4/3x3_s2/scale1 <- downsample_4/3x3_s2
I0121 17:48:37.452499  1741 net.cpp:367] downsample_4/3x3_s2/scale1 -> downsample_4/3x3_s2 (in-place)
I0121 17:48:37.452555  1741 layer_factory.hpp:77] Creating layer downsample_4/3x3_s2/scale1
I0121 17:48:37.452714  1741 net.cpp:122] Setting up downsample_4/3x3_s2/scale1
I0121 17:48:37.452730  1741 net.cpp:129] Top shape: 50 80 16 16 (1024000)
I0121 17:48:37.452735  1741 net.cpp:137] Memory required for data: 337306200
I0121 17:48:37.452744  1741 layer_factory.hpp:77] Creating layer downsample_4/3x3_s2/relu1
I0121 17:48:37.452750  1741 net.cpp:84] Creating Layer downsample_4/3x3_s2/relu1
I0121 17:48:37.452757  1741 net.cpp:406] downsample_4/3x3_s2/relu1 <- downsample_4/3x3_s2
I0121 17:48:37.452766  1741 net.cpp:367] downsample_4/3x3_s2/relu1 -> downsample_4/3x3_s2 (in-place)
I0121 17:48:37.452951  1741 net.cpp:122] Setting up downsample_4/3x3_s2/relu1
I0121 17:48:37.452973  1741 net.cpp:129] Top shape: 50 80 16 16 (1024000)
I0121 17:48:37.453025  1741 net.cpp:137] Memory required for data: 341402200
I0121 17:48:37.453044  1741 layer_factory.hpp:77] Creating layer downsample_4/pool_s2
I0121 17:48:37.453058  1741 net.cpp:84] Creating Layer downsample_4/pool_s2
I0121 17:48:37.453066  1741 net.cpp:406] downsample_4/pool_s2 <- inception_3a/output_inception_3a/output_0_split_1
I0121 17:48:37.453076  1741 net.cpp:380] downsample_4/pool_s2 -> downsample_4/pool_s2
I0121 17:48:37.453153  1741 net.cpp:122] Setting up downsample_4/pool_s2
I0121 17:48:37.453176  1741 net.cpp:129] Top shape: 50 80 16 16 (1024000)
I0121 17:48:37.453182  1741 net.cpp:137] Memory required for data: 345498200
I0121 17:48:37.453189  1741 layer_factory.hpp:77] Creating layer downsample_4/output
I0121 17:48:37.453212  1741 net.cpp:84] Creating Layer downsample_4/output
I0121 17:48:37.453220  1741 net.cpp:406] downsample_4/output <- downsample_4/3x3_s2
I0121 17:48:37.453228  1741 net.cpp:406] downsample_4/output <- downsample_4/pool_s2
I0121 17:48:37.453244  1741 net.cpp:380] downsample_4/output -> downsample_4/output
I0121 17:48:37.453292  1741 net.cpp:122] Setting up downsample_4/output
I0121 17:48:37.453310  1741 net.cpp:129] Top shape: 50 160 16 16 (2048000)
I0121 17:48:37.453320  1741 net.cpp:137] Memory required for data: 353690200
I0121 17:48:37.453327  1741 layer_factory.hpp:77] Creating layer downsample_4/output_downsample_4/output_0_split
I0121 17:48:37.453346  1741 net.cpp:84] Creating Layer downsample_4/output_downsample_4/output_0_split
I0121 17:48:37.453354  1741 net.cpp:406] downsample_4/output_downsample_4/output_0_split <- downsample_4/output
I0121 17:48:37.453362  1741 net.cpp:380] downsample_4/output_downsample_4/output_0_split -> downsample_4/output_downsample_4/output_0_split_0
I0121 17:48:37.453373  1741 net.cpp:380] downsample_4/output_downsample_4/output_0_split -> downsample_4/output_downsample_4/output_0_split_1
I0121 17:48:37.453450  1741 net.cpp:122] Setting up downsample_4/output_downsample_4/output_0_split
I0121 17:48:37.453465  1741 net.cpp:129] Top shape: 50 160 16 16 (2048000)
I0121 17:48:37.453470  1741 net.cpp:129] Top shape: 50 160 16 16 (2048000)
I0121 17:48:37.453474  1741 net.cpp:137] Memory required for data: 370074200
I0121 17:48:37.453480  1741 layer_factory.hpp:77] Creating layer inception_5a/1x1
I0121 17:48:37.453498  1741 net.cpp:84] Creating Layer inception_5a/1x1
I0121 17:48:37.453514  1741 net.cpp:406] inception_5a/1x1 <- downsample_4/output_downsample_4/output_0_split_0
I0121 17:48:37.453528  1741 net.cpp:380] inception_5a/1x1 -> inception_5a/1x1
I0121 17:48:37.454803  1741 net.cpp:122] Setting up inception_5a/1x1
I0121 17:48:37.454833  1741 net.cpp:129] Top shape: 50 112 16 16 (1433600)
I0121 17:48:37.454838  1741 net.cpp:137] Memory required for data: 375808600
I0121 17:48:37.454851  1741 layer_factory.hpp:77] Creating layer inception_5a/1x1/bn1
I0121 17:48:37.454875  1741 net.cpp:84] Creating Layer inception_5a/1x1/bn1
I0121 17:48:37.454883  1741 net.cpp:406] inception_5a/1x1/bn1 <- inception_5a/1x1
I0121 17:48:37.454898  1741 net.cpp:367] inception_5a/1x1/bn1 -> inception_5a/1x1 (in-place)
I0121 17:48:37.455178  1741 net.cpp:122] Setting up inception_5a/1x1/bn1
I0121 17:48:37.455195  1741 net.cpp:129] Top shape: 50 112 16 16 (1433600)
I0121 17:48:37.455200  1741 net.cpp:137] Memory required for data: 381543000
I0121 17:48:37.455211  1741 layer_factory.hpp:77] Creating layer inception_5a/1x1/scale1
I0121 17:48:37.455230  1741 net.cpp:84] Creating Layer inception_5a/1x1/scale1
I0121 17:48:37.455240  1741 net.cpp:406] inception_5a/1x1/scale1 <- inception_5a/1x1
I0121 17:48:37.455250  1741 net.cpp:367] inception_5a/1x1/scale1 -> inception_5a/1x1 (in-place)
I0121 17:48:37.455327  1741 layer_factory.hpp:77] Creating layer inception_5a/1x1/scale1
I0121 17:48:37.455509  1741 net.cpp:122] Setting up inception_5a/1x1/scale1
I0121 17:48:37.455528  1741 net.cpp:129] Top shape: 50 112 16 16 (1433600)
I0121 17:48:37.455548  1741 net.cpp:137] Memory required for data: 387277400
I0121 17:48:37.455569  1741 layer_factory.hpp:77] Creating layer inception_5a/1x1/relu1
I0121 17:48:37.455583  1741 net.cpp:84] Creating Layer inception_5a/1x1/relu1
I0121 17:48:37.455592  1741 net.cpp:406] inception_5a/1x1/relu1 <- inception_5a/1x1
I0121 17:48:37.455602  1741 net.cpp:367] inception_5a/1x1/relu1 -> inception_5a/1x1 (in-place)
I0121 17:48:37.455984  1741 net.cpp:122] Setting up inception_5a/1x1/relu1
I0121 17:48:37.456007  1741 net.cpp:129] Top shape: 50 112 16 16 (1433600)
I0121 17:48:37.456013  1741 net.cpp:137] Memory required for data: 393011800
I0121 17:48:37.456019  1741 layer_factory.hpp:77] Creating layer inception_5a/3x3
I0121 17:48:37.456041  1741 net.cpp:84] Creating Layer inception_5a/3x3
I0121 17:48:37.456079  1741 net.cpp:406] inception_5a/3x3 <- downsample_4/output_downsample_4/output_0_split_1
I0121 17:48:37.456110  1741 net.cpp:380] inception_5a/3x3 -> inception_5a/3x3
I0121 17:48:37.457623  1741 net.cpp:122] Setting up inception_5a/3x3
I0121 17:48:37.457648  1741 net.cpp:129] Top shape: 50 48 16 16 (614400)
I0121 17:48:37.457653  1741 net.cpp:137] Memory required for data: 395469400
I0121 17:48:37.457666  1741 layer_factory.hpp:77] Creating layer inception_5a/3x3/bn1
I0121 17:48:37.457691  1741 net.cpp:84] Creating Layer inception_5a/3x3/bn1
I0121 17:48:37.457701  1741 net.cpp:406] inception_5a/3x3/bn1 <- inception_5a/3x3
I0121 17:48:37.457711  1741 net.cpp:367] inception_5a/3x3/bn1 -> inception_5a/3x3 (in-place)
I0121 17:48:37.458019  1741 net.cpp:122] Setting up inception_5a/3x3/bn1
I0121 17:48:37.458037  1741 net.cpp:129] Top shape: 50 48 16 16 (614400)
I0121 17:48:37.458042  1741 net.cpp:137] Memory required for data: 397927000
I0121 17:48:37.458055  1741 layer_factory.hpp:77] Creating layer inception_5a/3x3/scale1
I0121 17:48:37.458076  1741 net.cpp:84] Creating Layer inception_5a/3x3/scale1
I0121 17:48:37.458084  1741 net.cpp:406] inception_5a/3x3/scale1 <- inception_5a/3x3
I0121 17:48:37.458093  1741 net.cpp:367] inception_5a/3x3/scale1 -> inception_5a/3x3 (in-place)
I0121 17:48:37.458173  1741 layer_factory.hpp:77] Creating layer inception_5a/3x3/scale1
I0121 17:48:37.458361  1741 net.cpp:122] Setting up inception_5a/3x3/scale1
I0121 17:48:37.458379  1741 net.cpp:129] Top shape: 50 48 16 16 (614400)
I0121 17:48:37.458382  1741 net.cpp:137] Memory required for data: 400384600
I0121 17:48:37.458391  1741 layer_factory.hpp:77] Creating layer inception_5a/3x3/relu1
I0121 17:48:37.458411  1741 net.cpp:84] Creating Layer inception_5a/3x3/relu1
I0121 17:48:37.458420  1741 net.cpp:406] inception_5a/3x3/relu1 <- inception_5a/3x3
I0121 17:48:37.458433  1741 net.cpp:367] inception_5a/3x3/relu1 -> inception_5a/3x3 (in-place)
I0121 17:48:37.458609  1741 net.cpp:122] Setting up inception_5a/3x3/relu1
I0121 17:48:37.458629  1741 net.cpp:129] Top shape: 50 48 16 16 (614400)
I0121 17:48:37.458634  1741 net.cpp:137] Memory required for data: 402842200
I0121 17:48:37.458640  1741 layer_factory.hpp:77] Creating layer inception_5a/output
I0121 17:48:37.458652  1741 net.cpp:84] Creating Layer inception_5a/output
I0121 17:48:37.458667  1741 net.cpp:406] inception_5a/output <- inception_5a/1x1
I0121 17:48:37.458675  1741 net.cpp:406] inception_5a/output <- inception_5a/3x3
I0121 17:48:37.458684  1741 net.cpp:380] inception_5a/output -> inception_5a/output
I0121 17:48:37.458729  1741 net.cpp:122] Setting up inception_5a/output
I0121 17:48:37.458753  1741 net.cpp:129] Top shape: 50 160 16 16 (2048000)
I0121 17:48:37.458761  1741 net.cpp:137] Memory required for data: 411034200
I0121 17:48:37.458768  1741 layer_factory.hpp:77] Creating layer inception_5a/output_inception_5a/output_0_split
I0121 17:48:37.458787  1741 net.cpp:84] Creating Layer inception_5a/output_inception_5a/output_0_split
I0121 17:48:37.458796  1741 net.cpp:406] inception_5a/output_inception_5a/output_0_split <- inception_5a/output
I0121 17:48:37.458804  1741 net.cpp:380] inception_5a/output_inception_5a/output_0_split -> inception_5a/output_inception_5a/output_0_split_0
I0121 17:48:37.458844  1741 net.cpp:380] inception_5a/output_inception_5a/output_0_split -> inception_5a/output_inception_5a/output_0_split_1
I0121 17:48:37.458917  1741 net.cpp:122] Setting up inception_5a/output_inception_5a/output_0_split
I0121 17:48:37.458935  1741 net.cpp:129] Top shape: 50 160 16 16 (2048000)
I0121 17:48:37.458940  1741 net.cpp:129] Top shape: 50 160 16 16 (2048000)
I0121 17:48:37.458945  1741 net.cpp:137] Memory required for data: 427418200
I0121 17:48:37.458950  1741 layer_factory.hpp:77] Creating layer inception_6a/1x1
I0121 17:48:37.458968  1741 net.cpp:84] Creating Layer inception_6a/1x1
I0121 17:48:37.458983  1741 net.cpp:406] inception_6a/1x1 <- inception_5a/output_inception_5a/output_0_split_0
I0121 17:48:37.458997  1741 net.cpp:380] inception_6a/1x1 -> inception_6a/1x1
I0121 17:48:37.460216  1741 net.cpp:122] Setting up inception_6a/1x1
I0121 17:48:37.460243  1741 net.cpp:129] Top shape: 50 96 16 16 (1228800)
I0121 17:48:37.460249  1741 net.cpp:137] Memory required for data: 432333400
I0121 17:48:37.460261  1741 layer_factory.hpp:77] Creating layer inception_6a/1x1/bn1
I0121 17:48:37.460285  1741 net.cpp:84] Creating Layer inception_6a/1x1/bn1
I0121 17:48:37.460296  1741 net.cpp:406] inception_6a/1x1/bn1 <- inception_6a/1x1
I0121 17:48:37.460306  1741 net.cpp:367] inception_6a/1x1/bn1 -> inception_6a/1x1 (in-place)
I0121 17:48:37.460566  1741 net.cpp:122] Setting up inception_6a/1x1/bn1
I0121 17:48:37.460583  1741 net.cpp:129] Top shape: 50 96 16 16 (1228800)
I0121 17:48:37.460589  1741 net.cpp:137] Memory required for data: 437248600
I0121 17:48:37.460604  1741 layer_factory.hpp:77] Creating layer inception_6a/1x1/scale1
I0121 17:48:37.460623  1741 net.cpp:84] Creating Layer inception_6a/1x1/scale1
I0121 17:48:37.460631  1741 net.cpp:406] inception_6a/1x1/scale1 <- inception_6a/1x1
I0121 17:48:37.460642  1741 net.cpp:367] inception_6a/1x1/scale1 -> inception_6a/1x1 (in-place)
I0121 17:48:37.460714  1741 layer_factory.hpp:77] Creating layer inception_6a/1x1/scale1
I0121 17:48:37.460969  1741 net.cpp:122] Setting up inception_6a/1x1/scale1
I0121 17:48:37.460992  1741 net.cpp:129] Top shape: 50 96 16 16 (1228800)
I0121 17:48:37.461001  1741 net.cpp:137] Memory required for data: 442163800
I0121 17:48:37.461014  1741 layer_factory.hpp:77] Creating layer inception_6a/1x1/relu1
I0121 17:48:37.461036  1741 net.cpp:84] Creating Layer inception_6a/1x1/relu1
I0121 17:48:37.461045  1741 net.cpp:406] inception_6a/1x1/relu1 <- inception_6a/1x1
I0121 17:48:37.461051  1741 net.cpp:367] inception_6a/1x1/relu1 -> inception_6a/1x1 (in-place)
I0121 17:48:37.461366  1741 net.cpp:122] Setting up inception_6a/1x1/relu1
I0121 17:48:37.461392  1741 net.cpp:129] Top shape: 50 96 16 16 (1228800)
I0121 17:48:37.461400  1741 net.cpp:137] Memory required for data: 447079000
I0121 17:48:37.461408  1741 layer_factory.hpp:77] Creating layer inception_6a/3x3
I0121 17:48:37.461431  1741 net.cpp:84] Creating Layer inception_6a/3x3
I0121 17:48:37.461446  1741 net.cpp:406] inception_6a/3x3 <- inception_5a/output_inception_5a/output_0_split_1
I0121 17:48:37.461459  1741 net.cpp:380] inception_6a/3x3 -> inception_6a/3x3
I0121 17:48:37.463119  1741 net.cpp:122] Setting up inception_6a/3x3
I0121 17:48:37.463147  1741 net.cpp:129] Top shape: 50 64 16 16 (819200)
I0121 17:48:37.463156  1741 net.cpp:137] Memory required for data: 450355800
I0121 17:48:37.463191  1741 layer_factory.hpp:77] Creating layer inception_6a/3x3/bn1
I0121 17:48:37.463214  1741 net.cpp:84] Creating Layer inception_6a/3x3/bn1
I0121 17:48:37.463223  1741 net.cpp:406] inception_6a/3x3/bn1 <- inception_6a/3x3
I0121 17:48:37.463243  1741 net.cpp:367] inception_6a/3x3/bn1 -> inception_6a/3x3 (in-place)
I0121 17:48:37.463505  1741 net.cpp:122] Setting up inception_6a/3x3/bn1
I0121 17:48:37.463526  1741 net.cpp:129] Top shape: 50 64 16 16 (819200)
I0121 17:48:37.463532  1741 net.cpp:137] Memory required for data: 453632600
I0121 17:48:37.463547  1741 layer_factory.hpp:77] Creating layer inception_6a/3x3/scale1
I0121 17:48:37.463578  1741 net.cpp:84] Creating Layer inception_6a/3x3/scale1
I0121 17:48:37.463588  1741 net.cpp:406] inception_6a/3x3/scale1 <- inception_6a/3x3
I0121 17:48:37.463598  1741 net.cpp:367] inception_6a/3x3/scale1 -> inception_6a/3x3 (in-place)
I0121 17:48:37.463665  1741 layer_factory.hpp:77] Creating layer inception_6a/3x3/scale1
I0121 17:48:37.463837  1741 net.cpp:122] Setting up inception_6a/3x3/scale1
I0121 17:48:37.463860  1741 net.cpp:129] Top shape: 50 64 16 16 (819200)
I0121 17:48:37.463867  1741 net.cpp:137] Memory required for data: 456909400
I0121 17:48:37.463879  1741 layer_factory.hpp:77] Creating layer inception_6a/3x3/relu1
I0121 17:48:37.463897  1741 net.cpp:84] Creating Layer inception_6a/3x3/relu1
I0121 17:48:37.463907  1741 net.cpp:406] inception_6a/3x3/relu1 <- inception_6a/3x3
I0121 17:48:37.463915  1741 net.cpp:367] inception_6a/3x3/relu1 -> inception_6a/3x3 (in-place)
I0121 17:48:37.464232  1741 net.cpp:122] Setting up inception_6a/3x3/relu1
I0121 17:48:37.464262  1741 net.cpp:129] Top shape: 50 64 16 16 (819200)
I0121 17:48:37.464272  1741 net.cpp:137] Memory required for data: 460186200
I0121 17:48:37.464278  1741 layer_factory.hpp:77] Creating layer inception_6a/output
I0121 17:48:37.464289  1741 net.cpp:84] Creating Layer inception_6a/output
I0121 17:48:37.464304  1741 net.cpp:406] inception_6a/output <- inception_6a/1x1
I0121 17:48:37.464315  1741 net.cpp:406] inception_6a/output <- inception_6a/3x3
I0121 17:48:37.464325  1741 net.cpp:380] inception_6a/output -> inception_6a/output
I0121 17:48:37.464378  1741 net.cpp:122] Setting up inception_6a/output
I0121 17:48:37.464396  1741 net.cpp:129] Top shape: 50 160 16 16 (2048000)
I0121 17:48:37.464404  1741 net.cpp:137] Memory required for data: 468378200
I0121 17:48:37.464411  1741 layer_factory.hpp:77] Creating layer inception_6a/output_inception_6a/output_0_split
I0121 17:48:37.464421  1741 net.cpp:84] Creating Layer inception_6a/output_inception_6a/output_0_split
I0121 17:48:37.464435  1741 net.cpp:406] inception_6a/output_inception_6a/output_0_split <- inception_6a/output
I0121 17:48:37.464447  1741 net.cpp:380] inception_6a/output_inception_6a/output_0_split -> inception_6a/output_inception_6a/output_0_split_0
I0121 17:48:37.464462  1741 net.cpp:380] inception_6a/output_inception_6a/output_0_split -> inception_6a/output_inception_6a/output_0_split_1
I0121 17:48:37.464536  1741 net.cpp:122] Setting up inception_6a/output_inception_6a/output_0_split
I0121 17:48:37.464555  1741 net.cpp:129] Top shape: 50 160 16 16 (2048000)
I0121 17:48:37.464565  1741 net.cpp:129] Top shape: 50 160 16 16 (2048000)
I0121 17:48:37.464570  1741 net.cpp:137] Memory required for data: 484762200
I0121 17:48:37.464581  1741 layer_factory.hpp:77] Creating layer inception_7a/1x1
I0121 17:48:37.464608  1741 net.cpp:84] Creating Layer inception_7a/1x1
I0121 17:48:37.464622  1741 net.cpp:406] inception_7a/1x1 <- inception_6a/output_inception_6a/output_0_split_0
I0121 17:48:37.464643  1741 net.cpp:380] inception_7a/1x1 -> inception_7a/1x1
I0121 17:48:37.466055  1741 net.cpp:122] Setting up inception_7a/1x1
I0121 17:48:37.466085  1741 net.cpp:129] Top shape: 50 80 16 16 (1024000)
I0121 17:48:37.466094  1741 net.cpp:137] Memory required for data: 488858200
I0121 17:48:37.466107  1741 layer_factory.hpp:77] Creating layer inception_7a/1x1/bn1
I0121 17:48:37.466135  1741 net.cpp:84] Creating Layer inception_7a/1x1/bn1
I0121 17:48:37.466143  1741 net.cpp:406] inception_7a/1x1/bn1 <- inception_7a/1x1
I0121 17:48:37.466158  1741 net.cpp:367] inception_7a/1x1/bn1 -> inception_7a/1x1 (in-place)
I0121 17:48:37.466439  1741 net.cpp:122] Setting up inception_7a/1x1/bn1
I0121 17:48:37.466457  1741 net.cpp:129] Top shape: 50 80 16 16 (1024000)
I0121 17:48:37.466465  1741 net.cpp:137] Memory required for data: 492954200
I0121 17:48:37.466480  1741 layer_factory.hpp:77] Creating layer inception_7a/1x1/scale1
I0121 17:48:37.466500  1741 net.cpp:84] Creating Layer inception_7a/1x1/scale1
I0121 17:48:37.466506  1741 net.cpp:406] inception_7a/1x1/scale1 <- inception_7a/1x1
I0121 17:48:37.466537  1741 net.cpp:367] inception_7a/1x1/scale1 -> inception_7a/1x1 (in-place)
I0121 17:48:37.466614  1741 layer_factory.hpp:77] Creating layer inception_7a/1x1/scale1
I0121 17:48:37.466790  1741 net.cpp:122] Setting up inception_7a/1x1/scale1
I0121 17:48:37.466809  1741 net.cpp:129] Top shape: 50 80 16 16 (1024000)
I0121 17:48:37.466817  1741 net.cpp:137] Memory required for data: 497050200
I0121 17:48:37.466830  1741 layer_factory.hpp:77] Creating layer inception_7a/1x1/relu1
I0121 17:48:37.466848  1741 net.cpp:84] Creating Layer inception_7a/1x1/relu1
I0121 17:48:37.466856  1741 net.cpp:406] inception_7a/1x1/relu1 <- inception_7a/1x1
I0121 17:48:37.466868  1741 net.cpp:367] inception_7a/1x1/relu1 -> inception_7a/1x1 (in-place)
I0121 17:48:37.467046  1741 net.cpp:122] Setting up inception_7a/1x1/relu1
I0121 17:48:37.467067  1741 net.cpp:129] Top shape: 50 80 16 16 (1024000)
I0121 17:48:37.467075  1741 net.cpp:137] Memory required for data: 501146200
I0121 17:48:37.467082  1741 layer_factory.hpp:77] Creating layer inception_7a/3x3
I0121 17:48:37.467098  1741 net.cpp:84] Creating Layer inception_7a/3x3
I0121 17:48:37.467113  1741 net.cpp:406] inception_7a/3x3 <- inception_6a/output_inception_6a/output_0_split_1
I0121 17:48:37.467129  1741 net.cpp:380] inception_7a/3x3 -> inception_7a/3x3
I0121 17:48:37.468955  1741 net.cpp:122] Setting up inception_7a/3x3
I0121 17:48:37.468984  1741 net.cpp:129] Top shape: 50 80 16 16 (1024000)
I0121 17:48:37.468992  1741 net.cpp:137] Memory required for data: 505242200
I0121 17:48:37.469005  1741 layer_factory.hpp:77] Creating layer inception_7a/3x3/bn1
I0121 17:48:37.469033  1741 net.cpp:84] Creating Layer inception_7a/3x3/bn1
I0121 17:48:37.469044  1741 net.cpp:406] inception_7a/3x3/bn1 <- inception_7a/3x3
I0121 17:48:37.469058  1741 net.cpp:367] inception_7a/3x3/bn1 -> inception_7a/3x3 (in-place)
I0121 17:48:37.469334  1741 net.cpp:122] Setting up inception_7a/3x3/bn1
I0121 17:48:37.469353  1741 net.cpp:129] Top shape: 50 80 16 16 (1024000)
I0121 17:48:37.469362  1741 net.cpp:137] Memory required for data: 509338200
I0121 17:48:37.469375  1741 layer_factory.hpp:77] Creating layer inception_7a/3x3/scale1
I0121 17:48:37.469398  1741 net.cpp:84] Creating Layer inception_7a/3x3/scale1
I0121 17:48:37.469405  1741 net.cpp:406] inception_7a/3x3/scale1 <- inception_7a/3x3
I0121 17:48:37.469424  1741 net.cpp:367] inception_7a/3x3/scale1 -> inception_7a/3x3 (in-place)
I0121 17:48:37.469494  1741 layer_factory.hpp:77] Creating layer inception_7a/3x3/scale1
I0121 17:48:37.469674  1741 net.cpp:122] Setting up inception_7a/3x3/scale1
I0121 17:48:37.469693  1741 net.cpp:129] Top shape: 50 80 16 16 (1024000)
I0121 17:48:37.469702  1741 net.cpp:137] Memory required for data: 513434200
I0121 17:48:37.469714  1741 layer_factory.hpp:77] Creating layer inception_7a/3x3/relu1
I0121 17:48:37.469732  1741 net.cpp:84] Creating Layer inception_7a/3x3/relu1
I0121 17:48:37.469740  1741 net.cpp:406] inception_7a/3x3/relu1 <- inception_7a/3x3
I0121 17:48:37.469754  1741 net.cpp:367] inception_7a/3x3/relu1 -> inception_7a/3x3 (in-place)
I0121 17:48:37.470098  1741 net.cpp:122] Setting up inception_7a/3x3/relu1
I0121 17:48:37.470124  1741 net.cpp:129] Top shape: 50 80 16 16 (1024000)
I0121 17:48:37.470134  1741 net.cpp:137] Memory required for data: 517530200
I0121 17:48:37.470141  1741 layer_factory.hpp:77] Creating layer inception_7a/output
I0121 17:48:37.470151  1741 net.cpp:84] Creating Layer inception_7a/output
I0121 17:48:37.470161  1741 net.cpp:406] inception_7a/output <- inception_7a/1x1
I0121 17:48:37.470170  1741 net.cpp:406] inception_7a/output <- inception_7a/3x3
I0121 17:48:37.470182  1741 net.cpp:380] inception_7a/output -> inception_7a/output
I0121 17:48:37.470225  1741 net.cpp:122] Setting up inception_7a/output
I0121 17:48:37.470247  1741 net.cpp:129] Top shape: 50 160 16 16 (2048000)
I0121 17:48:37.470254  1741 net.cpp:137] Memory required for data: 525722200
I0121 17:48:37.470263  1741 layer_factory.hpp:77] Creating layer inception_7a/output_inception_7a/output_0_split
I0121 17:48:37.470273  1741 net.cpp:84] Creating Layer inception_7a/output_inception_7a/output_0_split
I0121 17:48:37.470299  1741 net.cpp:406] inception_7a/output_inception_7a/output_0_split <- inception_7a/output
I0121 17:48:37.470311  1741 net.cpp:380] inception_7a/output_inception_7a/output_0_split -> inception_7a/output_inception_7a/output_0_split_0
I0121 17:48:37.470324  1741 net.cpp:380] inception_7a/output_inception_7a/output_0_split -> inception_7a/output_inception_7a/output_0_split_1
I0121 17:48:37.470396  1741 net.cpp:122] Setting up inception_7a/output_inception_7a/output_0_split
I0121 17:48:37.470415  1741 net.cpp:129] Top shape: 50 160 16 16 (2048000)
I0121 17:48:37.470424  1741 net.cpp:129] Top shape: 50 160 16 16 (2048000)
I0121 17:48:37.470432  1741 net.cpp:137] Memory required for data: 542106200
I0121 17:48:37.470439  1741 layer_factory.hpp:77] Creating layer inception_8a/1x1
I0121 17:48:37.470471  1741 net.cpp:84] Creating Layer inception_8a/1x1
I0121 17:48:37.470486  1741 net.cpp:406] inception_8a/1x1 <- inception_7a/output_inception_7a/output_0_split_0
I0121 17:48:37.470504  1741 net.cpp:380] inception_8a/1x1 -> inception_8a/1x1
I0121 17:48:37.471719  1741 net.cpp:122] Setting up inception_8a/1x1
I0121 17:48:37.471746  1741 net.cpp:129] Top shape: 50 48 16 16 (614400)
I0121 17:48:37.471751  1741 net.cpp:137] Memory required for data: 544563800
I0121 17:48:37.471765  1741 layer_factory.hpp:77] Creating layer inception_8a/1x1/bn1
I0121 17:48:37.471789  1741 net.cpp:84] Creating Layer inception_8a/1x1/bn1
I0121 17:48:37.471799  1741 net.cpp:406] inception_8a/1x1/bn1 <- inception_8a/1x1
I0121 17:48:37.471812  1741 net.cpp:367] inception_8a/1x1/bn1 -> inception_8a/1x1 (in-place)
…
I0121 22:32:42.988780  1946 net.cpp:367] inception_3a/3x3/relu1 -> inception_3a/3x3 (in-place)
I0121 22:32:42.988942  1946 net.cpp:122] Setting up inception_3a/3x3/relu1
I0121 22:32:42.988966  1946 net.cpp:129] Top shape: 1 48 32 32 (49152)
I0121 22:32:42.988973  1946 net.cpp:137] Memory required for data: 5517312
I0121 22:32:42.988981  1946 layer_factory.hpp:77] Creating layer inception_3a/output
I0121 22:32:42.988991  1946 net.cpp:84] Creating Layer inception_3a/output
I0121 22:32:42.989003  1946 net.cpp:406] inception_3a/output <- inception_3a/1x1
I0121 22:32:42.989013  1946 net.cpp:406] inception_3a/output <- inception_3a/3x3
I0121 22:32:42.989027  1946 net.cpp:380] inception_3a/output -> inception_3a/output
I0121 22:32:42.989073  1946 net.cpp:122] Setting up inception_3a/output
I0121 22:32:42.989095  1946 net.cpp:129] Top shape: 1 80 32 32 (81920)
I0121 22:32:42.989104  1946 net.cpp:137] Memory required for data: 5844992
I0121 22:32:42.989109  1946 layer_factory.hpp:77] Creating layer inception_3a/output_inception_3a/output_0_split
I0121 22:32:42.989120  1946 net.cpp:84] Creating Layer inception_3a/output_inception_3a/output_0_split
I0121 22:32:42.989126  1946 net.cpp:406] inception_3a/output_inception_3a/output_0_split <- inception_3a/output
I0121 22:32:42.989135  1946 net.cpp:380] inception_3a/output_inception_3a/output_0_split -> inception_3a/output_inception_3a/output_0_split_0
I0121 22:32:42.989145  1946 net.cpp:380] inception_3a/output_inception_3a/output_0_split -> inception_3a/output_inception_3a/output_0_split_1
I0121 22:32:42.989209  1946 net.cpp:122] Setting up inception_3a/output_inception_3a/output_0_split
I0121 22:32:42.989229  1946 net.cpp:129] Top shape: 1 80 32 32 (81920)
I0121 22:32:42.989238  1946 net.cpp:129] Top shape: 1 80 32 32 (81920)
I0121 22:32:42.989243  1946 net.cpp:137] Memory required for data: 6500352
I0121 22:32:42.989250  1946 layer_factory.hpp:77] Creating layer downsample_4/3x3_s2
I0121 22:32:42.989269  1946 net.cpp:84] Creating Layer downsample_4/3x3_s2
I0121 22:32:42.989284  1946 net.cpp:406] downsample_4/3x3_s2 <- inception_3a/output_inception_3a/output_0_split_0
I0121 22:32:42.989300  1946 net.cpp:380] downsample_4/3x3_s2 -> downsample_4/3x3_s2
I0121 22:32:42.990542  1946 net.cpp:122] Setting up downsample_4/3x3_s2
I0121 22:32:42.990572  1946 net.cpp:129] Top shape: 1 80 16 16 (20480)
I0121 22:32:42.990581  1946 net.cpp:137] Memory required for data: 6582272
I0121 22:32:42.990593  1946 layer_factory.hpp:77] Creating layer downsample_4/3x3_s2/bn1
I0121 22:32:42.990610  1946 net.cpp:84] Creating Layer downsample_4/3x3_s2/bn1
I0121 22:32:42.990625  1946 net.cpp:406] downsample_4/3x3_s2/bn1 <- downsample_4/3x3_s2
I0121 22:32:42.990638  1946 net.cpp:367] downsample_4/3x3_s2/bn1 -> downsample_4/3x3_s2 (in-place)
I0121 22:32:42.990860  1946 net.cpp:122] Setting up downsample_4/3x3_s2/bn1
I0121 22:32:42.990880  1946 net.cpp:129] Top shape: 1 80 16 16 (20480)
I0121 22:32:42.990888  1946 net.cpp:137] Memory required for data: 6664192
I0121 22:32:42.990902  1946 layer_factory.hpp:77] Creating layer downsample_4/3x3_s2/scale1
I0121 22:32:42.990919  1946 net.cpp:84] Creating Layer downsample_4/3x3_s2/scale1
I0121 22:32:42.990927  1946 net.cpp:406] downsample_4/3x3_s2/scale1 <- downsample_4/3x3_s2
I0121 22:32:42.990937  1946 net.cpp:367] downsample_4/3x3_s2/scale1 -> downsample_4/3x3_s2 (in-place)
I0121 22:32:42.990999  1946 layer_factory.hpp:77] Creating layer downsample_4/3x3_s2/scale1
I0121 22:32:42.991142  1946 net.cpp:122] Setting up downsample_4/3x3_s2/scale1
I0121 22:32:42.991160  1946 net.cpp:129] Top shape: 1 80 16 16 (20480)
I0121 22:32:42.991168  1946 net.cpp:137] Memory required for data: 6746112
I0121 22:32:42.991180  1946 layer_factory.hpp:77] Creating layer downsample_4/3x3_s2/relu1
I0121 22:32:42.991197  1946 net.cpp:84] Creating Layer downsample_4/3x3_s2/relu1
I0121 22:32:42.991205  1946 net.cpp:406] downsample_4/3x3_s2/relu1 <- downsample_4/3x3_s2
I0121 22:32:42.991217  1946 net.cpp:367] downsample_4/3x3_s2/relu1 -> downsample_4/3x3_s2 (in-place)
I0121 22:32:42.991509  1946 net.cpp:122] Setting up downsample_4/3x3_s2/relu1
I0121 22:32:42.991535  1946 net.cpp:129] Top shape: 1 80 16 16 (20480)
I0121 22:32:42.991544  1946 net.cpp:137] Memory required for data: 6828032
I0121 22:32:42.991550  1946 layer_factory.hpp:77] Creating layer downsample_4/pool_s2
I0121 22:32:42.991564  1946 net.cpp:84] Creating Layer downsample_4/pool_s2
I0121 22:32:42.991577  1946 net.cpp:406] downsample_4/pool_s2 <- inception_3a/output_inception_3a/output_0_split_1
I0121 22:32:42.991592  1946 net.cpp:380] downsample_4/pool_s2 -> downsample_4/pool_s2
I0121 22:32:42.991662  1946 net.cpp:122] Setting up downsample_4/pool_s2
I0121 22:32:42.991683  1946 net.cpp:129] Top shape: 1 80 16 16 (20480)
I0121 22:32:42.991689  1946 net.cpp:137] Memory required for data: 6909952
I0121 22:32:42.991695  1946 layer_factory.hpp:77] Creating layer downsample_4/output
I0121 22:32:42.991706  1946 net.cpp:84] Creating Layer downsample_4/output
I0121 22:32:42.991719  1946 net.cpp:406] downsample_4/output <- downsample_4/3x3_s2
I0121 22:32:42.991729  1946 net.cpp:406] downsample_4/output <- downsample_4/pool_s2
I0121 22:32:42.991740  1946 net.cpp:380] downsample_4/output -> downsample_4/output
I0121 22:32:42.991793  1946 net.cpp:122] Setting up downsample_4/output
I0121 22:32:42.991811  1946 net.cpp:129] Top shape: 1 160 16 16 (40960)
I0121 22:32:42.991818  1946 net.cpp:137] Memory required for data: 7073792
I0121 22:32:42.991824  1946 layer_factory.hpp:77] Creating layer downsample_4/output_downsample_4/output_0_split
I0121 22:32:42.991842  1946 net.cpp:84] Creating Layer downsample_4/output_downsample_4/output_0_split
I0121 22:32:42.991854  1946 net.cpp:406] downsample_4/output_downsample_4/output_0_split <- downsample_4/output
I0121 22:32:42.991865  1946 net.cpp:380] downsample_4/output_downsample_4/output_0_split -> downsample_4/output_downsample_4/output_0_split_0
I0121 22:32:42.991875  1946 net.cpp:380] downsample_4/output_downsample_4/output_0_split -> downsample_4/output_downsample_4/output_0_split_1
I0121 22:32:42.991941  1946 net.cpp:122] Setting up downsample_4/output_downsample_4/output_0_split
I0121 22:32:42.991961  1946 net.cpp:129] Top shape: 1 160 16 16 (40960)
I0121 22:32:42.991969  1946 net.cpp:129] Top shape: 1 160 16 16 (40960)
I0121 22:32:42.991976  1946 net.cpp:137] Memory required for data: 7401472
I0121 22:32:42.991982  1946 layer_factory.hpp:77] Creating layer inception_5a/1x1
I0121 22:32:42.992007  1946 net.cpp:84] Creating Layer inception_5a/1x1
I0121 22:32:42.992022  1946 net.cpp:406] inception_5a/1x1 <- downsample_4/output_downsample_4/output_0_split_0
I0121 22:32:42.992034  1946 net.cpp:380] inception_5a/1x1 -> inception_5a/1x1
I0121 22:32:42.993083  1946 net.cpp:122] Setting up inception_5a/1x1
I0121 22:32:42.993111  1946 net.cpp:129] Top shape: 1 112 16 16 (28672)
I0121 22:32:42.993119  1946 net.cpp:137] Memory required for data: 7516160
I0121 22:32:42.993132  1946 layer_factory.hpp:77] Creating layer inception_5a/1x1/bn1
I0121 22:32:42.993149  1946 net.cpp:84] Creating Layer inception_5a/1x1/bn1
I0121 22:32:42.993163  1946 net.cpp:406] inception_5a/1x1/bn1 <- inception_5a/1x1
I0121 22:32:42.993180  1946 net.cpp:367] inception_5a/1x1/bn1 -> inception_5a/1x1 (in-place)
I0121 22:32:42.993393  1946 net.cpp:122] Setting up inception_5a/1x1/bn1
I0121 22:32:42.993414  1946 net.cpp:129] Top shape: 1 112 16 16 (28672)
I0121 22:32:42.993422  1946 net.cpp:137] Memory required for data: 7630848
I0121 22:32:42.993434  1946 layer_factory.hpp:77] Creating layer inception_5a/1x1/scale1
I0121 22:32:42.993458  1946 net.cpp:84] Creating Layer inception_5a/1x1/scale1
I0121 22:32:42.993466  1946 net.cpp:406] inception_5a/1x1/scale1 <- inception_5a/1x1
I0121 22:32:42.993475  1946 net.cpp:367] inception_5a/1x1/scale1 -> inception_5a/1x1 (in-place)
I0121 22:32:42.993544  1946 layer_factory.hpp:77] Creating layer inception_5a/1x1/scale1
I0121 22:32:42.993687  1946 net.cpp:122] Setting up inception_5a/1x1/scale1
I0121 22:32:42.993707  1946 net.cpp:129] Top shape: 1 112 16 16 (28672)
I0121 22:32:42.993715  1946 net.cpp:137] Memory required for data: 7745536
I0121 22:32:42.993726  1946 layer_factory.hpp:77] Creating layer inception_5a/1x1/relu1
I0121 22:32:42.993746  1946 net.cpp:84] Creating Layer inception_5a/1x1/relu1
I0121 22:32:42.993754  1946 net.cpp:406] inception_5a/1x1/relu1 <- inception_5a/1x1
I0121 22:32:42.993785  1946 net.cpp:367] inception_5a/1x1/relu1 -> inception_5a/1x1 (in-place)
I0121 22:32:42.993943  1946 net.cpp:122] Setting up inception_5a/1x1/relu1
I0121 22:32:42.993966  1946 net.cpp:129] Top shape: 1 112 16 16 (28672)
I0121 22:32:42.993974  1946 net.cpp:137] Memory required for data: 7860224
I0121 22:32:42.993981  1946 layer_factory.hpp:77] Creating layer inception_5a/3x3
I0121 22:32:42.994000  1946 net.cpp:84] Creating Layer inception_5a/3x3
I0121 22:32:42.994014  1946 net.cpp:406] inception_5a/3x3 <- downsample_4/output_downsample_4/output_0_split_1
I0121 22:32:42.994029  1946 net.cpp:380] inception_5a/3x3 -> inception_5a/3x3
I0121 22:32:42.996016  1946 net.cpp:122] Setting up inception_5a/3x3
I0121 22:32:42.996047  1946 net.cpp:129] Top shape: 1 48 16 16 (12288)
I0121 22:32:42.996055  1946 net.cpp:137] Memory required for data: 7909376
I0121 22:32:42.996068  1946 layer_factory.hpp:77] Creating layer inception_5a/3x3/bn1
I0121 22:32:42.996081  1946 net.cpp:84] Creating Layer inception_5a/3x3/bn1
I0121 22:32:42.996096  1946 net.cpp:406] inception_5a/3x3/bn1 <- inception_5a/3x3
I0121 22:32:42.996112  1946 net.cpp:367] inception_5a/3x3/bn1 -> inception_5a/3x3 (in-place)
I0121 22:32:42.996342  1946 net.cpp:122] Setting up inception_5a/3x3/bn1
I0121 22:32:42.996363  1946 net.cpp:129] Top shape: 1 48 16 16 (12288)
I0121 22:32:42.996371  1946 net.cpp:137] Memory required for data: 7958528
I0121 22:32:42.996385  1946 layer_factory.hpp:77] Creating layer inception_5a/3x3/scale1
I0121 22:32:42.996405  1946 net.cpp:84] Creating Layer inception_5a/3x3/scale1
I0121 22:32:42.996412  1946 net.cpp:406] inception_5a/3x3/scale1 <- inception_5a/3x3
I0121 22:32:42.996421  1946 net.cpp:367] inception_5a/3x3/scale1 -> inception_5a/3x3 (in-place)
I0121 22:32:42.996487  1946 layer_factory.hpp:77] Creating layer inception_5a/3x3/scale1
I0121 22:32:42.996632  1946 net.cpp:122] Setting up inception_5a/3x3/scale1
I0121 22:32:42.996655  1946 net.cpp:129] Top shape: 1 48 16 16 (12288)
I0121 22:32:42.996662  1946 net.cpp:137] Memory required for data: 8007680
I0121 22:32:42.996675  1946 layer_factory.hpp:77] Creating layer inception_5a/3x3/relu1
I0121 22:32:42.996691  1946 net.cpp:84] Creating Layer inception_5a/3x3/relu1
I0121 22:32:42.996700  1946 net.cpp:406] inception_5a/3x3/relu1 <- inception_5a/3x3
I0121 22:32:42.996707  1946 net.cpp:367] inception_5a/3x3/relu1 -> inception_5a/3x3 (in-place)
I0121 22:32:42.997123  1946 net.cpp:122] Setting up inception_5a/3x3/relu1
I0121 22:32:42.997150  1946 net.cpp:129] Top shape: 1 48 16 16 (12288)
I0121 22:32:42.997162  1946 net.cpp:137] Memory required for data: 8056832
I0121 22:32:42.997169  1946 layer_factory.hpp:77] Creating layer inception_5a/output
I0121 22:32:42.997179  1946 net.cpp:84] Creating Layer inception_5a/output
I0121 22:32:42.997195  1946 net.cpp:406] inception_5a/output <- inception_5a/1x1
I0121 22:32:42.997205  1946 net.cpp:406] inception_5a/output <- inception_5a/3x3
I0121 22:32:42.997213  1946 net.cpp:380] inception_5a/output -> inception_5a/output
I0121 22:32:42.997261  1946 net.cpp:122] Setting up inception_5a/output
I0121 22:32:42.997284  1946 net.cpp:129] Top shape: 1 160 16 16 (40960)
I0121 22:32:42.997292  1946 net.cpp:137] Memory required for data: 8220672
I0121 22:32:42.997298  1946 layer_factory.hpp:77] Creating layer inception_5a/output_inception_5a/output_0_split
I0121 22:32:42.997316  1946 net.cpp:84] Creating Layer inception_5a/output_inception_5a/output_0_split
I0121 22:32:42.997324  1946 net.cpp:406] inception_5a/output_inception_5a/output_0_split <- inception_5a/output
I0121 22:32:42.997334  1946 net.cpp:380] inception_5a/output_inception_5a/output_0_split -> inception_5a/output_inception_5a/output_0_split_0
I0121 22:32:42.997354  1946 net.cpp:380] inception_5a/output_inception_5a/output_0_split -> inception_5a/output_inception_5a/output_0_split_1
I0121 22:32:42.997418  1946 net.cpp:122] Setting up inception_5a/output_inception_5a/output_0_split
I0121 22:32:42.997437  1946 net.cpp:129] Top shape: 1 160 16 16 (40960)
I0121 22:32:42.997447  1946 net.cpp:129] Top shape: 1 160 16 16 (40960)
I0121 22:32:42.997452  1946 net.cpp:137] Memory required for data: 8548352
I0121 22:32:42.997459  1946 layer_factory.hpp:77] Creating layer inception_6a/1x1
I0121 22:32:42.997483  1946 net.cpp:84] Creating Layer inception_6a/1x1
I0121 22:32:42.997493  1946 net.cpp:406] inception_6a/1x1 <- inception_5a/output_inception_5a/output_0_split_0
I0121 22:32:42.997514  1946 net.cpp:380] inception_6a/1x1 -> inception_6a/1x1
I0121 22:32:42.999172  1946 net.cpp:122] Setting up inception_6a/1x1
I0121 22:32:42.999202  1946 net.cpp:129] Top shape: 1 96 16 16 (24576)
I0121 22:32:42.999212  1946 net.cpp:137] Memory required for data: 8646656
I0121 22:32:42.999223  1946 layer_factory.hpp:77] Creating layer inception_6a/1x1/bn1
I0121 22:32:42.999243  1946 net.cpp:84] Creating Layer inception_6a/1x1/bn1
I0121 22:32:42.999258  1946 net.cpp:406] inception_6a/1x1/bn1 <- inception_6a/1x1
I0121 22:32:42.999269  1946 net.cpp:367] inception_6a/1x1/bn1 -> inception_6a/1x1 (in-place)
I0121 22:32:42.999497  1946 net.cpp:122] Setting up inception_6a/1x1/bn1
I0121 22:32:42.999517  1946 net.cpp:129] Top shape: 1 96 16 16 (24576)
I0121 22:32:42.999526  1946 net.cpp:137] Memory required for data: 8744960
I0121 22:32:42.999539  1946 layer_factory.hpp:77] Creating layer inception_6a/1x1/scale1
I0121 22:32:42.999557  1946 net.cpp:84] Creating Layer inception_6a/1x1/scale1
I0121 22:32:42.999564  1946 net.cpp:406] inception_6a/1x1/scale1 <- inception_6a/1x1
I0121 22:32:42.999583  1946 net.cpp:367] inception_6a/1x1/scale1 -> inception_6a/1x1 (in-place)
I0121 22:32:42.999652  1946 layer_factory.hpp:77] Creating layer inception_6a/1x1/scale1
I0121 22:32:42.999802  1946 net.cpp:122] Setting up inception_6a/1x1/scale1
I0121 22:32:42.999821  1946 net.cpp:129] Top shape: 1 96 16 16 (24576)
I0121 22:32:42.999828  1946 net.cpp:137] Memory required for data: 8843264
I0121 22:32:42.999840  1946 layer_factory.hpp:77] Creating layer inception_6a/1x1/relu1
I0121 22:32:42.999857  1946 net.cpp:84] Creating Layer inception_6a/1x1/relu1
I0121 22:32:42.999866  1946 net.cpp:406] inception_6a/1x1/relu1 <- inception_6a/1x1
I0121 22:32:42.999878  1946 net.cpp:367] inception_6a/1x1/relu1 -> inception_6a/1x1 (in-place)
I0121 22:32:43.000161  1946 net.cpp:122] Setting up inception_6a/1x1/relu1
I0121 22:32:43.000188  1946 net.cpp:129] Top shape: 1 96 16 16 (24576)
I0121 22:32:43.000195  1946 net.cpp:137] Memory required for data: 8941568
I0121 22:32:43.000202  1946 layer_factory.hpp:77] Creating layer inception_6a/3x3
I0121 22:32:43.000221  1946 net.cpp:84] Creating Layer inception_6a/3x3
I0121 22:32:43.000236  1946 net.cpp:406] inception_6a/3x3 <- inception_5a/output_inception_5a/output_0_split_1
I0121 22:32:43.000252  1946 net.cpp:380] inception_6a/3x3 -> inception_6a/3x3
I0121 22:32:43.001678  1946 net.cpp:122] Setting up inception_6a/3x3
I0121 22:32:43.001708  1946 net.cpp:129] Top shape: 1 64 16 16 (16384)
I0121 22:32:43.001715  1946 net.cpp:137] Memory required for data: 9007104
I0121 22:32:43.001744  1946 layer_factory.hpp:77] Creating layer inception_6a/3x3/bn1
I0121 22:32:43.001806  1946 net.cpp:84] Creating Layer inception_6a/3x3/bn1
I0121 22:32:43.001819  1946 net.cpp:406] inception_6a/3x3/bn1 <- inception_6a/3x3
I0121 22:32:43.001837  1946 net.cpp:367] inception_6a/3x3/bn1 -> inception_6a/3x3 (in-place)
I0121 22:32:43.002050  1946 net.cpp:122] Setting up inception_6a/3x3/bn1
I0121 22:32:43.002060  1946 net.cpp:129] Top shape: 1 64 16 16 (16384)
I0121 22:32:43.002064  1946 net.cpp:137] Memory required for data: 9072640
I0121 22:32:43.002074  1946 layer_factory.hpp:77] Creating layer inception_6a/3x3/scale1
I0121 22:32:43.002081  1946 net.cpp:84] Creating Layer inception_6a/3x3/scale1
I0121 22:32:43.002086  1946 net.cpp:406] inception_6a/3x3/scale1 <- inception_6a/3x3
I0121 22:32:43.002094  1946 net.cpp:367] inception_6a/3x3/scale1 -> inception_6a/3x3 (in-place)
I0121 22:32:43.002135  1946 layer_factory.hpp:77] Creating layer inception_6a/3x3/scale1
I0121 22:32:43.002251  1946 net.cpp:122] Setting up inception_6a/3x3/scale1
I0121 22:32:43.002260  1946 net.cpp:129] Top shape: 1 64 16 16 (16384)
I0121 22:32:43.002264  1946 net.cpp:137] Memory required for data: 9138176
I0121 22:32:43.002270  1946 layer_factory.hpp:77] Creating layer inception_6a/3x3/relu1
I0121 22:32:43.002277  1946 net.cpp:84] Creating Layer inception_6a/3x3/relu1
I0121 22:32:43.002281  1946 net.cpp:406] inception_6a/3x3/relu1 <- inception_6a/3x3
I0121 22:32:43.002288  1946 net.cpp:367] inception_6a/3x3/relu1 -> inception_6a/3x3 (in-place)
I0121 22:32:43.002434  1946 net.cpp:122] Setting up inception_6a/3x3/relu1
I0121 22:32:43.002445  1946 net.cpp:129] Top shape: 1 64 16 16 (16384)
I0121 22:32:43.002449  1946 net.cpp:137] Memory required for data: 9203712
I0121 22:32:43.002454  1946 layer_factory.hpp:77] Creating layer inception_6a/output
I0121 22:32:43.002460  1946 net.cpp:84] Creating Layer inception_6a/output
I0121 22:32:43.002465  1946 net.cpp:406] inception_6a/output <- inception_6a/1x1
I0121 22:32:43.002470  1946 net.cpp:406] inception_6a/output <- inception_6a/3x3
I0121 22:32:43.002480  1946 net.cpp:380] inception_6a/output -> inception_6a/output
I0121 22:32:43.002506  1946 net.cpp:122] Setting up inception_6a/output
I0121 22:32:43.002513  1946 net.cpp:129] Top shape: 1 160 16 16 (40960)
I0121 22:32:43.002517  1946 net.cpp:137] Memory required for data: 9367552
I0121 22:32:43.002521  1946 layer_factory.hpp:77] Creating layer inception_6a/output_inception_6a/output_0_split
I0121 22:32:43.002527  1946 net.cpp:84] Creating Layer inception_6a/output_inception_6a/output_0_split
I0121 22:32:43.002532  1946 net.cpp:406] inception_6a/output_inception_6a/output_0_split <- inception_6a/output
I0121 22:32:43.002537  1946 net.cpp:380] inception_6a/output_inception_6a/output_0_split -> inception_6a/output_inception_6a/output_0_split_0
I0121 22:32:43.002543  1946 net.cpp:380] inception_6a/output_inception_6a/output_0_split -> inception_6a/output_inception_6a/output_0_split_1
I0121 22:32:43.002583  1946 net.cpp:122] Setting up inception_6a/output_inception_6a/output_0_split
I0121 22:32:43.002590  1946 net.cpp:129] Top shape: 1 160 16 16 (40960)
I0121 22:32:43.002595  1946 net.cpp:129] Top shape: 1 160 16 16 (40960)
I0121 22:32:43.002599  1946 net.cpp:137] Memory required for data: 9695232
I0121 22:32:43.002604  1946 layer_factory.hpp:77] Creating layer inception_7a/1x1
I0121 22:32:43.002614  1946 net.cpp:84] Creating Layer inception_7a/1x1
I0121 22:32:43.002619  1946 net.cpp:406] inception_7a/1x1 <- inception_6a/output_inception_6a/output_0_split_0
I0121 22:32:43.002627  1946 net.cpp:380] inception_7a/1x1 -> inception_7a/1x1
I0121 22:32:43.003701  1946 net.cpp:122] Setting up inception_7a/1x1
I0121 22:32:43.003731  1946 net.cpp:129] Top shape: 1 80 16 16 (20480)
I0121 22:32:43.003736  1946 net.cpp:137] Memory required for data: 9777152
I0121 22:32:43.003746  1946 layer_factory.hpp:77] Creating layer inception_7a/1x1/bn1
I0121 22:32:43.003754  1946 net.cpp:84] Creating Layer inception_7a/1x1/bn1
I0121 22:32:43.003762  1946 net.cpp:406] inception_7a/1x1/bn1 <- inception_7a/1x1
I0121 22:32:43.003777  1946 net.cpp:367] inception_7a/1x1/bn1 -> inception_7a/1x1 (in-place)
I0121 22:32:43.004026  1946 net.cpp:122] Setting up inception_7a/1x1/bn1
I0121 22:32:43.004045  1946 net.cpp:129] Top shape: 1 80 16 16 (20480)
I0121 22:32:43.004050  1946 net.cpp:137] Memory required for data: 9859072
I0121 22:32:43.004060  1946 layer_factory.hpp:77] Creating layer inception_7a/1x1/scale1
I0121 22:32:43.004066  1946 net.cpp:84] Creating Layer inception_7a/1x1/scale1
I0121 22:32:43.004073  1946 net.cpp:406] inception_7a/1x1/scale1 <- inception_7a/1x1
I0121 22:32:43.004079  1946 net.cpp:367] inception_7a/1x1/scale1 -> inception_7a/1x1 (in-place)
I0121 22:32:43.004144  1946 layer_factory.hpp:77] Creating layer inception_7a/1x1/scale1
I0121 22:32:43.004297  1946 net.cpp:122] Setting up inception_7a/1x1/scale1
I0121 22:32:43.004315  1946 net.cpp:129] Top shape: 1 80 16 16 (20480)
I0121 22:32:43.004319  1946 net.cpp:137] Memory required for data: 9940992
I0121 22:32:43.004328  1946 layer_factory.hpp:77] Creating layer inception_7a/1x1/relu1
I0121 22:32:43.004338  1946 net.cpp:84] Creating Layer inception_7a/1x1/relu1
I0121 22:32:43.004353  1946 net.cpp:406] inception_7a/1x1/relu1 <- inception_7a/1x1
I0121 22:32:43.004362  1946 net.cpp:367] inception_7a/1x1/relu1 -> inception_7a/1x1 (in-place)
I0121 22:32:43.004657  1946 net.cpp:122] Setting up inception_7a/1x1/relu1
I0121 22:32:43.004680  1946 net.cpp:129] Top shape: 1 80 16 16 (20480)
I0121 22:32:43.004684  1946 net.cpp:137] Memory required for data: 10022912
I0121 22:32:43.004689  1946 layer_factory.hpp:77] Creating layer inception_7a/3x3
I0121 22:32:43.004704  1946 net.cpp:84] Creating Layer inception_7a/3x3
I0121 22:32:43.004711  1946 net.cpp:406] inception_7a/3x3 <- inception_6a/output_inception_6a/output_0_split_1
I0121 22:32:43.004727  1946 net.cpp:380] inception_7a/3x3 -> inception_7a/3x3
I0121 22:32:43.007040  1946 net.cpp:122] Setting up inception_7a/3x3
I0121 22:32:43.007068  1946 net.cpp:129] Top shape: 1 80 16 16 (20480)
I0121 22:32:43.007073  1946 net.cpp:137] Memory required for data: 10104832
I0121 22:32:43.007081  1946 layer_factory.hpp:77] Creating layer inception_7a/3x3/bn1
I0121 22:32:43.007097  1946 net.cpp:84] Creating Layer inception_7a/3x3/bn1
I0121 22:32:43.007114  1946 net.cpp:406] inception_7a/3x3/bn1 <- inception_7a/3x3
I0121 22:32:43.007127  1946 net.cpp:367] inception_7a/3x3/bn1 -> inception_7a/3x3 (in-place)
I0121 22:32:43.007354  1946 net.cpp:122] Setting up inception_7a/3x3/bn1
I0121 22:32:43.007371  1946 net.cpp:129] Top shape: 1 80 16 16 (20480)
I0121 22:32:43.007376  1946 net.cpp:137] Memory required for data: 10186752
I0121 22:32:43.007385  1946 layer_factory.hpp:77] Creating layer inception_7a/3x3/scale1
I0121 22:32:43.007395  1946 net.cpp:84] Creating Layer inception_7a/3x3/scale1
I0121 22:32:43.007400  1946 net.cpp:406] inception_7a/3x3/scale1 <- inception_7a/3x3
I0121 22:32:43.007411  1946 net.cpp:367] inception_7a/3x3/scale1 -> inception_7a/3x3 (in-place)
I0121 22:32:43.007484  1946 layer_factory.hpp:77] Creating layer inception_7a/3x3/scale1
I0121 22:32:43.007637  1946 net.cpp:122] Setting up inception_7a/3x3/scale1
I0121 22:32:43.007654  1946 net.cpp:129] Top shape: 1 80 16 16 (20480)
I0121 22:32:43.007658  1946 net.cpp:137] Memory required for data: 10268672
I0121 22:32:43.007666  1946 layer_factory.hpp:77] Creating layer inception_7a/3x3/relu1
I0121 22:32:43.007674  1946 net.cpp:84] Creating Layer inception_7a/3x3/relu1
I0121 22:32:43.007680  1946 net.cpp:406] inception_7a/3x3/relu1 <- inception_7a/3x3
I0121 22:32:43.007686  1946 net.cpp:367] inception_7a/3x3/relu1 -> inception_7a/3x3 (in-place)
I0121 22:32:43.007848  1946 net.cpp:122] Setting up inception_7a/3x3/relu1
I0121 22:32:43.007869  1946 net.cpp:129] Top shape: 1 80 16 16 (20480)
I0121 22:32:43.007872  1946 net.cpp:137] Memory required for data: 10350592
I0121 22:32:43.007877  1946 layer_factory.hpp:77] Creating layer inception_7a/output
I0121 22:32:43.007885  1946 net.cpp:84] Creating Layer inception_7a/output
I0121 22:32:43.007891  1946 net.cpp:406] inception_7a/output <- inception_7a/1x1
I0121 22:32:43.007896  1946 net.cpp:406] inception_7a/output <- inception_7a/3x3
I0121 22:32:43.007910  1946 net.cpp:380] inception_7a/output -> inception_7a/output
I0121 22:32:43.007952  1946 net.cpp:122] Setting up inception_7a/output
I0121 22:32:43.007968  1946 net.cpp:129] Top shape: 1 160 16 16 (40960)
I0121 22:32:43.007974  1946 net.cpp:137] Memory required for data: 10514432
I0121 22:32:43.007982  1946 layer_factory.hpp:77] Creating layer inception_7a/output_inception_7a/output_0_split
I0121 22:32:43.007990  1946 net.cpp:84] Creating Layer inception_7a/output_inception_7a/output_0_split
I0121 22:32:43.008004  1946 net.cpp:406] inception_7a/output_inception_7a/output_0_split <- inception_7a/output
I0121 22:32:43.008011  1946 net.cpp:380] inception_7a/output_inception_7a/output_0_split -> inception_7a/output_inception_7a/output_0_split_0
I0121 22:32:43.008054  1946 net.cpp:380] inception_7a/output_inception_7a/output_0_split -> inception_7a/output_inception_7a/output_0_split_1
I0121 22:32:43.008155  1946 net.cpp:122] Setting up inception_7a/output_inception_7a/output_0_split
I0121 22:32:43.008177  1946 net.cpp:129] Top shape: 1 160 16 16 (40960)
I0121 22:32:43.008186  1946 net.cpp:129] Top shape: 1 160 16 16 (40960)
I0121 22:32:43.008193  1946 net.cpp:137] Memory required for data: 10842112
I0121 22:32:43.008199  1946 layer_factory.hpp:77] Creating layer inception_8a/1x1
I0121 22:32:43.008217  1946 net.cpp:84] Creating Layer inception_8a/1x1
I0121 22:32:43.008232  1946 net.cpp:406] inception_8a/1x1 <- inception_7a/output_inception_7a/output_0_split_0
I0121 22:32:43.008247  1946 net.cpp:380] inception_8a/1x1 -> inception_8a/1x1
I0121 22:32:43.009275  1946 net.cpp:122] Setting up inception_8a/1x1
I0121 22:32:43.009302  1946 net.cpp:129] Top shape: 1 48 16 16 (12288)
I0121 22:32:43.009308  1946 net.cpp:137] Memory required for data: 10891264
I0121 22:32:43.009320  1946 layer_factory.hpp:77] Creating layer inception_8a/1x1/bn1
I0121 22:32:43.009356  1946 net.cpp:84] Creating Layer inception_8a/1x1/bn1
I0121 22:32:43.009372  1946 net.cpp:406] inception_8a/1x1/bn1 <- inception_8a/1x1
I0121 22:32:43.009383  1946 net.cpp:367] inception_8a/1x1/bn1 -> inception_8a/1x1 (in-place)
I0121 22:32:43.009613  1946 net.cpp:122] Setting up inception_8a/1x1/bn1
I0121 22:32:43.009631  1946 net.cpp:129] Top shape: 1 48 16 16 (12288)
I0121 22:32:43.009635  1946 net.cpp:137] Memory required for data: 10940416
I0121 22:32:43.009645  1946 layer_factory.hpp:77] Creating layer inception_8a/1x1/scale1
I0121 22:32:43.009660  1946 net.cpp:84] Creating Layer inception_8a/1x1/scale1
I0121 22:32:43.009688  1946 net.cpp:406] inception_8a/1x1/scale1 <- inception_8a/1x1
I0121 22:32:43.009706  1946 net.cpp:367] inception_8a/1x1/scale1 -> inception_8a/1x1 (in-place)
I0121 22:32:43.009816  1946 layer_factory.hpp:77] Creating layer inception_8a/1x1/scale1
I0121 22:32:43.009990  1946 net.cpp:122] Setting up inception_8a/1x1/scale1
I0121 22:32:43.010010  1946 net.cpp:129] Top shape: 1 48 16 16 (12288)
I0121 22:32:43.010017  1946 net.cpp:137] Memory required for data: 10989568
I0121 22:32:43.010028  1946 layer_factory.hpp:77] Creating layer inception_8a/1x1/relu1
I0121 22:32:43.010057  1946 net.cpp:84] Creating Layer inception_8a/1x1/relu1
I0121 22:32:43.010066  1946 net.cpp:406] inception_8a/1x1/relu1 <- inception_8a/1x1
I0121 22:32:43.010076  1946 net.cpp:367] inception_8a/1x1/relu1 -> inception_8a/1x1 (in-place)
I0121 22:32:43.010398  1946 net.cpp:122] Setting up inception_8a/1x1/relu1
I0121 22:32:43.010423  1946 net.cpp:129] Top shape: 1 48 16 16 (12288)
I0121 22:32:43.010428  1946 net.cpp:137] Memory required for data: 11038720
I0121 22:32:43.010433  1946 layer_factory.hpp:77] Creating layer inception_8a/3x3
I0121 22:32:43.010444  1946 net.cpp:84] Creating Layer inception_8a/3x3
I0121 22:32:43.010452  1946 net.cpp:406] inception_8a/3x3 <- inception_7a/output_inception_7a/output_0_split_1
I0121 22:32:43.010465  1946 net.cpp:380] inception_8a/3x3 -> inception_8a/3x3
I0121 22:32:43.012161  1946 net.cpp:122] Setting up inception_8a/3x3
I0121 22:32:43.012187  1946 net.cpp:129] Top shape: 1 96 16 16 (24576)
I0121 22:32:43.012192  1946 net.cpp:137] Memory required for data: 11137024
I0121 22:32:43.012202  1946 layer_factory.hpp:77] Creating layer inception_8a/3x3/bn1
I0121 22:32:43.012210  1946 net.cpp:84] Creating Layer inception_8a/3x3/bn1
I0121 22:32:43.012217  1946 net.cpp:406] inception_8a/3x3/bn1 <- inception_8a/3x3
I0121 22:32:43.012230  1946 net.cpp:367] inception_8a/3x3/bn1 -> inception_8a/3x3 (in-place)
I0121 22:32:43.012465  1946 net.cpp:122] Setting up inception_8a/3x3/bn1
I0121 22:32:43.012483  1946 net.cpp:129] Top shape: 1 96 16 16 (24576)
I0121 22:32:43.012488  1946 net.cpp:137] Memory required for data: 11235328
I0121 22:32:43.012498  1946 layer_factory.hpp:77] Creating layer inception_8a/3x3/scale1
I0121 22:32:43.012506  1946 net.cpp:84] Creating Layer inception_8a/3x3/scale1
I0121 22:32:43.012511  1946 net.cpp:406] inception_8a/3x3/scale1 <- inception_8a/3x3
I0121 22:32:43.012518  1946 net.cpp:367] inception_8a/3x3/scale1 -> inception_8a/3x3 (in-place)
I0121 22:32:43.012591  1946 layer_factory.hpp:77] Creating layer inception_8a/3x3/scale1
I0121 22:32:43.012760  1946 net.cpp:122] Setting up inception_8a/3x3/scale1
I0121 22:32:43.012781  1946 net.cpp:129] Top shape: 1 96 16 16 (24576)
I0121 22:32:43.012786  1946 net.cpp:137] Memory required for data: 11333632
I0121 22:32:43.012794  1946 layer_factory.hpp:77] Creating layer inception_8a/3x3/relu1
I0121 22:32:43.012801  1946 net.cpp:84] Creating Layer inception_8a/3x3/relu1
I0121 22:32:43.012806  1946 net.cpp:406] inception_8a/3x3/relu1 <- inception_8a/3x3
I0121 22:32:43.012811  1946 net.cpp:367] inception_8a/3x3/relu1 -> inception_8a/3x3 (in-place)
I0121 22:32:43.012977  1946 net.cpp:122] Setting up inception_8a/3x3/relu1
I0121 22:32:43.012998  1946 net.cpp:129] Top shape: 1 96 16 16 (24576)
I0121 22:32:43.013002  1946 net.cpp:137] Memory required for data: 11431936
I0121 22:32:43.013007  1946 layer_factory.hpp:77] Creating layer inception_8a/output
I0121 22:32:43.013015  1946 net.cpp:84] Creating Layer inception_8a/output
I0121 22:32:43.013020  1946 net.cpp:406] inception_8a/output <- inception_8a/1x1
I0121 22:32:43.013026  1946 net.cpp:406] inception_8a/output <- inception_8a/3x3
I0121 22:32:43.013034  1946 net.cpp:380] inception_8a/output -> inception_8a/output
I0121 22:32:43.013075  1946 net.cpp:122] Setting up inception_8a/output
I0121 22:32:43.013094  1946 net.cpp:129] Top shape: 1 144 16 16 (36864)
I0121 22:32:43.013098  1946 net.cpp:137] Memory required for data: 11579392
I0121 22:32:43.013103  1946 layer_factory.hpp:77] Creating layer inception_8a/output_inception_8a/output_0_split
I0121 22:32:43.013111  1946 net.cpp:84] Creating Layer inception_8a/output_inception_8a/output_0_split
I0121 22:32:43.013115  1946 net.cpp:406] inception_8a/output_inception_8a/output_0_split <- inception_8a/output
I0121 22:32:43.013123  1946 net.cpp:380] inception_8a/output_inception_8a/output_0_split -> inception_8a/output_inception_8a/output_0_split_0
I0121 22:32:43.013134  1946 net.cpp:380] inception_8a/output_inception_8a/output_0_split -> inception_8a/output_inception_8a/output_0_split_1
I0121 22:32:43.013197  1946 net.cpp:122] Setting up inception_8a/output_inception_8a/output_0_split
I0121 22:32:43.013213  1946 net.cpp:129] Top shape: 1 144 16 16 (36864)
I0121 22:32:43.013219  1946 net.cpp:129] Top shape: 1 144 16 16 (36864)
I0121 22:32:43.013223  1946 net.cpp:137] Memory required for data: 11874304
I0121 22:32:43.013227  1946 layer_factory.hpp:77] Creating layer downsample_9/3x3_s2
I0121 22:32:43.013242  1946 net.cpp:84] Creating Layer downsample_9/3x3_s2
I0121 22:32:43.013255  1946 net.cpp:406] downsample_9/3x3_s2 <- inception_8a/output_inception_8a/output_0_split_0
I0121 22:32:43.013268  1946 net.cpp:380] downsample_9/3x3_s2 -> downsample_9/3x3_s2
I0121 22:32:43.015815  1946 net.cpp:122] Setting up downsample_9/3x3_s2
I0121 22:32:43.015843  1946 net.cpp:129] Top shape: 1 96 8 8 (6144)
I0121 22:32:43.015848  1946 net.cpp:137] Memory required for data: 11898880
I0121 22:32:43.015857  1946 layer_factory.hpp:77] Creating layer downsample_9/3x3_s2/bn1
I0121 22:32:43.015871  1946 net.cpp:84] Creating Layer downsample_9/3x3_s2/bn1
I0121 22:32:43.015887  1946 net.cpp:406] downsample_9/3x3_s2/bn1 <- downsample_9/3x3_s2
I0121 22:32:43.015898  1946 net.cpp:367] downsample_9/3x3_s2/bn1 -> downsample_9/3x3_s2 (in-place)
I0121 22:32:43.016149  1946 net.cpp:122] Setting up downsample_9/3x3_s2/bn1
I0121 22:32:43.016167  1946 net.cpp:129] Top shape: 1 96 8 8 (6144)
I0121 22:32:43.016172  1946 net.cpp:137] Memory required for data: 11923456
I0121 22:32:43.016182  1946 layer_factory.hpp:77] Creating layer downsample_9/3x3_s2/scale1
I0121 22:32:43.016189  1946 net.cpp:84] Creating Layer downsample_9/3x3_s2/scale1
I0121 22:32:43.016196  1946 net.cpp:406] downsample_9/3x3_s2/scale1 <- downsample_9/3x3_s2
I0121 22:32:43.016203  1946 net.cpp:367] downsample_9/3x3_s2/scale1 -> downsample_9/3x3_s2 (in-place)
I0121 22:32:43.016280  1946 layer_factory.hpp:77] Creating layer downsample_9/3x3_s2/scale1
I0121 22:32:43.016458  1946 net.cpp:122] Setting up downsample_9/3x3_s2/scale1
I0121 22:32:43.016477  1946 net.cpp:129] Top shape: 1 96 8 8 (6144)
I0121 22:32:43.016484  1946 net.cpp:137] Memory required for data: 11948032
I0121 22:32:43.016496  1946 layer_factory.hpp:77] Creating layer downsample_9/3x3_s2/relu1
I0121 22:32:43.016515  1946 net.cpp:84] Creating Layer downsample_9/3x3_s2/relu1
I0121 22:32:43.016523  1946 net.cpp:406] downsample_9/3x3_s2/relu1 <- downsample_9/3x3_s2
I0121 22:32:43.016532  1946 net.cpp:367] downsample_9/3x3_s2/relu1 -> downsample_9/3x3_s2 (in-place)
I0121 22:32:43.016840  1946 net.cpp:122] Setting up downsample_9/3x3_s2/relu1
I0121 22:32:43.016871  1946 net.cpp:129] Top shape: 1 96 8 8 (6144)
I0121 22:32:43.016880  1946 net.cpp:137] Memory required for data: 11972608
I0121 22:32:43.016886  1946 layer_factory.hpp:77] Creating layer downsample_9/pool_s2
I0121 22:32:43.016897  1946 net.cpp:84] Creating Layer downsample_9/pool_s2
I0121 22:32:43.016912  1946 net.cpp:406] downsample_9/pool_s2 <- inception_8a/output_inception_8a/output_0_split_1
I0121 22:32:43.016925  1946 net.cpp:380] downsample_9/pool_s2 -> downsample_9/pool_s2
I0121 22:32:43.017009  1946 net.cpp:122] Setting up downsample_9/pool_s2
I0121 22:32:43.017030  1946 net.cpp:129] Top shape: 1 144 8 8 (9216)
I0121 22:32:43.017036  1946 net.cpp:137] Memory required for data: 12009472
I0121 22:32:43.017043  1946 layer_factory.hpp:77] Creating layer downsample_9/output
I0121 22:32:43.017056  1946 net.cpp:84] Creating Layer downsample_9/output
I0121 22:32:43.017069  1946 net.cpp:406] downsample_9/output <- downsample_9/3x3_s2
I0121 22:32:43.017079  1946 net.cpp:406] downsample_9/output <- downsample_9/pool_s2
I0121 22:32:43.017088  1946 net.cpp:380] downsample_9/output -> downsample_9/output
I0121 22:32:43.017139  1946 net.cpp:122] Setting up downsample_9/output
I0121 22:32:43.017160  1946 net.cpp:129] Top shape: 1 240 8 8 (15360)
I0121 22:32:43.017168  1946 net.cpp:137] Memory required for data: 12070912
I0121 22:32:43.017174  1946 layer_factory.hpp:77] Creating layer downsample_9/output_downsample_9/output_0_split
I0121 22:32:43.017184  1946 net.cpp:84] Creating Layer downsample_9/output_downsample_9/output_0_split
I0121 22:32:43.017196  1946 net.cpp:406] downsample_9/output_downsample_9/output_0_split <- downsample_9/output
I0121 22:32:43.017210  1946 net.cpp:380] downsample_9/output_downsample_9/output_0_split -> downsample_9/output_downsample_9/output_0_split_0
I0121 22:32:43.017222  1946 net.cpp:380] downsample_9/output_downsample_9/output_0_split -> downsample_9/output_downsample_9/output_0_split_1
I0121 22:32:43.017287  1946 net.cpp:122] Setting up downsample_9/output_downsample_9/output_0_split
I0121 22:32:43.017304  1946 net.cpp:129] Top shape: 1 240 8 8 (15360)
I0121 22:32:43.017313  1946 net.cpp:129] Top shape: 1 240 8 8 (15360)
I0121 22:32:43.017319  1946 net.cpp:137] Memory required for data: 12193792
I0121 22:32:43.017325  1946 layer_factory.hpp:77] Creating layer inception_10a/1x1
I0121 22:32:43.017349  1946 net.cpp:84] Creating Layer inception_10a/1x1
I0121 22:32:43.017365  1946 net.cpp:406] inception_10a/1x1 <- downsample_9/output_downsample_9/output_0_split_0
I0121 22:32:43.017387  1946 net.cpp:380] inception_10a/1x1 -> inception_10a/1x1
I0121 22:32:43.018718  1946 net.cpp:122] Setting up inception_10a/1x1
I0121 22:32:43.018745  1946 net.cpp:129] Top shape: 1 176 8 8 (11264)
I0121 22:32:43.018750  1946 net.cpp:137] Memory required for data: 12238848
I0121 22:32:43.018761  1946 layer_factory.hpp:77] Creating layer inception_10a/1x1/bn1
I0121 22:32:43.018777  1946 net.cpp:84] Creating Layer inception_10a/1x1/bn1
I0121 22:32:43.018788  1946 net.cpp:406] inception_10a/1x1/bn1 <- inception_10a/1x1
I0121 22:32:43.018801  1946 net.cpp:367] inception_10a/1x1/bn1 -> inception_10a/1x1 (in-place)
I0121 22:32:43.019068  1946 net.cpp:122] Setting up inception_10a/1x1/bn1
I0121 22:32:43.019089  1946 net.cpp:129] Top shape: 1 176 8 8 (11264)
I0121 22:32:43.019096  1946 net.cpp:137] Memory required for data: 12283904
I0121 22:32:43.019110  1946 layer_factory.hpp:77] Creating layer inception_10a/1x1/scale1
I0121 22:32:43.019132  1946 net.cpp:84] Creating Layer inception_10a/1x1/scale1
I0121 22:32:43.019141  1946 net.cpp:406] inception_10a/1x1/scale1 <- inception_10a/1x1
I0121 22:32:43.019150  1946 net.cpp:367] inception_10a/1x1/scale1 -> inception_10a/1x1 (in-place)
I0121 22:32:43.019217  1946 layer_factory.hpp:77] Creating layer inception_10a/1x1/scale1
I0121 22:32:43.019381  1946 net.cpp:122] Setting up inception_10a/1x1/scale1
I0121 22:32:43.019402  1946 net.cpp:129] Top shape: 1 176 8 8 (11264)
I0121 22:32:43.019408  1946 net.cpp:137] Memory required for data: 12328960
I0121 22:32:43.019420  1946 layer_factory.hpp:77] Creating layer inception_10a/1x1/relu1
I0121 22:32:43.019444  1946 net.cpp:84] Creating Layer inception_10a/1x1/relu1
I0121 22:32:43.019454  1946 net.cpp:406] inception_10a/1x1/relu1 <- inception_10a/1x1
I0121 22:32:43.019469  1946 net.cpp:367] inception_10a/1x1/relu1 -> inception_10a/1x1 (in-place)
I0121 22:32:43.019886  1946 net.cpp:122] Setting up inception_10a/1x1/relu1
I0121 22:32:43.019913  1946 net.cpp:129] Top shape: 1 176 8 8 (11264)
I0121 22:32:43.019922  1946 net.cpp:137] Memory required for data: 12374016
I0121 22:32:43.019927  1946 layer_factory.hpp:77] Creating layer inception_10a/3x3
I0121 22:32:43.019948  1946 net.cpp:84] Creating Layer inception_10a/3x3
I0121 22:32:43.019963  1946 net.cpp:406] inception_10a/3x3 <- downsample_9/output_downsample_9/output_0_split_1
I0121 22:32:43.019976  1946 net.cpp:380] inception_10a/3x3 -> inception_10a/3x3
I0121 22:32:43.023948  1946 net.cpp:122] Setting up inception_10a/3x3
I0121 22:32:43.023977  1946 net.cpp:129] Top shape: 1 160 8 8 (10240)
I0121 22:32:43.023983  1946 net.cpp:137] Memory required for data: 12414976
I0121 22:32:43.023993  1946 layer_factory.hpp:77] Creating layer inception_10a/3x3/bn1
I0121 22:32:43.024016  1946 net.cpp:84] Creating Layer inception_10a/3x3/bn1
I0121 22:32:43.024034  1946 net.cpp:406] inception_10a/3x3/bn1 <- inception_10a/3x3
I0121 22:32:43.024049  1946 net.cpp:367] inception_10a/3x3/bn1 -> inception_10a/3x3 (in-place)
I0121 22:32:43.024387  1946 net.cpp:122] Setting up inception_10a/3x3/bn1
I0121 22:32:43.024407  1946 net.cpp:129] Top shape: 1 160 8 8 (10240)
I0121 22:32:43.024411  1946 net.cpp:137] Memory required for data: 12455936
I0121 22:32:43.024425  1946 layer_factory.hpp:77] Creating layer inception_10a/3x3/scale1
I0121 22:32:43.024451  1946 net.cpp:84] Creating Layer inception_10a/3x3/scale1
I0121 22:32:43.024487  1946 net.cpp:406] inception_10a/3x3/scale1 <- inception_10a/3x3
I0121 22:32:43.024507  1946 net.cpp:367] inception_10a/3x3/scale1 -> inception_10a/3x3 (in-place)
I0121 22:32:43.024595  1946 layer_factory.hpp:77] Creating layer inception_10a/3x3/scale1
I0121 22:32:43.024770  1946 net.cpp:122] Setting up inception_10a/3x3/scale1
I0121 22:32:43.024791  1946 net.cpp:129] Top shape: 1 160 8 8 (10240)
I0121 22:32:43.024797  1946 net.cpp:137] Memory required for data: 12496896
I0121 22:32:43.024811  1946 layer_factory.hpp:77] Creating layer inception_10a/3x3/relu1
I0121 22:32:43.024832  1946 net.cpp:84] Creating Layer inception_10a/3x3/relu1
I0121 22:32:43.024839  1946 net.cpp:406] inception_10a/3x3/relu1 <- inception_10a/3x3
I0121 22:32:43.024847  1946 net.cpp:367] inception_10a/3x3/relu1 -> inception_10a/3x3 (in-place)
I0121 22:32:43.025017  1946 net.cpp:122] Setting up inception_10a/3x3/relu1
I0121 22:32:43.025039  1946 net.cpp:129] Top shape: 1 160 8 8 (10240)
I0121 22:32:43.025046  1946 net.cpp:137] Memory required for data: 12537856
I0121 22:32:43.025053  1946 layer_factory.hpp:77] Creating layer inception_10a/output
I0121 22:32:43.025071  1946 net.cpp:84] Creating Layer inception_10a/output
I0121 22:32:43.025084  1946 net.cpp:406] inception_10a/output <- inception_10a/1x1
I0121 22:32:43.025094  1946 net.cpp:406] inception_10a/output <- inception_10a/3x3
I0121 22:32:43.025104  1946 net.cpp:380] inception_10a/output -> inception_10a/output
I0121 22:32:43.025151  1946 net.cpp:122] Setting up inception_10a/output
I0121 22:32:43.025171  1946 net.cpp:129] Top shape: 1 336 8 8 (21504)
I0121 22:32:43.025177  1946 net.cpp:137] Memory required for data: 12623872
I0121 22:32:43.025183  1946 layer_factory.hpp:77] Creating layer inception_10a/output_inception_10a/output_0_split
I0121 22:32:43.025193  1946 net.cpp:84] Creating Layer inception_10a/output_inception_10a/output_0_split
I0121 22:32:43.025207  1946 net.cpp:406] inception_10a/output_inception_10a/output_0_split <- inception_10a/output
I0121 22:32:43.025221  1946 net.cpp:380] inception_10a/output_inception_10a/output_0_split -> inception_10a/output_inception_10a/output_0_split_0
I0121 22:32:43.025233  1946 net.cpp:380] inception_10a/output_inception_10a/output_0_split -> inception_10a/output_inception_10a/output_0_split_1
I0121 22:32:43.025303  1946 net.cpp:122] Setting up inception_10a/output_inception_10a/output_0_split
I0121 22:32:43.025328  1946 net.cpp:129] Top shape: 1 336 8 8 (21504)
I0121 22:32:43.025334  1946 net.cpp:129] Top shape: 1 336 8 8 (21504)
I0121 22:32:43.025339  1946 net.cpp:137] Memory required for data: 12795904
I0121 22:32:43.025346  1946 layer_factory.hpp:77] Creating layer inception_11a/1x1
I0121 22:32:43.025377  1946 net.cpp:84] Creating Layer inception_11a/1x1
I0121 22:32:43.025393  1946 net.cpp:406] inception_11a/1x1 <- inception_10a/output_inception_10a/output_0_split_0
I0121 22:32:43.025403  1946 net.cpp:380] inception_11a/1x1 -> inception_11a/1x1
I0121 22:32:43.026823  1946 net.cpp:122] Setting up inception_11a/1x1
I0121 22:32:43.026851  1946 net.cpp:129] Top shape: 1 176 8 8 (11264)
I0121 22:32:43.026856  1946 net.cpp:137] Memory required for data: 12840960
I0121 22:32:43.026865  1946 layer_factory.hpp:77] Creating layer inception_11a/1x1/bn1
I0121 22:32:43.026877  1946 net.cpp:84] Creating Layer inception_11a/1x1/bn1
I0121 22:32:43.026893  1946 net.cpp:406] inception_11a/1x1/bn1 <- inception_11a/1x1
I0121 22:32:43.026909  1946 net.cpp:367] inception_11a/1x1/bn1 -> inception_11a/1x1 (in-place)
I0121 22:32:43.027254  1946 net.cpp:122] Setting up inception_11a/1x1/bn1
I0121 22:32:43.027276  1946 net.cpp:129] Top shape: 1 176 8 8 (11264)
I0121 22:32:43.027281  1946 net.cpp:137] Memory required for data: 12886016
I0121 22:32:43.027292  1946 layer_factory.hpp:77] Creating layer inception_11a/1x1/scale1
I0121 22:32:43.027300  1946 net.cpp:84] Creating Layer inception_11a/1x1/scale1
I0121 22:32:43.027308  1946 net.cpp:406] inception_11a/1x1/scale1 <- inception_11a/1x1
I0121 22:32:43.027318  1946 net.cpp:367] inception_11a/1x1/scale1 -> inception_11a/1x1 (in-place)
I0121 22:32:43.027402  1946 layer_factory.hpp:77] Creating layer inception_11a/1x1/scale1
I0121 22:32:43.027604  1946 net.cpp:122] Setting up inception_11a/1x1/scale1
I0121 22:32:43.027624  1946 net.cpp:129] Top shape: 1 176 8 8 (11264)
I0121 22:32:43.027629  1946 net.cpp:137] Memory required for data: 12931072
I0121 22:32:43.027637  1946 layer_factory.hpp:77] Creating layer inception_11a/1x1/relu1
I0121 22:32:43.027647  1946 net.cpp:84] Creating Layer inception_11a/1x1/relu1
I0121 22:32:43.027653  1946 net.cpp:406] inception_11a/1x1/relu1 <- inception_11a/1x1
I0121 22:32:43.027669  1946 net.cpp:367] inception_11a/1x1/relu1 -> inception_11a/1x1 (in-place)
I0121 22:32:43.027978  1946 net.cpp:122] Setting up inception_11a/1x1/relu1
I0121 22:32:43.028003  1946 net.cpp:129] Top shape: 1 176 8 8 (11264)
I0121 22:32:43.028008  1946 net.cpp:137] Memory required for data: 12976128
I0121 22:32:43.028013  1946 layer_factory.hpp:77] Creating layer inception_11a/3x3
I0121 22:32:43.028026  1946 net.cpp:84] Creating Layer inception_11a/3x3
I0121 22:32:43.028039  1946 net.cpp:406] inception_11a/3x3 <- inception_10a/output_inception_10a/output_0_split_1
I0121 22:32:43.028057  1946 net.cpp:380] inception_11a/3x3 -> inception_11a/3x3
I0121 22:32:43.033043  1946 net.cpp:122] Setting up inception_11a/3x3
I0121 22:32:43.033074  1946 net.cpp:129] Top shape: 1 160 8 8 (10240)
I0121 22:32:43.033082  1946 net.cpp:137] Memory required for data: 13017088
I0121 22:32:43.033100  1946 layer_factory.hpp:77] Creating layer inception_11a/3x3/bn1
I0121 22:32:43.033118  1946 net.cpp:84] Creating Layer inception_11a/3x3/bn1
I0121 22:32:43.033133  1946 net.cpp:406] inception_11a/3x3/bn1 <- inception_11a/3x3
I0121 22:32:43.033149  1946 net.cpp:367] inception_11a/3x3/bn1 -> inception_11a/3x3 (in-place)
I0121 22:32:43.033402  1946 net.cpp:122] Setting up inception_11a/3x3/bn1
I0121 22:32:43.033422  1946 net.cpp:129] Top shape: 1 160 8 8 (10240)
I0121 22:32:43.033429  1946 net.cpp:137] Memory required for data: 13058048
I0121 22:32:43.033468  1946 layer_factory.hpp:77] Creating layer inception_11a/3x3/scale1
I0121 22:32:43.033489  1946 net.cpp:84] Creating Layer inception_11a/3x3/scale1
I0121 22:32:43.033498  1946 net.cpp:406] inception_11a/3x3/scale1 <- inception_11a/3x3
I0121 22:32:43.033527  1946 net.cpp:367] inception_11a/3x3/scale1 -> inception_11a/3x3 (in-place)
I0121 22:32:43.033619  1946 layer_factory.hpp:77] Creating layer inception_11a/3x3/scale1
I0121 22:32:43.033843  1946 net.cpp:122] Setting up inception_11a/3x3/scale1
I0121 22:32:43.033865  1946 net.cpp:129] Top shape: 1 160 8 8 (10240)
I0121 22:32:43.033872  1946 net.cpp:137] Memory required for data: 13099008
I0121 22:32:43.033885  1946 layer_factory.hpp:77] Creating layer inception_11a/3x3/relu1
I0121 22:32:43.033905  1946 net.cpp:84] Creating Layer inception_11a/3x3/relu1
I0121 22:32:43.033913  1946 net.cpp:406] inception_11a/3x3/relu1 <- inception_11a/3x3
I0121 22:32:43.033921  1946 net.cpp:367] inception_11a/3x3/relu1 -> inception_11a/3x3 (in-place)
I0121 22:32:43.034095  1946 net.cpp:122] Setting up inception_11a/3x3/relu1
I0121 22:32:43.034117  1946 net.cpp:129] Top shape: 1 160 8 8 (10240)
I0121 22:32:43.034124  1946 net.cpp:137] Memory required for data: 13139968
I0121 22:32:43.034132  1946 layer_factory.hpp:77] Creating layer inception_11a/output
I0121 22:32:43.034140  1946 net.cpp:84] Creating Layer inception_11a/output
I0121 22:32:43.034154  1946 net.cpp:406] inception_11a/output <- inception_11a/1x1
I0121 22:32:43.034163  1946 net.cpp:406] inception_11a/output <- inception_11a/3x3
I0121 22:32:43.034173  1946 net.cpp:380] inception_11a/output -> inception_11a/output
I0121 22:32:43.034229  1946 net.cpp:122] Setting up inception_11a/output
I0121 22:32:43.034248  1946 net.cpp:129] Top shape: 1 336 8 8 (21504)
I0121 22:32:43.034255  1946 net.cpp:137] Memory required for data: 13225984
I0121 22:32:43.034261  1946 layer_factory.hpp:77] Creating layer avg_pool_12/8x8_s1
I0121 22:32:43.034276  1946 net.cpp:84] Creating Layer avg_pool_12/8x8_s1
I0121 22:32:43.034283  1946 net.cpp:406] avg_pool_12/8x8_s1 <- inception_11a/output
I0121 22:32:43.034308  1946 net.cpp:380] avg_pool_12/8x8_s1 -> avg_pool_12/8x8_s1
I0121 22:32:43.034658  1946 net.cpp:122] Setting up avg_pool_12/8x8_s1
I0121 22:32:43.034685  1946 net.cpp:129] Top shape: 1 336 1 1 (336)
I0121 22:32:43.034694  1946 net.cpp:137] Memory required for data: 13227328
I0121 22:32:43.034700  1946 layer_factory.hpp:77] Creating layer drop_8x8_s1
I0121 22:32:43.034715  1946 net.cpp:84] Creating Layer drop_8x8_s1
I0121 22:32:43.034729  1946 net.cpp:406] drop_8x8_s1 <- avg_pool_12/8x8_s1
I0121 22:32:43.034741  1946 net.cpp:367] drop_8x8_s1 -> avg_pool_12/8x8_s1 (in-place)
I0121 22:32:43.034790  1946 net.cpp:122] Setting up drop_8x8_s1
I0121 22:32:43.034808  1946 net.cpp:129] Top shape: 1 336 1 1 (336)
I0121 22:32:43.034816  1946 net.cpp:137] Memory required for data: 13228672
I0121 22:32:43.034821  1946 layer_factory.hpp:77] Creating layer loss/classifier
I0121 22:32:43.034835  1946 net.cpp:84] Creating Layer loss/classifier
I0121 22:32:43.034847  1946 net.cpp:406] loss/classifier <- avg_pool_12/8x8_s1
I0121 22:32:43.034863  1946 net.cpp:380] loss/classifier -> loss/classifier
I0121 22:32:43.035038  1946 net.cpp:122] Setting up loss/classifier
I0121 22:32:43.035058  1946 net.cpp:129] Top shape: 1 10 (10)
I0121 22:32:43.035064  1946 net.cpp:137] Memory required for data: 13228712
I0121 22:32:43.035076  1946 layer_factory.hpp:77] Creating layer prob
I0121 22:32:43.035095  1946 net.cpp:84] Creating Layer prob
I0121 22:32:43.035104  1946 net.cpp:406] prob <- loss/classifier
I0121 22:32:43.035111  1946 net.cpp:380] prob -> prob
I0121 22:32:43.035343  1946 net.cpp:122] Setting up prob
I0121 22:32:43.035369  1946 net.cpp:129] Top shape: 1 10 (10)
I0121 22:32:43.035377  1946 net.cpp:137] Memory required for data: 13228752
I0121 22:32:43.035384  1946 net.cpp:200] prob does not need backward computation.
I0121 22:32:43.035392  1946 net.cpp:200] loss/classifier does not need backward computation.
I0121 22:32:43.035398  1946 net.cpp:200] drop_8x8_s1 does not need backward computation.
I0121 22:32:43.035403  1946 net.cpp:200] avg_pool_12/8x8_s1 does not need backward computation.
…
