…
I0121 15:00:17.116617  6203 net.cpp:294] The NetState phase (0) differed from the phase (1) specified by a rule in layer accuracy
I0121 15:00:17.116884  6203 net.cpp:51] Initializing net from parameters: 
name: "miniVggNet on Cifar10 m3 NO-inPlace"
state {
  phase: TRAIN
  level: 0
  stage: ""
}
layer {
  name: "data"
  type: "Data"
  top: "data"
  top: "label"
  include {
    phase: TRAIN
  }
  transform_param {
    mirror: true
    mean_value: 125
    mean_value: 123
    mean_value: 114
  }
  data_param {
    source: "cifar10/input/lmdb/train_lmdb"
    batch_size: 128
    backend: LMDB
  }
}
layer {
  name: "conv1"
  type: "Convolution"
  bottom: "data"
  top: "conv1"
  param {
    lr_mult: 1
    decay_mult: 1
  }
  param {
    lr_mult: 2
    decay_mult: 0
  }
  convolution_param {
    num_output: 32
    pad: 1
    kernel_size: 3
    stride: 1
    weight_filler {
      type: "xavier"
    }
    bias_filler {
      type: "constant"
      value: 0
    }
  }
}
layer {
  name: "bn1"
  type: "BatchNorm"
  bottom: "conv1"
  top: "bn1"
  param {
    lr_mult: 0
    decay_mult: 0
  }
  param {
    lr_mult: 0
    decay_mult: 0
  }
  param {
    lr_mult: 0
    decay_mult: 0
  }
  batch_norm_param {
    use_global_stats: false
  }
}
layer {
  name: "scale1"
  type: "Scale"
  bottom: "bn1"
  top: "scale1"
  scale_param {
    bias_term: true
  }
}
layer {
  name: "relu1"
  type: "ReLU"
  bottom: "scale1"
  top: "relu1"
}
layer {
  name: "conv2"
  type: "Convolution"
  bottom: "relu1"
  top: "conv2"
  param {
    lr_mult: 1
    decay_mult: 1
  }
  param {
    lr_mult: 2
    decay_mult: 0
  }
  convolution_param {
    num_output: 32
    pad: 1
    kernel_size: 3
    stride: 1
    weight_filler {
      type: "xavier"
    }
    bias_filler {
      type: "constant"
      value: 0
    }
  }
}
layer {
  name: "bn2"
  type: "BatchNorm"
  bottom: "conv2"
  top: "bn2"
  param {
    lr_mult: 0
    decay_mult: 0
  }
  param {
    lr_mult: 0
    decay_mult: 0
  }
  param {
    lr_mult: 0
    decay_mult: 0
  }
  batch_norm_param {
    use_global_stats: false
  }
}
layer {
  name: "scale2"
  type: "Scale"
  bottom: "bn2"
  top: "scale2"
  scale_param {
    bias_term: true
  }
}
layer {
  name: "relu2"
  type: "ReLU"
  bottom: "scale2"
  top: "relu2"
}
layer {
  name: "pool1"
  type: "Pooling"
  bottom: "relu2"
  top: "pool1"
  pooling_param {
    pool: MAX
    kernel_size: 2
    stride: 2
  }
}
layer {
  name: "drop1"
  type: "Dropout"
  bottom: "pool1"
  top: "drop1"
  dropout_param {
    dropout_ratio: 0.25
  }
}
layer {
  name: "conv3"
  type: "Convolution"
  bottom: "drop1"
  top: "conv3"
  param {
    lr_mult: 1
    decay_mult: 1
  }
  param {
    lr_mult: 2
    decay_mult: 0
  }
  convolution_param {
    num_output: 64
    pad: 1
    kernel_size: 3
    stride: 1
    weight_filler {
      type: "xavier"
    }
    bias_filler {
      type: "constant"
      value: 0
    }
  }
}
layer {
  name: "bn3"
  type: "BatchNorm"
  bottom: "conv3"
  top: "bn3"
  param {
    lr_mult: 0
    decay_mult: 0
  }
  param {
    lr_mult: 0
    decay_mult: 0
  }
  param {
    lr_mult: 0
    decay_mult: 0
  }
  batch_norm_param {
    use_global_stats: false
  }
}
layer {
  name: "scale3"
  type: "Scale"
  bottom: "bn3"
  top: "scale3"
  scale_param {
    bias_term: true
  }
}
layer {
  name: "relu3"
  type: "ReLU"
  bottom: "scale3"
  top: "relu3"
}
layer {
  name: "conv4"
  type: "Convolution"
  bottom: "relu3"
  top: "conv4"
  param {
    lr_mult: 1
    decay_mult: 1
  }
  param {
    lr_mult: 2
    decay_mult: 0
  }
  convolution_param {
    num_output: 64
    pad: 1
    kernel_size: 3
    stride: 1
    weight_filler {
      type: "xavier"
    }
    bias_filler {
      type: "constant"
      value: 0
    }
  }
}
layer {
  name: "bn4"
  type: "BatchNorm"
  bottom: "conv4"
  top: "bn4"
  param {
    lr_mult: 0
    decay_mult: 0
  }
  param {
    lr_mult: 0
    decay_mult: 0
  }
  param {
    lr_mult: 0
    decay_mult: 0
  }
  batch_norm_param {
    use_global_stats: false
  }
}
layer {
  name: "scale4"
  type: "Scale"
  bottom: "bn4"
  top: "scale4"
  scale_param {
    bias_term: true
  }
}
layer {
  name: "relu4"
  type: "ReLU"
  bottom: "scale4"
  top: "relu4"
}
layer {
  name: "pool2"
  type: "Pooling"
  bottom: "relu4"
  top: "pool2"
  pooling_param {
    pool: MAX
    kernel_size: 2
    stride: 2
  }
}
layer {
  name: "drop2"
  type: "Dropout"
  bottom: "pool2"
  top: "drop2"
  dropout_param {
    dropout_ratio: 0.25
  }
}
layer {
  name: "fc1"
  type: "InnerProduct"
  bottom: "drop2"
  top: "fc1"
  param {
    lr_mult: 1
    decay_mult: 1
  }
  param {
    lr_mult: 2
    decay_mult: 0
  }
  inner_product_param {
    num_output: 512
    weight_filler {
      type: "xavier"
    }
    bias_filler {
      type: "constant"
      value: 1
    }
  }
}
layer {
  name: "bn5"
  type: "BatchNorm"
  bottom: "fc1"
  top: "bn5"
  param {
    lr_mult: 0
    decay_mult: 0
  }
  param {
    lr_mult: 0
    decay_mult: 0
  }
  param {
    lr_mult: 0
    decay_mult: 0
  }
  batch_norm_param {
    use_global_stats: false
  }
}
layer {
  name: "scale5"
  type: "Scale"
  bottom: "bn5"
  top: "scale5"
  scale_param {
    bias_term: true
  }
}
layer {
  name: "relu5"
  type: "ReLU"
  bottom: "scale5"
  top: "relu5"
}
layer {
  name: "drop3"
  type: "Dropout"
  bottom: "relu5"
  top: "drop3"
  dropout_param {
    dropout_ratio: 0.5
  }
}
layer {
  name: "fc2"
  type: "InnerProduct"
  bottom: "drop3"
  top: "fc2"
  param {
    lr_mult: 1
    decay_mult: 1
  }
  param {
    lr_mult: 2
    decay_mult: 0
  }
  inner_product_param {
    num_output: 10
    weight_filler {
      type: "xavier"
    }
    bias_filler {
      type: "constant"
      value: 1
    }
  }
}
layer {
  name: "loss"
  type: "SoftmaxWithLoss"
  bottom: "fc2"
  bottom: "label"
  top: "loss"
}
I0121 15:00:17.117648  6203 layer_factory.hpp:77] Creating layer data
I0121 15:00:17.119251  6203 db_lmdb.cpp:35] Opened lmdb cifar10/input/lmdb/train_lmdb
I0121 15:00:17.119293  6203 net.cpp:84] Creating Layer data
I0121 15:00:17.119307  6203 net.cpp:380] data -> data
I0121 15:00:17.119340  6203 net.cpp:380] data -> label
I0121 15:00:17.120144  6203 data_layer.cpp:45] output data size: 128,3,32,32
I0121 15:00:17.125212  6203 net.cpp:122] Setting up data
I0121 15:00:17.125242  6203 net.cpp:129] Top shape: 128 3 32 32 (393216)
I0121 15:00:17.125252  6203 net.cpp:129] Top shape: 128 (128)
I0121 15:00:17.125258  6203 net.cpp:137] Memory required for data: 1573376
I0121 15:00:17.125267  6203 layer_factory.hpp:77] Creating layer conv1
I0121 15:00:17.125293  6203 net.cpp:84] Creating Layer conv1
I0121 15:00:17.125306  6203 net.cpp:406] conv1 <- data
I0121 15:00:17.125332  6203 net.cpp:380] conv1 -> conv1
I0121 15:00:18.377817  6203 net.cpp:122] Setting up conv1
I0121 15:00:18.377859  6203 net.cpp:129] Top shape: 128 32 32 32 (4194304)
I0121 15:00:18.377866  6203 net.cpp:137] Memory required for data: 18350592
I0121 15:00:18.377887  6203 layer_factory.hpp:77] Creating layer bn1
I0121 15:00:18.377908  6203 net.cpp:84] Creating Layer bn1
I0121 15:00:18.377918  6203 net.cpp:406] bn1 <- conv1
I0121 15:00:18.377951  6203 net.cpp:380] bn1 -> bn1
I0121 15:00:18.378214  6203 net.cpp:122] Setting up bn1
I0121 15:00:18.378234  6203 net.cpp:129] Top shape: 128 32 32 32 (4194304)
I0121 15:00:18.378239  6203 net.cpp:137] Memory required for data: 35127808
I0121 15:00:18.378257  6203 layer_factory.hpp:77] Creating layer scale1
I0121 15:00:18.378305  6203 net.cpp:84] Creating Layer scale1
I0121 15:00:18.378321  6203 net.cpp:406] scale1 <- bn1
I0121 15:00:18.378332  6203 net.cpp:380] scale1 -> scale1
I0121 15:00:18.378396  6203 layer_factory.hpp:77] Creating layer scale1
I0121 15:00:18.378568  6203 net.cpp:122] Setting up scale1
I0121 15:00:18.378587  6203 net.cpp:129] Top shape: 128 32 32 32 (4194304)
I0121 15:00:18.378592  6203 net.cpp:137] Memory required for data: 51905024
I0121 15:00:18.378602  6203 layer_factory.hpp:77] Creating layer relu1
I0121 15:00:18.378610  6203 net.cpp:84] Creating Layer relu1
I0121 15:00:18.378617  6203 net.cpp:406] relu1 <- scale1
I0121 15:00:18.378623  6203 net.cpp:380] relu1 -> relu1
I0121 15:00:18.379859  6203 net.cpp:122] Setting up relu1
I0121 15:00:18.379881  6203 net.cpp:129] Top shape: 128 32 32 32 (4194304)
I0121 15:00:18.379886  6203 net.cpp:137] Memory required for data: 68682240
I0121 15:00:18.379891  6203 layer_factory.hpp:77] Creating layer conv2
I0121 15:00:18.379905  6203 net.cpp:84] Creating Layer conv2
I0121 15:00:18.379912  6203 net.cpp:406] conv2 <- relu1
I0121 15:00:18.379920  6203 net.cpp:380] conv2 -> conv2
I0121 15:00:18.381311  6203 net.cpp:122] Setting up conv2
I0121 15:00:18.381337  6203 net.cpp:129] Top shape: 128 32 32 32 (4194304)
I0121 15:00:18.381342  6203 net.cpp:137] Memory required for data: 85459456
I0121 15:00:18.381355  6203 layer_factory.hpp:77] Creating layer bn2
I0121 15:00:18.381364  6203 net.cpp:84] Creating Layer bn2
I0121 15:00:18.381371  6203 net.cpp:406] bn2 <- conv2
I0121 15:00:18.381382  6203 net.cpp:380] bn2 -> bn2
I0121 15:00:18.381592  6203 net.cpp:122] Setting up bn2
I0121 15:00:18.381609  6203 net.cpp:129] Top shape: 128 32 32 32 (4194304)
I0121 15:00:18.381615  6203 net.cpp:137] Memory required for data: 102236672
I0121 15:00:18.381624  6203 layer_factory.hpp:77] Creating layer scale2
I0121 15:00:18.381633  6203 net.cpp:84] Creating Layer scale2
I0121 15:00:18.381639  6203 net.cpp:406] scale2 <- bn2
I0121 15:00:18.381646  6203 net.cpp:380] scale2 -> scale2
I0121 15:00:18.381695  6203 layer_factory.hpp:77] Creating layer scale2
I0121 15:00:18.381845  6203 net.cpp:122] Setting up scale2
I0121 15:00:18.381863  6203 net.cpp:129] Top shape: 128 32 32 32 (4194304)
I0121 15:00:18.381870  6203 net.cpp:137] Memory required for data: 119013888
I0121 15:00:18.381877  6203 layer_factory.hpp:77] Creating layer relu2
I0121 15:00:18.381886  6203 net.cpp:84] Creating Layer relu2
I0121 15:00:18.381893  6203 net.cpp:406] relu2 <- scale2
I0121 15:00:18.381901  6203 net.cpp:380] relu2 -> relu2
I0121 15:00:18.382184  6203 net.cpp:122] Setting up relu2
I0121 15:00:18.382207  6203 net.cpp:129] Top shape: 128 32 32 32 (4194304)
I0121 15:00:18.382212  6203 net.cpp:137] Memory required for data: 135791104
I0121 15:00:18.382218  6203 layer_factory.hpp:77] Creating layer pool1
I0121 15:00:18.382230  6203 net.cpp:84] Creating Layer pool1
I0121 15:00:18.382236  6203 net.cpp:406] pool1 <- relu2
I0121 15:00:18.382242  6203 net.cpp:380] pool1 -> pool1
I0121 15:00:18.382308  6203 net.cpp:122] Setting up pool1
I0121 15:00:18.382329  6203 net.cpp:129] Top shape: 128 32 16 16 (1048576)
I0121 15:00:18.382338  6203 net.cpp:137] Memory required for data: 139985408
I0121 15:00:18.382341  6203 layer_factory.hpp:77] Creating layer drop1
I0121 15:00:18.382351  6203 net.cpp:84] Creating Layer drop1
I0121 15:00:18.382357  6203 net.cpp:406] drop1 <- pool1
I0121 15:00:18.382364  6203 net.cpp:380] drop1 -> drop1
I0121 15:00:18.382409  6203 net.cpp:122] Setting up drop1
I0121 15:00:18.382431  6203 net.cpp:129] Top shape: 128 32 16 16 (1048576)
I0121 15:00:18.382437  6203 net.cpp:137] Memory required for data: 144179712
I0121 15:00:18.382443  6203 layer_factory.hpp:77] Creating layer conv3
I0121 15:00:18.382479  6203 net.cpp:84] Creating Layer conv3
I0121 15:00:18.382490  6203 net.cpp:406] conv3 <- drop1
I0121 15:00:18.382503  6203 net.cpp:380] conv3 -> conv3
I0121 15:00:18.384177  6203 net.cpp:122] Setting up conv3
I0121 15:00:18.384202  6203 net.cpp:129] Top shape: 128 64 16 16 (2097152)
I0121 15:00:18.384209  6203 net.cpp:137] Memory required for data: 152568320
I0121 15:00:18.384218  6203 layer_factory.hpp:77] Creating layer bn3
I0121 15:00:18.384233  6203 net.cpp:84] Creating Layer bn3
I0121 15:00:18.384238  6203 net.cpp:406] bn3 <- conv3
I0121 15:00:18.384246  6203 net.cpp:380] bn3 -> bn3
I0121 15:00:18.384466  6203 net.cpp:122] Setting up bn3
I0121 15:00:18.384485  6203 net.cpp:129] Top shape: 128 64 16 16 (2097152)
I0121 15:00:18.384490  6203 net.cpp:137] Memory required for data: 160956928
I0121 15:00:18.384503  6203 layer_factory.hpp:77] Creating layer scale3
I0121 15:00:18.384516  6203 net.cpp:84] Creating Layer scale3
I0121 15:00:18.384521  6203 net.cpp:406] scale3 <- bn3
I0121 15:00:18.384529  6203 net.cpp:380] scale3 -> scale3
I0121 15:00:18.384580  6203 layer_factory.hpp:77] Creating layer scale3
I0121 15:00:18.384723  6203 net.cpp:122] Setting up scale3
I0121 15:00:18.384740  6203 net.cpp:129] Top shape: 128 64 16 16 (2097152)
I0121 15:00:18.384744  6203 net.cpp:137] Memory required for data: 169345536
I0121 15:00:18.384753  6203 layer_factory.hpp:77] Creating layer relu3
I0121 15:00:18.384768  6203 net.cpp:84] Creating Layer relu3
I0121 15:00:18.384773  6203 net.cpp:406] relu3 <- scale3
I0121 15:00:18.384778  6203 net.cpp:380] relu3 -> relu3
I0121 15:00:18.384944  6203 net.cpp:122] Setting up relu3
I0121 15:00:18.384964  6203 net.cpp:129] Top shape: 128 64 16 16 (2097152)
I0121 15:00:18.384969  6203 net.cpp:137] Memory required for data: 177734144
I0121 15:00:18.384974  6203 layer_factory.hpp:77] Creating layer conv4
I0121 15:00:18.384985  6203 net.cpp:84] Creating Layer conv4
I0121 15:00:18.384994  6203 net.cpp:406] conv4 <- relu3
I0121 15:00:18.385000  6203 net.cpp:380] conv4 -> conv4
I0121 15:00:18.386232  6203 net.cpp:122] Setting up conv4
I0121 15:00:18.386261  6203 net.cpp:129] Top shape: 128 64 16 16 (2097152)
I0121 15:00:18.386267  6203 net.cpp:137] Memory required for data: 186122752
I0121 15:00:18.386276  6203 layer_factory.hpp:77] Creating layer bn4
I0121 15:00:18.386296  6203 net.cpp:84] Creating Layer bn4
I0121 15:00:18.386307  6203 net.cpp:406] bn4 <- conv4
I0121 15:00:18.386320  6203 net.cpp:380] bn4 -> bn4
I0121 15:00:18.386549  6203 net.cpp:122] Setting up bn4
I0121 15:00:18.386570  6203 net.cpp:129] Top shape: 128 64 16 16 (2097152)
I0121 15:00:18.386579  6203 net.cpp:137] Memory required for data: 194511360
I0121 15:00:18.386593  6203 layer_factory.hpp:77] Creating layer scale4
I0121 15:00:18.386608  6203 net.cpp:84] Creating Layer scale4
I0121 15:00:18.386617  6203 net.cpp:406] scale4 <- bn4
I0121 15:00:18.386628  6203 net.cpp:380] scale4 -> scale4
I0121 15:00:18.386687  6203 layer_factory.hpp:77] Creating layer scale4
I0121 15:00:18.386857  6203 net.cpp:122] Setting up scale4
I0121 15:00:18.386874  6203 net.cpp:129] Top shape: 128 64 16 16 (2097152)
I0121 15:00:18.386880  6203 net.cpp:137] Memory required for data: 202899968
I0121 15:00:18.386888  6203 layer_factory.hpp:77] Creating layer relu4
I0121 15:00:18.386895  6203 net.cpp:84] Creating Layer relu4
I0121 15:00:18.386905  6203 net.cpp:406] relu4 <- scale4
I0121 15:00:18.386915  6203 net.cpp:380] relu4 -> relu4
I0121 15:00:18.387209  6203 net.cpp:122] Setting up relu4
I0121 15:00:18.387233  6203 net.cpp:129] Top shape: 128 64 16 16 (2097152)
I0121 15:00:18.387238  6203 net.cpp:137] Memory required for data: 211288576
I0121 15:00:18.387243  6203 layer_factory.hpp:77] Creating layer pool2
I0121 15:00:18.387251  6203 net.cpp:84] Creating Layer pool2
I0121 15:00:18.387262  6203 net.cpp:406] pool2 <- relu4
I0121 15:00:18.387270  6203 net.cpp:380] pool2 -> pool2
I0121 15:00:18.387325  6203 net.cpp:122] Setting up pool2
I0121 15:00:18.387346  6203 net.cpp:129] Top shape: 128 64 8 8 (524288)
I0121 15:00:18.387374  6203 net.cpp:137] Memory required for data: 213385728
I0121 15:00:18.387380  6203 layer_factory.hpp:77] Creating layer drop2
I0121 15:00:18.387392  6203 net.cpp:84] Creating Layer drop2
I0121 15:00:18.387396  6203 net.cpp:406] drop2 <- pool2
I0121 15:00:18.387403  6203 net.cpp:380] drop2 -> drop2
I0121 15:00:18.387459  6203 net.cpp:122] Setting up drop2
I0121 15:00:18.387480  6203 net.cpp:129] Top shape: 128 64 8 8 (524288)
I0121 15:00:18.387485  6203 net.cpp:137] Memory required for data: 215482880
I0121 15:00:18.387490  6203 layer_factory.hpp:77] Creating layer fc1
I0121 15:00:18.387502  6203 net.cpp:84] Creating Layer fc1
I0121 15:00:18.387516  6203 net.cpp:406] fc1 <- drop2
I0121 15:00:18.387526  6203 net.cpp:380] fc1 -> fc1
I0121 15:00:18.401763  6203 net.cpp:122] Setting up fc1
I0121 15:00:18.401789  6203 net.cpp:129] Top shape: 128 512 (65536)
I0121 15:00:18.401798  6203 net.cpp:137] Memory required for data: 215745024
I0121 15:00:18.401811  6203 layer_factory.hpp:77] Creating layer bn5
I0121 15:00:18.401826  6203 net.cpp:84] Creating Layer bn5
I0121 15:00:18.401835  6203 net.cpp:406] bn5 <- fc1
I0121 15:00:18.401847  6203 net.cpp:380] bn5 -> bn5
I0121 15:00:18.402060  6203 net.cpp:122] Setting up bn5
I0121 15:00:18.402081  6203 net.cpp:129] Top shape: 128 512 (65536)
I0121 15:00:18.402087  6203 net.cpp:137] Memory required for data: 216007168
I0121 15:00:18.402108  6203 layer_factory.hpp:77] Creating layer scale5
I0121 15:00:18.402120  6203 net.cpp:84] Creating Layer scale5
I0121 15:00:18.402128  6203 net.cpp:406] scale5 <- bn5
I0121 15:00:18.402142  6203 net.cpp:380] scale5 -> scale5
I0121 15:00:18.402197  6203 layer_factory.hpp:77] Creating layer scale5
I0121 15:00:18.402335  6203 net.cpp:122] Setting up scale5
I0121 15:00:18.402356  6203 net.cpp:129] Top shape: 128 512 (65536)
I0121 15:00:18.402364  6203 net.cpp:137] Memory required for data: 216269312
I0121 15:00:18.402376  6203 layer_factory.hpp:77] Creating layer relu5
I0121 15:00:18.402387  6203 net.cpp:84] Creating Layer relu5
I0121 15:00:18.402395  6203 net.cpp:406] relu5 <- scale5
I0121 15:00:18.402403  6203 net.cpp:380] relu5 -> relu5
I0121 15:00:18.402565  6203 net.cpp:122] Setting up relu5
I0121 15:00:18.402586  6203 net.cpp:129] Top shape: 128 512 (65536)
I0121 15:00:18.402595  6203 net.cpp:137] Memory required for data: 216531456
I0121 15:00:18.402601  6203 layer_factory.hpp:77] Creating layer drop3
I0121 15:00:18.402614  6203 net.cpp:84] Creating Layer drop3
I0121 15:00:18.402623  6203 net.cpp:406] drop3 <- relu5
I0121 15:00:18.402632  6203 net.cpp:380] drop3 -> drop3
I0121 15:00:18.402685  6203 net.cpp:122] Setting up drop3
I0121 15:00:18.402703  6203 net.cpp:129] Top shape: 128 512 (65536)
I0121 15:00:18.402710  6203 net.cpp:137] Memory required for data: 216793600
I0121 15:00:18.402716  6203 layer_factory.hpp:77] Creating layer fc2
I0121 15:00:18.402731  6203 net.cpp:84] Creating Layer fc2
I0121 15:00:18.402740  6203 net.cpp:406] fc2 <- drop3
I0121 15:00:18.402750  6203 net.cpp:380] fc2 -> fc2
I0121 15:00:18.402914  6203 net.cpp:122] Setting up fc2
I0121 15:00:18.402931  6203 net.cpp:129] Top shape: 128 10 (1280)
I0121 15:00:18.402940  6203 net.cpp:137] Memory required for data: 216798720
I0121 15:00:18.402952  6203 layer_factory.hpp:77] Creating layer loss
I0121 15:00:18.402967  6203 net.cpp:84] Creating Layer loss
I0121 15:00:18.402981  6203 net.cpp:406] loss <- fc2
I0121 15:00:18.402992  6203 net.cpp:406] loss <- label
I0121 15:00:18.403007  6203 net.cpp:380] loss -> loss
I0121 15:00:18.403043  6203 layer_factory.hpp:77] Creating layer loss
…
I0121 15:00:18.405233  6203 net.cpp:294] The NetState phase (1) differed from the phase (0) specified by a rule in layer data
I0121 15:00:18.405457  6203 net.cpp:51] Initializing net from parameters: 
name: "miniVggNet on Cifar10 m3 NO-inPlace"
state {
  phase: TEST
}
layer {
  name: "data"
  type: "Data"
  top: "data"
  top: "label"
  include {
    phase: TEST
  }
  transform_param {
    mirror: false
    mean_value: 125
    mean_value: 123
    mean_value: 114
  }
  data_param {
    source: "cifar10/input/lmdb/valid_lmdb"
    batch_size: 50
    backend: LMDB
  }
}
layer {
  name: "conv1"
  type: "Convolution"
  bottom: "data"
  top: "conv1"
  param {
    lr_mult: 1
    decay_mult: 1
  }
  param {
    lr_mult: 2
    decay_mult: 0
  }
  convolution_param {
    num_output: 32
    pad: 1
    kernel_size: 3
    stride: 1
    weight_filler {
      type: "xavier"
    }
    bias_filler {
      type: "constant"
      value: 0
    }
  }
}
layer {
  name: "bn1"
  type: "BatchNorm"
  bottom: "conv1"
  top: "bn1"
  param {
    lr_mult: 0
    decay_mult: 0
  }
  param {
    lr_mult: 0
    decay_mult: 0
  }
  param {
    lr_mult: 0
    decay_mult: 0
  }
  batch_norm_param {
    use_global_stats: false
  }
}
layer {
  name: "scale1"
  type: "Scale"
  bottom: "bn1"
  top: "scale1"
  scale_param {
    bias_term: true
  }
}
layer {
  name: "relu1"
  type: "ReLU"
  bottom: "scale1"
  top: "relu1"
}
layer {
  name: "conv2"
  type: "Convolution"
  bottom: "relu1"
  top: "conv2"
  param {
    lr_mult: 1
    decay_mult: 1
  }
  param {
    lr_mult: 2
    decay_mult: 0
  }
  convolution_param {
    num_output: 32
    pad: 1
    kernel_size: 3
    stride: 1
    weight_filler {
      type: "xavier"
    }
    bias_filler {
      type: "constant"
      value: 0
    }
  }
}
layer {
  name: "bn2"
  type: "BatchNorm"
  bottom: "conv2"
  top: "bn2"
  param {
    lr_mult: 0
    decay_mult: 0
  }
  param {
    lr_mult: 0
    decay_mult: 0
  }
  param {
    lr_mult: 0
    decay_mult: 0
  }
  batch_norm_param {
    use_global_stats: false
  }
}
layer {
  name: "scale2"
  type: "Scale"
  bottom: "bn2"
  top: "scale2"
  scale_param {
    bias_term: true
  }
}
layer {
  name: "relu2"
  type: "ReLU"
  bottom: "scale2"
  top: "relu2"
}
layer {
  name: "pool1"
  type: "Pooling"
  bottom: "relu2"
  top: "pool1"
  pooling_param {
    pool: MAX
    kernel_size: 2
    stride: 2
  }
}
layer {
  name: "drop1"
  type: "Dropout"
  bottom: "pool1"
  top: "drop1"
  dropout_param {
    dropout_ratio: 0.25
  }
}
layer {
  name: "conv3"
  type: "Convolution"
  bottom: "drop1"
  top: "conv3"
  param {
    lr_mult: 1
    decay_mult: 1
  }
  param {
    lr_mult: 2
    decay_mult: 0
  }
  convolution_param {
    num_output: 64
    pad: 1
    kernel_size: 3
    stride: 1
    weight_filler {
      type: "xavier"
    }
    bias_filler {
      type: "constant"
      value: 0
    }
  }
}
layer {
  name: "bn3"
  type: "BatchNorm"
  bottom: "conv3"
  top: "bn3"
  param {
    lr_mult: 0
    decay_mult: 0
  }
  param {
    lr_mult: 0
    decay_mult: 0
  }
  param {
    lr_mult: 0
    decay_mult: 0
  }
  batch_norm_param {
    use_global_stats: false
  }
}
layer {
  name: "scale3"
  type: "Scale"
  bottom: "bn3"
  top: "scale3"
  scale_param {
    bias_term: true
  }
}
layer {
  name: "relu3"
  type: "ReLU"
  bottom: "scale3"
  top: "relu3"
}
layer {
  name: "conv4"
  type: "Convolution"
  bottom: "relu3"
  top: "conv4"
  param {
    lr_mult: 1
    decay_mult: 1
  }
  param {
    lr_mult: 2
    decay_mult: 0
  }
  convolution_param {
    num_output: 64
    pad: 1
    kernel_size: 3
    stride: 1
    weight_filler {
      type: "xavier"
    }
    bias_filler {
      type: "constant"
      value: 0
    }
  }
}
layer {
  name: "bn4"
  type: "BatchNorm"
  bottom: "conv4"
  top: "bn4"
  param {
    lr_mult: 0
    decay_mult: 0
  }
  param {
    lr_mult: 0
    decay_mult: 0
  }
  param {
    lr_mult: 0
    decay_mult: 0
  }
  batch_norm_param {
    use_global_stats: false
  }
}
layer {
  name: "scale4"
  type: "Scale"
  bottom: "bn4"
  top: "scale4"
  scale_param {
    bias_term: true
  }
}
layer {
  name: "relu4"
  type: "ReLU"
  bottom: "scale4"
  top: "relu4"
}
layer {
  name: "pool2"
  type: "Pooling"
  bottom: "relu4"
  top: "pool2"
  pooling_param {
    pool: MAX
    kernel_size: 2
    stride: 2
  }
}
layer {
  name: "drop2"
  type: "Dropout"
  bottom: "pool2"
  top: "drop2"
  dropout_param {
    dropout_ratio: 0.25
  }
}
layer {
  name: "fc1"
  type: "InnerProduct"
  bottom: "drop2"
  top: "fc1"
  param {
    lr_mult: 1
    decay_mult: 1
  }
  param {
    lr_mult: 2
    decay_mult: 0
  }
  inner_product_param {
    num_output: 512
    weight_filler {
      type: "xavier"
    }
    bias_filler {
      type: "constant"
      value: 1
    }
  }
}
layer {
  name: "bn5"
  type: "BatchNorm"
  bottom: "fc1"
  top: "bn5"
  param {
    lr_mult: 0
    decay_mult: 0
  }
  param {
    lr_mult: 0
    decay_mult: 0
  }
  param {
    lr_mult: 0
    decay_mult: 0
  }
  batch_norm_param {
    use_global_stats: false
  }
}
layer {
  name: "scale5"
  type: "Scale"
  bottom: "bn5"
  top: "scale5"
  scale_param {
    bias_term: true
  }
}
layer {
  name: "relu5"
  type: "ReLU"
  bottom: "scale5"
  top: "relu5"
}
layer {
  name: "drop3"
  type: "Dropout"
  bottom: "relu5"
  top: "drop3"
  dropout_param {
    dropout_ratio: 0.5
  }
}
layer {
  name: "fc2"
  type: "InnerProduct"
  bottom: "drop3"
  top: "fc2"
  param {
    lr_mult: 1
    decay_mult: 1
  }
  param {
    lr_mult: 2
    decay_mult: 0
  }
  inner_product_param {
    num_output: 10
    weight_filler {
      type: "xavier"
    }
    bias_filler {
      type: "constant"
      value: 1
    }
  }
}
layer {
  name: "loss"
  type: "SoftmaxWithLoss"
  bottom: "fc2"
  bottom: "label"
  top: "loss"
}
layer {
  name: "accuracy"
  type: "Accuracy"
  bottom: "fc2"
  bottom: "label"
  top: "accuracy"
  include {
    phase: TEST
  }
}
I0121 15:00:18.405647  6203 layer_factory.hpp:77] Creating layer data
I0121 15:00:18.405728  6203 db_lmdb.cpp:35] Opened lmdb cifar10/input/lmdb/valid_lmdb
I0121 15:00:18.405759  6203 net.cpp:84] Creating Layer data
I0121 15:00:18.405771  6203 net.cpp:380] data -> data
I0121 15:00:18.405786  6203 net.cpp:380] data -> label
I0121 15:00:18.405912  6203 data_layer.cpp:45] output data size: 50,3,32,32
I0121 15:00:18.409639  6203 net.cpp:122] Setting up data
I0121 15:00:18.409664  6203 net.cpp:129] Top shape: 50 3 32 32 (153600)
I0121 15:00:18.409675  6203 net.cpp:129] Top shape: 50 (50)
I0121 15:00:18.409683  6203 net.cpp:137] Memory required for data: 614600
I0121 15:00:18.409693  6203 layer_factory.hpp:77] Creating layer label_data_1_split
I0121 15:00:18.409704  6203 net.cpp:84] Creating Layer label_data_1_split
I0121 15:00:18.409729  6203 net.cpp:406] label_data_1_split <- label
I0121 15:00:18.409755  6203 net.cpp:380] label_data_1_split -> label_data_1_split_0
I0121 15:00:18.409790  6203 net.cpp:380] label_data_1_split -> label_data_1_split_1
I0121 15:00:18.409884  6203 net.cpp:122] Setting up label_data_1_split
I0121 15:00:18.409905  6203 net.cpp:129] Top shape: 50 (50)
I0121 15:00:18.409915  6203 net.cpp:129] Top shape: 50 (50)
I0121 15:00:18.409922  6203 net.cpp:137] Memory required for data: 615000
I0121 15:00:18.409929  6203 layer_factory.hpp:77] Creating layer conv1
I0121 15:00:18.409963  6203 net.cpp:84] Creating Layer conv1
I0121 15:00:18.409976  6203 net.cpp:406] conv1 <- data
I0121 15:00:18.409987  6203 net.cpp:380] conv1 -> conv1
I0121 15:00:18.412380  6203 net.cpp:122] Setting up conv1
I0121 15:00:18.412406  6203 net.cpp:129] Top shape: 50 32 32 32 (1638400)
I0121 15:00:18.412415  6203 net.cpp:137] Memory required for data: 7168600
I0121 15:00:18.412436  6203 layer_factory.hpp:77] Creating layer bn1
I0121 15:00:18.412467  6203 net.cpp:84] Creating Layer bn1
I0121 15:00:18.412492  6203 net.cpp:406] bn1 <- conv1
I0121 15:00:18.412518  6203 net.cpp:380] bn1 -> bn1
I0121 15:00:18.412879  6203 net.cpp:122] Setting up bn1
I0121 15:00:18.412899  6203 net.cpp:129] Top shape: 50 32 32 32 (1638400)
I0121 15:00:18.412907  6203 net.cpp:137] Memory required for data: 13722200
I0121 15:00:18.412925  6203 layer_factory.hpp:77] Creating layer scale1
I0121 15:00:18.412955  6203 net.cpp:84] Creating Layer scale1
I0121 15:00:18.412976  6203 net.cpp:406] scale1 <- bn1
I0121 15:00:18.413000  6203 net.cpp:380] scale1 -> scale1
I0121 15:00:18.413089  6203 layer_factory.hpp:77] Creating layer scale1
I0121 15:00:18.413254  6203 net.cpp:122] Setting up scale1
I0121 15:00:18.413273  6203 net.cpp:129] Top shape: 50 32 32 32 (1638400)
I0121 15:00:18.413288  6203 net.cpp:137] Memory required for data: 20275800
I0121 15:00:18.413300  6203 layer_factory.hpp:77] Creating layer relu1
I0121 15:00:18.413327  6203 net.cpp:84] Creating Layer relu1
I0121 15:00:18.413349  6203 net.cpp:406] relu1 <- scale1
I0121 15:00:18.413378  6203 net.cpp:380] relu1 -> relu1
I0121 15:00:18.413569  6203 net.cpp:122] Setting up relu1
I0121 15:00:18.413599  6203 net.cpp:129] Top shape: 50 32 32 32 (1638400)
I0121 15:00:18.413607  6203 net.cpp:137] Memory required for data: 26829400
I0121 15:00:18.413614  6203 layer_factory.hpp:77] Creating layer conv2
I0121 15:00:18.413637  6203 net.cpp:84] Creating Layer conv2
I0121 15:00:18.413663  6203 net.cpp:406] conv2 <- relu1
I0121 15:00:18.413691  6203 net.cpp:380] conv2 -> conv2
I0121 15:00:18.415047  6203 net.cpp:122] Setting up conv2
I0121 15:00:18.415081  6203 net.cpp:129] Top shape: 50 32 32 32 (1638400)
I0121 15:00:18.415092  6203 net.cpp:137] Memory required for data: 33383000
I0121 15:00:18.415108  6203 layer_factory.hpp:77] Creating layer bn2
I0121 15:00:18.415143  6203 net.cpp:84] Creating Layer bn2
I0121 15:00:18.415166  6203 net.cpp:406] bn2 <- conv2
I0121 15:00:18.415206  6203 net.cpp:380] bn2 -> bn2
I0121 15:00:18.415489  6203 net.cpp:122] Setting up bn2
I0121 15:00:18.415522  6203 net.cpp:129] Top shape: 50 32 32 32 (1638400)
I0121 15:00:18.415537  6203 net.cpp:137] Memory required for data: 39936600
I0121 15:00:18.415556  6203 layer_factory.hpp:77] Creating layer scale2
I0121 15:00:18.415594  6203 net.cpp:84] Creating Layer scale2
I0121 15:00:18.415617  6203 net.cpp:406] scale2 <- bn2
I0121 15:00:18.415642  6203 net.cpp:380] scale2 -> scale2
I0121 15:00:18.415726  6203 layer_factory.hpp:77] Creating layer scale2
I0121 15:00:18.415891  6203 net.cpp:122] Setting up scale2
I0121 15:00:18.415910  6203 net.cpp:129] Top shape: 50 32 32 32 (1638400)
I0121 15:00:18.415918  6203 net.cpp:137] Memory required for data: 46490200
I0121 15:00:18.415930  6203 layer_factory.hpp:77] Creating layer relu2
I0121 15:00:18.415943  6203 net.cpp:84] Creating Layer relu2
I0121 15:00:18.415957  6203 net.cpp:406] relu2 <- scale2
I0121 15:00:18.415966  6203 net.cpp:380] relu2 -> relu2
I0121 15:00:18.416297  6203 net.cpp:122] Setting up relu2
I0121 15:00:18.416319  6203 net.cpp:129] Top shape: 50 32 32 32 (1638400)
I0121 15:00:18.416326  6203 net.cpp:137] Memory required for data: 53043800
I0121 15:00:18.416329  6203 layer_factory.hpp:77] Creating layer pool1
I0121 15:00:18.416340  6203 net.cpp:84] Creating Layer pool1
I0121 15:00:18.416354  6203 net.cpp:406] pool1 <- relu2
I0121 15:00:18.416364  6203 net.cpp:380] pool1 -> pool1
I0121 15:00:18.416431  6203 net.cpp:122] Setting up pool1
I0121 15:00:18.416448  6203 net.cpp:129] Top shape: 50 32 16 16 (409600)
I0121 15:00:18.416453  6203 net.cpp:137] Memory required for data: 54682200
I0121 15:00:18.416457  6203 layer_factory.hpp:77] Creating layer drop1
I0121 15:00:18.416465  6203 net.cpp:84] Creating Layer drop1
I0121 15:00:18.416479  6203 net.cpp:406] drop1 <- pool1
I0121 15:00:18.416492  6203 net.cpp:380] drop1 -> drop1
I0121 15:00:18.416579  6203 net.cpp:122] Setting up drop1
I0121 15:00:18.416599  6203 net.cpp:129] Top shape: 50 32 16 16 (409600)
I0121 15:00:18.416604  6203 net.cpp:137] Memory required for data: 56320600
I0121 15:00:18.416609  6203 layer_factory.hpp:77] Creating layer conv3
I0121 15:00:18.416621  6203 net.cpp:84] Creating Layer conv3
I0121 15:00:18.416636  6203 net.cpp:406] conv3 <- drop1
I0121 15:00:18.416649  6203 net.cpp:380] conv3 -> conv3
I0121 15:00:18.417706  6203 net.cpp:122] Setting up conv3
I0121 15:00:18.417737  6203 net.cpp:129] Top shape: 50 64 16 16 (819200)
I0121 15:00:18.417745  6203 net.cpp:137] Memory required for data: 59597400
I0121 15:00:18.417759  6203 layer_factory.hpp:77] Creating layer bn3
I0121 15:00:18.417773  6203 net.cpp:84] Creating Layer bn3
I0121 15:00:18.417805  6203 net.cpp:406] bn3 <- conv3
I0121 15:00:18.417840  6203 net.cpp:380] bn3 -> bn3
I0121 15:00:18.418103  6203 net.cpp:122] Setting up bn3
I0121 15:00:18.418123  6203 net.cpp:129] Top shape: 50 64 16 16 (819200)
I0121 15:00:18.418128  6203 net.cpp:137] Memory required for data: 62874200
I0121 15:00:18.418139  6203 layer_factory.hpp:77] Creating layer scale3
I0121 15:00:18.418160  6203 net.cpp:84] Creating Layer scale3
I0121 15:00:18.418169  6203 net.cpp:406] scale3 <- bn3
I0121 15:00:18.418184  6203 net.cpp:380] scale3 -> scale3
I0121 15:00:18.418262  6203 layer_factory.hpp:77] Creating layer scale3
I0121 15:00:18.418444  6203 net.cpp:122] Setting up scale3
I0121 15:00:18.418468  6203 net.cpp:129] Top shape: 50 64 16 16 (819200)
I0121 15:00:18.418475  6203 net.cpp:137] Memory required for data: 66151000
I0121 15:00:18.418486  6203 layer_factory.hpp:77] Creating layer relu3
I0121 15:00:18.418506  6203 net.cpp:84] Creating Layer relu3
I0121 15:00:18.418514  6203 net.cpp:406] relu3 <- scale3
I0121 15:00:18.418530  6203 net.cpp:380] relu3 -> relu3
I0121 15:00:18.418874  6203 net.cpp:122] Setting up relu3
I0121 15:00:18.418898  6203 net.cpp:129] Top shape: 50 64 16 16 (819200)
I0121 15:00:18.418905  6203 net.cpp:137] Memory required for data: 69427800
I0121 15:00:18.418910  6203 layer_factory.hpp:77] Creating layer conv4
I0121 15:00:18.418927  6203 net.cpp:84] Creating Layer conv4
I0121 15:00:18.418944  6203 net.cpp:406] conv4 <- relu3
I0121 15:00:18.418972  6203 net.cpp:380] conv4 -> conv4
I0121 15:00:18.420138  6203 net.cpp:122] Setting up conv4
I0121 15:00:18.420163  6203 net.cpp:129] Top shape: 50 64 16 16 (819200)
I0121 15:00:18.420169  6203 net.cpp:137] Memory required for data: 72704600
I0121 15:00:18.420178  6203 layer_factory.hpp:77] Creating layer bn4
I0121 15:00:18.420202  6203 net.cpp:84] Creating Layer bn4
I0121 15:00:18.420217  6203 net.cpp:406] bn4 <- conv4
I0121 15:00:18.420229  6203 net.cpp:380] bn4 -> bn4
I0121 15:00:18.420498  6203 net.cpp:122] Setting up bn4
I0121 15:00:18.420517  6203 net.cpp:129] Top shape: 50 64 16 16 (819200)
I0121 15:00:18.420522  6203 net.cpp:137] Memory required for data: 75981400
I0121 15:00:18.420534  6203 layer_factory.hpp:77] Creating layer scale4
I0121 15:00:18.420550  6203 net.cpp:84] Creating Layer scale4
I0121 15:00:18.420558  6203 net.cpp:406] scale4 <- bn4
I0121 15:00:18.420567  6203 net.cpp:380] scale4 -> scale4
I0121 15:00:18.420660  6203 layer_factory.hpp:77] Creating layer scale4
I0121 15:00:18.420815  6203 net.cpp:122] Setting up scale4
I0121 15:00:18.420832  6203 net.cpp:129] Top shape: 50 64 16 16 (819200)
I0121 15:00:18.420836  6203 net.cpp:137] Memory required for data: 79258200
I0121 15:00:18.420845  6203 layer_factory.hpp:77] Creating layer relu4
I0121 15:00:18.420852  6203 net.cpp:84] Creating Layer relu4
I0121 15:00:18.420866  6203 net.cpp:406] relu4 <- scale4
I0121 15:00:18.420878  6203 net.cpp:380] relu4 -> relu4
I0121 15:00:18.421288  6203 net.cpp:122] Setting up relu4
I0121 15:00:18.421310  6203 net.cpp:129] Top shape: 50 64 16 16 (819200)
I0121 15:00:18.421316  6203 net.cpp:137] Memory required for data: 82535000
I0121 15:00:18.421321  6203 layer_factory.hpp:77] Creating layer pool2
I0121 15:00:18.421332  6203 net.cpp:84] Creating Layer pool2
I0121 15:00:18.421347  6203 net.cpp:406] pool2 <- relu4
I0121 15:00:18.421358  6203 net.cpp:380] pool2 -> pool2
I0121 15:00:18.421452  6203 net.cpp:122] Setting up pool2
I0121 15:00:18.421470  6203 net.cpp:129] Top shape: 50 64 8 8 (204800)
I0121 15:00:18.421475  6203 net.cpp:137] Memory required for data: 83354200
I0121 15:00:18.421479  6203 layer_factory.hpp:77] Creating layer drop2
I0121 15:00:18.421486  6203 net.cpp:84] Creating Layer drop2
I0121 15:00:18.421501  6203 net.cpp:406] drop2 <- pool2
I0121 15:00:18.421516  6203 net.cpp:380] drop2 -> drop2
I0121 15:00:18.421586  6203 net.cpp:122] Setting up drop2
I0121 15:00:18.421604  6203 net.cpp:129] Top shape: 50 64 8 8 (204800)
I0121 15:00:18.421609  6203 net.cpp:137] Memory required for data: 84173400
I0121 15:00:18.421614  6203 layer_factory.hpp:77] Creating layer fc1
I0121 15:00:18.421622  6203 net.cpp:84] Creating Layer fc1
I0121 15:00:18.421636  6203 net.cpp:406] fc1 <- drop2
I0121 15:00:18.421650  6203 net.cpp:380] fc1 -> fc1
I0121 15:00:18.435988  6203 net.cpp:122] Setting up fc1
I0121 15:00:18.436012  6203 net.cpp:129] Top shape: 50 512 (25600)
I0121 15:00:18.436017  6203 net.cpp:137] Memory required for data: 84275800
I0121 15:00:18.436025  6203 layer_factory.hpp:77] Creating layer bn5
I0121 15:00:18.436043  6203 net.cpp:84] Creating Layer bn5
I0121 15:00:18.436051  6203 net.cpp:406] bn5 <- fc1
I0121 15:00:18.436071  6203 net.cpp:380] bn5 -> bn5
I0121 15:00:18.436302  6203 net.cpp:122] Setting up bn5
I0121 15:00:18.436319  6203 net.cpp:129] Top shape: 50 512 (25600)
I0121 15:00:18.436324  6203 net.cpp:137] Memory required for data: 84378200
I0121 15:00:18.436339  6203 layer_factory.hpp:77] Creating layer scale5
I0121 15:00:18.436355  6203 net.cpp:84] Creating Layer scale5
I0121 15:00:18.436364  6203 net.cpp:406] scale5 <- bn5
I0121 15:00:18.436378  6203 net.cpp:380] scale5 -> scale5
I0121 15:00:18.436470  6203 layer_factory.hpp:77] Creating layer scale5
I0121 15:00:18.436628  6203 net.cpp:122] Setting up scale5
I0121 15:00:18.436645  6203 net.cpp:129] Top shape: 50 512 (25600)
I0121 15:00:18.436650  6203 net.cpp:137] Memory required for data: 84480600
I0121 15:00:18.436657  6203 layer_factory.hpp:77] Creating layer relu5
I0121 15:00:18.436667  6203 net.cpp:84] Creating Layer relu5
I0121 15:00:18.436694  6203 net.cpp:406] relu5 <- scale5
I0121 15:00:18.436705  6203 net.cpp:380] relu5 -> relu5
I0121 15:00:18.436904  6203 net.cpp:122] Setting up relu5
I0121 15:00:18.436925  6203 net.cpp:129] Top shape: 50 512 (25600)
I0121 15:00:18.436930  6203 net.cpp:137] Memory required for data: 84583000
I0121 15:00:18.436935  6203 layer_factory.hpp:77] Creating layer drop3
I0121 15:00:18.436942  6203 net.cpp:84] Creating Layer drop3
I0121 15:00:18.436954  6203 net.cpp:406] drop3 <- relu5
I0121 15:00:18.436971  6203 net.cpp:380] drop3 -> drop3
I0121 15:00:18.437042  6203 net.cpp:122] Setting up drop3
I0121 15:00:18.437062  6203 net.cpp:129] Top shape: 50 512 (25600)
I0121 15:00:18.437070  6203 net.cpp:137] Memory required for data: 84685400
I0121 15:00:18.437077  6203 layer_factory.hpp:77] Creating layer fc2
I0121 15:00:18.437090  6203 net.cpp:84] Creating Layer fc2
I0121 15:00:18.437121  6203 net.cpp:406] fc2 <- drop3
I0121 15:00:18.437155  6203 net.cpp:380] fc2 -> fc2
I0121 15:00:18.437330  6203 net.cpp:122] Setting up fc2
I0121 15:00:18.437348  6203 net.cpp:129] Top shape: 50 10 (500)
I0121 15:00:18.437353  6203 net.cpp:137] Memory required for data: 84687400
I0121 15:00:18.437364  6203 layer_factory.hpp:77] Creating layer fc2_fc2_0_split
I0121 15:00:18.437384  6203 net.cpp:84] Creating Layer fc2_fc2_0_split
I0121 15:00:18.437399  6203 net.cpp:406] fc2_fc2_0_split <- fc2
I0121 15:00:18.437409  6203 net.cpp:380] fc2_fc2_0_split -> fc2_fc2_0_split_0
I0121 15:00:18.437428  6203 net.cpp:380] fc2_fc2_0_split -> fc2_fc2_0_split_1
I0121 15:00:18.437490  6203 net.cpp:122] Setting up fc2_fc2_0_split
I0121 15:00:18.437506  6203 net.cpp:129] Top shape: 50 10 (500)
I0121 15:00:18.437512  6203 net.cpp:129] Top shape: 50 10 (500)
I0121 15:00:18.437517  6203 net.cpp:137] Memory required for data: 84691400
I0121 15:00:18.437525  6203 layer_factory.hpp:77] Creating layer loss
I0121 15:00:18.437541  6203 net.cpp:84] Creating Layer loss
I0121 15:00:18.437556  6203 net.cpp:406] loss <- fc2_fc2_0_split_0
I0121 15:00:18.437566  6203 net.cpp:406] loss <- label_data_1_split_0
I0121 15:00:18.437584  6203 net.cpp:380] loss -> loss
…
W0121 15:45:23.436619  6240 _caffe.cpp:142] Net('cifar10/caffe/models/miniVggNet/m3/deploy_3_miniVggNet.prototxt', 1, weights='cifar10/caffe/models/miniVggNet/m3/snapshot_3_miniVggNet__iter_40000.caffemodel')
I0121 15:45:23.439738  6240 upgrade_proto.cpp:77] Attempting to upgrade batch norm layers using deprecated params: cifar10/caffe/models/miniVggNet/m3/deploy_3_miniVggNet.prototxt
I0121 15:45:23.439759  6240 upgrade_proto.cpp:80] Successfully upgraded batch norm layers using deprecated params.
I0121 15:45:23.440953  6240 net.cpp:51] Initializing net from parameters: 
state {
  phase: TEST
  level: 0
}
layer {
  name: "data"
  type: "Input"
  top: "data"
  input_param {
    shape {
      dim: 1
      dim: 3
      dim: 32
      dim: 32
    }
  }
}
layer {
  name: "conv1"
  type: "Convolution"
  bottom: "data"
  top: "conv1"
  param {
    lr_mult: 1
    decay_mult: 1
  }
  param {
    lr_mult: 2
    decay_mult: 0
  }
  convolution_param {
    num_output: 32
    pad: 1
    kernel_size: 3
    stride: 1
    weight_filler {
      type: "xavier"
    }
    bias_filler {
      type: "constant"
      value: 0
    }
  }
}
layer {
  name: "bn1"
  type: "BatchNorm"
  bottom: "conv1"
  top: "bn1"
  param {
    lr_mult: 0
    decay_mult: 0
  }
  param {
    lr_mult: 0
    decay_mult: 0
  }
  param {
    lr_mult: 0
    decay_mult: 0
  }
  batch_norm_param {
    use_global_stats: true
  }
}
layer {
  name: "scale1"
  type: "Scale"
  bottom: "bn1"
  top: "scale1"
  scale_param {
    bias_term: true
  }
}
layer {
  name: "relu1"
  type: "ReLU"
  bottom: "scale1"
  top: "relu1"
}
layer {
  name: "conv2"
  type: "Convolution"
  bottom: "relu1"
  top: "conv2"
  param {
    lr_mult: 1
    decay_mult: 1
  }
  param {
    lr_mult: 2
    decay_mult: 0
  }
  convolution_param {
    num_output: 32
    pad: 1
    kernel_size: 3
    stride: 1
    weight_filler {
      type: "xavier"
    }
    bias_filler {
      type: "constant"
      value: 0
    }
  }
}
layer {
  name: "bn2"
  type: "BatchNorm"
  bottom: "conv2"
  top: "bn2"
  param {
    lr_mult: 0
    decay_mult: 0
  }
  param {
    lr_mult: 0
    decay_mult: 0
  }
  param {
    lr_mult: 0
    decay_mult: 0
  }
  batch_norm_param {
    use_global_stats: true
  }
}
layer {
  name: "scale2"
  type: "Scale"
  bottom: "bn2"
  top: "scale2"
  scale_param {
    bias_term: true
  }
}
layer {
  name: "relu2"
  type: "ReLU"
  bottom: "scale2"
  top: "relu2"
}
layer {
  name: "pool1"
  type: "Pooling"
  bottom: "relu2"
  top: "pool1"
  pooling_param {
    pool: MAX
    kernel_size: 2
    stride: 2
  }
}
layer {
  name: "drop1"
  type: "Dropout"
  bottom: "pool1"
  top: "drop1"
  dropout_param {
    dropout_ratio: 0.25
  }
}
layer {
  name: "conv3"
  type: "Convolution"
  bottom: "drop1"
  top: "conv3"
  param {
    lr_mult: 1
    decay_mult: 1
  }
  param {
    lr_mult: 2
    decay_mult: 0
  }
  convolution_param {
    num_output: 64
    pad: 1
    kernel_size: 3
    stride: 1
    weight_filler {
      type: "xavier"
    }
    bias_filler {
      type: "constant"
      value: 0
    }
  }
}
layer {
  name: "bn3"
  type: "BatchNorm"
  bottom: "conv3"
  top: "bn3"
  param {
    lr_mult: 0
    decay_mult: 0
  }
  param {
    lr_mult: 0
    decay_mult: 0
  }
  param {
    lr_mult: 0
    decay_mult: 0
  }
  batch_norm_param {
    use_global_stats: true
  }
}
layer {
  name: "scale3"
  type: "Scale"
  bottom: "bn3"
  top: "scale3"
  scale_param {
    bias_term: true
  }
}
layer {
  name: "relu3"
  type: "ReLU"
  bottom: "scale3"
  top: "relu3"
}
layer {
  name: "conv4"
  type: "Convolution"
  bottom: "relu3"
  top: "conv4"
  param {
    lr_mult: 1
    decay_mult: 1
  }
  param {
    lr_mult: 2
    decay_mult: 0
  }
  convolution_param {
    num_output: 64
    pad: 1
    kernel_size: 3
    stride: 1
    weight_filler {
      type: "xavier"
    }
    bias_filler {
      type: "constant"
      value: 0
    }
  }
}
layer {
  name: "bn4"
  type: "BatchNorm"
  bottom: "conv4"
  top: "bn4"
  param {
    lr_mult: 0
    decay_mult: 0
  }
  param {
    lr_mult: 0
    decay_mult: 0
  }
  param {
    lr_mult: 0
    decay_mult: 0
  }
  batch_norm_param {
    use_global_stats: true
  }
}
layer {
  name: "scale4"
  type: "Scale"
  bottom: "bn4"
  top: "scale4"
  scale_param {
    bias_term: true
  }
}
layer {
  name: "relu4"
  type: "ReLU"
  bottom: "scale4"
  top: "relu4"
}
layer {
  name: "pool2"
  type: "Pooling"
  bottom: "relu4"
  top: "pool2"
  pooling_param {
    pool: MAX
    kernel_size: 2
    stride: 2
  }
}
layer {
  name: "drop2"
  type: "Dropout"
  bottom: "pool2"
  top: "drop2"
  dropout_param {
    dropout_ratio: 0.25
  }
}
layer {
  name: "fc1"
  type: "InnerProduct"
  bottom: "drop2"
  top: "fc1"
  param {
    lr_mult: 1
    decay_mult: 1
  }
  param {
    lr_mult: 2
    decay_mult: 0
  }
  inner_product_param {
    num_output: 512
    weight_filler {
      type: "xavier"
    }
    bias_filler {
      type: "constant"
      value: 1
    }
  }
}
layer {
  name: "bn5"
  type: "BatchNorm"
  bottom: "fc1"
  top: "bn5"
  param {
    lr_mult: 0
    decay_mult: 0
  }
  param {
    lr_mult: 0
    decay_mult: 0
  }
  param {
    lr_mult: 0
    decay_mult: 0
  }
  batch_norm_param {
    use_global_stats: true
  }
}
layer {
  name: "scale5"
  type: "Scale"
  bottom: "bn5"
  top: "scale5"
  scale_param {
    bias_term: true
  }
}
layer {
  name: "relu5"
  type: "ReLU"
  bottom: "scale5"
  top: "relu5"
}
layer {
  name: "drop3"
  type: "Dropout"
  bottom: "relu5"
  top: "drop3"
  dropout_param {
    dropout_ratio: 0.5
  }
}
layer {
  name: "fc2"
  type: "InnerProduct"
  bottom: "drop3"
  top: "fc2"
  param {
    lr_mult: 1
    decay_mult: 1
  }
  param {
    lr_mult: 2
    decay_mult: 0
  }
  inner_product_param {
    num_output: 10
    weight_filler {
      type: "xavier"
    }
    bias_filler {
      type: "constant"
      value: 1
    }
  }
}
layer {
  name: "prob"
  type: "Softmax"
  bottom: "fc2"
  top: "prob"
}
I0121 15:45:23.441962  6240 layer_factory.hpp:77] Creating layer data
I0121 15:45:23.441988  6240 net.cpp:84] Creating Layer data
I0121 15:45:23.441994  6240 net.cpp:380] data -> data
I0121 15:45:23.475244  6240 net.cpp:122] Setting up data
I0121 15:45:23.475272  6240 net.cpp:129] Top shape: 1 3 32 32 (3072)
I0121 15:45:23.475277  6240 net.cpp:137] Memory required for data: 12288
I0121 15:45:23.475282  6240 layer_factory.hpp:77] Creating layer conv1
I0121 15:45:23.475306  6240 net.cpp:84] Creating Layer conv1
I0121 15:45:23.475322  6240 net.cpp:406] conv1 <- data
I0121 15:45:23.475337  6240 net.cpp:380] conv1 -> conv1
I0121 15:45:23.870986  6240 net.cpp:122] Setting up conv1
I0121 15:45:23.871033  6240 net.cpp:129] Top shape: 1 32 32 32 (32768)
I0121 15:45:23.871038  6240 net.cpp:137] Memory required for data: 143360
I0121 15:45:23.871055  6240 layer_factory.hpp:77] Creating layer bn1
I0121 15:45:23.871073  6240 net.cpp:84] Creating Layer bn1
I0121 15:45:23.871081  6240 net.cpp:406] bn1 <- conv1
I0121 15:45:23.871089  6240 net.cpp:380] bn1 -> bn1
I0121 15:45:23.871372  6240 net.cpp:122] Setting up bn1
I0121 15:45:23.871402  6240 net.cpp:129] Top shape: 1 32 32 32 (32768)
I0121 15:45:23.871408  6240 net.cpp:137] Memory required for data: 274432
I0121 15:45:23.871423  6240 layer_factory.hpp:77] Creating layer scale1
I0121 15:45:23.872730  6240 net.cpp:84] Creating Layer scale1
I0121 15:45:23.872745  6240 net.cpp:406] scale1 <- bn1
I0121 15:45:23.872751  6240 net.cpp:380] scale1 -> scale1
I0121 15:45:23.872817  6240 layer_factory.hpp:77] Creating layer scale1
I0121 15:45:23.874006  6240 net.cpp:122] Setting up scale1
I0121 15:45:23.874024  6240 net.cpp:129] Top shape: 1 32 32 32 (32768)
I0121 15:45:23.874029  6240 net.cpp:137] Memory required for data: 405504
I0121 15:45:23.874037  6240 layer_factory.hpp:77] Creating layer relu1
I0121 15:45:23.874045  6240 net.cpp:84] Creating Layer relu1
I0121 15:45:23.874052  6240 net.cpp:406] relu1 <- scale1
I0121 15:45:23.874060  6240 net.cpp:380] relu1 -> relu1
I0121 15:45:23.875274  6240 net.cpp:122] Setting up relu1
I0121 15:45:23.875296  6240 net.cpp:129] Top shape: 1 32 32 32 (32768)
I0121 15:45:23.875300  6240 net.cpp:137] Memory required for data: 536576
I0121 15:45:23.875305  6240 layer_factory.hpp:77] Creating layer conv2
I0121 15:45:23.875316  6240 net.cpp:84] Creating Layer conv2
I0121 15:45:23.875329  6240 net.cpp:406] conv2 <- relu1
I0121 15:45:23.875342  6240 net.cpp:380] conv2 -> conv2
I0121 15:45:23.876925  6240 net.cpp:122] Setting up conv2
I0121 15:45:23.876950  6240 net.cpp:129] Top shape: 1 32 32 32 (32768)
I0121 15:45:23.876955  6240 net.cpp:137] Memory required for data: 667648
I0121 15:45:23.876965  6240 layer_factory.hpp:77] Creating layer bn2
I0121 15:45:23.876986  6240 net.cpp:84] Creating Layer bn2
I0121 15:45:23.876993  6240 net.cpp:406] bn2 <- conv2
I0121 15:45:23.877014  6240 net.cpp:380] bn2 -> bn2
I0121 15:45:23.877231  6240 net.cpp:122] Setting up bn2
I0121 15:45:23.877249  6240 net.cpp:129] Top shape: 1 32 32 32 (32768)
I0121 15:45:23.877254  6240 net.cpp:137] Memory required for data: 798720
I0121 15:45:23.877262  6240 layer_factory.hpp:77] Creating layer scale2
I0121 15:45:23.877279  6240 net.cpp:84] Creating Layer scale2
I0121 15:45:23.877287  6240 net.cpp:406] scale2 <- bn2
I0121 15:45:23.877305  6240 net.cpp:380] scale2 -> scale2
I0121 15:45:23.877368  6240 layer_factory.hpp:77] Creating layer scale2
I0121 15:45:23.877501  6240 net.cpp:122] Setting up scale2
I0121 15:45:23.877518  6240 net.cpp:129] Top shape: 1 32 32 32 (32768)
I0121 15:45:23.877522  6240 net.cpp:137] Memory required for data: 929792
I0121 15:45:23.877529  6240 layer_factory.hpp:77] Creating layer relu2
I0121 15:45:23.877542  6240 net.cpp:84] Creating Layer relu2
I0121 15:45:23.877553  6240 net.cpp:406] relu2 <- scale2
I0121 15:45:23.877563  6240 net.cpp:380] relu2 -> relu2
I0121 15:45:23.877857  6240 net.cpp:122] Setting up relu2
I0121 15:45:23.877880  6240 net.cpp:129] Top shape: 1 32 32 32 (32768)
I0121 15:45:23.877885  6240 net.cpp:137] Memory required for data: 1060864
I0121 15:45:23.877890  6240 layer_factory.hpp:77] Creating layer pool1
I0121 15:45:23.877900  6240 net.cpp:84] Creating Layer pool1
I0121 15:45:23.877913  6240 net.cpp:406] pool1 <- relu2
I0121 15:45:23.877924  6240 net.cpp:380] pool1 -> pool1
I0121 15:45:23.877992  6240 net.cpp:122] Setting up pool1
I0121 15:45:23.878010  6240 net.cpp:129] Top shape: 1 32 16 16 (8192)
I0121 15:45:23.878013  6240 net.cpp:137] Memory required for data: 1093632
I0121 15:45:23.878017  6240 layer_factory.hpp:77] Creating layer drop1
I0121 15:45:23.878024  6240 net.cpp:84] Creating Layer drop1
I0121 15:45:23.878029  6240 net.cpp:406] drop1 <- pool1
I0121 15:45:23.878037  6240 net.cpp:380] drop1 -> drop1
I0121 15:45:23.878094  6240 net.cpp:122] Setting up drop1
I0121 15:45:23.878113  6240 net.cpp:129] Top shape: 1 32 16 16 (8192)
I0121 15:45:23.878119  6240 net.cpp:137] Memory required for data: 1126400
I0121 15:45:23.878124  6240 layer_factory.hpp:77] Creating layer conv3
I0121 15:45:23.878144  6240 net.cpp:84] Creating Layer conv3
I0121 15:45:23.878157  6240 net.cpp:406] conv3 <- drop1
I0121 15:45:23.878170  6240 net.cpp:380] conv3 -> conv3
I0121 15:45:23.879760  6240 net.cpp:122] Setting up conv3
I0121 15:45:23.879788  6240 net.cpp:129] Top shape: 1 64 16 16 (16384)
I0121 15:45:23.879796  6240 net.cpp:137] Memory required for data: 1191936
I0121 15:45:23.879808  6240 layer_factory.hpp:77] Creating layer bn3
I0121 15:45:23.879823  6240 net.cpp:84] Creating Layer bn3
I0121 15:45:23.879838  6240 net.cpp:406] bn3 <- conv3
I0121 15:45:23.879853  6240 net.cpp:380] bn3 -> bn3
I0121 15:45:23.880080  6240 net.cpp:122] Setting up bn3
I0121 15:45:23.880098  6240 net.cpp:129] Top shape: 1 64 16 16 (16384)
I0121 15:45:23.880103  6240 net.cpp:137] Memory required for data: 1257472
I0121 15:45:23.880118  6240 layer_factory.hpp:77] Creating layer scale3
I0121 15:45:23.880137  6240 net.cpp:84] Creating Layer scale3
I0121 15:45:23.880144  6240 net.cpp:406] scale3 <- bn3
I0121 15:45:23.880156  6240 net.cpp:380] scale3 -> scale3
I0121 15:45:23.880246  6240 layer_factory.hpp:77] Creating layer scale3
I0121 15:45:23.880388  6240 net.cpp:122] Setting up scale3
I0121 15:45:23.880404  6240 net.cpp:129] Top shape: 1 64 16 16 (16384)
I0121 15:45:23.880409  6240 net.cpp:137] Memory required for data: 1323008
I0121 15:45:23.880416  6240 layer_factory.hpp:77] Creating layer relu3
I0121 15:45:23.880422  6240 net.cpp:84] Creating Layer relu3
I0121 15:45:23.880429  6240 net.cpp:406] relu3 <- scale3
I0121 15:45:23.880434  6240 net.cpp:380] relu3 -> relu3
I0121 15:45:23.880599  6240 net.cpp:122] Setting up relu3
I0121 15:45:23.880620  6240 net.cpp:129] Top shape: 1 64 16 16 (16384)
I0121 15:45:23.880625  6240 net.cpp:137] Memory required for data: 1388544
I0121 15:45:23.880630  6240 layer_factory.hpp:77] Creating layer conv4
I0121 15:45:23.880640  6240 net.cpp:84] Creating Layer conv4
I0121 15:45:23.880651  6240 net.cpp:406] conv4 <- relu3
I0121 15:45:23.880663  6240 net.cpp:380] conv4 -> conv4
I0121 15:45:23.881745  6240 net.cpp:122] Setting up conv4
I0121 15:45:23.881772  6240 net.cpp:129] Top shape: 1 64 16 16 (16384)
I0121 15:45:23.881777  6240 net.cpp:137] Memory required for data: 1454080
I0121 15:45:23.881784  6240 layer_factory.hpp:77] Creating layer bn4
I0121 15:45:23.881796  6240 net.cpp:84] Creating Layer bn4
I0121 15:45:23.881811  6240 net.cpp:406] bn4 <- conv4
I0121 15:45:23.881822  6240 net.cpp:380] bn4 -> bn4
I0121 15:45:23.882042  6240 net.cpp:122] Setting up bn4
I0121 15:45:23.882062  6240 net.cpp:129] Top shape: 1 64 16 16 (16384)
I0121 15:45:23.882067  6240 net.cpp:137] Memory required for data: 1519616
I0121 15:45:23.882076  6240 layer_factory.hpp:77] Creating layer scale4
I0121 15:45:23.882083  6240 net.cpp:84] Creating Layer scale4
I0121 15:45:23.882089  6240 net.cpp:406] scale4 <- bn4
I0121 15:45:23.882097  6240 net.cpp:380] scale4 -> scale4
I0121 15:45:23.882156  6240 layer_factory.hpp:77] Creating layer scale4
I0121 15:45:23.882297  6240 net.cpp:122] Setting up scale4
I0121 15:45:23.882314  6240 net.cpp:129] Top shape: 1 64 16 16 (16384)
I0121 15:45:23.882318  6240 net.cpp:137] Memory required for data: 1585152
I0121 15:45:23.882325  6240 layer_factory.hpp:77] Creating layer relu4
I0121 15:45:23.882331  6240 net.cpp:84] Creating Layer relu4
I0121 15:45:23.882336  6240 net.cpp:406] relu4 <- scale4
I0121 15:45:23.882344  6240 net.cpp:380] relu4 -> relu4
I0121 15:45:23.882620  6240 net.cpp:122] Setting up relu4
I0121 15:45:23.882644  6240 net.cpp:129] Top shape: 1 64 16 16 (16384)
I0121 15:45:23.882650  6240 net.cpp:137] Memory required for data: 1650688
I0121 15:45:23.882654  6240 layer_factory.hpp:77] Creating layer pool2
I0121 15:45:23.882661  6240 net.cpp:84] Creating Layer pool2
I0121 15:45:23.882668  6240 net.cpp:406] pool2 <- relu4
I0121 15:45:23.882674  6240 net.cpp:380] pool2 -> pool2
I0121 15:45:23.882735  6240 net.cpp:122] Setting up pool2
I0121 15:45:23.882750  6240 net.cpp:129] Top shape: 1 64 8 8 (4096)
I0121 15:45:23.882755  6240 net.cpp:137] Memory required for data: 1667072
I0121 15:45:23.882760  6240 layer_factory.hpp:77] Creating layer drop2
I0121 15:45:23.882766  6240 net.cpp:84] Creating Layer drop2
I0121 15:45:23.882803  6240 net.cpp:406] drop2 <- pool2
I0121 15:45:23.882814  6240 net.cpp:380] drop2 -> drop2
I0121 15:45:23.882874  6240 net.cpp:122] Setting up drop2
I0121 15:45:23.882892  6240 net.cpp:129] Top shape: 1 64 8 8 (4096)
I0121 15:45:23.882897  6240 net.cpp:137] Memory required for data: 1683456
I0121 15:45:23.882901  6240 layer_factory.hpp:77] Creating layer fc1
I0121 15:45:23.882910  6240 net.cpp:84] Creating Layer fc1
I0121 15:45:23.882921  6240 net.cpp:406] fc1 <- drop2
I0121 15:45:23.882935  6240 net.cpp:380] fc1 -> fc1
I0121 15:45:23.897557  6240 net.cpp:122] Setting up fc1
I0121 15:45:23.897588  6240 net.cpp:129] Top shape: 1 512 (512)
I0121 15:45:23.897595  6240 net.cpp:137] Memory required for data: 1685504
I0121 15:45:23.897608  6240 layer_factory.hpp:77] Creating layer bn5
I0121 15:45:23.897621  6240 net.cpp:84] Creating Layer bn5
I0121 15:45:23.897635  6240 net.cpp:406] bn5 <- fc1
I0121 15:45:23.897647  6240 net.cpp:380] bn5 -> bn5
I0121 15:45:23.897857  6240 net.cpp:122] Setting up bn5
I0121 15:45:23.897876  6240 net.cpp:129] Top shape: 1 512 (512)
I0121 15:45:23.897884  6240 net.cpp:137] Memory required for data: 1687552
I0121 15:45:23.897909  6240 layer_factory.hpp:77] Creating layer scale5
I0121 15:45:23.897927  6240 net.cpp:84] Creating Layer scale5
I0121 15:45:23.897934  6240 net.cpp:406] scale5 <- bn5
I0121 15:45:23.897943  6240 net.cpp:380] scale5 -> scale5
I0121 15:45:23.897996  6240 layer_factory.hpp:77] Creating layer scale5
I0121 15:45:23.898157  6240 net.cpp:122] Setting up scale5
I0121 15:45:23.898175  6240 net.cpp:129] Top shape: 1 512 (512)
I0121 15:45:23.898180  6240 net.cpp:137] Memory required for data: 1689600
I0121 15:45:23.898187  6240 layer_factory.hpp:77] Creating layer relu5
I0121 15:45:23.898195  6240 net.cpp:84] Creating Layer relu5
I0121 15:45:23.898202  6240 net.cpp:406] relu5 <- scale5
I0121 15:45:23.898208  6240 net.cpp:380] relu5 -> relu5
I0121 15:45:23.898389  6240 net.cpp:122] Setting up relu5
I0121 15:45:23.898408  6240 net.cpp:129] Top shape: 1 512 (512)
I0121 15:45:23.898413  6240 net.cpp:137] Memory required for data: 1691648
I0121 15:45:23.898418  6240 layer_factory.hpp:77] Creating layer drop3
I0121 15:45:23.898424  6240 net.cpp:84] Creating Layer drop3
I0121 15:45:23.898429  6240 net.cpp:406] drop3 <- relu5
I0121 15:45:23.898440  6240 net.cpp:380] drop3 -> drop3
I0121 15:45:23.898490  6240 net.cpp:122] Setting up drop3
I0121 15:45:23.898504  6240 net.cpp:129] Top shape: 1 512 (512)
I0121 15:45:23.898509  6240 net.cpp:137] Memory required for data: 1693696
I0121 15:45:23.898512  6240 layer_factory.hpp:77] Creating layer fc2
I0121 15:45:23.898524  6240 net.cpp:84] Creating Layer fc2
I0121 15:45:23.898535  6240 net.cpp:406] fc2 <- drop3
I0121 15:45:23.898551  6240 net.cpp:380] fc2 -> fc2
I0121 15:45:23.898723  6240 net.cpp:122] Setting up fc2
I0121 15:45:23.898746  6240 net.cpp:129] Top shape: 1 10 (10)
I0121 15:45:23.898753  6240 net.cpp:137] Memory required for data: 1693736
I0121 15:45:23.898764  6240 layer_factory.hpp:77] Creating layer prob
I0121 15:45:23.898790  6240 net.cpp:84] Creating Layer prob
I0121 15:45:23.898799  6240 net.cpp:406] prob <- fc2
I0121 15:45:23.898808  6240 net.cpp:380] prob -> prob
I0121 15:45:23.900177  6240 net.cpp:122] Setting up prob
I0121 15:45:23.900200  6240 net.cpp:129] Top shape: 1 10 (10)
I0121 15:45:23.900208  6240 net.cpp:137] Memory required for data: 1693776
I0121 15:45:23.900215  6240 net.cpp:200] prob does not need backward computation.
I0121 15:45:23.900223  6240 net.cpp:200] fc2 does not need backward computation.
I0121 15:45:23.900228  6240 net.cpp:200] drop3 does not need backward computation.
I0121 15:45:23.900236  6240 net.cpp:200] relu5 does not need backward computation.
…
