…
I0711 11:10:24.346729 27674 decent_q.cpp:595] GPU device name: GeForce GTX 1080 Ti
I0711 11:10:25.596364 27674 net.cpp:369] The NetState phase (1) differed from the phase (0) specified by a rule in layer data
I0711 11:10:25.598151 27674 net.cpp:98] Initializing net from parameters: 
layer {
  name: "data"
  type: "ImageSegData"
  top: "data"
  top: "label"
  include {
    phase: TEST
  }
  transform_param {
    scale: 0.022
    mean_value: 73
    mean_value: 82
    mean_value: 72
  }
  image_data_param {
    source: "../data/val_img_seg_nomap.txt"
    batch_size: 1
    shuffle: false
  }
}
layer {
  name: "resize_down"
  type: "DeephiResize"
  bottom: "data"
  top: "data"
  include {
    phase: TEST
  }
  deephi_resize_param {
    resize_type: BILINEAR
    new_height: 512
    new_width: 1024
  }
}
layer {
  name: "ConvNd_1"
  type: "Convolution"
  bottom: "data"
  top: "ConvNd_1"
  convolution_param {
    num_output: 13
    bias_term: false
    pad: 1
    kernel_size: 3
    group: 1
    stride: 2
    dilation: 1
  }
}
layer {
  name: "MaxPool2d_1"
  type: "Pooling"
  bottom: "data"
  top: "MaxPool2d_1"
  pooling_param {
    pool: MAX
    kernel_size: 3
    stride: 2
    pad: 0
  }
}
layer {
  name: "Concat_1"
  type: "Concat"
  bottom: "ConvNd_1"
  bottom: "MaxPool2d_1"
  top: "Concat_1"
  concat_param {
    axis: 1
  }
}
layer {
  name: "BatchNorm_1"
  type: "BatchNorm"
  bottom: "Concat_1"
  top: "BatchNorm_1"
  param {
    lr_mult: 1
    decay_mult: 0
  }
  param {
    lr_mult: 1
    decay_mult: 0
  }
  param {
    lr_mult: 0
    decay_mult: 0
  }
  param {
    lr_mult: 0
    decay_mult: 0
  }
  batch_norm_param {
    use_global_stats: false
    eps: 1e-05
    scale_filler {
      type: "constant"
      value: 1
    }
    bias_filler {
      type: "constant"
      value: 0
    }
  }
}
layer {
  name: "Threshold_1"
  type: "ReLU"
  bottom: "BatchNorm_1"
  top: "BatchNorm_1"
}
layer {
  name: "MaxPool2d_2"
  type: "Pooling"
  bottom: "BatchNorm_1"
  top: "MaxPool2d_2"
  pooling_param {
    pool: MAX
    kernel_size: 3
    stride: 2
    pad: 0
  }
}
layer {
  name: "ConvNd_2"
  type: "Convolution"
  bottom: "MaxPool2d_2"
  top: "ConvNd_2"
  convolution_param {
    num_output: 64
    bias_term: false
    pad: 0
    kernel_size: 1
    group: 1
    stride: 1
    dilation: 1
  }
}
layer {
  name: "ConvNd_3"
  type: "Convolution"
  bottom: "BatchNorm_1"
  top: "ConvNd_3"
  convolution_param {
    num_output: 16
    bias_term: false
    pad: 0
    kernel_size: 2
    group: 1
    stride: 2
    dilation: 1
  }
}
layer {
  name: "BatchNorm_2"
  type: "BatchNorm"
  bottom: "ConvNd_3"
  top: "BatchNorm_2"
  param {
    lr_mult: 1
    decay_mult: 0
  }
  param {
    lr_mult: 1
    decay_mult: 0
  }
  param {
    lr_mult: 0
    decay_mult: 0
  }
  param {
    lr_mult: 0
    decay_mult: 0
  }
  batch_norm_param {
    use_global_stats: false
    eps: 1e-05
    scale_filler {
      type: "constant"
      value: 1
    }
    bias_filler {
      type: "constant"
      value: 0
    }
  }
}
layer {
  name: "Threshold_2"
  type: "ReLU"
  bottom: "BatchNorm_2"
  top: "BatchNorm_2"
}
layer {
  name: "ConvNd_4"
  type: "Convolution"
  bottom: "BatchNorm_2"
  top: "ConvNd_4"
  convolution_param {
    num_output: 16
    bias_term: false
    pad: 1
    kernel_size: 3
    group: 1
    stride: 1
    dilation: 1
  }
}
layer {
  name: "BatchNorm_3"
  type: "BatchNorm"
  bottom: "ConvNd_4"
  top: "BatchNorm_3"
  param {
    lr_mult: 1
    decay_mult: 0
  }
  param {
    lr_mult: 1
    decay_mult: 0
  }
  param {
    lr_mult: 0
    decay_mult: 0
  }
  param {
    lr_mult: 0
    decay_mult: 0
  }
  batch_norm_param {
    use_global_stats: false
    eps: 1e-05
    scale_filler {
      type: "constant"
      value: 1
    }
    bias_filler {
      type: "constant"
      value: 0
    }
  }
}
layer {
  name: "Threshold_3"
  type: "ReLU"
  bottom: "BatchNorm_3"
  top: "BatchNorm_3"
}
layer {
  name: "ConvNd_5"
  type: "Convolution"
  bottom: "BatchNorm_3"
  top: "ConvNd_5"
  convolution_param {
    num_output: 64
    bias_term: false
    pad: 0
    kernel_size: 1
    group: 1
    stride: 1
    dilation: 1
  }
}
layer {
  name: "BatchNorm_4"
  type: "BatchNorm"
  bottom: "ConvNd_5"
  top: "BatchNorm_4"
  param {
    lr_mult: 1
    decay_mult: 0
  }
  param {
    lr_mult: 1
    decay_mult: 0
  }
  param {
    lr_mult: 0
    decay_mult: 0
  }
  param {
    lr_mult: 0
    decay_mult: 0
  }
  batch_norm_param {
    use_global_stats: false
    eps: 1e-05
    scale_filler {
      type: "constant"
      value: 1
    }
    bias_filler {
      type: "constant"
      value: 0
    }
  }
}
layer {
  name: "Threshold_4"
  type: "ReLU"
  bottom: "BatchNorm_4"
  top: "BatchNorm_4"
}
layer {
  name: "Add_1"
  type: "Eltwise"
  bottom: "ConvNd_2"
  bottom: "BatchNorm_4"
  top: "Add_1"
}
layer {
  name: "Threshold_5"
  type: "ReLU"
  bottom: "Add_1"
  top: "Add_1"
}
layer {
  name: "ConvNd_6"
  type: "Convolution"
  bottom: "Add_1"
  top: "ConvNd_6"
  convolution_param {
    num_output: 16
    bias_term: false
    pad: 0
    kernel_size: 1
    group: 1
    stride: 1
    dilation: 1
  }
}
layer {
  name: "BatchNorm_5"
  type: "BatchNorm"
  bottom: "ConvNd_6"
  top: "BatchNorm_5"
  param {
    lr_mult: 1
    decay_mult: 0
  }
  param {
    lr_mult: 1
    decay_mult: 0
  }
  param {
    lr_mult: 0
    decay_mult: 0
  }
  param {
    lr_mult: 0
    decay_mult: 0
  }
  batch_norm_param {
    use_global_stats: false
    eps: 1e-05
    scale_filler {
      type: "constant"
      value: 1
    }
    bias_filler {
      type: "constant"
      value: 0
    }
  }
}
layer {
  name: "Threshold_6"
  type: "ReLU"
  bottom: "BatchNorm_5"
  top: "BatchNorm_5"
}
layer {
  name: "ConvNd_7"
  type: "Convolution"
  bottom: "BatchNorm_5"
  top: "ConvNd_7"
  convolution_param {
    num_output: 16
    bias_term: false
    pad: 1
    kernel_size: 3
    group: 1
    stride: 1
    dilation: 1
  }
}
layer {
  name: "BatchNorm_6"
  type: "BatchNorm"
  bottom: "ConvNd_7"
  top: "BatchNorm_6"
  param {
    lr_mult: 1
    decay_mult: 0
  }
  param {
    lr_mult: 1
    decay_mult: 0
  }
  param {
    lr_mult: 0
    decay_mult: 0
  }
  param {
    lr_mult: 0
    decay_mult: 0
  }
  batch_norm_param {
    use_global_stats: false
    eps: 1e-05
    scale_filler {
      type: "constant"
      value: 1
    }
    bias_filler {
      type: "constant"
      value: 0
    }
  }
}
layer {
  name: "Threshold_7"
  type: "ReLU"
  bottom: "BatchNorm_6"
  top: "BatchNorm_6"
}
layer {
  name: "ConvNd_8"
  type: "Convolution"
  bottom: "BatchNorm_6"
  top: "ConvNd_8"
  convolution_param {
    num_output: 64
    bias_term: false
    pad: 0
    kernel_size: 1
    group: 1
    stride: 1
    dilation: 1
  }
}
layer {
  name: "BatchNorm_7"
  type: "BatchNorm"
  bottom: "ConvNd_8"
  top: "BatchNorm_7"
  param {
    lr_mult: 1
    decay_mult: 0
  }
  param {
    lr_mult: 1
    decay_mult: 0
  }
  param {
    lr_mult: 0
    decay_mult: 0
  }
  param {
    lr_mult: 0
    decay_mult: 0
  }
  batch_norm_param {
    use_global_stats: false
    eps: 1e-05
    scale_filler {
      type: "constant"
      value: 1
    }
    bias_filler {
      type: "constant"
      value: 0
    }
  }
}
layer {
  name: "Threshold_8"
  type: "ReLU"
  bottom: "BatchNorm_7"
  top: "BatchNorm_7"
}
layer {
  name: "Add_2"
  type: "Eltwise"
  bottom: "Add_1"
  bottom: "BatchNorm_7"
  top: "Add_2"
}
layer {
  name: "Threshold_9"
  type: "ReLU"
  bottom: "Add_2"
  top: "Add_2"
}
layer {
  name: "ConvNd_9"
  type: "Convolution"
  bottom: "Add_2"
  top: "ConvNd_9"
  convolution_param {
    num_output: 16
    bias_term: false
    pad: 0
    kernel_size: 1
    group: 1
    stride: 1
    dilation: 1
  }
}
layer {
  name: "BatchNorm_8"
  type: "BatchNorm"
  bottom: "ConvNd_9"
  top: "BatchNorm_8"
  param {
    lr_mult: 1
    decay_mult: 0
  }
  param {
    lr_mult: 1
    decay_mult: 0
  }
  param {
    lr_mult: 0
    decay_mult: 0
  }
  param {
    lr_mult: 0
    decay_mult: 0
  }
  batch_norm_param {
    use_global_stats: false
    eps: 1e-05
    scale_filler {
      type: "constant"
      value: 1
    }
    bias_filler {
      type: "constant"
      value: 0
    }
  }
}
layer {
  name: "Threshold_10"
  type: "ReLU"
  bottom: "BatchNorm_8"
  top: "BatchNorm_8"
}
layer {
  name: "ConvNd_10"
  type: "Convolution"
  bottom: "BatchNorm_8"
  top: "ConvNd_10"
  convolution_param {
    num_output: 16
    bias_term: false
    pad: 1
    kernel_size: 3
    group: 1
    stride: 1
    dilation: 1
  }
}
layer {
  name: "BatchNorm_9"
  type: "BatchNorm"
  bottom: "ConvNd_10"
  top: "BatchNorm_9"
  param {
    lr_mult: 1
    decay_mult: 0
  }
  param {
    lr_mult: 1
    decay_mult: 0
  }
  param {
    lr_mult: 0
    decay_mult: 0
  }
  param {
    lr_mult: 0
    decay_mult: 0
  }
  batch_norm_param {
    use_global_stats: false
    eps: 1e-05
    scale_filler {
      type: "constant"
      value: 1
    }
    bias_filler {
      type: "constant"
      value: 0
    }
  }
}
layer {
  name: "Threshold_11"
  type: "ReLU"
  bottom: "BatchNorm_9"
  top: "BatchNorm_9"
}
layer {
  name: "ConvNd_11"
  type: "Convolution"
  bottom: "BatchNorm_9"
  top: "ConvNd_11"
  convolution_param {
    num_output: 64
    bias_term: false
    pad: 0
    kernel_size: 1
    group: 1
    stride: 1
    dilation: 1
  }
}
layer {
  name: "BatchNorm_10"
  type: "BatchNorm"
  bottom: "ConvNd_11"
  top: "BatchNorm_10"
  param {
    lr_mult: 1
    decay_mult: 0
  }
  param {
    lr_mult: 1
    decay_mult: 0
  }
  param {
    lr_mult: 0
    decay_mult: 0
  }
  param {
    lr_mult: 0
    decay_mult: 0
  }
  batch_norm_param {
    use_global_stats: false
    eps: 1e-05
    scale_filler {
      type: "constant"
      value: 1
    }
    bias_filler {
      type: "constant"
      value: 0
    }
  }
}
layer {
  name: "Threshold_12"
  type: "ReLU"
  bottom: "BatchNorm_10"
  top: "BatchNorm_10"
}
layer {
  name: "Add_3"
  type: "Eltwise"
  bottom: "Add_2"
  bottom: "BatchNorm_10"
  top: "Add_3"
}
layer {
  name: "Threshold_13"
  type: "ReLU"
  bottom: "Add_3"
  top: "Add_3"
}
layer {
  name: "ConvNd_12"
  type: "Convolution"
  bottom: "Add_3"
  top: "ConvNd_12"
  convolution_param {
    num_output: 16
    bias_term: false
    pad: 0
    kernel_size: 1
    group: 1
    stride: 1
    dilation: 1
  }
}
layer {
  name: "BatchNorm_11"
  type: "BatchNorm"
  bottom: "ConvNd_12"
  top: "BatchNorm_11"
  param {
    lr_mult: 1
    decay_mult: 0
  }
  param {
    lr_mult: 1
    decay_mult: 0
  }
  param {
    lr_mult: 0
    decay_mult: 0
  }
  param {
    lr_mult: 0
    decay_mult: 0
  }
  batch_norm_param {
    use_global_stats: false
    eps: 1e-05
    scale_filler {
      type: "constant"
      value: 1
    }
    bias_filler {
      type: "constant"
      value: 0
    }
  }
}
layer {
  name: "Threshold_14"
  type: "ReLU"
  bottom: "BatchNorm_11"
  top: "BatchNorm_11"
}
layer {
  name: "ConvNd_13"
  type: "Convolution"
  bottom: "BatchNorm_11"
  top: "ConvNd_13"
  convolution_param {
    num_output: 16
    bias_term: false
    pad: 1
    kernel_size: 3
    group: 1
    stride: 1
    dilation: 1
  }
}
layer {
  name: "BatchNorm_12"
  type: "BatchNorm"
  bottom: "ConvNd_13"
  top: "BatchNorm_12"
  param {
    lr_mult: 1
    decay_mult: 0
  }
  param {
    lr_mult: 1
    decay_mult: 0
  }
  param {
    lr_mult: 0
    decay_mult: 0
  }
  param {
    lr_mult: 0
    decay_mult: 0
  }
  batch_norm_param {
    use_global_stats: false
    eps: 1e-05
    scale_filler {
      type: "constant"
      value: 1
    }
    bias_filler {
      type: "constant"
      value: 0
    }
  }
}
layer {
  name: "Threshold_15"
  type: "ReLU"
  bottom: "BatchNorm_12"
  top: "BatchNorm_12"
}
layer {
  name: "ConvNd_14"
  type: "Convolution"
  bottom: "BatchNorm_12"
  top: "ConvNd_14"
  convolution_param {
    num_output: 64
    bias_term: false
    pad: 0
    kernel_size: 1
    group: 1
    stride: 1
    dilation: 1
  }
}
layer {
  name: "BatchNorm_13"
  type: "BatchNorm"
  bottom: "ConvNd_14"
  top: "BatchNorm_13"
  param {
    lr_mult: 1
    decay_mult: 0
  }
  param {
    lr_mult: 1
    decay_mult: 0
  }
  param {
    lr_mult: 0
    decay_mult: 0
  }
  param {
    lr_mult: 0
    decay_mult: 0
  }
  batch_norm_param {
    use_global_stats: false
    eps: 1e-05
    scale_filler {
      type: "constant"
      value: 1
    }
    bias_filler {
      type: "constant"
      value: 0
    }
  }
}
layer {
  name: "Threshold_16"
  type: "ReLU"
  bottom: "BatchNorm_13"
  top: "BatchNorm_13"
}
layer {
  name: "Add_4"
  type: "Eltwise"
  bottom: "Add_3"
  bottom: "BatchNorm_13"
  top: "Add_4"
}
layer {
  name: "Threshold_17"
  type: "ReLU"
  bottom: "Add_4"
  top: "Add_4"
}
layer {
  name: "ConvNd_15"
  type: "Convolution"
  bottom: "Add_4"
  top: "ConvNd_15"
  convolution_param {
    num_output: 16
    bias_term: false
    pad: 0
    kernel_size: 1
    group: 1
    stride: 1
    dilation: 1
  }
}
layer {
  name: "BatchNorm_14"
  type: "BatchNorm"
  bottom: "ConvNd_15"
  top: "BatchNorm_14"
  param {
    lr_mult: 1
    decay_mult: 0
  }
  param {
    lr_mult: 1
    decay_mult: 0
  }
  param {
    lr_mult: 0
    decay_mult: 0
  }
  param {
    lr_mult: 0
    decay_mult: 0
  }
  batch_norm_param {
    use_global_stats: false
    eps: 1e-05
    scale_filler {
      type: "constant"
      value: 1
    }
    bias_filler {
      type: "constant"
      value: 0
    }
  }
}
layer {
  name: "Threshold_18"
  type: "ReLU"
  bottom: "BatchNorm_14"
  top: "BatchNorm_14"
}
layer {
  name: "ConvNd_16"
  type: "Convolution"
  bottom: "BatchNorm_14"
  top: "ConvNd_16"
  convolution_param {
    num_output: 16
    bias_term: false
    pad: 1
    kernel_size: 3
    group: 1
    stride: 1
    dilation: 1
  }
}
layer {
  name: "BatchNorm_15"
  type: "BatchNorm"
  bottom: "ConvNd_16"
  top: "BatchNorm_15"
  param {
    lr_mult: 1
    decay_mult: 0
  }
  param {
    lr_mult: 1
    decay_mult: 0
  }
  param {
    lr_mult: 0
    decay_mult: 0
  }
  param {
    lr_mult: 0
    decay_mult: 0
  }
  batch_norm_param {
    use_global_stats: false
    eps: 1e-05
    scale_filler {
      type: "constant"
      value: 1
    }
    bias_filler {
      type: "constant"
      value: 0
    }
  }
}
layer {
  name: "Threshold_19"
  type: "ReLU"
  bottom: "BatchNorm_15"
  top: "BatchNorm_15"
}
layer {
  name: "ConvNd_17"
  type: "Convolution"
  bottom: "BatchNorm_15"
  top: "ConvNd_17"
  convolution_param {
    num_output: 64
    bias_term: false
    pad: 0
    kernel_size: 1
    group: 1
    stride: 1
    dilation: 1
  }
}
layer {
  name: "BatchNorm_16"
  type: "BatchNorm"
  bottom: "ConvNd_17"
  top: "BatchNorm_16"
  param {
    lr_mult: 1
    decay_mult: 0
  }
  param {
    lr_mult: 1
    decay_mult: 0
  }
  param {
    lr_mult: 0
    decay_mult: 0
  }
  param {
    lr_mult: 0
    decay_mult: 0
  }
  batch_norm_param {
    use_global_stats: false
    eps: 1e-05
    scale_filler {
      type: "constant"
      value: 1
    }
    bias_filler {
      type: "constant"
      value: 0
    }
  }
}
layer {
  name: "Threshold_20"
  type: "ReLU"
  bottom: "BatchNorm_16"
  top: "BatchNorm_16"
}
layer {
  name: "Add_5"
  type: "Eltwise"
  bottom: "Add_4"
  bottom: "BatchNorm_16"
  top: "Add_5"
}
layer {
  name: "Threshold_21"
  type: "ReLU"
  bottom: "Add_5"
  top: "Add_5"
}
layer {
  name: "MaxPool2d_3"
  type: "Pooling"
  bottom: "Add_5"
  top: "MaxPool2d_3"
  pooling_param {
    pool: MAX
    kernel_size: 3
    stride: 2
    pad: 0
  }
}
layer {
  name: "ConvNd_18"
  type: "Convolution"
  bottom: "MaxPool2d_3"
  top: "ConvNd_18"
  convolution_param {
    num_output: 128
    bias_term: false
    pad: 0
    kernel_size: 1
    group: 1
    stride: 1
    dilation: 1
  }
}
layer {
  name: "ConvNd_19"
  type: "Convolution"
  bottom: "Add_5"
  top: "ConvNd_19"
  convolution_param {
    num_output: 32
    bias_term: false
    pad: 0
    kernel_size: 2
    group: 1
    stride: 2
    dilation: 1
  }
}
layer {
  name: "BatchNorm_17"
  type: "BatchNorm"
  bottom: "ConvNd_19"
  top: "BatchNorm_17"
  param {
    lr_mult: 1
    decay_mult: 0
  }
  param {
    lr_mult: 1
    decay_mult: 0
  }
  param {
    lr_mult: 0
    decay_mult: 0
  }
  param {
    lr_mult: 0
    decay_mult: 0
  }
  batch_norm_param {
    use_global_stats: false
    eps: 1e-05
    scale_filler {
      type: "constant"
      value: 1
    }
    bias_filler {
      type: "constant"
      value: 0
    }
  }
}
layer {
  name: "Threshold_22"
  type: "ReLU"
  bottom: "BatchNorm_17"
  top: "BatchNorm_17"
}
layer {
  name: "ConvNd_20"
  type: "Convolution"
  bottom: "BatchNorm_17"
  top: "ConvNd_20"
  convolution_param {
    num_output: 32
    bias_term: false
    pad: 1
    kernel_size: 3
    group: 1
    stride: 1
    dilation: 1
  }
}
layer {
  name: "BatchNorm_18"
  type: "BatchNorm"
  bottom: "ConvNd_20"
  top: "BatchNorm_18"
  param {
    lr_mult: 1
    decay_mult: 0
  }
  param {
    lr_mult: 1
    decay_mult: 0
  }
  param {
    lr_mult: 0
    decay_mult: 0
  }
  param {
    lr_mult: 0
    decay_mult: 0
  }
  batch_norm_param {
    use_global_stats: false
    eps: 1e-05
    scale_filler {
      type: "constant"
      value: 1
    }
    bias_filler {
      type: "constant"
      value: 0
    }
  }
}
layer {
  name: "Threshold_23"
  type: "ReLU"
  bottom: "BatchNorm_18"
  top: "BatchNorm_18"
}
layer {
  name: "ConvNd_21"
  type: "Convolution"
  bottom: "BatchNorm_18"
  top: "ConvNd_21"
  convolution_param {
    num_output: 128
    bias_term: false
    pad: 0
    kernel_size: 1
    group: 1
    stride: 1
    dilation: 1
  }
}
layer {
  name: "BatchNorm_19"
  type: "BatchNorm"
  bottom: "ConvNd_21"
  top: "BatchNorm_19"
  param {
    lr_mult: 1
    decay_mult: 0
  }
  param {
    lr_mult: 1
    decay_mult: 0
  }
  param {
    lr_mult: 0
    decay_mult: 0
  }
  param {
    lr_mult: 0
    decay_mult: 0
  }
  batch_norm_param {
    use_global_stats: false
    eps: 1e-05
    scale_filler {
      type: "constant"
      value: 1
    }
    bias_filler {
      type: "constant"
      value: 0
    }
  }
}
layer {
  name: "Threshold_24"
  type: "ReLU"
  bottom: "BatchNorm_19"
  top: "BatchNorm_19"
}
layer {
  name: "Add_6"
  type: "Eltwise"
  bottom: "ConvNd_18"
  bottom: "BatchNorm_19"
  top: "Add_6"
}
layer {
  name: "Threshold_25"
  type: "ReLU"
  bottom: "Add_6"
  top: "Add_6"
}
layer {
  name: "ConvNd_22"
  type: "Convolution"
  bottom: "Add_6"
  top: "ConvNd_22"
  convolution_param {
    num_output: 32
    bias_term: false
    pad: 0
    kernel_size: 1
    group: 1
    stride: 1
    dilation: 1
  }
}
layer {
  name: "BatchNorm_20"
  type: "BatchNorm"
  bottom: "ConvNd_22"
  top: "BatchNorm_20"
  param {
    lr_mult: 1
    decay_mult: 0
  }
  param {
    lr_mult: 1
    decay_mult: 0
  }
  param {
    lr_mult: 0
    decay_mult: 0
  }
  param {
    lr_mult: 0
    decay_mult: 0
  }
  batch_norm_param {
    use_global_stats: false
    eps: 1e-05
    scale_filler {
      type: "constant"
      value: 1
    }
    bias_filler {
      type: "constant"
      value: 0
    }
  }
}
layer {
  name: "Threshold_26"
  type: "ReLU"
  bottom: "BatchNorm_20"
  top: "BatchNorm_20"
}
layer {
  name: "ConvNd_23"
  type: "Convolution"
  bottom: "BatchNorm_20"
  top: "ConvNd_23"
  convolution_param {
    num_output: 32
    bias_term: false
    pad: 1
    kernel_size: 3
    group: 1
    stride: 1
    dilation: 1
  }
}
layer {
  name: "BatchNorm_21"
  type: "BatchNorm"
  bottom: "ConvNd_23"
  top: "BatchNorm_21"
  param {
    lr_mult: 1
    decay_mult: 0
  }
  param {
    lr_mult: 1
    decay_mult: 0
  }
  param {
    lr_mult: 0
    decay_mult: 0
  }
  param {
    lr_mult: 0
    decay_mult: 0
  }
  batch_norm_param {
    use_global_stats: false
    eps: 1e-05
    scale_filler {
      type: "constant"
      value: 1
    }
    bias_filler {
      type: "constant"
      value: 0
    }
  }
}
layer {
  name: "Threshold_27"
  type: "ReLU"
  bottom: "BatchNorm_21"
  top: "BatchNorm_21"
}
layer {
  name: "ConvNd_24"
  type: "Convolution"
  bottom: "BatchNorm_21"
  top: "ConvNd_24"
  convolution_param {
    num_output: 128
    bias_term: false
    pad: 0
    kernel_size: 1
    group: 1
    stride: 1
    dilation: 1
  }
}
layer {
  name: "BatchNorm_22"
  type: "BatchNorm"
  bottom: "ConvNd_24"
  top: "BatchNorm_22"
  param {
    lr_mult: 1
    decay_mult: 0
  }
  param {
    lr_mult: 1
    decay_mult: 0
  }
  param {
    lr_mult: 0
    decay_mult: 0
  }
  param {
    lr_mult: 0
    decay_mult: 0
  }
  batch_norm_param {
    use_global_stats: false
    eps: 1e-05
    scale_filler {
      type: "constant"
      value: 1
    }
    bias_filler {
      type: "constant"
      value: 0
    }
  }
}
layer {
  name: "Threshold_28"
  type: "ReLU"
  bottom: "BatchNorm_22"
  top: "BatchNorm_22"
}
layer {
  name: "Add_7"
  type: "Eltwise"
  bottom: "Add_6"
  bottom: "BatchNorm_22"
  top: "Add_7"
}
layer {
  name: "Threshold_29"
  type: "ReLU"
  bottom: "Add_7"
  top: "Add_7"
}
layer {
  name: "ConvNd_25"
  type: "Convolution"
  bottom: "Add_7"
  top: "ConvNd_25"
  convolution_param {
    num_output: 32
    bias_term: false
    pad: 0
    kernel_size: 1
    group: 1
    stride: 1
    dilation: 1
  }
}
layer {
  name: "BatchNorm_23"
  type: "BatchNorm"
  bottom: "ConvNd_25"
  top: "BatchNorm_23"
  param {
    lr_mult: 1
    decay_mult: 0
  }
  param {
    lr_mult: 1
    decay_mult: 0
  }
  param {
    lr_mult: 0
    decay_mult: 0
  }
  param {
    lr_mult: 0
    decay_mult: 0
  }
  batch_norm_param {
    use_global_stats: false
    eps: 1e-05
    scale_filler {
      type: "constant"
      value: 1
    }
    bias_filler {
      type: "constant"
      value: 0
    }
  }
}
layer {
  name: "Threshold_30"
  type: "ReLU"
  bottom: "BatchNorm_23"
  top: "BatchNorm_23"
}
layer {
  name: "ConvNd_26"
  type: "Convolution"
  bottom: "BatchNorm_23"
  top: "ConvNd_26"
  convolution_param {
    num_output: 32
    bias_term: false
    pad: 2
    kernel_size: 3
    group: 1
    stride: 1
    dilation: 2
  }
}
layer {
  name: "BatchNorm_24"
  type: "BatchNorm"
  bottom: "ConvNd_26"
  top: "BatchNorm_24"
  param {
    lr_mult: 1
    decay_mult: 0
  }
  param {
    lr_mult: 1
    decay_mult: 0
  }
  param {
    lr_mult: 0
    decay_mult: 0
  }
  param {
    lr_mult: 0
    decay_mult: 0
  }
  batch_norm_param {
    use_global_stats: false
    eps: 1e-05
    scale_filler {
      type: "constant"
      value: 1
    }
    bias_filler {
      type: "constant"
      value: 0
    }
  }
}
layer {
  name: "Threshold_31"
  type: "ReLU"
  bottom: "BatchNorm_24"
  top: "BatchNorm_24"
}
layer {
  name: "ConvNd_27"
  type: "Convolution"
  bottom: "BatchNorm_24"
  top: "ConvNd_27"
  convolution_param {
    num_output: 128
    bias_term: false
    pad: 0
    kernel_size: 1
    group: 1
    stride: 1
    dilation: 1
  }
}
layer {
  name: "BatchNorm_25"
  type: "BatchNorm"
  bottom: "ConvNd_27"
  top: "BatchNorm_25"
  param {
    lr_mult: 1
    decay_mult: 0
  }
  param {
    lr_mult: 1
    decay_mult: 0
  }
  param {
    lr_mult: 0
    decay_mult: 0
  }
  param {
    lr_mult: 0
    decay_mult: 0
  }
  batch_norm_param {
    use_global_stats: false
    eps: 1e-05
    scale_filler {
      type: "constant"
      value: 1
    }
    bias_filler {
      type: "constant"
      value: 0
    }
  }
}
layer {
  name: "Threshold_32"
  type: "ReLU"
  bottom: "BatchNorm_25"
  top: "BatchNorm_25"
}
layer {
  name: "Add_8"
  type: "Eltwise"
  bottom: "Add_7"
  bottom: "BatchNorm_25"
  top: "Add_8"
}
layer {
  name: "Threshold_33"
  type: "ReLU"
  bottom: "Add_8"
  top: "Add_8"
}
layer {
  name: "ConvNd_28"
  type: "Convolution"
  bottom: "Add_8"
  top: "ConvNd_28"
  convolution_param {
    num_output: 32
    bias_term: false
    pad: 0
    kernel_size: 1
    group: 1
    stride: 1
    dilation: 1
  }
}
layer {
  name: "BatchNorm_26"
  type: "BatchNorm"
  bottom: "ConvNd_28"
  top: "BatchNorm_26"
  param {
    lr_mult: 1
    decay_mult: 0
  }
  param {
    lr_mult: 1
    decay_mult: 0
  }
  param {
    lr_mult: 0
    decay_mult: 0
  }
  param {
    lr_mult: 0
    decay_mult: 0
  }
  batch_norm_param {
    use_global_stats: false
    eps: 1e-05
    scale_filler {
      type: "constant"
      value: 1
    }
    bias_filler {
      type: "constant"
      value: 0
    }
  }
}
layer {
  name: "Threshold_34"
  type: "ReLU"
  bottom: "BatchNorm_26"
  top: "BatchNorm_26"
}
layer {
  name: "ConvNd_29"
  type: "Convolution"
  bottom: "BatchNorm_26"
  top: "ConvNd_29"
  convolution_param {
    num_output: 32
    bias_term: false
    group: 1
    stride: 1
    pad_h: 2
    pad_w: 0
    kernel_h: 5
    kernel_w: 1
    dilation: 1
  }
}
layer {
  name: "BatchNorm_27"
  type: "BatchNorm"
  bottom: "ConvNd_29"
  top: "BatchNorm_27"
  param {
    lr_mult: 1
    decay_mult: 0
  }
  param {
    lr_mult: 1
    decay_mult: 0
  }
  param {
    lr_mult: 0
    decay_mult: 0
  }
  param {
    lr_mult: 0
    decay_mult: 0
  }
  batch_norm_param {
    use_global_stats: false
    eps: 1e-05
    scale_filler {
      type: "constant"
      value: 1
    }
    bias_filler {
      type: "constant"
      value: 0
    }
  }
}
layer {
  name: "Threshold_35"
  type: "ReLU"
  bottom: "BatchNorm_27"
  top: "BatchNorm_27"
}
layer {
  name: "ConvNd_30"
  type: "Convolution"
  bottom: "BatchNorm_27"
  top: "ConvNd_30"
  convolution_param {
    num_output: 32
    bias_term: false
    group: 1
    stride: 1
    pad_h: 0
    pad_w: 2
    kernel_h: 1
    kernel_w: 5
    dilation: 1
  }
}
layer {
  name: "BatchNorm_28"
  type: "BatchNorm"
  bottom: "ConvNd_30"
  top: "BatchNorm_28"
  param {
    lr_mult: 1
    decay_mult: 0
  }
  param {
    lr_mult: 1
    decay_mult: 0
  }
  param {
    lr_mult: 0
    decay_mult: 0
  }
  param {
    lr_mult: 0
    decay_mult: 0
  }
  batch_norm_param {
    use_global_stats: false
    eps: 1e-05
    scale_filler {
      type: "constant"
      value: 1
    }
    bias_filler {
      type: "constant"
      value: 0
    }
  }
}
layer {
  name: "Threshold_36"
  type: "ReLU"
  bottom: "BatchNorm_28"
  top: "BatchNorm_28"
}
layer {
  name: "ConvNd_31"
  type: "Convolution"
  bottom: "BatchNorm_28"
  top: "ConvNd_31"
  convolution_param {
    num_output: 128
    bias_term: false
    pad: 0
    kernel_size: 1
    group: 1
    stride: 1
    dilation: 1
  }
}
layer {
  name: "BatchNorm_29"
  type: "BatchNorm"
  bottom: "ConvNd_31"
  top: "BatchNorm_29"
  param {
    lr_mult: 1
    decay_mult: 0
  }
  param {
    lr_mult: 1
    decay_mult: 0
  }
  param {
    lr_mult: 0
    decay_mult: 0
  }
  param {
    lr_mult: 0
    decay_mult: 0
  }
  batch_norm_param {
    use_global_stats: false
    eps: 1e-05
    scale_filler {
      type: "constant"
      value: 1
    }
    bias_filler {
      type: "constant"
      value: 0
    }
  }
}
layer {
  name: "Threshold_37"
  type: "ReLU"
  bottom: "BatchNorm_29"
  top: "BatchNorm_29"
}
layer {
  name: "Add_9"
  type: "Eltwise"
  bottom: "Add_8"
  bottom: "BatchNorm_29"
  top: "Add_9"
}
layer {
  name: "Threshold_38"
  type: "ReLU"
  bottom: "Add_9"
  top: "Add_9"
}
layer {
  name: "ConvNd_32"
  type: "Convolution"
  bottom: "Add_9"
  top: "ConvNd_32"
  convolution_param {
    num_output: 32
    bias_term: false
    pad: 0
    kernel_size: 1
    group: 1
    stride: 1
    dilation: 1
  }
}
layer {
  name: "BatchNorm_30"
  type: "BatchNorm"
  bottom: "ConvNd_32"
  top: "BatchNorm_30"
  param {
    lr_mult: 1
    decay_mult: 0
  }
  param {
    lr_mult: 1
    decay_mult: 0
  }
  param {
    lr_mult: 0
    decay_mult: 0
  }
  param {
    lr_mult: 0
    decay_mult: 0
  }
  batch_norm_param {
    use_global_stats: false
    eps: 1e-05
    scale_filler {
      type: "constant"
      value: 1
    }
    bias_filler {
      type: "constant"
      value: 0
    }
  }
}
layer {
  name: "Threshold_39"
  type: "ReLU"
  bottom: "BatchNorm_30"
  top: "BatchNorm_30"
}
layer {
  name: "ConvNd_33"
  type: "Convolution"
  bottom: "BatchNorm_30"
  top: "ConvNd_33"
  convolution_param {
    num_output: 32
    bias_term: false
    pad: 4
    kernel_size: 3
    group: 1
    stride: 1
    dilation: 4
  }
}
layer {
  name: "BatchNorm_31"
  type: "BatchNorm"
  bottom: "ConvNd_33"
  top: "BatchNorm_31"
  param {
    lr_mult: 1
    decay_mult: 0
  }
  param {
    lr_mult: 1
    decay_mult: 0
  }
  param {
    lr_mult: 0
    decay_mult: 0
  }
  param {
    lr_mult: 0
    decay_mult: 0
  }
  batch_norm_param {
    use_global_stats: false
    eps: 1e-05
    scale_filler {
      type: "constant"
      value: 1
    }
    bias_filler {
      type: "constant"
      value: 0
    }
  }
}
layer {
  name: "Threshold_40"
  type: "ReLU"
  bottom: "BatchNorm_31"
  top: "BatchNorm_31"
}
layer {
  name: "ConvNd_34"
  type: "Convolution"
  bottom: "BatchNorm_31"
  top: "ConvNd_34"
  convolution_param {
    num_output: 128
    bias_term: false
    pad: 0
    kernel_size: 1
    group: 1
    stride: 1
    dilation: 1
  }
}
layer {
  name: "BatchNorm_32"
  type: "BatchNorm"
  bottom: "ConvNd_34"
  top: "BatchNorm_32"
  param {
    lr_mult: 1
    decay_mult: 0
  }
  param {
    lr_mult: 1
    decay_mult: 0
  }
  param {
    lr_mult: 0
    decay_mult: 0
  }
  param {
    lr_mult: 0
    decay_mult: 0
  }
  batch_norm_param {
    use_global_stats: false
    eps: 1e-05
    scale_filler {
      type: "constant"
      value: 1
    }
    bias_filler {
      type: "constant"
      value: 0
    }
  }
}
layer {
  name: "Threshold_41"
  type: "ReLU"
  bottom: "BatchNorm_32"
  top: "BatchNorm_32"
}
layer {
  name: "Add_10"
  type: "Eltwise"
  bottom: "Add_9"
  bottom: "BatchNorm_32"
  top: "Add_10"
}
layer {
  name: "Threshold_42"
  type: "ReLU"
  bottom: "Add_10"
  top: "Add_10"
}
layer {
  name: "ConvNd_35"
  type: "Convolution"
  bottom: "Add_10"
  top: "ConvNd_35"
  convolution_param {
    num_output: 32
    bias_term: false
    pad: 0
    kernel_size: 1
    group: 1
    stride: 1
    dilation: 1
  }
}
layer {
  name: "BatchNorm_33"
  type: "BatchNorm"
  bottom: "ConvNd_35"
  top: "BatchNorm_33"
  param {
    lr_mult: 1
    decay_mult: 0
  }
  param {
    lr_mult: 1
    decay_mult: 0
  }
  param {
    lr_mult: 0
    decay_mult: 0
  }
  param {
    lr_mult: 0
    decay_mult: 0
  }
  batch_norm_param {
    use_global_stats: false
    eps: 1e-05
    scale_filler {
      type: "constant"
      value: 1
    }
    bias_filler {
      type:
I0711 11:10:25.599145 27674 layer_factory.hpp:123] Creating layer data
I0711 11:10:25.599174 27674 net.cpp:140] Creating Layer data
I0711 11:10:25.599182 27674 net.cpp:455] data -> data
I0711 11:10:25.599192 27674 net.cpp:455] data -> label
I0711 11:10:25.599208 27674 image_seg_data_layer.cpp:46] Opening file ../data/val_img_seg_nomap.txt
I0711 11:10:25.599788 27674 image_seg_data_layer.cpp:68] A total of 500 images.
I0711 11:10:25.668303 27674 image_seg_data_layer.cpp:97] output data size: 1,3,1024,2048
I0711 11:10:25.810652 27674 internal_thread.cpp:73] Starting internal thread(s) on GPU 1
I0711 11:10:25.810843 27674 net.cpp:190] Setting up data
I0711 11:10:25.810858 27674 net.cpp:197] Top shape: 1 3 1024 2048 (6291456)
I0711 11:10:25.810863 27674 net.cpp:197] Top shape: 1 1 1024 2048 (2097152)
I0711 11:10:25.810866 27674 net.cpp:205] Memory required for data: 33554432
I0711 11:10:25.810873 27674 layer_factory.hpp:123] Creating layer resize_down
I0711 11:10:25.810885 27674 net.cpp:140] Creating Layer resize_down
I0711 11:10:25.810889 27674 net.cpp:481] resize_down <- data
I0711 11:10:25.810904 27674 net.cpp:442] resize_down -> data (in-place)
I0711 11:10:25.810914 27674 net.cpp:190] Setting up resize_down
I0711 11:10:25.810917 27674 net.cpp:197] Top shape: 1 3 512 1024 (1572864)
I0711 11:10:25.810922 27674 net.cpp:205] Memory required for data: 39845888
I0711 11:10:25.810926 27674 layer_factory.hpp:123] Creating layer data_resize_down_0_split
I0711 11:10:25.810932 27674 net.cpp:140] Creating Layer data_resize_down_0_split
I0711 11:10:25.810935 27674 net.cpp:481] data_resize_down_0_split <- data
I0711 11:10:25.810940 27674 net.cpp:455] data_resize_down_0_split -> data_resize_down_0_split_0
I0711 11:10:25.810948 27674 net.cpp:455] data_resize_down_0_split -> data_resize_down_0_split_1
I0711 11:10:25.811017 27674 net.cpp:190] Setting up data_resize_down_0_split
I0711 11:10:25.811024 27674 net.cpp:197] Top shape: 1 3 512 1024 (1572864)
I0711 11:10:25.811028 27674 net.cpp:197] Top shape: 1 3 512 1024 (1572864)
I0711 11:10:25.811031 27674 net.cpp:205] Memory required for data: 52428800
I0711 11:10:25.811034 27674 layer_factory.hpp:123] Creating layer ConvNd_1
I0711 11:10:25.811043 27674 net.cpp:140] Creating Layer ConvNd_1
I0711 11:10:25.811046 27674 net.cpp:481] ConvNd_1 <- data_resize_down_0_split_0
I0711 11:10:25.811051 27674 net.cpp:455] ConvNd_1 -> ConvNd_1
I0711 11:10:25.812057 27674 net.cpp:190] Setting up ConvNd_1
I0711 11:10:25.812069 27674 net.cpp:197] Top shape: 1 13 256 512 (1703936)
I0711 11:10:25.812072 27674 net.cpp:205] Memory required for data: 59244544
I0711 11:10:25.812088 27674 layer_factory.hpp:123] Creating layer MaxPool2d_1
I0711 11:10:25.812098 27674 net.cpp:140] Creating Layer MaxPool2d_1
I0711 11:10:25.812100 27674 net.cpp:481] MaxPool2d_1 <- data_resize_down_0_split_1
I0711 11:10:25.812106 27674 net.cpp:455] MaxPool2d_1 -> MaxPool2d_1
I0711 11:10:25.812160 27674 net.cpp:190] Setting up MaxPool2d_1
I0711 11:10:25.812165 27674 net.cpp:197] Top shape: 1 3 256 512 (393216)
I0711 11:10:25.812168 27674 net.cpp:205] Memory required for data: 60817408
I0711 11:10:25.812171 27674 layer_factory.hpp:123] Creating layer Concat_1
I0711 11:10:25.812177 27674 net.cpp:140] Creating Layer Concat_1
I0711 11:10:25.812180 27674 net.cpp:481] Concat_1 <- ConvNd_1
I0711 11:10:25.812184 27674 net.cpp:481] Concat_1 <- MaxPool2d_1
I0711 11:10:25.812189 27674 net.cpp:455] Concat_1 -> Concat_1
I0711 11:10:25.812208 27674 net.cpp:190] Setting up Concat_1
I0711 11:10:25.812214 27674 net.cpp:197] Top shape: 1 16 256 512 (2097152)
I0711 11:10:25.812217 27674 net.cpp:205] Memory required for data: 69206016
I0711 11:10:25.812220 27674 layer_factory.hpp:123] Creating layer BatchNorm_1
I0711 11:10:25.812227 27674 net.cpp:140] Creating Layer BatchNorm_1
I0711 11:10:25.812232 27674 net.cpp:481] BatchNorm_1 <- Concat_1
I0711 11:10:25.812237 27674 net.cpp:455] BatchNorm_1 -> BatchNorm_1
I0711 11:10:25.814450 27674 net.cpp:190] Setting up BatchNorm_1
I0711 11:10:25.814461 27674 net.cpp:197] Top shape: 1 16 256 512 (2097152)
I0711 11:10:25.814465 27674 net.cpp:205] Memory required for data: 77594624
I0711 11:10:25.814478 27674 layer_factory.hpp:123] Creating layer Threshold_1
I0711 11:10:25.814486 27674 net.cpp:140] Creating Layer Threshold_1
I0711 11:10:25.814489 27674 net.cpp:481] Threshold_1 <- BatchNorm_1
I0711 11:10:25.814494 27674 net.cpp:442] Threshold_1 -> BatchNorm_1 (in-place)
I0711 11:10:25.814505 27674 net.cpp:190] Setting up Threshold_1
I0711 11:10:25.814509 27674 net.cpp:197] Top shape: 1 16 256 512 (2097152)
I0711 11:10:25.814512 27674 net.cpp:205] Memory required for data: 85983232
I0711 11:10:25.814515 27674 layer_factory.hpp:123] Creating layer BatchNorm_1_Threshold_1_0_split
I0711 11:10:25.814522 27674 net.cpp:140] Creating Layer BatchNorm_1_Threshold_1_0_split
I0711 11:10:25.814524 27674 net.cpp:481] BatchNorm_1_Threshold_1_0_split <- BatchNorm_1
I0711 11:10:25.814529 27674 net.cpp:455] BatchNorm_1_Threshold_1_0_split -> BatchNorm_1_Threshold_1_0_split_0
I0711 11:10:25.814535 27674 net.cpp:455] BatchNorm_1_Threshold_1_0_split -> BatchNorm_1_Threshold_1_0_split_1
I0711 11:10:25.814738 27674 net.cpp:190] Setting up BatchNorm_1_Threshold_1_0_split
I0711 11:10:25.814743 27674 net.cpp:197] Top shape: 1 16 256 512 (2097152)
I0711 11:10:25.814747 27674 net.cpp:197] Top shape: 1 16 256 512 (2097152)
I0711 11:10:25.814750 27674 net.cpp:205] Memory required for data: 102760448
I0711 11:10:25.814754 27674 layer_factory.hpp:123] Creating layer MaxPool2d_2
I0711 11:10:25.814759 27674 net.cpp:140] Creating Layer MaxPool2d_2
I0711 11:10:25.814762 27674 net.cpp:481] MaxPool2d_2 <- BatchNorm_1_Threshold_1_0_split_0
I0711 11:10:25.814769 27674 net.cpp:455] MaxPool2d_2 -> MaxPool2d_2
I0711 11:10:25.814818 27674 net.cpp:190] Setting up MaxPool2d_2
I0711 11:10:25.814824 27674 net.cpp:197] Top shape: 1 16 128 256 (524288)
I0711 11:10:25.814828 27674 net.cpp:205] Memory required for data: 104857600
I0711 11:10:25.814831 27674 layer_factory.hpp:123] Creating layer ConvNd_2
I0711 11:10:25.814838 27674 net.cpp:140] Creating Layer ConvNd_2
I0711 11:10:25.814841 27674 net.cpp:481] ConvNd_2 <- MaxPool2d_2
I0711 11:10:25.814846 27674 net.cpp:455] ConvNd_2 -> ConvNd_2
I0711 11:10:25.815066 27674 net.cpp:190] Setting up ConvNd_2
I0711 11:10:25.815074 27674 net.cpp:197] Top shape: 1 64 128 256 (2097152)
I0711 11:10:25.815078 27674 net.cpp:205] Memory required for data: 113246208
I0711 11:10:25.815083 27674 layer_factory.hpp:123] Creating layer ConvNd_3
I0711 11:10:25.815089 27674 net.cpp:140] Creating Layer ConvNd_3
I0711 11:10:25.815093 27674 net.cpp:481] ConvNd_3 <- BatchNorm_1_Threshold_1_0_split_1
I0711 11:10:25.815099 27674 net.cpp:455] ConvNd_3 -> ConvNd_3
I0711 11:10:25.815335 27674 net.cpp:190] Setting up ConvNd_3
I0711 11:10:25.815341 27674 net.cpp:197] Top shape: 1 16 128 256 (524288)
I0711 11:10:25.815344 27674 net.cpp:205] Memory required for data: 115343360
I0711 11:10:25.815349 27674 layer_factory.hpp:123] Creating layer BatchNorm_2
I0711 11:10:25.815356 27674 net.cpp:140] Creating Layer BatchNorm_2
I0711 11:10:25.815359 27674 net.cpp:481] BatchNorm_2 <- ConvNd_3
I0711 11:10:25.815364 27674 net.cpp:455] BatchNorm_2 -> BatchNorm_2
I0711 11:10:25.816985 27674 net.cpp:190] Setting up BatchNorm_2
I0711 11:10:25.816998 27674 net.cpp:197] Top shape: 1 16 128 256 (524288)
I0711 11:10:25.817000 27674 net.cpp:205] Memory required for data: 117440512
I0711 11:10:25.817011 27674 layer_factory.hpp:123] Creating layer Threshold_2
I0711 11:10:25.817018 27674 net.cpp:140] Creating Layer Threshold_2
I0711 11:10:25.817021 27674 net.cpp:481] Threshold_2 <- BatchNorm_2
I0711 11:10:25.817026 27674 net.cpp:442] Threshold_2 -> BatchNorm_2 (in-place)
I0711 11:10:25.817032 27674 net.cpp:190] Setting up Threshold_2
I0711 11:10:25.817037 27674 net.cpp:197] Top shape: 1 16 128 256 (524288)
I0711 11:10:25.817040 27674 net.cpp:205] Memory required for data: 119537664
I0711 11:10:25.817044 27674 layer_factory.hpp:123] Creating layer ConvNd_4
I0711 11:10:25.817049 27674 net.cpp:140] Creating Layer ConvNd_4
I0711 11:10:25.817052 27674 net.cpp:481] ConvNd_4 <- BatchNorm_2
I0711 11:10:25.817059 27674 net.cpp:455] ConvNd_4 -> ConvNd_4
I0711 11:10:25.817946 27674 net.cpp:190] Setting up ConvNd_4
I0711 11:10:25.817957 27674 net.cpp:197] Top shape: 1 16 128 256 (524288)
I0711 11:10:25.817960 27674 net.cpp:205] Memory required for data: 121634816
I0711 11:10:25.817965 27674 layer_factory.hpp:123] Creating layer BatchNorm_3
I0711 11:10:25.817972 27674 net.cpp:140] Creating Layer BatchNorm_3
I0711 11:10:25.817975 27674 net.cpp:481] BatchNorm_3 <- ConvNd_4
I0711 11:10:25.817981 27674 net.cpp:455] BatchNorm_3 -> BatchNorm_3
I0711 11:10:25.818590 27674 net.cpp:190] Setting up BatchNorm_3
I0711 11:10:25.818598 27674 net.cpp:197] Top shape: 1 16 128 256 (524288)
I0711 11:10:25.818601 27674 net.cpp:205] Memory required for data: 123731968
I0711 11:10:25.818612 27674 layer_factory.hpp:123] Creating layer Threshold_3
I0711 11:10:25.818619 27674 net.cpp:140] Creating Layer Threshold_3
I0711 11:10:25.818622 27674 net.cpp:481] Threshold_3 <- BatchNorm_3
I0711 11:10:25.818626 27674 net.cpp:442] Threshold_3 -> BatchNorm_3 (in-place)
I0711 11:10:25.818632 27674 net.cpp:190] Setting up Threshold_3
I0711 11:10:25.818636 27674 net.cpp:197] Top shape: 1 16 128 256 (524288)
I0711 11:10:25.818639 27674 net.cpp:205] Memory required for data: 125829120
I0711 11:10:25.818642 27674 layer_factory.hpp:123] Creating layer ConvNd_5
I0711 11:10:25.818648 27674 net.cpp:140] Creating Layer ConvNd_5
I0711 11:10:25.818651 27674 net.cpp:481] ConvNd_5 <- BatchNorm_3
I0711 11:10:25.818656 27674 net.cpp:455] ConvNd_5 -> ConvNd_5
I0711 11:10:25.818812 27674 net.cpp:190] Setting up ConvNd_5
I0711 11:10:25.818820 27674 net.cpp:197] Top shape: 1 64 128 256 (2097152)
I0711 11:10:25.818825 27674 net.cpp:205] Memory required for data: 134217728
I0711 11:10:25.818828 27674 layer_factory.hpp:123] Creating layer BatchNorm_4
I0711 11:10:25.818835 27674 net.cpp:140] Creating Layer BatchNorm_4
I0711 11:10:25.818837 27674 net.cpp:481] BatchNorm_4 <- ConvNd_5
I0711 11:10:25.818843 27674 net.cpp:455] BatchNorm_4 -> BatchNorm_4
I0711 11:10:25.819432 27674 net.cpp:190] Setting up BatchNorm_4
I0711 11:10:25.819439 27674 net.cpp:197] Top shape: 1 64 128 256 (2097152)
I0711 11:10:25.819442 27674 net.cpp:205] Memory required for data: 142606336
I0711 11:10:25.819450 27674 layer_factory.hpp:123] Creating layer Threshold_4
I0711 11:10:25.819455 27674 net.cpp:140] Creating Layer Threshold_4
I0711 11:10:25.819458 27674 net.cpp:481] Threshold_4 <- BatchNorm_4
I0711 11:10:25.819463 27674 net.cpp:442] Threshold_4 -> BatchNorm_4 (in-place)
I0711 11:10:25.819469 27674 net.cpp:190] Setting up Threshold_4
I0711 11:10:25.819473 27674 net.cpp:197] Top shape: 1 64 128 256 (2097152)
I0711 11:10:25.819475 27674 net.cpp:205] Memory required for data: 150994944
I0711 11:10:25.819478 27674 layer_factory.hpp:123] Creating layer Add_1
I0711 11:10:25.819483 27674 net.cpp:140] Creating Layer Add_1
I0711 11:10:25.819486 27674 net.cpp:481] Add_1 <- ConvNd_2
I0711 11:10:25.819490 27674 net.cpp:481] Add_1 <- BatchNorm_4
I0711 11:10:25.819494 27674 net.cpp:455] Add_1 -> Add_1
I0711 11:10:25.819514 27674 net.cpp:190] Setting up Add_1
I0711 11:10:25.819519 27674 net.cpp:197] Top shape: 1 64 128 256 (2097152)
I0711 11:10:25.819520 27674 net.cpp:205] Memory required for data: 159383552
I0711 11:10:25.819523 27674 layer_factory.hpp:123] Creating layer Threshold_5
I0711 11:10:25.819528 27674 net.cpp:140] Creating Layer Threshold_5
I0711 11:10:25.819531 27674 net.cpp:481] Threshold_5 <- Add_1
I0711 11:10:25.819535 27674 net.cpp:442] Threshold_5 -> Add_1 (in-place)
I0711 11:10:25.819540 27674 net.cpp:190] Setting up Threshold_5
I0711 11:10:25.819545 27674 net.cpp:197] Top shape: 1 64 128 256 (2097152)
I0711 11:10:25.819547 27674 net.cpp:205] Memory required for data: 167772160
I0711 11:10:25.819550 27674 layer_factory.hpp:123] Creating layer Add_1_Threshold_5_0_split
I0711 11:10:25.819555 27674 net.cpp:140] Creating Layer Add_1_Threshold_5_0_split
I0711 11:10:25.819558 27674 net.cpp:481] Add_1_Threshold_5_0_split <- Add_1
I0711 11:10:25.819562 27674 net.cpp:455] Add_1_Threshold_5_0_split -> Add_1_Threshold_5_0_split_0
I0711 11:10:25.819568 27674 net.cpp:455] Add_1_Threshold_5_0_split -> Add_1_Threshold_5_0_split_1
I0711 11:10:25.819593 27674 net.cpp:190] Setting up Add_1_Threshold_5_0_split
I0711 11:10:25.819599 27674 net.cpp:197] Top shape: 1 64 128 256 (2097152)
I0711 11:10:25.819603 27674 net.cpp:197] Top shape: 1 64 128 256 (2097152)
I0711 11:10:25.819607 27674 net.cpp:205] Memory required for data: 184549376
I0711 11:10:25.819609 27674 layer_factory.hpp:123] Creating layer ConvNd_6
I0711 11:10:25.819617 27674 net.cpp:140] Creating Layer ConvNd_6
I0711 11:10:25.819619 27674 net.cpp:481] ConvNd_6 <- Add_1_Threshold_5_0_split_0
I0711 11:10:25.819623 27674 net.cpp:455] ConvNd_6 -> ConvNd_6
I0711 11:10:25.819784 27674 net.cpp:190] Setting up ConvNd_6
I0711 11:10:25.819793 27674 net.cpp:197] Top shape: 1 16 128 256 (524288)
I0711 11:10:25.819797 27674 net.cpp:205] Memory required for data: 186646528
I0711 11:10:25.819800 27674 layer_factory.hpp:123] Creating layer BatchNorm_5
I0711 11:10:25.819806 27674 net.cpp:140] Creating Layer BatchNorm_5
I0711 11:10:25.819810 27674 net.cpp:481] BatchNorm_5 <- ConvNd_6
I0711 11:10:25.819815 27674 net.cpp:455] BatchNorm_5 -> BatchNorm_5
I0711 11:10:25.820408 27674 net.cpp:190] Setting up BatchNorm_5
I0711 11:10:25.820416 27674 net.cpp:197] Top shape: 1 16 128 256 (524288)
I0711 11:10:25.820420 27674 net.cpp:205] Memory required for data: 188743680
I0711 11:10:25.820428 27674 layer_factory.hpp:123] Creating layer Threshold_6
I0711 11:10:25.820433 27674 net.cpp:140] Creating Layer Threshold_6
I0711 11:10:25.820436 27674 net.cpp:481] Threshold_6 <- BatchNorm_5
I0711 11:10:25.820441 27674 net.cpp:442] Threshold_6 -> BatchNorm_5 (in-place)
I0711 11:10:25.820446 27674 net.cpp:190] Setting up Threshold_6
I0711 11:10:25.820451 27674 net.cpp:197] Top shape: 1 16 128 256 (524288)
I0711 11:10:25.820453 27674 net.cpp:205] Memory required for data: 190840832
I0711 11:10:25.820456 27674 layer_factory.hpp:123] Creating layer ConvNd_7
I0711 11:10:25.820462 27674 net.cpp:140] Creating Layer ConvNd_7
I0711 11:10:25.820466 27674 net.cpp:481] ConvNd_7 <- BatchNorm_5
I0711 11:10:25.820471 27674 net.cpp:455] ConvNd_7 -> ConvNd_7
I0711 11:10:25.820629 27674 net.cpp:190] Setting up ConvNd_7
I0711 11:10:25.820636 27674 net.cpp:197] Top shape: 1 16 128 256 (524288)
I0711 11:10:25.820639 27674 net.cpp:205] Memory required for data: 192937984
I0711 11:10:25.820643 27674 layer_factory.hpp:123] Creating layer BatchNorm_6
I0711 11:10:25.820649 27674 net.cpp:140] Creating Layer BatchNorm_6
I0711 11:10:25.820652 27674 net.cpp:481] BatchNorm_6 <- ConvNd_7
I0711 11:10:25.820658 27674 net.cpp:455] BatchNorm_6 -> BatchNorm_6
I0711 11:10:25.821254 27674 net.cpp:190] Setting up BatchNorm_6
I0711 11:10:25.821262 27674 net.cpp:197] Top shape: 1 16 128 256 (524288)
I0711 11:10:25.821265 27674 net.cpp:205] Memory required for data: 195035136
I0711 11:10:25.821276 27674 layer_factory.hpp:123] Creating layer Threshold_7
I0711 11:10:25.821281 27674 net.cpp:140] Creating Layer Threshold_7
I0711 11:10:25.821285 27674 net.cpp:481] Threshold_7 <- BatchNorm_6
I0711 11:10:25.821290 27674 net.cpp:442] Threshold_7 -> BatchNorm_6 (in-place)
I0711 11:10:25.821295 27674 net.cpp:190] Setting up Threshold_7
I0711 11:10:25.821298 27674 net.cpp:197] Top shape: 1 16 128 256 (524288)
I0711 11:10:25.821301 27674 net.cpp:205] Memory required for data: 197132288
I0711 11:10:25.821305 27674 layer_factory.hpp:123] Creating layer ConvNd_8
I0711 11:10:25.821310 27674 net.cpp:140] Creating Layer ConvNd_8
I0711 11:10:25.821313 27674 net.cpp:481] ConvNd_8 <- BatchNorm_6
I0711 11:10:25.821318 27674 net.cpp:455] ConvNd_8 -> ConvNd_8
I0711 11:10:25.821477 27674 net.cpp:190] Setting up ConvNd_8
I0711 11:10:25.821485 27674 net.cpp:197] Top shape: 1 64 128 256 (2097152)
I0711 11:10:25.821488 27674 net.cpp:205] Memory required for data: 205520896
I0711 11:10:25.821493 27674 layer_factory.hpp:123] Creating layer BatchNorm_7
I0711 11:10:25.821499 27674 net.cpp:140] Creating Layer BatchNorm_7
I0711 11:10:25.821502 27674 net.cpp:481] BatchNorm_7 <- ConvNd_8
I0711 11:10:25.821507 27674 net.cpp:455] BatchNorm_7 -> BatchNorm_7
I0711 11:10:25.822104 27674 net.cpp:190] Setting up BatchNorm_7
I0711 11:10:25.822113 27674 net.cpp:197] Top shape: 1 64 128 256 (2097152)
I0711 11:10:25.822115 27674 net.cpp:205] Memory required for data: 213909504
I0711 11:10:25.822124 27674 layer_factory.hpp:123] Creating layer Threshold_8
I0711 11:10:25.822129 27674 net.cpp:140] Creating Layer Threshold_8
I0711 11:10:25.822132 27674 net.cpp:481] Threshold_8 <- BatchNorm_7
I0711 11:10:25.822136 27674 net.cpp:442] Threshold_8 -> BatchNorm_7 (in-place)
I0711 11:10:25.822142 27674 net.cpp:190] Setting up Threshold_8
I0711 11:10:25.822146 27674 net.cpp:197] Top shape: 1 64 128 256 (2097152)
I0711 11:10:25.822149 27674 net.cpp:205] Memory required for data: 222298112
I0711 11:10:25.822151 27674 layer_factory.hpp:123] Creating layer Add_2
I0711 11:10:25.822157 27674 net.cpp:140] Creating Layer Add_2
I0711 11:10:25.822161 27674 net.cpp:481] Add_2 <- Add_1_Threshold_5_0_split_1
I0711 11:10:25.822165 27674 net.cpp:481] Add_2 <- BatchNorm_7
I0711 11:10:25.822170 27674 net.cpp:455] Add_2 -> Add_2
I0711 11:10:25.822190 27674 net.cpp:190] Setting up Add_2
I0711 11:10:25.822196 27674 net.cpp:197] Top shape: 1 64 128 256 (2097152)
I0711 11:10:25.822198 27674 net.cpp:205] Memory required for data: 230686720
I0711 11:10:25.822201 27674 layer_factory.hpp:123] Creating layer Threshold_9
I0711 11:10:25.822206 27674 net.cpp:140] Creating Layer Threshold_9
I0711 11:10:25.822209 27674 net.cpp:481] Threshold_9 <- Add_2
I0711 11:10:25.822213 27674 net.cpp:442] Threshold_9 -> Add_2 (in-place)
I0711 11:10:25.822218 27674 net.cpp:190] Setting up Threshold_9
I0711 11:10:25.822222 27674 net.cpp:197] Top shape: 1 64 128 256 (2097152)
I0711 11:10:25.822226 27674 net.cpp:205] Memory required for data: 239075328
I0711 11:10:25.822228 27674 layer_factory.hpp:123] Creating layer Add_2_Threshold_9_0_split
I0711 11:10:25.822232 27674 net.cpp:140] Creating Layer Add_2_Threshold_9_0_split
I0711 11:10:25.822237 27674 net.cpp:481] Add_2_Threshold_9_0_split <- Add_2
I0711 11:10:25.822240 27674 net.cpp:455] Add_2_Threshold_9_0_split -> Add_2_Threshold_9_0_split_0
I0711 11:10:25.822247 27674 net.cpp:455] Add_2_Threshold_9_0_split -> Add_2_Threshold_9_0_split_1
I0711 11:10:25.822273 27674 net.cpp:190] Setting up Add_2_Threshold_9_0_split
I0711 11:10:25.822279 27674 net.cpp:197] Top shape: 1 64 128 256 (2097152)
I0711 11:10:25.822283 27674 net.cpp:197] Top shape: 1 64 128 256 (2097152)
I0711 11:10:25.822286 27674 net.cpp:205] Memory required for data: 255852544
I0711 11:10:25.822289 27674 layer_factory.hpp:123] Creating layer ConvNd_9
I0711 11:10:25.822295 27674 net.cpp:140] Creating Layer ConvNd_9
I0711 11:10:25.822299 27674 net.cpp:481] ConvNd_9 <- Add_2_Threshold_9_0_split_0
I0711 11:10:25.822304 27674 net.cpp:455] ConvNd_9 -> ConvNd_9
I0711 11:10:25.822456 27674 net.cpp:190] Setting up ConvNd_9
I0711 11:10:25.822463 27674 net.cpp:197] Top shape: 1 16 128 256 (524288)
I0711 11:10:25.822468 27674 net.cpp:205] Memory required for data: 257949696
I0711 11:10:25.822471 27674 layer_factory.hpp:123] Creating layer BatchNorm_8
I0711 11:10:25.822477 27674 net.cpp:140] Creating Layer BatchNorm_8
I0711 11:10:25.822481 27674 net.cpp:481] BatchNorm_8 <- ConvNd_9
I0711 11:10:25.822486 27674 net.cpp:455] BatchNorm_8 -> BatchNorm_8
I0711 11:10:25.823088 27674 net.cpp:190] Setting up BatchNorm_8
I0711 11:10:25.823097 27674 net.cpp:197] Top shape: 1 16 128 256 (524288)
I0711 11:10:25.823101 27674 net.cpp:205] Memory required for data: 260046848
I0711 11:10:25.823108 27674 layer_factory.hpp:123] Creating layer Threshold_10
I0711 11:10:25.823113 27674 net.cpp:140] Creating Layer Threshold_10
I0711 11:10:25.823117 27674 net.cpp:481] Threshold_10 <- BatchNorm_8
I0711 11:10:25.823122 27674 net.cpp:442] Threshold_10 -> BatchNorm_8 (in-place)
I0711 11:10:25.823127 27674 net.cpp:190] Setting up Threshold_10
I0711 11:10:25.823132 27674 net.cpp:197] Top shape: 1 16 128 256 (524288)
I0711 11:10:25.823133 27674 net.cpp:205] Memory required for data: 262144000
I0711 11:10:25.823137 27674 layer_factory.hpp:123] Creating layer ConvNd_10
I0711 11:10:25.823143 27674 net.cpp:140] Creating Layer ConvNd_10
I0711 11:10:25.823145 27674 net.cpp:481] ConvNd_10 <- BatchNorm_8
I0711 11:10:25.823150 27674 net.cpp:455] ConvNd_10 -> ConvNd_10
I0711 11:10:25.823310 27674 net.cpp:190] Setting up ConvNd_10
I0711 11:10:25.823318 27674 net.cpp:197] Top shape: 1 16 128 256 (524288)
I0711 11:10:25.823321 27674 net.cpp:205] Memory required for data: 264241152
I0711 11:10:25.823325 27674 layer_factory.hpp:123] Creating layer BatchNorm_9
I0711 11:10:25.823333 27674 net.cpp:140] Creating Layer BatchNorm_9
I0711 11:10:25.823335 27674 net.cpp:481] BatchNorm_9 <- ConvNd_10
I0711 11:10:25.823340 27674 net.cpp:455] BatchNorm_9 -> BatchNorm_9
I0711 11:10:25.823954 27674 net.cpp:190] Setting up BatchNorm_9
I0711 11:10:25.823963 27674 net.cpp:197] Top shape: 1 16 128 256 (524288)
I0711 11:10:25.823966 27674 net.cpp:205] Memory required for data: 266338304
I0711 11:10:25.823976 27674 layer_factory.hpp:123] Creating layer Threshold_11
I0711 11:10:25.823981 27674 net.cpp:140] Creating Layer Threshold_11
I0711 11:10:25.823983 27674 net.cpp:481] Threshold_11 <- BatchNorm_9
I0711 11:10:25.823988 27674 net.cpp:442] Threshold_11 -> BatchNorm_9 (in-place)
I0711 11:10:25.823993 27674 net.cpp:190] Setting up Threshold_11
I0711 11:10:25.823997 27674 net.cpp:197] Top shape: 1 16 128 256 (524288)
I0711 11:10:25.824000 27674 net.cpp:205] Memory required for data: 268435456
I0711 11:10:25.824003 27674 layer_factory.hpp:123] Creating layer ConvNd_11
I0711 11:10:25.824009 27674 net.cpp:140] Creating Layer ConvNd_11
I0711 11:10:25.824012 27674 net.cpp:481] ConvNd_11 <- BatchNorm_9
I0711 11:10:25.824018 27674 net.cpp:455] ConvNd_11 -> ConvNd_11
I0711 11:10:25.824177 27674 net.cpp:190] Setting up ConvNd_11
I0711 11:10:25.824183 27674 net.cpp:197] Top shape: 1 64 128 256 (2097152)
I0711 11:10:25.824187 27674 net.cpp:205] Memory required for data: 276824064
I0711 11:10:25.824192 27674 layer_factory.hpp:123] Creating layer BatchNorm_10
I0711 11:10:25.824204 27674 net.cpp:140] Creating Layer BatchNorm_10
I0711 11:10:25.824208 27674 net.cpp:481] BatchNorm_10 <- ConvNd_11
I0711 11:10:25.824213 27674 net.cpp:455] BatchNorm_10 -> BatchNorm_10
I0711 11:10:25.824826 27674 net.cpp:190] Setting up BatchNorm_10
I0711 11:10:25.824834 27674 net.cpp:197] Top shape: 1 64 128 256 (2097152)
I0711 11:10:25.824837 27674 net.cpp:205] Memory required for data: 285212672
I0711 11:10:25.824846 27674 layer_factory.hpp:123] Creating layer Threshold_12
I0711 11:10:25.824851 27674 net.cpp:140] Creating Layer Threshold_12
I0711 11:10:25.824853 27674 net.cpp:481] Threshold_12 <- BatchNorm_10
I0711 11:10:25.824858 27674 net.cpp:442] Threshold_12 -> BatchNorm_10 (in-place)
I0711 11:10:25.824863 27674 net.cpp:190] Setting up Threshold_12
I0711 11:10:25.824867 27674 net.cpp:197] Top shape: 1 64 128 256 (2097152)
I0711 11:10:25.824870 27674 net.cpp:205] Memory required for data: 293601280
I0711 11:10:25.824873 27674 layer_factory.hpp:123] Creating layer Add_3
I0711 11:10:25.824878 27674 net.cpp:140] Creating Layer Add_3
I0711 11:10:25.824882 27674 net.cpp:481] Add_3 <- Add_2_Threshold_9_0_split_1
I0711 11:10:25.824885 27674 net.cpp:481] Add_3 <- BatchNorm_10
I0711 11:10:25.824890 27674 net.cpp:455] Add_3 -> Add_3
I0711 11:10:25.824909 27674 net.cpp:190] Setting up Add_3
I0711 11:10:25.824915 27674 net.cpp:197] Top shape: 1 64 128 256 (2097152)
I0711 11:10:25.824918 27674 net.cpp:205] Memory required for data: 301989888
I0711 11:10:25.824923 27674 layer_factory.hpp:123] Creating layer Threshold_13
I0711 11:10:25.824926 27674 net.cpp:140] Creating Layer Threshold_13
I0711 11:10:25.824929 27674 net.cpp:481] Threshold_13 <- Add_3
I0711 11:10:25.824934 27674 net.cpp:442] Threshold_13 -> Add_3 (in-place)
I0711 11:10:25.824939 27674 net.cpp:190] Setting up Threshold_13
I0711 11:10:25.824944 27674 net.cpp:197] Top shape: 1 64 128 256 (2097152)
I0711 11:10:25.824946 27674 net.cpp:205] Memory required for data: 310378496
I0711 11:10:25.824949 27674 layer_factory.hpp:123] Creating layer Add_3_Threshold_13_0_split
I0711 11:10:25.824954 27674 net.cpp:140] Creating Layer Add_3_Threshold_13_0_split
I0711 11:10:25.824957 27674 net.cpp:481] Add_3_Threshold_13_0_split <- Add_3
I0711 11:10:25.824961 27674 net.cpp:455] Add_3_Threshold_13_0_split -> Add_3_Threshold_13_0_split_0
I0711 11:10:25.824967 27674 net.cpp:455] Add_3_Threshold_13_0_split -> Add_3_Threshold_13_0_split_1
I0711 11:10:25.824995 27674 net.cpp:190] Setting up Add_3_Threshold_13_0_split
I0711 11:10:25.825001 27674 net.cpp:197] Top shape: 1 64 128 256 (2097152)
I0711 11:10:25.825004 27674 net.cpp:197] Top shape: 1 64 128 256 (2097152)
I0711 11:10:25.825007 27674 net.cpp:205] Memory required for data: 327155712
I0711 11:10:25.825011 27674 layer_factory.hpp:123] Creating layer ConvNd_12
I0711 11:10:25.825017 27674 net.cpp:140] Creating Layer ConvNd_12
I0711 11:10:25.825021 27674 net.cpp:481] ConvNd_12 <- Add_3_Threshold_13_0_split_0
I0711 11:10:25.825026 27674 net.cpp:455] ConvNd_12 -> ConvNd_12
I0711 11:10:25.825186 27674 net.cpp:190] Setting up ConvNd_12
I0711 11:10:25.825192 27674 net.cpp:197] Top shape: 1 16 128 256 (524288)
I0711 11:10:25.825196 27674 net.cpp:205] Memory required for data: 329252864
I0711 11:10:25.825199 27674 layer_factory.hpp:123] Creating layer BatchNorm_11
I0711 11:10:25.825206 27674 net.cpp:140] Creating Layer BatchNorm_11
I0711 11:10:25.825209 27674 net.cpp:481] BatchNorm_11 <- ConvNd_12
I0711 11:10:25.825215 27674 net.cpp:455] BatchNorm_11 -> BatchNorm_11
I0711 11:10:25.825829 27674 net.cpp:190] Setting up BatchNorm_11
I0711 11:10:25.825836 27674 net.cpp:197] Top shape: 1 16 128 256 (524288)
I0711 11:10:25.825839 27674 net.cpp:205] Memory required for data: 331350016
I0711 11:10:25.825851 27674 layer_factory.hpp:123] Creating layer Threshold_14
I0711 11:10:25.825856 27674 net.cpp:140] Creating Layer Threshold_14
I0711 11:10:25.825860 27674 net.cpp:481] Threshold_14 <- BatchNorm_11
I0711 11:10:25.825865 27674 net.cpp:442] Threshold_14 -> BatchNorm_11 (in-place)
I0711 11:10:25.825870 27674 net.cpp:190] Setting up Threshold_14
I0711 11:10:25.825875 27674 net.cpp:197] Top shape: 1 16 128 256 (524288)
I0711 11:10:25.825876 27674 net.cpp:205] Memory required for data: 333447168
I0711 11:10:25.825879 27674 layer_factory.hpp:123] Creating layer ConvNd_13
I0711 11:10:25.825886 27674 net.cpp:140] Creating Layer ConvNd_13
I0711 11:10:25.825889 27674 net.cpp:481] ConvNd_13 <- BatchNorm_11
I0711 11:10:25.825893 27674 net.cpp:455] ConvNd_13 -> ConvNd_13
I0711 11:10:25.826056 27674 net.cpp:190] Setting up ConvNd_13
I0711 11:10:25.826063 27674 net.cpp:197] Top shape: 1 16 128 256 (524288)
I0711 11:10:25.826066 27674 net.cpp:205] Memory required for data: 335544320
I0711 11:10:25.826071 27674 layer_factory.hpp:123] Creating layer BatchNorm_12
I0711 11:10:25.826077 27674 net.cpp:140] Creating Layer BatchNorm_12
I0711 11:10:25.826081 27674 net.cpp:481] BatchNorm_12 <- ConvNd_13
I0711 11:10:25.826086 27674 net.cpp:455] BatchNorm_12 -> BatchNorm_12
I0711 11:10:25.826700 27674 net.cpp:190] Setting up BatchNorm_12
I0711 11:10:25.826709 27674 net.cpp:197] Top shape: 1 16 128 256 (524288)
I0711 11:10:25.826711 27674 net.cpp:205] Memory required for data: 337641472
I0711 11:10:25.826720 27674 layer_factory.hpp:123] Creating layer Threshold_15
I0711 11:10:25.826725 27674 net.cpp:140] Creating Layer Threshold_15
I0711 11:10:25.826728 27674 net.cpp:481] Threshold_15 <- BatchNorm_12
I0711 11:10:25.826732 27674 net.cpp:442] Threshold_15 -> BatchNorm_12 (in-place)
I0711 11:10:25.826738 27674 net.cpp:190] Setting up Threshold_15
I0711 11:10:25.826742 27674 net.cpp:197] Top shape: 1 16 128 256 (524288)
I0711 11:10:25.826745 27674 net.cpp:205] Memory required for data: 339738624
I0711 11:10:25.826748 27674 layer_factory.hpp:123] Creating layer ConvNd_14
I0711 11:10:25.826755 27674 net.cpp:140] Creating Layer ConvNd_14
I0711 11:10:25.826758 27674 net.cpp:481] ConvNd_14 <- BatchNorm_12
I0711 11:10:25.826762 27674 net.cpp:455] ConvNd_14 -> ConvNd_14
I0711 11:10:25.826922 27674 net.cpp:190] Setting up ConvNd_14
I0711 11:10:25.826930 27674 net.cpp:197] Top shape: 1 64 128 256 (2097152)
I0711 11:10:25.826933 27674 net.cpp:205] Memory required for data: 348127232
I0711 11:10:25.826937 27674 layer_factory.hpp:123] Creating layer BatchNorm_13
I0711 11:10:25.826943 27674 net.cpp:140] Creating Layer BatchNorm_13
I0711 11:10:25.826946 27674 net.cpp:481] BatchNorm_13 <- ConvNd_14
I0711 11:10:25.826951 27674 net.cpp:455] BatchNorm_13 -> BatchNorm_13
I0711 11:10:25.827565 27674 net.cpp:190] Setting up BatchNorm_13
I0711 11:10:25.827574 27674 net.cpp:197] Top shape: 1 64 128 256 (2097152)
I0711 11:10:25.827579 27674 net.cpp:205] Memory required for data: 356515840
I0711 11:10:25.827586 27674 layer_factory.hpp:123] Creating layer Threshold_16
I0711 11:10:25.827590 27674 net.cpp:140] Creating Layer Threshold_16
I0711 11:10:25.827594 27674 net.cpp:481] Threshold_16 <- BatchNorm_13
I0711 11:10:25.827598 27674 net.cpp:442] Threshold_16 -> BatchNorm_13 (in-place)
I0711 11:10:25.827605 27674 net.cpp:190] Setting up Threshold_16
I0711 11:10:25.827608 27674 net.cpp:197] Top shape: 1 64 128 256 (2097152)
I0711 11:10:25.827611 27674 net.cpp:205] Memory required for data: 364904448
I0711 11:10:25.827615 27674 layer_factory.hpp:123] Creating layer Add_4
I0711 11:10:25.827620 27674 net.cpp:140] Creating Layer Add_4
I0711 11:10:25.827622 27674 net.cpp:481] Add_4 <- Add_3_Threshold_13_0_split_1
I0711 11:10:25.827626 27674 net.cpp:481] Add_4 <- BatchNorm_13
I0711 11:10:25.827630 27674 net.cpp:455] Add_4 -> Add_4
I0711 11:10:25.827651 27674 net.cpp:190] Setting up Add_4
I0711 11:10:25.827654 27674 net.cpp:197] Top shape: 1 64 128 256 (2097152)
I0711 11:10:25.827657 27674 net.cpp:205] Memory required for data: 373293056
I0711 11:10:25.827661 27674 layer_factory.hpp:123] Creating layer Threshold_17
I0711 11:10:25.827664 27674 net.cpp:140] Creating Layer Threshold_17
I0711 11:10:25.827667 27674 net.cpp:481] Threshold_17 <- Add_4
I0711 11:10:25.827672 27674 net.cpp:442] Threshold_17 -> Add_4 (in-place)
I0711 11:10:25.827677 27674 net.cpp:190] Setting up Threshold_17
I0711 11:10:25.827682 27674 net.cpp:197] Top shape: 1 64 128 256 (2097152)
I0711 11:10:25.827683 27674 net.cpp:205] Memory required for data: 381681664
I0711 11:10:25.827687 27674 layer_factory.hpp:123] Creating layer Add_4_Threshold_17_0_split
I0711 11:10:25.827692 27674 net.cpp:140] Creating Layer Add_4_Threshold_17_0_split
I0711 11:10:25.827694 27674 net.cpp:481] Add_4_Threshold_17_0_split <- Add_4
I0711 11:10:25.827699 27674 net.cpp:455] Add_4_Threshold_17_0_split -> Add_4_Threshold_17_0_split_0
I0711 11:10:25.827705 27674 net.cpp:455] Add_4_Threshold_17_0_split -> Add_4_Threshold_17_0_split_1
I0711 11:10:25.827733 27674 net.cpp:190] Setting up Add_4_Threshold_17_0_split
I0711 11:10:25.827738 27674 net.cpp:197] Top shape: 1 64 128 256 (2097152)
I0711 11:10:25.827741 27674 net.cpp:197] Top shape: 1 64 128 256 (2097152)
I0711 11:10:25.827744 27674 net.cpp:205] Memory required for data: 398458880
I0711 11:10:25.827747 27674 layer_factory.hpp:123] Creating layer ConvNd_15
I0711 11:10:25.827759 27674 net.cpp:140] Creating Layer ConvNd_15
I0711 11:10:25.827762 27674 net.cpp:481] ConvNd_15 <- Add_4_Threshold_17_0_split_0
I0711 11:10:25.827767 27674 net.cpp:455] ConvNd_15 -> ConvNd_15
I0711 11:10:25.827929 27674 net.cpp:190] Setting up ConvNd_15
I0711 11:10:25.827936 27674 net.cpp:197] Top shape: 1 16 128 256 (524288)
I0711 11:10:25.827939 27674 net.cpp:205] Memory required for data: 400556032
I0711 11:10:25.827944 27674 layer_factory.hpp:123] Creating layer BatchNorm_14
I0711 11:10:25.827950 27674 net.cpp:140] Creating Layer BatchNorm_14
I0711 11:10:25.827952 27674 net.cpp:481] BatchNorm_14 <- ConvNd_15
I0711 11:10:25.827958 27674 net.cpp:455] BatchNorm_14 -> BatchNorm_14
I0711 11:10:25.828583 27674 net.cpp:190] Setting up BatchNorm_14
I0711 11:10:25.828591 27674 net.cpp:197] Top shape: 1 16 128 256 (524288)
I0711 11:10:25.828594 27674 net.cpp:205] Memory required for data: 402653184
I0711 11:10:25.828603 27674 layer_factory.hpp:123] Creating layer Threshold_18
I0711 11:10:25.828608 27674 net.cpp:140] Creating Layer Threshold_18
I0711 11:10:25.828611 27674 net.cpp:481] Threshold_18 <- BatchNorm_14
I0711 11:10:25.828615 27674 net.cpp:442] Threshold_18 -> BatchNorm_14 (in-place)
I0711 11:10:25.828621 27674 net.cpp:190] Setting up Threshold_18
I0711 11:10:25.828625 27674 net.cpp:197] Top shape: 1 16 128 256 (524288)
I0711 11:10:25.828629 27674 net.cpp:205] Memory required for data: 404750336
I0711 11:10:25.828631 27674 layer_factory.hpp:123] Creating layer ConvNd_16
I0711 11:10:25.828637 27674 net.cpp:140] Creating Layer ConvNd_16
I0711 11:10:25.828640 27674 net.cpp:481] ConvNd_16 <- BatchNorm_14
I0711 11:10:25.828645 27674 net.cpp:455] ConvNd_16 -> ConvNd_16
I0711 11:10:25.828807 27674 net.cpp:190] Setting up ConvNd_16
I0711 11:10:25.828814 27674 net.cpp:197] Top shape: 1 16 128 256 (524288)
I0711 11:10:25.828817 27674 net.cpp:205] Memory required for data: 406847488
I0711 11:10:25.828822 27674 layer_factory.hpp:123] Creating layer BatchNorm_15
I0711 11:10:25.828828 27674 net.cpp:140] Creating Layer BatchNorm_15
I0711 11:10:25.828831 27674 net.cpp:481] BatchNorm_15 <- ConvNd_16
I0711 11:10:25.828836 27674 net.cpp:455] BatchNorm_15 -> BatchNorm_15
I0711 11:10:25.829452 27674 net.cpp:190] Setting up BatchNorm_15
I0711 11:10:25.829459 27674 net.cpp:197] Top shape: 1 16 128 256 (524288)
I0711 11:10:25.829463 27674 net.cpp:205] Memory required for data: 408944640
I0711 11:10:25.829470 27674 layer_factory.hpp:123] Creating layer Threshold_19
I0711 11:10:25.829478 27674 net.cpp:140] Creating Layer Threshold_19
I0711 11:10:25.829481 27674 net.cpp:481] Threshold_19 <- BatchNorm_15
I0711 11:10:25.829485 27674 net.cpp:442] Threshold_19 -> BatchNorm_15 (in-place)
I0711 11:10:25.829493 27674 net.cpp:190] Setting up Threshold_19
I0711 11:10:25.829496 27674 net.cpp:197] Top shape: 1 16 128 256 (524288)
I0711 11:10:25.829499 27674 net.cpp:205] Memory required for data: 411041792
I0711 11:10:25.829501 27674 layer_factory.hpp:123] Creating layer ConvNd_17
I0711 11:10:25.829507 27674 net.cpp:140] Creating Layer ConvNd_17
I0711 11:10:25.829511 27674 net.cpp:481] ConvNd_17 <- BatchNorm_15
I0711 11:10:25.829515 27674 net.cpp:455] ConvNd_17 -> ConvNd_17
I0711 11:10:25.829676 27674 net.cpp:190] Setting up ConvNd_17
I0711 11:10:25.829684 27674 net.cpp:197] Top shape: 1 64 128 256 (2097152)
I0711 11:10:25.829687 27674 net.cpp:205] Memory required for data: 419430400
I0711 11:10:25.829691 27674 layer_factory.hpp:123] Creating layer BatchNorm_16
I0711 11:10:25.829697 27674 net.cpp:140] Creating Layer BatchNorm_16
I0711 11:10:25.829700 27674 net.cpp:481] BatchNorm_16 <- ConvNd_17
I0711 11:10:25.829705 27674 net.cpp:455] BatchNorm_16 -> BatchNorm_16
I0711 11:10:25.830325 27674 net.cpp:190] Setting up BatchNorm_16
I0711 11:10:25.830333 27674 net.cpp:197] Top shape: 1 64 128 256 (2097152)
I0711 11:10:25.830338 27674 net.cpp:205] Memory required for data: 427819008
I0711 11:10:25.830345 27674 layer_factory.hpp:123] Creating layer Threshold_20
I0711 11:10:25.830350 27674 net.cpp:140] Creating Layer Threshold_20
I0711 11:10:25.830353 27674 net.cpp:481] Threshold_20 <- BatchNorm_16
I0711 11:10:25.830358 27674 net.cpp:442] Threshold_20 -> BatchNorm_16 (in-place)
I0711 11:10:25.830364 27674 net.cpp:190] Setting up Threshold_20
I0711 11:10:25.830368 27674 net.cpp:197] Top shape: 1 64 128 256 (2097152)
I0711 11:10:25.830370 27674 net.cpp:205] Memory required for data: 436207616
I0711 11:10:25.830374 27674 layer_factory.hpp:123] Creating layer Add_5
I0711 11:10:25.830379 27674 net.cpp:140] Creating Layer Add_5
I0711 11:10:25.830381 27674 net.cpp:481] Add_5 <- Add_4_Threshold_17_0_split_1
I0711 11:10:25.830385 27674 net.cpp:481] Add_5 <- BatchNorm_16
I0711 11:10:25.830391 27674 net.cpp:455] Add_5 -> Add_5
I0711 11:10:25.830410 27674 net.cpp:190] Setting up Add_5
I0711 11:10:25.830416 27674 net.cpp:197] Top shape: 1 64 128 256 (2097152)
I0711 11:10:25.830420 27674 net.cpp:205] Memory required for data: 444596224
I0711 11:10:25.830422 27674 layer_factory.hpp:123] Creating layer Threshold_21
I0711 11:10:25.830427 27674 net.cpp:140] Creating Layer Threshold_21
I0711 11:10:25.830430 27674 net.cpp:481] Threshold_21 <- Add_5
I0711 11:10:25.830435 27674 net.cpp:442] Threshold_21 -> Add_5 (in-place)
I0711 11:10:25.830440 27674 net.cpp:190] Setting up Threshold_21
I0711 11:10:25.830443 27674 net.cpp:197] Top shape: 1 64 128 256 (2097152)
I0711 11:10:25.830446 27674 net.cpp:205] Memory required for data: 452984832
I0711 11:10:25.830449 27674 layer_factory.hpp:123] Creating layer Add_5_Threshold_21_0_split
I0711 11:10:25.830453 27674 net.cpp:140] Creating Layer Add_5_Threshold_21_0_split
I0711 11:10:25.830457 27674 net.cpp:481] Add_5_Threshold_21_0_split <- Add_5
I0711 11:10:25.830462 27674 net.cpp:455] Add_5_Threshold_21_0_split -> Add_5_Threshold_21_0_split_0
I0711 11:10:25.830467 27674 net.cpp:455] Add_5_Threshold_21_0_split -> Add_5_Threshold_21_0_split_1
I0711 11:10:25.830494 27674 net.cpp:190] Setting up Add_5_Threshold_21_0_split
I0711 11:10:25.830500 27674 net.cpp:197] Top shape: 1 64 128 256 (2097152)
I0711 11:10:25.830504 27674 net.cpp:197] Top shape: 1 64 128 256 (2097152)
I0711 11:10:25.830507 27674 net.cpp:205] Memory required for data: 469762048
I0711 11:10:25.830510 27674 layer_factory.hpp:123] Creating layer MaxPool2d_3
I0711 11:10:25.830516 27674 net.cpp:140] Creating Layer MaxPool2d_3
I0711 11:10:25.830519 27674 net.cpp:481] MaxPool2d_3 <- Add_5_Threshold_21_0_split_0
I0711 11:10:25.830524 27674 net.cpp:455] MaxPool2d_3 -> MaxPool2d_3
I0711 11:10:25.830552 27674 net.cpp:190] Setting up MaxPool2d_3
I0711 11:10:25.830559 27674 net.cpp:197] Top shape: 1 64 64 128 (524288)
I0711 11:10:25.830561 27674 net.cpp:205] Memory required for data: 471859200
I0711 11:10:25.830564 27674 layer_factory.hpp:123] Creating layer ConvNd_18
I0711 11:10:25.830570 27674 net.cpp:140] Creating Layer ConvNd_18
I0711 11:10:25.830574 27674 net.cpp:481] ConvNd_18 <- MaxPool2d_3
I0711 11:10:25.830579 27674 net.cpp:455] ConvNd_18 -> ConvNd_18
I0711 11:10:25.831462 27674 net.cpp:190] Setting up ConvNd_18
I0711 11:10:25.831475 27674 net.cpp:197] Top shape: 1 128 64 128 (1048576)
I0711 11:10:25.831477 27674 net.cpp:205] Memory required for data: 476053504
I0711 11:10:25.831482 27674 layer_factory.hpp:123] Creating layer ConvNd_19
I0711 11:10:25.831490 27674 net.cpp:140] Creating Layer ConvNd_19
I0711 11:10:25.831493 27674 net.cpp:481] ConvNd_19 <- Add_5_Threshold_21_0_split_1
I0711 11:10:25.831499 27674 net.cpp:455] ConvNd_19 -> ConvNd_19
I0711 11:10:25.831671 27674 net.cpp:190] Setting up ConvNd_19
I0711 11:10:25.831678 27674 net.cpp:197] Top shape: 1 32 64 128 (262144)
I0711 11:10:25.831681 27674 net.cpp:205] Memory required for data: 477102080
I0711 11:10:25.831686 27674 layer_factory.hpp:123] Creating layer BatchNorm_17
I0711 11:10:25.831692 27674 net.cpp:140] Creating Layer BatchNorm_17
I0711 11:10:25.831696 27674 net.cpp:481] BatchNorm_17 <- ConvNd_19
I0711 11:10:25.831701 27674 net.cpp:455] BatchNorm_17 -> BatchNorm_17
I0711 11:10:25.832327 27674 net.cpp:190] Setting up BatchNorm_17
I0711 11:10:25.832337 27674 net.cpp:197] Top shape: 1 32 64 128 (262144)
I0711 11:10:25.832340 27674 net.cpp:205] Memory required for data: 478150656
I0711 11:10:25.832348 27674 layer_factory.hpp:123] Creating layer Threshold_22
I0711 11:10:25.832355 27674 net.cpp:140] Creating Layer Threshold_22
I0711 11:10:25.832357 27674 net.cpp:481] Threshold_22 <- BatchNorm_17
I0711 11:10:25.832362 27674 net.cpp:442] Threshold_22 -> BatchNorm_17 (in-place)
I0711 11:10:25.832368 27674 net.cpp:190] Setting up Threshold_22
I0711 11:10:25.832372 27674 net.cpp:197] Top shape: 1 32 64 128 (262144)
I0711 11:10:25.832376 27674 net.cpp:205] Memory required for data: 479199232
I0711 11:10:25.832378 27674 layer_factory.hpp:123] Creating layer ConvNd_20
I0711 11:10:25.832384 27674 net.cpp:140] Creating Layer ConvNd_20
I0711 11:10:25.832387 27674 net.cpp:481] ConvNd_20 <- BatchNorm_17
I0711 11:10:25.832392 27674 net.cpp:455] ConvNd_20 -> ConvNd_20
I0711 11:10:25.832564 27674 net.cpp:190] Setting up ConvNd_20
I0711 11:10:25.832572 27674 net.cpp:197] Top shape: 1 32 64 128 (262144)
I0711 11:10:25.832576 27674 net.cpp:205] Memory required for data: 480247808
I0711 11:10:25.832581 27674 layer_factory.hpp:123] Creating layer BatchNorm_18
I0711 11:10:25.832587 27674 net.cpp:140] Creating Layer BatchNorm_18
I0711 11:10:25.832589 27674 net.cpp:481] BatchNorm_18 <- ConvNd_20
I0711 11:10:25.832595 27674 net.cpp:455] BatchNorm_18 -> BatchNorm_18
I0711 11:10:25.833230 27674 net.cpp:190] Setting up BatchNorm_18
I0711 11:10:25.833238 27674 net.cpp:197] Top shape: 1 32 64 128 (262144)
I0711 11:10:25.833241 27674 net.cpp:205] Memory required for data: 481296384
I0711 11:10:25.833250 27674 layer_factory.hpp:123] Creating layer Threshold_23
I0711 11:10:25.833256 27674 net.cpp:140] Creating Layer Threshold_23
I0711 11:10:25.833258 27674 net.cpp:481] Threshold_23 <- BatchNorm_18
I0711 11:10:25.833263 27674 net.cpp:442] Threshold_23 -> BatchNorm_18 (in-place)
I0711 11:10:25.833269 27674 net.cpp:190] Setting up Threshold_23
I0711 11:10:25.833273 27674 net.cpp:197] Top shape: 1 32 64 128 (262144)
I0711 11:10:25.833276 27674 net.cpp:205] Memory required for data: 482344960
I0711 11:10:25.833278 27674 layer_factory.hpp:123] Creating layer ConvNd_21
I0711 11:10:25.833286 27674 net.cpp:140] Creating Layer ConvNd_21
I0711 11:10:25.833288 27674 net.cpp:481] ConvNd_21 <- BatchNorm_18
I0711 11:10:25.833292 27674 net.cpp:455] ConvNd_21 -> ConvNd_21
I0711 11:10:25.833467 27674 net.cpp:190] Setting up ConvNd_21
I0711 11:10:25.833474 27674 net.cpp:197] Top shape: 1 128 64 128 (1048576)
I0711 11:10:25.833477 27674 net.cpp:205] Memory required for data: 486539264
I0711 11:10:25.833482 27674 layer_factory.hpp:123] Creating layer BatchNorm_19
I0711 11:10:25.833488 27674 net.cpp:140] Creating Layer BatchNorm_19
I0711 11:10:25.833492 27674 net.cpp:481] BatchNorm_19 <- ConvNd_21
I0711 11:10:25.833497 27674 net.cpp:455] BatchNorm_19 -> BatchNorm_19
I0711 11:10:25.834039 27674 net.cpp:190] Setting up BatchNorm_19
I0711 11:10:25.834048 27674 net.cpp:197] Top shape: 1 128 64 128 (1048576)
I0711 11:10:25.834051 27674 net.cpp:205] Memory required for data: 490733568
I0711 11:10:25.834059 27674 layer_factory.hpp:123] Creating layer Threshold_24
I0711 11:10:25.834064 27674 net.cpp:140] Creating Layer Threshold_24
I0711 11:10:25.834067 27674 net.cpp:481] Threshold_24 <- BatchNorm_19
I0711 11:10:25.834072 27674 net.cpp:442] Threshold_24 -> BatchNorm_19 (in-place)
I0711 11:10:25.834077 27674 net.cpp:190] Setting up Threshold_24
I0711 11:10:25.834081 27674 net.cpp:197] Top shape: 1 128 64 128 (1048576)
I0711 11:10:25.834084 27674 net.cpp:205] Memory required for data: 494927872
I0711 11:10:25.834087 27674 layer_factory.hpp:123] Creating layer Add_6
I0711 11:10:25.834092 27674 net.cpp:140] Creating Layer Add_6
I0711 11:10:25.834095 27674 net.cpp:481] Add_6 <- ConvNd_18
I0711 11:10:25.834098 27674 net.cpp:481] Add_6 <- BatchNorm_19
I0711 11:10:25.834103 27674 net.cpp:455] Add_6 -> Add_6
I0711 11:10:25.834122 27674 net.cpp:190] Setting up Add_6
I0711 11:10:25.834127 27674 net.cpp:197] Top shape: 1 128 64 128 (1048576)
I0711 11:10:25.834129 27674 net.cpp:205] Memory required for data: 499122176
I0711 11:10:25.834133 27674 layer_factory.hpp:123] Creating layer Threshold_25
I0711 11:10:25.834137 27674 net.cpp:140] Creating Layer Threshold_25
I0711 11:10:25.834141 27674 net.cpp:481] Threshold_25 <- Add_6
I0711 11:10:25.834144 27674 net.cpp:442] Threshold_25 -> Add_6 (in-place)
I0711 11:10:25.834149 27674 net.cpp:190] Setting up Threshold_25
I0711 11:10:25.834153 27674 net.cpp:197] Top shape: 1 128 64 128 (1048576)
I0711 11:10:25.834156 27674 net.cpp:205] Memory required for data: 503316480
I0711 11:10:25.834158 27674 layer_factory.hpp:123] Creating layer Add_6_Threshold_25_0_split
I0711 11:10:25.834163 27674 net.cpp:140] Creating Layer Add_6_Threshold_25_0_split
I0711 11:10:25.834167 27674 net.cpp:481] Add_6_Threshold_25_0_split <- Add_6
I0711 11:10:25.834172 27674 net.cpp:455] Add_6_Threshold_25_0_split -> Add_6_Threshold_25_0_split_0
I0711 11:10:25.834177 27674 net.cpp:455] Add_6_Threshold_25_0_split -> Add_6_Threshold_25_0_split_1
I0711 11:10:25.834205 27674 net.cpp:190] Setting up Add_6_Threshold_25_0_split
I0711 11:10:25.834211 27674 net.cpp:197] Top shape: 1 128 64 128 (1048576)
I0711 11:10:25.834215 27674 net.cpp:197] Top shape: 1 128 64 128 (1048576)
I0711 11:10:25.834218 27674 net.cpp:205] Memory required for data: 511705088
I0711 11:10:25.834221 27674 layer_factory.hpp:123] Creating layer ConvNd_22
I0711 11:10:25.834228 27674 net.cpp:140] Creating Layer ConvNd_22
I0711 11:10:25.834230 27674 net.cpp:481] ConvNd_22 <- Add_6_Threshold_25_0_split_0
I0711 11:10:25.834235 27674 net.cpp:455] ConvNd_22 -> ConvNd_22
I0711 11:10:25.834400 27674 net.cpp:190] Setting up ConvNd_22
I0711 11:10:25.834408 27674 net.cpp:197] Top shape: 1 32 64 128 (262144)
I0711 11:10:25.834410 27674 net.cpp:205] Memory required for data: 512753664
I0711 11:10:25.834415 27674 layer_factory.hpp:123] Creating layer BatchNorm_20
I0711 11:10:25.834421 27674 net.cpp:140] Creating Layer BatchNorm_20
I0711 11:10:25.834425 27674 net.cpp:481] BatchNorm_20 <- ConvNd_22
I0711 11:10:25.834430 27674 net.cpp:455] BatchNorm_20 -> BatchNorm_20
I0711 11:10:25.835037 27674 net.cpp:190] Setting up BatchNorm_20
I0711 11:10:25.835045 27674 net.cpp:197] Top shape: 1 32 64 128 (262144)
I0711 11:10:25.835048 27674 net.cpp:205] Memory required for data: 513802240
I0711 11:10:25.835057 27674 layer_factory.hpp:123] Creating layer Threshold_26
I0711 11:10:25.835062 27674 net.cpp:140] Creating Layer Threshold_26
I0711 11:10:25.835064 27674 net.cpp:481] Threshold_26 <- BatchNorm_20
I0711 11:10:25.835069 27674 net.cpp:442] Threshold_26 -> BatchNorm_20 (in-place)
I0711 11:10:25.835074 27674 net.cpp:190] Setting up Threshold_26
I0711 11:10:25.835078 27674 net.cpp:197] Top shape: 1 32 64 128 (262144)
I0711 11:10:25.835081 27674 net.cpp:205] Memory required for data: 514850816
I0711 11:10:25.835084 27674 layer_factory.hpp:123] Creating layer ConvNd_23
I0711 11:10:25.835090 27674 net.cpp:140] Creating Layer ConvNd_23
I0711 11:10:25.835093 27674 net.cpp:481] ConvNd_23 <- BatchNorm_20
I0711 11:10:25.835098 27674 net.cpp:455] ConvNd_23 -> ConvNd_23
I0711 11:10:25.835273 27674 net.cpp:190] Setting up ConvNd_23
I0711 11:10:25.835279 27674 net.cpp:197] Top shape: 1 32 64 128 (262144)
I0711 11:10:25.835283 27674 net.cpp:205] Memory required for data: 515899392
I0711 11:10:25.835288 27674 layer_factory.hpp:123] Creating layer BatchNorm_21
I0711 11:10:25.835294 27674 net.cpp:140] Creating Layer BatchNorm_21
I0711 11:10:25.835297 27674 net.cpp:481] BatchNorm_21 <- ConvNd_23
I0711 11:10:25.835302 27674 net.cpp:455] BatchNorm_21 -> BatchNorm_21
I0711 11:10:25.835927 27674 net.cpp:190] Setting up BatchNorm_21
I0711 11:10:25.835934 27674 net.cpp:197] Top shape: 1 32 64 128 (262144)
I0711 11:10:25.835937 27674 net.cpp:205] Memory required for data: 516947968
I0711 11:10:25.835947 27674 layer_factory.hpp:123] Creating layer Threshold_27
I0711 11:10:25.835952 27674 net.cpp:140] Creating Layer Threshold_27
I0711 11:10:25.835955 27674 net.cpp:481] Threshold_27 <- BatchNorm_21
I0711 11:10:25.835959 27674 net.cpp:442] Threshold_27 -> BatchNorm_21 (in-place)
I0711 11:10:25.835965 27674 net.cpp:190] Setting up Threshold_27
I0711 11:10:25.835969 27674 net.cpp:197] Top shape: 1 32 64 128 (262144)
I0711 11:10:25.835973 27674 net.cpp:205] Memory required for data: 517996544
I0711 11:10:25.835975 27674 layer_factory.hpp:123] Creating layer ConvNd_24
I0711 11:10:25.835981 27674 net.cpp:140] Creating Layer ConvNd_24
I0711 11:10:25.835985 27674 net.cpp:481] ConvNd_24 <- BatchNorm_21
I0711 11:10:25.835990 27674 net.cpp:455] ConvNd_24 -> ConvNd_24
I0711 11:10:25.836155 27674 net.cpp:190] Setting up ConvNd_24
I0711 11:10:25.836163 27674 net.cpp:197] Top shape: 1 128 64 128 (1048576)
I0711 11:10:25.836166 27674 net.cpp:205] Memory required for data: 522190848
I0711 11:10:25.836175 27674 layer_factory.hpp:123] Creating layer BatchNorm_22
I0711 11:10:25.836182 27674 net.cpp:140] Creating Layer BatchNorm_22
I0711 11:10:25.836185 27674 net.cpp:481] BatchNorm_22 <- ConvNd_24
I0711 11:10:25.836191 27674 net.cpp:455] BatchNorm_22 -> BatchNorm_22
I0711 11:10:25.836730 27674 net.cpp:190] Setting up BatchNorm_22
I0711 11:10:25.836738 27674 net.cpp:197] Top shape: 1 128 64 128 (1048576)
I0711 11:10:25.836741 27674 net.cpp:205] Memory required for data: 526385152
I0711 11:10:25.836750 27674 layer_factory.hpp:123] Creating layer Threshold_28
I0711 11:10:25.836755 27674 net.cpp:140] Creating Layer Threshold_28
I0711 11:10:25.836758 27674 net.cpp:481] Threshold_28 <- BatchNorm_22
I0711 11:10:25.836762 27674 net.cpp:442] Threshold_28 -> BatchNorm_22 (in-place)
I0711 11:10:25.836768 27674 net.cpp:190] Setting up Threshold_28
I0711 11:10:25.836772 27674 net.cpp:197] Top shape: 1 128 64 128 (1048576)
I0711 11:10:25.836776 27674 net.cpp:205] Memory required for data: 530579456
I0711 11:10:25.836778 27674 layer_factory.hpp:123] Creating layer Add_7
I0711 11:10:25.836783 27674 net.cpp:140] Creating Layer Add_7
I0711 11:10:25.836787 27674 net.cpp:481] Add_7 <- Add_6_Threshold_25_0_split_1
I0711 11:10:25.836791 27674 net.cpp:481] Add_7 <- BatchNorm_22
I0711 11:10:25.836796 27674 net.cpp:455] Add_7 -> Add_7
I0711 11:10:25.836814 27674 net.cpp:190] Setting up Add_7
I0711 11:10:25.836822 27674 net.cpp:197] Top shape: 1 128 64 128 (1048576)
I0711 11:10:25.836824 27674 net.cpp:205] Memory required for data: 534773760
I0711 11:10:25.836827 27674 layer_factory.hpp:123] Creating layer Threshold_29
I0711 11:10:25.836833 27674 net.cpp:140] Creating Layer Threshold_29
I0711 11:10:25.836835 27674 net.cpp:481] Threshold_29 <- Add_7
I0711 11:10:25.836839 27674 net.cpp:442] Threshold_29 -> Add_7 (in-place)
I0711 11:10:25.836844 27674 net.cpp:190] Setting up Threshold_29
I0711 11:10:25.836848 27674 net.cpp:197] Top shape: 1 128 64 128 (1048576)
I0711 11:10:25.836851 27674 net.cpp:205] Memory required for data: 538968064
I0711 11:10:25.836854 27674 layer_factory.hpp:123] Creating layer Add_7_Threshold_29_0_split
I0711 11:10:25.836858 27674 net.cpp:140] Creating Layer Add_7_Threshold_29_0_split
I0711 11:10:25.836861 27674 net.cpp:481] Add_7_Threshold_29_0_split <- Add_7
I0711 11:10:25.836866 27674 net.cpp:455] Add_7_Threshold_29_0_split -> Add_7_Threshold_29_0_split_0
I0711 11:10:25.836872 27674 net.cpp:455] Add_7_Threshold_29_0_split -> Add_7_Threshold_29_0_split_1
I0711 11:10:25.836901 27674 net.cpp:190] Setting up Add_7_Threshold_29_0_split
I0711 11:10:25.836907 27674 net.cpp:197] Top shape: 1 128 64 128 (1048576)
I0711 11:10:25.836911 27674 net.cpp:197] Top shape: 1 128 64 128 (1048576)
I0711 11:10:25.836915 27674 net.cpp:205] Memory required for data: 547356672
I0711 11:10:25.836917 27674 layer_factory.hpp:123] Creating layer ConvNd_25
I0711 11:10:25.836923 27674 net.cpp:140] Creating Layer ConvNd_25
I0711 11:10:25.836926 27674 net.cpp:481] ConvNd_25 <- Add_7_Threshold_29_0_split_0
I0711 11:10:25.836931 27674 net.cpp:455] ConvNd_25 -> ConvNd_25
I0711 11:10:25.837096 27674 net.cpp:190] Setting up ConvNd_25
I0711 11:10:25.837105 27674 net.cpp:197] Top shape: 1 32 64 128 (262144)
I0711 11:10:25.837107 27674 net.cpp:205] Memory required for data: 548405248
I0711 11:10:25.837111 27674 layer_factory.hpp:123] Creating layer BatchNorm_23
I0711 11:10:25.837117 27674 net.cpp:140] Creating Layer BatchNorm_23
I0711 11:10:25.837121 27674 net.cpp:481] BatchNorm_23 <- ConvNd_25
I0711 11:10:25.837126 27674 net.cpp:455] BatchNorm_23 -> BatchNorm_23
I0711 11:10:25.837743 27674 net.cpp:190] Setting up BatchNorm_23
I0711 11:10:25.837749 27674 net.cpp:197] Top shape: 1 32 64 128 (262144)
I0711 11:10:25.837754 27674 net.cpp:205] Memory required for data: 549453824
I0711 11:10:25.837761 27674 layer_factory.hpp:123] Creating layer Threshold_30
I0711 11:10:25.837766 27674 net.cpp:140] Creating Layer Threshold_30
I0711 11:10:25.837769 27674 net.cpp:481] Threshold_30 <- BatchNorm_23
I0711 11:10:25.837774 27674 net.cpp:442] Threshold_30 -> BatchNorm_23 (in-place)
I0711 11:10:25.837780 27674 net.cpp:190] Setting up Threshold_30
I0711 11:10:25.837785 27674 net.cpp:197] Top shape: 1 32 64 128 (262144)
I0711 11:10:25.837786 27674 net.cpp:205] Memory required for data: 550502400
I0711 11:10:25.837790 27674 layer_factory.hpp:123] Creating layer ConvNd_26
I0711 11:10:25.837796 27674 net.cpp:140] Creating Layer ConvNd_26
I0711 11:10:25.837800 27674 net.cpp:481] ConvNd_26 <- BatchNorm_23
I0711 11:10:25.837805 27674 net.cpp:455] ConvNd_26 -> ConvNd_26
I0711 11:10:25.837977 27674 net.cpp:190] Setting up ConvNd_26
I0711 11:10:25.837985 27674 net.cpp:197] Top shape: 1 32 64 128 (262144)
I0711 11:10:25.837987 27674 net.cpp:205] Memory required for data: 551550976
I0711 11:10:25.837992 27674 layer_factory.hpp:123] Creating layer BatchNorm_24
I0711 11:10:25.837998 27674 net.cpp:140] Creating Layer BatchNorm_24
I0711 11:10:25.838001 27674 net.cpp:481] BatchNorm_24 <- ConvNd_26
I0711 11:10:25.838006 27674 net.cpp:455] BatchNorm_24 -> BatchNorm_24
I0711 11:10:25.838623 27674 net.cpp:190] Setting up BatchNorm_24
I0711 11:10:25.838630 27674 net.cpp:197] Top shape: 1 32 64 128 (262144)
I0711 11:10:25.838632 27674 net.cpp:205] Memory required for data: 552599552
I0711 11:10:25.838640 27674 layer_factory.hpp:123] Creating layer Threshold_31
I0711 11:10:25.838645 27674 net.cpp:140] Creating Layer Threshold_31
I0711 11:10:25.838649 27674 net.cpp:481] Threshold_31 <- BatchNorm_24
I0711 11:10:25.838654 27674 net.cpp:442] Threshold_31 -> BatchNorm_24 (in-place)
I0711 11:10:25.838660 27674 net.cpp:190] Setting up Threshold_31
I0711 11:10:25.838663 27674 net.cpp:197] Top shape: 1 32 64 128 (262144)
I0711 11:10:25.838666 27674 net.cpp:205] Memory required for data: 553648128
I0711 11:10:25.838670 27674 layer_factory.hpp:123] Creating layer ConvNd_27
I0711 11:10:25.838675 27674 net.cpp:140] Creating Layer ConvNd_27
I0711 11:10:25.838678 27674 net.cpp:481] ConvNd_27 <- BatchNorm_24
I0711 11:10:25.838683 27674 net.cpp:455] ConvNd_27 -> ConvNd_27
I0711 11:10:25.838850 27674 net.cpp:190] Setting up ConvNd_27
I0711 11:10:25.838858 27674 net.cpp:197] Top shape: 1 128 64 128 (1048576)
I0711 11:10:25.838861 27674 net.cpp:205] Memory required for data: 557842432
I0711 11:10:25.838866 27674 layer_factory.hpp:123] Creating layer BatchNorm_25
I0711 11:10:25.838872 27674 net.cpp:140] Creating Layer BatchNorm_25
I0711 11:10:25.838876 27674 net.cpp:481] BatchNorm_25 <- ConvNd_27
I0711 11:10:25.838881 27674 net.cpp:455] BatchNorm_25 -> BatchNorm_25
I0711 11:10:25.839416 27674 net.cpp:190] Setting up BatchNorm_25
I0711 11:10:25.839423 27674 net.cpp:197] Top shape: 1 128 64 128 (1048576)
I0711 11:10:25.839426 27674 net.cpp:205] Memory required for data: 562036736
I0711 11:10:25.839433 27674 layer_factory.hpp:123] Creating layer Threshold_32
I0711 11:10:25.839439 27674 net.cpp:140] Creating Layer Threshold_32
I0711 11:10:25.839442 27674 net.cpp:481] Threshold_32 <- BatchNorm_25
I0711 11:10:25.839447 27674 net.cpp:442] Threshold_32 -> BatchNorm_25 (in-place)
I0711 11:10:25.839452 27674 net.cpp:190] Setting up Threshold_32
I0711 11:10:25.839457 27674 net.cpp:197] Top shape: 1 128 64 128 (1048576)
I0711 11:10:25.839459 27674 net.cpp:205] Memory required for data: 566231040
I0711 11:10:25.839462 27674 layer_factory.hpp:123] Creating layer Add_8
I0711 11:10:25.839468 27674 net.cpp:140] Creating Layer Add_8
I0711 11:10:25.839471 27674 net.cpp:481] Add_8 <- Add_7_Threshold_29_0_split_1
I0711 11:10:25.839474 27674 net.cpp:481] Add_8 <- BatchNorm_25
I0711 11:10:25.839479 27674 net.cpp:455] Add_8 -> Add_8
I0711 11:10:25.839498 27674 net.cpp:190] Setting up Add_8
I0711 11:10:25.839504 27674 net.cpp:197] Top shape: 1 128 64 128 (1048576)
I0711 11:10:25.839506 27674 net.cpp:205] Memory required for data: 570425344
I0711 11:10:25.839509 27674 layer_factory.hpp:123] Creating layer Threshold_33
I0711 11:10:25.839514 27674 net.cpp:140] Creating Layer Threshold_33
I0711 11:10:25.839516 27674 net.cpp:481] Threshold_33 <- Add_8
I0711 11:10:25.839520 27674 net.cpp:442] Threshold_33 -> Add_8 (in-place)
I0711 11:10:25.839525 27674 net.cpp:190] Setting up Threshold_33
I0711 11:10:25.839529 27674 net.cpp:197] Top shape: 1 128 64 128 (1048576)
I0711 11:10:25.839532 27674 net.cpp:205] Memory required for data: 574619648
I0711 11:10:25.839535 27674 layer_factory.hpp:123] Creating layer Add_8_Threshold_33_0_split
I0711 11:10:25.839540 27674 net.cpp:140] Creating Layer Add_8_Threshold_33_0_split
I0711 11:10:25.839543 27674 net.cpp:481] Add_8_Threshold_33_0_split <- Add_8
I0711 11:10:25.839547 27674 net.cpp:455] Add_8_Threshold_33_0_split -> Add_8_Threshold_33_0_split_0
I0711 11:10:25.839553 27674 net.cpp:455] Add_8_Threshold_33_0_split -> Add_8_Threshold_33_0_split_1
I0711 11:10:25.839581 27674 net.cpp:190] Setting up Add_8_Threshold_33_0_split
I0711 11:10:25.839588 27674 net.cpp:197] Top shape: 1 128 64 128 (1048576)
I0711 11:10:25.839592 27674 net.cpp:197] Top shape: 1 128 64 128 (1048576)
I0711 11:10:25.839594 27674 net.cpp:205] Memory required for data: 583008256
I0711 11:10:25.839597 27674 layer_factory.hpp:123] Creating layer ConvNd_28
I0711 11:10:25.839604 27674 net.cpp:140] Creating Layer ConvNd_28
I0711 11:10:25.839607 27674 net.cpp:481] ConvNd_28 <- Add_8_Threshold_33_0_split_0
I0711 11:10:25.839612 27674 net.cpp:455] ConvNd_28 -> ConvNd_28
I0711 11:10:25.839785 27674 net.cpp:190] Setting up ConvNd_28
I0711 11:10:25.839793 27674 net.cpp:197] Top shape: 1 32 64 128 (262144)
I0711 11:10:25.839797 27674 net.cpp:205] Memory required for data: 584056832
I0711 11:10:25.839802 27674 layer_factory.hpp:123] Creating layer BatchNorm_26
I0711 11:10:25.839807 27674 net.cpp:140] Creating Layer BatchNorm_26
I0711 11:10:25.839810 27674 net.cpp:481] BatchNorm_26 <- ConvNd_28
I0711 11:10:25.839817 27674 net.cpp:455] BatchNorm_26 -> BatchNorm_26
I0711 11:10:25.840437 27674 net.cpp:190] Setting up BatchNorm_26
I0711 11:10:25.840445 27674 net.cpp:197] Top shape: 1 32 64 128 (262144)
I0711 11:10:25.840448 27674 net.cpp:205] Memory required for data: 585105408
I0711 11:10:25.840457 27674 layer_factory.hpp:123] Creating layer Threshold_34
I0711 11:10:25.840461 27674 net.cpp:140] Creating Layer Threshold_34
I0711 11:10:25.840466 27674 net.cpp:481] Threshold_34 <- BatchNorm_26
I0711 11:10:25.840469 27674 net.cpp:442] Threshold_34 -> BatchNorm_26 (in-place)
I0711 11:10:25.840476 27674 net.cpp:190] Setting up Threshold_34
I0711 11:10:25.840479 27674 net.cpp:197] Top shape: 1 32 64 128 (262144)
I0711 11:10:25.840482 27674 net.cpp:205] Memory required for data: 586153984
I0711 11:10:25.840485 27674 layer_factory.hpp:123] Creating layer ConvNd_29
I0711 11:10:25.840492 27674 net.cpp:140] Creating Layer ConvNd_29
I0711 11:10:25.840495 27674 net.cpp:481] ConvNd_29 <- BatchNorm_26
I0711 11:10:25.840499 27674 net.cpp:455] ConvNd_29 -> ConvNd_29
I0711 11:10:25.840667 27674 net.cpp:190] Setting up ConvNd_29
I0711 11:10:25.840673 27674 net.cpp:197] Top shape: 1 32 64 128 (262144)
I0711 11:10:25.840677 27674 net.cpp:205] Memory required for data: 587202560
I0711 11:10:25.840680 27674 layer_factory.hpp:123] Creating layer BatchNorm_27
I0711 11:10:25.840687 27674 net.cpp:140] Creating Layer BatchNorm_27
I0711 11:10:25.840690 27674 net.cpp:481] BatchNorm_27 <- ConvNd_29
I0711 11:10:25.840695 27674 net.cpp:455] BatchNorm_27 -> BatchNorm_27
I0711 11:10:25.841307 27674 net.cpp:190] Setting up BatchNorm_27
I0711 11:10:25.841315 27674 net.cpp:197] Top shape: 1 32 64 128 (262144)
I0711 11:10:25.841318 27674 net.cpp:205] Memory required for data: 588251136
I0711 11:10:25.841326 27674 layer_factory.hpp:123] Creating layer Threshold_35
I0711 11:10:25.841331 27674 net.cpp:140] Creating Layer Threshold_35
I0711 11:10:25.841336 27674 net.cpp:481] Threshold_35 <- BatchNorm_27
I0711 11:10:25.841339 27674 net.cpp:442] Threshold_35 -> BatchNorm_27 (in-place)
I0711 11:10:25.841346 27674 net.cpp:190] Setting up Threshold_35
I0711 11:10:25.841349 27674 net.cpp:197] Top shape: 1 32 64 128 (262144)
I0711 11:10:25.841352 27674 net.cpp:205] Memory required for data: 589299712
I0711 11:10:25.841356 27674 layer_factory.hpp:123] Creating layer ConvNd_30
I0711 11:10:25.841361 27674 net.cpp:140] Creating Layer ConvNd_30
I0711 11:10:25.841363 27674 net.cpp:481] ConvNd_30 <- BatchNorm_27
I0711 11:10:25.841368 27674 net.cpp:455] ConvNd_30 -> ConvNd_30
I0711 11:10:25.841536 27674 net.cpp:190] Setting up ConvNd_30
I0711 11:10:25.841542 27674 net.cpp:197] Top shape: 1 32 64 128 (262144)
I0711 11:10:25.841545 27674 net.cpp:205] Memory required for data: 590348288
I0711 11:10:25.841549 27674 layer_factory.hpp:123] Creating layer BatchNorm_28
I0711 11:10:25.841555 27674 net.cpp:140] Creating Layer BatchNorm_28
I0711 11:10:25.841559 27674 net.cpp:481] BatchNorm_28 <- ConvNd_30
I0711 11:10:25.841564 27674 net.cpp:455] BatchNorm_28 -> BatchNorm_28
I0711 11:10:25.842178 27674 net.cpp:190] Setting up BatchNorm_28
I0711 11:10:25.842186 27674 net.cpp:197] Top shape: 1 32 64 128 (262144)
I0711 11:10:25.842190 27674 net.cpp:205] Memory required for data: 591396864
I0711 11:10:25.842197 27674 layer_factory.hpp:123] Creating layer Threshold_36
I0711 11:10:25.842201 27674 net.cpp:140] Creating Layer Threshold_36
I0711 11:10:25.842206 27674 net.cpp:481] Threshold_36 <- BatchNorm_28
I0711 11:10:25.842211 27674 net.cpp:442] Threshold_36 -> BatchNorm_28 (in-place)
I0711 11:10:25.842216 27674 net.cpp:190] Setting up Threshold_36
I0711 11:10:25.842219 27674 net.cpp:197] Top shape: 1 32 64 128 (262144)
I0711 11:10:25.842222 27674 net.cpp:205] Memory required for data: 592445440
I0711 11:10:25.842226 27674 layer_factory.hpp:123] Creating layer ConvNd_31
I0711 11:10:25.842231 27674 net.cpp:140] Creating Layer ConvNd_31
I0711 11:10:25.842234 27674 net.cpp:481] ConvNd_31 <- BatchNorm_28
I0711 11:10:25.842239 27674 net.cpp:455] ConvNd_31 -> ConvNd_31
I0711 11:10:25.842407 27674 net.cpp:190] Setting up ConvNd_31
I0711 11:10:25.842414 27674 net.cpp:197] Top shape: 1 128 64 128 (1048576)
I0711 11:10:25.842417 27674 net.cpp:205] Memory required for data: 596639744
I0711 11:10:25.842422 27674 layer_factory.hpp:123] Creating layer BatchNorm_29
I0711 11:10:25.842427 27674 net.cpp:140] Creating Layer BatchNorm_29
I0711 11:10:25.842432 27674 net.cpp:481] BatchNorm_29 <- ConvNd_31
I0711 11:10:25.842437 27674 net.cpp:455] BatchNorm_29 -> BatchNorm_29
I0711 11:10:25.842981 27674 net.cpp:190] Setting up BatchNorm_29
I0711 11:10:25.842989 27674 net.cpp:197] Top shape: 1 128 64 128 (1048576)
I0711 11:10:25.842993 27674 net.cpp:205] Memory required for data: 600834048
I0711 11:10:25.843000 27674 layer_factory.hpp:123] Creating layer Threshold_37
I0711 11:10:25.843005 27674 net.cpp:140] Creating Layer Threshold_37
I0711 11:10:25.843008 27674 net.cpp:481] Threshold_37 <- BatchNorm_29
I0711 11:10:25.843013 27674 net.cpp:442] Threshold_37 -> BatchNorm_29 (in-place)
I0711 11:10:25.843019 27674 net.cpp:190] Setting up Threshold_37
I0711 11:10:25.843022 27674 net.cpp:197] Top shape: 1 128 64 128 (1048576)
I0711 11:10:25.843025 27674 net.cpp:205] Memory required for data: 605028352
I0711 11:10:25.843029 27674 layer_factory.hpp:123] Creating layer Add_9
I0711 11:10:25.843034 27674 net.cpp:140] Creating Layer Add_9
I0711 11:10:25.843036 27674 net.cpp:481] Add_9 <- Add_8_Threshold_33_0_split_1
I0711 11:10:25.843040 27674 net.cpp:481] Add_9 <- BatchNorm_29
I0711 11:10:25.843045 27674 net.cpp:455] Add_9 -> Add_9
I0711 11:10:25.843065 27674 net.cpp:190] Setting up Add_9
I0711 11:10:25.843070 27674 net.cpp:197] Top shape: 1 128 64 128 (1048576)
I0711 11:10:25.843072 27674 net.cpp:205] Memory required for data: 609222656
I0711 11:10:25.843075 27674 layer_factory.hpp:123] Creating layer Threshold_38
I0711 11:10:25.843080 27674 net.cpp:140] Creating Layer Threshold_38
I0711 11:10:25.843083 27674 net.cpp:481] Threshold_38 <- Add_9
I0711 11:10:25.843087 27674 net.cpp:442] Threshold_38 -> Add_9 (in-place)
I0711 11:10:25.843092 27674 net.cpp:190] Setting up Threshold_38
I0711 11:10:25.843096 27674 net.cpp:197] Top shape: 1 128 64 128 (1048576)
I0711 11:10:25.843099 27674 net.cpp:205] Memory required for data: 613416960
I0711 11:10:25.843102 27674 layer_factory.hpp:123] Creating layer Add_9_Threshold_38_0_split
I0711 11:10:25.843107 27674 net.cpp:140] Creating Layer Add_9_Threshold_38_0_split
I0711 11:10:25.843111 27674 net.cpp:481] Add_9_Threshold_38_0_split <- Add_9
I0711 11:10:25.843116 27674 net.cpp:455] Add_9_Threshold_38_0_split -> Add_9_Threshold_38_0_split_0
I0711 11:10:25.843120 27674 net.cpp:455] Add_9_Threshold_38_0_split -> Add_9_Threshold_38_0_split_1
I0711 11:10:25.843149 27674 net.cpp:190] Setting up Add_9_Threshold_38_0_split
I0711 11:10:25.843155 27674 net.cpp:197] Top shape: 1 128 64 128 (1048576)
I0711 11:10:25.843159 27674 net.cpp:197] Top shape: 1 128 64 128 (1048576)
I0711 11:10:25.843163 27674 net.cpp:205] Memory required for data: 621805568
I0711 11:10:25.843165 27674 layer_factory.hpp:123] Creating layer ConvNd_32
I0711 11:10:25.843171 27674 net.cpp:140] Creating Layer ConvNd_32
I0711 11:10:25.843174 27674 net.cpp:481] ConvNd_32 <- Add_9_Threshold_38_0_split_0
I0711 11:10:25.843179 27674 net.cpp:455] ConvNd_32 -> ConvNd_32
I0711 11:10:25.843348 27674 net.cpp:190] Setting up ConvNd_32
I0711 11:10:25.843355 27674 net.cpp:197] Top shape: 1 32 64 128 (262144)
I0711 11:10:25.843359 27674 net.cpp:205] Memory required for data: 622854144
I0711 11:10:25.843364 27674 layer_factory.hpp:123] Creating layer BatchNorm_30
I0711 11:10:25.843369 27674 net.cpp:140] Creating Layer BatchNorm_30
I0711 11:10:25.843372 27674 net.cpp:481] BatchNorm_30 <- ConvNd_32
I0711 11:10:25.843379 27674 net.cpp:455] BatchNorm_30 -> BatchNorm_30
I0711 11:10:25.844012 27674 net.cpp:190] Setting up BatchNorm_30
I0711 11:10:25.844022 27674 net.cpp:197] Top shape: 1 32 64 128 (262144)
I0711 11:10:25.844024 27674 net.cpp:205] Memory required for data: 623902720
I0711 11:10:25.844033 27674 layer_factory.hpp:123] Creating layer Threshold_39
I0711 11:10:25.844038 27674 net.cpp:140] Creating Layer Threshold_39
I0711 11:10:25.844040 27674 net.cpp:481] Threshold_39 <- BatchNorm_30
I0711 11:10:25.844044 27674 net.cpp:442] Threshold_39 -> BatchNorm_30 (in-place)
I0711 11:10:25.844051 27674 net.cpp:190] Setting up Threshold_39
I0711 11:10:25.844054 27674 net.cpp:197] Top shape: 1 32 64 128 (262144)
I0711 11:10:25.844058 27674 net.cpp:205] Memory required for data: 624951296
I0711 11:10:25.844060 27674 layer_factory.hpp:123] Creating layer ConvNd_33
I0711 11:10:25.844067 27674 net.cpp:140] Creating Layer ConvNd_33
I0711 11:10:25.844069 27674 net.cpp:481] ConvNd_33 <- BatchNorm_30
I0711 11:10:25.844074 27674 net.cpp:455] ConvNd_33 -> ConvNd_33
I0711 11:10:25.844249 27674 net.cpp:190] Setting up ConvNd_33
I0711 11:10:25.844256 27674 net.cpp:197] Top shape: 1 32 64 128 (262144)
I0711 11:10:25.844259 27674 net.cpp:205] Memory required for data: 625999872
I0711 11:10:25.844264 27674 layer_factory.hpp:123] Creating layer BatchNorm_31
I0711 11:10:25.844272 27674 net.cpp:140] Creating Layer BatchNorm_31
I0711 11:10:25.844276 27674 net.cpp:481] BatchNorm_31 <- ConvNd_33
I0711 11:10:25.844281 27674 net.cpp:455] BatchNorm_31 -> BatchNorm_31
I0711 11:10:25.844897 27674 net.cpp:190] Setting up BatchNorm_31
I0711 11:10:25.844904 27674 net.cpp:197] Top shape: 1 32 64 128 (262144)
I0711 11:10:25.844907 27674 net.cpp:205] Memory required for data: 627048448
I0711 11:10:25.844916 27674 layer_factory.hpp:123] Creating layer Threshold_40
I0711 11:10:25.844920 27674 net.cpp:140] Creating Layer Threshold_40
I0711 11:10:25.844924 27674 net.cpp:481] Threshold_40 <- BatchNorm_31
I0711 11:10:25.844928 27674 net.cpp:442] Threshold_40 -> BatchNorm_31 (in-place)
I0711 11:10:25.844934 27674 net.cpp:190] Setting up Threshold_40
I0711 11:10:25.844938 27674 net.cpp:197] Top shape: 1 32 64 128 (262144)
I0711 11:10:25.844941 27674 net.cpp:205] Memory required for data: 628097024
I0711 11:10:25.844944 27674 layer_factory.hpp:123] Creating layer ConvNd_34
I0711 11:10:25.844950 27674 net.cpp:140] Creating Layer ConvNd_34
I0711 11:10:25.844954 27674 net.cpp:481] ConvNd_34 <- BatchNorm_31
I0711 11:10:25.844959 27674 net.cpp:455] ConvNd_34 -> ConvNd_34
I0711 11:10:25.845129 27674 net.cpp:190] Setting up ConvNd_34
I0711 11:10:25.845135 27674 net.cpp:197] Top shape: 1 128 64 128 (1048576)
I0711 11:10:25.845139 27674 net.cpp:205] Memory required for data: 632291328
I0711 11:10:25.845142 27674 layer_factory.hpp:123] Creating layer BatchNorm_32
I0711 11:10:25.845149 27674 net.cpp:140] Creating Layer BatchNorm_32
I0711 11:10:25.845151 27674 net.cpp:481] BatchNorm_32 <- ConvNd_34
I0711 11:10:25.845157 27674 net.cpp:455] BatchNorm_32 -> BatchNorm_32
I0711 11:10:25.845696 27674 net.cpp:190] Setting up BatchNorm_32
I0711 11:10:25.845705 27674 net.cpp:197] Top shape: 1 128 64 128 (1048576)
I0711 11:10:25.845707 27674 net.cpp:205] Memory required for data: 636485632
I0711 11:10:25.845715 27674 layer_factory.hpp:123] Creating layer Threshold_41
I0711 11:10:25.845719 27674 net.cpp:140] Creating Layer Threshold_41
I0711 11:10:25.845723 27674 net.cpp:481] Threshold_41 <- BatchNorm_32
I0711 11:10:25.845727 27674 net.cpp:442] Threshold_41 -> BatchNorm_32 (in-place)
I0711 11:10:25.845733 27674 net.cpp:190] Setting up Threshold_41
I0711 11:10:25.845737 27674 net.cpp:197] Top shape: 1 128 64 128 (1048576)
I0711 11:10:25.845741 27674 net.cpp:205] Memory required for data: 640679936
I0711 11:10:25.845743 27674 layer_factory.hpp:123] Creating layer Add_10
I0711 11:10:25.845748 27674 net.cpp:140] Creating Layer Add_10
I0711 11:10:25.845752 27674 net.cpp:481] Add_10 <- Add_9_Threshold_38_0_split_1
I0711 11:10:25.845755 27674 net.cpp:481] Add_10 <- BatchNorm_32
I0711 11:10:25.845760 27674 net.cpp:455] Add_10 -> Add_10
I0711 11:10:25.845779 27674 net.cpp:190] Setting up Add_10
I0711 11:10:25.845784 27674 net.cpp:197] Top shape: 1 128 64 128 (1048576)
I0711 11:10:25.845788 27674 net.cpp:205] Memory required for data: 644874240
I0711 11:10:25.845790 27674 layer_factory.hpp:123] Creating layer Threshold_42
I0711 11:10:25.845794 27674 net.cpp:140] Creating Layer Threshold_42
I0711 11:10:25.845798 27674 net.cpp:481] Threshold_42 <- Add_10
I0711 11:10:25.845803 27674 net.cpp:442] Threshold_42 -> Add_10 (in-place)
I0711 11:10:25.845806 27674 net.cpp:190] Setting up Threshold_42
I0711 11:10:25.845810 27674 net.cpp:197] Top shape: 1 128 64 128 (1048576)
I0711 11:10:25.845813 27674 net.cpp:205] Memory required for data: 649068544
I0711 11:10:25.845816 27674 layer_factory.hpp:123] Creating layer Add_10_Threshold_42_0_split
I0711 11:10:25.845821 27674 net.cpp:140] Creating Layer Add_10_Threshold_42_0_split
I0711 11:10:25.845824 27674 net.cpp:481] Add_10_Threshold_42_0_split <- Add_10
I0711 11:10:25.845829 27674 net.cpp:455] Add_10_Threshold_42_0_split -> Add_10_Threshold_42_0_split_0
I0711 11:10:25.845834 27674 net.cpp:455] Add_10_Threshold_42_0_split -> Add_10_Threshold_42_0_split_1
I0711 11:10:25.845862 27674 net.cpp:190] Setting up Add_10_Threshold_42_0_split
I0711 11:10:25.845868 27674 net.cpp:197] Top shape: 1 128 64 128 (1048576)
I0711 11:10:25.845872 27674 net.cpp:197] Top shape: 1 128 64 128 (1048576)
I0711 11:10:25.845875 27674 net.cpp:205] Memory required for data: 657457152
I0711 11:10:25.845878 27674 layer_factory.hpp:123] Creating layer ConvNd_35
I0711 11:10:25.845885 27674 net.cpp:140] Creating Layer ConvNd_35
I0711 11:10:25.845887 27674 net.cpp:481] ConvNd_35 <- Add_10_Threshold_42_0_split_0
I0711 11:10:25.845892 27674 net.cpp:455] ConvNd_35 -> ConvNd_35
I0711 11:10:25.846065 27674 net.cpp:190] Setting up ConvNd_35
I0711 11:10:25.846071 27674 net.cpp:197] Top shape: 1 32 64 128 (262144)
I0711 11:10:25.846074 27674 net.cpp:205] Memory required for data: 658505728
I0711 11:10:25.846079 27674 layer_factory.hpp:123] Creating layer BatchNorm_33
I0711 11:10:25.846086 27674 net.cpp:140] Creating Layer BatchNorm_33
I0711 11:10:25.846088 27674 net.cpp:481] BatchNorm_33 <- ConvNd_35
I0711 11:10:25.846094 27674 net.cpp:455] BatchNorm_33 -> BatchNorm_33
I0711 11:10:25.846710 27674 net.cpp:190] Setting up BatchNorm_33
I0711 11:10:25.846717 27674 net.cpp:197] Top shape: 1 32 64 128 (262144)
I0711 11:10:25.846720 27674 net.cpp:205] Memory required for data: 659554304
I0711 11:10:25.846729 27674 layer_factory.hpp:123] Creating layer Threshold_43
I0711 11:10:25.846735 27674 net.cpp:140] Creating Layer Threshold_43
I0711 11:10:25.846737 27674 net.cpp:481] Threshold_43 <- BatchNorm_33
I0711 11:10:25.846741 27674 net.cpp:442] Threshold_43 -> BatchNorm_33 (in-place)
I0711 11:10:25.846747 27674 net.cpp:190] Setting up Threshold_43
I0711 11:10:25.846751 27674 net.cpp:197] Top shape: 1 32 64 128 (262144)
I0711 11:10:25.846755 27674 net.cpp:205] Memory required for data: 660602880
I0711 11:10:25.846756 27674 layer_factory.hpp:123] Creating layer ConvNd_36
I0711 11:10:25.846763 27674 net.cpp:140] Creating Layer ConvNd_36
I0711 11:10:25.846766 27674 net.cpp:481] ConvNd_36 <- BatchNorm_33
I0711 11:10:25.846771 27674 net.cpp:455] ConvNd_36 -> ConvNd_36
I0711 11:10:25.846946 27674 net.cpp:190] Setting up ConvNd_36
I0711 11:10:25.846953 27674 net.cpp:197] Top shape: 1 32 64 128 (262144)
I0711 11:10:25.846957 27674 net.cpp:205] Memory required for data: 661651456
I0711 11:10:25.846961 27674 layer_factory.hpp:123] Creating layer BatchNorm_34
I0711 11:10:25.846967 27674 net.cpp:140] Creating Layer BatchNorm_34
I0711 11:10:25.846971 27674 net.cpp:481] BatchNorm_34 <- ConvNd_36
I0711 11:10:25.846976 27674 net.cpp:455] BatchNorm_34 -> BatchNorm_34
I0711 11:10:25.847589 27674 net.cpp:190] Setting up BatchNorm_34
I0711 11:10:25.847597 27674 net.cpp:197] Top shape: 1 32 64 128 (262144)
I0711 11:10:25.847600 27674 net.cpp:205] Memory required for data: 662700032
I0711 11:10:25.847609 27674 layer_factory.hpp:123] Creating layer Threshold_44
I0711 11:10:25.847613 27674 net.cpp:140] Creating Layer Threshold_44
I0711 11:10:25.847617 27674 net.cpp:481] Threshold_44 <- BatchNorm_34
I0711 11:10:25.847621 27674 net.cpp:442] Threshold_44 -> BatchNorm_34 (in-place)
I0711 11:10:25.847627 27674 net.cpp:190] Setting up Threshold_44
I0711 11:10:25.847631 27674 net.cpp:197] Top shape: 1 32 64 128 (262144)
I0711 11:10:25.847633 27674 net.cpp:205] Memory required for data: 663748608
I0711 11:10:25.847636 27674 layer_factory.hpp:123] Creating layer ConvNd_37
I0711 11:10:25.847645 27674 net.cpp:140] Creating Layer ConvNd_37
I0711 11:10:25.847647 27674 net.cpp:481] ConvNd_37 <- BatchNorm_34
I0711 11:10:25.847651 27674 net.cpp:455] ConvNd_37 -> ConvNd_37
I0711 11:10:25.847826 27674 net.cpp:190] Setting up ConvNd_37
I0711 11:10:25.847836 27674 net.cpp:197] Top shape: 1 128 64 128 (1048576)
I0711 11:10:25.847838 27674 net.cpp:205] Memory required for data: 667942912
I0711 11:10:25.847842 27674 layer_factory.hpp:123] Creating layer BatchNorm_35
I0711 11:10:25.847848 27674 net.cpp:140] Creating Layer BatchNorm_35
I0711 11:10:25.847852 27674 net.cpp:481] BatchNorm_35 <- ConvNd_37
I0711 11:10:25.847857 27674 net.cpp:455] BatchNorm_35 -> BatchNorm_35
I0711 11:10:25.848400 27674 net.cpp:190] Setting up BatchNorm_35
I0711 11:10:25.848408 27674 net.cpp:197] Top shape: 1 128 64 128 (1048576)
I0711 11:10:25.848412 27674 net.cpp:205] Memory required for data: 672137216
I0711 11:10:25.848419 27674 layer_factory.hpp:123] Creating layer Threshold_45
I0711 11:10:25.848424 27674 net.cpp:140] Creating Layer Threshold_45
I0711 11:10:25.848428 27674 net.cpp:481] Threshold_45 <- BatchNorm_35
I0711 11:10:25.848433 27674 net.cpp:442] Threshold_45 -> BatchNorm_35 (in-place)
I0711 11:10:25.848438 27674 net.cpp:190] Setting up Threshold_45
I0711 11:10:25.848441 27674 net.cpp:197] Top shape: 1 128 64 128 (1048576)
I0711 11:10:25.848444 27674 net.cpp:205] Memory required for data: 676331520
I0711 11:10:25.848448 27674 layer_factory.hpp:123] Creating layer Add_11
I0711 11:10:25.848453 27674 net.cpp:140] Creating Layer Add_11
I0711 11:10:25.848456 27674 net.cpp:481] Add_11 <- Add_10_Threshold_42_0_split_1
I0711 11:10:25.848459 27674 net.cpp:481] Add_11 <- BatchNorm_35
I0711 11:10:25.848464 27674 net.cpp:455] Add_11 -> Add_11
I0711 11:10:25.848484 27674 net.cpp:190] Setting up Add_11
I0711 11:10:25.848491 27674 net.cpp:197] Top shape: 1 128 64 128 (1048576)
I0711 11:10:25.848495 27674 net.cpp:205] Memory required for data: 680525824
I0711 11:10:25.848498 27674 layer_factory.hpp:123] Creating layer Threshold_46
I0711 11:10:25.848502 27674 net.cpp:140] Creating Layer Threshold_46
I0711 11:10:25.848506 27674 net.cpp:481] Threshold_46 <- Add_11
I0711 11:10:25.848510 27674 net.cpp:442] Threshold_46 -> Add_11 (in-place)
I0711 11:10:25.848515 27674 net.cpp:190] Setting up Threshold_46
I0711 11:10:25.848520 27674 net.cpp:197] Top shape: 1 128 64 128 (1048576)
I0711 11:10:25.848522 27674 net.cpp:205] Memory required for data: 684720128
I0711 11:10:25.848526 27674 layer_factory.hpp:123] Creating layer Add_11_Threshold_46_0_split
I0711 11:10:25.848531 27674 net.cpp:140] Creating Layer Add_11_Threshold_46_0_split
I0711 11:10:25.848533 27674 net.cpp:481] Add_11_Threshold_46_0_split <- Add_11
I0711 11:10:25.848537 27674 net.cpp:455] Add_11_Threshold_46_0_split -> Add_11_Threshold_46_0_split_0
I0711 11:10:25.848543 27674 net.cpp:455] Add_11_Threshold_46_0_split -> Add_11_Threshold_46_0_split_1
I0711 11:10:25.848573 27674 net.cpp:190] Setting up Add_11_Threshold_46_0_split
I0711 11:10:25.848579 27674 net.cpp:197] Top shape: 1 128 64 128 (1048576)
I0711 11:10:25.848582 27674 net.cpp:197] Top shape: 1 128 64 128 (1048576)
I0711 11:10:25.848585 27674 net.cpp:205] Memory required for data: 693108736
I0711 11:10:25.848588 27674 layer_factory.hpp:123] Creating layer ConvNd_38
I0711 11:10:25.848595 27674 net.cpp:140] Creating Layer ConvNd_38
I0711 11:10:25.848599 27674 net.cpp:481] ConvNd_38 <- Add_11_Threshold_46_0_split_0
I0711 11:10:25.848603 27674 net.cpp:455] ConvNd_38 -> ConvNd_38
I0711 11:10:25.848773 27674 net.cpp:190] Setting up ConvNd_38
I0711 11:10:25.848780 27674 net.cpp:197] Top shape: 1 32 64 128 (262144)
I0711 11:10:25.848783 27674 net.cpp:205] Memory required for data: 694157312
I0711 11:10:25.848788 27674 layer_factory.hpp:123] Creating layer BatchNorm_36
I0711 11:10:25.848794 27674 net.cpp:140] Creating Layer BatchNorm_36
I0711 11:10:25.848798 27674 net.cpp:481] BatchNorm_36 <- ConvNd_38
I0711 11:10:25.848803 27674 net.cpp:455] BatchNorm_36 -> BatchNorm_36
I0711 11:10:25.849419 27674 net.cpp:190] Setting up BatchNorm_36
I0711 11:10:25.849427 27674 net.cpp:197] Top shape: 1 32 64 128 (262144)
I0711 11:10:25.849431 27674 net.cpp:205] Memory required for data: 695205888
I0711 11:10:25.849438 27674 layer_factory.hpp:123] Creating layer Threshold_47
I0711 11:10:25.849443 27674 net.cpp:140] Creating Layer Threshold_47
I0711 11:10:25.849447 27674 net.cpp:481] Threshold_47 <- BatchNorm_36
I0711 11:10:25.849452 27674 net.cpp:442] Threshold_47 -> BatchNorm_36 (in-place)
I0711 11:10:25.849457 27674 net.cpp:190] Setting up Threshold_47
I0711 11:10:25.849462 27674 net.cpp:197] Top shape: 1 32 64 128 (262144)
I0711 11:10:25.849464 27674 net.cpp:205] Memory required for data: 696254464
I0711 11:10:25.849468 27674 layer_factory.hpp:123] Creating layer ConvNd_39
I0711 11:10:25.849474 27674 net.cpp:140] Creating Layer ConvNd_39
I0711 11:10:25.849478 27674 net.cpp:481] ConvNd_39 <- BatchNorm_36
I0711 11:10:25.849483 27674 net.cpp:455] ConvNd_39 -> ConvNd_39
I0711 11:10:25.849653 27674 net.cpp:190] Setting up ConvNd_39
I0711 11:10:25.849660 27674 net.cpp:197] Top shape: 1 32 64 128 (262144)
I0711 11:10:25.849663 27674 net.cpp:205] Memory required for data: 697303040
I0711 11:10:25.849668 27674 layer_factory.hpp:123] Creating layer BatchNorm_37
I0711 11:10:25.849674 27674 net.cpp:140] Creating Layer BatchNorm_37
I0711 11:10:25.849678 27674 net.cpp:481] BatchNorm_37 <- ConvNd_39
I0711 11:10:25.849683 27674 net.cpp:455] BatchNorm_37 -> BatchNorm_37
I0711 11:10:25.850294 27674 net.cpp:190] Setting up BatchNorm_37
I0711 11:10:25.850302 27674 net.cpp:197] Top shape: 1 32 64 128 (262144)
I0711 11:10:25.850306 27674 net.cpp:205] Memory required for data: 698351616
I0711 11:10:25.850313 27674 layer_factory.hpp:123] Creating layer Threshold_48
I0711 11:10:25.850318 27674 net.cpp:140] Creating Layer Threshold_48
I0711 11:10:25.850322 27674 net.cpp:481] Threshold_48 <- BatchNorm_37
I0711 11:10:25.850327 27674 net.cpp:442] Threshold_48 -> BatchNorm_37 (in-place)
I0711 11:10:25.850332 27674 net.cpp:190] Setting up Threshold_48
I0711 11:10:25.850335 27674 net.cpp:197] Top shape: 1 32 64 128 (262144)
I0711 11:10:25.850338 27674 net.cpp:205] Memory required for data: 699400192
I0711 11:10:25.850342 27674 layer_factory.hpp:123] Creating layer ConvNd_40
I0711 11:10:25.850347 27674 net.cpp:140] Creating Layer ConvNd_40
I0711 11:10:25.850350 27674 net.cpp:481] ConvNd_40 <- BatchNorm_37
I0711 11:10:25.850355 27674 net.cpp:455] ConvNd_40 -> ConvNd_40
I0711 11:10:25.850525 27674 net.cpp:190] Setting up ConvNd_40
I0711 11:10:25.850533 27674 net.cpp:197] Top shape: 1 128 64 128 (1048576)
I0711 11:10:25.850535 27674 net.cpp:205] Memory required for data: 703594496
I0711 11:10:25.850539 27674 layer_factory.hpp:123] Creating layer BatchNorm_38
I0711 11:10:25.850545 27674 net.cpp:140] Creating Layer BatchNorm_38
I0711 11:10:25.850548 27674 net.cpp:481] BatchNorm_38 <- ConvNd_40
I0711 11:10:25.850554 27674 net.cpp:455] BatchNorm_38 -> BatchNorm_38
I0711 11:10:25.851094 27674 net.cpp:190] Setting up BatchNorm_38
I0711 11:10:25.851104 27674 net.cpp:197] Top shape: 1 128 64 128 (1048576)
I0711 11:10:25.851107 27674 net.cpp:205] Memory required for data: 707788800
I0711 11:10:25.851115 27674 layer_factory.hpp:123] Creating layer Threshold_49
I0711 11:10:25.851120 27674 net.cpp:140] Creating Layer Threshold_49
I0711 11:10:25.851125 27674 net.cpp:481] Threshold_49 <- BatchNorm_38
I0711 11:10:25.851128 27674 net.cpp:442] Threshold_49 -> BatchNorm_38 (in-place)
I0711 11:10:25.851135 27674 net.cpp:190] Setting up Threshold_49
I0711 11:10:25.851138 27674 net.cpp:197] Top shape: 1 128 64 128 (1048576)
I0711 11:10:25.851141 27674 net.cpp:205] Memory required for data: 711983104
I0711 11:10:25.851145 27674 layer_factory.hpp:123] Creating layer Add_12
I0711 11:10:25.851150 27674 net.cpp:140] Creating Layer Add_12
I0711 11:10:25.851152 27674 net.cpp:481] Add_12 <- Add_11_Threshold_46_0_split_1
I0711 11:10:25.851156 27674 net.cpp:481] Add_12 <- BatchNorm_38
I0711 11:10:25.851161 27674 net.cpp:455] Add_12 -> Add_12
I0711 11:10:25.851182 27674 net.cpp:190] Setting up Add_12
I0711 11:10:25.851187 27674 net.cpp:197] Top shape: 1 128 64 128 (1048576)
I0711 11:10:25.851191 27674 net.cpp:205] Memory required for data: 716177408
I0711 11:10:25.851193 27674 layer_factory.hpp:123] Creating layer Threshold_50
I0711 11:10:25.851198 27674 net.cpp:140] Creating Layer Threshold_50
I0711 11:10:25.851202 27674 net.cpp:481] Threshold_50 <- Add_12
I0711 11:10:25.851205 27674 net.cpp:442] Threshold_50 -> Add_12 (in-place)
I0711 11:10:25.851210 27674 net.cpp:190] Setting up Threshold_50
I0711 11:10:25.851214 27674 net.cpp:197] Top shape: 1 128 64 128 (1048576)
I0711 11:10:25.851217 27674 net.cpp:205] Memory required for data: 720371712
I0711 11:10:25.851220 27674 layer_factory.hpp:123] Creating layer Add_12_Threshold_50_0_split
I0711 11:10:25.851225 27674 net.cpp:140] Creating Layer Add_12_Threshold_50_0_split
I0711 11:10:25.851228 27674 net.cpp:481] Add_12_Threshold_50_0_split <- Add_12
I0711 11:10:25.851233 27674 net.cpp:455] Add_12_Threshold_50_0_split -> Add_12_Threshold_50_0_split_0
I0711 11:10:25.851238 27674 net.cpp:455] Add_12_Threshold_50_0_split -> Add_12_Threshold_50_0_split_1
I0711 11:10:25.851267 27674 net.cpp:190] Setting up Add_12_Threshold_50_0_split
I0711 11:10:25.851275 27674 net.cpp:197] Top shape: 1 128 64 128 (1048576)
I0711 11:10:25.851279 27674 net.cpp:197] Top shape: 1 128 64 128 (1048576)
I0711 11:10:25.851281 27674 net.cpp:205] Memory required for data: 728760320
I0711 11:10:25.851284 27674 layer_factory.hpp:123] Creating layer ConvNd_41
I0711 11:10:25.851291 27674 net.cpp:140] Creating Layer ConvNd_41
I0711 11:10:25.851295 27674 net.cpp:481] ConvNd_41 <- Add_12_Threshold_50_0_split_0
I0711 11:10:25.851300 27674 net.cpp:455] ConvNd_41 -> ConvNd_41
I0711 11:10:25.851469 27674 net.cpp:190] Setting up ConvNd_41
I0711 11:10:25.851477 27674 net.cpp:197] Top shape: 1 32 64 128 (262144)
I0711 11:10:25.851480 27674 net.cpp:205] Memory required for data: 729808896
I0711 11:10:25.851485 27674 layer_factory.hpp:123] Creating layer BatchNorm_39
I0711 11:10:25.851491 27674 net.cpp:140] Creating Layer BatchNorm_39
I0711 11:10:25.851495 27674 net.cpp:481] BatchNorm_39 <- ConvNd_41
I0711 11:10:25.851500 27674 net.cpp:455] BatchNorm_39 -> BatchNorm_39
I0711 11:10:25.852134 27674 net.cpp:190] Setting up BatchNorm_39
I0711 11:10:25.852144 27674 net.cpp:197] Top shape: 1 32 64 128 (262144)
I0711 11:10:25.852147 27674 net.cpp:205] Memory required for data: 730857472
I0711 11:10:25.852156 27674 layer_factory.hpp:123] Creating layer Threshold_51
I0711 11:10:25.852160 27674 net.cpp:140] Creating Layer Threshold_51
I0711 11:10:25.852164 27674 net.cpp:481] Threshold_51 <- BatchNorm_39
I0711 11:10:25.852169 27674 net.cpp:442] Threshold_51 -> BatchNorm_39 (in-place)
I0711 11:10:25.852175 27674 net.cpp:190] Setting up Threshold_51
I0711 11:10:25.852180 27674 net.cpp:197] Top shape: 1 32 64 128 (262144)
I0711 11:10:25.852181 27674 net.cpp:205] Memory required for data: 731906048
I0711 11:10:25.852185 27674 layer_factory.hpp:123] Creating layer ConvNd_42
I0711 11:10:25.852190 27674 net.cpp:140] Creating Layer ConvNd_42
I0711 11:10:25.852193 27674 net.cpp:481] ConvNd_42 <- BatchNorm_39
I0711 11:10:25.852198 27674 net.cpp:455] ConvNd_42 -> ConvNd_42
I0711 11:10:25.852370 27674 net.cpp:190] Setting up ConvNd_42
I0711 11:10:25.852377 27674 net.cpp:197] Top shape: 1 32 64 128 (262144)
I0711 11:10:25.852380 27674 net.cpp:205] Memory required for data: 732954624
I0711 11:10:25.852385 27674 layer_factory.hpp:123] Creating layer BatchNorm_40
I0711 11:10:25.852391 27674 net.cpp:140] Creating Layer BatchNorm_40
I0711 11:10:25.852393 27674 net.cpp:481] BatchNorm_40 <- ConvNd_42
I0711 11:10:25.852399 27674 net.cpp:455] BatchNorm_40 -> BatchNorm_40
I0711 11:10:25.853015 27674 net.cpp:190] Setting up BatchNorm_40
I0711 11:10:25.853024 27674 net.cpp:197] Top shape: 1 32 64 128 (262144)
I0711 11:10:25.853027 27674 net.cpp:205] Memory required for data: 734003200
I0711 11:10:25.853035 27674 layer_factory.hpp:123] Creating layer Threshold_52
I0711 11:10:25.853040 27674 net.cpp:140] Creating Layer Threshold_52
I0711 11:10:25.853044 27674 net.cpp:481] Threshold_52 <- BatchNorm_40
I0711 11:10:25.853049 27674 net.cpp:442] Threshold_52 -> BatchNorm_40 (in-place)
I0711 11:10:25.853055 27674 net.cpp:190] Setting up Threshold_52
I0711 11:10:25.853057 27674 net.cpp:197] Top shape: 1 32 64 128 (262144)
I0711 11:10:25.853061 27674 net.cpp:205] Memory required for data: 735051776
I0711 11:10:25.853065 27674 layer_factory.hpp:123] Creating layer ConvNd_43
I0711 11:10:25.853070 27674 net.cpp:140] Creating Layer ConvNd_43
I0711 11:10:25.853072 27674 net.cpp:481] ConvNd_43 <- BatchNorm_40
I0711 11:10:25.853077 27674 net.cpp:455] ConvNd_43 -> ConvNd_43
I0711 11:10:25.853252 27674 net.cpp:190] Setting up ConvNd_43
I0711 11:10:25.853260 27674 net.cpp:197] Top shape: 1 32 64 128 (262144)
I0711 11:10:25.853262 27674 net.cpp:205] Memory required for data: 736100352
I0711 11:10:25.853267 27674 layer_factory.hpp:123] Creating layer BatchNorm_41
I0711 11:10:25.853273 27674 net.cpp:140] Creating Layer BatchNorm_41
I0711 11:10:25.853276 27674 net.cpp:481] BatchNorm_41 <- ConvNd_43
I0711 11:10:25.853281 27674 net.cpp:455] BatchNorm_41 -> BatchNorm_41
I0711 11:10:25.853896 27674 net.cpp:190] Setting up BatchNorm_41
I0711 11:10:25.853904 27674 net.cpp:197] Top shape: 1 32 64 128 (262144)
I0711 11:10:25.853907 27674 net.cpp:205] Memory required for data: 737148928
I0711 11:10:25.853915 27674 layer_factory.hpp:123] Creating layer Threshold_53
I0711 11:10:25.853920 27674 net.cpp:140] Creating Layer Threshold_53
I0711 11:10:25.853924 27674 net.cpp:481] Threshold_53 <- BatchNorm_41
I0711 11:10:25.853929 27674 net.cpp:442] Threshold_53 -> BatchNorm_41 (in-place)
I0711 11:10:25.853935 27674 net.cpp:190] Setting up Threshold_53
I0711 11:10:25.853938 27674 net.cpp:197] Top shape: 1 32 64 128 (262144)
I0711 11:10:25.853941 27674 net.cpp:205] Memory required for data: 738197504
I0711 11:10:25.853943 27674 layer_factory.hpp:123] Creating layer ConvNd_44
I0711 11:10:25.853950 27674 net.cpp:140] Creating Layer ConvNd_44
I0711 11:10:25.853953 27674 net.cpp:481] ConvNd_44 <- BatchNorm_41
I0711 11:10:25.853958 27674 net.cpp:455] ConvNd_44 -> ConvNd_44
I0711 11:10:25.854130 27674 net.cpp:190] Setting up ConvNd_44
I0711 11:10:25.854137 27674 net.cpp:197] Top shape: 1 128 64 128 (1048576)
I0711 11:10:25.854140 27674 net.cpp:205] Memory required for data: 742391808
I0711 11:10:25.854144 27674 layer_factory.hpp:123] Creating layer BatchNorm_42
I0711 11:10:25.854151 27674 net.cpp:140] Creating Layer BatchNorm_42
I0711 11:10:25.854154 27674 net.cpp:481] BatchNorm_42 <- ConvNd_44
I0711 11:10:25.854159 27674 net.cpp:455] BatchNorm_42 -> BatchNorm_42
I0711 11:10:25.854703 27674 net.cpp:190] Setting up BatchNorm_42
I0711 11:10:25.854712 27674 net.cpp:197] Top shape: 1 128 64 128 (1048576)
I0711 11:10:25.854714 27674 net.cpp:205] Memory required for data: 746586112
I0711 11:10:25.854722 27674 layer_factory.hpp:123] Creating layer Threshold_54
I0711 11:10:25.854727 27674 net.cpp:140] Creating Layer Threshold_54
I0711 11:10:25.854732 27674 net.cpp:481] Threshold_54 <- BatchNorm_42
I0711 11:10:25.854735 27674 net.cpp:442] Threshold_54 -> BatchNorm_42 (in-place)
I0711 11:10:25.854741 27674 net.cpp:190] Setting up Threshold_54
I0711 11:10:25.854745 27674 net.cpp:197] Top shape: 1 128 64 128 (1048576)
I0711 11:10:25.854748 27674 net.cpp:205] Memory required for data: 750780416
I0711 11:10:25.854751 27674 layer_factory.hpp:123] Creating layer Add_13
I0711 11:10:25.854756 27674 net.cpp:140] Creating Layer Add_13
I0711 11:10:25.854759 27674 net.cpp:481] Add_13 <- Add_12_Threshold_50_0_split_1
I0711 11:10:25.854763 27674 net.cpp:481] Add_13 <- BatchNorm_42
I0711 11:10:25.854768 27674 net.cpp:455] Add_13 -> Add_13
I0711 11:10:25.854789 27674 net.cpp:190] Setting up Add_13
I0711 11:10:25.854795 27674 net.cpp:197] Top shape: 1 128 64 128 (1048576)
I0711 11:10:25.854799 27674 net.cpp:205] Memory required for data: 754974720
I0711 11:10:25.854801 27674 layer_factory.hpp:123] Creating layer Threshold_55
I0711 11:10:25.854806 27674 net.cpp:140] Creating Layer Threshold_55
I0711 11:10:25.854809 27674 net.cpp:481] Threshold_55 <- Add_13
I0711 11:10:25.854813 27674 net.cpp:442] Threshold_55 -> Add_13 (in-place)
I0711 11:10:25.854818 27674 net.cpp:190] Setting up Threshold_55
I0711 11:10:25.854822 27674 net.cpp:197] Top shape: 1 128 64 128 (1048576)
I0711 11:10:25.854825 27674 net.cpp:205] Memory required for data: 759169024
I0711 11:10:25.854827 27674 layer_factory.hpp:123] Creating layer Add_13_Threshold_55_0_split
I0711 11:10:25.854832 27674 net.cpp:140] Creating Layer Add_13_Threshold_55_0_split
I0711 11:10:25.854835 27674 net.cpp:481] Add_13_Threshold_55_0_split <- Add_13
I0711 11:10:25.854840 27674 net.cpp:455] Add_13_Threshold_55_0_split -> Add_13_Threshold_55_0_split_0
I0711 11:10:25.854846 27674 net.cpp:455] Add_13_Threshold_55_0_split -> Add_13_Threshold_55_0_split_1
I0711 11:10:25.854877 27674 net.cpp:190] Setting up Add_13_Threshold_55_0_split
I0711 11:10:25.854883 27674 net.cpp:197] Top shape: 1 128 64 128 (1048576)
I0711 11:10:25.854887 27674 net.cpp:197] Top shape: 1 128 64 128 (1048576)
I0711 11:10:25.854889 27674 net.cpp:205] Memory required for data: 767557632
I0711 11:10:25.854892 27674 layer_factory.hpp:123] Creating layer ConvNd_45
I0711 11:10:25.854900 27674 net.cpp:140] Creating Layer ConvNd_45
I0711 11:10:25.854903 27674 net.cpp:481] ConvNd_45 <- Add_13_Threshold_55_0_split_0
I0711 11:10:25.854908 27674 net.cpp:455] ConvNd_45 -> ConvNd_45
I0711 11:10:25.855083 27674 net.cpp:190] Setting up ConvNd_45
I0711 11:10:25.855091 27674 net.cpp:197] Top shape: 1 32 64 128 (262144)
I0711 11:10:25.855094 27674 net.cpp:205] Memory required for data: 768606208
I0711 11:10:25.855098 27674 layer_factory.hpp:123] Creating layer BatchNorm_43
I0711 11:10:25.855104 27674 net.cpp:140] Creating Layer BatchNorm_43
I0711 11:10:25.855108 27674 net.cpp:481] BatchNorm_43 <- ConvNd_45
I0711 11:10:25.855113 27674 net.cpp:455] BatchNorm_43 -> BatchNorm_43
I0711 11:10:25.855738 27674 net.cpp:190] Setting up BatchNorm_43
I0711 11:10:25.855746 27674 net.cpp:197] Top shape: 1 32 64 128 (262144)
I0711 11:10:25.855749 27674 net.cpp:205] Memory required for data: 769654784
I0711 11:10:25.855772 27674 layer_factory.hpp:123] Creating layer Threshold_56
I0711 11:10:25.855777 27674 net.cpp:140] Creating Layer Threshold_56
I0711 11:10:25.855782 27674 net.cpp:481] Threshold_56 <- BatchNorm_43
I0711 11:10:25.855785 27674 net.cpp:442] Threshold_56 -> BatchNorm_43 (in-place)
I0711 11:10:25.855792 27674 net.cpp:190] Setting up Threshold_56
I0711 11:10:25.855795 27674 net.cpp:197] Top shape: 1 32 64 128 (262144)
I0711 11:10:25.855798 27674 net.cpp:205] Memory required for data: 770703360
I0711 11:10:25.855801 27674 layer_factory.hpp:123] Creating layer ConvNd_46
I0711 11:10:25.855808 27674 net.cpp:140] Creating Layer ConvNd_46
I0711 11:10:25.855811 27674 net.cpp:481] ConvNd_46 <- BatchNorm_43
I0711 11:10:25.855816 27674 net.cpp:455] ConvNd_46 -> ConvNd_46
I0711 11:10:25.855993 27674 net.cpp:190] Setting up ConvNd_46
I0711 11:10:25.856000 27674 net.cpp:197] Top shape: 1 32 64 128 (262144)
I0711 11:10:25.856003 27674 net.cpp:205] Memory required for data: 771751936
I0711 11:10:25.856007 27674 layer_factory.hpp:123] Creating layer BatchNorm_44
I0711 11:10:25.856014 27674 net.cpp:140] Creating Layer BatchNorm_44
I0711 11:10:25.856017 27674 net.cpp:481] BatchNorm_44 <- ConvNd_46
I0711 11:10:25.856022 27674 net.cpp:455] BatchNorm_44 -> BatchNorm_44
I0711 11:10:25.856644 27674 net.cpp:190] Setting up BatchNorm_44
I0711 11:10:25.856652 27674 net.cpp:197] Top shape: 1 32 64 128 (262144)
I0711 11:10:25.856655 27674 net.cpp:205] Memory required for data: 772800512
I0711 11:10:25.856663 27674 layer_factory.hpp:123] Creating layer Threshold_57
I0711 11:10:25.856668 27674 net.cpp:140] Creating Layer Threshold_57
I0711 11:10:25.856673 27674 net.cpp:481] Threshold_57 <- BatchNorm_44
I0711 11:10:25.856676 27674 net.cpp:442] Threshold_57 -> BatchNorm_44 (in-place)
I0711 11:10:25.856683 27674 net.cpp:190] Setting up Threshold_57
I0711 11:10:25.856686 27674 net.cpp:197] Top shape: 1 32 64 128 (262144)
I0711 11:10:25.856689 27674 net.cpp:205] Memory required for data: 773849088
I0711 11:10:25.856693 27674 layer_factory.hpp:123] Creating layer ConvNd_47
I0711 11:10:25.856698 27674 net.cpp:140] Creating Layer ConvNd_47
I0711 11:10:25.856701 27674 net.cpp:481] ConvNd_47 <- BatchNorm_44
I0711 11:10:25.856706 27674 net.cpp:455] ConvNd_47 -> ConvNd_47
I0711 11:10:25.856878 27674 net.cpp:190] Setting up ConvNd_47
I0711 11:10:25.856885 27674 net.cpp:197] Top shape: 1 128 64 128 (1048576)
I0711 11:10:25.856889 27674 net.cpp:205] Memory required for data: 778043392
I0711 11:10:25.856892 27674 layer_factory.hpp:123] Creating layer BatchNorm_45
I0711 11:10:25.856899 27674 net.cpp:140] Creating Layer BatchNorm_45
I0711 11:10:25.856901 27674 net.cpp:481] BatchNorm_45 <- ConvNd_47
I0711 11:10:25.856907 27674 net.cpp:455] BatchNorm_45 -> BatchNorm_45
I0711 11:10:25.857451 27674 net.cpp:190] Setting up BatchNorm_45
I0711 11:10:25.857460 27674 net.cpp:197] Top shape: 1 128 64 128 (1048576)
I0711 11:10:25.857462 27674 net.cpp:205] Memory required for data: 782237696
I0711 11:10:25.857470 27674 layer_factory.hpp:123] Creating layer Threshold_58
I0711 11:10:25.857475 27674 net.cpp:140] Creating Layer Threshold_58
I0711 11:10:25.857478 27674 net.cpp:481] Threshold_58 <- BatchNorm_45
I0711 11:10:25.857482 27674 net.cpp:442] Threshold_58 -> BatchNorm_45 (in-place)
I0711 11:10:25.857488 27674 net.cpp:190] Setting up Threshold_58
I0711 11:10:25.857492 27674 net.cpp:197] Top shape: 1 128 64 128 (1048576)
I0711 11:10:25.857496 27674 net.cpp:205] Memory required for data: 786432000
I0711 11:10:25.857498 27674 layer_factory.hpp:123] Creating layer Add_14
I0711 11:10:25.857503 27674 net.cpp:140] Creating Layer Add_14
I0711 11:10:25.857507 27674 net.cpp:481] Add_14 <- Add_13_Threshold_55_0_split_1
I0711 11:10:25.857511 27674 net.cpp:481] Add_14 <- BatchNorm_45
I0711 11:10:25.857515 27674 net.cpp:455] Add_14 -> Add_14
I0711 11:10:25.857535 27674 net.cpp:190] Setting up Add_14
I0711 11:10:25.857542 27674 net.cpp:197] Top shape: 1 128 64 128 (1048576)
I0711 11:10:25.857545 27674 net.cpp:205] Memory required for data: 790626304
I0711 11:10:25.857548 27674 layer_factory.hpp:123] Creating layer Threshold_59
I0711 11:10:25.857553 27674 net.cpp:140] Creating Layer Threshold_59
I0711 11:10:25.857556 27674 net.cpp:481] Threshold_59 <- Add_14
I0711 11:10:25.857561 27674 net.cpp:442] Threshold_59 -> Add_14 (in-place)
I0711 11:10:25.857566 27674 net.cpp:190] Setting up Threshold_59
I0711 11:10:25.857569 27674 net.cpp:197] Top shape: 1 128 64 128 (1048576)
I0711 11:10:25.857573 27674 net.cpp:205] Memory required for data: 794820608
I0711 11:10:25.857575 27674 layer_factory.hpp:123] Creating layer Add_14_Threshold_59_0_split
I0711 11:10:25.857580 27674 net.cpp:140] Creating Layer Add_14_Threshold_59_0_split
I0711 11:10:25.857583 27674 net.cpp:481] Add_14_Threshold_59_0_split <- Add_14
I0711 11:10:25.857587 27674 net.cpp:455] Add_14_Threshold_59_0_split -> Add_14_Threshold_59_0_split_0
I0711 11:10:25.857594 27674 net.cpp:455] Add_14_Threshold_59_0_split -> Add_14_Threshold_59_0_split_1
I0711 11:10:25.857622 27674 net.cpp:190] Setting up Add_14_Threshold_59_0_split
I0711 11:10:25.857628 27674 net.cpp:197] Top shape: 1 128 64 128 (1048576)
I0711 11:10:25.857632 27674 net.cpp:197] Top shape: 1 128 64 128 (1048576)
I0711 11:10:25.857635 27674 net.cpp:205] Memory required for data: 803209216
I0711 11:10:25.857638 27674 layer_factory.hpp:123] Creating layer ConvNd_48
I0711 11:10:25.857645 27674 net.cpp:140] Creating Layer ConvNd_48
I0711 11:10:25.857648 27674 net.cpp:481] ConvNd_48 <- Add_14_Threshold_59_0_split_0
I0711 11:10:25.857653 27674 net.cpp:455] ConvNd_48 -> ConvNd_48
I0711 11:10:25.857825 27674 net.cpp:190] Setting up ConvNd_48
I0711 11:10:25.857831 27674 net.cpp:197] Top shape: 1 32 64 128 (262144)
I0711 11:10:25.857834 27674 net.cpp:205] Memory required for data: 804257792
I0711 11:10:25.857839 27674 layer_factory.hpp:123] Creating layer BatchNorm_46
I0711 11:10:25.857846 27674 net.cpp:140] Creating Layer BatchNorm_46
I0711 11:10:25.857848 27674 net.cpp:481] BatchNorm_46 <- ConvNd_48
I0711 11:10:25.857853 27674 net.cpp:455] BatchNorm_46 -> BatchNorm_46
I0711 11:10:25.858479 27674 net.cpp:190] Setting up BatchNorm_46
I0711 11:10:25.858486 27674 net.cpp:197] Top shape: 1 32 64 128 (262144)
I0711 11:10:25.858489 27674 net.cpp:205] Memory required for data: 805306368
I0711 11:10:25.858497 27674 layer_factory.hpp:123] Creating layer Threshold_60
I0711 11:10:25.858502 27674 net.cpp:140] Creating Layer Threshold_60
I0711 11:10:25.858506 27674 net.cpp:481] Threshold_60 <- BatchNorm_46
I0711 11:10:25.858510 27674 net.cpp:442] Threshold_60 -> BatchNorm_46 (in-place)
I0711 11:10:25.858516 27674 net.cpp:190] Setting up Threshold_60
I0711 11:10:25.858520 27674 net.cpp:197] Top shape: 1 32 64 128 (262144)
I0711 11:10:25.858523 27674 net.cpp:205] Memory required for data: 806354944
I0711 11:10:25.858526 27674 layer_factory.hpp:123] Creating layer ConvNd_49
I0711 11:10:25.858533 27674 net.cpp:140] Creating Layer ConvNd_49
I0711 11:10:25.858536 27674 net.cpp:481] ConvNd_49 <- BatchNorm_46
I0711 11:10:25.858541 27674 net.cpp:455] ConvNd_49 -> ConvNd_49
I0711 11:10:25.858718 27674 net.cpp:190] Setting up ConvNd_49
I0711 11:10:25.858726 27674 net.cpp:197] Top shape: 1 32 64 128 (262144)
I0711 11:10:25.858728 27674 net.cpp:205] Memory required for data: 807403520
I0711 11:10:25.858733 27674 layer_factory.hpp:123] Creating layer BatchNorm_47
I0711 11:10:25.858738 27674 net.cpp:140] Creating Layer BatchNorm_47
I0711 11:10:25.858742 27674 net.cpp:481] BatchNorm_47 <- ConvNd_49
I0711 11:10:25.858747 27674 net.cpp:455] BatchNorm_47 -> BatchNorm_47
I0711 11:10:25.859369 27674 net.cpp:190] Setting up BatchNorm_47
I0711 11:10:25.859377 27674 net.cpp:197] Top shape: 1 32 64 128 (262144)
I0711 11:10:25.859381 27674 net.cpp:205] Memory required for data: 808452096
I0711 11:10:25.859388 27674 layer_factory.hpp:123] Creating layer Threshold_61
I0711 11:10:25.859395 27674 net.cpp:140] Creating Layer Threshold_61
I0711 11:10:25.859397 27674 net.cpp:481] Threshold_61 <- BatchNorm_47
I0711 11:10:25.859402 27674 net.cpp:442] Threshold_61 -> BatchNorm_47 (in-place)
I0711 11:10:25.859407 27674 net.cpp:190] Setting up Threshold_61
I0711 11:10:25.859411 27674 net.cpp:197] Top shape: 1 32 64 128 (262144)
I0711 11:10:25.859414 27674 net.cpp:205] Memory required for data: 809500672
I0711 11:10:25.859417 27674 layer_factory.hpp:123] Creating layer ConvNd_50
I0711 11:10:25.859423 27674 net.cpp:140] Creating Layer ConvNd_50
I0711 11:10:25.859427 27674 net.cpp:481] ConvNd_50 <- BatchNorm_47
I0711 11:10:25.859431 27674 net.cpp:455] ConvNd_50 -> ConvNd_50
I0711 11:10:25.859602 27674 net.cpp:190] Setting up ConvNd_50
I0711 11:10:25.859609 27674 net.cpp:197] Top shape: 1 128 64 128 (1048576)
I0711 11:10:25.859612 27674 net.cpp:205] Memory required for data: 813694976
I0711 11:10:25.859616 27674 layer_factory.hpp:123] Creating layer BatchNorm_48
I0711 11:10:25.859623 27674 net.cpp:140] Creating Layer BatchNorm_48
I0711 11:10:25.859627 27674 net.cpp:481] BatchNorm_48 <- ConvNd_50
I0711 11:10:25.859632 27674 net.cpp:455] BatchNorm_48 -> BatchNorm_48
I0711 11:10:25.860179 27674 net.cpp:190] Setting up BatchNorm_48
I0711 11:10:25.860188 27674 net.cpp:197] Top shape: 1 128 64 128 (1048576)
I0711 11:10:25.860191 27674 net.cpp:205] Memory required for data: 817889280
I0711 11:10:25.860199 27674 layer_factory.hpp:123] Creating layer Threshold_62
I0711 11:10:25.860204 27674 net.cpp:140] Creating Layer Threshold_62
I0711 11:10:25.860208 27674 net.cpp:481] Threshold_62 <- BatchNorm_48
I0711 11:10:25.860213 27674 net.cpp:442] Threshold_62 -> BatchNorm_48 (in-place)
I0711 11:10:25.860219 27674 net.cpp:190] Setting up Threshold_62
I0711 11:10:25.860221 27674 net.cpp:197] Top shape: 1 128 64 128 (1048576)
I0711 11:10:25.860224 27674 net.cpp:205] Memory required for data: 822083584
I0711 11:10:25.860227 27674 layer_factory.hpp:123] Creating layer Add_15
I0711 11:10:25.860232 27674 net.cpp:140] Creating Layer Add_15
I0711 11:10:25.860236 27674 net.cpp:481] Add_15 <- Add_14_Threshold_59_0_split_1
I0711 11:10:25.860240 27674 net.cpp:481] Add_15 <- BatchNorm_48
I0711 11:10:25.860244 27674 net.cpp:455] Add_15 -> Add_15
I0711 11:10:25.860265 27674 net.cpp:190] Setting up Add_15
I0711 11:10:25.860270 27674 net.cpp:197] Top shape: 1 128 64 128 (1048576)
I0711 11:10:25.860272 27674 net.cpp:205] Memory required for data: 826277888
I0711 11:10:25.860275 27674 layer_factory.hpp:123] Creating layer Threshold_63
I0711 11:10:25.860280 27674 net.cpp:140] Creating Layer Threshold_63
I0711 11:10:25.860283 27674 net.cpp:481] Threshold_63 <- Add_15
I0711 11:10:25.860287 27674 net.cpp:442] Threshold_63 -> Add_15 (in-place)
I0711 11:10:25.860292 27674 net.cpp:190] Setting up Threshold_63
I0711 11:10:25.860296 27674 net.cpp:197] Top shape: 1 128 64 128 (1048576)
I0711 11:10:25.860299 27674 net.cpp:205] Memory required for data: 830472192
I0711 11:10:25.860302 27674 layer_factory.hpp:123] Creating layer Add_15_Threshold_63_0_split
I0711 11:10:25.860306 27674 net.cpp:140] Creating Layer Add_15_Threshold_63_0_split
I0711 11:10:25.860309 27674 net.cpp:481] Add_15_Threshold_63_0_split <- Add_15
I0711 11:10:25.860313 27674 net.cpp:455] Add_15_Threshold_63_0_split -> Add_15_Threshold_63_0_split_0
I0711 11:10:25.860319 27674 net.cpp:455] Add_15_Threshold_63_0_split -> Add_15_Threshold_63_0_split_1
I0711 11:10:25.860348 27674 net.cpp:190] Setting up Add_15_Threshold_63_0_split
I0711 11:10:25.860354 27674 net.cpp:197] Top shape: 1 128 64 128 (1048576)
I0711 11:10:25.860358 27674 net.cpp:197] Top shape: 1 128 64 128 (1048576)
I0711 11:10:25.860361 27674 net.cpp:205] Memory required for data: 838860800
I0711 11:10:25.860364 27674 layer_factory.hpp:123] Creating layer ConvNd_51
I0711 11:10:25.860371 27674 net.cpp:140] Creating Layer ConvNd_51
I0711 11:10:25.860374 27674 net.cpp:481] ConvNd_51 <- Add_15_Threshold_63_0_split_0
I0711 11:10:25.860379 27674 net.cpp:455] ConvNd_51 -> ConvNd_51
I0711 11:10:25.860549 27674 net.cpp:190] Setting up ConvNd_51
I0711 11:10:25.860556 27674 net.cpp:197] Top shape: 1 32 64 128 (262144)
I0711 11:10:25.860559 27674 net.cpp:205] Memory required for data: 839909376
I0711 11:10:25.860564 27674 layer_factory.hpp:123] Creating layer BatchNorm_49
I0711 11:10:25.860570 27674 net.cpp:140] Creating Layer BatchNorm_49
I0711 11:10:25.860574 27674 net.cpp:481] BatchNorm_49 <- ConvNd_51
I0711 11:10:25.860579 27674 net.cpp:455] BatchNorm_49 -> BatchNorm_49
I0711 11:10:25.861201 27674 net.cpp:190] Setting up BatchNorm_49
I0711 11:10:25.861208 27674 net.cpp:197] Top shape: 1 32 64 128 (262144)
I0711 11:10:25.861212 27674 net.cpp:205] Memory required for data: 840957952
I0711 11:10:25.861219 27674 layer_factory.hpp:123] Creating layer Threshold_64
I0711 11:10:25.861224 27674 net.cpp:140] Creating Layer Threshold_64
I0711 11:10:25.861228 27674 net.cpp:481] Threshold_64 <- BatchNorm_49
I0711 11:10:25.861232 27674 net.cpp:442] Threshold_64 -> BatchNorm_49 (in-place)
I0711 11:10:25.861238 27674 net.cpp:190] Setting up Threshold_64
I0711 11:10:25.861243 27674 net.cpp:197] Top shape: 1 32 64 128 (262144)
I0711 11:10:25.861245 27674 net.cpp:205] Memory required for data: 842006528
I0711 11:10:25.861248 27674 layer_factory.hpp:123] Creating layer ConvNd_52
I0711 11:10:25.861254 27674 net.cpp:140] Creating Layer ConvNd_52
I0711 11:10:25.861258 27674 net.cpp:481] ConvNd_52 <- BatchNorm_49
I0711 11:10:25.861263 27674 net.cpp:455] ConvNd_52 -> ConvNd_52
I0711 11:10:25.861438 27674 net.cpp:190] Setting up ConvNd_52
I0711 11:10:25.861445 27674 net.cpp:197] Top shape: 1 32 64 128 (262144)
I0711 11:10:25.861449 27674 net.cpp:205] Memory required for data: 843055104
I0711 11:10:25.861454 27674 layer_factory.hpp:123] Creating layer BatchNorm_50
I0711 11:10:25.861459 27674 net.cpp:140] Creating Layer BatchNorm_50
I0711 11:10:25.861462 27674 net.cpp:481] BatchNorm_50 <- ConvNd_52
I0711 11:10:25.861469 27674 net.cpp:455] BatchNorm_50 -> BatchNorm_50
I0711 11:10:25.862087 27674 net.cpp:190] Setting up BatchNorm_50
I0711 11:10:25.862095 27674 net.cpp:197] Top shape: 1 32 64 128 (262144)
I0711 11:10:25.862098 27674 net.cpp:205] Memory required for data: 844103680
I0711 11:10:25.862107 27674 layer_factory.hpp:123] Creating layer Threshold_65
I0711 11:10:25.862112 27674 net.cpp:140] Creating Layer Threshold_65
I0711 11:10:25.862114 27674 net.cpp:481] Threshold_65 <- BatchNorm_50
I0711 11:10:25.862119 27674 net.cpp:442] Threshold_65 -> BatchNorm_50 (in-place)
I0711 11:10:25.862125 27674 net.cpp:190] Setting up Threshold_65
I0711 11:10:25.862128 27674 net.cpp:197] Top shape: 1 32 64 128 (262144)
I0711 11:10:25.862131 27674 net.cpp:205] Memory required for data: 845152256
I0711 11:10:25.862134 27674 layer_factory.hpp:123] Creating layer ConvNd_53
I0711 11:10:25.862141 27674 net.cpp:140] Creating Layer ConvNd_53
I0711 11:10:25.862143 27674 net.cpp:481] ConvNd_53 <- BatchNorm_50
I0711 11:10:25.862149 27674 net.cpp:455] ConvNd_53 -> ConvNd_53
I0711 11:10:25.862323 27674 net.cpp:190] Setting up ConvNd_53
I0711 11:10:25.862330 27674 net.cpp:197] Top shape: 1 128 64 128 (1048576)
I0711 11:10:25.862334 27674 net.cpp:205] Memory required for data: 849346560
I0711 11:10:25.862337 27674 layer_factory.hpp:123] Creating layer BatchNorm_51
I0711 11:10:25.862344 27674 net.cpp:140] Creating Layer BatchNorm_51
I0711 11:10:25.862347 27674 net.cpp:481] BatchNorm_51 <- ConvNd_53
I0711 11:10:25.862352 27674 net.cpp:455] BatchNorm_51 -> BatchNorm_51
I0711 11:10:25.863665 27674 net.cpp:190] Setting up BatchNorm_51
I0711 11:10:25.863677 27674 net.cpp:197] Top shape: 1 128 64 128 (1048576)
I0711 11:10:25.863680 27674 net.cpp:205] Memory required for data: 853540864
I0711 11:10:25.863689 27674 layer_factory.hpp:123] Creating layer Threshold_66
I0711 11:10:25.863695 27674 net.cpp:140] Creating Layer Threshold_66
I0711 11:10:25.863699 27674 net.cpp:481] Threshold_66 <- BatchNorm_51
I0711 11:10:25.863704 27674 net.cpp:442] Threshold_66 -> BatchNorm_51 (in-place)
I0711 11:10:25.863711 27674 net.cpp:190] Setting up Threshold_66
I0711 11:10:25.863715 27674 net.cpp:197] Top shape: 1 128 64 128 (1048576)
I0711 11:10:25.863718 27674 net.cpp:205] Memory required for data: 857735168
I0711 11:10:25.863721 27674 layer_factory.hpp:123] Creating layer Add_16
I0711 11:10:25.863726 27674 net.cpp:140] Creating Layer Add_16
I0711 11:10:25.863729 27674 net.cpp:481] Add_16 <- Add_15_Threshold_63_0_split_1
I0711 11:10:25.863734 27674 net.cpp:481] Add_16 <- BatchNorm_51
I0711 11:10:25.863739 27674 net.cpp:455] Add_16 -> Add_16
I0711 11:10:25.863766 27674 net.cpp:190] Setting up Add_16
I0711 11:10:25.863772 27674 net.cpp:197] Top shape: 1 128 64 128 (1048576)
I0711 11:10:25.863775 27674 net.cpp:205] Memory required for data: 861929472
I0711 11:10:25.863778 27674 layer_factory.hpp:123] Creating layer Threshold_67
I0711 11:10:25.863782 27674 net.cpp:140] Creating Layer Threshold_67
I0711 11:10:25.863785 27674 net.cpp:481] Threshold_67 <- Add_16
I0711 11:10:25.863790 27674 net.cpp:442] Threshold_67 -> Add_16 (in-place)
I0711 11:10:25.863795 27674 net.cpp:190] Setting up Threshold_67
I0711 11:10:25.863799 27674 net.cpp:197] Top shape: 1 128 64 128 (1048576)
I0711 11:10:25.863802 27674 net.cpp:205] Memory required for data: 866123776
I0711 11:10:25.863806 27674 layer_factory.hpp:123] Creating layer Add_16_Threshold_67_0_split
I0711 11:10:25.863811 27674 net.cpp:140] Creating Layer Add_16_Threshold_67_0_split
I0711 11:10:25.863813 27674 net.cpp:481] Add_16_Threshold_67_0_split <- Add_16
I0711 11:10:25.863817 27674 net.cpp:455] Add_16_Threshold_67_0_split -> Add_16_Threshold_67_0_split_0
I0711 11:10:25.863823 27674 net.cpp:455] Add_16_Threshold_67_0_split -> Add_16_Threshold_67_0_split_1
I0711 11:10:25.863854 27674 net.cpp:190] Setting up Add_16_Threshold_67_0_split
I0711 11:10:25.863860 27674 net.cpp:197] Top shape: 1 128 64 128 (1048576)
I0711 11:10:25.863864 27674 net.cpp:197] Top shape: 1 128 64 128 (1048576)
I0711 11:10:25.863867 27674 net.cpp:205] Memory required for data: 874512384
I0711 11:10:25.863870 27674 layer_factory.hpp:123] Creating layer ConvNd_54
I0711 11:10:25.863878 27674 net.cpp:140] Creating Layer ConvNd_54
I0711 11:10:25.863880 27674 net.cpp:481] ConvNd_54 <- Add_16_Threshold_67_0_split_0
I0711 11:10:25.863885 27674 net.cpp:455] ConvNd_54 -> ConvNd_54
I0711 11:10:25.864060 27674 net.cpp:190] Setting up ConvNd_54
I0711 11:10:25.864068 27674 net.cpp:197] Top shape: 1 32 64 128 (262144)
I0711 11:10:25.864071 27674 net.cpp:205] Memory required for data: 875560960
I0711 11:10:25.864076 27674 layer_factory.hpp:123] Creating layer BatchNorm_52
I0711 11:10:25.864082 27674 net.cpp:140] Creating Layer BatchNorm_52
I0711 11:10:25.864086 27674 net.cpp:481] BatchNorm_52 <- ConvNd_54
I0711 11:10:25.864091 27674 net.cpp:455] BatchNorm_52 -> BatchNorm_52
I0711 11:10:25.864719 27674 net.cpp:190] Setting up BatchNorm_52
I0711 11:10:25.864728 27674 net.cpp:197] Top shape: 1 32 64 128 (262144)
I0711 11:10:25.864732 27674 net.cpp:205] Memory required for data: 876609536
I0711 11:10:25.864740 27674 layer_factory.hpp:123] Creating layer Threshold_68
I0711 11:10:25.864744 27674 net.cpp:140] Creating Layer Threshold_68
I0711 11:10:25.864748 27674 net.cpp:481] Threshold_68 <- BatchNorm_52
I0711 11:10:25.864753 27674 net.cpp:442] Threshold_68 -> BatchNorm_52 (in-place)
I0711 11:10:25.864759 27674 net.cpp:190] Setting up Threshold_68
I0711 11:10:25.864763 27674 net.cpp:197] Top shape: 1 32 64 128 (262144)
I0711 11:10:25.864766 27674 net.cpp:205] Memory required for data: 877658112
I0711 11:10:25.864769 27674 layer_factory.hpp:123] Creating layer ConvNd_55
I0711 11:10:25.864775 27674 net.cpp:140] Creating Layer ConvNd_55
I0711 11:10:25.864778 27674 net.cpp:481] ConvNd_55 <- BatchNorm_52
I0711 11:10:25.864782 27674 net.cpp:455] ConvNd_55 -> ConvNd_55
I0711 11:10:25.864955 27674 net.cpp:190] Setting up ConvNd_55
I0711 11:10:25.864964 27674 net.cpp:197] Top shape: 1 32 64 128 (262144)
I0711 11:10:25.864966 27674 net.cpp:205] Memory required for data: 878706688
I0711 11:10:25.864971 27674 layer_factory.hpp:123] Creating layer BatchNorm_53
I0711 11:10:25.864977 27674 net.cpp:140] Creating Layer BatchNorm_53
I0711 11:10:25.864980 27674 net.cpp:481] BatchNorm_53 <- ConvNd_55
I0711 11:10:25.864985 27674 net.cpp:455] BatchNorm_53 -> BatchNorm_53
I0711 11:10:25.865602 27674 net.cpp:190] Setting up BatchNorm_53
I0711 11:10:25.865610 27674 net.cpp:197] Top shape: 1 32 64 128 (262144)
I0711 11:10:25.865613 27674 net.cpp:205] Memory required for data: 879755264
I0711 11:10:25.865622 27674 layer_factory.hpp:123] Creating layer Threshold_69
I0711 11:10:25.865626 27674 net.cpp:140] Creating Layer Threshold_69
I0711 11:10:25.865629 27674 net.cpp:481] Threshold_69 <- BatchNorm_53
I0711 11:10:25.865633 27674 net.cpp:442] Threshold_69 -> BatchNorm_53 (in-place)
I0711 11:10:25.865639 27674 net.cpp:190] Setting up Threshold_69
I0711 11:10:25.865643 27674 net.cpp:197] Top shape: 1 32 64 128 (262144)
I0711 11:10:25.865646 27674 net.cpp:205] Memory required for data: 880803840
I0711 11:10:25.865649 27674 layer_factory.hpp:123] Creating layer ConvNd_56
I0711 11:10:25.865654 27674 net.cpp:140] Creating Layer ConvNd_56
I0711 11:10:25.865658 27674 net.cpp:481] ConvNd_56 <- BatchNorm_53
I0711 11:10:25.865662 27674 net.cpp:455] ConvNd_56 -> ConvNd_56
I0711 11:10:25.865833 27674 net.cpp:190] Setting up ConvNd_56
I0711 11:10:25.865839 27674 net.cpp:197] Top shape: 1 32 64 128 (262144)
I0711 11:10:25.865841 27674 net.cpp:205] Memory required for data: 881852416
I0711 11:10:25.865846 27674 layer_factory.hpp:123] Creating layer BatchNorm_54
I0711 11:10:25.865851 27674 net.cpp:140] Creating Layer BatchNorm_54
I0711 11:10:25.865855 27674 net.cpp:481] BatchNorm_54 <- ConvNd_56
I0711 11:10:25.865860 27674 net.cpp:455] BatchNorm_54 -> BatchNorm_54
I0711 11:10:25.866482 27674 net.cpp:190] Setting up BatchNorm_54
I0711 11:10:25.866489 27674 net.cpp:197] Top shape: 1 32 64 128 (262144)
I0711 11:10:25.866492 27674 net.cpp:205] Memory required for data: 882900992
I0711 11:10:25.866499 27674 layer_factory.hpp:123] Creating layer Threshold_70
I0711 11:10:25.866504 27674 net.cpp:140] Creating Layer Threshold_70
I0711 11:10:25.866508 27674 net.cpp:481] Threshold_70 <- BatchNorm_54
I0711 11:10:25.866513 27674 net.cpp:442] Threshold_70 -> BatchNorm_54 (in-place)
I0711 11:10:25.866518 27674 net.cpp:190] Setting up Threshold_70
I0711 11:10:25.866523 27674 net.cpp:197] Top shape: 1 32 64 128 (262144)
I0711 11:10:25.866525 27674 net.cpp:205] Memory required for data: 883949568
I0711 11:10:25.866528 27674 layer_factory.hpp:123] Creating layer ConvNd_57
I0711 11:10:25.866534 27674 net.cpp:140] Creating Layer ConvNd_57
I0711 11:10:25.866538 27674 net.cpp:481] ConvNd_57 <- BatchNorm_54
I0711 11:10:25.866541 27674 net.cpp:455] ConvNd_57 -> ConvNd_57
I0711 11:10:25.866713 27674 net.cpp:190] Setting up ConvNd_57
I0711 11:10:25.866719 27674 net.cpp:197] Top shape: 1 128 64 128 (1048576)
I0711 11:10:25.866721 27674 net.cpp:205] Memory required for data: 888143872
I0711 11:10:25.866725 27674 layer_factory.hpp:123] Creating layer BatchNorm_55
I0711 11:10:25.866730 27674 net.cpp:140] Creating Layer BatchNorm_55
I0711 11:10:25.866734 27674 net.cpp:481] BatchNorm_55 <- ConvNd_57
I0711 11:10:25.866739 27674 net.cpp:455] BatchNorm_55 -> BatchNorm_55
I0711 11:10:25.867281 27674 net.cpp:190] Setting up BatchNorm_55
I0711 11:10:25.867287 27674 net.cpp:197] Top shape: 1 128 64 128 (1048576)
I0711 11:10:25.867290 27674 net.cpp:205] Memory required for data: 892338176
I0711 11:10:25.867298 27674 layer_factory.hpp:123] Creating layer Threshold_71
I0711 11:10:25.867303 27674 net.cpp:140] Creating Layer Threshold_71
I0711 11:10:25.867306 27674 net.cpp:481] Threshold_71 <- BatchNorm_55
I0711 11:10:25.867311 27674 net.cpp:442] Threshold_71 -> BatchNorm_55 (in-place)
I0711 11:10:25.867316 27674 net.cpp:190] Setting up Threshold_71
I0711 11:10:25.867321 27674 net.cpp:197] Top shape: 1 128 64 128 (1048576)
I0711 11:10:25.867323 27674 net.cpp:205] Memory required for data: 896532480
I0711 11:10:25.867326 27674 layer_factory.hpp:123] Creating layer Add_17
I0711 11:10:25.867331 27674 net.cpp:140] Creating Layer Add_17
I0711 11:10:25.867334 27674 net.cpp:481] Add_17 <- Add_16_Threshold_67_0_split_1
I0711 11:10:25.867338 27674 net.cpp:481] Add_17 <- BatchNorm_55
I0711 11:10:25.867343 27674 net.cpp:455] Add_17 -> Add_17
I0711 11:10:25.867363 27674 net.cpp:190] Setting up Add_17
I0711 11:10:25.867367 27674 net.cpp:197] Top shape: 1 128 64 128 (1048576)
I0711 11:10:25.867370 27674 net.cpp:205] Memory required for data: 900726784
I0711 11:10:25.867373 27674 layer_factory.hpp:123] Creating layer Threshold_72
I0711 11:10:25.867377 27674 net.cpp:140] Creating Layer Threshold_72
I0711 11:10:25.867381 27674 net.cpp:481] Threshold_72 <- Add_17
I0711 11:10:25.867386 27674 net.cpp:442] Threshold_72 -> Add_17 (in-place)
I0711 11:10:25.867391 27674 net.cpp:190] Setting up Threshold_72
I0711 11:10:25.867395 27674 net.cpp:197] Top shape: 1 128 64 128 (1048576)
I0711 11:10:25.867398 27674 net.cpp:205] Memory required for data: 904921088
I0711 11:10:25.867400 27674 layer_factory.hpp:123] Creating layer Add_17_Threshold_72_0_split
I0711 11:10:25.867405 27674 net.cpp:140] Creating Layer Add_17_Threshold_72_0_split
I0711 11:10:25.867408 27674 net.cpp:481] Add_17_Threshold_72_0_split <- Add_17
I0711 11:10:25.867413 27674 net.cpp:455] Add_17_Threshold_72_0_split -> Add_17_Threshold_72_0_split_0
I0711 11:10:25.867419 27674 net.cpp:455] Add_17_Threshold_72_0_split -> Add_17_Threshold_72_0_split_1
I0711 11:10:25.867449 27674 net.cpp:190] Setting up Add_17_Threshold_72_0_split
I0711 11:10:25.867452 27674 net.cpp:197] Top shape: 1 128 64 128 (1048576)
I0711 11:10:25.867455 27674 net.cpp:197] Top shape: 1 128 64 128 (1048576)
I0711 11:10:25.867458 27674 net.cpp:205] Memory required for data: 913309696
I0711 11:10:25.867461 27674 layer_factory.hpp:123] Creating layer ConvNd_58
I0711 11:10:25.867467 27674 net.cpp:140] Creating Layer ConvNd_58
I0711 11:10:25.867471 27674 net.cpp:481] ConvNd_58 <- Add_17_Threshold_72_0_split_0
I0711 11:10:25.867476 27674 net.cpp:455] ConvNd_58 -> ConvNd_58
I0711 11:10:25.867646 27674 net.cpp:190] Setting up ConvNd_58
…
I0711 11:10:25.875852 27674 net.cpp:190] Setting up ConvNd_67
I0711 11:10:25.875861 27674 net.cpp:197] Top shape: 1 32 64 128 (262144)
I0711 11:10:25.875864 27674 net.cpp:205] Memory required for data: 1021313024
I0711 11:10:25.875869 27674 layer_factory.hpp:123] Creating layer BatchNorm_65
I0711 11:10:25.875875 27674 net.cpp:140] Creating Layer BatchNorm_65
I0711 11:10:25.875878 27674 net.cpp:481] BatchNorm_65 <- ConvNd_67
I0711 11:10:25.875885 27674 net.cpp:455] BatchNorm_65 -> BatchNorm_65
I0711 11:10:25.876520 27674 net.cpp:190] Setting up BatchNorm_65
I0711 11:10:25.876528 27674 net.cpp:197] Top shape: 1 32 64 128 (262144)
I0711 11:10:25.876531 27674 net.cpp:205] Memory required for data: 1022361600
I0711 11:10:25.876539 27674 layer_factory.hpp:123] Creating layer Threshold_85
I0711 11:10:25.876544 27674 net.cpp:140] Creating Layer Threshold_85
I0711 11:10:25.876547 27674 net.cpp:481] Threshold_85 <- BatchNorm_65
I0711 11:10:25.876552 27674 net.cpp:442] Threshold_85 -> BatchNorm_65 (in-place)
I0711 11:10:25.876559 27674 net.cpp:190] Setting up Threshold_85
I0711 11:10:25.876562 27674 net.cpp:197] Top shape: 1 32 64 128 (262144)
I0711 11:10:25.876565 27674 net.cpp:205] Memory required for data: 1023410176
I0711 11:10:25.876569 27674 layer_factory.hpp:123] Creating layer ConvNd_68
I0711 11:10:25.876574 27674 net.cpp:140] Creating Layer ConvNd_68
I0711 11:10:25.876576 27674 net.cpp:481] ConvNd_68 <- BatchNorm_65
I0711 11:10:25.876581 27674 net.cpp:455] ConvNd_68 -> ConvNd_68
I0711 11:10:25.876755 27674 net.cpp:190] Setting up ConvNd_68
I0711 11:10:25.876762 27674 net.cpp:197] Top shape: 1 32 64 128 (262144)
I0711 11:10:25.876765 27674 net.cpp:205] Memory required for data: 1024458752
I0711 11:10:25.876770 27674 layer_factory.hpp:123] Creating layer BatchNorm_66
I0711 11:10:25.876775 27674 net.cpp:140] Creating Layer BatchNorm_66
I0711 11:10:25.876780 27674 net.cpp:481] BatchNorm_66 <- ConvNd_68
I0711 11:10:25.876785 27674 net.cpp:455] BatchNorm_66 -> BatchNorm_66
I0711 11:10:25.877413 27674 net.cpp:190] Setting up BatchNorm_66
I0711 11:10:25.877420 27674 net.cpp:197] Top shape: 1 32 64 128 (262144)
I0711 11:10:25.877423 27674 net.cpp:205] Memory required for data: 1025507328
I0711 11:10:25.877430 27674 layer_factory.hpp:123] Creating layer Threshold_86
I0711 11:10:25.877435 27674 net.cpp:140] Creating Layer Threshold_86
I0711 11:10:25.877439 27674 net.cpp:481] Threshold_86 <- BatchNorm_66
I0711 11:10:25.877444 27674 net.cpp:442] Threshold_86 -> BatchNorm_66 (in-place)
I0711 11:10:25.877450 27674 net.cpp:190] Setting up Threshold_86
I0711 11:10:25.877454 27674 net.cpp:197] Top shape: 1 32 64 128 (262144)
I0711 11:10:25.877457 27674 net.cpp:205] Memory required for data: 1026555904
I0711 11:10:25.877460 27674 layer_factory.hpp:123] Creating layer ConvNd_69
I0711 11:10:25.877465 27674 net.cpp:140] Creating Layer ConvNd_69
I0711 11:10:25.877470 27674 net.cpp:481] ConvNd_69 <- BatchNorm_66
I0711 11:10:25.877473 27674 net.cpp:455] ConvNd_69 -> ConvNd_69
I0711 11:10:25.877647 27674 net.cpp:190] Setting up ConvNd_69
I0711 11:10:25.877655 27674 net.cpp:197] Top shape: 1 32 64 128 (262144)
I0711 11:10:25.877657 27674 net.cpp:205] Memory required for data: 1027604480
I0711 11:10:25.877661 27674 layer_factory.hpp:123] Creating layer BatchNorm_67
I0711 11:10:25.877667 27674 net.cpp:140] Creating Layer BatchNorm_67
I0711 11:10:25.877671 27674 net.cpp:481] BatchNorm_67 <- ConvNd_69
I0711 11:10:25.877676 27674 net.cpp:455] BatchNorm_67 -> BatchNorm_67
I0711 11:10:25.878307 27674 net.cpp:190] Setting up BatchNorm_67
I0711 11:10:25.878315 27674 net.cpp:197] Top shape: 1 32 64 128 (262144)
I0711 11:10:25.878319 27674 net.cpp:205] Memory required for data: 1028653056
I0711 11:10:25.878326 27674 layer_factory.hpp:123] Creating layer Threshold_87
I0711 11:10:25.878331 27674 net.cpp:140] Creating Layer Threshold_87
I0711 11:10:25.878334 27674 net.cpp:481] Threshold_87 <- BatchNorm_67
I0711 11:10:25.878340 27674 net.cpp:442] Threshold_87 -> BatchNorm_67 (in-place)
I0711 11:10:25.878345 27674 net.cpp:190] Setting up Threshold_87
I0711 11:10:25.878350 27674 net.cpp:197] Top shape: 1 32 64 128 (262144)
I0711 11:10:25.878351 27674 net.cpp:205] Memory required for data: 1029701632
I0711 11:10:25.878355 27674 layer_factory.hpp:123] Creating layer ConvNd_70
I0711 11:10:25.878360 27674 net.cpp:140] Creating Layer ConvNd_70
I0711 11:10:25.878363 27674 net.cpp:481] ConvNd_70 <- BatchNorm_67
I0711 11:10:25.878368 27674 net.cpp:455] ConvNd_70 -> ConvNd_70
I0711 11:10:25.878540 27674 net.cpp:190] Setting up ConvNd_70
I0711 11:10:25.878548 27674 net.cpp:197] Top shape: 1 128 64 128 (1048576)
I0711 11:10:25.878551 27674 net.cpp:205] Memory required for data: 1033895936
I0711 11:10:25.878554 27674 layer_factory.hpp:123] Creating layer BatchNorm_68
I0711 11:10:25.878561 27674 net.cpp:140] Creating Layer BatchNorm_68
I0711 11:10:25.878564 27674 net.cpp:481] BatchNorm_68 <- ConvNd_70
I0711 11:10:25.878569 27674 net.cpp:455] BatchNorm_68 -> BatchNorm_68
I0711 11:10:25.879118 27674 net.cpp:190] Setting up BatchNorm_68
I0711 11:10:25.879127 27674 net.cpp:197] Top shape: 1 128 64 128 (1048576)
I0711 11:10:25.879129 27674 net.cpp:205] Memory required for data: 1038090240
I0711 11:10:25.879137 27674 layer_factory.hpp:123] Creating layer Threshold_88
I0711 11:10:25.879142 27674 net.cpp:140] Creating Layer Threshold_88
I0711 11:10:25.879145 27674 net.cpp:481] Threshold_88 <- BatchNorm_68
I0711 11:10:25.879150 27674 net.cpp:442] Threshold_88 -> BatchNorm_68 (in-place)
I0711 11:10:25.879155 27674 net.cpp:190] Setting up Threshold_88
I0711 11:10:25.879159 27674 net.cpp:197] Top shape: 1 128 64 128 (1048576)
I0711 11:10:25.879163 27674 net.cpp:205] Memory required for data: 1042284544
I0711 11:10:25.879165 27674 layer_factory.hpp:123] Creating layer Add_21
I0711 11:10:25.879170 27674 net.cpp:140] Creating Layer Add_21
I0711 11:10:25.879174 27674 net.cpp:481] Add_21 <- Add_20_Threshold_84_0_split_1
I0711 11:10:25.879179 27674 net.cpp:481] Add_21 <- BatchNorm_68
I0711 11:10:25.879182 27674 net.cpp:455] Add_21 -> Add_21
I0711 11:10:25.879204 27674 net.cpp:190] Setting up Add_21
I0711 11:10:25.879207 27674 net.cpp:197] Top shape: 1 128 64 128 (1048576)
I0711 11:10:25.879210 27674 net.cpp:205] Memory required for data: 1046478848
I0711 11:10:25.879214 27674 layer_factory.hpp:123] Creating layer Threshold_89
I0711 11:10:25.879217 27674 net.cpp:140] Creating Layer Threshold_89
I0711 11:10:25.879220 27674 net.cpp:481] Threshold_89 <- Add_21
I0711 11:10:25.879225 27674 net.cpp:442] Threshold_89 -> Add_21 (in-place)
I0711 11:10:25.879230 27674 net.cpp:190] Setting up Threshold_89
I0711 11:10:25.879235 27674 net.cpp:197] Top shape: 1 128 64 128 (1048576)
I0711 11:10:25.879236 27674 net.cpp:205] Memory required for data: 1050673152
I0711 11:10:25.879240 27674 layer_factory.hpp:123] Creating layer Add_21_Threshold_89_0_split
I0711 11:10:25.879245 27674 net.cpp:140] Creating Layer Add_21_Threshold_89_0_split
I0711 11:10:25.879247 27674 net.cpp:481] Add_21_Threshold_89_0_split <- Add_21
I0711 11:10:25.879252 27674 net.cpp:455] Add_21_Threshold_89_0_split -> Add_21_Threshold_89_0_split_0
I0711 11:10:25.879258 27674 net.cpp:455] Add_21_Threshold_89_0_split -> Add_21_Threshold_89_0_split_1
I0711 11:10:25.879288 27674 net.cpp:190] Setting up Add_21_Threshold_89_0_split
I0711 11:10:25.879292 27674 net.cpp:197] Top shape: 1 128 64 128 (1048576)
I0711 11:10:25.879297 27674 net.cpp:197] Top shape: 1 128 64 128 (1048576)
I0711 11:10:25.879299 27674 net.cpp:205] Memory required for data: 1059061760
I0711 11:10:25.879302 27674 layer_factory.hpp:123] Creating layer ConvNd_71
I0711 11:10:25.879308 27674 net.cpp:140] Creating Layer ConvNd_71
I0711 11:10:25.879312 27674 net.cpp:481] ConvNd_71 <- Add_21_Threshold_89_0_split_0
I0711 11:10:25.879317 27674 net.cpp:455] ConvNd_71 -> ConvNd_71
I0711 11:10:25.879488 27674 net.cpp:190] Setting up ConvNd_71
I0711 11:10:25.879495 27674 net.cpp:197] Top shape: 1 32 64 128 (262144)
I0711 11:10:25.879498 27674 net.cpp:205] Memory required for data: 1060110336
I0711 11:10:25.879503 27674 layer_factory.hpp:123] Creating layer BatchNorm_69
I0711 11:10:25.879509 27674 net.cpp:140] Creating Layer BatchNorm_69
I0711 11:10:25.879513 27674 net.cpp:481] BatchNorm_69 <- ConvNd_71
I0711 11:10:25.879518 27674 net.cpp:455] BatchNorm_69 -> BatchNorm_69
I0711 11:10:25.880164 27674 net.cpp:190] Setting up BatchNorm_69
I0711 11:10:25.880173 27674 net.cpp:197] Top shape: 1 32 64 128 (262144)
I0711 11:10:25.880177 27674 net.cpp:205] Memory required for data: 1061158912
I0711 11:10:25.880184 27674 layer_factory.hpp:123] Creating layer Threshold_90
I0711 11:10:25.880190 27674 net.cpp:140] Creating Layer Threshold_90
I0711 11:10:25.880193 27674 net.cpp:481] Threshold_90 <- BatchNorm_69
I0711 11:10:25.880198 27674 net.cpp:442] Threshold_90 -> BatchNorm_69 (in-place)
I0711 11:10:25.880204 27674 net.cpp:190] Setting up Threshold_90
I0711 11:10:25.880208 27674 net.cpp:197] Top shape: 1 32 64 128 (262144)
I0711 11:10:25.880211 27674 net.cpp:205] Memory required for data: 1062207488
I0711 11:10:25.880213 27674 layer_factory.hpp:123] Creating layer ConvNd_72
I0711 11:10:25.880219 27674 net.cpp:140] Creating Layer ConvNd_72
I0711 11:10:25.880223 27674 net.cpp:481] ConvNd_72 <- BatchNorm_69
I0711 11:10:25.880228 27674 net.cpp:455] ConvNd_72 -> ConvNd_72
I0711 11:10:25.880409 27674 net.cpp:190] Setting up ConvNd_72
I0711 11:10:25.880416 27674 net.cpp:197] Top shape: 1 32 64 128 (262144)
I0711 11:10:25.880420 27674 net.cpp:205] Memory required for data: 1063256064
I0711 11:10:25.880424 27674 layer_factory.hpp:123] Creating layer BatchNorm_70
I0711 11:10:25.880430 27674 net.cpp:140] Creating Layer BatchNorm_70
I0711 11:10:25.880434 27674 net.cpp:481] BatchNorm_70 <- ConvNd_72
I0711 11:10:25.880439 27674 net.cpp:455] BatchNorm_70 -> BatchNorm_70
I0711 11:10:25.881067 27674 net.cpp:190] Setting up BatchNorm_70
I0711 11:10:25.881074 27674 net.cpp:197] Top shape: 1 32 64 128 (262144)
I0711 11:10:25.881078 27674 net.cpp:205] Memory required for data: 1064304640
I0711 11:10:25.881085 27674 layer_factory.hpp:123] Creating layer Threshold_91
I0711 11:10:25.881090 27674 net.cpp:140] Creating Layer Threshold_91
I0711 11:10:25.881093 27674 net.cpp:481] Threshold_91 <- BatchNorm_70
I0711 11:10:25.881098 27674 net.cpp:442] Threshold_91 -> BatchNorm_70 (in-place)
I0711 11:10:25.881103 27674 net.cpp:190] Setting up Threshold_91
I0711 11:10:25.881108 27674 net.cpp:197] Top shape: 1 32 64 128 (262144)
I0711 11:10:25.881110 27674 net.cpp:205] Memory required for data: 1065353216
I0711 11:10:25.881114 27674 layer_factory.hpp:123] Creating layer ConvNd_73
I0711 11:10:25.881119 27674 net.cpp:140] Creating Layer ConvNd_73
I0711 11:10:25.881122 27674 net.cpp:481] ConvNd_73 <- BatchNorm_70
I0711 11:10:25.881127 27674 net.cpp:455] ConvNd_73 -> ConvNd_73
I0711 11:10:25.881301 27674 net.cpp:190] Setting up ConvNd_73
I0711 11:10:25.881309 27674 net.cpp:197] Top shape: 1 128 64 128 (1048576)
I0711 11:10:25.881312 27674 net.cpp:205] Memory required for data: 1069547520
I0711 11:10:25.881316 27674 layer_factory.hpp:123] Creating layer BatchNorm_71
I0711 11:10:25.881322 27674 net.cpp:140] Creating Layer BatchNorm_71
I0711 11:10:25.881326 27674 net.cpp:481] BatchNorm_71 <- ConvNd_73
I0711 11:10:25.881331 27674 net.cpp:455] BatchNorm_71 -> BatchNorm_71
I0711 11:10:25.881882 27674 net.cpp:190] Setting up BatchNorm_71
I0711 11:10:25.881889 27674 net.cpp:197] Top shape: 1 128 64 128 (1048576)
I0711 11:10:25.881893 27674 net.cpp:205] Memory required for data: 1073741824
I0711 11:10:25.881901 27674 layer_factory.hpp:123] Creating layer Threshold_92
I0711 11:10:25.881906 27674 net.cpp:140] Creating Layer Threshold_92
I0711 11:10:25.881908 27674 net.cpp:481] Threshold_92 <- BatchNorm_71
I0711 11:10:25.881913 27674 net.cpp:442] Threshold_92 -> BatchNorm_71 (in-place)
I0711 11:10:25.881919 27674 net.cpp:190] Setting up Threshold_92
I0711 11:10:25.881923 27674 net.cpp:197] Top shape: 1 128 64 128 (1048576)
I0711 11:10:25.881927 27674 net.cpp:205] Memory required for data: 1077936128
I0711 11:10:25.881929 27674 layer_factory.hpp:123] Creating layer Add_22
I0711 11:10:25.881934 27674 net.cpp:140] Creating Layer Add_22
I0711 11:10:25.881937 27674 net.cpp:481] Add_22 <- Add_21_Threshold_89_0_split_1
I0711 11:10:25.881942 27674 net.cpp:481] Add_22 <- BatchNorm_71
I0711 11:10:25.881947 27674 net.cpp:455] Add_22 -> Add_22
I0711 11:10:25.881966 27674 net.cpp:190] Setting up Add_22
I0711 11:10:25.881970 27674 net.cpp:197] Top shape: 1 128 64 128 (1048576)
I0711 11:10:25.881973 27674 net.cpp:205] Memory required for data: 1082130432
I0711 11:10:25.881976 27674 layer_factory.hpp:123] Creating layer Threshold_93
I0711 11:10:25.881981 27674 net.cpp:140] Creating Layer Threshold_93
I0711 11:10:25.881984 27674 net.cpp:481] Threshold_93 <- Add_22
I0711 11:10:25.881989 27674 net.cpp:442] Threshold_93 -> Add_22 (in-place)
I0711 11:10:25.881994 27674 net.cpp:190] Setting up Threshold_93
I0711 11:10:25.881997 27674 net.cpp:197] Top shape: 1 128 64 128 (1048576)
I0711 11:10:25.882000 27674 net.cpp:205] Memory required for data: 1086324736
I0711 11:10:25.882002 27674 layer_factory.hpp:123] Creating layer Add_22_Threshold_93_0_split
I0711 11:10:25.882007 27674 net.cpp:140] Creating Layer Add_22_Threshold_93_0_split
I0711 11:10:25.882010 27674 net.cpp:481] Add_22_Threshold_93_0_split <- Add_22
I0711 11:10:25.882015 27674 net.cpp:455] Add_22_Threshold_93_0_split -> Add_22_Threshold_93_0_split_0
I0711 11:10:25.882021 27674 net.cpp:455] Add_22_Threshold_93_0_split -> Add_22_Threshold_93_0_split_1
I0711 11:10:25.882050 27674 net.cpp:190] Setting up Add_22_Threshold_93_0_split
I0711 11:10:25.882056 27674 net.cpp:197] Top shape: 1 128 64 128 (1048576)
I0711 11:10:25.882059 27674 net.cpp:197] Top shape: 1 128 64 128 (1048576)
I0711 11:10:25.882062 27674 net.cpp:205] Memory required for data: 1094713344
I0711 11:10:25.882066 27674 layer_factory.hpp:123] Creating layer ConvNd_74
I0711 11:10:25.882072 27674 net.cpp:140] Creating Layer ConvNd_74
I0711 11:10:25.882076 27674 net.cpp:481] ConvNd_74 <- Add_22_Threshold_93_0_split_0
I0711 11:10:25.882081 27674 net.cpp:455] ConvNd_74 -> ConvNd_74
I0711 11:10:25.882259 27674 net.cpp:190] Setting up ConvNd_74
I0711 11:10:25.882266 27674 net.cpp:197] Top shape: 1 64 64 128 (524288)
I0711 11:10:25.882269 27674 net.cpp:205] Memory required for data: 1096810496
I0711 11:10:25.882274 27674 layer_factory.hpp:123] Creating layer BatchNorm_72
I0711 11:10:25.882280 27674 net.cpp:140] Creating Layer BatchNorm_72
I0711 11:10:25.882283 27674 net.cpp:481] BatchNorm_72 <- ConvNd_74
I0711 11:10:25.882288 27674 net.cpp:455] BatchNorm_72 -> BatchNorm_72
I0711 11:10:25.882926 27674 net.cpp:190] Setting up BatchNorm_72
I0711 11:10:25.882935 27674 net.cpp:197] Top shape: 1 64 64 128 (524288)
I0711 11:10:25.882937 27674 net.cpp:205] Memory required for data: 1098907648
I0711 11:10:25.882946 27674 layer_factory.hpp:123] Creating layer UpsamplingBilinear2d_1
I0711 11:10:25.882952 27674 net.cpp:140] Creating Layer UpsamplingBilinear2d_1
I0711 11:10:25.882956 27674 net.cpp:481] UpsamplingBilinear2d_1 <- BatchNorm_72
I0711 11:10:25.882962 27674 net.cpp:455] UpsamplingBilinear2d_1 -> UpsamplingBilinear2d_1
I0711 11:10:25.883185 27674 net.cpp:190] Setting up UpsamplingBilinear2d_1
I0711 11:10:25.883193 27674 net.cpp:197] Top shape: 1 64 128 256 (2097152)
I0711 11:10:25.883195 27674 net.cpp:205] Memory required for data: 1107296256
I0711 11:10:25.883200 27674 layer_factory.hpp:123] Creating layer ConvNd_75
I0711 11:10:25.883206 27674 net.cpp:140] Creating Layer ConvNd_75
I0711 11:10:25.883210 27674 net.cpp:481] ConvNd_75 <- Add_22_Threshold_93_0_split_1
I0711 11:10:25.883215 27674 net.cpp:455] ConvNd_75 -> ConvNd_75
I0711 11:10:25.883385 27674 net.cpp:190] Setting up ConvNd_75
I0711 11:10:25.883394 27674 net.cpp:197] Top shape: 1 32 64 128 (262144)
I0711 11:10:25.883396 27674 net.cpp:205] Memory required for data: 1108344832
I0711 11:10:25.883400 27674 layer_factory.hpp:123] Creating layer BatchNorm_73
I0711 11:10:25.883406 27674 net.cpp:140] Creating Layer BatchNorm_73
I0711 11:10:25.883409 27674 net.cpp:481] BatchNorm_73 <- ConvNd_75
I0711 11:10:25.883415 27674 net.cpp:455] BatchNorm_73 -> BatchNorm_73
I0711 11:10:25.884049 27674 net.cpp:190] Setting up BatchNorm_73
I0711 11:10:25.884057 27674 net.cpp:197] Top shape: 1 32 64 128 (262144)
I0711 11:10:25.884060 27674 net.cpp:205] Memory required for data: 1109393408
I0711 11:10:25.884068 27674 layer_factory.hpp:123] Creating layer Threshold_94
I0711 11:10:25.884073 27674 net.cpp:140] Creating Layer Threshold_94
I0711 11:10:25.884078 27674 net.cpp:481] Threshold_94 <- BatchNorm_73
I0711 11:10:25.884081 27674 net.cpp:442] Threshold_94 -> BatchNorm_73 (in-place)
I0711 11:10:25.884088 27674 net.cpp:190] Setting up Threshold_94
I0711 11:10:25.884093 27674 net.cpp:197] Top shape: 1 32 64 128 (262144)
I0711 11:10:25.884094 27674 net.cpp:205] Memory required for data: 1110441984
I0711 11:10:25.884097 27674 layer_factory.hpp:123] Creating layer ConvNd_76
I0711 11:10:25.884102 27674 net.cpp:140] Creating Layer ConvNd_76
I0711 11:10:25.884105 27674 net.cpp:481] ConvNd_76 <- BatchNorm_73
I0711 11:10:25.884110 27674 net.cpp:455] ConvNd_76 -> ConvNd_76
I0711 11:10:25.884359 27674 net.cpp:190] Setting up ConvNd_76
I0711 11:10:25.884367 27674 net.cpp:197] Top shape: 1 32 128 256 (1048576)
I0711 11:10:25.884371 27674 net.cpp:205] Memory required for data: 1114636288
I0711 11:10:25.884375 27674 layer_factory.hpp:123] Creating layer BatchNorm_74
I0711 11:10:25.884382 27674 net.cpp:140] Creating Layer BatchNorm_74
I0711 11:10:25.884385 27674 net.cpp:481] BatchNorm_74 <- ConvNd_76
I0711 11:10:25.884392 27674 net.cpp:455] BatchNorm_74 -> BatchNorm_74
I0711 11:10:25.885881 27674 net.cpp:190] Setting up BatchNorm_74
I0711 11:10:25.885893 27674 net.cpp:197] Top shape: 1 32 128 256 (1048576)
I0711 11:10:25.885896 27674 net.cpp:205] Memory required for data: 1118830592
I0711 11:10:25.885905 27674 layer_factory.hpp:123] Creating layer Threshold_95
I0711 11:10:25.885912 27674 net.cpp:140] Creating Layer Threshold_95
I0711 11:10:25.885915 27674 net.cpp:481] Threshold_95 <- BatchNorm_74
I0711 11:10:25.885921 27674 net.cpp:442] Threshold_95 -> BatchNorm_74 (in-place)
I0711 11:10:25.885927 27674 net.cpp:190] Setting up Threshold_95
I0711 11:10:25.885932 27674 net.cpp:197] Top shape: 1 32 128 256 (1048576)
I0711 11:10:25.885934 27674 net.cpp:205] Memory required for data: 1123024896
I0711 11:10:25.885937 27674 layer_factory.hpp:123] Creating layer ConvNd_77
I0711 11:10:25.885944 27674 net.cpp:140] Creating Layer ConvNd_77
I0711 11:10:25.885947 27674 net.cpp:481] ConvNd_77 <- BatchNorm_74
I0711 11:10:25.885952 27674 net.cpp:455] ConvNd_77 -> ConvNd_77
I0711 11:10:25.886133 27674 net.cpp:190] Setting up ConvNd_77
I0711 11:10:25.886142 27674 net.cpp:197] Top shape: 1 64 128 256 (2097152)
I0711 11:10:25.886144 27674 net.cpp:205] Memory required for data: 1131413504
I0711 11:10:25.886148 27674 layer_factory.hpp:123] Creating layer BatchNorm_75
I0711 11:10:25.886154 27674 net.cpp:140] Creating Layer BatchNorm_75
I0711 11:10:25.886158 27674 net.cpp:481] BatchNorm_75 <- ConvNd_77
I0711 11:10:25.886163 27674 net.cpp:455] BatchNorm_75 -> BatchNorm_75
I0711 11:10:25.886828 27674 net.cpp:190] Setting up BatchNorm_75
I0711 11:10:25.886837 27674 net.cpp:197] Top shape: 1 64 128 256 (2097152)
I0711 11:10:25.886840 27674 net.cpp:205] Memory required for data: 1139802112
I0711 11:10:25.886848 27674 layer_factory.hpp:123] Creating layer Threshold_96
I0711 11:10:25.886853 27674 net.cpp:140] Creating Layer Threshold_96
I0711 11:10:25.886857 27674 net.cpp:481] Threshold_96 <- BatchNorm_75
I0711 11:10:25.886862 27674 net.cpp:442] Threshold_96 -> BatchNorm_75 (in-place)
I0711 11:10:25.886868 27674 net.cpp:190] Setting up Threshold_96
I0711 11:10:25.886871 27674 net.cpp:197] Top shape: 1 64 128 256 (2097152)
I0711 11:10:25.886874 27674 net.cpp:205] Memory required for data: 1148190720
I0711 11:10:25.886878 27674 layer_factory.hpp:123] Creating layer Add_23
I0711 11:10:25.886881 27674 net.cpp:140] Creating Layer Add_23
I0711 11:10:25.886885 27674 net.cpp:481] Add_23 <- UpsamplingBilinear2d_1
I0711 11:10:25.886888 27674 net.cpp:481] Add_23 <- BatchNorm_75
I0711 11:10:25.886893 27674 net.cpp:455] Add_23 -> Add_23
I0711 11:10:25.886914 27674 net.cpp:190] Setting up Add_23
I0711 11:10:25.886919 27674 net.cpp:197] Top shape: 1 64 128 256 (2097152)
I0711 11:10:25.886921 27674 net.cpp:205] Memory required for data: 1156579328
I0711 11:10:25.886925 27674 layer_factory.hpp:123] Creating layer Threshold_97
I0711 11:10:25.886929 27674 net.cpp:140] Creating Layer Threshold_97
I0711 11:10:25.886932 27674 net.cpp:481] Threshold_97 <- Add_23
I0711 11:10:25.886936 27674 net.cpp:442] Threshold_97 -> Add_23 (in-place)
I0711 11:10:25.886942 27674 net.cpp:190] Setting up Threshold_97
I0711 11:10:25.886945 27674 net.cpp:197] Top shape: 1 64 128 256 (2097152)
I0711 11:10:25.886948 27674 net.cpp:205] Memory required for data: 1164967936
I0711 11:10:25.886951 27674 layer_factory.hpp:123] Creating layer Add_23_Threshold_97_0_split
I0711 11:10:25.886956 27674 net.cpp:140] Creating Layer Add_23_Threshold_97_0_split
I0711 11:10:25.886960 27674 net.cpp:481] Add_23_Threshold_97_0_split <- Add_23
I0711 11:10:25.886965 27674 net.cpp:455] Add_23_Threshold_97_0_split -> Add_23_Threshold_97_0_split_0
I0711 11:10:25.886970 27674 net.cpp:455] Add_23_Threshold_97_0_split -> Add_23_Threshold_97_0_split_1
I0711 11:10:25.886999 27674 net.cpp:190] Setting up Add_23_Threshold_97_0_split
I0711 11:10:25.887006 27674 net.cpp:197] Top shape: 1 64 128 256 (2097152)
I0711 11:10:25.887009 27674 net.cpp:197] Top shape: 1 64 128 256 (2097152)
I0711 11:10:25.887012 27674 net.cpp:205] Memory required for data: 1181745152
I0711 11:10:25.887015 27674 layer_factory.hpp:123] Creating layer ConvNd_78
I0711 11:10:25.887022 27674 net.cpp:140] Creating Layer ConvNd_78
I0711 11:10:25.887024 27674 net.cpp:481] ConvNd_78 <- Add_23_Threshold_97_0_split_0
I0711 11:10:25.887029 27674 net.cpp:455] ConvNd_78 -> ConvNd_78
I0711 11:10:25.887203 27674 net.cpp:190] Setting up ConvNd_78
I0711 11:10:25.887210 27674 net.cpp:197] Top shape: 1 16 128 256 (524288)
I0711 11:10:25.887213 27674 net.cpp:205] Memory required for data: 1183842304
I0711 11:10:25.887217 27674 layer_factory.hpp:123] Creating layer BatchNorm_76
I0711 11:10:25.887223 27674 net.cpp:140] Creating Layer BatchNorm_76
I0711 11:10:25.887228 27674 net.cpp:481] BatchNorm_76 <- ConvNd_78
I0711 11:10:25.887233 27674 net.cpp:455] BatchNorm_76 -> BatchNorm_76
I0711 11:10:25.887897 27674 net.cpp:190] Setting up BatchNorm_76
I0711 11:10:25.887905 27674 net.cpp:197] Top shape: 1 16 128 256 (524288)
I0711 11:10:25.887908 27674 net.cpp:205] Memory required for data: 1185939456
I0711 11:10:25.887915 27674 layer_factory.hpp:123] Creating layer Threshold_98
I0711 11:10:25.887920 27674 net.cpp:140] Creating Layer Threshold_98
I0711 11:10:25.887924 27674 net.cpp:481] Threshold_98 <- BatchNorm_76
I0711 11:10:25.887929 27674 net.cpp:442] Threshold_98 -> BatchNorm_76 (in-place)
I0711 11:10:25.887935 27674 net.cpp:190] Setting up Threshold_98
I0711 11:10:25.887938 27674 net.cpp:197] Top shape: 1 16 128 256 (524288)
I0711 11:10:25.887943 27674 net.cpp:205] Memory required for data: 1188036608
I0711 11:10:25.887945 27674 layer_factory.hpp:123] Creating layer ConvNd_79
I0711 11:10:25.887951 27674 net.cpp:140] Creating Layer ConvNd_79
I0711 11:10:25.887954 27674 net.cpp:481] ConvNd_79 <- BatchNorm_76
I0711 11:10:25.887959 27674 net.cpp:455] ConvNd_79 -> ConvNd_79
I0711 11:10:25.888136 27674 net.cpp:190] Setting up ConvNd_79
I0711 11:10:25.888144 27674 net.cpp:197] Top shape: 1 16 128 256 (524288)
I0711 11:10:25.888146 27674 net.cpp:205] Memory required for data: 1190133760
I0711 11:10:25.888151 27674 layer_factory.hpp:123] Creating layer BatchNorm_77
I0711 11:10:25.888156 27674 net.cpp:140] Creating Layer BatchNorm_77
I0711 11:10:25.888160 27674 net.cpp:481] BatchNorm_77 <- ConvNd_79
I0711 11:10:25.888165 27674 net.cpp:455] BatchNorm_77 -> BatchNorm_77
I0711 11:10:25.888814 27674 net.cpp:190] Setting up BatchNorm_77
I0711 11:10:25.888823 27674 net.cpp:197] Top shape: 1 16 128 256 (524288)
I0711 11:10:25.888825 27674 net.cpp:205] Memory required for data: 1192230912
I0711 11:10:25.888833 27674 layer_factory.hpp:123] Creating layer Threshold_99
I0711 11:10:25.888839 27674 net.cpp:140] Creating Layer Threshold_99
I0711 11:10:25.888841 27674 net.cpp:481] Threshold_99 <- BatchNorm_77
I0711 11:10:25.888846 27674 net.cpp:442] Threshold_99 -> BatchNorm_77 (in-place)
I0711 11:10:25.888852 27674 net.cpp:190] Setting up Threshold_99
I0711 11:10:25.888856 27674 net.cpp:197] Top shape: 1 16 128 256 (524288)
I0711 11:10:25.888860 27674 net.cpp:205] Memory required for data: 1194328064
I0711 11:10:25.888862 27674 layer_factory.hpp:123] Creating layer ConvNd_80
I0711 11:10:25.888869 27674 net.cpp:140] Creating Layer ConvNd_80
I0711 11:10:25.888871 27674 net.cpp:481] ConvNd_80 <- BatchNorm_77
I0711 11:10:25.888876 27674 net.cpp:455] ConvNd_80 -> ConvNd_80
I0711 11:10:25.889051 27674 net.cpp:190] Setting up ConvNd_80
I0711 11:10:25.889060 27674 net.cpp:197] Top shape: 1 64 128 256 (2097152)
I0711 11:10:25.889062 27674 net.cpp:205] Memory required for data: 1202716672
I0711 11:10:25.889066 27674 layer_factory.hpp:123] Creating layer BatchNorm_78
I0711 11:10:25.889072 27674 net.cpp:140] Creating Layer BatchNorm_78
I0711 11:10:25.889075 27674 net.cpp:481] BatchNorm_78 <- ConvNd_80
I0711 11:10:25.889081 27674 net.cpp:455] BatchNorm_78 -> BatchNorm_78
I0711 11:10:25.889724 27674 net.cpp:190] Setting up BatchNorm_78
I0711 11:10:25.889732 27674 net.cpp:197] Top shape: 1 64 128 256 (2097152)
I0711 11:10:25.889735 27674 net.cpp:205] Memory required for data: 1211105280
I0711 11:10:25.889744 27674 layer_factory.hpp:123] Creating layer Threshold_100
I0711 11:10:25.889747 27674 net.cpp:140] Creating Layer Threshold_100
I0711 11:10:25.889751 27674 net.cpp:481] Threshold_100 <- BatchNorm_78
I0711 11:10:25.889755 27674 net.cpp:442] Threshold_100 -> BatchNorm_78 (in-place)
I0711 11:10:25.889762 27674 net.cpp:190] Setting up Threshold_100
I0711 11:10:25.889765 27674 net.cpp:197] Top shape: 1 64 128 256 (2097152)
I0711 11:10:25.889768 27674 net.cpp:205] Memory required for data: 1219493888
I0711 11:10:25.889771 27674 layer_factory.hpp:123] Creating layer Add_24
I0711 11:10:25.889776 27674 net.cpp:140] Creating Layer Add_24
I0711 11:10:25.889780 27674 net.cpp:481] Add_24 <- Add_23_Threshold_97_0_split_1
I0711 11:10:25.889783 27674 net.cpp:481] Add_24 <- BatchNorm_78
I0711 11:10:25.889788 27674 net.cpp:455] Add_24 -> Add_24
I0711 11:10:25.889809 27674 net.cpp:190] Setting up Add_24
I0711 11:10:25.889816 27674 net.cpp:197] Top shape: 1 64 128 256 (2097152)
I0711 11:10:25.889818 27674 net.cpp:205] Memory required for data: 1227882496
I0711 11:10:25.889822 27674 layer_factory.hpp:123] Creating layer Threshold_101
I0711 11:10:25.889825 27674 net.cpp:140] Creating Layer Threshold_101
I0711 11:10:25.889829 27674 net.cpp:481] Threshold_101 <- Add_24
I0711 11:10:25.889833 27674 net.cpp:442] Threshold_101 -> Add_24 (in-place)
I0711 11:10:25.889838 27674 net.cpp:190] Setting up Threshold_101
I0711 11:10:25.889842 27674 net.cpp:197] Top shape: 1 64 128 256 (2097152)
I0711 11:10:25.889845 27674 net.cpp:205] Memory required for data: 1236271104
I0711 11:10:25.889848 27674 layer_factory.hpp:123] Creating layer Add_24_Threshold_101_0_split
I0711 11:10:25.889853 27674 net.cpp:140] Creating Layer Add_24_Threshold_101_0_split
I0711 11:10:25.889856 27674 net.cpp:481] Add_24_Threshold_101_0_split <- Add_24
I0711 11:10:25.889860 27674 net.cpp:455] Add_24_Threshold_101_0_split -> Add_24_Threshold_101_0_split_0
I0711 11:10:25.889868 27674 net.cpp:455] Add_24_Threshold_101_0_split -> Add_24_Threshold_101_0_split_1
I0711 11:10:25.889897 27674 net.cpp:190] Setting up Add_24_Threshold_101_0_split
I0711 11:10:25.889904 27674 net.cpp:197] Top shape: 1 64 128 256 (2097152)
I0711 11:10:25.889906 27674 net.cpp:197] Top shape: 1 64 128 256 (2097152)
I0711 11:10:25.889909 27674 net.cpp:205] Memory required for data: 1253048320
I0711 11:10:25.889912 27674 layer_factory.hpp:123] Creating layer ConvNd_81
I0711 11:10:25.889919 27674 net.cpp:140] Creating Layer ConvNd_81
I0711 11:10:25.889922 27674 net.cpp:481] ConvNd_81 <- Add_24_Threshold_101_0_split_0
I0711 11:10:25.889927 27674 net.cpp:455] ConvNd_81 -> ConvNd_81
I0711 11:10:25.890098 27674 net.cpp:190] Setting up ConvNd_81
I0711 11:10:25.890105 27674 net.cpp:197] Top shape: 1 16 128 256 (524288)
I0711 11:10:25.890108 27674 net.cpp:205] Memory required for data: 1255145472
I0711 11:10:25.890112 27674 layer_factory.hpp:123] Creating layer BatchNorm_79
I0711 11:10:25.890118 27674 net.cpp:140] Creating Layer BatchNorm_79
I0711 11:10:25.890122 27674 net.cpp:481] BatchNorm_79 <- ConvNd_81
I0711 11:10:25.890128 27674 net.cpp:455] BatchNorm_79 -> BatchNorm_79
I0711 11:10:25.890769 27674 net.cpp:190] Setting up BatchNorm_79
I0711 11:10:25.890777 27674 net.cpp:197] Top shape: 1 16 128 256 (524288)
I0711 11:10:25.890780 27674 net.cpp:205] Memory required for data: 1257242624
I0711 11:10:25.890789 27674 layer_factory.hpp:123] Creating layer Threshold_102
I0711 11:10:25.890794 27674 net.cpp:140] Creating Layer Threshold_102
I0711 11:10:25.890796 27674 net.cpp:481] Threshold_102 <- BatchNorm_79
I0711 11:10:25.890801 27674 net.cpp:442] Threshold_102 -> BatchNorm_79 (in-place)
I0711 11:10:25.890807 27674 net.cpp:190] Setting up Threshold_102
I0711 11:10:25.890811 27674 net.cpp:197] Top shape: 1 16 128 256 (524288)
I0711 11:10:25.890813 27674 net.cpp:205] Memory required for data: 1259339776
I0711 11:10:25.890816 27674 layer_factory.hpp:123] Creating layer ConvNd_82
I0711 11:10:25.890822 27674 net.cpp:140] Creating Layer ConvNd_82
I0711 11:10:25.890825 27674 net.cpp:481] ConvNd_82 <- BatchNorm_79
I0711 11:10:25.890830 27674 net.cpp:455] ConvNd_82 -> ConvNd_82
I0711 11:10:25.891007 27674 net.cpp:190] Setting up ConvNd_82
I0711 11:10:25.891014 27674 net.cpp:197] Top shape: 1 16 128 256 (524288)
I0711 11:10:25.891017 27674 net.cpp:205] Memory required for data: 1261436928
I0711 11:10:25.891021 27674 layer_factory.hpp:123] Creating layer BatchNorm_80
I0711 11:10:25.891027 27674 net.cpp:140] Creating Layer BatchNorm_80
I0711 11:10:25.891031 27674 net.cpp:481] BatchNorm_80 <- ConvNd_82
I0711 11:10:25.891036 27674 net.cpp:455] BatchNorm_80 -> BatchNorm_80
I0711 11:10:25.891681 27674 net.cpp:190] Setting up BatchNorm_80
I0711 11:10:25.891690 27674 net.cpp:197] Top shape: 1 16 128 256 (524288)
I0711 11:10:25.891692 27674 net.cpp:205] Memory required for data: 1263534080
I0711 11:10:25.891700 27674 layer_factory.hpp:123] Creating layer Threshold_103
I0711 11:10:25.891705 27674 net.cpp:140] Creating Layer Threshold_103
I0711 11:10:25.891710 27674 net.cpp:481] Threshold_103 <- BatchNorm_80
I0711 11:10:25.891713 27674 net.cpp:442] Threshold_103 -> BatchNorm_80 (in-place)
I0711 11:10:25.891719 27674 net.cpp:190] Setting up Threshold_103
I0711 11:10:25.891723 27674 net.cpp:197] Top shape: 1 16 128 256 (524288)
I0711 11:10:25.891726 27674 net.cpp:205] Memory required for data: 1265631232
I0711 11:10:25.891729 27674 layer_factory.hpp:123] Creating layer ConvNd_83
I0711 11:10:25.891736 27674 net.cpp:140] Creating Layer ConvNd_83
I0711 11:10:25.891738 27674 net.cpp:481] ConvNd_83 <- BatchNorm_80
I0711 11:10:25.891742 27674 net.cpp:455] ConvNd_83 -> ConvNd_83
I0711 11:10:25.891930 27674 net.cpp:190] Setting up ConvNd_83
I0711 11:10:25.891939 27674 net.cpp:197] Top shape: 1 64 128 256 (2097152)
I0711 11:10:25.891942 27674 net.cpp:205] Memory required for data: 1274019840
I0711 11:10:25.891947 27674 layer_factory.hpp:123] Creating layer BatchNorm_81
I0711 11:10:25.891952 27674 net.cpp:140] Creating Layer BatchNorm_81
I0711 11:10:25.891957 27674 net.cpp:481] BatchNorm_81 <- ConvNd_83
I0711 11:10:25.891961 27674 net.cpp:455] BatchNorm_81 -> BatchNorm_81
I0711 11:10:25.892609 27674 net.cpp:190] Setting up BatchNorm_81
I0711 11:10:25.892618 27674 net.cpp:197] Top shape: 1 64 128 256 (2097152)
I0711 11:10:25.892621 27674 net.cpp:205] Memory required for data: 1282408448
I0711 11:10:25.892628 27674 layer_factory.hpp:123] Creating layer Threshold_104
I0711 11:10:25.892633 27674 net.cpp:140] Creating Layer Threshold_104
I0711 11:10:25.892637 27674 net.cpp:481] Threshold_104 <- BatchNorm_81
I0711 11:10:25.892642 27674 net.cpp:442] Threshold_104 -> BatchNorm_81 (in-place)
I0711 11:10:25.892647 27674 net.cpp:190] Setting up Threshold_104
I0711 11:10:25.892652 27674 net.cpp:197] Top shape: 1 64 128 256 (2097152)
I0711 11:10:25.892654 27674 net.cpp:205] Memory required for data: 1290797056
I0711 11:10:25.892657 27674 layer_factory.hpp:123] Creating layer Add_25
I0711 11:10:25.892662 27674 net.cpp:140] Creating Layer Add_25
I0711 11:10:25.892665 27674 net.cpp:481] Add_25 <- Add_24_Threshold_101_0_split_1
I0711 11:10:25.892669 27674 net.cpp:481] Add_25 <- BatchNorm_81
I0711 11:10:25.892674 27674 net.cpp:455] Add_25 -> Add_25
I0711 11:10:25.892694 27674 net.cpp:190] Setting up Add_25
I0711 11:10:25.892701 27674 net.cpp:197] Top shape: 1 64 128 256 (2097152)
I0711 11:10:25.892704 27674 net.cpp:205] Memory required for data: 1299185664
I0711 11:10:25.892707 27674 layer_factory.hpp:123] Creating layer Threshold_105
I0711 11:10:25.892711 27674 net.cpp:140] Creating Layer Threshold_105
I0711 11:10:25.892715 27674 net.cpp:481] Threshold_105 <- Add_25
I0711 11:10:25.892719 27674 net.cpp:442] Threshold_105 -> Add_25 (in-place)
I0711 11:10:25.892724 27674 net.cpp:190] Setting up Threshold_105
I0711 11:10:25.892729 27674 net.cpp:197] Top shape: 1 64 128 256 (2097152)
I0711 11:10:25.892731 27674 net.cpp:205] Memory required for data: 1307574272
I0711 11:10:25.892735 27674 layer_factory.hpp:123] Creating layer Add_25_Threshold_105_0_split
I0711 11:10:25.892740 27674 net.cpp:140] Creating Layer Add_25_Threshold_105_0_split
I0711 11:10:25.892742 27674 net.cpp:481] Add_25_Threshold_105_0_split <- Add_25
I0711 11:10:25.892747 27674 net.cpp:455] Add_25_Threshold_105_0_split -> Add_25_Threshold_105_0_split_0
I0711 11:10:25.892753 27674 net.cpp:455] Add_25_Threshold_105_0_split -> Add_25_Threshold_105_0_split_1
I0711 11:10:25.892782 27674 net.cpp:190] Setting up Add_25_Threshold_105_0_split
I0711 11:10:25.892788 27674 net.cpp:197] Top shape: 1 64 128 256 (2097152)
I0711 11:10:25.892792 27674 net.cpp:197] Top shape: 1 64 128 256 (2097152)
I0711 11:10:25.892796 27674 net.cpp:205] Memory required for data: 1324351488
I0711 11:10:25.892798 27674 layer_factory.hpp:123] Creating layer ConvNd_84
I0711 11:10:25.892804 27674 net.cpp:140] Creating Layer ConvNd_84
I0711 11:10:25.892808 27674 net.cpp:481] ConvNd_84 <- Add_25_Threshold_105_0_split_0
I0711 11:10:25.892813 27674 net.cpp:455] ConvNd_84 -> ConvNd_84
I0711 11:10:25.892987 27674 net.cpp:190] Setting up ConvNd_84
I0711 11:10:25.892993 27674 net.cpp:197] Top shape: 1 16 128 256 (524288)
I0711 11:10:25.892997 27674 net.cpp:205] Memory required for data: 1326448640
I0711 11:10:25.893002 27674 layer_factory.hpp:123] Creating layer BatchNorm_82
I0711 11:10:25.893007 27674 net.cpp:140] Creating Layer BatchNorm_82
I0711 11:10:25.893010 27674 net.cpp:481] BatchNorm_82 <- ConvNd_84
I0711 11:10:25.893016 27674 net.cpp:455] BatchNorm_82 -> BatchNorm_82
I0711 11:10:25.893662 27674 net.cpp:190] Setting up BatchNorm_82
I0711 11:10:25.893671 27674 net.cpp:197] Top shape: 1 16 128 256 (524288)
I0711 11:10:25.893673 27674 net.cpp:205] Memory required for data: 1328545792
I0711 11:10:25.893682 27674 layer_factory.hpp:123] Creating layer UpsamplingBilinear2d_2
I0711 11:10:25.893688 27674 net.cpp:140] Creating Layer UpsamplingBilinear2d_2
I0711 11:10:25.893692 27674 net.cpp:481] UpsamplingBilinear2d_2 <- BatchNorm_82
I0711 11:10:25.893697 27674 net.cpp:455] UpsamplingBilinear2d_2 -> UpsamplingBilinear2d_2
I0711 11:10:25.893875 27674 net.cpp:190] Setting up UpsamplingBilinear2d_2
I0711 11:10:25.893883 27674 net.cpp:197] Top shape: 1 16 256 512 (2097152)
I0711 11:10:25.893885 27674 net.cpp:205] Memory required for data: 1336934400
I0711 11:10:25.893889 27674 layer_factory.hpp:123] Creating layer ConvNd_85
I0711 11:10:25.893896 27674 net.cpp:140] Creating Layer ConvNd_85
I0711 11:10:25.893900 27674 net.cpp:481] ConvNd_85 <- Add_25_Threshold_105_0_split_1
I0711 11:10:25.893906 27674 net.cpp:455] ConvNd_85 -> ConvNd_85
I0711 11:10:25.894075 27674 net.cpp:190] Setting up ConvNd_85
I0711 11:10:25.894083 27674 net.cpp:197] Top shape: 1 16 128 256 (524288)
I0711 11:10:25.894086 27674 net.cpp:205] Memory required for data: 1339031552
I0711 11:10:25.894090 27674 layer_factory.hpp:123] Creating layer BatchNorm_83
I0711 11:10:25.894096 27674 net.cpp:140] Creating Layer BatchNorm_83
I0711 11:10:25.894100 27674 net.cpp:481] BatchNorm_83 <- ConvNd_85
I0711 11:10:25.894105 27674 net.cpp:455] BatchNorm_83 -> BatchNorm_83
I0711 11:10:25.894757 27674 net.cpp:190] Setting up BatchNorm_83
I0711 11:10:25.894765 27674 net.cpp:197] Top shape: 1 16 128 256 (524288)
I0711 11:10:25.894768 27674 net.cpp:205] Memory required for data: 1341128704
I0711 11:10:25.894776 27674 layer_factory.hpp:123] Creating layer Threshold_106
I0711 11:10:25.894781 27674 net.cpp:140] Creating Layer Threshold_106
I0711 11:10:25.894784 27674 net.cpp:481] Threshold_106 <- BatchNorm_83
I0711 11:10:25.894789 27674 net.cpp:442] Threshold_106 -> BatchNorm_83 (in-place)
I0711 11:10:25.894795 27674 net.cpp:190] Setting up Threshold_106
I0711 11:10:25.894799 27674 net.cpp:197] Top shape: 1 16 128 256 (524288)
I0711 11:10:25.894801 27674 net.cpp:205] Memory required for data: 1343225856
I0711 11:10:25.894805 27674 layer_factory.hpp:123] Creating layer ConvNd_86
I0711 11:10:25.894810 27674 net.cpp:140] Creating Layer ConvNd_86
I0711 11:10:25.894814 27674 net.cpp:481] ConvNd_86 <- BatchNorm_83
I0711 11:10:25.894817 27674 net.cpp:455] ConvNd_86 -> ConvNd_86
I0711 11:10:25.895128 27674 net.cpp:190] Setting up ConvNd_86
I0711 11:10:25.895136 27674 net.cpp:197] Top shape: 1 16 256 512 (2097152)
I0711 11:10:25.895139 27674 net.cpp:205] Memory required for data: 1351614464
I0711 11:10:25.895144 27674 layer_factory.hpp:123] Creating layer BatchNorm_84
I0711 11:10:25.895150 27674 net.cpp:140] Creating Layer BatchNorm_84
I0711 11:10:25.895153 27674 net.cpp:481] BatchNorm_84 <- ConvNd_86
I0711 11:10:25.895159 27674 net.cpp:455] BatchNorm_84 -> BatchNorm_84
I0711 11:10:25.895891 27674 net.cpp:190] Setting up BatchNorm_84
I0711 11:10:25.895901 27674 net.cpp:197] Top shape: 1 16 256 512 (2097152)
I0711 11:10:25.895905 27674 net.cpp:205] Memory required for data: 1360003072
I0711 11:10:25.895912 27674 layer_factory.hpp:123] Creating layer Threshold_107
I0711 11:10:25.895916 27674 net.cpp:140] Creating Layer Threshold_107
I0711 11:10:25.895921 27674 net.cpp:481] Threshold_107 <- BatchNorm_84
I0711 11:10:25.895926 27674 net.cpp:442] Threshold_107 -> BatchNorm_84 (in-place)
I0711 11:10:25.895932 27674 net.cpp:190] Setting up Threshold_107
I0711 11:10:25.895936 27674 net.cpp:197] Top shape: 1 16 256 512 (2097152)
I0711 11:10:25.895939 27674 net.cpp:205] Memory required for data: 1368391680
I0711 11:10:25.895942 27674 layer_factory.hpp:123] Creating layer ConvNd_87
I0711 11:10:25.895948 27674 net.cpp:140] Creating Layer ConvNd_87
I0711 11:10:25.895951 27674 net.cpp:481] ConvNd_87 <- BatchNorm_84
I0711 11:10:25.895956 27674 net.cpp:455] ConvNd_87 -> ConvNd_87
I0711 11:10:25.896126 27674 net.cpp:190] Setting up ConvNd_87
I0711 11:10:25.896134 27674 net.cpp:197] Top shape: 1 16 256 512 (2097152)
I0711 11:10:25.896137 27674 net.cpp:205] Memory required for data: 1376780288
I0711 11:10:25.896142 27674 layer_factory.hpp:123] Creating layer BatchNorm_85
I0711 11:10:25.896147 27674 net.cpp:140] Creating Layer BatchNorm_85
I0711 11:10:25.896150 27674 net.cpp:481] BatchNorm_85 <- ConvNd_87
I0711 11:10:25.896155 27674 net.cpp:455] BatchNorm_85 -> BatchNorm_85
I0711 11:10:25.896881 27674 net.cpp:190] Setting up BatchNorm_85
I0711 11:10:25.896889 27674 net.cpp:197] Top shape: 1 16 256 512 (2097152)
I0711 11:10:25.896891 27674 net.cpp:205] Memory required for data: 1385168896
I0711 11:10:25.896914 27674 layer_factory.hpp:123] Creating layer Threshold_108
I0711 11:10:25.896919 27674 net.cpp:140] Creating Layer Threshold_108
I0711 11:10:25.896924 27674 net.cpp:481] Threshold_108 <- BatchNorm_85
I0711 11:10:25.896927 27674 net.cpp:442] Threshold_108 -> BatchNorm_85 (in-place)
I0711 11:10:25.896934 27674 net.cpp:190] Setting up Threshold_108
I0711 11:10:25.896937 27674 net.cpp:197] Top shape: 1 16 256 512 (2097152)
I0711 11:10:25.896940 27674 net.cpp:205] Memory required for data: 1393557504
I0711 11:10:25.896944 27674 layer_factory.hpp:123] Creating layer Add_26
I0711 11:10:25.896948 27674 net.cpp:140] Creating Layer Add_26
I0711 11:10:25.896951 27674 net.cpp:481] Add_26 <- UpsamplingBilinear2d_2
I0711 11:10:25.896955 27674 net.cpp:481] Add_26 <- BatchNorm_85
I0711 11:10:25.896960 27674 net.cpp:455] Add_26 -> Add_26
I0711 11:10:25.896991 27674 net.cpp:190] Setting up Add_26
I0711 11:10:25.896996 27674 net.cpp:197] Top shape: 1 16 256 512 (2097152)
I0711 11:10:25.896999 27674 net.cpp:205] Memory required for data: 1401946112
I0711 11:10:25.897002 27674 layer_factory.hpp:123] Creating layer Threshold_109
I0711 11:10:25.897006 27674 net.cpp:140] Creating Layer Threshold_109
I0711 11:10:25.897011 27674 net.cpp:481] Threshold_109 <- Add_26
I0711 11:10:25.897016 27674 net.cpp:442] Threshold_109 -> Add_26 (in-place)
I0711 11:10:25.897020 27674 net.cpp:190] Setting up Threshold_109
I0711 11:10:25.897024 27674 net.cpp:197] Top shape: 1 16 256 512 (2097152)
I0711 11:10:25.897027 27674 net.cpp:205] Memory required for data: 1410334720
I0711 11:10:25.897029 27674 layer_factory.hpp:123] Creating layer Add_26_Threshold_109_0_split
I0711 11:10:25.897034 27674 net.cpp:140] Creating Layer Add_26_Threshold_109_0_split
I0711 11:10:25.897038 27674 net.cpp:481] Add_26_Threshold_109_0_split <- Add_26
I0711 11:10:25.897042 27674 net.cpp:455] Add_26_Threshold_109_0_split -> Add_26_Threshold_109_0_split_0
I0711 11:10:25.897048 27674 net.cpp:455] Add_26_Threshold_109_0_split -> Add_26_Threshold_109_0_split_1
I0711 11:10:25.902143 27674 net.cpp:190] Setting up Add_26_Threshold_109_0_split
I0711 11:10:25.902150 27674 net.cpp:197] Top shape: 1 16 256 512 (2097152)
I0711 11:10:25.902154 27674 net.cpp:197] Top shape: 1 16 256 512 (2097152)
I0711 11:10:25.902158 27674 net.cpp:205] Memory required for data: 1427111936
I0711 11:10:25.902160 27674 layer_factory.hpp:123] Creating layer ConvNd_88
I0711 11:10:25.902166 27674 net.cpp:140] Creating Layer ConvNd_88
I0711 11:10:25.902171 27674 net.cpp:481] ConvNd_88 <- Add_26_Threshold_109_0_split_0
I0711 11:10:25.902176 27674 net.cpp:455] ConvNd_88 -> ConvNd_88
I0711 11:10:25.902377 27674 net.cpp:190] Setting up ConvNd_88
I0711 11:10:25.902384 27674 net.cpp:197] Top shape: 1 4 256 512 (524288)
I0711 11:10:25.902388 27674 net.cpp:205] Memory required for data: 1429209088
I0711 11:10:25.902392 27674 layer_factory.hpp:123] Creating layer BatchNorm_86
I0711 11:10:25.902398 27674 net.cpp:140] Creating Layer BatchNorm_86
I0711 11:10:25.902401 27674 net.cpp:481] BatchNorm_86 <- ConvNd_88
I0711 11:10:25.902407 27674 net.cpp:455] BatchNorm_86 -> BatchNorm_86
I0711 11:10:25.903893 27674 net.cpp:190] Setting up BatchNorm_86
I0711 11:10:25.903905 27674 net.cpp:197] Top shape: 1 4 256 512 (524288)
I0711 11:10:25.903908 27674 net.cpp:205] Memory required for data: 1431306240
I0711 11:10:25.903918 27674 layer_factory.hpp:123] Creating layer Threshold_110
I0711 11:10:25.903923 27674 net.cpp:140] Creating Layer Threshold_110
I0711 11:10:25.903926 27674 net.cpp:481] Threshold_110 <- BatchNorm_86
I0711 11:10:25.903930 27674 net.cpp:442] Threshold_110 -> BatchNorm_86 (in-place)
I0711 11:10:25.903939 27674 net.cpp:190] Setting up Threshold_110
I0711 11:10:25.903944 27674 net.cpp:197] Top shape: 1 4 256 512 (524288)
I0711 11:10:25.903945 27674 net.cpp:205] Memory required for data: 1433403392
I0711 11:10:25.903949 27674 layer_factory.hpp:123] Creating layer ConvNd_89
I0711 11:10:25.903955 27674 net.cpp:140] Creating Layer ConvNd_89
I0711 11:10:25.903959 27674 net.cpp:481] ConvNd_89 <- BatchNorm_86
I0711 11:10:25.903964 27674 net.cpp:455] ConvNd_89 -> ConvNd_89
I0711 11:10:25.904148 27674 net.cpp:190] Setting up ConvNd_89
I0711 11:10:25.904156 27674 net.cpp:197] Top shape: 1 4 256 512 (524288)
I0711 11:10:25.904160 27674 net.cpp:205] Memory required for data: 1435500544
I0711 11:10:25.904163 27674 layer_factory.hpp:123] Creating layer BatchNorm_87
I0711 11:10:25.904170 27674 net.cpp:140] Creating Layer BatchNorm_87
I0711 11:10:25.904173 27674 net.cpp:481] BatchNorm_87 <- ConvNd_89
I0711 11:10:25.904178 27674 net.cpp:455] BatchNorm_87 -> BatchNorm_87
I0711 11:10:25.904877 27674 net.cpp:190] Setting up BatchNorm_87
I0711 11:10:25.904886 27674 net.cpp:197] Top shape: 1 4 256 512 (524288)
I0711 11:10:25.904888 27674 net.cpp:205] Memory required for data: 1437597696
I0711 11:10:25.904896 27674 layer_factory.hpp:123] Creating layer Threshold_111
I0711 11:10:25.904902 27674 net.cpp:140] Creating Layer Threshold_111
I0711 11:10:25.904906 27674 net.cpp:481] Threshold_111 <- BatchNorm_87
I0711 11:10:25.904911 27674 net.cpp:442] Threshold_111 -> BatchNorm_87 (in-place)
I0711 11:10:25.904917 27674 net.cpp:190] Setting up Threshold_111
I0711 11:10:25.904920 27674 net.cpp:197] Top shape: 1 4 256 512 (524288)
I0711 11:10:25.904923 27674 net.cpp:205] Memory required for data: 1439694848
I0711 11:10:25.904927 27674 layer_factory.hpp:123] Creating layer ConvNd_90
I0711 11:10:25.904932 27674 net.cpp:140] Creating Layer ConvNd_90
I0711 11:10:25.904935 27674 net.cpp:481] ConvNd_90 <- BatchNorm_87
I0711 11:10:25.904939 27674 net.cpp:455] ConvNd_90 -> ConvNd_90
I0711 11:10:25.905120 27674 net.cpp:190] Setting up ConvNd_90
I0711 11:10:25.905128 27674 net.cpp:197] Top shape: 1 16 256 512 (2097152)
I0711 11:10:25.905130 27674 net.cpp:205] Memory required for data: 1448083456
I0711 11:10:25.905134 27674 layer_factory.hpp:123] Creating layer BatchNorm_88
I0711 11:10:25.905140 27674 net.cpp:140] Creating Layer BatchNorm_88
I0711 11:10:25.905144 27674 net.cpp:481] BatchNorm_88 <- ConvNd_90
I0711 11:10:25.905149 27674 net.cpp:455] BatchNorm_88 -> BatchNorm_88
I0711 11:10:25.905854 27674 net.cpp:190] Setting up BatchNorm_88
I0711 11:10:25.905863 27674 net.cpp:197] Top shape: 1 16 256 512 (2097152)
I0711 11:10:25.905865 27674 net.cpp:205] Memory required for data: 1456472064
I0711 11:10:25.905874 27674 layer_factory.hpp:123] Creating layer Threshold_112
I0711 11:10:25.905879 27674 net.cpp:140] Creating Layer Threshold_112
I0711 11:10:25.905882 27674 net.cpp:481] Threshold_112 <- BatchNorm_88
I0711 11:10:25.905887 27674 net.cpp:442] Threshold_112 -> BatchNorm_88 (in-place)
I0711 11:10:25.905894 27674 net.cpp:190] Setting up Threshold_112
I0711 11:10:25.905896 27674 net.cpp:197] Top shape: 1 16 256 512 (2097152)
I0711 11:10:25.905900 27674 net.cpp:205] Memory required for data: 1464860672
I0711 11:10:25.905903 27674 layer_factory.hpp:123] Creating layer Add_27
I0711 11:10:25.905908 27674 net.cpp:140] Creating Layer Add_27
I0711 11:10:25.905911 27674 net.cpp:481] Add_27 <- Add_26_Threshold_109_0_split_1
I0711 11:10:25.905915 27674 net.cpp:481] Add_27 <- BatchNorm_88
I0711 11:10:25.905920 27674 net.cpp:455] Add_27 -> Add_27
I0711 11:10:25.905941 27674 net.cpp:190] Setting up Add_27
I0711 11:10:25.905946 27674 net.cpp:197] Top shape: 1 16 256 512 (2097152)
I0711 11:10:25.905949 27674 net.cpp:205] Memory required for data: 1473249280
I0711 11:10:25.905952 27674 layer_factory.hpp:123] Creating layer Threshold_113
I0711 11:10:25.905957 27674 net.cpp:140] Creating Layer Threshold_113
I0711 11:10:25.905961 27674 net.cpp:481] Threshold_113 <- Add_27
I0711 11:10:25.905966 27674 net.cpp:442] Threshold_113 -> Add_27 (in-place)
I0711 11:10:25.905970 27674 net.cpp:190] Setting up Threshold_113
I0711 11:10:25.905973 27674 net.cpp:197] Top shape: 1 16 256 512 (2097152)
I0711 11:10:25.905977 27674 net.cpp:205] Memory required for data: 1481637888
I0711 11:10:25.905979 27674 layer_factory.hpp:123] Creating layer ConvNd_91
I0711 11:10:25.905984 27674 net.cpp:140] Creating Layer ConvNd_91
I0711 11:10:25.905987 27674 net.cpp:481] ConvNd_91 <- Add_27
I0711 11:10:25.905992 27674 net.cpp:455] ConvNd_91 -> ConvNd_91
I0711 11:10:25.907348 27674 net.cpp:190] Setting up ConvNd_91
I0711 11:10:25.907362 27674 net.cpp:197] Top shape: 1 19 512 1024 (9961472)
I0711 11:10:25.907366 27674 net.cpp:205] Memory required for data: 1521483776
I0711 11:10:25.907373 27674 layer_factory.hpp:123] Creating layer score
I0711 11:10:25.907380 27674 net.cpp:140] Creating Layer score
I0711 11:10:25.907385 27674 net.cpp:481] score <- ConvNd_91
I0711 11:10:25.907392 27674 net.cpp:455] score -> score
I0711 11:10:25.907471 27674 net.cpp:190] Setting up score
I0711 11:10:25.907480 27674 net.cpp:197] Top shape: 1 19 512 1024 (9961472)
I0711 11:10:25.907483 27674 net.cpp:205] Memory required for data: 1561329664
I0711 11:10:25.907487 27674 layer_factory.hpp:123] Creating layer accuracy
I0711 11:10:25.907517 27674 net.cpp:140] Creating Layer accuracy
I0711 11:10:25.907523 27674 net.cpp:481] accuracy <- score
I0711 11:10:25.907528 27674 net.cpp:481] accuracy <- label
I0711 11:10:25.907534 27674 net.cpp:455] accuracy -> segmentation_eval
I0711 11:10:25.907564 27674 net.cpp:190] Setting up accuracy
I0711 11:10:25.907572 27674 net.cpp:197] Top shape: 3 19 (57)
I0711 11:10:25.907574 27674 net.cpp:205] Memory required for data: 1561329892
I0711 11:10:25.907578 27674 net.cpp:268] accuracy does not need backward computation.
I0711 11:10:25.907588 27674 net.cpp:268] score does not need backward computation.
I0711 11:10:25.907591 27674 net.cpp:268] ConvNd_91 does not need backward computation.
I0711 11:10:25.907595 27674 net.cpp:268] Threshold_113 does not need backward computation.
…
