…
I0711 11:21:37.075647 27972 net.cpp:98] Initializing net from parameters: 
state {
  phase: TRAIN
}
layer {
  name: "data"
  type: "ImageData"
  top: "data"
  top: "label"
  include {
    phase: TRAIN
  }
  transform_param {
    scale: 0.022
    mean_value: 73
    mean_value: 82
    mean_value: 72
    resize_param {
      prob: 1
      resize_mode: WARP
      height: 512
      width: 1024
    }
  }
  image_data_param {
    source: "../data/cityscapes/calibration.txt"
    batch_size: 1
    shuffle: true
    new_height: 512
    new_width: 1024
    root_folder: "../data/cityscapes/calibration_images/"
  }
}
layer {
  name: "ConvNd_1"
  type: "Convolution"
  bottom: "data"
  top: "ConvNd_1"
  convolution_param {
    num_output: 13
    bias_term: false
    pad: 1
    kernel_size: 3
    group: 1
    stride: 2
    dilation: 1
  }
}
layer {
  name: "MaxPool2d_1"
  type: "Pooling"
  bottom: "data"
  top: "MaxPool2d_1"
  pooling_param {
    pool: MAX
    kernel_size: 3
    stride: 2
    pad: 0
  }
}
layer {
  name: "Concat_1"
  type: "Concat"
  bottom: "ConvNd_1"
  bottom: "MaxPool2d_1"
  top: "Concat_1"
  concat_param {
    axis: 1
  }
}
layer {
  name: "BatchNorm_1"
  type: "BatchNorm"
  bottom: "Concat_1"
  top: "BatchNorm_1"
  param {
    lr_mult: 1
    decay_mult: 0
  }
  param {
    lr_mult: 1
    decay_mult: 0
  }
  param {
    lr_mult: 0
    decay_mult: 0
  }
  param {
    lr_mult: 0
    decay_mult: 0
  }
  batch_norm_param {
    use_global_stats: false
    eps: 1e-05
    scale_filler {
      type: "constant"
      value: 1
    }
    bias_filler {
      type: "constant"
      value: 0
    }
  }
}
layer {
  name: "Threshold_1"
  type: "ReLU"
  bottom: "BatchNorm_1"
  top: "BatchNorm_1"
}
layer {
  name: "MaxPool2d_2"
  type: "Pooling"
  bottom: "BatchNorm_1"
  top: "MaxPool2d_2"
  pooling_param {
    pool: MAX
    kernel_size: 3
    stride: 2
    pad: 0
  }
}
layer {
  name: "ConvNd_2"
  type: "Convolution"
  bottom: "MaxPool2d_2"
  top: "ConvNd_2"
  convolution_param {
    num_output: 64
    bias_term: false
    pad: 0
    kernel_size: 1
    group: 1
    stride: 1
    dilation: 1
  }
}
layer {
  name: "ConvNd_3"
  type: "Convolution"
  bottom: "BatchNorm_1"
  top: "ConvNd_3"
  convolution_param {
    num_output: 16
    bias_term: false
    pad: 0
    kernel_size: 2
    group: 1
    stride: 2
    dilation: 1
  }
}
layer {
  name: "BatchNorm_2"
  type: "BatchNorm"
  bottom: "ConvNd_3"
  top: "BatchNorm_2"
  param {
    lr_mult: 1
    decay_mult: 0
  }
  param {
    lr_mult: 1
    decay_mult: 0
  }
  param {
    lr_mult: 0
    decay_mult: 0
  }
  param {
    lr_mult: 0
    decay_mult: 0
  }
  batch_norm_param {
    use_global_stats: false
    eps: 1e-05
    scale_filler {
      type: "constant"
      value: 1
    }
    bias_filler {
      type: "constant"
      value: 0
    }
  }
}
layer {
  name: "Threshold_2"
  type: "ReLU"
  bottom: "BatchNorm_2"
  top: "BatchNorm_2"
}
layer {
  name: "ConvNd_4"
  type: "Convolution"
  bottom: "BatchNorm_2"
  top: "ConvNd_4"
  convolution_param {
    num_output: 16
    bias_term: false
    pad: 1
    kernel_size: 3
    group: 1
    stride: 1
    dilation: 1
  }
}
layer {
  name: "BatchNorm_3"
  type: "BatchNorm"
  bottom: "ConvNd_4"
  top: "BatchNorm_3"
  param {
    lr_mult: 1
    decay_mult: 0
  }
  param {
    lr_mult: 1
    decay_mult: 0
  }
  param {
    lr_mult: 0
    decay_mult: 0
  }
  param {
    lr_mult: 0
    decay_mult: 0
  }
  batch_norm_param {
    use_global_stats: false
    eps: 1e-05
    scale_filler {
      type: "constant"
      value: 1
    }
    bias_filler {
      type: "constant"
      value: 0
    }
  }
}
layer {
  name: "Threshold_3"
  type: "ReLU"
  bottom: "BatchNorm_3"
  top: "BatchNorm_3"
}
layer {
  name: "ConvNd_5"
  type: "Convolution"
  bottom: "BatchNorm_3"
  top: "ConvNd_5"
  convolution_param {
    num_output: 64
    bias_term: false
    pad: 0
    kernel_size: 1
    group: 1
    stride: 1
    dilation: 1
  }
}
layer {
  name: "BatchNorm_4"
  type: "BatchNorm"
  bottom: "ConvNd_5"
  top: "BatchNorm_4"
  param {
    lr_mult: 1
    decay_mult: 0
  }
  param {
    lr_mult: 1
    decay_mult: 0
  }
  param {
    lr_mult: 0
    decay_mult: 0
  }
  param {
    lr_mult: 0
    decay_mult: 0
  }
  batch_norm_param {
    use_global_stats: false
    eps: 1e-05
    scale_filler {
      type: "constant"
      value: 1
    }
    bias_filler {
      type: "constant"
      value: 0
    }
  }
}
layer {
  name: "Threshold_4"
  type: "ReLU"
  bottom: "BatchNorm_4"
  top: "BatchNorm_4"
}
layer {
  name: "Add_1"
  type: "Eltwise"
  bottom: "ConvNd_2"
  bottom: "BatchNorm_4"
  top: "Add_1"
}
layer {
  name: "Threshold_5"
  type: "ReLU"
  bottom: "Add_1"
  top: "Add_1"
}
layer {
  name: "ConvNd_6"
  type: "Convolution"
  bottom: "Add_1"
  top: "ConvNd_6"
  convolution_param {
    num_output: 16
    bias_term: false
    pad: 0
    kernel_size: 1
    group: 1
    stride: 1
    dilation: 1
  }
}
layer {
  name: "BatchNorm_5"
  type: "BatchNorm"
  bottom: "ConvNd_6"
  top: "BatchNorm_5"
  param {
    lr_mult: 1
    decay_mult: 0
  }
  param {
    lr_mult: 1
    decay_mult: 0
  }
  param {
    lr_mult: 0
    decay_mult: 0
  }
  param {
    lr_mult: 0
    decay_mult: 0
  }
  batch_norm_param {
    use_global_stats: false
    eps: 1e-05
    scale_filler {
      type: "constant"
      value: 1
    }
    bias_filler {
      type: "constant"
      value: 0
    }
  }
}
layer {
  name: "Threshold_6"
  type: "ReLU"
  bottom: "BatchNorm_5"
  top: "BatchNorm_5"
}
layer {
  name: "ConvNd_7"
  type: "Convolution"
  bottom: "BatchNorm_5"
  top: "ConvNd_7"
  convolution_param {
    num_output: 16
    bias_term: false
    pad: 1
    kernel_size: 3
    group: 1
    stride: 1
    dilation: 1
  }
}
layer {
  name: "BatchNorm_6"
  type: "BatchNorm"
  bottom: "ConvNd_7"
  top: "BatchNorm_6"
  param {
    lr_mult: 1
    decay_mult: 0
  }
  param {
    lr_mult: 1
    decay_mult: 0
  }
  param {
    lr_mult: 0
    decay_mult: 0
  }
  param {
    lr_mult: 0
    decay_mult: 0
  }
  batch_norm_param {
    use_global_stats: false
    eps: 1e-05
    scale_filler {
      type: "constant"
      value: 1
    }
    bias_filler {
      type: "constant"
      value: 0
    }
  }
}
layer {
  name: "Threshold_7"
  type: "ReLU"
  bottom: "BatchNorm_6"
  top: "BatchNorm_6"
}
layer {
  name: "ConvNd_8"
  type: "Convolution"
  bottom: "BatchNorm_6"
  top: "ConvNd_8"
  convolution_param {
    num_output: 64
    bias_term: false
    pad: 0
    kernel_size: 1
    group: 1
    stride: 1
    dilation: 1
  }
}
layer {
  name: "BatchNorm_7"
  type: "BatchNorm"
  bottom: "ConvNd_8"
  top: "BatchNorm_7"
  param {
    lr_mult: 1
    decay_mult: 0
  }
  param {
    lr_mult: 1
    decay_mult: 0
  }
  param {
    lr_mult: 0
    decay_mult: 0
  }
  param {
    lr_mult: 0
    decay_mult: 0
  }
  batch_norm_param {
    use_global_stats: false
    eps: 1e-05
    scale_filler {
      type: "constant"
      value: 1
    }
    bias_filler {
      type: "constant"
      value: 0
    }
  }
}
layer {
  name: "Threshold_8"
  type: "ReLU"
  bottom: "BatchNorm_7"
  top: "BatchNorm_7"
}
layer {
  name: "Add_2"
  type: "Eltwise"
  bottom: "Add_1"
  bottom: "BatchNorm_7"
  top: "Add_2"
}
layer {
  name: "Threshold_9"
  type: "ReLU"
  bottom: "Add_2"
  top: "Add_2"
}
layer {
  name: "ConvNd_9"
  type: "Convolution"
  bottom: "Add_2"
  top: "ConvNd_9"
  convolution_param {
    num_output: 16
    bias_term: false
    pad: 0
    kernel_size: 1
    group: 1
    stride: 1
    dilation: 1
  }
}
layer {
  name: "BatchNorm_8"
  type: "BatchNorm"
  bottom: "ConvNd_9"
  top: "BatchNorm_8"
  param {
    lr_mult: 1
    decay_mult: 0
  }
  param {
    lr_mult: 1
    decay_mult: 0
  }
  param {
    lr_mult: 0
    decay_mult: 0
  }
  param {
    lr_mult: 0
    decay_mult: 0
  }
  batch_norm_param {
    use_global_stats: false
    eps: 1e-05
    scale_filler {
      type: "constant"
      value: 1
    }
    bias_filler {
      type: "constant"
      value: 0
    }
  }
}
layer {
  name: "Threshold_10"
  type: "ReLU"
  bottom: "BatchNorm_8"
  top: "BatchNorm_8"
}
layer {
  name: "ConvNd_10"
  type: "Convolution"
  bottom: "BatchNorm_8"
  top: "ConvNd_10"
  convolution_param {
    num_output: 16
    bias_term: false
    pad: 1
    kernel_size: 3
    group: 1
    stride: 1
    dilation: 1
  }
}
layer {
  name: "BatchNorm_9"
  type: "BatchNorm"
  bottom: "ConvNd_10"
  top: "BatchNorm_9"
  param {
    lr_mult: 1
    decay_mult: 0
  }
  param {
    lr_mult: 1
    decay_mult: 0
  }
  param {
    lr_mult: 0
    decay_mult: 0
  }
  param {
    lr_mult: 0
    decay_mult: 0
  }
  batch_norm_param {
    use_global_stats: false
    eps: 1e-05
    scale_filler {
      type: "constant"
      value: 1
    }
    bias_filler {
      type: "constant"
      value: 0
    }
  }
}
layer {
  name: "Threshold_11"
  type: "ReLU"
  bottom: "BatchNorm_9"
  top: "BatchNorm_9"
}
layer {
  name: "ConvNd_11"
  type: "Convolution"
  bottom: "BatchNorm_9"
  top: "ConvNd_11"
  convolution_param {
    num_output: 64
    bias_term: false
    pad: 0
    kernel_size: 1
    group: 1
    stride: 1
    dilation: 1
  }
}
layer {
  name: "BatchNorm_10"
  type: "BatchNorm"
  bottom: "ConvNd_11"
  top: "BatchNorm_10"
  param {
    lr_mult: 1
    decay_mult: 0
  }
  param {
    lr_mult: 1
    decay_mult: 0
  }
  param {
    lr_mult: 0
    decay_mult: 0
  }
  param {
    lr_mult: 0
    decay_mult: 0
  }
  batch_norm_param {
    use_global_stats: false
    eps: 1e-05
    scale_filler {
      type: "constant"
      value: 1
    }
    bias_filler {
      type: "constant"
      value: 0
    }
  }
}
layer {
  name: "Threshold_12"
  type: "ReLU"
  bottom: "BatchNorm_10"
  top: "BatchNorm_10"
}
layer {
  name: "Add_3"
  type: "Eltwise"
  bottom: "Add_2"
  bottom: "BatchNorm_10"
  top: "Add_3"
}
layer {
  name: "Threshold_13"
  type: "ReLU"
  bottom: "Add_3"
  top: "Add_3"
}
layer {
  name: "ConvNd_12"
  type: "Convolution"
  bottom: "Add_3"
  top: "ConvNd_12"
  convolution_param {
    num_output: 16
    bias_term: false
    pad: 0
    kernel_size: 1
    group: 1
    stride: 1
    dilation: 1
  }
}
layer {
  name: "BatchNorm_11"
  type: "BatchNorm"
  bottom: "ConvNd_12"
  top: "BatchNorm_11"
  param {
    lr_mult: 1
    decay_mult: 0
  }
  param {
    lr_mult: 1
    decay_mult: 0
  }
  param {
    lr_mult: 0
    decay_mult: 0
  }
  param {
    lr_mult: 0
    decay_mult: 0
  }
  batch_norm_param {
    use_global_stats: false
    eps: 1e-05
    scale_filler {
      type: "constant"
      value: 1
    }
    bias_filler {
      type: "constant"
      value: 0
    }
  }
}
layer {
  name: "Threshold_14"
  type: "ReLU"
  bottom: "BatchNorm_11"
  top: "BatchNorm_11"
}
layer {
  name: "ConvNd_13"
  type: "Convolution"
  bottom: "BatchNorm_11"
  top: "ConvNd_13"
  convolution_param {
    num_output: 16
    bias_term: false
    pad: 1
    kernel_size: 3
    group: 1
    stride: 1
    dilation: 1
  }
}
layer {
  name: "BatchNorm_12"
  type: "BatchNorm"
  bottom: "ConvNd_13"
  top: "BatchNorm_12"
  param {
    lr_mult: 1
    decay_mult: 0
  }
  param {
    lr_mult: 1
    decay_mult: 0
  }
  param {
    lr_mult: 0
    decay_mult: 0
  }
  param {
    lr_mult: 0
    decay_mult: 0
  }
  batch_norm_param {
    use_global_stats: false
    eps: 1e-05
    scale_filler {
      type: "constant"
      value: 1
    }
    bias_filler {
      type: "constant"
      value: 0
    }
  }
}
layer {
  name: "Threshold_15"
  type: "ReLU"
  bottom: "BatchNorm_12"
  top: "BatchNorm_12"
}
layer {
  name: "ConvNd_14"
  type: "Convolution"
  bottom: "BatchNorm_12"
  top: "ConvNd_14"
  convolution_param {
    num_output: 64
    bias_term: false
    pad: 0
    kernel_size: 1
    group: 1
    stride: 1
    dilation: 1
  }
}
layer {
  name: "BatchNorm_13"
  type: "BatchNorm"
  bottom: "ConvNd_14"
  top: "BatchNorm_13"
  param {
    lr_mult: 1
    decay_mult: 0
  }
  param {
    lr_mult: 1
    decay_mult: 0
  }
  param {
    lr_mult: 0
    decay_mult: 0
  }
  param {
    lr_mult: 0
    decay_mult: 0
  }
  batch_norm_param {
    use_global_stats: false
    eps: 1e-05
    scale_filler {
      type: "constant"
      value: 1
    }
    bias_filler {
      type: "constant"
      value: 0
    }
  }
}
layer {
  name: "Threshold_16"
  type: "ReLU"
  bottom: "BatchNorm_13"
  top: "BatchNorm_13"
}
layer {
  name: "Add_4"
  type: "Eltwise"
  bottom: "Add_3"
  bottom: "BatchNorm_13"
  top: "Add_4"
}
layer {
  name: "Threshold_17"
  type: "ReLU"
  bottom: "Add_4"
  top: "Add_4"
}
layer {
  name: "ConvNd_15"
  type: "Convolution"
  bottom: "Add_4"
  top: "ConvNd_15"
  convolution_param {
    num_output: 16
    bias_term: false
    pad: 0
    kernel_size: 1
    group: 1
    stride: 1
    dilation: 1
  }
}
layer {
  name: "BatchNorm_14"
  type: "BatchNorm"
  bottom: "ConvNd_15"
  top: "BatchNorm_14"
  param {
    lr_mult: 1
    decay_mult: 0
  }
  param {
    lr_mult: 1
    decay_mult: 0
  }
  param {
    lr_mult: 0
    decay_mult: 0
  }
  param {
    lr_mult: 0
    decay_mult: 0
  }
  batch_norm_param {
    use_global_stats: false
    eps: 1e-05
    scale_filler {
      type: "constant"
      value: 1
    }
    bias_filler {
      type: "constant"
      value: 0
    }
  }
}
layer {
  name: "Threshold_18"
  type: "ReLU"
  bottom: "BatchNorm_14"
  top: "BatchNorm_14"
}
layer {
  name: "ConvNd_16"
  type: "Convolution"
  bottom: "BatchNorm_14"
  top: "ConvNd_16"
  convolution_param {
    num_output: 16
    bias_term: false
    pad: 1
    kernel_size: 3
    group: 1
    stride: 1
    dilation: 1
  }
}
layer {
  name: "BatchNorm_15"
  type: "BatchNorm"
  bottom: "ConvNd_16"
  top: "BatchNorm_15"
  param {
    lr_mult: 1
    decay_mult: 0
  }
  param {
    lr_mult: 1
    decay_mult: 0
  }
  param {
    lr_mult: 0
    decay_mult: 0
  }
  param {
    lr_mult: 0
    decay_mult: 0
  }
  batch_norm_param {
    use_global_stats: false
    eps: 1e-05
    scale_filler {
      type: "constant"
      value: 1
    }
    bias_filler {
      type: "constant"
      value: 0
    }
  }
}
layer {
  name: "Threshold_19"
  type: "ReLU"
  bottom: "BatchNorm_15"
  top: "BatchNorm_15"
}
layer {
  name: "ConvNd_17"
  type: "Convolution"
  bottom: "BatchNorm_15"
  top: "ConvNd_17"
  convolution_param {
    num_output: 64
    bias_term: false
    pad: 0
    kernel_size: 1
    group: 1
    stride: 1
    dilation: 1
  }
}
layer {
  name: "BatchNorm_16"
  type: "BatchNorm"
  bottom: "ConvNd_17"
  top: "BatchNorm_16"
  param {
    lr_mult: 1
    decay_mult: 0
  }
  param {
    lr_mult: 1
    decay_mult: 0
  }
  param {
    lr_mult: 0
    decay_mult: 0
  }
  param {
    lr_mult: 0
    decay_mult: 0
  }
  batch_norm_param {
    use_global_stats: false
    eps: 1e-05
    scale_filler {
      type: "constant"
      value: 1
    }
    bias_filler {
      type: "constant"
      value: 0
    }
  }
}
layer {
  name: "Threshold_20"
  type: "ReLU"
  bottom: "BatchNorm_16"
  top: "BatchNorm_16"
}
layer {
  name: "Add_5"
  type: "Eltwise"
  bottom: "Add_4"
  bottom: "BatchNorm_16"
  top: "Add_5"
}
layer {
  name: "Threshold_21"
  type: "ReLU"
  bottom: "Add_5"
  top: "Add_5"
}
layer {
  name: "MaxPool2d_3"
  type: "Pooling"
  bottom: "Add_5"
  top: "MaxPool2d_3"
  pooling_param {
    pool: MAX
    kernel_size: 3
    stride: 2
    pad: 0
  }
}
layer {
  name: "ConvNd_18"
  type: "Convolution"
  bottom: "MaxPool2d_3"
  top: "ConvNd_18"
  convolution_param {
    num_output: 128
    bias_term: false
    pad: 0
    kernel_size: 1
    group: 1
    stride: 1
    dilation: 1
  }
}
layer {
  name: "ConvNd_19"
  type: "Convolution"
  bottom: "Add_5"
  top: "ConvNd_19"
  convolution_param {
    num_output: 32
    bias_term: false
    pad: 0
    kernel_size: 2
    group: 1
    stride: 2
    dilation: 1
  }
}
layer {
  name: "BatchNorm_17"
  type: "BatchNorm"
  bottom: "ConvNd_19"
  top: "BatchNorm_17"
  param {
    lr_mult: 1
    decay_mult: 0
  }
  param {
    lr_mult: 1
    decay_mult: 0
  }
  param {
    lr_mult: 0
    decay_mult: 0
  }
  param {
    lr_mult: 0
    decay_mult: 0
  }
  batch_norm_param {
    use_global_stats: false
    eps: 1e-05
    scale_filler {
      type: "constant"
      value: 1
    }
    bias_filler {
      type: "constant"
      value: 0
    }
  }
}
layer {
  name: "Threshold_22"
  type: "ReLU"
  bottom: "BatchNorm_17"
  top: "BatchNorm_17"
}
layer {
  name: "ConvNd_20"
  type: "Convolution"
  bottom: "BatchNorm_17"
  top: "ConvNd_20"
  convolution_param {
    num_output: 32
    bias_term: false
    pad: 1
    kernel_size: 3
    group: 1
    stride: 1
    dilation: 1
  }
}
layer {
  name: "BatchNorm_18"
  type: "BatchNorm"
  bottom: "ConvNd_20"
  top: "BatchNorm_18"
  param {
    lr_mult: 1
    decay_mult: 0
  }
  param {
    lr_mult: 1
    decay_mult: 0
  }
  param {
    lr_mult: 0
    decay_mult: 0
  }
  param {
    lr_mult: 0
    decay_mult: 0
  }
  batch_norm_param {
    use_global_stats: false
    eps: 1e-05
    scale_filler {
      type: "constant"
      value: 1
    }
    bias_filler {
      type: "constant"
      value: 0
    }
  }
}
layer {
  name: "Threshold_23"
  type: "ReLU"
  bottom: "BatchNorm_18"
  top: "BatchNorm_18"
}
layer {
  name: "ConvNd_21"
  type: "Convolution"
  bottom: "BatchNorm_18"
  top: "ConvNd_21"
  convolution_param {
    num_output: 128
    bias_term: false
    pad: 0
    kernel_size: 1
    group: 1
    stride: 1
    dilation: 1
  }
}
layer {
  name: "BatchNorm_19"
  type: "BatchNorm"
  bottom: "ConvNd_21"
  top: "BatchNorm_19"
  param {
    lr_mult: 1
    decay_mult: 0
  }
  param {
    lr_mult: 1
    decay_mult: 0
  }
  param {
    lr_mult: 0
    decay_mult: 0
  }
  param {
    lr_mult: 0
    decay_mult: 0
  }
  batch_norm_param {
    use_global_stats: false
    eps: 1e-05
    scale_filler {
      type: "constant"
      value: 1
    }
    bias_filler {
      type: "constant"
      value: 0
    }
  }
}
layer {
  name: "Threshold_24"
  type: "ReLU"
  bottom: "BatchNorm_19"
  top: "BatchNorm_19"
}
layer {
  name: "Add_6"
  type: "Eltwise"
  bottom: "ConvNd_18"
  bottom: "BatchNorm_19"
  top: "Add_6"
}
layer {
  name: "Threshold_25"
  type: "ReLU"
  bottom: "Add_6"
  top: "Add_6"
}
layer {
  name: "ConvNd_22"
  type: "Convolution"
  bottom: "Add_6"
  top: "ConvNd_22"
  convolution_param {
    num_output: 32
    bias_term: false
    pad: 0
    kernel_size: 1
    group: 1
    stride: 1
    dilation: 1
  }
}
layer {
  name: "BatchNorm_20"
  type: "BatchNorm"
  bottom: "ConvNd_22"
  top: "BatchNorm_20"
  param {
    lr_mult: 1
    decay_mult: 0
  }
  param {
    lr_mult: 1
    decay_mult: 0
  }
  param {
    lr_mult: 0
    decay_mult: 0
  }
  param {
    lr_mult: 0
    decay_mult: 0
  }
  batch_norm_param {
    use_global_stats: false
    eps: 1e-05
    scale_filler {
      type: "constant"
      value: 1
    }
    bias_filler {
      type: "constant"
      value: 0
    }
  }
}
layer {
  name: "Threshold_26"
  type: "ReLU"
  bottom: "BatchNorm_20"
  top: "BatchNorm_20"
}
layer {
  name: "ConvNd_23"
  type: "Convolution"
  bottom: "BatchNorm_20"
  top: "ConvNd_23"
  convolution_param {
    num_output: 32
    bias_term: false
    pad: 1
    kernel_size: 3
    group: 1
    stride: 1
    dilation: 1
  }
}
layer {
  name: "BatchNorm_21"
  type: "BatchNorm"
  bottom: "ConvNd_23"
  top: "BatchNorm_21"
  param {
    lr_mult: 1
    decay_mult: 0
  }
  param {
    lr_mult: 1
    decay_mult: 0
  }
  param {
    lr_mult: 0
    decay_mult: 0
  }
  param {
    lr_mult: 0
    decay_mult: 0
  }
  batch_norm_param {
    use_global_stats: false
    eps: 1e-05
    scale_filler {
      type: "constant"
      value: 1
    }
    bias_filler {
      type: "constant"
      value: 0
    }
  }
}
layer {
  name: "Threshold_27"
  type: "ReLU"
  bottom: "BatchNorm_21"
  top: "BatchNorm_21"
}
layer {
  name: "ConvNd_24"
  type: "Convolution"
  bottom: "BatchNorm_21"
  top: "ConvNd_24"
  convolution_param {
    num_output: 128
    bias_term: false
    pad: 0
    kernel_size: 1
    group: 1
    stride: 1
    dilation: 1
  }
}
layer {
  name: "BatchNorm_22"
  type: "BatchNorm"
  bottom: "ConvNd_24"
  top: "BatchNorm_22"
  param {
    lr_mult: 1
    decay_mult: 0
  }
  param {
    lr_mult: 1
    decay_mult: 0
  }
  param {
    lr_mult: 0
    decay_mult: 0
  }
  param {
    lr_mult: 0
    decay_mult: 0
  }
  batch_norm_param {
    use_global_stats: false
    eps: 1e-05
    scale_filler {
      type: "constant"
      value: 1
    }
    bias_filler {
      type: "constant"
      value: 0
    }
  }
}
layer {
  name: "Threshold_28"
  type: "ReLU"
  bottom: "BatchNorm_22"
  top: "BatchNorm_22"
}
layer {
  name: "Add_7"
  type: "Eltwise"
  bottom: "Add_6"
  bottom: "BatchNorm_22"
  top: "Add_7"
}
layer {
  name: "Threshold_29"
  type: "ReLU"
  bottom: "Add_7"
  top: "Add_7"
}
layer {
  name: "ConvNd_25"
  type: "Convolution"
  bottom: "Add_7"
  top: "ConvNd_25"
  convolution_param {
    num_output: 32
    bias_term: false
    pad: 0
    kernel_size: 1
    group: 1
    stride: 1
    dilation: 1
  }
}
layer {
  name: "BatchNorm_23"
  type: "BatchNorm"
  bottom: "ConvNd_25"
  top: "BatchNorm_23"
  param {
    lr_mult: 1
    decay_mult: 0
  }
  param {
    lr_mult: 1
    decay_mult: 0
  }
  param {
    lr_mult: 0
    decay_mult: 0
  }
  param {
    lr_mult: 0
    decay_mult: 0
  }
  batch_norm_param {
    use_global_stats: false
    eps: 1e-05
    scale_filler {
      type: "constant"
      value: 1
    }
    bias_filler {
      type: "constant"
      value: 0
    }
  }
}
layer {
  name: "Threshold_30"
  type: "ReLU"
  bottom: "BatchNorm_23"
  top: "BatchNorm_23"
}
layer {
  name: "ConvNd_26"
  type: "Convolution"
  bottom: "BatchNorm_23"
  top: "ConvNd_26"
  convolution_param {
    num_output: 32
    bias_term: false
    pad: 2
    kernel_size: 3
    group: 1
    stride: 1
    dilation: 2
  }
}
layer {
  name: "BatchNorm_24"
  type: "BatchNorm"
  bottom: "ConvNd_26"
  top: "BatchNorm_24"
  param {
    lr_mult: 1
    decay_mult: 0
  }
  param {
    lr_mult: 1
    decay_mult: 0
  }
  param {
    lr_mult: 0
    decay_mult: 0
  }
  param {
    lr_mult: 0
    decay_mult: 0
  }
  batch_norm_param {
    use_global_stats: false
    eps: 1e-05
    scale_filler {
      type: "constant"
      value: 1
    }
    bias_filler {
      type: "constant"
      value: 0
    }
  }
}
layer {
  name: "Threshold_31"
  type: "ReLU"
  bottom: "BatchNorm_24"
  top: "BatchNorm_24"
}
layer {
  name: "ConvNd_27"
  type: "Convolution"
  bottom: "BatchNorm_24"
  top: "ConvNd_27"
  convolution_param {
    num_output: 128
    bias_term: false
    pad: 0
    kernel_size: 1
    group: 1
    stride: 1
    dilation: 1
  }
}
layer {
  name: "BatchNorm_25"
  type: "BatchNorm"
  bottom: "ConvNd_27"
  top: "BatchNorm_25"
  param {
    lr_mult: 1
    decay_mult: 0
  }
  param {
    lr_mult: 1
    decay_mult: 0
  }
  param {
    lr_mult: 0
    decay_mult: 0
  }
  param {
    lr_mult: 0
    decay_mult: 0
  }
  batch_norm_param {
    use_global_stats: false
    eps: 1e-05
    scale_filler {
      type: "constant"
      value: 1
    }
    bias_filler {
      type: "constant"
      value: 0
    }
  }
}
layer {
  name: "Threshold_32"
  type: "ReLU"
  bottom: "BatchNorm_25"
  top: "BatchNorm_25"
}
layer {
  name: "Add_8"
  type: "Eltwise"
  bottom: "Add_7"
  bottom: "BatchNorm_25"
  top: "Add_8"
}
layer {
  name: "Threshold_33"
  type: "ReLU"
  bottom: "Add_8"
  top: "Add_8"
}
layer {
  name: "ConvNd_28"
  type: "Convolution"
  bottom: "Add_8"
  top: "ConvNd_28"
  convolution_param {
    num_output: 32
    bias_term: false
    pad: 0
    kernel_size: 1
    group: 1
    stride: 1
    dilation: 1
  }
}
layer {
  name: "BatchNorm_26"
  type: "BatchNorm"
  bottom: "ConvNd_28"
  top: "BatchNorm_26"
  param {
    lr_mult: 1
    decay_mult: 0
  }
  param {
    lr_mult: 1
    decay_mult: 0
  }
  param {
    lr_mult: 0
    decay_mult: 0
  }
  param {
    lr_mult: 0
    decay_mult: 0
  }
  batch_norm_param {
    use_global_stats: false
    eps: 1e-05
    scale_filler {
      type: "constant"
      value: 1
    }
    bias_filler {
      type: "constant"
      value: 0
    }
  }
}
layer {
  name: "Threshold_34"
  type: "ReLU"
  bottom: "BatchNorm_26"
  top: "BatchNorm_26"
}
layer {
  name: "ConvNd_29"
  type: "Convolution"
  bottom: "BatchNorm_26"
  top: "ConvNd_29"
  convolution_param {
    num_output: 32
    bias_term: false
    group: 1
    stride: 1
    pad_h: 2
    pad_w: 0
    kernel_h: 5
    kernel_w: 1
    dilation: 1
  }
}
layer {
  name: "BatchNorm_27"
  type: "BatchNorm"
  bottom: "ConvNd_29"
  top: "BatchNorm_27"
  param {
    lr_mult: 1
    decay_mult: 0
  }
  param {
    lr_mult: 1
    decay_mult: 0
  }
  param {
    lr_mult: 0
    decay_mult: 0
  }
  param {
    lr_mult: 0
    decay_mult: 0
  }
  batch_norm_param {
    use_global_stats: false
    eps: 1e-05
    scale_filler {
      type: "constant"
      value: 1
    }
    bias_filler {
      type: "constant"
      value: 0
    }
  }
}
layer {
  name: "Threshold_35"
  type: "ReLU"
  bottom: "BatchNorm_27"
  top: "BatchNorm_27"
}
layer {
  name: "ConvNd_30"
  type: "Convolution"
  bottom: "BatchNorm_27"
  top: "ConvNd_30"
  convolution_param {
    num_output: 32
    bias_term: false
    group: 1
    stride: 1
    pad_h: 0
    pad_w: 2
    kernel_h: 1
    kernel_w: 5
    dilation: 1
  }
}
layer {
  name: "BatchNorm_28"
  type: "BatchNorm"
  bottom: "ConvNd_30"
  top: "BatchNorm_28"
  param {
    lr_mult: 1
    decay_mult: 0
  }
  param {
    lr_mult: 1
    decay_mult: 0
  }
  param {
    lr_mult: 0
    decay_mult: 0
  }
  param {
    lr_mult: 0
    decay_mult: 0
  }
  batch_norm_param {
    use_global_stats: false
    eps: 1e-05
    scale_filler {
      type: "constant"
      value: 1
    }
    bias_filler {
      type: "constant"
      value: 0
    }
  }
}
layer {
  name: "Threshold_36"
  type: "ReLU"
  bottom: "BatchNorm_28"
  top: "BatchNorm_28"
}
layer {
  name: "ConvNd_31"
  type: "Convolution"
  bottom: "BatchNorm_28"
  top: "ConvNd_31"
  convolution_param {
    num_output: 128
    bias_term: false
    pad: 0
    kernel_size: 1
    group: 1
    stride: 1
    dilation: 1
  }
}
layer {
  name: "BatchNorm_29"
  type: "BatchNorm"
  bottom: "ConvNd_31"
  top: "BatchNorm_29"
  param {
    lr_mult: 1
    decay_mult: 0
  }
  param {
    lr_mult: 1
    decay_mult: 0
  }
  param {
    lr_mult: 0
    decay_mult: 0
  }
  param {
    lr_mult: 0
    decay_mult: 0
  }
  batch_norm_param {
    use_global_stats: false
    eps: 1e-05
    scale_filler {
      type: "constant"
      value: 1
    }
    bias_filler {
      type: "constant"
      value: 0
    }
  }
}
layer {
  name: "Threshold_37"
  type: "ReLU"
  bottom: "BatchNorm_29"
  top: "BatchNorm_29"
}
layer {
  name: "Add_9"
  type: "Eltwise"
  bottom: "Add_8"
  bottom: "BatchNorm_29"
  top: "Add_9"
}
layer {
  name: "Threshold_38"
  type: "ReLU"
  bottom: "Add_9"
  top: "Add_9"
}
layer {
  name: "ConvNd_32"
  type: "Convolution"
  bottom: "Add_9"
  top: "ConvNd_32"
  convolution_param {
    num_output: 32
    bias_term: false
    pad: 0
    kernel_size: 1
    group: 1
    stride: 1
    dilation: 1
  }
}
layer {
  name: "BatchNorm_30"
  type: "BatchNorm"
  bottom: "ConvNd_32"
  top: "BatchNorm_30"
  param {
    lr_mult: 1
    decay_mult: 0
  }
  param {
    lr_mult: 1
    decay_mult: 0
  }
  param {
    lr_mult: 0
    decay_mult: 0
  }
  param {
    lr_mult: 0
    decay_mult: 0
  }
  batch_norm_param {
    use_global_stats: false
    eps: 1e-05
    scale_filler {
      type: "constant"
      value: 1
    }
    bias_filler {
      type: "constant"
      value: 0
    }
  }
}
layer {
  name: "Threshold_39"
  type: "ReLU"
  bottom: "BatchNorm_30"
  top: "BatchNorm_30"
}
layer {
  name: "ConvNd_33"
  type: "Convolution"
  bottom: "BatchNorm_30"
  top: "ConvNd_33"
  convolution_param {
    num_output: 32
    bias_term: false
    pad: 4
    kernel_size: 3
    group: 1
    stride: 1
    dilation: 4
  }
}
layer {
  name: "BatchNorm_31"
  type: "BatchNorm"
  bottom: "ConvNd_33"
  top: "BatchNorm_31"
  param {
    lr_mult: 1
    decay_mult: 0
  }
  param {
    lr_mult: 1
    decay_mult: 0
  }
  param {
    lr_mult: 0
    decay_mult: 0
  }
  param {
    lr_mult: 0
    decay_mult: 0
  }
  batch_norm_param {
    use_global_stats: false
    eps: 1e-05
    scale_filler {
      type: "constant"
      value: 1
    }
    bias_filler {
      type: "constant"
      value: 0
    }
  }
}
layer {
  name: "Threshold_40"
  type: "ReLU"
  bottom: "BatchNorm_31"
  top: "BatchNorm_31"
}
layer {
  name: "ConvNd_34"
  type: "Convolution"
  bottom: "BatchNorm_31"
  top: "ConvNd_34"
  convolution_param {
    num_output: 128
    bias_term: false
    pad: 0
    kernel_size: 1
    group: 1
    stride: 1
    dilation: 1
  }
}
layer {
  name: "BatchNorm_32"
  type: "BatchNorm"
  bottom: "ConvNd_34"
  top: "BatchNorm_32"
  param {
    lr_mult: 1
    decay_mult: 0
  }
  param {
    lr_mult: 1
    decay_mult: 0
  }
  param {
    lr_mult: 0
    decay_mult: 0
  }
  param {
    lr_mult: 0
    decay_mult: 0
  }
  batch_norm_param {
    use_global_stats: false
    eps: 1e-05
    scale_filler {
      type: "constant"
      value: 1
    }
    bias_filler {
      type: "constant"
      value: 0
    }
  }
}
layer {
  name: "Threshold_41"
  type: "ReLU"
  bottom: "BatchNorm_32"
  top: "BatchNorm_32"
}
layer {
  name: "Add_10"
  type: "Eltwise"
  bottom: "Add_9"
  bottom: "BatchNorm_32"
  top: "Add_10"
}
layer {
  name: "Threshold_42"
  type: "ReLU"
  bottom: "Add_10"
  top: "Add_10"
}
layer {
  name: "ConvNd_35"
  type: "Convolution"
  bottom: "Add_10"
  top: "ConvNd_35"
  convolution_param {
    num_output: 32
    bias_term: false
    pad: 0
    kernel_size: 1
    group: 1
    stride: 1
    dilation: 1
  }
}
layer {
  name: "BatchNorm_33"
  type: "BatchNorm"
  bottom: "ConvNd_35"
  top: "BatchNorm_33"
  param {
    lr_mult: 1
    decay_mult: 0
  }
  param {
    lr_mult: 1
    decay_mult: 0
  }
  param {
    lr_mult: 0
    decay_mult: 0
  }
  param {
    lr_mult: 0
    decay_mult: 0
  }
  batch_norm_param {
    use_global_stats: false
    eps: 1e-05
    scale_filler {
      type: "constant"
      value: 1
    }
    bias_filler {
I0711 11:21:37.076623 27972 layer_factory.hpp:123] Creating layer data
I0711 11:21:37.076648 27972 net.cpp:140] Creating Layer data
I0711 11:21:37.076656 27972 net.cpp:455] data -> data
I0711 11:21:37.076665 27972 net.cpp:455] data -> label
I0711 11:21:37.076683 27972 image_data_layer.cpp:87] Opening file ../data/cityscapes/calibration.txt
I0711 11:21:37.076938 27972 image_data_layer.cpp:97] Shuffling data
I0711 11:21:37.076994 27972 image_data_layer.cpp:102] A total of 1000 images.
I0711 11:21:37.153503 27972 image_data_layer.cpp:130] output data size: 1,3,512,1024
I0711 11:21:37.196874 27972 internal_thread.cpp:73] Starting internal thread(s) on GPU 1
I0711 11:21:37.196949 27972 net.cpp:190] Setting up data
I0711 11:21:37.196959 27972 net.cpp:197] Top shape: 1 3 512 1024 (1572864)
I0711 11:21:37.196965 27972 net.cpp:197] Top shape: 1 (1)
I0711 11:21:37.196969 27972 net.cpp:205] Memory required for data: 6291460
I0711 11:21:37.196975 27972 layer_factory.hpp:123] Creating layer data_data_0_split
I0711 11:21:37.196986 27972 net.cpp:140] Creating Layer data_data_0_split
I0711 11:21:37.196990 27972 net.cpp:481] data_data_0_split <- data
I0711 11:21:37.197003 27972 net.cpp:455] data_data_0_split -> data_data_0_split_0
I0711 11:21:37.197013 27972 net.cpp:455] data_data_0_split -> data_data_0_split_1
I0711 11:21:37.197054 27972 net.cpp:190] Setting up data_data_0_split
I0711 11:21:37.197062 27972 net.cpp:197] Top shape: 1 3 512 1024 (1572864)
I0711 11:21:37.197065 27972 net.cpp:197] Top shape: 1 3 512 1024 (1572864)
I0711 11:21:37.197068 27972 net.cpp:205] Memory required for data: 18874372
I0711 11:21:37.197072 27972 layer_factory.hpp:123] Creating layer ConvNd_1
I0711 11:21:37.197082 27972 net.cpp:140] Creating Layer ConvNd_1
I0711 11:21:37.197084 27972 net.cpp:481] ConvNd_1 <- data_data_0_split_0
I0711 11:21:37.197089 27972 net.cpp:455] ConvNd_1 -> ConvNd_1
I0711 11:21:37.198108 27972 net.cpp:190] Setting up ConvNd_1
I0711 11:21:37.198120 27972 net.cpp:197] Top shape: 1 13 256 512 (1703936)
I0711 11:21:37.198123 27972 net.cpp:205] Memory required for data: 25690116
I0711 11:21:37.198135 27972 layer_factory.hpp:123] Creating layer MaxPool2d_1
I0711 11:21:37.198143 27972 net.cpp:140] Creating Layer MaxPool2d_1
I0711 11:21:37.198146 27972 net.cpp:481] MaxPool2d_1 <- data_data_0_split_1
I0711 11:21:37.198151 27972 net.cpp:455] MaxPool2d_1 -> MaxPool2d_1
I0711 11:21:37.198185 27972 net.cpp:190] Setting up MaxPool2d_1
I0711 11:21:37.198190 27972 net.cpp:197] Top shape: 1 3 256 512 (393216)
I0711 11:21:37.198194 27972 net.cpp:205] Memory required for data: 27262980
I0711 11:21:37.198196 27972 layer_factory.hpp:123] Creating layer Concat_1
I0711 11:21:37.198204 27972 net.cpp:140] Creating Layer Concat_1
I0711 11:21:37.198206 27972 net.cpp:481] Concat_1 <- ConvNd_1
I0711 11:21:37.198210 27972 net.cpp:481] Concat_1 <- MaxPool2d_1
I0711 11:21:37.198215 27972 net.cpp:455] Concat_1 -> Concat_1
I0711 11:21:37.198232 27972 net.cpp:190] Setting up Concat_1
I0711 11:21:37.198238 27972 net.cpp:197] Top shape: 1 16 256 512 (2097152)
I0711 11:21:37.198241 27972 net.cpp:205] Memory required for data: 35651588
I0711 11:21:37.198244 27972 layer_factory.hpp:123] Creating layer BatchNorm_1
I0711 11:21:37.198251 27972 net.cpp:140] Creating Layer BatchNorm_1
I0711 11:21:37.198256 27972 net.cpp:481] BatchNorm_1 <- Concat_1
I0711 11:21:37.198261 27972 net.cpp:455] BatchNorm_1 -> BatchNorm_1
I0711 11:21:37.200940 27972 net.cpp:190] Setting up BatchNorm_1
I0711 11:21:37.200951 27972 net.cpp:197] Top shape: 1 16 256 512 (2097152)
I0711 11:21:37.200954 27972 net.cpp:205] Memory required for data: 44040196
I0711 11:21:37.200968 27972 layer_factory.hpp:123] Creating layer Threshold_1
I0711 11:21:37.200974 27972 net.cpp:140] Creating Layer Threshold_1
I0711 11:21:37.200978 27972 net.cpp:481] Threshold_1 <- BatchNorm_1
I0711 11:21:37.200983 27972 net.cpp:442] Threshold_1 -> BatchNorm_1 (in-place)
I0711 11:21:37.200992 27972 net.cpp:190] Setting up Threshold_1
I0711 11:21:37.200996 27972 net.cpp:197] Top shape: 1 16 256 512 (2097152)
I0711 11:21:37.200999 27972 net.cpp:205] Memory required for data: 52428804
I0711 11:21:37.201002 27972 layer_factory.hpp:123] Creating layer BatchNorm_1_Threshold_1_0_split
I0711 11:21:37.201007 27972 net.cpp:140] Creating Layer BatchNorm_1_Threshold_1_0_split
I0711 11:21:37.201010 27972 net.cpp:481] BatchNorm_1_Threshold_1_0_split <- BatchNorm_1
I0711 11:21:37.201014 27972 net.cpp:455] BatchNorm_1_Threshold_1_0_split -> BatchNorm_1_Threshold_1_0_split_0
I0711 11:21:37.201022 27972 net.cpp:455] BatchNorm_1_Threshold_1_0_split -> BatchNorm_1_Threshold_1_0_split_1
I0711 11:21:37.201272 27972 net.cpp:190] Setting up BatchNorm_1_Threshold_1_0_split
I0711 11:21:37.201279 27972 net.cpp:197] Top shape: 1 16 256 512 (2097152)
I0711 11:21:37.201283 27972 net.cpp:197] Top shape: 1 16 256 512 (2097152)
I0711 11:21:37.201287 27972 net.cpp:205] Memory required for data: 69206020
I0711 11:21:37.201289 27972 layer_factory.hpp:123] Creating layer MaxPool2d_2
I0711 11:21:37.201295 27972 net.cpp:140] Creating Layer MaxPool2d_2
I0711 11:21:37.201299 27972 net.cpp:481] MaxPool2d_2 <- BatchNorm_1_Threshold_1_0_split_0
I0711 11:21:37.201304 27972 net.cpp:455] MaxPool2d_2 -> MaxPool2d_2
I0711 11:21:37.201344 27972 net.cpp:190] Setting up MaxPool2d_2
I0711 11:21:37.201350 27972 net.cpp:197] Top shape: 1 16 128 256 (524288)
I0711 11:21:37.201354 27972 net.cpp:205] Memory required for data: 71303172
I0711 11:21:37.201355 27972 layer_factory.hpp:123] Creating layer ConvNd_2
I0711 11:21:37.201362 27972 net.cpp:140] Creating Layer ConvNd_2
I0711 11:21:37.201366 27972 net.cpp:481] ConvNd_2 <- MaxPool2d_2
I0711 11:21:37.201371 27972 net.cpp:455] ConvNd_2 -> ConvNd_2
I0711 11:21:37.201588 27972 net.cpp:190] Setting up ConvNd_2
I0711 11:21:37.201596 27972 net.cpp:197] Top shape: 1 64 128 256 (2097152)
I0711 11:21:37.201599 27972 net.cpp:205] Memory required for data: 79691780
I0711 11:21:37.201604 27972 layer_factory.hpp:123] Creating layer ConvNd_3
I0711 11:21:37.201611 27972 net.cpp:140] Creating Layer ConvNd_3
I0711 11:21:37.201615 27972 net.cpp:481] ConvNd_3 <- BatchNorm_1_Threshold_1_0_split_1
I0711 11:21:37.201620 27972 net.cpp:455] ConvNd_3 -> ConvNd_3
I0711 11:21:37.201853 27972 net.cpp:190] Setting up ConvNd_3
I0711 11:21:37.201861 27972 net.cpp:197] Top shape: 1 16 128 256 (524288)
I0711 11:21:37.201864 27972 net.cpp:205] Memory required for data: 81788932
I0711 11:21:37.201869 27972 layer_factory.hpp:123] Creating layer BatchNorm_2
I0711 11:21:37.201875 27972 net.cpp:140] Creating Layer BatchNorm_2
I0711 11:21:37.201879 27972 net.cpp:481] BatchNorm_2 <- ConvNd_3
I0711 11:21:37.201884 27972 net.cpp:455] BatchNorm_2 -> BatchNorm_2
I0711 11:21:37.203678 27972 net.cpp:190] Setting up BatchNorm_2
I0711 11:21:37.203689 27972 net.cpp:197] Top shape: 1 16 128 256 (524288)
I0711 11:21:37.203692 27972 net.cpp:205] Memory required for data: 83886084
I0711 11:21:37.203703 27972 layer_factory.hpp:123] Creating layer Threshold_2
I0711 11:21:37.203711 27972 net.cpp:140] Creating Layer Threshold_2
I0711 11:21:37.203713 27972 net.cpp:481] Threshold_2 <- BatchNorm_2
I0711 11:21:37.203718 27972 net.cpp:442] Threshold_2 -> BatchNorm_2 (in-place)
I0711 11:21:37.203727 27972 net.cpp:190] Setting up Threshold_2
I0711 11:21:37.203730 27972 net.cpp:197] Top shape: 1 16 128 256 (524288)
I0711 11:21:37.203733 27972 net.cpp:205] Memory required for data: 85983236
I0711 11:21:37.203737 27972 layer_factory.hpp:123] Creating layer ConvNd_4
I0711 11:21:37.203743 27972 net.cpp:140] Creating Layer ConvNd_4
I0711 11:21:37.203745 27972 net.cpp:481] ConvNd_4 <- BatchNorm_2
I0711 11:21:37.203750 27972 net.cpp:455] ConvNd_4 -> ConvNd_4
I0711 11:21:37.204680 27972 net.cpp:190] Setting up ConvNd_4
I0711 11:21:37.204692 27972 net.cpp:197] Top shape: 1 16 128 256 (524288)
I0711 11:21:37.204695 27972 net.cpp:205] Memory required for data: 88080388
I0711 11:21:37.204700 27972 layer_factory.hpp:123] Creating layer BatchNorm_3
I0711 11:21:37.204707 27972 net.cpp:140] Creating Layer BatchNorm_3
I0711 11:21:37.204710 27972 net.cpp:481] BatchNorm_3 <- ConvNd_4
I0711 11:21:37.204717 27972 net.cpp:455] BatchNorm_3 -> BatchNorm_3
I0711 11:21:37.205328 27972 net.cpp:190] Setting up BatchNorm_3
I0711 11:21:37.205338 27972 net.cpp:197] Top shape: 1 16 128 256 (524288)
I0711 11:21:37.205340 27972 net.cpp:205] Memory required for data: 90177540
I0711 11:21:37.205351 27972 layer_factory.hpp:123] Creating layer Threshold_3
I0711 11:21:37.205358 27972 net.cpp:140] Creating Layer Threshold_3
I0711 11:21:37.205360 27972 net.cpp:481] Threshold_3 <- BatchNorm_3
I0711 11:21:37.205364 27972 net.cpp:442] Threshold_3 -> BatchNorm_3 (in-place)
I0711 11:21:37.205370 27972 net.cpp:190] Setting up Threshold_3
I0711 11:21:37.205375 27972 net.cpp:197] Top shape: 1 16 128 256 (524288)
I0711 11:21:37.205377 27972 net.cpp:205] Memory required for data: 92274692
I0711 11:21:37.205380 27972 layer_factory.hpp:123] Creating layer ConvNd_5
I0711 11:21:37.205389 27972 net.cpp:140] Creating Layer ConvNd_5
I0711 11:21:37.205391 27972 net.cpp:481] ConvNd_5 <- BatchNorm_3
I0711 11:21:37.205395 27972 net.cpp:455] ConvNd_5 -> ConvNd_5
I0711 11:21:37.205557 27972 net.cpp:190] Setting up ConvNd_5
I0711 11:21:37.205566 27972 net.cpp:197] Top shape: 1 64 128 256 (2097152)
I0711 11:21:37.205569 27972 net.cpp:205] Memory required for data: 100663300
I0711 11:21:37.205574 27972 layer_factory.hpp:123] Creating layer BatchNorm_4
I0711 11:21:37.205579 27972 net.cpp:140] Creating Layer BatchNorm_4
I0711 11:21:37.205583 27972 net.cpp:481] BatchNorm_4 <- ConvNd_5
I0711 11:21:37.205588 27972 net.cpp:455] BatchNorm_4 -> BatchNorm_4
I0711 11:21:37.206182 27972 net.cpp:190] Setting up BatchNorm_4
I0711 11:21:37.206192 27972 net.cpp:197] Top shape: 1 64 128 256 (2097152)
I0711 11:21:37.206194 27972 net.cpp:205] Memory required for data: 109051908
I0711 11:21:37.206202 27972 layer_factory.hpp:123] Creating layer Threshold_4
I0711 11:21:37.206207 27972 net.cpp:140] Creating Layer Threshold_4
I0711 11:21:37.206210 27972 net.cpp:481] Threshold_4 <- BatchNorm_4
I0711 11:21:37.206214 27972 net.cpp:442] Threshold_4 -> BatchNorm_4 (in-place)
I0711 11:21:37.206221 27972 net.cpp:190] Setting up Threshold_4
I0711 11:21:37.206225 27972 net.cpp:197] Top shape: 1 64 128 256 (2097152)
I0711 11:21:37.206228 27972 net.cpp:205] Memory required for data: 117440516
I0711 11:21:37.206231 27972 layer_factory.hpp:123] Creating layer Add_1
I0711 11:21:37.206238 27972 net.cpp:140] Creating Layer Add_1
I0711 11:21:37.206240 27972 net.cpp:481] Add_1 <- ConvNd_2
I0711 11:21:37.206243 27972 net.cpp:481] Add_1 <- BatchNorm_4
I0711 11:21:37.206248 27972 net.cpp:455] Add_1 -> Add_1
I0711 11:21:37.206266 27972 net.cpp:190] Setting up Add_1
I0711 11:21:37.206271 27972 net.cpp:197] Top shape: 1 64 128 256 (2097152)
I0711 11:21:37.206274 27972 net.cpp:205] Memory required for data: 125829124
I0711 11:21:37.206276 27972 layer_factory.hpp:123] Creating layer Threshold_5
I0711 11:21:37.206281 27972 net.cpp:140] Creating Layer Threshold_5
I0711 11:21:37.206284 27972 net.cpp:481] Threshold_5 <- Add_1
I0711 11:21:37.206288 27972 net.cpp:442] Threshold_5 -> Add_1 (in-place)
I0711 11:21:37.206292 27972 net.cpp:190] Setting up Threshold_5
I0711 11:21:37.206297 27972 net.cpp:197] Top shape: 1 64 128 256 (2097152)
I0711 11:21:37.206300 27972 net.cpp:205] Memory required for data: 134217732
I0711 11:21:37.206303 27972 layer_factory.hpp:123] Creating layer Add_1_Threshold_5_0_split
I0711 11:21:37.206310 27972 net.cpp:140] Creating Layer Add_1_Threshold_5_0_split
I0711 11:21:37.206315 27972 net.cpp:481] Add_1_Threshold_5_0_split <- Add_1
I0711 11:21:37.206322 27972 net.cpp:455] Add_1_Threshold_5_0_split -> Add_1_Threshold_5_0_split_0
I0711 11:21:37.206332 27972 net.cpp:455] Add_1_Threshold_5_0_split -> Add_1_Threshold_5_0_split_1
I0711 11:21:37.206367 27972 net.cpp:190] Setting up Add_1_Threshold_5_0_split
I0711 11:21:37.206375 27972 net.cpp:197] Top shape: 1 64 128 256 (2097152)
I0711 11:21:37.206378 27972 net.cpp:197] Top shape: 1 64 128 256 (2097152)
I0711 11:21:37.206382 27972 net.cpp:205] Memory required for data: 150994948
I0711 11:21:37.206384 27972 layer_factory.hpp:123] Creating layer ConvNd_6
I0711 11:21:37.206391 27972 net.cpp:140] Creating Layer ConvNd_6
I0711 11:21:37.206394 27972 net.cpp:481] ConvNd_6 <- Add_1_Threshold_5_0_split_0
I0711 11:21:37.206399 27972 net.cpp:455] ConvNd_6 -> ConvNd_6
I0711 11:21:37.206557 27972 net.cpp:190] Setting up ConvNd_6
I0711 11:21:37.206564 27972 net.cpp:197] Top shape: 1 16 128 256 (524288)
I0711 11:21:37.206568 27972 net.cpp:205] Memory required for data: 153092100
I0711 11:21:37.206573 27972 layer_factory.hpp:123] Creating layer BatchNorm_5
I0711 11:21:37.206578 27972 net.cpp:140] Creating Layer BatchNorm_5
I0711 11:21:37.206583 27972 net.cpp:481] BatchNorm_5 <- ConvNd_6
I0711 11:21:37.206588 27972 net.cpp:455] BatchNorm_5 -> BatchNorm_5
I0711 11:21:37.207195 27972 net.cpp:190] Setting up BatchNorm_5
I0711 11:21:37.207204 27972 net.cpp:197] Top shape: 1 16 128 256 (524288)
I0711 11:21:37.207207 27972 net.cpp:205] Memory required for data: 155189252
I0711 11:21:37.207216 27972 layer_factory.hpp:123] Creating layer Threshold_6
I0711 11:21:37.207221 27972 net.cpp:140] Creating Layer Threshold_6
I0711 11:21:37.207223 27972 net.cpp:481] Threshold_6 <- BatchNorm_5
I0711 11:21:37.207228 27972 net.cpp:442] Threshold_6 -> BatchNorm_5 (in-place)
I0711 11:21:37.207234 27972 net.cpp:190] Setting up Threshold_6
I0711 11:21:37.207238 27972 net.cpp:197] Top shape: 1 16 128 256 (524288)
I0711 11:21:37.207240 27972 net.cpp:205] Memory required for data: 157286404
I0711 11:21:37.207243 27972 layer_factory.hpp:123] Creating layer ConvNd_7
I0711 11:21:37.207249 27972 net.cpp:140] Creating Layer ConvNd_7
I0711 11:21:37.207252 27972 net.cpp:481] ConvNd_7 <- BatchNorm_5
I0711 11:21:37.207257 27972 net.cpp:455] ConvNd_7 -> ConvNd_7
I0711 11:21:37.207415 27972 net.cpp:190] Setting up ConvNd_7
I0711 11:21:37.207422 27972 net.cpp:197] Top shape: 1 16 128 256 (524288)
I0711 11:21:37.207425 27972 net.cpp:205] Memory required for data: 159383556
I0711 11:21:37.207429 27972 layer_factory.hpp:123] Creating layer BatchNorm_6
I0711 11:21:37.207437 27972 net.cpp:140] Creating Layer BatchNorm_6
I0711 11:21:37.207439 27972 net.cpp:481] BatchNorm_6 <- ConvNd_7
I0711 11:21:37.207445 27972 net.cpp:455] BatchNorm_6 -> BatchNorm_6
I0711 11:21:37.208055 27972 net.cpp:190] Setting up BatchNorm_6
I0711 11:21:37.208065 27972 net.cpp:197] Top shape: 1 16 128 256 (524288)
I0711 11:21:37.208067 27972 net.cpp:205] Memory required for data: 161480708
I0711 11:21:37.208077 27972 layer_factory.hpp:123] Creating layer Threshold_7
I0711 11:21:37.208082 27972 net.cpp:140] Creating Layer Threshold_7
I0711 11:21:37.208086 27972 net.cpp:481] Threshold_7 <- BatchNorm_6
I0711 11:21:37.208091 27972 net.cpp:442] Threshold_7 -> BatchNorm_6 (in-place)
I0711 11:21:37.208097 27972 net.cpp:190] Setting up Threshold_7
I0711 11:21:37.208101 27972 net.cpp:197] Top shape: 1 16 128 256 (524288)
I0711 11:21:37.208104 27972 net.cpp:205] Memory required for data: 163577860
I0711 11:21:37.208106 27972 layer_factory.hpp:123] Creating layer ConvNd_8
I0711 11:21:37.208113 27972 net.cpp:140] Creating Layer ConvNd_8
I0711 11:21:37.208117 27972 net.cpp:481] ConvNd_8 <- BatchNorm_6
I0711 11:21:37.208120 27972 net.cpp:455] ConvNd_8 -> ConvNd_8
I0711 11:21:37.208281 27972 net.cpp:190] Setting up ConvNd_8
I0711 11:21:37.208287 27972 net.cpp:197] Top shape: 1 64 128 256 (2097152)
I0711 11:21:37.208290 27972 net.cpp:205] Memory required for data: 171966468
I0711 11:21:37.208295 27972 layer_factory.hpp:123] Creating layer BatchNorm_7
I0711 11:21:37.208302 27972 net.cpp:140] Creating Layer BatchNorm_7
I0711 11:21:37.208305 27972 net.cpp:481] BatchNorm_7 <- ConvNd_8
I0711 11:21:37.208310 27972 net.cpp:455] BatchNorm_7 -> BatchNorm_7
I0711 11:21:37.208914 27972 net.cpp:190] Setting up BatchNorm_7
I0711 11:21:37.208921 27972 net.cpp:197] Top shape: 1 64 128 256 (2097152)
I0711 11:21:37.208925 27972 net.cpp:205] Memory required for data: 180355076
I0711 11:21:37.208932 27972 layer_factory.hpp:123] Creating layer Threshold_8
I0711 11:21:37.208938 27972 net.cpp:140] Creating Layer Threshold_8
I0711 11:21:37.208941 27972 net.cpp:481] Threshold_8 <- BatchNorm_7
I0711 11:21:37.208945 27972 net.cpp:442] Threshold_8 -> BatchNorm_7 (in-place)
I0711 11:21:37.208951 27972 net.cpp:190] Setting up Threshold_8
I0711 11:21:37.208956 27972 net.cpp:197] Top shape: 1 64 128 256 (2097152)
I0711 11:21:37.208958 27972 net.cpp:205] Memory required for data: 188743684
I0711 11:21:37.208961 27972 layer_factory.hpp:123] Creating layer Add_2
I0711 11:21:37.208966 27972 net.cpp:140] Creating Layer Add_2
I0711 11:21:37.208969 27972 net.cpp:481] Add_2 <- Add_1_Threshold_5_0_split_1
I0711 11:21:37.208973 27972 net.cpp:481] Add_2 <- BatchNorm_7
I0711 11:21:37.208978 27972 net.cpp:455] Add_2 -> Add_2
I0711 11:21:37.208997 27972 net.cpp:190] Setting up Add_2
I0711 11:21:37.209003 27972 net.cpp:197] Top shape: 1 64 128 256 (2097152)
I0711 11:21:37.209007 27972 net.cpp:205] Memory required for data: 197132292
I0711 11:21:37.209009 27972 layer_factory.hpp:123] Creating layer Threshold_9
I0711 11:21:37.209015 27972 net.cpp:140] Creating Layer Threshold_9
I0711 11:21:37.209018 27972 net.cpp:481] Threshold_9 <- Add_2
I0711 11:21:37.209023 27972 net.cpp:442] Threshold_9 -> Add_2 (in-place)
I0711 11:21:37.209028 27972 net.cpp:190] Setting up Threshold_9
I0711 11:21:37.209033 27972 net.cpp:197] Top shape: 1 64 128 256 (2097152)
I0711 11:21:37.209035 27972 net.cpp:205] Memory required for data: 205520900
I0711 11:21:37.209038 27972 layer_factory.hpp:123] Creating layer Add_2_Threshold_9_0_split
I0711 11:21:37.209043 27972 net.cpp:140] Creating Layer Add_2_Threshold_9_0_split
I0711 11:21:37.209045 27972 net.cpp:481] Add_2_Threshold_9_0_split <- Add_2
I0711 11:21:37.209050 27972 net.cpp:455] Add_2_Threshold_9_0_split -> Add_2_Threshold_9_0_split_0
I0711 11:21:37.209056 27972 net.cpp:455] Add_2_Threshold_9_0_split -> Add_2_Threshold_9_0_split_1
I0711 11:21:37.209084 27972 net.cpp:190] Setting up Add_2_Threshold_9_0_split
I0711 11:21:37.209091 27972 net.cpp:197] Top shape: 1 64 128 256 (2097152)
I0711 11:21:37.209095 27972 net.cpp:197] Top shape: 1 64 128 256 (2097152)
I0711 11:21:37.209097 27972 net.cpp:205] Memory required for data: 222298116
I0711 11:21:37.209100 27972 layer_factory.hpp:123] Creating layer ConvNd_9
I0711 11:21:37.209107 27972 net.cpp:140] Creating Layer ConvNd_9
I0711 11:21:37.209110 27972 net.cpp:481] ConvNd_9 <- Add_2_Threshold_9_0_split_0
I0711 11:21:37.209115 27972 net.cpp:455] ConvNd_9 -> ConvNd_9
I0711 11:21:37.209272 27972 net.cpp:190] Setting up ConvNd_9
I0711 11:21:37.209280 27972 net.cpp:197] Top shape: 1 16 128 256 (524288)
I0711 11:21:37.209282 27972 net.cpp:205] Memory required for data: 224395268
I0711 11:21:37.209287 27972 layer_factory.hpp:123] Creating layer BatchNorm_8
I0711 11:21:37.209293 27972 net.cpp:140] Creating Layer BatchNorm_8
I0711 11:21:37.209296 27972 net.cpp:481] BatchNorm_8 <- ConvNd_9
I0711 11:21:37.209301 27972 net.cpp:455] BatchNorm_8 -> BatchNorm_8
I0711 11:21:37.209908 27972 net.cpp:190] Setting up BatchNorm_8
I0711 11:21:37.209915 27972 net.cpp:197] Top shape: 1 16 128 256 (524288)
I0711 11:21:37.209918 27972 net.cpp:205] Memory required for data: 226492420
I0711 11:21:37.209926 27972 layer_factory.hpp:123] Creating layer Threshold_10
I0711 11:21:37.209931 27972 net.cpp:140] Creating Layer Threshold_10
I0711 11:21:37.209935 27972 net.cpp:481] Threshold_10 <- BatchNorm_8
I0711 11:21:37.209939 27972 net.cpp:442] Threshold_10 -> BatchNorm_8 (in-place)
I0711 11:21:37.209945 27972 net.cpp:190] Setting up Threshold_10
I0711 11:21:37.209950 27972 net.cpp:197] Top shape: 1 16 128 256 (524288)
I0711 11:21:37.209954 27972 net.cpp:205] Memory required for data: 228589572
I0711 11:21:37.209955 27972 layer_factory.hpp:123] Creating layer ConvNd_10
I0711 11:21:37.209962 27972 net.cpp:140] Creating Layer ConvNd_10
I0711 11:21:37.209965 27972 net.cpp:481] ConvNd_10 <- BatchNorm_8
I0711 11:21:37.209969 27972 net.cpp:455] ConvNd_10 -> ConvNd_10
I0711 11:21:37.210132 27972 net.cpp:190] Setting up ConvNd_10
I0711 11:21:37.210140 27972 net.cpp:197] Top shape: 1 16 128 256 (524288)
I0711 11:21:37.210144 27972 net.cpp:205] Memory required for data: 230686724
I0711 11:21:37.210147 27972 layer_factory.hpp:123] Creating layer BatchNorm_9
I0711 11:21:37.210153 27972 net.cpp:140] Creating Layer BatchNorm_9
I0711 11:21:37.210157 27972 net.cpp:481] BatchNorm_9 <- ConvNd_10
I0711 11:21:37.210162 27972 net.cpp:455] BatchNorm_9 -> BatchNorm_9
I0711 11:21:37.210764 27972 net.cpp:190] Setting up BatchNorm_9
I0711 11:21:37.210772 27972 net.cpp:197] Top shape: 1 16 128 256 (524288)
I0711 11:21:37.210774 27972 net.cpp:205] Memory required for data: 232783876
I0711 11:21:37.210783 27972 layer_factory.hpp:123] Creating layer Threshold_11
I0711 11:21:37.210788 27972 net.cpp:140] Creating Layer Threshold_11
I0711 11:21:37.210790 27972 net.cpp:481] Threshold_11 <- BatchNorm_9
I0711 11:21:37.210795 27972 net.cpp:442] Threshold_11 -> BatchNorm_9 (in-place)
I0711 11:21:37.210801 27972 net.cpp:190] Setting up Threshold_11
I0711 11:21:37.210805 27972 net.cpp:197] Top shape: 1 16 128 256 (524288)
I0711 11:21:37.210808 27972 net.cpp:205] Memory required for data: 234881028
I0711 11:21:37.210811 27972 layer_factory.hpp:123] Creating layer ConvNd_11
I0711 11:21:37.210817 27972 net.cpp:140] Creating Layer ConvNd_11
I0711 11:21:37.210820 27972 net.cpp:481] ConvNd_11 <- BatchNorm_9
I0711 11:21:37.210824 27972 net.cpp:455] ConvNd_11 -> ConvNd_11
I0711 11:21:37.210984 27972 net.cpp:190] Setting up ConvNd_11
I0711 11:21:37.210991 27972 net.cpp:197] Top shape: 1 64 128 256 (2097152)
I0711 11:21:37.210994 27972 net.cpp:205] Memory required for data: 243269636
I0711 11:21:37.210999 27972 layer_factory.hpp:123] Creating layer BatchNorm_10
I0711 11:21:37.211005 27972 net.cpp:140] Creating Layer BatchNorm_10
I0711 11:21:37.211009 27972 net.cpp:481] BatchNorm_10 <- ConvNd_11
I0711 11:21:37.211014 27972 net.cpp:455] BatchNorm_10 -> BatchNorm_10
I0711 11:21:37.211616 27972 net.cpp:190] Setting up BatchNorm_10
I0711 11:21:37.211623 27972 net.cpp:197] Top shape: 1 64 128 256 (2097152)
I0711 11:21:37.211627 27972 net.cpp:205] Memory required for data: 251658244
I0711 11:21:37.211634 27972 layer_factory.hpp:123] Creating layer Threshold_12
I0711 11:21:37.211639 27972 net.cpp:140] Creating Layer Threshold_12
I0711 11:21:37.211643 27972 net.cpp:481] Threshold_12 <- BatchNorm_10
I0711 11:21:37.211647 27972 net.cpp:442] Threshold_12 -> BatchNorm_10 (in-place)
I0711 11:21:37.211653 27972 net.cpp:190] Setting up Threshold_12
I0711 11:21:37.211658 27972 net.cpp:197] Top shape: 1 64 128 256 (2097152)
I0711 11:21:37.211660 27972 net.cpp:205] Memory required for data: 260046852
I0711 11:21:37.211663 27972 layer_factory.hpp:123] Creating layer Add_3
I0711 11:21:37.211668 27972 net.cpp:140] Creating Layer Add_3
I0711 11:21:37.211671 27972 net.cpp:481] Add_3 <- Add_2_Threshold_9_0_split_1
I0711 11:21:37.211675 27972 net.cpp:481] Add_3 <- BatchNorm_10
I0711 11:21:37.211679 27972 net.cpp:455] Add_3 -> Add_3
I0711 11:21:37.211699 27972 net.cpp:190] Setting up Add_3
I0711 11:21:37.211702 27972 net.cpp:197] Top shape: 1 64 128 256 (2097152)
I0711 11:21:37.211705 27972 net.cpp:205] Memory required for data: 268435460
I0711 11:21:37.211709 27972 layer_factory.hpp:123] Creating layer Threshold_13
I0711 11:21:37.211712 27972 net.cpp:140] Creating Layer Threshold_13
I0711 11:21:37.211715 27972 net.cpp:481] Threshold_13 <- Add_3
I0711 11:21:37.211720 27972 net.cpp:442] Threshold_13 -> Add_3 (in-place)
I0711 11:21:37.211725 27972 net.cpp:190] Setting up Threshold_13
I0711 11:21:37.211728 27972 net.cpp:197] Top shape: 1 64 128 256 (2097152)
I0711 11:21:37.211731 27972 net.cpp:205] Memory required for data: 276824068
I0711 11:21:37.211735 27972 layer_factory.hpp:123] Creating layer Add_3_Threshold_13_0_split
I0711 11:21:37.211738 27972 net.cpp:140] Creating Layer Add_3_Threshold_13_0_split
I0711 11:21:37.211741 27972 net.cpp:481] Add_3_Threshold_13_0_split <- Add_3
I0711 11:21:37.211746 27972 net.cpp:455] Add_3_Threshold_13_0_split -> Add_3_Threshold_13_0_split_0
I0711 11:21:37.211752 27972 net.cpp:455] Add_3_Threshold_13_0_split -> Add_3_Threshold_13_0_split_1
I0711 11:21:37.211786 27972 net.cpp:190] Setting up Add_3_Threshold_13_0_split
I0711 11:21:37.211792 27972 net.cpp:197] Top shape: 1 64 128 256 (2097152)
I0711 11:21:37.211796 27972 net.cpp:197] Top shape: 1 64 128 256 (2097152)
I0711 11:21:37.211799 27972 net.cpp:205] Memory required for data: 293601284
I0711 11:21:37.211802 27972 layer_factory.hpp:123] Creating layer ConvNd_12
I0711 11:21:37.211808 27972 net.cpp:140] Creating Layer ConvNd_12
I0711 11:21:37.211812 27972 net.cpp:481] ConvNd_12 <- Add_3_Threshold_13_0_split_0
I0711 11:21:37.211817 27972 net.cpp:455] ConvNd_12 -> ConvNd_12
I0711 11:21:37.211977 27972 net.cpp:190] Setting up ConvNd_12
I0711 11:21:37.211984 27972 net.cpp:197] Top shape: 1 16 128 256 (524288)
I0711 11:21:37.211987 27972 net.cpp:205] Memory required for data: 295698436
I0711 11:21:37.211992 27972 layer_factory.hpp:123] Creating layer BatchNorm_11
I0711 11:21:37.211998 27972 net.cpp:140] Creating Layer BatchNorm_11
I0711 11:21:37.212002 27972 net.cpp:481] BatchNorm_11 <- ConvNd_12
I0711 11:21:37.212007 27972 net.cpp:455] BatchNorm_11 -> BatchNorm_11
I0711 11:21:37.212622 27972 net.cpp:190] Setting up BatchNorm_11
I0711 11:21:37.212630 27972 net.cpp:197] Top shape: 1 16 128 256 (524288)
I0711 11:21:37.212633 27972 net.cpp:205] Memory required for data: 297795588
I0711 11:21:37.212646 27972 layer_factory.hpp:123] Creating layer Threshold_14
I0711 11:21:37.212652 27972 net.cpp:140] Creating Layer Threshold_14
I0711 11:21:37.212656 27972 net.cpp:481] Threshold_14 <- BatchNorm_11
I0711 11:21:37.212659 27972 net.cpp:442] Threshold_14 -> BatchNorm_11 (in-place)
I0711 11:21:37.212666 27972 net.cpp:190] Setting up Threshold_14
I0711 11:21:37.212671 27972 net.cpp:197] Top shape: 1 16 128 256 (524288)
I0711 11:21:37.212672 27972 net.cpp:205] Memory required for data: 299892740
I0711 11:21:37.212676 27972 layer_factory.hpp:123] Creating layer ConvNd_13
I0711 11:21:37.212682 27972 net.cpp:140] Creating Layer ConvNd_13
I0711 11:21:37.212684 27972 net.cpp:481] ConvNd_13 <- BatchNorm_11
I0711 11:21:37.212689 27972 net.cpp:455] ConvNd_13 -> ConvNd_13
I0711 11:21:37.212851 27972 net.cpp:190] Setting up ConvNd_13
I0711 11:21:37.212857 27972 net.cpp:197] Top shape: 1 16 128 256 (524288)
I0711 11:21:37.212862 27972 net.cpp:205] Memory required for data: 301989892
I0711 11:21:37.212865 27972 layer_factory.hpp:123] Creating layer BatchNorm_12
I0711 11:21:37.212872 27972 net.cpp:140] Creating Layer BatchNorm_12
I0711 11:21:37.212874 27972 net.cpp:481] BatchNorm_12 <- ConvNd_13
I0711 11:21:37.212880 27972 net.cpp:455] BatchNorm_12 -> BatchNorm_12
I0711 11:21:37.213488 27972 net.cpp:190] Setting up BatchNorm_12
I0711 11:21:37.213496 27972 net.cpp:197] Top shape: 1 16 128 256 (524288)
I0711 11:21:37.213500 27972 net.cpp:205] Memory required for data: 304087044
I0711 11:21:37.213507 27972 layer_factory.hpp:123] Creating layer Threshold_15
I0711 11:21:37.213512 27972 net.cpp:140] Creating Layer Threshold_15
I0711 11:21:37.213515 27972 net.cpp:481] Threshold_15 <- BatchNorm_12
I0711 11:21:37.213521 27972 net.cpp:442] Threshold_15 -> BatchNorm_12 (in-place)
I0711 11:21:37.213526 27972 net.cpp:190] Setting up Threshold_15
I0711 11:21:37.213531 27972 net.cpp:197] Top shape: 1 16 128 256 (524288)
I0711 11:21:37.213532 27972 net.cpp:205] Memory required for data: 306184196
I0711 11:21:37.213536 27972 layer_factory.hpp:123] Creating layer ConvNd_14
I0711 11:21:37.213542 27972 net.cpp:140] Creating Layer ConvNd_14
I0711 11:21:37.213546 27972 net.cpp:481] ConvNd_14 <- BatchNorm_12
I0711 11:21:37.213551 27972 net.cpp:455] ConvNd_14 -> ConvNd_14
I0711 11:21:37.213709 27972 net.cpp:190] Setting up ConvNd_14
I0711 11:21:37.213717 27972 net.cpp:197] Top shape: 1 64 128 256 (2097152)
I0711 11:21:37.213721 27972 net.cpp:205] Memory required for data: 314572804
I0711 11:21:37.213724 27972 layer_factory.hpp:123] Creating layer BatchNorm_13
I0711 11:21:37.213730 27972 net.cpp:140] Creating Layer BatchNorm_13
I0711 11:21:37.213734 27972 net.cpp:481] BatchNorm_13 <- ConvNd_14
I0711 11:21:37.213739 27972 net.cpp:455] BatchNorm_13 -> BatchNorm_13
I0711 11:21:37.214357 27972 net.cpp:190] Setting up BatchNorm_13
I0711 11:21:37.214370 27972 net.cpp:197] Top shape: 1 64 128 256 (2097152)
I0711 11:21:37.214375 27972 net.cpp:205] Memory required for data: 322961412
I0711 11:21:37.214385 27972 layer_factory.hpp:123] Creating layer Threshold_16
I0711 11:21:37.214390 27972 net.cpp:140] Creating Layer Threshold_16
I0711 11:21:37.214393 27972 net.cpp:481] Threshold_16 <- BatchNorm_13
I0711 11:21:37.214398 27972 net.cpp:442] Threshold_16 -> BatchNorm_13 (in-place)
I0711 11:21:37.214404 27972 net.cpp:190] Setting up Threshold_16
I0711 11:21:37.214408 27972 net.cpp:197] Top shape: 1 64 128 256 (2097152)
I0711 11:21:37.214411 27972 net.cpp:205] Memory required for data: 331350020
I0711 11:21:37.214414 27972 layer_factory.hpp:123] Creating layer Add_4
I0711 11:21:37.214419 27972 net.cpp:140] Creating Layer Add_4
I0711 11:21:37.214422 27972 net.cpp:481] Add_4 <- Add_3_Threshold_13_0_split_1
I0711 11:21:37.214426 27972 net.cpp:481] Add_4 <- BatchNorm_13
I0711 11:21:37.214432 27972 net.cpp:455] Add_4 -> Add_4
I0711 11:21:37.214452 27972 net.cpp:190] Setting up Add_4
I0711 11:21:37.214457 27972 net.cpp:197] Top shape: 1 64 128 256 (2097152)
I0711 11:21:37.214459 27972 net.cpp:205] Memory required for data: 339738628
I0711 11:21:37.214463 27972 layer_factory.hpp:123] Creating layer Threshold_17
I0711 11:21:37.214468 27972 net.cpp:140] Creating Layer Threshold_17
I0711 11:21:37.214470 27972 net.cpp:481] Threshold_17 <- Add_4
I0711 11:21:37.214474 27972 net.cpp:442] Threshold_17 -> Add_4 (in-place)
I0711 11:21:37.214479 27972 net.cpp:190] Setting up Threshold_17
I0711 11:21:37.214483 27972 net.cpp:197] Top shape: 1 64 128 256 (2097152)
I0711 11:21:37.214486 27972 net.cpp:205] Memory required for data: 348127236
I0711 11:21:37.214488 27972 layer_factory.hpp:123] Creating layer Add_4_Threshold_17_0_split
I0711 11:21:37.214494 27972 net.cpp:140] Creating Layer Add_4_Threshold_17_0_split
I0711 11:21:37.214498 27972 net.cpp:481] Add_4_Threshold_17_0_split <- Add_4
I0711 11:21:37.214501 27972 net.cpp:455] Add_4_Threshold_17_0_split -> Add_4_Threshold_17_0_split_0
I0711 11:21:37.214507 27972 net.cpp:455] Add_4_Threshold_17_0_split -> Add_4_Threshold_17_0_split_1
I0711 11:21:37.214534 27972 net.cpp:190] Setting up Add_4_Threshold_17_0_split
I0711 11:21:37.214540 27972 net.cpp:197] Top shape: 1 64 128 256 (2097152)
I0711 11:21:37.214545 27972 net.cpp:197] Top shape: 1 64 128 256 (2097152)
I0711 11:21:37.214546 27972 net.cpp:205] Memory required for data: 364904452
I0711 11:21:37.214550 27972 layer_factory.hpp:123] Creating layer ConvNd_15
I0711 11:21:37.214556 27972 net.cpp:140] Creating Layer ConvNd_15
I0711 11:21:37.214560 27972 net.cpp:481] ConvNd_15 <- Add_4_Threshold_17_0_split_0
I0711 11:21:37.214565 27972 net.cpp:455] ConvNd_15 -> ConvNd_15
I0711 11:21:37.214726 27972 net.cpp:190] Setting up ConvNd_15
I0711 11:21:37.214733 27972 net.cpp:197] Top shape: 1 16 128 256 (524288)
I0711 11:21:37.214736 27972 net.cpp:205] Memory required for data: 367001604
I0711 11:21:37.214740 27972 layer_factory.hpp:123] Creating layer BatchNorm_14
I0711 11:21:37.214747 27972 net.cpp:140] Creating Layer BatchNorm_14
I0711 11:21:37.214751 27972 net.cpp:481] BatchNorm_14 <- ConvNd_15
I0711 11:21:37.214756 27972 net.cpp:455] BatchNorm_14 -> BatchNorm_14
I0711 11:21:37.215379 27972 net.cpp:190] Setting up BatchNorm_14
I0711 11:21:37.215389 27972 net.cpp:197] Top shape: 1 16 128 256 (524288)
I0711 11:21:37.215392 27972 net.cpp:205] Memory required for data: 369098756
I0711 11:21:37.215401 27972 layer_factory.hpp:123] Creating layer Threshold_18
I0711 11:21:37.215406 27972 net.cpp:140] Creating Layer Threshold_18
I0711 11:21:37.215409 27972 net.cpp:481] Threshold_18 <- BatchNorm_14
I0711 11:21:37.215415 27972 net.cpp:442] Threshold_18 -> BatchNorm_14 (in-place)
I0711 11:21:37.215420 27972 net.cpp:190] Setting up Threshold_18
I0711 11:21:37.215425 27972 net.cpp:197] Top shape: 1 16 128 256 (524288)
I0711 11:21:37.215427 27972 net.cpp:205] Memory required for data: 371195908
I0711 11:21:37.215430 27972 layer_factory.hpp:123] Creating layer ConvNd_16
I0711 11:21:37.215436 27972 net.cpp:140] Creating Layer ConvNd_16
I0711 11:21:37.215440 27972 net.cpp:481] ConvNd_16 <- BatchNorm_14
I0711 11:21:37.215445 27972 net.cpp:455] ConvNd_16 -> ConvNd_16
I0711 11:21:37.215605 27972 net.cpp:190] Setting up ConvNd_16
I0711 11:21:37.215612 27972 net.cpp:197] Top shape: 1 16 128 256 (524288)
I0711 11:21:37.215615 27972 net.cpp:205] Memory required for data: 373293060
I0711 11:21:37.215620 27972 layer_factory.hpp:123] Creating layer BatchNorm_15
I0711 11:21:37.215626 27972 net.cpp:140] Creating Layer BatchNorm_15
I0711 11:21:37.215629 27972 net.cpp:481] BatchNorm_15 <- ConvNd_16
I0711 11:21:37.215634 27972 net.cpp:455] BatchNorm_15 -> BatchNorm_15
I0711 11:21:37.216261 27972 net.cpp:190] Setting up BatchNorm_15
I0711 11:21:37.216270 27972 net.cpp:197] Top shape: 1 16 128 256 (524288)
I0711 11:21:37.216274 27972 net.cpp:205] Memory required for data: 375390212
I0711 11:21:37.216282 27972 layer_factory.hpp:123] Creating layer Threshold_19
I0711 11:21:37.216287 27972 net.cpp:140] Creating Layer Threshold_19
I0711 11:21:37.216290 27972 net.cpp:481] Threshold_19 <- BatchNorm_15
I0711 11:21:37.216295 27972 net.cpp:442] Threshold_19 -> BatchNorm_15 (in-place)
I0711 11:21:37.216300 27972 net.cpp:190] Setting up Threshold_19
I0711 11:21:37.216305 27972 net.cpp:197] Top shape: 1 16 128 256 (524288)
I0711 11:21:37.216307 27972 net.cpp:205] Memory required for data: 377487364
I0711 11:21:37.216310 27972 layer_factory.hpp:123] Creating layer ConvNd_17
I0711 11:21:37.216318 27972 net.cpp:140] Creating Layer ConvNd_17
I0711 11:21:37.216322 27972 net.cpp:481] ConvNd_17 <- BatchNorm_15
I0711 11:21:37.216326 27972 net.cpp:455] ConvNd_17 -> ConvNd_17
I0711 11:21:37.216488 27972 net.cpp:190] Setting up ConvNd_17
I0711 11:21:37.216495 27972 net.cpp:197] Top shape: 1 64 128 256 (2097152)
I0711 11:21:37.216500 27972 net.cpp:205] Memory required for data: 385875972
I0711 11:21:37.216504 27972 layer_factory.hpp:123] Creating layer BatchNorm_16
I0711 11:21:37.216511 27972 net.cpp:140] Creating Layer BatchNorm_16
I0711 11:21:37.216514 27972 net.cpp:481] BatchNorm_16 <- ConvNd_17
I0711 11:21:37.216521 27972 net.cpp:455] BatchNorm_16 -> BatchNorm_16
I0711 11:21:37.217135 27972 net.cpp:190] Setting up BatchNorm_16
I0711 11:21:37.217144 27972 net.cpp:197] Top shape: 1 64 128 256 (2097152)
I0711 11:21:37.217146 27972 net.cpp:205] Memory required for data: 394264580
I0711 11:21:37.217155 27972 layer_factory.hpp:123] Creating layer Threshold_20
I0711 11:21:37.217160 27972 net.cpp:140] Creating Layer Threshold_20
I0711 11:21:37.217164 27972 net.cpp:481] Threshold_20 <- BatchNorm_16
I0711 11:21:37.217169 27972 net.cpp:442] Threshold_20 -> BatchNorm_16 (in-place)
I0711 11:21:37.217175 27972 net.cpp:190] Setting up Threshold_20
I0711 11:21:37.217178 27972 net.cpp:197] Top shape: 1 64 128 256 (2097152)
I0711 11:21:37.217180 27972 net.cpp:205] Memory required for data: 402653188
I0711 11:21:37.217183 27972 layer_factory.hpp:123] Creating layer Add_5
I0711 11:21:37.217188 27972 net.cpp:140] Creating Layer Add_5
I0711 11:21:37.217192 27972 net.cpp:481] Add_5 <- Add_4_Threshold_17_0_split_1
I0711 11:21:37.217195 27972 net.cpp:481] Add_5 <- BatchNorm_16
I0711 11:21:37.217200 27972 net.cpp:455] Add_5 -> Add_5
I0711 11:21:37.217219 27972 net.cpp:190] Setting up Add_5
I0711 11:21:37.217224 27972 net.cpp:197] Top shape: 1 64 128 256 (2097152)
I0711 11:21:37.217226 27972 net.cpp:205] Memory required for data: 411041796
I0711 11:21:37.217229 27972 layer_factory.hpp:123] Creating layer Threshold_21
I0711 11:21:37.217234 27972 net.cpp:140] Creating Layer Threshold_21
I0711 11:21:37.217237 27972 net.cpp:481] Threshold_21 <- Add_5
I0711 11:21:37.217242 27972 net.cpp:442] Threshold_21 -> Add_5 (in-place)
I0711 11:21:37.217245 27972 net.cpp:190] Setting up Threshold_21
I0711 11:21:37.217249 27972 net.cpp:197] Top shape: 1 64 128 256 (2097152)
I0711 11:21:37.217252 27972 net.cpp:205] Memory required for data: 419430404
I0711 11:21:37.217255 27972 layer_factory.hpp:123] Creating layer Add_5_Threshold_21_0_split
I0711 11:21:37.217259 27972 net.cpp:140] Creating Layer Add_5_Threshold_21_0_split
I0711 11:21:37.217262 27972 net.cpp:481] Add_5_Threshold_21_0_split <- Add_5
I0711 11:21:37.217267 27972 net.cpp:455] Add_5_Threshold_21_0_split -> Add_5_Threshold_21_0_split_0
I0711 11:21:37.217273 27972 net.cpp:455] Add_5_Threshold_21_0_split -> Add_5_Threshold_21_0_split_1
I0711 11:21:37.217300 27972 net.cpp:190] Setting up Add_5_Threshold_21_0_split
I0711 11:21:37.217304 27972 net.cpp:197] Top shape: 1 64 128 256 (2097152)
I0711 11:21:37.217308 27972 net.cpp:197] Top shape: 1 64 128 256 (2097152)
I0711 11:21:37.217311 27972 net.cpp:205] Memory required for data: 436207620
I0711 11:21:37.217314 27972 layer_factory.hpp:123] Creating layer MaxPool2d_3
I0711 11:21:37.217319 27972 net.cpp:140] Creating Layer MaxPool2d_3
I0711 11:21:37.217322 27972 net.cpp:481] MaxPool2d_3 <- Add_5_Threshold_21_0_split_0
I0711 11:21:37.217327 27972 net.cpp:455] MaxPool2d_3 -> MaxPool2d_3
I0711 11:21:37.217353 27972 net.cpp:190] Setting up MaxPool2d_3
I0711 11:21:37.217358 27972 net.cpp:197] Top shape: 1 64 64 128 (524288)
I0711 11:21:37.217360 27972 net.cpp:205] Memory required for data: 438304772
I0711 11:21:37.217363 27972 layer_factory.hpp:123] Creating layer ConvNd_18
I0711 11:21:37.217370 27972 net.cpp:140] Creating Layer ConvNd_18
I0711 11:21:37.217372 27972 net.cpp:481] ConvNd_18 <- MaxPool2d_3
I0711 11:21:37.217377 27972 net.cpp:455] ConvNd_18 -> ConvNd_18
I0711 11:21:37.218269 27972 net.cpp:190] Setting up ConvNd_18
I0711 11:21:37.218281 27972 net.cpp:197] Top shape: 1 128 64 128 (1048576)
I0711 11:21:37.218284 27972 net.cpp:205] Memory required for data: 442499076
I0711 11:21:37.218289 27972 layer_factory.hpp:123] Creating layer ConvNd_19
I0711 11:21:37.218297 27972 net.cpp:140] Creating Layer ConvNd_19
I0711 11:21:37.218300 27972 net.cpp:481] ConvNd_19 <- Add_5_Threshold_21_0_split_1
I0711 11:21:37.218307 27972 net.cpp:455] ConvNd_19 -> ConvNd_19
I0711 11:21:37.218482 27972 net.cpp:190] Setting up ConvNd_19
I0711 11:21:37.218489 27972 net.cpp:197] Top shape: 1 32 64 128 (262144)
I0711 11:21:37.218492 27972 net.cpp:205] Memory required for data: 443547652
I0711 11:21:37.218497 27972 layer_factory.hpp:123] Creating layer BatchNorm_17
I0711 11:21:37.218503 27972 net.cpp:140] Creating Layer BatchNorm_17
I0711 11:21:37.218506 27972 net.cpp:481] BatchNorm_17 <- ConvNd_19
I0711 11:21:37.218511 27972 net.cpp:455] BatchNorm_17 -> BatchNorm_17
I0711 11:21:37.219115 27972 net.cpp:190] Setting up BatchNorm_17
I0711 11:21:37.219123 27972 net.cpp:197] Top shape: 1 32 64 128 (262144)
I0711 11:21:37.219126 27972 net.cpp:205] Memory required for data: 444596228
I0711 11:21:37.219135 27972 layer_factory.hpp:123] Creating layer Threshold_22
I0711 11:21:37.219141 27972 net.cpp:140] Creating Layer Threshold_22
I0711 11:21:37.219144 27972 net.cpp:481] Threshold_22 <- BatchNorm_17
I0711 11:21:37.219148 27972 net.cpp:442] Threshold_22 -> BatchNorm_17 (in-place)
I0711 11:21:37.219154 27972 net.cpp:190] Setting up Threshold_22
I0711 11:21:37.219158 27972 net.cpp:197] Top shape: 1 32 64 128 (262144)
I0711 11:21:37.219161 27972 net.cpp:205] Memory required for data: 445644804
I0711 11:21:37.219164 27972 layer_factory.hpp:123] Creating layer ConvNd_20
I0711 11:21:37.219171 27972 net.cpp:140] Creating Layer ConvNd_20
I0711 11:21:37.219174 27972 net.cpp:481] ConvNd_20 <- BatchNorm_17
I0711 11:21:37.219178 27972 net.cpp:455] ConvNd_20 -> ConvNd_20
I0711 11:21:37.219352 27972 net.cpp:190] Setting up ConvNd_20
I0711 11:21:37.219358 27972 net.cpp:197] Top shape: 1 32 64 128 (262144)
I0711 11:21:37.219362 27972 net.cpp:205] Memory required for data: 446693380
I0711 11:21:37.219367 27972 layer_factory.hpp:123] Creating layer BatchNorm_18
I0711 11:21:37.219372 27972 net.cpp:140] Creating Layer BatchNorm_18
I0711 11:21:37.219375 27972 net.cpp:481] BatchNorm_18 <- ConvNd_20
I0711 11:21:37.219382 27972 net.cpp:455] BatchNorm_18 -> BatchNorm_18
I0711 11:21:37.219990 27972 net.cpp:190] Setting up BatchNorm_18
I0711 11:21:37.219998 27972 net.cpp:197] Top shape: 1 32 64 128 (262144)
I0711 11:21:37.220001 27972 net.cpp:205] Memory required for data: 447741956
I0711 11:21:37.220010 27972 layer_factory.hpp:123] Creating layer Threshold_23
I0711 11:21:37.220014 27972 net.cpp:140] Creating Layer Threshold_23
I0711 11:21:37.220018 27972 net.cpp:481] Threshold_23 <- BatchNorm_18
I0711 11:21:37.220022 27972 net.cpp:442] Threshold_23 -> BatchNorm_18 (in-place)
I0711 11:21:37.220028 27972 net.cpp:190] Setting up Threshold_23
I0711 11:21:37.220032 27972 net.cpp:197] Top shape: 1 32 64 128 (262144)
I0711 11:21:37.220036 27972 net.cpp:205] Memory required for data: 448790532
I0711 11:21:37.220038 27972 layer_factory.hpp:123] Creating layer ConvNd_21
I0711 11:21:37.220046 27972 net.cpp:140] Creating Layer ConvNd_21
I0711 11:21:37.220048 27972 net.cpp:481] ConvNd_21 <- BatchNorm_18
I0711 11:21:37.220053 27972 net.cpp:455] ConvNd_21 -> ConvNd_21
I0711 11:21:37.220221 27972 net.cpp:190] Setting up ConvNd_21
I0711 11:21:37.220227 27972 net.cpp:197] Top shape: 1 128 64 128 (1048576)
I0711 11:21:37.220230 27972 net.cpp:205] Memory required for data: 452984836
I0711 11:21:37.220235 27972 layer_factory.hpp:123] Creating layer BatchNorm_19
I0711 11:21:37.220242 27972 net.cpp:140] Creating Layer BatchNorm_19
I0711 11:21:37.220245 27972 net.cpp:481] BatchNorm_19 <- ConvNd_21
I0711 11:21:37.220250 27972 net.cpp:455] BatchNorm_19 -> BatchNorm_19
I0711 11:21:37.220782 27972 net.cpp:190] Setting up BatchNorm_19
I0711 11:21:37.220789 27972 net.cpp:197] Top shape: 1 128 64 128 (1048576)
I0711 11:21:37.220793 27972 net.cpp:205] Memory required for data: 457179140
I0711 11:21:37.220801 27972 layer_factory.hpp:123] Creating layer Threshold_24
I0711 11:21:37.220806 27972 net.cpp:140] Creating Layer Threshold_24
I0711 11:21:37.220809 27972 net.cpp:481] Threshold_24 <- BatchNorm_19
I0711 11:21:37.220814 27972 net.cpp:442] Threshold_24 -> BatchNorm_19 (in-place)
I0711 11:21:37.220820 27972 net.cpp:190] Setting up Threshold_24
I0711 11:21:37.220824 27972 net.cpp:197] Top shape: 1 128 64 128 (1048576)
I0711 11:21:37.220826 27972 net.cpp:205] Memory required for data: 461373444
I0711 11:21:37.220829 27972 layer_factory.hpp:123] Creating layer Add_6
I0711 11:21:37.220834 27972 net.cpp:140] Creating Layer Add_6
I0711 11:21:37.220837 27972 net.cpp:481] Add_6 <- ConvNd_18
I0711 11:21:37.220840 27972 net.cpp:481] Add_6 <- BatchNorm_19
I0711 11:21:37.220845 27972 net.cpp:455] Add_6 -> Add_6
I0711 11:21:37.220865 27972 net.cpp:190] Setting up Add_6
I0711 11:21:37.220868 27972 net.cpp:197] Top shape: 1 128 64 128 (1048576)
I0711 11:21:37.220871 27972 net.cpp:205] Memory required for data: 465567748
I0711 11:21:37.220875 27972 layer_factory.hpp:123] Creating layer Threshold_25
I0711 11:21:37.220878 27972 net.cpp:140] Creating Layer Threshold_25
I0711 11:21:37.220881 27972 net.cpp:481] Threshold_25 <- Add_6
I0711 11:21:37.220886 27972 net.cpp:442] Threshold_25 -> Add_6 (in-place)
I0711 11:21:37.220891 27972 net.cpp:190] Setting up Threshold_25
I0711 11:21:37.220896 27972 net.cpp:197] Top shape: 1 128 64 128 (1048576)
I0711 11:21:37.220897 27972 net.cpp:205] Memory required for data: 469762052
I0711 11:21:37.220901 27972 layer_factory.hpp:123] Creating layer Add_6_Threshold_25_0_split
I0711 11:21:37.220906 27972 net.cpp:140] Creating Layer Add_6_Threshold_25_0_split
I0711 11:21:37.220908 27972 net.cpp:481] Add_6_Threshold_25_0_split <- Add_6
I0711 11:21:37.220913 27972 net.cpp:455] Add_6_Threshold_25_0_split -> Add_6_Threshold_25_0_split_0
I0711 11:21:37.220918 27972 net.cpp:455] Add_6_Threshold_25_0_split -> Add_6_Threshold_25_0_split_1
I0711 11:21:37.220947 27972 net.cpp:190] Setting up Add_6_Threshold_25_0_split
I0711 11:21:37.220953 27972 net.cpp:197] Top shape: 1 128 64 128 (1048576)
I0711 11:21:37.220957 27972 net.cpp:197] Top shape: 1 128 64 128 (1048576)
I0711 11:21:37.220959 27972 net.cpp:205] Memory required for data: 478150660
I0711 11:21:37.220963 27972 layer_factory.hpp:123] Creating layer ConvNd_22
I0711 11:21:37.220968 27972 net.cpp:140] Creating Layer ConvNd_22
I0711 11:21:37.220971 27972 net.cpp:481] ConvNd_22 <- Add_6_Threshold_25_0_split_0
I0711 11:21:37.220978 27972 net.cpp:455] ConvNd_22 -> ConvNd_22
I0711 11:21:37.221143 27972 net.cpp:190] Setting up ConvNd_22
I0711 11:21:37.221149 27972 net.cpp:197] Top shape: 1 32 64 128 (262144)
I0711 11:21:37.221153 27972 net.cpp:205] Memory required for data: 479199236
I0711 11:21:37.221156 27972 layer_factory.hpp:123] Creating layer BatchNorm_20
I0711 11:21:37.221163 27972 net.cpp:140] Creating Layer BatchNorm_20
I0711 11:21:37.221166 27972 net.cpp:481] BatchNorm_20 <- ConvNd_22
I0711 11:21:37.221171 27972 net.cpp:455] BatchNorm_20 -> BatchNorm_20
I0711 11:21:37.221783 27972 net.cpp:190] Setting up BatchNorm_20
I0711 11:21:37.221792 27972 net.cpp:197] Top shape: 1 32 64 128 (262144)
I0711 11:21:37.221796 27972 net.cpp:205] Memory required for data: 480247812
I0711 11:21:37.221803 27972 layer_factory.hpp:123] Creating layer Threshold_26
I0711 11:21:37.221808 27972 net.cpp:140] Creating Layer Threshold_26
I0711 11:21:37.221812 27972 net.cpp:481] Threshold_26 <- BatchNorm_20
I0711 11:21:37.221817 27972 net.cpp:442] Threshold_26 -> BatchNorm_20 (in-place)
I0711 11:21:37.221822 27972 net.cpp:190] Setting up Threshold_26
I0711 11:21:37.221825 27972 net.cpp:197] Top shape: 1 32 64 128 (262144)
I0711 11:21:37.221829 27972 net.cpp:205] Memory required for data: 481296388
I0711 11:21:37.221832 27972 layer_factory.hpp:123] Creating layer ConvNd_23
I0711 11:21:37.221837 27972 net.cpp:140] Creating Layer ConvNd_23
I0711 11:21:37.221840 27972 net.cpp:481] ConvNd_23 <- BatchNorm_20
I0711 11:21:37.221845 27972 net.cpp:455] ConvNd_23 -> ConvNd_23
I0711 11:21:37.222026 27972 net.cpp:190] Setting up ConvNd_23
I0711 11:21:37.222034 27972 net.cpp:197] Top shape: 1 32 64 128 (262144)
I0711 11:21:37.222036 27972 net.cpp:205] Memory required for data: 482344964
I0711 11:21:37.222041 27972 layer_factory.hpp:123] Creating layer BatchNorm_21
I0711 11:21:37.222048 27972 net.cpp:140] Creating Layer BatchNorm_21
I0711 11:21:37.222050 27972 net.cpp:481] BatchNorm_21 <- ConvNd_23
I0711 11:21:37.222056 27972 net.cpp:455] BatchNorm_21 -> BatchNorm_21
I0711 11:21:37.222687 27972 net.cpp:190] Setting up BatchNorm_21
I0711 11:21:37.222697 27972 net.cpp:197] Top shape: 1 32 64 128 (262144)
I0711 11:21:37.222700 27972 net.cpp:205] Memory required for data: 483393540
I0711 11:21:37.222708 27972 layer_factory.hpp:123] Creating layer Threshold_27
I0711 11:21:37.222713 27972 net.cpp:140] Creating Layer Threshold_27
I0711 11:21:37.222718 27972 net.cpp:481] Threshold_27 <- BatchNorm_21
I0711 11:21:37.222721 27972 net.cpp:442] Threshold_27 -> BatchNorm_21 (in-place)
I0711 11:21:37.222728 27972 net.cpp:190] Setting up Threshold_27
I0711 11:21:37.222731 27972 net.cpp:197] Top shape: 1 32 64 128 (262144)
I0711 11:21:37.222734 27972 net.cpp:205] Memory required for data: 484442116
I0711 11:21:37.222738 27972 layer_factory.hpp:123] Creating layer ConvNd_24
I0711 11:21:37.222743 27972 net.cpp:140] Creating Layer ConvNd_24
I0711 11:21:37.222748 27972 net.cpp:481] ConvNd_24 <- BatchNorm_21
I0711 11:21:37.222751 27972 net.cpp:455] ConvNd_24 -> ConvNd_24
I0711 11:21:37.222920 27972 net.cpp:190] Setting up ConvNd_24
I0711 11:21:37.222928 27972 net.cpp:197] Top shape: 1 128 64 128 (1048576)
I0711 11:21:37.222930 27972 net.cpp:205] Memory required for data: 488636420
I0711 11:21:37.222939 27972 layer_factory.hpp:123] Creating layer BatchNorm_22
I0711 11:21:37.222945 27972 net.cpp:140] Creating Layer BatchNorm_22
I0711 11:21:37.222949 27972 net.cpp:481] BatchNorm_22 <- ConvNd_24
I0711 11:21:37.222954 27972 net.cpp:455] BatchNorm_22 -> BatchNorm_22
I0711 11:21:37.223495 27972 net.cpp:190] Setting up BatchNorm_22
I0711 11:21:37.223503 27972 net.cpp:197] Top shape: 1 128 64 128 (1048576)
I0711 11:21:37.223506 27972 net.cpp:205] Memory required for data: 492830724
I0711 11:21:37.223515 27972 layer_factory.hpp:123] Creating layer Threshold_28
I0711 11:21:37.223520 27972 net.cpp:140] Creating Layer Threshold_28
I0711 11:21:37.223523 27972 net.cpp:481] Threshold_28 <- BatchNorm_22
I0711 11:21:37.223527 27972 net.cpp:442] Threshold_28 -> BatchNorm_22 (in-place)
I0711 11:21:37.223534 27972 net.cpp:190] Setting up Threshold_28
I0711 11:21:37.223537 27972 net.cpp:197] Top shape: 1 128 64 128 (1048576)
I0711 11:21:37.223541 27972 net.cpp:205] Memory required for data: 497025028
I0711 11:21:37.223543 27972 layer_factory.hpp:123] Creating layer Add_7
I0711 11:21:37.223548 27972 net.cpp:140] Creating Layer Add_7
I0711 11:21:37.223551 27972 net.cpp:481] Add_7 <- Add_6_Threshold_25_0_split_1
I0711 11:21:37.223556 27972 net.cpp:481] Add_7 <- BatchNorm_22
I0711 11:21:37.223560 27972 net.cpp:455] Add_7 -> Add_7
I0711 11:21:37.223579 27972 net.cpp:190] Setting up Add_7
I0711 11:21:37.223584 27972 net.cpp:197] Top shape: 1 128 64 128 (1048576)
I0711 11:21:37.223587 27972 net.cpp:205] Memory required for data: 501219332
I0711 11:21:37.223589 27972 layer_factory.hpp:123] Creating layer Threshold_29
I0711 11:21:37.223594 27972 net.cpp:140] Creating Layer Threshold_29
I0711 11:21:37.223598 27972 net.cpp:481] Threshold_29 <- Add_7
I0711 11:21:37.223601 27972 net.cpp:442] Threshold_29 -> Add_7 (in-place)
I0711 11:21:37.223606 27972 net.cpp:190] Setting up Threshold_29
I0711 11:21:37.223610 27972 net.cpp:197] Top shape: 1 128 64 128 (1048576)
I0711 11:21:37.223613 27972 net.cpp:205] Memory required for data: 505413636
I0711 11:21:37.223616 27972 layer_factory.hpp:123] Creating layer Add_7_Threshold_29_0_split
I0711 11:21:37.223620 27972 net.cpp:140] Creating Layer Add_7_Threshold_29_0_split
I0711 11:21:37.223624 27972 net.cpp:481] Add_7_Threshold_29_0_split <- Add_7
I0711 11:21:37.223628 27972 net.cpp:455] Add_7_Threshold_29_0_split -> Add_7_Threshold_29_0_split_0
I0711 11:21:37.223634 27972 net.cpp:455] Add_7_Threshold_29_0_split -> Add_7_Threshold_29_0_split_1
I0711 11:21:37.223664 27972 net.cpp:190] Setting up Add_7_Threshold_29_0_split
I0711 11:21:37.223670 27972 net.cpp:197] Top shape: 1 128 64 128 (1048576)
I0711 11:21:37.223673 27972 net.cpp:197] Top shape: 1 128 64 128 (1048576)
I0711 11:21:37.223675 27972 net.cpp:205] Memory required for data: 513802244
I0711 11:21:37.223678 27972 layer_factory.hpp:123] Creating layer ConvNd_25
I0711 11:21:37.223685 27972 net.cpp:140] Creating Layer ConvNd_25
I0711 11:21:37.223688 27972 net.cpp:481] ConvNd_25 <- Add_7_Threshold_29_0_split_0
I0711 11:21:37.223695 27972 net.cpp:455] ConvNd_25 -> ConvNd_25
I0711 11:21:37.223870 27972 net.cpp:190] Setting up ConvNd_25
I0711 11:21:37.223878 27972 net.cpp:197] Top shape: 1 32 64 128 (262144)
I0711 11:21:37.223881 27972 net.cpp:205] Memory required for data: 514850820
I0711 11:21:37.223886 27972 layer_factory.hpp:123] Creating layer BatchNorm_23
I0711 11:21:37.223891 27972 net.cpp:140] Creating Layer BatchNorm_23
I0711 11:21:37.223896 27972 net.cpp:481] BatchNorm_23 <- ConvNd_25
I0711 11:21:37.223901 27972 net.cpp:455] BatchNorm_23 -> BatchNorm_23
I0711 11:21:37.224516 27972 net.cpp:190] Setting up BatchNorm_23
I0711 11:21:37.224524 27972 net.cpp:197] Top shape: 1 32 64 128 (262144)
I0711 11:21:37.224529 27972 net.cpp:205] Memory required for data: 515899396
I0711 11:21:37.224536 27972 layer_factory.hpp:123] Creating layer Threshold_30
I0711 11:21:37.224541 27972 net.cpp:140] Creating Layer Threshold_30
I0711 11:21:37.224545 27972 net.cpp:481] Threshold_30 <- BatchNorm_23
I0711 11:21:37.224550 27972 net.cpp:442] Threshold_30 -> BatchNorm_23 (in-place)
I0711 11:21:37.224555 27972 net.cpp:190] Setting up Threshold_30
I0711 11:21:37.224558 27972 net.cpp:197] Top shape: 1 32 64 128 (262144)
I0711 11:21:37.224561 27972 net.cpp:205] Memory required for data: 516947972
I0711 11:21:37.224565 27972 layer_factory.hpp:123] Creating layer ConvNd_26
I0711 11:21:37.224571 27972 net.cpp:140] Creating Layer ConvNd_26
I0711 11:21:37.224575 27972 net.cpp:481] ConvNd_26 <- BatchNorm_23
I0711 11:21:37.224578 27972 net.cpp:455] ConvNd_26 -> ConvNd_26
I0711 11:21:37.224748 27972 net.cpp:190] Setting up ConvNd_26
I0711 11:21:37.224756 27972 net.cpp:197] Top shape: 1 32 64 128 (262144)
I0711 11:21:37.224758 27972 net.cpp:205] Memory required for data: 517996548
I0711 11:21:37.224761 27972 layer_factory.hpp:123] Creating layer BatchNorm_24
I0711 11:21:37.224768 27972 net.cpp:140] Creating Layer BatchNorm_24
I0711 11:21:37.224771 27972 net.cpp:481] BatchNorm_24 <- ConvNd_26
I0711 11:21:37.224776 27972 net.cpp:455] BatchNorm_24 -> BatchNorm_24
I0711 11:21:37.225385 27972 net.cpp:190] Setting up BatchNorm_24
I0711 11:21:37.225394 27972 net.cpp:197] Top shape: 1 32 64 128 (262144)
I0711 11:21:37.225396 27972 net.cpp:205] Memory required for data: 519045124
I0711 11:21:37.225404 27972 layer_factory.hpp:123] Creating layer Threshold_31
I0711 11:21:37.225409 27972 net.cpp:140] Creating Layer Threshold_31
I0711 11:21:37.225414 27972 net.cpp:481] Threshold_31 <- BatchNorm_24
I0711 11:21:37.225417 27972 net.cpp:442] Threshold_31 -> BatchNorm_24 (in-place)
I0711 11:21:37.225423 27972 net.cpp:190] Setting up Threshold_31
I0711 11:21:37.225426 27972 net.cpp:197] Top shape: 1 32 64 128 (262144)
I0711 11:21:37.225430 27972 net.cpp:205] Memory required for data: 520093700
I0711 11:21:37.225432 27972 layer_factory.hpp:123] Creating layer ConvNd_27
I0711 11:21:37.225438 27972 net.cpp:140] Creating Layer ConvNd_27
I0711 11:21:37.225441 27972 net.cpp:481] ConvNd_27 <- BatchNorm_24
I0711 11:21:37.225446 27972 net.cpp:455] ConvNd_27 -> ConvNd_27
I0711 11:21:37.225613 27972 net.cpp:190] Setting up ConvNd_27
I0711 11:21:37.225620 27972 net.cpp:197] Top shape: 1 128 64 128 (1048576)
I0711 11:21:37.225623 27972 net.cpp:205] Memory required for data: 524288004
I0711 11:21:37.225628 27972 layer_factory.hpp:123] Creating layer BatchNorm_25
I0711 11:21:37.225634 27972 net.cpp:140] Creating Layer BatchNorm_25
I0711 11:21:37.225637 27972 net.cpp:481] BatchNorm_25 <- ConvNd_27
I0711 11:21:37.225642 27972 net.cpp:455] BatchNorm_25 -> BatchNorm_25
I0711 11:21:37.226176 27972 net.cpp:190] Setting up BatchNorm_25
I0711 11:21:37.226182 27972 net.cpp:197] Top shape: 1 128 64 128 (1048576)
I0711 11:21:37.226186 27972 net.cpp:205] Memory required for data: 528482308
I0711 11:21:37.226193 27972 layer_factory.hpp:123] Creating layer Threshold_32
I0711 11:21:37.226199 27972 net.cpp:140] Creating Layer Threshold_32
I0711 11:21:37.226202 27972 net.cpp:481] Threshold_32 <- BatchNorm_25
I0711 11:21:37.226207 27972 net.cpp:442] Threshold_32 -> BatchNorm_25 (in-place)
I0711 11:21:37.226212 27972 net.cpp:190] Setting up Threshold_32
I0711 11:21:37.226217 27972 net.cpp:197] Top shape: 1 128 64 128 (1048576)
I0711 11:21:37.226219 27972 net.cpp:205] Memory required for data: 532676612
I0711 11:21:37.226222 27972 layer_factory.hpp:123] Creating layer Add_8
I0711 11:21:37.226227 27972 net.cpp:140] Creating Layer Add_8
I0711 11:21:37.226231 27972 net.cpp:481] Add_8 <- Add_7_Threshold_29_0_split_1
I0711 11:21:37.226234 27972 net.cpp:481] Add_8 <- BatchNorm_25
I0711 11:21:37.226239 27972 net.cpp:455] Add_8 -> Add_8
I0711 11:21:37.226258 27972 net.cpp:190] Setting up Add_8
I0711 11:21:37.226263 27972 net.cpp:197] Top shape: 1 128 64 128 (1048576)
I0711 11:21:37.226266 27972 net.cpp:205] Memory required for data: 536870916
I0711 11:21:37.226269 27972 layer_factory.hpp:123] Creating layer Threshold_33
I0711 11:21:37.226274 27972 net.cpp:140] Creating Layer Threshold_33
I0711 11:21:37.226276 27972 net.cpp:481] Threshold_33 <- Add_8
I0711 11:21:37.226280 27972 net.cpp:442] Threshold_33 -> Add_8 (in-place)
I0711 11:21:37.226285 27972 net.cpp:190] Setting up Threshold_33
I0711 11:21:37.226289 27972 net.cpp:197] Top shape: 1 128 64 128 (1048576)
I0711 11:21:37.226292 27972 net.cpp:205] Memory required for data: 541065220
I0711 11:21:37.226295 27972 layer_factory.hpp:123] Creating layer Add_8_Threshold_33_0_split
I0711 11:21:37.226300 27972 net.cpp:140] Creating Layer Add_8_Threshold_33_0_split
I0711 11:21:37.226302 27972 net.cpp:481] Add_8_Threshold_33_0_split <- Add_8
I0711 11:21:37.226307 27972 net.cpp:455] Add_8_Threshold_33_0_split -> Add_8_Threshold_33_0_split_0
I0711 11:21:37.226313 27972 net.cpp:455] Add_8_Threshold_33_0_split -> Add_8_Threshold_33_0_split_1
I0711 11:21:37.226341 27972 net.cpp:190] Setting up Add_8_Threshold_33_0_split
I0711 11:21:37.226347 27972 net.cpp:197] Top shape: 1 128 64 128 (1048576)
I0711 11:21:37.226351 27972 net.cpp:197] Top shape: 1 128 64 128 (1048576)
I0711 11:21:37.226354 27972 net.cpp:205] Memory required for data: 549453828
I0711 11:21:37.226356 27972 layer_factory.hpp:123] Creating layer ConvNd_28
I0711 11:21:37.226363 27972 net.cpp:140] Creating Layer ConvNd_28
I0711 11:21:37.226367 27972 net.cpp:481] ConvNd_28 <- Add_8_Threshold_33_0_split_0
I0711 11:21:37.226372 27972 net.cpp:455] ConvNd_28 -> ConvNd_28
I0711 11:21:37.226536 27972 net.cpp:190] Setting up ConvNd_28
I0711 11:21:37.226543 27972 net.cpp:197] Top shape: 1 32 64 128 (262144)
I0711 11:21:37.226547 27972 net.cpp:205] Memory required for data: 550502404
I0711 11:21:37.226550 27972 layer_factory.hpp:123] Creating layer BatchNorm_26
I0711 11:21:37.226557 27972 net.cpp:140] Creating Layer BatchNorm_26
I0711 11:21:37.226560 27972 net.cpp:481] BatchNorm_26 <- ConvNd_28
I0711 11:21:37.226567 27972 net.cpp:455] BatchNorm_26 -> BatchNorm_26
I0711 11:21:37.227177 27972 net.cpp:190] Setting up BatchNorm_26
I0711 11:21:37.227185 27972 net.cpp:197] Top shape: 1 32 64 128 (262144)
I0711 11:21:37.227188 27972 net.cpp:205] Memory required for data: 551550980
I0711 11:21:37.227197 27972 layer_factory.hpp:123] Creating layer Threshold_34
I0711 11:21:37.227202 27972 net.cpp:140] Creating Layer Threshold_34
I0711 11:21:37.227205 27972 net.cpp:481] Threshold_34 <- BatchNorm_26
I0711 11:21:37.227210 27972 net.cpp:442] Threshold_34 -> BatchNorm_26 (in-place)
I0711 11:21:37.227216 27972 net.cpp:190] Setting up Threshold_34
I0711 11:21:37.227219 27972 net.cpp:197] Top shape: 1 32 64 128 (262144)
I0711 11:21:37.227222 27972 net.cpp:205] Memory required for data: 552599556
I0711 11:21:37.227226 27972 layer_factory.hpp:123] Creating layer ConvNd_29
I0711 11:21:37.227231 27972 net.cpp:140] Creating Layer ConvNd_29
I0711 11:21:37.227234 27972 net.cpp:481] ConvNd_29 <- BatchNorm_26
I0711 11:21:37.227238 27972 net.cpp:455] ConvNd_29 -> ConvNd_29
I0711 11:21:37.227406 27972 net.cpp:190] Setting up ConvNd_29
I0711 11:21:37.227413 27972 net.cpp:197] Top shape: 1 32 64 128 (262144)
I0711 11:21:37.227416 27972 net.cpp:205] Memory required for data: 553648132
I0711 11:21:37.227421 27972 layer_factory.hpp:123] Creating layer BatchNorm_27
I0711 11:21:37.227427 27972 net.cpp:140] Creating Layer BatchNorm_27
I0711 11:21:37.227430 27972 net.cpp:481] BatchNorm_27 <- ConvNd_29
I0711 11:21:37.227435 27972 net.cpp:455] BatchNorm_27 -> BatchNorm_27
I0711 11:21:37.228060 27972 net.cpp:190] Setting up BatchNorm_27
I0711 11:21:37.228068 27972 net.cpp:197] Top shape: 1 32 64 128 (262144)
I0711 11:21:37.228071 27972 net.cpp:205] Memory required for data: 554696708
I0711 11:21:37.228080 27972 layer_factory.hpp:123] Creating layer Threshold_35
I0711 11:21:37.228085 27972 net.cpp:140] Creating Layer Threshold_35
I0711 11:21:37.228088 27972 net.cpp:481] Threshold_35 <- BatchNorm_27
I0711 11:21:37.228093 27972 net.cpp:442] Threshold_35 -> BatchNorm_27 (in-place)
I0711 11:21:37.228099 27972 net.cpp:190] Setting up Threshold_35
I0711 11:21:37.228102 27972 net.cpp:197] Top shape: 1 32 64 128 (262144)
I0711 11:21:37.228106 27972 net.cpp:205] Memory required for data: 555745284
I0711 11:21:37.228108 27972 layer_factory.hpp:123] Creating layer ConvNd_30
I0711 11:21:37.228114 27972 net.cpp:140] Creating Layer ConvNd_30
I0711 11:21:37.228117 27972 net.cpp:481] ConvNd_30 <- BatchNorm_27
I0711 11:21:37.228122 27972 net.cpp:455] ConvNd_30 -> ConvNd_30
I0711 11:21:37.228291 27972 net.cpp:190] Setting up ConvNd_30
I0711 11:21:37.228297 27972 net.cpp:197] Top shape: 1 32 64 128 (262144)
I0711 11:21:37.228301 27972 net.cpp:205] Memory required for data: 556793860
I0711 11:21:37.228304 27972 layer_factory.hpp:123] Creating layer BatchNorm_28
I0711 11:21:37.228312 27972 net.cpp:140] Creating Layer BatchNorm_28
I0711 11:21:37.228314 27972 net.cpp:481] BatchNorm_28 <- ConvNd_30
I0711 11:21:37.228319 27972 net.cpp:455] BatchNorm_28 -> BatchNorm_28
I0711 11:21:37.228925 27972 net.cpp:190] Setting up BatchNorm_28
I0711 11:21:37.228933 27972 net.cpp:197] Top shape: 1 32 64 128 (262144)
I0711 11:21:37.228936 27972 net.cpp:205] Memory required for data: 557842436
I0711 11:21:37.228945 27972 layer_factory.hpp:123] Creating layer Threshold_36
I0711 11:21:37.228950 27972 net.cpp:140] Creating Layer Threshold_36
I0711 11:21:37.228952 27972 net.cpp:481] Threshold_36 <- BatchNorm_28
I0711 11:21:37.228956 27972 net.cpp:442] Threshold_36 -> BatchNorm_28 (in-place)
I0711 11:21:37.228962 27972 net.cpp:190] Setting up Threshold_36
I0711 11:21:37.228966 27972 net.cpp:197] Top shape: 1 32 64 128 (262144)
I0711 11:21:37.228971 27972 net.cpp:205] Memory required for data: 558891012
I0711 11:21:37.228972 27972 layer_factory.hpp:123] Creating layer ConvNd_31
I0711 11:21:37.228979 27972 net.cpp:140] Creating Layer ConvNd_31
I0711 11:21:37.228982 27972 net.cpp:481] ConvNd_31 <- BatchNorm_28
I0711 11:21:37.228987 27972 net.cpp:455] ConvNd_31 -> ConvNd_31
I0711 11:21:37.229153 27972 net.cpp:190] Setting up ConvNd_31
I0711 11:21:37.229161 27972 net.cpp:197] Top shape: 1 128 64 128 (1048576)
I0711 11:21:37.229163 27972 net.cpp:205] Memory required for data: 563085316
I0711 11:21:37.229167 27972 layer_factory.hpp:123] Creating layer BatchNorm_29
I0711 11:21:37.229174 27972 net.cpp:140] Creating Layer BatchNorm_29
I0711 11:21:37.229177 27972 net.cpp:481] BatchNorm_29 <- ConvNd_31
I0711 11:21:37.229182 27972 net.cpp:455] BatchNorm_29 -> BatchNorm_29
I0711 11:21:37.229717 27972 net.cpp:190] Setting up BatchNorm_29
I0711 11:21:37.229725 27972 net.cpp:197] Top shape: 1 128 64 128 (1048576)
I0711 11:21:37.229728 27972 net.cpp:205] Memory required for data: 567279620
I0711 11:21:37.229737 27972 layer_factory.hpp:123] Creating layer Threshold_37
I0711 11:21:37.229741 27972 net.cpp:140] Creating Layer Threshold_37
I0711 11:21:37.229744 27972 net.cpp:481] Threshold_37 <- BatchNorm_29
I0711 11:21:37.229748 27972 net.cpp:442] Threshold_37 -> BatchNorm_29 (in-place)
I0711 11:21:37.229754 27972 net.cpp:190] Setting up Threshold_37
I0711 11:21:37.229758 27972 net.cpp:197] Top shape: 1 128 64 128 (1048576)
I0711 11:21:37.229761 27972 net.cpp:205] Memory required for data: 571473924
I0711 11:21:37.229764 27972 layer_factory.hpp:123] Creating layer Add_9
I0711 11:21:37.229769 27972 net.cpp:140] Creating Layer Add_9
I0711 11:21:37.229773 27972 net.cpp:481] Add_9 <- Add_8_Threshold_33_0_split_1
I0711 11:21:37.229776 27972 net.cpp:481] Add_9 <- BatchNorm_29
I0711 11:21:37.229780 27972 net.cpp:455] Add_9 -> Add_9
I0711 11:21:37.229799 27972 net.cpp:190] Setting up Add_9
I0711 11:21:37.229804 27972 net.cpp:197] Top shape: 1 128 64 128 (1048576)
I0711 11:21:37.229807 27972 net.cpp:205] Memory required for data: 575668228
I0711 11:21:37.229809 27972 layer_factory.hpp:123] Creating layer Threshold_38
I0711 11:21:37.229815 27972 net.cpp:140] Creating Layer Threshold_38
I0711 11:21:37.229817 27972 net.cpp:481] Threshold_38 <- Add_9
I0711 11:21:37.229822 27972 net.cpp:442] Threshold_38 -> Add_9 (in-place)
I0711 11:21:37.229827 27972 net.cpp:190] Setting up Threshold_38
I0711 11:21:37.229830 27972 net.cpp:197] Top shape: 1 128 64 128 (1048576)
I0711 11:21:37.229833 27972 net.cpp:205] Memory required for data: 579862532
I0711 11:21:37.229836 27972 layer_factory.hpp:123] Creating layer Add_9_Threshold_38_0_split
I0711 11:21:37.229840 27972 net.cpp:140] Creating Layer Add_9_Threshold_38_0_split
I0711 11:21:37.229843 27972 net.cpp:481] Add_9_Threshold_38_0_split <- Add_9
I0711 11:21:37.229848 27972 net.cpp:455] Add_9_Threshold_38_0_split -> Add_9_Threshold_38_0_split_0
I0711 11:21:37.229853 27972 net.cpp:455] Add_9_Threshold_38_0_split -> Add_9_Threshold_38_0_split_1
I0711 11:21:37.229882 27972 net.cpp:190] Setting up Add_9_Threshold_38_0_split
I0711 11:21:37.229887 27972 net.cpp:197] Top shape: 1 128 64 128 (1048576)
I0711 11:21:37.229892 27972 net.cpp:197] Top shape: 1 128 64 128 (1048576)
I0711 11:21:37.229894 27972 net.cpp:205] Memory required for data: 588251140
I0711 11:21:37.229897 27972 layer_factory.hpp:123] Creating layer ConvNd_32
I0711 11:21:37.229903 27972 net.cpp:140] Creating Layer ConvNd_32
I0711 11:21:37.229907 27972 net.cpp:481] ConvNd_32 <- Add_9_Threshold_38_0_split_0
I0711 11:21:37.229912 27972 net.cpp:455] ConvNd_32 -> ConvNd_32
I0711 11:21:37.230077 27972 net.cpp:190] Setting up ConvNd_32
I0711 11:21:37.230083 27972 net.cpp:197] Top shape: 1 32 64 128 (262144)
I0711 11:21:37.230087 27972 net.cpp:205] Memory required for data: 589299716
I0711 11:21:37.230091 27972 layer_factory.hpp:123] Creating layer BatchNorm_30
I0711 11:21:37.230098 27972 net.cpp:140] Creating Layer BatchNorm_30
I0711 11:21:37.230100 27972 net.cpp:481] BatchNorm_30 <- ConvNd_32
I0711 11:21:37.230106 27972 net.cpp:455] BatchNorm_30 -> BatchNorm_30
I0711 11:21:37.230736 27972 net.cpp:190] Setting up BatchNorm_30
I0711 11:21:37.230746 27972 net.cpp:197] Top shape: 1 32 64 128 (262144)
I0711 11:21:37.230748 27972 net.cpp:205] Memory required for data: 590348292
I0711 11:21:37.230756 27972 layer_factory.hpp:123] Creating layer Threshold_39
I0711 11:21:37.230762 27972 net.cpp:140] Creating Layer Threshold_39
I0711 11:21:37.230765 27972 net.cpp:481] Threshold_39 <- BatchNorm_30
I0711 11:21:37.230769 27972 net.cpp:442] Threshold_39 -> BatchNorm_30 (in-place)
I0711 11:21:37.230777 27972 net.cpp:190] Setting up Threshold_39
I0711 11:21:37.230782 27972 net.cpp:197] Top shape: 1 32 64 128 (262144)
I0711 11:21:37.230784 27972 net.cpp:205] Memory required for data: 591396868
I0711 11:21:37.230787 27972 layer_factory.hpp:123] Creating layer ConvNd_33
I0711 11:21:37.230793 27972 net.cpp:140] Creating Layer ConvNd_33
I0711 11:21:37.230796 27972 net.cpp:481] ConvNd_33 <- BatchNorm_30
I0711 11:21:37.230801 27972 net.cpp:455] ConvNd_33 -> ConvNd_33
I0711 11:21:37.230971 27972 net.cpp:190] Setting up ConvNd_33
I0711 11:21:37.230978 27972 net.cpp:197] Top shape: 1 32 64 128 (262144)
I0711 11:21:37.230981 27972 net.cpp:205] Memory required for data: 592445444
I0711 11:21:37.230985 27972 layer_factory.hpp:123] Creating layer BatchNorm_31
I0711 11:21:37.230993 27972 net.cpp:140] Creating Layer BatchNorm_31
I0711 11:21:37.230995 27972 net.cpp:481] BatchNorm_31 <- ConvNd_33
I0711 11:21:37.231000 27972 net.cpp:455] BatchNorm_31 -> BatchNorm_31
I0711 11:21:37.231612 27972 net.cpp:190] Setting up BatchNorm_31
I0711 11:21:37.231621 27972 net.cpp:197] Top shape: 1 32 64 128 (262144)
I0711 11:21:37.231623 27972 net.cpp:205] Memory required for data: 593494020
I0711 11:21:37.231631 27972 layer_factory.hpp:123] Creating layer Threshold_40
I0711 11:21:37.231639 27972 net.cpp:140] Creating Layer Threshold_40
I0711 11:21:37.231643 27972 net.cpp:481] Threshold_40 <- BatchNorm_31
I0711 11:21:37.231648 27972 net.cpp:442] Threshold_40 -> BatchNorm_31 (in-place)
I0711 11:21:37.231653 27972 net.cpp:190] Setting up Threshold_40
I0711 11:21:37.231657 27972 net.cpp:197] Top shape: 1 32 64 128 (262144)
I0711 11:21:37.231660 27972 net.cpp:205] Memory required for data: 594542596
I0711 11:21:37.231663 27972 layer_factory.hpp:123] Creating layer ConvNd_34
I0711 11:21:37.231669 27972 net.cpp:140] Creating Layer ConvNd_34
I0711 11:21:37.231673 27972 net.cpp:481] ConvNd_34 <- BatchNorm_31
I0711 11:21:37.231676 27972 net.cpp:455] ConvNd_34 -> ConvNd_34
I0711 11:21:37.231856 27972 net.cpp:190] Setting up ConvNd_34
I0711 11:21:37.231864 27972 net.cpp:197] Top shape: 1 128 64 128 (1048576)
I0711 11:21:37.231868 27972 net.cpp:205] Memory required for data: 598736900
I0711 11:21:37.231871 27972 layer_factory.hpp:123] Creating layer BatchNorm_32
I0711 11:21:37.231878 27972 net.cpp:140] Creating Layer BatchNorm_32
I0711 11:21:37.231881 27972 net.cpp:481] BatchNorm_32 <- ConvNd_34
I0711 11:21:37.231886 27972 net.cpp:455] BatchNorm_32 -> BatchNorm_32
I0711 11:21:37.232422 27972 net.cpp:190] Setting up BatchNorm_32
I0711 11:21:37.232430 27972 net.cpp:197] Top shape: 1 128 64 128 (1048576)
I0711 11:21:37.232434 27972 net.cpp:205] Memory required for data: 602931204
I0711 11:21:37.232441 27972 layer_factory.hpp:123] Creating layer Threshold_41
I0711 11:21:37.232446 27972 net.cpp:140] Creating Layer Threshold_41
I0711 11:21:37.232450 27972 net.cpp:481] Threshold_41 <- BatchNorm_32
I0711 11:21:37.232455 27972 net.cpp:442] Threshold_41 -> BatchNorm_32 (in-place)
I0711 11:21:37.232460 27972 net.cpp:190] Setting up Threshold_41
I0711 11:21:37.232463 27972 net.cpp:197] Top shape: 1 128 64 128 (1048576)
I0711 11:21:37.232466 27972 net.cpp:205] Memory required for data: 607125508
I0711 11:21:37.232470 27972 layer_factory.hpp:123] Creating layer Add_10
I0711 11:21:37.232475 27972 net.cpp:140] Creating Layer Add_10
I0711 11:21:37.232477 27972 net.cpp:481] Add_10 <- Add_9_Threshold_38_0_split_1
I0711 11:21:37.232481 27972 net.cpp:481] Add_10 <- BatchNorm_32
I0711 11:21:37.232486 27972 net.cpp:455] Add_10 -> Add_10
I0711 11:21:37.232506 27972 net.cpp:190] Setting up Add_10
I0711 11:21:37.232511 27972 net.cpp:197] Top shape: 1 128 64 128 (1048576)
I0711 11:21:37.232513 27972 net.cpp:205] Memory required for data: 611319812
I0711 11:21:37.232515 27972 layer_factory.hpp:123] Creating layer Threshold_42
I0711 11:21:37.232520 27972 net.cpp:140] Creating Layer Threshold_42
I0711 11:21:37.232523 27972 net.cpp:481] Threshold_42 <- Add_10
I0711 11:21:37.232527 27972 net.cpp:442] Threshold_42 -> Add_10 (in-place)
I0711 11:21:37.232533 27972 net.cpp:190] Setting up Threshold_42
I0711 11:21:37.232537 27972 net.cpp:197] Top shape: 1 128 64 128 (1048576)
I0711 11:21:37.232539 27972 net.cpp:205] Memory required for data: 615514116
I0711 11:21:37.232542 27972 layer_factory.hpp:123] Creating layer Add_10_Threshold_42_0_split
I0711 11:21:37.232547 27972 net.cpp:140] Creating Layer Add_10_Threshold_42_0_split
I0711 11:21:37.232550 27972 net.cpp:481] Add_10_Threshold_42_0_split <- Add_10
I0711 11:21:37.232554 27972 net.cpp:455] Add_10_Threshold_42_0_split -> Add_10_Threshold_42_0_split_0
I0711 11:21:37.232560 27972 net.cpp:455] Add_10_Threshold_42_0_split -> Add_10_Threshold_42_0_split_1
I0711 11:21:37.232587 27972 net.cpp:190] Setting up Add_10_Threshold_42_0_split
I0711 11:21:37.232594 27972 net.cpp:197] Top shape: 1 128 64 128 (1048576)
I0711 11:21:37.232597 27972 net.cpp:197] Top shape: 1 128 64 128 (1048576)
I0711 11:21:37.232600 27972 net.cpp:205] Memory required for data: 623902724
I0711 11:21:37.232604 27972 layer_factory.hpp:123] Creating layer ConvNd_35
I0711 11:21:37.232609 27972 net.cpp:140] Creating Layer ConvNd_35
I0711 11:21:37.232612 27972 net.cpp:481] ConvNd_35 <- Add_10_Threshold_42_0_split_0
I0711 11:21:37.232619 27972 net.cpp:455] ConvNd_35 -> ConvNd_35
I0711 11:21:37.232784 27972 net.cpp:190] Setting up ConvNd_35
I0711 11:21:37.232792 27972 net.cpp:197] Top shape: 1 32 64 128 (262144)
I0711 11:21:37.232795 27972 net.cpp:205] Memory required for data: 624951300
I0711 11:21:37.232800 27972 layer_factory.hpp:123] Creating layer BatchNorm_33
I0711 11:21:37.232805 27972 net.cpp:140] Creating Layer BatchNorm_33
I0711 11:21:37.232810 27972 net.cpp:481] BatchNorm_33 <- ConvNd_35
I0711 11:21:37.232815 27972 net.cpp:455] BatchNorm_33 -> BatchNorm_33
I0711 11:21:37.233431 27972 net.cpp:190] Setting up BatchNorm_33
I0711 11:21:37.233439 27972 net.cpp:197] Top shape: 1 32 64 128 (262144)
I0711 11:21:37.233443 27972 net.cpp:205] Memory required for data: 625999876
I0711 11:21:37.233450 27972 layer_factory.hpp:123] Creating layer Threshold_43
I0711 11:21:37.233455 27972 net.cpp:140] Creating Layer Threshold_43
I0711 11:21:37.233458 27972 net.cpp:481] Threshold_43 <- BatchNorm_33
I0711 11:21:37.233464 27972 net.cpp:442] Threshold_43 -> BatchNorm_33 (in-place)
I0711 11:21:37.233469 27972 net.cpp:190] Setting up Threshold_43
I0711 11:21:37.233472 27972 net.cpp:197] Top shape: 1 32 64 128 (262144)
I0711 11:21:37.233475 27972 net.cpp:205] Memory required for data: 627048452
I0711 11:21:37.233479 27972 layer_factory.hpp:123] Creating layer ConvNd_36
I0711 11:21:37.233484 27972 net.cpp:140] Creating Layer ConvNd_36
I0711 11:21:37.233487 27972 net.cpp:481] ConvNd_36 <- BatchNorm_33
I0711 11:21:37.233492 27972 net.cpp:455] ConvNd_36 -> ConvNd_36
I0711 11:21:37.233665 27972 net.cpp:190] Setting up ConvNd_36
I0711 11:21:37.233673 27972 net.cpp:197] Top shape: 1 32 64 128 (262144)
I0711 11:21:37.233676 27972 net.cpp:205] Memory required for data: 628097028
I0711 11:21:37.233680 27972 layer_factory.hpp:123] Creating layer BatchNorm_34
I0711 11:21:37.233686 27972 net.cpp:140] Creating Layer BatchNorm_34
I0711 11:21:37.233690 27972 net.cpp:481] BatchNorm_34 <- ConvNd_36
I0711 11:21:37.233696 27972 net.cpp:455] BatchNorm_34 -> BatchNorm_34
I0711 11:21:37.234310 27972 net.cpp:190] Setting up BatchNorm_34
I0711 11:21:37.234318 27972 net.cpp:197] Top shape: 1 32 64 128 (262144)
I0711 11:21:37.234320 27972 net.cpp:205] Memory required for data: 629145604
I0711 11:21:37.234329 27972 layer_factory.hpp:123] Creating layer Threshold_44
I0711 11:21:37.234334 27972 net.cpp:140] Creating Layer Threshold_44
I0711 11:21:37.234338 27972 net.cpp:481] Threshold_44 <- BatchNorm_34
I0711 11:21:37.234341 27972 net.cpp:442] Threshold_44 -> BatchNorm_34 (in-place)
I0711 11:21:37.234349 27972 net.cpp:190] Setting up Threshold_44
I0711 11:21:37.234351 27972 net.cpp:197] Top shape: 1 32 64 128 (262144)
I0711 11:21:37.234354 27972 net.cpp:205] Memory required for data: 630194180
I0711 11:21:37.234357 27972 layer_factory.hpp:123] Creating layer ConvNd_37
I0711 11:21:37.234364 27972 net.cpp:140] Creating Layer ConvNd_37
I0711 11:21:37.234366 27972 net.cpp:481] ConvNd_37 <- BatchNorm_34
I0711 11:21:37.234371 27972 net.cpp:455] ConvNd_37 -> ConvNd_37
I0711 11:21:37.234539 27972 net.cpp:190] Setting up ConvNd_37
I0711 11:21:37.234545 27972 net.cpp:197] Top shape: 1 128 64 128 (1048576)
I0711 11:21:37.234549 27972 net.cpp:205] Memory required for data: 634388484
I0711 11:21:37.234552 27972 layer_factory.hpp:123] Creating layer BatchNorm_35
I0711 11:21:37.234560 27972 net.cpp:140] Creating Layer BatchNorm_35
I0711 11:21:37.234563 27972 net.cpp:481] BatchNorm_35 <- ConvNd_37
I0711 11:21:37.234568 27972 net.cpp:455] BatchNorm_35 -> BatchNorm_35
I0711 11:21:37.235102 27972 net.cpp:190] Setting up BatchNorm_35
I0711 11:21:37.235110 27972 net.cpp:197] Top shape: 1 128 64 128 (1048576)
I0711 11:21:37.235112 27972 net.cpp:205] Memory required for data: 638582788
I0711 11:21:37.235121 27972 layer_factory.hpp:123] Creating layer Threshold_45
I0711 11:21:37.235126 27972 net.cpp:140] Creating Layer Threshold_45
I0711 11:21:37.235129 27972 net.cpp:481] Threshold_45 <- BatchNorm_35
I0711 11:21:37.235133 27972 net.cpp:442] Threshold_45 -> BatchNorm_35 (in-place)
I0711 11:21:37.235139 27972 net.cpp:190] Setting up Threshold_45
I0711 11:21:37.235143 27972 net.cpp:197] Top shape: 1 128 64 128 (1048576)
I0711 11:21:37.235146 27972 net.cpp:205] Memory required for data: 642777092
I0711 11:21:37.235149 27972 layer_factory.hpp:123] Creating layer Add_11
I0711 11:21:37.235154 27972 net.cpp:140] Creating Layer Add_11
I0711 11:21:37.235157 27972 net.cpp:481] Add_11 <- Add_10_Threshold_42_0_split_1
I0711 11:21:37.235162 27972 net.cpp:481] Add_11 <- BatchNorm_35
I0711 11:21:37.235167 27972 net.cpp:455] Add_11 -> Add_11
I0711 11:21:37.235185 27972 net.cpp:190] Setting up Add_11
I0711 11:21:37.235189 27972 net.cpp:197] Top shape: 1 128 64 128 (1048576)
I0711 11:21:37.235193 27972 net.cpp:205] Memory required for data: 646971396
I0711 11:21:37.235195 27972 layer_factory.hpp:123] Creating layer Threshold_46
I0711 11:21:37.235199 27972 net.cpp:140] Creating Layer Threshold_46
I0711 11:21:37.235203 27972 net.cpp:481] Threshold_46 <- Add_11
I0711 11:21:37.235206 27972 net.cpp:442] Threshold_46 -> Add_11 (in-place)
I0711 11:21:37.235211 27972 net.cpp:190] Setting up Threshold_46
I0711 11:21:37.235215 27972 net.cpp:197] Top shape: 1 128 64 128 (1048576)
I0711 11:21:37.235219 27972 net.cpp:205] Memory required for data: 651165700
I0711 11:21:37.235220 27972 layer_factory.hpp:123] Creating layer Add_11_Threshold_46_0_split
I0711 11:21:37.235225 27972 net.cpp:140] Creating Layer Add_11_Threshold_46_0_split
I0711 11:21:37.235229 27972 net.cpp:481] Add_11_Threshold_46_0_split <- Add_11
I0711 11:21:37.235232 27972 net.cpp:455] Add_11_Threshold_46_0_split -> Add_11_Threshold_46_0_split_0
I0711 11:21:37.235239 27972 net.cpp:455] Add_11_Threshold_46_0_split -> Add_11_Threshold_46_0_split_1
I0711 11:21:37.235266 27972 net.cpp:190] Setting up Add_11_Threshold_46_0_split
I0711 11:21:37.235272 27972 net.cpp:197] Top shape: 1 128 64 128 (1048576)
I0711 11:21:37.235276 27972 net.cpp:197] Top shape: 1 128 64 128 (1048576)
I0711 11:21:37.235278 27972 net.cpp:205] Memory required for data: 659554308
I0711 11:21:37.235281 27972 layer_factory.hpp:123] Creating layer ConvNd_38
I0711 11:21:37.235288 27972 net.cpp:140] Creating Layer ConvNd_38
I0711 11:21:37.235291 27972 net.cpp:481] ConvNd_38 <- Add_11_Threshold_46_0_split_0
I0711 11:21:37.235296 27972 net.cpp:455] ConvNd_38 -> ConvNd_38
I0711 11:21:37.235462 27972 net.cpp:190] Setting up ConvNd_38
I0711 11:21:37.235471 27972 net.cpp:197] Top shape: 1 32 64 128 (262144)
I0711 11:21:37.235472 27972 net.cpp:205] Memory required for data: 660602884
I0711 11:21:37.235477 27972 layer_factory.hpp:123] Creating layer BatchNorm_36
I0711 11:21:37.235483 27972 net.cpp:140] Creating Layer BatchNorm_36
I0711 11:21:37.235486 27972 net.cpp:481] BatchNorm_36 <- ConvNd_38
I0711 11:21:37.235491 27972 net.cpp:455] BatchNorm_36 -> BatchNorm_36
I0711 11:21:37.236119 27972 net.cpp:190] Setting up BatchNorm_36
I0711 11:21:37.236127 27972 net.cpp:197] Top shape: 1 32 64 128 (262144)
I0711 11:21:37.236130 27972 net.cpp:205] Memory required for data: 661651460
I0711 11:21:37.236138 27972 layer_factory.hpp:123] Creating layer Threshold_47
I0711 11:21:37.236143 27972 net.cpp:140] Creating Layer Threshold_47
I0711 11:21:37.236146 27972 net.cpp:481] Threshold_47 <- BatchNorm_36
I0711 11:21:37.236151 27972 net.cpp:442] Threshold_47 -> BatchNorm_36 (in-place)
I0711 11:21:37.236156 27972 net.cpp:190] Setting up Threshold_47
I0711 11:21:37.236160 27972 net.cpp:197] Top shape: 1 32 64 128 (262144)
I0711 11:21:37.236165 27972 net.cpp:205] Memory required for data: 662700036
I0711 11:21:37.236166 27972 layer_factory.hpp:123] Creating layer ConvNd_39
I0711 11:21:37.236172 27972 net.cpp:140] Creating Layer ConvNd_39
I0711 11:21:37.236176 27972 net.cpp:481] ConvNd_39 <- BatchNorm_36
I0711 11:21:37.236181 27972 net.cpp:455] ConvNd_39 -> ConvNd_39
I0711 11:21:37.236348 27972 net.cpp:190] Setting up ConvNd_39
I0711 11:21:37.236356 27972 net.cpp:197] Top shape: 1 32 64 128 (262144)
I0711 11:21:37.236358 27972 net.cpp:205] Memory required for data: 663748612
I0711 11:21:37.236363 27972 layer_factory.hpp:123] Creating layer BatchNorm_37
I0711 11:21:37.236369 27972 net.cpp:140] Creating Layer BatchNorm_37
I0711 11:21:37.236372 27972 net.cpp:481] BatchNorm_37 <- ConvNd_39
I0711 11:21:37.236378 27972 net.cpp:455] BatchNorm_37 -> BatchNorm_37
I0711 11:21:37.236981 27972 net.cpp:190] Setting up BatchNorm_37
I0711 11:21:37.236989 27972 net.cpp:197] Top shape: 1 32 64 128 (262144)
I0711 11:21:37.236991 27972 net.cpp:205] Memory required for data: 664797188
I0711 11:21:37.237000 27972 layer_factory.hpp:123] Creating layer Threshold_48
I0711 11:21:37.237005 27972 net.cpp:140] Creating Layer Threshold_48
I0711 11:21:37.237010 27972 net.cpp:481] Threshold_48 <- BatchNorm_37
I0711 11:21:37.237013 27972 net.cpp:442] Threshold_48 -> BatchNorm_37 (in-place)
I0711 11:21:37.237018 27972 net.cpp:190] Setting up Threshold_48
I0711 11:21:37.237022 27972 net.cpp:197] Top shape: 1 32 64 128 (262144)
I0711 11:21:37.237025 27972 net.cpp:205] Memory required for data: 665845764
I0711 11:21:37.237028 27972 layer_factory.hpp:123] Creating layer ConvNd_40
I0711 11:21:37.237035 27972 net.cpp:140] Creating Layer ConvNd_40
I0711 11:21:37.237037 27972 net.cpp:481] ConvNd_40 <- BatchNorm_37
I0711 11:21:37.237042 27972 net.cpp:455] ConvNd_40 -> ConvNd_40
I0711 11:21:37.237211 27972 net.cpp:190] Setting up ConvNd_40
I0711 11:21:37.237219 27972 net.cpp:197] Top shape: 1 128 64 128 (1048576)
I0711 11:21:37.237222 27972 net.cpp:205] Memory required for data: 670040068
I0711 11:21:37.237226 27972 layer_factory.hpp:123] Creating layer BatchNorm_38
I0711 11:21:37.237233 27972 net.cpp:140] Creating Layer BatchNorm_38
I0711 11:21:37.237236 27972 net.cpp:481] BatchNorm_38 <- ConvNd_40
I0711 11:21:37.237241 27972 net.cpp:455] BatchNorm_38 -> BatchNorm_38
I0711 11:21:37.237778 27972 net.cpp:190] Setting up BatchNorm_38
I0711 11:21:37.237787 27972 net.cpp:197] Top shape: 1 128 64 128 (1048576)
I0711 11:21:37.237788 27972 net.cpp:205] Memory required for data: 674234372
I0711 11:21:37.237797 27972 layer_factory.hpp:123] Creating layer Threshold_49
I0711 11:21:37.237802 27972 net.cpp:140] Creating Layer Threshold_49
I0711 11:21:37.237805 27972 net.cpp:481] Threshold_49 <- BatchNorm_38
I0711 11:21:37.237809 27972 net.cpp:442] Threshold_49 -> BatchNorm_38 (in-place)
I0711 11:21:37.237815 27972 net.cpp:190] Setting up Threshold_49
I0711 11:21:37.237819 27972 net.cpp:197] Top shape: 1 128 64 128 (1048576)
I0711 11:21:37.237823 27972 net.cpp:205] Memory required for data: 678428676
I0711 11:21:37.237825 27972 layer_factory.hpp:123] Creating layer Add_12
I0711 11:21:37.237830 27972 net.cpp:140] Creating Layer Add_12
I0711 11:21:37.237833 27972 net.cpp:481] Add_12 <- Add_11_Threshold_46_0_split_1
I0711 11:21:37.237838 27972 net.cpp:481] Add_12 <- BatchNorm_38
I0711 11:21:37.237841 27972 net.cpp:455] Add_12 -> Add_12
I0711 11:21:37.237861 27972 net.cpp:190] Setting up Add_12
I0711 11:21:37.237865 27972 net.cpp:197] Top shape: 1 128 64 128 (1048576)
I0711 11:21:37.237869 27972 net.cpp:205] Memory required for data: 682622980
I0711 11:21:37.237871 27972 layer_factory.hpp:123] Creating layer Threshold_50
I0711 11:21:37.237875 27972 net.cpp:140] Creating Layer Threshold_50
I0711 11:21:37.237879 27972 net.cpp:481] Threshold_50 <- Add_12
I0711 11:21:37.237882 27972 net.cpp:442] Threshold_50 -> Add_12 (in-place)
I0711 11:21:37.237887 27972 net.cpp:190] Setting up Threshold_50
I0711 11:21:37.237891 27972 net.cpp:197] Top shape: 1 128 64 128 (1048576)
I0711 11:21:37.237895 27972 net.cpp:205] Memory required for data: 686817284
I0711 11:21:37.237896 27972 layer_factory.hpp:123] Creating layer Add_12_Threshold_50_0_split
I0711 11:21:37.237901 27972 net.cpp:140] Creating Layer Add_12_Threshold_50_0_split
I0711 11:21:37.237905 27972 net.cpp:481] Add_12_Threshold_50_0_split <- Add_12
I0711 11:21:37.237908 27972 net.cpp:455] Add_12_Threshold_50_0_split -> Add_12_Threshold_50_0_split_0
I0711 11:21:37.237915 27972 net.cpp:455] Add_12_Threshold_50_0_split -> Add_12_Threshold_50_0_split_1
I0711 11:21:37.237942 27972 net.cpp:190] Setting up Add_12_Threshold_50_0_split
I0711 11:21:37.237951 27972 net.cpp:197] Top shape: 1 128 64 128 (1048576)
I0711 11:21:37.237956 27972 net.cpp:197] Top shape: 1 128 64 128 (1048576)
I0711 11:21:37.237958 27972 net.cpp:205] Memory required for data: 695205892
I0711 11:21:37.237962 27972 layer_factory.hpp:123] Creating layer ConvNd_41
I0711 11:21:37.237967 27972 net.cpp:140] Creating Layer ConvNd_41
I0711 11:21:37.237972 27972 net.cpp:481] ConvNd_41 <- Add_12_Threshold_50_0_split_0
I0711 11:21:37.237977 27972 net.cpp:455] ConvNd_41 -> ConvNd_41
I0711 11:21:37.238143 27972 net.cpp:190] Setting up ConvNd_41
I0711 11:21:37.238150 27972 net.cpp:197] Top shape: 1 32 64 128 (262144)
I0711 11:21:37.238153 27972 net.cpp:205] Memory required for data: 696254468
I0711 11:21:37.238157 27972 layer_factory.hpp:123] Creating layer BatchNorm_39
I0711 11:21:37.238164 27972 net.cpp:140] Creating Layer BatchNorm_39
I0711 11:21:37.238168 27972 net.cpp:481] BatchNorm_39 <- ConvNd_41
I0711 11:21:37.238173 27972 net.cpp:455] BatchNorm_39 -> BatchNorm_39
I0711 11:21:37.238806 27972 net.cpp:190] Setting up BatchNorm_39
I0711 11:21:37.238816 27972 net.cpp:197] Top shape: 1 32 64 128 (262144)
I0711 11:21:37.238819 27972 net.cpp:205] Memory required for data: 697303044
I0711 11:21:37.238828 27972 layer_factory.hpp:123] Creating layer Threshold_51
I0711 11:21:37.238833 27972 net.cpp:140] Creating Layer Threshold_51
I0711 11:21:37.238837 27972 net.cpp:481] Threshold_51 <- BatchNorm_39
I0711 11:21:37.238842 27972 net.cpp:442] Threshold_51 -> BatchNorm_39 (in-place)
I0711 11:21:37.238848 27972 net.cpp:190] Setting up Threshold_51
I0711 11:21:37.238852 27972 net.cpp:197] Top shape: 1 32 64 128 (262144)
I0711 11:21:37.238855 27972 net.cpp:205] Memory required for data: 698351620
I0711 11:21:37.238858 27972 layer_factory.hpp:123] Creating layer ConvNd_42
I0711 11:21:37.238864 27972 net.cpp:140] Creating Layer ConvNd_42
I0711 11:21:37.238867 27972 net.cpp:481] ConvNd_42 <- BatchNorm_39
I0711 11:21:37.238873 27972 net.cpp:455] ConvNd_42 -> ConvNd_42
I0711 11:21:37.239042 27972 net.cpp:190] Setting up ConvNd_42
I0711 11:21:37.239049 27972 net.cpp:197] Top shape: 1 32 64 128 (262144)
I0711 11:21:37.239053 27972 net.cpp:205] Memory required for data: 699400196
I0711 11:21:37.239056 27972 layer_factory.hpp:123] Creating layer BatchNorm_40
I0711 11:21:37.239063 27972 net.cpp:140] Creating Layer BatchNorm_40
I0711 11:21:37.239066 27972 net.cpp:481] BatchNorm_40 <- ConvNd_42
I0711 11:21:37.239073 27972 net.cpp:455] BatchNorm_40 -> BatchNorm_40
I0711 11:21:37.239688 27972 net.cpp:190] Setting up BatchNorm_40
I0711 11:21:37.239697 27972 net.cpp:197] Top shape: 1 32 64 128 (262144)
I0711 11:21:37.239701 27972 net.cpp:205] Memory required for data: 700448772
I0711 11:21:37.239708 27972 layer_factory.hpp:123] Creating layer Threshold_52
I0711 11:21:37.239713 27972 net.cpp:140] Creating Layer Threshold_52
I0711 11:21:37.239717 27972 net.cpp:481] Threshold_52 <- BatchNorm_40
I0711 11:21:37.239722 27972 net.cpp:442] Threshold_52 -> BatchNorm_40 (in-place)
I0711 11:21:37.239727 27972 net.cpp:190] Setting up Threshold_52
I0711 11:21:37.239730 27972 net.cpp:197] Top shape: 1 32 64 128 (262144)
I0711 11:21:37.239733 27972 net.cpp:205] Memory required for data: 701497348
I0711 11:21:37.239737 27972 layer_factory.hpp:123] Creating layer ConvNd_43
I0711 11:21:37.239742 27972 net.cpp:140] Creating Layer ConvNd_43
I0711 11:21:37.239745 27972 net.cpp:481] ConvNd_43 <- BatchNorm_40
I0711 11:21:37.239750 27972 net.cpp:455] ConvNd_43 -> ConvNd_43
I0711 11:21:37.239929 27972 net.cpp:190] Setting up ConvNd_43
I0711 11:21:37.239938 27972 net.cpp:197] Top shape: 1 32 64 128 (262144)
I0711 11:21:37.239940 27972 net.cpp:205] Memory required for data: 702545924
I0711 11:21:37.239945 27972 layer_factory.hpp:123] Creating layer BatchNorm_41
I0711 11:21:37.239951 27972 net.cpp:140] Creating Layer BatchNorm_41
I0711 11:21:37.239954 27972 net.cpp:481] BatchNorm_41 <- ConvNd_43
I0711 11:21:37.239960 27972 net.cpp:455] BatchNorm_41 -> BatchNorm_41
I0711 11:21:37.240572 27972 net.cpp:190] Setting up BatchNorm_41
I0711 11:21:37.240581 27972 net.cpp:197] Top shape: 1 32 64 128 (262144)
I0711 11:21:37.240582 27972 net.cpp:205] Memory required for data: 703594500
I0711 11:21:37.240592 27972 layer_factory.hpp:123] Creating layer Threshold_53
I0711 11:21:37.240597 27972 net.cpp:140] Creating Layer Threshold_53
I0711 11:21:37.240599 27972 net.cpp:481] Threshold_53 <- BatchNorm_41
I0711 11:21:37.240603 27972 net.cpp:442] Threshold_53 -> BatchNorm_41 (in-place)
I0711 11:21:37.240609 27972 net.cpp:190] Setting up Threshold_53
I0711 11:21:37.240613 27972 net.cpp:197] Top shape: 1 32 64 128 (262144)
I0711 11:21:37.240617 27972 net.cpp:205] Memory required for data: 704643076
I0711 11:21:37.240619 27972 layer_factory.hpp:123] Creating layer ConvNd_44
I0711 11:21:37.240625 27972 net.cpp:140] Creating Layer ConvNd_44
I0711 11:21:37.240628 27972 net.cpp:481] ConvNd_44 <- BatchNorm_41
I0711 11:21:37.240633 27972 net.cpp:455] ConvNd_44 -> ConvNd_44
I0711 11:21:37.240803 27972 net.cpp:190] Setting up ConvNd_44
I0711 11:21:37.240810 27972 net.cpp:197] Top shape: 1 128 64 128 (1048576)
I0711 11:21:37.240813 27972 net.cpp:205] Memory required for data: 708837380
I0711 11:21:37.240818 27972 layer_factory.hpp:123] Creating layer BatchNorm_42
I0711 11:21:37.240824 27972 net.cpp:140] Creating Layer BatchNorm_42
I0711 11:21:37.240828 27972 net.cpp:481] BatchNorm_42 <- ConvNd_44
I0711 11:21:37.240833 27972 net.cpp:455] BatchNorm_42 -> BatchNorm_42
I0711 11:21:37.241371 27972 net.cpp:190] Setting up BatchNorm_42
I0711 11:21:37.241379 27972 net.cpp:197] Top shape: 1 128 64 128 (1048576)
I0711 11:21:37.241381 27972 net.cpp:205] Memory required for data: 713031684
I0711 11:21:37.241390 27972 layer_factory.hpp:123] Creating layer Threshold_54
I0711 11:21:37.241395 27972 net.cpp:140] Creating Layer Threshold_54
I0711 11:21:37.241398 27972 net.cpp:481] Threshold_54 <- BatchNorm_42
I0711 11:21:37.241402 27972 net.cpp:442] Threshold_54 -> BatchNorm_42 (in-place)
I0711 11:21:37.241408 27972 net.cpp:190] Setting up Threshold_54
I0711 11:21:37.241412 27972 net.cpp:197] Top shape: 1 128 64 128 (1048576)
I0711 11:21:37.241415 27972 net.cpp:205] Memory required for data: 717225988
I0711 11:21:37.241418 27972 layer_factory.hpp:123] Creating layer Add_13
I0711 11:21:37.241423 27972 net.cpp:140] Creating Layer Add_13
I0711 11:21:37.241426 27972 net.cpp:481] Add_13 <- Add_12_Threshold_50_0_split_1
I0711 11:21:37.241430 27972 net.cpp:481] Add_13 <- BatchNorm_42
I0711 11:21:37.241436 27972 net.cpp:455] Add_13 -> Add_13
I0711 11:21:37.241454 27972 net.cpp:190] Setting up Add_13
I0711 11:21:37.241458 27972 net.cpp:197] Top shape: 1 128 64 128 (1048576)
I0711 11:21:37.241461 27972 net.cpp:205] Memory required for data: 721420292
I0711 11:21:37.241464 27972 layer_factory.hpp:123] Creating layer Threshold_55
I0711 11:21:37.241468 27972 net.cpp:140] Creating Layer Threshold_55
I0711 11:21:37.241472 27972 net.cpp:481] Threshold_55 <- Add_13
I0711 11:21:37.241477 27972 net.cpp:442] Threshold_55 -> Add_13 (in-place)
I0711 11:21:37.241482 27972 net.cpp:190] Setting up Threshold_55
I0711 11:21:37.241485 27972 net.cpp:197] Top shape: 1 128 64 128 (1048576)
I0711 11:21:37.241488 27972 net.cpp:205] Memory required for data: 725614596
I0711 11:21:37.241490 27972 layer_factory.hpp:123] Creating layer Add_13_Threshold_55_0_split
I0711 11:21:37.241495 27972 net.cpp:140] Creating Layer Add_13_Threshold_55_0_split
I0711 11:21:37.241498 27972 net.cpp:481] Add_13_Threshold_55_0_split <- Add_13
I0711 11:21:37.241503 27972 net.cpp:455] Add_13_Threshold_55_0_split -> Add_13_Threshold_55_0_split_0
I0711 11:21:37.241509 27972 net.cpp:455] Add_13_Threshold_55_0_split -> Add_13_Threshold_55_0_split_1
I0711 11:21:37.241539 27972 net.cpp:190] Setting up Add_13_Threshold_55_0_split
I0711 11:21:37.241544 27972 net.cpp:197] Top shape: 1 128 64 128 (1048576)
I0711 11:21:37.241549 27972 net.cpp:197] Top shape: 1 128 64 128 (1048576)
I0711 11:21:37.241551 27972 net.cpp:205] Memory required for data: 734003204
I0711 11:21:37.241554 27972 layer_factory.hpp:123] Creating layer ConvNd_45
I0711 11:21:37.241560 27972 net.cpp:140] Creating Layer ConvNd_45
I0711 11:21:37.241564 27972 net.cpp:481] ConvNd_45 <- Add_13_Threshold_55_0_split_0
I0711 11:21:37.241569 27972 net.cpp:455] ConvNd_45 -> ConvNd_45
I0711 11:21:37.241739 27972 net.cpp:190] Setting up ConvNd_45
I0711 11:21:37.241746 27972 net.cpp:197] Top shape: 1 32 64 128 (262144)
I0711 11:21:37.241749 27972 net.cpp:205] Memory required for data: 735051780
I0711 11:21:37.241753 27972 layer_factory.hpp:123] Creating layer BatchNorm_43
I0711 11:21:37.241760 27972 net.cpp:140] Creating Layer BatchNorm_43
I0711 11:21:37.241765 27972 net.cpp:481] BatchNorm_43 <- ConvNd_45
I0711 11:21:37.241770 27972 net.cpp:455] BatchNorm_43 -> BatchNorm_43
I0711 11:21:37.242384 27972 net.cpp:190] Setting up BatchNorm_43
I0711 11:21:37.242393 27972 net.cpp:197] Top shape: 1 32 64 128 (262144)
I0711 11:21:37.242395 27972 net.cpp:205] Memory required for data: 736100356
I0711 11:21:37.242411 27972 layer_factory.hpp:123] Creating layer Threshold_56
I0711 11:21:37.242416 27972 net.cpp:140] Creating Layer Threshold_56
I0711 11:21:37.242420 27972 net.cpp:481] Threshold_56 <- BatchNorm_43
I0711 11:21:37.242424 27972 net.cpp:442] Threshold_56 -> BatchNorm_43 (in-place)
I0711 11:21:37.242432 27972 net.cpp:190] Setting up Threshold_56
I0711 11:21:37.242435 27972 net.cpp:197] Top shape: 1 32 64 128 (262144)
I0711 11:21:37.242439 27972 net.cpp:205] Memory required for data: 737148932
I0711 11:21:37.242441 27972 layer_factory.hpp:123] Creating layer ConvNd_46
I0711 11:21:37.242449 27972 net.cpp:140] Creating Layer ConvNd_46
I0711 11:21:37.242450 27972 net.cpp:481] ConvNd_46 <- BatchNorm_43
I0711 11:21:37.242455 27972 net.cpp:455] ConvNd_46 -> ConvNd_46
I0711 11:21:37.242627 27972 net.cpp:190] Setting up ConvNd_46
I0711 11:21:37.242635 27972 net.cpp:197] Top shape: 1 32 64 128 (262144)
I0711 11:21:37.242638 27972 net.cpp:205] Memory required for data: 738197508
I0711 11:21:37.242642 27972 layer_factory.hpp:123] Creating layer BatchNorm_44
I0711 11:21:37.242648 27972 net.cpp:140] Creating Layer BatchNorm_44
I0711 11:21:37.242651 27972 net.cpp:481] BatchNorm_44 <- ConvNd_46
I0711 11:21:37.242656 27972 net.cpp:455] BatchNorm_44 -> BatchNorm_44
I0711 11:21:37.243273 27972 net.cpp:190] Setting up BatchNorm_44
I0711 11:21:37.243281 27972 net.cpp:197] Top shape: 1 32 64 128 (262144)
I0711 11:21:37.243284 27972 net.cpp:205] Memory required for data: 739246084
I0711 11:21:37.243293 27972 layer_factory.hpp:123] Creating layer Threshold_57
I0711 11:21:37.243297 27972 net.cpp:140] Creating Layer Threshold_57
I0711 11:21:37.243300 27972 net.cpp:481] Threshold_57 <- BatchNorm_44
I0711 11:21:37.243305 27972 net.cpp:442] Threshold_57 -> BatchNorm_44 (in-place)
I0711 11:21:37.243311 27972 net.cpp:190] Setting up Threshold_57
I0711 11:21:37.243314 27972 net.cpp:197] Top shape: 1 32 64 128 (262144)
I0711 11:21:37.243317 27972 net.cpp:205] Memory required for data: 740294660
I0711 11:21:37.243320 27972 layer_factory.hpp:123] Creating layer ConvNd_47
I0711 11:21:37.243326 27972 net.cpp:140] Creating Layer ConvNd_47
I0711 11:21:37.243330 27972 net.cpp:481] ConvNd_47 <- BatchNorm_44
I0711 11:21:37.243335 27972 net.cpp:455] ConvNd_47 -> ConvNd_47
I0711 11:21:37.243504 27972 net.cpp:190] Setting up ConvNd_47
I0711 11:21:37.243510 27972 net.cpp:197] Top shape: 1 128 64 128 (1048576)
I0711 11:21:37.243513 27972 net.cpp:205] Memory required for data: 744488964
I0711 11:21:37.243517 27972 layer_factory.hpp:123] Creating layer BatchNorm_45
I0711 11:21:37.243523 27972 net.cpp:140] Creating Layer BatchNorm_45
I0711 11:21:37.243527 27972 net.cpp:481] BatchNorm_45 <- ConvNd_47
I0711 11:21:37.243532 27972 net.cpp:455] BatchNorm_45 -> BatchNorm_45
I0711 11:21:37.244072 27972 net.cpp:190] Setting up BatchNorm_45
I0711 11:21:37.244081 27972 net.cpp:197] Top shape: 1 128 64 128 (1048576)
I0711 11:21:37.244083 27972 net.cpp:205] Memory required for data: 748683268
I0711 11:21:37.244092 27972 layer_factory.hpp:123] Creating layer Threshold_58
I0711 11:21:37.244097 27972 net.cpp:140] Creating Layer Threshold_58
I0711 11:21:37.244101 27972 net.cpp:481] Threshold_58 <- BatchNorm_45
I0711 11:21:37.244105 27972 net.cpp:442] Threshold_58 -> BatchNorm_45 (in-place)
I0711 11:21:37.244110 27972 net.cpp:190] Setting up Threshold_58
I0711 11:21:37.244114 27972 net.cpp:197] Top shape: 1 128 64 128 (1048576)
I0711 11:21:37.244117 27972 net.cpp:205] Memory required for data: 752877572
I0711 11:21:37.244122 27972 layer_factory.hpp:123] Creating layer Add_14
I0711 11:21:37.244127 27972 net.cpp:140] Creating Layer Add_14
I0711 11:21:37.244130 27972 net.cpp:481] Add_14 <- Add_13_Threshold_55_0_split_1
I0711 11:21:37.244133 27972 net.cpp:481] Add_14 <- BatchNorm_45
I0711 11:21:37.244138 27972 net.cpp:455] Add_14 -> Add_14
I0711 11:21:37.244158 27972 net.cpp:190] Setting up Add_14
I0711 11:21:37.244163 27972 net.cpp:197] Top shape: 1 128 64 128 (1048576)
I0711 11:21:37.244165 27972 net.cpp:205] Memory required for data: 757071876
I0711 11:21:37.244168 27972 layer_factory.hpp:123] Creating layer Threshold_59
I0711 11:21:37.244172 27972 net.cpp:140] Creating Layer Threshold_59
I0711 11:21:37.244176 27972 net.cpp:481] Threshold_59 <- Add_14
I0711 11:21:37.244180 27972 net.cpp:442] Threshold_59 -> Add_14 (in-place)
I0711 11:21:37.244185 27972 net.cpp:190] Setting up Threshold_59
I0711 11:21:37.244189 27972 net.cpp:197] Top shape: 1 128 64 128 (1048576)
I0711 11:21:37.244191 27972 net.cpp:205] Memory required for data: 761266180
I0711 11:21:37.244194 27972 layer_factory.hpp:123] Creating layer Add_14_Threshold_59_0_split
I0711 11:21:37.244199 27972 net.cpp:140] Creating Layer Add_14_Threshold_59_0_split
I0711 11:21:37.244202 27972 net.cpp:481] Add_14_Threshold_59_0_split <- Add_14
I0711 11:21:37.244206 27972 net.cpp:455] Add_14_Threshold_59_0_split -> Add_14_Threshold_59_0_split_0
I0711 11:21:37.244212 27972 net.cpp:455] Add_14_Threshold_59_0_split -> Add_14_Threshold_59_0_split_1
I0711 11:21:37.244240 27972 net.cpp:190] Setting up Add_14_Threshold_59_0_split
I0711 11:21:37.244246 27972 net.cpp:197] Top shape: 1 128 64 128 (1048576)
I0711 11:21:37.244249 27972 net.cpp:197] Top shape: 1 128 64 128 (1048576)
I0711 11:21:37.244252 27972 net.cpp:205] Memory required for data: 769654788
I0711 11:21:37.244256 27972 layer_factory.hpp:123] Creating layer ConvNd_48
I0711 11:21:37.244262 27972 net.cpp:140] Creating Layer ConvNd_48
I0711 11:21:37.244266 27972 net.cpp:481] ConvNd_48 <- Add_14_Threshold_59_0_split_0
I0711 11:21:37.244271 27972 net.cpp:455] ConvNd_48 -> ConvNd_48
I0711 11:21:37.244441 27972 net.cpp:190] Setting up ConvNd_48
I0711 11:21:37.244447 27972 net.cpp:197] Top shape: 1 32 64 128 (262144)
I0711 11:21:37.244451 27972 net.cpp:205] Memory required for data: 770703364
I0711 11:21:37.244455 27972 layer_factory.hpp:123] Creating layer BatchNorm_46
I0711 11:21:37.244462 27972 net.cpp:140] Creating Layer BatchNorm_46
I0711 11:21:37.244464 27972 net.cpp:481] BatchNorm_46 <- ConvNd_48
I0711 11:21:37.244470 27972 net.cpp:455] BatchNorm_46 -> BatchNorm_46
I0711 11:21:37.245090 27972 net.cpp:190] Setting up BatchNorm_46
I0711 11:21:37.245097 27972 net.cpp:197] Top shape: 1 32 64 128 (262144)
I0711 11:21:37.245100 27972 net.cpp:205] Memory required for data: 771751940
I0711 11:21:37.245108 27972 layer_factory.hpp:123] Creating layer Threshold_60
I0711 11:21:37.245113 27972 net.cpp:140] Creating Layer Threshold_60
I0711 11:21:37.245116 27972 net.cpp:481] Threshold_60 <- BatchNorm_46
I0711 11:21:37.245121 27972 net.cpp:442] Threshold_60 -> BatchNorm_46 (in-place)
I0711 11:21:37.245127 27972 net.cpp:190] Setting up Threshold_60
I0711 11:21:37.245131 27972 net.cpp:197] Top shape: 1 32 64 128 (262144)
I0711 11:21:37.245134 27972 net.cpp:205] Memory required for data: 772800516
I0711 11:21:37.245137 27972 layer_factory.hpp:123] Creating layer ConvNd_49
I0711 11:21:37.245143 27972 net.cpp:140] Creating Layer ConvNd_49
I0711 11:21:37.245146 27972 net.cpp:481] ConvNd_49 <- BatchNorm_46
I0711 11:21:37.245151 27972 net.cpp:455] ConvNd_49 -> ConvNd_49
I0711 11:21:37.245335 27972 net.cpp:190] Setting up ConvNd_49
I0711 11:21:37.245343 27972 net.cpp:197] Top shape: 1 32 64 128 (262144)
I0711 11:21:37.245347 27972 net.cpp:205] Memory required for data: 773849092
I0711 11:21:37.245352 27972 layer_factory.hpp:123] Creating layer BatchNorm_47
I0711 11:21:37.245357 27972 net.cpp:140] Creating Layer BatchNorm_47
I0711 11:21:37.245360 27972 net.cpp:481] BatchNorm_47 <- ConvNd_49
I0711 11:21:37.245366 27972 net.cpp:455] BatchNorm_47 -> BatchNorm_47
I0711 11:21:37.245985 27972 net.cpp:190] Setting up BatchNorm_47
I0711 11:21:37.245992 27972 net.cpp:197] Top shape: 1 32 64 128 (262144)
I0711 11:21:37.245995 27972 net.cpp:205] Memory required for data: 774897668
I0711 11:21:37.246003 27972 layer_factory.hpp:123] Creating layer Threshold_61
I0711 11:21:37.246008 27972 net.cpp:140] Creating Layer Threshold_61
I0711 11:21:37.246011 27972 net.cpp:481] Threshold_61 <- BatchNorm_47
I0711 11:21:37.246016 27972 net.cpp:442] Threshold_61 -> BatchNorm_47 (in-place)
I0711 11:21:37.246022 27972 net.cpp:190] Setting up Threshold_61
I0711 11:21:37.246026 27972 net.cpp:197] Top shape: 1 32 64 128 (262144)
I0711 11:21:37.246028 27972 net.cpp:205] Memory required for data: 775946244
I0711 11:21:37.246032 27972 layer_factory.hpp:123] Creating layer ConvNd_50
I0711 11:21:37.246038 27972 net.cpp:140] Creating Layer ConvNd_50
I0711 11:21:37.246042 27972 net.cpp:481] ConvNd_50 <- BatchNorm_47
I0711 11:21:37.246045 27972 net.cpp:455] ConvNd_50 -> ConvNd_50
I0711 11:21:37.246214 27972 net.cpp:190] Setting up ConvNd_50
I0711 11:21:37.246222 27972 net.cpp:197] Top shape: 1 128 64 128 (1048576)
I0711 11:21:37.246224 27972 net.cpp:205] Memory required for data: 780140548
I0711 11:21:37.246228 27972 layer_factory.hpp:123] Creating layer BatchNorm_48
I0711 11:21:37.246235 27972 net.cpp:140] Creating Layer BatchNorm_48
I0711 11:21:37.246238 27972 net.cpp:481] BatchNorm_48 <- ConvNd_50
I0711 11:21:37.246243 27972 net.cpp:455] BatchNorm_48 -> BatchNorm_48
I0711 11:21:37.246803 27972 net.cpp:190] Setting up BatchNorm_48
I0711 11:21:37.246811 27972 net.cpp:197] Top shape: 1 128 64 128 (1048576)
I0711 11:21:37.246814 27972 net.cpp:205] Memory required for data: 784334852
I0711 11:21:37.246822 27972 layer_factory.hpp:123] Creating layer Threshold_62
I0711 11:21:37.246829 27972 net.cpp:140] Creating Layer Threshold_62
I0711 11:21:37.246832 27972 net.cpp:481] Threshold_62 <- BatchNorm_48
I0711 11:21:37.246836 27972 net.cpp:442] Threshold_62 -> BatchNorm_48 (in-place)
I0711 11:21:37.246842 27972 net.cpp:190] Setting up Threshold_62
I0711 11:21:37.246846 27972 net.cpp:197] Top shape: 1 128 64 128 (1048576)
I0711 11:21:37.246850 27972 net.cpp:205] Memory required for data: 788529156
I0711 11:21:37.246851 27972 layer_factory.hpp:123] Creating layer Add_15
I0711 11:21:37.246856 27972 net.cpp:140] Creating Layer Add_15
I0711 11:21:37.246860 27972 net.cpp:481] Add_15 <- Add_14_Threshold_59_0_split_1
I0711 11:21:37.246865 27972 net.cpp:481] Add_15 <- BatchNorm_48
I0711 11:21:37.246868 27972 net.cpp:455] Add_15 -> Add_15
I0711 11:21:37.246887 27972 net.cpp:190] Setting up Add_15
I0711 11:21:37.246892 27972 net.cpp:197] Top shape: 1 128 64 128 (1048576)
I0711 11:21:37.246896 27972 net.cpp:205] Memory required for data: 792723460
I0711 11:21:37.246898 27972 layer_factory.hpp:123] Creating layer Threshold_63
I0711 11:21:37.246902 27972 net.cpp:140] Creating Layer Threshold_63
I0711 11:21:37.246906 27972 net.cpp:481] Threshold_63 <- Add_15
I0711 11:21:37.246909 27972 net.cpp:442] Threshold_63 -> Add_15 (in-place)
I0711 11:21:37.246914 27972 net.cpp:190] Setting up Threshold_63
I0711 11:21:37.246918 27972 net.cpp:197] Top shape: 1 128 64 128 (1048576)
I0711 11:21:37.246920 27972 net.cpp:205] Memory required for data: 796917764
I0711 11:21:37.246924 27972 layer_factory.hpp:123] Creating layer Add_15_Threshold_63_0_split
I0711 11:21:37.246928 27972 net.cpp:140] Creating Layer Add_15_Threshold_63_0_split
I0711 11:21:37.246932 27972 net.cpp:481] Add_15_Threshold_63_0_split <- Add_15
I0711 11:21:37.246935 27972 net.cpp:455] Add_15_Threshold_63_0_split -> Add_15_Threshold_63_0_split_0
I0711 11:21:37.246942 27972 net.cpp:455] Add_15_Threshold_63_0_split -> Add_15_Threshold_63_0_split_1
I0711 11:21:37.246969 27972 net.cpp:190] Setting up Add_15_Threshold_63_0_split
I0711 11:21:37.246974 27972 net.cpp:197] Top shape: 1 128 64 128 (1048576)
I0711 11:21:37.246978 27972 net.cpp:197] Top shape: 1 128 64 128 (1048576)
I0711 11:21:37.246981 27972 net.cpp:205] Memory required for data: 805306372
I0711 11:21:37.246984 27972 layer_factory.hpp:123] Creating layer ConvNd_51
I0711 11:21:37.246990 27972 net.cpp:140] Creating Layer ConvNd_51
I0711 11:21:37.246994 27972 net.cpp:481] ConvNd_51 <- Add_15_Threshold_63_0_split_0
I0711 11:21:37.246999 27972 net.cpp:455] ConvNd_51 -> ConvNd_51
I0711 11:21:37.247169 27972 net.cpp:190] Setting up ConvNd_51
I0711 11:21:37.247175 27972 net.cpp:197] Top shape: 1 32 64 128 (262144)
I0711 11:21:37.247179 27972 net.cpp:205] Memory required for data: 806354948
I0711 11:21:37.247184 27972 layer_factory.hpp:123] Creating layer BatchNorm_49
I0711 11:21:37.247189 27972 net.cpp:140] Creating Layer BatchNorm_49
I0711 11:21:37.247193 27972 net.cpp:481] BatchNorm_49 <- ConvNd_51
I0711 11:21:37.247198 27972 net.cpp:455] BatchNorm_49 -> BatchNorm_49
I0711 11:21:37.247833 27972 net.cpp:190] Setting up BatchNorm_49
I0711 11:21:37.247843 27972 net.cpp:197] Top shape: 1 32 64 128 (262144)
I0711 11:21:37.247845 27972 net.cpp:205] Memory required for data: 807403524
I0711 11:21:37.247853 27972 layer_factory.hpp:123] Creating layer Threshold_64
I0711 11:21:37.247859 27972 net.cpp:140] Creating Layer Threshold_64
I0711 11:21:37.247862 27972 net.cpp:481] Threshold_64 <- BatchNorm_49
I0711 11:21:37.247866 27972 net.cpp:442] Threshold_64 -> BatchNorm_49 (in-place)
I0711 11:21:37.247872 27972 net.cpp:190] Setting up Threshold_64
I0711 11:21:37.247876 27972 net.cpp:197] Top shape: 1 32 64 128 (262144)
I0711 11:21:37.247879 27972 net.cpp:205] Memory required for data: 808452100
I0711 11:21:37.247882 27972 layer_factory.hpp:123] Creating layer ConvNd_52
I0711 11:21:37.247889 27972 net.cpp:140] Creating Layer ConvNd_52
I0711 11:21:37.247891 27972 net.cpp:481] ConvNd_52 <- BatchNorm_49
I0711 11:21:37.247896 27972 net.cpp:455] ConvNd_52 -> ConvNd_52
I0711 11:21:37.248070 27972 net.cpp:190] Setting up ConvNd_52
I0711 11:21:37.248076 27972 net.cpp:197] Top shape: 1 32 64 128 (262144)
I0711 11:21:37.248080 27972 net.cpp:205] Memory required for data: 809500676
I0711 11:21:37.248085 27972 layer_factory.hpp:123] Creating layer BatchNorm_50
I0711 11:21:37.248090 27972 net.cpp:140] Creating Layer BatchNorm_50
I0711 11:21:37.248093 27972 net.cpp:481] BatchNorm_50 <- ConvNd_52
I0711 11:21:37.248100 27972 net.cpp:455] BatchNorm_50 -> BatchNorm_50
I0711 11:21:37.248720 27972 net.cpp:190] Setting up BatchNorm_50
I0711 11:21:37.248728 27972 net.cpp:197] Top shape: 1 32 64 128 (262144)
I0711 11:21:37.248731 27972 net.cpp:205] Memory required for data: 810549252
I0711 11:21:37.248739 27972 layer_factory.hpp:123] Creating layer Threshold_65
I0711 11:21:37.248744 27972 net.cpp:140] Creating Layer Threshold_65
I0711 11:21:37.248749 27972 net.cpp:481] Threshold_65 <- BatchNorm_50
I0711 11:21:37.248752 27972 net.cpp:442] Threshold_65 -> BatchNorm_50 (in-place)
I0711 11:21:37.248759 27972 net.cpp:190] Setting up Threshold_65
I0711 11:21:37.248761 27972 net.cpp:197] Top shape: 1 32 64 128 (262144)
I0711 11:21:37.248764 27972 net.cpp:205] Memory required for data: 811597828
I0711 11:21:37.248767 27972 layer_factory.hpp:123] Creating layer ConvNd_53
I0711 11:21:37.248773 27972 net.cpp:140] Creating Layer ConvNd_53
I0711 11:21:37.248776 27972 net.cpp:481] ConvNd_53 <- BatchNorm_50
I0711 11:21:37.248781 27972 net.cpp:455] ConvNd_53 -> ConvNd_53
I0711 11:21:37.248952 27972 net.cpp:190] Setting up ConvNd_53
I0711 11:21:37.248960 27972 net.cpp:197] Top shape: 1 128 64 128 (1048576)
I0711 11:21:37.248963 27972 net.cpp:205] Memory required for data: 815792132
I0711 11:21:37.248967 27972 layer_factory.hpp:123] Creating layer BatchNorm_51
I0711 11:21:37.248973 27972 net.cpp:140] Creating Layer BatchNorm_51
I0711 11:21:37.248977 27972 net.cpp:481] BatchNorm_51 <- ConvNd_53
I0711 11:21:37.248982 27972 net.cpp:455] BatchNorm_51 -> BatchNorm_51
I0711 11:21:37.250236 27972 net.cpp:190] Setting up BatchNorm_51
I0711 11:21:37.250248 27972 net.cpp:197] Top shape: 1 128 64 128 (1048576)
I0711 11:21:37.250252 27972 net.cpp:205] Memory required for data: 819986436
I0711 11:21:37.250260 27972 layer_factory.hpp:123] Creating layer Threshold_66
I0711 11:21:37.250267 27972 net.cpp:140] Creating Layer Threshold_66
I0711 11:21:37.250270 27972 net.cpp:481] Threshold_66 <- BatchNorm_51
I0711 11:21:37.250275 27972 net.cpp:442] Threshold_66 -> BatchNorm_51 (in-place)
I0711 11:21:37.250283 27972 net.cpp:190] Setting up Threshold_66
I0711 11:21:37.250286 27972 net.cpp:197] Top shape: 1 128 64 128 (1048576)
I0711 11:21:37.250288 27972 net.cpp:205] Memory required for data: 824180740
I0711 11:21:37.250291 27972 layer_factory.hpp:123] Creating layer Add_16
I0711 11:21:37.250298 27972 net.cpp:140] Creating Layer Add_16
I0711 11:21:37.250300 27972 net.cpp:481] Add_16 <- Add_15_Threshold_63_0_split_1
I0711 11:21:37.250304 27972 net.cpp:481] Add_16 <- BatchNorm_51
I0711 11:21:37.250309 27972 net.cpp:455] Add_16 -> Add_16
I0711 11:21:37.250329 27972 net.cpp:190] Setting up Add_16
I0711 11:21:37.250334 27972 net.cpp:197] Top shape: 1 128 64 128 (1048576)
I0711 11:21:37.250337 27972 net.cpp:205] Memory required for data: 828375044
I0711 11:21:37.250340 27972 layer_factory.hpp:123] Creating layer Threshold_67
I0711 11:21:37.250344 27972 net.cpp:140] Creating Layer Threshold_67
I0711 11:21:37.250347 27972 net.cpp:481] Threshold_67 <- Add_16
I0711 11:21:37.250352 27972 net.cpp:442] Threshold_67 -> Add_16 (in-place)
I0711 11:21:37.250357 27972 net.cpp:190] Setting up Threshold_67
I0711 11:21:37.250361 27972 net.cpp:197] Top shape: 1 128 64 128 (1048576)
I0711 11:21:37.250363 27972 net.cpp:205] Memory required for data: 832569348
I0711 11:21:37.250366 27972 layer_factory.hpp:123] Creating layer Add_16_Threshold_67_0_split
I0711 11:21:37.250371 27972 net.cpp:140] Creating Layer Add_16_Threshold_67_0_split
I0711 11:21:37.250375 27972 net.cpp:481] Add_16_Threshold_67_0_split <- Add_16
I0711 11:21:37.250378 27972 net.cpp:455] Add_16_Threshold_67_0_split -> Add_16_Threshold_67_0_split_0
I0711 11:21:37.250385 27972 net.cpp:455] Add_16_Threshold_67_0_split -> Add_16_Threshold_67_0_split_1
I0711 11:21:37.250414 27972 net.cpp:190] Setting up Add_16_Threshold_67_0_split
I0711 11:21:37.250421 27972 net.cpp:197] Top shape: 1 128 64 128 (1048576)
I0711 11:21:37.250424 27972 net.cpp:197] Top shape: 1 128 64 128 (1048576)
I0711 11:21:37.250427 27972 net.cpp:205] Memory required for data: 840957956
I0711 11:21:37.250430 27972 layer_factory.hpp:123] Creating layer ConvNd_54
I0711 11:21:37.250437 27972 net.cpp:140] Creating Layer ConvNd_54
I0711 11:21:37.250440 27972 net.cpp:481] ConvNd_54 <- Add_16_Threshold_67_0_split_0
I0711 11:21:37.250445 27972 net.cpp:455] ConvNd_54 -> ConvNd_54
I0711 11:21:37.250619 27972 net.cpp:190] Setting up ConvNd_54
I0711 11:21:37.250627 27972 net.cpp:197] Top shape: 1 32 64 128 (262144)
I0711 11:21:37.250629 27972 net.cpp:205] Memory required for data: 842006532
I0711 11:21:37.250634 27972 layer_factory.hpp:123] Creating layer BatchNorm_52
I0711 11:21:37.250640 27972 net.cpp:140] Creating Layer BatchNorm_52
I0711 11:21:37.250644 27972 net.cpp:481] BatchNorm_52 <- ConvNd_54
I0711 11:21:37.250649 27972 net.cpp:455] BatchNorm_52 -> BatchNorm_52
I0711 11:21:37.251278 27972 net.cpp:190] Setting up BatchNorm_52
I0711 11:21:37.251287 27972 net.cpp:197] Top shape: 1 32 64 128 (262144)
I0711 11:21:37.251291 27972 net.cpp:205] Memory required for data: 843055108
I0711 11:21:37.251298 27972 layer_factory.hpp:123] Creating layer Threshold_68
I0711 11:21:37.251303 27972 net.cpp:140] Creating Layer Threshold_68
I0711 11:21:37.251307 27972 net.cpp:481] Threshold_68 <- BatchNorm_52
I0711 11:21:37.251312 27972 net.cpp:442] Threshold_68 -> BatchNorm_52 (in-place)
I0711 11:21:37.251317 27972 net.cpp:190] Setting up Threshold_68
I0711 11:21:37.251322 27972 net.cpp:197] Top shape: 1 32 64 128 (262144)
I0711 11:21:37.251324 27972 net.cpp:205] Memory required for data: 844103684
I0711 11:21:37.251327 27972 layer_factory.hpp:123] Creating layer ConvNd_55
I0711 11:21:37.251333 27972 net.cpp:140] Creating Layer ConvNd_55
I0711 11:21:37.251335 27972 net.cpp:481] ConvNd_55 <- BatchNorm_52
I0711 11:21:37.251340 27972 net.cpp:455] ConvNd_55 -> ConvNd_55
I0711 11:21:37.251513 27972 net.cpp:190] Setting up ConvNd_55
I0711 11:21:37.251520 27972 net.cpp:197] Top shape: 1 32 64 128 (262144)
I0711 11:21:37.251523 27972 net.cpp:205] Memory required for data: 845152260
I0711 11:21:37.251528 27972 layer_factory.hpp:123] Creating layer BatchNorm_53
I0711 11:21:37.251534 27972 net.cpp:140] Creating Layer BatchNorm_53
I0711 11:21:37.251538 27972 net.cpp:481] BatchNorm_53 <- ConvNd_55
I0711 11:21:37.251543 27972 net.cpp:455] BatchNorm_53 -> BatchNorm_53
I0711 11:21:37.252182 27972 net.cpp:190] Setting up BatchNorm_53
I0711 11:21:37.252190 27972 net.cpp:197] Top shape: 1 32 64 128 (262144)
I0711 11:21:37.252193 27972 net.cpp:205] Memory required for data: 846200836
I0711 11:21:37.252202 27972 layer_factory.hpp:123] Creating layer Threshold_69
I0711 11:21:37.252207 27972 net.cpp:140] Creating Layer Threshold_69
I0711 11:21:37.252210 27972 net.cpp:481] Threshold_69 <- BatchNorm_53
I0711 11:21:37.252215 27972 net.cpp:442] Threshold_69 -> BatchNorm_53 (in-place)
I0711 11:21:37.252221 27972 net.cpp:190] Setting up Threshold_69
I0711 11:21:37.252225 27972 net.cpp:197] Top shape: 1 32 64 128 (262144)
I0711 11:21:37.252228 27972 net.cpp:205] Memory required for data: 847249412
I0711 11:21:37.252231 27972 layer_factory.hpp:123] Creating layer ConvNd_56
I0711 11:21:37.252238 27972 net.cpp:140] Creating Layer ConvNd_56
I0711 11:21:37.252240 27972 net.cpp:481] ConvNd_56 <- BatchNorm_53
I0711 11:21:37.252245 27972 net.cpp:455] ConvNd_56 -> ConvNd_56
I0711 11:21:37.252421 27972 net.cpp:190] Setting up ConvNd_56
I0711 11:21:37.252429 27972 net.cpp:197] Top shape: 1 32 64 128 (262144)
I0711 11:21:37.252431 27972 net.cpp:205] Memory required for data: 848297988
I0711 11:21:37.252435 27972 layer_factory.hpp:123] Creating layer BatchNorm_54
I0711 11:21:37.252442 27972 net.cpp:140] Creating Layer BatchNorm_54
I0711 11:21:37.252445 27972 net.cpp:481] BatchNorm_54 <- ConvNd_56
I0711 11:21:37.252451 27972 net.cpp:455] BatchNorm_54 -> BatchNorm_54
I0711 11:21:37.253077 27972 net.cpp:190] Setting up BatchNorm_54
I0711 11:21:37.253084 27972 net.cpp:197] Top shape: 1 32 64 128 (262144)
I0711 11:21:37.253087 27972 net.cpp:205] Memory required for data: 849346564
I0711 11:21:37.253094 27972 layer_factory.hpp:123] Creating layer Threshold_70
I0711 11:21:37.253100 27972 net.cpp:140] Creating Layer Threshold_70
I0711 11:21:37.253103 27972 net.cpp:481] Threshold_70 <- BatchNorm_54
I0711 11:21:37.253108 27972 net.cpp:442] Threshold_70 -> BatchNorm_54 (in-place)
I0711 11:21:37.253113 27972 net.cpp:190] Setting up Threshold_70
I0711 11:21:37.253118 27972 net.cpp:197] Top shape: 1 32 64 128 (262144)
I0711 11:21:37.253119 27972 net.cpp:205] Memory required for data: 850395140
I0711 11:21:37.253123 27972 layer_factory.hpp:123] Creating layer ConvNd_57
I0711 11:21:37.253129 27972 net.cpp:140] Creating Layer ConvNd_57
I0711 11:21:37.253131 27972 net.cpp:481] ConvNd_57 <- BatchNorm_54
I0711 11:21:37.253136 27972 net.cpp:455] ConvNd_57 -> ConvNd_57
I0711 11:21:37.253309 27972 net.cpp:190] Setting up ConvNd_57
I0711 11:21:37.253317 27972 net.cpp:197] Top shape: 1 128 64 128 (1048576)
I0711 11:21:37.253320 27972 net.cpp:205] Memory required for data: 854589444
I0711 11:21:37.253324 27972 layer_factory.hpp:123] Creating layer BatchNorm_55
I0711 11:21:37.253330 27972 net.cpp:140] Creating Layer BatchNorm_55
I0711 11:21:37.253334 27972 net.cpp:481] BatchNorm_55 <- ConvNd_57
I0711 11:21:37.253340 27972 net.cpp:455] BatchNorm_55 -> BatchNorm_55
I0711 11:21:37.253882 27972 net.cpp:190] Setting up BatchNorm_55
I0711 11:21:37.253890 27972 net.cpp:197] Top shape: 1 128 64 128 (1048576)
I0711 11:21:37.253893 27972 net.cpp:205] Memory required for data: 858783748
I0711 11:21:37.253901 27972 layer_factory.hpp:123] Creating layer Threshold_71
I0711 11:21:37.253906 27972 net.cpp:140] Creating Layer Threshold_71
I0711 11:21:37.253909 27972 net.cpp:481] Threshold_71 <- BatchNorm_55
I0711 11:21:37.253913 27972 net.cpp:442] Threshold_71 -> BatchNorm_55 (in-place)
I0711 11:21:37.253921 27972 net.cpp:190] Setting up Threshold_71
I0711 11:21:37.253923 27972 net.cpp:197] Top shape: 1 128 64 128 (1048576)
I0711 11:21:37.253926 27972 net.cpp:205] Memory required for data: 862978052
I0711 11:21:37.253929 27972 layer_factory.hpp:123] Creating layer Add_17
I0711 11:21:37.253934 27972 net.cpp:140] Creating Layer Add_17
I0711 11:21:37.253938 27972 net.cpp:481] Add_17 <- Add_16_Threshold_67_0_split_1
I0711 11:21:37.253942 27972 net.cpp:481] Add_17 <- BatchNorm_55
I0711 11:21:37.253947 27972 net.cpp:455] Add_17 -> Add_17
I0711 11:21:37.253967 27972 net.cpp:190] Setting up Add_17
I0711 11:21:37.253970 27972 net.cpp:197] Top shape: 1 128 64 128 (1048576)
I0711 11:21:37.253973 27972 net.cpp:205] Memory required for data: 867172356
I0711 11:21:37.253976 27972 layer_factory.hpp:123] Creating layer Threshold_72
I0711 11:21:37.253980 27972 net.cpp:140] Creating Layer Threshold_72
I0711 11:21:37.253983 27972 net.cpp:481] Threshold_72 <- Add_17
I0711 11:21:37.253988 27972 net.cpp:442] Threshold_72 -> Add_17 (in-place)
I0711 11:21:37.253993 27972 net.cpp:190] Setting up Threshold_72
I0711 11:21:37.253996 27972 net.cpp:197] Top shape: 1 128 64 128 (1048576)
I0711 11:21:37.253999 27972 net.cpp:205] Memory required for data: 871366660
I0711 11:21:37.254003 27972 layer_factory.hpp:123] Creating layer Add_17_Threshold_72_0_split
I0711 11:21:37.254007 27972 net.cpp:140] Creating Layer Add_17_Threshold_72_0_split
I0711 11:21:37.254009 27972 net.cpp:481] Add_17_Threshold_72_0_split <- Add_17
I0711 11:21:37.254014 27972 net.cpp:455] Add_17_Threshold_72_0_split -> Add_17_Threshold_72_0_split_0
I0711 11:21:37.254020 27972 net.cpp:455] Add_17_Threshold_72_0_split -> Add_17_Threshold_72_0_split_1
I0711 11:21:37.254055 27972 net.cpp:190] Setting up Add_17_Threshold_72_0_split
I0711 11:21:37.254058 27972 net.cpp:197] Top shape: 1 128 64 128 (1048576)
I0711 11:21:37.254061 27972 net.cpp:197] Top shape: 1 128 64 128 (1048576)
I0711 11:21:37.254065 27972 net.cpp:205] Memory required for data: 879755268
I0711 11:21:37.254067 27972 layer_factory.hpp:123] Creating layer ConvNd_58
I0711 11:21:37.254074 27972 net.cpp:140] Creating Layer ConvNd_58
I0711 11:21:37.254077 27972 net.cpp:481] ConvNd_58 <- Add_17_Threshold_72_0_split_0
I0711 11:21:37.254082 27972 net.cpp:455] ConvNd_58 -> ConvNd_58
I0711 11:21:37.254253 27972 net.cpp:190] Setting up ConvNd_58
I0711 11:21:37.254261 27972 net.cpp:197] Top shape: 1 32 64 128 (262144)
I0711 11:21:37.254264 27972 net.cpp:205] Memory required for data: 880803844
I0711 11:21:37.254268 27972 layer_factory.hpp:123] Creating layer BatchNorm_56
I0711 11:21:37.254274 27972 net.cpp:140] Creating Layer BatchNorm_56
I0711 11:21:37.254278 27972 net.cpp:481] BatchNorm_56 <- ConvNd_58
I0711 11:21:37.254283 27972 net.cpp:455] BatchNorm_56 -> BatchNorm_56
I0711 11:21:37.254930 27972 net.cpp:190] Setting up BatchNorm_56
I0711 11:21:37.254940 27972 net.cpp:197] Top shape: 1 32 64 128 (262144)
I0711 11:21:37.254942 27972 net.cpp:205] Memory required for data: 881852420
I0711 11:21:37.254951 27972 layer_factory.hpp:123] Creating layer Threshold_73
…
I0711 11:33:14.367907 27972 net.cpp:197] Top shape: 1 128 64 128 (1048576)
I0711 11:33:14.367909 27972 net.cpp:205] Memory required for data: 1203765248
I0711 11:33:14.367911 27972 layer_factory.hpp:123] Creating layer ConvNd_71
I0711 11:33:14.367918 27972 net.cpp:140] Creating Layer ConvNd_71
I0711 11:33:14.367923 27972 net.cpp:481] ConvNd_71 <- Add_21_Add_21_fixed_0_split_0
I0711 11:33:14.367928 27972 net.cpp:455] ConvNd_71 -> BatchNorm_69
I0711 11:33:14.368083 27972 layer_factory.hpp:123] Creating layer ConvNd_71
I0711 11:33:14.368363 27972 net.cpp:190] Setting up ConvNd_71
I0711 11:33:14.368371 27972 net.cpp:197] Top shape: 1 32 64 128 (262144)
I0711 11:33:14.368373 27972 net.cpp:205] Memory required for data: 1204813824
I0711 11:33:14.368378 27972 layer_factory.hpp:123] Creating layer Threshold_90
I0711 11:33:14.368383 27972 net.cpp:140] Creating Layer Threshold_90
I0711 11:33:14.368386 27972 net.cpp:481] Threshold_90 <- BatchNorm_69
I0711 11:33:14.368391 27972 net.cpp:442] Threshold_90 -> BatchNorm_69 (in-place)
I0711 11:33:14.368397 27972 net.cpp:190] Setting up Threshold_90
I0711 11:33:14.368400 27972 net.cpp:197] Top shape: 1 32 64 128 (262144)
I0711 11:33:14.368403 27972 net.cpp:205] Memory required for data: 1205862400
I0711 11:33:14.368407 27972 layer_factory.hpp:123] Creating layer BatchNorm_69_fixed
I0711 11:33:14.368412 27972 net.cpp:140] Creating Layer BatchNorm_69_fixed
I0711 11:33:14.368414 27972 net.cpp:481] BatchNorm_69_fixed <- BatchNorm_69
I0711 11:33:14.368418 27972 net.cpp:442] BatchNorm_69_fixed -> BatchNorm_69 (in-place)
I0711 11:33:14.368446 27972 net.cpp:190] Setting up BatchNorm_69_fixed
I0711 11:33:14.368453 27972 net.cpp:197] Top shape: 1 32 64 128 (262144)
I0711 11:33:14.368455 27972 net.cpp:205] Memory required for data: 1206910976
I0711 11:33:14.368458 27972 layer_factory.hpp:123] Creating layer ConvNd_72
I0711 11:33:14.368465 27972 net.cpp:140] Creating Layer ConvNd_72
I0711 11:33:14.368468 27972 net.cpp:481] ConvNd_72 <- BatchNorm_69
I0711 11:33:14.368474 27972 net.cpp:455] ConvNd_72 -> BatchNorm_70
I0711 11:33:14.368634 27972 layer_factory.hpp:123] Creating layer ConvNd_72
I0711 11:33:14.368919 27972 net.cpp:190] Setting up ConvNd_72
I0711 11:33:14.368926 27972 net.cpp:197] Top shape: 1 32 64 128 (262144)
I0711 11:33:14.368928 27972 net.cpp:205] Memory required for data: 1207959552
I0711 11:33:14.368933 27972 layer_factory.hpp:123] Creating layer Threshold_91
I0711 11:33:14.368938 27972 net.cpp:140] Creating Layer Threshold_91
I0711 11:33:14.368942 27972 net.cpp:481] Threshold_91 <- BatchNorm_70
I0711 11:33:14.368945 27972 net.cpp:442] Threshold_91 -> BatchNorm_70 (in-place)
I0711 11:33:14.368950 27972 net.cpp:190] Setting up Threshold_91
I0711 11:33:14.368954 27972 net.cpp:197] Top shape: 1 32 64 128 (262144)
I0711 11:33:14.368957 27972 net.cpp:205] Memory required for data: 1209008128
I0711 11:33:14.368960 27972 layer_factory.hpp:123] Creating layer BatchNorm_70_fixed
I0711 11:33:14.368965 27972 net.cpp:140] Creating Layer BatchNorm_70_fixed
I0711 11:33:14.368968 27972 net.cpp:481] BatchNorm_70_fixed <- BatchNorm_70
I0711 11:33:14.368973 27972 net.cpp:442] BatchNorm_70_fixed -> BatchNorm_70 (in-place)
I0711 11:33:14.369000 27972 net.cpp:190] Setting up BatchNorm_70_fixed
I0711 11:33:14.369005 27972 net.cpp:197] Top shape: 1 32 64 128 (262144)
I0711 11:33:14.369009 27972 net.cpp:205] Memory required for data: 1210056704
I0711 11:33:14.369012 27972 layer_factory.hpp:123] Creating layer ConvNd_73
I0711 11:33:14.369019 27972 net.cpp:140] Creating Layer ConvNd_73
I0711 11:33:14.369021 27972 net.cpp:481] ConvNd_73 <- BatchNorm_70
I0711 11:33:14.369026 27972 net.cpp:455] ConvNd_73 -> BatchNorm_71
I0711 11:33:14.369174 27972 layer_factory.hpp:123] Creating layer ConvNd_73
I0711 11:33:14.369443 27972 net.cpp:190] Setting up ConvNd_73
I0711 11:33:14.369451 27972 net.cpp:197] Top shape: 1 128 64 128 (1048576)
I0711 11:33:14.369453 27972 net.cpp:205] Memory required for data: 1214251008
I0711 11:33:14.369458 27972 layer_factory.hpp:123] Creating layer Threshold_92
I0711 11:33:14.369462 27972 net.cpp:140] Creating Layer Threshold_92
I0711 11:33:14.369465 27972 net.cpp:481] Threshold_92 <- BatchNorm_71
I0711 11:33:14.369470 27972 net.cpp:442] Threshold_92 -> BatchNorm_71 (in-place)
I0711 11:33:14.369475 27972 net.cpp:190] Setting up Threshold_92
I0711 11:33:14.369479 27972 net.cpp:197] Top shape: 1 128 64 128 (1048576)
I0711 11:33:14.369482 27972 net.cpp:205] Memory required for data: 1218445312
I0711 11:33:14.369485 27972 layer_factory.hpp:123] Creating layer BatchNorm_71_fixed
I0711 11:33:14.369489 27972 net.cpp:140] Creating Layer BatchNorm_71_fixed
I0711 11:33:14.369493 27972 net.cpp:481] BatchNorm_71_fixed <- BatchNorm_71
I0711 11:33:14.369496 27972 net.cpp:442] BatchNorm_71_fixed -> BatchNorm_71 (in-place)
I0711 11:33:14.369525 27972 net.cpp:190] Setting up BatchNorm_71_fixed
I0711 11:33:14.369531 27972 net.cpp:197] Top shape: 1 128 64 128 (1048576)
I0711 11:33:14.369534 27972 net.cpp:205] Memory required for data: 1222639616
I0711 11:33:14.369537 27972 layer_factory.hpp:123] Creating layer Add_22
I0711 11:33:14.369542 27972 net.cpp:140] Creating Layer Add_22
I0711 11:33:14.369546 27972 net.cpp:481] Add_22 <- Add_21_Add_21_fixed_0_split_1
I0711 11:33:14.369550 27972 net.cpp:481] Add_22 <- BatchNorm_71
I0711 11:33:14.369554 27972 net.cpp:455] Add_22 -> Add_22
I0711 11:33:14.369572 27972 net.cpp:190] Setting up Add_22
I0711 11:33:14.369578 27972 net.cpp:197] Top shape: 1 128 64 128 (1048576)
I0711 11:33:14.369580 27972 net.cpp:205] Memory required for data: 1226833920
I0711 11:33:14.369583 27972 layer_factory.hpp:123] Creating layer Threshold_93
I0711 11:33:14.369587 27972 net.cpp:140] Creating Layer Threshold_93
I0711 11:33:14.369590 27972 net.cpp:481] Threshold_93 <- Add_22
I0711 11:33:14.369594 27972 net.cpp:442] Threshold_93 -> Add_22 (in-place)
I0711 11:33:14.369599 27972 net.cpp:190] Setting up Threshold_93
I0711 11:33:14.369603 27972 net.cpp:197] Top shape: 1 128 64 128 (1048576)
I0711 11:33:14.369606 27972 net.cpp:205] Memory required for data: 1231028224
I0711 11:33:14.369609 27972 layer_factory.hpp:123] Creating layer Add_22_fixed
I0711 11:33:14.369613 27972 net.cpp:140] Creating Layer Add_22_fixed
I0711 11:33:14.369617 27972 net.cpp:481] Add_22_fixed <- Add_22
I0711 11:33:14.369621 27972 net.cpp:442] Add_22_fixed -> Add_22 (in-place)
I0711 11:33:14.369648 27972 net.cpp:190] Setting up Add_22_fixed
I0711 11:33:14.369653 27972 net.cpp:197] Top shape: 1 128 64 128 (1048576)
I0711 11:33:14.369657 27972 net.cpp:205] Memory required for data: 1235222528
I0711 11:33:14.369660 27972 layer_factory.hpp:123] Creating layer Add_22_Add_22_fixed_0_split
I0711 11:33:14.369665 27972 net.cpp:140] Creating Layer Add_22_Add_22_fixed_0_split
I0711 11:33:14.369668 27972 net.cpp:481] Add_22_Add_22_fixed_0_split <- Add_22
I0711 11:33:14.369673 27972 net.cpp:455] Add_22_Add_22_fixed_0_split -> Add_22_Add_22_fixed_0_split_0
I0711 11:33:14.369679 27972 net.cpp:455] Add_22_Add_22_fixed_0_split -> Add_22_Add_22_fixed_0_split_1
I0711 11:33:14.369706 27972 net.cpp:190] Setting up Add_22_Add_22_fixed_0_split
I0711 11:33:14.369711 27972 net.cpp:197] Top shape: 1 128 64 128 (1048576)
I0711 11:33:14.369715 27972 net.cpp:197] Top shape: 1 128 64 128 (1048576)
I0711 11:33:14.369719 27972 net.cpp:205] Memory required for data: 1243611136
I0711 11:33:14.369721 27972 layer_factory.hpp:123] Creating layer ConvNd_74
I0711 11:33:14.369729 27972 net.cpp:140] Creating Layer ConvNd_74
I0711 11:33:14.369731 27972 net.cpp:481] ConvNd_74 <- Add_22_Add_22_fixed_0_split_0
I0711 11:33:14.369736 27972 net.cpp:455] ConvNd_74 -> BatchNorm_72
I0711 11:33:14.369902 27972 layer_factory.hpp:123] Creating layer ConvNd_74
I0711 11:33:14.370183 27972 net.cpp:190] Setting up ConvNd_74
I0711 11:33:14.370191 27972 net.cpp:197] Top shape: 1 64 64 128 (524288)
I0711 11:33:14.370194 27972 net.cpp:205] Memory required for data: 1245708288
I0711 11:33:14.370199 27972 layer_factory.hpp:123] Creating layer BatchNorm_72_fixed
I0711 11:33:14.370204 27972 net.cpp:140] Creating Layer BatchNorm_72_fixed
I0711 11:33:14.370208 27972 net.cpp:481] BatchNorm_72_fixed <- BatchNorm_72
I0711 11:33:14.370213 27972 net.cpp:442] BatchNorm_72_fixed -> BatchNorm_72 (in-place)
I0711 11:33:14.370240 27972 net.cpp:190] Setting up BatchNorm_72_fixed
I0711 11:33:14.370246 27972 net.cpp:197] Top shape: 1 64 64 128 (524288)
I0711 11:33:14.370249 27972 net.cpp:205] Memory required for data: 1247805440
I0711 11:33:14.370254 27972 layer_factory.hpp:123] Creating layer UpsamplingBilinear2d_1
I0711 11:33:14.370260 27972 net.cpp:140] Creating Layer UpsamplingBilinear2d_1
I0711 11:33:14.370265 27972 net.cpp:481] UpsamplingBilinear2d_1 <- BatchNorm_72
I0711 11:33:14.370270 27972 net.cpp:455] UpsamplingBilinear2d_1 -> UpsamplingBilinear2d_1
I0711 11:33:14.370465 27972 layer_factory.hpp:123] Creating layer UpsamplingBilinear2d_1
I0711 11:33:14.370708 27972 net.cpp:190] Setting up UpsamplingBilinear2d_1
I0711 11:33:14.370715 27972 net.cpp:197] Top shape: 1 64 128 256 (2097152)
I0711 11:33:14.370718 27972 net.cpp:205] Memory required for data: 1256194048
I0711 11:33:14.370723 27972 layer_factory.hpp:123] Creating layer UpsamplingBilinear2d_1_fixed
I0711 11:33:14.370728 27972 net.cpp:140] Creating Layer UpsamplingBilinear2d_1_fixed
I0711 11:33:14.370731 27972 net.cpp:481] UpsamplingBilinear2d_1_fixed <- UpsamplingBilinear2d_1
I0711 11:33:14.370736 27972 net.cpp:442] UpsamplingBilinear2d_1_fixed -> UpsamplingBilinear2d_1 (in-place)
I0711 11:33:14.370765 27972 net.cpp:190] Setting up UpsamplingBilinear2d_1_fixed
I0711 11:33:14.370770 27972 net.cpp:197] Top shape: 1 64 128 256 (2097152)
I0711 11:33:14.370774 27972 net.cpp:205] Memory required for data: 1264582656
I0711 11:33:14.370777 27972 layer_factory.hpp:123] Creating layer ConvNd_75
I0711 11:33:14.370784 27972 net.cpp:140] Creating Layer ConvNd_75
I0711 11:33:14.370788 27972 net.cpp:481] ConvNd_75 <- Add_22_Add_22_fixed_0_split_1
I0711 11:33:14.370793 27972 net.cpp:455] ConvNd_75 -> BatchNorm_73
I0711 11:33:14.370951 27972 layer_factory.hpp:123] Creating layer ConvNd_75
I0711 11:33:14.371232 27972 net.cpp:190] Setting up ConvNd_75
I0711 11:33:14.371239 27972 net.cpp:197] Top shape: 1 32 64 128 (262144)
I0711 11:33:14.371242 27972 net.cpp:205] Memory required for data: 1265631232
I0711 11:33:14.371248 27972 layer_factory.hpp:123] Creating layer Threshold_94
I0711 11:33:14.371253 27972 net.cpp:140] Creating Layer Threshold_94
I0711 11:33:14.371255 27972 net.cpp:481] Threshold_94 <- BatchNorm_73
I0711 11:33:14.371259 27972 net.cpp:442] Threshold_94 -> BatchNorm_73 (in-place)
I0711 11:33:14.371265 27972 net.cpp:190] Setting up Threshold_94
I0711 11:33:14.371269 27972 net.cpp:197] Top shape: 1 32 64 128 (262144)
I0711 11:33:14.371273 27972 net.cpp:205] Memory required for data: 1266679808
I0711 11:33:14.371274 27972 layer_factory.hpp:123] Creating layer BatchNorm_73_fixed
I0711 11:33:14.371279 27972 net.cpp:140] Creating Layer BatchNorm_73_fixed
I0711 11:33:14.371282 27972 net.cpp:481] BatchNorm_73_fixed <- BatchNorm_73
I0711 11:33:14.371286 27972 net.cpp:442] BatchNorm_73_fixed -> BatchNorm_73 (in-place)
I0711 11:33:14.371315 27972 net.cpp:190] Setting up BatchNorm_73_fixed
I0711 11:33:14.371320 27972 net.cpp:197] Top shape: 1 32 64 128 (262144)
I0711 11:33:14.371323 27972 net.cpp:205] Memory required for data: 1267728384
I0711 11:33:14.371327 27972 layer_factory.hpp:123] Creating layer ConvNd_76
I0711 11:33:14.371333 27972 net.cpp:140] Creating Layer ConvNd_76
I0711 11:33:14.371336 27972 net.cpp:481] ConvNd_76 <- BatchNorm_73
I0711 11:33:14.371341 27972 net.cpp:455] ConvNd_76 -> BatchNorm_74
I0711 11:33:14.371496 27972 layer_factory.hpp:123] Creating layer ConvNd_76
I0711 11:33:14.371829 27972 net.cpp:190] Setting up ConvNd_76
I0711 11:33:14.371837 27972 net.cpp:197] Top shape: 1 32 128 256 (1048576)
I0711 11:33:14.371840 27972 net.cpp:205] Memory required for data: 1271922688
I0711 11:33:14.371845 27972 layer_factory.hpp:123] Creating layer Threshold_95
I0711 11:33:14.371850 27972 net.cpp:140] Creating Layer Threshold_95
I0711 11:33:14.371853 27972 net.cpp:481] Threshold_95 <- BatchNorm_74
I0711 11:33:14.371858 27972 net.cpp:442] Threshold_95 -> BatchNorm_74 (in-place)
I0711 11:33:14.371863 27972 net.cpp:190] Setting up Threshold_95
I0711 11:33:14.371867 27972 net.cpp:197] Top shape: 1 32 128 256 (1048576)
I0711 11:33:14.371870 27972 net.cpp:205] Memory required for data: 1276116992
I0711 11:33:14.371873 27972 layer_factory.hpp:123] Creating layer BatchNorm_74_fixed
I0711 11:33:14.371878 27972 net.cpp:140] Creating Layer BatchNorm_74_fixed
I0711 11:33:14.371881 27972 net.cpp:481] BatchNorm_74_fixed <- BatchNorm_74
I0711 11:33:14.371886 27972 net.cpp:442] BatchNorm_74_fixed -> BatchNorm_74 (in-place)
I0711 11:33:14.371915 27972 net.cpp:190] Setting up BatchNorm_74_fixed
I0711 11:33:14.371922 27972 net.cpp:197] Top shape: 1 32 128 256 (1048576)
I0711 11:33:14.371923 27972 net.cpp:205] Memory required for data: 1280311296
I0711 11:33:14.371928 27972 layer_factory.hpp:123] Creating layer ConvNd_77
I0711 11:33:14.371934 27972 net.cpp:140] Creating Layer ConvNd_77
I0711 11:33:14.371937 27972 net.cpp:481] ConvNd_77 <- BatchNorm_74
I0711 11:33:14.371942 27972 net.cpp:455] ConvNd_77 -> BatchNorm_75
I0711 11:33:14.372097 27972 layer_factory.hpp:123] Creating layer ConvNd_77
I0711 11:33:14.372412 27972 net.cpp:190] Setting up ConvNd_77
I0711 11:33:14.372419 27972 net.cpp:197] Top shape: 1 64 128 256 (2097152)
I0711 11:33:14.372422 27972 net.cpp:205] Memory required for data: 1288699904
I0711 11:33:14.372427 27972 layer_factory.hpp:123] Creating layer Threshold_96
I0711 11:33:14.372432 27972 net.cpp:140] Creating Layer Threshold_96
I0711 11:33:14.372436 27972 net.cpp:481] Threshold_96 <- BatchNorm_75
I0711 11:33:14.372440 27972 net.cpp:442] Threshold_96 -> BatchNorm_75 (in-place)
I0711 11:33:14.372445 27972 net.cpp:190] Setting up Threshold_96
I0711 11:33:14.372449 27972 net.cpp:197] Top shape: 1 64 128 256 (2097152)
I0711 11:33:14.372452 27972 net.cpp:205] Memory required for data: 1297088512
I0711 11:33:14.372454 27972 layer_factory.hpp:123] Creating layer BatchNorm_75_fixed
I0711 11:33:14.372459 27972 net.cpp:140] Creating Layer BatchNorm_75_fixed
I0711 11:33:14.372462 27972 net.cpp:481] BatchNorm_75_fixed <- BatchNorm_75
I0711 11:33:14.372467 27972 net.cpp:442] BatchNorm_75_fixed -> BatchNorm_75 (in-place)
I0711 11:33:14.372496 27972 net.cpp:190] Setting up BatchNorm_75_fixed
I0711 11:33:14.372503 27972 net.cpp:197] Top shape: 1 64 128 256 (2097152)
I0711 11:33:14.372504 27972 net.cpp:205] Memory required for data: 1305477120
I0711 11:33:14.372509 27972 layer_factory.hpp:123] Creating layer Add_23
I0711 11:33:14.372514 27972 net.cpp:140] Creating Layer Add_23
I0711 11:33:14.372519 27972 net.cpp:481] Add_23 <- UpsamplingBilinear2d_1
I0711 11:33:14.372521 27972 net.cpp:481] Add_23 <- BatchNorm_75
I0711 11:33:14.372526 27972 net.cpp:455] Add_23 -> Add_23
I0711 11:33:14.372545 27972 net.cpp:190] Setting up Add_23
I0711 11:33:14.372550 27972 net.cpp:197] Top shape: 1 64 128 256 (2097152)
I0711 11:33:14.372553 27972 net.cpp:205] Memory required for data: 1313865728
I0711 11:33:14.372556 27972 layer_factory.hpp:123] Creating layer Threshold_97
I0711 11:33:14.372560 27972 net.cpp:140] Creating Layer Threshold_97
I0711 11:33:14.372563 27972 net.cpp:481] Threshold_97 <- Add_23
I0711 11:33:14.372567 27972 net.cpp:442] Threshold_97 -> Add_23 (in-place)
I0711 11:33:14.372572 27972 net.cpp:190] Setting up Threshold_97
I0711 11:33:14.372576 27972 net.cpp:197] Top shape: 1 64 128 256 (2097152)
I0711 11:33:14.372578 27972 net.cpp:205] Memory required for data: 1322254336
I0711 11:33:14.372582 27972 layer_factory.hpp:123] Creating layer Add_23_fixed
I0711 11:33:14.372586 27972 net.cpp:140] Creating Layer Add_23_fixed
I0711 11:33:14.372589 27972 net.cpp:481] Add_23_fixed <- Add_23
I0711 11:33:14.372593 27972 net.cpp:442] Add_23_fixed -> Add_23 (in-place)
I0711 11:33:14.372622 27972 net.cpp:190] Setting up Add_23_fixed
I0711 11:33:14.372628 27972 net.cpp:197] Top shape: 1 64 128 256 (2097152)
I0711 11:33:14.372632 27972 net.cpp:205] Memory required for data: 1330642944
I0711 11:33:14.372645 27972 layer_factory.hpp:123] Creating layer Add_23_Add_23_fixed_0_split
I0711 11:33:14.372651 27972 net.cpp:140] Creating Layer Add_23_Add_23_fixed_0_split
I0711 11:33:14.372654 27972 net.cpp:481] Add_23_Add_23_fixed_0_split <- Add_23
I0711 11:33:14.372659 27972 net.cpp:455] Add_23_Add_23_fixed_0_split -> Add_23_Add_23_fixed_0_split_0
I0711 11:33:14.372666 27972 net.cpp:455] Add_23_Add_23_fixed_0_split -> Add_23_Add_23_fixed_0_split_1
I0711 11:33:14.372696 27972 net.cpp:190] Setting up Add_23_Add_23_fixed_0_split
I0711 11:33:14.372702 27972 net.cpp:197] Top shape: 1 64 128 256 (2097152)
I0711 11:33:14.372705 27972 net.cpp:197] Top shape: 1 64 128 256 (2097152)
I0711 11:33:14.372709 27972 net.cpp:205] Memory required for data: 1347420160
I0711 11:33:14.372711 27972 layer_factory.hpp:123] Creating layer ConvNd_78
I0711 11:33:14.372717 27972 net.cpp:140] Creating Layer ConvNd_78
I0711 11:33:14.372721 27972 net.cpp:481] ConvNd_78 <- Add_23_Add_23_fixed_0_split_0
I0711 11:33:14.372727 27972 net.cpp:455] ConvNd_78 -> BatchNorm_76
I0711 11:33:14.372910 27972 layer_factory.hpp:123] Creating layer ConvNd_78
I0711 11:33:14.373241 27972 net.cpp:190] Setting up ConvNd_78
I0711 11:33:14.373250 27972 net.cpp:197] Top shape: 1 16 128 256 (524288)
I0711 11:33:14.373252 27972 net.cpp:205] Memory required for data: 1349517312
I0711 11:33:14.373258 27972 layer_factory.hpp:123] Creating layer Threshold_98
I0711 11:33:14.373263 27972 net.cpp:140] Creating Layer Threshold_98
I0711 11:33:14.373266 27972 net.cpp:481] Threshold_98 <- BatchNorm_76
I0711 11:33:14.373271 27972 net.cpp:442] Threshold_98 -> BatchNorm_76 (in-place)
I0711 11:33:14.373277 27972 net.cpp:190] Setting up Threshold_98
I0711 11:33:14.373281 27972 net.cpp:197] Top shape: 1 16 128 256 (524288)
I0711 11:33:14.373283 27972 net.cpp:205] Memory required for data: 1351614464
I0711 11:33:14.373286 27972 layer_factory.hpp:123] Creating layer BatchNorm_76_fixed
I0711 11:33:14.373291 27972 net.cpp:140] Creating Layer BatchNorm_76_fixed
I0711 11:33:14.373294 27972 net.cpp:481] BatchNorm_76_fixed <- BatchNorm_76
I0711 11:33:14.373298 27972 net.cpp:442] BatchNorm_76_fixed -> BatchNorm_76 (in-place)
I0711 11:33:14.373329 27972 net.cpp:190] Setting up BatchNorm_76_fixed
I0711 11:33:14.373335 27972 net.cpp:197] Top shape: 1 16 128 256 (524288)
I0711 11:33:14.373338 27972 net.cpp:205] Memory required for data: 1353711616
I0711 11:33:14.373342 27972 layer_factory.hpp:123] Creating layer ConvNd_79
I0711 11:33:14.373349 27972 net.cpp:140] Creating Layer ConvNd_79
I0711 11:33:14.373353 27972 net.cpp:481] ConvNd_79 <- BatchNorm_76
I0711 11:33:14.373358 27972 net.cpp:455] ConvNd_79 -> BatchNorm_77
I0711 11:33:14.373512 27972 layer_factory.hpp:123] Creating layer ConvNd_79
I0711 11:33:14.373826 27972 net.cpp:190] Setting up ConvNd_79
I0711 11:33:14.373833 27972 net.cpp:197] Top shape: 1 16 128 256 (524288)
I0711 11:33:14.373836 27972 net.cpp:205] Memory required for data: 1355808768
I0711 11:33:14.373841 27972 layer_factory.hpp:123] Creating layer Threshold_99
I0711 11:33:14.373847 27972 net.cpp:140] Creating Layer Threshold_99
I0711 11:33:14.373849 27972 net.cpp:481] Threshold_99 <- BatchNorm_77
I0711 11:33:14.373853 27972 net.cpp:442] Threshold_99 -> BatchNorm_77 (in-place)
I0711 11:33:14.373858 27972 net.cpp:190] Setting up Threshold_99
I0711 11:33:14.373862 27972 net.cpp:197] Top shape: 1 16 128 256 (524288)
I0711 11:33:14.373865 27972 net.cpp:205] Memory required for data: 1357905920
I0711 11:33:14.373868 27972 layer_factory.hpp:123] Creating layer BatchNorm_77_fixed
I0711 11:33:14.373872 27972 net.cpp:140] Creating Layer BatchNorm_77_fixed
I0711 11:33:14.373875 27972 net.cpp:481] BatchNorm_77_fixed <- BatchNorm_77
I0711 11:33:14.373879 27972 net.cpp:442] BatchNorm_77_fixed -> BatchNorm_77 (in-place)
I0711 11:33:14.373910 27972 net.cpp:190] Setting up BatchNorm_77_fixed
I0711 11:33:14.373915 27972 net.cpp:197] Top shape: 1 16 128 256 (524288)
I0711 11:33:14.373919 27972 net.cpp:205] Memory required for data: 1360003072
I0711 11:33:14.373922 27972 layer_factory.hpp:123] Creating layer ConvNd_80
I0711 11:33:14.373929 27972 net.cpp:140] Creating Layer ConvNd_80
I0711 11:33:14.373932 27972 net.cpp:481] ConvNd_80 <- BatchNorm_77
I0711 11:33:14.373937 27972 net.cpp:455] ConvNd_80 -> BatchNorm_78
I0711 11:33:14.374101 27972 layer_factory.hpp:123] Creating layer ConvNd_80
I0711 11:33:14.375259 27972 net.cpp:190] Setting up ConvNd_80
I0711 11:33:14.375272 27972 net.cpp:197] Top shape: 1 64 128 256 (2097152)
I0711 11:33:14.375275 27972 net.cpp:205] Memory required for data: 1368391680
I0711 11:33:14.375281 27972 layer_factory.hpp:123] Creating layer Threshold_100
I0711 11:33:14.375286 27972 net.cpp:140] Creating Layer Threshold_100
I0711 11:33:14.375290 27972 net.cpp:481] Threshold_100 <- BatchNorm_78
I0711 11:33:14.375296 27972 net.cpp:442] Threshold_100 -> BatchNorm_78 (in-place)
I0711 11:33:14.375303 27972 net.cpp:190] Setting up Threshold_100
I0711 11:33:14.375306 27972 net.cpp:197] Top shape: 1 64 128 256 (2097152)
I0711 11:33:14.375309 27972 net.cpp:205] Memory required for data: 1376780288
I0711 11:33:14.375313 27972 layer_factory.hpp:123] Creating layer BatchNorm_78_fixed
I0711 11:33:14.375317 27972 net.cpp:140] Creating Layer BatchNorm_78_fixed
I0711 11:33:14.375320 27972 net.cpp:481] BatchNorm_78_fixed <- BatchNorm_78
I0711 11:33:14.375324 27972 net.cpp:442] BatchNorm_78_fixed -> BatchNorm_78 (in-place)
I0711 11:33:14.375357 27972 net.cpp:190] Setting up BatchNorm_78_fixed
I0711 11:33:14.375363 27972 net.cpp:197] Top shape: 1 64 128 256 (2097152)
I0711 11:33:14.375366 27972 net.cpp:205] Memory required for data: 1385168896
I0711 11:33:14.375370 27972 layer_factory.hpp:123] Creating layer Add_24
I0711 11:33:14.375375 27972 net.cpp:140] Creating Layer Add_24
I0711 11:33:14.375380 27972 net.cpp:481] Add_24 <- Add_23_Add_23_fixed_0_split_1
I0711 11:33:14.375383 27972 net.cpp:481] Add_24 <- BatchNorm_78
I0711 11:33:14.375387 27972 net.cpp:455] Add_24 -> Add_24
I0711 11:33:14.375407 27972 net.cpp:190] Setting up Add_24
I0711 11:33:14.375412 27972 net.cpp:197] Top shape: 1 64 128 256 (2097152)
I0711 11:33:14.375416 27972 net.cpp:205] Memory required for data: 1393557504
I0711 11:33:14.375418 27972 layer_factory.hpp:123] Creating layer Threshold_101
I0711 11:33:14.375423 27972 net.cpp:140] Creating Layer Threshold_101
I0711 11:33:14.375427 27972 net.cpp:481] Threshold_101 <- Add_24
I0711 11:33:14.375430 27972 net.cpp:442] Threshold_101 -> Add_24 (in-place)
I0711 11:33:14.375435 27972 net.cpp:190] Setting up Threshold_101
I0711 11:33:14.375439 27972 net.cpp:197] Top shape: 1 64 128 256 (2097152)
I0711 11:33:14.375442 27972 net.cpp:205] Memory required for data: 1401946112
I0711 11:33:14.375444 27972 layer_factory.hpp:123] Creating layer Add_24_fixed
I0711 11:33:14.375448 27972 net.cpp:140] Creating Layer Add_24_fixed
I0711 11:33:14.375452 27972 net.cpp:481] Add_24_fixed <- Add_24
I0711 11:33:14.375455 27972 net.cpp:442] Add_24_fixed -> Add_24 (in-place)
I0711 11:33:14.375485 27972 net.cpp:190] Setting up Add_24_fixed
I0711 11:33:14.375491 27972 net.cpp:197] Top shape: 1 64 128 256 (2097152)
I0711 11:33:14.375494 27972 net.cpp:205] Memory required for data: 1410334720
I0711 11:33:14.375499 27972 layer_factory.hpp:123] Creating layer Add_24_Add_24_fixed_0_split
I0711 11:33:14.375504 27972 net.cpp:140] Creating Layer Add_24_Add_24_fixed_0_split
I0711 11:33:14.375505 27972 net.cpp:481] Add_24_Add_24_fixed_0_split <- Add_24
I0711 11:33:14.375510 27972 net.cpp:455] Add_24_Add_24_fixed_0_split -> Add_24_Add_24_fixed_0_split_0
I0711 11:33:14.375516 27972 net.cpp:455] Add_24_Add_24_fixed_0_split -> Add_24_Add_24_fixed_0_split_1
I0711 11:33:14.375545 27972 net.cpp:190] Setting up Add_24_Add_24_fixed_0_split
I0711 11:33:14.375550 27972 net.cpp:197] Top shape: 1 64 128 256 (2097152)
I0711 11:33:14.375555 27972 net.cpp:197] Top shape: 1 64 128 256 (2097152)
I0711 11:33:14.375557 27972 net.cpp:205] Memory required for data: 1427111936
I0711 11:33:14.375560 27972 layer_factory.hpp:123] Creating layer ConvNd_81
I0711 11:33:14.375567 27972 net.cpp:140] Creating Layer ConvNd_81
I0711 11:33:14.375571 27972 net.cpp:481] ConvNd_81 <- Add_24_Add_24_fixed_0_split_0
I0711 11:33:14.375577 27972 net.cpp:455] ConvNd_81 -> BatchNorm_79
I0711 11:33:14.375749 27972 layer_factory.hpp:123] Creating layer ConvNd_81
I0711 11:33:14.376077 27972 net.cpp:190] Setting up ConvNd_81
I0711 11:33:14.376085 27972 net.cpp:197] Top shape: 1 16 128 256 (524288)
I0711 11:33:14.376088 27972 net.cpp:205] Memory required for data: 1429209088
I0711 11:33:14.376093 27972 layer_factory.hpp:123] Creating layer Threshold_102
I0711 11:33:14.376098 27972 net.cpp:140] Creating Layer Threshold_102
I0711 11:33:14.376102 27972 net.cpp:481] Threshold_102 <- BatchNorm_79
I0711 11:33:14.376107 27972 net.cpp:442] Threshold_102 -> BatchNorm_79 (in-place)
I0711 11:33:14.376113 27972 net.cpp:190] Setting up Threshold_102
I0711 11:33:14.376117 27972 net.cpp:197] Top shape: 1 16 128 256 (524288)
I0711 11:33:14.376121 27972 net.cpp:205] Memory required for data: 1431306240
I0711 11:33:14.376123 27972 layer_factory.hpp:123] Creating layer BatchNorm_79_fixed
I0711 11:33:14.376128 27972 net.cpp:140] Creating Layer BatchNorm_79_fixed
I0711 11:33:14.376130 27972 net.cpp:481] BatchNorm_79_fixed <- BatchNorm_79
I0711 11:33:14.376135 27972 net.cpp:442] BatchNorm_79_fixed -> BatchNorm_79 (in-place)
I0711 11:33:14.376166 27972 net.cpp:190] Setting up BatchNorm_79_fixed
I0711 11:33:14.376173 27972 net.cpp:197] Top shape: 1 16 128 256 (524288)
I0711 11:33:14.376175 27972 net.cpp:205] Memory required for data: 1433403392
I0711 11:33:14.376179 27972 layer_factory.hpp:123] Creating layer ConvNd_82
I0711 11:33:14.376185 27972 net.cpp:140] Creating Layer ConvNd_82
I0711 11:33:14.376188 27972 net.cpp:481] ConvNd_82 <- BatchNorm_79
I0711 11:33:14.376194 27972 net.cpp:455] ConvNd_82 -> BatchNorm_80
I0711 11:33:14.376350 27972 layer_factory.hpp:123] Creating layer ConvNd_82
I0711 11:33:14.376655 27972 net.cpp:190] Setting up ConvNd_82
I0711 11:33:14.376663 27972 net.cpp:197] Top shape: 1 16 128 256 (524288)
I0711 11:33:14.376667 27972 net.cpp:205] Memory required for data: 1435500544
I0711 11:33:14.376672 27972 layer_factory.hpp:123] Creating layer Threshold_103
I0711 11:33:14.376677 27972 net.cpp:140] Creating Layer Threshold_103
I0711 11:33:14.376679 27972 net.cpp:481] Threshold_103 <- BatchNorm_80
I0711 11:33:14.376684 27972 net.cpp:442] Threshold_103 -> BatchNorm_80 (in-place)
I0711 11:33:14.376690 27972 net.cpp:190] Setting up Threshold_103
I0711 11:33:14.376693 27972 net.cpp:197] Top shape: 1 16 128 256 (524288)
I0711 11:33:14.376696 27972 net.cpp:205] Memory required for data: 1437597696
I0711 11:33:14.376699 27972 layer_factory.hpp:123] Creating layer BatchNorm_80_fixed
I0711 11:33:14.376704 27972 net.cpp:140] Creating Layer BatchNorm_80_fixed
I0711 11:33:14.376708 27972 net.cpp:481] BatchNorm_80_fixed <- BatchNorm_80
I0711 11:33:14.376710 27972 net.cpp:442] BatchNorm_80_fixed -> BatchNorm_80 (in-place)
I0711 11:33:14.376740 27972 net.cpp:190] Setting up BatchNorm_80_fixed
I0711 11:33:14.376746 27972 net.cpp:197] Top shape: 1 16 128 256 (524288)
I0711 11:33:14.376749 27972 net.cpp:205] Memory required for data: 1439694848
I0711 11:33:14.376754 27972 layer_factory.hpp:123] Creating layer ConvNd_83
I0711 11:33:14.376760 27972 net.cpp:140] Creating Layer ConvNd_83
I0711 11:33:14.376763 27972 net.cpp:481] ConvNd_83 <- BatchNorm_80
I0711 11:33:14.376767 27972 net.cpp:455] ConvNd_83 -> BatchNorm_81
I0711 11:33:14.376935 27972 layer_factory.hpp:123] Creating layer ConvNd_83
I0711 11:33:14.377252 27972 net.cpp:190] Setting up ConvNd_83
I0711 11:33:14.377260 27972 net.cpp:197] Top shape: 1 64 128 256 (2097152)
I0711 11:33:14.377264 27972 net.cpp:205] Memory required for data: 1448083456
I0711 11:33:14.377269 27972 layer_factory.hpp:123] Creating layer Threshold_104
I0711 11:33:14.377272 27972 net.cpp:140] Creating Layer Threshold_104
I0711 11:33:14.377276 27972 net.cpp:481] Threshold_104 <- BatchNorm_81
I0711 11:33:14.377281 27972 net.cpp:442] Threshold_104 -> BatchNorm_81 (in-place)
I0711 11:33:14.377286 27972 net.cpp:190] Setting up Threshold_104
I0711 11:33:14.377290 27972 net.cpp:197] Top shape: 1 64 128 256 (2097152)
I0711 11:33:14.377293 27972 net.cpp:205] Memory required for data: 1456472064
I0711 11:33:14.377295 27972 layer_factory.hpp:123] Creating layer BatchNorm_81_fixed
I0711 11:33:14.377300 27972 net.cpp:140] Creating Layer BatchNorm_81_fixed
I0711 11:33:14.377303 27972 net.cpp:481] BatchNorm_81_fixed <- BatchNorm_81
I0711 11:33:14.377307 27972 net.cpp:442] BatchNorm_81_fixed -> BatchNorm_81 (in-place)
I0711 11:33:14.377337 27972 net.cpp:190] Setting up BatchNorm_81_fixed
I0711 11:33:14.377343 27972 net.cpp:197] Top shape: 1 64 128 256 (2097152)
I0711 11:33:14.377346 27972 net.cpp:205] Memory required for data: 1464860672
I0711 11:33:14.377351 27972 layer_factory.hpp:123] Creating layer Add_25
I0711 11:33:14.377355 27972 net.cpp:140] Creating Layer Add_25
I0711 11:33:14.377359 27972 net.cpp:481] Add_25 <- Add_24_Add_24_fixed_0_split_1
I0711 11:33:14.377363 27972 net.cpp:481] Add_25 <- BatchNorm_81
I0711 11:33:14.377367 27972 net.cpp:455] Add_25 -> Add_25
I0711 11:33:14.377387 27972 net.cpp:190] Setting up Add_25
I0711 11:33:14.377391 27972 net.cpp:197] Top shape: 1 64 128 256 (2097152)
I0711 11:33:14.377394 27972 net.cpp:205] Memory required for data: 1473249280
I0711 11:33:14.377398 27972 layer_factory.hpp:123] Creating layer Threshold_105
I0711 11:33:14.377403 27972 net.cpp:140] Creating Layer Threshold_105
I0711 11:33:14.377405 27972 net.cpp:481] Threshold_105 <- Add_25
I0711 11:33:14.377408 27972 net.cpp:442] Threshold_105 -> Add_25 (in-place)
I0711 11:33:14.377414 27972 net.cpp:190] Setting up Threshold_105
I0711 11:33:14.377418 27972 net.cpp:197] Top shape: 1 64 128 256 (2097152)
I0711 11:33:14.377420 27972 net.cpp:205] Memory required for data: 1481637888
I0711 11:33:14.377424 27972 layer_factory.hpp:123] Creating layer Add_25_fixed
I0711 11:33:14.377429 27972 net.cpp:140] Creating Layer Add_25_fixed
I0711 11:33:14.377431 27972 net.cpp:481] Add_25_fixed <- Add_25
I0711 11:33:14.377434 27972 net.cpp:442] Add_25_fixed -> Add_25 (in-place)
I0711 11:33:14.377463 27972 net.cpp:190] Setting up Add_25_fixed
I0711 11:33:14.377468 27972 net.cpp:197] Top shape: 1 64 128 256 (2097152)
I0711 11:33:14.377471 27972 net.cpp:205] Memory required for data: 1490026496
I0711 11:33:14.377475 27972 layer_factory.hpp:123] Creating layer Add_25_Add_25_fixed_0_split
I0711 11:33:14.377480 27972 net.cpp:140] Creating Layer Add_25_Add_25_fixed_0_split
I0711 11:33:14.377483 27972 net.cpp:481] Add_25_Add_25_fixed_0_split <- Add_25
I0711 11:33:14.377487 27972 net.cpp:455] Add_25_Add_25_fixed_0_split -> Add_25_Add_25_fixed_0_split_0
I0711 11:33:14.377493 27972 net.cpp:455] Add_25_Add_25_fixed_0_split -> Add_25_Add_25_fixed_0_split_1
I0711 11:33:14.377522 27972 net.cpp:190] Setting up Add_25_Add_25_fixed_0_split
I0711 11:33:14.377528 27972 net.cpp:197] Top shape: 1 64 128 256 (2097152)
I0711 11:33:14.377532 27972 net.cpp:197] Top shape: 1 64 128 256 (2097152)
I0711 11:33:14.377534 27972 net.cpp:205] Memory required for data: 1506803712
I0711 11:33:14.377537 27972 layer_factory.hpp:123] Creating layer ConvNd_84
I0711 11:33:14.377544 27972 net.cpp:140] Creating Layer ConvNd_84
I0711 11:33:14.377547 27972 net.cpp:481] ConvNd_84 <- Add_25_Add_25_fixed_0_split_0
I0711 11:33:14.377552 27972 net.cpp:455] ConvNd_84 -> BatchNorm_82
I0711 11:33:14.377717 27972 layer_factory.hpp:123] Creating layer ConvNd_84
I0711 11:33:14.378041 27972 net.cpp:190] Setting up ConvNd_84
I0711 11:33:14.378048 27972 net.cpp:197] Top shape: 1 16 128 256 (524288)
I0711 11:33:14.378051 27972 net.cpp:205] Memory required for data: 1508900864
I0711 11:33:14.378057 27972 layer_factory.hpp:123] Creating layer BatchNorm_82_fixed
I0711 11:33:14.378062 27972 net.cpp:140] Creating Layer BatchNorm_82_fixed
I0711 11:33:14.378065 27972 net.cpp:481] BatchNorm_82_fixed <- BatchNorm_82
I0711 11:33:14.378069 27972 net.cpp:442] BatchNorm_82_fixed -> BatchNorm_82 (in-place)
I0711 11:33:14.378103 27972 net.cpp:190] Setting up BatchNorm_82_fixed
I0711 11:33:14.378108 27972 net.cpp:197] Top shape: 1 16 128 256 (524288)
I0711 11:33:14.378110 27972 net.cpp:205] Memory required for data: 1510998016
I0711 11:33:14.378114 27972 layer_factory.hpp:123] Creating layer UpsamplingBilinear2d_2
I0711 11:33:14.378121 27972 net.cpp:140] Creating Layer UpsamplingBilinear2d_2
I0711 11:33:14.378125 27972 net.cpp:481] UpsamplingBilinear2d_2 <- BatchNorm_82
I0711 11:33:14.378131 27972 net.cpp:455] UpsamplingBilinear2d_2 -> UpsamplingBilinear2d_2
I0711 11:33:14.378263 27972 layer_factory.hpp:123] Creating layer UpsamplingBilinear2d_2
I0711 11:33:14.378458 27972 net.cpp:190] Setting up UpsamplingBilinear2d_2
I0711 11:33:14.378464 27972 net.cpp:197] Top shape: 1 16 256 512 (2097152)
I0711 11:33:14.378466 27972 net.cpp:205] Memory required for data: 1519386624
I0711 11:33:14.378470 27972 layer_factory.hpp:123] Creating layer UpsamplingBilinear2d_2_fixed
I0711 11:33:14.378475 27972 net.cpp:140] Creating Layer UpsamplingBilinear2d_2_fixed
I0711 11:33:14.378479 27972 net.cpp:481] UpsamplingBilinear2d_2_fixed <- UpsamplingBilinear2d_2
I0711 11:33:14.378484 27972 net.cpp:442] UpsamplingBilinear2d_2_fixed -> UpsamplingBilinear2d_2 (in-place)
I0711 11:33:14.378512 27972 net.cpp:190] Setting up UpsamplingBilinear2d_2_fixed
I0711 11:33:14.378517 27972 net.cpp:197] Top shape: 1 16 256 512 (2097152)
I0711 11:33:14.378521 27972 net.cpp:205] Memory required for data: 1527775232
I0711 11:33:14.378525 27972 layer_factory.hpp:123] Creating layer ConvNd_85
I0711 11:33:14.378531 27972 net.cpp:140] Creating Layer ConvNd_85
I0711 11:33:14.378535 27972 net.cpp:481] ConvNd_85 <- Add_25_Add_25_fixed_0_split_1
I0711 11:33:14.378540 27972 net.cpp:455] ConvNd_85 -> BatchNorm_83
I0711 11:33:14.378703 27972 layer_factory.hpp:123] Creating layer ConvNd_85
I0711 11:33:14.379081 27972 net.cpp:190] Setting up ConvNd_85
I0711 11:33:14.379088 27972 net.cpp:197] Top shape: 1 16 128 256 (524288)
I0711 11:33:14.379091 27972 net.cpp:205] Memory required for data: 1529872384
I0711 11:33:14.379097 27972 layer_factory.hpp:123] Creating layer Threshold_106
I0711 11:33:14.379102 27972 net.cpp:140] Creating Layer Threshold_106
I0711 11:33:14.379106 27972 net.cpp:481] Threshold_106 <- BatchNorm_83
I0711 11:33:14.379110 27972 net.cpp:442] Threshold_106 -> BatchNorm_83 (in-place)
I0711 11:33:14.379117 27972 net.cpp:190] Setting up Threshold_106
I0711 11:33:14.379120 27972 net.cpp:197] Top shape: 1 16 128 256 (524288)
I0711 11:33:14.379122 27972 net.cpp:205] Memory required for data: 1531969536
I0711 11:33:14.379125 27972 layer_factory.hpp:123] Creating layer BatchNorm_83_fixed
I0711 11:33:14.379130 27972 net.cpp:140] Creating Layer BatchNorm_83_fixed
I0711 11:33:14.379133 27972 net.cpp:481] BatchNorm_83_fixed <- BatchNorm_83
I0711 11:33:14.379137 27972 net.cpp:442] BatchNorm_83_fixed -> BatchNorm_83 (in-place)
I0711 11:33:14.379171 27972 net.cpp:190] Setting up BatchNorm_83_fixed
I0711 11:33:14.379178 27972 net.cpp:197] Top shape: 1 16 128 256 (524288)
I0711 11:33:14.379180 27972 net.cpp:205] Memory required for data: 1534066688
I0711 11:33:14.379184 27972 layer_factory.hpp:123] Creating layer ConvNd_86
I0711 11:33:14.379190 27972 net.cpp:140] Creating Layer ConvNd_86
I0711 11:33:14.379194 27972 net.cpp:481] ConvNd_86 <- BatchNorm_83
I0711 11:33:14.379199 27972 net.cpp:455] ConvNd_86 -> BatchNorm_84
I0711 11:33:14.379366 27972 layer_factory.hpp:123] Creating layer ConvNd_86
I0711 11:33:14.380662 27972 net.cpp:190] Setting up ConvNd_86
I0711 11:33:14.380676 27972 net.cpp:197] Top shape: 1 16 256 512 (2097152)
I0711 11:33:14.380678 27972 net.cpp:205] Memory required for data: 1542455296
I0711 11:33:14.380686 27972 layer_factory.hpp:123] Creating layer Threshold_107
I0711 11:33:14.380692 27972 net.cpp:140] Creating Layer Threshold_107
I0711 11:33:14.380695 27972 net.cpp:481] Threshold_107 <- BatchNorm_84
I0711 11:33:14.380700 27972 net.cpp:442] Threshold_107 -> BatchNorm_84 (in-place)
I0711 11:33:14.380707 27972 net.cpp:190] Setting up Threshold_107
I0711 11:33:14.380712 27972 net.cpp:197] Top shape: 1 16 256 512 (2097152)
I0711 11:33:14.380713 27972 net.cpp:205] Memory required for data: 1550843904
I0711 11:33:14.380717 27972 layer_factory.hpp:123] Creating layer BatchNorm_84_fixed
I0711 11:33:14.380722 27972 net.cpp:140] Creating Layer BatchNorm_84_fixed
I0711 11:33:14.380724 27972 net.cpp:481] BatchNorm_84_fixed <- BatchNorm_84
I0711 11:33:14.380728 27972 net.cpp:442] BatchNorm_84_fixed -> BatchNorm_84 (in-place)
I0711 11:33:14.380769 27972 net.cpp:190] Setting up BatchNorm_84_fixed
I0711 11:33:14.380774 27972 net.cpp:197] Top shape: 1 16 256 512 (2097152)
I0711 11:33:14.380777 27972 net.cpp:205] Memory required for data: 1559232512
I0711 11:33:14.380781 27972 layer_factory.hpp:123] Creating layer ConvNd_87
I0711 11:33:14.380789 27972 net.cpp:140] Creating Layer ConvNd_87
I0711 11:33:14.380791 27972 net.cpp:481] ConvNd_87 <- BatchNorm_84
I0711 11:33:14.380797 27972 net.cpp:455] ConvNd_87 -> BatchNorm_85
I0711 11:33:14.380954 27972 layer_factory.hpp:123] Creating layer ConvNd_87
I0711 11:33:14.381367 27972 net.cpp:190] Setting up ConvNd_87
I0711 11:33:14.381376 27972 net.cpp:197] Top shape: 1 16 256 512 (2097152)
I0711 11:33:14.381379 27972 net.cpp:205] Memory required for data: 1567621120
I0711 11:33:14.381384 27972 layer_factory.hpp:123] Creating layer Threshold_108
I0711 11:33:14.381389 27972 net.cpp:140] Creating Layer Threshold_108
I0711 11:33:14.381392 27972 net.cpp:481] Threshold_108 <- BatchNorm_85
I0711 11:33:14.381397 27972 net.cpp:442] Threshold_108 -> BatchNorm_85 (in-place)
I0711 11:33:14.381402 27972 net.cpp:190] Setting up Threshold_108
I0711 11:33:14.381407 27972 net.cpp:197] Top shape: 1 16 256 512 (2097152)
I0711 11:33:14.381409 27972 net.cpp:205] Memory required for data: 1576009728
I0711 11:33:14.381412 27972 layer_factory.hpp:123] Creating layer BatchNorm_85_fixed
I0711 11:33:14.381417 27972 net.cpp:140] Creating Layer BatchNorm_85_fixed
I0711 11:33:14.381420 27972 net.cpp:481] BatchNorm_85_fixed <- BatchNorm_85
I0711 11:33:14.381423 27972 net.cpp:442] BatchNorm_85_fixed -> BatchNorm_85 (in-place)
I0711 11:33:14.381455 27972 net.cpp:190] Setting up BatchNorm_85_fixed
I0711 11:33:14.381460 27972 net.cpp:197] Top shape: 1 16 256 512 (2097152)
I0711 11:33:14.381462 27972 net.cpp:205] Memory required for data: 1584398336
I0711 11:33:14.381466 27972 layer_factory.hpp:123] Creating layer Add_26
I0711 11:33:14.381472 27972 net.cpp:140] Creating Layer Add_26
I0711 11:33:14.381475 27972 net.cpp:481] Add_26 <- UpsamplingBilinear2d_2
I0711 11:33:14.381479 27972 net.cpp:481] Add_26 <- BatchNorm_85
I0711 11:33:14.381484 27972 net.cpp:455] Add_26 -> Add_26
I0711 11:33:14.381503 27972 net.cpp:190] Setting up Add_26
I0711 11:33:14.381507 27972 net.cpp:197] Top shape: 1 16 256 512 (2097152)
I0711 11:33:14.381510 27972 net.cpp:205] Memory required for data: 1592786944
I0711 11:33:14.381512 27972 layer_factory.hpp:123] Creating layer Threshold_109
I0711 11:33:14.381517 27972 net.cpp:140] Creating Layer Threshold_109
I0711 11:33:14.381520 27972 net.cpp:481] Threshold_109 <- Add_26
I0711 11:33:14.381525 27972 net.cpp:442] Threshold_109 -> Add_26 (in-place)
I0711 11:33:14.381530 27972 net.cpp:190] Setting up Threshold_109
I0711 11:33:14.381533 27972 net.cpp:197] Top shape: 1 16 256 512 (2097152)
I0711 11:33:14.381536 27972 net.cpp:205] Memory required for data: 1601175552
I0711 11:33:14.381538 27972 layer_factory.hpp:123] Creating layer Add_26_fixed
I0711 11:33:14.381542 27972 net.cpp:140] Creating Layer Add_26_fixed
I0711 11:33:14.381546 27972 net.cpp:481] Add_26_fixed <- Add_26
I0711 11:33:14.381549 27972 net.cpp:442] Add_26_fixed -> Add_26 (in-place)
I0711 11:33:14.381578 27972 net.cpp:190] Setting up Add_26_fixed
I0711 11:33:14.381582 27972 net.cpp:197] Top shape: 1 16 256 512 (2097152)
I0711 11:33:14.381585 27972 net.cpp:205] Memory required for data: 1609564160
I0711 11:33:14.381589 27972 layer_factory.hpp:123] Creating layer Add_26_Add_26_fixed_0_split
I0711 11:33:14.381594 27972 net.cpp:140] Creating Layer Add_26_Add_26_fixed_0_split
I0711 11:33:14.381597 27972 net.cpp:481] Add_26_Add_26_fixed_0_split <- Add_26
I0711 11:33:14.381603 27972 net.cpp:455] Add_26_Add_26_fixed_0_split -> Add_26_Add_26_fixed_0_split_0
I0711 11:33:14.381608 27972 net.cpp:455] Add_26_Add_26_fixed_0_split -> Add_26_Add_26_fixed_0_split_1
I0711 11:33:14.381636 27972 net.cpp:190] Setting up Add_26_Add_26_fixed_0_split
I0711 11:33:14.381641 27972 net.cpp:197] Top shape: 1 16 256 512 (2097152)
I0711 11:33:14.381645 27972 net.cpp:197] Top shape: 1 16 256 512 (2097152)
I0711 11:33:14.381647 27972 net.cpp:205] Memory required for data: 1626341376
I0711 11:33:14.381650 27972 layer_factory.hpp:123] Creating layer ConvNd_88
I0711 11:33:14.381657 27972 net.cpp:140] Creating Layer ConvNd_88
I0711 11:33:14.381660 27972 net.cpp:481] ConvNd_88 <- Add_26_Add_26_fixed_0_split_0
I0711 11:33:14.381665 27972 net.cpp:455] ConvNd_88 -> BatchNorm_86
I0711 11:33:14.381826 27972 layer_factory.hpp:123] Creating layer ConvNd_88
I0711 11:33:14.383023 27972 net.cpp:190] Setting up ConvNd_88
I0711 11:33:14.383033 27972 net.cpp:197] Top shape: 1 4 256 512 (524288)
I0711 11:33:14.383035 27972 net.cpp:205] Memory required for data: 1628438528
I0711 11:33:14.383041 27972 layer_factory.hpp:123] Creating layer Threshold_110
I0711 11:33:14.383046 27972 net.cpp:140] Creating Layer Threshold_110
I0711 11:33:14.383051 27972 net.cpp:481] Threshold_110 <- BatchNorm_86
I0711 11:33:14.383055 27972 net.cpp:442] Threshold_110 -> BatchNorm_86 (in-place)
I0711 11:33:14.383062 27972 net.cpp:190] Setting up Threshold_110
I0711 11:33:14.383066 27972 net.cpp:197] Top shape: 1 4 256 512 (524288)
I0711 11:33:14.383069 27972 net.cpp:205] Memory required for data: 1630535680
I0711 11:33:14.383071 27972 layer_factory.hpp:123] Creating layer BatchNorm_86_fixed
I0711 11:33:14.383076 27972 net.cpp:140] Creating Layer BatchNorm_86_fixed
I0711 11:33:14.383080 27972 net.cpp:481] BatchNorm_86_fixed <- BatchNorm_86
I0711 11:33:14.383085 27972 net.cpp:442] BatchNorm_86_fixed -> BatchNorm_86 (in-place)
I0711 11:33:14.383122 27972 net.cpp:190] Setting up BatchNorm_86_fixed
I0711 11:33:14.383126 27972 net.cpp:197] Top shape: 1 4 256 512 (524288)
I0711 11:33:14.383129 27972 net.cpp:205] Memory required for data: 1632632832
I0711 11:33:14.383133 27972 layer_factory.hpp:123] Creating layer ConvNd_89
I0711 11:33:14.383141 27972 net.cpp:140] Creating Layer ConvNd_89
I0711 11:33:14.383144 27972 net.cpp:481] ConvNd_89 <- BatchNorm_86
I0711 11:33:14.383149 27972 net.cpp:455] ConvNd_89 -> BatchNorm_87
I0711 11:33:14.383311 27972 layer_factory.hpp:123] Creating layer ConvNd_89
I0711 11:33:14.383723 27972 net.cpp:190] Setting up ConvNd_89
I0711 11:33:14.383729 27972 net.cpp:197] Top shape: 1 4 256 512 (524288)
I0711 11:33:14.383733 27972 net.cpp:205] Memory required for data: 1634729984
I0711 11:33:14.383738 27972 layer_factory.hpp:123] Creating layer Threshold_111
I0711 11:33:14.383743 27972 net.cpp:140] Creating Layer Threshold_111
I0711 11:33:14.383746 27972 net.cpp:481] Threshold_111 <- BatchNorm_87
I0711 11:33:14.383750 27972 net.cpp:442] Threshold_111 -> BatchNorm_87 (in-place)
I0711 11:33:14.383764 27972 net.cpp:190] Setting up Threshold_111
I0711 11:33:14.383769 27972 net.cpp:197] Top shape: 1 4 256 512 (524288)
I0711 11:33:14.383770 27972 net.cpp:205] Memory required for data: 1636827136
I0711 11:33:14.383774 27972 layer_factory.hpp:123] Creating layer BatchNorm_87_fixed
I0711 11:33:14.383778 27972 net.cpp:140] Creating Layer BatchNorm_87_fixed
I0711 11:33:14.383781 27972 net.cpp:481] BatchNorm_87_fixed <- BatchNorm_87
I0711 11:33:14.383785 27972 net.cpp:442] BatchNorm_87_fixed -> BatchNorm_87 (in-place)
I0711 11:33:14.383816 27972 net.cpp:190] Setting up BatchNorm_87_fixed
I0711 11:33:14.383821 27972 net.cpp:197] Top shape: 1 4 256 512 (524288)
I0711 11:33:14.383823 27972 net.cpp:205] Memory required for data: 1638924288
I0711 11:33:14.383827 27972 layer_factory.hpp:123] Creating layer ConvNd_90
I0711 11:33:14.383833 27972 net.cpp:140] Creating Layer ConvNd_90
I0711 11:33:14.383837 27972 net.cpp:481] ConvNd_90 <- BatchNorm_87
I0711 11:33:14.383841 27972 net.cpp:455] ConvNd_90 -> BatchNorm_88
I0711 11:33:14.384002 27972 layer_factory.hpp:123] Creating layer ConvNd_90
I0711 11:33:14.386909 27972 net.cpp:190] Setting up ConvNd_90
I0711 11:33:14.386924 27972 net.cpp:197] Top shape: 1 16 256 512 (2097152)
I0711 11:33:14.386926 27972 net.cpp:205] Memory required for data: 1647312896
I0711 11:33:14.386934 27972 layer_factory.hpp:123] Creating layer Threshold_112
I0711 11:33:14.386940 27972 net.cpp:140] Creating Layer Threshold_112
I0711 11:33:14.386945 27972 net.cpp:481] Threshold_112 <- BatchNorm_88
I0711 11:33:14.386951 27972 net.cpp:442] Threshold_112 -> BatchNorm_88 (in-place)
I0711 11:33:14.386960 27972 net.cpp:190] Setting up Threshold_112
I0711 11:33:14.386963 27972 net.cpp:197] Top shape: 1 16 256 512 (2097152)
I0711 11:33:14.386966 27972 net.cpp:205] Memory required for data: 1655701504
I0711 11:33:14.386970 27972 layer_factory.hpp:123] Creating layer BatchNorm_88_fixed
I0711 11:33:14.386974 27972 net.cpp:140] Creating Layer BatchNorm_88_fixed
I0711 11:33:14.386977 27972 net.cpp:481] BatchNorm_88_fixed <- BatchNorm_88
I0711 11:33:14.386982 27972 net.cpp:442] BatchNorm_88_fixed -> BatchNorm_88 (in-place)
I0711 11:33:14.387030 27972 net.cpp:190] Setting up BatchNorm_88_fixed
I0711 11:33:14.387035 27972 net.cpp:197] Top shape: 1 16 256 512 (2097152)
I0711 11:33:14.387038 27972 net.cpp:205] Memory required for data: 1664090112
I0711 11:33:14.387042 27972 layer_factory.hpp:123] Creating layer Add_27
I0711 11:33:14.387048 27972 net.cpp:140] Creating Layer Add_27
I0711 11:33:14.387053 27972 net.cpp:481] Add_27 <- Add_26_Add_26_fixed_0_split_1
I0711 11:33:14.387058 27972 net.cpp:481] Add_27 <- BatchNorm_88
I0711 11:33:14.387063 27972 net.cpp:455] Add_27 -> Add_27
I0711 11:33:14.387084 27972 net.cpp:190] Setting up Add_27
I0711 11:33:14.387087 27972 net.cpp:197] Top shape: 1 16 256 512 (2097152)
I0711 11:33:14.387090 27972 net.cpp:205] Memory required for data: 1672478720
I0711 11:33:14.387094 27972 layer_factory.hpp:123] Creating layer Threshold_113
I0711 11:33:14.387099 27972 net.cpp:140] Creating Layer Threshold_113
I0711 11:33:14.387101 27972 net.cpp:481] Threshold_113 <- Add_27
I0711 11:33:14.387105 27972 net.cpp:442] Threshold_113 -> Add_27 (in-place)
I0711 11:33:14.387111 27972 net.cpp:190] Setting up Threshold_113
I0711 11:33:14.387115 27972 net.cpp:197] Top shape: 1 16 256 512 (2097152)
I0711 11:33:14.387117 27972 net.cpp:205] Memory required for data: 1680867328
I0711 11:33:14.387120 27972 layer_factory.hpp:123] Creating layer Add_27_fixed
I0711 11:33:14.387125 27972 net.cpp:140] Creating Layer Add_27_fixed
I0711 11:33:14.387127 27972 net.cpp:481] Add_27_fixed <- Add_27
I0711 11:33:14.387131 27972 net.cpp:442] Add_27_fixed -> Add_27 (in-place)
I0711 11:33:14.387166 27972 net.cpp:190] Setting up Add_27_fixed
I0711 11:33:14.387171 27972 net.cpp:197] Top shape: 1 16 256 512 (2097152)
I0711 11:33:14.387172 27972 net.cpp:205] Memory required for data: 1689255936
I0711 11:33:14.387176 27972 layer_factory.hpp:123] Creating layer ConvNd_91
I0711 11:33:14.387182 27972 net.cpp:140] Creating Layer ConvNd_91
I0711 11:33:14.387187 27972 net.cpp:481] ConvNd_91 <- Add_27
I0711 11:33:14.387192 27972 net.cpp:455] ConvNd_91 -> ConvNd_91
I0711 11:33:14.387372 27972 layer_factory.hpp:123] Creating layer ConvNd_91
I0711 11:33:14.389881 27972 net.cpp:190] Setting up ConvNd_91
I0711 11:33:14.389894 27972 net.cpp:197] Top shape: 1 19 512 1024 (9961472)
I0711 11:33:14.389896 27972 net.cpp:205] Memory required for data: 1729101824
I0711 11:33:14.389902 27972 layer_factory.hpp:123] Creating layer ConvNd_91_fixed
I0711 11:33:14.389909 27972 net.cpp:140] Creating Layer ConvNd_91_fixed
I0711 11:33:14.389914 27972 net.cpp:481] ConvNd_91_fixed <- ConvNd_91
I0711 11:33:14.389919 27972 net.cpp:442] ConvNd_91_fixed -> ConvNd_91 (in-place)
I0711 11:33:14.389958 27972 net.cpp:190] Setting up ConvNd_91_fixed
I0711 11:33:14.389963 27972 net.cpp:197] Top shape: 1 19 512 1024 (9961472)
I0711 11:33:14.389966 27972 net.cpp:205] Memory required for data: 1768947712
I0711 11:33:14.389971 27972 layer_factory.hpp:123] Creating layer score
I0711 11:33:14.389977 27972 net.cpp:140] Creating Layer score
I0711 11:33:14.389981 27972 net.cpp:481] score <- ConvNd_91
I0711 11:33:14.389986 27972 net.cpp:455] score -> score
I0711 11:33:14.390045 27972 net.cpp:190] Setting up score
I0711 11:33:14.390050 27972 net.cpp:197] Top shape: 1 19 512 1024 (9961472)
I0711 11:33:14.390053 27972 net.cpp:205] Memory required for data: 1808793600
I0711 11:33:14.390056 27972 layer_factory.hpp:123] Creating layer accuracy
I0711 11:33:14.390076 27972 net.cpp:140] Creating Layer accuracy
I0711 11:33:14.390079 27972 net.cpp:481] accuracy <- score
I0711 11:33:14.390084 27972 net.cpp:481] accuracy <- label
I0711 11:33:14.390089 27972 net.cpp:455] accuracy -> segmentation_eval
I0711 11:33:14.390111 27972 net.cpp:190] Setting up accuracy
I0711 11:33:14.390115 27972 net.cpp:197] Top shape: 3 19 (57)
I0711 11:33:14.390118 27972 net.cpp:205] Memory required for data: 1808793828
I0711 11:33:14.390122 27972 net.cpp:268] accuracy does not need backward computation.
I0711 11:33:14.390126 27972 net.cpp:268] score does not need backward computation.
I0711 11:33:14.390130 27972 net.cpp:268] ConvNd_91_fixed does not need backward computation.
I0711 11:33:14.390131 27972 net.cpp:268] ConvNd_91 does not need backward computation.
…
