…
I0715 08:57:41.236937  3638 decent_q.cpp:595] GPU device name: GeForce GTX 1080 Ti
I0715 08:57:42.323035  3638 net.cpp:369] The NetState phase (1) differed from the phase (0) specified by a rule in layer data
I0715 08:57:42.324656  3638 net.cpp:98] Initializing net from parameters: 
layer {
  name: "data"
  type: "ImageSegData"
  top: "data"
  top: "label"
  include {
    phase: TEST
  }
  transform_param {
    scale: 0.022
    mean_value: 73
    mean_value: 82
    mean_value: 72
  }
  image_data_param {
    source: "../data/val_img_seg_nomap.txt"
    batch_size: 1
    shuffle: false
  }
}
layer {
  name: "resize_down"
  type: "DeephiResize"
  bottom: "data"
  top: "data"
  include {
    phase: TEST
  }
  deephi_resize_param {
    resize_type: BILINEAR
    new_height: 512
    new_width: 1024
  }
}
layer {
  name: "conv1/7x7_s2"
  type: "Convolution"
  bottom: "data"
  top: "conv1/7x7_s2_raw"
  param {
    lr_mult: 1
    decay_mult: 1
  }
  convolution_param {
    num_output: 64
    pad: 3
    kernel_size: 7
    stride: 2
    weight_filler {
      type: "msra"
    }
    bias_filler {
      type: "constant"
      value: 0.2
    }
  }
}
layer {
  name: "conv1/7x7_s2_BatchNorm"
  type: "BatchNorm"
  bottom: "conv1/7x7_s2_raw"
  top: "conv1/7x7_s2"
  param {
    lr_mult: 1
    decay_mult: 0
  }
  param {
    lr_mult: 1
    decay_mult: 0
  }
  param {
    lr_mult: 0
    decay_mult: 0
  }
  param {
    lr_mult: 0
    decay_mult: 0
  }
  batch_norm_param {
    use_global_stats: false
    eps: 1e-05
    scale_filler {
      type: "constant"
      value: 1
    }
    bias_filler {
      type: "constant"
      value: 0
    }
  }
}
layer {
  name: "conv1/relu_7x7"
  type: "ReLU"
  bottom: "conv1/7x7_s2"
  top: "conv1/7x7_s2"
}
layer {
  name: "pool1/3x3_s2"
  type: "Pooling"
  bottom: "conv1/7x7_s2"
  top: "pool1/3x3_s2"
  pooling_param {
    pool: MAX
    kernel_size: 3
    stride: 2
  }
}
layer {
  name: "conv2/3x3_reduce"
  type: "Convolution"
  bottom: "pool1/3x3_s2"
  top: "conv2/3x3_reduce_raw"
  param {
    lr_mult: 1
    decay_mult: 1
  }
  convolution_param {
    num_output: 64
    kernel_size: 1
    weight_filler {
      type: "msra"
    }
    bias_filler {
      type: "constant"
      value: 0.2
    }
  }
}
layer {
  name: "conv2/3x3_reduce_BatchNorm"
  type: "BatchNorm"
  bottom: "conv2/3x3_reduce_raw"
  top: "conv2/3x3_reduce"
  param {
    lr_mult: 1
    decay_mult: 0
  }
  param {
    lr_mult: 1
    decay_mult: 0
  }
  param {
    lr_mult: 0
    decay_mult: 0
  }
  param {
    lr_mult: 0
    decay_mult: 0
  }
  batch_norm_param {
    use_global_stats: false
    eps: 1e-05
    scale_filler {
      type: "constant"
      value: 1
    }
    bias_filler {
      type: "constant"
      value: 0
    }
  }
}
layer {
  name: "conv2/relu_3x3_reduce"
  type: "ReLU"
  bottom: "conv2/3x3_reduce"
  top: "conv2/3x3_reduce"
}
layer {
  name: "conv2/3x3"
  type: "Convolution"
  bottom: "conv2/3x3_reduce"
  top: "conv2/3x3_raw"
  param {
    lr_mult: 1
    decay_mult: 1
  }
  convolution_param {
    num_output: 192
    pad: 1
    kernel_size: 3
    weight_filler {
      type: "msra"
    }
    bias_filler {
      type: "constant"
      value: 0.2
    }
  }
}
layer {
  name: "conv2/3x3_BatchNorm"
  type: "BatchNorm"
  bottom: "conv2/3x3_raw"
  top: "conv2/3x3"
  param {
    lr_mult: 1
    decay_mult: 0
  }
  param {
    lr_mult: 1
    decay_mult: 0
  }
  param {
    lr_mult: 0
    decay_mult: 0
  }
  param {
    lr_mult: 0
    decay_mult: 0
  }
  batch_norm_param {
    use_global_stats: false
    eps: 1e-05
    scale_filler {
      type: "constant"
      value: 1
    }
    bias_filler {
      type: "constant"
      value: 0
    }
  }
}
layer {
  name: "conv2/relu_3x3"
  type: "ReLU"
  bottom: "conv2/3x3"
  top: "conv2/3x3"
}
layer {
  name: "pool2/3x3_s2"
  type: "Pooling"
  bottom: "conv2/3x3"
  top: "pool2/3x3_s2"
  pooling_param {
    pool: MAX
    kernel_size: 3
    stride: 2
  }
}
layer {
  name: "inception_3a/1x1"
  type: "Convolution"
  bottom: "pool2/3x3_s2"
  top: "inception_3a/1x1_raw"
  param {
    lr_mult: 1
    decay_mult: 1
  }
  convolution_param {
    num_output: 64
    kernel_size: 1
    weight_filler {
      type: "msra"
    }
    bias_filler {
      type: "constant"
      value: 0.2
    }
  }
}
layer {
  name: "inception_3a/1x1_BatchNorm"
  type: "BatchNorm"
  bottom: "inception_3a/1x1_raw"
  top: "inception_3a/1x1"
  param {
    lr_mult: 1
    decay_mult: 0
  }
  param {
    lr_mult: 1
    decay_mult: 0
  }
  param {
    lr_mult: 0
    decay_mult: 0
  }
  param {
    lr_mult: 0
    decay_mult: 0
  }
  batch_norm_param {
    use_global_stats: false
    eps: 1e-05
    scale_filler {
      type: "constant"
      value: 1
    }
    bias_filler {
      type: "constant"
      value: 0
    }
  }
}
layer {
  name: "inception_3a/relu_1x1"
  type: "ReLU"
  bottom: "inception_3a/1x1"
  top: "inception_3a/1x1"
}
layer {
  name: "inception_3a/3x3_reduce"
  type: "Convolution"
  bottom: "pool2/3x3_s2"
  top: "inception_3a/3x3_reduce_raw"
  param {
    lr_mult: 1
    decay_mult: 1
  }
  convolution_param {
    num_output: 96
    kernel_size: 1
    weight_filler {
      type: "msra"
    }
    bias_filler {
      type: "constant"
      value: 0.2
    }
  }
}
layer {
  name: "inception_3a/3x3_reduce_BatchNorm"
  type: "BatchNorm"
  bottom: "inception_3a/3x3_reduce_raw"
  top: "inception_3a/3x3_reduce"
  param {
    lr_mult: 1
    decay_mult: 0
  }
  param {
    lr_mult: 1
    decay_mult: 0
  }
  param {
    lr_mult: 0
    decay_mult: 0
  }
  param {
    lr_mult: 0
    decay_mult: 0
  }
  batch_norm_param {
    use_global_stats: false
    eps: 1e-05
    scale_filler {
      type: "constant"
      value: 1
    }
    bias_filler {
      type: "constant"
      value: 0
    }
  }
}
layer {
  name: "inception_3a/relu_3x3_reduce"
  type: "ReLU"
  bottom: "inception_3a/3x3_reduce"
  top: "inception_3a/3x3_reduce"
}
layer {
  name: "inception_3a/3x3"
  type: "Convolution"
  bottom: "inception_3a/3x3_reduce"
  top: "inception_3a/3x3_raw"
  param {
    lr_mult: 1
    decay_mult: 1
  }
  convolution_param {
    num_output: 128
    pad: 1
    kernel_size: 3
    weight_filler {
      type: "msra"
    }
    bias_filler {
      type: "constant"
      value: 0.2
    }
  }
}
layer {
  name: "inception_3a/3x3_BatchNorm"
  type: "BatchNorm"
  bottom: "inception_3a/3x3_raw"
  top: "inception_3a/3x3"
  param {
    lr_mult: 1
    decay_mult: 0
  }
  param {
    lr_mult: 1
    decay_mult: 0
  }
  param {
    lr_mult: 0
    decay_mult: 0
  }
  param {
    lr_mult: 0
    decay_mult: 0
  }
  batch_norm_param {
    use_global_stats: false
    eps: 1e-05
    scale_filler {
      type: "constant"
      value: 1
    }
    bias_filler {
      type: "constant"
      value: 0
    }
  }
}
layer {
  name: "inception_3a/relu_3x3"
  type: "ReLU"
  bottom: "inception_3a/3x3"
  top: "inception_3a/3x3"
}
layer {
  name: "inception_3a/5x5_reduce"
  type: "Convolution"
  bottom: "pool2/3x3_s2"
  top: "inception_3a/5x5_reduce_raw"
  param {
    lr_mult: 1
    decay_mult: 1
  }
  convolution_param {
    num_output: 16
    kernel_size: 1
    weight_filler {
      type: "msra"
    }
    bias_filler {
      type: "constant"
      value: 0.2
    }
  }
}
layer {
  name: "inception_3a/5x5_reduce_BatchNorm"
  type: "BatchNorm"
  bottom: "inception_3a/5x5_reduce_raw"
  top: "inception_3a/5x5_reduce"
  param {
    lr_mult: 1
    decay_mult: 0
  }
  param {
    lr_mult: 1
    decay_mult: 0
  }
  param {
    lr_mult: 0
    decay_mult: 0
  }
  param {
    lr_mult: 0
    decay_mult: 0
  }
  batch_norm_param {
    use_global_stats: false
    eps: 1e-05
    scale_filler {
      type: "constant"
      value: 1
    }
    bias_filler {
      type: "constant"
      value: 0
    }
  }
}
layer {
  name: "inception_3a/relu_5x5_reduce"
  type: "ReLU"
  bottom: "inception_3a/5x5_reduce"
  top: "inception_3a/5x5_reduce"
}
layer {
  name: "inception_3a/5x5"
  type: "Convolution"
  bottom: "inception_3a/5x5_reduce"
  top: "inception_3a/5x5_raw"
  param {
    lr_mult: 1
    decay_mult: 1
  }
  convolution_param {
    num_output: 32
    pad: 2
    kernel_size: 5
    weight_filler {
      type: "msra"
    }
    bias_filler {
      type: "constant"
      value: 0.2
    }
  }
}
layer {
  name: "inception_3a/5x5_BatchNorm"
  type: "BatchNorm"
  bottom: "inception_3a/5x5_raw"
  top: "inception_3a/5x5"
  param {
    lr_mult: 1
    decay_mult: 0
  }
  param {
    lr_mult: 1
    decay_mult: 0
  }
  param {
    lr_mult: 0
    decay_mult: 0
  }
  param {
    lr_mult: 0
    decay_mult: 0
  }
  batch_norm_param {
    use_global_stats: false
    eps: 1e-05
    scale_filler {
      type: "constant"
      value: 1
    }
    bias_filler {
      type: "constant"
      value: 0
    }
  }
}
layer {
  name: "inception_3a/relu_5x5"
  type: "ReLU"
  bottom: "inception_3a/5x5"
  top: "inception_3a/5x5"
}
layer {
  name: "inception_3a/pool"
  type: "Pooling"
  bottom: "pool2/3x3_s2"
  top: "inception_3a/pool"
  pooling_param {
    pool: MAX
    kernel_size: 3
    stride: 1
    pad: 1
  }
}
layer {
  name: "inception_3a/pool_proj"
  type: "Convolution"
  bottom: "inception_3a/pool"
  top: "inception_3a/pool_proj_raw"
  param {
    lr_mult: 1
    decay_mult: 1
  }
  convolution_param {
    num_output: 32
    kernel_size: 1
    weight_filler {
      type: "msra"
    }
    bias_filler {
      type: "constant"
      value: 0.2
    }
  }
}
layer {
  name: "inception_3a/pool_proj_BatchNorm"
  type: "BatchNorm"
  bottom: "inception_3a/pool_proj_raw"
  top: "inception_3a/pool_proj"
  param {
    lr_mult: 1
    decay_mult: 0
  }
  param {
    lr_mult: 1
    decay_mult: 0
  }
  param {
    lr_mult: 0
    decay_mult: 0
  }
  param {
    lr_mult: 0
    decay_mult: 0
  }
  batch_norm_param {
    use_global_stats: false
    eps: 1e-05
    scale_filler {
      type: "constant"
      value: 1
    }
    bias_filler {
      type: "constant"
      value: 0
    }
  }
}
layer {
  name: "inception_3a/relu_pool_proj"
  type: "ReLU"
  bottom: "inception_3a/pool_proj"
  top: "inception_3a/pool_proj"
}
layer {
  name: "inception_3a/output"
  type: "Concat"
  bottom: "inception_3a/1x1"
  bottom: "inception_3a/3x3"
  bottom: "inception_3a/5x5"
  bottom: "inception_3a/pool_proj"
  top: "inception_3a/output"
}
layer {
  name: "inception_3b/1x1"
  type: "Convolution"
  bottom: "inception_3a/output"
  top: "inception_3b/1x1_raw"
  param {
    lr_mult: 1
    decay_mult: 1
  }
  convolution_param {
    num_output: 128
    kernel_size: 1
    weight_filler {
      type: "msra"
    }
    bias_filler {
      type: "constant"
      value: 0.2
    }
  }
}
layer {
  name: "inception_3b/1x1_BatchNorm"
  type: "BatchNorm"
  bottom: "inception_3b/1x1_raw"
  top: "inception_3b/1x1"
  param {
    lr_mult: 1
    decay_mult: 0
  }
  param {
    lr_mult: 1
    decay_mult: 0
  }
  param {
    lr_mult: 0
    decay_mult: 0
  }
  param {
    lr_mult: 0
    decay_mult: 0
  }
  batch_norm_param {
    use_global_stats: false
    eps: 1e-05
    scale_filler {
      type: "constant"
      value: 1
    }
    bias_filler {
      type: "constant"
      value: 0
    }
  }
}
layer {
  name: "inception_3b/relu_1x1"
  type: "ReLU"
  bottom: "inception_3b/1x1"
  top: "inception_3b/1x1"
}
layer {
  name: "inception_3b/3x3_reduce"
  type: "Convolution"
  bottom: "inception_3a/output"
  top: "inception_3b/3x3_reduce_raw"
  param {
    lr_mult: 1
    decay_mult: 1
  }
  convolution_param {
    num_output: 128
    kernel_size: 1
    weight_filler {
      type: "msra"
    }
    bias_filler {
      type: "constant"
      value: 0.2
    }
  }
}
layer {
  name: "inception_3b/3x3_reduce_BatchNorm"
  type: "BatchNorm"
  bottom: "inception_3b/3x3_reduce_raw"
  top: "inception_3b/3x3_reduce"
  param {
    lr_mult: 1
    decay_mult: 0
  }
  param {
    lr_mult: 1
    decay_mult: 0
  }
  param {
    lr_mult: 0
    decay_mult: 0
  }
  param {
    lr_mult: 0
    decay_mult: 0
  }
  batch_norm_param {
    use_global_stats: false
    eps: 1e-05
    scale_filler {
      type: "constant"
      value: 1
    }
    bias_filler {
      type: "constant"
      value: 0
    }
  }
}
layer {
  name: "inception_3b/relu_3x3_reduce"
  type: "ReLU"
  bottom: "inception_3b/3x3_reduce"
  top: "inception_3b/3x3_reduce"
}
layer {
  name: "inception_3b/3x3"
  type: "Convolution"
  bottom: "inception_3b/3x3_reduce"
  top: "inception_3b/3x3_raw"
  param {
    lr_mult: 1
    decay_mult: 1
  }
  convolution_param {
    num_output: 192
    pad: 1
    kernel_size: 3
    weight_filler {
      type: "msra"
    }
    bias_filler {
      type: "constant"
      value: 0.2
    }
  }
}
layer {
  name: "inception_3b/3x3_BatchNorm"
  type: "BatchNorm"
  bottom: "inception_3b/3x3_raw"
  top: "inception_3b/3x3"
  param {
    lr_mult: 1
    decay_mult: 0
  }
  param {
    lr_mult: 1
    decay_mult: 0
  }
  param {
    lr_mult: 0
    decay_mult: 0
  }
  param {
    lr_mult: 0
    decay_mult: 0
  }
  batch_norm_param {
    use_global_stats: false
    eps: 1e-05
    scale_filler {
      type: "constant"
      value: 1
    }
    bias_filler {
      type: "constant"
      value: 0
    }
  }
}
layer {
  name: "inception_3b/relu_3x3"
  type: "ReLU"
  bottom: "inception_3b/3x3"
  top: "inception_3b/3x3"
}
layer {
  name: "inception_3b/5x5_reduce"
  type: "Convolution"
  bottom: "inception_3a/output"
  top: "inception_3b/5x5_reduce_raw"
  param {
    lr_mult: 1
    decay_mult: 1
  }
  convolution_param {
    num_output: 32
    kernel_size: 1
    weight_filler {
      type: "msra"
    }
    bias_filler {
      type: "constant"
      value: 0.2
    }
  }
}
layer {
  name: "inception_3b/5x5_reduce_BatchNorm"
  type: "BatchNorm"
  bottom: "inception_3b/5x5_reduce_raw"
  top: "inception_3b/5x5_reduce"
  param {
    lr_mult: 1
    decay_mult: 0
  }
  param {
    lr_mult: 1
    decay_mult: 0
  }
  param {
    lr_mult: 0
    decay_mult: 0
  }
  param {
    lr_mult: 0
    decay_mult: 0
  }
  batch_norm_param {
    use_global_stats: false
    eps: 1e-05
    scale_filler {
      type: "constant"
      value: 1
    }
    bias_filler {
      type: "constant"
      value: 0
    }
  }
}
layer {
  name: "inception_3b/relu_5x5_reduce"
  type: "ReLU"
  bottom: "inception_3b/5x5_reduce"
  top: "inception_3b/5x5_reduce"
}
layer {
  name: "inception_3b/5x5"
  type: "Convolution"
  bottom: "inception_3b/5x5_reduce"
  top: "inception_3b/5x5_raw"
  param {
    lr_mult: 1
    decay_mult: 1
  }
  convolution_param {
    num_output: 96
    pad: 2
    kernel_size: 5
    weight_filler {
      type: "msra"
    }
    bias_filler {
      type: "constant"
      value: 0.2
    }
  }
}
layer {
  name: "inception_3b/5x5_BatchNorm"
  type: "BatchNorm"
  bottom: "inception_3b/5x5_raw"
  top: "inception_3b/5x5"
  param {
    lr_mult: 1
    decay_mult: 0
  }
  param {
    lr_mult: 1
    decay_mult: 0
  }
  param {
    lr_mult: 0
    decay_mult: 0
  }
  param {
    lr_mult: 0
    decay_mult: 0
  }
  batch_norm_param {
    use_global_stats: false
    eps: 1e-05
    scale_filler {
      type: "constant"
      value: 1
    }
    bias_filler {
      type: "constant"
      value: 0
    }
  }
}
layer {
  name: "inception_3b/relu_5x5"
  type: "ReLU"
  bottom: "inception_3b/5x5"
  top: "inception_3b/5x5"
}
layer {
  name: "inception_3b/pool"
  type: "Pooling"
  bottom: "inception_3a/output"
  top: "inception_3b/pool"
  pooling_param {
    pool: MAX
    kernel_size: 3
    stride: 1
    pad: 1
  }
}
layer {
  name: "inception_3b/pool_proj"
  type: "Convolution"
  bottom: "inception_3b/pool"
  top: "inception_3b/pool_proj_raw"
  param {
    lr_mult: 1
    decay_mult: 1
  }
  convolution_param {
    num_output: 64
    kernel_size: 1
    weight_filler {
      type: "msra"
    }
    bias_filler {
      type: "constant"
      value: 0.2
    }
  }
}
layer {
  name: "inception_3b/pool_proj_BatchNorm"
  type: "BatchNorm"
  bottom: "inception_3b/pool_proj_raw"
  top: "inception_3b/pool_proj"
  param {
    lr_mult: 1
    decay_mult: 0
  }
  param {
    lr_mult: 1
    decay_mult: 0
  }
  param {
    lr_mult: 0
    decay_mult: 0
  }
  param {
    lr_mult: 0
    decay_mult: 0
  }
  batch_norm_param {
    use_global_stats: false
    eps: 1e-05
    scale_filler {
      type: "constant"
      value: 1
    }
    bias_filler {
      type: "constant"
      value: 0
    }
  }
}
layer {
  name: "inception_3b/relu_pool_proj"
  type: "ReLU"
  bottom: "inception_3b/pool_proj"
  top: "inception_3b/pool_proj"
}
layer {
  name: "inception_3b/output"
  type: "Concat"
  bottom: "inception_3b/1x1"
  bottom: "inception_3b/3x3"
  bottom: "inception_3b/5x5"
  bottom: "inception_3b/pool_proj"
  top: "inception_3b/output"
}
layer {
  name: "pool3/3x3_s2"
  type: "Pooling"
  bottom: "inception_3b/output"
  top: "pool3/3x3_s2"
  pooling_param {
    pool: MAX
    kernel_size: 3
    stride: 2
  }
}
layer {
  name: "inception_4a/1x1"
  type: "Convolution"
  bottom: "pool3/3x3_s2"
  top: "inception_4a/1x1_raw"
  param {
    lr_mult: 1
    decay_mult: 1
  }
  convolution_param {
    num_output: 192
    kernel_size: 1
    weight_filler {
      type: "msra"
    }
    bias_filler {
      type: "constant"
      value: 0.2
    }
  }
}
layer {
  name: "inception_4a/1x1_BatchNorm"
  type: "BatchNorm"
  bottom: "inception_4a/1x1_raw"
  top: "inception_4a/1x1"
  param {
    lr_mult: 1
    decay_mult: 0
  }
  param {
    lr_mult: 1
    decay_mult: 0
  }
  param {
    lr_mult: 0
    decay_mult: 0
  }
  param {
    lr_mult: 0
    decay_mult: 0
  }
  batch_norm_param {
    use_global_stats: false
    eps: 1e-05
    scale_filler {
      type: "constant"
      value: 1
    }
    bias_filler {
      type: "constant"
      value: 0
    }
  }
}
layer {
  name: "inception_4a/relu_1x1"
  type: "ReLU"
  bottom: "inception_4a/1x1"
  top: "inception_4a/1x1"
}
layer {
  name: "inception_4a/3x3_reduce"
  type: "Convolution"
  bottom: "pool3/3x3_s2"
  top: "inception_4a/3x3_reduce_raw"
  param {
    lr_mult: 1
    decay_mult: 1
  }
  convolution_param {
    num_output: 96
    kernel_size: 1
    weight_filler {
      type: "msra"
    }
    bias_filler {
      type: "constant"
      value: 0.2
    }
  }
}
layer {
  name: "inception_4a/3x3_reduce_BatchNorm"
  type: "BatchNorm"
  bottom: "inception_4a/3x3_reduce_raw"
  top: "inception_4a/3x3_reduce"
  param {
    lr_mult: 1
    decay_mult: 0
  }
  param {
    lr_mult: 1
    decay_mult: 0
  }
  param {
    lr_mult: 0
    decay_mult: 0
  }
  param {
    lr_mult: 0
    decay_mult: 0
  }
  batch_norm_param {
    use_global_stats: false
    eps: 1e-05
    scale_filler {
      type: "constant"
      value: 1
    }
    bias_filler {
      type: "constant"
      value: 0
    }
  }
}
layer {
  name: "inception_4a/relu_3x3_reduce"
  type: "ReLU"
  bottom: "inception_4a/3x3_reduce"
  top: "inception_4a/3x3_reduce"
}
layer {
  name: "inception_4a/3x3"
  type: "Convolution"
  bottom: "inception_4a/3x3_reduce"
  top: "inception_4a/3x3_raw"
  param {
    lr_mult: 1
    decay_mult: 1
  }
  convolution_param {
    num_output: 208
    pad: 1
    kernel_size: 3
    weight_filler {
      type: "msra"
    }
    bias_filler {
      type: "constant"
      value: 0.2
    }
  }
}
layer {
  name: "inception_4a/3x3_BatchNorm"
  type: "BatchNorm"
  bottom: "inception_4a/3x3_raw"
  top: "inception_4a/3x3"
  param {
    lr_mult: 1
    decay_mult: 0
  }
  param {
    lr_mult: 1
    decay_mult: 0
  }
  param {
    lr_mult: 0
    decay_mult: 0
  }
  param {
    lr_mult: 0
    decay_mult: 0
  }
  batch_norm_param {
    use_global_stats: false
    eps: 1e-05
    scale_filler {
      type: "constant"
      value: 1
    }
    bias_filler {
      type: "constant"
      value: 0
    }
  }
}
layer {
  name: "inception_4a/relu_3x3"
  type: "ReLU"
  bottom: "inception_4a/3x3"
  top: "inception_4a/3x3"
}
layer {
  name: "inception_4a/5x5_reduce"
  type: "Convolution"
  bottom: "pool3/3x3_s2"
  top: "inception_4a/5x5_reduce_raw"
  param {
    lr_mult: 1
    decay_mult: 1
  }
  convolution_param {
    num_output: 16
    kernel_size: 1
    weight_filler {
      type: "msra"
    }
    bias_filler {
      type: "constant"
      value: 0.2
    }
  }
}
layer {
  name: "inception_4a/5x5_reduce_BatchNorm"
  type: "BatchNorm"
  bottom: "inception_4a/5x5_reduce_raw"
  top: "inception_4a/5x5_reduce"
  param {
    lr_mult: 1
    decay_mult: 0
  }
  param {
    lr_mult: 1
    decay_mult: 0
  }
  param {
    lr_mult: 0
    decay_mult: 0
  }
  param {
    lr_mult: 0
    decay_mult: 0
  }
  batch_norm_param {
    use_global_stats: false
    eps: 1e-05
    scale_filler {
      type: "constant"
      value: 1
    }
    bias_filler {
      type: "constant"
      value: 0
    }
  }
}
layer {
  name: "inception_4a/relu_5x5_reduce"
  type: "ReLU"
  bottom: "inception_4a/5x5_reduce"
  top: "inception_4a/5x5_reduce"
}
layer {
  name: "inception_4a/5x5"
  type: "Convolution"
  bottom: "inception_4a/5x5_reduce"
  top: "inception_4a/5x5_raw"
  param {
    lr_mult: 1
    decay_mult: 1
  }
  convolution_param {
    num_output: 48
    pad: 2
    kernel_size: 5
    weight_filler {
      type: "msra"
    }
    bias_filler {
      type: "constant"
      value: 0.2
    }
  }
}
layer {
  name: "inception_4a/5x5_BatchNorm"
  type: "BatchNorm"
  bottom: "inception_4a/5x5_raw"
  top: "inception_4a/5x5"
  param {
    lr_mult: 1
    decay_mult: 0
  }
  param {
    lr_mult: 1
    decay_mult: 0
  }
  param {
    lr_mult: 0
    decay_mult: 0
  }
  param {
    lr_mult: 0
    decay_mult: 0
  }
  batch_norm_param {
    use_global_stats: false
    eps: 1e-05
    scale_filler {
      type: "constant"
      value: 1
    }
    bias_filler {
      type: "constant"
      value: 0
    }
  }
}
layer {
  name: "inception_4a/relu_5x5"
  type: "ReLU"
  bottom: "inception_4a/5x5"
  top: "inception_4a/5x5"
}
layer {
  name: "inception_4a/pool"
  type: "Pooling"
  bottom: "pool3/3x3_s2"
  top: "inception_4a/pool"
  pooling_param {
    pool: MAX
    kernel_size: 3
    stride: 1
    pad: 1
  }
}
layer {
  name: "inception_4a/pool_proj"
  type: "Convolution"
  bottom: "inception_4a/pool"
  top: "inception_4a/pool_proj_raw"
  param {
    lr_mult: 1
    decay_mult: 1
  }
  convolution_param {
    num_output: 64
    kernel_size: 1
    weight_filler {
      type: "msra"
    }
    bias_filler {
      type: "constant"
      value: 0.2
    }
  }
}
layer {
  name: "inception_4a/pool_proj_BatchNorm"
  type: "BatchNorm"
  bottom: "inception_4a/pool_proj_raw"
  top: "inception_4a/pool_proj"
  param {
    lr_mult: 1
    decay_mult: 0
  }
  param {
    lr_mult: 1
    decay_mult: 0
  }
  param {
    lr_mult: 0
    decay_mult: 0
  }
  param {
    lr_mult: 0
    decay_mult: 0
  }
  batch_norm_param {
    use_global_stats: false
    eps: 1e-05
    scale_filler {
      type: "constant"
      value: 1
    }
    bias_filler {
      type: "constant"
      value: 0
    }
  }
}
layer {
  name: "inception_4a/relu_pool_proj"
  type: "ReLU"
  bottom: "inception_4a/pool_proj"
  top: "inception_4a/pool_proj"
}
layer {
  name: "inception_4a/output"
  type: "Concat"
  bottom: "inception_4a/1x1"
  bottom: "inception_4a/3x3"
  bottom: "inception_4a/5x5"
  bottom: "inception_4a/pool_proj"
  top: "inception_4a/output"
}
layer {
  name: "inception_4b/1x1"
  type: "Convolution"
  bottom: "inception_4a/output"
  top: "inception_4b/1x1_raw"
  param {
    lr_mult: 1
    decay_mult: 1
  }
  convolution_param {
    num_output: 160
    kernel_size: 1
    weight_filler {
      type: "msra"
    }
    bias_filler {
      type: "constant"
      value: 0.2
    }
  }
}
layer {
  name: "inception_4b/1x1_BatchNorm"
  type: "BatchNorm"
  bottom: "inception_4b/1x1_raw"
  top: "inception_4b/1x1"
  param {
    lr_mult: 1
    decay_mult: 0
  }
  param {
    lr_mult: 1
    decay_mult: 0
  }
  param {
    lr_mult: 0
    decay_mult: 0
  }
  param {
    lr_mult: 0
    decay_mult: 0
  }
  batch_norm_param {
    use_global_stats: false
    eps: 1e-05
    scale_filler {
      type: "constant"
      value: 1
    }
    bias_filler {
      type: "constant"
      value: 0
    }
  }
}
layer {
  name: "inception_4b/relu_1x1"
  type: "ReLU"
  bottom: "inception_4b/1x1"
  top: "inception_4b/1x1"
}
layer {
  name: "inception_4b/3x3_reduce"
  type: "Convolution"
  bottom: "inception_4a/output"
  top: "inception_4b/3x3_reduce_raw"
  param {
    lr_mult: 1
    decay_mult: 1
  }
  convolution_param {
    num_output: 112
    kernel_size: 1
    weight_filler {
      type: "msra"
    }
    bias_filler {
      type: "constant"
      value: 0.2
    }
  }
}
layer {
  name: "inception_4b/3x3_reduce_BatchNorm"
  type: "BatchNorm"
  bottom: "inception_4b/3x3_reduce_raw"
  top: "inception_4b/3x3_reduce"
  param {
    lr_mult: 1
    decay_mult: 0
  }
  param {
    lr_mult: 1
    decay_mult: 0
  }
  param {
    lr_mult: 0
    decay_mult: 0
  }
  param {
    lr_mult: 0
    decay_mult: 0
  }
  batch_norm_param {
    use_global_stats: false
    eps: 1e-05
    scale_filler {
      type: "constant"
      value: 1
    }
    bias_filler {
      type: "constant"
      value: 0
    }
  }
}
layer {
  name: "inception_4b/relu_3x3_reduce"
  type: "ReLU"
  bottom: "inception_4b/3x3_reduce"
  top: "inception_4b/3x3_reduce"
}
layer {
  name: "inception_4b/3x3"
  type: "Convolution"
  bottom: "inception_4b/3x3_reduce"
  top: "inception_4b/3x3_raw"
  param {
    lr_mult: 1
    decay_mult: 1
  }
  convolution_param {
    num_output: 224
    pad: 1
    kernel_size: 3
    weight_filler {
      type: "msra"
    }
    bias_filler {
      type: "constant"
      value: 0.2
    }
  }
}
layer {
  name: "inception_4b/3x3_BatchNorm"
  type: "BatchNorm"
  bottom: "inception_4b/3x3_raw"
  top: "inception_4b/3x3"
  param {
    lr_mult: 1
    decay_mult: 0
  }
  param {
    lr_mult: 1
    decay_mult: 0
  }
  param {
    lr_mult: 0
    decay_mult: 0
  }
  param {
    lr_mult: 0
    decay_mult: 0
  }
  batch_norm_param {
    use_global_stats: false
    eps: 1e-05
    scale_filler {
      type: "constant"
      value: 1
    }
    bias_filler {
      type: "constant"
      value: 0
    }
  }
}
layer {
  name: "inception_4b/relu_3x3"
  type: "ReLU"
  bottom: "inception_4b/3x3"
  top: "inception_4b/3x3"
}
layer {
  name: "inception_4b/5x5_reduce"
  type: "Convolution"
  bottom: "inception_4a/output"
  top: "inception_4b/5x5_reduce_raw"
  param {
    lr_mult: 1
    decay_mult: 1
  }
  convolution_param {
    num_output: 24
    kernel_size: 1
    weight_filler {
      type: "msra"
    }
    bias_filler {
      type: "constant"
      value: 0.2
    }
  }
}
layer {
  name: "inception_4b/5x5_reduce_BatchNorm"
  type: "BatchNorm"
  bottom: "inception_4b/5x5_reduce_raw"
  top: "inception_4b/5x5_reduce"
  param {
    lr_mult: 1
    decay_mult: 0
  }
  param {
    lr_mult: 1
    decay_mult: 0
  }
  param {
    lr_mult: 0
    decay_mult: 0
  }
  param {
    lr_mult: 0
    decay_mult: 0
  }
  batch_norm_param {
    use_global_stats: false
    eps: 1e-05
    scale_filler {
      type: "constant"
      value: 1
    }
    bias_filler {
      type: "constant"
      value: 0
    }
  }
}
layer {
  name: "inception_4b/relu_5x5_reduce"
  type: "ReLU"
  bottom: "inception_4b/5x5_reduce"
  top: "inception_4b/5x5_reduce"
}
layer {
  name: "inception_4b/5x5"
  type: "Convolution"
  bottom: "inception_4b/5x5_reduce"
  top: "inception_4b/5x5_raw"
  param {
    lr_mult: 1
    decay_mult: 1
  }
  convolution_param {
    num_output: 64
    pad: 2
    kernel_size: 5
    weight_filler {
      type: "msra"
    }
    bias_filler {
      type: "constant"
      value: 0.2
    }
  }
}
layer {
  name: "inception_4b/5x5_BatchNorm"
  type: "BatchNorm"
  bottom: "inception_4b/5x5_raw"
  top: "inception_4b/5x5"
  param {
    lr_mult: 1
    decay_mult: 0
  }
  param {
    lr_mult: 1
    decay_mult: 0
  }
  param {
    lr_mult: 0
    decay_mult: 0
  }
  param {
    lr_mult: 0
    decay_mult: 0
  }
  batch_norm_param {
    use_global_stats: false
    eps: 1e-05
    scale_filler {
      type: "constant"
      value: 1
    }
    bias_filler {
      type: "constant"
      value: 0
    }
  }
}
layer {
  name: "inception_4b/relu_5x5"
  type: "ReLU"
  bottom: "inception_4b/5x5"
  top: "inception_4b/5x5"
}
layer {
  name: "inception_4b/pool"
  type: "Pooling"
  bottom: "inception_4a/output"
  top: "inception_4b/pool"
  pooling_param {
    pool: MAX
    kernel_size: 3
    stride: 1
    pad: 1
  }
}
layer {
  name: "inception_4b/pool_proj"
  type: "Convolution"
  bottom: "inception_4b/pool"
  top: "inception_4b/pool_proj_raw"
  param {
    lr_mult: 1
    decay_mult: 1
  }
  convolution_param {
    num_output: 64
    kernel_size: 1
    weight_filler {
      type: "msra"
    }
    bias_filler {
      type: "constant"
      value: 0.2
    }
  }
}
layer {
  name: "inception_4b/pool_proj_BatchNorm"
  type: "BatchNorm"
  bottom: "inception_4b/pool_proj_raw"
  top: "inception_4b/pool_proj"
  param {
    lr_mult: 1
    decay_mult: 0
  }
  param {
    lr_mult: 1
    decay_mult: 0
  }
  param {
    lr_mult: 0
    decay_mult: 0
  }
  param {
    lr_mult: 0
    decay_mult: 0
  }
  batch_norm_param {
    use_global_stats: false
    eps: 1e-05
    scale_filler {
      type: "constant"
      value: 1
    }
    bias_filler {
      type: "constant"
      value: 0
    }
  }
}
layer {
  name: "inception_4b/relu_pool_proj"
  type: "ReLU"
  bottom: "inception_4b/pool_proj"
  top: "inception_4b/pool_proj"
}
layer {
  name: "inception_4b/output"
  type: "Concat"
  bottom: "inception_4b/1x1"
  bottom: "inception_4b/3x3"
  bottom: "inception_4b/5x5"
  bottom: "inception_4b/pool_proj"
  top: "inception_4b/output"
}
layer {
  name: "inception_4c/1x1"
  type: "Convolution"
  bottom: "inception_4b/output"
  top: "inception_4c/1x1_raw"
  param {
    lr_mult: 1
    decay_mult: 1
  }
  convolution_param {
    num_output: 128
    kernel_size: 1
    weight_filler {
      type: "msra"
    }
    bias_filler {
      type: "constant"
      value: 0.2
    }
  }
}
layer {
  name: "inception_4c/1x1_BatchNorm"
  type: "BatchNorm"
  bottom: "inception_4c/1x1_raw"
  top: "inception_4c/1x1"
  param {
    lr_mult: 1
    decay_mult: 0
  }
  param {
    lr_mult: 1
    decay_mult: 0
  }
  param {
    lr_mult: 0
    decay_mult: 0
  }
  param {
    lr_mult: 0
    decay_mult: 0
  }
  batch_norm_param {
    use_global_stats: false
    eps: 1e-05
    scale_filler 
I0715 08:57:42.325595  3638 layer_factory.hpp:123] Creating layer data
I0715 08:57:42.325624  3638 net.cpp:140] Creating Layer data
I0715 08:57:42.325634  3638 net.cpp:455] data -> data
I0715 08:57:42.325644  3638 net.cpp:455] data -> label
I0715 08:57:42.325664  3638 image_seg_data_layer.cpp:46] Opening file ../data/val_img_seg_nomap.txt
I0715 08:57:42.326453  3638 image_seg_data_layer.cpp:68] A total of 500 images.
I0715 08:57:42.392961  3638 image_seg_data_layer.cpp:97] output data size: 1,3,1024,2048
I0715 08:57:42.535768  3638 internal_thread.cpp:73] Starting internal thread(s) on GPU 1
I0715 08:57:42.535894  3638 net.cpp:190] Setting up data
I0715 08:57:42.535907  3638 net.cpp:197] Top shape: 1 3 1024 2048 (6291456)
I0715 08:57:42.535912  3638 net.cpp:197] Top shape: 1 1 1024 2048 (2097152)
I0715 08:57:42.535917  3638 net.cpp:205] Memory required for data: 33554432
I0715 08:57:42.535923  3638 layer_factory.hpp:123] Creating layer resize_down
I0715 08:57:42.535938  3638 net.cpp:140] Creating Layer resize_down
I0715 08:57:42.535941  3638 net.cpp:481] resize_down <- data
I0715 08:57:42.535959  3638 net.cpp:442] resize_down -> data (in-place)
I0715 08:57:42.535974  3638 net.cpp:190] Setting up resize_down
I0715 08:57:42.535979  3638 net.cpp:197] Top shape: 1 3 512 1024 (1572864)
I0715 08:57:42.535984  3638 net.cpp:205] Memory required for data: 39845888
I0715 08:57:42.535987  3638 layer_factory.hpp:123] Creating layer conv1/7x7_s2
I0715 08:57:42.536000  3638 net.cpp:140] Creating Layer conv1/7x7_s2
I0715 08:57:42.536005  3638 net.cpp:481] conv1/7x7_s2 <- data
I0715 08:57:42.536011  3638 net.cpp:455] conv1/7x7_s2 -> conv1/7x7_s2_raw
I0715 08:57:42.538125  3638 net.cpp:190] Setting up conv1/7x7_s2
I0715 08:57:42.538136  3638 net.cpp:197] Top shape: 1 64 256 512 (8388608)
I0715 08:57:42.538139  3638 net.cpp:205] Memory required for data: 73400320
I0715 08:57:42.538156  3638 layer_factory.hpp:123] Creating layer conv1/7x7_s2_BatchNorm
I0715 08:57:42.538167  3638 net.cpp:140] Creating Layer conv1/7x7_s2_BatchNorm
I0715 08:57:42.538172  3638 net.cpp:481] conv1/7x7_s2_BatchNorm <- conv1/7x7_s2_raw
I0715 08:57:42.538177  3638 net.cpp:455] conv1/7x7_s2_BatchNorm -> conv1/7x7_s2
I0715 08:57:42.539381  3638 net.cpp:190] Setting up conv1/7x7_s2_BatchNorm
I0715 08:57:42.539388  3638 net.cpp:197] Top shape: 1 64 256 512 (8388608)
I0715 08:57:42.539391  3638 net.cpp:205] Memory required for data: 106954752
I0715 08:57:42.539403  3638 layer_factory.hpp:123] Creating layer conv1/relu_7x7
I0715 08:57:42.539410  3638 net.cpp:140] Creating Layer conv1/relu_7x7
I0715 08:57:42.539414  3638 net.cpp:481] conv1/relu_7x7 <- conv1/7x7_s2
I0715 08:57:42.539418  3638 net.cpp:442] conv1/relu_7x7 -> conv1/7x7_s2 (in-place)
I0715 08:57:42.539427  3638 net.cpp:190] Setting up conv1/relu_7x7
I0715 08:57:42.539433  3638 net.cpp:197] Top shape: 1 64 256 512 (8388608)
I0715 08:57:42.539435  3638 net.cpp:205] Memory required for data: 140509184
I0715 08:57:42.539438  3638 layer_factory.hpp:123] Creating layer pool1/3x3_s2
I0715 08:57:42.539445  3638 net.cpp:140] Creating Layer pool1/3x3_s2
I0715 08:57:42.539450  3638 net.cpp:481] pool1/3x3_s2 <- conv1/7x7_s2
I0715 08:57:42.539456  3638 net.cpp:455] pool1/3x3_s2 -> pool1/3x3_s2
I0715 08:57:42.539499  3638 net.cpp:190] Setting up pool1/3x3_s2
I0715 08:57:42.539506  3638 net.cpp:197] Top shape: 1 64 128 256 (2097152)
I0715 08:57:42.539510  3638 net.cpp:205] Memory required for data: 148897792
I0715 08:57:42.539512  3638 layer_factory.hpp:123] Creating layer conv2/3x3_reduce
I0715 08:57:42.539520  3638 net.cpp:140] Creating Layer conv2/3x3_reduce
I0715 08:57:42.539523  3638 net.cpp:481] conv2/3x3_reduce <- pool1/3x3_s2
I0715 08:57:42.539530  3638 net.cpp:455] conv2/3x3_reduce -> conv2/3x3_reduce_raw
I0715 08:57:42.541347  3638 net.cpp:190] Setting up conv2/3x3_reduce
I0715 08:57:42.541358  3638 net.cpp:197] Top shape: 1 64 128 256 (2097152)
I0715 08:57:42.541362  3638 net.cpp:205] Memory required for data: 157286400
I0715 08:57:42.541370  3638 layer_factory.hpp:123] Creating layer conv2/3x3_reduce_BatchNorm
I0715 08:57:42.541378  3638 net.cpp:140] Creating Layer conv2/3x3_reduce_BatchNorm
I0715 08:57:42.541381  3638 net.cpp:481] conv2/3x3_reduce_BatchNorm <- conv2/3x3_reduce_raw
I0715 08:57:42.541388  3638 net.cpp:455] conv2/3x3_reduce_BatchNorm -> conv2/3x3_reduce
I0715 08:57:42.542021  3638 net.cpp:190] Setting up conv2/3x3_reduce_BatchNorm
I0715 08:57:42.542029  3638 net.cpp:197] Top shape: 1 64 128 256 (2097152)
I0715 08:57:42.542032  3638 net.cpp:205] Memory required for data: 165675008
I0715 08:57:42.542042  3638 layer_factory.hpp:123] Creating layer conv2/relu_3x3_reduce
I0715 08:57:42.542047  3638 net.cpp:140] Creating Layer conv2/relu_3x3_reduce
I0715 08:57:42.542052  3638 net.cpp:481] conv2/relu_3x3_reduce <- conv2/3x3_reduce
I0715 08:57:42.542057  3638 net.cpp:442] conv2/relu_3x3_reduce -> conv2/3x3_reduce (in-place)
I0715 08:57:42.542062  3638 net.cpp:190] Setting up conv2/relu_3x3_reduce
I0715 08:57:42.542066  3638 net.cpp:197] Top shape: 1 64 128 256 (2097152)
I0715 08:57:42.542069  3638 net.cpp:205] Memory required for data: 174063616
I0715 08:57:42.542073  3638 layer_factory.hpp:123] Creating layer conv2/3x3
I0715 08:57:42.542079  3638 net.cpp:140] Creating Layer conv2/3x3
I0715 08:57:42.542083  3638 net.cpp:481] conv2/3x3 <- conv2/3x3_reduce
I0715 08:57:42.542091  3638 net.cpp:455] conv2/3x3 -> conv2/3x3_raw
I0715 08:57:42.543283  3638 net.cpp:190] Setting up conv2/3x3
I0715 08:57:42.543292  3638 net.cpp:197] Top shape: 1 192 128 256 (6291456)
I0715 08:57:42.543294  3638 net.cpp:205] Memory required for data: 199229440
I0715 08:57:42.543300  3638 layer_factory.hpp:123] Creating layer conv2/3x3_BatchNorm
I0715 08:57:42.543306  3638 net.cpp:140] Creating Layer conv2/3x3_BatchNorm
I0715 08:57:42.543310  3638 net.cpp:481] conv2/3x3_BatchNorm <- conv2/3x3_raw
I0715 08:57:42.543315  3638 net.cpp:455] conv2/3x3_BatchNorm -> conv2/3x3
I0715 08:57:42.543926  3638 net.cpp:190] Setting up conv2/3x3_BatchNorm
I0715 08:57:42.543936  3638 net.cpp:197] Top shape: 1 192 128 256 (6291456)
I0715 08:57:42.543938  3638 net.cpp:205] Memory required for data: 224395264
I0715 08:57:42.543949  3638 layer_factory.hpp:123] Creating layer conv2/relu_3x3
I0715 08:57:42.543954  3638 net.cpp:140] Creating Layer conv2/relu_3x3
I0715 08:57:42.543959  3638 net.cpp:481] conv2/relu_3x3 <- conv2/3x3
I0715 08:57:42.543965  3638 net.cpp:442] conv2/relu_3x3 -> conv2/3x3 (in-place)
I0715 08:57:42.543972  3638 net.cpp:190] Setting up conv2/relu_3x3
I0715 08:57:42.543977  3638 net.cpp:197] Top shape: 1 192 128 256 (6291456)
I0715 08:57:42.543980  3638 net.cpp:205] Memory required for data: 249561088
I0715 08:57:42.543984  3638 layer_factory.hpp:123] Creating layer conv2/3x3_conv2/relu_3x3_0_split
I0715 08:57:42.543990  3638 net.cpp:140] Creating Layer conv2/3x3_conv2/relu_3x3_0_split
I0715 08:57:42.543993  3638 net.cpp:481] conv2/3x3_conv2/relu_3x3_0_split <- conv2/3x3
I0715 08:57:42.543998  3638 net.cpp:455] conv2/3x3_conv2/relu_3x3_0_split -> conv2/3x3_conv2/relu_3x3_0_split_0
I0715 08:57:42.544003  3638 net.cpp:455] conv2/3x3_conv2/relu_3x3_0_split -> conv2/3x3_conv2/relu_3x3_0_split_1
I0715 08:57:42.544036  3638 net.cpp:190] Setting up conv2/3x3_conv2/relu_3x3_0_split
I0715 08:57:42.544044  3638 net.cpp:197] Top shape: 1 192 128 256 (6291456)
I0715 08:57:42.544047  3638 net.cpp:197] Top shape: 1 192 128 256 (6291456)
I0715 08:57:42.544049  3638 net.cpp:205] Memory required for data: 299892736
I0715 08:57:42.544052  3638 layer_factory.hpp:123] Creating layer pool2/3x3_s2
I0715 08:57:42.544059  3638 net.cpp:140] Creating Layer pool2/3x3_s2
I0715 08:57:42.544064  3638 net.cpp:481] pool2/3x3_s2 <- conv2/3x3_conv2/relu_3x3_0_split_0
I0715 08:57:42.544070  3638 net.cpp:455] pool2/3x3_s2 -> pool2/3x3_s2
I0715 08:57:42.544100  3638 net.cpp:190] Setting up pool2/3x3_s2
I0715 08:57:42.544106  3638 net.cpp:197] Top shape: 1 192 64 128 (1572864)
I0715 08:57:42.544109  3638 net.cpp:205] Memory required for data: 306184192
I0715 08:57:42.544112  3638 layer_factory.hpp:123] Creating layer pool2/3x3_s2_pool2/3x3_s2_0_split
I0715 08:57:42.544119  3638 net.cpp:140] Creating Layer pool2/3x3_s2_pool2/3x3_s2_0_split
I0715 08:57:42.544124  3638 net.cpp:481] pool2/3x3_s2_pool2/3x3_s2_0_split <- pool2/3x3_s2
I0715 08:57:42.544131  3638 net.cpp:455] pool2/3x3_s2_pool2/3x3_s2_0_split -> pool2/3x3_s2_pool2/3x3_s2_0_split_0
I0715 08:57:42.544138  3638 net.cpp:455] pool2/3x3_s2_pool2/3x3_s2_0_split -> pool2/3x3_s2_pool2/3x3_s2_0_split_1
I0715 08:57:42.544145  3638 net.cpp:455] pool2/3x3_s2_pool2/3x3_s2_0_split -> pool2/3x3_s2_pool2/3x3_s2_0_split_2
I0715 08:57:42.544153  3638 net.cpp:455] pool2/3x3_s2_pool2/3x3_s2_0_split -> pool2/3x3_s2_pool2/3x3_s2_0_split_3
I0715 08:57:42.544203  3638 net.cpp:190] Setting up pool2/3x3_s2_pool2/3x3_s2_0_split
I0715 08:57:42.544209  3638 net.cpp:197] Top shape: 1 192 64 128 (1572864)
I0715 08:57:42.544212  3638 net.cpp:197] Top shape: 1 192 64 128 (1572864)
I0715 08:57:42.544217  3638 net.cpp:197] Top shape: 1 192 64 128 (1572864)
I0715 08:57:42.544222  3638 net.cpp:197] Top shape: 1 192 64 128 (1572864)
I0715 08:57:42.544225  3638 net.cpp:205] Memory required for data: 331350016
I0715 08:57:42.544229  3638 layer_factory.hpp:123] Creating layer inception_3a/1x1
I0715 08:57:42.544239  3638 net.cpp:140] Creating Layer inception_3a/1x1
I0715 08:57:42.544245  3638 net.cpp:481] inception_3a/1x1 <- pool2/3x3_s2_pool2/3x3_s2_0_split_0
I0715 08:57:42.544250  3638 net.cpp:455] inception_3a/1x1 -> inception_3a/1x1_raw
I0715 08:57:42.544574  3638 net.cpp:190] Setting up inception_3a/1x1
I0715 08:57:42.544582  3638 net.cpp:197] Top shape: 1 64 64 128 (524288)
I0715 08:57:42.544585  3638 net.cpp:205] Memory required for data: 333447168
I0715 08:57:42.544590  3638 layer_factory.hpp:123] Creating layer inception_3a/1x1_BatchNorm
I0715 08:57:42.544598  3638 net.cpp:140] Creating Layer inception_3a/1x1_BatchNorm
I0715 08:57:42.544602  3638 net.cpp:481] inception_3a/1x1_BatchNorm <- inception_3a/1x1_raw
I0715 08:57:42.544607  3638 net.cpp:455] inception_3a/1x1_BatchNorm -> inception_3a/1x1
I0715 08:57:42.545200  3638 net.cpp:190] Setting up inception_3a/1x1_BatchNorm
I0715 08:57:42.545207  3638 net.cpp:197] Top shape: 1 64 64 128 (524288)
I0715 08:57:42.545212  3638 net.cpp:205] Memory required for data: 335544320
I0715 08:57:42.545219  3638 layer_factory.hpp:123] Creating layer inception_3a/relu_1x1
I0715 08:57:42.545224  3638 net.cpp:140] Creating Layer inception_3a/relu_1x1
I0715 08:57:42.545228  3638 net.cpp:481] inception_3a/relu_1x1 <- inception_3a/1x1
I0715 08:57:42.545233  3638 net.cpp:442] inception_3a/relu_1x1 -> inception_3a/1x1 (in-place)
I0715 08:57:42.545238  3638 net.cpp:190] Setting up inception_3a/relu_1x1
I0715 08:57:42.545241  3638 net.cpp:197] Top shape: 1 64 64 128 (524288)
I0715 08:57:42.545244  3638 net.cpp:205] Memory required for data: 337641472
I0715 08:57:42.545248  3638 layer_factory.hpp:123] Creating layer inception_3a/3x3_reduce
I0715 08:57:42.545255  3638 net.cpp:140] Creating Layer inception_3a/3x3_reduce
I0715 08:57:42.545259  3638 net.cpp:481] inception_3a/3x3_reduce <- pool2/3x3_s2_pool2/3x3_s2_0_split_1
I0715 08:57:42.545269  3638 net.cpp:455] inception_3a/3x3_reduce -> inception_3a/3x3_reduce_raw
I0715 08:57:42.545655  3638 net.cpp:190] Setting up inception_3a/3x3_reduce
I0715 08:57:42.545663  3638 net.cpp:197] Top shape: 1 96 64 128 (786432)
I0715 08:57:42.545665  3638 net.cpp:205] Memory required for data: 340787200
I0715 08:57:42.545671  3638 layer_factory.hpp:123] Creating layer inception_3a/3x3_reduce_BatchNorm
I0715 08:57:42.545678  3638 net.cpp:140] Creating Layer inception_3a/3x3_reduce_BatchNorm
I0715 08:57:42.545681  3638 net.cpp:481] inception_3a/3x3_reduce_BatchNorm <- inception_3a/3x3_reduce_raw
I0715 08:57:42.545687  3638 net.cpp:455] inception_3a/3x3_reduce_BatchNorm -> inception_3a/3x3_reduce
I0715 08:57:42.546290  3638 net.cpp:190] Setting up inception_3a/3x3_reduce_BatchNorm
I0715 08:57:42.546298  3638 net.cpp:197] Top shape: 1 96 64 128 (786432)
I0715 08:57:42.546300  3638 net.cpp:205] Memory required for data: 343932928
I0715 08:57:42.546311  3638 layer_factory.hpp:123] Creating layer inception_3a/relu_3x3_reduce
I0715 08:57:42.546317  3638 net.cpp:140] Creating Layer inception_3a/relu_3x3_reduce
I0715 08:57:42.546320  3638 net.cpp:481] inception_3a/relu_3x3_reduce <- inception_3a/3x3_reduce
I0715 08:57:42.546325  3638 net.cpp:442] inception_3a/relu_3x3_reduce -> inception_3a/3x3_reduce (in-place)
I0715 08:57:42.546332  3638 net.cpp:190] Setting up inception_3a/relu_3x3_reduce
I0715 08:57:42.546335  3638 net.cpp:197] Top shape: 1 96 64 128 (786432)
I0715 08:57:42.546339  3638 net.cpp:205] Memory required for data: 347078656
I0715 08:57:42.546341  3638 layer_factory.hpp:123] Creating layer inception_3a/3x3
I0715 08:57:42.546351  3638 net.cpp:140] Creating Layer inception_3a/3x3
I0715 08:57:42.546356  3638 net.cpp:481] inception_3a/3x3 <- inception_3a/3x3_reduce
I0715 08:57:42.546363  3638 net.cpp:455] inception_3a/3x3 -> inception_3a/3x3_raw
I0715 08:57:42.548293  3638 net.cpp:190] Setting up inception_3a/3x3
I0715 08:57:42.548305  3638 net.cpp:197] Top shape: 1 128 64 128 (1048576)
I0715 08:57:42.548308  3638 net.cpp:205] Memory required for data: 351272960
I0715 08:57:42.548315  3638 layer_factory.hpp:123] Creating layer inception_3a/3x3_BatchNorm
I0715 08:57:42.548322  3638 net.cpp:140] Creating Layer inception_3a/3x3_BatchNorm
I0715 08:57:42.548326  3638 net.cpp:481] inception_3a/3x3_BatchNorm <- inception_3a/3x3_raw
I0715 08:57:42.548331  3638 net.cpp:455] inception_3a/3x3_BatchNorm -> inception_3a/3x3
I0715 08:57:42.548868  3638 net.cpp:190] Setting up inception_3a/3x3_BatchNorm
I0715 08:57:42.548877  3638 net.cpp:197] Top shape: 1 128 64 128 (1048576)
I0715 08:57:42.548879  3638 net.cpp:205] Memory required for data: 355467264
I0715 08:57:42.548887  3638 layer_factory.hpp:123] Creating layer inception_3a/relu_3x3
I0715 08:57:42.548893  3638 net.cpp:140] Creating Layer inception_3a/relu_3x3
I0715 08:57:42.548897  3638 net.cpp:481] inception_3a/relu_3x3 <- inception_3a/3x3
I0715 08:57:42.548902  3638 net.cpp:442] inception_3a/relu_3x3 -> inception_3a/3x3 (in-place)
I0715 08:57:42.548907  3638 net.cpp:190] Setting up inception_3a/relu_3x3
I0715 08:57:42.548913  3638 net.cpp:197] Top shape: 1 128 64 128 (1048576)
I0715 08:57:42.548915  3638 net.cpp:205] Memory required for data: 359661568
I0715 08:57:42.548918  3638 layer_factory.hpp:123] Creating layer inception_3a/5x5_reduce
I0715 08:57:42.548926  3638 net.cpp:140] Creating Layer inception_3a/5x5_reduce
I0715 08:57:42.548929  3638 net.cpp:481] inception_3a/5x5_reduce <- pool2/3x3_s2_pool2/3x3_s2_0_split_2
I0715 08:57:42.548934  3638 net.cpp:455] inception_3a/5x5_reduce -> inception_3a/5x5_reduce_raw
I0715 08:57:42.549191  3638 net.cpp:190] Setting up inception_3a/5x5_reduce
I0715 08:57:42.549202  3638 net.cpp:197] Top shape: 1 16 64 128 (131072)
I0715 08:57:42.549207  3638 net.cpp:205] Memory required for data: 360185856
I0715 08:57:42.549214  3638 layer_factory.hpp:123] Creating layer inception_3a/5x5_reduce_BatchNorm
I0715 08:57:42.549229  3638 net.cpp:140] Creating Layer inception_3a/5x5_reduce_BatchNorm
I0715 08:57:42.549234  3638 net.cpp:481] inception_3a/5x5_reduce_BatchNorm <- inception_3a/5x5_reduce_raw
I0715 08:57:42.549243  3638 net.cpp:455] inception_3a/5x5_reduce_BatchNorm -> inception_3a/5x5_reduce
I0715 08:57:42.549860  3638 net.cpp:190] Setting up inception_3a/5x5_reduce_BatchNorm
I0715 08:57:42.549868  3638 net.cpp:197] Top shape: 1 16 64 128 (131072)
I0715 08:57:42.549871  3638 net.cpp:205] Memory required for data: 360710144
I0715 08:57:42.549880  3638 layer_factory.hpp:123] Creating layer inception_3a/relu_5x5_reduce
I0715 08:57:42.549885  3638 net.cpp:140] Creating Layer inception_3a/relu_5x5_reduce
I0715 08:57:42.549890  3638 net.cpp:481] inception_3a/relu_5x5_reduce <- inception_3a/5x5_reduce
I0715 08:57:42.549893  3638 net.cpp:442] inception_3a/relu_5x5_reduce -> inception_3a/5x5_reduce (in-place)
I0715 08:57:42.549901  3638 net.cpp:190] Setting up inception_3a/relu_5x5_reduce
I0715 08:57:42.549904  3638 net.cpp:197] Top shape: 1 16 64 128 (131072)
I0715 08:57:42.549906  3638 net.cpp:205] Memory required for data: 361234432
I0715 08:57:42.549909  3638 layer_factory.hpp:123] Creating layer inception_3a/5x5
I0715 08:57:42.549917  3638 net.cpp:140] Creating Layer inception_3a/5x5
I0715 08:57:42.549921  3638 net.cpp:481] inception_3a/5x5 <- inception_3a/5x5_reduce
I0715 08:57:42.549926  3638 net.cpp:455] inception_3a/5x5 -> inception_3a/5x5_raw
I0715 08:57:42.550261  3638 net.cpp:190] Setting up inception_3a/5x5
I0715 08:57:42.550268  3638 net.cpp:197] Top shape: 1 32 64 128 (262144)
I0715 08:57:42.550271  3638 net.cpp:205] Memory required for data: 362283008
I0715 08:57:42.550276  3638 layer_factory.hpp:123] Creating layer inception_3a/5x5_BatchNorm
I0715 08:57:42.550282  3638 net.cpp:140] Creating Layer inception_3a/5x5_BatchNorm
I0715 08:57:42.550287  3638 net.cpp:481] inception_3a/5x5_BatchNorm <- inception_3a/5x5_raw
I0715 08:57:42.550292  3638 net.cpp:455] inception_3a/5x5_BatchNorm -> inception_3a/5x5
I0715 08:57:42.550897  3638 net.cpp:190] Setting up inception_3a/5x5_BatchNorm
I0715 08:57:42.550904  3638 net.cpp:197] Top shape: 1 32 64 128 (262144)
I0715 08:57:42.550907  3638 net.cpp:205] Memory required for data: 363331584
I0715 08:57:42.550915  3638 layer_factory.hpp:123] Creating layer inception_3a/relu_5x5
I0715 08:57:42.550920  3638 net.cpp:140] Creating Layer inception_3a/relu_5x5
I0715 08:57:42.550925  3638 net.cpp:481] inception_3a/relu_5x5 <- inception_3a/5x5
I0715 08:57:42.550930  3638 net.cpp:442] inception_3a/relu_5x5 -> inception_3a/5x5 (in-place)
I0715 08:57:42.550935  3638 net.cpp:190] Setting up inception_3a/relu_5x5
I0715 08:57:42.550938  3638 net.cpp:197] Top shape: 1 32 64 128 (262144)
I0715 08:57:42.550941  3638 net.cpp:205] Memory required for data: 364380160
I0715 08:57:42.550945  3638 layer_factory.hpp:123] Creating layer inception_3a/pool
I0715 08:57:42.550949  3638 net.cpp:140] Creating Layer inception_3a/pool
I0715 08:57:42.550952  3638 net.cpp:481] inception_3a/pool <- pool2/3x3_s2_pool2/3x3_s2_0_split_3
I0715 08:57:42.550957  3638 net.cpp:455] inception_3a/pool -> inception_3a/pool
I0715 08:57:42.550987  3638 net.cpp:190] Setting up inception_3a/pool
I0715 08:57:42.550993  3638 net.cpp:197] Top shape: 1 192 64 128 (1572864)
I0715 08:57:42.550997  3638 net.cpp:205] Memory required for data: 370671616
I0715 08:57:42.550999  3638 layer_factory.hpp:123] Creating layer inception_3a/pool_proj
I0715 08:57:42.551007  3638 net.cpp:140] Creating Layer inception_3a/pool_proj
I0715 08:57:42.551010  3638 net.cpp:481] inception_3a/pool_proj <- inception_3a/pool
I0715 08:57:42.551015  3638 net.cpp:455] inception_3a/pool_proj -> inception_3a/pool_proj_raw
I0715 08:57:42.551285  3638 net.cpp:190] Setting up inception_3a/pool_proj
I0715 08:57:42.551292  3638 net.cpp:197] Top shape: 1 32 64 128 (262144)
I0715 08:57:42.551295  3638 net.cpp:205] Memory required for data: 371720192
I0715 08:57:42.551301  3638 layer_factory.hpp:123] Creating layer inception_3a/pool_proj_BatchNorm
I0715 08:57:42.551309  3638 net.cpp:140] Creating Layer inception_3a/pool_proj_BatchNorm
I0715 08:57:42.551313  3638 net.cpp:481] inception_3a/pool_proj_BatchNorm <- inception_3a/pool_proj_raw
I0715 08:57:42.551318  3638 net.cpp:455] inception_3a/pool_proj_BatchNorm -> inception_3a/pool_proj
I0715 08:57:42.551940  3638 net.cpp:190] Setting up inception_3a/pool_proj_BatchNorm
I0715 08:57:42.551949  3638 net.cpp:197] Top shape: 1 32 64 128 (262144)
I0715 08:57:42.551952  3638 net.cpp:205] Memory required for data: 372768768
I0715 08:57:42.551961  3638 layer_factory.hpp:123] Creating layer inception_3a/relu_pool_proj
I0715 08:57:42.551966  3638 net.cpp:140] Creating Layer inception_3a/relu_pool_proj
I0715 08:57:42.551970  3638 net.cpp:481] inception_3a/relu_pool_proj <- inception_3a/pool_proj
I0715 08:57:42.551975  3638 net.cpp:442] inception_3a/relu_pool_proj -> inception_3a/pool_proj (in-place)
I0715 08:57:42.551981  3638 net.cpp:190] Setting up inception_3a/relu_pool_proj
I0715 08:57:42.551985  3638 net.cpp:197] Top shape: 1 32 64 128 (262144)
I0715 08:57:42.551987  3638 net.cpp:205] Memory required for data: 373817344
I0715 08:57:42.551990  3638 layer_factory.hpp:123] Creating layer inception_3a/output
I0715 08:57:42.551995  3638 net.cpp:140] Creating Layer inception_3a/output
I0715 08:57:42.551998  3638 net.cpp:481] inception_3a/output <- inception_3a/1x1
I0715 08:57:42.552002  3638 net.cpp:481] inception_3a/output <- inception_3a/3x3
I0715 08:57:42.552006  3638 net.cpp:481] inception_3a/output <- inception_3a/5x5
I0715 08:57:42.552009  3638 net.cpp:481] inception_3a/output <- inception_3a/pool_proj
I0715 08:57:42.552014  3638 net.cpp:455] inception_3a/output -> inception_3a/output
I0715 08:57:42.552036  3638 net.cpp:190] Setting up inception_3a/output
I0715 08:57:42.552040  3638 net.cpp:197] Top shape: 1 256 64 128 (2097152)
I0715 08:57:42.552043  3638 net.cpp:205] Memory required for data: 382205952
I0715 08:57:42.552047  3638 layer_factory.hpp:123] Creating layer inception_3a/output_inception_3a/output_0_split
I0715 08:57:42.552052  3638 net.cpp:140] Creating Layer inception_3a/output_inception_3a/output_0_split
I0715 08:57:42.552054  3638 net.cpp:481] inception_3a/output_inception_3a/output_0_split <- inception_3a/output
I0715 08:57:42.552059  3638 net.cpp:455] inception_3a/output_inception_3a/output_0_split -> inception_3a/output_inception_3a/output_0_split_0
I0715 08:57:42.552067  3638 net.cpp:455] inception_3a/output_inception_3a/output_0_split -> inception_3a/output_inception_3a/output_0_split_1
I0715 08:57:42.552073  3638 net.cpp:455] inception_3a/output_inception_3a/output_0_split -> inception_3a/output_inception_3a/output_0_split_2
I0715 08:57:42.552080  3638 net.cpp:455] inception_3a/output_inception_3a/output_0_split -> inception_3a/output_inception_3a/output_0_split_3
I0715 08:57:42.552126  3638 net.cpp:190] Setting up inception_3a/output_inception_3a/output_0_split
I0715 08:57:42.552132  3638 net.cpp:197] Top shape: 1 256 64 128 (2097152)
I0715 08:57:42.552136  3638 net.cpp:197] Top shape: 1 256 64 128 (2097152)
I0715 08:57:42.552140  3638 net.cpp:197] Top shape: 1 256 64 128 (2097152)
I0715 08:57:42.552145  3638 net.cpp:197] Top shape: 1 256 64 128 (2097152)
I0715 08:57:42.552146  3638 net.cpp:205] Memory required for data: 415760384
I0715 08:57:42.552150  3638 layer_factory.hpp:123] Creating layer inception_3b/1x1
I0715 08:57:42.552157  3638 net.cpp:140] Creating Layer inception_3b/1x1
I0715 08:57:42.552160  3638 net.cpp:481] inception_3b/1x1 <- inception_3a/output_inception_3a/output_0_split_0
I0715 08:57:42.552166  3638 net.cpp:455] inception_3b/1x1 -> inception_3b/1x1_raw
I0715 08:57:42.552665  3638 net.cpp:190] Setting up inception_3b/1x1
I0715 08:57:42.552673  3638 net.cpp:197] Top shape: 1 128 64 128 (1048576)
I0715 08:57:42.552676  3638 net.cpp:205] Memory required for data: 419954688
I0715 08:57:42.552686  3638 layer_factory.hpp:123] Creating layer inception_3b/1x1_BatchNorm
I0715 08:57:42.552692  3638 net.cpp:140] Creating Layer inception_3b/1x1_BatchNorm
I0715 08:57:42.552696  3638 net.cpp:481] inception_3b/1x1_BatchNorm <- inception_3b/1x1_raw
I0715 08:57:42.552702  3638 net.cpp:455] inception_3b/1x1_BatchNorm -> inception_3b/1x1
I0715 08:57:42.553246  3638 net.cpp:190] Setting up inception_3b/1x1_BatchNorm
I0715 08:57:42.553252  3638 net.cpp:197] Top shape: 1 128 64 128 (1048576)
I0715 08:57:42.553256  3638 net.cpp:205] Memory required for data: 424148992
I0715 08:57:42.553264  3638 layer_factory.hpp:123] Creating layer inception_3b/relu_1x1
I0715 08:57:42.553269  3638 net.cpp:140] Creating Layer inception_3b/relu_1x1
I0715 08:57:42.553272  3638 net.cpp:481] inception_3b/relu_1x1 <- inception_3b/1x1
I0715 08:57:42.553277  3638 net.cpp:442] inception_3b/relu_1x1 -> inception_3b/1x1 (in-place)
I0715 08:57:42.553283  3638 net.cpp:190] Setting up inception_3b/relu_1x1
I0715 08:57:42.553287  3638 net.cpp:197] Top shape: 1 128 64 128 (1048576)
I0715 08:57:42.553289  3638 net.cpp:205] Memory required for data: 428343296
I0715 08:57:42.553293  3638 layer_factory.hpp:123] Creating layer inception_3b/3x3_reduce
I0715 08:57:42.553300  3638 net.cpp:140] Creating Layer inception_3b/3x3_reduce
I0715 08:57:42.553303  3638 net.cpp:481] inception_3b/3x3_reduce <- inception_3a/output_inception_3a/output_0_split_1
I0715 08:57:42.553309  3638 net.cpp:455] inception_3b/3x3_reduce -> inception_3b/3x3_reduce_raw
I0715 08:57:42.553812  3638 net.cpp:190] Setting up inception_3b/3x3_reduce
I0715 08:57:42.553820  3638 net.cpp:197] Top shape: 1 128 64 128 (1048576)
I0715 08:57:42.553823  3638 net.cpp:205] Memory required for data: 432537600
I0715 08:57:42.553828  3638 layer_factory.hpp:123] Creating layer inception_3b/3x3_reduce_BatchNorm
I0715 08:57:42.553835  3638 net.cpp:140] Creating Layer inception_3b/3x3_reduce_BatchNorm
I0715 08:57:42.553838  3638 net.cpp:481] inception_3b/3x3_reduce_BatchNorm <- inception_3b/3x3_reduce_raw
I0715 08:57:42.553844  3638 net.cpp:455] inception_3b/3x3_reduce_BatchNorm -> inception_3b/3x3_reduce
I0715 08:57:42.554385  3638 net.cpp:190] Setting up inception_3b/3x3_reduce_BatchNorm
I0715 08:57:42.554392  3638 net.cpp:197] Top shape: 1 128 64 128 (1048576)
I0715 08:57:42.554395  3638 net.cpp:205] Memory required for data: 436731904
I0715 08:57:42.554404  3638 layer_factory.hpp:123] Creating layer inception_3b/relu_3x3_reduce
I0715 08:57:42.554409  3638 net.cpp:140] Creating Layer inception_3b/relu_3x3_reduce
I0715 08:57:42.554412  3638 net.cpp:481] inception_3b/relu_3x3_reduce <- inception_3b/3x3_reduce
I0715 08:57:42.554417  3638 net.cpp:442] inception_3b/relu_3x3_reduce -> inception_3b/3x3_reduce (in-place)
I0715 08:57:42.554424  3638 net.cpp:190] Setting up inception_3b/relu_3x3_reduce
I0715 08:57:42.554427  3638 net.cpp:197] Top shape: 1 128 64 128 (1048576)
I0715 08:57:42.554430  3638 net.cpp:205] Memory required for data: 440926208
I0715 08:57:42.554433  3638 layer_factory.hpp:123] Creating layer inception_3b/3x3
I0715 08:57:42.554440  3638 net.cpp:140] Creating Layer inception_3b/3x3
I0715 08:57:42.554443  3638 net.cpp:481] inception_3b/3x3 <- inception_3b/3x3_reduce
I0715 08:57:42.554450  3638 net.cpp:455] inception_3b/3x3 -> inception_3b/3x3_raw
I0715 08:57:42.557354  3638 net.cpp:190] Setting up inception_3b/3x3
I0715 08:57:42.557368  3638 net.cpp:197] Top shape: 1 192 64 128 (1572864)
I0715 08:57:42.557370  3638 net.cpp:205] Memory required for data: 447217664
I0715 08:57:42.557376  3638 layer_factory.hpp:123] Creating layer inception_3b/3x3_BatchNorm
I0715 08:57:42.557384  3638 net.cpp:140] Creating Layer inception_3b/3x3_BatchNorm
I0715 08:57:42.557387  3638 net.cpp:481] inception_3b/3x3_BatchNorm <- inception_3b/3x3_raw
I0715 08:57:42.557394  3638 net.cpp:455] inception_3b/3x3_BatchNorm -> inception_3b/3x3
I0715 08:57:42.558023  3638 net.cpp:190] Setting up inception_3b/3x3_BatchNorm
I0715 08:57:42.558032  3638 net.cpp:197] Top shape: 1 192 64 128 (1572864)
I0715 08:57:42.558033  3638 net.cpp:205] Memory required for data: 453509120
I0715 08:57:42.558043  3638 layer_factory.hpp:123] Creating layer inception_3b/relu_3x3
I0715 08:57:42.558048  3638 net.cpp:140] Creating Layer inception_3b/relu_3x3
I0715 08:57:42.558051  3638 net.cpp:481] inception_3b/relu_3x3 <- inception_3b/3x3
I0715 08:57:42.558055  3638 net.cpp:442] inception_3b/relu_3x3 -> inception_3b/3x3 (in-place)
I0715 08:57:42.558061  3638 net.cpp:190] Setting up inception_3b/relu_3x3
I0715 08:57:42.558066  3638 net.cpp:197] Top shape: 1 192 64 128 (1572864)
I0715 08:57:42.558069  3638 net.cpp:205] Memory required for data: 459800576
I0715 08:57:42.558073  3638 layer_factory.hpp:123] Creating layer inception_3b/5x5_reduce
I0715 08:57:42.558079  3638 net.cpp:140] Creating Layer inception_3b/5x5_reduce
I0715 08:57:42.558084  3638 net.cpp:481] inception_3b/5x5_reduce <- inception_3a/output_inception_3a/output_0_split_2
I0715 08:57:42.558089  3638 net.cpp:455] inception_3b/5x5_reduce -> inception_3b/5x5_reduce_raw
I0715 08:57:42.558389  3638 net.cpp:190] Setting up inception_3b/5x5_reduce
I0715 08:57:42.558398  3638 net.cpp:197] Top shape: 1 32 64 128 (262144)
I0715 08:57:42.558400  3638 net.cpp:205] Memory required for data: 460849152
I0715 08:57:42.558405  3638 layer_factory.hpp:123] Creating layer inception_3b/5x5_reduce_BatchNorm
I0715 08:57:42.558413  3638 net.cpp:140] Creating Layer inception_3b/5x5_reduce_BatchNorm
I0715 08:57:42.558415  3638 net.cpp:481] inception_3b/5x5_reduce_BatchNorm <- inception_3b/5x5_reduce_raw
I0715 08:57:42.558421  3638 net.cpp:455] inception_3b/5x5_reduce_BatchNorm -> inception_3b/5x5_reduce
I0715 08:57:42.559056  3638 net.cpp:190] Setting up inception_3b/5x5_reduce_BatchNorm
I0715 08:57:42.559063  3638 net.cpp:197] Top shape: 1 32 64 128 (262144)
I0715 08:57:42.559067  3638 net.cpp:205] Memory required for data: 461897728
I0715 08:57:42.559074  3638 layer_factory.hpp:123] Creating layer inception_3b/relu_5x5_reduce
I0715 08:57:42.559079  3638 net.cpp:140] Creating Layer inception_3b/relu_5x5_reduce
I0715 08:57:42.559082  3638 net.cpp:481] inception_3b/relu_5x5_reduce <- inception_3b/5x5_reduce
I0715 08:57:42.559087  3638 net.cpp:442] inception_3b/relu_5x5_reduce -> inception_3b/5x5_reduce (in-place)
I0715 08:57:42.559093  3638 net.cpp:190] Setting up inception_3b/relu_5x5_reduce
I0715 08:57:42.559098  3638 net.cpp:197] Top shape: 1 32 64 128 (262144)
I0715 08:57:42.559100  3638 net.cpp:205] Memory required for data: 462946304
I0715 08:57:42.559103  3638 layer_factory.hpp:123] Creating layer inception_3b/5x5
I0715 08:57:42.559110  3638 net.cpp:140] Creating Layer inception_3b/5x5
I0715 08:57:42.559113  3638 net.cpp:481] inception_3b/5x5 <- inception_3b/5x5_reduce
I0715 08:57:42.559118  3638 net.cpp:455] inception_3b/5x5 -> inception_3b/5x5_raw
I0715 08:57:42.560029  3638 net.cpp:190] Setting up inception_3b/5x5
I0715 08:57:42.560037  3638 net.cpp:197] Top shape: 1 96 64 128 (786432)
I0715 08:57:42.560040  3638 net.cpp:205] Memory required for data: 466092032
I0715 08:57:42.560046  3638 layer_factory.hpp:123] Creating layer inception_3b/5x5_BatchNorm
I0715 08:57:42.560053  3638 net.cpp:140] Creating Layer inception_3b/5x5_BatchNorm
I0715 08:57:42.560057  3638 net.cpp:481] inception_3b/5x5_BatchNorm <- inception_3b/5x5_raw
I0715 08:57:42.560062  3638 net.cpp:455] inception_3b/5x5_BatchNorm -> inception_3b/5x5
I0715 08:57:42.560695  3638 net.cpp:190] Setting up inception_3b/5x5_BatchNorm
I0715 08:57:42.560703  3638 net.cpp:197] Top shape: 1 96 64 128 (786432)
I0715 08:57:42.560706  3638 net.cpp:205] Memory required for data: 469237760
I0715 08:57:42.560714  3638 layer_factory.hpp:123] Creating layer inception_3b/relu_5x5
I0715 08:57:42.560719  3638 net.cpp:140] Creating Layer inception_3b/relu_5x5
I0715 08:57:42.560722  3638 net.cpp:481] inception_3b/relu_5x5 <- inception_3b/5x5
I0715 08:57:42.560727  3638 net.cpp:442] inception_3b/relu_5x5 -> inception_3b/5x5 (in-place)
I0715 08:57:42.560734  3638 net.cpp:190] Setting up inception_3b/relu_5x5
I0715 08:57:42.560736  3638 net.cpp:197] Top shape: 1 96 64 128 (786432)
I0715 08:57:42.560739  3638 net.cpp:205] Memory required for data: 472383488
I0715 08:57:42.560742  3638 layer_factory.hpp:123] Creating layer inception_3b/pool
I0715 08:57:42.560748  3638 net.cpp:140] Creating Layer inception_3b/pool
I0715 08:57:42.560751  3638 net.cpp:481] inception_3b/pool <- inception_3a/output_inception_3a/output_0_split_3
I0715 08:57:42.560756  3638 net.cpp:455] inception_3b/pool -> inception_3b/pool
I0715 08:57:42.560787  3638 net.cpp:190] Setting up inception_3b/pool
I0715 08:57:42.560791  3638 net.cpp:197] Top shape: 1 256 64 128 (2097152)
I0715 08:57:42.560794  3638 net.cpp:205] Memory required for data: 480772096
I0715 08:57:42.560797  3638 layer_factory.hpp:123] Creating layer inception_3b/pool_proj
I0715 08:57:42.560804  3638 net.cpp:140] Creating Layer inception_3b/pool_proj
I0715 08:57:42.560807  3638 net.cpp:481] inception_3b/pool_proj <- inception_3b/pool
I0715 08:57:42.560812  3638 net.cpp:455] inception_3b/pool_proj -> inception_3b/pool_proj_raw
I0715 08:57:42.561182  3638 net.cpp:190] Setting up inception_3b/pool_proj
I0715 08:57:42.561190  3638 net.cpp:197] Top shape: 1 64 64 128 (524288)
I0715 08:57:42.561193  3638 net.cpp:205] Memory required for data: 482869248
I0715 08:57:42.561198  3638 layer_factory.hpp:123] Creating layer inception_3b/pool_proj_BatchNorm
I0715 08:57:42.561205  3638 net.cpp:140] Creating Layer inception_3b/pool_proj_BatchNorm
I0715 08:57:42.561208  3638 net.cpp:481] inception_3b/pool_proj_BatchNorm <- inception_3b/pool_proj_raw
I0715 08:57:42.561214  3638 net.cpp:455] inception_3b/pool_proj_BatchNorm -> inception_3b/pool_proj
I0715 08:57:42.561826  3638 net.cpp:190] Setting up inception_3b/pool_proj_BatchNorm
I0715 08:57:42.561833  3638 net.cpp:197] Top shape: 1 64 64 128 (524288)
I0715 08:57:42.561836  3638 net.cpp:205] Memory required for data: 484966400
I0715 08:57:42.561844  3638 layer_factory.hpp:123] Creating layer inception_3b/relu_pool_proj
I0715 08:57:42.561851  3638 net.cpp:140] Creating Layer inception_3b/relu_pool_proj
I0715 08:57:42.561853  3638 net.cpp:481] inception_3b/relu_pool_proj <- inception_3b/pool_proj
I0715 08:57:42.561858  3638 net.cpp:442] inception_3b/relu_pool_proj -> inception_3b/pool_proj (in-place)
I0715 08:57:42.561864  3638 net.cpp:190] Setting up inception_3b/relu_pool_proj
I0715 08:57:42.561868  3638 net.cpp:197] Top shape: 1 64 64 128 (524288)
I0715 08:57:42.561870  3638 net.cpp:205] Memory required for data: 487063552
I0715 08:57:42.561874  3638 layer_factory.hpp:123] Creating layer inception_3b/output
I0715 08:57:42.561879  3638 net.cpp:140] Creating Layer inception_3b/output
I0715 08:57:42.561882  3638 net.cpp:481] inception_3b/output <- inception_3b/1x1
I0715 08:57:42.561885  3638 net.cpp:481] inception_3b/output <- inception_3b/3x3
I0715 08:57:42.561889  3638 net.cpp:481] inception_3b/output <- inception_3b/5x5
I0715 08:57:42.561893  3638 net.cpp:481] inception_3b/output <- inception_3b/pool_proj
I0715 08:57:42.561897  3638 net.cpp:455] inception_3b/output -> inception_3b/output
I0715 08:57:42.561918  3638 net.cpp:190] Setting up inception_3b/output
I0715 08:57:42.561923  3638 net.cpp:197] Top shape: 1 480 64 128 (3932160)
I0715 08:57:42.561925  3638 net.cpp:205] Memory required for data: 502792192
I0715 08:57:42.561928  3638 layer_factory.hpp:123] Creating layer inception_3b/output_inception_3b/output_0_split
I0715 08:57:42.561933  3638 net.cpp:140] Creating Layer inception_3b/output_inception_3b/output_0_split
I0715 08:57:42.561938  3638 net.cpp:481] inception_3b/output_inception_3b/output_0_split <- inception_3b/output
I0715 08:57:42.561941  3638 net.cpp:455] inception_3b/output_inception_3b/output_0_split -> inception_3b/output_inception_3b/output_0_split_0
I0715 08:57:42.561947  3638 net.cpp:455] inception_3b/output_inception_3b/output_0_split -> inception_3b/output_inception_3b/output_0_split_1
I0715 08:57:42.561975  3638 net.cpp:190] Setting up inception_3b/output_inception_3b/output_0_split
I0715 08:57:42.561985  3638 net.cpp:197] Top shape: 1 480 64 128 (3932160)
I0715 08:57:42.561990  3638 net.cpp:197] Top shape: 1 480 64 128 (3932160)
I0715 08:57:42.561991  3638 net.cpp:205] Memory required for data: 534249472
I0715 08:57:42.561995  3638 layer_factory.hpp:123] Creating layer pool3/3x3_s2
I0715 08:57:42.562000  3638 net.cpp:140] Creating Layer pool3/3x3_s2
I0715 08:57:42.562003  3638 net.cpp:481] pool3/3x3_s2 <- inception_3b/output_inception_3b/output_0_split_0
I0715 08:57:42.562008  3638 net.cpp:455] pool3/3x3_s2 -> pool3/3x3_s2
I0715 08:57:42.562036  3638 net.cpp:190] Setting up pool3/3x3_s2
I0715 08:57:42.562042  3638 net.cpp:197] Top shape: 1 480 32 64 (983040)
I0715 08:57:42.562045  3638 net.cpp:205] Memory required for data: 538181632
I0715 08:57:42.562047  3638 layer_factory.hpp:123] Creating layer pool3/3x3_s2_pool3/3x3_s2_0_split
I0715 08:57:42.562053  3638 net.cpp:140] Creating Layer pool3/3x3_s2_pool3/3x3_s2_0_split
I0715 08:57:42.562057  3638 net.cpp:481] pool3/3x3_s2_pool3/3x3_s2_0_split <- pool3/3x3_s2
I0715 08:57:42.562062  3638 net.cpp:455] pool3/3x3_s2_pool3/3x3_s2_0_split -> pool3/3x3_s2_pool3/3x3_s2_0_split_0
I0715 08:57:42.562067  3638 net.cpp:455] pool3/3x3_s2_pool3/3x3_s2_0_split -> pool3/3x3_s2_pool3/3x3_s2_0_split_1
I0715 08:57:42.562073  3638 net.cpp:455] pool3/3x3_s2_pool3/3x3_s2_0_split -> pool3/3x3_s2_pool3/3x3_s2_0_split_2
I0715 08:57:42.562078  3638 net.cpp:455] pool3/3x3_s2_pool3/3x3_s2_0_split -> pool3/3x3_s2_pool3/3x3_s2_0_split_3
I0715 08:57:42.562125  3638 net.cpp:190] Setting up pool3/3x3_s2_pool3/3x3_s2_0_split
I0715 08:57:42.562131  3638 net.cpp:197] Top shape: 1 480 32 64 (983040)
I0715 08:57:42.562135  3638 net.cpp:197] Top shape: 1 480 32 64 (983040)
I0715 08:57:42.562139  3638 net.cpp:197] Top shape: 1 480 32 64 (983040)
I0715 08:57:42.562142  3638 net.cpp:197] Top shape: 1 480 32 64 (983040)
I0715 08:57:42.562145  3638 net.cpp:205] Memory required for data: 553910272
I0715 08:57:42.562147  3638 layer_factory.hpp:123] Creating layer inception_4a/1x1
I0715 08:57:42.562155  3638 net.cpp:140] Creating Layer inception_4a/1x1
I0715 08:57:42.562158  3638 net.cpp:481] inception_4a/1x1 <- pool3/3x3_s2_pool3/3x3_s2_0_split_0
I0715 08:57:42.562163  3638 net.cpp:455] inception_4a/1x1 -> inception_4a/1x1_raw
I0715 08:57:42.563969  3638 net.cpp:190] Setting up inception_4a/1x1
I0715 08:57:42.563982  3638 net.cpp:197] Top shape: 1 192 32 64 (393216)
I0715 08:57:42.563985  3638 net.cpp:205] Memory required for data: 555483136
I0715 08:57:42.563992  3638 layer_factory.hpp:123] Creating layer inception_4a/1x1_BatchNorm
I0715 08:57:42.563998  3638 net.cpp:140] Creating Layer inception_4a/1x1_BatchNorm
I0715 08:57:42.564002  3638 net.cpp:481] inception_4a/1x1_BatchNorm <- inception_4a/1x1_raw
I0715 08:57:42.564008  3638 net.cpp:455] inception_4a/1x1_BatchNorm -> inception_4a/1x1
I0715 08:57:42.564636  3638 net.cpp:190] Setting up inception_4a/1x1_BatchNorm
I0715 08:57:42.564644  3638 net.cpp:197] Top shape: 1 192 32 64 (393216)
I0715 08:57:42.564648  3638 net.cpp:205] Memory required for data: 557056000
I0715 08:57:42.564656  3638 layer_factory.hpp:123] Creating layer inception_4a/relu_1x1
I0715 08:57:42.564662  3638 net.cpp:140] Creating Layer inception_4a/relu_1x1
I0715 08:57:42.564666  3638 net.cpp:481] inception_4a/relu_1x1 <- inception_4a/1x1
I0715 08:57:42.564671  3638 net.cpp:442] inception_4a/relu_1x1 -> inception_4a/1x1 (in-place)
I0715 08:57:42.564677  3638 net.cpp:190] Setting up inception_4a/relu_1x1
I0715 08:57:42.564680  3638 net.cpp:197] Top shape: 1 192 32 64 (393216)
I0715 08:57:42.564683  3638 net.cpp:205] Memory required for data: 558628864
I0715 08:57:42.564687  3638 layer_factory.hpp:123] Creating layer inception_4a/3x3_reduce
I0715 08:57:42.564694  3638 net.cpp:140] Creating Layer inception_4a/3x3_reduce
I0715 08:57:42.564697  3638 net.cpp:481] inception_4a/3x3_reduce <- pool3/3x3_s2_pool3/3x3_s2_0_split_1
I0715 08:57:42.564703  3638 net.cpp:455] inception_4a/3x3_reduce -> inception_4a/3x3_reduce_raw
I0715 08:57:42.565344  3638 net.cpp:190] Setting up inception_4a/3x3_reduce
I0715 08:57:42.565351  3638 net.cpp:197] Top shape: 1 96 32 64 (196608)
I0715 08:57:42.565354  3638 net.cpp:205] Memory required for data: 559415296
I0715 08:57:42.565361  3638 layer_factory.hpp:123] Creating layer inception_4a/3x3_reduce_BatchNorm
I0715 08:57:42.565367  3638 net.cpp:140] Creating Layer inception_4a/3x3_reduce_BatchNorm
I0715 08:57:42.565371  3638 net.cpp:481] inception_4a/3x3_reduce_BatchNorm <- inception_4a/3x3_reduce_raw
I0715 08:57:42.565376  3638 net.cpp:455] inception_4a/3x3_reduce_BatchNorm -> inception_4a/3x3_reduce
I0715 08:57:42.566030  3638 net.cpp:190] Setting up inception_4a/3x3_reduce_BatchNorm
I0715 08:57:42.566040  3638 net.cpp:197] Top shape: 1 96 32 64 (196608)
I0715 08:57:42.566042  3638 net.cpp:205] Memory required for data: 560201728
I0715 08:57:42.566051  3638 layer_factory.hpp:123] Creating layer inception_4a/relu_3x3_reduce
I0715 08:57:42.566059  3638 net.cpp:140] Creating Layer inception_4a/relu_3x3_reduce
I0715 08:57:42.566063  3638 net.cpp:481] inception_4a/relu_3x3_reduce <- inception_4a/3x3_reduce
I0715 08:57:42.566067  3638 net.cpp:442] inception_4a/relu_3x3_reduce -> inception_4a/3x3_reduce (in-place)
I0715 08:57:42.566074  3638 net.cpp:190] Setting up inception_4a/relu_3x3_reduce
I0715 08:57:42.566078  3638 net.cpp:197] Top shape: 1 96 32 64 (196608)
I0715 08:57:42.566082  3638 net.cpp:205] Memory required for data: 560988160
I0715 08:57:42.566085  3638 layer_factory.hpp:123] Creating layer inception_4a/3x3
I0715 08:57:42.566092  3638 net.cpp:140] Creating Layer inception_4a/3x3
I0715 08:57:42.566095  3638 net.cpp:481] inception_4a/3x3 <- inception_4a/3x3_reduce
I0715 08:57:42.566100  3638 net.cpp:455] inception_4a/3x3 -> inception_4a/3x3_raw
I0715 08:57:42.567896  3638 net.cpp:190] Setting up inception_4a/3x3
I0715 08:57:42.567904  3638 net.cpp:197] Top shape: 1 208 32 64 (425984)
I0715 08:57:42.567907  3638 net.cpp:205] Memory required for data: 562692096
I0715 08:57:42.567914  3638 layer_factory.hpp:123] Creating layer inception_4a/3x3_BatchNorm
I0715 08:57:42.567920  3638 net.cpp:140] Creating Layer inception_4a/3x3_BatchNorm
I0715 08:57:42.567924  3638 net.cpp:481] inception_4a/3x3_BatchNorm <- inception_4a/3x3_raw
I0715 08:57:42.567929  3638 net.cpp:455] inception_4a/3x3_BatchNorm -> inception_4a/3x3
I0715 08:57:42.568555  3638 net.cpp:190] Setting up inception_4a/3x3_BatchNorm
I0715 08:57:42.568562  3638 net.cpp:197] Top shape: 1 208 32 64 (425984)
I0715 08:57:42.568565  3638 net.cpp:205] Memory required for data: 564396032
I0715 08:57:42.568573  3638 layer_factory.hpp:123] Creating layer inception_4a/relu_3x3
I0715 08:57:42.568579  3638 net.cpp:140] Creating Layer inception_4a/relu_3x3
I0715 08:57:42.568583  3638 net.cpp:481] inception_4a/relu_3x3 <- inception_4a/3x3
I0715 08:57:42.568588  3638 net.cpp:442] inception_4a/relu_3x3 -> inception_4a/3x3 (in-place)
I0715 08:57:42.568593  3638 net.cpp:190] Setting up inception_4a/relu_3x3
I0715 08:57:42.568598  3638 net.cpp:197] Top shape: 1 208 32 64 (425984)
I0715 08:57:42.568600  3638 net.cpp:205] Memory required for data: 566099968
I0715 08:57:42.568603  3638 layer_factory.hpp:123] Creating layer inception_4a/5x5_reduce
I0715 08:57:42.568610  3638 net.cpp:140] Creating Layer inception_4a/5x5_reduce
I0715 08:57:42.568614  3638 net.cpp:481] inception_4a/5x5_reduce <- pool3/3x3_s2_pool3/3x3_s2_0_split_2
I0715 08:57:42.568619  3638 net.cpp:455] inception_4a/5x5_reduce -> inception_4a/5x5_reduce_raw
I0715 08:57:42.568917  3638 net.cpp:190] Setting up inception_4a/5x5_reduce
I0715 08:57:42.568924  3638 net.cpp:197] Top shape: 1 16 32 64 (32768)
I0715 08:57:42.568928  3638 net.cpp:205] Memory required for data: 566231040
I0715 08:57:42.568933  3638 layer_factory.hpp:123] Creating layer inception_4a/5x5_reduce_BatchNorm
I0715 08:57:42.568939  3638 net.cpp:140] Creating Layer inception_4a/5x5_reduce_BatchNorm
I0715 08:57:42.568943  3638 net.cpp:481] inception_4a/5x5_reduce_BatchNorm <- inception_4a/5x5_reduce_raw
I0715 08:57:42.568949  3638 net.cpp:455] inception_4a/5x5_reduce_BatchNorm -> inception_4a/5x5_reduce
I0715 08:57:42.569578  3638 net.cpp:190] Setting up inception_4a/5x5_reduce_BatchNorm
I0715 08:57:42.569586  3638 net.cpp:197] Top shape: 1 16 32 64 (32768)
I0715 08:57:42.569588  3638 net.cpp:205] Memory required for data: 566362112
I0715 08:57:42.569603  3638 layer_factory.hpp:123] Creating layer inception_4a/relu_5x5_reduce
I0715 08:57:42.569608  3638 net.cpp:140] Creating Layer inception_4a/relu_5x5_reduce
I0715 08:57:42.569612  3638 net.cpp:481] inception_4a/relu_5x5_reduce <- inception_4a/5x5_reduce
I0715 08:57:42.569617  3638 net.cpp:442] inception_4a/relu_5x5_reduce -> inception_4a/5x5_reduce (in-place)
I0715 08:57:42.569624  3638 net.cpp:190] Setting up inception_4a/relu_5x5_reduce
I0715 08:57:42.569628  3638 net.cpp:197] Top shape: 1 16 32 64 (32768)
I0715 08:57:42.569630  3638 net.cpp:205] Memory required for data: 566493184
I0715 08:57:42.569633  3638 layer_factory.hpp:123] Creating layer inception_4a/5x5
I0715 08:57:42.569641  3638 net.cpp:140] Creating Layer inception_4a/5x5
I0715 08:57:42.569643  3638 net.cpp:481] inception_4a/5x5 <- inception_4a/5x5_reduce
I0715 08:57:42.569648  3638 net.cpp:455] inception_4a/5x5 -> inception_4a/5x5_raw
I0715 08:57:42.570049  3638 net.cpp:190] Setting up inception_4a/5x5
I0715 08:57:42.570057  3638 net.cpp:197] Top shape: 1 48 32 64 (98304)
I0715 08:57:42.570060  3638 net.cpp:205] Memory required for data: 566886400
I0715 08:57:42.570065  3638 layer_factory.hpp:123] Creating layer inception_4a/5x5_BatchNorm
I0715 08:57:42.570071  3638 net.cpp:140] Creating Layer inception_4a/5x5_BatchNorm
I0715 08:57:42.570075  3638 net.cpp:481] inception_4a/5x5_BatchNorm <- inception_4a/5x5_raw
I0715 08:57:42.570080  3638 net.cpp:455] inception_4a/5x5_BatchNorm -> inception_4a/5x5
I0715 08:57:42.570715  3638 net.cpp:190] Setting up inception_4a/5x5_BatchNorm
I0715 08:57:42.570724  3638 net.cpp:197] Top shape: 1 48 32 64 (98304)
I0715 08:57:42.570726  3638 net.cpp:205] Memory required for data: 567279616
I0715 08:57:42.570734  3638 layer_factory.hpp:123] Creating layer inception_4a/relu_5x5
I0715 08:57:42.570739  3638 net.cpp:140] Creating Layer inception_4a/relu_5x5
I0715 08:57:42.570744  3638 net.cpp:481] inception_4a/relu_5x5 <- inception_4a/5x5
I0715 08:57:42.570747  3638 net.cpp:442] inception_4a/relu_5x5 -> inception_4a/5x5 (in-place)
I0715 08:57:42.570753  3638 net.cpp:190] Setting up inception_4a/relu_5x5
I0715 08:57:42.570757  3638 net.cpp:197] Top shape: 1 48 32 64 (98304)
I0715 08:57:42.570760  3638 net.cpp:205] Memory required for data: 567672832
I0715 08:57:42.570763  3638 layer_factory.hpp:123] Creating layer inception_4a/pool
I0715 08:57:42.570768  3638 net.cpp:140] Creating Layer inception_4a/pool
I0715 08:57:42.570772  3638 net.cpp:481] inception_4a/pool <- pool3/3x3_s2_pool3/3x3_s2_0_split_3
I0715 08:57:42.570776  3638 net.cpp:455] inception_4a/pool -> inception_4a/pool
I0715 08:57:42.570809  3638 net.cpp:190] Setting up inception_4a/pool
I0715 08:57:42.570813  3638 net.cpp:197] Top shape: 1 480 32 64 (983040)
I0715 08:57:42.570816  3638 net.cpp:205] Memory required for data: 571604992
I0715 08:57:42.570819  3638 layer_factory.hpp:123] Creating layer inception_4a/pool_proj
I0715 08:57:42.570827  3638 net.cpp:140] Creating Layer inception_4a/pool_proj
I0715 08:57:42.570830  3638 net.cpp:481] inception_4a/pool_proj <- inception_4a/pool
I0715 08:57:42.570835  3638 net.cpp:455] inception_4a/pool_proj -> inception_4a/pool_proj_raw
I0715 08:57:42.571336  3638 net.cpp:190] Setting up inception_4a/pool_proj
I0715 08:57:42.571343  3638 net.cpp:197] Top shape: 1 64 32 64 (131072)
I0715 08:57:42.571346  3638 net.cpp:205] Memory required for data: 572129280
I0715 08:57:42.571352  3638 layer_factory.hpp:123] Creating layer inception_4a/pool_proj_BatchNorm
I0715 08:57:42.571357  3638 net.cpp:140] Creating Layer inception_4a/pool_proj_BatchNorm
I0715 08:57:42.571362  3638 net.cpp:481] inception_4a/pool_proj_BatchNorm <- inception_4a/pool_proj_raw
I0715 08:57:42.571367  3638 net.cpp:455] inception_4a/pool_proj_BatchNorm -> inception_4a/pool_proj
I0715 08:57:42.572005  3638 net.cpp:190] Setting up inception_4a/pool_proj_BatchNorm
I0715 08:57:42.572013  3638 net.cpp:197] Top shape: 1 64 32 64 (131072)
I0715 08:57:42.572016  3638 net.cpp:205] Memory required for data: 572653568
I0715 08:57:42.572026  3638 layer_factory.hpp:123] Creating layer inception_4a/relu_pool_proj
I0715 08:57:42.572031  3638 net.cpp:140] Creating Layer inception_4a/relu_pool_proj
I0715 08:57:42.572034  3638 net.cpp:481] inception_4a/relu_pool_proj <- inception_4a/pool_proj
I0715 08:57:42.572039  3638 net.cpp:442] inception_4a/relu_pool_proj -> inception_4a/pool_proj (in-place)
I0715 08:57:42.572046  3638 net.cpp:190] Setting up inception_4a/relu_pool_proj
I0715 08:57:42.572049  3638 net.cpp:197] Top shape: 1 64 32 64 (131072)
I0715 08:57:42.572052  3638 net.cpp:205] Memory required for data: 573177856
I0715 08:57:42.572055  3638 layer_factory.hpp:123] Creating layer inception_4a/output
I0715 08:57:42.572060  3638 net.cpp:140] Creating Layer inception_4a/output
I0715 08:57:42.572063  3638 net.cpp:481] inception_4a/output <- inception_4a/1x1
I0715 08:57:42.572067  3638 net.cpp:481] inception_4a/output <- inception_4a/3x3
I0715 08:57:42.572072  3638 net.cpp:481] inception_4a/output <- inception_4a/5x5
I0715 08:57:42.572074  3638 net.cpp:481] inception_4a/output <- inception_4a/pool_proj
I0715 08:57:42.572079  3638 net.cpp:455] inception_4a/output -> inception_4a/output
I0715 08:57:42.572100  3638 net.cpp:190] Setting up inception_4a/output
I0715 08:57:42.572105  3638 net.cpp:197] Top shape: 1 512 32 64 (1048576)
I0715 08:57:42.572108  3638 net.cpp:205] Memory required for data: 577372160
I0715 08:57:42.572111  3638 layer_factory.hpp:123] Creating layer inception_4a/output_inception_4a/output_0_split
I0715 08:57:42.572116  3638 net.cpp:140] Creating Layer inception_4a/output_inception_4a/output_0_split
I0715 08:57:42.572120  3638 net.cpp:481] inception_4a/output_inception_4a/output_0_split <- inception_4a/output
I0715 08:57:42.572125  3638 net.cpp:455] inception_4a/output_inception_4a/output_0_split -> inception_4a/output_inception_4a/output_0_split_0
I0715 08:57:42.572131  3638 net.cpp:455] inception_4a/output_inception_4a/output_0_split -> inception_4a/output_inception_4a/output_0_split_1
I0715 08:57:42.572137  3638 net.cpp:455] inception_4a/output_inception_4a/output_0_split -> inception_4a/output_inception_4a/output_0_split_2
I0715 08:57:42.572144  3638 net.cpp:455] inception_4a/output_inception_4a/output_0_split -> inception_4a/output_inception_4a/output_0_split_3
I0715 08:57:42.572191  3638 net.cpp:190] Setting up inception_4a/output_inception_4a/output_0_split
I0715 08:57:42.572198  3638 net.cpp:197] Top shape: 1 512 32 64 (1048576)
I0715 08:57:42.572201  3638 net.cpp:197] Top shape: 1 512 32 64 (1048576)
I0715 08:57:42.572206  3638 net.cpp:197] Top shape: 1 512 32 64 (1048576)
I0715 08:57:42.572209  3638 net.cpp:197] Top shape: 1 512 32 64 (1048576)
I0715 08:57:42.572212  3638 net.cpp:205] Memory required for data: 594149376
I0715 08:57:42.572214  3638 layer_factory.hpp:123] Creating layer inception_4b/1x1
I0715 08:57:42.572222  3638 net.cpp:140] Creating Layer inception_4b/1x1
I0715 08:57:42.572226  3638 net.cpp:481] inception_4b/1x1 <- inception_4a/output_inception_4a/output_0_split_0
I0715 08:57:42.572230  3638 net.cpp:455] inception_4b/1x1 -> inception_4b/1x1_raw
I0715 08:57:42.573959  3638 net.cpp:190] Setting up inception_4b/1x1
I0715 08:57:42.573971  3638 net.cpp:197] Top shape: 1 160 32 64 (327680)
I0715 08:57:42.573974  3638 net.cpp:205] Memory required for data: 595460096
I0715 08:57:42.573981  3638 layer_factory.hpp:123] Creating layer inception_4b/1x1_BatchNorm
I0715 08:57:42.573987  3638 net.cpp:140] Creating Layer inception_4b/1x1_BatchNorm
I0715 08:57:42.573992  3638 net.cpp:481] inception_4b/1x1_BatchNorm <- inception_4b/1x1_raw
I0715 08:57:42.573997  3638 net.cpp:455] inception_4b/1x1_BatchNorm -> inception_4b/1x1
I0715 08:57:42.574635  3638 net.cpp:190] Setting up inception_4b/1x1_BatchNorm
I0715 08:57:42.574642  3638 net.cpp:197] Top shape: 1 160 32 64 (327680)
I0715 08:57:42.574646  3638 net.cpp:205] Memory required for data: 596770816
I0715 08:57:42.574654  3638 layer_factory.hpp:123] Creating layer inception_4b/relu_1x1
I0715 08:57:42.574659  3638 net.cpp:140] Creating Layer inception_4b/relu_1x1
I0715 08:57:42.574662  3638 net.cpp:481] inception_4b/relu_1x1 <- inception_4b/1x1
I0715 08:57:42.574667  3638 net.cpp:442] inception_4b/relu_1x1 -> inception_4b/1x1 (in-place)
I0715 08:57:42.574674  3638 net.cpp:190] Setting up inception_4b/relu_1x1
I0715 08:57:42.574679  3638 net.cpp:197] Top shape: 1 160 32 64 (327680)
I0715 08:57:42.574681  3638 net.cpp:205] Memory required for data: 598081536
I0715 08:57:42.574684  3638 layer_factory.hpp:123] Creating layer inception_4b/3x3_reduce
I0715 08:57:42.574692  3638 net.cpp:140] Creating Layer inception_4b/3x3_reduce
I0715 08:57:42.574695  3638 net.cpp:481] inception_4b/3x3_reduce <- inception_4a/output_inception_4a/output_0_split_1
I0715 08:57:42.574700  3638 net.cpp:455] inception_4b/3x3_reduce -> inception_4b/3x3_reduce_raw
I0715 08:57:42.576205  3638 net.cpp:190] Setting up inception_4b/3x3_reduce
I0715 08:57:42.576215  3638 net.cpp:197] Top shape: 1 112 32 64 (229376)
I0715 08:57:42.576220  3638 net.cpp:205] Memory required for data: 598999040
I0715 08:57:42.576225  3638 layer_factory.hpp:123] Creating layer inception_4b/3x3_reduce_BatchNorm
I0715 08:57:42.576233  3638 net.cpp:140] Creating Layer inception_4b/3x3_reduce_BatchNorm
I0715 08:57:42.576236  3638 net.cpp:481] inception_4b/3x3_reduce_BatchNorm <- inception_4b/3x3_reduce_raw
I0715 08:57:42.576243  3638 net.cpp:455] inception_4b/3x3_reduce_BatchNorm -> inception_4b/3x3_reduce
I0715 08:57:42.576900  3638 net.cpp:190] Setting up inception_4b/3x3_reduce_BatchNorm
I0715 08:57:42.576907  3638 net.cpp:197] Top shape: 1 112 32 64 (229376)
I0715 08:57:42.576910  3638 net.cpp:205] Memory required for data: 599916544
I0715 08:57:42.576918  3638 layer_factory.hpp:123] Creating layer inception_4b/relu_3x3_reduce
I0715 08:57:42.576923  3638 net.cpp:140] Creating Layer inception_4b/relu_3x3_reduce
I0715 08:57:42.576927  3638 net.cpp:481] inception_4b/relu_3x3_reduce <- inception_4b/3x3_reduce
I0715 08:57:42.576932  3638 net.cpp:442] inception_4b/relu_3x3_reduce -> inception_4b/3x3_reduce (in-place)
I0715 08:57:42.576938  3638 net.cpp:190] Setting up inception_4b/relu_3x3_reduce
I0715 08:57:42.576943  3638 net.cpp:197] Top shape: 1 112 32 64 (229376)
I0715 08:57:42.576946  3638 net.cpp:205] Memory required for data: 600834048
I0715 08:57:42.576949  3638 layer_factory.hpp:123] Creating layer inception_4b/3x3
I0715 08:57:42.576956  3638 net.cpp:140] Creating Layer inception_4b/3x3
I0715 08:57:42.576959  3638 net.cpp:481] inception_4b/3x3 <- inception_4b/3x3_reduce
I0715 08:57:42.576966  3638 net.cpp:455] inception_4b/3x3 -> inception_4b/3x3_raw
I0715 08:57:42.579918  3638 net.cpp:190] Setting up inception_4b/3x3
I0715 08:57:42.579931  3638 net.cpp:197] Top shape: 1 224 32 64 (458752)
I0715 08:57:42.579933  3638 net.cpp:205] Memory required for data: 602669056
I0715 08:57:42.579939  3638 layer_factory.hpp:123] Creating layer inception_4b/3x3_BatchNorm
I0715 08:57:42.579947  3638 net.cpp:140] Creating Layer inception_4b/3x3_BatchNorm
I0715 08:57:42.579952  3638 net.cpp:481] inception_4b/3x3_BatchNorm <- inception_4b/3x3_raw
I0715 08:57:42.579957  3638 net.cpp:455] inception_4b/3x3_BatchNorm -> inception_4b/3x3
I0715 08:57:42.580602  3638 net.cpp:190] Setting up inception_4b/3x3_BatchNorm
I0715 08:57:42.580610  3638 net.cpp:197] Top shape: 1 224 32 64 (458752)
I0715 08:57:42.580613  3638 net.cpp:205] Memory required for data: 604504064
I0715 08:57:42.580621  3638 layer_factory.hpp:123] Creating layer inception_4b/relu_3x3
I0715 08:57:42.580627  3638 net.cpp:140] Creating Layer inception_4b/relu_3x3
I0715 08:57:42.580631  3638 net.cpp:481] inception_4b/relu_3x3 <- inception_4b/3x3
I0715 08:57:42.580636  3638 net.cpp:442] inception_4b/relu_3x3 -> inception_4b/3x3 (in-place)
I0715 08:57:42.580641  3638 net.cpp:190] Setting up inception_4b/relu_3x3
I0715 08:57:42.580646  3638 net.cpp:197] Top shape: 1 224 32 64 (458752)
I0715 08:57:42.580648  3638 net.cpp:205] Memory required for data: 606339072
I0715 08:57:42.580651  3638 layer_factory.hpp:123] Creating layer inception_4b/5x5_reduce
I0715 08:57:42.580658  3638 net.cpp:140] Creating Layer inception_4b/5x5_reduce
I0715 08:57:42.580662  3638 net.cpp:481] inception_4b/5x5_reduce <- inception_4a/output_inception_4a/output_0_split_2
I0715 08:57:42.580667  3638 net.cpp:455] inception_4b/5x5_reduce -> inception_4b/5x5_reduce_raw
I0715 08:57:42.581014  3638 net.cpp:190] Setting up inception_4b/5x5_reduce
I0715 08:57:42.581022  3638 net.cpp:197] Top shape: 1 24 32 64 (49152)
I0715 08:57:42.581027  3638 net.cpp:205] Memory required for data: 606535680
I0715 08:57:42.581032  3638 layer_factory.hpp:123] Creating layer inception_4b/5x5_reduce_BatchNorm
I0715 08:57:42.581037  3638 net.cpp:140] Creating Layer inception_4b/5x5_reduce_BatchNorm
I0715 08:57:42.581041  3638 net.cpp:481] inception_4b/5x5_reduce_BatchNorm <- inception_4b/5x5_reduce_raw
I0715 08:57:42.581048  3638 net.cpp:455] inception_4b/5x5_reduce_BatchNorm -> inception_4b/5x5_reduce
I0715 08:57:42.581687  3638 net.cpp:190] Setting up inception_4b/5x5_reduce_BatchNorm
I0715 08:57:42.581694  3638 net.cpp:197] Top shape: 1 24 32 64 (49152)
I0715 08:57:42.581697  3638 net.cpp:205] Memory required for data: 606732288
I0715 08:57:42.581706  3638 layer_factory.hpp:123] Creating layer inception_4b/relu_5x5_reduce
I0715 08:57:42.581712  3638 net.cpp:140] Creating Layer inception_4b/relu_5x5_reduce
I0715 08:57:42.581714  3638 net.cpp:481] inception_4b/relu_5x5_reduce <- inception_4b/5x5_reduce
I0715 08:57:42.581718  3638 net.cpp:442] inception_4b/relu_5x5_reduce -> inception_4b/5x5_reduce (in-place)
I0715 08:57:42.581725  3638 net.cpp:190] Setting up inception_4b/relu_5x5_reduce
I0715 08:57:42.581729  3638 net.cpp:197] Top shape: 1 24 32 64 (49152)
I0715 08:57:42.581732  3638 net.cpp:205] Memory required for data: 606928896
I0715 08:57:42.581734  3638 layer_factory.hpp:123] Creating layer inception_4b/5x5
I0715 08:57:42.581743  3638 net.cpp:140] Creating Layer inception_4b/5x5
I0715 08:57:42.581745  3638 net.cpp:481] inception_4b/5x5 <- inception_4b/5x5_reduce
I0715 08:57:42.581750  3638 net.cpp:455] inception_4b/5x5 -> inception_4b/5x5_raw
I0715 08:57:42.582317  3638 net.cpp:190] Setting up inception_4b/5x5
I0715 08:57:42.582325  3638 net.cpp:197] Top shape: 1 64 32 64 (131072)
I0715 08:57:42.582329  3638 net.cpp:205] Memory required for data: 607453184
I0715 08:57:42.582334  3638 layer_factory.hpp:123] Creating layer inception_4b/5x5_BatchNorm
I0715 08:57:42.582340  3638 net.cpp:140] Creating Layer inception_4b/5x5_BatchNorm
I0715 08:57:42.582345  3638 net.cpp:481] inception_4b/5x5_BatchNorm <- inception_4b/5x5_raw
I0715 08:57:42.582350  3638 net.cpp:455] inception_4b/5x5_BatchNorm -> inception_4b/5x5
I0715 08:57:42.582989  3638 net.cpp:190] Setting up inception_4b/5x5_BatchNorm
I0715 08:57:42.582996  3638 net.cpp:197] Top shape: 1 64 32 64 (131072)
I0715 08:57:42.582999  3638 net.cpp:205] Memory required for data: 607977472
I0715 08:57:42.583007  3638 layer_factory.hpp:123] Creating layer inception_4b/relu_5x5
I0715 08:57:42.583012  3638 net.cpp:140] Creating Layer inception_4b/relu_5x5
I0715 08:57:42.583015  3638 net.cpp:481] inception_4b/relu_5x5 <- inception_4b/5x5
I0715 08:57:42.583020  3638 net.cpp:442] inception_4b/relu_5x5 -> inception_4b/5x5 (in-place)
I0715 08:57:42.583026  3638 net.cpp:190] Setting up inception_4b/relu_5x5
I0715 08:57:42.583030  3638 net.cpp:197] Top shape: 1 64 32 64 (131072)
I0715 08:57:42.583034  3638 net.cpp:205] Memory required for data: 608501760
I0715 08:57:42.583036  3638 layer_factory.hpp:123] Creating layer inception_4b/pool
I0715 08:57:42.583041  3638 net.cpp:140] Creating Layer inception_4b/pool
I0715 08:57:42.583045  3638 net.cpp:481] inception_4b/pool <- inception_4a/output_inception_4a/output_0_split_3
I0715 08:57:42.583050  3638 net.cpp:455] inception_4b/pool -> inception_4b/pool
I0715 08:57:42.583083  3638 net.cpp:190] Setting up inception_4b/pool
I0715 08:57:42.583087  3638 net.cpp:197] Top shape: 1 512 32 64 (1048576)
I0715 08:57:42.583091  3638 net.cpp:205] Memory required for data: 612696064
I0715 08:57:42.583093  3638 layer_factory.hpp:123] Creating layer inception_4b/pool_proj
I0715 08:57:42.583101  3638 net.cpp:140] Creating Layer inception_4b/pool_proj
I0715 08:57:42.583104  3638 net.cpp:481] inception_4b/pool_proj <- inception_4b/pool
I0715 08:57:42.583109  3638 net.cpp:455] inception_4b/pool_proj -> inception_4b/pool_proj_raw
I0715 08:57:42.583628  3638 net.cpp:190] Setting up inception_4b/pool_proj
I0715 08:57:42.583636  3638 net.cpp:197] Top shape: 1 64 32 64 (131072)
I0715 08:57:42.583639  3638 net.cpp:205] Memory required for data: 613220352
I0715 08:57:42.583645  3638 layer_factory.hpp:123] Creating layer inception_4b/pool_proj_BatchNorm
I0715 08:57:42.583652  3638 net.cpp:140] Creating Layer inception_4b/pool_proj_BatchNorm
I0715 08:57:42.583655  3638 net.cpp:481] inception_4b/pool_proj_BatchNorm <- inception_4b/pool_proj_raw
I0715 08:57:42.583662  3638 net.cpp:455] inception_4b/pool_proj_BatchNorm -> inception_4b/pool_proj
I0715 08:57:42.584309  3638 net.cpp:190] Setting up inception_4b/pool_proj_BatchNorm
I0715 08:57:42.584317  3638 net.cpp:197] Top shape: 1 64 32 64 (131072)
I0715 08:57:42.584321  3638 net.cpp:205] Memory required for data: 613744640
I0715 08:57:42.584328  3638 layer_factory.hpp:123] Creating layer inception_4b/relu_pool_proj
I0715 08:57:42.584333  3638 net.cpp:140] Creating Layer inception_4b/relu_pool_proj
I0715 08:57:42.584337  3638 net.cpp:481] inception_4b/relu_pool_proj <- inception_4b/pool_proj
I0715 08:57:42.584342  3638 net.cpp:442] inception_4b/relu_pool_proj -> inception_4b/pool_proj (in-place)
I0715 08:57:42.584348  3638 net.cpp:190] Setting up inception_4b/relu_pool_proj
I0715 08:57:42.584352  3638 net.cpp:197] Top shape: 1 64 32 64 (131072)
I0715 08:57:42.584355  3638 net.cpp:205] Memory required for data: 614268928
I0715 08:57:42.584358  3638 layer_factory.hpp:123] Creating layer inception_4b/output
I0715 08:57:42.584362  3638 net.cpp:140] Creating Layer inception_4b/output
I0715 08:57:42.584367  3638 net.cpp:481] inception_4b/output <- inception_4b/1x1
I0715 08:57:42.584369  3638 net.cpp:481] inception_4b/output <- inception_4b/3x3
I0715 08:57:42.584373  3638 net.cpp:481] inception_4b/output <- inception_4b/5x5
I0715 08:57:42.584376  3638 net.cpp:481] inception_4b/output <- inception_4b/pool_proj
I0715 08:57:42.584381  3638 net.cpp:455] inception_4b/output -> inception_4b/output
I0715 08:57:42.584403  3638 net.cpp:190] Setting up inception_4b/output
I0715 08:57:42.584408  3638 net.cpp:197] Top shape: 1 512 32 64 (1048576)
I0715 08:57:42.584410  3638 net.cpp:205] Memory required for data: 618463232
I0715 08:57:42.584414  3638 layer_factory.hpp:123] Creating layer inception_4b/output_inception_4b/output_0_split
I0715 08:57:42.584419  3638 net.cpp:140] Creating Layer inception_4b/output_inception_4b/output_0_split
I0715 08:57:42.584422  3638 net.cpp:481] inception_4b/output_inception_4b/output_0_split <- inception_4b/output
I0715 08:57:42.584427  3638 net.cpp:455] inception_4b/output_inception_4b/output_0_split -> inception_4b/output_inception_4b/output_0_split_0
I0715 08:57:42.584434  3638 net.cpp:455] inception_4b/output_inception_4b/output_0_split -> inception_4b/output_inception_4b/output_0_split_1
I0715 08:57:42.584439  3638 net.cpp:455] inception_4b/output_inception_4b/output_0_split -> inception_4b/output_inception_4b/output_0_split_2
I0715 08:57:42.584446  3638 net.cpp:455] inception_4b/output_inception_4b/output_0_split -> inception_4b/output_inception_4b/output_0_split_3
I0715 08:57:42.584496  3638 net.cpp:190] Setting up inception_4b/output_inception_4b/output_0_split
I0715 08:57:42.584501  3638 net.cpp:197] Top shape: 1 512 32 64 (1048576)
I0715 08:57:42.584506  3638 net.cpp:197] Top shape: 1 512 32 64 (1048576)
I0715 08:57:42.584508  3638 net.cpp:197] Top shape: 1 512 32 64 (1048576)
I0715 08:57:42.584512  3638 net.cpp:197] Top shape: 1 512 32 64 (1048576)
I0715 08:57:42.584516  3638 net.cpp:205] Memory required for data: 635240448
I0715 08:57:42.584517  3638 layer_factory.hpp:123] Creating layer inception_4c/1x1
I0715 08:57:42.584527  3638 net.cpp:140] Creating Layer inception_4c/1x1
I0715 08:57:42.584529  3638 net.cpp:481] inception_4c/1x1 <- inception_4b/output_inception_4b/output_0_split_0
I0715 08:57:42.584534  3638 net.cpp:455] inception_4c/1x1 -> inception_4c/1x1_raw
I0715 08:57:42.585330  3638 net.cpp:190] Setting up inception_4c/1x1
I0715 08:57:42.585338  3638 net.cpp:197] Top shape: 1 128 32 64 (262144)
I0715 08:57:42.585341  3638 net.cpp:205] Memory required for data: 636289024
I0715 08:57:42.585346  3638 layer_factory.hpp:123] Creating layer inception_4c/1x1_BatchNorm
I0715 08:57:42.585352  3638 net.cpp:140] Creating Layer inception_4c/1x1_BatchNorm
I0715 08:57:42.585356  3638 net.cpp:481] inception_4c/1x1_BatchNorm <- inception_4c/1x1_raw
I0715 08:57:42.585362  3638 net.cpp:455] inception_4c/1x1_BatchNorm -> inception_4c/1x1
I0715 08:57:42.585916  3638 net.cpp:190] Setting up inception_4c/1x1_BatchNorm
I0715 08:57:42.585923  3638 net.cpp:197] Top shape: 1 128 32 64 (262144)
I0715 08:57:42.585927  3638 net.cpp:205] Memory required for data: 637337600
I0715 08:57:42.585935  3638 layer_factory.hpp:123] Creating layer inception_4c/relu_1x1
I0715 08:57:42.585940  3638 net.cpp:140] Creating Layer inception_4c/relu_1x1
I0715 08:57:42.585943  3638 net.cpp:481] inception_4c/relu_1x1 <- inception_4c/1x1
I0715 08:57:42.585948  3638 net.cpp:442] inception_4c/relu_1x1 -> inception_4c/1x1 (in-place)
I0715 08:57:42.585954  3638 net.cpp:190] Setting up inception_4c/relu_1x1
I0715 08:57:42.585958  3638 net.cpp:197] Top shape: 1 128 32 64 (262144)
I0715 08:57:42.585960  3638 net.cpp:205] Memory required for data: 638386176
I0715 08:57:42.585964  3638 layer_factory.hpp:123] Creating layer inception_4c/3x3_reduce
I0715 08:57:42.585971  3638 net.cpp:140] Creating Layer inception_4c/3x3_reduce
I0715 08:57:42.585974  3638 net.cpp:481] inception_4c/3x3_reduce <- inception_4b/output_inception_4b/output_0_split_1
I0715 08:57:42.585979  3638 net.cpp:455] inception_4c/3x3_reduce -> inception_4c/3x3_reduce_raw
I0715 08:57:42.586774  3638 net.cpp:190] Setting up inception_4c/3x3_reduce
I0715 08:57:42.586782  3638 net.cpp:197] Top shape: 1 128 32 64 (262144)
I0715 08:57:42.586786  3638 net.cpp:205] Memory required for data: 639434752
I0715 08:57:42.586791  3638 layer_factory.hpp:123] Creating layer inception_4c/3x3_reduce_BatchNorm
I0715 08:57:42.586797  3638 net.cpp:140] Creating Layer inception_4c/3x3_reduce_BatchNorm
I0715 08:57:42.586802  3638 net.cpp:481] inception_4c/3x3_reduce_BatchNorm <- inception_4c/3x3_reduce_raw
I0715 08:57:42.586807  3638 net.cpp:455] inception_4c/3x3_reduce_BatchNorm -> inception_4c/3x3_reduce
I0715 08:57:42.587366  3638 net.cpp:190] Setting up inception_4c/3x3_reduce_BatchNorm
I0715 08:57:42.587373  3638 net.cpp:197] Top shape: 1 128 32 64 (262144)
I0715 08:57:42.587376  3638 net.cpp:205] Memory required for data: 640483328
I0715 08:57:42.587384  3638 layer_factory.hpp:123] Creating layer inception_4c/relu_3x3_reduce
I0715 08:57:42.587389  3638 net.cpp:140] Creating Layer inception_4c/relu_3x3_reduce
I0715 08:57:42.587393  3638 net.cpp:481] inception_4c/relu_3x3_reduce <- inception_4c/3x3_reduce
I0715 08:57:42.587399  3638 net.cpp:442] inception_4c/relu_3x3_reduce -> inception_4c/3x3_reduce (in-place)
I0715 08:57:42.587404  3638 net.cpp:190] Setting up inception_4c/relu_3x3_reduce
I0715 08:57:42.587407  3638 net.cpp:197] Top shape: 1 128 32 64 (262144)
I0715 08:57:42.587411  3638 net.cpp:205] Memory required for data: 641531904
I0715 08:57:42.587414  3638 layer_factory.hpp:123] Creating layer inception_4c/3x3
I0715 08:57:42.587421  3638 net.cpp:140] Creating Layer inception_4c/3x3
I0715 08:57:42.587424  3638 net.cpp:481] inception_4c/3x3 <- inception_4c/3x3_reduce
I0715 08:57:42.587430  3638 net.cpp:455] inception_4c/3x3 -> inception_4c/3x3_raw
I0715 08:57:42.590971  3638 net.cpp:190] Setting up inception_4c/3x3
I0715 08:57:42.590983  3638 net.cpp:197] Top shape: 1 256 32 64 (524288)
I0715 08:57:42.590986  3638 net.cpp:205] Memory required for data: 643629056
I0715 08:57:42.590992  3638 layer_factory.hpp:123] Creating layer inception_4c/3x3_BatchNorm
I0715 08:57:42.591001  3638 net.cpp:140] Creating Layer inception_4c/3x3_BatchNorm
I0715 08:57:42.591004  3638 net.cpp:481] inception_4c/3x3_BatchNorm <- inception_4c/3x3_raw
I0715 08:57:42.591011  3638 net.cpp:455] inception_4c/3x3_BatchNorm -> inception_4c/3x3
I0715 08:57:42.591580  3638 net.cpp:190] Setting up inception_4c/3x3_BatchNorm
I0715 08:57:42.591588  3638 net.cpp:197] Top shape: 1 256 32 64 (524288)
I0715 08:57:42.591590  3638 net.cpp:205] Memory required for data: 645726208
I0715 08:57:42.591598  3638 layer_factory.hpp:123] Creating layer inception_4c/relu_3x3
I0715 08:57:42.591604  3638 net.cpp:140] Creating Layer inception_4c/relu_3x3
I0715 08:57:42.591608  3638 net.cpp:481] inception_4c/relu_3x3 <- inception_4c/3x3
I0715 08:57:42.591612  3638 net.cpp:442] inception_4c/relu_3x3 -> inception_4c/3x3 (in-place)
I0715 08:57:42.591619  3638 net.cpp:190] Setting up inception_4c/relu_3x3
I0715 08:57:42.591624  3638 net.cpp:197] Top shape: 1 256 32 64 (524288)
I0715 08:57:42.591626  3638 net.cpp:205] Memory required for data: 647823360
I0715 08:57:42.591629  3638 layer_factory.hpp:123] Creating layer inception_4c/5x5_reduce
I0715 08:57:42.591636  3638 net.cpp:140] Creating Layer inception_4c/5x5_reduce
I0715 08:57:42.591640  3638 net.cpp:481] inception_4c/5x5_reduce <- inception_4b/output_inception_4b/output_0_split_2
I0715 08:57:42.591646  3638 net.cpp:455] inception_4c/5x5_reduce -> inception_4c/5x5_reduce_raw
I0715 08:57:42.592000  3638 net.cpp:190] Setting up inception_4c/5x5_reduce
I0715 08:57:42.592008  3638 net.cpp:197] Top shape: 1 24 32 64 (49152)
I0715 08:57:42.592011  3638 net.cpp:205] Memory required for data: 648019968
I0715 08:57:42.592017  3638 layer_factory.hpp:123] Creating layer inception_4c/5x5_reduce_BatchNorm
I0715 08:57:42.592023  3638 net.cpp:140] Creating Layer inception_4c/5x5_reduce_BatchNorm
I0715 08:57:42.592027  3638 net.cpp:481] inception_4c/5x5_reduce_BatchNorm <- inception_4c/5x5_reduce_raw
I0715 08:57:42.592033  3638 net.cpp:455] inception_4c/5x5_reduce_BatchNorm -> inception_4c/5x5_reduce
I0715 08:57:42.592666  3638 net.cpp:190] Setting up inception_4c/5x5_reduce_BatchNorm
I0715 08:57:42.592674  3638 net.cpp:197] Top shape: 1 24 32 64 (49152)
I0715 08:57:42.592676  3638 net.cpp:205] Memory required for data: 648216576
I0715 08:57:42.592685  3638 layer_factory.hpp:123] Creating layer inception_4c/relu_5x5_reduce
I0715 08:57:42.592690  3638 net.cpp:140] Creating Layer inception_4c/relu_5x5_reduce
I0715 08:57:42.592694  3638 net.cpp:481] inception_4c/relu_5x5_reduce <- inception_4c/5x5_reduce
I0715 08:57:42.592698  3638 net.cpp:442] inception_4c/relu_5x5_reduce -> inception_4c/5x5_reduce (in-place)
I0715 08:57:42.592705  3638 net.cpp:190] Setting up inception_4c/relu_5x5_reduce
I0715 08:57:42.592708  3638 net.cpp:197] Top shape: 1 24 32 64 (49152)
I0715 08:57:42.592711  3638 net.cpp:205] Memory required for data: 648413184
I0715 08:57:42.592713  3638 layer_factory.hpp:123] Creating layer inception_4c/5x5
I0715 08:57:42.592721  3638 net.cpp:140] Creating Layer inception_4c/5x5
I0715 08:57:42.592725  3638 net.cpp:481] inception_4c/5x5 <- inception_4c/5x5_reduce
I0715 08:57:42.592730  3638 net.cpp:455] inception_4c/5x5 -> inception_4c/5x5_raw
I0715 08:57:42.594079  3638 net.cpp:190] Setting up inception_4c/5x5
I0715 08:57:42.594091  3638 net.cpp:197] Top shape: 1 64 32 64 (131072)
I0715 08:57:42.594094  3638 net.cpp:205] Memory required for data: 648937472
I0715 08:57:42.594100  3638 layer_factory.hpp:123] Creating layer inception_4c/5x5_BatchNorm
I0715 08:57:42.594107  3638 net.cpp:140] Creating Layer inception_4c/5x5_BatchNorm
I0715 08:57:42.594112  3638 net.cpp:481] inception_4c/5x5_BatchNorm <- inception_4c/5x5_raw
I0715 08:57:42.594118  3638 net.cpp:455] inception_4c/5x5_BatchNorm -> inception_4c/5x5
I0715 08:57:42.594763  3638 net.cpp:190] Setting up inception_4c/5x5_BatchNorm
I0715 08:57:42.594771  3638 net.cpp:197] Top shape: 1 64 32 64 (131072)
I0715 08:57:42.594774  3638 net.cpp:205] Memory required for data: 649461760
I0715 08:57:42.594782  3638 layer_factory.hpp:123] Creating layer inception_4c/relu_5x5
I0715 08:57:42.594789  3638 net.cpp:140] Creating Layer inception_4c/relu_5x5
I0715 08:57:42.594791  3638 net.cpp:481] inception_4c/relu_5x5 <- inception_4c/5x5
I0715 08:57:42.594797  3638 net.cpp:442] inception_4c/relu_5x5 -> inception_4c/5x5 (in-place)
I0715 08:57:42.594803  3638 net.cpp:190] Setting up inception_4c/relu_5x5
I0715 08:57:42.594808  3638 net.cpp:197] Top shape: 1 64 32 64 (131072)
I0715 08:57:42.594811  3638 net.cpp:205] Memory required for data: 649986048
I0715 08:57:42.594815  3638 layer_factory.hpp:123] Creating layer inception_4c/pool
I0715 08:57:42.594820  3638 net.cpp:140] Creating Layer inception_4c/pool
I0715 08:57:42.594823  3638 net.cpp:481] inception_4c/pool <- inception_4b/output_inception_4b/output_0_split_3
I0715 08:57:42.594828  3638 net.cpp:455] inception_4c/pool -> inception_4c/pool
I0715 08:57:42.594861  3638 net.cpp:190] Setting up inception_4c/pool
I0715 08:57:42.594866  3638 net.cpp:197] Top shape: 1 512 32 64 (1048576)
I0715 08:57:42.594868  3638 net.cpp:205] Memory required for data: 654180352
I0715 08:57:42.594871  3638 layer_factory.hpp:123] Creating layer inception_4c/pool_proj
I0715 08:57:42.594878  3638 net.cpp:140] Creating Layer inception_4c/pool_proj
I0715 08:57:42.594882  3638 net.cpp:481] inception_4c/pool_proj <- inception_4c/pool
I0715 08:57:42.594888  3638 net.cpp:455] inception_4c/pool_proj -> inception_4c/pool_proj_raw
I0715 08:57:42.595407  3638 net.cpp:190] Setting up inception_4c/pool_proj
I0715 08:57:42.595414  3638 net.cpp:197] Top shape: 1 64 32 64 (131072)
I0715 08:57:42.595417  3638 net.cpp:205] Memory required for data: 654704640
I0715 08:57:42.595422  3638 layer_factory.hpp:123] Creating layer inception_4c/pool_proj_BatchNorm
I0715 08:57:42.595429  3638 net.cpp:140] Creating Layer inception_4c/pool_proj_BatchNorm
I0715 08:57:42.595433  3638 net.cpp:481] inception_4c/pool_proj_BatchNorm <- inception_4c/pool_proj_raw
I0715 08:57:42.595438  3638 net.cpp:455] inception_4c/pool_proj_BatchNorm -> inception_4c/pool_proj
I0715 08:57:42.596094  3638 net.cpp:190] Setting up inception_4c/pool_proj_BatchNorm
I0715 08:57:42.596102  3638 net.cpp:197] Top shape: 1 64 32 64 (131072)
I0715 08:57:42.596105  3638 net.cpp:205] Memory required for data: 655228928
I0715 08:57:42.596113  3638 layer_factory.hpp:123] Creating layer inception_4c/relu_pool_proj
I0715 08:57:42.596119  3638 net.cpp:140] Creating Layer inception_4c/relu_pool_proj
I0715 08:57:42.596122  3638 net.cpp:481] inception_4c/relu_pool_proj <- inception_4c/pool_proj
I0715 08:57:42.596127  3638 net.cpp:442] inception_4c/relu_pool_proj -> inception_4c/pool_proj (in-place)
I0715 08:57:42.596134  3638 net.cpp:190] Setting up inception_4c/relu_pool_proj
I0715 08:57:42.596138  3638 net.cpp:197] Top shape: 1 64 32 64 (131072)
I0715 08:57:42.596141  3638 net.cpp:205] Memory required for data: 655753216
I0715 08:57:42.596144  3638 layer_factory.hpp:123] Creating layer inception_4c/output
I0715 08:57:42.596149  3638 net.cpp:140] Creating Layer inception_4c/output
I0715 08:57:42.596153  3638 net.cpp:481] inception_4c/output <- inception_4c/1x1
I0715 08:57:42.596156  3638 net.cpp:481] inception_4c/output <- inception_4c/3x3
I0715 08:57:42.596160  3638 net.cpp:481] inception_4c/output <- inception_4c/5x5
I0715 08:57:42.596163  3638 net.cpp:481] inception_4c/output <- inception_4c/pool_proj
I0715 08:57:42.596168  3638 net.cpp:455] inception_4c/output -> inception_4c/output
I0715 08:57:42.596190  3638 net.cpp:190] Setting up inception_4c/output
I0715 08:57:42.596195  3638 net.cpp:197] Top shape: 1 512 32 64 (1048576)
I0715 08:57:42.596199  3638 net.cpp:205] Memory required for data: 659947520
I0715 08:57:42.596200  3638 layer_factory.hpp:123] Creating layer inception_4c/output_inception_4c/output_0_split
I0715 08:57:42.596206  3638 net.cpp:140] Creating Layer inception_4c/output_inception_4c/output_0_split
I0715 08:57:42.596210  3638 net.cpp:481] inception_4c/output_inception_4c/output_0_split <- inception_4c/output
I0715 08:57:42.596215  3638 net.cpp:455] inception_4c/output_inception_4c/output_0_split -> inception_4c/output_inception_4c/output_0_split_0
I0715 08:57:42.596222  3638 net.cpp:455] inception_4c/output_inception_4c/output_0_split -> inception_4c/output_inception_4c/output_0_split_1
I0715 08:57:42.596228  3638 net.cpp:455] inception_4c/output_inception_4c/output_0_split -> inception_4c/output_inception_4c/output_0_split_2
I0715 08:57:42.596235  3638 net.cpp:455] inception_4c/output_inception_4c/output_0_split -> inception_4c/output_inception_4c/output_0_split_3
I0715 08:57:42.596282  3638 net.cpp:190] Setting up inception_4c/output_inception_4c/output_0_split
I0715 08:57:42.596287  3638 net.cpp:197] Top shape: 1 512 32 64 (1048576)
I0715 08:57:42.596292  3638 net.cpp:197] Top shape: 1 512 32 64 (1048576)
I0715 08:57:42.596295  3638 net.cpp:197] Top shape: 1 512 32 64 (1048576)
I0715 08:57:42.596298  3638 net.cpp:197] Top shape: 1 512 32 64 (1048576)
I0715 08:57:42.596302  3638 net.cpp:205] Memory required for data: 676724736
I0715 08:57:42.596304  3638 layer_factory.hpp:123] Creating layer inception_4d/1x1
I0715 08:57:42.596312  3638 net.cpp:140] Creating Layer inception_4d/1x1
I0715 08:57:42.596315  3638 net.cpp:481] inception_4d/1x1 <- inception_4c/output_inception_4c/output_0_split_0
I0715 08:57:42.596321  3638 net.cpp:455] inception_4d/1x1 -> inception_4d/1x1_raw
I0715 08:57:42.597059  3638 net.cpp:190] Setting up inception_4d/1x1
I0715 08:57:42.597069  3638 net.cpp:197] Top shape: 1 112 32 64 (229376)
I0715 08:57:42.597071  3638 net.cpp:205] Memory required for data: 677642240
I0715 08:57:42.597077  3638 layer_factory.hpp:123] Creating layer inception_4d/1x1_BatchNorm
I0715 08:57:42.597084  3638 net.cpp:140] Creating Layer inception_4d/1x1_BatchNorm
I0715 08:57:42.597088  3638 net.cpp:481] inception_4d/1x1_BatchNorm <- inception_4d/1x1_raw
I0715 08:57:42.597095  3638 net.cpp:455] inception_4d/1x1_BatchNorm -> inception_4d/1x1
I0715 08:57:42.597740  3638 net.cpp:190] Setting up inception_4d/1x1_BatchNorm
I0715 08:57:42.597748  3638 net.cpp:197] Top shape: 1 112 32 64 (229376)
I0715 08:57:42.597751  3638 net.cpp:205] Memory required for data: 678559744
I0715 08:57:42.597759  3638 layer_factory.hpp:123] Creating layer inception_4d/relu_1x1
I0715 08:57:42.597765  3638 net.cpp:140] Creating Layer inception_4d/relu_1x1
I0715 08:57:42.597769  3638 net.cpp:481] inception_4d/relu_1x1 <- inception_4d/1x1
I0715 08:57:42.597774  3638 net.cpp:442] inception_4d/relu_1x1 -> inception_4d/1x1 (in-place)
I0715 08:57:42.597780  3638 net.cpp:190] Setting up inception_4d/relu_1x1
I0715 08:57:42.597784  3638 net.cpp:197] Top shape: 1 112 32 64 (229376)
I0715 08:57:42.597787  3638 net.cpp:205] Memory required for data: 679477248
I0715 08:57:42.597790  3638 layer_factory.hpp:123] Creating layer inception_4d/3x3_reduce
I0715 08:57:42.597797  3638 net.cpp:140] Creating Layer inception_4d/3x3_reduce
I0715 08:57:42.597801  3638 net.cpp:481] inception_4d/3x3_reduce <- inception_4c/output_inception_4c/output_0_split_1
I0715 08:57:42.597806  3638 net.cpp:455] inception_4d/3x3_reduce -> inception_4d/3x3_reduce_raw
I0715 08:57:42.598683  3638 net.cpp:190] Setting up inception_4d/3x3_reduce
I0715 08:57:42.598692  3638 net.cpp:197] Top shape: 1 144 32 64 (294912)
I0715 08:57:42.598695  3638 net.cpp:205] Memory required for data: 680656896
I0715 08:57:42.598701  3638 layer_factory.hpp:123] Creating layer inception_4d/3x3_reduce_BatchNorm
I0715 08:57:42.598708  3638 net.cpp:140] Creating Layer inception_4d/3x3_reduce_BatchNorm
I0715 08:57:42.598712  3638 net.cpp:481] inception_4d/3x3_reduce_BatchNorm <- inception_4d/3x3_reduce_raw
I0715 08:57:42.598718  3638 net.cpp:455] inception_4d/3x3_reduce_BatchNorm -> inception_4d/3x3_reduce
I0715 08:57:42.599359  3638 net.cpp:190] Setting up inception_4d/3x3_reduce_BatchNorm
I0715 08:57:42.599367  3638 net.cpp:197] Top shape: 1 144 32 64 (294912)
I0715 08:57:42.599370  3638 net.cpp:205] Memory required for data: 681836544
I0715 08:57:42.599378  3638 layer_factory.hpp:123] Creating layer inception_4d/relu_3x3_reduce
I0715 08:57:42.599385  3638 net.cpp:140] Creating Layer inception_4d/relu_3x3_reduce
I0715 08:57:42.599387  3638 net.cpp:481] inception_4d/relu_3x3_reduce <- inception_4d/3x3_reduce
I0715 08:57:42.599393  3638 net.cpp:442] inception_4d/relu_3x3_reduce -> inception_4d/3x3_reduce (in-place)
I0715 08:57:42.599400  3638 net.cpp:190] Setting up inception_4d/relu_3x3_reduce
I0715 08:57:42.599403  3638 net.cpp:197] Top shape: 1 144 32 64 (294912)
I0715 08:57:42.599406  3638 net.cpp:205] Memory required for data: 683016192
I0715 08:57:42.599409  3638 layer_factory.hpp:123] Creating layer inception_4d/3x3
I0715 08:57:42.599421  3638 net.cpp:140] Creating Layer inception_4d/3x3
I0715 08:57:42.599424  3638 net.cpp:481] inception_4d/3x3 <- inception_4d/3x3_reduce
I0715 08:57:42.599429  3638 net.cpp:455] inception_4d/3x3 -> inception_4d/3x3_raw
I0715 08:57:42.605139  3638 net.cpp:190] Setting up inception_4d/3x3
I0715 08:57:42.605152  3638 net.cpp:197] Top shape: 1 288 32 64 (589824)
I0715 08:57:42.605155  3638 net.cpp:205] Memory required for data: 685375488
I0715 08:57:42.605162  3638 layer_factory.hpp:123] Creating layer inception_4d/3x3_BatchNorm
I0715 08:57:42.605170  3638 net.cpp:140] Creating Layer inception_4d/3x3_BatchNorm
I0715 08:57:42.605175  3638 net.cpp:481] inception_4d/3x3_BatchNorm <- inception_4d/3x3_raw
I0715 08:57:42.605180  3638 net.cpp:455] inception_4d/3x3_BatchNorm -> inception_4d/3x3
I0715 08:57:42.605809  3638 net.cpp:190] Setting up inception_4d/3x3_BatchNorm
I0715 08:57:42.605818  3638 net.cpp:197] Top shape: 1 288 32 64 (589824)
I0715 08:57:42.605820  3638 net.cpp:205] Memory required for data: 687734784
I0715 08:57:42.605829  3638 layer_factory.hpp:123] Creating layer inception_4d/relu_3x3
I0715 08:57:42.605834  3638 net.cpp:140] Creating Layer inception_4d/relu_3x3
I0715 08:57:42.605837  3638 net.cpp:481] inception_4d/relu_3x3 <- inception_4d/3x3
I0715 08:57:42.605842  3638 net.cpp:442] inception_4d/relu_3x3 -> inception_4d/3x3 (in-place)
I0715 08:57:42.605849  3638 net.cpp:190] Setting up inception_4d/relu_3x3
I0715 08:57:42.605854  3638 net.cpp:197] Top shape: 1 288 32 64 (589824)
I0715 08:57:42.605856  3638 net.cpp:205] Memory required for data: 690094080
I0715 08:57:42.605859  3638 layer_factory.hpp:123] Creating layer inception_4d/5x5_reduce
I0715 08:57:42.605866  3638 net.cpp:140] Creating Layer inception_4d/5x5_reduce
I0715 08:57:42.605870  3638 net.cpp:481] inception_4d/5x5_reduce <- inception_4c/output_inception_4c/output_0_split_2
I0715 08:57:42.605876  3638 net.cpp:455] inception_4d/5x5_reduce -> inception_4d/5x5_reduce_raw
I0715 08:57:42.606274  3638 net.cpp:190] Setting up inception_4d/5x5_reduce
I0715 08:57:42.606282  3638 net.cpp:197] Top shape: 1 32 32 64 (65536)
I0715 08:57:42.606285  3638 net.cpp:205] Memory required for data: 690356224
I0715 08:57:42.606292  3638 layer_factory.hpp:123] Creating layer inception_4d/5x5_reduce_BatchNorm
I0715 08:57:42.606298  3638 net.cpp:140] Creating Layer inception_4d/5x5_reduce_BatchNorm
I0715 08:57:42.606302  3638 net.cpp:481] inception_4d/5x5_reduce_BatchNorm <- inception_4d/5x5_reduce_raw
I0715 08:57:42.606308  3638 net.cpp:455] inception_4d/5x5_reduce_BatchNorm -> inception_4d/5x5_reduce
I0715 08:57:42.606964  3638 net.cpp:190] Setting up inception_4d/5x5_reduce_BatchNorm
I0715 08:57:42.606972  3638 net.cpp:197] Top shape: 1 32 32 64 (65536)
I0715 08:57:42.606976  3638 net.cpp:205] Memory required for data: 690618368
I0715 08:57:42.606993  3638 layer_factory.hpp:123] Creating layer inception_4d/relu_5x5_reduce
I0715 08:57:42.606999  3638 net.cpp:140] Creating Layer inception_4d/relu_5x5_reduce
I0715 08:57:42.607002  3638 net.cpp:481] inception_4d/relu_5x5_reduce <- inception_4d/5x5_reduce
I0715 08:57:42.607007  3638 net.cpp:442] inception_4d/relu_5x5_reduce -> inception_4d/5x5_reduce (in-place)
I0715 08:57:42.607014  3638 net.cpp:190] Setting up inception_4d/relu_5x5_reduce
I0715 08:57:42.607018  3638 net.cpp:197] Top shape: 1 32 32 64 (65536)
I0715 08:57:42.607022  3638 net.cpp:205] Memory required for data: 690880512
I0715 08:57:42.607024  3638 layer_factory.hpp:123] Creating layer inception_4d/5x5
I0715 08:57:42.607031  3638 net.cpp:140] Creating Layer inception_4d/5x5
I0715 08:57:42.607034  3638 net.cpp:481] inception_4d/5x5 <- inception_4d/5x5_reduce
I0715 08:57:42.607040  3638 net.cpp:455] inception_4d/5x5 -> inception_4d/5x5_raw
I0715 08:57:42.607769  3638 net.cpp:190] Setting up inception_4d/5x5
I0715 08:57:42.607779  3638 net.cpp:197] Top shape: 1 64 32 64 (131072)
I0715 08:57:42.607782  3638 net.cpp:205] Memory required for data: 691404800
I0715 08:57:42.607787  3638 layer_factory.hpp:123] Creating layer inception_4d/5x5_BatchNorm
I0715 08:57:42.607795  3638 net.cpp:140] Creating Layer inception_4d/5x5_BatchNorm
I0715 08:57:42.607798  3638 net.cpp:481] inception_4d/5x5_BatchNorm <- inception_4d/5x5_raw
I0715 08:57:42.607805  3638 net.cpp:455] inception_4d/5x5_BatchNorm -> inception_4d/5x5
I0715 08:57:42.608448  3638 net.cpp:190] Setting up inception_4d/5x5_BatchNorm
I0715 08:57:42.608455  3638 net.cpp:197] Top shape: 1 64 32 64 (131072)
I0715 08:57:42.608458  3638 net.cpp:205] Memory required for data: 691929088
I0715 08:57:42.608466  3638 layer_factory.hpp:123] Creating layer inception_4d/relu_5x5
I0715 08:57:42.608471  3638 net.cpp:140] Creating Layer inception_4d/relu_5x5
I0715 08:57:42.608474  3638 net.cpp:481] inception_4d/relu_5x5 <- inception_4d/5x5
I0715 08:57:42.608479  3638 net.cpp:442] inception_4d/relu_5x5 -> inception_4d/5x5 (in-place)
I0715 08:57:42.608486  3638 net.cpp:190] Setting up inception_4d/relu_5x5
I0715 08:57:42.608489  3638 net.cpp:197] Top shape: 1 64 32 64 (131072)
I0715 08:57:42.608492  3638 net.cpp:205] Memory required for data: 692453376
I0715 08:57:42.608495  3638 layer_factory.hpp:123] Creating layer inception_4d/pool
I0715 08:57:42.608501  3638 net.cpp:140] Creating Layer inception_4d/pool
I0715 08:57:42.608505  3638 net.cpp:481] inception_4d/pool <- inception_4c/output_inception_4c/output_0_split_3
I0715 08:57:42.608510  3638 net.cpp:455] inception_4d/pool -> inception_4d/pool
I0715 08:57:42.608543  3638 net.cpp:190] Setting up inception_4d/pool
I0715 08:57:42.608551  3638 net.cpp:197] Top shape: 1 512 32 64 (1048576)
I0715 08:57:42.608552  3638 net.cpp:205] Memory required for data: 696647680
I0715 08:57:42.608556  3638 layer_factory.hpp:123] Creating layer inception_4d/pool_proj
I0715 08:57:42.608563  3638 net.cpp:140] Creating Layer inception_4d/pool_proj
I0715 08:57:42.608567  3638 net.cpp:481] inception_4d/pool_proj <- inception_4d/pool
I0715 08:57:42.608572  3638 net.cpp:455] inception_4d/pool_proj -> inception_4d/pool_proj_raw
I0715 08:57:42.609097  3638 net.cpp:190] Setting up inception_4d/pool_proj
I0715 08:57:42.609105  3638 net.cpp:197] Top shape: 1 64 32 64 (131072)
I0715 08:57:42.609108  3638 net.cpp:205] Memory required for data: 697171968
I0715 08:57:42.609113  3638 layer_factory.hpp:123] Creating layer inception_4d/pool_proj_BatchNorm
I0715 08:57:42.609120  3638 net.cpp:140] Creating Layer inception_4d/pool_proj_BatchNorm
I0715 08:57:42.609124  3638 net.cpp:481] inception_4d/pool_proj_BatchNorm <- inception_4d/pool_proj_raw
I0715 08:57:42.609129  3638 net.cpp:455] inception_4d/pool_proj_BatchNorm -> inception_4d/pool_proj
I0715 08:57:42.609764  3638 net.cpp:190] Setting up inception_4d/pool_proj_BatchNorm
I0715 08:57:42.609772  3638 net.cpp:197] Top shape: 1 64 32 64 (131072)
I0715 08:57:42.609776  3638 net.cpp:205] Memory required for data: 697696256
I0715 08:57:42.609783  3638 layer_factory.hpp:123] Creating layer inception_4d/relu_pool_proj
I0715 08:57:42.609788  3638 net.cpp:140] Creating Layer inception_4d/relu_pool_proj
I0715 08:57:42.609792  3638 net.cpp:481] inception_4d/relu_pool_proj <- inception_4d/pool_proj
I0715 08:57:42.609797  3638 net.cpp:442] inception_4d/relu_pool_proj -> inception_4d/pool_proj (in-place)
I0715 08:57:42.609803  3638 net.cpp:190] Setting up inception_4d/relu_pool_proj
I0715 08:57:42.609807  3638 net.cpp:197] Top shape: 1 64 32 64 (131072)
I0715 08:57:42.609809  3638 net.cpp:205] Memory required for data: 698220544
I0715 08:57:42.609812  3638 layer_factory.hpp:123] Creating layer inception_4d/output
I0715 08:57:42.609817  3638 net.cpp:140] Creating Layer inception_4d/output
I0715 08:57:42.609820  3638 net.cpp:481] inception_4d/output <- inception_4d/1x1
I0715 08:57:42.609824  3638 net.cpp:481] inception_4d/output <- inception_4d/3x3
I0715 08:57:42.609828  3638 net.cpp:481] inception_4d/output <- inception_4d/5x5
I0715 08:57:42.609832  3638 net.cpp:481] inception_4d/output <- inception_4d/pool_proj
I0715 08:57:42.609836  3638 net.cpp:455] inception_4d/output -> inception_4d/output
I0715 08:57:42.609858  3638 net.cpp:190] Setting up inception_4d/output
I0715 08:57:42.609863  3638 net.cpp:197] Top shape: 1 528 32 64 (1081344)
I0715 08:57:42.609865  3638 net.cpp:205] Memory required for data: 702545920
I0715 08:57:42.609869  3638 layer_factory.hpp:123] Creating layer inception_4d/output_inception_4d/output_0_split
I0715 08:57:42.609874  3638 net.cpp:140] Creating Layer inception_4d/output_inception_4d/output_0_split
I0715 08:57:42.609877  3638 net.cpp:481] inception_4d/output_inception_4d/output_0_split <- inception_4d/output
I0715 08:57:42.609884  3638 net.cpp:455] inception_4d/output_inception_4d/output_0_split -> inception_4d/output_inception_4d/output_0_split_0
I0715 08:57:42.609889  3638 net.cpp:455] inception_4d/output_inception_4d/output_0_split -> inception_4d/output_inception_4d/output_0_split_1
I0715 08:57:42.609895  3638 net.cpp:455] inception_4d/output_inception_4d/output_0_split -> inception_4d/output_inception_4d/output_0_split_2
I0715 08:57:42.609901  3638 net.cpp:455] inception_4d/output_inception_4d/output_0_split -> inception_4d/output_inception_4d/output_0_split_3
I0715 08:57:42.609951  3638 net.cpp:190] Setting up inception_4d/output_inception_4d/output_0_split
I0715 08:57:42.609957  3638 net.cpp:197] Top shape: 1 528 32 64 (1081344)
I0715 08:57:42.609961  3638 net.cpp:197] Top shape: 1 528 32 64 (1081344)
I0715 08:57:42.609966  3638 net.cpp:197] Top shape: 1 528 32 64 (1081344)
I0715 08:57:42.609974  3638 net.cpp:197] Top shape: 1 528 32 64 (1081344)
I0715 08:57:42.609977  3638 net.cpp:205] Memory required for data: 719847424
I0715 08:57:42.609979  3638 layer_factory.hpp:123] Creating layer inception_4e/1x1
I0715 08:57:42.609987  3638 net.cpp:140] Creating Layer inception_4e/1x1
I0715 08:57:42.609990  3638 net.cpp:481] inception_4e/1x1 <- inception_4d/output_inception_4d/output_0_split_0
I0715 08:57:42.609995  3638 net.cpp:455] inception_4e/1x1 -> inception_4e/1x1_raw
I0715 08:57:42.611402  3638 net.cpp:190] Setting up inception_4e/1x1
I0715 08:57:42.611409  3638 net.cpp:197] Top shape: 1 256 32 64 (524288)
I0715 08:57:42.611413  3638 net.cpp:205] Memory required for data: 721944576
I0715 08:57:42.611418  3638 layer_factory.hpp:123] Creating layer inception_4e/1x1_BatchNorm
I0715 08:57:42.611424  3638 net.cpp:140] Creating Layer inception_4e/1x1_BatchNorm
I0715 08:57:42.611428  3638 net.cpp:481] inception_4e/1x1_BatchNorm <- inception_4e/1x1_raw
I0715 08:57:42.611433  3638 net.cpp:455] inception_4e/1x1_BatchNorm -> inception_4e/1x1
I0715 08:57:42.612018  3638 net.cpp:190] Setting up inception_4e/1x1_BatchNorm
I0715 08:57:42.612027  3638 net.cpp:197] Top shape: 1 256 32 64 (524288)
I0715 08:57:42.612031  3638 net.cpp:205] Memory required for data: 724041728
I0715 08:57:42.612038  3638 layer_factory.hpp:123] Creating layer inception_4e/relu_1x1
I0715 08:57:42.612044  3638 net.cpp:140] Creating Layer inception_4e/relu_1x1
I0715 08:57:42.612047  3638 net.cpp:481] inception_4e/relu_1x1 <- inception_4e/1x1
I0715 08:57:42.612052  3638 net.cpp:442] inception_4e/relu_1x1 -> inception_4e/1x1 (in-place)
I0715 08:57:42.612058  3638 net.cpp:190] Setting up inception_4e/relu_1x1
I0715 08:57:42.612062  3638 net.cpp:197] Top shape: 1 256 32 64 (524288)
I0715 08:57:42.612066  3638 net.cpp:205] Memory required for data: 726138880
I0715 08:57:42.612068  3638 layer_factory.hpp:123] Creating layer inception_4e/3x3_reduce
I0715 08:57:42.612076  3638 net.cpp:140] Creating Layer inception_4e/3x3_reduce
I0715 08:57:42.612078  3638 net.cpp:481] inception_4e/3x3_reduce <- inception_4d/output_inception_4d/output_0_split_1
I0715 08:57:42.612084  3638 net.cpp:455] inception_4e/3x3_reduce -> inception_4e/3x3_reduce_raw
I0715 08:57:42.613086  3638 net.cpp:190] Setting up inception_4e/3x3_reduce
I0715 08:57:42.613095  3638 net.cpp:197] Top shape: 1 160 32 64 (327680)
I0715 08:57:42.613097  3638 net.cpp:205] Memory required for data: 727449600
I0715 08:57:42.613103  3638 layer_factory.hpp:123] Creating layer inception_4e/3x3_reduce_BatchNorm
I0715 08:57:42.613111  3638 net.cpp:140] Creating Layer inception_4e/3x3_reduce_BatchNorm
I0715 08:57:42.613114  3638 net.cpp:481] inception_4e/3x3_reduce_BatchNorm <- inception_4e/3x3_reduce_raw
I0715 08:57:42.613119  3638 net.cpp:455] inception_4e/3x3_reduce_BatchNorm -> inception_4e/3x3_reduce
I0715 08:57:42.613762  3638 net.cpp:190] Setting up inception_4e/3x3_reduce_BatchNorm
I0715 08:57:42.613770  3638 net.cpp:197] Top shape: 1 160 32 64 (327680)
I0715 08:57:42.613772  3638 net.cpp:205] Memory required for data: 728760320
I0715 08:57:42.613780  3638 layer_factory.hpp:123] Creating layer inception_4e/relu_3x3_reduce
I0715 08:57:42.613785  3638 net.cpp:140] Creating Layer inception_4e/relu_3x3_reduce
I0715 08:57:42.613790  3638 net.cpp:481] inception_4e/relu_3x3_reduce <- inception_4e/3x3_reduce
I0715 08:57:42.613795  3638 net.cpp:442] inception_4e/relu_3x3_reduce -> inception_4e/3x3_reduce (in-place)
I0715 08:57:42.613801  3638 net.cpp:190] Setting up inception_4e/relu_3x3_reduce
I0715 08:57:42.613803  3638 net.cpp:197] Top shape: 1 160 32 64 (327680)
I0715 08:57:42.613807  3638 net.cpp:205] Memory required for data: 730071040
I0715 08:57:42.613809  3638 layer_factory.hpp:123] Creating layer inception_4e/3x3
I0715 08:57:42.613816  3638 net.cpp:140] Creating Layer inception_4e/3x3
I0715 08:57:42.613819  3638 net.cpp:481] inception_4e/3x3 <- inception_4e/3x3_reduce
I0715 08:57:42.613826  3638 net.cpp:455] inception_4e/3x3 -> inception_4e/3x3_raw
I0715 08:57:42.622776  3638 net.cpp:190] Setting up inception_4e/3x3
I0715 08:57:42.622789  3638 net.cpp:197] Top shape: 1 320 32 64 (655360)
I0715 08:57:42.622793  3638 net.cpp:205] Memory required for data: 732692480
I0715 08:57:42.622799  3638 layer_factory.hpp:123] Creating layer inception_4e/3x3_BatchNorm
I0715 08:57:42.622808  3638 net.cpp:140] Creating Layer inception_4e/3x3_BatchNorm
I0715 08:57:42.622812  3638 net.cpp:481] inception_4e/3x3_BatchNorm <- inception_4e/3x3_raw
I0715 08:57:42.622818  3638 net.cpp:455] inception_4e/3x3_BatchNorm -> inception_4e/3x3
I0715 08:57:42.623445  3638 net.cpp:190] Setting up inception_4e/3x3_BatchNorm
I0715 08:57:42.623453  3638 net.cpp:197] Top shape: 1 320 32 64 (655360)
I0715 08:57:42.623456  3638 net.cpp:205] Memory required for data: 735313920
I0715 08:57:42.623464  3638 layer_factory.hpp:123] Creating layer inception_4e/relu_3x3
I0715 08:57:42.623471  3638 net.cpp:140] Creating Layer inception_4e/relu_3x3
I0715 08:57:42.623474  3638 net.cpp:481] inception_4e/relu_3x3 <- inception_4e/3x3
I0715 08:57:42.623478  3638 net.cpp:442] inception_4e/relu_3x3 -> inception_4e/3x3 (in-place)
I0715 08:57:42.623486  3638 net.cpp:190] Setting up inception_4e/relu_3x3
I0715 08:57:42.623490  3638 net.cpp:197] Top shape: 1 320 32 64 (655360)
I0715 08:57:42.623492  3638 net.cpp:205] Memory required for data: 737935360
I0715 08:57:42.623495  3638 layer_factory.hpp:123] Creating layer inception_4e/5x5_reduce
I0715 08:57:42.623503  3638 net.cpp:140] Creating Layer inception_4e/5x5_reduce
I0715 08:57:42.623507  3638 net.cpp:481] inception_4e/5x5_reduce <- inception_4d/output_inception_4d/output_0_split_2
I0715 08:57:42.623512  3638 net.cpp:455] inception_4e/5x5_reduce -> inception_4e/5x5_reduce_raw
I0715 08:57:42.623919  3638 net.cpp:190] Setting up inception_4e/5x5_reduce
I0715 08:57:42.623929  3638 net.cpp:197] Top shape: 1 32 32 64 (65536)
I0715 08:57:42.623931  3638 net.cpp:205] Memory required for data: 738197504
I0715 08:57:42.623937  3638 layer_factory.hpp:123] Creating layer inception_4e/5x5_reduce_BatchNorm
I0715 08:57:42.623944  3638 net.cpp:140] Creating Layer inception_4e/5x5_reduce_BatchNorm
I0715 08:57:42.623947  3638 net.cpp:481] inception_4e/5x5_reduce_BatchNorm <- inception_4e/5x5_reduce_raw
I0715 08:57:42.623953  3638 net.cpp:455] inception_4e/5x5_reduce_BatchNorm -> inception_4e/5x5_reduce
I0715 08:57:42.624660  3638 net.cpp:190] Setting up inception_4e/5x5_reduce_BatchNorm
I0715 08:57:42.624668  3638 net.cpp:197] Top shape: 1 32 32 64 (65536)
I0715 08:57:42.624671  3638 net.cpp:205] Memory required for data: 738459648
I0715 08:57:42.624680  3638 layer_factory.hpp:123] Creating layer inception_4e/relu_5x5_reduce
I0715 08:57:42.624684  3638 net.cpp:140] Creating Layer inception_4e/relu_5x5_reduce
I0715 08:57:42.624688  3638 net.cpp:481] inception_4e/relu_5x5_reduce <- inception_4e/5x5_reduce
I0715 08:57:42.624693  3638 net.cpp:442] inception_4e/relu_5x5_reduce -> inception_4e/5x5_reduce (in-place)
I0715 08:57:42.624699  3638 net.cpp:190] Setting up inception_4e/relu_5x5_reduce
I0715 08:57:42.624703  3638 net.cpp:197] Top shape: 1 32 32 64 (65536)
I0715 08:57:42.624706  3638 net.cpp:205] Memory required for data: 738721792
I0715 08:57:42.624708  3638 layer_factory.hpp:123] Creating layer inception_4e/5x5
I0715 08:57:42.624716  3638 net.cpp:140] Creating Layer inception_4e/5x5
I0715 08:57:42.624719  3638 net.cpp:481] inception_4e/5x5 <- inception_4e/5x5_reduce
I0715 08:57:42.624724  3638 net.cpp:455] inception_4e/5x5 -> inception_4e/5x5_raw
I0715 08:57:42.626607  3638 net.cpp:190] Setting up inception_4e/5x5
I0715 08:57:42.626619  3638 net.cpp:197] Top shape: 1 128 32 64 (262144)
I0715 08:57:42.626622  3638 net.cpp:205] Memory required for data: 739770368
I0715 08:57:42.626628  3638 layer_factory.hpp:123] Creating layer inception_4e/5x5_BatchNorm
I0715 08:57:42.626636  3638 net.cpp:140] Creating Layer inception_4e/5x5_BatchNorm
I0715 08:57:42.626641  3638 net.cpp:481] inception_4e/5x5_BatchNorm <- inception_4e/5x5_raw
I0715 08:57:42.626646  3638 net.cpp:455] inception_4e/5x5_BatchNorm -> inception_4e/5x5
I0715 08:57:42.627215  3638 net.cpp:190] Setting up inception_4e/5x5_BatchNorm
I0715 08:57:42.627223  3638 net.cpp:197] Top shape: 1 128 32 64 (262144)
I0715 08:57:42.627226  3638 net.cpp:205] Memory required for data: 740818944
I0715 08:57:42.627234  3638 layer_factory.hpp:123] Creating layer inception_4e/relu_5x5
I0715 08:57:42.627239  3638 net.cpp:140] Creating Layer inception_4e/relu_5x5
I0715 08:57:42.627243  3638 net.cpp:481] inception_4e/relu_5x5 <- inception_4e/5x5
I0715 08:57:42.627249  3638 net.cpp:442] inception_4e/relu_5x5 -> inception_4e/5x5 (in-place)
I0715 08:57:42.627254  3638 net.cpp:190] Setting up inception_4e/relu_5x5
I0715 08:57:42.627257  3638 net.cpp:197] Top shape: 1 128 32 64 (262144)
I0715 08:57:42.627260  3638 net.cpp:205] Memory required for data: 741867520
I0715 08:57:42.627264  3638 layer_factory.hpp:123] Creating layer inception_4e/pool
I0715 08:57:42.627269  3638 net.cpp:140] Creating Layer inception_4e/pool
I0715 08:57:42.627272  3638 net.cpp:481] inception_4e/pool <- inception_4d/output_inception_4d/output_0_split_3
I0715 08:57:42.627277  3638 net.cpp:455] inception_4e/pool -> inception_4e/pool
I0715 08:57:42.627312  3638 net.cpp:190] Setting up inception_4e/pool
I0715 08:57:42.627318  3638 net.cpp:197] Top shape: 1 528 32 64 (1081344)
I0715 08:57:42.627321  3638 net.cpp:205] Memory required for data: 746192896
I0715 08:57:42.627323  3638 layer_factory.hpp:123] Creating layer inception_4e/pool_proj
I0715 08:57:42.627332  3638 net.cpp:140] Creating Layer inception_4e/pool_proj
I0715 08:57:42.627336  3638 net.cpp:481] inception_4e/pool_proj <- inception_4e/pool
I0715 08:57:42.627341  3638 net.cpp:455] inception_4e/pool_proj -> inception_4e/pool_proj_raw
I0715 08:57:42.628160  3638 net.cpp:190] Setting up inception_4e/pool_proj
I0715 08:57:42.628170  3638 net.cpp:197] Top shape: 1 128 32 64 (262144)
I0715 08:57:42.628172  3638 net.cpp:205] Memory required for data: 747241472
I0715 08:57:42.628178  3638 layer_factory.hpp:123] Creating layer inception_4e/pool_proj_BatchNorm
I0715 08:57:42.628185  3638 net.cpp:140] Creating Layer inception_4e/pool_proj_BatchNorm
I0715 08:57:42.628188  3638 net.cpp:481] inception_4e/pool_proj_BatchNorm <- inception_4e/pool_proj_raw
I0715 08:57:42.628195  3638 net.cpp:455] inception_4e/pool_proj_BatchNorm -> inception_4e/pool_proj
I0715 08:57:42.628760  3638 net.cpp:190] Setting up inception_4e/pool_proj_BatchNorm
I0715 08:57:42.628768  3638 net.cpp:197] Top shape: 1 128 32 64 (262144)
I0715 08:57:42.628772  3638 net.cpp:205] Memory required for data: 748290048
I0715 08:57:42.628779  3638 layer_factory.hpp:123] Creating layer inception_4e/relu_pool_proj
I0715 08:57:42.628784  3638 net.cpp:140] Creating Layer inception_4e/relu_pool_proj
I0715 08:57:42.628787  3638 net.cpp:481] inception_4e/relu_pool_proj <- inception_4e/pool_proj
I0715 08:57:42.628793  3638 net.cpp:442] inception_4e/relu_pool_proj -> inception_4e/pool_proj (in-place)
I0715 08:57:42.628799  3638 net.cpp:190] Setting up inception_4e/relu_pool_proj
I0715 08:57:42.628803  3638 net.cpp:197] Top shape: 1 128 32 64 (262144)
I0715 08:57:42.628805  3638 net.cpp:205] Memory required for data: 749338624
I0715 08:57:42.628808  3638 layer_factory.hpp:123] Creating layer inception_4e/output
I0715 08:57:42.628813  3638 net.cpp:140] Creating Layer inception_4e/output
I0715 08:57:42.628816  3638 net.cpp:481] inception_4e/output <- inception_4e/1x1
I0715 08:57:42.628820  3638 net.cpp:481] inception_4e/output <- inception_4e/3x3
I0715 08:57:42.628824  3638 net.cpp:481] inception_4e/output <- inception_4e/5x5
I0715 08:57:42.628827  3638 net.cpp:481] inception_4e/output <- inception_4e/pool_proj
I0715 08:57:42.628831  3638 net.cpp:455] inception_4e/output -> inception_4e/output
I0715 08:57:42.628854  3638 net.cpp:190] Setting up inception_4e/output
I0715 08:57:42.628865  3638 net.cpp:197] Top shape: 1 832 32 64 (1703936)
I0715 08:57:42.628867  3638 net.cpp:205] Memory required for data: 756154368
I0715 08:57:42.628870  3638 layer_factory.hpp:123] Creating layer inception_4e/output_inception_4e/output_0_split
I0715 08:57:42.628875  3638 net.cpp:140] Creating Layer inception_4e/output_inception_4e/output_0_split
I0715 08:57:42.628878  3638 net.cpp:481] inception_4e/output_inception_4e/output_0_split <- inception_4e/output
I0715 08:57:42.628883  3638 net.cpp:455] inception_4e/output_inception_4e/output_0_split -> inception_4e/output_inception_4e/output_0_split_0
I0715 08:57:42.628890  3638 net.cpp:455] inception_4e/output_inception_4e/output_0_split -> inception_4e/output_inception_4e/output_0_split_1
I0715 08:57:42.628921  3638 net.cpp:190] Setting up inception_4e/output_inception_4e/output_0_split
I0715 08:57:42.628926  3638 net.cpp:197] Top shape: 1 832 32 64 (1703936)
I0715 08:57:42.628931  3638 net.cpp:197] Top shape: 1 832 32 64 (1703936)
I0715 08:57:42.628932  3638 net.cpp:205] Memory required for data: 769785856
I0715 08:57:42.628935  3638 layer_factory.hpp:123] Creating layer pool4/3x3_s2
I0715 08:57:42.628942  3638 net.cpp:140] Creating Layer pool4/3x3_s2
I0715 08:57:42.628944  3638 net.cpp:481] pool4/3x3_s2 <- inception_4e/output_inception_4e/output_0_split_0
I0715 08:57:42.628949  3638 net.cpp:455] pool4/3x3_s2 -> pool4/3x3_s2
I0715 08:57:42.628979  3638 net.cpp:190] Setting up pool4/3x3_s2
I0715 08:57:42.628985  3638 net.cpp:197] Top shape: 1 832 16 32 (425984)
I0715 08:57:42.628988  3638 net.cpp:205] Memory required for data: 771489792
I0715 08:57:42.628990  3638 layer_factory.hpp:123] Creating layer pool4/3x3_s2_pool4/3x3_s2_0_split
I0715 08:57:42.628995  3638 net.cpp:140] Creating Layer pool4/3x3_s2_pool4/3x3_s2_0_split
I0715 08:57:42.628999  3638 net.cpp:481] pool4/3x3_s2_pool4/3x3_s2_0_split <- pool4/3x3_s2
I0715 08:57:42.629004  3638 net.cpp:455] pool4/3x3_s2_pool4/3x3_s2_0_split -> pool4/3x3_s2_pool4/3x3_s2_0_split_0
I0715 08:57:42.629010  3638 net.cpp:455] pool4/3x3_s2_pool4/3x3_s2_0_split -> pool4/3x3_s2_pool4/3x3_s2_0_split_1
I0715 08:57:42.629015  3638 net.cpp:455] pool4/3x3_s2_pool4/3x3_s2_0_split -> pool4/3x3_s2_pool4/3x3_s2_0_split_2
I0715 08:57:42.629021  3638 net.cpp:455] pool4/3x3_s2_pool4/3x3_s2_0_split -> pool4/3x3_s2_pool4/3x3_s2_0_split_3
I0715 08:57:42.629071  3638 net.cpp:190] Setting up pool4/3x3_s2_pool4/3x3_s2_0_split
I0715 08:57:42.629076  3638 net.cpp:197] Top shape: 1 832 16 32 (425984)
I0715 08:57:42.629081  3638 net.cpp:197] Top shape: 1 832 16 32 (425984)
I0715 08:57:42.629084  3638 net.cpp:197] Top shape: 1 832 16 32 (425984)
I0715 08:57:42.629087  3638 net.cpp:197] Top shape: 1 832 16 32 (425984)
I0715 08:57:42.629091  3638 net.cpp:205] Memory required for data: 778305536
I0715 08:57:42.629093  3638 layer_factory.hpp:123] Creating layer inception_5a/1x1
I0715 08:57:42.629101  3638 net.cpp:140] Creating Layer inception_5a/1x1
I0715 08:57:42.629104  3638 net.cpp:481] inception_5a/1x1 <- pool4/3x3_s2_pool4/3x3_s2_0_split_0
I0715 08:57:42.629109  3638 net.cpp:455] inception_5a/1x1 -> inception_5a/1x1_raw
I0715 08:57:42.631942  3638 net.cpp:190] Setting up inception_5a/1x1
I0715 08:57:42.631954  3638 net.cpp:197] Top shape: 1 256 16 32 (131072)
I0715 08:57:42.631958  3638 net.cpp:205] Memory required for data: 778829824
I0715 08:57:42.631964  3638 layer_factory.hpp:123] Creating layer inception_5a/1x1_BatchNorm
I0715 08:57:42.631971  3638 net.cpp:140] Creating Layer inception_5a/1x1_BatchNorm
I0715 08:57:42.631975  3638 net.cpp:481] inception_5a/1x1_BatchNorm <- inception_5a/1x1_raw
I0715 08:57:42.631981  3638 net.cpp:455] inception_5a/1x1_BatchNorm -> inception_5a/1x1
I0715 08:57:42.632560  3638 net.cpp:190] Setting up inception_5a/1x1_BatchNorm
I0715 08:57:42.632567  3638 net.cpp:197] Top shape: 1 256 16 32 (131072)
I0715 08:57:42.632570  3638 net.cpp:205] Memory required for data: 779354112
I0715 08:57:42.632578  3638 layer_factory.hpp:123] Creating layer inception_5a/relu_1x1
I0715 08:57:42.632583  3638 net.cpp:140] Creating Layer inception_5a/relu_1x1
I0715 08:57:42.632587  3638 net.cpp:481] inception_5a/relu_1x1 <- inception_5a/1x1
I0715 08:57:42.632592  3638 net.cpp:442] inception_5a/relu_1x1 -> inception_5a/1x1 (in-place)
I0715 08:57:42.632598  3638 net.cpp:190] Setting up inception_5a/relu_1x1
I0715 08:57:42.632602  3638 net.cpp:197] Top shape: 1 256 16 32 (131072)
I0715 08:57:42.632606  3638 net.cpp:205] Memory required for data: 779878400
I0715 08:57:42.632608  3638 layer_factory.hpp:123] Creating layer inception_5a/3x3_reduce
I0715 08:57:42.632616  3638 net.cpp:140] Creating Layer inception_5a/3x3_reduce
I0715 08:57:42.632619  3638 net.cpp:481] inception_5a/3x3_reduce <- pool4/3x3_s2_pool4/3x3_s2_0_split_1
I0715 08:57:42.632624  3638 net.cpp:455] inception_5a/3x3_reduce -> inception_5a/3x3_reduce_raw
I0715 08:57:42.635396  3638 net.cpp:190] Setting up inception_5a/3x3_reduce
I0715 08:57:42.635407  3638 net.cpp:197] Top shape: 1 160 16 32 (81920)
I0715 08:57:42.635411  3638 net.cpp:205] Memory required for data: 780206080
I0715 08:57:42.635416  3638 layer_factory.hpp:123] Creating layer inception_5a/3x3_reduce_BatchNorm
I0715 08:57:42.635424  3638 net.cpp:140] Creating Layer inception_5a/3x3_reduce_BatchNorm
I0715 08:57:42.635428  3638 net.cpp:481] inception_5a/3x3_reduce_BatchNorm <- inception_5a/3x3_reduce_raw
I0715 08:57:42.635434  3638 net.cpp:455] inception_5a/3x3_reduce_BatchNorm -> inception_5a/3x3_reduce
I0715 08:57:42.636102  3638 net.cpp:190] Setting up inception_5a/3x3_reduce_BatchNorm
I0715 08:57:42.636112  3638 net.cpp:197] Top shape: 1 160 16 32 (81920)
I0715 08:57:42.636114  3638 net.cpp:205] Memory required for data: 780533760
I0715 08:57:42.636123  3638 layer_factory.hpp:123] Creating layer inception_5a/relu_3x3_reduce
I0715 08:57:42.636128  3638 net.cpp:140] Creating Layer inception_5a/relu_3x3_reduce
I0715 08:57:42.636133  3638 net.cpp:481] inception_5a/relu_3x3_reduce <- inception_5a/3x3_reduce
I0715 08:57:42.636138  3638 net.cpp:442] inception_5a/relu_3x3_reduce -> inception_5a/3x3_reduce (in-place)
I0715 08:57:42.636144  3638 net.cpp:190] Setting up inception_5a/relu_3x3_reduce
I0715 08:57:42.636148  3638 net.cpp:197] Top shape: 1 160 16 32 (81920)
I0715 08:57:42.636152  3638 net.cpp:205] Memory required for data: 780861440
I0715 08:57:42.636154  3638 layer_factory.hpp:123] Creating layer inception_5a/3x3
I0715 08:57:42.636162  3638 net.cpp:140] Creating Layer inception_5a/3x3
I0715 08:57:42.636165  3638 net.cpp:481] inception_5a/3x3 <- inception_5a/3x3_reduce
I0715 08:57:42.636170  3638 net.cpp:455] inception_5a/3x3 -> inception_5a/3x3_raw
I0715 08:57:42.641870  3638 net.cpp:190] Setting up inception_5a/3x3
I0715 08:57:42.641882  3638 net.cpp:197] Top shape: 1 320 16 32 (163840)
I0715 08:57:42.641885  3638 net.cpp:205] Memory required for data: 781516800
I0715 08:57:42.641891  3638 layer_factory.hpp:123] Creating layer inception_5a/3x3_BatchNorm
I0715 08:57:42.641899  3638 net.cpp:140] Creating Layer inception_5a/3x3_BatchNorm
I0715 08:57:42.641903  3638 net.cpp:481] inception_5a/3x3_BatchNorm <- inception_5a/3x3_raw
I0715 08:57:42.641909  3638 net.cpp:455] inception_5a/3x3_BatchNorm -> inception_5a/3x3
I0715 08:57:42.642546  3638 net.cpp:190] Setting up inception_5a/3x3_BatchNorm
I0715 08:57:42.642555  3638 net.cpp:197] Top shape: 1 320 16 32 (163840)
I0715 08:57:42.642557  3638 net.cpp:205] Memory required for data: 782172160
I0715 08:57:42.642566  3638 layer_factory.hpp:123] Creating layer inception_5a/relu_3x3
I0715 08:57:42.642572  3638 net.cpp:140] Creating Layer inception_5a/relu_3x3
I0715 08:57:42.642575  3638 net.cpp:481] inception_5a/relu_3x3 <- inception_5a/3x3
I0715 08:57:42.642580  3638 net.cpp:442] inception_5a/relu_3x3 -> inception_5a/3x3 (in-place)
I0715 08:57:42.642586  3638 net.cpp:190] Setting up inception_5a/relu_3x3
I0715 08:57:42.642590  3638 net.cpp:197] Top shape: 1 320 16 32 (163840)
I0715 08:57:42.642593  3638 net.cpp:205] Memory required for data: 782827520
I0715 08:57:42.642596  3638 layer_factory.hpp:123] Creating layer inception_5a/5x5_reduce
I0715 08:57:42.642603  3638 net.cpp:140] Creating Layer inception_5a/5x5_reduce
I0715 08:57:42.642607  3638 net.cpp:481] inception_5a/5x5_reduce <- pool4/3x3_s2_pool4/3x3_s2_0_split_2
I0715 08:57:42.642613  3638 net.cpp:455] inception_5a/5x5_reduce -> inception_5a/5x5_reduce_raw
I0715 08:57:42.643105  3638 net.cpp:190] Setting up inception_5a/5x5_reduce
I0715 08:57:42.643113  3638 net.cpp:197] Top shape: 1 32 16 32 (16384)
I0715 08:57:42.643116  3638 net.cpp:205] Memory required for data: 782893056
I0715 08:57:42.643121  3638 layer_factory.hpp:123] Creating layer inception_5a/5x5_reduce_BatchNorm
I0715 08:57:42.643128  3638 net.cpp:140] Creating Layer inception_5a/5x5_reduce_BatchNorm
I0715 08:57:42.643132  3638 net.cpp:481] inception_5a/5x5_reduce_BatchNorm <- inception_5a/5x5_reduce_raw
I0715 08:57:42.643138  3638 net.cpp:455] inception_5a/5x5_reduce_BatchNorm -> inception_5a/5x5_reduce
I0715 08:57:42.643818  3638 net.cpp:190] Setting up inception_5a/5x5_reduce_BatchNorm
I0715 08:57:42.643826  3638 net.cpp:197] Top shape: 1 32 16 32 (16384)
I0715 08:57:42.643829  3638 net.cpp:205] Memory required for data: 782958592
I0715 08:57:42.643838  3638 layer_factory.hpp:123] Creating layer inception_5a/relu_5x5_reduce
I0715 08:57:42.643844  3638 net.cpp:140] Creating Layer inception_5a/relu_5x5_reduce
I0715 08:57:42.643847  3638 net.cpp:481] inception_5a/relu_5x5_reduce <- inception_5a/5x5_reduce
I0715 08:57:42.643852  3638 net.cpp:442] inception_5a/relu_5x5_reduce -> inception_5a/5x5_reduce (in-place)
I0715 08:57:42.643858  3638 net.cpp:190] Setting up inception_5a/relu_5x5_reduce
I0715 08:57:42.643862  3638 net.cpp:197] Top shape: 1 32 16 32 (16384)
I0715 08:57:42.643865  3638 net.cpp:205] Memory required for data: 783024128
I0715 08:57:42.643868  3638 layer_factory.hpp:123] Creating layer inception_5a/5x5
I0715 08:57:42.643875  3638 net.cpp:140] Creating Layer inception_5a/5x5
I0715 08:57:42.643878  3638 net.cpp:481] inception_5a/5x5 <- inception_5a/5x5_reduce
I0715 08:57:42.643883  3638 net.cpp:455] inception_5a/5x5 -> inception_5a/5x5_raw
I0715 08:57:42.645037  3638 net.cpp:190] Setting up inception_5a/5x5
I0715 08:57:42.645047  3638 net.cpp:197] Top shape: 1 128 16 32 (65536)
I0715 08:57:42.645051  3638 net.cpp:205] Memory required for data: 783286272
I0715 08:57:42.645056  3638 layer_factory.hpp:123] Creating layer inception_5a/5x5_BatchNorm
I0715 08:57:42.645063  3638 net.cpp:140] Creating Layer inception_5a/5x5_BatchNorm
I0715 08:57:42.645067  3638 net.cpp:481] inception_5a/5x5_BatchNorm <- inception_5a/5x5_raw
I0715 08:57:42.645073  3638 net.cpp:455] inception_5a/5x5_BatchNorm -> inception_5a/5x5
I0715 08:57:42.645663  3638 net.cpp:190] Setting up inception_5a/5x5_BatchNorm
I0715 08:57:42.645671  3638 net.cpp:197] Top shape: 1 128 16 32 (65536)
I0715 08:57:42.645674  3638 net.cpp:205] Memory required for data: 783548416
I0715 08:57:42.645682  3638 layer_factory.hpp:123] Creating layer inception_5a/relu_5x5
I0715 08:57:42.645687  3638 net.cpp:140] Creating Layer inception_5a/relu_5x5
I0715 08:57:42.645690  3638 net.cpp:481] inception_5a/relu_5x5 <- inception_5a/5x5
I0715 08:57:42.645695  3638 net.cpp:442] inception_5a/relu_5x5 -> inception_5a/5x5 (in-place)
I0715 08:57:42.645702  3638 net.cpp:190] Setting up inception_5a/relu_5x5
I0715 08:57:42.645705  3638 net.cpp:197] Top shape: 1 128 16 32 (65536)
I0715 08:57:42.645709  3638 net.cpp:205] Memory required for data: 783810560
I0715 08:57:42.645711  3638 layer_factory.hpp:123] Creating layer inception_5a/pool
I0715 08:57:42.645717  3638 net.cpp:140] Creating Layer inception_5a/pool
I0715 08:57:42.645720  3638 net.cpp:481] inception_5a/pool <- pool4/3x3_s2_pool4/3x3_s2_0_split_3
I0715 08:57:42.645725  3638 net.cpp:455] inception_5a/pool -> inception_5a/pool
I0715 08:57:42.645761  3638 net.cpp:190] Setting up inception_5a/pool
I0715 08:57:42.645766  3638 net.cpp:197] Top shape: 1 832 16 32 (425984)
I0715 08:57:42.645769  3638 net.cpp:205] Memory required for data: 785514496
I0715 08:57:42.645772  3638 layer_factory.hpp:123] Creating layer inception_5a/pool_proj
I0715 08:57:42.645779  3638 net.cpp:140] Creating Layer inception_5a/pool_proj
I0715 08:57:42.645783  3638 net.cpp:481] inception_5a/pool_proj <- inception_5a/pool
I0715 08:57:42.645788  3638 net.cpp:455] inception_5a/pool_proj -> inception_5a/pool_proj_raw
I0715 08:57:42.647956  3638 net.cpp:190] Setting up inception_5a/pool_proj
I0715 08:57:42.647969  3638 net.cpp:197] Top shape: 1 128 16 32 (65536)
I0715 08:57:42.647972  3638 net.cpp:205] Memory required for data: 785776640
I0715 08:57:42.647979  3638 layer_factory.hpp:123] Creating layer inception_5a/pool_proj_BatchNorm
I0715 08:57:42.647985  3638 net.cpp:140] Creating Layer inception_5a/pool_proj_BatchNorm
I0715 08:57:42.647989  3638 net.cpp:481] inception_5a/pool_proj_BatchNorm <- inception_5a/pool_proj_raw
I0715 08:57:42.647995  3638 net.cpp:455] inception_5a/pool_proj_BatchNorm -> inception_5a/pool_proj
I0715 08:57:42.648589  3638 net.cpp:190] Setting up inception_5a/pool_proj_BatchNorm
I0715 08:57:42.648597  3638 net.cpp:197] Top shape: 1 128 16 32 (65536)
I0715 08:57:42.648600  3638 net.cpp:205] Memory required for data: 786038784
I0715 08:57:42.648608  3638 layer_factory.hpp:123] Creating layer inception_5a/relu_pool_proj
I0715 08:57:42.648614  3638 net.cpp:140] Creating Layer inception_5a/relu_pool_proj
I0715 08:57:42.648617  3638 net.cpp:481] inception_5a/relu_pool_proj <- inception_5a/pool_proj
I0715 08:57:42.648623  3638 net.cpp:442] inception_5a/relu_pool_proj -> inception_5a/pool_proj (in-place)
I0715 08:57:42.648629  3638 net.cpp:190] Setting up inception_5a/relu_pool_proj
I0715 08:57:42.648634  3638 net.cpp:197] Top shape: 1 128 16 32 (65536)
I0715 08:57:42.648636  3638 net.cpp:205] Memory required for data: 786300928
I0715 08:57:42.648640  3638 layer_factory.hpp:123] Creating layer inception_5a/output
I0715 08:57:42.648645  3638 net.cpp:140] Creating Layer inception_5a/output
I0715 08:57:42.648648  3638 net.cpp:481] inception_5a/output <- inception_5a/1x1
I0715 08:57:42.648653  3638 net.cpp:481] inception_5a/output <- inception_5a/3x3
I0715 08:57:42.648656  3638 net.cpp:481] inception_5a/output <- inception_5a/5x5
I0715 08:57:42.648659  3638 net.cpp:481] inception_5a/output <- inception_5a/pool_proj
I0715 08:57:42.648664  3638 net.cpp:455] inception_5a/output -> inception_5a/output
I0715 08:57:42.648687  3638 net.cpp:190] Setting up inception_5a/output
I0715 08:57:42.648692  3638 net.cpp:197] Top shape: 1 832 16 32 (425984)
I0715 08:57:42.648694  3638 net.cpp:205] Memory required for data: 788004864
I0715 08:57:42.648697  3638 layer_factory.hpp:123] Creating layer inception_5a/output_inception_5a/output_0_split
I0715 08:57:42.648703  3638 net.cpp:140] Creating Layer inception_5a/output_inception_5a/output_0_split
I0715 08:57:42.648707  3638 net.cpp:481] inception_5a/output_inception_5a/output_0_split <- inception_5a/output
I0715 08:57:42.648712  3638 net.cpp:455] inception_5a/output_inception_5a/output_0_split -> inception_5a/output_inception_5a/output_0_split_0
I0715 08:57:42.648720  3638 net.cpp:455] inception_5a/output_inception_5a/output_0_split -> inception_5a/output_inception_5a/output_0_split_1
I0715 08:57:42.648725  3638 net.cpp:455] inception_5a/output_inception_5a/output_0_split -> inception_5a/output_inception_5a/output_0_split_2
I0715 08:57:42.648731  3638 net.cpp:455] inception_5a/output_inception_5a/output_0_split -> inception_5a/output_inception_5a/output_0_split_3
I0715 08:57:42.648784  3638 net.cpp:190] Setting up inception_5a/output_inception_5a/output_0_split
I0715 08:57:42.648790  3638 net.cpp:197] Top shape: 1 832 16 32 (425984)
I0715 08:57:42.648794  3638 net.cpp:197] Top shape: 1 832 16 32 (425984)
I0715 08:57:42.648797  3638 net.cpp:197] Top shape: 1 832 16 32 (425984)
I0715 08:57:42.648802  3638 net.cpp:197] Top shape: 1 832 16 32 (425984)
I0715 08:57:42.648804  3638 net.cpp:205] Memory required for data: 794820608
I0715 08:57:42.648806  3638 layer_factory.hpp:123] Creating layer inception_5b/1x1
I0715 08:57:42.648814  3638 net.cpp:140] Creating Layer inception_5b/1x1
I0715 08:57:42.648818  3638 net.cpp:481] inception_5b/1x1 <- inception_5a/output_inception_5a/output_0_split_0
I0715 08:57:42.648823  3638 net.cpp:455] inception_5b/1x1 -> inception_5b/1x1_raw
I0715 08:57:42.652565  3638 net.cpp:190] Setting up inception_5b/1x1
I0715 08:57:42.652577  3638 net.cpp:197] Top shape: 1 384 16 32 (196608)
I0715 08:57:42.652580  3638 net.cpp:205] Memory required for data: 795607040
I0715 08:57:42.652586  3638 layer_factory.hpp:123] Creating layer inception_5b/1x1_BatchNorm
I0715 08:57:42.652595  3638 net.cpp:140] Creating Layer inception_5b/1x1_BatchNorm
I0715 08:57:42.652598  3638 net.cpp:481] inception_5b/1x1_BatchNorm <- inception_5b/1x1_raw
I0715 08:57:42.652606  3638 net.cpp:455] inception_5b/1x1_BatchNorm -> inception_5b/1x1
I0715 08:57:42.653172  3638 net.cpp:190] Setting up inception_5b/1x1_BatchNorm
I0715 08:57:42.653178  3638 net.cpp:197] Top shape: 1 384 16 32 (196608)
I0715 08:57:42.653182  3638 net.cpp:205] Memory required for data: 796393472
I0715 08:57:42.653190  3638 layer_factory.hpp:123] Creating layer inception_5b/relu_1x1
I0715 08:57:42.653195  3638 net.cpp:140] Creating Layer inception_5b/relu_1x1
I0715 08:57:42.653198  3638 net.cpp:481] inception_5b/relu_1x1 <- inception_5b/1x1
I0715 08:57:42.653204  3638 net.cpp:442] inception_5b/relu_1x1 -> inception_5b/1x1 (in-place)
I0715 08:57:42.653210  3638 net.cpp:190] Setting up inception_5b/relu_1x1
I0715 08:57:42.653214  3638 net.cpp:197] Top shape: 1 384 16 32 (196608)
I0715 08:57:42.653218  3638 net.cpp:205] Memory required for data: 797179904
I0715 08:57:42.653220  3638 layer_factory.hpp:123] Creating layer inception_5b/3x3_reduce
I0715 08:57:42.653228  3638 net.cpp:140] Creating Layer inception_5b/3x3_reduce
I0715 08:57:42.653231  3638 net.cpp:481] inception_5b/3x3_reduce <- inception_5a/output_inception_5a/output_0_split_1
I0715 08:57:42.653236  3638 net.cpp:455] inception_5b/3x3_reduce -> inception_5b/3x3_reduce_raw
I0715 08:57:42.655617  3638 net.cpp:190] Setting up inception_5b/3x3_reduce
I0715 08:57:42.655629  3638 net.cpp:197] Top shape: 1 192 16 32 (98304)
I0715 08:57:42.655632  3638 net.cpp:205] Memory required for data: 797573120
I0715 08:57:42.655638  3638 layer_factory.hpp:123] Creating layer inception_5b/3x3_reduce_BatchNorm
I0715 08:57:42.655647  3638 net.cpp:140] Creating Layer inception_5b/3x3_reduce_BatchNorm
I0715 08:57:42.655650  3638 net.cpp:481] inception_5b/3x3_reduce_BatchNorm <- inception_5b/3x3_reduce_raw
I0715 08:57:42.655656  3638 net.cpp:455] inception_5b/3x3_reduce_BatchNorm -> inception_5b/3x3_reduce
I0715 08:57:42.656339  3638 net.cpp:190] Setting up inception_5b/3x3_reduce_BatchNorm
I0715 08:57:42.656348  3638 net.cpp:197] Top shape: 1 192 16 32 (98304)
I0715 08:57:42.656352  3638 net.cpp:205] Memory required for data: 797966336
I0715 08:57:42.656360  3638 layer_factory.hpp:123] Creating layer inception_5b/relu_3x3_reduce
I0715 08:57:42.656365  3638 net.cpp:140] Creating Layer inception_5b/relu_3x3_reduce
I0715 08:57:42.656369  3638 net.cpp:481] inception_5b/relu_3x3_reduce <- inception_5b/3x3_reduce
I0715 08:57:42.656374  3638 net.cpp:442] inception_5b/relu_3x3_reduce -> inception_5b/3x3_reduce (in-place)
I0715 08:57:42.656380  3638 net.cpp:190] Setting up inception_5b/relu_3x3_reduce
I0715 08:57:42.656384  3638 net.cpp:197] Top shape: 1 192 16 32 (98304)
I0715 08:57:42.656388  3638 net.cpp:205] Memory required for data: 798359552
I0715 08:57:42.656390  3638 layer_factory.hpp:123] Creating layer inception_5b/3x3
I0715 08:57:42.656399  3638 net.cpp:140] Creating Layer inception_5b/3x3
I0715 08:57:42.656401  3638 net.cpp:481] inception_5b/3x3 <- inception_5b/3x3_reduce
I0715 08:57:42.656406  3638 net.cpp:455] inception_5b/3x3 -> inception_5b/3x3_raw
I0715 08:57:42.664172  3638 net.cpp:190] Setting up inception_5b/3x3
I0715 08:57:42.664186  3638 net.cpp:197] Top shape: 1 384 16 32 (196608)
I0715 08:57:42.664188  3638 net.cpp:205] Memory required for data: 799145984
I0715 08:57:42.664194  3638 layer_factory.hpp:123] Creating layer inception_5b/3x3_BatchNorm
I0715 08:57:42.664202  3638 net.cpp:140] Creating Layer inception_5b/3x3_BatchNorm
I0715 08:57:42.664206  3638 net.cpp:481] inception_5b/3x3_BatchNorm <- inception_5b/3x3_raw
I0715 08:57:42.664212  3638 net.cpp:455] inception_5b/3x3_BatchNorm -> inception_5b/3x3
I0715 08:57:42.664782  3638 net.cpp:190] Setting up inception_5b/3x3_BatchNorm
I0715 08:57:42.664789  3638 net.cpp:197] Top shape: 1 384 16 32 (196608)
I0715 08:57:42.664793  3638 net.cpp:205] Memory required for data: 799932416
I0715 08:57:42.664800  3638 layer_factory.hpp:123] Creating layer inception_5b/relu_3x3
I0715 08:57:42.664805  3638 net.cpp:140] Creating Layer inception_5b/relu_3x3
I0715 08:57:42.664809  3638 net.cpp:481] inception_5b/relu_3x3 <- inception_5b/3x3
I0715 08:57:42.664813  3638 net.cpp:442] inception_5b/relu_3x3 -> inception_5b/3x3 (in-place)
I0715 08:57:42.664820  3638 net.cpp:190] Setting up inception_5b/relu_3x3
I0715 08:57:42.664824  3638 net.cpp:197] Top shape: 1 384 16 32 (196608)
I0715 08:57:42.664829  3638 net.cpp:205] Memory required for data: 800718848
I0715 08:57:42.664830  3638 layer_factory.hpp:123] Creating layer inception_5b/5x5_reduce
I0715 08:57:42.664839  3638 net.cpp:140] Creating Layer inception_5b/5x5_reduce
I0715 08:57:42.664842  3638 net.cpp:481] inception_5b/5x5_reduce <- inception_5a/output_inception_5a/output_0_split_2
I0715 08:57:42.664847  3638 net.cpp:455] inception_5b/5x5_reduce -> inception_5b/5x5_reduce_raw
I0715 08:57:42.666206  3638 net.cpp:190] Setting up inception_5b/5x5_reduce
I0715 08:57:42.666219  3638 net.cpp:197] Top shape: 1 48 16 32 (24576)
I0715 08:57:42.666222  3638 net.cpp:205] Memory required for data: 800817152
I0715 08:57:42.666229  3638 layer_factory.hpp:123] Creating layer inception_5b/5x5_reduce_BatchNorm
I0715 08:57:42.666235  3638 net.cpp:140] Creating Layer inception_5b/5x5_reduce_BatchNorm
I0715 08:57:42.666239  3638 net.cpp:481] inception_5b/5x5_reduce_BatchNorm <- inception_5b/5x5_reduce_raw
I0715 08:57:42.666246  3638 net.cpp:455] inception_5b/5x5_reduce_BatchNorm -> inception_5b/5x5_reduce
I0715 08:57:42.666929  3638 net.cpp:190] Setting up inception_5b/5x5_reduce_BatchNorm
I0715 08:57:42.666936  3638 net.cpp:197] Top shape: 1 48 16 32 (24576)
I0715 08:57:42.666939  3638 net.cpp:205] Memory required for data: 800915456
I0715 08:57:42.666947  3638 layer_factory.hpp:123] Creating layer inception_5b/relu_5x5_reduce
I0715 08:57:42.666954  3638 net.cpp:140] Creating Layer inception_5b/relu_5x5_reduce
I0715 08:57:42.666956  3638 net.cpp:481] inception_5b/relu_5x5_reduce <- inception_5b/5x5_reduce
I0715 08:57:42.666961  3638 net.cpp:442] inception_5b/relu_5x5_reduce -> inception_5b/5x5_reduce (in-place)
I0715 08:57:42.666968  3638 net.cpp:190] Setting up inception_5b/relu_5x5_reduce
I0715 08:57:42.666973  3638 net.cpp:197] Top shape: 1 48 16 32 (24576)
I0715 08:57:42.666975  3638 net.cpp:205] Memory required for data: 801013760
I0715 08:57:42.666978  3638 layer_factory.hpp:123] Creating layer inception_5b/5x5
I0715 08:57:42.666986  3638 net.cpp:140] Creating Layer inception_5b/5x5
I0715 08:57:42.666990  3638 net.cpp:481] inception_5b/5x5 <- inception_5b/5x5_reduce
I0715 08:57:42.666996  3638 net.cpp:455] inception_5b/5x5 -> inception_5b/5x5_raw
I0715 08:57:42.668588  3638 net.cpp:190] Setting up inception_5b/5x5
I0715 08:57:42.668597  3638 net.cpp:197] Top shape: 1 128 16 32 (65536)
I0715 08:57:42.668601  3638 net.cpp:205] Memory required for data: 801275904
I0715 08:57:42.668606  3638 layer_factory.hpp:123] Creating layer inception_5b/5x5_BatchNorm
I0715 08:57:42.668613  3638 net.cpp:140] Creating Layer inception_5b/5x5_BatchNorm
I0715 08:57:42.668617  3638 net.cpp:481] inception_5b/5x5_BatchNorm <- inception_5b/5x5_raw
I0715 08:57:42.668623  3638 net.cpp:455] inception_5b/5x5_BatchNorm -> inception_5b/5x5
I0715 08:57:42.669209  3638 net.cpp:190] Setting up inception_5b/5x5_BatchNorm
I0715 08:57:42.669216  3638 net.cpp:197] Top shape: 1 128 16 32 (65536)
I0715 08:57:42.669219  3638 net.cpp:205] Memory required for data: 801538048
I0715 08:57:42.669227  3638 layer_factory.hpp:123] Creating layer inception_5b/relu_5x5
I0715 08:57:42.669234  3638 net.cpp:140] Creating Layer inception_5b/relu_5x5
I0715 08:57:42.669236  3638 net.cpp:481] inception_5b/relu_5x5 <- inception_5b/5x5
I0715 08:57:42.669241  3638 net.cpp:442] inception_5b/relu_5x5 -> inception_5b/5x5 (in-place)
I0715 08:57:42.669247  3638 net.cpp:190] Setting up inception_5b/relu_5x5
I0715 08:57:42.669251  3638 net.cpp:197] Top shape: 1 128 16 32 (65536)
I0715 08:57:42.669255  3638 net.cpp:205] Memory required for data: 801800192
I0715 08:57:42.669257  3638 layer_factory.hpp:123] Creating layer inception_5b/pool
I0715 08:57:42.669263  3638 net.cpp:140] Creating Layer inception_5b/pool
I0715 08:57:42.669266  3638 net.cpp:481] inception_5b/pool <- inception_5a/output_inception_5a/output_0_split_3
I0715 08:57:42.669271  3638 net.cpp:455] inception_5b/pool -> inception_5b/pool
I0715 08:57:42.669307  3638 net.cpp:190] Setting up inception_5b/pool
I0715 08:57:42.669313  3638 net.cpp:197] Top shape: 1 832 16 32 (425984)
I0715 08:57:42.669317  3638 net.cpp:205] Memory required for data: 803504128
I0715 08:57:42.669319  3638 layer_factory.hpp:123] Creating layer inception_5b/pool_proj
I0715 08:57:42.669327  3638 net.cpp:140] Creating Layer inception_5b/pool_proj
I0715 08:57:42.669332  3638 net.cpp:481] inception_5b/pool_proj <- inception_5b/pool
I0715 08:57:42.669337  3638 net.cpp:455] inception_5b/pool_proj -> inception_5b/pool_proj_raw
I0715 08:57:42.671254  3638 net.cpp:190] Setting up inception_5b/pool_proj
I0715 08:57:42.671267  3638 net.cpp:197] Top shape: 1 128 16 32 (65536)
I0715 08:57:42.671269  3638 net.cpp:205] Memory required for data: 803766272
I0715 08:57:42.671275  3638 layer_factory.hpp:123] Creating layer inception_5b/pool_proj_BatchNorm
I0715 08:57:42.671283  3638 net.cpp:140] Creating Layer inception_5b/pool_proj_BatchNorm
I0715 08:57:42.671288  3638 net.cpp:481] inception_5b/pool_proj_BatchNorm <- inception_5b/pool_proj_raw
I0715 08:57:42.671293  3638 net.cpp:455] inception_5b/pool_proj_BatchNorm -> inception_5b/pool_proj
I0715 08:57:42.671901  3638 net.cpp:190] Setting up inception_5b/pool_proj_BatchNorm
I0715 08:57:42.671910  3638 net.cpp:197] Top shape: 1 128 16 32 (65536)
I0715 08:57:42.671913  3638 net.cpp:205] Memory required for data: 804028416
I0715 08:57:42.671921  3638 layer_factory.hpp:123] Creating layer inception_5b/relu_pool_proj
I0715 08:57:42.671926  3638 net.cpp:140] Creating Layer inception_5b/relu_pool_proj
I0715 08:57:42.671931  3638 net.cpp:481] inception_5b/relu_pool_proj <- inception_5b/pool_proj
I0715 08:57:42.671936  3638 net.cpp:442] inception_5b/relu_pool_proj -> inception_5b/pool_proj (in-place)
I0715 08:57:42.671941  3638 net.cpp:190] Setting up inception_5b/relu_pool_proj
I0715 08:57:42.671945  3638 net.cpp:197] Top shape: 1 128 16 32 (65536)
I0715 08:57:42.671948  3638 net.cpp:205] Memory required for data: 804290560
I0715 08:57:42.671952  3638 layer_factory.hpp:123] Creating layer inception_5b/output
I0715 08:57:42.671957  3638 net.cpp:140] Creating Layer inception_5b/output
I0715 08:57:42.671960  3638 net.cpp:481] inception_5b/output <- inception_5b/1x1
I0715 08:57:42.671963  3638 net.cpp:481] inception_5b/output <- inception_5b/3x3
I0715 08:57:42.671968  3638 net.cpp:481] inception_5b/output <- inception_5b/5x5
I0715 08:57:42.671972  3638 net.cpp:481] inception_5b/output <- inception_5b/pool_proj
I0715 08:57:42.671977  3638 net.cpp:455] inception_5b/output -> inception_5b/output
I0715 08:57:42.671999  3638 net.cpp:190] Setting up inception_5b/output
I0715 08:57:42.672004  3638 net.cpp:197] Top shape: 1 1024 16 32 (524288)
I0715 08:57:42.672008  3638 net.cpp:205] Memory required for data: 806387712
I0715 08:57:42.672010  3638 layer_factory.hpp:123] Creating layer p5
I0715 08:57:42.672019  3638 net.cpp:140] Creating Layer p5
I0715 08:57:42.672022  3638 net.cpp:481] p5 <- inception_5b/output
I0715 08:57:42.672027  3638 net.cpp:455] p5 -> p5
I0715 08:57:42.672572  3638 net.cpp:190] Setting up p5
I0715 08:57:42.672580  3638 net.cpp:197] Top shape: 1 32 16 32 (16384)
I0715 08:57:42.672583  3638 net.cpp:205] Memory required for data: 806453248
I0715 08:57:42.672588  3638 layer_factory.hpp:123] Creating layer latlayer_4f
I0715 08:57:42.672596  3638 net.cpp:140] Creating Layer latlayer_4f
I0715 08:57:42.672600  3638 net.cpp:481] latlayer_4f <- inception_4e/output_inception_4e/output_0_split_1
I0715 08:57:42.672606  3638 net.cpp:455] latlayer_4f -> latlayer_4f
I0715 08:57:42.673089  3638 net.cpp:190] Setting up latlayer_4f
I0715 08:57:42.673096  3638 net.cpp:197] Top shape: 1 32 32 64 (65536)
I0715 08:57:42.673099  3638 net.cpp:205] Memory required for data: 806715392
I0715 08:57:42.673105  3638 layer_factory.hpp:123] Creating layer upsample_p5
I0715 08:57:42.673111  3638 net.cpp:140] Creating Layer upsample_p5
I0715 08:57:42.673115  3638 net.cpp:481] upsample_p5 <- p5
I0715 08:57:42.673121  3638 net.cpp:455] upsample_p5 -> upsample_p5
I0715 08:57:42.673454  3638 net.cpp:190] Setting up upsample_p5
I0715 08:57:42.673460  3638 net.cpp:197] Top shape: 1 32 32 64 (65536)
I0715 08:57:42.673463  3638 net.cpp:205] Memory required for data: 806977536
I0715 08:57:42.673467  3638 layer_factory.hpp:123] Creating layer add_p4
I0715 08:57:42.673473  3638 net.cpp:140] Creating Layer add_p4
I0715 08:57:42.673477  3638 net.cpp:481] add_p4 <- upsample_p5
I0715 08:57:42.673480  3638 net.cpp:481] add_p4 <- latlayer_4f
I0715 08:57:42.673485  3638 net.cpp:455] add_p4 -> add_p4
I0715 08:57:42.673508  3638 net.cpp:190] Setting up add_p4
I0715 08:57:42.673512  3638 net.cpp:197] Top shape: 1 32 32 64 (65536)
I0715 08:57:42.673516  3638 net.cpp:205] Memory required for data: 807239680
I0715 08:57:42.673518  3638 layer_factory.hpp:123] Creating layer toplayer_p4
I0715 08:57:42.673525  3638 net.cpp:140] Creating Layer toplayer_p4
I0715 08:57:42.673528  3638 net.cpp:481] toplayer_p4 <- add_p4
I0715 08:57:42.673533  3638 net.cpp:455] toplayer_p4 -> p4
I0715 08:57:42.673866  3638 net.cpp:190] Setting up toplayer_p4
I0715 08:57:42.673873  3638 net.cpp:197] Top shape: 1 32 32 64 (65536)
I0715 08:57:42.673877  3638 net.cpp:205] Memory required for data: 807501824
I0715 08:57:42.673882  3638 layer_factory.hpp:123] Creating layer latlayer_3d
I0715 08:57:42.673888  3638 net.cpp:140] Creating Layer latlayer_3d
I0715 08:57:42.673893  3638 net.cpp:481] latlayer_3d <- inception_3b/output_inception_3b/output_0_split_1
I0715 08:57:42.673898  3638 net.cpp:455] latlayer_3d -> latlayer_3d
I0715 08:57:42.674288  3638 net.cpp:190] Setting up latlayer_3d
I0715 08:57:42.674295  3638 net.cpp:197] Top shape: 1 32 64 128 (262144)
I0715 08:57:42.674299  3638 net.cpp:205] Memory required for data: 808550400
I0715 08:57:42.674304  3638 layer_factory.hpp:123] Creating layer upsample_p4
I0715 08:57:42.674309  3638 net.cpp:140] Creating Layer upsample_p4
I0715 08:57:42.674312  3638 net.cpp:481] upsample_p4 <- p4
I0715 08:57:42.674317  3638 net.cpp:455] upsample_p4 -> upsample_p4
I0715 08:57:42.675397  3638 net.cpp:190] Setting up upsample_p4
I0715 08:57:42.675410  3638 net.cpp:197] Top shape: 1 32 64 128 (262144)
I0715 08:57:42.675412  3638 net.cpp:205] Memory required for data: 809598976
I0715 08:57:42.675417  3638 layer_factory.hpp:123] Creating layer add_p3
I0715 08:57:42.675423  3638 net.cpp:140] Creating Layer add_p3
I0715 08:57:42.675426  3638 net.cpp:481] add_p3 <- upsample_p4
I0715 08:57:42.675431  3638 net.cpp:481] add_p3 <- latlayer_3d
I0715 08:57:42.675436  3638 net.cpp:455] add_p3 -> add_p3
I0715 08:57:42.675460  3638 net.cpp:190] Setting up add_p3
I0715 08:57:42.675465  3638 net.cpp:197] Top shape: 1 32 64 128 (262144)
I0715 08:57:42.675468  3638 net.cpp:205] Memory required for data: 810647552
I0715 08:57:42.675472  3638 layer_factory.hpp:123] Creating layer toplayer_p3
I0715 08:57:42.675478  3638 net.cpp:140] Creating Layer toplayer_p3
I0715 08:57:42.675482  3638 net.cpp:481] toplayer_p3 <- add_p3
I0715 08:57:42.675487  3638 net.cpp:455] toplayer_p3 -> p3
I0715 08:57:42.675824  3638 net.cpp:190] Setting up toplayer_p3
I0715 08:57:42.675833  3638 net.cpp:197] Top shape: 1 32 64 128 (262144)
I0715 08:57:42.675837  3638 net.cpp:205] Memory required for data: 811696128
I0715 08:57:42.675842  3638 layer_factory.hpp:123] Creating layer latlayer_2c
I0715 08:57:42.675849  3638 net.cpp:140] Creating Layer latlayer_2c
I0715 08:57:42.675853  3638 net.cpp:481] latlayer_2c <- conv2/3x3_conv2/relu_3x3_0_split_1
I0715 08:57:42.675858  3638 net.cpp:455] latlayer_2c -> latlayer_2c
I0715 08:57:42.676172  3638 net.cpp:190] Setting up latlayer_2c
I0715 08:57:42.676179  3638 net.cpp:197] Top shape: 1 32 128 256 (1048576)
I0715 08:57:42.676182  3638 net.cpp:205] Memory required for data: 815890432
I0715 08:57:42.676187  3638 layer_factory.hpp:123] Creating layer upsample_p3
I0715 08:57:42.676192  3638 net.cpp:140] Creating Layer upsample_p3
I0715 08:57:42.676196  3638 net.cpp:481] upsample_p3 <- p3
I0715 08:57:42.676201  3638 net.cpp:455] upsample_p3 -> upsample_p3
I0715 08:57:42.676527  3638 net.cpp:190] Setting up upsample_p3
I0715 08:57:42.676533  3638 net.cpp:197] Top shape: 1 32 128 256 (1048576)
I0715 08:57:42.676537  3638 net.cpp:205] Memory required for data: 820084736
I0715 08:57:42.676542  3638 layer_factory.hpp:123] Creating layer add_p2
I0715 08:57:42.676546  3638 net.cpp:140] Creating Layer add_p2
I0715 08:57:42.676549  3638 net.cpp:481] add_p2 <- upsample_p3
I0715 08:57:42.676553  3638 net.cpp:481] add_p2 <- latlayer_2c
I0715 08:57:42.676558  3638 net.cpp:455] add_p2 -> add_p2
I0715 08:57:42.676579  3638 net.cpp:190] Setting up add_p2
I0715 08:57:42.676584  3638 net.cpp:197] Top shape: 1 32 128 256 (1048576)
I0715 08:57:42.676587  3638 net.cpp:205] Memory required for data: 824279040
I0715 08:57:42.676589  3638 layer_factory.hpp:123] Creating layer toplayer_p2
I0715 08:57:42.676595  3638 net.cpp:140] Creating Layer toplayer_p2
I0715 08:57:42.676599  3638 net.cpp:481] toplayer_p2 <- add_p2
I0715 08:57:42.676604  3638 net.cpp:455] toplayer_p2 -> pred
I0715 08:57:42.677942  3638 net.cpp:190] Setting up toplayer_p2
I0715 08:57:42.677953  3638 net.cpp:197] Top shape: 1 19 512 1024 (9961472)
I0715 08:57:42.677956  3638 net.cpp:205] Memory required for data: 864124928
I0715 08:57:42.677963  3638 layer_factory.hpp:123] Creating layer score
I0715 08:57:42.677968  3638 net.cpp:140] Creating Layer score
I0715 08:57:42.677973  3638 net.cpp:481] score <- pred
I0715 08:57:42.677976  3638 net.cpp:455] score -> score
I0715 08:57:42.678050  3638 net.cpp:190] Setting up score
I0715 08:57:42.678056  3638 net.cpp:197] Top shape: 1 19 512 1024 (9961472)
I0715 08:57:42.678059  3638 net.cpp:205] Memory required for data: 903970816
I0715 08:57:42.678062  3638 layer_factory.hpp:123] Creating layer accuracy
I0715 08:57:42.678089  3638 net.cpp:140] Creating Layer accuracy
I0715 08:57:42.678094  3638 net.cpp:481] accuracy <- score
I0715 08:57:42.678099  3638 net.cpp:481] accuracy <- label
I0715 08:57:42.678104  3638 net.cpp:455] accuracy -> segmentation_eval
I0715 08:57:42.678130  3638 net.cpp:190] Setting up accuracy
I0715 08:57:42.678136  3638 net.cpp:197] Top shape: 3 19 (57)
I0715 08:57:42.678140  3638 net.cpp:205] Memory required for data: 903971044
I0715 08:57:42.678143  3638 net.cpp:268] accuracy does not need backward computation.
I0715 08:57:42.678151  3638 net.cpp:268] score does not need backward computation.
I0715 08:57:42.678155  3638 net.cpp:268] toplayer_p2 does not need backward computation.
I0715 08:57:42.678158  3638 net.cpp:268] add_p2 does not need backward computation.
…
