…
I0715 09:07:27.315495  3944 net.cpp:98] Initializing net from parameters: 
state {
  phase: TRAIN
}
layer {
  name: "data"
  type: "ImageData"
  top: "data"
  top: "label"
  include {
    phase: TRAIN
  }
  transform_param {
    scale: 0.022
    mean_value: 73
    mean_value: 82
    mean_value: 72
    resize_param {
      prob: 1
      resize_mode: WARP
      height: 512
      width: 1024
    }
  }
  image_data_param {
    source: "../data/cityscapes/calibration.txt"
    batch_size: 1
    shuffle: true
    new_height: 512
    new_width: 1024
    root_folder: "../data/cityscapes/calibration_images/"
  }
}
layer {
  name: "conv1/7x7_s2"
  type: "Convolution"
  bottom: "data"
  top: "conv1/7x7_s2_raw"
  param {
    lr_mult: 1
    decay_mult: 1
  }
  convolution_param {
    num_output: 64
    pad: 3
    kernel_size: 7
    stride: 2
    weight_filler {
      type: "msra"
    }
    bias_filler {
      type: "constant"
      value: 0.2
    }
  }
}
layer {
  name: "conv1/7x7_s2_BatchNorm"
  type: "BatchNorm"
  bottom: "conv1/7x7_s2_raw"
  top: "conv1/7x7_s2"
  param {
    lr_mult: 1
    decay_mult: 0
  }
  param {
    lr_mult: 1
    decay_mult: 0
  }
  param {
    lr_mult: 0
    decay_mult: 0
  }
  param {
    lr_mult: 0
    decay_mult: 0
  }
  batch_norm_param {
    use_global_stats: false
    eps: 1e-05
    scale_filler {
      type: "constant"
      value: 1
    }
    bias_filler {
      type: "constant"
      value: 0
    }
  }
}
layer {
  name: "conv1/relu_7x7"
  type: "ReLU"
  bottom: "conv1/7x7_s2"
  top: "conv1/7x7_s2"
}
layer {
  name: "pool1/3x3_s2"
  type: "Pooling"
  bottom: "conv1/7x7_s2"
  top: "pool1/3x3_s2"
  pooling_param {
    pool: MAX
    kernel_size: 3
    stride: 2
  }
}
layer {
  name: "conv2/3x3_reduce"
  type: "Convolution"
  bottom: "pool1/3x3_s2"
  top: "conv2/3x3_reduce_raw"
  param {
    lr_mult: 1
    decay_mult: 1
  }
  convolution_param {
    num_output: 64
    kernel_size: 1
    weight_filler {
      type: "msra"
    }
    bias_filler {
      type: "constant"
      value: 0.2
    }
  }
}
layer {
  name: "conv2/3x3_reduce_BatchNorm"
  type: "BatchNorm"
  bottom: "conv2/3x3_reduce_raw"
  top: "conv2/3x3_reduce"
  param {
    lr_mult: 1
    decay_mult: 0
  }
  param {
    lr_mult: 1
    decay_mult: 0
  }
  param {
    lr_mult: 0
    decay_mult: 0
  }
  param {
    lr_mult: 0
    decay_mult: 0
  }
  batch_norm_param {
    use_global_stats: false
    eps: 1e-05
    scale_filler {
      type: "constant"
      value: 1
    }
    bias_filler {
      type: "constant"
      value: 0
    }
  }
}
layer {
  name: "conv2/relu_3x3_reduce"
  type: "ReLU"
  bottom: "conv2/3x3_reduce"
  top: "conv2/3x3_reduce"
}
layer {
  name: "conv2/3x3"
  type: "Convolution"
  bottom: "conv2/3x3_reduce"
  top: "conv2/3x3_raw"
  param {
    lr_mult: 1
    decay_mult: 1
  }
  convolution_param {
    num_output: 192
    pad: 1
    kernel_size: 3
    weight_filler {
      type: "msra"
    }
    bias_filler {
      type: "constant"
      value: 0.2
    }
  }
}
layer {
  name: "conv2/3x3_BatchNorm"
  type: "BatchNorm"
  bottom: "conv2/3x3_raw"
  top: "conv2/3x3"
  param {
    lr_mult: 1
    decay_mult: 0
  }
  param {
    lr_mult: 1
    decay_mult: 0
  }
  param {
    lr_mult: 0
    decay_mult: 0
  }
  param {
    lr_mult: 0
    decay_mult: 0
  }
  batch_norm_param {
    use_global_stats: false
    eps: 1e-05
    scale_filler {
      type: "constant"
      value: 1
    }
    bias_filler {
      type: "constant"
      value: 0
    }
  }
}
layer {
  name: "conv2/relu_3x3"
  type: "ReLU"
  bottom: "conv2/3x3"
  top: "conv2/3x3"
}
layer {
  name: "pool2/3x3_s2"
  type: "Pooling"
  bottom: "conv2/3x3"
  top: "pool2/3x3_s2"
  pooling_param {
    pool: MAX
    kernel_size: 3
    stride: 2
  }
}
layer {
  name: "inception_3a/1x1"
  type: "Convolution"
  bottom: "pool2/3x3_s2"
  top: "inception_3a/1x1_raw"
  param {
    lr_mult: 1
    decay_mult: 1
  }
  convolution_param {
    num_output: 64
    kernel_size: 1
    weight_filler {
      type: "msra"
    }
    bias_filler {
      type: "constant"
      value: 0.2
    }
  }
}
layer {
  name: "inception_3a/1x1_BatchNorm"
  type: "BatchNorm"
  bottom: "inception_3a/1x1_raw"
  top: "inception_3a/1x1"
  param {
    lr_mult: 1
    decay_mult: 0
  }
  param {
    lr_mult: 1
    decay_mult: 0
  }
  param {
    lr_mult: 0
    decay_mult: 0
  }
  param {
    lr_mult: 0
    decay_mult: 0
  }
  batch_norm_param {
    use_global_stats: false
    eps: 1e-05
    scale_filler {
      type: "constant"
      value: 1
    }
    bias_filler {
      type: "constant"
      value: 0
    }
  }
}
layer {
  name: "inception_3a/relu_1x1"
  type: "ReLU"
  bottom: "inception_3a/1x1"
  top: "inception_3a/1x1"
}
layer {
  name: "inception_3a/3x3_reduce"
  type: "Convolution"
  bottom: "pool2/3x3_s2"
  top: "inception_3a/3x3_reduce_raw"
  param {
    lr_mult: 1
    decay_mult: 1
  }
  convolution_param {
    num_output: 96
    kernel_size: 1
    weight_filler {
      type: "msra"
    }
    bias_filler {
      type: "constant"
      value: 0.2
    }
  }
}
layer {
  name: "inception_3a/3x3_reduce_BatchNorm"
  type: "BatchNorm"
  bottom: "inception_3a/3x3_reduce_raw"
  top: "inception_3a/3x3_reduce"
  param {
    lr_mult: 1
    decay_mult: 0
  }
  param {
    lr_mult: 1
    decay_mult: 0
  }
  param {
    lr_mult: 0
    decay_mult: 0
  }
  param {
    lr_mult: 0
    decay_mult: 0
  }
  batch_norm_param {
    use_global_stats: false
    eps: 1e-05
    scale_filler {
      type: "constant"
      value: 1
    }
    bias_filler {
      type: "constant"
      value: 0
    }
  }
}
layer {
  name: "inception_3a/relu_3x3_reduce"
  type: "ReLU"
  bottom: "inception_3a/3x3_reduce"
  top: "inception_3a/3x3_reduce"
}
layer {
  name: "inception_3a/3x3"
  type: "Convolution"
  bottom: "inception_3a/3x3_reduce"
  top: "inception_3a/3x3_raw"
  param {
    lr_mult: 1
    decay_mult: 1
  }
  convolution_param {
    num_output: 128
    pad: 1
    kernel_size: 3
    weight_filler {
      type: "msra"
    }
    bias_filler {
      type: "constant"
      value: 0.2
    }
  }
}
layer {
  name: "inception_3a/3x3_BatchNorm"
  type: "BatchNorm"
  bottom: "inception_3a/3x3_raw"
  top: "inception_3a/3x3"
  param {
    lr_mult: 1
    decay_mult: 0
  }
  param {
    lr_mult: 1
    decay_mult: 0
  }
  param {
    lr_mult: 0
    decay_mult: 0
  }
  param {
    lr_mult: 0
    decay_mult: 0
  }
  batch_norm_param {
    use_global_stats: false
    eps: 1e-05
    scale_filler {
      type: "constant"
      value: 1
    }
    bias_filler {
      type: "constant"
      value: 0
    }
  }
}
layer {
  name: "inception_3a/relu_3x3"
  type: "ReLU"
  bottom: "inception_3a/3x3"
  top: "inception_3a/3x3"
}
layer {
  name: "inception_3a/5x5_reduce"
  type: "Convolution"
  bottom: "pool2/3x3_s2"
  top: "inception_3a/5x5_reduce_raw"
  param {
    lr_mult: 1
    decay_mult: 1
  }
  convolution_param {
    num_output: 16
    kernel_size: 1
    weight_filler {
      type: "msra"
    }
    bias_filler {
      type: "constant"
      value: 0.2
    }
  }
}
layer {
  name: "inception_3a/5x5_reduce_BatchNorm"
  type: "BatchNorm"
  bottom: "inception_3a/5x5_reduce_raw"
  top: "inception_3a/5x5_reduce"
  param {
    lr_mult: 1
    decay_mult: 0
  }
  param {
    lr_mult: 1
    decay_mult: 0
  }
  param {
    lr_mult: 0
    decay_mult: 0
  }
  param {
    lr_mult: 0
    decay_mult: 0
  }
  batch_norm_param {
    use_global_stats: false
    eps: 1e-05
    scale_filler {
      type: "constant"
      value: 1
    }
    bias_filler {
      type: "constant"
      value: 0
    }
  }
}
layer {
  name: "inception_3a/relu_5x5_reduce"
  type: "ReLU"
  bottom: "inception_3a/5x5_reduce"
  top: "inception_3a/5x5_reduce"
}
layer {
  name: "inception_3a/5x5"
  type: "Convolution"
  bottom: "inception_3a/5x5_reduce"
  top: "inception_3a/5x5_raw"
  param {
    lr_mult: 1
    decay_mult: 1
  }
  convolution_param {
    num_output: 32
    pad: 2
    kernel_size: 5
    weight_filler {
      type: "msra"
    }
    bias_filler {
      type: "constant"
      value: 0.2
    }
  }
}
layer {
  name: "inception_3a/5x5_BatchNorm"
  type: "BatchNorm"
  bottom: "inception_3a/5x5_raw"
  top: "inception_3a/5x5"
  param {
    lr_mult: 1
    decay_mult: 0
  }
  param {
    lr_mult: 1
    decay_mult: 0
  }
  param {
    lr_mult: 0
    decay_mult: 0
  }
  param {
    lr_mult: 0
    decay_mult: 0
  }
  batch_norm_param {
    use_global_stats: false
    eps: 1e-05
    scale_filler {
      type: "constant"
      value: 1
    }
    bias_filler {
      type: "constant"
      value: 0
    }
  }
}
layer {
  name: "inception_3a/relu_5x5"
  type: "ReLU"
  bottom: "inception_3a/5x5"
  top: "inception_3a/5x5"
}
layer {
  name: "inception_3a/pool"
  type: "Pooling"
  bottom: "pool2/3x3_s2"
  top: "inception_3a/pool"
  pooling_param {
    pool: MAX
    kernel_size: 3
    stride: 1
    pad: 1
  }
}
layer {
  name: "inception_3a/pool_proj"
  type: "Convolution"
  bottom: "inception_3a/pool"
  top: "inception_3a/pool_proj_raw"
  param {
    lr_mult: 1
    decay_mult: 1
  }
  convolution_param {
    num_output: 32
    kernel_size: 1
    weight_filler {
      type: "msra"
    }
    bias_filler {
      type: "constant"
      value: 0.2
    }
  }
}
layer {
  name: "inception_3a/pool_proj_BatchNorm"
  type: "BatchNorm"
  bottom: "inception_3a/pool_proj_raw"
  top: "inception_3a/pool_proj"
  param {
    lr_mult: 1
    decay_mult: 0
  }
  param {
    lr_mult: 1
    decay_mult: 0
  }
  param {
    lr_mult: 0
    decay_mult: 0
  }
  param {
    lr_mult: 0
    decay_mult: 0
  }
  batch_norm_param {
    use_global_stats: false
    eps: 1e-05
    scale_filler {
      type: "constant"
      value: 1
    }
    bias_filler {
      type: "constant"
      value: 0
    }
  }
}
layer {
  name: "inception_3a/relu_pool_proj"
  type: "ReLU"
  bottom: "inception_3a/pool_proj"
  top: "inception_3a/pool_proj"
}
layer {
  name: "inception_3a/output"
  type: "Concat"
  bottom: "inception_3a/1x1"
  bottom: "inception_3a/3x3"
  bottom: "inception_3a/5x5"
  bottom: "inception_3a/pool_proj"
  top: "inception_3a/output"
}
layer {
  name: "inception_3b/1x1"
  type: "Convolution"
  bottom: "inception_3a/output"
  top: "inception_3b/1x1_raw"
  param {
    lr_mult: 1
    decay_mult: 1
  }
  convolution_param {
    num_output: 128
    kernel_size: 1
    weight_filler {
      type: "msra"
    }
    bias_filler {
      type: "constant"
      value: 0.2
    }
  }
}
layer {
  name: "inception_3b/1x1_BatchNorm"
  type: "BatchNorm"
  bottom: "inception_3b/1x1_raw"
  top: "inception_3b/1x1"
  param {
    lr_mult: 1
    decay_mult: 0
  }
  param {
    lr_mult: 1
    decay_mult: 0
  }
  param {
    lr_mult: 0
    decay_mult: 0
  }
  param {
    lr_mult: 0
    decay_mult: 0
  }
  batch_norm_param {
    use_global_stats: false
    eps: 1e-05
    scale_filler {
      type: "constant"
      value: 1
    }
    bias_filler {
      type: "constant"
      value: 0
    }
  }
}
layer {
  name: "inception_3b/relu_1x1"
  type: "ReLU"
  bottom: "inception_3b/1x1"
  top: "inception_3b/1x1"
}
layer {
  name: "inception_3b/3x3_reduce"
  type: "Convolution"
  bottom: "inception_3a/output"
  top: "inception_3b/3x3_reduce_raw"
  param {
    lr_mult: 1
    decay_mult: 1
  }
  convolution_param {
    num_output: 128
    kernel_size: 1
    weight_filler {
      type: "msra"
    }
    bias_filler {
      type: "constant"
      value: 0.2
    }
  }
}
layer {
  name: "inception_3b/3x3_reduce_BatchNorm"
  type: "BatchNorm"
  bottom: "inception_3b/3x3_reduce_raw"
  top: "inception_3b/3x3_reduce"
  param {
    lr_mult: 1
    decay_mult: 0
  }
  param {
    lr_mult: 1
    decay_mult: 0
  }
  param {
    lr_mult: 0
    decay_mult: 0
  }
  param {
    lr_mult: 0
    decay_mult: 0
  }
  batch_norm_param {
    use_global_stats: false
    eps: 1e-05
    scale_filler {
      type: "constant"
      value: 1
    }
    bias_filler {
      type: "constant"
      value: 0
    }
  }
}
layer {
  name: "inception_3b/relu_3x3_reduce"
  type: "ReLU"
  bottom: "inception_3b/3x3_reduce"
  top: "inception_3b/3x3_reduce"
}
layer {
  name: "inception_3b/3x3"
  type: "Convolution"
  bottom: "inception_3b/3x3_reduce"
  top: "inception_3b/3x3_raw"
  param {
    lr_mult: 1
    decay_mult: 1
  }
  convolution_param {
    num_output: 192
    pad: 1
    kernel_size: 3
    weight_filler {
      type: "msra"
    }
    bias_filler {
      type: "constant"
      value: 0.2
    }
  }
}
layer {
  name: "inception_3b/3x3_BatchNorm"
  type: "BatchNorm"
  bottom: "inception_3b/3x3_raw"
  top: "inception_3b/3x3"
  param {
    lr_mult: 1
    decay_mult: 0
  }
  param {
    lr_mult: 1
    decay_mult: 0
  }
  param {
    lr_mult: 0
    decay_mult: 0
  }
  param {
    lr_mult: 0
    decay_mult: 0
  }
  batch_norm_param {
    use_global_stats: false
    eps: 1e-05
    scale_filler {
      type: "constant"
      value: 1
    }
    bias_filler {
      type: "constant"
      value: 0
    }
  }
}
layer {
  name: "inception_3b/relu_3x3"
  type: "ReLU"
  bottom: "inception_3b/3x3"
  top: "inception_3b/3x3"
}
layer {
  name: "inception_3b/5x5_reduce"
  type: "Convolution"
  bottom: "inception_3a/output"
  top: "inception_3b/5x5_reduce_raw"
  param {
    lr_mult: 1
    decay_mult: 1
  }
  convolution_param {
    num_output: 32
    kernel_size: 1
    weight_filler {
      type: "msra"
    }
    bias_filler {
      type: "constant"
      value: 0.2
    }
  }
}
layer {
  name: "inception_3b/5x5_reduce_BatchNorm"
  type: "BatchNorm"
  bottom: "inception_3b/5x5_reduce_raw"
  top: "inception_3b/5x5_reduce"
  param {
    lr_mult: 1
    decay_mult: 0
  }
  param {
    lr_mult: 1
    decay_mult: 0
  }
  param {
    lr_mult: 0
    decay_mult: 0
  }
  param {
    lr_mult: 0
    decay_mult: 0
  }
  batch_norm_param {
    use_global_stats: false
    eps: 1e-05
    scale_filler {
      type: "constant"
      value: 1
    }
    bias_filler {
      type: "constant"
      value: 0
    }
  }
}
layer {
  name: "inception_3b/relu_5x5_reduce"
  type: "ReLU"
  bottom: "inception_3b/5x5_reduce"
  top: "inception_3b/5x5_reduce"
}
layer {
  name: "inception_3b/5x5"
  type: "Convolution"
  bottom: "inception_3b/5x5_reduce"
  top: "inception_3b/5x5_raw"
  param {
    lr_mult: 1
    decay_mult: 1
  }
  convolution_param {
    num_output: 96
    pad: 2
    kernel_size: 5
    weight_filler {
      type: "msra"
    }
    bias_filler {
      type: "constant"
      value: 0.2
    }
  }
}
layer {
  name: "inception_3b/5x5_BatchNorm"
  type: "BatchNorm"
  bottom: "inception_3b/5x5_raw"
  top: "inception_3b/5x5"
  param {
    lr_mult: 1
    decay_mult: 0
  }
  param {
    lr_mult: 1
    decay_mult: 0
  }
  param {
    lr_mult: 0
    decay_mult: 0
  }
  param {
    lr_mult: 0
    decay_mult: 0
  }
  batch_norm_param {
    use_global_stats: false
    eps: 1e-05
    scale_filler {
      type: "constant"
      value: 1
    }
    bias_filler {
      type: "constant"
      value: 0
    }
  }
}
layer {
  name: "inception_3b/relu_5x5"
  type: "ReLU"
  bottom: "inception_3b/5x5"
  top: "inception_3b/5x5"
}
layer {
  name: "inception_3b/pool"
  type: "Pooling"
  bottom: "inception_3a/output"
  top: "inception_3b/pool"
  pooling_param {
    pool: MAX
    kernel_size: 3
    stride: 1
    pad: 1
  }
}
layer {
  name: "inception_3b/pool_proj"
  type: "Convolution"
  bottom: "inception_3b/pool"
  top: "inception_3b/pool_proj_raw"
  param {
    lr_mult: 1
    decay_mult: 1
  }
  convolution_param {
    num_output: 64
    kernel_size: 1
    weight_filler {
      type: "msra"
    }
    bias_filler {
      type: "constant"
      value: 0.2
    }
  }
}
layer {
  name: "inception_3b/pool_proj_BatchNorm"
  type: "BatchNorm"
  bottom: "inception_3b/pool_proj_raw"
  top: "inception_3b/pool_proj"
  param {
    lr_mult: 1
    decay_mult: 0
  }
  param {
    lr_mult: 1
    decay_mult: 0
  }
  param {
    lr_mult: 0
    decay_mult: 0
  }
  param {
    lr_mult: 0
    decay_mult: 0
  }
  batch_norm_param {
    use_global_stats: false
    eps: 1e-05
    scale_filler {
      type: "constant"
      value: 1
    }
    bias_filler {
      type: "constant"
      value: 0
    }
  }
}
layer {
  name: "inception_3b/relu_pool_proj"
  type: "ReLU"
  bottom: "inception_3b/pool_proj"
  top: "inception_3b/pool_proj"
}
layer {
  name: "inception_3b/output"
  type: "Concat"
  bottom: "inception_3b/1x1"
  bottom: "inception_3b/3x3"
  bottom: "inception_3b/5x5"
  bottom: "inception_3b/pool_proj"
  top: "inception_3b/output"
}
layer {
  name: "pool3/3x3_s2"
  type: "Pooling"
  bottom: "inception_3b/output"
  top: "pool3/3x3_s2"
  pooling_param {
    pool: MAX
    kernel_size: 3
    stride: 2
  }
}
layer {
  name: "inception_4a/1x1"
  type: "Convolution"
  bottom: "pool3/3x3_s2"
  top: "inception_4a/1x1_raw"
  param {
    lr_mult: 1
    decay_mult: 1
  }
  convolution_param {
    num_output: 192
    kernel_size: 1
    weight_filler {
      type: "msra"
    }
    bias_filler {
      type: "constant"
      value: 0.2
    }
  }
}
layer {
  name: "inception_4a/1x1_BatchNorm"
  type: "BatchNorm"
  bottom: "inception_4a/1x1_raw"
  top: "inception_4a/1x1"
  param {
    lr_mult: 1
    decay_mult: 0
  }
  param {
    lr_mult: 1
    decay_mult: 0
  }
  param {
    lr_mult: 0
    decay_mult: 0
  }
  param {
    lr_mult: 0
    decay_mult: 0
  }
  batch_norm_param {
    use_global_stats: false
    eps: 1e-05
    scale_filler {
      type: "constant"
      value: 1
    }
    bias_filler {
      type: "constant"
      value: 0
    }
  }
}
layer {
  name: "inception_4a/relu_1x1"
  type: "ReLU"
  bottom: "inception_4a/1x1"
  top: "inception_4a/1x1"
}
layer {
  name: "inception_4a/3x3_reduce"
  type: "Convolution"
  bottom: "pool3/3x3_s2"
  top: "inception_4a/3x3_reduce_raw"
  param {
    lr_mult: 1
    decay_mult: 1
  }
  convolution_param {
    num_output: 96
    kernel_size: 1
    weight_filler {
      type: "msra"
    }
    bias_filler {
      type: "constant"
      value: 0.2
    }
  }
}
layer {
  name: "inception_4a/3x3_reduce_BatchNorm"
  type: "BatchNorm"
  bottom: "inception_4a/3x3_reduce_raw"
  top: "inception_4a/3x3_reduce"
  param {
    lr_mult: 1
    decay_mult: 0
  }
  param {
    lr_mult: 1
    decay_mult: 0
  }
  param {
    lr_mult: 0
    decay_mult: 0
  }
  param {
    lr_mult: 0
    decay_mult: 0
  }
  batch_norm_param {
    use_global_stats: false
    eps: 1e-05
    scale_filler {
      type: "constant"
      value: 1
    }
    bias_filler {
      type: "constant"
      value: 0
    }
  }
}
layer {
  name: "inception_4a/relu_3x3_reduce"
  type: "ReLU"
  bottom: "inception_4a/3x3_reduce"
  top: "inception_4a/3x3_reduce"
}
layer {
  name: "inception_4a/3x3"
  type: "Convolution"
  bottom: "inception_4a/3x3_reduce"
  top: "inception_4a/3x3_raw"
  param {
    lr_mult: 1
    decay_mult: 1
  }
  convolution_param {
    num_output: 208
    pad: 1
    kernel_size: 3
    weight_filler {
      type: "msra"
    }
    bias_filler {
      type: "constant"
      value: 0.2
    }
  }
}
layer {
  name: "inception_4a/3x3_BatchNorm"
  type: "BatchNorm"
  bottom: "inception_4a/3x3_raw"
  top: "inception_4a/3x3"
  param {
    lr_mult: 1
    decay_mult: 0
  }
  param {
    lr_mult: 1
    decay_mult: 0
  }
  param {
    lr_mult: 0
    decay_mult: 0
  }
  param {
    lr_mult: 0
    decay_mult: 0
  }
  batch_norm_param {
    use_global_stats: false
    eps: 1e-05
    scale_filler {
      type: "constant"
      value: 1
    }
    bias_filler {
      type: "constant"
      value: 0
    }
  }
}
layer {
  name: "inception_4a/relu_3x3"
  type: "ReLU"
  bottom: "inception_4a/3x3"
  top: "inception_4a/3x3"
}
layer {
  name: "inception_4a/5x5_reduce"
  type: "Convolution"
  bottom: "pool3/3x3_s2"
  top: "inception_4a/5x5_reduce_raw"
  param {
    lr_mult: 1
    decay_mult: 1
  }
  convolution_param {
    num_output: 16
    kernel_size: 1
    weight_filler {
      type: "msra"
    }
    bias_filler {
      type: "constant"
      value: 0.2
    }
  }
}
layer {
  name: "inception_4a/5x5_reduce_BatchNorm"
  type: "BatchNorm"
  bottom: "inception_4a/5x5_reduce_raw"
  top: "inception_4a/5x5_reduce"
  param {
    lr_mult: 1
    decay_mult: 0
  }
  param {
    lr_mult: 1
    decay_mult: 0
  }
  param {
    lr_mult: 0
    decay_mult: 0
  }
  param {
    lr_mult: 0
    decay_mult: 0
  }
  batch_norm_param {
    use_global_stats: false
    eps: 1e-05
    scale_filler {
      type: "constant"
      value: 1
    }
    bias_filler {
      type: "constant"
      value: 0
    }
  }
}
layer {
  name: "inception_4a/relu_5x5_reduce"
  type: "ReLU"
  bottom: "inception_4a/5x5_reduce"
  top: "inception_4a/5x5_reduce"
}
layer {
  name: "inception_4a/5x5"
  type: "Convolution"
  bottom: "inception_4a/5x5_reduce"
  top: "inception_4a/5x5_raw"
  param {
    lr_mult: 1
    decay_mult: 1
  }
  convolution_param {
    num_output: 48
    pad: 2
    kernel_size: 5
    weight_filler {
      type: "msra"
    }
    bias_filler {
      type: "constant"
      value: 0.2
    }
  }
}
layer {
  name: "inception_4a/5x5_BatchNorm"
  type: "BatchNorm"
  bottom: "inception_4a/5x5_raw"
  top: "inception_4a/5x5"
  param {
    lr_mult: 1
    decay_mult: 0
  }
  param {
    lr_mult: 1
    decay_mult: 0
  }
  param {
    lr_mult: 0
    decay_mult: 0
  }
  param {
    lr_mult: 0
    decay_mult: 0
  }
  batch_norm_param {
    use_global_stats: false
    eps: 1e-05
    scale_filler {
      type: "constant"
      value: 1
    }
    bias_filler {
      type: "constant"
      value: 0
    }
  }
}
layer {
  name: "inception_4a/relu_5x5"
  type: "ReLU"
  bottom: "inception_4a/5x5"
  top: "inception_4a/5x5"
}
layer {
  name: "inception_4a/pool"
  type: "Pooling"
  bottom: "pool3/3x3_s2"
  top: "inception_4a/pool"
  pooling_param {
    pool: MAX
    kernel_size: 3
    stride: 1
    pad: 1
  }
}
layer {
  name: "inception_4a/pool_proj"
  type: "Convolution"
  bottom: "inception_4a/pool"
  top: "inception_4a/pool_proj_raw"
  param {
    lr_mult: 1
    decay_mult: 1
  }
  convolution_param {
    num_output: 64
    kernel_size: 1
    weight_filler {
      type: "msra"
    }
    bias_filler {
      type: "constant"
      value: 0.2
    }
  }
}
layer {
  name: "inception_4a/pool_proj_BatchNorm"
  type: "BatchNorm"
  bottom: "inception_4a/pool_proj_raw"
  top: "inception_4a/pool_proj"
  param {
    lr_mult: 1
    decay_mult: 0
  }
  param {
    lr_mult: 1
    decay_mult: 0
  }
  param {
    lr_mult: 0
    decay_mult: 0
  }
  param {
    lr_mult: 0
    decay_mult: 0
  }
  batch_norm_param {
    use_global_stats: false
    eps: 1e-05
    scale_filler {
      type: "constant"
      value: 1
    }
    bias_filler {
      type: "constant"
      value: 0
    }
  }
}
layer {
  name: "inception_4a/relu_pool_proj"
  type: "ReLU"
  bottom: "inception_4a/pool_proj"
  top: "inception_4a/pool_proj"
}
layer {
  name: "inception_4a/output"
  type: "Concat"
  bottom: "inception_4a/1x1"
  bottom: "inception_4a/3x3"
  bottom: "inception_4a/5x5"
  bottom: "inception_4a/pool_proj"
  top: "inception_4a/output"
}
layer {
  name: "inception_4b/1x1"
  type: "Convolution"
  bottom: "inception_4a/output"
  top: "inception_4b/1x1_raw"
  param {
    lr_mult: 1
    decay_mult: 1
  }
  convolution_param {
    num_output: 160
    kernel_size: 1
    weight_filler {
      type: "msra"
    }
    bias_filler {
      type: "constant"
      value: 0.2
    }
  }
}
layer {
  name: "inception_4b/1x1_BatchNorm"
  type: "BatchNorm"
  bottom: "inception_4b/1x1_raw"
  top: "inception_4b/1x1"
  param {
    lr_mult: 1
    decay_mult: 0
  }
  param {
    lr_mult: 1
    decay_mult: 0
  }
  param {
    lr_mult: 0
    decay_mult: 0
  }
  param {
    lr_mult: 0
    decay_mult: 0
  }
  batch_norm_param {
    use_global_stats: false
    eps: 1e-05
    scale_filler {
      type: "constant"
      value: 1
    }
    bias_filler {
      type: "constant"
      value: 0
    }
  }
}
layer {
  name: "inception_4b/relu_1x1"
  type: "ReLU"
  bottom: "inception_4b/1x1"
  top: "inception_4b/1x1"
}
layer {
  name: "inception_4b/3x3_reduce"
  type: "Convolution"
  bottom: "inception_4a/output"
  top: "inception_4b/3x3_reduce_raw"
  param {
    lr_mult: 1
    decay_mult: 1
  }
  convolution_param {
    num_output: 112
    kernel_size: 1
    weight_filler {
      type: "msra"
    }
    bias_filler {
      type: "constant"
      value: 0.2
    }
  }
}
layer {
  name: "inception_4b/3x3_reduce_BatchNorm"
  type: "BatchNorm"
  bottom: "inception_4b/3x3_reduce_raw"
  top: "inception_4b/3x3_reduce"
  param {
    lr_mult: 1
    decay_mult: 0
  }
  param {
    lr_mult: 1
    decay_mult: 0
  }
  param {
    lr_mult: 0
    decay_mult: 0
  }
  param {
    lr_mult: 0
    decay_mult: 0
  }
  batch_norm_param {
    use_global_stats: false
    eps: 1e-05
    scale_filler {
      type: "constant"
      value: 1
    }
    bias_filler {
      type: "constant"
      value: 0
    }
  }
}
layer {
  name: "inception_4b/relu_3x3_reduce"
  type: "ReLU"
  bottom: "inception_4b/3x3_reduce"
  top: "inception_4b/3x3_reduce"
}
layer {
  name: "inception_4b/3x3"
  type: "Convolution"
  bottom: "inception_4b/3x3_reduce"
  top: "inception_4b/3x3_raw"
  param {
    lr_mult: 1
    decay_mult: 1
  }
  convolution_param {
    num_output: 224
    pad: 1
    kernel_size: 3
    weight_filler {
      type: "msra"
    }
    bias_filler {
      type: "constant"
      value: 0.2
    }
  }
}
layer {
  name: "inception_4b/3x3_BatchNorm"
  type: "BatchNorm"
  bottom: "inception_4b/3x3_raw"
  top: "inception_4b/3x3"
  param {
    lr_mult: 1
    decay_mult: 0
  }
  param {
    lr_mult: 1
    decay_mult: 0
  }
  param {
    lr_mult: 0
    decay_mult: 0
  }
  param {
    lr_mult: 0
    decay_mult: 0
  }
  batch_norm_param {
    use_global_stats: false
    eps: 1e-05
    scale_filler {
      type: "constant"
      value: 1
    }
    bias_filler {
      type: "constant"
      value: 0
    }
  }
}
layer {
  name: "inception_4b/relu_3x3"
  type: "ReLU"
  bottom: "inception_4b/3x3"
  top: "inception_4b/3x3"
}
layer {
  name: "inception_4b/5x5_reduce"
  type: "Convolution"
  bottom: "inception_4a/output"
  top: "inception_4b/5x5_reduce_raw"
  param {
    lr_mult: 1
    decay_mult: 1
  }
  convolution_param {
    num_output: 24
    kernel_size: 1
    weight_filler {
      type: "msra"
    }
    bias_filler {
      type: "constant"
      value: 0.2
    }
  }
}
layer {
  name: "inception_4b/5x5_reduce_BatchNorm"
  type: "BatchNorm"
  bottom: "inception_4b/5x5_reduce_raw"
  top: "inception_4b/5x5_reduce"
  param {
    lr_mult: 1
    decay_mult: 0
  }
  param {
    lr_mult: 1
    decay_mult: 0
  }
  param {
    lr_mult: 0
    decay_mult: 0
  }
  param {
    lr_mult: 0
    decay_mult: 0
  }
  batch_norm_param {
    use_global_stats: false
    eps: 1e-05
    scale_filler {
      type: "constant"
      value: 1
    }
    bias_filler {
      type: "constant"
      value: 0
    }
  }
}
layer {
  name: "inception_4b/relu_5x5_reduce"
  type: "ReLU"
  bottom: "inception_4b/5x5_reduce"
  top: "inception_4b/5x5_reduce"
}
layer {
  name: "inception_4b/5x5"
  type: "Convolution"
  bottom: "inception_4b/5x5_reduce"
  top: "inception_4b/5x5_raw"
  param {
    lr_mult: 1
    decay_mult: 1
  }
  convolution_param {
    num_output: 64
    pad: 2
    kernel_size: 5
    weight_filler {
      type: "msra"
    }
    bias_filler {
      type: "constant"
      value: 0.2
    }
  }
}
layer {
  name: "inception_4b/5x5_BatchNorm"
  type: "BatchNorm"
  bottom: "inception_4b/5x5_raw"
  top: "inception_4b/5x5"
  param {
    lr_mult: 1
    decay_mult: 0
  }
  param {
    lr_mult: 1
    decay_mult: 0
  }
  param {
    lr_mult: 0
    decay_mult: 0
  }
  param {
    lr_mult: 0
    decay_mult: 0
  }
  batch_norm_param {
    use_global_stats: false
    eps: 1e-05
    scale_filler {
      type: "constant"
      value: 1
    }
    bias_filler {
      type: "constant"
      value: 0
    }
  }
}
layer {
  name: "inception_4b/relu_5x5"
  type: "ReLU"
  bottom: "inception_4b/5x5"
  top: "inception_4b/5x5"
}
layer {
  name: "inception_4b/pool"
  type: "Pooling"
  bottom: "inception_4a/output"
  top: "inception_4b/pool"
  pooling_param {
    pool: MAX
    kernel_size: 3
    stride: 1
    pad: 1
  }
}
layer {
  name: "inception_4b/pool_proj"
  type: "Convolution"
  bottom: "inception_4b/pool"
  top: "inception_4b/pool_proj_raw"
  param {
    lr_mult: 1
    decay_mult: 1
  }
  convolution_param {
    num_output: 64
    kernel_size: 1
    weight_filler {
      type: "msra"
    }
    bias_filler {
      type: "constant"
      value: 0.2
    }
  }
}
layer {
  name: "inception_4b/pool_proj_BatchNorm"
  type: "BatchNorm"
  bottom: "inception_4b/pool_proj_raw"
  top: "inception_4b/pool_proj"
  param {
    lr_mult: 1
    decay_mult: 0
  }
  param {
    lr_mult: 1
    decay_mult: 0
  }
  param {
    lr_mult: 0
    decay_mult: 0
  }
  param {
    lr_mult: 0
    decay_mult: 0
  }
  batch_norm_param {
    use_global_stats: false
    eps: 1e-05
    scale_filler {
      type: "constant"
      value: 1
    }
    bias_filler {
      type: "constant"
      value: 0
    }
  }
}
layer {
  name: "inception_4b/relu_pool_proj"
  type: "ReLU"
  bottom: "inception_4b/pool_proj"
  top: "inception_4b/pool_proj"
}
layer {
  name: "inception_4b/output"
  type: "Concat"
  bottom: "inception_4b/1x1"
  bottom: "inception_4b/3x3"
  bottom: "inception_4b/5x5"
  bottom: "inception_4b/pool_proj"
  top: "inception_4b/output"
}
layer {
  name: "inception_4c/1x1"
  type: "Convolution"
  bottom: "inception_4b/output"
  top: "inception_4c/1x1_raw"
  param {
    lr_mult: 1
    decay_mult: 1
  }
  convolution_param {
    num_output: 128
    kernel_size: 1
    weight_filler {
      type: "msra"
    }
    bias_filler {
      type: "constant"
      value: 0.2
    }
  }
}
layer {
  name: "inception_4c/1x1_BatchNorm"
  type: "BatchNorm"
  bottom: "inception_4c/1x1_raw"
  top: "inception_4c/1x1"
  param {
    lr_mult: 1
    decay_mult: 0
  }
  param {
    lr_mult: 1
    decay_mult: 0
  }
  param {
    lr_mult: 0
    decay_mult: 0
  }
  param {
    lr_mult: 0
    decay_mult: 0
  }
  batch_norm_param {
    use_global_stats: false
    eps: 1e-05
    s
I0715 09:07:27.316263  3944 layer_factory.hpp:123] Creating layer data
I0715 09:07:27.316288  3944 net.cpp:140] Creating Layer data
I0715 09:07:27.316298  3944 net.cpp:455] data -> data
I0715 09:07:27.316308  3944 net.cpp:455] data -> label
I0715 09:07:27.316325  3944 image_data_layer.cpp:87] Opening file ../data/cityscapes/calibration.txt
I0715 09:07:27.316591  3944 image_data_layer.cpp:97] Shuffling data
I0715 09:07:27.316651  3944 image_data_layer.cpp:102] A total of 1000 images.
I0715 09:07:27.391419  3944 image_data_layer.cpp:130] output data size: 1,3,512,1024
I0715 09:07:27.428606  3944 internal_thread.cpp:73] Starting internal thread(s) on GPU 1
I0715 09:07:27.428680  3944 net.cpp:190] Setting up data
I0715 09:07:27.428690  3944 net.cpp:197] Top shape: 1 3 512 1024 (1572864)
I0715 09:07:27.428694  3944 net.cpp:197] Top shape: 1 (1)
I0715 09:07:27.428697  3944 net.cpp:205] Memory required for data: 6291460
I0715 09:07:27.428702  3944 layer_factory.hpp:123] Creating layer conv1/7x7_s2
I0715 09:07:27.428717  3944 net.cpp:140] Creating Layer conv1/7x7_s2
I0715 09:07:27.428721  3944 net.cpp:481] conv1/7x7_s2 <- data
I0715 09:07:27.428736  3944 net.cpp:455] conv1/7x7_s2 -> conv1/7x7_s2_raw
I0715 09:07:27.430790  3944 net.cpp:190] Setting up conv1/7x7_s2
I0715 09:07:27.430804  3944 net.cpp:197] Top shape: 1 64 256 512 (8388608)
I0715 09:07:27.430806  3944 net.cpp:205] Memory required for data: 39845892
I0715 09:07:27.430821  3944 layer_factory.hpp:123] Creating layer conv1/7x7_s2_BatchNorm
I0715 09:07:27.430830  3944 net.cpp:140] Creating Layer conv1/7x7_s2_BatchNorm
I0715 09:07:27.430835  3944 net.cpp:481] conv1/7x7_s2_BatchNorm <- conv1/7x7_s2_raw
I0715 09:07:27.430841  3944 net.cpp:455] conv1/7x7_s2_BatchNorm -> conv1/7x7_s2
I0715 09:07:27.432356  3944 net.cpp:190] Setting up conv1/7x7_s2_BatchNorm
I0715 09:07:27.432366  3944 net.cpp:197] Top shape: 1 64 256 512 (8388608)
I0715 09:07:27.432369  3944 net.cpp:205] Memory required for data: 73400324
I0715 09:07:27.432381  3944 layer_factory.hpp:123] Creating layer conv1/relu_7x7
I0715 09:07:27.432387  3944 net.cpp:140] Creating Layer conv1/relu_7x7
I0715 09:07:27.432390  3944 net.cpp:481] conv1/relu_7x7 <- conv1/7x7_s2
I0715 09:07:27.432395  3944 net.cpp:442] conv1/relu_7x7 -> conv1/7x7_s2 (in-place)
I0715 09:07:27.432405  3944 net.cpp:190] Setting up conv1/relu_7x7
I0715 09:07:27.432410  3944 net.cpp:197] Top shape: 1 64 256 512 (8388608)
I0715 09:07:27.432412  3944 net.cpp:205] Memory required for data: 106954756
I0715 09:07:27.432415  3944 layer_factory.hpp:123] Creating layer pool1/3x3_s2
I0715 09:07:27.432421  3944 net.cpp:140] Creating Layer pool1/3x3_s2
I0715 09:07:27.432425  3944 net.cpp:481] pool1/3x3_s2 <- conv1/7x7_s2
I0715 09:07:27.432430  3944 net.cpp:455] pool1/3x3_s2 -> pool1/3x3_s2
I0715 09:07:27.432480  3944 net.cpp:190] Setting up pool1/3x3_s2
I0715 09:07:27.432487  3944 net.cpp:197] Top shape: 1 64 128 256 (2097152)
I0715 09:07:27.432490  3944 net.cpp:205] Memory required for data: 115343364
I0715 09:07:27.432493  3944 layer_factory.hpp:123] Creating layer conv2/3x3_reduce
I0715 09:07:27.432500  3944 net.cpp:140] Creating Layer conv2/3x3_reduce
I0715 09:07:27.432504  3944 net.cpp:481] conv2/3x3_reduce <- pool1/3x3_s2
I0715 09:07:27.432509  3944 net.cpp:455] conv2/3x3_reduce -> conv2/3x3_reduce_raw
I0715 09:07:27.434274  3944 net.cpp:190] Setting up conv2/3x3_reduce
I0715 09:07:27.434286  3944 net.cpp:197] Top shape: 1 64 128 256 (2097152)
I0715 09:07:27.434289  3944 net.cpp:205] Memory required for data: 123731972
I0715 09:07:27.434298  3944 layer_factory.hpp:123] Creating layer conv2/3x3_reduce_BatchNorm
I0715 09:07:27.434306  3944 net.cpp:140] Creating Layer conv2/3x3_reduce_BatchNorm
I0715 09:07:27.434310  3944 net.cpp:481] conv2/3x3_reduce_BatchNorm <- conv2/3x3_reduce_raw
I0715 09:07:27.434316  3944 net.cpp:455] conv2/3x3_reduce_BatchNorm -> conv2/3x3_reduce
I0715 09:07:27.434906  3944 net.cpp:190] Setting up conv2/3x3_reduce_BatchNorm
I0715 09:07:27.434914  3944 net.cpp:197] Top shape: 1 64 128 256 (2097152)
I0715 09:07:27.434917  3944 net.cpp:205] Memory required for data: 132120580
I0715 09:07:27.434926  3944 layer_factory.hpp:123] Creating layer conv2/relu_3x3_reduce
I0715 09:07:27.434931  3944 net.cpp:140] Creating Layer conv2/relu_3x3_reduce
I0715 09:07:27.434936  3944 net.cpp:481] conv2/relu_3x3_reduce <- conv2/3x3_reduce
I0715 09:07:27.434940  3944 net.cpp:442] conv2/relu_3x3_reduce -> conv2/3x3_reduce (in-place)
I0715 09:07:27.434947  3944 net.cpp:190] Setting up conv2/relu_3x3_reduce
I0715 09:07:27.434952  3944 net.cpp:197] Top shape: 1 64 128 256 (2097152)
I0715 09:07:27.434954  3944 net.cpp:205] Memory required for data: 140509188
I0715 09:07:27.434957  3944 layer_factory.hpp:123] Creating layer conv2/3x3
I0715 09:07:27.434967  3944 net.cpp:140] Creating Layer conv2/3x3
I0715 09:07:27.434969  3944 net.cpp:481] conv2/3x3 <- conv2/3x3_reduce
I0715 09:07:27.434974  3944 net.cpp:455] conv2/3x3 -> conv2/3x3_raw
I0715 09:07:27.436161  3944 net.cpp:190] Setting up conv2/3x3
I0715 09:07:27.436170  3944 net.cpp:197] Top shape: 1 192 128 256 (6291456)
I0715 09:07:27.436173  3944 net.cpp:205] Memory required for data: 165675012
I0715 09:07:27.436179  3944 layer_factory.hpp:123] Creating layer conv2/3x3_BatchNorm
I0715 09:07:27.436187  3944 net.cpp:140] Creating Layer conv2/3x3_BatchNorm
I0715 09:07:27.436189  3944 net.cpp:481] conv2/3x3_BatchNorm <- conv2/3x3_raw
I0715 09:07:27.436195  3944 net.cpp:455] conv2/3x3_BatchNorm -> conv2/3x3
I0715 09:07:27.436784  3944 net.cpp:190] Setting up conv2/3x3_BatchNorm
I0715 09:07:27.436792  3944 net.cpp:197] Top shape: 1 192 128 256 (6291456)
I0715 09:07:27.436795  3944 net.cpp:205] Memory required for data: 190840836
I0715 09:07:27.436806  3944 layer_factory.hpp:123] Creating layer conv2/relu_3x3
I0715 09:07:27.436811  3944 net.cpp:140] Creating Layer conv2/relu_3x3
I0715 09:07:27.436815  3944 net.cpp:481] conv2/relu_3x3 <- conv2/3x3
I0715 09:07:27.436820  3944 net.cpp:442] conv2/relu_3x3 -> conv2/3x3 (in-place)
I0715 09:07:27.436825  3944 net.cpp:190] Setting up conv2/relu_3x3
I0715 09:07:27.436830  3944 net.cpp:197] Top shape: 1 192 128 256 (6291456)
I0715 09:07:27.436832  3944 net.cpp:205] Memory required for data: 216006660
I0715 09:07:27.436836  3944 layer_factory.hpp:123] Creating layer conv2/3x3_conv2/relu_3x3_0_split
I0715 09:07:27.436841  3944 net.cpp:140] Creating Layer conv2/3x3_conv2/relu_3x3_0_split
I0715 09:07:27.436843  3944 net.cpp:481] conv2/3x3_conv2/relu_3x3_0_split <- conv2/3x3
I0715 09:07:27.436847  3944 net.cpp:455] conv2/3x3_conv2/relu_3x3_0_split -> conv2/3x3_conv2/relu_3x3_0_split_0
I0715 09:07:27.436853  3944 net.cpp:455] conv2/3x3_conv2/relu_3x3_0_split -> conv2/3x3_conv2/relu_3x3_0_split_1
I0715 09:07:27.436880  3944 net.cpp:190] Setting up conv2/3x3_conv2/relu_3x3_0_split
I0715 09:07:27.436885  3944 net.cpp:197] Top shape: 1 192 128 256 (6291456)
I0715 09:07:27.436889  3944 net.cpp:197] Top shape: 1 192 128 256 (6291456)
I0715 09:07:27.436892  3944 net.cpp:205] Memory required for data: 266338308
I0715 09:07:27.436894  3944 layer_factory.hpp:123] Creating layer pool2/3x3_s2
I0715 09:07:27.436900  3944 net.cpp:140] Creating Layer pool2/3x3_s2
I0715 09:07:27.436903  3944 net.cpp:481] pool2/3x3_s2 <- conv2/3x3_conv2/relu_3x3_0_split_0
I0715 09:07:27.436908  3944 net.cpp:455] pool2/3x3_s2 -> pool2/3x3_s2
I0715 09:07:27.436933  3944 net.cpp:190] Setting up pool2/3x3_s2
I0715 09:07:27.436940  3944 net.cpp:197] Top shape: 1 192 64 128 (1572864)
I0715 09:07:27.436944  3944 net.cpp:205] Memory required for data: 272629764
I0715 09:07:27.436945  3944 layer_factory.hpp:123] Creating layer pool2/3x3_s2_pool2/3x3_s2_0_split
I0715 09:07:27.436950  3944 net.cpp:140] Creating Layer pool2/3x3_s2_pool2/3x3_s2_0_split
I0715 09:07:27.436954  3944 net.cpp:481] pool2/3x3_s2_pool2/3x3_s2_0_split <- pool2/3x3_s2
I0715 09:07:27.436959  3944 net.cpp:455] pool2/3x3_s2_pool2/3x3_s2_0_split -> pool2/3x3_s2_pool2/3x3_s2_0_split_0
I0715 09:07:27.436964  3944 net.cpp:455] pool2/3x3_s2_pool2/3x3_s2_0_split -> pool2/3x3_s2_pool2/3x3_s2_0_split_1
I0715 09:07:27.436970  3944 net.cpp:455] pool2/3x3_s2_pool2/3x3_s2_0_split -> pool2/3x3_s2_pool2/3x3_s2_0_split_2
I0715 09:07:27.436975  3944 net.cpp:455] pool2/3x3_s2_pool2/3x3_s2_0_split -> pool2/3x3_s2_pool2/3x3_s2_0_split_3
I0715 09:07:27.437016  3944 net.cpp:190] Setting up pool2/3x3_s2_pool2/3x3_s2_0_split
I0715 09:07:27.437022  3944 net.cpp:197] Top shape: 1 192 64 128 (1572864)
I0715 09:07:27.437026  3944 net.cpp:197] Top shape: 1 192 64 128 (1572864)
I0715 09:07:27.437029  3944 net.cpp:197] Top shape: 1 192 64 128 (1572864)
I0715 09:07:27.437033  3944 net.cpp:197] Top shape: 1 192 64 128 (1572864)
I0715 09:07:27.437036  3944 net.cpp:205] Memory required for data: 297795588
I0715 09:07:27.437038  3944 layer_factory.hpp:123] Creating layer inception_3a/1x1
I0715 09:07:27.437047  3944 net.cpp:140] Creating Layer inception_3a/1x1
I0715 09:07:27.437050  3944 net.cpp:481] inception_3a/1x1 <- pool2/3x3_s2_pool2/3x3_s2_0_split_0
I0715 09:07:27.437055  3944 net.cpp:455] inception_3a/1x1 -> inception_3a/1x1_raw
I0715 09:07:27.437371  3944 net.cpp:190] Setting up inception_3a/1x1
I0715 09:07:27.437379  3944 net.cpp:197] Top shape: 1 64 64 128 (524288)
I0715 09:07:27.437382  3944 net.cpp:205] Memory required for data: 299892740
I0715 09:07:27.437388  3944 layer_factory.hpp:123] Creating layer inception_3a/1x1_BatchNorm
I0715 09:07:27.437394  3944 net.cpp:140] Creating Layer inception_3a/1x1_BatchNorm
I0715 09:07:27.437398  3944 net.cpp:481] inception_3a/1x1_BatchNorm <- inception_3a/1x1_raw
I0715 09:07:27.437403  3944 net.cpp:455] inception_3a/1x1_BatchNorm -> inception_3a/1x1
I0715 09:07:27.437974  3944 net.cpp:190] Setting up inception_3a/1x1_BatchNorm
I0715 09:07:27.437981  3944 net.cpp:197] Top shape: 1 64 64 128 (524288)
I0715 09:07:27.437985  3944 net.cpp:205] Memory required for data: 301989892
I0715 09:07:27.437994  3944 layer_factory.hpp:123] Creating layer inception_3a/relu_1x1
I0715 09:07:27.437999  3944 net.cpp:140] Creating Layer inception_3a/relu_1x1
I0715 09:07:27.438002  3944 net.cpp:481] inception_3a/relu_1x1 <- inception_3a/1x1
I0715 09:07:27.438007  3944 net.cpp:442] inception_3a/relu_1x1 -> inception_3a/1x1 (in-place)
I0715 09:07:27.438014  3944 net.cpp:190] Setting up inception_3a/relu_1x1
I0715 09:07:27.438017  3944 net.cpp:197] Top shape: 1 64 64 128 (524288)
I0715 09:07:27.438019  3944 net.cpp:205] Memory required for data: 304087044
I0715 09:07:27.438022  3944 layer_factory.hpp:123] Creating layer inception_3a/3x3_reduce
I0715 09:07:27.438030  3944 net.cpp:140] Creating Layer inception_3a/3x3_reduce
I0715 09:07:27.438033  3944 net.cpp:481] inception_3a/3x3_reduce <- pool2/3x3_s2_pool2/3x3_s2_0_split_1
I0715 09:07:27.438038  3944 net.cpp:455] inception_3a/3x3_reduce -> inception_3a/3x3_reduce_raw
I0715 09:07:27.438406  3944 net.cpp:190] Setting up inception_3a/3x3_reduce
I0715 09:07:27.438414  3944 net.cpp:197] Top shape: 1 96 64 128 (786432)
I0715 09:07:27.438417  3944 net.cpp:205] Memory required for data: 307232772
I0715 09:07:27.438422  3944 layer_factory.hpp:123] Creating layer inception_3a/3x3_reduce_BatchNorm
I0715 09:07:27.438429  3944 net.cpp:140] Creating Layer inception_3a/3x3_reduce_BatchNorm
I0715 09:07:27.438432  3944 net.cpp:481] inception_3a/3x3_reduce_BatchNorm <- inception_3a/3x3_reduce_raw
I0715 09:07:27.438438  3944 net.cpp:455] inception_3a/3x3_reduce_BatchNorm -> inception_3a/3x3_reduce
I0715 09:07:27.439018  3944 net.cpp:190] Setting up inception_3a/3x3_reduce_BatchNorm
I0715 09:07:27.439025  3944 net.cpp:197] Top shape: 1 96 64 128 (786432)
I0715 09:07:27.439028  3944 net.cpp:205] Memory required for data: 310378500
I0715 09:07:27.439039  3944 layer_factory.hpp:123] Creating layer inception_3a/relu_3x3_reduce
I0715 09:07:27.439044  3944 net.cpp:140] Creating Layer inception_3a/relu_3x3_reduce
I0715 09:07:27.439047  3944 net.cpp:481] inception_3a/relu_3x3_reduce <- inception_3a/3x3_reduce
I0715 09:07:27.439052  3944 net.cpp:442] inception_3a/relu_3x3_reduce -> inception_3a/3x3_reduce (in-place)
I0715 09:07:27.439059  3944 net.cpp:190] Setting up inception_3a/relu_3x3_reduce
I0715 09:07:27.439062  3944 net.cpp:197] Top shape: 1 96 64 128 (786432)
I0715 09:07:27.439065  3944 net.cpp:205] Memory required for data: 313524228
I0715 09:07:27.439069  3944 layer_factory.hpp:123] Creating layer inception_3a/3x3
I0715 09:07:27.439075  3944 net.cpp:140] Creating Layer inception_3a/3x3
I0715 09:07:27.439079  3944 net.cpp:481] inception_3a/3x3 <- inception_3a/3x3_reduce
I0715 09:07:27.439085  3944 net.cpp:455] inception_3a/3x3 -> inception_3a/3x3_raw
I0715 09:07:27.443711  3944 net.cpp:190] Setting up inception_3a/3x3
I0715 09:07:27.443724  3944 net.cpp:197] Top shape: 1 128 64 128 (1048576)
I0715 09:07:27.443727  3944 net.cpp:205] Memory required for data: 317718532
I0715 09:07:27.443734  3944 layer_factory.hpp:123] Creating layer inception_3a/3x3_BatchNorm
I0715 09:07:27.443742  3944 net.cpp:140] Creating Layer inception_3a/3x3_BatchNorm
I0715 09:07:27.443744  3944 net.cpp:481] inception_3a/3x3_BatchNorm <- inception_3a/3x3_raw
I0715 09:07:27.443751  3944 net.cpp:455] inception_3a/3x3_BatchNorm -> inception_3a/3x3
I0715 09:07:27.444265  3944 net.cpp:190] Setting up inception_3a/3x3_BatchNorm
I0715 09:07:27.444274  3944 net.cpp:197] Top shape: 1 128 64 128 (1048576)
I0715 09:07:27.444285  3944 net.cpp:205] Memory required for data: 321912836
I0715 09:07:27.444294  3944 layer_factory.hpp:123] Creating layer inception_3a/relu_3x3
I0715 09:07:27.444300  3944 net.cpp:140] Creating Layer inception_3a/relu_3x3
I0715 09:07:27.444303  3944 net.cpp:481] inception_3a/relu_3x3 <- inception_3a/3x3
I0715 09:07:27.444308  3944 net.cpp:442] inception_3a/relu_3x3 -> inception_3a/3x3 (in-place)
I0715 09:07:27.444314  3944 net.cpp:190] Setting up inception_3a/relu_3x3
I0715 09:07:27.444319  3944 net.cpp:197] Top shape: 1 128 64 128 (1048576)
I0715 09:07:27.444321  3944 net.cpp:205] Memory required for data: 326107140
I0715 09:07:27.444324  3944 layer_factory.hpp:123] Creating layer inception_3a/5x5_reduce
I0715 09:07:27.444331  3944 net.cpp:140] Creating Layer inception_3a/5x5_reduce
I0715 09:07:27.444335  3944 net.cpp:481] inception_3a/5x5_reduce <- pool2/3x3_s2_pool2/3x3_s2_0_split_2
I0715 09:07:27.444340  3944 net.cpp:455] inception_3a/5x5_reduce -> inception_3a/5x5_reduce_raw
I0715 09:07:27.444578  3944 net.cpp:190] Setting up inception_3a/5x5_reduce
I0715 09:07:27.444587  3944 net.cpp:197] Top shape: 1 16 64 128 (131072)
I0715 09:07:27.444591  3944 net.cpp:205] Memory required for data: 326631428
I0715 09:07:27.444597  3944 layer_factory.hpp:123] Creating layer inception_3a/5x5_reduce_BatchNorm
I0715 09:07:27.444603  3944 net.cpp:140] Creating Layer inception_3a/5x5_reduce_BatchNorm
I0715 09:07:27.444607  3944 net.cpp:481] inception_3a/5x5_reduce_BatchNorm <- inception_3a/5x5_reduce_raw
I0715 09:07:27.444612  3944 net.cpp:455] inception_3a/5x5_reduce_BatchNorm -> inception_3a/5x5_reduce
I0715 09:07:27.445185  3944 net.cpp:190] Setting up inception_3a/5x5_reduce_BatchNorm
I0715 09:07:27.445194  3944 net.cpp:197] Top shape: 1 16 64 128 (131072)
I0715 09:07:27.445196  3944 net.cpp:205] Memory required for data: 327155716
I0715 09:07:27.445204  3944 layer_factory.hpp:123] Creating layer inception_3a/relu_5x5_reduce
I0715 09:07:27.445210  3944 net.cpp:140] Creating Layer inception_3a/relu_5x5_reduce
I0715 09:07:27.445214  3944 net.cpp:481] inception_3a/relu_5x5_reduce <- inception_3a/5x5_reduce
I0715 09:07:27.445219  3944 net.cpp:442] inception_3a/relu_5x5_reduce -> inception_3a/5x5_reduce (in-place)
I0715 09:07:27.445225  3944 net.cpp:190] Setting up inception_3a/relu_5x5_reduce
I0715 09:07:27.445228  3944 net.cpp:197] Top shape: 1 16 64 128 (131072)
I0715 09:07:27.445231  3944 net.cpp:205] Memory required for data: 327680004
I0715 09:07:27.445235  3944 layer_factory.hpp:123] Creating layer inception_3a/5x5
I0715 09:07:27.445242  3944 net.cpp:140] Creating Layer inception_3a/5x5
I0715 09:07:27.445245  3944 net.cpp:481] inception_3a/5x5 <- inception_3a/5x5_reduce
I0715 09:07:27.445250  3944 net.cpp:455] inception_3a/5x5 -> inception_3a/5x5_raw
I0715 09:07:27.445575  3944 net.cpp:190] Setting up inception_3a/5x5
I0715 09:07:27.445583  3944 net.cpp:197] Top shape: 1 32 64 128 (262144)
I0715 09:07:27.445586  3944 net.cpp:205] Memory required for data: 328728580
I0715 09:07:27.445591  3944 layer_factory.hpp:123] Creating layer inception_3a/5x5_BatchNorm
I0715 09:07:27.445598  3944 net.cpp:140] Creating Layer inception_3a/5x5_BatchNorm
I0715 09:07:27.445602  3944 net.cpp:481] inception_3a/5x5_BatchNorm <- inception_3a/5x5_raw
I0715 09:07:27.445607  3944 net.cpp:455] inception_3a/5x5_BatchNorm -> inception_3a/5x5
I0715 09:07:27.446245  3944 net.cpp:190] Setting up inception_3a/5x5_BatchNorm
I0715 09:07:27.446326  3944 net.cpp:197] Top shape: 1 32 64 128 (262144)
I0715 09:07:27.446359  3944 net.cpp:205] Memory required for data: 329777156
I0715 09:07:27.446391  3944 layer_factory.hpp:123] Creating layer inception_3a/relu_5x5
I0715 09:07:27.446425  3944 net.cpp:140] Creating Layer inception_3a/relu_5x5
I0715 09:07:27.446452  3944 net.cpp:481] inception_3a/relu_5x5 <- inception_3a/5x5
I0715 09:07:27.446481  3944 net.cpp:442] inception_3a/relu_5x5 -> inception_3a/5x5 (in-place)
I0715 09:07:27.446514  3944 net.cpp:190] Setting up inception_3a/relu_5x5
I0715 09:07:27.446542  3944 net.cpp:197] Top shape: 1 32 64 128 (262144)
I0715 09:07:27.446561  3944 net.cpp:205] Memory required for data: 330825732
I0715 09:07:27.446568  3944 layer_factory.hpp:123] Creating layer inception_3a/pool
I0715 09:07:27.446575  3944 net.cpp:140] Creating Layer inception_3a/pool
I0715 09:07:27.446579  3944 net.cpp:481] inception_3a/pool <- pool2/3x3_s2_pool2/3x3_s2_0_split_3
I0715 09:07:27.446584  3944 net.cpp:455] inception_3a/pool -> inception_3a/pool
I0715 09:07:27.446620  3944 net.cpp:190] Setting up inception_3a/pool
I0715 09:07:27.446627  3944 net.cpp:197] Top shape: 1 192 64 128 (1572864)
I0715 09:07:27.446636  3944 net.cpp:205] Memory required for data: 337117188
I0715 09:07:27.446640  3944 layer_factory.hpp:123] Creating layer inception_3a/pool_proj
I0715 09:07:27.446648  3944 net.cpp:140] Creating Layer inception_3a/pool_proj
I0715 09:07:27.446651  3944 net.cpp:481] inception_3a/pool_proj <- inception_3a/pool
I0715 09:07:27.446656  3944 net.cpp:455] inception_3a/pool_proj -> inception_3a/pool_proj_raw
I0715 09:07:27.446929  3944 net.cpp:190] Setting up inception_3a/pool_proj
I0715 09:07:27.446938  3944 net.cpp:197] Top shape: 1 32 64 128 (262144)
I0715 09:07:27.446943  3944 net.cpp:205] Memory required for data: 338165764
I0715 09:07:27.446947  3944 layer_factory.hpp:123] Creating layer inception_3a/pool_proj_BatchNorm
I0715 09:07:27.446954  3944 net.cpp:140] Creating Layer inception_3a/pool_proj_BatchNorm
I0715 09:07:27.446959  3944 net.cpp:481] inception_3a/pool_proj_BatchNorm <- inception_3a/pool_proj_raw
I0715 09:07:27.446964  3944 net.cpp:455] inception_3a/pool_proj_BatchNorm -> inception_3a/pool_proj
I0715 09:07:27.447561  3944 net.cpp:190] Setting up inception_3a/pool_proj_BatchNorm
I0715 09:07:27.447569  3944 net.cpp:197] Top shape: 1 32 64 128 (262144)
I0715 09:07:27.447572  3944 net.cpp:205] Memory required for data: 339214340
I0715 09:07:27.447582  3944 layer_factory.hpp:123] Creating layer inception_3a/relu_pool_proj
I0715 09:07:27.447588  3944 net.cpp:140] Creating Layer inception_3a/relu_pool_proj
I0715 09:07:27.447592  3944 net.cpp:481] inception_3a/relu_pool_proj <- inception_3a/pool_proj
I0715 09:07:27.447597  3944 net.cpp:442] inception_3a/relu_pool_proj -> inception_3a/pool_proj (in-place)
I0715 09:07:27.447603  3944 net.cpp:190] Setting up inception_3a/relu_pool_proj
I0715 09:07:27.447608  3944 net.cpp:197] Top shape: 1 32 64 128 (262144)
I0715 09:07:27.447610  3944 net.cpp:205] Memory required for data: 340262916
I0715 09:07:27.447614  3944 layer_factory.hpp:123] Creating layer inception_3a/output
I0715 09:07:27.447620  3944 net.cpp:140] Creating Layer inception_3a/output
I0715 09:07:27.447623  3944 net.cpp:481] inception_3a/output <- inception_3a/1x1
I0715 09:07:27.447626  3944 net.cpp:481] inception_3a/output <- inception_3a/3x3
I0715 09:07:27.447630  3944 net.cpp:481] inception_3a/output <- inception_3a/5x5
I0715 09:07:27.447634  3944 net.cpp:481] inception_3a/output <- inception_3a/pool_proj
I0715 09:07:27.447638  3944 net.cpp:455] inception_3a/output -> inception_3a/output
I0715 09:07:27.447659  3944 net.cpp:190] Setting up inception_3a/output
I0715 09:07:27.447665  3944 net.cpp:197] Top shape: 1 256 64 128 (2097152)
I0715 09:07:27.447669  3944 net.cpp:205] Memory required for data: 348651524
I0715 09:07:27.447670  3944 layer_factory.hpp:123] Creating layer inception_3a/output_inception_3a/output_0_split
I0715 09:07:27.447676  3944 net.cpp:140] Creating Layer inception_3a/output_inception_3a/output_0_split
I0715 09:07:27.447680  3944 net.cpp:481] inception_3a/output_inception_3a/output_0_split <- inception_3a/output
I0715 09:07:27.447685  3944 net.cpp:455] inception_3a/output_inception_3a/output_0_split -> inception_3a/output_inception_3a/output_0_split_0
I0715 09:07:27.447691  3944 net.cpp:455] inception_3a/output_inception_3a/output_0_split -> inception_3a/output_inception_3a/output_0_split_1
I0715 09:07:27.447697  3944 net.cpp:455] inception_3a/output_inception_3a/output_0_split -> inception_3a/output_inception_3a/output_0_split_2
I0715 09:07:27.447705  3944 net.cpp:455] inception_3a/output_inception_3a/output_0_split -> inception_3a/output_inception_3a/output_0_split_3
I0715 09:07:27.447751  3944 net.cpp:190] Setting up inception_3a/output_inception_3a/output_0_split
I0715 09:07:27.447764  3944 net.cpp:197] Top shape: 1 256 64 128 (2097152)
I0715 09:07:27.447768  3944 net.cpp:197] Top shape: 1 256 64 128 (2097152)
I0715 09:07:27.447772  3944 net.cpp:197] Top shape: 1 256 64 128 (2097152)
I0715 09:07:27.447777  3944 net.cpp:197] Top shape: 1 256 64 128 (2097152)
I0715 09:07:27.447778  3944 net.cpp:205] Memory required for data: 382205956
I0715 09:07:27.447782  3944 layer_factory.hpp:123] Creating layer inception_3b/1x1
I0715 09:07:27.447789  3944 net.cpp:140] Creating Layer inception_3b/1x1
I0715 09:07:27.447793  3944 net.cpp:481] inception_3b/1x1 <- inception_3a/output_inception_3a/output_0_split_0
I0715 09:07:27.447798  3944 net.cpp:455] inception_3b/1x1 -> inception_3b/1x1_raw
I0715 09:07:27.448302  3944 net.cpp:190] Setting up inception_3b/1x1
I0715 09:07:27.448310  3944 net.cpp:197] Top shape: 1 128 64 128 (1048576)
I0715 09:07:27.448312  3944 net.cpp:205] Memory required for data: 386400260
I0715 09:07:27.448323  3944 layer_factory.hpp:123] Creating layer inception_3b/1x1_BatchNorm
I0715 09:07:27.448331  3944 net.cpp:140] Creating Layer inception_3b/1x1_BatchNorm
I0715 09:07:27.448334  3944 net.cpp:481] inception_3b/1x1_BatchNorm <- inception_3b/1x1_raw
I0715 09:07:27.448340  3944 net.cpp:455] inception_3b/1x1_BatchNorm -> inception_3b/1x1
I0715 09:07:27.448865  3944 net.cpp:190] Setting up inception_3b/1x1_BatchNorm
I0715 09:07:27.448873  3944 net.cpp:197] Top shape: 1 128 64 128 (1048576)
I0715 09:07:27.448876  3944 net.cpp:205] Memory required for data: 390594564
I0715 09:07:27.448884  3944 layer_factory.hpp:123] Creating layer inception_3b/relu_1x1
I0715 09:07:27.448889  3944 net.cpp:140] Creating Layer inception_3b/relu_1x1
I0715 09:07:27.448894  3944 net.cpp:481] inception_3b/relu_1x1 <- inception_3b/1x1
I0715 09:07:27.448899  3944 net.cpp:442] inception_3b/relu_1x1 -> inception_3b/1x1 (in-place)
I0715 09:07:27.448904  3944 net.cpp:190] Setting up inception_3b/relu_1x1
I0715 09:07:27.448909  3944 net.cpp:197] Top shape: 1 128 64 128 (1048576)
I0715 09:07:27.448910  3944 net.cpp:205] Memory required for data: 394788868
I0715 09:07:27.448913  3944 layer_factory.hpp:123] Creating layer inception_3b/3x3_reduce
I0715 09:07:27.448920  3944 net.cpp:140] Creating Layer inception_3b/3x3_reduce
I0715 09:07:27.448925  3944 net.cpp:481] inception_3b/3x3_reduce <- inception_3a/output_inception_3a/output_0_split_1
I0715 09:07:27.448930  3944 net.cpp:455] inception_3b/3x3_reduce -> inception_3b/3x3_reduce_raw
I0715 09:07:27.449435  3944 net.cpp:190] Setting up inception_3b/3x3_reduce
I0715 09:07:27.449443  3944 net.cpp:197] Top shape: 1 128 64 128 (1048576)
I0715 09:07:27.449446  3944 net.cpp:205] Memory required for data: 398983172
I0715 09:07:27.449451  3944 layer_factory.hpp:123] Creating layer inception_3b/3x3_reduce_BatchNorm
I0715 09:07:27.449458  3944 net.cpp:140] Creating Layer inception_3b/3x3_reduce_BatchNorm
I0715 09:07:27.449461  3944 net.cpp:481] inception_3b/3x3_reduce_BatchNorm <- inception_3b/3x3_reduce_raw
I0715 09:07:27.449467  3944 net.cpp:455] inception_3b/3x3_reduce_BatchNorm -> inception_3b/3x3_reduce
I0715 09:07:27.450017  3944 net.cpp:190] Setting up inception_3b/3x3_reduce_BatchNorm
I0715 09:07:27.450031  3944 net.cpp:197] Top shape: 1 128 64 128 (1048576)
I0715 09:07:27.450034  3944 net.cpp:205] Memory required for data: 403177476
I0715 09:07:27.450044  3944 layer_factory.hpp:123] Creating layer inception_3b/relu_3x3_reduce
I0715 09:07:27.450049  3944 net.cpp:140] Creating Layer inception_3b/relu_3x3_reduce
I0715 09:07:27.450053  3944 net.cpp:481] inception_3b/relu_3x3_reduce <- inception_3b/3x3_reduce
I0715 09:07:27.450058  3944 net.cpp:442] inception_3b/relu_3x3_reduce -> inception_3b/3x3_reduce (in-place)
I0715 09:07:27.450064  3944 net.cpp:190] Setting up inception_3b/relu_3x3_reduce
I0715 09:07:27.450068  3944 net.cpp:197] Top shape: 1 128 64 128 (1048576)
I0715 09:07:27.450071  3944 net.cpp:205] Memory required for data: 407371780
I0715 09:07:27.450074  3944 layer_factory.hpp:123] Creating layer inception_3b/3x3
I0715 09:07:27.450083  3944 net.cpp:140] Creating Layer inception_3b/3x3
I0715 09:07:27.450085  3944 net.cpp:481] inception_3b/3x3 <- inception_3b/3x3_reduce
I0715 09:07:27.450090  3944 net.cpp:455] inception_3b/3x3 -> inception_3b/3x3_raw
I0715 09:07:27.453047  3944 net.cpp:190] Setting up inception_3b/3x3
I0715 09:07:27.453059  3944 net.cpp:197] Top shape: 1 192 64 128 (1572864)
I0715 09:07:27.453063  3944 net.cpp:205] Memory required for data: 413663236
I0715 09:07:27.453069  3944 layer_factory.hpp:123] Creating layer inception_3b/3x3_BatchNorm
I0715 09:07:27.453076  3944 net.cpp:140] Creating Layer inception_3b/3x3_BatchNorm
I0715 09:07:27.453080  3944 net.cpp:481] inception_3b/3x3_BatchNorm <- inception_3b/3x3_raw
I0715 09:07:27.453086  3944 net.cpp:455] inception_3b/3x3_BatchNorm -> inception_3b/3x3
I0715 09:07:27.453687  3944 net.cpp:190] Setting up inception_3b/3x3_BatchNorm
I0715 09:07:27.453696  3944 net.cpp:197] Top shape: 1 192 64 128 (1572864)
I0715 09:07:27.453698  3944 net.cpp:205] Memory required for data: 419954692
I0715 09:07:27.453706  3944 layer_factory.hpp:123] Creating layer inception_3b/relu_3x3
I0715 09:07:27.453712  3944 net.cpp:140] Creating Layer inception_3b/relu_3x3
I0715 09:07:27.453716  3944 net.cpp:481] inception_3b/relu_3x3 <- inception_3b/3x3
I0715 09:07:27.453721  3944 net.cpp:442] inception_3b/relu_3x3 -> inception_3b/3x3 (in-place)
I0715 09:07:27.453727  3944 net.cpp:190] Setting up inception_3b/relu_3x3
I0715 09:07:27.453732  3944 net.cpp:197] Top shape: 1 192 64 128 (1572864)
I0715 09:07:27.453734  3944 net.cpp:205] Memory required for data: 426246148
I0715 09:07:27.453737  3944 layer_factory.hpp:123] Creating layer inception_3b/5x5_reduce
I0715 09:07:27.453744  3944 net.cpp:140] Creating Layer inception_3b/5x5_reduce
I0715 09:07:27.453748  3944 net.cpp:481] inception_3b/5x5_reduce <- inception_3a/output_inception_3a/output_0_split_2
I0715 09:07:27.453753  3944 net.cpp:455] inception_3b/5x5_reduce -> inception_3b/5x5_reduce_raw
I0715 09:07:27.454048  3944 net.cpp:190] Setting up inception_3b/5x5_reduce
I0715 09:07:27.454056  3944 net.cpp:197] Top shape: 1 32 64 128 (262144)
I0715 09:07:27.454061  3944 net.cpp:205] Memory required for data: 427294724
I0715 09:07:27.454066  3944 layer_factory.hpp:123] Creating layer inception_3b/5x5_reduce_BatchNorm
I0715 09:07:27.454072  3944 net.cpp:140] Creating Layer inception_3b/5x5_reduce_BatchNorm
I0715 09:07:27.454075  3944 net.cpp:481] inception_3b/5x5_reduce_BatchNorm <- inception_3b/5x5_reduce_raw
I0715 09:07:27.454082  3944 net.cpp:455] inception_3b/5x5_reduce_BatchNorm -> inception_3b/5x5_reduce
I0715 09:07:27.454684  3944 net.cpp:190] Setting up inception_3b/5x5_reduce_BatchNorm
I0715 09:07:27.454691  3944 net.cpp:197] Top shape: 1 32 64 128 (262144)
I0715 09:07:27.454694  3944 net.cpp:205] Memory required for data: 428343300
I0715 09:07:27.454704  3944 layer_factory.hpp:123] Creating layer inception_3b/relu_5x5_reduce
I0715 09:07:27.454708  3944 net.cpp:140] Creating Layer inception_3b/relu_5x5_reduce
I0715 09:07:27.454711  3944 net.cpp:481] inception_3b/relu_5x5_reduce <- inception_3b/5x5_reduce
I0715 09:07:27.454716  3944 net.cpp:442] inception_3b/relu_5x5_reduce -> inception_3b/5x5_reduce (in-place)
I0715 09:07:27.454723  3944 net.cpp:190] Setting up inception_3b/relu_5x5_reduce
I0715 09:07:27.454726  3944 net.cpp:197] Top shape: 1 32 64 128 (262144)
I0715 09:07:27.454730  3944 net.cpp:205] Memory required for data: 429391876
I0715 09:07:27.454732  3944 layer_factory.hpp:123] Creating layer inception_3b/5x5
I0715 09:07:27.454741  3944 net.cpp:140] Creating Layer inception_3b/5x5
I0715 09:07:27.454743  3944 net.cpp:481] inception_3b/5x5 <- inception_3b/5x5_reduce
I0715 09:07:27.454748  3944 net.cpp:455] inception_3b/5x5 -> inception_3b/5x5_raw
I0715 09:07:27.455638  3944 net.cpp:190] Setting up inception_3b/5x5
I0715 09:07:27.455646  3944 net.cpp:197] Top shape: 1 96 64 128 (786432)
I0715 09:07:27.455649  3944 net.cpp:205] Memory required for data: 432537604
I0715 09:07:27.455654  3944 layer_factory.hpp:123] Creating layer inception_3b/5x5_BatchNorm
I0715 09:07:27.455662  3944 net.cpp:140] Creating Layer inception_3b/5x5_BatchNorm
I0715 09:07:27.455665  3944 net.cpp:481] inception_3b/5x5_BatchNorm <- inception_3b/5x5_raw
I0715 09:07:27.455670  3944 net.cpp:455] inception_3b/5x5_BatchNorm -> inception_3b/5x5
I0715 09:07:27.456284  3944 net.cpp:190] Setting up inception_3b/5x5_BatchNorm
I0715 09:07:27.456292  3944 net.cpp:197] Top shape: 1 96 64 128 (786432)
I0715 09:07:27.456296  3944 net.cpp:205] Memory required for data: 435683332
I0715 09:07:27.456305  3944 layer_factory.hpp:123] Creating layer inception_3b/relu_5x5
I0715 09:07:27.456310  3944 net.cpp:140] Creating Layer inception_3b/relu_5x5
I0715 09:07:27.456312  3944 net.cpp:481] inception_3b/relu_5x5 <- inception_3b/5x5
I0715 09:07:27.456318  3944 net.cpp:442] inception_3b/relu_5x5 -> inception_3b/5x5 (in-place)
I0715 09:07:27.456324  3944 net.cpp:190] Setting up inception_3b/relu_5x5
I0715 09:07:27.456328  3944 net.cpp:197] Top shape: 1 96 64 128 (786432)
I0715 09:07:27.456331  3944 net.cpp:205] Memory required for data: 438829060
I0715 09:07:27.456334  3944 layer_factory.hpp:123] Creating layer inception_3b/pool
I0715 09:07:27.456339  3944 net.cpp:140] Creating Layer inception_3b/pool
I0715 09:07:27.456343  3944 net.cpp:481] inception_3b/pool <- inception_3a/output_inception_3a/output_0_split_3
I0715 09:07:27.456348  3944 net.cpp:455] inception_3b/pool -> inception_3b/pool
I0715 09:07:27.456379  3944 net.cpp:190] Setting up inception_3b/pool
I0715 09:07:27.456384  3944 net.cpp:197] Top shape: 1 256 64 128 (2097152)
I0715 09:07:27.456387  3944 net.cpp:205] Memory required for data: 447217668
I0715 09:07:27.456389  3944 layer_factory.hpp:123] Creating layer inception_3b/pool_proj
I0715 09:07:27.456398  3944 net.cpp:140] Creating Layer inception_3b/pool_proj
I0715 09:07:27.456400  3944 net.cpp:481] inception_3b/pool_proj <- inception_3b/pool
I0715 09:07:27.456406  3944 net.cpp:455] inception_3b/pool_proj -> inception_3b/pool_proj_raw
I0715 09:07:27.456766  3944 net.cpp:190] Setting up inception_3b/pool_proj
I0715 09:07:27.456775  3944 net.cpp:197] Top shape: 1 64 64 128 (524288)
I0715 09:07:27.456779  3944 net.cpp:205] Memory required for data: 449314820
I0715 09:07:27.456784  3944 layer_factory.hpp:123] Creating layer inception_3b/pool_proj_BatchNorm
I0715 09:07:27.456790  3944 net.cpp:140] Creating Layer inception_3b/pool_proj_BatchNorm
I0715 09:07:27.456794  3944 net.cpp:481] inception_3b/pool_proj_BatchNorm <- inception_3b/pool_proj_raw
I0715 09:07:27.456799  3944 net.cpp:455] inception_3b/pool_proj_BatchNorm -> inception_3b/pool_proj
I0715 09:07:27.457415  3944 net.cpp:190] Setting up inception_3b/pool_proj_BatchNorm
I0715 09:07:27.457425  3944 net.cpp:197] Top shape: 1 64 64 128 (524288)
I0715 09:07:27.457428  3944 net.cpp:205] Memory required for data: 451411972
I0715 09:07:27.457437  3944 layer_factory.hpp:123] Creating layer inception_3b/relu_pool_proj
I0715 09:07:27.457442  3944 net.cpp:140] Creating Layer inception_3b/relu_pool_proj
I0715 09:07:27.457446  3944 net.cpp:481] inception_3b/relu_pool_proj <- inception_3b/pool_proj
I0715 09:07:27.457451  3944 net.cpp:442] inception_3b/relu_pool_proj -> inception_3b/pool_proj (in-place)
I0715 09:07:27.457458  3944 net.cpp:190] Setting up inception_3b/relu_pool_proj
I0715 09:07:27.457463  3944 net.cpp:197] Top shape: 1 64 64 128 (524288)
I0715 09:07:27.457464  3944 net.cpp:205] Memory required for data: 453509124
I0715 09:07:27.457468  3944 layer_factory.hpp:123] Creating layer inception_3b/output
I0715 09:07:27.457473  3944 net.cpp:140] Creating Layer inception_3b/output
I0715 09:07:27.457476  3944 net.cpp:481] inception_3b/output <- inception_3b/1x1
I0715 09:07:27.457479  3944 net.cpp:481] inception_3b/output <- inception_3b/3x3
I0715 09:07:27.457484  3944 net.cpp:481] inception_3b/output <- inception_3b/5x5
I0715 09:07:27.457487  3944 net.cpp:481] inception_3b/output <- inception_3b/pool_proj
I0715 09:07:27.457492  3944 net.cpp:455] inception_3b/output -> inception_3b/output
I0715 09:07:27.457514  3944 net.cpp:190] Setting up inception_3b/output
I0715 09:07:27.457518  3944 net.cpp:197] Top shape: 1 480 64 128 (3932160)
I0715 09:07:27.457521  3944 net.cpp:205] Memory required for data: 469237764
I0715 09:07:27.457525  3944 layer_factory.hpp:123] Creating layer inception_3b/output_inception_3b/output_0_split
I0715 09:07:27.457530  3944 net.cpp:140] Creating Layer inception_3b/output_inception_3b/output_0_split
I0715 09:07:27.457533  3944 net.cpp:481] inception_3b/output_inception_3b/output_0_split <- inception_3b/output
I0715 09:07:27.457538  3944 net.cpp:455] inception_3b/output_inception_3b/output_0_split -> inception_3b/output_inception_3b/output_0_split_0
I0715 09:07:27.457545  3944 net.cpp:455] inception_3b/output_inception_3b/output_0_split -> inception_3b/output_inception_3b/output_0_split_1
I0715 09:07:27.457571  3944 net.cpp:190] Setting up inception_3b/output_inception_3b/output_0_split
I0715 09:07:27.457576  3944 net.cpp:197] Top shape: 1 480 64 128 (3932160)
I0715 09:07:27.457579  3944 net.cpp:197] Top shape: 1 480 64 128 (3932160)
I0715 09:07:27.457582  3944 net.cpp:205] Memory required for data: 500695044
I0715 09:07:27.457584  3944 layer_factory.hpp:123] Creating layer pool3/3x3_s2
I0715 09:07:27.457590  3944 net.cpp:140] Creating Layer pool3/3x3_s2
I0715 09:07:27.457594  3944 net.cpp:481] pool3/3x3_s2 <- inception_3b/output_inception_3b/output_0_split_0
I0715 09:07:27.457599  3944 net.cpp:455] pool3/3x3_s2 -> pool3/3x3_s2
I0715 09:07:27.457626  3944 net.cpp:190] Setting up pool3/3x3_s2
I0715 09:07:27.457633  3944 net.cpp:197] Top shape: 1 480 32 64 (983040)
I0715 09:07:27.457635  3944 net.cpp:205] Memory required for data: 504627204
I0715 09:07:27.457638  3944 layer_factory.hpp:123] Creating layer pool3/3x3_s2_pool3/3x3_s2_0_split
I0715 09:07:27.457643  3944 net.cpp:140] Creating Layer pool3/3x3_s2_pool3/3x3_s2_0_split
I0715 09:07:27.457648  3944 net.cpp:481] pool3/3x3_s2_pool3/3x3_s2_0_split <- pool3/3x3_s2
I0715 09:07:27.457651  3944 net.cpp:455] pool3/3x3_s2_pool3/3x3_s2_0_split -> pool3/3x3_s2_pool3/3x3_s2_0_split_0
I0715 09:07:27.457657  3944 net.cpp:455] pool3/3x3_s2_pool3/3x3_s2_0_split -> pool3/3x3_s2_pool3/3x3_s2_0_split_1
I0715 09:07:27.457664  3944 net.cpp:455] pool3/3x3_s2_pool3/3x3_s2_0_split -> pool3/3x3_s2_pool3/3x3_s2_0_split_2
I0715 09:07:27.457669  3944 net.cpp:455] pool3/3x3_s2_pool3/3x3_s2_0_split -> pool3/3x3_s2_pool3/3x3_s2_0_split_3
I0715 09:07:27.457713  3944 net.cpp:190] Setting up pool3/3x3_s2_pool3/3x3_s2_0_split
I0715 09:07:27.457720  3944 net.cpp:197] Top shape: 1 480 32 64 (983040)
I0715 09:07:27.457723  3944 net.cpp:197] Top shape: 1 480 32 64 (983040)
I0715 09:07:27.457727  3944 net.cpp:197] Top shape: 1 480 32 64 (983040)
I0715 09:07:27.457731  3944 net.cpp:197] Top shape: 1 480 32 64 (983040)
I0715 09:07:27.457733  3944 net.cpp:205] Memory required for data: 520355844
I0715 09:07:27.457736  3944 layer_factory.hpp:123] Creating layer inception_4a/1x1
I0715 09:07:27.457743  3944 net.cpp:140] Creating Layer inception_4a/1x1
I0715 09:07:27.457747  3944 net.cpp:481] inception_4a/1x1 <- pool3/3x3_s2_pool3/3x3_s2_0_split_0
I0715 09:07:27.457752  3944 net.cpp:455] inception_4a/1x1 -> inception_4a/1x1_raw
I0715 09:07:27.459553  3944 net.cpp:190] Setting up inception_4a/1x1
I0715 09:07:27.459564  3944 net.cpp:197] Top shape: 1 192 32 64 (393216)
I0715 09:07:27.459568  3944 net.cpp:205] Memory required for data: 521928708
I0715 09:07:27.459573  3944 layer_factory.hpp:123] Creating layer inception_4a/1x1_BatchNorm
I0715 09:07:27.459581  3944 net.cpp:140] Creating Layer inception_4a/1x1_BatchNorm
I0715 09:07:27.459585  3944 net.cpp:481] inception_4a/1x1_BatchNorm <- inception_4a/1x1_raw
I0715 09:07:27.459591  3944 net.cpp:455] inception_4a/1x1_BatchNorm -> inception_4a/1x1
I0715 09:07:27.460201  3944 net.cpp:190] Setting up inception_4a/1x1_BatchNorm
I0715 09:07:27.460209  3944 net.cpp:197] Top shape: 1 192 32 64 (393216)
I0715 09:07:27.460212  3944 net.cpp:205] Memory required for data: 523501572
I0715 09:07:27.460220  3944 layer_factory.hpp:123] Creating layer inception_4a/relu_1x1
I0715 09:07:27.460227  3944 net.cpp:140] Creating Layer inception_4a/relu_1x1
I0715 09:07:27.460229  3944 net.cpp:481] inception_4a/relu_1x1 <- inception_4a/1x1
I0715 09:07:27.460234  3944 net.cpp:442] inception_4a/relu_1x1 -> inception_4a/1x1 (in-place)
I0715 09:07:27.460242  3944 net.cpp:190] Setting up inception_4a/relu_1x1
I0715 09:07:27.460247  3944 net.cpp:197] Top shape: 1 192 32 64 (393216)
I0715 09:07:27.460249  3944 net.cpp:205] Memory required for data: 525074436
I0715 09:07:27.460253  3944 layer_factory.hpp:123] Creating layer inception_4a/3x3_reduce
I0715 09:07:27.460259  3944 net.cpp:140] Creating Layer inception_4a/3x3_reduce
I0715 09:07:27.460263  3944 net.cpp:481] inception_4a/3x3_reduce <- pool3/3x3_s2_pool3/3x3_s2_0_split_1
I0715 09:07:27.460268  3944 net.cpp:455] inception_4a/3x3_reduce -> inception_4a/3x3_reduce_raw
I0715 09:07:27.460906  3944 net.cpp:190] Setting up inception_4a/3x3_reduce
I0715 09:07:27.460914  3944 net.cpp:197] Top shape: 1 96 32 64 (196608)
I0715 09:07:27.460917  3944 net.cpp:205] Memory required for data: 525860868
I0715 09:07:27.460922  3944 layer_factory.hpp:123] Creating layer inception_4a/3x3_reduce_BatchNorm
I0715 09:07:27.460929  3944 net.cpp:140] Creating Layer inception_4a/3x3_reduce_BatchNorm
I0715 09:07:27.460933  3944 net.cpp:481] inception_4a/3x3_reduce_BatchNorm <- inception_4a/3x3_reduce_raw
I0715 09:07:27.460939  3944 net.cpp:455] inception_4a/3x3_reduce_BatchNorm -> inception_4a/3x3_reduce
I0715 09:07:27.461552  3944 net.cpp:190] Setting up inception_4a/3x3_reduce_BatchNorm
I0715 09:07:27.461560  3944 net.cpp:197] Top shape: 1 96 32 64 (196608)
I0715 09:07:27.461563  3944 net.cpp:205] Memory required for data: 526647300
I0715 09:07:27.461571  3944 layer_factory.hpp:123] Creating layer inception_4a/relu_3x3_reduce
I0715 09:07:27.461577  3944 net.cpp:140] Creating Layer inception_4a/relu_3x3_reduce
I0715 09:07:27.461580  3944 net.cpp:481] inception_4a/relu_3x3_reduce <- inception_4a/3x3_reduce
I0715 09:07:27.461585  3944 net.cpp:442] inception_4a/relu_3x3_reduce -> inception_4a/3x3_reduce (in-place)
I0715 09:07:27.461591  3944 net.cpp:190] Setting up inception_4a/relu_3x3_reduce
I0715 09:07:27.461596  3944 net.cpp:197] Top shape: 1 96 32 64 (196608)
I0715 09:07:27.461598  3944 net.cpp:205] Memory required for data: 527433732
I0715 09:07:27.461601  3944 layer_factory.hpp:123] Creating layer inception_4a/3x3
I0715 09:07:27.461611  3944 net.cpp:140] Creating Layer inception_4a/3x3
I0715 09:07:27.461614  3944 net.cpp:481] inception_4a/3x3 <- inception_4a/3x3_reduce
I0715 09:07:27.461621  3944 net.cpp:455] inception_4a/3x3 -> inception_4a/3x3_raw
I0715 09:07:27.463402  3944 net.cpp:190] Setting up inception_4a/3x3
I0715 09:07:27.463410  3944 net.cpp:197] Top shape: 1 208 32 64 (425984)
I0715 09:07:27.463413  3944 net.cpp:205] Memory required for data: 529137668
I0715 09:07:27.463419  3944 layer_factory.hpp:123] Creating layer inception_4a/3x3_BatchNorm
I0715 09:07:27.463426  3944 net.cpp:140] Creating Layer inception_4a/3x3_BatchNorm
I0715 09:07:27.463430  3944 net.cpp:481] inception_4a/3x3_BatchNorm <- inception_4a/3x3_raw
I0715 09:07:27.463436  3944 net.cpp:455] inception_4a/3x3_BatchNorm -> inception_4a/3x3
I0715 09:07:27.464048  3944 net.cpp:190] Setting up inception_4a/3x3_BatchNorm
I0715 09:07:27.464056  3944 net.cpp:197] Top shape: 1 208 32 64 (425984)
I0715 09:07:27.464059  3944 net.cpp:205] Memory required for data: 530841604
I0715 09:07:27.464067  3944 layer_factory.hpp:123] Creating layer inception_4a/relu_3x3
I0715 09:07:27.464073  3944 net.cpp:140] Creating Layer inception_4a/relu_3x3
I0715 09:07:27.464077  3944 net.cpp:481] inception_4a/relu_3x3 <- inception_4a/3x3
I0715 09:07:27.464082  3944 net.cpp:442] inception_4a/relu_3x3 -> inception_4a/3x3 (in-place)
I0715 09:07:27.464088  3944 net.cpp:190] Setting up inception_4a/relu_3x3
I0715 09:07:27.464092  3944 net.cpp:197] Top shape: 1 208 32 64 (425984)
I0715 09:07:27.464095  3944 net.cpp:205] Memory required for data: 532545540
I0715 09:07:27.464098  3944 layer_factory.hpp:123] Creating layer inception_4a/5x5_reduce
I0715 09:07:27.464105  3944 net.cpp:140] Creating Layer inception_4a/5x5_reduce
I0715 09:07:27.464109  3944 net.cpp:481] inception_4a/5x5_reduce <- pool3/3x3_s2_pool3/3x3_s2_0_split_2
I0715 09:07:27.464115  3944 net.cpp:455] inception_4a/5x5_reduce -> inception_4a/5x5_reduce_raw
I0715 09:07:27.464408  3944 net.cpp:190] Setting up inception_4a/5x5_reduce
I0715 09:07:27.464416  3944 net.cpp:197] Top shape: 1 16 32 64 (32768)
I0715 09:07:27.464418  3944 net.cpp:205] Memory required for data: 532676612
I0715 09:07:27.464424  3944 layer_factory.hpp:123] Creating layer inception_4a/5x5_reduce_BatchNorm
I0715 09:07:27.464432  3944 net.cpp:140] Creating Layer inception_4a/5x5_reduce_BatchNorm
I0715 09:07:27.464435  3944 net.cpp:481] inception_4a/5x5_reduce_BatchNorm <- inception_4a/5x5_reduce_raw
I0715 09:07:27.464442  3944 net.cpp:455] inception_4a/5x5_reduce_BatchNorm -> inception_4a/5x5_reduce
I0715 09:07:27.465039  3944 net.cpp:190] Setting up inception_4a/5x5_reduce_BatchNorm
I0715 09:07:27.465046  3944 net.cpp:197] Top shape: 1 16 32 64 (32768)
I0715 09:07:27.465049  3944 net.cpp:205] Memory required for data: 532807684
I0715 09:07:27.465063  3944 layer_factory.hpp:123] Creating layer inception_4a/relu_5x5_reduce
I0715 09:07:27.465070  3944 net.cpp:140] Creating Layer inception_4a/relu_5x5_reduce
I0715 09:07:27.465073  3944 net.cpp:481] inception_4a/relu_5x5_reduce <- inception_4a/5x5_reduce
I0715 09:07:27.465077  3944 net.cpp:442] inception_4a/relu_5x5_reduce -> inception_4a/5x5_reduce (in-place)
I0715 09:07:27.465085  3944 net.cpp:190] Setting up inception_4a/relu_5x5_reduce
I0715 09:07:27.465088  3944 net.cpp:197] Top shape: 1 16 32 64 (32768)
I0715 09:07:27.465091  3944 net.cpp:205] Memory required for data: 532938756
I0715 09:07:27.465095  3944 layer_factory.hpp:123] Creating layer inception_4a/5x5
I0715 09:07:27.465102  3944 net.cpp:140] Creating Layer inception_4a/5x5
I0715 09:07:27.465106  3944 net.cpp:481] inception_4a/5x5 <- inception_4a/5x5_reduce
I0715 09:07:27.465111  3944 net.cpp:455] inception_4a/5x5 -> inception_4a/5x5_raw
I0715 09:07:27.465512  3944 net.cpp:190] Setting up inception_4a/5x5
I0715 09:07:27.465520  3944 net.cpp:197] Top shape: 1 48 32 64 (98304)
I0715 09:07:27.465523  3944 net.cpp:205] Memory required for data: 533331972
I0715 09:07:27.465528  3944 layer_factory.hpp:123] Creating layer inception_4a/5x5_BatchNorm
I0715 09:07:27.465535  3944 net.cpp:140] Creating Layer inception_4a/5x5_BatchNorm
I0715 09:07:27.465539  3944 net.cpp:481] inception_4a/5x5_BatchNorm <- inception_4a/5x5_raw
I0715 09:07:27.465545  3944 net.cpp:455] inception_4a/5x5_BatchNorm -> inception_4a/5x5
I0715 09:07:27.466161  3944 net.cpp:190] Setting up inception_4a/5x5_BatchNorm
I0715 09:07:27.466168  3944 net.cpp:197] Top shape: 1 48 32 64 (98304)
I0715 09:07:27.466171  3944 net.cpp:205] Memory required for data: 533725188
I0715 09:07:27.466179  3944 layer_factory.hpp:123] Creating layer inception_4a/relu_5x5
I0715 09:07:27.466186  3944 net.cpp:140] Creating Layer inception_4a/relu_5x5
I0715 09:07:27.466188  3944 net.cpp:481] inception_4a/relu_5x5 <- inception_4a/5x5
I0715 09:07:27.466193  3944 net.cpp:442] inception_4a/relu_5x5 -> inception_4a/5x5 (in-place)
I0715 09:07:27.466199  3944 net.cpp:190] Setting up inception_4a/relu_5x5
I0715 09:07:27.466203  3944 net.cpp:197] Top shape: 1 48 32 64 (98304)
I0715 09:07:27.466207  3944 net.cpp:205] Memory required for data: 534118404
I0715 09:07:27.466209  3944 layer_factory.hpp:123] Creating layer inception_4a/pool
I0715 09:07:27.466215  3944 net.cpp:140] Creating Layer inception_4a/pool
I0715 09:07:27.466218  3944 net.cpp:481] inception_4a/pool <- pool3/3x3_s2_pool3/3x3_s2_0_split_3
I0715 09:07:27.466223  3944 net.cpp:455] inception_4a/pool -> inception_4a/pool
I0715 09:07:27.466254  3944 net.cpp:190] Setting up inception_4a/pool
I0715 09:07:27.466261  3944 net.cpp:197] Top shape: 1 480 32 64 (983040)
I0715 09:07:27.466264  3944 net.cpp:205] Memory required for data: 538050564
I0715 09:07:27.466267  3944 layer_factory.hpp:123] Creating layer inception_4a/pool_proj
I0715 09:07:27.466275  3944 net.cpp:140] Creating Layer inception_4a/pool_proj
I0715 09:07:27.466279  3944 net.cpp:481] inception_4a/pool_proj <- inception_4a/pool
I0715 09:07:27.466284  3944 net.cpp:455] inception_4a/pool_proj -> inception_4a/pool_proj_raw
I0715 09:07:27.466780  3944 net.cpp:190] Setting up inception_4a/pool_proj
I0715 09:07:27.466789  3944 net.cpp:197] Top shape: 1 64 32 64 (131072)
I0715 09:07:27.466791  3944 net.cpp:205] Memory required for data: 538574852
I0715 09:07:27.466796  3944 layer_factory.hpp:123] Creating layer inception_4a/pool_proj_BatchNorm
I0715 09:07:27.466804  3944 net.cpp:140] Creating Layer inception_4a/pool_proj_BatchNorm
I0715 09:07:27.466809  3944 net.cpp:481] inception_4a/pool_proj_BatchNorm <- inception_4a/pool_proj_raw
I0715 09:07:27.466814  3944 net.cpp:455] inception_4a/pool_proj_BatchNorm -> inception_4a/pool_proj
I0715 09:07:27.467420  3944 net.cpp:190] Setting up inception_4a/pool_proj_BatchNorm
I0715 09:07:27.467427  3944 net.cpp:197] Top shape: 1 64 32 64 (131072)
I0715 09:07:27.467432  3944 net.cpp:205] Memory required for data: 539099140
I0715 09:07:27.467439  3944 layer_factory.hpp:123] Creating layer inception_4a/relu_pool_proj
I0715 09:07:27.467444  3944 net.cpp:140] Creating Layer inception_4a/relu_pool_proj
I0715 09:07:27.467448  3944 net.cpp:481] inception_4a/relu_pool_proj <- inception_4a/pool_proj
I0715 09:07:27.467453  3944 net.cpp:442] inception_4a/relu_pool_proj -> inception_4a/pool_proj (in-place)
I0715 09:07:27.467459  3944 net.cpp:190] Setting up inception_4a/relu_pool_proj
I0715 09:07:27.467463  3944 net.cpp:197] Top shape: 1 64 32 64 (131072)
I0715 09:07:27.467466  3944 net.cpp:205] Memory required for data: 539623428
I0715 09:07:27.467469  3944 layer_factory.hpp:123] Creating layer inception_4a/output
I0715 09:07:27.467474  3944 net.cpp:140] Creating Layer inception_4a/output
I0715 09:07:27.467478  3944 net.cpp:481] inception_4a/output <- inception_4a/1x1
I0715 09:07:27.467480  3944 net.cpp:481] inception_4a/output <- inception_4a/3x3
I0715 09:07:27.467484  3944 net.cpp:481] inception_4a/output <- inception_4a/5x5
I0715 09:07:27.467489  3944 net.cpp:481] inception_4a/output <- inception_4a/pool_proj
I0715 09:07:27.467494  3944 net.cpp:455] inception_4a/output -> inception_4a/output
I0715 09:07:27.467514  3944 net.cpp:190] Setting up inception_4a/output
I0715 09:07:27.467522  3944 net.cpp:197] Top shape: 1 512 32 64 (1048576)
I0715 09:07:27.467525  3944 net.cpp:205] Memory required for data: 543817732
I0715 09:07:27.467528  3944 layer_factory.hpp:123] Creating layer inception_4a/output_inception_4a/output_0_split
I0715 09:07:27.467533  3944 net.cpp:140] Creating Layer inception_4a/output_inception_4a/output_0_split
I0715 09:07:27.467537  3944 net.cpp:481] inception_4a/output_inception_4a/output_0_split <- inception_4a/output
I0715 09:07:27.467542  3944 net.cpp:455] inception_4a/output_inception_4a/output_0_split -> inception_4a/output_inception_4a/output_0_split_0
I0715 09:07:27.467550  3944 net.cpp:455] inception_4a/output_inception_4a/output_0_split -> inception_4a/output_inception_4a/output_0_split_1
I0715 09:07:27.467555  3944 net.cpp:455] inception_4a/output_inception_4a/output_0_split -> inception_4a/output_inception_4a/output_0_split_2
I0715 09:07:27.467561  3944 net.cpp:455] inception_4a/output_inception_4a/output_0_split -> inception_4a/output_inception_4a/output_0_split_3
I0715 09:07:27.467607  3944 net.cpp:190] Setting up inception_4a/output_inception_4a/output_0_split
I0715 09:07:27.467613  3944 net.cpp:197] Top shape: 1 512 32 64 (1048576)
I0715 09:07:27.467617  3944 net.cpp:197] Top shape: 1 512 32 64 (1048576)
I0715 09:07:27.467622  3944 net.cpp:197] Top shape: 1 512 32 64 (1048576)
I0715 09:07:27.467624  3944 net.cpp:197] Top shape: 1 512 32 64 (1048576)
I0715 09:07:27.467628  3944 net.cpp:205] Memory required for data: 560594948
I0715 09:07:27.467630  3944 layer_factory.hpp:123] Creating layer inception_4b/1x1
I0715 09:07:27.467638  3944 net.cpp:140] Creating Layer inception_4b/1x1
I0715 09:07:27.467641  3944 net.cpp:481] inception_4b/1x1 <- inception_4a/output_inception_4a/output_0_split_0
I0715 09:07:27.467648  3944 net.cpp:455] inception_4b/1x1 -> inception_4b/1x1_raw
I0715 09:07:27.469369  3944 net.cpp:190] Setting up inception_4b/1x1
I0715 09:07:27.469383  3944 net.cpp:197] Top shape: 1 160 32 64 (327680)
I0715 09:07:27.469385  3944 net.cpp:205] Memory required for data: 561905668
I0715 09:07:27.469391  3944 layer_factory.hpp:123] Creating layer inception_4b/1x1_BatchNorm
I0715 09:07:27.469399  3944 net.cpp:140] Creating Layer inception_4b/1x1_BatchNorm
I0715 09:07:27.469403  3944 net.cpp:481] inception_4b/1x1_BatchNorm <- inception_4b/1x1_raw
I0715 09:07:27.469410  3944 net.cpp:455] inception_4b/1x1_BatchNorm -> inception_4b/1x1
I0715 09:07:27.470024  3944 net.cpp:190] Setting up inception_4b/1x1_BatchNorm
I0715 09:07:27.470032  3944 net.cpp:197] Top shape: 1 160 32 64 (327680)
I0715 09:07:27.470036  3944 net.cpp:205] Memory required for data: 563216388
I0715 09:07:27.470044  3944 layer_factory.hpp:123] Creating layer inception_4b/relu_1x1
I0715 09:07:27.470049  3944 net.cpp:140] Creating Layer inception_4b/relu_1x1
I0715 09:07:27.470053  3944 net.cpp:481] inception_4b/relu_1x1 <- inception_4b/1x1
I0715 09:07:27.470058  3944 net.cpp:442] inception_4b/relu_1x1 -> inception_4b/1x1 (in-place)
I0715 09:07:27.470064  3944 net.cpp:190] Setting up inception_4b/relu_1x1
I0715 09:07:27.470068  3944 net.cpp:197] Top shape: 1 160 32 64 (327680)
I0715 09:07:27.470072  3944 net.cpp:205] Memory required for data: 564527108
I0715 09:07:27.470075  3944 layer_factory.hpp:123] Creating layer inception_4b/3x3_reduce
I0715 09:07:27.470083  3944 net.cpp:140] Creating Layer inception_4b/3x3_reduce
I0715 09:07:27.470086  3944 net.cpp:481] inception_4b/3x3_reduce <- inception_4a/output_inception_4a/output_0_split_1
I0715 09:07:27.470093  3944 net.cpp:455] inception_4b/3x3_reduce -> inception_4b/3x3_reduce_raw
I0715 09:07:27.471585  3944 net.cpp:190] Setting up inception_4b/3x3_reduce
I0715 09:07:27.471597  3944 net.cpp:197] Top shape: 1 112 32 64 (229376)
I0715 09:07:27.471601  3944 net.cpp:205] Memory required for data: 565444612
I0715 09:07:27.471606  3944 layer_factory.hpp:123] Creating layer inception_4b/3x3_reduce_BatchNorm
I0715 09:07:27.471616  3944 net.cpp:140] Creating Layer inception_4b/3x3_reduce_BatchNorm
I0715 09:07:27.471618  3944 net.cpp:481] inception_4b/3x3_reduce_BatchNorm <- inception_4b/3x3_reduce_raw
I0715 09:07:27.471624  3944 net.cpp:455] inception_4b/3x3_reduce_BatchNorm -> inception_4b/3x3_reduce
I0715 09:07:27.472261  3944 net.cpp:190] Setting up inception_4b/3x3_reduce_BatchNorm
I0715 09:07:27.472271  3944 net.cpp:197] Top shape: 1 112 32 64 (229376)
I0715 09:07:27.472275  3944 net.cpp:205] Memory required for data: 566362116
I0715 09:07:27.472282  3944 layer_factory.hpp:123] Creating layer inception_4b/relu_3x3_reduce
I0715 09:07:27.472287  3944 net.cpp:140] Creating Layer inception_4b/relu_3x3_reduce
I0715 09:07:27.472291  3944 net.cpp:481] inception_4b/relu_3x3_reduce <- inception_4b/3x3_reduce
I0715 09:07:27.472296  3944 net.cpp:442] inception_4b/relu_3x3_reduce -> inception_4b/3x3_reduce (in-place)
I0715 09:07:27.472303  3944 net.cpp:190] Setting up inception_4b/relu_3x3_reduce
I0715 09:07:27.472308  3944 net.cpp:197] Top shape: 1 112 32 64 (229376)
I0715 09:07:27.472311  3944 net.cpp:205] Memory required for data: 567279620
I0715 09:07:27.472314  3944 layer_factory.hpp:123] Creating layer inception_4b/3x3
I0715 09:07:27.472321  3944 net.cpp:140] Creating Layer inception_4b/3x3
I0715 09:07:27.472324  3944 net.cpp:481] inception_4b/3x3 <- inception_4b/3x3_reduce
I0715 09:07:27.472331  3944 net.cpp:455] inception_4b/3x3 -> inception_4b/3x3_raw
I0715 09:07:27.475268  3944 net.cpp:190] Setting up inception_4b/3x3
I0715 09:07:27.475281  3944 net.cpp:197] Top shape: 1 224 32 64 (458752)
I0715 09:07:27.475283  3944 net.cpp:205] Memory required for data: 569114628
I0715 09:07:27.475289  3944 layer_factory.hpp:123] Creating layer inception_4b/3x3_BatchNorm
I0715 09:07:27.475297  3944 net.cpp:140] Creating Layer inception_4b/3x3_BatchNorm
I0715 09:07:27.475301  3944 net.cpp:481] inception_4b/3x3_BatchNorm <- inception_4b/3x3_raw
I0715 09:07:27.475307  3944 net.cpp:455] inception_4b/3x3_BatchNorm -> inception_4b/3x3
I0715 09:07:27.475956  3944 net.cpp:190] Setting up inception_4b/3x3_BatchNorm
I0715 09:07:27.475976  3944 net.cpp:197] Top shape: 1 224 32 64 (458752)
I0715 09:07:27.475980  3944 net.cpp:205] Memory required for data: 570949636
I0715 09:07:27.475987  3944 layer_factory.hpp:123] Creating layer inception_4b/relu_3x3
I0715 09:07:27.475993  3944 net.cpp:140] Creating Layer inception_4b/relu_3x3
I0715 09:07:27.475997  3944 net.cpp:481] inception_4b/relu_3x3 <- inception_4b/3x3
I0715 09:07:27.476002  3944 net.cpp:442] inception_4b/relu_3x3 -> inception_4b/3x3 (in-place)
I0715 09:07:27.476008  3944 net.cpp:190] Setting up inception_4b/relu_3x3
I0715 09:07:27.476014  3944 net.cpp:197] Top shape: 1 224 32 64 (458752)
I0715 09:07:27.476017  3944 net.cpp:205] Memory required for data: 572784644
I0715 09:07:27.476019  3944 layer_factory.hpp:123] Creating layer inception_4b/5x5_reduce
I0715 09:07:27.476027  3944 net.cpp:140] Creating Layer inception_4b/5x5_reduce
I0715 09:07:27.476032  3944 net.cpp:481] inception_4b/5x5_reduce <- inception_4a/output_inception_4a/output_0_split_2
I0715 09:07:27.476037  3944 net.cpp:455] inception_4b/5x5_reduce -> inception_4b/5x5_reduce_raw
I0715 09:07:27.476384  3944 net.cpp:190] Setting up inception_4b/5x5_reduce
I0715 09:07:27.476392  3944 net.cpp:197] Top shape: 1 24 32 64 (49152)
I0715 09:07:27.476395  3944 net.cpp:205] Memory required for data: 572981252
I0715 09:07:27.476402  3944 layer_factory.hpp:123] Creating layer inception_4b/5x5_reduce_BatchNorm
I0715 09:07:27.476408  3944 net.cpp:140] Creating Layer inception_4b/5x5_reduce_BatchNorm
I0715 09:07:27.476411  3944 net.cpp:481] inception_4b/5x5_reduce_BatchNorm <- inception_4b/5x5_reduce_raw
I0715 09:07:27.476418  3944 net.cpp:455] inception_4b/5x5_reduce_BatchNorm -> inception_4b/5x5_reduce
I0715 09:07:27.477041  3944 net.cpp:190] Setting up inception_4b/5x5_reduce_BatchNorm
I0715 09:07:27.477049  3944 net.cpp:197] Top shape: 1 24 32 64 (49152)
I0715 09:07:27.477052  3944 net.cpp:205] Memory required for data: 573177860
I0715 09:07:27.477061  3944 layer_factory.hpp:123] Creating layer inception_4b/relu_5x5_reduce
I0715 09:07:27.477066  3944 net.cpp:140] Creating Layer inception_4b/relu_5x5_reduce
I0715 09:07:27.477069  3944 net.cpp:481] inception_4b/relu_5x5_reduce <- inception_4b/5x5_reduce
I0715 09:07:27.477074  3944 net.cpp:442] inception_4b/relu_5x5_reduce -> inception_4b/5x5_reduce (in-place)
I0715 09:07:27.477080  3944 net.cpp:190] Setting up inception_4b/relu_5x5_reduce
I0715 09:07:27.477084  3944 net.cpp:197] Top shape: 1 24 32 64 (49152)
I0715 09:07:27.477088  3944 net.cpp:205] Memory required for data: 573374468
I0715 09:07:27.477090  3944 layer_factory.hpp:123] Creating layer inception_4b/5x5
I0715 09:07:27.477098  3944 net.cpp:140] Creating Layer inception_4b/5x5
I0715 09:07:27.477102  3944 net.cpp:481] inception_4b/5x5 <- inception_4b/5x5_reduce
I0715 09:07:27.477107  3944 net.cpp:455] inception_4b/5x5 -> inception_4b/5x5_raw
I0715 09:07:27.477670  3944 net.cpp:190] Setting up inception_4b/5x5
I0715 09:07:27.477679  3944 net.cpp:197] Top shape: 1 64 32 64 (131072)
I0715 09:07:27.477681  3944 net.cpp:205] Memory required for data: 573898756
I0715 09:07:27.477686  3944 layer_factory.hpp:123] Creating layer inception_4b/5x5_BatchNorm
I0715 09:07:27.477694  3944 net.cpp:140] Creating Layer inception_4b/5x5_BatchNorm
I0715 09:07:27.477697  3944 net.cpp:481] inception_4b/5x5_BatchNorm <- inception_4b/5x5_raw
I0715 09:07:27.477704  3944 net.cpp:455] inception_4b/5x5_BatchNorm -> inception_4b/5x5
I0715 09:07:27.478327  3944 net.cpp:190] Setting up inception_4b/5x5_BatchNorm
I0715 09:07:27.478335  3944 net.cpp:197] Top shape: 1 64 32 64 (131072)
I0715 09:07:27.478338  3944 net.cpp:205] Memory required for data: 574423044
I0715 09:07:27.478346  3944 layer_factory.hpp:123] Creating layer inception_4b/relu_5x5
I0715 09:07:27.478353  3944 net.cpp:140] Creating Layer inception_4b/relu_5x5
I0715 09:07:27.478355  3944 net.cpp:481] inception_4b/relu_5x5 <- inception_4b/5x5
I0715 09:07:27.478360  3944 net.cpp:442] inception_4b/relu_5x5 -> inception_4b/5x5 (in-place)
I0715 09:07:27.478366  3944 net.cpp:190] Setting up inception_4b/relu_5x5
I0715 09:07:27.478370  3944 net.cpp:197] Top shape: 1 64 32 64 (131072)
I0715 09:07:27.478374  3944 net.cpp:205] Memory required for data: 574947332
I0715 09:07:27.478376  3944 layer_factory.hpp:123] Creating layer inception_4b/pool
I0715 09:07:27.478381  3944 net.cpp:140] Creating Layer inception_4b/pool
I0715 09:07:27.478385  3944 net.cpp:481] inception_4b/pool <- inception_4a/output_inception_4a/output_0_split_3
I0715 09:07:27.478390  3944 net.cpp:455] inception_4b/pool -> inception_4b/pool
I0715 09:07:27.478422  3944 net.cpp:190] Setting up inception_4b/pool
I0715 09:07:27.478427  3944 net.cpp:197] Top shape: 1 512 32 64 (1048576)
I0715 09:07:27.478430  3944 net.cpp:205] Memory required for data: 579141636
I0715 09:07:27.478433  3944 layer_factory.hpp:123] Creating layer inception_4b/pool_proj
I0715 09:07:27.478440  3944 net.cpp:140] Creating Layer inception_4b/pool_proj
I0715 09:07:27.478444  3944 net.cpp:481] inception_4b/pool_proj <- inception_4b/pool
I0715 09:07:27.478449  3944 net.cpp:455] inception_4b/pool_proj -> inception_4b/pool_proj_raw
I0715 09:07:27.478965  3944 net.cpp:190] Setting up inception_4b/pool_proj
I0715 09:07:27.478974  3944 net.cpp:197] Top shape: 1 64 32 64 (131072)
I0715 09:07:27.478977  3944 net.cpp:205] Memory required for data: 579665924
I0715 09:07:27.478982  3944 layer_factory.hpp:123] Creating layer inception_4b/pool_proj_BatchNorm
I0715 09:07:27.478989  3944 net.cpp:140] Creating Layer inception_4b/pool_proj_BatchNorm
I0715 09:07:27.478993  3944 net.cpp:481] inception_4b/pool_proj_BatchNorm <- inception_4b/pool_proj_raw
I0715 09:07:27.478998  3944 net.cpp:455] inception_4b/pool_proj_BatchNorm -> inception_4b/pool_proj
I0715 09:07:27.479609  3944 net.cpp:190] Setting up inception_4b/pool_proj_BatchNorm
I0715 09:07:27.479617  3944 net.cpp:197] Top shape: 1 64 32 64 (131072)
I0715 09:07:27.479620  3944 net.cpp:205] Memory required for data: 580190212
I0715 09:07:27.479629  3944 layer_factory.hpp:123] Creating layer inception_4b/relu_pool_proj
I0715 09:07:27.479635  3944 net.cpp:140] Creating Layer inception_4b/relu_pool_proj
I0715 09:07:27.479638  3944 net.cpp:481] inception_4b/relu_pool_proj <- inception_4b/pool_proj
I0715 09:07:27.479643  3944 net.cpp:442] inception_4b/relu_pool_proj -> inception_4b/pool_proj (in-place)
I0715 09:07:27.479650  3944 net.cpp:190] Setting up inception_4b/relu_pool_proj
I0715 09:07:27.479653  3944 net.cpp:197] Top shape: 1 64 32 64 (131072)
I0715 09:07:27.479656  3944 net.cpp:205] Memory required for data: 580714500
I0715 09:07:27.479660  3944 layer_factory.hpp:123] Creating layer inception_4b/output
I0715 09:07:27.479665  3944 net.cpp:140] Creating Layer inception_4b/output
I0715 09:07:27.479668  3944 net.cpp:481] inception_4b/output <- inception_4b/1x1
I0715 09:07:27.479671  3944 net.cpp:481] inception_4b/output <- inception_4b/3x3
I0715 09:07:27.479676  3944 net.cpp:481] inception_4b/output <- inception_4b/5x5
I0715 09:07:27.479679  3944 net.cpp:481] inception_4b/output <- inception_4b/pool_proj
I0715 09:07:27.479683  3944 net.cpp:455] inception_4b/output -> inception_4b/output
I0715 09:07:27.479705  3944 net.cpp:190] Setting up inception_4b/output
I0715 09:07:27.479712  3944 net.cpp:197] Top shape: 1 512 32 64 (1048576)
I0715 09:07:27.479715  3944 net.cpp:205] Memory required for data: 584908804
I0715 09:07:27.479718  3944 layer_factory.hpp:123] Creating layer inception_4b/output_inception_4b/output_0_split
I0715 09:07:27.479723  3944 net.cpp:140] Creating Layer inception_4b/output_inception_4b/output_0_split
I0715 09:07:27.479727  3944 net.cpp:481] inception_4b/output_inception_4b/output_0_split <- inception_4b/output
I0715 09:07:27.479732  3944 net.cpp:455] inception_4b/output_inception_4b/output_0_split -> inception_4b/output_inception_4b/output_0_split_0
I0715 09:07:27.479738  3944 net.cpp:455] inception_4b/output_inception_4b/output_0_split -> inception_4b/output_inception_4b/output_0_split_1
I0715 09:07:27.479744  3944 net.cpp:455] inception_4b/output_inception_4b/output_0_split -> inception_4b/output_inception_4b/output_0_split_2
I0715 09:07:27.479750  3944 net.cpp:455] inception_4b/output_inception_4b/output_0_split -> inception_4b/output_inception_4b/output_0_split_3
I0715 09:07:27.479804  3944 net.cpp:190] Setting up inception_4b/output_inception_4b/output_0_split
I0715 09:07:27.479817  3944 net.cpp:197] Top shape: 1 512 32 64 (1048576)
I0715 09:07:27.479821  3944 net.cpp:197] Top shape: 1 512 32 64 (1048576)
I0715 09:07:27.479825  3944 net.cpp:197] Top shape: 1 512 32 64 (1048576)
I0715 09:07:27.479828  3944 net.cpp:197] Top shape: 1 512 32 64 (1048576)
I0715 09:07:27.479831  3944 net.cpp:205] Memory required for data: 601686020
I0715 09:07:27.479835  3944 layer_factory.hpp:123] Creating layer inception_4c/1x1
I0715 09:07:27.479842  3944 net.cpp:140] Creating Layer inception_4c/1x1
I0715 09:07:27.479846  3944 net.cpp:481] inception_4c/1x1 <- inception_4b/output_inception_4b/output_0_split_0
I0715 09:07:27.479851  3944 net.cpp:455] inception_4c/1x1 -> inception_4c/1x1_raw
I0715 09:07:27.480641  3944 net.cpp:190] Setting up inception_4c/1x1
I0715 09:07:27.480650  3944 net.cpp:197] Top shape: 1 128 32 64 (262144)
I0715 09:07:27.480654  3944 net.cpp:205] Memory required for data: 602734596
I0715 09:07:27.480659  3944 layer_factory.hpp:123] Creating layer inception_4c/1x1_BatchNorm
I0715 09:07:27.480665  3944 net.cpp:140] Creating Layer inception_4c/1x1_BatchNorm
I0715 09:07:27.480669  3944 net.cpp:481] inception_4c/1x1_BatchNorm <- inception_4c/1x1_raw
I0715 09:07:27.480675  3944 net.cpp:455] inception_4c/1x1_BatchNorm -> inception_4c/1x1
I0715 09:07:27.481212  3944 net.cpp:190] Setting up inception_4c/1x1_BatchNorm
I0715 09:07:27.481220  3944 net.cpp:197] Top shape: 1 128 32 64 (262144)
I0715 09:07:27.481223  3944 net.cpp:205] Memory required for data: 603783172
I0715 09:07:27.481231  3944 layer_factory.hpp:123] Creating layer inception_4c/relu_1x1
I0715 09:07:27.481237  3944 net.cpp:140] Creating Layer inception_4c/relu_1x1
I0715 09:07:27.481240  3944 net.cpp:481] inception_4c/relu_1x1 <- inception_4c/1x1
I0715 09:07:27.481245  3944 net.cpp:442] inception_4c/relu_1x1 -> inception_4c/1x1 (in-place)
I0715 09:07:27.481251  3944 net.cpp:190] Setting up inception_4c/relu_1x1
I0715 09:07:27.481256  3944 net.cpp:197] Top shape: 1 128 32 64 (262144)
I0715 09:07:27.481258  3944 net.cpp:205] Memory required for data: 604831748
I0715 09:07:27.481261  3944 layer_factory.hpp:123] Creating layer inception_4c/3x3_reduce
I0715 09:07:27.481269  3944 net.cpp:140] Creating Layer inception_4c/3x3_reduce
I0715 09:07:27.481272  3944 net.cpp:481] inception_4c/3x3_reduce <- inception_4b/output_inception_4b/output_0_split_1
I0715 09:07:27.481278  3944 net.cpp:455] inception_4c/3x3_reduce -> inception_4c/3x3_reduce_raw
I0715 09:07:27.482067  3944 net.cpp:190] Setting up inception_4c/3x3_reduce
I0715 09:07:27.482075  3944 net.cpp:197] Top shape: 1 128 32 64 (262144)
I0715 09:07:27.482079  3944 net.cpp:205] Memory required for data: 605880324
I0715 09:07:27.482084  3944 layer_factory.hpp:123] Creating layer inception_4c/3x3_reduce_BatchNorm
I0715 09:07:27.482091  3944 net.cpp:140] Creating Layer inception_4c/3x3_reduce_BatchNorm
I0715 09:07:27.482095  3944 net.cpp:481] inception_4c/3x3_reduce_BatchNorm <- inception_4c/3x3_reduce_raw
I0715 09:07:27.482100  3944 net.cpp:455] inception_4c/3x3_reduce_BatchNorm -> inception_4c/3x3_reduce
I0715 09:07:27.482640  3944 net.cpp:190] Setting up inception_4c/3x3_reduce_BatchNorm
I0715 09:07:27.482647  3944 net.cpp:197] Top shape: 1 128 32 64 (262144)
I0715 09:07:27.482650  3944 net.cpp:205] Memory required for data: 606928900
I0715 09:07:27.482658  3944 layer_factory.hpp:123] Creating layer inception_4c/relu_3x3_reduce
I0715 09:07:27.482663  3944 net.cpp:140] Creating Layer inception_4c/relu_3x3_reduce
I0715 09:07:27.482667  3944 net.cpp:481] inception_4c/relu_3x3_reduce <- inception_4c/3x3_reduce
I0715 09:07:27.482672  3944 net.cpp:442] inception_4c/relu_3x3_reduce -> inception_4c/3x3_reduce (in-place)
I0715 09:07:27.482678  3944 net.cpp:190] Setting up inception_4c/relu_3x3_reduce
I0715 09:07:27.482682  3944 net.cpp:197] Top shape: 1 128 32 64 (262144)
I0715 09:07:27.482686  3944 net.cpp:205] Memory required for data: 607977476
I0715 09:07:27.482688  3944 layer_factory.hpp:123] Creating layer inception_4c/3x3
I0715 09:07:27.482697  3944 net.cpp:140] Creating Layer inception_4c/3x3
I0715 09:07:27.482699  3944 net.cpp:481] inception_4c/3x3 <- inception_4c/3x3_reduce
I0715 09:07:27.482705  3944 net.cpp:455] inception_4c/3x3 -> inception_4c/3x3_raw
I0715 09:07:27.489413  3944 net.cpp:190] Setting up inception_4c/3x3
I0715 09:07:27.489425  3944 net.cpp:197] Top shape: 1 256 32 64 (524288)
I0715 09:07:27.489428  3944 net.cpp:205] Memory required for data: 610074628
I0715 09:07:27.489435  3944 layer_factory.hpp:123] Creating layer inception_4c/3x3_BatchNorm
I0715 09:07:27.489444  3944 net.cpp:140] Creating Layer inception_4c/3x3_BatchNorm
I0715 09:07:27.489447  3944 net.cpp:481] inception_4c/3x3_BatchNorm <- inception_4c/3x3_raw
I0715 09:07:27.489454  3944 net.cpp:455] inception_4c/3x3_BatchNorm -> inception_4c/3x3
I0715 09:07:27.490001  3944 net.cpp:190] Setting up inception_4c/3x3_BatchNorm
I0715 09:07:27.490010  3944 net.cpp:197] Top shape: 1 256 32 64 (524288)
I0715 09:07:27.490012  3944 net.cpp:205] Memory required for data: 612171780
I0715 09:07:27.490020  3944 layer_factory.hpp:123] Creating layer inception_4c/relu_3x3
I0715 09:07:27.490026  3944 net.cpp:140] Creating Layer inception_4c/relu_3x3
I0715 09:07:27.490031  3944 net.cpp:481] inception_4c/relu_3x3 <- inception_4c/3x3
I0715 09:07:27.490036  3944 net.cpp:442] inception_4c/relu_3x3 -> inception_4c/3x3 (in-place)
I0715 09:07:27.490041  3944 net.cpp:190] Setting up inception_4c/relu_3x3
I0715 09:07:27.490046  3944 net.cpp:197] Top shape: 1 256 32 64 (524288)
I0715 09:07:27.490049  3944 net.cpp:205] Memory required for data: 614268932
I0715 09:07:27.490051  3944 layer_factory.hpp:123] Creating layer inception_4c/5x5_reduce
I0715 09:07:27.490059  3944 net.cpp:140] Creating Layer inception_4c/5x5_reduce
I0715 09:07:27.490062  3944 net.cpp:481] inception_4c/5x5_reduce <- inception_4b/output_inception_4b/output_0_split_2
I0715 09:07:27.490068  3944 net.cpp:455] inception_4c/5x5_reduce -> inception_4c/5x5_reduce_raw
I0715 09:07:27.490407  3944 net.cpp:190] Setting up inception_4c/5x5_reduce
I0715 09:07:27.490415  3944 net.cpp:197] Top shape: 1 24 32 64 (49152)
I0715 09:07:27.490418  3944 net.cpp:205] Memory required for data: 614465540
I0715 09:07:27.490423  3944 layer_factory.hpp:123] Creating layer inception_4c/5x5_reduce_BatchNorm
I0715 09:07:27.490430  3944 net.cpp:140] Creating Layer inception_4c/5x5_reduce_BatchNorm
I0715 09:07:27.490434  3944 net.cpp:481] inception_4c/5x5_reduce_BatchNorm <- inception_4c/5x5_reduce_raw
I0715 09:07:27.490440  3944 net.cpp:455] inception_4c/5x5_reduce_BatchNorm -> inception_4c/5x5_reduce
I0715 09:07:27.491055  3944 net.cpp:190] Setting up inception_4c/5x5_reduce_BatchNorm
I0715 09:07:27.491063  3944 net.cpp:197] Top shape: 1 24 32 64 (49152)
I0715 09:07:27.491066  3944 net.cpp:205] Memory required for data: 614662148
I0715 09:07:27.491075  3944 layer_factory.hpp:123] Creating layer inception_4c/relu_5x5_reduce
I0715 09:07:27.491081  3944 net.cpp:140] Creating Layer inception_4c/relu_5x5_reduce
I0715 09:07:27.491084  3944 net.cpp:481] inception_4c/relu_5x5_reduce <- inception_4c/5x5_reduce
I0715 09:07:27.491089  3944 net.cpp:442] inception_4c/relu_5x5_reduce -> inception_4c/5x5_reduce (in-place)
I0715 09:07:27.491096  3944 net.cpp:190] Setting up inception_4c/relu_5x5_reduce
I0715 09:07:27.491099  3944 net.cpp:197] Top shape: 1 24 32 64 (49152)
I0715 09:07:27.491102  3944 net.cpp:205] Memory required for data: 614858756
I0715 09:07:27.491106  3944 layer_factory.hpp:123] Creating layer inception_4c/5x5
I0715 09:07:27.491113  3944 net.cpp:140] Creating Layer inception_4c/5x5
I0715 09:07:27.491117  3944 net.cpp:481] inception_4c/5x5 <- inception_4c/5x5_reduce
I0715 09:07:27.491122  3944 net.cpp:455] inception_4c/5x5 -> inception_4c/5x5_raw
I0715 09:07:27.492455  3944 net.cpp:190] Setting up inception_4c/5x5
I0715 09:07:27.492468  3944 net.cpp:197] Top shape: 1 64 32 64 (131072)
I0715 09:07:27.492472  3944 net.cpp:205] Memory required for data: 615383044
I0715 09:07:27.492480  3944 layer_factory.hpp:123] Creating layer inception_4c/5x5_BatchNorm
I0715 09:07:27.492486  3944 net.cpp:140] Creating Layer inception_4c/5x5_BatchNorm
I0715 09:07:27.492491  3944 net.cpp:481] inception_4c/5x5_BatchNorm <- inception_4c/5x5_raw
I0715 09:07:27.492497  3944 net.cpp:455] inception_4c/5x5_BatchNorm -> inception_4c/5x5
I0715 09:07:27.493129  3944 net.cpp:190] Setting up inception_4c/5x5_BatchNorm
I0715 09:07:27.493137  3944 net.cpp:197] Top shape: 1 64 32 64 (131072)
I0715 09:07:27.493141  3944 net.cpp:205] Memory required for data: 615907332
I0715 09:07:27.493149  3944 layer_factory.hpp:123] Creating layer inception_4c/relu_5x5
I0715 09:07:27.493155  3944 net.cpp:140] Creating Layer inception_4c/relu_5x5
I0715 09:07:27.493158  3944 net.cpp:481] inception_4c/relu_5x5 <- inception_4c/5x5
I0715 09:07:27.493163  3944 net.cpp:442] inception_4c/relu_5x5 -> inception_4c/5x5 (in-place)
I0715 09:07:27.493170  3944 net.cpp:190] Setting up inception_4c/relu_5x5
I0715 09:07:27.493175  3944 net.cpp:197] Top shape: 1 64 32 64 (131072)
I0715 09:07:27.493176  3944 net.cpp:205] Memory required for data: 616431620
I0715 09:07:27.493180  3944 layer_factory.hpp:123] Creating layer inception_4c/pool
I0715 09:07:27.493185  3944 net.cpp:140] Creating Layer inception_4c/pool
I0715 09:07:27.493189  3944 net.cpp:481] inception_4c/pool <- inception_4b/output_inception_4b/output_0_split_3
I0715 09:07:27.493194  3944 net.cpp:455] inception_4c/pool -> inception_4c/pool
I0715 09:07:27.493225  3944 net.cpp:190] Setting up inception_4c/pool
I0715 09:07:27.493232  3944 net.cpp:197] Top shape: 1 512 32 64 (1048576)
I0715 09:07:27.493234  3944 net.cpp:205] Memory required for data: 620625924
I0715 09:07:27.493237  3944 layer_factory.hpp:123] Creating layer inception_4c/pool_proj
I0715 09:07:27.493245  3944 net.cpp:140] Creating Layer inception_4c/pool_proj
I0715 09:07:27.493249  3944 net.cpp:481] inception_4c/pool_proj <- inception_4c/pool
I0715 09:07:27.493254  3944 net.cpp:455] inception_4c/pool_proj -> inception_4c/pool_proj_raw
I0715 09:07:27.493767  3944 net.cpp:190] Setting up inception_4c/pool_proj
I0715 09:07:27.493775  3944 net.cpp:197] Top shape: 1 64 32 64 (131072)
I0715 09:07:27.493778  3944 net.cpp:205] Memory required for data: 621150212
I0715 09:07:27.493783  3944 layer_factory.hpp:123] Creating layer inception_4c/pool_proj_BatchNorm
I0715 09:07:27.493790  3944 net.cpp:140] Creating Layer inception_4c/pool_proj_BatchNorm
I0715 09:07:27.493794  3944 net.cpp:481] inception_4c/pool_proj_BatchNorm <- inception_4c/pool_proj_raw
I0715 09:07:27.493799  3944 net.cpp:455] inception_4c/pool_proj_BatchNorm -> inception_4c/pool_proj
I0715 09:07:27.494426  3944 net.cpp:190] Setting up inception_4c/pool_proj_BatchNorm
I0715 09:07:27.494434  3944 net.cpp:197] Top shape: 1 64 32 64 (131072)
I0715 09:07:27.494437  3944 net.cpp:205] Memory required for data: 621674500
I0715 09:07:27.494446  3944 layer_factory.hpp:123] Creating layer inception_4c/relu_pool_proj
I0715 09:07:27.494451  3944 net.cpp:140] Creating Layer inception_4c/relu_pool_proj
I0715 09:07:27.494454  3944 net.cpp:481] inception_4c/relu_pool_proj <- inception_4c/pool_proj
I0715 09:07:27.494459  3944 net.cpp:442] inception_4c/relu_pool_proj -> inception_4c/pool_proj (in-place)
I0715 09:07:27.494465  3944 net.cpp:190] Setting up inception_4c/relu_pool_proj
I0715 09:07:27.494469  3944 net.cpp:197] Top shape: 1 64 32 64 (131072)
I0715 09:07:27.494472  3944 net.cpp:205] Memory required for data: 622198788
I0715 09:07:27.494477  3944 layer_factory.hpp:123] Creating layer inception_4c/output
I0715 09:07:27.494482  3944 net.cpp:140] Creating Layer inception_4c/output
I0715 09:07:27.494484  3944 net.cpp:481] inception_4c/output <- inception_4c/1x1
I0715 09:07:27.494488  3944 net.cpp:481] inception_4c/output <- inception_4c/3x3
I0715 09:07:27.494493  3944 net.cpp:481] inception_4c/output <- inception_4c/5x5
I0715 09:07:27.494495  3944 net.cpp:481] inception_4c/output <- inception_4c/pool_proj
I0715 09:07:27.494499  3944 net.cpp:455] inception_4c/output -> inception_4c/output
I0715 09:07:27.494526  3944 net.cpp:190] Setting up inception_4c/output
I0715 09:07:27.494536  3944 net.cpp:197] Top shape: 1 512 32 64 (1048576)
I0715 09:07:27.494540  3944 net.cpp:205] Memory required for data: 626393092
I0715 09:07:27.494545  3944 layer_factory.hpp:123] Creating layer inception_4c/output_inception_4c/output_0_split
I0715 09:07:27.494552  3944 net.cpp:140] Creating Layer inception_4c/output_inception_4c/output_0_split
I0715 09:07:27.494557  3944 net.cpp:481] inception_4c/output_inception_4c/output_0_split <- inception_4c/output
I0715 09:07:27.494566  3944 net.cpp:455] inception_4c/output_inception_4c/output_0_split -> inception_4c/output_inception_4c/output_0_split_0
I0715 09:07:27.494575  3944 net.cpp:455] inception_4c/output_inception_4c/output_0_split -> inception_4c/output_inception_4c/output_0_split_1
I0715 09:07:27.494585  3944 net.cpp:455] inception_4c/output_inception_4c/output_0_split -> inception_4c/output_inception_4c/output_0_split_2
I0715 09:07:27.494591  3944 net.cpp:455] inception_4c/output_inception_4c/output_0_split -> inception_4c/output_inception_4c/output_0_split_3
I0715 09:07:27.494643  3944 net.cpp:190] Setting up inception_4c/output_inception_4c/output_0_split
I0715 09:07:27.494650  3944 net.cpp:197] Top shape: 1 512 32 64 (1048576)
I0715 09:07:27.494654  3944 net.cpp:197] Top shape: 1 512 32 64 (1048576)
I0715 09:07:27.494658  3944 net.cpp:197] Top shape: 1 512 32 64 (1048576)
I0715 09:07:27.494662  3944 net.cpp:197] Top shape: 1 512 32 64 (1048576)
I0715 09:07:27.494664  3944 net.cpp:205] Memory required for data: 643170308
I0715 09:07:27.494668  3944 layer_factory.hpp:123] Creating layer inception_4d/1x1
I0715 09:07:27.494675  3944 net.cpp:140] Creating Layer inception_4d/1x1
I0715 09:07:27.494678  3944 net.cpp:481] inception_4d/1x1 <- inception_4c/output_inception_4c/output_0_split_0
I0715 09:07:27.494684  3944 net.cpp:455] inception_4d/1x1 -> inception_4d/1x1_raw
I0715 09:07:27.495416  3944 net.cpp:190] Setting up inception_4d/1x1
I0715 09:07:27.495424  3944 net.cpp:197] Top shape: 1 112 32 64 (229376)
I0715 09:07:27.495427  3944 net.cpp:205] Memory required for data: 644087812
I0715 09:07:27.495434  3944 layer_factory.hpp:123] Creating layer inception_4d/1x1_BatchNorm
I0715 09:07:27.495440  3944 net.cpp:140] Creating Layer inception_4d/1x1_BatchNorm
I0715 09:07:27.495443  3944 net.cpp:481] inception_4d/1x1_BatchNorm <- inception_4d/1x1_raw
I0715 09:07:27.495450  3944 net.cpp:455] inception_4d/1x1_BatchNorm -> inception_4d/1x1
I0715 09:07:27.496095  3944 net.cpp:190] Setting up inception_4d/1x1_BatchNorm
I0715 09:07:27.496104  3944 net.cpp:197] Top shape: 1 112 32 64 (229376)
I0715 09:07:27.496107  3944 net.cpp:205] Memory required for data: 645005316
I0715 09:07:27.496115  3944 layer_factory.hpp:123] Creating layer inception_4d/relu_1x1
I0715 09:07:27.496121  3944 net.cpp:140] Creating Layer inception_4d/relu_1x1
I0715 09:07:27.496124  3944 net.cpp:481] inception_4d/relu_1x1 <- inception_4d/1x1
I0715 09:07:27.496129  3944 net.cpp:442] inception_4d/relu_1x1 -> inception_4d/1x1 (in-place)
I0715 09:07:27.496136  3944 net.cpp:190] Setting up inception_4d/relu_1x1
I0715 09:07:27.496140  3944 net.cpp:197] Top shape: 1 112 32 64 (229376)
I0715 09:07:27.496142  3944 net.cpp:205] Memory required for data: 645922820
I0715 09:07:27.496145  3944 layer_factory.hpp:123] Creating layer inception_4d/3x3_reduce
I0715 09:07:27.496153  3944 net.cpp:140] Creating Layer inception_4d/3x3_reduce
I0715 09:07:27.496156  3944 net.cpp:481] inception_4d/3x3_reduce <- inception_4c/output_inception_4c/output_0_split_1
I0715 09:07:27.496162  3944 net.cpp:455] inception_4d/3x3_reduce -> inception_4d/3x3_reduce_raw
I0715 09:07:27.497056  3944 net.cpp:190] Setting up inception_4d/3x3_reduce
I0715 09:07:27.497066  3944 net.cpp:197] Top shape: 1 144 32 64 (294912)
I0715 09:07:27.497068  3944 net.cpp:205] Memory required for data: 647102468
I0715 09:07:27.497074  3944 layer_factory.hpp:123] Creating layer inception_4d/3x3_reduce_BatchNorm
I0715 09:07:27.497081  3944 net.cpp:140] Creating Layer inception_4d/3x3_reduce_BatchNorm
I0715 09:07:27.497086  3944 net.cpp:481] inception_4d/3x3_reduce_BatchNorm <- inception_4d/3x3_reduce_raw
I0715 09:07:27.497092  3944 net.cpp:455] inception_4d/3x3_reduce_BatchNorm -> inception_4d/3x3_reduce
I0715 09:07:27.497714  3944 net.cpp:190] Setting up inception_4d/3x3_reduce_BatchNorm
I0715 09:07:27.497722  3944 net.cpp:197] Top shape: 1 144 32 64 (294912)
I0715 09:07:27.497725  3944 net.cpp:205] Memory required for data: 648282116
I0715 09:07:27.497733  3944 layer_factory.hpp:123] Creating layer inception_4d/relu_3x3_reduce
I0715 09:07:27.497740  3944 net.cpp:140] Creating Layer inception_4d/relu_3x3_reduce
I0715 09:07:27.497743  3944 net.cpp:481] inception_4d/relu_3x3_reduce <- inception_4d/3x3_reduce
I0715 09:07:27.497747  3944 net.cpp:442] inception_4d/relu_3x3_reduce -> inception_4d/3x3_reduce (in-place)
I0715 09:07:27.497754  3944 net.cpp:190] Setting up inception_4d/relu_3x3_reduce
I0715 09:07:27.497758  3944 net.cpp:197] Top shape: 1 144 32 64 (294912)
I0715 09:07:27.497761  3944 net.cpp:205] Memory required for data: 649461764
I0715 09:07:27.497763  3944 layer_factory.hpp:123] Creating layer inception_4d/3x3
I0715 09:07:27.497771  3944 net.cpp:140] Creating Layer inception_4d/3x3
I0715 09:07:27.497774  3944 net.cpp:481] inception_4d/3x3 <- inception_4d/3x3_reduce
I0715 09:07:27.497779  3944 net.cpp:455] inception_4d/3x3 -> inception_4d/3x3_raw
I0715 09:07:27.504216  3944 net.cpp:190] Setting up inception_4d/3x3
I0715 09:07:27.504230  3944 net.cpp:197] Top shape: 1 288 32 64 (589824)
I0715 09:07:27.504233  3944 net.cpp:205] Memory required for data: 651821060
I0715 09:07:27.504240  3944 layer_factory.hpp:123] Creating layer inception_4d/3x3_BatchNorm
I0715 09:07:27.504252  3944 net.cpp:140] Creating Layer inception_4d/3x3_BatchNorm
I0715 09:07:27.504256  3944 net.cpp:481] inception_4d/3x3_BatchNorm <- inception_4d/3x3_raw
I0715 09:07:27.504263  3944 net.cpp:455] inception_4d/3x3_BatchNorm -> inception_4d/3x3
I0715 09:07:27.504902  3944 net.cpp:190] Setting up inception_4d/3x3_BatchNorm
I0715 09:07:27.504910  3944 net.cpp:197] Top shape: 1 288 32 64 (589824)
I0715 09:07:27.504914  3944 net.cpp:205] Memory required for data: 654180356
I0715 09:07:27.504923  3944 layer_factory.hpp:123] Creating layer inception_4d/relu_3x3
I0715 09:07:27.504930  3944 net.cpp:140] Creating Layer inception_4d/relu_3x3
I0715 09:07:27.504933  3944 net.cpp:481] inception_4d/relu_3x3 <- inception_4d/3x3
I0715 09:07:27.504938  3944 net.cpp:442] inception_4d/relu_3x3 -> inception_4d/3x3 (in-place)
I0715 09:07:27.504945  3944 net.cpp:190] Setting up inception_4d/relu_3x3
I0715 09:07:27.504951  3944 net.cpp:197] Top shape: 1 288 32 64 (589824)
I0715 09:07:27.504953  3944 net.cpp:205] Memory required for data: 656539652
I0715 09:07:27.504956  3944 layer_factory.hpp:123] Creating layer inception_4d/5x5_reduce
I0715 09:07:27.504963  3944 net.cpp:140] Creating Layer inception_4d/5x5_reduce
I0715 09:07:27.504967  3944 net.cpp:481] inception_4d/5x5_reduce <- inception_4c/output_inception_4c/output_0_split_2
I0715 09:07:27.504973  3944 net.cpp:455] inception_4d/5x5_reduce -> inception_4d/5x5_reduce_raw
I0715 09:07:27.505372  3944 net.cpp:190] Setting up inception_4d/5x5_reduce
I0715 09:07:27.505379  3944 net.cpp:197] Top shape: 1 32 32 64 (65536)
I0715 09:07:27.505383  3944 net.cpp:205] Memory required for data: 656801796
I0715 09:07:27.505388  3944 layer_factory.hpp:123] Creating layer inception_4d/5x5_reduce_BatchNorm
I0715 09:07:27.505396  3944 net.cpp:140] Creating Layer inception_4d/5x5_reduce_BatchNorm
I0715 09:07:27.505400  3944 net.cpp:481] inception_4d/5x5_reduce_BatchNorm <- inception_4d/5x5_reduce_raw
I0715 09:07:27.505406  3944 net.cpp:455] inception_4d/5x5_reduce_BatchNorm -> inception_4d/5x5_reduce
I0715 09:07:27.506058  3944 net.cpp:190] Setting up inception_4d/5x5_reduce_BatchNorm
I0715 09:07:27.506067  3944 net.cpp:197] Top shape: 1 32 32 64 (65536)
I0715 09:07:27.506069  3944 net.cpp:205] Memory required for data: 657063940
I0715 09:07:27.506088  3944 layer_factory.hpp:123] Creating layer inception_4d/relu_5x5_reduce
I0715 09:07:27.506094  3944 net.cpp:140] Creating Layer inception_4d/relu_5x5_reduce
I0715 09:07:27.506098  3944 net.cpp:481] inception_4d/relu_5x5_reduce <- inception_4d/5x5_reduce
I0715 09:07:27.506103  3944 net.cpp:442] inception_4d/relu_5x5_reduce -> inception_4d/5x5_reduce (in-place)
I0715 09:07:27.506110  3944 net.cpp:190] Setting up inception_4d/relu_5x5_reduce
I0715 09:07:27.506114  3944 net.cpp:197] Top shape: 1 32 32 64 (65536)
I0715 09:07:27.506117  3944 net.cpp:205] Memory required for data: 657326084
I0715 09:07:27.506120  3944 layer_factory.hpp:123] Creating layer inception_4d/5x5
I0715 09:07:27.506129  3944 net.cpp:140] Creating Layer inception_4d/5x5
I0715 09:07:27.506131  3944 net.cpp:481] inception_4d/5x5 <- inception_4d/5x5_reduce
I0715 09:07:27.506137  3944 net.cpp:455] inception_4d/5x5 -> inception_4d/5x5_raw
I0715 09:07:27.506840  3944 net.cpp:190] Setting up inception_4d/5x5
I0715 09:07:27.506850  3944 net.cpp:197] Top shape: 1 64 32 64 (131072)
I0715 09:07:27.506852  3944 net.cpp:205] Memory required for data: 657850372
I0715 09:07:27.506858  3944 layer_factory.hpp:123] Creating layer inception_4d/5x5_BatchNorm
I0715 09:07:27.506865  3944 net.cpp:140] Creating Layer inception_4d/5x5_BatchNorm
I0715 09:07:27.506870  3944 net.cpp:481] inception_4d/5x5_BatchNorm <- inception_4d/5x5_raw
I0715 09:07:27.506876  3944 net.cpp:455] inception_4d/5x5_BatchNorm -> inception_4d/5x5
I0715 09:07:27.507521  3944 net.cpp:190] Setting up inception_4d/5x5_BatchNorm
I0715 09:07:27.507529  3944 net.cpp:197] Top shape: 1 64 32 64 (131072)
I0715 09:07:27.507532  3944 net.cpp:205] Memory required for data: 658374660
I0715 09:07:27.507541  3944 layer_factory.hpp:123] Creating layer inception_4d/relu_5x5
I0715 09:07:27.507546  3944 net.cpp:140] Creating Layer inception_4d/relu_5x5
I0715 09:07:27.507550  3944 net.cpp:481] inception_4d/relu_5x5 <- inception_4d/5x5
I0715 09:07:27.507555  3944 net.cpp:442] inception_4d/relu_5x5 -> inception_4d/5x5 (in-place)
I0715 09:07:27.507561  3944 net.cpp:190] Setting up inception_4d/relu_5x5
I0715 09:07:27.507566  3944 net.cpp:197] Top shape: 1 64 32 64 (131072)
I0715 09:07:27.507570  3944 net.cpp:205] Memory required for data: 658898948
I0715 09:07:27.507572  3944 layer_factory.hpp:123] Creating layer inception_4d/pool
I0715 09:07:27.507578  3944 net.cpp:140] Creating Layer inception_4d/pool
I0715 09:07:27.507581  3944 net.cpp:481] inception_4d/pool <- inception_4c/output_inception_4c/output_0_split_3
I0715 09:07:27.507587  3944 net.cpp:455] inception_4d/pool -> inception_4d/pool
I0715 09:07:27.507620  3944 net.cpp:190] Setting up inception_4d/pool
I0715 09:07:27.507627  3944 net.cpp:197] Top shape: 1 512 32 64 (1048576)
I0715 09:07:27.507630  3944 net.cpp:205] Memory required for data: 663093252
I0715 09:07:27.507633  3944 layer_factory.hpp:123] Creating layer inception_4d/pool_proj
I0715 09:07:27.507642  3944 net.cpp:140] Creating Layer inception_4d/pool_proj
I0715 09:07:27.507644  3944 net.cpp:481] inception_4d/pool_proj <- inception_4d/pool
I0715 09:07:27.507650  3944 net.cpp:455] inception_4d/pool_proj -> inception_4d/pool_proj_raw
I0715 09:07:27.508190  3944 net.cpp:190] Setting up inception_4d/pool_proj
I0715 09:07:27.508199  3944 net.cpp:197] Top shape: 1 64 32 64 (131072)
I0715 09:07:27.508203  3944 net.cpp:205] Memory required for data: 663617540
I0715 09:07:27.508208  3944 layer_factory.hpp:123] Creating layer inception_4d/pool_proj_BatchNorm
I0715 09:07:27.508215  3944 net.cpp:140] Creating Layer inception_4d/pool_proj_BatchNorm
I0715 09:07:27.508219  3944 net.cpp:481] inception_4d/pool_proj_BatchNorm <- inception_4d/pool_proj_raw
I0715 09:07:27.508225  3944 net.cpp:455] inception_4d/pool_proj_BatchNorm -> inception_4d/pool_proj
I0715 09:07:27.508877  3944 net.cpp:190] Setting up inception_4d/pool_proj_BatchNorm
I0715 09:07:27.508885  3944 net.cpp:197] Top shape: 1 64 32 64 (131072)
I0715 09:07:27.508888  3944 net.cpp:205] Memory required for data: 664141828
I0715 09:07:27.508896  3944 layer_factory.hpp:123] Creating layer inception_4d/relu_pool_proj
I0715 09:07:27.508903  3944 net.cpp:140] Creating Layer inception_4d/relu_pool_proj
I0715 09:07:27.508906  3944 net.cpp:481] inception_4d/relu_pool_proj <- inception_4d/pool_proj
I0715 09:07:27.508913  3944 net.cpp:442] inception_4d/relu_pool_proj -> inception_4d/pool_proj (in-place)
I0715 09:07:27.508919  3944 net.cpp:190] Setting up inception_4d/relu_pool_proj
I0715 09:07:27.508922  3944 net.cpp:197] Top shape: 1 64 32 64 (131072)
I0715 09:07:27.508925  3944 net.cpp:205] Memory required for data: 664666116
I0715 09:07:27.508929  3944 layer_factory.hpp:123] Creating layer inception_4d/output
I0715 09:07:27.508934  3944 net.cpp:140] Creating Layer inception_4d/output
I0715 09:07:27.508937  3944 net.cpp:481] inception_4d/output <- inception_4d/1x1
I0715 09:07:27.508941  3944 net.cpp:481] inception_4d/output <- inception_4d/3x3
I0715 09:07:27.508945  3944 net.cpp:481] inception_4d/output <- inception_4d/5x5
I0715 09:07:27.508949  3944 net.cpp:481] inception_4d/output <- inception_4d/pool_proj
I0715 09:07:27.508955  3944 net.cpp:455] inception_4d/output -> inception_4d/output
I0715 09:07:27.508977  3944 net.cpp:190] Setting up inception_4d/output
I0715 09:07:27.508982  3944 net.cpp:197] Top shape: 1 528 32 64 (1081344)
I0715 09:07:27.508985  3944 net.cpp:205] Memory required for data: 668991492
I0715 09:07:27.508988  3944 layer_factory.hpp:123] Creating layer inception_4d/output_inception_4d/output_0_split
I0715 09:07:27.508994  3944 net.cpp:140] Creating Layer inception_4d/output_inception_4d/output_0_split
I0715 09:07:27.508998  3944 net.cpp:481] inception_4d/output_inception_4d/output_0_split <- inception_4d/output
I0715 09:07:27.509003  3944 net.cpp:455] inception_4d/output_inception_4d/output_0_split -> inception_4d/output_inception_4d/output_0_split_0
I0715 09:07:27.509011  3944 net.cpp:455] inception_4d/output_inception_4d/output_0_split -> inception_4d/output_inception_4d/output_0_split_1
I0715 09:07:27.509017  3944 net.cpp:455] inception_4d/output_inception_4d/output_0_split -> inception_4d/output_inception_4d/output_0_split_2
I0715 09:07:27.509023  3944 net.cpp:455] inception_4d/output_inception_4d/output_0_split -> inception_4d/output_inception_4d/output_0_split_3
I0715 09:07:27.509073  3944 net.cpp:190] Setting up inception_4d/output_inception_4d/output_0_split
I0715 09:07:27.509080  3944 net.cpp:197] Top shape: 1 528 32 64 (1081344)
I0715 09:07:27.509084  3944 net.cpp:197] Top shape: 1 528 32 64 (1081344)
I0715 09:07:27.509088  3944 net.cpp:197] Top shape: 1 528 32 64 (1081344)
I0715 09:07:27.509091  3944 net.cpp:197] Top shape: 1 528 32 64 (1081344)
I0715 09:07:27.509094  3944 net.cpp:205] Memory required for data: 686292996
I0715 09:07:27.509097  3944 layer_factory.hpp:123] Creating layer inception_4e/1x1
I0715 09:07:27.509106  3944 net.cpp:140] Creating Layer inception_4e/1x1
I0715 09:07:27.509109  3944 net.cpp:481] inception_4e/1x1 <- inception_4d/output_inception_4d/output_0_split_0
I0715 09:07:27.509115  3944 net.cpp:455] inception_4e/1x1 -> inception_4e/1x1_raw
I0715 09:07:27.511715  3944 net.cpp:190] Setting up inception_4e/1x1
I0715 09:07:27.511725  3944 net.cpp:197] Top shape: 1 256 32 64 (524288)
I0715 09:07:27.511729  3944 net.cpp:205] Memory required for data: 688390148
I0715 09:07:27.511734  3944 layer_factory.hpp:123] Creating layer inception_4e/1x1_BatchNorm
I0715 09:07:27.511740  3944 net.cpp:140] Creating Layer inception_4e/1x1_BatchNorm
I0715 09:07:27.511744  3944 net.cpp:481] inception_4e/1x1_BatchNorm <- inception_4e/1x1_raw
I0715 09:07:27.511750  3944 net.cpp:455] inception_4e/1x1_BatchNorm -> inception_4e/1x1
I0715 09:07:27.512316  3944 net.cpp:190] Setting up inception_4e/1x1_BatchNorm
I0715 09:07:27.512326  3944 net.cpp:197] Top shape: 1 256 32 64 (524288)
I0715 09:07:27.512328  3944 net.cpp:205] Memory required for data: 690487300
I0715 09:07:27.512336  3944 layer_factory.hpp:123] Creating layer inception_4e/relu_1x1
I0715 09:07:27.512341  3944 net.cpp:140] Creating Layer inception_4e/relu_1x1
I0715 09:07:27.512346  3944 net.cpp:481] inception_4e/relu_1x1 <- inception_4e/1x1
I0715 09:07:27.512351  3944 net.cpp:442] inception_4e/relu_1x1 -> inception_4e/1x1 (in-place)
I0715 09:07:27.512356  3944 net.cpp:190] Setting up inception_4e/relu_1x1
I0715 09:07:27.512362  3944 net.cpp:197] Top shape: 1 256 32 64 (524288)
I0715 09:07:27.512364  3944 net.cpp:205] Memory required for data: 692584452
I0715 09:07:27.512367  3944 layer_factory.hpp:123] Creating layer inception_4e/3x3_reduce
I0715 09:07:27.512375  3944 net.cpp:140] Creating Layer inception_4e/3x3_reduce
I0715 09:07:27.512378  3944 net.cpp:481] inception_4e/3x3_reduce <- inception_4d/output_inception_4d/output_0_split_1
I0715 09:07:27.512384  3944 net.cpp:455] inception_4e/3x3_reduce -> inception_4e/3x3_reduce_raw
I0715 09:07:27.513382  3944 net.cpp:190] Setting up inception_4e/3x3_reduce
I0715 09:07:27.513391  3944 net.cpp:197] Top shape: 1 160 32 64 (327680)
I0715 09:07:27.513393  3944 net.cpp:205] Memory required for data: 693895172
I0715 09:07:27.513398  3944 layer_factory.hpp:123] Creating layer inception_4e/3x3_reduce_BatchNorm
I0715 09:07:27.513406  3944 net.cpp:140] Creating Layer inception_4e/3x3_reduce_BatchNorm
I0715 09:07:27.513409  3944 net.cpp:481] inception_4e/3x3_reduce_BatchNorm <- inception_4e/3x3_reduce_raw
I0715 09:07:27.513415  3944 net.cpp:455] inception_4e/3x3_reduce_BatchNorm -> inception_4e/3x3_reduce
I0715 09:07:27.514039  3944 net.cpp:190] Setting up inception_4e/3x3_reduce_BatchNorm
I0715 09:07:27.514047  3944 net.cpp:197] Top shape: 1 160 32 64 (327680)
I0715 09:07:27.514050  3944 net.cpp:205] Memory required for data: 695205892
I0715 09:07:27.514058  3944 layer_factory.hpp:123] Creating layer inception_4e/relu_3x3_reduce
I0715 09:07:27.514065  3944 net.cpp:140] Creating Layer inception_4e/relu_3x3_reduce
I0715 09:07:27.514067  3944 net.cpp:481] inception_4e/relu_3x3_reduce <- inception_4e/3x3_reduce
I0715 09:07:27.514072  3944 net.cpp:442] inception_4e/relu_3x3_reduce -> inception_4e/3x3_reduce (in-place)
I0715 09:07:27.514080  3944 net.cpp:190] Setting up inception_4e/relu_3x3_reduce
I0715 09:07:27.514083  3944 net.cpp:197] Top shape: 1 160 32 64 (327680)
I0715 09:07:27.514086  3944 net.cpp:205] Memory required for data: 696516612
I0715 09:07:27.514089  3944 layer_factory.hpp:123] Creating layer inception_4e/3x3
I0715 09:07:27.514096  3944 net.cpp:140] Creating Layer inception_4e/3x3
I0715 09:07:27.514099  3944 net.cpp:481] inception_4e/3x3 <- inception_4e/3x3_reduce
I0715 09:07:27.514106  3944 net.cpp:455] inception_4e/3x3 -> inception_4e/3x3_raw
I0715 09:07:27.519824  3944 net.cpp:190] Setting up inception_4e/3x3
I0715 09:07:27.519836  3944 net.cpp:197] Top shape: 1 320 32 64 (655360)
I0715 09:07:27.519840  3944 net.cpp:205] Memory required for data: 699138052
I0715 09:07:27.519846  3944 layer_factory.hpp:123] Creating layer inception_4e/3x3_BatchNorm
I0715 09:07:27.519855  3944 net.cpp:140] Creating Layer inception_4e/3x3_BatchNorm
I0715 09:07:27.519857  3944 net.cpp:481] inception_4e/3x3_BatchNorm <- inception_4e/3x3_raw
I0715 09:07:27.519865  3944 net.cpp:455] inception_4e/3x3_BatchNorm -> inception_4e/3x3
I0715 09:07:27.520485  3944 net.cpp:190] Setting up inception_4e/3x3_BatchNorm
I0715 09:07:27.520494  3944 net.cpp:197] Top shape: 1 320 32 64 (655360)
I0715 09:07:27.520498  3944 net.cpp:205] Memory required for data: 701759492
I0715 09:07:27.520505  3944 layer_factory.hpp:123] Creating layer inception_4e/relu_3x3
I0715 09:07:27.520511  3944 net.cpp:140] Creating Layer inception_4e/relu_3x3
I0715 09:07:27.520514  3944 net.cpp:481] inception_4e/relu_3x3 <- inception_4e/3x3
I0715 09:07:27.520519  3944 net.cpp:442] inception_4e/relu_3x3 -> inception_4e/3x3 (in-place)
I0715 09:07:27.520525  3944 net.cpp:190] Setting up inception_4e/relu_3x3
I0715 09:07:27.520531  3944 net.cpp:197] Top shape: 1 320 32 64 (655360)
I0715 09:07:27.520534  3944 net.cpp:205] Memory required for data: 704380932
I0715 09:07:27.520536  3944 layer_factory.hpp:123] Creating layer inception_4e/5x5_reduce
I0715 09:07:27.520545  3944 net.cpp:140] Creating Layer inception_4e/5x5_reduce
I0715 09:07:27.520548  3944 net.cpp:481] inception_4e/5x5_reduce <- inception_4d/output_inception_4d/output_0_split_2
I0715 09:07:27.520553  3944 net.cpp:455] inception_4e/5x5_reduce -> inception_4e/5x5_reduce_raw
I0715 09:07:27.520948  3944 net.cpp:190] Setting up inception_4e/5x5_reduce
I0715 09:07:27.520957  3944 net.cpp:197] Top shape: 1 32 32 64 (65536)
I0715 09:07:27.520961  3944 net.cpp:205] Memory required for data: 704643076
I0715 09:07:27.520965  3944 layer_factory.hpp:123] Creating layer inception_4e/5x5_reduce_BatchNorm
I0715 09:07:27.520972  3944 net.cpp:140] Creating Layer inception_4e/5x5_reduce_BatchNorm
I0715 09:07:27.520977  3944 net.cpp:481] inception_4e/5x5_reduce_BatchNorm <- inception_4e/5x5_reduce_raw
I0715 09:07:27.520982  3944 net.cpp:455] inception_4e/5x5_reduce_BatchNorm -> inception_4e/5x5_reduce
I0715 09:07:27.521627  3944 net.cpp:190] Setting up inception_4e/5x5_reduce_BatchNorm
I0715 09:07:27.521636  3944 net.cpp:197] Top shape: 1 32 32 64 (65536)
I0715 09:07:27.521638  3944 net.cpp:205] Memory required for data: 704905220
I0715 09:07:27.521647  3944 layer_factory.hpp:123] Creating layer inception_4e/relu_5x5_reduce
I0715 09:07:27.521652  3944 net.cpp:140] Creating Layer inception_4e/relu_5x5_reduce
I0715 09:07:27.521656  3944 net.cpp:481] inception_4e/relu_5x5_reduce <- inception_4e/5x5_reduce
I0715 09:07:27.521661  3944 net.cpp:442] inception_4e/relu_5x5_reduce -> inception_4e/5x5_reduce (in-place)
I0715 09:07:27.521667  3944 net.cpp:190] Setting up inception_4e/relu_5x5_reduce
I0715 09:07:27.521673  3944 net.cpp:197] Top shape: 1 32 32 64 (65536)
I0715 09:07:27.521675  3944 net.cpp:205] Memory required for data: 705167364
I0715 09:07:27.521678  3944 layer_factory.hpp:123] Creating layer inception_4e/5x5
I0715 09:07:27.521687  3944 net.cpp:140] Creating Layer inception_4e/5x5
I0715 09:07:27.521689  3944 net.cpp:481] inception_4e/5x5 <- inception_4e/5x5_reduce
I0715 09:07:27.521695  3944 net.cpp:455] inception_4e/5x5 -> inception_4e/5x5_raw
I0715 09:07:27.523573  3944 net.cpp:190] Setting up inception_4e/5x5
I0715 09:07:27.523586  3944 net.cpp:197] Top shape: 1 128 32 64 (262144)
I0715 09:07:27.523588  3944 net.cpp:205] Memory required for data: 706215940
I0715 09:07:27.523594  3944 layer_factory.hpp:123] Creating layer inception_4e/5x5_BatchNorm
I0715 09:07:27.523602  3944 net.cpp:140] Creating Layer inception_4e/5x5_BatchNorm
I0715 09:07:27.523607  3944 net.cpp:481] inception_4e/5x5_BatchNorm <- inception_4e/5x5_raw
I0715 09:07:27.523612  3944 net.cpp:455] inception_4e/5x5_BatchNorm -> inception_4e/5x5
I0715 09:07:27.524188  3944 net.cpp:190] Setting up inception_4e/5x5_BatchNorm
I0715 09:07:27.524199  3944 net.cpp:197] Top shape: 1 128 32 64 (262144)
I0715 09:07:27.524201  3944 net.cpp:205] Memory required for data: 707264516
I0715 09:07:27.524209  3944 layer_factory.hpp:123] Creating layer inception_4e/relu_5x5
I0715 09:07:27.524215  3944 net.cpp:140] Creating Layer inception_4e/relu_5x5
I0715 09:07:27.524219  3944 net.cpp:481] inception_4e/relu_5x5 <- inception_4e/5x5
I0715 09:07:27.524224  3944 net.cpp:442] inception_4e/relu_5x5 -> inception_4e/5x5 (in-place)
I0715 09:07:27.524230  3944 net.cpp:190] Setting up inception_4e/relu_5x5
I0715 09:07:27.524236  3944 net.cpp:197] Top shape: 1 128 32 64 (262144)
I0715 09:07:27.524238  3944 net.cpp:205] Memory required for data: 708313092
I0715 09:07:27.524242  3944 layer_factory.hpp:123] Creating layer inception_4e/pool
I0715 09:07:27.524247  3944 net.cpp:140] Creating Layer inception_4e/pool
I0715 09:07:27.524250  3944 net.cpp:481] inception_4e/pool <- inception_4d/output_inception_4d/output_0_split_3
I0715 09:07:27.524255  3944 net.cpp:455] inception_4e/pool -> inception_4e/pool
I0715 09:07:27.524289  3944 net.cpp:190] Setting up inception_4e/pool
I0715 09:07:27.524296  3944 net.cpp:197] Top shape: 1 528 32 64 (1081344)
I0715 09:07:27.524298  3944 net.cpp:205] Memory required for data: 712638468
I0715 09:07:27.524302  3944 layer_factory.hpp:123] Creating layer inception_4e/pool_proj
I0715 09:07:27.524309  3944 net.cpp:140] Creating Layer inception_4e/pool_proj
I0715 09:07:27.524313  3944 net.cpp:481] inception_4e/pool_proj <- inception_4e/pool
I0715 09:07:27.524318  3944 net.cpp:455] inception_4e/pool_proj -> inception_4e/pool_proj_raw
I0715 09:07:27.525130  3944 net.cpp:190] Setting up inception_4e/pool_proj
I0715 09:07:27.525140  3944 net.cpp:197] Top shape: 1 128 32 64 (262144)
I0715 09:07:27.525141  3944 net.cpp:205] Memory required for data: 713687044
I0715 09:07:27.525147  3944 layer_factory.hpp:123] Creating layer inception_4e/pool_proj_BatchNorm
I0715 09:07:27.525154  3944 net.cpp:140] Creating Layer inception_4e/pool_proj_BatchNorm
I0715 09:07:27.525158  3944 net.cpp:481] inception_4e/pool_proj_BatchNorm <- inception_4e/pool_proj_raw
I0715 09:07:27.525164  3944 net.cpp:455] inception_4e/pool_proj_BatchNorm -> inception_4e/pool_proj
I0715 09:07:27.525732  3944 net.cpp:190] Setting up inception_4e/pool_proj_BatchNorm
I0715 09:07:27.525738  3944 net.cpp:197] Top shape: 1 128 32 64 (262144)
I0715 09:07:27.525743  3944 net.cpp:205] Memory required for data: 714735620
I0715 09:07:27.525750  3944 layer_factory.hpp:123] Creating layer inception_4e/relu_pool_proj
I0715 09:07:27.525756  3944 net.cpp:140] Creating Layer inception_4e/relu_pool_proj
I0715 09:07:27.525759  3944 net.cpp:481] inception_4e/relu_pool_proj <- inception_4e/pool_proj
I0715 09:07:27.525764  3944 net.cpp:442] inception_4e/relu_pool_proj -> inception_4e/pool_proj (in-place)
I0715 09:07:27.525771  3944 net.cpp:190] Setting up inception_4e/relu_pool_proj
I0715 09:07:27.525776  3944 net.cpp:197] Top shape: 1 128 32 64 (262144)
I0715 09:07:27.525779  3944 net.cpp:205] Memory required for data: 715784196
I0715 09:07:27.525782  3944 layer_factory.hpp:123] Creating layer inception_4e/output
I0715 09:07:27.525787  3944 net.cpp:140] Creating Layer inception_4e/output
I0715 09:07:27.525790  3944 net.cpp:481] inception_4e/output <- inception_4e/1x1
I0715 09:07:27.525794  3944 net.cpp:481] inception_4e/output <- inception_4e/3x3
I0715 09:07:27.525797  3944 net.cpp:481] inception_4e/output <- inception_4e/5x5
I0715 09:07:27.525801  3944 net.cpp:481] inception_4e/output <- inception_4e/pool_proj
I0715 09:07:27.525806  3944 net.cpp:455] inception_4e/output -> inception_4e/output
I0715 09:07:27.525828  3944 net.cpp:190] Setting up inception_4e/output
I0715 09:07:27.525835  3944 net.cpp:197] Top shape: 1 832 32 64 (1703936)
I0715 09:07:27.525836  3944 net.cpp:205] Memory required for data: 722599940
I0715 09:07:27.525840  3944 layer_factory.hpp:123] Creating layer inception_4e/output_inception_4e/output_0_split
I0715 09:07:27.525846  3944 net.cpp:140] Creating Layer inception_4e/output_inception_4e/output_0_split
I0715 09:07:27.525849  3944 net.cpp:481] inception_4e/output_inception_4e/output_0_split <- inception_4e/output
I0715 09:07:27.525854  3944 net.cpp:455] inception_4e/output_inception_4e/output_0_split -> inception_4e/output_inception_4e/output_0_split_0
I0715 09:07:27.525861  3944 net.cpp:455] inception_4e/output_inception_4e/output_0_split -> inception_4e/output_inception_4e/output_0_split_1
I0715 09:07:27.525890  3944 net.cpp:190] Setting up inception_4e/output_inception_4e/output_0_split
I0715 09:07:27.525897  3944 net.cpp:197] Top shape: 1 832 32 64 (1703936)
I0715 09:07:27.525900  3944 net.cpp:197] Top shape: 1 832 32 64 (1703936)
I0715 09:07:27.525903  3944 net.cpp:205] Memory required for data: 736231428
I0715 09:07:27.525907  3944 layer_factory.hpp:123] Creating layer pool4/3x3_s2
I0715 09:07:27.525913  3944 net.cpp:140] Creating Layer pool4/3x3_s2
I0715 09:07:27.525915  3944 net.cpp:481] pool4/3x3_s2 <- inception_4e/output_inception_4e/output_0_split_0
I0715 09:07:27.525920  3944 net.cpp:455] pool4/3x3_s2 -> pool4/3x3_s2
I0715 09:07:27.525950  3944 net.cpp:190] Setting up pool4/3x3_s2
I0715 09:07:27.525956  3944 net.cpp:197] Top shape: 1 832 16 32 (425984)
I0715 09:07:27.525959  3944 net.cpp:205] Memory required for data: 737935364
I0715 09:07:27.525962  3944 layer_factory.hpp:123] Creating layer pool4/3x3_s2_pool4/3x3_s2_0_split
I0715 09:07:27.525967  3944 net.cpp:140] Creating Layer pool4/3x3_s2_pool4/3x3_s2_0_split
I0715 09:07:27.525971  3944 net.cpp:481] pool4/3x3_s2_pool4/3x3_s2_0_split <- pool4/3x3_s2
I0715 09:07:27.525975  3944 net.cpp:455] pool4/3x3_s2_pool4/3x3_s2_0_split -> pool4/3x3_s2_pool4/3x3_s2_0_split_0
I0715 09:07:27.525982  3944 net.cpp:455] pool4/3x3_s2_pool4/3x3_s2_0_split -> pool4/3x3_s2_pool4/3x3_s2_0_split_1
I0715 09:07:27.525987  3944 net.cpp:455] pool4/3x3_s2_pool4/3x3_s2_0_split -> pool4/3x3_s2_pool4/3x3_s2_0_split_2
I0715 09:07:27.525993  3944 net.cpp:455] pool4/3x3_s2_pool4/3x3_s2_0_split -> pool4/3x3_s2_pool4/3x3_s2_0_split_3
I0715 09:07:27.526041  3944 net.cpp:190] Setting up pool4/3x3_s2_pool4/3x3_s2_0_split
I0715 09:07:27.526047  3944 net.cpp:197] Top shape: 1 832 16 32 (425984)
I0715 09:07:27.526051  3944 net.cpp:197] Top shape: 1 832 16 32 (425984)
I0715 09:07:27.526055  3944 net.cpp:197] Top shape: 1 832 16 32 (425984)
I0715 09:07:27.526058  3944 net.cpp:197] Top shape: 1 832 16 32 (425984)
I0715 09:07:27.526062  3944 net.cpp:205] Memory required for data: 744751108
I0715 09:07:27.526064  3944 layer_factory.hpp:123] Creating layer inception_5a/1x1
I0715 09:07:27.526072  3944 net.cpp:140] Creating Layer inception_5a/1x1
I0715 09:07:27.526075  3944 net.cpp:481] inception_5a/1x1 <- pool4/3x3_s2_pool4/3x3_s2_0_split_0
I0715 09:07:27.526080  3944 net.cpp:455] inception_5a/1x1 -> inception_5a/1x1_raw
I0715 09:07:27.528913  3944 net.cpp:190] Setting up inception_5a/1x1
I0715 09:07:27.528925  3944 net.cpp:197] Top shape: 1 256 16 32 (131072)
I0715 09:07:27.528930  3944 net.cpp:205] Memory required for data: 745275396
I0715 09:07:27.528936  3944 layer_factory.hpp:123] Creating layer inception_5a/1x1_BatchNorm
I0715 09:07:27.528944  3944 net.cpp:140] Creating Layer inception_5a/1x1_BatchNorm
I0715 09:07:27.528949  3944 net.cpp:481] inception_5a/1x1_BatchNorm <- inception_5a/1x1_raw
I0715 09:07:27.528954  3944 net.cpp:455] inception_5a/1x1_BatchNorm -> inception_5a/1x1
I0715 09:07:27.529516  3944 net.cpp:190] Setting up inception_5a/1x1_BatchNorm
I0715 09:07:27.529525  3944 net.cpp:197] Top shape: 1 256 16 32 (131072)
I0715 09:07:27.529527  3944 net.cpp:205] Memory required for data: 745799684
I0715 09:07:27.529536  3944 layer_factory.hpp:123] Creating layer inception_5a/relu_1x1
I0715 09:07:27.529541  3944 net.cpp:140] Creating Layer inception_5a/relu_1x1
I0715 09:07:27.529546  3944 net.cpp:481] inception_5a/relu_1x1 <- inception_5a/1x1
I0715 09:07:27.529551  3944 net.cpp:442] inception_5a/relu_1x1 -> inception_5a/1x1 (in-place)
I0715 09:07:27.529556  3944 net.cpp:190] Setting up inception_5a/relu_1x1
I0715 09:07:27.529561  3944 net.cpp:197] Top shape: 1 256 16 32 (131072)
I0715 09:07:27.529564  3944 net.cpp:205] Memory required for data: 746323972
I0715 09:07:27.529567  3944 layer_factory.hpp:123] Creating layer inception_5a/3x3_reduce
I0715 09:07:27.529575  3944 net.cpp:140] Creating Layer inception_5a/3x3_reduce
I0715 09:07:27.529578  3944 net.cpp:481] inception_5a/3x3_reduce <- pool4/3x3_s2_pool4/3x3_s2_0_split_1
I0715 09:07:27.529583  3944 net.cpp:455] inception_5a/3x3_reduce -> inception_5a/3x3_reduce_raw
I0715 09:07:27.531749  3944 net.cpp:190] Setting up inception_5a/3x3_reduce
I0715 09:07:27.531767  3944 net.cpp:197] Top shape: 1 160 16 32 (81920)
I0715 09:07:27.531770  3944 net.cpp:205] Memory required for data: 746651652
I0715 09:07:27.531776  3944 layer_factory.hpp:123] Creating layer inception_5a/3x3_reduce_BatchNorm
I0715 09:07:27.531785  3944 net.cpp:140] Creating Layer inception_5a/3x3_reduce_BatchNorm
I0715 09:07:27.531788  3944 net.cpp:481] inception_5a/3x3_reduce_BatchNorm <- inception_5a/3x3_reduce_raw
I0715 09:07:27.531795  3944 net.cpp:455] inception_5a/3x3_reduce_BatchNorm -> inception_5a/3x3_reduce
I0715 09:07:27.532440  3944 net.cpp:190] Setting up inception_5a/3x3_reduce_BatchNorm
I0715 09:07:27.532449  3944 net.cpp:197] Top shape: 1 160 16 32 (81920)
I0715 09:07:27.532452  3944 net.cpp:205] Memory required for data: 746979332
I0715 09:07:27.532460  3944 layer_factory.hpp:123] Creating layer inception_5a/relu_3x3_reduce
I0715 09:07:27.532466  3944 net.cpp:140] Creating Layer inception_5a/relu_3x3_reduce
I0715 09:07:27.532469  3944 net.cpp:481] inception_5a/relu_3x3_reduce <- inception_5a/3x3_reduce
I0715 09:07:27.532474  3944 net.cpp:442] inception_5a/relu_3x3_reduce -> inception_5a/3x3_reduce (in-place)
I0715 09:07:27.532481  3944 net.cpp:190] Setting up inception_5a/relu_3x3_reduce
I0715 09:07:27.532486  3944 net.cpp:197] Top shape: 1 160 16 32 (81920)
I0715 09:07:27.532490  3944 net.cpp:205] Memory required for data: 747307012
I0715 09:07:27.532492  3944 layer_factory.hpp:123] Creating layer inception_5a/3x3
I0715 09:07:27.532500  3944 net.cpp:140] Creating Layer inception_5a/3x3
I0715 09:07:27.532503  3944 net.cpp:481] inception_5a/3x3 <- inception_5a/3x3_reduce
I0715 09:07:27.532510  3944 net.cpp:455] inception_5a/3x3 -> inception_5a/3x3_raw
I0715 09:07:27.539047  3944 net.cpp:190] Setting up inception_5a/3x3
I0715 09:07:27.539060  3944 net.cpp:197] Top shape: 1 320 16 32 (163840)
I0715 09:07:27.539064  3944 net.cpp:205] Memory required for data: 747962372
I0715 09:07:27.539070  3944 layer_factory.hpp:123] Creating layer inception_5a/3x3_BatchNorm
I0715 09:07:27.539079  3944 net.cpp:140] Creating Layer inception_5a/3x3_BatchNorm
I0715 09:07:27.539083  3944 net.cpp:481] inception_5a/3x3_BatchNorm <- inception_5a/3x3_raw
I0715 09:07:27.539089  3944 net.cpp:455] inception_5a/3x3_BatchNorm -> inception_5a/3x3
I0715 09:07:27.539710  3944 net.cpp:190] Setting up inception_5a/3x3_BatchNorm
I0715 09:07:27.539719  3944 net.cpp:197] Top shape: 1 320 16 32 (163840)
I0715 09:07:27.539722  3944 net.cpp:205] Memory required for data: 748617732
I0715 09:07:27.539731  3944 layer_factory.hpp:123] Creating layer inception_5a/relu_3x3
I0715 09:07:27.539737  3944 net.cpp:140] Creating Layer inception_5a/relu_3x3
I0715 09:07:27.539741  3944 net.cpp:481] inception_5a/relu_3x3 <- inception_5a/3x3
I0715 09:07:27.539746  3944 net.cpp:442] inception_5a/relu_3x3 -> inception_5a/3x3 (in-place)
I0715 09:07:27.539752  3944 net.cpp:190] Setting up inception_5a/relu_3x3
I0715 09:07:27.539764  3944 net.cpp:197] Top shape: 1 320 16 32 (163840)
I0715 09:07:27.539767  3944 net.cpp:205] Memory required for data: 749273092
I0715 09:07:27.539769  3944 layer_factory.hpp:123] Creating layer inception_5a/5x5_reduce
I0715 09:07:27.539777  3944 net.cpp:140] Creating Layer inception_5a/5x5_reduce
I0715 09:07:27.539782  3944 net.cpp:481] inception_5a/5x5_reduce <- pool4/3x3_s2_pool4/3x3_s2_0_split_2
I0715 09:07:27.539788  3944 net.cpp:455] inception_5a/5x5_reduce -> inception_5a/5x5_reduce_raw
I0715 09:07:27.540271  3944 net.cpp:190] Setting up inception_5a/5x5_reduce
I0715 09:07:27.540280  3944 net.cpp:197] Top shape: 1 32 16 32 (16384)
I0715 09:07:27.540283  3944 net.cpp:205] Memory required for data: 749338628
I0715 09:07:27.540288  3944 layer_factory.hpp:123] Creating layer inception_5a/5x5_reduce_BatchNorm
I0715 09:07:27.540297  3944 net.cpp:140] Creating Layer inception_5a/5x5_reduce_BatchNorm
I0715 09:07:27.540299  3944 net.cpp:481] inception_5a/5x5_reduce_BatchNorm <- inception_5a/5x5_reduce_raw
I0715 09:07:27.540307  3944 net.cpp:455] inception_5a/5x5_reduce_BatchNorm -> inception_5a/5x5_reduce
I0715 09:07:27.540952  3944 net.cpp:190] Setting up inception_5a/5x5_reduce_BatchNorm
I0715 09:07:27.540961  3944 net.cpp:197] Top shape: 1 32 16 32 (16384)
I0715 09:07:27.540963  3944 net.cpp:205] Memory required for data: 749404164
I0715 09:07:27.540972  3944 layer_factory.hpp:123] Creating layer inception_5a/relu_5x5_reduce
I0715 09:07:27.540977  3944 net.cpp:140] Creating Layer inception_5a/relu_5x5_reduce
I0715 09:07:27.540982  3944 net.cpp:481] inception_5a/relu_5x5_reduce <- inception_5a/5x5_reduce
I0715 09:07:27.540985  3944 net.cpp:442] inception_5a/relu_5x5_reduce -> inception_5a/5x5_reduce (in-place)
I0715 09:07:27.540992  3944 net.cpp:190] Setting up inception_5a/relu_5x5_reduce
I0715 09:07:27.540997  3944 net.cpp:197] Top shape: 1 32 16 32 (16384)
I0715 09:07:27.540999  3944 net.cpp:205] Memory required for data: 749469700
I0715 09:07:27.541002  3944 layer_factory.hpp:123] Creating layer inception_5a/5x5
I0715 09:07:27.541009  3944 net.cpp:140] Creating Layer inception_5a/5x5
I0715 09:07:27.541013  3944 net.cpp:481] inception_5a/5x5 <- inception_5a/5x5_reduce
I0715 09:07:27.541018  3944 net.cpp:455] inception_5a/5x5 -> inception_5a/5x5_raw
I0715 09:07:27.542142  3944 net.cpp:190] Setting up inception_5a/5x5
I0715 09:07:27.542151  3944 net.cpp:197] Top shape: 1 128 16 32 (65536)
I0715 09:07:27.542155  3944 net.cpp:205] Memory required for data: 749731844
I0715 09:07:27.542160  3944 layer_factory.hpp:123] Creating layer inception_5a/5x5_BatchNorm
I0715 09:07:27.542167  3944 net.cpp:140] Creating Layer inception_5a/5x5_BatchNorm
I0715 09:07:27.542171  3944 net.cpp:481] inception_5a/5x5_BatchNorm <- inception_5a/5x5_raw
I0715 09:07:27.542176  3944 net.cpp:455] inception_5a/5x5_BatchNorm -> inception_5a/5x5
I0715 09:07:27.542729  3944 net.cpp:190] Setting up inception_5a/5x5_BatchNorm
I0715 09:07:27.542737  3944 net.cpp:197] Top shape: 1 128 16 32 (65536)
I0715 09:07:27.542740  3944 net.cpp:205] Memory required for data: 749993988
I0715 09:07:27.542748  3944 layer_factory.hpp:123] Creating layer inception_5a/relu_5x5
I0715 09:07:27.542753  3944 net.cpp:140] Creating Layer inception_5a/relu_5x5
I0715 09:07:27.542757  3944 net.cpp:481] inception_5a/relu_5x5 <- inception_5a/5x5
I0715 09:07:27.542762  3944 net.cpp:442] inception_5a/relu_5x5 -> inception_5a/5x5 (in-place)
I0715 09:07:27.542768  3944 net.cpp:190] Setting up inception_5a/relu_5x5
I0715 09:07:27.542771  3944 net.cpp:197] Top shape: 1 128 16 32 (65536)
I0715 09:07:27.542774  3944 net.cpp:205] Memory required for data: 750256132
I0715 09:07:27.542778  3944 layer_factory.hpp:123] Creating layer inception_5a/pool
I0715 09:07:27.542783  3944 net.cpp:140] Creating Layer inception_5a/pool
I0715 09:07:27.542788  3944 net.cpp:481] inception_5a/pool <- pool4/3x3_s2_pool4/3x3_s2_0_split_3
I0715 09:07:27.542793  3944 net.cpp:455] inception_5a/pool -> inception_5a/pool
I0715 09:07:27.542825  3944 net.cpp:190] Setting up inception_5a/pool
I0715 09:07:27.542832  3944 net.cpp:197] Top shape: 1 832 16 32 (425984)
I0715 09:07:27.542834  3944 net.cpp:205] Memory required for data: 751960068
I0715 09:07:27.542837  3944 layer_factory.hpp:123] Creating layer inception_5a/pool_proj
I0715 09:07:27.542845  3944 net.cpp:140] Creating Layer inception_5a/pool_proj
I0715 09:07:27.542850  3944 net.cpp:481] inception_5a/pool_proj <- inception_5a/pool
I0715 09:07:27.542855  3944 net.cpp:455] inception_5a/pool_proj -> inception_5a/pool_proj_raw
I0715 09:07:27.544783  3944 net.cpp:190] Setting up inception_5a/pool_proj
I0715 09:07:27.544796  3944 net.cpp:197] Top shape: 1 128 16 32 (65536)
I0715 09:07:27.544800  3944 net.cpp:205] Memory required for data: 752222212
I0715 09:07:27.544806  3944 layer_factory.hpp:123] Creating layer inception_5a/pool_proj_BatchNorm
I0715 09:07:27.544813  3944 net.cpp:140] Creating Layer inception_5a/pool_proj_BatchNorm
I0715 09:07:27.544818  3944 net.cpp:481] inception_5a/pool_proj_BatchNorm <- inception_5a/pool_proj_raw
I0715 09:07:27.544824  3944 net.cpp:455] inception_5a/pool_proj_BatchNorm -> inception_5a/pool_proj
I0715 09:07:27.545392  3944 net.cpp:190] Setting up inception_5a/pool_proj_BatchNorm
I0715 09:07:27.545400  3944 net.cpp:197] Top shape: 1 128 16 32 (65536)
I0715 09:07:27.545404  3944 net.cpp:205] Memory required for data: 752484356
I0715 09:07:27.545413  3944 layer_factory.hpp:123] Creating layer inception_5a/relu_pool_proj
I0715 09:07:27.545418  3944 net.cpp:140] Creating Layer inception_5a/relu_pool_proj
I0715 09:07:27.545421  3944 net.cpp:481] inception_5a/relu_pool_proj <- inception_5a/pool_proj
I0715 09:07:27.545426  3944 net.cpp:442] inception_5a/relu_pool_proj -> inception_5a/pool_proj (in-place)
I0715 09:07:27.545433  3944 net.cpp:190] Setting up inception_5a/relu_pool_proj
I0715 09:07:27.545437  3944 net.cpp:197] Top shape: 1 128 16 32 (65536)
I0715 09:07:27.545440  3944 net.cpp:205] Memory required for data: 752746500
I0715 09:07:27.545444  3944 layer_factory.hpp:123] Creating layer inception_5a/output
I0715 09:07:27.545449  3944 net.cpp:140] Creating Layer inception_5a/output
I0715 09:07:27.545452  3944 net.cpp:481] inception_5a/output <- inception_5a/1x1
I0715 09:07:27.545456  3944 net.cpp:481] inception_5a/output <- inception_5a/3x3
I0715 09:07:27.545460  3944 net.cpp:481] inception_5a/output <- inception_5a/5x5
I0715 09:07:27.545464  3944 net.cpp:481] inception_5a/output <- inception_5a/pool_proj
I0715 09:07:27.545469  3944 net.cpp:455] inception_5a/output -> inception_5a/output
I0715 09:07:27.545491  3944 net.cpp:190] Setting up inception_5a/output
I0715 09:07:27.545498  3944 net.cpp:197] Top shape: 1 832 16 32 (425984)
I0715 09:07:27.545501  3944 net.cpp:205] Memory required for data: 754450436
I0715 09:07:27.545505  3944 layer_factory.hpp:123] Creating layer inception_5a/output_inception_5a/output_0_split
I0715 09:07:27.545511  3944 net.cpp:140] Creating Layer inception_5a/output_inception_5a/output_0_split
I0715 09:07:27.545514  3944 net.cpp:481] inception_5a/output_inception_5a/output_0_split <- inception_5a/output
I0715 09:07:27.545519  3944 net.cpp:455] inception_5a/output_inception_5a/output_0_split -> inception_5a/output_inception_5a/output_0_split_0
I0715 09:07:27.545526  3944 net.cpp:455] inception_5a/output_inception_5a/output_0_split -> inception_5a/output_inception_5a/output_0_split_1
I0715 09:07:27.545532  3944 net.cpp:455] inception_5a/output_inception_5a/output_0_split -> inception_5a/output_inception_5a/output_0_split_2
I0715 09:07:27.545539  3944 net.cpp:455] inception_5a/output_inception_5a/output_0_split -> inception_5a/output_inception_5a/output_0_split_3
I0715 09:07:27.545589  3944 net.cpp:190] Setting up inception_5a/output_inception_5a/output_0_split
I0715 09:07:27.545595  3944 net.cpp:197] Top shape: 1 832 16 32 (425984)
I0715 09:07:27.545599  3944 net.cpp:197] Top shape: 1 832 16 32 (425984)
I0715 09:07:27.545603  3944 net.cpp:197] Top shape: 1 832 16 32 (425984)
I0715 09:07:27.545606  3944 net.cpp:197] Top shape: 1 832 16 32 (425984)
I0715 09:07:27.545609  3944 net.cpp:205] Memory required for data: 761266180
I0715 09:07:27.545612  3944 layer_factory.hpp:123] Creating layer inception_5b/1x1
I0715 09:07:27.545621  3944 net.cpp:140] Creating Layer inception_5b/1x1
I0715 09:07:27.545624  3944 net.cpp:481] inception_5b/1x1 <- inception_5a/output_inception_5a/output_0_split_0
I0715 09:07:27.545630  3944 net.cpp:455] inception_5b/1x1 -> inception_5b/1x1_raw
I0715 09:07:27.549398  3944 net.cpp:190] Setting up inception_5b/1x1
I0715 09:07:27.549412  3944 net.cpp:197] Top shape: 1 384 16 32 (196608)
I0715 09:07:27.549415  3944 net.cpp:205] Memory required for data: 762052612
I0715 09:07:27.549422  3944 layer_factory.hpp:123] Creating layer inception_5b/1x1_BatchNorm
I0715 09:07:27.549429  3944 net.cpp:140] Creating Layer inception_5b/1x1_BatchNorm
I0715 09:07:27.549433  3944 net.cpp:481] inception_5b/1x1_BatchNorm <- inception_5b/1x1_raw
I0715 09:07:27.549439  3944 net.cpp:455] inception_5b/1x1_BatchNorm -> inception_5b/1x1
I0715 09:07:27.549983  3944 net.cpp:190] Setting up inception_5b/1x1_BatchNorm
I0715 09:07:27.549991  3944 net.cpp:197] Top shape: 1 384 16 32 (196608)
I0715 09:07:27.549994  3944 net.cpp:205] Memory required for data: 762839044
I0715 09:07:27.550004  3944 layer_factory.hpp:123] Creating layer inception_5b/relu_1x1
I0715 09:07:27.550009  3944 net.cpp:140] Creating Layer inception_5b/relu_1x1
I0715 09:07:27.550012  3944 net.cpp:481] inception_5b/relu_1x1 <- inception_5b/1x1
I0715 09:07:27.550017  3944 net.cpp:442] inception_5b/relu_1x1 -> inception_5b/1x1 (in-place)
I0715 09:07:27.550024  3944 net.cpp:190] Setting up inception_5b/relu_1x1
I0715 09:07:27.550029  3944 net.cpp:197] Top shape: 1 384 16 32 (196608)
I0715 09:07:27.550031  3944 net.cpp:205] Memory required for data: 763625476
…
I0715 09:09:50.550179  3944 net.cpp:481] inception_4e/3x3_reduce <- inception_4d/output_inception_4d/output_fixed_0_split_1
I0715 09:09:50.550189  3944 net.cpp:455] inception_4e/3x3_reduce -> inception_4e/3x3_reduce
I0715 09:09:50.551111  3944 layer_factory.hpp:123] Creating layer inception_4e/3x3_reduce
I0715 09:09:50.552182  3944 net.cpp:190] Setting up inception_4e/3x3_reduce
I0715 09:09:50.552193  3944 net.cpp:197] Top shape: 1 160 32 64 (327680)
I0715 09:09:50.552197  3944 net.cpp:205] Memory required for data: 706478080
I0715 09:09:50.552207  3944 layer_factory.hpp:123] Creating layer inception_4e/relu_3x3_reduce
I0715 09:09:50.552217  3944 net.cpp:140] Creating Layer inception_4e/relu_3x3_reduce
I0715 09:09:50.552223  3944 net.cpp:481] inception_4e/relu_3x3_reduce <- inception_4e/3x3_reduce
I0715 09:09:50.552232  3944 net.cpp:442] inception_4e/relu_3x3_reduce -> inception_4e/3x3_reduce (in-place)
I0715 09:09:50.552243  3944 net.cpp:190] Setting up inception_4e/relu_3x3_reduce
I0715 09:09:50.552250  3944 net.cpp:197] Top shape: 1 160 32 64 (327680)
I0715 09:09:50.552255  3944 net.cpp:205] Memory required for data: 707788800
I0715 09:09:50.552260  3944 layer_factory.hpp:123] Creating layer inception_4e/3x3_reduce_fixed
I0715 09:09:50.552268  3944 net.cpp:140] Creating Layer inception_4e/3x3_reduce_fixed
I0715 09:09:50.552273  3944 net.cpp:481] inception_4e/3x3_reduce_fixed <- inception_4e/3x3_reduce
I0715 09:09:50.552281  3944 net.cpp:442] inception_4e/3x3_reduce_fixed -> inception_4e/3x3_reduce (in-place)
I0715 09:09:50.552322  3944 net.cpp:190] Setting up inception_4e/3x3_reduce_fixed
I0715 09:09:50.552330  3944 net.cpp:197] Top shape: 1 160 32 64 (327680)
I0715 09:09:50.552335  3944 net.cpp:205] Memory required for data: 709099520
I0715 09:09:50.552342  3944 layer_factory.hpp:123] Creating layer inception_4e/3x3
I0715 09:09:50.552356  3944 net.cpp:140] Creating Layer inception_4e/3x3
I0715 09:09:50.552362  3944 net.cpp:481] inception_4e/3x3 <- inception_4e/3x3_reduce
I0715 09:09:50.552371  3944 net.cpp:455] inception_4e/3x3 -> inception_4e/3x3
I0715 09:09:50.557971  3944 layer_factory.hpp:123] Creating layer inception_4e/3x3
I0715 09:09:50.563711  3944 net.cpp:190] Setting up inception_4e/3x3
I0715 09:09:50.563726  3944 net.cpp:197] Top shape: 1 320 32 64 (655360)
I0715 09:09:50.563731  3944 net.cpp:205] Memory required for data: 711720960
I0715 09:09:50.563741  3944 layer_factory.hpp:123] Creating layer inception_4e/relu_3x3
I0715 09:09:50.563750  3944 net.cpp:140] Creating Layer inception_4e/relu_3x3
I0715 09:09:50.563762  3944 net.cpp:481] inception_4e/relu_3x3 <- inception_4e/3x3
I0715 09:09:50.563772  3944 net.cpp:442] inception_4e/relu_3x3 -> inception_4e/3x3 (in-place)
I0715 09:09:50.563786  3944 net.cpp:190] Setting up inception_4e/relu_3x3
I0715 09:09:50.563794  3944 net.cpp:197] Top shape: 1 320 32 64 (655360)
I0715 09:09:50.563799  3944 net.cpp:205] Memory required for data: 714342400
I0715 09:09:50.563804  3944 layer_factory.hpp:123] Creating layer inception_4e/5x5_reduce
I0715 09:09:50.563817  3944 net.cpp:140] Creating Layer inception_4e/5x5_reduce
I0715 09:09:50.563823  3944 net.cpp:481] inception_4e/5x5_reduce <- inception_4d/output_inception_4d/output_fixed_0_split_2
I0715 09:09:50.563833  3944 net.cpp:455] inception_4e/5x5_reduce -> inception_4e/5x5_reduce
I0715 09:09:50.564159  3944 layer_factory.hpp:123] Creating layer inception_4e/5x5_reduce
I0715 09:09:50.564621  3944 net.cpp:190] Setting up inception_4e/5x5_reduce
I0715 09:09:50.564631  3944 net.cpp:197] Top shape: 1 32 32 64 (65536)
I0715 09:09:50.564636  3944 net.cpp:205] Memory required for data: 714604544
I0715 09:09:50.564646  3944 layer_factory.hpp:123] Creating layer inception_4e/relu_5x5_reduce
I0715 09:09:50.564657  3944 net.cpp:140] Creating Layer inception_4e/relu_5x5_reduce
I0715 09:09:50.564664  3944 net.cpp:481] inception_4e/relu_5x5_reduce <- inception_4e/5x5_reduce
I0715 09:09:50.564674  3944 net.cpp:442] inception_4e/relu_5x5_reduce -> inception_4e/5x5_reduce (in-place)
I0715 09:09:50.564687  3944 net.cpp:190] Setting up inception_4e/relu_5x5_reduce
I0715 09:09:50.564694  3944 net.cpp:197] Top shape: 1 32 32 64 (65536)
I0715 09:09:50.564698  3944 net.cpp:205] Memory required for data: 714866688
I0715 09:09:50.564703  3944 layer_factory.hpp:123] Creating layer inception_4e/5x5_reduce_fixed
I0715 09:09:50.564713  3944 net.cpp:140] Creating Layer inception_4e/5x5_reduce_fixed
I0715 09:09:50.564718  3944 net.cpp:481] inception_4e/5x5_reduce_fixed <- inception_4e/5x5_reduce
I0715 09:09:50.564725  3944 net.cpp:442] inception_4e/5x5_reduce_fixed -> inception_4e/5x5_reduce (in-place)
I0715 09:09:50.564765  3944 net.cpp:190] Setting up inception_4e/5x5_reduce_fixed
I0715 09:09:50.564774  3944 net.cpp:197] Top shape: 1 32 32 64 (65536)
I0715 09:09:50.564777  3944 net.cpp:205] Memory required for data: 715128832
I0715 09:09:50.564785  3944 layer_factory.hpp:123] Creating layer inception_4e/5x5
I0715 09:09:50.564796  3944 net.cpp:140] Creating Layer inception_4e/5x5
I0715 09:09:50.564803  3944 net.cpp:481] inception_4e/5x5 <- inception_4e/5x5_reduce
I0715 09:09:50.564812  3944 net.cpp:455] inception_4e/5x5 -> inception_4e/5x5
I0715 09:09:50.565894  3944 layer_factory.hpp:123] Creating layer inception_4e/5x5
I0715 09:09:50.567842  3944 net.cpp:190] Setting up inception_4e/5x5
I0715 09:09:50.567857  3944 net.cpp:197] Top shape: 1 128 32 64 (262144)
I0715 09:09:50.567862  3944 net.cpp:205] Memory required for data: 716177408
I0715 09:09:50.567870  3944 layer_factory.hpp:123] Creating layer inception_4e/relu_5x5
I0715 09:09:50.567879  3944 net.cpp:140] Creating Layer inception_4e/relu_5x5
I0715 09:09:50.567889  3944 net.cpp:481] inception_4e/relu_5x5 <- inception_4e/5x5
I0715 09:09:50.567898  3944 net.cpp:442] inception_4e/relu_5x5 -> inception_4e/5x5 (in-place)
I0715 09:09:50.567909  3944 net.cpp:190] Setting up inception_4e/relu_5x5
I0715 09:09:50.567916  3944 net.cpp:197] Top shape: 1 128 32 64 (262144)
I0715 09:09:50.567922  3944 net.cpp:205] Memory required for data: 717225984
I0715 09:09:50.567926  3944 layer_factory.hpp:123] Creating layer inception_4e/pool
I0715 09:09:50.567936  3944 net.cpp:140] Creating Layer inception_4e/pool
I0715 09:09:50.567942  3944 net.cpp:481] inception_4e/pool <- inception_4d/output_inception_4d/output_fixed_0_split_3
I0715 09:09:50.567950  3944 net.cpp:455] inception_4e/pool -> inception_4e/pool
I0715 09:09:50.567997  3944 net.cpp:190] Setting up inception_4e/pool
I0715 09:09:50.568006  3944 net.cpp:197] Top shape: 1 528 32 64 (1081344)
I0715 09:09:50.568011  3944 net.cpp:205] Memory required for data: 721551360
I0715 09:09:50.568015  3944 layer_factory.hpp:123] Creating layer inception_4e/pool_proj
I0715 09:09:50.568028  3944 net.cpp:140] Creating Layer inception_4e/pool_proj
I0715 09:09:50.568034  3944 net.cpp:481] inception_4e/pool_proj <- inception_4e/pool
I0715 09:09:50.568044  3944 net.cpp:455] inception_4e/pool_proj -> inception_4e/pool_proj
I0715 09:09:50.568804  3944 layer_factory.hpp:123] Creating layer inception_4e/pool_proj
I0715 09:09:50.569687  3944 net.cpp:190] Setting up inception_4e/pool_proj
I0715 09:09:50.569698  3944 net.cpp:197] Top shape: 1 128 32 64 (262144)
I0715 09:09:50.569702  3944 net.cpp:205] Memory required for data: 722599936
I0715 09:09:50.569711  3944 layer_factory.hpp:123] Creating layer inception_4e/relu_pool_proj
I0715 09:09:50.569721  3944 net.cpp:140] Creating Layer inception_4e/relu_pool_proj
I0715 09:09:50.569727  3944 net.cpp:481] inception_4e/relu_pool_proj <- inception_4e/pool_proj
I0715 09:09:50.569736  3944 net.cpp:442] inception_4e/relu_pool_proj -> inception_4e/pool_proj (in-place)
I0715 09:09:50.569747  3944 net.cpp:190] Setting up inception_4e/relu_pool_proj
I0715 09:09:50.569754  3944 net.cpp:197] Top shape: 1 128 32 64 (262144)
I0715 09:09:50.569758  3944 net.cpp:205] Memory required for data: 723648512
I0715 09:09:50.569763  3944 layer_factory.hpp:123] Creating layer inception_4e/output
I0715 09:09:50.569772  3944 net.cpp:140] Creating Layer inception_4e/output
I0715 09:09:50.569777  3944 net.cpp:481] inception_4e/output <- inception_4e/1x1
I0715 09:09:50.569783  3944 net.cpp:481] inception_4e/output <- inception_4e/3x3
I0715 09:09:50.569790  3944 net.cpp:481] inception_4e/output <- inception_4e/5x5
I0715 09:09:50.569797  3944 net.cpp:481] inception_4e/output <- inception_4e/pool_proj
I0715 09:09:50.569804  3944 net.cpp:455] inception_4e/output -> inception_4e/output
I0715 09:09:50.569838  3944 net.cpp:190] Setting up inception_4e/output
I0715 09:09:50.569845  3944 net.cpp:197] Top shape: 1 832 32 64 (1703936)
I0715 09:09:50.569850  3944 net.cpp:205] Memory required for data: 730464256
I0715 09:09:50.569854  3944 layer_factory.hpp:123] Creating layer inception_4e/output_fixed
I0715 09:09:50.569864  3944 net.cpp:140] Creating Layer inception_4e/output_fixed
I0715 09:09:50.569870  3944 net.cpp:481] inception_4e/output_fixed <- inception_4e/output
I0715 09:09:50.569878  3944 net.cpp:442] inception_4e/output_fixed -> inception_4e/output (in-place)
I0715 09:09:50.569917  3944 net.cpp:190] Setting up inception_4e/output_fixed
I0715 09:09:50.569924  3944 net.cpp:197] Top shape: 1 832 32 64 (1703936)
I0715 09:09:50.569928  3944 net.cpp:205] Memory required for data: 737280000
I0715 09:09:50.569936  3944 layer_factory.hpp:123] Creating layer inception_4e/output_inception_4e/output_fixed_0_split
I0715 09:09:50.569944  3944 net.cpp:140] Creating Layer inception_4e/output_inception_4e/output_fixed_0_split
I0715 09:09:50.569949  3944 net.cpp:481] inception_4e/output_inception_4e/output_fixed_0_split <- inception_4e/output
I0715 09:09:50.569957  3944 net.cpp:455] inception_4e/output_inception_4e/output_fixed_0_split -> inception_4e/output_inception_4e/output_fixed_0_split_0
I0715 09:09:50.569968  3944 net.cpp:455] inception_4e/output_inception_4e/output_fixed_0_split -> inception_4e/output_inception_4e/output_fixed_0_split_1
I0715 09:09:50.570008  3944 net.cpp:190] Setting up inception_4e/output_inception_4e/output_fixed_0_split
I0715 09:09:50.570015  3944 net.cpp:197] Top shape: 1 832 32 64 (1703936)
I0715 09:09:50.570021  3944 net.cpp:197] Top shape: 1 832 32 64 (1703936)
I0715 09:09:50.570025  3944 net.cpp:205] Memory required for data: 750911488
I0715 09:09:50.570030  3944 layer_factory.hpp:123] Creating layer pool4/3x3_s2
I0715 09:09:50.570039  3944 net.cpp:140] Creating Layer pool4/3x3_s2
I0715 09:09:50.570044  3944 net.cpp:481] pool4/3x3_s2 <- inception_4e/output_inception_4e/output_fixed_0_split_0
I0715 09:09:50.570052  3944 net.cpp:455] pool4/3x3_s2 -> pool4/3x3_s2
I0715 09:09:50.570091  3944 net.cpp:190] Setting up pool4/3x3_s2
I0715 09:09:50.570098  3944 net.cpp:197] Top shape: 1 832 16 32 (425984)
I0715 09:09:50.570102  3944 net.cpp:205] Memory required for data: 752615424
I0715 09:09:50.570107  3944 layer_factory.hpp:123] Creating layer pool4/3x3_s2_pool4/3x3_s2_0_split
I0715 09:09:50.570116  3944 net.cpp:140] Creating Layer pool4/3x3_s2_pool4/3x3_s2_0_split
I0715 09:09:50.570122  3944 net.cpp:481] pool4/3x3_s2_pool4/3x3_s2_0_split <- pool4/3x3_s2
I0715 09:09:50.570130  3944 net.cpp:455] pool4/3x3_s2_pool4/3x3_s2_0_split -> pool4/3x3_s2_pool4/3x3_s2_0_split_0
I0715 09:09:50.570142  3944 net.cpp:455] pool4/3x3_s2_pool4/3x3_s2_0_split -> pool4/3x3_s2_pool4/3x3_s2_0_split_1
I0715 09:09:50.570152  3944 net.cpp:455] pool4/3x3_s2_pool4/3x3_s2_0_split -> pool4/3x3_s2_pool4/3x3_s2_0_split_2
I0715 09:09:50.570163  3944 net.cpp:455] pool4/3x3_s2_pool4/3x3_s2_0_split -> pool4/3x3_s2_pool4/3x3_s2_0_split_3
I0715 09:09:50.570219  3944 net.cpp:190] Setting up pool4/3x3_s2_pool4/3x3_s2_0_split
I0715 09:09:50.570226  3944 net.cpp:197] Top shape: 1 832 16 32 (425984)
I0715 09:09:50.570232  3944 net.cpp:197] Top shape: 1 832 16 32 (425984)
I0715 09:09:50.570238  3944 net.cpp:197] Top shape: 1 832 16 32 (425984)
I0715 09:09:50.570245  3944 net.cpp:197] Top shape: 1 832 16 32 (425984)
I0715 09:09:50.570250  3944 net.cpp:205] Memory required for data: 759431168
I0715 09:09:50.570253  3944 layer_factory.hpp:123] Creating layer inception_5a/1x1
I0715 09:09:50.570266  3944 net.cpp:140] Creating Layer inception_5a/1x1
I0715 09:09:50.570271  3944 net.cpp:481] inception_5a/1x1 <- pool4/3x3_s2_pool4/3x3_s2_0_split_0
I0715 09:09:50.570282  3944 net.cpp:455] inception_5a/1x1 -> inception_5a/1x1
I0715 09:09:50.573026  3944 layer_factory.hpp:123] Creating layer inception_5a/1x1
I0715 09:09:50.575918  3944 net.cpp:190] Setting up inception_5a/1x1
I0715 09:09:50.575933  3944 net.cpp:197] Top shape: 1 256 16 32 (131072)
I0715 09:09:50.575938  3944 net.cpp:205] Memory required for data: 759955456
I0715 09:09:50.575948  3944 layer_factory.hpp:123] Creating layer inception_5a/relu_1x1
I0715 09:09:50.575959  3944 net.cpp:140] Creating Layer inception_5a/relu_1x1
I0715 09:09:50.575966  3944 net.cpp:481] inception_5a/relu_1x1 <- inception_5a/1x1
I0715 09:09:50.575978  3944 net.cpp:442] inception_5a/relu_1x1 -> inception_5a/1x1 (in-place)
I0715 09:09:50.575989  3944 net.cpp:190] Setting up inception_5a/relu_1x1
I0715 09:09:50.575996  3944 net.cpp:197] Top shape: 1 256 16 32 (131072)
I0715 09:09:50.576001  3944 net.cpp:205] Memory required for data: 760479744
I0715 09:09:50.576006  3944 layer_factory.hpp:123] Creating layer inception_5a/3x3_reduce
I0715 09:09:50.576020  3944 net.cpp:140] Creating Layer inception_5a/3x3_reduce
I0715 09:09:50.576026  3944 net.cpp:481] inception_5a/3x3_reduce <- pool4/3x3_s2_pool4/3x3_s2_0_split_1
I0715 09:09:50.576036  3944 net.cpp:455] inception_5a/3x3_reduce -> inception_5a/3x3_reduce
I0715 09:09:50.581423  3944 layer_factory.hpp:123] Creating layer inception_5a/3x3_reduce
I0715 09:09:50.582902  3944 net.cpp:190] Setting up inception_5a/3x3_reduce
I0715 09:09:50.582914  3944 net.cpp:197] Top shape: 1 160 16 32 (81920)
I0715 09:09:50.582919  3944 net.cpp:205] Memory required for data: 760807424
I0715 09:09:50.582929  3944 layer_factory.hpp:123] Creating layer inception_5a/relu_3x3_reduce
I0715 09:09:50.582939  3944 net.cpp:140] Creating Layer inception_5a/relu_3x3_reduce
I0715 09:09:50.582947  3944 net.cpp:481] inception_5a/relu_3x3_reduce <- inception_5a/3x3_reduce
I0715 09:09:50.582955  3944 net.cpp:442] inception_5a/relu_3x3_reduce -> inception_5a/3x3_reduce (in-place)
I0715 09:09:50.582967  3944 net.cpp:190] Setting up inception_5a/relu_3x3_reduce
I0715 09:09:50.582975  3944 net.cpp:197] Top shape: 1 160 16 32 (81920)
I0715 09:09:50.582979  3944 net.cpp:205] Memory required for data: 761135104
I0715 09:09:50.582984  3944 layer_factory.hpp:123] Creating layer inception_5a/3x3_reduce_fixed
I0715 09:09:50.582993  3944 net.cpp:140] Creating Layer inception_5a/3x3_reduce_fixed
I0715 09:09:50.582998  3944 net.cpp:481] inception_5a/3x3_reduce_fixed <- inception_5a/3x3_reduce
I0715 09:09:50.583005  3944 net.cpp:442] inception_5a/3x3_reduce_fixed -> inception_5a/3x3_reduce (in-place)
I0715 09:09:50.583047  3944 net.cpp:190] Setting up inception_5a/3x3_reduce_fixed
I0715 09:09:50.583056  3944 net.cpp:197] Top shape: 1 160 16 32 (81920)
I0715 09:09:50.583060  3944 net.cpp:205] Memory required for data: 761462784
I0715 09:09:50.583067  3944 layer_factory.hpp:123] Creating layer inception_5a/3x3
I0715 09:09:50.583082  3944 net.cpp:140] Creating Layer inception_5a/3x3
I0715 09:09:50.583088  3944 net.cpp:481] inception_5a/3x3 <- inception_5a/3x3_reduce
I0715 09:09:50.583097  3944 net.cpp:455] inception_5a/3x3 -> inception_5a/3x3
I0715 09:09:50.588762  3944 layer_factory.hpp:123] Creating layer inception_5a/3x3
I0715 09:09:50.594518  3944 net.cpp:190] Setting up inception_5a/3x3
I0715 09:09:50.594533  3944 net.cpp:197] Top shape: 1 320 16 32 (163840)
I0715 09:09:50.594538  3944 net.cpp:205] Memory required for data: 762118144
I0715 09:09:50.594547  3944 layer_factory.hpp:123] Creating layer inception_5a/relu_3x3
I0715 09:09:50.594557  3944 net.cpp:140] Creating Layer inception_5a/relu_3x3
I0715 09:09:50.594563  3944 net.cpp:481] inception_5a/relu_3x3 <- inception_5a/3x3
I0715 09:09:50.594573  3944 net.cpp:442] inception_5a/relu_3x3 -> inception_5a/3x3 (in-place)
I0715 09:09:50.594584  3944 net.cpp:190] Setting up inception_5a/relu_3x3
I0715 09:09:50.594593  3944 net.cpp:197] Top shape: 1 320 16 32 (163840)
I0715 09:09:50.594597  3944 net.cpp:205] Memory required for data: 762773504
I0715 09:09:50.594601  3944 layer_factory.hpp:123] Creating layer inception_5a/5x5_reduce
I0715 09:09:50.594615  3944 net.cpp:140] Creating Layer inception_5a/5x5_reduce
I0715 09:09:50.594621  3944 net.cpp:481] inception_5a/5x5_reduce <- pool4/3x3_s2_pool4/3x3_s2_0_split_2
I0715 09:09:50.594632  3944 net.cpp:455] inception_5a/5x5_reduce -> inception_5a/5x5_reduce
I0715 09:09:50.595057  3944 layer_factory.hpp:123] Creating layer inception_5a/5x5_reduce
I0715 09:09:50.596343  3944 net.cpp:190] Setting up inception_5a/5x5_reduce
I0715 09:09:50.596359  3944 net.cpp:197] Top shape: 1 32 16 32 (16384)
I0715 09:09:50.596364  3944 net.cpp:205] Memory required for data: 762839040
I0715 09:09:50.596372  3944 layer_factory.hpp:123] Creating layer inception_5a/relu_5x5_reduce
I0715 09:09:50.596385  3944 net.cpp:140] Creating Layer inception_5a/relu_5x5_reduce
I0715 09:09:50.596392  3944 net.cpp:481] inception_5a/relu_5x5_reduce <- inception_5a/5x5_reduce
I0715 09:09:50.596402  3944 net.cpp:442] inception_5a/relu_5x5_reduce -> inception_5a/5x5_reduce (in-place)
I0715 09:09:50.596415  3944 net.cpp:190] Setting up inception_5a/relu_5x5_reduce
I0715 09:09:50.596421  3944 net.cpp:197] Top shape: 1 32 16 32 (16384)
I0715 09:09:50.596426  3944 net.cpp:205] Memory required for data: 762904576
I0715 09:09:50.596431  3944 layer_factory.hpp:123] Creating layer inception_5a/5x5_reduce_fixed
I0715 09:09:50.596441  3944 net.cpp:140] Creating Layer inception_5a/5x5_reduce_fixed
I0715 09:09:50.596444  3944 net.cpp:481] inception_5a/5x5_reduce_fixed <- inception_5a/5x5_reduce
I0715 09:09:50.596453  3944 net.cpp:442] inception_5a/5x5_reduce_fixed -> inception_5a/5x5_reduce (in-place)
I0715 09:09:50.596495  3944 net.cpp:190] Setting up inception_5a/5x5_reduce_fixed
I0715 09:09:50.596503  3944 net.cpp:197] Top shape: 1 32 16 32 (16384)
I0715 09:09:50.596508  3944 net.cpp:205] Memory required for data: 762970112
I0715 09:09:50.596514  3944 layer_factory.hpp:123] Creating layer inception_5a/5x5
I0715 09:09:50.596529  3944 net.cpp:140] Creating Layer inception_5a/5x5
I0715 09:09:50.596534  3944 net.cpp:481] inception_5a/5x5 <- inception_5a/5x5_reduce
I0715 09:09:50.596544  3944 net.cpp:455] inception_5a/5x5 -> inception_5a/5x5
I0715 09:09:50.598331  3944 layer_factory.hpp:123] Creating layer inception_5a/5x5
I0715 09:09:50.599542  3944 net.cpp:190] Setting up inception_5a/5x5
I0715 09:09:50.599555  3944 net.cpp:197] Top shape: 1 128 16 32 (65536)
I0715 09:09:50.599558  3944 net.cpp:205] Memory required for data: 763232256
I0715 09:09:50.599567  3944 layer_factory.hpp:123] Creating layer inception_5a/relu_5x5
I0715 09:09:50.599577  3944 net.cpp:140] Creating Layer inception_5a/relu_5x5
I0715 09:09:50.599583  3944 net.cpp:481] inception_5a/relu_5x5 <- inception_5a/5x5
I0715 09:09:50.599591  3944 net.cpp:442] inception_5a/relu_5x5 -> inception_5a/5x5 (in-place)
I0715 09:09:50.599602  3944 net.cpp:190] Setting up inception_5a/relu_5x5
I0715 09:09:50.599611  3944 net.cpp:197] Top shape: 1 128 16 32 (65536)
I0715 09:09:50.599614  3944 net.cpp:205] Memory required for data: 763494400
I0715 09:09:50.599619  3944 layer_factory.hpp:123] Creating layer inception_5a/pool
I0715 09:09:50.599629  3944 net.cpp:140] Creating Layer inception_5a/pool
I0715 09:09:50.599635  3944 net.cpp:481] inception_5a/pool <- pool4/3x3_s2_pool4/3x3_s2_0_split_3
I0715 09:09:50.599643  3944 net.cpp:455] inception_5a/pool -> inception_5a/pool
I0715 09:09:50.599689  3944 net.cpp:190] Setting up inception_5a/pool
I0715 09:09:50.599697  3944 net.cpp:197] Top shape: 1 832 16 32 (425984)
I0715 09:09:50.599701  3944 net.cpp:205] Memory required for data: 765198336
I0715 09:09:50.599706  3944 layer_factory.hpp:123] Creating layer inception_5a/pool_proj
I0715 09:09:50.599720  3944 net.cpp:140] Creating Layer inception_5a/pool_proj
I0715 09:09:50.599725  3944 net.cpp:481] inception_5a/pool_proj <- inception_5a/pool
I0715 09:09:50.599735  3944 net.cpp:455] inception_5a/pool_proj -> inception_5a/pool_proj
I0715 09:09:50.600838  3944 layer_factory.hpp:123] Creating layer inception_5a/pool_proj
I0715 09:09:50.602800  3944 net.cpp:190] Setting up inception_5a/pool_proj
I0715 09:09:50.602814  3944 net.cpp:197] Top shape: 1 128 16 32 (65536)
I0715 09:09:50.602819  3944 net.cpp:205] Memory required for data: 765460480
I0715 09:09:50.602838  3944 layer_factory.hpp:123] Creating layer inception_5a/relu_pool_proj
I0715 09:09:50.602849  3944 net.cpp:140] Creating Layer inception_5a/relu_pool_proj
I0715 09:09:50.602856  3944 net.cpp:481] inception_5a/relu_pool_proj <- inception_5a/pool_proj
I0715 09:09:50.602865  3944 net.cpp:442] inception_5a/relu_pool_proj -> inception_5a/pool_proj (in-place)
I0715 09:09:50.602877  3944 net.cpp:190] Setting up inception_5a/relu_pool_proj
I0715 09:09:50.602885  3944 net.cpp:197] Top shape: 1 128 16 32 (65536)
I0715 09:09:50.602890  3944 net.cpp:205] Memory required for data: 765722624
I0715 09:09:50.602895  3944 layer_factory.hpp:123] Creating layer inception_5a/output
I0715 09:09:50.602903  3944 net.cpp:140] Creating Layer inception_5a/output
I0715 09:09:50.602908  3944 net.cpp:481] inception_5a/output <- inception_5a/1x1
I0715 09:09:50.602916  3944 net.cpp:481] inception_5a/output <- inception_5a/3x3
I0715 09:09:50.602921  3944 net.cpp:481] inception_5a/output <- inception_5a/5x5
I0715 09:09:50.602927  3944 net.cpp:481] inception_5a/output <- inception_5a/pool_proj
I0715 09:09:50.602936  3944 net.cpp:455] inception_5a/output -> inception_5a/output
I0715 09:09:50.602969  3944 net.cpp:190] Setting up inception_5a/output
I0715 09:09:50.602977  3944 net.cpp:197] Top shape: 1 832 16 32 (425984)
I0715 09:09:50.602982  3944 net.cpp:205] Memory required for data: 767426560
I0715 09:09:50.602986  3944 layer_factory.hpp:123] Creating layer inception_5a/output_fixed
I0715 09:09:50.602995  3944 net.cpp:140] Creating Layer inception_5a/output_fixed
I0715 09:09:50.603001  3944 net.cpp:481] inception_5a/output_fixed <- inception_5a/output
I0715 09:09:50.603009  3944 net.cpp:442] inception_5a/output_fixed -> inception_5a/output (in-place)
I0715 09:09:50.603049  3944 net.cpp:190] Setting up inception_5a/output_fixed
I0715 09:09:50.603057  3944 net.cpp:197] Top shape: 1 832 16 32 (425984)
I0715 09:09:50.603062  3944 net.cpp:205] Memory required for data: 769130496
I0715 09:09:50.603070  3944 layer_factory.hpp:123] Creating layer inception_5a/output_inception_5a/output_fixed_0_split
I0715 09:09:50.603078  3944 net.cpp:140] Creating Layer inception_5a/output_inception_5a/output_fixed_0_split
I0715 09:09:50.603083  3944 net.cpp:481] inception_5a/output_inception_5a/output_fixed_0_split <- inception_5a/output
I0715 09:09:50.603092  3944 net.cpp:455] inception_5a/output_inception_5a/output_fixed_0_split -> inception_5a/output_inception_5a/output_fixed_0_split_0
I0715 09:09:50.603104  3944 net.cpp:455] inception_5a/output_inception_5a/output_fixed_0_split -> inception_5a/output_inception_5a/output_fixed_0_split_1
I0715 09:09:50.603116  3944 net.cpp:455] inception_5a/output_inception_5a/output_fixed_0_split -> inception_5a/output_inception_5a/output_fixed_0_split_2
I0715 09:09:50.603127  3944 net.cpp:455] inception_5a/output_inception_5a/output_fixed_0_split -> inception_5a/output_inception_5a/output_fixed_0_split_3
I0715 09:09:50.603190  3944 net.cpp:190] Setting up inception_5a/output_inception_5a/output_fixed_0_split
I0715 09:09:50.603197  3944 net.cpp:197] Top shape: 1 832 16 32 (425984)
I0715 09:09:50.603204  3944 net.cpp:197] Top shape: 1 832 16 32 (425984)
I0715 09:09:50.603210  3944 net.cpp:197] Top shape: 1 832 16 32 (425984)
I0715 09:09:50.603216  3944 net.cpp:197] Top shape: 1 832 16 32 (425984)
I0715 09:09:50.603220  3944 net.cpp:205] Memory required for data: 775946240
I0715 09:09:50.603225  3944 layer_factory.hpp:123] Creating layer inception_5b/1x1
I0715 09:09:50.603238  3944 net.cpp:140] Creating Layer inception_5b/1x1
I0715 09:09:50.603245  3944 net.cpp:481] inception_5b/1x1 <- inception_5a/output_inception_5a/output_fixed_0_split_0
I0715 09:09:50.603255  3944 net.cpp:455] inception_5b/1x1 -> inception_5b/1x1
I0715 09:09:50.607739  3944 layer_factory.hpp:123] Creating layer inception_5b/1x1
I0715 09:09:50.612375  3944 net.cpp:190] Setting up inception_5b/1x1
I0715 09:09:50.612390  3944 net.cpp:197] Top shape: 1 384 16 32 (196608)
I0715 09:09:50.612396  3944 net.cpp:205] Memory required for data: 776732672
I0715 09:09:50.612404  3944 layer_factory.hpp:123] Creating layer inception_5b/relu_1x1
I0715 09:09:50.612413  3944 net.cpp:140] Creating Layer inception_5b/relu_1x1
I0715 09:09:50.612423  3944 net.cpp:481] inception_5b/relu_1x1 <- inception_5b/1x1
I0715 09:09:50.612433  3944 net.cpp:442] inception_5b/relu_1x1 -> inception_5b/1x1 (in-place)
I0715 09:09:50.612447  3944 net.cpp:190] Setting up inception_5b/relu_1x1
I0715 09:09:50.612453  3944 net.cpp:197] Top shape: 1 384 16 32 (196608)
I0715 09:09:50.612459  3944 net.cpp:205] Memory required for data: 777519104
I0715 09:09:50.612463  3944 layer_factory.hpp:123] Creating layer inception_5b/3x3_reduce
I0715 09:09:50.612478  3944 net.cpp:140] Creating Layer inception_5b/3x3_reduce
I0715 09:09:50.612484  3944 net.cpp:481] inception_5b/3x3_reduce <- inception_5a/output_inception_5a/output_fixed_0_split_1
I0715 09:09:50.612495  3944 net.cpp:455] inception_5b/3x3_reduce -> inception_5b/3x3_reduce
I0715 09:09:50.614066  3944 layer_factory.hpp:123] Creating layer inception_5b/3x3_reduce
I0715 09:09:50.615805  3944 net.cpp:190] Setting up inception_5b/3x3_reduce
I0715 09:09:50.615818  3944 net.cpp:197] Top shape: 1 192 16 32 (98304)
I0715 09:09:50.615823  3944 net.cpp:205] Memory required for data: 777912320
I0715 09:09:50.615831  3944 layer_factory.hpp:123] Creating layer inception_5b/relu_3x3_reduce
I0715 09:09:50.615842  3944 net.cpp:140] Creating Layer inception_5b/relu_3x3_reduce
I0715 09:09:50.615849  3944 net.cpp:481] inception_5b/relu_3x3_reduce <- inception_5b/3x3_reduce
I0715 09:09:50.615857  3944 net.cpp:442] inception_5b/relu_3x3_reduce -> inception_5b/3x3_reduce (in-place)
I0715 09:09:50.615869  3944 net.cpp:190] Setting up inception_5b/relu_3x3_reduce
I0715 09:09:50.615876  3944 net.cpp:197] Top shape: 1 192 16 32 (98304)
I0715 09:09:50.615881  3944 net.cpp:205] Memory required for data: 778305536
I0715 09:09:50.615886  3944 layer_factory.hpp:123] Creating layer inception_5b/3x3_reduce_fixed
I0715 09:09:50.615900  3944 net.cpp:140] Creating Layer inception_5b/3x3_reduce_fixed
I0715 09:09:50.615905  3944 net.cpp:481] inception_5b/3x3_reduce_fixed <- inception_5b/3x3_reduce
I0715 09:09:50.615911  3944 net.cpp:442] inception_5b/3x3_reduce_fixed -> inception_5b/3x3_reduce (in-place)
I0715 09:09:50.615959  3944 net.cpp:190] Setting up inception_5b/3x3_reduce_fixed
I0715 09:09:50.615967  3944 net.cpp:197] Top shape: 1 192 16 32 (98304)
I0715 09:09:50.615972  3944 net.cpp:205] Memory required for data: 778698752
I0715 09:09:50.615978  3944 layer_factory.hpp:123] Creating layer inception_5b/3x3
I0715 09:09:50.615993  3944 net.cpp:140] Creating Layer inception_5b/3x3
I0715 09:09:50.615999  3944 net.cpp:481] inception_5b/3x3 <- inception_5b/3x3_reduce
I0715 09:09:50.616008  3944 net.cpp:455] inception_5b/3x3 -> inception_5b/3x3
I0715 09:09:50.629802  3944 layer_factory.hpp:123] Creating layer inception_5b/3x3
I0715 09:09:50.638653  3944 net.cpp:190] Setting up inception_5b/3x3
I0715 09:09:50.638682  3944 net.cpp:197] Top shape: 1 384 16 32 (196608)
I0715 09:09:50.638687  3944 net.cpp:205] Memory required for data: 779485184
I0715 09:09:50.638700  3944 layer_factory.hpp:123] Creating layer inception_5b/relu_3x3
I0715 09:09:50.638715  3944 net.cpp:140] Creating Layer inception_5b/relu_3x3
I0715 09:09:50.638725  3944 net.cpp:481] inception_5b/relu_3x3 <- inception_5b/3x3
I0715 09:09:50.638737  3944 net.cpp:442] inception_5b/relu_3x3 -> inception_5b/3x3 (in-place)
I0715 09:09:50.638754  3944 net.cpp:190] Setting up inception_5b/relu_3x3
I0715 09:09:50.638763  3944 net.cpp:197] Top shape: 1 384 16 32 (196608)
I0715 09:09:50.638768  3944 net.cpp:205] Memory required for data: 780271616
I0715 09:09:50.638773  3944 layer_factory.hpp:123] Creating layer inception_5b/5x5_reduce
I0715 09:09:50.638792  3944 net.cpp:140] Creating Layer inception_5b/5x5_reduce
I0715 09:09:50.638798  3944 net.cpp:481] inception_5b/5x5_reduce <- inception_5a/output_inception_5a/output_fixed_0_split_2
I0715 09:09:50.638810  3944 net.cpp:455] inception_5b/5x5_reduce -> inception_5b/5x5_reduce
I0715 09:09:50.639428  3944 layer_factory.hpp:123] Creating layer inception_5b/5x5_reduce
I0715 09:09:50.640197  3944 net.cpp:190] Setting up inception_5b/5x5_reduce
I0715 09:09:50.640208  3944 net.cpp:197] Top shape: 1 48 16 32 (24576)
I0715 09:09:50.640213  3944 net.cpp:205] Memory required for data: 780369920
I0715 09:09:50.640223  3944 layer_factory.hpp:123] Creating layer inception_5b/relu_5x5_reduce
I0715 09:09:50.640231  3944 net.cpp:140] Creating Layer inception_5b/relu_5x5_reduce
I0715 09:09:50.640239  3944 net.cpp:481] inception_5b/relu_5x5_reduce <- inception_5b/5x5_reduce
I0715 09:09:50.640246  3944 net.cpp:442] inception_5b/relu_5x5_reduce -> inception_5b/5x5_reduce (in-place)
I0715 09:09:50.640257  3944 net.cpp:190] Setting up inception_5b/relu_5x5_reduce
I0715 09:09:50.640265  3944 net.cpp:197] Top shape: 1 48 16 32 (24576)
I0715 09:09:50.640270  3944 net.cpp:205] Memory required for data: 780468224
I0715 09:09:50.640275  3944 layer_factory.hpp:123] Creating layer inception_5b/5x5_reduce_fixed
I0715 09:09:50.640283  3944 net.cpp:140] Creating Layer inception_5b/5x5_reduce_fixed
I0715 09:09:50.640288  3944 net.cpp:481] inception_5b/5x5_reduce_fixed <- inception_5b/5x5_reduce
I0715 09:09:50.640297  3944 net.cpp:442] inception_5b/5x5_reduce_fixed -> inception_5b/5x5_reduce (in-place)
I0715 09:09:50.640339  3944 net.cpp:190] Setting up inception_5b/5x5_reduce_fixed
I0715 09:09:50.640347  3944 net.cpp:197] Top shape: 1 48 16 32 (24576)
I0715 09:09:50.640352  3944 net.cpp:205] Memory required for data: 780566528
I0715 09:09:50.640359  3944 layer_factory.hpp:123] Creating layer inception_5b/5x5
I0715 09:09:50.640372  3944 net.cpp:140] Creating Layer inception_5b/5x5
I0715 09:09:50.640379  3944 net.cpp:481] inception_5b/5x5 <- inception_5b/5x5_reduce
I0715 09:09:50.640388  3944 net.cpp:455] inception_5b/5x5 -> inception_5b/5x5
I0715 09:09:50.641938  3944 layer_factory.hpp:123] Creating layer inception_5b/5x5
I0715 09:09:50.644428  3944 net.cpp:190] Setting up inception_5b/5x5
I0715 09:09:50.644444  3944 net.cpp:197] Top shape: 1 128 16 32 (65536)
I0715 09:09:50.644449  3944 net.cpp:205] Memory required for data: 780828672
I0715 09:09:50.644459  3944 layer_factory.hpp:123] Creating layer inception_5b/relu_5x5
I0715 09:09:50.644469  3944 net.cpp:140] Creating Layer inception_5b/relu_5x5
I0715 09:09:50.644475  3944 net.cpp:481] inception_5b/relu_5x5 <- inception_5b/5x5
I0715 09:09:50.644484  3944 net.cpp:442] inception_5b/relu_5x5 -> inception_5b/5x5 (in-place)
I0715 09:09:50.644495  3944 net.cpp:190] Setting up inception_5b/relu_5x5
I0715 09:09:50.644502  3944 net.cpp:197] Top shape: 1 128 16 32 (65536)
I0715 09:09:50.644507  3944 net.cpp:205] Memory required for data: 781090816
I0715 09:09:50.644512  3944 layer_factory.hpp:123] Creating layer inception_5b/pool
I0715 09:09:50.644522  3944 net.cpp:140] Creating Layer inception_5b/pool
I0715 09:09:50.644529  3944 net.cpp:481] inception_5b/pool <- inception_5a/output_inception_5a/output_fixed_0_split_3
I0715 09:09:50.644538  3944 net.cpp:455] inception_5b/pool -> inception_5b/pool
I0715 09:09:50.644587  3944 net.cpp:190] Setting up inception_5b/pool
I0715 09:09:50.644595  3944 net.cpp:197] Top shape: 1 832 16 32 (425984)
I0715 09:09:50.644599  3944 net.cpp:205] Memory required for data: 782794752
I0715 09:09:50.644604  3944 layer_factory.hpp:123] Creating layer inception_5b/pool_proj
I0715 09:09:50.644618  3944 net.cpp:140] Creating Layer inception_5b/pool_proj
I0715 09:09:50.644624  3944 net.cpp:481] inception_5b/pool_proj <- inception_5b/pool
I0715 09:09:50.644634  3944 net.cpp:455] inception_5b/pool_proj -> inception_5b/pool_proj
I0715 09:09:50.645736  3944 layer_factory.hpp:123] Creating layer inception_5b/pool_proj
I0715 09:09:50.647827  3944 net.cpp:190] Setting up inception_5b/pool_proj
I0715 09:09:50.647841  3944 net.cpp:197] Top shape: 1 128 16 32 (65536)
I0715 09:09:50.647846  3944 net.cpp:205] Memory required for data: 783056896
I0715 09:09:50.647856  3944 layer_factory.hpp:123] Creating layer inception_5b/relu_pool_proj
I0715 09:09:50.647866  3944 net.cpp:140] Creating Layer inception_5b/relu_pool_proj
I0715 09:09:50.647876  3944 net.cpp:481] inception_5b/relu_pool_proj <- inception_5b/pool_proj
I0715 09:09:50.647883  3944 net.cpp:442] inception_5b/relu_pool_proj -> inception_5b/pool_proj (in-place)
I0715 09:09:50.647894  3944 net.cpp:190] Setting up inception_5b/relu_pool_proj
I0715 09:09:50.647902  3944 net.cpp:197] Top shape: 1 128 16 32 (65536)
I0715 09:09:50.647908  3944 net.cpp:205] Memory required for data: 783319040
I0715 09:09:50.647912  3944 layer_factory.hpp:123] Creating layer inception_5b/output
I0715 09:09:50.647922  3944 net.cpp:140] Creating Layer inception_5b/output
I0715 09:09:50.647927  3944 net.cpp:481] inception_5b/output <- inception_5b/1x1
I0715 09:09:50.647934  3944 net.cpp:481] inception_5b/output <- inception_5b/3x3
I0715 09:09:50.647941  3944 net.cpp:481] inception_5b/output <- inception_5b/5x5
I0715 09:09:50.647946  3944 net.cpp:481] inception_5b/output <- inception_5b/pool_proj
I0715 09:09:50.647954  3944 net.cpp:455] inception_5b/output -> inception_5b/output
I0715 09:09:50.647989  3944 net.cpp:190] Setting up inception_5b/output
I0715 09:09:50.647997  3944 net.cpp:197] Top shape: 1 1024 16 32 (524288)
I0715 09:09:50.648001  3944 net.cpp:205] Memory required for data: 785416192
I0715 09:09:50.648006  3944 layer_factory.hpp:123] Creating layer inception_5b/output_fixed
I0715 09:09:50.648016  3944 net.cpp:140] Creating Layer inception_5b/output_fixed
I0715 09:09:50.648021  3944 net.cpp:481] inception_5b/output_fixed <- inception_5b/output
I0715 09:09:50.648030  3944 net.cpp:442] inception_5b/output_fixed -> inception_5b/output (in-place)
I0715 09:09:50.648072  3944 net.cpp:190] Setting up inception_5b/output_fixed
I0715 09:09:50.648079  3944 net.cpp:197] Top shape: 1 1024 16 32 (524288)
I0715 09:09:50.648084  3944 net.cpp:205] Memory required for data: 787513344
I0715 09:09:50.648092  3944 layer_factory.hpp:123] Creating layer p5
I0715 09:09:50.648105  3944 net.cpp:140] Creating Layer p5
I0715 09:09:50.648111  3944 net.cpp:481] p5 <- inception_5b/output
I0715 09:09:50.648120  3944 net.cpp:455] p5 -> p5
I0715 09:09:50.648615  3944 layer_factory.hpp:123] Creating layer p5
I0715 09:09:50.649266  3944 net.cpp:190] Setting up p5
I0715 09:09:50.649277  3944 net.cpp:197] Top shape: 1 32 16 32 (16384)
I0715 09:09:50.649282  3944 net.cpp:205] Memory required for data: 787578880
I0715 09:09:50.649291  3944 layer_factory.hpp:123] Creating layer p5_fixed
I0715 09:09:50.649302  3944 net.cpp:140] Creating Layer p5_fixed
I0715 09:09:50.649307  3944 net.cpp:481] p5_fixed <- p5
I0715 09:09:50.649317  3944 net.cpp:442] p5_fixed -> p5 (in-place)
I0715 09:09:50.649358  3944 net.cpp:190] Setting up p5_fixed
I0715 09:09:50.649368  3944 net.cpp:197] Top shape: 1 32 16 32 (16384)
I0715 09:09:50.649372  3944 net.cpp:205] Memory required for data: 787644416
I0715 09:09:50.649379  3944 layer_factory.hpp:123] Creating layer latlayer_4f
I0715 09:09:50.649391  3944 net.cpp:140] Creating Layer latlayer_4f
I0715 09:09:50.649397  3944 net.cpp:481] latlayer_4f <- inception_4e/output_inception_4e/output_fixed_0_split_1
I0715 09:09:50.649408  3944 net.cpp:455] latlayer_4f -> latlayer_4f
I0715 09:09:50.649827  3944 layer_factory.hpp:123] Creating layer latlayer_4f
I0715 09:09:50.650414  3944 net.cpp:190] Setting up latlayer_4f
I0715 09:09:50.650425  3944 net.cpp:197] Top shape: 1 32 32 64 (65536)
I0715 09:09:50.650430  3944 net.cpp:205] Memory required for data: 787906560
I0715 09:09:50.650439  3944 layer_factory.hpp:123] Creating layer latlayer_4f_fixed
I0715 09:09:50.650449  3944 net.cpp:140] Creating Layer latlayer_4f_fixed
I0715 09:09:50.650454  3944 net.cpp:481] latlayer_4f_fixed <- latlayer_4f
I0715 09:09:50.650462  3944 net.cpp:442] latlayer_4f_fixed -> latlayer_4f (in-place)
I0715 09:09:50.650506  3944 net.cpp:190] Setting up latlayer_4f_fixed
I0715 09:09:50.650513  3944 net.cpp:197] Top shape: 1 32 32 64 (65536)
I0715 09:09:50.650517  3944 net.cpp:205] Memory required for data: 788168704
I0715 09:09:50.650524  3944 layer_factory.hpp:123] Creating layer upsample_p5
I0715 09:09:50.650537  3944 net.cpp:140] Creating Layer upsample_p5
I0715 09:09:50.650543  3944 net.cpp:481] upsample_p5 <- p5
I0715 09:09:50.650552  3944 net.cpp:455] upsample_p5 -> upsample_p5
I0715 09:09:50.650849  3944 layer_factory.hpp:123] Creating layer upsample_p5
I0715 09:09:50.651229  3944 net.cpp:190] Setting up upsample_p5
I0715 09:09:50.651238  3944 net.cpp:197] Top shape: 1 32 32 64 (65536)
I0715 09:09:50.651243  3944 net.cpp:205] Memory required for data: 788430848
I0715 09:09:50.651252  3944 layer_factory.hpp:123] Creating layer upsample_p5_fixed
I0715 09:09:50.651259  3944 net.cpp:140] Creating Layer upsample_p5_fixed
I0715 09:09:50.651265  3944 net.cpp:481] upsample_p5_fixed <- upsample_p5
I0715 09:09:50.651274  3944 net.cpp:442] upsample_p5_fixed -> upsample_p5 (in-place)
I0715 09:09:50.651317  3944 net.cpp:190] Setting up upsample_p5_fixed
I0715 09:09:50.651325  3944 net.cpp:197] Top shape: 1 32 32 64 (65536)
I0715 09:09:50.651329  3944 net.cpp:205] Memory required for data: 788692992
I0715 09:09:50.651336  3944 layer_factory.hpp:123] Creating layer add_p4
I0715 09:09:50.651345  3944 net.cpp:140] Creating Layer add_p4
I0715 09:09:50.651350  3944 net.cpp:481] add_p4 <- upsample_p5
I0715 09:09:50.651356  3944 net.cpp:481] add_p4 <- latlayer_4f
I0715 09:09:50.651365  3944 net.cpp:455] add_p4 -> add_p4
I0715 09:09:50.651394  3944 net.cpp:190] Setting up add_p4
I0715 09:09:50.651402  3944 net.cpp:197] Top shape: 1 32 32 64 (65536)
I0715 09:09:50.651407  3944 net.cpp:205] Memory required for data: 788955136
I0715 09:09:50.651412  3944 layer_factory.hpp:123] Creating layer add_p4_fixed
I0715 09:09:50.651419  3944 net.cpp:140] Creating Layer add_p4_fixed
I0715 09:09:50.651427  3944 net.cpp:481] add_p4_fixed <- add_p4
I0715 09:09:50.651434  3944 net.cpp:442] add_p4_fixed -> add_p4 (in-place)
I0715 09:09:50.651474  3944 net.cpp:190] Setting up add_p4_fixed
I0715 09:09:50.651482  3944 net.cpp:197] Top shape: 1 32 32 64 (65536)
I0715 09:09:50.651486  3944 net.cpp:205] Memory required for data: 789217280
I0715 09:09:50.651494  3944 layer_factory.hpp:123] Creating layer toplayer_p4
I0715 09:09:50.651505  3944 net.cpp:140] Creating Layer toplayer_p4
I0715 09:09:50.651512  3944 net.cpp:481] toplayer_p4 <- add_p4
I0715 09:09:50.651520  3944 net.cpp:455] toplayer_p4 -> p4
I0715 09:09:50.651798  3944 layer_factory.hpp:123] Creating layer toplayer_p4
I0715 09:09:50.652223  3944 net.cpp:190] Setting up toplayer_p4
I0715 09:09:50.652235  3944 net.cpp:197] Top shape: 1 32 32 64 (65536)
I0715 09:09:50.652240  3944 net.cpp:205] Memory required for data: 789479424
I0715 09:09:50.652248  3944 layer_factory.hpp:123] Creating layer p4_fixed
I0715 09:09:50.652257  3944 net.cpp:140] Creating Layer p4_fixed
I0715 09:09:50.652263  3944 net.cpp:481] p4_fixed <- p4
I0715 09:09:50.652271  3944 net.cpp:442] p4_fixed -> p4 (in-place)
I0715 09:09:50.652314  3944 net.cpp:190] Setting up p4_fixed
I0715 09:09:50.652323  3944 net.cpp:197] Top shape: 1 32 32 64 (65536)
I0715 09:09:50.652328  3944 net.cpp:205] Memory required for data: 789741568
I0715 09:09:50.652333  3944 layer_factory.hpp:123] Creating layer latlayer_3d
I0715 09:09:50.652346  3944 net.cpp:140] Creating Layer latlayer_3d
I0715 09:09:50.652354  3944 net.cpp:481] latlayer_3d <- inception_3b/output_inception_3b/output_fixed_0_split_1
I0715 09:09:50.652364  3944 net.cpp:455] latlayer_3d -> latlayer_3d
I0715 09:09:50.652689  3944 layer_factory.hpp:123] Creating layer latlayer_3d
I0715 09:09:50.653151  3944 net.cpp:190] Setting up latlayer_3d
I0715 09:09:50.653163  3944 net.cpp:197] Top shape: 1 32 64 128 (262144)
I0715 09:09:50.653168  3944 net.cpp:205] Memory required for data: 790790144
I0715 09:09:50.653177  3944 layer_factory.hpp:123] Creating layer latlayer_3d_fixed
I0715 09:09:50.653185  3944 net.cpp:140] Creating Layer latlayer_3d_fixed
I0715 09:09:50.653192  3944 net.cpp:481] latlayer_3d_fixed <- latlayer_3d
I0715 09:09:50.653199  3944 net.cpp:442] latlayer_3d_fixed -> latlayer_3d (in-place)
I0715 09:09:50.653244  3944 net.cpp:190] Setting up latlayer_3d_fixed
I0715 09:09:50.653252  3944 net.cpp:197] Top shape: 1 32 64 128 (262144)
I0715 09:09:50.653256  3944 net.cpp:205] Memory required for data: 791838720
I0715 09:09:50.653264  3944 layer_factory.hpp:123] Creating layer upsample_p4
I0715 09:09:50.653275  3944 net.cpp:140] Creating Layer upsample_p4
I0715 09:09:50.653280  3944 net.cpp:481] upsample_p4 <- p4
I0715 09:09:50.653290  3944 net.cpp:455] upsample_p4 -> upsample_p4
I0715 09:09:50.653578  3944 layer_factory.hpp:123] Creating layer upsample_p4
I0715 09:09:50.653951  3944 net.cpp:190] Setting up upsample_p4
I0715 09:09:50.653960  3944 net.cpp:197] Top shape: 1 32 64 128 (262144)
I0715 09:09:50.653965  3944 net.cpp:205] Memory required for data: 792887296
I0715 09:09:50.653972  3944 layer_factory.hpp:123] Creating layer upsample_p4_fixed
I0715 09:09:50.653982  3944 net.cpp:140] Creating Layer upsample_p4_fixed
I0715 09:09:50.653988  3944 net.cpp:481] upsample_p4_fixed <- upsample_p4
I0715 09:09:50.653995  3944 net.cpp:442] upsample_p4_fixed -> upsample_p4 (in-place)
I0715 09:09:50.654039  3944 net.cpp:190] Setting up upsample_p4_fixed
I0715 09:09:50.654047  3944 net.cpp:197] Top shape: 1 32 64 128 (262144)
I0715 09:09:50.654052  3944 net.cpp:205] Memory required for data: 793935872
I0715 09:09:50.654058  3944 layer_factory.hpp:123] Creating layer add_p3
I0715 09:09:50.654067  3944 net.cpp:140] Creating Layer add_p3
I0715 09:09:50.654072  3944 net.cpp:481] add_p3 <- upsample_p4
I0715 09:09:50.654078  3944 net.cpp:481] add_p3 <- latlayer_3d
I0715 09:09:50.654086  3944 net.cpp:455] add_p3 -> add_p3
I0715 09:09:50.654114  3944 net.cpp:190] Setting up add_p3
I0715 09:09:50.654121  3944 net.cpp:197] Top shape: 1 32 64 128 (262144)
I0715 09:09:50.654125  3944 net.cpp:205] Memory required for data: 794984448
I0715 09:09:50.654130  3944 layer_factory.hpp:123] Creating layer add_p3_fixed
I0715 09:09:50.654139  3944 net.cpp:140] Creating Layer add_p3_fixed
I0715 09:09:50.654145  3944 net.cpp:481] add_p3_fixed <- add_p3
I0715 09:09:50.654152  3944 net.cpp:442] add_p3_fixed -> add_p3 (in-place)
I0715 09:09:50.654192  3944 net.cpp:190] Setting up add_p3_fixed
I0715 09:09:50.654199  3944 net.cpp:197] Top shape: 1 32 64 128 (262144)
I0715 09:09:50.654204  3944 net.cpp:205] Memory required for data: 796033024
I0715 09:09:50.654211  3944 layer_factory.hpp:123] Creating layer toplayer_p3
I0715 09:09:50.654222  3944 net.cpp:140] Creating Layer toplayer_p3
I0715 09:09:50.654228  3944 net.cpp:481] toplayer_p3 <- add_p3
I0715 09:09:50.654237  3944 net.cpp:455] toplayer_p3 -> p3
I0715 09:09:50.654497  3944 layer_factory.hpp:123] Creating layer toplayer_p3
I0715 09:09:50.655719  3944 net.cpp:190] Setting up toplayer_p3
I0715 09:09:50.655733  3944 net.cpp:197] Top shape: 1 32 64 128 (262144)
I0715 09:09:50.655738  3944 net.cpp:205] Memory required for data: 797081600
I0715 09:09:50.655748  3944 layer_factory.hpp:123] Creating layer p3_fixed
I0715 09:09:50.655763  3944 net.cpp:140] Creating Layer p3_fixed
I0715 09:09:50.655771  3944 net.cpp:481] p3_fixed <- p3
I0715 09:09:50.655782  3944 net.cpp:442] p3_fixed -> p3 (in-place)
I0715 09:09:50.655827  3944 net.cpp:190] Setting up p3_fixed
I0715 09:09:50.655835  3944 net.cpp:197] Top shape: 1 32 64 128 (262144)
I0715 09:09:50.655839  3944 net.cpp:205] Memory required for data: 798130176
I0715 09:09:50.655848  3944 layer_factory.hpp:123] Creating layer latlayer_2c
I0715 09:09:50.655860  3944 net.cpp:140] Creating Layer latlayer_2c
I0715 09:09:50.655867  3944 net.cpp:481] latlayer_2c <- conv2/3x3_conv2/3x3_fixed_0_split_1
I0715 09:09:50.655877  3944 net.cpp:455] latlayer_2c -> latlayer_2c
I0715 09:09:50.656113  3944 layer_factory.hpp:123] Creating layer latlayer_2c
I0715 09:09:50.656520  3944 net.cpp:190] Setting up latlayer_2c
I0715 09:09:50.656531  3944 net.cpp:197] Top shape: 1 32 128 256 (1048576)
I0715 09:09:50.656536  3944 net.cpp:205] Memory required for data: 802324480
I0715 09:09:50.656545  3944 layer_factory.hpp:123] Creating layer latlayer_2c_fixed
I0715 09:09:50.656554  3944 net.cpp:140] Creating Layer latlayer_2c_fixed
I0715 09:09:50.656560  3944 net.cpp:481] latlayer_2c_fixed <- latlayer_2c
I0715 09:09:50.656569  3944 net.cpp:442] latlayer_2c_fixed -> latlayer_2c (in-place)
I0715 09:09:50.656612  3944 net.cpp:190] Setting up latlayer_2c_fixed
I0715 09:09:50.656620  3944 net.cpp:197] Top shape: 1 32 128 256 (1048576)
I0715 09:09:50.656625  3944 net.cpp:205] Memory required for data: 806518784
I0715 09:09:50.656632  3944 layer_factory.hpp:123] Creating layer upsample_p3
I0715 09:09:50.656642  3944 net.cpp:140] Creating Layer upsample_p3
I0715 09:09:50.656647  3944 net.cpp:481] upsample_p3 <- p3
I0715 09:09:50.656656  3944 net.cpp:455] upsample_p3 -> upsample_p3
I0715 09:09:50.656937  3944 layer_factory.hpp:123] Creating layer upsample_p3
I0715 09:09:50.657303  3944 net.cpp:190] Setting up upsample_p3
I0715 09:09:50.657313  3944 net.cpp:197] Top shape: 1 32 128 256 (1048576)
I0715 09:09:50.657318  3944 net.cpp:205] Memory required for data: 810713088
I0715 09:09:50.657325  3944 layer_factory.hpp:123] Creating layer upsample_p3_fixed
I0715 09:09:50.657335  3944 net.cpp:140] Creating Layer upsample_p3_fixed
I0715 09:09:50.657339  3944 net.cpp:481] upsample_p3_fixed <- upsample_p3
I0715 09:09:50.657347  3944 net.cpp:442] upsample_p3_fixed -> upsample_p3 (in-place)
I0715 09:09:50.657388  3944 net.cpp:190] Setting up upsample_p3_fixed
I0715 09:09:50.657397  3944 net.cpp:197] Top shape: 1 32 128 256 (1048576)
I0715 09:09:50.657400  3944 net.cpp:205] Memory required for data: 814907392
I0715 09:09:50.657407  3944 layer_factory.hpp:123] Creating layer add_p2
I0715 09:09:50.657416  3944 net.cpp:140] Creating Layer add_p2
I0715 09:09:50.657421  3944 net.cpp:481] add_p2 <- upsample_p3
I0715 09:09:50.657428  3944 net.cpp:481] add_p2 <- latlayer_2c
I0715 09:09:50.657435  3944 net.cpp:455] add_p2 -> add_p2
I0715 09:09:50.657465  3944 net.cpp:190] Setting up add_p2
I0715 09:09:50.657474  3944 net.cpp:197] Top shape: 1 32 128 256 (1048576)
I0715 09:09:50.657477  3944 net.cpp:205] Memory required for data: 819101696
I0715 09:09:50.657481  3944 layer_factory.hpp:123] Creating layer add_p2_fixed
I0715 09:09:50.657490  3944 net.cpp:140] Creating Layer add_p2_fixed
I0715 09:09:50.657495  3944 net.cpp:481] add_p2_fixed <- add_p2
I0715 09:09:50.657502  3944 net.cpp:442] add_p2_fixed -> add_p2 (in-place)
I0715 09:09:50.657546  3944 net.cpp:190] Setting up add_p2_fixed
I0715 09:09:50.657553  3944 net.cpp:197] Top shape: 1 32 128 256 (1048576)
I0715 09:09:50.657558  3944 net.cpp:205] Memory required for data: 823296000
I0715 09:09:50.657565  3944 layer_factory.hpp:123] Creating layer toplayer_p2
I0715 09:09:50.657575  3944 net.cpp:140] Creating Layer toplayer_p2
I0715 09:09:50.657580  3944 net.cpp:481] toplayer_p2 <- add_p2
I0715 09:09:50.657589  3944 net.cpp:455] toplayer_p2 -> pred
I0715 09:09:50.657855  3944 layer_factory.hpp:123] Creating layer toplayer_p2
I0715 09:09:50.660387  3944 net.cpp:190] Setting up toplayer_p2
I0715 09:09:50.660401  3944 net.cpp:197] Top shape: 1 19 512 1024 (9961472)
I0715 09:09:50.660405  3944 net.cpp:205] Memory required for data: 863141888
I0715 09:09:50.660415  3944 layer_factory.hpp:123] Creating layer pred_fixed
I0715 09:09:50.660424  3944 net.cpp:140] Creating Layer pred_fixed
I0715 09:09:50.660434  3944 net.cpp:481] pred_fixed <- pred
I0715 09:09:50.660441  3944 net.cpp:442] pred_fixed -> pred (in-place)
I0715 09:09:50.660492  3944 net.cpp:190] Setting up pred_fixed
I0715 09:09:50.660501  3944 net.cpp:197] Top shape: 1 19 512 1024 (9961472)
I0715 09:09:50.660506  3944 net.cpp:205] Memory required for data: 902987776
I0715 09:09:50.660512  3944 layer_factory.hpp:123] Creating layer score
I0715 09:09:50.660521  3944 net.cpp:140] Creating Layer score
I0715 09:09:50.660526  3944 net.cpp:481] score <- pred
I0715 09:09:50.660534  3944 net.cpp:455] score -> score
I0715 09:09:50.660606  3944 net.cpp:190] Setting up score
I0715 09:09:50.660614  3944 net.cpp:197] Top shape: 1 19 512 1024 (9961472)
I0715 09:09:50.660619  3944 net.cpp:205] Memory required for data: 942833664
I0715 09:09:50.660624  3944 layer_factory.hpp:123] Creating layer accuracy
I0715 09:09:50.660650  3944 net.cpp:140] Creating Layer accuracy
I0715 09:09:50.660656  3944 net.cpp:481] accuracy <- score
I0715 09:09:50.660663  3944 net.cpp:481] accuracy <- label
I0715 09:09:50.660672  3944 net.cpp:455] accuracy -> segmentation_eval
I0715 09:09:50.660704  3944 net.cpp:190] Setting up accuracy
I0715 09:09:50.660712  3944 net.cpp:197] Top shape: 3 19 (57)
I0715 09:09:50.660717  3944 net.cpp:205] Memory required for data: 942833892
I0715 09:09:50.660722  3944 net.cpp:268] accuracy does not need backward computation.
I0715 09:09:50.660728  3944 net.cpp:268] score does not need backward computation.
I0715 09:09:50.660733  3944 net.cpp:268] pred_fixed does not need backward computation.
I0715 09:09:50.660738  3944 net.cpp:268] toplayer_p2 does not need backward computation.
…
