…
I0122 16:59:08.776991 64041 caffe_interface.cpp:70] GPU device name: Quadro P6000
I0122 16:59:08.777845 64041 net.cpp:323] The NetState phase (1) differed from the phase (0) specified by a rule in layer data
I0122 16:59:08.778393 64041 net.cpp:52] Initializing net from parameters: 
state {
  phase: TEST
}
layer {
  name: "data"
  type: "Data"
  top: "data"
  top: "label"
  include {
    phase: TEST
  }
  transform_param {
    mirror: false
    mean_value: 104
    mean_value: 117
    mean_value: 123
  }
  data_param {
    source: "cifar10/input/lmdb/valid_lmdb"
    batch_size: 50
    backend: LMDB
  }
}
layer {
  name: "conv1/3x3_s1"
  type: "Convolution"
  bottom: "data"
  top: "conv1/3x3_s1"
  param {
    lr_mult: 1
    decay_mult: 1
  }
  param {
    lr_mult: 2
    decay_mult: 0
  }
  convolution_param {
    num_output: 96
    pad: 1
    kernel_size: 3
    stride: 1
    weight_filler {
      type: "xavier"
      std: 0.1
    }
    bias_filler {
      type: "constant"
      value: 0.2
    }
  }
}
layer {
  name: "conv1/bn1"
  type: "BatchNorm"
  bottom: "conv1/3x3_s1"
  top: "conv1/3x3_s1"
  param {
    lr_mult: 1
    decay_mult: 0
  }
  param {
    lr_mult: 1
    decay_mult: 0
  }
  param {
    lr_mult: 0
    decay_mult: 0
  }
  param {
    lr_mult: 0
    decay_mult: 0
  }
  batch_norm_param {
    use_global_stats: false
    scale_filler {
      type: "constant"
      value: 1
    }
    bias_filler {
      type: "constant"
      value: 0
    }
  }
}
layer {
  name: "conv1/relu1"
  type: "ReLU"
  bottom: "conv1/3x3_s1"
  top: "conv1/3x3_s1"
}
layer {
  name: "inception_2a/1x1"
  type: "Convolution"
  bottom: "conv1/3x3_s1"
  top: "inception_2a/1x1"
  param {
    lr_mult: 1
    decay_mult: 1
  }
  param {
    lr_mult: 2
    decay_mult: 0
  }
  convolution_param {
    num_output: 32
    kernel_size: 1
    weight_filler {
      type: "xavier"
      std: 0.03
    }
    bias_filler {
      type: "constant"
      value: 0.2
    }
  }
}
layer {
  name: "inception_2a/1x1/bn1"
  type: "BatchNorm"
  bottom: "inception_2a/1x1"
  top: "inception_2a/1x1"
  param {
    lr_mult: 1
    decay_mult: 0
  }
  param {
    lr_mult: 1
    decay_mult: 0
  }
  param {
    lr_mult: 0
    decay_mult: 0
  }
  param {
    lr_mult: 0
    decay_mult: 0
  }
  batch_norm_param {
    use_global_stats: false
    scale_filler {
      type: "constant"
      value: 1
    }
    bias_filler {
      type: "constant"
      value: 0
    }
  }
}
layer {
  name: "inception_2a/1x1/relu1"
  type: "ReLU"
  bottom: "inception_2a/1x1"
  top: "inception_2a/1x1"
}
layer {
  name: "inception_2a/3x3"
  type: "Convolution"
  bottom: "conv1/3x3_s1"
  top: "inception_2a/3x3"
  param {
    lr_mult: 1
    decay_mult: 1
  }
  param {
    lr_mult: 2
    decay_mult: 0
  }
  convolution_param {
    num_output: 32
    pad: 1
    kernel_size: 3
    weight_filler {
      type: "xavier"
      std: 0.03
    }
    bias_filler {
      type: "constant"
      value: 0.2
    }
  }
}
layer {
  name: "inception_2a/3x3/bn1"
  type: "BatchNorm"
  bottom: "inception_2a/3x3"
  top: "inception_2a/3x3"
  param {
    lr_mult: 1
    decay_mult: 0
  }
  param {
    lr_mult: 1
    decay_mult: 0
  }
  param {
    lr_mult: 0
    decay_mult: 0
  }
  param {
    lr_mult: 0
    decay_mult: 0
  }
  batch_norm_param {
    use_global_stats: false
    scale_filler {
      type: "constant"
      value: 1
    }
    bias_filler {
      type: "constant"
      value: 0
    }
  }
}
layer {
  name: "inception_2a/3x3/relu1"
  type: "ReLU"
  bottom: "inception_2a/3x3"
  top: "inception_2a/3x3"
}
layer {
  name: "inception_2a/output"
  type: "Concat"
  bottom: "inception_2a/1x1"
  bottom: "inception_2a/3x3"
  top: "inception_2a/output"
}
layer {
  name: "inception_3a/1x1"
  type: "Convolution"
  bottom: "inception_2a/output"
  top: "inception_3a/1x1"
  param {
    lr_mult: 1
    decay_mult: 1
  }
  param {
    lr_mult: 2
    decay_mult: 0
  }
  convolution_param {
    num_output: 32
    kernel_size: 1
    weight_filler {
      type: "xavier"
      std: 0.03
    }
    bias_filler {
      type: "constant"
      value: 0.2
    }
  }
}
layer {
  name: "inception_3a/1x1/bn1"
  type: "BatchNorm"
  bottom: "inception_3a/1x1"
  top: "inception_3a/1x1"
  param {
    lr_mult: 1
    decay_mult: 0
  }
  param {
    lr_mult: 1
    decay_mult: 0
  }
  param {
    lr_mult: 0
    decay_mult: 0
  }
  param {
    lr_mult: 0
    decay_mult: 0
  }
  batch_norm_param {
    use_global_stats: false
    scale_filler {
      type: "constant"
      value: 1
    }
    bias_filler {
      type: "constant"
      value: 0
    }
  }
}
layer {
  name: "inception_3a/1x1/relu1"
  type: "ReLU"
  bottom: "inception_3a/1x1"
  top: "inception_3a/1x1"
}
layer {
  name: "inception_3a/3x3"
  type: "Convolution"
  bottom: "inception_2a/output"
  top: "inception_3a/3x3"
  param {
    lr_mult: 1
    decay_mult: 1
  }
  param {
    lr_mult: 2
    decay_mult: 0
  }
  convolution_param {
    num_output: 48
    pad: 1
    kernel_size: 3
    weight_filler {
      type: "xavier"
      std: 0.03
    }
    bias_filler {
      type: "constant"
      value: 0.2
    }
  }
}
layer {
  name: "inception_3a/3x3/bn1"
  type: "BatchNorm"
  bottom: "inception_3a/3x3"
  top: "inception_3a/3x3"
  param {
    lr_mult: 1
    decay_mult: 0
  }
  param {
    lr_mult: 1
    decay_mult: 0
  }
  param {
    lr_mult: 0
    decay_mult: 0
  }
  param {
    lr_mult: 0
    decay_mult: 0
  }
  batch_norm_param {
    use_global_stats: false
    scale_filler {
      type: "constant"
      value: 1
    }
    bias_filler {
      type: "constant"
      value: 0
    }
  }
}
layer {
  name: "inception_3a/3x3/relu1"
  type: "ReLU"
  bottom: "inception_3a/3x3"
  top: "inception_3a/3x3"
}
layer {
  name: "inception_3a/output"
  type: "Concat"
  bottom: "inception_3a/1x1"
  bottom: "inception_3a/3x3"
  top: "inception_3a/output"
}
layer {
  name: "downsample_4/3x3_s2"
  type: "Convolution"
  bottom: "inception_3a/output"
  top: "downsample_4/3x3_s2"
  param {
    lr_mult: 1
    decay_mult: 1
  }
  param {
    lr_mult: 2
    decay_mult: 0
  }
  convolution_param {
    num_output: 80
    pad: 1
    kernel_size: 3
    stride: 2
    weight_filler {
      type: "xavier"
      std: 0.03
    }
    bias_filler {
      type: "constant"
      value: 0.2
    }
  }
}
layer {
  name: "downsample_4/3x3_s2/bn1"
  type: "BatchNorm"
  bottom: "downsample_4/3x3_s2"
  top: "downsample_4/3x3_s2"
  param {
    lr_mult: 1
    decay_mult: 0
  }
  param {
    lr_mult: 1
    decay_mult: 0
  }
  param {
    lr_mult: 0
    decay_mult: 0
  }
  param {
    lr_mult: 0
    decay_mult: 0
  }
  batch_norm_param {
    use_global_stats: false
    scale_filler {
      type: "constant"
      value: 1
    }
    bias_filler {
      type: "constant"
      value: 0
    }
  }
}
layer {
  name: "downsample_4/3x3_s2/relu1"
  type: "ReLU"
  bottom: "downsample_4/3x3_s2"
  top: "downsample_4/3x3_s2"
}
layer {
  name: "downsample_4/pool_s2"
  type: "Pooling"
  bottom: "inception_3a/output"
  top: "downsample_4/pool_s2"
  pooling_param {
    pool: MAX
    kernel_size: 3
    stride: 2
  }
}
layer {
  name: "downsample_4/output"
  type: "Concat"
  bottom: "downsample_4/3x3_s2"
  bottom: "downsample_4/pool_s2"
  top: "downsample_4/output"
}
layer {
  name: "inception_5a/1x1"
  type: "Convolution"
  bottom: "downsample_4/output"
  top: "inception_5a/1x1"
  param {
    lr_mult: 1
    decay_mult: 1
  }
  param {
    lr_mult: 2
    decay_mult: 0
  }
  convolution_param {
    num_output: 112
    kernel_size: 1
    weight_filler {
      type: "xavier"
      std: 0.03
    }
    bias_filler {
      type: "constant"
      value: 0.2
    }
  }
}
layer {
  name: "inception_5a/1x1/bn1"
  type: "BatchNorm"
  bottom: "inception_5a/1x1"
  top: "inception_5a/1x1"
  param {
    lr_mult: 1
    decay_mult: 0
  }
  param {
    lr_mult: 1
    decay_mult: 0
  }
  param {
    lr_mult: 0
    decay_mult: 0
  }
  param {
    lr_mult: 0
    decay_mult: 0
  }
  batch_norm_param {
    use_global_stats: false
    scale_filler {
      type: "constant"
      value: 1
    }
    bias_filler {
      type: "constant"
      value: 0
    }
  }
}
layer {
  name: "inception_5a/1x1/relu1"
  type: "ReLU"
  bottom: "inception_5a/1x1"
  top: "inception_5a/1x1"
}
layer {
  name: "inception_5a/3x3"
  type: "Convolution"
  bottom: "downsample_4/output"
  top: "inception_5a/3x3"
  param {
    lr_mult: 1
    decay_mult: 1
  }
  param {
    lr_mult: 2
    decay_mult: 0
  }
  convolution_param {
    num_output: 48
    pad: 1
    kernel_size: 3
    weight_filler {
      type: "xavier"
      std: 0.03
    }
    bias_filler {
      type: "constant"
      value: 0.2
    }
  }
}
layer {
  name: "inception_5a/3x3/bn1"
  type: "BatchNorm"
  bottom: "inception_5a/3x3"
  top: "inception_5a/3x3"
  param {
    lr_mult: 1
    decay_mult: 0
  }
  param {
    lr_mult: 1
    decay_mult: 0
  }
  param {
    lr_mult: 0
    decay_mult: 0
  }
  param {
    lr_mult: 0
    decay_mult: 0
  }
  batch_norm_param {
    use_global_stats: false
    scale_filler {
      type: "constant"
      value: 1
    }
    bias_filler {
      type: "constant"
      value: 0
    }
  }
}
layer {
  name: "inception_5a/3x3/relu1"
  type: "ReLU"
  bottom: "inception_5a/3x3"
  top: "inception_5a/3x3"
}
layer {
  name: "inception_5a/output"
  type: "Concat"
  bottom: "inception_5a/1x1"
  bottom: "inception_5a/3x3"
  top: "inception_5a/output"
}
layer {
  name: "inception_6a/1x1"
  type: "Convolution"
  bottom: "inception_5a/output"
  top: "inception_6a/1x1"
  param {
    lr_mult: 1
    decay_mult: 1
  }
  param {
    lr_mult: 2
    decay_mult: 0
  }
  convolution_param {
    num_output: 96
    kernel_size: 1
    weight_filler {
      type: "xavier"
      std: 0.03
    }
    bias_filler {
      type: "constant"
      value: 0.2
    }
  }
}
layer {
  name: "inception_6a/1x1/bn1"
  type: "BatchNorm"
  bottom: "inception_6a/1x1"
  top: "inception_6a/1x1"
  param {
    lr_mult: 1
    decay_mult: 0
  }
  param {
    lr_mult: 1
    decay_mult: 0
  }
  param {
    lr_mult: 0
    decay_mult: 0
  }
  param {
    lr_mult: 0
    decay_mult: 0
  }
  batch_norm_param {
    use_global_stats: false
    scale_filler {
      type: "constant"
      value: 1
    }
    bias_filler {
      type: "constant"
      value: 0
    }
  }
}
layer {
  name: "inception_6a/1x1/relu1"
  type: "ReLU"
  bottom: "inception_6a/1x1"
  top: "inception_6a/1x1"
}
layer {
  name: "inception_6a/3x3"
  type: "Convolution"
  bottom: "inception_5a/output"
  top: "inception_6a/3x3"
  param {
    lr_mult: 1
    decay_mult: 1
  }
  param {
    lr_mult: 2
    decay_mult: 0
  }
  convolution_param {
    num_output: 64
    pad: 1
    kernel_size: 3
    weight_filler {
      type: "xavier"
      std: 0.03
    }
    bias_filler {
      type: "constant"
      value: 0.2
    }
  }
}
layer {
  name: "inception_6a/3x3/bn1"
  type: "BatchNorm"
  bottom: "inception_6a/3x3"
  top: "inception_6a/3x3"
  param {
    lr_mult: 1
    decay_mult: 0
  }
  param {
    lr_mult: 1
    decay_mult: 0
  }
  param {
    lr_mult: 0
    decay_mult: 0
  }
  param {
    lr_mult: 0
    decay_mult: 0
  }
  batch_norm_param {
    use_global_stats: false
    scale_filler {
      type: "constant"
      value: 1
    }
    bias_filler {
      type: "constant"
      value: 0
    }
  }
}
layer {
  name: "inception_6a/3x3/relu1"
  type: "ReLU"
  bottom: "inception_6a/3x3"
  top: "inception_6a/3x3"
}
layer {
  name: "inception_6a/output"
  type: "Concat"
  bottom: "inception_6a/1x1"
  bottom: "inception_6a/3x3"
  top: "inception_6a/output"
}
layer {
  name: "inception_7a/1x1"
  type: "Convolution"
  bottom: "inception_6a/output"
  top: "inception_7a/1x1"
  param {
    lr_mult: 1
    decay_mult: 1
  }
  param {
    lr_mult: 2
    decay_mult: 0
  }
  convolution_param {
    num_output: 80
    kernel_size: 1
    weight_filler {
      type: "xavier"
      std: 0.03
    }
    bias_filler {
      type: "constant"
      value: 0.2
    }
  }
}
layer {
  name: "inception_7a/1x1/bn1"
  type: "BatchNorm"
  bottom: "inception_7a/1x1"
  top: "inception_7a/1x1"
  param {
    lr_mult: 1
    decay_mult: 0
  }
  param {
    lr_mult: 1
    decay_mult: 0
  }
  param {
    lr_mult: 0
    decay_mult: 0
  }
  param {
    lr_mult: 0
    decay_mult: 0
  }
  batch_norm_param {
    use_global_stats: false
    scale_filler {
      type: "constant"
      value: 1
    }
    bias_filler {
      type: "constant"
      value: 0
    }
  }
}
layer {
  name: "inception_7a/1x1/relu1"
  type: "ReLU"
  bottom: "inception_7a/1x1"
  top: "inception_7a/1x1"
}
layer {
  name: "inception_7a/3x3"
  type: "Convolution"
  bottom: "inception_6a/output"
  top: "inception_7a/3x3"
  param {
    lr_mult: 1
    decay_mult: 1
  }
  param {
    lr_mult: 2
    decay_mult: 0
  }
  convolution_param {
    num_output: 80
    pad: 1
    kernel_size: 3
    weight_filler {
      type: "xavier"
      std: 0.03
    }
    bias_filler {
      type: "constant"
      value: 0.2
    }
  }
}
layer {
  name: "inception_7a/3x3/bn1"
  type: "BatchNorm"
  bottom: "inception_7a/3x3"
  top: "inception_7a/3x3"
  param {
    lr_mult: 1
    decay_mult: 0
  }
  param {
    lr_mult: 1
    decay_mult: 0
  }
  param {
    lr_mult: 0
    decay_mult: 0
  }
  param {
    lr_mult: 0
    decay_mult: 0
  }
  batch_norm_param {
    use_global_stats: false
    scale_filler {
      type: "constant"
      value: 1
    }
    bias_filler {
      type: "constant"
      value: 0
    }
  }
}
layer {
  name: "inception_7a/3x3/relu1"
  type: "ReLU"
  bottom: "inception_7a/3x3"
  top: "inception_7a/3x3"
}
layer {
  name: "inception_7a/output"
  type: "Concat"
  bottom: "inception_7a/1x1"
  bottom: "inception_7a/3x3"
  top: "inception_7a/output"
}
layer {
  name: "inception_8a/1x1"
  type: "Convolution"
  bottom: "inception_7a/output"
  top: "inception_8a/1x1"
  param {
    lr_mult: 1
    decay_mult: 1
  }
  param {
    lr_mult: 2
    decay_mult: 0
  }
  convolution_param {
    num_output: 48
    kernel_size: 1
    weight_filler {
      type: "xavier"
      std: 0.03
    }
    bias_filler {
      type: "constant"
      value: 0.2
    }
  }
}
layer {
  name: "inception_8a/1x1/bn1"
  type: "BatchNorm"
  bottom: "inception_8a/1x1"
  top: "inception_8a/1x1"
  param {
    lr_mult: 1
    decay_mult: 0
  }
  param {
    lr_mult: 1
    decay_mult: 0
  }
  param {
    lr_mult: 0
    decay_mult: 0
  }
  param {
    lr_mult: 0
    decay_mult: 0
  }
  batch_norm_param {
    use_global_stats: false
    scale_filler {
      type: "constant"
      value: 1
    }
    bias_filler {
      type: "constant"
      value: 0
    }
  }
}
layer {
  name: "inception_8a/1x1/relu1"
  type: "ReLU"
  bottom: "inception_8a/1x1"
  top: "inception_8a/1x1"
}
layer {
  name: "inception_8a/3x3"
  type: "Convolution"
  bottom: "inception_7a/output"
  top: "inception_8a/3x3"
  param {
    lr_mult: 1
    decay_mult: 1
  }
  param {
    lr_mult: 2
    decay_mult: 0
  }
  convolution_param {
    num_output: 96
    pad: 1
    kernel_size: 3
    weight_filler {
      type: "xavier"
      std: 0.03
    }
    bias_filler {
      type: "constant"
      value: 0.2
    }
  }
}
layer {
  name: "inception_8a/3x3/bn1"
  type: "BatchNorm"
  bottom: "inception_8a/3x3"
  top: "inception_8a/3x3"
  param {
    lr_mult: 1
    decay_mult: 0
  }
  param {
    lr_mult: 1
    decay_mult: 0
  }
  param {
    lr_mult: 0
    decay_mult: 0
  }
  param {
    lr_mult: 0
    decay_mult: 0
  }
  batch_norm_param {
    use_global_stats: false
    scale_filler {
      type: "constant"
      value: 1
    }
    bias_filler {
      type: "constant"
      value: 0
    }
  }
}
layer {
  name: "inception_8a/3x3/relu1"
  type: "ReLU"
  bottom: "inception_8a/3x3"
  top: "inception_8a/3x3"
}
layer {
  name: "inception_8a/output"
  type: "Concat"
  bottom: "inception_8a/1x1"
  bottom: "inception_8a/3x3"
  top: "inception_8a/output"
}
layer {
  name: "downsample_9/3x3_s2"
  type: "Convolution"
  bottom: "inception_8a/output"
  top: "downsample_9/3x3_s2"
  param {
    lr_mult: 1
    decay_mult: 1
  }
  param {
    lr_mult: 2
    decay_mult: 0
  }
  convolution_param {
    num_output: 96
    pad: 1
    kernel_size: 3
    stride: 2
    weight_filler {
      type: "xavier"
      std: 0.03
    }
    bias_filler {
      type: "constant"
      value: 0.2
    }
  }
}
layer {
  name: "downsample_9/3x3_s2/bn1"
  type: "BatchNorm"
  bottom: "downsample_9/3x3_s2"
  top: "downsample_9/3x3_s2"
  param {
    lr_mult: 1
    decay_mult: 0
  }
  param {
    lr_mult: 1
    decay_mult: 0
  }
  param {
    lr_mult: 0
    decay_mult: 0
  }
  param {
    lr_mult: 0
    decay_mult: 0
  }
  batch_norm_param {
    use_global_stats: false
    scale_filler {
      type: "constant"
      value: 1
    }
    bias_filler {
      type: "constant"
      value: 0
    }
  }
}
layer {
  name: "downsample_9/3x3_s2/relu1"
  type: "ReLU"
  bottom: "downsample_9/3x3_s2"
  top: "downsample_9/3x3_s2"
}
layer {
  name: "downsample_9/pool_s2"
  type: "Pooling"
  bottom: "inception_8a/output"
  top: "downsample_9/pool_s2"
  pooling_param {
    pool: MAX
    kernel_size: 3
    stride: 2
  }
}
layer {
  name: "downsample_9/output"
  type: "Concat"
  bottom: "downsample_9/3x3_s2"
  bottom: "downsample_9/pool_s2"
  top: "downsample_9/output"
}
layer {
  name: "inception_10a/1x1"
  type: "Convolution"
  bottom: "downsample_9/output"
  top: "inception_10a/1x1"
  param {
    lr_mult: 1
    decay_mult: 1
  }
  param {
    lr_mult: 2
    decay_mult: 0
  }
  convolution_param {
    num_output: 176
    kernel_size: 1
    weight_filler {
      type: "xavier"
      std: 0.03
    }
    bias_filler {
      type: "constant"
      value: 0.2
    }
  }
}
layer {
  name: "inception_10a/1x1/bn1"
  type: "BatchNorm"
  bottom: "inception_10a/1x1"
  top: "inception_10a/1x1"
  param {
    lr_mult: 1
    decay_mult: 0
  }
  param {
    lr_mult: 1
    decay_mult: 0
  }
  param {
    lr_mult: 0
    decay_mult: 0
  }
  param {
    lr_mult: 0
    decay_mult: 0
  }
  batch_norm_param {
    use_global_stats: false
    scale_filler {
      type: "constant"
      value: 1
    }
    bias_filler {
      type: "constant"
      value: 0
    }
  }
}
layer {
  name: "inception_10a/1x1/relu1"
  type: "ReLU"
  bottom: "inception_10a/1x1"
  top: "inception_10a/1x1"
}
layer {
  name: "inception_10a/3x3"
  type: "Convolution"
  bottom: "downsample_9/output"
  top: "inception_10a/3x3"
  param {
    lr_mult: 1
    decay_mult: 1
  }
  param {
    lr_mult: 2
    decay_mult: 0
  }
  convolution_param {
    num_output: 160
    pad: 1
    kernel_size: 3
    weight_filler {
      type: "xavier"
      std: 0.03
    }
    bias_filler {
      type: "constant"
      value: 0.2
    }
  }
}
layer {
  name: "inception_10a/3x3/bn1"
  type: "BatchNorm"
  bottom: "inception_10a/3x3"
  top: "inception_10a/3x3"
  param {
    lr_mult: 1
    decay_mult: 0
  }
  param {
    lr_mult: 1
    decay_mult: 0
  }
  param {
    lr_mult: 0
    decay_mult: 0
  }
  param {
    lr_mult: 0
    decay_mult: 0
  }
  batch_norm_param {
    use_global_stats: false
    scale_filler {
      type: "constant"
      value: 1
    }
    bias_filler {
      type: "constant"
      value: 0
    }
  }
}
layer {
  name: "inception_10a/3x3/relu1"
  type: "ReLU"
  bottom: "inception_10a/3x3"
  top: "inception_10a/3x3"
}
layer {
  name: "inception_10a/output"
  type: "Concat"
  bottom: "inception_10a/1x1"
  bottom: "inception_10a/3x3"
  top: "inception_10a/output"
}
layer {
  name: "inception_11a/1x1"
  type: "Convolution"
  bottom: "inception_10a/output"
  top: "inception_11a/1x1"
  param {
    lr_mult: 1
    decay_mult: 1
  }
  param {
    lr_mult: 2
    decay_mult: 0
  }
  convolution_param {
    num_output: 176
    kernel_size: 1
    weight_filler {
      type: "xavier"
      std: 0.03
    }
    bias_filler {
      type: "constant"
      value: 0.2
    }
  }
}
layer {
  name: "inception_11a/1x1/bn1"
  type: "BatchNorm"
  bottom: "inception_11a/1x1"
  top: "inception_11a/1x1"
  param {
    lr_mult: 1
    decay_mult: 0
  }
  param {
    lr_mult: 1
    decay_mult: 0
  }
  param {
    lr_mult: 0
    decay_mult: 0
  }
  param {
    lr_mult: 0
    decay_mult: 0
  }
  batch_norm_param {
    use_global_stats: false
    scale_filler {
      type: "constant"
      value: 1
    }
    bias_filler {
      type: "constant"
      value: 0
    }
  }
}
layer {
  name: "inception_11a/1x1/relu1"
  type: "ReLU"
  bottom: "inception_11a/1x1"
  top: "inception_11a/1x1"
}
layer {
  name: "inception_11a/3x3"
  type: "Convolution"
  bottom: "inception_10a/output"
  top: "inception_11a/3x3"
  param {
    lr_mult: 1
    decay_mult: 1
  }
  param {
    lr_mult: 2
    decay_mult: 0
  }
  convolution_param {
    num_output: 160
    pad: 1
    kernel_size: 3
    weight_filler {
      type: "xavier"
      std: 0.03
    }
    bias_filler {
      type: "constant"
      value: 0.2
    }
  }
}
layer {
  name: "inception_11a/3x3/bn1"
  type: "BatchNorm"
  bottom: "inception_11a/3x3"
  top: "inception_11a/3x3"
  param {
    lr_mult: 1
    decay_mult: 0
  }
  param {
    lr_mult: 1
    decay_mult: 0
  }
  param {
    lr_mult: 0
    decay_mult: 0
  }
  param {
    lr_mult: 0
    decay_mult: 0
  }
  batch_norm_param {
    use_global_stats: false
    scale_filler {
      type: "constant"
      value: 1
    }
    bias_filler {
      type: "constant"
      value: 0
    }
  }
}
layer {
  name: "inception_11a/3x3/relu1"
  type: "ReLU"
  bottom: "inception_11a/3x3"
  top: "inception_11a/3x3"
}
layer {
  name: "inception_11a/output"
  type: "Concat"
  bottom: "inception_11a/1x1"
  bottom: "inception_11a/3x3"
  top: "inception_11a/output"
}
layer {
  name: "avg_pool_12/8x8_s1"
  type: "Pooling"
  bottom: "inception_11a/output"
  top: "avg_pool_12/8x8_s1"
  pooling_param {
    pool: AVE
    kernel_size: 8
    stride: 1
  }
}
layer {
  name: "drop_8x8_s1"
  type: "Dropout"
  bottom: "avg_pool_12/8x8_s1"
  top: "avg_pool_12/8x8_s1"
  dropout_param {
    dropout_ratio: 0.5
  }
}
layer {
  name: "loss/classifier"
  type: "InnerProduct"
  bottom: "avg_pool_12/8x8_s1"
  top: "loss/classifier"
  param {
    lr_mult: 1
    decay_mult: 1
  }
  param {
    lr_mult: 2
    decay_mult: 0
  }
  inner_product_param {
    num_output: 10
    weight_filler {
      type: "xavier"
    }
    bias_filler {
      type: "constant"
      value: 1
    }
  }
}
layer {
  name: "loss"
  type: "SoftmaxWithLoss"
  bottom: "loss/classifier"
  bottom: "label"
  top: "loss"
}
layer {
  name: "accuracy"
  type: "Accuracy"
  bottom: "loss/classifier"
  bottom: "label"
  top: "accuracy"
  include {
    phase: TEST
  }
}
layer {
  name: "accuracy-top1"
  type: "Accuracy"
  bottom: "loss/classifier"
  bottom: "label"
  top: "top-1"
  include {
    phase: TEST
  }
}
layer {
  name: "accuracy-top5"
  type: "Accuracy"
  bottom: "loss/classifier"
  bottom: "label"
  top: "top-5"
  include {
    phase: TEST
  }
  accuracy_param {
    top_k: 5
  }
}
I0122 16:59:08.778708 64041 layer_factory.hpp:77] Creating layer data
I0122 16:59:08.778749 64041 internal_thread.cpp:27] Starting internal thread(s) on GPU 0
I0122 16:59:08.779090 64041 net.cpp:94] Creating Layer data
I0122 16:59:08.779098 64041 net.cpp:409] data -> data
I0122 16:59:08.779106 64041 net.cpp:409] data -> label
I0122 16:59:08.780210 64188 db_lmdb.cpp:35] Opened lmdb cifar10/input/lmdb/valid_lmdb
I0122 16:59:08.780242 64188 data_reader.cpp:117] TEST: reading data using 1 channel(s)
I0122 16:59:08.780362 64041 data_layer.cpp:78] ReshapePrefetch 50, 3, 32, 32
I0122 16:59:08.780442 64041 data_layer.cpp:83] output data size: 50,3,32,32
I0122 16:59:08.783089 64041 internal_thread.cpp:27] Starting internal thread(s) on GPU 0
I0122 16:59:08.783144 64041 net.cpp:144] Setting up data
I0122 16:59:08.783151 64041 net.cpp:151] Top shape: 50 3 32 32 (153600)
I0122 16:59:08.783155 64041 net.cpp:151] Top shape: 50 (50)
I0122 16:59:08.783157 64041 net.cpp:159] Memory required for data: 614600
I0122 16:59:08.783162 64041 layer_factory.hpp:77] Creating layer label_data_1_split
I0122 16:59:08.783170 64041 net.cpp:94] Creating Layer label_data_1_split
I0122 16:59:08.783179 64041 net.cpp:435] label_data_1_split <- label
I0122 16:59:08.783185 64041 net.cpp:409] label_data_1_split -> label_data_1_split_0
I0122 16:59:08.783195 64041 net.cpp:409] label_data_1_split -> label_data_1_split_1
I0122 16:59:08.783201 64041 net.cpp:409] label_data_1_split -> label_data_1_split_2
I0122 16:59:08.783207 64041 net.cpp:409] label_data_1_split -> label_data_1_split_3
I0122 16:59:08.783298 64041 net.cpp:144] Setting up label_data_1_split
I0122 16:59:08.783304 64041 net.cpp:151] Top shape: 50 (50)
I0122 16:59:08.783308 64041 net.cpp:151] Top shape: 50 (50)
I0122 16:59:08.783311 64041 net.cpp:151] Top shape: 50 (50)
I0122 16:59:08.783314 64041 net.cpp:151] Top shape: 50 (50)
I0122 16:59:08.783318 64041 net.cpp:159] Memory required for data: 615400
I0122 16:59:08.783320 64041 layer_factory.hpp:77] Creating layer conv1/3x3_s1
I0122 16:59:08.783329 64041 net.cpp:94] Creating Layer conv1/3x3_s1
I0122 16:59:08.783332 64041 net.cpp:435] conv1/3x3_s1 <- data
I0122 16:59:08.783339 64041 net.cpp:409] conv1/3x3_s1 -> conv1/3x3_s1
I0122 16:59:08.784853 64041 net.cpp:144] Setting up conv1/3x3_s1
I0122 16:59:08.784864 64041 net.cpp:151] Top shape: 50 96 32 32 (4915200)
I0122 16:59:08.784867 64041 net.cpp:159] Memory required for data: 20276200
I0122 16:59:08.784876 64041 layer_factory.hpp:77] Creating layer conv1/bn1
I0122 16:59:08.784883 64041 net.cpp:94] Creating Layer conv1/bn1
I0122 16:59:08.784886 64041 net.cpp:435] conv1/bn1 <- conv1/3x3_s1
I0122 16:59:08.784891 64041 net.cpp:396] conv1/bn1 -> conv1/3x3_s1 (in-place)
I0122 16:59:08.785583 64041 net.cpp:144] Setting up conv1/bn1
I0122 16:59:08.785589 64041 net.cpp:151] Top shape: 50 96 32 32 (4915200)
I0122 16:59:08.785593 64041 net.cpp:159] Memory required for data: 39937000
I0122 16:59:08.785604 64041 layer_factory.hpp:77] Creating layer conv1/relu1
I0122 16:59:08.785611 64041 net.cpp:94] Creating Layer conv1/relu1
I0122 16:59:08.785617 64041 net.cpp:435] conv1/relu1 <- conv1/3x3_s1
I0122 16:59:08.785621 64041 net.cpp:396] conv1/relu1 -> conv1/3x3_s1 (in-place)
I0122 16:59:08.785629 64041 net.cpp:144] Setting up conv1/relu1
I0122 16:59:08.785632 64041 net.cpp:151] Top shape: 50 96 32 32 (4915200)
I0122 16:59:08.785635 64041 net.cpp:159] Memory required for data: 59597800
I0122 16:59:08.785637 64041 layer_factory.hpp:77] Creating layer conv1/3x3_s1_conv1/relu1_0_split
I0122 16:59:08.785642 64041 net.cpp:94] Creating Layer conv1/3x3_s1_conv1/relu1_0_split
I0122 16:59:08.785645 64041 net.cpp:435] conv1/3x3_s1_conv1/relu1_0_split <- conv1/3x3_s1
I0122 16:59:08.785650 64041 net.cpp:409] conv1/3x3_s1_conv1/relu1_0_split -> conv1/3x3_s1_conv1/relu1_0_split_0
I0122 16:59:08.785656 64041 net.cpp:409] conv1/3x3_s1_conv1/relu1_0_split -> conv1/3x3_s1_conv1/relu1_0_split_1
I0122 16:59:08.785706 64041 net.cpp:144] Setting up conv1/3x3_s1_conv1/relu1_0_split
I0122 16:59:08.785712 64041 net.cpp:151] Top shape: 50 96 32 32 (4915200)
I0122 16:59:08.785717 64041 net.cpp:151] Top shape: 50 96 32 32 (4915200)
I0122 16:59:08.785718 64041 net.cpp:159] Memory required for data: 98919400
I0122 16:59:08.785722 64041 layer_factory.hpp:77] Creating layer inception_2a/1x1
I0122 16:59:08.785729 64041 net.cpp:94] Creating Layer inception_2a/1x1
I0122 16:59:08.785732 64041 net.cpp:435] inception_2a/1x1 <- conv1/3x3_s1_conv1/relu1_0_split_0
I0122 16:59:08.785738 64041 net.cpp:409] inception_2a/1x1 -> inception_2a/1x1
I0122 16:59:08.786020 64041 net.cpp:144] Setting up inception_2a/1x1
I0122 16:59:08.786026 64041 net.cpp:151] Top shape: 50 32 32 32 (1638400)
I0122 16:59:08.786031 64041 net.cpp:159] Memory required for data: 105473000
I0122 16:59:08.786037 64041 layer_factory.hpp:77] Creating layer inception_2a/1x1/bn1
I0122 16:59:08.786044 64041 net.cpp:94] Creating Layer inception_2a/1x1/bn1
I0122 16:59:08.786049 64041 net.cpp:435] inception_2a/1x1/bn1 <- inception_2a/1x1
I0122 16:59:08.786056 64041 net.cpp:396] inception_2a/1x1/bn1 -> inception_2a/1x1 (in-place)
I0122 16:59:08.786757 64041 net.cpp:144] Setting up inception_2a/1x1/bn1
I0122 16:59:08.786763 64041 net.cpp:151] Top shape: 50 32 32 32 (1638400)
I0122 16:59:08.786767 64041 net.cpp:159] Memory required for data: 112026600
I0122 16:59:08.786774 64041 layer_factory.hpp:77] Creating layer inception_2a/1x1/relu1
I0122 16:59:08.786780 64041 net.cpp:94] Creating Layer inception_2a/1x1/relu1
I0122 16:59:08.786782 64041 net.cpp:435] inception_2a/1x1/relu1 <- inception_2a/1x1
I0122 16:59:08.786787 64041 net.cpp:396] inception_2a/1x1/relu1 -> inception_2a/1x1 (in-place)
I0122 16:59:08.786806 64041 net.cpp:144] Setting up inception_2a/1x1/relu1
I0122 16:59:08.786810 64041 net.cpp:151] Top shape: 50 32 32 32 (1638400)
I0122 16:59:08.786813 64041 net.cpp:159] Memory required for data: 118580200
I0122 16:59:08.786816 64041 layer_factory.hpp:77] Creating layer inception_2a/3x3
I0122 16:59:08.786824 64041 net.cpp:94] Creating Layer inception_2a/3x3
I0122 16:59:08.786828 64041 net.cpp:435] inception_2a/3x3 <- conv1/3x3_s1_conv1/relu1_0_split_1
I0122 16:59:08.786833 64041 net.cpp:409] inception_2a/3x3 -> inception_2a/3x3
I0122 16:59:08.787919 64041 net.cpp:144] Setting up inception_2a/3x3
I0122 16:59:08.787931 64041 net.cpp:151] Top shape: 50 32 32 32 (1638400)
I0122 16:59:08.787935 64041 net.cpp:159] Memory required for data: 125133800
I0122 16:59:08.787940 64041 layer_factory.hpp:77] Creating layer inception_2a/3x3/bn1
I0122 16:59:08.787950 64041 net.cpp:94] Creating Layer inception_2a/3x3/bn1
I0122 16:59:08.787953 64041 net.cpp:435] inception_2a/3x3/bn1 <- inception_2a/3x3
I0122 16:59:08.787958 64041 net.cpp:396] inception_2a/3x3/bn1 -> inception_2a/3x3 (in-place)
I0122 16:59:08.788605 64041 net.cpp:144] Setting up inception_2a/3x3/bn1
I0122 16:59:08.788612 64041 net.cpp:151] Top shape: 50 32 32 32 (1638400)
I0122 16:59:08.788616 64041 net.cpp:159] Memory required for data: 131687400
I0122 16:59:08.788628 64041 layer_factory.hpp:77] Creating layer inception_2a/3x3/relu1
I0122 16:59:08.788635 64041 net.cpp:94] Creating Layer inception_2a/3x3/relu1
I0122 16:59:08.788640 64041 net.cpp:435] inception_2a/3x3/relu1 <- inception_2a/3x3
I0122 16:59:08.788643 64041 net.cpp:396] inception_2a/3x3/relu1 -> inception_2a/3x3 (in-place)
I0122 16:59:08.788650 64041 net.cpp:144] Setting up inception_2a/3x3/relu1
I0122 16:59:08.788653 64041 net.cpp:151] Top shape: 50 32 32 32 (1638400)
I0122 16:59:08.788656 64041 net.cpp:159] Memory required for data: 138241000
I0122 16:59:08.788659 64041 layer_factory.hpp:77] Creating layer inception_2a/output
I0122 16:59:08.788664 64041 net.cpp:94] Creating Layer inception_2a/output
I0122 16:59:08.788667 64041 net.cpp:435] inception_2a/output <- inception_2a/1x1
I0122 16:59:08.788672 64041 net.cpp:435] inception_2a/output <- inception_2a/3x3
I0122 16:59:08.788677 64041 net.cpp:409] inception_2a/output -> inception_2a/output
I0122 16:59:08.788697 64041 net.cpp:144] Setting up inception_2a/output
I0122 16:59:08.788702 64041 net.cpp:151] Top shape: 50 64 32 32 (3276800)
I0122 16:59:08.788707 64041 net.cpp:159] Memory required for data: 151348200
I0122 16:59:08.788709 64041 layer_factory.hpp:77] Creating layer inception_2a/output_inception_2a/output_0_split
I0122 16:59:08.788713 64041 net.cpp:94] Creating Layer inception_2a/output_inception_2a/output_0_split
I0122 16:59:08.788717 64041 net.cpp:435] inception_2a/output_inception_2a/output_0_split <- inception_2a/output
I0122 16:59:08.788722 64041 net.cpp:409] inception_2a/output_inception_2a/output_0_split -> inception_2a/output_inception_2a/output_0_split_0
I0122 16:59:08.788727 64041 net.cpp:409] inception_2a/output_inception_2a/output_0_split -> inception_2a/output_inception_2a/output_0_split_1
I0122 16:59:08.788792 64041 net.cpp:144] Setting up inception_2a/output_inception_2a/output_0_split
I0122 16:59:08.788799 64041 net.cpp:151] Top shape: 50 64 32 32 (3276800)
I0122 16:59:08.788802 64041 net.cpp:151] Top shape: 50 64 32 32 (3276800)
I0122 16:59:08.788805 64041 net.cpp:159] Memory required for data: 177562600
I0122 16:59:08.788807 64041 layer_factory.hpp:77] Creating layer inception_3a/1x1
I0122 16:59:08.788816 64041 net.cpp:94] Creating Layer inception_3a/1x1
I0122 16:59:08.788821 64041 net.cpp:435] inception_3a/1x1 <- inception_2a/output_inception_2a/output_0_split_0
I0122 16:59:08.788826 64041 net.cpp:409] inception_3a/1x1 -> inception_3a/1x1
I0122 16:59:08.789042 64041 net.cpp:144] Setting up inception_3a/1x1
I0122 16:59:08.789048 64041 net.cpp:151] Top shape: 50 32 32 32 (1638400)
I0122 16:59:08.789052 64041 net.cpp:159] Memory required for data: 184116200
I0122 16:59:08.789068 64041 layer_factory.hpp:77] Creating layer inception_3a/1x1/bn1
I0122 16:59:08.789075 64041 net.cpp:94] Creating Layer inception_3a/1x1/bn1
I0122 16:59:08.789078 64041 net.cpp:435] inception_3a/1x1/bn1 <- inception_3a/1x1
I0122 16:59:08.789085 64041 net.cpp:396] inception_3a/1x1/bn1 -> inception_3a/1x1 (in-place)
I0122 16:59:08.789737 64041 net.cpp:144] Setting up inception_3a/1x1/bn1
I0122 16:59:08.789743 64041 net.cpp:151] Top shape: 50 32 32 32 (1638400)
I0122 16:59:08.789747 64041 net.cpp:159] Memory required for data: 190669800
I0122 16:59:08.789755 64041 layer_factory.hpp:77] Creating layer inception_3a/1x1/relu1
I0122 16:59:08.789762 64041 net.cpp:94] Creating Layer inception_3a/1x1/relu1
I0122 16:59:08.789764 64041 net.cpp:435] inception_3a/1x1/relu1 <- inception_3a/1x1
I0122 16:59:08.789769 64041 net.cpp:396] inception_3a/1x1/relu1 -> inception_3a/1x1 (in-place)
I0122 16:59:08.789775 64041 net.cpp:144] Setting up inception_3a/1x1/relu1
I0122 16:59:08.789779 64041 net.cpp:151] Top shape: 50 32 32 32 (1638400)
I0122 16:59:08.789782 64041 net.cpp:159] Memory required for data: 197223400
I0122 16:59:08.789784 64041 layer_factory.hpp:77] Creating layer inception_3a/3x3
I0122 16:59:08.789793 64041 net.cpp:94] Creating Layer inception_3a/3x3
I0122 16:59:08.789796 64041 net.cpp:435] inception_3a/3x3 <- inception_2a/output_inception_2a/output_0_split_1
I0122 16:59:08.789803 64041 net.cpp:409] inception_3a/3x3 -> inception_3a/3x3
I0122 16:59:08.790189 64041 net.cpp:144] Setting up inception_3a/3x3
I0122 16:59:08.790199 64041 net.cpp:151] Top shape: 50 48 32 32 (2457600)
I0122 16:59:08.790202 64041 net.cpp:159] Memory required for data: 207053800
I0122 16:59:08.790206 64041 layer_factory.hpp:77] Creating layer inception_3a/3x3/bn1
I0122 16:59:08.790213 64041 net.cpp:94] Creating Layer inception_3a/3x3/bn1
I0122 16:59:08.790216 64041 net.cpp:435] inception_3a/3x3/bn1 <- inception_3a/3x3
I0122 16:59:08.790222 64041 net.cpp:396] inception_3a/3x3/bn1 -> inception_3a/3x3 (in-place)
I0122 16:59:08.790858 64041 net.cpp:144] Setting up inception_3a/3x3/bn1
I0122 16:59:08.790864 64041 net.cpp:151] Top shape: 50 48 32 32 (2457600)
I0122 16:59:08.790868 64041 net.cpp:159] Memory required for data: 216884200
I0122 16:59:08.790879 64041 layer_factory.hpp:77] Creating layer inception_3a/3x3/relu1
I0122 16:59:08.790885 64041 net.cpp:94] Creating Layer inception_3a/3x3/relu1
I0122 16:59:08.790889 64041 net.cpp:435] inception_3a/3x3/relu1 <- inception_3a/3x3
I0122 16:59:08.790894 64041 net.cpp:396] inception_3a/3x3/relu1 -> inception_3a/3x3 (in-place)
I0122 16:59:08.790899 64041 net.cpp:144] Setting up inception_3a/3x3/relu1
I0122 16:59:08.790904 64041 net.cpp:151] Top shape: 50 48 32 32 (2457600)
I0122 16:59:08.790905 64041 net.cpp:159] Memory required for data: 226714600
I0122 16:59:08.790910 64041 layer_factory.hpp:77] Creating layer inception_3a/output
I0122 16:59:08.790915 64041 net.cpp:94] Creating Layer inception_3a/output
I0122 16:59:08.790917 64041 net.cpp:435] inception_3a/output <- inception_3a/1x1
I0122 16:59:08.790920 64041 net.cpp:435] inception_3a/output <- inception_3a/3x3
I0122 16:59:08.790925 64041 net.cpp:409] inception_3a/output -> inception_3a/output
I0122 16:59:08.790946 64041 net.cpp:144] Setting up inception_3a/output
I0122 16:59:08.790951 64041 net.cpp:151] Top shape: 50 80 32 32 (4096000)
I0122 16:59:08.790954 64041 net.cpp:159] Memory required for data: 243098600
I0122 16:59:08.790957 64041 layer_factory.hpp:77] Creating layer inception_3a/output_inception_3a/output_0_split
I0122 16:59:08.790962 64041 net.cpp:94] Creating Layer inception_3a/output_inception_3a/output_0_split
I0122 16:59:08.790966 64041 net.cpp:435] inception_3a/output_inception_3a/output_0_split <- inception_3a/output
I0122 16:59:08.790971 64041 net.cpp:409] inception_3a/output_inception_3a/output_0_split -> inception_3a/output_inception_3a/output_0_split_0
I0122 16:59:08.790978 64041 net.cpp:409] inception_3a/output_inception_3a/output_0_split -> inception_3a/output_inception_3a/output_0_split_1
I0122 16:59:08.791043 64041 net.cpp:144] Setting up inception_3a/output_inception_3a/output_0_split
I0122 16:59:08.791059 64041 net.cpp:151] Top shape: 50 80 32 32 (4096000)
I0122 16:59:08.791064 64041 net.cpp:151] Top shape: 50 80 32 32 (4096000)
I0122 16:59:08.791066 64041 net.cpp:159] Memory required for data: 275866600
I0122 16:59:08.791069 64041 layer_factory.hpp:77] Creating layer downsample_4/3x3_s2
I0122 16:59:08.791079 64041 net.cpp:94] Creating Layer downsample_4/3x3_s2
I0122 16:59:08.791081 64041 net.cpp:435] downsample_4/3x3_s2 <- inception_3a/output_inception_3a/output_0_split_0
I0122 16:59:08.791087 64041 net.cpp:409] downsample_4/3x3_s2 -> downsample_4/3x3_s2
I0122 16:59:08.791618 64041 net.cpp:144] Setting up downsample_4/3x3_s2
I0122 16:59:08.791626 64041 net.cpp:151] Top shape: 50 80 16 16 (1024000)
I0122 16:59:08.791630 64041 net.cpp:159] Memory required for data: 279962600
I0122 16:59:08.791635 64041 layer_factory.hpp:77] Creating layer downsample_4/3x3_s2/bn1
I0122 16:59:08.791642 64041 net.cpp:94] Creating Layer downsample_4/3x3_s2/bn1
I0122 16:59:08.791647 64041 net.cpp:435] downsample_4/3x3_s2/bn1 <- downsample_4/3x3_s2
I0122 16:59:08.791652 64041 net.cpp:396] downsample_4/3x3_s2/bn1 -> downsample_4/3x3_s2 (in-place)
I0122 16:59:08.792374 64041 net.cpp:144] Setting up downsample_4/3x3_s2/bn1
I0122 16:59:08.792381 64041 net.cpp:151] Top shape: 50 80 16 16 (1024000)
I0122 16:59:08.792383 64041 net.cpp:159] Memory required for data: 284058600
I0122 16:59:08.792392 64041 layer_factory.hpp:77] Creating layer downsample_4/3x3_s2/relu1
I0122 16:59:08.792399 64041 net.cpp:94] Creating Layer downsample_4/3x3_s2/relu1
I0122 16:59:08.792402 64041 net.cpp:435] downsample_4/3x3_s2/relu1 <- downsample_4/3x3_s2
I0122 16:59:08.792407 64041 net.cpp:396] downsample_4/3x3_s2/relu1 -> downsample_4/3x3_s2 (in-place)
I0122 16:59:08.792412 64041 net.cpp:144] Setting up downsample_4/3x3_s2/relu1
I0122 16:59:08.792418 64041 net.cpp:151] Top shape: 50 80 16 16 (1024000)
I0122 16:59:08.792420 64041 net.cpp:159] Memory required for data: 288154600
I0122 16:59:08.792423 64041 layer_factory.hpp:77] Creating layer downsample_4/pool_s2
I0122 16:59:08.792429 64041 net.cpp:94] Creating Layer downsample_4/pool_s2
I0122 16:59:08.792433 64041 net.cpp:435] downsample_4/pool_s2 <- inception_3a/output_inception_3a/output_0_split_1
I0122 16:59:08.792438 64041 net.cpp:409] downsample_4/pool_s2 -> downsample_4/pool_s2
I0122 16:59:08.792469 64041 net.cpp:144] Setting up downsample_4/pool_s2
I0122 16:59:08.792475 64041 net.cpp:151] Top shape: 50 80 16 16 (1024000)
I0122 16:59:08.792480 64041 net.cpp:159] Memory required for data: 292250600
I0122 16:59:08.792484 64041 layer_factory.hpp:77] Creating layer downsample_4/output
I0122 16:59:08.792487 64041 net.cpp:94] Creating Layer downsample_4/output
I0122 16:59:08.792490 64041 net.cpp:435] downsample_4/output <- downsample_4/3x3_s2
I0122 16:59:08.792495 64041 net.cpp:435] downsample_4/output <- downsample_4/pool_s2
I0122 16:59:08.792498 64041 net.cpp:409] downsample_4/output -> downsample_4/output
I0122 16:59:08.792556 64041 net.cpp:144] Setting up downsample_4/output
I0122 16:59:08.792560 64041 net.cpp:151] Top shape: 50 160 16 16 (2048000)
I0122 16:59:08.792564 64041 net.cpp:159] Memory required for data: 300442600
I0122 16:59:08.792567 64041 layer_factory.hpp:77] Creating layer downsample_4/output_downsample_4/output_0_split
I0122 16:59:08.792572 64041 net.cpp:94] Creating Layer downsample_4/output_downsample_4/output_0_split
I0122 16:59:08.792574 64041 net.cpp:435] downsample_4/output_downsample_4/output_0_split <- downsample_4/output
I0122 16:59:08.792579 64041 net.cpp:409] downsample_4/output_downsample_4/output_0_split -> downsample_4/output_downsample_4/output_0_split_0
I0122 16:59:08.792585 64041 net.cpp:409] downsample_4/output_downsample_4/output_0_split -> downsample_4/output_downsample_4/output_0_split_1
I0122 16:59:08.792611 64041 net.cpp:144] Setting up downsample_4/output_downsample_4/output_0_split
I0122 16:59:08.792618 64041 net.cpp:151] Top shape: 50 160 16 16 (2048000)
I0122 16:59:08.792624 64041 net.cpp:151] Top shape: 50 160 16 16 (2048000)
I0122 16:59:08.792636 64041 net.cpp:159] Memory required for data: 316826600
I0122 16:59:08.792645 64041 layer_factory.hpp:77] Creating layer inception_5a/1x1
I0122 16:59:08.792652 64041 net.cpp:94] Creating Layer inception_5a/1x1
I0122 16:59:08.792656 64041 net.cpp:435] inception_5a/1x1 <- downsample_4/output_downsample_4/output_0_split_0
I0122 16:59:08.792662 64041 net.cpp:409] inception_5a/1x1 -> inception_5a/1x1
I0122 16:59:08.792978 64041 net.cpp:144] Setting up inception_5a/1x1
I0122 16:59:08.792984 64041 net.cpp:151] Top shape: 50 112 16 16 (1433600)
I0122 16:59:08.792989 64041 net.cpp:159] Memory required for data: 322561000
I0122 16:59:08.792994 64041 layer_factory.hpp:77] Creating layer inception_5a/1x1/bn1
I0122 16:59:08.792999 64041 net.cpp:94] Creating Layer inception_5a/1x1/bn1
I0122 16:59:08.793004 64041 net.cpp:435] inception_5a/1x1/bn1 <- inception_5a/1x1
I0122 16:59:08.793010 64041 net.cpp:396] inception_5a/1x1/bn1 -> inception_5a/1x1 (in-place)
I0122 16:59:08.793694 64041 net.cpp:144] Setting up inception_5a/1x1/bn1
I0122 16:59:08.793700 64041 net.cpp:151] Top shape: 50 112 16 16 (1433600)
I0122 16:59:08.793704 64041 net.cpp:159] Memory required for data: 328295400
I0122 16:59:08.793714 64041 layer_factory.hpp:77] Creating layer inception_5a/1x1/relu1
I0122 16:59:08.793718 64041 net.cpp:94] Creating Layer inception_5a/1x1/relu1
I0122 16:59:08.793721 64041 net.cpp:435] inception_5a/1x1/relu1 <- inception_5a/1x1
I0122 16:59:08.793725 64041 net.cpp:396] inception_5a/1x1/relu1 -> inception_5a/1x1 (in-place)
I0122 16:59:08.793731 64041 net.cpp:144] Setting up inception_5a/1x1/relu1
I0122 16:59:08.793735 64041 net.cpp:151] Top shape: 50 112 16 16 (1433600)
I0122 16:59:08.793738 64041 net.cpp:159] Memory required for data: 334029800
I0122 16:59:08.793742 64041 layer_factory.hpp:77] Creating layer inception_5a/3x3
I0122 16:59:08.793751 64041 net.cpp:94] Creating Layer inception_5a/3x3
I0122 16:59:08.793756 64041 net.cpp:435] inception_5a/3x3 <- downsample_4/output_downsample_4/output_0_split_1
I0122 16:59:08.793761 64041 net.cpp:409] inception_5a/3x3 -> inception_5a/3x3
I0122 16:59:08.794416 64041 net.cpp:144] Setting up inception_5a/3x3
I0122 16:59:08.794425 64041 net.cpp:151] Top shape: 50 48 16 16 (614400)
I0122 16:59:08.794428 64041 net.cpp:159] Memory required for data: 336487400
I0122 16:59:08.794433 64041 layer_factory.hpp:77] Creating layer inception_5a/3x3/bn1
I0122 16:59:08.794441 64041 net.cpp:94] Creating Layer inception_5a/3x3/bn1
I0122 16:59:08.794447 64041 net.cpp:435] inception_5a/3x3/bn1 <- inception_5a/3x3
I0122 16:59:08.794452 64041 net.cpp:396] inception_5a/3x3/bn1 -> inception_5a/3x3 (in-place)
I0122 16:59:08.795142 64041 net.cpp:144] Setting up inception_5a/3x3/bn1
I0122 16:59:08.795148 64041 net.cpp:151] Top shape: 50 48 16 16 (614400)
I0122 16:59:08.795151 64041 net.cpp:159] Memory required for data: 338945000
I0122 16:59:08.795159 64041 layer_factory.hpp:77] Creating layer inception_5a/3x3/relu1
I0122 16:59:08.795164 64041 net.cpp:94] Creating Layer inception_5a/3x3/relu1
I0122 16:59:08.795167 64041 net.cpp:435] inception_5a/3x3/relu1 <- inception_5a/3x3
I0122 16:59:08.795172 64041 net.cpp:396] inception_5a/3x3/relu1 -> inception_5a/3x3 (in-place)
I0122 16:59:08.795178 64041 net.cpp:144] Setting up inception_5a/3x3/relu1
I0122 16:59:08.795182 64041 net.cpp:151] Top shape: 50 48 16 16 (614400)
I0122 16:59:08.795186 64041 net.cpp:159] Memory required for data: 341402600
I0122 16:59:08.795189 64041 layer_factory.hpp:77] Creating layer inception_5a/output
I0122 16:59:08.795194 64041 net.cpp:94] Creating Layer inception_5a/output
I0122 16:59:08.795197 64041 net.cpp:435] inception_5a/output <- inception_5a/1x1
I0122 16:59:08.795200 64041 net.cpp:435] inception_5a/output <- inception_5a/3x3
I0122 16:59:08.795207 64041 net.cpp:409] inception_5a/output -> inception_5a/output
I0122 16:59:08.795223 64041 net.cpp:144] Setting up inception_5a/output
I0122 16:59:08.795228 64041 net.cpp:151] Top shape: 50 160 16 16 (2048000)
I0122 16:59:08.795231 64041 net.cpp:159] Memory required for data: 349594600
I0122 16:59:08.795245 64041 layer_factory.hpp:77] Creating layer inception_5a/output_inception_5a/output_0_split
I0122 16:59:08.795250 64041 net.cpp:94] Creating Layer inception_5a/output_inception_5a/output_0_split
I0122 16:59:08.795253 64041 net.cpp:435] inception_5a/output_inception_5a/output_0_split <- inception_5a/output
I0122 16:59:08.795258 64041 net.cpp:409] inception_5a/output_inception_5a/output_0_split -> inception_5a/output_inception_5a/output_0_split_0
I0122 16:59:08.795266 64041 net.cpp:409] inception_5a/output_inception_5a/output_0_split -> inception_5a/output_inception_5a/output_0_split_1
I0122 16:59:08.795328 64041 net.cpp:144] Setting up inception_5a/output_inception_5a/output_0_split
I0122 16:59:08.795333 64041 net.cpp:151] Top shape: 50 160 16 16 (2048000)
I0122 16:59:08.795337 64041 net.cpp:151] Top shape: 50 160 16 16 (2048000)
I0122 16:59:08.795341 64041 net.cpp:159] Memory required for data: 365978600
I0122 16:59:08.795344 64041 layer_factory.hpp:77] Creating layer inception_6a/1x1
I0122 16:59:08.795352 64041 net.cpp:94] Creating Layer inception_6a/1x1
I0122 16:59:08.795356 64041 net.cpp:435] inception_6a/1x1 <- inception_5a/output_inception_5a/output_0_split_0
I0122 16:59:08.795362 64041 net.cpp:409] inception_6a/1x1 -> inception_6a/1x1
I0122 16:59:08.796360 64041 net.cpp:144] Setting up inception_6a/1x1
I0122 16:59:08.796371 64041 net.cpp:151] Top shape: 50 96 16 16 (1228800)
I0122 16:59:08.796375 64041 net.cpp:159] Memory required for data: 370893800
I0122 16:59:08.796380 64041 layer_factory.hpp:77] Creating layer inception_6a/1x1/bn1
I0122 16:59:08.796389 64041 net.cpp:94] Creating Layer inception_6a/1x1/bn1
I0122 16:59:08.796394 64041 net.cpp:435] inception_6a/1x1/bn1 <- inception_6a/1x1
I0122 16:59:08.796401 64041 net.cpp:396] inception_6a/1x1/bn1 -> inception_6a/1x1 (in-place)
I0122 16:59:08.797013 64041 net.cpp:144] Setting up inception_6a/1x1/bn1
I0122 16:59:08.797020 64041 net.cpp:151] Top shape: 50 96 16 16 (1228800)
I0122 16:59:08.797024 64041 net.cpp:159] Memory required for data: 375809000
I0122 16:59:08.797031 64041 layer_factory.hpp:77] Creating layer inception_6a/1x1/relu1
I0122 16:59:08.797039 64041 net.cpp:94] Creating Layer inception_6a/1x1/relu1
I0122 16:59:08.797041 64041 net.cpp:435] inception_6a/1x1/relu1 <- inception_6a/1x1
I0122 16:59:08.797046 64041 net.cpp:396] inception_6a/1x1/relu1 -> inception_6a/1x1 (in-place)
I0122 16:59:08.797052 64041 net.cpp:144] Setting up inception_6a/1x1/relu1
I0122 16:59:08.797056 64041 net.cpp:151] Top shape: 50 96 16 16 (1228800)
I0122 16:59:08.797060 64041 net.cpp:159] Memory required for data: 380724200
I0122 16:59:08.797061 64041 layer_factory.hpp:77] Creating layer inception_6a/3x3
I0122 16:59:08.797070 64041 net.cpp:94] Creating Layer inception_6a/3x3
I0122 16:59:08.797075 64041 net.cpp:435] inception_6a/3x3 <- inception_5a/output_inception_5a/output_0_split_1
I0122 16:59:08.797080 64041 net.cpp:409] inception_6a/3x3 -> inception_6a/3x3
I0122 16:59:08.798454 64041 net.cpp:144] Setting up inception_6a/3x3
I0122 16:59:08.798466 64041 net.cpp:151] Top shape: 50 64 16 16 (819200)
I0122 16:59:08.798470 64041 net.cpp:159] Memory required for data: 384001000
I0122 16:59:08.798481 64041 layer_factory.hpp:77] Creating layer inception_6a/3x3/bn1
I0122 16:59:08.798491 64041 net.cpp:94] Creating Layer inception_6a/3x3/bn1
I0122 16:59:08.798494 64041 net.cpp:435] inception_6a/3x3/bn1 <- inception_6a/3x3
I0122 16:59:08.798501 64041 net.cpp:396] inception_6a/3x3/bn1 -> inception_6a/3x3 (in-place)
I0122 16:59:08.799118 64041 net.cpp:144] Setting up inception_6a/3x3/bn1
I0122 16:59:08.799124 64041 net.cpp:151] Top shape: 50 64 16 16 (819200)
I0122 16:59:08.799126 64041 net.cpp:159] Memory required for data: 387277800
I0122 16:59:08.799135 64041 layer_factory.hpp:77] Creating layer inception_6a/3x3/relu1
I0122 16:59:08.799142 64041 net.cpp:94] Creating Layer inception_6a/3x3/relu1
I0122 16:59:08.799145 64041 net.cpp:435] inception_6a/3x3/relu1 <- inception_6a/3x3
I0122 16:59:08.799150 64041 net.cpp:396] inception_6a/3x3/relu1 -> inception_6a/3x3 (in-place)
I0122 16:59:08.799170 64041 net.cpp:144] Setting up inception_6a/3x3/relu1
I0122 16:59:08.799173 64041 net.cpp:151] Top shape: 50 64 16 16 (819200)
I0122 16:59:08.799175 64041 net.cpp:159] Memory required for data: 390554600
I0122 16:59:08.799178 64041 layer_factory.hpp:77] Creating layer inception_6a/output
I0122 16:59:08.799183 64041 net.cpp:94] Creating Layer inception_6a/output
I0122 16:59:08.799186 64041 net.cpp:435] inception_6a/output <- inception_6a/1x1
I0122 16:59:08.799190 64041 net.cpp:435] inception_6a/output <- inception_6a/3x3
I0122 16:59:08.799194 64041 net.cpp:409] inception_6a/output -> inception_6a/output
I0122 16:59:08.799212 64041 net.cpp:144] Setting up inception_6a/output
I0122 16:59:08.799217 64041 net.cpp:151] Top shape: 50 160 16 16 (2048000)
I0122 16:59:08.799221 64041 net.cpp:159] Memory required for data: 398746600
I0122 16:59:08.799223 64041 layer_factory.hpp:77] Creating layer inception_6a/output_inception_6a/output_0_split
I0122 16:59:08.799228 64041 net.cpp:94] Creating Layer inception_6a/output_inception_6a/output_0_split
I0122 16:59:08.799232 64041 net.cpp:435] inception_6a/output_inception_6a/output_0_split <- inception_6a/output
I0122 16:59:08.799235 64041 net.cpp:409] inception_6a/output_inception_6a/output_0_split -> inception_6a/output_inception_6a/output_0_split_0
I0122 16:59:08.799242 64041 net.cpp:409] inception_6a/output_inception_6a/output_0_split -> inception_6a/output_inception_6a/output_0_split_1
I0122 16:59:08.799270 64041 net.cpp:144] Setting up inception_6a/output_inception_6a/output_0_split
I0122 16:59:08.799276 64041 net.cpp:151] Top shape: 50 160 16 16 (2048000)
I0122 16:59:08.799280 64041 net.cpp:151] Top shape: 50 160 16 16 (2048000)
I0122 16:59:08.799283 64041 net.cpp:159] Memory required for data: 415130600
I0122 16:59:08.799286 64041 layer_factory.hpp:77] Creating layer inception_7a/1x1
I0122 16:59:08.799294 64041 net.cpp:94] Creating Layer inception_7a/1x1
I0122 16:59:08.799299 64041 net.cpp:435] inception_7a/1x1 <- inception_6a/output_inception_6a/output_0_split_0
I0122 16:59:08.799305 64041 net.cpp:409] inception_7a/1x1 -> inception_7a/1x1
I0122 16:59:08.799585 64041 net.cpp:144] Setting up inception_7a/1x1
I0122 16:59:08.799592 64041 net.cpp:151] Top shape: 50 80 16 16 (1024000)
I0122 16:59:08.799594 64041 net.cpp:159] Memory required for data: 419226600
I0122 16:59:08.799599 64041 layer_factory.hpp:77] Creating layer inception_7a/1x1/bn1
I0122 16:59:08.799605 64041 net.cpp:94] Creating Layer inception_7a/1x1/bn1
I0122 16:59:08.799608 64041 net.cpp:435] inception_7a/1x1/bn1 <- inception_7a/1x1
I0122 16:59:08.799614 64041 net.cpp:396] inception_7a/1x1/bn1 -> inception_7a/1x1 (in-place)
I0122 16:59:08.800216 64041 net.cpp:144] Setting up inception_7a/1x1/bn1
I0122 16:59:08.800223 64041 net.cpp:151] Top shape: 50 80 16 16 (1024000)
I0122 16:59:08.800226 64041 net.cpp:159] Memory required for data: 423322600
I0122 16:59:08.800235 64041 layer_factory.hpp:77] Creating layer inception_7a/1x1/relu1
I0122 16:59:08.800238 64041 net.cpp:94] Creating Layer inception_7a/1x1/relu1
I0122 16:59:08.800242 64041 net.cpp:435] inception_7a/1x1/relu1 <- inception_7a/1x1
I0122 16:59:08.800246 64041 net.cpp:396] inception_7a/1x1/relu1 -> inception_7a/1x1 (in-place)
I0122 16:59:08.800252 64041 net.cpp:144] Setting up inception_7a/1x1/relu1
I0122 16:59:08.800256 64041 net.cpp:151] Top shape: 50 80 16 16 (1024000)
I0122 16:59:08.800259 64041 net.cpp:159] Memory required for data: 427418600
I0122 16:59:08.800262 64041 layer_factory.hpp:77] Creating layer inception_7a/3x3
I0122 16:59:08.800269 64041 net.cpp:94] Creating Layer inception_7a/3x3
I0122 16:59:08.800272 64041 net.cpp:435] inception_7a/3x3 <- inception_6a/output_inception_6a/output_0_split_1
I0122 16:59:08.800278 64041 net.cpp:409] inception_7a/3x3 -> inception_7a/3x3
I0122 16:59:08.801133 64041 net.cpp:144] Setting up inception_7a/3x3
I0122 16:59:08.801143 64041 net.cpp:151] Top shape: 50 80 16 16 (1024000)
I0122 16:59:08.801146 64041 net.cpp:159] Memory required for data: 431514600
I0122 16:59:08.801162 64041 layer_factory.hpp:77] Creating layer inception_7a/3x3/bn1
I0122 16:59:08.801172 64041 net.cpp:94] Creating Layer inception_7a/3x3/bn1
I0122 16:59:08.801177 64041 net.cpp:435] inception_7a/3x3/bn1 <- inception_7a/3x3
I0122 16:59:08.801182 64041 net.cpp:396] inception_7a/3x3/bn1 -> inception_7a/3x3 (in-place)
I0122 16:59:08.801797 64041 net.cpp:144] Setting up inception_7a/3x3/bn1
I0122 16:59:08.801805 64041 net.cpp:151] Top shape: 50 80 16 16 (1024000)
I0122 16:59:08.801807 64041 net.cpp:159] Memory required for data: 435610600
I0122 16:59:08.801815 64041 layer_factory.hpp:77] Creating layer inception_7a/3x3/relu1
I0122 16:59:08.801820 64041 net.cpp:94] Creating Layer inception_7a/3x3/relu1
I0122 16:59:08.801825 64041 net.cpp:435] inception_7a/3x3/relu1 <- inception_7a/3x3
I0122 16:59:08.801828 64041 net.cpp:396] inception_7a/3x3/relu1 -> inception_7a/3x3 (in-place)
I0122 16:59:08.801834 64041 net.cpp:144] Setting up inception_7a/3x3/relu1
I0122 16:59:08.801838 64041 net.cpp:151] Top shape: 50 80 16 16 (1024000)
I0122 16:59:08.801841 64041 net.cpp:159] Memory required for data: 439706600
I0122 16:59:08.801843 64041 layer_factory.hpp:77] Creating layer inception_7a/output
I0122 16:59:08.801848 64041 net.cpp:94] Creating Layer inception_7a/output
I0122 16:59:08.801851 64041 net.cpp:435] inception_7a/output <- inception_7a/1x1
I0122 16:59:08.801856 64041 net.cpp:435] inception_7a/output <- inception_7a/3x3
I0122 16:59:08.801859 64041 net.cpp:409] inception_7a/output -> inception_7a/output
I0122 16:59:08.801877 64041 net.cpp:144] Setting up inception_7a/output
I0122 16:59:08.801882 64041 net.cpp:151] Top shape: 50 160 16 16 (2048000)
I0122 16:59:08.801884 64041 net.cpp:159] Memory required for data: 447898600
I0122 16:59:08.801887 64041 layer_factory.hpp:77] Creating layer inception_7a/output_inception_7a/output_0_split
I0122 16:59:08.801892 64041 net.cpp:94] Creating Layer inception_7a/output_inception_7a/output_0_split
I0122 16:59:08.801895 64041 net.cpp:435] inception_7a/output_inception_7a/output_0_split <- inception_7a/output
I0122 16:59:08.801900 64041 net.cpp:409] inception_7a/output_inception_7a/output_0_split -> inception_7a/output_inception_7a/output_0_split_0
I0122 16:59:08.801921 64041 net.cpp:409] inception_7a/output_inception_7a/output_0_split -> inception_7a/output_inception_7a/output_0_split_1
I0122 16:59:08.801947 64041 net.cpp:144] Setting up inception_7a/output_inception_7a/output_0_split
I0122 16:59:08.801952 64041 net.cpp:151] Top shape: 50 160 16 16 (2048000)
I0122 16:59:08.801956 64041 net.cpp:151] Top shape: 50 160 16 16 (2048000)
I0122 16:59:08.801959 64041 net.cpp:159] Memory required for data: 464282600
I0122 16:59:08.801961 64041 layer_factory.hpp:77] Creating layer inception_8a/1x1
I0122 16:59:08.801970 64041 net.cpp:94] Creating Layer inception_8a/1x1
I0122 16:59:08.801972 64041 net.cpp:435] inception_8a/1x1 <- inception_7a/output_inception_7a/output_0_split_0
I0122 16:59:08.801977 64041 net.cpp:409] inception_8a/1x1 -> inception_8a/1x1
I0122 16:59:08.802229 64041 net.cpp:144] Setting up inception_8a/1x1
I0122 16:59:08.802237 64041 net.cpp:151] Top shape: 50 48 16 16 (614400)
I0122 16:59:08.802240 64041 net.cpp:159] Memory required for data: 466740200
I0122 16:59:08.802245 64041 layer_factory.hpp:77] Creating layer inception_8a/1x1/bn1
I0122 16:59:08.802251 64041 net.cpp:94] Creating Layer inception_8a/1x1/bn1
I0122 16:59:08.802255 64041 net.cpp:435] inception_8a/1x1/bn1 <- inception_8a/1x1
I0122 16:59:08.802260 64041 net.cpp:396] inception_8a/1x1/bn1 -> inception_8a/1x1 (in-place)
I0122 16:59:08.802875 64041 net.cpp:144] Setting up inception_8a/1x1/bn1
I0122 16:59:08.802881 64041 net.cpp:151] Top shape: 50 48 16 16 (614400)
I0122 16:59:08.802884 64041 net.cpp:159] Memory required for data: 469197800
I0122 16:59:08.802892 64041 layer_factory.hpp:77] Creating layer inception_8a/1x1/relu1
I0122 16:59:08.802896 64041 net.cpp:94] Creating Layer inception_8a/1x1/relu1
I0122 16:59:08.802899 64041 net.cpp:435] inception_8a/1x1/relu1 <- inception_8a/1x1
I0122 16:59:08.802904 64041 net.cpp:396] inception_8a/1x1/relu1 -> inception_8a/1x1 (in-place)
I0122 16:59:08.802922 64041 net.cpp:144] Setting up inception_8a/1x1/relu1
I0122 16:59:08.802925 64041 net.cpp:151] Top shape: 50 48 16 16 (614400)
I0122 16:59:08.802927 64041 net.cpp:159] Memory required for data: 471655400
I0122 16:59:08.802932 64041 layer_factory.hpp:77] Creating layer inception_8a/3x3
I0122 16:59:08.802938 64041 net.cpp:94] Creating Layer inception_8a/3x3
I0122 16:59:08.802942 64041 net.cpp:435] inception_8a/3x3 <- inception_7a/output_inception_7a/output_0_split_1
I0122 16:59:08.802948 64041 net.cpp:409] inception_8a/3x3 -> inception_8a/3x3
I0122 16:59:08.804577 64041 net.cpp:144] Setting up inception_8a/3x3
I0122 16:59:08.804590 64041 net.cpp:151] Top shape: 50 96 16 16 (1228800)
I0122 16:59:08.804592 64041 net.cpp:159] Memory required for data: 476570600
I0122 16:59:08.804599 64041 layer_factory.hpp:77] Creating layer inception_8a/3x3/bn1
I0122 16:59:08.804622 64041 net.cpp:94] Creating Layer inception_8a/3x3/bn1
I0122 16:59:08.804627 64041 net.cpp:435] inception_8a/3x3/bn1 <- inception_8a/3x3
I0122 16:59:08.804632 64041 net.cpp:396] inception_8a/3x3/bn1 -> inception_8a/3x3 (in-place)
I0122 16:59:08.805259 64041 net.cpp:144] Setting up inception_8a/3x3/bn1
I0122 16:59:08.805266 64041 net.cpp:151] Top shape: 50 96 16 16 (1228800)
I0122 16:59:08.805270 64041 net.cpp:159] Memory required for data: 481485800
I0122 16:59:08.805279 64041 layer_factory.hpp:77] Creating layer inception_8a/3x3/relu1
I0122 16:59:08.805284 64041 net.cpp:94] Creating Layer inception_8a/3x3/relu1
I0122 16:59:08.805287 64041 net.cpp:435] inception_8a/3x3/relu1 <- inception_8a/3x3
I0122 16:59:08.805291 64041 net.cpp:396] inception_8a/3x3/relu1 -> inception_8a/3x3 (in-place)
I0122 16:59:08.805297 64041 net.cpp:144] Setting up inception_8a/3x3/relu1
I0122 16:59:08.805301 64041 net.cpp:151] Top shape: 50 96 16 16 (1228800)
I0122 16:59:08.805305 64041 net.cpp:159] Memory required for data: 486401000
I0122 16:59:08.805307 64041 layer_factory.hpp:77] Creating layer inception_8a/output
I0122 16:59:08.805311 64041 net.cpp:94] Creating Layer inception_8a/output
I0122 16:59:08.805315 64041 net.cpp:435] inception_8a/output <- inception_8a/1x1
I0122 16:59:08.805320 64041 net.cpp:435] inception_8a/output <- inception_8a/3x3
I0122 16:59:08.805323 64041 net.cpp:409] inception_8a/output -> inception_8a/output
I0122 16:59:08.805341 64041 net.cpp:144] Setting up inception_8a/output
I0122 16:59:08.805346 64041 net.cpp:151] Top shape: 50 144 16 16 (1843200)
I0122 16:59:08.805349 64041 net.cpp:159] Memory required for data: 493773800
I0122 16:59:08.805351 64041 layer_factory.hpp:77] Creating layer inception_8a/output_inception_8a/output_0_split
I0122 16:59:08.805356 64041 net.cpp:94] Creating Layer inception_8a/output_inception_8a/output_0_split
I0122 16:59:08.805359 64041 net.cpp:435] inception_8a/output_inception_8a/output_0_split <- inception_8a/output
I0122 16:59:08.805364 64041 net.cpp:409] inception_8a/output_inception_8a/output_0_split -> inception_8a/output_inception_8a/output_0_split_0
I0122 16:59:08.805371 64041 net.cpp:409] inception_8a/output_inception_8a/output_0_split -> inception_8a/output_inception_8a/output_0_split_1
I0122 16:59:08.805395 64041 net.cpp:144] Setting up inception_8a/output_inception_8a/output_0_split
I0122 16:59:08.805400 64041 net.cpp:151] Top shape: 50 144 16 16 (1843200)
I0122 16:59:08.805405 64041 net.cpp:151] Top shape: 50 144 16 16 (1843200)
I0122 16:59:08.805408 64041 net.cpp:159] Memory required for data: 508519400
I0122 16:59:08.805410 64041 layer_factory.hpp:77] Creating layer downsample_9/3x3_s2
I0122 16:59:08.805418 64041 net.cpp:94] Creating Layer downsample_9/3x3_s2
I0122 16:59:08.805423 64041 net.cpp:435] downsample_9/3x3_s2 <- inception_8a/output_inception_8a/output_0_split_0
I0122 16:59:08.805429 64041 net.cpp:409] downsample_9/3x3_s2 -> downsample_9/3x3_s2
I0122 16:59:08.810297 64041 net.cpp:144] Setting up downsample_9/3x3_s2
I0122 16:59:08.810307 64041 net.cpp:151] Top shape: 50 96 8 8 (307200)
I0122 16:59:08.810309 64041 net.cpp:159] Memory required for data: 509748200
I0122 16:59:08.810324 64041 layer_factory.hpp:77] Creating layer downsample_9/3x3_s2/bn1
I0122 16:59:08.810331 64041 net.cpp:94] Creating Layer downsample_9/3x3_s2/bn1
I0122 16:59:08.810334 64041 net.cpp:435] downsample_9/3x3_s2/bn1 <- downsample_9/3x3_s2
I0122 16:59:08.810340 64041 net.cpp:396] downsample_9/3x3_s2/bn1 -> downsample_9/3x3_s2 (in-place)
I0122 16:59:08.810999 64041 net.cpp:144] Setting up downsample_9/3x3_s2/bn1
I0122 16:59:08.811007 64041 net.cpp:151] Top shape: 50 96 8 8 (307200)
I0122 16:59:08.811022 64041 net.cpp:159] Memory required for data: 510977000
I0122 16:59:08.811030 64041 layer_factory.hpp:77] Creating layer downsample_9/3x3_s2/relu1
I0122 16:59:08.811038 64041 net.cpp:94] Creating Layer downsample_9/3x3_s2/relu1
I0122 16:59:08.811039 64041 net.cpp:435] downsample_9/3x3_s2/relu1 <- downsample_9/3x3_s2
I0122 16:59:08.811044 64041 net.cpp:396] downsample_9/3x3_s2/relu1 -> downsample_9/3x3_s2 (in-place)
I0122 16:59:08.811050 64041 net.cpp:144] Setting up downsample_9/3x3_s2/relu1
I0122 16:59:08.811072 64041 net.cpp:151] Top shape: 50 96 8 8 (307200)
I0122 16:59:08.811074 64041 net.cpp:159] Memory required for data: 512205800
I0122 16:59:08.811077 64041 layer_factory.hpp:77] Creating layer downsample_9/pool_s2
I0122 16:59:08.811084 64041 net.cpp:94] Creating Layer downsample_9/pool_s2
I0122 16:59:08.811087 64041 net.cpp:435] downsample_9/pool_s2 <- inception_8a/output_inception_8a/output_0_split_1
I0122 16:59:08.811092 64041 net.cpp:409] downsample_9/pool_s2 -> downsample_9/pool_s2
I0122 16:59:08.811121 64041 net.cpp:144] Setting up downsample_9/pool_s2
I0122 16:59:08.811126 64041 net.cpp:151] Top shape: 50 144 8 8 (460800)
I0122 16:59:08.811130 64041 net.cpp:159] Memory required for data: 514049000
I0122 16:59:08.811132 64041 layer_factory.hpp:77] Creating layer downsample_9/output
I0122 16:59:08.811139 64041 net.cpp:94] Creating Layer downsample_9/output
I0122 16:59:08.811146 64041 net.cpp:435] downsample_9/output <- downsample_9/3x3_s2
I0122 16:59:08.811148 64041 net.cpp:435] downsample_9/output <- downsample_9/pool_s2
I0122 16:59:08.811153 64041 net.cpp:409] downsample_9/output -> downsample_9/output
I0122 16:59:08.811169 64041 net.cpp:144] Setting up downsample_9/output
I0122 16:59:08.811175 64041 net.cpp:151] Top shape: 50 240 8 8 (768000)
I0122 16:59:08.811178 64041 net.cpp:159] Memory required for data: 517121000
I0122 16:59:08.811182 64041 layer_factory.hpp:77] Creating layer downsample_9/output_downsample_9/output_0_split
I0122 16:59:08.811187 64041 net.cpp:94] Creating Layer downsample_9/output_downsample_9/output_0_split
I0122 16:59:08.811189 64041 net.cpp:435] downsample_9/output_downsample_9/output_0_split <- downsample_9/output
I0122 16:59:08.811194 64041 net.cpp:409] downsample_9/output_downsample_9/output_0_split -> downsample_9/output_downsample_9/output_0_split_0
I0122 16:59:08.811200 64041 net.cpp:409] downsample_9/output_downsample_9/output_0_split -> downsample_9/output_downsample_9/output_0_split_1
I0122 16:59:08.811225 64041 net.cpp:144] Setting up downsample_9/output_downsample_9/output_0_split
I0122 16:59:08.811230 64041 net.cpp:151] Top shape: 50 240 8 8 (768000)
I0122 16:59:08.811234 64041 net.cpp:151] Top shape: 50 240 8 8 (768000)
I0122 16:59:08.811236 64041 net.cpp:159] Memory required for data: 523265000
I0122 16:59:08.811239 64041 layer_factory.hpp:77] Creating layer inception_10a/1x1
I0122 16:59:08.811247 64041 net.cpp:94] Creating Layer inception_10a/1x1
I0122 16:59:08.811250 64041 net.cpp:435] inception_10a/1x1 <- downsample_9/output_downsample_9/output_0_split_0
I0122 16:59:08.811255 64041 net.cpp:409] inception_10a/1x1 -> inception_10a/1x1
I0122 16:59:08.811704 64041 net.cpp:144] Setting up inception_10a/1x1
I0122 16:59:08.811712 64041 net.cpp:151] Top shape: 50 176 8 8 (563200)
I0122 16:59:08.811714 64041 net.cpp:159] Memory required for data: 525517800
I0122 16:59:08.811719 64041 layer_factory.hpp:77] Creating layer inception_10a/1x1/bn1
I0122 16:59:08.811727 64041 net.cpp:94] Creating Layer inception_10a/1x1/bn1
I0122 16:59:08.811740 64041 net.cpp:435] inception_10a/1x1/bn1 <- inception_10a/1x1
I0122 16:59:08.811748 64041 net.cpp:396] inception_10a/1x1/bn1 -> inception_10a/1x1 (in-place)
I0122 16:59:08.812372 64041 net.cpp:144] Setting up inception_10a/1x1/bn1
I0122 16:59:08.812378 64041 net.cpp:151] Top shape: 50 176 8 8 (563200)
I0122 16:59:08.812382 64041 net.cpp:159] Memory required for data: 527770600
I0122 16:59:08.812389 64041 layer_factory.hpp:77] Creating layer inception_10a/1x1/relu1
I0122 16:59:08.812394 64041 net.cpp:94] Creating Layer inception_10a/1x1/relu1
I0122 16:59:08.812397 64041 net.cpp:435] inception_10a/1x1/relu1 <- inception_10a/1x1
I0122 16:59:08.812402 64041 net.cpp:396] inception_10a/1x1/relu1 -> inception_10a/1x1 (in-place)
I0122 16:59:08.812408 64041 net.cpp:144] Setting up inception_10a/1x1/relu1
I0122 16:59:08.812412 64041 net.cpp:151] Top shape: 50 176 8 8 (563200)
I0122 16:59:08.812414 64041 net.cpp:159] Memory required for data: 530023400
I0122 16:59:08.812417 64041 layer_factory.hpp:77] Creating layer inception_10a/3x3
I0122 16:59:08.812425 64041 net.cpp:94] Creating Layer inception_10a/3x3
I0122 16:59:08.812430 64041 net.cpp:435] inception_10a/3x3 <- downsample_9/output_downsample_9/output_0_split_1
I0122 16:59:08.812436 64041 net.cpp:409] inception_10a/3x3 -> inception_10a/3x3
I0122 16:59:08.815471 64041 net.cpp:144] Setting up inception_10a/3x3
I0122 16:59:08.815485 64041 net.cpp:151] Top shape: 50 160 8 8 (512000)
I0122 16:59:08.815487 64041 net.cpp:159] Memory required for data: 532071400
I0122 16:59:08.815493 64041 layer_factory.hpp:77] Creating layer inception_10a/3x3/bn1
I0122 16:59:08.815501 64041 net.cpp:94] Creating Layer inception_10a/3x3/bn1
I0122 16:59:08.815505 64041 net.cpp:435] inception_10a/3x3/bn1 <- inception_10a/3x3
I0122 16:59:08.815510 64041 net.cpp:396] inception_10a/3x3/bn1 -> inception_10a/3x3 (in-place)
I0122 16:59:08.816133 64041 net.cpp:144] Setting up inception_10a/3x3/bn1
I0122 16:59:08.816141 64041 net.cpp:151] Top shape: 50 160 8 8 (512000)
I0122 16:59:08.816144 64041 net.cpp:159] Memory required for data: 534119400
I0122 16:59:08.816152 64041 layer_factory.hpp:77] Creating layer inception_10a/3x3/relu1
I0122 16:59:08.816157 64041 net.cpp:94] Creating Layer inception_10a/3x3/relu1
I0122 16:59:08.816161 64041 net.cpp:435] inception_10a/3x3/relu1 <- inception_10a/3x3
I0122 16:59:08.816165 64041 net.cpp:396] inception_10a/3x3/relu1 -> inception_10a/3x3 (in-place)
I0122 16:59:08.816172 64041 net.cpp:144] Setting up inception_10a/3x3/relu1
I0122 16:59:08.816175 64041 net.cpp:151] Top shape: 50 160 8 8 (512000)
I0122 16:59:08.816179 64041 net.cpp:159] Memory required for data: 536167400
I0122 16:59:08.816181 64041 layer_factory.hpp:77] Creating layer inception_10a/output
I0122 16:59:08.816186 64041 net.cpp:94] Creating Layer inception_10a/output
I0122 16:59:08.816190 64041 net.cpp:435] inception_10a/output <- inception_10a/1x1
I0122 16:59:08.816193 64041 net.cpp:435] inception_10a/output <- inception_10a/3x3
I0122 16:59:08.816197 64041 net.cpp:409] inception_10a/output -> inception_10a/output
I0122 16:59:08.816215 64041 net.cpp:144] Setting up inception_10a/output
I0122 16:59:08.816220 64041 net.cpp:151] Top shape: 50 336 8 8 (1075200)
I0122 16:59:08.816224 64041 net.cpp:159] Memory required for data: 540468200
I0122 16:59:08.816227 64041 layer_factory.hpp:77] Creating layer inception_10a/output_inception_10a/output_0_split
I0122 16:59:08.816232 64041 net.cpp:94] Creating Layer inception_10a/output_inception_10a/output_0_split
I0122 16:59:08.816236 64041 net.cpp:435] inception_10a/output_inception_10a/output_0_split <- inception_10a/output
I0122 16:59:08.816241 64041 net.cpp:409] inception_10a/output_inception_10a/output_0_split -> inception_10a/output_inception_10a/output_0_split_0
I0122 16:59:08.816246 64041 net.cpp:409] inception_10a/output_inception_10a/output_0_split -> inception_10a/output_inception_10a/output_0_split_1
I0122 16:59:08.816270 64041 net.cpp:144] Setting up inception_10a/output_inception_10a/output_0_split
I0122 16:59:08.816277 64041 net.cpp:151] Top shape: 50 336 8 8 (1075200)
I0122 16:59:08.816292 64041 net.cpp:151] Top shape: 50 336 8 8 (1075200)
I0122 16:59:08.816294 64041 net.cpp:159] Memory required for data: 549069800
I0122 16:59:08.816296 64041 layer_factory.hpp:77] Creating layer inception_11a/1x1
I0122 16:59:08.816304 64041 net.cpp:94] Creating Layer inception_11a/1x1
I0122 16:59:08.816310 64041 net.cpp:435] inception_11a/1x1 <- inception_10a/output_inception_10a/output_0_split_0
I0122 16:59:08.816315 64041 net.cpp:409] inception_11a/1x1 -> inception_11a/1x1
I0122 16:59:08.816853 64041 net.cpp:144] Setting up inception_11a/1x1
I0122 16:59:08.816860 64041 net.cpp:151] Top shape: 50 176 8 8 (563200)
I0122 16:59:08.816864 64041 net.cpp:159] Memory required for data: 551322600
I0122 16:59:08.816869 64041 layer_factory.hpp:77] Creating layer inception_11a/1x1/bn1
I0122 16:59:08.816875 64041 net.cpp:94] Creating Layer inception_11a/1x1/bn1
I0122 16:59:08.816879 64041 net.cpp:435] inception_11a/1x1/bn1 <- inception_11a/1x1
I0122 16:59:08.816885 64041 net.cpp:396] inception_11a/1x1/bn1 -> inception_11a/1x1 (in-place)
I0122 16:59:08.817499 64041 net.cpp:144] Setting up inception_11a/1x1/bn1
I0122 16:59:08.817505 64041 net.cpp:151] Top shape: 50 176 8 8 (563200)
I0122 16:59:08.817509 64041 net.cpp:159] Memory required for data: 553575400
I0122 16:59:08.817517 64041 layer_factory.hpp:77] Creating layer inception_11a/1x1/relu1
I0122 16:59:08.817523 64041 net.cpp:94] Creating Layer inception_11a/1x1/relu1
I0122 16:59:08.817525 64041 net.cpp:435] inception_11a/1x1/relu1 <- inception_11a/1x1
I0122 16:59:08.817529 64041 net.cpp:396] inception_11a/1x1/relu1 -> inception_11a/1x1 (in-place)
I0122 16:59:08.817536 64041 net.cpp:144] Setting up inception_11a/1x1/relu1
I0122 16:59:08.817539 64041 net.cpp:151] Top shape: 50 176 8 8 (563200)
I0122 16:59:08.817543 64041 net.cpp:159] Memory required for data: 555828200
I0122 16:59:08.817545 64041 layer_factory.hpp:77] Creating layer inception_11a/3x3
I0122 16:59:08.817553 64041 net.cpp:94] Creating Layer inception_11a/3x3
I0122 16:59:08.817557 64041 net.cpp:435] inception_11a/3x3 <- inception_10a/output_inception_10a/output_0_split_1
I0122 16:59:08.817564 64041 net.cpp:409] inception_11a/3x3 -> inception_11a/3x3
I0122 16:59:08.821300 64041 net.cpp:144] Setting up inception_11a/3x3
I0122 16:59:08.821316 64041 net.cpp:151] Top shape: 50 160 8 8 (512000)
I0122 16:59:08.821319 64041 net.cpp:159] Memory required for data: 557876200
I0122 16:59:08.821326 64041 layer_factory.hpp:77] Creating layer inception_11a/3x3/bn1
I0122 16:59:08.821352 64041 net.cpp:94] Creating Layer inception_11a/3x3/bn1
I0122 16:59:08.821357 64041 net.cpp:435] inception_11a/3x3/bn1 <- inception_11a/3x3
I0122 16:59:08.821367 64041 net.cpp:396] inception_11a/3x3/bn1 -> inception_11a/3x3 (in-place)
I0122 16:59:08.822005 64041 net.cpp:144] Setting up inception_11a/3x3/bn1
I0122 16:59:08.822012 64041 net.cpp:151] Top shape: 50 160 8 8 (512000)
I0122 16:59:08.822016 64041 net.cpp:159] Memory required for data: 559924200
I0122 16:59:08.822031 64041 layer_factory.hpp:77] Creating layer inception_11a/3x3/relu1
I0122 16:59:08.822037 64041 net.cpp:94] Creating Layer inception_11a/3x3/relu1
I0122 16:59:08.822041 64041 net.cpp:435] inception_11a/3x3/relu1 <- inception_11a/3x3
I0122 16:59:08.822046 64041 net.cpp:396] inception_11a/3x3/relu1 -> inception_11a/3x3 (in-place)
I0122 16:59:08.822052 64041 net.cpp:144] Setting up inception_11a/3x3/relu1
I0122 16:59:08.822057 64041 net.cpp:151] Top shape: 50 160 8 8 (512000)
I0122 16:59:08.822059 64041 net.cpp:159] Memory required for data: 561972200
I0122 16:59:08.822062 64041 layer_factory.hpp:77] Creating layer inception_11a/output
I0122 16:59:08.822067 64041 net.cpp:94] Creating Layer inception_11a/output
I0122 16:59:08.822069 64041 net.cpp:435] inception_11a/output <- inception_11a/1x1
I0122 16:59:08.822072 64041 net.cpp:435] inception_11a/output <- inception_11a/3x3
I0122 16:59:08.822078 64041 net.cpp:409] inception_11a/output -> inception_11a/output
I0122 16:59:08.822098 64041 net.cpp:144] Setting up inception_11a/output
I0122 16:59:08.822103 64041 net.cpp:151] Top shape: 50 336 8 8 (1075200)
I0122 16:59:08.822116 64041 net.cpp:159] Memory required for data: 566273000
I0122 16:59:08.822120 64041 layer_factory.hpp:77] Creating layer avg_pool_12/8x8_s1
I0122 16:59:08.822126 64041 net.cpp:94] Creating Layer avg_pool_12/8x8_s1
I0122 16:59:08.822129 64041 net.cpp:435] avg_pool_12/8x8_s1 <- inception_11a/output
I0122 16:59:08.822134 64041 net.cpp:409] avg_pool_12/8x8_s1 -> avg_pool_12/8x8_s1
I0122 16:59:08.822154 64041 net.cpp:144] Setting up avg_pool_12/8x8_s1
I0122 16:59:08.822158 64041 net.cpp:151] Top shape: 50 336 1 1 (16800)
I0122 16:59:08.822160 64041 net.cpp:159] Memory required for data: 566340200
I0122 16:59:08.822163 64041 layer_factory.hpp:77] Creating layer drop_8x8_s1
I0122 16:59:08.822170 64041 net.cpp:94] Creating Layer drop_8x8_s1
I0122 16:59:08.822171 64041 net.cpp:435] drop_8x8_s1 <- avg_pool_12/8x8_s1
I0122 16:59:08.822176 64041 net.cpp:396] drop_8x8_s1 -> avg_pool_12/8x8_s1 (in-place)
I0122 16:59:08.822192 64041 net.cpp:144] Setting up drop_8x8_s1
I0122 16:59:08.822198 64041 net.cpp:151] Top shape: 50 336 1 1 (16800)
I0122 16:59:08.822201 64041 net.cpp:159] Memory required for data: 566407400
I0122 16:59:08.822203 64041 layer_factory.hpp:77] Creating layer loss/classifier
I0122 16:59:08.822209 64041 net.cpp:94] Creating Layer loss/classifier
I0122 16:59:08.822212 64041 net.cpp:435] loss/classifier <- avg_pool_12/8x8_s1
I0122 16:59:08.822217 64041 net.cpp:409] loss/classifier -> loss/classifier
I0122 16:59:08.822376 64041 net.cpp:144] Setting up loss/classifier
I0122 16:59:08.822381 64041 net.cpp:151] Top shape: 50 10 (500)
I0122 16:59:08.822384 64041 net.cpp:159] Memory required for data: 566409400
I0122 16:59:08.822389 64041 layer_factory.hpp:77] Creating layer loss/classifier_loss/classifier_0_split
I0122 16:59:08.822396 64041 net.cpp:94] Creating Layer loss/classifier_loss/classifier_0_split
I0122 16:59:08.822398 64041 net.cpp:435] loss/classifier_loss/classifier_0_split <- loss/classifier
I0122 16:59:08.822403 64041 net.cpp:409] loss/classifier_loss/classifier_0_split -> loss/classifier_loss/classifier_0_split_0
I0122 16:59:08.822409 64041 net.cpp:409] loss/classifier_loss/classifier_0_split -> loss/classifier_loss/classifier_0_split_1
I0122 16:59:08.822415 64041 net.cpp:409] loss/classifier_loss/classifier_0_split -> loss/classifier_loss/classifier_0_split_2
I0122 16:59:08.822420 64041 net.cpp:409] loss/classifier_loss/classifier_0_split -> loss/classifier_loss/classifier_0_split_3
I0122 16:59:08.822466 64041 net.cpp:144] Setting up loss/classifier_loss/classifier_0_split
I0122 16:59:08.822471 64041 net.cpp:151] Top shape: 50 10 (500)
I0122 16:59:08.822475 64041 net.cpp:151] Top shape: 50 10 (500)
I0122 16:59:08.822479 64041 net.cpp:151] Top shape: 50 10 (500)
I0122 16:59:08.822481 64041 net.cpp:151] Top shape: 50 10 (500)
I0122 16:59:08.822484 64041 net.cpp:159] Memory required for data: 566417400
I0122 16:59:08.822486 64041 layer_factory.hpp:77] Creating layer loss
I0122 16:59:08.822491 64041 net.cpp:94] Creating Layer loss
I0122 16:59:08.822495 64041 net.cpp:435] loss <- loss/classifier_loss/classifier_0_split_0
I0122 16:59:08.822499 64041 net.cpp:435] loss <- label_data_1_split_0
I0122 16:59:08.822504 64041 net.cpp:409] loss -> loss
…
