…
I0122 18:31:55.884253 69145 net.cpp:323] The NetState phase (0) differed from the phase (1) specified by a rule in layer accuracy-top1
I0122 18:31:55.884254 69145 net.cpp:323] The NetState phase (0) differed from the phase (1) specified by a rule in layer accuracy-top5
I0122 18:31:55.884779 69145 net.cpp:52] Initializing net from parameters: 
state {
  phase: TRAIN
}
layer {
  name: "data"
  type: "Data"
  top: "data"
  top: "label"
  include {
    phase: TRAIN
  }
  transform_param {
    mirror: true
    mean_value: 104
    mean_value: 117
    mean_value: 123
  }
  data_param {
    source: "cifar10/input/lmdb/train_lmdb"
    batch_size: 128
    backend: LMDB
  }
}
layer {
  name: "conv1/3x3_s1"
  type: "Convolution"
  bottom: "data"
  top: "conv1/3x3_s1"
  param {
    lr_mult: 1
    decay_mult: 1
    compression: PRUNE
  }
  param {
    lr_mult: 2
    decay_mult: 0
    compression: PRUNE
  }
  convolution_param {
    num_output: 96
    pad: 1
    kernel_size: 3
    stride: 1
    weight_filler {
      type: "xavier"
      std: 0.1
    }
    bias_filler {
      type: "constant"
      value: 0.2
    }
  }
}
layer {
  name: "conv1/bn1"
  type: "BatchNorm"
  bottom: "conv1/3x3_s1"
  top: "conv1/3x3_s1"
  param {
    lr_mult: 1
    decay_mult: 0
    compression: PRUNE
  }
  param {
    lr_mult: 1
    decay_mult: 0
    compression: PRUNE
  }
  param {
    lr_mult: 0
    decay_mult: 0
    compression: PRUNE
  }
  param {
    lr_mult: 0
    decay_mult: 0
    compression: PRUNE
  }
  batch_norm_param {
    use_global_stats: false
    scale_filler {
      type: "constant"
      value: 1
    }
    bias_filler {
      type: "constant"
      value: 0
    }
  }
}
layer {
  name: "conv1/relu1"
  type: "ReLU"
  bottom: "conv1/3x3_s1"
  top: "conv1/3x3_s1"
}
layer {
  name: "inception_2a/1x1"
  type: "Convolution"
  bottom: "conv1/3x3_s1"
  top: "inception_2a/1x1"
  param {
    lr_mult: 1
    decay_mult: 1
    compression: PRUNE
  }
  param {
    lr_mult: 2
    decay_mult: 0
    compression: PRUNE
  }
  convolution_param {
    num_output: 32
    kernel_size: 1
    weight_filler {
      type: "xavier"
      std: 0.03
    }
    bias_filler {
      type: "constant"
      value: 0.2
    }
  }
}
layer {
  name: "inception_2a/1x1/bn1"
  type: "BatchNorm"
  bottom: "inception_2a/1x1"
  top: "inception_2a/1x1"
  param {
    lr_mult: 1
    decay_mult: 0
    compression: PRUNE
  }
  param {
    lr_mult: 1
    decay_mult: 0
    compression: PRUNE
  }
  param {
    lr_mult: 0
    decay_mult: 0
    compression: PRUNE
  }
  param {
    lr_mult: 0
    decay_mult: 0
    compression: PRUNE
  }
  batch_norm_param {
    use_global_stats: false
    scale_filler {
      type: "constant"
      value: 1
    }
    bias_filler {
      type: "constant"
      value: 0
    }
  }
}
layer {
  name: "inception_2a/1x1/relu1"
  type: "ReLU"
  bottom: "inception_2a/1x1"
  top: "inception_2a/1x1"
}
layer {
  name: "inception_2a/3x3"
  type: "Convolution"
  bottom: "conv1/3x3_s1"
  top: "inception_2a/3x3"
  param {
    lr_mult: 1
    decay_mult: 1
    compression: PRUNE
  }
  param {
    lr_mult: 2
    decay_mult: 0
    compression: PRUNE
  }
  convolution_param {
    num_output: 32
    pad: 1
    kernel_size: 3
    weight_filler {
      type: "xavier"
      std: 0.03
    }
    bias_filler {
      type: "constant"
      value: 0.2
    }
  }
}
layer {
  name: "inception_2a/3x3/bn1"
  type: "BatchNorm"
  bottom: "inception_2a/3x3"
  top: "inception_2a/3x3"
  param {
    lr_mult: 1
    decay_mult: 0
    compression: PRUNE
  }
  param {
    lr_mult: 1
    decay_mult: 0
    compression: PRUNE
  }
  param {
    lr_mult: 0
    decay_mult: 0
    compression: PRUNE
  }
  param {
    lr_mult: 0
    decay_mult: 0
    compression: PRUNE
  }
  batch_norm_param {
    use_global_stats: false
    scale_filler {
      type: "constant"
      value: 1
    }
    bias_filler {
      type: "constant"
      value: 0
    }
  }
}
layer {
  name: "inception_2a/3x3/relu1"
  type: "ReLU"
  bottom: "inception_2a/3x3"
  top: "inception_2a/3x3"
}
layer {
  name: "inception_2a/output"
  type: "Concat"
  bottom: "inception_2a/1x1"
  bottom: "inception_2a/3x3"
  top: "inception_2a/output"
}
layer {
  name: "inception_3a/1x1"
  type: "Convolution"
  bottom: "inception_2a/output"
  top: "inception_3a/1x1"
  param {
    lr_mult: 1
    decay_mult: 1
    compression: PRUNE
  }
  param {
    lr_mult: 2
    decay_mult: 0
    compression: PRUNE
  }
  convolution_param {
    num_output: 32
    kernel_size: 1
    weight_filler {
      type: "xavier"
      std: 0.03
    }
    bias_filler {
      type: "constant"
      value: 0.2
    }
  }
}
layer {
  name: "inception_3a/1x1/bn1"
  type: "BatchNorm"
  bottom: "inception_3a/1x1"
  top: "inception_3a/1x1"
  param {
    lr_mult: 1
    decay_mult: 0
    compression: PRUNE
  }
  param {
    lr_mult: 1
    decay_mult: 0
    compression: PRUNE
  }
  param {
    lr_mult: 0
    decay_mult: 0
    compression: PRUNE
  }
  param {
    lr_mult: 0
    decay_mult: 0
    compression: PRUNE
  }
  batch_norm_param {
    use_global_stats: false
    scale_filler {
      type: "constant"
      value: 1
    }
    bias_filler {
      type: "constant"
      value: 0
    }
  }
}
layer {
  name: "inception_3a/1x1/relu1"
  type: "ReLU"
  bottom: "inception_3a/1x1"
  top: "inception_3a/1x1"
}
layer {
  name: "inception_3a/3x3"
  type: "Convolution"
  bottom: "inception_2a/output"
  top: "inception_3a/3x3"
  param {
    lr_mult: 1
    decay_mult: 1
    compression: PRUNE
  }
  param {
    lr_mult: 2
    decay_mult: 0
    compression: PRUNE
  }
  convolution_param {
    num_output: 48
    pad: 1
    kernel_size: 3
    weight_filler {
      type: "xavier"
      std: 0.03
    }
    bias_filler {
      type: "constant"
      value: 0.2
    }
  }
}
layer {
  name: "inception_3a/3x3/bn1"
  type: "BatchNorm"
  bottom: "inception_3a/3x3"
  top: "inception_3a/3x3"
  param {
    lr_mult: 1
    decay_mult: 0
    compression: PRUNE
  }
  param {
    lr_mult: 1
    decay_mult: 0
    compression: PRUNE
  }
  param {
    lr_mult: 0
    decay_mult: 0
    compression: PRUNE
  }
  param {
    lr_mult: 0
    decay_mult: 0
    compression: PRUNE
  }
  batch_norm_param {
    use_global_stats: false
    scale_filler {
      type: "constant"
      value: 1
    }
    bias_filler {
      type: "constant"
      value: 0
    }
  }
}
layer {
  name: "inception_3a/3x3/relu1"
  type: "ReLU"
  bottom: "inception_3a/3x3"
  top: "inception_3a/3x3"
}
layer {
  name: "inception_3a/output"
  type: "Concat"
  bottom: "inception_3a/1x1"
  bottom: "inception_3a/3x3"
  top: "inception_3a/output"
}
layer {
  name: "downsample_4/3x3_s2"
  type: "Convolution"
  bottom: "inception_3a/output"
  top: "downsample_4/3x3_s2"
  param {
    lr_mult: 1
    decay_mult: 1
    compression: PRUNE
  }
  param {
    lr_mult: 2
    decay_mult: 0
    compression: PRUNE
  }
  convolution_param {
    num_output: 80
    pad: 1
    kernel_size: 3
    stride: 2
    weight_filler {
      type: "xavier"
      std: 0.03
    }
    bias_filler {
      type: "constant"
      value: 0.2
    }
  }
}
layer {
  name: "downsample_4/3x3_s2/bn1"
  type: "BatchNorm"
  bottom: "downsample_4/3x3_s2"
  top: "downsample_4/3x3_s2"
  param {
    lr_mult: 1
    decay_mult: 0
    compression: PRUNE
  }
  param {
    lr_mult: 1
    decay_mult: 0
    compression: PRUNE
  }
  param {
    lr_mult: 0
    decay_mult: 0
    compression: PRUNE
  }
  param {
    lr_mult: 0
    decay_mult: 0
    compression: PRUNE
  }
  batch_norm_param {
    use_global_stats: false
    scale_filler {
      type: "constant"
      value: 1
    }
    bias_filler {
      type: "constant"
      value: 0
    }
  }
}
layer {
  name: "downsample_4/3x3_s2/relu1"
  type: "ReLU"
  bottom: "downsample_4/3x3_s2"
  top: "downsample_4/3x3_s2"
}
layer {
  name: "downsample_4/pool_s2"
  type: "Pooling"
  bottom: "inception_3a/output"
  top: "downsample_4/pool_s2"
  pooling_param {
    pool: MAX
    kernel_size: 3
    stride: 2
  }
}
layer {
  name: "downsample_4/output"
  type: "Concat"
  bottom: "downsample_4/3x3_s2"
  bottom: "downsample_4/pool_s2"
  top: "downsample_4/output"
}
layer {
  name: "inception_5a/1x1"
  type: "Convolution"
  bottom: "downsample_4/output"
  top: "inception_5a/1x1"
  param {
    lr_mult: 1
    decay_mult: 1
    compression: PRUNE
  }
  param {
    lr_mult: 2
    decay_mult: 0
    compression: PRUNE
  }
  convolution_param {
    num_output: 112
    kernel_size: 1
    weight_filler {
      type: "xavier"
      std: 0.03
    }
    bias_filler {
      type: "constant"
      value: 0.2
    }
  }
}
layer {
  name: "inception_5a/1x1/bn1"
  type: "BatchNorm"
  bottom: "inception_5a/1x1"
  top: "inception_5a/1x1"
  param {
    lr_mult: 1
    decay_mult: 0
    compression: PRUNE
  }
  param {
    lr_mult: 1
    decay_mult: 0
    compression: PRUNE
  }
  param {
    lr_mult: 0
    decay_mult: 0
    compression: PRUNE
  }
  param {
    lr_mult: 0
    decay_mult: 0
    compression: PRUNE
  }
  batch_norm_param {
    use_global_stats: false
    scale_filler {
      type: "constant"
      value: 1
    }
    bias_filler {
      type: "constant"
      value: 0
    }
  }
}
layer {
  name: "inception_5a/1x1/relu1"
  type: "ReLU"
  bottom: "inception_5a/1x1"
  top: "inception_5a/1x1"
}
layer {
  name: "inception_5a/3x3"
  type: "Convolution"
  bottom: "downsample_4/output"
  top: "inception_5a/3x3"
  param {
    lr_mult: 1
    decay_mult: 1
    compression: PRUNE
  }
  param {
    lr_mult: 2
    decay_mult: 0
    compression: PRUNE
  }
  convolution_param {
    num_output: 48
    pad: 1
    kernel_size: 3
    weight_filler {
      type: "xavier"
      std: 0.03
    }
    bias_filler {
      type: "constant"
      value: 0.2
    }
  }
}
layer {
  name: "inception_5a/3x3/bn1"
  type: "BatchNorm"
  bottom: "inception_5a/3x3"
  top: "inception_5a/3x3"
  param {
    lr_mult: 1
    decay_mult: 0
    compression: PRUNE
  }
  param {
    lr_mult: 1
    decay_mult: 0
    compression: PRUNE
  }
  param {
    lr_mult: 0
    decay_mult: 0
    compression: PRUNE
  }
  param {
    lr_mult: 0
    decay_mult: 0
    compression: PRUNE
  }
  batch_norm_param {
    use_global_stats: false
    scale_filler {
      type: "constant"
      value: 1
    }
    bias_filler {
      type: "constant"
      value: 0
    }
  }
}
layer {
  name: "inception_5a/3x3/relu1"
  type: "ReLU"
  bottom: "inception_5a/3x3"
  top: "inception_5a/3x3"
}
layer {
  name: "inception_5a/output"
  type: "Concat"
  bottom: "inception_5a/1x1"
  bottom: "inception_5a/3x3"
  top: "inception_5a/output"
}
layer {
  name: "inception_6a/1x1"
  type: "Convolution"
  bottom: "inception_5a/output"
  top: "inception_6a/1x1"
  param {
    lr_mult: 1
    decay_mult: 1
    compression: PRUNE
  }
  param {
    lr_mult: 2
    decay_mult: 0
    compression: PRUNE
  }
  convolution_param {
    num_output: 96
    kernel_size: 1
    weight_filler {
      type: "xavier"
      std: 0.03
    }
    bias_filler {
      type: "constant"
      value: 0.2
    }
  }
}
layer {
  name: "inception_6a/1x1/bn1"
  type: "BatchNorm"
  bottom: "inception_6a/1x1"
  top: "inception_6a/1x1"
  param {
    lr_mult: 1
    decay_mult: 0
    compression: PRUNE
  }
  param {
    lr_mult: 1
    decay_mult: 0
    compression: PRUNE
  }
  param {
    lr_mult: 0
    decay_mult: 0
    compression: PRUNE
  }
  param {
    lr_mult: 0
    decay_mult: 0
    compression: PRUNE
  }
  batch_norm_param {
    use_global_stats: false
    scale_filler {
      type: "constant"
      value: 1
    }
    bias_filler {
      type: "constant"
      value: 0
    }
  }
}
layer {
  name: "inception_6a/1x1/relu1"
  type: "ReLU"
  bottom: "inception_6a/1x1"
  top: "inception_6a/1x1"
}
layer {
  name: "inception_6a/3x3"
  type: "Convolution"
  bottom: "inception_5a/output"
  top: "inception_6a/3x3"
  param {
    lr_mult: 1
    decay_mult: 1
    compression: PRUNE
  }
  param {
    lr_mult: 2
    decay_mult: 0
    compression: PRUNE
  }
  convolution_param {
    num_output: 64
    pad: 1
    kernel_size: 3
    weight_filler {
      type: "xavier"
      std: 0.03
    }
    bias_filler {
      type: "constant"
      value: 0.2
    }
  }
}
layer {
  name: "inception_6a/3x3/bn1"
  type: "BatchNorm"
  bottom: "inception_6a/3x3"
  top: "inception_6a/3x3"
  param {
    lr_mult: 1
    decay_mult: 0
    compression: PRUNE
  }
  param {
    lr_mult: 1
    decay_mult: 0
    compression: PRUNE
  }
  param {
    lr_mult: 0
    decay_mult: 0
    compression: PRUNE
  }
  param {
    lr_mult: 0
    decay_mult: 0
    compression: PRUNE
  }
  batch_norm_param {
    use_global_stats: false
    scale_filler {
      type: "constant"
      value: 1
    }
    bias_filler {
      type: "constant"
      value: 0
    }
  }
}
layer {
  name: "inception_6a/3x3/relu1"
  type: "ReLU"
  bottom: "inception_6a/3x3"
  top: "inception_6a/3x3"
}
layer {
  name: "inception_6a/output"
  type: "Concat"
  bottom: "inception_6a/1x1"
  bottom: "inception_6a/3x3"
  top: "inception_6a/output"
}
layer {
  name: "inception_7a/1x1"
  type: "Convolution"
  bottom: "inception_6a/output"
  top: "inception_7a/1x1"
  param {
    lr_mult: 1
    decay_mult: 1
    compression: PRUNE
  }
  param {
    lr_mult: 2
    decay_mult: 0
    compression: PRUNE
  }
  convolution_param {
    num_output: 80
    kernel_size: 1
    weight_filler {
      type: "xavier"
      std: 0.03
    }
    bias_filler {
      type: "constant"
      value: 0.2
    }
  }
}
layer {
  name: "inception_7a/1x1/bn1"
  type: "BatchNorm"
  bottom: "inception_7a/1x1"
  top: "inception_7a/1x1"
  param {
    lr_mult: 1
    decay_mult: 0
    compression: PRUNE
  }
  param {
    lr_mult: 1
    decay_mult: 0
    compression: PRUNE
  }
  param {
    lr_mult: 0
    decay_mult: 0
    compression: PRUNE
  }
  param {
    lr_mult: 0
    decay_mult: 0
    compression: PRUNE
  }
  batch_norm_param {
    use_global_stats: false
    scale_filler {
      type: "constant"
      value: 1
    }
    bias_filler {
      type: "constant"
      value: 0
    }
  }
}
layer {
  name: "inception_7a/1x1/relu1"
  type: "ReLU"
  bottom: "inception_7a/1x1"
  top: "inception_7a/1x1"
}
layer {
  name: "inception_7a/3x3"
  type: "Convolution"
  bottom: "inception_6a/output"
  top: "inception_7a/3x3"
  param {
    lr_mult: 1
    decay_mult: 1
    compression: PRUNE
  }
  param {
    lr_mult: 2
    decay_mult: 0
    compression: PRUNE
  }
  convolution_param {
    num_output: 80
    pad: 1
    kernel_size: 3
    weight_filler {
      type: "xavier"
      std: 0.03
    }
    bias_filler {
      type: "constant"
      value: 0.2
    }
  }
}
layer {
  name: "inception_7a/3x3/bn1"
  type: "BatchNorm"
  bottom: "inception_7a/3x3"
  top: "inception_7a/3x3"
  param {
    lr_mult: 1
    decay_mult: 0
    compression: PRUNE
  }
  param {
    lr_mult: 1
    decay_mult: 0
    compression: PRUNE
  }
  param {
    lr_mult: 0
    decay_mult: 0
    compression: PRUNE
  }
  param {
    lr_mult: 0
    decay_mult: 0
    compression: PRUNE
  }
  batch_norm_param {
    use_global_stats: false
    scale_filler {
      type: "constant"
      value: 1
    }
    bias_filler {
      type: "constant"
      value: 0
    }
  }
}
layer {
  name: "inception_7a/3x3/relu1"
  type: "ReLU"
  bottom: "inception_7a/3x3"
  top: "inception_7a/3x3"
}
layer {
  name: "inception_7a/output"
  type: "Concat"
  bottom: "inception_7a/1x1"
  bottom: "inception_7a/3x3"
  top: "inception_7a/output"
}
layer {
  name: "inception_8a/1x1"
  type: "Convolution"
  bottom: "inception_7a/output"
  top: "inception_8a/1x1"
  param {
    lr_mult: 1
    decay_mult: 1
    compression: PRUNE
  }
  param {
    lr_mult: 2
    decay_mult: 0
    compression: PRUNE
  }
  convolution_param {
    num_output: 48
    kernel_size: 1
    weight_filler {
      type: "xavier"
      std: 0.03
    }
    bias_filler {
      type: "constant"
      value: 0.2
    }
  }
}
layer {
  name: "inception_8a/1x1/bn1"
  type: "BatchNorm"
  bottom: "inception_8a/1x1"
  top: "inception_8a/1x1"
  param {
    lr_mult: 1
    decay_mult: 0
    compression: PRUNE
  }
  param {
    lr_mult: 1
    decay_mult: 0
    compression: PRUNE
  }
  param {
    lr_mult: 0
    decay_mult: 0
    compression: PRUNE
  }
  param {
    lr_mult: 0
    decay_mult: 0
    compression: PRUNE
  }
  batch_norm_param {
    use_global_stats: false
    scale_filler {
      type: "constant"
      value: 1
    }
    bias_filler {
      type: "constant"
      value: 0
    }
  }
}
layer {
  name: "inception_8a/1x1/relu1"
  type: "ReLU"
  bottom: "inception_8a/1x1"
  top: "inception_8a/1x1"
}
layer {
  name: "inception_8a/3x3"
  type: "Convolution"
  bottom: "inception_7a/output"
  top: "inception_8a/3x3"
  param {
    lr_mult: 1
    decay_mult: 1
    compression: PRUNE
  }
  param {
    lr_mult: 2
    decay_mult: 0
    compression: PRUNE
  }
  convolution_param {
    num_output: 96
    pad: 1
    kernel_size: 3
    weight_filler {
      type: "xavier"
      std: 0.03
    }
    bias_filler {
      type: "constant"
      value: 0.2
    }
  }
}
layer {
  name: "inception_8a/3x3/bn1"
  type: "BatchNorm"
  bottom: "inception_8a/3x3"
  top: "inception_8a/3x3"
  param {
    lr_mult: 1
    decay_mult: 0
    compression: PRUNE
  }
  param {
    lr_mult: 1
    decay_mult: 0
    compression: PRUNE
  }
  param {
    lr_mult: 0
    decay_mult: 0
    compression: PRUNE
  }
  param {
    lr_mult: 0
    decay_mult: 0
    compression: PRUNE
  }
  batch_norm_param {
    use_global_stats: false
    scale_filler {
      type: "constant"
      value: 1
    }
    bias_filler {
      type: "constant"
      value: 0
    }
  }
}
layer {
  name: "inception_8a/3x3/relu1"
  type: "ReLU"
  bottom: "inception_8a/3x3"
  top: "inception_8a/3x3"
}
layer {
  name: "inception_8a/output"
  type: "Concat"
  bottom: "inception_8a/1x1"
  bottom: "inception_8a/3x3"
  top: "inception_8a/output"
}
layer {
  name: "downsample_9/3x3_s2"
  type: "Convolution"
  bottom: "inception_8a/output"
  top: "downsample_9/3x3_s2"
  param {
    lr_mult: 1
    decay_mult: 1
    compression: PRUNE
  }
  param {
    lr_mult: 2
    decay_mult: 0
    compression: PRUNE
  }
  convolution_param {
    num_output: 96
    pad: 1
    kernel_size: 3
    stride: 2
    weight_filler {
      type: "xavier"
      std: 0.03
    }
    bias_filler {
      type: "constant"
      value: 0.2
    }
  }
}
layer {
  name: "downsample_9/3x3_s2/bn1"
  type: "BatchNorm"
  bottom: "downsample_9/3x3_s2"
  top: "downsample_9/3x3_s2"
  param {
    lr_mult: 1
    decay_mult: 0
    compression: PRUNE
  }
  param {
    lr_mult: 1
    decay_mult: 0
    compression: PRUNE
  }
  param {
    lr_mult: 0
    decay_mult: 0
    compression: PRUNE
  }
  param {
    lr_mult: 0
    decay_mult: 0
    compression: PRUNE
  }
  batch_norm_param {
    use_global_stats: false
    scale_filler {
      type: "constant"
      value: 1
    }
    bias_filler {
      type: "constant"
      value: 0
    }
  }
}
layer {
  name: "downsample_9/3x3_s2/relu1"
  type: "ReLU"
  bottom: "downsample_9/3x3_s2"
  top: "downsample_9/3x3_s2"
}
layer {
  name: "downsample_9/pool_s2"
  type: "Pooling"
  bottom: "inception_8a/output"
  top: "downsample_9/pool_s2"
  pooling_param {
    pool: MAX
    kernel_size: 3
    stride: 2
  }
}
layer {
  name: "downsample_9/output"
  type: "Concat"
  bottom: "downsample_9/3x3_s2"
  bottom: "downsample_9/pool_s2"
  top: "downsample_9/output"
}
layer {
  name: "inception_10a/1x1"
  type: "Convolution"
  bottom: "downsample_9/output"
  top: "inception_10a/1x1"
  param {
    lr_mult: 1
    decay_mult: 1
    compression: PRUNE
  }
  param {
    lr_mult: 2
    decay_mult: 0
    compression: PRUNE
  }
  convolution_param {
    num_output: 176
    kernel_size: 1
    weight_filler {
      type: "xavier"
      std: 0.03
    }
    bias_filler {
      type: "constant"
      value: 0.2
    }
  }
}
layer {
  name: "inception_10a/1x1/bn1"
  type: "BatchNorm"
  bottom: "inception_10a/1x1"
  top: "inception_10a/1x1"
  param {
    lr_mult: 1
    decay_mult: 0
    compression: PRUNE
  }
  param {
    lr_mult: 1
    decay_mult: 0
    compression: PRUNE
  }
  param {
    lr_mult: 0
    decay_mult: 0
    compression: PRUNE
  }
  param {
    lr_mult: 0
    decay_mult: 0
    compression: PRUNE
  }
  batch_norm_param {
    use_global_stats: false
    scale_filler {
      type: "constant"
      value: 1
    }
    bias_filler {
      type: "constant"
      value: 0
    }
  }
}
layer {
  name: "inception_10a/1x1/relu1"
  type: "ReLU"
  bottom: "inception_10a/1x1"
  top: "inception_10a/1x1"
}
layer {
  name: "inception_10a/3x3"
  type: "Convolution"
  bottom: "downsample_9/output"
  top: "inception_10a/3x3"
  param {
    lr_mult: 1
    decay_mult: 1
    compression: PRUNE
  }
  param {
    lr_mult: 2
    decay_mult: 0
    compression: PRUNE
  }
  convolution_param {
    num_output: 160
    pad: 1
    kernel_size: 3
    weight_filler {
      type: "xavier"
      std: 0.03
    }
    bias_filler {
      type: "constant"
      value: 0.2
    }
  }
}
layer {
  name: "inception_10a/3x3/bn1"
  type: "BatchNorm"
  bottom: "inception_10a/3x3"
  top: "inception_10a/3x3"
  param {
    lr_mult: 1
    decay_mult: 0
    compression: PRUNE
  }
  param {
    lr_mult: 1
    decay_mult: 0
    compression: PRUNE
  }
  param {
    lr_mult: 0
    decay_mult: 0
    compression: PRUNE
  }
  param {
    lr_mult: 0
    decay_mult: 0
    compression: PRUNE
  }
  batch_norm_param {
    use_global_stats: false
    scale_filler {
      type: "constant"
      value: 1
    }
    bias_filler {
      type: "constant"
      value: 0
    }
  }
}
layer {
  name: "inception_10a/3x3/relu1"
  type: "ReLU"
  bottom: "inception_10a/3x3"
  top: "inception_10a/3x3"
}
layer {
  name: "inception_10a/output"
  type: "Concat"
  bottom: "inception_10a/1x1"
  bottom: "inception_10a/3x3"
  top: "inception_10a/output"
}
layer {
  name: "inception_11a/1x1"
  type: "Convolution"
  bottom: "inception_10a/output"
  top: "inception_11a/1x1"
  param {
    lr_mult: 1
    decay_mult: 1
    compression: PRUNE
  }
  param {
    lr_mult: 2
    decay_mult: 0
    compression: PRUNE
  }
  convolution_param {
    num_output: 176
    kernel_size: 1
    weight_filler {
      type: "xavier"
      std: 0.03
    }
    bias_filler {
      type: "constant"
      value: 0.2
    }
  }
}
layer {
  name: "inception_11a/1x1/bn1"
  type: "BatchNorm"
  bottom: "inception_11a/1x1"
  top: "inception_11a/1x1"
  param {
    lr_mult: 1
    decay_mult: 0
    compression: PRUNE
  }
  param {
    lr_mult: 1
    decay_mult: 0
    compression: PRUNE
  }
  param {
    lr_mult: 0
    decay_mult: 0
    compression: PRUNE
  }
  param {
    lr_mult: 0
    decay_mult: 0
    compression: PRUNE
  }
  batch_norm_param {
    use_global_stats: false
    scale_filler {
      type: "constant"
      value: 1
    }
    bias_filler {
      type: "constant"
      value: 0
    }
  }
}
layer {
  name: "inception_11a/1x1/relu1"
  type: "ReLU"
  bottom: "inception_11a/1x1"
  top: "inception_11a/1x1"
}
layer {
  name: "inception_11a/3x3"
  type: "Convolution"
  bottom: "inception_10a/output"
  top: "inception_11a/3x3"
  param {
    lr_mult: 1
    decay_mult: 1
    compression: PRUNE
  }
  param {
    lr_mult: 2
    decay_mult: 0
    compression: PRUNE
  }
  convolution_param {
    num_output: 160
    pad: 1
    kernel_size: 3
    weight_filler {
      type: "xavier"
      std: 0.03
    }
    bias_filler {
      type: "constant"
      value: 0.2
    }
  }
}
layer {
  name: "inception_11a/3x3/bn1"
  type: "BatchNorm"
  bottom: "inception_11a/3x3"
  top: "inception_11a/3x3"
  param {
    lr_mult: 1
    decay_mult: 0
    compression: PRUNE
  }
  param {
    lr_mult: 1
    decay_mult: 0
    compression: PRUNE
  }
  param {
    lr_mult: 0
    decay_mult: 0
    compression: PRUNE
  }
  param {
    lr_mult: 0
    decay_mult: 0
    compression: PRUNE
  }
  batch_norm_param {
    use_global_stats: false
    scale_filler {
      type: "constant"
      value: 1
    }
    bias_filler {
      type: "constant"
      value: 0
    }
  }
}
layer {
  name: "inception_11a/3x3/relu1"
  type: "ReLU"
  bottom: "inception_11a/3x3"
  top: "inception_11a/3x3"
}
layer {
  name: "inception_11a/output"
  type: "Concat"
  bottom: "inception_11a/1x1"
  bottom: "inception_11a/3x3"
  top: "inception_11a/output"
}
layer {
  name: "avg_pool_12/8x8_s1"
  type: "Pooling"
  bottom: "inception_11a/output"
  top: "avg_pool_12/8x8_s1"
  pooling_param {
    pool: AVE
    kernel_size: 8
    stride: 1
  }
}
layer {
  name: "drop_8x8_s1"
  type: "Dropout"
  bottom: "avg_pool_12/8x8_s1"
  top: "avg_pool_12/8x8_s1"
  dropout_param {
    dropout_ratio: 0.5
  }
}
layer {
  name: "loss/classifier"
  type: "InnerProduct"
  bottom: "avg_pool_12/8x8_s1"
  top: "loss/classifier"
  param {
    lr_mult: 1
    decay_mult: 1
  }
  param {
    lr_mult: 2
    decay_mult: 0
  }
  inner_product_param {
    num_output: 10
    weight_filler {
      type: "xavier"
    }
    bias_filler {
      type: "constant"
      value: 1
    }
  }
}
layer {
  name: "loss"
  type: "SoftmaxWithLoss"
  bottom: "loss/classifier"
  bottom: "label"
  top: "loss"
}
I0122 18:31:55.885087 69145 layer_factory.hpp:77] Creating layer data
I0122 18:31:55.885183 69145 internal_thread.cpp:27] Starting internal thread(s) on GPU 0
I0122 18:31:55.886036 69145 net.cpp:94] Creating Layer data
I0122 18:31:55.886047 69145 net.cpp:409] data -> data
I0122 18:31:55.886057 69145 net.cpp:409] data -> label
I0122 18:31:55.887524 69184 db_lmdb.cpp:35] Opened lmdb cifar10/input/lmdb/train_lmdb
I0122 18:31:55.887571 69184 data_reader.cpp:117] TRAIN: reading data using 1 channel(s)
I0122 18:31:55.887667 69145 data_layer.cpp:78] ReshapePrefetch 128, 3, 32, 32
I0122 18:31:55.887874 69145 data_layer.cpp:83] output data size: 128,3,32,32
I0122 18:31:55.895584 69145 internal_thread.cpp:27] Starting internal thread(s) on GPU 0
I0122 18:31:55.895624 69145 net.cpp:144] Setting up data
I0122 18:31:55.895632 69145 net.cpp:151] Top shape: 128 3 32 32 (393216)
I0122 18:31:55.895635 69145 net.cpp:151] Top shape: 128 (128)
I0122 18:31:55.895637 69145 net.cpp:159] Memory required for data: 1573376
I0122 18:31:55.895642 69145 layer_factory.hpp:77] Creating layer conv1/3x3_s1
I0122 18:31:55.895654 69145 net.cpp:94] Creating Layer conv1/3x3_s1
I0122 18:31:55.895658 69145 net.cpp:435] conv1/3x3_s1 <- data
I0122 18:31:55.895671 69145 net.cpp:409] conv1/3x3_s1 -> conv1/3x3_s1
I0122 18:31:55.897261 69145 net.cpp:144] Setting up conv1/3x3_s1
I0122 18:31:55.897272 69145 net.cpp:151] Top shape: 128 96 32 32 (12582912)
I0122 18:31:55.897275 69145 net.cpp:159] Memory required for data: 51905024
I0122 18:31:55.897289 69145 layer_factory.hpp:77] Creating layer conv1/bn1
I0122 18:31:55.897298 69145 net.cpp:94] Creating Layer conv1/bn1
I0122 18:31:55.897301 69145 net.cpp:435] conv1/bn1 <- conv1/3x3_s1
I0122 18:31:55.897307 69145 net.cpp:396] conv1/bn1 -> conv1/3x3_s1 (in-place)
I0122 18:31:55.897943 69145 net.cpp:144] Setting up conv1/bn1
I0122 18:31:55.897950 69145 net.cpp:151] Top shape: 128 96 32 32 (12582912)
I0122 18:31:55.897953 69145 net.cpp:159] Memory required for data: 102236672
I0122 18:31:55.897965 69145 layer_factory.hpp:77] Creating layer conv1/relu1
I0122 18:31:55.897971 69145 net.cpp:94] Creating Layer conv1/relu1
I0122 18:31:55.897984 69145 net.cpp:435] conv1/relu1 <- conv1/3x3_s1
I0122 18:31:55.897994 69145 net.cpp:396] conv1/relu1 -> conv1/3x3_s1 (in-place)
I0122 18:31:55.898007 69145 net.cpp:144] Setting up conv1/relu1
I0122 18:31:55.898026 69145 net.cpp:151] Top shape: 128 96 32 32 (12582912)
I0122 18:31:55.898028 69145 net.cpp:159] Memory required for data: 152568320
I0122 18:31:55.898031 69145 layer_factory.hpp:77] Creating layer conv1/3x3_s1_conv1/relu1_0_split
I0122 18:31:55.898038 69145 net.cpp:94] Creating Layer conv1/3x3_s1_conv1/relu1_0_split
I0122 18:31:55.898043 69145 net.cpp:435] conv1/3x3_s1_conv1/relu1_0_split <- conv1/3x3_s1
I0122 18:31:55.898051 69145 net.cpp:409] conv1/3x3_s1_conv1/relu1_0_split -> conv1/3x3_s1_conv1/relu1_0_split_0
I0122 18:31:55.898062 69145 net.cpp:409] conv1/3x3_s1_conv1/relu1_0_split -> conv1/3x3_s1_conv1/relu1_0_split_1
I0122 18:31:55.898102 69145 net.cpp:144] Setting up conv1/3x3_s1_conv1/relu1_0_split
I0122 18:31:55.898108 69145 net.cpp:151] Top shape: 128 96 32 32 (12582912)
I0122 18:31:55.898110 69145 net.cpp:151] Top shape: 128 96 32 32 (12582912)
I0122 18:31:55.898113 69145 net.cpp:159] Memory required for data: 253231616
I0122 18:31:55.898118 69145 layer_factory.hpp:77] Creating layer inception_2a/1x1
I0122 18:31:55.898128 69145 net.cpp:94] Creating Layer inception_2a/1x1
I0122 18:31:55.898134 69145 net.cpp:435] inception_2a/1x1 <- conv1/3x3_s1_conv1/relu1_0_split_0
I0122 18:31:55.898144 69145 net.cpp:409] inception_2a/1x1 -> inception_2a/1x1
I0122 18:31:55.898972 69145 net.cpp:144] Setting up inception_2a/1x1
I0122 18:31:55.898979 69145 net.cpp:151] Top shape: 128 32 32 32 (4194304)
I0122 18:31:55.898982 69145 net.cpp:159] Memory required for data: 270008832
I0122 18:31:55.898988 69145 layer_factory.hpp:77] Creating layer inception_2a/1x1/bn1
I0122 18:31:55.898999 69145 net.cpp:94] Creating Layer inception_2a/1x1/bn1
I0122 18:31:55.899005 69145 net.cpp:435] inception_2a/1x1/bn1 <- inception_2a/1x1
I0122 18:31:55.899015 69145 net.cpp:396] inception_2a/1x1/bn1 -> inception_2a/1x1 (in-place)
I0122 18:31:55.899776 69145 net.cpp:144] Setting up inception_2a/1x1/bn1
I0122 18:31:55.899785 69145 net.cpp:151] Top shape: 128 32 32 32 (4194304)
I0122 18:31:55.899788 69145 net.cpp:159] Memory required for data: 286786048
I0122 18:31:55.899796 69145 layer_factory.hpp:77] Creating layer inception_2a/1x1/relu1
I0122 18:31:55.899806 69145 net.cpp:94] Creating Layer inception_2a/1x1/relu1
I0122 18:31:55.899811 69145 net.cpp:435] inception_2a/1x1/relu1 <- inception_2a/1x1
I0122 18:31:55.899817 69145 net.cpp:396] inception_2a/1x1/relu1 -> inception_2a/1x1 (in-place)
I0122 18:31:55.899827 69145 net.cpp:144] Setting up inception_2a/1x1/relu1
I0122 18:31:55.899832 69145 net.cpp:151] Top shape: 128 32 32 32 (4194304)
I0122 18:31:55.899840 69145 net.cpp:159] Memory required for data: 303563264
I0122 18:31:55.899844 69145 layer_factory.hpp:77] Creating layer inception_2a/3x3
I0122 18:31:55.899858 69145 net.cpp:94] Creating Layer inception_2a/3x3
I0122 18:31:55.899864 69145 net.cpp:435] inception_2a/3x3 <- conv1/3x3_s1_conv1/relu1_0_split_1
I0122 18:31:55.899873 69145 net.cpp:409] inception_2a/3x3 -> inception_2a/3x3
I0122 18:31:55.901126 69145 net.cpp:144] Setting up inception_2a/3x3
I0122 18:31:55.901137 69145 net.cpp:151] Top shape: 128 32 32 32 (4194304)
I0122 18:31:55.901140 69145 net.cpp:159] Memory required for data: 320340480
I0122 18:31:55.901149 69145 layer_factory.hpp:77] Creating layer inception_2a/3x3/bn1
I0122 18:31:55.901165 69145 net.cpp:94] Creating Layer inception_2a/3x3/bn1
I0122 18:31:55.901172 69145 net.cpp:435] inception_2a/3x3/bn1 <- inception_2a/3x3
I0122 18:31:55.901183 69145 net.cpp:396] inception_2a/3x3/bn1 -> inception_2a/3x3 (in-place)
I0122 18:31:55.901924 69145 net.cpp:144] Setting up inception_2a/3x3/bn1
I0122 18:31:55.901932 69145 net.cpp:151] Top shape: 128 32 32 32 (4194304)
I0122 18:31:55.901935 69145 net.cpp:159] Memory required for data: 337117696
I0122 18:31:55.901950 69145 layer_factory.hpp:77] Creating layer inception_2a/3x3/relu1
I0122 18:31:55.901962 69145 net.cpp:94] Creating Layer inception_2a/3x3/relu1
I0122 18:31:55.901965 69145 net.cpp:435] inception_2a/3x3/relu1 <- inception_2a/3x3
I0122 18:31:55.901973 69145 net.cpp:396] inception_2a/3x3/relu1 -> inception_2a/3x3 (in-place)
I0122 18:31:55.901993 69145 net.cpp:144] Setting up inception_2a/3x3/relu1
I0122 18:31:55.901998 69145 net.cpp:151] Top shape: 128 32 32 32 (4194304)
I0122 18:31:55.902002 69145 net.cpp:159] Memory required for data: 353894912
I0122 18:31:55.902005 69145 layer_factory.hpp:77] Creating layer inception_2a/output
I0122 18:31:55.902012 69145 net.cpp:94] Creating Layer inception_2a/output
I0122 18:31:55.902019 69145 net.cpp:435] inception_2a/output <- inception_2a/1x1
I0122 18:31:55.902031 69145 net.cpp:435] inception_2a/output <- inception_2a/3x3
I0122 18:31:55.902040 69145 net.cpp:409] inception_2a/output -> inception_2a/output
I0122 18:31:55.902067 69145 net.cpp:144] Setting up inception_2a/output
I0122 18:31:55.902074 69145 net.cpp:151] Top shape: 128 64 32 32 (8388608)
I0122 18:31:55.902076 69145 net.cpp:159] Memory required for data: 387449344
I0122 18:31:55.902079 69145 layer_factory.hpp:77] Creating layer inception_2a/output_inception_2a/output_0_split
I0122 18:31:55.902084 69145 net.cpp:94] Creating Layer inception_2a/output_inception_2a/output_0_split
I0122 18:31:55.902091 69145 net.cpp:435] inception_2a/output_inception_2a/output_0_split <- inception_2a/output
I0122 18:31:55.902099 69145 net.cpp:409] inception_2a/output_inception_2a/output_0_split -> inception_2a/output_inception_2a/output_0_split_0
I0122 18:31:55.902110 69145 net.cpp:409] inception_2a/output_inception_2a/output_0_split -> inception_2a/output_inception_2a/output_0_split_1
I0122 18:31:55.902148 69145 net.cpp:144] Setting up inception_2a/output_inception_2a/output_0_split
I0122 18:31:55.902155 69145 net.cpp:151] Top shape: 128 64 32 32 (8388608)
I0122 18:31:55.902159 69145 net.cpp:151] Top shape: 128 64 32 32 (8388608)
I0122 18:31:55.902163 69145 net.cpp:159] Memory required for data: 454558208
I0122 18:31:55.902166 69145 layer_factory.hpp:77] Creating layer inception_3a/1x1
I0122 18:31:55.902180 69145 net.cpp:94] Creating Layer inception_3a/1x1
I0122 18:31:55.902186 69145 net.cpp:435] inception_3a/1x1 <- inception_2a/output_inception_2a/output_0_split_0
I0122 18:31:55.902195 69145 net.cpp:409] inception_3a/1x1 -> inception_3a/1x1
I0122 18:31:55.902437 69145 net.cpp:144] Setting up inception_3a/1x1
I0122 18:31:55.902444 69145 net.cpp:151] Top shape: 128 32 32 32 (4194304)
I0122 18:31:55.902447 69145 net.cpp:159] Memory required for data: 471335424
I0122 18:31:55.902452 69145 layer_factory.hpp:77] Creating layer inception_3a/1x1/bn1
I0122 18:31:55.902462 69145 net.cpp:94] Creating Layer inception_3a/1x1/bn1
I0122 18:31:55.902467 69145 net.cpp:435] inception_3a/1x1/bn1 <- inception_3a/1x1
I0122 18:31:55.902477 69145 net.cpp:396] inception_3a/1x1/bn1 -> inception_3a/1x1 (in-place)
I0122 18:31:55.903133 69145 net.cpp:144] Setting up inception_3a/1x1/bn1
I0122 18:31:55.903141 69145 net.cpp:151] Top shape: 128 32 32 32 (4194304)
I0122 18:31:55.903144 69145 net.cpp:159] Memory required for data: 488112640
I0122 18:31:55.903151 69145 layer_factory.hpp:77] Creating layer inception_3a/1x1/relu1
I0122 18:31:55.903156 69145 net.cpp:94] Creating Layer inception_3a/1x1/relu1
I0122 18:31:55.903159 69145 net.cpp:435] inception_3a/1x1/relu1 <- inception_3a/1x1
I0122 18:31:55.903170 69145 net.cpp:396] inception_3a/1x1/relu1 -> inception_3a/1x1 (in-place)
I0122 18:31:55.903179 69145 net.cpp:144] Setting up inception_3a/1x1/relu1
I0122 18:31:55.903187 69145 net.cpp:151] Top shape: 128 32 32 32 (4194304)
I0122 18:31:55.903190 69145 net.cpp:159] Memory required for data: 504889856
I0122 18:31:55.903195 69145 layer_factory.hpp:77] Creating layer inception_3a/3x3
I0122 18:31:55.903210 69145 net.cpp:94] Creating Layer inception_3a/3x3
I0122 18:31:55.903218 69145 net.cpp:435] inception_3a/3x3 <- inception_2a/output_inception_2a/output_0_split_1
I0122 18:31:55.903225 69145 net.cpp:409] inception_3a/3x3 -> inception_3a/3x3
I0122 18:31:55.903643 69145 net.cpp:144] Setting up inception_3a/3x3
I0122 18:31:55.903650 69145 net.cpp:151] Top shape: 128 48 32 32 (6291456)
I0122 18:31:55.903653 69145 net.cpp:159] Memory required for data: 530055680
I0122 18:31:55.903666 69145 layer_factory.hpp:77] Creating layer inception_3a/3x3/bn1
I0122 18:31:55.903678 69145 net.cpp:94] Creating Layer inception_3a/3x3/bn1
I0122 18:31:55.903686 69145 net.cpp:435] inception_3a/3x3/bn1 <- inception_3a/3x3
I0122 18:31:55.903694 69145 net.cpp:396] inception_3a/3x3/bn1 -> inception_3a/3x3 (in-place)
I0122 18:31:55.904356 69145 net.cpp:144] Setting up inception_3a/3x3/bn1
I0122 18:31:55.904363 69145 net.cpp:151] Top shape: 128 48 32 32 (6291456)
I0122 18:31:55.904367 69145 net.cpp:159] Memory required for data: 555221504
I0122 18:31:55.904381 69145 layer_factory.hpp:77] Creating layer inception_3a/3x3/relu1
I0122 18:31:55.904393 69145 net.cpp:94] Creating Layer inception_3a/3x3/relu1
I0122 18:31:55.904399 69145 net.cpp:435] inception_3a/3x3/relu1 <- inception_3a/3x3
I0122 18:31:55.904407 69145 net.cpp:396] inception_3a/3x3/relu1 -> inception_3a/3x3 (in-place)
I0122 18:31:55.904415 69145 net.cpp:144] Setting up inception_3a/3x3/relu1
I0122 18:31:55.904423 69145 net.cpp:151] Top shape: 128 48 32 32 (6291456)
I0122 18:31:55.904428 69145 net.cpp:159] Memory required for data: 580387328
I0122 18:31:55.904433 69145 layer_factory.hpp:77] Creating layer inception_3a/output
I0122 18:31:55.904438 69145 net.cpp:94] Creating Layer inception_3a/output
I0122 18:31:55.904445 69145 net.cpp:435] inception_3a/output <- inception_3a/1x1
I0122 18:31:55.904451 69145 net.cpp:435] inception_3a/output <- inception_3a/3x3
I0122 18:31:55.904460 69145 net.cpp:409] inception_3a/output -> inception_3a/output
I0122 18:31:55.904490 69145 net.cpp:144] Setting up inception_3a/output
I0122 18:31:55.904496 69145 net.cpp:151] Top shape: 128 80 32 32 (10485760)
I0122 18:31:55.904500 69145 net.cpp:159] Memory required for data: 622330368
I0122 18:31:55.904502 69145 layer_factory.hpp:77] Creating layer inception_3a/output_inception_3a/output_0_split
I0122 18:31:55.904507 69145 net.cpp:94] Creating Layer inception_3a/output_inception_3a/output_0_split
I0122 18:31:55.904510 69145 net.cpp:435] inception_3a/output_inception_3a/output_0_split <- inception_3a/output
I0122 18:31:55.904518 69145 net.cpp:409] inception_3a/output_inception_3a/output_0_split -> inception_3a/output_inception_3a/output_0_split_0
I0122 18:31:55.904527 69145 net.cpp:409] inception_3a/output_inception_3a/output_0_split -> inception_3a/output_inception_3a/output_0_split_1
I0122 18:31:55.904563 69145 net.cpp:144] Setting up inception_3a/output_inception_3a/output_0_split
I0122 18:31:55.904569 69145 net.cpp:151] Top shape: 128 80 32 32 (10485760)
I0122 18:31:55.904573 69145 net.cpp:151] Top shape: 128 80 32 32 (10485760)
I0122 18:31:55.904577 69145 net.cpp:159] Memory required for data: 706216448
I0122 18:31:55.904578 69145 layer_factory.hpp:77] Creating layer downsample_4/3x3_s2
I0122 18:31:55.904590 69145 net.cpp:94] Creating Layer downsample_4/3x3_s2
I0122 18:31:55.904598 69145 net.cpp:435] downsample_4/3x3_s2 <- inception_3a/output_inception_3a/output_0_split_0
I0122 18:31:55.904606 69145 net.cpp:409] downsample_4/3x3_s2 -> downsample_4/3x3_s2
I0122 18:31:55.905169 69145 net.cpp:144] Setting up downsample_4/3x3_s2
I0122 18:31:55.905177 69145 net.cpp:151] Top shape: 128 80 16 16 (2621440)
I0122 18:31:55.905181 69145 net.cpp:159] Memory required for data: 716702208
I0122 18:31:55.905186 69145 layer_factory.hpp:77] Creating layer downsample_4/3x3_s2/bn1
I0122 18:31:55.905200 69145 net.cpp:94] Creating Layer downsample_4/3x3_s2/bn1
I0122 18:31:55.905205 69145 net.cpp:435] downsample_4/3x3_s2/bn1 <- downsample_4/3x3_s2
I0122 18:31:55.905215 69145 net.cpp:396] downsample_4/3x3_s2/bn1 -> downsample_4/3x3_s2 (in-place)
I0122 18:31:55.906008 69145 net.cpp:144] Setting up downsample_4/3x3_s2/bn1
I0122 18:31:55.906018 69145 net.cpp:151] Top shape: 128 80 16 16 (2621440)
I0122 18:31:55.906021 69145 net.cpp:159] Memory required for data: 727187968
I0122 18:31:55.906030 69145 layer_factory.hpp:77] Creating layer downsample_4/3x3_s2/relu1
I0122 18:31:55.906039 69145 net.cpp:94] Creating Layer downsample_4/3x3_s2/relu1
I0122 18:31:55.906044 69145 net.cpp:435] downsample_4/3x3_s2/relu1 <- downsample_4/3x3_s2
I0122 18:31:55.906064 69145 net.cpp:396] downsample_4/3x3_s2/relu1 -> downsample_4/3x3_s2 (in-place)
I0122 18:31:55.906072 69145 net.cpp:144] Setting up downsample_4/3x3_s2/relu1
I0122 18:31:55.906080 69145 net.cpp:151] Top shape: 128 80 16 16 (2621440)
I0122 18:31:55.906083 69145 net.cpp:159] Memory required for data: 737673728
I0122 18:31:55.906087 69145 layer_factory.hpp:77] Creating layer downsample_4/pool_s2
I0122 18:31:55.906102 69145 net.cpp:94] Creating Layer downsample_4/pool_s2
I0122 18:31:55.906110 69145 net.cpp:435] downsample_4/pool_s2 <- inception_3a/output_inception_3a/output_0_split_1
I0122 18:31:55.906117 69145 net.cpp:409] downsample_4/pool_s2 -> downsample_4/pool_s2
I0122 18:31:55.906174 69145 net.cpp:144] Setting up downsample_4/pool_s2
I0122 18:31:55.906183 69145 net.cpp:151] Top shape: 128 80 16 16 (2621440)
I0122 18:31:55.906185 69145 net.cpp:159] Memory required for data: 748159488
I0122 18:31:55.906190 69145 layer_factory.hpp:77] Creating layer downsample_4/output
I0122 18:31:55.906198 69145 net.cpp:94] Creating Layer downsample_4/output
I0122 18:31:55.906204 69145 net.cpp:435] downsample_4/output <- downsample_4/3x3_s2
I0122 18:31:55.906209 69145 net.cpp:435] downsample_4/output <- downsample_4/pool_s2
I0122 18:31:55.906217 69145 net.cpp:409] downsample_4/output -> downsample_4/output
I0122 18:31:55.906241 69145 net.cpp:144] Setting up downsample_4/output
I0122 18:31:55.906249 69145 net.cpp:151] Top shape: 128 160 16 16 (5242880)
I0122 18:31:55.906251 69145 net.cpp:159] Memory required for data: 769131008
I0122 18:31:55.906253 69145 layer_factory.hpp:77] Creating layer downsample_4/output_downsample_4/output_0_split
I0122 18:31:55.906260 69145 net.cpp:94] Creating Layer downsample_4/output_downsample_4/output_0_split
I0122 18:31:55.906265 69145 net.cpp:435] downsample_4/output_downsample_4/output_0_split <- downsample_4/output
I0122 18:31:55.906272 69145 net.cpp:409] downsample_4/output_downsample_4/output_0_split -> downsample_4/output_downsample_4/output_0_split_0
I0122 18:31:55.906283 69145 net.cpp:409] downsample_4/output_downsample_4/output_0_split -> downsample_4/output_downsample_4/output_0_split_1
I0122 18:31:55.906319 69145 net.cpp:144] Setting up downsample_4/output_downsample_4/output_0_split
I0122 18:31:55.906325 69145 net.cpp:151] Top shape: 128 160 16 16 (5242880)
I0122 18:31:55.906329 69145 net.cpp:151] Top shape: 128 160 16 16 (5242880)
I0122 18:31:55.906332 69145 net.cpp:159] Memory required for data: 811074048
I0122 18:31:55.906334 69145 layer_factory.hpp:77] Creating layer inception_5a/1x1
I0122 18:31:55.906349 69145 net.cpp:94] Creating Layer inception_5a/1x1
I0122 18:31:55.906355 69145 net.cpp:435] inception_5a/1x1 <- downsample_4/output_downsample_4/output_0_split_0
I0122 18:31:55.906364 69145 net.cpp:409] inception_5a/1x1 -> inception_5a/1x1
I0122 18:31:55.906728 69145 net.cpp:144] Setting up inception_5a/1x1
I0122 18:31:55.906735 69145 net.cpp:151] Top shape: 128 112 16 16 (3670016)
I0122 18:31:55.906738 69145 net.cpp:159] Memory required for data: 825754112
I0122 18:31:55.906744 69145 layer_factory.hpp:77] Creating layer inception_5a/1x1/bn1
I0122 18:31:55.906754 69145 net.cpp:94] Creating Layer inception_5a/1x1/bn1
I0122 18:31:55.906760 69145 net.cpp:435] inception_5a/1x1/bn1 <- inception_5a/1x1
I0122 18:31:55.906769 69145 net.cpp:396] inception_5a/1x1/bn1 -> inception_5a/1x1 (in-place)
I0122 18:31:55.907428 69145 net.cpp:144] Setting up inception_5a/1x1/bn1
I0122 18:31:55.907436 69145 net.cpp:151] Top shape: 128 112 16 16 (3670016)
I0122 18:31:55.907441 69145 net.cpp:159] Memory required for data: 840434176
I0122 18:31:55.907449 69145 layer_factory.hpp:77] Creating layer inception_5a/1x1/relu1
I0122 18:31:55.907455 69145 net.cpp:94] Creating Layer inception_5a/1x1/relu1
I0122 18:31:55.907459 69145 net.cpp:435] inception_5a/1x1/relu1 <- inception_5a/1x1
I0122 18:31:55.907469 69145 net.cpp:396] inception_5a/1x1/relu1 -> inception_5a/1x1 (in-place)
I0122 18:31:55.907480 69145 net.cpp:144] Setting up inception_5a/1x1/relu1
I0122 18:31:55.907485 69145 net.cpp:151] Top shape: 128 112 16 16 (3670016)
I0122 18:31:55.907500 69145 net.cpp:159] Memory required for data: 855114240
I0122 18:31:55.907505 69145 layer_factory.hpp:77] Creating layer inception_5a/3x3
I0122 18:31:55.907516 69145 net.cpp:94] Creating Layer inception_5a/3x3
I0122 18:31:55.907522 69145 net.cpp:435] inception_5a/3x3 <- downsample_4/output_downsample_4/output_0_split_1
I0122 18:31:55.907533 69145 net.cpp:409] inception_5a/3x3 -> inception_5a/3x3
I0122 18:31:55.908308 69145 net.cpp:144] Setting up inception_5a/3x3
I0122 18:31:55.908318 69145 net.cpp:151] Top shape: 128 48 16 16 (1572864)
I0122 18:31:55.908320 69145 net.cpp:159] Memory required for data: 861405696
I0122 18:31:55.908325 69145 layer_factory.hpp:77] Creating layer inception_5a/3x3/bn1
I0122 18:31:55.908337 69145 net.cpp:94] Creating Layer inception_5a/3x3/bn1
I0122 18:31:55.908344 69145 net.cpp:435] inception_5a/3x3/bn1 <- inception_5a/3x3
I0122 18:31:55.908356 69145 net.cpp:396] inception_5a/3x3/bn1 -> inception_5a/3x3 (in-place)
I0122 18:31:55.909018 69145 net.cpp:144] Setting up inception_5a/3x3/bn1
I0122 18:31:55.909026 69145 net.cpp:151] Top shape: 128 48 16 16 (1572864)
I0122 18:31:55.909029 69145 net.cpp:159] Memory required for data: 867697152
I0122 18:31:55.909039 69145 layer_factory.hpp:77] Creating layer inception_5a/3x3/relu1
I0122 18:31:55.909051 69145 net.cpp:94] Creating Layer inception_5a/3x3/relu1
I0122 18:31:55.909059 69145 net.cpp:435] inception_5a/3x3/relu1 <- inception_5a/3x3
I0122 18:31:55.909065 69145 net.cpp:396] inception_5a/3x3/relu1 -> inception_5a/3x3 (in-place)
I0122 18:31:55.909073 69145 net.cpp:144] Setting up inception_5a/3x3/relu1
I0122 18:31:55.909078 69145 net.cpp:151] Top shape: 128 48 16 16 (1572864)
I0122 18:31:55.909083 69145 net.cpp:159] Memory required for data: 873988608
I0122 18:31:55.909087 69145 layer_factory.hpp:77] Creating layer inception_5a/output
I0122 18:31:55.909095 69145 net.cpp:94] Creating Layer inception_5a/output
I0122 18:31:55.909099 69145 net.cpp:435] inception_5a/output <- inception_5a/1x1
I0122 18:31:55.909104 69145 net.cpp:435] inception_5a/output <- inception_5a/3x3
I0122 18:31:55.909112 69145 net.cpp:409] inception_5a/output -> inception_5a/output
I0122 18:31:55.909137 69145 net.cpp:144] Setting up inception_5a/output
I0122 18:31:55.909144 69145 net.cpp:151] Top shape: 128 160 16 16 (5242880)
I0122 18:31:55.909149 69145 net.cpp:159] Memory required for data: 894960128
I0122 18:31:55.909152 69145 layer_factory.hpp:77] Creating layer inception_5a/output_inception_5a/output_0_split
I0122 18:31:55.909157 69145 net.cpp:94] Creating Layer inception_5a/output_inception_5a/output_0_split
I0122 18:31:55.909160 69145 net.cpp:435] inception_5a/output_inception_5a/output_0_split <- inception_5a/output
I0122 18:31:55.909169 69145 net.cpp:409] inception_5a/output_inception_5a/output_0_split -> inception_5a/output_inception_5a/output_0_split_0
I0122 18:31:55.909178 69145 net.cpp:409] inception_5a/output_inception_5a/output_0_split -> inception_5a/output_inception_5a/output_0_split_1
I0122 18:31:55.909216 69145 net.cpp:144] Setting up inception_5a/output_inception_5a/output_0_split
I0122 18:31:55.909224 69145 net.cpp:151] Top shape: 128 160 16 16 (5242880)
I0122 18:31:55.909229 69145 net.cpp:151] Top shape: 128 160 16 16 (5242880)
I0122 18:31:55.909230 69145 net.cpp:159] Memory required for data: 936903168
I0122 18:31:55.909234 69145 layer_factory.hpp:77] Creating layer inception_6a/1x1
I0122 18:31:55.909245 69145 net.cpp:94] Creating Layer inception_6a/1x1
I0122 18:31:55.909252 69145 net.cpp:435] inception_6a/1x1 <- inception_5a/output_inception_5a/output_0_split_0
I0122 18:31:55.909262 69145 net.cpp:409] inception_6a/1x1 -> inception_6a/1x1
I0122 18:31:55.910300 69145 net.cpp:144] Setting up inception_6a/1x1
I0122 18:31:55.910311 69145 net.cpp:151] Top shape: 128 96 16 16 (3145728)
I0122 18:31:55.910315 69145 net.cpp:159] Memory required for data: 949486080
I0122 18:31:55.910321 69145 layer_factory.hpp:77] Creating layer inception_6a/1x1/bn1
I0122 18:31:55.910337 69145 net.cpp:94] Creating Layer inception_6a/1x1/bn1
I0122 18:31:55.910356 69145 net.cpp:435] inception_6a/1x1/bn1 <- inception_6a/1x1
I0122 18:31:55.910367 69145 net.cpp:396] inception_6a/1x1/bn1 -> inception_6a/1x1 (in-place)
I0122 18:31:55.911139 69145 net.cpp:144] Setting up inception_6a/1x1/bn1
I0122 18:31:55.911147 69145 net.cpp:151] Top shape: 128 96 16 16 (3145728)
I0122 18:31:55.911151 69145 net.cpp:159] Memory required for data: 962068992
I0122 18:31:55.911159 69145 layer_factory.hpp:77] Creating layer inception_6a/1x1/relu1
I0122 18:31:55.911168 69145 net.cpp:94] Creating Layer inception_6a/1x1/relu1
I0122 18:31:55.911175 69145 net.cpp:435] inception_6a/1x1/relu1 <- inception_6a/1x1
I0122 18:31:55.911181 69145 net.cpp:396] inception_6a/1x1/relu1 -> inception_6a/1x1 (in-place)
I0122 18:31:55.911192 69145 net.cpp:144] Setting up inception_6a/1x1/relu1
I0122 18:31:55.911198 69145 net.cpp:151] Top shape: 128 96 16 16 (3145728)
I0122 18:31:55.911202 69145 net.cpp:159] Memory required for data: 974651904
I0122 18:31:55.911206 69145 layer_factory.hpp:77] Creating layer inception_6a/3x3
I0122 18:31:55.911222 69145 net.cpp:94] Creating Layer inception_6a/3x3
I0122 18:31:55.911229 69145 net.cpp:435] inception_6a/3x3 <- inception_5a/output_inception_5a/output_0_split_1
I0122 18:31:55.911237 69145 net.cpp:409] inception_6a/3x3 -> inception_6a/3x3
I0122 18:31:55.912016 69145 net.cpp:144] Setting up inception_6a/3x3
I0122 18:31:55.912027 69145 net.cpp:151] Top shape: 128 64 16 16 (2097152)
I0122 18:31:55.912030 69145 net.cpp:159] Memory required for data: 983040512
I0122 18:31:55.912045 69145 layer_factory.hpp:77] Creating layer inception_6a/3x3/bn1
I0122 18:31:55.912060 69145 net.cpp:94] Creating Layer inception_6a/3x3/bn1
I0122 18:31:55.912067 69145 net.cpp:435] inception_6a/3x3/bn1 <- inception_6a/3x3
I0122 18:31:55.912075 69145 net.cpp:396] inception_6a/3x3/bn1 -> inception_6a/3x3 (in-place)
I0122 18:31:55.912842 69145 net.cpp:144] Setting up inception_6a/3x3/bn1
I0122 18:31:55.912848 69145 net.cpp:151] Top shape: 128 64 16 16 (2097152)
I0122 18:31:55.912853 69145 net.cpp:159] Memory required for data: 991429120
I0122 18:31:55.912860 69145 layer_factory.hpp:77] Creating layer inception_6a/3x3/relu1
I0122 18:31:55.912868 69145 net.cpp:94] Creating Layer inception_6a/3x3/relu1
I0122 18:31:55.912879 69145 net.cpp:435] inception_6a/3x3/relu1 <- inception_6a/3x3
I0122 18:31:55.912889 69145 net.cpp:396] inception_6a/3x3/relu1 -> inception_6a/3x3 (in-place)
I0122 18:31:55.912899 69145 net.cpp:144] Setting up inception_6a/3x3/relu1
I0122 18:31:55.912911 69145 net.cpp:151] Top shape: 128 64 16 16 (2097152)
I0122 18:31:55.912917 69145 net.cpp:159] Memory required for data: 999817728
I0122 18:31:55.912921 69145 layer_factory.hpp:77] Creating layer inception_6a/output
I0122 18:31:55.912928 69145 net.cpp:94] Creating Layer inception_6a/output
I0122 18:31:55.912932 69145 net.cpp:435] inception_6a/output <- inception_6a/1x1
I0122 18:31:55.912937 69145 net.cpp:435] inception_6a/output <- inception_6a/3x3
I0122 18:31:55.912947 69145 net.cpp:409] inception_6a/output -> inception_6a/output
I0122 18:31:55.912978 69145 net.cpp:144] Setting up inception_6a/output
I0122 18:31:55.912986 69145 net.cpp:151] Top shape: 128 160 16 16 (5242880)
I0122 18:31:55.912989 69145 net.cpp:159] Memory required for data: 1020789248
I0122 18:31:55.912992 69145 layer_factory.hpp:77] Creating layer inception_6a/output_inception_6a/output_0_split
I0122 18:31:55.912997 69145 net.cpp:94] Creating Layer inception_6a/output_inception_6a/output_0_split
I0122 18:31:55.913000 69145 net.cpp:435] inception_6a/output_inception_6a/output_0_split <- inception_6a/output
I0122 18:31:55.913009 69145 net.cpp:409] inception_6a/output_inception_6a/output_0_split -> inception_6a/output_inception_6a/output_0_split_0
I0122 18:31:55.913020 69145 net.cpp:409] inception_6a/output_inception_6a/output_0_split -> inception_6a/output_inception_6a/output_0_split_1
I0122 18:31:55.913182 69145 net.cpp:144] Setting up inception_6a/output_inception_6a/output_0_split
I0122 18:31:55.913187 69145 net.cpp:151] Top shape: 128 160 16 16 (5242880)
I0122 18:31:55.913198 69145 net.cpp:151] Top shape: 128 160 16 16 (5242880)
I0122 18:31:55.913203 69145 net.cpp:159] Memory required for data: 1062732288
I0122 18:31:55.913206 69145 layer_factory.hpp:77] Creating layer inception_7a/1x1
I0122 18:31:55.913219 69145 net.cpp:94] Creating Layer inception_7a/1x1
I0122 18:31:55.913225 69145 net.cpp:435] inception_7a/1x1 <- inception_6a/output_inception_6a/output_0_split_0
I0122 18:31:55.913235 69145 net.cpp:409] inception_7a/1x1 -> inception_7a/1x1
I0122 18:31:55.913553 69145 net.cpp:144] Setting up inception_7a/1x1
I0122 18:31:55.913561 69145 net.cpp:151] Top shape: 128 80 16 16 (2621440)
I0122 18:31:55.913564 69145 net.cpp:159] Memory required for data: 1073218048
I0122 18:31:55.913570 69145 layer_factory.hpp:77] Creating layer inception_7a/1x1/bn1
I0122 18:31:55.913579 69145 net.cpp:94] Creating Layer inception_7a/1x1/bn1
I0122 18:31:55.913585 69145 net.cpp:435] inception_7a/1x1/bn1 <- inception_7a/1x1
I0122 18:31:55.913592 69145 net.cpp:396] inception_7a/1x1/bn1 -> inception_7a/1x1 (in-place)
I0122 18:31:55.914283 69145 net.cpp:144] Setting up inception_7a/1x1/bn1
I0122 18:31:55.914290 69145 net.cpp:151] Top shape: 128 80 16 16 (2621440)
I0122 18:31:55.914294 69145 net.cpp:159] Memory required for data: 1083703808
I0122 18:31:55.914300 69145 layer_factory.hpp:77] Creating layer inception_7a/1x1/relu1
I0122 18:31:55.914312 69145 net.cpp:94] Creating Layer inception_7a/1x1/relu1
I0122 18:31:55.914319 69145 net.cpp:435] inception_7a/1x1/relu1 <- inception_7a/1x1
I0122 18:31:55.914325 69145 net.cpp:396] inception_7a/1x1/relu1 -> inception_7a/1x1 (in-place)
I0122 18:31:55.914335 69145 net.cpp:144] Setting up inception_7a/1x1/relu1
I0122 18:31:55.914342 69145 net.cpp:151] Top shape: 128 80 16 16 (2621440)
I0122 18:31:55.914346 69145 net.cpp:159] Memory required for data: 1094189568
I0122 18:31:55.914350 69145 layer_factory.hpp:77] Creating layer inception_7a/3x3
I0122 18:31:55.914373 69145 net.cpp:94] Creating Layer inception_7a/3x3
I0122 18:31:55.914381 69145 net.cpp:435] inception_7a/3x3 <- inception_6a/output_inception_6a/output_0_split_1
I0122 18:31:55.914387 69145 net.cpp:409] inception_7a/3x3 -> inception_7a/3x3
I0122 18:31:55.915412 69145 net.cpp:144] Setting up inception_7a/3x3
I0122 18:31:55.915422 69145 net.cpp:151] Top shape: 128 80 16 16 (2621440)
I0122 18:31:55.915426 69145 net.cpp:159] Memory required for data: 1104675328
I0122 18:31:55.915432 69145 layer_factory.hpp:77] Creating layer inception_7a/3x3/bn1
I0122 18:31:55.915443 69145 net.cpp:94] Creating Layer inception_7a/3x3/bn1
I0122 18:31:55.915452 69145 net.cpp:435] inception_7a/3x3/bn1 <- inception_7a/3x3
I0122 18:31:55.915462 69145 net.cpp:396] inception_7a/3x3/bn1 -> inception_7a/3x3 (in-place)
I0122 18:31:55.916131 69145 net.cpp:144] Setting up inception_7a/3x3/bn1
I0122 18:31:55.916139 69145 net.cpp:151] Top shape: 128 80 16 16 (2621440)
I0122 18:31:55.916142 69145 net.cpp:159] Memory required for data: 1115161088
I0122 18:31:55.916152 69145 layer_factory.hpp:77] Creating layer inception_7a/3x3/relu1
I0122 18:31:55.916157 69145 net.cpp:94] Creating Layer inception_7a/3x3/relu1
I0122 18:31:55.916160 69145 net.cpp:435] inception_7a/3x3/relu1 <- inception_7a/3x3
I0122 18:31:55.916168 69145 net.cpp:396] inception_7a/3x3/relu1 -> inception_7a/3x3 (in-place)
I0122 18:31:55.916179 69145 net.cpp:144] Setting up inception_7a/3x3/relu1
I0122 18:31:55.916185 69145 net.cpp:151] Top shape: 128 80 16 16 (2621440)
I0122 18:31:55.916193 69145 net.cpp:159] Memory required for data: 1125646848
I0122 18:31:55.916196 69145 layer_factory.hpp:77] Creating layer inception_7a/output
I0122 18:31:55.916205 69145 net.cpp:94] Creating Layer inception_7a/output
I0122 18:31:55.916211 69145 net.cpp:435] inception_7a/output <- inception_7a/1x1
I0122 18:31:55.916218 69145 net.cpp:435] inception_7a/output <- inception_7a/3x3
I0122 18:31:55.916224 69145 net.cpp:409] inception_7a/output -> inception_7a/output
I0122 18:31:55.916255 69145 net.cpp:144] Setting up inception_7a/output
I0122 18:31:55.916262 69145 net.cpp:151] Top shape: 128 160 16 16 (5242880)
I0122 18:31:55.916272 69145 net.cpp:159] Memory required for data: 1146618368
I0122 18:31:55.916276 69145 layer_factory.hpp:77] Creating layer inception_7a/output_inception_7a/output_0_split
I0122 18:31:55.916283 69145 net.cpp:94] Creating Layer inception_7a/output_inception_7a/output_0_split
I0122 18:31:55.916287 69145 net.cpp:435] inception_7a/output_inception_7a/output_0_split <- inception_7a/output
I0122 18:31:55.916296 69145 net.cpp:409] inception_7a/output_inception_7a/output_0_split -> inception_7a/output_inception_7a/output_0_split_0
I0122 18:31:55.916308 69145 net.cpp:409] inception_7a/output_inception_7a/output_0_split -> inception_7a/output_inception_7a/output_0_split_1
I0122 18:31:55.916347 69145 net.cpp:144] Setting up inception_7a/output_inception_7a/output_0_split
I0122 18:31:55.916353 69145 net.cpp:151] Top shape: 128 160 16 16 (5242880)
I0122 18:31:55.916357 69145 net.cpp:151] Top shape: 128 160 16 16 (5242880)
I0122 18:31:55.916359 69145 net.cpp:159] Memory required for data: 1188561408
I0122 18:31:55.916363 69145 layer_factory.hpp:77] Creating layer inception_8a/1x1
I0122 18:31:55.916373 69145 net.cpp:94] Creating Layer inception_8a/1x1
I0122 18:31:55.916380 69145 net.cpp:435] inception_8a/1x1 <- inception_7a/output_inception_7a/output_0_split_0
I0122 18:31:55.916389 69145 net.cpp:409] inception_8a/1x1 -> inception_8a/1x1
I0122 18:31:55.916677 69145 net.cpp:144] Setting up inception_8a/1x1
I0122 18:31:55.916687 69145 net.cpp:151] Top shape: 128 48 16 16 (1572864)
I0122 18:31:55.916688 69145 net.cpp:159] Memory required for data: 1194852864
I0122 18:31:55.916693 69145 layer_factory.hpp:77] Creating layer inception_8a/1x1/bn1
I0122 18:31:55.916707 69145 net.cpp:94] Creating Layer inception_8a/1x1/bn1
I0122 18:31:55.916713 69145 net.cpp:435] inception_8a/1x1/bn1 <- inception_8a/1x1
I0122 18:31:55.916723 69145 net.cpp:396] inception_8a/1x1/bn1 -> inception_8a/1x1 (in-place)
I0122 18:31:55.917486 69145 net.cpp:144] Setting up inception_8a/1x1/bn1
I0122 18:31:55.917493 69145 net.cpp:151] Top shape: 128 48 16 16 (1572864)
I0122 18:31:55.917496 69145 net.cpp:159] Memory required for data: 1201144320
I0122 18:31:55.917505 69145 layer_factory.hpp:77] Creating layer inception_8a/1x1/relu1
I0122 18:31:55.917510 69145 net.cpp:94] Creating Layer inception_8a/1x1/relu1
I0122 18:31:55.917520 69145 net.cpp:435] inception_8a/1x1/relu1 <- inception_8a/1x1
I0122 18:31:55.917526 69145 net.cpp:396] inception_8a/1x1/relu1 -> inception_8a/1x1 (in-place)
I0122 18:31:55.917536 69145 net.cpp:144] Setting up inception_8a/1x1/relu1
I0122 18:31:55.917542 69145 net.cpp:151] Top shape: 128 48 16 16 (1572864)
I0122 18:31:55.917556 69145 net.cpp:159] Memory required for data: 1207435776
I0122 18:31:55.917559 69145 layer_factory.hpp:77] Creating layer inception_8a/3x3
I0122 18:31:55.917577 69145 net.cpp:94] Creating Layer inception_8a/3x3
I0122 18:31:55.917584 69145 net.cpp:435] inception_8a/3x3 <- inception_7a/output_inception_7a/output_0_split_1
I0122 18:31:55.917593 69145 net.cpp:409] inception_8a/3x3 -> inception_8a/3x3
I0122 18:31:55.919294 69145 net.cpp:144] Setting up inception_8a/3x3
I0122 18:31:55.919306 69145 net.cpp:151] Top shape: 128 96 16 16 (3145728)
I0122 18:31:55.919309 69145 net.cpp:159] Memory required for data: 1220018688
I0122 18:31:55.919315 69145 layer_factory.hpp:77] Creating layer inception_8a/3x3/bn1
I0122 18:31:55.919324 69145 net.cpp:94] Creating Layer inception_8a/3x3/bn1
I0122 18:31:55.919328 69145 net.cpp:435] inception_8a/3x3/bn1 <- inception_8a/3x3
I0122 18:31:55.919338 69145 net.cpp:396] inception_8a/3x3/bn1 -> inception_8a/3x3 (in-place)
I0122 18:31:55.920042 69145 net.cpp:144] Setting up inception_8a/3x3/bn1
I0122 18:31:55.920048 69145 net.cpp:151] Top shape: 128 96 16 16 (3145728)
I0122 18:31:55.920051 69145 net.cpp:159] Memory required for data: 1232601600
I0122 18:31:55.920060 69145 layer_factory.hpp:77] Creating layer inception_8a/3x3/relu1
I0122 18:31:55.920071 69145 net.cpp:94] Creating Layer inception_8a/3x3/relu1
I0122 18:31:55.920076 69145 net.cpp:435] inception_8a/3x3/relu1 <- inception_8a/3x3
I0122 18:31:55.920099 69145 net.cpp:396] inception_8a/3x3/relu1 -> inception_8a/3x3 (in-place)
I0122 18:31:55.920107 69145 net.cpp:144] Setting up inception_8a/3x3/relu1
I0122 18:31:55.920112 69145 net.cpp:151] Top shape: 128 96 16 16 (3145728)
I0122 18:31:55.920116 69145 net.cpp:159] Memory required for data: 1245184512
I0122 18:31:55.920120 69145 layer_factory.hpp:77] Creating layer inception_8a/output
I0122 18:31:55.920126 69145 net.cpp:94] Creating Layer inception_8a/output
I0122 18:31:55.920131 69145 net.cpp:435] inception_8a/output <- inception_8a/1x1
I0122 18:31:55.920137 69145 net.cpp:435] inception_8a/output <- inception_8a/3x3
I0122 18:31:55.920150 69145 net.cpp:409] inception_8a/output -> inception_8a/output
I0122 18:31:55.920176 69145 net.cpp:144] Setting up inception_8a/output
I0122 18:31:55.920186 69145 net.cpp:151] Top shape: 128 144 16 16 (4718592)
I0122 18:31:55.920187 69145 net.cpp:159] Memory required for data: 1264058880
I0122 18:31:55.920190 69145 layer_factory.hpp:77] Creating layer inception_8a/output_inception_8a/output_0_split
I0122 18:31:55.920197 69145 net.cpp:94] Creating Layer inception_8a/output_inception_8a/output_0_split
I0122 18:31:55.920202 69145 net.cpp:435] inception_8a/output_inception_8a/output_0_split <- inception_8a/output
I0122 18:31:55.920212 69145 net.cpp:409] inception_8a/output_inception_8a/output_0_split -> inception_8a/output_inception_8a/output_0_split_0
I0122 18:31:55.920219 69145 net.cpp:409] inception_8a/output_inception_8a/output_0_split -> inception_8a/output_inception_8a/output_0_split_1
I0122 18:31:55.920261 69145 net.cpp:144] Setting up inception_8a/output_inception_8a/output_0_split
I0122 18:31:55.920267 69145 net.cpp:151] Top shape: 128 144 16 16 (4718592)
I0122 18:31:55.920271 69145 net.cpp:151] Top shape: 128 144 16 16 (4718592)
I0122 18:31:55.920274 69145 net.cpp:159] Memory required for data: 1301807616
I0122 18:31:55.920276 69145 layer_factory.hpp:77] Creating layer downsample_9/3x3_s2
I0122 18:31:55.920290 69145 net.cpp:94] Creating Layer downsample_9/3x3_s2
I0122 18:31:55.920297 69145 net.cpp:435] downsample_9/3x3_s2 <- inception_8a/output_inception_8a/output_0_split_0
I0122 18:31:55.920308 69145 net.cpp:409] downsample_9/3x3_s2 -> downsample_9/3x3_s2
I0122 18:31:55.921255 69145 net.cpp:144] Setting up downsample_9/3x3_s2
I0122 18:31:55.921265 69145 net.cpp:151] Top shape: 128 96 8 8 (786432)
I0122 18:31:55.921268 69145 net.cpp:159] Memory required for data: 1304953344
I0122 18:31:55.921273 69145 layer_factory.hpp:77] Creating layer downsample_9/3x3_s2/bn1
I0122 18:31:55.921286 69145 net.cpp:94] Creating Layer downsample_9/3x3_s2/bn1
I0122 18:31:55.921294 69145 net.cpp:435] downsample_9/3x3_s2/bn1 <- downsample_9/3x3_s2
I0122 18:31:55.921304 69145 net.cpp:396] downsample_9/3x3_s2/bn1 -> downsample_9/3x3_s2 (in-place)
I0122 18:31:55.922000 69145 net.cpp:144] Setting up downsample_9/3x3_s2/bn1
I0122 18:31:55.922008 69145 net.cpp:151] Top shape: 128 96 8 8 (786432)
I0122 18:31:55.922013 69145 net.cpp:159] Memory required for data: 1308099072
I0122 18:31:55.922020 69145 layer_factory.hpp:77] Creating layer downsample_9/3x3_s2/relu1
I0122 18:31:55.922032 69145 net.cpp:94] Creating Layer downsample_9/3x3_s2/relu1
I0122 18:31:55.922036 69145 net.cpp:435] downsample_9/3x3_s2/relu1 <- downsample_9/3x3_s2
I0122 18:31:55.922046 69145 net.cpp:396] downsample_9/3x3_s2/relu1 -> downsample_9/3x3_s2 (in-place)
I0122 18:31:55.922058 69145 net.cpp:144] Setting up downsample_9/3x3_s2/relu1
I0122 18:31:55.922065 69145 net.cpp:151] Top shape: 128 96 8 8 (786432)
I0122 18:31:55.922066 69145 net.cpp:159] Memory required for data: 1311244800
I0122 18:31:55.922071 69145 layer_factory.hpp:77] Creating layer downsample_9/pool_s2
I0122 18:31:55.922078 69145 net.cpp:94] Creating Layer downsample_9/pool_s2
I0122 18:31:55.922082 69145 net.cpp:435] downsample_9/pool_s2 <- inception_8a/output_inception_8a/output_0_split_1
I0122 18:31:55.922089 69145 net.cpp:409] downsample_9/pool_s2 -> downsample_9/pool_s2
I0122 18:31:55.922130 69145 net.cpp:144] Setting up downsample_9/pool_s2
I0122 18:31:55.922142 69145 net.cpp:151] Top shape: 128 144 8 8 (1179648)
I0122 18:31:55.922145 69145 net.cpp:159] Memory required for data: 1315963392
I0122 18:31:55.922147 69145 layer_factory.hpp:77] Creating layer downsample_9/output
I0122 18:31:55.922154 69145 net.cpp:94] Creating Layer downsample_9/output
I0122 18:31:55.922158 69145 net.cpp:435] downsample_9/output <- downsample_9/3x3_s2
I0122 18:31:55.922163 69145 net.cpp:435] downsample_9/output <- downsample_9/pool_s2
I0122 18:31:55.922170 69145 net.cpp:409] downsample_9/output -> downsample_9/output
I0122 18:31:55.922196 69145 net.cpp:144] Setting up downsample_9/output
I0122 18:31:55.922204 69145 net.cpp:151] Top shape: 128 240 8 8 (1966080)
I0122 18:31:55.922206 69145 net.cpp:159] Memory required for data: 1323827712
I0122 18:31:55.922209 69145 layer_factory.hpp:77] Creating layer downsample_9/output_downsample_9/output_0_split
I0122 18:31:55.922221 69145 net.cpp:94] Creating Layer downsample_9/output_downsample_9/output_0_split
I0122 18:31:55.922227 69145 net.cpp:435] downsample_9/output_downsample_9/output_0_split <- downsample_9/output
I0122 18:31:55.922235 69145 net.cpp:409] downsample_9/output_downsample_9/output_0_split -> downsample_9/output_downsample_9/output_0_split_0
I0122 18:31:55.922243 69145 net.cpp:409] downsample_9/output_downsample_9/output_0_split -> downsample_9/output_downsample_9/output_0_split_1
I0122 18:31:55.922284 69145 net.cpp:144] Setting up downsample_9/output_downsample_9/output_0_split
I0122 18:31:55.922291 69145 net.cpp:151] Top shape: 128 240 8 8 (1966080)
I0122 18:31:55.922294 69145 net.cpp:151] Top shape: 128 240 8 8 (1966080)
I0122 18:31:55.922297 69145 net.cpp:159] Memory required for data: 1339556352
I0122 18:31:55.922300 69145 layer_factory.hpp:77] Creating layer inception_10a/1x1
I0122 18:31:55.922312 69145 net.cpp:94] Creating Layer inception_10a/1x1
I0122 18:31:55.922318 69145 net.cpp:435] inception_10a/1x1 <- downsample_9/output_downsample_9/output_0_split_0
I0122 18:31:55.922327 69145 net.cpp:409] inception_10a/1x1 -> inception_10a/1x1
I0122 18:31:55.922811 69145 net.cpp:144] Setting up inception_10a/1x1
I0122 18:31:55.922819 69145 net.cpp:151] Top shape: 128 176 8 8 (1441792)
I0122 18:31:55.922822 69145 net.cpp:159] Memory required for data: 1345323520
I0122 18:31:55.922827 69145 layer_factory.hpp:77] Creating layer inception_10a/1x1/bn1
I0122 18:31:55.922842 69145 net.cpp:94] Creating Layer inception_10a/1x1/bn1
I0122 18:31:55.922848 69145 net.cpp:435] inception_10a/1x1/bn1 <- inception_10a/1x1
I0122 18:31:55.922855 69145 net.cpp:396] inception_10a/1x1/bn1 -> inception_10a/1x1 (in-place)
I0122 18:31:55.923550 69145 net.cpp:144] Setting up inception_10a/1x1/bn1
I0122 18:31:55.923558 69145 net.cpp:151] Top shape: 128 176 8 8 (1441792)
I0122 18:31:55.923561 69145 net.cpp:159] Memory required for data: 1351090688
I0122 18:31:55.923569 69145 layer_factory.hpp:77] Creating layer inception_10a/1x1/relu1
I0122 18:31:55.923578 69145 net.cpp:94] Creating Layer inception_10a/1x1/relu1
I0122 18:31:55.923583 69145 net.cpp:435] inception_10a/1x1/relu1 <- inception_10a/1x1
I0122 18:31:55.923593 69145 net.cpp:396] inception_10a/1x1/relu1 -> inception_10a/1x1 (in-place)
I0122 18:31:55.923602 69145 net.cpp:144] Setting up inception_10a/1x1/relu1
I0122 18:31:55.923609 69145 net.cpp:151] Top shape: 128 176 8 8 (1441792)
I0122 18:31:55.923614 69145 net.cpp:159] Memory required for data: 1356857856
I0122 18:31:55.923619 69145 layer_factory.hpp:77] Creating layer inception_10a/3x3
I0122 18:31:55.923631 69145 net.cpp:94] Creating Layer inception_10a/3x3
I0122 18:31:55.923637 69145 net.cpp:435] inception_10a/3x3 <- downsample_9/output_downsample_9/output_0_split_1
I0122 18:31:55.923647 69145 net.cpp:409] inception_10a/3x3 -> inception_10a/3x3
I0122 18:31:55.926868 69145 net.cpp:144] Setting up inception_10a/3x3
I0122 18:31:55.926882 69145 net.cpp:151] Top shape: 128 160 8 8 (1310720)
I0122 18:31:55.926884 69145 net.cpp:159] Memory required for data: 1362100736
I0122 18:31:55.926892 69145 layer_factory.hpp:77] Creating layer inception_10a/3x3/bn1
I0122 18:31:55.926914 69145 net.cpp:94] Creating Layer inception_10a/3x3/bn1
I0122 18:31:55.926920 69145 net.cpp:435] inception_10a/3x3/bn1 <- inception_10a/3x3
I0122 18:31:55.926930 69145 net.cpp:396] inception_10a/3x3/bn1 -> inception_10a/3x3 (in-place)
I0122 18:31:55.927588 69145 net.cpp:144] Setting up inception_10a/3x3/bn1
I0122 18:31:55.927597 69145 net.cpp:151] Top shape: 128 160 8 8 (1310720)
I0122 18:31:55.927599 69145 net.cpp:159] Memory required for data: 1367343616
I0122 18:31:55.927608 69145 layer_factory.hpp:77] Creating layer inception_10a/3x3/relu1
I0122 18:31:55.927618 69145 net.cpp:94] Creating Layer inception_10a/3x3/relu1
I0122 18:31:55.927623 69145 net.cpp:435] inception_10a/3x3/relu1 <- inception_10a/3x3
I0122 18:31:55.927631 69145 net.cpp:396] inception_10a/3x3/relu1 -> inception_10a/3x3 (in-place)
I0122 18:31:55.927642 69145 net.cpp:144] Setting up inception_10a/3x3/relu1
I0122 18:31:55.927651 69145 net.cpp:151] Top shape: 128 160 8 8 (1310720)
I0122 18:31:55.927654 69145 net.cpp:159] Memory required for data: 1372586496
I0122 18:31:55.927659 69145 layer_factory.hpp:77] Creating layer inception_10a/output
I0122 18:31:55.927665 69145 net.cpp:94] Creating Layer inception_10a/output
I0122 18:31:55.927672 69145 net.cpp:435] inception_10a/output <- inception_10a/1x1
I0122 18:31:55.927677 69145 net.cpp:435] inception_10a/output <- inception_10a/3x3
I0122 18:31:55.927686 69145 net.cpp:409] inception_10a/output -> inception_10a/output
I0122 18:31:55.927716 69145 net.cpp:144] Setting up inception_10a/output
I0122 18:31:55.927722 69145 net.cpp:151] Top shape: 128 336 8 8 (2752512)
I0122 18:31:55.927726 69145 net.cpp:159] Memory required for data: 1383596544
I0122 18:31:55.927728 69145 layer_factory.hpp:77] Creating layer inception_10a/output_inception_10a/output_0_split
I0122 18:31:55.927733 69145 net.cpp:94] Creating Layer inception_10a/output_inception_10a/output_0_split
I0122 18:31:55.927738 69145 net.cpp:435] inception_10a/output_inception_10a/output_0_split <- inception_10a/output
I0122 18:31:55.927747 69145 net.cpp:409] inception_10a/output_inception_10a/output_0_split -> inception_10a/output_inception_10a/output_0_split_0
I0122 18:31:55.927757 69145 net.cpp:409] inception_10a/output_inception_10a/output_0_split -> inception_10a/output_inception_10a/output_0_split_1
I0122 18:31:55.927795 69145 net.cpp:144] Setting up inception_10a/output_inception_10a/output_0_split
I0122 18:31:55.927801 69145 net.cpp:151] Top shape: 128 336 8 8 (2752512)
I0122 18:31:55.927805 69145 net.cpp:151] Top shape: 128 336 8 8 (2752512)
I0122 18:31:55.927808 69145 net.cpp:159] Memory required for data: 1405616640
I0122 18:31:55.927810 69145 layer_factory.hpp:77] Creating layer inception_11a/1x1
I0122 18:31:55.927824 69145 net.cpp:94] Creating Layer inception_11a/1x1
I0122 18:31:55.927829 69145 net.cpp:435] inception_11a/1x1 <- inception_10a/output_inception_10a/output_0_split_0
I0122 18:31:55.927839 69145 net.cpp:409] inception_11a/1x1 -> inception_11a/1x1
I0122 18:31:55.928422 69145 net.cpp:144] Setting up inception_11a/1x1
I0122 18:31:55.928432 69145 net.cpp:151] Top shape: 128 176 8 8 (1441792)
I0122 18:31:55.928436 69145 net.cpp:159] Memory required for data: 1411383808
I0122 18:31:55.928442 69145 layer_factory.hpp:77] Creating layer inception_11a/1x1/bn1
I0122 18:31:55.928454 69145 net.cpp:94] Creating Layer inception_11a/1x1/bn1
I0122 18:31:55.928462 69145 net.cpp:435] inception_11a/1x1/bn1 <- inception_11a/1x1
I0122 18:31:55.928468 69145 net.cpp:396] inception_11a/1x1/bn1 -> inception_11a/1x1 (in-place)
I0122 18:31:55.929158 69145 net.cpp:144] Setting up inception_11a/1x1/bn1
I0122 18:31:55.929167 69145 net.cpp:151] Top shape: 128 176 8 8 (1441792)
I0122 18:31:55.929170 69145 net.cpp:159] Memory required for data: 1417150976
I0122 18:31:55.929180 69145 layer_factory.hpp:77] Creating layer inception_11a/1x1/relu1
I0122 18:31:55.929189 69145 net.cpp:94] Creating Layer inception_11a/1x1/relu1
I0122 18:31:55.929193 69145 net.cpp:435] inception_11a/1x1/relu1 <- inception_11a/1x1
I0122 18:31:55.929214 69145 net.cpp:396] inception_11a/1x1/relu1 -> inception_11a/1x1 (in-place)
I0122 18:31:55.929222 69145 net.cpp:144] Setting up inception_11a/1x1/relu1
I0122 18:31:55.929229 69145 net.cpp:151] Top shape: 128 176 8 8 (1441792)
I0122 18:31:55.929234 69145 net.cpp:159] Memory required for data: 1422918144
I0122 18:31:55.929239 69145 layer_factory.hpp:77] Creating layer inception_11a/3x3
I0122 18:31:55.929250 69145 net.cpp:94] Creating Layer inception_11a/3x3
I0122 18:31:55.929256 69145 net.cpp:435] inception_11a/3x3 <- inception_10a/output_inception_10a/output_0_split_1
I0122 18:31:55.929266 69145 net.cpp:409] inception_11a/3x3 -> inception_11a/3x3
I0122 18:31:55.933145 69145 net.cpp:144] Setting up inception_11a/3x3
I0122 18:31:55.933157 69145 net.cpp:151] Top shape: 128 160 8 8 (1310720)
I0122 18:31:55.933161 69145 net.cpp:159] Memory required for data: 1428161024
I0122 18:31:55.933166 69145 layer_factory.hpp:77] Creating layer inception_11a/3x3/bn1
I0122 18:31:55.933177 69145 net.cpp:94] Creating Layer inception_11a/3x3/bn1
I0122 18:31:55.933184 69145 net.cpp:435] inception_11a/3x3/bn1 <- inception_11a/3x3
I0122 18:31:55.933192 69145 net.cpp:396] inception_11a/3x3/bn1 -> inception_11a/3x3 (in-place)
I0122 18:31:55.933856 69145 net.cpp:144] Setting up inception_11a/3x3/bn1
I0122 18:31:55.933866 69145 net.cpp:151] Top shape: 128 160 8 8 (1310720)
I0122 18:31:55.933868 69145 net.cpp:159] Memory required for data: 1433403904
I0122 18:31:55.933894 69145 layer_factory.hpp:77] Creating layer inception_11a/3x3/relu1
I0122 18:31:55.933903 69145 net.cpp:94] Creating Layer inception_11a/3x3/relu1
I0122 18:31:55.933912 69145 net.cpp:435] inception_11a/3x3/relu1 <- inception_11a/3x3
I0122 18:31:55.933917 69145 net.cpp:396] inception_11a/3x3/relu1 -> inception_11a/3x3 (in-place)
I0122 18:31:55.933926 69145 net.cpp:144] Setting up inception_11a/3x3/relu1
I0122 18:31:55.933933 69145 net.cpp:151] Top shape: 128 160 8 8 (1310720)
I0122 18:31:55.933938 69145 net.cpp:159] Memory required for data: 1438646784
I0122 18:31:55.933943 69145 layer_factory.hpp:77] Creating layer inception_11a/output
I0122 18:31:55.933949 69145 net.cpp:94] Creating Layer inception_11a/output
I0122 18:31:55.933954 69145 net.cpp:435] inception_11a/output <- inception_11a/1x1
I0122 18:31:55.933959 69145 net.cpp:435] inception_11a/output <- inception_11a/3x3
I0122 18:31:55.933969 69145 net.cpp:409] inception_11a/output -> inception_11a/output
I0122 18:31:55.933997 69145 net.cpp:144] Setting up inception_11a/output
I0122 18:31:55.934003 69145 net.cpp:151] Top shape: 128 336 8 8 (2752512)
I0122 18:31:55.934007 69145 net.cpp:159] Memory required for data: 1449656832
I0122 18:31:55.934010 69145 layer_factory.hpp:77] Creating layer avg_pool_12/8x8_s1
I0122 18:31:55.934017 69145 net.cpp:94] Creating Layer avg_pool_12/8x8_s1
I0122 18:31:55.934024 69145 net.cpp:435] avg_pool_12/8x8_s1 <- inception_11a/output
I0122 18:31:55.934032 69145 net.cpp:409] avg_pool_12/8x8_s1 -> avg_pool_12/8x8_s1
I0122 18:31:55.934064 69145 net.cpp:144] Setting up avg_pool_12/8x8_s1
I0122 18:31:55.934070 69145 net.cpp:151] Top shape: 128 336 1 1 (43008)
I0122 18:31:55.934073 69145 net.cpp:159] Memory required for data: 1449828864
I0122 18:31:55.934077 69145 layer_factory.hpp:77] Creating layer drop_8x8_s1
I0122 18:31:55.934083 69145 net.cpp:94] Creating Layer drop_8x8_s1
I0122 18:31:55.934088 69145 net.cpp:435] drop_8x8_s1 <- avg_pool_12/8x8_s1
I0122 18:31:55.934094 69145 net.cpp:396] drop_8x8_s1 -> avg_pool_12/8x8_s1 (in-place)
I0122 18:31:55.934121 69145 net.cpp:144] Setting up drop_8x8_s1
I0122 18:31:55.934128 69145 net.cpp:151] Top shape: 128 336 1 1 (43008)
I0122 18:31:55.934130 69145 net.cpp:159] Memory required for data: 1450000896
I0122 18:31:55.934132 69145 layer_factory.hpp:77] Creating layer loss/classifier
I0122 18:31:55.934142 69145 net.cpp:94] Creating Layer loss/classifier
I0122 18:31:55.934149 69145 net.cpp:435] loss/classifier <- avg_pool_12/8x8_s1
I0122 18:31:55.934154 69145 net.cpp:409] loss/classifier -> loss/classifier
I0122 18:31:55.934303 69145 net.cpp:144] Setting up loss/classifier
I0122 18:31:55.934319 69145 net.cpp:151] Top shape: 128 10 (1280)
I0122 18:31:55.934320 69145 net.cpp:159] Memory required for data: 1450006016
I0122 18:31:55.934325 69145 layer_factory.hpp:77] Creating layer loss
I0122 18:31:55.934331 69145 net.cpp:94] Creating Layer loss
I0122 18:31:55.934339 69145 net.cpp:435] loss <- loss/classifier
I0122 18:31:55.934343 69145 net.cpp:435] loss <- label
I0122 18:31:55.934351 69145 net.cpp:409] loss -> loss
I0122 18:31:55.934363 69145 layer_factory.hpp:77] Creating layer loss
…
I0122 18:31:55.935876 69145 solver.cpp:189] Creating test net (#0) specified by net file: cifar10/deephi/miniGoogleNet/pruning/regular_rate_0.2/net_finetune.prototxt
I0122 18:31:55.935969 69145 net.cpp:323] The NetState phase (1) differed from the phase (0) specified by a rule in layer data
I0122 18:31:55.936625 69145 net.cpp:52] Initializing net from parameters: 
state {
  phase: TEST
}
layer {
  name: "data"
  type: "Data"
  top: "data"
  top: "label"
  include {
    phase: TEST
  }
  transform_param {
    mirror: false
    mean_value: 104
    mean_value: 117
    mean_value: 123
  }
  data_param {
    source: "cifar10/input/lmdb/valid_lmdb"
    batch_size: 50
    backend: LMDB
  }
}
layer {
  name: "conv1/3x3_s1"
  type: "Convolution"
  bottom: "data"
  top: "conv1/3x3_s1"
  param {
    lr_mult: 1
    decay_mult: 1
    compression: PRUNE
  }
  param {
    lr_mult: 2
    decay_mult: 0
    compression: PRUNE
  }
  convolution_param {
    num_output: 96
    pad: 1
    kernel_size: 3
    stride: 1
    weight_filler {
      type: "xavier"
      std: 0.1
    }
    bias_filler {
      type: "constant"
      value: 0.2
    }
  }
}
layer {
  name: "conv1/bn1"
  type: "BatchNorm"
  bottom: "conv1/3x3_s1"
  top: "conv1/3x3_s1"
  param {
    lr_mult: 1
    decay_mult: 0
    compression: PRUNE
  }
  param {
    lr_mult: 1
    decay_mult: 0
    compression: PRUNE
  }
  param {
    lr_mult: 0
    decay_mult: 0
    compression: PRUNE
  }
  param {
    lr_mult: 0
    decay_mult: 0
    compression: PRUNE
  }
  batch_norm_param {
    use_global_stats: false
    scale_filler {
      type: "constant"
      value: 1
    }
    bias_filler {
      type: "constant"
      value: 0
    }
  }
}
layer {
  name: "conv1/relu1"
  type: "ReLU"
  bottom: "conv1/3x3_s1"
  top: "conv1/3x3_s1"
}
layer {
  name: "inception_2a/1x1"
  type: "Convolution"
  bottom: "conv1/3x3_s1"
  top: "inception_2a/1x1"
  param {
    lr_mult: 1
    decay_mult: 1
    compression: PRUNE
  }
  param {
    lr_mult: 2
    decay_mult: 0
    compression: PRUNE
  }
  convolution_param {
    num_output: 32
    kernel_size: 1
    weight_filler {
      type: "xavier"
      std: 0.03
    }
    bias_filler {
      type: "constant"
      value: 0.2
    }
  }
}
layer {
  name: "inception_2a/1x1/bn1"
  type: "BatchNorm"
  bottom: "inception_2a/1x1"
  top: "inception_2a/1x1"
  param {
    lr_mult: 1
    decay_mult: 0
    compression: PRUNE
  }
  param {
    lr_mult: 1
    decay_mult: 0
    compression: PRUNE
  }
  param {
    lr_mult: 0
    decay_mult: 0
    compression: PRUNE
  }
  param {
    lr_mult: 0
    decay_mult: 0
    compression: PRUNE
  }
  batch_norm_param {
    use_global_stats: false
    scale_filler {
      type: "constant"
      value: 1
    }
    bias_filler {
      type: "constant"
      value: 0
    }
  }
}
layer {
  name: "inception_2a/1x1/relu1"
  type: "ReLU"
  bottom: "inception_2a/1x1"
  top: "inception_2a/1x1"
}
layer {
  name: "inception_2a/3x3"
  type: "Convolution"
  bottom: "conv1/3x3_s1"
  top: "inception_2a/3x3"
  param {
    lr_mult: 1
    decay_mult: 1
    compression: PRUNE
  }
  param {
    lr_mult: 2
    decay_mult: 0
    compression: PRUNE
  }
  convolution_param {
    num_output: 32
    pad: 1
    kernel_size: 3
    weight_filler {
      type: "xavier"
      std: 0.03
    }
    bias_filler {
      type: "constant"
      value: 0.2
    }
  }
}
layer {
  name: "inception_2a/3x3/bn1"
  type: "BatchNorm"
  bottom: "inception_2a/3x3"
  top: "inception_2a/3x3"
  param {
    lr_mult: 1
    decay_mult: 0
    compression: PRUNE
  }
  param {
    lr_mult: 1
    decay_mult: 0
    compression: PRUNE
  }
  param {
    lr_mult: 0
    decay_mult: 0
    compression: PRUNE
  }
  param {
    lr_mult: 0
    decay_mult: 0
    compression: PRUNE
  }
  batch_norm_param {
    use_global_stats: false
    scale_filler {
      type: "constant"
      value: 1
    }
    bias_filler {
      type: "constant"
      value: 0
    }
  }
}
layer {
  name: "inception_2a/3x3/relu1"
  type: "ReLU"
  bottom: "inception_2a/3x3"
  top: "inception_2a/3x3"
}
layer {
  name: "inception_2a/output"
  type: "Concat"
  bottom: "inception_2a/1x1"
  bottom: "inception_2a/3x3"
  top: "inception_2a/output"
}
layer {
  name: "inception_3a/1x1"
  type: "Convolution"
  bottom: "inception_2a/output"
  top: "inception_3a/1x1"
  param {
    lr_mult: 1
    decay_mult: 1
    compression: PRUNE
  }
  param {
    lr_mult: 2
    decay_mult: 0
    compression: PRUNE
  }
  convolution_param {
    num_output: 32
    kernel_size: 1
    weight_filler {
      type: "xavier"
      std: 0.03
    }
    bias_filler {
      type: "constant"
      value: 0.2
    }
  }
}
layer {
  name: "inception_3a/1x1/bn1"
  type: "BatchNorm"
  bottom: "inception_3a/1x1"
  top: "inception_3a/1x1"
  param {
    lr_mult: 1
    decay_mult: 0
    compression: PRUNE
  }
  param {
    lr_mult: 1
    decay_mult: 0
    compression: PRUNE
  }
  param {
    lr_mult: 0
    decay_mult: 0
    compression: PRUNE
  }
  param {
    lr_mult: 0
    decay_mult: 0
    compression: PRUNE
  }
  batch_norm_param {
    use_global_stats: false
    scale_filler {
      type: "constant"
      value: 1
    }
    bias_filler {
      type: "constant"
      value: 0
    }
  }
}
layer {
  name: "inception_3a/1x1/relu1"
  type: "ReLU"
  bottom: "inception_3a/1x1"
  top: "inception_3a/1x1"
}
layer {
  name: "inception_3a/3x3"
  type: "Convolution"
  bottom: "inception_2a/output"
  top: "inception_3a/3x3"
  param {
    lr_mult: 1
    decay_mult: 1
    compression: PRUNE
  }
  param {
    lr_mult: 2
    decay_mult: 0
    compression: PRUNE
  }
  convolution_param {
    num_output: 48
    pad: 1
    kernel_size: 3
    weight_filler {
      type: "xavier"
      std: 0.03
    }
    bias_filler {
      type: "constant"
      value: 0.2
    }
  }
}
layer {
  name: "inception_3a/3x3/bn1"
  type: "BatchNorm"
  bottom: "inception_3a/3x3"
  top: "inception_3a/3x3"
  param {
    lr_mult: 1
    decay_mult: 0
    compression: PRUNE
  }
  param {
    lr_mult: 1
    decay_mult: 0
    compression: PRUNE
  }
  param {
    lr_mult: 0
    decay_mult: 0
    compression: PRUNE
  }
  param {
    lr_mult: 0
    decay_mult: 0
    compression: PRUNE
  }
  batch_norm_param {
    use_global_stats: false
    scale_filler {
      type: "constant"
      value: 1
    }
    bias_filler {
      type: "constant"
      value: 0
    }
  }
}
layer {
  name: "inception_3a/3x3/relu1"
  type: "ReLU"
  bottom: "inception_3a/3x3"
  top: "inception_3a/3x3"
}
layer {
  name: "inception_3a/output"
  type: "Concat"
  bottom: "inception_3a/1x1"
  bottom: "inception_3a/3x3"
  top: "inception_3a/output"
}
layer {
  name: "downsample_4/3x3_s2"
  type: "Convolution"
  bottom: "inception_3a/output"
  top: "downsample_4/3x3_s2"
  param {
    lr_mult: 1
    decay_mult: 1
    compression: PRUNE
  }
  param {
    lr_mult: 2
    decay_mult: 0
    compression: PRUNE
  }
  convolution_param {
    num_output: 80
    pad: 1
    kernel_size: 3
    stride: 2
    weight_filler {
      type: "xavier"
      std: 0.03
    }
    bias_filler {
      type: "constant"
      value: 0.2
    }
  }
}
layer {
  name: "downsample_4/3x3_s2/bn1"
  type: "BatchNorm"
  bottom: "downsample_4/3x3_s2"
  top: "downsample_4/3x3_s2"
  param {
    lr_mult: 1
    decay_mult: 0
    compression: PRUNE
  }
  param {
    lr_mult: 1
    decay_mult: 0
    compression: PRUNE
  }
  param {
    lr_mult: 0
    decay_mult: 0
    compression: PRUNE
  }
  param {
    lr_mult: 0
    decay_mult: 0
    compression: PRUNE
  }
  batch_norm_param {
    use_global_stats: false
    scale_filler {
      type: "constant"
      value: 1
    }
    bias_filler {
      type: "constant"
      value: 0
    }
  }
}
layer {
  name: "downsample_4/3x3_s2/relu1"
  type: "ReLU"
  bottom: "downsample_4/3x3_s2"
  top: "downsample_4/3x3_s2"
}
layer {
  name: "downsample_4/pool_s2"
  type: "Pooling"
  bottom: "inception_3a/output"
  top: "downsample_4/pool_s2"
  pooling_param {
    pool: MAX
    kernel_size: 3
    stride: 2
  }
}
layer {
  name: "downsample_4/output"
  type: "Concat"
  bottom: "downsample_4/3x3_s2"
  bottom: "downsample_4/pool_s2"
  top: "downsample_4/output"
}
layer {
  name: "inception_5a/1x1"
  type: "Convolution"
  bottom: "downsample_4/output"
  top: "inception_5a/1x1"
  param {
    lr_mult: 1
    decay_mult: 1
    compression: PRUNE
  }
  param {
    lr_mult: 2
    decay_mult: 0
    compression: PRUNE
  }
  convolution_param {
    num_output: 112
    kernel_size: 1
    weight_filler {
      type: "xavier"
      std: 0.03
    }
    bias_filler {
      type: "constant"
      value: 0.2
    }
  }
}
layer {
  name: "inception_5a/1x1/bn1"
  type: "BatchNorm"
  bottom: "inception_5a/1x1"
  top: "inception_5a/1x1"
  param {
    lr_mult: 1
    decay_mult: 0
    compression: PRUNE
  }
  param {
    lr_mult: 1
    decay_mult: 0
    compression: PRUNE
  }
  param {
    lr_mult: 0
    decay_mult: 0
    compression: PRUNE
  }
  param {
    lr_mult: 0
    decay_mult: 0
    compression: PRUNE
  }
  batch_norm_param {
    use_global_stats: false
    scale_filler {
      type: "constant"
      value: 1
    }
    bias_filler {
      type: "constant"
      value: 0
    }
  }
}
layer {
  name: "inception_5a/1x1/relu1"
  type: "ReLU"
  bottom: "inception_5a/1x1"
  top: "inception_5a/1x1"
}
layer {
  name: "inception_5a/3x3"
  type: "Convolution"
  bottom: "downsample_4/output"
  top: "inception_5a/3x3"
  param {
    lr_mult: 1
    decay_mult: 1
    compression: PRUNE
  }
  param {
    lr_mult: 2
    decay_mult: 0
    compression: PRUNE
  }
  convolution_param {
    num_output: 48
    pad: 1
    kernel_size: 3
    weight_filler {
      type: "xavier"
      std: 0.03
    }
    bias_filler {
      type: "constant"
      value: 0.2
    }
  }
}
layer {
  name: "inception_5a/3x3/bn1"
  type: "BatchNorm"
  bottom: "inception_5a/3x3"
  top: "inception_5a/3x3"
  param {
    lr_mult: 1
    decay_mult: 0
    compression: PRUNE
  }
  param {
    lr_mult: 1
    decay_mult: 0
    compression: PRUNE
  }
  param {
    lr_mult: 0
    decay_mult: 0
    compression: PRUNE
  }
  param {
    lr_mult: 0
    decay_mult: 0
    compression: PRUNE
  }
  batch_norm_param {
    use_global_stats: false
    scale_filler {
      type: "constant"
      value: 1
    }
    bias_filler {
      type: "constant"
      value: 0
    }
  }
}
layer {
  name: "inception_5a/3x3/relu1"
  type: "ReLU"
  bottom: "inception_5a/3x3"
  top: "inception_5a/3x3"
}
layer {
  name: "inception_5a/output"
  type: "Concat"
  bottom: "inception_5a/1x1"
  bottom: "inception_5a/3x3"
  top: "inception_5a/output"
}
layer {
  name: "inception_6a/1x1"
  type: "Convolution"
  bottom: "inception_5a/output"
  top: "inception_6a/1x1"
  param {
    lr_mult: 1
    decay_mult: 1
    compression: PRUNE
  }
  param {
    lr_mult: 2
    decay_mult: 0
    compression: PRUNE
  }
  convolution_param {
    num_output: 96
    kernel_size: 1
    weight_filler {
      type: "xavier"
      std: 0.03
    }
    bias_filler {
      type: "constant"
      value: 0.2
    }
  }
}
layer {
  name: "inception_6a/1x1/bn1"
  type: "BatchNorm"
  bottom: "inception_6a/1x1"
  top: "inception_6a/1x1"
  param {
    lr_mult: 1
    decay_mult: 0
    compression: PRUNE
  }
  param {
    lr_mult: 1
    decay_mult: 0
    compression: PRUNE
  }
  param {
    lr_mult: 0
    decay_mult: 0
    compression: PRUNE
  }
  param {
    lr_mult: 0
    decay_mult: 0
    compression: PRUNE
  }
  batch_norm_param {
    use_global_stats: false
    scale_filler {
      type: "constant"
      value: 1
    }
    bias_filler {
      type: "constant"
      value: 0
    }
  }
}
layer {
  name: "inception_6a/1x1/relu1"
  type: "ReLU"
  bottom: "inception_6a/1x1"
  top: "inception_6a/1x1"
}
layer {
  name: "inception_6a/3x3"
  type: "Convolution"
  bottom: "inception_5a/output"
  top: "inception_6a/3x3"
  param {
    lr_mult: 1
    decay_mult: 1
    compression: PRUNE
  }
  param {
    lr_mult: 2
    decay_mult: 0
    compression: PRUNE
  }
  convolution_param {
    num_output: 64
    pad: 1
    kernel_size: 3
    weight_filler {
      type: "xavier"
      std: 0.03
    }
    bias_filler {
      type: "constant"
      value: 0.2
    }
  }
}
layer {
  name: "inception_6a/3x3/bn1"
  type: "BatchNorm"
  bottom: "inception_6a/3x3"
  top: "inception_6a/3x3"
  param {
    lr_mult: 1
    decay_mult: 0
    compression: PRUNE
  }
  param {
    lr_mult: 1
    decay_mult: 0
    compression: PRUNE
  }
  param {
    lr_mult: 0
    decay_mult: 0
    compression: PRUNE
  }
  param {
    lr_mult: 0
    decay_mult: 0
    compression: PRUNE
  }
  batch_norm_param {
    use_global_stats: false
    scale_filler {
      type: "constant"
      value: 1
    }
    bias_filler {
      type: "constant"
      value: 0
    }
  }
}
layer {
  name: "inception_6a/3x3/relu1"
  type: "ReLU"
  bottom: "inception_6a/3x3"
  top: "inception_6a/3x3"
}
layer {
  name: "inception_6a/output"
  type: "Concat"
  bottom: "inception_6a/1x1"
  bottom: "inception_6a/3x3"
  top: "inception_6a/output"
}
layer {
  name: "inception_7a/1x1"
  type: "Convolution"
  bottom: "inception_6a/output"
  top: "inception_7a/1x1"
  param {
    lr_mult: 1
    decay_mult: 1
    compression: PRUNE
  }
  param {
    lr_mult: 2
    decay_mult: 0
    compression: PRUNE
  }
  convolution_param {
    num_output: 80
    kernel_size: 1
    weight_filler {
      type: "xavier"
      std: 0.03
    }
    bias_filler {
      type: "constant"
      value: 0.2
    }
  }
}
layer {
  name: "inception_7a/1x1/bn1"
  type: "BatchNorm"
  bottom: "inception_7a/1x1"
  top: "inception_7a/1x1"
  param {
    lr_mult: 1
    decay_mult: 0
    compression: PRUNE
  }
  param {
    lr_mult: 1
    decay_mult: 0
    compression: PRUNE
  }
  param {
    lr_mult: 0
    decay_mult: 0
    compression: PRUNE
  }
  param {
    lr_mult: 0
    decay_mult: 0
    compression: PRUNE
  }
  batch_norm_param {
    use_global_stats: false
    scale_filler {
      type: "constant"
      value: 1
    }
    bias_filler {
      type: "constant"
      value: 0
    }
  }
}
layer {
  name: "inception_7a/1x1/relu1"
  type: "ReLU"
  bottom: "inception_7a/1x1"
  top: "inception_7a/1x1"
}
layer {
  name: "inception_7a/3x3"
  type: "Convolution"
  bottom: "inception_6a/output"
  top: "inception_7a/3x3"
  param {
    lr_mult: 1
    decay_mult: 1
    compression: PRUNE
  }
  param {
    lr_mult: 2
    decay_mult: 0
    compression: PRUNE
  }
  convolution_param {
    num_output: 80
    pad: 1
    kernel_size: 3
    weight_filler {
      type: "xavier"
      std: 0.03
    }
    bias_filler {
      type: "constant"
      value: 0.2
    }
  }
}
layer {
  name: "inception_7a/3x3/bn1"
  type: "BatchNorm"
  bottom: "inception_7a/3x3"
  top: "inception_7a/3x3"
  param {
    lr_mult: 1
    decay_mult: 0
    compression: PRUNE
  }
  param {
    lr_mult: 1
    decay_mult: 0
    compression: PRUNE
  }
  param {
    lr_mult: 0
    decay_mult: 0
    compression: PRUNE
  }
  param {
    lr_mult: 0
    decay_mult: 0
    compression: PRUNE
  }
  batch_norm_param {
    use_global_stats: false
    scale_filler {
      type: "constant"
      value: 1
    }
    bias_filler {
      type: "constant"
      value: 0
    }
  }
}
layer {
  name: "inception_7a/3x3/relu1"
  type: "ReLU"
  bottom: "inception_7a/3x3"
  top: "inception_7a/3x3"
}
layer {
  name: "inception_7a/output"
  type: "Concat"
  bottom: "inception_7a/1x1"
  bottom: "inception_7a/3x3"
  top: "inception_7a/output"
}
layer {
  name: "inception_8a/1x1"
  type: "Convolution"
  bottom: "inception_7a/output"
  top: "inception_8a/1x1"
  param {
    lr_mult: 1
    decay_mult: 1
    compression: PRUNE
  }
  param {
    lr_mult: 2
    decay_mult: 0
    compression: PRUNE
  }
  convolution_param {
    num_output: 48
    kernel_size: 1
    weight_filler {
      type: "xavier"
      std: 0.03
    }
    bias_filler {
      type: "constant"
      value: 0.2
    }
  }
}
layer {
  name: "inception_8a/1x1/bn1"
  type: "BatchNorm"
  bottom: "inception_8a/1x1"
  top: "inception_8a/1x1"
  param {
    lr_mult: 1
    decay_mult: 0
    compression: PRUNE
  }
  param {
    lr_mult: 1
    decay_mult: 0
    compression: PRUNE
  }
  param {
    lr_mult: 0
    decay_mult: 0
    compression: PRUNE
  }
  param {
    lr_mult: 0
    decay_mult: 0
    compression: PRUNE
  }
  batch_norm_param {
    use_global_stats: false
    scale_filler {
      type: "constant"
      value: 1
    }
    bias_filler {
      type: "constant"
      value: 0
    }
  }
}
layer {
  name: "inception_8a/1x1/relu1"
  type: "ReLU"
  bottom: "inception_8a/1x1"
  top: "inception_8a/1x1"
}
layer {
  name: "inception_8a/3x3"
  type: "Convolution"
  bottom: "inception_7a/output"
  top: "inception_8a/3x3"
  param {
    lr_mult: 1
    decay_mult: 1
    compression: PRUNE
  }
  param {
    lr_mult: 2
    decay_mult: 0
    compression: PRUNE
  }
  convolution_param {
    num_output: 96
    pad: 1
    kernel_size: 3
    weight_filler {
      type: "xavier"
      std: 0.03
    }
    bias_filler {
      type: "constant"
      value: 0.2
    }
  }
}
layer {
  name: "inception_8a/3x3/bn1"
  type: "BatchNorm"
  bottom: "inception_8a/3x3"
  top: "inception_8a/3x3"
  param {
    lr_mult: 1
    decay_mult: 0
    compression: PRUNE
  }
  param {
    lr_mult: 1
    decay_mult: 0
    compression: PRUNE
  }
  param {
    lr_mult: 0
    decay_mult: 0
    compression: PRUNE
  }
  param {
    lr_mult: 0
    decay_mult: 0
    compression: PRUNE
  }
  batch_norm_param {
    use_global_stats: false
    scale_filler {
      type: "constant"
      value: 1
    }
    bias_filler {
      type: "constant"
      value: 0
    }
  }
}
layer {
  name: "inception_8a/3x3/relu1"
  type: "ReLU"
  bottom: "inception_8a/3x3"
  top: "inception_8a/3x3"
}
layer {
  name: "inception_8a/output"
  type: "Concat"
  bottom: "inception_8a/1x1"
  bottom: "inception_8a/3x3"
  top: "inception_8a/output"
}
layer {
  name: "downsample_9/3x3_s2"
  type: "Convolution"
  bottom: "inception_8a/output"
  top: "downsample_9/3x3_s2"
  param {
    lr_mult: 1
    decay_mult: 1
    compression: PRUNE
  }
  param {
    lr_mult: 2
    decay_mult: 0
    compression: PRUNE
  }
  convolution_param {
    num_output: 96
    pad: 1
    kernel_size: 3
    stride: 2
    weight_filler {
      type: "xavier"
      std: 0.03
    }
    bias_filler {
      type: "constant"
      value: 0.2
    }
  }
}
layer {
  name: "downsample_9/3x3_s2/bn1"
  type: "BatchNorm"
  bottom: "downsample_9/3x3_s2"
  top: "downsample_9/3x3_s2"
  param {
    lr_mult: 1
    decay_mult: 0
    compression: PRUNE
  }
  param {
    lr_mult: 1
    decay_mult: 0
    compression: PRUNE
  }
  param {
    lr_mult: 0
    decay_mult: 0
    compression: PRUNE
  }
  param {
    lr_mult: 0
    decay_mult: 0
    compression: PRUNE
  }
  batch_norm_param {
    use_global_stats: false
    scale_filler {
      type: "constant"
      value: 1
    }
    bias_filler {
      type: "constant"
      value: 0
    }
  }
}
layer {
  name: "downsample_9/3x3_s2/relu1"
  type: "ReLU"
  bottom: "downsample_9/3x3_s2"
  top: "downsample_9/3x3_s2"
}
layer {
  name: "downsample_9/pool_s2"
  type: "Pooling"
  bottom: "inception_8a/output"
  top: "downsample_9/pool_s2"
  pooling_param {
    pool: MAX
    kernel_size: 3
    stride: 2
  }
}
layer {
  name: "downsample_9/output"
  type: "Concat"
  bottom: "downsample_9/3x3_s2"
  bottom: "downsample_9/pool_s2"
  top: "downsample_9/output"
}
layer {
  name: "inception_10a/1x1"
  type: "Convolution"
  bottom: "downsample_9/output"
  top: "inception_10a/1x1"
  param {
    lr_mult: 1
    decay_mult: 1
    compression: PRUNE
  }
  param {
    lr_mult: 2
    decay_mult: 0
    compression: PRUNE
  }
  convolution_param {
    num_output: 176
    kernel_size: 1
    weight_filler {
      type: "xavier"
      std: 0.03
    }
    bias_filler {
      type: "constant"
      value: 0.2
    }
  }
}
layer {
  name: "inception_10a/1x1/bn1"
  type: "BatchNorm"
  bottom: "inception_10a/1x1"
  top: "inception_10a/1x1"
  param {
    lr_mult: 1
    decay_mult: 0
    compression: PRUNE
  }
  param {
    lr_mult: 1
    decay_mult: 0
    compression: PRUNE
  }
  param {
    lr_mult: 0
    decay_mult: 0
    compression: PRUNE
  }
  param {
    lr_mult: 0
    decay_mult: 0
    compression: PRUNE
  }
  batch_norm_param {
    use_global_stats: false
    scale_filler {
      type: "constant"
      value: 1
    }
    bias_filler {
      type: "constant"
      value: 0
    }
  }
}
layer {
  name: "inception_10a/1x1/relu1"
  type: "ReLU"
  bottom: "inception_10a/1x1"
  top: "inception_10a/1x1"
}
layer {
  name: "inception_10a/3x3"
  type: "Convolution"
  bottom: "downsample_9/output"
  top: "inception_10a/3x3"
  param {
    lr_mult: 1
    decay_mult: 1
    compression: PRUNE
  }
  param {
    lr_mult: 2
    decay_mult: 0
    compression: PRUNE
  }
  convolution_param {
    num_output: 160
    pad: 1
    kernel_size: 3
    weight_filler {
      type: "xavier"
      std: 0.03
    }
    bias_filler {
      type: "constant"
      value: 0.2
    }
  }
}
layer {
  name: "inception_10a/3x3/bn1"
  type: "BatchNorm"
  bottom: "inception_10a/3x3"
  top: "inception_10a/3x3"
  param {
    lr_mult: 1
    decay_mult: 0
    compression: PRUNE
  }
  param {
    lr_mult: 1
    decay_mult: 0
    compression: PRUNE
  }
  param {
    lr_mult: 0
    decay_mult: 0
    compression: PRUNE
  }
  param {
    lr_mult: 0
    decay_mult: 0
    compression: PRUNE
  }
  batch_norm_param {
    use_global_stats: false
    scale_filler {
      type: "constant"
      value: 1
    }
    bias_filler {
      type: "constant"
      value: 0
    }
  }
}
layer {
  name: "inception_10a/3x3/relu1"
  type: "ReLU"
  bottom: "inception_10a/3x3"
  top: "inception_10a/3x3"
}
layer {
  name: "inception_10a/output"
  type: "Concat"
  bottom: "inception_10a/1x1"
  bottom: "inception_10a/3x3"
  top: "inception_10a/output"
}
layer {
  name: "inception_11a/1x1"
  type: "Convolution"
  bottom: "inception_10a/output"
  top: "inception_11a/1x1"
  param {
    lr_mult: 1
    decay_mult: 1
    compression: PRUNE
  }
  param {
    lr_mult: 2
    decay_mult: 0
    compression: PRUNE
  }
  convolution_param {
    num_output: 176
    kernel_size: 1
    weight_filler {
      type: "xavier"
      std: 0.03
    }
    bias_filler {
      type: "constant"
      value: 0.2
    }
  }
}
layer {
  name: "inception_11a/1x1/bn1"
  type: "BatchNorm"
  bottom: "inception_11a/1x1"
  top: "inception_11a/1x1"
  param {
    lr_mult: 1
    decay_mult: 0
    compression: PRUNE
  }
  param {
    lr_mult: 1
    decay_mult: 0
    compression: PRUNE
  }
  param {
    lr_mult: 0
    decay_mult: 0
    compression: PRUNE
  }
  param {
    lr_mult: 0
    decay_mult: 0
    compression: PRUNE
  }
  batch_norm_param {
    use_global_stats: false
    scale_filler {
      type: "constant"
      value: 1
    }
    bias_filler {
      type: "constant"
      value: 0
    }
  }
}
layer {
  name: "inception_11a/1x1/relu1"
  type: "ReLU"
  bottom: "inception_11a/1x1"
  top: "inception_11a/1x1"
}
layer {
  name: "inception_11a/3x3"
  type: "Convolution"
  bottom: "inception_10a/output"
  top: "inception_11a/3x3"
  param {
    lr_mult: 1
    decay_mult: 1
    compression: PRUNE
  }
  param {
    lr_mult: 2
    decay_mult: 0
    compression: PRUNE
  }
  convolution_param {
    num_output: 160
    pad: 1
    kernel_size: 3
    weight_filler {
      type: "xavier"
      std: 0.03
    }
    bias_filler {
      type: "constant"
      value: 0.2
    }
  }
}
layer {
  name: "inception_11a/3x3/bn1"
  type: "BatchNorm"
  bottom: "inception_11a/3x3"
  top: "inception_11a/3x3"
  param {
    lr_mult: 1
    decay_mult: 0
    compression: PRUNE
  }
  param {
    lr_mult: 1
    decay_mult: 0
    compression: PRUNE
  }
  param {
    lr_mult: 0
    decay_mult: 0
    compression: PRUNE
  }
  param {
    lr_mult: 0
    decay_mult: 0
    compression: PRUNE
  }
  batch_norm_param {
    use_global_stats: false
    scale_filler {
      type: "constant"
      value: 1
    }
    bias_filler {
      type: "constant"
      value: 0
    }
  }
}
layer {
  name: "inception_11a/3x3/relu1"
  type: "ReLU"
  bottom: "inception_11a/3x3"
  top: "inception_11a/3x3"
}
layer {
  name: "inception_11a/output"
  type: "Concat"
  bottom: "inception_11a/1x1"
  bottom: "inception_11a/3x3"
  top: "inception_11a/output"
}
layer {
  name: "avg_pool_12/8x8_s1"
  type: "Pooling"
  bottom: "inception_11a/output"
  top: "avg_pool_12/8x8_s1"
  pooling_param {
    pool: AVE
    kernel_size: 8
    stride: 1
  }
}
layer {
  name: "drop_8x8_s1"
  type: "Dropout"
  bottom: "avg_pool_12/8x8_s1"
  top: "avg_pool_12/8x8_s1"
  dropout_param {
    dropout_ratio: 0.5
  }
}
layer {
  name: "loss/classifier"
  type: "InnerProduct"
  bottom: "avg_pool_12/8x8_s1"
  top: "loss/classifier"
  param {
    lr_mult: 1
    decay_mult: 1
  }
  param {
    lr_mult: 2
    decay_mult: 0
  }
  inner_product_param {
    num_output: 10
    weight_filler {
      type: "xavier"
    }
    bias_filler {
      type: "constant"
      value: 1
    }
  }
}
layer {
  name: "loss"
  type: "SoftmaxWithLoss"
  bottom: "loss/classifier"
  bottom: "label"
  top: "loss"
}
layer {
  name: "accuracy"
  type: "Accuracy"
  bottom: "loss/classifier"
  bottom: "label"
  top: "accuracy"
  include {
    phase: TEST
  }
}
layer {
  name: "accuracy-top1"
  type: "Accuracy"
  bottom: "loss/classifier"
  bottom: "label"
  top: "top-1"
  include {
    phase: TEST
  }
}
layer {
  name: "accuracy-top5"
  type: "Accuracy"
  bottom: "loss/classifier"
  bottom: "label"
  top: "top-5"
  include {
    phase: TEST
  }
  accuracy_param {
    top_k: 5
  }
}
I0122 18:31:55.937058 69145 layer_factory.hpp:77] Creating layer data
I0122 18:31:55.937114 69145 internal_thread.cpp:27] Starting internal thread(s) on GPU 0
I0122 18:31:55.938056 69145 net.cpp:94] Creating Layer data
I0122 18:31:55.938069 69145 net.cpp:409] data -> data
I0122 18:31:55.938081 69145 net.cpp:409] data -> label
I0122 18:31:55.939019 69214 db_lmdb.cpp:35] Opened lmdb cifar10/input/lmdb/valid_lmdb
I0122 18:31:55.939051 69214 data_reader.cpp:117] TEST: reading data using 1 channel(s)
I0122 18:31:55.939132 69145 data_layer.cpp:78] ReshapePrefetch 50, 3, 32, 32
I0122 18:31:55.939241 69145 data_layer.cpp:83] output data size: 50,3,32,32
I0122 18:31:55.942153 69145 internal_thread.cpp:27] Starting internal thread(s) on GPU 0
I0122 18:31:55.942195 69145 net.cpp:144] Setting up data
I0122 18:31:55.942207 69145 net.cpp:151] Top shape: 50 3 32 32 (153600)
I0122 18:31:55.942212 69145 net.cpp:151] Top shape: 50 (50)
I0122 18:31:55.942215 69145 net.cpp:159] Memory required for data: 614600
I0122 18:31:55.942219 69145 layer_factory.hpp:77] Creating layer label_data_1_split
I0122 18:31:55.942230 69145 net.cpp:94] Creating Layer label_data_1_split
I0122 18:31:55.942236 69145 net.cpp:435] label_data_1_split <- label
I0122 18:31:55.942245 69145 net.cpp:409] label_data_1_split -> label_data_1_split_0
I0122 18:31:55.942253 69145 net.cpp:409] label_data_1_split -> label_data_1_split_1
I0122 18:31:55.942265 69145 net.cpp:409] label_data_1_split -> label_data_1_split_2
I0122 18:31:55.942273 69145 net.cpp:409] label_data_1_split -> label_data_1_split_3
I0122 18:31:55.942409 69145 net.cpp:144] Setting up label_data_1_split
I0122 18:31:55.942416 69145 net.cpp:151] Top shape: 50 (50)
I0122 18:31:55.942420 69145 net.cpp:151] Top shape: 50 (50)
I0122 18:31:55.942425 69145 net.cpp:151] Top shape: 50 (50)
I0122 18:31:55.942427 69145 net.cpp:151] Top shape: 50 (50)
I0122 18:31:55.942431 69145 net.cpp:159] Memory required for data: 615400
I0122 18:31:55.942436 69145 layer_factory.hpp:77] Creating layer conv1/3x3_s1
I0122 18:31:55.942451 69145 net.cpp:94] Creating Layer conv1/3x3_s1
I0122 18:31:55.942457 69145 net.cpp:435] conv1/3x3_s1 <- data
I0122 18:31:55.942466 69145 net.cpp:409] conv1/3x3_s1 -> conv1/3x3_s1
I0122 18:31:55.942764 69145 net.cpp:144] Setting up conv1/3x3_s1
I0122 18:31:55.942771 69145 net.cpp:151] Top shape: 50 96 32 32 (4915200)
I0122 18:31:55.942775 69145 net.cpp:159] Memory required for data: 20276200
I0122 18:31:55.942785 69145 layer_factory.hpp:77] Creating layer conv1/bn1
I0122 18:31:55.942798 69145 net.cpp:94] Creating Layer conv1/bn1
I0122 18:31:55.942802 69145 net.cpp:435] conv1/bn1 <- conv1/3x3_s1
I0122 18:31:55.942823 69145 net.cpp:396] conv1/bn1 -> conv1/3x3_s1 (in-place)
I0122 18:31:55.943560 69145 net.cpp:144] Setting up conv1/bn1
I0122 18:31:55.943568 69145 net.cpp:151] Top shape: 50 96 32 32 (4915200)
I0122 18:31:55.943572 69145 net.cpp:159] Memory required for data: 39937000
I0122 18:31:55.943583 69145 layer_factory.hpp:77] Creating layer conv1/relu1
I0122 18:31:55.943595 69145 net.cpp:94] Creating Layer conv1/relu1
I0122 18:31:55.943600 69145 net.cpp:435] conv1/relu1 <- conv1/3x3_s1
I0122 18:31:55.943606 69145 net.cpp:396] conv1/relu1 -> conv1/3x3_s1 (in-place)
I0122 18:31:55.943617 69145 net.cpp:144] Setting up conv1/relu1
I0122 18:31:55.943624 69145 net.cpp:151] Top shape: 50 96 32 32 (4915200)
I0122 18:31:55.943629 69145 net.cpp:159] Memory required for data: 59597800
I0122 18:31:55.943632 69145 layer_factory.hpp:77] Creating layer conv1/3x3_s1_conv1/relu1_0_split
I0122 18:31:55.943639 69145 net.cpp:94] Creating Layer conv1/3x3_s1_conv1/relu1_0_split
I0122 18:31:55.943644 69145 net.cpp:435] conv1/3x3_s1_conv1/relu1_0_split <- conv1/3x3_s1
I0122 18:31:55.943653 69145 net.cpp:409] conv1/3x3_s1_conv1/relu1_0_split -> conv1/3x3_s1_conv1/relu1_0_split_0
I0122 18:31:55.943665 69145 net.cpp:409] conv1/3x3_s1_conv1/relu1_0_split -> conv1/3x3_s1_conv1/relu1_0_split_1
I0122 18:31:55.943835 69145 net.cpp:144] Setting up conv1/3x3_s1_conv1/relu1_0_split
I0122 18:31:55.943842 69145 net.cpp:151] Top shape: 50 96 32 32 (4915200)
I0122 18:31:55.943846 69145 net.cpp:151] Top shape: 50 96 32 32 (4915200)
I0122 18:31:55.943850 69145 net.cpp:159] Memory required for data: 98919400
I0122 18:31:55.943852 69145 layer_factory.hpp:77] Creating layer inception_2a/1x1
I0122 18:31:55.943863 69145 net.cpp:94] Creating Layer inception_2a/1x1
I0122 18:31:55.943871 69145 net.cpp:435] inception_2a/1x1 <- conv1/3x3_s1_conv1/relu1_0_split_0
I0122 18:31:55.943879 69145 net.cpp:409] inception_2a/1x1 -> inception_2a/1x1
I0122 18:31:55.944293 69145 net.cpp:144] Setting up inception_2a/1x1
I0122 18:31:55.944300 69145 net.cpp:151] Top shape: 50 32 32 32 (1638400)
I0122 18:31:55.944303 69145 net.cpp:159] Memory required for data: 105473000
I0122 18:31:55.944310 69145 layer_factory.hpp:77] Creating layer inception_2a/1x1/bn1
I0122 18:31:55.944322 69145 net.cpp:94] Creating Layer inception_2a/1x1/bn1
I0122 18:31:55.944326 69145 net.cpp:435] inception_2a/1x1/bn1 <- inception_2a/1x1
I0122 18:31:55.944337 69145 net.cpp:396] inception_2a/1x1/bn1 -> inception_2a/1x1 (in-place)
I0122 18:31:55.945152 69145 net.cpp:144] Setting up inception_2a/1x1/bn1
I0122 18:31:55.945159 69145 net.cpp:151] Top shape: 50 32 32 32 (1638400)
I0122 18:31:55.945161 69145 net.cpp:159] Memory required for data: 112026600
I0122 18:31:55.945170 69145 layer_factory.hpp:77] Creating layer inception_2a/1x1/relu1
I0122 18:31:55.945181 69145 net.cpp:94] Creating Layer inception_2a/1x1/relu1
I0122 18:31:55.945185 69145 net.cpp:435] inception_2a/1x1/relu1 <- inception_2a/1x1
I0122 18:31:55.945194 69145 net.cpp:396] inception_2a/1x1/relu1 -> inception_2a/1x1 (in-place)
I0122 18:31:55.945205 69145 net.cpp:144] Setting up inception_2a/1x1/relu1
I0122 18:31:55.945211 69145 net.cpp:151] Top shape: 50 32 32 32 (1638400)
I0122 18:31:55.945214 69145 net.cpp:159] Memory required for data: 118580200
I0122 18:31:55.945219 69145 layer_factory.hpp:77] Creating layer inception_2a/3x3
I0122 18:31:55.945231 69145 net.cpp:94] Creating Layer inception_2a/3x3
I0122 18:31:55.945237 69145 net.cpp:435] inception_2a/3x3 <- conv1/3x3_s1_conv1/relu1_0_split_1
I0122 18:31:55.945246 69145 net.cpp:409] inception_2a/3x3 -> inception_2a/3x3
I0122 18:31:55.945694 69145 net.cpp:144] Setting up inception_2a/3x3
I0122 18:31:55.945703 69145 net.cpp:151] Top shape: 50 32 32 32 (1638400)
I0122 18:31:55.945705 69145 net.cpp:159] Memory required for data: 125133800
I0122 18:31:55.945710 69145 layer_factory.hpp:77] Creating layer inception_2a/3x3/bn1
I0122 18:31:55.945719 69145 net.cpp:94] Creating Layer inception_2a/3x3/bn1
I0122 18:31:55.945722 69145 net.cpp:435] inception_2a/3x3/bn1 <- inception_2a/3x3
I0122 18:31:55.945741 69145 net.cpp:396] inception_2a/3x3/bn1 -> inception_2a/3x3 (in-place)
I0122 18:31:55.946478 69145 net.cpp:144] Setting up inception_2a/3x3/bn1
I0122 18:31:55.946486 69145 net.cpp:151] Top shape: 50 32 32 32 (1638400)
I0122 18:31:55.946491 69145 net.cpp:159] Memory required for data: 131687400
I0122 18:31:55.946503 69145 layer_factory.hpp:77] Creating layer inception_2a/3x3/relu1
I0122 18:31:55.946514 69145 net.cpp:94] Creating Layer inception_2a/3x3/relu1
I0122 18:31:55.946518 69145 net.cpp:435] inception_2a/3x3/relu1 <- inception_2a/3x3
I0122 18:31:55.946527 69145 net.cpp:396] inception_2a/3x3/relu1 -> inception_2a/3x3 (in-place)
I0122 18:31:55.946538 69145 net.cpp:144] Setting up inception_2a/3x3/relu1
I0122 18:31:55.946544 69145 net.cpp:151] Top shape: 50 32 32 32 (1638400)
I0122 18:31:55.946548 69145 net.cpp:159] Memory required for data: 138241000
I0122 18:31:55.946554 69145 layer_factory.hpp:77] Creating layer inception_2a/output
I0122 18:31:55.946561 69145 net.cpp:94] Creating Layer inception_2a/output
I0122 18:31:55.946565 69145 net.cpp:435] inception_2a/output <- inception_2a/1x1
I0122 18:31:55.946570 69145 net.cpp:435] inception_2a/output <- inception_2a/3x3
I0122 18:31:55.946578 69145 net.cpp:409] inception_2a/output -> inception_2a/output
I0122 18:31:55.946660 69145 net.cpp:144] Setting up inception_2a/output
I0122 18:31:55.946668 69145 net.cpp:151] Top shape: 50 64 32 32 (3276800)
I0122 18:31:55.946671 69145 net.cpp:159] Memory required for data: 151348200
I0122 18:31:55.946674 69145 layer_factory.hpp:77] Creating layer inception_2a/output_inception_2a/output_0_split
I0122 18:31:55.946679 69145 net.cpp:94] Creating Layer inception_2a/output_inception_2a/output_0_split
I0122 18:31:55.946684 69145 net.cpp:435] inception_2a/output_inception_2a/output_0_split <- inception_2a/output
I0122 18:31:55.946691 69145 net.cpp:409] inception_2a/output_inception_2a/output_0_split -> inception_2a/output_inception_2a/output_0_split_0
I0122 18:31:55.946702 69145 net.cpp:409] inception_2a/output_inception_2a/output_0_split -> inception_2a/output_inception_2a/output_0_split_1
I0122 18:31:55.946743 69145 net.cpp:144] Setting up inception_2a/output_inception_2a/output_0_split
I0122 18:31:55.946748 69145 net.cpp:151] Top shape: 50 64 32 32 (3276800)
I0122 18:31:55.946751 69145 net.cpp:151] Top shape: 50 64 32 32 (3276800)
I0122 18:31:55.946758 69145 net.cpp:159] Memory required for data: 177562600
I0122 18:31:55.946760 69145 layer_factory.hpp:77] Creating layer inception_3a/1x1
I0122 18:31:55.946771 69145 net.cpp:94] Creating Layer inception_3a/1x1
I0122 18:31:55.946776 69145 net.cpp:435] inception_3a/1x1 <- inception_2a/output_inception_2a/output_0_split_0
I0122 18:31:55.946785 69145 net.cpp:409] inception_3a/1x1 -> inception_3a/1x1
I0122 18:31:55.947054 69145 net.cpp:144] Setting up inception_3a/1x1
I0122 18:31:55.947062 69145 net.cpp:151] Top shape: 50 32 32 32 (1638400)
I0122 18:31:55.947063 69145 net.cpp:159] Memory required for data: 184116200
I0122 18:31:55.947069 69145 layer_factory.hpp:77] Creating layer inception_3a/1x1/bn1
I0122 18:31:55.947078 69145 net.cpp:94] Creating Layer inception_3a/1x1/bn1
I0122 18:31:55.947083 69145 net.cpp:435] inception_3a/1x1/bn1 <- inception_3a/1x1
I0122 18:31:55.947093 69145 net.cpp:396] inception_3a/1x1/bn1 -> inception_3a/1x1 (in-place)
I0122 18:31:55.947877 69145 net.cpp:144] Setting up inception_3a/1x1/bn1
I0122 18:31:55.947885 69145 net.cpp:151] Top shape: 50 32 32 32 (1638400)
I0122 18:31:55.947887 69145 net.cpp:159] Memory required for data: 190669800
I0122 18:31:55.947894 69145 layer_factory.hpp:77] Creating layer inception_3a/1x1/relu1
I0122 18:31:55.947916 69145 net.cpp:94] Creating Layer inception_3a/1x1/relu1
I0122 18:31:55.947922 69145 net.cpp:435] inception_3a/1x1/relu1 <- inception_3a/1x1
I0122 18:31:55.947928 69145 net.cpp:396] inception_3a/1x1/relu1 -> inception_3a/1x1 (in-place)
I0122 18:31:55.947934 69145 net.cpp:144] Setting up inception_3a/1x1/relu1
I0122 18:31:55.947944 69145 net.cpp:151] Top shape: 50 32 32 32 (1638400)
I0122 18:31:55.947949 69145 net.cpp:159] Memory required for data: 197223400
I0122 18:31:55.947964 69145 layer_factory.hpp:77] Creating layer inception_3a/3x3
I0122 18:31:55.947976 69145 net.cpp:94] Creating Layer inception_3a/3x3
I0122 18:31:55.947983 69145 net.cpp:435] inception_3a/3x3 <- inception_2a/output_inception_2a/output_0_split_1
I0122 18:31:55.947993 69145 net.cpp:409] inception_3a/3x3 -> inception_3a/3x3
I0122 18:31:55.949110 69145 net.cpp:144] Setting up inception_3a/3x3
I0122 18:31:55.949120 69145 net.cpp:151] Top shape: 50 48 32 32 (2457600)
I0122 18:31:55.949129 69145 net.cpp:159] Memory required for data: 207053800
I0122 18:31:55.949136 69145 layer_factory.hpp:77] Creating layer inception_3a/3x3/bn1
I0122 18:31:55.949144 69145 net.cpp:94] Creating Layer inception_3a/3x3/bn1
I0122 18:31:55.949148 69145 net.cpp:435] inception_3a/3x3/bn1 <- inception_3a/3x3
I0122 18:31:55.949167 69145 net.cpp:396] inception_3a/3x3/bn1 -> inception_3a/3x3 (in-place)
I0122 18:31:55.949966 69145 net.cpp:144] Setting up inception_3a/3x3/bn1
I0122 18:31:55.949975 69145 net.cpp:151] Top shape: 50 48 32 32 (2457600)
I0122 18:31:55.949977 69145 net.cpp:159] Memory required for data: 216884200
I0122 18:31:55.949990 69145 layer_factory.hpp:77] Creating layer inception_3a/3x3/relu1
I0122 18:31:55.950002 69145 net.cpp:94] Creating Layer inception_3a/3x3/relu1
I0122 18:31:55.950008 69145 net.cpp:435] inception_3a/3x3/relu1 <- inception_3a/3x3
I0122 18:31:55.950016 69145 net.cpp:396] inception_3a/3x3/relu1 -> inception_3a/3x3 (in-place)
I0122 18:31:55.950028 69145 net.cpp:144] Setting up inception_3a/3x3/relu1
I0122 18:31:55.950034 69145 net.cpp:151] Top shape: 50 48 32 32 (2457600)
I0122 18:31:55.950037 69145 net.cpp:159] Memory required for data: 226714600
I0122 18:31:55.950042 69145 layer_factory.hpp:77] Creating layer inception_3a/output
I0122 18:31:55.950048 69145 net.cpp:94] Creating Layer inception_3a/output
I0122 18:31:55.950055 69145 net.cpp:435] inception_3a/output <- inception_3a/1x1
I0122 18:31:55.950060 69145 net.cpp:435] inception_3a/output <- inception_3a/3x3
I0122 18:31:55.950068 69145 net.cpp:409] inception_3a/output -> inception_3a/output
I0122 18:31:55.950129 69145 net.cpp:144] Setting up inception_3a/output
I0122 18:31:55.950134 69145 net.cpp:151] Top shape: 50 80 32 32 (4096000)
I0122 18:31:55.950137 69145 net.cpp:159] Memory required for data: 243098600
I0122 18:31:55.950139 69145 layer_factory.hpp:77] Creating layer inception_3a/output_inception_3a/output_0_split
I0122 18:31:55.950147 69145 net.cpp:94] Creating Layer inception_3a/output_inception_3a/output_0_split
I0122 18:31:55.950153 69145 net.cpp:435] inception_3a/output_inception_3a/output_0_split <- inception_3a/output
I0122 18:31:55.950160 69145 net.cpp:409] inception_3a/output_inception_3a/output_0_split -> inception_3a/output_inception_3a/output_0_split_0
I0122 18:31:55.950178 69145 net.cpp:409] inception_3a/output_inception_3a/output_0_split -> inception_3a/output_inception_3a/output_0_split_1
I0122 18:31:55.950222 69145 net.cpp:144] Setting up inception_3a/output_inception_3a/output_0_split
I0122 18:31:55.950227 69145 net.cpp:151] Top shape: 50 80 32 32 (4096000)
I0122 18:31:55.950232 69145 net.cpp:151] Top shape: 50 80 32 32 (4096000)
I0122 18:31:55.950234 69145 net.cpp:159] Memory required for data: 275866600
I0122 18:31:55.950237 69145 layer_factory.hpp:77] Creating layer downsample_4/3x3_s2
I0122 18:31:55.950251 69145 net.cpp:94] Creating Layer downsample_4/3x3_s2
I0122 18:31:55.950258 69145 net.cpp:435] downsample_4/3x3_s2 <- inception_3a/output_inception_3a/output_0_split_0
I0122 18:31:55.950266 69145 net.cpp:409] downsample_4/3x3_s2 -> downsample_4/3x3_s2
I0122 18:31:55.950847 69145 net.cpp:144] Setting up downsample_4/3x3_s2
I0122 18:31:55.950855 69145 net.cpp:151] Top shape: 50 80 16 16 (1024000)
I0122 18:31:55.950857 69145 net.cpp:159] Memory required for data: 279962600
I0122 18:31:55.950863 69145 layer_factory.hpp:77] Creating layer downsample_4/3x3_s2/bn1
I0122 18:31:55.950873 69145 net.cpp:94] Creating Layer downsample_4/3x3_s2/bn1
I0122 18:31:55.950878 69145 net.cpp:435] downsample_4/3x3_s2/bn1 <- downsample_4/3x3_s2
I0122 18:31:55.950902 69145 net.cpp:396] downsample_4/3x3_s2/bn1 -> downsample_4/3x3_s2 (in-place)
I0122 18:31:55.951757 69145 net.cpp:144] Setting up downsample_4/3x3_s2/bn1
I0122 18:31:55.951766 69145 net.cpp:151] Top shape: 50 80 16 16 (1024000)
I0122 18:31:55.951768 69145 net.cpp:159] Memory required for data: 284058600
I0122 18:31:55.951777 69145 layer_factory.hpp:77] Creating layer downsample_4/3x3_s2/relu1
I0122 18:31:55.951788 69145 net.cpp:94] Creating Layer downsample_4/3x3_s2/relu1
I0122 18:31:55.951797 69145 net.cpp:435] downsample_4/3x3_s2/relu1 <- downsample_4/3x3_s2
I0122 18:31:55.951807 69145 net.cpp:396] downsample_4/3x3_s2/relu1 -> downsample_4/3x3_s2 (in-place)
I0122 18:31:55.951815 69145 net.cpp:144] Setting up downsample_4/3x3_s2/relu1
I0122 18:31:55.951823 69145 net.cpp:151] Top shape: 50 80 16 16 (1024000)
I0122 18:31:55.951828 69145 net.cpp:159] Memory required for data: 288154600
I0122 18:31:55.951831 69145 layer_factory.hpp:77] Creating layer downsample_4/pool_s2
I0122 18:31:55.951839 69145 net.cpp:94] Creating Layer downsample_4/pool_s2
I0122 18:31:55.951844 69145 net.cpp:435] downsample_4/pool_s2 <- inception_3a/output_inception_3a/output_0_split_1
I0122 18:31:55.951861 69145 net.cpp:409] downsample_4/pool_s2 -> downsample_4/pool_s2
I0122 18:31:55.951913 69145 net.cpp:144] Setting up downsample_4/pool_s2
I0122 18:31:55.951920 69145 net.cpp:151] Top shape: 50 80 16 16 (1024000)
I0122 18:31:55.951921 69145 net.cpp:159] Memory required for data: 292250600
I0122 18:31:55.951925 69145 layer_factory.hpp:77] Creating layer downsample_4/output
I0122 18:31:55.951930 69145 net.cpp:94] Creating Layer downsample_4/output
I0122 18:31:55.951932 69145 net.cpp:435] downsample_4/output <- downsample_4/3x3_s2
I0122 18:31:55.951937 69145 net.cpp:435] downsample_4/output <- downsample_4/pool_s2
I0122 18:31:55.951946 69145 net.cpp:409] downsample_4/output -> downsample_4/output
I0122 18:31:55.951973 69145 net.cpp:144] Setting up downsample_4/output
I0122 18:31:55.951979 69145 net.cpp:151] Top shape: 50 160 16 16 (2048000)
I0122 18:31:55.951982 69145 net.cpp:159] Memory required for data: 300442600
I0122 18:31:55.951985 69145 layer_factory.hpp:77] Creating layer downsample_4/output_downsample_4/output_0_split
I0122 18:31:55.951992 69145 net.cpp:94] Creating Layer downsample_4/output_downsample_4/output_0_split
I0122 18:31:55.952008 69145 net.cpp:435] downsample_4/output_downsample_4/output_0_split <- downsample_4/output
I0122 18:31:55.952015 69145 net.cpp:409] downsample_4/output_downsample_4/output_0_split -> downsample_4/output_downsample_4/output_0_split_0
I0122 18:31:55.952025 69145 net.cpp:409] downsample_4/output_downsample_4/output_0_split -> downsample_4/output_downsample_4/output_0_split_1
I0122 18:31:55.952064 69145 net.cpp:144] Setting up downsample_4/output_downsample_4/output_0_split
I0122 18:31:55.952070 69145 net.cpp:151] Top shape: 50 160 16 16 (2048000)
I0122 18:31:55.952073 69145 net.cpp:151] Top shape: 50 160 16 16 (2048000)
I0122 18:31:55.952077 69145 net.cpp:159] Memory required for data: 316826600
I0122 18:31:55.952080 69145 layer_factory.hpp:77] Creating layer inception_5a/1x1
I0122 18:31:55.952088 69145 net.cpp:94] Creating Layer inception_5a/1x1
I0122 18:31:55.952091 69145 net.cpp:435] inception_5a/1x1 <- downsample_4/output_downsample_4/output_0_split_0
I0122 18:31:55.952101 69145 net.cpp:409] inception_5a/1x1 -> inception_5a/1x1
I0122 18:31:55.952462 69145 net.cpp:144] Setting up inception_5a/1x1
I0122 18:31:55.952469 69145 net.cpp:151] Top shape: 50 112 16 16 (1433600)
I0122 18:31:55.952473 69145 net.cpp:159] Memory required for data: 322561000
I0122 18:31:55.952478 69145 layer_factory.hpp:77] Creating layer inception_5a/1x1/bn1
I0122 18:31:55.952489 69145 net.cpp:94] Creating Layer inception_5a/1x1/bn1
I0122 18:31:55.952497 69145 net.cpp:435] inception_5a/1x1/bn1 <- inception_5a/1x1
I0122 18:31:55.952507 69145 net.cpp:396] inception_5a/1x1/bn1 -> inception_5a/1x1 (in-place)
I0122 18:31:55.953352 69145 net.cpp:144] Setting up inception_5a/1x1/bn1
I0122 18:31:55.953372 69145 net.cpp:151] Top shape: 50 112 16 16 (1433600)
I0122 18:31:55.953375 69145 net.cpp:159] Memory required for data: 328295400
I0122 18:31:55.953383 69145 layer_factory.hpp:77] Creating layer inception_5a/1x1/relu1
I0122 18:31:55.953393 69145 net.cpp:94] Creating Layer inception_5a/1x1/relu1
I0122 18:31:55.953397 69145 net.cpp:435] inception_5a/1x1/relu1 <- inception_5a/1x1
I0122 18:31:55.953404 69145 net.cpp:396] inception_5a/1x1/relu1 -> inception_5a/1x1 (in-place)
I0122 18:31:55.953414 69145 net.cpp:144] Setting up inception_5a/1x1/relu1
I0122 18:31:55.953423 69145 net.cpp:151] Top shape: 50 112 16 16 (1433600)
I0122 18:31:55.953428 69145 net.cpp:159] Memory required for data: 334029800
I0122 18:31:55.953431 69145 layer_factory.hpp:77] Creating layer inception_5a/3x3
I0122 18:31:55.953455 69145 net.cpp:94] Creating Layer inception_5a/3x3
I0122 18:31:55.953462 69145 net.cpp:435] inception_5a/3x3 <- downsample_4/output_downsample_4/output_0_split_1
I0122 18:31:55.953469 69145 net.cpp:409] inception_5a/3x3 -> inception_5a/3x3
I0122 18:31:55.954151 69145 net.cpp:144] Setting up inception_5a/3x3
I0122 18:31:55.954160 69145 net.cpp:151] Top shape: 50 48 16 16 (614400)
I0122 18:31:55.954164 69145 net.cpp:159] Memory required for data: 336487400
I0122 18:31:55.954169 69145 layer_factory.hpp:77] Creating layer inception_5a/3x3/bn1
I0122 18:31:55.954182 69145 net.cpp:94] Creating Layer inception_5a/3x3/bn1
I0122 18:31:55.954190 69145 net.cpp:435] inception_5a/3x3/bn1 <- inception_5a/3x3
I0122 18:31:55.954200 69145 net.cpp:396] inception_5a/3x3/bn1 -> inception_5a/3x3 (in-place)
I0122 18:31:55.955044 69145 net.cpp:144] Setting up inception_5a/3x3/bn1
I0122 18:31:55.955050 69145 net.cpp:151] Top shape: 50 48 16 16 (614400)
I0122 18:31:55.955054 69145 net.cpp:159] Memory required for data: 338945000
I0122 18:31:55.955063 69145 layer_factory.hpp:77] Creating layer inception_5a/3x3/relu1
I0122 18:31:55.955075 69145 net.cpp:94] Creating Layer inception_5a/3x3/relu1
I0122 18:31:55.955080 69145 net.cpp:435] inception_5a/3x3/relu1 <- inception_5a/3x3
I0122 18:31:55.955086 69145 net.cpp:396] inception_5a/3x3/relu1 -> inception_5a/3x3 (in-place)
I0122 18:31:55.955099 69145 net.cpp:144] Setting up inception_5a/3x3/relu1
I0122 18:31:55.955107 69145 net.cpp:151] Top shape: 50 48 16 16 (614400)
I0122 18:31:55.955111 69145 net.cpp:159] Memory required for data: 341402600
I0122 18:31:55.955116 69145 layer_factory.hpp:77] Creating layer inception_5a/output
I0122 18:31:55.955122 69145 net.cpp:94] Creating Layer inception_5a/output
I0122 18:31:55.955128 69145 net.cpp:435] inception_5a/output <- inception_5a/1x1
I0122 18:31:55.955134 69145 net.cpp:435] inception_5a/output <- inception_5a/3x3
I0122 18:31:55.955142 69145 net.cpp:409] inception_5a/output -> inception_5a/output
I0122 18:31:55.955183 69145 net.cpp:144] Setting up inception_5a/output
I0122 18:31:55.955188 69145 net.cpp:151] Top shape: 50 160 16 16 (2048000)
I0122 18:31:55.955191 69145 net.cpp:159] Memory required for data: 349594600
I0122 18:31:55.955193 69145 layer_factory.hpp:77] Creating layer inception_5a/output_inception_5a/output_0_split
I0122 18:31:55.955200 69145 net.cpp:94] Creating Layer inception_5a/output_inception_5a/output_0_split
I0122 18:31:55.955204 69145 net.cpp:435] inception_5a/output_inception_5a/output_0_split <- inception_5a/output
I0122 18:31:55.955210 69145 net.cpp:409] inception_5a/output_inception_5a/output_0_split -> inception_5a/output_inception_5a/output_0_split_0
I0122 18:31:55.955224 69145 net.cpp:409] inception_5a/output_inception_5a/output_0_split -> inception_5a/output_inception_5a/output_0_split_1
I0122 18:31:55.955265 69145 net.cpp:144] Setting up inception_5a/output_inception_5a/output_0_split
I0122 18:31:55.955271 69145 net.cpp:151] Top shape: 50 160 16 16 (2048000)
I0122 18:31:55.955274 69145 net.cpp:151] Top shape: 50 160 16 16 (2048000)
I0122 18:31:55.955277 69145 net.cpp:159] Memory required for data: 365978600
I0122 18:31:55.955281 69145 layer_factory.hpp:77] Creating layer inception_6a/1x1
I0122 18:31:55.955307 69145 net.cpp:94] Creating Layer inception_6a/1x1
I0122 18:31:55.955314 69145 net.cpp:435] inception_6a/1x1 <- inception_5a/output_inception_5a/output_0_split_0
I0122 18:31:55.955328 69145 net.cpp:409] inception_6a/1x1 -> inception_6a/1x1
I0122 18:31:55.955693 69145 net.cpp:144] Setting up inception_6a/1x1
I0122 18:31:55.955699 69145 net.cpp:151] Top shape: 50 96 16 16 (1228800)
I0122 18:31:55.955703 69145 net.cpp:159] Memory required for data: 370893800
I0122 18:31:55.955708 69145 layer_factory.hpp:77] Creating layer inception_6a/1x1/bn1
I0122 18:31:55.955718 69145 net.cpp:94] Creating Layer inception_6a/1x1/bn1
I0122 18:31:55.955724 69145 net.cpp:435] inception_6a/1x1/bn1 <- inception_6a/1x1
I0122 18:31:55.955734 69145 net.cpp:396] inception_6a/1x1/bn1 -> inception_6a/1x1 (in-place)
I0122 18:31:55.956573 69145 net.cpp:144] Setting up inception_6a/1x1/bn1
I0122 18:31:55.956581 69145 net.cpp:151] Top shape: 50 96 16 16 (1228800)
I0122 18:31:55.956583 69145 net.cpp:159] Memory required for data: 375809000
I0122 18:31:55.956593 69145 layer_factory.hpp:77] Creating layer inception_6a/1x1/relu1
I0122 18:31:55.956604 69145 net.cpp:94] Creating Layer inception_6a/1x1/relu1
I0122 18:31:55.956609 69145 net.cpp:435] inception_6a/1x1/relu1 <- inception_6a/1x1
I0122 18:31:55.956616 69145 net.cpp:396] inception_6a/1x1/relu1 -> inception_6a/1x1 (in-place)
I0122 18:31:55.956629 69145 net.cpp:144] Setting up inception_6a/1x1/relu1
I0122 18:31:55.956634 69145 net.cpp:151] Top shape: 50 96 16 16 (1228800)
I0122 18:31:55.956638 69145 net.cpp:159] Memory required for data: 380724200
I0122 18:31:55.956642 69145 layer_factory.hpp:77] Creating layer inception_6a/3x3
I0122 18:31:55.956655 69145 net.cpp:94] Creating Layer inception_6a/3x3
I0122 18:31:55.956661 69145 net.cpp:435] inception_6a/3x3 <- inception_5a/output_inception_5a/output_0_split_1
I0122 18:31:55.956670 69145 net.cpp:409] inception_6a/3x3 -> inception_6a/3x3
I0122 18:31:55.958150 69145 net.cpp:144] Setting up inception_6a/3x3
I0122 18:31:55.958168 69145 net.cpp:151] Top shape: 50 64 16 16 (819200)
I0122 18:31:55.958171 69145 net.cpp:159] Memory required for data: 384001000
I0122 18:31:55.958189 69145 layer_factory.hpp:77] Creating layer inception_6a/3x3/bn1
I0122 18:31:55.958202 69145 net.cpp:94] Creating Layer inception_6a/3x3/bn1
I0122 18:31:55.958210 69145 net.cpp:435] inception_6a/3x3/bn1 <- inception_6a/3x3
I0122 18:31:55.958220 69145 net.cpp:396] inception_6a/3x3/bn1 -> inception_6a/3x3 (in-place)
I0122 18:31:55.958938 69145 net.cpp:144] Setting up inception_6a/3x3/bn1
I0122 18:31:55.958946 69145 net.cpp:151] Top shape: 50 64 16 16 (819200)
I0122 18:31:55.958948 69145 net.cpp:159] Memory required for data: 387277800
I0122 18:31:55.958957 69145 layer_factory.hpp:77] Creating layer inception_6a/3x3/relu1
I0122 18:31:55.958971 69145 net.cpp:94] Creating Layer inception_6a/3x3/relu1
I0122 18:31:55.958974 69145 net.cpp:435] inception_6a/3x3/relu1 <- inception_6a/3x3
I0122 18:31:55.958984 69145 net.cpp:396] inception_6a/3x3/relu1 -> inception_6a/3x3 (in-place)
I0122 18:31:55.958994 69145 net.cpp:144] Setting up inception_6a/3x3/relu1
I0122 18:31:55.959004 69145 net.cpp:151] Top shape: 50 64 16 16 (819200)
I0122 18:31:55.959007 69145 net.cpp:159] Memory required for data: 390554600
I0122 18:31:55.959012 69145 layer_factory.hpp:77] Creating layer inception_6a/output
I0122 18:31:55.959020 69145 net.cpp:94] Creating Layer inception_6a/output
I0122 18:31:55.959026 69145 net.cpp:435] inception_6a/output <- inception_6a/1x1
I0122 18:31:55.959031 69145 net.cpp:435] inception_6a/output <- inception_6a/3x3
I0122 18:31:55.959039 69145 net.cpp:409] inception_6a/output -> inception_6a/output
I0122 18:31:55.959066 69145 net.cpp:144] Setting up inception_6a/output
I0122 18:31:55.959074 69145 net.cpp:151] Top shape: 50 160 16 16 (2048000)
I0122 18:31:55.959075 69145 net.cpp:159] Memory required for data: 398746600
I0122 18:31:55.959079 69145 layer_factory.hpp:77] Creating layer inception_6a/output_inception_6a/output_0_split
I0122 18:31:55.959086 69145 net.cpp:94] Creating Layer inception_6a/output_inception_6a/output_0_split
I0122 18:31:55.959101 69145 net.cpp:435] inception_6a/output_inception_6a/output_0_split <- inception_6a/output
I0122 18:31:55.959108 69145 net.cpp:409] inception_6a/output_inception_6a/output_0_split -> inception_6a/output_inception_6a/output_0_split_0
I0122 18:31:55.959120 69145 net.cpp:409] inception_6a/output_inception_6a/output_0_split -> inception_6a/output_inception_6a/output_0_split_1
I0122 18:31:55.959161 69145 net.cpp:144] Setting up inception_6a/output_inception_6a/output_0_split
I0122 18:31:55.959167 69145 net.cpp:151] Top shape: 50 160 16 16 (2048000)
I0122 18:31:55.959170 69145 net.cpp:151] Top shape: 50 160 16 16 (2048000)
I0122 18:31:55.959173 69145 net.cpp:159] Memory required for data: 415130600
I0122 18:31:55.959175 69145 layer_factory.hpp:77] Creating layer inception_7a/1x1
I0122 18:31:55.959187 69145 net.cpp:94] Creating Layer inception_7a/1x1
I0122 18:31:55.959193 69145 net.cpp:435] inception_7a/1x1 <- inception_6a/output_inception_6a/output_0_split_0
I0122 18:31:55.959201 69145 net.cpp:409] inception_7a/1x1 -> inception_7a/1x1
I0122 18:31:55.959525 69145 net.cpp:144] Setting up inception_7a/1x1
I0122 18:31:55.959533 69145 net.cpp:151] Top shape: 50 80 16 16 (1024000)
I0122 18:31:55.959535 69145 net.cpp:159] Memory required for data: 419226600
I0122 18:31:55.959540 69145 layer_factory.hpp:77] Creating layer inception_7a/1x1/bn1
I0122 18:31:55.959553 69145 net.cpp:94] Creating Layer inception_7a/1x1/bn1
I0122 18:31:55.959560 69145 net.cpp:435] inception_7a/1x1/bn1 <- inception_7a/1x1
I0122 18:31:55.959568 69145 net.cpp:396] inception_7a/1x1/bn1 -> inception_7a/1x1 (in-place)
I0122 18:31:55.960279 69145 net.cpp:144] Setting up inception_7a/1x1/bn1
I0122 18:31:55.960288 69145 net.cpp:151] Top shape: 50 80 16 16 (1024000)
I0122 18:31:55.960290 69145 net.cpp:159] Memory required for data: 423322600
I0122 18:31:55.960300 69145 layer_factory.hpp:77] Creating layer inception_7a/1x1/relu1
I0122 18:31:55.960309 69145 net.cpp:94] Creating Layer inception_7a/1x1/relu1
I0122 18:31:55.960314 69145 net.cpp:435] inception_7a/1x1/relu1 <- inception_7a/1x1
I0122 18:31:55.960322 69145 net.cpp:396] inception_7a/1x1/relu1 -> inception_7a/1x1 (in-place)
I0122 18:31:55.960332 69145 net.cpp:144] Setting up inception_7a/1x1/relu1
I0122 18:31:55.960338 69145 net.cpp:151] Top shape: 50 80 16 16 (1024000)
I0122 18:31:55.960345 69145 net.cpp:159] Memory required for data: 427418600
I0122 18:31:55.960350 69145 layer_factory.hpp:77] Creating layer inception_7a/3x3
I0122 18:31:55.960361 69145 net.cpp:94] Creating Layer inception_7a/3x3
I0122 18:31:55.960367 69145 net.cpp:435] inception_7a/3x3 <- inception_6a/output_inception_6a/output_0_split_1
I0122 18:31:55.960376 69145 net.cpp:409] inception_7a/3x3 -> inception_7a/3x3
I0122 18:31:55.961267 69145 net.cpp:144] Setting up inception_7a/3x3
I0122 18:31:55.961277 69145 net.cpp:151] Top shape: 50 80 16 16 (1024000)
I0122 18:31:55.961279 69145 net.cpp:159] Memory required for data: 431514600
I0122 18:31:55.961284 69145 layer_factory.hpp:77] Creating layer inception_7a/3x3/bn1
I0122 18:31:55.961297 69145 net.cpp:94] Creating Layer inception_7a/3x3/bn1
I0122 18:31:55.961302 69145 net.cpp:435] inception_7a/3x3/bn1 <- inception_7a/3x3
I0122 18:31:55.961311 69145 net.cpp:396] inception_7a/3x3/bn1 -> inception_7a/3x3 (in-place)
I0122 18:31:55.962031 69145 net.cpp:144] Setting up inception_7a/3x3/bn1
I0122 18:31:55.962039 69145 net.cpp:151] Top shape: 50 80 16 16 (1024000)
I0122 18:31:55.962043 69145 net.cpp:159] Memory required for data: 435610600
I0122 18:31:55.962050 69145 layer_factory.hpp:77] Creating layer inception_7a/3x3/relu1
I0122 18:31:55.962061 69145 net.cpp:94] Creating Layer inception_7a/3x3/relu1
I0122 18:31:55.962069 69145 net.cpp:435] inception_7a/3x3/relu1 <- inception_7a/3x3
I0122 18:31:55.962075 69145 net.cpp:396] inception_7a/3x3/relu1 -> inception_7a/3x3 (in-place)
I0122 18:31:55.962083 69145 net.cpp:144] Setting up inception_7a/3x3/relu1
I0122 18:31:55.962090 69145 net.cpp:151] Top shape: 50 80 16 16 (1024000)
I0122 18:31:55.962095 69145 net.cpp:159] Memory required for data: 439706600
I0122 18:31:55.962110 69145 layer_factory.hpp:77] Creating layer inception_7a/output
I0122 18:31:55.962116 69145 net.cpp:94] Creating Layer inception_7a/output
I0122 18:31:55.962119 69145 net.cpp:435] inception_7a/output <- inception_7a/1x1
I0122 18:31:55.962126 69145 net.cpp:435] inception_7a/output <- inception_7a/3x3
I0122 18:31:55.962136 69145 net.cpp:409] inception_7a/output -> inception_7a/output
I0122 18:31:55.962167 69145 net.cpp:144] Setting up inception_7a/output
I0122 18:31:55.962172 69145 net.cpp:151] Top shape: 50 160 16 16 (2048000)
I0122 18:31:55.962175 69145 net.cpp:159] Memory required for data: 447898600
I0122 18:31:55.962178 69145 layer_factory.hpp:77] Creating layer inception_7a/output_inception_7a/output_0_split
I0122 18:31:55.962184 69145 net.cpp:94] Creating Layer inception_7a/output_inception_7a/output_0_split
I0122 18:31:55.962188 69145 net.cpp:435] inception_7a/output_inception_7a/output_0_split <- inception_7a/output
I0122 18:31:55.962198 69145 net.cpp:409] inception_7a/output_inception_7a/output_0_split -> inception_7a/output_inception_7a/output_0_split_0
I0122 18:31:55.962209 69145 net.cpp:409] inception_7a/output_inception_7a/output_0_split -> inception_7a/output_inception_7a/output_0_split_1
I0122 18:31:55.962247 69145 net.cpp:144] Setting up inception_7a/output_inception_7a/output_0_split
I0122 18:31:55.962254 69145 net.cpp:151] Top shape: 50 160 16 16 (2048000)
I0122 18:31:55.962257 69145 net.cpp:151] Top shape: 50 160 16 16 (2048000)
I0122 18:31:55.962260 69145 net.cpp:159] Memory required for data: 464282600
I0122 18:31:55.962262 69145 layer_factory.hpp:77] Creating layer inception_8a/1x1
I0122 18:31:55.962275 69145 net.cpp:94] Creating Layer inception_8a/1x1
I0122 18:31:55.962281 69145 net.cpp:435] inception_8a/1x1 <- inception_7a/output_inception_7a/output_0_split_0
I0122 18:31:55.962291 69145 net.cpp:409] inception_8a/1x1 -> inception_8a/1x1
I0122 18:31:55.962591 69145 net.cpp:144] Setting up inception_8a/1x1
I0122 18:31:55.962597 69145 net.cpp:151] Top shape: 50 48 16 16 (614400)
I0122 18:31:55.962601 69145 net.cpp:159] Memory required for data: 466740200
I0122 18:31:55.962606 69145 layer_factory.hpp:77] Creating layer inception_8a/1x1/bn1
I0122 18:31:55.962617 69145 net.cpp:94] Creating Layer inception_8a/1x1/bn1
I0122 18:31:55.962623 69145 net.cpp:435] inception_8a/1x1/bn1 <- inception_8a/1x1
I0122 18:31:55.962631 69145 net.cpp:396] inception_8a/1x1/bn1 -> inception_8a/1x1 (in-place)
I0122 18:31:55.963335 69145 net.cpp:144] Setting up inception_8a/1x1/bn1
I0122 18:31:55.963342 69145 net.cpp:151] Top shape: 50 48 16 16 (614400)
I0122 18:31:55.963346 69145 net.cpp:159] Memory required for data: 469197800
I0122 18:31:55.963356 69145 layer_factory.hpp:77] Creating layer inception_8a/1x1/relu1
I0122 18:31:55.963366 69145 net.cpp:94] Creating Layer inception_8a/1x1/relu1
I0122 18:31:55.963371 69145 net.cpp:435] inception_8a/1x1/relu1 <- inception_8a/1x1
I0122 18:31:55.963376 69145 net.cpp:396] inception_8a/1x1/relu1 -> inception_8a/1x1 (in-place)
I0122 18:31:55.963388 69145 net.cpp:144] Setting up inception_8a/1x1/relu1
I0122 18:31:55.963398 69145 net.cpp:151] Top shape: 50 48 16 16 (614400)
I0122 18:31:55.963402 69145 net.cpp:159] Memory required for data: 471655400
I0122 18:31:55.963407 69145 layer_factory.hpp:77] Creating layer inception_8a/3x3
I0122 18:31:55.963419 69145 net.cpp:94] Creating Layer inception_8a/3x3
I0122 18:31:55.963425 69145 net.cpp:435] inception_8a/3x3 <- inception_7a/output_inception_7a/output_0_split_1
I0122 18:31:55.963434 69145 net.cpp:409] inception_8a/3x3 -> inception_8a/3x3
I0122 18:31:55.965090 69145 net.cpp:144] Setting up inception_8a/3x3
I0122 18:31:55.965103 69145 net.cpp:151] Top shape: 50 96 16 16 (1228800)
I0122 18:31:55.965106 69145 net.cpp:159] Memory required for data: 476570600
I0122 18:31:55.965112 69145 layer_factory.hpp:77] Creating layer inception_8a/3x3/bn1
I0122 18:31:55.965132 69145 net.cpp:94] Creating Layer inception_8a/3x3/bn1
I0122 18:31:55.965140 69145 net.cpp:435] inception_8a/3x3/bn1 <- inception_8a/3x3
I0122 18:31:55.965160 69145 net.cpp:396] inception_8a/3x3/bn1 -> inception_8a/3x3 (in-place)
I0122 18:31:55.965873 69145 net.cpp:144] Setting up inception_8a/3x3/bn1
I0122 18:31:55.965881 69145 net.cpp:151] Top shape: 50 96 16 16 (1228800)
I0122 18:31:55.965885 69145 net.cpp:159] Memory required for data: 481485800
I0122 18:31:55.965894 69145 layer_factory.hpp:77] Creating layer inception_8a/3x3/relu1
I0122 18:31:55.965903 69145 net.cpp:94] Creating Layer inception_8a/3x3/relu1
I0122 18:31:55.965911 69145 net.cpp:435] inception_8a/3x3/relu1 <- inception_8a/3x3
I0122 18:31:55.965922 69145 net.cpp:396] inception_8a/3x3/relu1 -> inception_8a/3x3 (in-place)
I0122 18:31:55.965934 69145 net.cpp:144] Setting up inception_8a/3x3/relu1
I0122 18:31:55.965942 69145 net.cpp:151] Top shape: 50 96 16 16 (1228800)
I0122 18:31:55.965946 69145 net.cpp:159] Memory required for data: 486401000
I0122 18:31:55.965950 69145 layer_factory.hpp:77] Creating layer inception_8a/output
I0122 18:31:55.965960 69145 net.cpp:94] Creating Layer inception_8a/output
I0122 18:31:55.965963 69145 net.cpp:435] inception_8a/output <- inception_8a/1x1
I0122 18:31:55.965968 69145 net.cpp:435] inception_8a/output <- inception_8a/3x3
I0122 18:31:55.965977 69145 net.cpp:409] inception_8a/output -> inception_8a/output
I0122 18:31:55.966006 69145 net.cpp:144] Setting up inception_8a/output
I0122 18:31:55.966012 69145 net.cpp:151] Top shape: 50 144 16 16 (1843200)
I0122 18:31:55.966015 69145 net.cpp:159] Memory required for data: 493773800
I0122 18:31:55.966018 69145 layer_factory.hpp:77] Creating layer inception_8a/output_inception_8a/output_0_split
I0122 18:31:55.966023 69145 net.cpp:94] Creating Layer inception_8a/output_inception_8a/output_0_split
I0122 18:31:55.966027 69145 net.cpp:435] inception_8a/output_inception_8a/output_0_split <- inception_8a/output
I0122 18:31:55.966037 69145 net.cpp:409] inception_8a/output_inception_8a/output_0_split -> inception_8a/output_inception_8a/output_0_split_0
I0122 18:31:55.966048 69145 net.cpp:409] inception_8a/output_inception_8a/output_0_split -> inception_8a/output_inception_8a/output_0_split_1
I0122 18:31:55.966086 69145 net.cpp:144] Setting up inception_8a/output_inception_8a/output_0_split
I0122 18:31:55.966092 69145 net.cpp:151] Top shape: 50 144 16 16 (1843200)
I0122 18:31:55.966096 69145 net.cpp:151] Top shape: 50 144 16 16 (1843200)
I0122 18:31:55.966099 69145 net.cpp:159] Memory required for data: 508519400
I0122 18:31:55.966101 69145 layer_factory.hpp:77] Creating layer downsample_9/3x3_s2
I0122 18:31:55.966115 69145 net.cpp:94] Creating Layer downsample_9/3x3_s2
I0122 18:31:55.966121 69145 net.cpp:435] downsample_9/3x3_s2 <- inception_8a/output_inception_8a/output_0_split_0
I0122 18:31:55.966130 69145 net.cpp:409] downsample_9/3x3_s2 -> downsample_9/3x3_s2
I0122 18:31:55.967698 69145 net.cpp:144] Setting up downsample_9/3x3_s2
I0122 18:31:55.967710 69145 net.cpp:151] Top shape: 50 96 8 8 (307200)
I0122 18:31:55.967713 69145 net.cpp:159] Memory required for data: 509748200
I0122 18:31:55.967721 69145 layer_factory.hpp:77] Creating layer downsample_9/3x3_s2/bn1
I0122 18:31:55.967734 69145 net.cpp:94] Creating Layer downsample_9/3x3_s2/bn1
I0122 18:31:55.967741 69145 net.cpp:435] downsample_9/3x3_s2/bn1 <- downsample_9/3x3_s2
I0122 18:31:55.967751 69145 net.cpp:396] downsample_9/3x3_s2/bn1 -> downsample_9/3x3_s2 (in-place)
I0122 18:31:55.968479 69145 net.cpp:144] Setting up downsample_9/3x3_s2/bn1
I0122 18:31:55.968487 69145 net.cpp:151] Top shape: 50 96 8 8 (307200)
I0122 18:31:55.968489 69145 net.cpp:159] Memory required for data: 510977000
I0122 18:31:55.968498 69145 layer_factory.hpp:77] Creating layer downsample_9/3x3_s2/relu1
I0122 18:31:55.968508 69145 net.cpp:94] Creating Layer downsample_9/3x3_s2/relu1
I0122 18:31:55.968513 69145 net.cpp:435] downsample_9/3x3_s2/relu1 <- downsample_9/3x3_s2
I0122 18:31:55.968519 69145 net.cpp:396] downsample_9/3x3_s2/relu1 -> downsample_9/3x3_s2 (in-place)
I0122 18:31:55.968528 69145 net.cpp:144] Setting up downsample_9/3x3_s2/relu1
I0122 18:31:55.968545 69145 net.cpp:151] Top shape: 50 96 8 8 (307200)
I0122 18:31:55.968549 69145 net.cpp:159] Memory required for data: 512205800
I0122 18:31:55.968551 69145 layer_factory.hpp:77] Creating layer downsample_9/pool_s2
I0122 18:31:55.968560 69145 net.cpp:94] Creating Layer downsample_9/pool_s2
I0122 18:31:55.968567 69145 net.cpp:435] downsample_9/pool_s2 <- inception_8a/output_inception_8a/output_0_split_1
I0122 18:31:55.968576 69145 net.cpp:409] downsample_9/pool_s2 -> downsample_9/pool_s2
I0122 18:31:55.968616 69145 net.cpp:144] Setting up downsample_9/pool_s2
I0122 18:31:55.968622 69145 net.cpp:151] Top shape: 50 144 8 8 (460800)
I0122 18:31:55.968626 69145 net.cpp:159] Memory required for data: 514049000
I0122 18:31:55.968628 69145 layer_factory.hpp:77] Creating layer downsample_9/output
I0122 18:31:55.968641 69145 net.cpp:94] Creating Layer downsample_9/output
I0122 18:31:55.968647 69145 net.cpp:435] downsample_9/output <- downsample_9/3x3_s2
I0122 18:31:55.968653 69145 net.cpp:435] downsample_9/output <- downsample_9/pool_s2
I0122 18:31:55.968659 69145 net.cpp:409] downsample_9/output -> downsample_9/output
I0122 18:31:55.968683 69145 net.cpp:144] Setting up downsample_9/output
I0122 18:31:55.968689 69145 net.cpp:151] Top shape: 50 240 8 8 (768000)
I0122 18:31:55.968693 69145 net.cpp:159] Memory required for data: 517121000
I0122 18:31:55.968695 69145 layer_factory.hpp:77] Creating layer downsample_9/output_downsample_9/output_0_split
I0122 18:31:55.968700 69145 net.cpp:94] Creating Layer downsample_9/output_downsample_9/output_0_split
I0122 18:31:55.968704 69145 net.cpp:435] downsample_9/output_downsample_9/output_0_split <- downsample_9/output
I0122 18:31:55.968713 69145 net.cpp:409] downsample_9/output_downsample_9/output_0_split -> downsample_9/output_downsample_9/output_0_split_0
I0122 18:31:55.968724 69145 net.cpp:409] downsample_9/output_downsample_9/output_0_split -> downsample_9/output_downsample_9/output_0_split_1
I0122 18:31:55.968765 69145 net.cpp:144] Setting up downsample_9/output_downsample_9/output_0_split
I0122 18:31:55.968770 69145 net.cpp:151] Top shape: 50 240 8 8 (768000)
I0122 18:31:55.968775 69145 net.cpp:151] Top shape: 50 240 8 8 (768000)
I0122 18:31:55.968777 69145 net.cpp:159] Memory required for data: 523265000
I0122 18:31:55.968780 69145 layer_factory.hpp:77] Creating layer inception_10a/1x1
I0122 18:31:55.968791 69145 net.cpp:94] Creating Layer inception_10a/1x1
I0122 18:31:55.968798 69145 net.cpp:435] inception_10a/1x1 <- downsample_9/output_downsample_9/output_0_split_0
I0122 18:31:55.968808 69145 net.cpp:409] inception_10a/1x1 -> inception_10a/1x1
I0122 18:31:55.969295 69145 net.cpp:144] Setting up inception_10a/1x1
I0122 18:31:55.969305 69145 net.cpp:151] Top shape: 50 176 8 8 (563200)
I0122 18:31:55.969308 69145 net.cpp:159] Memory required for data: 525517800
I0122 18:31:55.969316 69145 layer_factory.hpp:77] Creating layer inception_10a/1x1/bn1
I0122 18:31:55.969326 69145 net.cpp:94] Creating Layer inception_10a/1x1/bn1
I0122 18:31:55.969332 69145 net.cpp:435] inception_10a/1x1/bn1 <- inception_10a/1x1
I0122 18:31:55.969339 69145 net.cpp:396] inception_10a/1x1/bn1 -> inception_10a/1x1 (in-place)
I0122 18:31:55.970062 69145 net.cpp:144] Setting up inception_10a/1x1/bn1
I0122 18:31:55.970070 69145 net.cpp:151] Top shape: 50 176 8 8 (563200)
I0122 18:31:55.970073 69145 net.cpp:159] Memory required for data: 527770600
I0122 18:31:55.970083 69145 layer_factory.hpp:77] Creating layer inception_10a/1x1/relu1
I0122 18:31:55.970091 69145 net.cpp:94] Creating Layer inception_10a/1x1/relu1
I0122 18:31:55.970096 69145 net.cpp:435] inception_10a/1x1/relu1 <- inception_10a/1x1
I0122 18:31:55.970105 69145 net.cpp:396] inception_10a/1x1/relu1 -> inception_10a/1x1 (in-place)
I0122 18:31:55.970118 69145 net.cpp:144] Setting up inception_10a/1x1/relu1
I0122 18:31:55.970121 69145 net.cpp:151] Top shape: 50 176 8 8 (563200)
I0122 18:31:55.970125 69145 net.cpp:159] Memory required for data: 530023400
I0122 18:31:55.970129 69145 layer_factory.hpp:77] Creating layer inception_10a/3x3
I0122 18:31:55.970151 69145 net.cpp:94] Creating Layer inception_10a/3x3
I0122 18:31:55.970157 69145 net.cpp:435] inception_10a/3x3 <- downsample_9/output_downsample_9/output_0_split_1
I0122 18:31:55.970166 69145 net.cpp:409] inception_10a/3x3 -> inception_10a/3x3
I0122 18:31:55.972693 69145 net.cpp:144] Setting up inception_10a/3x3
I0122 18:31:55.972704 69145 net.cpp:151] Top shape: 50 160 8 8 (512000)
I0122 18:31:55.972707 69145 net.cpp:159] Memory required for data: 532071400
I0122 18:31:55.972712 69145 layer_factory.hpp:77] Creating layer inception_10a/3x3/bn1
I0122 18:31:55.972723 69145 net.cpp:94] Creating Layer inception_10a/3x3/bn1
I0122 18:31:55.972728 69145 net.cpp:435] inception_10a/3x3/bn1 <- inception_10a/3x3
I0122 18:31:55.972736 69145 net.cpp:396] inception_10a/3x3/bn1 -> inception_10a/3x3 (in-place)
I0122 18:31:55.973426 69145 net.cpp:144] Setting up inception_10a/3x3/bn1
I0122 18:31:55.973433 69145 net.cpp:151] Top shape: 50 160 8 8 (512000)
I0122 18:31:55.973438 69145 net.cpp:159] Memory required for data: 534119400
I0122 18:31:55.973445 69145 layer_factory.hpp:77] Creating layer inception_10a/3x3/relu1
I0122 18:31:55.973455 69145 net.cpp:94] Creating Layer inception_10a/3x3/relu1
I0122 18:31:55.973460 69145 net.cpp:435] inception_10a/3x3/relu1 <- inception_10a/3x3
I0122 18:31:55.973469 69145 net.cpp:396] inception_10a/3x3/relu1 -> inception_10a/3x3 (in-place)
I0122 18:31:55.973479 69145 net.cpp:144] Setting up inception_10a/3x3/relu1
I0122 18:31:55.973484 69145 net.cpp:151] Top shape: 50 160 8 8 (512000)
I0122 18:31:55.973486 69145 net.cpp:159] Memory required for data: 536167400
I0122 18:31:55.973491 69145 layer_factory.hpp:77] Creating layer inception_10a/output
I0122 18:31:55.973498 69145 net.cpp:94] Creating Layer inception_10a/output
I0122 18:31:55.973505 69145 net.cpp:435] inception_10a/output <- inception_10a/1x1
I0122 18:31:55.973510 69145 net.cpp:435] inception_10a/output <- inception_10a/3x3
I0122 18:31:55.973517 69145 net.cpp:409] inception_10a/output -> inception_10a/output
I0122 18:31:55.973546 69145 net.cpp:144] Setting up inception_10a/output
I0122 18:31:55.973551 69145 net.cpp:151] Top shape: 50 336 8 8 (1075200)
I0122 18:31:55.973553 69145 net.cpp:159] Memory required for data: 540468200
I0122 18:31:55.973556 69145 layer_factory.hpp:77] Creating layer inception_10a/output_inception_10a/output_0_split
I0122 18:31:55.973563 69145 net.cpp:94] Creating Layer inception_10a/output_inception_10a/output_0_split
I0122 18:31:55.973567 69145 net.cpp:435] inception_10a/output_inception_10a/output_0_split <- inception_10a/output
I0122 18:31:55.973574 69145 net.cpp:409] inception_10a/output_inception_10a/output_0_split -> inception_10a/output_inception_10a/output_0_split_0
I0122 18:31:55.973585 69145 net.cpp:409] inception_10a/output_inception_10a/output_0_split -> inception_10a/output_inception_10a/output_0_split_1
I0122 18:31:55.973623 69145 net.cpp:144] Setting up inception_10a/output_inception_10a/output_0_split
I0122 18:31:55.973628 69145 net.cpp:151] Top shape: 50 336 8 8 (1075200)
I0122 18:31:55.973632 69145 net.cpp:151] Top shape: 50 336 8 8 (1075200)
I0122 18:31:55.973635 69145 net.cpp:159] Memory required for data: 549069800
I0122 18:31:55.973637 69145 layer_factory.hpp:77] Creating layer inception_11a/1x1
I0122 18:31:55.973649 69145 net.cpp:94] Creating Layer inception_11a/1x1
I0122 18:31:55.973655 69145 net.cpp:435] inception_11a/1x1 <- inception_10a/output_inception_10a/output_0_split_0
I0122 18:31:55.973664 69145 net.cpp:409] inception_11a/1x1 -> inception_11a/1x1
I0122 18:31:55.974241 69145 net.cpp:144] Setting up inception_11a/1x1
I0122 18:31:55.974249 69145 net.cpp:151] Top shape: 50 176 8 8 (563200)
I0122 18:31:55.974252 69145 net.cpp:159] Memory required for data: 551322600
I0122 18:31:55.974258 69145 layer_factory.hpp:77] Creating layer inception_11a/1x1/bn1
I0122 18:31:55.974268 69145 net.cpp:94] Creating Layer inception_11a/1x1/bn1
I0122 18:31:55.974274 69145 net.cpp:435] inception_11a/1x1/bn1 <- inception_11a/1x1
I0122 18:31:55.974283 69145 net.cpp:396] inception_11a/1x1/bn1 -> inception_11a/1x1 (in-place)
I0122 18:31:55.974989 69145 net.cpp:144] Setting up inception_11a/1x1/bn1
I0122 18:31:55.974997 69145 net.cpp:151] Top shape: 50 176 8 8 (563200)
I0122 18:31:55.974999 69145 net.cpp:159] Memory required for data: 553575400
I0122 18:31:55.975008 69145 layer_factory.hpp:77] Creating layer inception_11a/1x1/relu1
I0122 18:31:55.975031 69145 net.cpp:94] Creating Layer inception_11a/1x1/relu1
I0122 18:31:55.975037 69145 net.cpp:435] inception_11a/1x1/relu1 <- inception_11a/1x1
I0122 18:31:55.975044 69145 net.cpp:396] inception_11a/1x1/relu1 -> inception_11a/1x1 (in-place)
I0122 18:31:55.975049 69145 net.cpp:144] Setting up inception_11a/1x1/relu1
I0122 18:31:55.975057 69145 net.cpp:151] Top shape: 50 176 8 8 (563200)
I0122 18:31:55.975061 69145 net.cpp:159] Memory required for data: 555828200
I0122 18:31:55.975065 69145 layer_factory.hpp:77] Creating layer inception_11a/3x3
I0122 18:31:55.975077 69145 net.cpp:94] Creating Layer inception_11a/3x3
I0122 18:31:55.975085 69145 net.cpp:435] inception_11a/3x3 <- inception_10a/output_inception_10a/output_0_split_1
I0122 18:31:55.975092 69145 net.cpp:409] inception_11a/3x3 -> inception_11a/3x3
I0122 18:31:55.978812 69145 net.cpp:144] Setting up inception_11a/3x3
I0122 18:31:55.978824 69145 net.cpp:151] Top shape: 50 160 8 8 (512000)
I0122 18:31:55.978827 69145 net.cpp:159] Memory required for data: 557876200
I0122 18:31:55.978833 69145 layer_factory.hpp:77] Creating layer inception_11a/3x3/bn1
I0122 18:31:55.978843 69145 net.cpp:94] Creating Layer inception_11a/3x3/bn1
I0122 18:31:55.978859 69145 net.cpp:435] inception_11a/3x3/bn1 <- inception_11a/3x3
I0122 18:31:55.978869 69145 net.cpp:396] inception_11a/3x3/bn1 -> inception_11a/3x3 (in-place)
I0122 18:31:55.979578 69145 net.cpp:144] Setting up inception_11a/3x3/bn1
I0122 18:31:55.979588 69145 net.cpp:151] Top shape: 50 160 8 8 (512000)
I0122 18:31:55.979589 69145 net.cpp:159] Memory required for data: 559924200
I0122 18:31:55.979615 69145 layer_factory.hpp:77] Creating layer inception_11a/3x3/relu1
I0122 18:31:55.979624 69145 net.cpp:94] Creating Layer inception_11a/3x3/relu1
I0122 18:31:55.979627 69145 net.cpp:435] inception_11a/3x3/relu1 <- inception_11a/3x3
I0122 18:31:55.979632 69145 net.cpp:396] inception_11a/3x3/relu1 -> inception_11a/3x3 (in-place)
I0122 18:31:55.979645 69145 net.cpp:144] Setting up inception_11a/3x3/relu1
I0122 18:31:55.979650 69145 net.cpp:151] Top shape: 50 160 8 8 (512000)
I0122 18:31:55.979653 69145 net.cpp:159] Memory required for data: 561972200
I0122 18:31:55.979657 69145 layer_factory.hpp:77] Creating layer inception_11a/output
I0122 18:31:55.979665 69145 net.cpp:94] Creating Layer inception_11a/output
I0122 18:31:55.979671 69145 net.cpp:435] inception_11a/output <- inception_11a/1x1
I0122 18:31:55.979676 69145 net.cpp:435] inception_11a/output <- inception_11a/3x3
I0122 18:31:55.979683 69145 net.cpp:409] inception_11a/output -> inception_11a/output
I0122 18:31:55.979713 69145 net.cpp:144] Setting up inception_11a/output
I0122 18:31:55.979720 69145 net.cpp:151] Top shape: 50 336 8 8 (1075200)
I0122 18:31:55.979722 69145 net.cpp:159] Memory required for data: 566273000
I0122 18:31:55.979725 69145 layer_factory.hpp:77] Creating layer avg_pool_12/8x8_s1
I0122 18:31:55.979732 69145 net.cpp:94] Creating Layer avg_pool_12/8x8_s1
I0122 18:31:55.979735 69145 net.cpp:435] avg_pool_12/8x8_s1 <- inception_11a/output
I0122 18:31:55.979743 69145 net.cpp:409] avg_pool_12/8x8_s1 -> avg_pool_12/8x8_s1
I0122 18:31:55.979774 69145 net.cpp:144] Setting up avg_pool_12/8x8_s1
I0122 18:31:55.979780 69145 net.cpp:151] Top shape: 50 336 1 1 (16800)
I0122 18:31:55.979784 69145 net.cpp:159] Memory required for data: 566340200
I0122 18:31:55.979785 69145 layer_factory.hpp:77] Creating layer drop_8x8_s1
I0122 18:31:55.979791 69145 net.cpp:94] Creating Layer drop_8x8_s1
I0122 18:31:55.979797 69145 net.cpp:435] drop_8x8_s1 <- avg_pool_12/8x8_s1
I0122 18:31:55.979805 69145 net.cpp:396] drop_8x8_s1 -> avg_pool_12/8x8_s1 (in-place)
I0122 18:31:55.979830 69145 net.cpp:144] Setting up drop_8x8_s1
I0122 18:31:55.979836 69145 net.cpp:151] Top shape: 50 336 1 1 (16800)
I0122 18:31:55.979848 69145 net.cpp:159] Memory required for data: 566407400
I0122 18:31:55.979851 69145 layer_factory.hpp:77] Creating layer loss/classifier
I0122 18:31:55.979861 69145 net.cpp:94] Creating Layer loss/classifier
I0122 18:31:55.979866 69145 net.cpp:435] loss/classifier <- avg_pool_12/8x8_s1
I0122 18:31:55.979876 69145 net.cpp:409] loss/classifier -> loss/classifier
I0122 18:31:55.980028 69145 net.cpp:144] Setting up loss/classifier
I0122 18:31:55.980034 69145 net.cpp:151] Top shape: 50 10 (500)
I0122 18:31:55.980036 69145 net.cpp:159] Memory required for data: 566409400
I0122 18:31:55.980042 69145 layer_factory.hpp:77] Creating layer loss/classifier_loss/classifier_0_split
I0122 18:31:55.980049 69145 net.cpp:94] Creating Layer loss/classifier_loss/classifier_0_split
I0122 18:31:55.980054 69145 net.cpp:435] loss/classifier_loss/classifier_0_split <- loss/classifier
I0122 18:31:55.980062 69145 net.cpp:409] loss/classifier_loss/classifier_0_split -> loss/classifier_loss/classifier_0_split_0
I0122 18:31:55.980072 69145 net.cpp:409] loss/classifier_loss/classifier_0_split -> loss/classifier_loss/classifier_0_split_1
I0122 18:31:55.980083 69145 net.cpp:409] loss/classifier_loss/classifier_0_split -> loss/classifier_loss/classifier_0_split_2
I0122 18:31:55.980093 69145 net.cpp:409] loss/classifier_loss/classifier_0_split -> loss/classifier_loss/classifier_0_split_3
I0122 18:31:55.980151 69145 net.cpp:144] Setting up loss/classifier_loss/classifier_0_split
I0122 18:31:55.980157 69145 net.cpp:151] Top shape: 50 10 (500)
I0122 18:31:55.980160 69145 net.cpp:151] Top shape: 50 10 (500)
I0122 18:31:55.980163 69145 net.cpp:151] Top shape: 50 10 (500)
I0122 18:31:55.980167 69145 net.cpp:151] Top shape: 50 10 (500)
I0122 18:31:55.980172 69145 net.cpp:159] Memory required for data: 566417400
I0122 18:31:55.980176 69145 layer_factory.hpp:77] Creating layer loss
I0122 18:31:55.980183 69145 net.cpp:94] Creating Layer loss
I0122 18:31:55.980190 69145 net.cpp:435] loss <- loss/classifier_loss/classifier_0_split_0
I0122 18:31:55.980196 69145 net.cpp:435] loss <- label_data_1_split_0
I0122 18:31:55.980201 69145 net.cpp:409] loss -> loss
…
