…
I0122 17:49:00.587538 65942 caffe_interface.cpp:70] GPU device name: Quadro P6000
I0122 17:49:00.588435 65942 net.cpp:323] The NetState phase (1) differed from the phase (0) specified by a rule in layer data
I0122 17:49:00.589018 65942 net.cpp:52] Initializing net from parameters: 
state {
  phase: TEST
}
layer {
  name: "data"
  type: "Data"
  top: "data"
  top: "label"
  include {
    phase: TEST
  }
  transform_param {
    mirror: false
    mean_value: 104
    mean_value: 117
    mean_value: 123
  }
  data_param {
    source: "cifar10/input/lmdb/valid_lmdb"
    batch_size: 50
    backend: LMDB
  }
}
layer {
  name: "conv1/3x3_s1"
  type: "Convolution"
  bottom: "data"
  top: "conv1/3x3_s1"
  param {
    lr_mult: 1
    decay_mult: 1
  }
  param {
    lr_mult: 2
    decay_mult: 0
  }
  convolution_param {
    num_output: 96
    pad: 1
    kernel_size: 3
    stride: 1
    weight_filler {
      type: "xavier"
      std: 0.1
    }
    bias_filler {
      type: "constant"
      value: 0.2
    }
  }
}
layer {
  name: "conv1/bn1"
  type: "BatchNorm"
  bottom: "conv1/3x3_s1"
  top: "conv1/3x3_s1"
  param {
    lr_mult: 1
    decay_mult: 0
  }
  param {
    lr_mult: 1
    decay_mult: 0
  }
  param {
    lr_mult: 0
    decay_mult: 0
  }
  param {
    lr_mult: 0
    decay_mult: 0
  }
  batch_norm_param {
    use_global_stats: false
    scale_filler {
      type: "constant"
      value: 1
    }
    bias_filler {
      type: "constant"
      value: 0
    }
  }
}
layer {
  name: "conv1/relu1"
  type: "ReLU"
  bottom: "conv1/3x3_s1"
  top: "conv1/3x3_s1"
}
layer {
  name: "inception_2a/1x1"
  type: "Convolution"
  bottom: "conv1/3x3_s1"
  top: "inception_2a/1x1"
  param {
    lr_mult: 1
    decay_mult: 1
  }
  param {
    lr_mult: 2
    decay_mult: 0
  }
  convolution_param {
    num_output: 32
    kernel_size: 1
    weight_filler {
      type: "xavier"
      std: 0.03
    }
    bias_filler {
      type: "constant"
      value: 0.2
    }
  }
}
layer {
  name: "inception_2a/1x1/bn1"
  type: "BatchNorm"
  bottom: "inception_2a/1x1"
  top: "inception_2a/1x1"
  param {
    lr_mult: 1
    decay_mult: 0
  }
  param {
    lr_mult: 1
    decay_mult: 0
  }
  param {
    lr_mult: 0
    decay_mult: 0
  }
  param {
    lr_mult: 0
    decay_mult: 0
  }
  batch_norm_param {
    use_global_stats: false
    scale_filler {
      type: "constant"
      value: 1
    }
    bias_filler {
      type: "constant"
      value: 0
    }
  }
}
layer {
  name: "inception_2a/1x1/relu1"
  type: "ReLU"
  bottom: "inception_2a/1x1"
  top: "inception_2a/1x1"
}
layer {
  name: "inception_2a/3x3"
  type: "Convolution"
  bottom: "conv1/3x3_s1"
  top: "inception_2a/3x3"
  param {
    lr_mult: 1
    decay_mult: 1
  }
  param {
    lr_mult: 2
    decay_mult: 0
  }
  convolution_param {
    num_output: 32
    pad: 1
    kernel_size: 3
    weight_filler {
      type: "xavier"
      std: 0.03
    }
    bias_filler {
      type: "constant"
      value: 0.2
    }
  }
}
layer {
  name: "inception_2a/3x3/bn1"
  type: "BatchNorm"
  bottom: "inception_2a/3x3"
  top: "inception_2a/3x3"
  param {
    lr_mult: 1
    decay_mult: 0
  }
  param {
    lr_mult: 1
    decay_mult: 0
  }
  param {
    lr_mult: 0
    decay_mult: 0
  }
  param {
    lr_mult: 0
    decay_mult: 0
  }
  batch_norm_param {
    use_global_stats: false
    scale_filler {
      type: "constant"
      value: 1
    }
    bias_filler {
      type: "constant"
      value: 0
    }
  }
}
layer {
  name: "inception_2a/3x3/relu1"
  type: "ReLU"
  bottom: "inception_2a/3x3"
  top: "inception_2a/3x3"
}
layer {
  name: "inception_2a/output"
  type: "Concat"
  bottom: "inception_2a/1x1"
  bottom: "inception_2a/3x3"
  top: "inception_2a/output"
}
layer {
  name: "inception_3a/1x1"
  type: "Convolution"
  bottom: "inception_2a/output"
  top: "inception_3a/1x1"
  param {
    lr_mult: 1
    decay_mult: 1
  }
  param {
    lr_mult: 2
    decay_mult: 0
  }
  convolution_param {
    num_output: 32
    kernel_size: 1
    weight_filler {
      type: "xavier"
      std: 0.03
    }
    bias_filler {
      type: "constant"
      value: 0.2
    }
  }
}
layer {
  name: "inception_3a/1x1/bn1"
  type: "BatchNorm"
  bottom: "inception_3a/1x1"
  top: "inception_3a/1x1"
  param {
    lr_mult: 1
    decay_mult: 0
  }
  param {
    lr_mult: 1
    decay_mult: 0
  }
  param {
    lr_mult: 0
    decay_mult: 0
  }
  param {
    lr_mult: 0
    decay_mult: 0
  }
  batch_norm_param {
    use_global_stats: false
    scale_filler {
      type: "constant"
      value: 1
    }
    bias_filler {
      type: "constant"
      value: 0
    }
  }
}
layer {
  name: "inception_3a/1x1/relu1"
  type: "ReLU"
  bottom: "inception_3a/1x1"
  top: "inception_3a/1x1"
}
layer {
  name: "inception_3a/3x3"
  type: "Convolution"
  bottom: "inception_2a/output"
  top: "inception_3a/3x3"
  param {
    lr_mult: 1
    decay_mult: 1
  }
  param {
    lr_mult: 2
    decay_mult: 0
  }
  convolution_param {
    num_output: 48
    pad: 1
    kernel_size: 3
    weight_filler {
      type: "xavier"
      std: 0.03
    }
    bias_filler {
      type: "constant"
      value: 0.2
    }
  }
}
layer {
  name: "inception_3a/3x3/bn1"
  type: "BatchNorm"
  bottom: "inception_3a/3x3"
  top: "inception_3a/3x3"
  param {
    lr_mult: 1
    decay_mult: 0
  }
  param {
    lr_mult: 1
    decay_mult: 0
  }
  param {
    lr_mult: 0
    decay_mult: 0
  }
  param {
    lr_mult: 0
    decay_mult: 0
  }
  batch_norm_param {
    use_global_stats: false
    scale_filler {
      type: "constant"
      value: 1
    }
    bias_filler {
      type: "constant"
      value: 0
    }
  }
}
layer {
  name: "inception_3a/3x3/relu1"
  type: "ReLU"
  bottom: "inception_3a/3x3"
  top: "inception_3a/3x3"
}
layer {
  name: "inception_3a/output"
  type: "Concat"
  bottom: "inception_3a/1x1"
  bottom: "inception_3a/3x3"
  top: "inception_3a/output"
}
layer {
  name: "downsample_4/3x3_s2"
  type: "Convolution"
  bottom: "inception_3a/output"
  top: "downsample_4/3x3_s2"
  param {
    lr_mult: 1
    decay_mult: 1
  }
  param {
    lr_mult: 2
    decay_mult: 0
  }
  convolution_param {
    num_output: 80
    pad: 1
    kernel_size: 3
    stride: 2
    weight_filler {
      type: "xavier"
      std: 0.03
    }
    bias_filler {
      type: "constant"
      value: 0.2
    }
  }
}
layer {
  name: "downsample_4/3x3_s2/bn1"
  type: "BatchNorm"
  bottom: "downsample_4/3x3_s2"
  top: "downsample_4/3x3_s2"
  param {
    lr_mult: 1
    decay_mult: 0
  }
  param {
    lr_mult: 1
    decay_mult: 0
  }
  param {
    lr_mult: 0
    decay_mult: 0
  }
  param {
    lr_mult: 0
    decay_mult: 0
  }
  batch_norm_param {
    use_global_stats: false
    scale_filler {
      type: "constant"
      value: 1
    }
    bias_filler {
      type: "constant"
      value: 0
    }
  }
}
layer {
  name: "downsample_4/3x3_s2/relu1"
  type: "ReLU"
  bottom: "downsample_4/3x3_s2"
  top: "downsample_4/3x3_s2"
}
layer {
  name: "downsample_4/pool_s2"
  type: "Pooling"
  bottom: "inception_3a/output"
  top: "downsample_4/pool_s2"
  pooling_param {
    pool: MAX
    kernel_size: 3
    stride: 2
  }
}
layer {
  name: "downsample_4/output"
  type: "Concat"
  bottom: "downsample_4/3x3_s2"
  bottom: "downsample_4/pool_s2"
  top: "downsample_4/output"
}
layer {
  name: "inception_5a/1x1"
  type: "Convolution"
  bottom: "downsample_4/output"
  top: "inception_5a/1x1"
  param {
    lr_mult: 1
    decay_mult: 1
  }
  param {
    lr_mult: 2
    decay_mult: 0
  }
  convolution_param {
    num_output: 112
    kernel_size: 1
    weight_filler {
      type: "xavier"
      std: 0.03
    }
    bias_filler {
      type: "constant"
      value: 0.2
    }
  }
}
layer {
  name: "inception_5a/1x1/bn1"
  type: "BatchNorm"
  bottom: "inception_5a/1x1"
  top: "inception_5a/1x1"
  param {
    lr_mult: 1
    decay_mult: 0
  }
  param {
    lr_mult: 1
    decay_mult: 0
  }
  param {
    lr_mult: 0
    decay_mult: 0
  }
  param {
    lr_mult: 0
    decay_mult: 0
  }
  batch_norm_param {
    use_global_stats: false
    scale_filler {
      type: "constant"
      value: 1
    }
    bias_filler {
      type: "constant"
      value: 0
    }
  }
}
layer {
  name: "inception_5a/1x1/relu1"
  type: "ReLU"
  bottom: "inception_5a/1x1"
  top: "inception_5a/1x1"
}
layer {
  name: "inception_5a/3x3"
  type: "Convolution"
  bottom: "downsample_4/output"
  top: "inception_5a/3x3"
  param {
    lr_mult: 1
    decay_mult: 1
  }
  param {
    lr_mult: 2
    decay_mult: 0
  }
  convolution_param {
    num_output: 48
    pad: 1
    kernel_size: 3
    weight_filler {
      type: "xavier"
      std: 0.03
    }
    bias_filler {
      type: "constant"
      value: 0.2
    }
  }
}
layer {
  name: "inception_5a/3x3/bn1"
  type: "BatchNorm"
  bottom: "inception_5a/3x3"
  top: "inception_5a/3x3"
  param {
    lr_mult: 1
    decay_mult: 0
  }
  param {
    lr_mult: 1
    decay_mult: 0
  }
  param {
    lr_mult: 0
    decay_mult: 0
  }
  param {
    lr_mult: 0
    decay_mult: 0
  }
  batch_norm_param {
    use_global_stats: false
    scale_filler {
      type: "constant"
      value: 1
    }
    bias_filler {
      type: "constant"
      value: 0
    }
  }
}
layer {
  name: "inception_5a/3x3/relu1"
  type: "ReLU"
  bottom: "inception_5a/3x3"
  top: "inception_5a/3x3"
}
layer {
  name: "inception_5a/output"
  type: "Concat"
  bottom: "inception_5a/1x1"
  bottom: "inception_5a/3x3"
  top: "inception_5a/output"
}
layer {
  name: "inception_6a/1x1"
  type: "Convolution"
  bottom: "inception_5a/output"
  top: "inception_6a/1x1"
  param {
    lr_mult: 1
    decay_mult: 1
  }
  param {
    lr_mult: 2
    decay_mult: 0
  }
  convolution_param {
    num_output: 96
    kernel_size: 1
    weight_filler {
      type: "xavier"
      std: 0.03
    }
    bias_filler {
      type: "constant"
      value: 0.2
    }
  }
}
layer {
  name: "inception_6a/1x1/bn1"
  type: "BatchNorm"
  bottom: "inception_6a/1x1"
  top: "inception_6a/1x1"
  param {
    lr_mult: 1
    decay_mult: 0
  }
  param {
    lr_mult: 1
    decay_mult: 0
  }
  param {
    lr_mult: 0
    decay_mult: 0
  }
  param {
    lr_mult: 0
    decay_mult: 0
  }
  batch_norm_param {
    use_global_stats: false
    scale_filler {
      type: "constant"
      value: 1
    }
    bias_filler {
      type: "constant"
      value: 0
    }
  }
}
layer {
  name: "inception_6a/1x1/relu1"
  type: "ReLU"
  bottom: "inception_6a/1x1"
  top: "inception_6a/1x1"
}
layer {
  name: "inception_6a/3x3"
  type: "Convolution"
  bottom: "inception_5a/output"
  top: "inception_6a/3x3"
  param {
    lr_mult: 1
    decay_mult: 1
  }
  param {
    lr_mult: 2
    decay_mult: 0
  }
  convolution_param {
    num_output: 64
    pad: 1
    kernel_size: 3
    weight_filler {
      type: "xavier"
      std: 0.03
    }
    bias_filler {
      type: "constant"
      value: 0.2
    }
  }
}
layer {
  name: "inception_6a/3x3/bn1"
  type: "BatchNorm"
  bottom: "inception_6a/3x3"
  top: "inception_6a/3x3"
  param {
    lr_mult: 1
    decay_mult: 0
  }
  param {
    lr_mult: 1
    decay_mult: 0
  }
  param {
    lr_mult: 0
    decay_mult: 0
  }
  param {
    lr_mult: 0
    decay_mult: 0
  }
  batch_norm_param {
    use_global_stats: false
    scale_filler {
      type: "constant"
      value: 1
    }
    bias_filler {
      type: "constant"
      value: 0
    }
  }
}
layer {
  name: "inception_6a/3x3/relu1"
  type: "ReLU"
  bottom: "inception_6a/3x3"
  top: "inception_6a/3x3"
}
layer {
  name: "inception_6a/output"
  type: "Concat"
  bottom: "inception_6a/1x1"
  bottom: "inception_6a/3x3"
  top: "inception_6a/output"
}
layer {
  name: "inception_7a/1x1"
  type: "Convolution"
  bottom: "inception_6a/output"
  top: "inception_7a/1x1"
  param {
    lr_mult: 1
    decay_mult: 1
  }
  param {
    lr_mult: 2
    decay_mult: 0
  }
  convolution_param {
    num_output: 80
    kernel_size: 1
    weight_filler {
      type: "xavier"
      std: 0.03
    }
    bias_filler {
      type: "constant"
      value: 0.2
    }
  }
}
layer {
  name: "inception_7a/1x1/bn1"
  type: "BatchNorm"
  bottom: "inception_7a/1x1"
  top: "inception_7a/1x1"
  param {
    lr_mult: 1
    decay_mult: 0
  }
  param {
    lr_mult: 1
    decay_mult: 0
  }
  param {
    lr_mult: 0
    decay_mult: 0
  }
  param {
    lr_mult: 0
    decay_mult: 0
  }
  batch_norm_param {
    use_global_stats: false
    scale_filler {
      type: "constant"
      value: 1
    }
    bias_filler {
      type: "constant"
      value: 0
    }
  }
}
layer {
  name: "inception_7a/1x1/relu1"
  type: "ReLU"
  bottom: "inception_7a/1x1"
  top: "inception_7a/1x1"
}
layer {
  name: "inception_7a/3x3"
  type: "Convolution"
  bottom: "inception_6a/output"
  top: "inception_7a/3x3"
  param {
    lr_mult: 1
    decay_mult: 1
  }
  param {
    lr_mult: 2
    decay_mult: 0
  }
  convolution_param {
    num_output: 80
    pad: 1
    kernel_size: 3
    weight_filler {
      type: "xavier"
      std: 0.03
    }
    bias_filler {
      type: "constant"
      value: 0.2
    }
  }
}
layer {
  name: "inception_7a/3x3/bn1"
  type: "BatchNorm"
  bottom: "inception_7a/3x3"
  top: "inception_7a/3x3"
  param {
    lr_mult: 1
    decay_mult: 0
  }
  param {
    lr_mult: 1
    decay_mult: 0
  }
  param {
    lr_mult: 0
    decay_mult: 0
  }
  param {
    lr_mult: 0
    decay_mult: 0
  }
  batch_norm_param {
    use_global_stats: false
    scale_filler {
      type: "constant"
      value: 1
    }
    bias_filler {
      type: "constant"
      value: 0
    }
  }
}
layer {
  name: "inception_7a/3x3/relu1"
  type: "ReLU"
  bottom: "inception_7a/3x3"
  top: "inception_7a/3x3"
}
layer {
  name: "inception_7a/output"
  type: "Concat"
  bottom: "inception_7a/1x1"
  bottom: "inception_7a/3x3"
  top: "inception_7a/output"
}
layer {
  name: "inception_8a/1x1"
  type: "Convolution"
  bottom: "inception_7a/output"
  top: "inception_8a/1x1"
  param {
    lr_mult: 1
    decay_mult: 1
  }
  param {
    lr_mult: 2
    decay_mult: 0
  }
  convolution_param {
    num_output: 48
    kernel_size: 1
    weight_filler {
      type: "xavier"
      std: 0.03
    }
    bias_filler {
      type: "constant"
      value: 0.2
    }
  }
}
layer {
  name: "inception_8a/1x1/bn1"
  type: "BatchNorm"
  bottom: "inception_8a/1x1"
  top: "inception_8a/1x1"
  param {
    lr_mult: 1
    decay_mult: 0
  }
  param {
    lr_mult: 1
    decay_mult: 0
  }
  param {
    lr_mult: 0
    decay_mult: 0
  }
  param {
    lr_mult: 0
    decay_mult: 0
  }
  batch_norm_param {
    use_global_stats: false
    scale_filler {
      type: "constant"
      value: 1
    }
    bias_filler {
      type: "constant"
      value: 0
    }
  }
}
layer {
  name: "inception_8a/1x1/relu1"
  type: "ReLU"
  bottom: "inception_8a/1x1"
  top: "inception_8a/1x1"
}
layer {
  name: "inception_8a/3x3"
  type: "Convolution"
  bottom: "inception_7a/output"
  top: "inception_8a/3x3"
  param {
    lr_mult: 1
    decay_mult: 1
  }
  param {
    lr_mult: 2
    decay_mult: 0
  }
  convolution_param {
    num_output: 96
    pad: 1
    kernel_size: 3
    weight_filler {
      type: "xavier"
      std: 0.03
    }
    bias_filler {
      type: "constant"
      value: 0.2
    }
  }
}
layer {
  name: "inception_8a/3x3/bn1"
  type: "BatchNorm"
  bottom: "inception_8a/3x3"
  top: "inception_8a/3x3"
  param {
    lr_mult: 1
    decay_mult: 0
  }
  param {
    lr_mult: 1
    decay_mult: 0
  }
  param {
    lr_mult: 0
    decay_mult: 0
  }
  param {
    lr_mult: 0
    decay_mult: 0
  }
  batch_norm_param {
    use_global_stats: false
    scale_filler {
      type: "constant"
      value: 1
    }
    bias_filler {
      type: "constant"
      value: 0
    }
  }
}
layer {
  name: "inception_8a/3x3/relu1"
  type: "ReLU"
  bottom: "inception_8a/3x3"
  top: "inception_8a/3x3"
}
layer {
  name: "inception_8a/output"
  type: "Concat"
  bottom: "inception_8a/1x1"
  bottom: "inception_8a/3x3"
  top: "inception_8a/output"
}
layer {
  name: "downsample_9/3x3_s2"
  type: "Convolution"
  bottom: "inception_8a/output"
  top: "downsample_9/3x3_s2"
  param {
    lr_mult: 1
    decay_mult: 1
  }
  param {
    lr_mult: 2
    decay_mult: 0
  }
  convolution_param {
    num_output: 96
    pad: 1
    kernel_size: 3
    stride: 2
    weight_filler {
      type: "xavier"
      std: 0.03
    }
    bias_filler {
      type: "constant"
      value: 0.2
    }
  }
}
layer {
  name: "downsample_9/3x3_s2/bn1"
  type: "BatchNorm"
  bottom: "downsample_9/3x3_s2"
  top: "downsample_9/3x3_s2"
  param {
    lr_mult: 1
    decay_mult: 0
  }
  param {
    lr_mult: 1
    decay_mult: 0
  }
  param {
    lr_mult: 0
    decay_mult: 0
  }
  param {
    lr_mult: 0
    decay_mult: 0
  }
  batch_norm_param {
    use_global_stats: false
    scale_filler {
      type: "constant"
      value: 1
    }
    bias_filler {
      type: "constant"
      value: 0
    }
  }
}
layer {
  name: "downsample_9/3x3_s2/relu1"
  type: "ReLU"
  bottom: "downsample_9/3x3_s2"
  top: "downsample_9/3x3_s2"
}
layer {
  name: "downsample_9/pool_s2"
  type: "Pooling"
  bottom: "inception_8a/output"
  top: "downsample_9/pool_s2"
  pooling_param {
    pool: MAX
    kernel_size: 3
    stride: 2
  }
}
layer {
  name: "downsample_9/output"
  type: "Concat"
  bottom: "downsample_9/3x3_s2"
  bottom: "downsample_9/pool_s2"
  top: "downsample_9/output"
}
layer {
  name: "inception_10a/1x1"
  type: "Convolution"
  bottom: "downsample_9/output"
  top: "inception_10a/1x1"
  param {
    lr_mult: 1
    decay_mult: 1
  }
  param {
    lr_mult: 2
    decay_mult: 0
  }
  convolution_param {
    num_output: 176
    kernel_size: 1
    weight_filler {
      type: "xavier"
      std: 0.03
    }
    bias_filler {
      type: "constant"
      value: 0.2
    }
  }
}
layer {
  name: "inception_10a/1x1/bn1"
  type: "BatchNorm"
  bottom: "inception_10a/1x1"
  top: "inception_10a/1x1"
  param {
    lr_mult: 1
    decay_mult: 0
  }
  param {
    lr_mult: 1
    decay_mult: 0
  }
  param {
    lr_mult: 0
    decay_mult: 0
  }
  param {
    lr_mult: 0
    decay_mult: 0
  }
  batch_norm_param {
    use_global_stats: false
    scale_filler {
      type: "constant"
      value: 1
    }
    bias_filler {
      type: "constant"
      value: 0
    }
  }
}
layer {
  name: "inception_10a/1x1/relu1"
  type: "ReLU"
  bottom: "inception_10a/1x1"
  top: "inception_10a/1x1"
}
layer {
  name: "inception_10a/3x3"
  type: "Convolution"
  bottom: "downsample_9/output"
  top: "inception_10a/3x3"
  param {
    lr_mult: 1
    decay_mult: 1
  }
  param {
    lr_mult: 2
    decay_mult: 0
  }
  convolution_param {
    num_output: 160
    pad: 1
    kernel_size: 3
    weight_filler {
      type: "xavier"
      std: 0.03
    }
    bias_filler {
      type: "constant"
      value: 0.2
    }
  }
}
layer {
  name: "inception_10a/3x3/bn1"
  type: "BatchNorm"
  bottom: "inception_10a/3x3"
  top: "inception_10a/3x3"
  param {
    lr_mult: 1
    decay_mult: 0
  }
  param {
    lr_mult: 1
    decay_mult: 0
  }
  param {
    lr_mult: 0
    decay_mult: 0
  }
  param {
    lr_mult: 0
    decay_mult: 0
  }
  batch_norm_param {
    use_global_stats: false
    scale_filler {
      type: "constant"
      value: 1
    }
    bias_filler {
      type: "constant"
      value: 0
    }
  }
}
layer {
  name: "inception_10a/3x3/relu1"
  type: "ReLU"
  bottom: "inception_10a/3x3"
  top: "inception_10a/3x3"
}
layer {
  name: "inception_10a/output"
  type: "Concat"
  bottom: "inception_10a/1x1"
  bottom: "inception_10a/3x3"
  top: "inception_10a/output"
}
layer {
  name: "inception_11a/1x1"
  type: "Convolution"
  bottom: "inception_10a/output"
  top: "inception_11a/1x1"
  param {
    lr_mult: 1
    decay_mult: 1
  }
  param {
    lr_mult: 2
    decay_mult: 0
  }
  convolution_param {
    num_output: 176
    kernel_size: 1
    weight_filler {
      type: "xavier"
      std: 0.03
    }
    bias_filler {
      type: "constant"
      value: 0.2
    }
  }
}
layer {
  name: "inception_11a/1x1/bn1"
  type: "BatchNorm"
  bottom: "inception_11a/1x1"
  top: "inception_11a/1x1"
  param {
    lr_mult: 1
    decay_mult: 0
  }
  param {
    lr_mult: 1
    decay_mult: 0
  }
  param {
    lr_mult: 0
    decay_mult: 0
  }
  param {
    lr_mult: 0
    decay_mult: 0
  }
  batch_norm_param {
    use_global_stats: false
    scale_filler {
      type: "constant"
      value: 1
    }
    bias_filler {
      type: "constant"
      value: 0
    }
  }
}
layer {
  name: "inception_11a/1x1/relu1"
  type: "ReLU"
  bottom: "inception_11a/1x1"
  top: "inception_11a/1x1"
}
layer {
  name: "inception_11a/3x3"
  type: "Convolution"
  bottom: "inception_10a/output"
  top: "inception_11a/3x3"
  param {
    lr_mult: 1
    decay_mult: 1
  }
  param {
    lr_mult: 2
    decay_mult: 0
  }
  convolution_param {
    num_output: 160
    pad: 1
    kernel_size: 3
    weight_filler {
      type: "xavier"
      std: 0.03
    }
    bias_filler {
      type: "constant"
      value: 0.2
    }
  }
}
layer {
  name: "inception_11a/3x3/bn1"
  type: "BatchNorm"
  bottom: "inception_11a/3x3"
  top: "inception_11a/3x3"
  param {
    lr_mult: 1
    decay_mult: 0
  }
  param {
    lr_mult: 1
    decay_mult: 0
  }
  param {
    lr_mult: 0
    decay_mult: 0
  }
  param {
    lr_mult: 0
    decay_mult: 0
  }
  batch_norm_param {
    use_global_stats: false
    scale_filler {
      type: "constant"
      value: 1
    }
    bias_filler {
      type: "constant"
      value: 0
    }
  }
}
layer {
  name: "inception_11a/3x3/relu1"
  type: "ReLU"
  bottom: "inception_11a/3x3"
  top: "inception_11a/3x3"
}
layer {
  name: "inception_11a/output"
  type: "Concat"
  bottom: "inception_11a/1x1"
  bottom: "inception_11a/3x3"
  top: "inception_11a/output"
}
layer {
  name: "avg_pool_12/8x8_s1"
  type: "Pooling"
  bottom: "inception_11a/output"
  top: "avg_pool_12/8x8_s1"
  pooling_param {
    pool: AVE
    kernel_size: 8
    stride: 1
  }
}
layer {
  name: "drop_8x8_s1"
  type: "Dropout"
  bottom: "avg_pool_12/8x8_s1"
  top: "avg_pool_12/8x8_s1"
  dropout_param {
    dropout_ratio: 0.5
  }
}
layer {
  name: "loss/classifier"
  type: "InnerProduct"
  bottom: "avg_pool_12/8x8_s1"
  top: "loss/classifier"
  param {
    lr_mult: 1
    decay_mult: 1
  }
  param {
    lr_mult: 2
    decay_mult: 0
  }
  inner_product_param {
    num_output: 10
    weight_filler {
      type: "xavier"
    }
    bias_filler {
      type: "constant"
      value: 1
    }
  }
}
layer {
  name: "loss"
  type: "SoftmaxWithLoss"
  bottom: "loss/classifier"
  bottom: "label"
  top: "loss"
}
layer {
  name: "accuracy"
  type: "Accuracy"
  bottom: "loss/classifier"
  bottom: "label"
  top: "accuracy"
  include {
    phase: TEST
  }
}
layer {
  name: "accuracy-top1"
  type: "Accuracy"
  bottom: "loss/classifier"
  bottom: "label"
  top: "top-1"
  include {
    phase: TEST
  }
}
layer {
  name: "accuracy-top5"
  type: "Accuracy"
  bottom: "loss/classifier"
  bottom: "label"
  top: "top-5"
  include {
    phase: TEST
  }
  accuracy_param {
    top_k: 5
  }
}
I0122 17:49:00.589329 65942 layer_factory.hpp:77] Creating layer data
I0122 17:49:00.589365 65942 internal_thread.cpp:27] Starting internal thread(s) on GPU 0
I0122 17:49:00.589728 65942 net.cpp:94] Creating Layer data
I0122 17:49:00.589735 65942 net.cpp:409] data -> data
I0122 17:49:00.589745 65942 net.cpp:409] data -> label
I0122 17:49:00.590836 66969 db_lmdb.cpp:35] Opened lmdb cifar10/input/lmdb/valid_lmdb
I0122 17:49:00.590865 66969 data_reader.cpp:117] TEST: reading data using 1 channel(s)
I0122 17:49:00.590955 65942 data_layer.cpp:78] ReshapePrefetch 50, 3, 32, 32
I0122 17:49:00.591035 65942 data_layer.cpp:83] output data size: 50,3,32,32
I0122 17:49:00.593654 65942 internal_thread.cpp:27] Starting internal thread(s) on GPU 0
I0122 17:49:00.593699 65942 net.cpp:144] Setting up data
I0122 17:49:00.593705 65942 net.cpp:151] Top shape: 50 3 32 32 (153600)
I0122 17:49:00.593710 65942 net.cpp:151] Top shape: 50 (50)
I0122 17:49:00.593713 65942 net.cpp:159] Memory required for data: 614600
I0122 17:49:00.593715 65942 layer_factory.hpp:77] Creating layer label_data_1_split
I0122 17:49:00.593722 65942 net.cpp:94] Creating Layer label_data_1_split
I0122 17:49:00.593726 65942 net.cpp:435] label_data_1_split <- label
I0122 17:49:00.593731 65942 net.cpp:409] label_data_1_split -> label_data_1_split_0
I0122 17:49:00.593739 65942 net.cpp:409] label_data_1_split -> label_data_1_split_1
I0122 17:49:00.593745 65942 net.cpp:409] label_data_1_split -> label_data_1_split_2
I0122 17:49:00.593753 65942 net.cpp:409] label_data_1_split -> label_data_1_split_3
I0122 17:49:00.593827 65942 net.cpp:144] Setting up label_data_1_split
I0122 17:49:00.593832 65942 net.cpp:151] Top shape: 50 (50)
I0122 17:49:00.593835 65942 net.cpp:151] Top shape: 50 (50)
I0122 17:49:00.593839 65942 net.cpp:151] Top shape: 50 (50)
I0122 17:49:00.593842 65942 net.cpp:151] Top shape: 50 (50)
I0122 17:49:00.593845 65942 net.cpp:159] Memory required for data: 615400
I0122 17:49:00.593847 65942 layer_factory.hpp:77] Creating layer conv1/3x3_s1
I0122 17:49:00.593856 65942 net.cpp:94] Creating Layer conv1/3x3_s1
I0122 17:49:00.593861 65942 net.cpp:435] conv1/3x3_s1 <- data
I0122 17:49:00.593866 65942 net.cpp:409] conv1/3x3_s1 -> conv1/3x3_s1
I0122 17:49:00.595356 65942 net.cpp:144] Setting up conv1/3x3_s1
I0122 17:49:00.595367 65942 net.cpp:151] Top shape: 50 96 32 32 (4915200)
I0122 17:49:00.595381 65942 net.cpp:159] Memory required for data: 20276200
I0122 17:49:00.595389 65942 layer_factory.hpp:77] Creating layer conv1/bn1
I0122 17:49:00.595396 65942 net.cpp:94] Creating Layer conv1/bn1
I0122 17:49:00.595398 65942 net.cpp:435] conv1/bn1 <- conv1/3x3_s1
I0122 17:49:00.595403 65942 net.cpp:396] conv1/bn1 -> conv1/3x3_s1 (in-place)
I0122 17:49:00.595989 65942 net.cpp:144] Setting up conv1/bn1
I0122 17:49:00.595996 65942 net.cpp:151] Top shape: 50 96 32 32 (4915200)
I0122 17:49:00.596000 65942 net.cpp:159] Memory required for data: 39937000
I0122 17:49:00.596010 65942 layer_factory.hpp:77] Creating layer conv1/relu1
I0122 17:49:00.596016 65942 net.cpp:94] Creating Layer conv1/relu1
I0122 17:49:00.596021 65942 net.cpp:435] conv1/relu1 <- conv1/3x3_s1
I0122 17:49:00.596026 65942 net.cpp:396] conv1/relu1 -> conv1/3x3_s1 (in-place)
I0122 17:49:00.596032 65942 net.cpp:144] Setting up conv1/relu1
I0122 17:49:00.596035 65942 net.cpp:151] Top shape: 50 96 32 32 (4915200)
I0122 17:49:00.596038 65942 net.cpp:159] Memory required for data: 59597800
I0122 17:49:00.596041 65942 layer_factory.hpp:77] Creating layer conv1/3x3_s1_conv1/relu1_0_split
I0122 17:49:00.596045 65942 net.cpp:94] Creating Layer conv1/3x3_s1_conv1/relu1_0_split
I0122 17:49:00.596047 65942 net.cpp:435] conv1/3x3_s1_conv1/relu1_0_split <- conv1/3x3_s1
I0122 17:49:00.596052 65942 net.cpp:409] conv1/3x3_s1_conv1/relu1_0_split -> conv1/3x3_s1_conv1/relu1_0_split_0
I0122 17:49:00.596058 65942 net.cpp:409] conv1/3x3_s1_conv1/relu1_0_split -> conv1/3x3_s1_conv1/relu1_0_split_1
I0122 17:49:00.596084 65942 net.cpp:144] Setting up conv1/3x3_s1_conv1/relu1_0_split
I0122 17:49:00.596091 65942 net.cpp:151] Top shape: 50 96 32 32 (4915200)
I0122 17:49:00.596093 65942 net.cpp:151] Top shape: 50 96 32 32 (4915200)
I0122 17:49:00.596097 65942 net.cpp:159] Memory required for data: 98919400
I0122 17:49:00.596099 65942 layer_factory.hpp:77] Creating layer inception_2a/1x1
I0122 17:49:00.596107 65942 net.cpp:94] Creating Layer inception_2a/1x1
I0122 17:49:00.596109 65942 net.cpp:435] inception_2a/1x1 <- conv1/3x3_s1_conv1/relu1_0_split_0
I0122 17:49:00.596115 65942 net.cpp:409] inception_2a/1x1 -> inception_2a/1x1
I0122 17:49:00.596321 65942 net.cpp:144] Setting up inception_2a/1x1
I0122 17:49:00.596328 65942 net.cpp:151] Top shape: 50 32 32 32 (1638400)
I0122 17:49:00.596330 65942 net.cpp:159] Memory required for data: 105473000
I0122 17:49:00.596338 65942 layer_factory.hpp:77] Creating layer inception_2a/1x1/bn1
I0122 17:49:00.596356 65942 net.cpp:94] Creating Layer inception_2a/1x1/bn1
I0122 17:49:00.596359 65942 net.cpp:435] inception_2a/1x1/bn1 <- inception_2a/1x1
I0122 17:49:00.596364 65942 net.cpp:396] inception_2a/1x1/bn1 -> inception_2a/1x1 (in-place)
I0122 17:49:00.597106 65942 net.cpp:144] Setting up inception_2a/1x1/bn1
I0122 17:49:00.597113 65942 net.cpp:151] Top shape: 50 32 32 32 (1638400)
I0122 17:49:00.597116 65942 net.cpp:159] Memory required for data: 112026600
I0122 17:49:00.597124 65942 layer_factory.hpp:77] Creating layer inception_2a/1x1/relu1
I0122 17:49:00.597129 65942 net.cpp:94] Creating Layer inception_2a/1x1/relu1
I0122 17:49:00.597132 65942 net.cpp:435] inception_2a/1x1/relu1 <- inception_2a/1x1
I0122 17:49:00.597137 65942 net.cpp:396] inception_2a/1x1/relu1 -> inception_2a/1x1 (in-place)
I0122 17:49:00.597143 65942 net.cpp:144] Setting up inception_2a/1x1/relu1
I0122 17:49:00.597147 65942 net.cpp:151] Top shape: 50 32 32 32 (1638400)
I0122 17:49:00.597149 65942 net.cpp:159] Memory required for data: 118580200
I0122 17:49:00.597152 65942 layer_factory.hpp:77] Creating layer inception_2a/3x3
I0122 17:49:00.597159 65942 net.cpp:94] Creating Layer inception_2a/3x3
I0122 17:49:00.597164 65942 net.cpp:435] inception_2a/3x3 <- conv1/3x3_s1_conv1/relu1_0_split_1
I0122 17:49:00.597169 65942 net.cpp:409] inception_2a/3x3 -> inception_2a/3x3
I0122 17:49:00.598199 65942 net.cpp:144] Setting up inception_2a/3x3
I0122 17:49:00.598210 65942 net.cpp:151] Top shape: 50 32 32 32 (1638400)
I0122 17:49:00.598214 65942 net.cpp:159] Memory required for data: 125133800
I0122 17:49:00.598219 65942 layer_factory.hpp:77] Creating layer inception_2a/3x3/bn1
I0122 17:49:00.598227 65942 net.cpp:94] Creating Layer inception_2a/3x3/bn1
I0122 17:49:00.598230 65942 net.cpp:435] inception_2a/3x3/bn1 <- inception_2a/3x3
I0122 17:49:00.598237 65942 net.cpp:396] inception_2a/3x3/bn1 -> inception_2a/3x3 (in-place)
I0122 17:49:00.598878 65942 net.cpp:144] Setting up inception_2a/3x3/bn1
I0122 17:49:00.598886 65942 net.cpp:151] Top shape: 50 32 32 32 (1638400)
I0122 17:49:00.598888 65942 net.cpp:159] Memory required for data: 131687400
I0122 17:49:00.598901 65942 layer_factory.hpp:77] Creating layer inception_2a/3x3/relu1
I0122 17:49:00.598907 65942 net.cpp:94] Creating Layer inception_2a/3x3/relu1
I0122 17:49:00.598911 65942 net.cpp:435] inception_2a/3x3/relu1 <- inception_2a/3x3
I0122 17:49:00.598917 65942 net.cpp:396] inception_2a/3x3/relu1 -> inception_2a/3x3 (in-place)
I0122 17:49:00.598922 65942 net.cpp:144] Setting up inception_2a/3x3/relu1
I0122 17:49:00.598927 65942 net.cpp:151] Top shape: 50 32 32 32 (1638400)
I0122 17:49:00.598929 65942 net.cpp:159] Memory required for data: 138241000
I0122 17:49:00.598932 65942 layer_factory.hpp:77] Creating layer inception_2a/output
I0122 17:49:00.598937 65942 net.cpp:94] Creating Layer inception_2a/output
I0122 17:49:00.598939 65942 net.cpp:435] inception_2a/output <- inception_2a/1x1
I0122 17:49:00.598943 65942 net.cpp:435] inception_2a/output <- inception_2a/3x3
I0122 17:49:00.598948 65942 net.cpp:409] inception_2a/output -> inception_2a/output
I0122 17:49:00.598968 65942 net.cpp:144] Setting up inception_2a/output
I0122 17:49:00.598974 65942 net.cpp:151] Top shape: 50 64 32 32 (3276800)
I0122 17:49:00.598976 65942 net.cpp:159] Memory required for data: 151348200
I0122 17:49:00.598979 65942 layer_factory.hpp:77] Creating layer inception_2a/output_inception_2a/output_0_split
I0122 17:49:00.598985 65942 net.cpp:94] Creating Layer inception_2a/output_inception_2a/output_0_split
I0122 17:49:00.598987 65942 net.cpp:435] inception_2a/output_inception_2a/output_0_split <- inception_2a/output
I0122 17:49:00.598992 65942 net.cpp:409] inception_2a/output_inception_2a/output_0_split -> inception_2a/output_inception_2a/output_0_split_0
I0122 17:49:00.598999 65942 net.cpp:409] inception_2a/output_inception_2a/output_0_split -> inception_2a/output_inception_2a/output_0_split_1
I0122 17:49:00.599064 65942 net.cpp:144] Setting up inception_2a/output_inception_2a/output_0_split
I0122 17:49:00.599081 65942 net.cpp:151] Top shape: 50 64 32 32 (3276800)
I0122 17:49:00.599086 65942 net.cpp:151] Top shape: 50 64 32 32 (3276800)
I0122 17:49:00.599088 65942 net.cpp:159] Memory required for data: 177562600
I0122 17:49:00.599092 65942 layer_factory.hpp:77] Creating layer inception_3a/1x1
I0122 17:49:00.599100 65942 net.cpp:94] Creating Layer inception_3a/1x1
I0122 17:49:00.599103 65942 net.cpp:435] inception_3a/1x1 <- inception_2a/output_inception_2a/output_0_split_0
I0122 17:49:00.599108 65942 net.cpp:409] inception_3a/1x1 -> inception_3a/1x1
I0122 17:49:00.599326 65942 net.cpp:144] Setting up inception_3a/1x1
I0122 17:49:00.599333 65942 net.cpp:151] Top shape: 50 32 32 32 (1638400)
I0122 17:49:00.599336 65942 net.cpp:159] Memory required for data: 184116200
I0122 17:49:00.599341 65942 layer_factory.hpp:77] Creating layer inception_3a/1x1/bn1
I0122 17:49:00.599349 65942 net.cpp:94] Creating Layer inception_3a/1x1/bn1
I0122 17:49:00.599351 65942 net.cpp:435] inception_3a/1x1/bn1 <- inception_3a/1x1
I0122 17:49:00.599356 65942 net.cpp:396] inception_3a/1x1/bn1 -> inception_3a/1x1 (in-place)
I0122 17:49:00.600008 65942 net.cpp:144] Setting up inception_3a/1x1/bn1
I0122 17:49:00.600014 65942 net.cpp:151] Top shape: 50 32 32 32 (1638400)
I0122 17:49:00.600018 65942 net.cpp:159] Memory required for data: 190669800
I0122 17:49:00.600025 65942 layer_factory.hpp:77] Creating layer inception_3a/1x1/relu1
I0122 17:49:00.600031 65942 net.cpp:94] Creating Layer inception_3a/1x1/relu1
I0122 17:49:00.600035 65942 net.cpp:435] inception_3a/1x1/relu1 <- inception_3a/1x1
I0122 17:49:00.600039 65942 net.cpp:396] inception_3a/1x1/relu1 -> inception_3a/1x1 (in-place)
I0122 17:49:00.600045 65942 net.cpp:144] Setting up inception_3a/1x1/relu1
I0122 17:49:00.600049 65942 net.cpp:151] Top shape: 50 32 32 32 (1638400)
I0122 17:49:00.600052 65942 net.cpp:159] Memory required for data: 197223400
I0122 17:49:00.600056 65942 layer_factory.hpp:77] Creating layer inception_3a/3x3
I0122 17:49:00.600064 65942 net.cpp:94] Creating Layer inception_3a/3x3
I0122 17:49:00.600070 65942 net.cpp:435] inception_3a/3x3 <- inception_2a/output_inception_2a/output_0_split_1
I0122 17:49:00.600077 65942 net.cpp:409] inception_3a/3x3 -> inception_3a/3x3
I0122 17:49:00.600453 65942 net.cpp:144] Setting up inception_3a/3x3
I0122 17:49:00.600461 65942 net.cpp:151] Top shape: 50 48 32 32 (2457600)
I0122 17:49:00.600463 65942 net.cpp:159] Memory required for data: 207053800
I0122 17:49:00.600469 65942 layer_factory.hpp:77] Creating layer inception_3a/3x3/bn1
I0122 17:49:00.600476 65942 net.cpp:94] Creating Layer inception_3a/3x3/bn1
I0122 17:49:00.600479 65942 net.cpp:435] inception_3a/3x3/bn1 <- inception_3a/3x3
I0122 17:49:00.600484 65942 net.cpp:396] inception_3a/3x3/bn1 -> inception_3a/3x3 (in-place)
I0122 17:49:00.601122 65942 net.cpp:144] Setting up inception_3a/3x3/bn1
I0122 17:49:00.601128 65942 net.cpp:151] Top shape: 50 48 32 32 (2457600)
I0122 17:49:00.601131 65942 net.cpp:159] Memory required for data: 216884200
I0122 17:49:00.601142 65942 layer_factory.hpp:77] Creating layer inception_3a/3x3/relu1
I0122 17:49:00.601150 65942 net.cpp:94] Creating Layer inception_3a/3x3/relu1
I0122 17:49:00.601152 65942 net.cpp:435] inception_3a/3x3/relu1 <- inception_3a/3x3
I0122 17:49:00.601157 65942 net.cpp:396] inception_3a/3x3/relu1 -> inception_3a/3x3 (in-place)
I0122 17:49:00.601163 65942 net.cpp:144] Setting up inception_3a/3x3/relu1
I0122 17:49:00.601167 65942 net.cpp:151] Top shape: 50 48 32 32 (2457600)
I0122 17:49:00.601171 65942 net.cpp:159] Memory required for data: 226714600
I0122 17:49:00.601173 65942 layer_factory.hpp:77] Creating layer inception_3a/output
I0122 17:49:00.601178 65942 net.cpp:94] Creating Layer inception_3a/output
I0122 17:49:00.601182 65942 net.cpp:435] inception_3a/output <- inception_3a/1x1
I0122 17:49:00.601186 65942 net.cpp:435] inception_3a/output <- inception_3a/3x3
I0122 17:49:00.601191 65942 net.cpp:409] inception_3a/output -> inception_3a/output
I0122 17:49:00.601210 65942 net.cpp:144] Setting up inception_3a/output
I0122 17:49:00.601224 65942 net.cpp:151] Top shape: 50 80 32 32 (4096000)
I0122 17:49:00.601227 65942 net.cpp:159] Memory required for data: 243098600
I0122 17:49:00.601229 65942 layer_factory.hpp:77] Creating layer inception_3a/output_inception_3a/output_0_split
I0122 17:49:00.601234 65942 net.cpp:94] Creating Layer inception_3a/output_inception_3a/output_0_split
I0122 17:49:00.601239 65942 net.cpp:435] inception_3a/output_inception_3a/output_0_split <- inception_3a/output
I0122 17:49:00.601244 65942 net.cpp:409] inception_3a/output_inception_3a/output_0_split -> inception_3a/output_inception_3a/output_0_split_0
I0122 17:49:00.601250 65942 net.cpp:409] inception_3a/output_inception_3a/output_0_split -> inception_3a/output_inception_3a/output_0_split_1
I0122 17:49:00.601315 65942 net.cpp:144] Setting up inception_3a/output_inception_3a/output_0_split
I0122 17:49:00.601321 65942 net.cpp:151] Top shape: 50 80 32 32 (4096000)
I0122 17:49:00.601325 65942 net.cpp:151] Top shape: 50 80 32 32 (4096000)
I0122 17:49:00.601327 65942 net.cpp:159] Memory required for data: 275866600
I0122 17:49:00.601331 65942 layer_factory.hpp:77] Creating layer downsample_4/3x3_s2
I0122 17:49:00.601341 65942 net.cpp:94] Creating Layer downsample_4/3x3_s2
I0122 17:49:00.601343 65942 net.cpp:435] downsample_4/3x3_s2 <- inception_3a/output_inception_3a/output_0_split_0
I0122 17:49:00.601349 65942 net.cpp:409] downsample_4/3x3_s2 -> downsample_4/3x3_s2
I0122 17:49:00.601881 65942 net.cpp:144] Setting up downsample_4/3x3_s2
I0122 17:49:00.601889 65942 net.cpp:151] Top shape: 50 80 16 16 (1024000)
I0122 17:49:00.601893 65942 net.cpp:159] Memory required for data: 279962600
I0122 17:49:00.601898 65942 layer_factory.hpp:77] Creating layer downsample_4/3x3_s2/bn1
I0122 17:49:00.601922 65942 net.cpp:94] Creating Layer downsample_4/3x3_s2/bn1
I0122 17:49:00.601927 65942 net.cpp:435] downsample_4/3x3_s2/bn1 <- downsample_4/3x3_s2
I0122 17:49:00.601933 65942 net.cpp:396] downsample_4/3x3_s2/bn1 -> downsample_4/3x3_s2 (in-place)
I0122 17:49:00.602653 65942 net.cpp:144] Setting up downsample_4/3x3_s2/bn1
I0122 17:49:00.602660 65942 net.cpp:151] Top shape: 50 80 16 16 (1024000)
I0122 17:49:00.602663 65942 net.cpp:159] Memory required for data: 284058600
I0122 17:49:00.602671 65942 layer_factory.hpp:77] Creating layer downsample_4/3x3_s2/relu1
I0122 17:49:00.602677 65942 net.cpp:94] Creating Layer downsample_4/3x3_s2/relu1
I0122 17:49:00.602680 65942 net.cpp:435] downsample_4/3x3_s2/relu1 <- downsample_4/3x3_s2
I0122 17:49:00.602686 65942 net.cpp:396] downsample_4/3x3_s2/relu1 -> downsample_4/3x3_s2 (in-place)
I0122 17:49:00.602691 65942 net.cpp:144] Setting up downsample_4/3x3_s2/relu1
I0122 17:49:00.602695 65942 net.cpp:151] Top shape: 50 80 16 16 (1024000)
I0122 17:49:00.602699 65942 net.cpp:159] Memory required for data: 288154600
I0122 17:49:00.602701 65942 layer_factory.hpp:77] Creating layer downsample_4/pool_s2
I0122 17:49:00.602706 65942 net.cpp:94] Creating Layer downsample_4/pool_s2
I0122 17:49:00.602710 65942 net.cpp:435] downsample_4/pool_s2 <- inception_3a/output_inception_3a/output_0_split_1
I0122 17:49:00.602715 65942 net.cpp:409] downsample_4/pool_s2 -> downsample_4/pool_s2
I0122 17:49:00.602754 65942 net.cpp:144] Setting up downsample_4/pool_s2
I0122 17:49:00.602759 65942 net.cpp:151] Top shape: 50 80 16 16 (1024000)
I0122 17:49:00.602762 65942 net.cpp:159] Memory required for data: 292250600
I0122 17:49:00.602764 65942 layer_factory.hpp:77] Creating layer downsample_4/output
I0122 17:49:00.602769 65942 net.cpp:94] Creating Layer downsample_4/output
I0122 17:49:00.602772 65942 net.cpp:435] downsample_4/output <- downsample_4/3x3_s2
I0122 17:49:00.602777 65942 net.cpp:435] downsample_4/output <- downsample_4/pool_s2
I0122 17:49:00.602780 65942 net.cpp:409] downsample_4/output -> downsample_4/output
I0122 17:49:00.602838 65942 net.cpp:144] Setting up downsample_4/output
I0122 17:49:00.602843 65942 net.cpp:151] Top shape: 50 160 16 16 (2048000)
I0122 17:49:00.602846 65942 net.cpp:159] Memory required for data: 300442600
I0122 17:49:00.602856 65942 layer_factory.hpp:77] Creating layer downsample_4/output_downsample_4/output_0_split
I0122 17:49:00.602862 65942 net.cpp:94] Creating Layer downsample_4/output_downsample_4/output_0_split
I0122 17:49:00.602865 65942 net.cpp:435] downsample_4/output_downsample_4/output_0_split <- downsample_4/output
I0122 17:49:00.602870 65942 net.cpp:409] downsample_4/output_downsample_4/output_0_split -> downsample_4/output_downsample_4/output_0_split_0
I0122 17:49:00.602876 65942 net.cpp:409] downsample_4/output_downsample_4/output_0_split -> downsample_4/output_downsample_4/output_0_split_1
I0122 17:49:00.602906 65942 net.cpp:144] Setting up downsample_4/output_downsample_4/output_0_split
I0122 17:49:00.602911 65942 net.cpp:151] Top shape: 50 160 16 16 (2048000)
I0122 17:49:00.602916 65942 net.cpp:151] Top shape: 50 160 16 16 (2048000)
I0122 17:49:00.602917 65942 net.cpp:159] Memory required for data: 316826600
I0122 17:49:00.602921 65942 layer_factory.hpp:77] Creating layer inception_5a/1x1
I0122 17:49:00.602928 65942 net.cpp:94] Creating Layer inception_5a/1x1
I0122 17:49:00.602932 65942 net.cpp:435] inception_5a/1x1 <- downsample_4/output_downsample_4/output_0_split_0
I0122 17:49:00.602936 65942 net.cpp:409] inception_5a/1x1 -> inception_5a/1x1
I0122 17:49:00.603257 65942 net.cpp:144] Setting up inception_5a/1x1
I0122 17:49:00.603265 65942 net.cpp:151] Top shape: 50 112 16 16 (1433600)
I0122 17:49:00.603267 65942 net.cpp:159] Memory required for data: 322561000
I0122 17:49:00.603273 65942 layer_factory.hpp:77] Creating layer inception_5a/1x1/bn1
I0122 17:49:00.603281 65942 net.cpp:94] Creating Layer inception_5a/1x1/bn1
I0122 17:49:00.603283 65942 net.cpp:435] inception_5a/1x1/bn1 <- inception_5a/1x1
I0122 17:49:00.603288 65942 net.cpp:396] inception_5a/1x1/bn1 -> inception_5a/1x1 (in-place)
I0122 17:49:00.603988 65942 net.cpp:144] Setting up inception_5a/1x1/bn1
I0122 17:49:00.603996 65942 net.cpp:151] Top shape: 50 112 16 16 (1433600)
I0122 17:49:00.603998 65942 net.cpp:159] Memory required for data: 328295400
I0122 17:49:00.604007 65942 layer_factory.hpp:77] Creating layer inception_5a/1x1/relu1
I0122 17:49:00.604010 65942 net.cpp:94] Creating Layer inception_5a/1x1/relu1
I0122 17:49:00.604014 65942 net.cpp:435] inception_5a/1x1/relu1 <- inception_5a/1x1
I0122 17:49:00.604018 65942 net.cpp:396] inception_5a/1x1/relu1 -> inception_5a/1x1 (in-place)
I0122 17:49:00.604024 65942 net.cpp:144] Setting up inception_5a/1x1/relu1
I0122 17:49:00.604030 65942 net.cpp:151] Top shape: 50 112 16 16 (1433600)
I0122 17:49:00.604033 65942 net.cpp:159] Memory required for data: 334029800
I0122 17:49:00.604035 65942 layer_factory.hpp:77] Creating layer inception_5a/3x3
I0122 17:49:00.604043 65942 net.cpp:94] Creating Layer inception_5a/3x3
I0122 17:49:00.604048 65942 net.cpp:435] inception_5a/3x3 <- downsample_4/output_downsample_4/output_0_split_1
I0122 17:49:00.604053 65942 net.cpp:409] inception_5a/3x3 -> inception_5a/3x3
I0122 17:49:00.604673 65942 net.cpp:144] Setting up inception_5a/3x3
I0122 17:49:00.604681 65942 net.cpp:151] Top shape: 50 48 16 16 (614400)
I0122 17:49:00.604684 65942 net.cpp:159] Memory required for data: 336487400
I0122 17:49:00.604689 65942 layer_factory.hpp:77] Creating layer inception_5a/3x3/bn1
I0122 17:49:00.604698 65942 net.cpp:94] Creating Layer inception_5a/3x3/bn1
I0122 17:49:00.604702 65942 net.cpp:435] inception_5a/3x3/bn1 <- inception_5a/3x3
I0122 17:49:00.604707 65942 net.cpp:396] inception_5a/3x3/bn1 -> inception_5a/3x3 (in-place)
I0122 17:49:00.605387 65942 net.cpp:144] Setting up inception_5a/3x3/bn1
I0122 17:49:00.605393 65942 net.cpp:151] Top shape: 50 48 16 16 (614400)
I0122 17:49:00.605396 65942 net.cpp:159] Memory required for data: 338945000
I0122 17:49:00.605404 65942 layer_factory.hpp:77] Creating layer inception_5a/3x3/relu1
I0122 17:49:00.605409 65942 net.cpp:94] Creating Layer inception_5a/3x3/relu1
I0122 17:49:00.605412 65942 net.cpp:435] inception_5a/3x3/relu1 <- inception_5a/3x3
I0122 17:49:00.605417 65942 net.cpp:396] inception_5a/3x3/relu1 -> inception_5a/3x3 (in-place)
I0122 17:49:00.605432 65942 net.cpp:144] Setting up inception_5a/3x3/relu1
I0122 17:49:00.605437 65942 net.cpp:151] Top shape: 50 48 16 16 (614400)
I0122 17:49:00.605439 65942 net.cpp:159] Memory required for data: 341402600
I0122 17:49:00.605443 65942 layer_factory.hpp:77] Creating layer inception_5a/output
I0122 17:49:00.605448 65942 net.cpp:94] Creating Layer inception_5a/output
I0122 17:49:00.605451 65942 net.cpp:435] inception_5a/output <- inception_5a/1x1
I0122 17:49:00.605455 65942 net.cpp:435] inception_5a/output <- inception_5a/3x3
I0122 17:49:00.605460 65942 net.cpp:409] inception_5a/output -> inception_5a/output
I0122 17:49:00.605480 65942 net.cpp:144] Setting up inception_5a/output
I0122 17:49:00.605486 65942 net.cpp:151] Top shape: 50 160 16 16 (2048000)
I0122 17:49:00.605489 65942 net.cpp:159] Memory required for data: 349594600
I0122 17:49:00.605491 65942 layer_factory.hpp:77] Creating layer inception_5a/output_inception_5a/output_0_split
I0122 17:49:00.605496 65942 net.cpp:94] Creating Layer inception_5a/output_inception_5a/output_0_split
I0122 17:49:00.605499 65942 net.cpp:435] inception_5a/output_inception_5a/output_0_split <- inception_5a/output
I0122 17:49:00.605504 65942 net.cpp:409] inception_5a/output_inception_5a/output_0_split -> inception_5a/output_inception_5a/output_0_split_0
I0122 17:49:00.605509 65942 net.cpp:409] inception_5a/output_inception_5a/output_0_split -> inception_5a/output_inception_5a/output_0_split_1
I0122 17:49:00.605579 65942 net.cpp:144] Setting up inception_5a/output_inception_5a/output_0_split
I0122 17:49:00.605585 65942 net.cpp:151] Top shape: 50 160 16 16 (2048000)
I0122 17:49:00.605589 65942 net.cpp:151] Top shape: 50 160 16 16 (2048000)
I0122 17:49:00.605592 65942 net.cpp:159] Memory required for data: 365978600
I0122 17:49:00.605595 65942 layer_factory.hpp:77] Creating layer inception_6a/1x1
I0122 17:49:00.605603 65942 net.cpp:94] Creating Layer inception_6a/1x1
I0122 17:49:00.605608 65942 net.cpp:435] inception_6a/1x1 <- inception_5a/output_inception_5a/output_0_split_0
I0122 17:49:00.605614 65942 net.cpp:409] inception_6a/1x1 -> inception_6a/1x1
I0122 17:49:00.606673 65942 net.cpp:144] Setting up inception_6a/1x1
I0122 17:49:00.606685 65942 net.cpp:151] Top shape: 50 96 16 16 (1228800)
I0122 17:49:00.606688 65942 net.cpp:159] Memory required for data: 370893800
I0122 17:49:00.606694 65942 layer_factory.hpp:77] Creating layer inception_6a/1x1/bn1
I0122 17:49:00.606701 65942 net.cpp:94] Creating Layer inception_6a/1x1/bn1
I0122 17:49:00.606705 65942 net.cpp:435] inception_6a/1x1/bn1 <- inception_6a/1x1
I0122 17:49:00.606711 65942 net.cpp:396] inception_6a/1x1/bn1 -> inception_6a/1x1 (in-place)
I0122 17:49:00.607357 65942 net.cpp:144] Setting up inception_6a/1x1/bn1
I0122 17:49:00.607364 65942 net.cpp:151] Top shape: 50 96 16 16 (1228800)
I0122 17:49:00.607367 65942 net.cpp:159] Memory required for data: 375809000
I0122 17:49:00.607375 65942 layer_factory.hpp:77] Creating layer inception_6a/1x1/relu1
I0122 17:49:00.607380 65942 net.cpp:94] Creating Layer inception_6a/1x1/relu1
I0122 17:49:00.607383 65942 net.cpp:435] inception_6a/1x1/relu1 <- inception_6a/1x1
I0122 17:49:00.607388 65942 net.cpp:396] inception_6a/1x1/relu1 -> inception_6a/1x1 (in-place)
I0122 17:49:00.607394 65942 net.cpp:144] Setting up inception_6a/1x1/relu1
I0122 17:49:00.607398 65942 net.cpp:151] Top shape: 50 96 16 16 (1228800)
I0122 17:49:00.607401 65942 net.cpp:159] Memory required for data: 380724200
I0122 17:49:00.607404 65942 layer_factory.hpp:77] Creating layer inception_6a/3x3
I0122 17:49:00.607412 65942 net.cpp:94] Creating Layer inception_6a/3x3
I0122 17:49:00.607416 65942 net.cpp:435] inception_6a/3x3 <- inception_5a/output_inception_5a/output_0_split_1
I0122 17:49:00.607422 65942 net.cpp:409] inception_6a/3x3 -> inception_6a/3x3
I0122 17:49:00.608769 65942 net.cpp:144] Setting up inception_6a/3x3
I0122 17:49:00.608781 65942 net.cpp:151] Top shape: 50 64 16 16 (819200)
I0122 17:49:00.608784 65942 net.cpp:159] Memory required for data: 384001000
I0122 17:49:00.608794 65942 layer_factory.hpp:77] Creating layer inception_6a/3x3/bn1
I0122 17:49:00.608815 65942 net.cpp:94] Creating Layer inception_6a/3x3/bn1
I0122 17:49:00.608819 65942 net.cpp:435] inception_6a/3x3/bn1 <- inception_6a/3x3
I0122 17:49:00.608825 65942 net.cpp:396] inception_6a/3x3/bn1 -> inception_6a/3x3 (in-place)
I0122 17:49:00.609458 65942 net.cpp:144] Setting up inception_6a/3x3/bn1
I0122 17:49:00.609467 65942 net.cpp:151] Top shape: 50 64 16 16 (819200)
I0122 17:49:00.609469 65942 net.cpp:159] Memory required for data: 387277800
I0122 17:49:00.609477 65942 layer_factory.hpp:77] Creating layer inception_6a/3x3/relu1
I0122 17:49:00.609484 65942 net.cpp:94] Creating Layer inception_6a/3x3/relu1
I0122 17:49:00.609488 65942 net.cpp:435] inception_6a/3x3/relu1 <- inception_6a/3x3
I0122 17:49:00.609493 65942 net.cpp:396] inception_6a/3x3/relu1 -> inception_6a/3x3 (in-place)
I0122 17:49:00.609498 65942 net.cpp:144] Setting up inception_6a/3x3/relu1
I0122 17:49:00.609503 65942 net.cpp:151] Top shape: 50 64 16 16 (819200)
I0122 17:49:00.609508 65942 net.cpp:159] Memory required for data: 390554600
I0122 17:49:00.609509 65942 layer_factory.hpp:77] Creating layer inception_6a/output
I0122 17:49:00.609514 65942 net.cpp:94] Creating Layer inception_6a/output
I0122 17:49:00.609517 65942 net.cpp:435] inception_6a/output <- inception_6a/1x1
I0122 17:49:00.609521 65942 net.cpp:435] inception_6a/output <- inception_6a/3x3
I0122 17:49:00.609526 65942 net.cpp:409] inception_6a/output -> inception_6a/output
I0122 17:49:00.609544 65942 net.cpp:144] Setting up inception_6a/output
I0122 17:49:00.609549 65942 net.cpp:151] Top shape: 50 160 16 16 (2048000)
I0122 17:49:00.609552 65942 net.cpp:159] Memory required for data: 398746600
I0122 17:49:00.609555 65942 layer_factory.hpp:77] Creating layer inception_6a/output_inception_6a/output_0_split
I0122 17:49:00.609560 65942 net.cpp:94] Creating Layer inception_6a/output_inception_6a/output_0_split
I0122 17:49:00.609562 65942 net.cpp:435] inception_6a/output_inception_6a/output_0_split <- inception_6a/output
I0122 17:49:00.609567 65942 net.cpp:409] inception_6a/output_inception_6a/output_0_split -> inception_6a/output_inception_6a/output_0_split_0
I0122 17:49:00.609575 65942 net.cpp:409] inception_6a/output_inception_6a/output_0_split -> inception_6a/output_inception_6a/output_0_split_1
I0122 17:49:00.609602 65942 net.cpp:144] Setting up inception_6a/output_inception_6a/output_0_split
I0122 17:49:00.609608 65942 net.cpp:151] Top shape: 50 160 16 16 (2048000)
I0122 17:49:00.609612 65942 net.cpp:151] Top shape: 50 160 16 16 (2048000)
I0122 17:49:00.609614 65942 net.cpp:159] Memory required for data: 415130600
I0122 17:49:00.609617 65942 layer_factory.hpp:77] Creating layer inception_7a/1x1
I0122 17:49:00.609624 65942 net.cpp:94] Creating Layer inception_7a/1x1
I0122 17:49:00.609629 65942 net.cpp:435] inception_7a/1x1 <- inception_6a/output_inception_6a/output_0_split_0
I0122 17:49:00.609634 65942 net.cpp:409] inception_7a/1x1 -> inception_7a/1x1
I0122 17:49:00.609939 65942 net.cpp:144] Setting up inception_7a/1x1
I0122 17:49:00.609946 65942 net.cpp:151] Top shape: 50 80 16 16 (1024000)
I0122 17:49:00.609951 65942 net.cpp:159] Memory required for data: 419226600
I0122 17:49:00.609956 65942 layer_factory.hpp:77] Creating layer inception_7a/1x1/bn1
I0122 17:49:00.609962 65942 net.cpp:94] Creating Layer inception_7a/1x1/bn1
I0122 17:49:00.609966 65942 net.cpp:435] inception_7a/1x1/bn1 <- inception_7a/1x1
I0122 17:49:00.609972 65942 net.cpp:396] inception_7a/1x1/bn1 -> inception_7a/1x1 (in-place)
I0122 17:49:00.610601 65942 net.cpp:144] Setting up inception_7a/1x1/bn1
I0122 17:49:00.610607 65942 net.cpp:151] Top shape: 50 80 16 16 (1024000)
I0122 17:49:00.610610 65942 net.cpp:159] Memory required for data: 423322600
I0122 17:49:00.610620 65942 layer_factory.hpp:77] Creating layer inception_7a/1x1/relu1
I0122 17:49:00.610623 65942 net.cpp:94] Creating Layer inception_7a/1x1/relu1
I0122 17:49:00.610626 65942 net.cpp:435] inception_7a/1x1/relu1 <- inception_7a/1x1
I0122 17:49:00.610631 65942 net.cpp:396] inception_7a/1x1/relu1 -> inception_7a/1x1 (in-place)
I0122 17:49:00.610647 65942 net.cpp:144] Setting up inception_7a/1x1/relu1
I0122 17:49:00.610651 65942 net.cpp:151] Top shape: 50 80 16 16 (1024000)
I0122 17:49:00.610653 65942 net.cpp:159] Memory required for data: 427418600
I0122 17:49:00.610656 65942 layer_factory.hpp:77] Creating layer inception_7a/3x3
I0122 17:49:00.610664 65942 net.cpp:94] Creating Layer inception_7a/3x3
I0122 17:49:00.610668 65942 net.cpp:435] inception_7a/3x3 <- inception_6a/output_inception_6a/output_0_split_1
I0122 17:49:00.610674 65942 net.cpp:409] inception_7a/3x3 -> inception_7a/3x3
I0122 17:49:00.611531 65942 net.cpp:144] Setting up inception_7a/3x3
I0122 17:49:00.611538 65942 net.cpp:151] Top shape: 50 80 16 16 (1024000)
I0122 17:49:00.611541 65942 net.cpp:159] Memory required for data: 431514600
I0122 17:49:00.611546 65942 layer_factory.hpp:77] Creating layer inception_7a/3x3/bn1
I0122 17:49:00.611553 65942 net.cpp:94] Creating Layer inception_7a/3x3/bn1
I0122 17:49:00.611557 65942 net.cpp:435] inception_7a/3x3/bn1 <- inception_7a/3x3
I0122 17:49:00.611562 65942 net.cpp:396] inception_7a/3x3/bn1 -> inception_7a/3x3 (in-place)
I0122 17:49:00.612190 65942 net.cpp:144] Setting up inception_7a/3x3/bn1
I0122 17:49:00.612197 65942 net.cpp:151] Top shape: 50 80 16 16 (1024000)
I0122 17:49:00.612200 65942 net.cpp:159] Memory required for data: 435610600
I0122 17:49:00.612208 65942 layer_factory.hpp:77] Creating layer inception_7a/3x3/relu1
I0122 17:49:00.612215 65942 net.cpp:94] Creating Layer inception_7a/3x3/relu1
I0122 17:49:00.612220 65942 net.cpp:435] inception_7a/3x3/relu1 <- inception_7a/3x3
I0122 17:49:00.612224 65942 net.cpp:396] inception_7a/3x3/relu1 -> inception_7a/3x3 (in-place)
I0122 17:49:00.612231 65942 net.cpp:144] Setting up inception_7a/3x3/relu1
I0122 17:49:00.612234 65942 net.cpp:151] Top shape: 50 80 16 16 (1024000)
I0122 17:49:00.612236 65942 net.cpp:159] Memory required for data: 439706600
I0122 17:49:00.612239 65942 layer_factory.hpp:77] Creating layer inception_7a/output
I0122 17:49:00.612243 65942 net.cpp:94] Creating Layer inception_7a/output
I0122 17:49:00.612246 65942 net.cpp:435] inception_7a/output <- inception_7a/1x1
I0122 17:49:00.612249 65942 net.cpp:435] inception_7a/output <- inception_7a/3x3
I0122 17:49:00.612255 65942 net.cpp:409] inception_7a/output -> inception_7a/output
I0122 17:49:00.612272 65942 net.cpp:144] Setting up inception_7a/output
I0122 17:49:00.612277 65942 net.cpp:151] Top shape: 50 160 16 16 (2048000)
I0122 17:49:00.612280 65942 net.cpp:159] Memory required for data: 447898600
I0122 17:49:00.612283 65942 layer_factory.hpp:77] Creating layer inception_7a/output_inception_7a/output_0_split
I0122 17:49:00.612288 65942 net.cpp:94] Creating Layer inception_7a/output_inception_7a/output_0_split
I0122 17:49:00.612290 65942 net.cpp:435] inception_7a/output_inception_7a/output_0_split <- inception_7a/output
I0122 17:49:00.612295 65942 net.cpp:409] inception_7a/output_inception_7a/output_0_split -> inception_7a/output_inception_7a/output_0_split_0
I0122 17:49:00.612303 65942 net.cpp:409] inception_7a/output_inception_7a/output_0_split -> inception_7a/output_inception_7a/output_0_split_1
I0122 17:49:00.612329 65942 net.cpp:144] Setting up inception_7a/output_inception_7a/output_0_split
I0122 17:49:00.612334 65942 net.cpp:151] Top shape: 50 160 16 16 (2048000)
I0122 17:49:00.612337 65942 net.cpp:151] Top shape: 50 160 16 16 (2048000)
I0122 17:49:00.612340 65942 net.cpp:159] Memory required for data: 464282600
I0122 17:49:00.612344 65942 layer_factory.hpp:77] Creating layer inception_8a/1x1
I0122 17:49:00.612350 65942 net.cpp:94] Creating Layer inception_8a/1x1
I0122 17:49:00.612356 65942 net.cpp:435] inception_8a/1x1 <- inception_7a/output_inception_7a/output_0_split_0
I0122 17:49:00.612361 65942 net.cpp:409] inception_8a/1x1 -> inception_8a/1x1
I0122 17:49:00.612617 65942 net.cpp:144] Setting up inception_8a/1x1
I0122 17:49:00.612622 65942 net.cpp:151] Top shape: 50 48 16 16 (614400)
I0122 17:49:00.612627 65942 net.cpp:159] Memory required for data: 466740200
I0122 17:49:00.612632 65942 layer_factory.hpp:77] Creating layer inception_8a/1x1/bn1
I0122 17:49:00.612649 65942 net.cpp:94] Creating Layer inception_8a/1x1/bn1
I0122 17:49:00.612653 65942 net.cpp:435] inception_8a/1x1/bn1 <- inception_8a/1x1
I0122 17:49:00.612658 65942 net.cpp:396] inception_8a/1x1/bn1 -> inception_8a/1x1 (in-place)
I0122 17:49:00.613283 65942 net.cpp:144] Setting up inception_8a/1x1/bn1
I0122 17:49:00.613289 65942 net.cpp:151] Top shape: 50 48 16 16 (614400)
I0122 17:49:00.613292 65942 net.cpp:159] Memory required for data: 469197800
I0122 17:49:00.613301 65942 layer_factory.hpp:77] Creating layer inception_8a/1x1/relu1
I0122 17:49:00.613307 65942 net.cpp:94] Creating Layer inception_8a/1x1/relu1
I0122 17:49:00.613310 65942 net.cpp:435] inception_8a/1x1/relu1 <- inception_8a/1x1
I0122 17:49:00.613315 65942 net.cpp:396] inception_8a/1x1/relu1 -> inception_8a/1x1 (in-place)
I0122 17:49:00.613320 65942 net.cpp:144] Setting up inception_8a/1x1/relu1
I0122 17:49:00.613327 65942 net.cpp:151] Top shape: 50 48 16 16 (614400)
I0122 17:49:00.613328 65942 net.cpp:159] Memory required for data: 471655400
I0122 17:49:00.613332 65942 layer_factory.hpp:77] Creating layer inception_8a/3x3
I0122 17:49:00.613338 65942 net.cpp:94] Creating Layer inception_8a/3x3
I0122 17:49:00.613343 65942 net.cpp:435] inception_8a/3x3 <- inception_7a/output_inception_7a/output_0_split_1
I0122 17:49:00.613349 65942 net.cpp:409] inception_8a/3x3 -> inception_8a/3x3
I0122 17:49:00.614953 65942 net.cpp:144] Setting up inception_8a/3x3
I0122 17:49:00.614964 65942 net.cpp:151] Top shape: 50 96 16 16 (1228800)
I0122 17:49:00.614967 65942 net.cpp:159] Memory required for data: 476570600
I0122 17:49:00.614974 65942 layer_factory.hpp:77] Creating layer inception_8a/3x3/bn1
I0122 17:49:00.614980 65942 net.cpp:94] Creating Layer inception_8a/3x3/bn1
I0122 17:49:00.614984 65942 net.cpp:435] inception_8a/3x3/bn1 <- inception_8a/3x3
I0122 17:49:00.614990 65942 net.cpp:396] inception_8a/3x3/bn1 -> inception_8a/3x3 (in-place)
I0122 17:49:00.615639 65942 net.cpp:144] Setting up inception_8a/3x3/bn1
I0122 17:49:00.615646 65942 net.cpp:151] Top shape: 50 96 16 16 (1228800)
I0122 17:49:00.615650 65942 net.cpp:159] Memory required for data: 481485800
I0122 17:49:00.615658 65942 layer_factory.hpp:77] Creating layer inception_8a/3x3/relu1
I0122 17:49:00.615664 65942 net.cpp:94] Creating Layer inception_8a/3x3/relu1
I0122 17:49:00.615666 65942 net.cpp:435] inception_8a/3x3/relu1 <- inception_8a/3x3
I0122 17:49:00.615670 65942 net.cpp:396] inception_8a/3x3/relu1 -> inception_8a/3x3 (in-place)
I0122 17:49:00.615677 65942 net.cpp:144] Setting up inception_8a/3x3/relu1
I0122 17:49:00.615681 65942 net.cpp:151] Top shape: 50 96 16 16 (1228800)
I0122 17:49:00.615684 65942 net.cpp:159] Memory required for data: 486401000
I0122 17:49:00.615686 65942 layer_factory.hpp:77] Creating layer inception_8a/output
I0122 17:49:00.615691 65942 net.cpp:94] Creating Layer inception_8a/output
I0122 17:49:00.615694 65942 net.cpp:435] inception_8a/output <- inception_8a/1x1
I0122 17:49:00.615697 65942 net.cpp:435] inception_8a/output <- inception_8a/3x3
I0122 17:49:00.615702 65942 net.cpp:409] inception_8a/output -> inception_8a/output
I0122 17:49:00.615723 65942 net.cpp:144] Setting up inception_8a/output
I0122 17:49:00.615728 65942 net.cpp:151] Top shape: 50 144 16 16 (1843200)
I0122 17:49:00.615731 65942 net.cpp:159] Memory required for data: 493773800
I0122 17:49:00.615733 65942 layer_factory.hpp:77] Creating layer inception_8a/output_inception_8a/output_0_split
I0122 17:49:00.615738 65942 net.cpp:94] Creating Layer inception_8a/output_inception_8a/output_0_split
I0122 17:49:00.615741 65942 net.cpp:435] inception_8a/output_inception_8a/output_0_split <- inception_8a/output
I0122 17:49:00.615746 65942 net.cpp:409] inception_8a/output_inception_8a/output_0_split -> inception_8a/output_inception_8a/output_0_split_0
I0122 17:49:00.615752 65942 net.cpp:409] inception_8a/output_inception_8a/output_0_split -> inception_8a/output_inception_8a/output_0_split_1
I0122 17:49:00.615779 65942 net.cpp:144] Setting up inception_8a/output_inception_8a/output_0_split
I0122 17:49:00.615793 65942 net.cpp:151] Top shape: 50 144 16 16 (1843200)
I0122 17:49:00.615798 65942 net.cpp:151] Top shape: 50 144 16 16 (1843200)
I0122 17:49:00.615800 65942 net.cpp:159] Memory required for data: 508519400
I0122 17:49:00.615803 65942 layer_factory.hpp:77] Creating layer downsample_9/3x3_s2
I0122 17:49:00.615811 65942 net.cpp:94] Creating Layer downsample_9/3x3_s2
I0122 17:49:00.615816 65942 net.cpp:435] downsample_9/3x3_s2 <- inception_8a/output_inception_8a/output_0_split_0
I0122 17:49:00.615823 65942 net.cpp:409] downsample_9/3x3_s2 -> downsample_9/3x3_s2
I0122 17:49:00.617352 65942 net.cpp:144] Setting up downsample_9/3x3_s2
I0122 17:49:00.617363 65942 net.cpp:151] Top shape: 50 96 8 8 (307200)
I0122 17:49:00.617367 65942 net.cpp:159] Memory required for data: 509748200
I0122 17:49:00.617372 65942 layer_factory.hpp:77] Creating layer downsample_9/3x3_s2/bn1
I0122 17:49:00.617395 65942 net.cpp:94] Creating Layer downsample_9/3x3_s2/bn1
I0122 17:49:00.617399 65942 net.cpp:435] downsample_9/3x3_s2/bn1 <- downsample_9/3x3_s2
I0122 17:49:00.617404 65942 net.cpp:396] downsample_9/3x3_s2/bn1 -> downsample_9/3x3_s2 (in-place)
I0122 17:49:00.618067 65942 net.cpp:144] Setting up downsample_9/3x3_s2/bn1
I0122 17:49:00.618075 65942 net.cpp:151] Top shape: 50 96 8 8 (307200)
I0122 17:49:00.618078 65942 net.cpp:159] Memory required for data: 510977000
I0122 17:49:00.618086 65942 layer_factory.hpp:77] Creating layer downsample_9/3x3_s2/relu1
I0122 17:49:00.618091 65942 net.cpp:94] Creating Layer downsample_9/3x3_s2/relu1
I0122 17:49:00.618095 65942 net.cpp:435] downsample_9/3x3_s2/relu1 <- downsample_9/3x3_s2
I0122 17:49:00.618100 65942 net.cpp:396] downsample_9/3x3_s2/relu1 -> downsample_9/3x3_s2 (in-place)
I0122 17:49:00.618108 65942 net.cpp:144] Setting up downsample_9/3x3_s2/relu1
I0122 17:49:00.618110 65942 net.cpp:151] Top shape: 50 96 8 8 (307200)
I0122 17:49:00.618113 65942 net.cpp:159] Memory required for data: 512205800
I0122 17:49:00.618116 65942 layer_factory.hpp:77] Creating layer downsample_9/pool_s2
I0122 17:49:00.618121 65942 net.cpp:94] Creating Layer downsample_9/pool_s2
I0122 17:49:00.618125 65942 net.cpp:435] downsample_9/pool_s2 <- inception_8a/output_inception_8a/output_0_split_1
I0122 17:49:00.618130 65942 net.cpp:409] downsample_9/pool_s2 -> downsample_9/pool_s2
I0122 17:49:00.618158 65942 net.cpp:144] Setting up downsample_9/pool_s2
I0122 17:49:00.618163 65942 net.cpp:151] Top shape: 50 144 8 8 (460800)
I0122 17:49:00.618166 65942 net.cpp:159] Memory required for data: 514049000
I0122 17:49:00.618170 65942 layer_factory.hpp:77] Creating layer downsample_9/output
I0122 17:49:00.618176 65942 net.cpp:94] Creating Layer downsample_9/output
I0122 17:49:00.618181 65942 net.cpp:435] downsample_9/output <- downsample_9/3x3_s2
I0122 17:49:00.618185 65942 net.cpp:435] downsample_9/output <- downsample_9/pool_s2
I0122 17:49:00.618191 65942 net.cpp:409] downsample_9/output -> downsample_9/output
I0122 17:49:00.618207 65942 net.cpp:144] Setting up downsample_9/output
I0122 17:49:00.618212 65942 net.cpp:151] Top shape: 50 240 8 8 (768000)
I0122 17:49:00.618216 65942 net.cpp:159] Memory required for data: 517121000
I0122 17:49:00.618219 65942 layer_factory.hpp:77] Creating layer downsample_9/output_downsample_9/output_0_split
I0122 17:49:00.618223 65942 net.cpp:94] Creating Layer downsample_9/output_downsample_9/output_0_split
I0122 17:49:00.618227 65942 net.cpp:435] downsample_9/output_downsample_9/output_0_split <- downsample_9/output
I0122 17:49:00.618230 65942 net.cpp:409] downsample_9/output_downsample_9/output_0_split -> downsample_9/output_downsample_9/output_0_split_0
I0122 17:49:00.618237 65942 net.cpp:409] downsample_9/output_downsample_9/output_0_split -> downsample_9/output_downsample_9/output_0_split_1
I0122 17:49:00.618263 65942 net.cpp:144] Setting up downsample_9/output_downsample_9/output_0_split
I0122 17:49:00.618268 65942 net.cpp:151] Top shape: 50 240 8 8 (768000)
I0122 17:49:00.618271 65942 net.cpp:151] Top shape: 50 240 8 8 (768000)
I0122 17:49:00.618284 65942 net.cpp:159] Memory required for data: 523265000
I0122 17:49:00.618288 65942 layer_factory.hpp:77] Creating layer inception_10a/1x1
I0122 17:49:00.618294 65942 net.cpp:94] Creating Layer inception_10a/1x1
I0122 17:49:00.618297 65942 net.cpp:435] inception_10a/1x1 <- downsample_9/output_downsample_9/output_0_split_0
I0122 17:49:00.618304 65942 net.cpp:409] inception_10a/1x1 -> inception_10a/1x1
I0122 17:49:00.618767 65942 net.cpp:144] Setting up inception_10a/1x1
I0122 17:49:00.618774 65942 net.cpp:151] Top shape: 50 176 8 8 (563200)
I0122 17:49:00.618777 65942 net.cpp:159] Memory required for data: 525517800
I0122 17:49:00.618783 65942 layer_factory.hpp:77] Creating layer inception_10a/1x1/bn1
I0122 17:49:00.618789 65942 net.cpp:94] Creating Layer inception_10a/1x1/bn1
I0122 17:49:00.618793 65942 net.cpp:435] inception_10a/1x1/bn1 <- inception_10a/1x1
I0122 17:49:00.618798 65942 net.cpp:396] inception_10a/1x1/bn1 -> inception_10a/1x1 (in-place)
I0122 17:49:00.619417 65942 net.cpp:144] Setting up inception_10a/1x1/bn1
I0122 17:49:00.619424 65942 net.cpp:151] Top shape: 50 176 8 8 (563200)
I0122 17:49:00.619427 65942 net.cpp:159] Memory required for data: 527770600
I0122 17:49:00.619434 65942 layer_factory.hpp:77] Creating layer inception_10a/1x1/relu1
I0122 17:49:00.619439 65942 net.cpp:94] Creating Layer inception_10a/1x1/relu1
I0122 17:49:00.619442 65942 net.cpp:435] inception_10a/1x1/relu1 <- inception_10a/1x1
I0122 17:49:00.619446 65942 net.cpp:396] inception_10a/1x1/relu1 -> inception_10a/1x1 (in-place)
I0122 17:49:00.619452 65942 net.cpp:144] Setting up inception_10a/1x1/relu1
I0122 17:49:00.619457 65942 net.cpp:151] Top shape: 50 176 8 8 (563200)
I0122 17:49:00.619459 65942 net.cpp:159] Memory required for data: 530023400
I0122 17:49:00.619462 65942 layer_factory.hpp:77] Creating layer inception_10a/3x3
I0122 17:49:00.619469 65942 net.cpp:94] Creating Layer inception_10a/3x3
I0122 17:49:00.619475 65942 net.cpp:435] inception_10a/3x3 <- downsample_9/output_downsample_9/output_0_split_1
I0122 17:49:00.619480 65942 net.cpp:409] inception_10a/3x3 -> inception_10a/3x3
I0122 17:49:00.621801 65942 net.cpp:144] Setting up inception_10a/3x3
I0122 17:49:00.621811 65942 net.cpp:151] Top shape: 50 160 8 8 (512000)
I0122 17:49:00.621814 65942 net.cpp:159] Memory required for data: 532071400
I0122 17:49:00.621819 65942 layer_factory.hpp:77] Creating layer inception_10a/3x3/bn1
I0122 17:49:00.621840 65942 net.cpp:94] Creating Layer inception_10a/3x3/bn1
I0122 17:49:00.621845 65942 net.cpp:435] inception_10a/3x3/bn1 <- inception_10a/3x3
I0122 17:49:00.621860 65942 net.cpp:396] inception_10a/3x3/bn1 -> inception_10a/3x3 (in-place)
I0122 17:49:00.622494 65942 net.cpp:144] Setting up inception_10a/3x3/bn1
I0122 17:49:00.622501 65942 net.cpp:151] Top shape: 50 160 8 8 (512000)
I0122 17:49:00.622504 65942 net.cpp:159] Memory required for data: 534119400
I0122 17:49:00.622514 65942 layer_factory.hpp:77] Creating layer inception_10a/3x3/relu1
I0122 17:49:00.622519 65942 net.cpp:94] Creating Layer inception_10a/3x3/relu1
I0122 17:49:00.622521 65942 net.cpp:435] inception_10a/3x3/relu1 <- inception_10a/3x3
I0122 17:49:00.622525 65942 net.cpp:396] inception_10a/3x3/relu1 -> inception_10a/3x3 (in-place)
I0122 17:49:00.622532 65942 net.cpp:144] Setting up inception_10a/3x3/relu1
I0122 17:49:00.622539 65942 net.cpp:151] Top shape: 50 160 8 8 (512000)
I0122 17:49:00.622540 65942 net.cpp:159] Memory required for data: 536167400
I0122 17:49:00.622543 65942 layer_factory.hpp:77] Creating layer inception_10a/output
I0122 17:49:00.622548 65942 net.cpp:94] Creating Layer inception_10a/output
I0122 17:49:00.622550 65942 net.cpp:435] inception_10a/output <- inception_10a/1x1
I0122 17:49:00.622555 65942 net.cpp:435] inception_10a/output <- inception_10a/3x3
I0122 17:49:00.622558 65942 net.cpp:409] inception_10a/output -> inception_10a/output
I0122 17:49:00.622577 65942 net.cpp:144] Setting up inception_10a/output
I0122 17:49:00.622582 65942 net.cpp:151] Top shape: 50 336 8 8 (1075200)
I0122 17:49:00.622584 65942 net.cpp:159] Memory required for data: 540468200
I0122 17:49:00.622596 65942 layer_factory.hpp:77] Creating layer inception_10a/output_inception_10a/output_0_split
I0122 17:49:00.622601 65942 net.cpp:94] Creating Layer inception_10a/output_inception_10a/output_0_split
I0122 17:49:00.622604 65942 net.cpp:435] inception_10a/output_inception_10a/output_0_split <- inception_10a/output
I0122 17:49:00.622608 65942 net.cpp:409] inception_10a/output_inception_10a/output_0_split -> inception_10a/output_inception_10a/output_0_split_0
I0122 17:49:00.622614 65942 net.cpp:409] inception_10a/output_inception_10a/output_0_split -> inception_10a/output_inception_10a/output_0_split_1
I0122 17:49:00.622642 65942 net.cpp:144] Setting up inception_10a/output_inception_10a/output_0_split
I0122 17:49:00.622648 65942 net.cpp:151] Top shape: 50 336 8 8 (1075200)
I0122 17:49:00.622651 65942 net.cpp:151] Top shape: 50 336 8 8 (1075200)
I0122 17:49:00.622653 65942 net.cpp:159] Memory required for data: 549069800
I0122 17:49:00.622656 65942 layer_factory.hpp:77] Creating layer inception_11a/1x1
I0122 17:49:00.622664 65942 net.cpp:94] Creating Layer inception_11a/1x1
I0122 17:49:00.622666 65942 net.cpp:435] inception_11a/1x1 <- inception_10a/output_inception_10a/output_0_split_0
I0122 17:49:00.622671 65942 net.cpp:409] inception_11a/1x1 -> inception_11a/1x1
I0122 17:49:00.623217 65942 net.cpp:144] Setting up inception_11a/1x1
I0122 17:49:00.623224 65942 net.cpp:151] Top shape: 50 176 8 8 (563200)
I0122 17:49:00.623227 65942 net.cpp:159] Memory required for data: 551322600
I0122 17:49:00.623232 65942 layer_factory.hpp:77] Creating layer inception_11a/1x1/bn1
I0122 17:49:00.623239 65942 net.cpp:94] Creating Layer inception_11a/1x1/bn1
I0122 17:49:00.623244 65942 net.cpp:435] inception_11a/1x1/bn1 <- inception_11a/1x1
I0122 17:49:00.623248 65942 net.cpp:396] inception_11a/1x1/bn1 -> inception_11a/1x1 (in-place)
I0122 17:49:00.623870 65942 net.cpp:144] Setting up inception_11a/1x1/bn1
I0122 17:49:00.623878 65942 net.cpp:151] Top shape: 50 176 8 8 (563200)
I0122 17:49:00.623880 65942 net.cpp:159] Memory required for data: 553575400
I0122 17:49:00.623888 65942 layer_factory.hpp:77] Creating layer inception_11a/1x1/relu1
I0122 17:49:00.623893 65942 net.cpp:94] Creating Layer inception_11a/1x1/relu1
I0122 17:49:00.623896 65942 net.cpp:435] inception_11a/1x1/relu1 <- inception_11a/1x1
I0122 17:49:00.623900 65942 net.cpp:396] inception_11a/1x1/relu1 -> inception_11a/1x1 (in-place)
I0122 17:49:00.623906 65942 net.cpp:144] Setting up inception_11a/1x1/relu1
I0122 17:49:00.623909 65942 net.cpp:151] Top shape: 50 176 8 8 (563200)
I0122 17:49:00.623912 65942 net.cpp:159] Memory required for data: 555828200
I0122 17:49:00.623915 65942 layer_factory.hpp:77] Creating layer inception_11a/3x3
I0122 17:49:00.623922 65942 net.cpp:94] Creating Layer inception_11a/3x3
I0122 17:49:00.623925 65942 net.cpp:435] inception_11a/3x3 <- inception_10a/output_inception_10a/output_0_split_1
I0122 17:49:00.623931 65942 net.cpp:409] inception_11a/3x3 -> inception_11a/3x3
I0122 17:49:00.627311 65942 net.cpp:144] Setting up inception_11a/3x3
I0122 17:49:00.627322 65942 net.cpp:151] Top shape: 50 160 8 8 (512000)
I0122 17:49:00.627324 65942 net.cpp:159] Memory required for data: 557876200
I0122 17:49:00.627329 65942 layer_factory.hpp:77] Creating layer inception_11a/3x3/bn1
I0122 17:49:00.627336 65942 net.cpp:94] Creating Layer inception_11a/3x3/bn1
I0122 17:49:00.627338 65942 net.cpp:435] inception_11a/3x3/bn1 <- inception_11a/3x3
I0122 17:49:00.627342 65942 net.cpp:396] inception_11a/3x3/bn1 -> inception_11a/3x3 (in-place)
I0122 17:49:00.627981 65942 net.cpp:144] Setting up inception_11a/3x3/bn1
I0122 17:49:00.627988 65942 net.cpp:151] Top shape: 50 160 8 8 (512000)
I0122 17:49:00.627992 65942 net.cpp:159] Memory required for data: 559924200
I0122 17:49:00.628005 65942 layer_factory.hpp:77] Creating layer inception_11a/3x3/relu1
I0122 17:49:00.628013 65942 net.cpp:94] Creating Layer inception_11a/3x3/relu1
I0122 17:49:00.628016 65942 net.cpp:435] inception_11a/3x3/relu1 <- inception_11a/3x3
I0122 17:49:00.628031 65942 net.cpp:396] inception_11a/3x3/relu1 -> inception_11a/3x3 (in-place)
I0122 17:49:00.628037 65942 net.cpp:144] Setting up inception_11a/3x3/relu1
I0122 17:49:00.628041 65942 net.cpp:151] Top shape: 50 160 8 8 (512000)
I0122 17:49:00.628043 65942 net.cpp:159] Memory required for data: 561972200
I0122 17:49:00.628046 65942 layer_factory.hpp:77] Creating layer inception_11a/output
I0122 17:49:00.628051 65942 net.cpp:94] Creating Layer inception_11a/output
I0122 17:49:00.628054 65942 net.cpp:435] inception_11a/output <- inception_11a/1x1
I0122 17:49:00.628057 65942 net.cpp:435] inception_11a/output <- inception_11a/3x3
I0122 17:49:00.628062 65942 net.cpp:409] inception_11a/output -> inception_11a/output
I0122 17:49:00.628079 65942 net.cpp:144] Setting up inception_11a/output
I0122 17:49:00.628085 65942 net.cpp:151] Top shape: 50 336 8 8 (1075200)
I0122 17:49:00.628088 65942 net.cpp:159] Memory required for data: 566273000
I0122 17:49:00.628090 65942 layer_factory.hpp:77] Creating layer avg_pool_12/8x8_s1
I0122 17:49:00.628095 65942 net.cpp:94] Creating Layer avg_pool_12/8x8_s1
I0122 17:49:00.628098 65942 net.cpp:435] avg_pool_12/8x8_s1 <- inception_11a/output
I0122 17:49:00.628103 65942 net.cpp:409] avg_pool_12/8x8_s1 -> avg_pool_12/8x8_s1
I0122 17:49:00.628123 65942 net.cpp:144] Setting up avg_pool_12/8x8_s1
I0122 17:49:00.628127 65942 net.cpp:151] Top shape: 50 336 1 1 (16800)
I0122 17:49:00.628130 65942 net.cpp:159] Memory required for data: 566340200
I0122 17:49:00.628134 65942 layer_factory.hpp:77] Creating layer drop_8x8_s1
I0122 17:49:00.628137 65942 net.cpp:94] Creating Layer drop_8x8_s1
I0122 17:49:00.628140 65942 net.cpp:435] drop_8x8_s1 <- avg_pool_12/8x8_s1
I0122 17:49:00.628145 65942 net.cpp:396] drop_8x8_s1 -> avg_pool_12/8x8_s1 (in-place)
I0122 17:49:00.628161 65942 net.cpp:144] Setting up drop_8x8_s1
I0122 17:49:00.628165 65942 net.cpp:151] Top shape: 50 336 1 1 (16800)
I0122 17:49:00.628168 65942 net.cpp:159] Memory required for data: 566407400
I0122 17:49:00.628171 65942 layer_factory.hpp:77] Creating layer loss/classifier
I0122 17:49:00.628177 65942 net.cpp:94] Creating Layer loss/classifier
I0122 17:49:00.628180 65942 net.cpp:435] loss/classifier <- avg_pool_12/8x8_s1
I0122 17:49:00.628185 65942 net.cpp:409] loss/classifier -> loss/classifier
I0122 17:49:00.628314 65942 net.cpp:144] Setting up loss/classifier
I0122 17:49:00.628319 65942 net.cpp:151] Top shape: 50 10 (500)
I0122 17:49:00.628322 65942 net.cpp:159] Memory required for data: 566409400
I0122 17:49:00.628326 65942 layer_factory.hpp:77] Creating layer loss/classifier_loss/classifier_0_split
I0122 17:49:00.628332 65942 net.cpp:94] Creating Layer loss/classifier_loss/classifier_0_split
I0122 17:49:00.628337 65942 net.cpp:435] loss/classifier_loss/classifier_0_split <- loss/classifier
I0122 17:49:00.628342 65942 net.cpp:409] loss/classifier_loss/classifier_0_split -> loss/classifier_loss/classifier_0_split_0
I0122 17:49:00.628348 65942 net.cpp:409] loss/classifier_loss/classifier_0_split -> loss/classifier_loss/classifier_0_split_1
I0122 17:49:00.628355 65942 net.cpp:409] loss/classifier_loss/classifier_0_split -> loss/classifier_loss/classifier_0_split_2
I0122 17:49:00.628360 65942 net.cpp:409] loss/classifier_loss/classifier_0_split -> loss/classifier_loss/classifier_0_split_3
I0122 17:49:00.628407 65942 net.cpp:144] Setting up loss/classifier_loss/classifier_0_split
I0122 17:49:00.628412 65942 net.cpp:151] Top shape: 50 10 (500)
I0122 17:49:00.628417 65942 net.cpp:151] Top shape: 50 10 (500)
I0122 17:49:00.628419 65942 net.cpp:151] Top shape: 50 10 (500)
I0122 17:49:00.628422 65942 net.cpp:151] Top shape: 50 10 (500)
I0122 17:49:00.628424 65942 net.cpp:159] Memory required for data: 566417400
I0122 17:49:00.628428 65942 layer_factory.hpp:77] Creating layer loss
I0122 17:49:00.628432 65942 net.cpp:94] Creating Layer loss
I0122 17:49:00.628435 65942 net.cpp:435] loss <- loss/classifier_loss/classifier_0_split_0
I0122 17:49:00.628439 65942 net.cpp:435] loss <- label_data_1_split_0
I0122 17:49:00.628444 65942 net.cpp:409] loss -> loss
…
