…
I0122 16:59:12.779525 64218 net.cpp:323] The NetState phase (0) differed from the phase (1) specified by a rule in layer accuracy-top1
I0122 16:59:12.779527 64218 net.cpp:323] The NetState phase (0) differed from the phase (1) specified by a rule in layer accuracy-top5
I0122 16:59:12.780129 64218 net.cpp:52] Initializing net from parameters: 
state {
  phase: TRAIN
}
layer {
  name: "data"
  type: "Data"
  top: "data"
  top: "label"
  include {
    phase: TRAIN
  }
  transform_param {
    mirror: true
    mean_value: 104
    mean_value: 117
    mean_value: 123
  }
  data_param {
    source: "cifar10/input/lmdb/train_lmdb"
    batch_size: 128
    backend: LMDB
  }
}
layer {
  name: "conv1/3x3_s1"
  type: "Convolution"
  bottom: "data"
  top: "conv1/3x3_s1"
  param {
    lr_mult: 1
    decay_mult: 1
    compression: PRUNE
  }
  param {
    lr_mult: 2
    decay_mult: 0
    compression: PRUNE
  }
  convolution_param {
    num_output: 96
    pad: 1
    kernel_size: 3
    stride: 1
    weight_filler {
      type: "xavier"
      std: 0.1
    }
    bias_filler {
      type: "constant"
      value: 0.2
    }
  }
}
layer {
  name: "conv1/bn1"
  type: "BatchNorm"
  bottom: "conv1/3x3_s1"
  top: "conv1/3x3_s1"
  param {
    lr_mult: 1
    decay_mult: 0
    compression: PRUNE
  }
  param {
    lr_mult: 1
    decay_mult: 0
    compression: PRUNE
  }
  param {
    lr_mult: 0
    decay_mult: 0
    compression: PRUNE
  }
  param {
    lr_mult: 0
    decay_mult: 0
    compression: PRUNE
  }
  batch_norm_param {
    use_global_stats: false
    scale_filler {
      type: "constant"
      value: 1
    }
    bias_filler {
      type: "constant"
      value: 0
    }
  }
}
layer {
  name: "conv1/relu1"
  type: "ReLU"
  bottom: "conv1/3x3_s1"
  top: "conv1/3x3_s1"
}
layer {
  name: "inception_2a/1x1"
  type: "Convolution"
  bottom: "conv1/3x3_s1"
  top: "inception_2a/1x1"
  param {
    lr_mult: 1
    decay_mult: 1
    compression: PRUNE
  }
  param {
    lr_mult: 2
    decay_mult: 0
    compression: PRUNE
  }
  convolution_param {
    num_output: 32
    kernel_size: 1
    weight_filler {
      type: "xavier"
      std: 0.03
    }
    bias_filler {
      type: "constant"
      value: 0.2
    }
  }
}
layer {
  name: "inception_2a/1x1/bn1"
  type: "BatchNorm"
  bottom: "inception_2a/1x1"
  top: "inception_2a/1x1"
  param {
    lr_mult: 1
    decay_mult: 0
    compression: PRUNE
  }
  param {
    lr_mult: 1
    decay_mult: 0
    compression: PRUNE
  }
  param {
    lr_mult: 0
    decay_mult: 0
    compression: PRUNE
  }
  param {
    lr_mult: 0
    decay_mult: 0
    compression: PRUNE
  }
  batch_norm_param {
    use_global_stats: false
    scale_filler {
      type: "constant"
      value: 1
    }
    bias_filler {
      type: "constant"
      value: 0
    }
  }
}
layer {
  name: "inception_2a/1x1/relu1"
  type: "ReLU"
  bottom: "inception_2a/1x1"
  top: "inception_2a/1x1"
}
layer {
  name: "inception_2a/3x3"
  type: "Convolution"
  bottom: "conv1/3x3_s1"
  top: "inception_2a/3x3"
  param {
    lr_mult: 1
    decay_mult: 1
    compression: PRUNE
  }
  param {
    lr_mult: 2
    decay_mult: 0
    compression: PRUNE
  }
  convolution_param {
    num_output: 32
    pad: 1
    kernel_size: 3
    weight_filler {
      type: "xavier"
      std: 0.03
    }
    bias_filler {
      type: "constant"
      value: 0.2
    }
  }
}
layer {
  name: "inception_2a/3x3/bn1"
  type: "BatchNorm"
  bottom: "inception_2a/3x3"
  top: "inception_2a/3x3"
  param {
    lr_mult: 1
    decay_mult: 0
    compression: PRUNE
  }
  param {
    lr_mult: 1
    decay_mult: 0
    compression: PRUNE
  }
  param {
    lr_mult: 0
    decay_mult: 0
    compression: PRUNE
  }
  param {
    lr_mult: 0
    decay_mult: 0
    compression: PRUNE
  }
  batch_norm_param {
    use_global_stats: false
    scale_filler {
      type: "constant"
      value: 1
    }
    bias_filler {
      type: "constant"
      value: 0
    }
  }
}
layer {
  name: "inception_2a/3x3/relu1"
  type: "ReLU"
  bottom: "inception_2a/3x3"
  top: "inception_2a/3x3"
}
layer {
  name: "inception_2a/output"
  type: "Concat"
  bottom: "inception_2a/1x1"
  bottom: "inception_2a/3x3"
  top: "inception_2a/output"
}
layer {
  name: "inception_3a/1x1"
  type: "Convolution"
  bottom: "inception_2a/output"
  top: "inception_3a/1x1"
  param {
    lr_mult: 1
    decay_mult: 1
    compression: PRUNE
  }
  param {
    lr_mult: 2
    decay_mult: 0
    compression: PRUNE
  }
  convolution_param {
    num_output: 32
    kernel_size: 1
    weight_filler {
      type: "xavier"
      std: 0.03
    }
    bias_filler {
      type: "constant"
      value: 0.2
    }
  }
}
layer {
  name: "inception_3a/1x1/bn1"
  type: "BatchNorm"
  bottom: "inception_3a/1x1"
  top: "inception_3a/1x1"
  param {
    lr_mult: 1
    decay_mult: 0
    compression: PRUNE
  }
  param {
    lr_mult: 1
    decay_mult: 0
    compression: PRUNE
  }
  param {
    lr_mult: 0
    decay_mult: 0
    compression: PRUNE
  }
  param {
    lr_mult: 0
    decay_mult: 0
    compression: PRUNE
  }
  batch_norm_param {
    use_global_stats: false
    scale_filler {
      type: "constant"
      value: 1
    }
    bias_filler {
      type: "constant"
      value: 0
    }
  }
}
layer {
  name: "inception_3a/1x1/relu1"
  type: "ReLU"
  bottom: "inception_3a/1x1"
  top: "inception_3a/1x1"
}
layer {
  name: "inception_3a/3x3"
  type: "Convolution"
  bottom: "inception_2a/output"
  top: "inception_3a/3x3"
  param {
    lr_mult: 1
    decay_mult: 1
    compression: PRUNE
  }
  param {
    lr_mult: 2
    decay_mult: 0
    compression: PRUNE
  }
  convolution_param {
    num_output: 48
    pad: 1
    kernel_size: 3
    weight_filler {
      type: "xavier"
      std: 0.03
    }
    bias_filler {
      type: "constant"
      value: 0.2
    }
  }
}
layer {
  name: "inception_3a/3x3/bn1"
  type: "BatchNorm"
  bottom: "inception_3a/3x3"
  top: "inception_3a/3x3"
  param {
    lr_mult: 1
    decay_mult: 0
    compression: PRUNE
  }
  param {
    lr_mult: 1
    decay_mult: 0
    compression: PRUNE
  }
  param {
    lr_mult: 0
    decay_mult: 0
    compression: PRUNE
  }
  param {
    lr_mult: 0
    decay_mult: 0
    compression: PRUNE
  }
  batch_norm_param {
    use_global_stats: false
    scale_filler {
      type: "constant"
      value: 1
    }
    bias_filler {
      type: "constant"
      value: 0
    }
  }
}
layer {
  name: "inception_3a/3x3/relu1"
  type: "ReLU"
  bottom: "inception_3a/3x3"
  top: "inception_3a/3x3"
}
layer {
  name: "inception_3a/output"
  type: "Concat"
  bottom: "inception_3a/1x1"
  bottom: "inception_3a/3x3"
  top: "inception_3a/output"
}
layer {
  name: "downsample_4/3x3_s2"
  type: "Convolution"
  bottom: "inception_3a/output"
  top: "downsample_4/3x3_s2"
  param {
    lr_mult: 1
    decay_mult: 1
    compression: PRUNE
  }
  param {
    lr_mult: 2
    decay_mult: 0
    compression: PRUNE
  }
  convolution_param {
    num_output: 80
    pad: 1
    kernel_size: 3
    stride: 2
    weight_filler {
      type: "xavier"
      std: 0.03
    }
    bias_filler {
      type: "constant"
      value: 0.2
    }
  }
}
layer {
  name: "downsample_4/3x3_s2/bn1"
  type: "BatchNorm"
  bottom: "downsample_4/3x3_s2"
  top: "downsample_4/3x3_s2"
  param {
    lr_mult: 1
    decay_mult: 0
    compression: PRUNE
  }
  param {
    lr_mult: 1
    decay_mult: 0
    compression: PRUNE
  }
  param {
    lr_mult: 0
    decay_mult: 0
    compression: PRUNE
  }
  param {
    lr_mult: 0
    decay_mult: 0
    compression: PRUNE
  }
  batch_norm_param {
    use_global_stats: false
    scale_filler {
      type: "constant"
      value: 1
    }
    bias_filler {
      type: "constant"
      value: 0
    }
  }
}
layer {
  name: "downsample_4/3x3_s2/relu1"
  type: "ReLU"
  bottom: "downsample_4/3x3_s2"
  top: "downsample_4/3x3_s2"
}
layer {
  name: "downsample_4/pool_s2"
  type: "Pooling"
  bottom: "inception_3a/output"
  top: "downsample_4/pool_s2"
  pooling_param {
    pool: MAX
    kernel_size: 3
    stride: 2
  }
}
layer {
  name: "downsample_4/output"
  type: "Concat"
  bottom: "downsample_4/3x3_s2"
  bottom: "downsample_4/pool_s2"
  top: "downsample_4/output"
}
layer {
  name: "inception_5a/1x1"
  type: "Convolution"
  bottom: "downsample_4/output"
  top: "inception_5a/1x1"
  param {
    lr_mult: 1
    decay_mult: 1
    compression: PRUNE
  }
  param {
    lr_mult: 2
    decay_mult: 0
    compression: PRUNE
  }
  convolution_param {
    num_output: 112
    kernel_size: 1
    weight_filler {
      type: "xavier"
      std: 0.03
    }
    bias_filler {
      type: "constant"
      value: 0.2
    }
  }
}
layer {
  name: "inception_5a/1x1/bn1"
  type: "BatchNorm"
  bottom: "inception_5a/1x1"
  top: "inception_5a/1x1"
  param {
    lr_mult: 1
    decay_mult: 0
    compression: PRUNE
  }
  param {
    lr_mult: 1
    decay_mult: 0
    compression: PRUNE
  }
  param {
    lr_mult: 0
    decay_mult: 0
    compression: PRUNE
  }
  param {
    lr_mult: 0
    decay_mult: 0
    compression: PRUNE
  }
  batch_norm_param {
    use_global_stats: false
    scale_filler {
      type: "constant"
      value: 1
    }
    bias_filler {
      type: "constant"
      value: 0
    }
  }
}
layer {
  name: "inception_5a/1x1/relu1"
  type: "ReLU"
  bottom: "inception_5a/1x1"
  top: "inception_5a/1x1"
}
layer {
  name: "inception_5a/3x3"
  type: "Convolution"
  bottom: "downsample_4/output"
  top: "inception_5a/3x3"
  param {
    lr_mult: 1
    decay_mult: 1
    compression: PRUNE
  }
  param {
    lr_mult: 2
    decay_mult: 0
    compression: PRUNE
  }
  convolution_param {
    num_output: 48
    pad: 1
    kernel_size: 3
    weight_filler {
      type: "xavier"
      std: 0.03
    }
    bias_filler {
      type: "constant"
      value: 0.2
    }
  }
}
layer {
  name: "inception_5a/3x3/bn1"
  type: "BatchNorm"
  bottom: "inception_5a/3x3"
  top: "inception_5a/3x3"
  param {
    lr_mult: 1
    decay_mult: 0
    compression: PRUNE
  }
  param {
    lr_mult: 1
    decay_mult: 0
    compression: PRUNE
  }
  param {
    lr_mult: 0
    decay_mult: 0
    compression: PRUNE
  }
  param {
    lr_mult: 0
    decay_mult: 0
    compression: PRUNE
  }
  batch_norm_param {
    use_global_stats: false
    scale_filler {
      type: "constant"
      value: 1
    }
    bias_filler {
      type: "constant"
      value: 0
    }
  }
}
layer {
  name: "inception_5a/3x3/relu1"
  type: "ReLU"
  bottom: "inception_5a/3x3"
  top: "inception_5a/3x3"
}
layer {
  name: "inception_5a/output"
  type: "Concat"
  bottom: "inception_5a/1x1"
  bottom: "inception_5a/3x3"
  top: "inception_5a/output"
}
layer {
  name: "inception_6a/1x1"
  type: "Convolution"
  bottom: "inception_5a/output"
  top: "inception_6a/1x1"
  param {
    lr_mult: 1
    decay_mult: 1
    compression: PRUNE
  }
  param {
    lr_mult: 2
    decay_mult: 0
    compression: PRUNE
  }
  convolution_param {
    num_output: 96
    kernel_size: 1
    weight_filler {
      type: "xavier"
      std: 0.03
    }
    bias_filler {
      type: "constant"
      value: 0.2
    }
  }
}
layer {
  name: "inception_6a/1x1/bn1"
  type: "BatchNorm"
  bottom: "inception_6a/1x1"
  top: "inception_6a/1x1"
  param {
    lr_mult: 1
    decay_mult: 0
    compression: PRUNE
  }
  param {
    lr_mult: 1
    decay_mult: 0
    compression: PRUNE
  }
  param {
    lr_mult: 0
    decay_mult: 0
    compression: PRUNE
  }
  param {
    lr_mult: 0
    decay_mult: 0
    compression: PRUNE
  }
  batch_norm_param {
    use_global_stats: false
    scale_filler {
      type: "constant"
      value: 1
    }
    bias_filler {
      type: "constant"
      value: 0
    }
  }
}
layer {
  name: "inception_6a/1x1/relu1"
  type: "ReLU"
  bottom: "inception_6a/1x1"
  top: "inception_6a/1x1"
}
layer {
  name: "inception_6a/3x3"
  type: "Convolution"
  bottom: "inception_5a/output"
  top: "inception_6a/3x3"
  param {
    lr_mult: 1
    decay_mult: 1
    compression: PRUNE
  }
  param {
    lr_mult: 2
    decay_mult: 0
    compression: PRUNE
  }
  convolution_param {
    num_output: 64
    pad: 1
    kernel_size: 3
    weight_filler {
      type: "xavier"
      std: 0.03
    }
    bias_filler {
      type: "constant"
      value: 0.2
    }
  }
}
layer {
  name: "inception_6a/3x3/bn1"
  type: "BatchNorm"
  bottom: "inception_6a/3x3"
  top: "inception_6a/3x3"
  param {
    lr_mult: 1
    decay_mult: 0
    compression: PRUNE
  }
  param {
    lr_mult: 1
    decay_mult: 0
    compression: PRUNE
  }
  param {
    lr_mult: 0
    decay_mult: 0
    compression: PRUNE
  }
  param {
    lr_mult: 0
    decay_mult: 0
    compression: PRUNE
  }
  batch_norm_param {
    use_global_stats: false
    scale_filler {
      type: "constant"
      value: 1
    }
    bias_filler {
      type: "constant"
      value: 0
    }
  }
}
layer {
  name: "inception_6a/3x3/relu1"
  type: "ReLU"
  bottom: "inception_6a/3x3"
  top: "inception_6a/3x3"
}
layer {
  name: "inception_6a/output"
  type: "Concat"
  bottom: "inception_6a/1x1"
  bottom: "inception_6a/3x3"
  top: "inception_6a/output"
}
layer {
  name: "inception_7a/1x1"
  type: "Convolution"
  bottom: "inception_6a/output"
  top: "inception_7a/1x1"
  param {
    lr_mult: 1
    decay_mult: 1
    compression: PRUNE
  }
  param {
    lr_mult: 2
    decay_mult: 0
    compression: PRUNE
  }
  convolution_param {
    num_output: 80
    kernel_size: 1
    weight_filler {
      type: "xavier"
      std: 0.03
    }
    bias_filler {
      type: "constant"
      value: 0.2
    }
  }
}
layer {
  name: "inception_7a/1x1/bn1"
  type: "BatchNorm"
  bottom: "inception_7a/1x1"
  top: "inception_7a/1x1"
  param {
    lr_mult: 1
    decay_mult: 0
    compression: PRUNE
  }
  param {
    lr_mult: 1
    decay_mult: 0
    compression: PRUNE
  }
  param {
    lr_mult: 0
    decay_mult: 0
    compression: PRUNE
  }
  param {
    lr_mult: 0
    decay_mult: 0
    compression: PRUNE
  }
  batch_norm_param {
    use_global_stats: false
    scale_filler {
      type: "constant"
      value: 1
    }
    bias_filler {
      type: "constant"
      value: 0
    }
  }
}
layer {
  name: "inception_7a/1x1/relu1"
  type: "ReLU"
  bottom: "inception_7a/1x1"
  top: "inception_7a/1x1"
}
layer {
  name: "inception_7a/3x3"
  type: "Convolution"
  bottom: "inception_6a/output"
  top: "inception_7a/3x3"
  param {
    lr_mult: 1
    decay_mult: 1
    compression: PRUNE
  }
  param {
    lr_mult: 2
    decay_mult: 0
    compression: PRUNE
  }
  convolution_param {
    num_output: 80
    pad: 1
    kernel_size: 3
    weight_filler {
      type: "xavier"
      std: 0.03
    }
    bias_filler {
      type: "constant"
      value: 0.2
    }
  }
}
layer {
  name: "inception_7a/3x3/bn1"
  type: "BatchNorm"
  bottom: "inception_7a/3x3"
  top: "inception_7a/3x3"
  param {
    lr_mult: 1
    decay_mult: 0
    compression: PRUNE
  }
  param {
    lr_mult: 1
    decay_mult: 0
    compression: PRUNE
  }
  param {
    lr_mult: 0
    decay_mult: 0
    compression: PRUNE
  }
  param {
    lr_mult: 0
    decay_mult: 0
    compression: PRUNE
  }
  batch_norm_param {
    use_global_stats: false
    scale_filler {
      type: "constant"
      value: 1
    }
    bias_filler {
      type: "constant"
      value: 0
    }
  }
}
layer {
  name: "inception_7a/3x3/relu1"
  type: "ReLU"
  bottom: "inception_7a/3x3"
  top: "inception_7a/3x3"
}
layer {
  name: "inception_7a/output"
  type: "Concat"
  bottom: "inception_7a/1x1"
  bottom: "inception_7a/3x3"
  top: "inception_7a/output"
}
layer {
  name: "inception_8a/1x1"
  type: "Convolution"
  bottom: "inception_7a/output"
  top: "inception_8a/1x1"
  param {
    lr_mult: 1
    decay_mult: 1
    compression: PRUNE
  }
  param {
    lr_mult: 2
    decay_mult: 0
    compression: PRUNE
  }
  convolution_param {
    num_output: 48
    kernel_size: 1
    weight_filler {
      type: "xavier"
      std: 0.03
    }
    bias_filler {
      type: "constant"
      value: 0.2
    }
  }
}
layer {
  name: "inception_8a/1x1/bn1"
  type: "BatchNorm"
  bottom: "inception_8a/1x1"
  top: "inception_8a/1x1"
  param {
    lr_mult: 1
    decay_mult: 0
    compression: PRUNE
  }
  param {
    lr_mult: 1
    decay_mult: 0
    compression: PRUNE
  }
  param {
    lr_mult: 0
    decay_mult: 0
    compression: PRUNE
  }
  param {
    lr_mult: 0
    decay_mult: 0
    compression: PRUNE
  }
  batch_norm_param {
    use_global_stats: false
    scale_filler {
      type: "constant"
      value: 1
    }
    bias_filler {
      type: "constant"
      value: 0
    }
  }
}
layer {
  name: "inception_8a/1x1/relu1"
  type: "ReLU"
  bottom: "inception_8a/1x1"
  top: "inception_8a/1x1"
}
layer {
  name: "inception_8a/3x3"
  type: "Convolution"
  bottom: "inception_7a/output"
  top: "inception_8a/3x3"
  param {
    lr_mult: 1
    decay_mult: 1
    compression: PRUNE
  }
  param {
    lr_mult: 2
    decay_mult: 0
    compression: PRUNE
  }
  convolution_param {
    num_output: 96
    pad: 1
    kernel_size: 3
    weight_filler {
      type: "xavier"
      std: 0.03
    }
    bias_filler {
      type: "constant"
      value: 0.2
    }
  }
}
layer {
  name: "inception_8a/3x3/bn1"
  type: "BatchNorm"
  bottom: "inception_8a/3x3"
  top: "inception_8a/3x3"
  param {
    lr_mult: 1
    decay_mult: 0
    compression: PRUNE
  }
  param {
    lr_mult: 1
    decay_mult: 0
    compression: PRUNE
  }
  param {
    lr_mult: 0
    decay_mult: 0
    compression: PRUNE
  }
  param {
    lr_mult: 0
    decay_mult: 0
    compression: PRUNE
  }
  batch_norm_param {
    use_global_stats: false
    scale_filler {
      type: "constant"
      value: 1
    }
    bias_filler {
      type: "constant"
      value: 0
    }
  }
}
layer {
  name: "inception_8a/3x3/relu1"
  type: "ReLU"
  bottom: "inception_8a/3x3"
  top: "inception_8a/3x3"
}
layer {
  name: "inception_8a/output"
  type: "Concat"
  bottom: "inception_8a/1x1"
  bottom: "inception_8a/3x3"
  top: "inception_8a/output"
}
layer {
  name: "downsample_9/3x3_s2"
  type: "Convolution"
  bottom: "inception_8a/output"
  top: "downsample_9/3x3_s2"
  param {
    lr_mult: 1
    decay_mult: 1
    compression: PRUNE
  }
  param {
    lr_mult: 2
    decay_mult: 0
    compression: PRUNE
  }
  convolution_param {
    num_output: 96
    pad: 1
    kernel_size: 3
    stride: 2
    weight_filler {
      type: "xavier"
      std: 0.03
    }
    bias_filler {
      type: "constant"
      value: 0.2
    }
  }
}
layer {
  name: "downsample_9/3x3_s2/bn1"
  type: "BatchNorm"
  bottom: "downsample_9/3x3_s2"
  top: "downsample_9/3x3_s2"
  param {
    lr_mult: 1
    decay_mult: 0
    compression: PRUNE
  }
  param {
    lr_mult: 1
    decay_mult: 0
    compression: PRUNE
  }
  param {
    lr_mult: 0
    decay_mult: 0
    compression: PRUNE
  }
  param {
    lr_mult: 0
    decay_mult: 0
    compression: PRUNE
  }
  batch_norm_param {
    use_global_stats: false
    scale_filler {
      type: "constant"
      value: 1
    }
    bias_filler {
      type: "constant"
      value: 0
    }
  }
}
layer {
  name: "downsample_9/3x3_s2/relu1"
  type: "ReLU"
  bottom: "downsample_9/3x3_s2"
  top: "downsample_9/3x3_s2"
}
layer {
  name: "downsample_9/pool_s2"
  type: "Pooling"
  bottom: "inception_8a/output"
  top: "downsample_9/pool_s2"
  pooling_param {
    pool: MAX
    kernel_size: 3
    stride: 2
  }
}
layer {
  name: "downsample_9/output"
  type: "Concat"
  bottom: "downsample_9/3x3_s2"
  bottom: "downsample_9/pool_s2"
  top: "downsample_9/output"
}
layer {
  name: "inception_10a/1x1"
  type: "Convolution"
  bottom: "downsample_9/output"
  top: "inception_10a/1x1"
  param {
    lr_mult: 1
    decay_mult: 1
    compression: PRUNE
  }
  param {
    lr_mult: 2
    decay_mult: 0
    compression: PRUNE
  }
  convolution_param {
    num_output: 176
    kernel_size: 1
    weight_filler {
      type: "xavier"
      std: 0.03
    }
    bias_filler {
      type: "constant"
      value: 0.2
    }
  }
}
layer {
  name: "inception_10a/1x1/bn1"
  type: "BatchNorm"
  bottom: "inception_10a/1x1"
  top: "inception_10a/1x1"
  param {
    lr_mult: 1
    decay_mult: 0
    compression: PRUNE
  }
  param {
    lr_mult: 1
    decay_mult: 0
    compression: PRUNE
  }
  param {
    lr_mult: 0
    decay_mult: 0
    compression: PRUNE
  }
  param {
    lr_mult: 0
    decay_mult: 0
    compression: PRUNE
  }
  batch_norm_param {
    use_global_stats: false
    scale_filler {
      type: "constant"
      value: 1
    }
    bias_filler {
      type: "constant"
      value: 0
    }
  }
}
layer {
  name: "inception_10a/1x1/relu1"
  type: "ReLU"
  bottom: "inception_10a/1x1"
  top: "inception_10a/1x1"
}
layer {
  name: "inception_10a/3x3"
  type: "Convolution"
  bottom: "downsample_9/output"
  top: "inception_10a/3x3"
  param {
    lr_mult: 1
    decay_mult: 1
    compression: PRUNE
  }
  param {
    lr_mult: 2
    decay_mult: 0
    compression: PRUNE
  }
  convolution_param {
    num_output: 160
    pad: 1
    kernel_size: 3
    weight_filler {
      type: "xavier"
      std: 0.03
    }
    bias_filler {
      type: "constant"
      value: 0.2
    }
  }
}
layer {
  name: "inception_10a/3x3/bn1"
  type: "BatchNorm"
  bottom: "inception_10a/3x3"
  top: "inception_10a/3x3"
  param {
    lr_mult: 1
    decay_mult: 0
    compression: PRUNE
  }
  param {
    lr_mult: 1
    decay_mult: 0
    compression: PRUNE
  }
  param {
    lr_mult: 0
    decay_mult: 0
    compression: PRUNE
  }
  param {
    lr_mult: 0
    decay_mult: 0
    compression: PRUNE
  }
  batch_norm_param {
    use_global_stats: false
    scale_filler {
      type: "constant"
      value: 1
    }
    bias_filler {
      type: "constant"
      value: 0
    }
  }
}
layer {
  name: "inception_10a/3x3/relu1"
  type: "ReLU"
  bottom: "inception_10a/3x3"
  top: "inception_10a/3x3"
}
layer {
  name: "inception_10a/output"
  type: "Concat"
  bottom: "inception_10a/1x1"
  bottom: "inception_10a/3x3"
  top: "inception_10a/output"
}
layer {
  name: "inception_11a/1x1"
  type: "Convolution"
  bottom: "inception_10a/output"
  top: "inception_11a/1x1"
  param {
    lr_mult: 1
    decay_mult: 1
    compression: PRUNE
  }
  param {
    lr_mult: 2
    decay_mult: 0
    compression: PRUNE
  }
  convolution_param {
    num_output: 176
    kernel_size: 1
    weight_filler {
      type: "xavier"
      std: 0.03
    }
    bias_filler {
      type: "constant"
      value: 0.2
    }
  }
}
layer {
  name: "inception_11a/1x1/bn1"
  type: "BatchNorm"
  bottom: "inception_11a/1x1"
  top: "inception_11a/1x1"
  param {
    lr_mult: 1
    decay_mult: 0
    compression: PRUNE
  }
  param {
    lr_mult: 1
    decay_mult: 0
    compression: PRUNE
  }
  param {
    lr_mult: 0
    decay_mult: 0
    compression: PRUNE
  }
  param {
    lr_mult: 0
    decay_mult: 0
    compression: PRUNE
  }
  batch_norm_param {
    use_global_stats: false
    scale_filler {
      type: "constant"
      value: 1
    }
    bias_filler {
      type: "constant"
      value: 0
    }
  }
}
layer {
  name: "inception_11a/1x1/relu1"
  type: "ReLU"
  bottom: "inception_11a/1x1"
  top: "inception_11a/1x1"
}
layer {
  name: "inception_11a/3x3"
  type: "Convolution"
  bottom: "inception_10a/output"
  top: "inception_11a/3x3"
  param {
    lr_mult: 1
    decay_mult: 1
    compression: PRUNE
  }
  param {
    lr_mult: 2
    decay_mult: 0
    compression: PRUNE
  }
  convolution_param {
    num_output: 160
    pad: 1
    kernel_size: 3
    weight_filler {
      type: "xavier"
      std: 0.03
    }
    bias_filler {
      type: "constant"
      value: 0.2
    }
  }
}
layer {
  name: "inception_11a/3x3/bn1"
  type: "BatchNorm"
  bottom: "inception_11a/3x3"
  top: "inception_11a/3x3"
  param {
    lr_mult: 1
    decay_mult: 0
    compression: PRUNE
  }
  param {
    lr_mult: 1
    decay_mult: 0
    compression: PRUNE
  }
  param {
    lr_mult: 0
    decay_mult: 0
    compression: PRUNE
  }
  param {
    lr_mult: 0
    decay_mult: 0
    compression: PRUNE
  }
  batch_norm_param {
    use_global_stats: false
    scale_filler {
      type: "constant"
      value: 1
    }
    bias_filler {
      type: "constant"
      value: 0
    }
  }
}
layer {
  name: "inception_11a/3x3/relu1"
  type: "ReLU"
  bottom: "inception_11a/3x3"
  top: "inception_11a/3x3"
}
layer {
  name: "inception_11a/output"
  type: "Concat"
  bottom: "inception_11a/1x1"
  bottom: "inception_11a/3x3"
  top: "inception_11a/output"
}
layer {
  name: "avg_pool_12/8x8_s1"
  type: "Pooling"
  bottom: "inception_11a/output"
  top: "avg_pool_12/8x8_s1"
  pooling_param {
    pool: AVE
    kernel_size: 8
    stride: 1
  }
}
layer {
  name: "drop_8x8_s1"
  type: "Dropout"
  bottom: "avg_pool_12/8x8_s1"
  top: "avg_pool_12/8x8_s1"
  dropout_param {
    dropout_ratio: 0.5
  }
}
layer {
  name: "loss/classifier"
  type: "InnerProduct"
  bottom: "avg_pool_12/8x8_s1"
  top: "loss/classifier"
  param {
    lr_mult: 1
    decay_mult: 1
  }
  param {
    lr_mult: 2
    decay_mult: 0
  }
  inner_product_param {
    num_output: 10
    weight_filler {
      type: "xavier"
    }
    bias_filler {
      type: "constant"
      value: 1
    }
  }
}
layer {
  name: "loss"
  type: "SoftmaxWithLoss"
  bottom: "loss/classifier"
  bottom: "label"
  top: "loss"
}
I0122 16:59:12.780447 64218 layer_factory.hpp:77] Creating layer data
I0122 16:59:12.780546 64218 internal_thread.cpp:27] Starting internal thread(s) on GPU 0
I0122 16:59:12.781373 64218 net.cpp:94] Creating Layer data
I0122 16:59:12.781383 64218 net.cpp:409] data -> data
I0122 16:59:12.781394 64218 net.cpp:409] data -> label
I0122 16:59:12.782855 64261 db_lmdb.cpp:35] Opened lmdb cifar10/input/lmdb/train_lmdb
I0122 16:59:12.782902 64261 data_reader.cpp:117] TRAIN: reading data using 1 channel(s)
I0122 16:59:12.783011 64218 data_layer.cpp:78] ReshapePrefetch 128, 3, 32, 32
I0122 16:59:12.783097 64218 data_layer.cpp:83] output data size: 128,3,32,32
I0122 16:59:12.799222 64218 internal_thread.cpp:27] Starting internal thread(s) on GPU 0
I0122 16:59:12.799271 64218 net.cpp:144] Setting up data
I0122 16:59:12.799279 64218 net.cpp:151] Top shape: 128 3 32 32 (393216)
I0122 16:59:12.799284 64218 net.cpp:151] Top shape: 128 (128)
I0122 16:59:12.799286 64218 net.cpp:159] Memory required for data: 1573376
I0122 16:59:12.799290 64218 layer_factory.hpp:77] Creating layer conv1/3x3_s1
I0122 16:59:12.799304 64218 net.cpp:94] Creating Layer conv1/3x3_s1
I0122 16:59:12.799307 64218 net.cpp:435] conv1/3x3_s1 <- data
I0122 16:59:12.799322 64218 net.cpp:409] conv1/3x3_s1 -> conv1/3x3_s1
I0122 16:59:12.801025 64218 net.cpp:144] Setting up conv1/3x3_s1
I0122 16:59:12.801044 64218 net.cpp:151] Top shape: 128 96 32 32 (12582912)
I0122 16:59:12.801048 64218 net.cpp:159] Memory required for data: 51905024
I0122 16:59:12.801064 64218 layer_factory.hpp:77] Creating layer conv1/bn1
I0122 16:59:12.801074 64218 net.cpp:94] Creating Layer conv1/bn1
I0122 16:59:12.801079 64218 net.cpp:435] conv1/bn1 <- conv1/3x3_s1
I0122 16:59:12.801085 64218 net.cpp:396] conv1/bn1 -> conv1/3x3_s1 (in-place)
I0122 16:59:12.801731 64218 net.cpp:144] Setting up conv1/bn1
I0122 16:59:12.801739 64218 net.cpp:151] Top shape: 128 96 32 32 (12582912)
I0122 16:59:12.801743 64218 net.cpp:159] Memory required for data: 102236672
I0122 16:59:12.801754 64218 layer_factory.hpp:77] Creating layer conv1/relu1
I0122 16:59:12.801761 64218 net.cpp:94] Creating Layer conv1/relu1
I0122 16:59:12.801764 64218 net.cpp:435] conv1/relu1 <- conv1/3x3_s1
I0122 16:59:12.801769 64218 net.cpp:396] conv1/relu1 -> conv1/3x3_s1 (in-place)
I0122 16:59:12.801780 64218 net.cpp:144] Setting up conv1/relu1
I0122 16:59:12.801796 64218 net.cpp:151] Top shape: 128 96 32 32 (12582912)
I0122 16:59:12.801800 64218 net.cpp:159] Memory required for data: 152568320
I0122 16:59:12.801802 64218 layer_factory.hpp:77] Creating layer conv1/3x3_s1_conv1/relu1_0_split
I0122 16:59:12.801810 64218 net.cpp:94] Creating Layer conv1/3x3_s1_conv1/relu1_0_split
I0122 16:59:12.801815 64218 net.cpp:435] conv1/3x3_s1_conv1/relu1_0_split <- conv1/3x3_s1
I0122 16:59:12.801820 64218 net.cpp:409] conv1/3x3_s1_conv1/relu1_0_split -> conv1/3x3_s1_conv1/relu1_0_split_0
I0122 16:59:12.801827 64218 net.cpp:409] conv1/3x3_s1_conv1/relu1_0_split -> conv1/3x3_s1_conv1/relu1_0_split_1
I0122 16:59:12.801858 64218 net.cpp:144] Setting up conv1/3x3_s1_conv1/relu1_0_split
I0122 16:59:12.801863 64218 net.cpp:151] Top shape: 128 96 32 32 (12582912)
I0122 16:59:12.801867 64218 net.cpp:151] Top shape: 128 96 32 32 (12582912)
I0122 16:59:12.801870 64218 net.cpp:159] Memory required for data: 253231616
I0122 16:59:12.801873 64218 layer_factory.hpp:77] Creating layer inception_2a/1x1
I0122 16:59:12.801882 64218 net.cpp:94] Creating Layer inception_2a/1x1
I0122 16:59:12.801887 64218 net.cpp:435] inception_2a/1x1 <- conv1/3x3_s1_conv1/relu1_0_split_0
I0122 16:59:12.801892 64218 net.cpp:409] inception_2a/1x1 -> inception_2a/1x1
I0122 16:59:12.802145 64218 net.cpp:144] Setting up inception_2a/1x1
I0122 16:59:12.802152 64218 net.cpp:151] Top shape: 128 32 32 32 (4194304)
I0122 16:59:12.802155 64218 net.cpp:159] Memory required for data: 270008832
I0122 16:59:12.802162 64218 layer_factory.hpp:77] Creating layer inception_2a/1x1/bn1
I0122 16:59:12.802170 64218 net.cpp:94] Creating Layer inception_2a/1x1/bn1
I0122 16:59:12.802173 64218 net.cpp:435] inception_2a/1x1/bn1 <- inception_2a/1x1
I0122 16:59:12.802179 64218 net.cpp:396] inception_2a/1x1/bn1 -> inception_2a/1x1 (in-place)
I0122 16:59:12.803603 64218 net.cpp:144] Setting up inception_2a/1x1/bn1
I0122 16:59:12.803611 64218 net.cpp:151] Top shape: 128 32 32 32 (4194304)
I0122 16:59:12.803614 64218 net.cpp:159] Memory required for data: 286786048
I0122 16:59:12.803622 64218 layer_factory.hpp:77] Creating layer inception_2a/1x1/relu1
I0122 16:59:12.803627 64218 net.cpp:94] Creating Layer inception_2a/1x1/relu1
I0122 16:59:12.803632 64218 net.cpp:435] inception_2a/1x1/relu1 <- inception_2a/1x1
I0122 16:59:12.803637 64218 net.cpp:396] inception_2a/1x1/relu1 -> inception_2a/1x1 (in-place)
I0122 16:59:12.803642 64218 net.cpp:144] Setting up inception_2a/1x1/relu1
I0122 16:59:12.803647 64218 net.cpp:151] Top shape: 128 32 32 32 (4194304)
I0122 16:59:12.803649 64218 net.cpp:159] Memory required for data: 303563264
I0122 16:59:12.803652 64218 layer_factory.hpp:77] Creating layer inception_2a/3x3
I0122 16:59:12.803661 64218 net.cpp:94] Creating Layer inception_2a/3x3
I0122 16:59:12.803665 64218 net.cpp:435] inception_2a/3x3 <- conv1/3x3_s1_conv1/relu1_0_split_1
I0122 16:59:12.803670 64218 net.cpp:409] inception_2a/3x3 -> inception_2a/3x3
I0122 16:59:12.806650 64218 net.cpp:144] Setting up inception_2a/3x3
I0122 16:59:12.806664 64218 net.cpp:151] Top shape: 128 32 32 32 (4194304)
I0122 16:59:12.806668 64218 net.cpp:159] Memory required for data: 320340480
I0122 16:59:12.806674 64218 layer_factory.hpp:77] Creating layer inception_2a/3x3/bn1
I0122 16:59:12.806695 64218 net.cpp:94] Creating Layer inception_2a/3x3/bn1
I0122 16:59:12.806701 64218 net.cpp:435] inception_2a/3x3/bn1 <- inception_2a/3x3
I0122 16:59:12.806716 64218 net.cpp:396] inception_2a/3x3/bn1 -> inception_2a/3x3 (in-place)
I0122 16:59:12.807451 64218 net.cpp:144] Setting up inception_2a/3x3/bn1
I0122 16:59:12.807459 64218 net.cpp:151] Top shape: 128 32 32 32 (4194304)
I0122 16:59:12.807462 64218 net.cpp:159] Memory required for data: 337117696
I0122 16:59:12.807476 64218 layer_factory.hpp:77] Creating layer inception_2a/3x3/relu1
I0122 16:59:12.807482 64218 net.cpp:94] Creating Layer inception_2a/3x3/relu1
I0122 16:59:12.807485 64218 net.cpp:435] inception_2a/3x3/relu1 <- inception_2a/3x3
I0122 16:59:12.807492 64218 net.cpp:396] inception_2a/3x3/relu1 -> inception_2a/3x3 (in-place)
I0122 16:59:12.807512 64218 net.cpp:144] Setting up inception_2a/3x3/relu1
I0122 16:59:12.807516 64218 net.cpp:151] Top shape: 128 32 32 32 (4194304)
I0122 16:59:12.807519 64218 net.cpp:159] Memory required for data: 353894912
I0122 16:59:12.807523 64218 layer_factory.hpp:77] Creating layer inception_2a/output
I0122 16:59:12.807528 64218 net.cpp:94] Creating Layer inception_2a/output
I0122 16:59:12.807535 64218 net.cpp:435] inception_2a/output <- inception_2a/1x1
I0122 16:59:12.807539 64218 net.cpp:435] inception_2a/output <- inception_2a/3x3
I0122 16:59:12.807546 64218 net.cpp:409] inception_2a/output -> inception_2a/output
I0122 16:59:12.807566 64218 net.cpp:144] Setting up inception_2a/output
I0122 16:59:12.807572 64218 net.cpp:151] Top shape: 128 64 32 32 (8388608)
I0122 16:59:12.807575 64218 net.cpp:159] Memory required for data: 387449344
I0122 16:59:12.807577 64218 layer_factory.hpp:77] Creating layer inception_2a/output_inception_2a/output_0_split
I0122 16:59:12.807584 64218 net.cpp:94] Creating Layer inception_2a/output_inception_2a/output_0_split
I0122 16:59:12.807587 64218 net.cpp:435] inception_2a/output_inception_2a/output_0_split <- inception_2a/output
I0122 16:59:12.807593 64218 net.cpp:409] inception_2a/output_inception_2a/output_0_split -> inception_2a/output_inception_2a/output_0_split_0
I0122 16:59:12.807601 64218 net.cpp:409] inception_2a/output_inception_2a/output_0_split -> inception_2a/output_inception_2a/output_0_split_1
I0122 16:59:12.807631 64218 net.cpp:144] Setting up inception_2a/output_inception_2a/output_0_split
I0122 16:59:12.807637 64218 net.cpp:151] Top shape: 128 64 32 32 (8388608)
I0122 16:59:12.807642 64218 net.cpp:151] Top shape: 128 64 32 32 (8388608)
I0122 16:59:12.807644 64218 net.cpp:159] Memory required for data: 454558208
I0122 16:59:12.807647 64218 layer_factory.hpp:77] Creating layer inception_3a/1x1
I0122 16:59:12.807657 64218 net.cpp:94] Creating Layer inception_3a/1x1
I0122 16:59:12.807658 64218 net.cpp:435] inception_3a/1x1 <- inception_2a/output_inception_2a/output_0_split_0
I0122 16:59:12.807665 64218 net.cpp:409] inception_3a/1x1 -> inception_3a/1x1
I0122 16:59:12.807904 64218 net.cpp:144] Setting up inception_3a/1x1
I0122 16:59:12.807911 64218 net.cpp:151] Top shape: 128 32 32 32 (4194304)
I0122 16:59:12.807920 64218 net.cpp:159] Memory required for data: 471335424
I0122 16:59:12.807925 64218 layer_factory.hpp:77] Creating layer inception_3a/1x1/bn1
I0122 16:59:12.807934 64218 net.cpp:94] Creating Layer inception_3a/1x1/bn1
I0122 16:59:12.807936 64218 net.cpp:435] inception_3a/1x1/bn1 <- inception_3a/1x1
I0122 16:59:12.807943 64218 net.cpp:396] inception_3a/1x1/bn1 -> inception_3a/1x1 (in-place)
I0122 16:59:12.808595 64218 net.cpp:144] Setting up inception_3a/1x1/bn1
I0122 16:59:12.808603 64218 net.cpp:151] Top shape: 128 32 32 32 (4194304)
I0122 16:59:12.808605 64218 net.cpp:159] Memory required for data: 488112640
I0122 16:59:12.808614 64218 layer_factory.hpp:77] Creating layer inception_3a/1x1/relu1
I0122 16:59:12.808620 64218 net.cpp:94] Creating Layer inception_3a/1x1/relu1
I0122 16:59:12.808622 64218 net.cpp:435] inception_3a/1x1/relu1 <- inception_3a/1x1
I0122 16:59:12.808630 64218 net.cpp:396] inception_3a/1x1/relu1 -> inception_3a/1x1 (in-place)
I0122 16:59:12.808636 64218 net.cpp:144] Setting up inception_3a/1x1/relu1
I0122 16:59:12.808642 64218 net.cpp:151] Top shape: 128 32 32 32 (4194304)
I0122 16:59:12.808645 64218 net.cpp:159] Memory required for data: 504889856
I0122 16:59:12.808650 64218 layer_factory.hpp:77] Creating layer inception_3a/3x3
I0122 16:59:12.808660 64218 net.cpp:94] Creating Layer inception_3a/3x3
I0122 16:59:12.808665 64218 net.cpp:435] inception_3a/3x3 <- inception_2a/output_inception_2a/output_0_split_1
I0122 16:59:12.808670 64218 net.cpp:409] inception_3a/3x3 -> inception_3a/3x3
I0122 16:59:12.809062 64218 net.cpp:144] Setting up inception_3a/3x3
I0122 16:59:12.809068 64218 net.cpp:151] Top shape: 128 48 32 32 (6291456)
I0122 16:59:12.809072 64218 net.cpp:159] Memory required for data: 530055680
I0122 16:59:12.809077 64218 layer_factory.hpp:77] Creating layer inception_3a/3x3/bn1
I0122 16:59:12.809093 64218 net.cpp:94] Creating Layer inception_3a/3x3/bn1
I0122 16:59:12.809098 64218 net.cpp:435] inception_3a/3x3/bn1 <- inception_3a/3x3
I0122 16:59:12.809103 64218 net.cpp:396] inception_3a/3x3/bn1 -> inception_3a/3x3 (in-place)
I0122 16:59:12.810029 64218 net.cpp:144] Setting up inception_3a/3x3/bn1
I0122 16:59:12.810039 64218 net.cpp:151] Top shape: 128 48 32 32 (6291456)
I0122 16:59:12.810041 64218 net.cpp:159] Memory required for data: 555221504
I0122 16:59:12.810055 64218 layer_factory.hpp:77] Creating layer inception_3a/3x3/relu1
I0122 16:59:12.810060 64218 net.cpp:94] Creating Layer inception_3a/3x3/relu1
I0122 16:59:12.810065 64218 net.cpp:435] inception_3a/3x3/relu1 <- inception_3a/3x3
I0122 16:59:12.810072 64218 net.cpp:396] inception_3a/3x3/relu1 -> inception_3a/3x3 (in-place)
I0122 16:59:12.810081 64218 net.cpp:144] Setting up inception_3a/3x3/relu1
I0122 16:59:12.810084 64218 net.cpp:151] Top shape: 128 48 32 32 (6291456)
I0122 16:59:12.810087 64218 net.cpp:159] Memory required for data: 580387328
I0122 16:59:12.810091 64218 layer_factory.hpp:77] Creating layer inception_3a/output
I0122 16:59:12.810096 64218 net.cpp:94] Creating Layer inception_3a/output
I0122 16:59:12.810097 64218 net.cpp:435] inception_3a/output <- inception_3a/1x1
I0122 16:59:12.810108 64218 net.cpp:435] inception_3a/output <- inception_3a/3x3
I0122 16:59:12.810114 64218 net.cpp:409] inception_3a/output -> inception_3a/output
I0122 16:59:12.810133 64218 net.cpp:144] Setting up inception_3a/output
I0122 16:59:12.810142 64218 net.cpp:151] Top shape: 128 80 32 32 (10485760)
I0122 16:59:12.810147 64218 net.cpp:159] Memory required for data: 622330368
I0122 16:59:12.810148 64218 layer_factory.hpp:77] Creating layer inception_3a/output_inception_3a/output_0_split
I0122 16:59:12.810154 64218 net.cpp:94] Creating Layer inception_3a/output_inception_3a/output_0_split
I0122 16:59:12.810158 64218 net.cpp:435] inception_3a/output_inception_3a/output_0_split <- inception_3a/output
I0122 16:59:12.810164 64218 net.cpp:409] inception_3a/output_inception_3a/output_0_split -> inception_3a/output_inception_3a/output_0_split_0
I0122 16:59:12.810171 64218 net.cpp:409] inception_3a/output_inception_3a/output_0_split -> inception_3a/output_inception_3a/output_0_split_1
I0122 16:59:12.810197 64218 net.cpp:144] Setting up inception_3a/output_inception_3a/output_0_split
I0122 16:59:12.810206 64218 net.cpp:151] Top shape: 128 80 32 32 (10485760)
I0122 16:59:12.810210 64218 net.cpp:151] Top shape: 128 80 32 32 (10485760)
I0122 16:59:12.810212 64218 net.cpp:159] Memory required for data: 706216448
I0122 16:59:12.810215 64218 layer_factory.hpp:77] Creating layer downsample_4/3x3_s2
I0122 16:59:12.810225 64218 net.cpp:94] Creating Layer downsample_4/3x3_s2
I0122 16:59:12.810228 64218 net.cpp:435] downsample_4/3x3_s2 <- inception_3a/output_inception_3a/output_0_split_0
I0122 16:59:12.810235 64218 net.cpp:409] downsample_4/3x3_s2 -> downsample_4/3x3_s2
I0122 16:59:12.810788 64218 net.cpp:144] Setting up downsample_4/3x3_s2
I0122 16:59:12.810796 64218 net.cpp:151] Top shape: 128 80 16 16 (2621440)
I0122 16:59:12.810799 64218 net.cpp:159] Memory required for data: 716702208
I0122 16:59:12.810804 64218 layer_factory.hpp:77] Creating layer downsample_4/3x3_s2/bn1
I0122 16:59:12.810814 64218 net.cpp:94] Creating Layer downsample_4/3x3_s2/bn1
I0122 16:59:12.810817 64218 net.cpp:435] downsample_4/3x3_s2/bn1 <- downsample_4/3x3_s2
I0122 16:59:12.810824 64218 net.cpp:396] downsample_4/3x3_s2/bn1 -> downsample_4/3x3_s2 (in-place)
I0122 16:59:12.811467 64218 net.cpp:144] Setting up downsample_4/3x3_s2/bn1
I0122 16:59:12.811475 64218 net.cpp:151] Top shape: 128 80 16 16 (2621440)
I0122 16:59:12.811477 64218 net.cpp:159] Memory required for data: 727187968
I0122 16:59:12.811486 64218 layer_factory.hpp:77] Creating layer downsample_4/3x3_s2/relu1
I0122 16:59:12.811491 64218 net.cpp:94] Creating Layer downsample_4/3x3_s2/relu1
I0122 16:59:12.811493 64218 net.cpp:435] downsample_4/3x3_s2/relu1 <- downsample_4/3x3_s2
I0122 16:59:12.811511 64218 net.cpp:396] downsample_4/3x3_s2/relu1 -> downsample_4/3x3_s2 (in-place)
I0122 16:59:12.811519 64218 net.cpp:144] Setting up downsample_4/3x3_s2/relu1
I0122 16:59:12.811522 64218 net.cpp:151] Top shape: 128 80 16 16 (2621440)
I0122 16:59:12.811525 64218 net.cpp:159] Memory required for data: 737673728
I0122 16:59:12.811528 64218 layer_factory.hpp:77] Creating layer downsample_4/pool_s2
I0122 16:59:12.811535 64218 net.cpp:94] Creating Layer downsample_4/pool_s2
I0122 16:59:12.811538 64218 net.cpp:435] downsample_4/pool_s2 <- inception_3a/output_inception_3a/output_0_split_1
I0122 16:59:12.811545 64218 net.cpp:409] downsample_4/pool_s2 -> downsample_4/pool_s2
I0122 16:59:12.811585 64218 net.cpp:144] Setting up downsample_4/pool_s2
I0122 16:59:12.811591 64218 net.cpp:151] Top shape: 128 80 16 16 (2621440)
I0122 16:59:12.811595 64218 net.cpp:159] Memory required for data: 748159488
I0122 16:59:12.811599 64218 layer_factory.hpp:77] Creating layer downsample_4/output
I0122 16:59:12.811605 64218 net.cpp:94] Creating Layer downsample_4/output
I0122 16:59:12.811609 64218 net.cpp:435] downsample_4/output <- downsample_4/3x3_s2
I0122 16:59:12.811612 64218 net.cpp:435] downsample_4/output <- downsample_4/pool_s2
I0122 16:59:12.811616 64218 net.cpp:409] downsample_4/output -> downsample_4/output
I0122 16:59:12.811635 64218 net.cpp:144] Setting up downsample_4/output
I0122 16:59:12.811640 64218 net.cpp:151] Top shape: 128 160 16 16 (5242880)
I0122 16:59:12.811643 64218 net.cpp:159] Memory required for data: 769131008
I0122 16:59:12.811645 64218 layer_factory.hpp:77] Creating layer downsample_4/output_downsample_4/output_0_split
I0122 16:59:12.811650 64218 net.cpp:94] Creating Layer downsample_4/output_downsample_4/output_0_split
I0122 16:59:12.811655 64218 net.cpp:435] downsample_4/output_downsample_4/output_0_split <- downsample_4/output
I0122 16:59:12.811659 64218 net.cpp:409] downsample_4/output_downsample_4/output_0_split -> downsample_4/output_downsample_4/output_0_split_0
I0122 16:59:12.811666 64218 net.cpp:409] downsample_4/output_downsample_4/output_0_split -> downsample_4/output_downsample_4/output_0_split_1
I0122 16:59:12.811722 64218 net.cpp:144] Setting up downsample_4/output_downsample_4/output_0_split
I0122 16:59:12.811729 64218 net.cpp:151] Top shape: 128 160 16 16 (5242880)
I0122 16:59:12.811733 64218 net.cpp:151] Top shape: 128 160 16 16 (5242880)
I0122 16:59:12.811735 64218 net.cpp:159] Memory required for data: 811074048
I0122 16:59:12.811738 64218 layer_factory.hpp:77] Creating layer inception_5a/1x1
I0122 16:59:12.811748 64218 net.cpp:94] Creating Layer inception_5a/1x1
I0122 16:59:12.811754 64218 net.cpp:435] inception_5a/1x1 <- downsample_4/output_downsample_4/output_0_split_0
I0122 16:59:12.811759 64218 net.cpp:409] inception_5a/1x1 -> inception_5a/1x1
I0122 16:59:12.812187 64218 net.cpp:144] Setting up inception_5a/1x1
I0122 16:59:12.812196 64218 net.cpp:151] Top shape: 128 112 16 16 (3670016)
I0122 16:59:12.812198 64218 net.cpp:159] Memory required for data: 825754112
I0122 16:59:12.812203 64218 layer_factory.hpp:77] Creating layer inception_5a/1x1/bn1
I0122 16:59:12.812211 64218 net.cpp:94] Creating Layer inception_5a/1x1/bn1
I0122 16:59:12.812216 64218 net.cpp:435] inception_5a/1x1/bn1 <- inception_5a/1x1
I0122 16:59:12.812222 64218 net.cpp:396] inception_5a/1x1/bn1 -> inception_5a/1x1 (in-place)
I0122 16:59:12.812902 64218 net.cpp:144] Setting up inception_5a/1x1/bn1
I0122 16:59:12.812909 64218 net.cpp:151] Top shape: 128 112 16 16 (3670016)
I0122 16:59:12.812913 64218 net.cpp:159] Memory required for data: 840434176
I0122 16:59:12.812921 64218 layer_factory.hpp:77] Creating layer inception_5a/1x1/relu1
I0122 16:59:12.812927 64218 net.cpp:94] Creating Layer inception_5a/1x1/relu1
I0122 16:59:12.812929 64218 net.cpp:435] inception_5a/1x1/relu1 <- inception_5a/1x1
I0122 16:59:12.812934 64218 net.cpp:396] inception_5a/1x1/relu1 -> inception_5a/1x1 (in-place)
I0122 16:59:12.812940 64218 net.cpp:144] Setting up inception_5a/1x1/relu1
I0122 16:59:12.812944 64218 net.cpp:151] Top shape: 128 112 16 16 (3670016)
I0122 16:59:12.812955 64218 net.cpp:159] Memory required for data: 855114240
I0122 16:59:12.812959 64218 layer_factory.hpp:77] Creating layer inception_5a/3x3
I0122 16:59:12.812970 64218 net.cpp:94] Creating Layer inception_5a/3x3
I0122 16:59:12.812975 64218 net.cpp:435] inception_5a/3x3 <- downsample_4/output_downsample_4/output_0_split_1
I0122 16:59:12.812981 64218 net.cpp:409] inception_5a/3x3 -> inception_5a/3x3
I0122 16:59:12.813623 64218 net.cpp:144] Setting up inception_5a/3x3
I0122 16:59:12.813632 64218 net.cpp:151] Top shape: 128 48 16 16 (1572864)
I0122 16:59:12.813634 64218 net.cpp:159] Memory required for data: 861405696
I0122 16:59:12.813639 64218 layer_factory.hpp:77] Creating layer inception_5a/3x3/bn1
I0122 16:59:12.813647 64218 net.cpp:94] Creating Layer inception_5a/3x3/bn1
I0122 16:59:12.813650 64218 net.cpp:435] inception_5a/3x3/bn1 <- inception_5a/3x3
I0122 16:59:12.813657 64218 net.cpp:396] inception_5a/3x3/bn1 -> inception_5a/3x3 (in-place)
I0122 16:59:12.814419 64218 net.cpp:144] Setting up inception_5a/3x3/bn1
I0122 16:59:12.814426 64218 net.cpp:151] Top shape: 128 48 16 16 (1572864)
I0122 16:59:12.814436 64218 net.cpp:159] Memory required for data: 867697152
I0122 16:59:12.814445 64218 layer_factory.hpp:77] Creating layer inception_5a/3x3/relu1
I0122 16:59:12.814455 64218 net.cpp:94] Creating Layer inception_5a/3x3/relu1
I0122 16:59:12.814461 64218 net.cpp:435] inception_5a/3x3/relu1 <- inception_5a/3x3
I0122 16:59:12.814466 64218 net.cpp:396] inception_5a/3x3/relu1 -> inception_5a/3x3 (in-place)
I0122 16:59:12.814472 64218 net.cpp:144] Setting up inception_5a/3x3/relu1
I0122 16:59:12.814476 64218 net.cpp:151] Top shape: 128 48 16 16 (1572864)
I0122 16:59:12.814479 64218 net.cpp:159] Memory required for data: 873988608
I0122 16:59:12.814482 64218 layer_factory.hpp:77] Creating layer inception_5a/output
I0122 16:59:12.814486 64218 net.cpp:94] Creating Layer inception_5a/output
I0122 16:59:12.814489 64218 net.cpp:435] inception_5a/output <- inception_5a/1x1
I0122 16:59:12.814493 64218 net.cpp:435] inception_5a/output <- inception_5a/3x3
I0122 16:59:12.814498 64218 net.cpp:409] inception_5a/output -> inception_5a/output
I0122 16:59:12.814620 64218 net.cpp:144] Setting up inception_5a/output
I0122 16:59:12.814626 64218 net.cpp:151] Top shape: 128 160 16 16 (5242880)
I0122 16:59:12.814630 64218 net.cpp:159] Memory required for data: 894960128
I0122 16:59:12.814631 64218 layer_factory.hpp:77] Creating layer inception_5a/output_inception_5a/output_0_split
I0122 16:59:12.814638 64218 net.cpp:94] Creating Layer inception_5a/output_inception_5a/output_0_split
I0122 16:59:12.814641 64218 net.cpp:435] inception_5a/output_inception_5a/output_0_split <- inception_5a/output
I0122 16:59:12.814652 64218 net.cpp:409] inception_5a/output_inception_5a/output_0_split -> inception_5a/output_inception_5a/output_0_split_0
I0122 16:59:12.814658 64218 net.cpp:409] inception_5a/output_inception_5a/output_0_split -> inception_5a/output_inception_5a/output_0_split_1
I0122 16:59:12.814695 64218 net.cpp:144] Setting up inception_5a/output_inception_5a/output_0_split
I0122 16:59:12.814702 64218 net.cpp:151] Top shape: 128 160 16 16 (5242880)
I0122 16:59:12.814707 64218 net.cpp:151] Top shape: 128 160 16 16 (5242880)
I0122 16:59:12.814709 64218 net.cpp:159] Memory required for data: 936903168
I0122 16:59:12.814713 64218 layer_factory.hpp:77] Creating layer inception_6a/1x1
I0122 16:59:12.814723 64218 net.cpp:94] Creating Layer inception_6a/1x1
I0122 16:59:12.814734 64218 net.cpp:435] inception_6a/1x1 <- inception_5a/output_inception_5a/output_0_split_0
I0122 16:59:12.814740 64218 net.cpp:409] inception_6a/1x1 -> inception_6a/1x1
I0122 16:59:12.815892 64218 net.cpp:144] Setting up inception_6a/1x1
I0122 16:59:12.815904 64218 net.cpp:151] Top shape: 128 96 16 16 (3145728)
I0122 16:59:12.815907 64218 net.cpp:159] Memory required for data: 949486080
I0122 16:59:12.815913 64218 layer_factory.hpp:77] Creating layer inception_6a/1x1/bn1
I0122 16:59:12.815922 64218 net.cpp:94] Creating Layer inception_6a/1x1/bn1
I0122 16:59:12.815937 64218 net.cpp:435] inception_6a/1x1/bn1 <- inception_6a/1x1
I0122 16:59:12.815946 64218 net.cpp:396] inception_6a/1x1/bn1 -> inception_6a/1x1 (in-place)
I0122 16:59:12.816663 64218 net.cpp:144] Setting up inception_6a/1x1/bn1
I0122 16:59:12.816670 64218 net.cpp:151] Top shape: 128 96 16 16 (3145728)
I0122 16:59:12.816673 64218 net.cpp:159] Memory required for data: 962068992
I0122 16:59:12.816681 64218 layer_factory.hpp:77] Creating layer inception_6a/1x1/relu1
I0122 16:59:12.816686 64218 net.cpp:94] Creating Layer inception_6a/1x1/relu1
I0122 16:59:12.816689 64218 net.cpp:435] inception_6a/1x1/relu1 <- inception_6a/1x1
I0122 16:59:12.816695 64218 net.cpp:396] inception_6a/1x1/relu1 -> inception_6a/1x1 (in-place)
I0122 16:59:12.816704 64218 net.cpp:144] Setting up inception_6a/1x1/relu1
I0122 16:59:12.816709 64218 net.cpp:151] Top shape: 128 96 16 16 (3145728)
I0122 16:59:12.816711 64218 net.cpp:159] Memory required for data: 974651904
I0122 16:59:12.816715 64218 layer_factory.hpp:77] Creating layer inception_6a/3x3
I0122 16:59:12.816725 64218 net.cpp:94] Creating Layer inception_6a/3x3
I0122 16:59:12.816730 64218 net.cpp:435] inception_6a/3x3 <- inception_5a/output_inception_5a/output_0_split_1
I0122 16:59:12.816736 64218 net.cpp:409] inception_6a/3x3 -> inception_6a/3x3
I0122 16:59:12.817507 64218 net.cpp:144] Setting up inception_6a/3x3
I0122 16:59:12.817517 64218 net.cpp:151] Top shape: 128 64 16 16 (2097152)
I0122 16:59:12.817520 64218 net.cpp:159] Memory required for data: 983040512
I0122 16:59:12.817533 64218 layer_factory.hpp:77] Creating layer inception_6a/3x3/bn1
I0122 16:59:12.817543 64218 net.cpp:94] Creating Layer inception_6a/3x3/bn1
I0122 16:59:12.817549 64218 net.cpp:435] inception_6a/3x3/bn1 <- inception_6a/3x3
I0122 16:59:12.817556 64218 net.cpp:396] inception_6a/3x3/bn1 -> inception_6a/3x3 (in-place)
I0122 16:59:12.818243 64218 net.cpp:144] Setting up inception_6a/3x3/bn1
I0122 16:59:12.818250 64218 net.cpp:151] Top shape: 128 64 16 16 (2097152)
I0122 16:59:12.818254 64218 net.cpp:159] Memory required for data: 991429120
I0122 16:59:12.818262 64218 layer_factory.hpp:77] Creating layer inception_6a/3x3/relu1
I0122 16:59:12.818267 64218 net.cpp:94] Creating Layer inception_6a/3x3/relu1
I0122 16:59:12.818270 64218 net.cpp:435] inception_6a/3x3/relu1 <- inception_6a/3x3
I0122 16:59:12.818276 64218 net.cpp:396] inception_6a/3x3/relu1 -> inception_6a/3x3 (in-place)
I0122 16:59:12.818282 64218 net.cpp:144] Setting up inception_6a/3x3/relu1
I0122 16:59:12.818285 64218 net.cpp:151] Top shape: 128 64 16 16 (2097152)
I0122 16:59:12.818289 64218 net.cpp:159] Memory required for data: 999817728
I0122 16:59:12.818292 64218 layer_factory.hpp:77] Creating layer inception_6a/output
I0122 16:59:12.818297 64218 net.cpp:94] Creating Layer inception_6a/output
I0122 16:59:12.818301 64218 net.cpp:435] inception_6a/output <- inception_6a/1x1
I0122 16:59:12.818305 64218 net.cpp:435] inception_6a/output <- inception_6a/3x3
I0122 16:59:12.818310 64218 net.cpp:409] inception_6a/output -> inception_6a/output
I0122 16:59:12.818329 64218 net.cpp:144] Setting up inception_6a/output
I0122 16:59:12.818336 64218 net.cpp:151] Top shape: 128 160 16 16 (5242880)
I0122 16:59:12.818339 64218 net.cpp:159] Memory required for data: 1020789248
I0122 16:59:12.818342 64218 layer_factory.hpp:77] Creating layer inception_6a/output_inception_6a/output_0_split
I0122 16:59:12.818349 64218 net.cpp:94] Creating Layer inception_6a/output_inception_6a/output_0_split
I0122 16:59:12.818354 64218 net.cpp:435] inception_6a/output_inception_6a/output_0_split <- inception_6a/output
I0122 16:59:12.818361 64218 net.cpp:409] inception_6a/output_inception_6a/output_0_split -> inception_6a/output_inception_6a/output_0_split_0
I0122 16:59:12.818367 64218 net.cpp:409] inception_6a/output_inception_6a/output_0_split -> inception_6a/output_inception_6a/output_0_split_1
I0122 16:59:12.818394 64218 net.cpp:144] Setting up inception_6a/output_inception_6a/output_0_split
I0122 16:59:12.818401 64218 net.cpp:151] Top shape: 128 160 16 16 (5242880)
I0122 16:59:12.818418 64218 net.cpp:151] Top shape: 128 160 16 16 (5242880)
I0122 16:59:12.818420 64218 net.cpp:159] Memory required for data: 1062732288
I0122 16:59:12.818423 64218 layer_factory.hpp:77] Creating layer inception_7a/1x1
I0122 16:59:12.818433 64218 net.cpp:94] Creating Layer inception_7a/1x1
I0122 16:59:12.818439 64218 net.cpp:435] inception_7a/1x1 <- inception_6a/output_inception_6a/output_0_split_0
I0122 16:59:12.818445 64218 net.cpp:409] inception_7a/1x1 -> inception_7a/1x1
I0122 16:59:12.818769 64218 net.cpp:144] Setting up inception_7a/1x1
I0122 16:59:12.818775 64218 net.cpp:151] Top shape: 128 80 16 16 (2621440)
I0122 16:59:12.818778 64218 net.cpp:159] Memory required for data: 1073218048
I0122 16:59:12.818784 64218 layer_factory.hpp:77] Creating layer inception_7a/1x1/bn1
I0122 16:59:12.818791 64218 net.cpp:94] Creating Layer inception_7a/1x1/bn1
I0122 16:59:12.818794 64218 net.cpp:435] inception_7a/1x1/bn1 <- inception_7a/1x1
I0122 16:59:12.818800 64218 net.cpp:396] inception_7a/1x1/bn1 -> inception_7a/1x1 (in-place)
I0122 16:59:12.819571 64218 net.cpp:144] Setting up inception_7a/1x1/bn1
I0122 16:59:12.819577 64218 net.cpp:151] Top shape: 128 80 16 16 (2621440)
I0122 16:59:12.819581 64218 net.cpp:159] Memory required for data: 1083703808
I0122 16:59:12.819587 64218 layer_factory.hpp:77] Creating layer inception_7a/1x1/relu1
I0122 16:59:12.819595 64218 net.cpp:94] Creating Layer inception_7a/1x1/relu1
I0122 16:59:12.819598 64218 net.cpp:435] inception_7a/1x1/relu1 <- inception_7a/1x1
I0122 16:59:12.819603 64218 net.cpp:396] inception_7a/1x1/relu1 -> inception_7a/1x1 (in-place)
I0122 16:59:12.819614 64218 net.cpp:144] Setting up inception_7a/1x1/relu1
I0122 16:59:12.819620 64218 net.cpp:151] Top shape: 128 80 16 16 (2621440)
I0122 16:59:12.819622 64218 net.cpp:159] Memory required for data: 1094189568
I0122 16:59:12.819627 64218 layer_factory.hpp:77] Creating layer inception_7a/3x3
I0122 16:59:12.819636 64218 net.cpp:94] Creating Layer inception_7a/3x3
I0122 16:59:12.819641 64218 net.cpp:435] inception_7a/3x3 <- inception_6a/output_inception_6a/output_0_split_1
I0122 16:59:12.819648 64218 net.cpp:409] inception_7a/3x3 -> inception_7a/3x3
I0122 16:59:12.820673 64218 net.cpp:144] Setting up inception_7a/3x3
I0122 16:59:12.820683 64218 net.cpp:151] Top shape: 128 80 16 16 (2621440)
I0122 16:59:12.820686 64218 net.cpp:159] Memory required for data: 1104675328
I0122 16:59:12.820693 64218 layer_factory.hpp:77] Creating layer inception_7a/3x3/bn1
I0122 16:59:12.820701 64218 net.cpp:94] Creating Layer inception_7a/3x3/bn1
I0122 16:59:12.820704 64218 net.cpp:435] inception_7a/3x3/bn1 <- inception_7a/3x3
I0122 16:59:12.820713 64218 net.cpp:396] inception_7a/3x3/bn1 -> inception_7a/3x3 (in-place)
I0122 16:59:12.821383 64218 net.cpp:144] Setting up inception_7a/3x3/bn1
I0122 16:59:12.821390 64218 net.cpp:151] Top shape: 128 80 16 16 (2621440)
I0122 16:59:12.821394 64218 net.cpp:159] Memory required for data: 1115161088
I0122 16:59:12.821403 64218 layer_factory.hpp:77] Creating layer inception_7a/3x3/relu1
I0122 16:59:12.821408 64218 net.cpp:94] Creating Layer inception_7a/3x3/relu1
I0122 16:59:12.821410 64218 net.cpp:435] inception_7a/3x3/relu1 <- inception_7a/3x3
I0122 16:59:12.821416 64218 net.cpp:396] inception_7a/3x3/relu1 -> inception_7a/3x3 (in-place)
I0122 16:59:12.821424 64218 net.cpp:144] Setting up inception_7a/3x3/relu1
I0122 16:59:12.821430 64218 net.cpp:151] Top shape: 128 80 16 16 (2621440)
I0122 16:59:12.821434 64218 net.cpp:159] Memory required for data: 1125646848
I0122 16:59:12.821435 64218 layer_factory.hpp:77] Creating layer inception_7a/output
I0122 16:59:12.821441 64218 net.cpp:94] Creating Layer inception_7a/output
I0122 16:59:12.821444 64218 net.cpp:435] inception_7a/output <- inception_7a/1x1
I0122 16:59:12.821447 64218 net.cpp:435] inception_7a/output <- inception_7a/3x3
I0122 16:59:12.821454 64218 net.cpp:409] inception_7a/output -> inception_7a/output
I0122 16:59:12.821475 64218 net.cpp:144] Setting up inception_7a/output
I0122 16:59:12.821482 64218 net.cpp:151] Top shape: 128 160 16 16 (5242880)
I0122 16:59:12.821494 64218 net.cpp:159] Memory required for data: 1146618368
I0122 16:59:12.821496 64218 layer_factory.hpp:77] Creating layer inception_7a/output_inception_7a/output_0_split
I0122 16:59:12.821503 64218 net.cpp:94] Creating Layer inception_7a/output_inception_7a/output_0_split
I0122 16:59:12.821506 64218 net.cpp:435] inception_7a/output_inception_7a/output_0_split <- inception_7a/output
I0122 16:59:12.821512 64218 net.cpp:409] inception_7a/output_inception_7a/output_0_split -> inception_7a/output_inception_7a/output_0_split_0
I0122 16:59:12.821518 64218 net.cpp:409] inception_7a/output_inception_7a/output_0_split -> inception_7a/output_inception_7a/output_0_split_1
I0122 16:59:12.821555 64218 net.cpp:144] Setting up inception_7a/output_inception_7a/output_0_split
I0122 16:59:12.821560 64218 net.cpp:151] Top shape: 128 160 16 16 (5242880)
I0122 16:59:12.821563 64218 net.cpp:151] Top shape: 128 160 16 16 (5242880)
I0122 16:59:12.821566 64218 net.cpp:159] Memory required for data: 1188561408
I0122 16:59:12.821569 64218 layer_factory.hpp:77] Creating layer inception_8a/1x1
I0122 16:59:12.821578 64218 net.cpp:94] Creating Layer inception_8a/1x1
I0122 16:59:12.821581 64218 net.cpp:435] inception_8a/1x1 <- inception_7a/output_inception_7a/output_0_split_0
I0122 16:59:12.821588 64218 net.cpp:409] inception_8a/1x1 -> inception_8a/1x1
I0122 16:59:12.822021 64218 net.cpp:144] Setting up inception_8a/1x1
I0122 16:59:12.822027 64218 net.cpp:151] Top shape: 128 48 16 16 (1572864)
I0122 16:59:12.822031 64218 net.cpp:159] Memory required for data: 1194852864
I0122 16:59:12.822036 64218 layer_factory.hpp:77] Creating layer inception_8a/1x1/bn1
I0122 16:59:12.822043 64218 net.cpp:94] Creating Layer inception_8a/1x1/bn1
I0122 16:59:12.822048 64218 net.cpp:435] inception_8a/1x1/bn1 <- inception_8a/1x1
I0122 16:59:12.822054 64218 net.cpp:396] inception_8a/1x1/bn1 -> inception_8a/1x1 (in-place)
I0122 16:59:12.822726 64218 net.cpp:144] Setting up inception_8a/1x1/bn1
I0122 16:59:12.822733 64218 net.cpp:151] Top shape: 128 48 16 16 (1572864)
I0122 16:59:12.822736 64218 net.cpp:159] Memory required for data: 1201144320
I0122 16:59:12.822743 64218 layer_factory.hpp:77] Creating layer inception_8a/1x1/relu1
I0122 16:59:12.822748 64218 net.cpp:94] Creating Layer inception_8a/1x1/relu1
I0122 16:59:12.822751 64218 net.cpp:435] inception_8a/1x1/relu1 <- inception_8a/1x1
I0122 16:59:12.822757 64218 net.cpp:396] inception_8a/1x1/relu1 -> inception_8a/1x1 (in-place)
I0122 16:59:12.822765 64218 net.cpp:144] Setting up inception_8a/1x1/relu1
I0122 16:59:12.822768 64218 net.cpp:151] Top shape: 128 48 16 16 (1572864)
I0122 16:59:12.822772 64218 net.cpp:159] Memory required for data: 1207435776
I0122 16:59:12.822774 64218 layer_factory.hpp:77] Creating layer inception_8a/3x3
I0122 16:59:12.822782 64218 net.cpp:94] Creating Layer inception_8a/3x3
I0122 16:59:12.822788 64218 net.cpp:435] inception_8a/3x3 <- inception_7a/output_inception_7a/output_0_split_1
I0122 16:59:12.822794 64218 net.cpp:409] inception_8a/3x3 -> inception_8a/3x3
I0122 16:59:12.824553 64218 net.cpp:144] Setting up inception_8a/3x3
I0122 16:59:12.824566 64218 net.cpp:151] Top shape: 128 96 16 16 (3145728)
I0122 16:59:12.824569 64218 net.cpp:159] Memory required for data: 1220018688
I0122 16:59:12.824586 64218 layer_factory.hpp:77] Creating layer inception_8a/3x3/bn1
I0122 16:59:12.824599 64218 net.cpp:94] Creating Layer inception_8a/3x3/bn1
I0122 16:59:12.824604 64218 net.cpp:435] inception_8a/3x3/bn1 <- inception_8a/3x3
I0122 16:59:12.824609 64218 net.cpp:396] inception_8a/3x3/bn1 -> inception_8a/3x3 (in-place)
I0122 16:59:12.825291 64218 net.cpp:144] Setting up inception_8a/3x3/bn1
I0122 16:59:12.825297 64218 net.cpp:151] Top shape: 128 96 16 16 (3145728)
I0122 16:59:12.825300 64218 net.cpp:159] Memory required for data: 1232601600
I0122 16:59:12.825309 64218 layer_factory.hpp:77] Creating layer inception_8a/3x3/relu1
I0122 16:59:12.825315 64218 net.cpp:94] Creating Layer inception_8a/3x3/relu1
I0122 16:59:12.825320 64218 net.cpp:435] inception_8a/3x3/relu1 <- inception_8a/3x3
I0122 16:59:12.825340 64218 net.cpp:396] inception_8a/3x3/relu1 -> inception_8a/3x3 (in-place)
I0122 16:59:12.825346 64218 net.cpp:144] Setting up inception_8a/3x3/relu1
I0122 16:59:12.825350 64218 net.cpp:151] Top shape: 128 96 16 16 (3145728)
I0122 16:59:12.825353 64218 net.cpp:159] Memory required for data: 1245184512
I0122 16:59:12.825356 64218 layer_factory.hpp:77] Creating layer inception_8a/output
I0122 16:59:12.825362 64218 net.cpp:94] Creating Layer inception_8a/output
I0122 16:59:12.825368 64218 net.cpp:435] inception_8a/output <- inception_8a/1x1
I0122 16:59:12.825371 64218 net.cpp:435] inception_8a/output <- inception_8a/3x3
I0122 16:59:12.825376 64218 net.cpp:409] inception_8a/output -> inception_8a/output
I0122 16:59:12.825397 64218 net.cpp:144] Setting up inception_8a/output
I0122 16:59:12.825402 64218 net.cpp:151] Top shape: 128 144 16 16 (4718592)
I0122 16:59:12.825405 64218 net.cpp:159] Memory required for data: 1264058880
I0122 16:59:12.825407 64218 layer_factory.hpp:77] Creating layer inception_8a/output_inception_8a/output_0_split
I0122 16:59:12.825413 64218 net.cpp:94] Creating Layer inception_8a/output_inception_8a/output_0_split
I0122 16:59:12.825418 64218 net.cpp:435] inception_8a/output_inception_8a/output_0_split <- inception_8a/output
I0122 16:59:12.825423 64218 net.cpp:409] inception_8a/output_inception_8a/output_0_split -> inception_8a/output_inception_8a/output_0_split_0
I0122 16:59:12.825429 64218 net.cpp:409] inception_8a/output_inception_8a/output_0_split -> inception_8a/output_inception_8a/output_0_split_1
I0122 16:59:12.825459 64218 net.cpp:144] Setting up inception_8a/output_inception_8a/output_0_split
I0122 16:59:12.825465 64218 net.cpp:151] Top shape: 128 144 16 16 (4718592)
I0122 16:59:12.825469 64218 net.cpp:151] Top shape: 128 144 16 16 (4718592)
I0122 16:59:12.825471 64218 net.cpp:159] Memory required for data: 1301807616
I0122 16:59:12.825475 64218 layer_factory.hpp:77] Creating layer downsample_9/3x3_s2
I0122 16:59:12.825485 64218 net.cpp:94] Creating Layer downsample_9/3x3_s2
I0122 16:59:12.825490 64218 net.cpp:435] downsample_9/3x3_s2 <- inception_8a/output_inception_8a/output_0_split_0
I0122 16:59:12.825496 64218 net.cpp:409] downsample_9/3x3_s2 -> downsample_9/3x3_s2
I0122 16:59:12.826444 64218 net.cpp:144] Setting up downsample_9/3x3_s2
I0122 16:59:12.826455 64218 net.cpp:151] Top shape: 128 96 8 8 (786432)
I0122 16:59:12.826457 64218 net.cpp:159] Memory required for data: 1304953344
I0122 16:59:12.826463 64218 layer_factory.hpp:77] Creating layer downsample_9/3x3_s2/bn1
I0122 16:59:12.826470 64218 net.cpp:94] Creating Layer downsample_9/3x3_s2/bn1
I0122 16:59:12.826476 64218 net.cpp:435] downsample_9/3x3_s2/bn1 <- downsample_9/3x3_s2
I0122 16:59:12.826484 64218 net.cpp:396] downsample_9/3x3_s2/bn1 -> downsample_9/3x3_s2 (in-place)
I0122 16:59:12.827173 64218 net.cpp:144] Setting up downsample_9/3x3_s2/bn1
I0122 16:59:12.827180 64218 net.cpp:151] Top shape: 128 96 8 8 (786432)
I0122 16:59:12.827183 64218 net.cpp:159] Memory required for data: 1308099072
I0122 16:59:12.827191 64218 layer_factory.hpp:77] Creating layer downsample_9/3x3_s2/relu1
I0122 16:59:12.827198 64218 net.cpp:94] Creating Layer downsample_9/3x3_s2/relu1
I0122 16:59:12.827200 64218 net.cpp:435] downsample_9/3x3_s2/relu1 <- downsample_9/3x3_s2
I0122 16:59:12.827209 64218 net.cpp:396] downsample_9/3x3_s2/relu1 -> downsample_9/3x3_s2 (in-place)
I0122 16:59:12.827215 64218 net.cpp:144] Setting up downsample_9/3x3_s2/relu1
I0122 16:59:12.827221 64218 net.cpp:151] Top shape: 128 96 8 8 (786432)
I0122 16:59:12.827224 64218 net.cpp:159] Memory required for data: 1311244800
I0122 16:59:12.827226 64218 layer_factory.hpp:77] Creating layer downsample_9/pool_s2
I0122 16:59:12.827234 64218 net.cpp:94] Creating Layer downsample_9/pool_s2
I0122 16:59:12.827239 64218 net.cpp:435] downsample_9/pool_s2 <- inception_8a/output_inception_8a/output_0_split_1
I0122 16:59:12.827244 64218 net.cpp:409] downsample_9/pool_s2 -> downsample_9/pool_s2
I0122 16:59:12.827275 64218 net.cpp:144] Setting up downsample_9/pool_s2
I0122 16:59:12.827291 64218 net.cpp:151] Top shape: 128 144 8 8 (1179648)
I0122 16:59:12.827293 64218 net.cpp:159] Memory required for data: 1315963392
I0122 16:59:12.827296 64218 layer_factory.hpp:77] Creating layer downsample_9/output
I0122 16:59:12.827301 64218 net.cpp:94] Creating Layer downsample_9/output
I0122 16:59:12.827304 64218 net.cpp:435] downsample_9/output <- downsample_9/3x3_s2
I0122 16:59:12.827307 64218 net.cpp:435] downsample_9/output <- downsample_9/pool_s2
I0122 16:59:12.827314 64218 net.cpp:409] downsample_9/output -> downsample_9/output
I0122 16:59:12.827333 64218 net.cpp:144] Setting up downsample_9/output
I0122 16:59:12.827338 64218 net.cpp:151] Top shape: 128 240 8 8 (1966080)
I0122 16:59:12.827342 64218 net.cpp:159] Memory required for data: 1323827712
I0122 16:59:12.827343 64218 layer_factory.hpp:77] Creating layer downsample_9/output_downsample_9/output_0_split
I0122 16:59:12.827353 64218 net.cpp:94] Creating Layer downsample_9/output_downsample_9/output_0_split
I0122 16:59:12.827358 64218 net.cpp:435] downsample_9/output_downsample_9/output_0_split <- downsample_9/output
I0122 16:59:12.827363 64218 net.cpp:409] downsample_9/output_downsample_9/output_0_split -> downsample_9/output_downsample_9/output_0_split_0
I0122 16:59:12.827368 64218 net.cpp:409] downsample_9/output_downsample_9/output_0_split -> downsample_9/output_downsample_9/output_0_split_1
I0122 16:59:12.827397 64218 net.cpp:144] Setting up downsample_9/output_downsample_9/output_0_split
I0122 16:59:12.827402 64218 net.cpp:151] Top shape: 128 240 8 8 (1966080)
I0122 16:59:12.827406 64218 net.cpp:151] Top shape: 128 240 8 8 (1966080)
I0122 16:59:12.827409 64218 net.cpp:159] Memory required for data: 1339556352
I0122 16:59:12.827412 64218 layer_factory.hpp:77] Creating layer inception_10a/1x1
I0122 16:59:12.827421 64218 net.cpp:94] Creating Layer inception_10a/1x1
I0122 16:59:12.827425 64218 net.cpp:435] inception_10a/1x1 <- downsample_9/output_downsample_9/output_0_split_0
I0122 16:59:12.827432 64218 net.cpp:409] inception_10a/1x1 -> inception_10a/1x1
I0122 16:59:12.827898 64218 net.cpp:144] Setting up inception_10a/1x1
I0122 16:59:12.827904 64218 net.cpp:151] Top shape: 128 176 8 8 (1441792)
I0122 16:59:12.827908 64218 net.cpp:159] Memory required for data: 1345323520
I0122 16:59:12.827913 64218 layer_factory.hpp:77] Creating layer inception_10a/1x1/bn1
I0122 16:59:12.827920 64218 net.cpp:94] Creating Layer inception_10a/1x1/bn1
I0122 16:59:12.827925 64218 net.cpp:435] inception_10a/1x1/bn1 <- inception_10a/1x1
I0122 16:59:12.827931 64218 net.cpp:396] inception_10a/1x1/bn1 -> inception_10a/1x1 (in-place)
I0122 16:59:12.828604 64218 net.cpp:144] Setting up inception_10a/1x1/bn1
I0122 16:59:12.828611 64218 net.cpp:151] Top shape: 128 176 8 8 (1441792)
I0122 16:59:12.828614 64218 net.cpp:159] Memory required for data: 1351090688
I0122 16:59:12.828622 64218 layer_factory.hpp:77] Creating layer inception_10a/1x1/relu1
I0122 16:59:12.828641 64218 net.cpp:94] Creating Layer inception_10a/1x1/relu1
I0122 16:59:12.828647 64218 net.cpp:435] inception_10a/1x1/relu1 <- inception_10a/1x1
I0122 16:59:12.828652 64218 net.cpp:396] inception_10a/1x1/relu1 -> inception_10a/1x1 (in-place)
I0122 16:59:12.828658 64218 net.cpp:144] Setting up inception_10a/1x1/relu1
I0122 16:59:12.828662 64218 net.cpp:151] Top shape: 128 176 8 8 (1441792)
I0122 16:59:12.828665 64218 net.cpp:159] Memory required for data: 1356857856
I0122 16:59:12.828667 64218 layer_factory.hpp:77] Creating layer inception_10a/3x3
I0122 16:59:12.828678 64218 net.cpp:94] Creating Layer inception_10a/3x3
I0122 16:59:12.828683 64218 net.cpp:435] inception_10a/3x3 <- downsample_9/output_downsample_9/output_0_split_1
I0122 16:59:12.828689 64218 net.cpp:409] inception_10a/3x3 -> inception_10a/3x3
I0122 16:59:12.831926 64218 net.cpp:144] Setting up inception_10a/3x3
I0122 16:59:12.831938 64218 net.cpp:151] Top shape: 128 160 8 8 (1310720)
I0122 16:59:12.831941 64218 net.cpp:159] Memory required for data: 1362100736
I0122 16:59:12.831948 64218 layer_factory.hpp:77] Creating layer inception_10a/3x3/bn1
I0122 16:59:12.831982 64218 net.cpp:94] Creating Layer inception_10a/3x3/bn1
I0122 16:59:12.831987 64218 net.cpp:435] inception_10a/3x3/bn1 <- inception_10a/3x3
I0122 16:59:12.831995 64218 net.cpp:396] inception_10a/3x3/bn1 -> inception_10a/3x3 (in-place)
I0122 16:59:12.832643 64218 net.cpp:144] Setting up inception_10a/3x3/bn1
I0122 16:59:12.832650 64218 net.cpp:151] Top shape: 128 160 8 8 (1310720)
I0122 16:59:12.832653 64218 net.cpp:159] Memory required for data: 1367343616
I0122 16:59:12.832660 64218 layer_factory.hpp:77] Creating layer inception_10a/3x3/relu1
I0122 16:59:12.832669 64218 net.cpp:94] Creating Layer inception_10a/3x3/relu1
I0122 16:59:12.832671 64218 net.cpp:435] inception_10a/3x3/relu1 <- inception_10a/3x3
I0122 16:59:12.832675 64218 net.cpp:396] inception_10a/3x3/relu1 -> inception_10a/3x3 (in-place)
I0122 16:59:12.832684 64218 net.cpp:144] Setting up inception_10a/3x3/relu1
I0122 16:59:12.832691 64218 net.cpp:151] Top shape: 128 160 8 8 (1310720)
I0122 16:59:12.832693 64218 net.cpp:159] Memory required for data: 1372586496
I0122 16:59:12.832696 64218 layer_factory.hpp:77] Creating layer inception_10a/output
I0122 16:59:12.832700 64218 net.cpp:94] Creating Layer inception_10a/output
I0122 16:59:12.832705 64218 net.cpp:435] inception_10a/output <- inception_10a/1x1
I0122 16:59:12.832708 64218 net.cpp:435] inception_10a/output <- inception_10a/3x3
I0122 16:59:12.832715 64218 net.cpp:409] inception_10a/output -> inception_10a/output
I0122 16:59:12.832734 64218 net.cpp:144] Setting up inception_10a/output
I0122 16:59:12.832741 64218 net.cpp:151] Top shape: 128 336 8 8 (2752512)
I0122 16:59:12.832743 64218 net.cpp:159] Memory required for data: 1383596544
I0122 16:59:12.832746 64218 layer_factory.hpp:77] Creating layer inception_10a/output_inception_10a/output_0_split
I0122 16:59:12.832751 64218 net.cpp:94] Creating Layer inception_10a/output_inception_10a/output_0_split
I0122 16:59:12.832756 64218 net.cpp:435] inception_10a/output_inception_10a/output_0_split <- inception_10a/output
I0122 16:59:12.832762 64218 net.cpp:409] inception_10a/output_inception_10a/output_0_split -> inception_10a/output_inception_10a/output_0_split_0
I0122 16:59:12.832768 64218 net.cpp:409] inception_10a/output_inception_10a/output_0_split -> inception_10a/output_inception_10a/output_0_split_1
I0122 16:59:12.832796 64218 net.cpp:144] Setting up inception_10a/output_inception_10a/output_0_split
I0122 16:59:12.832803 64218 net.cpp:151] Top shape: 128 336 8 8 (2752512)
I0122 16:59:12.832806 64218 net.cpp:151] Top shape: 128 336 8 8 (2752512)
I0122 16:59:12.832809 64218 net.cpp:159] Memory required for data: 1405616640
I0122 16:59:12.832811 64218 layer_factory.hpp:77] Creating layer inception_11a/1x1
I0122 16:59:12.832820 64218 net.cpp:94] Creating Layer inception_11a/1x1
I0122 16:59:12.832824 64218 net.cpp:435] inception_11a/1x1 <- inception_10a/output_inception_10a/output_0_split_0
I0122 16:59:12.832830 64218 net.cpp:409] inception_11a/1x1 -> inception_11a/1x1
I0122 16:59:12.833395 64218 net.cpp:144] Setting up inception_11a/1x1
I0122 16:59:12.833403 64218 net.cpp:151] Top shape: 128 176 8 8 (1441792)
I0122 16:59:12.833406 64218 net.cpp:159] Memory required for data: 1411383808
I0122 16:59:12.833411 64218 layer_factory.hpp:77] Creating layer inception_11a/1x1/bn1
I0122 16:59:12.833418 64218 net.cpp:94] Creating Layer inception_11a/1x1/bn1
I0122 16:59:12.833425 64218 net.cpp:435] inception_11a/1x1/bn1 <- inception_11a/1x1
I0122 16:59:12.833431 64218 net.cpp:396] inception_11a/1x1/bn1 -> inception_11a/1x1 (in-place)
I0122 16:59:12.834120 64218 net.cpp:144] Setting up inception_11a/1x1/bn1
I0122 16:59:12.834128 64218 net.cpp:151] Top shape: 128 176 8 8 (1441792)
I0122 16:59:12.834132 64218 net.cpp:159] Memory required for data: 1417150976
I0122 16:59:12.834139 64218 layer_factory.hpp:77] Creating layer inception_11a/1x1/relu1
I0122 16:59:12.834146 64218 net.cpp:94] Creating Layer inception_11a/1x1/relu1
I0122 16:59:12.834149 64218 net.cpp:435] inception_11a/1x1/relu1 <- inception_11a/1x1
I0122 16:59:12.834154 64218 net.cpp:396] inception_11a/1x1/relu1 -> inception_11a/1x1 (in-place)
I0122 16:59:12.834172 64218 net.cpp:144] Setting up inception_11a/1x1/relu1
I0122 16:59:12.834177 64218 net.cpp:151] Top shape: 128 176 8 8 (1441792)
I0122 16:59:12.834179 64218 net.cpp:159] Memory required for data: 1422918144
I0122 16:59:12.834183 64218 layer_factory.hpp:77] Creating layer inception_11a/3x3
I0122 16:59:12.834193 64218 net.cpp:94] Creating Layer inception_11a/3x3
I0122 16:59:12.834197 64218 net.cpp:435] inception_11a/3x3 <- inception_10a/output_inception_10a/output_0_split_1
I0122 16:59:12.834203 64218 net.cpp:409] inception_11a/3x3 -> inception_11a/3x3
I0122 16:59:12.837958 64218 net.cpp:144] Setting up inception_11a/3x3
I0122 16:59:12.837970 64218 net.cpp:151] Top shape: 128 160 8 8 (1310720)
I0122 16:59:12.837973 64218 net.cpp:159] Memory required for data: 1428161024
I0122 16:59:12.837978 64218 layer_factory.hpp:77] Creating layer inception_11a/3x3/bn1
I0122 16:59:12.837988 64218 net.cpp:94] Creating Layer inception_11a/3x3/bn1
I0122 16:59:12.837991 64218 net.cpp:435] inception_11a/3x3/bn1 <- inception_11a/3x3
I0122 16:59:12.837997 64218 net.cpp:396] inception_11a/3x3/bn1 -> inception_11a/3x3 (in-place)
I0122 16:59:12.838650 64218 net.cpp:144] Setting up inception_11a/3x3/bn1
I0122 16:59:12.838659 64218 net.cpp:151] Top shape: 128 160 8 8 (1310720)
I0122 16:59:12.838661 64218 net.cpp:159] Memory required for data: 1433403904
I0122 16:59:12.838680 64218 layer_factory.hpp:77] Creating layer inception_11a/3x3/relu1
I0122 16:59:12.838686 64218 net.cpp:94] Creating Layer inception_11a/3x3/relu1
I0122 16:59:12.838690 64218 net.cpp:435] inception_11a/3x3/relu1 <- inception_11a/3x3
I0122 16:59:12.838696 64218 net.cpp:396] inception_11a/3x3/relu1 -> inception_11a/3x3 (in-place)
I0122 16:59:12.838702 64218 net.cpp:144] Setting up inception_11a/3x3/relu1
I0122 16:59:12.838708 64218 net.cpp:151] Top shape: 128 160 8 8 (1310720)
I0122 16:59:12.838711 64218 net.cpp:159] Memory required for data: 1438646784
I0122 16:59:12.838714 64218 layer_factory.hpp:77] Creating layer inception_11a/output
I0122 16:59:12.838718 64218 net.cpp:94] Creating Layer inception_11a/output
I0122 16:59:12.838721 64218 net.cpp:435] inception_11a/output <- inception_11a/1x1
I0122 16:59:12.838726 64218 net.cpp:435] inception_11a/output <- inception_11a/3x3
I0122 16:59:12.838730 64218 net.cpp:409] inception_11a/output -> inception_11a/output
I0122 16:59:12.838747 64218 net.cpp:144] Setting up inception_11a/output
I0122 16:59:12.838753 64218 net.cpp:151] Top shape: 128 336 8 8 (2752512)
I0122 16:59:12.838757 64218 net.cpp:159] Memory required for data: 1449656832
I0122 16:59:12.838759 64218 layer_factory.hpp:77] Creating layer avg_pool_12/8x8_s1
I0122 16:59:12.838764 64218 net.cpp:94] Creating Layer avg_pool_12/8x8_s1
I0122 16:59:12.838768 64218 net.cpp:435] avg_pool_12/8x8_s1 <- inception_11a/output
I0122 16:59:12.838773 64218 net.cpp:409] avg_pool_12/8x8_s1 -> avg_pool_12/8x8_s1
I0122 16:59:12.838798 64218 net.cpp:144] Setting up avg_pool_12/8x8_s1
I0122 16:59:12.838804 64218 net.cpp:151] Top shape: 128 336 1 1 (43008)
I0122 16:59:12.838806 64218 net.cpp:159] Memory required for data: 1449828864
I0122 16:59:12.838809 64218 layer_factory.hpp:77] Creating layer drop_8x8_s1
I0122 16:59:12.838814 64218 net.cpp:94] Creating Layer drop_8x8_s1
I0122 16:59:12.838816 64218 net.cpp:435] drop_8x8_s1 <- avg_pool_12/8x8_s1
I0122 16:59:12.838821 64218 net.cpp:396] drop_8x8_s1 -> avg_pool_12/8x8_s1 (in-place)
I0122 16:59:12.838840 64218 net.cpp:144] Setting up drop_8x8_s1
I0122 16:59:12.838845 64218 net.cpp:151] Top shape: 128 336 1 1 (43008)
I0122 16:59:12.838846 64218 net.cpp:159] Memory required for data: 1450000896
I0122 16:59:12.838848 64218 layer_factory.hpp:77] Creating layer loss/classifier
I0122 16:59:12.838856 64218 net.cpp:94] Creating Layer loss/classifier
I0122 16:59:12.838860 64218 net.cpp:435] loss/classifier <- avg_pool_12/8x8_s1
I0122 16:59:12.838865 64218 net.cpp:409] loss/classifier -> loss/classifier
I0122 16:59:12.839001 64218 net.cpp:144] Setting up loss/classifier
I0122 16:59:12.839016 64218 net.cpp:151] Top shape: 128 10 (1280)
I0122 16:59:12.839020 64218 net.cpp:159] Memory required for data: 1450006016
I0122 16:59:12.839025 64218 layer_factory.hpp:77] Creating layer loss
I0122 16:59:12.839030 64218 net.cpp:94] Creating Layer loss
I0122 16:59:12.839032 64218 net.cpp:435] loss <- loss/classifier
I0122 16:59:12.839036 64218 net.cpp:435] loss <- label
I0122 16:59:12.839040 64218 net.cpp:409] loss -> loss
I0122 16:59:12.839049 64218 layer_factory.hpp:77] Creating layer loss
…
I0122 16:59:12.840369 64218 solver.cpp:189] Creating test net (#0) specified by net file: cifar10/deephi/miniGoogleNet/pruning/regular_rate_0/net_finetune.prototxt
I0122 16:59:12.840448 64218 net.cpp:323] The NetState phase (1) differed from the phase (0) specified by a rule in layer data
I0122 16:59:12.841073 64218 net.cpp:52] Initializing net from parameters: 
state {
  phase: TEST
}
layer {
  name: "data"
  type: "Data"
  top: "data"
  top: "label"
  include {
    phase: TEST
  }
  transform_param {
    mirror: false
    mean_value: 104
    mean_value: 117
    mean_value: 123
  }
  data_param {
    source: "cifar10/input/lmdb/valid_lmdb"
    batch_size: 50
    backend: LMDB
  }
}
layer {
  name: "conv1/3x3_s1"
  type: "Convolution"
  bottom: "data"
  top: "conv1/3x3_s1"
  param {
    lr_mult: 1
    decay_mult: 1
    compression: PRUNE
  }
  param {
    lr_mult: 2
    decay_mult: 0
    compression: PRUNE
  }
  convolution_param {
    num_output: 96
    pad: 1
    kernel_size: 3
    stride: 1
    weight_filler {
      type: "xavier"
      std: 0.1
    }
    bias_filler {
      type: "constant"
      value: 0.2
    }
  }
}
layer {
  name: "conv1/bn1"
  type: "BatchNorm"
  bottom: "conv1/3x3_s1"
  top: "conv1/3x3_s1"
  param {
    lr_mult: 1
    decay_mult: 0
    compression: PRUNE
  }
  param {
    lr_mult: 1
    decay_mult: 0
    compression: PRUNE
  }
  param {
    lr_mult: 0
    decay_mult: 0
    compression: PRUNE
  }
  param {
    lr_mult: 0
    decay_mult: 0
    compression: PRUNE
  }
  batch_norm_param {
    use_global_stats: false
    scale_filler {
      type: "constant"
      value: 1
    }
    bias_filler {
      type: "constant"
      value: 0
    }
  }
}
layer {
  name: "conv1/relu1"
  type: "ReLU"
  bottom: "conv1/3x3_s1"
  top: "conv1/3x3_s1"
}
layer {
  name: "inception_2a/1x1"
  type: "Convolution"
  bottom: "conv1/3x3_s1"
  top: "inception_2a/1x1"
  param {
    lr_mult: 1
    decay_mult: 1
    compression: PRUNE
  }
  param {
    lr_mult: 2
    decay_mult: 0
    compression: PRUNE
  }
  convolution_param {
    num_output: 32
    kernel_size: 1
    weight_filler {
      type: "xavier"
      std: 0.03
    }
    bias_filler {
      type: "constant"
      value: 0.2
    }
  }
}
layer {
  name: "inception_2a/1x1/bn1"
  type: "BatchNorm"
  bottom: "inception_2a/1x1"
  top: "inception_2a/1x1"
  param {
    lr_mult: 1
    decay_mult: 0
    compression: PRUNE
  }
  param {
    lr_mult: 1
    decay_mult: 0
    compression: PRUNE
  }
  param {
    lr_mult: 0
    decay_mult: 0
    compression: PRUNE
  }
  param {
    lr_mult: 0
    decay_mult: 0
    compression: PRUNE
  }
  batch_norm_param {
    use_global_stats: false
    scale_filler {
      type: "constant"
      value: 1
    }
    bias_filler {
      type: "constant"
      value: 0
    }
  }
}
layer {
  name: "inception_2a/1x1/relu1"
  type: "ReLU"
  bottom: "inception_2a/1x1"
  top: "inception_2a/1x1"
}
layer {
  name: "inception_2a/3x3"
  type: "Convolution"
  bottom: "conv1/3x3_s1"
  top: "inception_2a/3x3"
  param {
    lr_mult: 1
    decay_mult: 1
    compression: PRUNE
  }
  param {
    lr_mult: 2
    decay_mult: 0
    compression: PRUNE
  }
  convolution_param {
    num_output: 32
    pad: 1
    kernel_size: 3
    weight_filler {
      type: "xavier"
      std: 0.03
    }
    bias_filler {
      type: "constant"
      value: 0.2
    }
  }
}
layer {
  name: "inception_2a/3x3/bn1"
  type: "BatchNorm"
  bottom: "inception_2a/3x3"
  top: "inception_2a/3x3"
  param {
    lr_mult: 1
    decay_mult: 0
    compression: PRUNE
  }
  param {
    lr_mult: 1
    decay_mult: 0
    compression: PRUNE
  }
  param {
    lr_mult: 0
    decay_mult: 0
    compression: PRUNE
  }
  param {
    lr_mult: 0
    decay_mult: 0
    compression: PRUNE
  }
  batch_norm_param {
    use_global_stats: false
    scale_filler {
      type: "constant"
      value: 1
    }
    bias_filler {
      type: "constant"
      value: 0
    }
  }
}
layer {
  name: "inception_2a/3x3/relu1"
  type: "ReLU"
  bottom: "inception_2a/3x3"
  top: "inception_2a/3x3"
}
layer {
  name: "inception_2a/output"
  type: "Concat"
  bottom: "inception_2a/1x1"
  bottom: "inception_2a/3x3"
  top: "inception_2a/output"
}
layer {
  name: "inception_3a/1x1"
  type: "Convolution"
  bottom: "inception_2a/output"
  top: "inception_3a/1x1"
  param {
    lr_mult: 1
    decay_mult: 1
    compression: PRUNE
  }
  param {
    lr_mult: 2
    decay_mult: 0
    compression: PRUNE
  }
  convolution_param {
    num_output: 32
    kernel_size: 1
    weight_filler {
      type: "xavier"
      std: 0.03
    }
    bias_filler {
      type: "constant"
      value: 0.2
    }
  }
}
layer {
  name: "inception_3a/1x1/bn1"
  type: "BatchNorm"
  bottom: "inception_3a/1x1"
  top: "inception_3a/1x1"
  param {
    lr_mult: 1
    decay_mult: 0
    compression: PRUNE
  }
  param {
    lr_mult: 1
    decay_mult: 0
    compression: PRUNE
  }
  param {
    lr_mult: 0
    decay_mult: 0
    compression: PRUNE
  }
  param {
    lr_mult: 0
    decay_mult: 0
    compression: PRUNE
  }
  batch_norm_param {
    use_global_stats: false
    scale_filler {
      type: "constant"
      value: 1
    }
    bias_filler {
      type: "constant"
      value: 0
    }
  }
}
layer {
  name: "inception_3a/1x1/relu1"
  type: "ReLU"
  bottom: "inception_3a/1x1"
  top: "inception_3a/1x1"
}
layer {
  name: "inception_3a/3x3"
  type: "Convolution"
  bottom: "inception_2a/output"
  top: "inception_3a/3x3"
  param {
    lr_mult: 1
    decay_mult: 1
    compression: PRUNE
  }
  param {
    lr_mult: 2
    decay_mult: 0
    compression: PRUNE
  }
  convolution_param {
    num_output: 48
    pad: 1
    kernel_size: 3
    weight_filler {
      type: "xavier"
      std: 0.03
    }
    bias_filler {
      type: "constant"
      value: 0.2
    }
  }
}
layer {
  name: "inception_3a/3x3/bn1"
  type: "BatchNorm"
  bottom: "inception_3a/3x3"
  top: "inception_3a/3x3"
  param {
    lr_mult: 1
    decay_mult: 0
    compression: PRUNE
  }
  param {
    lr_mult: 1
    decay_mult: 0
    compression: PRUNE
  }
  param {
    lr_mult: 0
    decay_mult: 0
    compression: PRUNE
  }
  param {
    lr_mult: 0
    decay_mult: 0
    compression: PRUNE
  }
  batch_norm_param {
    use_global_stats: false
    scale_filler {
      type: "constant"
      value: 1
    }
    bias_filler {
      type: "constant"
      value: 0
    }
  }
}
layer {
  name: "inception_3a/3x3/relu1"
  type: "ReLU"
  bottom: "inception_3a/3x3"
  top: "inception_3a/3x3"
}
layer {
  name: "inception_3a/output"
  type: "Concat"
  bottom: "inception_3a/1x1"
  bottom: "inception_3a/3x3"
  top: "inception_3a/output"
}
layer {
  name: "downsample_4/3x3_s2"
  type: "Convolution"
  bottom: "inception_3a/output"
  top: "downsample_4/3x3_s2"
  param {
    lr_mult: 1
    decay_mult: 1
    compression: PRUNE
  }
  param {
    lr_mult: 2
    decay_mult: 0
    compression: PRUNE
  }
  convolution_param {
    num_output: 80
    pad: 1
    kernel_size: 3
    stride: 2
    weight_filler {
      type: "xavier"
      std: 0.03
    }
    bias_filler {
      type: "constant"
      value: 0.2
    }
  }
}
layer {
  name: "downsample_4/3x3_s2/bn1"
  type: "BatchNorm"
  bottom: "downsample_4/3x3_s2"
  top: "downsample_4/3x3_s2"
  param {
    lr_mult: 1
    decay_mult: 0
    compression: PRUNE
  }
  param {
    lr_mult: 1
    decay_mult: 0
    compression: PRUNE
  }
  param {
    lr_mult: 0
    decay_mult: 0
    compression: PRUNE
  }
  param {
    lr_mult: 0
    decay_mult: 0
    compression: PRUNE
  }
  batch_norm_param {
    use_global_stats: false
    scale_filler {
      type: "constant"
      value: 1
    }
    bias_filler {
      type: "constant"
      value: 0
    }
  }
}
layer {
  name: "downsample_4/3x3_s2/relu1"
  type: "ReLU"
  bottom: "downsample_4/3x3_s2"
  top: "downsample_4/3x3_s2"
}
layer {
  name: "downsample_4/pool_s2"
  type: "Pooling"
  bottom: "inception_3a/output"
  top: "downsample_4/pool_s2"
  pooling_param {
    pool: MAX
    kernel_size: 3
    stride: 2
  }
}
layer {
  name: "downsample_4/output"
  type: "Concat"
  bottom: "downsample_4/3x3_s2"
  bottom: "downsample_4/pool_s2"
  top: "downsample_4/output"
}
layer {
  name: "inception_5a/1x1"
  type: "Convolution"
  bottom: "downsample_4/output"
  top: "inception_5a/1x1"
  param {
    lr_mult: 1
    decay_mult: 1
    compression: PRUNE
  }
  param {
    lr_mult: 2
    decay_mult: 0
    compression: PRUNE
  }
  convolution_param {
    num_output: 112
    kernel_size: 1
    weight_filler {
      type: "xavier"
      std: 0.03
    }
    bias_filler {
      type: "constant"
      value: 0.2
    }
  }
}
layer {
  name: "inception_5a/1x1/bn1"
  type: "BatchNorm"
  bottom: "inception_5a/1x1"
  top: "inception_5a/1x1"
  param {
    lr_mult: 1
    decay_mult: 0
    compression: PRUNE
  }
  param {
    lr_mult: 1
    decay_mult: 0
    compression: PRUNE
  }
  param {
    lr_mult: 0
    decay_mult: 0
    compression: PRUNE
  }
  param {
    lr_mult: 0
    decay_mult: 0
    compression: PRUNE
  }
  batch_norm_param {
    use_global_stats: false
    scale_filler {
      type: "constant"
      value: 1
    }
    bias_filler {
      type: "constant"
      value: 0
    }
  }
}
layer {
  name: "inception_5a/1x1/relu1"
  type: "ReLU"
  bottom: "inception_5a/1x1"
  top: "inception_5a/1x1"
}
layer {
  name: "inception_5a/3x3"
  type: "Convolution"
  bottom: "downsample_4/output"
  top: "inception_5a/3x3"
  param {
    lr_mult: 1
    decay_mult: 1
    compression: PRUNE
  }
  param {
    lr_mult: 2
    decay_mult: 0
    compression: PRUNE
  }
  convolution_param {
    num_output: 48
    pad: 1
    kernel_size: 3
    weight_filler {
      type: "xavier"
      std: 0.03
    }
    bias_filler {
      type: "constant"
      value: 0.2
    }
  }
}
layer {
  name: "inception_5a/3x3/bn1"
  type: "BatchNorm"
  bottom: "inception_5a/3x3"
  top: "inception_5a/3x3"
  param {
    lr_mult: 1
    decay_mult: 0
    compression: PRUNE
  }
  param {
    lr_mult: 1
    decay_mult: 0
    compression: PRUNE
  }
  param {
    lr_mult: 0
    decay_mult: 0
    compression: PRUNE
  }
  param {
    lr_mult: 0
    decay_mult: 0
    compression: PRUNE
  }
  batch_norm_param {
    use_global_stats: false
    scale_filler {
      type: "constant"
      value: 1
    }
    bias_filler {
      type: "constant"
      value: 0
    }
  }
}
layer {
  name: "inception_5a/3x3/relu1"
  type: "ReLU"
  bottom: "inception_5a/3x3"
  top: "inception_5a/3x3"
}
layer {
  name: "inception_5a/output"
  type: "Concat"
  bottom: "inception_5a/1x1"
  bottom: "inception_5a/3x3"
  top: "inception_5a/output"
}
layer {
  name: "inception_6a/1x1"
  type: "Convolution"
  bottom: "inception_5a/output"
  top: "inception_6a/1x1"
  param {
    lr_mult: 1
    decay_mult: 1
    compression: PRUNE
  }
  param {
    lr_mult: 2
    decay_mult: 0
    compression: PRUNE
  }
  convolution_param {
    num_output: 96
    kernel_size: 1
    weight_filler {
      type: "xavier"
      std: 0.03
    }
    bias_filler {
      type: "constant"
      value: 0.2
    }
  }
}
layer {
  name: "inception_6a/1x1/bn1"
  type: "BatchNorm"
  bottom: "inception_6a/1x1"
  top: "inception_6a/1x1"
  param {
    lr_mult: 1
    decay_mult: 0
    compression: PRUNE
  }
  param {
    lr_mult: 1
    decay_mult: 0
    compression: PRUNE
  }
  param {
    lr_mult: 0
    decay_mult: 0
    compression: PRUNE
  }
  param {
    lr_mult: 0
    decay_mult: 0
    compression: PRUNE
  }
  batch_norm_param {
    use_global_stats: false
    scale_filler {
      type: "constant"
      value: 1
    }
    bias_filler {
      type: "constant"
      value: 0
    }
  }
}
layer {
  name: "inception_6a/1x1/relu1"
  type: "ReLU"
  bottom: "inception_6a/1x1"
  top: "inception_6a/1x1"
}
layer {
  name: "inception_6a/3x3"
  type: "Convolution"
  bottom: "inception_5a/output"
  top: "inception_6a/3x3"
  param {
    lr_mult: 1
    decay_mult: 1
    compression: PRUNE
  }
  param {
    lr_mult: 2
    decay_mult: 0
    compression: PRUNE
  }
  convolution_param {
    num_output: 64
    pad: 1
    kernel_size: 3
    weight_filler {
      type: "xavier"
      std: 0.03
    }
    bias_filler {
      type: "constant"
      value: 0.2
    }
  }
}
layer {
  name: "inception_6a/3x3/bn1"
  type: "BatchNorm"
  bottom: "inception_6a/3x3"
  top: "inception_6a/3x3"
  param {
    lr_mult: 1
    decay_mult: 0
    compression: PRUNE
  }
  param {
    lr_mult: 1
    decay_mult: 0
    compression: PRUNE
  }
  param {
    lr_mult: 0
    decay_mult: 0
    compression: PRUNE
  }
  param {
    lr_mult: 0
    decay_mult: 0
    compression: PRUNE
  }
  batch_norm_param {
    use_global_stats: false
    scale_filler {
      type: "constant"
      value: 1
    }
    bias_filler {
      type: "constant"
      value: 0
    }
  }
}
layer {
  name: "inception_6a/3x3/relu1"
  type: "ReLU"
  bottom: "inception_6a/3x3"
  top: "inception_6a/3x3"
}
layer {
  name: "inception_6a/output"
  type: "Concat"
  bottom: "inception_6a/1x1"
  bottom: "inception_6a/3x3"
  top: "inception_6a/output"
}
layer {
  name: "inception_7a/1x1"
  type: "Convolution"
  bottom: "inception_6a/output"
  top: "inception_7a/1x1"
  param {
    lr_mult: 1
    decay_mult: 1
    compression: PRUNE
  }
  param {
    lr_mult: 2
    decay_mult: 0
    compression: PRUNE
  }
  convolution_param {
    num_output: 80
    kernel_size: 1
    weight_filler {
      type: "xavier"
      std: 0.03
    }
    bias_filler {
      type: "constant"
      value: 0.2
    }
  }
}
layer {
  name: "inception_7a/1x1/bn1"
  type: "BatchNorm"
  bottom: "inception_7a/1x1"
  top: "inception_7a/1x1"
  param {
    lr_mult: 1
    decay_mult: 0
    compression: PRUNE
  }
  param {
    lr_mult: 1
    decay_mult: 0
    compression: PRUNE
  }
  param {
    lr_mult: 0
    decay_mult: 0
    compression: PRUNE
  }
  param {
    lr_mult: 0
    decay_mult: 0
    compression: PRUNE
  }
  batch_norm_param {
    use_global_stats: false
    scale_filler {
      type: "constant"
      value: 1
    }
    bias_filler {
      type: "constant"
      value: 0
    }
  }
}
layer {
  name: "inception_7a/1x1/relu1"
  type: "ReLU"
  bottom: "inception_7a/1x1"
  top: "inception_7a/1x1"
}
layer {
  name: "inception_7a/3x3"
  type: "Convolution"
  bottom: "inception_6a/output"
  top: "inception_7a/3x3"
  param {
    lr_mult: 1
    decay_mult: 1
    compression: PRUNE
  }
  param {
    lr_mult: 2
    decay_mult: 0
    compression: PRUNE
  }
  convolution_param {
    num_output: 80
    pad: 1
    kernel_size: 3
    weight_filler {
      type: "xavier"
      std: 0.03
    }
    bias_filler {
      type: "constant"
      value: 0.2
    }
  }
}
layer {
  name: "inception_7a/3x3/bn1"
  type: "BatchNorm"
  bottom: "inception_7a/3x3"
  top: "inception_7a/3x3"
  param {
    lr_mult: 1
    decay_mult: 0
    compression: PRUNE
  }
  param {
    lr_mult: 1
    decay_mult: 0
    compression: PRUNE
  }
  param {
    lr_mult: 0
    decay_mult: 0
    compression: PRUNE
  }
  param {
    lr_mult: 0
    decay_mult: 0
    compression: PRUNE
  }
  batch_norm_param {
    use_global_stats: false
    scale_filler {
      type: "constant"
      value: 1
    }
    bias_filler {
      type: "constant"
      value: 0
    }
  }
}
layer {
  name: "inception_7a/3x3/relu1"
  type: "ReLU"
  bottom: "inception_7a/3x3"
  top: "inception_7a/3x3"
}
layer {
  name: "inception_7a/output"
  type: "Concat"
  bottom: "inception_7a/1x1"
  bottom: "inception_7a/3x3"
  top: "inception_7a/output"
}
layer {
  name: "inception_8a/1x1"
  type: "Convolution"
  bottom: "inception_7a/output"
  top: "inception_8a/1x1"
  param {
    lr_mult: 1
    decay_mult: 1
    compression: PRUNE
  }
  param {
    lr_mult: 2
    decay_mult: 0
    compression: PRUNE
  }
  convolution_param {
    num_output: 48
    kernel_size: 1
    weight_filler {
      type: "xavier"
      std: 0.03
    }
    bias_filler {
      type: "constant"
      value: 0.2
    }
  }
}
layer {
  name: "inception_8a/1x1/bn1"
  type: "BatchNorm"
  bottom: "inception_8a/1x1"
  top: "inception_8a/1x1"
  param {
    lr_mult: 1
    decay_mult: 0
    compression: PRUNE
  }
  param {
    lr_mult: 1
    decay_mult: 0
    compression: PRUNE
  }
  param {
    lr_mult: 0
    decay_mult: 0
    compression: PRUNE
  }
  param {
    lr_mult: 0
    decay_mult: 0
    compression: PRUNE
  }
  batch_norm_param {
    use_global_stats: false
    scale_filler {
      type: "constant"
      value: 1
    }
    bias_filler {
      type: "constant"
      value: 0
    }
  }
}
layer {
  name: "inception_8a/1x1/relu1"
  type: "ReLU"
  bottom: "inception_8a/1x1"
  top: "inception_8a/1x1"
}
layer {
  name: "inception_8a/3x3"
  type: "Convolution"
  bottom: "inception_7a/output"
  top: "inception_8a/3x3"
  param {
    lr_mult: 1
    decay_mult: 1
    compression: PRUNE
  }
  param {
    lr_mult: 2
    decay_mult: 0
    compression: PRUNE
  }
  convolution_param {
    num_output: 96
    pad: 1
    kernel_size: 3
    weight_filler {
      type: "xavier"
      std: 0.03
    }
    bias_filler {
      type: "constant"
      value: 0.2
    }
  }
}
layer {
  name: "inception_8a/3x3/bn1"
  type: "BatchNorm"
  bottom: "inception_8a/3x3"
  top: "inception_8a/3x3"
  param {
    lr_mult: 1
    decay_mult: 0
    compression: PRUNE
  }
  param {
    lr_mult: 1
    decay_mult: 0
    compression: PRUNE
  }
  param {
    lr_mult: 0
    decay_mult: 0
    compression: PRUNE
  }
  param {
    lr_mult: 0
    decay_mult: 0
    compression: PRUNE
  }
  batch_norm_param {
    use_global_stats: false
    scale_filler {
      type: "constant"
      value: 1
    }
    bias_filler {
      type: "constant"
      value: 0
    }
  }
}
layer {
  name: "inception_8a/3x3/relu1"
  type: "ReLU"
  bottom: "inception_8a/3x3"
  top: "inception_8a/3x3"
}
layer {
  name: "inception_8a/output"
  type: "Concat"
  bottom: "inception_8a/1x1"
  bottom: "inception_8a/3x3"
  top: "inception_8a/output"
}
layer {
  name: "downsample_9/3x3_s2"
  type: "Convolution"
  bottom: "inception_8a/output"
  top: "downsample_9/3x3_s2"
  param {
    lr_mult: 1
    decay_mult: 1
    compression: PRUNE
  }
  param {
    lr_mult: 2
    decay_mult: 0
    compression: PRUNE
  }
  convolution_param {
    num_output: 96
    pad: 1
    kernel_size: 3
    stride: 2
    weight_filler {
      type: "xavier"
      std: 0.03
    }
    bias_filler {
      type: "constant"
      value: 0.2
    }
  }
}
layer {
  name: "downsample_9/3x3_s2/bn1"
  type: "BatchNorm"
  bottom: "downsample_9/3x3_s2"
  top: "downsample_9/3x3_s2"
  param {
    lr_mult: 1
    decay_mult: 0
    compression: PRUNE
  }
  param {
    lr_mult: 1
    decay_mult: 0
    compression: PRUNE
  }
  param {
    lr_mult: 0
    decay_mult: 0
    compression: PRUNE
  }
  param {
    lr_mult: 0
    decay_mult: 0
    compression: PRUNE
  }
  batch_norm_param {
    use_global_stats: false
    scale_filler {
      type: "constant"
      value: 1
    }
    bias_filler {
      type: "constant"
      value: 0
    }
  }
}
layer {
  name: "downsample_9/3x3_s2/relu1"
  type: "ReLU"
  bottom: "downsample_9/3x3_s2"
  top: "downsample_9/3x3_s2"
}
layer {
  name: "downsample_9/pool_s2"
  type: "Pooling"
  bottom: "inception_8a/output"
  top: "downsample_9/pool_s2"
  pooling_param {
    pool: MAX
    kernel_size: 3
    stride: 2
  }
}
layer {
  name: "downsample_9/output"
  type: "Concat"
  bottom: "downsample_9/3x3_s2"
  bottom: "downsample_9/pool_s2"
  top: "downsample_9/output"
}
layer {
  name: "inception_10a/1x1"
  type: "Convolution"
  bottom: "downsample_9/output"
  top: "inception_10a/1x1"
  param {
    lr_mult: 1
    decay_mult: 1
    compression: PRUNE
  }
  param {
    lr_mult: 2
    decay_mult: 0
    compression: PRUNE
  }
  convolution_param {
    num_output: 176
    kernel_size: 1
    weight_filler {
      type: "xavier"
      std: 0.03
    }
    bias_filler {
      type: "constant"
      value: 0.2
    }
  }
}
layer {
  name: "inception_10a/1x1/bn1"
  type: "BatchNorm"
  bottom: "inception_10a/1x1"
  top: "inception_10a/1x1"
  param {
    lr_mult: 1
    decay_mult: 0
    compression: PRUNE
  }
  param {
    lr_mult: 1
    decay_mult: 0
    compression: PRUNE
  }
  param {
    lr_mult: 0
    decay_mult: 0
    compression: PRUNE
  }
  param {
    lr_mult: 0
    decay_mult: 0
    compression: PRUNE
  }
  batch_norm_param {
    use_global_stats: false
    scale_filler {
      type: "constant"
      value: 1
    }
    bias_filler {
      type: "constant"
      value: 0
    }
  }
}
layer {
  name: "inception_10a/1x1/relu1"
  type: "ReLU"
  bottom: "inception_10a/1x1"
  top: "inception_10a/1x1"
}
layer {
  name: "inception_10a/3x3"
  type: "Convolution"
  bottom: "downsample_9/output"
  top: "inception_10a/3x3"
  param {
    lr_mult: 1
    decay_mult: 1
    compression: PRUNE
  }
  param {
    lr_mult: 2
    decay_mult: 0
    compression: PRUNE
  }
  convolution_param {
    num_output: 160
    pad: 1
    kernel_size: 3
    weight_filler {
      type: "xavier"
      std: 0.03
    }
    bias_filler {
      type: "constant"
      value: 0.2
    }
  }
}
layer {
  name: "inception_10a/3x3/bn1"
  type: "BatchNorm"
  bottom: "inception_10a/3x3"
  top: "inception_10a/3x3"
  param {
    lr_mult: 1
    decay_mult: 0
    compression: PRUNE
  }
  param {
    lr_mult: 1
    decay_mult: 0
    compression: PRUNE
  }
  param {
    lr_mult: 0
    decay_mult: 0
    compression: PRUNE
  }
  param {
    lr_mult: 0
    decay_mult: 0
    compression: PRUNE
  }
  batch_norm_param {
    use_global_stats: false
    scale_filler {
      type: "constant"
      value: 1
    }
    bias_filler {
      type: "constant"
      value: 0
    }
  }
}
layer {
  name: "inception_10a/3x3/relu1"
  type: "ReLU"
  bottom: "inception_10a/3x3"
  top: "inception_10a/3x3"
}
layer {
  name: "inception_10a/output"
  type: "Concat"
  bottom: "inception_10a/1x1"
  bottom: "inception_10a/3x3"
  top: "inception_10a/output"
}
layer {
  name: "inception_11a/1x1"
  type: "Convolution"
  bottom: "inception_10a/output"
  top: "inception_11a/1x1"
  param {
    lr_mult: 1
    decay_mult: 1
    compression: PRUNE
  }
  param {
    lr_mult: 2
    decay_mult: 0
    compression: PRUNE
  }
  convolution_param {
    num_output: 176
    kernel_size: 1
    weight_filler {
      type: "xavier"
      std: 0.03
    }
    bias_filler {
      type: "constant"
      value: 0.2
    }
  }
}
layer {
  name: "inception_11a/1x1/bn1"
  type: "BatchNorm"
  bottom: "inception_11a/1x1"
  top: "inception_11a/1x1"
  param {
    lr_mult: 1
    decay_mult: 0
    compression: PRUNE
  }
  param {
    lr_mult: 1
    decay_mult: 0
    compression: PRUNE
  }
  param {
    lr_mult: 0
    decay_mult: 0
    compression: PRUNE
  }
  param {
    lr_mult: 0
    decay_mult: 0
    compression: PRUNE
  }
  batch_norm_param {
    use_global_stats: false
    scale_filler {
      type: "constant"
      value: 1
    }
    bias_filler {
      type: "constant"
      value: 0
    }
  }
}
layer {
  name: "inception_11a/1x1/relu1"
  type: "ReLU"
  bottom: "inception_11a/1x1"
  top: "inception_11a/1x1"
}
layer {
  name: "inception_11a/3x3"
  type: "Convolution"
  bottom: "inception_10a/output"
  top: "inception_11a/3x3"
  param {
    lr_mult: 1
    decay_mult: 1
    compression: PRUNE
  }
  param {
    lr_mult: 2
    decay_mult: 0
    compression: PRUNE
  }
  convolution_param {
    num_output: 160
    pad: 1
    kernel_size: 3
    weight_filler {
      type: "xavier"
      std: 0.03
    }
    bias_filler {
      type: "constant"
      value: 0.2
    }
  }
}
layer {
  name: "inception_11a/3x3/bn1"
  type: "BatchNorm"
  bottom: "inception_11a/3x3"
  top: "inception_11a/3x3"
  param {
    lr_mult: 1
    decay_mult: 0
    compression: PRUNE
  }
  param {
    lr_mult: 1
    decay_mult: 0
    compression: PRUNE
  }
  param {
    lr_mult: 0
    decay_mult: 0
    compression: PRUNE
  }
  param {
    lr_mult: 0
    decay_mult: 0
    compression: PRUNE
  }
  batch_norm_param {
    use_global_stats: false
    scale_filler {
      type: "constant"
      value: 1
    }
    bias_filler {
      type: "constant"
      value: 0
    }
  }
}
layer {
  name: "inception_11a/3x3/relu1"
  type: "ReLU"
  bottom: "inception_11a/3x3"
  top: "inception_11a/3x3"
}
layer {
  name: "inception_11a/output"
  type: "Concat"
  bottom: "inception_11a/1x1"
  bottom: "inception_11a/3x3"
  top: "inception_11a/output"
}
layer {
  name: "avg_pool_12/8x8_s1"
  type: "Pooling"
  bottom: "inception_11a/output"
  top: "avg_pool_12/8x8_s1"
  pooling_param {
    pool: AVE
    kernel_size: 8
    stride: 1
  }
}
layer {
  name: "drop_8x8_s1"
  type: "Dropout"
  bottom: "avg_pool_12/8x8_s1"
  top: "avg_pool_12/8x8_s1"
  dropout_param {
    dropout_ratio: 0.5
  }
}
layer {
  name: "loss/classifier"
  type: "InnerProduct"
  bottom: "avg_pool_12/8x8_s1"
  top: "loss/classifier"
  param {
    lr_mult: 1
    decay_mult: 1
  }
  param {
    lr_mult: 2
    decay_mult: 0
  }
  inner_product_param {
    num_output: 10
    weight_filler {
      type: "xavier"
    }
    bias_filler {
      type: "constant"
      value: 1
    }
  }
}
layer {
  name: "loss"
  type: "SoftmaxWithLoss"
  bottom: "loss/classifier"
  bottom: "label"
  top: "loss"
}
layer {
  name: "accuracy"
  type: "Accuracy"
  bottom: "loss/classifier"
  bottom: "label"
  top: "accuracy"
  include {
    phase: TEST
  }
}
layer {
  name: "accuracy-top1"
  type: "Accuracy"
  bottom: "loss/classifier"
  bottom: "label"
  top: "top-1"
  include {
    phase: TEST
  }
}
layer {
  name: "accuracy-top5"
  type: "Accuracy"
  bottom: "loss/classifier"
  bottom: "label"
  top: "top-5"
  include {
    phase: TEST
  }
  accuracy_param {
    top_k: 5
  }
}
I0122 16:59:12.841380 64218 layer_factory.hpp:77] Creating layer data
I0122 16:59:12.841423 64218 internal_thread.cpp:27] Starting internal thread(s) on GPU 0
I0122 16:59:12.842232 64218 net.cpp:94] Creating Layer data
I0122 16:59:12.842248 64218 net.cpp:409] data -> data
I0122 16:59:12.842257 64218 net.cpp:409] data -> label
I0122 16:59:12.843333 64291 db_lmdb.cpp:35] Opened lmdb cifar10/input/lmdb/valid_lmdb
I0122 16:59:12.843369 64291 data_reader.cpp:117] TEST: reading data using 1 channel(s)
I0122 16:59:12.843453 64218 data_layer.cpp:78] ReshapePrefetch 50, 3, 32, 32
I0122 16:59:12.843559 64218 data_layer.cpp:83] output data size: 50,3,32,32
I0122 16:59:12.846608 64218 internal_thread.cpp:27] Starting internal thread(s) on GPU 0
I0122 16:59:12.846649 64218 net.cpp:144] Setting up data
I0122 16:59:12.846658 64218 net.cpp:151] Top shape: 50 3 32 32 (153600)
I0122 16:59:12.846662 64218 net.cpp:151] Top shape: 50 (50)
I0122 16:59:12.846665 64218 net.cpp:159] Memory required for data: 614600
I0122 16:59:12.846670 64218 layer_factory.hpp:77] Creating layer label_data_1_split
I0122 16:59:12.846679 64218 net.cpp:94] Creating Layer label_data_1_split
I0122 16:59:12.846685 64218 net.cpp:435] label_data_1_split <- label
I0122 16:59:12.846691 64218 net.cpp:409] label_data_1_split -> label_data_1_split_0
I0122 16:59:12.846698 64218 net.cpp:409] label_data_1_split -> label_data_1_split_1
I0122 16:59:12.846707 64218 net.cpp:409] label_data_1_split -> label_data_1_split_2
I0122 16:59:12.846714 64218 net.cpp:409] label_data_1_split -> label_data_1_split_3
I0122 16:59:12.846832 64218 net.cpp:144] Setting up label_data_1_split
I0122 16:59:12.846838 64218 net.cpp:151] Top shape: 50 (50)
I0122 16:59:12.846843 64218 net.cpp:151] Top shape: 50 (50)
I0122 16:59:12.846845 64218 net.cpp:151] Top shape: 50 (50)
I0122 16:59:12.846848 64218 net.cpp:151] Top shape: 50 (50)
I0122 16:59:12.846851 64218 net.cpp:159] Memory required for data: 615400
I0122 16:59:12.846854 64218 layer_factory.hpp:77] Creating layer conv1/3x3_s1
I0122 16:59:12.846864 64218 net.cpp:94] Creating Layer conv1/3x3_s1
I0122 16:59:12.846868 64218 net.cpp:435] conv1/3x3_s1 <- data
I0122 16:59:12.846875 64218 net.cpp:409] conv1/3x3_s1 -> conv1/3x3_s1
I0122 16:59:12.847229 64218 net.cpp:144] Setting up conv1/3x3_s1
I0122 16:59:12.847236 64218 net.cpp:151] Top shape: 50 96 32 32 (4915200)
I0122 16:59:12.847239 64218 net.cpp:159] Memory required for data: 20276200
I0122 16:59:12.847247 64218 layer_factory.hpp:77] Creating layer conv1/bn1
I0122 16:59:12.847256 64218 net.cpp:94] Creating Layer conv1/bn1
I0122 16:59:12.847259 64218 net.cpp:435] conv1/bn1 <- conv1/3x3_s1
I0122 16:59:12.847275 64218 net.cpp:396] conv1/bn1 -> conv1/3x3_s1 (in-place)
I0122 16:59:12.847965 64218 net.cpp:144] Setting up conv1/bn1
I0122 16:59:12.847971 64218 net.cpp:151] Top shape: 50 96 32 32 (4915200)
I0122 16:59:12.847975 64218 net.cpp:159] Memory required for data: 39937000
I0122 16:59:12.847985 64218 layer_factory.hpp:77] Creating layer conv1/relu1
I0122 16:59:12.847992 64218 net.cpp:94] Creating Layer conv1/relu1
I0122 16:59:12.847996 64218 net.cpp:435] conv1/relu1 <- conv1/3x3_s1
I0122 16:59:12.848001 64218 net.cpp:396] conv1/relu1 -> conv1/3x3_s1 (in-place)
I0122 16:59:12.848006 64218 net.cpp:144] Setting up conv1/relu1
I0122 16:59:12.848011 64218 net.cpp:151] Top shape: 50 96 32 32 (4915200)
I0122 16:59:12.848013 64218 net.cpp:159] Memory required for data: 59597800
I0122 16:59:12.848016 64218 layer_factory.hpp:77] Creating layer conv1/3x3_s1_conv1/relu1_0_split
I0122 16:59:12.848021 64218 net.cpp:94] Creating Layer conv1/3x3_s1_conv1/relu1_0_split
I0122 16:59:12.848023 64218 net.cpp:435] conv1/3x3_s1_conv1/relu1_0_split <- conv1/3x3_s1
I0122 16:59:12.848029 64218 net.cpp:409] conv1/3x3_s1_conv1/relu1_0_split -> conv1/3x3_s1_conv1/relu1_0_split_0
I0122 16:59:12.848035 64218 net.cpp:409] conv1/3x3_s1_conv1/relu1_0_split -> conv1/3x3_s1_conv1/relu1_0_split_1
I0122 16:59:12.848067 64218 net.cpp:144] Setting up conv1/3x3_s1_conv1/relu1_0_split
I0122 16:59:12.848071 64218 net.cpp:151] Top shape: 50 96 32 32 (4915200)
I0122 16:59:12.848076 64218 net.cpp:151] Top shape: 50 96 32 32 (4915200)
I0122 16:59:12.848078 64218 net.cpp:159] Memory required for data: 98919400
I0122 16:59:12.848080 64218 layer_factory.hpp:77] Creating layer inception_2a/1x1
I0122 16:59:12.848088 64218 net.cpp:94] Creating Layer inception_2a/1x1
I0122 16:59:12.848093 64218 net.cpp:435] inception_2a/1x1 <- conv1/3x3_s1_conv1/relu1_0_split_0
I0122 16:59:12.848100 64218 net.cpp:409] inception_2a/1x1 -> inception_2a/1x1
I0122 16:59:12.848708 64218 net.cpp:144] Setting up inception_2a/1x1
I0122 16:59:12.848714 64218 net.cpp:151] Top shape: 50 32 32 32 (1638400)
I0122 16:59:12.848717 64218 net.cpp:159] Memory required for data: 105473000
I0122 16:59:12.848724 64218 layer_factory.hpp:77] Creating layer inception_2a/1x1/bn1
I0122 16:59:12.848734 64218 net.cpp:94] Creating Layer inception_2a/1x1/bn1
I0122 16:59:12.848738 64218 net.cpp:435] inception_2a/1x1/bn1 <- inception_2a/1x1
I0122 16:59:12.848745 64218 net.cpp:396] inception_2a/1x1/bn1 -> inception_2a/1x1 (in-place)
I0122 16:59:12.849553 64218 net.cpp:144] Setting up inception_2a/1x1/bn1
I0122 16:59:12.849560 64218 net.cpp:151] Top shape: 50 32 32 32 (1638400)
I0122 16:59:12.849562 64218 net.cpp:159] Memory required for data: 112026600
I0122 16:59:12.849570 64218 layer_factory.hpp:77] Creating layer inception_2a/1x1/relu1
I0122 16:59:12.849577 64218 net.cpp:94] Creating Layer inception_2a/1x1/relu1
I0122 16:59:12.849581 64218 net.cpp:435] inception_2a/1x1/relu1 <- inception_2a/1x1
I0122 16:59:12.849587 64218 net.cpp:396] inception_2a/1x1/relu1 -> inception_2a/1x1 (in-place)
I0122 16:59:12.849593 64218 net.cpp:144] Setting up inception_2a/1x1/relu1
I0122 16:59:12.849596 64218 net.cpp:151] Top shape: 50 32 32 32 (1638400)
I0122 16:59:12.849599 64218 net.cpp:159] Memory required for data: 118580200
I0122 16:59:12.849602 64218 layer_factory.hpp:77] Creating layer inception_2a/3x3
I0122 16:59:12.849611 64218 net.cpp:94] Creating Layer inception_2a/3x3
I0122 16:59:12.849617 64218 net.cpp:435] inception_2a/3x3 <- conv1/3x3_s1_conv1/relu1_0_split_1
I0122 16:59:12.849622 64218 net.cpp:409] inception_2a/3x3 -> inception_2a/3x3
I0122 16:59:12.850091 64218 net.cpp:144] Setting up inception_2a/3x3
I0122 16:59:12.850113 64218 net.cpp:151] Top shape: 50 32 32 32 (1638400)
I0122 16:59:12.850116 64218 net.cpp:159] Memory required for data: 125133800
I0122 16:59:12.850121 64218 layer_factory.hpp:77] Creating layer inception_2a/3x3/bn1
I0122 16:59:12.850127 64218 net.cpp:94] Creating Layer inception_2a/3x3/bn1
I0122 16:59:12.850134 64218 net.cpp:435] inception_2a/3x3/bn1 <- inception_2a/3x3
I0122 16:59:12.850152 64218 net.cpp:396] inception_2a/3x3/bn1 -> inception_2a/3x3 (in-place)
I0122 16:59:12.850898 64218 net.cpp:144] Setting up inception_2a/3x3/bn1
I0122 16:59:12.850904 64218 net.cpp:151] Top shape: 50 32 32 32 (1638400)
I0122 16:59:12.850908 64218 net.cpp:159] Memory required for data: 131687400
I0122 16:59:12.850919 64218 layer_factory.hpp:77] Creating layer inception_2a/3x3/relu1
I0122 16:59:12.850927 64218 net.cpp:94] Creating Layer inception_2a/3x3/relu1
I0122 16:59:12.850930 64218 net.cpp:435] inception_2a/3x3/relu1 <- inception_2a/3x3
I0122 16:59:12.850935 64218 net.cpp:396] inception_2a/3x3/relu1 -> inception_2a/3x3 (in-place)
I0122 16:59:12.850942 64218 net.cpp:144] Setting up inception_2a/3x3/relu1
I0122 16:59:12.850946 64218 net.cpp:151] Top shape: 50 32 32 32 (1638400)
I0122 16:59:12.850949 64218 net.cpp:159] Memory required for data: 138241000
I0122 16:59:12.850952 64218 layer_factory.hpp:77] Creating layer inception_2a/output
I0122 16:59:12.850957 64218 net.cpp:94] Creating Layer inception_2a/output
I0122 16:59:12.850962 64218 net.cpp:435] inception_2a/output <- inception_2a/1x1
I0122 16:59:12.850965 64218 net.cpp:435] inception_2a/output <- inception_2a/3x3
I0122 16:59:12.850971 64218 net.cpp:409] inception_2a/output -> inception_2a/output
I0122 16:59:12.851008 64218 net.cpp:144] Setting up inception_2a/output
I0122 16:59:12.851016 64218 net.cpp:151] Top shape: 50 64 32 32 (3276800)
I0122 16:59:12.851018 64218 net.cpp:159] Memory required for data: 151348200
I0122 16:59:12.851022 64218 layer_factory.hpp:77] Creating layer inception_2a/output_inception_2a/output_0_split
I0122 16:59:12.851027 64218 net.cpp:94] Creating Layer inception_2a/output_inception_2a/output_0_split
I0122 16:59:12.851029 64218 net.cpp:435] inception_2a/output_inception_2a/output_0_split <- inception_2a/output
I0122 16:59:12.851035 64218 net.cpp:409] inception_2a/output_inception_2a/output_0_split -> inception_2a/output_inception_2a/output_0_split_0
I0122 16:59:12.851042 64218 net.cpp:409] inception_2a/output_inception_2a/output_0_split -> inception_2a/output_inception_2a/output_0_split_1
I0122 16:59:12.851076 64218 net.cpp:144] Setting up inception_2a/output_inception_2a/output_0_split
I0122 16:59:12.851083 64218 net.cpp:151] Top shape: 50 64 32 32 (3276800)
I0122 16:59:12.851085 64218 net.cpp:151] Top shape: 50 64 32 32 (3276800)
I0122 16:59:12.851089 64218 net.cpp:159] Memory required for data: 177562600
I0122 16:59:12.851091 64218 layer_factory.hpp:77] Creating layer inception_3a/1x1
I0122 16:59:12.851099 64218 net.cpp:94] Creating Layer inception_3a/1x1
I0122 16:59:12.851104 64218 net.cpp:435] inception_3a/1x1 <- inception_2a/output_inception_2a/output_0_split_0
I0122 16:59:12.851110 64218 net.cpp:409] inception_3a/1x1 -> inception_3a/1x1
I0122 16:59:12.851418 64218 net.cpp:144] Setting up inception_3a/1x1
I0122 16:59:12.851425 64218 net.cpp:151] Top shape: 50 32 32 32 (1638400)
I0122 16:59:12.851428 64218 net.cpp:159] Memory required for data: 184116200
I0122 16:59:12.851433 64218 layer_factory.hpp:77] Creating layer inception_3a/1x1/bn1
I0122 16:59:12.851441 64218 net.cpp:94] Creating Layer inception_3a/1x1/bn1
I0122 16:59:12.851444 64218 net.cpp:435] inception_3a/1x1/bn1 <- inception_3a/1x1
I0122 16:59:12.851451 64218 net.cpp:396] inception_3a/1x1/bn1 -> inception_3a/1x1 (in-place)
I0122 16:59:12.852210 64218 net.cpp:144] Setting up inception_3a/1x1/bn1
I0122 16:59:12.852216 64218 net.cpp:151] Top shape: 50 32 32 32 (1638400)
I0122 16:59:12.852219 64218 net.cpp:159] Memory required for data: 190669800
I0122 16:59:12.852226 64218 layer_factory.hpp:77] Creating layer inception_3a/1x1/relu1
I0122 16:59:12.852234 64218 net.cpp:94] Creating Layer inception_3a/1x1/relu1
I0122 16:59:12.852237 64218 net.cpp:435] inception_3a/1x1/relu1 <- inception_3a/1x1
I0122 16:59:12.852242 64218 net.cpp:396] inception_3a/1x1/relu1 -> inception_3a/1x1 (in-place)
I0122 16:59:12.852249 64218 net.cpp:144] Setting up inception_3a/1x1/relu1
I0122 16:59:12.852253 64218 net.cpp:151] Top shape: 50 32 32 32 (1638400)
I0122 16:59:12.852255 64218 net.cpp:159] Memory required for data: 197223400
I0122 16:59:12.852267 64218 layer_factory.hpp:77] Creating layer inception_3a/3x3
I0122 16:59:12.852278 64218 net.cpp:94] Creating Layer inception_3a/3x3
I0122 16:59:12.852283 64218 net.cpp:435] inception_3a/3x3 <- inception_2a/output_inception_2a/output_0_split_1
I0122 16:59:12.852289 64218 net.cpp:409] inception_3a/3x3 -> inception_3a/3x3
I0122 16:59:12.853443 64218 net.cpp:144] Setting up inception_3a/3x3
I0122 16:59:12.853456 64218 net.cpp:151] Top shape: 50 48 32 32 (2457600)
I0122 16:59:12.853459 64218 net.cpp:159] Memory required for data: 207053800
I0122 16:59:12.853466 64218 layer_factory.hpp:77] Creating layer inception_3a/3x3/bn1
I0122 16:59:12.853474 64218 net.cpp:94] Creating Layer inception_3a/3x3/bn1
I0122 16:59:12.853480 64218 net.cpp:435] inception_3a/3x3/bn1 <- inception_3a/3x3
I0122 16:59:12.853490 64218 net.cpp:396] inception_3a/3x3/bn1 -> inception_3a/3x3 (in-place)
I0122 16:59:12.854287 64218 net.cpp:144] Setting up inception_3a/3x3/bn1
I0122 16:59:12.854295 64218 net.cpp:151] Top shape: 50 48 32 32 (2457600)
I0122 16:59:12.854297 64218 net.cpp:159] Memory required for data: 216884200
I0122 16:59:12.854311 64218 layer_factory.hpp:77] Creating layer inception_3a/3x3/relu1
I0122 16:59:12.854319 64218 net.cpp:94] Creating Layer inception_3a/3x3/relu1
I0122 16:59:12.854323 64218 net.cpp:435] inception_3a/3x3/relu1 <- inception_3a/3x3
I0122 16:59:12.854329 64218 net.cpp:396] inception_3a/3x3/relu1 -> inception_3a/3x3 (in-place)
I0122 16:59:12.854338 64218 net.cpp:144] Setting up inception_3a/3x3/relu1
I0122 16:59:12.854342 64218 net.cpp:151] Top shape: 50 48 32 32 (2457600)
I0122 16:59:12.854346 64218 net.cpp:159] Memory required for data: 226714600
I0122 16:59:12.854348 64218 layer_factory.hpp:77] Creating layer inception_3a/output
I0122 16:59:12.854353 64218 net.cpp:94] Creating Layer inception_3a/output
I0122 16:59:12.854357 64218 net.cpp:435] inception_3a/output <- inception_3a/1x1
I0122 16:59:12.854360 64218 net.cpp:435] inception_3a/output <- inception_3a/3x3
I0122 16:59:12.854365 64218 net.cpp:409] inception_3a/output -> inception_3a/output
I0122 16:59:12.854449 64218 net.cpp:144] Setting up inception_3a/output
I0122 16:59:12.854454 64218 net.cpp:151] Top shape: 50 80 32 32 (4096000)
I0122 16:59:12.854456 64218 net.cpp:159] Memory required for data: 243098600
I0122 16:59:12.854460 64218 layer_factory.hpp:77] Creating layer inception_3a/output_inception_3a/output_0_split
I0122 16:59:12.854465 64218 net.cpp:94] Creating Layer inception_3a/output_inception_3a/output_0_split
I0122 16:59:12.854470 64218 net.cpp:435] inception_3a/output_inception_3a/output_0_split <- inception_3a/output
I0122 16:59:12.854475 64218 net.cpp:409] inception_3a/output_inception_3a/output_0_split -> inception_3a/output_inception_3a/output_0_split_0
I0122 16:59:12.854482 64218 net.cpp:409] inception_3a/output_inception_3a/output_0_split -> inception_3a/output_inception_3a/output_0_split_1
I0122 16:59:12.854521 64218 net.cpp:144] Setting up inception_3a/output_inception_3a/output_0_split
I0122 16:59:12.854527 64218 net.cpp:151] Top shape: 50 80 32 32 (4096000)
I0122 16:59:12.854530 64218 net.cpp:151] Top shape: 50 80 32 32 (4096000)
I0122 16:59:12.854533 64218 net.cpp:159] Memory required for data: 275866600
I0122 16:59:12.854537 64218 layer_factory.hpp:77] Creating layer downsample_4/3x3_s2
I0122 16:59:12.854545 64218 net.cpp:94] Creating Layer downsample_4/3x3_s2
I0122 16:59:12.854548 64218 net.cpp:435] downsample_4/3x3_s2 <- inception_3a/output_inception_3a/output_0_split_0
I0122 16:59:12.854557 64218 net.cpp:409] downsample_4/3x3_s2 -> downsample_4/3x3_s2
I0122 16:59:12.855120 64218 net.cpp:144] Setting up downsample_4/3x3_s2
I0122 16:59:12.855129 64218 net.cpp:151] Top shape: 50 80 16 16 (1024000)
I0122 16:59:12.855131 64218 net.cpp:159] Memory required for data: 279962600
I0122 16:59:12.855136 64218 layer_factory.hpp:77] Creating layer downsample_4/3x3_s2/bn1
I0122 16:59:12.855147 64218 net.cpp:94] Creating Layer downsample_4/3x3_s2/bn1
I0122 16:59:12.855150 64218 net.cpp:435] downsample_4/3x3_s2/bn1 <- downsample_4/3x3_s2
I0122 16:59:12.855167 64218 net.cpp:396] downsample_4/3x3_s2/bn1 -> downsample_4/3x3_s2 (in-place)
I0122 16:59:12.855990 64218 net.cpp:144] Setting up downsample_4/3x3_s2/bn1
I0122 16:59:12.855998 64218 net.cpp:151] Top shape: 50 80 16 16 (1024000)
I0122 16:59:12.856000 64218 net.cpp:159] Memory required for data: 284058600
I0122 16:59:12.856009 64218 layer_factory.hpp:77] Creating layer downsample_4/3x3_s2/relu1
I0122 16:59:12.856015 64218 net.cpp:94] Creating Layer downsample_4/3x3_s2/relu1
I0122 16:59:12.856019 64218 net.cpp:435] downsample_4/3x3_s2/relu1 <- downsample_4/3x3_s2
I0122 16:59:12.856024 64218 net.cpp:396] downsample_4/3x3_s2/relu1 -> downsample_4/3x3_s2 (in-place)
I0122 16:59:12.856031 64218 net.cpp:144] Setting up downsample_4/3x3_s2/relu1
I0122 16:59:12.856036 64218 net.cpp:151] Top shape: 50 80 16 16 (1024000)
I0122 16:59:12.856040 64218 net.cpp:159] Memory required for data: 288154600
I0122 16:59:12.856042 64218 layer_factory.hpp:77] Creating layer downsample_4/pool_s2
I0122 16:59:12.856050 64218 net.cpp:94] Creating Layer downsample_4/pool_s2
I0122 16:59:12.856053 64218 net.cpp:435] downsample_4/pool_s2 <- inception_3a/output_inception_3a/output_0_split_1
I0122 16:59:12.856060 64218 net.cpp:409] downsample_4/pool_s2 -> downsample_4/pool_s2
I0122 16:59:12.856096 64218 net.cpp:144] Setting up downsample_4/pool_s2
I0122 16:59:12.856101 64218 net.cpp:151] Top shape: 50 80 16 16 (1024000)
I0122 16:59:12.856103 64218 net.cpp:159] Memory required for data: 292250600
I0122 16:59:12.856107 64218 layer_factory.hpp:77] Creating layer downsample_4/output
I0122 16:59:12.856113 64218 net.cpp:94] Creating Layer downsample_4/output
I0122 16:59:12.856117 64218 net.cpp:435] downsample_4/output <- downsample_4/3x3_s2
I0122 16:59:12.856120 64218 net.cpp:435] downsample_4/output <- downsample_4/pool_s2
I0122 16:59:12.856127 64218 net.cpp:409] downsample_4/output -> downsample_4/output
I0122 16:59:12.856199 64218 net.cpp:144] Setting up downsample_4/output
I0122 16:59:12.856204 64218 net.cpp:151] Top shape: 50 160 16 16 (2048000)
I0122 16:59:12.856207 64218 net.cpp:159] Memory required for data: 300442600
I0122 16:59:12.856210 64218 layer_factory.hpp:77] Creating layer downsample_4/output_downsample_4/output_0_split
I0122 16:59:12.856217 64218 net.cpp:94] Creating Layer downsample_4/output_downsample_4/output_0_split
I0122 16:59:12.856221 64218 net.cpp:435] downsample_4/output_downsample_4/output_0_split <- downsample_4/output
I0122 16:59:12.856225 64218 net.cpp:409] downsample_4/output_downsample_4/output_0_split -> downsample_4/output_downsample_4/output_0_split_0
I0122 16:59:12.856233 64218 net.cpp:409] downsample_4/output_downsample_4/output_0_split -> downsample_4/output_downsample_4/output_0_split_1
I0122 16:59:12.856276 64218 net.cpp:144] Setting up downsample_4/output_downsample_4/output_0_split
I0122 16:59:12.856283 64218 net.cpp:151] Top shape: 50 160 16 16 (2048000)
I0122 16:59:12.856288 64218 net.cpp:151] Top shape: 50 160 16 16 (2048000)
I0122 16:59:12.856292 64218 net.cpp:159] Memory required for data: 316826600
I0122 16:59:12.856294 64218 layer_factory.hpp:77] Creating layer inception_5a/1x1
I0122 16:59:12.856304 64218 net.cpp:94] Creating Layer inception_5a/1x1
I0122 16:59:12.856312 64218 net.cpp:435] inception_5a/1x1 <- downsample_4/output_downsample_4/output_0_split_0
I0122 16:59:12.856328 64218 net.cpp:409] inception_5a/1x1 -> inception_5a/1x1
I0122 16:59:12.856690 64218 net.cpp:144] Setting up inception_5a/1x1
I0122 16:59:12.856696 64218 net.cpp:151] Top shape: 50 112 16 16 (1433600)
I0122 16:59:12.856699 64218 net.cpp:159] Memory required for data: 322561000
I0122 16:59:12.856705 64218 layer_factory.hpp:77] Creating layer inception_5a/1x1/bn1
I0122 16:59:12.856714 64218 net.cpp:94] Creating Layer inception_5a/1x1/bn1
I0122 16:59:12.856716 64218 net.cpp:435] inception_5a/1x1/bn1 <- inception_5a/1x1
I0122 16:59:12.856722 64218 net.cpp:396] inception_5a/1x1/bn1 -> inception_5a/1x1 (in-place)
I0122 16:59:12.857506 64218 net.cpp:144] Setting up inception_5a/1x1/bn1
I0122 16:59:12.857522 64218 net.cpp:151] Top shape: 50 112 16 16 (1433600)
I0122 16:59:12.857524 64218 net.cpp:159] Memory required for data: 328295400
I0122 16:59:12.857532 64218 layer_factory.hpp:77] Creating layer inception_5a/1x1/relu1
I0122 16:59:12.857542 64218 net.cpp:94] Creating Layer inception_5a/1x1/relu1
I0122 16:59:12.857545 64218 net.cpp:435] inception_5a/1x1/relu1 <- inception_5a/1x1
I0122 16:59:12.857551 64218 net.cpp:396] inception_5a/1x1/relu1 -> inception_5a/1x1 (in-place)
I0122 16:59:12.857561 64218 net.cpp:144] Setting up inception_5a/1x1/relu1
I0122 16:59:12.857574 64218 net.cpp:151] Top shape: 50 112 16 16 (1433600)
I0122 16:59:12.857578 64218 net.cpp:159] Memory required for data: 334029800
I0122 16:59:12.857580 64218 layer_factory.hpp:77] Creating layer inception_5a/3x3
I0122 16:59:12.857595 64218 net.cpp:94] Creating Layer inception_5a/3x3
I0122 16:59:12.857601 64218 net.cpp:435] inception_5a/3x3 <- downsample_4/output_downsample_4/output_0_split_1
I0122 16:59:12.857609 64218 net.cpp:409] inception_5a/3x3 -> inception_5a/3x3
I0122 16:59:12.858289 64218 net.cpp:144] Setting up inception_5a/3x3
I0122 16:59:12.858297 64218 net.cpp:151] Top shape: 50 48 16 16 (614400)
I0122 16:59:12.858301 64218 net.cpp:159] Memory required for data: 336487400
I0122 16:59:12.858306 64218 layer_factory.hpp:77] Creating layer inception_5a/3x3/bn1
I0122 16:59:12.858319 64218 net.cpp:94] Creating Layer inception_5a/3x3/bn1
I0122 16:59:12.858323 64218 net.cpp:435] inception_5a/3x3/bn1 <- inception_5a/3x3
I0122 16:59:12.858330 64218 net.cpp:396] inception_5a/3x3/bn1 -> inception_5a/3x3 (in-place)
I0122 16:59:12.859122 64218 net.cpp:144] Setting up inception_5a/3x3/bn1
I0122 16:59:12.859129 64218 net.cpp:151] Top shape: 50 48 16 16 (614400)
I0122 16:59:12.859133 64218 net.cpp:159] Memory required for data: 338945000
I0122 16:59:12.859141 64218 layer_factory.hpp:77] Creating layer inception_5a/3x3/relu1
I0122 16:59:12.859146 64218 net.cpp:94] Creating Layer inception_5a/3x3/relu1
I0122 16:59:12.859149 64218 net.cpp:435] inception_5a/3x3/relu1 <- inception_5a/3x3
I0122 16:59:12.859163 64218 net.cpp:396] inception_5a/3x3/relu1 -> inception_5a/3x3 (in-place)
I0122 16:59:12.859170 64218 net.cpp:144] Setting up inception_5a/3x3/relu1
I0122 16:59:12.859179 64218 net.cpp:151] Top shape: 50 48 16 16 (614400)
I0122 16:59:12.859182 64218 net.cpp:159] Memory required for data: 341402600
I0122 16:59:12.859184 64218 layer_factory.hpp:77] Creating layer inception_5a/output
I0122 16:59:12.859189 64218 net.cpp:94] Creating Layer inception_5a/output
I0122 16:59:12.859195 64218 net.cpp:435] inception_5a/output <- inception_5a/1x1
I0122 16:59:12.859199 64218 net.cpp:435] inception_5a/output <- inception_5a/3x3
I0122 16:59:12.859203 64218 net.cpp:409] inception_5a/output -> inception_5a/output
I0122 16:59:12.859227 64218 net.cpp:144] Setting up inception_5a/output
I0122 16:59:12.859232 64218 net.cpp:151] Top shape: 50 160 16 16 (2048000)
I0122 16:59:12.859236 64218 net.cpp:159] Memory required for data: 349594600
I0122 16:59:12.859237 64218 layer_factory.hpp:77] Creating layer inception_5a/output_inception_5a/output_0_split
I0122 16:59:12.859243 64218 net.cpp:94] Creating Layer inception_5a/output_inception_5a/output_0_split
I0122 16:59:12.859246 64218 net.cpp:435] inception_5a/output_inception_5a/output_0_split <- inception_5a/output
I0122 16:59:12.859252 64218 net.cpp:409] inception_5a/output_inception_5a/output_0_split -> inception_5a/output_inception_5a/output_0_split_0
I0122 16:59:12.859258 64218 net.cpp:409] inception_5a/output_inception_5a/output_0_split -> inception_5a/output_inception_5a/output_0_split_1
I0122 16:59:12.859328 64218 net.cpp:144] Setting up inception_5a/output_inception_5a/output_0_split
I0122 16:59:12.859334 64218 net.cpp:151] Top shape: 50 160 16 16 (2048000)
I0122 16:59:12.859338 64218 net.cpp:151] Top shape: 50 160 16 16 (2048000)
I0122 16:59:12.859340 64218 net.cpp:159] Memory required for data: 365978600
I0122 16:59:12.859344 64218 layer_factory.hpp:77] Creating layer inception_6a/1x1
I0122 16:59:12.859351 64218 net.cpp:94] Creating Layer inception_6a/1x1
I0122 16:59:12.859375 64218 net.cpp:435] inception_6a/1x1 <- inception_5a/output_inception_5a/output_0_split_0
I0122 16:59:12.859381 64218 net.cpp:409] inception_6a/1x1 -> inception_6a/1x1
I0122 16:59:12.859725 64218 net.cpp:144] Setting up inception_6a/1x1
I0122 16:59:12.859733 64218 net.cpp:151] Top shape: 50 96 16 16 (1228800)
I0122 16:59:12.859736 64218 net.cpp:159] Memory required for data: 370893800
I0122 16:59:12.859741 64218 layer_factory.hpp:77] Creating layer inception_6a/1x1/bn1
I0122 16:59:12.859750 64218 net.cpp:94] Creating Layer inception_6a/1x1/bn1
I0122 16:59:12.859755 64218 net.cpp:435] inception_6a/1x1/bn1 <- inception_6a/1x1
I0122 16:59:12.859760 64218 net.cpp:396] inception_6a/1x1/bn1 -> inception_6a/1x1 (in-place)
I0122 16:59:12.860559 64218 net.cpp:144] Setting up inception_6a/1x1/bn1
I0122 16:59:12.860568 64218 net.cpp:151] Top shape: 50 96 16 16 (1228800)
I0122 16:59:12.860570 64218 net.cpp:159] Memory required for data: 375809000
I0122 16:59:12.860579 64218 layer_factory.hpp:77] Creating layer inception_6a/1x1/relu1
I0122 16:59:12.860590 64218 net.cpp:94] Creating Layer inception_6a/1x1/relu1
I0122 16:59:12.860594 64218 net.cpp:435] inception_6a/1x1/relu1 <- inception_6a/1x1
I0122 16:59:12.860599 64218 net.cpp:396] inception_6a/1x1/relu1 -> inception_6a/1x1 (in-place)
I0122 16:59:12.860611 64218 net.cpp:144] Setting up inception_6a/1x1/relu1
I0122 16:59:12.860615 64218 net.cpp:151] Top shape: 50 96 16 16 (1228800)
I0122 16:59:12.860620 64218 net.cpp:159] Memory required for data: 380724200
I0122 16:59:12.860622 64218 layer_factory.hpp:77] Creating layer inception_6a/3x3
I0122 16:59:12.860632 64218 net.cpp:94] Creating Layer inception_6a/3x3
I0122 16:59:12.860636 64218 net.cpp:435] inception_6a/3x3 <- inception_5a/output_inception_5a/output_0_split_1
I0122 16:59:12.860642 64218 net.cpp:409] inception_6a/3x3 -> inception_6a/3x3
I0122 16:59:12.862144 64218 net.cpp:144] Setting up inception_6a/3x3
I0122 16:59:12.862157 64218 net.cpp:151] Top shape: 50 64 16 16 (819200)
I0122 16:59:12.862160 64218 net.cpp:159] Memory required for data: 384001000
I0122 16:59:12.862175 64218 layer_factory.hpp:77] Creating layer inception_6a/3x3/bn1
I0122 16:59:12.862187 64218 net.cpp:94] Creating Layer inception_6a/3x3/bn1
I0122 16:59:12.862191 64218 net.cpp:435] inception_6a/3x3/bn1 <- inception_6a/3x3
I0122 16:59:12.862198 64218 net.cpp:396] inception_6a/3x3/bn1 -> inception_6a/3x3 (in-place)
I0122 16:59:12.863029 64218 net.cpp:144] Setting up inception_6a/3x3/bn1
I0122 16:59:12.863035 64218 net.cpp:151] Top shape: 50 64 16 16 (819200)
I0122 16:59:12.863039 64218 net.cpp:159] Memory required for data: 387277800
I0122 16:59:12.863046 64218 layer_factory.hpp:77] Creating layer inception_6a/3x3/relu1
I0122 16:59:12.863054 64218 net.cpp:94] Creating Layer inception_6a/3x3/relu1
I0122 16:59:12.863057 64218 net.cpp:435] inception_6a/3x3/relu1 <- inception_6a/3x3
I0122 16:59:12.863063 64218 net.cpp:396] inception_6a/3x3/relu1 -> inception_6a/3x3 (in-place)
I0122 16:59:12.863070 64218 net.cpp:144] Setting up inception_6a/3x3/relu1
I0122 16:59:12.863075 64218 net.cpp:151] Top shape: 50 64 16 16 (819200)
I0122 16:59:12.863078 64218 net.cpp:159] Memory required for data: 390554600
I0122 16:59:12.863081 64218 layer_factory.hpp:77] Creating layer inception_6a/output
I0122 16:59:12.863086 64218 net.cpp:94] Creating Layer inception_6a/output
I0122 16:59:12.863090 64218 net.cpp:435] inception_6a/output <- inception_6a/1x1
I0122 16:59:12.863093 64218 net.cpp:435] inception_6a/output <- inception_6a/3x3
I0122 16:59:12.863101 64218 net.cpp:409] inception_6a/output -> inception_6a/output
I0122 16:59:12.863121 64218 net.cpp:144] Setting up inception_6a/output
I0122 16:59:12.863127 64218 net.cpp:151] Top shape: 50 160 16 16 (2048000)
I0122 16:59:12.863129 64218 net.cpp:159] Memory required for data: 398746600
I0122 16:59:12.863132 64218 layer_factory.hpp:77] Creating layer inception_6a/output_inception_6a/output_0_split
I0122 16:59:12.863138 64218 net.cpp:94] Creating Layer inception_6a/output_inception_6a/output_0_split
I0122 16:59:12.863153 64218 net.cpp:435] inception_6a/output_inception_6a/output_0_split <- inception_6a/output
I0122 16:59:12.863159 64218 net.cpp:409] inception_6a/output_inception_6a/output_0_split -> inception_6a/output_inception_6a/output_0_split_0
I0122 16:59:12.863168 64218 net.cpp:409] inception_6a/output_inception_6a/output_0_split -> inception_6a/output_inception_6a/output_0_split_1
I0122 16:59:12.863199 64218 net.cpp:144] Setting up inception_6a/output_inception_6a/output_0_split
I0122 16:59:12.863206 64218 net.cpp:151] Top shape: 50 160 16 16 (2048000)
I0122 16:59:12.863209 64218 net.cpp:151] Top shape: 50 160 16 16 (2048000)
I0122 16:59:12.863211 64218 net.cpp:159] Memory required for data: 415130600
I0122 16:59:12.863215 64218 layer_factory.hpp:77] Creating layer inception_7a/1x1
I0122 16:59:12.863225 64218 net.cpp:94] Creating Layer inception_7a/1x1
I0122 16:59:12.863230 64218 net.cpp:435] inception_7a/1x1 <- inception_6a/output_inception_6a/output_0_split_0
I0122 16:59:12.863236 64218 net.cpp:409] inception_7a/1x1 -> inception_7a/1x1
I0122 16:59:12.863554 64218 net.cpp:144] Setting up inception_7a/1x1
I0122 16:59:12.863561 64218 net.cpp:151] Top shape: 50 80 16 16 (1024000)
I0122 16:59:12.863564 64218 net.cpp:159] Memory required for data: 419226600
I0122 16:59:12.863569 64218 layer_factory.hpp:77] Creating layer inception_7a/1x1/bn1
I0122 16:59:12.863575 64218 net.cpp:94] Creating Layer inception_7a/1x1/bn1
I0122 16:59:12.863579 64218 net.cpp:435] inception_7a/1x1/bn1 <- inception_7a/1x1
I0122 16:59:12.863585 64218 net.cpp:396] inception_7a/1x1/bn1 -> inception_7a/1x1 (in-place)
I0122 16:59:12.864289 64218 net.cpp:144] Setting up inception_7a/1x1/bn1
I0122 16:59:12.864296 64218 net.cpp:151] Top shape: 50 80 16 16 (1024000)
I0122 16:59:12.864300 64218 net.cpp:159] Memory required for data: 423322600
I0122 16:59:12.864306 64218 layer_factory.hpp:77] Creating layer inception_7a/1x1/relu1
I0122 16:59:12.864315 64218 net.cpp:94] Creating Layer inception_7a/1x1/relu1
I0122 16:59:12.864317 64218 net.cpp:435] inception_7a/1x1/relu1 <- inception_7a/1x1
I0122 16:59:12.864322 64218 net.cpp:396] inception_7a/1x1/relu1 -> inception_7a/1x1 (in-place)
I0122 16:59:12.864328 64218 net.cpp:144] Setting up inception_7a/1x1/relu1
I0122 16:59:12.864332 64218 net.cpp:151] Top shape: 50 80 16 16 (1024000)
I0122 16:59:12.864334 64218 net.cpp:159] Memory required for data: 427418600
I0122 16:59:12.864338 64218 layer_factory.hpp:77] Creating layer inception_7a/3x3
I0122 16:59:12.864346 64218 net.cpp:94] Creating Layer inception_7a/3x3
I0122 16:59:12.864351 64218 net.cpp:435] inception_7a/3x3 <- inception_6a/output_inception_6a/output_0_split_1
I0122 16:59:12.864358 64218 net.cpp:409] inception_7a/3x3 -> inception_7a/3x3
I0122 16:59:12.865245 64218 net.cpp:144] Setting up inception_7a/3x3
I0122 16:59:12.865255 64218 net.cpp:151] Top shape: 50 80 16 16 (1024000)
I0122 16:59:12.865258 64218 net.cpp:159] Memory required for data: 431514600
I0122 16:59:12.865263 64218 layer_factory.hpp:77] Creating layer inception_7a/3x3/bn1
I0122 16:59:12.865272 64218 net.cpp:94] Creating Layer inception_7a/3x3/bn1
I0122 16:59:12.865278 64218 net.cpp:435] inception_7a/3x3/bn1 <- inception_7a/3x3
I0122 16:59:12.865283 64218 net.cpp:396] inception_7a/3x3/bn1 -> inception_7a/3x3 (in-place)
I0122 16:59:12.865990 64218 net.cpp:144] Setting up inception_7a/3x3/bn1
I0122 16:59:12.865998 64218 net.cpp:151] Top shape: 50 80 16 16 (1024000)
I0122 16:59:12.866000 64218 net.cpp:159] Memory required for data: 435610600
I0122 16:59:12.866008 64218 layer_factory.hpp:77] Creating layer inception_7a/3x3/relu1
I0122 16:59:12.866014 64218 net.cpp:94] Creating Layer inception_7a/3x3/relu1
I0122 16:59:12.866019 64218 net.cpp:435] inception_7a/3x3/relu1 <- inception_7a/3x3
I0122 16:59:12.866024 64218 net.cpp:396] inception_7a/3x3/relu1 -> inception_7a/3x3 (in-place)
I0122 16:59:12.866031 64218 net.cpp:144] Setting up inception_7a/3x3/relu1
I0122 16:59:12.866036 64218 net.cpp:151] Top shape: 50 80 16 16 (1024000)
I0122 16:59:12.866040 64218 net.cpp:159] Memory required for data: 439706600
I0122 16:59:12.866052 64218 layer_factory.hpp:77] Creating layer inception_7a/output
I0122 16:59:12.866057 64218 net.cpp:94] Creating Layer inception_7a/output
I0122 16:59:12.866060 64218 net.cpp:435] inception_7a/output <- inception_7a/1x1
I0122 16:59:12.866065 64218 net.cpp:435] inception_7a/output <- inception_7a/3x3
I0122 16:59:12.866070 64218 net.cpp:409] inception_7a/output -> inception_7a/output
I0122 16:59:12.866089 64218 net.cpp:144] Setting up inception_7a/output
I0122 16:59:12.866096 64218 net.cpp:151] Top shape: 50 160 16 16 (2048000)
I0122 16:59:12.866098 64218 net.cpp:159] Memory required for data: 447898600
I0122 16:59:12.866101 64218 layer_factory.hpp:77] Creating layer inception_7a/output_inception_7a/output_0_split
I0122 16:59:12.866107 64218 net.cpp:94] Creating Layer inception_7a/output_inception_7a/output_0_split
I0122 16:59:12.866111 64218 net.cpp:435] inception_7a/output_inception_7a/output_0_split <- inception_7a/output
I0122 16:59:12.866116 64218 net.cpp:409] inception_7a/output_inception_7a/output_0_split -> inception_7a/output_inception_7a/output_0_split_0
I0122 16:59:12.866122 64218 net.cpp:409] inception_7a/output_inception_7a/output_0_split -> inception_7a/output_inception_7a/output_0_split_1
I0122 16:59:12.866154 64218 net.cpp:144] Setting up inception_7a/output_inception_7a/output_0_split
I0122 16:59:12.866159 64218 net.cpp:151] Top shape: 50 160 16 16 (2048000)
I0122 16:59:12.866163 64218 net.cpp:151] Top shape: 50 160 16 16 (2048000)
I0122 16:59:12.866166 64218 net.cpp:159] Memory required for data: 464282600
I0122 16:59:12.866168 64218 layer_factory.hpp:77] Creating layer inception_8a/1x1
I0122 16:59:12.866178 64218 net.cpp:94] Creating Layer inception_8a/1x1
I0122 16:59:12.866183 64218 net.cpp:435] inception_8a/1x1 <- inception_7a/output_inception_7a/output_0_split_0
I0122 16:59:12.866189 64218 net.cpp:409] inception_8a/1x1 -> inception_8a/1x1
I0122 16:59:12.866474 64218 net.cpp:144] Setting up inception_8a/1x1
I0122 16:59:12.866482 64218 net.cpp:151] Top shape: 50 48 16 16 (614400)
I0122 16:59:12.866484 64218 net.cpp:159] Memory required for data: 466740200
I0122 16:59:12.866489 64218 layer_factory.hpp:77] Creating layer inception_8a/1x1/bn1
I0122 16:59:12.866497 64218 net.cpp:94] Creating Layer inception_8a/1x1/bn1
I0122 16:59:12.866499 64218 net.cpp:435] inception_8a/1x1/bn1 <- inception_8a/1x1
I0122 16:59:12.866506 64218 net.cpp:396] inception_8a/1x1/bn1 -> inception_8a/1x1 (in-place)
I0122 16:59:12.867208 64218 net.cpp:144] Setting up inception_8a/1x1/bn1
I0122 16:59:12.867214 64218 net.cpp:151] Top shape: 50 48 16 16 (614400)
I0122 16:59:12.867218 64218 net.cpp:159] Memory required for data: 469197800
I0122 16:59:12.867225 64218 layer_factory.hpp:77] Creating layer inception_8a/1x1/relu1
I0122 16:59:12.867230 64218 net.cpp:94] Creating Layer inception_8a/1x1/relu1
I0122 16:59:12.867233 64218 net.cpp:435] inception_8a/1x1/relu1 <- inception_8a/1x1
I0122 16:59:12.867239 64218 net.cpp:396] inception_8a/1x1/relu1 -> inception_8a/1x1 (in-place)
I0122 16:59:12.867245 64218 net.cpp:144] Setting up inception_8a/1x1/relu1
I0122 16:59:12.867251 64218 net.cpp:151] Top shape: 50 48 16 16 (614400)
I0122 16:59:12.867254 64218 net.cpp:159] Memory required for data: 471655400
I0122 16:59:12.867256 64218 layer_factory.hpp:77] Creating layer inception_8a/3x3
I0122 16:59:12.867265 64218 net.cpp:94] Creating Layer inception_8a/3x3
I0122 16:59:12.867269 64218 net.cpp:435] inception_8a/3x3 <- inception_7a/output_inception_7a/output_0_split_1
I0122 16:59:12.867275 64218 net.cpp:409] inception_8a/3x3 -> inception_8a/3x3
I0122 16:59:12.868919 64218 net.cpp:144] Setting up inception_8a/3x3
I0122 16:59:12.868933 64218 net.cpp:151] Top shape: 50 96 16 16 (1228800)
I0122 16:59:12.868935 64218 net.cpp:159] Memory required for data: 476570600
I0122 16:59:12.868942 64218 layer_factory.hpp:77] Creating layer inception_8a/3x3/bn1
I0122 16:59:12.868968 64218 net.cpp:94] Creating Layer inception_8a/3x3/bn1
I0122 16:59:12.868973 64218 net.cpp:435] inception_8a/3x3/bn1 <- inception_8a/3x3
I0122 16:59:12.868988 64218 net.cpp:396] inception_8a/3x3/bn1 -> inception_8a/3x3 (in-place)
I0122 16:59:12.869699 64218 net.cpp:144] Setting up inception_8a/3x3/bn1
I0122 16:59:12.869715 64218 net.cpp:151] Top shape: 50 96 16 16 (1228800)
I0122 16:59:12.869719 64218 net.cpp:159] Memory required for data: 481485800
I0122 16:59:12.869727 64218 layer_factory.hpp:77] Creating layer inception_8a/3x3/relu1
I0122 16:59:12.869732 64218 net.cpp:94] Creating Layer inception_8a/3x3/relu1
I0122 16:59:12.869735 64218 net.cpp:435] inception_8a/3x3/relu1 <- inception_8a/3x3
I0122 16:59:12.869741 64218 net.cpp:396] inception_8a/3x3/relu1 -> inception_8a/3x3 (in-place)
I0122 16:59:12.869748 64218 net.cpp:144] Setting up inception_8a/3x3/relu1
I0122 16:59:12.869755 64218 net.cpp:151] Top shape: 50 96 16 16 (1228800)
I0122 16:59:12.869757 64218 net.cpp:159] Memory required for data: 486401000
I0122 16:59:12.869761 64218 layer_factory.hpp:77] Creating layer inception_8a/output
I0122 16:59:12.869765 64218 net.cpp:94] Creating Layer inception_8a/output
I0122 16:59:12.869768 64218 net.cpp:435] inception_8a/output <- inception_8a/1x1
I0122 16:59:12.869771 64218 net.cpp:435] inception_8a/output <- inception_8a/3x3
I0122 16:59:12.869778 64218 net.cpp:409] inception_8a/output -> inception_8a/output
I0122 16:59:12.869797 64218 net.cpp:144] Setting up inception_8a/output
I0122 16:59:12.869802 64218 net.cpp:151] Top shape: 50 144 16 16 (1843200)
I0122 16:59:12.869805 64218 net.cpp:159] Memory required for data: 493773800
I0122 16:59:12.869808 64218 layer_factory.hpp:77] Creating layer inception_8a/output_inception_8a/output_0_split
I0122 16:59:12.869814 64218 net.cpp:94] Creating Layer inception_8a/output_inception_8a/output_0_split
I0122 16:59:12.869817 64218 net.cpp:435] inception_8a/output_inception_8a/output_0_split <- inception_8a/output
I0122 16:59:12.869823 64218 net.cpp:409] inception_8a/output_inception_8a/output_0_split -> inception_8a/output_inception_8a/output_0_split_0
I0122 16:59:12.869830 64218 net.cpp:409] inception_8a/output_inception_8a/output_0_split -> inception_8a/output_inception_8a/output_0_split_1
I0122 16:59:12.869861 64218 net.cpp:144] Setting up inception_8a/output_inception_8a/output_0_split
I0122 16:59:12.869866 64218 net.cpp:151] Top shape: 50 144 16 16 (1843200)
I0122 16:59:12.869870 64218 net.cpp:151] Top shape: 50 144 16 16 (1843200)
I0122 16:59:12.869874 64218 net.cpp:159] Memory required for data: 508519400
I0122 16:59:12.869876 64218 layer_factory.hpp:77] Creating layer downsample_9/3x3_s2
I0122 16:59:12.869885 64218 net.cpp:94] Creating Layer downsample_9/3x3_s2
I0122 16:59:12.869889 64218 net.cpp:435] downsample_9/3x3_s2 <- inception_8a/output_inception_8a/output_0_split_0
I0122 16:59:12.869897 64218 net.cpp:409] downsample_9/3x3_s2 -> downsample_9/3x3_s2
I0122 16:59:12.871490 64218 net.cpp:144] Setting up downsample_9/3x3_s2
I0122 16:59:12.871501 64218 net.cpp:151] Top shape: 50 96 8 8 (307200)
I0122 16:59:12.871505 64218 net.cpp:159] Memory required for data: 509748200
I0122 16:59:12.871510 64218 layer_factory.hpp:77] Creating layer downsample_9/3x3_s2/bn1
I0122 16:59:12.871520 64218 net.cpp:94] Creating Layer downsample_9/3x3_s2/bn1
I0122 16:59:12.871523 64218 net.cpp:435] downsample_9/3x3_s2/bn1 <- downsample_9/3x3_s2
I0122 16:59:12.871529 64218 net.cpp:396] downsample_9/3x3_s2/bn1 -> downsample_9/3x3_s2 (in-place)
I0122 16:59:12.872220 64218 net.cpp:144] Setting up downsample_9/3x3_s2/bn1
I0122 16:59:12.872227 64218 net.cpp:151] Top shape: 50 96 8 8 (307200)
I0122 16:59:12.872231 64218 net.cpp:159] Memory required for data: 510977000
I0122 16:59:12.872237 64218 layer_factory.hpp:77] Creating layer downsample_9/3x3_s2/relu1
I0122 16:59:12.872244 64218 net.cpp:94] Creating Layer downsample_9/3x3_s2/relu1
I0122 16:59:12.872247 64218 net.cpp:435] downsample_9/3x3_s2/relu1 <- downsample_9/3x3_s2
I0122 16:59:12.872252 64218 net.cpp:396] downsample_9/3x3_s2/relu1 -> downsample_9/3x3_s2 (in-place)
I0122 16:59:12.872258 64218 net.cpp:144] Setting up downsample_9/3x3_s2/relu1
I0122 16:59:12.872262 64218 net.cpp:151] Top shape: 50 96 8 8 (307200)
I0122 16:59:12.872275 64218 net.cpp:159] Memory required for data: 512205800
I0122 16:59:12.872278 64218 layer_factory.hpp:77] Creating layer downsample_9/pool_s2
I0122 16:59:12.872283 64218 net.cpp:94] Creating Layer downsample_9/pool_s2
I0122 16:59:12.872290 64218 net.cpp:435] downsample_9/pool_s2 <- inception_8a/output_inception_8a/output_0_split_1
I0122 16:59:12.872297 64218 net.cpp:409] downsample_9/pool_s2 -> downsample_9/pool_s2
I0122 16:59:12.872329 64218 net.cpp:144] Setting up downsample_9/pool_s2
I0122 16:59:12.872335 64218 net.cpp:151] Top shape: 50 144 8 8 (460800)
I0122 16:59:12.872339 64218 net.cpp:159] Memory required for data: 514049000
I0122 16:59:12.872341 64218 layer_factory.hpp:77] Creating layer downsample_9/output
I0122 16:59:12.872350 64218 net.cpp:94] Creating Layer downsample_9/output
I0122 16:59:12.872355 64218 net.cpp:435] downsample_9/output <- downsample_9/3x3_s2
I0122 16:59:12.872359 64218 net.cpp:435] downsample_9/output <- downsample_9/pool_s2
I0122 16:59:12.872364 64218 net.cpp:409] downsample_9/output -> downsample_9/output
I0122 16:59:12.872381 64218 net.cpp:144] Setting up downsample_9/output
I0122 16:59:12.872386 64218 net.cpp:151] Top shape: 50 240 8 8 (768000)
I0122 16:59:12.872390 64218 net.cpp:159] Memory required for data: 517121000
I0122 16:59:12.872392 64218 layer_factory.hpp:77] Creating layer downsample_9/output_downsample_9/output_0_split
I0122 16:59:12.872400 64218 net.cpp:94] Creating Layer downsample_9/output_downsample_9/output_0_split
I0122 16:59:12.872406 64218 net.cpp:435] downsample_9/output_downsample_9/output_0_split <- downsample_9/output
I0122 16:59:12.872411 64218 net.cpp:409] downsample_9/output_downsample_9/output_0_split -> downsample_9/output_downsample_9/output_0_split_0
I0122 16:59:12.872418 64218 net.cpp:409] downsample_9/output_downsample_9/output_0_split -> downsample_9/output_downsample_9/output_0_split_1
I0122 16:59:12.872447 64218 net.cpp:144] Setting up downsample_9/output_downsample_9/output_0_split
I0122 16:59:12.872452 64218 net.cpp:151] Top shape: 50 240 8 8 (768000)
I0122 16:59:12.872457 64218 net.cpp:151] Top shape: 50 240 8 8 (768000)
I0122 16:59:12.872459 64218 net.cpp:159] Memory required for data: 523265000
I0122 16:59:12.872462 64218 layer_factory.hpp:77] Creating layer inception_10a/1x1
I0122 16:59:12.872470 64218 net.cpp:94] Creating Layer inception_10a/1x1
I0122 16:59:12.872475 64218 net.cpp:435] inception_10a/1x1 <- downsample_9/output_downsample_9/output_0_split_0
I0122 16:59:12.872481 64218 net.cpp:409] inception_10a/1x1 -> inception_10a/1x1
I0122 16:59:12.872944 64218 net.cpp:144] Setting up inception_10a/1x1
I0122 16:59:12.872951 64218 net.cpp:151] Top shape: 50 176 8 8 (563200)
I0122 16:59:12.872954 64218 net.cpp:159] Memory required for data: 525517800
I0122 16:59:12.872959 64218 layer_factory.hpp:77] Creating layer inception_10a/1x1/bn1
I0122 16:59:12.872967 64218 net.cpp:94] Creating Layer inception_10a/1x1/bn1
I0122 16:59:12.872972 64218 net.cpp:435] inception_10a/1x1/bn1 <- inception_10a/1x1
I0122 16:59:12.872978 64218 net.cpp:396] inception_10a/1x1/bn1 -> inception_10a/1x1 (in-place)
I0122 16:59:12.873661 64218 net.cpp:144] Setting up inception_10a/1x1/bn1
I0122 16:59:12.873667 64218 net.cpp:151] Top shape: 50 176 8 8 (563200)
I0122 16:59:12.873672 64218 net.cpp:159] Memory required for data: 527770600
I0122 16:59:12.873678 64218 layer_factory.hpp:77] Creating layer inception_10a/1x1/relu1
I0122 16:59:12.873683 64218 net.cpp:94] Creating Layer inception_10a/1x1/relu1
I0122 16:59:12.873687 64218 net.cpp:435] inception_10a/1x1/relu1 <- inception_10a/1x1
I0122 16:59:12.873690 64218 net.cpp:396] inception_10a/1x1/relu1 -> inception_10a/1x1 (in-place)
I0122 16:59:12.873697 64218 net.cpp:144] Setting up inception_10a/1x1/relu1
I0122 16:59:12.873700 64218 net.cpp:151] Top shape: 50 176 8 8 (563200)
I0122 16:59:12.873703 64218 net.cpp:159] Memory required for data: 530023400
I0122 16:59:12.873705 64218 layer_factory.hpp:77] Creating layer inception_10a/3x3
I0122 16:59:12.873716 64218 net.cpp:94] Creating Layer inception_10a/3x3
I0122 16:59:12.873729 64218 net.cpp:435] inception_10a/3x3 <- downsample_9/output_downsample_9/output_0_split_1
I0122 16:59:12.873734 64218 net.cpp:409] inception_10a/3x3 -> inception_10a/3x3
I0122 16:59:12.876235 64218 net.cpp:144] Setting up inception_10a/3x3
I0122 16:59:12.876248 64218 net.cpp:151] Top shape: 50 160 8 8 (512000)
I0122 16:59:12.876250 64218 net.cpp:159] Memory required for data: 532071400
I0122 16:59:12.876255 64218 layer_factory.hpp:77] Creating layer inception_10a/3x3/bn1
I0122 16:59:12.876263 64218 net.cpp:94] Creating Layer inception_10a/3x3/bn1
I0122 16:59:12.876267 64218 net.cpp:435] inception_10a/3x3/bn1 <- inception_10a/3x3
I0122 16:59:12.876272 64218 net.cpp:396] inception_10a/3x3/bn1 -> inception_10a/3x3 (in-place)
I0122 16:59:12.876888 64218 net.cpp:144] Setting up inception_10a/3x3/bn1
I0122 16:59:12.876895 64218 net.cpp:151] Top shape: 50 160 8 8 (512000)
I0122 16:59:12.876899 64218 net.cpp:159] Memory required for data: 534119400
I0122 16:59:12.876905 64218 layer_factory.hpp:77] Creating layer inception_10a/3x3/relu1
I0122 16:59:12.876910 64218 net.cpp:94] Creating Layer inception_10a/3x3/relu1
I0122 16:59:12.876914 64218 net.cpp:435] inception_10a/3x3/relu1 <- inception_10a/3x3
I0122 16:59:12.876920 64218 net.cpp:396] inception_10a/3x3/relu1 -> inception_10a/3x3 (in-place)
I0122 16:59:12.876926 64218 net.cpp:144] Setting up inception_10a/3x3/relu1
I0122 16:59:12.876932 64218 net.cpp:151] Top shape: 50 160 8 8 (512000)
I0122 16:59:12.876935 64218 net.cpp:159] Memory required for data: 536167400
I0122 16:59:12.876937 64218 layer_factory.hpp:77] Creating layer inception_10a/output
I0122 16:59:12.876941 64218 net.cpp:94] Creating Layer inception_10a/output
I0122 16:59:12.876945 64218 net.cpp:435] inception_10a/output <- inception_10a/1x1
I0122 16:59:12.876948 64218 net.cpp:435] inception_10a/output <- inception_10a/3x3
I0122 16:59:12.876955 64218 net.cpp:409] inception_10a/output -> inception_10a/output
I0122 16:59:12.876972 64218 net.cpp:144] Setting up inception_10a/output
I0122 16:59:12.876978 64218 net.cpp:151] Top shape: 50 336 8 8 (1075200)
I0122 16:59:12.876981 64218 net.cpp:159] Memory required for data: 540468200
I0122 16:59:12.876983 64218 layer_factory.hpp:77] Creating layer inception_10a/output_inception_10a/output_0_split
I0122 16:59:12.876989 64218 net.cpp:94] Creating Layer inception_10a/output_inception_10a/output_0_split
I0122 16:59:12.876992 64218 net.cpp:435] inception_10a/output_inception_10a/output_0_split <- inception_10a/output
I0122 16:59:12.876998 64218 net.cpp:409] inception_10a/output_inception_10a/output_0_split -> inception_10a/output_inception_10a/output_0_split_0
I0122 16:59:12.877004 64218 net.cpp:409] inception_10a/output_inception_10a/output_0_split -> inception_10a/output_inception_10a/output_0_split_1
I0122 16:59:12.877035 64218 net.cpp:144] Setting up inception_10a/output_inception_10a/output_0_split
I0122 16:59:12.877040 64218 net.cpp:151] Top shape: 50 336 8 8 (1075200)
I0122 16:59:12.877043 64218 net.cpp:151] Top shape: 50 336 8 8 (1075200)
I0122 16:59:12.877046 64218 net.cpp:159] Memory required for data: 549069800
I0122 16:59:12.877049 64218 layer_factory.hpp:77] Creating layer inception_11a/1x1
I0122 16:59:12.877058 64218 net.cpp:94] Creating Layer inception_11a/1x1
I0122 16:59:12.877060 64218 net.cpp:435] inception_11a/1x1 <- inception_10a/output_inception_10a/output_0_split_0
I0122 16:59:12.877068 64218 net.cpp:409] inception_11a/1x1 -> inception_11a/1x1
I0122 16:59:12.877626 64218 net.cpp:144] Setting up inception_11a/1x1
I0122 16:59:12.877634 64218 net.cpp:151] Top shape: 50 176 8 8 (563200)
I0122 16:59:12.877637 64218 net.cpp:159] Memory required for data: 551322600
I0122 16:59:12.877642 64218 layer_factory.hpp:77] Creating layer inception_11a/1x1/bn1
I0122 16:59:12.877650 64218 net.cpp:94] Creating Layer inception_11a/1x1/bn1
I0122 16:59:12.877653 64218 net.cpp:435] inception_11a/1x1/bn1 <- inception_11a/1x1
I0122 16:59:12.877660 64218 net.cpp:396] inception_11a/1x1/bn1 -> inception_11a/1x1 (in-place)
I0122 16:59:12.878376 64218 net.cpp:144] Setting up inception_11a/1x1/bn1
I0122 16:59:12.878384 64218 net.cpp:151] Top shape: 50 176 8 8 (563200)
I0122 16:59:12.878387 64218 net.cpp:159] Memory required for data: 553575400
I0122 16:59:12.878394 64218 layer_factory.hpp:77] Creating layer inception_11a/1x1/relu1
I0122 16:59:12.878401 64218 net.cpp:94] Creating Layer inception_11a/1x1/relu1
I0122 16:59:12.878403 64218 net.cpp:435] inception_11a/1x1/relu1 <- inception_11a/1x1
I0122 16:59:12.878408 64218 net.cpp:396] inception_11a/1x1/relu1 -> inception_11a/1x1 (in-place)
I0122 16:59:12.878414 64218 net.cpp:144] Setting up inception_11a/1x1/relu1
I0122 16:59:12.878419 64218 net.cpp:151] Top shape: 50 176 8 8 (563200)
I0122 16:59:12.878422 64218 net.cpp:159] Memory required for data: 555828200
I0122 16:59:12.878424 64218 layer_factory.hpp:77] Creating layer inception_11a/3x3
I0122 16:59:12.878433 64218 net.cpp:94] Creating Layer inception_11a/3x3
I0122 16:59:12.878438 64218 net.cpp:435] inception_11a/3x3 <- inception_10a/output_inception_10a/output_0_split_1
I0122 16:59:12.878444 64218 net.cpp:409] inception_11a/3x3 -> inception_11a/3x3
I0122 16:59:12.882194 64218 net.cpp:144] Setting up inception_11a/3x3
I0122 16:59:12.882205 64218 net.cpp:151] Top shape: 50 160 8 8 (512000)
I0122 16:59:12.882207 64218 net.cpp:159] Memory required for data: 557876200
I0122 16:59:12.882212 64218 layer_factory.hpp:77] Creating layer inception_11a/3x3/bn1
I0122 16:59:12.882221 64218 net.cpp:94] Creating Layer inception_11a/3x3/bn1
I0122 16:59:12.882225 64218 net.cpp:435] inception_11a/3x3/bn1 <- inception_11a/3x3
I0122 16:59:12.882231 64218 net.cpp:396] inception_11a/3x3/bn1 -> inception_11a/3x3 (in-place)
I0122 16:59:12.882923 64218 net.cpp:144] Setting up inception_11a/3x3/bn1
I0122 16:59:12.882931 64218 net.cpp:151] Top shape: 50 160 8 8 (512000)
I0122 16:59:12.882935 64218 net.cpp:159] Memory required for data: 559924200
I0122 16:59:12.882953 64218 layer_factory.hpp:77] Creating layer inception_11a/3x3/relu1
I0122 16:59:12.882961 64218 net.cpp:94] Creating Layer inception_11a/3x3/relu1
I0122 16:59:12.882964 64218 net.cpp:435] inception_11a/3x3/relu1 <- inception_11a/3x3
I0122 16:59:12.882969 64218 net.cpp:396] inception_11a/3x3/relu1 -> inception_11a/3x3 (in-place)
I0122 16:59:12.882977 64218 net.cpp:144] Setting up inception_11a/3x3/relu1
I0122 16:59:12.882982 64218 net.cpp:151] Top shape: 50 160 8 8 (512000)
I0122 16:59:12.882985 64218 net.cpp:159] Memory required for data: 561972200
I0122 16:59:12.882987 64218 layer_factory.hpp:77] Creating layer inception_11a/output
I0122 16:59:12.882993 64218 net.cpp:94] Creating Layer inception_11a/output
I0122 16:59:12.882997 64218 net.cpp:435] inception_11a/output <- inception_11a/1x1
I0122 16:59:12.882999 64218 net.cpp:435] inception_11a/output <- inception_11a/3x3
I0122 16:59:12.883004 64218 net.cpp:409] inception_11a/output -> inception_11a/output
I0122 16:59:12.883024 64218 net.cpp:144] Setting up inception_11a/output
I0122 16:59:12.883029 64218 net.cpp:151] Top shape: 50 336 8 8 (1075200)
I0122 16:59:12.883033 64218 net.cpp:159] Memory required for data: 566273000
I0122 16:59:12.883034 64218 layer_factory.hpp:77] Creating layer avg_pool_12/8x8_s1
I0122 16:59:12.883041 64218 net.cpp:94] Creating Layer avg_pool_12/8x8_s1
I0122 16:59:12.883044 64218 net.cpp:435] avg_pool_12/8x8_s1 <- inception_11a/output
I0122 16:59:12.883049 64218 net.cpp:409] avg_pool_12/8x8_s1 -> avg_pool_12/8x8_s1
I0122 16:59:12.883071 64218 net.cpp:144] Setting up avg_pool_12/8x8_s1
I0122 16:59:12.883076 64218 net.cpp:151] Top shape: 50 336 1 1 (16800)
I0122 16:59:12.883080 64218 net.cpp:159] Memory required for data: 566340200
I0122 16:59:12.883081 64218 layer_factory.hpp:77] Creating layer drop_8x8_s1
I0122 16:59:12.883086 64218 net.cpp:94] Creating Layer drop_8x8_s1
I0122 16:59:12.883090 64218 net.cpp:435] drop_8x8_s1 <- avg_pool_12/8x8_s1
I0122 16:59:12.883095 64218 net.cpp:396] drop_8x8_s1 -> avg_pool_12/8x8_s1 (in-place)
I0122 16:59:12.883113 64218 net.cpp:144] Setting up drop_8x8_s1
I0122 16:59:12.883119 64218 net.cpp:151] Top shape: 50 336 1 1 (16800)
I0122 16:59:12.883133 64218 net.cpp:159] Memory required for data: 566407400
I0122 16:59:12.883136 64218 layer_factory.hpp:77] Creating layer loss/classifier
I0122 16:59:12.883143 64218 net.cpp:94] Creating Layer loss/classifier
I0122 16:59:12.883146 64218 net.cpp:435] loss/classifier <- avg_pool_12/8x8_s1
I0122 16:59:12.883152 64218 net.cpp:409] loss/classifier -> loss/classifier
I0122 16:59:12.883302 64218 net.cpp:144] Setting up loss/classifier
I0122 16:59:12.883307 64218 net.cpp:151] Top shape: 50 10 (500)
I0122 16:59:12.883311 64218 net.cpp:159] Memory required for data: 566409400
I0122 16:59:12.883316 64218 layer_factory.hpp:77] Creating layer loss/classifier_loss/classifier_0_split
I0122 16:59:12.883322 64218 net.cpp:94] Creating Layer loss/classifier_loss/classifier_0_split
I0122 16:59:12.883325 64218 net.cpp:435] loss/classifier_loss/classifier_0_split <- loss/classifier
I0122 16:59:12.883330 64218 net.cpp:409] loss/classifier_loss/classifier_0_split -> loss/classifier_loss/classifier_0_split_0
I0122 16:59:12.883337 64218 net.cpp:409] loss/classifier_loss/classifier_0_split -> loss/classifier_loss/classifier_0_split_1
I0122 16:59:12.883342 64218 net.cpp:409] loss/classifier_loss/classifier_0_split -> loss/classifier_loss/classifier_0_split_2
I0122 16:59:12.883347 64218 net.cpp:409] loss/classifier_loss/classifier_0_split -> loss/classifier_loss/classifier_0_split_3
I0122 16:59:12.883399 64218 net.cpp:144] Setting up loss/classifier_loss/classifier_0_split
I0122 16:59:12.883404 64218 net.cpp:151] Top shape: 50 10 (500)
I0122 16:59:12.883407 64218 net.cpp:151] Top shape: 50 10 (500)
I0122 16:59:12.883410 64218 net.cpp:151] Top shape: 50 10 (500)
I0122 16:59:12.883414 64218 net.cpp:151] Top shape: 50 10 (500)
I0122 16:59:12.883416 64218 net.cpp:159] Memory required for data: 566417400
I0122 16:59:12.883419 64218 layer_factory.hpp:77] Creating layer loss
I0122 16:59:12.883424 64218 net.cpp:94] Creating Layer loss
I0122 16:59:12.883426 64218 net.cpp:435] loss <- loss/classifier_loss/classifier_0_split_0
I0122 16:59:12.883430 64218 net.cpp:435] loss <- label_data_1_split_0
I0122 16:59:12.883436 64218 net.cpp:409] loss -> loss
…
