…
I0122 19:57:14.838330 70718 net.cpp:323] The NetState phase (0) differed from the phase (1) specified by a rule in layer accuracy-top1
I0122 19:57:14.838333 70718 net.cpp:323] The NetState phase (0) differed from the phase (1) specified by a rule in layer accuracy-top5
I0122 19:57:14.838850 70718 net.cpp:52] Initializing net from parameters: 
state {
  phase: TRAIN
}
layer {
  name: "data"
  type: "Data"
  top: "data"
  top: "label"
  include {
    phase: TRAIN
  }
  transform_param {
    mirror: true
    mean_value: 104
    mean_value: 117
    mean_value: 123
  }
  data_param {
    source: "cifar10/input/lmdb/train_lmdb"
    batch_size: 128
    backend: LMDB
  }
}
layer {
  name: "conv1/3x3_s1"
  type: "Convolution"
  bottom: "data"
  top: "conv1/3x3_s1"
  param {
    lr_mult: 1
    decay_mult: 1
    compression: PRUNE
  }
  param {
    lr_mult: 2
    decay_mult: 0
    compression: PRUNE
  }
  convolution_param {
    num_output: 96
    pad: 1
    kernel_size: 3
    stride: 1
    weight_filler {
      type: "xavier"
      std: 0.1
    }
    bias_filler {
      type: "constant"
      value: 0.2
    }
  }
}
layer {
  name: "conv1/bn1"
  type: "BatchNorm"
  bottom: "conv1/3x3_s1"
  top: "conv1/3x3_s1"
  param {
    lr_mult: 1
    decay_mult: 0
    compression: PRUNE
  }
  param {
    lr_mult: 1
    decay_mult: 0
    compression: PRUNE
  }
  param {
    lr_mult: 0
    decay_mult: 0
    compression: PRUNE
  }
  param {
    lr_mult: 0
    decay_mult: 0
    compression: PRUNE
  }
  batch_norm_param {
    use_global_stats: false
    scale_filler {
      type: "constant"
      value: 1
    }
    bias_filler {
      type: "constant"
      value: 0
    }
  }
}
layer {
  name: "conv1/relu1"
  type: "ReLU"
  bottom: "conv1/3x3_s1"
  top: "conv1/3x3_s1"
}
layer {
  name: "inception_2a/1x1"
  type: "Convolution"
  bottom: "conv1/3x3_s1"
  top: "inception_2a/1x1"
  param {
    lr_mult: 1
    decay_mult: 1
    compression: PRUNE
  }
  param {
    lr_mult: 2
    decay_mult: 0
    compression: PRUNE
  }
  convolution_param {
    num_output: 32
    kernel_size: 1
    weight_filler {
      type: "xavier"
      std: 0.03
    }
    bias_filler {
      type: "constant"
      value: 0.2
    }
  }
}
layer {
  name: "inception_2a/1x1/bn1"
  type: "BatchNorm"
  bottom: "inception_2a/1x1"
  top: "inception_2a/1x1"
  param {
    lr_mult: 1
    decay_mult: 0
    compression: PRUNE
  }
  param {
    lr_mult: 1
    decay_mult: 0
    compression: PRUNE
  }
  param {
    lr_mult: 0
    decay_mult: 0
    compression: PRUNE
  }
  param {
    lr_mult: 0
    decay_mult: 0
    compression: PRUNE
  }
  batch_norm_param {
    use_global_stats: false
    scale_filler {
      type: "constant"
      value: 1
    }
    bias_filler {
      type: "constant"
      value: 0
    }
  }
}
layer {
  name: "inception_2a/1x1/relu1"
  type: "ReLU"
  bottom: "inception_2a/1x1"
  top: "inception_2a/1x1"
}
layer {
  name: "inception_2a/3x3"
  type: "Convolution"
  bottom: "conv1/3x3_s1"
  top: "inception_2a/3x3"
  param {
    lr_mult: 1
    decay_mult: 1
    compression: PRUNE
  }
  param {
    lr_mult: 2
    decay_mult: 0
    compression: PRUNE
  }
  convolution_param {
    num_output: 32
    pad: 1
    kernel_size: 3
    weight_filler {
      type: "xavier"
      std: 0.03
    }
    bias_filler {
      type: "constant"
      value: 0.2
    }
  }
}
layer {
  name: "inception_2a/3x3/bn1"
  type: "BatchNorm"
  bottom: "inception_2a/3x3"
  top: "inception_2a/3x3"
  param {
    lr_mult: 1
    decay_mult: 0
    compression: PRUNE
  }
  param {
    lr_mult: 1
    decay_mult: 0
    compression: PRUNE
  }
  param {
    lr_mult: 0
    decay_mult: 0
    compression: PRUNE
  }
  param {
    lr_mult: 0
    decay_mult: 0
    compression: PRUNE
  }
  batch_norm_param {
    use_global_stats: false
    scale_filler {
      type: "constant"
      value: 1
    }
    bias_filler {
      type: "constant"
      value: 0
    }
  }
}
layer {
  name: "inception_2a/3x3/relu1"
  type: "ReLU"
  bottom: "inception_2a/3x3"
  top: "inception_2a/3x3"
}
layer {
  name: "inception_2a/output"
  type: "Concat"
  bottom: "inception_2a/1x1"
  bottom: "inception_2a/3x3"
  top: "inception_2a/output"
}
layer {
  name: "inception_3a/1x1"
  type: "Convolution"
  bottom: "inception_2a/output"
  top: "inception_3a/1x1"
  param {
    lr_mult: 1
    decay_mult: 1
    compression: PRUNE
  }
  param {
    lr_mult: 2
    decay_mult: 0
    compression: PRUNE
  }
  convolution_param {
    num_output: 32
    kernel_size: 1
    weight_filler {
      type: "xavier"
      std: 0.03
    }
    bias_filler {
      type: "constant"
      value: 0.2
    }
  }
}
layer {
  name: "inception_3a/1x1/bn1"
  type: "BatchNorm"
  bottom: "inception_3a/1x1"
  top: "inception_3a/1x1"
  param {
    lr_mult: 1
    decay_mult: 0
    compression: PRUNE
  }
  param {
    lr_mult: 1
    decay_mult: 0
    compression: PRUNE
  }
  param {
    lr_mult: 0
    decay_mult: 0
    compression: PRUNE
  }
  param {
    lr_mult: 0
    decay_mult: 0
    compression: PRUNE
  }
  batch_norm_param {
    use_global_stats: false
    scale_filler {
      type: "constant"
      value: 1
    }
    bias_filler {
      type: "constant"
      value: 0
    }
  }
}
layer {
  name: "inception_3a/1x1/relu1"
  type: "ReLU"
  bottom: "inception_3a/1x1"
  top: "inception_3a/1x1"
}
layer {
  name: "inception_3a/3x3"
  type: "Convolution"
  bottom: "inception_2a/output"
  top: "inception_3a/3x3"
  param {
    lr_mult: 1
    decay_mult: 1
    compression: PRUNE
  }
  param {
    lr_mult: 2
    decay_mult: 0
    compression: PRUNE
  }
  convolution_param {
    num_output: 48
    pad: 1
    kernel_size: 3
    weight_filler {
      type: "xavier"
      std: 0.03
    }
    bias_filler {
      type: "constant"
      value: 0.2
    }
  }
}
layer {
  name: "inception_3a/3x3/bn1"
  type: "BatchNorm"
  bottom: "inception_3a/3x3"
  top: "inception_3a/3x3"
  param {
    lr_mult: 1
    decay_mult: 0
    compression: PRUNE
  }
  param {
    lr_mult: 1
    decay_mult: 0
    compression: PRUNE
  }
  param {
    lr_mult: 0
    decay_mult: 0
    compression: PRUNE
  }
  param {
    lr_mult: 0
    decay_mult: 0
    compression: PRUNE
  }
  batch_norm_param {
    use_global_stats: false
    scale_filler {
      type: "constant"
      value: 1
    }
    bias_filler {
      type: "constant"
      value: 0
    }
  }
}
layer {
  name: "inception_3a/3x3/relu1"
  type: "ReLU"
  bottom: "inception_3a/3x3"
  top: "inception_3a/3x3"
}
layer {
  name: "inception_3a/output"
  type: "Concat"
  bottom: "inception_3a/1x1"
  bottom: "inception_3a/3x3"
  top: "inception_3a/output"
}
layer {
  name: "downsample_4/3x3_s2"
  type: "Convolution"
  bottom: "inception_3a/output"
  top: "downsample_4/3x3_s2"
  param {
    lr_mult: 1
    decay_mult: 1
    compression: PRUNE
  }
  param {
    lr_mult: 2
    decay_mult: 0
    compression: PRUNE
  }
  convolution_param {
    num_output: 80
    pad: 1
    kernel_size: 3
    stride: 2
    weight_filler {
      type: "xavier"
      std: 0.03
    }
    bias_filler {
      type: "constant"
      value: 0.2
    }
  }
}
layer {
  name: "downsample_4/3x3_s2/bn1"
  type: "BatchNorm"
  bottom: "downsample_4/3x3_s2"
  top: "downsample_4/3x3_s2"
  param {
    lr_mult: 1
    decay_mult: 0
    compression: PRUNE
  }
  param {
    lr_mult: 1
    decay_mult: 0
    compression: PRUNE
  }
  param {
    lr_mult: 0
    decay_mult: 0
    compression: PRUNE
  }
  param {
    lr_mult: 0
    decay_mult: 0
    compression: PRUNE
  }
  batch_norm_param {
    use_global_stats: false
    scale_filler {
      type: "constant"
      value: 1
    }
    bias_filler {
      type: "constant"
      value: 0
    }
  }
}
layer {
  name: "downsample_4/3x3_s2/relu1"
  type: "ReLU"
  bottom: "downsample_4/3x3_s2"
  top: "downsample_4/3x3_s2"
}
layer {
  name: "downsample_4/pool_s2"
  type: "Pooling"
  bottom: "inception_3a/output"
  top: "downsample_4/pool_s2"
  pooling_param {
    pool: MAX
    kernel_size: 3
    stride: 2
  }
}
layer {
  name: "downsample_4/output"
  type: "Concat"
  bottom: "downsample_4/3x3_s2"
  bottom: "downsample_4/pool_s2"
  top: "downsample_4/output"
}
layer {
  name: "inception_5a/1x1"
  type: "Convolution"
  bottom: "downsample_4/output"
  top: "inception_5a/1x1"
  param {
    lr_mult: 1
    decay_mult: 1
    compression: PRUNE
  }
  param {
    lr_mult: 2
    decay_mult: 0
    compression: PRUNE
  }
  convolution_param {
    num_output: 112
    kernel_size: 1
    weight_filler {
      type: "xavier"
      std: 0.03
    }
    bias_filler {
      type: "constant"
      value: 0.2
    }
  }
}
layer {
  name: "inception_5a/1x1/bn1"
  type: "BatchNorm"
  bottom: "inception_5a/1x1"
  top: "inception_5a/1x1"
  param {
    lr_mult: 1
    decay_mult: 0
    compression: PRUNE
  }
  param {
    lr_mult: 1
    decay_mult: 0
    compression: PRUNE
  }
  param {
    lr_mult: 0
    decay_mult: 0
    compression: PRUNE
  }
  param {
    lr_mult: 0
    decay_mult: 0
    compression: PRUNE
  }
  batch_norm_param {
    use_global_stats: false
    scale_filler {
      type: "constant"
      value: 1
    }
    bias_filler {
      type: "constant"
      value: 0
    }
  }
}
layer {
  name: "inception_5a/1x1/relu1"
  type: "ReLU"
  bottom: "inception_5a/1x1"
  top: "inception_5a/1x1"
}
layer {
  name: "inception_5a/3x3"
  type: "Convolution"
  bottom: "downsample_4/output"
  top: "inception_5a/3x3"
  param {
    lr_mult: 1
    decay_mult: 1
    compression: PRUNE
  }
  param {
    lr_mult: 2
    decay_mult: 0
    compression: PRUNE
  }
  convolution_param {
    num_output: 48
    pad: 1
    kernel_size: 3
    weight_filler {
      type: "xavier"
      std: 0.03
    }
    bias_filler {
      type: "constant"
      value: 0.2
    }
  }
}
layer {
  name: "inception_5a/3x3/bn1"
  type: "BatchNorm"
  bottom: "inception_5a/3x3"
  top: "inception_5a/3x3"
  param {
    lr_mult: 1
    decay_mult: 0
    compression: PRUNE
  }
  param {
    lr_mult: 1
    decay_mult: 0
    compression: PRUNE
  }
  param {
    lr_mult: 0
    decay_mult: 0
    compression: PRUNE
  }
  param {
    lr_mult: 0
    decay_mult: 0
    compression: PRUNE
  }
  batch_norm_param {
    use_global_stats: false
    scale_filler {
      type: "constant"
      value: 1
    }
    bias_filler {
      type: "constant"
      value: 0
    }
  }
}
layer {
  name: "inception_5a/3x3/relu1"
  type: "ReLU"
  bottom: "inception_5a/3x3"
  top: "inception_5a/3x3"
}
layer {
  name: "inception_5a/output"
  type: "Concat"
  bottom: "inception_5a/1x1"
  bottom: "inception_5a/3x3"
  top: "inception_5a/output"
}
layer {
  name: "inception_6a/1x1"
  type: "Convolution"
  bottom: "inception_5a/output"
  top: "inception_6a/1x1"
  param {
    lr_mult: 1
    decay_mult: 1
    compression: PRUNE
  }
  param {
    lr_mult: 2
    decay_mult: 0
    compression: PRUNE
  }
  convolution_param {
    num_output: 96
    kernel_size: 1
    weight_filler {
      type: "xavier"
      std: 0.03
    }
    bias_filler {
      type: "constant"
      value: 0.2
    }
  }
}
layer {
  name: "inception_6a/1x1/bn1"
  type: "BatchNorm"
  bottom: "inception_6a/1x1"
  top: "inception_6a/1x1"
  param {
    lr_mult: 1
    decay_mult: 0
    compression: PRUNE
  }
  param {
    lr_mult: 1
    decay_mult: 0
    compression: PRUNE
  }
  param {
    lr_mult: 0
    decay_mult: 0
    compression: PRUNE
  }
  param {
    lr_mult: 0
    decay_mult: 0
    compression: PRUNE
  }
  batch_norm_param {
    use_global_stats: false
    scale_filler {
      type: "constant"
      value: 1
    }
    bias_filler {
      type: "constant"
      value: 0
    }
  }
}
layer {
  name: "inception_6a/1x1/relu1"
  type: "ReLU"
  bottom: "inception_6a/1x1"
  top: "inception_6a/1x1"
}
layer {
  name: "inception_6a/3x3"
  type: "Convolution"
  bottom: "inception_5a/output"
  top: "inception_6a/3x3"
  param {
    lr_mult: 1
    decay_mult: 1
    compression: PRUNE
  }
  param {
    lr_mult: 2
    decay_mult: 0
    compression: PRUNE
  }
  convolution_param {
    num_output: 64
    pad: 1
    kernel_size: 3
    weight_filler {
      type: "xavier"
      std: 0.03
    }
    bias_filler {
      type: "constant"
      value: 0.2
    }
  }
}
layer {
  name: "inception_6a/3x3/bn1"
  type: "BatchNorm"
  bottom: "inception_6a/3x3"
  top: "inception_6a/3x3"
  param {
    lr_mult: 1
    decay_mult: 0
    compression: PRUNE
  }
  param {
    lr_mult: 1
    decay_mult: 0
    compression: PRUNE
  }
  param {
    lr_mult: 0
    decay_mult: 0
    compression: PRUNE
  }
  param {
    lr_mult: 0
    decay_mult: 0
    compression: PRUNE
  }
  batch_norm_param {
    use_global_stats: false
    scale_filler {
      type: "constant"
      value: 1
    }
    bias_filler {
      type: "constant"
      value: 0
    }
  }
}
layer {
  name: "inception_6a/3x3/relu1"
  type: "ReLU"
  bottom: "inception_6a/3x3"
  top: "inception_6a/3x3"
}
layer {
  name: "inception_6a/output"
  type: "Concat"
  bottom: "inception_6a/1x1"
  bottom: "inception_6a/3x3"
  top: "inception_6a/output"
}
layer {
  name: "inception_7a/1x1"
  type: "Convolution"
  bottom: "inception_6a/output"
  top: "inception_7a/1x1"
  param {
    lr_mult: 1
    decay_mult: 1
    compression: PRUNE
  }
  param {
    lr_mult: 2
    decay_mult: 0
    compression: PRUNE
  }
  convolution_param {
    num_output: 80
    kernel_size: 1
    weight_filler {
      type: "xavier"
      std: 0.03
    }
    bias_filler {
      type: "constant"
      value: 0.2
    }
  }
}
layer {
  name: "inception_7a/1x1/bn1"
  type: "BatchNorm"
  bottom: "inception_7a/1x1"
  top: "inception_7a/1x1"
  param {
    lr_mult: 1
    decay_mult: 0
    compression: PRUNE
  }
  param {
    lr_mult: 1
    decay_mult: 0
    compression: PRUNE
  }
  param {
    lr_mult: 0
    decay_mult: 0
    compression: PRUNE
  }
  param {
    lr_mult: 0
    decay_mult: 0
    compression: PRUNE
  }
  batch_norm_param {
    use_global_stats: false
    scale_filler {
      type: "constant"
      value: 1
    }
    bias_filler {
      type: "constant"
      value: 0
    }
  }
}
layer {
  name: "inception_7a/1x1/relu1"
  type: "ReLU"
  bottom: "inception_7a/1x1"
  top: "inception_7a/1x1"
}
layer {
  name: "inception_7a/3x3"
  type: "Convolution"
  bottom: "inception_6a/output"
  top: "inception_7a/3x3"
  param {
    lr_mult: 1
    decay_mult: 1
    compression: PRUNE
  }
  param {
    lr_mult: 2
    decay_mult: 0
    compression: PRUNE
  }
  convolution_param {
    num_output: 80
    pad: 1
    kernel_size: 3
    weight_filler {
      type: "xavier"
      std: 0.03
    }
    bias_filler {
      type: "constant"
      value: 0.2
    }
  }
}
layer {
  name: "inception_7a/3x3/bn1"
  type: "BatchNorm"
  bottom: "inception_7a/3x3"
  top: "inception_7a/3x3"
  param {
    lr_mult: 1
    decay_mult: 0
    compression: PRUNE
  }
  param {
    lr_mult: 1
    decay_mult: 0
    compression: PRUNE
  }
  param {
    lr_mult: 0
    decay_mult: 0
    compression: PRUNE
  }
  param {
    lr_mult: 0
    decay_mult: 0
    compression: PRUNE
  }
  batch_norm_param {
    use_global_stats: false
    scale_filler {
      type: "constant"
      value: 1
    }
    bias_filler {
      type: "constant"
      value: 0
    }
  }
}
layer {
  name: "inception_7a/3x3/relu1"
  type: "ReLU"
  bottom: "inception_7a/3x3"
  top: "inception_7a/3x3"
}
layer {
  name: "inception_7a/output"
  type: "Concat"
  bottom: "inception_7a/1x1"
  bottom: "inception_7a/3x3"
  top: "inception_7a/output"
}
layer {
  name: "inception_8a/1x1"
  type: "Convolution"
  bottom: "inception_7a/output"
  top: "inception_8a/1x1"
  param {
    lr_mult: 1
    decay_mult: 1
    compression: PRUNE
  }
  param {
    lr_mult: 2
    decay_mult: 0
    compression: PRUNE
  }
  convolution_param {
    num_output: 48
    kernel_size: 1
    weight_filler {
      type: "xavier"
      std: 0.03
    }
    bias_filler {
      type: "constant"
      value: 0.2
    }
  }
}
layer {
  name: "inception_8a/1x1/bn1"
  type: "BatchNorm"
  bottom: "inception_8a/1x1"
  top: "inception_8a/1x1"
  param {
    lr_mult: 1
    decay_mult: 0
    compression: PRUNE
  }
  param {
    lr_mult: 1
    decay_mult: 0
    compression: PRUNE
  }
  param {
    lr_mult: 0
    decay_mult: 0
    compression: PRUNE
  }
  param {
    lr_mult: 0
    decay_mult: 0
    compression: PRUNE
  }
  batch_norm_param {
    use_global_stats: false
    scale_filler {
      type: "constant"
      value: 1
    }
    bias_filler {
      type: "constant"
      value: 0
    }
  }
}
layer {
  name: "inception_8a/1x1/relu1"
  type: "ReLU"
  bottom: "inception_8a/1x1"
  top: "inception_8a/1x1"
}
layer {
  name: "inception_8a/3x3"
  type: "Convolution"
  bottom: "inception_7a/output"
  top: "inception_8a/3x3"
  param {
    lr_mult: 1
    decay_mult: 1
    compression: PRUNE
  }
  param {
    lr_mult: 2
    decay_mult: 0
    compression: PRUNE
  }
  convolution_param {
    num_output: 96
    pad: 1
    kernel_size: 3
    weight_filler {
      type: "xavier"
      std: 0.03
    }
    bias_filler {
      type: "constant"
      value: 0.2
    }
  }
}
layer {
  name: "inception_8a/3x3/bn1"
  type: "BatchNorm"
  bottom: "inception_8a/3x3"
  top: "inception_8a/3x3"
  param {
    lr_mult: 1
    decay_mult: 0
    compression: PRUNE
  }
  param {
    lr_mult: 1
    decay_mult: 0
    compression: PRUNE
  }
  param {
    lr_mult: 0
    decay_mult: 0
    compression: PRUNE
  }
  param {
    lr_mult: 0
    decay_mult: 0
    compression: PRUNE
  }
  batch_norm_param {
    use_global_stats: false
    scale_filler {
      type: "constant"
      value: 1
    }
    bias_filler {
      type: "constant"
      value: 0
    }
  }
}
layer {
  name: "inception_8a/3x3/relu1"
  type: "ReLU"
  bottom: "inception_8a/3x3"
  top: "inception_8a/3x3"
}
layer {
  name: "inception_8a/output"
  type: "Concat"
  bottom: "inception_8a/1x1"
  bottom: "inception_8a/3x3"
  top: "inception_8a/output"
}
layer {
  name: "downsample_9/3x3_s2"
  type: "Convolution"
  bottom: "inception_8a/output"
  top: "downsample_9/3x3_s2"
  param {
    lr_mult: 1
    decay_mult: 1
    compression: PRUNE
  }
  param {
    lr_mult: 2
    decay_mult: 0
    compression: PRUNE
  }
  convolution_param {
    num_output: 96
    pad: 1
    kernel_size: 3
    stride: 2
    weight_filler {
      type: "xavier"
      std: 0.03
    }
    bias_filler {
      type: "constant"
      value: 0.2
    }
  }
}
layer {
  name: "downsample_9/3x3_s2/bn1"
  type: "BatchNorm"
  bottom: "downsample_9/3x3_s2"
  top: "downsample_9/3x3_s2"
  param {
    lr_mult: 1
    decay_mult: 0
    compression: PRUNE
  }
  param {
    lr_mult: 1
    decay_mult: 0
    compression: PRUNE
  }
  param {
    lr_mult: 0
    decay_mult: 0
    compression: PRUNE
  }
  param {
    lr_mult: 0
    decay_mult: 0
    compression: PRUNE
  }
  batch_norm_param {
    use_global_stats: false
    scale_filler {
      type: "constant"
      value: 1
    }
    bias_filler {
      type: "constant"
      value: 0
    }
  }
}
layer {
  name: "downsample_9/3x3_s2/relu1"
  type: "ReLU"
  bottom: "downsample_9/3x3_s2"
  top: "downsample_9/3x3_s2"
}
layer {
  name: "downsample_9/pool_s2"
  type: "Pooling"
  bottom: "inception_8a/output"
  top: "downsample_9/pool_s2"
  pooling_param {
    pool: MAX
    kernel_size: 3
    stride: 2
  }
}
layer {
  name: "downsample_9/output"
  type: "Concat"
  bottom: "downsample_9/3x3_s2"
  bottom: "downsample_9/pool_s2"
  top: "downsample_9/output"
}
layer {
  name: "inception_10a/1x1"
  type: "Convolution"
  bottom: "downsample_9/output"
  top: "inception_10a/1x1"
  param {
    lr_mult: 1
    decay_mult: 1
    compression: PRUNE
  }
  param {
    lr_mult: 2
    decay_mult: 0
    compression: PRUNE
  }
  convolution_param {
    num_output: 176
    kernel_size: 1
    weight_filler {
      type: "xavier"
      std: 0.03
    }
    bias_filler {
      type: "constant"
      value: 0.2
    }
  }
}
layer {
  name: "inception_10a/1x1/bn1"
  type: "BatchNorm"
  bottom: "inception_10a/1x1"
  top: "inception_10a/1x1"
  param {
    lr_mult: 1
    decay_mult: 0
    compression: PRUNE
  }
  param {
    lr_mult: 1
    decay_mult: 0
    compression: PRUNE
  }
  param {
    lr_mult: 0
    decay_mult: 0
    compression: PRUNE
  }
  param {
    lr_mult: 0
    decay_mult: 0
    compression: PRUNE
  }
  batch_norm_param {
    use_global_stats: false
    scale_filler {
      type: "constant"
      value: 1
    }
    bias_filler {
      type: "constant"
      value: 0
    }
  }
}
layer {
  name: "inception_10a/1x1/relu1"
  type: "ReLU"
  bottom: "inception_10a/1x1"
  top: "inception_10a/1x1"
}
layer {
  name: "inception_10a/3x3"
  type: "Convolution"
  bottom: "downsample_9/output"
  top: "inception_10a/3x3"
  param {
    lr_mult: 1
    decay_mult: 1
    compression: PRUNE
  }
  param {
    lr_mult: 2
    decay_mult: 0
    compression: PRUNE
  }
  convolution_param {
    num_output: 160
    pad: 1
    kernel_size: 3
    weight_filler {
      type: "xavier"
      std: 0.03
    }
    bias_filler {
      type: "constant"
      value: 0.2
    }
  }
}
layer {
  name: "inception_10a/3x3/bn1"
  type: "BatchNorm"
  bottom: "inception_10a/3x3"
  top: "inception_10a/3x3"
  param {
    lr_mult: 1
    decay_mult: 0
    compression: PRUNE
  }
  param {
    lr_mult: 1
    decay_mult: 0
    compression: PRUNE
  }
  param {
    lr_mult: 0
    decay_mult: 0
    compression: PRUNE
  }
  param {
    lr_mult: 0
    decay_mult: 0
    compression: PRUNE
  }
  batch_norm_param {
    use_global_stats: false
    scale_filler {
      type: "constant"
      value: 1
    }
    bias_filler {
      type: "constant"
      value: 0
    }
  }
}
layer {
  name: "inception_10a/3x3/relu1"
  type: "ReLU"
  bottom: "inception_10a/3x3"
  top: "inception_10a/3x3"
}
layer {
  name: "inception_10a/output"
  type: "Concat"
  bottom: "inception_10a/1x1"
  bottom: "inception_10a/3x3"
  top: "inception_10a/output"
}
layer {
  name: "inception_11a/1x1"
  type: "Convolution"
  bottom: "inception_10a/output"
  top: "inception_11a/1x1"
  param {
    lr_mult: 1
    decay_mult: 1
    compression: PRUNE
  }
  param {
    lr_mult: 2
    decay_mult: 0
    compression: PRUNE
  }
  convolution_param {
    num_output: 176
    kernel_size: 1
    weight_filler {
      type: "xavier"
      std: 0.03
    }
    bias_filler {
      type: "constant"
      value: 0.2
    }
  }
}
layer {
  name: "inception_11a/1x1/bn1"
  type: "BatchNorm"
  bottom: "inception_11a/1x1"
  top: "inception_11a/1x1"
  param {
    lr_mult: 1
    decay_mult: 0
    compression: PRUNE
  }
  param {
    lr_mult: 1
    decay_mult: 0
    compression: PRUNE
  }
  param {
    lr_mult: 0
    decay_mult: 0
    compression: PRUNE
  }
  param {
    lr_mult: 0
    decay_mult: 0
    compression: PRUNE
  }
  batch_norm_param {
    use_global_stats: false
    scale_filler {
      type: "constant"
      value: 1
    }
    bias_filler {
      type: "constant"
      value: 0
    }
  }
}
layer {
  name: "inception_11a/1x1/relu1"
  type: "ReLU"
  bottom: "inception_11a/1x1"
  top: "inception_11a/1x1"
}
layer {
  name: "inception_11a/3x3"
  type: "Convolution"
  bottom: "inception_10a/output"
  top: "inception_11a/3x3"
  param {
    lr_mult: 1
    decay_mult: 1
    compression: PRUNE
  }
  param {
    lr_mult: 2
    decay_mult: 0
    compression: PRUNE
  }
  convolution_param {
    num_output: 160
    pad: 1
    kernel_size: 3
    weight_filler {
      type: "xavier"
      std: 0.03
    }
    bias_filler {
      type: "constant"
      value: 0.2
    }
  }
}
layer {
  name: "inception_11a/3x3/bn1"
  type: "BatchNorm"
  bottom: "inception_11a/3x3"
  top: "inception_11a/3x3"
  param {
    lr_mult: 1
    decay_mult: 0
    compression: PRUNE
  }
  param {
    lr_mult: 1
    decay_mult: 0
    compression: PRUNE
  }
  param {
    lr_mult: 0
    decay_mult: 0
    compression: PRUNE
  }
  param {
    lr_mult: 0
    decay_mult: 0
    compression: PRUNE
  }
  batch_norm_param {
    use_global_stats: false
    scale_filler {
      type: "constant"
      value: 1
    }
    bias_filler {
      type: "constant"
      value: 0
    }
  }
}
layer {
  name: "inception_11a/3x3/relu1"
  type: "ReLU"
  bottom: "inception_11a/3x3"
  top: "inception_11a/3x3"
}
layer {
  name: "inception_11a/output"
  type: "Concat"
  bottom: "inception_11a/1x1"
  bottom: "inception_11a/3x3"
  top: "inception_11a/output"
}
layer {
  name: "avg_pool_12/8x8_s1"
  type: "Pooling"
  bottom: "inception_11a/output"
  top: "avg_pool_12/8x8_s1"
  pooling_param {
    pool: AVE
    kernel_size: 8
    stride: 1
  }
}
layer {
  name: "drop_8x8_s1"
  type: "Dropout"
  bottom: "avg_pool_12/8x8_s1"
  top: "avg_pool_12/8x8_s1"
  dropout_param {
    dropout_ratio: 0.5
  }
}
layer {
  name: "loss/classifier"
  type: "InnerProduct"
  bottom: "avg_pool_12/8x8_s1"
  top: "loss/classifier"
  param {
    lr_mult: 1
    decay_mult: 1
  }
  param {
    lr_mult: 2
    decay_mult: 0
  }
  inner_product_param {
    num_output: 10
    weight_filler {
      type: "xavier"
    }
    bias_filler {
      type: "constant"
      value: 1
    }
  }
}
layer {
  name: "loss"
  type: "SoftmaxWithLoss"
  bottom: "loss/classifier"
  bottom: "label"
  top: "loss"
}
I0122 19:57:14.839166 70718 layer_factory.hpp:77] Creating layer data
I0122 19:57:14.839268 70718 internal_thread.cpp:27] Starting internal thread(s) on GPU 0
I0122 19:57:14.840065 70718 net.cpp:94] Creating Layer data
I0122 19:57:14.840076 70718 net.cpp:409] data -> data
I0122 19:57:14.840088 70718 net.cpp:409] data -> label
I0122 19:57:14.841506 70757 db_lmdb.cpp:35] Opened lmdb cifar10/input/lmdb/train_lmdb
I0122 19:57:14.841554 70757 data_reader.cpp:117] TRAIN: reading data using 1 channel(s)
I0122 19:57:14.841626 70718 data_layer.cpp:78] ReshapePrefetch 128, 3, 32, 32
I0122 19:57:14.841704 70718 data_layer.cpp:83] output data size: 128,3,32,32
I0122 19:57:14.849411 70718 internal_thread.cpp:27] Starting internal thread(s) on GPU 0
I0122 19:57:14.849478 70718 net.cpp:144] Setting up data
I0122 19:57:14.849486 70718 net.cpp:151] Top shape: 128 3 32 32 (393216)
I0122 19:57:14.849493 70718 net.cpp:151] Top shape: 128 (128)
I0122 19:57:14.849495 70718 net.cpp:159] Memory required for data: 1573376
I0122 19:57:14.849500 70718 layer_factory.hpp:77] Creating layer conv1/3x3_s1
I0122 19:57:14.849516 70718 net.cpp:94] Creating Layer conv1/3x3_s1
I0122 19:57:14.849524 70718 net.cpp:435] conv1/3x3_s1 <- data
I0122 19:57:14.849544 70718 net.cpp:409] conv1/3x3_s1 -> conv1/3x3_s1
I0122 19:57:14.851593 70718 net.cpp:144] Setting up conv1/3x3_s1
I0122 19:57:14.851608 70718 net.cpp:151] Top shape: 128 96 32 32 (12582912)
I0122 19:57:14.851611 70718 net.cpp:159] Memory required for data: 51905024
I0122 19:57:14.851644 70718 layer_factory.hpp:77] Creating layer conv1/bn1
I0122 19:57:14.851655 70718 net.cpp:94] Creating Layer conv1/bn1
I0122 19:57:14.851658 70718 net.cpp:435] conv1/bn1 <- conv1/3x3_s1
I0122 19:57:14.851667 70718 net.cpp:396] conv1/bn1 -> conv1/3x3_s1 (in-place)
I0122 19:57:14.852416 70718 net.cpp:144] Setting up conv1/bn1
I0122 19:57:14.852427 70718 net.cpp:151] Top shape: 128 96 32 32 (12582912)
I0122 19:57:14.852430 70718 net.cpp:159] Memory required for data: 102236672
I0122 19:57:14.852445 70718 layer_factory.hpp:77] Creating layer conv1/relu1
I0122 19:57:14.852455 70718 net.cpp:94] Creating Layer conv1/relu1
I0122 19:57:14.852458 70718 net.cpp:435] conv1/relu1 <- conv1/3x3_s1
I0122 19:57:14.852464 70718 net.cpp:396] conv1/relu1 -> conv1/3x3_s1 (in-place)
I0122 19:57:14.852478 70718 net.cpp:144] Setting up conv1/relu1
I0122 19:57:14.852494 70718 net.cpp:151] Top shape: 128 96 32 32 (12582912)
I0122 19:57:14.852497 70718 net.cpp:159] Memory required for data: 152568320
I0122 19:57:14.852501 70718 layer_factory.hpp:77] Creating layer conv1/3x3_s1_conv1/relu1_0_split
I0122 19:57:14.852510 70718 net.cpp:94] Creating Layer conv1/3x3_s1_conv1/relu1_0_split
I0122 19:57:14.852516 70718 net.cpp:435] conv1/3x3_s1_conv1/relu1_0_split <- conv1/3x3_s1
I0122 19:57:14.852522 70718 net.cpp:409] conv1/3x3_s1_conv1/relu1_0_split -> conv1/3x3_s1_conv1/relu1_0_split_0
I0122 19:57:14.852530 70718 net.cpp:409] conv1/3x3_s1_conv1/relu1_0_split -> conv1/3x3_s1_conv1/relu1_0_split_1
I0122 19:57:14.852571 70718 net.cpp:144] Setting up conv1/3x3_s1_conv1/relu1_0_split
I0122 19:57:14.852579 70718 net.cpp:151] Top shape: 128 96 32 32 (12582912)
I0122 19:57:14.852584 70718 net.cpp:151] Top shape: 128 96 32 32 (12582912)
I0122 19:57:14.852587 70718 net.cpp:159] Memory required for data: 253231616
I0122 19:57:14.852592 70718 layer_factory.hpp:77] Creating layer inception_2a/1x1
I0122 19:57:14.852602 70718 net.cpp:94] Creating Layer inception_2a/1x1
I0122 19:57:14.852607 70718 net.cpp:435] inception_2a/1x1 <- conv1/3x3_s1_conv1/relu1_0_split_0
I0122 19:57:14.852613 70718 net.cpp:409] inception_2a/1x1 -> inception_2a/1x1
I0122 19:57:14.853647 70718 net.cpp:144] Setting up inception_2a/1x1
I0122 19:57:14.853660 70718 net.cpp:151] Top shape: 128 32 32 32 (4194304)
I0122 19:57:14.853663 70718 net.cpp:159] Memory required for data: 270008832
I0122 19:57:14.853672 70718 layer_factory.hpp:77] Creating layer inception_2a/1x1/bn1
I0122 19:57:14.853683 70718 net.cpp:94] Creating Layer inception_2a/1x1/bn1
I0122 19:57:14.853688 70718 net.cpp:435] inception_2a/1x1/bn1 <- inception_2a/1x1
I0122 19:57:14.853694 70718 net.cpp:396] inception_2a/1x1/bn1 -> inception_2a/1x1 (in-place)
I0122 19:57:14.854457 70718 net.cpp:144] Setting up inception_2a/1x1/bn1
I0122 19:57:14.854466 70718 net.cpp:151] Top shape: 128 32 32 32 (4194304)
I0122 19:57:14.854468 70718 net.cpp:159] Memory required for data: 286786048
I0122 19:57:14.854477 70718 layer_factory.hpp:77] Creating layer inception_2a/1x1/relu1
I0122 19:57:14.854483 70718 net.cpp:94] Creating Layer inception_2a/1x1/relu1
I0122 19:57:14.854488 70718 net.cpp:435] inception_2a/1x1/relu1 <- inception_2a/1x1
I0122 19:57:14.854495 70718 net.cpp:396] inception_2a/1x1/relu1 -> inception_2a/1x1 (in-place)
I0122 19:57:14.854516 70718 net.cpp:144] Setting up inception_2a/1x1/relu1
I0122 19:57:14.854521 70718 net.cpp:151] Top shape: 128 32 32 32 (4194304)
I0122 19:57:14.854524 70718 net.cpp:159] Memory required for data: 303563264
I0122 19:57:14.854527 70718 layer_factory.hpp:77] Creating layer inception_2a/3x3
I0122 19:57:14.854539 70718 net.cpp:94] Creating Layer inception_2a/3x3
I0122 19:57:14.854545 70718 net.cpp:435] inception_2a/3x3 <- conv1/3x3_s1_conv1/relu1_0_split_1
I0122 19:57:14.854554 70718 net.cpp:409] inception_2a/3x3 -> inception_2a/3x3
I0122 19:57:14.855700 70718 net.cpp:144] Setting up inception_2a/3x3
I0122 19:57:14.855711 70718 net.cpp:151] Top shape: 128 32 32 32 (4194304)
I0122 19:57:14.855715 70718 net.cpp:159] Memory required for data: 320340480
I0122 19:57:14.855721 70718 layer_factory.hpp:77] Creating layer inception_2a/3x3/bn1
I0122 19:57:14.855729 70718 net.cpp:94] Creating Layer inception_2a/3x3/bn1
I0122 19:57:14.855732 70718 net.cpp:435] inception_2a/3x3/bn1 <- inception_2a/3x3
I0122 19:57:14.855741 70718 net.cpp:396] inception_2a/3x3/bn1 -> inception_2a/3x3 (in-place)
I0122 19:57:14.856446 70718 net.cpp:144] Setting up inception_2a/3x3/bn1
I0122 19:57:14.856453 70718 net.cpp:151] Top shape: 128 32 32 32 (4194304)
I0122 19:57:14.856457 70718 net.cpp:159] Memory required for data: 337117696
I0122 19:57:14.856472 70718 layer_factory.hpp:77] Creating layer inception_2a/3x3/relu1
I0122 19:57:14.856478 70718 net.cpp:94] Creating Layer inception_2a/3x3/relu1
I0122 19:57:14.856482 70718 net.cpp:435] inception_2a/3x3/relu1 <- inception_2a/3x3
I0122 19:57:14.856487 70718 net.cpp:396] inception_2a/3x3/relu1 -> inception_2a/3x3 (in-place)
I0122 19:57:14.856518 70718 net.cpp:144] Setting up inception_2a/3x3/relu1
I0122 19:57:14.856523 70718 net.cpp:151] Top shape: 128 32 32 32 (4194304)
I0122 19:57:14.856525 70718 net.cpp:159] Memory required for data: 353894912
I0122 19:57:14.856528 70718 layer_factory.hpp:77] Creating layer inception_2a/output
I0122 19:57:14.856534 70718 net.cpp:94] Creating Layer inception_2a/output
I0122 19:57:14.856540 70718 net.cpp:435] inception_2a/output <- inception_2a/1x1
I0122 19:57:14.856545 70718 net.cpp:435] inception_2a/output <- inception_2a/3x3
I0122 19:57:14.856552 70718 net.cpp:409] inception_2a/output -> inception_2a/output
I0122 19:57:14.856580 70718 net.cpp:144] Setting up inception_2a/output
I0122 19:57:14.856590 70718 net.cpp:151] Top shape: 128 64 32 32 (8388608)
I0122 19:57:14.856593 70718 net.cpp:159] Memory required for data: 387449344
I0122 19:57:14.856597 70718 layer_factory.hpp:77] Creating layer inception_2a/output_inception_2a/output_0_split
I0122 19:57:14.856602 70718 net.cpp:94] Creating Layer inception_2a/output_inception_2a/output_0_split
I0122 19:57:14.856606 70718 net.cpp:435] inception_2a/output_inception_2a/output_0_split <- inception_2a/output
I0122 19:57:14.856611 70718 net.cpp:409] inception_2a/output_inception_2a/output_0_split -> inception_2a/output_inception_2a/output_0_split_0
I0122 19:57:14.856618 70718 net.cpp:409] inception_2a/output_inception_2a/output_0_split -> inception_2a/output_inception_2a/output_0_split_1
I0122 19:57:14.856657 70718 net.cpp:144] Setting up inception_2a/output_inception_2a/output_0_split
I0122 19:57:14.856667 70718 net.cpp:151] Top shape: 128 64 32 32 (8388608)
I0122 19:57:14.856673 70718 net.cpp:151] Top shape: 128 64 32 32 (8388608)
I0122 19:57:14.856674 70718 net.cpp:159] Memory required for data: 454558208
I0122 19:57:14.856678 70718 layer_factory.hpp:77] Creating layer inception_3a/1x1
I0122 19:57:14.856688 70718 net.cpp:94] Creating Layer inception_3a/1x1
I0122 19:57:14.856690 70718 net.cpp:435] inception_3a/1x1 <- inception_2a/output_inception_2a/output_0_split_0
I0122 19:57:14.856695 70718 net.cpp:409] inception_3a/1x1 -> inception_3a/1x1
I0122 19:57:14.856942 70718 net.cpp:144] Setting up inception_3a/1x1
I0122 19:57:14.856951 70718 net.cpp:151] Top shape: 128 32 32 32 (4194304)
I0122 19:57:14.856954 70718 net.cpp:159] Memory required for data: 471335424
I0122 19:57:14.856959 70718 layer_factory.hpp:77] Creating layer inception_3a/1x1/bn1
I0122 19:57:14.856976 70718 net.cpp:94] Creating Layer inception_3a/1x1/bn1
I0122 19:57:14.856982 70718 net.cpp:435] inception_3a/1x1/bn1 <- inception_3a/1x1
I0122 19:57:14.857007 70718 net.cpp:396] inception_3a/1x1/bn1 -> inception_3a/1x1 (in-place)
I0122 19:57:14.857722 70718 net.cpp:144] Setting up inception_3a/1x1/bn1
I0122 19:57:14.857729 70718 net.cpp:151] Top shape: 128 32 32 32 (4194304)
I0122 19:57:14.857733 70718 net.cpp:159] Memory required for data: 488112640
I0122 19:57:14.857741 70718 layer_factory.hpp:77] Creating layer inception_3a/1x1/relu1
I0122 19:57:14.857746 70718 net.cpp:94] Creating Layer inception_3a/1x1/relu1
I0122 19:57:14.857749 70718 net.cpp:435] inception_3a/1x1/relu1 <- inception_3a/1x1
I0122 19:57:14.857754 70718 net.cpp:396] inception_3a/1x1/relu1 -> inception_3a/1x1 (in-place)
I0122 19:57:14.857762 70718 net.cpp:144] Setting up inception_3a/1x1/relu1
I0122 19:57:14.857769 70718 net.cpp:151] Top shape: 128 32 32 32 (4194304)
I0122 19:57:14.857772 70718 net.cpp:159] Memory required for data: 504889856
I0122 19:57:14.857776 70718 layer_factory.hpp:77] Creating layer inception_3a/3x3
I0122 19:57:14.857795 70718 net.cpp:94] Creating Layer inception_3a/3x3
I0122 19:57:14.857801 70718 net.cpp:435] inception_3a/3x3 <- inception_2a/output_inception_2a/output_0_split_1
I0122 19:57:14.857810 70718 net.cpp:409] inception_3a/3x3 -> inception_3a/3x3
I0122 19:57:14.858260 70718 net.cpp:144] Setting up inception_3a/3x3
I0122 19:57:14.858269 70718 net.cpp:151] Top shape: 128 48 32 32 (6291456)
I0122 19:57:14.858273 70718 net.cpp:159] Memory required for data: 530055680
I0122 19:57:14.858297 70718 layer_factory.hpp:77] Creating layer inception_3a/3x3/bn1
I0122 19:57:14.858306 70718 net.cpp:94] Creating Layer inception_3a/3x3/bn1
I0122 19:57:14.858311 70718 net.cpp:435] inception_3a/3x3/bn1 <- inception_3a/3x3
I0122 19:57:14.858320 70718 net.cpp:396] inception_3a/3x3/bn1 -> inception_3a/3x3 (in-place)
I0122 19:57:14.859016 70718 net.cpp:144] Setting up inception_3a/3x3/bn1
I0122 19:57:14.859025 70718 net.cpp:151] Top shape: 128 48 32 32 (6291456)
I0122 19:57:14.859027 70718 net.cpp:159] Memory required for data: 555221504
I0122 19:57:14.859040 70718 layer_factory.hpp:77] Creating layer inception_3a/3x3/relu1
I0122 19:57:14.859047 70718 net.cpp:94] Creating Layer inception_3a/3x3/relu1
I0122 19:57:14.859051 70718 net.cpp:435] inception_3a/3x3/relu1 <- inception_3a/3x3
I0122 19:57:14.859058 70718 net.cpp:396] inception_3a/3x3/relu1 -> inception_3a/3x3 (in-place)
I0122 19:57:14.859067 70718 net.cpp:144] Setting up inception_3a/3x3/relu1
I0122 19:57:14.859074 70718 net.cpp:151] Top shape: 128 48 32 32 (6291456)
I0122 19:57:14.859079 70718 net.cpp:159] Memory required for data: 580387328
I0122 19:57:14.859082 70718 layer_factory.hpp:77] Creating layer inception_3a/output
I0122 19:57:14.859092 70718 net.cpp:94] Creating Layer inception_3a/output
I0122 19:57:14.859098 70718 net.cpp:435] inception_3a/output <- inception_3a/1x1
I0122 19:57:14.859102 70718 net.cpp:435] inception_3a/output <- inception_3a/3x3
I0122 19:57:14.859107 70718 net.cpp:409] inception_3a/output -> inception_3a/output
I0122 19:57:14.859135 70718 net.cpp:144] Setting up inception_3a/output
I0122 19:57:14.859143 70718 net.cpp:151] Top shape: 128 80 32 32 (10485760)
I0122 19:57:14.859149 70718 net.cpp:159] Memory required for data: 622330368
I0122 19:57:14.859153 70718 layer_factory.hpp:77] Creating layer inception_3a/output_inception_3a/output_0_split
I0122 19:57:14.859158 70718 net.cpp:94] Creating Layer inception_3a/output_inception_3a/output_0_split
I0122 19:57:14.859160 70718 net.cpp:435] inception_3a/output_inception_3a/output_0_split <- inception_3a/output
I0122 19:57:14.859166 70718 net.cpp:409] inception_3a/output_inception_3a/output_0_split -> inception_3a/output_inception_3a/output_0_split_0
I0122 19:57:14.859175 70718 net.cpp:409] inception_3a/output_inception_3a/output_0_split -> inception_3a/output_inception_3a/output_0_split_1
I0122 19:57:14.859215 70718 net.cpp:144] Setting up inception_3a/output_inception_3a/output_0_split
I0122 19:57:14.859220 70718 net.cpp:151] Top shape: 128 80 32 32 (10485760)
I0122 19:57:14.859225 70718 net.cpp:151] Top shape: 128 80 32 32 (10485760)
I0122 19:57:14.859227 70718 net.cpp:159] Memory required for data: 706216448
I0122 19:57:14.859230 70718 layer_factory.hpp:77] Creating layer downsample_4/3x3_s2
I0122 19:57:14.859239 70718 net.cpp:94] Creating Layer downsample_4/3x3_s2
I0122 19:57:14.859243 70718 net.cpp:435] downsample_4/3x3_s2 <- inception_3a/output_inception_3a/output_0_split_0
I0122 19:57:14.859251 70718 net.cpp:409] downsample_4/3x3_s2 -> downsample_4/3x3_s2
I0122 19:57:14.859817 70718 net.cpp:144] Setting up downsample_4/3x3_s2
I0122 19:57:14.859824 70718 net.cpp:151] Top shape: 128 80 16 16 (2621440)
I0122 19:57:14.859827 70718 net.cpp:159] Memory required for data: 716702208
I0122 19:57:14.859833 70718 layer_factory.hpp:77] Creating layer downsample_4/3x3_s2/bn1
I0122 19:57:14.859840 70718 net.cpp:94] Creating Layer downsample_4/3x3_s2/bn1
I0122 19:57:14.859846 70718 net.cpp:435] downsample_4/3x3_s2/bn1 <- downsample_4/3x3_s2
I0122 19:57:14.859853 70718 net.cpp:396] downsample_4/3x3_s2/bn1 -> downsample_4/3x3_s2 (in-place)
I0122 19:57:14.860625 70718 net.cpp:144] Setting up downsample_4/3x3_s2/bn1
I0122 19:57:14.860633 70718 net.cpp:151] Top shape: 128 80 16 16 (2621440)
I0122 19:57:14.860635 70718 net.cpp:159] Memory required for data: 727187968
I0122 19:57:14.860644 70718 layer_factory.hpp:77] Creating layer downsample_4/3x3_s2/relu1
I0122 19:57:14.860651 70718 net.cpp:94] Creating Layer downsample_4/3x3_s2/relu1
I0122 19:57:14.860653 70718 net.cpp:435] downsample_4/3x3_s2/relu1 <- downsample_4/3x3_s2
I0122 19:57:14.860671 70718 net.cpp:396] downsample_4/3x3_s2/relu1 -> downsample_4/3x3_s2 (in-place)
I0122 19:57:14.860682 70718 net.cpp:144] Setting up downsample_4/3x3_s2/relu1
I0122 19:57:14.860690 70718 net.cpp:151] Top shape: 128 80 16 16 (2621440)
I0122 19:57:14.860694 70718 net.cpp:159] Memory required for data: 737673728
I0122 19:57:14.860698 70718 layer_factory.hpp:77] Creating layer downsample_4/pool_s2
I0122 19:57:14.860707 70718 net.cpp:94] Creating Layer downsample_4/pool_s2
I0122 19:57:14.860714 70718 net.cpp:435] downsample_4/pool_s2 <- inception_3a/output_inception_3a/output_0_split_1
I0122 19:57:14.860723 70718 net.cpp:409] downsample_4/pool_s2 -> downsample_4/pool_s2
I0122 19:57:14.860813 70718 net.cpp:144] Setting up downsample_4/pool_s2
I0122 19:57:14.860821 70718 net.cpp:151] Top shape: 128 80 16 16 (2621440)
I0122 19:57:14.860823 70718 net.cpp:159] Memory required for data: 748159488
I0122 19:57:14.860826 70718 layer_factory.hpp:77] Creating layer downsample_4/output
I0122 19:57:14.860831 70718 net.cpp:94] Creating Layer downsample_4/output
I0122 19:57:14.860836 70718 net.cpp:435] downsample_4/output <- downsample_4/3x3_s2
I0122 19:57:14.860838 70718 net.cpp:435] downsample_4/output <- downsample_4/pool_s2
I0122 19:57:14.860846 70718 net.cpp:409] downsample_4/output -> downsample_4/output
I0122 19:57:14.860867 70718 net.cpp:144] Setting up downsample_4/output
I0122 19:57:14.860874 70718 net.cpp:151] Top shape: 128 160 16 16 (5242880)
I0122 19:57:14.860886 70718 net.cpp:159] Memory required for data: 769131008
I0122 19:57:14.860890 70718 layer_factory.hpp:77] Creating layer downsample_4/output_downsample_4/output_0_split
I0122 19:57:14.860898 70718 net.cpp:94] Creating Layer downsample_4/output_downsample_4/output_0_split
I0122 19:57:14.860903 70718 net.cpp:435] downsample_4/output_downsample_4/output_0_split <- downsample_4/output
I0122 19:57:14.860910 70718 net.cpp:409] downsample_4/output_downsample_4/output_0_split -> downsample_4/output_downsample_4/output_0_split_0
I0122 19:57:14.860918 70718 net.cpp:409] downsample_4/output_downsample_4/output_0_split -> downsample_4/output_downsample_4/output_0_split_1
I0122 19:57:14.860961 70718 net.cpp:144] Setting up downsample_4/output_downsample_4/output_0_split
I0122 19:57:14.860967 70718 net.cpp:151] Top shape: 128 160 16 16 (5242880)
I0122 19:57:14.860971 70718 net.cpp:151] Top shape: 128 160 16 16 (5242880)
I0122 19:57:14.860975 70718 net.cpp:159] Memory required for data: 811074048
I0122 19:57:14.860976 70718 layer_factory.hpp:77] Creating layer inception_5a/1x1
I0122 19:57:14.860986 70718 net.cpp:94] Creating Layer inception_5a/1x1
I0122 19:57:14.860990 70718 net.cpp:435] inception_5a/1x1 <- downsample_4/output_downsample_4/output_0_split_0
I0122 19:57:14.860996 70718 net.cpp:409] inception_5a/1x1 -> inception_5a/1x1
I0122 19:57:14.861351 70718 net.cpp:144] Setting up inception_5a/1x1
I0122 19:57:14.861361 70718 net.cpp:151] Top shape: 128 112 16 16 (3670016)
I0122 19:57:14.861362 70718 net.cpp:159] Memory required for data: 825754112
I0122 19:57:14.861367 70718 layer_factory.hpp:77] Creating layer inception_5a/1x1/bn1
I0122 19:57:14.861376 70718 net.cpp:94] Creating Layer inception_5a/1x1/bn1
I0122 19:57:14.861382 70718 net.cpp:435] inception_5a/1x1/bn1 <- inception_5a/1x1
I0122 19:57:14.861388 70718 net.cpp:396] inception_5a/1x1/bn1 -> inception_5a/1x1 (in-place)
I0122 19:57:14.862061 70718 net.cpp:144] Setting up inception_5a/1x1/bn1
I0122 19:57:14.862071 70718 net.cpp:151] Top shape: 128 112 16 16 (3670016)
I0122 19:57:14.862073 70718 net.cpp:159] Memory required for data: 840434176
I0122 19:57:14.862082 70718 layer_factory.hpp:77] Creating layer inception_5a/1x1/relu1
I0122 19:57:14.862087 70718 net.cpp:94] Creating Layer inception_5a/1x1/relu1
I0122 19:57:14.862090 70718 net.cpp:435] inception_5a/1x1/relu1 <- inception_5a/1x1
I0122 19:57:14.862095 70718 net.cpp:396] inception_5a/1x1/relu1 -> inception_5a/1x1 (in-place)
I0122 19:57:14.862104 70718 net.cpp:144] Setting up inception_5a/1x1/relu1
I0122 19:57:14.862110 70718 net.cpp:151] Top shape: 128 112 16 16 (3670016)
I0122 19:57:14.862124 70718 net.cpp:159] Memory required for data: 855114240
I0122 19:57:14.862129 70718 layer_factory.hpp:77] Creating layer inception_5a/3x3
I0122 19:57:14.862141 70718 net.cpp:94] Creating Layer inception_5a/3x3
I0122 19:57:14.862149 70718 net.cpp:435] inception_5a/3x3 <- downsample_4/output_downsample_4/output_0_split_1
I0122 19:57:14.862157 70718 net.cpp:409] inception_5a/3x3 -> inception_5a/3x3
I0122 19:57:14.862895 70718 net.cpp:144] Setting up inception_5a/3x3
I0122 19:57:14.862905 70718 net.cpp:151] Top shape: 128 48 16 16 (1572864)
I0122 19:57:14.862908 70718 net.cpp:159] Memory required for data: 861405696
I0122 19:57:14.862913 70718 layer_factory.hpp:77] Creating layer inception_5a/3x3/bn1
I0122 19:57:14.862922 70718 net.cpp:94] Creating Layer inception_5a/3x3/bn1
I0122 19:57:14.862926 70718 net.cpp:435] inception_5a/3x3/bn1 <- inception_5a/3x3
I0122 19:57:14.862932 70718 net.cpp:396] inception_5a/3x3/bn1 -> inception_5a/3x3 (in-place)
I0122 19:57:14.863602 70718 net.cpp:144] Setting up inception_5a/3x3/bn1
I0122 19:57:14.863611 70718 net.cpp:151] Top shape: 128 48 16 16 (1572864)
I0122 19:57:14.863615 70718 net.cpp:159] Memory required for data: 867697152
I0122 19:57:14.863622 70718 layer_factory.hpp:77] Creating layer inception_5a/3x3/relu1
I0122 19:57:14.863631 70718 net.cpp:94] Creating Layer inception_5a/3x3/relu1
I0122 19:57:14.863634 70718 net.cpp:435] inception_5a/3x3/relu1 <- inception_5a/3x3
I0122 19:57:14.863639 70718 net.cpp:396] inception_5a/3x3/relu1 -> inception_5a/3x3 (in-place)
I0122 19:57:14.863649 70718 net.cpp:144] Setting up inception_5a/3x3/relu1
I0122 19:57:14.863654 70718 net.cpp:151] Top shape: 128 48 16 16 (1572864)
I0122 19:57:14.863659 70718 net.cpp:159] Memory required for data: 873988608
I0122 19:57:14.863662 70718 layer_factory.hpp:77] Creating layer inception_5a/output
I0122 19:57:14.863672 70718 net.cpp:94] Creating Layer inception_5a/output
I0122 19:57:14.863678 70718 net.cpp:435] inception_5a/output <- inception_5a/1x1
I0122 19:57:14.863685 70718 net.cpp:435] inception_5a/output <- inception_5a/3x3
I0122 19:57:14.863692 70718 net.cpp:409] inception_5a/output -> inception_5a/output
I0122 19:57:14.863718 70718 net.cpp:144] Setting up inception_5a/output
I0122 19:57:14.863725 70718 net.cpp:151] Top shape: 128 160 16 16 (5242880)
I0122 19:57:14.863730 70718 net.cpp:159] Memory required for data: 894960128
I0122 19:57:14.863734 70718 layer_factory.hpp:77] Creating layer inception_5a/output_inception_5a/output_0_split
I0122 19:57:14.863740 70718 net.cpp:94] Creating Layer inception_5a/output_inception_5a/output_0_split
I0122 19:57:14.863744 70718 net.cpp:435] inception_5a/output_inception_5a/output_0_split <- inception_5a/output
I0122 19:57:14.863750 70718 net.cpp:409] inception_5a/output_inception_5a/output_0_split -> inception_5a/output_inception_5a/output_0_split_0
I0122 19:57:14.863759 70718 net.cpp:409] inception_5a/output_inception_5a/output_0_split -> inception_5a/output_inception_5a/output_0_split_1
I0122 19:57:14.863801 70718 net.cpp:144] Setting up inception_5a/output_inception_5a/output_0_split
I0122 19:57:14.863811 70718 net.cpp:151] Top shape: 128 160 16 16 (5242880)
I0122 19:57:14.863816 70718 net.cpp:151] Top shape: 128 160 16 16 (5242880)
I0122 19:57:14.863818 70718 net.cpp:159] Memory required for data: 936903168
I0122 19:57:14.863821 70718 layer_factory.hpp:77] Creating layer inception_6a/1x1
I0122 19:57:14.863828 70718 net.cpp:94] Creating Layer inception_6a/1x1
I0122 19:57:14.863832 70718 net.cpp:435] inception_6a/1x1 <- inception_5a/output_inception_5a/output_0_split_0
I0122 19:57:14.863840 70718 net.cpp:409] inception_6a/1x1 -> inception_6a/1x1
I0122 19:57:14.864886 70718 net.cpp:144] Setting up inception_6a/1x1
I0122 19:57:14.864897 70718 net.cpp:151] Top shape: 128 96 16 16 (3145728)
I0122 19:57:14.864899 70718 net.cpp:159] Memory required for data: 949486080
I0122 19:57:14.864905 70718 layer_factory.hpp:77] Creating layer inception_6a/1x1/bn1
I0122 19:57:14.864915 70718 net.cpp:94] Creating Layer inception_6a/1x1/bn1
I0122 19:57:14.864939 70718 net.cpp:435] inception_6a/1x1/bn1 <- inception_6a/1x1
I0122 19:57:14.864949 70718 net.cpp:396] inception_6a/1x1/bn1 -> inception_6a/1x1 (in-place)
I0122 19:57:14.865965 70718 net.cpp:144] Setting up inception_6a/1x1/bn1
I0122 19:57:14.865978 70718 net.cpp:151] Top shape: 128 96 16 16 (3145728)
I0122 19:57:14.865983 70718 net.cpp:159] Memory required for data: 962068992
I0122 19:57:14.865996 70718 layer_factory.hpp:77] Creating layer inception_6a/1x1/relu1
I0122 19:57:14.866006 70718 net.cpp:94] Creating Layer inception_6a/1x1/relu1
I0122 19:57:14.866011 70718 net.cpp:435] inception_6a/1x1/relu1 <- inception_6a/1x1
I0122 19:57:14.866020 70718 net.cpp:396] inception_6a/1x1/relu1 -> inception_6a/1x1 (in-place)
I0122 19:57:14.866034 70718 net.cpp:144] Setting up inception_6a/1x1/relu1
I0122 19:57:14.866041 70718 net.cpp:151] Top shape: 128 96 16 16 (3145728)
I0122 19:57:14.866044 70718 net.cpp:159] Memory required for data: 974651904
I0122 19:57:14.866050 70718 layer_factory.hpp:77] Creating layer inception_6a/3x3
I0122 19:57:14.866063 70718 net.cpp:94] Creating Layer inception_6a/3x3
I0122 19:57:14.866070 70718 net.cpp:435] inception_6a/3x3 <- inception_5a/output_inception_5a/output_0_split_1
I0122 19:57:14.866080 70718 net.cpp:409] inception_6a/3x3 -> inception_6a/3x3
I0122 19:57:14.867453 70718 net.cpp:144] Setting up inception_6a/3x3
I0122 19:57:14.867468 70718 net.cpp:151] Top shape: 128 64 16 16 (2097152)
I0122 19:57:14.867473 70718 net.cpp:159] Memory required for data: 983040512
I0122 19:57:14.867492 70718 layer_factory.hpp:77] Creating layer inception_6a/3x3/bn1
I0122 19:57:14.867508 70718 net.cpp:94] Creating Layer inception_6a/3x3/bn1
I0122 19:57:14.867516 70718 net.cpp:435] inception_6a/3x3/bn1 <- inception_6a/3x3
I0122 19:57:14.867527 70718 net.cpp:396] inception_6a/3x3/bn1 -> inception_6a/3x3 (in-place)
I0122 19:57:14.868402 70718 net.cpp:144] Setting up inception_6a/3x3/bn1
I0122 19:57:14.868417 70718 net.cpp:151] Top shape: 128 64 16 16 (2097152)
I0122 19:57:14.868422 70718 net.cpp:159] Memory required for data: 991429120
I0122 19:57:14.868435 70718 layer_factory.hpp:77] Creating layer inception_6a/3x3/relu1
I0122 19:57:14.868446 70718 net.cpp:94] Creating Layer inception_6a/3x3/relu1
I0122 19:57:14.868451 70718 net.cpp:435] inception_6a/3x3/relu1 <- inception_6a/3x3
I0122 19:57:14.868459 70718 net.cpp:396] inception_6a/3x3/relu1 -> inception_6a/3x3 (in-place)
I0122 19:57:14.868472 70718 net.cpp:144] Setting up inception_6a/3x3/relu1
I0122 19:57:14.868479 70718 net.cpp:151] Top shape: 128 64 16 16 (2097152)
I0122 19:57:14.868482 70718 net.cpp:159] Memory required for data: 999817728
I0122 19:57:14.868487 70718 layer_factory.hpp:77] Creating layer inception_6a/output
I0122 19:57:14.868496 70718 net.cpp:94] Creating Layer inception_6a/output
I0122 19:57:14.868505 70718 net.cpp:435] inception_6a/output <- inception_6a/1x1
I0122 19:57:14.868510 70718 net.cpp:435] inception_6a/output <- inception_6a/3x3
I0122 19:57:14.868518 70718 net.cpp:409] inception_6a/output -> inception_6a/output
I0122 19:57:14.868546 70718 net.cpp:144] Setting up inception_6a/output
I0122 19:57:14.868554 70718 net.cpp:151] Top shape: 128 160 16 16 (5242880)
I0122 19:57:14.868558 70718 net.cpp:159] Memory required for data: 1020789248
I0122 19:57:14.868563 70718 layer_factory.hpp:77] Creating layer inception_6a/output_inception_6a/output_0_split
I0122 19:57:14.868569 70718 net.cpp:94] Creating Layer inception_6a/output_inception_6a/output_0_split
I0122 19:57:14.868574 70718 net.cpp:435] inception_6a/output_inception_6a/output_0_split <- inception_6a/output
I0122 19:57:14.868583 70718 net.cpp:409] inception_6a/output_inception_6a/output_0_split -> inception_6a/output_inception_6a/output_0_split_0
I0122 19:57:14.868597 70718 net.cpp:409] inception_6a/output_inception_6a/output_0_split -> inception_6a/output_inception_6a/output_0_split_1
I0122 19:57:14.868639 70718 net.cpp:144] Setting up inception_6a/output_inception_6a/output_0_split
I0122 19:57:14.868647 70718 net.cpp:151] Top shape: 128 160 16 16 (5242880)
I0122 19:57:14.868669 70718 net.cpp:151] Top shape: 128 160 16 16 (5242880)
I0122 19:57:14.868674 70718 net.cpp:159] Memory required for data: 1062732288
I0122 19:57:14.868677 70718 layer_factory.hpp:77] Creating layer inception_7a/1x1
I0122 19:57:14.868690 70718 net.cpp:94] Creating Layer inception_7a/1x1
I0122 19:57:14.868696 70718 net.cpp:435] inception_7a/1x1 <- inception_6a/output_inception_6a/output_0_split_0
I0122 19:57:14.868705 70718 net.cpp:409] inception_7a/1x1 -> inception_7a/1x1
I0122 19:57:14.869055 70718 net.cpp:144] Setting up inception_7a/1x1
I0122 19:57:14.869062 70718 net.cpp:151] Top shape: 128 80 16 16 (2621440)
I0122 19:57:14.869065 70718 net.cpp:159] Memory required for data: 1073218048
I0122 19:57:14.869071 70718 layer_factory.hpp:77] Creating layer inception_7a/1x1/bn1
I0122 19:57:14.869079 70718 net.cpp:94] Creating Layer inception_7a/1x1/bn1
I0122 19:57:14.869082 70718 net.cpp:435] inception_7a/1x1/bn1 <- inception_7a/1x1
I0122 19:57:14.869089 70718 net.cpp:396] inception_7a/1x1/bn1 -> inception_7a/1x1 (in-place)
I0122 19:57:14.869942 70718 net.cpp:144] Setting up inception_7a/1x1/bn1
I0122 19:57:14.869951 70718 net.cpp:151] Top shape: 128 80 16 16 (2621440)
I0122 19:57:14.869954 70718 net.cpp:159] Memory required for data: 1083703808
I0122 19:57:14.869962 70718 layer_factory.hpp:77] Creating layer inception_7a/1x1/relu1
I0122 19:57:14.869971 70718 net.cpp:94] Creating Layer inception_7a/1x1/relu1
I0122 19:57:14.869973 70718 net.cpp:435] inception_7a/1x1/relu1 <- inception_7a/1x1
I0122 19:57:14.869978 70718 net.cpp:396] inception_7a/1x1/relu1 -> inception_7a/1x1 (in-place)
I0122 19:57:14.869990 70718 net.cpp:144] Setting up inception_7a/1x1/relu1
I0122 19:57:14.869998 70718 net.cpp:151] Top shape: 128 80 16 16 (2621440)
I0122 19:57:14.870002 70718 net.cpp:159] Memory required for data: 1094189568
I0122 19:57:14.870005 70718 layer_factory.hpp:77] Creating layer inception_7a/3x3
I0122 19:57:14.870018 70718 net.cpp:94] Creating Layer inception_7a/3x3
I0122 19:57:14.870025 70718 net.cpp:435] inception_7a/3x3 <- inception_6a/output_inception_6a/output_0_split_1
I0122 19:57:14.870034 70718 net.cpp:409] inception_7a/3x3 -> inception_7a/3x3
I0122 19:57:14.870947 70718 net.cpp:144] Setting up inception_7a/3x3
I0122 19:57:14.870956 70718 net.cpp:151] Top shape: 128 80 16 16 (2621440)
I0122 19:57:14.870960 70718 net.cpp:159] Memory required for data: 1104675328
I0122 19:57:14.870965 70718 layer_factory.hpp:77] Creating layer inception_7a/3x3/bn1
I0122 19:57:14.870975 70718 net.cpp:94] Creating Layer inception_7a/3x3/bn1
I0122 19:57:14.870977 70718 net.cpp:435] inception_7a/3x3/bn1 <- inception_7a/3x3
I0122 19:57:14.870985 70718 net.cpp:396] inception_7a/3x3/bn1 -> inception_7a/3x3 (in-place)
I0122 19:57:14.871769 70718 net.cpp:144] Setting up inception_7a/3x3/bn1
I0122 19:57:14.871778 70718 net.cpp:151] Top shape: 128 80 16 16 (2621440)
I0122 19:57:14.871779 70718 net.cpp:159] Memory required for data: 1115161088
I0122 19:57:14.871788 70718 layer_factory.hpp:77] Creating layer inception_7a/3x3/relu1
I0122 19:57:14.871793 70718 net.cpp:94] Creating Layer inception_7a/3x3/relu1
I0122 19:57:14.871796 70718 net.cpp:435] inception_7a/3x3/relu1 <- inception_7a/3x3
I0122 19:57:14.871803 70718 net.cpp:396] inception_7a/3x3/relu1 -> inception_7a/3x3 (in-place)
I0122 19:57:14.871815 70718 net.cpp:144] Setting up inception_7a/3x3/relu1
I0122 19:57:14.871820 70718 net.cpp:151] Top shape: 128 80 16 16 (2621440)
I0122 19:57:14.871824 70718 net.cpp:159] Memory required for data: 1125646848
I0122 19:57:14.871829 70718 layer_factory.hpp:77] Creating layer inception_7a/output
I0122 19:57:14.871834 70718 net.cpp:94] Creating Layer inception_7a/output
I0122 19:57:14.871839 70718 net.cpp:435] inception_7a/output <- inception_7a/1x1
I0122 19:57:14.871843 70718 net.cpp:435] inception_7a/output <- inception_7a/3x3
I0122 19:57:14.871850 70718 net.cpp:409] inception_7a/output -> inception_7a/output
I0122 19:57:14.871932 70718 net.cpp:144] Setting up inception_7a/output
I0122 19:57:14.871938 70718 net.cpp:151] Top shape: 128 160 16 16 (5242880)
I0122 19:57:14.871953 70718 net.cpp:159] Memory required for data: 1146618368
I0122 19:57:14.871956 70718 layer_factory.hpp:77] Creating layer inception_7a/output_inception_7a/output_0_split
I0122 19:57:14.871963 70718 net.cpp:94] Creating Layer inception_7a/output_inception_7a/output_0_split
I0122 19:57:14.871968 70718 net.cpp:435] inception_7a/output_inception_7a/output_0_split <- inception_7a/output
I0122 19:57:14.871974 70718 net.cpp:409] inception_7a/output_inception_7a/output_0_split -> inception_7a/output_inception_7a/output_0_split_0
I0122 19:57:14.871989 70718 net.cpp:409] inception_7a/output_inception_7a/output_0_split -> inception_7a/output_inception_7a/output_0_split_1
I0122 19:57:14.872028 70718 net.cpp:144] Setting up inception_7a/output_inception_7a/output_0_split
I0122 19:57:14.872038 70718 net.cpp:151] Top shape: 128 160 16 16 (5242880)
I0122 19:57:14.872042 70718 net.cpp:151] Top shape: 128 160 16 16 (5242880)
I0122 19:57:14.872045 70718 net.cpp:159] Memory required for data: 1188561408
I0122 19:57:14.872048 70718 layer_factory.hpp:77] Creating layer inception_8a/1x1
I0122 19:57:14.872056 70718 net.cpp:94] Creating Layer inception_8a/1x1
I0122 19:57:14.872061 70718 net.cpp:435] inception_8a/1x1 <- inception_7a/output_inception_7a/output_0_split_0
I0122 19:57:14.872067 70718 net.cpp:409] inception_8a/1x1 -> inception_8a/1x1
I0122 19:57:14.872367 70718 net.cpp:144] Setting up inception_8a/1x1
I0122 19:57:14.872375 70718 net.cpp:151] Top shape: 128 48 16 16 (1572864)
I0122 19:57:14.872376 70718 net.cpp:159] Memory required for data: 1194852864
I0122 19:57:14.872381 70718 layer_factory.hpp:77] Creating layer inception_8a/1x1/bn1
I0122 19:57:14.872390 70718 net.cpp:94] Creating Layer inception_8a/1x1/bn1
I0122 19:57:14.872392 70718 net.cpp:435] inception_8a/1x1/bn1 <- inception_8a/1x1
I0122 19:57:14.872400 70718 net.cpp:396] inception_8a/1x1/bn1 -> inception_8a/1x1 (in-place)
I0122 19:57:14.873090 70718 net.cpp:144] Setting up inception_8a/1x1/bn1
I0122 19:57:14.873097 70718 net.cpp:151] Top shape: 128 48 16 16 (1572864)
I0122 19:57:14.873100 70718 net.cpp:159] Memory required for data: 1201144320
I0122 19:57:14.873108 70718 layer_factory.hpp:77] Creating layer inception_8a/1x1/relu1
I0122 19:57:14.873113 70718 net.cpp:94] Creating Layer inception_8a/1x1/relu1
I0122 19:57:14.873117 70718 net.cpp:435] inception_8a/1x1/relu1 <- inception_8a/1x1
I0122 19:57:14.873123 70718 net.cpp:396] inception_8a/1x1/relu1 -> inception_8a/1x1 (in-place)
I0122 19:57:14.873133 70718 net.cpp:144] Setting up inception_8a/1x1/relu1
I0122 19:57:14.873139 70718 net.cpp:151] Top shape: 128 48 16 16 (1572864)
I0122 19:57:14.873143 70718 net.cpp:159] Memory required for data: 1207435776
I0122 19:57:14.873148 70718 layer_factory.hpp:77] Creating layer inception_8a/3x3
I0122 19:57:14.873160 70718 net.cpp:94] Creating Layer inception_8a/3x3
I0122 19:57:14.873167 70718 net.cpp:435] inception_8a/3x3 <- inception_7a/output_inception_7a/output_0_split_1
I0122 19:57:14.873178 70718 net.cpp:409] inception_8a/3x3 -> inception_8a/3x3
I0122 19:57:14.874861 70718 net.cpp:144] Setting up inception_8a/3x3
I0122 19:57:14.874871 70718 net.cpp:151] Top shape: 128 96 16 16 (3145728)
I0122 19:57:14.874874 70718 net.cpp:159] Memory required for data: 1220018688
I0122 19:57:14.874879 70718 layer_factory.hpp:77] Creating layer inception_8a/3x3/bn1
I0122 19:57:14.874887 70718 net.cpp:94] Creating Layer inception_8a/3x3/bn1
I0122 19:57:14.874891 70718 net.cpp:435] inception_8a/3x3/bn1 <- inception_8a/3x3
I0122 19:57:14.874897 70718 net.cpp:396] inception_8a/3x3/bn1 -> inception_8a/3x3 (in-place)
I0122 19:57:14.875560 70718 net.cpp:144] Setting up inception_8a/3x3/bn1
I0122 19:57:14.875568 70718 net.cpp:151] Top shape: 128 96 16 16 (3145728)
I0122 19:57:14.875571 70718 net.cpp:159] Memory required for data: 1232601600
I0122 19:57:14.875579 70718 layer_factory.hpp:77] Creating layer inception_8a/3x3/relu1
I0122 19:57:14.875587 70718 net.cpp:94] Creating Layer inception_8a/3x3/relu1
I0122 19:57:14.875591 70718 net.cpp:435] inception_8a/3x3/relu1 <- inception_8a/3x3
I0122 19:57:14.875612 70718 net.cpp:396] inception_8a/3x3/relu1 -> inception_8a/3x3 (in-place)
I0122 19:57:14.875624 70718 net.cpp:144] Setting up inception_8a/3x3/relu1
I0122 19:57:14.875632 70718 net.cpp:151] Top shape: 128 96 16 16 (3145728)
I0122 19:57:14.875634 70718 net.cpp:159] Memory required for data: 1245184512
I0122 19:57:14.875638 70718 layer_factory.hpp:77] Creating layer inception_8a/output
I0122 19:57:14.875644 70718 net.cpp:94] Creating Layer inception_8a/output
I0122 19:57:14.875655 70718 net.cpp:435] inception_8a/output <- inception_8a/1x1
I0122 19:57:14.875660 70718 net.cpp:435] inception_8a/output <- inception_8a/3x3
I0122 19:57:14.875668 70718 net.cpp:409] inception_8a/output -> inception_8a/output
I0122 19:57:14.875697 70718 net.cpp:144] Setting up inception_8a/output
I0122 19:57:14.875706 70718 net.cpp:151] Top shape: 128 144 16 16 (4718592)
I0122 19:57:14.875710 70718 net.cpp:159] Memory required for data: 1264058880
I0122 19:57:14.875715 70718 layer_factory.hpp:77] Creating layer inception_8a/output_inception_8a/output_0_split
I0122 19:57:14.875720 70718 net.cpp:94] Creating Layer inception_8a/output_inception_8a/output_0_split
I0122 19:57:14.875726 70718 net.cpp:435] inception_8a/output_inception_8a/output_0_split <- inception_8a/output
I0122 19:57:14.875733 70718 net.cpp:409] inception_8a/output_inception_8a/output_0_split -> inception_8a/output_inception_8a/output_0_split_0
I0122 19:57:14.875742 70718 net.cpp:409] inception_8a/output_inception_8a/output_0_split -> inception_8a/output_inception_8a/output_0_split_1
I0122 19:57:14.875784 70718 net.cpp:144] Setting up inception_8a/output_inception_8a/output_0_split
I0122 19:57:14.875792 70718 net.cpp:151] Top shape: 128 144 16 16 (4718592)
I0122 19:57:14.875797 70718 net.cpp:151] Top shape: 128 144 16 16 (4718592)
I0122 19:57:14.875798 70718 net.cpp:159] Memory required for data: 1301807616
I0122 19:57:14.875802 70718 layer_factory.hpp:77] Creating layer downsample_9/3x3_s2
I0122 19:57:14.875810 70718 net.cpp:94] Creating Layer downsample_9/3x3_s2
I0122 19:57:14.875815 70718 net.cpp:435] downsample_9/3x3_s2 <- inception_8a/output_inception_8a/output_0_split_0
I0122 19:57:14.875824 70718 net.cpp:409] downsample_9/3x3_s2 -> downsample_9/3x3_s2
I0122 19:57:14.876761 70718 net.cpp:144] Setting up downsample_9/3x3_s2
I0122 19:57:14.876773 70718 net.cpp:151] Top shape: 128 96 8 8 (786432)
I0122 19:57:14.876776 70718 net.cpp:159] Memory required for data: 1304953344
I0122 19:57:14.876781 70718 layer_factory.hpp:77] Creating layer downsample_9/3x3_s2/bn1
I0122 19:57:14.876791 70718 net.cpp:94] Creating Layer downsample_9/3x3_s2/bn1
I0122 19:57:14.876796 70718 net.cpp:435] downsample_9/3x3_s2/bn1 <- downsample_9/3x3_s2
I0122 19:57:14.876806 70718 net.cpp:396] downsample_9/3x3_s2/bn1 -> downsample_9/3x3_s2 (in-place)
I0122 19:57:14.877494 70718 net.cpp:144] Setting up downsample_9/3x3_s2/bn1
I0122 19:57:14.877501 70718 net.cpp:151] Top shape: 128 96 8 8 (786432)
I0122 19:57:14.877504 70718 net.cpp:159] Memory required for data: 1308099072
I0122 19:57:14.877512 70718 layer_factory.hpp:77] Creating layer downsample_9/3x3_s2/relu1
I0122 19:57:14.877519 70718 net.cpp:94] Creating Layer downsample_9/3x3_s2/relu1
I0122 19:57:14.877522 70718 net.cpp:435] downsample_9/3x3_s2/relu1 <- downsample_9/3x3_s2
I0122 19:57:14.877530 70718 net.cpp:396] downsample_9/3x3_s2/relu1 -> downsample_9/3x3_s2 (in-place)
I0122 19:57:14.877542 70718 net.cpp:144] Setting up downsample_9/3x3_s2/relu1
I0122 19:57:14.877550 70718 net.cpp:151] Top shape: 128 96 8 8 (786432)
I0122 19:57:14.877554 70718 net.cpp:159] Memory required for data: 1311244800
I0122 19:57:14.877558 70718 layer_factory.hpp:77] Creating layer downsample_9/pool_s2
I0122 19:57:14.877565 70718 net.cpp:94] Creating Layer downsample_9/pool_s2
I0122 19:57:14.877571 70718 net.cpp:435] downsample_9/pool_s2 <- inception_8a/output_inception_8a/output_0_split_1
I0122 19:57:14.877581 70718 net.cpp:409] downsample_9/pool_s2 -> downsample_9/pool_s2
I0122 19:57:14.877624 70718 net.cpp:144] Setting up downsample_9/pool_s2
I0122 19:57:14.877638 70718 net.cpp:151] Top shape: 128 144 8 8 (1179648)
I0122 19:57:14.877641 70718 net.cpp:159] Memory required for data: 1315963392
I0122 19:57:14.877645 70718 layer_factory.hpp:77] Creating layer downsample_9/output
I0122 19:57:14.877650 70718 net.cpp:94] Creating Layer downsample_9/output
I0122 19:57:14.877652 70718 net.cpp:435] downsample_9/output <- downsample_9/3x3_s2
I0122 19:57:14.877656 70718 net.cpp:435] downsample_9/output <- downsample_9/pool_s2
I0122 19:57:14.877662 70718 net.cpp:409] downsample_9/output -> downsample_9/output
I0122 19:57:14.877689 70718 net.cpp:144] Setting up downsample_9/output
I0122 19:57:14.877697 70718 net.cpp:151] Top shape: 128 240 8 8 (1966080)
I0122 19:57:14.877701 70718 net.cpp:159] Memory required for data: 1323827712
I0122 19:57:14.877704 70718 layer_factory.hpp:77] Creating layer downsample_9/output_downsample_9/output_0_split
I0122 19:57:14.877713 70718 net.cpp:94] Creating Layer downsample_9/output_downsample_9/output_0_split
I0122 19:57:14.877717 70718 net.cpp:435] downsample_9/output_downsample_9/output_0_split <- downsample_9/output
I0122 19:57:14.877724 70718 net.cpp:409] downsample_9/output_downsample_9/output_0_split -> downsample_9/output_downsample_9/output_0_split_0
I0122 19:57:14.877733 70718 net.cpp:409] downsample_9/output_downsample_9/output_0_split -> downsample_9/output_downsample_9/output_0_split_1
I0122 19:57:14.877774 70718 net.cpp:144] Setting up downsample_9/output_downsample_9/output_0_split
I0122 19:57:14.877779 70718 net.cpp:151] Top shape: 128 240 8 8 (1966080)
I0122 19:57:14.877784 70718 net.cpp:151] Top shape: 128 240 8 8 (1966080)
I0122 19:57:14.877785 70718 net.cpp:159] Memory required for data: 1339556352
I0122 19:57:14.877789 70718 layer_factory.hpp:77] Creating layer inception_10a/1x1
I0122 19:57:14.877799 70718 net.cpp:94] Creating Layer inception_10a/1x1
I0122 19:57:14.877804 70718 net.cpp:435] inception_10a/1x1 <- downsample_9/output_downsample_9/output_0_split_0
I0122 19:57:14.877811 70718 net.cpp:409] inception_10a/1x1 -> inception_10a/1x1
I0122 19:57:14.878301 70718 net.cpp:144] Setting up inception_10a/1x1
I0122 19:57:14.878309 70718 net.cpp:151] Top shape: 128 176 8 8 (1441792)
I0122 19:57:14.878312 70718 net.cpp:159] Memory required for data: 1345323520
I0122 19:57:14.878317 70718 layer_factory.hpp:77] Creating layer inception_10a/1x1/bn1
I0122 19:57:14.878325 70718 net.cpp:94] Creating Layer inception_10a/1x1/bn1
I0122 19:57:14.878330 70718 net.cpp:435] inception_10a/1x1/bn1 <- inception_10a/1x1
I0122 19:57:14.878340 70718 net.cpp:396] inception_10a/1x1/bn1 -> inception_10a/1x1 (in-place)
I0122 19:57:14.879026 70718 net.cpp:144] Setting up inception_10a/1x1/bn1
I0122 19:57:14.879035 70718 net.cpp:151] Top shape: 128 176 8 8 (1441792)
I0122 19:57:14.879037 70718 net.cpp:159] Memory required for data: 1351090688
I0122 19:57:14.879045 70718 layer_factory.hpp:77] Creating layer inception_10a/1x1/relu1
I0122 19:57:14.879053 70718 net.cpp:94] Creating Layer inception_10a/1x1/relu1
I0122 19:57:14.879057 70718 net.cpp:435] inception_10a/1x1/relu1 <- inception_10a/1x1
I0122 19:57:14.879063 70718 net.cpp:396] inception_10a/1x1/relu1 -> inception_10a/1x1 (in-place)
I0122 19:57:14.879074 70718 net.cpp:144] Setting up inception_10a/1x1/relu1
I0122 19:57:14.879081 70718 net.cpp:151] Top shape: 128 176 8 8 (1441792)
I0122 19:57:14.879086 70718 net.cpp:159] Memory required for data: 1356857856
I0122 19:57:14.879089 70718 layer_factory.hpp:77] Creating layer inception_10a/3x3
I0122 19:57:14.879101 70718 net.cpp:94] Creating Layer inception_10a/3x3
I0122 19:57:14.879107 70718 net.cpp:435] inception_10a/3x3 <- downsample_9/output_downsample_9/output_0_split_1
I0122 19:57:14.879117 70718 net.cpp:409] inception_10a/3x3 -> inception_10a/3x3
I0122 19:57:14.882319 70718 net.cpp:144] Setting up inception_10a/3x3
I0122 19:57:14.882333 70718 net.cpp:151] Top shape: 128 160 8 8 (1310720)
I0122 19:57:14.882334 70718 net.cpp:159] Memory required for data: 1362100736
I0122 19:57:14.882340 70718 layer_factory.hpp:77] Creating layer inception_10a/3x3/bn1
I0122 19:57:14.882375 70718 net.cpp:94] Creating Layer inception_10a/3x3/bn1
I0122 19:57:14.882381 70718 net.cpp:435] inception_10a/3x3/bn1 <- inception_10a/3x3
I0122 19:57:14.882392 70718 net.cpp:396] inception_10a/3x3/bn1 -> inception_10a/3x3 (in-place)
I0122 19:57:14.883085 70718 net.cpp:144] Setting up inception_10a/3x3/bn1
I0122 19:57:14.883093 70718 net.cpp:151] Top shape: 128 160 8 8 (1310720)
I0122 19:57:14.883096 70718 net.cpp:159] Memory required for data: 1367343616
I0122 19:57:14.883105 70718 layer_factory.hpp:77] Creating layer inception_10a/3x3/relu1
I0122 19:57:14.883111 70718 net.cpp:94] Creating Layer inception_10a/3x3/relu1
I0122 19:57:14.883116 70718 net.cpp:435] inception_10a/3x3/relu1 <- inception_10a/3x3
I0122 19:57:14.883122 70718 net.cpp:396] inception_10a/3x3/relu1 -> inception_10a/3x3 (in-place)
I0122 19:57:14.883133 70718 net.cpp:144] Setting up inception_10a/3x3/relu1
I0122 19:57:14.883139 70718 net.cpp:151] Top shape: 128 160 8 8 (1310720)
I0122 19:57:14.883143 70718 net.cpp:159] Memory required for data: 1372586496
I0122 19:57:14.883147 70718 layer_factory.hpp:77] Creating layer inception_10a/output
I0122 19:57:14.883155 70718 net.cpp:94] Creating Layer inception_10a/output
I0122 19:57:14.883162 70718 net.cpp:435] inception_10a/output <- inception_10a/1x1
I0122 19:57:14.883168 70718 net.cpp:435] inception_10a/output <- inception_10a/3x3
I0122 19:57:14.883175 70718 net.cpp:409] inception_10a/output -> inception_10a/output
I0122 19:57:14.883204 70718 net.cpp:144] Setting up inception_10a/output
I0122 19:57:14.883213 70718 net.cpp:151] Top shape: 128 336 8 8 (2752512)
I0122 19:57:14.883217 70718 net.cpp:159] Memory required for data: 1383596544
I0122 19:57:14.883221 70718 layer_factory.hpp:77] Creating layer inception_10a/output_inception_10a/output_0_split
I0122 19:57:14.883226 70718 net.cpp:94] Creating Layer inception_10a/output_inception_10a/output_0_split
I0122 19:57:14.883232 70718 net.cpp:435] inception_10a/output_inception_10a/output_0_split <- inception_10a/output
I0122 19:57:14.883240 70718 net.cpp:409] inception_10a/output_inception_10a/output_0_split -> inception_10a/output_inception_10a/output_0_split_0
I0122 19:57:14.883250 70718 net.cpp:409] inception_10a/output_inception_10a/output_0_split -> inception_10a/output_inception_10a/output_0_split_1
I0122 19:57:14.883291 70718 net.cpp:144] Setting up inception_10a/output_inception_10a/output_0_split
I0122 19:57:14.883298 70718 net.cpp:151] Top shape: 128 336 8 8 (2752512)
I0122 19:57:14.883302 70718 net.cpp:151] Top shape: 128 336 8 8 (2752512)
I0122 19:57:14.883306 70718 net.cpp:159] Memory required for data: 1405616640
I0122 19:57:14.883308 70718 layer_factory.hpp:77] Creating layer inception_11a/1x1
I0122 19:57:14.883321 70718 net.cpp:94] Creating Layer inception_11a/1x1
I0122 19:57:14.883325 70718 net.cpp:435] inception_11a/1x1 <- inception_10a/output_inception_10a/output_0_split_0
I0122 19:57:14.883333 70718 net.cpp:409] inception_11a/1x1 -> inception_11a/1x1
I0122 19:57:14.883913 70718 net.cpp:144] Setting up inception_11a/1x1
I0122 19:57:14.883921 70718 net.cpp:151] Top shape: 128 176 8 8 (1441792)
I0122 19:57:14.883924 70718 net.cpp:159] Memory required for data: 1411383808
I0122 19:57:14.883929 70718 layer_factory.hpp:77] Creating layer inception_11a/1x1/bn1
I0122 19:57:14.883937 70718 net.cpp:94] Creating Layer inception_11a/1x1/bn1
I0122 19:57:14.883944 70718 net.cpp:435] inception_11a/1x1/bn1 <- inception_11a/1x1
I0122 19:57:14.883952 70718 net.cpp:396] inception_11a/1x1/bn1 -> inception_11a/1x1 (in-place)
I0122 19:57:14.884652 70718 net.cpp:144] Setting up inception_11a/1x1/bn1
I0122 19:57:14.884660 70718 net.cpp:151] Top shape: 128 176 8 8 (1441792)
I0122 19:57:14.884663 70718 net.cpp:159] Memory required for data: 1417150976
I0122 19:57:14.884671 70718 layer_factory.hpp:77] Creating layer inception_11a/1x1/relu1
I0122 19:57:14.884680 70718 net.cpp:94] Creating Layer inception_11a/1x1/relu1
I0122 19:57:14.884686 70718 net.cpp:435] inception_11a/1x1/relu1 <- inception_11a/1x1
I0122 19:57:14.884706 70718 net.cpp:396] inception_11a/1x1/relu1 -> inception_11a/1x1 (in-place)
I0122 19:57:14.884716 70718 net.cpp:144] Setting up inception_11a/1x1/relu1
I0122 19:57:14.884721 70718 net.cpp:151] Top shape: 128 176 8 8 (1441792)
I0122 19:57:14.884724 70718 net.cpp:159] Memory required for data: 1422918144
I0122 19:57:14.884728 70718 layer_factory.hpp:77] Creating layer inception_11a/3x3
I0122 19:57:14.884740 70718 net.cpp:94] Creating Layer inception_11a/3x3
I0122 19:57:14.884747 70718 net.cpp:435] inception_11a/3x3 <- inception_10a/output_inception_10a/output_0_split_1
I0122 19:57:14.884755 70718 net.cpp:409] inception_11a/3x3 -> inception_11a/3x3
I0122 19:57:14.888675 70718 net.cpp:144] Setting up inception_11a/3x3
I0122 19:57:14.888687 70718 net.cpp:151] Top shape: 128 160 8 8 (1310720)
I0122 19:57:14.888690 70718 net.cpp:159] Memory required for data: 1428161024
I0122 19:57:14.888695 70718 layer_factory.hpp:77] Creating layer inception_11a/3x3/bn1
I0122 19:57:14.888703 70718 net.cpp:94] Creating Layer inception_11a/3x3/bn1
I0122 19:57:14.888708 70718 net.cpp:435] inception_11a/3x3/bn1 <- inception_11a/3x3
I0122 19:57:14.888715 70718 net.cpp:396] inception_11a/3x3/bn1 -> inception_11a/3x3 (in-place)
I0122 19:57:14.889382 70718 net.cpp:144] Setting up inception_11a/3x3/bn1
I0122 19:57:14.889390 70718 net.cpp:151] Top shape: 128 160 8 8 (1310720)
I0122 19:57:14.889394 70718 net.cpp:159] Memory required for data: 1433403904
I0122 19:57:14.889415 70718 layer_factory.hpp:77] Creating layer inception_11a/3x3/relu1
I0122 19:57:14.889423 70718 net.cpp:94] Creating Layer inception_11a/3x3/relu1
I0122 19:57:14.889430 70718 net.cpp:435] inception_11a/3x3/relu1 <- inception_11a/3x3
I0122 19:57:14.889436 70718 net.cpp:396] inception_11a/3x3/relu1 -> inception_11a/3x3 (in-place)
I0122 19:57:14.889446 70718 net.cpp:144] Setting up inception_11a/3x3/relu1
I0122 19:57:14.889452 70718 net.cpp:151] Top shape: 128 160 8 8 (1310720)
I0122 19:57:14.889456 70718 net.cpp:159] Memory required for data: 1438646784
I0122 19:57:14.889461 70718 layer_factory.hpp:77] Creating layer inception_11a/output
I0122 19:57:14.889467 70718 net.cpp:94] Creating Layer inception_11a/output
I0122 19:57:14.889473 70718 net.cpp:435] inception_11a/output <- inception_11a/1x1
I0122 19:57:14.889478 70718 net.cpp:435] inception_11a/output <- inception_11a/3x3
I0122 19:57:14.889487 70718 net.cpp:409] inception_11a/output -> inception_11a/output
I0122 19:57:14.889515 70718 net.cpp:144] Setting up inception_11a/output
I0122 19:57:14.889523 70718 net.cpp:151] Top shape: 128 336 8 8 (2752512)
I0122 19:57:14.889528 70718 net.cpp:159] Memory required for data: 1449656832
I0122 19:57:14.889531 70718 layer_factory.hpp:77] Creating layer avg_pool_12/8x8_s1
I0122 19:57:14.889541 70718 net.cpp:94] Creating Layer avg_pool_12/8x8_s1
I0122 19:57:14.889545 70718 net.cpp:435] avg_pool_12/8x8_s1 <- inception_11a/output
I0122 19:57:14.889554 70718 net.cpp:409] avg_pool_12/8x8_s1 -> avg_pool_12/8x8_s1
I0122 19:57:14.889587 70718 net.cpp:144] Setting up avg_pool_12/8x8_s1
I0122 19:57:14.889595 70718 net.cpp:151] Top shape: 128 336 1 1 (43008)
I0122 19:57:14.889597 70718 net.cpp:159] Memory required for data: 1449828864
I0122 19:57:14.889600 70718 layer_factory.hpp:77] Creating layer drop_8x8_s1
I0122 19:57:14.889606 70718 net.cpp:94] Creating Layer drop_8x8_s1
I0122 19:57:14.889611 70718 net.cpp:435] drop_8x8_s1 <- avg_pool_12/8x8_s1
I0122 19:57:14.889616 70718 net.cpp:396] drop_8x8_s1 -> avg_pool_12/8x8_s1 (in-place)
I0122 19:57:14.889642 70718 net.cpp:144] Setting up drop_8x8_s1
I0122 19:57:14.889648 70718 net.cpp:151] Top shape: 128 336 1 1 (43008)
I0122 19:57:14.889652 70718 net.cpp:159] Memory required for data: 1450000896
I0122 19:57:14.889657 70718 layer_factory.hpp:77] Creating layer loss/classifier
I0122 19:57:14.889665 70718 net.cpp:94] Creating Layer loss/classifier
I0122 19:57:14.889668 70718 net.cpp:435] loss/classifier <- avg_pool_12/8x8_s1
I0122 19:57:14.889675 70718 net.cpp:409] loss/classifier -> loss/classifier
I0122 19:57:14.889827 70718 net.cpp:144] Setting up loss/classifier
I0122 19:57:14.889842 70718 net.cpp:151] Top shape: 128 10 (1280)
I0122 19:57:14.889845 70718 net.cpp:159] Memory required for data: 1450006016
I0122 19:57:14.889850 70718 layer_factory.hpp:77] Creating layer loss
I0122 19:57:14.889855 70718 net.cpp:94] Creating Layer loss
I0122 19:57:14.889859 70718 net.cpp:435] loss <- loss/classifier
I0122 19:57:14.889863 70718 net.cpp:435] loss <- label
I0122 19:57:14.889868 70718 net.cpp:409] loss -> loss
I0122 19:57:14.889879 70718 layer_factory.hpp:77] Creating layer loss
…
I0122 19:57:14.891386 70718 solver.cpp:189] Creating test net (#0) specified by net file: cifar10/deephi/miniGoogleNet/pruning/regular_rate_0.4/net_finetune.prototxt
I0122 19:57:14.891481 70718 net.cpp:323] The NetState phase (1) differed from the phase (0) specified by a rule in layer data
I0122 19:57:14.892133 70718 net.cpp:52] Initializing net from parameters: 
state {
  phase: TEST
}
layer {
  name: "data"
  type: "Data"
  top: "data"
  top: "label"
  include {
    phase: TEST
  }
  transform_param {
    mirror: false
    mean_value: 104
    mean_value: 117
    mean_value: 123
  }
  data_param {
    source: "cifar10/input/lmdb/valid_lmdb"
    batch_size: 50
    backend: LMDB
  }
}
layer {
  name: "conv1/3x3_s1"
  type: "Convolution"
  bottom: "data"
  top: "conv1/3x3_s1"
  param {
    lr_mult: 1
    decay_mult: 1
    compression: PRUNE
  }
  param {
    lr_mult: 2
    decay_mult: 0
    compression: PRUNE
  }
  convolution_param {
    num_output: 96
    pad: 1
    kernel_size: 3
    stride: 1
    weight_filler {
      type: "xavier"
      std: 0.1
    }
    bias_filler {
      type: "constant"
      value: 0.2
    }
  }
}
layer {
  name: "conv1/bn1"
  type: "BatchNorm"
  bottom: "conv1/3x3_s1"
  top: "conv1/3x3_s1"
  param {
    lr_mult: 1
    decay_mult: 0
    compression: PRUNE
  }
  param {
    lr_mult: 1
    decay_mult: 0
    compression: PRUNE
  }
  param {
    lr_mult: 0
    decay_mult: 0
    compression: PRUNE
  }
  param {
    lr_mult: 0
    decay_mult: 0
    compression: PRUNE
  }
  batch_norm_param {
    use_global_stats: false
    scale_filler {
      type: "constant"
      value: 1
    }
    bias_filler {
      type: "constant"
      value: 0
    }
  }
}
layer {
  name: "conv1/relu1"
  type: "ReLU"
  bottom: "conv1/3x3_s1"
  top: "conv1/3x3_s1"
}
layer {
  name: "inception_2a/1x1"
  type: "Convolution"
  bottom: "conv1/3x3_s1"
  top: "inception_2a/1x1"
  param {
    lr_mult: 1
    decay_mult: 1
    compression: PRUNE
  }
  param {
    lr_mult: 2
    decay_mult: 0
    compression: PRUNE
  }
  convolution_param {
    num_output: 32
    kernel_size: 1
    weight_filler {
      type: "xavier"
      std: 0.03
    }
    bias_filler {
      type: "constant"
      value: 0.2
    }
  }
}
layer {
  name: "inception_2a/1x1/bn1"
  type: "BatchNorm"
  bottom: "inception_2a/1x1"
  top: "inception_2a/1x1"
  param {
    lr_mult: 1
    decay_mult: 0
    compression: PRUNE
  }
  param {
    lr_mult: 1
    decay_mult: 0
    compression: PRUNE
  }
  param {
    lr_mult: 0
    decay_mult: 0
    compression: PRUNE
  }
  param {
    lr_mult: 0
    decay_mult: 0
    compression: PRUNE
  }
  batch_norm_param {
    use_global_stats: false
    scale_filler {
      type: "constant"
      value: 1
    }
    bias_filler {
      type: "constant"
      value: 0
    }
  }
}
layer {
  name: "inception_2a/1x1/relu1"
  type: "ReLU"
  bottom: "inception_2a/1x1"
  top: "inception_2a/1x1"
}
layer {
  name: "inception_2a/3x3"
  type: "Convolution"
  bottom: "conv1/3x3_s1"
  top: "inception_2a/3x3"
  param {
    lr_mult: 1
    decay_mult: 1
    compression: PRUNE
  }
  param {
    lr_mult: 2
    decay_mult: 0
    compression: PRUNE
  }
  convolution_param {
    num_output: 32
    pad: 1
    kernel_size: 3
    weight_filler {
      type: "xavier"
      std: 0.03
    }
    bias_filler {
      type: "constant"
      value: 0.2
    }
  }
}
layer {
  name: "inception_2a/3x3/bn1"
  type: "BatchNorm"
  bottom: "inception_2a/3x3"
  top: "inception_2a/3x3"
  param {
    lr_mult: 1
    decay_mult: 0
    compression: PRUNE
  }
  param {
    lr_mult: 1
    decay_mult: 0
    compression: PRUNE
  }
  param {
    lr_mult: 0
    decay_mult: 0
    compression: PRUNE
  }
  param {
    lr_mult: 0
    decay_mult: 0
    compression: PRUNE
  }
  batch_norm_param {
    use_global_stats: false
    scale_filler {
      type: "constant"
      value: 1
    }
    bias_filler {
      type: "constant"
      value: 0
    }
  }
}
layer {
  name: "inception_2a/3x3/relu1"
  type: "ReLU"
  bottom: "inception_2a/3x3"
  top: "inception_2a/3x3"
}
layer {
  name: "inception_2a/output"
  type: "Concat"
  bottom: "inception_2a/1x1"
  bottom: "inception_2a/3x3"
  top: "inception_2a/output"
}
layer {
  name: "inception_3a/1x1"
  type: "Convolution"
  bottom: "inception_2a/output"
  top: "inception_3a/1x1"
  param {
    lr_mult: 1
    decay_mult: 1
    compression: PRUNE
  }
  param {
    lr_mult: 2
    decay_mult: 0
    compression: PRUNE
  }
  convolution_param {
    num_output: 32
    kernel_size: 1
    weight_filler {
      type: "xavier"
      std: 0.03
    }
    bias_filler {
      type: "constant"
      value: 0.2
    }
  }
}
layer {
  name: "inception_3a/1x1/bn1"
  type: "BatchNorm"
  bottom: "inception_3a/1x1"
  top: "inception_3a/1x1"
  param {
    lr_mult: 1
    decay_mult: 0
    compression: PRUNE
  }
  param {
    lr_mult: 1
    decay_mult: 0
    compression: PRUNE
  }
  param {
    lr_mult: 0
    decay_mult: 0
    compression: PRUNE
  }
  param {
    lr_mult: 0
    decay_mult: 0
    compression: PRUNE
  }
  batch_norm_param {
    use_global_stats: false
    scale_filler {
      type: "constant"
      value: 1
    }
    bias_filler {
      type: "constant"
      value: 0
    }
  }
}
layer {
  name: "inception_3a/1x1/relu1"
  type: "ReLU"
  bottom: "inception_3a/1x1"
  top: "inception_3a/1x1"
}
layer {
  name: "inception_3a/3x3"
  type: "Convolution"
  bottom: "inception_2a/output"
  top: "inception_3a/3x3"
  param {
    lr_mult: 1
    decay_mult: 1
    compression: PRUNE
  }
  param {
    lr_mult: 2
    decay_mult: 0
    compression: PRUNE
  }
  convolution_param {
    num_output: 48
    pad: 1
    kernel_size: 3
    weight_filler {
      type: "xavier"
      std: 0.03
    }
    bias_filler {
      type: "constant"
      value: 0.2
    }
  }
}
layer {
  name: "inception_3a/3x3/bn1"
  type: "BatchNorm"
  bottom: "inception_3a/3x3"
  top: "inception_3a/3x3"
  param {
    lr_mult: 1
    decay_mult: 0
    compression: PRUNE
  }
  param {
    lr_mult: 1
    decay_mult: 0
    compression: PRUNE
  }
  param {
    lr_mult: 0
    decay_mult: 0
    compression: PRUNE
  }
  param {
    lr_mult: 0
    decay_mult: 0
    compression: PRUNE
  }
  batch_norm_param {
    use_global_stats: false
    scale_filler {
      type: "constant"
      value: 1
    }
    bias_filler {
      type: "constant"
      value: 0
    }
  }
}
layer {
  name: "inception_3a/3x3/relu1"
  type: "ReLU"
  bottom: "inception_3a/3x3"
  top: "inception_3a/3x3"
}
layer {
  name: "inception_3a/output"
  type: "Concat"
  bottom: "inception_3a/1x1"
  bottom: "inception_3a/3x3"
  top: "inception_3a/output"
}
layer {
  name: "downsample_4/3x3_s2"
  type: "Convolution"
  bottom: "inception_3a/output"
  top: "downsample_4/3x3_s2"
  param {
    lr_mult: 1
    decay_mult: 1
    compression: PRUNE
  }
  param {
    lr_mult: 2
    decay_mult: 0
    compression: PRUNE
  }
  convolution_param {
    num_output: 80
    pad: 1
    kernel_size: 3
    stride: 2
    weight_filler {
      type: "xavier"
      std: 0.03
    }
    bias_filler {
      type: "constant"
      value: 0.2
    }
  }
}
layer {
  name: "downsample_4/3x3_s2/bn1"
  type: "BatchNorm"
  bottom: "downsample_4/3x3_s2"
  top: "downsample_4/3x3_s2"
  param {
    lr_mult: 1
    decay_mult: 0
    compression: PRUNE
  }
  param {
    lr_mult: 1
    decay_mult: 0
    compression: PRUNE
  }
  param {
    lr_mult: 0
    decay_mult: 0
    compression: PRUNE
  }
  param {
    lr_mult: 0
    decay_mult: 0
    compression: PRUNE
  }
  batch_norm_param {
    use_global_stats: false
    scale_filler {
      type: "constant"
      value: 1
    }
    bias_filler {
      type: "constant"
      value: 0
    }
  }
}
layer {
  name: "downsample_4/3x3_s2/relu1"
  type: "ReLU"
  bottom: "downsample_4/3x3_s2"
  top: "downsample_4/3x3_s2"
}
layer {
  name: "downsample_4/pool_s2"
  type: "Pooling"
  bottom: "inception_3a/output"
  top: "downsample_4/pool_s2"
  pooling_param {
    pool: MAX
    kernel_size: 3
    stride: 2
  }
}
layer {
  name: "downsample_4/output"
  type: "Concat"
  bottom: "downsample_4/3x3_s2"
  bottom: "downsample_4/pool_s2"
  top: "downsample_4/output"
}
layer {
  name: "inception_5a/1x1"
  type: "Convolution"
  bottom: "downsample_4/output"
  top: "inception_5a/1x1"
  param {
    lr_mult: 1
    decay_mult: 1
    compression: PRUNE
  }
  param {
    lr_mult: 2
    decay_mult: 0
    compression: PRUNE
  }
  convolution_param {
    num_output: 112
    kernel_size: 1
    weight_filler {
      type: "xavier"
      std: 0.03
    }
    bias_filler {
      type: "constant"
      value: 0.2
    }
  }
}
layer {
  name: "inception_5a/1x1/bn1"
  type: "BatchNorm"
  bottom: "inception_5a/1x1"
  top: "inception_5a/1x1"
  param {
    lr_mult: 1
    decay_mult: 0
    compression: PRUNE
  }
  param {
    lr_mult: 1
    decay_mult: 0
    compression: PRUNE
  }
  param {
    lr_mult: 0
    decay_mult: 0
    compression: PRUNE
  }
  param {
    lr_mult: 0
    decay_mult: 0
    compression: PRUNE
  }
  batch_norm_param {
    use_global_stats: false
    scale_filler {
      type: "constant"
      value: 1
    }
    bias_filler {
      type: "constant"
      value: 0
    }
  }
}
layer {
  name: "inception_5a/1x1/relu1"
  type: "ReLU"
  bottom: "inception_5a/1x1"
  top: "inception_5a/1x1"
}
layer {
  name: "inception_5a/3x3"
  type: "Convolution"
  bottom: "downsample_4/output"
  top: "inception_5a/3x3"
  param {
    lr_mult: 1
    decay_mult: 1
    compression: PRUNE
  }
  param {
    lr_mult: 2
    decay_mult: 0
    compression: PRUNE
  }
  convolution_param {
    num_output: 48
    pad: 1
    kernel_size: 3
    weight_filler {
      type: "xavier"
      std: 0.03
    }
    bias_filler {
      type: "constant"
      value: 0.2
    }
  }
}
layer {
  name: "inception_5a/3x3/bn1"
  type: "BatchNorm"
  bottom: "inception_5a/3x3"
  top: "inception_5a/3x3"
  param {
    lr_mult: 1
    decay_mult: 0
    compression: PRUNE
  }
  param {
    lr_mult: 1
    decay_mult: 0
    compression: PRUNE
  }
  param {
    lr_mult: 0
    decay_mult: 0
    compression: PRUNE
  }
  param {
    lr_mult: 0
    decay_mult: 0
    compression: PRUNE
  }
  batch_norm_param {
    use_global_stats: false
    scale_filler {
      type: "constant"
      value: 1
    }
    bias_filler {
      type: "constant"
      value: 0
    }
  }
}
layer {
  name: "inception_5a/3x3/relu1"
  type: "ReLU"
  bottom: "inception_5a/3x3"
  top: "inception_5a/3x3"
}
layer {
  name: "inception_5a/output"
  type: "Concat"
  bottom: "inception_5a/1x1"
  bottom: "inception_5a/3x3"
  top: "inception_5a/output"
}
layer {
  name: "inception_6a/1x1"
  type: "Convolution"
  bottom: "inception_5a/output"
  top: "inception_6a/1x1"
  param {
    lr_mult: 1
    decay_mult: 1
    compression: PRUNE
  }
  param {
    lr_mult: 2
    decay_mult: 0
    compression: PRUNE
  }
  convolution_param {
    num_output: 96
    kernel_size: 1
    weight_filler {
      type: "xavier"
      std: 0.03
    }
    bias_filler {
      type: "constant"
      value: 0.2
    }
  }
}
layer {
  name: "inception_6a/1x1/bn1"
  type: "BatchNorm"
  bottom: "inception_6a/1x1"
  top: "inception_6a/1x1"
  param {
    lr_mult: 1
    decay_mult: 0
    compression: PRUNE
  }
  param {
    lr_mult: 1
    decay_mult: 0
    compression: PRUNE
  }
  param {
    lr_mult: 0
    decay_mult: 0
    compression: PRUNE
  }
  param {
    lr_mult: 0
    decay_mult: 0
    compression: PRUNE
  }
  batch_norm_param {
    use_global_stats: false
    scale_filler {
      type: "constant"
      value: 1
    }
    bias_filler {
      type: "constant"
      value: 0
    }
  }
}
layer {
  name: "inception_6a/1x1/relu1"
  type: "ReLU"
  bottom: "inception_6a/1x1"
  top: "inception_6a/1x1"
}
layer {
  name: "inception_6a/3x3"
  type: "Convolution"
  bottom: "inception_5a/output"
  top: "inception_6a/3x3"
  param {
    lr_mult: 1
    decay_mult: 1
    compression: PRUNE
  }
  param {
    lr_mult: 2
    decay_mult: 0
    compression: PRUNE
  }
  convolution_param {
    num_output: 64
    pad: 1
    kernel_size: 3
    weight_filler {
      type: "xavier"
      std: 0.03
    }
    bias_filler {
      type: "constant"
      value: 0.2
    }
  }
}
layer {
  name: "inception_6a/3x3/bn1"
  type: "BatchNorm"
  bottom: "inception_6a/3x3"
  top: "inception_6a/3x3"
  param {
    lr_mult: 1
    decay_mult: 0
    compression: PRUNE
  }
  param {
    lr_mult: 1
    decay_mult: 0
    compression: PRUNE
  }
  param {
    lr_mult: 0
    decay_mult: 0
    compression: PRUNE
  }
  param {
    lr_mult: 0
    decay_mult: 0
    compression: PRUNE
  }
  batch_norm_param {
    use_global_stats: false
    scale_filler {
      type: "constant"
      value: 1
    }
    bias_filler {
      type: "constant"
      value: 0
    }
  }
}
layer {
  name: "inception_6a/3x3/relu1"
  type: "ReLU"
  bottom: "inception_6a/3x3"
  top: "inception_6a/3x3"
}
layer {
  name: "inception_6a/output"
  type: "Concat"
  bottom: "inception_6a/1x1"
  bottom: "inception_6a/3x3"
  top: "inception_6a/output"
}
layer {
  name: "inception_7a/1x1"
  type: "Convolution"
  bottom: "inception_6a/output"
  top: "inception_7a/1x1"
  param {
    lr_mult: 1
    decay_mult: 1
    compression: PRUNE
  }
  param {
    lr_mult: 2
    decay_mult: 0
    compression: PRUNE
  }
  convolution_param {
    num_output: 80
    kernel_size: 1
    weight_filler {
      type: "xavier"
      std: 0.03
    }
    bias_filler {
      type: "constant"
      value: 0.2
    }
  }
}
layer {
  name: "inception_7a/1x1/bn1"
  type: "BatchNorm"
  bottom: "inception_7a/1x1"
  top: "inception_7a/1x1"
  param {
    lr_mult: 1
    decay_mult: 0
    compression: PRUNE
  }
  param {
    lr_mult: 1
    decay_mult: 0
    compression: PRUNE
  }
  param {
    lr_mult: 0
    decay_mult: 0
    compression: PRUNE
  }
  param {
    lr_mult: 0
    decay_mult: 0
    compression: PRUNE
  }
  batch_norm_param {
    use_global_stats: false
    scale_filler {
      type: "constant"
      value: 1
    }
    bias_filler {
      type: "constant"
      value: 0
    }
  }
}
layer {
  name: "inception_7a/1x1/relu1"
  type: "ReLU"
  bottom: "inception_7a/1x1"
  top: "inception_7a/1x1"
}
layer {
  name: "inception_7a/3x3"
  type: "Convolution"
  bottom: "inception_6a/output"
  top: "inception_7a/3x3"
  param {
    lr_mult: 1
    decay_mult: 1
    compression: PRUNE
  }
  param {
    lr_mult: 2
    decay_mult: 0
    compression: PRUNE
  }
  convolution_param {
    num_output: 80
    pad: 1
    kernel_size: 3
    weight_filler {
      type: "xavier"
      std: 0.03
    }
    bias_filler {
      type: "constant"
      value: 0.2
    }
  }
}
layer {
  name: "inception_7a/3x3/bn1"
  type: "BatchNorm"
  bottom: "inception_7a/3x3"
  top: "inception_7a/3x3"
  param {
    lr_mult: 1
    decay_mult: 0
    compression: PRUNE
  }
  param {
    lr_mult: 1
    decay_mult: 0
    compression: PRUNE
  }
  param {
    lr_mult: 0
    decay_mult: 0
    compression: PRUNE
  }
  param {
    lr_mult: 0
    decay_mult: 0
    compression: PRUNE
  }
  batch_norm_param {
    use_global_stats: false
    scale_filler {
      type: "constant"
      value: 1
    }
    bias_filler {
      type: "constant"
      value: 0
    }
  }
}
layer {
  name: "inception_7a/3x3/relu1"
  type: "ReLU"
  bottom: "inception_7a/3x3"
  top: "inception_7a/3x3"
}
layer {
  name: "inception_7a/output"
  type: "Concat"
  bottom: "inception_7a/1x1"
  bottom: "inception_7a/3x3"
  top: "inception_7a/output"
}
layer {
  name: "inception_8a/1x1"
  type: "Convolution"
  bottom: "inception_7a/output"
  top: "inception_8a/1x1"
  param {
    lr_mult: 1
    decay_mult: 1
    compression: PRUNE
  }
  param {
    lr_mult: 2
    decay_mult: 0
    compression: PRUNE
  }
  convolution_param {
    num_output: 48
    kernel_size: 1
    weight_filler {
      type: "xavier"
      std: 0.03
    }
    bias_filler {
      type: "constant"
      value: 0.2
    }
  }
}
layer {
  name: "inception_8a/1x1/bn1"
  type: "BatchNorm"
  bottom: "inception_8a/1x1"
  top: "inception_8a/1x1"
  param {
    lr_mult: 1
    decay_mult: 0
    compression: PRUNE
  }
  param {
    lr_mult: 1
    decay_mult: 0
    compression: PRUNE
  }
  param {
    lr_mult: 0
    decay_mult: 0
    compression: PRUNE
  }
  param {
    lr_mult: 0
    decay_mult: 0
    compression: PRUNE
  }
  batch_norm_param {
    use_global_stats: false
    scale_filler {
      type: "constant"
      value: 1
    }
    bias_filler {
      type: "constant"
      value: 0
    }
  }
}
layer {
  name: "inception_8a/1x1/relu1"
  type: "ReLU"
  bottom: "inception_8a/1x1"
  top: "inception_8a/1x1"
}
layer {
  name: "inception_8a/3x3"
  type: "Convolution"
  bottom: "inception_7a/output"
  top: "inception_8a/3x3"
  param {
    lr_mult: 1
    decay_mult: 1
    compression: PRUNE
  }
  param {
    lr_mult: 2
    decay_mult: 0
    compression: PRUNE
  }
  convolution_param {
    num_output: 96
    pad: 1
    kernel_size: 3
    weight_filler {
      type: "xavier"
      std: 0.03
    }
    bias_filler {
      type: "constant"
      value: 0.2
    }
  }
}
layer {
  name: "inception_8a/3x3/bn1"
  type: "BatchNorm"
  bottom: "inception_8a/3x3"
  top: "inception_8a/3x3"
  param {
    lr_mult: 1
    decay_mult: 0
    compression: PRUNE
  }
  param {
    lr_mult: 1
    decay_mult: 0
    compression: PRUNE
  }
  param {
    lr_mult: 0
    decay_mult: 0
    compression: PRUNE
  }
  param {
    lr_mult: 0
    decay_mult: 0
    compression: PRUNE
  }
  batch_norm_param {
    use_global_stats: false
    scale_filler {
      type: "constant"
      value: 1
    }
    bias_filler {
      type: "constant"
      value: 0
    }
  }
}
layer {
  name: "inception_8a/3x3/relu1"
  type: "ReLU"
  bottom: "inception_8a/3x3"
  top: "inception_8a/3x3"
}
layer {
  name: "inception_8a/output"
  type: "Concat"
  bottom: "inception_8a/1x1"
  bottom: "inception_8a/3x3"
  top: "inception_8a/output"
}
layer {
  name: "downsample_9/3x3_s2"
  type: "Convolution"
  bottom: "inception_8a/output"
  top: "downsample_9/3x3_s2"
  param {
    lr_mult: 1
    decay_mult: 1
    compression: PRUNE
  }
  param {
    lr_mult: 2
    decay_mult: 0
    compression: PRUNE
  }
  convolution_param {
    num_output: 96
    pad: 1
    kernel_size: 3
    stride: 2
    weight_filler {
      type: "xavier"
      std: 0.03
    }
    bias_filler {
      type: "constant"
      value: 0.2
    }
  }
}
layer {
  name: "downsample_9/3x3_s2/bn1"
  type: "BatchNorm"
  bottom: "downsample_9/3x3_s2"
  top: "downsample_9/3x3_s2"
  param {
    lr_mult: 1
    decay_mult: 0
    compression: PRUNE
  }
  param {
    lr_mult: 1
    decay_mult: 0
    compression: PRUNE
  }
  param {
    lr_mult: 0
    decay_mult: 0
    compression: PRUNE
  }
  param {
    lr_mult: 0
    decay_mult: 0
    compression: PRUNE
  }
  batch_norm_param {
    use_global_stats: false
    scale_filler {
      type: "constant"
      value: 1
    }
    bias_filler {
      type: "constant"
      value: 0
    }
  }
}
layer {
  name: "downsample_9/3x3_s2/relu1"
  type: "ReLU"
  bottom: "downsample_9/3x3_s2"
  top: "downsample_9/3x3_s2"
}
layer {
  name: "downsample_9/pool_s2"
  type: "Pooling"
  bottom: "inception_8a/output"
  top: "downsample_9/pool_s2"
  pooling_param {
    pool: MAX
    kernel_size: 3
    stride: 2
  }
}
layer {
  name: "downsample_9/output"
  type: "Concat"
  bottom: "downsample_9/3x3_s2"
  bottom: "downsample_9/pool_s2"
  top: "downsample_9/output"
}
layer {
  name: "inception_10a/1x1"
  type: "Convolution"
  bottom: "downsample_9/output"
  top: "inception_10a/1x1"
  param {
    lr_mult: 1
    decay_mult: 1
    compression: PRUNE
  }
  param {
    lr_mult: 2
    decay_mult: 0
    compression: PRUNE
  }
  convolution_param {
    num_output: 176
    kernel_size: 1
    weight_filler {
      type: "xavier"
      std: 0.03
    }
    bias_filler {
      type: "constant"
      value: 0.2
    }
  }
}
layer {
  name: "inception_10a/1x1/bn1"
  type: "BatchNorm"
  bottom: "inception_10a/1x1"
  top: "inception_10a/1x1"
  param {
    lr_mult: 1
    decay_mult: 0
    compression: PRUNE
  }
  param {
    lr_mult: 1
    decay_mult: 0
    compression: PRUNE
  }
  param {
    lr_mult: 0
    decay_mult: 0
    compression: PRUNE
  }
  param {
    lr_mult: 0
    decay_mult: 0
    compression: PRUNE
  }
  batch_norm_param {
    use_global_stats: false
    scale_filler {
      type: "constant"
      value: 1
    }
    bias_filler {
      type: "constant"
      value: 0
    }
  }
}
layer {
  name: "inception_10a/1x1/relu1"
  type: "ReLU"
  bottom: "inception_10a/1x1"
  top: "inception_10a/1x1"
}
layer {
  name: "inception_10a/3x3"
  type: "Convolution"
  bottom: "downsample_9/output"
  top: "inception_10a/3x3"
  param {
    lr_mult: 1
    decay_mult: 1
    compression: PRUNE
  }
  param {
    lr_mult: 2
    decay_mult: 0
    compression: PRUNE
  }
  convolution_param {
    num_output: 160
    pad: 1
    kernel_size: 3
    weight_filler {
      type: "xavier"
      std: 0.03
    }
    bias_filler {
      type: "constant"
      value: 0.2
    }
  }
}
layer {
  name: "inception_10a/3x3/bn1"
  type: "BatchNorm"
  bottom: "inception_10a/3x3"
  top: "inception_10a/3x3"
  param {
    lr_mult: 1
    decay_mult: 0
    compression: PRUNE
  }
  param {
    lr_mult: 1
    decay_mult: 0
    compression: PRUNE
  }
  param {
    lr_mult: 0
    decay_mult: 0
    compression: PRUNE
  }
  param {
    lr_mult: 0
    decay_mult: 0
    compression: PRUNE
  }
  batch_norm_param {
    use_global_stats: false
    scale_filler {
      type: "constant"
      value: 1
    }
    bias_filler {
      type: "constant"
      value: 0
    }
  }
}
layer {
  name: "inception_10a/3x3/relu1"
  type: "ReLU"
  bottom: "inception_10a/3x3"
  top: "inception_10a/3x3"
}
layer {
  name: "inception_10a/output"
  type: "Concat"
  bottom: "inception_10a/1x1"
  bottom: "inception_10a/3x3"
  top: "inception_10a/output"
}
layer {
  name: "inception_11a/1x1"
  type: "Convolution"
  bottom: "inception_10a/output"
  top: "inception_11a/1x1"
  param {
    lr_mult: 1
    decay_mult: 1
    compression: PRUNE
  }
  param {
    lr_mult: 2
    decay_mult: 0
    compression: PRUNE
  }
  convolution_param {
    num_output: 176
    kernel_size: 1
    weight_filler {
      type: "xavier"
      std: 0.03
    }
    bias_filler {
      type: "constant"
      value: 0.2
    }
  }
}
layer {
  name: "inception_11a/1x1/bn1"
  type: "BatchNorm"
  bottom: "inception_11a/1x1"
  top: "inception_11a/1x1"
  param {
    lr_mult: 1
    decay_mult: 0
    compression: PRUNE
  }
  param {
    lr_mult: 1
    decay_mult: 0
    compression: PRUNE
  }
  param {
    lr_mult: 0
    decay_mult: 0
    compression: PRUNE
  }
  param {
    lr_mult: 0
    decay_mult: 0
    compression: PRUNE
  }
  batch_norm_param {
    use_global_stats: false
    scale_filler {
      type: "constant"
      value: 1
    }
    bias_filler {
      type: "constant"
      value: 0
    }
  }
}
layer {
  name: "inception_11a/1x1/relu1"
  type: "ReLU"
  bottom: "inception_11a/1x1"
  top: "inception_11a/1x1"
}
layer {
  name: "inception_11a/3x3"
  type: "Convolution"
  bottom: "inception_10a/output"
  top: "inception_11a/3x3"
  param {
    lr_mult: 1
    decay_mult: 1
    compression: PRUNE
  }
  param {
    lr_mult: 2
    decay_mult: 0
    compression: PRUNE
  }
  convolution_param {
    num_output: 160
    pad: 1
    kernel_size: 3
    weight_filler {
      type: "xavier"
      std: 0.03
    }
    bias_filler {
      type: "constant"
      value: 0.2
    }
  }
}
layer {
  name: "inception_11a/3x3/bn1"
  type: "BatchNorm"
  bottom: "inception_11a/3x3"
  top: "inception_11a/3x3"
  param {
    lr_mult: 1
    decay_mult: 0
    compression: PRUNE
  }
  param {
    lr_mult: 1
    decay_mult: 0
    compression: PRUNE
  }
  param {
    lr_mult: 0
    decay_mult: 0
    compression: PRUNE
  }
  param {
    lr_mult: 0
    decay_mult: 0
    compression: PRUNE
  }
  batch_norm_param {
    use_global_stats: false
    scale_filler {
      type: "constant"
      value: 1
    }
    bias_filler {
      type: "constant"
      value: 0
    }
  }
}
layer {
  name: "inception_11a/3x3/relu1"
  type: "ReLU"
  bottom: "inception_11a/3x3"
  top: "inception_11a/3x3"
}
layer {
  name: "inception_11a/output"
  type: "Concat"
  bottom: "inception_11a/1x1"
  bottom: "inception_11a/3x3"
  top: "inception_11a/output"
}
layer {
  name: "avg_pool_12/8x8_s1"
  type: "Pooling"
  bottom: "inception_11a/output"
  top: "avg_pool_12/8x8_s1"
  pooling_param {
    pool: AVE
    kernel_size: 8
    stride: 1
  }
}
layer {
  name: "drop_8x8_s1"
  type: "Dropout"
  bottom: "avg_pool_12/8x8_s1"
  top: "avg_pool_12/8x8_s1"
  dropout_param {
    dropout_ratio: 0.5
  }
}
layer {
  name: "loss/classifier"
  type: "InnerProduct"
  bottom: "avg_pool_12/8x8_s1"
  top: "loss/classifier"
  param {
    lr_mult: 1
    decay_mult: 1
  }
  param {
    lr_mult: 2
    decay_mult: 0
  }
  inner_product_param {
    num_output: 10
    weight_filler {
      type: "xavier"
    }
    bias_filler {
      type: "constant"
      value: 1
    }
  }
}
layer {
  name: "loss"
  type: "SoftmaxWithLoss"
  bottom: "loss/classifier"
  bottom: "label"
  top: "loss"
}
layer {
  name: "accuracy"
  type: "Accuracy"
  bottom: "loss/classifier"
  bottom: "label"
  top: "accuracy"
  include {
    phase: TEST
  }
}
layer {
  name: "accuracy-top1"
  type: "Accuracy"
  bottom: "loss/classifier"
  bottom: "label"
  top: "top-1"
  include {
    phase: TEST
  }
}
layer {
  name: "accuracy-top5"
  type: "Accuracy"
  bottom: "loss/classifier"
  bottom: "label"
  top: "top-5"
  include {
    phase: TEST
  }
  accuracy_param {
    top_k: 5
  }
}
I0122 19:57:14.892567 70718 layer_factory.hpp:77] Creating layer data
I0122 19:57:14.892623 70718 internal_thread.cpp:27] Starting internal thread(s) on GPU 0
I0122 19:57:14.893570 70718 net.cpp:94] Creating Layer data
I0122 19:57:14.893584 70718 net.cpp:409] data -> data
I0122 19:57:14.893594 70718 net.cpp:409] data -> label
I0122 19:57:14.894477 70787 db_lmdb.cpp:35] Opened lmdb cifar10/input/lmdb/valid_lmdb
I0122 19:57:14.894510 70787 data_reader.cpp:117] TEST: reading data using 1 channel(s)
I0122 19:57:14.894609 70718 data_layer.cpp:78] ReshapePrefetch 50, 3, 32, 32
I0122 19:57:14.894711 70718 data_layer.cpp:83] output data size: 50,3,32,32
I0122 19:57:14.897821 70718 internal_thread.cpp:27] Starting internal thread(s) on GPU 0
I0122 19:57:14.897859 70718 net.cpp:144] Setting up data
I0122 19:57:14.897892 70718 net.cpp:151] Top shape: 50 3 32 32 (153600)
I0122 19:57:14.897898 70718 net.cpp:151] Top shape: 50 (50)
I0122 19:57:14.897900 70718 net.cpp:159] Memory required for data: 614600
I0122 19:57:14.897909 70718 layer_factory.hpp:77] Creating layer label_data_1_split
I0122 19:57:14.897919 70718 net.cpp:94] Creating Layer label_data_1_split
I0122 19:57:14.897923 70718 net.cpp:435] label_data_1_split <- label
I0122 19:57:14.897933 70718 net.cpp:409] label_data_1_split -> label_data_1_split_0
I0122 19:57:14.897946 70718 net.cpp:409] label_data_1_split -> label_data_1_split_1
I0122 19:57:14.897958 70718 net.cpp:409] label_data_1_split -> label_data_1_split_2
I0122 19:57:14.897972 70718 net.cpp:409] label_data_1_split -> label_data_1_split_3
I0122 19:57:14.898118 70718 net.cpp:144] Setting up label_data_1_split
I0122 19:57:14.898124 70718 net.cpp:151] Top shape: 50 (50)
I0122 19:57:14.898128 70718 net.cpp:151] Top shape: 50 (50)
I0122 19:57:14.898131 70718 net.cpp:151] Top shape: 50 (50)
I0122 19:57:14.898134 70718 net.cpp:151] Top shape: 50 (50)
I0122 19:57:14.898136 70718 net.cpp:159] Memory required for data: 615400
I0122 19:57:14.898139 70718 layer_factory.hpp:77] Creating layer conv1/3x3_s1
I0122 19:57:14.898151 70718 net.cpp:94] Creating Layer conv1/3x3_s1
I0122 19:57:14.898157 70718 net.cpp:435] conv1/3x3_s1 <- data
I0122 19:57:14.898165 70718 net.cpp:409] conv1/3x3_s1 -> conv1/3x3_s1
I0122 19:57:14.898499 70718 net.cpp:144] Setting up conv1/3x3_s1
I0122 19:57:14.898506 70718 net.cpp:151] Top shape: 50 96 32 32 (4915200)
I0122 19:57:14.898509 70718 net.cpp:159] Memory required for data: 20276200
I0122 19:57:14.898517 70718 layer_factory.hpp:77] Creating layer conv1/bn1
I0122 19:57:14.898525 70718 net.cpp:94] Creating Layer conv1/bn1
I0122 19:57:14.898528 70718 net.cpp:435] conv1/bn1 <- conv1/3x3_s1
I0122 19:57:14.898547 70718 net.cpp:396] conv1/bn1 -> conv1/3x3_s1 (in-place)
I0122 19:57:14.899274 70718 net.cpp:144] Setting up conv1/bn1
I0122 19:57:14.899283 70718 net.cpp:151] Top shape: 50 96 32 32 (4915200)
I0122 19:57:14.899286 70718 net.cpp:159] Memory required for data: 39937000
I0122 19:57:14.899298 70718 layer_factory.hpp:77] Creating layer conv1/relu1
I0122 19:57:14.899304 70718 net.cpp:94] Creating Layer conv1/relu1
I0122 19:57:14.899308 70718 net.cpp:435] conv1/relu1 <- conv1/3x3_s1
I0122 19:57:14.899314 70718 net.cpp:396] conv1/relu1 -> conv1/3x3_s1 (in-place)
I0122 19:57:14.899322 70718 net.cpp:144] Setting up conv1/relu1
I0122 19:57:14.899328 70718 net.cpp:151] Top shape: 50 96 32 32 (4915200)
I0122 19:57:14.899333 70718 net.cpp:159] Memory required for data: 59597800
I0122 19:57:14.899338 70718 layer_factory.hpp:77] Creating layer conv1/3x3_s1_conv1/relu1_0_split
I0122 19:57:14.899344 70718 net.cpp:94] Creating Layer conv1/3x3_s1_conv1/relu1_0_split
I0122 19:57:14.899351 70718 net.cpp:435] conv1/3x3_s1_conv1/relu1_0_split <- conv1/3x3_s1
I0122 19:57:14.899359 70718 net.cpp:409] conv1/3x3_s1_conv1/relu1_0_split -> conv1/3x3_s1_conv1/relu1_0_split_0
I0122 19:57:14.899370 70718 net.cpp:409] conv1/3x3_s1_conv1/relu1_0_split -> conv1/3x3_s1_conv1/relu1_0_split_1
I0122 19:57:14.899667 70718 net.cpp:144] Setting up conv1/3x3_s1_conv1/relu1_0_split
I0122 19:57:14.899672 70718 net.cpp:151] Top shape: 50 96 32 32 (4915200)
I0122 19:57:14.899677 70718 net.cpp:151] Top shape: 50 96 32 32 (4915200)
I0122 19:57:14.899680 70718 net.cpp:159] Memory required for data: 98919400
I0122 19:57:14.899682 70718 layer_factory.hpp:77] Creating layer inception_2a/1x1
I0122 19:57:14.899691 70718 net.cpp:94] Creating Layer inception_2a/1x1
I0122 19:57:14.899696 70718 net.cpp:435] inception_2a/1x1 <- conv1/3x3_s1_conv1/relu1_0_split_0
I0122 19:57:14.899713 70718 net.cpp:409] inception_2a/1x1 -> inception_2a/1x1
I0122 19:57:14.900265 70718 net.cpp:144] Setting up inception_2a/1x1
I0122 19:57:14.900275 70718 net.cpp:151] Top shape: 50 32 32 32 (1638400)
I0122 19:57:14.900280 70718 net.cpp:159] Memory required for data: 105473000
I0122 19:57:14.900292 70718 layer_factory.hpp:77] Creating layer inception_2a/1x1/bn1
I0122 19:57:14.900305 70718 net.cpp:94] Creating Layer inception_2a/1x1/bn1
I0122 19:57:14.900310 70718 net.cpp:435] inception_2a/1x1/bn1 <- inception_2a/1x1
I0122 19:57:14.900319 70718 net.cpp:396] inception_2a/1x1/bn1 -> inception_2a/1x1 (in-place)
I0122 19:57:14.901423 70718 net.cpp:144] Setting up inception_2a/1x1/bn1
I0122 19:57:14.901434 70718 net.cpp:151] Top shape: 50 32 32 32 (1638400)
I0122 19:57:14.901438 70718 net.cpp:159] Memory required for data: 112026600
I0122 19:57:14.901453 70718 layer_factory.hpp:77] Creating layer inception_2a/1x1/relu1
I0122 19:57:14.901461 70718 net.cpp:94] Creating Layer inception_2a/1x1/relu1
I0122 19:57:14.901465 70718 net.cpp:435] inception_2a/1x1/relu1 <- inception_2a/1x1
I0122 19:57:14.901476 70718 net.cpp:396] inception_2a/1x1/relu1 -> inception_2a/1x1 (in-place)
I0122 19:57:14.901489 70718 net.cpp:144] Setting up inception_2a/1x1/relu1
I0122 19:57:14.901494 70718 net.cpp:151] Top shape: 50 32 32 32 (1638400)
I0122 19:57:14.901499 70718 net.cpp:159] Memory required for data: 118580200
I0122 19:57:14.901502 70718 layer_factory.hpp:77] Creating layer inception_2a/3x3
I0122 19:57:14.901517 70718 net.cpp:94] Creating Layer inception_2a/3x3
I0122 19:57:14.901525 70718 net.cpp:435] inception_2a/3x3 <- conv1/3x3_s1_conv1/relu1_0_split_1
I0122 19:57:14.901535 70718 net.cpp:409] inception_2a/3x3 -> inception_2a/3x3
I0122 19:57:14.902186 70718 net.cpp:144] Setting up inception_2a/3x3
I0122 19:57:14.902197 70718 net.cpp:151] Top shape: 50 32 32 32 (1638400)
I0122 19:57:14.902201 70718 net.cpp:159] Memory required for data: 125133800
I0122 19:57:14.902209 70718 layer_factory.hpp:77] Creating layer inception_2a/3x3/bn1
I0122 19:57:14.902225 70718 net.cpp:94] Creating Layer inception_2a/3x3/bn1
I0122 19:57:14.902232 70718 net.cpp:435] inception_2a/3x3/bn1 <- inception_2a/3x3
I0122 19:57:14.902253 70718 net.cpp:396] inception_2a/3x3/bn1 -> inception_2a/3x3 (in-place)
I0122 19:57:14.903350 70718 net.cpp:144] Setting up inception_2a/3x3/bn1
I0122 19:57:14.903362 70718 net.cpp:151] Top shape: 50 32 32 32 (1638400)
I0122 19:57:14.903367 70718 net.cpp:159] Memory required for data: 131687400
I0122 19:57:14.903388 70718 layer_factory.hpp:77] Creating layer inception_2a/3x3/relu1
I0122 19:57:14.903396 70718 net.cpp:94] Creating Layer inception_2a/3x3/relu1
I0122 19:57:14.903401 70718 net.cpp:435] inception_2a/3x3/relu1 <- inception_2a/3x3
I0122 19:57:14.903409 70718 net.cpp:396] inception_2a/3x3/relu1 -> inception_2a/3x3 (in-place)
I0122 19:57:14.903420 70718 net.cpp:144] Setting up inception_2a/3x3/relu1
I0122 19:57:14.903429 70718 net.cpp:151] Top shape: 50 32 32 32 (1638400)
I0122 19:57:14.903432 70718 net.cpp:159] Memory required for data: 138241000
I0122 19:57:14.903437 70718 layer_factory.hpp:77] Creating layer inception_2a/output
I0122 19:57:14.903445 70718 net.cpp:94] Creating Layer inception_2a/output
I0122 19:57:14.903452 70718 net.cpp:435] inception_2a/output <- inception_2a/1x1
I0122 19:57:14.903457 70718 net.cpp:435] inception_2a/output <- inception_2a/3x3
I0122 19:57:14.903465 70718 net.cpp:409] inception_2a/output -> inception_2a/output
I0122 19:57:14.903506 70718 net.cpp:144] Setting up inception_2a/output
I0122 19:57:14.903514 70718 net.cpp:151] Top shape: 50 64 32 32 (3276800)
I0122 19:57:14.903520 70718 net.cpp:159] Memory required for data: 151348200
I0122 19:57:14.903524 70718 layer_factory.hpp:77] Creating layer inception_2a/output_inception_2a/output_0_split
I0122 19:57:14.903533 70718 net.cpp:94] Creating Layer inception_2a/output_inception_2a/output_0_split
I0122 19:57:14.903539 70718 net.cpp:435] inception_2a/output_inception_2a/output_0_split <- inception_2a/output
I0122 19:57:14.903547 70718 net.cpp:409] inception_2a/output_inception_2a/output_0_split -> inception_2a/output_inception_2a/output_0_split_0
I0122 19:57:14.903568 70718 net.cpp:409] inception_2a/output_inception_2a/output_0_split -> inception_2a/output_inception_2a/output_0_split_1
I0122 19:57:14.903618 70718 net.cpp:144] Setting up inception_2a/output_inception_2a/output_0_split
I0122 19:57:14.903625 70718 net.cpp:151] Top shape: 50 64 32 32 (3276800)
I0122 19:57:14.903630 70718 net.cpp:151] Top shape: 50 64 32 32 (3276800)
I0122 19:57:14.903635 70718 net.cpp:159] Memory required for data: 177562600
I0122 19:57:14.903638 70718 layer_factory.hpp:77] Creating layer inception_3a/1x1
I0122 19:57:14.903652 70718 net.cpp:94] Creating Layer inception_3a/1x1
I0122 19:57:14.903656 70718 net.cpp:435] inception_3a/1x1 <- inception_2a/output_inception_2a/output_0_split_0
I0122 19:57:14.903671 70718 net.cpp:409] inception_3a/1x1 -> inception_3a/1x1
I0122 19:57:14.904026 70718 net.cpp:144] Setting up inception_3a/1x1
I0122 19:57:14.904034 70718 net.cpp:151] Top shape: 50 32 32 32 (1638400)
I0122 19:57:14.904038 70718 net.cpp:159] Memory required for data: 184116200
I0122 19:57:14.904047 70718 layer_factory.hpp:77] Creating layer inception_3a/1x1/bn1
I0122 19:57:14.904069 70718 net.cpp:94] Creating Layer inception_3a/1x1/bn1
I0122 19:57:14.904078 70718 net.cpp:435] inception_3a/1x1/bn1 <- inception_3a/1x1
I0122 19:57:14.904088 70718 net.cpp:396] inception_3a/1x1/bn1 -> inception_3a/1x1 (in-place)
I0122 19:57:14.905180 70718 net.cpp:144] Setting up inception_3a/1x1/bn1
I0122 19:57:14.905190 70718 net.cpp:151] Top shape: 50 32 32 32 (1638400)
I0122 19:57:14.905194 70718 net.cpp:159] Memory required for data: 190669800
I0122 19:57:14.905207 70718 layer_factory.hpp:77] Creating layer inception_3a/1x1/relu1
I0122 19:57:14.905221 70718 net.cpp:94] Creating Layer inception_3a/1x1/relu1
I0122 19:57:14.905227 70718 net.cpp:435] inception_3a/1x1/relu1 <- inception_3a/1x1
I0122 19:57:14.905236 70718 net.cpp:396] inception_3a/1x1/relu1 -> inception_3a/1x1 (in-place)
I0122 19:57:14.905246 70718 net.cpp:144] Setting up inception_3a/1x1/relu1
I0122 19:57:14.905254 70718 net.cpp:151] Top shape: 50 32 32 32 (1638400)
I0122 19:57:14.905258 70718 net.cpp:159] Memory required for data: 197223400
I0122 19:57:14.905273 70718 layer_factory.hpp:77] Creating layer inception_3a/3x3
I0122 19:57:14.905285 70718 net.cpp:94] Creating Layer inception_3a/3x3
I0122 19:57:14.905292 70718 net.cpp:435] inception_3a/3x3 <- inception_2a/output_inception_2a/output_0_split_1
I0122 19:57:14.905303 70718 net.cpp:409] inception_3a/3x3 -> inception_3a/3x3
I0122 19:57:14.906867 70718 net.cpp:144] Setting up inception_3a/3x3
I0122 19:57:14.906883 70718 net.cpp:151] Top shape: 50 48 32 32 (2457600)
I0122 19:57:14.906888 70718 net.cpp:159] Memory required for data: 207053800
I0122 19:57:14.906896 70718 layer_factory.hpp:77] Creating layer inception_3a/3x3/bn1
I0122 19:57:14.906910 70718 net.cpp:94] Creating Layer inception_3a/3x3/bn1
I0122 19:57:14.906918 70718 net.cpp:435] inception_3a/3x3/bn1 <- inception_3a/3x3
I0122 19:57:14.906929 70718 net.cpp:396] inception_3a/3x3/bn1 -> inception_3a/3x3 (in-place)
I0122 19:57:14.908049 70718 net.cpp:144] Setting up inception_3a/3x3/bn1
I0122 19:57:14.908062 70718 net.cpp:151] Top shape: 50 48 32 32 (2457600)
I0122 19:57:14.908066 70718 net.cpp:159] Memory required for data: 216884200
I0122 19:57:14.908085 70718 layer_factory.hpp:77] Creating layer inception_3a/3x3/relu1
I0122 19:57:14.908097 70718 net.cpp:94] Creating Layer inception_3a/3x3/relu1
I0122 19:57:14.908103 70718 net.cpp:435] inception_3a/3x3/relu1 <- inception_3a/3x3
I0122 19:57:14.908112 70718 net.cpp:396] inception_3a/3x3/relu1 -> inception_3a/3x3 (in-place)
I0122 19:57:14.908121 70718 net.cpp:144] Setting up inception_3a/3x3/relu1
I0122 19:57:14.908129 70718 net.cpp:151] Top shape: 50 48 32 32 (2457600)
I0122 19:57:14.908133 70718 net.cpp:159] Memory required for data: 226714600
I0122 19:57:14.908138 70718 layer_factory.hpp:77] Creating layer inception_3a/output
I0122 19:57:14.908146 70718 net.cpp:94] Creating Layer inception_3a/output
I0122 19:57:14.908150 70718 net.cpp:435] inception_3a/output <- inception_3a/1x1
I0122 19:57:14.908156 70718 net.cpp:435] inception_3a/output <- inception_3a/3x3
I0122 19:57:14.908164 70718 net.cpp:409] inception_3a/output -> inception_3a/output
I0122 19:57:14.908197 70718 net.cpp:144] Setting up inception_3a/output
I0122 19:57:14.908207 70718 net.cpp:151] Top shape: 50 80 32 32 (4096000)
I0122 19:57:14.908215 70718 net.cpp:159] Memory required for data: 243098600
I0122 19:57:14.908218 70718 layer_factory.hpp:77] Creating layer inception_3a/output_inception_3a/output_0_split
I0122 19:57:14.908226 70718 net.cpp:94] Creating Layer inception_3a/output_inception_3a/output_0_split
I0122 19:57:14.908231 70718 net.cpp:435] inception_3a/output_inception_3a/output_0_split <- inception_3a/output
I0122 19:57:14.908239 70718 net.cpp:409] inception_3a/output_inception_3a/output_0_split -> inception_3a/output_inception_3a/output_0_split_0
I0122 19:57:14.908249 70718 net.cpp:409] inception_3a/output_inception_3a/output_0_split -> inception_3a/output_inception_3a/output_0_split_1
I0122 19:57:14.908296 70718 net.cpp:144] Setting up inception_3a/output_inception_3a/output_0_split
I0122 19:57:14.908308 70718 net.cpp:151] Top shape: 50 80 32 32 (4096000)
I0122 19:57:14.908313 70718 net.cpp:151] Top shape: 50 80 32 32 (4096000)
I0122 19:57:14.908318 70718 net.cpp:159] Memory required for data: 275866600
I0122 19:57:14.908324 70718 layer_factory.hpp:77] Creating layer downsample_4/3x3_s2
I0122 19:57:14.908337 70718 net.cpp:94] Creating Layer downsample_4/3x3_s2
I0122 19:57:14.908344 70718 net.cpp:435] downsample_4/3x3_s2 <- inception_3a/output_inception_3a/output_0_split_0
I0122 19:57:14.908356 70718 net.cpp:409] downsample_4/3x3_s2 -> downsample_4/3x3_s2
I0122 19:57:14.909276 70718 net.cpp:144] Setting up downsample_4/3x3_s2
I0122 19:57:14.909288 70718 net.cpp:151] Top shape: 50 80 16 16 (1024000)
I0122 19:57:14.909292 70718 net.cpp:159] Memory required for data: 279962600
I0122 19:57:14.909301 70718 layer_factory.hpp:77] Creating layer downsample_4/3x3_s2/bn1
I0122 19:57:14.909312 70718 net.cpp:94] Creating Layer downsample_4/3x3_s2/bn1
I0122 19:57:14.909317 70718 net.cpp:435] downsample_4/3x3_s2/bn1 <- downsample_4/3x3_s2
I0122 19:57:14.909346 70718 net.cpp:396] downsample_4/3x3_s2/bn1 -> downsample_4/3x3_s2 (in-place)
I0122 19:57:14.910346 70718 net.cpp:144] Setting up downsample_4/3x3_s2/bn1
I0122 19:57:14.910358 70718 net.cpp:151] Top shape: 50 80 16 16 (1024000)
I0122 19:57:14.910362 70718 net.cpp:159] Memory required for data: 284058600
I0122 19:57:14.910370 70718 layer_factory.hpp:77] Creating layer downsample_4/3x3_s2/relu1
I0122 19:57:14.910377 70718 net.cpp:94] Creating Layer downsample_4/3x3_s2/relu1
I0122 19:57:14.910383 70718 net.cpp:435] downsample_4/3x3_s2/relu1 <- downsample_4/3x3_s2
I0122 19:57:14.910388 70718 net.cpp:396] downsample_4/3x3_s2/relu1 -> downsample_4/3x3_s2 (in-place)
I0122 19:57:14.910395 70718 net.cpp:144] Setting up downsample_4/3x3_s2/relu1
I0122 19:57:14.910399 70718 net.cpp:151] Top shape: 50 80 16 16 (1024000)
I0122 19:57:14.910403 70718 net.cpp:159] Memory required for data: 288154600
I0122 19:57:14.910405 70718 layer_factory.hpp:77] Creating layer downsample_4/pool_s2
I0122 19:57:14.910413 70718 net.cpp:94] Creating Layer downsample_4/pool_s2
I0122 19:57:14.910416 70718 net.cpp:435] downsample_4/pool_s2 <- inception_3a/output_inception_3a/output_0_split_1
I0122 19:57:14.910421 70718 net.cpp:409] downsample_4/pool_s2 -> downsample_4/pool_s2
I0122 19:57:14.910523 70718 net.cpp:144] Setting up downsample_4/pool_s2
I0122 19:57:14.910529 70718 net.cpp:151] Top shape: 50 80 16 16 (1024000)
I0122 19:57:14.910531 70718 net.cpp:159] Memory required for data: 292250600
I0122 19:57:14.910535 70718 layer_factory.hpp:77] Creating layer downsample_4/output
I0122 19:57:14.910539 70718 net.cpp:94] Creating Layer downsample_4/output
I0122 19:57:14.910542 70718 net.cpp:435] downsample_4/output <- downsample_4/3x3_s2
I0122 19:57:14.910547 70718 net.cpp:435] downsample_4/output <- downsample_4/pool_s2
I0122 19:57:14.910553 70718 net.cpp:409] downsample_4/output -> downsample_4/output
I0122 19:57:14.910576 70718 net.cpp:144] Setting up downsample_4/output
I0122 19:57:14.910581 70718 net.cpp:151] Top shape: 50 160 16 16 (2048000)
I0122 19:57:14.910583 70718 net.cpp:159] Memory required for data: 300442600
I0122 19:57:14.910588 70718 layer_factory.hpp:77] Creating layer downsample_4/output_downsample_4/output_0_split
I0122 19:57:14.910591 70718 net.cpp:94] Creating Layer downsample_4/output_downsample_4/output_0_split
I0122 19:57:14.910594 70718 net.cpp:435] downsample_4/output_downsample_4/output_0_split <- downsample_4/output
I0122 19:57:14.910599 70718 net.cpp:409] downsample_4/output_downsample_4/output_0_split -> downsample_4/output_downsample_4/output_0_split_0
I0122 19:57:14.910606 70718 net.cpp:409] downsample_4/output_downsample_4/output_0_split -> downsample_4/output_downsample_4/output_0_split_1
I0122 19:57:14.910636 70718 net.cpp:144] Setting up downsample_4/output_downsample_4/output_0_split
I0122 19:57:14.910642 70718 net.cpp:151] Top shape: 50 160 16 16 (2048000)
I0122 19:57:14.910645 70718 net.cpp:151] Top shape: 50 160 16 16 (2048000)
I0122 19:57:14.910648 70718 net.cpp:159] Memory required for data: 316826600
I0122 19:57:14.910651 70718 layer_factory.hpp:77] Creating layer inception_5a/1x1
I0122 19:57:14.910660 70718 net.cpp:94] Creating Layer inception_5a/1x1
I0122 19:57:14.910663 70718 net.cpp:435] inception_5a/1x1 <- downsample_4/output_downsample_4/output_0_split_0
I0122 19:57:14.910671 70718 net.cpp:409] inception_5a/1x1 -> inception_5a/1x1
I0122 19:57:14.911026 70718 net.cpp:144] Setting up inception_5a/1x1
I0122 19:57:14.911031 70718 net.cpp:151] Top shape: 50 112 16 16 (1433600)
I0122 19:57:14.911034 70718 net.cpp:159] Memory required for data: 322561000
I0122 19:57:14.911041 70718 layer_factory.hpp:77] Creating layer inception_5a/1x1/bn1
I0122 19:57:14.911049 70718 net.cpp:94] Creating Layer inception_5a/1x1/bn1
I0122 19:57:14.911054 70718 net.cpp:435] inception_5a/1x1/bn1 <- inception_5a/1x1
I0122 19:57:14.911061 70718 net.cpp:396] inception_5a/1x1/bn1 -> inception_5a/1x1 (in-place)
I0122 19:57:14.911885 70718 net.cpp:144] Setting up inception_5a/1x1/bn1
I0122 19:57:14.911912 70718 net.cpp:151] Top shape: 50 112 16 16 (1433600)
I0122 19:57:14.911916 70718 net.cpp:159] Memory required for data: 328295400
I0122 19:57:14.911923 70718 layer_factory.hpp:77] Creating layer inception_5a/1x1/relu1
I0122 19:57:14.911931 70718 net.cpp:94] Creating Layer inception_5a/1x1/relu1
I0122 19:57:14.911934 70718 net.cpp:435] inception_5a/1x1/relu1 <- inception_5a/1x1
I0122 19:57:14.911940 70718 net.cpp:396] inception_5a/1x1/relu1 -> inception_5a/1x1 (in-place)
I0122 19:57:14.911947 70718 net.cpp:144] Setting up inception_5a/1x1/relu1
I0122 19:57:14.911952 70718 net.cpp:151] Top shape: 50 112 16 16 (1433600)
I0122 19:57:14.911954 70718 net.cpp:159] Memory required for data: 334029800
I0122 19:57:14.911957 70718 layer_factory.hpp:77] Creating layer inception_5a/3x3
I0122 19:57:14.911968 70718 net.cpp:94] Creating Layer inception_5a/3x3
I0122 19:57:14.911976 70718 net.cpp:435] inception_5a/3x3 <- downsample_4/output_downsample_4/output_0_split_1
I0122 19:57:14.911985 70718 net.cpp:409] inception_5a/3x3 -> inception_5a/3x3
I0122 19:57:14.912632 70718 net.cpp:144] Setting up inception_5a/3x3
I0122 19:57:14.912642 70718 net.cpp:151] Top shape: 50 48 16 16 (614400)
I0122 19:57:14.912645 70718 net.cpp:159] Memory required for data: 336487400
I0122 19:57:14.912650 70718 layer_factory.hpp:77] Creating layer inception_5a/3x3/bn1
I0122 19:57:14.912662 70718 net.cpp:94] Creating Layer inception_5a/3x3/bn1
I0122 19:57:14.912668 70718 net.cpp:435] inception_5a/3x3/bn1 <- inception_5a/3x3
I0122 19:57:14.912676 70718 net.cpp:396] inception_5a/3x3/bn1 -> inception_5a/3x3 (in-place)
I0122 19:57:14.913383 70718 net.cpp:144] Setting up inception_5a/3x3/bn1
I0122 19:57:14.913390 70718 net.cpp:151] Top shape: 50 48 16 16 (614400)
I0122 19:57:14.913393 70718 net.cpp:159] Memory required for data: 338945000
I0122 19:57:14.913401 70718 layer_factory.hpp:77] Creating layer inception_5a/3x3/relu1
I0122 19:57:14.913408 70718 net.cpp:94] Creating Layer inception_5a/3x3/relu1
I0122 19:57:14.913413 70718 net.cpp:435] inception_5a/3x3/relu1 <- inception_5a/3x3
I0122 19:57:14.913420 70718 net.cpp:396] inception_5a/3x3/relu1 -> inception_5a/3x3 (in-place)
I0122 19:57:14.913432 70718 net.cpp:144] Setting up inception_5a/3x3/relu1
I0122 19:57:14.913439 70718 net.cpp:151] Top shape: 50 48 16 16 (614400)
I0122 19:57:14.913442 70718 net.cpp:159] Memory required for data: 341402600
I0122 19:57:14.913446 70718 layer_factory.hpp:77] Creating layer inception_5a/output
I0122 19:57:14.913452 70718 net.cpp:94] Creating Layer inception_5a/output
I0122 19:57:14.913457 70718 net.cpp:435] inception_5a/output <- inception_5a/1x1
I0122 19:57:14.913462 70718 net.cpp:435] inception_5a/output <- inception_5a/3x3
I0122 19:57:14.913470 70718 net.cpp:409] inception_5a/output -> inception_5a/output
I0122 19:57:14.913498 70718 net.cpp:144] Setting up inception_5a/output
I0122 19:57:14.913506 70718 net.cpp:151] Top shape: 50 160 16 16 (2048000)
I0122 19:57:14.913509 70718 net.cpp:159] Memory required for data: 349594600
I0122 19:57:14.913513 70718 layer_factory.hpp:77] Creating layer inception_5a/output_inception_5a/output_0_split
I0122 19:57:14.913522 70718 net.cpp:94] Creating Layer inception_5a/output_inception_5a/output_0_split
I0122 19:57:14.913528 70718 net.cpp:435] inception_5a/output_inception_5a/output_0_split <- inception_5a/output
I0122 19:57:14.913537 70718 net.cpp:409] inception_5a/output_inception_5a/output_0_split -> inception_5a/output_inception_5a/output_0_split_0
I0122 19:57:14.913549 70718 net.cpp:409] inception_5a/output_inception_5a/output_0_split -> inception_5a/output_inception_5a/output_0_split_1
I0122 19:57:14.913591 70718 net.cpp:144] Setting up inception_5a/output_inception_5a/output_0_split
I0122 19:57:14.913599 70718 net.cpp:151] Top shape: 50 160 16 16 (2048000)
I0122 19:57:14.913604 70718 net.cpp:151] Top shape: 50 160 16 16 (2048000)
I0122 19:57:14.913605 70718 net.cpp:159] Memory required for data: 365978600
I0122 19:57:14.913609 70718 layer_factory.hpp:77] Creating layer inception_6a/1x1
I0122 19:57:14.913630 70718 net.cpp:94] Creating Layer inception_6a/1x1
I0122 19:57:14.913635 70718 net.cpp:435] inception_6a/1x1 <- inception_5a/output_inception_5a/output_0_split_0
I0122 19:57:14.913645 70718 net.cpp:409] inception_6a/1x1 -> inception_6a/1x1
I0122 19:57:14.914003 70718 net.cpp:144] Setting up inception_6a/1x1
I0122 19:57:14.914011 70718 net.cpp:151] Top shape: 50 96 16 16 (1228800)
I0122 19:57:14.914014 70718 net.cpp:159] Memory required for data: 370893800
I0122 19:57:14.914019 70718 layer_factory.hpp:77] Creating layer inception_6a/1x1/bn1
I0122 19:57:14.914027 70718 net.cpp:94] Creating Layer inception_6a/1x1/bn1
I0122 19:57:14.914031 70718 net.cpp:435] inception_6a/1x1/bn1 <- inception_6a/1x1
I0122 19:57:14.914037 70718 net.cpp:396] inception_6a/1x1/bn1 -> inception_6a/1x1 (in-place)
I0122 19:57:14.914749 70718 net.cpp:144] Setting up inception_6a/1x1/bn1
I0122 19:57:14.914759 70718 net.cpp:151] Top shape: 50 96 16 16 (1228800)
I0122 19:57:14.914762 70718 net.cpp:159] Memory required for data: 375809000
I0122 19:57:14.914769 70718 layer_factory.hpp:77] Creating layer inception_6a/1x1/relu1
I0122 19:57:14.914777 70718 net.cpp:94] Creating Layer inception_6a/1x1/relu1
I0122 19:57:14.914780 70718 net.cpp:435] inception_6a/1x1/relu1 <- inception_6a/1x1
I0122 19:57:14.914788 70718 net.cpp:396] inception_6a/1x1/relu1 -> inception_6a/1x1 (in-place)
I0122 19:57:14.914796 70718 net.cpp:144] Setting up inception_6a/1x1/relu1
I0122 19:57:14.914803 70718 net.cpp:151] Top shape: 50 96 16 16 (1228800)
I0122 19:57:14.914808 70718 net.cpp:159] Memory required for data: 380724200
I0122 19:57:14.914811 70718 layer_factory.hpp:77] Creating layer inception_6a/3x3
I0122 19:57:14.914824 70718 net.cpp:94] Creating Layer inception_6a/3x3
I0122 19:57:14.914830 70718 net.cpp:435] inception_6a/3x3 <- inception_5a/output_inception_5a/output_0_split_1
I0122 19:57:14.914839 70718 net.cpp:409] inception_6a/3x3 -> inception_6a/3x3
I0122 19:57:14.916250 70718 net.cpp:144] Setting up inception_6a/3x3
I0122 19:57:14.916262 70718 net.cpp:151] Top shape: 50 64 16 16 (819200)
I0122 19:57:14.916265 70718 net.cpp:159] Memory required for data: 384001000
I0122 19:57:14.916280 70718 layer_factory.hpp:77] Creating layer inception_6a/3x3/bn1
I0122 19:57:14.916293 70718 net.cpp:94] Creating Layer inception_6a/3x3/bn1
I0122 19:57:14.916301 70718 net.cpp:435] inception_6a/3x3/bn1 <- inception_6a/3x3
I0122 19:57:14.916311 70718 net.cpp:396] inception_6a/3x3/bn1 -> inception_6a/3x3 (in-place)
I0122 19:57:14.917029 70718 net.cpp:144] Setting up inception_6a/3x3/bn1
I0122 19:57:14.917037 70718 net.cpp:151] Top shape: 50 64 16 16 (819200)
I0122 19:57:14.917040 70718 net.cpp:159] Memory required for data: 387277800
I0122 19:57:14.917048 70718 layer_factory.hpp:77] Creating layer inception_6a/3x3/relu1
I0122 19:57:14.917057 70718 net.cpp:94] Creating Layer inception_6a/3x3/relu1
I0122 19:57:14.917059 70718 net.cpp:435] inception_6a/3x3/relu1 <- inception_6a/3x3
I0122 19:57:14.917065 70718 net.cpp:396] inception_6a/3x3/relu1 -> inception_6a/3x3 (in-place)
I0122 19:57:14.917074 70718 net.cpp:144] Setting up inception_6a/3x3/relu1
I0122 19:57:14.917083 70718 net.cpp:151] Top shape: 50 64 16 16 (819200)
I0122 19:57:14.917086 70718 net.cpp:159] Memory required for data: 390554600
I0122 19:57:14.917090 70718 layer_factory.hpp:77] Creating layer inception_6a/output
I0122 19:57:14.917098 70718 net.cpp:94] Creating Layer inception_6a/output
I0122 19:57:14.917104 70718 net.cpp:435] inception_6a/output <- inception_6a/1x1
I0122 19:57:14.917110 70718 net.cpp:435] inception_6a/output <- inception_6a/3x3
I0122 19:57:14.917119 70718 net.cpp:409] inception_6a/output -> inception_6a/output
I0122 19:57:14.917145 70718 net.cpp:144] Setting up inception_6a/output
I0122 19:57:14.917155 70718 net.cpp:151] Top shape: 50 160 16 16 (2048000)
I0122 19:57:14.917158 70718 net.cpp:159] Memory required for data: 398746600
I0122 19:57:14.917162 70718 layer_factory.hpp:77] Creating layer inception_6a/output_inception_6a/output_0_split
I0122 19:57:14.917171 70718 net.cpp:94] Creating Layer inception_6a/output_inception_6a/output_0_split
I0122 19:57:14.917186 70718 net.cpp:435] inception_6a/output_inception_6a/output_0_split <- inception_6a/output
I0122 19:57:14.917194 70718 net.cpp:409] inception_6a/output_inception_6a/output_0_split -> inception_6a/output_inception_6a/output_0_split_0
I0122 19:57:14.917207 70718 net.cpp:409] inception_6a/output_inception_6a/output_0_split -> inception_6a/output_inception_6a/output_0_split_1
I0122 19:57:14.917249 70718 net.cpp:144] Setting up inception_6a/output_inception_6a/output_0_split
I0122 19:57:14.917258 70718 net.cpp:151] Top shape: 50 160 16 16 (2048000)
I0122 19:57:14.917261 70718 net.cpp:151] Top shape: 50 160 16 16 (2048000)
I0122 19:57:14.917264 70718 net.cpp:159] Memory required for data: 415130600
I0122 19:57:14.917266 70718 layer_factory.hpp:77] Creating layer inception_7a/1x1
I0122 19:57:14.917277 70718 net.cpp:94] Creating Layer inception_7a/1x1
I0122 19:57:14.917282 70718 net.cpp:435] inception_7a/1x1 <- inception_6a/output_inception_6a/output_0_split_0
I0122 19:57:14.917290 70718 net.cpp:409] inception_7a/1x1 -> inception_7a/1x1
I0122 19:57:14.917618 70718 net.cpp:144] Setting up inception_7a/1x1
I0122 19:57:14.917626 70718 net.cpp:151] Top shape: 50 80 16 16 (1024000)
I0122 19:57:14.917629 70718 net.cpp:159] Memory required for data: 419226600
I0122 19:57:14.917634 70718 layer_factory.hpp:77] Creating layer inception_7a/1x1/bn1
I0122 19:57:14.917641 70718 net.cpp:94] Creating Layer inception_7a/1x1/bn1
I0122 19:57:14.917646 70718 net.cpp:435] inception_7a/1x1/bn1 <- inception_7a/1x1
I0122 19:57:14.917654 70718 net.cpp:396] inception_7a/1x1/bn1 -> inception_7a/1x1 (in-place)
I0122 19:57:14.918383 70718 net.cpp:144] Setting up inception_7a/1x1/bn1
I0122 19:57:14.918393 70718 net.cpp:151] Top shape: 50 80 16 16 (1024000)
I0122 19:57:14.918396 70718 net.cpp:159] Memory required for data: 423322600
I0122 19:57:14.918404 70718 layer_factory.hpp:77] Creating layer inception_7a/1x1/relu1
I0122 19:57:14.918411 70718 net.cpp:94] Creating Layer inception_7a/1x1/relu1
I0122 19:57:14.918414 70718 net.cpp:435] inception_7a/1x1/relu1 <- inception_7a/1x1
I0122 19:57:14.918422 70718 net.cpp:396] inception_7a/1x1/relu1 -> inception_7a/1x1 (in-place)
I0122 19:57:14.918434 70718 net.cpp:144] Setting up inception_7a/1x1/relu1
I0122 19:57:14.918440 70718 net.cpp:151] Top shape: 50 80 16 16 (1024000)
I0122 19:57:14.918447 70718 net.cpp:159] Memory required for data: 427418600
I0122 19:57:14.918452 70718 layer_factory.hpp:77] Creating layer inception_7a/3x3
I0122 19:57:14.918462 70718 net.cpp:94] Creating Layer inception_7a/3x3
I0122 19:57:14.918469 70718 net.cpp:435] inception_7a/3x3 <- inception_6a/output_inception_6a/output_0_split_1
I0122 19:57:14.918478 70718 net.cpp:409] inception_7a/3x3 -> inception_7a/3x3
I0122 19:57:14.919374 70718 net.cpp:144] Setting up inception_7a/3x3
I0122 19:57:14.919383 70718 net.cpp:151] Top shape: 50 80 16 16 (1024000)
I0122 19:57:14.919385 70718 net.cpp:159] Memory required for data: 431514600
I0122 19:57:14.919390 70718 layer_factory.hpp:77] Creating layer inception_7a/3x3/bn1
I0122 19:57:14.919399 70718 net.cpp:94] Creating Layer inception_7a/3x3/bn1
I0122 19:57:14.919404 70718 net.cpp:435] inception_7a/3x3/bn1 <- inception_7a/3x3
I0122 19:57:14.919414 70718 net.cpp:396] inception_7a/3x3/bn1 -> inception_7a/3x3 (in-place)
I0122 19:57:14.920126 70718 net.cpp:144] Setting up inception_7a/3x3/bn1
I0122 19:57:14.920135 70718 net.cpp:151] Top shape: 50 80 16 16 (1024000)
I0122 19:57:14.920137 70718 net.cpp:159] Memory required for data: 435610600
I0122 19:57:14.920145 70718 layer_factory.hpp:77] Creating layer inception_7a/3x3/relu1
I0122 19:57:14.920156 70718 net.cpp:94] Creating Layer inception_7a/3x3/relu1
I0122 19:57:14.920159 70718 net.cpp:435] inception_7a/3x3/relu1 <- inception_7a/3x3
I0122 19:57:14.920166 70718 net.cpp:396] inception_7a/3x3/relu1 -> inception_7a/3x3 (in-place)
I0122 19:57:14.920174 70718 net.cpp:144] Setting up inception_7a/3x3/relu1
I0122 19:57:14.920181 70718 net.cpp:151] Top shape: 50 80 16 16 (1024000)
I0122 19:57:14.920186 70718 net.cpp:159] Memory required for data: 439706600
I0122 19:57:14.920202 70718 layer_factory.hpp:77] Creating layer inception_7a/output
I0122 19:57:14.920210 70718 net.cpp:94] Creating Layer inception_7a/output
I0122 19:57:14.920213 70718 net.cpp:435] inception_7a/output <- inception_7a/1x1
I0122 19:57:14.920219 70718 net.cpp:435] inception_7a/output <- inception_7a/3x3
I0122 19:57:14.920226 70718 net.cpp:409] inception_7a/output -> inception_7a/output
I0122 19:57:14.920258 70718 net.cpp:144] Setting up inception_7a/output
I0122 19:57:14.920264 70718 net.cpp:151] Top shape: 50 160 16 16 (2048000)
I0122 19:57:14.920269 70718 net.cpp:159] Memory required for data: 447898600
I0122 19:57:14.920272 70718 layer_factory.hpp:77] Creating layer inception_7a/output_inception_7a/output_0_split
I0122 19:57:14.920281 70718 net.cpp:94] Creating Layer inception_7a/output_inception_7a/output_0_split
I0122 19:57:14.920284 70718 net.cpp:435] inception_7a/output_inception_7a/output_0_split <- inception_7a/output
I0122 19:57:14.920291 70718 net.cpp:409] inception_7a/output_inception_7a/output_0_split -> inception_7a/output_inception_7a/output_0_split_0
I0122 19:57:14.920303 70718 net.cpp:409] inception_7a/output_inception_7a/output_0_split -> inception_7a/output_inception_7a/output_0_split_1
I0122 19:57:14.920344 70718 net.cpp:144] Setting up inception_7a/output_inception_7a/output_0_split
I0122 19:57:14.920349 70718 net.cpp:151] Top shape: 50 160 16 16 (2048000)
I0122 19:57:14.920354 70718 net.cpp:151] Top shape: 50 160 16 16 (2048000)
I0122 19:57:14.920356 70718 net.cpp:159] Memory required for data: 464282600
I0122 19:57:14.920359 70718 layer_factory.hpp:77] Creating layer inception_8a/1x1
I0122 19:57:14.920368 70718 net.cpp:94] Creating Layer inception_8a/1x1
I0122 19:57:14.920374 70718 net.cpp:435] inception_8a/1x1 <- inception_7a/output_inception_7a/output_0_split_0
I0122 19:57:14.920382 70718 net.cpp:409] inception_8a/1x1 -> inception_8a/1x1
I0122 19:57:14.920680 70718 net.cpp:144] Setting up inception_8a/1x1
I0122 19:57:14.920686 70718 net.cpp:151] Top shape: 50 48 16 16 (614400)
I0122 19:57:14.920691 70718 net.cpp:159] Memory required for data: 466740200
I0122 19:57:14.920696 70718 layer_factory.hpp:77] Creating layer inception_8a/1x1/bn1
I0122 19:57:14.920703 70718 net.cpp:94] Creating Layer inception_8a/1x1/bn1
I0122 19:57:14.920707 70718 net.cpp:435] inception_8a/1x1/bn1 <- inception_8a/1x1
I0122 19:57:14.920717 70718 net.cpp:396] inception_8a/1x1/bn1 -> inception_8a/1x1 (in-place)
I0122 19:57:14.921419 70718 net.cpp:144] Setting up inception_8a/1x1/bn1
I0122 19:57:14.921427 70718 net.cpp:151] Top shape: 50 48 16 16 (614400)
I0122 19:57:14.921429 70718 net.cpp:159] Memory required for data: 469197800
I0122 19:57:14.921437 70718 layer_factory.hpp:77] Creating layer inception_8a/1x1/relu1
I0122 19:57:14.921443 70718 net.cpp:94] Creating Layer inception_8a/1x1/relu1
I0122 19:57:14.921447 70718 net.cpp:435] inception_8a/1x1/relu1 <- inception_8a/1x1
I0122 19:57:14.921454 70718 net.cpp:396] inception_8a/1x1/relu1 -> inception_8a/1x1 (in-place)
I0122 19:57:14.921465 70718 net.cpp:144] Setting up inception_8a/1x1/relu1
I0122 19:57:14.921471 70718 net.cpp:151] Top shape: 50 48 16 16 (614400)
I0122 19:57:14.921475 70718 net.cpp:159] Memory required for data: 471655400
I0122 19:57:14.921478 70718 layer_factory.hpp:77] Creating layer inception_8a/3x3
I0122 19:57:14.921491 70718 net.cpp:94] Creating Layer inception_8a/3x3
I0122 19:57:14.921497 70718 net.cpp:435] inception_8a/3x3 <- inception_7a/output_inception_7a/output_0_split_1
I0122 19:57:14.921509 70718 net.cpp:409] inception_8a/3x3 -> inception_8a/3x3
I0122 19:57:14.923172 70718 net.cpp:144] Setting up inception_8a/3x3
I0122 19:57:14.923184 70718 net.cpp:151] Top shape: 50 96 16 16 (1228800)
I0122 19:57:14.923187 70718 net.cpp:159] Memory required for data: 476570600
I0122 19:57:14.923193 70718 layer_factory.hpp:77] Creating layer inception_8a/3x3/bn1
I0122 19:57:14.923203 70718 net.cpp:94] Creating Layer inception_8a/3x3/bn1
I0122 19:57:14.923207 70718 net.cpp:435] inception_8a/3x3/bn1 <- inception_8a/3x3
I0122 19:57:14.923226 70718 net.cpp:396] inception_8a/3x3/bn1 -> inception_8a/3x3 (in-place)
I0122 19:57:14.923947 70718 net.cpp:144] Setting up inception_8a/3x3/bn1
I0122 19:57:14.923954 70718 net.cpp:151] Top shape: 50 96 16 16 (1228800)
I0122 19:57:14.923957 70718 net.cpp:159] Memory required for data: 481485800
I0122 19:57:14.923965 70718 layer_factory.hpp:77] Creating layer inception_8a/3x3/relu1
I0122 19:57:14.923974 70718 net.cpp:94] Creating Layer inception_8a/3x3/relu1
I0122 19:57:14.923976 70718 net.cpp:435] inception_8a/3x3/relu1 <- inception_8a/3x3
I0122 19:57:14.923982 70718 net.cpp:396] inception_8a/3x3/relu1 -> inception_8a/3x3 (in-place)
I0122 19:57:14.923990 70718 net.cpp:144] Setting up inception_8a/3x3/relu1
I0122 19:57:14.923997 70718 net.cpp:151] Top shape: 50 96 16 16 (1228800)
I0122 19:57:14.924001 70718 net.cpp:159] Memory required for data: 486401000
I0122 19:57:14.924005 70718 layer_factory.hpp:77] Creating layer inception_8a/output
I0122 19:57:14.924013 70718 net.cpp:94] Creating Layer inception_8a/output
I0122 19:57:14.924021 70718 net.cpp:435] inception_8a/output <- inception_8a/1x1
I0122 19:57:14.924026 70718 net.cpp:435] inception_8a/output <- inception_8a/3x3
I0122 19:57:14.924033 70718 net.cpp:409] inception_8a/output -> inception_8a/output
I0122 19:57:14.924063 70718 net.cpp:144] Setting up inception_8a/output
I0122 19:57:14.924070 70718 net.cpp:151] Top shape: 50 144 16 16 (1843200)
I0122 19:57:14.924074 70718 net.cpp:159] Memory required for data: 493773800
I0122 19:57:14.924079 70718 layer_factory.hpp:77] Creating layer inception_8a/output_inception_8a/output_0_split
I0122 19:57:14.924085 70718 net.cpp:94] Creating Layer inception_8a/output_inception_8a/output_0_split
I0122 19:57:14.924088 70718 net.cpp:435] inception_8a/output_inception_8a/output_0_split <- inception_8a/output
I0122 19:57:14.924093 70718 net.cpp:409] inception_8a/output_inception_8a/output_0_split -> inception_8a/output_inception_8a/output_0_split_0
I0122 19:57:14.924105 70718 net.cpp:409] inception_8a/output_inception_8a/output_0_split -> inception_8a/output_inception_8a/output_0_split_1
I0122 19:57:14.924144 70718 net.cpp:144] Setting up inception_8a/output_inception_8a/output_0_split
I0122 19:57:14.924151 70718 net.cpp:151] Top shape: 50 144 16 16 (1843200)
I0122 19:57:14.924155 70718 net.cpp:151] Top shape: 50 144 16 16 (1843200)
I0122 19:57:14.924158 70718 net.cpp:159] Memory required for data: 508519400
I0122 19:57:14.924160 70718 layer_factory.hpp:77] Creating layer downsample_9/3x3_s2
I0122 19:57:14.924170 70718 net.cpp:94] Creating Layer downsample_9/3x3_s2
I0122 19:57:14.924175 70718 net.cpp:435] downsample_9/3x3_s2 <- inception_8a/output_inception_8a/output_0_split_0
I0122 19:57:14.924185 70718 net.cpp:409] downsample_9/3x3_s2 -> downsample_9/3x3_s2
I0122 19:57:14.925724 70718 net.cpp:144] Setting up downsample_9/3x3_s2
I0122 19:57:14.925735 70718 net.cpp:151] Top shape: 50 96 8 8 (307200)
I0122 19:57:14.925738 70718 net.cpp:159] Memory required for data: 509748200
I0122 19:57:14.925745 70718 layer_factory.hpp:77] Creating layer downsample_9/3x3_s2/bn1
I0122 19:57:14.925753 70718 net.cpp:94] Creating Layer downsample_9/3x3_s2/bn1
I0122 19:57:14.925760 70718 net.cpp:435] downsample_9/3x3_s2/bn1 <- downsample_9/3x3_s2
I0122 19:57:14.925765 70718 net.cpp:396] downsample_9/3x3_s2/bn1 -> downsample_9/3x3_s2 (in-place)
I0122 19:57:14.926522 70718 net.cpp:144] Setting up downsample_9/3x3_s2/bn1
I0122 19:57:14.926529 70718 net.cpp:151] Top shape: 50 96 8 8 (307200)
I0122 19:57:14.926532 70718 net.cpp:159] Memory required for data: 510977000
I0122 19:57:14.926540 70718 layer_factory.hpp:77] Creating layer downsample_9/3x3_s2/relu1
I0122 19:57:14.926549 70718 net.cpp:94] Creating Layer downsample_9/3x3_s2/relu1
I0122 19:57:14.926553 70718 net.cpp:435] downsample_9/3x3_s2/relu1 <- downsample_9/3x3_s2
I0122 19:57:14.926559 70718 net.cpp:396] downsample_9/3x3_s2/relu1 -> downsample_9/3x3_s2 (in-place)
I0122 19:57:14.926570 70718 net.cpp:144] Setting up downsample_9/3x3_s2/relu1
I0122 19:57:14.926590 70718 net.cpp:151] Top shape: 50 96 8 8 (307200)
I0122 19:57:14.926594 70718 net.cpp:159] Memory required for data: 512205800
I0122 19:57:14.926599 70718 layer_factory.hpp:77] Creating layer downsample_9/pool_s2
I0122 19:57:14.926606 70718 net.cpp:94] Creating Layer downsample_9/pool_s2
I0122 19:57:14.926610 70718 net.cpp:435] downsample_9/pool_s2 <- inception_8a/output_inception_8a/output_0_split_1
I0122 19:57:14.926618 70718 net.cpp:409] downsample_9/pool_s2 -> downsample_9/pool_s2
I0122 19:57:14.926666 70718 net.cpp:144] Setting up downsample_9/pool_s2
I0122 19:57:14.926672 70718 net.cpp:151] Top shape: 50 144 8 8 (460800)
I0122 19:57:14.926676 70718 net.cpp:159] Memory required for data: 514049000
I0122 19:57:14.926677 70718 layer_factory.hpp:77] Creating layer downsample_9/output
I0122 19:57:14.926687 70718 net.cpp:94] Creating Layer downsample_9/output
I0122 19:57:14.926692 70718 net.cpp:435] downsample_9/output <- downsample_9/3x3_s2
I0122 19:57:14.926697 70718 net.cpp:435] downsample_9/output <- downsample_9/pool_s2
I0122 19:57:14.926704 70718 net.cpp:409] downsample_9/output -> downsample_9/output
I0122 19:57:14.926730 70718 net.cpp:144] Setting up downsample_9/output
I0122 19:57:14.926738 70718 net.cpp:151] Top shape: 50 240 8 8 (768000)
I0122 19:57:14.926741 70718 net.cpp:159] Memory required for data: 517121000
I0122 19:57:14.926744 70718 layer_factory.hpp:77] Creating layer downsample_9/output_downsample_9/output_0_split
I0122 19:57:14.926751 70718 net.cpp:94] Creating Layer downsample_9/output_downsample_9/output_0_split
I0122 19:57:14.926753 70718 net.cpp:435] downsample_9/output_downsample_9/output_0_split <- downsample_9/output
I0122 19:57:14.926759 70718 net.cpp:409] downsample_9/output_downsample_9/output_0_split -> downsample_9/output_downsample_9/output_0_split_0
I0122 19:57:14.926769 70718 net.cpp:409] downsample_9/output_downsample_9/output_0_split -> downsample_9/output_downsample_9/output_0_split_1
I0122 19:57:14.926810 70718 net.cpp:144] Setting up downsample_9/output_downsample_9/output_0_split
I0122 19:57:14.926817 70718 net.cpp:151] Top shape: 50 240 8 8 (768000)
I0122 19:57:14.926821 70718 net.cpp:151] Top shape: 50 240 8 8 (768000)
I0122 19:57:14.926825 70718 net.cpp:159] Memory required for data: 523265000
I0122 19:57:14.926826 70718 layer_factory.hpp:77] Creating layer inception_10a/1x1
I0122 19:57:14.926836 70718 net.cpp:94] Creating Layer inception_10a/1x1
I0122 19:57:14.926841 70718 net.cpp:435] inception_10a/1x1 <- downsample_9/output_downsample_9/output_0_split_0
I0122 19:57:14.926849 70718 net.cpp:409] inception_10a/1x1 -> inception_10a/1x1
I0122 19:57:14.927356 70718 net.cpp:144] Setting up inception_10a/1x1
I0122 19:57:14.927363 70718 net.cpp:151] Top shape: 50 176 8 8 (563200)
I0122 19:57:14.927366 70718 net.cpp:159] Memory required for data: 525517800
I0122 19:57:14.927371 70718 layer_factory.hpp:77] Creating layer inception_10a/1x1/bn1
I0122 19:57:14.927379 70718 net.cpp:94] Creating Layer inception_10a/1x1/bn1
I0122 19:57:14.927383 70718 net.cpp:435] inception_10a/1x1/bn1 <- inception_10a/1x1
I0122 19:57:14.927392 70718 net.cpp:396] inception_10a/1x1/bn1 -> inception_10a/1x1 (in-place)
I0122 19:57:14.928090 70718 net.cpp:144] Setting up inception_10a/1x1/bn1
I0122 19:57:14.928098 70718 net.cpp:151] Top shape: 50 176 8 8 (563200)
I0122 19:57:14.928102 70718 net.cpp:159] Memory required for data: 527770600
I0122 19:57:14.928109 70718 layer_factory.hpp:77] Creating layer inception_10a/1x1/relu1
I0122 19:57:14.928117 70718 net.cpp:94] Creating Layer inception_10a/1x1/relu1
I0122 19:57:14.928119 70718 net.cpp:435] inception_10a/1x1/relu1 <- inception_10a/1x1
I0122 19:57:14.928126 70718 net.cpp:396] inception_10a/1x1/relu1 -> inception_10a/1x1 (in-place)
I0122 19:57:14.928138 70718 net.cpp:144] Setting up inception_10a/1x1/relu1
I0122 19:57:14.928143 70718 net.cpp:151] Top shape: 50 176 8 8 (563200)
I0122 19:57:14.928146 70718 net.cpp:159] Memory required for data: 530023400
I0122 19:57:14.928150 70718 layer_factory.hpp:77] Creating layer inception_10a/3x3
I0122 19:57:14.928175 70718 net.cpp:94] Creating Layer inception_10a/3x3
I0122 19:57:14.928181 70718 net.cpp:435] inception_10a/3x3 <- downsample_9/output_downsample_9/output_0_split_1
I0122 19:57:14.928187 70718 net.cpp:409] inception_10a/3x3 -> inception_10a/3x3
I0122 19:57:14.930739 70718 net.cpp:144] Setting up inception_10a/3x3
I0122 19:57:14.930752 70718 net.cpp:151] Top shape: 50 160 8 8 (512000)
I0122 19:57:14.930753 70718 net.cpp:159] Memory required for data: 532071400
I0122 19:57:14.930758 70718 layer_factory.hpp:77] Creating layer inception_10a/3x3/bn1
I0122 19:57:14.930766 70718 net.cpp:94] Creating Layer inception_10a/3x3/bn1
I0122 19:57:14.930771 70718 net.cpp:435] inception_10a/3x3/bn1 <- inception_10a/3x3
I0122 19:57:14.930779 70718 net.cpp:396] inception_10a/3x3/bn1 -> inception_10a/3x3 (in-place)
I0122 19:57:14.931411 70718 net.cpp:144] Setting up inception_10a/3x3/bn1
I0122 19:57:14.931417 70718 net.cpp:151] Top shape: 50 160 8 8 (512000)
I0122 19:57:14.931421 70718 net.cpp:159] Memory required for data: 534119400
I0122 19:57:14.931427 70718 layer_factory.hpp:77] Creating layer inception_10a/3x3/relu1
I0122 19:57:14.931432 70718 net.cpp:94] Creating Layer inception_10a/3x3/relu1
I0122 19:57:14.931434 70718 net.cpp:435] inception_10a/3x3/relu1 <- inception_10a/3x3
I0122 19:57:14.931440 70718 net.cpp:396] inception_10a/3x3/relu1 -> inception_10a/3x3 (in-place)
I0122 19:57:14.931448 70718 net.cpp:144] Setting up inception_10a/3x3/relu1
I0122 19:57:14.931454 70718 net.cpp:151] Top shape: 50 160 8 8 (512000)
I0122 19:57:14.931457 70718 net.cpp:159] Memory required for data: 536167400
I0122 19:57:14.931461 70718 layer_factory.hpp:77] Creating layer inception_10a/output
I0122 19:57:14.931466 70718 net.cpp:94] Creating Layer inception_10a/output
I0122 19:57:14.931469 70718 net.cpp:435] inception_10a/output <- inception_10a/1x1
I0122 19:57:14.931484 70718 net.cpp:435] inception_10a/output <- inception_10a/3x3
I0122 19:57:14.931495 70718 net.cpp:409] inception_10a/output -> inception_10a/output
I0122 19:57:14.931521 70718 net.cpp:144] Setting up inception_10a/output
I0122 19:57:14.931529 70718 net.cpp:151] Top shape: 50 336 8 8 (1075200)
I0122 19:57:14.931532 70718 net.cpp:159] Memory required for data: 540468200
I0122 19:57:14.931537 70718 layer_factory.hpp:77] Creating layer inception_10a/output_inception_10a/output_0_split
I0122 19:57:14.931545 70718 net.cpp:94] Creating Layer inception_10a/output_inception_10a/output_0_split
I0122 19:57:14.931550 70718 net.cpp:435] inception_10a/output_inception_10a/output_0_split <- inception_10a/output
I0122 19:57:14.931556 70718 net.cpp:409] inception_10a/output_inception_10a/output_0_split -> inception_10a/output_inception_10a/output_0_split_0
I0122 19:57:14.931566 70718 net.cpp:409] inception_10a/output_inception_10a/output_0_split -> inception_10a/output_inception_10a/output_0_split_1
I0122 19:57:14.931609 70718 net.cpp:144] Setting up inception_10a/output_inception_10a/output_0_split
I0122 19:57:14.931617 70718 net.cpp:151] Top shape: 50 336 8 8 (1075200)
I0122 19:57:14.931620 70718 net.cpp:151] Top shape: 50 336 8 8 (1075200)
I0122 19:57:14.931624 70718 net.cpp:159] Memory required for data: 549069800
I0122 19:57:14.931627 70718 layer_factory.hpp:77] Creating layer inception_11a/1x1
I0122 19:57:14.931635 70718 net.cpp:94] Creating Layer inception_11a/1x1
I0122 19:57:14.931640 70718 net.cpp:435] inception_11a/1x1 <- inception_10a/output_inception_10a/output_0_split_0
I0122 19:57:14.931650 70718 net.cpp:409] inception_11a/1x1 -> inception_11a/1x1
I0122 19:57:14.932226 70718 net.cpp:144] Setting up inception_11a/1x1
I0122 19:57:14.932235 70718 net.cpp:151] Top shape: 50 176 8 8 (563200)
I0122 19:57:14.932236 70718 net.cpp:159] Memory required for data: 551322600
I0122 19:57:14.932242 70718 layer_factory.hpp:77] Creating layer inception_11a/1x1/bn1
I0122 19:57:14.932250 70718 net.cpp:94] Creating Layer inception_11a/1x1/bn1
I0122 19:57:14.932255 70718 net.cpp:435] inception_11a/1x1/bn1 <- inception_11a/1x1
I0122 19:57:14.932262 70718 net.cpp:396] inception_11a/1x1/bn1 -> inception_11a/1x1 (in-place)
I0122 19:57:14.932984 70718 net.cpp:144] Setting up inception_11a/1x1/bn1
I0122 19:57:14.932992 70718 net.cpp:151] Top shape: 50 176 8 8 (563200)
I0122 19:57:14.932994 70718 net.cpp:159] Memory required for data: 553575400
I0122 19:57:14.933002 70718 layer_factory.hpp:77] Creating layer inception_11a/1x1/relu1
I0122 19:57:14.933009 70718 net.cpp:94] Creating Layer inception_11a/1x1/relu1
I0122 19:57:14.933012 70718 net.cpp:435] inception_11a/1x1/relu1 <- inception_11a/1x1
I0122 19:57:14.933019 70718 net.cpp:396] inception_11a/1x1/relu1 -> inception_11a/1x1 (in-place)
I0122 19:57:14.933028 70718 net.cpp:144] Setting up inception_11a/1x1/relu1
I0122 19:57:14.933037 70718 net.cpp:151] Top shape: 50 176 8 8 (563200)
I0122 19:57:14.933039 70718 net.cpp:159] Memory required for data: 555828200
I0122 19:57:14.933043 70718 layer_factory.hpp:77] Creating layer inception_11a/3x3
I0122 19:57:14.933054 70718 net.cpp:94] Creating Layer inception_11a/3x3
I0122 19:57:14.933061 70718 net.cpp:435] inception_11a/3x3 <- inception_10a/output_inception_10a/output_0_split_1
I0122 19:57:14.933071 70718 net.cpp:409] inception_11a/3x3 -> inception_11a/3x3
I0122 19:57:14.936873 70718 net.cpp:144] Setting up inception_11a/3x3
I0122 19:57:14.936884 70718 net.cpp:151] Top shape: 50 160 8 8 (512000)
I0122 19:57:14.936887 70718 net.cpp:159] Memory required for data: 557876200
I0122 19:57:14.936893 70718 layer_factory.hpp:77] Creating layer inception_11a/3x3/bn1
I0122 19:57:14.936902 70718 net.cpp:94] Creating Layer inception_11a/3x3/bn1
I0122 19:57:14.936906 70718 net.cpp:435] inception_11a/3x3/bn1 <- inception_11a/3x3
I0122 19:57:14.936914 70718 net.cpp:396] inception_11a/3x3/bn1 -> inception_11a/3x3 (in-place)
I0122 19:57:14.937593 70718 net.cpp:144] Setting up inception_11a/3x3/bn1
I0122 19:57:14.937602 70718 net.cpp:151] Top shape: 50 160 8 8 (512000)
I0122 19:57:14.937604 70718 net.cpp:159] Memory required for data: 559924200
I0122 19:57:14.937624 70718 layer_factory.hpp:77] Creating layer inception_11a/3x3/relu1
I0122 19:57:14.937633 70718 net.cpp:94] Creating Layer inception_11a/3x3/relu1
I0122 19:57:14.937638 70718 net.cpp:435] inception_11a/3x3/relu1 <- inception_11a/3x3
I0122 19:57:14.937645 70718 net.cpp:396] inception_11a/3x3/relu1 -> inception_11a/3x3 (in-place)
I0122 19:57:14.937654 70718 net.cpp:144] Setting up inception_11a/3x3/relu1
I0122 19:57:14.937661 70718 net.cpp:151] Top shape: 50 160 8 8 (512000)
I0122 19:57:14.937665 70718 net.cpp:159] Memory required for data: 561972200
I0122 19:57:14.937669 70718 layer_factory.hpp:77] Creating layer inception_11a/output
I0122 19:57:14.937676 70718 net.cpp:94] Creating Layer inception_11a/output
I0122 19:57:14.937682 70718 net.cpp:435] inception_11a/output <- inception_11a/1x1
I0122 19:57:14.937686 70718 net.cpp:435] inception_11a/output <- inception_11a/3x3
I0122 19:57:14.937695 70718 net.cpp:409] inception_11a/output -> inception_11a/output
I0122 19:57:14.937723 70718 net.cpp:144] Setting up inception_11a/output
I0122 19:57:14.937731 70718 net.cpp:151] Top shape: 50 336 8 8 (1075200)
I0122 19:57:14.937734 70718 net.cpp:159] Memory required for data: 566273000
I0122 19:57:14.937737 70718 layer_factory.hpp:77] Creating layer avg_pool_12/8x8_s1
I0122 19:57:14.937744 70718 net.cpp:94] Creating Layer avg_pool_12/8x8_s1
I0122 19:57:14.937749 70718 net.cpp:435] avg_pool_12/8x8_s1 <- inception_11a/output
I0122 19:57:14.937753 70718 net.cpp:409] avg_pool_12/8x8_s1 -> avg_pool_12/8x8_s1
I0122 19:57:14.937781 70718 net.cpp:144] Setting up avg_pool_12/8x8_s1
I0122 19:57:14.937790 70718 net.cpp:151] Top shape: 50 336 1 1 (16800)
I0122 19:57:14.937794 70718 net.cpp:159] Memory required for data: 566340200
I0122 19:57:14.937798 70718 layer_factory.hpp:77] Creating layer drop_8x8_s1
I0122 19:57:14.937803 70718 net.cpp:94] Creating Layer drop_8x8_s1
I0122 19:57:14.937805 70718 net.cpp:435] drop_8x8_s1 <- avg_pool_12/8x8_s1
I0122 19:57:14.937811 70718 net.cpp:396] drop_8x8_s1 -> avg_pool_12/8x8_s1 (in-place)
I0122 19:57:14.937834 70718 net.cpp:144] Setting up drop_8x8_s1
I0122 19:57:14.937841 70718 net.cpp:151] Top shape: 50 336 1 1 (16800)
I0122 19:57:14.937857 70718 net.cpp:159] Memory required for data: 566407400
I0122 19:57:14.937860 70718 layer_factory.hpp:77] Creating layer loss/classifier
I0122 19:57:14.937870 70718 net.cpp:94] Creating Layer loss/classifier
I0122 19:57:14.937875 70718 net.cpp:435] loss/classifier <- avg_pool_12/8x8_s1
I0122 19:57:14.937885 70718 net.cpp:409] loss/classifier -> loss/classifier
I0122 19:57:14.938068 70718 net.cpp:144] Setting up loss/classifier
I0122 19:57:14.938076 70718 net.cpp:151] Top shape: 50 10 (500)
I0122 19:57:14.938077 70718 net.cpp:159] Memory required for data: 566409400
I0122 19:57:14.938083 70718 layer_factory.hpp:77] Creating layer loss/classifier_loss/classifier_0_split
I0122 19:57:14.938091 70718 net.cpp:94] Creating Layer loss/classifier_loss/classifier_0_split
I0122 19:57:14.938093 70718 net.cpp:435] loss/classifier_loss/classifier_0_split <- loss/classifier
I0122 19:57:14.938098 70718 net.cpp:409] loss/classifier_loss/classifier_0_split -> loss/classifier_loss/classifier_0_split_0
I0122 19:57:14.938108 70718 net.cpp:409] loss/classifier_loss/classifier_0_split -> loss/classifier_loss/classifier_0_split_1
I0122 19:57:14.938118 70718 net.cpp:409] loss/classifier_loss/classifier_0_split -> loss/classifier_loss/classifier_0_split_2
I0122 19:57:14.938127 70718 net.cpp:409] loss/classifier_loss/classifier_0_split -> loss/classifier_loss/classifier_0_split_3
I0122 19:57:14.938192 70718 net.cpp:144] Setting up loss/classifier_loss/classifier_0_split
I0122 19:57:14.938199 70718 net.cpp:151] Top shape: 50 10 (500)
I0122 19:57:14.938202 70718 net.cpp:151] Top shape: 50 10 (500)
I0122 19:57:14.938205 70718 net.cpp:151] Top shape: 50 10 (500)
I0122 19:57:14.938208 70718 net.cpp:151] Top shape: 50 10 (500)
I0122 19:57:14.938211 70718 net.cpp:159] Memory required for data: 566417400
I0122 19:57:14.938215 70718 layer_factory.hpp:77] Creating layer loss
I0122 19:57:14.938220 70718 net.cpp:94] Creating Layer loss
I0122 19:57:14.938222 70718 net.cpp:435] loss <- loss/classifier_loss/classifier_0_split_0
I0122 19:57:14.938228 70718 net.cpp:435] loss <- label_data_1_split_0
I0122 19:57:14.938236 70718 net.cpp:409] loss -> loss
…
