…
I0122 19:14:39.416129 69630 caffe_interface.cpp:70] GPU device name: Quadro P6000
I0122 19:14:39.417323 69630 net.cpp:323] The NetState phase (1) differed from the phase (0) specified by a rule in layer data
I0122 19:14:39.417850 69630 net.cpp:52] Initializing net from parameters: 
state {
  phase: TEST
}
layer {
  name: "data"
  type: "Data"
  top: "data"
  top: "label"
  include {
    phase: TEST
  }
  transform_param {
    mirror: false
    mean_value: 104
    mean_value: 117
    mean_value: 123
  }
  data_param {
    source: "cifar10/input/lmdb/valid_lmdb"
    batch_size: 50
    backend: LMDB
  }
}
layer {
  name: "conv1/3x3_s1"
  type: "Convolution"
  bottom: "data"
  top: "conv1/3x3_s1"
  param {
    lr_mult: 1
    decay_mult: 1
  }
  param {
    lr_mult: 2
    decay_mult: 0
  }
  convolution_param {
    num_output: 96
    pad: 1
    kernel_size: 3
    stride: 1
    weight_filler {
      type: "xavier"
      std: 0.1
    }
    bias_filler {
      type: "constant"
      value: 0.2
    }
  }
}
layer {
  name: "conv1/bn1"
  type: "BatchNorm"
  bottom: "conv1/3x3_s1"
  top: "conv1/3x3_s1"
  param {
    lr_mult: 1
    decay_mult: 0
  }
  param {
    lr_mult: 1
    decay_mult: 0
  }
  param {
    lr_mult: 0
    decay_mult: 0
  }
  param {
    lr_mult: 0
    decay_mult: 0
  }
  batch_norm_param {
    use_global_stats: false
    scale_filler {
      type: "constant"
      value: 1
    }
    bias_filler {
      type: "constant"
      value: 0
    }
  }
}
layer {
  name: "conv1/relu1"
  type: "ReLU"
  bottom: "conv1/3x3_s1"
  top: "conv1/3x3_s1"
}
layer {
  name: "inception_2a/1x1"
  type: "Convolution"
  bottom: "conv1/3x3_s1"
  top: "inception_2a/1x1"
  param {
    lr_mult: 1
    decay_mult: 1
  }
  param {
    lr_mult: 2
    decay_mult: 0
  }
  convolution_param {
    num_output: 32
    kernel_size: 1
    weight_filler {
      type: "xavier"
      std: 0.03
    }
    bias_filler {
      type: "constant"
      value: 0.2
    }
  }
}
layer {
  name: "inception_2a/1x1/bn1"
  type: "BatchNorm"
  bottom: "inception_2a/1x1"
  top: "inception_2a/1x1"
  param {
    lr_mult: 1
    decay_mult: 0
  }
  param {
    lr_mult: 1
    decay_mult: 0
  }
  param {
    lr_mult: 0
    decay_mult: 0
  }
  param {
    lr_mult: 0
    decay_mult: 0
  }
  batch_norm_param {
    use_global_stats: false
    scale_filler {
      type: "constant"
      value: 1
    }
    bias_filler {
      type: "constant"
      value: 0
    }
  }
}
layer {
  name: "inception_2a/1x1/relu1"
  type: "ReLU"
  bottom: "inception_2a/1x1"
  top: "inception_2a/1x1"
}
layer {
  name: "inception_2a/3x3"
  type: "Convolution"
  bottom: "conv1/3x3_s1"
  top: "inception_2a/3x3"
  param {
    lr_mult: 1
    decay_mult: 1
  }
  param {
    lr_mult: 2
    decay_mult: 0
  }
  convolution_param {
    num_output: 32
    pad: 1
    kernel_size: 3
    weight_filler {
      type: "xavier"
      std: 0.03
    }
    bias_filler {
      type: "constant"
      value: 0.2
    }
  }
}
layer {
  name: "inception_2a/3x3/bn1"
  type: "BatchNorm"
  bottom: "inception_2a/3x3"
  top: "inception_2a/3x3"
  param {
    lr_mult: 1
    decay_mult: 0
  }
  param {
    lr_mult: 1
    decay_mult: 0
  }
  param {
    lr_mult: 0
    decay_mult: 0
  }
  param {
    lr_mult: 0
    decay_mult: 0
  }
  batch_norm_param {
    use_global_stats: false
    scale_filler {
      type: "constant"
      value: 1
    }
    bias_filler {
      type: "constant"
      value: 0
    }
  }
}
layer {
  name: "inception_2a/3x3/relu1"
  type: "ReLU"
  bottom: "inception_2a/3x3"
  top: "inception_2a/3x3"
}
layer {
  name: "inception_2a/output"
  type: "Concat"
  bottom: "inception_2a/1x1"
  bottom: "inception_2a/3x3"
  top: "inception_2a/output"
}
layer {
  name: "inception_3a/1x1"
  type: "Convolution"
  bottom: "inception_2a/output"
  top: "inception_3a/1x1"
  param {
    lr_mult: 1
    decay_mult: 1
  }
  param {
    lr_mult: 2
    decay_mult: 0
  }
  convolution_param {
    num_output: 32
    kernel_size: 1
    weight_filler {
      type: "xavier"
      std: 0.03
    }
    bias_filler {
      type: "constant"
      value: 0.2
    }
  }
}
layer {
  name: "inception_3a/1x1/bn1"
  type: "BatchNorm"
  bottom: "inception_3a/1x1"
  top: "inception_3a/1x1"
  param {
    lr_mult: 1
    decay_mult: 0
  }
  param {
    lr_mult: 1
    decay_mult: 0
  }
  param {
    lr_mult: 0
    decay_mult: 0
  }
  param {
    lr_mult: 0
    decay_mult: 0
  }
  batch_norm_param {
    use_global_stats: false
    scale_filler {
      type: "constant"
      value: 1
    }
    bias_filler {
      type: "constant"
      value: 0
    }
  }
}
layer {
  name: "inception_3a/1x1/relu1"
  type: "ReLU"
  bottom: "inception_3a/1x1"
  top: "inception_3a/1x1"
}
layer {
  name: "inception_3a/3x3"
  type: "Convolution"
  bottom: "inception_2a/output"
  top: "inception_3a/3x3"
  param {
    lr_mult: 1
    decay_mult: 1
  }
  param {
    lr_mult: 2
    decay_mult: 0
  }
  convolution_param {
    num_output: 48
    pad: 1
    kernel_size: 3
    weight_filler {
      type: "xavier"
      std: 0.03
    }
    bias_filler {
      type: "constant"
      value: 0.2
    }
  }
}
layer {
  name: "inception_3a/3x3/bn1"
  type: "BatchNorm"
  bottom: "inception_3a/3x3"
  top: "inception_3a/3x3"
  param {
    lr_mult: 1
    decay_mult: 0
  }
  param {
    lr_mult: 1
    decay_mult: 0
  }
  param {
    lr_mult: 0
    decay_mult: 0
  }
  param {
    lr_mult: 0
    decay_mult: 0
  }
  batch_norm_param {
    use_global_stats: false
    scale_filler {
      type: "constant"
      value: 1
    }
    bias_filler {
      type: "constant"
      value: 0
    }
  }
}
layer {
  name: "inception_3a/3x3/relu1"
  type: "ReLU"
  bottom: "inception_3a/3x3"
  top: "inception_3a/3x3"
}
layer {
  name: "inception_3a/output"
  type: "Concat"
  bottom: "inception_3a/1x1"
  bottom: "inception_3a/3x3"
  top: "inception_3a/output"
}
layer {
  name: "downsample_4/3x3_s2"
  type: "Convolution"
  bottom: "inception_3a/output"
  top: "downsample_4/3x3_s2"
  param {
    lr_mult: 1
    decay_mult: 1
  }
  param {
    lr_mult: 2
    decay_mult: 0
  }
  convolution_param {
    num_output: 80
    pad: 1
    kernel_size: 3
    stride: 2
    weight_filler {
      type: "xavier"
      std: 0.03
    }
    bias_filler {
      type: "constant"
      value: 0.2
    }
  }
}
layer {
  name: "downsample_4/3x3_s2/bn1"
  type: "BatchNorm"
  bottom: "downsample_4/3x3_s2"
  top: "downsample_4/3x3_s2"
  param {
    lr_mult: 1
    decay_mult: 0
  }
  param {
    lr_mult: 1
    decay_mult: 0
  }
  param {
    lr_mult: 0
    decay_mult: 0
  }
  param {
    lr_mult: 0
    decay_mult: 0
  }
  batch_norm_param {
    use_global_stats: false
    scale_filler {
      type: "constant"
      value: 1
    }
    bias_filler {
      type: "constant"
      value: 0
    }
  }
}
layer {
  name: "downsample_4/3x3_s2/relu1"
  type: "ReLU"
  bottom: "downsample_4/3x3_s2"
  top: "downsample_4/3x3_s2"
}
layer {
  name: "downsample_4/pool_s2"
  type: "Pooling"
  bottom: "inception_3a/output"
  top: "downsample_4/pool_s2"
  pooling_param {
    pool: MAX
    kernel_size: 3
    stride: 2
  }
}
layer {
  name: "downsample_4/output"
  type: "Concat"
  bottom: "downsample_4/3x3_s2"
  bottom: "downsample_4/pool_s2"
  top: "downsample_4/output"
}
layer {
  name: "inception_5a/1x1"
  type: "Convolution"
  bottom: "downsample_4/output"
  top: "inception_5a/1x1"
  param {
    lr_mult: 1
    decay_mult: 1
  }
  param {
    lr_mult: 2
    decay_mult: 0
  }
  convolution_param {
    num_output: 112
    kernel_size: 1
    weight_filler {
      type: "xavier"
      std: 0.03
    }
    bias_filler {
      type: "constant"
      value: 0.2
    }
  }
}
layer {
  name: "inception_5a/1x1/bn1"
  type: "BatchNorm"
  bottom: "inception_5a/1x1"
  top: "inception_5a/1x1"
  param {
    lr_mult: 1
    decay_mult: 0
  }
  param {
    lr_mult: 1
    decay_mult: 0
  }
  param {
    lr_mult: 0
    decay_mult: 0
  }
  param {
    lr_mult: 0
    decay_mult: 0
  }
  batch_norm_param {
    use_global_stats: false
    scale_filler {
      type: "constant"
      value: 1
    }
    bias_filler {
      type: "constant"
      value: 0
    }
  }
}
layer {
  name: "inception_5a/1x1/relu1"
  type: "ReLU"
  bottom: "inception_5a/1x1"
  top: "inception_5a/1x1"
}
layer {
  name: "inception_5a/3x3"
  type: "Convolution"
  bottom: "downsample_4/output"
  top: "inception_5a/3x3"
  param {
    lr_mult: 1
    decay_mult: 1
  }
  param {
    lr_mult: 2
    decay_mult: 0
  }
  convolution_param {
    num_output: 48
    pad: 1
    kernel_size: 3
    weight_filler {
      type: "xavier"
      std: 0.03
    }
    bias_filler {
      type: "constant"
      value: 0.2
    }
  }
}
layer {
  name: "inception_5a/3x3/bn1"
  type: "BatchNorm"
  bottom: "inception_5a/3x3"
  top: "inception_5a/3x3"
  param {
    lr_mult: 1
    decay_mult: 0
  }
  param {
    lr_mult: 1
    decay_mult: 0
  }
  param {
    lr_mult: 0
    decay_mult: 0
  }
  param {
    lr_mult: 0
    decay_mult: 0
  }
  batch_norm_param {
    use_global_stats: false
    scale_filler {
      type: "constant"
      value: 1
    }
    bias_filler {
      type: "constant"
      value: 0
    }
  }
}
layer {
  name: "inception_5a/3x3/relu1"
  type: "ReLU"
  bottom: "inception_5a/3x3"
  top: "inception_5a/3x3"
}
layer {
  name: "inception_5a/output"
  type: "Concat"
  bottom: "inception_5a/1x1"
  bottom: "inception_5a/3x3"
  top: "inception_5a/output"
}
layer {
  name: "inception_6a/1x1"
  type: "Convolution"
  bottom: "inception_5a/output"
  top: "inception_6a/1x1"
  param {
    lr_mult: 1
    decay_mult: 1
  }
  param {
    lr_mult: 2
    decay_mult: 0
  }
  convolution_param {
    num_output: 96
    kernel_size: 1
    weight_filler {
      type: "xavier"
      std: 0.03
    }
    bias_filler {
      type: "constant"
      value: 0.2
    }
  }
}
layer {
  name: "inception_6a/1x1/bn1"
  type: "BatchNorm"
  bottom: "inception_6a/1x1"
  top: "inception_6a/1x1"
  param {
    lr_mult: 1
    decay_mult: 0
  }
  param {
    lr_mult: 1
    decay_mult: 0
  }
  param {
    lr_mult: 0
    decay_mult: 0
  }
  param {
    lr_mult: 0
    decay_mult: 0
  }
  batch_norm_param {
    use_global_stats: false
    scale_filler {
      type: "constant"
      value: 1
    }
    bias_filler {
      type: "constant"
      value: 0
    }
  }
}
layer {
  name: "inception_6a/1x1/relu1"
  type: "ReLU"
  bottom: "inception_6a/1x1"
  top: "inception_6a/1x1"
}
layer {
  name: "inception_6a/3x3"
  type: "Convolution"
  bottom: "inception_5a/output"
  top: "inception_6a/3x3"
  param {
    lr_mult: 1
    decay_mult: 1
  }
  param {
    lr_mult: 2
    decay_mult: 0
  }
  convolution_param {
    num_output: 64
    pad: 1
    kernel_size: 3
    weight_filler {
      type: "xavier"
      std: 0.03
    }
    bias_filler {
      type: "constant"
      value: 0.2
    }
  }
}
layer {
  name: "inception_6a/3x3/bn1"
  type: "BatchNorm"
  bottom: "inception_6a/3x3"
  top: "inception_6a/3x3"
  param {
    lr_mult: 1
    decay_mult: 0
  }
  param {
    lr_mult: 1
    decay_mult: 0
  }
  param {
    lr_mult: 0
    decay_mult: 0
  }
  param {
    lr_mult: 0
    decay_mult: 0
  }
  batch_norm_param {
    use_global_stats: false
    scale_filler {
      type: "constant"
      value: 1
    }
    bias_filler {
      type: "constant"
      value: 0
    }
  }
}
layer {
  name: "inception_6a/3x3/relu1"
  type: "ReLU"
  bottom: "inception_6a/3x3"
  top: "inception_6a/3x3"
}
layer {
  name: "inception_6a/output"
  type: "Concat"
  bottom: "inception_6a/1x1"
  bottom: "inception_6a/3x3"
  top: "inception_6a/output"
}
layer {
  name: "inception_7a/1x1"
  type: "Convolution"
  bottom: "inception_6a/output"
  top: "inception_7a/1x1"
  param {
    lr_mult: 1
    decay_mult: 1
  }
  param {
    lr_mult: 2
    decay_mult: 0
  }
  convolution_param {
    num_output: 80
    kernel_size: 1
    weight_filler {
      type: "xavier"
      std: 0.03
    }
    bias_filler {
      type: "constant"
      value: 0.2
    }
  }
}
layer {
  name: "inception_7a/1x1/bn1"
  type: "BatchNorm"
  bottom: "inception_7a/1x1"
  top: "inception_7a/1x1"
  param {
    lr_mult: 1
    decay_mult: 0
  }
  param {
    lr_mult: 1
    decay_mult: 0
  }
  param {
    lr_mult: 0
    decay_mult: 0
  }
  param {
    lr_mult: 0
    decay_mult: 0
  }
  batch_norm_param {
    use_global_stats: false
    scale_filler {
      type: "constant"
      value: 1
    }
    bias_filler {
      type: "constant"
      value: 0
    }
  }
}
layer {
  name: "inception_7a/1x1/relu1"
  type: "ReLU"
  bottom: "inception_7a/1x1"
  top: "inception_7a/1x1"
}
layer {
  name: "inception_7a/3x3"
  type: "Convolution"
  bottom: "inception_6a/output"
  top: "inception_7a/3x3"
  param {
    lr_mult: 1
    decay_mult: 1
  }
  param {
    lr_mult: 2
    decay_mult: 0
  }
  convolution_param {
    num_output: 80
    pad: 1
    kernel_size: 3
    weight_filler {
      type: "xavier"
      std: 0.03
    }
    bias_filler {
      type: "constant"
      value: 0.2
    }
  }
}
layer {
  name: "inception_7a/3x3/bn1"
  type: "BatchNorm"
  bottom: "inception_7a/3x3"
  top: "inception_7a/3x3"
  param {
    lr_mult: 1
    decay_mult: 0
  }
  param {
    lr_mult: 1
    decay_mult: 0
  }
  param {
    lr_mult: 0
    decay_mult: 0
  }
  param {
    lr_mult: 0
    decay_mult: 0
  }
  batch_norm_param {
    use_global_stats: false
    scale_filler {
      type: "constant"
      value: 1
    }
    bias_filler {
      type: "constant"
      value: 0
    }
  }
}
layer {
  name: "inception_7a/3x3/relu1"
  type: "ReLU"
  bottom: "inception_7a/3x3"
  top: "inception_7a/3x3"
}
layer {
  name: "inception_7a/output"
  type: "Concat"
  bottom: "inception_7a/1x1"
  bottom: "inception_7a/3x3"
  top: "inception_7a/output"
}
layer {
  name: "inception_8a/1x1"
  type: "Convolution"
  bottom: "inception_7a/output"
  top: "inception_8a/1x1"
  param {
    lr_mult: 1
    decay_mult: 1
  }
  param {
    lr_mult: 2
    decay_mult: 0
  }
  convolution_param {
    num_output: 48
    kernel_size: 1
    weight_filler {
      type: "xavier"
      std: 0.03
    }
    bias_filler {
      type: "constant"
      value: 0.2
    }
  }
}
layer {
  name: "inception_8a/1x1/bn1"
  type: "BatchNorm"
  bottom: "inception_8a/1x1"
  top: "inception_8a/1x1"
  param {
    lr_mult: 1
    decay_mult: 0
  }
  param {
    lr_mult: 1
    decay_mult: 0
  }
  param {
    lr_mult: 0
    decay_mult: 0
  }
  param {
    lr_mult: 0
    decay_mult: 0
  }
  batch_norm_param {
    use_global_stats: false
    scale_filler {
      type: "constant"
      value: 1
    }
    bias_filler {
      type: "constant"
      value: 0
    }
  }
}
layer {
  name: "inception_8a/1x1/relu1"
  type: "ReLU"
  bottom: "inception_8a/1x1"
  top: "inception_8a/1x1"
}
layer {
  name: "inception_8a/3x3"
  type: "Convolution"
  bottom: "inception_7a/output"
  top: "inception_8a/3x3"
  param {
    lr_mult: 1
    decay_mult: 1
  }
  param {
    lr_mult: 2
    decay_mult: 0
  }
  convolution_param {
    num_output: 96
    pad: 1
    kernel_size: 3
    weight_filler {
      type: "xavier"
      std: 0.03
    }
    bias_filler {
      type: "constant"
      value: 0.2
    }
  }
}
layer {
  name: "inception_8a/3x3/bn1"
  type: "BatchNorm"
  bottom: "inception_8a/3x3"
  top: "inception_8a/3x3"
  param {
    lr_mult: 1
    decay_mult: 0
  }
  param {
    lr_mult: 1
    decay_mult: 0
  }
  param {
    lr_mult: 0
    decay_mult: 0
  }
  param {
    lr_mult: 0
    decay_mult: 0
  }
  batch_norm_param {
    use_global_stats: false
    scale_filler {
      type: "constant"
      value: 1
    }
    bias_filler {
      type: "constant"
      value: 0
    }
  }
}
layer {
  name: "inception_8a/3x3/relu1"
  type: "ReLU"
  bottom: "inception_8a/3x3"
  top: "inception_8a/3x3"
}
layer {
  name: "inception_8a/output"
  type: "Concat"
  bottom: "inception_8a/1x1"
  bottom: "inception_8a/3x3"
  top: "inception_8a/output"
}
layer {
  name: "downsample_9/3x3_s2"
  type: "Convolution"
  bottom: "inception_8a/output"
  top: "downsample_9/3x3_s2"
  param {
    lr_mult: 1
    decay_mult: 1
  }
  param {
    lr_mult: 2
    decay_mult: 0
  }
  convolution_param {
    num_output: 96
    pad: 1
    kernel_size: 3
    stride: 2
    weight_filler {
      type: "xavier"
      std: 0.03
    }
    bias_filler {
      type: "constant"
      value: 0.2
    }
  }
}
layer {
  name: "downsample_9/3x3_s2/bn1"
  type: "BatchNorm"
  bottom: "downsample_9/3x3_s2"
  top: "downsample_9/3x3_s2"
  param {
    lr_mult: 1
    decay_mult: 0
  }
  param {
    lr_mult: 1
    decay_mult: 0
  }
  param {
    lr_mult: 0
    decay_mult: 0
  }
  param {
    lr_mult: 0
    decay_mult: 0
  }
  batch_norm_param {
    use_global_stats: false
    scale_filler {
      type: "constant"
      value: 1
    }
    bias_filler {
      type: "constant"
      value: 0
    }
  }
}
layer {
  name: "downsample_9/3x3_s2/relu1"
  type: "ReLU"
  bottom: "downsample_9/3x3_s2"
  top: "downsample_9/3x3_s2"
}
layer {
  name: "downsample_9/pool_s2"
  type: "Pooling"
  bottom: "inception_8a/output"
  top: "downsample_9/pool_s2"
  pooling_param {
    pool: MAX
    kernel_size: 3
    stride: 2
  }
}
layer {
  name: "downsample_9/output"
  type: "Concat"
  bottom: "downsample_9/3x3_s2"
  bottom: "downsample_9/pool_s2"
  top: "downsample_9/output"
}
layer {
  name: "inception_10a/1x1"
  type: "Convolution"
  bottom: "downsample_9/output"
  top: "inception_10a/1x1"
  param {
    lr_mult: 1
    decay_mult: 1
  }
  param {
    lr_mult: 2
    decay_mult: 0
  }
  convolution_param {
    num_output: 176
    kernel_size: 1
    weight_filler {
      type: "xavier"
      std: 0.03
    }
    bias_filler {
      type: "constant"
      value: 0.2
    }
  }
}
layer {
  name: "inception_10a/1x1/bn1"
  type: "BatchNorm"
  bottom: "inception_10a/1x1"
  top: "inception_10a/1x1"
  param {
    lr_mult: 1
    decay_mult: 0
  }
  param {
    lr_mult: 1
    decay_mult: 0
  }
  param {
    lr_mult: 0
    decay_mult: 0
  }
  param {
    lr_mult: 0
    decay_mult: 0
  }
  batch_norm_param {
    use_global_stats: false
    scale_filler {
      type: "constant"
      value: 1
    }
    bias_filler {
      type: "constant"
      value: 0
    }
  }
}
layer {
  name: "inception_10a/1x1/relu1"
  type: "ReLU"
  bottom: "inception_10a/1x1"
  top: "inception_10a/1x1"
}
layer {
  name: "inception_10a/3x3"
  type: "Convolution"
  bottom: "downsample_9/output"
  top: "inception_10a/3x3"
  param {
    lr_mult: 1
    decay_mult: 1
  }
  param {
    lr_mult: 2
    decay_mult: 0
  }
  convolution_param {
    num_output: 160
    pad: 1
    kernel_size: 3
    weight_filler {
      type: "xavier"
      std: 0.03
    }
    bias_filler {
      type: "constant"
      value: 0.2
    }
  }
}
layer {
  name: "inception_10a/3x3/bn1"
  type: "BatchNorm"
  bottom: "inception_10a/3x3"
  top: "inception_10a/3x3"
  param {
    lr_mult: 1
    decay_mult: 0
  }
  param {
    lr_mult: 1
    decay_mult: 0
  }
  param {
    lr_mult: 0
    decay_mult: 0
  }
  param {
    lr_mult: 0
    decay_mult: 0
  }
  batch_norm_param {
    use_global_stats: false
    scale_filler {
      type: "constant"
      value: 1
    }
    bias_filler {
      type: "constant"
      value: 0
    }
  }
}
layer {
  name: "inception_10a/3x3/relu1"
  type: "ReLU"
  bottom: "inception_10a/3x3"
  top: "inception_10a/3x3"
}
layer {
  name: "inception_10a/output"
  type: "Concat"
  bottom: "inception_10a/1x1"
  bottom: "inception_10a/3x3"
  top: "inception_10a/output"
}
layer {
  name: "inception_11a/1x1"
  type: "Convolution"
  bottom: "inception_10a/output"
  top: "inception_11a/1x1"
  param {
    lr_mult: 1
    decay_mult: 1
  }
  param {
    lr_mult: 2
    decay_mult: 0
  }
  convolution_param {
    num_output: 176
    kernel_size: 1
    weight_filler {
      type: "xavier"
      std: 0.03
    }
    bias_filler {
      type: "constant"
      value: 0.2
    }
  }
}
layer {
  name: "inception_11a/1x1/bn1"
  type: "BatchNorm"
  bottom: "inception_11a/1x1"
  top: "inception_11a/1x1"
  param {
    lr_mult: 1
    decay_mult: 0
  }
  param {
    lr_mult: 1
    decay_mult: 0
  }
  param {
    lr_mult: 0
    decay_mult: 0
  }
  param {
    lr_mult: 0
    decay_mult: 0
  }
  batch_norm_param {
    use_global_stats: false
    scale_filler {
      type: "constant"
      value: 1
    }
    bias_filler {
      type: "constant"
      value: 0
    }
  }
}
layer {
  name: "inception_11a/1x1/relu1"
  type: "ReLU"
  bottom: "inception_11a/1x1"
  top: "inception_11a/1x1"
}
layer {
  name: "inception_11a/3x3"
  type: "Convolution"
  bottom: "inception_10a/output"
  top: "inception_11a/3x3"
  param {
    lr_mult: 1
    decay_mult: 1
  }
  param {
    lr_mult: 2
    decay_mult: 0
  }
  convolution_param {
    num_output: 160
    pad: 1
    kernel_size: 3
    weight_filler {
      type: "xavier"
      std: 0.03
    }
    bias_filler {
      type: "constant"
      value: 0.2
    }
  }
}
layer {
  name: "inception_11a/3x3/bn1"
  type: "BatchNorm"
  bottom: "inception_11a/3x3"
  top: "inception_11a/3x3"
  param {
    lr_mult: 1
    decay_mult: 0
  }
  param {
    lr_mult: 1
    decay_mult: 0
  }
  param {
    lr_mult: 0
    decay_mult: 0
  }
  param {
    lr_mult: 0
    decay_mult: 0
  }
  batch_norm_param {
    use_global_stats: false
    scale_filler {
      type: "constant"
      value: 1
    }
    bias_filler {
      type: "constant"
      value: 0
    }
  }
}
layer {
  name: "inception_11a/3x3/relu1"
  type: "ReLU"
  bottom: "inception_11a/3x3"
  top: "inception_11a/3x3"
}
layer {
  name: "inception_11a/output"
  type: "Concat"
  bottom: "inception_11a/1x1"
  bottom: "inception_11a/3x3"
  top: "inception_11a/output"
}
layer {
  name: "avg_pool_12/8x8_s1"
  type: "Pooling"
  bottom: "inception_11a/output"
  top: "avg_pool_12/8x8_s1"
  pooling_param {
    pool: AVE
    kernel_size: 8
    stride: 1
  }
}
layer {
  name: "drop_8x8_s1"
  type: "Dropout"
  bottom: "avg_pool_12/8x8_s1"
  top: "avg_pool_12/8x8_s1"
  dropout_param {
    dropout_ratio: 0.5
  }
}
layer {
  name: "loss/classifier"
  type: "InnerProduct"
  bottom: "avg_pool_12/8x8_s1"
  top: "loss/classifier"
  param {
    lr_mult: 1
    decay_mult: 1
  }
  param {
    lr_mult: 2
    decay_mult: 0
  }
  inner_product_param {
    num_output: 10
    weight_filler {
      type: "xavier"
    }
    bias_filler {
      type: "constant"
      value: 1
    }
  }
}
layer {
  name: "loss"
  type: "SoftmaxWithLoss"
  bottom: "loss/classifier"
  bottom: "label"
  top: "loss"
}
layer {
  name: "accuracy"
  type: "Accuracy"
  bottom: "loss/classifier"
  bottom: "label"
  top: "accuracy"
  include {
    phase: TEST
  }
}
layer {
  name: "accuracy-top1"
  type: "Accuracy"
  bottom: "loss/classifier"
  bottom: "label"
  top: "top-1"
  include {
    phase: TEST
  }
}
layer {
  name: "accuracy-top5"
  type: "Accuracy"
  bottom: "loss/classifier"
  bottom: "label"
  top: "top-5"
  include {
    phase: TEST
  }
  accuracy_param {
    top_k: 5
  }
}
I0122 19:14:39.418135 69630 layer_factory.hpp:77] Creating layer data
I0122 19:14:39.418169 69630 internal_thread.cpp:27] Starting internal thread(s) on GPU 0
I0122 19:14:39.418534 69630 net.cpp:94] Creating Layer data
I0122 19:14:39.418540 69630 net.cpp:409] data -> data
I0122 19:14:39.418548 69630 net.cpp:409] data -> label
I0122 19:14:39.419550 70118 db_lmdb.cpp:35] Opened lmdb cifar10/input/lmdb/valid_lmdb
I0122 19:14:39.419582 70118 data_reader.cpp:117] TEST: reading data using 1 channel(s)
I0122 19:14:39.419715 69630 data_layer.cpp:78] ReshapePrefetch 50, 3, 32, 32
I0122 19:14:39.419790 69630 data_layer.cpp:83] output data size: 50,3,32,32
I0122 19:14:39.422266 69630 internal_thread.cpp:27] Starting internal thread(s) on GPU 0
I0122 19:14:39.422302 69630 net.cpp:144] Setting up data
I0122 19:14:39.422314 69630 net.cpp:151] Top shape: 50 3 32 32 (153600)
I0122 19:14:39.422317 69630 net.cpp:151] Top shape: 50 (50)
I0122 19:14:39.422320 69630 net.cpp:159] Memory required for data: 614600
I0122 19:14:39.422323 69630 layer_factory.hpp:77] Creating layer label_data_1_split
I0122 19:14:39.422330 69630 net.cpp:94] Creating Layer label_data_1_split
I0122 19:14:39.422333 69630 net.cpp:435] label_data_1_split <- label
I0122 19:14:39.422349 69630 net.cpp:409] label_data_1_split -> label_data_1_split_0
I0122 19:14:39.422358 69630 net.cpp:409] label_data_1_split -> label_data_1_split_1
I0122 19:14:39.422364 69630 net.cpp:409] label_data_1_split -> label_data_1_split_2
I0122 19:14:39.422369 69630 net.cpp:409] label_data_1_split -> label_data_1_split_3
I0122 19:14:39.422452 69630 net.cpp:144] Setting up label_data_1_split
I0122 19:14:39.422459 69630 net.cpp:151] Top shape: 50 (50)
I0122 19:14:39.422462 69630 net.cpp:151] Top shape: 50 (50)
I0122 19:14:39.422466 69630 net.cpp:151] Top shape: 50 (50)
I0122 19:14:39.422469 69630 net.cpp:151] Top shape: 50 (50)
I0122 19:14:39.422472 69630 net.cpp:159] Memory required for data: 615400
I0122 19:14:39.422475 69630 layer_factory.hpp:77] Creating layer conv1/3x3_s1
I0122 19:14:39.422485 69630 net.cpp:94] Creating Layer conv1/3x3_s1
I0122 19:14:39.422489 69630 net.cpp:435] conv1/3x3_s1 <- data
I0122 19:14:39.422495 69630 net.cpp:409] conv1/3x3_s1 -> conv1/3x3_s1
I0122 19:14:39.424022 69630 net.cpp:144] Setting up conv1/3x3_s1
I0122 19:14:39.424034 69630 net.cpp:151] Top shape: 50 96 32 32 (4915200)
I0122 19:14:39.424037 69630 net.cpp:159] Memory required for data: 20276200
I0122 19:14:39.424048 69630 layer_factory.hpp:77] Creating layer conv1/bn1
I0122 19:14:39.424058 69630 net.cpp:94] Creating Layer conv1/bn1
I0122 19:14:39.424062 69630 net.cpp:435] conv1/bn1 <- conv1/3x3_s1
I0122 19:14:39.424067 69630 net.cpp:396] conv1/bn1 -> conv1/3x3_s1 (in-place)
I0122 19:14:39.424747 69630 net.cpp:144] Setting up conv1/bn1
I0122 19:14:39.424754 69630 net.cpp:151] Top shape: 50 96 32 32 (4915200)
I0122 19:14:39.424757 69630 net.cpp:159] Memory required for data: 39937000
I0122 19:14:39.424767 69630 layer_factory.hpp:77] Creating layer conv1/relu1
I0122 19:14:39.424775 69630 net.cpp:94] Creating Layer conv1/relu1
I0122 19:14:39.424779 69630 net.cpp:435] conv1/relu1 <- conv1/3x3_s1
I0122 19:14:39.424783 69630 net.cpp:396] conv1/relu1 -> conv1/3x3_s1 (in-place)
I0122 19:14:39.424789 69630 net.cpp:144] Setting up conv1/relu1
I0122 19:14:39.424793 69630 net.cpp:151] Top shape: 50 96 32 32 (4915200)
I0122 19:14:39.424795 69630 net.cpp:159] Memory required for data: 59597800
I0122 19:14:39.424798 69630 layer_factory.hpp:77] Creating layer conv1/3x3_s1_conv1/relu1_0_split
I0122 19:14:39.424803 69630 net.cpp:94] Creating Layer conv1/3x3_s1_conv1/relu1_0_split
I0122 19:14:39.424806 69630 net.cpp:435] conv1/3x3_s1_conv1/relu1_0_split <- conv1/3x3_s1
I0122 19:14:39.424810 69630 net.cpp:409] conv1/3x3_s1_conv1/relu1_0_split -> conv1/3x3_s1_conv1/relu1_0_split_0
I0122 19:14:39.424815 69630 net.cpp:409] conv1/3x3_s1_conv1/relu1_0_split -> conv1/3x3_s1_conv1/relu1_0_split_1
I0122 19:14:39.424880 69630 net.cpp:144] Setting up conv1/3x3_s1_conv1/relu1_0_split
I0122 19:14:39.424887 69630 net.cpp:151] Top shape: 50 96 32 32 (4915200)
I0122 19:14:39.424892 69630 net.cpp:151] Top shape: 50 96 32 32 (4915200)
I0122 19:14:39.424895 69630 net.cpp:159] Memory required for data: 98919400
I0122 19:14:39.424897 69630 layer_factory.hpp:77] Creating layer inception_2a/1x1
I0122 19:14:39.424906 69630 net.cpp:94] Creating Layer inception_2a/1x1
I0122 19:14:39.424911 69630 net.cpp:435] inception_2a/1x1 <- conv1/3x3_s1_conv1/relu1_0_split_0
I0122 19:14:39.424916 69630 net.cpp:409] inception_2a/1x1 -> inception_2a/1x1
I0122 19:14:39.425218 69630 net.cpp:144] Setting up inception_2a/1x1
I0122 19:14:39.425225 69630 net.cpp:151] Top shape: 50 32 32 32 (1638400)
I0122 19:14:39.425228 69630 net.cpp:159] Memory required for data: 105473000
I0122 19:14:39.425235 69630 layer_factory.hpp:77] Creating layer inception_2a/1x1/bn1
I0122 19:14:39.425242 69630 net.cpp:94] Creating Layer inception_2a/1x1/bn1
I0122 19:14:39.425247 69630 net.cpp:435] inception_2a/1x1/bn1 <- inception_2a/1x1
I0122 19:14:39.425253 69630 net.cpp:396] inception_2a/1x1/bn1 -> inception_2a/1x1 (in-place)
I0122 19:14:39.426007 69630 net.cpp:144] Setting up inception_2a/1x1/bn1
I0122 19:14:39.426013 69630 net.cpp:151] Top shape: 50 32 32 32 (1638400)
I0122 19:14:39.426017 69630 net.cpp:159] Memory required for data: 112026600
I0122 19:14:39.426036 69630 layer_factory.hpp:77] Creating layer inception_2a/1x1/relu1
I0122 19:14:39.426043 69630 net.cpp:94] Creating Layer inception_2a/1x1/relu1
I0122 19:14:39.426046 69630 net.cpp:435] inception_2a/1x1/relu1 <- inception_2a/1x1
I0122 19:14:39.426051 69630 net.cpp:396] inception_2a/1x1/relu1 -> inception_2a/1x1 (in-place)
I0122 19:14:39.426057 69630 net.cpp:144] Setting up inception_2a/1x1/relu1
I0122 19:14:39.426060 69630 net.cpp:151] Top shape: 50 32 32 32 (1638400)
I0122 19:14:39.426064 69630 net.cpp:159] Memory required for data: 118580200
I0122 19:14:39.426082 69630 layer_factory.hpp:77] Creating layer inception_2a/3x3
I0122 19:14:39.426091 69630 net.cpp:94] Creating Layer inception_2a/3x3
I0122 19:14:39.426095 69630 net.cpp:435] inception_2a/3x3 <- conv1/3x3_s1_conv1/relu1_0_split_1
I0122 19:14:39.426101 69630 net.cpp:409] inception_2a/3x3 -> inception_2a/3x3
I0122 19:14:39.427140 69630 net.cpp:144] Setting up inception_2a/3x3
I0122 19:14:39.427152 69630 net.cpp:151] Top shape: 50 32 32 32 (1638400)
I0122 19:14:39.427155 69630 net.cpp:159] Memory required for data: 125133800
I0122 19:14:39.427162 69630 layer_factory.hpp:77] Creating layer inception_2a/3x3/bn1
I0122 19:14:39.427171 69630 net.cpp:94] Creating Layer inception_2a/3x3/bn1
I0122 19:14:39.427175 69630 net.cpp:435] inception_2a/3x3/bn1 <- inception_2a/3x3
I0122 19:14:39.427181 69630 net.cpp:396] inception_2a/3x3/bn1 -> inception_2a/3x3 (in-place)
I0122 19:14:39.427829 69630 net.cpp:144] Setting up inception_2a/3x3/bn1
I0122 19:14:39.427837 69630 net.cpp:151] Top shape: 50 32 32 32 (1638400)
I0122 19:14:39.427840 69630 net.cpp:159] Memory required for data: 131687400
I0122 19:14:39.427851 69630 layer_factory.hpp:77] Creating layer inception_2a/3x3/relu1
I0122 19:14:39.427860 69630 net.cpp:94] Creating Layer inception_2a/3x3/relu1
I0122 19:14:39.427863 69630 net.cpp:435] inception_2a/3x3/relu1 <- inception_2a/3x3
I0122 19:14:39.427867 69630 net.cpp:396] inception_2a/3x3/relu1 -> inception_2a/3x3 (in-place)
I0122 19:14:39.427875 69630 net.cpp:144] Setting up inception_2a/3x3/relu1
I0122 19:14:39.427878 69630 net.cpp:151] Top shape: 50 32 32 32 (1638400)
I0122 19:14:39.427882 69630 net.cpp:159] Memory required for data: 138241000
I0122 19:14:39.427886 69630 layer_factory.hpp:77] Creating layer inception_2a/output
I0122 19:14:39.427891 69630 net.cpp:94] Creating Layer inception_2a/output
I0122 19:14:39.427892 69630 net.cpp:435] inception_2a/output <- inception_2a/1x1
I0122 19:14:39.427897 69630 net.cpp:435] inception_2a/output <- inception_2a/3x3
I0122 19:14:39.427902 69630 net.cpp:409] inception_2a/output -> inception_2a/output
I0122 19:14:39.427923 69630 net.cpp:144] Setting up inception_2a/output
I0122 19:14:39.427928 69630 net.cpp:151] Top shape: 50 64 32 32 (3276800)
I0122 19:14:39.427932 69630 net.cpp:159] Memory required for data: 151348200
I0122 19:14:39.427934 69630 layer_factory.hpp:77] Creating layer inception_2a/output_inception_2a/output_0_split
I0122 19:14:39.427939 69630 net.cpp:94] Creating Layer inception_2a/output_inception_2a/output_0_split
I0122 19:14:39.427942 69630 net.cpp:435] inception_2a/output_inception_2a/output_0_split <- inception_2a/output
I0122 19:14:39.427947 69630 net.cpp:409] inception_2a/output_inception_2a/output_0_split -> inception_2a/output_inception_2a/output_0_split_0
I0122 19:14:39.427953 69630 net.cpp:409] inception_2a/output_inception_2a/output_0_split -> inception_2a/output_inception_2a/output_0_split_1
I0122 19:14:39.428009 69630 net.cpp:144] Setting up inception_2a/output_inception_2a/output_0_split
I0122 19:14:39.428014 69630 net.cpp:151] Top shape: 50 64 32 32 (3276800)
I0122 19:14:39.428019 69630 net.cpp:151] Top shape: 50 64 32 32 (3276800)
I0122 19:14:39.428020 69630 net.cpp:159] Memory required for data: 177562600
I0122 19:14:39.428023 69630 layer_factory.hpp:77] Creating layer inception_3a/1x1
I0122 19:14:39.428030 69630 net.cpp:94] Creating Layer inception_3a/1x1
I0122 19:14:39.428036 69630 net.cpp:435] inception_3a/1x1 <- inception_2a/output_inception_2a/output_0_split_0
I0122 19:14:39.428052 69630 net.cpp:409] inception_3a/1x1 -> inception_3a/1x1
I0122 19:14:39.428270 69630 net.cpp:144] Setting up inception_3a/1x1
I0122 19:14:39.428277 69630 net.cpp:151] Top shape: 50 32 32 32 (1638400)
I0122 19:14:39.428280 69630 net.cpp:159] Memory required for data: 184116200
I0122 19:14:39.428285 69630 layer_factory.hpp:77] Creating layer inception_3a/1x1/bn1
I0122 19:14:39.428292 69630 net.cpp:94] Creating Layer inception_3a/1x1/bn1
I0122 19:14:39.428295 69630 net.cpp:435] inception_3a/1x1/bn1 <- inception_3a/1x1
I0122 19:14:39.428301 69630 net.cpp:396] inception_3a/1x1/bn1 -> inception_3a/1x1 (in-place)
I0122 19:14:39.428957 69630 net.cpp:144] Setting up inception_3a/1x1/bn1
I0122 19:14:39.428964 69630 net.cpp:151] Top shape: 50 32 32 32 (1638400)
I0122 19:14:39.428967 69630 net.cpp:159] Memory required for data: 190669800
I0122 19:14:39.428977 69630 layer_factory.hpp:77] Creating layer inception_3a/1x1/relu1
I0122 19:14:39.428982 69630 net.cpp:94] Creating Layer inception_3a/1x1/relu1
I0122 19:14:39.428987 69630 net.cpp:435] inception_3a/1x1/relu1 <- inception_3a/1x1
I0122 19:14:39.428992 69630 net.cpp:396] inception_3a/1x1/relu1 -> inception_3a/1x1 (in-place)
I0122 19:14:39.428999 69630 net.cpp:144] Setting up inception_3a/1x1/relu1
I0122 19:14:39.429003 69630 net.cpp:151] Top shape: 50 32 32 32 (1638400)
I0122 19:14:39.429006 69630 net.cpp:159] Memory required for data: 197223400
I0122 19:14:39.429008 69630 layer_factory.hpp:77] Creating layer inception_3a/3x3
I0122 19:14:39.429016 69630 net.cpp:94] Creating Layer inception_3a/3x3
I0122 19:14:39.429019 69630 net.cpp:435] inception_3a/3x3 <- inception_2a/output_inception_2a/output_0_split_1
I0122 19:14:39.429026 69630 net.cpp:409] inception_3a/3x3 -> inception_3a/3x3
I0122 19:14:39.429404 69630 net.cpp:144] Setting up inception_3a/3x3
I0122 19:14:39.429411 69630 net.cpp:151] Top shape: 50 48 32 32 (2457600)
I0122 19:14:39.429415 69630 net.cpp:159] Memory required for data: 207053800
I0122 19:14:39.429420 69630 layer_factory.hpp:77] Creating layer inception_3a/3x3/bn1
I0122 19:14:39.429427 69630 net.cpp:94] Creating Layer inception_3a/3x3/bn1
I0122 19:14:39.429431 69630 net.cpp:435] inception_3a/3x3/bn1 <- inception_3a/3x3
I0122 19:14:39.429436 69630 net.cpp:396] inception_3a/3x3/bn1 -> inception_3a/3x3 (in-place)
I0122 19:14:39.430106 69630 net.cpp:144] Setting up inception_3a/3x3/bn1
I0122 19:14:39.430114 69630 net.cpp:151] Top shape: 50 48 32 32 (2457600)
I0122 19:14:39.430117 69630 net.cpp:159] Memory required for data: 216884200
I0122 19:14:39.430128 69630 layer_factory.hpp:77] Creating layer inception_3a/3x3/relu1
I0122 19:14:39.430135 69630 net.cpp:94] Creating Layer inception_3a/3x3/relu1
I0122 19:14:39.430140 69630 net.cpp:435] inception_3a/3x3/relu1 <- inception_3a/3x3
I0122 19:14:39.430145 69630 net.cpp:396] inception_3a/3x3/relu1 -> inception_3a/3x3 (in-place)
I0122 19:14:39.430151 69630 net.cpp:144] Setting up inception_3a/3x3/relu1
I0122 19:14:39.430155 69630 net.cpp:151] Top shape: 50 48 32 32 (2457600)
I0122 19:14:39.430157 69630 net.cpp:159] Memory required for data: 226714600
I0122 19:14:39.430161 69630 layer_factory.hpp:77] Creating layer inception_3a/output
I0122 19:14:39.430166 69630 net.cpp:94] Creating Layer inception_3a/output
I0122 19:14:39.430169 69630 net.cpp:435] inception_3a/output <- inception_3a/1x1
I0122 19:14:39.430174 69630 net.cpp:435] inception_3a/output <- inception_3a/3x3
I0122 19:14:39.430179 69630 net.cpp:409] inception_3a/output -> inception_3a/output
I0122 19:14:39.430200 69630 net.cpp:144] Setting up inception_3a/output
I0122 19:14:39.430207 69630 net.cpp:151] Top shape: 50 80 32 32 (4096000)
I0122 19:14:39.430209 69630 net.cpp:159] Memory required for data: 243098600
I0122 19:14:39.430212 69630 layer_factory.hpp:77] Creating layer inception_3a/output_inception_3a/output_0_split
I0122 19:14:39.430217 69630 net.cpp:94] Creating Layer inception_3a/output_inception_3a/output_0_split
I0122 19:14:39.430219 69630 net.cpp:435] inception_3a/output_inception_3a/output_0_split <- inception_3a/output
I0122 19:14:39.430236 69630 net.cpp:409] inception_3a/output_inception_3a/output_0_split -> inception_3a/output_inception_3a/output_0_split_0
I0122 19:14:39.430243 69630 net.cpp:409] inception_3a/output_inception_3a/output_0_split -> inception_3a/output_inception_3a/output_0_split_1
I0122 19:14:39.430300 69630 net.cpp:144] Setting up inception_3a/output_inception_3a/output_0_split
I0122 19:14:39.430306 69630 net.cpp:151] Top shape: 50 80 32 32 (4096000)
I0122 19:14:39.430310 69630 net.cpp:151] Top shape: 50 80 32 32 (4096000)
I0122 19:14:39.430313 69630 net.cpp:159] Memory required for data: 275866600
I0122 19:14:39.430317 69630 layer_factory.hpp:77] Creating layer downsample_4/3x3_s2
I0122 19:14:39.430325 69630 net.cpp:94] Creating Layer downsample_4/3x3_s2
I0122 19:14:39.430331 69630 net.cpp:435] downsample_4/3x3_s2 <- inception_3a/output_inception_3a/output_0_split_0
I0122 19:14:39.430337 69630 net.cpp:409] downsample_4/3x3_s2 -> downsample_4/3x3_s2
I0122 19:14:39.430867 69630 net.cpp:144] Setting up downsample_4/3x3_s2
I0122 19:14:39.430874 69630 net.cpp:151] Top shape: 50 80 16 16 (1024000)
I0122 19:14:39.430877 69630 net.cpp:159] Memory required for data: 279962600
I0122 19:14:39.430883 69630 layer_factory.hpp:77] Creating layer downsample_4/3x3_s2/bn1
I0122 19:14:39.430891 69630 net.cpp:94] Creating Layer downsample_4/3x3_s2/bn1
I0122 19:14:39.430893 69630 net.cpp:435] downsample_4/3x3_s2/bn1 <- downsample_4/3x3_s2
I0122 19:14:39.430898 69630 net.cpp:396] downsample_4/3x3_s2/bn1 -> downsample_4/3x3_s2 (in-place)
I0122 19:14:39.431617 69630 net.cpp:144] Setting up downsample_4/3x3_s2/bn1
I0122 19:14:39.431623 69630 net.cpp:151] Top shape: 50 80 16 16 (1024000)
I0122 19:14:39.431627 69630 net.cpp:159] Memory required for data: 284058600
I0122 19:14:39.431634 69630 layer_factory.hpp:77] Creating layer downsample_4/3x3_s2/relu1
I0122 19:14:39.431641 69630 net.cpp:94] Creating Layer downsample_4/3x3_s2/relu1
I0122 19:14:39.431645 69630 net.cpp:435] downsample_4/3x3_s2/relu1 <- downsample_4/3x3_s2
I0122 19:14:39.431649 69630 net.cpp:396] downsample_4/3x3_s2/relu1 -> downsample_4/3x3_s2 (in-place)
I0122 19:14:39.431655 69630 net.cpp:144] Setting up downsample_4/3x3_s2/relu1
I0122 19:14:39.431659 69630 net.cpp:151] Top shape: 50 80 16 16 (1024000)
I0122 19:14:39.431663 69630 net.cpp:159] Memory required for data: 288154600
I0122 19:14:39.431665 69630 layer_factory.hpp:77] Creating layer downsample_4/pool_s2
I0122 19:14:39.431671 69630 net.cpp:94] Creating Layer downsample_4/pool_s2
I0122 19:14:39.431677 69630 net.cpp:435] downsample_4/pool_s2 <- inception_3a/output_inception_3a/output_0_split_1
I0122 19:14:39.431682 69630 net.cpp:409] downsample_4/pool_s2 -> downsample_4/pool_s2
I0122 19:14:39.431721 69630 net.cpp:144] Setting up downsample_4/pool_s2
I0122 19:14:39.431726 69630 net.cpp:151] Top shape: 50 80 16 16 (1024000)
I0122 19:14:39.431730 69630 net.cpp:159] Memory required for data: 292250600
I0122 19:14:39.431732 69630 layer_factory.hpp:77] Creating layer downsample_4/output
I0122 19:14:39.431737 69630 net.cpp:94] Creating Layer downsample_4/output
I0122 19:14:39.431741 69630 net.cpp:435] downsample_4/output <- downsample_4/3x3_s2
I0122 19:14:39.431746 69630 net.cpp:435] downsample_4/output <- downsample_4/pool_s2
I0122 19:14:39.431751 69630 net.cpp:409] downsample_4/output -> downsample_4/output
I0122 19:14:39.431767 69630 net.cpp:144] Setting up downsample_4/output
I0122 19:14:39.431772 69630 net.cpp:151] Top shape: 50 160 16 16 (2048000)
I0122 19:14:39.431776 69630 net.cpp:159] Memory required for data: 300442600
I0122 19:14:39.431778 69630 layer_factory.hpp:77] Creating layer downsample_4/output_downsample_4/output_0_split
I0122 19:14:39.431782 69630 net.cpp:94] Creating Layer downsample_4/output_downsample_4/output_0_split
I0122 19:14:39.431785 69630 net.cpp:435] downsample_4/output_downsample_4/output_0_split <- downsample_4/output
I0122 19:14:39.431790 69630 net.cpp:409] downsample_4/output_downsample_4/output_0_split -> downsample_4/output_downsample_4/output_0_split_0
I0122 19:14:39.431797 69630 net.cpp:409] downsample_4/output_downsample_4/output_0_split -> downsample_4/output_downsample_4/output_0_split_1
I0122 19:14:39.431833 69630 net.cpp:144] Setting up downsample_4/output_downsample_4/output_0_split
I0122 19:14:39.431839 69630 net.cpp:151] Top shape: 50 160 16 16 (2048000)
I0122 19:14:39.431843 69630 net.cpp:151] Top shape: 50 160 16 16 (2048000)
I0122 19:14:39.431846 69630 net.cpp:159] Memory required for data: 316826600
I0122 19:14:39.431849 69630 layer_factory.hpp:77] Creating layer inception_5a/1x1
I0122 19:14:39.431856 69630 net.cpp:94] Creating Layer inception_5a/1x1
I0122 19:14:39.431859 69630 net.cpp:435] inception_5a/1x1 <- downsample_4/output_downsample_4/output_0_split_0
I0122 19:14:39.431864 69630 net.cpp:409] inception_5a/1x1 -> inception_5a/1x1
I0122 19:14:39.432178 69630 net.cpp:144] Setting up inception_5a/1x1
I0122 19:14:39.432184 69630 net.cpp:151] Top shape: 50 112 16 16 (1433600)
I0122 19:14:39.432188 69630 net.cpp:159] Memory required for data: 322561000
I0122 19:14:39.432193 69630 layer_factory.hpp:77] Creating layer inception_5a/1x1/bn1
I0122 19:14:39.432199 69630 net.cpp:94] Creating Layer inception_5a/1x1/bn1
I0122 19:14:39.432202 69630 net.cpp:435] inception_5a/1x1/bn1 <- inception_5a/1x1
I0122 19:14:39.432209 69630 net.cpp:396] inception_5a/1x1/bn1 -> inception_5a/1x1 (in-place)
I0122 19:14:39.432902 69630 net.cpp:144] Setting up inception_5a/1x1/bn1
I0122 19:14:39.432909 69630 net.cpp:151] Top shape: 50 112 16 16 (1433600)
I0122 19:14:39.432911 69630 net.cpp:159] Memory required for data: 328295400
I0122 19:14:39.432919 69630 layer_factory.hpp:77] Creating layer inception_5a/1x1/relu1
I0122 19:14:39.432927 69630 net.cpp:94] Creating Layer inception_5a/1x1/relu1
I0122 19:14:39.432931 69630 net.cpp:435] inception_5a/1x1/relu1 <- inception_5a/1x1
I0122 19:14:39.432935 69630 net.cpp:396] inception_5a/1x1/relu1 -> inception_5a/1x1 (in-place)
I0122 19:14:39.432943 69630 net.cpp:144] Setting up inception_5a/1x1/relu1
I0122 19:14:39.432950 69630 net.cpp:151] Top shape: 50 112 16 16 (1433600)
I0122 19:14:39.432953 69630 net.cpp:159] Memory required for data: 334029800
I0122 19:14:39.432956 69630 layer_factory.hpp:77] Creating layer inception_5a/3x3
I0122 19:14:39.432965 69630 net.cpp:94] Creating Layer inception_5a/3x3
I0122 19:14:39.432972 69630 net.cpp:435] inception_5a/3x3 <- downsample_4/output_downsample_4/output_0_split_1
I0122 19:14:39.432977 69630 net.cpp:409] inception_5a/3x3 -> inception_5a/3x3
I0122 19:14:39.433593 69630 net.cpp:144] Setting up inception_5a/3x3
I0122 19:14:39.433601 69630 net.cpp:151] Top shape: 50 48 16 16 (614400)
I0122 19:14:39.433604 69630 net.cpp:159] Memory required for data: 336487400
I0122 19:14:39.433610 69630 layer_factory.hpp:77] Creating layer inception_5a/3x3/bn1
I0122 19:14:39.433619 69630 net.cpp:94] Creating Layer inception_5a/3x3/bn1
I0122 19:14:39.433622 69630 net.cpp:435] inception_5a/3x3/bn1 <- inception_5a/3x3
I0122 19:14:39.433629 69630 net.cpp:396] inception_5a/3x3/bn1 -> inception_5a/3x3 (in-place)
I0122 19:14:39.434330 69630 net.cpp:144] Setting up inception_5a/3x3/bn1
I0122 19:14:39.434337 69630 net.cpp:151] Top shape: 50 48 16 16 (614400)
I0122 19:14:39.434341 69630 net.cpp:159] Memory required for data: 338945000
I0122 19:14:39.434350 69630 layer_factory.hpp:77] Creating layer inception_5a/3x3/relu1
I0122 19:14:39.434355 69630 net.cpp:94] Creating Layer inception_5a/3x3/relu1
I0122 19:14:39.434357 69630 net.cpp:435] inception_5a/3x3/relu1 <- inception_5a/3x3
I0122 19:14:39.434362 69630 net.cpp:396] inception_5a/3x3/relu1 -> inception_5a/3x3 (in-place)
I0122 19:14:39.434368 69630 net.cpp:144] Setting up inception_5a/3x3/relu1
I0122 19:14:39.434371 69630 net.cpp:151] Top shape: 50 48 16 16 (614400)
I0122 19:14:39.434376 69630 net.cpp:159] Memory required for data: 341402600
I0122 19:14:39.434378 69630 layer_factory.hpp:77] Creating layer inception_5a/output
I0122 19:14:39.434383 69630 net.cpp:94] Creating Layer inception_5a/output
I0122 19:14:39.434386 69630 net.cpp:435] inception_5a/output <- inception_5a/1x1
I0122 19:14:39.434389 69630 net.cpp:435] inception_5a/output <- inception_5a/3x3
I0122 19:14:39.434406 69630 net.cpp:409] inception_5a/output -> inception_5a/output
I0122 19:14:39.434427 69630 net.cpp:144] Setting up inception_5a/output
I0122 19:14:39.434432 69630 net.cpp:151] Top shape: 50 160 16 16 (2048000)
I0122 19:14:39.434434 69630 net.cpp:159] Memory required for data: 349594600
I0122 19:14:39.434437 69630 layer_factory.hpp:77] Creating layer inception_5a/output_inception_5a/output_0_split
I0122 19:14:39.434442 69630 net.cpp:94] Creating Layer inception_5a/output_inception_5a/output_0_split
I0122 19:14:39.434445 69630 net.cpp:435] inception_5a/output_inception_5a/output_0_split <- inception_5a/output
I0122 19:14:39.434450 69630 net.cpp:409] inception_5a/output_inception_5a/output_0_split -> inception_5a/output_inception_5a/output_0_split_0
I0122 19:14:39.434456 69630 net.cpp:409] inception_5a/output_inception_5a/output_0_split -> inception_5a/output_inception_5a/output_0_split_1
I0122 19:14:39.434528 69630 net.cpp:144] Setting up inception_5a/output_inception_5a/output_0_split
I0122 19:14:39.434535 69630 net.cpp:151] Top shape: 50 160 16 16 (2048000)
I0122 19:14:39.434537 69630 net.cpp:151] Top shape: 50 160 16 16 (2048000)
I0122 19:14:39.434540 69630 net.cpp:159] Memory required for data: 365978600
I0122 19:14:39.434543 69630 layer_factory.hpp:77] Creating layer inception_6a/1x1
I0122 19:14:39.434551 69630 net.cpp:94] Creating Layer inception_6a/1x1
I0122 19:14:39.434556 69630 net.cpp:435] inception_6a/1x1 <- inception_5a/output_inception_5a/output_0_split_0
I0122 19:14:39.434561 69630 net.cpp:409] inception_6a/1x1 -> inception_6a/1x1
I0122 19:14:39.435533 69630 net.cpp:144] Setting up inception_6a/1x1
I0122 19:14:39.435544 69630 net.cpp:151] Top shape: 50 96 16 16 (1228800)
I0122 19:14:39.435546 69630 net.cpp:159] Memory required for data: 370893800
I0122 19:14:39.435554 69630 layer_factory.hpp:77] Creating layer inception_6a/1x1/bn1
I0122 19:14:39.435560 69630 net.cpp:94] Creating Layer inception_6a/1x1/bn1
I0122 19:14:39.435565 69630 net.cpp:435] inception_6a/1x1/bn1 <- inception_6a/1x1
I0122 19:14:39.435572 69630 net.cpp:396] inception_6a/1x1/bn1 -> inception_6a/1x1 (in-place)
I0122 19:14:39.436178 69630 net.cpp:144] Setting up inception_6a/1x1/bn1
I0122 19:14:39.436185 69630 net.cpp:151] Top shape: 50 96 16 16 (1228800)
I0122 19:14:39.436188 69630 net.cpp:159] Memory required for data: 375809000
I0122 19:14:39.436197 69630 layer_factory.hpp:77] Creating layer inception_6a/1x1/relu1
I0122 19:14:39.436204 69630 net.cpp:94] Creating Layer inception_6a/1x1/relu1
I0122 19:14:39.436208 69630 net.cpp:435] inception_6a/1x1/relu1 <- inception_6a/1x1
I0122 19:14:39.436211 69630 net.cpp:396] inception_6a/1x1/relu1 -> inception_6a/1x1 (in-place)
I0122 19:14:39.436218 69630 net.cpp:144] Setting up inception_6a/1x1/relu1
I0122 19:14:39.436223 69630 net.cpp:151] Top shape: 50 96 16 16 (1228800)
I0122 19:14:39.436225 69630 net.cpp:159] Memory required for data: 380724200
I0122 19:14:39.436228 69630 layer_factory.hpp:77] Creating layer inception_6a/3x3
I0122 19:14:39.436235 69630 net.cpp:94] Creating Layer inception_6a/3x3
I0122 19:14:39.436240 69630 net.cpp:435] inception_6a/3x3 <- inception_5a/output_inception_5a/output_0_split_1
I0122 19:14:39.436245 69630 net.cpp:409] inception_6a/3x3 -> inception_6a/3x3
I0122 19:14:39.437579 69630 net.cpp:144] Setting up inception_6a/3x3
I0122 19:14:39.437592 69630 net.cpp:151] Top shape: 50 64 16 16 (819200)
I0122 19:14:39.437594 69630 net.cpp:159] Memory required for data: 384001000
I0122 19:14:39.437605 69630 layer_factory.hpp:77] Creating layer inception_6a/3x3/bn1
I0122 19:14:39.437613 69630 net.cpp:94] Creating Layer inception_6a/3x3/bn1
I0122 19:14:39.437616 69630 net.cpp:435] inception_6a/3x3/bn1 <- inception_6a/3x3
I0122 19:14:39.437623 69630 net.cpp:396] inception_6a/3x3/bn1 -> inception_6a/3x3 (in-place)
I0122 19:14:39.438236 69630 net.cpp:144] Setting up inception_6a/3x3/bn1
I0122 19:14:39.438244 69630 net.cpp:151] Top shape: 50 64 16 16 (819200)
I0122 19:14:39.438247 69630 net.cpp:159] Memory required for data: 387277800
I0122 19:14:39.438267 69630 layer_factory.hpp:77] Creating layer inception_6a/3x3/relu1
I0122 19:14:39.438272 69630 net.cpp:94] Creating Layer inception_6a/3x3/relu1
I0122 19:14:39.438275 69630 net.cpp:435] inception_6a/3x3/relu1 <- inception_6a/3x3
I0122 19:14:39.438282 69630 net.cpp:396] inception_6a/3x3/relu1 -> inception_6a/3x3 (in-place)
I0122 19:14:39.438288 69630 net.cpp:144] Setting up inception_6a/3x3/relu1
I0122 19:14:39.438292 69630 net.cpp:151] Top shape: 50 64 16 16 (819200)
I0122 19:14:39.438294 69630 net.cpp:159] Memory required for data: 390554600
I0122 19:14:39.438297 69630 layer_factory.hpp:77] Creating layer inception_6a/output
I0122 19:14:39.438302 69630 net.cpp:94] Creating Layer inception_6a/output
I0122 19:14:39.438305 69630 net.cpp:435] inception_6a/output <- inception_6a/1x1
I0122 19:14:39.438310 69630 net.cpp:435] inception_6a/output <- inception_6a/3x3
I0122 19:14:39.438314 69630 net.cpp:409] inception_6a/output -> inception_6a/output
I0122 19:14:39.438335 69630 net.cpp:144] Setting up inception_6a/output
I0122 19:14:39.438340 69630 net.cpp:151] Top shape: 50 160 16 16 (2048000)
I0122 19:14:39.438344 69630 net.cpp:159] Memory required for data: 398746600
I0122 19:14:39.438345 69630 layer_factory.hpp:77] Creating layer inception_6a/output_inception_6a/output_0_split
I0122 19:14:39.438351 69630 net.cpp:94] Creating Layer inception_6a/output_inception_6a/output_0_split
I0122 19:14:39.438354 69630 net.cpp:435] inception_6a/output_inception_6a/output_0_split <- inception_6a/output
I0122 19:14:39.438359 69630 net.cpp:409] inception_6a/output_inception_6a/output_0_split -> inception_6a/output_inception_6a/output_0_split_0
I0122 19:14:39.438366 69630 net.cpp:409] inception_6a/output_inception_6a/output_0_split -> inception_6a/output_inception_6a/output_0_split_1
I0122 19:14:39.438395 69630 net.cpp:144] Setting up inception_6a/output_inception_6a/output_0_split
I0122 19:14:39.438400 69630 net.cpp:151] Top shape: 50 160 16 16 (2048000)
I0122 19:14:39.438405 69630 net.cpp:151] Top shape: 50 160 16 16 (2048000)
I0122 19:14:39.438406 69630 net.cpp:159] Memory required for data: 415130600
I0122 19:14:39.438410 69630 layer_factory.hpp:77] Creating layer inception_7a/1x1
I0122 19:14:39.438417 69630 net.cpp:94] Creating Layer inception_7a/1x1
I0122 19:14:39.438422 69630 net.cpp:435] inception_7a/1x1 <- inception_6a/output_inception_6a/output_0_split_0
I0122 19:14:39.438427 69630 net.cpp:409] inception_7a/1x1 -> inception_7a/1x1
I0122 19:14:39.438707 69630 net.cpp:144] Setting up inception_7a/1x1
I0122 19:14:39.438714 69630 net.cpp:151] Top shape: 50 80 16 16 (1024000)
I0122 19:14:39.438715 69630 net.cpp:159] Memory required for data: 419226600
I0122 19:14:39.438721 69630 layer_factory.hpp:77] Creating layer inception_7a/1x1/bn1
I0122 19:14:39.438727 69630 net.cpp:94] Creating Layer inception_7a/1x1/bn1
I0122 19:14:39.438730 69630 net.cpp:435] inception_7a/1x1/bn1 <- inception_7a/1x1
I0122 19:14:39.438735 69630 net.cpp:396] inception_7a/1x1/bn1 -> inception_7a/1x1 (in-place)
I0122 19:14:39.439338 69630 net.cpp:144] Setting up inception_7a/1x1/bn1
I0122 19:14:39.439347 69630 net.cpp:151] Top shape: 50 80 16 16 (1024000)
I0122 19:14:39.439348 69630 net.cpp:159] Memory required for data: 423322600
I0122 19:14:39.439357 69630 layer_factory.hpp:77] Creating layer inception_7a/1x1/relu1
I0122 19:14:39.439365 69630 net.cpp:94] Creating Layer inception_7a/1x1/relu1
I0122 19:14:39.439368 69630 net.cpp:435] inception_7a/1x1/relu1 <- inception_7a/1x1
I0122 19:14:39.439373 69630 net.cpp:396] inception_7a/1x1/relu1 -> inception_7a/1x1 (in-place)
I0122 19:14:39.439379 69630 net.cpp:144] Setting up inception_7a/1x1/relu1
I0122 19:14:39.439383 69630 net.cpp:151] Top shape: 50 80 16 16 (1024000)
I0122 19:14:39.439386 69630 net.cpp:159] Memory required for data: 427418600
I0122 19:14:39.439389 69630 layer_factory.hpp:77] Creating layer inception_7a/3x3
I0122 19:14:39.439396 69630 net.cpp:94] Creating Layer inception_7a/3x3
I0122 19:14:39.439399 69630 net.cpp:435] inception_7a/3x3 <- inception_6a/output_inception_6a/output_0_split_1
I0122 19:14:39.439415 69630 net.cpp:409] inception_7a/3x3 -> inception_7a/3x3
I0122 19:14:39.440255 69630 net.cpp:144] Setting up inception_7a/3x3
I0122 19:14:39.440263 69630 net.cpp:151] Top shape: 50 80 16 16 (1024000)
I0122 19:14:39.440265 69630 net.cpp:159] Memory required for data: 431514600
I0122 19:14:39.440271 69630 layer_factory.hpp:77] Creating layer inception_7a/3x3/bn1
I0122 19:14:39.440279 69630 net.cpp:94] Creating Layer inception_7a/3x3/bn1
I0122 19:14:39.440284 69630 net.cpp:435] inception_7a/3x3/bn1 <- inception_7a/3x3
I0122 19:14:39.440289 69630 net.cpp:396] inception_7a/3x3/bn1 -> inception_7a/3x3 (in-place)
I0122 19:14:39.440908 69630 net.cpp:144] Setting up inception_7a/3x3/bn1
I0122 19:14:39.440914 69630 net.cpp:151] Top shape: 50 80 16 16 (1024000)
I0122 19:14:39.440917 69630 net.cpp:159] Memory required for data: 435610600
I0122 19:14:39.440924 69630 layer_factory.hpp:77] Creating layer inception_7a/3x3/relu1
I0122 19:14:39.440932 69630 net.cpp:94] Creating Layer inception_7a/3x3/relu1
I0122 19:14:39.440935 69630 net.cpp:435] inception_7a/3x3/relu1 <- inception_7a/3x3
I0122 19:14:39.440939 69630 net.cpp:396] inception_7a/3x3/relu1 -> inception_7a/3x3 (in-place)
I0122 19:14:39.440945 69630 net.cpp:144] Setting up inception_7a/3x3/relu1
I0122 19:14:39.440949 69630 net.cpp:151] Top shape: 50 80 16 16 (1024000)
I0122 19:14:39.440953 69630 net.cpp:159] Memory required for data: 439706600
I0122 19:14:39.440955 69630 layer_factory.hpp:77] Creating layer inception_7a/output
I0122 19:14:39.440959 69630 net.cpp:94] Creating Layer inception_7a/output
I0122 19:14:39.440963 69630 net.cpp:435] inception_7a/output <- inception_7a/1x1
I0122 19:14:39.440966 69630 net.cpp:435] inception_7a/output <- inception_7a/3x3
I0122 19:14:39.440970 69630 net.cpp:409] inception_7a/output -> inception_7a/output
I0122 19:14:39.440987 69630 net.cpp:144] Setting up inception_7a/output
I0122 19:14:39.440994 69630 net.cpp:151] Top shape: 50 160 16 16 (2048000)
I0122 19:14:39.440995 69630 net.cpp:159] Memory required for data: 447898600
I0122 19:14:39.440999 69630 layer_factory.hpp:77] Creating layer inception_7a/output_inception_7a/output_0_split
I0122 19:14:39.441004 69630 net.cpp:94] Creating Layer inception_7a/output_inception_7a/output_0_split
I0122 19:14:39.441006 69630 net.cpp:435] inception_7a/output_inception_7a/output_0_split <- inception_7a/output
I0122 19:14:39.441010 69630 net.cpp:409] inception_7a/output_inception_7a/output_0_split -> inception_7a/output_inception_7a/output_0_split_0
I0122 19:14:39.441016 69630 net.cpp:409] inception_7a/output_inception_7a/output_0_split -> inception_7a/output_inception_7a/output_0_split_1
I0122 19:14:39.441041 69630 net.cpp:144] Setting up inception_7a/output_inception_7a/output_0_split
I0122 19:14:39.441047 69630 net.cpp:151] Top shape: 50 160 16 16 (2048000)
I0122 19:14:39.441051 69630 net.cpp:151] Top shape: 50 160 16 16 (2048000)
I0122 19:14:39.441053 69630 net.cpp:159] Memory required for data: 464282600
I0122 19:14:39.441056 69630 layer_factory.hpp:77] Creating layer inception_8a/1x1
I0122 19:14:39.441064 69630 net.cpp:94] Creating Layer inception_8a/1x1
I0122 19:14:39.441069 69630 net.cpp:435] inception_8a/1x1 <- inception_7a/output_inception_7a/output_0_split_0
I0122 19:14:39.441074 69630 net.cpp:409] inception_8a/1x1 -> inception_8a/1x1
I0122 19:14:39.441325 69630 net.cpp:144] Setting up inception_8a/1x1
I0122 19:14:39.441332 69630 net.cpp:151] Top shape: 50 48 16 16 (614400)
I0122 19:14:39.441334 69630 net.cpp:159] Memory required for data: 466740200
I0122 19:14:39.441339 69630 layer_factory.hpp:77] Creating layer inception_8a/1x1/bn1
I0122 19:14:39.441345 69630 net.cpp:94] Creating Layer inception_8a/1x1/bn1
I0122 19:14:39.441349 69630 net.cpp:435] inception_8a/1x1/bn1 <- inception_8a/1x1
I0122 19:14:39.441354 69630 net.cpp:396] inception_8a/1x1/bn1 -> inception_8a/1x1 (in-place)
I0122 19:14:39.441983 69630 net.cpp:144] Setting up inception_8a/1x1/bn1
I0122 19:14:39.441990 69630 net.cpp:151] Top shape: 50 48 16 16 (614400)
I0122 19:14:39.441994 69630 net.cpp:159] Memory required for data: 469197800
I0122 19:14:39.442013 69630 layer_factory.hpp:77] Creating layer inception_8a/1x1/relu1
I0122 19:14:39.442018 69630 net.cpp:94] Creating Layer inception_8a/1x1/relu1
I0122 19:14:39.442021 69630 net.cpp:435] inception_8a/1x1/relu1 <- inception_8a/1x1
I0122 19:14:39.442026 69630 net.cpp:396] inception_8a/1x1/relu1 -> inception_8a/1x1 (in-place)
I0122 19:14:39.442032 69630 net.cpp:144] Setting up inception_8a/1x1/relu1
I0122 19:14:39.442039 69630 net.cpp:151] Top shape: 50 48 16 16 (614400)
I0122 19:14:39.442041 69630 net.cpp:159] Memory required for data: 471655400
I0122 19:14:39.442044 69630 layer_factory.hpp:77] Creating layer inception_8a/3x3
I0122 19:14:39.442051 69630 net.cpp:94] Creating Layer inception_8a/3x3
I0122 19:14:39.442056 69630 net.cpp:435] inception_8a/3x3 <- inception_7a/output_inception_7a/output_0_split_1
I0122 19:14:39.442062 69630 net.cpp:409] inception_8a/3x3 -> inception_8a/3x3
I0122 19:14:39.443644 69630 net.cpp:144] Setting up inception_8a/3x3
I0122 19:14:39.443655 69630 net.cpp:151] Top shape: 50 96 16 16 (1228800)
I0122 19:14:39.443657 69630 net.cpp:159] Memory required for data: 476570600
I0122 19:14:39.443662 69630 layer_factory.hpp:77] Creating layer inception_8a/3x3/bn1
I0122 19:14:39.443670 69630 net.cpp:94] Creating Layer inception_8a/3x3/bn1
I0122 19:14:39.443691 69630 net.cpp:435] inception_8a/3x3/bn1 <- inception_8a/3x3
I0122 19:14:39.443696 69630 net.cpp:396] inception_8a/3x3/bn1 -> inception_8a/3x3 (in-place)
I0122 19:14:39.444322 69630 net.cpp:144] Setting up inception_8a/3x3/bn1
I0122 19:14:39.444329 69630 net.cpp:151] Top shape: 50 96 16 16 (1228800)
I0122 19:14:39.444332 69630 net.cpp:159] Memory required for data: 481485800
I0122 19:14:39.444340 69630 layer_factory.hpp:77] Creating layer inception_8a/3x3/relu1
I0122 19:14:39.444345 69630 net.cpp:94] Creating Layer inception_8a/3x3/relu1
I0122 19:14:39.444350 69630 net.cpp:435] inception_8a/3x3/relu1 <- inception_8a/3x3
I0122 19:14:39.444353 69630 net.cpp:396] inception_8a/3x3/relu1 -> inception_8a/3x3 (in-place)
I0122 19:14:39.444360 69630 net.cpp:144] Setting up inception_8a/3x3/relu1
I0122 19:14:39.444363 69630 net.cpp:151] Top shape: 50 96 16 16 (1228800)
I0122 19:14:39.444366 69630 net.cpp:159] Memory required for data: 486401000
I0122 19:14:39.444370 69630 layer_factory.hpp:77] Creating layer inception_8a/output
I0122 19:14:39.444375 69630 net.cpp:94] Creating Layer inception_8a/output
I0122 19:14:39.444377 69630 net.cpp:435] inception_8a/output <- inception_8a/1x1
I0122 19:14:39.444381 69630 net.cpp:435] inception_8a/output <- inception_8a/3x3
I0122 19:14:39.444386 69630 net.cpp:409] inception_8a/output -> inception_8a/output
I0122 19:14:39.444403 69630 net.cpp:144] Setting up inception_8a/output
I0122 19:14:39.444408 69630 net.cpp:151] Top shape: 50 144 16 16 (1843200)
I0122 19:14:39.444411 69630 net.cpp:159] Memory required for data: 493773800
I0122 19:14:39.444414 69630 layer_factory.hpp:77] Creating layer inception_8a/output_inception_8a/output_0_split
I0122 19:14:39.444418 69630 net.cpp:94] Creating Layer inception_8a/output_inception_8a/output_0_split
I0122 19:14:39.444422 69630 net.cpp:435] inception_8a/output_inception_8a/output_0_split <- inception_8a/output
I0122 19:14:39.444427 69630 net.cpp:409] inception_8a/output_inception_8a/output_0_split -> inception_8a/output_inception_8a/output_0_split_0
I0122 19:14:39.444433 69630 net.cpp:409] inception_8a/output_inception_8a/output_0_split -> inception_8a/output_inception_8a/output_0_split_1
I0122 19:14:39.444458 69630 net.cpp:144] Setting up inception_8a/output_inception_8a/output_0_split
I0122 19:14:39.444463 69630 net.cpp:151] Top shape: 50 144 16 16 (1843200)
I0122 19:14:39.444468 69630 net.cpp:151] Top shape: 50 144 16 16 (1843200)
I0122 19:14:39.444470 69630 net.cpp:159] Memory required for data: 508519400
I0122 19:14:39.444473 69630 layer_factory.hpp:77] Creating layer downsample_9/3x3_s2
I0122 19:14:39.444480 69630 net.cpp:94] Creating Layer downsample_9/3x3_s2
I0122 19:14:39.444486 69630 net.cpp:435] downsample_9/3x3_s2 <- inception_8a/output_inception_8a/output_0_split_0
I0122 19:14:39.444502 69630 net.cpp:409] downsample_9/3x3_s2 -> downsample_9/3x3_s2
I0122 19:14:39.446036 69630 net.cpp:144] Setting up downsample_9/3x3_s2
I0122 19:14:39.446048 69630 net.cpp:151] Top shape: 50 96 8 8 (307200)
I0122 19:14:39.446053 69630 net.cpp:159] Memory required for data: 509748200
I0122 19:14:39.446058 69630 layer_factory.hpp:77] Creating layer downsample_9/3x3_s2/bn1
I0122 19:14:39.446065 69630 net.cpp:94] Creating Layer downsample_9/3x3_s2/bn1
I0122 19:14:39.446069 69630 net.cpp:435] downsample_9/3x3_s2/bn1 <- downsample_9/3x3_s2
I0122 19:14:39.446091 69630 net.cpp:396] downsample_9/3x3_s2/bn1 -> downsample_9/3x3_s2 (in-place)
I0122 19:14:39.446732 69630 net.cpp:144] Setting up downsample_9/3x3_s2/bn1
I0122 19:14:39.446738 69630 net.cpp:151] Top shape: 50 96 8 8 (307200)
I0122 19:14:39.446741 69630 net.cpp:159] Memory required for data: 510977000
I0122 19:14:39.446750 69630 layer_factory.hpp:77] Creating layer downsample_9/3x3_s2/relu1
I0122 19:14:39.446758 69630 net.cpp:94] Creating Layer downsample_9/3x3_s2/relu1
I0122 19:14:39.446760 69630 net.cpp:435] downsample_9/3x3_s2/relu1 <- downsample_9/3x3_s2
I0122 19:14:39.446764 69630 net.cpp:396] downsample_9/3x3_s2/relu1 -> downsample_9/3x3_s2 (in-place)
I0122 19:14:39.446771 69630 net.cpp:144] Setting up downsample_9/3x3_s2/relu1
I0122 19:14:39.446775 69630 net.cpp:151] Top shape: 50 96 8 8 (307200)
I0122 19:14:39.446779 69630 net.cpp:159] Memory required for data: 512205800
I0122 19:14:39.446781 69630 layer_factory.hpp:77] Creating layer downsample_9/pool_s2
I0122 19:14:39.446789 69630 net.cpp:94] Creating Layer downsample_9/pool_s2
I0122 19:14:39.446791 69630 net.cpp:435] downsample_9/pool_s2 <- inception_8a/output_inception_8a/output_0_split_1
I0122 19:14:39.446796 69630 net.cpp:409] downsample_9/pool_s2 -> downsample_9/pool_s2
I0122 19:14:39.446825 69630 net.cpp:144] Setting up downsample_9/pool_s2
I0122 19:14:39.446830 69630 net.cpp:151] Top shape: 50 144 8 8 (460800)
I0122 19:14:39.446833 69630 net.cpp:159] Memory required for data: 514049000
I0122 19:14:39.446836 69630 layer_factory.hpp:77] Creating layer downsample_9/output
I0122 19:14:39.446842 69630 net.cpp:94] Creating Layer downsample_9/output
I0122 19:14:39.446847 69630 net.cpp:435] downsample_9/output <- downsample_9/3x3_s2
I0122 19:14:39.446851 69630 net.cpp:435] downsample_9/output <- downsample_9/pool_s2
I0122 19:14:39.446856 69630 net.cpp:409] downsample_9/output -> downsample_9/output
I0122 19:14:39.446872 69630 net.cpp:144] Setting up downsample_9/output
I0122 19:14:39.446878 69630 net.cpp:151] Top shape: 50 240 8 8 (768000)
I0122 19:14:39.446882 69630 net.cpp:159] Memory required for data: 517121000
I0122 19:14:39.446884 69630 layer_factory.hpp:77] Creating layer downsample_9/output_downsample_9/output_0_split
I0122 19:14:39.446888 69630 net.cpp:94] Creating Layer downsample_9/output_downsample_9/output_0_split
I0122 19:14:39.446892 69630 net.cpp:435] downsample_9/output_downsample_9/output_0_split <- downsample_9/output
I0122 19:14:39.446897 69630 net.cpp:409] downsample_9/output_downsample_9/output_0_split -> downsample_9/output_downsample_9/output_0_split_0
I0122 19:14:39.446902 69630 net.cpp:409] downsample_9/output_downsample_9/output_0_split -> downsample_9/output_downsample_9/output_0_split_1
I0122 19:14:39.446928 69630 net.cpp:144] Setting up downsample_9/output_downsample_9/output_0_split
I0122 19:14:39.446934 69630 net.cpp:151] Top shape: 50 240 8 8 (768000)
I0122 19:14:39.446938 69630 net.cpp:151] Top shape: 50 240 8 8 (768000)
I0122 19:14:39.446940 69630 net.cpp:159] Memory required for data: 523265000
I0122 19:14:39.446943 69630 layer_factory.hpp:77] Creating layer inception_10a/1x1
I0122 19:14:39.446950 69630 net.cpp:94] Creating Layer inception_10a/1x1
I0122 19:14:39.446955 69630 net.cpp:435] inception_10a/1x1 <- downsample_9/output_downsample_9/output_0_split_0
I0122 19:14:39.446960 69630 net.cpp:409] inception_10a/1x1 -> inception_10a/1x1
I0122 19:14:39.447412 69630 net.cpp:144] Setting up inception_10a/1x1
I0122 19:14:39.447430 69630 net.cpp:151] Top shape: 50 176 8 8 (563200)
I0122 19:14:39.447433 69630 net.cpp:159] Memory required for data: 525517800
I0122 19:14:39.447438 69630 layer_factory.hpp:77] Creating layer inception_10a/1x1/bn1
I0122 19:14:39.447445 69630 net.cpp:94] Creating Layer inception_10a/1x1/bn1
I0122 19:14:39.447450 69630 net.cpp:435] inception_10a/1x1/bn1 <- inception_10a/1x1
I0122 19:14:39.447456 69630 net.cpp:396] inception_10a/1x1/bn1 -> inception_10a/1x1 (in-place)
I0122 19:14:39.448092 69630 net.cpp:144] Setting up inception_10a/1x1/bn1
I0122 19:14:39.448098 69630 net.cpp:151] Top shape: 50 176 8 8 (563200)
I0122 19:14:39.448102 69630 net.cpp:159] Memory required for data: 527770600
I0122 19:14:39.448109 69630 layer_factory.hpp:77] Creating layer inception_10a/1x1/relu1
I0122 19:14:39.448117 69630 net.cpp:94] Creating Layer inception_10a/1x1/relu1
I0122 19:14:39.448119 69630 net.cpp:435] inception_10a/1x1/relu1 <- inception_10a/1x1
I0122 19:14:39.448124 69630 net.cpp:396] inception_10a/1x1/relu1 -> inception_10a/1x1 (in-place)
I0122 19:14:39.448129 69630 net.cpp:144] Setting up inception_10a/1x1/relu1
I0122 19:14:39.448133 69630 net.cpp:151] Top shape: 50 176 8 8 (563200)
I0122 19:14:39.448135 69630 net.cpp:159] Memory required for data: 530023400
I0122 19:14:39.448138 69630 layer_factory.hpp:77] Creating layer inception_10a/3x3
I0122 19:14:39.448146 69630 net.cpp:94] Creating Layer inception_10a/3x3
I0122 19:14:39.448150 69630 net.cpp:435] inception_10a/3x3 <- downsample_9/output_downsample_9/output_0_split_1
I0122 19:14:39.448156 69630 net.cpp:409] inception_10a/3x3 -> inception_10a/3x3
I0122 19:14:39.450623 69630 net.cpp:144] Setting up inception_10a/3x3
I0122 19:14:39.450634 69630 net.cpp:151] Top shape: 50 160 8 8 (512000)
I0122 19:14:39.450636 69630 net.cpp:159] Memory required for data: 532071400
I0122 19:14:39.450641 69630 layer_factory.hpp:77] Creating layer inception_10a/3x3/bn1
I0122 19:14:39.450649 69630 net.cpp:94] Creating Layer inception_10a/3x3/bn1
I0122 19:14:39.450652 69630 net.cpp:435] inception_10a/3x3/bn1 <- inception_10a/3x3
I0122 19:14:39.450657 69630 net.cpp:396] inception_10a/3x3/bn1 -> inception_10a/3x3 (in-place)
I0122 19:14:39.451287 69630 net.cpp:144] Setting up inception_10a/3x3/bn1
I0122 19:14:39.451294 69630 net.cpp:151] Top shape: 50 160 8 8 (512000)
I0122 19:14:39.451297 69630 net.cpp:159] Memory required for data: 534119400
I0122 19:14:39.451305 69630 layer_factory.hpp:77] Creating layer inception_10a/3x3/relu1
I0122 19:14:39.451310 69630 net.cpp:94] Creating Layer inception_10a/3x3/relu1
I0122 19:14:39.451316 69630 net.cpp:435] inception_10a/3x3/relu1 <- inception_10a/3x3
I0122 19:14:39.451321 69630 net.cpp:396] inception_10a/3x3/relu1 -> inception_10a/3x3 (in-place)
I0122 19:14:39.451326 69630 net.cpp:144] Setting up inception_10a/3x3/relu1
I0122 19:14:39.451330 69630 net.cpp:151] Top shape: 50 160 8 8 (512000)
I0122 19:14:39.451333 69630 net.cpp:159] Memory required for data: 536167400
I0122 19:14:39.451336 69630 layer_factory.hpp:77] Creating layer inception_10a/output
I0122 19:14:39.451340 69630 net.cpp:94] Creating Layer inception_10a/output
I0122 19:14:39.451344 69630 net.cpp:435] inception_10a/output <- inception_10a/1x1
I0122 19:14:39.451347 69630 net.cpp:435] inception_10a/output <- inception_10a/3x3
I0122 19:14:39.451351 69630 net.cpp:409] inception_10a/output -> inception_10a/output
I0122 19:14:39.451369 69630 net.cpp:144] Setting up inception_10a/output
I0122 19:14:39.451373 69630 net.cpp:151] Top shape: 50 336 8 8 (1075200)
I0122 19:14:39.451377 69630 net.cpp:159] Memory required for data: 540468200
I0122 19:14:39.451380 69630 layer_factory.hpp:77] Creating layer inception_10a/output_inception_10a/output_0_split
I0122 19:14:39.451385 69630 net.cpp:94] Creating Layer inception_10a/output_inception_10a/output_0_split
I0122 19:14:39.451387 69630 net.cpp:435] inception_10a/output_inception_10a/output_0_split <- inception_10a/output
I0122 19:14:39.451392 69630 net.cpp:409] inception_10a/output_inception_10a/output_0_split -> inception_10a/output_inception_10a/output_0_split_0
I0122 19:14:39.451411 69630 net.cpp:409] inception_10a/output_inception_10a/output_0_split -> inception_10a/output_inception_10a/output_0_split_1
I0122 19:14:39.451436 69630 net.cpp:144] Setting up inception_10a/output_inception_10a/output_0_split
I0122 19:14:39.451442 69630 net.cpp:151] Top shape: 50 336 8 8 (1075200)
I0122 19:14:39.451445 69630 net.cpp:151] Top shape: 50 336 8 8 (1075200)
I0122 19:14:39.451448 69630 net.cpp:159] Memory required for data: 549069800
I0122 19:14:39.451450 69630 layer_factory.hpp:77] Creating layer inception_11a/1x1
I0122 19:14:39.451458 69630 net.cpp:94] Creating Layer inception_11a/1x1
I0122 19:14:39.451463 69630 net.cpp:435] inception_11a/1x1 <- inception_10a/output_inception_10a/output_0_split_0
I0122 19:14:39.451468 69630 net.cpp:409] inception_11a/1x1 -> inception_11a/1x1
I0122 19:14:39.452000 69630 net.cpp:144] Setting up inception_11a/1x1
I0122 19:14:39.452008 69630 net.cpp:151] Top shape: 50 176 8 8 (563200)
I0122 19:14:39.452010 69630 net.cpp:159] Memory required for data: 551322600
I0122 19:14:39.452015 69630 layer_factory.hpp:77] Creating layer inception_11a/1x1/bn1
I0122 19:14:39.452023 69630 net.cpp:94] Creating Layer inception_11a/1x1/bn1
I0122 19:14:39.452025 69630 net.cpp:435] inception_11a/1x1/bn1 <- inception_11a/1x1
I0122 19:14:39.452030 69630 net.cpp:396] inception_11a/1x1/bn1 -> inception_11a/1x1 (in-place)
I0122 19:14:39.452656 69630 net.cpp:144] Setting up inception_11a/1x1/bn1
I0122 19:14:39.452662 69630 net.cpp:151] Top shape: 50 176 8 8 (563200)
I0122 19:14:39.452666 69630 net.cpp:159] Memory required for data: 553575400
I0122 19:14:39.452673 69630 layer_factory.hpp:77] Creating layer inception_11a/1x1/relu1
I0122 19:14:39.452682 69630 net.cpp:94] Creating Layer inception_11a/1x1/relu1
I0122 19:14:39.452684 69630 net.cpp:435] inception_11a/1x1/relu1 <- inception_11a/1x1
I0122 19:14:39.452688 69630 net.cpp:396] inception_11a/1x1/relu1 -> inception_11a/1x1 (in-place)
I0122 19:14:39.452694 69630 net.cpp:144] Setting up inception_11a/1x1/relu1
I0122 19:14:39.452698 69630 net.cpp:151] Top shape: 50 176 8 8 (563200)
I0122 19:14:39.452700 69630 net.cpp:159] Memory required for data: 555828200
I0122 19:14:39.452703 69630 layer_factory.hpp:77] Creating layer inception_11a/3x3
I0122 19:14:39.452710 69630 net.cpp:94] Creating Layer inception_11a/3x3
I0122 19:14:39.452713 69630 net.cpp:435] inception_11a/3x3 <- inception_10a/output_inception_10a/output_0_split_1
I0122 19:14:39.452718 69630 net.cpp:409] inception_11a/3x3 -> inception_11a/3x3
I0122 19:14:39.456328 69630 net.cpp:144] Setting up inception_11a/3x3
I0122 19:14:39.456341 69630 net.cpp:151] Top shape: 50 160 8 8 (512000)
I0122 19:14:39.456342 69630 net.cpp:159] Memory required for data: 557876200
I0122 19:14:39.456347 69630 layer_factory.hpp:77] Creating layer inception_11a/3x3/bn1
I0122 19:14:39.456369 69630 net.cpp:94] Creating Layer inception_11a/3x3/bn1
I0122 19:14:39.456373 69630 net.cpp:435] inception_11a/3x3/bn1 <- inception_11a/3x3
I0122 19:14:39.456378 69630 net.cpp:396] inception_11a/3x3/bn1 -> inception_11a/3x3 (in-place)
I0122 19:14:39.456995 69630 net.cpp:144] Setting up inception_11a/3x3/bn1
I0122 19:14:39.457002 69630 net.cpp:151] Top shape: 50 160 8 8 (512000)
I0122 19:14:39.457005 69630 net.cpp:159] Memory required for data: 559924200
I0122 19:14:39.457020 69630 layer_factory.hpp:77] Creating layer inception_11a/3x3/relu1
I0122 19:14:39.457026 69630 net.cpp:94] Creating Layer inception_11a/3x3/relu1
I0122 19:14:39.457029 69630 net.cpp:435] inception_11a/3x3/relu1 <- inception_11a/3x3
I0122 19:14:39.457034 69630 net.cpp:396] inception_11a/3x3/relu1 -> inception_11a/3x3 (in-place)
I0122 19:14:39.457041 69630 net.cpp:144] Setting up inception_11a/3x3/relu1
I0122 19:14:39.457043 69630 net.cpp:151] Top shape: 50 160 8 8 (512000)
I0122 19:14:39.457046 69630 net.cpp:159] Memory required for data: 561972200
I0122 19:14:39.457049 69630 layer_factory.hpp:77] Creating layer inception_11a/output
I0122 19:14:39.457053 69630 net.cpp:94] Creating Layer inception_11a/output
I0122 19:14:39.457067 69630 net.cpp:435] inception_11a/output <- inception_11a/1x1
I0122 19:14:39.457070 69630 net.cpp:435] inception_11a/output <- inception_11a/3x3
I0122 19:14:39.457077 69630 net.cpp:409] inception_11a/output -> inception_11a/output
I0122 19:14:39.457094 69630 net.cpp:144] Setting up inception_11a/output
I0122 19:14:39.457099 69630 net.cpp:151] Top shape: 50 336 8 8 (1075200)
I0122 19:14:39.457103 69630 net.cpp:159] Memory required for data: 566273000
I0122 19:14:39.457105 69630 layer_factory.hpp:77] Creating layer avg_pool_12/8x8_s1
I0122 19:14:39.457111 69630 net.cpp:94] Creating Layer avg_pool_12/8x8_s1
I0122 19:14:39.457114 69630 net.cpp:435] avg_pool_12/8x8_s1 <- inception_11a/output
I0122 19:14:39.457118 69630 net.cpp:409] avg_pool_12/8x8_s1 -> avg_pool_12/8x8_s1
I0122 19:14:39.457137 69630 net.cpp:144] Setting up avg_pool_12/8x8_s1
I0122 19:14:39.457142 69630 net.cpp:151] Top shape: 50 336 1 1 (16800)
I0122 19:14:39.457145 69630 net.cpp:159] Memory required for data: 566340200
I0122 19:14:39.457149 69630 layer_factory.hpp:77] Creating layer drop_8x8_s1
I0122 19:14:39.457154 69630 net.cpp:94] Creating Layer drop_8x8_s1
I0122 19:14:39.457156 69630 net.cpp:435] drop_8x8_s1 <- avg_pool_12/8x8_s1
I0122 19:14:39.457160 69630 net.cpp:396] drop_8x8_s1 -> avg_pool_12/8x8_s1 (in-place)
I0122 19:14:39.457177 69630 net.cpp:144] Setting up drop_8x8_s1
I0122 19:14:39.457183 69630 net.cpp:151] Top shape: 50 336 1 1 (16800)
I0122 19:14:39.457186 69630 net.cpp:159] Memory required for data: 566407400
I0122 19:14:39.457188 69630 layer_factory.hpp:77] Creating layer loss/classifier
I0122 19:14:39.457195 69630 net.cpp:94] Creating Layer loss/classifier
I0122 19:14:39.457198 69630 net.cpp:435] loss/classifier <- avg_pool_12/8x8_s1
I0122 19:14:39.457202 69630 net.cpp:409] loss/classifier -> loss/classifier
I0122 19:14:39.457334 69630 net.cpp:144] Setting up loss/classifier
I0122 19:14:39.457340 69630 net.cpp:151] Top shape: 50 10 (500)
I0122 19:14:39.457343 69630 net.cpp:159] Memory required for data: 566409400
I0122 19:14:39.457348 69630 layer_factory.hpp:77] Creating layer loss/classifier_loss/classifier_0_split
I0122 19:14:39.457353 69630 net.cpp:94] Creating Layer loss/classifier_loss/classifier_0_split
I0122 19:14:39.457356 69630 net.cpp:435] loss/classifier_loss/classifier_0_split <- loss/classifier
I0122 19:14:39.457361 69630 net.cpp:409] loss/classifier_loss/classifier_0_split -> loss/classifier_loss/classifier_0_split_0
I0122 19:14:39.457371 69630 net.cpp:409] loss/classifier_loss/classifier_0_split -> loss/classifier_loss/classifier_0_split_1
I0122 19:14:39.457376 69630 net.cpp:409] loss/classifier_loss/classifier_0_split -> loss/classifier_loss/classifier_0_split_2
I0122 19:14:39.457382 69630 net.cpp:409] loss/classifier_loss/classifier_0_split -> loss/classifier_loss/classifier_0_split_3
I0122 19:14:39.457428 69630 net.cpp:144] Setting up loss/classifier_loss/classifier_0_split
I0122 19:14:39.457433 69630 net.cpp:151] Top shape: 50 10 (500)
I0122 19:14:39.457437 69630 net.cpp:151] Top shape: 50 10 (500)
I0122 19:14:39.457440 69630 net.cpp:151] Top shape: 50 10 (500)
I0122 19:14:39.457443 69630 net.cpp:151] Top shape: 50 10 (500)
I0122 19:14:39.457446 69630 net.cpp:159] Memory required for data: 566417400
I0122 19:14:39.457448 69630 layer_factory.hpp:77] Creating layer loss
I0122 19:14:39.457453 69630 net.cpp:94] Creating Layer loss
I0122 19:14:39.457456 69630 net.cpp:435] loss <- loss/classifier_loss/classifier_0_split_0
I0122 19:14:39.457460 69630 net.cpp:435] loss <- label_data_1_split_0
I0122 19:14:39.457465 69630 net.cpp:409] loss -> loss
…
