…
I0122 17:49:03.333339 67000 net.cpp:323] The NetState phase (0) differed from the phase (1) specified by a rule in layer accuracy-top1
I0122 17:49:03.333341 67000 net.cpp:323] The NetState phase (0) differed from the phase (1) specified by a rule in layer accuracy-top5
I0122 17:49:03.333845 67000 net.cpp:52] Initializing net from parameters: 
state {
  phase: TRAIN
}
layer {
  name: "data"
  type: "Data"
  top: "data"
  top: "label"
  include {
    phase: TRAIN
  }
  transform_param {
    mirror: true
    mean_value: 104
    mean_value: 117
    mean_value: 123
  }
  data_param {
    source: "cifar10/input/lmdb/train_lmdb"
    batch_size: 128
    backend: LMDB
  }
}
layer {
  name: "conv1/3x3_s1"
  type: "Convolution"
  bottom: "data"
  top: "conv1/3x3_s1"
  param {
    lr_mult: 1
    decay_mult: 1
    compression: PRUNE
  }
  param {
    lr_mult: 2
    decay_mult: 0
    compression: PRUNE
  }
  convolution_param {
    num_output: 96
    pad: 1
    kernel_size: 3
    stride: 1
    weight_filler {
      type: "xavier"
      std: 0.1
    }
    bias_filler {
      type: "constant"
      value: 0.2
    }
  }
}
layer {
  name: "conv1/bn1"
  type: "BatchNorm"
  bottom: "conv1/3x3_s1"
  top: "conv1/3x3_s1"
  param {
    lr_mult: 1
    decay_mult: 0
    compression: PRUNE
  }
  param {
    lr_mult: 1
    decay_mult: 0
    compression: PRUNE
  }
  param {
    lr_mult: 0
    decay_mult: 0
    compression: PRUNE
  }
  param {
    lr_mult: 0
    decay_mult: 0
    compression: PRUNE
  }
  batch_norm_param {
    use_global_stats: false
    scale_filler {
      type: "constant"
      value: 1
    }
    bias_filler {
      type: "constant"
      value: 0
    }
  }
}
layer {
  name: "conv1/relu1"
  type: "ReLU"
  bottom: "conv1/3x3_s1"
  top: "conv1/3x3_s1"
}
layer {
  name: "inception_2a/1x1"
  type: "Convolution"
  bottom: "conv1/3x3_s1"
  top: "inception_2a/1x1"
  param {
    lr_mult: 1
    decay_mult: 1
    compression: PRUNE
  }
  param {
    lr_mult: 2
    decay_mult: 0
    compression: PRUNE
  }
  convolution_param {
    num_output: 32
    kernel_size: 1
    weight_filler {
      type: "xavier"
      std: 0.03
    }
    bias_filler {
      type: "constant"
      value: 0.2
    }
  }
}
layer {
  name: "inception_2a/1x1/bn1"
  type: "BatchNorm"
  bottom: "inception_2a/1x1"
  top: "inception_2a/1x1"
  param {
    lr_mult: 1
    decay_mult: 0
    compression: PRUNE
  }
  param {
    lr_mult: 1
    decay_mult: 0
    compression: PRUNE
  }
  param {
    lr_mult: 0
    decay_mult: 0
    compression: PRUNE
  }
  param {
    lr_mult: 0
    decay_mult: 0
    compression: PRUNE
  }
  batch_norm_param {
    use_global_stats: false
    scale_filler {
      type: "constant"
      value: 1
    }
    bias_filler {
      type: "constant"
      value: 0
    }
  }
}
layer {
  name: "inception_2a/1x1/relu1"
  type: "ReLU"
  bottom: "inception_2a/1x1"
  top: "inception_2a/1x1"
}
layer {
  name: "inception_2a/3x3"
  type: "Convolution"
  bottom: "conv1/3x3_s1"
  top: "inception_2a/3x3"
  param {
    lr_mult: 1
    decay_mult: 1
    compression: PRUNE
  }
  param {
    lr_mult: 2
    decay_mult: 0
    compression: PRUNE
  }
  convolution_param {
    num_output: 32
    pad: 1
    kernel_size: 3
    weight_filler {
      type: "xavier"
      std: 0.03
    }
    bias_filler {
      type: "constant"
      value: 0.2
    }
  }
}
layer {
  name: "inception_2a/3x3/bn1"
  type: "BatchNorm"
  bottom: "inception_2a/3x3"
  top: "inception_2a/3x3"
  param {
    lr_mult: 1
    decay_mult: 0
    compression: PRUNE
  }
  param {
    lr_mult: 1
    decay_mult: 0
    compression: PRUNE
  }
  param {
    lr_mult: 0
    decay_mult: 0
    compression: PRUNE
  }
  param {
    lr_mult: 0
    decay_mult: 0
    compression: PRUNE
  }
  batch_norm_param {
    use_global_stats: false
    scale_filler {
      type: "constant"
      value: 1
    }
    bias_filler {
      type: "constant"
      value: 0
    }
  }
}
layer {
  name: "inception_2a/3x3/relu1"
  type: "ReLU"
  bottom: "inception_2a/3x3"
  top: "inception_2a/3x3"
}
layer {
  name: "inception_2a/output"
  type: "Concat"
  bottom: "inception_2a/1x1"
  bottom: "inception_2a/3x3"
  top: "inception_2a/output"
}
layer {
  name: "inception_3a/1x1"
  type: "Convolution"
  bottom: "inception_2a/output"
  top: "inception_3a/1x1"
  param {
    lr_mult: 1
    decay_mult: 1
    compression: PRUNE
  }
  param {
    lr_mult: 2
    decay_mult: 0
    compression: PRUNE
  }
  convolution_param {
    num_output: 32
    kernel_size: 1
    weight_filler {
      type: "xavier"
      std: 0.03
    }
    bias_filler {
      type: "constant"
      value: 0.2
    }
  }
}
layer {
  name: "inception_3a/1x1/bn1"
  type: "BatchNorm"
  bottom: "inception_3a/1x1"
  top: "inception_3a/1x1"
  param {
    lr_mult: 1
    decay_mult: 0
    compression: PRUNE
  }
  param {
    lr_mult: 1
    decay_mult: 0
    compression: PRUNE
  }
  param {
    lr_mult: 0
    decay_mult: 0
    compression: PRUNE
  }
  param {
    lr_mult: 0
    decay_mult: 0
    compression: PRUNE
  }
  batch_norm_param {
    use_global_stats: false
    scale_filler {
      type: "constant"
      value: 1
    }
    bias_filler {
      type: "constant"
      value: 0
    }
  }
}
layer {
  name: "inception_3a/1x1/relu1"
  type: "ReLU"
  bottom: "inception_3a/1x1"
  top: "inception_3a/1x1"
}
layer {
  name: "inception_3a/3x3"
  type: "Convolution"
  bottom: "inception_2a/output"
  top: "inception_3a/3x3"
  param {
    lr_mult: 1
    decay_mult: 1
    compression: PRUNE
  }
  param {
    lr_mult: 2
    decay_mult: 0
    compression: PRUNE
  }
  convolution_param {
    num_output: 48
    pad: 1
    kernel_size: 3
    weight_filler {
      type: "xavier"
      std: 0.03
    }
    bias_filler {
      type: "constant"
      value: 0.2
    }
  }
}
layer {
  name: "inception_3a/3x3/bn1"
  type: "BatchNorm"
  bottom: "inception_3a/3x3"
  top: "inception_3a/3x3"
  param {
    lr_mult: 1
    decay_mult: 0
    compression: PRUNE
  }
  param {
    lr_mult: 1
    decay_mult: 0
    compression: PRUNE
  }
  param {
    lr_mult: 0
    decay_mult: 0
    compression: PRUNE
  }
  param {
    lr_mult: 0
    decay_mult: 0
    compression: PRUNE
  }
  batch_norm_param {
    use_global_stats: false
    scale_filler {
      type: "constant"
      value: 1
    }
    bias_filler {
      type: "constant"
      value: 0
    }
  }
}
layer {
  name: "inception_3a/3x3/relu1"
  type: "ReLU"
  bottom: "inception_3a/3x3"
  top: "inception_3a/3x3"
}
layer {
  name: "inception_3a/output"
  type: "Concat"
  bottom: "inception_3a/1x1"
  bottom: "inception_3a/3x3"
  top: "inception_3a/output"
}
layer {
  name: "downsample_4/3x3_s2"
  type: "Convolution"
  bottom: "inception_3a/output"
  top: "downsample_4/3x3_s2"
  param {
    lr_mult: 1
    decay_mult: 1
    compression: PRUNE
  }
  param {
    lr_mult: 2
    decay_mult: 0
    compression: PRUNE
  }
  convolution_param {
    num_output: 80
    pad: 1
    kernel_size: 3
    stride: 2
    weight_filler {
      type: "xavier"
      std: 0.03
    }
    bias_filler {
      type: "constant"
      value: 0.2
    }
  }
}
layer {
  name: "downsample_4/3x3_s2/bn1"
  type: "BatchNorm"
  bottom: "downsample_4/3x3_s2"
  top: "downsample_4/3x3_s2"
  param {
    lr_mult: 1
    decay_mult: 0
    compression: PRUNE
  }
  param {
    lr_mult: 1
    decay_mult: 0
    compression: PRUNE
  }
  param {
    lr_mult: 0
    decay_mult: 0
    compression: PRUNE
  }
  param {
    lr_mult: 0
    decay_mult: 0
    compression: PRUNE
  }
  batch_norm_param {
    use_global_stats: false
    scale_filler {
      type: "constant"
      value: 1
    }
    bias_filler {
      type: "constant"
      value: 0
    }
  }
}
layer {
  name: "downsample_4/3x3_s2/relu1"
  type: "ReLU"
  bottom: "downsample_4/3x3_s2"
  top: "downsample_4/3x3_s2"
}
layer {
  name: "downsample_4/pool_s2"
  type: "Pooling"
  bottom: "inception_3a/output"
  top: "downsample_4/pool_s2"
  pooling_param {
    pool: MAX
    kernel_size: 3
    stride: 2
  }
}
layer {
  name: "downsample_4/output"
  type: "Concat"
  bottom: "downsample_4/3x3_s2"
  bottom: "downsample_4/pool_s2"
  top: "downsample_4/output"
}
layer {
  name: "inception_5a/1x1"
  type: "Convolution"
  bottom: "downsample_4/output"
  top: "inception_5a/1x1"
  param {
    lr_mult: 1
    decay_mult: 1
    compression: PRUNE
  }
  param {
    lr_mult: 2
    decay_mult: 0
    compression: PRUNE
  }
  convolution_param {
    num_output: 112
    kernel_size: 1
    weight_filler {
      type: "xavier"
      std: 0.03
    }
    bias_filler {
      type: "constant"
      value: 0.2
    }
  }
}
layer {
  name: "inception_5a/1x1/bn1"
  type: "BatchNorm"
  bottom: "inception_5a/1x1"
  top: "inception_5a/1x1"
  param {
    lr_mult: 1
    decay_mult: 0
    compression: PRUNE
  }
  param {
    lr_mult: 1
    decay_mult: 0
    compression: PRUNE
  }
  param {
    lr_mult: 0
    decay_mult: 0
    compression: PRUNE
  }
  param {
    lr_mult: 0
    decay_mult: 0
    compression: PRUNE
  }
  batch_norm_param {
    use_global_stats: false
    scale_filler {
      type: "constant"
      value: 1
    }
    bias_filler {
      type: "constant"
      value: 0
    }
  }
}
layer {
  name: "inception_5a/1x1/relu1"
  type: "ReLU"
  bottom: "inception_5a/1x1"
  top: "inception_5a/1x1"
}
layer {
  name: "inception_5a/3x3"
  type: "Convolution"
  bottom: "downsample_4/output"
  top: "inception_5a/3x3"
  param {
    lr_mult: 1
    decay_mult: 1
    compression: PRUNE
  }
  param {
    lr_mult: 2
    decay_mult: 0
    compression: PRUNE
  }
  convolution_param {
    num_output: 48
    pad: 1
    kernel_size: 3
    weight_filler {
      type: "xavier"
      std: 0.03
    }
    bias_filler {
      type: "constant"
      value: 0.2
    }
  }
}
layer {
  name: "inception_5a/3x3/bn1"
  type: "BatchNorm"
  bottom: "inception_5a/3x3"
  top: "inception_5a/3x3"
  param {
    lr_mult: 1
    decay_mult: 0
    compression: PRUNE
  }
  param {
    lr_mult: 1
    decay_mult: 0
    compression: PRUNE
  }
  param {
    lr_mult: 0
    decay_mult: 0
    compression: PRUNE
  }
  param {
    lr_mult: 0
    decay_mult: 0
    compression: PRUNE
  }
  batch_norm_param {
    use_global_stats: false
    scale_filler {
      type: "constant"
      value: 1
    }
    bias_filler {
      type: "constant"
      value: 0
    }
  }
}
layer {
  name: "inception_5a/3x3/relu1"
  type: "ReLU"
  bottom: "inception_5a/3x3"
  top: "inception_5a/3x3"
}
layer {
  name: "inception_5a/output"
  type: "Concat"
  bottom: "inception_5a/1x1"
  bottom: "inception_5a/3x3"
  top: "inception_5a/output"
}
layer {
  name: "inception_6a/1x1"
  type: "Convolution"
  bottom: "inception_5a/output"
  top: "inception_6a/1x1"
  param {
    lr_mult: 1
    decay_mult: 1
    compression: PRUNE
  }
  param {
    lr_mult: 2
    decay_mult: 0
    compression: PRUNE
  }
  convolution_param {
    num_output: 96
    kernel_size: 1
    weight_filler {
      type: "xavier"
      std: 0.03
    }
    bias_filler {
      type: "constant"
      value: 0.2
    }
  }
}
layer {
  name: "inception_6a/1x1/bn1"
  type: "BatchNorm"
  bottom: "inception_6a/1x1"
  top: "inception_6a/1x1"
  param {
    lr_mult: 1
    decay_mult: 0
    compression: PRUNE
  }
  param {
    lr_mult: 1
    decay_mult: 0
    compression: PRUNE
  }
  param {
    lr_mult: 0
    decay_mult: 0
    compression: PRUNE
  }
  param {
    lr_mult: 0
    decay_mult: 0
    compression: PRUNE
  }
  batch_norm_param {
    use_global_stats: false
    scale_filler {
      type: "constant"
      value: 1
    }
    bias_filler {
      type: "constant"
      value: 0
    }
  }
}
layer {
  name: "inception_6a/1x1/relu1"
  type: "ReLU"
  bottom: "inception_6a/1x1"
  top: "inception_6a/1x1"
}
layer {
  name: "inception_6a/3x3"
  type: "Convolution"
  bottom: "inception_5a/output"
  top: "inception_6a/3x3"
  param {
    lr_mult: 1
    decay_mult: 1
    compression: PRUNE
  }
  param {
    lr_mult: 2
    decay_mult: 0
    compression: PRUNE
  }
  convolution_param {
    num_output: 64
    pad: 1
    kernel_size: 3
    weight_filler {
      type: "xavier"
      std: 0.03
    }
    bias_filler {
      type: "constant"
      value: 0.2
    }
  }
}
layer {
  name: "inception_6a/3x3/bn1"
  type: "BatchNorm"
  bottom: "inception_6a/3x3"
  top: "inception_6a/3x3"
  param {
    lr_mult: 1
    decay_mult: 0
    compression: PRUNE
  }
  param {
    lr_mult: 1
    decay_mult: 0
    compression: PRUNE
  }
  param {
    lr_mult: 0
    decay_mult: 0
    compression: PRUNE
  }
  param {
    lr_mult: 0
    decay_mult: 0
    compression: PRUNE
  }
  batch_norm_param {
    use_global_stats: false
    scale_filler {
      type: "constant"
      value: 1
    }
    bias_filler {
      type: "constant"
      value: 0
    }
  }
}
layer {
  name: "inception_6a/3x3/relu1"
  type: "ReLU"
  bottom: "inception_6a/3x3"
  top: "inception_6a/3x3"
}
layer {
  name: "inception_6a/output"
  type: "Concat"
  bottom: "inception_6a/1x1"
  bottom: "inception_6a/3x3"
  top: "inception_6a/output"
}
layer {
  name: "inception_7a/1x1"
  type: "Convolution"
  bottom: "inception_6a/output"
  top: "inception_7a/1x1"
  param {
    lr_mult: 1
    decay_mult: 1
    compression: PRUNE
  }
  param {
    lr_mult: 2
    decay_mult: 0
    compression: PRUNE
  }
  convolution_param {
    num_output: 80
    kernel_size: 1
    weight_filler {
      type: "xavier"
      std: 0.03
    }
    bias_filler {
      type: "constant"
      value: 0.2
    }
  }
}
layer {
  name: "inception_7a/1x1/bn1"
  type: "BatchNorm"
  bottom: "inception_7a/1x1"
  top: "inception_7a/1x1"
  param {
    lr_mult: 1
    decay_mult: 0
    compression: PRUNE
  }
  param {
    lr_mult: 1
    decay_mult: 0
    compression: PRUNE
  }
  param {
    lr_mult: 0
    decay_mult: 0
    compression: PRUNE
  }
  param {
    lr_mult: 0
    decay_mult: 0
    compression: PRUNE
  }
  batch_norm_param {
    use_global_stats: false
    scale_filler {
      type: "constant"
      value: 1
    }
    bias_filler {
      type: "constant"
      value: 0
    }
  }
}
layer {
  name: "inception_7a/1x1/relu1"
  type: "ReLU"
  bottom: "inception_7a/1x1"
  top: "inception_7a/1x1"
}
layer {
  name: "inception_7a/3x3"
  type: "Convolution"
  bottom: "inception_6a/output"
  top: "inception_7a/3x3"
  param {
    lr_mult: 1
    decay_mult: 1
    compression: PRUNE
  }
  param {
    lr_mult: 2
    decay_mult: 0
    compression: PRUNE
  }
  convolution_param {
    num_output: 80
    pad: 1
    kernel_size: 3
    weight_filler {
      type: "xavier"
      std: 0.03
    }
    bias_filler {
      type: "constant"
      value: 0.2
    }
  }
}
layer {
  name: "inception_7a/3x3/bn1"
  type: "BatchNorm"
  bottom: "inception_7a/3x3"
  top: "inception_7a/3x3"
  param {
    lr_mult: 1
    decay_mult: 0
    compression: PRUNE
  }
  param {
    lr_mult: 1
    decay_mult: 0
    compression: PRUNE
  }
  param {
    lr_mult: 0
    decay_mult: 0
    compression: PRUNE
  }
  param {
    lr_mult: 0
    decay_mult: 0
    compression: PRUNE
  }
  batch_norm_param {
    use_global_stats: false
    scale_filler {
      type: "constant"
      value: 1
    }
    bias_filler {
      type: "constant"
      value: 0
    }
  }
}
layer {
  name: "inception_7a/3x3/relu1"
  type: "ReLU"
  bottom: "inception_7a/3x3"
  top: "inception_7a/3x3"
}
layer {
  name: "inception_7a/output"
  type: "Concat"
  bottom: "inception_7a/1x1"
  bottom: "inception_7a/3x3"
  top: "inception_7a/output"
}
layer {
  name: "inception_8a/1x1"
  type: "Convolution"
  bottom: "inception_7a/output"
  top: "inception_8a/1x1"
  param {
    lr_mult: 1
    decay_mult: 1
    compression: PRUNE
  }
  param {
    lr_mult: 2
    decay_mult: 0
    compression: PRUNE
  }
  convolution_param {
    num_output: 48
    kernel_size: 1
    weight_filler {
      type: "xavier"
      std: 0.03
    }
    bias_filler {
      type: "constant"
      value: 0.2
    }
  }
}
layer {
  name: "inception_8a/1x1/bn1"
  type: "BatchNorm"
  bottom: "inception_8a/1x1"
  top: "inception_8a/1x1"
  param {
    lr_mult: 1
    decay_mult: 0
    compression: PRUNE
  }
  param {
    lr_mult: 1
    decay_mult: 0
    compression: PRUNE
  }
  param {
    lr_mult: 0
    decay_mult: 0
    compression: PRUNE
  }
  param {
    lr_mult: 0
    decay_mult: 0
    compression: PRUNE
  }
  batch_norm_param {
    use_global_stats: false
    scale_filler {
      type: "constant"
      value: 1
    }
    bias_filler {
      type: "constant"
      value: 0
    }
  }
}
layer {
  name: "inception_8a/1x1/relu1"
  type: "ReLU"
  bottom: "inception_8a/1x1"
  top: "inception_8a/1x1"
}
layer {
  name: "inception_8a/3x3"
  type: "Convolution"
  bottom: "inception_7a/output"
  top: "inception_8a/3x3"
  param {
    lr_mult: 1
    decay_mult: 1
    compression: PRUNE
  }
  param {
    lr_mult: 2
    decay_mult: 0
    compression: PRUNE
  }
  convolution_param {
    num_output: 96
    pad: 1
    kernel_size: 3
    weight_filler {
      type: "xavier"
      std: 0.03
    }
    bias_filler {
      type: "constant"
      value: 0.2
    }
  }
}
layer {
  name: "inception_8a/3x3/bn1"
  type: "BatchNorm"
  bottom: "inception_8a/3x3"
  top: "inception_8a/3x3"
  param {
    lr_mult: 1
    decay_mult: 0
    compression: PRUNE
  }
  param {
    lr_mult: 1
    decay_mult: 0
    compression: PRUNE
  }
  param {
    lr_mult: 0
    decay_mult: 0
    compression: PRUNE
  }
  param {
    lr_mult: 0
    decay_mult: 0
    compression: PRUNE
  }
  batch_norm_param {
    use_global_stats: false
    scale_filler {
      type: "constant"
      value: 1
    }
    bias_filler {
      type: "constant"
      value: 0
    }
  }
}
layer {
  name: "inception_8a/3x3/relu1"
  type: "ReLU"
  bottom: "inception_8a/3x3"
  top: "inception_8a/3x3"
}
layer {
  name: "inception_8a/output"
  type: "Concat"
  bottom: "inception_8a/1x1"
  bottom: "inception_8a/3x3"
  top: "inception_8a/output"
}
layer {
  name: "downsample_9/3x3_s2"
  type: "Convolution"
  bottom: "inception_8a/output"
  top: "downsample_9/3x3_s2"
  param {
    lr_mult: 1
    decay_mult: 1
    compression: PRUNE
  }
  param {
    lr_mult: 2
    decay_mult: 0
    compression: PRUNE
  }
  convolution_param {
    num_output: 96
    pad: 1
    kernel_size: 3
    stride: 2
    weight_filler {
      type: "xavier"
      std: 0.03
    }
    bias_filler {
      type: "constant"
      value: 0.2
    }
  }
}
layer {
  name: "downsample_9/3x3_s2/bn1"
  type: "BatchNorm"
  bottom: "downsample_9/3x3_s2"
  top: "downsample_9/3x3_s2"
  param {
    lr_mult: 1
    decay_mult: 0
    compression: PRUNE
  }
  param {
    lr_mult: 1
    decay_mult: 0
    compression: PRUNE
  }
  param {
    lr_mult: 0
    decay_mult: 0
    compression: PRUNE
  }
  param {
    lr_mult: 0
    decay_mult: 0
    compression: PRUNE
  }
  batch_norm_param {
    use_global_stats: false
    scale_filler {
      type: "constant"
      value: 1
    }
    bias_filler {
      type: "constant"
      value: 0
    }
  }
}
layer {
  name: "downsample_9/3x3_s2/relu1"
  type: "ReLU"
  bottom: "downsample_9/3x3_s2"
  top: "downsample_9/3x3_s2"
}
layer {
  name: "downsample_9/pool_s2"
  type: "Pooling"
  bottom: "inception_8a/output"
  top: "downsample_9/pool_s2"
  pooling_param {
    pool: MAX
    kernel_size: 3
    stride: 2
  }
}
layer {
  name: "downsample_9/output"
  type: "Concat"
  bottom: "downsample_9/3x3_s2"
  bottom: "downsample_9/pool_s2"
  top: "downsample_9/output"
}
layer {
  name: "inception_10a/1x1"
  type: "Convolution"
  bottom: "downsample_9/output"
  top: "inception_10a/1x1"
  param {
    lr_mult: 1
    decay_mult: 1
    compression: PRUNE
  }
  param {
    lr_mult: 2
    decay_mult: 0
    compression: PRUNE
  }
  convolution_param {
    num_output: 176
    kernel_size: 1
    weight_filler {
      type: "xavier"
      std: 0.03
    }
    bias_filler {
      type: "constant"
      value: 0.2
    }
  }
}
layer {
  name: "inception_10a/1x1/bn1"
  type: "BatchNorm"
  bottom: "inception_10a/1x1"
  top: "inception_10a/1x1"
  param {
    lr_mult: 1
    decay_mult: 0
    compression: PRUNE
  }
  param {
    lr_mult: 1
    decay_mult: 0
    compression: PRUNE
  }
  param {
    lr_mult: 0
    decay_mult: 0
    compression: PRUNE
  }
  param {
    lr_mult: 0
    decay_mult: 0
    compression: PRUNE
  }
  batch_norm_param {
    use_global_stats: false
    scale_filler {
      type: "constant"
      value: 1
    }
    bias_filler {
      type: "constant"
      value: 0
    }
  }
}
layer {
  name: "inception_10a/1x1/relu1"
  type: "ReLU"
  bottom: "inception_10a/1x1"
  top: "inception_10a/1x1"
}
layer {
  name: "inception_10a/3x3"
  type: "Convolution"
  bottom: "downsample_9/output"
  top: "inception_10a/3x3"
  param {
    lr_mult: 1
    decay_mult: 1
    compression: PRUNE
  }
  param {
    lr_mult: 2
    decay_mult: 0
    compression: PRUNE
  }
  convolution_param {
    num_output: 160
    pad: 1
    kernel_size: 3
    weight_filler {
      type: "xavier"
      std: 0.03
    }
    bias_filler {
      type: "constant"
      value: 0.2
    }
  }
}
layer {
  name: "inception_10a/3x3/bn1"
  type: "BatchNorm"
  bottom: "inception_10a/3x3"
  top: "inception_10a/3x3"
  param {
    lr_mult: 1
    decay_mult: 0
    compression: PRUNE
  }
  param {
    lr_mult: 1
    decay_mult: 0
    compression: PRUNE
  }
  param {
    lr_mult: 0
    decay_mult: 0
    compression: PRUNE
  }
  param {
    lr_mult: 0
    decay_mult: 0
    compression: PRUNE
  }
  batch_norm_param {
    use_global_stats: false
    scale_filler {
      type: "constant"
      value: 1
    }
    bias_filler {
      type: "constant"
      value: 0
    }
  }
}
layer {
  name: "inception_10a/3x3/relu1"
  type: "ReLU"
  bottom: "inception_10a/3x3"
  top: "inception_10a/3x3"
}
layer {
  name: "inception_10a/output"
  type: "Concat"
  bottom: "inception_10a/1x1"
  bottom: "inception_10a/3x3"
  top: "inception_10a/output"
}
layer {
  name: "inception_11a/1x1"
  type: "Convolution"
  bottom: "inception_10a/output"
  top: "inception_11a/1x1"
  param {
    lr_mult: 1
    decay_mult: 1
    compression: PRUNE
  }
  param {
    lr_mult: 2
    decay_mult: 0
    compression: PRUNE
  }
  convolution_param {
    num_output: 176
    kernel_size: 1
    weight_filler {
      type: "xavier"
      std: 0.03
    }
    bias_filler {
      type: "constant"
      value: 0.2
    }
  }
}
layer {
  name: "inception_11a/1x1/bn1"
  type: "BatchNorm"
  bottom: "inception_11a/1x1"
  top: "inception_11a/1x1"
  param {
    lr_mult: 1
    decay_mult: 0
    compression: PRUNE
  }
  param {
    lr_mult: 1
    decay_mult: 0
    compression: PRUNE
  }
  param {
    lr_mult: 0
    decay_mult: 0
    compression: PRUNE
  }
  param {
    lr_mult: 0
    decay_mult: 0
    compression: PRUNE
  }
  batch_norm_param {
    use_global_stats: false
    scale_filler {
      type: "constant"
      value: 1
    }
    bias_filler {
      type: "constant"
      value: 0
    }
  }
}
layer {
  name: "inception_11a/1x1/relu1"
  type: "ReLU"
  bottom: "inception_11a/1x1"
  top: "inception_11a/1x1"
}
layer {
  name: "inception_11a/3x3"
  type: "Convolution"
  bottom: "inception_10a/output"
  top: "inception_11a/3x3"
  param {
    lr_mult: 1
    decay_mult: 1
    compression: PRUNE
  }
  param {
    lr_mult: 2
    decay_mult: 0
    compression: PRUNE
  }
  convolution_param {
    num_output: 160
    pad: 1
    kernel_size: 3
    weight_filler {
      type: "xavier"
      std: 0.03
    }
    bias_filler {
      type: "constant"
      value: 0.2
    }
  }
}
layer {
  name: "inception_11a/3x3/bn1"
  type: "BatchNorm"
  bottom: "inception_11a/3x3"
  top: "inception_11a/3x3"
  param {
    lr_mult: 1
    decay_mult: 0
    compression: PRUNE
  }
  param {
    lr_mult: 1
    decay_mult: 0
    compression: PRUNE
  }
  param {
    lr_mult: 0
    decay_mult: 0
    compression: PRUNE
  }
  param {
    lr_mult: 0
    decay_mult: 0
    compression: PRUNE
  }
  batch_norm_param {
    use_global_stats: false
    scale_filler {
      type: "constant"
      value: 1
    }
    bias_filler {
      type: "constant"
      value: 0
    }
  }
}
layer {
  name: "inception_11a/3x3/relu1"
  type: "ReLU"
  bottom: "inception_11a/3x3"
  top: "inception_11a/3x3"
}
layer {
  name: "inception_11a/output"
  type: "Concat"
  bottom: "inception_11a/1x1"
  bottom: "inception_11a/3x3"
  top: "inception_11a/output"
}
layer {
  name: "avg_pool_12/8x8_s1"
  type: "Pooling"
  bottom: "inception_11a/output"
  top: "avg_pool_12/8x8_s1"
  pooling_param {
    pool: AVE
    kernel_size: 8
    stride: 1
  }
}
layer {
  name: "drop_8x8_s1"
  type: "Dropout"
  bottom: "avg_pool_12/8x8_s1"
  top: "avg_pool_12/8x8_s1"
  dropout_param {
    dropout_ratio: 0.5
  }
}
layer {
  name: "loss/classifier"
  type: "InnerProduct"
  bottom: "avg_pool_12/8x8_s1"
  top: "loss/classifier"
  param {
    lr_mult: 1
    decay_mult: 1
  }
  param {
    lr_mult: 2
    decay_mult: 0
  }
  inner_product_param {
    num_output: 10
    weight_filler {
      type: "xavier"
    }
    bias_filler {
      type: "constant"
      value: 1
    }
  }
}
layer {
  name: "loss"
  type: "SoftmaxWithLoss"
  bottom: "loss/classifier"
  bottom: "label"
  top: "loss"
}
I0122 17:49:03.334175 67000 layer_factory.hpp:77] Creating layer data
I0122 17:49:03.334273 67000 internal_thread.cpp:27] Starting internal thread(s) on GPU 0
I0122 17:49:03.335219 67000 net.cpp:94] Creating Layer data
I0122 17:49:03.335232 67000 net.cpp:409] data -> data
I0122 17:49:03.335242 67000 net.cpp:409] data -> label
I0122 17:49:03.336545 67039 db_lmdb.cpp:35] Opened lmdb cifar10/input/lmdb/train_lmdb
I0122 17:49:03.336606 67039 data_reader.cpp:117] TRAIN: reading data using 1 channel(s)
I0122 17:49:03.336697 67000 data_layer.cpp:78] ReshapePrefetch 128, 3, 32, 32
I0122 17:49:03.336782 67000 data_layer.cpp:83] output data size: 128,3,32,32
I0122 17:49:03.344223 67000 internal_thread.cpp:27] Starting internal thread(s) on GPU 0
I0122 17:49:03.344266 67000 net.cpp:144] Setting up data
I0122 17:49:03.344275 67000 net.cpp:151] Top shape: 128 3 32 32 (393216)
I0122 17:49:03.344280 67000 net.cpp:151] Top shape: 128 (128)
I0122 17:49:03.344281 67000 net.cpp:159] Memory required for data: 1573376
I0122 17:49:03.344285 67000 layer_factory.hpp:77] Creating layer conv1/3x3_s1
I0122 17:49:03.344300 67000 net.cpp:94] Creating Layer conv1/3x3_s1
I0122 17:49:03.344305 67000 net.cpp:435] conv1/3x3_s1 <- data
I0122 17:49:03.344316 67000 net.cpp:409] conv1/3x3_s1 -> conv1/3x3_s1
I0122 17:49:03.345916 67000 net.cpp:144] Setting up conv1/3x3_s1
I0122 17:49:03.345929 67000 net.cpp:151] Top shape: 128 96 32 32 (12582912)
I0122 17:49:03.345932 67000 net.cpp:159] Memory required for data: 51905024
I0122 17:49:03.345945 67000 layer_factory.hpp:77] Creating layer conv1/bn1
I0122 17:49:03.345955 67000 net.cpp:94] Creating Layer conv1/bn1
I0122 17:49:03.345958 67000 net.cpp:435] conv1/bn1 <- conv1/3x3_s1
I0122 17:49:03.345964 67000 net.cpp:396] conv1/bn1 -> conv1/3x3_s1 (in-place)
I0122 17:49:03.346576 67000 net.cpp:144] Setting up conv1/bn1
I0122 17:49:03.346585 67000 net.cpp:151] Top shape: 128 96 32 32 (12582912)
I0122 17:49:03.346587 67000 net.cpp:159] Memory required for data: 102236672
I0122 17:49:03.346597 67000 layer_factory.hpp:77] Creating layer conv1/relu1
I0122 17:49:03.346606 67000 net.cpp:94] Creating Layer conv1/relu1
I0122 17:49:03.346608 67000 net.cpp:435] conv1/relu1 <- conv1/3x3_s1
I0122 17:49:03.346613 67000 net.cpp:396] conv1/relu1 -> conv1/3x3_s1 (in-place)
I0122 17:49:03.346623 67000 net.cpp:144] Setting up conv1/relu1
I0122 17:49:03.346639 67000 net.cpp:151] Top shape: 128 96 32 32 (12582912)
I0122 17:49:03.346642 67000 net.cpp:159] Memory required for data: 152568320
I0122 17:49:03.346644 67000 layer_factory.hpp:77] Creating layer conv1/3x3_s1_conv1/relu1_0_split
I0122 17:49:03.346652 67000 net.cpp:94] Creating Layer conv1/3x3_s1_conv1/relu1_0_split
I0122 17:49:03.346655 67000 net.cpp:435] conv1/3x3_s1_conv1/relu1_0_split <- conv1/3x3_s1
I0122 17:49:03.346660 67000 net.cpp:409] conv1/3x3_s1_conv1/relu1_0_split -> conv1/3x3_s1_conv1/relu1_0_split_0
I0122 17:49:03.346668 67000 net.cpp:409] conv1/3x3_s1_conv1/relu1_0_split -> conv1/3x3_s1_conv1/relu1_0_split_1
I0122 17:49:03.346696 67000 net.cpp:144] Setting up conv1/3x3_s1_conv1/relu1_0_split
I0122 17:49:03.346702 67000 net.cpp:151] Top shape: 128 96 32 32 (12582912)
I0122 17:49:03.346705 67000 net.cpp:151] Top shape: 128 96 32 32 (12582912)
I0122 17:49:03.346709 67000 net.cpp:159] Memory required for data: 253231616
I0122 17:49:03.346711 67000 layer_factory.hpp:77] Creating layer inception_2a/1x1
I0122 17:49:03.346721 67000 net.cpp:94] Creating Layer inception_2a/1x1
I0122 17:49:03.346725 67000 net.cpp:435] inception_2a/1x1 <- conv1/3x3_s1_conv1/relu1_0_split_0
I0122 17:49:03.346732 67000 net.cpp:409] inception_2a/1x1 -> inception_2a/1x1
I0122 17:49:03.346966 67000 net.cpp:144] Setting up inception_2a/1x1
I0122 17:49:03.346972 67000 net.cpp:151] Top shape: 128 32 32 32 (4194304)
I0122 17:49:03.346976 67000 net.cpp:159] Memory required for data: 270008832
I0122 17:49:03.346982 67000 layer_factory.hpp:77] Creating layer inception_2a/1x1/bn1
I0122 17:49:03.346990 67000 net.cpp:94] Creating Layer inception_2a/1x1/bn1
I0122 17:49:03.346995 67000 net.cpp:435] inception_2a/1x1/bn1 <- inception_2a/1x1
I0122 17:49:03.346999 67000 net.cpp:396] inception_2a/1x1/bn1 -> inception_2a/1x1 (in-place)
I0122 17:49:03.348309 67000 net.cpp:144] Setting up inception_2a/1x1/bn1
I0122 17:49:03.348315 67000 net.cpp:151] Top shape: 128 32 32 32 (4194304)
I0122 17:49:03.348317 67000 net.cpp:159] Memory required for data: 286786048
I0122 17:49:03.348325 67000 layer_factory.hpp:77] Creating layer inception_2a/1x1/relu1
I0122 17:49:03.348328 67000 net.cpp:94] Creating Layer inception_2a/1x1/relu1
I0122 17:49:03.348331 67000 net.cpp:435] inception_2a/1x1/relu1 <- inception_2a/1x1
I0122 17:49:03.348336 67000 net.cpp:396] inception_2a/1x1/relu1 -> inception_2a/1x1 (in-place)
I0122 17:49:03.348341 67000 net.cpp:144] Setting up inception_2a/1x1/relu1
I0122 17:49:03.348345 67000 net.cpp:151] Top shape: 128 32 32 32 (4194304)
I0122 17:49:03.348346 67000 net.cpp:159] Memory required for data: 303563264
I0122 17:49:03.348348 67000 layer_factory.hpp:77] Creating layer inception_2a/3x3
I0122 17:49:03.348356 67000 net.cpp:94] Creating Layer inception_2a/3x3
I0122 17:49:03.348358 67000 net.cpp:435] inception_2a/3x3 <- conv1/3x3_s1_conv1/relu1_0_split_1
I0122 17:49:03.348366 67000 net.cpp:409] inception_2a/3x3 -> inception_2a/3x3
I0122 17:49:03.349608 67000 net.cpp:144] Setting up inception_2a/3x3
I0122 17:49:03.349627 67000 net.cpp:151] Top shape: 128 32 32 32 (4194304)
I0122 17:49:03.349630 67000 net.cpp:159] Memory required for data: 320340480
I0122 17:49:03.349637 67000 layer_factory.hpp:77] Creating layer inception_2a/3x3/bn1
I0122 17:49:03.349659 67000 net.cpp:94] Creating Layer inception_2a/3x3/bn1
I0122 17:49:03.349663 67000 net.cpp:435] inception_2a/3x3/bn1 <- inception_2a/3x3
I0122 17:49:03.349669 67000 net.cpp:396] inception_2a/3x3/bn1 -> inception_2a/3x3 (in-place)
I0122 17:49:03.350373 67000 net.cpp:144] Setting up inception_2a/3x3/bn1
I0122 17:49:03.350380 67000 net.cpp:151] Top shape: 128 32 32 32 (4194304)
I0122 17:49:03.350383 67000 net.cpp:159] Memory required for data: 337117696
I0122 17:49:03.350395 67000 layer_factory.hpp:77] Creating layer inception_2a/3x3/relu1
I0122 17:49:03.350401 67000 net.cpp:94] Creating Layer inception_2a/3x3/relu1
I0122 17:49:03.350404 67000 net.cpp:435] inception_2a/3x3/relu1 <- inception_2a/3x3
I0122 17:49:03.350411 67000 net.cpp:396] inception_2a/3x3/relu1 -> inception_2a/3x3 (in-place)
I0122 17:49:03.350440 67000 net.cpp:144] Setting up inception_2a/3x3/relu1
I0122 17:49:03.350446 67000 net.cpp:151] Top shape: 128 32 32 32 (4194304)
I0122 17:49:03.350448 67000 net.cpp:159] Memory required for data: 353894912
I0122 17:49:03.350451 67000 layer_factory.hpp:77] Creating layer inception_2a/output
I0122 17:49:03.350456 67000 net.cpp:94] Creating Layer inception_2a/output
I0122 17:49:03.350459 67000 net.cpp:435] inception_2a/output <- inception_2a/1x1
I0122 17:49:03.350463 67000 net.cpp:435] inception_2a/output <- inception_2a/3x3
I0122 17:49:03.350469 67000 net.cpp:409] inception_2a/output -> inception_2a/output
I0122 17:49:03.350487 67000 net.cpp:144] Setting up inception_2a/output
I0122 17:49:03.350493 67000 net.cpp:151] Top shape: 128 64 32 32 (8388608)
I0122 17:49:03.350497 67000 net.cpp:159] Memory required for data: 387449344
I0122 17:49:03.350498 67000 layer_factory.hpp:77] Creating layer inception_2a/output_inception_2a/output_0_split
I0122 17:49:03.350513 67000 net.cpp:94] Creating Layer inception_2a/output_inception_2a/output_0_split
I0122 17:49:03.350519 67000 net.cpp:435] inception_2a/output_inception_2a/output_0_split <- inception_2a/output
I0122 17:49:03.350524 67000 net.cpp:409] inception_2a/output_inception_2a/output_0_split -> inception_2a/output_inception_2a/output_0_split_0
I0122 17:49:03.350533 67000 net.cpp:409] inception_2a/output_inception_2a/output_0_split -> inception_2a/output_inception_2a/output_0_split_1
I0122 17:49:03.350564 67000 net.cpp:144] Setting up inception_2a/output_inception_2a/output_0_split
I0122 17:49:03.350570 67000 net.cpp:151] Top shape: 128 64 32 32 (8388608)
I0122 17:49:03.350575 67000 net.cpp:151] Top shape: 128 64 32 32 (8388608)
I0122 17:49:03.350579 67000 net.cpp:159] Memory required for data: 454558208
I0122 17:49:03.350580 67000 layer_factory.hpp:77] Creating layer inception_3a/1x1
I0122 17:49:03.350589 67000 net.cpp:94] Creating Layer inception_3a/1x1
I0122 17:49:03.350594 67000 net.cpp:435] inception_3a/1x1 <- inception_2a/output_inception_2a/output_0_split_0
I0122 17:49:03.350600 67000 net.cpp:409] inception_3a/1x1 -> inception_3a/1x1
I0122 17:49:03.350839 67000 net.cpp:144] Setting up inception_3a/1x1
I0122 17:49:03.350847 67000 net.cpp:151] Top shape: 128 32 32 32 (4194304)
I0122 17:49:03.350849 67000 net.cpp:159] Memory required for data: 471335424
I0122 17:49:03.350854 67000 layer_factory.hpp:77] Creating layer inception_3a/1x1/bn1
I0122 17:49:03.350868 67000 net.cpp:94] Creating Layer inception_3a/1x1/bn1
I0122 17:49:03.350872 67000 net.cpp:435] inception_3a/1x1/bn1 <- inception_3a/1x1
I0122 17:49:03.350879 67000 net.cpp:396] inception_3a/1x1/bn1 -> inception_3a/1x1 (in-place)
I0122 17:49:03.351521 67000 net.cpp:144] Setting up inception_3a/1x1/bn1
I0122 17:49:03.351526 67000 net.cpp:151] Top shape: 128 32 32 32 (4194304)
I0122 17:49:03.351531 67000 net.cpp:159] Memory required for data: 488112640
I0122 17:49:03.351537 67000 layer_factory.hpp:77] Creating layer inception_3a/1x1/relu1
I0122 17:49:03.351542 67000 net.cpp:94] Creating Layer inception_3a/1x1/relu1
I0122 17:49:03.351546 67000 net.cpp:435] inception_3a/1x1/relu1 <- inception_3a/1x1
I0122 17:49:03.351552 67000 net.cpp:396] inception_3a/1x1/relu1 -> inception_3a/1x1 (in-place)
I0122 17:49:03.351558 67000 net.cpp:144] Setting up inception_3a/1x1/relu1
I0122 17:49:03.351564 67000 net.cpp:151] Top shape: 128 32 32 32 (4194304)
I0122 17:49:03.351567 67000 net.cpp:159] Memory required for data: 504889856
I0122 17:49:03.351570 67000 layer_factory.hpp:77] Creating layer inception_3a/3x3
I0122 17:49:03.351581 67000 net.cpp:94] Creating Layer inception_3a/3x3
I0122 17:49:03.351586 67000 net.cpp:435] inception_3a/3x3 <- inception_2a/output_inception_2a/output_0_split_1
I0122 17:49:03.351591 67000 net.cpp:409] inception_3a/3x3 -> inception_3a/3x3
I0122 17:49:03.352006 67000 net.cpp:144] Setting up inception_3a/3x3
I0122 17:49:03.352013 67000 net.cpp:151] Top shape: 128 48 32 32 (6291456)
I0122 17:49:03.352016 67000 net.cpp:159] Memory required for data: 530055680
I0122 17:49:03.352030 67000 layer_factory.hpp:77] Creating layer inception_3a/3x3/bn1
I0122 17:49:03.352038 67000 net.cpp:94] Creating Layer inception_3a/3x3/bn1
I0122 17:49:03.352044 67000 net.cpp:435] inception_3a/3x3/bn1 <- inception_3a/3x3
I0122 17:49:03.352051 67000 net.cpp:396] inception_3a/3x3/bn1 -> inception_3a/3x3 (in-place)
I0122 17:49:03.352933 67000 net.cpp:144] Setting up inception_3a/3x3/bn1
I0122 17:49:03.352942 67000 net.cpp:151] Top shape: 128 48 32 32 (6291456)
I0122 17:49:03.352946 67000 net.cpp:159] Memory required for data: 555221504
I0122 17:49:03.352957 67000 layer_factory.hpp:77] Creating layer inception_3a/3x3/relu1
I0122 17:49:03.352965 67000 net.cpp:94] Creating Layer inception_3a/3x3/relu1
I0122 17:49:03.352969 67000 net.cpp:435] inception_3a/3x3/relu1 <- inception_3a/3x3
I0122 17:49:03.352975 67000 net.cpp:396] inception_3a/3x3/relu1 -> inception_3a/3x3 (in-place)
I0122 17:49:03.352982 67000 net.cpp:144] Setting up inception_3a/3x3/relu1
I0122 17:49:03.352984 67000 net.cpp:151] Top shape: 128 48 32 32 (6291456)
I0122 17:49:03.352988 67000 net.cpp:159] Memory required for data: 580387328
I0122 17:49:03.352990 67000 layer_factory.hpp:77] Creating layer inception_3a/output
I0122 17:49:03.352994 67000 net.cpp:94] Creating Layer inception_3a/output
I0122 17:49:03.352998 67000 net.cpp:435] inception_3a/output <- inception_3a/1x1
I0122 17:49:03.353001 67000 net.cpp:435] inception_3a/output <- inception_3a/3x3
I0122 17:49:03.353006 67000 net.cpp:409] inception_3a/output -> inception_3a/output
I0122 17:49:03.353031 67000 net.cpp:144] Setting up inception_3a/output
I0122 17:49:03.353037 67000 net.cpp:151] Top shape: 128 80 32 32 (10485760)
I0122 17:49:03.353049 67000 net.cpp:159] Memory required for data: 622330368
I0122 17:49:03.353052 67000 layer_factory.hpp:77] Creating layer inception_3a/output_inception_3a/output_0_split
I0122 17:49:03.353056 67000 net.cpp:94] Creating Layer inception_3a/output_inception_3a/output_0_split
I0122 17:49:03.353060 67000 net.cpp:435] inception_3a/output_inception_3a/output_0_split <- inception_3a/output
I0122 17:49:03.353065 67000 net.cpp:409] inception_3a/output_inception_3a/output_0_split -> inception_3a/output_inception_3a/output_0_split_0
I0122 17:49:03.353071 67000 net.cpp:409] inception_3a/output_inception_3a/output_0_split -> inception_3a/output_inception_3a/output_0_split_1
I0122 17:49:03.353098 67000 net.cpp:144] Setting up inception_3a/output_inception_3a/output_0_split
I0122 17:49:03.353104 67000 net.cpp:151] Top shape: 128 80 32 32 (10485760)
I0122 17:49:03.353109 67000 net.cpp:151] Top shape: 128 80 32 32 (10485760)
I0122 17:49:03.353112 67000 net.cpp:159] Memory required for data: 706216448
I0122 17:49:03.353114 67000 layer_factory.hpp:77] Creating layer downsample_4/3x3_s2
I0122 17:49:03.353126 67000 net.cpp:94] Creating Layer downsample_4/3x3_s2
I0122 17:49:03.353130 67000 net.cpp:435] downsample_4/3x3_s2 <- inception_3a/output_inception_3a/output_0_split_0
I0122 17:49:03.353137 67000 net.cpp:409] downsample_4/3x3_s2 -> downsample_4/3x3_s2
I0122 17:49:03.353688 67000 net.cpp:144] Setting up downsample_4/3x3_s2
I0122 17:49:03.353694 67000 net.cpp:151] Top shape: 128 80 16 16 (2621440)
I0122 17:49:03.353698 67000 net.cpp:159] Memory required for data: 716702208
I0122 17:49:03.353703 67000 layer_factory.hpp:77] Creating layer downsample_4/3x3_s2/bn1
I0122 17:49:03.353710 67000 net.cpp:94] Creating Layer downsample_4/3x3_s2/bn1
I0122 17:49:03.353715 67000 net.cpp:435] downsample_4/3x3_s2/bn1 <- downsample_4/3x3_s2
I0122 17:49:03.353724 67000 net.cpp:396] downsample_4/3x3_s2/bn1 -> downsample_4/3x3_s2 (in-place)
I0122 17:49:03.354374 67000 net.cpp:144] Setting up downsample_4/3x3_s2/bn1
I0122 17:49:03.354382 67000 net.cpp:151] Top shape: 128 80 16 16 (2621440)
I0122 17:49:03.354384 67000 net.cpp:159] Memory required for data: 727187968
I0122 17:49:03.354393 67000 layer_factory.hpp:77] Creating layer downsample_4/3x3_s2/relu1
I0122 17:49:03.354398 67000 net.cpp:94] Creating Layer downsample_4/3x3_s2/relu1
I0122 17:49:03.354400 67000 net.cpp:435] downsample_4/3x3_s2/relu1 <- downsample_4/3x3_s2
I0122 17:49:03.354418 67000 net.cpp:396] downsample_4/3x3_s2/relu1 -> downsample_4/3x3_s2 (in-place)
I0122 17:49:03.354424 67000 net.cpp:144] Setting up downsample_4/3x3_s2/relu1
I0122 17:49:03.354430 67000 net.cpp:151] Top shape: 128 80 16 16 (2621440)
I0122 17:49:03.354434 67000 net.cpp:159] Memory required for data: 737673728
I0122 17:49:03.354436 67000 layer_factory.hpp:77] Creating layer downsample_4/pool_s2
I0122 17:49:03.354444 67000 net.cpp:94] Creating Layer downsample_4/pool_s2
I0122 17:49:03.354446 67000 net.cpp:435] downsample_4/pool_s2 <- inception_3a/output_inception_3a/output_0_split_1
I0122 17:49:03.354452 67000 net.cpp:409] downsample_4/pool_s2 -> downsample_4/pool_s2
I0122 17:49:03.354491 67000 net.cpp:144] Setting up downsample_4/pool_s2
I0122 17:49:03.354498 67000 net.cpp:151] Top shape: 128 80 16 16 (2621440)
I0122 17:49:03.354501 67000 net.cpp:159] Memory required for data: 748159488
I0122 17:49:03.354503 67000 layer_factory.hpp:77] Creating layer downsample_4/output
I0122 17:49:03.354508 67000 net.cpp:94] Creating Layer downsample_4/output
I0122 17:49:03.354511 67000 net.cpp:435] downsample_4/output <- downsample_4/3x3_s2
I0122 17:49:03.354514 67000 net.cpp:435] downsample_4/output <- downsample_4/pool_s2
I0122 17:49:03.354521 67000 net.cpp:409] downsample_4/output -> downsample_4/output
I0122 17:49:03.354539 67000 net.cpp:144] Setting up downsample_4/output
I0122 17:49:03.354547 67000 net.cpp:151] Top shape: 128 160 16 16 (5242880)
I0122 17:49:03.354549 67000 net.cpp:159] Memory required for data: 769131008
I0122 17:49:03.354552 67000 layer_factory.hpp:77] Creating layer downsample_4/output_downsample_4/output_0_split
I0122 17:49:03.354557 67000 net.cpp:94] Creating Layer downsample_4/output_downsample_4/output_0_split
I0122 17:49:03.354559 67000 net.cpp:435] downsample_4/output_downsample_4/output_0_split <- downsample_4/output
I0122 17:49:03.354566 67000 net.cpp:409] downsample_4/output_downsample_4/output_0_split -> downsample_4/output_downsample_4/output_0_split_0
I0122 17:49:03.354571 67000 net.cpp:409] downsample_4/output_downsample_4/output_0_split -> downsample_4/output_downsample_4/output_0_split_1
I0122 17:49:03.354604 67000 net.cpp:144] Setting up downsample_4/output_downsample_4/output_0_split
I0122 17:49:03.354609 67000 net.cpp:151] Top shape: 128 160 16 16 (5242880)
I0122 17:49:03.354614 67000 net.cpp:151] Top shape: 128 160 16 16 (5242880)
I0122 17:49:03.354616 67000 net.cpp:159] Memory required for data: 811074048
I0122 17:49:03.354619 67000 layer_factory.hpp:77] Creating layer inception_5a/1x1
I0122 17:49:03.354627 67000 net.cpp:94] Creating Layer inception_5a/1x1
I0122 17:49:03.354630 67000 net.cpp:435] inception_5a/1x1 <- downsample_4/output_downsample_4/output_0_split_0
I0122 17:49:03.354636 67000 net.cpp:409] inception_5a/1x1 -> inception_5a/1x1
I0122 17:49:03.354995 67000 net.cpp:144] Setting up inception_5a/1x1
I0122 17:49:03.355002 67000 net.cpp:151] Top shape: 128 112 16 16 (3670016)
I0122 17:49:03.355005 67000 net.cpp:159] Memory required for data: 825754112
I0122 17:49:03.355010 67000 layer_factory.hpp:77] Creating layer inception_5a/1x1/bn1
I0122 17:49:03.355020 67000 net.cpp:94] Creating Layer inception_5a/1x1/bn1
I0122 17:49:03.355024 67000 net.cpp:435] inception_5a/1x1/bn1 <- inception_5a/1x1
I0122 17:49:03.355031 67000 net.cpp:396] inception_5a/1x1/bn1 -> inception_5a/1x1 (in-place)
I0122 17:49:03.355935 67000 net.cpp:144] Setting up inception_5a/1x1/bn1
I0122 17:49:03.355942 67000 net.cpp:151] Top shape: 128 112 16 16 (3670016)
I0122 17:49:03.355945 67000 net.cpp:159] Memory required for data: 840434176
I0122 17:49:03.355953 67000 layer_factory.hpp:77] Creating layer inception_5a/1x1/relu1
I0122 17:49:03.355962 67000 net.cpp:94] Creating Layer inception_5a/1x1/relu1
I0122 17:49:03.355964 67000 net.cpp:435] inception_5a/1x1/relu1 <- inception_5a/1x1
I0122 17:49:03.355969 67000 net.cpp:396] inception_5a/1x1/relu1 -> inception_5a/1x1 (in-place)
I0122 17:49:03.355975 67000 net.cpp:144] Setting up inception_5a/1x1/relu1
I0122 17:49:03.355984 67000 net.cpp:151] Top shape: 128 112 16 16 (3670016)
I0122 17:49:03.355998 67000 net.cpp:159] Memory required for data: 855114240
I0122 17:49:03.356001 67000 layer_factory.hpp:77] Creating layer inception_5a/3x3
I0122 17:49:03.356019 67000 net.cpp:94] Creating Layer inception_5a/3x3
I0122 17:49:03.356030 67000 net.cpp:435] inception_5a/3x3 <- downsample_4/output_downsample_4/output_0_split_1
I0122 17:49:03.356037 67000 net.cpp:409] inception_5a/3x3 -> inception_5a/3x3
I0122 17:49:03.356667 67000 net.cpp:144] Setting up inception_5a/3x3
I0122 17:49:03.356675 67000 net.cpp:151] Top shape: 128 48 16 16 (1572864)
I0122 17:49:03.356678 67000 net.cpp:159] Memory required for data: 861405696
I0122 17:49:03.356683 67000 layer_factory.hpp:77] Creating layer inception_5a/3x3/bn1
I0122 17:49:03.356691 67000 net.cpp:94] Creating Layer inception_5a/3x3/bn1
I0122 17:49:03.356695 67000 net.cpp:435] inception_5a/3x3/bn1 <- inception_5a/3x3
I0122 17:49:03.356703 67000 net.cpp:396] inception_5a/3x3/bn1 -> inception_5a/3x3 (in-place)
I0122 17:49:03.357364 67000 net.cpp:144] Setting up inception_5a/3x3/bn1
I0122 17:49:03.357372 67000 net.cpp:151] Top shape: 128 48 16 16 (1572864)
I0122 17:49:03.357376 67000 net.cpp:159] Memory required for data: 867697152
I0122 17:49:03.357383 67000 layer_factory.hpp:77] Creating layer inception_5a/3x3/relu1
I0122 17:49:03.357395 67000 net.cpp:94] Creating Layer inception_5a/3x3/relu1
I0122 17:49:03.357400 67000 net.cpp:435] inception_5a/3x3/relu1 <- inception_5a/3x3
I0122 17:49:03.357405 67000 net.cpp:396] inception_5a/3x3/relu1 -> inception_5a/3x3 (in-place)
I0122 17:49:03.357411 67000 net.cpp:144] Setting up inception_5a/3x3/relu1
I0122 17:49:03.357417 67000 net.cpp:151] Top shape: 128 48 16 16 (1572864)
I0122 17:49:03.357420 67000 net.cpp:159] Memory required for data: 873988608
I0122 17:49:03.357424 67000 layer_factory.hpp:77] Creating layer inception_5a/output
I0122 17:49:03.357427 67000 net.cpp:94] Creating Layer inception_5a/output
I0122 17:49:03.357430 67000 net.cpp:435] inception_5a/output <- inception_5a/1x1
I0122 17:49:03.357434 67000 net.cpp:435] inception_5a/output <- inception_5a/3x3
I0122 17:49:03.357439 67000 net.cpp:409] inception_5a/output -> inception_5a/output
I0122 17:49:03.357460 67000 net.cpp:144] Setting up inception_5a/output
I0122 17:49:03.357465 67000 net.cpp:151] Top shape: 128 160 16 16 (5242880)
I0122 17:49:03.357470 67000 net.cpp:159] Memory required for data: 894960128
I0122 17:49:03.357471 67000 layer_factory.hpp:77] Creating layer inception_5a/output_inception_5a/output_0_split
I0122 17:49:03.357476 67000 net.cpp:94] Creating Layer inception_5a/output_inception_5a/output_0_split
I0122 17:49:03.357480 67000 net.cpp:435] inception_5a/output_inception_5a/output_0_split <- inception_5a/output
I0122 17:49:03.357486 67000 net.cpp:409] inception_5a/output_inception_5a/output_0_split -> inception_5a/output_inception_5a/output_0_split_0
I0122 17:49:03.357493 67000 net.cpp:409] inception_5a/output_inception_5a/output_0_split -> inception_5a/output_inception_5a/output_0_split_1
I0122 17:49:03.357523 67000 net.cpp:144] Setting up inception_5a/output_inception_5a/output_0_split
I0122 17:49:03.357528 67000 net.cpp:151] Top shape: 128 160 16 16 (5242880)
I0122 17:49:03.357532 67000 net.cpp:151] Top shape: 128 160 16 16 (5242880)
I0122 17:49:03.357535 67000 net.cpp:159] Memory required for data: 936903168
I0122 17:49:03.357538 67000 layer_factory.hpp:77] Creating layer inception_6a/1x1
I0122 17:49:03.357547 67000 net.cpp:94] Creating Layer inception_6a/1x1
I0122 17:49:03.357553 67000 net.cpp:435] inception_6a/1x1 <- inception_5a/output_inception_5a/output_0_split_0
I0122 17:49:03.357558 67000 net.cpp:409] inception_6a/1x1 -> inception_6a/1x1
I0122 17:49:03.358590 67000 net.cpp:144] Setting up inception_6a/1x1
I0122 17:49:03.358602 67000 net.cpp:151] Top shape: 128 96 16 16 (3145728)
I0122 17:49:03.358604 67000 net.cpp:159] Memory required for data: 949486080
I0122 17:49:03.358610 67000 layer_factory.hpp:77] Creating layer inception_6a/1x1/bn1
I0122 17:49:03.358619 67000 net.cpp:94] Creating Layer inception_6a/1x1/bn1
I0122 17:49:03.358633 67000 net.cpp:435] inception_6a/1x1/bn1 <- inception_6a/1x1
I0122 17:49:03.358641 67000 net.cpp:396] inception_6a/1x1/bn1 -> inception_6a/1x1 (in-place)
I0122 17:49:03.359524 67000 net.cpp:144] Setting up inception_6a/1x1/bn1
I0122 17:49:03.359531 67000 net.cpp:151] Top shape: 128 96 16 16 (3145728)
I0122 17:49:03.359534 67000 net.cpp:159] Memory required for data: 962068992
I0122 17:49:03.359544 67000 layer_factory.hpp:77] Creating layer inception_6a/1x1/relu1
I0122 17:49:03.359552 67000 net.cpp:94] Creating Layer inception_6a/1x1/relu1
I0122 17:49:03.359556 67000 net.cpp:435] inception_6a/1x1/relu1 <- inception_6a/1x1
I0122 17:49:03.359562 67000 net.cpp:396] inception_6a/1x1/relu1 -> inception_6a/1x1 (in-place)
I0122 17:49:03.359570 67000 net.cpp:144] Setting up inception_6a/1x1/relu1
I0122 17:49:03.359575 67000 net.cpp:151] Top shape: 128 96 16 16 (3145728)
I0122 17:49:03.359578 67000 net.cpp:159] Memory required for data: 974651904
I0122 17:49:03.359581 67000 layer_factory.hpp:77] Creating layer inception_6a/3x3
I0122 17:49:03.359591 67000 net.cpp:94] Creating Layer inception_6a/3x3
I0122 17:49:03.359594 67000 net.cpp:435] inception_6a/3x3 <- inception_5a/output_inception_5a/output_0_split_1
I0122 17:49:03.359601 67000 net.cpp:409] inception_6a/3x3 -> inception_6a/3x3
I0122 17:49:03.360373 67000 net.cpp:144] Setting up inception_6a/3x3
I0122 17:49:03.360381 67000 net.cpp:151] Top shape: 128 64 16 16 (2097152)
I0122 17:49:03.360384 67000 net.cpp:159] Memory required for data: 983040512
I0122 17:49:03.360396 67000 layer_factory.hpp:77] Creating layer inception_6a/3x3/bn1
I0122 17:49:03.360406 67000 net.cpp:94] Creating Layer inception_6a/3x3/bn1
I0122 17:49:03.360412 67000 net.cpp:435] inception_6a/3x3/bn1 <- inception_6a/3x3
I0122 17:49:03.360419 67000 net.cpp:396] inception_6a/3x3/bn1 -> inception_6a/3x3 (in-place)
I0122 17:49:03.361083 67000 net.cpp:144] Setting up inception_6a/3x3/bn1
I0122 17:49:03.361090 67000 net.cpp:151] Top shape: 128 64 16 16 (2097152)
I0122 17:49:03.361093 67000 net.cpp:159] Memory required for data: 991429120
I0122 17:49:03.361101 67000 layer_factory.hpp:77] Creating layer inception_6a/3x3/relu1
I0122 17:49:03.361109 67000 net.cpp:94] Creating Layer inception_6a/3x3/relu1
I0122 17:49:03.361111 67000 net.cpp:435] inception_6a/3x3/relu1 <- inception_6a/3x3
I0122 17:49:03.361117 67000 net.cpp:396] inception_6a/3x3/relu1 -> inception_6a/3x3 (in-place)
I0122 17:49:03.361124 67000 net.cpp:144] Setting up inception_6a/3x3/relu1
I0122 17:49:03.361129 67000 net.cpp:151] Top shape: 128 64 16 16 (2097152)
I0122 17:49:03.361131 67000 net.cpp:159] Memory required for data: 999817728
I0122 17:49:03.361135 67000 layer_factory.hpp:77] Creating layer inception_6a/output
I0122 17:49:03.361140 67000 net.cpp:94] Creating Layer inception_6a/output
I0122 17:49:03.361141 67000 net.cpp:435] inception_6a/output <- inception_6a/1x1
I0122 17:49:03.361145 67000 net.cpp:435] inception_6a/output <- inception_6a/3x3
I0122 17:49:03.361151 67000 net.cpp:409] inception_6a/output -> inception_6a/output
I0122 17:49:03.361169 67000 net.cpp:144] Setting up inception_6a/output
I0122 17:49:03.361176 67000 net.cpp:151] Top shape: 128 160 16 16 (5242880)
I0122 17:49:03.361178 67000 net.cpp:159] Memory required for data: 1020789248
I0122 17:49:03.361181 67000 layer_factory.hpp:77] Creating layer inception_6a/output_inception_6a/output_0_split
I0122 17:49:03.361188 67000 net.cpp:94] Creating Layer inception_6a/output_inception_6a/output_0_split
I0122 17:49:03.361191 67000 net.cpp:435] inception_6a/output_inception_6a/output_0_split <- inception_6a/output
I0122 17:49:03.361196 67000 net.cpp:409] inception_6a/output_inception_6a/output_0_split -> inception_6a/output_inception_6a/output_0_split_0
I0122 17:49:03.361204 67000 net.cpp:409] inception_6a/output_inception_6a/output_0_split -> inception_6a/output_inception_6a/output_0_split_1
I0122 17:49:03.361243 67000 net.cpp:144] Setting up inception_6a/output_inception_6a/output_0_split
I0122 17:49:03.361248 67000 net.cpp:151] Top shape: 128 160 16 16 (5242880)
I0122 17:49:03.361263 67000 net.cpp:151] Top shape: 128 160 16 16 (5242880)
I0122 17:49:03.361266 67000 net.cpp:159] Memory required for data: 1062732288
I0122 17:49:03.361269 67000 layer_factory.hpp:77] Creating layer inception_7a/1x1
I0122 17:49:03.361279 67000 net.cpp:94] Creating Layer inception_7a/1x1
I0122 17:49:03.361284 67000 net.cpp:435] inception_7a/1x1 <- inception_6a/output_inception_6a/output_0_split_0
I0122 17:49:03.361290 67000 net.cpp:409] inception_7a/1x1 -> inception_7a/1x1
I0122 17:49:03.361723 67000 net.cpp:144] Setting up inception_7a/1x1
I0122 17:49:03.361730 67000 net.cpp:151] Top shape: 128 80 16 16 (2621440)
I0122 17:49:03.361733 67000 net.cpp:159] Memory required for data: 1073218048
I0122 17:49:03.361739 67000 layer_factory.hpp:77] Creating layer inception_7a/1x1/bn1
I0122 17:49:03.361747 67000 net.cpp:94] Creating Layer inception_7a/1x1/bn1
I0122 17:49:03.361749 67000 net.cpp:435] inception_7a/1x1/bn1 <- inception_7a/1x1
I0122 17:49:03.361755 67000 net.cpp:396] inception_7a/1x1/bn1 -> inception_7a/1x1 (in-place)
I0122 17:49:03.362432 67000 net.cpp:144] Setting up inception_7a/1x1/bn1
I0122 17:49:03.362440 67000 net.cpp:151] Top shape: 128 80 16 16 (2621440)
I0122 17:49:03.362443 67000 net.cpp:159] Memory required for data: 1083703808
I0122 17:49:03.362452 67000 layer_factory.hpp:77] Creating layer inception_7a/1x1/relu1
I0122 17:49:03.362457 67000 net.cpp:94] Creating Layer inception_7a/1x1/relu1
I0122 17:49:03.362463 67000 net.cpp:435] inception_7a/1x1/relu1 <- inception_7a/1x1
I0122 17:49:03.362468 67000 net.cpp:396] inception_7a/1x1/relu1 -> inception_7a/1x1 (in-place)
I0122 17:49:03.362476 67000 net.cpp:144] Setting up inception_7a/1x1/relu1
I0122 17:49:03.362480 67000 net.cpp:151] Top shape: 128 80 16 16 (2621440)
I0122 17:49:03.362483 67000 net.cpp:159] Memory required for data: 1094189568
I0122 17:49:03.362486 67000 layer_factory.hpp:77] Creating layer inception_7a/3x3
I0122 17:49:03.362495 67000 net.cpp:94] Creating Layer inception_7a/3x3
I0122 17:49:03.362500 67000 net.cpp:435] inception_7a/3x3 <- inception_6a/output_inception_6a/output_0_split_1
I0122 17:49:03.362507 67000 net.cpp:409] inception_7a/3x3 -> inception_7a/3x3
I0122 17:49:03.363436 67000 net.cpp:144] Setting up inception_7a/3x3
I0122 17:49:03.363445 67000 net.cpp:151] Top shape: 128 80 16 16 (2621440)
I0122 17:49:03.363448 67000 net.cpp:159] Memory required for data: 1104675328
I0122 17:49:03.363454 67000 layer_factory.hpp:77] Creating layer inception_7a/3x3/bn1
I0122 17:49:03.363463 67000 net.cpp:94] Creating Layer inception_7a/3x3/bn1
I0122 17:49:03.363467 67000 net.cpp:435] inception_7a/3x3/bn1 <- inception_7a/3x3
I0122 17:49:03.363476 67000 net.cpp:396] inception_7a/3x3/bn1 -> inception_7a/3x3 (in-place)
I0122 17:49:03.364372 67000 net.cpp:144] Setting up inception_7a/3x3/bn1
I0122 17:49:03.364378 67000 net.cpp:151] Top shape: 128 80 16 16 (2621440)
I0122 17:49:03.364382 67000 net.cpp:159] Memory required for data: 1115161088
I0122 17:49:03.364392 67000 layer_factory.hpp:77] Creating layer inception_7a/3x3/relu1
I0122 17:49:03.364400 67000 net.cpp:94] Creating Layer inception_7a/3x3/relu1
I0122 17:49:03.364403 67000 net.cpp:435] inception_7a/3x3/relu1 <- inception_7a/3x3
I0122 17:49:03.364409 67000 net.cpp:396] inception_7a/3x3/relu1 -> inception_7a/3x3 (in-place)
I0122 17:49:03.364416 67000 net.cpp:144] Setting up inception_7a/3x3/relu1
I0122 17:49:03.364423 67000 net.cpp:151] Top shape: 128 80 16 16 (2621440)
I0122 17:49:03.364424 67000 net.cpp:159] Memory required for data: 1125646848
I0122 17:49:03.364428 67000 layer_factory.hpp:77] Creating layer inception_7a/output
I0122 17:49:03.364432 67000 net.cpp:94] Creating Layer inception_7a/output
I0122 17:49:03.364442 67000 net.cpp:435] inception_7a/output <- inception_7a/1x1
I0122 17:49:03.364446 67000 net.cpp:435] inception_7a/output <- inception_7a/3x3
I0122 17:49:03.364452 67000 net.cpp:409] inception_7a/output -> inception_7a/output
I0122 17:49:03.364473 67000 net.cpp:144] Setting up inception_7a/output
I0122 17:49:03.364480 67000 net.cpp:151] Top shape: 128 160 16 16 (5242880)
I0122 17:49:03.364491 67000 net.cpp:159] Memory required for data: 1146618368
I0122 17:49:03.364495 67000 layer_factory.hpp:77] Creating layer inception_7a/output_inception_7a/output_0_split
I0122 17:49:03.364500 67000 net.cpp:94] Creating Layer inception_7a/output_inception_7a/output_0_split
I0122 17:49:03.364503 67000 net.cpp:435] inception_7a/output_inception_7a/output_0_split <- inception_7a/output
I0122 17:49:03.364509 67000 net.cpp:409] inception_7a/output_inception_7a/output_0_split -> inception_7a/output_inception_7a/output_0_split_0
I0122 17:49:03.364516 67000 net.cpp:409] inception_7a/output_inception_7a/output_0_split -> inception_7a/output_inception_7a/output_0_split_1
I0122 17:49:03.364547 67000 net.cpp:144] Setting up inception_7a/output_inception_7a/output_0_split
I0122 17:49:03.364552 67000 net.cpp:151] Top shape: 128 160 16 16 (5242880)
I0122 17:49:03.364557 67000 net.cpp:151] Top shape: 128 160 16 16 (5242880)
I0122 17:49:03.364558 67000 net.cpp:159] Memory required for data: 1188561408
I0122 17:49:03.364562 67000 layer_factory.hpp:77] Creating layer inception_8a/1x1
I0122 17:49:03.364572 67000 net.cpp:94] Creating Layer inception_8a/1x1
I0122 17:49:03.364576 67000 net.cpp:435] inception_8a/1x1 <- inception_7a/output_inception_7a/output_0_split_0
I0122 17:49:03.364583 67000 net.cpp:409] inception_8a/1x1 -> inception_8a/1x1
I0122 17:49:03.364866 67000 net.cpp:144] Setting up inception_8a/1x1
I0122 17:49:03.364871 67000 net.cpp:151] Top shape: 128 48 16 16 (1572864)
I0122 17:49:03.364874 67000 net.cpp:159] Memory required for data: 1194852864
I0122 17:49:03.364878 67000 layer_factory.hpp:77] Creating layer inception_8a/1x1/bn1
I0122 17:49:03.364887 67000 net.cpp:94] Creating Layer inception_8a/1x1/bn1
I0122 17:49:03.364890 67000 net.cpp:435] inception_8a/1x1/bn1 <- inception_8a/1x1
I0122 17:49:03.364897 67000 net.cpp:396] inception_8a/1x1/bn1 -> inception_8a/1x1 (in-place)
I0122 17:49:03.365566 67000 net.cpp:144] Setting up inception_8a/1x1/bn1
I0122 17:49:03.365573 67000 net.cpp:151] Top shape: 128 48 16 16 (1572864)
I0122 17:49:03.365576 67000 net.cpp:159] Memory required for data: 1201144320
I0122 17:49:03.365584 67000 layer_factory.hpp:77] Creating layer inception_8a/1x1/relu1
I0122 17:49:03.365588 67000 net.cpp:94] Creating Layer inception_8a/1x1/relu1
I0122 17:49:03.365592 67000 net.cpp:435] inception_8a/1x1/relu1 <- inception_8a/1x1
I0122 17:49:03.365598 67000 net.cpp:396] inception_8a/1x1/relu1 -> inception_8a/1x1 (in-place)
I0122 17:49:03.365604 67000 net.cpp:144] Setting up inception_8a/1x1/relu1
I0122 17:49:03.365610 67000 net.cpp:151] Top shape: 128 48 16 16 (1572864)
I0122 17:49:03.365613 67000 net.cpp:159] Memory required for data: 1207435776
I0122 17:49:03.365617 67000 layer_factory.hpp:77] Creating layer inception_8a/3x3
I0122 17:49:03.365624 67000 net.cpp:94] Creating Layer inception_8a/3x3
I0122 17:49:03.365629 67000 net.cpp:435] inception_8a/3x3 <- inception_7a/output_inception_7a/output_0_split_1
I0122 17:49:03.365638 67000 net.cpp:409] inception_8a/3x3 -> inception_8a/3x3
I0122 17:49:03.367328 67000 net.cpp:144] Setting up inception_8a/3x3
I0122 17:49:03.367341 67000 net.cpp:151] Top shape: 128 96 16 16 (3145728)
I0122 17:49:03.367343 67000 net.cpp:159] Memory required for data: 1220018688
I0122 17:49:03.367349 67000 layer_factory.hpp:77] Creating layer inception_8a/3x3/bn1
I0122 17:49:03.367357 67000 net.cpp:94] Creating Layer inception_8a/3x3/bn1
I0122 17:49:03.367359 67000 net.cpp:435] inception_8a/3x3/bn1 <- inception_8a/3x3
I0122 17:49:03.367365 67000 net.cpp:396] inception_8a/3x3/bn1 -> inception_8a/3x3 (in-place)
I0122 17:49:03.368011 67000 net.cpp:144] Setting up inception_8a/3x3/bn1
I0122 17:49:03.368021 67000 net.cpp:151] Top shape: 128 96 16 16 (3145728)
I0122 17:49:03.368022 67000 net.cpp:159] Memory required for data: 1232601600
I0122 17:49:03.368031 67000 layer_factory.hpp:77] Creating layer inception_8a/3x3/relu1
I0122 17:49:03.368036 67000 net.cpp:94] Creating Layer inception_8a/3x3/relu1
I0122 17:49:03.368039 67000 net.cpp:435] inception_8a/3x3/relu1 <- inception_8a/3x3
I0122 17:49:03.368054 67000 net.cpp:396] inception_8a/3x3/relu1 -> inception_8a/3x3 (in-place)
I0122 17:49:03.368060 67000 net.cpp:144] Setting up inception_8a/3x3/relu1
I0122 17:49:03.368067 67000 net.cpp:151] Top shape: 128 96 16 16 (3145728)
I0122 17:49:03.368070 67000 net.cpp:159] Memory required for data: 1245184512
I0122 17:49:03.368073 67000 layer_factory.hpp:77] Creating layer inception_8a/output
I0122 17:49:03.368080 67000 net.cpp:94] Creating Layer inception_8a/output
I0122 17:49:03.368084 67000 net.cpp:435] inception_8a/output <- inception_8a/1x1
I0122 17:49:03.368088 67000 net.cpp:435] inception_8a/output <- inception_8a/3x3
I0122 17:49:03.368093 67000 net.cpp:409] inception_8a/output -> inception_8a/output
I0122 17:49:03.368114 67000 net.cpp:144] Setting up inception_8a/output
I0122 17:49:03.368120 67000 net.cpp:151] Top shape: 128 144 16 16 (4718592)
I0122 17:49:03.368124 67000 net.cpp:159] Memory required for data: 1264058880
I0122 17:49:03.368126 67000 layer_factory.hpp:77] Creating layer inception_8a/output_inception_8a/output_0_split
I0122 17:49:03.368131 67000 net.cpp:94] Creating Layer inception_8a/output_inception_8a/output_0_split
I0122 17:49:03.368135 67000 net.cpp:435] inception_8a/output_inception_8a/output_0_split <- inception_8a/output
I0122 17:49:03.368141 67000 net.cpp:409] inception_8a/output_inception_8a/output_0_split -> inception_8a/output_inception_8a/output_0_split_0
I0122 17:49:03.368149 67000 net.cpp:409] inception_8a/output_inception_8a/output_0_split -> inception_8a/output_inception_8a/output_0_split_1
I0122 17:49:03.368180 67000 net.cpp:144] Setting up inception_8a/output_inception_8a/output_0_split
I0122 17:49:03.368186 67000 net.cpp:151] Top shape: 128 144 16 16 (4718592)
I0122 17:49:03.368191 67000 net.cpp:151] Top shape: 128 144 16 16 (4718592)
I0122 17:49:03.368193 67000 net.cpp:159] Memory required for data: 1301807616
I0122 17:49:03.368196 67000 layer_factory.hpp:77] Creating layer downsample_9/3x3_s2
I0122 17:49:03.368207 67000 net.cpp:94] Creating Layer downsample_9/3x3_s2
I0122 17:49:03.368212 67000 net.cpp:435] downsample_9/3x3_s2 <- inception_8a/output_inception_8a/output_0_split_0
I0122 17:49:03.368218 67000 net.cpp:409] downsample_9/3x3_s2 -> downsample_9/3x3_s2
I0122 17:49:03.369153 67000 net.cpp:144] Setting up downsample_9/3x3_s2
I0122 17:49:03.369163 67000 net.cpp:151] Top shape: 128 96 8 8 (786432)
I0122 17:49:03.369165 67000 net.cpp:159] Memory required for data: 1304953344
I0122 17:49:03.369171 67000 layer_factory.hpp:77] Creating layer downsample_9/3x3_s2/bn1
I0122 17:49:03.369180 67000 net.cpp:94] Creating Layer downsample_9/3x3_s2/bn1
I0122 17:49:03.369186 67000 net.cpp:435] downsample_9/3x3_s2/bn1 <- downsample_9/3x3_s2
I0122 17:49:03.369194 67000 net.cpp:396] downsample_9/3x3_s2/bn1 -> downsample_9/3x3_s2 (in-place)
I0122 17:49:03.369897 67000 net.cpp:144] Setting up downsample_9/3x3_s2/bn1
I0122 17:49:03.369915 67000 net.cpp:151] Top shape: 128 96 8 8 (786432)
I0122 17:49:03.369918 67000 net.cpp:159] Memory required for data: 1308099072
I0122 17:49:03.369926 67000 layer_factory.hpp:77] Creating layer downsample_9/3x3_s2/relu1
I0122 17:49:03.369931 67000 net.cpp:94] Creating Layer downsample_9/3x3_s2/relu1
I0122 17:49:03.369935 67000 net.cpp:435] downsample_9/3x3_s2/relu1 <- downsample_9/3x3_s2
I0122 17:49:03.369940 67000 net.cpp:396] downsample_9/3x3_s2/relu1 -> downsample_9/3x3_s2 (in-place)
I0122 17:49:03.369947 67000 net.cpp:144] Setting up downsample_9/3x3_s2/relu1
I0122 17:49:03.369953 67000 net.cpp:151] Top shape: 128 96 8 8 (786432)
I0122 17:49:03.369956 67000 net.cpp:159] Memory required for data: 1311244800
I0122 17:49:03.369959 67000 layer_factory.hpp:77] Creating layer downsample_9/pool_s2
I0122 17:49:03.369966 67000 net.cpp:94] Creating Layer downsample_9/pool_s2
I0122 17:49:03.369971 67000 net.cpp:435] downsample_9/pool_s2 <- inception_8a/output_inception_8a/output_0_split_1
I0122 17:49:03.369976 67000 net.cpp:409] downsample_9/pool_s2 -> downsample_9/pool_s2
I0122 17:49:03.370010 67000 net.cpp:144] Setting up downsample_9/pool_s2
I0122 17:49:03.370024 67000 net.cpp:151] Top shape: 128 144 8 8 (1179648)
I0122 17:49:03.370028 67000 net.cpp:159] Memory required for data: 1315963392
I0122 17:49:03.370031 67000 layer_factory.hpp:77] Creating layer downsample_9/output
I0122 17:49:03.370038 67000 net.cpp:94] Creating Layer downsample_9/output
I0122 17:49:03.370040 67000 net.cpp:435] downsample_9/output <- downsample_9/3x3_s2
I0122 17:49:03.370043 67000 net.cpp:435] downsample_9/output <- downsample_9/pool_s2
I0122 17:49:03.370049 67000 net.cpp:409] downsample_9/output -> downsample_9/output
I0122 17:49:03.370070 67000 net.cpp:144] Setting up downsample_9/output
I0122 17:49:03.370075 67000 net.cpp:151] Top shape: 128 240 8 8 (1966080)
I0122 17:49:03.370079 67000 net.cpp:159] Memory required for data: 1323827712
I0122 17:49:03.370081 67000 layer_factory.hpp:77] Creating layer downsample_9/output_downsample_9/output_0_split
I0122 17:49:03.370093 67000 net.cpp:94] Creating Layer downsample_9/output_downsample_9/output_0_split
I0122 17:49:03.370098 67000 net.cpp:435] downsample_9/output_downsample_9/output_0_split <- downsample_9/output
I0122 17:49:03.370103 67000 net.cpp:409] downsample_9/output_downsample_9/output_0_split -> downsample_9/output_downsample_9/output_0_split_0
I0122 17:49:03.370110 67000 net.cpp:409] downsample_9/output_downsample_9/output_0_split -> downsample_9/output_downsample_9/output_0_split_1
I0122 17:49:03.370138 67000 net.cpp:144] Setting up downsample_9/output_downsample_9/output_0_split
I0122 17:49:03.370146 67000 net.cpp:151] Top shape: 128 240 8 8 (1966080)
I0122 17:49:03.370149 67000 net.cpp:151] Top shape: 128 240 8 8 (1966080)
I0122 17:49:03.370151 67000 net.cpp:159] Memory required for data: 1339556352
I0122 17:49:03.370155 67000 layer_factory.hpp:77] Creating layer inception_10a/1x1
I0122 17:49:03.370163 67000 net.cpp:94] Creating Layer inception_10a/1x1
I0122 17:49:03.370168 67000 net.cpp:435] inception_10a/1x1 <- downsample_9/output_downsample_9/output_0_split_0
I0122 17:49:03.370173 67000 net.cpp:409] inception_10a/1x1 -> inception_10a/1x1
I0122 17:49:03.370651 67000 net.cpp:144] Setting up inception_10a/1x1
I0122 17:49:03.370657 67000 net.cpp:151] Top shape: 128 176 8 8 (1441792)
I0122 17:49:03.370661 67000 net.cpp:159] Memory required for data: 1345323520
I0122 17:49:03.370666 67000 layer_factory.hpp:77] Creating layer inception_10a/1x1/bn1
I0122 17:49:03.370673 67000 net.cpp:94] Creating Layer inception_10a/1x1/bn1
I0122 17:49:03.370676 67000 net.cpp:435] inception_10a/1x1/bn1 <- inception_10a/1x1
I0122 17:49:03.370682 67000 net.cpp:396] inception_10a/1x1/bn1 -> inception_10a/1x1 (in-place)
I0122 17:49:03.371359 67000 net.cpp:144] Setting up inception_10a/1x1/bn1
I0122 17:49:03.371377 67000 net.cpp:151] Top shape: 128 176 8 8 (1441792)
I0122 17:49:03.371381 67000 net.cpp:159] Memory required for data: 1351090688
I0122 17:49:03.371387 67000 layer_factory.hpp:77] Creating layer inception_10a/1x1/relu1
I0122 17:49:03.371394 67000 net.cpp:94] Creating Layer inception_10a/1x1/relu1
I0122 17:49:03.371398 67000 net.cpp:435] inception_10a/1x1/relu1 <- inception_10a/1x1
I0122 17:49:03.371402 67000 net.cpp:396] inception_10a/1x1/relu1 -> inception_10a/1x1 (in-place)
I0122 17:49:03.371408 67000 net.cpp:144] Setting up inception_10a/1x1/relu1
I0122 17:49:03.371412 67000 net.cpp:151] Top shape: 128 176 8 8 (1441792)
I0122 17:49:03.371415 67000 net.cpp:159] Memory required for data: 1356857856
I0122 17:49:03.371418 67000 layer_factory.hpp:77] Creating layer inception_10a/3x3
I0122 17:49:03.371428 67000 net.cpp:94] Creating Layer inception_10a/3x3
I0122 17:49:03.371433 67000 net.cpp:435] inception_10a/3x3 <- downsample_9/output_downsample_9/output_0_split_1
I0122 17:49:03.371438 67000 net.cpp:409] inception_10a/3x3 -> inception_10a/3x3
I0122 17:49:03.374640 67000 net.cpp:144] Setting up inception_10a/3x3
I0122 17:49:03.374652 67000 net.cpp:151] Top shape: 128 160 8 8 (1310720)
I0122 17:49:03.374655 67000 net.cpp:159] Memory required for data: 1362100736
I0122 17:49:03.374660 67000 layer_factory.hpp:77] Creating layer inception_10a/3x3/bn1
I0122 17:49:03.374680 67000 net.cpp:94] Creating Layer inception_10a/3x3/bn1
I0122 17:49:03.374683 67000 net.cpp:435] inception_10a/3x3/bn1 <- inception_10a/3x3
I0122 17:49:03.374691 67000 net.cpp:396] inception_10a/3x3/bn1 -> inception_10a/3x3 (in-place)
I0122 17:49:03.375377 67000 net.cpp:144] Setting up inception_10a/3x3/bn1
I0122 17:49:03.375385 67000 net.cpp:151] Top shape: 128 160 8 8 (1310720)
I0122 17:49:03.375387 67000 net.cpp:159] Memory required for data: 1367343616
I0122 17:49:03.375396 67000 layer_factory.hpp:77] Creating layer inception_10a/3x3/relu1
I0122 17:49:03.375401 67000 net.cpp:94] Creating Layer inception_10a/3x3/relu1
I0122 17:49:03.375403 67000 net.cpp:435] inception_10a/3x3/relu1 <- inception_10a/3x3
I0122 17:49:03.375409 67000 net.cpp:396] inception_10a/3x3/relu1 -> inception_10a/3x3 (in-place)
I0122 17:49:03.375416 67000 net.cpp:144] Setting up inception_10a/3x3/relu1
I0122 17:49:03.375422 67000 net.cpp:151] Top shape: 128 160 8 8 (1310720)
I0122 17:49:03.375424 67000 net.cpp:159] Memory required for data: 1372586496
I0122 17:49:03.375427 67000 layer_factory.hpp:77] Creating layer inception_10a/output
I0122 17:49:03.375432 67000 net.cpp:94] Creating Layer inception_10a/output
I0122 17:49:03.375435 67000 net.cpp:435] inception_10a/output <- inception_10a/1x1
I0122 17:49:03.375438 67000 net.cpp:435] inception_10a/output <- inception_10a/3x3
I0122 17:49:03.375443 67000 net.cpp:409] inception_10a/output -> inception_10a/output
I0122 17:49:03.375463 67000 net.cpp:144] Setting up inception_10a/output
I0122 17:49:03.375470 67000 net.cpp:151] Top shape: 128 336 8 8 (2752512)
I0122 17:49:03.375473 67000 net.cpp:159] Memory required for data: 1383596544
I0122 17:49:03.375475 67000 layer_factory.hpp:77] Creating layer inception_10a/output_inception_10a/output_0_split
I0122 17:49:03.375480 67000 net.cpp:94] Creating Layer inception_10a/output_inception_10a/output_0_split
I0122 17:49:03.375484 67000 net.cpp:435] inception_10a/output_inception_10a/output_0_split <- inception_10a/output
I0122 17:49:03.375488 67000 net.cpp:409] inception_10a/output_inception_10a/output_0_split -> inception_10a/output_inception_10a/output_0_split_0
I0122 17:49:03.375495 67000 net.cpp:409] inception_10a/output_inception_10a/output_0_split -> inception_10a/output_inception_10a/output_0_split_1
I0122 17:49:03.375524 67000 net.cpp:144] Setting up inception_10a/output_inception_10a/output_0_split
I0122 17:49:03.375530 67000 net.cpp:151] Top shape: 128 336 8 8 (2752512)
I0122 17:49:03.375533 67000 net.cpp:151] Top shape: 128 336 8 8 (2752512)
I0122 17:49:03.375535 67000 net.cpp:159] Memory required for data: 1405616640
I0122 17:49:03.375538 67000 layer_factory.hpp:77] Creating layer inception_11a/1x1
I0122 17:49:03.375548 67000 net.cpp:94] Creating Layer inception_11a/1x1
I0122 17:49:03.375553 67000 net.cpp:435] inception_11a/1x1 <- inception_10a/output_inception_10a/output_0_split_0
I0122 17:49:03.375560 67000 net.cpp:409] inception_11a/1x1 -> inception_11a/1x1
I0122 17:49:03.376128 67000 net.cpp:144] Setting up inception_11a/1x1
I0122 17:49:03.376137 67000 net.cpp:151] Top shape: 128 176 8 8 (1441792)
I0122 17:49:03.376138 67000 net.cpp:159] Memory required for data: 1411383808
I0122 17:49:03.376143 67000 layer_factory.hpp:77] Creating layer inception_11a/1x1/bn1
I0122 17:49:03.376152 67000 net.cpp:94] Creating Layer inception_11a/1x1/bn1
I0122 17:49:03.376157 67000 net.cpp:435] inception_11a/1x1/bn1 <- inception_11a/1x1
I0122 17:49:03.376164 67000 net.cpp:396] inception_11a/1x1/bn1 -> inception_11a/1x1 (in-place)
I0122 17:49:03.376845 67000 net.cpp:144] Setting up inception_11a/1x1/bn1
I0122 17:49:03.376852 67000 net.cpp:151] Top shape: 128 176 8 8 (1441792)
I0122 17:49:03.376857 67000 net.cpp:159] Memory required for data: 1417150976
I0122 17:49:03.376863 67000 layer_factory.hpp:77] Creating layer inception_11a/1x1/relu1
I0122 17:49:03.376870 67000 net.cpp:94] Creating Layer inception_11a/1x1/relu1
I0122 17:49:03.376875 67000 net.cpp:435] inception_11a/1x1/relu1 <- inception_11a/1x1
I0122 17:49:03.376888 67000 net.cpp:396] inception_11a/1x1/relu1 -> inception_11a/1x1 (in-place)
I0122 17:49:03.376894 67000 net.cpp:144] Setting up inception_11a/1x1/relu1
I0122 17:49:03.376899 67000 net.cpp:151] Top shape: 128 176 8 8 (1441792)
I0122 17:49:03.376900 67000 net.cpp:159] Memory required for data: 1422918144
I0122 17:49:03.376904 67000 layer_factory.hpp:77] Creating layer inception_11a/3x3
I0122 17:49:03.376912 67000 net.cpp:94] Creating Layer inception_11a/3x3
I0122 17:49:03.376917 67000 net.cpp:435] inception_11a/3x3 <- inception_10a/output_inception_10a/output_0_split_1
I0122 17:49:03.376924 67000 net.cpp:409] inception_11a/3x3 -> inception_11a/3x3
I0122 17:49:03.380662 67000 net.cpp:144] Setting up inception_11a/3x3
I0122 17:49:03.380674 67000 net.cpp:151] Top shape: 128 160 8 8 (1310720)
I0122 17:49:03.380676 67000 net.cpp:159] Memory required for data: 1428161024
I0122 17:49:03.380681 67000 layer_factory.hpp:77] Creating layer inception_11a/3x3/bn1
I0122 17:49:03.380707 67000 net.cpp:94] Creating Layer inception_11a/3x3/bn1
I0122 17:49:03.380709 67000 net.cpp:435] inception_11a/3x3/bn1 <- inception_11a/3x3
I0122 17:49:03.380715 67000 net.cpp:396] inception_11a/3x3/bn1 -> inception_11a/3x3 (in-place)
I0122 17:49:03.381377 67000 net.cpp:144] Setting up inception_11a/3x3/bn1
I0122 17:49:03.381386 67000 net.cpp:151] Top shape: 128 160 8 8 (1310720)
I0122 17:49:03.381389 67000 net.cpp:159] Memory required for data: 1433403904
I0122 17:49:03.381409 67000 layer_factory.hpp:77] Creating layer inception_11a/3x3/relu1
I0122 17:49:03.381415 67000 net.cpp:94] Creating Layer inception_11a/3x3/relu1
I0122 17:49:03.381419 67000 net.cpp:435] inception_11a/3x3/relu1 <- inception_11a/3x3
I0122 17:49:03.381424 67000 net.cpp:396] inception_11a/3x3/relu1 -> inception_11a/3x3 (in-place)
I0122 17:49:03.381430 67000 net.cpp:144] Setting up inception_11a/3x3/relu1
I0122 17:49:03.381434 67000 net.cpp:151] Top shape: 128 160 8 8 (1310720)
I0122 17:49:03.381438 67000 net.cpp:159] Memory required for data: 1438646784
I0122 17:49:03.381440 67000 layer_factory.hpp:77] Creating layer inception_11a/output
I0122 17:49:03.381444 67000 net.cpp:94] Creating Layer inception_11a/output
I0122 17:49:03.381448 67000 net.cpp:435] inception_11a/output <- inception_11a/1x1
I0122 17:49:03.381453 67000 net.cpp:435] inception_11a/output <- inception_11a/3x3
I0122 17:49:03.381458 67000 net.cpp:409] inception_11a/output -> inception_11a/output
I0122 17:49:03.381479 67000 net.cpp:144] Setting up inception_11a/output
I0122 17:49:03.381484 67000 net.cpp:151] Top shape: 128 336 8 8 (2752512)
I0122 17:49:03.381487 67000 net.cpp:159] Memory required for data: 1449656832
I0122 17:49:03.381489 67000 layer_factory.hpp:77] Creating layer avg_pool_12/8x8_s1
I0122 17:49:03.381495 67000 net.cpp:94] Creating Layer avg_pool_12/8x8_s1
I0122 17:49:03.381498 67000 net.cpp:435] avg_pool_12/8x8_s1 <- inception_11a/output
I0122 17:49:03.381505 67000 net.cpp:409] avg_pool_12/8x8_s1 -> avg_pool_12/8x8_s1
I0122 17:49:03.381530 67000 net.cpp:144] Setting up avg_pool_12/8x8_s1
I0122 17:49:03.381534 67000 net.cpp:151] Top shape: 128 336 1 1 (43008)
I0122 17:49:03.381537 67000 net.cpp:159] Memory required for data: 1449828864
I0122 17:49:03.381541 67000 layer_factory.hpp:77] Creating layer drop_8x8_s1
I0122 17:49:03.381546 67000 net.cpp:94] Creating Layer drop_8x8_s1
I0122 17:49:03.381548 67000 net.cpp:435] drop_8x8_s1 <- avg_pool_12/8x8_s1
I0122 17:49:03.381553 67000 net.cpp:396] drop_8x8_s1 -> avg_pool_12/8x8_s1 (in-place)
I0122 17:49:03.381572 67000 net.cpp:144] Setting up drop_8x8_s1
I0122 17:49:03.381577 67000 net.cpp:151] Top shape: 128 336 1 1 (43008)
I0122 17:49:03.381580 67000 net.cpp:159] Memory required for data: 1450000896
I0122 17:49:03.381582 67000 layer_factory.hpp:77] Creating layer loss/classifier
I0122 17:49:03.381589 67000 net.cpp:94] Creating Layer loss/classifier
I0122 17:49:03.381592 67000 net.cpp:435] loss/classifier <- avg_pool_12/8x8_s1
I0122 17:49:03.381598 67000 net.cpp:409] loss/classifier -> loss/classifier
I0122 17:49:03.381738 67000 net.cpp:144] Setting up loss/classifier
I0122 17:49:03.381754 67000 net.cpp:151] Top shape: 128 10 (1280)
I0122 17:49:03.381757 67000 net.cpp:159] Memory required for data: 1450006016
I0122 17:49:03.381762 67000 layer_factory.hpp:77] Creating layer loss
I0122 17:49:03.381768 67000 net.cpp:94] Creating Layer loss
I0122 17:49:03.381774 67000 net.cpp:435] loss <- loss/classifier
I0122 17:49:03.381778 67000 net.cpp:435] loss <- label
I0122 17:49:03.381783 67000 net.cpp:409] loss -> loss
I0122 17:49:03.381789 67000 layer_factory.hpp:77] Creating layer loss
…
I0122 17:49:03.383193 67000 solver.cpp:189] Creating test net (#0) specified by net file: cifar10/deephi/miniGoogleNet/pruning/regular_rate_0.1/net_finetune.prototxt
I0122 17:49:03.383277 67000 net.cpp:323] The NetState phase (1) differed from the phase (0) specified by a rule in layer data
I0122 17:49:03.383927 67000 net.cpp:52] Initializing net from parameters: 
state {
  phase: TEST
}
layer {
  name: "data"
  type: "Data"
  top: "data"
  top: "label"
  include {
    phase: TEST
  }
  transform_param {
    mirror: false
    mean_value: 104
    mean_value: 117
    mean_value: 123
  }
  data_param {
    source: "cifar10/input/lmdb/valid_lmdb"
    batch_size: 50
    backend: LMDB
  }
}
layer {
  name: "conv1/3x3_s1"
  type: "Convolution"
  bottom: "data"
  top: "conv1/3x3_s1"
  param {
    lr_mult: 1
    decay_mult: 1
    compression: PRUNE
  }
  param {
    lr_mult: 2
    decay_mult: 0
    compression: PRUNE
  }
  convolution_param {
    num_output: 96
    pad: 1
    kernel_size: 3
    stride: 1
    weight_filler {
      type: "xavier"
      std: 0.1
    }
    bias_filler {
      type: "constant"
      value: 0.2
    }
  }
}
layer {
  name: "conv1/bn1"
  type: "BatchNorm"
  bottom: "conv1/3x3_s1"
  top: "conv1/3x3_s1"
  param {
    lr_mult: 1
    decay_mult: 0
    compression: PRUNE
  }
  param {
    lr_mult: 1
    decay_mult: 0
    compression: PRUNE
  }
  param {
    lr_mult: 0
    decay_mult: 0
    compression: PRUNE
  }
  param {
    lr_mult: 0
    decay_mult: 0
    compression: PRUNE
  }
  batch_norm_param {
    use_global_stats: false
    scale_filler {
      type: "constant"
      value: 1
    }
    bias_filler {
      type: "constant"
      value: 0
    }
  }
}
layer {
  name: "conv1/relu1"
  type: "ReLU"
  bottom: "conv1/3x3_s1"
  top: "conv1/3x3_s1"
}
layer {
  name: "inception_2a/1x1"
  type: "Convolution"
  bottom: "conv1/3x3_s1"
  top: "inception_2a/1x1"
  param {
    lr_mult: 1
    decay_mult: 1
    compression: PRUNE
  }
  param {
    lr_mult: 2
    decay_mult: 0
    compression: PRUNE
  }
  convolution_param {
    num_output: 32
    kernel_size: 1
    weight_filler {
      type: "xavier"
      std: 0.03
    }
    bias_filler {
      type: "constant"
      value: 0.2
    }
  }
}
layer {
  name: "inception_2a/1x1/bn1"
  type: "BatchNorm"
  bottom: "inception_2a/1x1"
  top: "inception_2a/1x1"
  param {
    lr_mult: 1
    decay_mult: 0
    compression: PRUNE
  }
  param {
    lr_mult: 1
    decay_mult: 0
    compression: PRUNE
  }
  param {
    lr_mult: 0
    decay_mult: 0
    compression: PRUNE
  }
  param {
    lr_mult: 0
    decay_mult: 0
    compression: PRUNE
  }
  batch_norm_param {
    use_global_stats: false
    scale_filler {
      type: "constant"
      value: 1
    }
    bias_filler {
      type: "constant"
      value: 0
    }
  }
}
layer {
  name: "inception_2a/1x1/relu1"
  type: "ReLU"
  bottom: "inception_2a/1x1"
  top: "inception_2a/1x1"
}
layer {
  name: "inception_2a/3x3"
  type: "Convolution"
  bottom: "conv1/3x3_s1"
  top: "inception_2a/3x3"
  param {
    lr_mult: 1
    decay_mult: 1
    compression: PRUNE
  }
  param {
    lr_mult: 2
    decay_mult: 0
    compression: PRUNE
  }
  convolution_param {
    num_output: 32
    pad: 1
    kernel_size: 3
    weight_filler {
      type: "xavier"
      std: 0.03
    }
    bias_filler {
      type: "constant"
      value: 0.2
    }
  }
}
layer {
  name: "inception_2a/3x3/bn1"
  type: "BatchNorm"
  bottom: "inception_2a/3x3"
  top: "inception_2a/3x3"
  param {
    lr_mult: 1
    decay_mult: 0
    compression: PRUNE
  }
  param {
    lr_mult: 1
    decay_mult: 0
    compression: PRUNE
  }
  param {
    lr_mult: 0
    decay_mult: 0
    compression: PRUNE
  }
  param {
    lr_mult: 0
    decay_mult: 0
    compression: PRUNE
  }
  batch_norm_param {
    use_global_stats: false
    scale_filler {
      type: "constant"
      value: 1
    }
    bias_filler {
      type: "constant"
      value: 0
    }
  }
}
layer {
  name: "inception_2a/3x3/relu1"
  type: "ReLU"
  bottom: "inception_2a/3x3"
  top: "inception_2a/3x3"
}
layer {
  name: "inception_2a/output"
  type: "Concat"
  bottom: "inception_2a/1x1"
  bottom: "inception_2a/3x3"
  top: "inception_2a/output"
}
layer {
  name: "inception_3a/1x1"
  type: "Convolution"
  bottom: "inception_2a/output"
  top: "inception_3a/1x1"
  param {
    lr_mult: 1
    decay_mult: 1
    compression: PRUNE
  }
  param {
    lr_mult: 2
    decay_mult: 0
    compression: PRUNE
  }
  convolution_param {
    num_output: 32
    kernel_size: 1
    weight_filler {
      type: "xavier"
      std: 0.03
    }
    bias_filler {
      type: "constant"
      value: 0.2
    }
  }
}
layer {
  name: "inception_3a/1x1/bn1"
  type: "BatchNorm"
  bottom: "inception_3a/1x1"
  top: "inception_3a/1x1"
  param {
    lr_mult: 1
    decay_mult: 0
    compression: PRUNE
  }
  param {
    lr_mult: 1
    decay_mult: 0
    compression: PRUNE
  }
  param {
    lr_mult: 0
    decay_mult: 0
    compression: PRUNE
  }
  param {
    lr_mult: 0
    decay_mult: 0
    compression: PRUNE
  }
  batch_norm_param {
    use_global_stats: false
    scale_filler {
      type: "constant"
      value: 1
    }
    bias_filler {
      type: "constant"
      value: 0
    }
  }
}
layer {
  name: "inception_3a/1x1/relu1"
  type: "ReLU"
  bottom: "inception_3a/1x1"
  top: "inception_3a/1x1"
}
layer {
  name: "inception_3a/3x3"
  type: "Convolution"
  bottom: "inception_2a/output"
  top: "inception_3a/3x3"
  param {
    lr_mult: 1
    decay_mult: 1
    compression: PRUNE
  }
  param {
    lr_mult: 2
    decay_mult: 0
    compression: PRUNE
  }
  convolution_param {
    num_output: 48
    pad: 1
    kernel_size: 3
    weight_filler {
      type: "xavier"
      std: 0.03
    }
    bias_filler {
      type: "constant"
      value: 0.2
    }
  }
}
layer {
  name: "inception_3a/3x3/bn1"
  type: "BatchNorm"
  bottom: "inception_3a/3x3"
  top: "inception_3a/3x3"
  param {
    lr_mult: 1
    decay_mult: 0
    compression: PRUNE
  }
  param {
    lr_mult: 1
    decay_mult: 0
    compression: PRUNE
  }
  param {
    lr_mult: 0
    decay_mult: 0
    compression: PRUNE
  }
  param {
    lr_mult: 0
    decay_mult: 0
    compression: PRUNE
  }
  batch_norm_param {
    use_global_stats: false
    scale_filler {
      type: "constant"
      value: 1
    }
    bias_filler {
      type: "constant"
      value: 0
    }
  }
}
layer {
  name: "inception_3a/3x3/relu1"
  type: "ReLU"
  bottom: "inception_3a/3x3"
  top: "inception_3a/3x3"
}
layer {
  name: "inception_3a/output"
  type: "Concat"
  bottom: "inception_3a/1x1"
  bottom: "inception_3a/3x3"
  top: "inception_3a/output"
}
layer {
  name: "downsample_4/3x3_s2"
  type: "Convolution"
  bottom: "inception_3a/output"
  top: "downsample_4/3x3_s2"
  param {
    lr_mult: 1
    decay_mult: 1
    compression: PRUNE
  }
  param {
    lr_mult: 2
    decay_mult: 0
    compression: PRUNE
  }
  convolution_param {
    num_output: 80
    pad: 1
    kernel_size: 3
    stride: 2
    weight_filler {
      type: "xavier"
      std: 0.03
    }
    bias_filler {
      type: "constant"
      value: 0.2
    }
  }
}
layer {
  name: "downsample_4/3x3_s2/bn1"
  type: "BatchNorm"
  bottom: "downsample_4/3x3_s2"
  top: "downsample_4/3x3_s2"
  param {
    lr_mult: 1
    decay_mult: 0
    compression: PRUNE
  }
  param {
    lr_mult: 1
    decay_mult: 0
    compression: PRUNE
  }
  param {
    lr_mult: 0
    decay_mult: 0
    compression: PRUNE
  }
  param {
    lr_mult: 0
    decay_mult: 0
    compression: PRUNE
  }
  batch_norm_param {
    use_global_stats: false
    scale_filler {
      type: "constant"
      value: 1
    }
    bias_filler {
      type: "constant"
      value: 0
    }
  }
}
layer {
  name: "downsample_4/3x3_s2/relu1"
  type: "ReLU"
  bottom: "downsample_4/3x3_s2"
  top: "downsample_4/3x3_s2"
}
layer {
  name: "downsample_4/pool_s2"
  type: "Pooling"
  bottom: "inception_3a/output"
  top: "downsample_4/pool_s2"
  pooling_param {
    pool: MAX
    kernel_size: 3
    stride: 2
  }
}
layer {
  name: "downsample_4/output"
  type: "Concat"
  bottom: "downsample_4/3x3_s2"
  bottom: "downsample_4/pool_s2"
  top: "downsample_4/output"
}
layer {
  name: "inception_5a/1x1"
  type: "Convolution"
  bottom: "downsample_4/output"
  top: "inception_5a/1x1"
  param {
    lr_mult: 1
    decay_mult: 1
    compression: PRUNE
  }
  param {
    lr_mult: 2
    decay_mult: 0
    compression: PRUNE
  }
  convolution_param {
    num_output: 112
    kernel_size: 1
    weight_filler {
      type: "xavier"
      std: 0.03
    }
    bias_filler {
      type: "constant"
      value: 0.2
    }
  }
}
layer {
  name: "inception_5a/1x1/bn1"
  type: "BatchNorm"
  bottom: "inception_5a/1x1"
  top: "inception_5a/1x1"
  param {
    lr_mult: 1
    decay_mult: 0
    compression: PRUNE
  }
  param {
    lr_mult: 1
    decay_mult: 0
    compression: PRUNE
  }
  param {
    lr_mult: 0
    decay_mult: 0
    compression: PRUNE
  }
  param {
    lr_mult: 0
    decay_mult: 0
    compression: PRUNE
  }
  batch_norm_param {
    use_global_stats: false
    scale_filler {
      type: "constant"
      value: 1
    }
    bias_filler {
      type: "constant"
      value: 0
    }
  }
}
layer {
  name: "inception_5a/1x1/relu1"
  type: "ReLU"
  bottom: "inception_5a/1x1"
  top: "inception_5a/1x1"
}
layer {
  name: "inception_5a/3x3"
  type: "Convolution"
  bottom: "downsample_4/output"
  top: "inception_5a/3x3"
  param {
    lr_mult: 1
    decay_mult: 1
    compression: PRUNE
  }
  param {
    lr_mult: 2
    decay_mult: 0
    compression: PRUNE
  }
  convolution_param {
    num_output: 48
    pad: 1
    kernel_size: 3
    weight_filler {
      type: "xavier"
      std: 0.03
    }
    bias_filler {
      type: "constant"
      value: 0.2
    }
  }
}
layer {
  name: "inception_5a/3x3/bn1"
  type: "BatchNorm"
  bottom: "inception_5a/3x3"
  top: "inception_5a/3x3"
  param {
    lr_mult: 1
    decay_mult: 0
    compression: PRUNE
  }
  param {
    lr_mult: 1
    decay_mult: 0
    compression: PRUNE
  }
  param {
    lr_mult: 0
    decay_mult: 0
    compression: PRUNE
  }
  param {
    lr_mult: 0
    decay_mult: 0
    compression: PRUNE
  }
  batch_norm_param {
    use_global_stats: false
    scale_filler {
      type: "constant"
      value: 1
    }
    bias_filler {
      type: "constant"
      value: 0
    }
  }
}
layer {
  name: "inception_5a/3x3/relu1"
  type: "ReLU"
  bottom: "inception_5a/3x3"
  top: "inception_5a/3x3"
}
layer {
  name: "inception_5a/output"
  type: "Concat"
  bottom: "inception_5a/1x1"
  bottom: "inception_5a/3x3"
  top: "inception_5a/output"
}
layer {
  name: "inception_6a/1x1"
  type: "Convolution"
  bottom: "inception_5a/output"
  top: "inception_6a/1x1"
  param {
    lr_mult: 1
    decay_mult: 1
    compression: PRUNE
  }
  param {
    lr_mult: 2
    decay_mult: 0
    compression: PRUNE
  }
  convolution_param {
    num_output: 96
    kernel_size: 1
    weight_filler {
      type: "xavier"
      std: 0.03
    }
    bias_filler {
      type: "constant"
      value: 0.2
    }
  }
}
layer {
  name: "inception_6a/1x1/bn1"
  type: "BatchNorm"
  bottom: "inception_6a/1x1"
  top: "inception_6a/1x1"
  param {
    lr_mult: 1
    decay_mult: 0
    compression: PRUNE
  }
  param {
    lr_mult: 1
    decay_mult: 0
    compression: PRUNE
  }
  param {
    lr_mult: 0
    decay_mult: 0
    compression: PRUNE
  }
  param {
    lr_mult: 0
    decay_mult: 0
    compression: PRUNE
  }
  batch_norm_param {
    use_global_stats: false
    scale_filler {
      type: "constant"
      value: 1
    }
    bias_filler {
      type: "constant"
      value: 0
    }
  }
}
layer {
  name: "inception_6a/1x1/relu1"
  type: "ReLU"
  bottom: "inception_6a/1x1"
  top: "inception_6a/1x1"
}
layer {
  name: "inception_6a/3x3"
  type: "Convolution"
  bottom: "inception_5a/output"
  top: "inception_6a/3x3"
  param {
    lr_mult: 1
    decay_mult: 1
    compression: PRUNE
  }
  param {
    lr_mult: 2
    decay_mult: 0
    compression: PRUNE
  }
  convolution_param {
    num_output: 64
    pad: 1
    kernel_size: 3
    weight_filler {
      type: "xavier"
      std: 0.03
    }
    bias_filler {
      type: "constant"
      value: 0.2
    }
  }
}
layer {
  name: "inception_6a/3x3/bn1"
  type: "BatchNorm"
  bottom: "inception_6a/3x3"
  top: "inception_6a/3x3"
  param {
    lr_mult: 1
    decay_mult: 0
    compression: PRUNE
  }
  param {
    lr_mult: 1
    decay_mult: 0
    compression: PRUNE
  }
  param {
    lr_mult: 0
    decay_mult: 0
    compression: PRUNE
  }
  param {
    lr_mult: 0
    decay_mult: 0
    compression: PRUNE
  }
  batch_norm_param {
    use_global_stats: false
    scale_filler {
      type: "constant"
      value: 1
    }
    bias_filler {
      type: "constant"
      value: 0
    }
  }
}
layer {
  name: "inception_6a/3x3/relu1"
  type: "ReLU"
  bottom: "inception_6a/3x3"
  top: "inception_6a/3x3"
}
layer {
  name: "inception_6a/output"
  type: "Concat"
  bottom: "inception_6a/1x1"
  bottom: "inception_6a/3x3"
  top: "inception_6a/output"
}
layer {
  name: "inception_7a/1x1"
  type: "Convolution"
  bottom: "inception_6a/output"
  top: "inception_7a/1x1"
  param {
    lr_mult: 1
    decay_mult: 1
    compression: PRUNE
  }
  param {
    lr_mult: 2
    decay_mult: 0
    compression: PRUNE
  }
  convolution_param {
    num_output: 80
    kernel_size: 1
    weight_filler {
      type: "xavier"
      std: 0.03
    }
    bias_filler {
      type: "constant"
      value: 0.2
    }
  }
}
layer {
  name: "inception_7a/1x1/bn1"
  type: "BatchNorm"
  bottom: "inception_7a/1x1"
  top: "inception_7a/1x1"
  param {
    lr_mult: 1
    decay_mult: 0
    compression: PRUNE
  }
  param {
    lr_mult: 1
    decay_mult: 0
    compression: PRUNE
  }
  param {
    lr_mult: 0
    decay_mult: 0
    compression: PRUNE
  }
  param {
    lr_mult: 0
    decay_mult: 0
    compression: PRUNE
  }
  batch_norm_param {
    use_global_stats: false
    scale_filler {
      type: "constant"
      value: 1
    }
    bias_filler {
      type: "constant"
      value: 0
    }
  }
}
layer {
  name: "inception_7a/1x1/relu1"
  type: "ReLU"
  bottom: "inception_7a/1x1"
  top: "inception_7a/1x1"
}
layer {
  name: "inception_7a/3x3"
  type: "Convolution"
  bottom: "inception_6a/output"
  top: "inception_7a/3x3"
  param {
    lr_mult: 1
    decay_mult: 1
    compression: PRUNE
  }
  param {
    lr_mult: 2
    decay_mult: 0
    compression: PRUNE
  }
  convolution_param {
    num_output: 80
    pad: 1
    kernel_size: 3
    weight_filler {
      type: "xavier"
      std: 0.03
    }
    bias_filler {
      type: "constant"
      value: 0.2
    }
  }
}
layer {
  name: "inception_7a/3x3/bn1"
  type: "BatchNorm"
  bottom: "inception_7a/3x3"
  top: "inception_7a/3x3"
  param {
    lr_mult: 1
    decay_mult: 0
    compression: PRUNE
  }
  param {
    lr_mult: 1
    decay_mult: 0
    compression: PRUNE
  }
  param {
    lr_mult: 0
    decay_mult: 0
    compression: PRUNE
  }
  param {
    lr_mult: 0
    decay_mult: 0
    compression: PRUNE
  }
  batch_norm_param {
    use_global_stats: false
    scale_filler {
      type: "constant"
      value: 1
    }
    bias_filler {
      type: "constant"
      value: 0
    }
  }
}
layer {
  name: "inception_7a/3x3/relu1"
  type: "ReLU"
  bottom: "inception_7a/3x3"
  top: "inception_7a/3x3"
}
layer {
  name: "inception_7a/output"
  type: "Concat"
  bottom: "inception_7a/1x1"
  bottom: "inception_7a/3x3"
  top: "inception_7a/output"
}
layer {
  name: "inception_8a/1x1"
  type: "Convolution"
  bottom: "inception_7a/output"
  top: "inception_8a/1x1"
  param {
    lr_mult: 1
    decay_mult: 1
    compression: PRUNE
  }
  param {
    lr_mult: 2
    decay_mult: 0
    compression: PRUNE
  }
  convolution_param {
    num_output: 48
    kernel_size: 1
    weight_filler {
      type: "xavier"
      std: 0.03
    }
    bias_filler {
      type: "constant"
      value: 0.2
    }
  }
}
layer {
  name: "inception_8a/1x1/bn1"
  type: "BatchNorm"
  bottom: "inception_8a/1x1"
  top: "inception_8a/1x1"
  param {
    lr_mult: 1
    decay_mult: 0
    compression: PRUNE
  }
  param {
    lr_mult: 1
    decay_mult: 0
    compression: PRUNE
  }
  param {
    lr_mult: 0
    decay_mult: 0
    compression: PRUNE
  }
  param {
    lr_mult: 0
    decay_mult: 0
    compression: PRUNE
  }
  batch_norm_param {
    use_global_stats: false
    scale_filler {
      type: "constant"
      value: 1
    }
    bias_filler {
      type: "constant"
      value: 0
    }
  }
}
layer {
  name: "inception_8a/1x1/relu1"
  type: "ReLU"
  bottom: "inception_8a/1x1"
  top: "inception_8a/1x1"
}
layer {
  name: "inception_8a/3x3"
  type: "Convolution"
  bottom: "inception_7a/output"
  top: "inception_8a/3x3"
  param {
    lr_mult: 1
    decay_mult: 1
    compression: PRUNE
  }
  param {
    lr_mult: 2
    decay_mult: 0
    compression: PRUNE
  }
  convolution_param {
    num_output: 96
    pad: 1
    kernel_size: 3
    weight_filler {
      type: "xavier"
      std: 0.03
    }
    bias_filler {
      type: "constant"
      value: 0.2
    }
  }
}
layer {
  name: "inception_8a/3x3/bn1"
  type: "BatchNorm"
  bottom: "inception_8a/3x3"
  top: "inception_8a/3x3"
  param {
    lr_mult: 1
    decay_mult: 0
    compression: PRUNE
  }
  param {
    lr_mult: 1
    decay_mult: 0
    compression: PRUNE
  }
  param {
    lr_mult: 0
    decay_mult: 0
    compression: PRUNE
  }
  param {
    lr_mult: 0
    decay_mult: 0
    compression: PRUNE
  }
  batch_norm_param {
    use_global_stats: false
    scale_filler {
      type: "constant"
      value: 1
    }
    bias_filler {
      type: "constant"
      value: 0
    }
  }
}
layer {
  name: "inception_8a/3x3/relu1"
  type: "ReLU"
  bottom: "inception_8a/3x3"
  top: "inception_8a/3x3"
}
layer {
  name: "inception_8a/output"
  type: "Concat"
  bottom: "inception_8a/1x1"
  bottom: "inception_8a/3x3"
  top: "inception_8a/output"
}
layer {
  name: "downsample_9/3x3_s2"
  type: "Convolution"
  bottom: "inception_8a/output"
  top: "downsample_9/3x3_s2"
  param {
    lr_mult: 1
    decay_mult: 1
    compression: PRUNE
  }
  param {
    lr_mult: 2
    decay_mult: 0
    compression: PRUNE
  }
  convolution_param {
    num_output: 96
    pad: 1
    kernel_size: 3
    stride: 2
    weight_filler {
      type: "xavier"
      std: 0.03
    }
    bias_filler {
      type: "constant"
      value: 0.2
    }
  }
}
layer {
  name: "downsample_9/3x3_s2/bn1"
  type: "BatchNorm"
  bottom: "downsample_9/3x3_s2"
  top: "downsample_9/3x3_s2"
  param {
    lr_mult: 1
    decay_mult: 0
    compression: PRUNE
  }
  param {
    lr_mult: 1
    decay_mult: 0
    compression: PRUNE
  }
  param {
    lr_mult: 0
    decay_mult: 0
    compression: PRUNE
  }
  param {
    lr_mult: 0
    decay_mult: 0
    compression: PRUNE
  }
  batch_norm_param {
    use_global_stats: false
    scale_filler {
      type: "constant"
      value: 1
    }
    bias_filler {
      type: "constant"
      value: 0
    }
  }
}
layer {
  name: "downsample_9/3x3_s2/relu1"
  type: "ReLU"
  bottom: "downsample_9/3x3_s2"
  top: "downsample_9/3x3_s2"
}
layer {
  name: "downsample_9/pool_s2"
  type: "Pooling"
  bottom: "inception_8a/output"
  top: "downsample_9/pool_s2"
  pooling_param {
    pool: MAX
    kernel_size: 3
    stride: 2
  }
}
layer {
  name: "downsample_9/output"
  type: "Concat"
  bottom: "downsample_9/3x3_s2"
  bottom: "downsample_9/pool_s2"
  top: "downsample_9/output"
}
layer {
  name: "inception_10a/1x1"
  type: "Convolution"
  bottom: "downsample_9/output"
  top: "inception_10a/1x1"
  param {
    lr_mult: 1
    decay_mult: 1
    compression: PRUNE
  }
  param {
    lr_mult: 2
    decay_mult: 0
    compression: PRUNE
  }
  convolution_param {
    num_output: 176
    kernel_size: 1
    weight_filler {
      type: "xavier"
      std: 0.03
    }
    bias_filler {
      type: "constant"
      value: 0.2
    }
  }
}
layer {
  name: "inception_10a/1x1/bn1"
  type: "BatchNorm"
  bottom: "inception_10a/1x1"
  top: "inception_10a/1x1"
  param {
    lr_mult: 1
    decay_mult: 0
    compression: PRUNE
  }
  param {
    lr_mult: 1
    decay_mult: 0
    compression: PRUNE
  }
  param {
    lr_mult: 0
    decay_mult: 0
    compression: PRUNE
  }
  param {
    lr_mult: 0
    decay_mult: 0
    compression: PRUNE
  }
  batch_norm_param {
    use_global_stats: false
    scale_filler {
      type: "constant"
      value: 1
    }
    bias_filler {
      type: "constant"
      value: 0
    }
  }
}
layer {
  name: "inception_10a/1x1/relu1"
  type: "ReLU"
  bottom: "inception_10a/1x1"
  top: "inception_10a/1x1"
}
layer {
  name: "inception_10a/3x3"
  type: "Convolution"
  bottom: "downsample_9/output"
  top: "inception_10a/3x3"
  param {
    lr_mult: 1
    decay_mult: 1
    compression: PRUNE
  }
  param {
    lr_mult: 2
    decay_mult: 0
    compression: PRUNE
  }
  convolution_param {
    num_output: 160
    pad: 1
    kernel_size: 3
    weight_filler {
      type: "xavier"
      std: 0.03
    }
    bias_filler {
      type: "constant"
      value: 0.2
    }
  }
}
layer {
  name: "inception_10a/3x3/bn1"
  type: "BatchNorm"
  bottom: "inception_10a/3x3"
  top: "inception_10a/3x3"
  param {
    lr_mult: 1
    decay_mult: 0
    compression: PRUNE
  }
  param {
    lr_mult: 1
    decay_mult: 0
    compression: PRUNE
  }
  param {
    lr_mult: 0
    decay_mult: 0
    compression: PRUNE
  }
  param {
    lr_mult: 0
    decay_mult: 0
    compression: PRUNE
  }
  batch_norm_param {
    use_global_stats: false
    scale_filler {
      type: "constant"
      value: 1
    }
    bias_filler {
      type: "constant"
      value: 0
    }
  }
}
layer {
  name: "inception_10a/3x3/relu1"
  type: "ReLU"
  bottom: "inception_10a/3x3"
  top: "inception_10a/3x3"
}
layer {
  name: "inception_10a/output"
  type: "Concat"
  bottom: "inception_10a/1x1"
  bottom: "inception_10a/3x3"
  top: "inception_10a/output"
}
layer {
  name: "inception_11a/1x1"
  type: "Convolution"
  bottom: "inception_10a/output"
  top: "inception_11a/1x1"
  param {
    lr_mult: 1
    decay_mult: 1
    compression: PRUNE
  }
  param {
    lr_mult: 2
    decay_mult: 0
    compression: PRUNE
  }
  convolution_param {
    num_output: 176
    kernel_size: 1
    weight_filler {
      type: "xavier"
      std: 0.03
    }
    bias_filler {
      type: "constant"
      value: 0.2
    }
  }
}
layer {
  name: "inception_11a/1x1/bn1"
  type: "BatchNorm"
  bottom: "inception_11a/1x1"
  top: "inception_11a/1x1"
  param {
    lr_mult: 1
    decay_mult: 0
    compression: PRUNE
  }
  param {
    lr_mult: 1
    decay_mult: 0
    compression: PRUNE
  }
  param {
    lr_mult: 0
    decay_mult: 0
    compression: PRUNE
  }
  param {
    lr_mult: 0
    decay_mult: 0
    compression: PRUNE
  }
  batch_norm_param {
    use_global_stats: false
    scale_filler {
      type: "constant"
      value: 1
    }
    bias_filler {
      type: "constant"
      value: 0
    }
  }
}
layer {
  name: "inception_11a/1x1/relu1"
  type: "ReLU"
  bottom: "inception_11a/1x1"
  top: "inception_11a/1x1"
}
layer {
  name: "inception_11a/3x3"
  type: "Convolution"
  bottom: "inception_10a/output"
  top: "inception_11a/3x3"
  param {
    lr_mult: 1
    decay_mult: 1
    compression: PRUNE
  }
  param {
    lr_mult: 2
    decay_mult: 0
    compression: PRUNE
  }
  convolution_param {
    num_output: 160
    pad: 1
    kernel_size: 3
    weight_filler {
      type: "xavier"
      std: 0.03
    }
    bias_filler {
      type: "constant"
      value: 0.2
    }
  }
}
layer {
  name: "inception_11a/3x3/bn1"
  type: "BatchNorm"
  bottom: "inception_11a/3x3"
  top: "inception_11a/3x3"
  param {
    lr_mult: 1
    decay_mult: 0
    compression: PRUNE
  }
  param {
    lr_mult: 1
    decay_mult: 0
    compression: PRUNE
  }
  param {
    lr_mult: 0
    decay_mult: 0
    compression: PRUNE
  }
  param {
    lr_mult: 0
    decay_mult: 0
    compression: PRUNE
  }
  batch_norm_param {
    use_global_stats: false
    scale_filler {
      type: "constant"
      value: 1
    }
    bias_filler {
      type: "constant"
      value: 0
    }
  }
}
layer {
  name: "inception_11a/3x3/relu1"
  type: "ReLU"
  bottom: "inception_11a/3x3"
  top: "inception_11a/3x3"
}
layer {
  name: "inception_11a/output"
  type: "Concat"
  bottom: "inception_11a/1x1"
  bottom: "inception_11a/3x3"
  top: "inception_11a/output"
}
layer {
  name: "avg_pool_12/8x8_s1"
  type: "Pooling"
  bottom: "inception_11a/output"
  top: "avg_pool_12/8x8_s1"
  pooling_param {
    pool: AVE
    kernel_size: 8
    stride: 1
  }
}
layer {
  name: "drop_8x8_s1"
  type: "Dropout"
  bottom: "avg_pool_12/8x8_s1"
  top: "avg_pool_12/8x8_s1"
  dropout_param {
    dropout_ratio: 0.5
  }
}
layer {
  name: "loss/classifier"
  type: "InnerProduct"
  bottom: "avg_pool_12/8x8_s1"
  top: "loss/classifier"
  param {
    lr_mult: 1
    decay_mult: 1
  }
  param {
    lr_mult: 2
    decay_mult: 0
  }
  inner_product_param {
    num_output: 10
    weight_filler {
      type: "xavier"
    }
    bias_filler {
      type: "constant"
      value: 1
    }
  }
}
layer {
  name: "loss"
  type: "SoftmaxWithLoss"
  bottom: "loss/classifier"
  bottom: "label"
  top: "loss"
}
layer {
  name: "accuracy"
  type: "Accuracy"
  bottom: "loss/classifier"
  bottom: "label"
  top: "accuracy"
  include {
    phase: TEST
  }
}
layer {
  name: "accuracy-top1"
  type: "Accuracy"
  bottom: "loss/classifier"
  bottom: "label"
  top: "top-1"
  include {
    phase: TEST
  }
}
layer {
  name: "accuracy-top5"
  type: "Accuracy"
  bottom: "loss/classifier"
  bottom: "label"
  top: "top-5"
  include {
    phase: TEST
  }
  accuracy_param {
    top_k: 5
  }
}
I0122 17:49:03.384249 67000 layer_factory.hpp:77] Creating layer data
I0122 17:49:03.384290 67000 internal_thread.cpp:27] Starting internal thread(s) on GPU 0
I0122 17:49:03.385013 67000 net.cpp:94] Creating Layer data
I0122 17:49:03.385023 67000 net.cpp:409] data -> data
I0122 17:49:03.385031 67000 net.cpp:409] data -> label
I0122 17:49:03.386175 67069 db_lmdb.cpp:35] Opened lmdb cifar10/input/lmdb/valid_lmdb
I0122 17:49:03.386209 67069 data_reader.cpp:117] TEST: reading data using 1 channel(s)
I0122 17:49:03.386294 67000 data_layer.cpp:78] ReshapePrefetch 50, 3, 32, 32
I0122 17:49:03.386380 67000 data_layer.cpp:83] output data size: 50,3,32,32
I0122 17:49:03.389449 67000 internal_thread.cpp:27] Starting internal thread(s) on GPU 0
I0122 17:49:03.389505 67000 net.cpp:144] Setting up data
I0122 17:49:03.389513 67000 net.cpp:151] Top shape: 50 3 32 32 (153600)
I0122 17:49:03.389518 67000 net.cpp:151] Top shape: 50 (50)
I0122 17:49:03.389519 67000 net.cpp:159] Memory required for data: 614600
I0122 17:49:03.389523 67000 layer_factory.hpp:77] Creating layer label_data_1_split
I0122 17:49:03.389552 67000 net.cpp:94] Creating Layer label_data_1_split
I0122 17:49:03.389559 67000 net.cpp:435] label_data_1_split <- label
I0122 17:49:03.389566 67000 net.cpp:409] label_data_1_split -> label_data_1_split_0
I0122 17:49:03.389575 67000 net.cpp:409] label_data_1_split -> label_data_1_split_1
I0122 17:49:03.389582 67000 net.cpp:409] label_data_1_split -> label_data_1_split_2
I0122 17:49:03.389588 67000 net.cpp:409] label_data_1_split -> label_data_1_split_3
I0122 17:49:03.389701 67000 net.cpp:144] Setting up label_data_1_split
I0122 17:49:03.389708 67000 net.cpp:151] Top shape: 50 (50)
I0122 17:49:03.389711 67000 net.cpp:151] Top shape: 50 (50)
I0122 17:49:03.389715 67000 net.cpp:151] Top shape: 50 (50)
I0122 17:49:03.389719 67000 net.cpp:151] Top shape: 50 (50)
I0122 17:49:03.389720 67000 net.cpp:159] Memory required for data: 615400
I0122 17:49:03.389724 67000 layer_factory.hpp:77] Creating layer conv1/3x3_s1
I0122 17:49:03.389734 67000 net.cpp:94] Creating Layer conv1/3x3_s1
I0122 17:49:03.389737 67000 net.cpp:435] conv1/3x3_s1 <- data
I0122 17:49:03.389744 67000 net.cpp:409] conv1/3x3_s1 -> conv1/3x3_s1
I0122 17:49:03.390105 67000 net.cpp:144] Setting up conv1/3x3_s1
I0122 17:49:03.390112 67000 net.cpp:151] Top shape: 50 96 32 32 (4915200)
I0122 17:49:03.390115 67000 net.cpp:159] Memory required for data: 20276200
I0122 17:49:03.390125 67000 layer_factory.hpp:77] Creating layer conv1/bn1
I0122 17:49:03.390131 67000 net.cpp:94] Creating Layer conv1/bn1
I0122 17:49:03.390134 67000 net.cpp:435] conv1/bn1 <- conv1/3x3_s1
I0122 17:49:03.390151 67000 net.cpp:396] conv1/bn1 -> conv1/3x3_s1 (in-place)
I0122 17:49:03.390867 67000 net.cpp:144] Setting up conv1/bn1
I0122 17:49:03.390875 67000 net.cpp:151] Top shape: 50 96 32 32 (4915200)
I0122 17:49:03.390878 67000 net.cpp:159] Memory required for data: 39937000
I0122 17:49:03.390888 67000 layer_factory.hpp:77] Creating layer conv1/relu1
I0122 17:49:03.390895 67000 net.cpp:94] Creating Layer conv1/relu1
I0122 17:49:03.390898 67000 net.cpp:435] conv1/relu1 <- conv1/3x3_s1
I0122 17:49:03.390904 67000 net.cpp:396] conv1/relu1 -> conv1/3x3_s1 (in-place)
I0122 17:49:03.390910 67000 net.cpp:144] Setting up conv1/relu1
I0122 17:49:03.390913 67000 net.cpp:151] Top shape: 50 96 32 32 (4915200)
I0122 17:49:03.390918 67000 net.cpp:159] Memory required for data: 59597800
I0122 17:49:03.390919 67000 layer_factory.hpp:77] Creating layer conv1/3x3_s1_conv1/relu1_0_split
I0122 17:49:03.390923 67000 net.cpp:94] Creating Layer conv1/3x3_s1_conv1/relu1_0_split
I0122 17:49:03.390926 67000 net.cpp:435] conv1/3x3_s1_conv1/relu1_0_split <- conv1/3x3_s1
I0122 17:49:03.390933 67000 net.cpp:409] conv1/3x3_s1_conv1/relu1_0_split -> conv1/3x3_s1_conv1/relu1_0_split_0
I0122 17:49:03.390938 67000 net.cpp:409] conv1/3x3_s1_conv1/relu1_0_split -> conv1/3x3_s1_conv1/relu1_0_split_1
I0122 17:49:03.390970 67000 net.cpp:144] Setting up conv1/3x3_s1_conv1/relu1_0_split
I0122 17:49:03.390976 67000 net.cpp:151] Top shape: 50 96 32 32 (4915200)
I0122 17:49:03.390980 67000 net.cpp:151] Top shape: 50 96 32 32 (4915200)
I0122 17:49:03.390983 67000 net.cpp:159] Memory required for data: 98919400
I0122 17:49:03.390985 67000 layer_factory.hpp:77] Creating layer inception_2a/1x1
I0122 17:49:03.390995 67000 net.cpp:94] Creating Layer inception_2a/1x1
I0122 17:49:03.391000 67000 net.cpp:435] inception_2a/1x1 <- conv1/3x3_s1_conv1/relu1_0_split_0
I0122 17:49:03.391005 67000 net.cpp:409] inception_2a/1x1 -> inception_2a/1x1
I0122 17:49:03.391618 67000 net.cpp:144] Setting up inception_2a/1x1
I0122 17:49:03.391625 67000 net.cpp:151] Top shape: 50 32 32 32 (1638400)
I0122 17:49:03.391628 67000 net.cpp:159] Memory required for data: 105473000
I0122 17:49:03.391635 67000 layer_factory.hpp:77] Creating layer inception_2a/1x1/bn1
I0122 17:49:03.391644 67000 net.cpp:94] Creating Layer inception_2a/1x1/bn1
I0122 17:49:03.391649 67000 net.cpp:435] inception_2a/1x1/bn1 <- inception_2a/1x1
I0122 17:49:03.391655 67000 net.cpp:396] inception_2a/1x1/bn1 -> inception_2a/1x1 (in-place)
I0122 17:49:03.392489 67000 net.cpp:144] Setting up inception_2a/1x1/bn1
I0122 17:49:03.392496 67000 net.cpp:151] Top shape: 50 32 32 32 (1638400)
I0122 17:49:03.392499 67000 net.cpp:159] Memory required for data: 112026600
I0122 17:49:03.392508 67000 layer_factory.hpp:77] Creating layer inception_2a/1x1/relu1
I0122 17:49:03.392515 67000 net.cpp:94] Creating Layer inception_2a/1x1/relu1
I0122 17:49:03.392519 67000 net.cpp:435] inception_2a/1x1/relu1 <- inception_2a/1x1
I0122 17:49:03.392524 67000 net.cpp:396] inception_2a/1x1/relu1 -> inception_2a/1x1 (in-place)
I0122 17:49:03.392532 67000 net.cpp:144] Setting up inception_2a/1x1/relu1
I0122 17:49:03.392536 67000 net.cpp:151] Top shape: 50 32 32 32 (1638400)
I0122 17:49:03.392539 67000 net.cpp:159] Memory required for data: 118580200
I0122 17:49:03.392541 67000 layer_factory.hpp:77] Creating layer inception_2a/3x3
I0122 17:49:03.392551 67000 net.cpp:94] Creating Layer inception_2a/3x3
I0122 17:49:03.392555 67000 net.cpp:435] inception_2a/3x3 <- conv1/3x3_s1_conv1/relu1_0_split_1
I0122 17:49:03.392562 67000 net.cpp:409] inception_2a/3x3 -> inception_2a/3x3
I0122 17:49:03.393026 67000 net.cpp:144] Setting up inception_2a/3x3
I0122 17:49:03.393034 67000 net.cpp:151] Top shape: 50 32 32 32 (1638400)
I0122 17:49:03.393038 67000 net.cpp:159] Memory required for data: 125133800
I0122 17:49:03.393043 67000 layer_factory.hpp:77] Creating layer inception_2a/3x3/bn1
I0122 17:49:03.393050 67000 net.cpp:94] Creating Layer inception_2a/3x3/bn1
I0122 17:49:03.393056 67000 net.cpp:435] inception_2a/3x3/bn1 <- inception_2a/3x3
I0122 17:49:03.393070 67000 net.cpp:396] inception_2a/3x3/bn1 -> inception_2a/3x3 (in-place)
I0122 17:49:03.393818 67000 net.cpp:144] Setting up inception_2a/3x3/bn1
I0122 17:49:03.393826 67000 net.cpp:151] Top shape: 50 32 32 32 (1638400)
I0122 17:49:03.393828 67000 net.cpp:159] Memory required for data: 131687400
I0122 17:49:03.393841 67000 layer_factory.hpp:77] Creating layer inception_2a/3x3/relu1
I0122 17:49:03.393848 67000 net.cpp:94] Creating Layer inception_2a/3x3/relu1
I0122 17:49:03.393851 67000 net.cpp:435] inception_2a/3x3/relu1 <- inception_2a/3x3
I0122 17:49:03.393857 67000 net.cpp:396] inception_2a/3x3/relu1 -> inception_2a/3x3 (in-place)
I0122 17:49:03.393862 67000 net.cpp:144] Setting up inception_2a/3x3/relu1
I0122 17:49:03.393868 67000 net.cpp:151] Top shape: 50 32 32 32 (1638400)
I0122 17:49:03.393870 67000 net.cpp:159] Memory required for data: 138241000
I0122 17:49:03.393874 67000 layer_factory.hpp:77] Creating layer inception_2a/output
I0122 17:49:03.393880 67000 net.cpp:94] Creating Layer inception_2a/output
I0122 17:49:03.393883 67000 net.cpp:435] inception_2a/output <- inception_2a/1x1
I0122 17:49:03.393887 67000 net.cpp:435] inception_2a/output <- inception_2a/3x3
I0122 17:49:03.393893 67000 net.cpp:409] inception_2a/output -> inception_2a/output
I0122 17:49:03.393923 67000 net.cpp:144] Setting up inception_2a/output
I0122 17:49:03.393929 67000 net.cpp:151] Top shape: 50 64 32 32 (3276800)
I0122 17:49:03.393932 67000 net.cpp:159] Memory required for data: 151348200
I0122 17:49:03.393935 67000 layer_factory.hpp:77] Creating layer inception_2a/output_inception_2a/output_0_split
I0122 17:49:03.393939 67000 net.cpp:94] Creating Layer inception_2a/output_inception_2a/output_0_split
I0122 17:49:03.393942 67000 net.cpp:435] inception_2a/output_inception_2a/output_0_split <- inception_2a/output
I0122 17:49:03.393949 67000 net.cpp:409] inception_2a/output_inception_2a/output_0_split -> inception_2a/output_inception_2a/output_0_split_0
I0122 17:49:03.393956 67000 net.cpp:409] inception_2a/output_inception_2a/output_0_split -> inception_2a/output_inception_2a/output_0_split_1
I0122 17:49:03.394048 67000 net.cpp:144] Setting up inception_2a/output_inception_2a/output_0_split
I0122 17:49:03.394054 67000 net.cpp:151] Top shape: 50 64 32 32 (3276800)
I0122 17:49:03.394057 67000 net.cpp:151] Top shape: 50 64 32 32 (3276800)
I0122 17:49:03.394062 67000 net.cpp:159] Memory required for data: 177562600
I0122 17:49:03.394065 67000 layer_factory.hpp:77] Creating layer inception_3a/1x1
I0122 17:49:03.394083 67000 net.cpp:94] Creating Layer inception_3a/1x1
I0122 17:49:03.394088 67000 net.cpp:435] inception_3a/1x1 <- inception_2a/output_inception_2a/output_0_split_0
I0122 17:49:03.394098 67000 net.cpp:409] inception_3a/1x1 -> inception_3a/1x1
I0122 17:49:03.394394 67000 net.cpp:144] Setting up inception_3a/1x1
I0122 17:49:03.394402 67000 net.cpp:151] Top shape: 50 32 32 32 (1638400)
I0122 17:49:03.394404 67000 net.cpp:159] Memory required for data: 184116200
I0122 17:49:03.394410 67000 layer_factory.hpp:77] Creating layer inception_3a/1x1/bn1
I0122 17:49:03.394418 67000 net.cpp:94] Creating Layer inception_3a/1x1/bn1
I0122 17:49:03.394421 67000 net.cpp:435] inception_3a/1x1/bn1 <- inception_3a/1x1
I0122 17:49:03.394428 67000 net.cpp:396] inception_3a/1x1/bn1 -> inception_3a/1x1 (in-place)
I0122 17:49:03.395223 67000 net.cpp:144] Setting up inception_3a/1x1/bn1
I0122 17:49:03.395231 67000 net.cpp:151] Top shape: 50 32 32 32 (1638400)
I0122 17:49:03.395234 67000 net.cpp:159] Memory required for data: 190669800
I0122 17:49:03.395242 67000 layer_factory.hpp:77] Creating layer inception_3a/1x1/relu1
I0122 17:49:03.395252 67000 net.cpp:94] Creating Layer inception_3a/1x1/relu1
I0122 17:49:03.395258 67000 net.cpp:435] inception_3a/1x1/relu1 <- inception_3a/1x1
I0122 17:49:03.395264 67000 net.cpp:396] inception_3a/1x1/relu1 -> inception_3a/1x1 (in-place)
I0122 17:49:03.395272 67000 net.cpp:144] Setting up inception_3a/1x1/relu1
I0122 17:49:03.395288 67000 net.cpp:151] Top shape: 50 32 32 32 (1638400)
I0122 17:49:03.395293 67000 net.cpp:159] Memory required for data: 197223400
I0122 17:49:03.395308 67000 layer_factory.hpp:77] Creating layer inception_3a/3x3
I0122 17:49:03.395319 67000 net.cpp:94] Creating Layer inception_3a/3x3
I0122 17:49:03.395326 67000 net.cpp:435] inception_3a/3x3 <- inception_2a/output_inception_2a/output_0_split_1
I0122 17:49:03.395335 67000 net.cpp:409] inception_3a/3x3 -> inception_3a/3x3
I0122 17:49:03.396891 67000 net.cpp:144] Setting up inception_3a/3x3
I0122 17:49:03.396906 67000 net.cpp:151] Top shape: 50 48 32 32 (2457600)
I0122 17:49:03.396912 67000 net.cpp:159] Memory required for data: 207053800
I0122 17:49:03.396921 67000 layer_factory.hpp:77] Creating layer inception_3a/3x3/bn1
I0122 17:49:03.396935 67000 net.cpp:94] Creating Layer inception_3a/3x3/bn1
I0122 17:49:03.396942 67000 net.cpp:435] inception_3a/3x3/bn1 <- inception_3a/3x3
I0122 17:49:03.396952 67000 net.cpp:396] inception_3a/3x3/bn1 -> inception_3a/3x3 (in-place)
I0122 17:49:03.398094 67000 net.cpp:144] Setting up inception_3a/3x3/bn1
I0122 17:49:03.398105 67000 net.cpp:151] Top shape: 50 48 32 32 (2457600)
I0122 17:49:03.398109 67000 net.cpp:159] Memory required for data: 216884200
I0122 17:49:03.398130 67000 layer_factory.hpp:77] Creating layer inception_3a/3x3/relu1
I0122 17:49:03.398140 67000 net.cpp:94] Creating Layer inception_3a/3x3/relu1
I0122 17:49:03.398145 67000 net.cpp:435] inception_3a/3x3/relu1 <- inception_3a/3x3
I0122 17:49:03.398154 67000 net.cpp:396] inception_3a/3x3/relu1 -> inception_3a/3x3 (in-place)
I0122 17:49:03.398167 67000 net.cpp:144] Setting up inception_3a/3x3/relu1
I0122 17:49:03.398175 67000 net.cpp:151] Top shape: 50 48 32 32 (2457600)
I0122 17:49:03.398178 67000 net.cpp:159] Memory required for data: 226714600
I0122 17:49:03.398183 67000 layer_factory.hpp:77] Creating layer inception_3a/output
I0122 17:49:03.398193 67000 net.cpp:94] Creating Layer inception_3a/output
I0122 17:49:03.398198 67000 net.cpp:435] inception_3a/output <- inception_3a/1x1
I0122 17:49:03.398203 67000 net.cpp:435] inception_3a/output <- inception_3a/3x3
I0122 17:49:03.398212 67000 net.cpp:409] inception_3a/output -> inception_3a/output
I0122 17:49:03.398247 67000 net.cpp:144] Setting up inception_3a/output
I0122 17:49:03.398254 67000 net.cpp:151] Top shape: 50 80 32 32 (4096000)
I0122 17:49:03.398258 67000 net.cpp:159] Memory required for data: 243098600
I0122 17:49:03.398262 67000 layer_factory.hpp:77] Creating layer inception_3a/output_inception_3a/output_0_split
I0122 17:49:03.398270 67000 net.cpp:94] Creating Layer inception_3a/output_inception_3a/output_0_split
I0122 17:49:03.398274 67000 net.cpp:435] inception_3a/output_inception_3a/output_0_split <- inception_3a/output
I0122 17:49:03.398283 67000 net.cpp:409] inception_3a/output_inception_3a/output_0_split -> inception_3a/output_inception_3a/output_0_split_0
I0122 17:49:03.398293 67000 net.cpp:409] inception_3a/output_inception_3a/output_0_split -> inception_3a/output_inception_3a/output_0_split_1
I0122 17:49:03.398347 67000 net.cpp:144] Setting up inception_3a/output_inception_3a/output_0_split
I0122 17:49:03.398356 67000 net.cpp:151] Top shape: 50 80 32 32 (4096000)
I0122 17:49:03.398362 67000 net.cpp:151] Top shape: 50 80 32 32 (4096000)
I0122 17:49:03.398366 67000 net.cpp:159] Memory required for data: 275866600
I0122 17:49:03.398371 67000 layer_factory.hpp:77] Creating layer downsample_4/3x3_s2
I0122 17:49:03.398385 67000 net.cpp:94] Creating Layer downsample_4/3x3_s2
I0122 17:49:03.398391 67000 net.cpp:435] downsample_4/3x3_s2 <- inception_3a/output_inception_3a/output_0_split_0
I0122 17:49:03.398402 67000 net.cpp:409] downsample_4/3x3_s2 -> downsample_4/3x3_s2
I0122 17:49:03.399353 67000 net.cpp:144] Setting up downsample_4/3x3_s2
I0122 17:49:03.399368 67000 net.cpp:151] Top shape: 50 80 16 16 (1024000)
I0122 17:49:03.399371 67000 net.cpp:159] Memory required for data: 279962600
I0122 17:49:03.399379 67000 layer_factory.hpp:77] Creating layer downsample_4/3x3_s2/bn1
I0122 17:49:03.399391 67000 net.cpp:94] Creating Layer downsample_4/3x3_s2/bn1
I0122 17:49:03.399396 67000 net.cpp:435] downsample_4/3x3_s2/bn1 <- downsample_4/3x3_s2
I0122 17:49:03.399422 67000 net.cpp:396] downsample_4/3x3_s2/bn1 -> downsample_4/3x3_s2 (in-place)
I0122 17:49:03.400534 67000 net.cpp:144] Setting up downsample_4/3x3_s2/bn1
I0122 17:49:03.400547 67000 net.cpp:151] Top shape: 50 80 16 16 (1024000)
I0122 17:49:03.400550 67000 net.cpp:159] Memory required for data: 284058600
I0122 17:49:03.400563 67000 layer_factory.hpp:77] Creating layer downsample_4/3x3_s2/relu1
I0122 17:49:03.400574 67000 net.cpp:94] Creating Layer downsample_4/3x3_s2/relu1
I0122 17:49:03.400580 67000 net.cpp:435] downsample_4/3x3_s2/relu1 <- downsample_4/3x3_s2
I0122 17:49:03.400588 67000 net.cpp:396] downsample_4/3x3_s2/relu1 -> downsample_4/3x3_s2 (in-place)
I0122 17:49:03.400597 67000 net.cpp:144] Setting up downsample_4/3x3_s2/relu1
I0122 17:49:03.400604 67000 net.cpp:151] Top shape: 50 80 16 16 (1024000)
I0122 17:49:03.400609 67000 net.cpp:159] Memory required for data: 288154600
I0122 17:49:03.400614 67000 layer_factory.hpp:77] Creating layer downsample_4/pool_s2
I0122 17:49:03.400624 67000 net.cpp:94] Creating Layer downsample_4/pool_s2
I0122 17:49:03.400631 67000 net.cpp:435] downsample_4/pool_s2 <- inception_3a/output_inception_3a/output_0_split_1
I0122 17:49:03.400641 67000 net.cpp:409] downsample_4/pool_s2 -> downsample_4/pool_s2
I0122 17:49:03.400717 67000 net.cpp:144] Setting up downsample_4/pool_s2
I0122 17:49:03.400728 67000 net.cpp:151] Top shape: 50 80 16 16 (1024000)
I0122 17:49:03.400732 67000 net.cpp:159] Memory required for data: 292250600
I0122 17:49:03.400738 67000 layer_factory.hpp:77] Creating layer downsample_4/output
I0122 17:49:03.400745 67000 net.cpp:94] Creating Layer downsample_4/output
I0122 17:49:03.400753 67000 net.cpp:435] downsample_4/output <- downsample_4/3x3_s2
I0122 17:49:03.400758 67000 net.cpp:435] downsample_4/output <- downsample_4/pool_s2
I0122 17:49:03.400766 67000 net.cpp:409] downsample_4/output -> downsample_4/output
I0122 17:49:03.400805 67000 net.cpp:144] Setting up downsample_4/output
I0122 17:49:03.400812 67000 net.cpp:151] Top shape: 50 160 16 16 (2048000)
I0122 17:49:03.400816 67000 net.cpp:159] Memory required for data: 300442600
I0122 17:49:03.400821 67000 layer_factory.hpp:77] Creating layer downsample_4/output_downsample_4/output_0_split
I0122 17:49:03.400830 67000 net.cpp:94] Creating Layer downsample_4/output_downsample_4/output_0_split
I0122 17:49:03.400838 67000 net.cpp:435] downsample_4/output_downsample_4/output_0_split <- downsample_4/output
I0122 17:49:03.400846 67000 net.cpp:409] downsample_4/output_downsample_4/output_0_split -> downsample_4/output_downsample_4/output_0_split_0
I0122 17:49:03.400861 67000 net.cpp:409] downsample_4/output_downsample_4/output_0_split -> downsample_4/output_downsample_4/output_0_split_1
I0122 17:49:03.400902 67000 net.cpp:144] Setting up downsample_4/output_downsample_4/output_0_split
I0122 17:49:03.400909 67000 net.cpp:151] Top shape: 50 160 16 16 (2048000)
I0122 17:49:03.400914 67000 net.cpp:151] Top shape: 50 160 16 16 (2048000)
I0122 17:49:03.400919 67000 net.cpp:159] Memory required for data: 316826600
I0122 17:49:03.400924 67000 layer_factory.hpp:77] Creating layer inception_5a/1x1
I0122 17:49:03.400938 67000 net.cpp:94] Creating Layer inception_5a/1x1
I0122 17:49:03.400943 67000 net.cpp:435] inception_5a/1x1 <- downsample_4/output_downsample_4/output_0_split_0
I0122 17:49:03.400954 67000 net.cpp:409] inception_5a/1x1 -> inception_5a/1x1
I0122 17:49:03.401506 67000 net.cpp:144] Setting up inception_5a/1x1
I0122 17:49:03.401517 67000 net.cpp:151] Top shape: 50 112 16 16 (1433600)
I0122 17:49:03.401521 67000 net.cpp:159] Memory required for data: 322561000
I0122 17:49:03.401530 67000 layer_factory.hpp:77] Creating layer inception_5a/1x1/bn1
I0122 17:49:03.401546 67000 net.cpp:94] Creating Layer inception_5a/1x1/bn1
I0122 17:49:03.401553 67000 net.cpp:435] inception_5a/1x1/bn1 <- inception_5a/1x1
I0122 17:49:03.401563 67000 net.cpp:396] inception_5a/1x1/bn1 -> inception_5a/1x1 (in-place)
I0122 17:49:03.402676 67000 net.cpp:144] Setting up inception_5a/1x1/bn1
I0122 17:49:03.402698 67000 net.cpp:151] Top shape: 50 112 16 16 (1433600)
I0122 17:49:03.402703 67000 net.cpp:159] Memory required for data: 328295400
I0122 17:49:03.402714 67000 layer_factory.hpp:77] Creating layer inception_5a/1x1/relu1
I0122 17:49:03.402726 67000 net.cpp:94] Creating Layer inception_5a/1x1/relu1
I0122 17:49:03.402730 67000 net.cpp:435] inception_5a/1x1/relu1 <- inception_5a/1x1
I0122 17:49:03.402740 67000 net.cpp:396] inception_5a/1x1/relu1 -> inception_5a/1x1 (in-place)
I0122 17:49:03.402750 67000 net.cpp:144] Setting up inception_5a/1x1/relu1
I0122 17:49:03.402758 67000 net.cpp:151] Top shape: 50 112 16 16 (1433600)
I0122 17:49:03.402762 67000 net.cpp:159] Memory required for data: 334029800
I0122 17:49:03.402766 67000 layer_factory.hpp:77] Creating layer inception_5a/3x3
I0122 17:49:03.402779 67000 net.cpp:94] Creating Layer inception_5a/3x3
I0122 17:49:03.402786 67000 net.cpp:435] inception_5a/3x3 <- downsample_4/output_downsample_4/output_0_split_1
I0122 17:49:03.402796 67000 net.cpp:409] inception_5a/3x3 -> inception_5a/3x3
I0122 17:49:03.403885 67000 net.cpp:144] Setting up inception_5a/3x3
I0122 17:49:03.403898 67000 net.cpp:151] Top shape: 50 48 16 16 (614400)
I0122 17:49:03.403903 67000 net.cpp:159] Memory required for data: 336487400
I0122 17:49:03.403911 67000 layer_factory.hpp:77] Creating layer inception_5a/3x3/bn1
I0122 17:49:03.403928 67000 net.cpp:94] Creating Layer inception_5a/3x3/bn1
I0122 17:49:03.403934 67000 net.cpp:435] inception_5a/3x3/bn1 <- inception_5a/3x3
I0122 17:49:03.403944 67000 net.cpp:396] inception_5a/3x3/bn1 -> inception_5a/3x3 (in-place)
I0122 17:49:03.404912 67000 net.cpp:144] Setting up inception_5a/3x3/bn1
I0122 17:49:03.404928 67000 net.cpp:151] Top shape: 50 48 16 16 (614400)
I0122 17:49:03.404935 67000 net.cpp:159] Memory required for data: 338945000
I0122 17:49:03.404949 67000 layer_factory.hpp:77] Creating layer inception_5a/3x3/relu1
I0122 17:49:03.404959 67000 net.cpp:94] Creating Layer inception_5a/3x3/relu1
I0122 17:49:03.404964 67000 net.cpp:435] inception_5a/3x3/relu1 <- inception_5a/3x3
I0122 17:49:03.404971 67000 net.cpp:396] inception_5a/3x3/relu1 -> inception_5a/3x3 (in-place)
I0122 17:49:03.404983 67000 net.cpp:144] Setting up inception_5a/3x3/relu1
I0122 17:49:03.404992 67000 net.cpp:151] Top shape: 50 48 16 16 (614400)
I0122 17:49:03.404996 67000 net.cpp:159] Memory required for data: 341402600
I0122 17:49:03.405000 67000 layer_factory.hpp:77] Creating layer inception_5a/output
I0122 17:49:03.405009 67000 net.cpp:94] Creating Layer inception_5a/output
I0122 17:49:03.405015 67000 net.cpp:435] inception_5a/output <- inception_5a/1x1
I0122 17:49:03.405020 67000 net.cpp:435] inception_5a/output <- inception_5a/3x3
I0122 17:49:03.405028 67000 net.cpp:409] inception_5a/output -> inception_5a/output
I0122 17:49:03.405061 67000 net.cpp:144] Setting up inception_5a/output
I0122 17:49:03.405068 67000 net.cpp:151] Top shape: 50 160 16 16 (2048000)
I0122 17:49:03.405072 67000 net.cpp:159] Memory required for data: 349594600
I0122 17:49:03.405077 67000 layer_factory.hpp:77] Creating layer inception_5a/output_inception_5a/output_0_split
I0122 17:49:03.405084 67000 net.cpp:94] Creating Layer inception_5a/output_inception_5a/output_0_split
I0122 17:49:03.405089 67000 net.cpp:435] inception_5a/output_inception_5a/output_0_split <- inception_5a/output
I0122 17:49:03.405097 67000 net.cpp:409] inception_5a/output_inception_5a/output_0_split -> inception_5a/output_inception_5a/output_0_split_0
I0122 17:49:03.405107 67000 net.cpp:409] inception_5a/output_inception_5a/output_0_split -> inception_5a/output_inception_5a/output_0_split_1
I0122 17:49:03.405151 67000 net.cpp:144] Setting up inception_5a/output_inception_5a/output_0_split
I0122 17:49:03.405158 67000 net.cpp:151] Top shape: 50 160 16 16 (2048000)
I0122 17:49:03.405164 67000 net.cpp:151] Top shape: 50 160 16 16 (2048000)
I0122 17:49:03.405167 67000 net.cpp:159] Memory required for data: 365978600
I0122 17:49:03.405172 67000 layer_factory.hpp:77] Creating layer inception_6a/1x1
I0122 17:49:03.405195 67000 net.cpp:94] Creating Layer inception_6a/1x1
I0122 17:49:03.405201 67000 net.cpp:435] inception_6a/1x1 <- inception_5a/output_inception_5a/output_0_split_0
I0122 17:49:03.405211 67000 net.cpp:409] inception_6a/1x1 -> inception_6a/1x1
I0122 17:49:03.405678 67000 net.cpp:144] Setting up inception_6a/1x1
I0122 17:49:03.405691 67000 net.cpp:151] Top shape: 50 96 16 16 (1228800)
I0122 17:49:03.405695 67000 net.cpp:159] Memory required for data: 370893800
I0122 17:49:03.405704 67000 layer_factory.hpp:77] Creating layer inception_6a/1x1/bn1
I0122 17:49:03.405720 67000 net.cpp:94] Creating Layer inception_6a/1x1/bn1
I0122 17:49:03.405727 67000 net.cpp:435] inception_6a/1x1/bn1 <- inception_6a/1x1
I0122 17:49:03.405737 67000 net.cpp:396] inception_6a/1x1/bn1 -> inception_6a/1x1 (in-place)
I0122 17:49:03.406580 67000 net.cpp:144] Setting up inception_6a/1x1/bn1
I0122 17:49:03.406591 67000 net.cpp:151] Top shape: 50 96 16 16 (1228800)
I0122 17:49:03.406594 67000 net.cpp:159] Memory required for data: 375809000
I0122 17:49:03.406602 67000 layer_factory.hpp:77] Creating layer inception_6a/1x1/relu1
I0122 17:49:03.406610 67000 net.cpp:94] Creating Layer inception_6a/1x1/relu1
I0122 17:49:03.406613 67000 net.cpp:435] inception_6a/1x1/relu1 <- inception_6a/1x1
I0122 17:49:03.406620 67000 net.cpp:396] inception_6a/1x1/relu1 -> inception_6a/1x1 (in-place)
I0122 17:49:03.406627 67000 net.cpp:144] Setting up inception_6a/1x1/relu1
I0122 17:49:03.406632 67000 net.cpp:151] Top shape: 50 96 16 16 (1228800)
I0122 17:49:03.406635 67000 net.cpp:159] Memory required for data: 380724200
I0122 17:49:03.406638 67000 layer_factory.hpp:77] Creating layer inception_6a/3x3
I0122 17:49:03.406647 67000 net.cpp:94] Creating Layer inception_6a/3x3
I0122 17:49:03.406651 67000 net.cpp:435] inception_6a/3x3 <- inception_5a/output_inception_5a/output_0_split_1
I0122 17:49:03.406659 67000 net.cpp:409] inception_6a/3x3 -> inception_6a/3x3
I0122 17:49:03.408080 67000 net.cpp:144] Setting up inception_6a/3x3
I0122 17:49:03.408092 67000 net.cpp:151] Top shape: 50 64 16 16 (819200)
I0122 17:49:03.408094 67000 net.cpp:159] Memory required for data: 384001000
I0122 17:49:03.408107 67000 layer_factory.hpp:77] Creating layer inception_6a/3x3/bn1
I0122 17:49:03.408115 67000 net.cpp:94] Creating Layer inception_6a/3x3/bn1
I0122 17:49:03.408119 67000 net.cpp:435] inception_6a/3x3/bn1 <- inception_6a/3x3
I0122 17:49:03.408126 67000 net.cpp:396] inception_6a/3x3/bn1 -> inception_6a/3x3 (in-place)
I0122 17:49:03.408819 67000 net.cpp:144] Setting up inception_6a/3x3/bn1
I0122 17:49:03.408826 67000 net.cpp:151] Top shape: 50 64 16 16 (819200)
I0122 17:49:03.408829 67000 net.cpp:159] Memory required for data: 387277800
I0122 17:49:03.408838 67000 layer_factory.hpp:77] Creating layer inception_6a/3x3/relu1
I0122 17:49:03.408843 67000 net.cpp:94] Creating Layer inception_6a/3x3/relu1
I0122 17:49:03.408848 67000 net.cpp:435] inception_6a/3x3/relu1 <- inception_6a/3x3
I0122 17:49:03.408851 67000 net.cpp:396] inception_6a/3x3/relu1 -> inception_6a/3x3 (in-place)
I0122 17:49:03.408860 67000 net.cpp:144] Setting up inception_6a/3x3/relu1
I0122 17:49:03.408869 67000 net.cpp:151] Top shape: 50 64 16 16 (819200)
I0122 17:49:03.408872 67000 net.cpp:159] Memory required for data: 390554600
I0122 17:49:03.408875 67000 layer_factory.hpp:77] Creating layer inception_6a/output
I0122 17:49:03.408882 67000 net.cpp:94] Creating Layer inception_6a/output
I0122 17:49:03.408887 67000 net.cpp:435] inception_6a/output <- inception_6a/1x1
I0122 17:49:03.408892 67000 net.cpp:435] inception_6a/output <- inception_6a/3x3
I0122 17:49:03.408900 67000 net.cpp:409] inception_6a/output -> inception_6a/output
I0122 17:49:03.408931 67000 net.cpp:144] Setting up inception_6a/output
I0122 17:49:03.408937 67000 net.cpp:151] Top shape: 50 160 16 16 (2048000)
I0122 17:49:03.408941 67000 net.cpp:159] Memory required for data: 398746600
I0122 17:49:03.408944 67000 layer_factory.hpp:77] Creating layer inception_6a/output_inception_6a/output_0_split
I0122 17:49:03.408951 67000 net.cpp:94] Creating Layer inception_6a/output_inception_6a/output_0_split
I0122 17:49:03.408969 67000 net.cpp:435] inception_6a/output_inception_6a/output_0_split <- inception_6a/output
I0122 17:49:03.408977 67000 net.cpp:409] inception_6a/output_inception_6a/output_0_split -> inception_6a/output_inception_6a/output_0_split_0
I0122 17:49:03.408989 67000 net.cpp:409] inception_6a/output_inception_6a/output_0_split -> inception_6a/output_inception_6a/output_0_split_1
I0122 17:49:03.409029 67000 net.cpp:144] Setting up inception_6a/output_inception_6a/output_0_split
I0122 17:49:03.409036 67000 net.cpp:151] Top shape: 50 160 16 16 (2048000)
I0122 17:49:03.409040 67000 net.cpp:151] Top shape: 50 160 16 16 (2048000)
I0122 17:49:03.409042 67000 net.cpp:159] Memory required for data: 415130600
I0122 17:49:03.409045 67000 layer_factory.hpp:77] Creating layer inception_7a/1x1
I0122 17:49:03.409054 67000 net.cpp:94] Creating Layer inception_7a/1x1
I0122 17:49:03.409059 67000 net.cpp:435] inception_7a/1x1 <- inception_6a/output_inception_6a/output_0_split_0
I0122 17:49:03.409066 67000 net.cpp:409] inception_7a/1x1 -> inception_7a/1x1
I0122 17:49:03.409386 67000 net.cpp:144] Setting up inception_7a/1x1
I0122 17:49:03.409394 67000 net.cpp:151] Top shape: 50 80 16 16 (1024000)
I0122 17:49:03.409396 67000 net.cpp:159] Memory required for data: 419226600
I0122 17:49:03.409401 67000 layer_factory.hpp:77] Creating layer inception_7a/1x1/bn1
I0122 17:49:03.409409 67000 net.cpp:94] Creating Layer inception_7a/1x1/bn1
I0122 17:49:03.409413 67000 net.cpp:435] inception_7a/1x1/bn1 <- inception_7a/1x1
I0122 17:49:03.409422 67000 net.cpp:396] inception_7a/1x1/bn1 -> inception_7a/1x1 (in-place)
I0122 17:49:03.410121 67000 net.cpp:144] Setting up inception_7a/1x1/bn1
I0122 17:49:03.410130 67000 net.cpp:151] Top shape: 50 80 16 16 (1024000)
I0122 17:49:03.410132 67000 net.cpp:159] Memory required for data: 423322600
I0122 17:49:03.410140 67000 layer_factory.hpp:77] Creating layer inception_7a/1x1/relu1
I0122 17:49:03.410146 67000 net.cpp:94] Creating Layer inception_7a/1x1/relu1
I0122 17:49:03.410151 67000 net.cpp:435] inception_7a/1x1/relu1 <- inception_7a/1x1
I0122 17:49:03.410157 67000 net.cpp:396] inception_7a/1x1/relu1 -> inception_7a/1x1 (in-place)
I0122 17:49:03.410166 67000 net.cpp:144] Setting up inception_7a/1x1/relu1
I0122 17:49:03.410171 67000 net.cpp:151] Top shape: 50 80 16 16 (1024000)
I0122 17:49:03.410174 67000 net.cpp:159] Memory required for data: 427418600
I0122 17:49:03.410178 67000 layer_factory.hpp:77] Creating layer inception_7a/3x3
I0122 17:49:03.410192 67000 net.cpp:94] Creating Layer inception_7a/3x3
I0122 17:49:03.410197 67000 net.cpp:435] inception_7a/3x3 <- inception_6a/output_inception_6a/output_0_split_1
I0122 17:49:03.410205 67000 net.cpp:409] inception_7a/3x3 -> inception_7a/3x3
I0122 17:49:03.411118 67000 net.cpp:144] Setting up inception_7a/3x3
I0122 17:49:03.411128 67000 net.cpp:151] Top shape: 50 80 16 16 (1024000)
I0122 17:49:03.411131 67000 net.cpp:159] Memory required for data: 431514600
I0122 17:49:03.411136 67000 layer_factory.hpp:77] Creating layer inception_7a/3x3/bn1
I0122 17:49:03.411146 67000 net.cpp:94] Creating Layer inception_7a/3x3/bn1
I0122 17:49:03.411151 67000 net.cpp:435] inception_7a/3x3/bn1 <- inception_7a/3x3
I0122 17:49:03.411161 67000 net.cpp:396] inception_7a/3x3/bn1 -> inception_7a/3x3 (in-place)
I0122 17:49:03.411875 67000 net.cpp:144] Setting up inception_7a/3x3/bn1
I0122 17:49:03.411882 67000 net.cpp:151] Top shape: 50 80 16 16 (1024000)
I0122 17:49:03.411885 67000 net.cpp:159] Memory required for data: 435610600
I0122 17:49:03.411892 67000 layer_factory.hpp:77] Creating layer inception_7a/3x3/relu1
I0122 17:49:03.411897 67000 net.cpp:94] Creating Layer inception_7a/3x3/relu1
I0122 17:49:03.411901 67000 net.cpp:435] inception_7a/3x3/relu1 <- inception_7a/3x3
I0122 17:49:03.411907 67000 net.cpp:396] inception_7a/3x3/relu1 -> inception_7a/3x3 (in-place)
I0122 17:49:03.411916 67000 net.cpp:144] Setting up inception_7a/3x3/relu1
I0122 17:49:03.411922 67000 net.cpp:151] Top shape: 50 80 16 16 (1024000)
I0122 17:49:03.411926 67000 net.cpp:159] Memory required for data: 439706600
I0122 17:49:03.411944 67000 layer_factory.hpp:77] Creating layer inception_7a/output
I0122 17:49:03.411950 67000 net.cpp:94] Creating Layer inception_7a/output
I0122 17:49:03.411954 67000 net.cpp:435] inception_7a/output <- inception_7a/1x1
I0122 17:49:03.411960 67000 net.cpp:435] inception_7a/output <- inception_7a/3x3
I0122 17:49:03.411968 67000 net.cpp:409] inception_7a/output -> inception_7a/output
I0122 17:49:03.411996 67000 net.cpp:144] Setting up inception_7a/output
I0122 17:49:03.412003 67000 net.cpp:151] Top shape: 50 160 16 16 (2048000)
I0122 17:49:03.412009 67000 net.cpp:159] Memory required for data: 447898600
I0122 17:49:03.412012 67000 layer_factory.hpp:77] Creating layer inception_7a/output_inception_7a/output_0_split
I0122 17:49:03.412019 67000 net.cpp:94] Creating Layer inception_7a/output_inception_7a/output_0_split
I0122 17:49:03.412022 67000 net.cpp:435] inception_7a/output_inception_7a/output_0_split <- inception_7a/output
I0122 17:49:03.412029 67000 net.cpp:409] inception_7a/output_inception_7a/output_0_split -> inception_7a/output_inception_7a/output_0_split_0
I0122 17:49:03.412039 67000 net.cpp:409] inception_7a/output_inception_7a/output_0_split -> inception_7a/output_inception_7a/output_0_split_1
I0122 17:49:03.412078 67000 net.cpp:144] Setting up inception_7a/output_inception_7a/output_0_split
I0122 17:49:03.412084 67000 net.cpp:151] Top shape: 50 160 16 16 (2048000)
I0122 17:49:03.412089 67000 net.cpp:151] Top shape: 50 160 16 16 (2048000)
I0122 17:49:03.412091 67000 net.cpp:159] Memory required for data: 464282600
I0122 17:49:03.412093 67000 layer_factory.hpp:77] Creating layer inception_8a/1x1
I0122 17:49:03.412101 67000 net.cpp:94] Creating Layer inception_8a/1x1
I0122 17:49:03.412106 67000 net.cpp:435] inception_8a/1x1 <- inception_7a/output_inception_7a/output_0_split_0
I0122 17:49:03.412114 67000 net.cpp:409] inception_8a/1x1 -> inception_8a/1x1
I0122 17:49:03.412401 67000 net.cpp:144] Setting up inception_8a/1x1
I0122 17:49:03.412408 67000 net.cpp:151] Top shape: 50 48 16 16 (614400)
I0122 17:49:03.412411 67000 net.cpp:159] Memory required for data: 466740200
I0122 17:49:03.412416 67000 layer_factory.hpp:77] Creating layer inception_8a/1x1/bn1
I0122 17:49:03.412423 67000 net.cpp:94] Creating Layer inception_8a/1x1/bn1
I0122 17:49:03.412426 67000 net.cpp:435] inception_8a/1x1/bn1 <- inception_8a/1x1
I0122 17:49:03.412433 67000 net.cpp:396] inception_8a/1x1/bn1 -> inception_8a/1x1 (in-place)
I0122 17:49:03.413123 67000 net.cpp:144] Setting up inception_8a/1x1/bn1
I0122 17:49:03.413131 67000 net.cpp:151] Top shape: 50 48 16 16 (614400)
I0122 17:49:03.413134 67000 net.cpp:159] Memory required for data: 469197800
I0122 17:49:03.413142 67000 layer_factory.hpp:77] Creating layer inception_8a/1x1/relu1
I0122 17:49:03.413149 67000 net.cpp:94] Creating Layer inception_8a/1x1/relu1
I0122 17:49:03.413152 67000 net.cpp:435] inception_8a/1x1/relu1 <- inception_8a/1x1
I0122 17:49:03.413157 67000 net.cpp:396] inception_8a/1x1/relu1 -> inception_8a/1x1 (in-place)
I0122 17:49:03.413166 67000 net.cpp:144] Setting up inception_8a/1x1/relu1
I0122 17:49:03.413173 67000 net.cpp:151] Top shape: 50 48 16 16 (614400)
I0122 17:49:03.413177 67000 net.cpp:159] Memory required for data: 471655400
I0122 17:49:03.413180 67000 layer_factory.hpp:77] Creating layer inception_8a/3x3
I0122 17:49:03.413194 67000 net.cpp:94] Creating Layer inception_8a/3x3
I0122 17:49:03.413202 67000 net.cpp:435] inception_8a/3x3 <- inception_7a/output_inception_7a/output_0_split_1
I0122 17:49:03.413209 67000 net.cpp:409] inception_8a/3x3 -> inception_8a/3x3
I0122 17:49:03.414830 67000 net.cpp:144] Setting up inception_8a/3x3
I0122 17:49:03.414844 67000 net.cpp:151] Top shape: 50 96 16 16 (1228800)
I0122 17:49:03.414846 67000 net.cpp:159] Memory required for data: 476570600
I0122 17:49:03.414852 67000 layer_factory.hpp:77] Creating layer inception_8a/3x3/bn1
I0122 17:49:03.414860 67000 net.cpp:94] Creating Layer inception_8a/3x3/bn1
I0122 17:49:03.414865 67000 net.cpp:435] inception_8a/3x3/bn1 <- inception_8a/3x3
I0122 17:49:03.414880 67000 net.cpp:396] inception_8a/3x3/bn1 -> inception_8a/3x3 (in-place)
I0122 17:49:03.415571 67000 net.cpp:144] Setting up inception_8a/3x3/bn1
I0122 17:49:03.415580 67000 net.cpp:151] Top shape: 50 96 16 16 (1228800)
I0122 17:49:03.415582 67000 net.cpp:159] Memory required for data: 481485800
I0122 17:49:03.415591 67000 layer_factory.hpp:77] Creating layer inception_8a/3x3/relu1
I0122 17:49:03.415596 67000 net.cpp:94] Creating Layer inception_8a/3x3/relu1
I0122 17:49:03.415598 67000 net.cpp:435] inception_8a/3x3/relu1 <- inception_8a/3x3
I0122 17:49:03.415606 67000 net.cpp:396] inception_8a/3x3/relu1 -> inception_8a/3x3 (in-place)
I0122 17:49:03.415616 67000 net.cpp:144] Setting up inception_8a/3x3/relu1
I0122 17:49:03.415621 67000 net.cpp:151] Top shape: 50 96 16 16 (1228800)
I0122 17:49:03.415624 67000 net.cpp:159] Memory required for data: 486401000
I0122 17:49:03.415628 67000 layer_factory.hpp:77] Creating layer inception_8a/output
I0122 17:49:03.415634 67000 net.cpp:94] Creating Layer inception_8a/output
I0122 17:49:03.415638 67000 net.cpp:435] inception_8a/output <- inception_8a/1x1
I0122 17:49:03.415643 67000 net.cpp:435] inception_8a/output <- inception_8a/3x3
I0122 17:49:03.415652 67000 net.cpp:409] inception_8a/output -> inception_8a/output
I0122 17:49:03.415683 67000 net.cpp:144] Setting up inception_8a/output
I0122 17:49:03.415689 67000 net.cpp:151] Top shape: 50 144 16 16 (1843200)
I0122 17:49:03.415693 67000 net.cpp:159] Memory required for data: 493773800
I0122 17:49:03.415699 67000 layer_factory.hpp:77] Creating layer inception_8a/output_inception_8a/output_0_split
I0122 17:49:03.415704 67000 net.cpp:94] Creating Layer inception_8a/output_inception_8a/output_0_split
I0122 17:49:03.415707 67000 net.cpp:435] inception_8a/output_inception_8a/output_0_split <- inception_8a/output
I0122 17:49:03.415712 67000 net.cpp:409] inception_8a/output_inception_8a/output_0_split -> inception_8a/output_inception_8a/output_0_split_0
I0122 17:49:03.415721 67000 net.cpp:409] inception_8a/output_inception_8a/output_0_split -> inception_8a/output_inception_8a/output_0_split_1
I0122 17:49:03.415763 67000 net.cpp:144] Setting up inception_8a/output_inception_8a/output_0_split
I0122 17:49:03.415769 67000 net.cpp:151] Top shape: 50 144 16 16 (1843200)
I0122 17:49:03.415773 67000 net.cpp:151] Top shape: 50 144 16 16 (1843200)
I0122 17:49:03.415776 67000 net.cpp:159] Memory required for data: 508519400
I0122 17:49:03.415778 67000 layer_factory.hpp:77] Creating layer downsample_9/3x3_s2
I0122 17:49:03.415787 67000 net.cpp:94] Creating Layer downsample_9/3x3_s2
I0122 17:49:03.415791 67000 net.cpp:435] downsample_9/3x3_s2 <- inception_8a/output_inception_8a/output_0_split_0
I0122 17:49:03.415801 67000 net.cpp:409] downsample_9/3x3_s2 -> downsample_9/3x3_s2
I0122 17:49:03.417332 67000 net.cpp:144] Setting up downsample_9/3x3_s2
I0122 17:49:03.417346 67000 net.cpp:151] Top shape: 50 96 8 8 (307200)
I0122 17:49:03.417348 67000 net.cpp:159] Memory required for data: 509748200
I0122 17:49:03.417356 67000 layer_factory.hpp:77] Creating layer downsample_9/3x3_s2/bn1
I0122 17:49:03.417363 67000 net.cpp:94] Creating Layer downsample_9/3x3_s2/bn1
I0122 17:49:03.417368 67000 net.cpp:435] downsample_9/3x3_s2/bn1 <- downsample_9/3x3_s2
I0122 17:49:03.417376 67000 net.cpp:396] downsample_9/3x3_s2/bn1 -> downsample_9/3x3_s2 (in-place)
I0122 17:49:03.418089 67000 net.cpp:144] Setting up downsample_9/3x3_s2/bn1
I0122 17:49:03.418097 67000 net.cpp:151] Top shape: 50 96 8 8 (307200)
I0122 17:49:03.418100 67000 net.cpp:159] Memory required for data: 510977000
I0122 17:49:03.418107 67000 layer_factory.hpp:77] Creating layer downsample_9/3x3_s2/relu1
I0122 17:49:03.418113 67000 net.cpp:94] Creating Layer downsample_9/3x3_s2/relu1
I0122 17:49:03.418117 67000 net.cpp:435] downsample_9/3x3_s2/relu1 <- downsample_9/3x3_s2
I0122 17:49:03.418121 67000 net.cpp:396] downsample_9/3x3_s2/relu1 -> downsample_9/3x3_s2 (in-place)
I0122 17:49:03.418128 67000 net.cpp:144] Setting up downsample_9/3x3_s2/relu1
I0122 17:49:03.418146 67000 net.cpp:151] Top shape: 50 96 8 8 (307200)
I0122 17:49:03.418150 67000 net.cpp:159] Memory required for data: 512205800
I0122 17:49:03.418154 67000 layer_factory.hpp:77] Creating layer downsample_9/pool_s2
I0122 17:49:03.418164 67000 net.cpp:94] Creating Layer downsample_9/pool_s2
I0122 17:49:03.418171 67000 net.cpp:435] downsample_9/pool_s2 <- inception_8a/output_inception_8a/output_0_split_1
I0122 17:49:03.418179 67000 net.cpp:409] downsample_9/pool_s2 -> downsample_9/pool_s2
I0122 17:49:03.418223 67000 net.cpp:144] Setting up downsample_9/pool_s2
I0122 17:49:03.418229 67000 net.cpp:151] Top shape: 50 144 8 8 (460800)
I0122 17:49:03.418232 67000 net.cpp:159] Memory required for data: 514049000
I0122 17:49:03.418236 67000 layer_factory.hpp:77] Creating layer downsample_9/output
I0122 17:49:03.418246 67000 net.cpp:94] Creating Layer downsample_9/output
I0122 17:49:03.418251 67000 net.cpp:435] downsample_9/output <- downsample_9/3x3_s2
I0122 17:49:03.418256 67000 net.cpp:435] downsample_9/output <- downsample_9/pool_s2
I0122 17:49:03.418262 67000 net.cpp:409] downsample_9/output -> downsample_9/output
I0122 17:49:03.418289 67000 net.cpp:144] Setting up downsample_9/output
I0122 17:49:03.418295 67000 net.cpp:151] Top shape: 50 240 8 8 (768000)
I0122 17:49:03.418299 67000 net.cpp:159] Memory required for data: 517121000
I0122 17:49:03.418303 67000 layer_factory.hpp:77] Creating layer downsample_9/output_downsample_9/output_0_split
I0122 17:49:03.418310 67000 net.cpp:94] Creating Layer downsample_9/output_downsample_9/output_0_split
I0122 17:49:03.418316 67000 net.cpp:435] downsample_9/output_downsample_9/output_0_split <- downsample_9/output
I0122 17:49:03.418325 67000 net.cpp:409] downsample_9/output_downsample_9/output_0_split -> downsample_9/output_downsample_9/output_0_split_0
I0122 17:49:03.418334 67000 net.cpp:409] downsample_9/output_downsample_9/output_0_split -> downsample_9/output_downsample_9/output_0_split_1
I0122 17:49:03.418371 67000 net.cpp:144] Setting up downsample_9/output_downsample_9/output_0_split
I0122 17:49:03.418380 67000 net.cpp:151] Top shape: 50 240 8 8 (768000)
I0122 17:49:03.418385 67000 net.cpp:151] Top shape: 50 240 8 8 (768000)
I0122 17:49:03.418388 67000 net.cpp:159] Memory required for data: 523265000
I0122 17:49:03.418391 67000 layer_factory.hpp:77] Creating layer inception_10a/1x1
I0122 17:49:03.418401 67000 net.cpp:94] Creating Layer inception_10a/1x1
I0122 17:49:03.418408 67000 net.cpp:435] inception_10a/1x1 <- downsample_9/output_downsample_9/output_0_split_0
I0122 17:49:03.418417 67000 net.cpp:409] inception_10a/1x1 -> inception_10a/1x1
I0122 17:49:03.418896 67000 net.cpp:144] Setting up inception_10a/1x1
I0122 17:49:03.418905 67000 net.cpp:151] Top shape: 50 176 8 8 (563200)
I0122 17:49:03.418907 67000 net.cpp:159] Memory required for data: 525517800
I0122 17:49:03.418912 67000 layer_factory.hpp:77] Creating layer inception_10a/1x1/bn1
I0122 17:49:03.418920 67000 net.cpp:94] Creating Layer inception_10a/1x1/bn1
I0122 17:49:03.418926 67000 net.cpp:435] inception_10a/1x1/bn1 <- inception_10a/1x1
I0122 17:49:03.418936 67000 net.cpp:396] inception_10a/1x1/bn1 -> inception_10a/1x1 (in-place)
I0122 17:49:03.419633 67000 net.cpp:144] Setting up inception_10a/1x1/bn1
I0122 17:49:03.419641 67000 net.cpp:151] Top shape: 50 176 8 8 (563200)
I0122 17:49:03.419643 67000 net.cpp:159] Memory required for data: 527770600
I0122 17:49:03.419651 67000 layer_factory.hpp:77] Creating layer inception_10a/1x1/relu1
I0122 17:49:03.419658 67000 net.cpp:94] Creating Layer inception_10a/1x1/relu1
I0122 17:49:03.419662 67000 net.cpp:435] inception_10a/1x1/relu1 <- inception_10a/1x1
I0122 17:49:03.419670 67000 net.cpp:396] inception_10a/1x1/relu1 -> inception_10a/1x1 (in-place)
I0122 17:49:03.419679 67000 net.cpp:144] Setting up inception_10a/1x1/relu1
I0122 17:49:03.419687 67000 net.cpp:151] Top shape: 50 176 8 8 (563200)
I0122 17:49:03.419690 67000 net.cpp:159] Memory required for data: 530023400
I0122 17:49:03.419694 67000 layer_factory.hpp:77] Creating layer inception_10a/3x3
I0122 17:49:03.419718 67000 net.cpp:94] Creating Layer inception_10a/3x3
I0122 17:49:03.419723 67000 net.cpp:435] inception_10a/3x3 <- downsample_9/output_downsample_9/output_0_split_1
I0122 17:49:03.419734 67000 net.cpp:409] inception_10a/3x3 -> inception_10a/3x3
I0122 17:49:03.422250 67000 net.cpp:144] Setting up inception_10a/3x3
I0122 17:49:03.422263 67000 net.cpp:151] Top shape: 50 160 8 8 (512000)
I0122 17:49:03.422266 67000 net.cpp:159] Memory required for data: 532071400
I0122 17:49:03.422272 67000 layer_factory.hpp:77] Creating layer inception_10a/3x3/bn1
I0122 17:49:03.422281 67000 net.cpp:94] Creating Layer inception_10a/3x3/bn1
I0122 17:49:03.422288 67000 net.cpp:435] inception_10a/3x3/bn1 <- inception_10a/3x3
I0122 17:49:03.422296 67000 net.cpp:396] inception_10a/3x3/bn1 -> inception_10a/3x3 (in-place)
I0122 17:49:03.423000 67000 net.cpp:144] Setting up inception_10a/3x3/bn1
I0122 17:49:03.423008 67000 net.cpp:151] Top shape: 50 160 8 8 (512000)
I0122 17:49:03.423012 67000 net.cpp:159] Memory required for data: 534119400
I0122 17:49:03.423019 67000 layer_factory.hpp:77] Creating layer inception_10a/3x3/relu1
I0122 17:49:03.423027 67000 net.cpp:94] Creating Layer inception_10a/3x3/relu1
I0122 17:49:03.423032 67000 net.cpp:435] inception_10a/3x3/relu1 <- inception_10a/3x3
I0122 17:49:03.423039 67000 net.cpp:396] inception_10a/3x3/relu1 -> inception_10a/3x3 (in-place)
I0122 17:49:03.423049 67000 net.cpp:144] Setting up inception_10a/3x3/relu1
I0122 17:49:03.423056 67000 net.cpp:151] Top shape: 50 160 8 8 (512000)
I0122 17:49:03.423060 67000 net.cpp:159] Memory required for data: 536167400
I0122 17:49:03.423065 67000 layer_factory.hpp:77] Creating layer inception_10a/output
I0122 17:49:03.423071 67000 net.cpp:94] Creating Layer inception_10a/output
I0122 17:49:03.423077 67000 net.cpp:435] inception_10a/output <- inception_10a/1x1
I0122 17:49:03.423082 67000 net.cpp:435] inception_10a/output <- inception_10a/3x3
I0122 17:49:03.423091 67000 net.cpp:409] inception_10a/output -> inception_10a/output
I0122 17:49:03.423122 67000 net.cpp:144] Setting up inception_10a/output
I0122 17:49:03.423130 67000 net.cpp:151] Top shape: 50 336 8 8 (1075200)
I0122 17:49:03.423135 67000 net.cpp:159] Memory required for data: 540468200
I0122 17:49:03.423138 67000 layer_factory.hpp:77] Creating layer inception_10a/output_inception_10a/output_0_split
I0122 17:49:03.423143 67000 net.cpp:94] Creating Layer inception_10a/output_inception_10a/output_0_split
I0122 17:49:03.423146 67000 net.cpp:435] inception_10a/output_inception_10a/output_0_split <- inception_10a/output
I0122 17:49:03.423152 67000 net.cpp:409] inception_10a/output_inception_10a/output_0_split -> inception_10a/output_inception_10a/output_0_split_0
I0122 17:49:03.423163 67000 net.cpp:409] inception_10a/output_inception_10a/output_0_split -> inception_10a/output_inception_10a/output_0_split_1
I0122 17:49:03.423203 67000 net.cpp:144] Setting up inception_10a/output_inception_10a/output_0_split
I0122 17:49:03.423210 67000 net.cpp:151] Top shape: 50 336 8 8 (1075200)
I0122 17:49:03.423213 67000 net.cpp:151] Top shape: 50 336 8 8 (1075200)
I0122 17:49:03.423216 67000 net.cpp:159] Memory required for data: 549069800
I0122 17:49:03.423219 67000 layer_factory.hpp:77] Creating layer inception_11a/1x1
I0122 17:49:03.423228 67000 net.cpp:94] Creating Layer inception_11a/1x1
I0122 17:49:03.423233 67000 net.cpp:435] inception_11a/1x1 <- inception_10a/output_inception_10a/output_0_split_0
I0122 17:49:03.423241 67000 net.cpp:409] inception_11a/1x1 -> inception_11a/1x1
I0122 17:49:03.423813 67000 net.cpp:144] Setting up inception_11a/1x1
I0122 17:49:03.423821 67000 net.cpp:151] Top shape: 50 176 8 8 (563200)
I0122 17:49:03.423825 67000 net.cpp:159] Memory required for data: 551322600
I0122 17:49:03.423830 67000 layer_factory.hpp:77] Creating layer inception_11a/1x1/bn1
I0122 17:49:03.423838 67000 net.cpp:94] Creating Layer inception_11a/1x1/bn1
I0122 17:49:03.423843 67000 net.cpp:435] inception_11a/1x1/bn1 <- inception_11a/1x1
I0122 17:49:03.423851 67000 net.cpp:396] inception_11a/1x1/bn1 -> inception_11a/1x1 (in-place)
I0122 17:49:03.424566 67000 net.cpp:144] Setting up inception_11a/1x1/bn1
I0122 17:49:03.424574 67000 net.cpp:151] Top shape: 50 176 8 8 (563200)
I0122 17:49:03.424577 67000 net.cpp:159] Memory required for data: 553575400
I0122 17:49:03.424584 67000 layer_factory.hpp:77] Creating layer inception_11a/1x1/relu1
I0122 17:49:03.424593 67000 net.cpp:94] Creating Layer inception_11a/1x1/relu1
I0122 17:49:03.424597 67000 net.cpp:435] inception_11a/1x1/relu1 <- inception_11a/1x1
I0122 17:49:03.424603 67000 net.cpp:396] inception_11a/1x1/relu1 -> inception_11a/1x1 (in-place)
I0122 17:49:03.424615 67000 net.cpp:144] Setting up inception_11a/1x1/relu1
I0122 17:49:03.424623 67000 net.cpp:151] Top shape: 50 176 8 8 (563200)
I0122 17:49:03.424628 67000 net.cpp:159] Memory required for data: 555828200
I0122 17:49:03.424633 67000 layer_factory.hpp:77] Creating layer inception_11a/3x3
I0122 17:49:03.424644 67000 net.cpp:94] Creating Layer inception_11a/3x3
I0122 17:49:03.424651 67000 net.cpp:435] inception_11a/3x3 <- inception_10a/output_inception_10a/output_0_split_1
I0122 17:49:03.424660 67000 net.cpp:409] inception_11a/3x3 -> inception_11a/3x3
I0122 17:49:03.428431 67000 net.cpp:144] Setting up inception_11a/3x3
I0122 17:49:03.428442 67000 net.cpp:151] Top shape: 50 160 8 8 (512000)
I0122 17:49:03.428445 67000 net.cpp:159] Memory required for data: 557876200
I0122 17:49:03.428450 67000 layer_factory.hpp:77] Creating layer inception_11a/3x3/bn1
I0122 17:49:03.428457 67000 net.cpp:94] Creating Layer inception_11a/3x3/bn1
I0122 17:49:03.428463 67000 net.cpp:435] inception_11a/3x3/bn1 <- inception_11a/3x3
I0122 17:49:03.428472 67000 net.cpp:396] inception_11a/3x3/bn1 -> inception_11a/3x3 (in-place)
I0122 17:49:03.429172 67000 net.cpp:144] Setting up inception_11a/3x3/bn1
I0122 17:49:03.429180 67000 net.cpp:151] Top shape: 50 160 8 8 (512000)
I0122 17:49:03.429183 67000 net.cpp:159] Memory required for data: 559924200
I0122 17:49:03.429201 67000 layer_factory.hpp:77] Creating layer inception_11a/3x3/relu1
I0122 17:49:03.429210 67000 net.cpp:94] Creating Layer inception_11a/3x3/relu1
I0122 17:49:03.429215 67000 net.cpp:435] inception_11a/3x3/relu1 <- inception_11a/3x3
I0122 17:49:03.429224 67000 net.cpp:396] inception_11a/3x3/relu1 -> inception_11a/3x3 (in-place)
I0122 17:49:03.429235 67000 net.cpp:144] Setting up inception_11a/3x3/relu1
I0122 17:49:03.429244 67000 net.cpp:151] Top shape: 50 160 8 8 (512000)
I0122 17:49:03.429247 67000 net.cpp:159] Memory required for data: 561972200
I0122 17:49:03.429251 67000 layer_factory.hpp:77] Creating layer inception_11a/output
I0122 17:49:03.429258 67000 net.cpp:94] Creating Layer inception_11a/output
I0122 17:49:03.429262 67000 net.cpp:435] inception_11a/output <- inception_11a/1x1
I0122 17:49:03.429267 67000 net.cpp:435] inception_11a/output <- inception_11a/3x3
I0122 17:49:03.429275 67000 net.cpp:409] inception_11a/output -> inception_11a/output
I0122 17:49:03.429302 67000 net.cpp:144] Setting up inception_11a/output
I0122 17:49:03.429309 67000 net.cpp:151] Top shape: 50 336 8 8 (1075200)
I0122 17:49:03.429313 67000 net.cpp:159] Memory required for data: 566273000
I0122 17:49:03.429317 67000 layer_factory.hpp:77] Creating layer avg_pool_12/8x8_s1
I0122 17:49:03.429329 67000 net.cpp:94] Creating Layer avg_pool_12/8x8_s1
I0122 17:49:03.429335 67000 net.cpp:435] avg_pool_12/8x8_s1 <- inception_11a/output
I0122 17:49:03.429343 67000 net.cpp:409] avg_pool_12/8x8_s1 -> avg_pool_12/8x8_s1
I0122 17:49:03.429371 67000 net.cpp:144] Setting up avg_pool_12/8x8_s1
I0122 17:49:03.429379 67000 net.cpp:151] Top shape: 50 336 1 1 (16800)
I0122 17:49:03.429383 67000 net.cpp:159] Memory required for data: 566340200
I0122 17:49:03.429385 67000 layer_factory.hpp:77] Creating layer drop_8x8_s1
I0122 17:49:03.429389 67000 net.cpp:94] Creating Layer drop_8x8_s1
I0122 17:49:03.429394 67000 net.cpp:435] drop_8x8_s1 <- avg_pool_12/8x8_s1
I0122 17:49:03.429399 67000 net.cpp:396] drop_8x8_s1 -> avg_pool_12/8x8_s1 (in-place)
I0122 17:49:03.429424 67000 net.cpp:144] Setting up drop_8x8_s1
I0122 17:49:03.429430 67000 net.cpp:151] Top shape: 50 336 1 1 (16800)
I0122 17:49:03.429446 67000 net.cpp:159] Memory required for data: 566407400
I0122 17:49:03.429450 67000 layer_factory.hpp:77] Creating layer loss/classifier
I0122 17:49:03.429460 67000 net.cpp:94] Creating Layer loss/classifier
I0122 17:49:03.429466 67000 net.cpp:435] loss/classifier <- avg_pool_12/8x8_s1
I0122 17:49:03.429474 67000 net.cpp:409] loss/classifier -> loss/classifier
I0122 17:49:03.429631 67000 net.cpp:144] Setting up loss/classifier
I0122 17:49:03.429637 67000 net.cpp:151] Top shape: 50 10 (500)
I0122 17:49:03.429641 67000 net.cpp:159] Memory required for data: 566409400
I0122 17:49:03.429646 67000 layer_factory.hpp:77] Creating layer loss/classifier_loss/classifier_0_split
I0122 17:49:03.429651 67000 net.cpp:94] Creating Layer loss/classifier_loss/classifier_0_split
I0122 17:49:03.429653 67000 net.cpp:435] loss/classifier_loss/classifier_0_split <- loss/classifier
I0122 17:49:03.429661 67000 net.cpp:409] loss/classifier_loss/classifier_0_split -> loss/classifier_loss/classifier_0_split_0
I0122 17:49:03.429673 67000 net.cpp:409] loss/classifier_loss/classifier_0_split -> loss/classifier_loss/classifier_0_split_1
I0122 17:49:03.429682 67000 net.cpp:409] loss/classifier_loss/classifier_0_split -> loss/classifier_loss/classifier_0_split_2
I0122 17:49:03.429690 67000 net.cpp:409] loss/classifier_loss/classifier_0_split -> loss/classifier_loss/classifier_0_split_3
I0122 17:49:03.429752 67000 net.cpp:144] Setting up loss/classifier_loss/classifier_0_split
I0122 17:49:03.429759 67000 net.cpp:151] Top shape: 50 10 (500)
I0122 17:49:03.429762 67000 net.cpp:151] Top shape: 50 10 (500)
I0122 17:49:03.429765 67000 net.cpp:151] Top shape: 50 10 (500)
I0122 17:49:03.429769 67000 net.cpp:151] Top shape: 50 10 (500)
I0122 17:49:03.429771 67000 net.cpp:159] Memory required for data: 566417400
I0122 17:49:03.429774 67000 layer_factory.hpp:77] Creating layer loss
I0122 17:49:03.429780 67000 net.cpp:94] Creating Layer loss
I0122 17:49:03.429783 67000 net.cpp:435] loss <- loss/classifier_loss/classifier_0_split_0
I0122 17:49:03.429790 67000 net.cpp:435] loss <- label_data_1_split_0
I0122 17:49:03.429795 67000 net.cpp:409] loss -> loss
…
