…
I0122 18:31:53.150768 68174 caffe_interface.cpp:70] GPU device name: Quadro P6000
I0122 18:31:53.151670 68174 net.cpp:323] The NetState phase (1) differed from the phase (0) specified by a rule in layer data
I0122 18:31:53.152261 68174 net.cpp:52] Initializing net from parameters: 
state {
  phase: TEST
}
layer {
  name: "data"
  type: "Data"
  top: "data"
  top: "label"
  include {
    phase: TEST
  }
  transform_param {
    mirror: false
    mean_value: 104
    mean_value: 117
    mean_value: 123
  }
  data_param {
    source: "cifar10/input/lmdb/valid_lmdb"
    batch_size: 50
    backend: LMDB
  }
}
layer {
  name: "conv1/3x3_s1"
  type: "Convolution"
  bottom: "data"
  top: "conv1/3x3_s1"
  param {
    lr_mult: 1
    decay_mult: 1
  }
  param {
    lr_mult: 2
    decay_mult: 0
  }
  convolution_param {
    num_output: 96
    pad: 1
    kernel_size: 3
    stride: 1
    weight_filler {
      type: "xavier"
      std: 0.1
    }
    bias_filler {
      type: "constant"
      value: 0.2
    }
  }
}
layer {
  name: "conv1/bn1"
  type: "BatchNorm"
  bottom: "conv1/3x3_s1"
  top: "conv1/3x3_s1"
  param {
    lr_mult: 1
    decay_mult: 0
  }
  param {
    lr_mult: 1
    decay_mult: 0
  }
  param {
    lr_mult: 0
    decay_mult: 0
  }
  param {
    lr_mult: 0
    decay_mult: 0
  }
  batch_norm_param {
    use_global_stats: false
    scale_filler {
      type: "constant"
      value: 1
    }
    bias_filler {
      type: "constant"
      value: 0
    }
  }
}
layer {
  name: "conv1/relu1"
  type: "ReLU"
  bottom: "conv1/3x3_s1"
  top: "conv1/3x3_s1"
}
layer {
  name: "inception_2a/1x1"
  type: "Convolution"
  bottom: "conv1/3x3_s1"
  top: "inception_2a/1x1"
  param {
    lr_mult: 1
    decay_mult: 1
  }
  param {
    lr_mult: 2
    decay_mult: 0
  }
  convolution_param {
    num_output: 32
    kernel_size: 1
    weight_filler {
      type: "xavier"
      std: 0.03
    }
    bias_filler {
      type: "constant"
      value: 0.2
    }
  }
}
layer {
  name: "inception_2a/1x1/bn1"
  type: "BatchNorm"
  bottom: "inception_2a/1x1"
  top: "inception_2a/1x1"
  param {
    lr_mult: 1
    decay_mult: 0
  }
  param {
    lr_mult: 1
    decay_mult: 0
  }
  param {
    lr_mult: 0
    decay_mult: 0
  }
  param {
    lr_mult: 0
    decay_mult: 0
  }
  batch_norm_param {
    use_global_stats: false
    scale_filler {
      type: "constant"
      value: 1
    }
    bias_filler {
      type: "constant"
      value: 0
    }
  }
}
layer {
  name: "inception_2a/1x1/relu1"
  type: "ReLU"
  bottom: "inception_2a/1x1"
  top: "inception_2a/1x1"
}
layer {
  name: "inception_2a/3x3"
  type: "Convolution"
  bottom: "conv1/3x3_s1"
  top: "inception_2a/3x3"
  param {
    lr_mult: 1
    decay_mult: 1
  }
  param {
    lr_mult: 2
    decay_mult: 0
  }
  convolution_param {
    num_output: 32
    pad: 1
    kernel_size: 3
    weight_filler {
      type: "xavier"
      std: 0.03
    }
    bias_filler {
      type: "constant"
      value: 0.2
    }
  }
}
layer {
  name: "inception_2a/3x3/bn1"
  type: "BatchNorm"
  bottom: "inception_2a/3x3"
  top: "inception_2a/3x3"
  param {
    lr_mult: 1
    decay_mult: 0
  }
  param {
    lr_mult: 1
    decay_mult: 0
  }
  param {
    lr_mult: 0
    decay_mult: 0
  }
  param {
    lr_mult: 0
    decay_mult: 0
  }
  batch_norm_param {
    use_global_stats: false
    scale_filler {
      type: "constant"
      value: 1
    }
    bias_filler {
      type: "constant"
      value: 0
    }
  }
}
layer {
  name: "inception_2a/3x3/relu1"
  type: "ReLU"
  bottom: "inception_2a/3x3"
  top: "inception_2a/3x3"
}
layer {
  name: "inception_2a/output"
  type: "Concat"
  bottom: "inception_2a/1x1"
  bottom: "inception_2a/3x3"
  top: "inception_2a/output"
}
layer {
  name: "inception_3a/1x1"
  type: "Convolution"
  bottom: "inception_2a/output"
  top: "inception_3a/1x1"
  param {
    lr_mult: 1
    decay_mult: 1
  }
  param {
    lr_mult: 2
    decay_mult: 0
  }
  convolution_param {
    num_output: 32
    kernel_size: 1
    weight_filler {
      type: "xavier"
      std: 0.03
    }
    bias_filler {
      type: "constant"
      value: 0.2
    }
  }
}
layer {
  name: "inception_3a/1x1/bn1"
  type: "BatchNorm"
  bottom: "inception_3a/1x1"
  top: "inception_3a/1x1"
  param {
    lr_mult: 1
    decay_mult: 0
  }
  param {
    lr_mult: 1
    decay_mult: 0
  }
  param {
    lr_mult: 0
    decay_mult: 0
  }
  param {
    lr_mult: 0
    decay_mult: 0
  }
  batch_norm_param {
    use_global_stats: false
    scale_filler {
      type: "constant"
      value: 1
    }
    bias_filler {
      type: "constant"
      value: 0
    }
  }
}
layer {
  name: "inception_3a/1x1/relu1"
  type: "ReLU"
  bottom: "inception_3a/1x1"
  top: "inception_3a/1x1"
}
layer {
  name: "inception_3a/3x3"
  type: "Convolution"
  bottom: "inception_2a/output"
  top: "inception_3a/3x3"
  param {
    lr_mult: 1
    decay_mult: 1
  }
  param {
    lr_mult: 2
    decay_mult: 0
  }
  convolution_param {
    num_output: 48
    pad: 1
    kernel_size: 3
    weight_filler {
      type: "xavier"
      std: 0.03
    }
    bias_filler {
      type: "constant"
      value: 0.2
    }
  }
}
layer {
  name: "inception_3a/3x3/bn1"
  type: "BatchNorm"
  bottom: "inception_3a/3x3"
  top: "inception_3a/3x3"
  param {
    lr_mult: 1
    decay_mult: 0
  }
  param {
    lr_mult: 1
    decay_mult: 0
  }
  param {
    lr_mult: 0
    decay_mult: 0
  }
  param {
    lr_mult: 0
    decay_mult: 0
  }
  batch_norm_param {
    use_global_stats: false
    scale_filler {
      type: "constant"
      value: 1
    }
    bias_filler {
      type: "constant"
      value: 0
    }
  }
}
layer {
  name: "inception_3a/3x3/relu1"
  type: "ReLU"
  bottom: "inception_3a/3x3"
  top: "inception_3a/3x3"
}
layer {
  name: "inception_3a/output"
  type: "Concat"
  bottom: "inception_3a/1x1"
  bottom: "inception_3a/3x3"
  top: "inception_3a/output"
}
layer {
  name: "downsample_4/3x3_s2"
  type: "Convolution"
  bottom: "inception_3a/output"
  top: "downsample_4/3x3_s2"
  param {
    lr_mult: 1
    decay_mult: 1
  }
  param {
    lr_mult: 2
    decay_mult: 0
  }
  convolution_param {
    num_output: 80
    pad: 1
    kernel_size: 3
    stride: 2
    weight_filler {
      type: "xavier"
      std: 0.03
    }
    bias_filler {
      type: "constant"
      value: 0.2
    }
  }
}
layer {
  name: "downsample_4/3x3_s2/bn1"
  type: "BatchNorm"
  bottom: "downsample_4/3x3_s2"
  top: "downsample_4/3x3_s2"
  param {
    lr_mult: 1
    decay_mult: 0
  }
  param {
    lr_mult: 1
    decay_mult: 0
  }
  param {
    lr_mult: 0
    decay_mult: 0
  }
  param {
    lr_mult: 0
    decay_mult: 0
  }
  batch_norm_param {
    use_global_stats: false
    scale_filler {
      type: "constant"
      value: 1
    }
    bias_filler {
      type: "constant"
      value: 0
    }
  }
}
layer {
  name: "downsample_4/3x3_s2/relu1"
  type: "ReLU"
  bottom: "downsample_4/3x3_s2"
  top: "downsample_4/3x3_s2"
}
layer {
  name: "downsample_4/pool_s2"
  type: "Pooling"
  bottom: "inception_3a/output"
  top: "downsample_4/pool_s2"
  pooling_param {
    pool: MAX
    kernel_size: 3
    stride: 2
  }
}
layer {
  name: "downsample_4/output"
  type: "Concat"
  bottom: "downsample_4/3x3_s2"
  bottom: "downsample_4/pool_s2"
  top: "downsample_4/output"
}
layer {
  name: "inception_5a/1x1"
  type: "Convolution"
  bottom: "downsample_4/output"
  top: "inception_5a/1x1"
  param {
    lr_mult: 1
    decay_mult: 1
  }
  param {
    lr_mult: 2
    decay_mult: 0
  }
  convolution_param {
    num_output: 112
    kernel_size: 1
    weight_filler {
      type: "xavier"
      std: 0.03
    }
    bias_filler {
      type: "constant"
      value: 0.2
    }
  }
}
layer {
  name: "inception_5a/1x1/bn1"
  type: "BatchNorm"
  bottom: "inception_5a/1x1"
  top: "inception_5a/1x1"
  param {
    lr_mult: 1
    decay_mult: 0
  }
  param {
    lr_mult: 1
    decay_mult: 0
  }
  param {
    lr_mult: 0
    decay_mult: 0
  }
  param {
    lr_mult: 0
    decay_mult: 0
  }
  batch_norm_param {
    use_global_stats: false
    scale_filler {
      type: "constant"
      value: 1
    }
    bias_filler {
      type: "constant"
      value: 0
    }
  }
}
layer {
  name: "inception_5a/1x1/relu1"
  type: "ReLU"
  bottom: "inception_5a/1x1"
  top: "inception_5a/1x1"
}
layer {
  name: "inception_5a/3x3"
  type: "Convolution"
  bottom: "downsample_4/output"
  top: "inception_5a/3x3"
  param {
    lr_mult: 1
    decay_mult: 1
  }
  param {
    lr_mult: 2
    decay_mult: 0
  }
  convolution_param {
    num_output: 48
    pad: 1
    kernel_size: 3
    weight_filler {
      type: "xavier"
      std: 0.03
    }
    bias_filler {
      type: "constant"
      value: 0.2
    }
  }
}
layer {
  name: "inception_5a/3x3/bn1"
  type: "BatchNorm"
  bottom: "inception_5a/3x3"
  top: "inception_5a/3x3"
  param {
    lr_mult: 1
    decay_mult: 0
  }
  param {
    lr_mult: 1
    decay_mult: 0
  }
  param {
    lr_mult: 0
    decay_mult: 0
  }
  param {
    lr_mult: 0
    decay_mult: 0
  }
  batch_norm_param {
    use_global_stats: false
    scale_filler {
      type: "constant"
      value: 1
    }
    bias_filler {
      type: "constant"
      value: 0
    }
  }
}
layer {
  name: "inception_5a/3x3/relu1"
  type: "ReLU"
  bottom: "inception_5a/3x3"
  top: "inception_5a/3x3"
}
layer {
  name: "inception_5a/output"
  type: "Concat"
  bottom: "inception_5a/1x1"
  bottom: "inception_5a/3x3"
  top: "inception_5a/output"
}
layer {
  name: "inception_6a/1x1"
  type: "Convolution"
  bottom: "inception_5a/output"
  top: "inception_6a/1x1"
  param {
    lr_mult: 1
    decay_mult: 1
  }
  param {
    lr_mult: 2
    decay_mult: 0
  }
  convolution_param {
    num_output: 96
    kernel_size: 1
    weight_filler {
      type: "xavier"
      std: 0.03
    }
    bias_filler {
      type: "constant"
      value: 0.2
    }
  }
}
layer {
  name: "inception_6a/1x1/bn1"
  type: "BatchNorm"
  bottom: "inception_6a/1x1"
  top: "inception_6a/1x1"
  param {
    lr_mult: 1
    decay_mult: 0
  }
  param {
    lr_mult: 1
    decay_mult: 0
  }
  param {
    lr_mult: 0
    decay_mult: 0
  }
  param {
    lr_mult: 0
    decay_mult: 0
  }
  batch_norm_param {
    use_global_stats: false
    scale_filler {
      type: "constant"
      value: 1
    }
    bias_filler {
      type: "constant"
      value: 0
    }
  }
}
layer {
  name: "inception_6a/1x1/relu1"
  type: "ReLU"
  bottom: "inception_6a/1x1"
  top: "inception_6a/1x1"
}
layer {
  name: "inception_6a/3x3"
  type: "Convolution"
  bottom: "inception_5a/output"
  top: "inception_6a/3x3"
  param {
    lr_mult: 1
    decay_mult: 1
  }
  param {
    lr_mult: 2
    decay_mult: 0
  }
  convolution_param {
    num_output: 64
    pad: 1
    kernel_size: 3
    weight_filler {
      type: "xavier"
      std: 0.03
    }
    bias_filler {
      type: "constant"
      value: 0.2
    }
  }
}
layer {
  name: "inception_6a/3x3/bn1"
  type: "BatchNorm"
  bottom: "inception_6a/3x3"
  top: "inception_6a/3x3"
  param {
    lr_mult: 1
    decay_mult: 0
  }
  param {
    lr_mult: 1
    decay_mult: 0
  }
  param {
    lr_mult: 0
    decay_mult: 0
  }
  param {
    lr_mult: 0
    decay_mult: 0
  }
  batch_norm_param {
    use_global_stats: false
    scale_filler {
      type: "constant"
      value: 1
    }
    bias_filler {
      type: "constant"
      value: 0
    }
  }
}
layer {
  name: "inception_6a/3x3/relu1"
  type: "ReLU"
  bottom: "inception_6a/3x3"
  top: "inception_6a/3x3"
}
layer {
  name: "inception_6a/output"
  type: "Concat"
  bottom: "inception_6a/1x1"
  bottom: "inception_6a/3x3"
  top: "inception_6a/output"
}
layer {
  name: "inception_7a/1x1"
  type: "Convolution"
  bottom: "inception_6a/output"
  top: "inception_7a/1x1"
  param {
    lr_mult: 1
    decay_mult: 1
  }
  param {
    lr_mult: 2
    decay_mult: 0
  }
  convolution_param {
    num_output: 80
    kernel_size: 1
    weight_filler {
      type: "xavier"
      std: 0.03
    }
    bias_filler {
      type: "constant"
      value: 0.2
    }
  }
}
layer {
  name: "inception_7a/1x1/bn1"
  type: "BatchNorm"
  bottom: "inception_7a/1x1"
  top: "inception_7a/1x1"
  param {
    lr_mult: 1
    decay_mult: 0
  }
  param {
    lr_mult: 1
    decay_mult: 0
  }
  param {
    lr_mult: 0
    decay_mult: 0
  }
  param {
    lr_mult: 0
    decay_mult: 0
  }
  batch_norm_param {
    use_global_stats: false
    scale_filler {
      type: "constant"
      value: 1
    }
    bias_filler {
      type: "constant"
      value: 0
    }
  }
}
layer {
  name: "inception_7a/1x1/relu1"
  type: "ReLU"
  bottom: "inception_7a/1x1"
  top: "inception_7a/1x1"
}
layer {
  name: "inception_7a/3x3"
  type: "Convolution"
  bottom: "inception_6a/output"
  top: "inception_7a/3x3"
  param {
    lr_mult: 1
    decay_mult: 1
  }
  param {
    lr_mult: 2
    decay_mult: 0
  }
  convolution_param {
    num_output: 80
    pad: 1
    kernel_size: 3
    weight_filler {
      type: "xavier"
      std: 0.03
    }
    bias_filler {
      type: "constant"
      value: 0.2
    }
  }
}
layer {
  name: "inception_7a/3x3/bn1"
  type: "BatchNorm"
  bottom: "inception_7a/3x3"
  top: "inception_7a/3x3"
  param {
    lr_mult: 1
    decay_mult: 0
  }
  param {
    lr_mult: 1
    decay_mult: 0
  }
  param {
    lr_mult: 0
    decay_mult: 0
  }
  param {
    lr_mult: 0
    decay_mult: 0
  }
  batch_norm_param {
    use_global_stats: false
    scale_filler {
      type: "constant"
      value: 1
    }
    bias_filler {
      type: "constant"
      value: 0
    }
  }
}
layer {
  name: "inception_7a/3x3/relu1"
  type: "ReLU"
  bottom: "inception_7a/3x3"
  top: "inception_7a/3x3"
}
layer {
  name: "inception_7a/output"
  type: "Concat"
  bottom: "inception_7a/1x1"
  bottom: "inception_7a/3x3"
  top: "inception_7a/output"
}
layer {
  name: "inception_8a/1x1"
  type: "Convolution"
  bottom: "inception_7a/output"
  top: "inception_8a/1x1"
  param {
    lr_mult: 1
    decay_mult: 1
  }
  param {
    lr_mult: 2
    decay_mult: 0
  }
  convolution_param {
    num_output: 48
    kernel_size: 1
    weight_filler {
      type: "xavier"
      std: 0.03
    }
    bias_filler {
      type: "constant"
      value: 0.2
    }
  }
}
layer {
  name: "inception_8a/1x1/bn1"
  type: "BatchNorm"
  bottom: "inception_8a/1x1"
  top: "inception_8a/1x1"
  param {
    lr_mult: 1
    decay_mult: 0
  }
  param {
    lr_mult: 1
    decay_mult: 0
  }
  param {
    lr_mult: 0
    decay_mult: 0
  }
  param {
    lr_mult: 0
    decay_mult: 0
  }
  batch_norm_param {
    use_global_stats: false
    scale_filler {
      type: "constant"
      value: 1
    }
    bias_filler {
      type: "constant"
      value: 0
    }
  }
}
layer {
  name: "inception_8a/1x1/relu1"
  type: "ReLU"
  bottom: "inception_8a/1x1"
  top: "inception_8a/1x1"
}
layer {
  name: "inception_8a/3x3"
  type: "Convolution"
  bottom: "inception_7a/output"
  top: "inception_8a/3x3"
  param {
    lr_mult: 1
    decay_mult: 1
  }
  param {
    lr_mult: 2
    decay_mult: 0
  }
  convolution_param {
    num_output: 96
    pad: 1
    kernel_size: 3
    weight_filler {
      type: "xavier"
      std: 0.03
    }
    bias_filler {
      type: "constant"
      value: 0.2
    }
  }
}
layer {
  name: "inception_8a/3x3/bn1"
  type: "BatchNorm"
  bottom: "inception_8a/3x3"
  top: "inception_8a/3x3"
  param {
    lr_mult: 1
    decay_mult: 0
  }
  param {
    lr_mult: 1
    decay_mult: 0
  }
  param {
    lr_mult: 0
    decay_mult: 0
  }
  param {
    lr_mult: 0
    decay_mult: 0
  }
  batch_norm_param {
    use_global_stats: false
    scale_filler {
      type: "constant"
      value: 1
    }
    bias_filler {
      type: "constant"
      value: 0
    }
  }
}
layer {
  name: "inception_8a/3x3/relu1"
  type: "ReLU"
  bottom: "inception_8a/3x3"
  top: "inception_8a/3x3"
}
layer {
  name: "inception_8a/output"
  type: "Concat"
  bottom: "inception_8a/1x1"
  bottom: "inception_8a/3x3"
  top: "inception_8a/output"
}
layer {
  name: "downsample_9/3x3_s2"
  type: "Convolution"
  bottom: "inception_8a/output"
  top: "downsample_9/3x3_s2"
  param {
    lr_mult: 1
    decay_mult: 1
  }
  param {
    lr_mult: 2
    decay_mult: 0
  }
  convolution_param {
    num_output: 96
    pad: 1
    kernel_size: 3
    stride: 2
    weight_filler {
      type: "xavier"
      std: 0.03
    }
    bias_filler {
      type: "constant"
      value: 0.2
    }
  }
}
layer {
  name: "downsample_9/3x3_s2/bn1"
  type: "BatchNorm"
  bottom: "downsample_9/3x3_s2"
  top: "downsample_9/3x3_s2"
  param {
    lr_mult: 1
    decay_mult: 0
  }
  param {
    lr_mult: 1
    decay_mult: 0
  }
  param {
    lr_mult: 0
    decay_mult: 0
  }
  param {
    lr_mult: 0
    decay_mult: 0
  }
  batch_norm_param {
    use_global_stats: false
    scale_filler {
      type: "constant"
      value: 1
    }
    bias_filler {
      type: "constant"
      value: 0
    }
  }
}
layer {
  name: "downsample_9/3x3_s2/relu1"
  type: "ReLU"
  bottom: "downsample_9/3x3_s2"
  top: "downsample_9/3x3_s2"
}
layer {
  name: "downsample_9/pool_s2"
  type: "Pooling"
  bottom: "inception_8a/output"
  top: "downsample_9/pool_s2"
  pooling_param {
    pool: MAX
    kernel_size: 3
    stride: 2
  }
}
layer {
  name: "downsample_9/output"
  type: "Concat"
  bottom: "downsample_9/3x3_s2"
  bottom: "downsample_9/pool_s2"
  top: "downsample_9/output"
}
layer {
  name: "inception_10a/1x1"
  type: "Convolution"
  bottom: "downsample_9/output"
  top: "inception_10a/1x1"
  param {
    lr_mult: 1
    decay_mult: 1
  }
  param {
    lr_mult: 2
    decay_mult: 0
  }
  convolution_param {
    num_output: 176
    kernel_size: 1
    weight_filler {
      type: "xavier"
      std: 0.03
    }
    bias_filler {
      type: "constant"
      value: 0.2
    }
  }
}
layer {
  name: "inception_10a/1x1/bn1"
  type: "BatchNorm"
  bottom: "inception_10a/1x1"
  top: "inception_10a/1x1"
  param {
    lr_mult: 1
    decay_mult: 0
  }
  param {
    lr_mult: 1
    decay_mult: 0
  }
  param {
    lr_mult: 0
    decay_mult: 0
  }
  param {
    lr_mult: 0
    decay_mult: 0
  }
  batch_norm_param {
    use_global_stats: false
    scale_filler {
      type: "constant"
      value: 1
    }
    bias_filler {
      type: "constant"
      value: 0
    }
  }
}
layer {
  name: "inception_10a/1x1/relu1"
  type: "ReLU"
  bottom: "inception_10a/1x1"
  top: "inception_10a/1x1"
}
layer {
  name: "inception_10a/3x3"
  type: "Convolution"
  bottom: "downsample_9/output"
  top: "inception_10a/3x3"
  param {
    lr_mult: 1
    decay_mult: 1
  }
  param {
    lr_mult: 2
    decay_mult: 0
  }
  convolution_param {
    num_output: 160
    pad: 1
    kernel_size: 3
    weight_filler {
      type: "xavier"
      std: 0.03
    }
    bias_filler {
      type: "constant"
      value: 0.2
    }
  }
}
layer {
  name: "inception_10a/3x3/bn1"
  type: "BatchNorm"
  bottom: "inception_10a/3x3"
  top: "inception_10a/3x3"
  param {
    lr_mult: 1
    decay_mult: 0
  }
  param {
    lr_mult: 1
    decay_mult: 0
  }
  param {
    lr_mult: 0
    decay_mult: 0
  }
  param {
    lr_mult: 0
    decay_mult: 0
  }
  batch_norm_param {
    use_global_stats: false
    scale_filler {
      type: "constant"
      value: 1
    }
    bias_filler {
      type: "constant"
      value: 0
    }
  }
}
layer {
  name: "inception_10a/3x3/relu1"
  type: "ReLU"
  bottom: "inception_10a/3x3"
  top: "inception_10a/3x3"
}
layer {
  name: "inception_10a/output"
  type: "Concat"
  bottom: "inception_10a/1x1"
  bottom: "inception_10a/3x3"
  top: "inception_10a/output"
}
layer {
  name: "inception_11a/1x1"
  type: "Convolution"
  bottom: "inception_10a/output"
  top: "inception_11a/1x1"
  param {
    lr_mult: 1
    decay_mult: 1
  }
  param {
    lr_mult: 2
    decay_mult: 0
  }
  convolution_param {
    num_output: 176
    kernel_size: 1
    weight_filler {
      type: "xavier"
      std: 0.03
    }
    bias_filler {
      type: "constant"
      value: 0.2
    }
  }
}
layer {
  name: "inception_11a/1x1/bn1"
  type: "BatchNorm"
  bottom: "inception_11a/1x1"
  top: "inception_11a/1x1"
  param {
    lr_mult: 1
    decay_mult: 0
  }
  param {
    lr_mult: 1
    decay_mult: 0
  }
  param {
    lr_mult: 0
    decay_mult: 0
  }
  param {
    lr_mult: 0
    decay_mult: 0
  }
  batch_norm_param {
    use_global_stats: false
    scale_filler {
      type: "constant"
      value: 1
    }
    bias_filler {
      type: "constant"
      value: 0
    }
  }
}
layer {
  name: "inception_11a/1x1/relu1"
  type: "ReLU"
  bottom: "inception_11a/1x1"
  top: "inception_11a/1x1"
}
layer {
  name: "inception_11a/3x3"
  type: "Convolution"
  bottom: "inception_10a/output"
  top: "inception_11a/3x3"
  param {
    lr_mult: 1
    decay_mult: 1
  }
  param {
    lr_mult: 2
    decay_mult: 0
  }
  convolution_param {
    num_output: 160
    pad: 1
    kernel_size: 3
    weight_filler {
      type: "xavier"
      std: 0.03
    }
    bias_filler {
      type: "constant"
      value: 0.2
    }
  }
}
layer {
  name: "inception_11a/3x3/bn1"
  type: "BatchNorm"
  bottom: "inception_11a/3x3"
  top: "inception_11a/3x3"
  param {
    lr_mult: 1
    decay_mult: 0
  }
  param {
    lr_mult: 1
    decay_mult: 0
  }
  param {
    lr_mult: 0
    decay_mult: 0
  }
  param {
    lr_mult: 0
    decay_mult: 0
  }
  batch_norm_param {
    use_global_stats: false
    scale_filler {
      type: "constant"
      value: 1
    }
    bias_filler {
      type: "constant"
      value: 0
    }
  }
}
layer {
  name: "inception_11a/3x3/relu1"
  type: "ReLU"
  bottom: "inception_11a/3x3"
  top: "inception_11a/3x3"
}
layer {
  name: "inception_11a/output"
  type: "Concat"
  bottom: "inception_11a/1x1"
  bottom: "inception_11a/3x3"
  top: "inception_11a/output"
}
layer {
  name: "avg_pool_12/8x8_s1"
  type: "Pooling"
  bottom: "inception_11a/output"
  top: "avg_pool_12/8x8_s1"
  pooling_param {
    pool: AVE
    kernel_size: 8
    stride: 1
  }
}
layer {
  name: "drop_8x8_s1"
  type: "Dropout"
  bottom: "avg_pool_12/8x8_s1"
  top: "avg_pool_12/8x8_s1"
  dropout_param {
    dropout_ratio: 0.5
  }
}
layer {
  name: "loss/classifier"
  type: "InnerProduct"
  bottom: "avg_pool_12/8x8_s1"
  top: "loss/classifier"
  param {
    lr_mult: 1
    decay_mult: 1
  }
  param {
    lr_mult: 2
    decay_mult: 0
  }
  inner_product_param {
    num_output: 10
    weight_filler {
      type: "xavier"
    }
    bias_filler {
      type: "constant"
      value: 1
    }
  }
}
layer {
  name: "loss"
  type: "SoftmaxWithLoss"
  bottom: "loss/classifier"
  bottom: "label"
  top: "loss"
}
layer {
  name: "accuracy"
  type: "Accuracy"
  bottom: "loss/classifier"
  bottom: "label"
  top: "accuracy"
  include {
    phase: TEST
  }
}
layer {
  name: "accuracy-top1"
  type: "Accuracy"
  bottom: "loss/classifier"
  bottom: "label"
  top: "top-1"
  include {
    phase: TEST
  }
}
layer {
  name: "accuracy-top5"
  type: "Accuracy"
  bottom: "loss/classifier"
  bottom: "label"
  top: "top-5"
  include {
    phase: TEST
  }
  accuracy_param {
    top_k: 5
  }
}
I0122 18:31:53.152590 68174 layer_factory.hpp:77] Creating layer data
I0122 18:31:53.152629 68174 internal_thread.cpp:27] Starting internal thread(s) on GPU 0
I0122 18:31:53.152998 68174 net.cpp:94] Creating Layer data
I0122 18:31:53.153005 68174 net.cpp:409] data -> data
I0122 18:31:53.153013 68174 net.cpp:409] data -> label
I0122 18:31:53.154294 69114 db_lmdb.cpp:35] Opened lmdb cifar10/input/lmdb/valid_lmdb
I0122 18:31:53.154327 69114 data_reader.cpp:117] TEST: reading data using 1 channel(s)
I0122 18:31:53.154389 68174 data_layer.cpp:78] ReshapePrefetch 50, 3, 32, 32
I0122 18:31:53.154481 68174 data_layer.cpp:83] output data size: 50,3,32,32
I0122 18:31:53.157133 68174 internal_thread.cpp:27] Starting internal thread(s) on GPU 0
I0122 18:31:53.157171 68174 net.cpp:144] Setting up data
I0122 18:31:53.157176 68174 net.cpp:151] Top shape: 50 3 32 32 (153600)
I0122 18:31:53.157189 68174 net.cpp:151] Top shape: 50 (50)
I0122 18:31:53.157192 68174 net.cpp:159] Memory required for data: 614600
I0122 18:31:53.157196 68174 layer_factory.hpp:77] Creating layer label_data_1_split
I0122 18:31:53.157202 68174 net.cpp:94] Creating Layer label_data_1_split
I0122 18:31:53.157205 68174 net.cpp:435] label_data_1_split <- label
I0122 18:31:53.157210 68174 net.cpp:409] label_data_1_split -> label_data_1_split_0
I0122 18:31:53.157217 68174 net.cpp:409] label_data_1_split -> label_data_1_split_1
I0122 18:31:53.157223 68174 net.cpp:409] label_data_1_split -> label_data_1_split_2
I0122 18:31:53.157233 68174 net.cpp:409] label_data_1_split -> label_data_1_split_3
I0122 18:31:53.157311 68174 net.cpp:144] Setting up label_data_1_split
I0122 18:31:53.157316 68174 net.cpp:151] Top shape: 50 (50)
I0122 18:31:53.157320 68174 net.cpp:151] Top shape: 50 (50)
I0122 18:31:53.157323 68174 net.cpp:151] Top shape: 50 (50)
I0122 18:31:53.157327 68174 net.cpp:151] Top shape: 50 (50)
I0122 18:31:53.157330 68174 net.cpp:159] Memory required for data: 615400
I0122 18:31:53.157332 68174 layer_factory.hpp:77] Creating layer conv1/3x3_s1
I0122 18:31:53.157339 68174 net.cpp:94] Creating Layer conv1/3x3_s1
I0122 18:31:53.157346 68174 net.cpp:435] conv1/3x3_s1 <- data
I0122 18:31:53.157351 68174 net.cpp:409] conv1/3x3_s1 -> conv1/3x3_s1
I0122 18:31:53.158826 68174 net.cpp:144] Setting up conv1/3x3_s1
I0122 18:31:53.158838 68174 net.cpp:151] Top shape: 50 96 32 32 (4915200)
I0122 18:31:53.158840 68174 net.cpp:159] Memory required for data: 20276200
I0122 18:31:53.158850 68174 layer_factory.hpp:77] Creating layer conv1/bn1
I0122 18:31:53.158856 68174 net.cpp:94] Creating Layer conv1/bn1
I0122 18:31:53.158859 68174 net.cpp:435] conv1/bn1 <- conv1/3x3_s1
I0122 18:31:53.158865 68174 net.cpp:396] conv1/bn1 -> conv1/3x3_s1 (in-place)
I0122 18:31:53.159538 68174 net.cpp:144] Setting up conv1/bn1
I0122 18:31:53.159545 68174 net.cpp:151] Top shape: 50 96 32 32 (4915200)
I0122 18:31:53.159549 68174 net.cpp:159] Memory required for data: 39937000
I0122 18:31:53.159560 68174 layer_factory.hpp:77] Creating layer conv1/relu1
I0122 18:31:53.159569 68174 net.cpp:94] Creating Layer conv1/relu1
I0122 18:31:53.159571 68174 net.cpp:435] conv1/relu1 <- conv1/3x3_s1
I0122 18:31:53.159575 68174 net.cpp:396] conv1/relu1 -> conv1/3x3_s1 (in-place)
I0122 18:31:53.159582 68174 net.cpp:144] Setting up conv1/relu1
I0122 18:31:53.159586 68174 net.cpp:151] Top shape: 50 96 32 32 (4915200)
I0122 18:31:53.159590 68174 net.cpp:159] Memory required for data: 59597800
I0122 18:31:53.159591 68174 layer_factory.hpp:77] Creating layer conv1/3x3_s1_conv1/relu1_0_split
I0122 18:31:53.159596 68174 net.cpp:94] Creating Layer conv1/3x3_s1_conv1/relu1_0_split
I0122 18:31:53.159600 68174 net.cpp:435] conv1/3x3_s1_conv1/relu1_0_split <- conv1/3x3_s1
I0122 18:31:53.159603 68174 net.cpp:409] conv1/3x3_s1_conv1/relu1_0_split -> conv1/3x3_s1_conv1/relu1_0_split_0
I0122 18:31:53.159610 68174 net.cpp:409] conv1/3x3_s1_conv1/relu1_0_split -> conv1/3x3_s1_conv1/relu1_0_split_1
I0122 18:31:53.159672 68174 net.cpp:144] Setting up conv1/3x3_s1_conv1/relu1_0_split
I0122 18:31:53.159678 68174 net.cpp:151] Top shape: 50 96 32 32 (4915200)
I0122 18:31:53.159682 68174 net.cpp:151] Top shape: 50 96 32 32 (4915200)
I0122 18:31:53.159684 68174 net.cpp:159] Memory required for data: 98919400
I0122 18:31:53.159687 68174 layer_factory.hpp:77] Creating layer inception_2a/1x1
I0122 18:31:53.159694 68174 net.cpp:94] Creating Layer inception_2a/1x1
I0122 18:31:53.159698 68174 net.cpp:435] inception_2a/1x1 <- conv1/3x3_s1_conv1/relu1_0_split_0
I0122 18:31:53.159703 68174 net.cpp:409] inception_2a/1x1 -> inception_2a/1x1
I0122 18:31:53.160009 68174 net.cpp:144] Setting up inception_2a/1x1
I0122 18:31:53.160017 68174 net.cpp:151] Top shape: 50 32 32 32 (1638400)
I0122 18:31:53.160018 68174 net.cpp:159] Memory required for data: 105473000
I0122 18:31:53.160025 68174 layer_factory.hpp:77] Creating layer inception_2a/1x1/bn1
I0122 18:31:53.160032 68174 net.cpp:94] Creating Layer inception_2a/1x1/bn1
I0122 18:31:53.160046 68174 net.cpp:435] inception_2a/1x1/bn1 <- inception_2a/1x1
I0122 18:31:53.160053 68174 net.cpp:396] inception_2a/1x1/bn1 -> inception_2a/1x1 (in-place)
I0122 18:31:53.160810 68174 net.cpp:144] Setting up inception_2a/1x1/bn1
I0122 18:31:53.160817 68174 net.cpp:151] Top shape: 50 32 32 32 (1638400)
I0122 18:31:53.160820 68174 net.cpp:159] Memory required for data: 112026600
I0122 18:31:53.160827 68174 layer_factory.hpp:77] Creating layer inception_2a/1x1/relu1
I0122 18:31:53.160831 68174 net.cpp:94] Creating Layer inception_2a/1x1/relu1
I0122 18:31:53.160835 68174 net.cpp:435] inception_2a/1x1/relu1 <- inception_2a/1x1
I0122 18:31:53.160840 68174 net.cpp:396] inception_2a/1x1/relu1 -> inception_2a/1x1 (in-place)
I0122 18:31:53.160845 68174 net.cpp:144] Setting up inception_2a/1x1/relu1
I0122 18:31:53.160848 68174 net.cpp:151] Top shape: 50 32 32 32 (1638400)
I0122 18:31:53.160868 68174 net.cpp:159] Memory required for data: 118580200
I0122 18:31:53.160871 68174 layer_factory.hpp:77] Creating layer inception_2a/3x3
I0122 18:31:53.160878 68174 net.cpp:94] Creating Layer inception_2a/3x3
I0122 18:31:53.160881 68174 net.cpp:435] inception_2a/3x3 <- conv1/3x3_s1_conv1/relu1_0_split_1
I0122 18:31:53.160887 68174 net.cpp:409] inception_2a/3x3 -> inception_2a/3x3
I0122 18:31:53.161911 68174 net.cpp:144] Setting up inception_2a/3x3
I0122 18:31:53.161921 68174 net.cpp:151] Top shape: 50 32 32 32 (1638400)
I0122 18:31:53.161924 68174 net.cpp:159] Memory required for data: 125133800
I0122 18:31:53.161931 68174 layer_factory.hpp:77] Creating layer inception_2a/3x3/bn1
I0122 18:31:53.161938 68174 net.cpp:94] Creating Layer inception_2a/3x3/bn1
I0122 18:31:53.161943 68174 net.cpp:435] inception_2a/3x3/bn1 <- inception_2a/3x3
I0122 18:31:53.161949 68174 net.cpp:396] inception_2a/3x3/bn1 -> inception_2a/3x3 (in-place)
I0122 18:31:53.162585 68174 net.cpp:144] Setting up inception_2a/3x3/bn1
I0122 18:31:53.162591 68174 net.cpp:151] Top shape: 50 32 32 32 (1638400)
I0122 18:31:53.162595 68174 net.cpp:159] Memory required for data: 131687400
I0122 18:31:53.162606 68174 layer_factory.hpp:77] Creating layer inception_2a/3x3/relu1
I0122 18:31:53.162611 68174 net.cpp:94] Creating Layer inception_2a/3x3/relu1
I0122 18:31:53.162614 68174 net.cpp:435] inception_2a/3x3/relu1 <- inception_2a/3x3
I0122 18:31:53.162619 68174 net.cpp:396] inception_2a/3x3/relu1 -> inception_2a/3x3 (in-place)
I0122 18:31:53.162626 68174 net.cpp:144] Setting up inception_2a/3x3/relu1
I0122 18:31:53.162632 68174 net.cpp:151] Top shape: 50 32 32 32 (1638400)
I0122 18:31:53.162636 68174 net.cpp:159] Memory required for data: 138241000
I0122 18:31:53.162637 68174 layer_factory.hpp:77] Creating layer inception_2a/output
I0122 18:31:53.162642 68174 net.cpp:94] Creating Layer inception_2a/output
I0122 18:31:53.162645 68174 net.cpp:435] inception_2a/output <- inception_2a/1x1
I0122 18:31:53.162648 68174 net.cpp:435] inception_2a/output <- inception_2a/3x3
I0122 18:31:53.162654 68174 net.cpp:409] inception_2a/output -> inception_2a/output
I0122 18:31:53.162674 68174 net.cpp:144] Setting up inception_2a/output
I0122 18:31:53.162680 68174 net.cpp:151] Top shape: 50 64 32 32 (3276800)
I0122 18:31:53.162683 68174 net.cpp:159] Memory required for data: 151348200
I0122 18:31:53.162685 68174 layer_factory.hpp:77] Creating layer inception_2a/output_inception_2a/output_0_split
I0122 18:31:53.162689 68174 net.cpp:94] Creating Layer inception_2a/output_inception_2a/output_0_split
I0122 18:31:53.162693 68174 net.cpp:435] inception_2a/output_inception_2a/output_0_split <- inception_2a/output
I0122 18:31:53.162698 68174 net.cpp:409] inception_2a/output_inception_2a/output_0_split -> inception_2a/output_inception_2a/output_0_split_0
I0122 18:31:53.162703 68174 net.cpp:409] inception_2a/output_inception_2a/output_0_split -> inception_2a/output_inception_2a/output_0_split_1
I0122 18:31:53.162770 68174 net.cpp:144] Setting up inception_2a/output_inception_2a/output_0_split
I0122 18:31:53.162775 68174 net.cpp:151] Top shape: 50 64 32 32 (3276800)
I0122 18:31:53.162789 68174 net.cpp:151] Top shape: 50 64 32 32 (3276800)
I0122 18:31:53.162791 68174 net.cpp:159] Memory required for data: 177562600
I0122 18:31:53.162794 68174 layer_factory.hpp:77] Creating layer inception_3a/1x1
I0122 18:31:53.162802 68174 net.cpp:94] Creating Layer inception_3a/1x1
I0122 18:31:53.162807 68174 net.cpp:435] inception_3a/1x1 <- inception_2a/output_inception_2a/output_0_split_0
I0122 18:31:53.162813 68174 net.cpp:409] inception_3a/1x1 -> inception_3a/1x1
I0122 18:31:53.163028 68174 net.cpp:144] Setting up inception_3a/1x1
I0122 18:31:53.163034 68174 net.cpp:151] Top shape: 50 32 32 32 (1638400)
I0122 18:31:53.163038 68174 net.cpp:159] Memory required for data: 184116200
I0122 18:31:53.163043 68174 layer_factory.hpp:77] Creating layer inception_3a/1x1/bn1
I0122 18:31:53.163048 68174 net.cpp:94] Creating Layer inception_3a/1x1/bn1
I0122 18:31:53.163064 68174 net.cpp:435] inception_3a/1x1/bn1 <- inception_3a/1x1
I0122 18:31:53.163069 68174 net.cpp:396] inception_3a/1x1/bn1 -> inception_3a/1x1 (in-place)
I0122 18:31:53.163718 68174 net.cpp:144] Setting up inception_3a/1x1/bn1
I0122 18:31:53.163724 68174 net.cpp:151] Top shape: 50 32 32 32 (1638400)
I0122 18:31:53.163728 68174 net.cpp:159] Memory required for data: 190669800
I0122 18:31:53.163735 68174 layer_factory.hpp:77] Creating layer inception_3a/1x1/relu1
I0122 18:31:53.163741 68174 net.cpp:94] Creating Layer inception_3a/1x1/relu1
I0122 18:31:53.163744 68174 net.cpp:435] inception_3a/1x1/relu1 <- inception_3a/1x1
I0122 18:31:53.163749 68174 net.cpp:396] inception_3a/1x1/relu1 -> inception_3a/1x1 (in-place)
I0122 18:31:53.163756 68174 net.cpp:144] Setting up inception_3a/1x1/relu1
I0122 18:31:53.163760 68174 net.cpp:151] Top shape: 50 32 32 32 (1638400)
I0122 18:31:53.163763 68174 net.cpp:159] Memory required for data: 197223400
I0122 18:31:53.163765 68174 layer_factory.hpp:77] Creating layer inception_3a/3x3
I0122 18:31:53.163774 68174 net.cpp:94] Creating Layer inception_3a/3x3
I0122 18:31:53.163777 68174 net.cpp:435] inception_3a/3x3 <- inception_2a/output_inception_2a/output_0_split_1
I0122 18:31:53.163784 68174 net.cpp:409] inception_3a/3x3 -> inception_3a/3x3
I0122 18:31:53.164160 68174 net.cpp:144] Setting up inception_3a/3x3
I0122 18:31:53.164167 68174 net.cpp:151] Top shape: 50 48 32 32 (2457600)
I0122 18:31:53.164170 68174 net.cpp:159] Memory required for data: 207053800
I0122 18:31:53.164175 68174 layer_factory.hpp:77] Creating layer inception_3a/3x3/bn1
I0122 18:31:53.164182 68174 net.cpp:94] Creating Layer inception_3a/3x3/bn1
I0122 18:31:53.164186 68174 net.cpp:435] inception_3a/3x3/bn1 <- inception_3a/3x3
I0122 18:31:53.164191 68174 net.cpp:396] inception_3a/3x3/bn1 -> inception_3a/3x3 (in-place)
I0122 18:31:53.164824 68174 net.cpp:144] Setting up inception_3a/3x3/bn1
I0122 18:31:53.164830 68174 net.cpp:151] Top shape: 50 48 32 32 (2457600)
I0122 18:31:53.164834 68174 net.cpp:159] Memory required for data: 216884200
I0122 18:31:53.164844 68174 layer_factory.hpp:77] Creating layer inception_3a/3x3/relu1
I0122 18:31:53.164850 68174 net.cpp:94] Creating Layer inception_3a/3x3/relu1
I0122 18:31:53.164855 68174 net.cpp:435] inception_3a/3x3/relu1 <- inception_3a/3x3
I0122 18:31:53.164858 68174 net.cpp:396] inception_3a/3x3/relu1 -> inception_3a/3x3 (in-place)
I0122 18:31:53.164865 68174 net.cpp:144] Setting up inception_3a/3x3/relu1
I0122 18:31:53.164867 68174 net.cpp:151] Top shape: 50 48 32 32 (2457600)
I0122 18:31:53.164871 68174 net.cpp:159] Memory required for data: 226714600
I0122 18:31:53.164873 68174 layer_factory.hpp:77] Creating layer inception_3a/output
I0122 18:31:53.164877 68174 net.cpp:94] Creating Layer inception_3a/output
I0122 18:31:53.164880 68174 net.cpp:435] inception_3a/output <- inception_3a/1x1
I0122 18:31:53.164885 68174 net.cpp:435] inception_3a/output <- inception_3a/3x3
I0122 18:31:53.164891 68174 net.cpp:409] inception_3a/output -> inception_3a/output
I0122 18:31:53.164911 68174 net.cpp:144] Setting up inception_3a/output
I0122 18:31:53.164916 68174 net.cpp:151] Top shape: 50 80 32 32 (4096000)
I0122 18:31:53.164928 68174 net.cpp:159] Memory required for data: 243098600
I0122 18:31:53.164930 68174 layer_factory.hpp:77] Creating layer inception_3a/output_inception_3a/output_0_split
I0122 18:31:53.164935 68174 net.cpp:94] Creating Layer inception_3a/output_inception_3a/output_0_split
I0122 18:31:53.164938 68174 net.cpp:435] inception_3a/output_inception_3a/output_0_split <- inception_3a/output
I0122 18:31:53.164943 68174 net.cpp:409] inception_3a/output_inception_3a/output_0_split -> inception_3a/output_inception_3a/output_0_split_0
I0122 18:31:53.164950 68174 net.cpp:409] inception_3a/output_inception_3a/output_0_split -> inception_3a/output_inception_3a/output_0_split_1
I0122 18:31:53.165009 68174 net.cpp:144] Setting up inception_3a/output_inception_3a/output_0_split
I0122 18:31:53.165014 68174 net.cpp:151] Top shape: 50 80 32 32 (4096000)
I0122 18:31:53.165017 68174 net.cpp:151] Top shape: 50 80 32 32 (4096000)
I0122 18:31:53.165020 68174 net.cpp:159] Memory required for data: 275866600
I0122 18:31:53.165024 68174 layer_factory.hpp:77] Creating layer downsample_4/3x3_s2
I0122 18:31:53.165031 68174 net.cpp:94] Creating Layer downsample_4/3x3_s2
I0122 18:31:53.165037 68174 net.cpp:435] downsample_4/3x3_s2 <- inception_3a/output_inception_3a/output_0_split_0
I0122 18:31:53.165043 68174 net.cpp:409] downsample_4/3x3_s2 -> downsample_4/3x3_s2
I0122 18:31:53.165565 68174 net.cpp:144] Setting up downsample_4/3x3_s2
I0122 18:31:53.165572 68174 net.cpp:151] Top shape: 50 80 16 16 (1024000)
I0122 18:31:53.165576 68174 net.cpp:159] Memory required for data: 279962600
I0122 18:31:53.165581 68174 layer_factory.hpp:77] Creating layer downsample_4/3x3_s2/bn1
I0122 18:31:53.165588 68174 net.cpp:94] Creating Layer downsample_4/3x3_s2/bn1
I0122 18:31:53.165591 68174 net.cpp:435] downsample_4/3x3_s2/bn1 <- downsample_4/3x3_s2
I0122 18:31:53.165596 68174 net.cpp:396] downsample_4/3x3_s2/bn1 -> downsample_4/3x3_s2 (in-place)
I0122 18:31:53.166326 68174 net.cpp:144] Setting up downsample_4/3x3_s2/bn1
I0122 18:31:53.166333 68174 net.cpp:151] Top shape: 50 80 16 16 (1024000)
I0122 18:31:53.166335 68174 net.cpp:159] Memory required for data: 284058600
I0122 18:31:53.166344 68174 layer_factory.hpp:77] Creating layer downsample_4/3x3_s2/relu1
I0122 18:31:53.166349 68174 net.cpp:94] Creating Layer downsample_4/3x3_s2/relu1
I0122 18:31:53.166352 68174 net.cpp:435] downsample_4/3x3_s2/relu1 <- downsample_4/3x3_s2
I0122 18:31:53.166357 68174 net.cpp:396] downsample_4/3x3_s2/relu1 -> downsample_4/3x3_s2 (in-place)
I0122 18:31:53.166364 68174 net.cpp:144] Setting up downsample_4/3x3_s2/relu1
I0122 18:31:53.166368 68174 net.cpp:151] Top shape: 50 80 16 16 (1024000)
I0122 18:31:53.166371 68174 net.cpp:159] Memory required for data: 288154600
I0122 18:31:53.166374 68174 layer_factory.hpp:77] Creating layer downsample_4/pool_s2
I0122 18:31:53.166380 68174 net.cpp:94] Creating Layer downsample_4/pool_s2
I0122 18:31:53.166384 68174 net.cpp:435] downsample_4/pool_s2 <- inception_3a/output_inception_3a/output_0_split_1
I0122 18:31:53.166390 68174 net.cpp:409] downsample_4/pool_s2 -> downsample_4/pool_s2
I0122 18:31:53.166424 68174 net.cpp:144] Setting up downsample_4/pool_s2
I0122 18:31:53.166429 68174 net.cpp:151] Top shape: 50 80 16 16 (1024000)
I0122 18:31:53.166432 68174 net.cpp:159] Memory required for data: 292250600
I0122 18:31:53.166435 68174 layer_factory.hpp:77] Creating layer downsample_4/output
I0122 18:31:53.166438 68174 net.cpp:94] Creating Layer downsample_4/output
I0122 18:31:53.166442 68174 net.cpp:435] downsample_4/output <- downsample_4/3x3_s2
I0122 18:31:53.166445 68174 net.cpp:435] downsample_4/output <- downsample_4/pool_s2
I0122 18:31:53.166450 68174 net.cpp:409] downsample_4/output -> downsample_4/output
I0122 18:31:53.166505 68174 net.cpp:144] Setting up downsample_4/output
I0122 18:31:53.166512 68174 net.cpp:151] Top shape: 50 160 16 16 (2048000)
I0122 18:31:53.166513 68174 net.cpp:159] Memory required for data: 300442600
I0122 18:31:53.166517 68174 layer_factory.hpp:77] Creating layer downsample_4/output_downsample_4/output_0_split
I0122 18:31:53.166534 68174 net.cpp:94] Creating Layer downsample_4/output_downsample_4/output_0_split
I0122 18:31:53.166538 68174 net.cpp:435] downsample_4/output_downsample_4/output_0_split <- downsample_4/output
I0122 18:31:53.166543 68174 net.cpp:409] downsample_4/output_downsample_4/output_0_split -> downsample_4/output_downsample_4/output_0_split_0
I0122 18:31:53.166548 68174 net.cpp:409] downsample_4/output_downsample_4/output_0_split -> downsample_4/output_downsample_4/output_0_split_1
I0122 18:31:53.166574 68174 net.cpp:144] Setting up downsample_4/output_downsample_4/output_0_split
I0122 18:31:53.166580 68174 net.cpp:151] Top shape: 50 160 16 16 (2048000)
I0122 18:31:53.166584 68174 net.cpp:151] Top shape: 50 160 16 16 (2048000)
I0122 18:31:53.166587 68174 net.cpp:159] Memory required for data: 316826600
I0122 18:31:53.166590 68174 layer_factory.hpp:77] Creating layer inception_5a/1x1
I0122 18:31:53.166597 68174 net.cpp:94] Creating Layer inception_5a/1x1
I0122 18:31:53.166607 68174 net.cpp:435] inception_5a/1x1 <- downsample_4/output_downsample_4/output_0_split_0
I0122 18:31:53.166612 68174 net.cpp:409] inception_5a/1x1 -> inception_5a/1x1
I0122 18:31:53.166924 68174 net.cpp:144] Setting up inception_5a/1x1
I0122 18:31:53.166932 68174 net.cpp:151] Top shape: 50 112 16 16 (1433600)
I0122 18:31:53.166935 68174 net.cpp:159] Memory required for data: 322561000
I0122 18:31:53.166941 68174 layer_factory.hpp:77] Creating layer inception_5a/1x1/bn1
I0122 18:31:53.166947 68174 net.cpp:94] Creating Layer inception_5a/1x1/bn1
I0122 18:31:53.166951 68174 net.cpp:435] inception_5a/1x1/bn1 <- inception_5a/1x1
I0122 18:31:53.166956 68174 net.cpp:396] inception_5a/1x1/bn1 -> inception_5a/1x1 (in-place)
I0122 18:31:53.167645 68174 net.cpp:144] Setting up inception_5a/1x1/bn1
I0122 18:31:53.167651 68174 net.cpp:151] Top shape: 50 112 16 16 (1433600)
I0122 18:31:53.167655 68174 net.cpp:159] Memory required for data: 328295400
I0122 18:31:53.167662 68174 layer_factory.hpp:77] Creating layer inception_5a/1x1/relu1
I0122 18:31:53.167667 68174 net.cpp:94] Creating Layer inception_5a/1x1/relu1
I0122 18:31:53.167670 68174 net.cpp:435] inception_5a/1x1/relu1 <- inception_5a/1x1
I0122 18:31:53.167675 68174 net.cpp:396] inception_5a/1x1/relu1 -> inception_5a/1x1 (in-place)
I0122 18:31:53.167681 68174 net.cpp:144] Setting up inception_5a/1x1/relu1
I0122 18:31:53.167685 68174 net.cpp:151] Top shape: 50 112 16 16 (1433600)
I0122 18:31:53.167688 68174 net.cpp:159] Memory required for data: 334029800
I0122 18:31:53.167691 68174 layer_factory.hpp:77] Creating layer inception_5a/3x3
I0122 18:31:53.167698 68174 net.cpp:94] Creating Layer inception_5a/3x3
I0122 18:31:53.167701 68174 net.cpp:435] inception_5a/3x3 <- downsample_4/output_downsample_4/output_0_split_1
I0122 18:31:53.167707 68174 net.cpp:409] inception_5a/3x3 -> inception_5a/3x3
I0122 18:31:53.168323 68174 net.cpp:144] Setting up inception_5a/3x3
I0122 18:31:53.168330 68174 net.cpp:151] Top shape: 50 48 16 16 (614400)
I0122 18:31:53.168334 68174 net.cpp:159] Memory required for data: 336487400
I0122 18:31:53.168339 68174 layer_factory.hpp:77] Creating layer inception_5a/3x3/bn1
I0122 18:31:53.168346 68174 net.cpp:94] Creating Layer inception_5a/3x3/bn1
I0122 18:31:53.168350 68174 net.cpp:435] inception_5a/3x3/bn1 <- inception_5a/3x3
I0122 18:31:53.168355 68174 net.cpp:396] inception_5a/3x3/bn1 -> inception_5a/3x3 (in-place)
I0122 18:31:53.169034 68174 net.cpp:144] Setting up inception_5a/3x3/bn1
I0122 18:31:53.169040 68174 net.cpp:151] Top shape: 50 48 16 16 (614400)
I0122 18:31:53.169044 68174 net.cpp:159] Memory required for data: 338945000
I0122 18:31:53.169051 68174 layer_factory.hpp:77] Creating layer inception_5a/3x3/relu1
I0122 18:31:53.169055 68174 net.cpp:94] Creating Layer inception_5a/3x3/relu1
I0122 18:31:53.169059 68174 net.cpp:435] inception_5a/3x3/relu1 <- inception_5a/3x3
I0122 18:31:53.169064 68174 net.cpp:396] inception_5a/3x3/relu1 -> inception_5a/3x3 (in-place)
I0122 18:31:53.169070 68174 net.cpp:144] Setting up inception_5a/3x3/relu1
I0122 18:31:53.169083 68174 net.cpp:151] Top shape: 50 48 16 16 (614400)
I0122 18:31:53.169087 68174 net.cpp:159] Memory required for data: 341402600
I0122 18:31:53.169090 68174 layer_factory.hpp:77] Creating layer inception_5a/output
I0122 18:31:53.169095 68174 net.cpp:94] Creating Layer inception_5a/output
I0122 18:31:53.169097 68174 net.cpp:435] inception_5a/output <- inception_5a/1x1
I0122 18:31:53.169102 68174 net.cpp:435] inception_5a/output <- inception_5a/3x3
I0122 18:31:53.169107 68174 net.cpp:409] inception_5a/output -> inception_5a/output
I0122 18:31:53.169127 68174 net.cpp:144] Setting up inception_5a/output
I0122 18:31:53.169133 68174 net.cpp:151] Top shape: 50 160 16 16 (2048000)
I0122 18:31:53.169137 68174 net.cpp:159] Memory required for data: 349594600
I0122 18:31:53.169139 68174 layer_factory.hpp:77] Creating layer inception_5a/output_inception_5a/output_0_split
I0122 18:31:53.169143 68174 net.cpp:94] Creating Layer inception_5a/output_inception_5a/output_0_split
I0122 18:31:53.169149 68174 net.cpp:435] inception_5a/output_inception_5a/output_0_split <- inception_5a/output
I0122 18:31:53.169154 68174 net.cpp:409] inception_5a/output_inception_5a/output_0_split -> inception_5a/output_inception_5a/output_0_split_0
I0122 18:31:53.169160 68174 net.cpp:409] inception_5a/output_inception_5a/output_0_split -> inception_5a/output_inception_5a/output_0_split_1
I0122 18:31:53.169211 68174 net.cpp:144] Setting up inception_5a/output_inception_5a/output_0_split
I0122 18:31:53.169217 68174 net.cpp:151] Top shape: 50 160 16 16 (2048000)
I0122 18:31:53.169221 68174 net.cpp:151] Top shape: 50 160 16 16 (2048000)
I0122 18:31:53.169224 68174 net.cpp:159] Memory required for data: 365978600
I0122 18:31:53.169227 68174 layer_factory.hpp:77] Creating layer inception_6a/1x1
I0122 18:31:53.169234 68174 net.cpp:94] Creating Layer inception_6a/1x1
I0122 18:31:53.169239 68174 net.cpp:435] inception_6a/1x1 <- inception_5a/output_inception_5a/output_0_split_0
I0122 18:31:53.169245 68174 net.cpp:409] inception_6a/1x1 -> inception_6a/1x1
I0122 18:31:53.170208 68174 net.cpp:144] Setting up inception_6a/1x1
I0122 18:31:53.170219 68174 net.cpp:151] Top shape: 50 96 16 16 (1228800)
I0122 18:31:53.170222 68174 net.cpp:159] Memory required for data: 370893800
I0122 18:31:53.170228 68174 layer_factory.hpp:77] Creating layer inception_6a/1x1/bn1
I0122 18:31:53.170235 68174 net.cpp:94] Creating Layer inception_6a/1x1/bn1
I0122 18:31:53.170238 68174 net.cpp:435] inception_6a/1x1/bn1 <- inception_6a/1x1
I0122 18:31:53.170245 68174 net.cpp:396] inception_6a/1x1/bn1 -> inception_6a/1x1 (in-place)
I0122 18:31:53.170857 68174 net.cpp:144] Setting up inception_6a/1x1/bn1
I0122 18:31:53.170864 68174 net.cpp:151] Top shape: 50 96 16 16 (1228800)
I0122 18:31:53.170866 68174 net.cpp:159] Memory required for data: 375809000
I0122 18:31:53.170876 68174 layer_factory.hpp:77] Creating layer inception_6a/1x1/relu1
I0122 18:31:53.170882 68174 net.cpp:94] Creating Layer inception_6a/1x1/relu1
I0122 18:31:53.170886 68174 net.cpp:435] inception_6a/1x1/relu1 <- inception_6a/1x1
I0122 18:31:53.170889 68174 net.cpp:396] inception_6a/1x1/relu1 -> inception_6a/1x1 (in-place)
I0122 18:31:53.170897 68174 net.cpp:144] Setting up inception_6a/1x1/relu1
I0122 18:31:53.170899 68174 net.cpp:151] Top shape: 50 96 16 16 (1228800)
I0122 18:31:53.170902 68174 net.cpp:159] Memory required for data: 380724200
I0122 18:31:53.170904 68174 layer_factory.hpp:77] Creating layer inception_6a/3x3
I0122 18:31:53.170913 68174 net.cpp:94] Creating Layer inception_6a/3x3
I0122 18:31:53.170917 68174 net.cpp:435] inception_6a/3x3 <- inception_5a/output_inception_5a/output_0_split_1
I0122 18:31:53.170934 68174 net.cpp:409] inception_6a/3x3 -> inception_6a/3x3
I0122 18:31:53.172222 68174 net.cpp:144] Setting up inception_6a/3x3
I0122 18:31:53.172233 68174 net.cpp:151] Top shape: 50 64 16 16 (819200)
I0122 18:31:53.172236 68174 net.cpp:159] Memory required for data: 384001000
I0122 18:31:53.172246 68174 layer_factory.hpp:77] Creating layer inception_6a/3x3/bn1
I0122 18:31:53.172255 68174 net.cpp:94] Creating Layer inception_6a/3x3/bn1
I0122 18:31:53.172269 68174 net.cpp:435] inception_6a/3x3/bn1 <- inception_6a/3x3
I0122 18:31:53.172276 68174 net.cpp:396] inception_6a/3x3/bn1 -> inception_6a/3x3 (in-place)
I0122 18:31:53.172906 68174 net.cpp:144] Setting up inception_6a/3x3/bn1
I0122 18:31:53.172914 68174 net.cpp:151] Top shape: 50 64 16 16 (819200)
I0122 18:31:53.172916 68174 net.cpp:159] Memory required for data: 387277800
I0122 18:31:53.172924 68174 layer_factory.hpp:77] Creating layer inception_6a/3x3/relu1
I0122 18:31:53.172930 68174 net.cpp:94] Creating Layer inception_6a/3x3/relu1
I0122 18:31:53.172932 68174 net.cpp:435] inception_6a/3x3/relu1 <- inception_6a/3x3
I0122 18:31:53.172937 68174 net.cpp:396] inception_6a/3x3/relu1 -> inception_6a/3x3 (in-place)
I0122 18:31:53.172943 68174 net.cpp:144] Setting up inception_6a/3x3/relu1
I0122 18:31:53.172947 68174 net.cpp:151] Top shape: 50 64 16 16 (819200)
I0122 18:31:53.172950 68174 net.cpp:159] Memory required for data: 390554600
I0122 18:31:53.172953 68174 layer_factory.hpp:77] Creating layer inception_6a/output
I0122 18:31:53.172957 68174 net.cpp:94] Creating Layer inception_6a/output
I0122 18:31:53.172960 68174 net.cpp:435] inception_6a/output <- inception_6a/1x1
I0122 18:31:53.172964 68174 net.cpp:435] inception_6a/output <- inception_6a/3x3
I0122 18:31:53.172969 68174 net.cpp:409] inception_6a/output -> inception_6a/output
I0122 18:31:53.172986 68174 net.cpp:144] Setting up inception_6a/output
I0122 18:31:53.172991 68174 net.cpp:151] Top shape: 50 160 16 16 (2048000)
I0122 18:31:53.172994 68174 net.cpp:159] Memory required for data: 398746600
I0122 18:31:53.172997 68174 layer_factory.hpp:77] Creating layer inception_6a/output_inception_6a/output_0_split
I0122 18:31:53.173002 68174 net.cpp:94] Creating Layer inception_6a/output_inception_6a/output_0_split
I0122 18:31:53.173005 68174 net.cpp:435] inception_6a/output_inception_6a/output_0_split <- inception_6a/output
I0122 18:31:53.173009 68174 net.cpp:409] inception_6a/output_inception_6a/output_0_split -> inception_6a/output_inception_6a/output_0_split_0
I0122 18:31:53.173017 68174 net.cpp:409] inception_6a/output_inception_6a/output_0_split -> inception_6a/output_inception_6a/output_0_split_1
I0122 18:31:53.173045 68174 net.cpp:144] Setting up inception_6a/output_inception_6a/output_0_split
I0122 18:31:53.173050 68174 net.cpp:151] Top shape: 50 160 16 16 (2048000)
I0122 18:31:53.173054 68174 net.cpp:151] Top shape: 50 160 16 16 (2048000)
I0122 18:31:53.173058 68174 net.cpp:159] Memory required for data: 415130600
I0122 18:31:53.173060 68174 layer_factory.hpp:77] Creating layer inception_7a/1x1
I0122 18:31:53.173068 68174 net.cpp:94] Creating Layer inception_7a/1x1
I0122 18:31:53.173074 68174 net.cpp:435] inception_7a/1x1 <- inception_6a/output_inception_6a/output_0_split_0
I0122 18:31:53.173079 68174 net.cpp:409] inception_7a/1x1 -> inception_7a/1x1
I0122 18:31:53.173360 68174 net.cpp:144] Setting up inception_7a/1x1
I0122 18:31:53.173367 68174 net.cpp:151] Top shape: 50 80 16 16 (1024000)
I0122 18:31:53.173369 68174 net.cpp:159] Memory required for data: 419226600
I0122 18:31:53.173374 68174 layer_factory.hpp:77] Creating layer inception_7a/1x1/bn1
I0122 18:31:53.173380 68174 net.cpp:94] Creating Layer inception_7a/1x1/bn1
I0122 18:31:53.173383 68174 net.cpp:435] inception_7a/1x1/bn1 <- inception_7a/1x1
I0122 18:31:53.173388 68174 net.cpp:396] inception_7a/1x1/bn1 -> inception_7a/1x1 (in-place)
I0122 18:31:53.174031 68174 net.cpp:144] Setting up inception_7a/1x1/bn1
I0122 18:31:53.174039 68174 net.cpp:151] Top shape: 50 80 16 16 (1024000)
I0122 18:31:53.174041 68174 net.cpp:159] Memory required for data: 423322600
I0122 18:31:53.174049 68174 layer_factory.hpp:77] Creating layer inception_7a/1x1/relu1
I0122 18:31:53.174055 68174 net.cpp:94] Creating Layer inception_7a/1x1/relu1
I0122 18:31:53.174058 68174 net.cpp:435] inception_7a/1x1/relu1 <- inception_7a/1x1
I0122 18:31:53.174062 68174 net.cpp:396] inception_7a/1x1/relu1 -> inception_7a/1x1 (in-place)
I0122 18:31:53.174069 68174 net.cpp:144] Setting up inception_7a/1x1/relu1
I0122 18:31:53.174083 68174 net.cpp:151] Top shape: 50 80 16 16 (1024000)
I0122 18:31:53.174087 68174 net.cpp:159] Memory required for data: 427418600
I0122 18:31:53.174088 68174 layer_factory.hpp:77] Creating layer inception_7a/3x3
I0122 18:31:53.174096 68174 net.cpp:94] Creating Layer inception_7a/3x3
I0122 18:31:53.174100 68174 net.cpp:435] inception_7a/3x3 <- inception_6a/output_inception_6a/output_0_split_1
I0122 18:31:53.174105 68174 net.cpp:409] inception_7a/3x3 -> inception_7a/3x3
I0122 18:31:53.174948 68174 net.cpp:144] Setting up inception_7a/3x3
I0122 18:31:53.174957 68174 net.cpp:151] Top shape: 50 80 16 16 (1024000)
I0122 18:31:53.174959 68174 net.cpp:159] Memory required for data: 431514600
I0122 18:31:53.174964 68174 layer_factory.hpp:77] Creating layer inception_7a/3x3/bn1
I0122 18:31:53.174970 68174 net.cpp:94] Creating Layer inception_7a/3x3/bn1
I0122 18:31:53.174973 68174 net.cpp:435] inception_7a/3x3/bn1 <- inception_7a/3x3
I0122 18:31:53.174979 68174 net.cpp:396] inception_7a/3x3/bn1 -> inception_7a/3x3 (in-place)
I0122 18:31:53.175590 68174 net.cpp:144] Setting up inception_7a/3x3/bn1
I0122 18:31:53.175595 68174 net.cpp:151] Top shape: 50 80 16 16 (1024000)
I0122 18:31:53.175598 68174 net.cpp:159] Memory required for data: 435610600
I0122 18:31:53.175606 68174 layer_factory.hpp:77] Creating layer inception_7a/3x3/relu1
I0122 18:31:53.175611 68174 net.cpp:94] Creating Layer inception_7a/3x3/relu1
I0122 18:31:53.175614 68174 net.cpp:435] inception_7a/3x3/relu1 <- inception_7a/3x3
I0122 18:31:53.175618 68174 net.cpp:396] inception_7a/3x3/relu1 -> inception_7a/3x3 (in-place)
I0122 18:31:53.175624 68174 net.cpp:144] Setting up inception_7a/3x3/relu1
I0122 18:31:53.175628 68174 net.cpp:151] Top shape: 50 80 16 16 (1024000)
I0122 18:31:53.175631 68174 net.cpp:159] Memory required for data: 439706600
I0122 18:31:53.175633 68174 layer_factory.hpp:77] Creating layer inception_7a/output
I0122 18:31:53.175638 68174 net.cpp:94] Creating Layer inception_7a/output
I0122 18:31:53.175642 68174 net.cpp:435] inception_7a/output <- inception_7a/1x1
I0122 18:31:53.175644 68174 net.cpp:435] inception_7a/output <- inception_7a/3x3
I0122 18:31:53.175648 68174 net.cpp:409] inception_7a/output -> inception_7a/output
I0122 18:31:53.175667 68174 net.cpp:144] Setting up inception_7a/output
I0122 18:31:53.175671 68174 net.cpp:151] Top shape: 50 160 16 16 (2048000)
I0122 18:31:53.175674 68174 net.cpp:159] Memory required for data: 447898600
I0122 18:31:53.175676 68174 layer_factory.hpp:77] Creating layer inception_7a/output_inception_7a/output_0_split
I0122 18:31:53.175681 68174 net.cpp:94] Creating Layer inception_7a/output_inception_7a/output_0_split
I0122 18:31:53.175684 68174 net.cpp:435] inception_7a/output_inception_7a/output_0_split <- inception_7a/output
I0122 18:31:53.175688 68174 net.cpp:409] inception_7a/output_inception_7a/output_0_split -> inception_7a/output_inception_7a/output_0_split_0
I0122 18:31:53.175695 68174 net.cpp:409] inception_7a/output_inception_7a/output_0_split -> inception_7a/output_inception_7a/output_0_split_1
I0122 18:31:53.175720 68174 net.cpp:144] Setting up inception_7a/output_inception_7a/output_0_split
I0122 18:31:53.175726 68174 net.cpp:151] Top shape: 50 160 16 16 (2048000)
I0122 18:31:53.175729 68174 net.cpp:151] Top shape: 50 160 16 16 (2048000)
I0122 18:31:53.175732 68174 net.cpp:159] Memory required for data: 464282600
I0122 18:31:53.175735 68174 layer_factory.hpp:77] Creating layer inception_8a/1x1
I0122 18:31:53.175741 68174 net.cpp:94] Creating Layer inception_8a/1x1
I0122 18:31:53.175745 68174 net.cpp:435] inception_8a/1x1 <- inception_7a/output_inception_7a/output_0_split_0
I0122 18:31:53.175750 68174 net.cpp:409] inception_8a/1x1 -> inception_8a/1x1
I0122 18:31:53.175999 68174 net.cpp:144] Setting up inception_8a/1x1
I0122 18:31:53.176005 68174 net.cpp:151] Top shape: 50 48 16 16 (614400)
I0122 18:31:53.176008 68174 net.cpp:159] Memory required for data: 466740200
I0122 18:31:53.176014 68174 layer_factory.hpp:77] Creating layer inception_8a/1x1/bn1
I0122 18:31:53.176020 68174 net.cpp:94] Creating Layer inception_8a/1x1/bn1
I0122 18:31:53.176033 68174 net.cpp:435] inception_8a/1x1/bn1 <- inception_8a/1x1
I0122 18:31:53.176039 68174 net.cpp:396] inception_8a/1x1/bn1 -> inception_8a/1x1 (in-place)
I0122 18:31:53.176656 68174 net.cpp:144] Setting up inception_8a/1x1/bn1
I0122 18:31:53.176662 68174 net.cpp:151] Top shape: 50 48 16 16 (614400)
I0122 18:31:53.176666 68174 net.cpp:159] Memory required for data: 469197800
I0122 18:31:53.176673 68174 layer_factory.hpp:77] Creating layer inception_8a/1x1/relu1
I0122 18:31:53.176677 68174 net.cpp:94] Creating Layer inception_8a/1x1/relu1
I0122 18:31:53.176681 68174 net.cpp:435] inception_8a/1x1/relu1 <- inception_8a/1x1
I0122 18:31:53.176686 68174 net.cpp:396] inception_8a/1x1/relu1 -> inception_8a/1x1 (in-place)
I0122 18:31:53.176690 68174 net.cpp:144] Setting up inception_8a/1x1/relu1
I0122 18:31:53.176694 68174 net.cpp:151] Top shape: 50 48 16 16 (614400)
I0122 18:31:53.176697 68174 net.cpp:159] Memory required for data: 471655400
I0122 18:31:53.176699 68174 layer_factory.hpp:77] Creating layer inception_8a/3x3
I0122 18:31:53.176707 68174 net.cpp:94] Creating Layer inception_8a/3x3
I0122 18:31:53.176709 68174 net.cpp:435] inception_8a/3x3 <- inception_7a/output_inception_7a/output_0_split_1
I0122 18:31:53.176715 68174 net.cpp:409] inception_8a/3x3 -> inception_8a/3x3
I0122 18:31:53.178295 68174 net.cpp:144] Setting up inception_8a/3x3
I0122 18:31:53.178306 68174 net.cpp:151] Top shape: 50 96 16 16 (1228800)
I0122 18:31:53.178309 68174 net.cpp:159] Memory required for data: 476570600
I0122 18:31:53.178315 68174 layer_factory.hpp:77] Creating layer inception_8a/3x3/bn1
I0122 18:31:53.178323 68174 net.cpp:94] Creating Layer inception_8a/3x3/bn1
I0122 18:31:53.178325 68174 net.cpp:435] inception_8a/3x3/bn1 <- inception_8a/3x3
I0122 18:31:53.178330 68174 net.cpp:396] inception_8a/3x3/bn1 -> inception_8a/3x3 (in-place)
I0122 18:31:53.178972 68174 net.cpp:144] Setting up inception_8a/3x3/bn1
I0122 18:31:53.178978 68174 net.cpp:151] Top shape: 50 96 16 16 (1228800)
I0122 18:31:53.178982 68174 net.cpp:159] Memory required for data: 481485800
I0122 18:31:53.178990 68174 layer_factory.hpp:77] Creating layer inception_8a/3x3/relu1
I0122 18:31:53.178995 68174 net.cpp:94] Creating Layer inception_8a/3x3/relu1
I0122 18:31:53.178998 68174 net.cpp:435] inception_8a/3x3/relu1 <- inception_8a/3x3
I0122 18:31:53.179003 68174 net.cpp:396] inception_8a/3x3/relu1 -> inception_8a/3x3 (in-place)
I0122 18:31:53.179009 68174 net.cpp:144] Setting up inception_8a/3x3/relu1
I0122 18:31:53.179013 68174 net.cpp:151] Top shape: 50 96 16 16 (1228800)
I0122 18:31:53.179016 68174 net.cpp:159] Memory required for data: 486401000
I0122 18:31:53.179018 68174 layer_factory.hpp:77] Creating layer inception_8a/output
I0122 18:31:53.179023 68174 net.cpp:94] Creating Layer inception_8a/output
I0122 18:31:53.179026 68174 net.cpp:435] inception_8a/output <- inception_8a/1x1
I0122 18:31:53.179029 68174 net.cpp:435] inception_8a/output <- inception_8a/3x3
I0122 18:31:53.179034 68174 net.cpp:409] inception_8a/output -> inception_8a/output
I0122 18:31:53.179051 68174 net.cpp:144] Setting up inception_8a/output
I0122 18:31:53.179057 68174 net.cpp:151] Top shape: 50 144 16 16 (1843200)
I0122 18:31:53.179060 68174 net.cpp:159] Memory required for data: 493773800
I0122 18:31:53.179062 68174 layer_factory.hpp:77] Creating layer inception_8a/output_inception_8a/output_0_split
I0122 18:31:53.179066 68174 net.cpp:94] Creating Layer inception_8a/output_inception_8a/output_0_split
I0122 18:31:53.179070 68174 net.cpp:435] inception_8a/output_inception_8a/output_0_split <- inception_8a/output
I0122 18:31:53.179075 68174 net.cpp:409] inception_8a/output_inception_8a/output_0_split -> inception_8a/output_inception_8a/output_0_split_0
I0122 18:31:53.179081 68174 net.cpp:409] inception_8a/output_inception_8a/output_0_split -> inception_8a/output_inception_8a/output_0_split_1
I0122 18:31:53.179106 68174 net.cpp:144] Setting up inception_8a/output_inception_8a/output_0_split
I0122 18:31:53.179112 68174 net.cpp:151] Top shape: 50 144 16 16 (1843200)
I0122 18:31:53.179126 68174 net.cpp:151] Top shape: 50 144 16 16 (1843200)
I0122 18:31:53.179128 68174 net.cpp:159] Memory required for data: 508519400
I0122 18:31:53.179131 68174 layer_factory.hpp:77] Creating layer downsample_9/3x3_s2
I0122 18:31:53.179141 68174 net.cpp:94] Creating Layer downsample_9/3x3_s2
I0122 18:31:53.179145 68174 net.cpp:435] downsample_9/3x3_s2 <- inception_8a/output_inception_8a/output_0_split_0
I0122 18:31:53.179152 68174 net.cpp:409] downsample_9/3x3_s2 -> downsample_9/3x3_s2
I0122 18:31:53.180657 68174 net.cpp:144] Setting up downsample_9/3x3_s2
I0122 18:31:53.180668 68174 net.cpp:151] Top shape: 50 96 8 8 (307200)
I0122 18:31:53.180671 68174 net.cpp:159] Memory required for data: 509748200
I0122 18:31:53.180677 68174 layer_factory.hpp:77] Creating layer downsample_9/3x3_s2/bn1
I0122 18:31:53.180685 68174 net.cpp:94] Creating Layer downsample_9/3x3_s2/bn1
I0122 18:31:53.180688 68174 net.cpp:435] downsample_9/3x3_s2/bn1 <- downsample_9/3x3_s2
I0122 18:31:53.180693 68174 net.cpp:396] downsample_9/3x3_s2/bn1 -> downsample_9/3x3_s2 (in-place)
I0122 18:31:53.181347 68174 net.cpp:144] Setting up downsample_9/3x3_s2/bn1
I0122 18:31:53.181354 68174 net.cpp:151] Top shape: 50 96 8 8 (307200)
I0122 18:31:53.181358 68174 net.cpp:159] Memory required for data: 510977000
I0122 18:31:53.181366 68174 layer_factory.hpp:77] Creating layer downsample_9/3x3_s2/relu1
I0122 18:31:53.181371 68174 net.cpp:94] Creating Layer downsample_9/3x3_s2/relu1
I0122 18:31:53.181375 68174 net.cpp:435] downsample_9/3x3_s2/relu1 <- downsample_9/3x3_s2
I0122 18:31:53.181380 68174 net.cpp:396] downsample_9/3x3_s2/relu1 -> downsample_9/3x3_s2 (in-place)
I0122 18:31:53.181385 68174 net.cpp:144] Setting up downsample_9/3x3_s2/relu1
I0122 18:31:53.181390 68174 net.cpp:151] Top shape: 50 96 8 8 (307200)
I0122 18:31:53.181391 68174 net.cpp:159] Memory required for data: 512205800
I0122 18:31:53.181396 68174 layer_factory.hpp:77] Creating layer downsample_9/pool_s2
I0122 18:31:53.181401 68174 net.cpp:94] Creating Layer downsample_9/pool_s2
I0122 18:31:53.181403 68174 net.cpp:435] downsample_9/pool_s2 <- inception_8a/output_inception_8a/output_0_split_1
I0122 18:31:53.181408 68174 net.cpp:409] downsample_9/pool_s2 -> downsample_9/pool_s2
I0122 18:31:53.181437 68174 net.cpp:144] Setting up downsample_9/pool_s2
I0122 18:31:53.181442 68174 net.cpp:151] Top shape: 50 144 8 8 (460800)
I0122 18:31:53.181447 68174 net.cpp:159] Memory required for data: 514049000
I0122 18:31:53.181448 68174 layer_factory.hpp:77] Creating layer downsample_9/output
I0122 18:31:53.181455 68174 net.cpp:94] Creating Layer downsample_9/output
I0122 18:31:53.181461 68174 net.cpp:435] downsample_9/output <- downsample_9/3x3_s2
I0122 18:31:53.181465 68174 net.cpp:435] downsample_9/output <- downsample_9/pool_s2
I0122 18:31:53.181469 68174 net.cpp:409] downsample_9/output -> downsample_9/output
I0122 18:31:53.181488 68174 net.cpp:144] Setting up downsample_9/output
I0122 18:31:53.181493 68174 net.cpp:151] Top shape: 50 240 8 8 (768000)
I0122 18:31:53.181495 68174 net.cpp:159] Memory required for data: 517121000
I0122 18:31:53.181499 68174 layer_factory.hpp:77] Creating layer downsample_9/output_downsample_9/output_0_split
I0122 18:31:53.181504 68174 net.cpp:94] Creating Layer downsample_9/output_downsample_9/output_0_split
I0122 18:31:53.181506 68174 net.cpp:435] downsample_9/output_downsample_9/output_0_split <- downsample_9/output
I0122 18:31:53.181511 68174 net.cpp:409] downsample_9/output_downsample_9/output_0_split -> downsample_9/output_downsample_9/output_0_split_0
I0122 18:31:53.181516 68174 net.cpp:409] downsample_9/output_downsample_9/output_0_split -> downsample_9/output_downsample_9/output_0_split_1
I0122 18:31:53.181543 68174 net.cpp:144] Setting up downsample_9/output_downsample_9/output_0_split
I0122 18:31:53.181548 68174 net.cpp:151] Top shape: 50 240 8 8 (768000)
I0122 18:31:53.181552 68174 net.cpp:151] Top shape: 50 240 8 8 (768000)
I0122 18:31:53.181555 68174 net.cpp:159] Memory required for data: 523265000
I0122 18:31:53.181568 68174 layer_factory.hpp:77] Creating layer inception_10a/1x1
I0122 18:31:53.181576 68174 net.cpp:94] Creating Layer inception_10a/1x1
I0122 18:31:53.181578 68174 net.cpp:435] inception_10a/1x1 <- downsample_9/output_downsample_9/output_0_split_0
I0122 18:31:53.181583 68174 net.cpp:409] inception_10a/1x1 -> inception_10a/1x1
I0122 18:31:53.182044 68174 net.cpp:144] Setting up inception_10a/1x1
I0122 18:31:53.182051 68174 net.cpp:151] Top shape: 50 176 8 8 (563200)
I0122 18:31:53.182054 68174 net.cpp:159] Memory required for data: 525517800
I0122 18:31:53.182060 68174 layer_factory.hpp:77] Creating layer inception_10a/1x1/bn1
I0122 18:31:53.182066 68174 net.cpp:94] Creating Layer inception_10a/1x1/bn1
I0122 18:31:53.182073 68174 net.cpp:435] inception_10a/1x1/bn1 <- inception_10a/1x1
I0122 18:31:53.182078 68174 net.cpp:396] inception_10a/1x1/bn1 -> inception_10a/1x1 (in-place)
I0122 18:31:53.182698 68174 net.cpp:144] Setting up inception_10a/1x1/bn1
I0122 18:31:53.182704 68174 net.cpp:151] Top shape: 50 176 8 8 (563200)
I0122 18:31:53.182708 68174 net.cpp:159] Memory required for data: 527770600
I0122 18:31:53.182715 68174 layer_factory.hpp:77] Creating layer inception_10a/1x1/relu1
I0122 18:31:53.182720 68174 net.cpp:94] Creating Layer inception_10a/1x1/relu1
I0122 18:31:53.182724 68174 net.cpp:435] inception_10a/1x1/relu1 <- inception_10a/1x1
I0122 18:31:53.182729 68174 net.cpp:396] inception_10a/1x1/relu1 -> inception_10a/1x1 (in-place)
I0122 18:31:53.182734 68174 net.cpp:144] Setting up inception_10a/1x1/relu1
I0122 18:31:53.182739 68174 net.cpp:151] Top shape: 50 176 8 8 (563200)
I0122 18:31:53.182741 68174 net.cpp:159] Memory required for data: 530023400
I0122 18:31:53.182744 68174 layer_factory.hpp:77] Creating layer inception_10a/3x3
I0122 18:31:53.182750 68174 net.cpp:94] Creating Layer inception_10a/3x3
I0122 18:31:53.182755 68174 net.cpp:435] inception_10a/3x3 <- downsample_9/output_downsample_9/output_0_split_1
I0122 18:31:53.182761 68174 net.cpp:409] inception_10a/3x3 -> inception_10a/3x3
I0122 18:31:53.185259 68174 net.cpp:144] Setting up inception_10a/3x3
I0122 18:31:53.185271 68174 net.cpp:151] Top shape: 50 160 8 8 (512000)
I0122 18:31:53.185273 68174 net.cpp:159] Memory required for data: 532071400
I0122 18:31:53.185281 68174 layer_factory.hpp:77] Creating layer inception_10a/3x3/bn1
I0122 18:31:53.185286 68174 net.cpp:94] Creating Layer inception_10a/3x3/bn1
I0122 18:31:53.185290 68174 net.cpp:435] inception_10a/3x3/bn1 <- inception_10a/3x3
I0122 18:31:53.185295 68174 net.cpp:396] inception_10a/3x3/bn1 -> inception_10a/3x3 (in-place)
I0122 18:31:53.185922 68174 net.cpp:144] Setting up inception_10a/3x3/bn1
I0122 18:31:53.185930 68174 net.cpp:151] Top shape: 50 160 8 8 (512000)
I0122 18:31:53.185933 68174 net.cpp:159] Memory required for data: 534119400
I0122 18:31:53.185940 68174 layer_factory.hpp:77] Creating layer inception_10a/3x3/relu1
I0122 18:31:53.185947 68174 net.cpp:94] Creating Layer inception_10a/3x3/relu1
I0122 18:31:53.185950 68174 net.cpp:435] inception_10a/3x3/relu1 <- inception_10a/3x3
I0122 18:31:53.185955 68174 net.cpp:396] inception_10a/3x3/relu1 -> inception_10a/3x3 (in-place)
I0122 18:31:53.185961 68174 net.cpp:144] Setting up inception_10a/3x3/relu1
I0122 18:31:53.185966 68174 net.cpp:151] Top shape: 50 160 8 8 (512000)
I0122 18:31:53.185967 68174 net.cpp:159] Memory required for data: 536167400
I0122 18:31:53.185971 68174 layer_factory.hpp:77] Creating layer inception_10a/output
I0122 18:31:53.185974 68174 net.cpp:94] Creating Layer inception_10a/output
I0122 18:31:53.185977 68174 net.cpp:435] inception_10a/output <- inception_10a/1x1
I0122 18:31:53.185981 68174 net.cpp:435] inception_10a/output <- inception_10a/3x3
I0122 18:31:53.185986 68174 net.cpp:409] inception_10a/output -> inception_10a/output
I0122 18:31:53.186002 68174 net.cpp:144] Setting up inception_10a/output
I0122 18:31:53.186008 68174 net.cpp:151] Top shape: 50 336 8 8 (1075200)
I0122 18:31:53.186010 68174 net.cpp:159] Memory required for data: 540468200
I0122 18:31:53.186013 68174 layer_factory.hpp:77] Creating layer inception_10a/output_inception_10a/output_0_split
I0122 18:31:53.186026 68174 net.cpp:94] Creating Layer inception_10a/output_inception_10a/output_0_split
I0122 18:31:53.186030 68174 net.cpp:435] inception_10a/output_inception_10a/output_0_split <- inception_10a/output
I0122 18:31:53.186035 68174 net.cpp:409] inception_10a/output_inception_10a/output_0_split -> inception_10a/output_inception_10a/output_0_split_0
I0122 18:31:53.186040 68174 net.cpp:409] inception_10a/output_inception_10a/output_0_split -> inception_10a/output_inception_10a/output_0_split_1
I0122 18:31:53.186065 68174 net.cpp:144] Setting up inception_10a/output_inception_10a/output_0_split
I0122 18:31:53.186071 68174 net.cpp:151] Top shape: 50 336 8 8 (1075200)
I0122 18:31:53.186075 68174 net.cpp:151] Top shape: 50 336 8 8 (1075200)
I0122 18:31:53.186077 68174 net.cpp:159] Memory required for data: 549069800
I0122 18:31:53.186080 68174 layer_factory.hpp:77] Creating layer inception_11a/1x1
I0122 18:31:53.186087 68174 net.cpp:94] Creating Layer inception_11a/1x1
I0122 18:31:53.186092 68174 net.cpp:435] inception_11a/1x1 <- inception_10a/output_inception_10a/output_0_split_0
I0122 18:31:53.186097 68174 net.cpp:409] inception_11a/1x1 -> inception_11a/1x1
I0122 18:31:53.186632 68174 net.cpp:144] Setting up inception_11a/1x1
I0122 18:31:53.186640 68174 net.cpp:151] Top shape: 50 176 8 8 (563200)
I0122 18:31:53.186643 68174 net.cpp:159] Memory required for data: 551322600
I0122 18:31:53.186648 68174 layer_factory.hpp:77] Creating layer inception_11a/1x1/bn1
I0122 18:31:53.186655 68174 net.cpp:94] Creating Layer inception_11a/1x1/bn1
I0122 18:31:53.186658 68174 net.cpp:435] inception_11a/1x1/bn1 <- inception_11a/1x1
I0122 18:31:53.186663 68174 net.cpp:396] inception_11a/1x1/bn1 -> inception_11a/1x1 (in-place)
I0122 18:31:53.187273 68174 net.cpp:144] Setting up inception_11a/1x1/bn1
I0122 18:31:53.187279 68174 net.cpp:151] Top shape: 50 176 8 8 (563200)
I0122 18:31:53.187283 68174 net.cpp:159] Memory required for data: 553575400
I0122 18:31:53.187290 68174 layer_factory.hpp:77] Creating layer inception_11a/1x1/relu1
I0122 18:31:53.187295 68174 net.cpp:94] Creating Layer inception_11a/1x1/relu1
I0122 18:31:53.187299 68174 net.cpp:435] inception_11a/1x1/relu1 <- inception_11a/1x1
I0122 18:31:53.187304 68174 net.cpp:396] inception_11a/1x1/relu1 -> inception_11a/1x1 (in-place)
I0122 18:31:53.187309 68174 net.cpp:144] Setting up inception_11a/1x1/relu1
I0122 18:31:53.187312 68174 net.cpp:151] Top shape: 50 176 8 8 (563200)
I0122 18:31:53.187314 68174 net.cpp:159] Memory required for data: 555828200
I0122 18:31:53.187319 68174 layer_factory.hpp:77] Creating layer inception_11a/3x3
I0122 18:31:53.187325 68174 net.cpp:94] Creating Layer inception_11a/3x3
I0122 18:31:53.187330 68174 net.cpp:435] inception_11a/3x3 <- inception_10a/output_inception_10a/output_0_split_1
I0122 18:31:53.187335 68174 net.cpp:409] inception_11a/3x3 -> inception_11a/3x3
I0122 18:31:53.190702 68174 net.cpp:144] Setting up inception_11a/3x3
I0122 18:31:53.190713 68174 net.cpp:151] Top shape: 50 160 8 8 (512000)
I0122 18:31:53.190716 68174 net.cpp:159] Memory required for data: 557876200
I0122 18:31:53.190721 68174 layer_factory.hpp:77] Creating layer inception_11a/3x3/bn1
I0122 18:31:53.190726 68174 net.cpp:94] Creating Layer inception_11a/3x3/bn1
I0122 18:31:53.190729 68174 net.cpp:435] inception_11a/3x3/bn1 <- inception_11a/3x3
I0122 18:31:53.190733 68174 net.cpp:396] inception_11a/3x3/bn1 -> inception_11a/3x3 (in-place)
I0122 18:31:53.191373 68174 net.cpp:144] Setting up inception_11a/3x3/bn1
I0122 18:31:53.191380 68174 net.cpp:151] Top shape: 50 160 8 8 (512000)
I0122 18:31:53.191385 68174 net.cpp:159] Memory required for data: 559924200
I0122 18:31:53.191397 68174 layer_factory.hpp:77] Creating layer inception_11a/3x3/relu1
I0122 18:31:53.191404 68174 net.cpp:94] Creating Layer inception_11a/3x3/relu1
I0122 18:31:53.191407 68174 net.cpp:435] inception_11a/3x3/relu1 <- inception_11a/3x3
I0122 18:31:53.191412 68174 net.cpp:396] inception_11a/3x3/relu1 -> inception_11a/3x3 (in-place)
I0122 18:31:53.191428 68174 net.cpp:144] Setting up inception_11a/3x3/relu1
I0122 18:31:53.191432 68174 net.cpp:151] Top shape: 50 160 8 8 (512000)
I0122 18:31:53.191435 68174 net.cpp:159] Memory required for data: 561972200
I0122 18:31:53.191437 68174 layer_factory.hpp:77] Creating layer inception_11a/output
I0122 18:31:53.191442 68174 net.cpp:94] Creating Layer inception_11a/output
I0122 18:31:53.191445 68174 net.cpp:435] inception_11a/output <- inception_11a/1x1
I0122 18:31:53.191449 68174 net.cpp:435] inception_11a/output <- inception_11a/3x3
I0122 18:31:53.191453 68174 net.cpp:409] inception_11a/output -> inception_11a/output
I0122 18:31:53.191471 68174 net.cpp:144] Setting up inception_11a/output
I0122 18:31:53.191476 68174 net.cpp:151] Top shape: 50 336 8 8 (1075200)
I0122 18:31:53.191480 68174 net.cpp:159] Memory required for data: 566273000
I0122 18:31:53.191483 68174 layer_factory.hpp:77] Creating layer avg_pool_12/8x8_s1
I0122 18:31:53.191488 68174 net.cpp:94] Creating Layer avg_pool_12/8x8_s1
I0122 18:31:53.191491 68174 net.cpp:435] avg_pool_12/8x8_s1 <- inception_11a/output
I0122 18:31:53.191496 68174 net.cpp:409] avg_pool_12/8x8_s1 -> avg_pool_12/8x8_s1
I0122 18:31:53.191514 68174 net.cpp:144] Setting up avg_pool_12/8x8_s1
I0122 18:31:53.191519 68174 net.cpp:151] Top shape: 50 336 1 1 (16800)
I0122 18:31:53.191521 68174 net.cpp:159] Memory required for data: 566340200
I0122 18:31:53.191524 68174 layer_factory.hpp:77] Creating layer drop_8x8_s1
I0122 18:31:53.191529 68174 net.cpp:94] Creating Layer drop_8x8_s1
I0122 18:31:53.191531 68174 net.cpp:435] drop_8x8_s1 <- avg_pool_12/8x8_s1
I0122 18:31:53.191536 68174 net.cpp:396] drop_8x8_s1 -> avg_pool_12/8x8_s1 (in-place)
I0122 18:31:53.191553 68174 net.cpp:144] Setting up drop_8x8_s1
I0122 18:31:53.191558 68174 net.cpp:151] Top shape: 50 336 1 1 (16800)
I0122 18:31:53.191560 68174 net.cpp:159] Memory required for data: 566407400
I0122 18:31:53.191562 68174 layer_factory.hpp:77] Creating layer loss/classifier
I0122 18:31:53.191570 68174 net.cpp:94] Creating Layer loss/classifier
I0122 18:31:53.191572 68174 net.cpp:435] loss/classifier <- avg_pool_12/8x8_s1
I0122 18:31:53.191576 68174 net.cpp:409] loss/classifier -> loss/classifier
I0122 18:31:53.191704 68174 net.cpp:144] Setting up loss/classifier
I0122 18:31:53.191710 68174 net.cpp:151] Top shape: 50 10 (500)
I0122 18:31:53.191714 68174 net.cpp:159] Memory required for data: 566409400
I0122 18:31:53.191717 68174 layer_factory.hpp:77] Creating layer loss/classifier_loss/classifier_0_split
I0122 18:31:53.191722 68174 net.cpp:94] Creating Layer loss/classifier_loss/classifier_0_split
I0122 18:31:53.191726 68174 net.cpp:435] loss/classifier_loss/classifier_0_split <- loss/classifier
I0122 18:31:53.191730 68174 net.cpp:409] loss/classifier_loss/classifier_0_split -> loss/classifier_loss/classifier_0_split_0
I0122 18:31:53.191736 68174 net.cpp:409] loss/classifier_loss/classifier_0_split -> loss/classifier_loss/classifier_0_split_1
I0122 18:31:53.191741 68174 net.cpp:409] loss/classifier_loss/classifier_0_split -> loss/classifier_loss/classifier_0_split_2
I0122 18:31:53.191749 68174 net.cpp:409] loss/classifier_loss/classifier_0_split -> loss/classifier_loss/classifier_0_split_3
I0122 18:31:53.191794 68174 net.cpp:144] Setting up loss/classifier_loss/classifier_0_split
I0122 18:31:53.191799 68174 net.cpp:151] Top shape: 50 10 (500)
I0122 18:31:53.191802 68174 net.cpp:151] Top shape: 50 10 (500)
I0122 18:31:53.191805 68174 net.cpp:151] Top shape: 50 10 (500)
I0122 18:31:53.191808 68174 net.cpp:151] Top shape: 50 10 (500)
I0122 18:31:53.191810 68174 net.cpp:159] Memory required for data: 566417400
I0122 18:31:53.191813 68174 layer_factory.hpp:77] Creating layer loss
I0122 18:31:53.191818 68174 net.cpp:94] Creating Layer loss
I0122 18:31:53.191821 68174 net.cpp:435] loss <- loss/classifier_loss/classifier_0_split_0
I0122 18:31:53.191825 68174 net.cpp:435] loss <- label_data_1_split_0
I0122 18:31:53.191830 68174 net.cpp:409] loss -> loss
…
