…
I0114 19:24:28.899173 78487 caffe_interface.cpp:70] GPU device name: Quadro P6000
I0114 19:24:28.900408 78487 net.cpp:323] The NetState phase (1) differed from the phase (0) specified by a rule in layer data
I0114 19:24:28.901005 78487 net.cpp:52] Initializing net from parameters: 
state {
  phase: TEST
}
layer {
  name: "data"
  type: "Data"
  top: "data"
  top: "label"
  include {
    phase: TEST
  }
  transform_param {
    mirror: false
    mean_value: 104
    mean_value: 117
    mean_value: 123
  }
  data_param {
    source: "/home/ML/cifar10/input/lmdb/valid_lmdb"
    batch_size: 50
    backend: LMDB
  }
}
layer {
  name: "conv1/3x3_s1"
  type: "Convolution"
  bottom: "data"
  top: "conv1/3x3_s1"
  param {
    lr_mult: 1
    decay_mult: 1
  }
  param {
    lr_mult: 2
    decay_mult: 0
  }
  convolution_param {
    num_output: 96
    pad: 1
    kernel_size: 3
    stride: 1
    weight_filler {
      type: "xavier"
      std: 0.1
    }
    bias_filler {
      type: "constant"
      value: 0.2
    }
  }
}
layer {
  name: "conv1/bn1"
  type: "BatchNorm"
  bottom: "conv1/3x3_s1"
  top: "conv1/3x3_s1"
  param {
    lr_mult: 1
    decay_mult: 0
  }
  param {
    lr_mult: 1
    decay_mult: 0
  }
  param {
    lr_mult: 0
    decay_mult: 0
  }
  param {
    lr_mult: 0
    decay_mult: 0
  }
  batch_norm_param {
    use_global_stats: false
    scale_filler {
      type: "constant"
      value: 1
    }
    bias_filler {
      type: "constant"
      value: 0
    }
  }
}
layer {
  name: "conv1/relu1"
  type: "ReLU"
  bottom: "conv1/3x3_s1"
  top: "conv1/3x3_s1"
}
layer {
  name: "inception_2a/1x1"
  type: "Convolution"
  bottom: "conv1/3x3_s1"
  top: "inception_2a/1x1"
  param {
    lr_mult: 1
    decay_mult: 1
  }
  param {
    lr_mult: 2
    decay_mult: 0
  }
  convolution_param {
    num_output: 32
    kernel_size: 1
    weight_filler {
      type: "xavier"
      std: 0.03
    }
    bias_filler {
      type: "constant"
      value: 0.2
    }
  }
}
layer {
  name: "inception_2a/1x1/bn1"
  type: "BatchNorm"
  bottom: "inception_2a/1x1"
  top: "inception_2a/1x1"
  param {
    lr_mult: 1
    decay_mult: 0
  }
  param {
    lr_mult: 1
    decay_mult: 0
  }
  param {
    lr_mult: 0
    decay_mult: 0
  }
  param {
    lr_mult: 0
    decay_mult: 0
  }
  batch_norm_param {
    use_global_stats: false
    scale_filler {
      type: "constant"
      value: 1
    }
    bias_filler {
      type: "constant"
      value: 0
    }
  }
}
layer {
  name: "inception_2a/1x1/relu1"
  type: "ReLU"
  bottom: "inception_2a/1x1"
  top: "inception_2a/1x1"
}
layer {
  name: "inception_2a/3x3"
  type: "Convolution"
  bottom: "conv1/3x3_s1"
  top: "inception_2a/3x3"
  param {
    lr_mult: 1
    decay_mult: 1
  }
  param {
    lr_mult: 2
    decay_mult: 0
  }
  convolution_param {
    num_output: 32
    pad: 1
    kernel_size: 3
    weight_filler {
      type: "xavier"
      std: 0.03
    }
    bias_filler {
      type: "constant"
      value: 0.2
    }
  }
}
layer {
  name: "inception_2a/3x3/bn1"
  type: "BatchNorm"
  bottom: "inception_2a/3x3"
  top: "inception_2a/3x3"
  param {
    lr_mult: 1
    decay_mult: 0
  }
  param {
    lr_mult: 1
    decay_mult: 0
  }
  param {
    lr_mult: 0
    decay_mult: 0
  }
  param {
    lr_mult: 0
    decay_mult: 0
  }
  batch_norm_param {
    use_global_stats: false
    scale_filler {
      type: "constant"
      value: 1
    }
    bias_filler {
      type: "constant"
      value: 0
    }
  }
}
layer {
  name: "inception_2a/3x3/relu1"
  type: "ReLU"
  bottom: "inception_2a/3x3"
  top: "inception_2a/3x3"
}
layer {
  name: "inception_2a/output"
  type: "Concat"
  bottom: "inception_2a/1x1"
  bottom: "inception_2a/3x3"
  top: "inception_2a/output"
}
layer {
  name: "inception_3a/1x1"
  type: "Convolution"
  bottom: "inception_2a/output"
  top: "inception_3a/1x1"
  param {
    lr_mult: 1
    decay_mult: 1
  }
  param {
    lr_mult: 2
    decay_mult: 0
  }
  convolution_param {
    num_output: 32
    kernel_size: 1
    weight_filler {
      type: "xavier"
      std: 0.03
    }
    bias_filler {
      type: "constant"
      value: 0.2
    }
  }
}
layer {
  name: "inception_3a/1x1/bn1"
  type: "BatchNorm"
  bottom: "inception_3a/1x1"
  top: "inception_3a/1x1"
  param {
    lr_mult: 1
    decay_mult: 0
  }
  param {
    lr_mult: 1
    decay_mult: 0
  }
  param {
    lr_mult: 0
    decay_mult: 0
  }
  param {
    lr_mult: 0
    decay_mult: 0
  }
  batch_norm_param {
    use_global_stats: false
    scale_filler {
      type: "constant"
      value: 1
    }
    bias_filler {
      type: "constant"
      value: 0
    }
  }
}
layer {
  name: "inception_3a/1x1/relu1"
  type: "ReLU"
  bottom: "inception_3a/1x1"
  top: "inception_3a/1x1"
}
layer {
  name: "inception_3a/3x3"
  type: "Convolution"
  bottom: "inception_2a/output"
  top: "inception_3a/3x3"
  param {
    lr_mult: 1
    decay_mult: 1
  }
  param {
    lr_mult: 2
    decay_mult: 0
  }
  convolution_param {
    num_output: 48
    pad: 1
    kernel_size: 3
    weight_filler {
      type: "xavier"
      std: 0.03
    }
    bias_filler {
      type: "constant"
      value: 0.2
    }
  }
}
layer {
  name: "inception_3a/3x3/bn1"
  type: "BatchNorm"
  bottom: "inception_3a/3x3"
  top: "inception_3a/3x3"
  param {
    lr_mult: 1
    decay_mult: 0
  }
  param {
    lr_mult: 1
    decay_mult: 0
  }
  param {
    lr_mult: 0
    decay_mult: 0
  }
  param {
    lr_mult: 0
    decay_mult: 0
  }
  batch_norm_param {
    use_global_stats: false
    scale_filler {
      type: "constant"
      value: 1
    }
    bias_filler {
      type: "constant"
      value: 0
    }
  }
}
layer {
  name: "inception_3a/3x3/relu1"
  type: "ReLU"
  bottom: "inception_3a/3x3"
  top: "inception_3a/3x3"
}
layer {
  name: "inception_3a/output"
  type: "Concat"
  bottom: "inception_3a/1x1"
  bottom: "inception_3a/3x3"
  top: "inception_3a/output"
}
layer {
  name: "downsample_4/3x3_s2"
  type: "Convolution"
  bottom: "inception_3a/output"
  top: "downsample_4/3x3_s2"
  param {
    lr_mult: 1
    decay_mult: 1
  }
  param {
    lr_mult: 2
    decay_mult: 0
  }
  convolution_param {
    num_output: 80
    pad: 1
    kernel_size: 3
    stride: 2
    weight_filler {
      type: "xavier"
      std: 0.03
    }
    bias_filler {
      type: "constant"
      value: 0.2
    }
  }
}
layer {
  name: "downsample_4/3x3_s2/bn1"
  type: "BatchNorm"
  bottom: "downsample_4/3x3_s2"
  top: "downsample_4/3x3_s2"
  param {
    lr_mult: 1
    decay_mult: 0
  }
  param {
    lr_mult: 1
    decay_mult: 0
  }
  param {
    lr_mult: 0
    decay_mult: 0
  }
  param {
    lr_mult: 0
    decay_mult: 0
  }
  batch_norm_param {
    use_global_stats: false
    scale_filler {
      type: "constant"
      value: 1
    }
    bias_filler {
      type: "constant"
      value: 0
    }
  }
}
layer {
  name: "downsample_4/3x3_s2/relu1"
  type: "ReLU"
  bottom: "downsample_4/3x3_s2"
  top: "downsample_4/3x3_s2"
}
layer {
  name: "downsample_4/pool_s2"
  type: "Pooling"
  bottom: "inception_3a/output"
  top: "downsample_4/pool_s2"
  pooling_param {
    pool: MAX
    kernel_size: 3
    stride: 2
  }
}
layer {
  name: "downsample_4/output"
  type: "Concat"
  bottom: "downsample_4/3x3_s2"
  bottom: "downsample_4/pool_s2"
  top: "downsample_4/output"
}
layer {
  name: "inception_5a/1x1"
  type: "Convolution"
  bottom: "downsample_4/output"
  top: "inception_5a/1x1"
  param {
    lr_mult: 1
    decay_mult: 1
  }
  param {
    lr_mult: 2
    decay_mult: 0
  }
  convolution_param {
    num_output: 112
    kernel_size: 1
    weight_filler {
      type: "xavier"
      std: 0.03
    }
    bias_filler {
      type: "constant"
      value: 0.2
    }
  }
}
layer {
  name: "inception_5a/1x1/bn1"
  type: "BatchNorm"
  bottom: "inception_5a/1x1"
  top: "inception_5a/1x1"
  param {
    lr_mult: 1
    decay_mult: 0
  }
  param {
    lr_mult: 1
    decay_mult: 0
  }
  param {
    lr_mult: 0
    decay_mult: 0
  }
  param {
    lr_mult: 0
    decay_mult: 0
  }
  batch_norm_param {
    use_global_stats: false
    scale_filler {
      type: "constant"
      value: 1
    }
    bias_filler {
      type: "constant"
      value: 0
    }
  }
}
layer {
  name: "inception_5a/1x1/relu1"
  type: "ReLU"
  bottom: "inception_5a/1x1"
  top: "inception_5a/1x1"
}
layer {
  name: "inception_5a/3x3"
  type: "Convolution"
  bottom: "downsample_4/output"
  top: "inception_5a/3x3"
  param {
    lr_mult: 1
    decay_mult: 1
  }
  param {
    lr_mult: 2
    decay_mult: 0
  }
  convolution_param {
    num_output: 48
    pad: 1
    kernel_size: 3
    weight_filler {
      type: "xavier"
      std: 0.03
    }
    bias_filler {
      type: "constant"
      value: 0.2
    }
  }
}
layer {
  name: "inception_5a/3x3/bn1"
  type: "BatchNorm"
  bottom: "inception_5a/3x3"
  top: "inception_5a/3x3"
  param {
    lr_mult: 1
    decay_mult: 0
  }
  param {
    lr_mult: 1
    decay_mult: 0
  }
  param {
    lr_mult: 0
    decay_mult: 0
  }
  param {
    lr_mult: 0
    decay_mult: 0
  }
  batch_norm_param {
    use_global_stats: false
    scale_filler {
      type: "constant"
      value: 1
    }
    bias_filler {
      type: "constant"
      value: 0
    }
  }
}
layer {
  name: "inception_5a/3x3/relu1"
  type: "ReLU"
  bottom: "inception_5a/3x3"
  top: "inception_5a/3x3"
}
layer {
  name: "inception_5a/output"
  type: "Concat"
  bottom: "inception_5a/1x1"
  bottom: "inception_5a/3x3"
  top: "inception_5a/output"
}
layer {
  name: "inception_6a/1x1"
  type: "Convolution"
  bottom: "inception_5a/output"
  top: "inception_6a/1x1"
  param {
    lr_mult: 1
    decay_mult: 1
  }
  param {
    lr_mult: 2
    decay_mult: 0
  }
  convolution_param {
    num_output: 96
    kernel_size: 1
    weight_filler {
      type: "xavier"
      std: 0.03
    }
    bias_filler {
      type: "constant"
      value: 0.2
    }
  }
}
layer {
  name: "inception_6a/1x1/bn1"
  type: "BatchNorm"
  bottom: "inception_6a/1x1"
  top: "inception_6a/1x1"
  param {
    lr_mult: 1
    decay_mult: 0
  }
  param {
    lr_mult: 1
    decay_mult: 0
  }
  param {
    lr_mult: 0
    decay_mult: 0
  }
  param {
    lr_mult: 0
    decay_mult: 0
  }
  batch_norm_param {
    use_global_stats: false
    scale_filler {
      type: "constant"
      value: 1
    }
    bias_filler {
      type: "constant"
      value: 0
    }
  }
}
layer {
  name: "inception_6a/1x1/relu1"
  type: "ReLU"
  bottom: "inception_6a/1x1"
  top: "inception_6a/1x1"
}
layer {
  name: "inception_6a/3x3"
  type: "Convolution"
  bottom: "inception_5a/output"
  top: "inception_6a/3x3"
  param {
    lr_mult: 1
    decay_mult: 1
  }
  param {
    lr_mult: 2
    decay_mult: 0
  }
  convolution_param {
    num_output: 64
    pad: 1
    kernel_size: 3
    weight_filler {
      type: "xavier"
      std: 0.03
    }
    bias_filler {
      type: "constant"
      value: 0.2
    }
  }
}
layer {
  name: "inception_6a/3x3/bn1"
  type: "BatchNorm"
  bottom: "inception_6a/3x3"
  top: "inception_6a/3x3"
  param {
    lr_mult: 1
    decay_mult: 0
  }
  param {
    lr_mult: 1
    decay_mult: 0
  }
  param {
    lr_mult: 0
    decay_mult: 0
  }
  param {
    lr_mult: 0
    decay_mult: 0
  }
  batch_norm_param {
    use_global_stats: false
    scale_filler {
      type: "constant"
      value: 1
    }
    bias_filler {
      type: "constant"
      value: 0
    }
  }
}
layer {
  name: "inception_6a/3x3/relu1"
  type: "ReLU"
  bottom: "inception_6a/3x3"
  top: "inception_6a/3x3"
}
layer {
  name: "inception_6a/output"
  type: "Concat"
  bottom: "inception_6a/1x1"
  bottom: "inception_6a/3x3"
  top: "inception_6a/output"
}
layer {
  name: "inception_7a/1x1"
  type: "Convolution"
  bottom: "inception_6a/output"
  top: "inception_7a/1x1"
  param {
    lr_mult: 1
    decay_mult: 1
  }
  param {
    lr_mult: 2
    decay_mult: 0
  }
  convolution_param {
    num_output: 80
    kernel_size: 1
    weight_filler {
      type: "xavier"
      std: 0.03
    }
    bias_filler {
      type: "constant"
      value: 0.2
    }
  }
}
layer {
  name: "inception_7a/1x1/bn1"
  type: "BatchNorm"
  bottom: "inception_7a/1x1"
  top: "inception_7a/1x1"
  param {
    lr_mult: 1
    decay_mult: 0
  }
  param {
    lr_mult: 1
    decay_mult: 0
  }
  param {
    lr_mult: 0
    decay_mult: 0
  }
  param {
    lr_mult: 0
    decay_mult: 0
  }
  batch_norm_param {
    use_global_stats: false
    scale_filler {
      type: "constant"
      value: 1
    }
    bias_filler {
      type: "constant"
      value: 0
    }
  }
}
layer {
  name: "inception_7a/1x1/relu1"
  type: "ReLU"
  bottom: "inception_7a/1x1"
  top: "inception_7a/1x1"
}
layer {
  name: "inception_7a/3x3"
  type: "Convolution"
  bottom: "inception_6a/output"
  top: "inception_7a/3x3"
  param {
    lr_mult: 1
    decay_mult: 1
  }
  param {
    lr_mult: 2
    decay_mult: 0
  }
  convolution_param {
    num_output: 80
    pad: 1
    kernel_size: 3
    weight_filler {
      type: "xavier"
      std: 0.03
    }
    bias_filler {
      type: "constant"
      value: 0.2
    }
  }
}
layer {
  name: "inception_7a/3x3/bn1"
  type: "BatchNorm"
  bottom: "inception_7a/3x3"
  top: "inception_7a/3x3"
  param {
    lr_mult: 1
    decay_mult: 0
  }
  param {
    lr_mult: 1
    decay_mult: 0
  }
  param {
    lr_mult: 0
    decay_mult: 0
  }
  param {
    lr_mult: 0
    decay_mult: 0
  }
  batch_norm_param {
    use_global_stats: false
    scale_filler {
      type: "constant"
      value: 1
    }
    bias_filler {
      type: "constant"
      value: 0
    }
  }
}
layer {
  name: "inception_7a/3x3/relu1"
  type: "ReLU"
  bottom: "inception_7a/3x3"
  top: "inception_7a/3x3"
}
layer {
  name: "inception_7a/output"
  type: "Concat"
  bottom: "inception_7a/1x1"
  bottom: "inception_7a/3x3"
  top: "inception_7a/output"
}
layer {
  name: "inception_8a/1x1"
  type: "Convolution"
  bottom: "inception_7a/output"
  top: "inception_8a/1x1"
  param {
    lr_mult: 1
    decay_mult: 1
  }
  param {
    lr_mult: 2
    decay_mult: 0
  }
  convolution_param {
    num_output: 48
    kernel_size: 1
    weight_filler {
      type: "xavier"
      std: 0.03
    }
    bias_filler {
      type: "constant"
      value: 0.2
    }
  }
}
layer {
  name: "inception_8a/1x1/bn1"
  type: "BatchNorm"
  bottom: "inception_8a/1x1"
  top: "inception_8a/1x1"
  param {
    lr_mult: 1
    decay_mult: 0
  }
  param {
    lr_mult: 1
    decay_mult: 0
  }
  param {
    lr_mult: 0
    decay_mult: 0
  }
  param {
    lr_mult: 0
    decay_mult: 0
  }
  batch_norm_param {
    use_global_stats: false
    scale_filler {
      type: "constant"
      value: 1
    }
    bias_filler {
      type: "constant"
      value: 0
    }
  }
}
layer {
  name: "inception_8a/1x1/relu1"
  type: "ReLU"
  bottom: "inception_8a/1x1"
  top: "inception_8a/1x1"
}
layer {
  name: "inception_8a/3x3"
  type: "Convolution"
  bottom: "inception_7a/output"
  top: "inception_8a/3x3"
  param {
    lr_mult: 1
    decay_mult: 1
  }
  param {
    lr_mult: 2
    decay_mult: 0
  }
  convolution_param {
    num_output: 96
    pad: 1
    kernel_size: 3
    weight_filler {
      type: "xavier"
      std: 0.03
    }
    bias_filler {
      type: "constant"
      value: 0.2
    }
  }
}
layer {
  name: "inception_8a/3x3/bn1"
  type: "BatchNorm"
  bottom: "inception_8a/3x3"
  top: "inception_8a/3x3"
  param {
    lr_mult: 1
    decay_mult: 0
  }
  param {
    lr_mult: 1
    decay_mult: 0
  }
  param {
    lr_mult: 0
    decay_mult: 0
  }
  param {
    lr_mult: 0
    decay_mult: 0
  }
  batch_norm_param {
    use_global_stats: false
    scale_filler {
      type: "constant"
      value: 1
    }
    bias_filler {
      type: "constant"
      value: 0
    }
  }
}
layer {
  name: "inception_8a/3x3/relu1"
  type: "ReLU"
  bottom: "inception_8a/3x3"
  top: "inception_8a/3x3"
}
layer {
  name: "inception_8a/output"
  type: "Concat"
  bottom: "inception_8a/1x1"
  bottom: "inception_8a/3x3"
  top: "inception_8a/output"
}
layer {
  name: "downsample_9/3x3_s2"
  type: "Convolution"
  bottom: "inception_8a/output"
  top: "downsample_9/3x3_s2"
  param {
    lr_mult: 1
    decay_mult: 1
  }
  param {
    lr_mult: 2
    decay_mult: 0
  }
  convolution_param {
    num_output: 96
    pad: 1
    kernel_size: 3
    stride: 2
    weight_filler {
      type: "xavier"
      std: 0.03
    }
    bias_filler {
      type: "constant"
      value: 0.2
    }
  }
}
layer {
  name: "downsample_9/3x3_s2/bn1"
  type: "BatchNorm"
  bottom: "downsample_9/3x3_s2"
  top: "downsample_9/3x3_s2"
  param {
    lr_mult: 1
    decay_mult: 0
  }
  param {
    lr_mult: 1
    decay_mult: 0
  }
  param {
    lr_mult: 0
    decay_mult: 0
  }
  param {
    lr_mult: 0
    decay_mult: 0
  }
  batch_norm_param {
    use_global_stats: false
    scale_filler {
      type: "constant"
      value: 1
    }
    bias_filler {
      type: "constant"
      value: 0
    }
  }
}
layer {
  name: "downsample_9/3x3_s2/relu1"
  type: "ReLU"
  bottom: "downsample_9/3x3_s2"
  top: "downsample_9/3x3_s2"
}
layer {
  name: "downsample_9/pool_s2"
  type: "Pooling"
  bottom: "inception_8a/output"
  top: "downsample_9/pool_s2"
  pooling_param {
    pool: MAX
    kernel_size: 3
    stride: 2
  }
}
layer {
  name: "downsample_9/output"
  type: "Concat"
  bottom: "downsample_9/3x3_s2"
  bottom: "downsample_9/pool_s2"
  top: "downsample_9/output"
}
layer {
  name: "inception_10a/1x1"
  type: "Convolution"
  bottom: "downsample_9/output"
  top: "inception_10a/1x1"
  param {
    lr_mult: 1
    decay_mult: 1
  }
  param {
    lr_mult: 2
    decay_mult: 0
  }
  convolution_param {
    num_output: 176
    kernel_size: 1
    weight_filler {
      type: "xavier"
      std: 0.03
    }
    bias_filler {
      type: "constant"
      value: 0.2
    }
  }
}
layer {
  name: "inception_10a/1x1/bn1"
  type: "BatchNorm"
  bottom: "inception_10a/1x1"
  top: "inception_10a/1x1"
  param {
    lr_mult: 1
    decay_mult: 0
  }
  param {
    lr_mult: 1
    decay_mult: 0
  }
  param {
    lr_mult: 0
    decay_mult: 0
  }
  param {
    lr_mult: 0
    decay_mult: 0
  }
  batch_norm_param {
    use_global_stats: false
    scale_filler {
      type: "constant"
      value: 1
    }
    bias_filler {
      type: "constant"
      value: 0
    }
  }
}
layer {
  name: "inception_10a/1x1/relu1"
  type: "ReLU"
  bottom: "inception_10a/1x1"
  top: "inception_10a/1x1"
}
layer {
  name: "inception_10a/3x3"
  type: "Convolution"
  bottom: "downsample_9/output"
  top: "inception_10a/3x3"
  param {
    lr_mult: 1
    decay_mult: 1
  }
  param {
    lr_mult: 2
    decay_mult: 0
  }
  convolution_param {
    num_output: 160
    pad: 1
    kernel_size: 3
    weight_filler {
      type: "xavier"
      std: 0.03
    }
    bias_filler {
      type: "constant"
      value: 0.2
    }
  }
}
layer {
  name: "inception_10a/3x3/bn1"
  type: "BatchNorm"
  bottom: "inception_10a/3x3"
  top: "inception_10a/3x3"
  param {
    lr_mult: 1
    decay_mult: 0
  }
  param {
    lr_mult: 1
    decay_mult: 0
  }
  param {
    lr_mult: 0
    decay_mult: 0
  }
  param {
    lr_mult: 0
    decay_mult: 0
  }
  batch_norm_param {
    use_global_stats: false
    scale_filler {
      type: "constant"
      value: 1
    }
    bias_filler {
      type: "constant"
      value: 0
    }
  }
}
layer {
  name: "inception_10a/3x3/relu1"
  type: "ReLU"
  bottom: "inception_10a/3x3"
  top: "inception_10a/3x3"
}
layer {
  name: "inception_10a/output"
  type: "Concat"
  bottom: "inception_10a/1x1"
  bottom: "inception_10a/3x3"
  top: "inception_10a/output"
}
layer {
  name: "inception_11a/1x1"
  type: "Convolution"
  bottom: "inception_10a/output"
  top: "inception_11a/1x1"
  param {
    lr_mult: 1
    decay_mult: 1
  }
  param {
    lr_mult: 2
    decay_mult: 0
  }
  convolution_param {
    num_output: 176
    kernel_size: 1
    weight_filler {
      type: "xavier"
      std: 0.03
    }
    bias_filler {
      type: "constant"
      value: 0.2
    }
  }
}
layer {
  name: "inception_11a/1x1/bn1"
  type: "BatchNorm"
  bottom: "inception_11a/1x1"
  top: "inception_11a/1x1"
  param {
    lr_mult: 1
    decay_mult: 0
  }
  param {
    lr_mult: 1
    decay_mult: 0
  }
  param {
    lr_mult: 0
    decay_mult: 0
  }
  param {
    lr_mult: 0
    decay_mult: 0
  }
  batch_norm_param {
    use_global_stats: false
    scale_filler {
      type: "constant"
      value: 1
    }
    bias_filler {
      type: "constant"
      value: 0
    }
  }
}
layer {
  name: "inception_11a/1x1/relu1"
  type: "ReLU"
  bottom: "inception_11a/1x1"
  top: "inception_11a/1x1"
}
layer {
  name: "inception_11a/3x3"
  type: "Convolution"
  bottom: "inception_10a/output"
  top: "inception_11a/3x3"
  param {
    lr_mult: 1
    decay_mult: 1
  }
  param {
    lr_mult: 2
    decay_mult: 0
  }
  convolution_param {
    num_output: 160
    pad: 1
    kernel_size: 3
    weight_filler {
      type: "xavier"
      std: 0.03
    }
    bias_filler {
      type: "constant"
      value: 0.2
    }
  }
}
layer {
  name: "inception_11a/3x3/bn1"
  type: "BatchNorm"
  bottom: "inception_11a/3x3"
  top: "inception_11a/3x3"
  param {
    lr_mult: 1
    decay_mult: 0
  }
  param {
    lr_mult: 1
    decay_mult: 0
  }
  param {
    lr_mult: 0
    decay_mult: 0
  }
  param {
    lr_mult: 0
    decay_mult: 0
  }
  batch_norm_param {
    use_global_stats: false
    scale_filler {
      type: "constant"
      value: 1
    }
    bias_filler {
      type: "constant"
      value: 0
    }
  }
}
layer {
  name: "inception_11a/3x3/relu1"
  type: "ReLU"
  bottom: "inception_11a/3x3"
  top: "inception_11a/3x3"
}
layer {
  name: "inception_11a/output"
  type: "Concat"
  bottom: "inception_11a/1x1"
  bottom: "inception_11a/3x3"
  top: "inception_11a/output"
}
layer {
  name: "avg_pool_12/8x8_s1"
  type: "Pooling"
  bottom: "inception_11a/output"
  top: "avg_pool_12/8x8_s1"
  pooling_param {
    pool: AVE
    kernel_size: 8
    stride: 1
  }
}
layer {
  name: "drop_8x8_s1"
  type: "Dropout"
  bottom: "avg_pool_12/8x8_s1"
  top: "avg_pool_12/8x8_s1"
  dropout_param {
    dropout_ratio: 0.5
  }
}
layer {
  name: "loss/classifier"
  type: "InnerProduct"
  bottom: "avg_pool_12/8x8_s1"
  top: "loss/classifier"
  param {
    lr_mult: 1
    decay_mult: 1
  }
  param {
    lr_mult: 2
    decay_mult: 0
  }
  inner_product_param {
    num_output: 10
    weight_filler {
      type: "xavier"
    }
    bias_filler {
      type: "constant"
      value: 1
    }
  }
}
layer {
  name: "loss"
  type: "SoftmaxWithLoss"
  bottom: "loss/classifier"
  bottom: "label"
  top: "loss"
}
layer {
  name: "accuracy"
  type: "Accuracy"
  bottom: "loss/classifier"
  bottom: "label"
  top: "accuracy"
  include {
    phase: TEST
  }
}
layer {
  name: "accuracy-top1"
  type: "Accuracy"
  bottom: "loss/classifier"
  bottom: "label"
  top: "top-1"
  include {
    phase: TEST
  }
}
layer {
  name: "accuracy-top5"
  type: "Accuracy"
  bottom: "loss/classifier"
  bottom: "label"
  top: "top-5"
  include {
    phase: TEST
  }
  accuracy_param {
    top_k: 5
  }
}
I0114 19:24:28.901285 78487 layer_factory.hpp:77] Creating layer data
I0114 19:24:28.901325 78487 internal_thread.cpp:27] Starting internal thread(s) on GPU 0
I0114 19:24:28.901717 78487 net.cpp:94] Creating Layer data
I0114 19:24:28.901726 78487 net.cpp:409] data -> data
I0114 19:24:28.901734 78487 net.cpp:409] data -> label
I0114 19:24:28.902786 78622 db_lmdb.cpp:35] Opened lmdb /home/ML/cifar10/input/lmdb/valid_lmdb
I0114 19:24:28.902817 78622 data_reader.cpp:117] TEST: reading data using 1 channel(s)
I0114 19:24:28.902931 78487 data_layer.cpp:78] ReshapePrefetch 50, 3, 32, 32
I0114 19:24:28.903009 78487 data_layer.cpp:83] output data size: 50,3,32,32
I0114 19:24:28.905568 78487 internal_thread.cpp:27] Starting internal thread(s) on GPU 0
I0114 19:24:28.905604 78487 net.cpp:144] Setting up data
I0114 19:24:28.905611 78487 net.cpp:151] Top shape: 50 3 32 32 (153600)
I0114 19:24:28.905614 78487 net.cpp:151] Top shape: 50 (50)
I0114 19:24:28.905616 78487 net.cpp:159] Memory required for data: 614600
I0114 19:24:28.905620 78487 layer_factory.hpp:77] Creating layer label_data_1_split
I0114 19:24:28.905627 78487 net.cpp:94] Creating Layer label_data_1_split
I0114 19:24:28.905630 78487 net.cpp:435] label_data_1_split <- label
I0114 19:24:28.905635 78487 net.cpp:409] label_data_1_split -> label_data_1_split_0
I0114 19:24:28.905643 78487 net.cpp:409] label_data_1_split -> label_data_1_split_1
I0114 19:24:28.905648 78487 net.cpp:409] label_data_1_split -> label_data_1_split_2
I0114 19:24:28.905655 78487 net.cpp:409] label_data_1_split -> label_data_1_split_3
I0114 19:24:28.905731 78487 net.cpp:144] Setting up label_data_1_split
I0114 19:24:28.905737 78487 net.cpp:151] Top shape: 50 (50)
I0114 19:24:28.905740 78487 net.cpp:151] Top shape: 50 (50)
I0114 19:24:28.905743 78487 net.cpp:151] Top shape: 50 (50)
I0114 19:24:28.905746 78487 net.cpp:151] Top shape: 50 (50)
I0114 19:24:28.905750 78487 net.cpp:159] Memory required for data: 615400
I0114 19:24:28.905752 78487 layer_factory.hpp:77] Creating layer conv1/3x3_s1
I0114 19:24:28.905761 78487 net.cpp:94] Creating Layer conv1/3x3_s1
I0114 19:24:28.905766 78487 net.cpp:435] conv1/3x3_s1 <- data
I0114 19:24:28.905771 78487 net.cpp:409] conv1/3x3_s1 -> conv1/3x3_s1
I0114 19:24:28.907243 78487 net.cpp:144] Setting up conv1/3x3_s1
I0114 19:24:28.907251 78487 net.cpp:151] Top shape: 50 96 32 32 (4915200)
I0114 19:24:28.907254 78487 net.cpp:159] Memory required for data: 20276200
I0114 19:24:28.907280 78487 layer_factory.hpp:77] Creating layer conv1/bn1
I0114 19:24:28.907289 78487 net.cpp:94] Creating Layer conv1/bn1
I0114 19:24:28.907291 78487 net.cpp:435] conv1/bn1 <- conv1/3x3_s1
I0114 19:24:28.907297 78487 net.cpp:396] conv1/bn1 -> conv1/3x3_s1 (in-place)
I0114 19:24:28.907894 78487 net.cpp:144] Setting up conv1/bn1
I0114 19:24:28.907901 78487 net.cpp:151] Top shape: 50 96 32 32 (4915200)
I0114 19:24:28.907904 78487 net.cpp:159] Memory required for data: 39937000
I0114 19:24:28.907915 78487 layer_factory.hpp:77] Creating layer conv1/relu1
I0114 19:24:28.907922 78487 net.cpp:94] Creating Layer conv1/relu1
I0114 19:24:28.907924 78487 net.cpp:435] conv1/relu1 <- conv1/3x3_s1
I0114 19:24:28.907929 78487 net.cpp:396] conv1/relu1 -> conv1/3x3_s1 (in-place)
I0114 19:24:28.907935 78487 net.cpp:144] Setting up conv1/relu1
I0114 19:24:28.907939 78487 net.cpp:151] Top shape: 50 96 32 32 (4915200)
I0114 19:24:28.907941 78487 net.cpp:159] Memory required for data: 59597800
I0114 19:24:28.907944 78487 layer_factory.hpp:77] Creating layer conv1/3x3_s1_conv1/relu1_0_split
I0114 19:24:28.907948 78487 net.cpp:94] Creating Layer conv1/3x3_s1_conv1/relu1_0_split
I0114 19:24:28.907951 78487 net.cpp:435] conv1/3x3_s1_conv1/relu1_0_split <- conv1/3x3_s1
I0114 19:24:28.907956 78487 net.cpp:409] conv1/3x3_s1_conv1/relu1_0_split -> conv1/3x3_s1_conv1/relu1_0_split_0
I0114 19:24:28.907963 78487 net.cpp:409] conv1/3x3_s1_conv1/relu1_0_split -> conv1/3x3_s1_conv1/relu1_0_split_1
I0114 19:24:28.907986 78487 net.cpp:144] Setting up conv1/3x3_s1_conv1/relu1_0_split
I0114 19:24:28.907992 78487 net.cpp:151] Top shape: 50 96 32 32 (4915200)
I0114 19:24:28.907996 78487 net.cpp:151] Top shape: 50 96 32 32 (4915200)
I0114 19:24:28.907999 78487 net.cpp:159] Memory required for data: 98919400
I0114 19:24:28.908001 78487 layer_factory.hpp:77] Creating layer inception_2a/1x1
I0114 19:24:28.908010 78487 net.cpp:94] Creating Layer inception_2a/1x1
I0114 19:24:28.908015 78487 net.cpp:435] inception_2a/1x1 <- conv1/3x3_s1_conv1/relu1_0_split_0
I0114 19:24:28.908020 78487 net.cpp:409] inception_2a/1x1 -> inception_2a/1x1
I0114 19:24:28.908232 78487 net.cpp:144] Setting up inception_2a/1x1
I0114 19:24:28.908239 78487 net.cpp:151] Top shape: 50 32 32 32 (1638400)
I0114 19:24:28.908242 78487 net.cpp:159] Memory required for data: 105473000
I0114 19:24:28.908249 78487 layer_factory.hpp:77] Creating layer inception_2a/1x1/bn1
I0114 19:24:28.908254 78487 net.cpp:94] Creating Layer inception_2a/1x1/bn1
I0114 19:24:28.908258 78487 net.cpp:435] inception_2a/1x1/bn1 <- inception_2a/1x1
I0114 19:24:28.908263 78487 net.cpp:396] inception_2a/1x1/bn1 -> inception_2a/1x1 (in-place)
I0114 19:24:28.908970 78487 net.cpp:144] Setting up inception_2a/1x1/bn1
I0114 19:24:28.908977 78487 net.cpp:151] Top shape: 50 32 32 32 (1638400)
I0114 19:24:28.908982 78487 net.cpp:159] Memory required for data: 112026600
I0114 19:24:28.908988 78487 layer_factory.hpp:77] Creating layer inception_2a/1x1/relu1
I0114 19:24:28.908993 78487 net.cpp:94] Creating Layer inception_2a/1x1/relu1
I0114 19:24:28.908996 78487 net.cpp:435] inception_2a/1x1/relu1 <- inception_2a/1x1
I0114 19:24:28.909001 78487 net.cpp:396] inception_2a/1x1/relu1 -> inception_2a/1x1 (in-place)
I0114 19:24:28.909018 78487 net.cpp:144] Setting up inception_2a/1x1/relu1
I0114 19:24:28.909023 78487 net.cpp:151] Top shape: 50 32 32 32 (1638400)
I0114 19:24:28.909025 78487 net.cpp:159] Memory required for data: 118580200
I0114 19:24:28.909029 78487 layer_factory.hpp:77] Creating layer inception_2a/3x3
I0114 19:24:28.909036 78487 net.cpp:94] Creating Layer inception_2a/3x3
I0114 19:24:28.909039 78487 net.cpp:435] inception_2a/3x3 <- conv1/3x3_s1_conv1/relu1_0_split_1
I0114 19:24:28.909045 78487 net.cpp:409] inception_2a/3x3 -> inception_2a/3x3
I0114 19:24:28.910099 78487 net.cpp:144] Setting up inception_2a/3x3
I0114 19:24:28.910110 78487 net.cpp:151] Top shape: 50 32 32 32 (1638400)
I0114 19:24:28.910125 78487 net.cpp:159] Memory required for data: 125133800
I0114 19:24:28.910131 78487 layer_factory.hpp:77] Creating layer inception_2a/3x3/bn1
I0114 19:24:28.910140 78487 net.cpp:94] Creating Layer inception_2a/3x3/bn1
I0114 19:24:28.910143 78487 net.cpp:435] inception_2a/3x3/bn1 <- inception_2a/3x3
I0114 19:24:28.910148 78487 net.cpp:396] inception_2a/3x3/bn1 -> inception_2a/3x3 (in-place)
I0114 19:24:28.910794 78487 net.cpp:144] Setting up inception_2a/3x3/bn1
I0114 19:24:28.910801 78487 net.cpp:151] Top shape: 50 32 32 32 (1638400)
I0114 19:24:28.910804 78487 net.cpp:159] Memory required for data: 131687400
I0114 19:24:28.910815 78487 layer_factory.hpp:77] Creating layer inception_2a/3x3/relu1
I0114 19:24:28.910820 78487 net.cpp:94] Creating Layer inception_2a/3x3/relu1
I0114 19:24:28.910823 78487 net.cpp:435] inception_2a/3x3/relu1 <- inception_2a/3x3
I0114 19:24:28.910828 78487 net.cpp:396] inception_2a/3x3/relu1 -> inception_2a/3x3 (in-place)
I0114 19:24:28.910835 78487 net.cpp:144] Setting up inception_2a/3x3/relu1
I0114 19:24:28.910838 78487 net.cpp:151] Top shape: 50 32 32 32 (1638400)
I0114 19:24:28.910841 78487 net.cpp:159] Memory required for data: 138241000
I0114 19:24:28.910845 78487 layer_factory.hpp:77] Creating layer inception_2a/output
I0114 19:24:28.910850 78487 net.cpp:94] Creating Layer inception_2a/output
I0114 19:24:28.910852 78487 net.cpp:435] inception_2a/output <- inception_2a/1x1
I0114 19:24:28.910857 78487 net.cpp:435] inception_2a/output <- inception_2a/3x3
I0114 19:24:28.910861 78487 net.cpp:409] inception_2a/output -> inception_2a/output
I0114 19:24:28.910883 78487 net.cpp:144] Setting up inception_2a/output
I0114 19:24:28.910888 78487 net.cpp:151] Top shape: 50 64 32 32 (3276800)
I0114 19:24:28.910892 78487 net.cpp:159] Memory required for data: 151348200
I0114 19:24:28.910894 78487 layer_factory.hpp:77] Creating layer inception_2a/output_inception_2a/output_0_split
I0114 19:24:28.910899 78487 net.cpp:94] Creating Layer inception_2a/output_inception_2a/output_0_split
I0114 19:24:28.910902 78487 net.cpp:435] inception_2a/output_inception_2a/output_0_split <- inception_2a/output
I0114 19:24:28.910907 78487 net.cpp:409] inception_2a/output_inception_2a/output_0_split -> inception_2a/output_inception_2a/output_0_split_0
I0114 19:24:28.910913 78487 net.cpp:409] inception_2a/output_inception_2a/output_0_split -> inception_2a/output_inception_2a/output_0_split_1
I0114 19:24:28.910980 78487 net.cpp:144] Setting up inception_2a/output_inception_2a/output_0_split
I0114 19:24:28.910985 78487 net.cpp:151] Top shape: 50 64 32 32 (3276800)
I0114 19:24:28.910990 78487 net.cpp:151] Top shape: 50 64 32 32 (3276800)
I0114 19:24:28.910993 78487 net.cpp:159] Memory required for data: 177562600
I0114 19:24:28.910995 78487 layer_factory.hpp:77] Creating layer inception_3a/1x1
I0114 19:24:28.911003 78487 net.cpp:94] Creating Layer inception_3a/1x1
I0114 19:24:28.911007 78487 net.cpp:435] inception_3a/1x1 <- inception_2a/output_inception_2a/output_0_split_0
I0114 19:24:28.911012 78487 net.cpp:409] inception_3a/1x1 -> inception_3a/1x1
I0114 19:24:28.911232 78487 net.cpp:144] Setting up inception_3a/1x1
I0114 19:24:28.911238 78487 net.cpp:151] Top shape: 50 32 32 32 (1638400)
I0114 19:24:28.911242 78487 net.cpp:159] Memory required for data: 184116200
I0114 19:24:28.911257 78487 layer_factory.hpp:77] Creating layer inception_3a/1x1/bn1
I0114 19:24:28.911263 78487 net.cpp:94] Creating Layer inception_3a/1x1/bn1
I0114 19:24:28.911267 78487 net.cpp:435] inception_3a/1x1/bn1 <- inception_3a/1x1
I0114 19:24:28.911273 78487 net.cpp:396] inception_3a/1x1/bn1 -> inception_3a/1x1 (in-place)
I0114 19:24:28.911929 78487 net.cpp:144] Setting up inception_3a/1x1/bn1
I0114 19:24:28.911936 78487 net.cpp:151] Top shape: 50 32 32 32 (1638400)
I0114 19:24:28.911939 78487 net.cpp:159] Memory required for data: 190669800
I0114 19:24:28.911947 78487 layer_factory.hpp:77] Creating layer inception_3a/1x1/relu1
I0114 19:24:28.911953 78487 net.cpp:94] Creating Layer inception_3a/1x1/relu1
I0114 19:24:28.911957 78487 net.cpp:435] inception_3a/1x1/relu1 <- inception_3a/1x1
I0114 19:24:28.911962 78487 net.cpp:396] inception_3a/1x1/relu1 -> inception_3a/1x1 (in-place)
I0114 19:24:28.911968 78487 net.cpp:144] Setting up inception_3a/1x1/relu1
I0114 19:24:28.911972 78487 net.cpp:151] Top shape: 50 32 32 32 (1638400)
I0114 19:24:28.911974 78487 net.cpp:159] Memory required for data: 197223400
I0114 19:24:28.911978 78487 layer_factory.hpp:77] Creating layer inception_3a/3x3
I0114 19:24:28.911985 78487 net.cpp:94] Creating Layer inception_3a/3x3
I0114 19:24:28.911991 78487 net.cpp:435] inception_3a/3x3 <- inception_2a/output_inception_2a/output_0_split_1
I0114 19:24:28.911996 78487 net.cpp:409] inception_3a/3x3 -> inception_3a/3x3
I0114 19:24:28.912386 78487 net.cpp:144] Setting up inception_3a/3x3
I0114 19:24:28.912394 78487 net.cpp:151] Top shape: 50 48 32 32 (2457600)
I0114 19:24:28.912397 78487 net.cpp:159] Memory required for data: 207053800
I0114 19:24:28.912401 78487 layer_factory.hpp:77] Creating layer inception_3a/3x3/bn1
I0114 19:24:28.912407 78487 net.cpp:94] Creating Layer inception_3a/3x3/bn1
I0114 19:24:28.912411 78487 net.cpp:435] inception_3a/3x3/bn1 <- inception_3a/3x3
I0114 19:24:28.912416 78487 net.cpp:396] inception_3a/3x3/bn1 -> inception_3a/3x3 (in-place)
I0114 19:24:28.913056 78487 net.cpp:144] Setting up inception_3a/3x3/bn1
I0114 19:24:28.913062 78487 net.cpp:151] Top shape: 50 48 32 32 (2457600)
I0114 19:24:28.913065 78487 net.cpp:159] Memory required for data: 216884200
I0114 19:24:28.913076 78487 layer_factory.hpp:77] Creating layer inception_3a/3x3/relu1
I0114 19:24:28.913084 78487 net.cpp:94] Creating Layer inception_3a/3x3/relu1
I0114 19:24:28.913087 78487 net.cpp:435] inception_3a/3x3/relu1 <- inception_3a/3x3
I0114 19:24:28.913092 78487 net.cpp:396] inception_3a/3x3/relu1 -> inception_3a/3x3 (in-place)
I0114 19:24:28.913098 78487 net.cpp:144] Setting up inception_3a/3x3/relu1
I0114 19:24:28.913102 78487 net.cpp:151] Top shape: 50 48 32 32 (2457600)
I0114 19:24:28.913105 78487 net.cpp:159] Memory required for data: 226714600
I0114 19:24:28.913107 78487 layer_factory.hpp:77] Creating layer inception_3a/output
I0114 19:24:28.913113 78487 net.cpp:94] Creating Layer inception_3a/output
I0114 19:24:28.913117 78487 net.cpp:435] inception_3a/output <- inception_3a/1x1
I0114 19:24:28.913122 78487 net.cpp:435] inception_3a/output <- inception_3a/3x3
I0114 19:24:28.913127 78487 net.cpp:409] inception_3a/output -> inception_3a/output
I0114 19:24:28.913148 78487 net.cpp:144] Setting up inception_3a/output
I0114 19:24:28.913154 78487 net.cpp:151] Top shape: 50 80 32 32 (4096000)
I0114 19:24:28.913156 78487 net.cpp:159] Memory required for data: 243098600
I0114 19:24:28.913161 78487 layer_factory.hpp:77] Creating layer inception_3a/output_inception_3a/output_0_split
I0114 19:24:28.913164 78487 net.cpp:94] Creating Layer inception_3a/output_inception_3a/output_0_split
I0114 19:24:28.913167 78487 net.cpp:435] inception_3a/output_inception_3a/output_0_split <- inception_3a/output
I0114 19:24:28.913172 78487 net.cpp:409] inception_3a/output_inception_3a/output_0_split -> inception_3a/output_inception_3a/output_0_split_0
I0114 19:24:28.913178 78487 net.cpp:409] inception_3a/output_inception_3a/output_0_split -> inception_3a/output_inception_3a/output_0_split_1
I0114 19:24:28.913234 78487 net.cpp:144] Setting up inception_3a/output_inception_3a/output_0_split
I0114 19:24:28.913249 78487 net.cpp:151] Top shape: 50 80 32 32 (4096000)
I0114 19:24:28.913252 78487 net.cpp:151] Top shape: 50 80 32 32 (4096000)
I0114 19:24:28.913255 78487 net.cpp:159] Memory required for data: 275866600
I0114 19:24:28.913259 78487 layer_factory.hpp:77] Creating layer downsample_4/3x3_s2
I0114 19:24:28.913266 78487 net.cpp:94] Creating Layer downsample_4/3x3_s2
I0114 19:24:28.913269 78487 net.cpp:435] downsample_4/3x3_s2 <- inception_3a/output_inception_3a/output_0_split_0
I0114 19:24:28.913275 78487 net.cpp:409] downsample_4/3x3_s2 -> downsample_4/3x3_s2
I0114 19:24:28.913795 78487 net.cpp:144] Setting up downsample_4/3x3_s2
I0114 19:24:28.913802 78487 net.cpp:151] Top shape: 50 80 16 16 (1024000)
I0114 19:24:28.913806 78487 net.cpp:159] Memory required for data: 279962600
I0114 19:24:28.913811 78487 layer_factory.hpp:77] Creating layer downsample_4/3x3_s2/bn1
I0114 19:24:28.913820 78487 net.cpp:94] Creating Layer downsample_4/3x3_s2/bn1
I0114 19:24:28.913823 78487 net.cpp:435] downsample_4/3x3_s2/bn1 <- downsample_4/3x3_s2
I0114 19:24:28.913828 78487 net.cpp:396] downsample_4/3x3_s2/bn1 -> downsample_4/3x3_s2 (in-place)
I0114 19:24:28.914532 78487 net.cpp:144] Setting up downsample_4/3x3_s2/bn1
I0114 19:24:28.914538 78487 net.cpp:151] Top shape: 50 80 16 16 (1024000)
I0114 19:24:28.914542 78487 net.cpp:159] Memory required for data: 284058600
I0114 19:24:28.914549 78487 layer_factory.hpp:77] Creating layer downsample_4/3x3_s2/relu1
I0114 19:24:28.914556 78487 net.cpp:94] Creating Layer downsample_4/3x3_s2/relu1
I0114 19:24:28.914558 78487 net.cpp:435] downsample_4/3x3_s2/relu1 <- downsample_4/3x3_s2
I0114 19:24:28.914562 78487 net.cpp:396] downsample_4/3x3_s2/relu1 -> downsample_4/3x3_s2 (in-place)
I0114 19:24:28.914568 78487 net.cpp:144] Setting up downsample_4/3x3_s2/relu1
I0114 19:24:28.914572 78487 net.cpp:151] Top shape: 50 80 16 16 (1024000)
I0114 19:24:28.914575 78487 net.cpp:159] Memory required for data: 288154600
I0114 19:24:28.914578 78487 layer_factory.hpp:77] Creating layer downsample_4/pool_s2
I0114 19:24:28.914584 78487 net.cpp:94] Creating Layer downsample_4/pool_s2
I0114 19:24:28.914592 78487 net.cpp:435] downsample_4/pool_s2 <- inception_3a/output_inception_3a/output_0_split_1
I0114 19:24:28.914597 78487 net.cpp:409] downsample_4/pool_s2 -> downsample_4/pool_s2
I0114 19:24:28.914624 78487 net.cpp:144] Setting up downsample_4/pool_s2
I0114 19:24:28.914629 78487 net.cpp:151] Top shape: 50 80 16 16 (1024000)
I0114 19:24:28.914633 78487 net.cpp:159] Memory required for data: 292250600
I0114 19:24:28.914636 78487 layer_factory.hpp:77] Creating layer downsample_4/output
I0114 19:24:28.914641 78487 net.cpp:94] Creating Layer downsample_4/output
I0114 19:24:28.914644 78487 net.cpp:435] downsample_4/output <- downsample_4/3x3_s2
I0114 19:24:28.914649 78487 net.cpp:435] downsample_4/output <- downsample_4/pool_s2
I0114 19:24:28.914654 78487 net.cpp:409] downsample_4/output -> downsample_4/output
I0114 19:24:28.914707 78487 net.cpp:144] Setting up downsample_4/output
I0114 19:24:28.914712 78487 net.cpp:151] Top shape: 50 160 16 16 (2048000)
I0114 19:24:28.914716 78487 net.cpp:159] Memory required for data: 300442600
I0114 19:24:28.914719 78487 layer_factory.hpp:77] Creating layer downsample_4/output_downsample_4/output_0_split
I0114 19:24:28.914724 78487 net.cpp:94] Creating Layer downsample_4/output_downsample_4/output_0_split
I0114 19:24:28.914728 78487 net.cpp:435] downsample_4/output_downsample_4/output_0_split <- downsample_4/output
I0114 19:24:28.914733 78487 net.cpp:409] downsample_4/output_downsample_4/output_0_split -> downsample_4/output_downsample_4/output_0_split_0
I0114 19:24:28.914741 78487 net.cpp:409] downsample_4/output_downsample_4/output_0_split -> downsample_4/output_downsample_4/output_0_split_1
I0114 19:24:28.914765 78487 net.cpp:144] Setting up downsample_4/output_downsample_4/output_0_split
I0114 19:24:28.914770 78487 net.cpp:151] Top shape: 50 160 16 16 (2048000)
I0114 19:24:28.914774 78487 net.cpp:151] Top shape: 50 160 16 16 (2048000)
I0114 19:24:28.914789 78487 net.cpp:159] Memory required for data: 316826600
I0114 19:24:28.914793 78487 layer_factory.hpp:77] Creating layer inception_5a/1x1
I0114 19:24:28.914800 78487 net.cpp:94] Creating Layer inception_5a/1x1
I0114 19:24:28.914803 78487 net.cpp:435] inception_5a/1x1 <- downsample_4/output_downsample_4/output_0_split_0
I0114 19:24:28.914810 78487 net.cpp:409] inception_5a/1x1 -> inception_5a/1x1
I0114 19:24:28.915118 78487 net.cpp:144] Setting up inception_5a/1x1
I0114 19:24:28.915127 78487 net.cpp:151] Top shape: 50 112 16 16 (1433600)
I0114 19:24:28.915129 78487 net.cpp:159] Memory required for data: 322561000
I0114 19:24:28.915134 78487 layer_factory.hpp:77] Creating layer inception_5a/1x1/bn1
I0114 19:24:28.915143 78487 net.cpp:94] Creating Layer inception_5a/1x1/bn1
I0114 19:24:28.915145 78487 net.cpp:435] inception_5a/1x1/bn1 <- inception_5a/1x1
I0114 19:24:28.915150 78487 net.cpp:396] inception_5a/1x1/bn1 -> inception_5a/1x1 (in-place)
I0114 19:24:28.915810 78487 net.cpp:144] Setting up inception_5a/1x1/bn1
I0114 19:24:28.915817 78487 net.cpp:151] Top shape: 50 112 16 16 (1433600)
I0114 19:24:28.915820 78487 net.cpp:159] Memory required for data: 328295400
I0114 19:24:28.915828 78487 layer_factory.hpp:77] Creating layer inception_5a/1x1/relu1
I0114 19:24:28.915833 78487 net.cpp:94] Creating Layer inception_5a/1x1/relu1
I0114 19:24:28.915836 78487 net.cpp:435] inception_5a/1x1/relu1 <- inception_5a/1x1
I0114 19:24:28.915841 78487 net.cpp:396] inception_5a/1x1/relu1 -> inception_5a/1x1 (in-place)
I0114 19:24:28.915848 78487 net.cpp:144] Setting up inception_5a/1x1/relu1
I0114 19:24:28.915853 78487 net.cpp:151] Top shape: 50 112 16 16 (1433600)
I0114 19:24:28.915856 78487 net.cpp:159] Memory required for data: 334029800
I0114 19:24:28.915858 78487 layer_factory.hpp:77] Creating layer inception_5a/3x3
I0114 19:24:28.915866 78487 net.cpp:94] Creating Layer inception_5a/3x3
I0114 19:24:28.915869 78487 net.cpp:435] inception_5a/3x3 <- downsample_4/output_downsample_4/output_0_split_1
I0114 19:24:28.915875 78487 net.cpp:409] inception_5a/3x3 -> inception_5a/3x3
I0114 19:24:28.916544 78487 net.cpp:144] Setting up inception_5a/3x3
I0114 19:24:28.916554 78487 net.cpp:151] Top shape: 50 48 16 16 (614400)
I0114 19:24:28.916558 78487 net.cpp:159] Memory required for data: 336487400
I0114 19:24:28.916563 78487 layer_factory.hpp:77] Creating layer inception_5a/3x3/bn1
I0114 19:24:28.916571 78487 net.cpp:94] Creating Layer inception_5a/3x3/bn1
I0114 19:24:28.916575 78487 net.cpp:435] inception_5a/3x3/bn1 <- inception_5a/3x3
I0114 19:24:28.916581 78487 net.cpp:396] inception_5a/3x3/bn1 -> inception_5a/3x3 (in-place)
I0114 19:24:28.917269 78487 net.cpp:144] Setting up inception_5a/3x3/bn1
I0114 19:24:28.917276 78487 net.cpp:151] Top shape: 50 48 16 16 (614400)
I0114 19:24:28.917279 78487 net.cpp:159] Memory required for data: 338945000
I0114 19:24:28.917287 78487 layer_factory.hpp:77] Creating layer inception_5a/3x3/relu1
I0114 19:24:28.917294 78487 net.cpp:94] Creating Layer inception_5a/3x3/relu1
I0114 19:24:28.917296 78487 net.cpp:435] inception_5a/3x3/relu1 <- inception_5a/3x3
I0114 19:24:28.917301 78487 net.cpp:396] inception_5a/3x3/relu1 -> inception_5a/3x3 (in-place)
I0114 19:24:28.917307 78487 net.cpp:144] Setting up inception_5a/3x3/relu1
I0114 19:24:28.917311 78487 net.cpp:151] Top shape: 50 48 16 16 (614400)
I0114 19:24:28.917315 78487 net.cpp:159] Memory required for data: 341402600
I0114 19:24:28.917317 78487 layer_factory.hpp:77] Creating layer inception_5a/output
I0114 19:24:28.917321 78487 net.cpp:94] Creating Layer inception_5a/output
I0114 19:24:28.917325 78487 net.cpp:435] inception_5a/output <- inception_5a/1x1
I0114 19:24:28.917328 78487 net.cpp:435] inception_5a/output <- inception_5a/3x3
I0114 19:24:28.917333 78487 net.cpp:409] inception_5a/output -> inception_5a/output
I0114 19:24:28.917352 78487 net.cpp:144] Setting up inception_5a/output
I0114 19:24:28.917357 78487 net.cpp:151] Top shape: 50 160 16 16 (2048000)
I0114 19:24:28.917361 78487 net.cpp:159] Memory required for data: 349594600
I0114 19:24:28.917374 78487 layer_factory.hpp:77] Creating layer inception_5a/output_inception_5a/output_0_split
I0114 19:24:28.917379 78487 net.cpp:94] Creating Layer inception_5a/output_inception_5a/output_0_split
I0114 19:24:28.917382 78487 net.cpp:435] inception_5a/output_inception_5a/output_0_split <- inception_5a/output
I0114 19:24:28.917387 78487 net.cpp:409] inception_5a/output_inception_5a/output_0_split -> inception_5a/output_inception_5a/output_0_split_0
I0114 19:24:28.917394 78487 net.cpp:409] inception_5a/output_inception_5a/output_0_split -> inception_5a/output_inception_5a/output_0_split_1
I0114 19:24:28.917460 78487 net.cpp:144] Setting up inception_5a/output_inception_5a/output_0_split
I0114 19:24:28.917465 78487 net.cpp:151] Top shape: 50 160 16 16 (2048000)
I0114 19:24:28.917469 78487 net.cpp:151] Top shape: 50 160 16 16 (2048000)
I0114 19:24:28.917472 78487 net.cpp:159] Memory required for data: 365978600
I0114 19:24:28.917475 78487 layer_factory.hpp:77] Creating layer inception_6a/1x1
I0114 19:24:28.917484 78487 net.cpp:94] Creating Layer inception_6a/1x1
I0114 19:24:28.917486 78487 net.cpp:435] inception_6a/1x1 <- inception_5a/output_inception_5a/output_0_split_0
I0114 19:24:28.917492 78487 net.cpp:409] inception_6a/1x1 -> inception_6a/1x1
I0114 19:24:28.918530 78487 net.cpp:144] Setting up inception_6a/1x1
I0114 19:24:28.918540 78487 net.cpp:151] Top shape: 50 96 16 16 (1228800)
I0114 19:24:28.918543 78487 net.cpp:159] Memory required for data: 370893800
I0114 19:24:28.918550 78487 layer_factory.hpp:77] Creating layer inception_6a/1x1/bn1
I0114 19:24:28.918560 78487 net.cpp:94] Creating Layer inception_6a/1x1/bn1
I0114 19:24:28.918563 78487 net.cpp:435] inception_6a/1x1/bn1 <- inception_6a/1x1
I0114 19:24:28.918568 78487 net.cpp:396] inception_6a/1x1/bn1 -> inception_6a/1x1 (in-place)
I0114 19:24:28.919209 78487 net.cpp:144] Setting up inception_6a/1x1/bn1
I0114 19:24:28.919214 78487 net.cpp:151] Top shape: 50 96 16 16 (1228800)
I0114 19:24:28.919217 78487 net.cpp:159] Memory required for data: 375809000
I0114 19:24:28.919225 78487 layer_factory.hpp:77] Creating layer inception_6a/1x1/relu1
I0114 19:24:28.919232 78487 net.cpp:94] Creating Layer inception_6a/1x1/relu1
I0114 19:24:28.919236 78487 net.cpp:435] inception_6a/1x1/relu1 <- inception_6a/1x1
I0114 19:24:28.919241 78487 net.cpp:396] inception_6a/1x1/relu1 -> inception_6a/1x1 (in-place)
I0114 19:24:28.919248 78487 net.cpp:144] Setting up inception_6a/1x1/relu1
I0114 19:24:28.919252 78487 net.cpp:151] Top shape: 50 96 16 16 (1228800)
I0114 19:24:28.919255 78487 net.cpp:159] Memory required for data: 380724200
I0114 19:24:28.919258 78487 layer_factory.hpp:77] Creating layer inception_6a/3x3
I0114 19:24:28.919266 78487 net.cpp:94] Creating Layer inception_6a/3x3
I0114 19:24:28.919272 78487 net.cpp:435] inception_6a/3x3 <- inception_5a/output_inception_5a/output_0_split_1
I0114 19:24:28.919277 78487 net.cpp:409] inception_6a/3x3 -> inception_6a/3x3
I0114 19:24:28.920626 78487 net.cpp:144] Setting up inception_6a/3x3
I0114 19:24:28.920639 78487 net.cpp:151] Top shape: 50 64 16 16 (819200)
I0114 19:24:28.920644 78487 net.cpp:159] Memory required for data: 384001000
I0114 19:24:28.920653 78487 layer_factory.hpp:77] Creating layer inception_6a/3x3/bn1
I0114 19:24:28.920662 78487 net.cpp:94] Creating Layer inception_6a/3x3/bn1
I0114 19:24:28.920666 78487 net.cpp:435] inception_6a/3x3/bn1 <- inception_6a/3x3
I0114 19:24:28.920673 78487 net.cpp:396] inception_6a/3x3/bn1 -> inception_6a/3x3 (in-place)
I0114 19:24:28.921299 78487 net.cpp:144] Setting up inception_6a/3x3/bn1
I0114 19:24:28.921305 78487 net.cpp:151] Top shape: 50 64 16 16 (819200)
I0114 19:24:28.921308 78487 net.cpp:159] Memory required for data: 387277800
I0114 19:24:28.921317 78487 layer_factory.hpp:77] Creating layer inception_6a/3x3/relu1
I0114 19:24:28.921324 78487 net.cpp:94] Creating Layer inception_6a/3x3/relu1
I0114 19:24:28.921327 78487 net.cpp:435] inception_6a/3x3/relu1 <- inception_6a/3x3
I0114 19:24:28.921331 78487 net.cpp:396] inception_6a/3x3/relu1 -> inception_6a/3x3 (in-place)
I0114 19:24:28.921350 78487 net.cpp:144] Setting up inception_6a/3x3/relu1
I0114 19:24:28.921355 78487 net.cpp:151] Top shape: 50 64 16 16 (819200)
I0114 19:24:28.921356 78487 net.cpp:159] Memory required for data: 390554600
I0114 19:24:28.921360 78487 layer_factory.hpp:77] Creating layer inception_6a/output
I0114 19:24:28.921365 78487 net.cpp:94] Creating Layer inception_6a/output
I0114 19:24:28.921368 78487 net.cpp:435] inception_6a/output <- inception_6a/1x1
I0114 19:24:28.921372 78487 net.cpp:435] inception_6a/output <- inception_6a/3x3
I0114 19:24:28.921377 78487 net.cpp:409] inception_6a/output -> inception_6a/output
I0114 19:24:28.921396 78487 net.cpp:144] Setting up inception_6a/output
I0114 19:24:28.921401 78487 net.cpp:151] Top shape: 50 160 16 16 (2048000)
I0114 19:24:28.921404 78487 net.cpp:159] Memory required for data: 398746600
I0114 19:24:28.921407 78487 layer_factory.hpp:77] Creating layer inception_6a/output_inception_6a/output_0_split
I0114 19:24:28.921412 78487 net.cpp:94] Creating Layer inception_6a/output_inception_6a/output_0_split
I0114 19:24:28.921416 78487 net.cpp:435] inception_6a/output_inception_6a/output_0_split <- inception_6a/output
I0114 19:24:28.921420 78487 net.cpp:409] inception_6a/output_inception_6a/output_0_split -> inception_6a/output_inception_6a/output_0_split_0
I0114 19:24:28.921428 78487 net.cpp:409] inception_6a/output_inception_6a/output_0_split -> inception_6a/output_inception_6a/output_0_split_1
I0114 19:24:28.921456 78487 net.cpp:144] Setting up inception_6a/output_inception_6a/output_0_split
I0114 19:24:28.921463 78487 net.cpp:151] Top shape: 50 160 16 16 (2048000)
I0114 19:24:28.921465 78487 net.cpp:151] Top shape: 50 160 16 16 (2048000)
I0114 19:24:28.921468 78487 net.cpp:159] Memory required for data: 415130600
I0114 19:24:28.921473 78487 layer_factory.hpp:77] Creating layer inception_7a/1x1
I0114 19:24:28.921479 78487 net.cpp:94] Creating Layer inception_7a/1x1
I0114 19:24:28.921484 78487 net.cpp:435] inception_7a/1x1 <- inception_6a/output_inception_6a/output_0_split_0
I0114 19:24:28.921489 78487 net.cpp:409] inception_7a/1x1 -> inception_7a/1x1
I0114 19:24:28.921777 78487 net.cpp:144] Setting up inception_7a/1x1
I0114 19:24:28.921783 78487 net.cpp:151] Top shape: 50 80 16 16 (1024000)
I0114 19:24:28.921787 78487 net.cpp:159] Memory required for data: 419226600
I0114 19:24:28.921792 78487 layer_factory.hpp:77] Creating layer inception_7a/1x1/bn1
I0114 19:24:28.921798 78487 net.cpp:94] Creating Layer inception_7a/1x1/bn1
I0114 19:24:28.921802 78487 net.cpp:435] inception_7a/1x1/bn1 <- inception_7a/1x1
I0114 19:24:28.921808 78487 net.cpp:396] inception_7a/1x1/bn1 -> inception_7a/1x1 (in-place)
I0114 19:24:28.922436 78487 net.cpp:144] Setting up inception_7a/1x1/bn1
I0114 19:24:28.922443 78487 net.cpp:151] Top shape: 50 80 16 16 (1024000)
I0114 19:24:28.922446 78487 net.cpp:159] Memory required for data: 423322600
I0114 19:24:28.922454 78487 layer_factory.hpp:77] Creating layer inception_7a/1x1/relu1
I0114 19:24:28.922461 78487 net.cpp:94] Creating Layer inception_7a/1x1/relu1
I0114 19:24:28.922464 78487 net.cpp:435] inception_7a/1x1/relu1 <- inception_7a/1x1
I0114 19:24:28.922468 78487 net.cpp:396] inception_7a/1x1/relu1 -> inception_7a/1x1 (in-place)
I0114 19:24:28.922474 78487 net.cpp:144] Setting up inception_7a/1x1/relu1
I0114 19:24:28.922477 78487 net.cpp:151] Top shape: 50 80 16 16 (1024000)
I0114 19:24:28.922482 78487 net.cpp:159] Memory required for data: 427418600
I0114 19:24:28.922484 78487 layer_factory.hpp:77] Creating layer inception_7a/3x3
I0114 19:24:28.922492 78487 net.cpp:94] Creating Layer inception_7a/3x3
I0114 19:24:28.922497 78487 net.cpp:435] inception_7a/3x3 <- inception_6a/output_inception_6a/output_0_split_1
I0114 19:24:28.922502 78487 net.cpp:409] inception_7a/3x3 -> inception_7a/3x3
I0114 19:24:28.923354 78487 net.cpp:144] Setting up inception_7a/3x3
I0114 19:24:28.923362 78487 net.cpp:151] Top shape: 50 80 16 16 (1024000)
I0114 19:24:28.923365 78487 net.cpp:159] Memory required for data: 431514600
I0114 19:24:28.923380 78487 layer_factory.hpp:77] Creating layer inception_7a/3x3/bn1
I0114 19:24:28.923389 78487 net.cpp:94] Creating Layer inception_7a/3x3/bn1
I0114 19:24:28.923393 78487 net.cpp:435] inception_7a/3x3/bn1 <- inception_7a/3x3
I0114 19:24:28.923399 78487 net.cpp:396] inception_7a/3x3/bn1 -> inception_7a/3x3 (in-place)
I0114 19:24:28.924031 78487 net.cpp:144] Setting up inception_7a/3x3/bn1
I0114 19:24:28.924037 78487 net.cpp:151] Top shape: 50 80 16 16 (1024000)
I0114 19:24:28.924039 78487 net.cpp:159] Memory required for data: 435610600
I0114 19:24:28.924047 78487 layer_factory.hpp:77] Creating layer inception_7a/3x3/relu1
I0114 19:24:28.924055 78487 net.cpp:94] Creating Layer inception_7a/3x3/relu1
I0114 19:24:28.924058 78487 net.cpp:435] inception_7a/3x3/relu1 <- inception_7a/3x3
I0114 19:24:28.924062 78487 net.cpp:396] inception_7a/3x3/relu1 -> inception_7a/3x3 (in-place)
I0114 19:24:28.924068 78487 net.cpp:144] Setting up inception_7a/3x3/relu1
I0114 19:24:28.924072 78487 net.cpp:151] Top shape: 50 80 16 16 (1024000)
I0114 19:24:28.924075 78487 net.cpp:159] Memory required for data: 439706600
I0114 19:24:28.924078 78487 layer_factory.hpp:77] Creating layer inception_7a/output
I0114 19:24:28.924083 78487 net.cpp:94] Creating Layer inception_7a/output
I0114 19:24:28.924087 78487 net.cpp:435] inception_7a/output <- inception_7a/1x1
I0114 19:24:28.924090 78487 net.cpp:435] inception_7a/output <- inception_7a/3x3
I0114 19:24:28.924094 78487 net.cpp:409] inception_7a/output -> inception_7a/output
I0114 19:24:28.924111 78487 net.cpp:144] Setting up inception_7a/output
I0114 19:24:28.924118 78487 net.cpp:151] Top shape: 50 160 16 16 (2048000)
I0114 19:24:28.924119 78487 net.cpp:159] Memory required for data: 447898600
I0114 19:24:28.924123 78487 layer_factory.hpp:77] Creating layer inception_7a/output_inception_7a/output_0_split
I0114 19:24:28.924127 78487 net.cpp:94] Creating Layer inception_7a/output_inception_7a/output_0_split
I0114 19:24:28.924131 78487 net.cpp:435] inception_7a/output_inception_7a/output_0_split <- inception_7a/output
I0114 19:24:28.924136 78487 net.cpp:409] inception_7a/output_inception_7a/output_0_split -> inception_7a/output_inception_7a/output_0_split_0
I0114 19:24:28.924141 78487 net.cpp:409] inception_7a/output_inception_7a/output_0_split -> inception_7a/output_inception_7a/output_0_split_1
I0114 19:24:28.924170 78487 net.cpp:144] Setting up inception_7a/output_inception_7a/output_0_split
I0114 19:24:28.924175 78487 net.cpp:151] Top shape: 50 160 16 16 (2048000)
I0114 19:24:28.924178 78487 net.cpp:151] Top shape: 50 160 16 16 (2048000)
I0114 19:24:28.924185 78487 net.cpp:159] Memory required for data: 464282600
I0114 19:24:28.924188 78487 layer_factory.hpp:77] Creating layer inception_8a/1x1
I0114 19:24:28.924196 78487 net.cpp:94] Creating Layer inception_8a/1x1
I0114 19:24:28.924201 78487 net.cpp:435] inception_8a/1x1 <- inception_7a/output_inception_7a/output_0_split_0
I0114 19:24:28.924206 78487 net.cpp:409] inception_8a/1x1 -> inception_8a/1x1
I0114 19:24:28.924459 78487 net.cpp:144] Setting up inception_8a/1x1
I0114 19:24:28.924466 78487 net.cpp:151] Top shape: 50 48 16 16 (614400)
I0114 19:24:28.924469 78487 net.cpp:159] Memory required for data: 466740200
I0114 19:24:28.924474 78487 layer_factory.hpp:77] Creating layer inception_8a/1x1/bn1
I0114 19:24:28.924479 78487 net.cpp:94] Creating Layer inception_8a/1x1/bn1
I0114 19:24:28.924484 78487 net.cpp:435] inception_8a/1x1/bn1 <- inception_8a/1x1
I0114 19:24:28.924489 78487 net.cpp:396] inception_8a/1x1/bn1 -> inception_8a/1x1 (in-place)
I0114 19:24:28.925108 78487 net.cpp:144] Setting up inception_8a/1x1/bn1
I0114 19:24:28.925115 78487 net.cpp:151] Top shape: 50 48 16 16 (614400)
I0114 19:24:28.925118 78487 net.cpp:159] Memory required for data: 469197800
I0114 19:24:28.925127 78487 layer_factory.hpp:77] Creating layer inception_8a/1x1/relu1
I0114 19:24:28.925130 78487 net.cpp:94] Creating Layer inception_8a/1x1/relu1
I0114 19:24:28.925133 78487 net.cpp:435] inception_8a/1x1/relu1 <- inception_8a/1x1
I0114 19:24:28.925148 78487 net.cpp:396] inception_8a/1x1/relu1 -> inception_8a/1x1 (in-place)
I0114 19:24:28.925154 78487 net.cpp:144] Setting up inception_8a/1x1/relu1
I0114 19:24:28.925158 78487 net.cpp:151] Top shape: 50 48 16 16 (614400)
I0114 19:24:28.925160 78487 net.cpp:159] Memory required for data: 471655400
I0114 19:24:28.925163 78487 layer_factory.hpp:77] Creating layer inception_8a/3x3
I0114 19:24:28.925171 78487 net.cpp:94] Creating Layer inception_8a/3x3
I0114 19:24:28.925174 78487 net.cpp:435] inception_8a/3x3 <- inception_7a/output_inception_7a/output_0_split_1
I0114 19:24:28.925179 78487 net.cpp:409] inception_8a/3x3 -> inception_8a/3x3
I0114 19:24:28.926770 78487 net.cpp:144] Setting up inception_8a/3x3
I0114 19:24:28.926784 78487 net.cpp:151] Top shape: 50 96 16 16 (1228800)
I0114 19:24:28.926786 78487 net.cpp:159] Memory required for data: 476570600
I0114 19:24:28.926791 78487 layer_factory.hpp:77] Creating layer inception_8a/3x3/bn1
I0114 19:24:28.926800 78487 net.cpp:94] Creating Layer inception_8a/3x3/bn1
I0114 19:24:28.926805 78487 net.cpp:435] inception_8a/3x3/bn1 <- inception_8a/3x3
I0114 19:24:28.926811 78487 net.cpp:396] inception_8a/3x3/bn1 -> inception_8a/3x3 (in-place)
I0114 19:24:28.927448 78487 net.cpp:144] Setting up inception_8a/3x3/bn1
I0114 19:24:28.927455 78487 net.cpp:151] Top shape: 50 96 16 16 (1228800)
I0114 19:24:28.927459 78487 net.cpp:159] Memory required for data: 481485800
I0114 19:24:28.927465 78487 layer_factory.hpp:77] Creating layer inception_8a/3x3/relu1
I0114 19:24:28.927474 78487 net.cpp:94] Creating Layer inception_8a/3x3/relu1
I0114 19:24:28.927477 78487 net.cpp:435] inception_8a/3x3/relu1 <- inception_8a/3x3
I0114 19:24:28.927481 78487 net.cpp:396] inception_8a/3x3/relu1 -> inception_8a/3x3 (in-place)
I0114 19:24:28.927487 78487 net.cpp:144] Setting up inception_8a/3x3/relu1
I0114 19:24:28.927491 78487 net.cpp:151] Top shape: 50 96 16 16 (1228800)
I0114 19:24:28.927495 78487 net.cpp:159] Memory required for data: 486401000
I0114 19:24:28.927497 78487 layer_factory.hpp:77] Creating layer inception_8a/output
I0114 19:24:28.927501 78487 net.cpp:94] Creating Layer inception_8a/output
I0114 19:24:28.927505 78487 net.cpp:435] inception_8a/output <- inception_8a/1x1
I0114 19:24:28.927508 78487 net.cpp:435] inception_8a/output <- inception_8a/3x3
I0114 19:24:28.927512 78487 net.cpp:409] inception_8a/output -> inception_8a/output
I0114 19:24:28.927531 78487 net.cpp:144] Setting up inception_8a/output
I0114 19:24:28.927536 78487 net.cpp:151] Top shape: 50 144 16 16 (1843200)
I0114 19:24:28.927538 78487 net.cpp:159] Memory required for data: 493773800
I0114 19:24:28.927541 78487 layer_factory.hpp:77] Creating layer inception_8a/output_inception_8a/output_0_split
I0114 19:24:28.927546 78487 net.cpp:94] Creating Layer inception_8a/output_inception_8a/output_0_split
I0114 19:24:28.927549 78487 net.cpp:435] inception_8a/output_inception_8a/output_0_split <- inception_8a/output
I0114 19:24:28.927554 78487 net.cpp:409] inception_8a/output_inception_8a/output_0_split -> inception_8a/output_inception_8a/output_0_split_0
I0114 19:24:28.927561 78487 net.cpp:409] inception_8a/output_inception_8a/output_0_split -> inception_8a/output_inception_8a/output_0_split_1
I0114 19:24:28.927585 78487 net.cpp:144] Setting up inception_8a/output_inception_8a/output_0_split
I0114 19:24:28.927592 78487 net.cpp:151] Top shape: 50 144 16 16 (1843200)
I0114 19:24:28.927595 78487 net.cpp:151] Top shape: 50 144 16 16 (1843200)
I0114 19:24:28.927597 78487 net.cpp:159] Memory required for data: 508519400
I0114 19:24:28.927600 78487 layer_factory.hpp:77] Creating layer downsample_9/3x3_s2
I0114 19:24:28.927608 78487 net.cpp:94] Creating Layer downsample_9/3x3_s2
I0114 19:24:28.927613 78487 net.cpp:435] downsample_9/3x3_s2 <- inception_8a/output_inception_8a/output_0_split_0
I0114 19:24:28.927618 78487 net.cpp:409] downsample_9/3x3_s2 -> downsample_9/3x3_s2
I0114 19:24:28.929160 78487 net.cpp:144] Setting up downsample_9/3x3_s2
I0114 19:24:28.929172 78487 net.cpp:151] Top shape: 50 96 8 8 (307200)
I0114 19:24:28.929177 78487 net.cpp:159] Memory required for data: 509748200
I0114 19:24:28.929193 78487 layer_factory.hpp:77] Creating layer downsample_9/3x3_s2/bn1
I0114 19:24:28.929200 78487 net.cpp:94] Creating Layer downsample_9/3x3_s2/bn1
I0114 19:24:28.929205 78487 net.cpp:435] downsample_9/3x3_s2/bn1 <- downsample_9/3x3_s2
I0114 19:24:28.929213 78487 net.cpp:396] downsample_9/3x3_s2/bn1 -> downsample_9/3x3_s2 (in-place)
I0114 19:24:28.929868 78487 net.cpp:144] Setting up downsample_9/3x3_s2/bn1
I0114 19:24:28.929875 78487 net.cpp:151] Top shape: 50 96 8 8 (307200)
I0114 19:24:28.929878 78487 net.cpp:159] Memory required for data: 510977000
I0114 19:24:28.929888 78487 layer_factory.hpp:77] Creating layer downsample_9/3x3_s2/relu1
I0114 19:24:28.929894 78487 net.cpp:94] Creating Layer downsample_9/3x3_s2/relu1
I0114 19:24:28.929898 78487 net.cpp:435] downsample_9/3x3_s2/relu1 <- downsample_9/3x3_s2
I0114 19:24:28.929903 78487 net.cpp:396] downsample_9/3x3_s2/relu1 -> downsample_9/3x3_s2 (in-place)
I0114 19:24:28.929909 78487 net.cpp:144] Setting up downsample_9/3x3_s2/relu1
I0114 19:24:28.929913 78487 net.cpp:151] Top shape: 50 96 8 8 (307200)
I0114 19:24:28.929915 78487 net.cpp:159] Memory required for data: 512205800
I0114 19:24:28.929919 78487 layer_factory.hpp:77] Creating layer downsample_9/pool_s2
I0114 19:24:28.929924 78487 net.cpp:94] Creating Layer downsample_9/pool_s2
I0114 19:24:28.929927 78487 net.cpp:435] downsample_9/pool_s2 <- inception_8a/output_inception_8a/output_0_split_1
I0114 19:24:28.929932 78487 net.cpp:409] downsample_9/pool_s2 -> downsample_9/pool_s2
I0114 19:24:28.929960 78487 net.cpp:144] Setting up downsample_9/pool_s2
I0114 19:24:28.929966 78487 net.cpp:151] Top shape: 50 144 8 8 (460800)
I0114 19:24:28.929970 78487 net.cpp:159] Memory required for data: 514049000
I0114 19:24:28.929971 78487 layer_factory.hpp:77] Creating layer downsample_9/output
I0114 19:24:28.929978 78487 net.cpp:94] Creating Layer downsample_9/output
I0114 19:24:28.929983 78487 net.cpp:435] downsample_9/output <- downsample_9/3x3_s2
I0114 19:24:28.929987 78487 net.cpp:435] downsample_9/output <- downsample_9/pool_s2
I0114 19:24:28.929992 78487 net.cpp:409] downsample_9/output -> downsample_9/output
I0114 19:24:28.930008 78487 net.cpp:144] Setting up downsample_9/output
I0114 19:24:28.930014 78487 net.cpp:151] Top shape: 50 240 8 8 (768000)
I0114 19:24:28.930016 78487 net.cpp:159] Memory required for data: 517121000
I0114 19:24:28.930019 78487 layer_factory.hpp:77] Creating layer downsample_9/output_downsample_9/output_0_split
I0114 19:24:28.930024 78487 net.cpp:94] Creating Layer downsample_9/output_downsample_9/output_0_split
I0114 19:24:28.930028 78487 net.cpp:435] downsample_9/output_downsample_9/output_0_split <- downsample_9/output
I0114 19:24:28.930033 78487 net.cpp:409] downsample_9/output_downsample_9/output_0_split -> downsample_9/output_downsample_9/output_0_split_0
I0114 19:24:28.930039 78487 net.cpp:409] downsample_9/output_downsample_9/output_0_split -> downsample_9/output_downsample_9/output_0_split_1
I0114 19:24:28.930064 78487 net.cpp:144] Setting up downsample_9/output_downsample_9/output_0_split
I0114 19:24:28.930070 78487 net.cpp:151] Top shape: 50 240 8 8 (768000)
I0114 19:24:28.930074 78487 net.cpp:151] Top shape: 50 240 8 8 (768000)
I0114 19:24:28.930078 78487 net.cpp:159] Memory required for data: 523265000
I0114 19:24:28.930079 78487 layer_factory.hpp:77] Creating layer inception_10a/1x1
I0114 19:24:28.930088 78487 net.cpp:94] Creating Layer inception_10a/1x1
I0114 19:24:28.930092 78487 net.cpp:435] inception_10a/1x1 <- downsample_9/output_downsample_9/output_0_split_0
I0114 19:24:28.930097 78487 net.cpp:409] inception_10a/1x1 -> inception_10a/1x1
I0114 19:24:28.930549 78487 net.cpp:144] Setting up inception_10a/1x1
I0114 19:24:28.930557 78487 net.cpp:151] Top shape: 50 176 8 8 (563200)
I0114 19:24:28.930559 78487 net.cpp:159] Memory required for data: 525517800
I0114 19:24:28.930565 78487 layer_factory.hpp:77] Creating layer inception_10a/1x1/bn1
I0114 19:24:28.930572 78487 net.cpp:94] Creating Layer inception_10a/1x1/bn1
I0114 19:24:28.930584 78487 net.cpp:435] inception_10a/1x1/bn1 <- inception_10a/1x1
I0114 19:24:28.930589 78487 net.cpp:396] inception_10a/1x1/bn1 -> inception_10a/1x1 (in-place)
I0114 19:24:28.931231 78487 net.cpp:144] Setting up inception_10a/1x1/bn1
I0114 19:24:28.931237 78487 net.cpp:151] Top shape: 50 176 8 8 (563200)
I0114 19:24:28.931241 78487 net.cpp:159] Memory required for data: 527770600
I0114 19:24:28.931248 78487 layer_factory.hpp:77] Creating layer inception_10a/1x1/relu1
I0114 19:24:28.931253 78487 net.cpp:94] Creating Layer inception_10a/1x1/relu1
I0114 19:24:28.931257 78487 net.cpp:435] inception_10a/1x1/relu1 <- inception_10a/1x1
I0114 19:24:28.931262 78487 net.cpp:396] inception_10a/1x1/relu1 -> inception_10a/1x1 (in-place)
I0114 19:24:28.931267 78487 net.cpp:144] Setting up inception_10a/1x1/relu1
I0114 19:24:28.931274 78487 net.cpp:151] Top shape: 50 176 8 8 (563200)
I0114 19:24:28.931277 78487 net.cpp:159] Memory required for data: 530023400
I0114 19:24:28.931280 78487 layer_factory.hpp:77] Creating layer inception_10a/3x3
I0114 19:24:28.931288 78487 net.cpp:94] Creating Layer inception_10a/3x3
I0114 19:24:28.931293 78487 net.cpp:435] inception_10a/3x3 <- downsample_9/output_downsample_9/output_0_split_1
I0114 19:24:28.931298 78487 net.cpp:409] inception_10a/3x3 -> inception_10a/3x3
I0114 19:24:28.933897 78487 net.cpp:144] Setting up inception_10a/3x3
I0114 19:24:28.933907 78487 net.cpp:151] Top shape: 50 160 8 8 (512000)
I0114 19:24:28.933910 78487 net.cpp:159] Memory required for data: 532071400
I0114 19:24:28.933915 78487 layer_factory.hpp:77] Creating layer inception_10a/3x3/bn1
I0114 19:24:28.933923 78487 net.cpp:94] Creating Layer inception_10a/3x3/bn1
I0114 19:24:28.933926 78487 net.cpp:435] inception_10a/3x3/bn1 <- inception_10a/3x3
I0114 19:24:28.933931 78487 net.cpp:396] inception_10a/3x3/bn1 -> inception_10a/3x3 (in-place)
I0114 19:24:28.934553 78487 net.cpp:144] Setting up inception_10a/3x3/bn1
I0114 19:24:28.934561 78487 net.cpp:151] Top shape: 50 160 8 8 (512000)
I0114 19:24:28.934563 78487 net.cpp:159] Memory required for data: 534119400
I0114 19:24:28.934571 78487 layer_factory.hpp:77] Creating layer inception_10a/3x3/relu1
I0114 19:24:28.934576 78487 net.cpp:94] Creating Layer inception_10a/3x3/relu1
I0114 19:24:28.934581 78487 net.cpp:435] inception_10a/3x3/relu1 <- inception_10a/3x3
I0114 19:24:28.934584 78487 net.cpp:396] inception_10a/3x3/relu1 -> inception_10a/3x3 (in-place)
I0114 19:24:28.934590 78487 net.cpp:144] Setting up inception_10a/3x3/relu1
I0114 19:24:28.934594 78487 net.cpp:151] Top shape: 50 160 8 8 (512000)
I0114 19:24:28.934597 78487 net.cpp:159] Memory required for data: 536167400
I0114 19:24:28.934599 78487 layer_factory.hpp:77] Creating layer inception_10a/output
I0114 19:24:28.934604 78487 net.cpp:94] Creating Layer inception_10a/output
I0114 19:24:28.934607 78487 net.cpp:435] inception_10a/output <- inception_10a/1x1
I0114 19:24:28.934612 78487 net.cpp:435] inception_10a/output <- inception_10a/3x3
I0114 19:24:28.934615 78487 net.cpp:409] inception_10a/output -> inception_10a/output
I0114 19:24:28.934633 78487 net.cpp:144] Setting up inception_10a/output
I0114 19:24:28.934638 78487 net.cpp:151] Top shape: 50 336 8 8 (1075200)
I0114 19:24:28.934641 78487 net.cpp:159] Memory required for data: 540468200
I0114 19:24:28.934644 78487 layer_factory.hpp:77] Creating layer inception_10a/output_inception_10a/output_0_split
I0114 19:24:28.934648 78487 net.cpp:94] Creating Layer inception_10a/output_inception_10a/output_0_split
I0114 19:24:28.934651 78487 net.cpp:435] inception_10a/output_inception_10a/output_0_split <- inception_10a/output
I0114 19:24:28.934656 78487 net.cpp:409] inception_10a/output_inception_10a/output_0_split -> inception_10a/output_inception_10a/output_0_split_0
I0114 19:24:28.934661 78487 net.cpp:409] inception_10a/output_inception_10a/output_0_split -> inception_10a/output_inception_10a/output_0_split_1
I0114 19:24:28.934686 78487 net.cpp:144] Setting up inception_10a/output_inception_10a/output_0_split
I0114 19:24:28.934691 78487 net.cpp:151] Top shape: 50 336 8 8 (1075200)
I0114 19:24:28.934705 78487 net.cpp:151] Top shape: 50 336 8 8 (1075200)
I0114 19:24:28.934707 78487 net.cpp:159] Memory required for data: 549069800
I0114 19:24:28.934711 78487 layer_factory.hpp:77] Creating layer inception_11a/1x1
I0114 19:24:28.934718 78487 net.cpp:94] Creating Layer inception_11a/1x1
I0114 19:24:28.934723 78487 net.cpp:435] inception_11a/1x1 <- inception_10a/output_inception_10a/output_0_split_0
I0114 19:24:28.934728 78487 net.cpp:409] inception_11a/1x1 -> inception_11a/1x1
I0114 19:24:28.935262 78487 net.cpp:144] Setting up inception_11a/1x1
I0114 19:24:28.935269 78487 net.cpp:151] Top shape: 50 176 8 8 (563200)
I0114 19:24:28.935272 78487 net.cpp:159] Memory required for data: 551322600
I0114 19:24:28.935277 78487 layer_factory.hpp:77] Creating layer inception_11a/1x1/bn1
I0114 19:24:28.935284 78487 net.cpp:94] Creating Layer inception_11a/1x1/bn1
I0114 19:24:28.935287 78487 net.cpp:435] inception_11a/1x1/bn1 <- inception_11a/1x1
I0114 19:24:28.935292 78487 net.cpp:396] inception_11a/1x1/bn1 -> inception_11a/1x1 (in-place)
I0114 19:24:28.935925 78487 net.cpp:144] Setting up inception_11a/1x1/bn1
I0114 19:24:28.935932 78487 net.cpp:151] Top shape: 50 176 8 8 (563200)
I0114 19:24:28.935935 78487 net.cpp:159] Memory required for data: 553575400
I0114 19:24:28.935943 78487 layer_factory.hpp:77] Creating layer inception_11a/1x1/relu1
I0114 19:24:28.935950 78487 net.cpp:94] Creating Layer inception_11a/1x1/relu1
I0114 19:24:28.935953 78487 net.cpp:435] inception_11a/1x1/relu1 <- inception_11a/1x1
I0114 19:24:28.935958 78487 net.cpp:396] inception_11a/1x1/relu1 -> inception_11a/1x1 (in-place)
I0114 19:24:28.935964 78487 net.cpp:144] Setting up inception_11a/1x1/relu1
I0114 19:24:28.935967 78487 net.cpp:151] Top shape: 50 176 8 8 (563200)
I0114 19:24:28.935971 78487 net.cpp:159] Memory required for data: 555828200
I0114 19:24:28.935973 78487 layer_factory.hpp:77] Creating layer inception_11a/3x3
I0114 19:24:28.935981 78487 net.cpp:94] Creating Layer inception_11a/3x3
I0114 19:24:28.935986 78487 net.cpp:435] inception_11a/3x3 <- inception_10a/output_inception_10a/output_0_split_1
I0114 19:24:28.935991 78487 net.cpp:409] inception_11a/3x3 -> inception_11a/3x3
I0114 19:24:28.939723 78487 net.cpp:144] Setting up inception_11a/3x3
I0114 19:24:28.939738 78487 net.cpp:151] Top shape: 50 160 8 8 (512000)
I0114 19:24:28.939740 78487 net.cpp:159] Memory required for data: 557876200
I0114 19:24:28.939746 78487 layer_factory.hpp:77] Creating layer inception_11a/3x3/bn1
I0114 19:24:28.939754 78487 net.cpp:94] Creating Layer inception_11a/3x3/bn1
I0114 19:24:28.939761 78487 net.cpp:435] inception_11a/3x3/bn1 <- inception_11a/3x3
I0114 19:24:28.939767 78487 net.cpp:396] inception_11a/3x3/bn1 -> inception_11a/3x3 (in-place)
I0114 19:24:28.940408 78487 net.cpp:144] Setting up inception_11a/3x3/bn1
I0114 19:24:28.940415 78487 net.cpp:151] Top shape: 50 160 8 8 (512000)
I0114 19:24:28.940419 78487 net.cpp:159] Memory required for data: 559924200
I0114 19:24:28.940431 78487 layer_factory.hpp:77] Creating layer inception_11a/3x3/relu1
I0114 19:24:28.940438 78487 net.cpp:94] Creating Layer inception_11a/3x3/relu1
I0114 19:24:28.940441 78487 net.cpp:435] inception_11a/3x3/relu1 <- inception_11a/3x3
I0114 19:24:28.940448 78487 net.cpp:396] inception_11a/3x3/relu1 -> inception_11a/3x3 (in-place)
I0114 19:24:28.940454 78487 net.cpp:144] Setting up inception_11a/3x3/relu1
I0114 19:24:28.940459 78487 net.cpp:151] Top shape: 50 160 8 8 (512000)
I0114 19:24:28.940460 78487 net.cpp:159] Memory required for data: 561972200
I0114 19:24:28.940464 78487 layer_factory.hpp:77] Creating layer inception_11a/output
I0114 19:24:28.940469 78487 net.cpp:94] Creating Layer inception_11a/output
I0114 19:24:28.940471 78487 net.cpp:435] inception_11a/output <- inception_11a/1x1
I0114 19:24:28.940474 78487 net.cpp:435] inception_11a/output <- inception_11a/3x3
I0114 19:24:28.940479 78487 net.cpp:409] inception_11a/output -> inception_11a/output
I0114 19:24:28.940497 78487 net.cpp:144] Setting up inception_11a/output
I0114 19:24:28.940512 78487 net.cpp:151] Top shape: 50 336 8 8 (1075200)
I0114 19:24:28.940515 78487 net.cpp:159] Memory required for data: 566273000
I0114 19:24:28.940518 78487 layer_factory.hpp:77] Creating layer avg_pool_12/8x8_s1
I0114 19:24:28.940523 78487 net.cpp:94] Creating Layer avg_pool_12/8x8_s1
I0114 19:24:28.940526 78487 net.cpp:435] avg_pool_12/8x8_s1 <- inception_11a/output
I0114 19:24:28.940531 78487 net.cpp:409] avg_pool_12/8x8_s1 -> avg_pool_12/8x8_s1
I0114 19:24:28.940551 78487 net.cpp:144] Setting up avg_pool_12/8x8_s1
I0114 19:24:28.940557 78487 net.cpp:151] Top shape: 50 336 1 1 (16800)
I0114 19:24:28.940558 78487 net.cpp:159] Memory required for data: 566340200
I0114 19:24:28.940562 78487 layer_factory.hpp:77] Creating layer drop_8x8_s1
I0114 19:24:28.940567 78487 net.cpp:94] Creating Layer drop_8x8_s1
I0114 19:24:28.940570 78487 net.cpp:435] drop_8x8_s1 <- avg_pool_12/8x8_s1
I0114 19:24:28.940574 78487 net.cpp:396] drop_8x8_s1 -> avg_pool_12/8x8_s1 (in-place)
I0114 19:24:28.940590 78487 net.cpp:144] Setting up drop_8x8_s1
I0114 19:24:28.940595 78487 net.cpp:151] Top shape: 50 336 1 1 (16800)
I0114 19:24:28.940599 78487 net.cpp:159] Memory required for data: 566407400
I0114 19:24:28.940601 78487 layer_factory.hpp:77] Creating layer loss/classifier
I0114 19:24:28.940608 78487 net.cpp:94] Creating Layer loss/classifier
I0114 19:24:28.940610 78487 net.cpp:435] loss/classifier <- avg_pool_12/8x8_s1
I0114 19:24:28.940615 78487 net.cpp:409] loss/classifier -> loss/classifier
I0114 19:24:28.940749 78487 net.cpp:144] Setting up loss/classifier
I0114 19:24:28.940755 78487 net.cpp:151] Top shape: 50 10 (500)
I0114 19:24:28.940758 78487 net.cpp:159] Memory required for data: 566409400
I0114 19:24:28.940762 78487 layer_factory.hpp:77] Creating layer loss/classifier_loss/classifier_0_split
I0114 19:24:28.940768 78487 net.cpp:94] Creating Layer loss/classifier_loss/classifier_0_split
I0114 19:24:28.940770 78487 net.cpp:435] loss/classifier_loss/classifier_0_split <- loss/classifier
I0114 19:24:28.940776 78487 net.cpp:409] loss/classifier_loss/classifier_0_split -> loss/classifier_loss/classifier_0_split_0
I0114 19:24:28.940783 78487 net.cpp:409] loss/classifier_loss/classifier_0_split -> loss/classifier_loss/classifier_0_split_1
I0114 19:24:28.940789 78487 net.cpp:409] loss/classifier_loss/classifier_0_split -> loss/classifier_loss/classifier_0_split_2
I0114 19:24:28.940794 78487 net.cpp:409] loss/classifier_loss/classifier_0_split -> loss/classifier_loss/classifier_0_split_3
I0114 19:24:28.940840 78487 net.cpp:144] Setting up loss/classifier_loss/classifier_0_split
I0114 19:24:28.940845 78487 net.cpp:151] Top shape: 50 10 (500)
I0114 19:24:28.940848 78487 net.cpp:151] Top shape: 50 10 (500)
I0114 19:24:28.940851 78487 net.cpp:151] Top shape: 50 10 (500)
I0114 19:24:28.940855 78487 net.cpp:151] Top shape: 50 10 (500)
I0114 19:24:28.940857 78487 net.cpp:159] Memory required for data: 566417400
I0114 19:24:28.940860 78487 layer_factory.hpp:77] Creating layer loss
I0114 19:24:28.940865 78487 net.cpp:94] Creating Layer loss
I0114 19:24:28.940867 78487 net.cpp:435] loss <- loss/classifier_loss/classifier_0_split_0
I0114 19:24:28.940871 78487 net.cpp:435] loss <- label_data_1_split_0
I0114 19:24:28.940876 78487 net.cpp:409] loss -> loss
…
I0114 19:24:31.688231 78654 net.cpp:323] The NetState phase (0) differed from the phase (1) specified by a rule in layer accuracy-top5
I0114 19:24:31.688825 78654 net.cpp:52] Initializing net from parameters: 
state {
  phase: TRAIN
}
layer {
  name: "data"
  type: "Data"
  top: "data"
  top: "label"
  include {
    phase: TRAIN
  }
  transform_param {
    mirror: true
    mean_value: 104
    mean_value: 117
    mean_value: 123
  }
  data_param {
    source: "/home/ML/cifar10/input/lmdb/train_lmdb"
    batch_size: 128
    backend: LMDB
  }
}
layer {
  name: "conv1/3x3_s1"
  type: "Convolution"
  bottom: "data"
  top: "conv1/3x3_s1"
  param {
    lr_mult: 1
    decay_mult: 1
    compression: PRUNE
  }
  param {
    lr_mult: 2
    decay_mult: 0
    compression: PRUNE
  }
  convolution_param {
    num_output: 96
    pad: 1
    kernel_size: 3
    stride: 1
    weight_filler {
      type: "xavier"
      std: 0.1
    }
    bias_filler {
      type: "constant"
      value: 0.2
    }
  }
}
layer {
  name: "conv1/bn1"
  type: "BatchNorm"
  bottom: "conv1/3x3_s1"
  top: "conv1/3x3_s1"
  param {
    lr_mult: 1
    decay_mult: 0
    compression: PRUNE
  }
  param {
    lr_mult: 1
    decay_mult: 0
    compression: PRUNE
  }
  param {
    lr_mult: 0
    decay_mult: 0
    compression: PRUNE
  }
  param {
    lr_mult: 0
    decay_mult: 0
    compression: PRUNE
  }
  batch_norm_param {
    use_global_stats: false
    scale_filler {
      type: "constant"
      value: 1
    }
    bias_filler {
      type: "constant"
      value: 0
    }
  }
}
layer {
  name: "conv1/relu1"
  type: "ReLU"
  bottom: "conv1/3x3_s1"
  top: "conv1/3x3_s1"
}
layer {
  name: "inception_2a/1x1"
  type: "Convolution"
  bottom: "conv1/3x3_s1"
  top: "inception_2a/1x1"
  param {
    lr_mult: 1
    decay_mult: 1
    compression: PRUNE
  }
  param {
    lr_mult: 2
    decay_mult: 0
    compression: PRUNE
  }
  convolution_param {
    num_output: 32
    kernel_size: 1
    weight_filler {
      type: "xavier"
      std: 0.03
    }
    bias_filler {
      type: "constant"
      value: 0.2
    }
  }
}
layer {
  name: "inception_2a/1x1/bn1"
  type: "BatchNorm"
  bottom: "inception_2a/1x1"
  top: "inception_2a/1x1"
  param {
    lr_mult: 1
    decay_mult: 0
    compression: PRUNE
  }
  param {
    lr_mult: 1
    decay_mult: 0
    compression: PRUNE
  }
  param {
    lr_mult: 0
    decay_mult: 0
    compression: PRUNE
  }
  param {
    lr_mult: 0
    decay_mult: 0
    compression: PRUNE
  }
  batch_norm_param {
    use_global_stats: false
    scale_filler {
      type: "constant"
      value: 1
    }
    bias_filler {
      type: "constant"
      value: 0
    }
  }
}
layer {
  name: "inception_2a/1x1/relu1"
  type: "ReLU"
  bottom: "inception_2a/1x1"
  top: "inception_2a/1x1"
}
layer {
  name: "inception_2a/3x3"
  type: "Convolution"
  bottom: "conv1/3x3_s1"
  top: "inception_2a/3x3"
  param {
    lr_mult: 1
    decay_mult: 1
    compression: PRUNE
  }
  param {
    lr_mult: 2
    decay_mult: 0
    compression: PRUNE
  }
  convolution_param {
    num_output: 32
    pad: 1
    kernel_size: 3
    weight_filler {
      type: "xavier"
      std: 0.03
    }
    bias_filler {
      type: "constant"
      value: 0.2
    }
  }
}
layer {
  name: "inception_2a/3x3/bn1"
  type: "BatchNorm"
  bottom: "inception_2a/3x3"
  top: "inception_2a/3x3"
  param {
    lr_mult: 1
    decay_mult: 0
    compression: PRUNE
  }
  param {
    lr_mult: 1
    decay_mult: 0
    compression: PRUNE
  }
  param {
    lr_mult: 0
    decay_mult: 0
    compression: PRUNE
  }
  param {
    lr_mult: 0
    decay_mult: 0
    compression: PRUNE
  }
  batch_norm_param {
    use_global_stats: false
    scale_filler {
      type: "constant"
      value: 1
    }
    bias_filler {
      type: "constant"
      value: 0
    }
  }
}
layer {
  name: "inception_2a/3x3/relu1"
  type: "ReLU"
  bottom: "inception_2a/3x3"
  top: "inception_2a/3x3"
}
layer {
  name: "inception_2a/output"
  type: "Concat"
  bottom: "inception_2a/1x1"
  bottom: "inception_2a/3x3"
  top: "inception_2a/output"
}
layer {
  name: "inception_3a/1x1"
  type: "Convolution"
  bottom: "inception_2a/output"
  top: "inception_3a/1x1"
  param {
    lr_mult: 1
    decay_mult: 1
    compression: PRUNE
  }
  param {
    lr_mult: 2
    decay_mult: 0
    compression: PRUNE
  }
  convolution_param {
    num_output: 32
    kernel_size: 1
    weight_filler {
      type: "xavier"
      std: 0.03
    }
    bias_filler {
      type: "constant"
      value: 0.2
    }
  }
}
layer {
  name: "inception_3a/1x1/bn1"
  type: "BatchNorm"
  bottom: "inception_3a/1x1"
  top: "inception_3a/1x1"
  param {
    lr_mult: 1
    decay_mult: 0
    compression: PRUNE
  }
  param {
    lr_mult: 1
    decay_mult: 0
    compression: PRUNE
  }
  param {
    lr_mult: 0
    decay_mult: 0
    compression: PRUNE
  }
  param {
    lr_mult: 0
    decay_mult: 0
    compression: PRUNE
  }
  batch_norm_param {
    use_global_stats: false
    scale_filler {
      type: "constant"
      value: 1
    }
    bias_filler {
      type: "constant"
      value: 0
    }
  }
}
layer {
  name: "inception_3a/1x1/relu1"
  type: "ReLU"
  bottom: "inception_3a/1x1"
  top: "inception_3a/1x1"
}
layer {
  name: "inception_3a/3x3"
  type: "Convolution"
  bottom: "inception_2a/output"
  top: "inception_3a/3x3"
  param {
    lr_mult: 1
    decay_mult: 1
    compression: PRUNE
  }
  param {
    lr_mult: 2
    decay_mult: 0
    compression: PRUNE
  }
  convolution_param {
    num_output: 48
    pad: 1
    kernel_size: 3
    weight_filler {
      type: "xavier"
      std: 0.03
    }
    bias_filler {
      type: "constant"
      value: 0.2
    }
  }
}
layer {
  name: "inception_3a/3x3/bn1"
  type: "BatchNorm"
  bottom: "inception_3a/3x3"
  top: "inception_3a/3x3"
  param {
    lr_mult: 1
    decay_mult: 0
    compression: PRUNE
  }
  param {
    lr_mult: 1
    decay_mult: 0
    compression: PRUNE
  }
  param {
    lr_mult: 0
    decay_mult: 0
    compression: PRUNE
  }
  param {
    lr_mult: 0
    decay_mult: 0
    compression: PRUNE
  }
  batch_norm_param {
    use_global_stats: false
    scale_filler {
      type: "constant"
      value: 1
    }
    bias_filler {
      type: "constant"
      value: 0
    }
  }
}
layer {
  name: "inception_3a/3x3/relu1"
  type: "ReLU"
  bottom: "inception_3a/3x3"
  top: "inception_3a/3x3"
}
layer {
  name: "inception_3a/output"
  type: "Concat"
  bottom: "inception_3a/1x1"
  bottom: "inception_3a/3x3"
  top: "inception_3a/output"
}
layer {
  name: "downsample_4/3x3_s2"
  type: "Convolution"
  bottom: "inception_3a/output"
  top: "downsample_4/3x3_s2"
  param {
    lr_mult: 1
    decay_mult: 1
    compression: PRUNE
  }
  param {
    lr_mult: 2
    decay_mult: 0
    compression: PRUNE
  }
  convolution_param {
    num_output: 80
    pad: 1
    kernel_size: 3
    stride: 2
    weight_filler {
      type: "xavier"
      std: 0.03
    }
    bias_filler {
      type: "constant"
      value: 0.2
    }
  }
}
layer {
  name: "downsample_4/3x3_s2/bn1"
  type: "BatchNorm"
  bottom: "downsample_4/3x3_s2"
  top: "downsample_4/3x3_s2"
  param {
    lr_mult: 1
    decay_mult: 0
    compression: PRUNE
  }
  param {
    lr_mult: 1
    decay_mult: 0
    compression: PRUNE
  }
  param {
    lr_mult: 0
    decay_mult: 0
    compression: PRUNE
  }
  param {
    lr_mult: 0
    decay_mult: 0
    compression: PRUNE
  }
  batch_norm_param {
    use_global_stats: false
    scale_filler {
      type: "constant"
      value: 1
    }
    bias_filler {
      type: "constant"
      value: 0
    }
  }
}
layer {
  name: "downsample_4/3x3_s2/relu1"
  type: "ReLU"
  bottom: "downsample_4/3x3_s2"
  top: "downsample_4/3x3_s2"
}
layer {
  name: "downsample_4/pool_s2"
  type: "Pooling"
  bottom: "inception_3a/output"
  top: "downsample_4/pool_s2"
  pooling_param {
    pool: MAX
    kernel_size: 3
    stride: 2
  }
}
layer {
  name: "downsample_4/output"
  type: "Concat"
  bottom: "downsample_4/3x3_s2"
  bottom: "downsample_4/pool_s2"
  top: "downsample_4/output"
}
layer {
  name: "inception_5a/1x1"
  type: "Convolution"
  bottom: "downsample_4/output"
  top: "inception_5a/1x1"
  param {
    lr_mult: 1
    decay_mult: 1
    compression: PRUNE
  }
  param {
    lr_mult: 2
    decay_mult: 0
    compression: PRUNE
  }
  convolution_param {
    num_output: 112
    kernel_size: 1
    weight_filler {
      type: "xavier"
      std: 0.03
    }
    bias_filler {
      type: "constant"
      value: 0.2
    }
  }
}
layer {
  name: "inception_5a/1x1/bn1"
  type: "BatchNorm"
  bottom: "inception_5a/1x1"
  top: "inception_5a/1x1"
  param {
    lr_mult: 1
    decay_mult: 0
    compression: PRUNE
  }
  param {
    lr_mult: 1
    decay_mult: 0
    compression: PRUNE
  }
  param {
    lr_mult: 0
    decay_mult: 0
    compression: PRUNE
  }
  param {
    lr_mult: 0
    decay_mult: 0
    compression: PRUNE
  }
  batch_norm_param {
    use_global_stats: false
    scale_filler {
      type: "constant"
      value: 1
    }
    bias_filler {
      type: "constant"
      value: 0
    }
  }
}
layer {
  name: "inception_5a/1x1/relu1"
  type: "ReLU"
  bottom: "inception_5a/1x1"
  top: "inception_5a/1x1"
}
layer {
  name: "inception_5a/3x3"
  type: "Convolution"
  bottom: "downsample_4/output"
  top: "inception_5a/3x3"
  param {
    lr_mult: 1
    decay_mult: 1
    compression: PRUNE
  }
  param {
    lr_mult: 2
    decay_mult: 0
    compression: PRUNE
  }
  convolution_param {
    num_output: 48
    pad: 1
    kernel_size: 3
    weight_filler {
      type: "xavier"
      std: 0.03
    }
    bias_filler {
      type: "constant"
      value: 0.2
    }
  }
}
layer {
  name: "inception_5a/3x3/bn1"
  type: "BatchNorm"
  bottom: "inception_5a/3x3"
  top: "inception_5a/3x3"
  param {
    lr_mult: 1
    decay_mult: 0
    compression: PRUNE
  }
  param {
    lr_mult: 1
    decay_mult: 0
    compression: PRUNE
  }
  param {
    lr_mult: 0
    decay_mult: 0
    compression: PRUNE
  }
  param {
    lr_mult: 0
    decay_mult: 0
    compression: PRUNE
  }
  batch_norm_param {
    use_global_stats: false
    scale_filler {
      type: "constant"
      value: 1
    }
    bias_filler {
      type: "constant"
      value: 0
    }
  }
}
layer {
  name: "inception_5a/3x3/relu1"
  type: "ReLU"
  bottom: "inception_5a/3x3"
  top: "inception_5a/3x3"
}
layer {
  name: "inception_5a/output"
  type: "Concat"
  bottom: "inception_5a/1x1"
  bottom: "inception_5a/3x3"
  top: "inception_5a/output"
}
layer {
  name: "inception_6a/1x1"
  type: "Convolution"
  bottom: "inception_5a/output"
  top: "inception_6a/1x1"
  param {
    lr_mult: 1
    decay_mult: 1
    compression: PRUNE
  }
  param {
    lr_mult: 2
    decay_mult: 0
    compression: PRUNE
  }
  convolution_param {
    num_output: 96
    kernel_size: 1
    weight_filler {
      type: "xavier"
      std: 0.03
    }
    bias_filler {
      type: "constant"
      value: 0.2
    }
  }
}
layer {
  name: "inception_6a/1x1/bn1"
  type: "BatchNorm"
  bottom: "inception_6a/1x1"
  top: "inception_6a/1x1"
  param {
    lr_mult: 1
    decay_mult: 0
    compression: PRUNE
  }
  param {
    lr_mult: 1
    decay_mult: 0
    compression: PRUNE
  }
  param {
    lr_mult: 0
    decay_mult: 0
    compression: PRUNE
  }
  param {
    lr_mult: 0
    decay_mult: 0
    compression: PRUNE
  }
  batch_norm_param {
    use_global_stats: false
    scale_filler {
      type: "constant"
      value: 1
    }
    bias_filler {
      type: "constant"
      value: 0
    }
  }
}
layer {
  name: "inception_6a/1x1/relu1"
  type: "ReLU"
  bottom: "inception_6a/1x1"
  top: "inception_6a/1x1"
}
layer {
  name: "inception_6a/3x3"
  type: "Convolution"
  bottom: "inception_5a/output"
  top: "inception_6a/3x3"
  param {
    lr_mult: 1
    decay_mult: 1
    compression: PRUNE
  }
  param {
    lr_mult: 2
    decay_mult: 0
    compression: PRUNE
  }
  convolution_param {
    num_output: 64
    pad: 1
    kernel_size: 3
    weight_filler {
      type: "xavier"
      std: 0.03
    }
    bias_filler {
      type: "constant"
      value: 0.2
    }
  }
}
layer {
  name: "inception_6a/3x3/bn1"
  type: "BatchNorm"
  bottom: "inception_6a/3x3"
  top: "inception_6a/3x3"
  param {
    lr_mult: 1
    decay_mult: 0
    compression: PRUNE
  }
  param {
    lr_mult: 1
    decay_mult: 0
    compression: PRUNE
  }
  param {
    lr_mult: 0
    decay_mult: 0
    compression: PRUNE
  }
  param {
    lr_mult: 0
    decay_mult: 0
    compression: PRUNE
  }
  batch_norm_param {
    use_global_stats: false
    scale_filler {
      type: "constant"
      value: 1
    }
    bias_filler {
      type: "constant"
      value: 0
    }
  }
}
layer {
  name: "inception_6a/3x3/relu1"
  type: "ReLU"
  bottom: "inception_6a/3x3"
  top: "inception_6a/3x3"
}
layer {
  name: "inception_6a/output"
  type: "Concat"
  bottom: "inception_6a/1x1"
  bottom: "inception_6a/3x3"
  top: "inception_6a/output"
}
layer {
  name: "inception_7a/1x1"
  type: "Convolution"
  bottom: "inception_6a/output"
  top: "inception_7a/1x1"
  param {
    lr_mult: 1
    decay_mult: 1
    compression: PRUNE
  }
  param {
    lr_mult: 2
    decay_mult: 0
    compression: PRUNE
  }
  convolution_param {
    num_output: 80
    kernel_size: 1
    weight_filler {
      type: "xavier"
      std: 0.03
    }
    bias_filler {
      type: "constant"
      value: 0.2
    }
  }
}
layer {
  name: "inception_7a/1x1/bn1"
  type: "BatchNorm"
  bottom: "inception_7a/1x1"
  top: "inception_7a/1x1"
  param {
    lr_mult: 1
    decay_mult: 0
    compression: PRUNE
  }
  param {
    lr_mult: 1
    decay_mult: 0
    compression: PRUNE
  }
  param {
    lr_mult: 0
    decay_mult: 0
    compression: PRUNE
  }
  param {
    lr_mult: 0
    decay_mult: 0
    compression: PRUNE
  }
  batch_norm_param {
    use_global_stats: false
    scale_filler {
      type: "constant"
      value: 1
    }
    bias_filler {
      type: "constant"
      value: 0
    }
  }
}
layer {
  name: "inception_7a/1x1/relu1"
  type: "ReLU"
  bottom: "inception_7a/1x1"
  top: "inception_7a/1x1"
}
layer {
  name: "inception_7a/3x3"
  type: "Convolution"
  bottom: "inception_6a/output"
  top: "inception_7a/3x3"
  param {
    lr_mult: 1
    decay_mult: 1
    compression: PRUNE
  }
  param {
    lr_mult: 2
    decay_mult: 0
    compression: PRUNE
  }
  convolution_param {
    num_output: 80
    pad: 1
    kernel_size: 3
    weight_filler {
      type: "xavier"
      std: 0.03
    }
    bias_filler {
      type: "constant"
      value: 0.2
    }
  }
}
layer {
  name: "inception_7a/3x3/bn1"
  type: "BatchNorm"
  bottom: "inception_7a/3x3"
  top: "inception_7a/3x3"
  param {
    lr_mult: 1
    decay_mult: 0
    compression: PRUNE
  }
  param {
    lr_mult: 1
    decay_mult: 0
    compression: PRUNE
  }
  param {
    lr_mult: 0
    decay_mult: 0
    compression: PRUNE
  }
  param {
    lr_mult: 0
    decay_mult: 0
    compression: PRUNE
  }
  batch_norm_param {
    use_global_stats: false
    scale_filler {
      type: "constant"
      value: 1
    }
    bias_filler {
      type: "constant"
      value: 0
    }
  }
}
layer {
  name: "inception_7a/3x3/relu1"
  type: "ReLU"
  bottom: "inception_7a/3x3"
  top: "inception_7a/3x3"
}
layer {
  name: "inception_7a/output"
  type: "Concat"
  bottom: "inception_7a/1x1"
  bottom: "inception_7a/3x3"
  top: "inception_7a/output"
}
layer {
  name: "inception_8a/1x1"
  type: "Convolution"
  bottom: "inception_7a/output"
  top: "inception_8a/1x1"
  param {
    lr_mult: 1
    decay_mult: 1
    compression: PRUNE
  }
  param {
    lr_mult: 2
    decay_mult: 0
    compression: PRUNE
  }
  convolution_param {
    num_output: 48
    kernel_size: 1
    weight_filler {
      type: "xavier"
      std: 0.03
    }
    bias_filler {
      type: "constant"
      value: 0.2
    }
  }
}
layer {
  name: "inception_8a/1x1/bn1"
  type: "BatchNorm"
  bottom: "inception_8a/1x1"
  top: "inception_8a/1x1"
  param {
    lr_mult: 1
    decay_mult: 0
    compression: PRUNE
  }
  param {
    lr_mult: 1
    decay_mult: 0
    compression: PRUNE
  }
  param {
    lr_mult: 0
    decay_mult: 0
    compression: PRUNE
  }
  param {
    lr_mult: 0
    decay_mult: 0
    compression: PRUNE
  }
  batch_norm_param {
    use_global_stats: false
    scale_filler {
      type: "constant"
      value: 1
    }
    bias_filler {
      type: "constant"
      value: 0
    }
  }
}
layer {
  name: "inception_8a/1x1/relu1"
  type: "ReLU"
  bottom: "inception_8a/1x1"
  top: "inception_8a/1x1"
}
layer {
  name: "inception_8a/3x3"
  type: "Convolution"
  bottom: "inception_7a/output"
  top: "inception_8a/3x3"
  param {
    lr_mult: 1
    decay_mult: 1
    compression: PRUNE
  }
  param {
    lr_mult: 2
    decay_mult: 0
    compression: PRUNE
  }
  convolution_param {
    num_output: 96
    pad: 1
    kernel_size: 3
    weight_filler {
      type: "xavier"
      std: 0.03
    }
    bias_filler {
      type: "constant"
      value: 0.2
    }
  }
}
layer {
  name: "inception_8a/3x3/bn1"
  type: "BatchNorm"
  bottom: "inception_8a/3x3"
  top: "inception_8a/3x3"
  param {
    lr_mult: 1
    decay_mult: 0
    compression: PRUNE
  }
  param {
    lr_mult: 1
    decay_mult: 0
    compression: PRUNE
  }
  param {
    lr_mult: 0
    decay_mult: 0
    compression: PRUNE
  }
  param {
    lr_mult: 0
    decay_mult: 0
    compression: PRUNE
  }
  batch_norm_param {
    use_global_stats: false
    scale_filler {
      type: "constant"
      value: 1
    }
    bias_filler {
      type: "constant"
      value: 0
    }
  }
}
layer {
  name: "inception_8a/3x3/relu1"
  type: "ReLU"
  bottom: "inception_8a/3x3"
  top: "inception_8a/3x3"
}
layer {
  name: "inception_8a/output"
  type: "Concat"
  bottom: "inception_8a/1x1"
  bottom: "inception_8a/3x3"
  top: "inception_8a/output"
}
layer {
  name: "downsample_9/3x3_s2"
  type: "Convolution"
  bottom: "inception_8a/output"
  top: "downsample_9/3x3_s2"
  param {
    lr_mult: 1
    decay_mult: 1
    compression: PRUNE
  }
  param {
    lr_mult: 2
    decay_mult: 0
    compression: PRUNE
  }
  convolution_param {
    num_output: 96
    pad: 1
    kernel_size: 3
    stride: 2
    weight_filler {
      type: "xavier"
      std: 0.03
    }
    bias_filler {
      type: "constant"
      value: 0.2
    }
  }
}
layer {
  name: "downsample_9/3x3_s2/bn1"
  type: "BatchNorm"
  bottom: "downsample_9/3x3_s2"
  top: "downsample_9/3x3_s2"
  param {
    lr_mult: 1
    decay_mult: 0
    compression: PRUNE
  }
  param {
    lr_mult: 1
    decay_mult: 0
    compression: PRUNE
  }
  param {
    lr_mult: 0
    decay_mult: 0
    compression: PRUNE
  }
  param {
    lr_mult: 0
    decay_mult: 0
    compression: PRUNE
  }
  batch_norm_param {
    use_global_stats: false
    scale_filler {
      type: "constant"
      value: 1
    }
    bias_filler {
      type: "constant"
      value: 0
    }
  }
}
layer {
  name: "downsample_9/3x3_s2/relu1"
  type: "ReLU"
  bottom: "downsample_9/3x3_s2"
  top: "downsample_9/3x3_s2"
}
layer {
  name: "downsample_9/pool_s2"
  type: "Pooling"
  bottom: "inception_8a/output"
  top: "downsample_9/pool_s2"
  pooling_param {
    pool: MAX
    kernel_size: 3
    stride: 2
  }
}
layer {
  name: "downsample_9/output"
  type: "Concat"
  bottom: "downsample_9/3x3_s2"
  bottom: "downsample_9/pool_s2"
  top: "downsample_9/output"
}
layer {
  name: "inception_10a/1x1"
  type: "Convolution"
  bottom: "downsample_9/output"
  top: "inception_10a/1x1"
  param {
    lr_mult: 1
    decay_mult: 1
    compression: PRUNE
  }
  param {
    lr_mult: 2
    decay_mult: 0
    compression: PRUNE
  }
  convolution_param {
    num_output: 176
    kernel_size: 1
    weight_filler {
      type: "xavier"
      std: 0.03
    }
    bias_filler {
      type: "constant"
      value: 0.2
    }
  }
}
layer {
  name: "inception_10a/1x1/bn1"
  type: "BatchNorm"
  bottom: "inception_10a/1x1"
  top: "inception_10a/1x1"
  param {
    lr_mult: 1
    decay_mult: 0
    compression: PRUNE
  }
  param {
    lr_mult: 1
    decay_mult: 0
    compression: PRUNE
  }
  param {
    lr_mult: 0
    decay_mult: 0
    compression: PRUNE
  }
  param {
    lr_mult: 0
    decay_mult: 0
    compression: PRUNE
  }
  batch_norm_param {
    use_global_stats: false
    scale_filler {
      type: "constant"
      value: 1
    }
    bias_filler {
      type: "constant"
      value: 0
    }
  }
}
layer {
  name: "inception_10a/1x1/relu1"
  type: "ReLU"
  bottom: "inception_10a/1x1"
  top: "inception_10a/1x1"
}
layer {
  name: "inception_10a/3x3"
  type: "Convolution"
  bottom: "downsample_9/output"
  top: "inception_10a/3x3"
  param {
    lr_mult: 1
    decay_mult: 1
    compression: PRUNE
  }
  param {
    lr_mult: 2
    decay_mult: 0
    compression: PRUNE
  }
  convolution_param {
    num_output: 160
    pad: 1
    kernel_size: 3
    weight_filler {
      type: "xavier"
      std: 0.03
    }
    bias_filler {
      type: "constant"
      value: 0.2
    }
  }
}
layer {
  name: "inception_10a/3x3/bn1"
  type: "BatchNorm"
  bottom: "inception_10a/3x3"
  top: "inception_10a/3x3"
  param {
    lr_mult: 1
    decay_mult: 0
    compression: PRUNE
  }
  param {
    lr_mult: 1
    decay_mult: 0
    compression: PRUNE
  }
  param {
    lr_mult: 0
    decay_mult: 0
    compression: PRUNE
  }
  param {
    lr_mult: 0
    decay_mult: 0
    compression: PRUNE
  }
  batch_norm_param {
    use_global_stats: false
    scale_filler {
      type: "constant"
      value: 1
    }
    bias_filler {
      type: "constant"
      value: 0
    }
  }
}
layer {
  name: "inception_10a/3x3/relu1"
  type: "ReLU"
  bottom: "inception_10a/3x3"
  top: "inception_10a/3x3"
}
layer {
  name: "inception_10a/output"
  type: "Concat"
  bottom: "inception_10a/1x1"
  bottom: "inception_10a/3x3"
  top: "inception_10a/output"
}
layer {
  name: "inception_11a/1x1"
  type: "Convolution"
  bottom: "inception_10a/output"
  top: "inception_11a/1x1"
  param {
    lr_mult: 1
    decay_mult: 1
    compression: PRUNE
  }
  param {
    lr_mult: 2
    decay_mult: 0
    compression: PRUNE
  }
  convolution_param {
    num_output: 176
    kernel_size: 1
    weight_filler {
      type: "xavier"
      std: 0.03
    }
    bias_filler {
      type: "constant"
      value: 0.2
    }
  }
}
layer {
  name: "inception_11a/1x1/bn1"
  type: "BatchNorm"
  bottom: "inception_11a/1x1"
  top: "inception_11a/1x1"
  param {
    lr_mult: 1
    decay_mult: 0
    compression: PRUNE
  }
  param {
    lr_mult: 1
    decay_mult: 0
    compression: PRUNE
  }
  param {
    lr_mult: 0
    decay_mult: 0
    compression: PRUNE
  }
  param {
    lr_mult: 0
    decay_mult: 0
    compression: PRUNE
  }
  batch_norm_param {
    use_global_stats: false
    scale_filler {
      type: "constant"
      value: 1
    }
    bias_filler {
      type: "constant"
      value: 0
    }
  }
}
layer {
  name: "inception_11a/1x1/relu1"
  type: "ReLU"
  bottom: "inception_11a/1x1"
  top: "inception_11a/1x1"
}
layer {
  name: "inception_11a/3x3"
  type: "Convolution"
  bottom: "inception_10a/output"
  top: "inception_11a/3x3"
  param {
    lr_mult: 1
    decay_mult: 1
    compression: PRUNE
  }
  param {
    lr_mult: 2
    decay_mult: 0
    compression: PRUNE
  }
  convolution_param {
    num_output: 160
    pad: 1
    kernel_size: 3
    weight_filler {
      type: "xavier"
      std: 0.03
    }
    bias_filler {
      type: "constant"
      value: 0.2
    }
  }
}
layer {
  name: "inception_11a/3x3/bn1"
  type: "BatchNorm"
  bottom: "inception_11a/3x3"
  top: "inception_11a/3x3"
  param {
    lr_mult: 1
    decay_mult: 0
    compression: PRUNE
  }
  param {
    lr_mult: 1
    decay_mult: 0
    compression: PRUNE
  }
  param {
    lr_mult: 0
    decay_mult: 0
    compression: PRUNE
  }
  param {
    lr_mult: 0
    decay_mult: 0
    compression: PRUNE
  }
  batch_norm_param {
    use_global_stats: false
    scale_filler {
      type: "constant"
      value: 1
    }
    bias_filler {
      type: "constant"
      value: 0
    }
  }
}
layer {
  name: "inception_11a/3x3/relu1"
  type: "ReLU"
  bottom: "inception_11a/3x3"
  top: "inception_11a/3x3"
}
layer {
  name: "inception_11a/output"
  type: "Concat"
  bottom: "inception_11a/1x1"
  bottom: "inception_11a/3x3"
  top: "inception_11a/output"
}
layer {
  name: "avg_pool_12/8x8_s1"
  type: "Pooling"
  bottom: "inception_11a/output"
  top: "avg_pool_12/8x8_s1"
  pooling_param {
    pool: AVE
    kernel_size: 8
    stride: 1
  }
}
layer {
  name: "drop_8x8_s1"
  type: "Dropout"
  bottom: "avg_pool_12/8x8_s1"
  top: "avg_pool_12/8x8_s1"
  dropout_param {
    dropout_ratio: 0.5
  }
}
layer {
  name: "loss/classifier"
  type: "InnerProduct"
  bottom: "avg_pool_12/8x8_s1"
  top: "loss/classifier"
  param {
    lr_mult: 1
    decay_mult: 1
  }
  param {
    lr_mult: 2
    decay_mult: 0
  }
  inner_product_param {
    num_output: 10
    weight_filler {
      type: "xavier"
    }
    bias_filler {
      type: "constant"
      value: 1
    }
  }
}
layer {
  name: "loss"
  type: "SoftmaxWithLoss"
  bottom: "loss/classifier"
  bottom: "label"
  top: "loss"
}
I0114 19:24:31.689139 78654 layer_factory.hpp:77] Creating layer data
I0114 19:24:31.689239 78654 internal_thread.cpp:27] Starting internal thread(s) on GPU 0
I0114 19:24:31.690165 78654 net.cpp:94] Creating Layer data
I0114 19:24:31.690174 78654 net.cpp:409] data -> data
I0114 19:24:31.690197 78654 net.cpp:409] data -> label
I0114 19:24:31.691565 78693 db_lmdb.cpp:35] Opened lmdb /home/ML/cifar10/input/lmdb/train_lmdb
I0114 19:24:31.691612 78693 data_reader.cpp:117] TRAIN: reading data using 1 channel(s)
I0114 19:24:31.691695 78654 data_layer.cpp:78] ReshapePrefetch 128, 3, 32, 32
I0114 19:24:31.691776 78654 data_layer.cpp:83] output data size: 128,3,32,32
I0114 19:24:31.699617 78654 internal_thread.cpp:27] Starting internal thread(s) on GPU 0
I0114 19:24:31.699664 78654 net.cpp:144] Setting up data
I0114 19:24:31.699672 78654 net.cpp:151] Top shape: 128 3 32 32 (393216)
I0114 19:24:31.699676 78654 net.cpp:151] Top shape: 128 (128)
I0114 19:24:31.699678 78654 net.cpp:159] Memory required for data: 1573376
I0114 19:24:31.699683 78654 layer_factory.hpp:77] Creating layer conv1/3x3_s1
I0114 19:24:31.699705 78654 net.cpp:94] Creating Layer conv1/3x3_s1
I0114 19:24:31.699710 78654 net.cpp:435] conv1/3x3_s1 <- data
I0114 19:24:31.699726 78654 net.cpp:409] conv1/3x3_s1 -> conv1/3x3_s1
I0114 19:24:31.701303 78654 net.cpp:144] Setting up conv1/3x3_s1
I0114 19:24:31.701315 78654 net.cpp:151] Top shape: 128 96 32 32 (12582912)
I0114 19:24:31.701319 78654 net.cpp:159] Memory required for data: 51905024
I0114 19:24:31.701334 78654 layer_factory.hpp:77] Creating layer conv1/bn1
I0114 19:24:31.701345 78654 net.cpp:94] Creating Layer conv1/bn1
I0114 19:24:31.701349 78654 net.cpp:435] conv1/bn1 <- conv1/3x3_s1
I0114 19:24:31.701354 78654 net.cpp:396] conv1/bn1 -> conv1/3x3_s1 (in-place)
I0114 19:24:31.701987 78654 net.cpp:144] Setting up conv1/bn1
I0114 19:24:31.701994 78654 net.cpp:151] Top shape: 128 96 32 32 (12582912)
I0114 19:24:31.701997 78654 net.cpp:159] Memory required for data: 102236672
I0114 19:24:31.702009 78654 layer_factory.hpp:77] Creating layer conv1/relu1
I0114 19:24:31.702015 78654 net.cpp:94] Creating Layer conv1/relu1
I0114 19:24:31.702018 78654 net.cpp:435] conv1/relu1 <- conv1/3x3_s1
I0114 19:24:31.702023 78654 net.cpp:396] conv1/relu1 -> conv1/3x3_s1 (in-place)
I0114 19:24:31.702033 78654 net.cpp:144] Setting up conv1/relu1
I0114 19:24:31.702039 78654 net.cpp:151] Top shape: 128 96 32 32 (12582912)
I0114 19:24:31.702054 78654 net.cpp:159] Memory required for data: 152568320
I0114 19:24:31.702057 78654 layer_factory.hpp:77] Creating layer conv1/3x3_s1_conv1/relu1_0_split
I0114 19:24:31.702064 78654 net.cpp:94] Creating Layer conv1/3x3_s1_conv1/relu1_0_split
I0114 19:24:31.702066 78654 net.cpp:435] conv1/3x3_s1_conv1/relu1_0_split <- conv1/3x3_s1
I0114 19:24:31.702070 78654 net.cpp:409] conv1/3x3_s1_conv1/relu1_0_split -> conv1/3x3_s1_conv1/relu1_0_split_0
I0114 19:24:31.702077 78654 net.cpp:409] conv1/3x3_s1_conv1/relu1_0_split -> conv1/3x3_s1_conv1/relu1_0_split_1
I0114 19:24:31.702105 78654 net.cpp:144] Setting up conv1/3x3_s1_conv1/relu1_0_split
I0114 19:24:31.702111 78654 net.cpp:151] Top shape: 128 96 32 32 (12582912)
I0114 19:24:31.702114 78654 net.cpp:151] Top shape: 128 96 32 32 (12582912)
I0114 19:24:31.702116 78654 net.cpp:159] Memory required for data: 253231616
I0114 19:24:31.702119 78654 layer_factory.hpp:77] Creating layer inception_2a/1x1
I0114 19:24:31.702127 78654 net.cpp:94] Creating Layer inception_2a/1x1
I0114 19:24:31.702132 78654 net.cpp:435] inception_2a/1x1 <- conv1/3x3_s1_conv1/relu1_0_split_0
I0114 19:24:31.702138 78654 net.cpp:409] inception_2a/1x1 -> inception_2a/1x1
I0114 19:24:31.702881 78654 net.cpp:144] Setting up inception_2a/1x1
I0114 19:24:31.702888 78654 net.cpp:151] Top shape: 128 32 32 32 (4194304)
I0114 19:24:31.702890 78654 net.cpp:159] Memory required for data: 270008832
I0114 19:24:31.702898 78654 layer_factory.hpp:77] Creating layer inception_2a/1x1/bn1
I0114 19:24:31.702903 78654 net.cpp:94] Creating Layer inception_2a/1x1/bn1
I0114 19:24:31.702906 78654 net.cpp:435] inception_2a/1x1/bn1 <- inception_2a/1x1
I0114 19:24:31.702911 78654 net.cpp:396] inception_2a/1x1/bn1 -> inception_2a/1x1 (in-place)
I0114 19:24:31.703703 78654 net.cpp:144] Setting up inception_2a/1x1/bn1
I0114 19:24:31.703711 78654 net.cpp:151] Top shape: 128 32 32 32 (4194304)
I0114 19:24:31.703714 78654 net.cpp:159] Memory required for data: 286786048
I0114 19:24:31.703722 78654 layer_factory.hpp:77] Creating layer inception_2a/1x1/relu1
I0114 19:24:31.703727 78654 net.cpp:94] Creating Layer inception_2a/1x1/relu1
I0114 19:24:31.703729 78654 net.cpp:435] inception_2a/1x1/relu1 <- inception_2a/1x1
I0114 19:24:31.703734 78654 net.cpp:396] inception_2a/1x1/relu1 -> inception_2a/1x1 (in-place)
I0114 19:24:31.703740 78654 net.cpp:144] Setting up inception_2a/1x1/relu1
I0114 19:24:31.703744 78654 net.cpp:151] Top shape: 128 32 32 32 (4194304)
I0114 19:24:31.703748 78654 net.cpp:159] Memory required for data: 303563264
I0114 19:24:31.703752 78654 layer_factory.hpp:77] Creating layer inception_2a/3x3
I0114 19:24:31.703758 78654 net.cpp:94] Creating Layer inception_2a/3x3
I0114 19:24:31.703763 78654 net.cpp:435] inception_2a/3x3 <- conv1/3x3_s1_conv1/relu1_0_split_1
I0114 19:24:31.703769 78654 net.cpp:409] inception_2a/3x3 -> inception_2a/3x3
I0114 19:24:31.704833 78654 net.cpp:144] Setting up inception_2a/3x3
I0114 19:24:31.704843 78654 net.cpp:151] Top shape: 128 32 32 32 (4194304)
I0114 19:24:31.704846 78654 net.cpp:159] Memory required for data: 320340480
I0114 19:24:31.704854 78654 layer_factory.hpp:77] Creating layer inception_2a/3x3/bn1
I0114 19:24:31.704860 78654 net.cpp:94] Creating Layer inception_2a/3x3/bn1
I0114 19:24:31.704864 78654 net.cpp:435] inception_2a/3x3/bn1 <- inception_2a/3x3
I0114 19:24:31.704870 78654 net.cpp:396] inception_2a/3x3/bn1 -> inception_2a/3x3 (in-place)
I0114 19:24:31.705691 78654 net.cpp:144] Setting up inception_2a/3x3/bn1
I0114 19:24:31.705698 78654 net.cpp:151] Top shape: 128 32 32 32 (4194304)
I0114 19:24:31.705701 78654 net.cpp:159] Memory required for data: 337117696
I0114 19:24:31.705713 78654 layer_factory.hpp:77] Creating layer inception_2a/3x3/relu1
I0114 19:24:31.705718 78654 net.cpp:94] Creating Layer inception_2a/3x3/relu1
I0114 19:24:31.705721 78654 net.cpp:435] inception_2a/3x3/relu1 <- inception_2a/3x3
I0114 19:24:31.705725 78654 net.cpp:396] inception_2a/3x3/relu1 -> inception_2a/3x3 (in-place)
I0114 19:24:31.705732 78654 net.cpp:144] Setting up inception_2a/3x3/relu1
I0114 19:24:31.705747 78654 net.cpp:151] Top shape: 128 32 32 32 (4194304)
I0114 19:24:31.705750 78654 net.cpp:159] Memory required for data: 353894912
I0114 19:24:31.705770 78654 layer_factory.hpp:77] Creating layer inception_2a/output
I0114 19:24:31.705773 78654 net.cpp:94] Creating Layer inception_2a/output
I0114 19:24:31.705777 78654 net.cpp:435] inception_2a/output <- inception_2a/1x1
I0114 19:24:31.705780 78654 net.cpp:435] inception_2a/output <- inception_2a/3x3
I0114 19:24:31.705785 78654 net.cpp:409] inception_2a/output -> inception_2a/output
I0114 19:24:31.705803 78654 net.cpp:144] Setting up inception_2a/output
I0114 19:24:31.705816 78654 net.cpp:151] Top shape: 128 64 32 32 (8388608)
I0114 19:24:31.705817 78654 net.cpp:159] Memory required for data: 387449344
I0114 19:24:31.705821 78654 layer_factory.hpp:77] Creating layer inception_2a/output_inception_2a/output_0_split
I0114 19:24:31.705824 78654 net.cpp:94] Creating Layer inception_2a/output_inception_2a/output_0_split
I0114 19:24:31.705828 78654 net.cpp:435] inception_2a/output_inception_2a/output_0_split <- inception_2a/output
I0114 19:24:31.705832 78654 net.cpp:409] inception_2a/output_inception_2a/output_0_split -> inception_2a/output_inception_2a/output_0_split_0
I0114 19:24:31.705838 78654 net.cpp:409] inception_2a/output_inception_2a/output_0_split -> inception_2a/output_inception_2a/output_0_split_1
I0114 19:24:31.705865 78654 net.cpp:144] Setting up inception_2a/output_inception_2a/output_0_split
I0114 19:24:31.705873 78654 net.cpp:151] Top shape: 128 64 32 32 (8388608)
I0114 19:24:31.705876 78654 net.cpp:151] Top shape: 128 64 32 32 (8388608)
I0114 19:24:31.705878 78654 net.cpp:159] Memory required for data: 454558208
I0114 19:24:31.705881 78654 layer_factory.hpp:77] Creating layer inception_3a/1x1
I0114 19:24:31.705889 78654 net.cpp:94] Creating Layer inception_3a/1x1
I0114 19:24:31.705893 78654 net.cpp:435] inception_3a/1x1 <- inception_2a/output_inception_2a/output_0_split_0
I0114 19:24:31.705896 78654 net.cpp:409] inception_3a/1x1 -> inception_3a/1x1
I0114 19:24:31.706117 78654 net.cpp:144] Setting up inception_3a/1x1
I0114 19:24:31.706125 78654 net.cpp:151] Top shape: 128 32 32 32 (4194304)
I0114 19:24:31.706128 78654 net.cpp:159] Memory required for data: 471335424
I0114 19:24:31.706133 78654 layer_factory.hpp:77] Creating layer inception_3a/1x1/bn1
I0114 19:24:31.706140 78654 net.cpp:94] Creating Layer inception_3a/1x1/bn1
I0114 19:24:31.706145 78654 net.cpp:435] inception_3a/1x1/bn1 <- inception_3a/1x1
I0114 19:24:31.706149 78654 net.cpp:396] inception_3a/1x1/bn1 -> inception_3a/1x1 (in-place)
I0114 19:24:31.706773 78654 net.cpp:144] Setting up inception_3a/1x1/bn1
I0114 19:24:31.706779 78654 net.cpp:151] Top shape: 128 32 32 32 (4194304)
I0114 19:24:31.706784 78654 net.cpp:159] Memory required for data: 488112640
I0114 19:24:31.706791 78654 layer_factory.hpp:77] Creating layer inception_3a/1x1/relu1
I0114 19:24:31.706795 78654 net.cpp:94] Creating Layer inception_3a/1x1/relu1
I0114 19:24:31.706799 78654 net.cpp:435] inception_3a/1x1/relu1 <- inception_3a/1x1
I0114 19:24:31.706804 78654 net.cpp:396] inception_3a/1x1/relu1 -> inception_3a/1x1 (in-place)
I0114 19:24:31.706809 78654 net.cpp:144] Setting up inception_3a/1x1/relu1
I0114 19:24:31.706813 78654 net.cpp:151] Top shape: 128 32 32 32 (4194304)
I0114 19:24:31.706815 78654 net.cpp:159] Memory required for data: 504889856
I0114 19:24:31.706820 78654 layer_factory.hpp:77] Creating layer inception_3a/3x3
I0114 19:24:31.706827 78654 net.cpp:94] Creating Layer inception_3a/3x3
I0114 19:24:31.706832 78654 net.cpp:435] inception_3a/3x3 <- inception_2a/output_inception_2a/output_0_split_1
I0114 19:24:31.706840 78654 net.cpp:409] inception_3a/3x3 -> inception_3a/3x3
I0114 19:24:31.707209 78654 net.cpp:144] Setting up inception_3a/3x3
I0114 19:24:31.707216 78654 net.cpp:151] Top shape: 128 48 32 32 (6291456)
I0114 19:24:31.707219 78654 net.cpp:159] Memory required for data: 530055680
I0114 19:24:31.707224 78654 layer_factory.hpp:77] Creating layer inception_3a/3x3/bn1
I0114 19:24:31.707231 78654 net.cpp:94] Creating Layer inception_3a/3x3/bn1
I0114 19:24:31.707247 78654 net.cpp:435] inception_3a/3x3/bn1 <- inception_3a/3x3
I0114 19:24:31.707252 78654 net.cpp:396] inception_3a/3x3/bn1 -> inception_3a/3x3 (in-place)
I0114 19:24:31.707914 78654 net.cpp:144] Setting up inception_3a/3x3/bn1
I0114 19:24:31.707921 78654 net.cpp:151] Top shape: 128 48 32 32 (6291456)
I0114 19:24:31.707926 78654 net.cpp:159] Memory required for data: 555221504
I0114 19:24:31.707937 78654 layer_factory.hpp:77] Creating layer inception_3a/3x3/relu1
I0114 19:24:31.707942 78654 net.cpp:94] Creating Layer inception_3a/3x3/relu1
I0114 19:24:31.707947 78654 net.cpp:435] inception_3a/3x3/relu1 <- inception_3a/3x3
I0114 19:24:31.707950 78654 net.cpp:396] inception_3a/3x3/relu1 -> inception_3a/3x3 (in-place)
I0114 19:24:31.707957 78654 net.cpp:144] Setting up inception_3a/3x3/relu1
I0114 19:24:31.707960 78654 net.cpp:151] Top shape: 128 48 32 32 (6291456)
I0114 19:24:31.707963 78654 net.cpp:159] Memory required for data: 580387328
I0114 19:24:31.707967 78654 layer_factory.hpp:77] Creating layer inception_3a/output
I0114 19:24:31.707970 78654 net.cpp:94] Creating Layer inception_3a/output
I0114 19:24:31.707973 78654 net.cpp:435] inception_3a/output <- inception_3a/1x1
I0114 19:24:31.707978 78654 net.cpp:435] inception_3a/output <- inception_3a/3x3
I0114 19:24:31.707981 78654 net.cpp:409] inception_3a/output -> inception_3a/output
I0114 19:24:31.708000 78654 net.cpp:144] Setting up inception_3a/output
I0114 19:24:31.708007 78654 net.cpp:151] Top shape: 128 80 32 32 (10485760)
I0114 19:24:31.708010 78654 net.cpp:159] Memory required for data: 622330368
I0114 19:24:31.708014 78654 layer_factory.hpp:77] Creating layer inception_3a/output_inception_3a/output_0_split
I0114 19:24:31.708019 78654 net.cpp:94] Creating Layer inception_3a/output_inception_3a/output_0_split
I0114 19:24:31.708021 78654 net.cpp:435] inception_3a/output_inception_3a/output_0_split <- inception_3a/output
I0114 19:24:31.708027 78654 net.cpp:409] inception_3a/output_inception_3a/output_0_split -> inception_3a/output_inception_3a/output_0_split_0
I0114 19:24:31.708034 78654 net.cpp:409] inception_3a/output_inception_3a/output_0_split -> inception_3a/output_inception_3a/output_0_split_1
I0114 19:24:31.708061 78654 net.cpp:144] Setting up inception_3a/output_inception_3a/output_0_split
I0114 19:24:31.708067 78654 net.cpp:151] Top shape: 128 80 32 32 (10485760)
I0114 19:24:31.708072 78654 net.cpp:151] Top shape: 128 80 32 32 (10485760)
I0114 19:24:31.708075 78654 net.cpp:159] Memory required for data: 706216448
I0114 19:24:31.708077 78654 layer_factory.hpp:77] Creating layer downsample_4/3x3_s2
I0114 19:24:31.708084 78654 net.cpp:94] Creating Layer downsample_4/3x3_s2
I0114 19:24:31.708091 78654 net.cpp:435] downsample_4/3x3_s2 <- inception_3a/output_inception_3a/output_0_split_0
I0114 19:24:31.708096 78654 net.cpp:409] downsample_4/3x3_s2 -> downsample_4/3x3_s2
I0114 19:24:31.708794 78654 net.cpp:144] Setting up downsample_4/3x3_s2
I0114 19:24:31.708804 78654 net.cpp:151] Top shape: 128 80 16 16 (2621440)
I0114 19:24:31.708808 78654 net.cpp:159] Memory required for data: 716702208
I0114 19:24:31.708813 78654 layer_factory.hpp:77] Creating layer downsample_4/3x3_s2/bn1
I0114 19:24:31.708820 78654 net.cpp:94] Creating Layer downsample_4/3x3_s2/bn1
I0114 19:24:31.708825 78654 net.cpp:435] downsample_4/3x3_s2/bn1 <- downsample_4/3x3_s2
I0114 19:24:31.708832 78654 net.cpp:396] downsample_4/3x3_s2/bn1 -> downsample_4/3x3_s2 (in-place)
I0114 19:24:31.709458 78654 net.cpp:144] Setting up downsample_4/3x3_s2/bn1
I0114 19:24:31.709465 78654 net.cpp:151] Top shape: 128 80 16 16 (2621440)
I0114 19:24:31.709468 78654 net.cpp:159] Memory required for data: 727187968
I0114 19:24:31.709477 78654 layer_factory.hpp:77] Creating layer downsample_4/3x3_s2/relu1
I0114 19:24:31.709482 78654 net.cpp:94] Creating Layer downsample_4/3x3_s2/relu1
I0114 19:24:31.709486 78654 net.cpp:435] downsample_4/3x3_s2/relu1 <- downsample_4/3x3_s2
I0114 19:24:31.709489 78654 net.cpp:396] downsample_4/3x3_s2/relu1 -> downsample_4/3x3_s2 (in-place)
I0114 19:24:31.709508 78654 net.cpp:144] Setting up downsample_4/3x3_s2/relu1
I0114 19:24:31.709512 78654 net.cpp:151] Top shape: 128 80 16 16 (2621440)
I0114 19:24:31.709514 78654 net.cpp:159] Memory required for data: 737673728
I0114 19:24:31.709517 78654 layer_factory.hpp:77] Creating layer downsample_4/pool_s2
I0114 19:24:31.709523 78654 net.cpp:94] Creating Layer downsample_4/pool_s2
I0114 19:24:31.709527 78654 net.cpp:435] downsample_4/pool_s2 <- inception_3a/output_inception_3a/output_0_split_1
I0114 19:24:31.709532 78654 net.cpp:409] downsample_4/pool_s2 -> downsample_4/pool_s2
I0114 19:24:31.709568 78654 net.cpp:144] Setting up downsample_4/pool_s2
I0114 19:24:31.709574 78654 net.cpp:151] Top shape: 128 80 16 16 (2621440)
I0114 19:24:31.709578 78654 net.cpp:159] Memory required for data: 748159488
I0114 19:24:31.709581 78654 layer_factory.hpp:77] Creating layer downsample_4/output
I0114 19:24:31.709585 78654 net.cpp:94] Creating Layer downsample_4/output
I0114 19:24:31.709589 78654 net.cpp:435] downsample_4/output <- downsample_4/3x3_s2
I0114 19:24:31.709592 78654 net.cpp:435] downsample_4/output <- downsample_4/pool_s2
I0114 19:24:31.709597 78654 net.cpp:409] downsample_4/output -> downsample_4/output
I0114 19:24:31.709614 78654 net.cpp:144] Setting up downsample_4/output
I0114 19:24:31.709620 78654 net.cpp:151] Top shape: 128 160 16 16 (5242880)
I0114 19:24:31.709622 78654 net.cpp:159] Memory required for data: 769131008
I0114 19:24:31.709625 78654 layer_factory.hpp:77] Creating layer downsample_4/output_downsample_4/output_0_split
I0114 19:24:31.709630 78654 net.cpp:94] Creating Layer downsample_4/output_downsample_4/output_0_split
I0114 19:24:31.709633 78654 net.cpp:435] downsample_4/output_downsample_4/output_0_split <- downsample_4/output
I0114 19:24:31.709637 78654 net.cpp:409] downsample_4/output_downsample_4/output_0_split -> downsample_4/output_downsample_4/output_0_split_0
I0114 19:24:31.709642 78654 net.cpp:409] downsample_4/output_downsample_4/output_0_split -> downsample_4/output_downsample_4/output_0_split_1
I0114 19:24:31.709669 78654 net.cpp:144] Setting up downsample_4/output_downsample_4/output_0_split
I0114 19:24:31.709676 78654 net.cpp:151] Top shape: 128 160 16 16 (5242880)
I0114 19:24:31.709681 78654 net.cpp:151] Top shape: 128 160 16 16 (5242880)
I0114 19:24:31.709683 78654 net.cpp:159] Memory required for data: 811074048
I0114 19:24:31.709686 78654 layer_factory.hpp:77] Creating layer inception_5a/1x1
I0114 19:24:31.709693 78654 net.cpp:94] Creating Layer inception_5a/1x1
I0114 19:24:31.709697 78654 net.cpp:435] inception_5a/1x1 <- downsample_4/output_downsample_4/output_0_split_0
I0114 19:24:31.709702 78654 net.cpp:409] inception_5a/1x1 -> inception_5a/1x1
I0114 19:24:31.710038 78654 net.cpp:144] Setting up inception_5a/1x1
I0114 19:24:31.710045 78654 net.cpp:151] Top shape: 128 112 16 16 (3670016)
I0114 19:24:31.710048 78654 net.cpp:159] Memory required for data: 825754112
I0114 19:24:31.710053 78654 layer_factory.hpp:77] Creating layer inception_5a/1x1/bn1
I0114 19:24:31.710060 78654 net.cpp:94] Creating Layer inception_5a/1x1/bn1
I0114 19:24:31.710063 78654 net.cpp:435] inception_5a/1x1/bn1 <- inception_5a/1x1
I0114 19:24:31.710069 78654 net.cpp:396] inception_5a/1x1/bn1 -> inception_5a/1x1 (in-place)
I0114 19:24:31.710862 78654 net.cpp:144] Setting up inception_5a/1x1/bn1
I0114 19:24:31.710870 78654 net.cpp:151] Top shape: 128 112 16 16 (3670016)
I0114 19:24:31.710873 78654 net.cpp:159] Memory required for data: 840434176
I0114 19:24:31.710881 78654 layer_factory.hpp:77] Creating layer inception_5a/1x1/relu1
I0114 19:24:31.710886 78654 net.cpp:94] Creating Layer inception_5a/1x1/relu1
I0114 19:24:31.710889 78654 net.cpp:435] inception_5a/1x1/relu1 <- inception_5a/1x1
I0114 19:24:31.710894 78654 net.cpp:396] inception_5a/1x1/relu1 -> inception_5a/1x1 (in-place)
I0114 19:24:31.710901 78654 net.cpp:144] Setting up inception_5a/1x1/relu1
I0114 19:24:31.710904 78654 net.cpp:151] Top shape: 128 112 16 16 (3670016)
I0114 19:24:31.710906 78654 net.cpp:159] Memory required for data: 855114240
I0114 19:24:31.710921 78654 layer_factory.hpp:77] Creating layer inception_5a/3x3
I0114 19:24:31.710927 78654 net.cpp:94] Creating Layer inception_5a/3x3
I0114 19:24:31.710932 78654 net.cpp:435] inception_5a/3x3 <- downsample_4/output_downsample_4/output_0_split_1
I0114 19:24:31.710937 78654 net.cpp:409] inception_5a/3x3 -> inception_5a/3x3
I0114 19:24:31.711551 78654 net.cpp:144] Setting up inception_5a/3x3
I0114 19:24:31.711560 78654 net.cpp:151] Top shape: 128 48 16 16 (1572864)
I0114 19:24:31.711562 78654 net.cpp:159] Memory required for data: 861405696
I0114 19:24:31.711567 78654 layer_factory.hpp:77] Creating layer inception_5a/3x3/bn1
I0114 19:24:31.711575 78654 net.cpp:94] Creating Layer inception_5a/3x3/bn1
I0114 19:24:31.711578 78654 net.cpp:435] inception_5a/3x3/bn1 <- inception_5a/3x3
I0114 19:24:31.711585 78654 net.cpp:396] inception_5a/3x3/bn1 -> inception_5a/3x3 (in-place)
I0114 19:24:31.712288 78654 net.cpp:144] Setting up inception_5a/3x3/bn1
I0114 19:24:31.712296 78654 net.cpp:151] Top shape: 128 48 16 16 (1572864)
I0114 19:24:31.712299 78654 net.cpp:159] Memory required for data: 867697152
I0114 19:24:31.712307 78654 layer_factory.hpp:77] Creating layer inception_5a/3x3/relu1
I0114 19:24:31.712314 78654 net.cpp:94] Creating Layer inception_5a/3x3/relu1
I0114 19:24:31.712318 78654 net.cpp:435] inception_5a/3x3/relu1 <- inception_5a/3x3
I0114 19:24:31.712322 78654 net.cpp:396] inception_5a/3x3/relu1 -> inception_5a/3x3 (in-place)
I0114 19:24:31.712328 78654 net.cpp:144] Setting up inception_5a/3x3/relu1
I0114 19:24:31.712332 78654 net.cpp:151] Top shape: 128 48 16 16 (1572864)
I0114 19:24:31.712337 78654 net.cpp:159] Memory required for data: 873988608
I0114 19:24:31.712338 78654 layer_factory.hpp:77] Creating layer inception_5a/output
I0114 19:24:31.712342 78654 net.cpp:94] Creating Layer inception_5a/output
I0114 19:24:31.712345 78654 net.cpp:435] inception_5a/output <- inception_5a/1x1
I0114 19:24:31.712349 78654 net.cpp:435] inception_5a/output <- inception_5a/3x3
I0114 19:24:31.712354 78654 net.cpp:409] inception_5a/output -> inception_5a/output
I0114 19:24:31.712373 78654 net.cpp:144] Setting up inception_5a/output
I0114 19:24:31.712379 78654 net.cpp:151] Top shape: 128 160 16 16 (5242880)
I0114 19:24:31.712383 78654 net.cpp:159] Memory required for data: 894960128
I0114 19:24:31.712385 78654 layer_factory.hpp:77] Creating layer inception_5a/output_inception_5a/output_0_split
I0114 19:24:31.712390 78654 net.cpp:94] Creating Layer inception_5a/output_inception_5a/output_0_split
I0114 19:24:31.712393 78654 net.cpp:435] inception_5a/output_inception_5a/output_0_split <- inception_5a/output
I0114 19:24:31.712399 78654 net.cpp:409] inception_5a/output_inception_5a/output_0_split -> inception_5a/output_inception_5a/output_0_split_0
I0114 19:24:31.712404 78654 net.cpp:409] inception_5a/output_inception_5a/output_0_split -> inception_5a/output_inception_5a/output_0_split_1
I0114 19:24:31.712432 78654 net.cpp:144] Setting up inception_5a/output_inception_5a/output_0_split
I0114 19:24:31.712438 78654 net.cpp:151] Top shape: 128 160 16 16 (5242880)
I0114 19:24:31.712442 78654 net.cpp:151] Top shape: 128 160 16 16 (5242880)
I0114 19:24:31.712445 78654 net.cpp:159] Memory required for data: 936903168
I0114 19:24:31.712447 78654 layer_factory.hpp:77] Creating layer inception_6a/1x1
I0114 19:24:31.712455 78654 net.cpp:94] Creating Layer inception_6a/1x1
I0114 19:24:31.712460 78654 net.cpp:435] inception_6a/1x1 <- inception_5a/output_inception_5a/output_0_split_0
I0114 19:24:31.712466 78654 net.cpp:409] inception_6a/1x1 -> inception_6a/1x1
I0114 19:24:31.713610 78654 net.cpp:144] Setting up inception_6a/1x1
I0114 19:24:31.713623 78654 net.cpp:151] Top shape: 128 96 16 16 (3145728)
I0114 19:24:31.713625 78654 net.cpp:159] Memory required for data: 949486080
I0114 19:24:31.713631 78654 layer_factory.hpp:77] Creating layer inception_6a/1x1/bn1
I0114 19:24:31.713639 78654 net.cpp:94] Creating Layer inception_6a/1x1/bn1
I0114 19:24:31.713644 78654 net.cpp:435] inception_6a/1x1/bn1 <- inception_6a/1x1
I0114 19:24:31.713665 78654 net.cpp:396] inception_6a/1x1/bn1 -> inception_6a/1x1 (in-place)
I0114 19:24:31.714313 78654 net.cpp:144] Setting up inception_6a/1x1/bn1
I0114 19:24:31.714320 78654 net.cpp:151] Top shape: 128 96 16 16 (3145728)
I0114 19:24:31.714323 78654 net.cpp:159] Memory required for data: 962068992
I0114 19:24:31.714332 78654 layer_factory.hpp:77] Creating layer inception_6a/1x1/relu1
I0114 19:24:31.714337 78654 net.cpp:94] Creating Layer inception_6a/1x1/relu1
I0114 19:24:31.714340 78654 net.cpp:435] inception_6a/1x1/relu1 <- inception_6a/1x1
I0114 19:24:31.714345 78654 net.cpp:396] inception_6a/1x1/relu1 -> inception_6a/1x1 (in-place)
I0114 19:24:31.714352 78654 net.cpp:144] Setting up inception_6a/1x1/relu1
I0114 19:24:31.714355 78654 net.cpp:151] Top shape: 128 96 16 16 (3145728)
I0114 19:24:31.714360 78654 net.cpp:159] Memory required for data: 974651904
I0114 19:24:31.714362 78654 layer_factory.hpp:77] Creating layer inception_6a/3x3
I0114 19:24:31.714371 78654 net.cpp:94] Creating Layer inception_6a/3x3
I0114 19:24:31.714376 78654 net.cpp:435] inception_6a/3x3 <- inception_5a/output_inception_5a/output_0_split_1
I0114 19:24:31.714382 78654 net.cpp:409] inception_6a/3x3 -> inception_6a/3x3
I0114 19:24:31.715169 78654 net.cpp:144] Setting up inception_6a/3x3
I0114 19:24:31.715178 78654 net.cpp:151] Top shape: 128 64 16 16 (2097152)
I0114 19:24:31.715180 78654 net.cpp:159] Memory required for data: 983040512
I0114 19:24:31.715191 78654 layer_factory.hpp:77] Creating layer inception_6a/3x3/bn1
I0114 19:24:31.715200 78654 net.cpp:94] Creating Layer inception_6a/3x3/bn1
I0114 19:24:31.715207 78654 net.cpp:435] inception_6a/3x3/bn1 <- inception_6a/3x3
I0114 19:24:31.715214 78654 net.cpp:396] inception_6a/3x3/bn1 -> inception_6a/3x3 (in-place)
I0114 19:24:31.715988 78654 net.cpp:144] Setting up inception_6a/3x3/bn1
I0114 19:24:31.715996 78654 net.cpp:151] Top shape: 128 64 16 16 (2097152)
I0114 19:24:31.715998 78654 net.cpp:159] Memory required for data: 991429120
I0114 19:24:31.716006 78654 layer_factory.hpp:77] Creating layer inception_6a/3x3/relu1
I0114 19:24:31.716012 78654 net.cpp:94] Creating Layer inception_6a/3x3/relu1
I0114 19:24:31.716015 78654 net.cpp:435] inception_6a/3x3/relu1 <- inception_6a/3x3
I0114 19:24:31.716020 78654 net.cpp:396] inception_6a/3x3/relu1 -> inception_6a/3x3 (in-place)
I0114 19:24:31.716027 78654 net.cpp:144] Setting up inception_6a/3x3/relu1
I0114 19:24:31.716030 78654 net.cpp:151] Top shape: 128 64 16 16 (2097152)
I0114 19:24:31.716033 78654 net.cpp:159] Memory required for data: 999817728
I0114 19:24:31.716037 78654 layer_factory.hpp:77] Creating layer inception_6a/output
I0114 19:24:31.716040 78654 net.cpp:94] Creating Layer inception_6a/output
I0114 19:24:31.716043 78654 net.cpp:435] inception_6a/output <- inception_6a/1x1
I0114 19:24:31.716048 78654 net.cpp:435] inception_6a/output <- inception_6a/3x3
I0114 19:24:31.716053 78654 net.cpp:409] inception_6a/output -> inception_6a/output
I0114 19:24:31.716070 78654 net.cpp:144] Setting up inception_6a/output
I0114 19:24:31.716076 78654 net.cpp:151] Top shape: 128 160 16 16 (5242880)
I0114 19:24:31.716079 78654 net.cpp:159] Memory required for data: 1020789248
I0114 19:24:31.716082 78654 layer_factory.hpp:77] Creating layer inception_6a/output_inception_6a/output_0_split
I0114 19:24:31.716086 78654 net.cpp:94] Creating Layer inception_6a/output_inception_6a/output_0_split
I0114 19:24:31.716089 78654 net.cpp:435] inception_6a/output_inception_6a/output_0_split <- inception_6a/output
I0114 19:24:31.716094 78654 net.cpp:409] inception_6a/output_inception_6a/output_0_split -> inception_6a/output_inception_6a/output_0_split_0
I0114 19:24:31.716104 78654 net.cpp:409] inception_6a/output_inception_6a/output_0_split -> inception_6a/output_inception_6a/output_0_split_1
I0114 19:24:31.716130 78654 net.cpp:144] Setting up inception_6a/output_inception_6a/output_0_split
I0114 19:24:31.716135 78654 net.cpp:151] Top shape: 128 160 16 16 (5242880)
I0114 19:24:31.716140 78654 net.cpp:151] Top shape: 128 160 16 16 (5242880)
I0114 19:24:31.716153 78654 net.cpp:159] Memory required for data: 1062732288
I0114 19:24:31.716156 78654 layer_factory.hpp:77] Creating layer inception_7a/1x1
I0114 19:24:31.716164 78654 net.cpp:94] Creating Layer inception_7a/1x1
I0114 19:24:31.716169 78654 net.cpp:435] inception_7a/1x1 <- inception_6a/output_inception_6a/output_0_split_0
I0114 19:24:31.716176 78654 net.cpp:409] inception_7a/1x1 -> inception_7a/1x1
I0114 19:24:31.716487 78654 net.cpp:144] Setting up inception_7a/1x1
I0114 19:24:31.716495 78654 net.cpp:151] Top shape: 128 80 16 16 (2621440)
I0114 19:24:31.716497 78654 net.cpp:159] Memory required for data: 1073218048
I0114 19:24:31.716503 78654 layer_factory.hpp:77] Creating layer inception_7a/1x1/bn1
I0114 19:24:31.716511 78654 net.cpp:94] Creating Layer inception_7a/1x1/bn1
I0114 19:24:31.716513 78654 net.cpp:435] inception_7a/1x1/bn1 <- inception_7a/1x1
I0114 19:24:31.716518 78654 net.cpp:396] inception_7a/1x1/bn1 -> inception_7a/1x1 (in-place)
I0114 19:24:31.717201 78654 net.cpp:144] Setting up inception_7a/1x1/bn1
I0114 19:24:31.717208 78654 net.cpp:151] Top shape: 128 80 16 16 (2621440)
I0114 19:24:31.717211 78654 net.cpp:159] Memory required for data: 1083703808
I0114 19:24:31.717219 78654 layer_factory.hpp:77] Creating layer inception_7a/1x1/relu1
I0114 19:24:31.717224 78654 net.cpp:94] Creating Layer inception_7a/1x1/relu1
I0114 19:24:31.717227 78654 net.cpp:435] inception_7a/1x1/relu1 <- inception_7a/1x1
I0114 19:24:31.717231 78654 net.cpp:396] inception_7a/1x1/relu1 -> inception_7a/1x1 (in-place)
I0114 19:24:31.717239 78654 net.cpp:144] Setting up inception_7a/1x1/relu1
I0114 19:24:31.717244 78654 net.cpp:151] Top shape: 128 80 16 16 (2621440)
I0114 19:24:31.717247 78654 net.cpp:159] Memory required for data: 1094189568
I0114 19:24:31.717250 78654 layer_factory.hpp:77] Creating layer inception_7a/3x3
I0114 19:24:31.717257 78654 net.cpp:94] Creating Layer inception_7a/3x3
I0114 19:24:31.717263 78654 net.cpp:435] inception_7a/3x3 <- inception_6a/output_inception_6a/output_0_split_1
I0114 19:24:31.717269 78654 net.cpp:409] inception_7a/3x3 -> inception_7a/3x3
I0114 19:24:31.718166 78654 net.cpp:144] Setting up inception_7a/3x3
I0114 19:24:31.718176 78654 net.cpp:151] Top shape: 128 80 16 16 (2621440)
I0114 19:24:31.718179 78654 net.cpp:159] Memory required for data: 1104675328
I0114 19:24:31.718185 78654 layer_factory.hpp:77] Creating layer inception_7a/3x3/bn1
I0114 19:24:31.718191 78654 net.cpp:94] Creating Layer inception_7a/3x3/bn1
I0114 19:24:31.718195 78654 net.cpp:435] inception_7a/3x3/bn1 <- inception_7a/3x3
I0114 19:24:31.718201 78654 net.cpp:396] inception_7a/3x3/bn1 -> inception_7a/3x3 (in-place)
I0114 19:24:31.718845 78654 net.cpp:144] Setting up inception_7a/3x3/bn1
I0114 19:24:31.718852 78654 net.cpp:151] Top shape: 128 80 16 16 (2621440)
I0114 19:24:31.718854 78654 net.cpp:159] Memory required for data: 1115161088
I0114 19:24:31.718863 78654 layer_factory.hpp:77] Creating layer inception_7a/3x3/relu1
I0114 19:24:31.718868 78654 net.cpp:94] Creating Layer inception_7a/3x3/relu1
I0114 19:24:31.718871 78654 net.cpp:435] inception_7a/3x3/relu1 <- inception_7a/3x3
I0114 19:24:31.718875 78654 net.cpp:396] inception_7a/3x3/relu1 -> inception_7a/3x3 (in-place)
I0114 19:24:31.718883 78654 net.cpp:144] Setting up inception_7a/3x3/relu1
I0114 19:24:31.718886 78654 net.cpp:151] Top shape: 128 80 16 16 (2621440)
I0114 19:24:31.718888 78654 net.cpp:159] Memory required for data: 1125646848
I0114 19:24:31.718891 78654 layer_factory.hpp:77] Creating layer inception_7a/output
I0114 19:24:31.718896 78654 net.cpp:94] Creating Layer inception_7a/output
I0114 19:24:31.718899 78654 net.cpp:435] inception_7a/output <- inception_7a/1x1
I0114 19:24:31.718902 78654 net.cpp:435] inception_7a/output <- inception_7a/3x3
I0114 19:24:31.718907 78654 net.cpp:409] inception_7a/output -> inception_7a/output
I0114 19:24:31.718928 78654 net.cpp:144] Setting up inception_7a/output
I0114 19:24:31.718935 78654 net.cpp:151] Top shape: 128 160 16 16 (5242880)
I0114 19:24:31.718938 78654 net.cpp:159] Memory required for data: 1146618368
I0114 19:24:31.718950 78654 layer_factory.hpp:77] Creating layer inception_7a/output_inception_7a/output_0_split
I0114 19:24:31.718958 78654 net.cpp:94] Creating Layer inception_7a/output_inception_7a/output_0_split
I0114 19:24:31.718962 78654 net.cpp:435] inception_7a/output_inception_7a/output_0_split <- inception_7a/output
I0114 19:24:31.718966 78654 net.cpp:409] inception_7a/output_inception_7a/output_0_split -> inception_7a/output_inception_7a/output_0_split_0
I0114 19:24:31.718972 78654 net.cpp:409] inception_7a/output_inception_7a/output_0_split -> inception_7a/output_inception_7a/output_0_split_1
I0114 19:24:31.719002 78654 net.cpp:144] Setting up inception_7a/output_inception_7a/output_0_split
I0114 19:24:31.719007 78654 net.cpp:151] Top shape: 128 160 16 16 (5242880)
I0114 19:24:31.719010 78654 net.cpp:151] Top shape: 128 160 16 16 (5242880)
I0114 19:24:31.719013 78654 net.cpp:159] Memory required for data: 1188561408
I0114 19:24:31.719017 78654 layer_factory.hpp:77] Creating layer inception_8a/1x1
I0114 19:24:31.719023 78654 net.cpp:94] Creating Layer inception_8a/1x1
I0114 19:24:31.719028 78654 net.cpp:435] inception_8a/1x1 <- inception_7a/output_inception_7a/output_0_split_0
I0114 19:24:31.719033 78654 net.cpp:409] inception_8a/1x1 -> inception_8a/1x1
I0114 19:24:31.719336 78654 net.cpp:144] Setting up inception_8a/1x1
I0114 19:24:31.719342 78654 net.cpp:151] Top shape: 128 48 16 16 (1572864)
I0114 19:24:31.719346 78654 net.cpp:159] Memory required for data: 1194852864
I0114 19:24:31.719350 78654 layer_factory.hpp:77] Creating layer inception_8a/1x1/bn1
I0114 19:24:31.719357 78654 net.cpp:94] Creating Layer inception_8a/1x1/bn1
I0114 19:24:31.719360 78654 net.cpp:435] inception_8a/1x1/bn1 <- inception_8a/1x1
I0114 19:24:31.719365 78654 net.cpp:396] inception_8a/1x1/bn1 -> inception_8a/1x1 (in-place)
I0114 19:24:31.720187 78654 net.cpp:144] Setting up inception_8a/1x1/bn1
I0114 19:24:31.720196 78654 net.cpp:151] Top shape: 128 48 16 16 (1572864)
I0114 19:24:31.720199 78654 net.cpp:159] Memory required for data: 1201144320
I0114 19:24:31.720207 78654 layer_factory.hpp:77] Creating layer inception_8a/1x1/relu1
I0114 19:24:31.720211 78654 net.cpp:94] Creating Layer inception_8a/1x1/relu1
I0114 19:24:31.720216 78654 net.cpp:435] inception_8a/1x1/relu1 <- inception_8a/1x1
I0114 19:24:31.720221 78654 net.cpp:396] inception_8a/1x1/relu1 -> inception_8a/1x1 (in-place)
I0114 19:24:31.720227 78654 net.cpp:144] Setting up inception_8a/1x1/relu1
I0114 19:24:31.720230 78654 net.cpp:151] Top shape: 128 48 16 16 (1572864)
I0114 19:24:31.720234 78654 net.cpp:159] Memory required for data: 1207435776
I0114 19:24:31.720237 78654 layer_factory.hpp:77] Creating layer inception_8a/3x3
I0114 19:24:31.720245 78654 net.cpp:94] Creating Layer inception_8a/3x3
I0114 19:24:31.720248 78654 net.cpp:435] inception_8a/3x3 <- inception_7a/output_inception_7a/output_0_split_1
I0114 19:24:31.720254 78654 net.cpp:409] inception_8a/3x3 -> inception_8a/3x3
I0114 19:24:31.721930 78654 net.cpp:144] Setting up inception_8a/3x3
I0114 19:24:31.721942 78654 net.cpp:151] Top shape: 128 96 16 16 (3145728)
I0114 19:24:31.721946 78654 net.cpp:159] Memory required for data: 1220018688
I0114 19:24:31.721952 78654 layer_factory.hpp:77] Creating layer inception_8a/3x3/bn1
I0114 19:24:31.721959 78654 net.cpp:94] Creating Layer inception_8a/3x3/bn1
I0114 19:24:31.721962 78654 net.cpp:435] inception_8a/3x3/bn1 <- inception_8a/3x3
I0114 19:24:31.721968 78654 net.cpp:396] inception_8a/3x3/bn1 -> inception_8a/3x3 (in-place)
I0114 19:24:31.722625 78654 net.cpp:144] Setting up inception_8a/3x3/bn1
I0114 19:24:31.722631 78654 net.cpp:151] Top shape: 128 96 16 16 (3145728)
I0114 19:24:31.722635 78654 net.cpp:159] Memory required for data: 1232601600
I0114 19:24:31.722642 78654 layer_factory.hpp:77] Creating layer inception_8a/3x3/relu1
I0114 19:24:31.722647 78654 net.cpp:94] Creating Layer inception_8a/3x3/relu1
I0114 19:24:31.722651 78654 net.cpp:435] inception_8a/3x3/relu1 <- inception_8a/3x3
I0114 19:24:31.722656 78654 net.cpp:396] inception_8a/3x3/relu1 -> inception_8a/3x3 (in-place)
I0114 19:24:31.722673 78654 net.cpp:144] Setting up inception_8a/3x3/relu1
I0114 19:24:31.722681 78654 net.cpp:151] Top shape: 128 96 16 16 (3145728)
I0114 19:24:31.722684 78654 net.cpp:159] Memory required for data: 1245184512
I0114 19:24:31.722687 78654 layer_factory.hpp:77] Creating layer inception_8a/output
I0114 19:24:31.722692 78654 net.cpp:94] Creating Layer inception_8a/output
I0114 19:24:31.722695 78654 net.cpp:435] inception_8a/output <- inception_8a/1x1
I0114 19:24:31.722699 78654 net.cpp:435] inception_8a/output <- inception_8a/3x3
I0114 19:24:31.722703 78654 net.cpp:409] inception_8a/output -> inception_8a/output
I0114 19:24:31.722723 78654 net.cpp:144] Setting up inception_8a/output
I0114 19:24:31.722731 78654 net.cpp:151] Top shape: 128 144 16 16 (4718592)
I0114 19:24:31.722734 78654 net.cpp:159] Memory required for data: 1264058880
I0114 19:24:31.722738 78654 layer_factory.hpp:77] Creating layer inception_8a/output_inception_8a/output_0_split
I0114 19:24:31.722741 78654 net.cpp:94] Creating Layer inception_8a/output_inception_8a/output_0_split
I0114 19:24:31.722745 78654 net.cpp:435] inception_8a/output_inception_8a/output_0_split <- inception_8a/output
I0114 19:24:31.722750 78654 net.cpp:409] inception_8a/output_inception_8a/output_0_split -> inception_8a/output_inception_8a/output_0_split_0
I0114 19:24:31.722756 78654 net.cpp:409] inception_8a/output_inception_8a/output_0_split -> inception_8a/output_inception_8a/output_0_split_1
I0114 19:24:31.722784 78654 net.cpp:144] Setting up inception_8a/output_inception_8a/output_0_split
I0114 19:24:31.722790 78654 net.cpp:151] Top shape: 128 144 16 16 (4718592)
I0114 19:24:31.722793 78654 net.cpp:151] Top shape: 128 144 16 16 (4718592)
I0114 19:24:31.722795 78654 net.cpp:159] Memory required for data: 1301807616
I0114 19:24:31.722798 78654 layer_factory.hpp:77] Creating layer downsample_9/3x3_s2
I0114 19:24:31.722812 78654 net.cpp:94] Creating Layer downsample_9/3x3_s2
I0114 19:24:31.722817 78654 net.cpp:435] downsample_9/3x3_s2 <- inception_8a/output_inception_8a/output_0_split_0
I0114 19:24:31.722822 78654 net.cpp:409] downsample_9/3x3_s2 -> downsample_9/3x3_s2
I0114 19:24:31.723762 78654 net.cpp:144] Setting up downsample_9/3x3_s2
I0114 19:24:31.723781 78654 net.cpp:151] Top shape: 128 96 8 8 (786432)
I0114 19:24:31.723784 78654 net.cpp:159] Memory required for data: 1304953344
I0114 19:24:31.723790 78654 layer_factory.hpp:77] Creating layer downsample_9/3x3_s2/bn1
I0114 19:24:31.723798 78654 net.cpp:94] Creating Layer downsample_9/3x3_s2/bn1
I0114 19:24:31.723809 78654 net.cpp:435] downsample_9/3x3_s2/bn1 <- downsample_9/3x3_s2
I0114 19:24:31.723816 78654 net.cpp:396] downsample_9/3x3_s2/bn1 -> downsample_9/3x3_s2 (in-place)
I0114 19:24:31.724514 78654 net.cpp:144] Setting up downsample_9/3x3_s2/bn1
I0114 19:24:31.724521 78654 net.cpp:151] Top shape: 128 96 8 8 (786432)
I0114 19:24:31.724524 78654 net.cpp:159] Memory required for data: 1308099072
I0114 19:24:31.724532 78654 layer_factory.hpp:77] Creating layer downsample_9/3x3_s2/relu1
I0114 19:24:31.724537 78654 net.cpp:94] Creating Layer downsample_9/3x3_s2/relu1
I0114 19:24:31.724540 78654 net.cpp:435] downsample_9/3x3_s2/relu1 <- downsample_9/3x3_s2
I0114 19:24:31.724547 78654 net.cpp:396] downsample_9/3x3_s2/relu1 -> downsample_9/3x3_s2 (in-place)
I0114 19:24:31.724553 78654 net.cpp:144] Setting up downsample_9/3x3_s2/relu1
I0114 19:24:31.724557 78654 net.cpp:151] Top shape: 128 96 8 8 (786432)
I0114 19:24:31.724560 78654 net.cpp:159] Memory required for data: 1311244800
I0114 19:24:31.724563 78654 layer_factory.hpp:77] Creating layer downsample_9/pool_s2
I0114 19:24:31.724570 78654 net.cpp:94] Creating Layer downsample_9/pool_s2
I0114 19:24:31.724575 78654 net.cpp:435] downsample_9/pool_s2 <- inception_8a/output_inception_8a/output_0_split_1
I0114 19:24:31.724581 78654 net.cpp:409] downsample_9/pool_s2 -> downsample_9/pool_s2
I0114 19:24:31.724611 78654 net.cpp:144] Setting up downsample_9/pool_s2
I0114 19:24:31.724617 78654 net.cpp:151] Top shape: 128 144 8 8 (1179648)
I0114 19:24:31.724628 78654 net.cpp:159] Memory required for data: 1315963392
I0114 19:24:31.724632 78654 layer_factory.hpp:77] Creating layer downsample_9/output
I0114 19:24:31.724637 78654 net.cpp:94] Creating Layer downsample_9/output
I0114 19:24:31.724639 78654 net.cpp:435] downsample_9/output <- downsample_9/3x3_s2
I0114 19:24:31.724643 78654 net.cpp:435] downsample_9/output <- downsample_9/pool_s2
I0114 19:24:31.724648 78654 net.cpp:409] downsample_9/output -> downsample_9/output
I0114 19:24:31.724669 78654 net.cpp:144] Setting up downsample_9/output
I0114 19:24:31.724675 78654 net.cpp:151] Top shape: 128 240 8 8 (1966080)
I0114 19:24:31.724678 78654 net.cpp:159] Memory required for data: 1323827712
I0114 19:24:31.724680 78654 layer_factory.hpp:77] Creating layer downsample_9/output_downsample_9/output_0_split
I0114 19:24:31.724689 78654 net.cpp:94] Creating Layer downsample_9/output_downsample_9/output_0_split
I0114 19:24:31.724694 78654 net.cpp:435] downsample_9/output_downsample_9/output_0_split <- downsample_9/output
I0114 19:24:31.724700 78654 net.cpp:409] downsample_9/output_downsample_9/output_0_split -> downsample_9/output_downsample_9/output_0_split_0
I0114 19:24:31.724706 78654 net.cpp:409] downsample_9/output_downsample_9/output_0_split -> downsample_9/output_downsample_9/output_0_split_1
I0114 19:24:31.724737 78654 net.cpp:144] Setting up downsample_9/output_downsample_9/output_0_split
I0114 19:24:31.724743 78654 net.cpp:151] Top shape: 128 240 8 8 (1966080)
I0114 19:24:31.724746 78654 net.cpp:151] Top shape: 128 240 8 8 (1966080)
I0114 19:24:31.724750 78654 net.cpp:159] Memory required for data: 1339556352
I0114 19:24:31.724752 78654 layer_factory.hpp:77] Creating layer inception_10a/1x1
I0114 19:24:31.724762 78654 net.cpp:94] Creating Layer inception_10a/1x1
I0114 19:24:31.724766 78654 net.cpp:435] inception_10a/1x1 <- downsample_9/output_downsample_9/output_0_split_0
I0114 19:24:31.724773 78654 net.cpp:409] inception_10a/1x1 -> inception_10a/1x1
I0114 19:24:31.725240 78654 net.cpp:144] Setting up inception_10a/1x1
I0114 19:24:31.725247 78654 net.cpp:151] Top shape: 128 176 8 8 (1441792)
I0114 19:24:31.725250 78654 net.cpp:159] Memory required for data: 1345323520
I0114 19:24:31.725255 78654 layer_factory.hpp:77] Creating layer inception_10a/1x1/bn1
I0114 19:24:31.725263 78654 net.cpp:94] Creating Layer inception_10a/1x1/bn1
I0114 19:24:31.725268 78654 net.cpp:435] inception_10a/1x1/bn1 <- inception_10a/1x1
I0114 19:24:31.725275 78654 net.cpp:396] inception_10a/1x1/bn1 -> inception_10a/1x1 (in-place)
I0114 19:24:31.725951 78654 net.cpp:144] Setting up inception_10a/1x1/bn1
I0114 19:24:31.725958 78654 net.cpp:151] Top shape: 128 176 8 8 (1441792)
I0114 19:24:31.725968 78654 net.cpp:159] Memory required for data: 1351090688
I0114 19:24:31.725976 78654 layer_factory.hpp:77] Creating layer inception_10a/1x1/relu1
I0114 19:24:31.725982 78654 net.cpp:94] Creating Layer inception_10a/1x1/relu1
I0114 19:24:31.725987 78654 net.cpp:435] inception_10a/1x1/relu1 <- inception_10a/1x1
I0114 19:24:31.725992 78654 net.cpp:396] inception_10a/1x1/relu1 -> inception_10a/1x1 (in-place)
I0114 19:24:31.725998 78654 net.cpp:144] Setting up inception_10a/1x1/relu1
I0114 19:24:31.726002 78654 net.cpp:151] Top shape: 128 176 8 8 (1441792)
I0114 19:24:31.726006 78654 net.cpp:159] Memory required for data: 1356857856
I0114 19:24:31.726008 78654 layer_factory.hpp:77] Creating layer inception_10a/3x3
I0114 19:24:31.726017 78654 net.cpp:94] Creating Layer inception_10a/3x3
I0114 19:24:31.726022 78654 net.cpp:435] inception_10a/3x3 <- downsample_9/output_downsample_9/output_0_split_1
I0114 19:24:31.726028 78654 net.cpp:409] inception_10a/3x3 -> inception_10a/3x3
I0114 19:24:31.729252 78654 net.cpp:144] Setting up inception_10a/3x3
I0114 19:24:31.729264 78654 net.cpp:151] Top shape: 128 160 8 8 (1310720)
I0114 19:24:31.729267 78654 net.cpp:159] Memory required for data: 1362100736
I0114 19:24:31.729274 78654 layer_factory.hpp:77] Creating layer inception_10a/3x3/bn1
I0114 19:24:31.729288 78654 net.cpp:94] Creating Layer inception_10a/3x3/bn1
I0114 19:24:31.729302 78654 net.cpp:435] inception_10a/3x3/bn1 <- inception_10a/3x3
I0114 19:24:31.729307 78654 net.cpp:396] inception_10a/3x3/bn1 -> inception_10a/3x3 (in-place)
I0114 19:24:31.729981 78654 net.cpp:144] Setting up inception_10a/3x3/bn1
I0114 19:24:31.729990 78654 net.cpp:151] Top shape: 128 160 8 8 (1310720)
I0114 19:24:31.729992 78654 net.cpp:159] Memory required for data: 1367343616
I0114 19:24:31.730000 78654 layer_factory.hpp:77] Creating layer inception_10a/3x3/relu1
I0114 19:24:31.730006 78654 net.cpp:94] Creating Layer inception_10a/3x3/relu1
I0114 19:24:31.730010 78654 net.cpp:435] inception_10a/3x3/relu1 <- inception_10a/3x3
I0114 19:24:31.730016 78654 net.cpp:396] inception_10a/3x3/relu1 -> inception_10a/3x3 (in-place)
I0114 19:24:31.730024 78654 net.cpp:144] Setting up inception_10a/3x3/relu1
I0114 19:24:31.730029 78654 net.cpp:151] Top shape: 128 160 8 8 (1310720)
I0114 19:24:31.730031 78654 net.cpp:159] Memory required for data: 1372586496
I0114 19:24:31.730034 78654 layer_factory.hpp:77] Creating layer inception_10a/output
I0114 19:24:31.730039 78654 net.cpp:94] Creating Layer inception_10a/output
I0114 19:24:31.730042 78654 net.cpp:435] inception_10a/output <- inception_10a/1x1
I0114 19:24:31.730046 78654 net.cpp:435] inception_10a/output <- inception_10a/3x3
I0114 19:24:31.730051 78654 net.cpp:409] inception_10a/output -> inception_10a/output
I0114 19:24:31.730070 78654 net.cpp:144] Setting up inception_10a/output
I0114 19:24:31.730077 78654 net.cpp:151] Top shape: 128 336 8 8 (2752512)
I0114 19:24:31.730079 78654 net.cpp:159] Memory required for data: 1383596544
I0114 19:24:31.730082 78654 layer_factory.hpp:77] Creating layer inception_10a/output_inception_10a/output_0_split
I0114 19:24:31.730087 78654 net.cpp:94] Creating Layer inception_10a/output_inception_10a/output_0_split
I0114 19:24:31.730092 78654 net.cpp:435] inception_10a/output_inception_10a/output_0_split <- inception_10a/output
I0114 19:24:31.730096 78654 net.cpp:409] inception_10a/output_inception_10a/output_0_split -> inception_10a/output_inception_10a/output_0_split_0
I0114 19:24:31.730103 78654 net.cpp:409] inception_10a/output_inception_10a/output_0_split -> inception_10a/output_inception_10a/output_0_split_1
I0114 19:24:31.730131 78654 net.cpp:144] Setting up inception_10a/output_inception_10a/output_0_split
I0114 19:24:31.730137 78654 net.cpp:151] Top shape: 128 336 8 8 (2752512)
I0114 19:24:31.730141 78654 net.cpp:151] Top shape: 128 336 8 8 (2752512)
I0114 19:24:31.730144 78654 net.cpp:159] Memory required for data: 1405616640
I0114 19:24:31.730146 78654 layer_factory.hpp:77] Creating layer inception_11a/1x1
I0114 19:24:31.730155 78654 net.cpp:94] Creating Layer inception_11a/1x1
I0114 19:24:31.730160 78654 net.cpp:435] inception_11a/1x1 <- inception_10a/output_inception_10a/output_0_split_0
I0114 19:24:31.730167 78654 net.cpp:409] inception_11a/1x1 -> inception_11a/1x1
I0114 19:24:31.730736 78654 net.cpp:144] Setting up inception_11a/1x1
I0114 19:24:31.730743 78654 net.cpp:151] Top shape: 128 176 8 8 (1441792)
I0114 19:24:31.730746 78654 net.cpp:159] Memory required for data: 1411383808
I0114 19:24:31.730751 78654 layer_factory.hpp:77] Creating layer inception_11a/1x1/bn1
I0114 19:24:31.730758 78654 net.cpp:94] Creating Layer inception_11a/1x1/bn1
I0114 19:24:31.730762 78654 net.cpp:435] inception_11a/1x1/bn1 <- inception_11a/1x1
I0114 19:24:31.730769 78654 net.cpp:396] inception_11a/1x1/bn1 -> inception_11a/1x1 (in-place)
I0114 19:24:31.731456 78654 net.cpp:144] Setting up inception_11a/1x1/bn1
I0114 19:24:31.731470 78654 net.cpp:151] Top shape: 128 176 8 8 (1441792)
I0114 19:24:31.731474 78654 net.cpp:159] Memory required for data: 1417150976
I0114 19:24:31.731482 78654 layer_factory.hpp:77] Creating layer inception_11a/1x1/relu1
I0114 19:24:31.731485 78654 net.cpp:94] Creating Layer inception_11a/1x1/relu1
I0114 19:24:31.731488 78654 net.cpp:435] inception_11a/1x1/relu1 <- inception_11a/1x1
I0114 19:24:31.731493 78654 net.cpp:396] inception_11a/1x1/relu1 -> inception_11a/1x1 (in-place)
I0114 19:24:31.731509 78654 net.cpp:144] Setting up inception_11a/1x1/relu1
I0114 19:24:31.731513 78654 net.cpp:151] Top shape: 128 176 8 8 (1441792)
I0114 19:24:31.731516 78654 net.cpp:159] Memory required for data: 1422918144
I0114 19:24:31.731519 78654 layer_factory.hpp:77] Creating layer inception_11a/3x3
I0114 19:24:31.731528 78654 net.cpp:94] Creating Layer inception_11a/3x3
I0114 19:24:31.731534 78654 net.cpp:435] inception_11a/3x3 <- inception_10a/output_inception_10a/output_0_split_1
I0114 19:24:31.731539 78654 net.cpp:409] inception_11a/3x3 -> inception_11a/3x3
I0114 19:24:31.735309 78654 net.cpp:144] Setting up inception_11a/3x3
…
I0115 01:05:43.498179 87336 net.cpp:94] Creating Layer inception_3a/output_inception_3a/output_0_split
I0115 01:05:43.498183 87336 net.cpp:435] inception_3a/output_inception_3a/output_0_split <- inception_3a/output
I0115 01:05:43.498188 87336 net.cpp:409] inception_3a/output_inception_3a/output_0_split -> inception_3a/output_inception_3a/output_0_split_0
I0115 01:05:43.498194 87336 net.cpp:409] inception_3a/output_inception_3a/output_0_split -> inception_3a/output_inception_3a/output_0_split_1
I0115 01:05:43.498203 87336 net.cpp:144] Setting up inception_3a/output_inception_3a/output_0_split
I0115 01:05:43.498205 87336 net.cpp:151] Top shape: 50 80 32 32 (4096000)
I0115 01:05:43.498209 87336 net.cpp:151] Top shape: 50 80 32 32 (4096000)
I0115 01:05:43.498212 87336 net.cpp:159] Memory required for data: 325018600
I0115 01:05:43.498215 87336 layer_factory.hpp:77] Creating layer downsample_4/3x3_s2
I0115 01:05:43.498224 87336 net.cpp:94] Creating Layer downsample_4/3x3_s2
I0115 01:05:43.498227 87336 net.cpp:435] downsample_4/3x3_s2 <- inception_3a/output_inception_3a/output_0_split_0
I0115 01:05:43.498234 87336 net.cpp:409] downsample_4/3x3_s2 -> downsample_4/3x3_s2
I0115 01:05:43.498724 87336 net.cpp:144] Setting up downsample_4/3x3_s2
I0115 01:05:43.498731 87336 net.cpp:151] Top shape: 50 80 16 16 (1024000)
I0115 01:05:43.498734 87336 net.cpp:159] Memory required for data: 329114600
I0115 01:05:43.498739 87336 layer_factory.hpp:77] Creating layer downsample_4/3x3_s2/bn1
I0115 01:05:43.498747 87336 net.cpp:94] Creating Layer downsample_4/3x3_s2/bn1
I0115 01:05:43.498751 87336 net.cpp:435] downsample_4/3x3_s2/bn1 <- downsample_4/3x3_s2
I0115 01:05:43.498756 87336 net.cpp:396] downsample_4/3x3_s2/bn1 -> downsample_4/3x3_s2 (in-place)
I0115 01:05:43.498795 87336 net.cpp:144] Setting up downsample_4/3x3_s2/bn1
I0115 01:05:43.498800 87336 net.cpp:151] Top shape: 50 80 16 16 (1024000)
I0115 01:05:43.498803 87336 net.cpp:159] Memory required for data: 333210600
I0115 01:05:43.498809 87336 layer_factory.hpp:77] Creating layer downsample_4/3x3_s2/scale1
I0115 01:05:43.498816 87336 net.cpp:94] Creating Layer downsample_4/3x3_s2/scale1
I0115 01:05:43.498821 87336 net.cpp:435] downsample_4/3x3_s2/scale1 <- downsample_4/3x3_s2
I0115 01:05:43.498826 87336 net.cpp:396] downsample_4/3x3_s2/scale1 -> downsample_4/3x3_s2 (in-place)
I0115 01:05:43.498833 87336 layer_factory.hpp:77] Creating layer downsample_4/3x3_s2/scale1
I0115 01:05:43.498847 87336 net.cpp:144] Setting up downsample_4/3x3_s2/scale1
I0115 01:05:43.498853 87336 net.cpp:151] Top shape: 50 80 16 16 (1024000)
I0115 01:05:43.498855 87336 net.cpp:159] Memory required for data: 337306600
I0115 01:05:43.498859 87336 layer_factory.hpp:77] Creating layer downsample_4/3x3_s2/relu1
I0115 01:05:43.498863 87336 net.cpp:94] Creating Layer downsample_4/3x3_s2/relu1
I0115 01:05:43.498867 87336 net.cpp:435] downsample_4/3x3_s2/relu1 <- downsample_4/3x3_s2
I0115 01:05:43.498872 87336 net.cpp:396] downsample_4/3x3_s2/relu1 -> downsample_4/3x3_s2 (in-place)
I0115 01:05:43.498885 87336 net.cpp:144] Setting up downsample_4/3x3_s2/relu1
I0115 01:05:43.498889 87336 net.cpp:151] Top shape: 50 80 16 16 (1024000)
I0115 01:05:43.498893 87336 net.cpp:159] Memory required for data: 341402600
I0115 01:05:43.498894 87336 layer_factory.hpp:77] Creating layer downsample_4/pool_s2
I0115 01:05:43.498899 87336 net.cpp:94] Creating Layer downsample_4/pool_s2
I0115 01:05:43.498903 87336 net.cpp:435] downsample_4/pool_s2 <- inception_3a/output_inception_3a/output_0_split_1
I0115 01:05:43.498909 87336 net.cpp:409] downsample_4/pool_s2 -> downsample_4/pool_s2
I0115 01:05:43.498921 87336 net.cpp:144] Setting up downsample_4/pool_s2
I0115 01:05:43.498926 87336 net.cpp:151] Top shape: 50 80 16 16 (1024000)
I0115 01:05:43.498929 87336 net.cpp:159] Memory required for data: 345498600
I0115 01:05:43.498931 87336 layer_factory.hpp:77] Creating layer downsample_4/output
I0115 01:05:43.498939 87336 net.cpp:94] Creating Layer downsample_4/output
I0115 01:05:43.498941 87336 net.cpp:435] downsample_4/output <- downsample_4/3x3_s2
I0115 01:05:43.498944 87336 net.cpp:435] downsample_4/output <- downsample_4/pool_s2
I0115 01:05:43.498950 87336 net.cpp:409] downsample_4/output -> downsample_4/output
I0115 01:05:43.498955 87336 net.cpp:144] Setting up downsample_4/output
I0115 01:05:43.498960 87336 net.cpp:151] Top shape: 50 160 16 16 (2048000)
I0115 01:05:43.498961 87336 net.cpp:159] Memory required for data: 353690600
I0115 01:05:43.498965 87336 layer_factory.hpp:77] Creating layer downsample_4/output_downsample_4/output_0_split
I0115 01:05:43.498970 87336 net.cpp:94] Creating Layer downsample_4/output_downsample_4/output_0_split
I0115 01:05:43.498973 87336 net.cpp:435] downsample_4/output_downsample_4/output_0_split <- downsample_4/output
I0115 01:05:43.498977 87336 net.cpp:409] downsample_4/output_downsample_4/output_0_split -> downsample_4/output_downsample_4/output_0_split_0
I0115 01:05:43.498984 87336 net.cpp:409] downsample_4/output_downsample_4/output_0_split -> downsample_4/output_downsample_4/output_0_split_1
I0115 01:05:43.498991 87336 net.cpp:144] Setting up downsample_4/output_downsample_4/output_0_split
I0115 01:05:43.498996 87336 net.cpp:151] Top shape: 50 160 16 16 (2048000)
I0115 01:05:43.499001 87336 net.cpp:151] Top shape: 50 160 16 16 (2048000)
I0115 01:05:43.499003 87336 net.cpp:159] Memory required for data: 370074600
I0115 01:05:43.499006 87336 layer_factory.hpp:77] Creating layer inception_5a/1x1
I0115 01:05:43.499014 87336 net.cpp:94] Creating Layer inception_5a/1x1
I0115 01:05:43.499017 87336 net.cpp:435] inception_5a/1x1 <- downsample_4/output_downsample_4/output_0_split_0
I0115 01:05:43.499024 87336 net.cpp:409] inception_5a/1x1 -> inception_5a/1x1
I0115 01:05:43.499187 87336 net.cpp:144] Setting up inception_5a/1x1
I0115 01:05:43.499193 87336 net.cpp:151] Top shape: 50 112 16 16 (1433600)
I0115 01:05:43.499195 87336 net.cpp:159] Memory required for data: 375809000
I0115 01:05:43.499200 87336 layer_factory.hpp:77] Creating layer inception_5a/1x1/bn1
I0115 01:05:43.499207 87336 net.cpp:94] Creating Layer inception_5a/1x1/bn1
I0115 01:05:43.499209 87336 net.cpp:435] inception_5a/1x1/bn1 <- inception_5a/1x1
I0115 01:05:43.499215 87336 net.cpp:396] inception_5a/1x1/bn1 -> inception_5a/1x1 (in-place)
I0115 01:05:43.499248 87336 net.cpp:144] Setting up inception_5a/1x1/bn1
I0115 01:05:43.499253 87336 net.cpp:151] Top shape: 50 112 16 16 (1433600)
I0115 01:05:43.499256 87336 net.cpp:159] Memory required for data: 381543400
I0115 01:05:43.499264 87336 layer_factory.hpp:77] Creating layer inception_5a/1x1/scale1
I0115 01:05:43.499269 87336 net.cpp:94] Creating Layer inception_5a/1x1/scale1
I0115 01:05:43.499274 87336 net.cpp:435] inception_5a/1x1/scale1 <- inception_5a/1x1
I0115 01:05:43.499280 87336 net.cpp:396] inception_5a/1x1/scale1 -> inception_5a/1x1 (in-place)
I0115 01:05:43.499287 87336 layer_factory.hpp:77] Creating layer inception_5a/1x1/scale1
I0115 01:05:43.499305 87336 net.cpp:144] Setting up inception_5a/1x1/scale1
I0115 01:05:43.499310 87336 net.cpp:151] Top shape: 50 112 16 16 (1433600)
I0115 01:05:43.499318 87336 net.cpp:159] Memory required for data: 387277800
I0115 01:05:43.499322 87336 layer_factory.hpp:77] Creating layer inception_5a/1x1/relu1
I0115 01:05:43.499327 87336 net.cpp:94] Creating Layer inception_5a/1x1/relu1
I0115 01:05:43.499330 87336 net.cpp:435] inception_5a/1x1/relu1 <- inception_5a/1x1
I0115 01:05:43.499334 87336 net.cpp:396] inception_5a/1x1/relu1 -> inception_5a/1x1 (in-place)
I0115 01:05:43.499339 87336 net.cpp:144] Setting up inception_5a/1x1/relu1
I0115 01:05:43.499344 87336 net.cpp:151] Top shape: 50 112 16 16 (1433600)
I0115 01:05:43.499346 87336 net.cpp:159] Memory required for data: 393012200
I0115 01:05:43.499348 87336 layer_factory.hpp:77] Creating layer inception_5a/3x3
I0115 01:05:43.499356 87336 net.cpp:94] Creating Layer inception_5a/3x3
I0115 01:05:43.499362 87336 net.cpp:435] inception_5a/3x3 <- downsample_4/output_downsample_4/output_0_split_1
I0115 01:05:43.499367 87336 net.cpp:409] inception_5a/3x3 -> inception_5a/3x3
I0115 01:05:43.499944 87336 net.cpp:144] Setting up inception_5a/3x3
I0115 01:05:43.499951 87336 net.cpp:151] Top shape: 50 48 16 16 (614400)
I0115 01:05:43.499954 87336 net.cpp:159] Memory required for data: 395469800
I0115 01:05:43.499966 87336 layer_factory.hpp:77] Creating layer inception_5a/3x3/bn1
I0115 01:05:43.499974 87336 net.cpp:94] Creating Layer inception_5a/3x3/bn1
I0115 01:05:43.499977 87336 net.cpp:435] inception_5a/3x3/bn1 <- inception_5a/3x3
I0115 01:05:43.499984 87336 net.cpp:396] inception_5a/3x3/bn1 -> inception_5a/3x3 (in-place)
I0115 01:05:43.500017 87336 net.cpp:144] Setting up inception_5a/3x3/bn1
I0115 01:05:43.500022 87336 net.cpp:151] Top shape: 50 48 16 16 (614400)
I0115 01:05:43.500025 87336 net.cpp:159] Memory required for data: 397927400
I0115 01:05:43.500032 87336 layer_factory.hpp:77] Creating layer inception_5a/3x3/scale1
I0115 01:05:43.500038 87336 net.cpp:94] Creating Layer inception_5a/3x3/scale1
I0115 01:05:43.500041 87336 net.cpp:435] inception_5a/3x3/scale1 <- inception_5a/3x3
I0115 01:05:43.500046 87336 net.cpp:396] inception_5a/3x3/scale1 -> inception_5a/3x3 (in-place)
I0115 01:05:43.500053 87336 layer_factory.hpp:77] Creating layer inception_5a/3x3/scale1
I0115 01:05:43.500068 87336 net.cpp:144] Setting up inception_5a/3x3/scale1
I0115 01:05:43.500073 87336 net.cpp:151] Top shape: 50 48 16 16 (614400)
I0115 01:05:43.500075 87336 net.cpp:159] Memory required for data: 400385000
I0115 01:05:43.500080 87336 layer_factory.hpp:77] Creating layer inception_5a/3x3/relu1
I0115 01:05:43.500084 87336 net.cpp:94] Creating Layer inception_5a/3x3/relu1
I0115 01:05:43.500087 87336 net.cpp:435] inception_5a/3x3/relu1 <- inception_5a/3x3
I0115 01:05:43.500090 87336 net.cpp:396] inception_5a/3x3/relu1 -> inception_5a/3x3 (in-place)
I0115 01:05:43.500095 87336 net.cpp:144] Setting up inception_5a/3x3/relu1
I0115 01:05:43.500099 87336 net.cpp:151] Top shape: 50 48 16 16 (614400)
I0115 01:05:43.500102 87336 net.cpp:159] Memory required for data: 402842600
I0115 01:05:43.500104 87336 layer_factory.hpp:77] Creating layer inception_5a/output
I0115 01:05:43.500110 87336 net.cpp:94] Creating Layer inception_5a/output
I0115 01:05:43.500113 87336 net.cpp:435] inception_5a/output <- inception_5a/1x1
I0115 01:05:43.500116 87336 net.cpp:435] inception_5a/output <- inception_5a/3x3
I0115 01:05:43.500121 87336 net.cpp:409] inception_5a/output -> inception_5a/output
I0115 01:05:43.500129 87336 net.cpp:144] Setting up inception_5a/output
I0115 01:05:43.500133 87336 net.cpp:151] Top shape: 50 160 16 16 (2048000)
I0115 01:05:43.500135 87336 net.cpp:159] Memory required for data: 411034600
I0115 01:05:43.500139 87336 layer_factory.hpp:77] Creating layer inception_5a/output_inception_5a/output_0_split
I0115 01:05:43.500144 87336 net.cpp:94] Creating Layer inception_5a/output_inception_5a/output_0_split
I0115 01:05:43.500147 87336 net.cpp:435] inception_5a/output_inception_5a/output_0_split <- inception_5a/output
I0115 01:05:43.500152 87336 net.cpp:409] inception_5a/output_inception_5a/output_0_split -> inception_5a/output_inception_5a/output_0_split_0
I0115 01:05:43.500166 87336 net.cpp:409] inception_5a/output_inception_5a/output_0_split -> inception_5a/output_inception_5a/output_0_split_1
I0115 01:05:43.500174 87336 net.cpp:144] Setting up inception_5a/output_inception_5a/output_0_split
I0115 01:05:43.500177 87336 net.cpp:151] Top shape: 50 160 16 16 (2048000)
I0115 01:05:43.500180 87336 net.cpp:151] Top shape: 50 160 16 16 (2048000)
I0115 01:05:43.500190 87336 net.cpp:159] Memory required for data: 427418600
I0115 01:05:43.500192 87336 layer_factory.hpp:77] Creating layer inception_6a/1x1
I0115 01:05:43.500200 87336 net.cpp:94] Creating Layer inception_6a/1x1
I0115 01:05:43.500203 87336 net.cpp:435] inception_6a/1x1 <- inception_5a/output_inception_5a/output_0_split_0
I0115 01:05:43.500211 87336 net.cpp:409] inception_6a/1x1 -> inception_6a/1x1
I0115 01:05:43.500358 87336 net.cpp:144] Setting up inception_6a/1x1
I0115 01:05:43.500365 87336 net.cpp:151] Top shape: 50 96 16 16 (1228800)
I0115 01:05:43.500366 87336 net.cpp:159] Memory required for data: 432333800
I0115 01:05:43.500371 87336 layer_factory.hpp:77] Creating layer inception_6a/1x1/bn1
I0115 01:05:43.500378 87336 net.cpp:94] Creating Layer inception_6a/1x1/bn1
I0115 01:05:43.500385 87336 net.cpp:435] inception_6a/1x1/bn1 <- inception_6a/1x1
I0115 01:05:43.500388 87336 net.cpp:396] inception_6a/1x1/bn1 -> inception_6a/1x1 (in-place)
I0115 01:05:43.500423 87336 net.cpp:144] Setting up inception_6a/1x1/bn1
I0115 01:05:43.500429 87336 net.cpp:151] Top shape: 50 96 16 16 (1228800)
I0115 01:05:43.500432 87336 net.cpp:159] Memory required for data: 437249000
I0115 01:05:43.500438 87336 layer_factory.hpp:77] Creating layer inception_6a/1x1/scale1
I0115 01:05:43.500443 87336 net.cpp:94] Creating Layer inception_6a/1x1/scale1
I0115 01:05:43.500448 87336 net.cpp:435] inception_6a/1x1/scale1 <- inception_6a/1x1
I0115 01:05:43.500454 87336 net.cpp:396] inception_6a/1x1/scale1 -> inception_6a/1x1 (in-place)
I0115 01:05:43.500461 87336 layer_factory.hpp:77] Creating layer inception_6a/1x1/scale1
I0115 01:05:43.500474 87336 net.cpp:144] Setting up inception_6a/1x1/scale1
I0115 01:05:43.500480 87336 net.cpp:151] Top shape: 50 96 16 16 (1228800)
I0115 01:05:43.500483 87336 net.cpp:159] Memory required for data: 442164200
I0115 01:05:43.500486 87336 layer_factory.hpp:77] Creating layer inception_6a/1x1/relu1
I0115 01:05:43.500490 87336 net.cpp:94] Creating Layer inception_6a/1x1/relu1
I0115 01:05:43.500494 87336 net.cpp:435] inception_6a/1x1/relu1 <- inception_6a/1x1
I0115 01:05:43.500497 87336 net.cpp:396] inception_6a/1x1/relu1 -> inception_6a/1x1 (in-place)
I0115 01:05:43.500502 87336 net.cpp:144] Setting up inception_6a/1x1/relu1
I0115 01:05:43.500505 87336 net.cpp:151] Top shape: 50 96 16 16 (1228800)
I0115 01:05:43.500509 87336 net.cpp:159] Memory required for data: 447079400
I0115 01:05:43.500511 87336 layer_factory.hpp:77] Creating layer inception_6a/3x3
I0115 01:05:43.500519 87336 net.cpp:94] Creating Layer inception_6a/3x3
I0115 01:05:43.500524 87336 net.cpp:435] inception_6a/3x3 <- inception_5a/output_inception_5a/output_0_split_1
I0115 01:05:43.500528 87336 net.cpp:409] inception_6a/3x3 -> inception_6a/3x3
I0115 01:05:43.501292 87336 net.cpp:144] Setting up inception_6a/3x3
I0115 01:05:43.501299 87336 net.cpp:151] Top shape: 50 64 16 16 (819200)
I0115 01:05:43.501302 87336 net.cpp:159] Memory required for data: 450356200
I0115 01:05:43.501307 87336 layer_factory.hpp:77] Creating layer inception_6a/3x3/bn1
I0115 01:05:43.501315 87336 net.cpp:94] Creating Layer inception_6a/3x3/bn1
I0115 01:05:43.501319 87336 net.cpp:435] inception_6a/3x3/bn1 <- inception_6a/3x3
I0115 01:05:43.501327 87336 net.cpp:396] inception_6a/3x3/bn1 -> inception_6a/3x3 (in-place)
I0115 01:05:43.501358 87336 net.cpp:144] Setting up inception_6a/3x3/bn1
I0115 01:05:43.501363 87336 net.cpp:151] Top shape: 50 64 16 16 (819200)
I0115 01:05:43.501365 87336 net.cpp:159] Memory required for data: 453633000
I0115 01:05:43.501372 87336 layer_factory.hpp:77] Creating layer inception_6a/3x3/scale1
I0115 01:05:43.501379 87336 net.cpp:94] Creating Layer inception_6a/3x3/scale1
I0115 01:05:43.501391 87336 net.cpp:435] inception_6a/3x3/scale1 <- inception_6a/3x3
I0115 01:05:43.501397 87336 net.cpp:396] inception_6a/3x3/scale1 -> inception_6a/3x3 (in-place)
I0115 01:05:43.501405 87336 layer_factory.hpp:77] Creating layer inception_6a/3x3/scale1
I0115 01:05:43.501421 87336 net.cpp:144] Setting up inception_6a/3x3/scale1
I0115 01:05:43.501426 87336 net.cpp:151] Top shape: 50 64 16 16 (819200)
I0115 01:05:43.501430 87336 net.cpp:159] Memory required for data: 456909800
I0115 01:05:43.501433 87336 layer_factory.hpp:77] Creating layer inception_6a/3x3/relu1
I0115 01:05:43.501438 87336 net.cpp:94] Creating Layer inception_6a/3x3/relu1
I0115 01:05:43.501441 87336 net.cpp:435] inception_6a/3x3/relu1 <- inception_6a/3x3
I0115 01:05:43.501446 87336 net.cpp:396] inception_6a/3x3/relu1 -> inception_6a/3x3 (in-place)
I0115 01:05:43.501454 87336 net.cpp:144] Setting up inception_6a/3x3/relu1
I0115 01:05:43.501458 87336 net.cpp:151] Top shape: 50 64 16 16 (819200)
I0115 01:05:43.501461 87336 net.cpp:159] Memory required for data: 460186600
I0115 01:05:43.501463 87336 layer_factory.hpp:77] Creating layer inception_6a/output
I0115 01:05:43.501467 87336 net.cpp:94] Creating Layer inception_6a/output
I0115 01:05:43.501471 87336 net.cpp:435] inception_6a/output <- inception_6a/1x1
I0115 01:05:43.501474 87336 net.cpp:435] inception_6a/output <- inception_6a/3x3
I0115 01:05:43.501479 87336 net.cpp:409] inception_6a/output -> inception_6a/output
I0115 01:05:43.501485 87336 net.cpp:144] Setting up inception_6a/output
I0115 01:05:43.501492 87336 net.cpp:151] Top shape: 50 160 16 16 (2048000)
I0115 01:05:43.501494 87336 net.cpp:159] Memory required for data: 468378600
I0115 01:05:43.501497 87336 layer_factory.hpp:77] Creating layer inception_6a/output_inception_6a/output_0_split
I0115 01:05:43.501500 87336 net.cpp:94] Creating Layer inception_6a/output_inception_6a/output_0_split
I0115 01:05:43.501503 87336 net.cpp:435] inception_6a/output_inception_6a/output_0_split <- inception_6a/output
I0115 01:05:43.501509 87336 net.cpp:409] inception_6a/output_inception_6a/output_0_split -> inception_6a/output_inception_6a/output_0_split_0
I0115 01:05:43.501518 87336 net.cpp:409] inception_6a/output_inception_6a/output_0_split -> inception_6a/output_inception_6a/output_0_split_1
I0115 01:05:43.501525 87336 net.cpp:144] Setting up inception_6a/output_inception_6a/output_0_split
I0115 01:05:43.501530 87336 net.cpp:151] Top shape: 50 160 16 16 (2048000)
I0115 01:05:43.501533 87336 net.cpp:151] Top shape: 50 160 16 16 (2048000)
I0115 01:05:43.501536 87336 net.cpp:159] Memory required for data: 484762600
I0115 01:05:43.501539 87336 layer_factory.hpp:77] Creating layer inception_7a/1x1
I0115 01:05:43.501547 87336 net.cpp:94] Creating Layer inception_7a/1x1
I0115 01:05:43.501552 87336 net.cpp:435] inception_7a/1x1 <- inception_6a/output_inception_6a/output_0_split_0
I0115 01:05:43.501557 87336 net.cpp:409] inception_7a/1x1 -> inception_7a/1x1
I0115 01:05:43.501679 87336 net.cpp:144] Setting up inception_7a/1x1
I0115 01:05:43.501686 87336 net.cpp:151] Top shape: 50 80 16 16 (1024000)
I0115 01:05:43.501688 87336 net.cpp:159] Memory required for data: 488858600
I0115 01:05:43.501693 87336 layer_factory.hpp:77] Creating layer inception_7a/1x1/bn1
I0115 01:05:43.501701 87336 net.cpp:94] Creating Layer inception_7a/1x1/bn1
I0115 01:05:43.501708 87336 net.cpp:435] inception_7a/1x1/bn1 <- inception_7a/1x1
I0115 01:05:43.501713 87336 net.cpp:396] inception_7a/1x1/bn1 -> inception_7a/1x1 (in-place)
I0115 01:05:43.501746 87336 net.cpp:144] Setting up inception_7a/1x1/bn1
I0115 01:05:43.501754 87336 net.cpp:151] Top shape: 50 80 16 16 (1024000)
I0115 01:05:43.501757 87336 net.cpp:159] Memory required for data: 492954600
I0115 01:05:43.501766 87336 layer_factory.hpp:77] Creating layer inception_7a/1x1/scale1
I0115 01:05:43.501772 87336 net.cpp:94] Creating Layer inception_7a/1x1/scale1
I0115 01:05:43.501776 87336 net.cpp:435] inception_7a/1x1/scale1 <- inception_7a/1x1
I0115 01:05:43.501782 87336 net.cpp:396] inception_7a/1x1/scale1 -> inception_7a/1x1 (in-place)
I0115 01:05:43.501797 87336 layer_factory.hpp:77] Creating layer inception_7a/1x1/scale1
I0115 01:05:43.501813 87336 net.cpp:144] Setting up inception_7a/1x1/scale1
I0115 01:05:43.501818 87336 net.cpp:151] Top shape: 50 80 16 16 (1024000)
I0115 01:05:43.501821 87336 net.cpp:159] Memory required for data: 497050600
I0115 01:05:43.501826 87336 layer_factory.hpp:77] Creating layer inception_7a/1x1/relu1
I0115 01:05:43.501830 87336 net.cpp:94] Creating Layer inception_7a/1x1/relu1
I0115 01:05:43.501833 87336 net.cpp:435] inception_7a/1x1/relu1 <- inception_7a/1x1
I0115 01:05:43.501838 87336 net.cpp:396] inception_7a/1x1/relu1 -> inception_7a/1x1 (in-place)
I0115 01:05:43.501842 87336 net.cpp:144] Setting up inception_7a/1x1/relu1
I0115 01:05:43.501847 87336 net.cpp:151] Top shape: 50 80 16 16 (1024000)
I0115 01:05:43.501848 87336 net.cpp:159] Memory required for data: 501146600
I0115 01:05:43.501852 87336 layer_factory.hpp:77] Creating layer inception_7a/3x3
I0115 01:05:43.501859 87336 net.cpp:94] Creating Layer inception_7a/3x3
I0115 01:05:43.501863 87336 net.cpp:435] inception_7a/3x3 <- inception_6a/output_inception_6a/output_0_split_1
I0115 01:05:43.501868 87336 net.cpp:409] inception_7a/3x3 -> inception_7a/3x3
I0115 01:05:43.502817 87336 net.cpp:144] Setting up inception_7a/3x3
I0115 01:05:43.502826 87336 net.cpp:151] Top shape: 50 80 16 16 (1024000)
I0115 01:05:43.502830 87336 net.cpp:159] Memory required for data: 505242600
I0115 01:05:43.502835 87336 layer_factory.hpp:77] Creating layer inception_7a/3x3/bn1
I0115 01:05:43.502847 87336 net.cpp:94] Creating Layer inception_7a/3x3/bn1
I0115 01:05:43.502852 87336 net.cpp:435] inception_7a/3x3/bn1 <- inception_7a/3x3
I0115 01:05:43.502856 87336 net.cpp:396] inception_7a/3x3/bn1 -> inception_7a/3x3 (in-place)
I0115 01:05:43.502890 87336 net.cpp:144] Setting up inception_7a/3x3/bn1
I0115 01:05:43.502895 87336 net.cpp:151] Top shape: 50 80 16 16 (1024000)
I0115 01:05:43.502898 87336 net.cpp:159] Memory required for data: 509338600
I0115 01:05:43.502905 87336 layer_factory.hpp:77] Creating layer inception_7a/3x3/scale1
I0115 01:05:43.502910 87336 net.cpp:94] Creating Layer inception_7a/3x3/scale1
I0115 01:05:43.502915 87336 net.cpp:435] inception_7a/3x3/scale1 <- inception_7a/3x3
I0115 01:05:43.502920 87336 net.cpp:396] inception_7a/3x3/scale1 -> inception_7a/3x3 (in-place)
I0115 01:05:43.502928 87336 layer_factory.hpp:77] Creating layer inception_7a/3x3/scale1
I0115 01:05:43.502941 87336 net.cpp:144] Setting up inception_7a/3x3/scale1
I0115 01:05:43.502946 87336 net.cpp:151] Top shape: 50 80 16 16 (1024000)
I0115 01:05:43.502949 87336 net.cpp:159] Memory required for data: 513434600
I0115 01:05:43.502954 87336 layer_factory.hpp:77] Creating layer inception_7a/3x3/relu1
I0115 01:05:43.502957 87336 net.cpp:94] Creating Layer inception_7a/3x3/relu1
I0115 01:05:43.502960 87336 net.cpp:435] inception_7a/3x3/relu1 <- inception_7a/3x3
I0115 01:05:43.502964 87336 net.cpp:396] inception_7a/3x3/relu1 -> inception_7a/3x3 (in-place)
I0115 01:05:43.502969 87336 net.cpp:144] Setting up inception_7a/3x3/relu1
I0115 01:05:43.502972 87336 net.cpp:151] Top shape: 50 80 16 16 (1024000)
I0115 01:05:43.502975 87336 net.cpp:159] Memory required for data: 517530600
I0115 01:05:43.502979 87336 layer_factory.hpp:77] Creating layer inception_7a/output
I0115 01:05:43.502984 87336 net.cpp:94] Creating Layer inception_7a/output
I0115 01:05:43.502986 87336 net.cpp:435] inception_7a/output <- inception_7a/1x1
I0115 01:05:43.502990 87336 net.cpp:435] inception_7a/output <- inception_7a/3x3
I0115 01:05:43.502995 87336 net.cpp:409] inception_7a/output -> inception_7a/output
I0115 01:05:43.503000 87336 net.cpp:144] Setting up inception_7a/output
I0115 01:05:43.503005 87336 net.cpp:151] Top shape: 50 160 16 16 (2048000)
I0115 01:05:43.503007 87336 net.cpp:159] Memory required for data: 525722600
I0115 01:05:43.503010 87336 layer_factory.hpp:77] Creating layer inception_7a/output_inception_7a/output_0_split
I0115 01:05:43.503013 87336 net.cpp:94] Creating Layer inception_7a/output_inception_7a/output_0_split
I0115 01:05:43.503026 87336 net.cpp:435] inception_7a/output_inception_7a/output_0_split <- inception_7a/output
I0115 01:05:43.503032 87336 net.cpp:409] inception_7a/output_inception_7a/output_0_split -> inception_7a/output_inception_7a/output_0_split_0
I0115 01:05:43.503039 87336 net.cpp:409] inception_7a/output_inception_7a/output_0_split -> inception_7a/output_inception_7a/output_0_split_1
I0115 01:05:43.503047 87336 net.cpp:144] Setting up inception_7a/output_inception_7a/output_0_split
I0115 01:05:43.503051 87336 net.cpp:151] Top shape: 50 160 16 16 (2048000)
I0115 01:05:43.503054 87336 net.cpp:151] Top shape: 50 160 16 16 (2048000)
I0115 01:05:43.503057 87336 net.cpp:159] Memory required for data: 542106600
I0115 01:05:43.503059 87336 layer_factory.hpp:77] Creating layer inception_8a/1x1
I0115 01:05:43.503072 87336 net.cpp:94] Creating Layer inception_8a/1x1
I0115 01:05:43.503077 87336 net.cpp:435] inception_8a/1x1 <- inception_7a/output_inception_7a/output_0_split_0
I0115 01:05:43.503083 87336 net.cpp:409] inception_8a/1x1 -> inception_8a/1x1
I0115 01:05:43.503165 87336 net.cpp:144] Setting up inception_8a/1x1
I0115 01:05:43.503170 87336 net.cpp:151] Top shape: 50 48 16 16 (614400)
I0115 01:05:43.503172 87336 net.cpp:159] Memory required for data: 544564200
I0115 01:05:43.503177 87336 layer_factory.hpp:77] Creating layer inception_8a/1x1/bn1
I0115 01:05:43.503183 87336 net.cpp:94] Creating Layer inception_8a/1x1/bn1
I0115 01:05:43.503186 87336 net.cpp:435] inception_8a/1x1/bn1 <- inception_8a/1x1
I0115 01:05:43.503192 87336 net.cpp:396] inception_8a/1x1/bn1 -> inception_8a/1x1 (in-place)
I0115 01:05:43.503232 87336 net.cpp:144] Setting up inception_8a/1x1/bn1
I0115 01:05:43.503238 87336 net.cpp:151] Top shape: 50 48 16 16 (614400)
I0115 01:05:43.503240 87336 net.cpp:159] Memory required for data: 547021800
I0115 01:05:43.503248 87336 layer_factory.hpp:77] Creating layer inception_8a/1x1/scale1
I0115 01:05:43.503254 87336 net.cpp:94] Creating Layer inception_8a/1x1/scale1
I0115 01:05:43.503258 87336 net.cpp:435] inception_8a/1x1/scale1 <- inception_8a/1x1
I0115 01:05:43.503262 87336 net.cpp:396] inception_8a/1x1/scale1 -> inception_8a/1x1 (in-place)
I0115 01:05:43.503270 87336 layer_factory.hpp:77] Creating layer inception_8a/1x1/scale1
I0115 01:05:43.503286 87336 net.cpp:144] Setting up inception_8a/1x1/scale1
I0115 01:05:43.503293 87336 net.cpp:151] Top shape: 50 48 16 16 (614400)
I0115 01:05:43.503295 87336 net.cpp:159] Memory required for data: 549479400
I0115 01:05:43.503300 87336 layer_factory.hpp:77] Creating layer inception_8a/1x1/relu1
I0115 01:05:43.503304 87336 net.cpp:94] Creating Layer inception_8a/1x1/relu1
I0115 01:05:43.503306 87336 net.cpp:435] inception_8a/1x1/relu1 <- inception_8a/1x1
I0115 01:05:43.503310 87336 net.cpp:396] inception_8a/1x1/relu1 -> inception_8a/1x1 (in-place)
I0115 01:05:43.503316 87336 net.cpp:144] Setting up inception_8a/1x1/relu1
I0115 01:05:43.503322 87336 net.cpp:151] Top shape: 50 48 16 16 (614400)
I0115 01:05:43.503324 87336 net.cpp:159] Memory required for data: 551937000
I0115 01:05:43.503326 87336 layer_factory.hpp:77] Creating layer inception_8a/3x3
I0115 01:05:43.503334 87336 net.cpp:94] Creating Layer inception_8a/3x3
I0115 01:05:43.503340 87336 net.cpp:435] inception_8a/3x3 <- inception_7a/output_inception_7a/output_0_split_1
I0115 01:05:43.503345 87336 net.cpp:409] inception_8a/3x3 -> inception_8a/3x3
I0115 01:05:43.504485 87336 net.cpp:144] Setting up inception_8a/3x3
I0115 01:05:43.504494 87336 net.cpp:151] Top shape: 50 96 16 16 (1228800)
I0115 01:05:43.504498 87336 net.cpp:159] Memory required for data: 556852200
I0115 01:05:43.504503 87336 layer_factory.hpp:77] Creating layer inception_8a/3x3/bn1
I0115 01:05:43.504508 87336 net.cpp:94] Creating Layer inception_8a/3x3/bn1
I0115 01:05:43.504513 87336 net.cpp:435] inception_8a/3x3/bn1 <- inception_8a/3x3
I0115 01:05:43.504518 87336 net.cpp:396] inception_8a/3x3/bn1 -> inception_8a/3x3 (in-place)
I0115 01:05:43.504555 87336 net.cpp:144] Setting up inception_8a/3x3/bn1
I0115 01:05:43.504568 87336 net.cpp:151] Top shape: 50 96 16 16 (1228800)
I0115 01:05:43.504571 87336 net.cpp:159] Memory required for data: 561767400
I0115 01:05:43.504578 87336 layer_factory.hpp:77] Creating layer inception_8a/3x3/scale1
I0115 01:05:43.504585 87336 net.cpp:94] Creating Layer inception_8a/3x3/scale1
I0115 01:05:43.504588 87336 net.cpp:435] inception_8a/3x3/scale1 <- inception_8a/3x3
I0115 01:05:43.504593 87336 net.cpp:396] inception_8a/3x3/scale1 -> inception_8a/3x3 (in-place)
I0115 01:05:43.504602 87336 layer_factory.hpp:77] Creating layer inception_8a/3x3/scale1
I0115 01:05:43.504618 87336 net.cpp:144] Setting up inception_8a/3x3/scale1
I0115 01:05:43.504623 87336 net.cpp:151] Top shape: 50 96 16 16 (1228800)
I0115 01:05:43.504626 87336 net.cpp:159] Memory required for data: 566682600
I0115 01:05:43.504631 87336 layer_factory.hpp:77] Creating layer inception_8a/3x3/relu1
I0115 01:05:43.504634 87336 net.cpp:94] Creating Layer inception_8a/3x3/relu1
I0115 01:05:43.504637 87336 net.cpp:435] inception_8a/3x3/relu1 <- inception_8a/3x3
I0115 01:05:43.504642 87336 net.cpp:396] inception_8a/3x3/relu1 -> inception_8a/3x3 (in-place)
I0115 01:05:43.504645 87336 net.cpp:144] Setting up inception_8a/3x3/relu1
I0115 01:05:43.504649 87336 net.cpp:151] Top shape: 50 96 16 16 (1228800)
I0115 01:05:43.504652 87336 net.cpp:159] Memory required for data: 571597800
I0115 01:05:43.504654 87336 layer_factory.hpp:77] Creating layer inception_8a/output
I0115 01:05:43.504658 87336 net.cpp:94] Creating Layer inception_8a/output
I0115 01:05:43.504662 87336 net.cpp:435] inception_8a/output <- inception_8a/1x1
I0115 01:05:43.504664 87336 net.cpp:435] inception_8a/output <- inception_8a/3x3
I0115 01:05:43.504671 87336 net.cpp:409] inception_8a/output -> inception_8a/output
I0115 01:05:43.504678 87336 net.cpp:144] Setting up inception_8a/output
I0115 01:05:43.504681 87336 net.cpp:151] Top shape: 50 144 16 16 (1843200)
I0115 01:05:43.504683 87336 net.cpp:159] Memory required for data: 578970600
I0115 01:05:43.504686 87336 layer_factory.hpp:77] Creating layer inception_8a/output_inception_8a/output_0_split
I0115 01:05:43.504690 87336 net.cpp:94] Creating Layer inception_8a/output_inception_8a/output_0_split
I0115 01:05:43.504693 87336 net.cpp:435] inception_8a/output_inception_8a/output_0_split <- inception_8a/output
I0115 01:05:43.504698 87336 net.cpp:409] inception_8a/output_inception_8a/output_0_split -> inception_8a/output_inception_8a/output_0_split_0
I0115 01:05:43.504704 87336 net.cpp:409] inception_8a/output_inception_8a/output_0_split -> inception_8a/output_inception_8a/output_0_split_1
I0115 01:05:43.504710 87336 net.cpp:144] Setting up inception_8a/output_inception_8a/output_0_split
I0115 01:05:43.504714 87336 net.cpp:151] Top shape: 50 144 16 16 (1843200)
I0115 01:05:43.504717 87336 net.cpp:151] Top shape: 50 144 16 16 (1843200)
I0115 01:05:43.504720 87336 net.cpp:159] Memory required for data: 593716200
I0115 01:05:43.504724 87336 layer_factory.hpp:77] Creating layer downsample_9/3x3_s2
I0115 01:05:43.504734 87336 net.cpp:94] Creating Layer downsample_9/3x3_s2
I0115 01:05:43.504737 87336 net.cpp:435] downsample_9/3x3_s2 <- inception_8a/output_inception_8a/output_0_split_0
I0115 01:05:43.504745 87336 net.cpp:409] downsample_9/3x3_s2 -> downsample_9/3x3_s2
I0115 01:05:43.505767 87336 net.cpp:144] Setting up downsample_9/3x3_s2
I0115 01:05:43.505776 87336 net.cpp:151] Top shape: 50 96 8 8 (307200)
I0115 01:05:43.505779 87336 net.cpp:159] Memory required for data: 594945000
I0115 01:05:43.505785 87336 layer_factory.hpp:77] Creating layer downsample_9/3x3_s2/bn1
I0115 01:05:43.505792 87336 net.cpp:94] Creating Layer downsample_9/3x3_s2/bn1
I0115 01:05:43.505795 87336 net.cpp:435] downsample_9/3x3_s2/bn1 <- downsample_9/3x3_s2
I0115 01:05:43.505800 87336 net.cpp:396] downsample_9/3x3_s2/bn1 -> downsample_9/3x3_s2 (in-place)
I0115 01:05:43.505836 87336 net.cpp:144] Setting up downsample_9/3x3_s2/bn1
I0115 01:05:43.505842 87336 net.cpp:151] Top shape: 50 96 8 8 (307200)
I0115 01:05:43.505844 87336 net.cpp:159] Memory required for data: 596173800
I0115 01:05:43.505868 87336 layer_factory.hpp:77] Creating layer downsample_9/3x3_s2/scale1
I0115 01:05:43.505877 87336 net.cpp:94] Creating Layer downsample_9/3x3_s2/scale1
I0115 01:05:43.505880 87336 net.cpp:435] downsample_9/3x3_s2/scale1 <- downsample_9/3x3_s2
I0115 01:05:43.505884 87336 net.cpp:396] downsample_9/3x3_s2/scale1 -> downsample_9/3x3_s2 (in-place)
I0115 01:05:43.505893 87336 layer_factory.hpp:77] Creating layer downsample_9/3x3_s2/scale1
I0115 01:05:43.505908 87336 net.cpp:144] Setting up downsample_9/3x3_s2/scale1
I0115 01:05:43.505913 87336 net.cpp:151] Top shape: 50 96 8 8 (307200)
I0115 01:05:43.505918 87336 net.cpp:159] Memory required for data: 597402600
I0115 01:05:43.505923 87336 layer_factory.hpp:77] Creating layer downsample_9/3x3_s2/relu1
I0115 01:05:43.505929 87336 net.cpp:94] Creating Layer downsample_9/3x3_s2/relu1
I0115 01:05:43.505934 87336 net.cpp:435] downsample_9/3x3_s2/relu1 <- downsample_9/3x3_s2
I0115 01:05:43.505939 87336 net.cpp:396] downsample_9/3x3_s2/relu1 -> downsample_9/3x3_s2 (in-place)
I0115 01:05:43.505944 87336 net.cpp:144] Setting up downsample_9/3x3_s2/relu1
I0115 01:05:43.505950 87336 net.cpp:151] Top shape: 50 96 8 8 (307200)
I0115 01:05:43.505954 87336 net.cpp:159] Memory required for data: 598631400
I0115 01:05:43.505955 87336 layer_factory.hpp:77] Creating layer downsample_9/pool_s2
I0115 01:05:43.505960 87336 net.cpp:94] Creating Layer downsample_9/pool_s2
I0115 01:05:43.505964 87336 net.cpp:435] downsample_9/pool_s2 <- inception_8a/output_inception_8a/output_0_split_1
I0115 01:05:43.505971 87336 net.cpp:409] downsample_9/pool_s2 -> downsample_9/pool_s2
I0115 01:05:43.505981 87336 net.cpp:144] Setting up downsample_9/pool_s2
I0115 01:05:43.505986 87336 net.cpp:151] Top shape: 50 144 8 8 (460800)
I0115 01:05:43.505990 87336 net.cpp:159] Memory required for data: 600474600
I0115 01:05:43.505992 87336 layer_factory.hpp:77] Creating layer downsample_9/output
I0115 01:05:43.505997 87336 net.cpp:94] Creating Layer downsample_9/output
I0115 01:05:43.506000 87336 net.cpp:435] downsample_9/output <- downsample_9/3x3_s2
I0115 01:05:43.506005 87336 net.cpp:435] downsample_9/output <- downsample_9/pool_s2
I0115 01:05:43.506011 87336 net.cpp:409] downsample_9/output -> downsample_9/output
I0115 01:05:43.506016 87336 net.cpp:144] Setting up downsample_9/output
I0115 01:05:43.506022 87336 net.cpp:151] Top shape: 50 240 8 8 (768000)
I0115 01:05:43.506026 87336 net.cpp:159] Memory required for data: 603546600
I0115 01:05:43.506028 87336 layer_factory.hpp:77] Creating layer downsample_9/output_downsample_9/output_0_split
I0115 01:05:43.506033 87336 net.cpp:94] Creating Layer downsample_9/output_downsample_9/output_0_split
I0115 01:05:43.506036 87336 net.cpp:435] downsample_9/output_downsample_9/output_0_split <- downsample_9/output
I0115 01:05:43.506042 87336 net.cpp:409] downsample_9/output_downsample_9/output_0_split -> downsample_9/output_downsample_9/output_0_split_0
I0115 01:05:43.506047 87336 net.cpp:409] downsample_9/output_downsample_9/output_0_split -> downsample_9/output_downsample_9/output_0_split_1
I0115 01:05:43.506055 87336 net.cpp:144] Setting up downsample_9/output_downsample_9/output_0_split
I0115 01:05:43.506059 87336 net.cpp:151] Top shape: 50 240 8 8 (768000)
I0115 01:05:43.506062 87336 net.cpp:151] Top shape: 50 240 8 8 (768000)
I0115 01:05:43.506065 87336 net.cpp:159] Memory required for data: 609690600
I0115 01:05:43.506068 87336 layer_factory.hpp:77] Creating layer inception_10a/1x1
I0115 01:05:43.506075 87336 net.cpp:94] Creating Layer inception_10a/1x1
I0115 01:05:43.506080 87336 net.cpp:435] inception_10a/1x1 <- downsample_9/output_downsample_9/output_0_split_0
I0115 01:05:43.506086 87336 net.cpp:409] inception_10a/1x1 -> inception_10a/1x1
I0115 01:05:43.506453 87336 net.cpp:144] Setting up inception_10a/1x1
I0115 01:05:43.506458 87336 net.cpp:151] Top shape: 50 176 8 8 (563200)
I0115 01:05:43.506461 87336 net.cpp:159] Memory required for data: 611943400
I0115 01:05:43.506466 87336 layer_factory.hpp:77] Creating layer inception_10a/1x1/bn1
I0115 01:05:43.506480 87336 net.cpp:94] Creating Layer inception_10a/1x1/bn1
I0115 01:05:43.506484 87336 net.cpp:435] inception_10a/1x1/bn1 <- inception_10a/1x1
I0115 01:05:43.506490 87336 net.cpp:396] inception_10a/1x1/bn1 -> inception_10a/1x1 (in-place)
I0115 01:05:43.506526 87336 net.cpp:144] Setting up inception_10a/1x1/bn1
I0115 01:05:43.506533 87336 net.cpp:151] Top shape: 50 176 8 8 (563200)
I0115 01:05:43.506536 87336 net.cpp:159] Memory required for data: 614196200
I0115 01:05:43.506543 87336 layer_factory.hpp:77] Creating layer inception_10a/1x1/scale1
I0115 01:05:43.506548 87336 net.cpp:94] Creating Layer inception_10a/1x1/scale1
I0115 01:05:43.506551 87336 net.cpp:435] inception_10a/1x1/scale1 <- inception_10a/1x1
I0115 01:05:43.506556 87336 net.cpp:396] inception_10a/1x1/scale1 -> inception_10a/1x1 (in-place)
I0115 01:05:43.506564 87336 layer_factory.hpp:77] Creating layer inception_10a/1x1/scale1
I0115 01:05:43.506579 87336 net.cpp:144] Setting up inception_10a/1x1/scale1
I0115 01:05:43.506585 87336 net.cpp:151] Top shape: 50 176 8 8 (563200)
I0115 01:05:43.506587 87336 net.cpp:159] Memory required for data: 616449000
I0115 01:05:43.506592 87336 layer_factory.hpp:77] Creating layer inception_10a/1x1/relu1
I0115 01:05:43.506597 87336 net.cpp:94] Creating Layer inception_10a/1x1/relu1
I0115 01:05:43.506599 87336 net.cpp:435] inception_10a/1x1/relu1 <- inception_10a/1x1
I0115 01:05:43.506604 87336 net.cpp:396] inception_10a/1x1/relu1 -> inception_10a/1x1 (in-place)
I0115 01:05:43.506609 87336 net.cpp:144] Setting up inception_10a/1x1/relu1
I0115 01:05:43.506613 87336 net.cpp:151] Top shape: 50 176 8 8 (563200)
I0115 01:05:43.506616 87336 net.cpp:159] Memory required for data: 618701800
I0115 01:05:43.506618 87336 layer_factory.hpp:77] Creating layer inception_10a/3x3
I0115 01:05:43.506626 87336 net.cpp:94] Creating Layer inception_10a/3x3
I0115 01:05:43.506629 87336 net.cpp:435] inception_10a/3x3 <- downsample_9/output_downsample_9/output_0_split_1
I0115 01:05:43.506635 87336 net.cpp:409] inception_10a/3x3 -> inception_10a/3x3
I0115 01:05:43.509330 87336 net.cpp:144] Setting up inception_10a/3x3
I0115 01:05:43.509341 87336 net.cpp:151] Top shape: 50 160 8 8 (512000)
I0115 01:05:43.509344 87336 net.cpp:159] Memory required for data: 620749800
I0115 01:05:43.509349 87336 layer_factory.hpp:77] Creating layer inception_10a/3x3/bn1
I0115 01:05:43.509357 87336 net.cpp:94] Creating Layer inception_10a/3x3/bn1
I0115 01:05:43.509363 87336 net.cpp:435] inception_10a/3x3/bn1 <- inception_10a/3x3
I0115 01:05:43.509369 87336 net.cpp:396] inception_10a/3x3/bn1 -> inception_10a/3x3 (in-place)
I0115 01:05:43.509405 87336 net.cpp:144] Setting up inception_10a/3x3/bn1
I0115 01:05:43.509410 87336 net.cpp:151] Top shape: 50 160 8 8 (512000)
I0115 01:05:43.509413 87336 net.cpp:159] Memory required for data: 622797800
I0115 01:05:43.509420 87336 layer_factory.hpp:77] Creating layer inception_10a/3x3/scale1
I0115 01:05:43.509425 87336 net.cpp:94] Creating Layer inception_10a/3x3/scale1
I0115 01:05:43.509428 87336 net.cpp:435] inception_10a/3x3/scale1 <- inception_10a/3x3
I0115 01:05:43.509434 87336 net.cpp:396] inception_10a/3x3/scale1 -> inception_10a/3x3 (in-place)
I0115 01:05:43.509443 87336 layer_factory.hpp:77] Creating layer inception_10a/3x3/scale1
I0115 01:05:43.509454 87336 net.cpp:144] Setting up inception_10a/3x3/scale1
I0115 01:05:43.509459 87336 net.cpp:151] Top shape: 50 160 8 8 (512000)
I0115 01:05:43.509464 87336 net.cpp:159] Memory required for data: 624845800
I0115 01:05:43.509467 87336 layer_factory.hpp:77] Creating layer inception_10a/3x3/relu1
I0115 01:05:43.509471 87336 net.cpp:94] Creating Layer inception_10a/3x3/relu1
I0115 01:05:43.509474 87336 net.cpp:435] inception_10a/3x3/relu1 <- inception_10a/3x3
I0115 01:05:43.509479 87336 net.cpp:396] inception_10a/3x3/relu1 -> inception_10a/3x3 (in-place)
I0115 01:05:43.509483 87336 net.cpp:144] Setting up inception_10a/3x3/relu1
I0115 01:05:43.509486 87336 net.cpp:151] Top shape: 50 160 8 8 (512000)
I0115 01:05:43.509490 87336 net.cpp:159] Memory required for data: 626893800
I0115 01:05:43.509501 87336 layer_factory.hpp:77] Creating layer inception_10a/output
I0115 01:05:43.509505 87336 net.cpp:94] Creating Layer inception_10a/output
I0115 01:05:43.509508 87336 net.cpp:435] inception_10a/output <- inception_10a/1x1
I0115 01:05:43.509512 87336 net.cpp:435] inception_10a/output <- inception_10a/3x3
I0115 01:05:43.509518 87336 net.cpp:409] inception_10a/output -> inception_10a/output
I0115 01:05:43.509526 87336 net.cpp:144] Setting up inception_10a/output
I0115 01:05:43.509529 87336 net.cpp:151] Top shape: 50 336 8 8 (1075200)
I0115 01:05:43.509531 87336 net.cpp:159] Memory required for data: 631194600
I0115 01:05:43.509536 87336 layer_factory.hpp:77] Creating layer inception_10a/output_inception_10a/output_0_split
I0115 01:05:43.509539 87336 net.cpp:94] Creating Layer inception_10a/output_inception_10a/output_0_split
I0115 01:05:43.509542 87336 net.cpp:435] inception_10a/output_inception_10a/output_0_split <- inception_10a/output
I0115 01:05:43.509547 87336 net.cpp:409] inception_10a/output_inception_10a/output_0_split -> inception_10a/output_inception_10a/output_0_split_0
I0115 01:05:43.509553 87336 net.cpp:409] inception_10a/output_inception_10a/output_0_split -> inception_10a/output_inception_10a/output_0_split_1
I0115 01:05:43.509562 87336 net.cpp:144] Setting up inception_10a/output_inception_10a/output_0_split
I0115 01:05:43.509567 87336 net.cpp:151] Top shape: 50 336 8 8 (1075200)
I0115 01:05:43.509570 87336 net.cpp:151] Top shape: 50 336 8 8 (1075200)
I0115 01:05:43.509573 87336 net.cpp:159] Memory required for data: 639796200
I0115 01:05:43.509575 87336 layer_factory.hpp:77] Creating layer inception_11a/1x1
I0115 01:05:43.509583 87336 net.cpp:94] Creating Layer inception_11a/1x1
I0115 01:05:43.509588 87336 net.cpp:435] inception_11a/1x1 <- inception_10a/output_inception_10a/output_0_split_0
I0115 01:05:43.509595 87336 net.cpp:409] inception_11a/1x1 -> inception_11a/1x1
I0115 01:05:43.510092 87336 net.cpp:144] Setting up inception_11a/1x1
I0115 01:05:43.510097 87336 net.cpp:151] Top shape: 50 176 8 8 (563200)
I0115 01:05:43.510100 87336 net.cpp:159] Memory required for data: 642049000
I0115 01:05:43.510105 87336 layer_factory.hpp:77] Creating layer inception_11a/1x1/bn1
I0115 01:05:43.510112 87336 net.cpp:94] Creating Layer inception_11a/1x1/bn1
I0115 01:05:43.510114 87336 net.cpp:435] inception_11a/1x1/bn1 <- inception_11a/1x1
I0115 01:05:43.510120 87336 net.cpp:396] inception_11a/1x1/bn1 -> inception_11a/1x1 (in-place)
I0115 01:05:43.510154 87336 net.cpp:144] Setting up inception_11a/1x1/bn1
I0115 01:05:43.510159 87336 net.cpp:151] Top shape: 50 176 8 8 (563200)
I0115 01:05:43.510162 87336 net.cpp:159] Memory required for data: 644301800
I0115 01:05:43.510169 87336 layer_factory.hpp:77] Creating layer inception_11a/1x1/scale1
I0115 01:05:43.510175 87336 net.cpp:94] Creating Layer inception_11a/1x1/scale1
I0115 01:05:43.510179 87336 net.cpp:435] inception_11a/1x1/scale1 <- inception_11a/1x1
I0115 01:05:43.510185 87336 net.cpp:396] inception_11a/1x1/scale1 -> inception_11a/1x1 (in-place)
I0115 01:05:43.510192 87336 layer_factory.hpp:77] Creating layer inception_11a/1x1/scale1
I0115 01:05:43.510208 87336 net.cpp:144] Setting up inception_11a/1x1/scale1
I0115 01:05:43.510213 87336 net.cpp:151] Top shape: 50 176 8 8 (563200)
I0115 01:05:43.510215 87336 net.cpp:159] Memory required for data: 646554600
I0115 01:05:43.510219 87336 layer_factory.hpp:77] Creating layer inception_11a/1x1/relu1
I0115 01:05:43.510226 87336 net.cpp:94] Creating Layer inception_11a/1x1/relu1
I0115 01:05:43.510228 87336 net.cpp:435] inception_11a/1x1/relu1 <- inception_11a/1x1
I0115 01:05:43.510232 87336 net.cpp:396] inception_11a/1x1/relu1 -> inception_11a/1x1 (in-place)
I0115 01:05:43.510238 87336 net.cpp:144] Setting up inception_11a/1x1/relu1
I0115 01:05:43.510244 87336 net.cpp:151] Top shape: 50 176 8 8 (563200)
I0115 01:05:43.510246 87336 net.cpp:159] Memory required for data: 648807400
I0115 01:05:43.510249 87336 layer_factory.hpp:77] Creating layer inception_11a/3x3
I0115 01:05:43.510257 87336 net.cpp:94] Creating Layer inception_11a/3x3
I0115 01:05:43.510268 87336 net.cpp:435] inception_11a/3x3 <- inception_10a/output_inception_10a/output_0_split_1
I0115 01:05:43.510273 87336 net.cpp:409] inception_11a/3x3 -> inception_11a/3x3
I0115 01:05:43.513979 87336 net.cpp:144] Setting up inception_11a/3x3
I0115 01:05:43.513990 87336 net.cpp:151] Top shape: 50 160 8 8 (512000)
I0115 01:05:43.513994 87336 net.cpp:159] Memory required for data: 650855400
I0115 01:05:43.513999 87336 layer_factory.hpp:77] Creating layer inception_11a/3x3/bn1
I0115 01:05:43.514006 87336 net.cpp:94] Creating Layer inception_11a/3x3/bn1
I0115 01:05:43.514010 87336 net.cpp:435] inception_11a/3x3/bn1 <- inception_11a/3x3
I0115 01:05:43.514017 87336 net.cpp:396] inception_11a/3x3/bn1 -> inception_11a/3x3 (in-place)
I0115 01:05:43.514053 87336 net.cpp:144] Setting up inception_11a/3x3/bn1
I0115 01:05:43.514058 87336 net.cpp:151] Top shape: 50 160 8 8 (512000)
I0115 01:05:43.514061 87336 net.cpp:159] Memory required for data: 652903400
I0115 01:05:43.514068 87336 layer_factory.hpp:77] Creating layer inception_11a/3x3/scale1
I0115 01:05:43.514073 87336 net.cpp:94] Creating Layer inception_11a/3x3/scale1
I0115 01:05:43.514076 87336 net.cpp:435] inception_11a/3x3/scale1 <- inception_11a/3x3
I0115 01:05:43.514081 87336 net.cpp:396] inception_11a/3x3/scale1 -> inception_11a/3x3 (in-place)
I0115 01:05:43.514091 87336 layer_factory.hpp:77] Creating layer inception_11a/3x3/scale1
I0115 01:05:43.514104 87336 net.cpp:144] Setting up inception_11a/3x3/scale1
I0115 01:05:43.514109 87336 net.cpp:151] Top shape: 50 160 8 8 (512000)
I0115 01:05:43.514111 87336 net.cpp:159] Memory required for data: 654951400
I0115 01:05:43.514117 87336 layer_factory.hpp:77] Creating layer inception_11a/3x3/relu1
I0115 01:05:43.514120 87336 net.cpp:94] Creating Layer inception_11a/3x3/relu1
I0115 01:05:43.514122 87336 net.cpp:435] inception_11a/3x3/relu1 <- inception_11a/3x3
I0115 01:05:43.514127 87336 net.cpp:396] inception_11a/3x3/relu1 -> inception_11a/3x3 (in-place)
I0115 01:05:43.514137 87336 net.cpp:144] Setting up inception_11a/3x3/relu1
I0115 01:05:43.514139 87336 net.cpp:151] Top shape: 50 160 8 8 (512000)
I0115 01:05:43.514142 87336 net.cpp:159] Memory required for data: 656999400
I0115 01:05:43.514144 87336 layer_factory.hpp:77] Creating layer inception_11a/output
I0115 01:05:43.514149 87336 net.cpp:94] Creating Layer inception_11a/output
I0115 01:05:43.514151 87336 net.cpp:435] inception_11a/output <- inception_11a/1x1
I0115 01:05:43.514155 87336 net.cpp:435] inception_11a/output <- inception_11a/3x3
I0115 01:05:43.514159 87336 net.cpp:409] inception_11a/output -> inception_11a/output
I0115 01:05:43.514166 87336 net.cpp:144] Setting up inception_11a/output
I0115 01:05:43.514173 87336 net.cpp:151] Top shape: 50 336 8 8 (1075200)
I0115 01:05:43.514175 87336 net.cpp:159] Memory required for data: 661300200
I0115 01:05:43.514178 87336 layer_factory.hpp:77] Creating layer avg_pool_12/8x8_s1
I0115 01:05:43.514184 87336 net.cpp:94] Creating Layer avg_pool_12/8x8_s1
I0115 01:05:43.514187 87336 net.cpp:435] avg_pool_12/8x8_s1 <- inception_11a/output
I0115 01:05:43.514192 87336 net.cpp:409] avg_pool_12/8x8_s1 -> avg_pool_12/8x8_s1
I0115 01:05:43.514204 87336 net.cpp:144] Setting up avg_pool_12/8x8_s1
I0115 01:05:43.514209 87336 net.cpp:151] Top shape: 50 336 1 1 (16800)
I0115 01:05:43.514212 87336 net.cpp:159] Memory required for data: 661367400
I0115 01:05:43.514214 87336 layer_factory.hpp:77] Creating layer drop_8x8_s1
I0115 01:05:43.514219 87336 net.cpp:94] Creating Layer drop_8x8_s1
I0115 01:05:43.514222 87336 net.cpp:435] drop_8x8_s1 <- avg_pool_12/8x8_s1
I0115 01:05:43.514226 87336 net.cpp:396] drop_8x8_s1 -> avg_pool_12/8x8_s1 (in-place)
I0115 01:05:43.514232 87336 net.cpp:144] Setting up drop_8x8_s1
I0115 01:05:43.514236 87336 net.cpp:151] Top shape: 50 336 1 1 (16800)
I0115 01:05:43.514240 87336 net.cpp:159] Memory required for data: 661434600
I0115 01:05:43.514242 87336 layer_factory.hpp:77] Creating layer loss/classifier
I0115 01:05:43.514250 87336 net.cpp:94] Creating Layer loss/classifier
I0115 01:05:43.514263 87336 net.cpp:435] loss/classifier <- avg_pool_12/8x8_s1
I0115 01:05:43.514271 87336 net.cpp:409] loss/classifier -> loss/classifier
I0115 01:05:43.514305 87336 net.cpp:144] Setting up loss/classifier
I0115 01:05:43.514310 87336 net.cpp:151] Top shape: 50 10 (500)
I0115 01:05:43.514313 87336 net.cpp:159] Memory required for data: 661436600
I0115 01:05:43.514318 87336 layer_factory.hpp:77] Creating layer loss/classifier_loss/classifier_0_split
I0115 01:05:43.514322 87336 net.cpp:94] Creating Layer loss/classifier_loss/classifier_0_split
I0115 01:05:43.514325 87336 net.cpp:435] loss/classifier_loss/classifier_0_split <- loss/classifier
I0115 01:05:43.514333 87336 net.cpp:409] loss/classifier_loss/classifier_0_split -> loss/classifier_loss/classifier_0_split_0
I0115 01:05:43.514339 87336 net.cpp:409] loss/classifier_loss/classifier_0_split -> loss/classifier_loss/classifier_0_split_1
I0115 01:05:43.514348 87336 net.cpp:409] loss/classifier_loss/classifier_0_split -> loss/classifier_loss/classifier_0_split_2
I0115 01:05:43.514353 87336 net.cpp:409] loss/classifier_loss/classifier_0_split -> loss/classifier_loss/classifier_0_split_3
I0115 01:05:43.514360 87336 net.cpp:144] Setting up loss/classifier_loss/classifier_0_split
I0115 01:05:43.514365 87336 net.cpp:151] Top shape: 50 10 (500)
I0115 01:05:43.514369 87336 net.cpp:151] Top shape: 50 10 (500)
I0115 01:05:43.514371 87336 net.cpp:151] Top shape: 50 10 (500)
I0115 01:05:43.514374 87336 net.cpp:151] Top shape: 50 10 (500)
I0115 01:05:43.514377 87336 net.cpp:159] Memory required for data: 661444600
I0115 01:05:43.514380 87336 layer_factory.hpp:77] Creating layer loss
I0115 01:05:43.514385 87336 net.cpp:94] Creating Layer loss
I0115 01:05:43.514389 87336 net.cpp:435] loss <- loss/classifier_loss/classifier_0_split_0
I0115 01:05:43.514394 87336 net.cpp:435] loss <- label_data_1_split_0
I0115 01:05:43.514400 87336 net.cpp:409] loss -> loss
…
