…
I0122 19:14:42.140506 70150 net.cpp:323] The NetState phase (0) differed from the phase (1) specified by a rule in layer accuracy-top1
I0122 19:14:42.140508 70150 net.cpp:323] The NetState phase (0) differed from the phase (1) specified by a rule in layer accuracy-top5
I0122 19:14:42.141005 70150 net.cpp:52] Initializing net from parameters: 
state {
  phase: TRAIN
}
layer {
  name: "data"
  type: "Data"
  top: "data"
  top: "label"
  include {
    phase: TRAIN
  }
  transform_param {
    mirror: true
    mean_value: 104
    mean_value: 117
    mean_value: 123
  }
  data_param {
    source: "cifar10/input/lmdb/train_lmdb"
    batch_size: 128
    backend: LMDB
  }
}
layer {
  name: "conv1/3x3_s1"
  type: "Convolution"
  bottom: "data"
  top: "conv1/3x3_s1"
  param {
    lr_mult: 1
    decay_mult: 1
    compression: PRUNE
  }
  param {
    lr_mult: 2
    decay_mult: 0
    compression: PRUNE
  }
  convolution_param {
    num_output: 96
    pad: 1
    kernel_size: 3
    stride: 1
    weight_filler {
      type: "xavier"
      std: 0.1
    }
    bias_filler {
      type: "constant"
      value: 0.2
    }
  }
}
layer {
  name: "conv1/bn1"
  type: "BatchNorm"
  bottom: "conv1/3x3_s1"
  top: "conv1/3x3_s1"
  param {
    lr_mult: 1
    decay_mult: 0
    compression: PRUNE
  }
  param {
    lr_mult: 1
    decay_mult: 0
    compression: PRUNE
  }
  param {
    lr_mult: 0
    decay_mult: 0
    compression: PRUNE
  }
  param {
    lr_mult: 0
    decay_mult: 0
    compression: PRUNE
  }
  batch_norm_param {
    use_global_stats: false
    scale_filler {
      type: "constant"
      value: 1
    }
    bias_filler {
      type: "constant"
      value: 0
    }
  }
}
layer {
  name: "conv1/relu1"
  type: "ReLU"
  bottom: "conv1/3x3_s1"
  top: "conv1/3x3_s1"
}
layer {
  name: "inception_2a/1x1"
  type: "Convolution"
  bottom: "conv1/3x3_s1"
  top: "inception_2a/1x1"
  param {
    lr_mult: 1
    decay_mult: 1
    compression: PRUNE
  }
  param {
    lr_mult: 2
    decay_mult: 0
    compression: PRUNE
  }
  convolution_param {
    num_output: 32
    kernel_size: 1
    weight_filler {
      type: "xavier"
      std: 0.03
    }
    bias_filler {
      type: "constant"
      value: 0.2
    }
  }
}
layer {
  name: "inception_2a/1x1/bn1"
  type: "BatchNorm"
  bottom: "inception_2a/1x1"
  top: "inception_2a/1x1"
  param {
    lr_mult: 1
    decay_mult: 0
    compression: PRUNE
  }
  param {
    lr_mult: 1
    decay_mult: 0
    compression: PRUNE
  }
  param {
    lr_mult: 0
    decay_mult: 0
    compression: PRUNE
  }
  param {
    lr_mult: 0
    decay_mult: 0
    compression: PRUNE
  }
  batch_norm_param {
    use_global_stats: false
    scale_filler {
      type: "constant"
      value: 1
    }
    bias_filler {
      type: "constant"
      value: 0
    }
  }
}
layer {
  name: "inception_2a/1x1/relu1"
  type: "ReLU"
  bottom: "inception_2a/1x1"
  top: "inception_2a/1x1"
}
layer {
  name: "inception_2a/3x3"
  type: "Convolution"
  bottom: "conv1/3x3_s1"
  top: "inception_2a/3x3"
  param {
    lr_mult: 1
    decay_mult: 1
    compression: PRUNE
  }
  param {
    lr_mult: 2
    decay_mult: 0
    compression: PRUNE
  }
  convolution_param {
    num_output: 32
    pad: 1
    kernel_size: 3
    weight_filler {
      type: "xavier"
      std: 0.03
    }
    bias_filler {
      type: "constant"
      value: 0.2
    }
  }
}
layer {
  name: "inception_2a/3x3/bn1"
  type: "BatchNorm"
  bottom: "inception_2a/3x3"
  top: "inception_2a/3x3"
  param {
    lr_mult: 1
    decay_mult: 0
    compression: PRUNE
  }
  param {
    lr_mult: 1
    decay_mult: 0
    compression: PRUNE
  }
  param {
    lr_mult: 0
    decay_mult: 0
    compression: PRUNE
  }
  param {
    lr_mult: 0
    decay_mult: 0
    compression: PRUNE
  }
  batch_norm_param {
    use_global_stats: false
    scale_filler {
      type: "constant"
      value: 1
    }
    bias_filler {
      type: "constant"
      value: 0
    }
  }
}
layer {
  name: "inception_2a/3x3/relu1"
  type: "ReLU"
  bottom: "inception_2a/3x3"
  top: "inception_2a/3x3"
}
layer {
  name: "inception_2a/output"
  type: "Concat"
  bottom: "inception_2a/1x1"
  bottom: "inception_2a/3x3"
  top: "inception_2a/output"
}
layer {
  name: "inception_3a/1x1"
  type: "Convolution"
  bottom: "inception_2a/output"
  top: "inception_3a/1x1"
  param {
    lr_mult: 1
    decay_mult: 1
    compression: PRUNE
  }
  param {
    lr_mult: 2
    decay_mult: 0
    compression: PRUNE
  }
  convolution_param {
    num_output: 32
    kernel_size: 1
    weight_filler {
      type: "xavier"
      std: 0.03
    }
    bias_filler {
      type: "constant"
      value: 0.2
    }
  }
}
layer {
  name: "inception_3a/1x1/bn1"
  type: "BatchNorm"
  bottom: "inception_3a/1x1"
  top: "inception_3a/1x1"
  param {
    lr_mult: 1
    decay_mult: 0
    compression: PRUNE
  }
  param {
    lr_mult: 1
    decay_mult: 0
    compression: PRUNE
  }
  param {
    lr_mult: 0
    decay_mult: 0
    compression: PRUNE
  }
  param {
    lr_mult: 0
    decay_mult: 0
    compression: PRUNE
  }
  batch_norm_param {
    use_global_stats: false
    scale_filler {
      type: "constant"
      value: 1
    }
    bias_filler {
      type: "constant"
      value: 0
    }
  }
}
layer {
  name: "inception_3a/1x1/relu1"
  type: "ReLU"
  bottom: "inception_3a/1x1"
  top: "inception_3a/1x1"
}
layer {
  name: "inception_3a/3x3"
  type: "Convolution"
  bottom: "inception_2a/output"
  top: "inception_3a/3x3"
  param {
    lr_mult: 1
    decay_mult: 1
    compression: PRUNE
  }
  param {
    lr_mult: 2
    decay_mult: 0
    compression: PRUNE
  }
  convolution_param {
    num_output: 48
    pad: 1
    kernel_size: 3
    weight_filler {
      type: "xavier"
      std: 0.03
    }
    bias_filler {
      type: "constant"
      value: 0.2
    }
  }
}
layer {
  name: "inception_3a/3x3/bn1"
  type: "BatchNorm"
  bottom: "inception_3a/3x3"
  top: "inception_3a/3x3"
  param {
    lr_mult: 1
    decay_mult: 0
    compression: PRUNE
  }
  param {
    lr_mult: 1
    decay_mult: 0
    compression: PRUNE
  }
  param {
    lr_mult: 0
    decay_mult: 0
    compression: PRUNE
  }
  param {
    lr_mult: 0
    decay_mult: 0
    compression: PRUNE
  }
  batch_norm_param {
    use_global_stats: false
    scale_filler {
      type: "constant"
      value: 1
    }
    bias_filler {
      type: "constant"
      value: 0
    }
  }
}
layer {
  name: "inception_3a/3x3/relu1"
  type: "ReLU"
  bottom: "inception_3a/3x3"
  top: "inception_3a/3x3"
}
layer {
  name: "inception_3a/output"
  type: "Concat"
  bottom: "inception_3a/1x1"
  bottom: "inception_3a/3x3"
  top: "inception_3a/output"
}
layer {
  name: "downsample_4/3x3_s2"
  type: "Convolution"
  bottom: "inception_3a/output"
  top: "downsample_4/3x3_s2"
  param {
    lr_mult: 1
    decay_mult: 1
    compression: PRUNE
  }
  param {
    lr_mult: 2
    decay_mult: 0
    compression: PRUNE
  }
  convolution_param {
    num_output: 80
    pad: 1
    kernel_size: 3
    stride: 2
    weight_filler {
      type: "xavier"
      std: 0.03
    }
    bias_filler {
      type: "constant"
      value: 0.2
    }
  }
}
layer {
  name: "downsample_4/3x3_s2/bn1"
  type: "BatchNorm"
  bottom: "downsample_4/3x3_s2"
  top: "downsample_4/3x3_s2"
  param {
    lr_mult: 1
    decay_mult: 0
    compression: PRUNE
  }
  param {
    lr_mult: 1
    decay_mult: 0
    compression: PRUNE
  }
  param {
    lr_mult: 0
    decay_mult: 0
    compression: PRUNE
  }
  param {
    lr_mult: 0
    decay_mult: 0
    compression: PRUNE
  }
  batch_norm_param {
    use_global_stats: false
    scale_filler {
      type: "constant"
      value: 1
    }
    bias_filler {
      type: "constant"
      value: 0
    }
  }
}
layer {
  name: "downsample_4/3x3_s2/relu1"
  type: "ReLU"
  bottom: "downsample_4/3x3_s2"
  top: "downsample_4/3x3_s2"
}
layer {
  name: "downsample_4/pool_s2"
  type: "Pooling"
  bottom: "inception_3a/output"
  top: "downsample_4/pool_s2"
  pooling_param {
    pool: MAX
    kernel_size: 3
    stride: 2
  }
}
layer {
  name: "downsample_4/output"
  type: "Concat"
  bottom: "downsample_4/3x3_s2"
  bottom: "downsample_4/pool_s2"
  top: "downsample_4/output"
}
layer {
  name: "inception_5a/1x1"
  type: "Convolution"
  bottom: "downsample_4/output"
  top: "inception_5a/1x1"
  param {
    lr_mult: 1
    decay_mult: 1
    compression: PRUNE
  }
  param {
    lr_mult: 2
    decay_mult: 0
    compression: PRUNE
  }
  convolution_param {
    num_output: 112
    kernel_size: 1
    weight_filler {
      type: "xavier"
      std: 0.03
    }
    bias_filler {
      type: "constant"
      value: 0.2
    }
  }
}
layer {
  name: "inception_5a/1x1/bn1"
  type: "BatchNorm"
  bottom: "inception_5a/1x1"
  top: "inception_5a/1x1"
  param {
    lr_mult: 1
    decay_mult: 0
    compression: PRUNE
  }
  param {
    lr_mult: 1
    decay_mult: 0
    compression: PRUNE
  }
  param {
    lr_mult: 0
    decay_mult: 0
    compression: PRUNE
  }
  param {
    lr_mult: 0
    decay_mult: 0
    compression: PRUNE
  }
  batch_norm_param {
    use_global_stats: false
    scale_filler {
      type: "constant"
      value: 1
    }
    bias_filler {
      type: "constant"
      value: 0
    }
  }
}
layer {
  name: "inception_5a/1x1/relu1"
  type: "ReLU"
  bottom: "inception_5a/1x1"
  top: "inception_5a/1x1"
}
layer {
  name: "inception_5a/3x3"
  type: "Convolution"
  bottom: "downsample_4/output"
  top: "inception_5a/3x3"
  param {
    lr_mult: 1
    decay_mult: 1
    compression: PRUNE
  }
  param {
    lr_mult: 2
    decay_mult: 0
    compression: PRUNE
  }
  convolution_param {
    num_output: 48
    pad: 1
    kernel_size: 3
    weight_filler {
      type: "xavier"
      std: 0.03
    }
    bias_filler {
      type: "constant"
      value: 0.2
    }
  }
}
layer {
  name: "inception_5a/3x3/bn1"
  type: "BatchNorm"
  bottom: "inception_5a/3x3"
  top: "inception_5a/3x3"
  param {
    lr_mult: 1
    decay_mult: 0
    compression: PRUNE
  }
  param {
    lr_mult: 1
    decay_mult: 0
    compression: PRUNE
  }
  param {
    lr_mult: 0
    decay_mult: 0
    compression: PRUNE
  }
  param {
    lr_mult: 0
    decay_mult: 0
    compression: PRUNE
  }
  batch_norm_param {
    use_global_stats: false
    scale_filler {
      type: "constant"
      value: 1
    }
    bias_filler {
      type: "constant"
      value: 0
    }
  }
}
layer {
  name: "inception_5a/3x3/relu1"
  type: "ReLU"
  bottom: "inception_5a/3x3"
  top: "inception_5a/3x3"
}
layer {
  name: "inception_5a/output"
  type: "Concat"
  bottom: "inception_5a/1x1"
  bottom: "inception_5a/3x3"
  top: "inception_5a/output"
}
layer {
  name: "inception_6a/1x1"
  type: "Convolution"
  bottom: "inception_5a/output"
  top: "inception_6a/1x1"
  param {
    lr_mult: 1
    decay_mult: 1
    compression: PRUNE
  }
  param {
    lr_mult: 2
    decay_mult: 0
    compression: PRUNE
  }
  convolution_param {
    num_output: 96
    kernel_size: 1
    weight_filler {
      type: "xavier"
      std: 0.03
    }
    bias_filler {
      type: "constant"
      value: 0.2
    }
  }
}
layer {
  name: "inception_6a/1x1/bn1"
  type: "BatchNorm"
  bottom: "inception_6a/1x1"
  top: "inception_6a/1x1"
  param {
    lr_mult: 1
    decay_mult: 0
    compression: PRUNE
  }
  param {
    lr_mult: 1
    decay_mult: 0
    compression: PRUNE
  }
  param {
    lr_mult: 0
    decay_mult: 0
    compression: PRUNE
  }
  param {
    lr_mult: 0
    decay_mult: 0
    compression: PRUNE
  }
  batch_norm_param {
    use_global_stats: false
    scale_filler {
      type: "constant"
      value: 1
    }
    bias_filler {
      type: "constant"
      value: 0
    }
  }
}
layer {
  name: "inception_6a/1x1/relu1"
  type: "ReLU"
  bottom: "inception_6a/1x1"
  top: "inception_6a/1x1"
}
layer {
  name: "inception_6a/3x3"
  type: "Convolution"
  bottom: "inception_5a/output"
  top: "inception_6a/3x3"
  param {
    lr_mult: 1
    decay_mult: 1
    compression: PRUNE
  }
  param {
    lr_mult: 2
    decay_mult: 0
    compression: PRUNE
  }
  convolution_param {
    num_output: 64
    pad: 1
    kernel_size: 3
    weight_filler {
      type: "xavier"
      std: 0.03
    }
    bias_filler {
      type: "constant"
      value: 0.2
    }
  }
}
layer {
  name: "inception_6a/3x3/bn1"
  type: "BatchNorm"
  bottom: "inception_6a/3x3"
  top: "inception_6a/3x3"
  param {
    lr_mult: 1
    decay_mult: 0
    compression: PRUNE
  }
  param {
    lr_mult: 1
    decay_mult: 0
    compression: PRUNE
  }
  param {
    lr_mult: 0
    decay_mult: 0
    compression: PRUNE
  }
  param {
    lr_mult: 0
    decay_mult: 0
    compression: PRUNE
  }
  batch_norm_param {
    use_global_stats: false
    scale_filler {
      type: "constant"
      value: 1
    }
    bias_filler {
      type: "constant"
      value: 0
    }
  }
}
layer {
  name: "inception_6a/3x3/relu1"
  type: "ReLU"
  bottom: "inception_6a/3x3"
  top: "inception_6a/3x3"
}
layer {
  name: "inception_6a/output"
  type: "Concat"
  bottom: "inception_6a/1x1"
  bottom: "inception_6a/3x3"
  top: "inception_6a/output"
}
layer {
  name: "inception_7a/1x1"
  type: "Convolution"
  bottom: "inception_6a/output"
  top: "inception_7a/1x1"
  param {
    lr_mult: 1
    decay_mult: 1
    compression: PRUNE
  }
  param {
    lr_mult: 2
    decay_mult: 0
    compression: PRUNE
  }
  convolution_param {
    num_output: 80
    kernel_size: 1
    weight_filler {
      type: "xavier"
      std: 0.03
    }
    bias_filler {
      type: "constant"
      value: 0.2
    }
  }
}
layer {
  name: "inception_7a/1x1/bn1"
  type: "BatchNorm"
  bottom: "inception_7a/1x1"
  top: "inception_7a/1x1"
  param {
    lr_mult: 1
    decay_mult: 0
    compression: PRUNE
  }
  param {
    lr_mult: 1
    decay_mult: 0
    compression: PRUNE
  }
  param {
    lr_mult: 0
    decay_mult: 0
    compression: PRUNE
  }
  param {
    lr_mult: 0
    decay_mult: 0
    compression: PRUNE
  }
  batch_norm_param {
    use_global_stats: false
    scale_filler {
      type: "constant"
      value: 1
    }
    bias_filler {
      type: "constant"
      value: 0
    }
  }
}
layer {
  name: "inception_7a/1x1/relu1"
  type: "ReLU"
  bottom: "inception_7a/1x1"
  top: "inception_7a/1x1"
}
layer {
  name: "inception_7a/3x3"
  type: "Convolution"
  bottom: "inception_6a/output"
  top: "inception_7a/3x3"
  param {
    lr_mult: 1
    decay_mult: 1
    compression: PRUNE
  }
  param {
    lr_mult: 2
    decay_mult: 0
    compression: PRUNE
  }
  convolution_param {
    num_output: 80
    pad: 1
    kernel_size: 3
    weight_filler {
      type: "xavier"
      std: 0.03
    }
    bias_filler {
      type: "constant"
      value: 0.2
    }
  }
}
layer {
  name: "inception_7a/3x3/bn1"
  type: "BatchNorm"
  bottom: "inception_7a/3x3"
  top: "inception_7a/3x3"
  param {
    lr_mult: 1
    decay_mult: 0
    compression: PRUNE
  }
  param {
    lr_mult: 1
    decay_mult: 0
    compression: PRUNE
  }
  param {
    lr_mult: 0
    decay_mult: 0
    compression: PRUNE
  }
  param {
    lr_mult: 0
    decay_mult: 0
    compression: PRUNE
  }
  batch_norm_param {
    use_global_stats: false
    scale_filler {
      type: "constant"
      value: 1
    }
    bias_filler {
      type: "constant"
      value: 0
    }
  }
}
layer {
  name: "inception_7a/3x3/relu1"
  type: "ReLU"
  bottom: "inception_7a/3x3"
  top: "inception_7a/3x3"
}
layer {
  name: "inception_7a/output"
  type: "Concat"
  bottom: "inception_7a/1x1"
  bottom: "inception_7a/3x3"
  top: "inception_7a/output"
}
layer {
  name: "inception_8a/1x1"
  type: "Convolution"
  bottom: "inception_7a/output"
  top: "inception_8a/1x1"
  param {
    lr_mult: 1
    decay_mult: 1
    compression: PRUNE
  }
  param {
    lr_mult: 2
    decay_mult: 0
    compression: PRUNE
  }
  convolution_param {
    num_output: 48
    kernel_size: 1
    weight_filler {
      type: "xavier"
      std: 0.03
    }
    bias_filler {
      type: "constant"
      value: 0.2
    }
  }
}
layer {
  name: "inception_8a/1x1/bn1"
  type: "BatchNorm"
  bottom: "inception_8a/1x1"
  top: "inception_8a/1x1"
  param {
    lr_mult: 1
    decay_mult: 0
    compression: PRUNE
  }
  param {
    lr_mult: 1
    decay_mult: 0
    compression: PRUNE
  }
  param {
    lr_mult: 0
    decay_mult: 0
    compression: PRUNE
  }
  param {
    lr_mult: 0
    decay_mult: 0
    compression: PRUNE
  }
  batch_norm_param {
    use_global_stats: false
    scale_filler {
      type: "constant"
      value: 1
    }
    bias_filler {
      type: "constant"
      value: 0
    }
  }
}
layer {
  name: "inception_8a/1x1/relu1"
  type: "ReLU"
  bottom: "inception_8a/1x1"
  top: "inception_8a/1x1"
}
layer {
  name: "inception_8a/3x3"
  type: "Convolution"
  bottom: "inception_7a/output"
  top: "inception_8a/3x3"
  param {
    lr_mult: 1
    decay_mult: 1
    compression: PRUNE
  }
  param {
    lr_mult: 2
    decay_mult: 0
    compression: PRUNE
  }
  convolution_param {
    num_output: 96
    pad: 1
    kernel_size: 3
    weight_filler {
      type: "xavier"
      std: 0.03
    }
    bias_filler {
      type: "constant"
      value: 0.2
    }
  }
}
layer {
  name: "inception_8a/3x3/bn1"
  type: "BatchNorm"
  bottom: "inception_8a/3x3"
  top: "inception_8a/3x3"
  param {
    lr_mult: 1
    decay_mult: 0
    compression: PRUNE
  }
  param {
    lr_mult: 1
    decay_mult: 0
    compression: PRUNE
  }
  param {
    lr_mult: 0
    decay_mult: 0
    compression: PRUNE
  }
  param {
    lr_mult: 0
    decay_mult: 0
    compression: PRUNE
  }
  batch_norm_param {
    use_global_stats: false
    scale_filler {
      type: "constant"
      value: 1
    }
    bias_filler {
      type: "constant"
      value: 0
    }
  }
}
layer {
  name: "inception_8a/3x3/relu1"
  type: "ReLU"
  bottom: "inception_8a/3x3"
  top: "inception_8a/3x3"
}
layer {
  name: "inception_8a/output"
  type: "Concat"
  bottom: "inception_8a/1x1"
  bottom: "inception_8a/3x3"
  top: "inception_8a/output"
}
layer {
  name: "downsample_9/3x3_s2"
  type: "Convolution"
  bottom: "inception_8a/output"
  top: "downsample_9/3x3_s2"
  param {
    lr_mult: 1
    decay_mult: 1
    compression: PRUNE
  }
  param {
    lr_mult: 2
    decay_mult: 0
    compression: PRUNE
  }
  convolution_param {
    num_output: 96
    pad: 1
    kernel_size: 3
    stride: 2
    weight_filler {
      type: "xavier"
      std: 0.03
    }
    bias_filler {
      type: "constant"
      value: 0.2
    }
  }
}
layer {
  name: "downsample_9/3x3_s2/bn1"
  type: "BatchNorm"
  bottom: "downsample_9/3x3_s2"
  top: "downsample_9/3x3_s2"
  param {
    lr_mult: 1
    decay_mult: 0
    compression: PRUNE
  }
  param {
    lr_mult: 1
    decay_mult: 0
    compression: PRUNE
  }
  param {
    lr_mult: 0
    decay_mult: 0
    compression: PRUNE
  }
  param {
    lr_mult: 0
    decay_mult: 0
    compression: PRUNE
  }
  batch_norm_param {
    use_global_stats: false
    scale_filler {
      type: "constant"
      value: 1
    }
    bias_filler {
      type: "constant"
      value: 0
    }
  }
}
layer {
  name: "downsample_9/3x3_s2/relu1"
  type: "ReLU"
  bottom: "downsample_9/3x3_s2"
  top: "downsample_9/3x3_s2"
}
layer {
  name: "downsample_9/pool_s2"
  type: "Pooling"
  bottom: "inception_8a/output"
  top: "downsample_9/pool_s2"
  pooling_param {
    pool: MAX
    kernel_size: 3
    stride: 2
  }
}
layer {
  name: "downsample_9/output"
  type: "Concat"
  bottom: "downsample_9/3x3_s2"
  bottom: "downsample_9/pool_s2"
  top: "downsample_9/output"
}
layer {
  name: "inception_10a/1x1"
  type: "Convolution"
  bottom: "downsample_9/output"
  top: "inception_10a/1x1"
  param {
    lr_mult: 1
    decay_mult: 1
    compression: PRUNE
  }
  param {
    lr_mult: 2
    decay_mult: 0
    compression: PRUNE
  }
  convolution_param {
    num_output: 176
    kernel_size: 1
    weight_filler {
      type: "xavier"
      std: 0.03
    }
    bias_filler {
      type: "constant"
      value: 0.2
    }
  }
}
layer {
  name: "inception_10a/1x1/bn1"
  type: "BatchNorm"
  bottom: "inception_10a/1x1"
  top: "inception_10a/1x1"
  param {
    lr_mult: 1
    decay_mult: 0
    compression: PRUNE
  }
  param {
    lr_mult: 1
    decay_mult: 0
    compression: PRUNE
  }
  param {
    lr_mult: 0
    decay_mult: 0
    compression: PRUNE
  }
  param {
    lr_mult: 0
    decay_mult: 0
    compression: PRUNE
  }
  batch_norm_param {
    use_global_stats: false
    scale_filler {
      type: "constant"
      value: 1
    }
    bias_filler {
      type: "constant"
      value: 0
    }
  }
}
layer {
  name: "inception_10a/1x1/relu1"
  type: "ReLU"
  bottom: "inception_10a/1x1"
  top: "inception_10a/1x1"
}
layer {
  name: "inception_10a/3x3"
  type: "Convolution"
  bottom: "downsample_9/output"
  top: "inception_10a/3x3"
  param {
    lr_mult: 1
    decay_mult: 1
    compression: PRUNE
  }
  param {
    lr_mult: 2
    decay_mult: 0
    compression: PRUNE
  }
  convolution_param {
    num_output: 160
    pad: 1
    kernel_size: 3
    weight_filler {
      type: "xavier"
      std: 0.03
    }
    bias_filler {
      type: "constant"
      value: 0.2
    }
  }
}
layer {
  name: "inception_10a/3x3/bn1"
  type: "BatchNorm"
  bottom: "inception_10a/3x3"
  top: "inception_10a/3x3"
  param {
    lr_mult: 1
    decay_mult: 0
    compression: PRUNE
  }
  param {
    lr_mult: 1
    decay_mult: 0
    compression: PRUNE
  }
  param {
    lr_mult: 0
    decay_mult: 0
    compression: PRUNE
  }
  param {
    lr_mult: 0
    decay_mult: 0
    compression: PRUNE
  }
  batch_norm_param {
    use_global_stats: false
    scale_filler {
      type: "constant"
      value: 1
    }
    bias_filler {
      type: "constant"
      value: 0
    }
  }
}
layer {
  name: "inception_10a/3x3/relu1"
  type: "ReLU"
  bottom: "inception_10a/3x3"
  top: "inception_10a/3x3"
}
layer {
  name: "inception_10a/output"
  type: "Concat"
  bottom: "inception_10a/1x1"
  bottom: "inception_10a/3x3"
  top: "inception_10a/output"
}
layer {
  name: "inception_11a/1x1"
  type: "Convolution"
  bottom: "inception_10a/output"
  top: "inception_11a/1x1"
  param {
    lr_mult: 1
    decay_mult: 1
    compression: PRUNE
  }
  param {
    lr_mult: 2
    decay_mult: 0
    compression: PRUNE
  }
  convolution_param {
    num_output: 176
    kernel_size: 1
    weight_filler {
      type: "xavier"
      std: 0.03
    }
    bias_filler {
      type: "constant"
      value: 0.2
    }
  }
}
layer {
  name: "inception_11a/1x1/bn1"
  type: "BatchNorm"
  bottom: "inception_11a/1x1"
  top: "inception_11a/1x1"
  param {
    lr_mult: 1
    decay_mult: 0
    compression: PRUNE
  }
  param {
    lr_mult: 1
    decay_mult: 0
    compression: PRUNE
  }
  param {
    lr_mult: 0
    decay_mult: 0
    compression: PRUNE
  }
  param {
    lr_mult: 0
    decay_mult: 0
    compression: PRUNE
  }
  batch_norm_param {
    use_global_stats: false
    scale_filler {
      type: "constant"
      value: 1
    }
    bias_filler {
      type: "constant"
      value: 0
    }
  }
}
layer {
  name: "inception_11a/1x1/relu1"
  type: "ReLU"
  bottom: "inception_11a/1x1"
  top: "inception_11a/1x1"
}
layer {
  name: "inception_11a/3x3"
  type: "Convolution"
  bottom: "inception_10a/output"
  top: "inception_11a/3x3"
  param {
    lr_mult: 1
    decay_mult: 1
    compression: PRUNE
  }
  param {
    lr_mult: 2
    decay_mult: 0
    compression: PRUNE
  }
  convolution_param {
    num_output: 160
    pad: 1
    kernel_size: 3
    weight_filler {
      type: "xavier"
      std: 0.03
    }
    bias_filler {
      type: "constant"
      value: 0.2
    }
  }
}
layer {
  name: "inception_11a/3x3/bn1"
  type: "BatchNorm"
  bottom: "inception_11a/3x3"
  top: "inception_11a/3x3"
  param {
    lr_mult: 1
    decay_mult: 0
    compression: PRUNE
  }
  param {
    lr_mult: 1
    decay_mult: 0
    compression: PRUNE
  }
  param {
    lr_mult: 0
    decay_mult: 0
    compression: PRUNE
  }
  param {
    lr_mult: 0
    decay_mult: 0
    compression: PRUNE
  }
  batch_norm_param {
    use_global_stats: false
    scale_filler {
      type: "constant"
      value: 1
    }
    bias_filler {
      type: "constant"
      value: 0
    }
  }
}
layer {
  name: "inception_11a/3x3/relu1"
  type: "ReLU"
  bottom: "inception_11a/3x3"
  top: "inception_11a/3x3"
}
layer {
  name: "inception_11a/output"
  type: "Concat"
  bottom: "inception_11a/1x1"
  bottom: "inception_11a/3x3"
  top: "inception_11a/output"
}
layer {
  name: "avg_pool_12/8x8_s1"
  type: "Pooling"
  bottom: "inception_11a/output"
  top: "avg_pool_12/8x8_s1"
  pooling_param {
    pool: AVE
    kernel_size: 8
    stride: 1
  }
}
layer {
  name: "drop_8x8_s1"
  type: "Dropout"
  bottom: "avg_pool_12/8x8_s1"
  top: "avg_pool_12/8x8_s1"
  dropout_param {
    dropout_ratio: 0.5
  }
}
layer {
  name: "loss/classifier"
  type: "InnerProduct"
  bottom: "avg_pool_12/8x8_s1"
  top: "loss/classifier"
  param {
    lr_mult: 1
    decay_mult: 1
  }
  param {
    lr_mult: 2
    decay_mult: 0
  }
  inner_product_param {
    num_output: 10
    weight_filler {
      type: "xavier"
    }
    bias_filler {
      type: "constant"
      value: 1
    }
  }
}
layer {
  name: "loss"
  type: "SoftmaxWithLoss"
  bottom: "loss/classifier"
  bottom: "label"
  top: "loss"
}
I0122 19:14:42.141247 70150 layer_factory.hpp:77] Creating layer data
I0122 19:14:42.141350 70150 internal_thread.cpp:27] Starting internal thread(s) on GPU 0
I0122 19:14:42.142292 70150 net.cpp:94] Creating Layer data
I0122 19:14:42.142309 70150 net.cpp:409] data -> data
I0122 19:14:42.142320 70150 net.cpp:409] data -> label
I0122 19:14:42.143688 70189 db_lmdb.cpp:35] Opened lmdb cifar10/input/lmdb/train_lmdb
I0122 19:14:42.143739 70189 data_reader.cpp:117] TRAIN: reading data using 1 channel(s)
I0122 19:14:42.143823 70150 data_layer.cpp:78] ReshapePrefetch 128, 3, 32, 32
I0122 19:14:42.143903 70150 data_layer.cpp:83] output data size: 128,3,32,32
I0122 19:14:42.151445 70150 internal_thread.cpp:27] Starting internal thread(s) on GPU 0
I0122 19:14:42.151490 70150 net.cpp:144] Setting up data
I0122 19:14:42.151497 70150 net.cpp:151] Top shape: 128 3 32 32 (393216)
I0122 19:14:42.151501 70150 net.cpp:151] Top shape: 128 (128)
I0122 19:14:42.151504 70150 net.cpp:159] Memory required for data: 1573376
I0122 19:14:42.151509 70150 layer_factory.hpp:77] Creating layer conv1/3x3_s1
I0122 19:14:42.151520 70150 net.cpp:94] Creating Layer conv1/3x3_s1
I0122 19:14:42.151525 70150 net.cpp:435] conv1/3x3_s1 <- data
I0122 19:14:42.151537 70150 net.cpp:409] conv1/3x3_s1 -> conv1/3x3_s1
I0122 19:14:42.153069 70150 net.cpp:144] Setting up conv1/3x3_s1
I0122 19:14:42.153080 70150 net.cpp:151] Top shape: 128 96 32 32 (12582912)
I0122 19:14:42.153084 70150 net.cpp:159] Memory required for data: 51905024
I0122 19:14:42.153096 70150 layer_factory.hpp:77] Creating layer conv1/bn1
I0122 19:14:42.153103 70150 net.cpp:94] Creating Layer conv1/bn1
I0122 19:14:42.153106 70150 net.cpp:435] conv1/bn1 <- conv1/3x3_s1
I0122 19:14:42.153111 70150 net.cpp:396] conv1/bn1 -> conv1/3x3_s1 (in-place)
I0122 19:14:42.153709 70150 net.cpp:144] Setting up conv1/bn1
I0122 19:14:42.153717 70150 net.cpp:151] Top shape: 128 96 32 32 (12582912)
I0122 19:14:42.153719 70150 net.cpp:159] Memory required for data: 102236672
I0122 19:14:42.153730 70150 layer_factory.hpp:77] Creating layer conv1/relu1
I0122 19:14:42.153738 70150 net.cpp:94] Creating Layer conv1/relu1
I0122 19:14:42.153740 70150 net.cpp:435] conv1/relu1 <- conv1/3x3_s1
I0122 19:14:42.153744 70150 net.cpp:396] conv1/relu1 -> conv1/3x3_s1 (in-place)
I0122 19:14:42.153754 70150 net.cpp:144] Setting up conv1/relu1
I0122 19:14:42.153771 70150 net.cpp:151] Top shape: 128 96 32 32 (12582912)
I0122 19:14:42.153774 70150 net.cpp:159] Memory required for data: 152568320
I0122 19:14:42.153777 70150 layer_factory.hpp:77] Creating layer conv1/3x3_s1_conv1/relu1_0_split
I0122 19:14:42.153784 70150 net.cpp:94] Creating Layer conv1/3x3_s1_conv1/relu1_0_split
I0122 19:14:42.153785 70150 net.cpp:435] conv1/3x3_s1_conv1/relu1_0_split <- conv1/3x3_s1
I0122 19:14:42.153790 70150 net.cpp:409] conv1/3x3_s1_conv1/relu1_0_split -> conv1/3x3_s1_conv1/relu1_0_split_0
I0122 19:14:42.153796 70150 net.cpp:409] conv1/3x3_s1_conv1/relu1_0_split -> conv1/3x3_s1_conv1/relu1_0_split_1
I0122 19:14:42.153823 70150 net.cpp:144] Setting up conv1/3x3_s1_conv1/relu1_0_split
I0122 19:14:42.153828 70150 net.cpp:151] Top shape: 128 96 32 32 (12582912)
I0122 19:14:42.153832 70150 net.cpp:151] Top shape: 128 96 32 32 (12582912)
I0122 19:14:42.153836 70150 net.cpp:159] Memory required for data: 253231616
I0122 19:14:42.153838 70150 layer_factory.hpp:77] Creating layer inception_2a/1x1
I0122 19:14:42.153846 70150 net.cpp:94] Creating Layer inception_2a/1x1
I0122 19:14:42.153848 70150 net.cpp:435] inception_2a/1x1 <- conv1/3x3_s1_conv1/relu1_0_split_0
I0122 19:14:42.153852 70150 net.cpp:409] inception_2a/1x1 -> inception_2a/1x1
I0122 19:14:42.154078 70150 net.cpp:144] Setting up inception_2a/1x1
I0122 19:14:42.154085 70150 net.cpp:151] Top shape: 128 32 32 32 (4194304)
I0122 19:14:42.154088 70150 net.cpp:159] Memory required for data: 270008832
I0122 19:14:42.154094 70150 layer_factory.hpp:77] Creating layer inception_2a/1x1/bn1
I0122 19:14:42.154100 70150 net.cpp:94] Creating Layer inception_2a/1x1/bn1
I0122 19:14:42.154105 70150 net.cpp:435] inception_2a/1x1/bn1 <- inception_2a/1x1
I0122 19:14:42.154110 70150 net.cpp:396] inception_2a/1x1/bn1 -> inception_2a/1x1 (in-place)
I0122 19:14:42.155262 70150 net.cpp:144] Setting up inception_2a/1x1/bn1
I0122 19:14:42.155268 70150 net.cpp:151] Top shape: 128 32 32 32 (4194304)
I0122 19:14:42.155270 70150 net.cpp:159] Memory required for data: 286786048
I0122 19:14:42.155277 70150 layer_factory.hpp:77] Creating layer inception_2a/1x1/relu1
I0122 19:14:42.155282 70150 net.cpp:94] Creating Layer inception_2a/1x1/relu1
I0122 19:14:42.155284 70150 net.cpp:435] inception_2a/1x1/relu1 <- inception_2a/1x1
I0122 19:14:42.155287 70150 net.cpp:396] inception_2a/1x1/relu1 -> inception_2a/1x1 (in-place)
I0122 19:14:42.155292 70150 net.cpp:144] Setting up inception_2a/1x1/relu1
I0122 19:14:42.155295 70150 net.cpp:151] Top shape: 128 32 32 32 (4194304)
I0122 19:14:42.155297 70150 net.cpp:159] Memory required for data: 303563264
I0122 19:14:42.155299 70150 layer_factory.hpp:77] Creating layer inception_2a/3x3
I0122 19:14:42.155306 70150 net.cpp:94] Creating Layer inception_2a/3x3
I0122 19:14:42.155309 70150 net.cpp:435] inception_2a/3x3 <- conv1/3x3_s1_conv1/relu1_0_split_1
I0122 19:14:42.155314 70150 net.cpp:409] inception_2a/3x3 -> inception_2a/3x3
I0122 19:14:42.156498 70150 net.cpp:144] Setting up inception_2a/3x3
I0122 19:14:42.156508 70150 net.cpp:151] Top shape: 128 32 32 32 (4194304)
I0122 19:14:42.156512 70150 net.cpp:159] Memory required for data: 320340480
I0122 19:14:42.156518 70150 layer_factory.hpp:77] Creating layer inception_2a/3x3/bn1
I0122 19:14:42.156525 70150 net.cpp:94] Creating Layer inception_2a/3x3/bn1
I0122 19:14:42.156529 70150 net.cpp:435] inception_2a/3x3/bn1 <- inception_2a/3x3
I0122 19:14:42.156534 70150 net.cpp:396] inception_2a/3x3/bn1 -> inception_2a/3x3 (in-place)
I0122 19:14:42.157393 70150 net.cpp:144] Setting up inception_2a/3x3/bn1
I0122 19:14:42.157399 70150 net.cpp:151] Top shape: 128 32 32 32 (4194304)
I0122 19:14:42.157403 70150 net.cpp:159] Memory required for data: 337117696
I0122 19:14:42.157414 70150 layer_factory.hpp:77] Creating layer inception_2a/3x3/relu1
I0122 19:14:42.157421 70150 net.cpp:94] Creating Layer inception_2a/3x3/relu1
I0122 19:14:42.157424 70150 net.cpp:435] inception_2a/3x3/relu1 <- inception_2a/3x3
I0122 19:14:42.157428 70150 net.cpp:396] inception_2a/3x3/relu1 -> inception_2a/3x3 (in-place)
I0122 19:14:42.157446 70150 net.cpp:144] Setting up inception_2a/3x3/relu1
I0122 19:14:42.157451 70150 net.cpp:151] Top shape: 128 32 32 32 (4194304)
I0122 19:14:42.157470 70150 net.cpp:159] Memory required for data: 353894912
I0122 19:14:42.157472 70150 layer_factory.hpp:77] Creating layer inception_2a/output
I0122 19:14:42.157477 70150 net.cpp:94] Creating Layer inception_2a/output
I0122 19:14:42.157480 70150 net.cpp:435] inception_2a/output <- inception_2a/1x1
I0122 19:14:42.157485 70150 net.cpp:435] inception_2a/output <- inception_2a/3x3
I0122 19:14:42.157488 70150 net.cpp:409] inception_2a/output -> inception_2a/output
I0122 19:14:42.157507 70150 net.cpp:144] Setting up inception_2a/output
I0122 19:14:42.157513 70150 net.cpp:151] Top shape: 128 64 32 32 (8388608)
I0122 19:14:42.157516 70150 net.cpp:159] Memory required for data: 387449344
I0122 19:14:42.157518 70150 layer_factory.hpp:77] Creating layer inception_2a/output_inception_2a/output_0_split
I0122 19:14:42.157522 70150 net.cpp:94] Creating Layer inception_2a/output_inception_2a/output_0_split
I0122 19:14:42.157526 70150 net.cpp:435] inception_2a/output_inception_2a/output_0_split <- inception_2a/output
I0122 19:14:42.157531 70150 net.cpp:409] inception_2a/output_inception_2a/output_0_split -> inception_2a/output_inception_2a/output_0_split_0
I0122 19:14:42.157537 70150 net.cpp:409] inception_2a/output_inception_2a/output_0_split -> inception_2a/output_inception_2a/output_0_split_1
I0122 19:14:42.157565 70150 net.cpp:144] Setting up inception_2a/output_inception_2a/output_0_split
I0122 19:14:42.157570 70150 net.cpp:151] Top shape: 128 64 32 32 (8388608)
I0122 19:14:42.157575 70150 net.cpp:151] Top shape: 128 64 32 32 (8388608)
I0122 19:14:42.157577 70150 net.cpp:159] Memory required for data: 454558208
I0122 19:14:42.157580 70150 layer_factory.hpp:77] Creating layer inception_3a/1x1
I0122 19:14:42.157588 70150 net.cpp:94] Creating Layer inception_3a/1x1
I0122 19:14:42.157590 70150 net.cpp:435] inception_3a/1x1 <- inception_2a/output_inception_2a/output_0_split_0
I0122 19:14:42.157595 70150 net.cpp:409] inception_3a/1x1 -> inception_3a/1x1
I0122 19:14:42.157825 70150 net.cpp:144] Setting up inception_3a/1x1
I0122 19:14:42.157832 70150 net.cpp:151] Top shape: 128 32 32 32 (4194304)
I0122 19:14:42.157835 70150 net.cpp:159] Memory required for data: 471335424
I0122 19:14:42.157840 70150 layer_factory.hpp:77] Creating layer inception_3a/1x1/bn1
I0122 19:14:42.157846 70150 net.cpp:94] Creating Layer inception_3a/1x1/bn1
I0122 19:14:42.157850 70150 net.cpp:435] inception_3a/1x1/bn1 <- inception_3a/1x1
I0122 19:14:42.157855 70150 net.cpp:396] inception_3a/1x1/bn1 -> inception_3a/1x1 (in-place)
I0122 19:14:42.158495 70150 net.cpp:144] Setting up inception_3a/1x1/bn1
I0122 19:14:42.158502 70150 net.cpp:151] Top shape: 128 32 32 32 (4194304)
I0122 19:14:42.158506 70150 net.cpp:159] Memory required for data: 488112640
I0122 19:14:42.158514 70150 layer_factory.hpp:77] Creating layer inception_3a/1x1/relu1
I0122 19:14:42.158519 70150 net.cpp:94] Creating Layer inception_3a/1x1/relu1
I0122 19:14:42.158522 70150 net.cpp:435] inception_3a/1x1/relu1 <- inception_3a/1x1
I0122 19:14:42.158527 70150 net.cpp:396] inception_3a/1x1/relu1 -> inception_3a/1x1 (in-place)
I0122 19:14:42.158533 70150 net.cpp:144] Setting up inception_3a/1x1/relu1
I0122 19:14:42.158538 70150 net.cpp:151] Top shape: 128 32 32 32 (4194304)
I0122 19:14:42.158541 70150 net.cpp:159] Memory required for data: 504889856
I0122 19:14:42.158545 70150 layer_factory.hpp:77] Creating layer inception_3a/3x3
I0122 19:14:42.158553 70150 net.cpp:94] Creating Layer inception_3a/3x3
I0122 19:14:42.158556 70150 net.cpp:435] inception_3a/3x3 <- inception_2a/output_inception_2a/output_0_split_1
I0122 19:14:42.158562 70150 net.cpp:409] inception_3a/3x3 -> inception_3a/3x3
I0122 19:14:42.158939 70150 net.cpp:144] Setting up inception_3a/3x3
I0122 19:14:42.158946 70150 net.cpp:151] Top shape: 128 48 32 32 (6291456)
I0122 19:14:42.158949 70150 net.cpp:159] Memory required for data: 530055680
I0122 19:14:42.158963 70150 layer_factory.hpp:77] Creating layer inception_3a/3x3/bn1
I0122 19:14:42.158970 70150 net.cpp:94] Creating Layer inception_3a/3x3/bn1
I0122 19:14:42.158973 70150 net.cpp:435] inception_3a/3x3/bn1 <- inception_3a/3x3
I0122 19:14:42.158978 70150 net.cpp:396] inception_3a/3x3/bn1 -> inception_3a/3x3 (in-place)
I0122 19:14:42.159631 70150 net.cpp:144] Setting up inception_3a/3x3/bn1
I0122 19:14:42.159637 70150 net.cpp:151] Top shape: 128 48 32 32 (6291456)
I0122 19:14:42.159641 70150 net.cpp:159] Memory required for data: 555221504
I0122 19:14:42.159651 70150 layer_factory.hpp:77] Creating layer inception_3a/3x3/relu1
I0122 19:14:42.159657 70150 net.cpp:94] Creating Layer inception_3a/3x3/relu1
I0122 19:14:42.159662 70150 net.cpp:435] inception_3a/3x3/relu1 <- inception_3a/3x3
I0122 19:14:42.159665 70150 net.cpp:396] inception_3a/3x3/relu1 -> inception_3a/3x3 (in-place)
I0122 19:14:42.159672 70150 net.cpp:144] Setting up inception_3a/3x3/relu1
I0122 19:14:42.159677 70150 net.cpp:151] Top shape: 128 48 32 32 (6291456)
I0122 19:14:42.159680 70150 net.cpp:159] Memory required for data: 580387328
I0122 19:14:42.159682 70150 layer_factory.hpp:77] Creating layer inception_3a/output
I0122 19:14:42.159687 70150 net.cpp:94] Creating Layer inception_3a/output
I0122 19:14:42.159689 70150 net.cpp:435] inception_3a/output <- inception_3a/1x1
I0122 19:14:42.159694 70150 net.cpp:435] inception_3a/output <- inception_3a/3x3
I0122 19:14:42.159699 70150 net.cpp:409] inception_3a/output -> inception_3a/output
I0122 19:14:42.159718 70150 net.cpp:144] Setting up inception_3a/output
I0122 19:14:42.159724 70150 net.cpp:151] Top shape: 128 80 32 32 (10485760)
I0122 19:14:42.159727 70150 net.cpp:159] Memory required for data: 622330368
I0122 19:14:42.159730 70150 layer_factory.hpp:77] Creating layer inception_3a/output_inception_3a/output_0_split
I0122 19:14:42.159735 70150 net.cpp:94] Creating Layer inception_3a/output_inception_3a/output_0_split
I0122 19:14:42.159739 70150 net.cpp:435] inception_3a/output_inception_3a/output_0_split <- inception_3a/output
I0122 19:14:42.159744 70150 net.cpp:409] inception_3a/output_inception_3a/output_0_split -> inception_3a/output_inception_3a/output_0_split_0
I0122 19:14:42.159750 70150 net.cpp:409] inception_3a/output_inception_3a/output_0_split -> inception_3a/output_inception_3a/output_0_split_1
I0122 19:14:42.159778 70150 net.cpp:144] Setting up inception_3a/output_inception_3a/output_0_split
I0122 19:14:42.159785 70150 net.cpp:151] Top shape: 128 80 32 32 (10485760)
I0122 19:14:42.159788 70150 net.cpp:151] Top shape: 128 80 32 32 (10485760)
I0122 19:14:42.159790 70150 net.cpp:159] Memory required for data: 706216448
I0122 19:14:42.159793 70150 layer_factory.hpp:77] Creating layer downsample_4/3x3_s2
I0122 19:14:42.159801 70150 net.cpp:94] Creating Layer downsample_4/3x3_s2
I0122 19:14:42.159806 70150 net.cpp:435] downsample_4/3x3_s2 <- inception_3a/output_inception_3a/output_0_split_0
I0122 19:14:42.159811 70150 net.cpp:409] downsample_4/3x3_s2 -> downsample_4/3x3_s2
I0122 19:14:42.160526 70150 net.cpp:144] Setting up downsample_4/3x3_s2
I0122 19:14:42.160533 70150 net.cpp:151] Top shape: 128 80 16 16 (2621440)
I0122 19:14:42.160537 70150 net.cpp:159] Memory required for data: 716702208
I0122 19:14:42.160543 70150 layer_factory.hpp:77] Creating layer downsample_4/3x3_s2/bn1
I0122 19:14:42.160552 70150 net.cpp:94] Creating Layer downsample_4/3x3_s2/bn1
I0122 19:14:42.160557 70150 net.cpp:435] downsample_4/3x3_s2/bn1 <- downsample_4/3x3_s2
I0122 19:14:42.160563 70150 net.cpp:396] downsample_4/3x3_s2/bn1 -> downsample_4/3x3_s2 (in-place)
I0122 19:14:42.161218 70150 net.cpp:144] Setting up downsample_4/3x3_s2/bn1
I0122 19:14:42.161224 70150 net.cpp:151] Top shape: 128 80 16 16 (2621440)
I0122 19:14:42.161228 70150 net.cpp:159] Memory required for data: 727187968
I0122 19:14:42.161237 70150 layer_factory.hpp:77] Creating layer downsample_4/3x3_s2/relu1
I0122 19:14:42.161240 70150 net.cpp:94] Creating Layer downsample_4/3x3_s2/relu1
I0122 19:14:42.161243 70150 net.cpp:435] downsample_4/3x3_s2/relu1 <- downsample_4/3x3_s2
I0122 19:14:42.161258 70150 net.cpp:396] downsample_4/3x3_s2/relu1 -> downsample_4/3x3_s2 (in-place)
I0122 19:14:42.161265 70150 net.cpp:144] Setting up downsample_4/3x3_s2/relu1
I0122 19:14:42.161269 70150 net.cpp:151] Top shape: 128 80 16 16 (2621440)
I0122 19:14:42.161272 70150 net.cpp:159] Memory required for data: 737673728
I0122 19:14:42.161274 70150 layer_factory.hpp:77] Creating layer downsample_4/pool_s2
I0122 19:14:42.161281 70150 net.cpp:94] Creating Layer downsample_4/pool_s2
I0122 19:14:42.161284 70150 net.cpp:435] downsample_4/pool_s2 <- inception_3a/output_inception_3a/output_0_split_1
I0122 19:14:42.161290 70150 net.cpp:409] downsample_4/pool_s2 -> downsample_4/pool_s2
I0122 19:14:42.161331 70150 net.cpp:144] Setting up downsample_4/pool_s2
I0122 19:14:42.161339 70150 net.cpp:151] Top shape: 128 80 16 16 (2621440)
I0122 19:14:42.161340 70150 net.cpp:159] Memory required for data: 748159488
I0122 19:14:42.161343 70150 layer_factory.hpp:77] Creating layer downsample_4/output
I0122 19:14:42.161348 70150 net.cpp:94] Creating Layer downsample_4/output
I0122 19:14:42.161352 70150 net.cpp:435] downsample_4/output <- downsample_4/3x3_s2
I0122 19:14:42.161355 70150 net.cpp:435] downsample_4/output <- downsample_4/pool_s2
I0122 19:14:42.161365 70150 net.cpp:409] downsample_4/output -> downsample_4/output
I0122 19:14:42.161383 70150 net.cpp:144] Setting up downsample_4/output
I0122 19:14:42.161389 70150 net.cpp:151] Top shape: 128 160 16 16 (5242880)
I0122 19:14:42.161392 70150 net.cpp:159] Memory required for data: 769131008
I0122 19:14:42.161396 70150 layer_factory.hpp:77] Creating layer downsample_4/output_downsample_4/output_0_split
I0122 19:14:42.161399 70150 net.cpp:94] Creating Layer downsample_4/output_downsample_4/output_0_split
I0122 19:14:42.161402 70150 net.cpp:435] downsample_4/output_downsample_4/output_0_split <- downsample_4/output
I0122 19:14:42.161408 70150 net.cpp:409] downsample_4/output_downsample_4/output_0_split -> downsample_4/output_downsample_4/output_0_split_0
I0122 19:14:42.161414 70150 net.cpp:409] downsample_4/output_downsample_4/output_0_split -> downsample_4/output_downsample_4/output_0_split_1
I0122 19:14:42.161443 70150 net.cpp:144] Setting up downsample_4/output_downsample_4/output_0_split
I0122 19:14:42.161450 70150 net.cpp:151] Top shape: 128 160 16 16 (5242880)
I0122 19:14:42.161453 70150 net.cpp:151] Top shape: 128 160 16 16 (5242880)
I0122 19:14:42.161458 70150 net.cpp:159] Memory required for data: 811074048
I0122 19:14:42.161460 70150 layer_factory.hpp:77] Creating layer inception_5a/1x1
I0122 19:14:42.161469 70150 net.cpp:94] Creating Layer inception_5a/1x1
I0122 19:14:42.161473 70150 net.cpp:435] inception_5a/1x1 <- downsample_4/output_downsample_4/output_0_split_0
I0122 19:14:42.161478 70150 net.cpp:409] inception_5a/1x1 -> inception_5a/1x1
I0122 19:14:42.161831 70150 net.cpp:144] Setting up inception_5a/1x1
I0122 19:14:42.161839 70150 net.cpp:151] Top shape: 128 112 16 16 (3670016)
I0122 19:14:42.161841 70150 net.cpp:159] Memory required for data: 825754112
I0122 19:14:42.161847 70150 layer_factory.hpp:77] Creating layer inception_5a/1x1/bn1
I0122 19:14:42.161855 70150 net.cpp:94] Creating Layer inception_5a/1x1/bn1
I0122 19:14:42.161861 70150 net.cpp:435] inception_5a/1x1/bn1 <- inception_5a/1x1
I0122 19:14:42.161866 70150 net.cpp:396] inception_5a/1x1/bn1 -> inception_5a/1x1 (in-place)
I0122 19:14:42.162623 70150 net.cpp:144] Setting up inception_5a/1x1/bn1
I0122 19:14:42.162631 70150 net.cpp:151] Top shape: 128 112 16 16 (3670016)
I0122 19:14:42.162634 70150 net.cpp:159] Memory required for data: 840434176
I0122 19:14:42.162642 70150 layer_factory.hpp:77] Creating layer inception_5a/1x1/relu1
I0122 19:14:42.162648 70150 net.cpp:94] Creating Layer inception_5a/1x1/relu1
I0122 19:14:42.162653 70150 net.cpp:435] inception_5a/1x1/relu1 <- inception_5a/1x1
I0122 19:14:42.162658 70150 net.cpp:396] inception_5a/1x1/relu1 -> inception_5a/1x1 (in-place)
I0122 19:14:42.162664 70150 net.cpp:144] Setting up inception_5a/1x1/relu1
I0122 19:14:42.162668 70150 net.cpp:151] Top shape: 128 112 16 16 (3670016)
I0122 19:14:42.162679 70150 net.cpp:159] Memory required for data: 855114240
I0122 19:14:42.162683 70150 layer_factory.hpp:77] Creating layer inception_5a/3x3
I0122 19:14:42.162691 70150 net.cpp:94] Creating Layer inception_5a/3x3
I0122 19:14:42.162696 70150 net.cpp:435] inception_5a/3x3 <- downsample_4/output_downsample_4/output_0_split_1
I0122 19:14:42.162703 70150 net.cpp:409] inception_5a/3x3 -> inception_5a/3x3
I0122 19:14:42.163427 70150 net.cpp:144] Setting up inception_5a/3x3
I0122 19:14:42.163435 70150 net.cpp:151] Top shape: 128 48 16 16 (1572864)
I0122 19:14:42.163437 70150 net.cpp:159] Memory required for data: 861405696
I0122 19:14:42.163444 70150 layer_factory.hpp:77] Creating layer inception_5a/3x3/bn1
I0122 19:14:42.163453 70150 net.cpp:94] Creating Layer inception_5a/3x3/bn1
I0122 19:14:42.163460 70150 net.cpp:435] inception_5a/3x3/bn1 <- inception_5a/3x3
I0122 19:14:42.163465 70150 net.cpp:396] inception_5a/3x3/bn1 -> inception_5a/3x3 (in-place)
I0122 19:14:42.164132 70150 net.cpp:144] Setting up inception_5a/3x3/bn1
I0122 19:14:42.164140 70150 net.cpp:151] Top shape: 128 48 16 16 (1572864)
I0122 19:14:42.164144 70150 net.cpp:159] Memory required for data: 867697152
I0122 19:14:42.164151 70150 layer_factory.hpp:77] Creating layer inception_5a/3x3/relu1
I0122 19:14:42.164160 70150 net.cpp:94] Creating Layer inception_5a/3x3/relu1
I0122 19:14:42.164165 70150 net.cpp:435] inception_5a/3x3/relu1 <- inception_5a/3x3
I0122 19:14:42.164170 70150 net.cpp:396] inception_5a/3x3/relu1 -> inception_5a/3x3 (in-place)
I0122 19:14:42.164175 70150 net.cpp:144] Setting up inception_5a/3x3/relu1
I0122 19:14:42.164180 70150 net.cpp:151] Top shape: 128 48 16 16 (1572864)
I0122 19:14:42.164182 70150 net.cpp:159] Memory required for data: 873988608
I0122 19:14:42.164186 70150 layer_factory.hpp:77] Creating layer inception_5a/output
I0122 19:14:42.164191 70150 net.cpp:94] Creating Layer inception_5a/output
I0122 19:14:42.164196 70150 net.cpp:435] inception_5a/output <- inception_5a/1x1
I0122 19:14:42.164199 70150 net.cpp:435] inception_5a/output <- inception_5a/3x3
I0122 19:14:42.164204 70150 net.cpp:409] inception_5a/output -> inception_5a/output
I0122 19:14:42.164227 70150 net.cpp:144] Setting up inception_5a/output
I0122 19:14:42.164232 70150 net.cpp:151] Top shape: 128 160 16 16 (5242880)
I0122 19:14:42.164235 70150 net.cpp:159] Memory required for data: 894960128
I0122 19:14:42.164237 70150 layer_factory.hpp:77] Creating layer inception_5a/output_inception_5a/output_0_split
I0122 19:14:42.164242 70150 net.cpp:94] Creating Layer inception_5a/output_inception_5a/output_0_split
I0122 19:14:42.164245 70150 net.cpp:435] inception_5a/output_inception_5a/output_0_split <- inception_5a/output
I0122 19:14:42.164252 70150 net.cpp:409] inception_5a/output_inception_5a/output_0_split -> inception_5a/output_inception_5a/output_0_split_0
I0122 19:14:42.164258 70150 net.cpp:409] inception_5a/output_inception_5a/output_0_split -> inception_5a/output_inception_5a/output_0_split_1
I0122 19:14:42.164288 70150 net.cpp:144] Setting up inception_5a/output_inception_5a/output_0_split
I0122 19:14:42.164294 70150 net.cpp:151] Top shape: 128 160 16 16 (5242880)
I0122 19:14:42.164299 70150 net.cpp:151] Top shape: 128 160 16 16 (5242880)
I0122 19:14:42.164301 70150 net.cpp:159] Memory required for data: 936903168
I0122 19:14:42.164304 70150 layer_factory.hpp:77] Creating layer inception_6a/1x1
I0122 19:14:42.164311 70150 net.cpp:94] Creating Layer inception_6a/1x1
I0122 19:14:42.164317 70150 net.cpp:435] inception_6a/1x1 <- inception_5a/output_inception_5a/output_0_split_0
I0122 19:14:42.164324 70150 net.cpp:409] inception_6a/1x1 -> inception_6a/1x1
I0122 19:14:42.165309 70150 net.cpp:144] Setting up inception_6a/1x1
I0122 19:14:42.165319 70150 net.cpp:151] Top shape: 128 96 16 16 (3145728)
I0122 19:14:42.165323 70150 net.cpp:159] Memory required for data: 949486080
I0122 19:14:42.165328 70150 layer_factory.hpp:77] Creating layer inception_6a/1x1/bn1
I0122 19:14:42.165336 70150 net.cpp:94] Creating Layer inception_6a/1x1/bn1
I0122 19:14:42.165350 70150 net.cpp:435] inception_6a/1x1/bn1 <- inception_6a/1x1
I0122 19:14:42.165359 70150 net.cpp:396] inception_6a/1x1/bn1 -> inception_6a/1x1 (in-place)
I0122 19:14:42.166234 70150 net.cpp:144] Setting up inception_6a/1x1/bn1
I0122 19:14:42.166241 70150 net.cpp:151] Top shape: 128 96 16 16 (3145728)
I0122 19:14:42.166244 70150 net.cpp:159] Memory required for data: 962068992
I0122 19:14:42.166254 70150 layer_factory.hpp:77] Creating layer inception_6a/1x1/relu1
I0122 19:14:42.166262 70150 net.cpp:94] Creating Layer inception_6a/1x1/relu1
I0122 19:14:42.166265 70150 net.cpp:435] inception_6a/1x1/relu1 <- inception_6a/1x1
I0122 19:14:42.166270 70150 net.cpp:396] inception_6a/1x1/relu1 -> inception_6a/1x1 (in-place)
I0122 19:14:42.166280 70150 net.cpp:144] Setting up inception_6a/1x1/relu1
I0122 19:14:42.166285 70150 net.cpp:151] Top shape: 128 96 16 16 (3145728)
I0122 19:14:42.166288 70150 net.cpp:159] Memory required for data: 974651904
I0122 19:14:42.166290 70150 layer_factory.hpp:77] Creating layer inception_6a/3x3
I0122 19:14:42.166302 70150 net.cpp:94] Creating Layer inception_6a/3x3
I0122 19:14:42.166307 70150 net.cpp:435] inception_6a/3x3 <- inception_5a/output_inception_5a/output_0_split_1
I0122 19:14:42.166313 70150 net.cpp:409] inception_6a/3x3 -> inception_6a/3x3
I0122 19:14:42.167083 70150 net.cpp:144] Setting up inception_6a/3x3
I0122 19:14:42.167093 70150 net.cpp:151] Top shape: 128 64 16 16 (2097152)
I0122 19:14:42.167094 70150 net.cpp:159] Memory required for data: 983040512
I0122 19:14:42.167106 70150 layer_factory.hpp:77] Creating layer inception_6a/3x3/bn1
I0122 19:14:42.167117 70150 net.cpp:94] Creating Layer inception_6a/3x3/bn1
I0122 19:14:42.167122 70150 net.cpp:435] inception_6a/3x3/bn1 <- inception_6a/3x3
I0122 19:14:42.167130 70150 net.cpp:396] inception_6a/3x3/bn1 -> inception_6a/3x3 (in-place)
I0122 19:14:42.167791 70150 net.cpp:144] Setting up inception_6a/3x3/bn1
I0122 19:14:42.167798 70150 net.cpp:151] Top shape: 128 64 16 16 (2097152)
I0122 19:14:42.167801 70150 net.cpp:159] Memory required for data: 991429120
I0122 19:14:42.167809 70150 layer_factory.hpp:77] Creating layer inception_6a/3x3/relu1
I0122 19:14:42.167815 70150 net.cpp:94] Creating Layer inception_6a/3x3/relu1
I0122 19:14:42.167819 70150 net.cpp:435] inception_6a/3x3/relu1 <- inception_6a/3x3
I0122 19:14:42.167824 70150 net.cpp:396] inception_6a/3x3/relu1 -> inception_6a/3x3 (in-place)
I0122 19:14:42.167829 70150 net.cpp:144] Setting up inception_6a/3x3/relu1
I0122 19:14:42.167834 70150 net.cpp:151] Top shape: 128 64 16 16 (2097152)
I0122 19:14:42.167837 70150 net.cpp:159] Memory required for data: 999817728
I0122 19:14:42.167840 70150 layer_factory.hpp:77] Creating layer inception_6a/output
I0122 19:14:42.167846 70150 net.cpp:94] Creating Layer inception_6a/output
I0122 19:14:42.167851 70150 net.cpp:435] inception_6a/output <- inception_6a/1x1
I0122 19:14:42.167855 70150 net.cpp:435] inception_6a/output <- inception_6a/3x3
I0122 19:14:42.167860 70150 net.cpp:409] inception_6a/output -> inception_6a/output
I0122 19:14:42.167879 70150 net.cpp:144] Setting up inception_6a/output
I0122 19:14:42.167886 70150 net.cpp:151] Top shape: 128 160 16 16 (5242880)
I0122 19:14:42.167887 70150 net.cpp:159] Memory required for data: 1020789248
I0122 19:14:42.167891 70150 layer_factory.hpp:77] Creating layer inception_6a/output_inception_6a/output_0_split
I0122 19:14:42.167897 70150 net.cpp:94] Creating Layer inception_6a/output_inception_6a/output_0_split
I0122 19:14:42.167901 70150 net.cpp:435] inception_6a/output_inception_6a/output_0_split <- inception_6a/output
I0122 19:14:42.167906 70150 net.cpp:409] inception_6a/output_inception_6a/output_0_split -> inception_6a/output_inception_6a/output_0_split_0
I0122 19:14:42.167912 70150 net.cpp:409] inception_6a/output_inception_6a/output_0_split -> inception_6a/output_inception_6a/output_0_split_1
I0122 19:14:42.167942 70150 net.cpp:144] Setting up inception_6a/output_inception_6a/output_0_split
I0122 19:14:42.167948 70150 net.cpp:151] Top shape: 128 160 16 16 (5242880)
I0122 19:14:42.167960 70150 net.cpp:151] Top shape: 128 160 16 16 (5242880)
I0122 19:14:42.167963 70150 net.cpp:159] Memory required for data: 1062732288
I0122 19:14:42.167965 70150 layer_factory.hpp:77] Creating layer inception_7a/1x1
I0122 19:14:42.167976 70150 net.cpp:94] Creating Layer inception_7a/1x1
I0122 19:14:42.167981 70150 net.cpp:435] inception_7a/1x1 <- inception_6a/output_inception_6a/output_0_split_0
I0122 19:14:42.167986 70150 net.cpp:409] inception_7a/1x1 -> inception_7a/1x1
I0122 19:14:42.168411 70150 net.cpp:144] Setting up inception_7a/1x1
I0122 19:14:42.168419 70150 net.cpp:151] Top shape: 128 80 16 16 (2621440)
I0122 19:14:42.168423 70150 net.cpp:159] Memory required for data: 1073218048
I0122 19:14:42.168428 70150 layer_factory.hpp:77] Creating layer inception_7a/1x1/bn1
I0122 19:14:42.168437 70150 net.cpp:94] Creating Layer inception_7a/1x1/bn1
I0122 19:14:42.168439 70150 net.cpp:435] inception_7a/1x1/bn1 <- inception_7a/1x1
I0122 19:14:42.168445 70150 net.cpp:396] inception_7a/1x1/bn1 -> inception_7a/1x1 (in-place)
I0122 19:14:42.169121 70150 net.cpp:144] Setting up inception_7a/1x1/bn1
I0122 19:14:42.169127 70150 net.cpp:151] Top shape: 128 80 16 16 (2621440)
I0122 19:14:42.169131 70150 net.cpp:159] Memory required for data: 1083703808
I0122 19:14:42.169138 70150 layer_factory.hpp:77] Creating layer inception_7a/1x1/relu1
I0122 19:14:42.169144 70150 net.cpp:94] Creating Layer inception_7a/1x1/relu1
I0122 19:14:42.169147 70150 net.cpp:435] inception_7a/1x1/relu1 <- inception_7a/1x1
I0122 19:14:42.169152 70150 net.cpp:396] inception_7a/1x1/relu1 -> inception_7a/1x1 (in-place)
I0122 19:14:42.169157 70150 net.cpp:144] Setting up inception_7a/1x1/relu1
I0122 19:14:42.169162 70150 net.cpp:151] Top shape: 128 80 16 16 (2621440)
I0122 19:14:42.169164 70150 net.cpp:159] Memory required for data: 1094189568
I0122 19:14:42.169167 70150 layer_factory.hpp:77] Creating layer inception_7a/3x3
I0122 19:14:42.169178 70150 net.cpp:94] Creating Layer inception_7a/3x3
I0122 19:14:42.169185 70150 net.cpp:435] inception_7a/3x3 <- inception_6a/output_inception_6a/output_0_split_1
I0122 19:14:42.169193 70150 net.cpp:409] inception_7a/3x3 -> inception_7a/3x3
I0122 19:14:42.170140 70150 net.cpp:144] Setting up inception_7a/3x3
I0122 19:14:42.170148 70150 net.cpp:151] Top shape: 128 80 16 16 (2621440)
I0122 19:14:42.170151 70150 net.cpp:159] Memory required for data: 1104675328
I0122 19:14:42.170156 70150 layer_factory.hpp:77] Creating layer inception_7a/3x3/bn1
I0122 19:14:42.170166 70150 net.cpp:94] Creating Layer inception_7a/3x3/bn1
I0122 19:14:42.170168 70150 net.cpp:435] inception_7a/3x3/bn1 <- inception_7a/3x3
I0122 19:14:42.170176 70150 net.cpp:396] inception_7a/3x3/bn1 -> inception_7a/3x3 (in-place)
I0122 19:14:42.171054 70150 net.cpp:144] Setting up inception_7a/3x3/bn1
I0122 19:14:42.171061 70150 net.cpp:151] Top shape: 128 80 16 16 (2621440)
I0122 19:14:42.171063 70150 net.cpp:159] Memory required for data: 1115161088
I0122 19:14:42.171072 70150 layer_factory.hpp:77] Creating layer inception_7a/3x3/relu1
I0122 19:14:42.171077 70150 net.cpp:94] Creating Layer inception_7a/3x3/relu1
I0122 19:14:42.171080 70150 net.cpp:435] inception_7a/3x3/relu1 <- inception_7a/3x3
I0122 19:14:42.171087 70150 net.cpp:396] inception_7a/3x3/relu1 -> inception_7a/3x3 (in-place)
I0122 19:14:42.171092 70150 net.cpp:144] Setting up inception_7a/3x3/relu1
I0122 19:14:42.171098 70150 net.cpp:151] Top shape: 128 80 16 16 (2621440)
I0122 19:14:42.171100 70150 net.cpp:159] Memory required for data: 1125646848
I0122 19:14:42.171103 70150 layer_factory.hpp:77] Creating layer inception_7a/output
I0122 19:14:42.171108 70150 net.cpp:94] Creating Layer inception_7a/output
I0122 19:14:42.171111 70150 net.cpp:435] inception_7a/output <- inception_7a/1x1
I0122 19:14:42.171115 70150 net.cpp:435] inception_7a/output <- inception_7a/3x3
I0122 19:14:42.171120 70150 net.cpp:409] inception_7a/output -> inception_7a/output
I0122 19:14:42.171144 70150 net.cpp:144] Setting up inception_7a/output
I0122 19:14:42.171150 70150 net.cpp:151] Top shape: 128 160 16 16 (5242880)
I0122 19:14:42.171162 70150 net.cpp:159] Memory required for data: 1146618368
I0122 19:14:42.171165 70150 layer_factory.hpp:77] Creating layer inception_7a/output_inception_7a/output_0_split
I0122 19:14:42.171172 70150 net.cpp:94] Creating Layer inception_7a/output_inception_7a/output_0_split
I0122 19:14:42.171175 70150 net.cpp:435] inception_7a/output_inception_7a/output_0_split <- inception_7a/output
I0122 19:14:42.171191 70150 net.cpp:409] inception_7a/output_inception_7a/output_0_split -> inception_7a/output_inception_7a/output_0_split_0
I0122 19:14:42.171209 70150 net.cpp:409] inception_7a/output_inception_7a/output_0_split -> inception_7a/output_inception_7a/output_0_split_1
I0122 19:14:42.171241 70150 net.cpp:144] Setting up inception_7a/output_inception_7a/output_0_split
I0122 19:14:42.171245 70150 net.cpp:151] Top shape: 128 160 16 16 (5242880)
I0122 19:14:42.171249 70150 net.cpp:151] Top shape: 128 160 16 16 (5242880)
I0122 19:14:42.171252 70150 net.cpp:159] Memory required for data: 1188561408
I0122 19:14:42.171254 70150 layer_factory.hpp:77] Creating layer inception_8a/1x1
I0122 19:14:42.171264 70150 net.cpp:94] Creating Layer inception_8a/1x1
I0122 19:14:42.171268 70150 net.cpp:435] inception_8a/1x1 <- inception_7a/output_inception_7a/output_0_split_0
I0122 19:14:42.171274 70150 net.cpp:409] inception_8a/1x1 -> inception_8a/1x1
I0122 19:14:42.171552 70150 net.cpp:144] Setting up inception_8a/1x1
I0122 19:14:42.171560 70150 net.cpp:151] Top shape: 128 48 16 16 (1572864)
I0122 19:14:42.171561 70150 net.cpp:159] Memory required for data: 1194852864
I0122 19:14:42.171566 70150 layer_factory.hpp:77] Creating layer inception_8a/1x1/bn1
I0122 19:14:42.171574 70150 net.cpp:94] Creating Layer inception_8a/1x1/bn1
I0122 19:14:42.171577 70150 net.cpp:435] inception_8a/1x1/bn1 <- inception_8a/1x1
I0122 19:14:42.171583 70150 net.cpp:396] inception_8a/1x1/bn1 -> inception_8a/1x1 (in-place)
I0122 19:14:42.172258 70150 net.cpp:144] Setting up inception_8a/1x1/bn1
I0122 19:14:42.172267 70150 net.cpp:151] Top shape: 128 48 16 16 (1572864)
I0122 19:14:42.172269 70150 net.cpp:159] Memory required for data: 1201144320
I0122 19:14:42.172277 70150 layer_factory.hpp:77] Creating layer inception_8a/1x1/relu1
I0122 19:14:42.172281 70150 net.cpp:94] Creating Layer inception_8a/1x1/relu1
I0122 19:14:42.172286 70150 net.cpp:435] inception_8a/1x1/relu1 <- inception_8a/1x1
I0122 19:14:42.172291 70150 net.cpp:396] inception_8a/1x1/relu1 -> inception_8a/1x1 (in-place)
I0122 19:14:42.172297 70150 net.cpp:144] Setting up inception_8a/1x1/relu1
I0122 19:14:42.172300 70150 net.cpp:151] Top shape: 128 48 16 16 (1572864)
I0122 19:14:42.172303 70150 net.cpp:159] Memory required for data: 1207435776
I0122 19:14:42.172307 70150 layer_factory.hpp:77] Creating layer inception_8a/3x3
I0122 19:14:42.172314 70150 net.cpp:94] Creating Layer inception_8a/3x3
I0122 19:14:42.172319 70150 net.cpp:435] inception_8a/3x3 <- inception_7a/output_inception_7a/output_0_split_1
I0122 19:14:42.172327 70150 net.cpp:409] inception_8a/3x3 -> inception_8a/3x3
I0122 19:14:42.174026 70150 net.cpp:144] Setting up inception_8a/3x3
I0122 19:14:42.174037 70150 net.cpp:151] Top shape: 128 96 16 16 (3145728)
I0122 19:14:42.174041 70150 net.cpp:159] Memory required for data: 1220018688
I0122 19:14:42.174047 70150 layer_factory.hpp:77] Creating layer inception_8a/3x3/bn1
I0122 19:14:42.174057 70150 net.cpp:94] Creating Layer inception_8a/3x3/bn1
I0122 19:14:42.174062 70150 net.cpp:435] inception_8a/3x3/bn1 <- inception_8a/3x3
I0122 19:14:42.174070 70150 net.cpp:396] inception_8a/3x3/bn1 -> inception_8a/3x3 (in-place)
I0122 19:14:42.174759 70150 net.cpp:144] Setting up inception_8a/3x3/bn1
I0122 19:14:42.174767 70150 net.cpp:151] Top shape: 128 96 16 16 (3145728)
I0122 19:14:42.174769 70150 net.cpp:159] Memory required for data: 1232601600
I0122 19:14:42.174777 70150 layer_factory.hpp:77] Creating layer inception_8a/3x3/relu1
I0122 19:14:42.174784 70150 net.cpp:94] Creating Layer inception_8a/3x3/relu1
I0122 19:14:42.174787 70150 net.cpp:435] inception_8a/3x3/relu1 <- inception_8a/3x3
I0122 19:14:42.174803 70150 net.cpp:396] inception_8a/3x3/relu1 -> inception_8a/3x3 (in-place)
I0122 19:14:42.174811 70150 net.cpp:144] Setting up inception_8a/3x3/relu1
I0122 19:14:42.174816 70150 net.cpp:151] Top shape: 128 96 16 16 (3145728)
I0122 19:14:42.174819 70150 net.cpp:159] Memory required for data: 1245184512
I0122 19:14:42.174821 70150 layer_factory.hpp:77] Creating layer inception_8a/output
I0122 19:14:42.174826 70150 net.cpp:94] Creating Layer inception_8a/output
I0122 19:14:42.174829 70150 net.cpp:435] inception_8a/output <- inception_8a/1x1
I0122 19:14:42.174834 70150 net.cpp:435] inception_8a/output <- inception_8a/3x3
I0122 19:14:42.174840 70150 net.cpp:409] inception_8a/output -> inception_8a/output
I0122 19:14:42.174860 70150 net.cpp:144] Setting up inception_8a/output
I0122 19:14:42.174865 70150 net.cpp:151] Top shape: 128 144 16 16 (4718592)
I0122 19:14:42.174868 70150 net.cpp:159] Memory required for data: 1264058880
I0122 19:14:42.174870 70150 layer_factory.hpp:77] Creating layer inception_8a/output_inception_8a/output_0_split
I0122 19:14:42.174875 70150 net.cpp:94] Creating Layer inception_8a/output_inception_8a/output_0_split
I0122 19:14:42.174880 70150 net.cpp:435] inception_8a/output_inception_8a/output_0_split <- inception_8a/output
I0122 19:14:42.174887 70150 net.cpp:409] inception_8a/output_inception_8a/output_0_split -> inception_8a/output_inception_8a/output_0_split_0
I0122 19:14:42.174896 70150 net.cpp:409] inception_8a/output_inception_8a/output_0_split -> inception_8a/output_inception_8a/output_0_split_1
I0122 19:14:42.174926 70150 net.cpp:144] Setting up inception_8a/output_inception_8a/output_0_split
I0122 19:14:42.174932 70150 net.cpp:151] Top shape: 128 144 16 16 (4718592)
I0122 19:14:42.174935 70150 net.cpp:151] Top shape: 128 144 16 16 (4718592)
I0122 19:14:42.174938 70150 net.cpp:159] Memory required for data: 1301807616
I0122 19:14:42.174940 70150 layer_factory.hpp:77] Creating layer downsample_9/3x3_s2
I0122 19:14:42.174950 70150 net.cpp:94] Creating Layer downsample_9/3x3_s2
I0122 19:14:42.174955 70150 net.cpp:435] downsample_9/3x3_s2 <- inception_8a/output_inception_8a/output_0_split_0
I0122 19:14:42.174962 70150 net.cpp:409] downsample_9/3x3_s2 -> downsample_9/3x3_s2
I0122 19:14:42.175921 70150 net.cpp:144] Setting up downsample_9/3x3_s2
I0122 19:14:42.175930 70150 net.cpp:151] Top shape: 128 96 8 8 (786432)
I0122 19:14:42.175933 70150 net.cpp:159] Memory required for data: 1304953344
I0122 19:14:42.175938 70150 layer_factory.hpp:77] Creating layer downsample_9/3x3_s2/bn1
I0122 19:14:42.175947 70150 net.cpp:94] Creating Layer downsample_9/3x3_s2/bn1
I0122 19:14:42.175953 70150 net.cpp:435] downsample_9/3x3_s2/bn1 <- downsample_9/3x3_s2
I0122 19:14:42.175961 70150 net.cpp:396] downsample_9/3x3_s2/bn1 -> downsample_9/3x3_s2 (in-place)
I0122 19:14:42.176642 70150 net.cpp:144] Setting up downsample_9/3x3_s2/bn1
I0122 19:14:42.176650 70150 net.cpp:151] Top shape: 128 96 8 8 (786432)
I0122 19:14:42.176652 70150 net.cpp:159] Memory required for data: 1308099072
I0122 19:14:42.176661 70150 layer_factory.hpp:77] Creating layer downsample_9/3x3_s2/relu1
I0122 19:14:42.176666 70150 net.cpp:94] Creating Layer downsample_9/3x3_s2/relu1
I0122 19:14:42.176668 70150 net.cpp:435] downsample_9/3x3_s2/relu1 <- downsample_9/3x3_s2
I0122 19:14:42.176676 70150 net.cpp:396] downsample_9/3x3_s2/relu1 -> downsample_9/3x3_s2 (in-place)
I0122 19:14:42.176683 70150 net.cpp:144] Setting up downsample_9/3x3_s2/relu1
I0122 19:14:42.176687 70150 net.cpp:151] Top shape: 128 96 8 8 (786432)
I0122 19:14:42.176690 70150 net.cpp:159] Memory required for data: 1311244800
I0122 19:14:42.176693 70150 layer_factory.hpp:77] Creating layer downsample_9/pool_s2
I0122 19:14:42.176698 70150 net.cpp:94] Creating Layer downsample_9/pool_s2
I0122 19:14:42.176702 70150 net.cpp:435] downsample_9/pool_s2 <- inception_8a/output_inception_8a/output_0_split_1
I0122 19:14:42.176708 70150 net.cpp:409] downsample_9/pool_s2 -> downsample_9/pool_s2
I0122 19:14:42.176740 70150 net.cpp:144] Setting up downsample_9/pool_s2
I0122 19:14:42.176757 70150 net.cpp:151] Top shape: 128 144 8 8 (1179648)
I0122 19:14:42.176760 70150 net.cpp:159] Memory required for data: 1315963392
I0122 19:14:42.176764 70150 layer_factory.hpp:77] Creating layer downsample_9/output
I0122 19:14:42.176769 70150 net.cpp:94] Creating Layer downsample_9/output
I0122 19:14:42.176771 70150 net.cpp:435] downsample_9/output <- downsample_9/3x3_s2
I0122 19:14:42.176775 70150 net.cpp:435] downsample_9/output <- downsample_9/pool_s2
I0122 19:14:42.176781 70150 net.cpp:409] downsample_9/output -> downsample_9/output
I0122 19:14:42.176800 70150 net.cpp:144] Setting up downsample_9/output
I0122 19:14:42.176805 70150 net.cpp:151] Top shape: 128 240 8 8 (1966080)
I0122 19:14:42.176807 70150 net.cpp:159] Memory required for data: 1323827712
I0122 19:14:42.176810 70150 layer_factory.hpp:77] Creating layer downsample_9/output_downsample_9/output_0_split
I0122 19:14:42.176821 70150 net.cpp:94] Creating Layer downsample_9/output_downsample_9/output_0_split
I0122 19:14:42.176826 70150 net.cpp:435] downsample_9/output_downsample_9/output_0_split <- downsample_9/output
I0122 19:14:42.176831 70150 net.cpp:409] downsample_9/output_downsample_9/output_0_split -> downsample_9/output_downsample_9/output_0_split_0
I0122 19:14:42.176837 70150 net.cpp:409] downsample_9/output_downsample_9/output_0_split -> downsample_9/output_downsample_9/output_0_split_1
I0122 19:14:42.176868 70150 net.cpp:144] Setting up downsample_9/output_downsample_9/output_0_split
I0122 19:14:42.176874 70150 net.cpp:151] Top shape: 128 240 8 8 (1966080)
I0122 19:14:42.176877 70150 net.cpp:151] Top shape: 128 240 8 8 (1966080)
I0122 19:14:42.176880 70150 net.cpp:159] Memory required for data: 1339556352
I0122 19:14:42.176884 70150 layer_factory.hpp:77] Creating layer inception_10a/1x1
I0122 19:14:42.176893 70150 net.cpp:94] Creating Layer inception_10a/1x1
I0122 19:14:42.176898 70150 net.cpp:435] inception_10a/1x1 <- downsample_9/output_downsample_9/output_0_split_0
I0122 19:14:42.176905 70150 net.cpp:409] inception_10a/1x1 -> inception_10a/1x1
I0122 19:14:42.177371 70150 net.cpp:144] Setting up inception_10a/1x1
I0122 19:14:42.177378 70150 net.cpp:151] Top shape: 128 176 8 8 (1441792)
I0122 19:14:42.177381 70150 net.cpp:159] Memory required for data: 1345323520
I0122 19:14:42.177386 70150 layer_factory.hpp:77] Creating layer inception_10a/1x1/bn1
I0122 19:14:42.177393 70150 net.cpp:94] Creating Layer inception_10a/1x1/bn1
I0122 19:14:42.177398 70150 net.cpp:435] inception_10a/1x1/bn1 <- inception_10a/1x1
I0122 19:14:42.177405 70150 net.cpp:396] inception_10a/1x1/bn1 -> inception_10a/1x1 (in-place)
I0122 19:14:42.178077 70150 net.cpp:144] Setting up inception_10a/1x1/bn1
I0122 19:14:42.178086 70150 net.cpp:151] Top shape: 128 176 8 8 (1441792)
I0122 19:14:42.178088 70150 net.cpp:159] Memory required for data: 1351090688
I0122 19:14:42.178095 70150 layer_factory.hpp:77] Creating layer inception_10a/1x1/relu1
I0122 19:14:42.178102 70150 net.cpp:94] Creating Layer inception_10a/1x1/relu1
I0122 19:14:42.178104 70150 net.cpp:435] inception_10a/1x1/relu1 <- inception_10a/1x1
I0122 19:14:42.178109 70150 net.cpp:396] inception_10a/1x1/relu1 -> inception_10a/1x1 (in-place)
I0122 19:14:42.178115 70150 net.cpp:144] Setting up inception_10a/1x1/relu1
I0122 19:14:42.178120 70150 net.cpp:151] Top shape: 128 176 8 8 (1441792)
I0122 19:14:42.178124 70150 net.cpp:159] Memory required for data: 1356857856
I0122 19:14:42.178126 70150 layer_factory.hpp:77] Creating layer inception_10a/3x3
I0122 19:14:42.178134 70150 net.cpp:94] Creating Layer inception_10a/3x3
I0122 19:14:42.178138 70150 net.cpp:435] inception_10a/3x3 <- downsample_9/output_downsample_9/output_0_split_1
I0122 19:14:42.178144 70150 net.cpp:409] inception_10a/3x3 -> inception_10a/3x3
I0122 19:14:42.181342 70150 net.cpp:144] Setting up inception_10a/3x3
I0122 19:14:42.181354 70150 net.cpp:151] Top shape: 128 160 8 8 (1310720)
I0122 19:14:42.181357 70150 net.cpp:159] Memory required for data: 1362100736
I0122 19:14:42.181362 70150 layer_factory.hpp:77] Creating layer inception_10a/3x3/bn1
I0122 19:14:42.181381 70150 net.cpp:94] Creating Layer inception_10a/3x3/bn1
I0122 19:14:42.181385 70150 net.cpp:435] inception_10a/3x3/bn1 <- inception_10a/3x3
I0122 19:14:42.181391 70150 net.cpp:396] inception_10a/3x3/bn1 -> inception_10a/3x3 (in-place)
I0122 19:14:42.182055 70150 net.cpp:144] Setting up inception_10a/3x3/bn1
I0122 19:14:42.182063 70150 net.cpp:151] Top shape: 128 160 8 8 (1310720)
I0122 19:14:42.182066 70150 net.cpp:159] Memory required for data: 1367343616
I0122 19:14:42.182075 70150 layer_factory.hpp:77] Creating layer inception_10a/3x3/relu1
I0122 19:14:42.182081 70150 net.cpp:94] Creating Layer inception_10a/3x3/relu1
I0122 19:14:42.182086 70150 net.cpp:435] inception_10a/3x3/relu1 <- inception_10a/3x3
I0122 19:14:42.182091 70150 net.cpp:396] inception_10a/3x3/relu1 -> inception_10a/3x3 (in-place)
I0122 19:14:42.182098 70150 net.cpp:144] Setting up inception_10a/3x3/relu1
I0122 19:14:42.182104 70150 net.cpp:151] Top shape: 128 160 8 8 (1310720)
I0122 19:14:42.182107 70150 net.cpp:159] Memory required for data: 1372586496
I0122 19:14:42.182109 70150 layer_factory.hpp:77] Creating layer inception_10a/output
I0122 19:14:42.182116 70150 net.cpp:94] Creating Layer inception_10a/output
I0122 19:14:42.182119 70150 net.cpp:435] inception_10a/output <- inception_10a/1x1
I0122 19:14:42.182122 70150 net.cpp:435] inception_10a/output <- inception_10a/3x3
I0122 19:14:42.182127 70150 net.cpp:409] inception_10a/output -> inception_10a/output
I0122 19:14:42.182147 70150 net.cpp:144] Setting up inception_10a/output
I0122 19:14:42.182152 70150 net.cpp:151] Top shape: 128 336 8 8 (2752512)
I0122 19:14:42.182155 70150 net.cpp:159] Memory required for data: 1383596544
I0122 19:14:42.182158 70150 layer_factory.hpp:77] Creating layer inception_10a/output_inception_10a/output_0_split
I0122 19:14:42.182163 70150 net.cpp:94] Creating Layer inception_10a/output_inception_10a/output_0_split
I0122 19:14:42.182168 70150 net.cpp:435] inception_10a/output_inception_10a/output_0_split <- inception_10a/output
I0122 19:14:42.182173 70150 net.cpp:409] inception_10a/output_inception_10a/output_0_split -> inception_10a/output_inception_10a/output_0_split_0
I0122 19:14:42.182178 70150 net.cpp:409] inception_10a/output_inception_10a/output_0_split -> inception_10a/output_inception_10a/output_0_split_1
I0122 19:14:42.182206 70150 net.cpp:144] Setting up inception_10a/output_inception_10a/output_0_split
I0122 19:14:42.182212 70150 net.cpp:151] Top shape: 128 336 8 8 (2752512)
I0122 19:14:42.182216 70150 net.cpp:151] Top shape: 128 336 8 8 (2752512)
I0122 19:14:42.182219 70150 net.cpp:159] Memory required for data: 1405616640
I0122 19:14:42.182221 70150 layer_factory.hpp:77] Creating layer inception_11a/1x1
I0122 19:14:42.182231 70150 net.cpp:94] Creating Layer inception_11a/1x1
I0122 19:14:42.182236 70150 net.cpp:435] inception_11a/1x1 <- inception_10a/output_inception_10a/output_0_split_0
I0122 19:14:42.182241 70150 net.cpp:409] inception_11a/1x1 -> inception_11a/1x1
I0122 19:14:42.182804 70150 net.cpp:144] Setting up inception_11a/1x1
I0122 19:14:42.182811 70150 net.cpp:151] Top shape: 128 176 8 8 (1441792)
I0122 19:14:42.182814 70150 net.cpp:159] Memory required for data: 1411383808
I0122 19:14:42.182821 70150 layer_factory.hpp:77] Creating layer inception_11a/1x1/bn1
I0122 19:14:42.182828 70150 net.cpp:94] Creating Layer inception_11a/1x1/bn1
I0122 19:14:42.182833 70150 net.cpp:435] inception_11a/1x1/bn1 <- inception_11a/1x1
I0122 19:14:42.182840 70150 net.cpp:396] inception_11a/1x1/bn1 -> inception_11a/1x1 (in-place)
I0122 19:14:42.183512 70150 net.cpp:144] Setting up inception_11a/1x1/bn1
I0122 19:14:42.183519 70150 net.cpp:151] Top shape: 128 176 8 8 (1441792)
I0122 19:14:42.183522 70150 net.cpp:159] Memory required for data: 1417150976
I0122 19:14:42.183531 70150 layer_factory.hpp:77] Creating layer inception_11a/1x1/relu1
I0122 19:14:42.183534 70150 net.cpp:94] Creating Layer inception_11a/1x1/relu1
I0122 19:14:42.183537 70150 net.cpp:435] inception_11a/1x1/relu1 <- inception_11a/1x1
I0122 19:14:42.183553 70150 net.cpp:396] inception_11a/1x1/relu1 -> inception_11a/1x1 (in-place)
I0122 19:14:42.183560 70150 net.cpp:144] Setting up inception_11a/1x1/relu1
I0122 19:14:42.183564 70150 net.cpp:151] Top shape: 128 176 8 8 (1441792)
I0122 19:14:42.183568 70150 net.cpp:159] Memory required for data: 1422918144
I0122 19:14:42.183570 70150 layer_factory.hpp:77] Creating layer inception_11a/3x3
I0122 19:14:42.183579 70150 net.cpp:94] Creating Layer inception_11a/3x3
I0122 19:14:42.183584 70150 net.cpp:435] inception_11a/3x3 <- inception_10a/output_inception_10a/output_0_split_1
I0122 19:14:42.183590 70150 net.cpp:409] inception_11a/3x3 -> inception_11a/3x3
I0122 19:14:42.187325 70150 net.cpp:144] Setting up inception_11a/3x3
I0122 19:14:42.187336 70150 net.cpp:151] Top shape: 128 160 8 8 (1310720)
I0122 19:14:42.187340 70150 net.cpp:159] Memory required for data: 1428161024
I0122 19:14:42.187345 70150 layer_factory.hpp:77] Creating layer inception_11a/3x3/bn1
I0122 19:14:42.187368 70150 net.cpp:94] Creating Layer inception_11a/3x3/bn1
I0122 19:14:42.187371 70150 net.cpp:435] inception_11a/3x3/bn1 <- inception_11a/3x3
I0122 19:14:42.187378 70150 net.cpp:396] inception_11a/3x3/bn1 -> inception_11a/3x3 (in-place)
I0122 19:14:42.188063 70150 net.cpp:144] Setting up inception_11a/3x3/bn1
I0122 19:14:42.188072 70150 net.cpp:151] Top shape: 128 160 8 8 (1310720)
I0122 19:14:42.188076 70150 net.cpp:159] Memory required for data: 1433403904
I0122 19:14:42.188096 70150 layer_factory.hpp:77] Creating layer inception_11a/3x3/relu1
I0122 19:14:42.188102 70150 net.cpp:94] Creating Layer inception_11a/3x3/relu1
I0122 19:14:42.188107 70150 net.cpp:435] inception_11a/3x3/relu1 <- inception_11a/3x3
I0122 19:14:42.188110 70150 net.cpp:396] inception_11a/3x3/relu1 -> inception_11a/3x3 (in-place)
I0122 19:14:42.188117 70150 net.cpp:144] Setting up inception_11a/3x3/relu1
I0122 19:14:42.188120 70150 net.cpp:151] Top shape: 128 160 8 8 (1310720)
I0122 19:14:42.188123 70150 net.cpp:159] Memory required for data: 1438646784
I0122 19:14:42.188127 70150 layer_factory.hpp:77] Creating layer inception_11a/output
I0122 19:14:42.188133 70150 net.cpp:94] Creating Layer inception_11a/output
I0122 19:14:42.188138 70150 net.cpp:435] inception_11a/output <- inception_11a/1x1
I0122 19:14:42.188141 70150 net.cpp:435] inception_11a/output <- inception_11a/3x3
I0122 19:14:42.188146 70150 net.cpp:409] inception_11a/output -> inception_11a/output
I0122 19:14:42.188165 70150 net.cpp:144] Setting up inception_11a/output
I0122 19:14:42.188170 70150 net.cpp:151] Top shape: 128 336 8 8 (2752512)
I0122 19:14:42.188174 70150 net.cpp:159] Memory required for data: 1449656832
I0122 19:14:42.188175 70150 layer_factory.hpp:77] Creating layer avg_pool_12/8x8_s1
I0122 19:14:42.188181 70150 net.cpp:94] Creating Layer avg_pool_12/8x8_s1
I0122 19:14:42.188184 70150 net.cpp:435] avg_pool_12/8x8_s1 <- inception_11a/output
I0122 19:14:42.188191 70150 net.cpp:409] avg_pool_12/8x8_s1 -> avg_pool_12/8x8_s1
I0122 19:14:42.188215 70150 net.cpp:144] Setting up avg_pool_12/8x8_s1
I0122 19:14:42.188220 70150 net.cpp:151] Top shape: 128 336 1 1 (43008)
I0122 19:14:42.188223 70150 net.cpp:159] Memory required for data: 1449828864
I0122 19:14:42.188226 70150 layer_factory.hpp:77] Creating layer drop_8x8_s1
I0122 19:14:42.188231 70150 net.cpp:94] Creating Layer drop_8x8_s1
I0122 19:14:42.188235 70150 net.cpp:435] drop_8x8_s1 <- avg_pool_12/8x8_s1
I0122 19:14:42.188239 70150 net.cpp:396] drop_8x8_s1 -> avg_pool_12/8x8_s1 (in-place)
I0122 19:14:42.188257 70150 net.cpp:144] Setting up drop_8x8_s1
I0122 19:14:42.188264 70150 net.cpp:151] Top shape: 128 336 1 1 (43008)
I0122 19:14:42.188266 70150 net.cpp:159] Memory required for data: 1450000896
I0122 19:14:42.188269 70150 layer_factory.hpp:77] Creating layer loss/classifier
I0122 19:14:42.188275 70150 net.cpp:94] Creating Layer loss/classifier
I0122 19:14:42.188280 70150 net.cpp:435] loss/classifier <- avg_pool_12/8x8_s1
I0122 19:14:42.188287 70150 net.cpp:409] loss/classifier -> loss/classifier
I0122 19:14:42.188424 70150 net.cpp:144] Setting up loss/classifier
I0122 19:14:42.188439 70150 net.cpp:151] Top shape: 128 10 (1280)
I0122 19:14:42.188442 70150 net.cpp:159] Memory required for data: 1450006016
I0122 19:14:42.188447 70150 layer_factory.hpp:77] Creating layer loss
I0122 19:14:42.188453 70150 net.cpp:94] Creating Layer loss
I0122 19:14:42.188459 70150 net.cpp:435] loss <- loss/classifier
I0122 19:14:42.188462 70150 net.cpp:435] loss <- label
I0122 19:14:42.188467 70150 net.cpp:409] loss -> loss
I0122 19:14:42.188474 70150 layer_factory.hpp:77] Creating layer loss
…
I0122 19:14:42.189815 70150 solver.cpp:189] Creating test net (#0) specified by net file: cifar10/deephi/miniGoogleNet/pruning/regular_rate_0.3/net_finetune.prototxt
I0122 19:14:42.189896 70150 net.cpp:323] The NetState phase (1) differed from the phase (0) specified by a rule in layer data
I0122 19:14:42.190554 70150 net.cpp:52] Initializing net from parameters: 
state {
  phase: TEST
}
layer {
  name: "data"
  type: "Data"
  top: "data"
  top: "label"
  include {
    phase: TEST
  }
  transform_param {
    mirror: false
    mean_value: 104
    mean_value: 117
    mean_value: 123
  }
  data_param {
    source: "cifar10/input/lmdb/valid_lmdb"
    batch_size: 50
    backend: LMDB
  }
}
layer {
  name: "conv1/3x3_s1"
  type: "Convolution"
  bottom: "data"
  top: "conv1/3x3_s1"
  param {
    lr_mult: 1
    decay_mult: 1
    compression: PRUNE
  }
  param {
    lr_mult: 2
    decay_mult: 0
    compression: PRUNE
  }
  convolution_param {
    num_output: 96
    pad: 1
    kernel_size: 3
    stride: 1
    weight_filler {
      type: "xavier"
      std: 0.1
    }
    bias_filler {
      type: "constant"
      value: 0.2
    }
  }
}
layer {
  name: "conv1/bn1"
  type: "BatchNorm"
  bottom: "conv1/3x3_s1"
  top: "conv1/3x3_s1"
  param {
    lr_mult: 1
    decay_mult: 0
    compression: PRUNE
  }
  param {
    lr_mult: 1
    decay_mult: 0
    compression: PRUNE
  }
  param {
    lr_mult: 0
    decay_mult: 0
    compression: PRUNE
  }
  param {
    lr_mult: 0
    decay_mult: 0
    compression: PRUNE
  }
  batch_norm_param {
    use_global_stats: false
    scale_filler {
      type: "constant"
      value: 1
    }
    bias_filler {
      type: "constant"
      value: 0
    }
  }
}
layer {
  name: "conv1/relu1"
  type: "ReLU"
  bottom: "conv1/3x3_s1"
  top: "conv1/3x3_s1"
}
layer {
  name: "inception_2a/1x1"
  type: "Convolution"
  bottom: "conv1/3x3_s1"
  top: "inception_2a/1x1"
  param {
    lr_mult: 1
    decay_mult: 1
    compression: PRUNE
  }
  param {
    lr_mult: 2
    decay_mult: 0
    compression: PRUNE
  }
  convolution_param {
    num_output: 32
    kernel_size: 1
    weight_filler {
      type: "xavier"
      std: 0.03
    }
    bias_filler {
      type: "constant"
      value: 0.2
    }
  }
}
layer {
  name: "inception_2a/1x1/bn1"
  type: "BatchNorm"
  bottom: "inception_2a/1x1"
  top: "inception_2a/1x1"
  param {
    lr_mult: 1
    decay_mult: 0
    compression: PRUNE
  }
  param {
    lr_mult: 1
    decay_mult: 0
    compression: PRUNE
  }
  param {
    lr_mult: 0
    decay_mult: 0
    compression: PRUNE
  }
  param {
    lr_mult: 0
    decay_mult: 0
    compression: PRUNE
  }
  batch_norm_param {
    use_global_stats: false
    scale_filler {
      type: "constant"
      value: 1
    }
    bias_filler {
      type: "constant"
      value: 0
    }
  }
}
layer {
  name: "inception_2a/1x1/relu1"
  type: "ReLU"
  bottom: "inception_2a/1x1"
  top: "inception_2a/1x1"
}
layer {
  name: "inception_2a/3x3"
  type: "Convolution"
  bottom: "conv1/3x3_s1"
  top: "inception_2a/3x3"
  param {
    lr_mult: 1
    decay_mult: 1
    compression: PRUNE
  }
  param {
    lr_mult: 2
    decay_mult: 0
    compression: PRUNE
  }
  convolution_param {
    num_output: 32
    pad: 1
    kernel_size: 3
    weight_filler {
      type: "xavier"
      std: 0.03
    }
    bias_filler {
      type: "constant"
      value: 0.2
    }
  }
}
layer {
  name: "inception_2a/3x3/bn1"
  type: "BatchNorm"
  bottom: "inception_2a/3x3"
  top: "inception_2a/3x3"
  param {
    lr_mult: 1
    decay_mult: 0
    compression: PRUNE
  }
  param {
    lr_mult: 1
    decay_mult: 0
    compression: PRUNE
  }
  param {
    lr_mult: 0
    decay_mult: 0
    compression: PRUNE
  }
  param {
    lr_mult: 0
    decay_mult: 0
    compression: PRUNE
  }
  batch_norm_param {
    use_global_stats: false
    scale_filler {
      type: "constant"
      value: 1
    }
    bias_filler {
      type: "constant"
      value: 0
    }
  }
}
layer {
  name: "inception_2a/3x3/relu1"
  type: "ReLU"
  bottom: "inception_2a/3x3"
  top: "inception_2a/3x3"
}
layer {
  name: "inception_2a/output"
  type: "Concat"
  bottom: "inception_2a/1x1"
  bottom: "inception_2a/3x3"
  top: "inception_2a/output"
}
layer {
  name: "inception_3a/1x1"
  type: "Convolution"
  bottom: "inception_2a/output"
  top: "inception_3a/1x1"
  param {
    lr_mult: 1
    decay_mult: 1
    compression: PRUNE
  }
  param {
    lr_mult: 2
    decay_mult: 0
    compression: PRUNE
  }
  convolution_param {
    num_output: 32
    kernel_size: 1
    weight_filler {
      type: "xavier"
      std: 0.03
    }
    bias_filler {
      type: "constant"
      value: 0.2
    }
  }
}
layer {
  name: "inception_3a/1x1/bn1"
  type: "BatchNorm"
  bottom: "inception_3a/1x1"
  top: "inception_3a/1x1"
  param {
    lr_mult: 1
    decay_mult: 0
    compression: PRUNE
  }
  param {
    lr_mult: 1
    decay_mult: 0
    compression: PRUNE
  }
  param {
    lr_mult: 0
    decay_mult: 0
    compression: PRUNE
  }
  param {
    lr_mult: 0
    decay_mult: 0
    compression: PRUNE
  }
  batch_norm_param {
    use_global_stats: false
    scale_filler {
      type: "constant"
      value: 1
    }
    bias_filler {
      type: "constant"
      value: 0
    }
  }
}
layer {
  name: "inception_3a/1x1/relu1"
  type: "ReLU"
  bottom: "inception_3a/1x1"
  top: "inception_3a/1x1"
}
layer {
  name: "inception_3a/3x3"
  type: "Convolution"
  bottom: "inception_2a/output"
  top: "inception_3a/3x3"
  param {
    lr_mult: 1
    decay_mult: 1
    compression: PRUNE
  }
  param {
    lr_mult: 2
    decay_mult: 0
    compression: PRUNE
  }
  convolution_param {
    num_output: 48
    pad: 1
    kernel_size: 3
    weight_filler {
      type: "xavier"
      std: 0.03
    }
    bias_filler {
      type: "constant"
      value: 0.2
    }
  }
}
layer {
  name: "inception_3a/3x3/bn1"
  type: "BatchNorm"
  bottom: "inception_3a/3x3"
  top: "inception_3a/3x3"
  param {
    lr_mult: 1
    decay_mult: 0
    compression: PRUNE
  }
  param {
    lr_mult: 1
    decay_mult: 0
    compression: PRUNE
  }
  param {
    lr_mult: 0
    decay_mult: 0
    compression: PRUNE
  }
  param {
    lr_mult: 0
    decay_mult: 0
    compression: PRUNE
  }
  batch_norm_param {
    use_global_stats: false
    scale_filler {
      type: "constant"
      value: 1
    }
    bias_filler {
      type: "constant"
      value: 0
    }
  }
}
layer {
  name: "inception_3a/3x3/relu1"
  type: "ReLU"
  bottom: "inception_3a/3x3"
  top: "inception_3a/3x3"
}
layer {
  name: "inception_3a/output"
  type: "Concat"
  bottom: "inception_3a/1x1"
  bottom: "inception_3a/3x3"
  top: "inception_3a/output"
}
layer {
  name: "downsample_4/3x3_s2"
  type: "Convolution"
  bottom: "inception_3a/output"
  top: "downsample_4/3x3_s2"
  param {
    lr_mult: 1
    decay_mult: 1
    compression: PRUNE
  }
  param {
    lr_mult: 2
    decay_mult: 0
    compression: PRUNE
  }
  convolution_param {
    num_output: 80
    pad: 1
    kernel_size: 3
    stride: 2
    weight_filler {
      type: "xavier"
      std: 0.03
    }
    bias_filler {
      type: "constant"
      value: 0.2
    }
  }
}
layer {
  name: "downsample_4/3x3_s2/bn1"
  type: "BatchNorm"
  bottom: "downsample_4/3x3_s2"
  top: "downsample_4/3x3_s2"
  param {
    lr_mult: 1
    decay_mult: 0
    compression: PRUNE
  }
  param {
    lr_mult: 1
    decay_mult: 0
    compression: PRUNE
  }
  param {
    lr_mult: 0
    decay_mult: 0
    compression: PRUNE
  }
  param {
    lr_mult: 0
    decay_mult: 0
    compression: PRUNE
  }
  batch_norm_param {
    use_global_stats: false
    scale_filler {
      type: "constant"
      value: 1
    }
    bias_filler {
      type: "constant"
      value: 0
    }
  }
}
layer {
  name: "downsample_4/3x3_s2/relu1"
  type: "ReLU"
  bottom: "downsample_4/3x3_s2"
  top: "downsample_4/3x3_s2"
}
layer {
  name: "downsample_4/pool_s2"
  type: "Pooling"
  bottom: "inception_3a/output"
  top: "downsample_4/pool_s2"
  pooling_param {
    pool: MAX
    kernel_size: 3
    stride: 2
  }
}
layer {
  name: "downsample_4/output"
  type: "Concat"
  bottom: "downsample_4/3x3_s2"
  bottom: "downsample_4/pool_s2"
  top: "downsample_4/output"
}
layer {
  name: "inception_5a/1x1"
  type: "Convolution"
  bottom: "downsample_4/output"
  top: "inception_5a/1x1"
  param {
    lr_mult: 1
    decay_mult: 1
    compression: PRUNE
  }
  param {
    lr_mult: 2
    decay_mult: 0
    compression: PRUNE
  }
  convolution_param {
    num_output: 112
    kernel_size: 1
    weight_filler {
      type: "xavier"
      std: 0.03
    }
    bias_filler {
      type: "constant"
      value: 0.2
    }
  }
}
layer {
  name: "inception_5a/1x1/bn1"
  type: "BatchNorm"
  bottom: "inception_5a/1x1"
  top: "inception_5a/1x1"
  param {
    lr_mult: 1
    decay_mult: 0
    compression: PRUNE
  }
  param {
    lr_mult: 1
    decay_mult: 0
    compression: PRUNE
  }
  param {
    lr_mult: 0
    decay_mult: 0
    compression: PRUNE
  }
  param {
    lr_mult: 0
    decay_mult: 0
    compression: PRUNE
  }
  batch_norm_param {
    use_global_stats: false
    scale_filler {
      type: "constant"
      value: 1
    }
    bias_filler {
      type: "constant"
      value: 0
    }
  }
}
layer {
  name: "inception_5a/1x1/relu1"
  type: "ReLU"
  bottom: "inception_5a/1x1"
  top: "inception_5a/1x1"
}
layer {
  name: "inception_5a/3x3"
  type: "Convolution"
  bottom: "downsample_4/output"
  top: "inception_5a/3x3"
  param {
    lr_mult: 1
    decay_mult: 1
    compression: PRUNE
  }
  param {
    lr_mult: 2
    decay_mult: 0
    compression: PRUNE
  }
  convolution_param {
    num_output: 48
    pad: 1
    kernel_size: 3
    weight_filler {
      type: "xavier"
      std: 0.03
    }
    bias_filler {
      type: "constant"
      value: 0.2
    }
  }
}
layer {
  name: "inception_5a/3x3/bn1"
  type: "BatchNorm"
  bottom: "inception_5a/3x3"
  top: "inception_5a/3x3"
  param {
    lr_mult: 1
    decay_mult: 0
    compression: PRUNE
  }
  param {
    lr_mult: 1
    decay_mult: 0
    compression: PRUNE
  }
  param {
    lr_mult: 0
    decay_mult: 0
    compression: PRUNE
  }
  param {
    lr_mult: 0
    decay_mult: 0
    compression: PRUNE
  }
  batch_norm_param {
    use_global_stats: false
    scale_filler {
      type: "constant"
      value: 1
    }
    bias_filler {
      type: "constant"
      value: 0
    }
  }
}
layer {
  name: "inception_5a/3x3/relu1"
  type: "ReLU"
  bottom: "inception_5a/3x3"
  top: "inception_5a/3x3"
}
layer {
  name: "inception_5a/output"
  type: "Concat"
  bottom: "inception_5a/1x1"
  bottom: "inception_5a/3x3"
  top: "inception_5a/output"
}
layer {
  name: "inception_6a/1x1"
  type: "Convolution"
  bottom: "inception_5a/output"
  top: "inception_6a/1x1"
  param {
    lr_mult: 1
    decay_mult: 1
    compression: PRUNE
  }
  param {
    lr_mult: 2
    decay_mult: 0
    compression: PRUNE
  }
  convolution_param {
    num_output: 96
    kernel_size: 1
    weight_filler {
      type: "xavier"
      std: 0.03
    }
    bias_filler {
      type: "constant"
      value: 0.2
    }
  }
}
layer {
  name: "inception_6a/1x1/bn1"
  type: "BatchNorm"
  bottom: "inception_6a/1x1"
  top: "inception_6a/1x1"
  param {
    lr_mult: 1
    decay_mult: 0
    compression: PRUNE
  }
  param {
    lr_mult: 1
    decay_mult: 0
    compression: PRUNE
  }
  param {
    lr_mult: 0
    decay_mult: 0
    compression: PRUNE
  }
  param {
    lr_mult: 0
    decay_mult: 0
    compression: PRUNE
  }
  batch_norm_param {
    use_global_stats: false
    scale_filler {
      type: "constant"
      value: 1
    }
    bias_filler {
      type: "constant"
      value: 0
    }
  }
}
layer {
  name: "inception_6a/1x1/relu1"
  type: "ReLU"
  bottom: "inception_6a/1x1"
  top: "inception_6a/1x1"
}
layer {
  name: "inception_6a/3x3"
  type: "Convolution"
  bottom: "inception_5a/output"
  top: "inception_6a/3x3"
  param {
    lr_mult: 1
    decay_mult: 1
    compression: PRUNE
  }
  param {
    lr_mult: 2
    decay_mult: 0
    compression: PRUNE
  }
  convolution_param {
    num_output: 64
    pad: 1
    kernel_size: 3
    weight_filler {
      type: "xavier"
      std: 0.03
    }
    bias_filler {
      type: "constant"
      value: 0.2
    }
  }
}
layer {
  name: "inception_6a/3x3/bn1"
  type: "BatchNorm"
  bottom: "inception_6a/3x3"
  top: "inception_6a/3x3"
  param {
    lr_mult: 1
    decay_mult: 0
    compression: PRUNE
  }
  param {
    lr_mult: 1
    decay_mult: 0
    compression: PRUNE
  }
  param {
    lr_mult: 0
    decay_mult: 0
    compression: PRUNE
  }
  param {
    lr_mult: 0
    decay_mult: 0
    compression: PRUNE
  }
  batch_norm_param {
    use_global_stats: false
    scale_filler {
      type: "constant"
      value: 1
    }
    bias_filler {
      type: "constant"
      value: 0
    }
  }
}
layer {
  name: "inception_6a/3x3/relu1"
  type: "ReLU"
  bottom: "inception_6a/3x3"
  top: "inception_6a/3x3"
}
layer {
  name: "inception_6a/output"
  type: "Concat"
  bottom: "inception_6a/1x1"
  bottom: "inception_6a/3x3"
  top: "inception_6a/output"
}
layer {
  name: "inception_7a/1x1"
  type: "Convolution"
  bottom: "inception_6a/output"
  top: "inception_7a/1x1"
  param {
    lr_mult: 1
    decay_mult: 1
    compression: PRUNE
  }
  param {
    lr_mult: 2
    decay_mult: 0
    compression: PRUNE
  }
  convolution_param {
    num_output: 80
    kernel_size: 1
    weight_filler {
      type: "xavier"
      std: 0.03
    }
    bias_filler {
      type: "constant"
      value: 0.2
    }
  }
}
layer {
  name: "inception_7a/1x1/bn1"
  type: "BatchNorm"
  bottom: "inception_7a/1x1"
  top: "inception_7a/1x1"
  param {
    lr_mult: 1
    decay_mult: 0
    compression: PRUNE
  }
  param {
    lr_mult: 1
    decay_mult: 0
    compression: PRUNE
  }
  param {
    lr_mult: 0
    decay_mult: 0
    compression: PRUNE
  }
  param {
    lr_mult: 0
    decay_mult: 0
    compression: PRUNE
  }
  batch_norm_param {
    use_global_stats: false
    scale_filler {
      type: "constant"
      value: 1
    }
    bias_filler {
      type: "constant"
      value: 0
    }
  }
}
layer {
  name: "inception_7a/1x1/relu1"
  type: "ReLU"
  bottom: "inception_7a/1x1"
  top: "inception_7a/1x1"
}
layer {
  name: "inception_7a/3x3"
  type: "Convolution"
  bottom: "inception_6a/output"
  top: "inception_7a/3x3"
  param {
    lr_mult: 1
    decay_mult: 1
    compression: PRUNE
  }
  param {
    lr_mult: 2
    decay_mult: 0
    compression: PRUNE
  }
  convolution_param {
    num_output: 80
    pad: 1
    kernel_size: 3
    weight_filler {
      type: "xavier"
      std: 0.03
    }
    bias_filler {
      type: "constant"
      value: 0.2
    }
  }
}
layer {
  name: "inception_7a/3x3/bn1"
  type: "BatchNorm"
  bottom: "inception_7a/3x3"
  top: "inception_7a/3x3"
  param {
    lr_mult: 1
    decay_mult: 0
    compression: PRUNE
  }
  param {
    lr_mult: 1
    decay_mult: 0
    compression: PRUNE
  }
  param {
    lr_mult: 0
    decay_mult: 0
    compression: PRUNE
  }
  param {
    lr_mult: 0
    decay_mult: 0
    compression: PRUNE
  }
  batch_norm_param {
    use_global_stats: false
    scale_filler {
      type: "constant"
      value: 1
    }
    bias_filler {
      type: "constant"
      value: 0
    }
  }
}
layer {
  name: "inception_7a/3x3/relu1"
  type: "ReLU"
  bottom: "inception_7a/3x3"
  top: "inception_7a/3x3"
}
layer {
  name: "inception_7a/output"
  type: "Concat"
  bottom: "inception_7a/1x1"
  bottom: "inception_7a/3x3"
  top: "inception_7a/output"
}
layer {
  name: "inception_8a/1x1"
  type: "Convolution"
  bottom: "inception_7a/output"
  top: "inception_8a/1x1"
  param {
    lr_mult: 1
    decay_mult: 1
    compression: PRUNE
  }
  param {
    lr_mult: 2
    decay_mult: 0
    compression: PRUNE
  }
  convolution_param {
    num_output: 48
    kernel_size: 1
    weight_filler {
      type: "xavier"
      std: 0.03
    }
    bias_filler {
      type: "constant"
      value: 0.2
    }
  }
}
layer {
  name: "inception_8a/1x1/bn1"
  type: "BatchNorm"
  bottom: "inception_8a/1x1"
  top: "inception_8a/1x1"
  param {
    lr_mult: 1
    decay_mult: 0
    compression: PRUNE
  }
  param {
    lr_mult: 1
    decay_mult: 0
    compression: PRUNE
  }
  param {
    lr_mult: 0
    decay_mult: 0
    compression: PRUNE
  }
  param {
    lr_mult: 0
    decay_mult: 0
    compression: PRUNE
  }
  batch_norm_param {
    use_global_stats: false
    scale_filler {
      type: "constant"
      value: 1
    }
    bias_filler {
      type: "constant"
      value: 0
    }
  }
}
layer {
  name: "inception_8a/1x1/relu1"
  type: "ReLU"
  bottom: "inception_8a/1x1"
  top: "inception_8a/1x1"
}
layer {
  name: "inception_8a/3x3"
  type: "Convolution"
  bottom: "inception_7a/output"
  top: "inception_8a/3x3"
  param {
    lr_mult: 1
    decay_mult: 1
    compression: PRUNE
  }
  param {
    lr_mult: 2
    decay_mult: 0
    compression: PRUNE
  }
  convolution_param {
    num_output: 96
    pad: 1
    kernel_size: 3
    weight_filler {
      type: "xavier"
      std: 0.03
    }
    bias_filler {
      type: "constant"
      value: 0.2
    }
  }
}
layer {
  name: "inception_8a/3x3/bn1"
  type: "BatchNorm"
  bottom: "inception_8a/3x3"
  top: "inception_8a/3x3"
  param {
    lr_mult: 1
    decay_mult: 0
    compression: PRUNE
  }
  param {
    lr_mult: 1
    decay_mult: 0
    compression: PRUNE
  }
  param {
    lr_mult: 0
    decay_mult: 0
    compression: PRUNE
  }
  param {
    lr_mult: 0
    decay_mult: 0
    compression: PRUNE
  }
  batch_norm_param {
    use_global_stats: false
    scale_filler {
      type: "constant"
      value: 1
    }
    bias_filler {
      type: "constant"
      value: 0
    }
  }
}
layer {
  name: "inception_8a/3x3/relu1"
  type: "ReLU"
  bottom: "inception_8a/3x3"
  top: "inception_8a/3x3"
}
layer {
  name: "inception_8a/output"
  type: "Concat"
  bottom: "inception_8a/1x1"
  bottom: "inception_8a/3x3"
  top: "inception_8a/output"
}
layer {
  name: "downsample_9/3x3_s2"
  type: "Convolution"
  bottom: "inception_8a/output"
  top: "downsample_9/3x3_s2"
  param {
    lr_mult: 1
    decay_mult: 1
    compression: PRUNE
  }
  param {
    lr_mult: 2
    decay_mult: 0
    compression: PRUNE
  }
  convolution_param {
    num_output: 96
    pad: 1
    kernel_size: 3
    stride: 2
    weight_filler {
      type: "xavier"
      std: 0.03
    }
    bias_filler {
      type: "constant"
      value: 0.2
    }
  }
}
layer {
  name: "downsample_9/3x3_s2/bn1"
  type: "BatchNorm"
  bottom: "downsample_9/3x3_s2"
  top: "downsample_9/3x3_s2"
  param {
    lr_mult: 1
    decay_mult: 0
    compression: PRUNE
  }
  param {
    lr_mult: 1
    decay_mult: 0
    compression: PRUNE
  }
  param {
    lr_mult: 0
    decay_mult: 0
    compression: PRUNE
  }
  param {
    lr_mult: 0
    decay_mult: 0
    compression: PRUNE
  }
  batch_norm_param {
    use_global_stats: false
    scale_filler {
      type: "constant"
      value: 1
    }
    bias_filler {
      type: "constant"
      value: 0
    }
  }
}
layer {
  name: "downsample_9/3x3_s2/relu1"
  type: "ReLU"
  bottom: "downsample_9/3x3_s2"
  top: "downsample_9/3x3_s2"
}
layer {
  name: "downsample_9/pool_s2"
  type: "Pooling"
  bottom: "inception_8a/output"
  top: "downsample_9/pool_s2"
  pooling_param {
    pool: MAX
    kernel_size: 3
    stride: 2
  }
}
layer {
  name: "downsample_9/output"
  type: "Concat"
  bottom: "downsample_9/3x3_s2"
  bottom: "downsample_9/pool_s2"
  top: "downsample_9/output"
}
layer {
  name: "inception_10a/1x1"
  type: "Convolution"
  bottom: "downsample_9/output"
  top: "inception_10a/1x1"
  param {
    lr_mult: 1
    decay_mult: 1
    compression: PRUNE
  }
  param {
    lr_mult: 2
    decay_mult: 0
    compression: PRUNE
  }
  convolution_param {
    num_output: 176
    kernel_size: 1
    weight_filler {
      type: "xavier"
      std: 0.03
    }
    bias_filler {
      type: "constant"
      value: 0.2
    }
  }
}
layer {
  name: "inception_10a/1x1/bn1"
  type: "BatchNorm"
  bottom: "inception_10a/1x1"
  top: "inception_10a/1x1"
  param {
    lr_mult: 1
    decay_mult: 0
    compression: PRUNE
  }
  param {
    lr_mult: 1
    decay_mult: 0
    compression: PRUNE
  }
  param {
    lr_mult: 0
    decay_mult: 0
    compression: PRUNE
  }
  param {
    lr_mult: 0
    decay_mult: 0
    compression: PRUNE
  }
  batch_norm_param {
    use_global_stats: false
    scale_filler {
      type: "constant"
      value: 1
    }
    bias_filler {
      type: "constant"
      value: 0
    }
  }
}
layer {
  name: "inception_10a/1x1/relu1"
  type: "ReLU"
  bottom: "inception_10a/1x1"
  top: "inception_10a/1x1"
}
layer {
  name: "inception_10a/3x3"
  type: "Convolution"
  bottom: "downsample_9/output"
  top: "inception_10a/3x3"
  param {
    lr_mult: 1
    decay_mult: 1
    compression: PRUNE
  }
  param {
    lr_mult: 2
    decay_mult: 0
    compression: PRUNE
  }
  convolution_param {
    num_output: 160
    pad: 1
    kernel_size: 3
    weight_filler {
      type: "xavier"
      std: 0.03
    }
    bias_filler {
      type: "constant"
      value: 0.2
    }
  }
}
layer {
  name: "inception_10a/3x3/bn1"
  type: "BatchNorm"
  bottom: "inception_10a/3x3"
  top: "inception_10a/3x3"
  param {
    lr_mult: 1
    decay_mult: 0
    compression: PRUNE
  }
  param {
    lr_mult: 1
    decay_mult: 0
    compression: PRUNE
  }
  param {
    lr_mult: 0
    decay_mult: 0
    compression: PRUNE
  }
  param {
    lr_mult: 0
    decay_mult: 0
    compression: PRUNE
  }
  batch_norm_param {
    use_global_stats: false
    scale_filler {
      type: "constant"
      value: 1
    }
    bias_filler {
      type: "constant"
      value: 0
    }
  }
}
layer {
  name: "inception_10a/3x3/relu1"
  type: "ReLU"
  bottom: "inception_10a/3x3"
  top: "inception_10a/3x3"
}
layer {
  name: "inception_10a/output"
  type: "Concat"
  bottom: "inception_10a/1x1"
  bottom: "inception_10a/3x3"
  top: "inception_10a/output"
}
layer {
  name: "inception_11a/1x1"
  type: "Convolution"
  bottom: "inception_10a/output"
  top: "inception_11a/1x1"
  param {
    lr_mult: 1
    decay_mult: 1
    compression: PRUNE
  }
  param {
    lr_mult: 2
    decay_mult: 0
    compression: PRUNE
  }
  convolution_param {
    num_output: 176
    kernel_size: 1
    weight_filler {
      type: "xavier"
      std: 0.03
    }
    bias_filler {
      type: "constant"
      value: 0.2
    }
  }
}
layer {
  name: "inception_11a/1x1/bn1"
  type: "BatchNorm"
  bottom: "inception_11a/1x1"
  top: "inception_11a/1x1"
  param {
    lr_mult: 1
    decay_mult: 0
    compression: PRUNE
  }
  param {
    lr_mult: 1
    decay_mult: 0
    compression: PRUNE
  }
  param {
    lr_mult: 0
    decay_mult: 0
    compression: PRUNE
  }
  param {
    lr_mult: 0
    decay_mult: 0
    compression: PRUNE
  }
  batch_norm_param {
    use_global_stats: false
    scale_filler {
      type: "constant"
      value: 1
    }
    bias_filler {
      type: "constant"
      value: 0
    }
  }
}
layer {
  name: "inception_11a/1x1/relu1"
  type: "ReLU"
  bottom: "inception_11a/1x1"
  top: "inception_11a/1x1"
}
layer {
  name: "inception_11a/3x3"
  type: "Convolution"
  bottom: "inception_10a/output"
  top: "inception_11a/3x3"
  param {
    lr_mult: 1
    decay_mult: 1
    compression: PRUNE
  }
  param {
    lr_mult: 2
    decay_mult: 0
    compression: PRUNE
  }
  convolution_param {
    num_output: 160
    pad: 1
    kernel_size: 3
    weight_filler {
      type: "xavier"
      std: 0.03
    }
    bias_filler {
      type: "constant"
      value: 0.2
    }
  }
}
layer {
  name: "inception_11a/3x3/bn1"
  type: "BatchNorm"
  bottom: "inception_11a/3x3"
  top: "inception_11a/3x3"
  param {
    lr_mult: 1
    decay_mult: 0
    compression: PRUNE
  }
  param {
    lr_mult: 1
    decay_mult: 0
    compression: PRUNE
  }
  param {
    lr_mult: 0
    decay_mult: 0
    compression: PRUNE
  }
  param {
    lr_mult: 0
    decay_mult: 0
    compression: PRUNE
  }
  batch_norm_param {
    use_global_stats: false
    scale_filler {
      type: "constant"
      value: 1
    }
    bias_filler {
      type: "constant"
      value: 0
    }
  }
}
layer {
  name: "inception_11a/3x3/relu1"
  type: "ReLU"
  bottom: "inception_11a/3x3"
  top: "inception_11a/3x3"
}
layer {
  name: "inception_11a/output"
  type: "Concat"
  bottom: "inception_11a/1x1"
  bottom: "inception_11a/3x3"
  top: "inception_11a/output"
}
layer {
  name: "avg_pool_12/8x8_s1"
  type: "Pooling"
  bottom: "inception_11a/output"
  top: "avg_pool_12/8x8_s1"
  pooling_param {
    pool: AVE
    kernel_size: 8
    stride: 1
  }
}
layer {
  name: "drop_8x8_s1"
  type: "Dropout"
  bottom: "avg_pool_12/8x8_s1"
  top: "avg_pool_12/8x8_s1"
  dropout_param {
    dropout_ratio: 0.5
  }
}
layer {
  name: "loss/classifier"
  type: "InnerProduct"
  bottom: "avg_pool_12/8x8_s1"
  top: "loss/classifier"
  param {
    lr_mult: 1
    decay_mult: 1
  }
  param {
    lr_mult: 2
    decay_mult: 0
  }
  inner_product_param {
    num_output: 10
    weight_filler {
      type: "xavier"
    }
    bias_filler {
      type: "constant"
      value: 1
    }
  }
}
layer {
  name: "loss"
  type: "SoftmaxWithLoss"
  bottom: "loss/classifier"
  bottom: "label"
  top: "loss"
}
layer {
  name: "accuracy"
  type: "Accuracy"
  bottom: "loss/classifier"
  bottom: "label"
  top: "accuracy"
  include {
    phase: TEST
  }
}
layer {
  name: "accuracy-top1"
  type: "Accuracy"
  bottom: "loss/classifier"
  bottom: "label"
  top: "top-1"
  include {
    phase: TEST
  }
}
layer {
  name: "accuracy-top5"
  type: "Accuracy"
  bottom: "loss/classifier"
  bottom: "label"
  top: "top-5"
  include {
    phase: TEST
  }
  accuracy_param {
    top_k: 5
  }
}
I0122 19:14:42.190876 70150 layer_factory.hpp:77] Creating layer data
I0122 19:14:42.190917 70150 internal_thread.cpp:27] Starting internal thread(s) on GPU 0
I0122 19:14:42.191743 70150 net.cpp:94] Creating Layer data
I0122 19:14:42.191753 70150 net.cpp:409] data -> data
I0122 19:14:42.191761 70150 net.cpp:409] data -> label
I0122 19:14:42.192740 70219 db_lmdb.cpp:35] Opened lmdb cifar10/input/lmdb/valid_lmdb
I0122 19:14:42.192773 70219 data_reader.cpp:117] TEST: reading data using 1 channel(s)
I0122 19:14:42.192869 70150 data_layer.cpp:78] ReshapePrefetch 50, 3, 32, 32
I0122 19:14:42.192966 70150 data_layer.cpp:83] output data size: 50,3,32,32
I0122 19:14:42.195981 70150 internal_thread.cpp:27] Starting internal thread(s) on GPU 0
I0122 19:14:42.196034 70150 net.cpp:144] Setting up data
I0122 19:14:42.196043 70150 net.cpp:151] Top shape: 50 3 32 32 (153600)
I0122 19:14:42.196045 70150 net.cpp:151] Top shape: 50 (50)
I0122 19:14:42.196048 70150 net.cpp:159] Memory required for data: 614600
I0122 19:14:42.196051 70150 layer_factory.hpp:77] Creating layer label_data_1_split
I0122 19:14:42.196059 70150 net.cpp:94] Creating Layer label_data_1_split
I0122 19:14:42.196066 70150 net.cpp:435] label_data_1_split <- label
I0122 19:14:42.196074 70150 net.cpp:409] label_data_1_split -> label_data_1_split_0
I0122 19:14:42.196081 70150 net.cpp:409] label_data_1_split -> label_data_1_split_1
I0122 19:14:42.196090 70150 net.cpp:409] label_data_1_split -> label_data_1_split_2
I0122 19:14:42.196096 70150 net.cpp:409] label_data_1_split -> label_data_1_split_3
I0122 19:14:42.196207 70150 net.cpp:144] Setting up label_data_1_split
I0122 19:14:42.196213 70150 net.cpp:151] Top shape: 50 (50)
I0122 19:14:42.196216 70150 net.cpp:151] Top shape: 50 (50)
I0122 19:14:42.196219 70150 net.cpp:151] Top shape: 50 (50)
I0122 19:14:42.196223 70150 net.cpp:151] Top shape: 50 (50)
I0122 19:14:42.196224 70150 net.cpp:159] Memory required for data: 615400
I0122 19:14:42.196228 70150 layer_factory.hpp:77] Creating layer conv1/3x3_s1
I0122 19:14:42.196238 70150 net.cpp:94] Creating Layer conv1/3x3_s1
I0122 19:14:42.196243 70150 net.cpp:435] conv1/3x3_s1 <- data
I0122 19:14:42.196249 70150 net.cpp:409] conv1/3x3_s1 -> conv1/3x3_s1
I0122 19:14:42.196609 70150 net.cpp:144] Setting up conv1/3x3_s1
I0122 19:14:42.196614 70150 net.cpp:151] Top shape: 50 96 32 32 (4915200)
I0122 19:14:42.196617 70150 net.cpp:159] Memory required for data: 20276200
I0122 19:14:42.196625 70150 layer_factory.hpp:77] Creating layer conv1/bn1
I0122 19:14:42.196633 70150 net.cpp:94] Creating Layer conv1/bn1
I0122 19:14:42.196636 70150 net.cpp:435] conv1/bn1 <- conv1/3x3_s1
I0122 19:14:42.196651 70150 net.cpp:396] conv1/bn1 -> conv1/3x3_s1 (in-place)
I0122 19:14:42.197336 70150 net.cpp:144] Setting up conv1/bn1
I0122 19:14:42.197346 70150 net.cpp:151] Top shape: 50 96 32 32 (4915200)
I0122 19:14:42.197348 70150 net.cpp:159] Memory required for data: 39937000
I0122 19:14:42.197360 70150 layer_factory.hpp:77] Creating layer conv1/relu1
I0122 19:14:42.197366 70150 net.cpp:94] Creating Layer conv1/relu1
I0122 19:14:42.197371 70150 net.cpp:435] conv1/relu1 <- conv1/3x3_s1
I0122 19:14:42.197376 70150 net.cpp:396] conv1/relu1 -> conv1/3x3_s1 (in-place)
I0122 19:14:42.197381 70150 net.cpp:144] Setting up conv1/relu1
I0122 19:14:42.197384 70150 net.cpp:151] Top shape: 50 96 32 32 (4915200)
I0122 19:14:42.197387 70150 net.cpp:159] Memory required for data: 59597800
I0122 19:14:42.197389 70150 layer_factory.hpp:77] Creating layer conv1/3x3_s1_conv1/relu1_0_split
I0122 19:14:42.197394 70150 net.cpp:94] Creating Layer conv1/3x3_s1_conv1/relu1_0_split
I0122 19:14:42.197397 70150 net.cpp:435] conv1/3x3_s1_conv1/relu1_0_split <- conv1/3x3_s1
I0122 19:14:42.197402 70150 net.cpp:409] conv1/3x3_s1_conv1/relu1_0_split -> conv1/3x3_s1_conv1/relu1_0_split_0
I0122 19:14:42.197408 70150 net.cpp:409] conv1/3x3_s1_conv1/relu1_0_split -> conv1/3x3_s1_conv1/relu1_0_split_1
I0122 19:14:42.197439 70150 net.cpp:144] Setting up conv1/3x3_s1_conv1/relu1_0_split
I0122 19:14:42.197444 70150 net.cpp:151] Top shape: 50 96 32 32 (4915200)
I0122 19:14:42.197449 70150 net.cpp:151] Top shape: 50 96 32 32 (4915200)
I0122 19:14:42.197451 70150 net.cpp:159] Memory required for data: 98919400
I0122 19:14:42.197453 70150 layer_factory.hpp:77] Creating layer inception_2a/1x1
I0122 19:14:42.197461 70150 net.cpp:94] Creating Layer inception_2a/1x1
I0122 19:14:42.197468 70150 net.cpp:435] inception_2a/1x1 <- conv1/3x3_s1_conv1/relu1_0_split_0
I0122 19:14:42.197474 70150 net.cpp:409] inception_2a/1x1 -> inception_2a/1x1
I0122 19:14:42.198083 70150 net.cpp:144] Setting up inception_2a/1x1
I0122 19:14:42.198091 70150 net.cpp:151] Top shape: 50 32 32 32 (1638400)
I0122 19:14:42.198094 70150 net.cpp:159] Memory required for data: 105473000
I0122 19:14:42.198102 70150 layer_factory.hpp:77] Creating layer inception_2a/1x1/bn1
I0122 19:14:42.198109 70150 net.cpp:94] Creating Layer inception_2a/1x1/bn1
I0122 19:14:42.198114 70150 net.cpp:435] inception_2a/1x1/bn1 <- inception_2a/1x1
I0122 19:14:42.198122 70150 net.cpp:396] inception_2a/1x1/bn1 -> inception_2a/1x1 (in-place)
I0122 19:14:42.198987 70150 net.cpp:144] Setting up inception_2a/1x1/bn1
I0122 19:14:42.198994 70150 net.cpp:151] Top shape: 50 32 32 32 (1638400)
I0122 19:14:42.198997 70150 net.cpp:159] Memory required for data: 112026600
I0122 19:14:42.199005 70150 layer_factory.hpp:77] Creating layer inception_2a/1x1/relu1
I0122 19:14:42.199012 70150 net.cpp:94] Creating Layer inception_2a/1x1/relu1
I0122 19:14:42.199017 70150 net.cpp:435] inception_2a/1x1/relu1 <- inception_2a/1x1
I0122 19:14:42.199023 70150 net.cpp:396] inception_2a/1x1/relu1 -> inception_2a/1x1 (in-place)
I0122 19:14:42.199029 70150 net.cpp:144] Setting up inception_2a/1x1/relu1
I0122 19:14:42.199035 70150 net.cpp:151] Top shape: 50 32 32 32 (1638400)
I0122 19:14:42.199038 70150 net.cpp:159] Memory required for data: 118580200
I0122 19:14:42.199040 70150 layer_factory.hpp:77] Creating layer inception_2a/3x3
I0122 19:14:42.199049 70150 net.cpp:94] Creating Layer inception_2a/3x3
I0122 19:14:42.199054 70150 net.cpp:435] inception_2a/3x3 <- conv1/3x3_s1_conv1/relu1_0_split_1
I0122 19:14:42.199061 70150 net.cpp:409] inception_2a/3x3 -> inception_2a/3x3
I0122 19:14:42.199514 70150 net.cpp:144] Setting up inception_2a/3x3
I0122 19:14:42.199522 70150 net.cpp:151] Top shape: 50 32 32 32 (1638400)
I0122 19:14:42.199525 70150 net.cpp:159] Memory required for data: 125133800
I0122 19:14:42.199530 70150 layer_factory.hpp:77] Creating layer inception_2a/3x3/bn1
I0122 19:14:42.199537 70150 net.cpp:94] Creating Layer inception_2a/3x3/bn1
I0122 19:14:42.199542 70150 net.cpp:435] inception_2a/3x3/bn1 <- inception_2a/3x3
I0122 19:14:42.199558 70150 net.cpp:396] inception_2a/3x3/bn1 -> inception_2a/3x3 (in-place)
I0122 19:14:42.200270 70150 net.cpp:144] Setting up inception_2a/3x3/bn1
I0122 19:14:42.200278 70150 net.cpp:151] Top shape: 50 32 32 32 (1638400)
I0122 19:14:42.200282 70150 net.cpp:159] Memory required for data: 131687400
I0122 19:14:42.200294 70150 layer_factory.hpp:77] Creating layer inception_2a/3x3/relu1
I0122 19:14:42.200306 70150 net.cpp:94] Creating Layer inception_2a/3x3/relu1
I0122 19:14:42.200312 70150 net.cpp:435] inception_2a/3x3/relu1 <- inception_2a/3x3
I0122 19:14:42.200317 70150 net.cpp:396] inception_2a/3x3/relu1 -> inception_2a/3x3 (in-place)
I0122 19:14:42.200323 70150 net.cpp:144] Setting up inception_2a/3x3/relu1
I0122 19:14:42.200326 70150 net.cpp:151] Top shape: 50 32 32 32 (1638400)
I0122 19:14:42.200330 70150 net.cpp:159] Memory required for data: 138241000
I0122 19:14:42.200332 70150 layer_factory.hpp:77] Creating layer inception_2a/output
I0122 19:14:42.200337 70150 net.cpp:94] Creating Layer inception_2a/output
I0122 19:14:42.200340 70150 net.cpp:435] inception_2a/output <- inception_2a/1x1
I0122 19:14:42.200343 70150 net.cpp:435] inception_2a/output <- inception_2a/3x3
I0122 19:14:42.200350 70150 net.cpp:409] inception_2a/output -> inception_2a/output
I0122 19:14:42.200371 70150 net.cpp:144] Setting up inception_2a/output
I0122 19:14:42.200376 70150 net.cpp:151] Top shape: 50 64 32 32 (3276800)
I0122 19:14:42.200378 70150 net.cpp:159] Memory required for data: 151348200
I0122 19:14:42.200381 70150 layer_factory.hpp:77] Creating layer inception_2a/output_inception_2a/output_0_split
I0122 19:14:42.200387 70150 net.cpp:94] Creating Layer inception_2a/output_inception_2a/output_0_split
I0122 19:14:42.200389 70150 net.cpp:435] inception_2a/output_inception_2a/output_0_split <- inception_2a/output
I0122 19:14:42.200395 70150 net.cpp:409] inception_2a/output_inception_2a/output_0_split -> inception_2a/output_inception_2a/output_0_split_0
I0122 19:14:42.200402 70150 net.cpp:409] inception_2a/output_inception_2a/output_0_split -> inception_2a/output_inception_2a/output_0_split_1
I0122 19:14:42.200438 70150 net.cpp:144] Setting up inception_2a/output_inception_2a/output_0_split
I0122 19:14:42.200443 70150 net.cpp:151] Top shape: 50 64 32 32 (3276800)
I0122 19:14:42.200448 70150 net.cpp:151] Top shape: 50 64 32 32 (3276800)
I0122 19:14:42.200450 70150 net.cpp:159] Memory required for data: 177562600
I0122 19:14:42.200454 70150 layer_factory.hpp:77] Creating layer inception_3a/1x1
I0122 19:14:42.200464 70150 net.cpp:94] Creating Layer inception_3a/1x1
I0122 19:14:42.200467 70150 net.cpp:435] inception_3a/1x1 <- inception_2a/output_inception_2a/output_0_split_0
I0122 19:14:42.200476 70150 net.cpp:409] inception_3a/1x1 -> inception_3a/1x1
I0122 19:14:42.200803 70150 net.cpp:144] Setting up inception_3a/1x1
I0122 19:14:42.200810 70150 net.cpp:151] Top shape: 50 32 32 32 (1638400)
I0122 19:14:42.200814 70150 net.cpp:159] Memory required for data: 184116200
I0122 19:14:42.200819 70150 layer_factory.hpp:77] Creating layer inception_3a/1x1/bn1
I0122 19:14:42.200827 70150 net.cpp:94] Creating Layer inception_3a/1x1/bn1
I0122 19:14:42.200830 70150 net.cpp:435] inception_3a/1x1/bn1 <- inception_3a/1x1
I0122 19:14:42.200837 70150 net.cpp:396] inception_3a/1x1/bn1 -> inception_3a/1x1 (in-place)
I0122 19:14:42.201571 70150 net.cpp:144] Setting up inception_3a/1x1/bn1
I0122 19:14:42.201577 70150 net.cpp:151] Top shape: 50 32 32 32 (1638400)
I0122 19:14:42.201581 70150 net.cpp:159] Memory required for data: 190669800
I0122 19:14:42.201587 70150 layer_factory.hpp:77] Creating layer inception_3a/1x1/relu1
I0122 19:14:42.201596 70150 net.cpp:94] Creating Layer inception_3a/1x1/relu1
I0122 19:14:42.201601 70150 net.cpp:435] inception_3a/1x1/relu1 <- inception_3a/1x1
I0122 19:14:42.201607 70150 net.cpp:396] inception_3a/1x1/relu1 -> inception_3a/1x1 (in-place)
I0122 19:14:42.201613 70150 net.cpp:144] Setting up inception_3a/1x1/relu1
I0122 19:14:42.201622 70150 net.cpp:151] Top shape: 50 32 32 32 (1638400)
I0122 19:14:42.201625 70150 net.cpp:159] Memory required for data: 197223400
I0122 19:14:42.201637 70150 layer_factory.hpp:77] Creating layer inception_3a/3x3
I0122 19:14:42.201647 70150 net.cpp:94] Creating Layer inception_3a/3x3
I0122 19:14:42.201651 70150 net.cpp:435] inception_3a/3x3 <- inception_2a/output_inception_2a/output_0_split_1
I0122 19:14:42.201658 70150 net.cpp:409] inception_3a/3x3 -> inception_3a/3x3
I0122 19:14:42.202730 70150 net.cpp:144] Setting up inception_3a/3x3
I0122 19:14:42.202744 70150 net.cpp:151] Top shape: 50 48 32 32 (2457600)
I0122 19:14:42.202747 70150 net.cpp:159] Memory required for data: 207053800
I0122 19:14:42.202754 70150 layer_factory.hpp:77] Creating layer inception_3a/3x3/bn1
I0122 19:14:42.202761 70150 net.cpp:94] Creating Layer inception_3a/3x3/bn1
I0122 19:14:42.202767 70150 net.cpp:435] inception_3a/3x3/bn1 <- inception_3a/3x3
I0122 19:14:42.202776 70150 net.cpp:396] inception_3a/3x3/bn1 -> inception_3a/3x3 (in-place)
I0122 19:14:42.203550 70150 net.cpp:144] Setting up inception_3a/3x3/bn1
I0122 19:14:42.203557 70150 net.cpp:151] Top shape: 50 48 32 32 (2457600)
I0122 19:14:42.203559 70150 net.cpp:159] Memory required for data: 216884200
I0122 19:14:42.203573 70150 layer_factory.hpp:77] Creating layer inception_3a/3x3/relu1
I0122 19:14:42.203583 70150 net.cpp:94] Creating Layer inception_3a/3x3/relu1
I0122 19:14:42.203585 70150 net.cpp:435] inception_3a/3x3/relu1 <- inception_3a/3x3
I0122 19:14:42.203591 70150 net.cpp:396] inception_3a/3x3/relu1 -> inception_3a/3x3 (in-place)
I0122 19:14:42.203598 70150 net.cpp:144] Setting up inception_3a/3x3/relu1
I0122 19:14:42.203606 70150 net.cpp:151] Top shape: 50 48 32 32 (2457600)
I0122 19:14:42.203609 70150 net.cpp:159] Memory required for data: 226714600
I0122 19:14:42.203613 70150 layer_factory.hpp:77] Creating layer inception_3a/output
I0122 19:14:42.203629 70150 net.cpp:94] Creating Layer inception_3a/output
I0122 19:14:42.203634 70150 net.cpp:435] inception_3a/output <- inception_3a/1x1
I0122 19:14:42.203637 70150 net.cpp:435] inception_3a/output <- inception_3a/3x3
I0122 19:14:42.203641 70150 net.cpp:409] inception_3a/output -> inception_3a/output
I0122 19:14:42.203716 70150 net.cpp:144] Setting up inception_3a/output
I0122 19:14:42.203722 70150 net.cpp:151] Top shape: 50 80 32 32 (4096000)
I0122 19:14:42.203724 70150 net.cpp:159] Memory required for data: 243098600
I0122 19:14:42.203727 70150 layer_factory.hpp:77] Creating layer inception_3a/output_inception_3a/output_0_split
I0122 19:14:42.203733 70150 net.cpp:94] Creating Layer inception_3a/output_inception_3a/output_0_split
I0122 19:14:42.203737 70150 net.cpp:435] inception_3a/output_inception_3a/output_0_split <- inception_3a/output
I0122 19:14:42.203742 70150 net.cpp:409] inception_3a/output_inception_3a/output_0_split -> inception_3a/output_inception_3a/output_0_split_0
I0122 19:14:42.203748 70150 net.cpp:409] inception_3a/output_inception_3a/output_0_split -> inception_3a/output_inception_3a/output_0_split_1
I0122 19:14:42.203780 70150 net.cpp:144] Setting up inception_3a/output_inception_3a/output_0_split
I0122 19:14:42.203785 70150 net.cpp:151] Top shape: 50 80 32 32 (4096000)
I0122 19:14:42.203789 70150 net.cpp:151] Top shape: 50 80 32 32 (4096000)
I0122 19:14:42.203791 70150 net.cpp:159] Memory required for data: 275866600
I0122 19:14:42.203794 70150 layer_factory.hpp:77] Creating layer downsample_4/3x3_s2
I0122 19:14:42.203804 70150 net.cpp:94] Creating Layer downsample_4/3x3_s2
I0122 19:14:42.203807 70150 net.cpp:435] downsample_4/3x3_s2 <- inception_3a/output_inception_3a/output_0_split_0
I0122 19:14:42.203814 70150 net.cpp:409] downsample_4/3x3_s2 -> downsample_4/3x3_s2
I0122 19:14:42.204380 70150 net.cpp:144] Setting up downsample_4/3x3_s2
I0122 19:14:42.204387 70150 net.cpp:151] Top shape: 50 80 16 16 (1024000)
I0122 19:14:42.204390 70150 net.cpp:159] Memory required for data: 279962600
I0122 19:14:42.204394 70150 layer_factory.hpp:77] Creating layer downsample_4/3x3_s2/bn1
I0122 19:14:42.204402 70150 net.cpp:94] Creating Layer downsample_4/3x3_s2/bn1
I0122 19:14:42.204406 70150 net.cpp:435] downsample_4/3x3_s2/bn1 <- downsample_4/3x3_s2
I0122 19:14:42.204425 70150 net.cpp:396] downsample_4/3x3_s2/bn1 -> downsample_4/3x3_s2 (in-place)
I0122 19:14:42.205252 70150 net.cpp:144] Setting up downsample_4/3x3_s2/bn1
I0122 19:14:42.205260 70150 net.cpp:151] Top shape: 50 80 16 16 (1024000)
I0122 19:14:42.205262 70150 net.cpp:159] Memory required for data: 284058600
I0122 19:14:42.205271 70150 layer_factory.hpp:77] Creating layer downsample_4/3x3_s2/relu1
I0122 19:14:42.205279 70150 net.cpp:94] Creating Layer downsample_4/3x3_s2/relu1
I0122 19:14:42.205283 70150 net.cpp:435] downsample_4/3x3_s2/relu1 <- downsample_4/3x3_s2
I0122 19:14:42.205287 70150 net.cpp:396] downsample_4/3x3_s2/relu1 -> downsample_4/3x3_s2 (in-place)
I0122 19:14:42.205293 70150 net.cpp:144] Setting up downsample_4/3x3_s2/relu1
I0122 19:14:42.205299 70150 net.cpp:151] Top shape: 50 80 16 16 (1024000)
I0122 19:14:42.205303 70150 net.cpp:159] Memory required for data: 288154600
I0122 19:14:42.205305 70150 layer_factory.hpp:77] Creating layer downsample_4/pool_s2
I0122 19:14:42.205312 70150 net.cpp:94] Creating Layer downsample_4/pool_s2
I0122 19:14:42.205315 70150 net.cpp:435] downsample_4/pool_s2 <- inception_3a/output_inception_3a/output_0_split_1
I0122 19:14:42.205320 70150 net.cpp:409] downsample_4/pool_s2 -> downsample_4/pool_s2
I0122 19:14:42.205360 70150 net.cpp:144] Setting up downsample_4/pool_s2
I0122 19:14:42.205365 70150 net.cpp:151] Top shape: 50 80 16 16 (1024000)
I0122 19:14:42.205368 70150 net.cpp:159] Memory required for data: 292250600
I0122 19:14:42.205371 70150 layer_factory.hpp:77] Creating layer downsample_4/output
I0122 19:14:42.205379 70150 net.cpp:94] Creating Layer downsample_4/output
I0122 19:14:42.205382 70150 net.cpp:435] downsample_4/output <- downsample_4/3x3_s2
I0122 19:14:42.205385 70150 net.cpp:435] downsample_4/output <- downsample_4/pool_s2
I0122 19:14:42.205391 70150 net.cpp:409] downsample_4/output -> downsample_4/output
I0122 19:14:42.205422 70150 net.cpp:144] Setting up downsample_4/output
I0122 19:14:42.205427 70150 net.cpp:151] Top shape: 50 160 16 16 (2048000)
I0122 19:14:42.205430 70150 net.cpp:159] Memory required for data: 300442600
I0122 19:14:42.205433 70150 layer_factory.hpp:77] Creating layer downsample_4/output_downsample_4/output_0_split
I0122 19:14:42.205440 70150 net.cpp:94] Creating Layer downsample_4/output_downsample_4/output_0_split
I0122 19:14:42.205443 70150 net.cpp:435] downsample_4/output_downsample_4/output_0_split <- downsample_4/output
I0122 19:14:42.205447 70150 net.cpp:409] downsample_4/output_downsample_4/output_0_split -> downsample_4/output_downsample_4/output_0_split_0
I0122 19:14:42.205454 70150 net.cpp:409] downsample_4/output_downsample_4/output_0_split -> downsample_4/output_downsample_4/output_0_split_1
I0122 19:14:42.205484 70150 net.cpp:144] Setting up downsample_4/output_downsample_4/output_0_split
I0122 19:14:42.205489 70150 net.cpp:151] Top shape: 50 160 16 16 (2048000)
I0122 19:14:42.205493 70150 net.cpp:151] Top shape: 50 160 16 16 (2048000)
I0122 19:14:42.205497 70150 net.cpp:159] Memory required for data: 316826600
I0122 19:14:42.205498 70150 layer_factory.hpp:77] Creating layer inception_5a/1x1
I0122 19:14:42.205508 70150 net.cpp:94] Creating Layer inception_5a/1x1
I0122 19:14:42.205513 70150 net.cpp:435] inception_5a/1x1 <- downsample_4/output_downsample_4/output_0_split_0
I0122 19:14:42.205518 70150 net.cpp:409] inception_5a/1x1 -> inception_5a/1x1
I0122 19:14:42.205868 70150 net.cpp:144] Setting up inception_5a/1x1
I0122 19:14:42.205874 70150 net.cpp:151] Top shape: 50 112 16 16 (1433600)
I0122 19:14:42.205878 70150 net.cpp:159] Memory required for data: 322561000
I0122 19:14:42.205883 70150 layer_factory.hpp:77] Creating layer inception_5a/1x1/bn1
I0122 19:14:42.205890 70150 net.cpp:94] Creating Layer inception_5a/1x1/bn1
I0122 19:14:42.205893 70150 net.cpp:435] inception_5a/1x1/bn1 <- inception_5a/1x1
I0122 19:14:42.205899 70150 net.cpp:396] inception_5a/1x1/bn1 -> inception_5a/1x1 (in-place)
I0122 19:14:42.206701 70150 net.cpp:144] Setting up inception_5a/1x1/bn1
I0122 19:14:42.206717 70150 net.cpp:151] Top shape: 50 112 16 16 (1433600)
I0122 19:14:42.206718 70150 net.cpp:159] Memory required for data: 328295400
I0122 19:14:42.206727 70150 layer_factory.hpp:77] Creating layer inception_5a/1x1/relu1
I0122 19:14:42.206733 70150 net.cpp:94] Creating Layer inception_5a/1x1/relu1
I0122 19:14:42.206745 70150 net.cpp:435] inception_5a/1x1/relu1 <- inception_5a/1x1
I0122 19:14:42.206753 70150 net.cpp:396] inception_5a/1x1/relu1 -> inception_5a/1x1 (in-place)
I0122 19:14:42.206758 70150 net.cpp:144] Setting up inception_5a/1x1/relu1
I0122 19:14:42.206768 70150 net.cpp:151] Top shape: 50 112 16 16 (1433600)
I0122 19:14:42.206769 70150 net.cpp:159] Memory required for data: 334029800
I0122 19:14:42.206773 70150 layer_factory.hpp:77] Creating layer inception_5a/3x3
I0122 19:14:42.206781 70150 net.cpp:94] Creating Layer inception_5a/3x3
I0122 19:14:42.206787 70150 net.cpp:435] inception_5a/3x3 <- downsample_4/output_downsample_4/output_0_split_1
I0122 19:14:42.206794 70150 net.cpp:409] inception_5a/3x3 -> inception_5a/3x3
I0122 19:14:42.207470 70150 net.cpp:144] Setting up inception_5a/3x3
I0122 19:14:42.207478 70150 net.cpp:151] Top shape: 50 48 16 16 (614400)
I0122 19:14:42.207481 70150 net.cpp:159] Memory required for data: 336487400
I0122 19:14:42.207486 70150 layer_factory.hpp:77] Creating layer inception_5a/3x3/bn1
I0122 19:14:42.207499 70150 net.cpp:94] Creating Layer inception_5a/3x3/bn1
I0122 19:14:42.207505 70150 net.cpp:435] inception_5a/3x3/bn1 <- inception_5a/3x3
I0122 19:14:42.207514 70150 net.cpp:396] inception_5a/3x3/bn1 -> inception_5a/3x3 (in-place)
I0122 19:14:42.208293 70150 net.cpp:144] Setting up inception_5a/3x3/bn1
I0122 19:14:42.208299 70150 net.cpp:151] Top shape: 50 48 16 16 (614400)
I0122 19:14:42.208302 70150 net.cpp:159] Memory required for data: 338945000
I0122 19:14:42.208310 70150 layer_factory.hpp:77] Creating layer inception_5a/3x3/relu1
I0122 19:14:42.208315 70150 net.cpp:94] Creating Layer inception_5a/3x3/relu1
I0122 19:14:42.208318 70150 net.cpp:435] inception_5a/3x3/relu1 <- inception_5a/3x3
I0122 19:14:42.208334 70150 net.cpp:396] inception_5a/3x3/relu1 -> inception_5a/3x3 (in-place)
I0122 19:14:42.208340 70150 net.cpp:144] Setting up inception_5a/3x3/relu1
I0122 19:14:42.208354 70150 net.cpp:151] Top shape: 50 48 16 16 (614400)
I0122 19:14:42.208357 70150 net.cpp:159] Memory required for data: 341402600
I0122 19:14:42.208359 70150 layer_factory.hpp:77] Creating layer inception_5a/output
I0122 19:14:42.208364 70150 net.cpp:94] Creating Layer inception_5a/output
I0122 19:14:42.208367 70150 net.cpp:435] inception_5a/output <- inception_5a/1x1
I0122 19:14:42.208370 70150 net.cpp:435] inception_5a/output <- inception_5a/3x3
I0122 19:14:42.208377 70150 net.cpp:409] inception_5a/output -> inception_5a/output
I0122 19:14:42.208401 70150 net.cpp:144] Setting up inception_5a/output
I0122 19:14:42.208406 70150 net.cpp:151] Top shape: 50 160 16 16 (2048000)
I0122 19:14:42.208410 70150 net.cpp:159] Memory required for data: 349594600
I0122 19:14:42.208411 70150 layer_factory.hpp:77] Creating layer inception_5a/output_inception_5a/output_0_split
I0122 19:14:42.208417 70150 net.cpp:94] Creating Layer inception_5a/output_inception_5a/output_0_split
I0122 19:14:42.208421 70150 net.cpp:435] inception_5a/output_inception_5a/output_0_split <- inception_5a/output
I0122 19:14:42.208426 70150 net.cpp:409] inception_5a/output_inception_5a/output_0_split -> inception_5a/output_inception_5a/output_0_split_0
I0122 19:14:42.208436 70150 net.cpp:409] inception_5a/output_inception_5a/output_0_split -> inception_5a/output_inception_5a/output_0_split_1
I0122 19:14:42.208508 70150 net.cpp:144] Setting up inception_5a/output_inception_5a/output_0_split
I0122 19:14:42.208514 70150 net.cpp:151] Top shape: 50 160 16 16 (2048000)
I0122 19:14:42.208518 70150 net.cpp:151] Top shape: 50 160 16 16 (2048000)
I0122 19:14:42.208520 70150 net.cpp:159] Memory required for data: 365978600
I0122 19:14:42.208523 70150 layer_factory.hpp:77] Creating layer inception_6a/1x1
I0122 19:14:42.208541 70150 net.cpp:94] Creating Layer inception_6a/1x1
I0122 19:14:42.208544 70150 net.cpp:435] inception_6a/1x1 <- inception_5a/output_inception_5a/output_0_split_0
I0122 19:14:42.208551 70150 net.cpp:409] inception_6a/1x1 -> inception_6a/1x1
I0122 19:14:42.208897 70150 net.cpp:144] Setting up inception_6a/1x1
I0122 19:14:42.208904 70150 net.cpp:151] Top shape: 50 96 16 16 (1228800)
I0122 19:14:42.208906 70150 net.cpp:159] Memory required for data: 370893800
I0122 19:14:42.208911 70150 layer_factory.hpp:77] Creating layer inception_6a/1x1/bn1
I0122 19:14:42.208921 70150 net.cpp:94] Creating Layer inception_6a/1x1/bn1
I0122 19:14:42.208925 70150 net.cpp:435] inception_6a/1x1/bn1 <- inception_6a/1x1
I0122 19:14:42.208930 70150 net.cpp:396] inception_6a/1x1/bn1 -> inception_6a/1x1 (in-place)
I0122 19:14:42.209705 70150 net.cpp:144] Setting up inception_6a/1x1/bn1
I0122 19:14:42.209713 70150 net.cpp:151] Top shape: 50 96 16 16 (1228800)
I0122 19:14:42.209715 70150 net.cpp:159] Memory required for data: 375809000
I0122 19:14:42.209723 70150 layer_factory.hpp:77] Creating layer inception_6a/1x1/relu1
I0122 19:14:42.209729 70150 net.cpp:94] Creating Layer inception_6a/1x1/relu1
I0122 19:14:42.209733 70150 net.cpp:435] inception_6a/1x1/relu1 <- inception_6a/1x1
I0122 19:14:42.209738 70150 net.cpp:396] inception_6a/1x1/relu1 -> inception_6a/1x1 (in-place)
I0122 19:14:42.209744 70150 net.cpp:144] Setting up inception_6a/1x1/relu1
I0122 19:14:42.209748 70150 net.cpp:151] Top shape: 50 96 16 16 (1228800)
I0122 19:14:42.209751 70150 net.cpp:159] Memory required for data: 380724200
I0122 19:14:42.209753 70150 layer_factory.hpp:77] Creating layer inception_6a/3x3
I0122 19:14:42.209762 70150 net.cpp:94] Creating Layer inception_6a/3x3
I0122 19:14:42.209769 70150 net.cpp:435] inception_6a/3x3 <- inception_5a/output_inception_5a/output_0_split_1
I0122 19:14:42.209774 70150 net.cpp:409] inception_6a/3x3 -> inception_6a/3x3
I0122 19:14:42.211207 70150 net.cpp:144] Setting up inception_6a/3x3
I0122 19:14:42.211220 70150 net.cpp:151] Top shape: 50 64 16 16 (819200)
I0122 19:14:42.211223 70150 net.cpp:159] Memory required for data: 384001000
I0122 19:14:42.211236 70150 layer_factory.hpp:77] Creating layer inception_6a/3x3/bn1
I0122 19:14:42.211246 70150 net.cpp:94] Creating Layer inception_6a/3x3/bn1
I0122 19:14:42.211256 70150 net.cpp:435] inception_6a/3x3/bn1 <- inception_6a/3x3
I0122 19:14:42.211262 70150 net.cpp:396] inception_6a/3x3/bn1 -> inception_6a/3x3 (in-place)
I0122 19:14:42.212087 70150 net.cpp:144] Setting up inception_6a/3x3/bn1
I0122 19:14:42.212095 70150 net.cpp:151] Top shape: 50 64 16 16 (819200)
I0122 19:14:42.212098 70150 net.cpp:159] Memory required for data: 387277800
I0122 19:14:42.212106 70150 layer_factory.hpp:77] Creating layer inception_6a/3x3/relu1
I0122 19:14:42.212112 70150 net.cpp:94] Creating Layer inception_6a/3x3/relu1
I0122 19:14:42.212116 70150 net.cpp:435] inception_6a/3x3/relu1 <- inception_6a/3x3
I0122 19:14:42.212121 70150 net.cpp:396] inception_6a/3x3/relu1 -> inception_6a/3x3 (in-place)
I0122 19:14:42.212128 70150 net.cpp:144] Setting up inception_6a/3x3/relu1
I0122 19:14:42.212134 70150 net.cpp:151] Top shape: 50 64 16 16 (819200)
I0122 19:14:42.212137 70150 net.cpp:159] Memory required for data: 390554600
I0122 19:14:42.212141 70150 layer_factory.hpp:77] Creating layer inception_6a/output
I0122 19:14:42.212146 70150 net.cpp:94] Creating Layer inception_6a/output
I0122 19:14:42.212148 70150 net.cpp:435] inception_6a/output <- inception_6a/1x1
I0122 19:14:42.212152 70150 net.cpp:435] inception_6a/output <- inception_6a/3x3
I0122 19:14:42.212158 70150 net.cpp:409] inception_6a/output -> inception_6a/output
I0122 19:14:42.212177 70150 net.cpp:144] Setting up inception_6a/output
I0122 19:14:42.212183 70150 net.cpp:151] Top shape: 50 160 16 16 (2048000)
I0122 19:14:42.212186 70150 net.cpp:159] Memory required for data: 398746600
I0122 19:14:42.212189 70150 layer_factory.hpp:77] Creating layer inception_6a/output_inception_6a/output_0_split
I0122 19:14:42.212193 70150 net.cpp:94] Creating Layer inception_6a/output_inception_6a/output_0_split
I0122 19:14:42.212206 70150 net.cpp:435] inception_6a/output_inception_6a/output_0_split <- inception_6a/output
I0122 19:14:42.212213 70150 net.cpp:409] inception_6a/output_inception_6a/output_0_split -> inception_6a/output_inception_6a/output_0_split_0
I0122 19:14:42.212220 70150 net.cpp:409] inception_6a/output_inception_6a/output_0_split -> inception_6a/output_inception_6a/output_0_split_1
I0122 19:14:42.212251 70150 net.cpp:144] Setting up inception_6a/output_inception_6a/output_0_split
I0122 19:14:42.212258 70150 net.cpp:151] Top shape: 50 160 16 16 (2048000)
I0122 19:14:42.212262 70150 net.cpp:151] Top shape: 50 160 16 16 (2048000)
I0122 19:14:42.212265 70150 net.cpp:159] Memory required for data: 415130600
I0122 19:14:42.212267 70150 layer_factory.hpp:77] Creating layer inception_7a/1x1
I0122 19:14:42.212276 70150 net.cpp:94] Creating Layer inception_7a/1x1
I0122 19:14:42.212280 70150 net.cpp:435] inception_7a/1x1 <- inception_6a/output_inception_6a/output_0_split_0
I0122 19:14:42.212285 70150 net.cpp:409] inception_7a/1x1 -> inception_7a/1x1
I0122 19:14:42.212599 70150 net.cpp:144] Setting up inception_7a/1x1
I0122 19:14:42.212605 70150 net.cpp:151] Top shape: 50 80 16 16 (1024000)
I0122 19:14:42.212607 70150 net.cpp:159] Memory required for data: 419226600
I0122 19:14:42.212612 70150 layer_factory.hpp:77] Creating layer inception_7a/1x1/bn1
I0122 19:14:42.212620 70150 net.cpp:94] Creating Layer inception_7a/1x1/bn1
I0122 19:14:42.212625 70150 net.cpp:435] inception_7a/1x1/bn1 <- inception_7a/1x1
I0122 19:14:42.212632 70150 net.cpp:396] inception_7a/1x1/bn1 -> inception_7a/1x1 (in-place)
I0122 19:14:42.213335 70150 net.cpp:144] Setting up inception_7a/1x1/bn1
I0122 19:14:42.213342 70150 net.cpp:151] Top shape: 50 80 16 16 (1024000)
I0122 19:14:42.213346 70150 net.cpp:159] Memory required for data: 423322600
I0122 19:14:42.213353 70150 layer_factory.hpp:77] Creating layer inception_7a/1x1/relu1
I0122 19:14:42.213361 70150 net.cpp:94] Creating Layer inception_7a/1x1/relu1
I0122 19:14:42.213364 70150 net.cpp:435] inception_7a/1x1/relu1 <- inception_7a/1x1
I0122 19:14:42.213369 70150 net.cpp:396] inception_7a/1x1/relu1 -> inception_7a/1x1 (in-place)
I0122 19:14:42.213376 70150 net.cpp:144] Setting up inception_7a/1x1/relu1
I0122 19:14:42.213378 70150 net.cpp:151] Top shape: 50 80 16 16 (1024000)
I0122 19:14:42.213382 70150 net.cpp:159] Memory required for data: 427418600
I0122 19:14:42.213384 70150 layer_factory.hpp:77] Creating layer inception_7a/3x3
I0122 19:14:42.213392 70150 net.cpp:94] Creating Layer inception_7a/3x3
I0122 19:14:42.213397 70150 net.cpp:435] inception_7a/3x3 <- inception_6a/output_inception_6a/output_0_split_1
I0122 19:14:42.213403 70150 net.cpp:409] inception_7a/3x3 -> inception_7a/3x3
I0122 19:14:42.214288 70150 net.cpp:144] Setting up inception_7a/3x3
I0122 19:14:42.214298 70150 net.cpp:151] Top shape: 50 80 16 16 (1024000)
I0122 19:14:42.214300 70150 net.cpp:159] Memory required for data: 431514600
I0122 19:14:42.214305 70150 layer_factory.hpp:77] Creating layer inception_7a/3x3/bn1
I0122 19:14:42.214313 70150 net.cpp:94] Creating Layer inception_7a/3x3/bn1
I0122 19:14:42.214316 70150 net.cpp:435] inception_7a/3x3/bn1 <- inception_7a/3x3
I0122 19:14:42.214323 70150 net.cpp:396] inception_7a/3x3/bn1 -> inception_7a/3x3 (in-place)
I0122 19:14:42.215016 70150 net.cpp:144] Setting up inception_7a/3x3/bn1
I0122 19:14:42.215025 70150 net.cpp:151] Top shape: 50 80 16 16 (1024000)
I0122 19:14:42.215029 70150 net.cpp:159] Memory required for data: 435610600
I0122 19:14:42.215036 70150 layer_factory.hpp:77] Creating layer inception_7a/3x3/relu1
I0122 19:14:42.215040 70150 net.cpp:94] Creating Layer inception_7a/3x3/relu1
I0122 19:14:42.215044 70150 net.cpp:435] inception_7a/3x3/relu1 <- inception_7a/3x3
I0122 19:14:42.215049 70150 net.cpp:396] inception_7a/3x3/relu1 -> inception_7a/3x3 (in-place)
I0122 19:14:42.215054 70150 net.cpp:144] Setting up inception_7a/3x3/relu1
I0122 19:14:42.215059 70150 net.cpp:151] Top shape: 50 80 16 16 (1024000)
I0122 19:14:42.215061 70150 net.cpp:159] Memory required for data: 439706600
I0122 19:14:42.215073 70150 layer_factory.hpp:77] Creating layer inception_7a/output
I0122 19:14:42.215080 70150 net.cpp:94] Creating Layer inception_7a/output
I0122 19:14:42.215081 70150 net.cpp:435] inception_7a/output <- inception_7a/1x1
I0122 19:14:42.215086 70150 net.cpp:435] inception_7a/output <- inception_7a/3x3
I0122 19:14:42.215090 70150 net.cpp:409] inception_7a/output -> inception_7a/output
I0122 19:14:42.215114 70150 net.cpp:144] Setting up inception_7a/output
I0122 19:14:42.215119 70150 net.cpp:151] Top shape: 50 160 16 16 (2048000)
I0122 19:14:42.215123 70150 net.cpp:159] Memory required for data: 447898600
I0122 19:14:42.215126 70150 layer_factory.hpp:77] Creating layer inception_7a/output_inception_7a/output_0_split
I0122 19:14:42.215131 70150 net.cpp:94] Creating Layer inception_7a/output_inception_7a/output_0_split
I0122 19:14:42.215134 70150 net.cpp:435] inception_7a/output_inception_7a/output_0_split <- inception_7a/output
I0122 19:14:42.215139 70150 net.cpp:409] inception_7a/output_inception_7a/output_0_split -> inception_7a/output_inception_7a/output_0_split_0
I0122 19:14:42.215147 70150 net.cpp:409] inception_7a/output_inception_7a/output_0_split -> inception_7a/output_inception_7a/output_0_split_1
I0122 19:14:42.215178 70150 net.cpp:144] Setting up inception_7a/output_inception_7a/output_0_split
I0122 19:14:42.215184 70150 net.cpp:151] Top shape: 50 160 16 16 (2048000)
I0122 19:14:42.215188 70150 net.cpp:151] Top shape: 50 160 16 16 (2048000)
I0122 19:14:42.215190 70150 net.cpp:159] Memory required for data: 464282600
I0122 19:14:42.215193 70150 layer_factory.hpp:77] Creating layer inception_8a/1x1
I0122 19:14:42.215201 70150 net.cpp:94] Creating Layer inception_8a/1x1
I0122 19:14:42.215206 70150 net.cpp:435] inception_8a/1x1 <- inception_7a/output_inception_7a/output_0_split_0
I0122 19:14:42.215212 70150 net.cpp:409] inception_8a/1x1 -> inception_8a/1x1
I0122 19:14:42.215497 70150 net.cpp:144] Setting up inception_8a/1x1
I0122 19:14:42.215502 70150 net.cpp:151] Top shape: 50 48 16 16 (614400)
I0122 19:14:42.215507 70150 net.cpp:159] Memory required for data: 466740200
I0122 19:14:42.215510 70150 layer_factory.hpp:77] Creating layer inception_8a/1x1/bn1
I0122 19:14:42.215518 70150 net.cpp:94] Creating Layer inception_8a/1x1/bn1
I0122 19:14:42.215521 70150 net.cpp:435] inception_8a/1x1/bn1 <- inception_8a/1x1
I0122 19:14:42.215528 70150 net.cpp:396] inception_8a/1x1/bn1 -> inception_8a/1x1 (in-place)
I0122 19:14:42.216217 70150 net.cpp:144] Setting up inception_8a/1x1/bn1
I0122 19:14:42.216223 70150 net.cpp:151] Top shape: 50 48 16 16 (614400)
I0122 19:14:42.216226 70150 net.cpp:159] Memory required for data: 469197800
I0122 19:14:42.216234 70150 layer_factory.hpp:77] Creating layer inception_8a/1x1/relu1
I0122 19:14:42.216238 70150 net.cpp:94] Creating Layer inception_8a/1x1/relu1
I0122 19:14:42.216241 70150 net.cpp:435] inception_8a/1x1/relu1 <- inception_8a/1x1
I0122 19:14:42.216248 70150 net.cpp:396] inception_8a/1x1/relu1 -> inception_8a/1x1 (in-place)
I0122 19:14:42.216258 70150 net.cpp:144] Setting up inception_8a/1x1/relu1
I0122 19:14:42.216260 70150 net.cpp:151] Top shape: 50 48 16 16 (614400)
I0122 19:14:42.216264 70150 net.cpp:159] Memory required for data: 471655400
I0122 19:14:42.216265 70150 layer_factory.hpp:77] Creating layer inception_8a/3x3
I0122 19:14:42.216274 70150 net.cpp:94] Creating Layer inception_8a/3x3
I0122 19:14:42.216277 70150 net.cpp:435] inception_8a/3x3 <- inception_7a/output_inception_7a/output_0_split_1
I0122 19:14:42.216284 70150 net.cpp:409] inception_8a/3x3 -> inception_8a/3x3
I0122 19:14:42.217921 70150 net.cpp:144] Setting up inception_8a/3x3
I0122 19:14:42.217931 70150 net.cpp:151] Top shape: 50 96 16 16 (1228800)
I0122 19:14:42.217934 70150 net.cpp:159] Memory required for data: 476570600
I0122 19:14:42.217939 70150 layer_factory.hpp:77] Creating layer inception_8a/3x3/bn1
I0122 19:14:42.217948 70150 net.cpp:94] Creating Layer inception_8a/3x3/bn1
I0122 19:14:42.217952 70150 net.cpp:435] inception_8a/3x3/bn1 <- inception_8a/3x3
I0122 19:14:42.217968 70150 net.cpp:396] inception_8a/3x3/bn1 -> inception_8a/3x3 (in-place)
I0122 19:14:42.218691 70150 net.cpp:144] Setting up inception_8a/3x3/bn1
I0122 19:14:42.218698 70150 net.cpp:151] Top shape: 50 96 16 16 (1228800)
I0122 19:14:42.218703 70150 net.cpp:159] Memory required for data: 481485800
I0122 19:14:42.218709 70150 layer_factory.hpp:77] Creating layer inception_8a/3x3/relu1
I0122 19:14:42.218716 70150 net.cpp:94] Creating Layer inception_8a/3x3/relu1
I0122 19:14:42.218719 70150 net.cpp:435] inception_8a/3x3/relu1 <- inception_8a/3x3
I0122 19:14:42.218725 70150 net.cpp:396] inception_8a/3x3/relu1 -> inception_8a/3x3 (in-place)
I0122 19:14:42.218732 70150 net.cpp:144] Setting up inception_8a/3x3/relu1
I0122 19:14:42.218737 70150 net.cpp:151] Top shape: 50 96 16 16 (1228800)
I0122 19:14:42.218740 70150 net.cpp:159] Memory required for data: 486401000
I0122 19:14:42.218744 70150 layer_factory.hpp:77] Creating layer inception_8a/output
I0122 19:14:42.218749 70150 net.cpp:94] Creating Layer inception_8a/output
I0122 19:14:42.218750 70150 net.cpp:435] inception_8a/output <- inception_8a/1x1
I0122 19:14:42.218755 70150 net.cpp:435] inception_8a/output <- inception_8a/3x3
I0122 19:14:42.218761 70150 net.cpp:409] inception_8a/output -> inception_8a/output
I0122 19:14:42.218780 70150 net.cpp:144] Setting up inception_8a/output
I0122 19:14:42.218786 70150 net.cpp:151] Top shape: 50 144 16 16 (1843200)
I0122 19:14:42.218788 70150 net.cpp:159] Memory required for data: 493773800
I0122 19:14:42.218792 70150 layer_factory.hpp:77] Creating layer inception_8a/output_inception_8a/output_0_split
I0122 19:14:42.218796 70150 net.cpp:94] Creating Layer inception_8a/output_inception_8a/output_0_split
I0122 19:14:42.218799 70150 net.cpp:435] inception_8a/output_inception_8a/output_0_split <- inception_8a/output
I0122 19:14:42.218806 70150 net.cpp:409] inception_8a/output_inception_8a/output_0_split -> inception_8a/output_inception_8a/output_0_split_0
I0122 19:14:42.218812 70150 net.cpp:409] inception_8a/output_inception_8a/output_0_split -> inception_8a/output_inception_8a/output_0_split_1
I0122 19:14:42.218842 70150 net.cpp:144] Setting up inception_8a/output_inception_8a/output_0_split
I0122 19:14:42.218847 70150 net.cpp:151] Top shape: 50 144 16 16 (1843200)
I0122 19:14:42.218852 70150 net.cpp:151] Top shape: 50 144 16 16 (1843200)
I0122 19:14:42.218855 70150 net.cpp:159] Memory required for data: 508519400
I0122 19:14:42.218858 70150 layer_factory.hpp:77] Creating layer downsample_9/3x3_s2
I0122 19:14:42.218866 70150 net.cpp:94] Creating Layer downsample_9/3x3_s2
I0122 19:14:42.218871 70150 net.cpp:435] downsample_9/3x3_s2 <- inception_8a/output_inception_8a/output_0_split_0
I0122 19:14:42.218878 70150 net.cpp:409] downsample_9/3x3_s2 -> downsample_9/3x3_s2
I0122 19:14:42.220443 70150 net.cpp:144] Setting up downsample_9/3x3_s2
I0122 19:14:42.220453 70150 net.cpp:151] Top shape: 50 96 8 8 (307200)
I0122 19:14:42.220455 70150 net.cpp:159] Memory required for data: 509748200
I0122 19:14:42.220461 70150 layer_factory.hpp:77] Creating layer downsample_9/3x3_s2/bn1
I0122 19:14:42.220469 70150 net.cpp:94] Creating Layer downsample_9/3x3_s2/bn1
I0122 19:14:42.220474 70150 net.cpp:435] downsample_9/3x3_s2/bn1 <- downsample_9/3x3_s2
I0122 19:14:42.220479 70150 net.cpp:396] downsample_9/3x3_s2/bn1 -> downsample_9/3x3_s2 (in-place)
I0122 19:14:42.221211 70150 net.cpp:144] Setting up downsample_9/3x3_s2/bn1
I0122 19:14:42.221218 70150 net.cpp:151] Top shape: 50 96 8 8 (307200)
I0122 19:14:42.221222 70150 net.cpp:159] Memory required for data: 510977000
I0122 19:14:42.221230 70150 layer_factory.hpp:77] Creating layer downsample_9/3x3_s2/relu1
I0122 19:14:42.221235 70150 net.cpp:94] Creating Layer downsample_9/3x3_s2/relu1
I0122 19:14:42.221238 70150 net.cpp:435] downsample_9/3x3_s2/relu1 <- downsample_9/3x3_s2
I0122 19:14:42.221244 70150 net.cpp:396] downsample_9/3x3_s2/relu1 -> downsample_9/3x3_s2 (in-place)
I0122 19:14:42.221251 70150 net.cpp:144] Setting up downsample_9/3x3_s2/relu1
I0122 19:14:42.221264 70150 net.cpp:151] Top shape: 50 96 8 8 (307200)
I0122 19:14:42.221266 70150 net.cpp:159] Memory required for data: 512205800
I0122 19:14:42.221269 70150 layer_factory.hpp:77] Creating layer downsample_9/pool_s2
I0122 19:14:42.221276 70150 net.cpp:94] Creating Layer downsample_9/pool_s2
I0122 19:14:42.221282 70150 net.cpp:435] downsample_9/pool_s2 <- inception_8a/output_inception_8a/output_0_split_1
I0122 19:14:42.221287 70150 net.cpp:409] downsample_9/pool_s2 -> downsample_9/pool_s2
I0122 19:14:42.221320 70150 net.cpp:144] Setting up downsample_9/pool_s2
I0122 19:14:42.221326 70150 net.cpp:151] Top shape: 50 144 8 8 (460800)
I0122 19:14:42.221329 70150 net.cpp:159] Memory required for data: 514049000
I0122 19:14:42.221333 70150 layer_factory.hpp:77] Creating layer downsample_9/output
I0122 19:14:42.221341 70150 net.cpp:94] Creating Layer downsample_9/output
I0122 19:14:42.221345 70150 net.cpp:435] downsample_9/output <- downsample_9/3x3_s2
I0122 19:14:42.221350 70150 net.cpp:435] downsample_9/output <- downsample_9/pool_s2
I0122 19:14:42.221355 70150 net.cpp:409] downsample_9/output -> downsample_9/output
I0122 19:14:42.221372 70150 net.cpp:144] Setting up downsample_9/output
I0122 19:14:42.221377 70150 net.cpp:151] Top shape: 50 240 8 8 (768000)
I0122 19:14:42.221381 70150 net.cpp:159] Memory required for data: 517121000
I0122 19:14:42.221385 70150 layer_factory.hpp:77] Creating layer downsample_9/output_downsample_9/output_0_split
I0122 19:14:42.221390 70150 net.cpp:94] Creating Layer downsample_9/output_downsample_9/output_0_split
I0122 19:14:42.221392 70150 net.cpp:435] downsample_9/output_downsample_9/output_0_split <- downsample_9/output
I0122 19:14:42.221398 70150 net.cpp:409] downsample_9/output_downsample_9/output_0_split -> downsample_9/output_downsample_9/output_0_split_0
I0122 19:14:42.221405 70150 net.cpp:409] downsample_9/output_downsample_9/output_0_split -> downsample_9/output_downsample_9/output_0_split_1
I0122 19:14:42.221436 70150 net.cpp:144] Setting up downsample_9/output_downsample_9/output_0_split
I0122 19:14:42.221442 70150 net.cpp:151] Top shape: 50 240 8 8 (768000)
I0122 19:14:42.221446 70150 net.cpp:151] Top shape: 50 240 8 8 (768000)
I0122 19:14:42.221448 70150 net.cpp:159] Memory required for data: 523265000
I0122 19:14:42.221451 70150 layer_factory.hpp:77] Creating layer inception_10a/1x1
I0122 19:14:42.221460 70150 net.cpp:94] Creating Layer inception_10a/1x1
I0122 19:14:42.221465 70150 net.cpp:435] inception_10a/1x1 <- downsample_9/output_downsample_9/output_0_split_0
I0122 19:14:42.221472 70150 net.cpp:409] inception_10a/1x1 -> inception_10a/1x1
I0122 19:14:42.221956 70150 net.cpp:144] Setting up inception_10a/1x1
I0122 19:14:42.221963 70150 net.cpp:151] Top shape: 50 176 8 8 (563200)
I0122 19:14:42.221967 70150 net.cpp:159] Memory required for data: 525517800
I0122 19:14:42.221972 70150 layer_factory.hpp:77] Creating layer inception_10a/1x1/bn1
I0122 19:14:42.221981 70150 net.cpp:94] Creating Layer inception_10a/1x1/bn1
I0122 19:14:42.221984 70150 net.cpp:435] inception_10a/1x1/bn1 <- inception_10a/1x1
I0122 19:14:42.221992 70150 net.cpp:396] inception_10a/1x1/bn1 -> inception_10a/1x1 (in-place)
I0122 19:14:42.222699 70150 net.cpp:144] Setting up inception_10a/1x1/bn1
I0122 19:14:42.222707 70150 net.cpp:151] Top shape: 50 176 8 8 (563200)
I0122 19:14:42.222709 70150 net.cpp:159] Memory required for data: 527770600
I0122 19:14:42.222718 70150 layer_factory.hpp:77] Creating layer inception_10a/1x1/relu1
I0122 19:14:42.222723 70150 net.cpp:94] Creating Layer inception_10a/1x1/relu1
I0122 19:14:42.222729 70150 net.cpp:435] inception_10a/1x1/relu1 <- inception_10a/1x1
I0122 19:14:42.222734 70150 net.cpp:396] inception_10a/1x1/relu1 -> inception_10a/1x1 (in-place)
I0122 19:14:42.222743 70150 net.cpp:144] Setting up inception_10a/1x1/relu1
I0122 19:14:42.222748 70150 net.cpp:151] Top shape: 50 176 8 8 (563200)
I0122 19:14:42.222750 70150 net.cpp:159] Memory required for data: 530023400
I0122 19:14:42.222754 70150 layer_factory.hpp:77] Creating layer inception_10a/3x3
I0122 19:14:42.222770 70150 net.cpp:94] Creating Layer inception_10a/3x3
I0122 19:14:42.222775 70150 net.cpp:435] inception_10a/3x3 <- downsample_9/output_downsample_9/output_0_split_1
I0122 19:14:42.222782 70150 net.cpp:409] inception_10a/3x3 -> inception_10a/3x3
I0122 19:14:42.225301 70150 net.cpp:144] Setting up inception_10a/3x3
I0122 19:14:42.225311 70150 net.cpp:151] Top shape: 50 160 8 8 (512000)
I0122 19:14:42.225313 70150 net.cpp:159] Memory required for data: 532071400
I0122 19:14:42.225318 70150 layer_factory.hpp:77] Creating layer inception_10a/3x3/bn1
I0122 19:14:42.225325 70150 net.cpp:94] Creating Layer inception_10a/3x3/bn1
I0122 19:14:42.225329 70150 net.cpp:435] inception_10a/3x3/bn1 <- inception_10a/3x3
I0122 19:14:42.225335 70150 net.cpp:396] inception_10a/3x3/bn1 -> inception_10a/3x3 (in-place)
I0122 19:14:42.226068 70150 net.cpp:144] Setting up inception_10a/3x3/bn1
I0122 19:14:42.226075 70150 net.cpp:151] Top shape: 50 160 8 8 (512000)
I0122 19:14:42.226079 70150 net.cpp:159] Memory required for data: 534119400
I0122 19:14:42.226088 70150 layer_factory.hpp:77] Creating layer inception_10a/3x3/relu1
I0122 19:14:42.226092 70150 net.cpp:94] Creating Layer inception_10a/3x3/relu1
I0122 19:14:42.226095 70150 net.cpp:435] inception_10a/3x3/relu1 <- inception_10a/3x3
I0122 19:14:42.226101 70150 net.cpp:396] inception_10a/3x3/relu1 -> inception_10a/3x3 (in-place)
I0122 19:14:42.226109 70150 net.cpp:144] Setting up inception_10a/3x3/relu1
I0122 19:14:42.226114 70150 net.cpp:151] Top shape: 50 160 8 8 (512000)
I0122 19:14:42.226116 70150 net.cpp:159] Memory required for data: 536167400
I0122 19:14:42.226119 70150 layer_factory.hpp:77] Creating layer inception_10a/output
I0122 19:14:42.226125 70150 net.cpp:94] Creating Layer inception_10a/output
I0122 19:14:42.226127 70150 net.cpp:435] inception_10a/output <- inception_10a/1x1
I0122 19:14:42.226130 70150 net.cpp:435] inception_10a/output <- inception_10a/3x3
I0122 19:14:42.226138 70150 net.cpp:409] inception_10a/output -> inception_10a/output
I0122 19:14:42.226161 70150 net.cpp:144] Setting up inception_10a/output
I0122 19:14:42.226166 70150 net.cpp:151] Top shape: 50 336 8 8 (1075200)
I0122 19:14:42.226171 70150 net.cpp:159] Memory required for data: 540468200
I0122 19:14:42.226173 70150 layer_factory.hpp:77] Creating layer inception_10a/output_inception_10a/output_0_split
I0122 19:14:42.226178 70150 net.cpp:94] Creating Layer inception_10a/output_inception_10a/output_0_split
I0122 19:14:42.226181 70150 net.cpp:435] inception_10a/output_inception_10a/output_0_split <- inception_10a/output
I0122 19:14:42.226186 70150 net.cpp:409] inception_10a/output_inception_10a/output_0_split -> inception_10a/output_inception_10a/output_0_split_0
I0122 19:14:42.226193 70150 net.cpp:409] inception_10a/output_inception_10a/output_0_split -> inception_10a/output_inception_10a/output_0_split_1
I0122 19:14:42.226225 70150 net.cpp:144] Setting up inception_10a/output_inception_10a/output_0_split
I0122 19:14:42.226231 70150 net.cpp:151] Top shape: 50 336 8 8 (1075200)
I0122 19:14:42.226234 70150 net.cpp:151] Top shape: 50 336 8 8 (1075200)
I0122 19:14:42.226238 70150 net.cpp:159] Memory required for data: 549069800
I0122 19:14:42.226240 70150 layer_factory.hpp:77] Creating layer inception_11a/1x1
I0122 19:14:42.226248 70150 net.cpp:94] Creating Layer inception_11a/1x1
I0122 19:14:42.226251 70150 net.cpp:435] inception_11a/1x1 <- inception_10a/output_inception_10a/output_0_split_0
I0122 19:14:42.226258 70150 net.cpp:409] inception_11a/1x1 -> inception_11a/1x1
I0122 19:14:42.226835 70150 net.cpp:144] Setting up inception_11a/1x1
I0122 19:14:42.226842 70150 net.cpp:151] Top shape: 50 176 8 8 (563200)
I0122 19:14:42.226845 70150 net.cpp:159] Memory required for data: 551322600
I0122 19:14:42.226851 70150 layer_factory.hpp:77] Creating layer inception_11a/1x1/bn1
I0122 19:14:42.226860 70150 net.cpp:94] Creating Layer inception_11a/1x1/bn1
I0122 19:14:42.226864 70150 net.cpp:435] inception_11a/1x1/bn1 <- inception_11a/1x1
I0122 19:14:42.226871 70150 net.cpp:396] inception_11a/1x1/bn1 -> inception_11a/1x1 (in-place)
I0122 19:14:42.227596 70150 net.cpp:144] Setting up inception_11a/1x1/bn1
I0122 19:14:42.227602 70150 net.cpp:151] Top shape: 50 176 8 8 (563200)
I0122 19:14:42.227605 70150 net.cpp:159] Memory required for data: 553575400
I0122 19:14:42.227613 70150 layer_factory.hpp:77] Creating layer inception_11a/1x1/relu1
I0122 19:14:42.227619 70150 net.cpp:94] Creating Layer inception_11a/1x1/relu1
I0122 19:14:42.227622 70150 net.cpp:435] inception_11a/1x1/relu1 <- inception_11a/1x1
I0122 19:14:42.227628 70150 net.cpp:396] inception_11a/1x1/relu1 -> inception_11a/1x1 (in-place)
I0122 19:14:42.227634 70150 net.cpp:144] Setting up inception_11a/1x1/relu1
I0122 19:14:42.227640 70150 net.cpp:151] Top shape: 50 176 8 8 (563200)
I0122 19:14:42.227643 70150 net.cpp:159] Memory required for data: 555828200
I0122 19:14:42.227645 70150 layer_factory.hpp:77] Creating layer inception_11a/3x3
I0122 19:14:42.227654 70150 net.cpp:94] Creating Layer inception_11a/3x3
I0122 19:14:42.227659 70150 net.cpp:435] inception_11a/3x3 <- inception_10a/output_inception_10a/output_0_split_1
I0122 19:14:42.227666 70150 net.cpp:409] inception_11a/3x3 -> inception_11a/3x3
I0122 19:14:42.231405 70150 net.cpp:144] Setting up inception_11a/3x3
I0122 19:14:42.231416 70150 net.cpp:151] Top shape: 50 160 8 8 (512000)
I0122 19:14:42.231420 70150 net.cpp:159] Memory required for data: 557876200
I0122 19:14:42.231425 70150 layer_factory.hpp:77] Creating layer inception_11a/3x3/bn1
I0122 19:14:42.231432 70150 net.cpp:94] Creating Layer inception_11a/3x3/bn1
I0122 19:14:42.231436 70150 net.cpp:435] inception_11a/3x3/bn1 <- inception_11a/3x3
I0122 19:14:42.231441 70150 net.cpp:396] inception_11a/3x3/bn1 -> inception_11a/3x3 (in-place)
I0122 19:14:42.232162 70150 net.cpp:144] Setting up inception_11a/3x3/bn1
I0122 19:14:42.232169 70150 net.cpp:151] Top shape: 50 160 8 8 (512000)
I0122 19:14:42.232173 70150 net.cpp:159] Memory required for data: 559924200
I0122 19:14:42.232197 70150 layer_factory.hpp:77] Creating layer inception_11a/3x3/relu1
I0122 19:14:42.232204 70150 net.cpp:94] Creating Layer inception_11a/3x3/relu1
I0122 19:14:42.232208 70150 net.cpp:435] inception_11a/3x3/relu1 <- inception_11a/3x3
I0122 19:14:42.232213 70150 net.cpp:396] inception_11a/3x3/relu1 -> inception_11a/3x3 (in-place)
I0122 19:14:42.232219 70150 net.cpp:144] Setting up inception_11a/3x3/relu1
I0122 19:14:42.232223 70150 net.cpp:151] Top shape: 50 160 8 8 (512000)
I0122 19:14:42.232225 70150 net.cpp:159] Memory required for data: 561972200
I0122 19:14:42.232228 70150 layer_factory.hpp:77] Creating layer inception_11a/output
I0122 19:14:42.232234 70150 net.cpp:94] Creating Layer inception_11a/output
I0122 19:14:42.232235 70150 net.cpp:435] inception_11a/output <- inception_11a/1x1
I0122 19:14:42.232239 70150 net.cpp:435] inception_11a/output <- inception_11a/3x3
I0122 19:14:42.232246 70150 net.cpp:409] inception_11a/output -> inception_11a/output
I0122 19:14:42.232265 70150 net.cpp:144] Setting up inception_11a/output
I0122 19:14:42.232271 70150 net.cpp:151] Top shape: 50 336 8 8 (1075200)
I0122 19:14:42.232273 70150 net.cpp:159] Memory required for data: 566273000
I0122 19:14:42.232276 70150 layer_factory.hpp:77] Creating layer avg_pool_12/8x8_s1
I0122 19:14:42.232283 70150 net.cpp:94] Creating Layer avg_pool_12/8x8_s1
I0122 19:14:42.232286 70150 net.cpp:435] avg_pool_12/8x8_s1 <- inception_11a/output
I0122 19:14:42.232292 70150 net.cpp:409] avg_pool_12/8x8_s1 -> avg_pool_12/8x8_s1
I0122 19:14:42.232311 70150 net.cpp:144] Setting up avg_pool_12/8x8_s1
I0122 19:14:42.232317 70150 net.cpp:151] Top shape: 50 336 1 1 (16800)
I0122 19:14:42.232319 70150 net.cpp:159] Memory required for data: 566340200
I0122 19:14:42.232322 70150 layer_factory.hpp:77] Creating layer drop_8x8_s1
I0122 19:14:42.232328 70150 net.cpp:94] Creating Layer drop_8x8_s1
I0122 19:14:42.232332 70150 net.cpp:435] drop_8x8_s1 <- avg_pool_12/8x8_s1
I0122 19:14:42.232338 70150 net.cpp:396] drop_8x8_s1 -> avg_pool_12/8x8_s1 (in-place)
I0122 19:14:42.232359 70150 net.cpp:144] Setting up drop_8x8_s1
I0122 19:14:42.232363 70150 net.cpp:151] Top shape: 50 336 1 1 (16800)
I0122 19:14:42.232376 70150 net.cpp:159] Memory required for data: 566407400
I0122 19:14:42.232379 70150 layer_factory.hpp:77] Creating layer loss/classifier
I0122 19:14:42.232386 70150 net.cpp:94] Creating Layer loss/classifier
I0122 19:14:42.232389 70150 net.cpp:435] loss/classifier <- avg_pool_12/8x8_s1
I0122 19:14:42.232395 70150 net.cpp:409] loss/classifier -> loss/classifier
I0122 19:14:42.232544 70150 net.cpp:144] Setting up loss/classifier
I0122 19:14:42.232550 70150 net.cpp:151] Top shape: 50 10 (500)
I0122 19:14:42.232553 70150 net.cpp:159] Memory required for data: 566409400
I0122 19:14:42.232558 70150 layer_factory.hpp:77] Creating layer loss/classifier_loss/classifier_0_split
I0122 19:14:42.232564 70150 net.cpp:94] Creating Layer loss/classifier_loss/classifier_0_split
I0122 19:14:42.232568 70150 net.cpp:435] loss/classifier_loss/classifier_0_split <- loss/classifier
I0122 19:14:42.232573 70150 net.cpp:409] loss/classifier_loss/classifier_0_split -> loss/classifier_loss/classifier_0_split_0
I0122 19:14:42.232579 70150 net.cpp:409] loss/classifier_loss/classifier_0_split -> loss/classifier_loss/classifier_0_split_1
I0122 19:14:42.232586 70150 net.cpp:409] loss/classifier_loss/classifier_0_split -> loss/classifier_loss/classifier_0_split_2
I0122 19:14:42.232592 70150 net.cpp:409] loss/classifier_loss/classifier_0_split -> loss/classifier_loss/classifier_0_split_3
I0122 19:14:42.232646 70150 net.cpp:144] Setting up loss/classifier_loss/classifier_0_split
I0122 19:14:42.232651 70150 net.cpp:151] Top shape: 50 10 (500)
I0122 19:14:42.232655 70150 net.cpp:151] Top shape: 50 10 (500)
I0122 19:14:42.232657 70150 net.cpp:151] Top shape: 50 10 (500)
I0122 19:14:42.232661 70150 net.cpp:151] Top shape: 50 10 (500)
I0122 19:14:42.232663 70150 net.cpp:159] Memory required for data: 566417400
I0122 19:14:42.232666 70150 layer_factory.hpp:77] Creating layer loss
I0122 19:14:42.232671 70150 net.cpp:94] Creating Layer loss
I0122 19:14:42.232673 70150 net.cpp:435] loss <- loss/classifier_loss/classifier_0_split_0
I0122 19:14:42.232677 70150 net.cpp:435] loss <- label_data_1_split_0
I0122 19:14:42.232683 70150 net.cpp:409] loss -> loss
…
