…
I0122 19:57:12.117632 70379 caffe_interface.cpp:70] GPU device name: Quadro P6000
I0122 19:57:12.118831 70379 net.cpp:323] The NetState phase (1) differed from the phase (0) specified by a rule in layer data
I0122 19:57:12.119370 70379 net.cpp:52] Initializing net from parameters: 
state {
  phase: TEST
}
layer {
  name: "data"
  type: "Data"
  top: "data"
  top: "label"
  include {
    phase: TEST
  }
  transform_param {
    mirror: false
    mean_value: 104
    mean_value: 117
    mean_value: 123
  }
  data_param {
    source: "cifar10/input/lmdb/valid_lmdb"
    batch_size: 50
    backend: LMDB
  }
}
layer {
  name: "conv1/3x3_s1"
  type: "Convolution"
  bottom: "data"
  top: "conv1/3x3_s1"
  param {
    lr_mult: 1
    decay_mult: 1
  }
  param {
    lr_mult: 2
    decay_mult: 0
  }
  convolution_param {
    num_output: 96
    pad: 1
    kernel_size: 3
    stride: 1
    weight_filler {
      type: "xavier"
      std: 0.1
    }
    bias_filler {
      type: "constant"
      value: 0.2
    }
  }
}
layer {
  name: "conv1/bn1"
  type: "BatchNorm"
  bottom: "conv1/3x3_s1"
  top: "conv1/3x3_s1"
  param {
    lr_mult: 1
    decay_mult: 0
  }
  param {
    lr_mult: 1
    decay_mult: 0
  }
  param {
    lr_mult: 0
    decay_mult: 0
  }
  param {
    lr_mult: 0
    decay_mult: 0
  }
  batch_norm_param {
    use_global_stats: false
    scale_filler {
      type: "constant"
      value: 1
    }
    bias_filler {
      type: "constant"
      value: 0
    }
  }
}
layer {
  name: "conv1/relu1"
  type: "ReLU"
  bottom: "conv1/3x3_s1"
  top: "conv1/3x3_s1"
}
layer {
  name: "inception_2a/1x1"
  type: "Convolution"
  bottom: "conv1/3x3_s1"
  top: "inception_2a/1x1"
  param {
    lr_mult: 1
    decay_mult: 1
  }
  param {
    lr_mult: 2
    decay_mult: 0
  }
  convolution_param {
    num_output: 32
    kernel_size: 1
    weight_filler {
      type: "xavier"
      std: 0.03
    }
    bias_filler {
      type: "constant"
      value: 0.2
    }
  }
}
layer {
  name: "inception_2a/1x1/bn1"
  type: "BatchNorm"
  bottom: "inception_2a/1x1"
  top: "inception_2a/1x1"
  param {
    lr_mult: 1
    decay_mult: 0
  }
  param {
    lr_mult: 1
    decay_mult: 0
  }
  param {
    lr_mult: 0
    decay_mult: 0
  }
  param {
    lr_mult: 0
    decay_mult: 0
  }
  batch_norm_param {
    use_global_stats: false
    scale_filler {
      type: "constant"
      value: 1
    }
    bias_filler {
      type: "constant"
      value: 0
    }
  }
}
layer {
  name: "inception_2a/1x1/relu1"
  type: "ReLU"
  bottom: "inception_2a/1x1"
  top: "inception_2a/1x1"
}
layer {
  name: "inception_2a/3x3"
  type: "Convolution"
  bottom: "conv1/3x3_s1"
  top: "inception_2a/3x3"
  param {
    lr_mult: 1
    decay_mult: 1
  }
  param {
    lr_mult: 2
    decay_mult: 0
  }
  convolution_param {
    num_output: 32
    pad: 1
    kernel_size: 3
    weight_filler {
      type: "xavier"
      std: 0.03
    }
    bias_filler {
      type: "constant"
      value: 0.2
    }
  }
}
layer {
  name: "inception_2a/3x3/bn1"
  type: "BatchNorm"
  bottom: "inception_2a/3x3"
  top: "inception_2a/3x3"
  param {
    lr_mult: 1
    decay_mult: 0
  }
  param {
    lr_mult: 1
    decay_mult: 0
  }
  param {
    lr_mult: 0
    decay_mult: 0
  }
  param {
    lr_mult: 0
    decay_mult: 0
  }
  batch_norm_param {
    use_global_stats: false
    scale_filler {
      type: "constant"
      value: 1
    }
    bias_filler {
      type: "constant"
      value: 0
    }
  }
}
layer {
  name: "inception_2a/3x3/relu1"
  type: "ReLU"
  bottom: "inception_2a/3x3"
  top: "inception_2a/3x3"
}
layer {
  name: "inception_2a/output"
  type: "Concat"
  bottom: "inception_2a/1x1"
  bottom: "inception_2a/3x3"
  top: "inception_2a/output"
}
layer {
  name: "inception_3a/1x1"
  type: "Convolution"
  bottom: "inception_2a/output"
  top: "inception_3a/1x1"
  param {
    lr_mult: 1
    decay_mult: 1
  }
  param {
    lr_mult: 2
    decay_mult: 0
  }
  convolution_param {
    num_output: 32
    kernel_size: 1
    weight_filler {
      type: "xavier"
      std: 0.03
    }
    bias_filler {
      type: "constant"
      value: 0.2
    }
  }
}
layer {
  name: "inception_3a/1x1/bn1"
  type: "BatchNorm"
  bottom: "inception_3a/1x1"
  top: "inception_3a/1x1"
  param {
    lr_mult: 1
    decay_mult: 0
  }
  param {
    lr_mult: 1
    decay_mult: 0
  }
  param {
    lr_mult: 0
    decay_mult: 0
  }
  param {
    lr_mult: 0
    decay_mult: 0
  }
  batch_norm_param {
    use_global_stats: false
    scale_filler {
      type: "constant"
      value: 1
    }
    bias_filler {
      type: "constant"
      value: 0
    }
  }
}
layer {
  name: "inception_3a/1x1/relu1"
  type: "ReLU"
  bottom: "inception_3a/1x1"
  top: "inception_3a/1x1"
}
layer {
  name: "inception_3a/3x3"
  type: "Convolution"
  bottom: "inception_2a/output"
  top: "inception_3a/3x3"
  param {
    lr_mult: 1
    decay_mult: 1
  }
  param {
    lr_mult: 2
    decay_mult: 0
  }
  convolution_param {
    num_output: 48
    pad: 1
    kernel_size: 3
    weight_filler {
      type: "xavier"
      std: 0.03
    }
    bias_filler {
      type: "constant"
      value: 0.2
    }
  }
}
layer {
  name: "inception_3a/3x3/bn1"
  type: "BatchNorm"
  bottom: "inception_3a/3x3"
  top: "inception_3a/3x3"
  param {
    lr_mult: 1
    decay_mult: 0
  }
  param {
    lr_mult: 1
    decay_mult: 0
  }
  param {
    lr_mult: 0
    decay_mult: 0
  }
  param {
    lr_mult: 0
    decay_mult: 0
  }
  batch_norm_param {
    use_global_stats: false
    scale_filler {
      type: "constant"
      value: 1
    }
    bias_filler {
      type: "constant"
      value: 0
    }
  }
}
layer {
  name: "inception_3a/3x3/relu1"
  type: "ReLU"
  bottom: "inception_3a/3x3"
  top: "inception_3a/3x3"
}
layer {
  name: "inception_3a/output"
  type: "Concat"
  bottom: "inception_3a/1x1"
  bottom: "inception_3a/3x3"
  top: "inception_3a/output"
}
layer {
  name: "downsample_4/3x3_s2"
  type: "Convolution"
  bottom: "inception_3a/output"
  top: "downsample_4/3x3_s2"
  param {
    lr_mult: 1
    decay_mult: 1
  }
  param {
    lr_mult: 2
    decay_mult: 0
  }
  convolution_param {
    num_output: 80
    pad: 1
    kernel_size: 3
    stride: 2
    weight_filler {
      type: "xavier"
      std: 0.03
    }
    bias_filler {
      type: "constant"
      value: 0.2
    }
  }
}
layer {
  name: "downsample_4/3x3_s2/bn1"
  type: "BatchNorm"
  bottom: "downsample_4/3x3_s2"
  top: "downsample_4/3x3_s2"
  param {
    lr_mult: 1
    decay_mult: 0
  }
  param {
    lr_mult: 1
    decay_mult: 0
  }
  param {
    lr_mult: 0
    decay_mult: 0
  }
  param {
    lr_mult: 0
    decay_mult: 0
  }
  batch_norm_param {
    use_global_stats: false
    scale_filler {
      type: "constant"
      value: 1
    }
    bias_filler {
      type: "constant"
      value: 0
    }
  }
}
layer {
  name: "downsample_4/3x3_s2/relu1"
  type: "ReLU"
  bottom: "downsample_4/3x3_s2"
  top: "downsample_4/3x3_s2"
}
layer {
  name: "downsample_4/pool_s2"
  type: "Pooling"
  bottom: "inception_3a/output"
  top: "downsample_4/pool_s2"
  pooling_param {
    pool: MAX
    kernel_size: 3
    stride: 2
  }
}
layer {
  name: "downsample_4/output"
  type: "Concat"
  bottom: "downsample_4/3x3_s2"
  bottom: "downsample_4/pool_s2"
  top: "downsample_4/output"
}
layer {
  name: "inception_5a/1x1"
  type: "Convolution"
  bottom: "downsample_4/output"
  top: "inception_5a/1x1"
  param {
    lr_mult: 1
    decay_mult: 1
  }
  param {
    lr_mult: 2
    decay_mult: 0
  }
  convolution_param {
    num_output: 112
    kernel_size: 1
    weight_filler {
      type: "xavier"
      std: 0.03
    }
    bias_filler {
      type: "constant"
      value: 0.2
    }
  }
}
layer {
  name: "inception_5a/1x1/bn1"
  type: "BatchNorm"
  bottom: "inception_5a/1x1"
  top: "inception_5a/1x1"
  param {
    lr_mult: 1
    decay_mult: 0
  }
  param {
    lr_mult: 1
    decay_mult: 0
  }
  param {
    lr_mult: 0
    decay_mult: 0
  }
  param {
    lr_mult: 0
    decay_mult: 0
  }
  batch_norm_param {
    use_global_stats: false
    scale_filler {
      type: "constant"
      value: 1
    }
    bias_filler {
      type: "constant"
      value: 0
    }
  }
}
layer {
  name: "inception_5a/1x1/relu1"
  type: "ReLU"
  bottom: "inception_5a/1x1"
  top: "inception_5a/1x1"
}
layer {
  name: "inception_5a/3x3"
  type: "Convolution"
  bottom: "downsample_4/output"
  top: "inception_5a/3x3"
  param {
    lr_mult: 1
    decay_mult: 1
  }
  param {
    lr_mult: 2
    decay_mult: 0
  }
  convolution_param {
    num_output: 48
    pad: 1
    kernel_size: 3
    weight_filler {
      type: "xavier"
      std: 0.03
    }
    bias_filler {
      type: "constant"
      value: 0.2
    }
  }
}
layer {
  name: "inception_5a/3x3/bn1"
  type: "BatchNorm"
  bottom: "inception_5a/3x3"
  top: "inception_5a/3x3"
  param {
    lr_mult: 1
    decay_mult: 0
  }
  param {
    lr_mult: 1
    decay_mult: 0
  }
  param {
    lr_mult: 0
    decay_mult: 0
  }
  param {
    lr_mult: 0
    decay_mult: 0
  }
  batch_norm_param {
    use_global_stats: false
    scale_filler {
      type: "constant"
      value: 1
    }
    bias_filler {
      type: "constant"
      value: 0
    }
  }
}
layer {
  name: "inception_5a/3x3/relu1"
  type: "ReLU"
  bottom: "inception_5a/3x3"
  top: "inception_5a/3x3"
}
layer {
  name: "inception_5a/output"
  type: "Concat"
  bottom: "inception_5a/1x1"
  bottom: "inception_5a/3x3"
  top: "inception_5a/output"
}
layer {
  name: "inception_6a/1x1"
  type: "Convolution"
  bottom: "inception_5a/output"
  top: "inception_6a/1x1"
  param {
    lr_mult: 1
    decay_mult: 1
  }
  param {
    lr_mult: 2
    decay_mult: 0
  }
  convolution_param {
    num_output: 96
    kernel_size: 1
    weight_filler {
      type: "xavier"
      std: 0.03
    }
    bias_filler {
      type: "constant"
      value: 0.2
    }
  }
}
layer {
  name: "inception_6a/1x1/bn1"
  type: "BatchNorm"
  bottom: "inception_6a/1x1"
  top: "inception_6a/1x1"
  param {
    lr_mult: 1
    decay_mult: 0
  }
  param {
    lr_mult: 1
    decay_mult: 0
  }
  param {
    lr_mult: 0
    decay_mult: 0
  }
  param {
    lr_mult: 0
    decay_mult: 0
  }
  batch_norm_param {
    use_global_stats: false
    scale_filler {
      type: "constant"
      value: 1
    }
    bias_filler {
      type: "constant"
      value: 0
    }
  }
}
layer {
  name: "inception_6a/1x1/relu1"
  type: "ReLU"
  bottom: "inception_6a/1x1"
  top: "inception_6a/1x1"
}
layer {
  name: "inception_6a/3x3"
  type: "Convolution"
  bottom: "inception_5a/output"
  top: "inception_6a/3x3"
  param {
    lr_mult: 1
    decay_mult: 1
  }
  param {
    lr_mult: 2
    decay_mult: 0
  }
  convolution_param {
    num_output: 64
    pad: 1
    kernel_size: 3
    weight_filler {
      type: "xavier"
      std: 0.03
    }
    bias_filler {
      type: "constant"
      value: 0.2
    }
  }
}
layer {
  name: "inception_6a/3x3/bn1"
  type: "BatchNorm"
  bottom: "inception_6a/3x3"
  top: "inception_6a/3x3"
  param {
    lr_mult: 1
    decay_mult: 0
  }
  param {
    lr_mult: 1
    decay_mult: 0
  }
  param {
    lr_mult: 0
    decay_mult: 0
  }
  param {
    lr_mult: 0
    decay_mult: 0
  }
  batch_norm_param {
    use_global_stats: false
    scale_filler {
      type: "constant"
      value: 1
    }
    bias_filler {
      type: "constant"
      value: 0
    }
  }
}
layer {
  name: "inception_6a/3x3/relu1"
  type: "ReLU"
  bottom: "inception_6a/3x3"
  top: "inception_6a/3x3"
}
layer {
  name: "inception_6a/output"
  type: "Concat"
  bottom: "inception_6a/1x1"
  bottom: "inception_6a/3x3"
  top: "inception_6a/output"
}
layer {
  name: "inception_7a/1x1"
  type: "Convolution"
  bottom: "inception_6a/output"
  top: "inception_7a/1x1"
  param {
    lr_mult: 1
    decay_mult: 1
  }
  param {
    lr_mult: 2
    decay_mult: 0
  }
  convolution_param {
    num_output: 80
    kernel_size: 1
    weight_filler {
      type: "xavier"
      std: 0.03
    }
    bias_filler {
      type: "constant"
      value: 0.2
    }
  }
}
layer {
  name: "inception_7a/1x1/bn1"
  type: "BatchNorm"
  bottom: "inception_7a/1x1"
  top: "inception_7a/1x1"
  param {
    lr_mult: 1
    decay_mult: 0
  }
  param {
    lr_mult: 1
    decay_mult: 0
  }
  param {
    lr_mult: 0
    decay_mult: 0
  }
  param {
    lr_mult: 0
    decay_mult: 0
  }
  batch_norm_param {
    use_global_stats: false
    scale_filler {
      type: "constant"
      value: 1
    }
    bias_filler {
      type: "constant"
      value: 0
    }
  }
}
layer {
  name: "inception_7a/1x1/relu1"
  type: "ReLU"
  bottom: "inception_7a/1x1"
  top: "inception_7a/1x1"
}
layer {
  name: "inception_7a/3x3"
  type: "Convolution"
  bottom: "inception_6a/output"
  top: "inception_7a/3x3"
  param {
    lr_mult: 1
    decay_mult: 1
  }
  param {
    lr_mult: 2
    decay_mult: 0
  }
  convolution_param {
    num_output: 80
    pad: 1
    kernel_size: 3
    weight_filler {
      type: "xavier"
      std: 0.03
    }
    bias_filler {
      type: "constant"
      value: 0.2
    }
  }
}
layer {
  name: "inception_7a/3x3/bn1"
  type: "BatchNorm"
  bottom: "inception_7a/3x3"
  top: "inception_7a/3x3"
  param {
    lr_mult: 1
    decay_mult: 0
  }
  param {
    lr_mult: 1
    decay_mult: 0
  }
  param {
    lr_mult: 0
    decay_mult: 0
  }
  param {
    lr_mult: 0
    decay_mult: 0
  }
  batch_norm_param {
    use_global_stats: false
    scale_filler {
      type: "constant"
      value: 1
    }
    bias_filler {
      type: "constant"
      value: 0
    }
  }
}
layer {
  name: "inception_7a/3x3/relu1"
  type: "ReLU"
  bottom: "inception_7a/3x3"
  top: "inception_7a/3x3"
}
layer {
  name: "inception_7a/output"
  type: "Concat"
  bottom: "inception_7a/1x1"
  bottom: "inception_7a/3x3"
  top: "inception_7a/output"
}
layer {
  name: "inception_8a/1x1"
  type: "Convolution"
  bottom: "inception_7a/output"
  top: "inception_8a/1x1"
  param {
    lr_mult: 1
    decay_mult: 1
  }
  param {
    lr_mult: 2
    decay_mult: 0
  }
  convolution_param {
    num_output: 48
    kernel_size: 1
    weight_filler {
      type: "xavier"
      std: 0.03
    }
    bias_filler {
      type: "constant"
      value: 0.2
    }
  }
}
layer {
  name: "inception_8a/1x1/bn1"
  type: "BatchNorm"
  bottom: "inception_8a/1x1"
  top: "inception_8a/1x1"
  param {
    lr_mult: 1
    decay_mult: 0
  }
  param {
    lr_mult: 1
    decay_mult: 0
  }
  param {
    lr_mult: 0
    decay_mult: 0
  }
  param {
    lr_mult: 0
    decay_mult: 0
  }
  batch_norm_param {
    use_global_stats: false
    scale_filler {
      type: "constant"
      value: 1
    }
    bias_filler {
      type: "constant"
      value: 0
    }
  }
}
layer {
  name: "inception_8a/1x1/relu1"
  type: "ReLU"
  bottom: "inception_8a/1x1"
  top: "inception_8a/1x1"
}
layer {
  name: "inception_8a/3x3"
  type: "Convolution"
  bottom: "inception_7a/output"
  top: "inception_8a/3x3"
  param {
    lr_mult: 1
    decay_mult: 1
  }
  param {
    lr_mult: 2
    decay_mult: 0
  }
  convolution_param {
    num_output: 96
    pad: 1
    kernel_size: 3
    weight_filler {
      type: "xavier"
      std: 0.03
    }
    bias_filler {
      type: "constant"
      value: 0.2
    }
  }
}
layer {
  name: "inception_8a/3x3/bn1"
  type: "BatchNorm"
  bottom: "inception_8a/3x3"
  top: "inception_8a/3x3"
  param {
    lr_mult: 1
    decay_mult: 0
  }
  param {
    lr_mult: 1
    decay_mult: 0
  }
  param {
    lr_mult: 0
    decay_mult: 0
  }
  param {
    lr_mult: 0
    decay_mult: 0
  }
  batch_norm_param {
    use_global_stats: false
    scale_filler {
      type: "constant"
      value: 1
    }
    bias_filler {
      type: "constant"
      value: 0
    }
  }
}
layer {
  name: "inception_8a/3x3/relu1"
  type: "ReLU"
  bottom: "inception_8a/3x3"
  top: "inception_8a/3x3"
}
layer {
  name: "inception_8a/output"
  type: "Concat"
  bottom: "inception_8a/1x1"
  bottom: "inception_8a/3x3"
  top: "inception_8a/output"
}
layer {
  name: "downsample_9/3x3_s2"
  type: "Convolution"
  bottom: "inception_8a/output"
  top: "downsample_9/3x3_s2"
  param {
    lr_mult: 1
    decay_mult: 1
  }
  param {
    lr_mult: 2
    decay_mult: 0
  }
  convolution_param {
    num_output: 96
    pad: 1
    kernel_size: 3
    stride: 2
    weight_filler {
      type: "xavier"
      std: 0.03
    }
    bias_filler {
      type: "constant"
      value: 0.2
    }
  }
}
layer {
  name: "downsample_9/3x3_s2/bn1"
  type: "BatchNorm"
  bottom: "downsample_9/3x3_s2"
  top: "downsample_9/3x3_s2"
  param {
    lr_mult: 1
    decay_mult: 0
  }
  param {
    lr_mult: 1
    decay_mult: 0
  }
  param {
    lr_mult: 0
    decay_mult: 0
  }
  param {
    lr_mult: 0
    decay_mult: 0
  }
  batch_norm_param {
    use_global_stats: false
    scale_filler {
      type: "constant"
      value: 1
    }
    bias_filler {
      type: "constant"
      value: 0
    }
  }
}
layer {
  name: "downsample_9/3x3_s2/relu1"
  type: "ReLU"
  bottom: "downsample_9/3x3_s2"
  top: "downsample_9/3x3_s2"
}
layer {
  name: "downsample_9/pool_s2"
  type: "Pooling"
  bottom: "inception_8a/output"
  top: "downsample_9/pool_s2"
  pooling_param {
    pool: MAX
    kernel_size: 3
    stride: 2
  }
}
layer {
  name: "downsample_9/output"
  type: "Concat"
  bottom: "downsample_9/3x3_s2"
  bottom: "downsample_9/pool_s2"
  top: "downsample_9/output"
}
layer {
  name: "inception_10a/1x1"
  type: "Convolution"
  bottom: "downsample_9/output"
  top: "inception_10a/1x1"
  param {
    lr_mult: 1
    decay_mult: 1
  }
  param {
    lr_mult: 2
    decay_mult: 0
  }
  convolution_param {
    num_output: 176
    kernel_size: 1
    weight_filler {
      type: "xavier"
      std: 0.03
    }
    bias_filler {
      type: "constant"
      value: 0.2
    }
  }
}
layer {
  name: "inception_10a/1x1/bn1"
  type: "BatchNorm"
  bottom: "inception_10a/1x1"
  top: "inception_10a/1x1"
  param {
    lr_mult: 1
    decay_mult: 0
  }
  param {
    lr_mult: 1
    decay_mult: 0
  }
  param {
    lr_mult: 0
    decay_mult: 0
  }
  param {
    lr_mult: 0
    decay_mult: 0
  }
  batch_norm_param {
    use_global_stats: false
    scale_filler {
      type: "constant"
      value: 1
    }
    bias_filler {
      type: "constant"
      value: 0
    }
  }
}
layer {
  name: "inception_10a/1x1/relu1"
  type: "ReLU"
  bottom: "inception_10a/1x1"
  top: "inception_10a/1x1"
}
layer {
  name: "inception_10a/3x3"
  type: "Convolution"
  bottom: "downsample_9/output"
  top: "inception_10a/3x3"
  param {
    lr_mult: 1
    decay_mult: 1
  }
  param {
    lr_mult: 2
    decay_mult: 0
  }
  convolution_param {
    num_output: 160
    pad: 1
    kernel_size: 3
    weight_filler {
      type: "xavier"
      std: 0.03
    }
    bias_filler {
      type: "constant"
      value: 0.2
    }
  }
}
layer {
  name: "inception_10a/3x3/bn1"
  type: "BatchNorm"
  bottom: "inception_10a/3x3"
  top: "inception_10a/3x3"
  param {
    lr_mult: 1
    decay_mult: 0
  }
  param {
    lr_mult: 1
    decay_mult: 0
  }
  param {
    lr_mult: 0
    decay_mult: 0
  }
  param {
    lr_mult: 0
    decay_mult: 0
  }
  batch_norm_param {
    use_global_stats: false
    scale_filler {
      type: "constant"
      value: 1
    }
    bias_filler {
      type: "constant"
      value: 0
    }
  }
}
layer {
  name: "inception_10a/3x3/relu1"
  type: "ReLU"
  bottom: "inception_10a/3x3"
  top: "inception_10a/3x3"
}
layer {
  name: "inception_10a/output"
  type: "Concat"
  bottom: "inception_10a/1x1"
  bottom: "inception_10a/3x3"
  top: "inception_10a/output"
}
layer {
  name: "inception_11a/1x1"
  type: "Convolution"
  bottom: "inception_10a/output"
  top: "inception_11a/1x1"
  param {
    lr_mult: 1
    decay_mult: 1
  }
  param {
    lr_mult: 2
    decay_mult: 0
  }
  convolution_param {
    num_output: 176
    kernel_size: 1
    weight_filler {
      type: "xavier"
      std: 0.03
    }
    bias_filler {
      type: "constant"
      value: 0.2
    }
  }
}
layer {
  name: "inception_11a/1x1/bn1"
  type: "BatchNorm"
  bottom: "inception_11a/1x1"
  top: "inception_11a/1x1"
  param {
    lr_mult: 1
    decay_mult: 0
  }
  param {
    lr_mult: 1
    decay_mult: 0
  }
  param {
    lr_mult: 0
    decay_mult: 0
  }
  param {
    lr_mult: 0
    decay_mult: 0
  }
  batch_norm_param {
    use_global_stats: false
    scale_filler {
      type: "constant"
      value: 1
    }
    bias_filler {
      type: "constant"
      value: 0
    }
  }
}
layer {
  name: "inception_11a/1x1/relu1"
  type: "ReLU"
  bottom: "inception_11a/1x1"
  top: "inception_11a/1x1"
}
layer {
  name: "inception_11a/3x3"
  type: "Convolution"
  bottom: "inception_10a/output"
  top: "inception_11a/3x3"
  param {
    lr_mult: 1
    decay_mult: 1
  }
  param {
    lr_mult: 2
    decay_mult: 0
  }
  convolution_param {
    num_output: 160
    pad: 1
    kernel_size: 3
    weight_filler {
      type: "xavier"
      std: 0.03
    }
    bias_filler {
      type: "constant"
      value: 0.2
    }
  }
}
layer {
  name: "inception_11a/3x3/bn1"
  type: "BatchNorm"
  bottom: "inception_11a/3x3"
  top: "inception_11a/3x3"
  param {
    lr_mult: 1
    decay_mult: 0
  }
  param {
    lr_mult: 1
    decay_mult: 0
  }
  param {
    lr_mult: 0
    decay_mult: 0
  }
  param {
    lr_mult: 0
    decay_mult: 0
  }
  batch_norm_param {
    use_global_stats: false
    scale_filler {
      type: "constant"
      value: 1
    }
    bias_filler {
      type: "constant"
      value: 0
    }
  }
}
layer {
  name: "inception_11a/3x3/relu1"
  type: "ReLU"
  bottom: "inception_11a/3x3"
  top: "inception_11a/3x3"
}
layer {
  name: "inception_11a/output"
  type: "Concat"
  bottom: "inception_11a/1x1"
  bottom: "inception_11a/3x3"
  top: "inception_11a/output"
}
layer {
  name: "avg_pool_12/8x8_s1"
  type: "Pooling"
  bottom: "inception_11a/output"
  top: "avg_pool_12/8x8_s1"
  pooling_param {
    pool: AVE
    kernel_size: 8
    stride: 1
  }
}
layer {
  name: "drop_8x8_s1"
  type: "Dropout"
  bottom: "avg_pool_12/8x8_s1"
  top: "avg_pool_12/8x8_s1"
  dropout_param {
    dropout_ratio: 0.5
  }
}
layer {
  name: "loss/classifier"
  type: "InnerProduct"
  bottom: "avg_pool_12/8x8_s1"
  top: "loss/classifier"
  param {
    lr_mult: 1
    decay_mult: 1
  }
  param {
    lr_mult: 2
    decay_mult: 0
  }
  inner_product_param {
    num_output: 10
    weight_filler {
      type: "xavier"
    }
    bias_filler {
      type: "constant"
      value: 1
    }
  }
}
layer {
  name: "loss"
  type: "SoftmaxWithLoss"
  bottom: "loss/classifier"
  bottom: "label"
  top: "loss"
}
layer {
  name: "accuracy"
  type: "Accuracy"
  bottom: "loss/classifier"
  bottom: "label"
  top: "accuracy"
  include {
    phase: TEST
  }
}
layer {
  name: "accuracy-top1"
  type: "Accuracy"
  bottom: "loss/classifier"
  bottom: "label"
  top: "top-1"
  include {
    phase: TEST
  }
}
layer {
  name: "accuracy-top5"
  type: "Accuracy"
  bottom: "loss/classifier"
  bottom: "label"
  top: "top-5"
  include {
    phase: TEST
  }
  accuracy_param {
    top_k: 5
  }
}
I0122 19:57:12.119659 70379 layer_factory.hpp:77] Creating layer data
I0122 19:57:12.119710 70379 internal_thread.cpp:27] Starting internal thread(s) on GPU 0
I0122 19:57:12.120086 70379 net.cpp:94] Creating Layer data
I0122 19:57:12.120095 70379 net.cpp:409] data -> data
I0122 19:57:12.120102 70379 net.cpp:409] data -> label
I0122 19:57:12.121075 70686 db_lmdb.cpp:35] Opened lmdb cifar10/input/lmdb/valid_lmdb
I0122 19:57:12.121105 70686 data_reader.cpp:117] TEST: reading data using 1 channel(s)
I0122 19:57:12.121166 70379 data_layer.cpp:78] ReshapePrefetch 50, 3, 32, 32
I0122 19:57:12.121235 70379 data_layer.cpp:83] output data size: 50,3,32,32
I0122 19:57:12.123741 70379 internal_thread.cpp:27] Starting internal thread(s) on GPU 0
I0122 19:57:12.123780 70379 net.cpp:144] Setting up data
I0122 19:57:12.123785 70379 net.cpp:151] Top shape: 50 3 32 32 (153600)
I0122 19:57:12.123790 70379 net.cpp:151] Top shape: 50 (50)
I0122 19:57:12.123793 70379 net.cpp:159] Memory required for data: 614600
I0122 19:57:12.123796 70379 layer_factory.hpp:77] Creating layer label_data_1_split
I0122 19:57:12.123802 70379 net.cpp:94] Creating Layer label_data_1_split
I0122 19:57:12.123806 70379 net.cpp:435] label_data_1_split <- label
I0122 19:57:12.123811 70379 net.cpp:409] label_data_1_split -> label_data_1_split_0
I0122 19:57:12.123817 70379 net.cpp:409] label_data_1_split -> label_data_1_split_1
I0122 19:57:12.123834 70379 net.cpp:409] label_data_1_split -> label_data_1_split_2
I0122 19:57:12.123842 70379 net.cpp:409] label_data_1_split -> label_data_1_split_3
I0122 19:57:12.123909 70379 net.cpp:144] Setting up label_data_1_split
I0122 19:57:12.123926 70379 net.cpp:151] Top shape: 50 (50)
I0122 19:57:12.123929 70379 net.cpp:151] Top shape: 50 (50)
I0122 19:57:12.123934 70379 net.cpp:151] Top shape: 50 (50)
I0122 19:57:12.123936 70379 net.cpp:151] Top shape: 50 (50)
I0122 19:57:12.123939 70379 net.cpp:159] Memory required for data: 615400
I0122 19:57:12.123941 70379 layer_factory.hpp:77] Creating layer conv1/3x3_s1
I0122 19:57:12.123950 70379 net.cpp:94] Creating Layer conv1/3x3_s1
I0122 19:57:12.123953 70379 net.cpp:435] conv1/3x3_s1 <- data
I0122 19:57:12.123958 70379 net.cpp:409] conv1/3x3_s1 -> conv1/3x3_s1
I0122 19:57:12.125398 70379 net.cpp:144] Setting up conv1/3x3_s1
I0122 19:57:12.125411 70379 net.cpp:151] Top shape: 50 96 32 32 (4915200)
I0122 19:57:12.125413 70379 net.cpp:159] Memory required for data: 20276200
I0122 19:57:12.125422 70379 layer_factory.hpp:77] Creating layer conv1/bn1
I0122 19:57:12.125430 70379 net.cpp:94] Creating Layer conv1/bn1
I0122 19:57:12.125452 70379 net.cpp:435] conv1/bn1 <- conv1/3x3_s1
I0122 19:57:12.125457 70379 net.cpp:396] conv1/bn1 -> conv1/3x3_s1 (in-place)
I0122 19:57:12.126125 70379 net.cpp:144] Setting up conv1/bn1
I0122 19:57:12.126132 70379 net.cpp:151] Top shape: 50 96 32 32 (4915200)
I0122 19:57:12.126137 70379 net.cpp:159] Memory required for data: 39937000
I0122 19:57:12.126147 70379 layer_factory.hpp:77] Creating layer conv1/relu1
I0122 19:57:12.126154 70379 net.cpp:94] Creating Layer conv1/relu1
I0122 19:57:12.126157 70379 net.cpp:435] conv1/relu1 <- conv1/3x3_s1
I0122 19:57:12.126163 70379 net.cpp:396] conv1/relu1 -> conv1/3x3_s1 (in-place)
I0122 19:57:12.126169 70379 net.cpp:144] Setting up conv1/relu1
I0122 19:57:12.126173 70379 net.cpp:151] Top shape: 50 96 32 32 (4915200)
I0122 19:57:12.126175 70379 net.cpp:159] Memory required for data: 59597800
I0122 19:57:12.126178 70379 layer_factory.hpp:77] Creating layer conv1/3x3_s1_conv1/relu1_0_split
I0122 19:57:12.126183 70379 net.cpp:94] Creating Layer conv1/3x3_s1_conv1/relu1_0_split
I0122 19:57:12.126185 70379 net.cpp:435] conv1/3x3_s1_conv1/relu1_0_split <- conv1/3x3_s1
I0122 19:57:12.126190 70379 net.cpp:409] conv1/3x3_s1_conv1/relu1_0_split -> conv1/3x3_s1_conv1/relu1_0_split_0
I0122 19:57:12.126199 70379 net.cpp:409] conv1/3x3_s1_conv1/relu1_0_split -> conv1/3x3_s1_conv1/relu1_0_split_1
I0122 19:57:12.126251 70379 net.cpp:144] Setting up conv1/3x3_s1_conv1/relu1_0_split
I0122 19:57:12.126257 70379 net.cpp:151] Top shape: 50 96 32 32 (4915200)
I0122 19:57:12.126261 70379 net.cpp:151] Top shape: 50 96 32 32 (4915200)
I0122 19:57:12.126265 70379 net.cpp:159] Memory required for data: 98919400
I0122 19:57:12.126267 70379 layer_factory.hpp:77] Creating layer inception_2a/1x1
I0122 19:57:12.126274 70379 net.cpp:94] Creating Layer inception_2a/1x1
I0122 19:57:12.126279 70379 net.cpp:435] inception_2a/1x1 <- conv1/3x3_s1_conv1/relu1_0_split_0
I0122 19:57:12.126284 70379 net.cpp:409] inception_2a/1x1 -> inception_2a/1x1
I0122 19:57:12.126579 70379 net.cpp:144] Setting up inception_2a/1x1
I0122 19:57:12.126585 70379 net.cpp:151] Top shape: 50 32 32 32 (1638400)
I0122 19:57:12.126588 70379 net.cpp:159] Memory required for data: 105473000
I0122 19:57:12.126595 70379 layer_factory.hpp:77] Creating layer inception_2a/1x1/bn1
I0122 19:57:12.126601 70379 net.cpp:94] Creating Layer inception_2a/1x1/bn1
I0122 19:57:12.126606 70379 net.cpp:435] inception_2a/1x1/bn1 <- inception_2a/1x1
I0122 19:57:12.126611 70379 net.cpp:396] inception_2a/1x1/bn1 -> inception_2a/1x1 (in-place)
I0122 19:57:12.127359 70379 net.cpp:144] Setting up inception_2a/1x1/bn1
I0122 19:57:12.127367 70379 net.cpp:151] Top shape: 50 32 32 32 (1638400)
I0122 19:57:12.127369 70379 net.cpp:159] Memory required for data: 112026600
I0122 19:57:12.127377 70379 layer_factory.hpp:77] Creating layer inception_2a/1x1/relu1
I0122 19:57:12.127383 70379 net.cpp:94] Creating Layer inception_2a/1x1/relu1
I0122 19:57:12.127398 70379 net.cpp:435] inception_2a/1x1/relu1 <- inception_2a/1x1
I0122 19:57:12.127403 70379 net.cpp:396] inception_2a/1x1/relu1 -> inception_2a/1x1 (in-place)
I0122 19:57:12.127409 70379 net.cpp:144] Setting up inception_2a/1x1/relu1
I0122 19:57:12.127413 70379 net.cpp:151] Top shape: 50 32 32 32 (1638400)
I0122 19:57:12.127416 70379 net.cpp:159] Memory required for data: 118580200
I0122 19:57:12.127418 70379 layer_factory.hpp:77] Creating layer inception_2a/3x3
I0122 19:57:12.127425 70379 net.cpp:94] Creating Layer inception_2a/3x3
I0122 19:57:12.127429 70379 net.cpp:435] inception_2a/3x3 <- conv1/3x3_s1_conv1/relu1_0_split_1
I0122 19:57:12.127434 70379 net.cpp:409] inception_2a/3x3 -> inception_2a/3x3
I0122 19:57:12.128458 70379 net.cpp:144] Setting up inception_2a/3x3
I0122 19:57:12.128468 70379 net.cpp:151] Top shape: 50 32 32 32 (1638400)
I0122 19:57:12.128473 70379 net.cpp:159] Memory required for data: 125133800
I0122 19:57:12.128479 70379 layer_factory.hpp:77] Creating layer inception_2a/3x3/bn1
I0122 19:57:12.128486 70379 net.cpp:94] Creating Layer inception_2a/3x3/bn1
I0122 19:57:12.128489 70379 net.cpp:435] inception_2a/3x3/bn1 <- inception_2a/3x3
I0122 19:57:12.128496 70379 net.cpp:396] inception_2a/3x3/bn1 -> inception_2a/3x3 (in-place)
I0122 19:57:12.129127 70379 net.cpp:144] Setting up inception_2a/3x3/bn1
I0122 19:57:12.129132 70379 net.cpp:151] Top shape: 50 32 32 32 (1638400)
I0122 19:57:12.129137 70379 net.cpp:159] Memory required for data: 131687400
I0122 19:57:12.129148 70379 layer_factory.hpp:77] Creating layer inception_2a/3x3/relu1
I0122 19:57:12.129154 70379 net.cpp:94] Creating Layer inception_2a/3x3/relu1
I0122 19:57:12.129158 70379 net.cpp:435] inception_2a/3x3/relu1 <- inception_2a/3x3
I0122 19:57:12.129163 70379 net.cpp:396] inception_2a/3x3/relu1 -> inception_2a/3x3 (in-place)
I0122 19:57:12.129169 70379 net.cpp:144] Setting up inception_2a/3x3/relu1
I0122 19:57:12.129173 70379 net.cpp:151] Top shape: 50 32 32 32 (1638400)
I0122 19:57:12.129175 70379 net.cpp:159] Memory required for data: 138241000
I0122 19:57:12.129179 70379 layer_factory.hpp:77] Creating layer inception_2a/output
I0122 19:57:12.129184 70379 net.cpp:94] Creating Layer inception_2a/output
I0122 19:57:12.129187 70379 net.cpp:435] inception_2a/output <- inception_2a/1x1
I0122 19:57:12.129190 70379 net.cpp:435] inception_2a/output <- inception_2a/3x3
I0122 19:57:12.129194 70379 net.cpp:409] inception_2a/output -> inception_2a/output
I0122 19:57:12.129215 70379 net.cpp:144] Setting up inception_2a/output
I0122 19:57:12.129221 70379 net.cpp:151] Top shape: 50 64 32 32 (3276800)
I0122 19:57:12.129223 70379 net.cpp:159] Memory required for data: 151348200
I0122 19:57:12.129226 70379 layer_factory.hpp:77] Creating layer inception_2a/output_inception_2a/output_0_split
I0122 19:57:12.129230 70379 net.cpp:94] Creating Layer inception_2a/output_inception_2a/output_0_split
I0122 19:57:12.129233 70379 net.cpp:435] inception_2a/output_inception_2a/output_0_split <- inception_2a/output
I0122 19:57:12.129238 70379 net.cpp:409] inception_2a/output_inception_2a/output_0_split -> inception_2a/output_inception_2a/output_0_split_0
I0122 19:57:12.129245 70379 net.cpp:409] inception_2a/output_inception_2a/output_0_split -> inception_2a/output_inception_2a/output_0_split_1
I0122 19:57:12.129309 70379 net.cpp:144] Setting up inception_2a/output_inception_2a/output_0_split
I0122 19:57:12.129315 70379 net.cpp:151] Top shape: 50 64 32 32 (3276800)
I0122 19:57:12.129319 70379 net.cpp:151] Top shape: 50 64 32 32 (3276800)
I0122 19:57:12.129321 70379 net.cpp:159] Memory required for data: 177562600
I0122 19:57:12.129324 70379 layer_factory.hpp:77] Creating layer inception_3a/1x1
I0122 19:57:12.129333 70379 net.cpp:94] Creating Layer inception_3a/1x1
I0122 19:57:12.129336 70379 net.cpp:435] inception_3a/1x1 <- inception_2a/output_inception_2a/output_0_split_0
I0122 19:57:12.129341 70379 net.cpp:409] inception_3a/1x1 -> inception_3a/1x1
I0122 19:57:12.129559 70379 net.cpp:144] Setting up inception_3a/1x1
I0122 19:57:12.129575 70379 net.cpp:151] Top shape: 50 32 32 32 (1638400)
I0122 19:57:12.129578 70379 net.cpp:159] Memory required for data: 184116200
I0122 19:57:12.129583 70379 layer_factory.hpp:77] Creating layer inception_3a/1x1/bn1
I0122 19:57:12.129590 70379 net.cpp:94] Creating Layer inception_3a/1x1/bn1
I0122 19:57:12.129593 70379 net.cpp:435] inception_3a/1x1/bn1 <- inception_3a/1x1
I0122 19:57:12.129598 70379 net.cpp:396] inception_3a/1x1/bn1 -> inception_3a/1x1 (in-place)
I0122 19:57:12.130264 70379 net.cpp:144] Setting up inception_3a/1x1/bn1
I0122 19:57:12.130272 70379 net.cpp:151] Top shape: 50 32 32 32 (1638400)
I0122 19:57:12.130275 70379 net.cpp:159] Memory required for data: 190669800
I0122 19:57:12.130283 70379 layer_factory.hpp:77] Creating layer inception_3a/1x1/relu1
I0122 19:57:12.130290 70379 net.cpp:94] Creating Layer inception_3a/1x1/relu1
I0122 19:57:12.130293 70379 net.cpp:435] inception_3a/1x1/relu1 <- inception_3a/1x1
I0122 19:57:12.130297 70379 net.cpp:396] inception_3a/1x1/relu1 -> inception_3a/1x1 (in-place)
I0122 19:57:12.130303 70379 net.cpp:144] Setting up inception_3a/1x1/relu1
I0122 19:57:12.130308 70379 net.cpp:151] Top shape: 50 32 32 32 (1638400)
I0122 19:57:12.130311 70379 net.cpp:159] Memory required for data: 197223400
I0122 19:57:12.130314 70379 layer_factory.hpp:77] Creating layer inception_3a/3x3
I0122 19:57:12.130321 70379 net.cpp:94] Creating Layer inception_3a/3x3
I0122 19:57:12.130326 70379 net.cpp:435] inception_3a/3x3 <- inception_2a/output_inception_2a/output_0_split_1
I0122 19:57:12.130331 70379 net.cpp:409] inception_3a/3x3 -> inception_3a/3x3
I0122 19:57:12.130714 70379 net.cpp:144] Setting up inception_3a/3x3
I0122 19:57:12.130722 70379 net.cpp:151] Top shape: 50 48 32 32 (2457600)
I0122 19:57:12.130726 70379 net.cpp:159] Memory required for data: 207053800
I0122 19:57:12.130731 70379 layer_factory.hpp:77] Creating layer inception_3a/3x3/bn1
I0122 19:57:12.130738 70379 net.cpp:94] Creating Layer inception_3a/3x3/bn1
I0122 19:57:12.130740 70379 net.cpp:435] inception_3a/3x3/bn1 <- inception_3a/3x3
I0122 19:57:12.130744 70379 net.cpp:396] inception_3a/3x3/bn1 -> inception_3a/3x3 (in-place)
I0122 19:57:12.131384 70379 net.cpp:144] Setting up inception_3a/3x3/bn1
I0122 19:57:12.131392 70379 net.cpp:151] Top shape: 50 48 32 32 (2457600)
I0122 19:57:12.131394 70379 net.cpp:159] Memory required for data: 216884200
I0122 19:57:12.131404 70379 layer_factory.hpp:77] Creating layer inception_3a/3x3/relu1
I0122 19:57:12.131410 70379 net.cpp:94] Creating Layer inception_3a/3x3/relu1
I0122 19:57:12.131413 70379 net.cpp:435] inception_3a/3x3/relu1 <- inception_3a/3x3
I0122 19:57:12.131417 70379 net.cpp:396] inception_3a/3x3/relu1 -> inception_3a/3x3 (in-place)
I0122 19:57:12.131423 70379 net.cpp:144] Setting up inception_3a/3x3/relu1
I0122 19:57:12.131428 70379 net.cpp:151] Top shape: 50 48 32 32 (2457600)
I0122 19:57:12.131430 70379 net.cpp:159] Memory required for data: 226714600
I0122 19:57:12.131433 70379 layer_factory.hpp:77] Creating layer inception_3a/output
I0122 19:57:12.131436 70379 net.cpp:94] Creating Layer inception_3a/output
I0122 19:57:12.131440 70379 net.cpp:435] inception_3a/output <- inception_3a/1x1
I0122 19:57:12.131443 70379 net.cpp:435] inception_3a/output <- inception_3a/3x3
I0122 19:57:12.131448 70379 net.cpp:409] inception_3a/output -> inception_3a/output
I0122 19:57:12.131470 70379 net.cpp:144] Setting up inception_3a/output
I0122 19:57:12.131476 70379 net.cpp:151] Top shape: 50 80 32 32 (4096000)
I0122 19:57:12.131479 70379 net.cpp:159] Memory required for data: 243098600
I0122 19:57:12.131482 70379 layer_factory.hpp:77] Creating layer inception_3a/output_inception_3a/output_0_split
I0122 19:57:12.131486 70379 net.cpp:94] Creating Layer inception_3a/output_inception_3a/output_0_split
I0122 19:57:12.131489 70379 net.cpp:435] inception_3a/output_inception_3a/output_0_split <- inception_3a/output
I0122 19:57:12.131494 70379 net.cpp:409] inception_3a/output_inception_3a/output_0_split -> inception_3a/output_inception_3a/output_0_split_0
I0122 19:57:12.131500 70379 net.cpp:409] inception_3a/output_inception_3a/output_0_split -> inception_3a/output_inception_3a/output_0_split_1
I0122 19:57:12.131572 70379 net.cpp:144] Setting up inception_3a/output_inception_3a/output_0_split
I0122 19:57:12.131578 70379 net.cpp:151] Top shape: 50 80 32 32 (4096000)
I0122 19:57:12.131582 70379 net.cpp:151] Top shape: 50 80 32 32 (4096000)
I0122 19:57:12.131584 70379 net.cpp:159] Memory required for data: 275866600
I0122 19:57:12.131587 70379 layer_factory.hpp:77] Creating layer downsample_4/3x3_s2
I0122 19:57:12.131595 70379 net.cpp:94] Creating Layer downsample_4/3x3_s2
I0122 19:57:12.131598 70379 net.cpp:435] downsample_4/3x3_s2 <- inception_3a/output_inception_3a/output_0_split_0
I0122 19:57:12.131604 70379 net.cpp:409] downsample_4/3x3_s2 -> downsample_4/3x3_s2
I0122 19:57:12.132133 70379 net.cpp:144] Setting up downsample_4/3x3_s2
I0122 19:57:12.132140 70379 net.cpp:151] Top shape: 50 80 16 16 (1024000)
I0122 19:57:12.132143 70379 net.cpp:159] Memory required for data: 279962600
I0122 19:57:12.132148 70379 layer_factory.hpp:77] Creating layer downsample_4/3x3_s2/bn1
I0122 19:57:12.132154 70379 net.cpp:94] Creating Layer downsample_4/3x3_s2/bn1
I0122 19:57:12.132160 70379 net.cpp:435] downsample_4/3x3_s2/bn1 <- downsample_4/3x3_s2
I0122 19:57:12.132165 70379 net.cpp:396] downsample_4/3x3_s2/bn1 -> downsample_4/3x3_s2 (in-place)
I0122 19:57:12.132902 70379 net.cpp:144] Setting up downsample_4/3x3_s2/bn1
I0122 19:57:12.132910 70379 net.cpp:151] Top shape: 50 80 16 16 (1024000)
I0122 19:57:12.132912 70379 net.cpp:159] Memory required for data: 284058600
I0122 19:57:12.132920 70379 layer_factory.hpp:77] Creating layer downsample_4/3x3_s2/relu1
I0122 19:57:12.132925 70379 net.cpp:94] Creating Layer downsample_4/3x3_s2/relu1
I0122 19:57:12.132928 70379 net.cpp:435] downsample_4/3x3_s2/relu1 <- downsample_4/3x3_s2
I0122 19:57:12.132933 70379 net.cpp:396] downsample_4/3x3_s2/relu1 -> downsample_4/3x3_s2 (in-place)
I0122 19:57:12.132939 70379 net.cpp:144] Setting up downsample_4/3x3_s2/relu1
I0122 19:57:12.132943 70379 net.cpp:151] Top shape: 50 80 16 16 (1024000)
I0122 19:57:12.132946 70379 net.cpp:159] Memory required for data: 288154600
I0122 19:57:12.132949 70379 layer_factory.hpp:77] Creating layer downsample_4/pool_s2
I0122 19:57:12.132956 70379 net.cpp:94] Creating Layer downsample_4/pool_s2
I0122 19:57:12.132958 70379 net.cpp:435] downsample_4/pool_s2 <- inception_3a/output_inception_3a/output_0_split_1
I0122 19:57:12.132963 70379 net.cpp:409] downsample_4/pool_s2 -> downsample_4/pool_s2
I0122 19:57:12.132997 70379 net.cpp:144] Setting up downsample_4/pool_s2
I0122 19:57:12.133002 70379 net.cpp:151] Top shape: 50 80 16 16 (1024000)
I0122 19:57:12.133005 70379 net.cpp:159] Memory required for data: 292250600
I0122 19:57:12.133008 70379 layer_factory.hpp:77] Creating layer downsample_4/output
I0122 19:57:12.133013 70379 net.cpp:94] Creating Layer downsample_4/output
I0122 19:57:12.133015 70379 net.cpp:435] downsample_4/output <- downsample_4/3x3_s2
I0122 19:57:12.133019 70379 net.cpp:435] downsample_4/output <- downsample_4/pool_s2
I0122 19:57:12.133023 70379 net.cpp:409] downsample_4/output -> downsample_4/output
I0122 19:57:12.133081 70379 net.cpp:144] Setting up downsample_4/output
I0122 19:57:12.133086 70379 net.cpp:151] Top shape: 50 160 16 16 (2048000)
I0122 19:57:12.133090 70379 net.cpp:159] Memory required for data: 300442600
I0122 19:57:12.133091 70379 layer_factory.hpp:77] Creating layer downsample_4/output_downsample_4/output_0_split
I0122 19:57:12.133096 70379 net.cpp:94] Creating Layer downsample_4/output_downsample_4/output_0_split
I0122 19:57:12.133100 70379 net.cpp:435] downsample_4/output_downsample_4/output_0_split <- downsample_4/output
I0122 19:57:12.133103 70379 net.cpp:409] downsample_4/output_downsample_4/output_0_split -> downsample_4/output_downsample_4/output_0_split_0
I0122 19:57:12.133110 70379 net.cpp:409] downsample_4/output_downsample_4/output_0_split -> downsample_4/output_downsample_4/output_0_split_1
I0122 19:57:12.133137 70379 net.cpp:144] Setting up downsample_4/output_downsample_4/output_0_split
I0122 19:57:12.133150 70379 net.cpp:151] Top shape: 50 160 16 16 (2048000)
I0122 19:57:12.133154 70379 net.cpp:151] Top shape: 50 160 16 16 (2048000)
I0122 19:57:12.133157 70379 net.cpp:159] Memory required for data: 316826600
I0122 19:57:12.133160 70379 layer_factory.hpp:77] Creating layer inception_5a/1x1
I0122 19:57:12.133168 70379 net.cpp:94] Creating Layer inception_5a/1x1
I0122 19:57:12.133172 70379 net.cpp:435] inception_5a/1x1 <- downsample_4/output_downsample_4/output_0_split_0
I0122 19:57:12.133175 70379 net.cpp:409] inception_5a/1x1 -> inception_5a/1x1
I0122 19:57:12.133493 70379 net.cpp:144] Setting up inception_5a/1x1
I0122 19:57:12.133499 70379 net.cpp:151] Top shape: 50 112 16 16 (1433600)
I0122 19:57:12.133502 70379 net.cpp:159] Memory required for data: 322561000
I0122 19:57:12.133507 70379 layer_factory.hpp:77] Creating layer inception_5a/1x1/bn1
I0122 19:57:12.133513 70379 net.cpp:94] Creating Layer inception_5a/1x1/bn1
I0122 19:57:12.133517 70379 net.cpp:435] inception_5a/1x1/bn1 <- inception_5a/1x1
I0122 19:57:12.133522 70379 net.cpp:396] inception_5a/1x1/bn1 -> inception_5a/1x1 (in-place)
I0122 19:57:12.134210 70379 net.cpp:144] Setting up inception_5a/1x1/bn1
I0122 19:57:12.134218 70379 net.cpp:151] Top shape: 50 112 16 16 (1433600)
I0122 19:57:12.134222 70379 net.cpp:159] Memory required for data: 328295400
I0122 19:57:12.134229 70379 layer_factory.hpp:77] Creating layer inception_5a/1x1/relu1
I0122 19:57:12.134234 70379 net.cpp:94] Creating Layer inception_5a/1x1/relu1
I0122 19:57:12.134238 70379 net.cpp:435] inception_5a/1x1/relu1 <- inception_5a/1x1
I0122 19:57:12.134243 70379 net.cpp:396] inception_5a/1x1/relu1 -> inception_5a/1x1 (in-place)
I0122 19:57:12.134248 70379 net.cpp:144] Setting up inception_5a/1x1/relu1
I0122 19:57:12.134253 70379 net.cpp:151] Top shape: 50 112 16 16 (1433600)
I0122 19:57:12.134256 70379 net.cpp:159] Memory required for data: 334029800
I0122 19:57:12.134259 70379 layer_factory.hpp:77] Creating layer inception_5a/3x3
I0122 19:57:12.134266 70379 net.cpp:94] Creating Layer inception_5a/3x3
I0122 19:57:12.134270 70379 net.cpp:435] inception_5a/3x3 <- downsample_4/output_downsample_4/output_0_split_1
I0122 19:57:12.134276 70379 net.cpp:409] inception_5a/3x3 -> inception_5a/3x3
I0122 19:57:12.134896 70379 net.cpp:144] Setting up inception_5a/3x3
I0122 19:57:12.134904 70379 net.cpp:151] Top shape: 50 48 16 16 (614400)
I0122 19:57:12.134907 70379 net.cpp:159] Memory required for data: 336487400
I0122 19:57:12.134912 70379 layer_factory.hpp:77] Creating layer inception_5a/3x3/bn1
I0122 19:57:12.134920 70379 net.cpp:94] Creating Layer inception_5a/3x3/bn1
I0122 19:57:12.134924 70379 net.cpp:435] inception_5a/3x3/bn1 <- inception_5a/3x3
I0122 19:57:12.134930 70379 net.cpp:396] inception_5a/3x3/bn1 -> inception_5a/3x3 (in-place)
I0122 19:57:12.135617 70379 net.cpp:144] Setting up inception_5a/3x3/bn1
I0122 19:57:12.135622 70379 net.cpp:151] Top shape: 50 48 16 16 (614400)
I0122 19:57:12.135625 70379 net.cpp:159] Memory required for data: 338945000
I0122 19:57:12.135633 70379 layer_factory.hpp:77] Creating layer inception_5a/3x3/relu1
I0122 19:57:12.135638 70379 net.cpp:94] Creating Layer inception_5a/3x3/relu1
I0122 19:57:12.135643 70379 net.cpp:435] inception_5a/3x3/relu1 <- inception_5a/3x3
I0122 19:57:12.135646 70379 net.cpp:396] inception_5a/3x3/relu1 -> inception_5a/3x3 (in-place)
I0122 19:57:12.135653 70379 net.cpp:144] Setting up inception_5a/3x3/relu1
I0122 19:57:12.135656 70379 net.cpp:151] Top shape: 50 48 16 16 (614400)
I0122 19:57:12.135659 70379 net.cpp:159] Memory required for data: 341402600
I0122 19:57:12.135663 70379 layer_factory.hpp:77] Creating layer inception_5a/output
I0122 19:57:12.135666 70379 net.cpp:94] Creating Layer inception_5a/output
I0122 19:57:12.135669 70379 net.cpp:435] inception_5a/output <- inception_5a/1x1
I0122 19:57:12.135673 70379 net.cpp:435] inception_5a/output <- inception_5a/3x3
I0122 19:57:12.135677 70379 net.cpp:409] inception_5a/output -> inception_5a/output
I0122 19:57:12.135697 70379 net.cpp:144] Setting up inception_5a/output
I0122 19:57:12.135712 70379 net.cpp:151] Top shape: 50 160 16 16 (2048000)
I0122 19:57:12.135716 70379 net.cpp:159] Memory required for data: 349594600
I0122 19:57:12.135718 70379 layer_factory.hpp:77] Creating layer inception_5a/output_inception_5a/output_0_split
I0122 19:57:12.135723 70379 net.cpp:94] Creating Layer inception_5a/output_inception_5a/output_0_split
I0122 19:57:12.135726 70379 net.cpp:435] inception_5a/output_inception_5a/output_0_split <- inception_5a/output
I0122 19:57:12.135731 70379 net.cpp:409] inception_5a/output_inception_5a/output_0_split -> inception_5a/output_inception_5a/output_0_split_0
I0122 19:57:12.135737 70379 net.cpp:409] inception_5a/output_inception_5a/output_0_split -> inception_5a/output_inception_5a/output_0_split_1
I0122 19:57:12.135799 70379 net.cpp:144] Setting up inception_5a/output_inception_5a/output_0_split
I0122 19:57:12.135805 70379 net.cpp:151] Top shape: 50 160 16 16 (2048000)
I0122 19:57:12.135809 70379 net.cpp:151] Top shape: 50 160 16 16 (2048000)
I0122 19:57:12.135812 70379 net.cpp:159] Memory required for data: 365978600
I0122 19:57:12.135814 70379 layer_factory.hpp:77] Creating layer inception_6a/1x1
I0122 19:57:12.135823 70379 net.cpp:94] Creating Layer inception_6a/1x1
I0122 19:57:12.135828 70379 net.cpp:435] inception_6a/1x1 <- inception_5a/output_inception_5a/output_0_split_0
I0122 19:57:12.135833 70379 net.cpp:409] inception_6a/1x1 -> inception_6a/1x1
I0122 19:57:12.136798 70379 net.cpp:144] Setting up inception_6a/1x1
I0122 19:57:12.136809 70379 net.cpp:151] Top shape: 50 96 16 16 (1228800)
I0122 19:57:12.136811 70379 net.cpp:159] Memory required for data: 370893800
I0122 19:57:12.136817 70379 layer_factory.hpp:77] Creating layer inception_6a/1x1/bn1
I0122 19:57:12.136826 70379 net.cpp:94] Creating Layer inception_6a/1x1/bn1
I0122 19:57:12.136831 70379 net.cpp:435] inception_6a/1x1/bn1 <- inception_6a/1x1
I0122 19:57:12.136837 70379 net.cpp:396] inception_6a/1x1/bn1 -> inception_6a/1x1 (in-place)
I0122 19:57:12.137455 70379 net.cpp:144] Setting up inception_6a/1x1/bn1
I0122 19:57:12.137462 70379 net.cpp:151] Top shape: 50 96 16 16 (1228800)
I0122 19:57:12.137465 70379 net.cpp:159] Memory required for data: 375809000
I0122 19:57:12.137473 70379 layer_factory.hpp:77] Creating layer inception_6a/1x1/relu1
I0122 19:57:12.137480 70379 net.cpp:94] Creating Layer inception_6a/1x1/relu1
I0122 19:57:12.137482 70379 net.cpp:435] inception_6a/1x1/relu1 <- inception_6a/1x1
I0122 19:57:12.137487 70379 net.cpp:396] inception_6a/1x1/relu1 -> inception_6a/1x1 (in-place)
I0122 19:57:12.137495 70379 net.cpp:144] Setting up inception_6a/1x1/relu1
I0122 19:57:12.137497 70379 net.cpp:151] Top shape: 50 96 16 16 (1228800)
I0122 19:57:12.137501 70379 net.cpp:159] Memory required for data: 380724200
I0122 19:57:12.137503 70379 layer_factory.hpp:77] Creating layer inception_6a/3x3
I0122 19:57:12.137511 70379 net.cpp:94] Creating Layer inception_6a/3x3
I0122 19:57:12.137516 70379 net.cpp:435] inception_6a/3x3 <- inception_5a/output_inception_5a/output_0_split_1
I0122 19:57:12.137521 70379 net.cpp:409] inception_6a/3x3 -> inception_6a/3x3
I0122 19:57:12.138865 70379 net.cpp:144] Setting up inception_6a/3x3
I0122 19:57:12.138880 70379 net.cpp:151] Top shape: 50 64 16 16 (819200)
I0122 19:57:12.138881 70379 net.cpp:159] Memory required for data: 384001000
I0122 19:57:12.138892 70379 layer_factory.hpp:77] Creating layer inception_6a/3x3/bn1
I0122 19:57:12.138902 70379 net.cpp:94] Creating Layer inception_6a/3x3/bn1
I0122 19:57:12.138906 70379 net.cpp:435] inception_6a/3x3/bn1 <- inception_6a/3x3
I0122 19:57:12.138911 70379 net.cpp:396] inception_6a/3x3/bn1 -> inception_6a/3x3 (in-place)
I0122 19:57:12.139537 70379 net.cpp:144] Setting up inception_6a/3x3/bn1
I0122 19:57:12.139545 70379 net.cpp:151] Top shape: 50 64 16 16 (819200)
I0122 19:57:12.139547 70379 net.cpp:159] Memory required for data: 387277800
I0122 19:57:12.139555 70379 layer_factory.hpp:77] Creating layer inception_6a/3x3/relu1
I0122 19:57:12.139560 70379 net.cpp:94] Creating Layer inception_6a/3x3/relu1
I0122 19:57:12.139576 70379 net.cpp:435] inception_6a/3x3/relu1 <- inception_6a/3x3
I0122 19:57:12.139581 70379 net.cpp:396] inception_6a/3x3/relu1 -> inception_6a/3x3 (in-place)
I0122 19:57:12.139587 70379 net.cpp:144] Setting up inception_6a/3x3/relu1
I0122 19:57:12.139591 70379 net.cpp:151] Top shape: 50 64 16 16 (819200)
I0122 19:57:12.139595 70379 net.cpp:159] Memory required for data: 390554600
I0122 19:57:12.139597 70379 layer_factory.hpp:77] Creating layer inception_6a/output
I0122 19:57:12.139601 70379 net.cpp:94] Creating Layer inception_6a/output
I0122 19:57:12.139605 70379 net.cpp:435] inception_6a/output <- inception_6a/1x1
I0122 19:57:12.139608 70379 net.cpp:435] inception_6a/output <- inception_6a/3x3
I0122 19:57:12.139613 70379 net.cpp:409] inception_6a/output -> inception_6a/output
I0122 19:57:12.139631 70379 net.cpp:144] Setting up inception_6a/output
I0122 19:57:12.139636 70379 net.cpp:151] Top shape: 50 160 16 16 (2048000)
I0122 19:57:12.139639 70379 net.cpp:159] Memory required for data: 398746600
I0122 19:57:12.139642 70379 layer_factory.hpp:77] Creating layer inception_6a/output_inception_6a/output_0_split
I0122 19:57:12.139647 70379 net.cpp:94] Creating Layer inception_6a/output_inception_6a/output_0_split
I0122 19:57:12.139649 70379 net.cpp:435] inception_6a/output_inception_6a/output_0_split <- inception_6a/output
I0122 19:57:12.139655 70379 net.cpp:409] inception_6a/output_inception_6a/output_0_split -> inception_6a/output_inception_6a/output_0_split_0
I0122 19:57:12.139662 70379 net.cpp:409] inception_6a/output_inception_6a/output_0_split -> inception_6a/output_inception_6a/output_0_split_1
I0122 19:57:12.139690 70379 net.cpp:144] Setting up inception_6a/output_inception_6a/output_0_split
I0122 19:57:12.139696 70379 net.cpp:151] Top shape: 50 160 16 16 (2048000)
I0122 19:57:12.139700 70379 net.cpp:151] Top shape: 50 160 16 16 (2048000)
I0122 19:57:12.139703 70379 net.cpp:159] Memory required for data: 415130600
I0122 19:57:12.139706 70379 layer_factory.hpp:77] Creating layer inception_7a/1x1
I0122 19:57:12.139714 70379 net.cpp:94] Creating Layer inception_7a/1x1
I0122 19:57:12.139719 70379 net.cpp:435] inception_7a/1x1 <- inception_6a/output_inception_6a/output_0_split_0
I0122 19:57:12.139724 70379 net.cpp:409] inception_7a/1x1 -> inception_7a/1x1
I0122 19:57:12.140008 70379 net.cpp:144] Setting up inception_7a/1x1
I0122 19:57:12.140014 70379 net.cpp:151] Top shape: 50 80 16 16 (1024000)
I0122 19:57:12.140017 70379 net.cpp:159] Memory required for data: 419226600
I0122 19:57:12.140022 70379 layer_factory.hpp:77] Creating layer inception_7a/1x1/bn1
I0122 19:57:12.140028 70379 net.cpp:94] Creating Layer inception_7a/1x1/bn1
I0122 19:57:12.140033 70379 net.cpp:435] inception_7a/1x1/bn1 <- inception_7a/1x1
I0122 19:57:12.140039 70379 net.cpp:396] inception_7a/1x1/bn1 -> inception_7a/1x1 (in-place)
I0122 19:57:12.140666 70379 net.cpp:144] Setting up inception_7a/1x1/bn1
I0122 19:57:12.140672 70379 net.cpp:151] Top shape: 50 80 16 16 (1024000)
I0122 19:57:12.140676 70379 net.cpp:159] Memory required for data: 423322600
I0122 19:57:12.140683 70379 layer_factory.hpp:77] Creating layer inception_7a/1x1/relu1
I0122 19:57:12.140689 70379 net.cpp:94] Creating Layer inception_7a/1x1/relu1
I0122 19:57:12.140692 70379 net.cpp:435] inception_7a/1x1/relu1 <- inception_7a/1x1
I0122 19:57:12.140697 70379 net.cpp:396] inception_7a/1x1/relu1 -> inception_7a/1x1 (in-place)
I0122 19:57:12.140703 70379 net.cpp:144] Setting up inception_7a/1x1/relu1
I0122 19:57:12.140707 70379 net.cpp:151] Top shape: 50 80 16 16 (1024000)
I0122 19:57:12.140709 70379 net.cpp:159] Memory required for data: 427418600
I0122 19:57:12.140712 70379 layer_factory.hpp:77] Creating layer inception_7a/3x3
I0122 19:57:12.140719 70379 net.cpp:94] Creating Layer inception_7a/3x3
I0122 19:57:12.140724 70379 net.cpp:435] inception_7a/3x3 <- inception_6a/output_inception_6a/output_0_split_1
I0122 19:57:12.140730 70379 net.cpp:409] inception_7a/3x3 -> inception_7a/3x3
I0122 19:57:12.141582 70379 net.cpp:144] Setting up inception_7a/3x3
I0122 19:57:12.141602 70379 net.cpp:151] Top shape: 50 80 16 16 (1024000)
I0122 19:57:12.141604 70379 net.cpp:159] Memory required for data: 431514600
I0122 19:57:12.141609 70379 layer_factory.hpp:77] Creating layer inception_7a/3x3/bn1
I0122 19:57:12.141616 70379 net.cpp:94] Creating Layer inception_7a/3x3/bn1
I0122 19:57:12.141623 70379 net.cpp:435] inception_7a/3x3/bn1 <- inception_7a/3x3
I0122 19:57:12.141628 70379 net.cpp:396] inception_7a/3x3/bn1 -> inception_7a/3x3 (in-place)
I0122 19:57:12.142269 70379 net.cpp:144] Setting up inception_7a/3x3/bn1
I0122 19:57:12.142277 70379 net.cpp:151] Top shape: 50 80 16 16 (1024000)
I0122 19:57:12.142280 70379 net.cpp:159] Memory required for data: 435610600
I0122 19:57:12.142288 70379 layer_factory.hpp:77] Creating layer inception_7a/3x3/relu1
I0122 19:57:12.142293 70379 net.cpp:94] Creating Layer inception_7a/3x3/relu1
I0122 19:57:12.142297 70379 net.cpp:435] inception_7a/3x3/relu1 <- inception_7a/3x3
I0122 19:57:12.142302 70379 net.cpp:396] inception_7a/3x3/relu1 -> inception_7a/3x3 (in-place)
I0122 19:57:12.142307 70379 net.cpp:144] Setting up inception_7a/3x3/relu1
I0122 19:57:12.142311 70379 net.cpp:151] Top shape: 50 80 16 16 (1024000)
I0122 19:57:12.142313 70379 net.cpp:159] Memory required for data: 439706600
I0122 19:57:12.142316 70379 layer_factory.hpp:77] Creating layer inception_7a/output
I0122 19:57:12.142321 70379 net.cpp:94] Creating Layer inception_7a/output
I0122 19:57:12.142324 70379 net.cpp:435] inception_7a/output <- inception_7a/1x1
I0122 19:57:12.142328 70379 net.cpp:435] inception_7a/output <- inception_7a/3x3
I0122 19:57:12.142333 70379 net.cpp:409] inception_7a/output -> inception_7a/output
I0122 19:57:12.142350 70379 net.cpp:144] Setting up inception_7a/output
I0122 19:57:12.142356 70379 net.cpp:151] Top shape: 50 160 16 16 (2048000)
I0122 19:57:12.142359 70379 net.cpp:159] Memory required for data: 447898600
I0122 19:57:12.142362 70379 layer_factory.hpp:77] Creating layer inception_7a/output_inception_7a/output_0_split
I0122 19:57:12.142366 70379 net.cpp:94] Creating Layer inception_7a/output_inception_7a/output_0_split
I0122 19:57:12.142369 70379 net.cpp:435] inception_7a/output_inception_7a/output_0_split <- inception_7a/output
I0122 19:57:12.142374 70379 net.cpp:409] inception_7a/output_inception_7a/output_0_split -> inception_7a/output_inception_7a/output_0_split_0
I0122 19:57:12.142380 70379 net.cpp:409] inception_7a/output_inception_7a/output_0_split -> inception_7a/output_inception_7a/output_0_split_1
I0122 19:57:12.142406 70379 net.cpp:144] Setting up inception_7a/output_inception_7a/output_0_split
I0122 19:57:12.142411 70379 net.cpp:151] Top shape: 50 160 16 16 (2048000)
I0122 19:57:12.142416 70379 net.cpp:151] Top shape: 50 160 16 16 (2048000)
I0122 19:57:12.142418 70379 net.cpp:159] Memory required for data: 464282600
I0122 19:57:12.142421 70379 layer_factory.hpp:77] Creating layer inception_8a/1x1
I0122 19:57:12.142428 70379 net.cpp:94] Creating Layer inception_8a/1x1
I0122 19:57:12.142431 70379 net.cpp:435] inception_8a/1x1 <- inception_7a/output_inception_7a/output_0_split_0
I0122 19:57:12.142436 70379 net.cpp:409] inception_8a/1x1 -> inception_8a/1x1
I0122 19:57:12.142693 70379 net.cpp:144] Setting up inception_8a/1x1
I0122 19:57:12.142699 70379 net.cpp:151] Top shape: 50 48 16 16 (614400)
I0122 19:57:12.142701 70379 net.cpp:159] Memory required for data: 466740200
I0122 19:57:12.142706 70379 layer_factory.hpp:77] Creating layer inception_8a/1x1/bn1
I0122 19:57:12.142712 70379 net.cpp:94] Creating Layer inception_8a/1x1/bn1
I0122 19:57:12.142715 70379 net.cpp:435] inception_8a/1x1/bn1 <- inception_8a/1x1
I0122 19:57:12.142720 70379 net.cpp:396] inception_8a/1x1/bn1 -> inception_8a/1x1 (in-place)
I0122 19:57:12.143339 70379 net.cpp:144] Setting up inception_8a/1x1/bn1
I0122 19:57:12.143347 70379 net.cpp:151] Top shape: 50 48 16 16 (614400)
I0122 19:57:12.143349 70379 net.cpp:159] Memory required for data: 469197800
I0122 19:57:12.143357 70379 layer_factory.hpp:77] Creating layer inception_8a/1x1/relu1
I0122 19:57:12.143362 70379 net.cpp:94] Creating Layer inception_8a/1x1/relu1
I0122 19:57:12.143375 70379 net.cpp:435] inception_8a/1x1/relu1 <- inception_8a/1x1
I0122 19:57:12.143380 70379 net.cpp:396] inception_8a/1x1/relu1 -> inception_8a/1x1 (in-place)
I0122 19:57:12.143386 70379 net.cpp:144] Setting up inception_8a/1x1/relu1
I0122 19:57:12.143390 70379 net.cpp:151] Top shape: 50 48 16 16 (614400)
I0122 19:57:12.143393 70379 net.cpp:159] Memory required for data: 471655400
I0122 19:57:12.143395 70379 layer_factory.hpp:77] Creating layer inception_8a/3x3
I0122 19:57:12.143402 70379 net.cpp:94] Creating Layer inception_8a/3x3
I0122 19:57:12.143409 70379 net.cpp:435] inception_8a/3x3 <- inception_7a/output_inception_7a/output_0_split_1
I0122 19:57:12.143414 70379 net.cpp:409] inception_8a/3x3 -> inception_8a/3x3
I0122 19:57:12.145012 70379 net.cpp:144] Setting up inception_8a/3x3
I0122 19:57:12.145025 70379 net.cpp:151] Top shape: 50 96 16 16 (1228800)
I0122 19:57:12.145028 70379 net.cpp:159] Memory required for data: 476570600
I0122 19:57:12.145035 70379 layer_factory.hpp:77] Creating layer inception_8a/3x3/bn1
I0122 19:57:12.145041 70379 net.cpp:94] Creating Layer inception_8a/3x3/bn1
I0122 19:57:12.145047 70379 net.cpp:435] inception_8a/3x3/bn1 <- inception_8a/3x3
I0122 19:57:12.145069 70379 net.cpp:396] inception_8a/3x3/bn1 -> inception_8a/3x3 (in-place)
I0122 19:57:12.145704 70379 net.cpp:144] Setting up inception_8a/3x3/bn1
I0122 19:57:12.145711 70379 net.cpp:151] Top shape: 50 96 16 16 (1228800)
I0122 19:57:12.145714 70379 net.cpp:159] Memory required for data: 481485800
I0122 19:57:12.145723 70379 layer_factory.hpp:77] Creating layer inception_8a/3x3/relu1
I0122 19:57:12.145728 70379 net.cpp:94] Creating Layer inception_8a/3x3/relu1
I0122 19:57:12.145731 70379 net.cpp:435] inception_8a/3x3/relu1 <- inception_8a/3x3
I0122 19:57:12.145736 70379 net.cpp:396] inception_8a/3x3/relu1 -> inception_8a/3x3 (in-place)
I0122 19:57:12.145742 70379 net.cpp:144] Setting up inception_8a/3x3/relu1
I0122 19:57:12.145746 70379 net.cpp:151] Top shape: 50 96 16 16 (1228800)
I0122 19:57:12.145748 70379 net.cpp:159] Memory required for data: 486401000
I0122 19:57:12.145751 70379 layer_factory.hpp:77] Creating layer inception_8a/output
I0122 19:57:12.145756 70379 net.cpp:94] Creating Layer inception_8a/output
I0122 19:57:12.145761 70379 net.cpp:435] inception_8a/output <- inception_8a/1x1
I0122 19:57:12.145763 70379 net.cpp:435] inception_8a/output <- inception_8a/3x3
I0122 19:57:12.145768 70379 net.cpp:409] inception_8a/output -> inception_8a/output
I0122 19:57:12.145787 70379 net.cpp:144] Setting up inception_8a/output
I0122 19:57:12.145792 70379 net.cpp:151] Top shape: 50 144 16 16 (1843200)
I0122 19:57:12.145794 70379 net.cpp:159] Memory required for data: 493773800
I0122 19:57:12.145797 70379 layer_factory.hpp:77] Creating layer inception_8a/output_inception_8a/output_0_split
I0122 19:57:12.145802 70379 net.cpp:94] Creating Layer inception_8a/output_inception_8a/output_0_split
I0122 19:57:12.145805 70379 net.cpp:435] inception_8a/output_inception_8a/output_0_split <- inception_8a/output
I0122 19:57:12.145810 70379 net.cpp:409] inception_8a/output_inception_8a/output_0_split -> inception_8a/output_inception_8a/output_0_split_0
I0122 19:57:12.145817 70379 net.cpp:409] inception_8a/output_inception_8a/output_0_split -> inception_8a/output_inception_8a/output_0_split_1
I0122 19:57:12.145843 70379 net.cpp:144] Setting up inception_8a/output_inception_8a/output_0_split
I0122 19:57:12.145848 70379 net.cpp:151] Top shape: 50 144 16 16 (1843200)
I0122 19:57:12.145851 70379 net.cpp:151] Top shape: 50 144 16 16 (1843200)
I0122 19:57:12.145854 70379 net.cpp:159] Memory required for data: 508519400
I0122 19:57:12.145857 70379 layer_factory.hpp:77] Creating layer downsample_9/3x3_s2
I0122 19:57:12.145865 70379 net.cpp:94] Creating Layer downsample_9/3x3_s2
I0122 19:57:12.145869 70379 net.cpp:435] downsample_9/3x3_s2 <- inception_8a/output_inception_8a/output_0_split_0
I0122 19:57:12.145875 70379 net.cpp:409] downsample_9/3x3_s2 -> downsample_9/3x3_s2
I0122 19:57:12.147419 70379 net.cpp:144] Setting up downsample_9/3x3_s2
I0122 19:57:12.147442 70379 net.cpp:151] Top shape: 50 96 8 8 (307200)
I0122 19:57:12.147445 70379 net.cpp:159] Memory required for data: 509748200
I0122 19:57:12.147451 70379 layer_factory.hpp:77] Creating layer downsample_9/3x3_s2/bn1
I0122 19:57:12.147459 70379 net.cpp:94] Creating Layer downsample_9/3x3_s2/bn1
I0122 19:57:12.147462 70379 net.cpp:435] downsample_9/3x3_s2/bn1 <- downsample_9/3x3_s2
I0122 19:57:12.147469 70379 net.cpp:396] downsample_9/3x3_s2/bn1 -> downsample_9/3x3_s2 (in-place)
I0122 19:57:12.148133 70379 net.cpp:144] Setting up downsample_9/3x3_s2/bn1
I0122 19:57:12.148140 70379 net.cpp:151] Top shape: 50 96 8 8 (307200)
I0122 19:57:12.148144 70379 net.cpp:159] Memory required for data: 510977000
I0122 19:57:12.148151 70379 layer_factory.hpp:77] Creating layer downsample_9/3x3_s2/relu1
I0122 19:57:12.148156 70379 net.cpp:94] Creating Layer downsample_9/3x3_s2/relu1
I0122 19:57:12.148162 70379 net.cpp:435] downsample_9/3x3_s2/relu1 <- downsample_9/3x3_s2
I0122 19:57:12.148167 70379 net.cpp:396] downsample_9/3x3_s2/relu1 -> downsample_9/3x3_s2 (in-place)
I0122 19:57:12.148174 70379 net.cpp:144] Setting up downsample_9/3x3_s2/relu1
I0122 19:57:12.148176 70379 net.cpp:151] Top shape: 50 96 8 8 (307200)
I0122 19:57:12.148180 70379 net.cpp:159] Memory required for data: 512205800
I0122 19:57:12.148182 70379 layer_factory.hpp:77] Creating layer downsample_9/pool_s2
I0122 19:57:12.148187 70379 net.cpp:94] Creating Layer downsample_9/pool_s2
I0122 19:57:12.148191 70379 net.cpp:435] downsample_9/pool_s2 <- inception_8a/output_inception_8a/output_0_split_1
I0122 19:57:12.148196 70379 net.cpp:409] downsample_9/pool_s2 -> downsample_9/pool_s2
I0122 19:57:12.148226 70379 net.cpp:144] Setting up downsample_9/pool_s2
I0122 19:57:12.148231 70379 net.cpp:151] Top shape: 50 144 8 8 (460800)
I0122 19:57:12.148234 70379 net.cpp:159] Memory required for data: 514049000
I0122 19:57:12.148237 70379 layer_factory.hpp:77] Creating layer downsample_9/output
I0122 19:57:12.148244 70379 net.cpp:94] Creating Layer downsample_9/output
I0122 19:57:12.148248 70379 net.cpp:435] downsample_9/output <- downsample_9/3x3_s2
I0122 19:57:12.148252 70379 net.cpp:435] downsample_9/output <- downsample_9/pool_s2
I0122 19:57:12.148258 70379 net.cpp:409] downsample_9/output -> downsample_9/output
I0122 19:57:12.148277 70379 net.cpp:144] Setting up downsample_9/output
I0122 19:57:12.148283 70379 net.cpp:151] Top shape: 50 240 8 8 (768000)
I0122 19:57:12.148285 70379 net.cpp:159] Memory required for data: 517121000
I0122 19:57:12.148289 70379 layer_factory.hpp:77] Creating layer downsample_9/output_downsample_9/output_0_split
I0122 19:57:12.148294 70379 net.cpp:94] Creating Layer downsample_9/output_downsample_9/output_0_split
I0122 19:57:12.148298 70379 net.cpp:435] downsample_9/output_downsample_9/output_0_split <- downsample_9/output
I0122 19:57:12.148301 70379 net.cpp:409] downsample_9/output_downsample_9/output_0_split -> downsample_9/output_downsample_9/output_0_split_0
I0122 19:57:12.148308 70379 net.cpp:409] downsample_9/output_downsample_9/output_0_split -> downsample_9/output_downsample_9/output_0_split_1
I0122 19:57:12.148334 70379 net.cpp:144] Setting up downsample_9/output_downsample_9/output_0_split
I0122 19:57:12.148339 70379 net.cpp:151] Top shape: 50 240 8 8 (768000)
I0122 19:57:12.148342 70379 net.cpp:151] Top shape: 50 240 8 8 (768000)
I0122 19:57:12.148346 70379 net.cpp:159] Memory required for data: 523265000
I0122 19:57:12.148349 70379 layer_factory.hpp:77] Creating layer inception_10a/1x1
I0122 19:57:12.148356 70379 net.cpp:94] Creating Layer inception_10a/1x1
I0122 19:57:12.148358 70379 net.cpp:435] inception_10a/1x1 <- downsample_9/output_downsample_9/output_0_split_0
I0122 19:57:12.148365 70379 net.cpp:409] inception_10a/1x1 -> inception_10a/1x1
I0122 19:57:12.148818 70379 net.cpp:144] Setting up inception_10a/1x1
I0122 19:57:12.148825 70379 net.cpp:151] Top shape: 50 176 8 8 (563200)
I0122 19:57:12.148828 70379 net.cpp:159] Memory required for data: 525517800
I0122 19:57:12.148842 70379 layer_factory.hpp:77] Creating layer inception_10a/1x1/bn1
I0122 19:57:12.148849 70379 net.cpp:94] Creating Layer inception_10a/1x1/bn1
I0122 19:57:12.148852 70379 net.cpp:435] inception_10a/1x1/bn1 <- inception_10a/1x1
I0122 19:57:12.148857 70379 net.cpp:396] inception_10a/1x1/bn1 -> inception_10a/1x1 (in-place)
I0122 19:57:12.149498 70379 net.cpp:144] Setting up inception_10a/1x1/bn1
I0122 19:57:12.149505 70379 net.cpp:151] Top shape: 50 176 8 8 (563200)
I0122 19:57:12.149508 70379 net.cpp:159] Memory required for data: 527770600
I0122 19:57:12.149516 70379 layer_factory.hpp:77] Creating layer inception_10a/1x1/relu1
I0122 19:57:12.149521 70379 net.cpp:94] Creating Layer inception_10a/1x1/relu1
I0122 19:57:12.149524 70379 net.cpp:435] inception_10a/1x1/relu1 <- inception_10a/1x1
I0122 19:57:12.149528 70379 net.cpp:396] inception_10a/1x1/relu1 -> inception_10a/1x1 (in-place)
I0122 19:57:12.149534 70379 net.cpp:144] Setting up inception_10a/1x1/relu1
I0122 19:57:12.149538 70379 net.cpp:151] Top shape: 50 176 8 8 (563200)
I0122 19:57:12.149540 70379 net.cpp:159] Memory required for data: 530023400
I0122 19:57:12.149544 70379 layer_factory.hpp:77] Creating layer inception_10a/3x3
I0122 19:57:12.149550 70379 net.cpp:94] Creating Layer inception_10a/3x3
I0122 19:57:12.149556 70379 net.cpp:435] inception_10a/3x3 <- downsample_9/output_downsample_9/output_0_split_1
I0122 19:57:12.149561 70379 net.cpp:409] inception_10a/3x3 -> inception_10a/3x3
I0122 19:57:12.152099 70379 net.cpp:144] Setting up inception_10a/3x3
I0122 19:57:12.152112 70379 net.cpp:151] Top shape: 50 160 8 8 (512000)
I0122 19:57:12.152114 70379 net.cpp:159] Memory required for data: 532071400
I0122 19:57:12.152120 70379 layer_factory.hpp:77] Creating layer inception_10a/3x3/bn1
I0122 19:57:12.152127 70379 net.cpp:94] Creating Layer inception_10a/3x3/bn1
I0122 19:57:12.152130 70379 net.cpp:435] inception_10a/3x3/bn1 <- inception_10a/3x3
I0122 19:57:12.152135 70379 net.cpp:396] inception_10a/3x3/bn1 -> inception_10a/3x3 (in-place)
I0122 19:57:12.152765 70379 net.cpp:144] Setting up inception_10a/3x3/bn1
I0122 19:57:12.152771 70379 net.cpp:151] Top shape: 50 160 8 8 (512000)
I0122 19:57:12.152774 70379 net.cpp:159] Memory required for data: 534119400
I0122 19:57:12.152783 70379 layer_factory.hpp:77] Creating layer inception_10a/3x3/relu1
I0122 19:57:12.152791 70379 net.cpp:94] Creating Layer inception_10a/3x3/relu1
I0122 19:57:12.152794 70379 net.cpp:435] inception_10a/3x3/relu1 <- inception_10a/3x3
I0122 19:57:12.152798 70379 net.cpp:396] inception_10a/3x3/relu1 -> inception_10a/3x3 (in-place)
I0122 19:57:12.152804 70379 net.cpp:144] Setting up inception_10a/3x3/relu1
I0122 19:57:12.152808 70379 net.cpp:151] Top shape: 50 160 8 8 (512000)
I0122 19:57:12.152810 70379 net.cpp:159] Memory required for data: 536167400
I0122 19:57:12.152813 70379 layer_factory.hpp:77] Creating layer inception_10a/output
I0122 19:57:12.152818 70379 net.cpp:94] Creating Layer inception_10a/output
I0122 19:57:12.152822 70379 net.cpp:435] inception_10a/output <- inception_10a/1x1
I0122 19:57:12.152824 70379 net.cpp:435] inception_10a/output <- inception_10a/3x3
I0122 19:57:12.152829 70379 net.cpp:409] inception_10a/output -> inception_10a/output
I0122 19:57:12.152848 70379 net.cpp:144] Setting up inception_10a/output
I0122 19:57:12.152853 70379 net.cpp:151] Top shape: 50 336 8 8 (1075200)
I0122 19:57:12.152855 70379 net.cpp:159] Memory required for data: 540468200
I0122 19:57:12.152858 70379 layer_factory.hpp:77] Creating layer inception_10a/output_inception_10a/output_0_split
I0122 19:57:12.152863 70379 net.cpp:94] Creating Layer inception_10a/output_inception_10a/output_0_split
I0122 19:57:12.152866 70379 net.cpp:435] inception_10a/output_inception_10a/output_0_split <- inception_10a/output
I0122 19:57:12.152870 70379 net.cpp:409] inception_10a/output_inception_10a/output_0_split -> inception_10a/output_inception_10a/output_0_split_0
I0122 19:57:12.152876 70379 net.cpp:409] inception_10a/output_inception_10a/output_0_split -> inception_10a/output_inception_10a/output_0_split_1
I0122 19:57:12.152915 70379 net.cpp:144] Setting up inception_10a/output_inception_10a/output_0_split
I0122 19:57:12.152920 70379 net.cpp:151] Top shape: 50 336 8 8 (1075200)
I0122 19:57:12.152925 70379 net.cpp:151] Top shape: 50 336 8 8 (1075200)
I0122 19:57:12.152926 70379 net.cpp:159] Memory required for data: 549069800
I0122 19:57:12.152930 70379 layer_factory.hpp:77] Creating layer inception_11a/1x1
I0122 19:57:12.152936 70379 net.cpp:94] Creating Layer inception_11a/1x1
I0122 19:57:12.152940 70379 net.cpp:435] inception_11a/1x1 <- inception_10a/output_inception_10a/output_0_split_0
I0122 19:57:12.152945 70379 net.cpp:409] inception_11a/1x1 -> inception_11a/1x1
I0122 19:57:12.153479 70379 net.cpp:144] Setting up inception_11a/1x1
I0122 19:57:12.153486 70379 net.cpp:151] Top shape: 50 176 8 8 (563200)
I0122 19:57:12.153489 70379 net.cpp:159] Memory required for data: 551322600
I0122 19:57:12.153493 70379 layer_factory.hpp:77] Creating layer inception_11a/1x1/bn1
I0122 19:57:12.153501 70379 net.cpp:94] Creating Layer inception_11a/1x1/bn1
I0122 19:57:12.153504 70379 net.cpp:435] inception_11a/1x1/bn1 <- inception_11a/1x1
I0122 19:57:12.153508 70379 net.cpp:396] inception_11a/1x1/bn1 -> inception_11a/1x1 (in-place)
I0122 19:57:12.154166 70379 net.cpp:144] Setting up inception_11a/1x1/bn1
I0122 19:57:12.154175 70379 net.cpp:151] Top shape: 50 176 8 8 (563200)
I0122 19:57:12.154177 70379 net.cpp:159] Memory required for data: 553575400
I0122 19:57:12.154186 70379 layer_factory.hpp:77] Creating layer inception_11a/1x1/relu1
I0122 19:57:12.154191 70379 net.cpp:94] Creating Layer inception_11a/1x1/relu1
I0122 19:57:12.154194 70379 net.cpp:435] inception_11a/1x1/relu1 <- inception_11a/1x1
I0122 19:57:12.154198 70379 net.cpp:396] inception_11a/1x1/relu1 -> inception_11a/1x1 (in-place)
I0122 19:57:12.154204 70379 net.cpp:144] Setting up inception_11a/1x1/relu1
I0122 19:57:12.154208 70379 net.cpp:151] Top shape: 50 176 8 8 (563200)
I0122 19:57:12.154211 70379 net.cpp:159] Memory required for data: 555828200
I0122 19:57:12.154214 70379 layer_factory.hpp:77] Creating layer inception_11a/3x3
I0122 19:57:12.154222 70379 net.cpp:94] Creating Layer inception_11a/3x3
I0122 19:57:12.154227 70379 net.cpp:435] inception_11a/3x3 <- inception_10a/output_inception_10a/output_0_split_1
I0122 19:57:12.154232 70379 net.cpp:409] inception_11a/3x3 -> inception_11a/3x3
I0122 19:57:12.157968 70379 net.cpp:144] Setting up inception_11a/3x3
I0122 19:57:12.157981 70379 net.cpp:151] Top shape: 50 160 8 8 (512000)
I0122 19:57:12.157984 70379 net.cpp:159] Memory required for data: 557876200
I0122 19:57:12.157989 70379 layer_factory.hpp:77] Creating layer inception_11a/3x3/bn1
I0122 19:57:12.157997 70379 net.cpp:94] Creating Layer inception_11a/3x3/bn1
I0122 19:57:12.158000 70379 net.cpp:435] inception_11a/3x3/bn1 <- inception_11a/3x3
I0122 19:57:12.158005 70379 net.cpp:396] inception_11a/3x3/bn1 -> inception_11a/3x3 (in-place)
I0122 19:57:12.158682 70379 net.cpp:144] Setting up inception_11a/3x3/bn1
I0122 19:57:12.158689 70379 net.cpp:151] Top shape: 50 160 8 8 (512000)
I0122 19:57:12.158692 70379 net.cpp:159] Memory required for data: 559924200
I0122 19:57:12.158705 70379 layer_factory.hpp:77] Creating layer inception_11a/3x3/relu1
I0122 19:57:12.158713 70379 net.cpp:94] Creating Layer inception_11a/3x3/relu1
I0122 19:57:12.158716 70379 net.cpp:435] inception_11a/3x3/relu1 <- inception_11a/3x3
I0122 19:57:12.158720 70379 net.cpp:396] inception_11a/3x3/relu1 -> inception_11a/3x3 (in-place)
I0122 19:57:12.158726 70379 net.cpp:144] Setting up inception_11a/3x3/relu1
I0122 19:57:12.158731 70379 net.cpp:151] Top shape: 50 160 8 8 (512000)
I0122 19:57:12.158733 70379 net.cpp:159] Memory required for data: 561972200
I0122 19:57:12.158736 70379 layer_factory.hpp:77] Creating layer inception_11a/output
I0122 19:57:12.158740 70379 net.cpp:94] Creating Layer inception_11a/output
I0122 19:57:12.158743 70379 net.cpp:435] inception_11a/output <- inception_11a/1x1
I0122 19:57:12.158748 70379 net.cpp:435] inception_11a/output <- inception_11a/3x3
I0122 19:57:12.158766 70379 net.cpp:409] inception_11a/output -> inception_11a/output
I0122 19:57:12.158785 70379 net.cpp:144] Setting up inception_11a/output
I0122 19:57:12.158792 70379 net.cpp:151] Top shape: 50 336 8 8 (1075200)
I0122 19:57:12.158795 70379 net.cpp:159] Memory required for data: 566273000
I0122 19:57:12.158797 70379 layer_factory.hpp:77] Creating layer avg_pool_12/8x8_s1
I0122 19:57:12.158802 70379 net.cpp:94] Creating Layer avg_pool_12/8x8_s1
I0122 19:57:12.158807 70379 net.cpp:435] avg_pool_12/8x8_s1 <- inception_11a/output
I0122 19:57:12.158812 70379 net.cpp:409] avg_pool_12/8x8_s1 -> avg_pool_12/8x8_s1
I0122 19:57:12.158830 70379 net.cpp:144] Setting up avg_pool_12/8x8_s1
I0122 19:57:12.158835 70379 net.cpp:151] Top shape: 50 336 1 1 (16800)
I0122 19:57:12.158838 70379 net.cpp:159] Memory required for data: 566340200
I0122 19:57:12.158841 70379 layer_factory.hpp:77] Creating layer drop_8x8_s1
I0122 19:57:12.158846 70379 net.cpp:94] Creating Layer drop_8x8_s1
I0122 19:57:12.158849 70379 net.cpp:435] drop_8x8_s1 <- avg_pool_12/8x8_s1
I0122 19:57:12.158854 70379 net.cpp:396] drop_8x8_s1 -> avg_pool_12/8x8_s1 (in-place)
I0122 19:57:12.158871 70379 net.cpp:144] Setting up drop_8x8_s1
I0122 19:57:12.158876 70379 net.cpp:151] Top shape: 50 336 1 1 (16800)
I0122 19:57:12.158880 70379 net.cpp:159] Memory required for data: 566407400
I0122 19:57:12.158884 70379 layer_factory.hpp:77] Creating layer loss/classifier
I0122 19:57:12.158888 70379 net.cpp:94] Creating Layer loss/classifier
I0122 19:57:12.158891 70379 net.cpp:435] loss/classifier <- avg_pool_12/8x8_s1
I0122 19:57:12.158896 70379 net.cpp:409] loss/classifier -> loss/classifier
I0122 19:57:12.159032 70379 net.cpp:144] Setting up loss/classifier
I0122 19:57:12.159037 70379 net.cpp:151] Top shape: 50 10 (500)
I0122 19:57:12.159040 70379 net.cpp:159] Memory required for data: 566409400
I0122 19:57:12.159045 70379 layer_factory.hpp:77] Creating layer loss/classifier_loss/classifier_0_split
I0122 19:57:12.159051 70379 net.cpp:94] Creating Layer loss/classifier_loss/classifier_0_split
I0122 19:57:12.159054 70379 net.cpp:435] loss/classifier_loss/classifier_0_split <- loss/classifier
I0122 19:57:12.159059 70379 net.cpp:409] loss/classifier_loss/classifier_0_split -> loss/classifier_loss/classifier_0_split_0
I0122 19:57:12.159065 70379 net.cpp:409] loss/classifier_loss/classifier_0_split -> loss/classifier_loss/classifier_0_split_1
I0122 19:57:12.159072 70379 net.cpp:409] loss/classifier_loss/classifier_0_split -> loss/classifier_loss/classifier_0_split_2
I0122 19:57:12.159077 70379 net.cpp:409] loss/classifier_loss/classifier_0_split -> loss/classifier_loss/classifier_0_split_3
I0122 19:57:12.159123 70379 net.cpp:144] Setting up loss/classifier_loss/classifier_0_split
I0122 19:57:12.159128 70379 net.cpp:151] Top shape: 50 10 (500)
I0122 19:57:12.159133 70379 net.cpp:151] Top shape: 50 10 (500)
I0122 19:57:12.159137 70379 net.cpp:151] Top shape: 50 10 (500)
I0122 19:57:12.159139 70379 net.cpp:151] Top shape: 50 10 (500)
I0122 19:57:12.159142 70379 net.cpp:159] Memory required for data: 566417400
I0122 19:57:12.159144 70379 layer_factory.hpp:77] Creating layer loss
I0122 19:57:12.159149 70379 net.cpp:94] Creating Layer loss
I0122 19:57:12.159152 70379 net.cpp:435] loss <- loss/classifier_loss/classifier_0_split_0
I0122 19:57:12.159157 70379 net.cpp:435] loss <- label_data_1_split_0
I0122 19:57:12.159162 70379 net.cpp:409] loss -> loss
…
