…
I0122 16:59:08.776991 64041 caffe_interface.cpp:70] GPU device name: Quadro P6000
I0122 16:59:08.777845 64041 net.cpp:323] The NetState phase (1) differed from the phase (0) specified by a rule in layer data
I0122 16:59:08.778393 64041 net.cpp:52] Initializing net from parameters: 
state {
  phase: TEST
}
layer {
  name: "data"
  type: "Data"
  top: "data"
  top: "label"
  include {
    phase: TEST
  }
  transform_param {
    mirror: false
    mean_value: 104
    mean_value: 117
    mean_value: 123
  }
  data_param {
    source: "cifar10/input/lmdb/valid_lmdb"
    batch_size: 50
    backend: LMDB
  }
}
layer {
  name: "conv1/3x3_s1"
  type: "Convolution"
  bottom: "data"
  top: "conv1/3x3_s1"
  param {
    lr_mult: 1
    decay_mult: 1
  }
  param {
    lr_mult: 2
    decay_mult: 0
  }
  convolution_param {
    num_output: 96
    pad: 1
    kernel_size: 3
    stride: 1
    weight_filler {
      type: "xavier"
      std: 0.1
    }
    bias_filler {
      type: "constant"
      value: 0.2
    }
  }
}
layer {
  name: "conv1/bn1"
  type: "BatchNorm"
  bottom: "conv1/3x3_s1"
  top: "conv1/3x3_s1"
  param {
    lr_mult: 1
    decay_mult: 0
  }
  param {
    lr_mult: 1
    decay_mult: 0
  }
  param {
    lr_mult: 0
    decay_mult: 0
  }
  param {
    lr_mult: 0
    decay_mult: 0
  }
  batch_norm_param {
    use_global_stats: false
    scale_filler {
      type: "constant"
      value: 1
    }
    bias_filler {
      type: "constant"
      value: 0
    }
  }
}
layer {
  name: "conv1/relu1"
  type: "ReLU"
  bottom: "conv1/3x3_s1"
  top: "conv1/3x3_s1"
}
layer {
  name: "inception_2a/1x1"
  type: "Convolution"
  bottom: "conv1/3x3_s1"
  top: "inception_2a/1x1"
  param {
    lr_mult: 1
    decay_mult: 1
  }
  param {
    lr_mult: 2
    decay_mult: 0
  }
  convolution_param {
    num_output: 32
    kernel_size: 1
    weight_filler {
      type: "xavier"
      std: 0.03
    }
    bias_filler {
      type: "constant"
      value: 0.2
    }
  }
}
layer {
  name: "inception_2a/1x1/bn1"
  type: "BatchNorm"
  bottom: "inception_2a/1x1"
  top: "inception_2a/1x1"
  param {
    lr_mult: 1
    decay_mult: 0
  }
  param {
    lr_mult: 1
    decay_mult: 0
  }
  param {
    lr_mult: 0
    decay_mult: 0
  }
  param {
    lr_mult: 0
    decay_mult: 0
  }
  batch_norm_param {
    use_global_stats: false
    scale_filler {
      type: "constant"
      value: 1
    }
    bias_filler {
      type: "constant"
      value: 0
    }
  }
}
layer {
  name: "inception_2a/1x1/relu1"
  type: "ReLU"
  bottom: "inception_2a/1x1"
  top: "inception_2a/1x1"
}
layer {
  name: "inception_2a/3x3"
  type: "Convolution"
  bottom: "conv1/3x3_s1"
  top: "inception_2a/3x3"
  param {
    lr_mult: 1
    decay_mult: 1
  }
  param {
    lr_mult: 2
    decay_mult: 0
  }
  convolution_param {
    num_output: 32
    pad: 1
    kernel_size: 3
    weight_filler {
      type: "xavier"
      std: 0.03
    }
    bias_filler {
      type: "constant"
      value: 0.2
    }
  }
}
layer {
  name: "inception_2a/3x3/bn1"
  type: "BatchNorm"
  bottom: "inception_2a/3x3"
  top: "inception_2a/3x3"
  param {
    lr_mult: 1
    decay_mult: 0
  }
  param {
    lr_mult: 1
    decay_mult: 0
  }
  param {
    lr_mult: 0
    decay_mult: 0
  }
  param {
    lr_mult: 0
    decay_mult: 0
  }
  batch_norm_param {
    use_global_stats: false
    scale_filler {
      type: "constant"
      value: 1
    }
    bias_filler {
      type: "constant"
      value: 0
    }
  }
}
layer {
  name: "inception_2a/3x3/relu1"
  type: "ReLU"
  bottom: "inception_2a/3x3"
  top: "inception_2a/3x3"
}
layer {
  name: "inception_2a/output"
  type: "Concat"
  bottom: "inception_2a/1x1"
  bottom: "inception_2a/3x3"
  top: "inception_2a/output"
}
layer {
  name: "inception_3a/1x1"
  type: "Convolution"
  bottom: "inception_2a/output"
  top: "inception_3a/1x1"
  param {
    lr_mult: 1
    decay_mult: 1
  }
  param {
    lr_mult: 2
    decay_mult: 0
  }
  convolution_param {
    num_output: 32
    kernel_size: 1
    weight_filler {
      type: "xavier"
      std: 0.03
    }
    bias_filler {
      type: "constant"
      value: 0.2
    }
  }
}
layer {
  name: "inception_3a/1x1/bn1"
  type: "BatchNorm"
  bottom: "inception_3a/1x1"
  top: "inception_3a/1x1"
  param {
    lr_mult: 1
    decay_mult: 0
  }
  param {
    lr_mult: 1
    decay_mult: 0
  }
  param {
    lr_mult: 0
    decay_mult: 0
  }
  param {
    lr_mult: 0
    decay_mult: 0
  }
  batch_norm_param {
    use_global_stats: false
    scale_filler {
      type: "constant"
      value: 1
    }
    bias_filler {
      type: "constant"
      value: 0
    }
  }
}
layer {
  name: "inception_3a/1x1/relu1"
  type: "ReLU"
  bottom: "inception_3a/1x1"
  top: "inception_3a/1x1"
}
layer {
  name: "inception_3a/3x3"
  type: "Convolution"
  bottom: "inception_2a/output"
  top: "inception_3a/3x3"
  param {
    lr_mult: 1
    decay_mult: 1
  }
  param {
    lr_mult: 2
    decay_mult: 0
  }
  convolution_param {
    num_output: 48
    pad: 1
    kernel_size: 3
    weight_filler {
      type: "xavier"
      std: 0.03
    }
    bias_filler {
      type: "constant"
      value: 0.2
    }
  }
}
layer {
  name: "inception_3a/3x3/bn1"
  type: "BatchNorm"
  bottom: "inception_3a/3x3"
  top: "inception_3a/3x3"
  param {
    lr_mult: 1
    decay_mult: 0
  }
  param {
    lr_mult: 1
    decay_mult: 0
  }
  param {
    lr_mult: 0
    decay_mult: 0
  }
  param {
    lr_mult: 0
    decay_mult: 0
  }
  batch_norm_param {
    use_global_stats: false
    scale_filler {
      type: "constant"
      value: 1
    }
    bias_filler {
      type: "constant"
      value: 0
    }
  }
}
layer {
  name: "inception_3a/3x3/relu1"
  type: "ReLU"
  bottom: "inception_3a/3x3"
  top: "inception_3a/3x3"
}
layer {
  name: "inception_3a/output"
  type: "Concat"
  bottom: "inception_3a/1x1"
  bottom: "inception_3a/3x3"
  top: "inception_3a/output"
}
layer {
  name: "downsample_4/3x3_s2"
  type: "Convolution"
  bottom: "inception_3a/output"
  top: "downsample_4/3x3_s2"
  param {
    lr_mult: 1
    decay_mult: 1
  }
  param {
    lr_mult: 2
    decay_mult: 0
  }
  convolution_param {
    num_output: 80
    pad: 1
    kernel_size: 3
    stride: 2
    weight_filler {
      type: "xavier"
      std: 0.03
    }
    bias_filler {
      type: "constant"
      value: 0.2
    }
  }
}
layer {
  name: "downsample_4/3x3_s2/bn1"
  type: "BatchNorm"
  bottom: "downsample_4/3x3_s2"
  top: "downsample_4/3x3_s2"
  param {
    lr_mult: 1
    decay_mult: 0
  }
  param {
    lr_mult: 1
    decay_mult: 0
  }
  param {
    lr_mult: 0
    decay_mult: 0
  }
  param {
    lr_mult: 0
    decay_mult: 0
  }
  batch_norm_param {
    use_global_stats: false
    scale_filler {
      type: "constant"
      value: 1
    }
    bias_filler {
      type: "constant"
      value: 0
    }
  }
}
layer {
  name: "downsample_4/3x3_s2/relu1"
  type: "ReLU"
  bottom: "downsample_4/3x3_s2"
  top: "downsample_4/3x3_s2"
}
layer {
  name: "downsample_4/pool_s2"
  type: "Pooling"
  bottom: "inception_3a/output"
  top: "downsample_4/pool_s2"
  pooling_param {
    pool: MAX
    kernel_size: 3
    stride: 2
  }
}
layer {
  name: "downsample_4/output"
  type: "Concat"
  bottom: "downsample_4/3x3_s2"
  bottom: "downsample_4/pool_s2"
  top: "downsample_4/output"
}
layer {
  name: "inception_5a/1x1"
  type: "Convolution"
  bottom: "downsample_4/output"
  top: "inception_5a/1x1"
  param {
    lr_mult: 1
    decay_mult: 1
  }
  param {
    lr_mult: 2
    decay_mult: 0
  }
  convolution_param {
    num_output: 112
    kernel_size: 1
    weight_filler {
      type: "xavier"
      std: 0.03
    }
    bias_filler {
      type: "constant"
      value: 0.2
    }
  }
}
layer {
  name: "inception_5a/1x1/bn1"
  type: "BatchNorm"
  bottom: "inception_5a/1x1"
  top: "inception_5a/1x1"
  param {
    lr_mult: 1
    decay_mult: 0
  }
  param {
    lr_mult: 1
    decay_mult: 0
  }
  param {
    lr_mult: 0
    decay_mult: 0
  }
  param {
    lr_mult: 0
    decay_mult: 0
  }
  batch_norm_param {
    use_global_stats: false
    scale_filler {
      type: "constant"
      value: 1
    }
    bias_filler {
      type: "constant"
      value: 0
    }
  }
}
layer {
  name: "inception_5a/1x1/relu1"
  type: "ReLU"
  bottom: "inception_5a/1x1"
  top: "inception_5a/1x1"
}
layer {
  name: "inception_5a/3x3"
  type: "Convolution"
  bottom: "downsample_4/output"
  top: "inception_5a/3x3"
  param {
    lr_mult: 1
    decay_mult: 1
  }
  param {
    lr_mult: 2
    decay_mult: 0
  }
  convolution_param {
    num_output: 48
    pad: 1
    kernel_size: 3
    weight_filler {
      type: "xavier"
      std: 0.03
    }
    bias_filler {
      type: "constant"
      value: 0.2
    }
  }
}
layer {
  name: "inception_5a/3x3/bn1"
  type: "BatchNorm"
  bottom: "inception_5a/3x3"
  top: "inception_5a/3x3"
  param {
    lr_mult: 1
    decay_mult: 0
  }
  param {
    lr_mult: 1
    decay_mult: 0
  }
  param {
    lr_mult: 0
    decay_mult: 0
  }
  param {
    lr_mult: 0
    decay_mult: 0
  }
  batch_norm_param {
    use_global_stats: false
    scale_filler {
      type: "constant"
      value: 1
    }
    bias_filler {
      type: "constant"
      value: 0
    }
  }
}
layer {
  name: "inception_5a/3x3/relu1"
  type: "ReLU"
  bottom: "inception_5a/3x3"
  top: "inception_5a/3x3"
}
layer {
  name: "inception_5a/output"
  type: "Concat"
  bottom: "inception_5a/1x1"
  bottom: "inception_5a/3x3"
  top: "inception_5a/output"
}
layer {
  name: "inception_6a/1x1"
  type: "Convolution"
  bottom: "inception_5a/output"
  top: "inception_6a/1x1"
  param {
    lr_mult: 1
    decay_mult: 1
  }
  param {
    lr_mult: 2
    decay_mult: 0
  }
  convolution_param {
    num_output: 96
    kernel_size: 1
    weight_filler {
      type: "xavier"
      std: 0.03
    }
    bias_filler {
      type: "constant"
      value: 0.2
    }
  }
}
layer {
  name: "inception_6a/1x1/bn1"
  type: "BatchNorm"
  bottom: "inception_6a/1x1"
  top: "inception_6a/1x1"
  param {
    lr_mult: 1
    decay_mult: 0
  }
  param {
    lr_mult: 1
    decay_mult: 0
  }
  param {
    lr_mult: 0
    decay_mult: 0
  }
  param {
    lr_mult: 0
    decay_mult: 0
  }
  batch_norm_param {
    use_global_stats: false
    scale_filler {
      type: "constant"
      value: 1
    }
    bias_filler {
      type: "constant"
      value: 0
    }
  }
}
layer {
  name: "inception_6a/1x1/relu1"
  type: "ReLU"
  bottom: "inception_6a/1x1"
  top: "inception_6a/1x1"
}
layer {
  name: "inception_6a/3x3"
  type: "Convolution"
  bottom: "inception_5a/output"
  top: "inception_6a/3x3"
  param {
    lr_mult: 1
    decay_mult: 1
  }
  param {
    lr_mult: 2
    decay_mult: 0
  }
  convolution_param {
    num_output: 64
    pad: 1
    kernel_size: 3
    weight_filler {
      type: "xavier"
      std: 0.03
    }
    bias_filler {
      type: "constant"
      value: 0.2
    }
  }
}
layer {
  name: "inception_6a/3x3/bn1"
  type: "BatchNorm"
  bottom: "inception_6a/3x3"
  top: "inception_6a/3x3"
  param {
    lr_mult: 1
    decay_mult: 0
  }
  param {
    lr_mult: 1
    decay_mult: 0
  }
  param {
    lr_mult: 0
    decay_mult: 0
  }
  param {
    lr_mult: 0
    decay_mult: 0
  }
  batch_norm_param {
    use_global_stats: false
    scale_filler {
      type: "constant"
      value: 1
    }
    bias_filler {
      type: "constant"
      value: 0
    }
  }
}
layer {
  name: "inception_6a/3x3/relu1"
  type: "ReLU"
  bottom: "inception_6a/3x3"
  top: "inception_6a/3x3"
}
layer {
  name: "inception_6a/output"
  type: "Concat"
  bottom: "inception_6a/1x1"
  bottom: "inception_6a/3x3"
  top: "inception_6a/output"
}
layer {
  name: "inception_7a/1x1"
  type: "Convolution"
  bottom: "inception_6a/output"
  top: "inception_7a/1x1"
  param {
    lr_mult: 1
    decay_mult: 1
  }
  param {
    lr_mult: 2
    decay_mult: 0
  }
  convolution_param {
    num_output: 80
    kernel_size: 1
    weight_filler {
      type: "xavier"
      std: 0.03
    }
    bias_filler {
      type: "constant"
      value: 0.2
    }
  }
}
layer {
  name: "inception_7a/1x1/bn1"
  type: "BatchNorm"
  bottom: "inception_7a/1x1"
  top: "inception_7a/1x1"
  param {
    lr_mult: 1
    decay_mult: 0
  }
  param {
    lr_mult: 1
    decay_mult: 0
  }
  param {
    lr_mult: 0
    decay_mult: 0
  }
  param {
    lr_mult: 0
    decay_mult: 0
  }
  batch_norm_param {
    use_global_stats: false
    scale_filler {
      type: "constant"
      value: 1
    }
    bias_filler {
      type: "constant"
      value: 0
    }
  }
}
layer {
  name: "inception_7a/1x1/relu1"
  type: "ReLU"
  bottom: "inception_7a/1x1"
  top: "inception_7a/1x1"
}
layer {
  name: "inception_7a/3x3"
  type: "Convolution"
  bottom: "inception_6a/output"
  top: "inception_7a/3x3"
  param {
    lr_mult: 1
    decay_mult: 1
  }
  param {
    lr_mult: 2
    decay_mult: 0
  }
  convolution_param {
    num_output: 80
    pad: 1
    kernel_size: 3
    weight_filler {
      type: "xavier"
      std: 0.03
    }
    bias_filler {
      type: "constant"
      value: 0.2
    }
  }
}
layer {
  name: "inception_7a/3x3/bn1"
  type: "BatchNorm"
  bottom: "inception_7a/3x3"
  top: "inception_7a/3x3"
  param {
    lr_mult: 1
    decay_mult: 0
  }
  param {
    lr_mult: 1
    decay_mult: 0
  }
  param {
    lr_mult: 0
    decay_mult: 0
  }
  param {
    lr_mult: 0
    decay_mult: 0
  }
  batch_norm_param {
    use_global_stats: false
    scale_filler {
      type: "constant"
      value: 1
    }
    bias_filler {
      type: "constant"
      value: 0
    }
  }
}
layer {
  name: "inception_7a/3x3/relu1"
  type: "ReLU"
  bottom: "inception_7a/3x3"
  top: "inception_7a/3x3"
}
layer {
  name: "inception_7a/output"
  type: "Concat"
  bottom: "inception_7a/1x1"
  bottom: "inception_7a/3x3"
  top: "inception_7a/output"
}
layer {
  name: "inception_8a/1x1"
  type: "Convolution"
  bottom: "inception_7a/output"
  top: "inception_8a/1x1"
  param {
    lr_mult: 1
    decay_mult: 1
  }
  param {
    lr_mult: 2
    decay_mult: 0
  }
  convolution_param {
    num_output: 48
    kernel_size: 1
    weight_filler {
      type: "xavier"
      std: 0.03
    }
    bias_filler {
      type: "constant"
      value: 0.2
    }
  }
}
layer {
  name: "inception_8a/1x1/bn1"
  type: "BatchNorm"
  bottom: "inception_8a/1x1"
  top: "inception_8a/1x1"
  param {
    lr_mult: 1
    decay_mult: 0
  }
  param {
    lr_mult: 1
    decay_mult: 0
  }
  param {
    lr_mult: 0
    decay_mult: 0
  }
  param {
    lr_mult: 0
    decay_mult: 0
  }
  batch_norm_param {
    use_global_stats: false
    scale_filler {
      type: "constant"
      value: 1
    }
    bias_filler {
      type: "constant"
      value: 0
    }
  }
}
layer {
  name: "inception_8a/1x1/relu1"
  type: "ReLU"
  bottom: "inception_8a/1x1"
  top: "inception_8a/1x1"
}
layer {
  name: "inception_8a/3x3"
  type: "Convolution"
  bottom: "inception_7a/output"
  top: "inception_8a/3x3"
  param {
    lr_mult: 1
    decay_mult: 1
  }
  param {
    lr_mult: 2
    decay_mult: 0
  }
  convolution_param {
    num_output: 96
    pad: 1
    kernel_size: 3
    weight_filler {
      type: "xavier"
      std: 0.03
    }
    bias_filler {
      type: "constant"
      value: 0.2
    }
  }
}
layer {
  name: "inception_8a/3x3/bn1"
  type: "BatchNorm"
  bottom: "inception_8a/3x3"
  top: "inception_8a/3x3"
  param {
    lr_mult: 1
    decay_mult: 0
  }
  param {
    lr_mult: 1
    decay_mult: 0
  }
  param {
    lr_mult: 0
    decay_mult: 0
  }
  param {
    lr_mult: 0
    decay_mult: 0
  }
  batch_norm_param {
    use_global_stats: false
    scale_filler {
      type: "constant"
      value: 1
    }
    bias_filler {
      type: "constant"
      value: 0
    }
  }
}
layer {
  name: "inception_8a/3x3/relu1"
  type: "ReLU"
  bottom: "inception_8a/3x3"
  top: "inception_8a/3x3"
}
layer {
  name: "inception_8a/output"
  type: "Concat"
  bottom: "inception_8a/1x1"
  bottom: "inception_8a/3x3"
  top: "inception_8a/output"
}
layer {
  name: "downsample_9/3x3_s2"
  type: "Convolution"
  bottom: "inception_8a/output"
  top: "downsample_9/3x3_s2"
  param {
    lr_mult: 1
    decay_mult: 1
  }
  param {
    lr_mult: 2
    decay_mult: 0
  }
  convolution_param {
    num_output: 96
    pad: 1
    kernel_size: 3
    stride: 2
    weight_filler {
      type: "xavier"
      std: 0.03
    }
    bias_filler {
      type: "constant"
      value: 0.2
    }
  }
}
layer {
  name: "downsample_9/3x3_s2/bn1"
  type: "BatchNorm"
  bottom: "downsample_9/3x3_s2"
  top: "downsample_9/3x3_s2"
  param {
    lr_mult: 1
    decay_mult: 0
  }
  param {
    lr_mult: 1
    decay_mult: 0
  }
  param {
    lr_mult: 0
    decay_mult: 0
  }
  param {
    lr_mult: 0
    decay_mult: 0
  }
  batch_norm_param {
    use_global_stats: false
    scale_filler {
      type: "constant"
      value: 1
    }
    bias_filler {
      type: "constant"
      value: 0
    }
  }
}
layer {
  name: "downsample_9/3x3_s2/relu1"
  type: "ReLU"
  bottom: "downsample_9/3x3_s2"
  top: "downsample_9/3x3_s2"
}
layer {
  name: "downsample_9/pool_s2"
  type: "Pooling"
  bottom: "inception_8a/output"
  top: "downsample_9/pool_s2"
  pooling_param {
    pool: MAX
    kernel_size: 3
    stride: 2
  }
}
layer {
  name: "downsample_9/output"
  type: "Concat"
  bottom: "downsample_9/3x3_s2"
  bottom: "downsample_9/pool_s2"
  top: "downsample_9/output"
}
layer {
  name: "inception_10a/1x1"
  type: "Convolution"
  bottom: "downsample_9/output"
  top: "inception_10a/1x1"
  param {
    lr_mult: 1
    decay_mult: 1
  }
  param {
    lr_mult: 2
    decay_mult: 0
  }
  convolution_param {
    num_output: 176
    kernel_size: 1
    weight_filler {
      type: "xavier"
      std: 0.03
    }
    bias_filler {
      type: "constant"
      value: 0.2
    }
  }
}
layer {
  name: "inception_10a/1x1/bn1"
  type: "BatchNorm"
  bottom: "inception_10a/1x1"
  top: "inception_10a/1x1"
  param {
    lr_mult: 1
    decay_mult: 0
  }
  param {
    lr_mult: 1
    decay_mult: 0
  }
  param {
    lr_mult: 0
    decay_mult: 0
  }
  param {
    lr_mult: 0
    decay_mult: 0
  }
  batch_norm_param {
    use_global_stats: false
    scale_filler {
      type: "constant"
      value: 1
    }
    bias_filler {
      type: "constant"
      value: 0
    }
  }
}
layer {
  name: "inception_10a/1x1/relu1"
  type: "ReLU"
  bottom: "inception_10a/1x1"
  top: "inception_10a/1x1"
}
layer {
  name: "inception_10a/3x3"
  type: "Convolution"
  bottom: "downsample_9/output"
  top: "inception_10a/3x3"
  param {
    lr_mult: 1
    decay_mult: 1
  }
  param {
    lr_mult: 2
    decay_mult: 0
  }
  convolution_param {
    num_output: 160
    pad: 1
    kernel_size: 3
    weight_filler {
      type: "xavier"
      std: 0.03
    }
    bias_filler {
      type: "constant"
      value: 0.2
    }
  }
}
layer {
  name: "inception_10a/3x3/bn1"
  type: "BatchNorm"
  bottom: "inception_10a/3x3"
  top: "inception_10a/3x3"
  param {
    lr_mult: 1
    decay_mult: 0
  }
  param {
    lr_mult: 1
    decay_mult: 0
  }
  param {
    lr_mult: 0
    decay_mult: 0
  }
  param {
    lr_mult: 0
    decay_mult: 0
  }
  batch_norm_param {
    use_global_stats: false
    scale_filler {
      type: "constant"
      value: 1
    }
    bias_filler {
      type: "constant"
      value: 0
    }
  }
}
layer {
  name: "inception_10a/3x3/relu1"
  type: "ReLU"
  bottom: "inception_10a/3x3"
  top: "inception_10a/3x3"
}
layer {
  name: "inception_10a/output"
  type: "Concat"
  bottom: "inception_10a/1x1"
  bottom: "inception_10a/3x3"
  top: "inception_10a/output"
}
layer {
  name: "inception_11a/1x1"
  type: "Convolution"
  bottom: "inception_10a/output"
  top: "inception_11a/1x1"
  param {
    lr_mult: 1
    decay_mult: 1
  }
  param {
    lr_mult: 2
    decay_mult: 0
  }
  convolution_param {
    num_output: 176
    kernel_size: 1
    weight_filler {
      type: "xavier"
      std: 0.03
    }
    bias_filler {
      type: "constant"
      value: 0.2
    }
  }
}
layer {
  name: "inception_11a/1x1/bn1"
  type: "BatchNorm"
  bottom: "inception_11a/1x1"
  top: "inception_11a/1x1"
  param {
    lr_mult: 1
    decay_mult: 0
  }
  param {
    lr_mult: 1
    decay_mult: 0
  }
  param {
    lr_mult: 0
    decay_mult: 0
  }
  param {
    lr_mult: 0
    decay_mult: 0
  }
  batch_norm_param {
    use_global_stats: false
    scale_filler {
      type: "constant"
      value: 1
    }
    bias_filler {
      type: "constant"
      value: 0
    }
  }
}
layer {
  name: "inception_11a/1x1/relu1"
  type: "ReLU"
  bottom: "inception_11a/1x1"
  top: "inception_11a/1x1"
}
layer {
  name: "inception_11a/3x3"
  type: "Convolution"
  bottom: "inception_10a/output"
  top: "inception_11a/3x3"
  param {
    lr_mult: 1
    decay_mult: 1
  }
  param {
    lr_mult: 2
    decay_mult: 0
  }
  convolution_param {
    num_output: 160
    pad: 1
    kernel_size: 3
    weight_filler {
      type: "xavier"
      std: 0.03
    }
    bias_filler {
      type: "constant"
      value: 0.2
    }
  }
}
layer {
  name: "inception_11a/3x3/bn1"
  type: "BatchNorm"
  bottom: "inception_11a/3x3"
  top: "inception_11a/3x3"
  param {
    lr_mult: 1
    decay_mult: 0
  }
  param {
    lr_mult: 1
    decay_mult: 0
  }
  param {
    lr_mult: 0
    decay_mult: 0
  }
  param {
    lr_mult: 0
    decay_mult: 0
  }
  batch_norm_param {
    use_global_stats: false
    scale_filler {
      type: "constant"
      value: 1
    }
    bias_filler {
      type: "constant"
      value: 0
    }
  }
}
layer {
  name: "inception_11a/3x3/relu1"
  type: "ReLU"
  bottom: "inception_11a/3x3"
  top: "inception_11a/3x3"
}
layer {
  name: "inception_11a/output"
  type: "Concat"
  bottom: "inception_11a/1x1"
  bottom: "inception_11a/3x3"
  top: "inception_11a/output"
}
layer {
  name: "avg_pool_12/8x8_s1"
  type: "Pooling"
  bottom: "inception_11a/output"
  top: "avg_pool_12/8x8_s1"
  pooling_param {
    pool: AVE
    kernel_size: 8
    stride: 1
  }
}
layer {
  name: "drop_8x8_s1"
  type: "Dropout"
  bottom: "avg_pool_12/8x8_s1"
  top: "avg_pool_12/8x8_s1"
  dropout_param {
    dropout_ratio: 0.5
  }
}
layer {
  name: "loss/classifier"
  type: "InnerProduct"
  bottom: "avg_pool_12/8x8_s1"
  top: "loss/classifier"
  param {
    lr_mult: 1
    decay_mult: 1
  }
  param {
    lr_mult: 2
    decay_mult: 0
  }
  inner_product_param {
    num_output: 10
    weight_filler {
      type: "xavier"
    }
    bias_filler {
      type: "constant"
      value: 1
    }
  }
}
layer {
  name: "loss"
  type: "SoftmaxWithLoss"
  bottom: "loss/classifier"
  bottom: "label"
  top: "loss"
}
layer {
  name: "accuracy"
  type: "Accuracy"
  bottom: "loss/classifier"
  bottom: "label"
  top: "accuracy"
  include {
    phase: TEST
  }
}
layer {
  name: "accuracy-top1"
  type: "Accuracy"
  bottom: "loss/classifier"
  bottom: "label"
  top: "top-1"
  include {
    phase: TEST
  }
}
layer {
  name: "accuracy-top5"
  type: "Accuracy"
  bottom: "loss/classifier"
  bottom: "label"
  top: "top-5"
  include {
    phase: TEST
  }
  accuracy_param {
    top_k: 5
  }
}
I0122 16:59:08.778708 64041 layer_factory.hpp:77] Creating layer data
I0122 16:59:08.778749 64041 internal_thread.cpp:27] Starting internal thread(s) on GPU 0
I0122 16:59:08.779090 64041 net.cpp:94] Creating Layer data
I0122 16:59:08.779098 64041 net.cpp:409] data -> data
I0122 16:59:08.779106 64041 net.cpp:409] data -> label
I0122 16:59:08.780210 64188 db_lmdb.cpp:35] Opened lmdb cifar10/input/lmdb/valid_lmdb
I0122 16:59:08.780242 64188 data_reader.cpp:117] TEST: reading data using 1 channel(s)
I0122 16:59:08.780362 64041 data_layer.cpp:78] ReshapePrefetch 50, 3, 32, 32
I0122 16:59:08.780442 64041 data_layer.cpp:83] output data size: 50,3,32,32
I0122 16:59:08.783089 64041 internal_thread.cpp:27] Starting internal thread(s) on GPU 0
I0122 16:59:08.783144 64041 net.cpp:144] Setting up data
I0122 16:59:08.783151 64041 net.cpp:151] Top shape: 50 3 32 32 (153600)
I0122 16:59:08.783155 64041 net.cpp:151] Top shape: 50 (50)
I0122 16:59:08.783157 64041 net.cpp:159] Memory required for data: 614600
I0122 16:59:08.783162 64041 layer_factory.hpp:77] Creating layer label_data_1_split
I0122 16:59:08.783170 64041 net.cpp:94] Creating Layer label_data_1_split
I0122 16:59:08.783179 64041 net.cpp:435] label_data_1_split <- label
I0122 16:59:08.783185 64041 net.cpp:409] label_data_1_split -> label_data_1_split_0
I0122 16:59:08.783195 64041 net.cpp:409] label_data_1_split -> label_data_1_split_1
I0122 16:59:08.783201 64041 net.cpp:409] label_data_1_split -> label_data_1_split_2
I0122 16:59:08.783207 64041 net.cpp:409] label_data_1_split -> label_data_1_split_3
I0122 16:59:08.783298 64041 net.cpp:144] Setting up label_data_1_split
I0122 16:59:08.783304 64041 net.cpp:151] Top shape: 50 (50)
I0122 16:59:08.783308 64041 net.cpp:151] Top shape: 50 (50)
I0122 16:59:08.783311 64041 net.cpp:151] Top shape: 50 (50)
I0122 16:59:08.783314 64041 net.cpp:151] Top shape: 50 (50)
I0122 16:59:08.783318 64041 net.cpp:159] Memory required for data: 615400
I0122 16:59:08.783320 64041 layer_factory.hpp:77] Creating layer conv1/3x3_s1
I0122 16:59:08.783329 64041 net.cpp:94] Creating Layer conv1/3x3_s1
I0122 16:59:08.783332 64041 net.cpp:435] conv1/3x3_s1 <- data
I0122 16:59:08.783339 64041 net.cpp:409] conv1/3x3_s1 -> conv1/3x3_s1
I0122 16:59:08.784853 64041 net.cpp:144] Setting up conv1/3x3_s1
I0122 16:59:08.784864 64041 net.cpp:151] Top shape: 50 96 32 32 (4915200)
I0122 16:59:08.784867 64041 net.cpp:159] Memory required for data: 20276200
I0122 16:59:08.784876 64041 layer_factory.hpp:77] Creating layer conv1/bn1
I0122 16:59:08.784883 64041 net.cpp:94] Creating Layer conv1/bn1
I0122 16:59:08.784886 64041 net.cpp:435] conv1/bn1 <- conv1/3x3_s1
I0122 16:59:08.784891 64041 net.cpp:396] conv1/bn1 -> conv1/3x3_s1 (in-place)
I0122 16:59:08.785583 64041 net.cpp:144] Setting up conv1/bn1
I0122 16:59:08.785589 64041 net.cpp:151] Top shape: 50 96 32 32 (4915200)
I0122 16:59:08.785593 64041 net.cpp:159] Memory required for data: 39937000
I0122 16:59:08.785604 64041 layer_factory.hpp:77] Creating layer conv1/relu1
I0122 16:59:08.785611 64041 net.cpp:94] Creating Layer conv1/relu1
I0122 16:59:08.785617 64041 net.cpp:435] conv1/relu1 <- conv1/3x3_s1
I0122 16:59:08.785621 64041 net.cpp:396] conv1/relu1 -> conv1/3x3_s1 (in-place)
I0122 16:59:08.785629 64041 net.cpp:144] Setting up conv1/relu1
I0122 16:59:08.785632 64041 net.cpp:151] Top shape: 50 96 32 32 (4915200)
I0122 16:59:08.785635 64041 net.cpp:159] Memory required for data: 59597800
I0122 16:59:08.785637 64041 layer_factory.hpp:77] Creating layer conv1/3x3_s1_conv1/relu1_0_split
I0122 16:59:08.785642 64041 net.cpp:94] Creating Layer conv1/3x3_s1_conv1/relu1_0_split
I0122 16:59:08.785645 64041 net.cpp:435] conv1/3x3_s1_conv1/relu1_0_split <- conv1/3x3_s1
I0122 16:59:08.785650 64041 net.cpp:409] conv1/3x3_s1_conv1/relu1_0_split -> conv1/3x3_s1_conv1/relu1_0_split_0
I0122 16:59:08.785656 64041 net.cpp:409] conv1/3x3_s1_conv1/relu1_0_split -> conv1/3x3_s1_conv1/relu1_0_split_1
I0122 16:59:08.785706 64041 net.cpp:144] Setting up conv1/3x3_s1_conv1/relu1_0_split
I0122 16:59:08.785712 64041 net.cpp:151] Top shape: 50 96 32 32 (4915200)
I0122 16:59:08.785717 64041 net.cpp:151] Top shape: 50 96 32 32 (4915200)
I0122 16:59:08.785718 64041 net.cpp:159] Memory required for data: 98919400
I0122 16:59:08.785722 64041 layer_factory.hpp:77] Creating layer inception_2a/1x1
I0122 16:59:08.785729 64041 net.cpp:94] Creating Layer inception_2a/1x1
I0122 16:59:08.785732 64041 net.cpp:435] inception_2a/1x1 <- conv1/3x3_s1_conv1/relu1_0_split_0
I0122 16:59:08.785738 64041 net.cpp:409] inception_2a/1x1 -> inception_2a/1x1
I0122 16:59:08.786020 64041 net.cpp:144] Setting up inception_2a/1x1
I0122 16:59:08.786026 64041 net.cpp:151] Top shape: 50 32 32 32 (1638400)
I0122 16:59:08.786031 64041 net.cpp:159] Memory required for data: 105473000
I0122 16:59:08.786037 64041 layer_factory.hpp:77] Creating layer inception_2a/1x1/bn1
I0122 16:59:08.786044 64041 net.cpp:94] Creating Layer inception_2a/1x1/bn1
I0122 16:59:08.786049 64041 net.cpp:435] inception_2a/1x1/bn1 <- inception_2a/1x1
I0122 16:59:08.786056 64041 net.cpp:396] inception_2a/1x1/bn1 -> inception_2a/1x1 (in-place)
I0122 16:59:08.786757 64041 net.cpp:144] Setting up inception_2a/1x1/bn1
I0122 16:59:08.786763 64041 net.cpp:151] Top shape: 50 32 32 32 (1638400)
I0122 16:59:08.786767 64041 net.cpp:159] Memory required for data: 112026600
I0122 16:59:08.786774 64041 layer_factory.hpp:77] Creating layer inception_2a/1x1/relu1
I0122 16:59:08.786780 64041 net.cpp:94] Creating Layer inception_2a/1x1/relu1
I0122 16:59:08.786782 64041 net.cpp:435] inception_2a/1x1/relu1 <- inception_2a/1x1
I0122 16:59:08.786787 64041 net.cpp:396] inception_2a/1x1/relu1 -> inception_2a/1x1 (in-place)
I0122 16:59:08.786806 64041 net.cpp:144] Setting up inception_2a/1x1/relu1
I0122 16:59:08.786810 64041 net.cpp:151] Top shape: 50 32 32 32 (1638400)
I0122 16:59:08.786813 64041 net.cpp:159] Memory required for data: 118580200
I0122 16:59:08.786816 64041 layer_factory.hpp:77] Creating layer inception_2a/3x3
I0122 16:59:08.786824 64041 net.cpp:94] Creating Layer inception_2a/3x3
I0122 16:59:08.786828 64041 net.cpp:435] inception_2a/3x3 <- conv1/3x3_s1_conv1/relu1_0_split_1
I0122 16:59:08.786833 64041 net.cpp:409] inception_2a/3x3 -> inception_2a/3x3
I0122 16:59:08.787919 64041 net.cpp:144] Setting up inception_2a/3x3
I0122 16:59:08.787931 64041 net.cpp:151] Top shape: 50 32 32 32 (1638400)
I0122 16:59:08.787935 64041 net.cpp:159] Memory required for data: 125133800
I0122 16:59:08.787940 64041 layer_factory.hpp:77] Creating layer inception_2a/3x3/bn1
I0122 16:59:08.787950 64041 net.cpp:94] Creating Layer inception_2a/3x3/bn1
I0122 16:59:08.787953 64041 net.cpp:435] inception_2a/3x3/bn1 <- inception_2a/3x3
I0122 16:59:08.787958 64041 net.cpp:396] inception_2a/3x3/bn1 -> inception_2a/3x3 (in-place)
I0122 16:59:08.788605 64041 net.cpp:144] Setting up inception_2a/3x3/bn1
I0122 16:59:08.788612 64041 net.cpp:151] Top shape: 50 32 32 32 (1638400)
I0122 16:59:08.788616 64041 net.cpp:159] Memory required for data: 131687400
I0122 16:59:08.788628 64041 layer_factory.hpp:77] Creating layer inception_2a/3x3/relu1
I0122 16:59:08.788635 64041 net.cpp:94] Creating Layer inception_2a/3x3/relu1
I0122 16:59:08.788640 64041 net.cpp:435] inception_2a/3x3/relu1 <- inception_2a/3x3
I0122 16:59:08.788643 64041 net.cpp:396] inception_2a/3x3/relu1 -> inception_2a/3x3 (in-place)
I0122 16:59:08.788650 64041 net.cpp:144] Setting up inception_2a/3x3/relu1
I0122 16:59:08.788653 64041 net.cpp:151] Top shape: 50 32 32 32 (1638400)
I0122 16:59:08.788656 64041 net.cpp:159] Memory required for data: 138241000
I0122 16:59:08.788659 64041 layer_factory.hpp:77] Creating layer inception_2a/output
I0122 16:59:08.788664 64041 net.cpp:94] Creating Layer inception_2a/output
I0122 16:59:08.788667 64041 net.cpp:435] inception_2a/output <- inception_2a/1x1
I0122 16:59:08.788672 64041 net.cpp:435] inception_2a/output <- inception_2a/3x3
I0122 16:59:08.788677 64041 net.cpp:409] inception_2a/output -> inception_2a/output
I0122 16:59:08.788697 64041 net.cpp:144] Setting up inception_2a/output
I0122 16:59:08.788702 64041 net.cpp:151] Top shape: 50 64 32 32 (3276800)
I0122 16:59:08.788707 64041 net.cpp:159] Memory required for data: 151348200
I0122 16:59:08.788709 64041 layer_factory.hpp:77] Creating layer inception_2a/output_inception_2a/output_0_split
I0122 16:59:08.788713 64041 net.cpp:94] Creating Layer inception_2a/output_inception_2a/output_0_split
I0122 16:59:08.788717 64041 net.cpp:435] inception_2a/output_inception_2a/output_0_split <- inception_2a/output
I0122 16:59:08.788722 64041 net.cpp:409] inception_2a/output_inception_2a/output_0_split -> inception_2a/output_inception_2a/output_0_split_0
I0122 16:59:08.788727 64041 net.cpp:409] inception_2a/output_inception_2a/output_0_split -> inception_2a/output_inception_2a/output_0_split_1
I0122 16:59:08.788792 64041 net.cpp:144] Setting up inception_2a/output_inception_2a/output_0_split
I0122 16:59:08.788799 64041 net.cpp:151] Top shape: 50 64 32 32 (3276800)
I0122 16:59:08.788802 64041 net.cpp:151] Top shape: 50 64 32 32 (3276800)
I0122 16:59:08.788805 64041 net.cpp:159] Memory required for data: 177562600
I0122 16:59:08.788807 64041 layer_factory.hpp:77] Creating layer inception_3a/1x1
I0122 16:59:08.788816 64041 net.cpp:94] Creating Layer inception_3a/1x1
I0122 16:59:08.788821 64041 net.cpp:435] inception_3a/1x1 <- inception_2a/output_inception_2a/output_0_split_0
I0122 16:59:08.788826 64041 net.cpp:409] inception_3a/1x1 -> inception_3a/1x1
I0122 16:59:08.789042 64041 net.cpp:144] Setting up inception_3a/1x1
I0122 16:59:08.789048 64041 net.cpp:151] Top shape: 50 32 32 32 (1638400)
I0122 16:59:08.789052 64041 net.cpp:159] Memory required for data: 184116200
I0122 16:59:08.789068 64041 layer_factory.hpp:77] Creating layer inception_3a/1x1/bn1
I0122 16:59:08.789075 64041 net.cpp:94] Creating Layer inception_3a/1x1/bn1
I0122 16:59:08.789078 64041 net.cpp:435] inception_3a/1x1/bn1 <- inception_3a/1x1
I0122 16:59:08.789085 64041 net.cpp:396] inception_3a/1x1/bn1 -> inception_3a/1x1 (in-place)
I0122 16:59:08.789737 64041 net.cpp:144] Setting up inception_3a/1x1/bn1
I0122 16:59:08.789743 64041 net.cpp:151] Top shape: 50 32 32 32 (1638400)
I0122 16:59:08.789747 64041 net.cpp:159] Memory required for data: 190669800
I0122 16:59:08.789755 64041 layer_factory.hpp:77] Creating layer inception_3a/1x1/relu1
I0122 16:59:08.789762 64041 net.cpp:94] Creating Layer inception_3a/1x1/relu1
I0122 16:59:08.789764 64041 net.cpp:435] inception_3a/1x1/relu1 <- inception_3a/1x1
I0122 16:59:08.789769 64041 net.cpp:396] inception_3a/1x1/relu1 -> inception_3a/1x1 (in-place)
I0122 16:59:08.789775 64041 net.cpp:144] Setting up inception_3a/1x1/relu1
I0122 16:59:08.789779 64041 net.cpp:151] Top shape: 50 32 32 32 (1638400)
I0122 16:59:08.789782 64041 net.cpp:159] Memory required for data: 197223400
I0122 16:59:08.789784 64041 layer_factory.hpp:77] Creating layer inception_3a/3x3
I0122 16:59:08.789793 64041 net.cpp:94] Creating Layer inception_3a/3x3
I0122 16:59:08.789796 64041 net.cpp:435] inception_3a/3x3 <- inception_2a/output_inception_2a/output_0_split_1
I0122 16:59:08.789803 64041 net.cpp:409] inception_3a/3x3 -> inception_3a/3x3
I0122 16:59:08.790189 64041 net.cpp:144] Setting up inception_3a/3x3
I0122 16:59:08.790199 64041 net.cpp:151] Top shape: 50 48 32 32 (2457600)
I0122 16:59:08.790202 64041 net.cpp:159] Memory required for data: 207053800
I0122 16:59:08.790206 64041 layer_factory.hpp:77] Creating layer inception_3a/3x3/bn1
I0122 16:59:08.790213 64041 net.cpp:94] Creating Layer inception_3a/3x3/bn1
I0122 16:59:08.790216 64041 net.cpp:435] inception_3a/3x3/bn1 <- inception_3a/3x3
I0122 16:59:08.790222 64041 net.cpp:396] inception_3a/3x3/bn1 -> inception_3a/3x3 (in-place)
I0122 16:59:08.790858 64041 net.cpp:144] Setting up inception_3a/3x3/bn1
I0122 16:59:08.790864 64041 net.cpp:151] Top shape: 50 48 32 32 (2457600)
I0122 16:59:08.790868 64041 net.cpp:159] Memory required for data: 216884200
I0122 16:59:08.790879 64041 layer_factory.hpp:77] Creating layer inception_3a/3x3/relu1
I0122 16:59:08.790885 64041 net.cpp:94] Creating Layer inception_3a/3x3/relu1
I0122 16:59:08.790889 64041 net.cpp:435] inception_3a/3x3/relu1 <- inception_3a/3x3
I0122 16:59:08.790894 64041 net.cpp:396] inception_3a/3x3/relu1 -> inception_3a/3x3 (in-place)
I0122 16:59:08.790899 64041 net.cpp:144] Setting up inception_3a/3x3/relu1
I0122 16:59:08.790904 64041 net.cpp:151] Top shape: 50 48 32 32 (2457600)
I0122 16:59:08.790905 64041 net.cpp:159] Memory required for data: 226714600
I0122 16:59:08.790910 64041 layer_factory.hpp:77] Creating layer inception_3a/output
I0122 16:59:08.790915 64041 net.cpp:94] Creating Layer inception_3a/output
I0122 16:59:08.790917 64041 net.cpp:435] inception_3a/output <- inception_3a/1x1
I0122 16:59:08.790920 64041 net.cpp:435] inception_3a/output <- inception_3a/3x3
I0122 16:59:08.790925 64041 net.cpp:409] inception_3a/output -> inception_3a/output
I0122 16:59:08.790946 64041 net.cpp:144] Setting up inception_3a/output
I0122 16:59:08.790951 64041 net.cpp:151] Top shape: 50 80 32 32 (4096000)
I0122 16:59:08.790954 64041 net.cpp:159] Memory required for data: 243098600
I0122 16:59:08.790957 64041 layer_factory.hpp:77] Creating layer inception_3a/output_inception_3a/output_0_split
I0122 16:59:08.790962 64041 net.cpp:94] Creating Layer inception_3a/output_inception_3a/output_0_split
I0122 16:59:08.790966 64041 net.cpp:435] inception_3a/output_inception_3a/output_0_split <- inception_3a/output
I0122 16:59:08.790971 64041 net.cpp:409] inception_3a/output_inception_3a/output_0_split -> inception_3a/output_inception_3a/output_0_split_0
I0122 16:59:08.790978 64041 net.cpp:409] inception_3a/output_inception_3a/output_0_split -> inception_3a/output_inception_3a/output_0_split_1
I0122 16:59:08.791043 64041 net.cpp:144] Setting up inception_3a/output_inception_3a/output_0_split
I0122 16:59:08.791059 64041 net.cpp:151] Top shape: 50 80 32 32 (4096000)
I0122 16:59:08.791064 64041 net.cpp:151] Top shape: 50 80 32 32 (4096000)
I0122 16:59:08.791066 64041 net.cpp:159] Memory required for data: 275866600
I0122 16:59:08.791069 64041 layer_factory.hpp:77] Creating layer downsample_4/3x3_s2
I0122 16:59:08.791079 64041 net.cpp:94] Creating Layer downsample_4/3x3_s2
I0122 16:59:08.791081 64041 net.cpp:435] downsample_4/3x3_s2 <- inception_3a/output_inception_3a/output_0_split_0
I0122 16:59:08.791087 64041 net.cpp:409] downsample_4/3x3_s2 -> downsample_4/3x3_s2
I0122 16:59:08.791618 64041 net.cpp:144] Setting up downsample_4/3x3_s2
I0122 16:59:08.791626 64041 net.cpp:151] Top shape: 50 80 16 16 (1024000)
I0122 16:59:08.791630 64041 net.cpp:159] Memory required for data: 279962600
I0122 16:59:08.791635 64041 layer_factory.hpp:77] Creating layer downsample_4/3x3_s2/bn1
I0122 16:59:08.791642 64041 net.cpp:94] Creating Layer downsample_4/3x3_s2/bn1
I0122 16:59:08.791647 64041 net.cpp:435] downsample_4/3x3_s2/bn1 <- downsample_4/3x3_s2
I0122 16:59:08.791652 64041 net.cpp:396] downsample_4/3x3_s2/bn1 -> downsample_4/3x3_s2 (in-place)
I0122 16:59:08.792374 64041 net.cpp:144] Setting up downsample_4/3x3_s2/bn1
I0122 16:59:08.792381 64041 net.cpp:151] Top shape: 50 80 16 16 (1024000)
I0122 16:59:08.792383 64041 net.cpp:159] Memory required for data: 284058600
I0122 16:59:08.792392 64041 layer_factory.hpp:77] Creating layer downsample_4/3x3_s2/relu1
I0122 16:59:08.792399 64041 net.cpp:94] Creating Layer downsample_4/3x3_s2/relu1
I0122 16:59:08.792402 64041 net.cpp:435] downsample_4/3x3_s2/relu1 <- downsample_4/3x3_s2
I0122 16:59:08.792407 64041 net.cpp:396] downsample_4/3x3_s2/relu1 -> downsample_4/3x3_s2 (in-place)
I0122 16:59:08.792412 64041 net.cpp:144] Setting up downsample_4/3x3_s2/relu1
I0122 16:59:08.792418 64041 net.cpp:151] Top shape: 50 80 16 16 (1024000)
I0122 16:59:08.792420 64041 net.cpp:159] Memory required for data: 288154600
I0122 16:59:08.792423 64041 layer_factory.hpp:77] Creating layer downsample_4/pool_s2
I0122 16:59:08.792429 64041 net.cpp:94] Creating Layer downsample_4/pool_s2
I0122 16:59:08.792433 64041 net.cpp:435] downsample_4/pool_s2 <- inception_3a/output_inception_3a/output_0_split_1
I0122 16:59:08.792438 64041 net.cpp:409] downsample_4/pool_s2 -> downsample_4/pool_s2
I0122 16:59:08.792469 64041 net.cpp:144] Setting up downsample_4/pool_s2
I0122 16:59:08.792475 64041 net.cpp:151] Top shape: 50 80 16 16 (1024000)
I0122 16:59:08.792480 64041 net.cpp:159] Memory required for data: 292250600
I0122 16:59:08.792484 64041 layer_factory.hpp:77] Creating layer downsample_4/output
I0122 16:59:08.792487 64041 net.cpp:94] Creating Layer downsample_4/output
I0122 16:59:08.792490 64041 net.cpp:435] downsample_4/output <- downsample_4/3x3_s2
I0122 16:59:08.792495 64041 net.cpp:435] downsample_4/output <- downsample_4/pool_s2
I0122 16:59:08.792498 64041 net.cpp:409] downsample_4/output -> downsample_4/output
I0122 16:59:08.792556 64041 net.cpp:144] Setting up downsample_4/output
I0122 16:59:08.792560 64041 net.cpp:151] Top shape: 50 160 16 16 (2048000)
I0122 16:59:08.792564 64041 net.cpp:159] Memory required for data: 300442600
I0122 16:59:08.792567 64041 layer_factory.hpp:77] Creating layer downsample_4/output_downsample_4/output_0_split
I0122 16:59:08.792572 64041 net.cpp:94] Creating Layer downsample_4/output_downsample_4/output_0_split
I0122 16:59:08.792574 64041 net.cpp:435] downsample_4/output_downsample_4/output_0_split <- downsample_4/output
I0122 16:59:08.792579 64041 net.cpp:409] downsample_4/output_downsample_4/output_0_split -> downsample_4/output_downsample_4/output_0_split_0
I0122 16:59:08.792585 64041 net.cpp:409] downsample_4/output_downsample_4/output_0_split -> downsample_4/output_downsample_4/output_0_split_1
I0122 16:59:08.792611 64041 net.cpp:144] Setting up downsample_4/output_downsample_4/output_0_split
I0122 16:59:08.792618 64041 net.cpp:151] Top shape: 50 160 16 16 (2048000)
I0122 16:59:08.792624 64041 net.cpp:151] Top shape: 50 160 16 16 (2048000)
I0122 16:59:08.792636 64041 net.cpp:159] Memory required for data: 316826600
I0122 16:59:08.792645 64041 layer_factory.hpp:77] Creating layer inception_5a/1x1
I0122 16:59:08.792652 64041 net.cpp:94] Creating Layer inception_5a/1x1
I0122 16:59:08.792656 64041 net.cpp:435] inception_5a/1x1 <- downsample_4/output_downsample_4/output_0_split_0
I0122 16:59:08.792662 64041 net.cpp:409] inception_5a/1x1 -> inception_5a/1x1
I0122 16:59:08.792978 64041 net.cpp:144] Setting up inception_5a/1x1
I0122 16:59:08.792984 64041 net.cpp:151] Top shape: 50 112 16 16 (1433600)
I0122 16:59:08.792989 64041 net.cpp:159] Memory required for data: 322561000
I0122 16:59:08.792994 64041 layer_factory.hpp:77] Creating layer inception_5a/1x1/bn1
I0122 16:59:08.792999 64041 net.cpp:94] Creating Layer inception_5a/1x1/bn1
I0122 16:59:08.793004 64041 net.cpp:435] inception_5a/1x1/bn1 <- inception_5a/1x1
I0122 16:59:08.793010 64041 net.cpp:396] inception_5a/1x1/bn1 -> inception_5a/1x1 (in-place)
I0122 16:59:08.793694 64041 net.cpp:144] Setting up inception_5a/1x1/bn1
I0122 16:59:08.793700 64041 net.cpp:151] Top shape: 50 112 16 16 (1433600)
I0122 16:59:08.793704 64041 net.cpp:159] Memory required for data: 328295400
I0122 16:59:08.793714 64041 layer_factory.hpp:77] Creating layer inception_5a/1x1/relu1
I0122 16:59:08.793718 64041 net.cpp:94] Creating Layer inception_5a/1x1/relu1
I0122 16:59:08.793721 64041 net.cpp:435] inception_5a/1x1/relu1 <- inception_5a/1x1
I0122 16:59:08.793725 64041 net.cpp:396] inception_5a/1x1/relu1 -> inception_5a/1x1 (in-place)
I0122 16:59:08.793731 64041 net.cpp:144] Setting up inception_5a/1x1/relu1
I0122 16:59:08.793735 64041 net.cpp:151] Top shape: 50 112 16 16 (1433600)
I0122 16:59:08.793738 64041 net.cpp:159] Memory required for data: 334029800
I0122 16:59:08.793742 64041 layer_factory.hpp:77] Creating layer inception_5a/3x3
I0122 16:59:08.793751 64041 net.cpp:94] Creating Layer inception_5a/3x3
I0122 16:59:08.793756 64041 net.cpp:435] inception_5a/3x3 <- downsample_4/output_downsample_4/output_0_split_1
I0122 16:59:08.793761 64041 net.cpp:409] inception_5a/3x3 -> inception_5a/3x3
I0122 16:59:08.794416 64041 net.cpp:144] Setting up inception_5a/3x3
I0122 16:59:08.794425 64041 net.cpp:151] Top shape: 50 48 16 16 (614400)
I0122 16:59:08.794428 64041 net.cpp:159] Memory required for data: 336487400
I0122 16:59:08.794433 64041 layer_factory.hpp:77] Creating layer inception_5a/3x3/bn1
I0122 16:59:08.794441 64041 net.cpp:94] Creating Layer inception_5a/3x3/bn1
I0122 16:59:08.794447 64041 net.cpp:435] inception_5a/3x3/bn1 <- inception_5a/3x3
I0122 16:59:08.794452 64041 net.cpp:396] inception_5a/3x3/bn1 -> inception_5a/3x3 (in-place)
I0122 16:59:08.795142 64041 net.cpp:144] Setting up inception_5a/3x3/bn1
I0122 16:59:08.795148 64041 net.cpp:151] Top shape: 50 48 16 16 (614400)
I0122 16:59:08.795151 64041 net.cpp:159] Memory required for data: 338945000
I0122 16:59:08.795159 64041 layer_factory.hpp:77] Creating layer inception_5a/3x3/relu1
I0122 16:59:08.795164 64041 net.cpp:94] Creating Layer inception_5a/3x3/relu1
I0122 16:59:08.795167 64041 net.cpp:435] inception_5a/3x3/relu1 <- inception_5a/3x3
I0122 16:59:08.795172 64041 net.cpp:396] inception_5a/3x3/relu1 -> inception_5a/3x3 (in-place)
I0122 16:59:08.795178 64041 net.cpp:144] Setting up inception_5a/3x3/relu1
I0122 16:59:08.795182 64041 net.cpp:151] Top shape: 50 48 16 16 (614400)
I0122 16:59:08.795186 64041 net.cpp:159] Memory required for data: 341402600
I0122 16:59:08.795189 64041 layer_factory.hpp:77] Creating layer inception_5a/output
I0122 16:59:08.795194 64041 net.cpp:94] Creating Layer inception_5a/output
I0122 16:59:08.795197 64041 net.cpp:435] inception_5a/output <- inception_5a/1x1
I0122 16:59:08.795200 64041 net.cpp:435] inception_5a/output <- inception_5a/3x3
I0122 16:59:08.795207 64041 net.cpp:409] inception_5a/output -> inception_5a/output
I0122 16:59:08.795223 64041 net.cpp:144] Setting up inception_5a/output
I0122 16:59:08.795228 64041 net.cpp:151] Top shape: 50 160 16 16 (2048000)
I0122 16:59:08.795231 64041 net.cpp:159] Memory required for data: 349594600
I0122 16:59:08.795245 64041 layer_factory.hpp:77] Creating layer inception_5a/output_inception_5a/output_0_split
I0122 16:59:08.795250 64041 net.cpp:94] Creating Layer inception_5a/output_inception_5a/output_0_split
I0122 16:59:08.795253 64041 net.cpp:435] inception_5a/output_inception_5a/output_0_split <- inception_5a/output
I0122 16:59:08.795258 64041 net.cpp:409] inception_5a/output_inception_5a/output_0_split -> inception_5a/output_inception_5a/output_0_split_0
I0122 16:59:08.795266 64041 net.cpp:409] inception_5a/output_inception_5a/output_0_split -> inception_5a/output_inception_5a/output_0_split_1
I0122 16:59:08.795328 64041 net.cpp:144] Setting up inception_5a/output_inception_5a/output_0_split
I0122 16:59:08.795333 64041 net.cpp:151] Top shape: 50 160 16 16 (2048000)
I0122 16:59:08.795337 64041 net.cpp:151] Top shape: 50 160 16 16 (2048000)
I0122 16:59:08.795341 64041 net.cpp:159] Memory required for data: 365978600
I0122 16:59:08.795344 64041 layer_factory.hpp:77] Creating layer inception_6a/1x1
I0122 16:59:08.795352 64041 net.cpp:94] Creating Layer inception_6a/1x1
I0122 16:59:08.795356 64041 net.cpp:435] inception_6a/1x1 <- inception_5a/output_inception_5a/output_0_split_0
I0122 16:59:08.795362 64041 net.cpp:409] inception_6a/1x1 -> inception_6a/1x1
I0122 16:59:08.796360 64041 net.cpp:144] Setting up inception_6a/1x1
I0122 16:59:08.796371 64041 net.cpp:151] Top shape: 50 96 16 16 (1228800)
I0122 16:59:08.796375 64041 net.cpp:159] Memory required for data: 370893800
I0122 16:59:08.796380 64041 layer_factory.hpp:77] Creating layer inception_6a/1x1/bn1
I0122 16:59:08.796389 64041 net.cpp:94] Creating Layer inception_6a/1x1/bn1
I0122 16:59:08.796394 64041 net.cpp:435] inception_6a/1x1/bn1 <- inception_6a/1x1
I0122 16:59:08.796401 64041 net.cpp:396] inception_6a/1x1/bn1 -> inception_6a/1x1 (in-place)
I0122 16:59:08.797013 64041 net.cpp:144] Setting up inception_6a/1x1/bn1
I0122 16:59:08.797020 64041 net.cpp:151] Top shape: 50 96 16 16 (1228800)
I0122 16:59:08.797024 64041 net.cpp:159] Memory required for data: 375809000
I0122 16:59:08.797031 64041 layer_factory.hpp:77] Creating layer inception_6a/1x1/relu1
I0122 16:59:08.797039 64041 net.cpp:94] Creating Layer inception_6a/1x1/relu1
I0122 16:59:08.797041 64041 net.cpp:435] inception_6a/1x1/relu1 <- inception_6a/1x1
I0122 16:59:08.797046 64041 net.cpp:396] inception_6a/1x1/relu1 -> inception_6a/1x1 (in-place)
I0122 16:59:08.797052 64041 net.cpp:144] Setting up inception_6a/1x1/relu1
I0122 16:59:08.797056 64041 net.cpp:151] Top shape: 50 96 16 16 (1228800)
I0122 16:59:08.797060 64041 net.cpp:159] Memory required for data: 380724200
I0122 16:59:08.797061 64041 layer_factory.hpp:77] Creating layer inception_6a/3x3
I0122 16:59:08.797070 64041 net.cpp:94] Creating Layer inception_6a/3x3
I0122 16:59:08.797075 64041 net.cpp:435] inception_6a/3x3 <- inception_5a/output_inception_5a/output_0_split_1
I0122 16:59:08.797080 64041 net.cpp:409] inception_6a/3x3 -> inception_6a/3x3
I0122 16:59:08.798454 64041 net.cpp:144] Setting up inception_6a/3x3
I0122 16:59:08.798466 64041 net.cpp:151] Top shape: 50 64 16 16 (819200)
I0122 16:59:08.798470 64041 net.cpp:159] Memory required for data: 384001000
I0122 16:59:08.798481 64041 layer_factory.hpp:77] Creating layer inception_6a/3x3/bn1
I0122 16:59:08.798491 64041 net.cpp:94] Creating Layer inception_6a/3x3/bn1
I0122 16:59:08.798494 64041 net.cpp:435] inception_6a/3x3/bn1 <- inception_6a/3x3
I0122 16:59:08.798501 64041 net.cpp:396] inception_6a/3x3/bn1 -> inception_6a/3x3 (in-place)
I0122 16:59:08.799118 64041 net.cpp:144] Setting up inception_6a/3x3/bn1
I0122 16:59:08.799124 64041 net.cpp:151] Top shape: 50 64 16 16 (819200)
I0122 16:59:08.799126 64041 net.cpp:159] Memory required for data: 387277800
I0122 16:59:08.799135 64041 layer_factory.hpp:77] Creating layer inception_6a/3x3/relu1
I0122 16:59:08.799142 64041 net.cpp:94] Creating Layer inception_6a/3x3/relu1
I0122 16:59:08.799145 64041 net.cpp:435] inception_6a/3x3/relu1 <- inception_6a/3x3
I0122 16:59:08.799150 64041 net.cpp:396] inception_6a/3x3/relu1 -> inception_6a/3x3 (in-place)
I0122 16:59:08.799170 64041 net.cpp:144] Setting up inception_6a/3x3/relu1
I0122 16:59:08.799173 64041 net.cpp:151] Top shape: 50 64 16 16 (819200)
I0122 16:59:08.799175 64041 net.cpp:159] Memory required for data: 390554600
I0122 16:59:08.799178 64041 layer_factory.hpp:77] Creating layer inception_6a/output
I0122 16:59:08.799183 64041 net.cpp:94] Creating Layer inception_6a/output
I0122 16:59:08.799186 64041 net.cpp:435] inception_6a/output <- inception_6a/1x1
I0122 16:59:08.799190 64041 net.cpp:435] inception_6a/output <- inception_6a/3x3
I0122 16:59:08.799194 64041 net.cpp:409] inception_6a/output -> inception_6a/output
I0122 16:59:08.799212 64041 net.cpp:144] Setting up inception_6a/output
I0122 16:59:08.799217 64041 net.cpp:151] Top shape: 50 160 16 16 (2048000)
I0122 16:59:08.799221 64041 net.cpp:159] Memory required for data: 398746600
I0122 16:59:08.799223 64041 layer_factory.hpp:77] Creating layer inception_6a/output_inception_6a/output_0_split
I0122 16:59:08.799228 64041 net.cpp:94] Creating Layer inception_6a/output_inception_6a/output_0_split
I0122 16:59:08.799232 64041 net.cpp:435] inception_6a/output_inception_6a/output_0_split <- inception_6a/output
I0122 16:59:08.799235 64041 net.cpp:409] inception_6a/output_inception_6a/output_0_split -> inception_6a/output_inception_6a/output_0_split_0
I0122 16:59:08.799242 64041 net.cpp:409] inception_6a/output_inception_6a/output_0_split -> inception_6a/output_inception_6a/output_0_split_1
I0122 16:59:08.799270 64041 net.cpp:144] Setting up inception_6a/output_inception_6a/output_0_split
I0122 16:59:08.799276 64041 net.cpp:151] Top shape: 50 160 16 16 (2048000)
I0122 16:59:08.799280 64041 net.cpp:151] Top shape: 50 160 16 16 (2048000)
I0122 16:59:08.799283 64041 net.cpp:159] Memory required for data: 415130600
I0122 16:59:08.799286 64041 layer_factory.hpp:77] Creating layer inception_7a/1x1
I0122 16:59:08.799294 64041 net.cpp:94] Creating Layer inception_7a/1x1
I0122 16:59:08.799299 64041 net.cpp:435] inception_7a/1x1 <- inception_6a/output_inception_6a/output_0_split_0
I0122 16:59:08.799305 64041 net.cpp:409] inception_7a/1x1 -> inception_7a/1x1
I0122 16:59:08.799585 64041 net.cpp:144] Setting up inception_7a/1x1
I0122 16:59:08.799592 64041 net.cpp:151] Top shape: 50 80 16 16 (1024000)
I0122 16:59:08.799594 64041 net.cpp:159] Memory required for data: 419226600
I0122 16:59:08.799599 64041 layer_factory.hpp:77] Creating layer inception_7a/1x1/bn1
I0122 16:59:08.799605 64041 net.cpp:94] Creating Layer inception_7a/1x1/bn1
I0122 16:59:08.799608 64041 net.cpp:435] inception_7a/1x1/bn1 <- inception_7a/1x1
I0122 16:59:08.799614 64041 net.cpp:396] inception_7a/1x1/bn1 -> inception_7a/1x1 (in-place)
I0122 16:59:08.800216 64041 net.cpp:144] Setting up inception_7a/1x1/bn1
I0122 16:59:08.800223 64041 net.cpp:151] Top shape: 50 80 16 16 (1024000)
I0122 16:59:08.800226 64041 net.cpp:159] Memory required for data: 423322600
I0122 16:59:08.800235 64041 layer_factory.hpp:77] Creating layer inception_7a/1x1/relu1
I0122 16:59:08.800238 64041 net.cpp:94] Creating Layer inception_7a/1x1/relu1
I0122 16:59:08.800242 64041 net.cpp:435] inception_7a/1x1/relu1 <- inception_7a/1x1
I0122 16:59:08.800246 64041 net.cpp:396] inception_7a/1x1/relu1 -> inception_7a/1x1 (in-place)
I0122 16:59:08.800252 64041 net.cpp:144] Setting up inception_7a/1x1/relu1
I0122 16:59:08.800256 64041 net.cpp:151] Top shape: 50 80 16 16 (1024000)
I0122 16:59:08.800259 64041 net.cpp:159] Memory required for data: 427418600
I0122 16:59:08.800262 64041 layer_factory.hpp:77] Creating layer inception_7a/3x3
I0122 16:59:08.800269 64041 net.cpp:94] Creating Layer inception_7a/3x3
I0122 16:59:08.800272 64041 net.cpp:435] inception_7a/3x3 <- inception_6a/output_inception_6a/output_0_split_1
I0122 16:59:08.800278 64041 net.cpp:409] inception_7a/3x3 -> inception_7a/3x3
I0122 16:59:08.801133 64041 net.cpp:144] Setting up inception_7a/3x3
I0122 16:59:08.801143 64041 net.cpp:151] Top shape: 50 80 16 16 (1024000)
I0122 16:59:08.801146 64041 net.cpp:159] Memory required for data: 431514600
I0122 16:59:08.801162 64041 layer_factory.hpp:77] Creating layer inception_7a/3x3/bn1
I0122 16:59:08.801172 64041 net.cpp:94] Creating Layer inception_7a/3x3/bn1
I0122 16:59:08.801177 64041 net.cpp:435] inception_7a/3x3/bn1 <- inception_7a/3x3
I0122 16:59:08.801182 64041 net.cpp:396] inception_7a/3x3/bn1 -> inception_7a/3x3 (in-place)
I0122 16:59:08.801797 64041 net.cpp:144] Setting up inception_7a/3x3/bn1
I0122 16:59:08.801805 64041 net.cpp:151] Top shape: 50 80 16 16 (1024000)
I0122 16:59:08.801807 64041 net.cpp:159] Memory required for data: 435610600
I0122 16:59:08.801815 64041 layer_factory.hpp:77] Creating layer inception_7a/3x3/relu1
I0122 16:59:08.801820 64041 net.cpp:94] Creating Layer inception_7a/3x3/relu1
I0122 16:59:08.801825 64041 net.cpp:435] inception_7a/3x3/relu1 <- inception_7a/3x3
I0122 16:59:08.801828 64041 net.cpp:396] inception_7a/3x3/relu1 -> inception_7a/3x3 (in-place)
I0122 16:59:08.801834 64041 net.cpp:144] Setting up inception_7a/3x3/relu1
I0122 16:59:08.801838 64041 net.cpp:151] Top shape: 50 80 16 16 (1024000)
I0122 16:59:08.801841 64041 net.cpp:159] Memory required for data: 439706600
I0122 16:59:08.801843 64041 layer_factory.hpp:77] Creating layer inception_7a/output
I0122 16:59:08.801848 64041 net.cpp:94] Creating Layer inception_7a/output
I0122 16:59:08.801851 64041 net.cpp:435] inception_7a/output <- inception_7a/1x1
I0122 16:59:08.801856 64041 net.cpp:435] inception_7a/output <- inception_7a/3x3
I0122 16:59:08.801859 64041 net.cpp:409] inception_7a/output -> inception_7a/output
I0122 16:59:08.801877 64041 net.cpp:144] Setting up inception_7a/output
I0122 16:59:08.801882 64041 net.cpp:151] Top shape: 50 160 16 16 (2048000)
I0122 16:59:08.801884 64041 net.cpp:159] Memory required for data: 447898600
I0122 16:59:08.801887 64041 layer_factory.hpp:77] Creating layer inception_7a/output_inception_7a/output_0_split
I0122 16:59:08.801892 64041 net.cpp:94] Creating Layer inception_7a/output_inception_7a/output_0_split
I0122 16:59:08.801895 64041 net.cpp:435] inception_7a/output_inception_7a/output_0_split <- inception_7a/output
I0122 16:59:08.801900 64041 net.cpp:409] inception_7a/output_inception_7a/output_0_split -> inception_7a/output_inception_7a/output_0_split_0
I0122 16:59:08.801921 64041 net.cpp:409] inception_7a/output_inception_7a/output_0_split -> inception_7a/output_inception_7a/output_0_split_1
I0122 16:59:08.801947 64041 net.cpp:144] Setting up inception_7a/output_inception_7a/output_0_split
I0122 16:59:08.801952 64041 net.cpp:151] Top shape: 50 160 16 16 (2048000)
I0122 16:59:08.801956 64041 net.cpp:151] Top shape: 50 160 16 16 (2048000)
I0122 16:59:08.801959 64041 net.cpp:159] Memory required for data: 464282600
I0122 16:59:08.801961 64041 layer_factory.hpp:77] Creating layer inception_8a/1x1
I0122 16:59:08.801970 64041 net.cpp:94] Creating Layer inception_8a/1x1
I0122 16:59:08.801972 64041 net.cpp:435] inception_8a/1x1 <- inception_7a/output_inception_7a/output_0_split_0
I0122 16:59:08.801977 64041 net.cpp:409] inception_8a/1x1 -> inception_8a/1x1
I0122 16:59:08.802229 64041 net.cpp:144] Setting up inception_8a/1x1
I0122 16:59:08.802237 64041 net.cpp:151] Top shape: 50 48 16 16 (614400)
I0122 16:59:08.802240 64041 net.cpp:159] Memory required for data: 466740200
I0122 16:59:08.802245 64041 layer_factory.hpp:77] Creating layer inception_8a/1x1/bn1
I0122 16:59:08.802251 64041 net.cpp:94] Creating Layer inception_8a/1x1/bn1
I0122 16:59:08.802255 64041 net.cpp:435] inception_8a/1x1/bn1 <- inception_8a/1x1
I0122 16:59:08.802260 64041 net.cpp:396] inception_8a/1x1/bn1 -> inception_8a/1x1 (in-place)
I0122 16:59:08.802875 64041 net.cpp:144] Setting up inception_8a/1x1/bn1
I0122 16:59:08.802881 64041 net.cpp:151] Top shape: 50 48 16 16 (614400)
I0122 16:59:08.802884 64041 net.cpp:159] Memory required for data: 469197800
I0122 16:59:08.802892 64041 layer_factory.hpp:77] Creating layer inception_8a/1x1/relu1
I0122 16:59:08.802896 64041 net.cpp:94] Creating Layer inception_8a/1x1/relu1
I0122 16:59:08.802899 64041 net.cpp:435] inception_8a/1x1/relu1 <- inception_8a/1x1
I0122 16:59:08.802904 64041 net.cpp:396] inception_8a/1x1/relu1 -> inception_8a/1x1 (in-place)
I0122 16:59:08.802922 64041 net.cpp:144] Setting up inception_8a/1x1/relu1
I0122 16:59:08.802925 64041 net.cpp:151] Top shape: 50 48 16 16 (614400)
I0122 16:59:08.802927 64041 net.cpp:159] Memory required for data: 471655400
I0122 16:59:08.802932 64041 layer_factory.hpp:77] Creating layer inception_8a/3x3
I0122 16:59:08.802938 64041 net.cpp:94] Creating Layer inception_8a/3x3
I0122 16:59:08.802942 64041 net.cpp:435] inception_8a/3x3 <- inception_7a/output_inception_7a/output_0_split_1
I0122 16:59:08.802948 64041 net.cpp:409] inception_8a/3x3 -> inception_8a/3x3
I0122 16:59:08.804577 64041 net.cpp:144] Setting up inception_8a/3x3
I0122 16:59:08.804590 64041 net.cpp:151] Top shape: 50 96 16 16 (1228800)
I0122 16:59:08.804592 64041 net.cpp:159] Memory required for data: 476570600
I0122 16:59:08.804599 64041 layer_factory.hpp:77] Creating layer inception_8a/3x3/bn1
I0122 16:59:08.804622 64041 net.cpp:94] Creating Layer inception_8a/3x3/bn1
I0122 16:59:08.804627 64041 net.cpp:435] inception_8a/3x3/bn1 <- inception_8a/3x3
I0122 16:59:08.804632 64041 net.cpp:396] inception_8a/3x3/bn1 -> inception_8a/3x3 (in-place)
I0122 16:59:08.805259 64041 net.cpp:144] Setting up inception_8a/3x3/bn1
I0122 16:59:08.805266 64041 net.cpp:151] Top shape: 50 96 16 16 (1228800)
I0122 16:59:08.805270 64041 net.cpp:159] Memory required for data: 481485800
I0122 16:59:08.805279 64041 layer_factory.hpp:77] Creating layer inception_8a/3x3/relu1
I0122 16:59:08.805284 64041 net.cpp:94] Creating Layer inception_8a/3x3/relu1
I0122 16:59:08.805287 64041 net.cpp:435] inception_8a/3x3/relu1 <- inception_8a/3x3
I0122 16:59:08.805291 64041 net.cpp:396] inception_8a/3x3/relu1 -> inception_8a/3x3 (in-place)
I0122 16:59:08.805297 64041 net.cpp:144] Setting up inception_8a/3x3/relu1
I0122 16:59:08.805301 64041 net.cpp:151] Top shape: 50 96 16 16 (1228800)
I0122 16:59:08.805305 64041 net.cpp:159] Memory required for data: 486401000
I0122 16:59:08.805307 64041 layer_factory.hpp:77] Creating layer inception_8a/output
I0122 16:59:08.805311 64041 net.cpp:94] Creating Layer inception_8a/output
I0122 16:59:08.805315 64041 net.cpp:435] inception_8a/output <- inception_8a/1x1
I0122 16:59:08.805320 64041 net.cpp:435] inception_8a/output <- inception_8a/3x3
I0122 16:59:08.805323 64041 net.cpp:409] inception_8a/output -> inception_8a/output
I0122 16:59:08.805341 64041 net.cpp:144] Setting up inception_8a/output
I0122 16:59:08.805346 64041 net.cpp:151] Top shape: 50 144 16 16 (1843200)
I0122 16:59:08.805349 64041 net.cpp:159] Memory required for data: 493773800
I0122 16:59:08.805351 64041 layer_factory.hpp:77] Creating layer inception_8a/output_inception_8a/output_0_split
I0122 16:59:08.805356 64041 net.cpp:94] Creating Layer inception_8a/output_inception_8a/output_0_split
I0122 16:59:08.805359 64041 net.cpp:435] inception_8a/output_inception_8a/output_0_split <- inception_8a/output
I0122 16:59:08.805364 64041 net.cpp:409] inception_8a/output_inception_8a/output_0_split -> inception_8a/output_inception_8a/output_0_split_0
I0122 16:59:08.805371 64041 net.cpp:409] inception_8a/output_inception_8a/output_0_split -> inception_8a/output_inception_8a/output_0_split_1
I0122 16:59:08.805395 64041 net.cpp:144] Setting up inception_8a/output_inception_8a/output_0_split
I0122 16:59:08.805400 64041 net.cpp:151] Top shape: 50 144 16 16 (1843200)
I0122 16:59:08.805405 64041 net.cpp:151] Top shape: 50 144 16 16 (1843200)
I0122 16:59:08.805408 64041 net.cpp:159] Memory required for data: 508519400
I0122 16:59:08.805410 64041 layer_factory.hpp:77] Creating layer downsample_9/3x3_s2
I0122 16:59:08.805418 64041 net.cpp:94] Creating Layer downsample_9/3x3_s2
I0122 16:59:08.805423 64041 net.cpp:435] downsample_9/3x3_s2 <- inception_8a/output_inception_8a/output_0_split_0
I0122 16:59:08.805429 64041 net.cpp:409] downsample_9/3x3_s2 -> downsample_9/3x3_s2
I0122 16:59:08.810297 64041 net.cpp:144] Setting up downsample_9/3x3_s2
I0122 16:59:08.810307 64041 net.cpp:151] Top shape: 50 96 8 8 (307200)
I0122 16:59:08.810309 64041 net.cpp:159] Memory required for data: 509748200
I0122 16:59:08.810324 64041 layer_factory.hpp:77] Creating layer downsample_9/3x3_s2/bn1
I0122 16:59:08.810331 64041 net.cpp:94] Creating Layer downsample_9/3x3_s2/bn1
I0122 16:59:08.810334 64041 net.cpp:435] downsample_9/3x3_s2/bn1 <- downsample_9/3x3_s2
I0122 16:59:08.810340 64041 net.cpp:396] downsample_9/3x3_s2/bn1 -> downsample_9/3x3_s2 (in-place)
I0122 16:59:08.810999 64041 net.cpp:144] Setting up downsample_9/3x3_s2/bn1
I0122 16:59:08.811007 64041 net.cpp:151] Top shape: 50 96 8 8 (307200)
I0122 16:59:08.811022 64041 net.cpp:159] Memory required for data: 510977000
I0122 16:59:08.811030 64041 layer_factory.hpp:77] Creating layer downsample_9/3x3_s2/relu1
I0122 16:59:08.811038 64041 net.cpp:94] Creating Layer downsample_9/3x3_s2/relu1
I0122 16:59:08.811039 64041 net.cpp:435] downsample_9/3x3_s2/relu1 <- downsample_9/3x3_s2
I0122 16:59:08.811044 64041 net.cpp:396] downsample_9/3x3_s2/relu1 -> downsample_9/3x3_s2 (in-place)
I0122 16:59:08.811050 64041 net.cpp:144] Setting up downsample_9/3x3_s2/relu1
I0122 16:59:08.811072 64041 net.cpp:151] Top shape: 50 96 8 8 (307200)
I0122 16:59:08.811074 64041 net.cpp:159] Memory required for data: 512205800
I0122 16:59:08.811077 64041 layer_factory.hpp:77] Creating layer downsample_9/pool_s2
I0122 16:59:08.811084 64041 net.cpp:94] Creating Layer downsample_9/pool_s2
I0122 16:59:08.811087 64041 net.cpp:435] downsample_9/pool_s2 <- inception_8a/output_inception_8a/output_0_split_1
I0122 16:59:08.811092 64041 net.cpp:409] downsample_9/pool_s2 -> downsample_9/pool_s2
I0122 16:59:08.811121 64041 net.cpp:144] Setting up downsample_9/pool_s2
I0122 16:59:08.811126 64041 net.cpp:151] Top shape: 50 144 8 8 (460800)
I0122 16:59:08.811130 64041 net.cpp:159] Memory required for data: 514049000
I0122 16:59:08.811132 64041 layer_factory.hpp:77] Creating layer downsample_9/output
I0122 16:59:08.811139 64041 net.cpp:94] Creating Layer downsample_9/output
I0122 16:59:08.811146 64041 net.cpp:435] downsample_9/output <- downsample_9/3x3_s2
I0122 16:59:08.811148 64041 net.cpp:435] downsample_9/output <- downsample_9/pool_s2
I0122 16:59:08.811153 64041 net.cpp:409] downsample_9/output -> downsample_9/output
I0122 16:59:08.811169 64041 net.cpp:144] Setting up downsample_9/output
I0122 16:59:08.811175 64041 net.cpp:151] Top shape: 50 240 8 8 (768000)
I0122 16:59:08.811178 64041 net.cpp:159] Memory required for data: 517121000
I0122 16:59:08.811182 64041 layer_factory.hpp:77] Creating layer downsample_9/output_downsample_9/output_0_split
I0122 16:59:08.811187 64041 net.cpp:94] Creating Layer downsample_9/output_downsample_9/output_0_split
I0122 16:59:08.811189 64041 net.cpp:435] downsample_9/output_downsample_9/output_0_split <- downsample_9/output
I0122 16:59:08.811194 64041 net.cpp:409] downsample_9/output_downsample_9/output_0_split -> downsample_9/output_downsample_9/output_0_split_0
I0122 16:59:08.811200 64041 net.cpp:409] downsample_9/output_downsample_9/output_0_split -> downsample_9/output_downsample_9/output_0_split_1
I0122 16:59:08.811225 64041 net.cpp:144] Setting up downsample_9/output_downsample_9/output_0_split
I0122 16:59:08.811230 64041 net.cpp:151] Top shape: 50 240 8 8 (768000)
I0122 16:59:08.811234 64041 net.cpp:151] Top shape: 50 240 8 8 (768000)
I0122 16:59:08.811236 64041 net.cpp:159] Memory required for data: 523265000
I0122 16:59:08.811239 64041 layer_factory.hpp:77] Creating layer inception_10a/1x1
I0122 16:59:08.811247 64041 net.cpp:94] Creating Layer inception_10a/1x1
I0122 16:59:08.811250 64041 net.cpp:435] inception_10a/1x1 <- downsample_9/output_downsample_9/output_0_split_0
I0122 16:59:08.811255 64041 net.cpp:409] inception_10a/1x1 -> inception_10a/1x1
I0122 16:59:08.811704 64041 net.cpp:144] Setting up inception_10a/1x1
I0122 16:59:08.811712 64041 net.cpp:151] Top shape: 50 176 8 8 (563200)
I0122 16:59:08.811714 64041 net.cpp:159] Memory required for data: 525517800
I0122 16:59:08.811719 64041 layer_factory.hpp:77] Creating layer inception_10a/1x1/bn1
I0122 16:59:08.811727 64041 net.cpp:94] Creating Layer inception_10a/1x1/bn1
I0122 16:59:08.811740 64041 net.cpp:435] inception_10a/1x1/bn1 <- inception_10a/1x1
I0122 16:59:08.811748 64041 net.cpp:396] inception_10a/1x1/bn1 -> inception_10a/1x1 (in-place)
I0122 16:59:08.812372 64041 net.cpp:144] Setting up inception_10a/1x1/bn1
I0122 16:59:08.812378 64041 net.cpp:151] Top shape: 50 176 8 8 (563200)
I0122 16:59:08.812382 64041 net.cpp:159] Memory required for data: 527770600
I0122 16:59:08.812389 64041 layer_factory.hpp:77] Creating layer inception_10a/1x1/relu1
I0122 16:59:08.812394 64041 net.cpp:94] Creating Layer inception_10a/1x1/relu1
I0122 16:59:08.812397 64041 net.cpp:435] inception_10a/1x1/relu1 <- inception_10a/1x1
I0122 16:59:08.812402 64041 net.cpp:396] inception_10a/1x1/relu1 -> inception_10a/1x1 (in-place)
I0122 16:59:08.812408 64041 net.cpp:144] Setting up inception_10a/1x1/relu1
I0122 16:59:08.812412 64041 net.cpp:151] Top shape: 50 176 8 8 (563200)
I0122 16:59:08.812414 64041 net.cpp:159] Memory required for data: 530023400
I0122 16:59:08.812417 64041 layer_factory.hpp:77] Creating layer inception_10a/3x3
I0122 16:59:08.812425 64041 net.cpp:94] Creating Layer inception_10a/3x3
I0122 16:59:08.812430 64041 net.cpp:435] inception_10a/3x3 <- downsample_9/output_downsample_9/output_0_split_1
I0122 16:59:08.812436 64041 net.cpp:409] inception_10a/3x3 -> inception_10a/3x3
I0122 16:59:08.815471 64041 net.cpp:144] Setting up inception_10a/3x3
I0122 16:59:08.815485 64041 net.cpp:151] Top shape: 50 160 8 8 (512000)
I0122 16:59:08.815487 64041 net.cpp:159] Memory required for data: 532071400
I0122 16:59:08.815493 64041 layer_factory.hpp:77] Creating layer inception_10a/3x3/bn1
I0122 16:59:08.815501 64041 net.cpp:94] Creating Layer inception_10a/3x3/bn1
I0122 16:59:08.815505 64041 net.cpp:435] inception_10a/3x3/bn1 <- inception_10a/3x3
I0122 16:59:08.815510 64041 net.cpp:396] inception_10a/3x3/bn1 -> inception_10a/3x3 (in-place)
I0122 16:59:08.816133 64041 net.cpp:144] Setting up inception_10a/3x3/bn1
I0122 16:59:08.816141 64041 net.cpp:151] Top shape: 50 160 8 8 (512000)
I0122 16:59:08.816144 64041 net.cpp:159] Memory required for data: 534119400
I0122 16:59:08.816152 64041 layer_factory.hpp:77] Creating layer inception_10a/3x3/relu1
I0122 16:59:08.816157 64041 net.cpp:94] Creating Layer inception_10a/3x3/relu1
I0122 16:59:08.816161 64041 net.cpp:435] inception_10a/3x3/relu1 <- inception_10a/3x3
I0122 16:59:08.816165 64041 net.cpp:396] inception_10a/3x3/relu1 -> inception_10a/3x3 (in-place)
I0122 16:59:08.816172 64041 net.cpp:144] Setting up inception_10a/3x3/relu1
I0122 16:59:08.816175 64041 net.cpp:151] Top shape: 50 160 8 8 (512000)
I0122 16:59:08.816179 64041 net.cpp:159] Memory required for data: 536167400
I0122 16:59:08.816181 64041 layer_factory.hpp:77] Creating layer inception_10a/output
I0122 16:59:08.816186 64041 net.cpp:94] Creating Layer inception_10a/output
I0122 16:59:08.816190 64041 net.cpp:435] inception_10a/output <- inception_10a/1x1
I0122 16:59:08.816193 64041 net.cpp:435] inception_10a/output <- inception_10a/3x3
I0122 16:59:08.816197 64041 net.cpp:409] inception_10a/output -> inception_10a/output
I0122 16:59:08.816215 64041 net.cpp:144] Setting up inception_10a/output
I0122 16:59:08.816220 64041 net.cpp:151] Top shape: 50 336 8 8 (1075200)
I0122 16:59:08.816224 64041 net.cpp:159] Memory required for data: 540468200
I0122 16:59:08.816227 64041 layer_factory.hpp:77] Creating layer inception_10a/output_inception_10a/output_0_split
I0122 16:59:08.816232 64041 net.cpp:94] Creating Layer inception_10a/output_inception_10a/output_0_split
I0122 16:59:08.816236 64041 net.cpp:435] inception_10a/output_inception_10a/output_0_split <- inception_10a/output
I0122 16:59:08.816241 64041 net.cpp:409] inception_10a/output_inception_10a/output_0_split -> inception_10a/output_inception_10a/output_0_split_0
I0122 16:59:08.816246 64041 net.cpp:409] inception_10a/output_inception_10a/output_0_split -> inception_10a/output_inception_10a/output_0_split_1
I0122 16:59:08.816270 64041 net.cpp:144] Setting up inception_10a/output_inception_10a/output_0_split
I0122 16:59:08.816277 64041 net.cpp:151] Top shape: 50 336 8 8 (1075200)
I0122 16:59:08.816292 64041 net.cpp:151] Top shape: 50 336 8 8 (1075200)
I0122 16:59:08.816294 64041 net.cpp:159] Memory required for data: 549069800
I0122 16:59:08.816296 64041 layer_factory.hpp:77] Creating layer inception_11a/1x1
I0122 16:59:08.816304 64041 net.cpp:94] Creating Layer inception_11a/1x1
I0122 16:59:08.816310 64041 net.cpp:435] inception_11a/1x1 <- inception_10a/output_inception_10a/output_0_split_0
I0122 16:59:08.816315 64041 net.cpp:409] inception_11a/1x1 -> inception_11a/1x1
I0122 16:59:08.816853 64041 net.cpp:144] Setting up inception_11a/1x1
I0122 16:59:08.816860 64041 net.cpp:151] Top shape: 50 176 8 8 (563200)
I0122 16:59:08.816864 64041 net.cpp:159] Memory required for data: 551322600
I0122 16:59:08.816869 64041 layer_factory.hpp:77] Creating layer inception_11a/1x1/bn1
I0122 16:59:08.816875 64041 net.cpp:94] Creating Layer inception_11a/1x1/bn1
I0122 16:59:08.816879 64041 net.cpp:435] inception_11a/1x1/bn1 <- inception_11a/1x1
I0122 16:59:08.816885 64041 net.cpp:396] inception_11a/1x1/bn1 -> inception_11a/1x1 (in-place)
I0122 16:59:08.817499 64041 net.cpp:144] Setting up inception_11a/1x1/bn1
I0122 16:59:08.817505 64041 net.cpp:151] Top shape: 50 176 8 8 (563200)
I0122 16:59:08.817509 64041 net.cpp:159] Memory required for data: 553575400
I0122 16:59:08.817517 64041 layer_factory.hpp:77] Creating layer inception_11a/1x1/relu1
I0122 16:59:08.817523 64041 net.cpp:94] Creating Layer inception_11a/1x1/relu1
I0122 16:59:08.817525 64041 net.cpp:435] inception_11a/1x1/relu1 <- inception_11a/1x1
I0122 16:59:08.817529 64041 net.cpp:396] inception_11a/1x1/relu1 -> inception_11a/1x1 (in-place)
I0122 16:59:08.817536 64041 net.cpp:144] Setting up inception_11a/1x1/relu1
I0122 16:59:08.817539 64041 net.cpp:151] Top shape: 50 176 8 8 (563200)
I0122 16:59:08.817543 64041 net.cpp:159] Memory required for data: 555828200
I0122 16:59:08.817545 64041 layer_factory.hpp:77] Creating layer inception_11a/3x3
I0122 16:59:08.817553 64041 net.cpp:94] Creating Layer inception_11a/3x3
I0122 16:59:08.817557 64041 net.cpp:435] inception_11a/3x3 <- inception_10a/output_inception_10a/output_0_split_1
I0122 16:59:08.817564 64041 net.cpp:409] inception_11a/3x3 -> inception_11a/3x3
I0122 16:59:08.821300 64041 net.cpp:144] Setting up inception_11a/3x3
I0122 16:59:08.821316 64041 net.cpp:151] Top shape: 50 160 8 8 (512000)
I0122 16:59:08.821319 64041 net.cpp:159] Memory required for data: 557876200
I0122 16:59:08.821326 64041 layer_factory.hpp:77] Creating layer inception_11a/3x3/bn1
I0122 16:59:08.821352 64041 net.cpp:94] Creating Layer inception_11a/3x3/bn1
I0122 16:59:08.821357 64041 net.cpp:435] inception_11a/3x3/bn1 <- inception_11a/3x3
I0122 16:59:08.821367 64041 net.cpp:396] inception_11a/3x3/bn1 -> inception_11a/3x3 (in-place)
I0122 16:59:08.822005 64041 net.cpp:144] Setting up inception_11a/3x3/bn1
I0122 16:59:08.822012 64041 net.cpp:151] Top shape: 50 160 8 8 (512000)
I0122 16:59:08.822016 64041 net.cpp:159] Memory required for data: 559924200
I0122 16:59:08.822031 64041 layer_factory.hpp:77] Creating layer inception_11a/3x3/relu1
I0122 16:59:08.822037 64041 net.cpp:94] Creating Layer inception_11a/3x3/relu1
I0122 16:59:08.822041 64041 net.cpp:435] inception_11a/3x3/relu1 <- inception_11a/3x3
I0122 16:59:08.822046 64041 net.cpp:396] inception_11a/3x3/relu1 -> inception_11a/3x3 (in-place)
I0122 16:59:08.822052 64041 net.cpp:144] Setting up inception_11a/3x3/relu1
I0122 16:59:08.822057 64041 net.cpp:151] Top shape: 50 160 8 8 (512000)
I0122 16:59:08.822059 64041 net.cpp:159] Memory required for data: 561972200
I0122 16:59:08.822062 64041 layer_factory.hpp:77] Creating layer inception_11a/output
I0122 16:59:08.822067 64041 net.cpp:94] Creating Layer inception_11a/output
I0122 16:59:08.822069 64041 net.cpp:435] inception_11a/output <- inception_11a/1x1
I0122 16:59:08.822072 64041 net.cpp:435] inception_11a/output <- inception_11a/3x3
I0122 16:59:08.822078 64041 net.cpp:409] inception_11a/output -> inception_11a/output
I0122 16:59:08.822098 64041 net.cpp:144] Setting up inception_11a/output
I0122 16:59:08.822103 64041 net.cpp:151] Top shape: 50 336 8 8 (1075200)
I0122 16:59:08.822116 64041 net.cpp:159] Memory required for data: 566273000
I0122 16:59:08.822120 64041 layer_factory.hpp:77] Creating layer avg_pool_12/8x8_s1
I0122 16:59:08.822126 64041 net.cpp:94] Creating Layer avg_pool_12/8x8_s1
I0122 16:59:08.822129 64041 net.cpp:435] avg_pool_12/8x8_s1 <- inception_11a/output
I0122 16:59:08.822134 64041 net.cpp:409] avg_pool_12/8x8_s1 -> avg_pool_12/8x8_s1
I0122 16:59:08.822154 64041 net.cpp:144] Setting up avg_pool_12/8x8_s1
I0122 16:59:08.822158 64041 net.cpp:151] Top shape: 50 336 1 1 (16800)
I0122 16:59:08.822160 64041 net.cpp:159] Memory required for data: 566340200
I0122 16:59:08.822163 64041 layer_factory.hpp:77] Creating layer drop_8x8_s1
I0122 16:59:08.822170 64041 net.cpp:94] Creating Layer drop_8x8_s1
I0122 16:59:08.822171 64041 net.cpp:435] drop_8x8_s1 <- avg_pool_12/8x8_s1
I0122 16:59:08.822176 64041 net.cpp:396] drop_8x8_s1 -> avg_pool_12/8x8_s1 (in-place)
I0122 16:59:08.822192 64041 net.cpp:144] Setting up drop_8x8_s1
I0122 16:59:08.822198 64041 net.cpp:151] Top shape: 50 336 1 1 (16800)
I0122 16:59:08.822201 64041 net.cpp:159] Memory required for data: 566407400
I0122 16:59:08.822203 64041 layer_factory.hpp:77] Creating layer loss/classifier
I0122 16:59:08.822209 64041 net.cpp:94] Creating Layer loss/classifier
I0122 16:59:08.822212 64041 net.cpp:435] loss/classifier <- avg_pool_12/8x8_s1
I0122 16:59:08.822217 64041 net.cpp:409] loss/classifier -> loss/classifier
I0122 16:59:08.822376 64041 net.cpp:144] Setting up loss/classifier
I0122 16:59:08.822381 64041 net.cpp:151] Top shape: 50 10 (500)
I0122 16:59:08.822384 64041 net.cpp:159] Memory required for data: 566409400
I0122 16:59:08.822389 64041 layer_factory.hpp:77] Creating layer loss/classifier_loss/classifier_0_split
I0122 16:59:08.822396 64041 net.cpp:94] Creating Layer loss/classifier_loss/classifier_0_split
I0122 16:59:08.822398 64041 net.cpp:435] loss/classifier_loss/classifier_0_split <- loss/classifier
I0122 16:59:08.822403 64041 net.cpp:409] loss/classifier_loss/classifier_0_split -> loss/classifier_loss/classifier_0_split_0
I0122 16:59:08.822409 64041 net.cpp:409] loss/classifier_loss/classifier_0_split -> loss/classifier_loss/classifier_0_split_1
I0122 16:59:08.822415 64041 net.cpp:409] loss/classifier_loss/classifier_0_split -> loss/classifier_loss/classifier_0_split_2
I0122 16:59:08.822420 64041 net.cpp:409] loss/classifier_loss/classifier_0_split -> loss/classifier_loss/classifier_0_split_3
I0122 16:59:08.822466 64041 net.cpp:144] Setting up loss/classifier_loss/classifier_0_split
I0122 16:59:08.822471 64041 net.cpp:151] Top shape: 50 10 (500)
I0122 16:59:08.822475 64041 net.cpp:151] Top shape: 50 10 (500)
I0122 16:59:08.822479 64041 net.cpp:151] Top shape: 50 10 (500)
I0122 16:59:08.822481 64041 net.cpp:151] Top shape: 50 10 (500)
I0122 16:59:08.822484 64041 net.cpp:159] Memory required for data: 566417400
I0122 16:59:08.822486 64041 layer_factory.hpp:77] Creating layer loss
I0122 16:59:08.822491 64041 net.cpp:94] Creating Layer loss
I0122 16:59:08.822495 64041 net.cpp:435] loss <- loss/classifier_loss/classifier_0_split_0
I0122 16:59:08.822499 64041 net.cpp:435] loss <- label_data_1_split_0
I0122 16:59:08.822504 64041 net.cpp:409] loss -> loss
…
I0122 16:59:12.779525 64218 net.cpp:323] The NetState phase (0) differed from the phase (1) specified by a rule in layer accuracy-top1
I0122 16:59:12.779527 64218 net.cpp:323] The NetState phase (0) differed from the phase (1) specified by a rule in layer accuracy-top5
I0122 16:59:12.780129 64218 net.cpp:52] Initializing net from parameters: 
state {
  phase: TRAIN
}
layer {
  name: "data"
  type: "Data"
  top: "data"
  top: "label"
  include {
    phase: TRAIN
  }
  transform_param {
    mirror: true
    mean_value: 104
    mean_value: 117
    mean_value: 123
  }
  data_param {
    source: "cifar10/input/lmdb/train_lmdb"
    batch_size: 128
    backend: LMDB
  }
}
layer {
  name: "conv1/3x3_s1"
  type: "Convolution"
  bottom: "data"
  top: "conv1/3x3_s1"
  param {
    lr_mult: 1
    decay_mult: 1
    compression: PRUNE
  }
  param {
    lr_mult: 2
    decay_mult: 0
    compression: PRUNE
  }
  convolution_param {
    num_output: 96
    pad: 1
    kernel_size: 3
    stride: 1
    weight_filler {
      type: "xavier"
      std: 0.1
    }
    bias_filler {
      type: "constant"
      value: 0.2
    }
  }
}
layer {
  name: "conv1/bn1"
  type: "BatchNorm"
  bottom: "conv1/3x3_s1"
  top: "conv1/3x3_s1"
  param {
    lr_mult: 1
    decay_mult: 0
    compression: PRUNE
  }
  param {
    lr_mult: 1
    decay_mult: 0
    compression: PRUNE
  }
  param {
    lr_mult: 0
    decay_mult: 0
    compression: PRUNE
  }
  param {
    lr_mult: 0
    decay_mult: 0
    compression: PRUNE
  }
  batch_norm_param {
    use_global_stats: false
    scale_filler {
      type: "constant"
      value: 1
    }
    bias_filler {
      type: "constant"
      value: 0
    }
  }
}
layer {
  name: "conv1/relu1"
  type: "ReLU"
  bottom: "conv1/3x3_s1"
  top: "conv1/3x3_s1"
}
layer {
  name: "inception_2a/1x1"
  type: "Convolution"
  bottom: "conv1/3x3_s1"
  top: "inception_2a/1x1"
  param {
    lr_mult: 1
    decay_mult: 1
    compression: PRUNE
  }
  param {
    lr_mult: 2
    decay_mult: 0
    compression: PRUNE
  }
  convolution_param {
    num_output: 32
    kernel_size: 1
    weight_filler {
      type: "xavier"
      std: 0.03
    }
    bias_filler {
      type: "constant"
      value: 0.2
    }
  }
}
layer {
  name: "inception_2a/1x1/bn1"
  type: "BatchNorm"
  bottom: "inception_2a/1x1"
  top: "inception_2a/1x1"
  param {
    lr_mult: 1
    decay_mult: 0
    compression: PRUNE
  }
  param {
    lr_mult: 1
    decay_mult: 0
    compression: PRUNE
  }
  param {
    lr_mult: 0
    decay_mult: 0
    compression: PRUNE
  }
  param {
    lr_mult: 0
    decay_mult: 0
    compression: PRUNE
  }
  batch_norm_param {
    use_global_stats: false
    scale_filler {
      type: "constant"
      value: 1
    }
    bias_filler {
      type: "constant"
      value: 0
    }
  }
}
layer {
  name: "inception_2a/1x1/relu1"
  type: "ReLU"
  bottom: "inception_2a/1x1"
  top: "inception_2a/1x1"
}
layer {
  name: "inception_2a/3x3"
  type: "Convolution"
  bottom: "conv1/3x3_s1"
  top: "inception_2a/3x3"
  param {
    lr_mult: 1
    decay_mult: 1
    compression: PRUNE
  }
  param {
    lr_mult: 2
    decay_mult: 0
    compression: PRUNE
  }
  convolution_param {
    num_output: 32
    pad: 1
    kernel_size: 3
    weight_filler {
      type: "xavier"
      std: 0.03
    }
    bias_filler {
      type: "constant"
      value: 0.2
    }
  }
}
layer {
  name: "inception_2a/3x3/bn1"
  type: "BatchNorm"
  bottom: "inception_2a/3x3"
  top: "inception_2a/3x3"
  param {
    lr_mult: 1
    decay_mult: 0
    compression: PRUNE
  }
  param {
    lr_mult: 1
    decay_mult: 0
    compression: PRUNE
  }
  param {
    lr_mult: 0
    decay_mult: 0
    compression: PRUNE
  }
  param {
    lr_mult: 0
    decay_mult: 0
    compression: PRUNE
  }
  batch_norm_param {
    use_global_stats: false
    scale_filler {
      type: "constant"
      value: 1
    }
    bias_filler {
      type: "constant"
      value: 0
    }
  }
}
layer {
  name: "inception_2a/3x3/relu1"
  type: "ReLU"
  bottom: "inception_2a/3x3"
  top: "inception_2a/3x3"
}
layer {
  name: "inception_2a/output"
  type: "Concat"
  bottom: "inception_2a/1x1"
  bottom: "inception_2a/3x3"
  top: "inception_2a/output"
}
layer {
  name: "inception_3a/1x1"
  type: "Convolution"
  bottom: "inception_2a/output"
  top: "inception_3a/1x1"
  param {
    lr_mult: 1
    decay_mult: 1
    compression: PRUNE
  }
  param {
    lr_mult: 2
    decay_mult: 0
    compression: PRUNE
  }
  convolution_param {
    num_output: 32
    kernel_size: 1
    weight_filler {
      type: "xavier"
      std: 0.03
    }
    bias_filler {
      type: "constant"
      value: 0.2
    }
  }
}
layer {
  name: "inception_3a/1x1/bn1"
  type: "BatchNorm"
  bottom: "inception_3a/1x1"
  top: "inception_3a/1x1"
  param {
    lr_mult: 1
    decay_mult: 0
    compression: PRUNE
  }
  param {
    lr_mult: 1
    decay_mult: 0
    compression: PRUNE
  }
  param {
    lr_mult: 0
    decay_mult: 0
    compression: PRUNE
  }
  param {
    lr_mult: 0
    decay_mult: 0
    compression: PRUNE
  }
  batch_norm_param {
    use_global_stats: false
    scale_filler {
      type: "constant"
      value: 1
    }
    bias_filler {
      type: "constant"
      value: 0
    }
  }
}
layer {
  name: "inception_3a/1x1/relu1"
  type: "ReLU"
  bottom: "inception_3a/1x1"
  top: "inception_3a/1x1"
}
layer {
  name: "inception_3a/3x3"
  type: "Convolution"
  bottom: "inception_2a/output"
  top: "inception_3a/3x3"
  param {
    lr_mult: 1
    decay_mult: 1
    compression: PRUNE
  }
  param {
    lr_mult: 2
    decay_mult: 0
    compression: PRUNE
  }
  convolution_param {
    num_output: 48
    pad: 1
    kernel_size: 3
    weight_filler {
      type: "xavier"
      std: 0.03
    }
    bias_filler {
      type: "constant"
      value: 0.2
    }
  }
}
layer {
  name: "inception_3a/3x3/bn1"
  type: "BatchNorm"
  bottom: "inception_3a/3x3"
  top: "inception_3a/3x3"
  param {
    lr_mult: 1
    decay_mult: 0
    compression: PRUNE
  }
  param {
    lr_mult: 1
    decay_mult: 0
    compression: PRUNE
  }
  param {
    lr_mult: 0
    decay_mult: 0
    compression: PRUNE
  }
  param {
    lr_mult: 0
    decay_mult: 0
    compression: PRUNE
  }
  batch_norm_param {
    use_global_stats: false
    scale_filler {
      type: "constant"
      value: 1
    }
    bias_filler {
      type: "constant"
      value: 0
    }
  }
}
layer {
  name: "inception_3a/3x3/relu1"
  type: "ReLU"
  bottom: "inception_3a/3x3"
  top: "inception_3a/3x3"
}
layer {
  name: "inception_3a/output"
  type: "Concat"
  bottom: "inception_3a/1x1"
  bottom: "inception_3a/3x3"
  top: "inception_3a/output"
}
layer {
  name: "downsample_4/3x3_s2"
  type: "Convolution"
  bottom: "inception_3a/output"
  top: "downsample_4/3x3_s2"
  param {
    lr_mult: 1
    decay_mult: 1
    compression: PRUNE
  }
  param {
    lr_mult: 2
    decay_mult: 0
    compression: PRUNE
  }
  convolution_param {
    num_output: 80
    pad: 1
    kernel_size: 3
    stride: 2
    weight_filler {
      type: "xavier"
      std: 0.03
    }
    bias_filler {
      type: "constant"
      value: 0.2
    }
  }
}
layer {
  name: "downsample_4/3x3_s2/bn1"
  type: "BatchNorm"
  bottom: "downsample_4/3x3_s2"
  top: "downsample_4/3x3_s2"
  param {
    lr_mult: 1
    decay_mult: 0
    compression: PRUNE
  }
  param {
    lr_mult: 1
    decay_mult: 0
    compression: PRUNE
  }
  param {
    lr_mult: 0
    decay_mult: 0
    compression: PRUNE
  }
  param {
    lr_mult: 0
    decay_mult: 0
    compression: PRUNE
  }
  batch_norm_param {
    use_global_stats: false
    scale_filler {
      type: "constant"
      value: 1
    }
    bias_filler {
      type: "constant"
      value: 0
    }
  }
}
layer {
  name: "downsample_4/3x3_s2/relu1"
  type: "ReLU"
  bottom: "downsample_4/3x3_s2"
  top: "downsample_4/3x3_s2"
}
layer {
  name: "downsample_4/pool_s2"
  type: "Pooling"
  bottom: "inception_3a/output"
  top: "downsample_4/pool_s2"
  pooling_param {
    pool: MAX
    kernel_size: 3
    stride: 2
  }
}
layer {
  name: "downsample_4/output"
  type: "Concat"
  bottom: "downsample_4/3x3_s2"
  bottom: "downsample_4/pool_s2"
  top: "downsample_4/output"
}
layer {
  name: "inception_5a/1x1"
  type: "Convolution"
  bottom: "downsample_4/output"
  top: "inception_5a/1x1"
  param {
    lr_mult: 1
    decay_mult: 1
    compression: PRUNE
  }
  param {
    lr_mult: 2
    decay_mult: 0
    compression: PRUNE
  }
  convolution_param {
    num_output: 112
    kernel_size: 1
    weight_filler {
      type: "xavier"
      std: 0.03
    }
    bias_filler {
      type: "constant"
      value: 0.2
    }
  }
}
layer {
  name: "inception_5a/1x1/bn1"
  type: "BatchNorm"
  bottom: "inception_5a/1x1"
  top: "inception_5a/1x1"
  param {
    lr_mult: 1
    decay_mult: 0
    compression: PRUNE
  }
  param {
    lr_mult: 1
    decay_mult: 0
    compression: PRUNE
  }
  param {
    lr_mult: 0
    decay_mult: 0
    compression: PRUNE
  }
  param {
    lr_mult: 0
    decay_mult: 0
    compression: PRUNE
  }
  batch_norm_param {
    use_global_stats: false
    scale_filler {
      type: "constant"
      value: 1
    }
    bias_filler {
      type: "constant"
      value: 0
    }
  }
}
layer {
  name: "inception_5a/1x1/relu1"
  type: "ReLU"
  bottom: "inception_5a/1x1"
  top: "inception_5a/1x1"
}
layer {
  name: "inception_5a/3x3"
  type: "Convolution"
  bottom: "downsample_4/output"
  top: "inception_5a/3x3"
  param {
    lr_mult: 1
    decay_mult: 1
    compression: PRUNE
  }
  param {
    lr_mult: 2
    decay_mult: 0
    compression: PRUNE
  }
  convolution_param {
    num_output: 48
    pad: 1
    kernel_size: 3
    weight_filler {
      type: "xavier"
      std: 0.03
    }
    bias_filler {
      type: "constant"
      value: 0.2
    }
  }
}
layer {
  name: "inception_5a/3x3/bn1"
  type: "BatchNorm"
  bottom: "inception_5a/3x3"
  top: "inception_5a/3x3"
  param {
    lr_mult: 1
    decay_mult: 0
    compression: PRUNE
  }
  param {
    lr_mult: 1
    decay_mult: 0
    compression: PRUNE
  }
  param {
    lr_mult: 0
    decay_mult: 0
    compression: PRUNE
  }
  param {
    lr_mult: 0
    decay_mult: 0
    compression: PRUNE
  }
  batch_norm_param {
    use_global_stats: false
    scale_filler {
      type: "constant"
      value: 1
    }
    bias_filler {
      type: "constant"
      value: 0
    }
  }
}
layer {
  name: "inception_5a/3x3/relu1"
  type: "ReLU"
  bottom: "inception_5a/3x3"
  top: "inception_5a/3x3"
}
layer {
  name: "inception_5a/output"
  type: "Concat"
  bottom: "inception_5a/1x1"
  bottom: "inception_5a/3x3"
  top: "inception_5a/output"
}
layer {
  name: "inception_6a/1x1"
  type: "Convolution"
  bottom: "inception_5a/output"
  top: "inception_6a/1x1"
  param {
    lr_mult: 1
    decay_mult: 1
    compression: PRUNE
  }
  param {
    lr_mult: 2
    decay_mult: 0
    compression: PRUNE
  }
  convolution_param {
    num_output: 96
    kernel_size: 1
    weight_filler {
      type: "xavier"
      std: 0.03
    }
    bias_filler {
      type: "constant"
      value: 0.2
    }
  }
}
layer {
  name: "inception_6a/1x1/bn1"
  type: "BatchNorm"
  bottom: "inception_6a/1x1"
  top: "inception_6a/1x1"
  param {
    lr_mult: 1
    decay_mult: 0
    compression: PRUNE
  }
  param {
    lr_mult: 1
    decay_mult: 0
    compression: PRUNE
  }
  param {
    lr_mult: 0
    decay_mult: 0
    compression: PRUNE
  }
  param {
    lr_mult: 0
    decay_mult: 0
    compression: PRUNE
  }
  batch_norm_param {
    use_global_stats: false
    scale_filler {
      type: "constant"
      value: 1
    }
    bias_filler {
      type: "constant"
      value: 0
    }
  }
}
layer {
  name: "inception_6a/1x1/relu1"
  type: "ReLU"
  bottom: "inception_6a/1x1"
  top: "inception_6a/1x1"
}
layer {
  name: "inception_6a/3x3"
  type: "Convolution"
  bottom: "inception_5a/output"
  top: "inception_6a/3x3"
  param {
    lr_mult: 1
    decay_mult: 1
    compression: PRUNE
  }
  param {
    lr_mult: 2
    decay_mult: 0
    compression: PRUNE
  }
  convolution_param {
    num_output: 64
    pad: 1
    kernel_size: 3
    weight_filler {
      type: "xavier"
      std: 0.03
    }
    bias_filler {
      type: "constant"
      value: 0.2
    }
  }
}
layer {
  name: "inception_6a/3x3/bn1"
  type: "BatchNorm"
  bottom: "inception_6a/3x3"
  top: "inception_6a/3x3"
  param {
    lr_mult: 1
    decay_mult: 0
    compression: PRUNE
  }
  param {
    lr_mult: 1
    decay_mult: 0
    compression: PRUNE
  }
  param {
    lr_mult: 0
    decay_mult: 0
    compression: PRUNE
  }
  param {
    lr_mult: 0
    decay_mult: 0
    compression: PRUNE
  }
  batch_norm_param {
    use_global_stats: false
    scale_filler {
      type: "constant"
      value: 1
    }
    bias_filler {
      type: "constant"
      value: 0
    }
  }
}
layer {
  name: "inception_6a/3x3/relu1"
  type: "ReLU"
  bottom: "inception_6a/3x3"
  top: "inception_6a/3x3"
}
layer {
  name: "inception_6a/output"
  type: "Concat"
  bottom: "inception_6a/1x1"
  bottom: "inception_6a/3x3"
  top: "inception_6a/output"
}
layer {
  name: "inception_7a/1x1"
  type: "Convolution"
  bottom: "inception_6a/output"
  top: "inception_7a/1x1"
  param {
    lr_mult: 1
    decay_mult: 1
    compression: PRUNE
  }
  param {
    lr_mult: 2
    decay_mult: 0
    compression: PRUNE
  }
  convolution_param {
    num_output: 80
    kernel_size: 1
    weight_filler {
      type: "xavier"
      std: 0.03
    }
    bias_filler {
      type: "constant"
      value: 0.2
    }
  }
}
layer {
  name: "inception_7a/1x1/bn1"
  type: "BatchNorm"
  bottom: "inception_7a/1x1"
  top: "inception_7a/1x1"
  param {
    lr_mult: 1
    decay_mult: 0
    compression: PRUNE
  }
  param {
    lr_mult: 1
    decay_mult: 0
    compression: PRUNE
  }
  param {
    lr_mult: 0
    decay_mult: 0
    compression: PRUNE
  }
  param {
    lr_mult: 0
    decay_mult: 0
    compression: PRUNE
  }
  batch_norm_param {
    use_global_stats: false
    scale_filler {
      type: "constant"
      value: 1
    }
    bias_filler {
      type: "constant"
      value: 0
    }
  }
}
layer {
  name: "inception_7a/1x1/relu1"
  type: "ReLU"
  bottom: "inception_7a/1x1"
  top: "inception_7a/1x1"
}
layer {
  name: "inception_7a/3x3"
  type: "Convolution"
  bottom: "inception_6a/output"
  top: "inception_7a/3x3"
  param {
    lr_mult: 1
    decay_mult: 1
    compression: PRUNE
  }
  param {
    lr_mult: 2
    decay_mult: 0
    compression: PRUNE
  }
  convolution_param {
    num_output: 80
    pad: 1
    kernel_size: 3
    weight_filler {
      type: "xavier"
      std: 0.03
    }
    bias_filler {
      type: "constant"
      value: 0.2
    }
  }
}
layer {
  name: "inception_7a/3x3/bn1"
  type: "BatchNorm"
  bottom: "inception_7a/3x3"
  top: "inception_7a/3x3"
  param {
    lr_mult: 1
    decay_mult: 0
    compression: PRUNE
  }
  param {
    lr_mult: 1
    decay_mult: 0
    compression: PRUNE
  }
  param {
    lr_mult: 0
    decay_mult: 0
    compression: PRUNE
  }
  param {
    lr_mult: 0
    decay_mult: 0
    compression: PRUNE
  }
  batch_norm_param {
    use_global_stats: false
    scale_filler {
      type: "constant"
      value: 1
    }
    bias_filler {
      type: "constant"
      value: 0
    }
  }
}
layer {
  name: "inception_7a/3x3/relu1"
  type: "ReLU"
  bottom: "inception_7a/3x3"
  top: "inception_7a/3x3"
}
layer {
  name: "inception_7a/output"
  type: "Concat"
  bottom: "inception_7a/1x1"
  bottom: "inception_7a/3x3"
  top: "inception_7a/output"
}
layer {
  name: "inception_8a/1x1"
  type: "Convolution"
  bottom: "inception_7a/output"
  top: "inception_8a/1x1"
  param {
    lr_mult: 1
    decay_mult: 1
    compression: PRUNE
  }
  param {
    lr_mult: 2
    decay_mult: 0
    compression: PRUNE
  }
  convolution_param {
    num_output: 48
    kernel_size: 1
    weight_filler {
      type: "xavier"
      std: 0.03
    }
    bias_filler {
      type: "constant"
      value: 0.2
    }
  }
}
layer {
  name: "inception_8a/1x1/bn1"
  type: "BatchNorm"
  bottom: "inception_8a/1x1"
  top: "inception_8a/1x1"
  param {
    lr_mult: 1
    decay_mult: 0
    compression: PRUNE
  }
  param {
    lr_mult: 1
    decay_mult: 0
    compression: PRUNE
  }
  param {
    lr_mult: 0
    decay_mult: 0
    compression: PRUNE
  }
  param {
    lr_mult: 0
    decay_mult: 0
    compression: PRUNE
  }
  batch_norm_param {
    use_global_stats: false
    scale_filler {
      type: "constant"
      value: 1
    }
    bias_filler {
      type: "constant"
      value: 0
    }
  }
}
layer {
  name: "inception_8a/1x1/relu1"
  type: "ReLU"
  bottom: "inception_8a/1x1"
  top: "inception_8a/1x1"
}
layer {
  name: "inception_8a/3x3"
  type: "Convolution"
  bottom: "inception_7a/output"
  top: "inception_8a/3x3"
  param {
    lr_mult: 1
    decay_mult: 1
    compression: PRUNE
  }
  param {
    lr_mult: 2
    decay_mult: 0
    compression: PRUNE
  }
  convolution_param {
    num_output: 96
    pad: 1
    kernel_size: 3
    weight_filler {
      type: "xavier"
      std: 0.03
    }
    bias_filler {
      type: "constant"
      value: 0.2
    }
  }
}
layer {
  name: "inception_8a/3x3/bn1"
  type: "BatchNorm"
  bottom: "inception_8a/3x3"
  top: "inception_8a/3x3"
  param {
    lr_mult: 1
    decay_mult: 0
    compression: PRUNE
  }
  param {
    lr_mult: 1
    decay_mult: 0
    compression: PRUNE
  }
  param {
    lr_mult: 0
    decay_mult: 0
    compression: PRUNE
  }
  param {
    lr_mult: 0
    decay_mult: 0
    compression: PRUNE
  }
  batch_norm_param {
    use_global_stats: false
    scale_filler {
      type: "constant"
      value: 1
    }
    bias_filler {
      type: "constant"
      value: 0
    }
  }
}
layer {
  name: "inception_8a/3x3/relu1"
  type: "ReLU"
  bottom: "inception_8a/3x3"
  top: "inception_8a/3x3"
}
layer {
  name: "inception_8a/output"
  type: "Concat"
  bottom: "inception_8a/1x1"
  bottom: "inception_8a/3x3"
  top: "inception_8a/output"
}
layer {
  name: "downsample_9/3x3_s2"
  type: "Convolution"
  bottom: "inception_8a/output"
  top: "downsample_9/3x3_s2"
  param {
    lr_mult: 1
    decay_mult: 1
    compression: PRUNE
  }
  param {
    lr_mult: 2
    decay_mult: 0
    compression: PRUNE
  }
  convolution_param {
    num_output: 96
    pad: 1
    kernel_size: 3
    stride: 2
    weight_filler {
      type: "xavier"
      std: 0.03
    }
    bias_filler {
      type: "constant"
      value: 0.2
    }
  }
}
layer {
  name: "downsample_9/3x3_s2/bn1"
  type: "BatchNorm"
  bottom: "downsample_9/3x3_s2"
  top: "downsample_9/3x3_s2"
  param {
    lr_mult: 1
    decay_mult: 0
    compression: PRUNE
  }
  param {
    lr_mult: 1
    decay_mult: 0
    compression: PRUNE
  }
  param {
    lr_mult: 0
    decay_mult: 0
    compression: PRUNE
  }
  param {
    lr_mult: 0
    decay_mult: 0
    compression: PRUNE
  }
  batch_norm_param {
    use_global_stats: false
    scale_filler {
      type: "constant"
      value: 1
    }
    bias_filler {
      type: "constant"
      value: 0
    }
  }
}
layer {
  name: "downsample_9/3x3_s2/relu1"
  type: "ReLU"
  bottom: "downsample_9/3x3_s2"
  top: "downsample_9/3x3_s2"
}
layer {
  name: "downsample_9/pool_s2"
  type: "Pooling"
  bottom: "inception_8a/output"
  top: "downsample_9/pool_s2"
  pooling_param {
    pool: MAX
    kernel_size: 3
    stride: 2
  }
}
layer {
  name: "downsample_9/output"
  type: "Concat"
  bottom: "downsample_9/3x3_s2"
  bottom: "downsample_9/pool_s2"
  top: "downsample_9/output"
}
layer {
  name: "inception_10a/1x1"
  type: "Convolution"
  bottom: "downsample_9/output"
  top: "inception_10a/1x1"
  param {
    lr_mult: 1
    decay_mult: 1
    compression: PRUNE
  }
  param {
    lr_mult: 2
    decay_mult: 0
    compression: PRUNE
  }
  convolution_param {
    num_output: 176
    kernel_size: 1
    weight_filler {
      type: "xavier"
      std: 0.03
    }
    bias_filler {
      type: "constant"
      value: 0.2
    }
  }
}
layer {
  name: "inception_10a/1x1/bn1"
  type: "BatchNorm"
  bottom: "inception_10a/1x1"
  top: "inception_10a/1x1"
  param {
    lr_mult: 1
    decay_mult: 0
    compression: PRUNE
  }
  param {
    lr_mult: 1
    decay_mult: 0
    compression: PRUNE
  }
  param {
    lr_mult: 0
    decay_mult: 0
    compression: PRUNE
  }
  param {
    lr_mult: 0
    decay_mult: 0
    compression: PRUNE
  }
  batch_norm_param {
    use_global_stats: false
    scale_filler {
      type: "constant"
      value: 1
    }
    bias_filler {
      type: "constant"
      value: 0
    }
  }
}
layer {
  name: "inception_10a/1x1/relu1"
  type: "ReLU"
  bottom: "inception_10a/1x1"
  top: "inception_10a/1x1"
}
layer {
  name: "inception_10a/3x3"
  type: "Convolution"
  bottom: "downsample_9/output"
  top: "inception_10a/3x3"
  param {
    lr_mult: 1
    decay_mult: 1
    compression: PRUNE
  }
  param {
    lr_mult: 2
    decay_mult: 0
    compression: PRUNE
  }
  convolution_param {
    num_output: 160
    pad: 1
    kernel_size: 3
    weight_filler {
      type: "xavier"
      std: 0.03
    }
    bias_filler {
      type: "constant"
      value: 0.2
    }
  }
}
layer {
  name: "inception_10a/3x3/bn1"
  type: "BatchNorm"
  bottom: "inception_10a/3x3"
  top: "inception_10a/3x3"
  param {
    lr_mult: 1
    decay_mult: 0
    compression: PRUNE
  }
  param {
    lr_mult: 1
    decay_mult: 0
    compression: PRUNE
  }
  param {
    lr_mult: 0
    decay_mult: 0
    compression: PRUNE
  }
  param {
    lr_mult: 0
    decay_mult: 0
    compression: PRUNE
  }
  batch_norm_param {
    use_global_stats: false
    scale_filler {
      type: "constant"
      value: 1
    }
    bias_filler {
      type: "constant"
      value: 0
    }
  }
}
layer {
  name: "inception_10a/3x3/relu1"
  type: "ReLU"
  bottom: "inception_10a/3x3"
  top: "inception_10a/3x3"
}
layer {
  name: "inception_10a/output"
  type: "Concat"
  bottom: "inception_10a/1x1"
  bottom: "inception_10a/3x3"
  top: "inception_10a/output"
}
layer {
  name: "inception_11a/1x1"
  type: "Convolution"
  bottom: "inception_10a/output"
  top: "inception_11a/1x1"
  param {
    lr_mult: 1
    decay_mult: 1
    compression: PRUNE
  }
  param {
    lr_mult: 2
    decay_mult: 0
    compression: PRUNE
  }
  convolution_param {
    num_output: 176
    kernel_size: 1
    weight_filler {
      type: "xavier"
      std: 0.03
    }
    bias_filler {
      type: "constant"
      value: 0.2
    }
  }
}
layer {
  name: "inception_11a/1x1/bn1"
  type: "BatchNorm"
  bottom: "inception_11a/1x1"
  top: "inception_11a/1x1"
  param {
    lr_mult: 1
    decay_mult: 0
    compression: PRUNE
  }
  param {
    lr_mult: 1
    decay_mult: 0
    compression: PRUNE
  }
  param {
    lr_mult: 0
    decay_mult: 0
    compression: PRUNE
  }
  param {
    lr_mult: 0
    decay_mult: 0
    compression: PRUNE
  }
  batch_norm_param {
    use_global_stats: false
    scale_filler {
      type: "constant"
      value: 1
    }
    bias_filler {
      type: "constant"
      value: 0
    }
  }
}
layer {
  name: "inception_11a/1x1/relu1"
  type: "ReLU"
  bottom: "inception_11a/1x1"
  top: "inception_11a/1x1"
}
layer {
  name: "inception_11a/3x3"
  type: "Convolution"
  bottom: "inception_10a/output"
  top: "inception_11a/3x3"
  param {
    lr_mult: 1
    decay_mult: 1
    compression: PRUNE
  }
  param {
    lr_mult: 2
    decay_mult: 0
    compression: PRUNE
  }
  convolution_param {
    num_output: 160
    pad: 1
    kernel_size: 3
    weight_filler {
      type: "xavier"
      std: 0.03
    }
    bias_filler {
      type: "constant"
      value: 0.2
    }
  }
}
layer {
  name: "inception_11a/3x3/bn1"
  type: "BatchNorm"
  bottom: "inception_11a/3x3"
  top: "inception_11a/3x3"
  param {
    lr_mult: 1
    decay_mult: 0
    compression: PRUNE
  }
  param {
    lr_mult: 1
    decay_mult: 0
    compression: PRUNE
  }
  param {
    lr_mult: 0
    decay_mult: 0
    compression: PRUNE
  }
  param {
    lr_mult: 0
    decay_mult: 0
    compression: PRUNE
  }
  batch_norm_param {
    use_global_stats: false
    scale_filler {
      type: "constant"
      value: 1
    }
    bias_filler {
      type: "constant"
      value: 0
    }
  }
}
layer {
  name: "inception_11a/3x3/relu1"
  type: "ReLU"
  bottom: "inception_11a/3x3"
  top: "inception_11a/3x3"
}
layer {
  name: "inception_11a/output"
  type: "Concat"
  bottom: "inception_11a/1x1"
  bottom: "inception_11a/3x3"
  top: "inception_11a/output"
}
layer {
  name: "avg_pool_12/8x8_s1"
  type: "Pooling"
  bottom: "inception_11a/output"
  top: "avg_pool_12/8x8_s1"
  pooling_param {
    pool: AVE
    kernel_size: 8
    stride: 1
  }
}
layer {
  name: "drop_8x8_s1"
  type: "Dropout"
  bottom: "avg_pool_12/8x8_s1"
  top: "avg_pool_12/8x8_s1"
  dropout_param {
    dropout_ratio: 0.5
  }
}
layer {
  name: "loss/classifier"
  type: "InnerProduct"
  bottom: "avg_pool_12/8x8_s1"
  top: "loss/classifier"
  param {
    lr_mult: 1
    decay_mult: 1
  }
  param {
    lr_mult: 2
    decay_mult: 0
  }
  inner_product_param {
    num_output: 10
    weight_filler {
      type: "xavier"
    }
    bias_filler {
      type: "constant"
      value: 1
    }
  }
}
layer {
  name: "loss"
  type: "SoftmaxWithLoss"
  bottom: "loss/classifier"
  bottom: "label"
  top: "loss"
}
I0122 16:59:12.780447 64218 layer_factory.hpp:77] Creating layer data
I0122 16:59:12.780546 64218 internal_thread.cpp:27] Starting internal thread(s) on GPU 0
I0122 16:59:12.781373 64218 net.cpp:94] Creating Layer data
I0122 16:59:12.781383 64218 net.cpp:409] data -> data
I0122 16:59:12.781394 64218 net.cpp:409] data -> label
I0122 16:59:12.782855 64261 db_lmdb.cpp:35] Opened lmdb cifar10/input/lmdb/train_lmdb
I0122 16:59:12.782902 64261 data_reader.cpp:117] TRAIN: reading data using 1 channel(s)
I0122 16:59:12.783011 64218 data_layer.cpp:78] ReshapePrefetch 128, 3, 32, 32
I0122 16:59:12.783097 64218 data_layer.cpp:83] output data size: 128,3,32,32
I0122 16:59:12.799222 64218 internal_thread.cpp:27] Starting internal thread(s) on GPU 0
I0122 16:59:12.799271 64218 net.cpp:144] Setting up data
I0122 16:59:12.799279 64218 net.cpp:151] Top shape: 128 3 32 32 (393216)
I0122 16:59:12.799284 64218 net.cpp:151] Top shape: 128 (128)
I0122 16:59:12.799286 64218 net.cpp:159] Memory required for data: 1573376
I0122 16:59:12.799290 64218 layer_factory.hpp:77] Creating layer conv1/3x3_s1
I0122 16:59:12.799304 64218 net.cpp:94] Creating Layer conv1/3x3_s1
I0122 16:59:12.799307 64218 net.cpp:435] conv1/3x3_s1 <- data
I0122 16:59:12.799322 64218 net.cpp:409] conv1/3x3_s1 -> conv1/3x3_s1
I0122 16:59:12.801025 64218 net.cpp:144] Setting up conv1/3x3_s1
I0122 16:59:12.801044 64218 net.cpp:151] Top shape: 128 96 32 32 (12582912)
I0122 16:59:12.801048 64218 net.cpp:159] Memory required for data: 51905024
I0122 16:59:12.801064 64218 layer_factory.hpp:77] Creating layer conv1/bn1
I0122 16:59:12.801074 64218 net.cpp:94] Creating Layer conv1/bn1
I0122 16:59:12.801079 64218 net.cpp:435] conv1/bn1 <- conv1/3x3_s1
I0122 16:59:12.801085 64218 net.cpp:396] conv1/bn1 -> conv1/3x3_s1 (in-place)
I0122 16:59:12.801731 64218 net.cpp:144] Setting up conv1/bn1
I0122 16:59:12.801739 64218 net.cpp:151] Top shape: 128 96 32 32 (12582912)
I0122 16:59:12.801743 64218 net.cpp:159] Memory required for data: 102236672
I0122 16:59:12.801754 64218 layer_factory.hpp:77] Creating layer conv1/relu1
I0122 16:59:12.801761 64218 net.cpp:94] Creating Layer conv1/relu1
I0122 16:59:12.801764 64218 net.cpp:435] conv1/relu1 <- conv1/3x3_s1
I0122 16:59:12.801769 64218 net.cpp:396] conv1/relu1 -> conv1/3x3_s1 (in-place)
I0122 16:59:12.801780 64218 net.cpp:144] Setting up conv1/relu1
I0122 16:59:12.801796 64218 net.cpp:151] Top shape: 128 96 32 32 (12582912)
I0122 16:59:12.801800 64218 net.cpp:159] Memory required for data: 152568320
I0122 16:59:12.801802 64218 layer_factory.hpp:77] Creating layer conv1/3x3_s1_conv1/relu1_0_split
I0122 16:59:12.801810 64218 net.cpp:94] Creating Layer conv1/3x3_s1_conv1/relu1_0_split
I0122 16:59:12.801815 64218 net.cpp:435] conv1/3x3_s1_conv1/relu1_0_split <- conv1/3x3_s1
I0122 16:59:12.801820 64218 net.cpp:409] conv1/3x3_s1_conv1/relu1_0_split -> conv1/3x3_s1_conv1/relu1_0_split_0
I0122 16:59:12.801827 64218 net.cpp:409] conv1/3x3_s1_conv1/relu1_0_split -> conv1/3x3_s1_conv1/relu1_0_split_1
I0122 16:59:12.801858 64218 net.cpp:144] Setting up conv1/3x3_s1_conv1/relu1_0_split
I0122 16:59:12.801863 64218 net.cpp:151] Top shape: 128 96 32 32 (12582912)
I0122 16:59:12.801867 64218 net.cpp:151] Top shape: 128 96 32 32 (12582912)
I0122 16:59:12.801870 64218 net.cpp:159] Memory required for data: 253231616
I0122 16:59:12.801873 64218 layer_factory.hpp:77] Creating layer inception_2a/1x1
I0122 16:59:12.801882 64218 net.cpp:94] Creating Layer inception_2a/1x1
I0122 16:59:12.801887 64218 net.cpp:435] inception_2a/1x1 <- conv1/3x3_s1_conv1/relu1_0_split_0
I0122 16:59:12.801892 64218 net.cpp:409] inception_2a/1x1 -> inception_2a/1x1
I0122 16:59:12.802145 64218 net.cpp:144] Setting up inception_2a/1x1
I0122 16:59:12.802152 64218 net.cpp:151] Top shape: 128 32 32 32 (4194304)
I0122 16:59:12.802155 64218 net.cpp:159] Memory required for data: 270008832
I0122 16:59:12.802162 64218 layer_factory.hpp:77] Creating layer inception_2a/1x1/bn1
I0122 16:59:12.802170 64218 net.cpp:94] Creating Layer inception_2a/1x1/bn1
I0122 16:59:12.802173 64218 net.cpp:435] inception_2a/1x1/bn1 <- inception_2a/1x1
I0122 16:59:12.802179 64218 net.cpp:396] inception_2a/1x1/bn1 -> inception_2a/1x1 (in-place)
I0122 16:59:12.803603 64218 net.cpp:144] Setting up inception_2a/1x1/bn1
I0122 16:59:12.803611 64218 net.cpp:151] Top shape: 128 32 32 32 (4194304)
I0122 16:59:12.803614 64218 net.cpp:159] Memory required for data: 286786048
I0122 16:59:12.803622 64218 layer_factory.hpp:77] Creating layer inception_2a/1x1/relu1
I0122 16:59:12.803627 64218 net.cpp:94] Creating Layer inception_2a/1x1/relu1
I0122 16:59:12.803632 64218 net.cpp:435] inception_2a/1x1/relu1 <- inception_2a/1x1
I0122 16:59:12.803637 64218 net.cpp:396] inception_2a/1x1/relu1 -> inception_2a/1x1 (in-place)
I0122 16:59:12.803642 64218 net.cpp:144] Setting up inception_2a/1x1/relu1
I0122 16:59:12.803647 64218 net.cpp:151] Top shape: 128 32 32 32 (4194304)
I0122 16:59:12.803649 64218 net.cpp:159] Memory required for data: 303563264
I0122 16:59:12.803652 64218 layer_factory.hpp:77] Creating layer inception_2a/3x3
I0122 16:59:12.803661 64218 net.cpp:94] Creating Layer inception_2a/3x3
I0122 16:59:12.803665 64218 net.cpp:435] inception_2a/3x3 <- conv1/3x3_s1_conv1/relu1_0_split_1
I0122 16:59:12.803670 64218 net.cpp:409] inception_2a/3x3 -> inception_2a/3x3
I0122 16:59:12.806650 64218 net.cpp:144] Setting up inception_2a/3x3
I0122 16:59:12.806664 64218 net.cpp:151] Top shape: 128 32 32 32 (4194304)
I0122 16:59:12.806668 64218 net.cpp:159] Memory required for data: 320340480
I0122 16:59:12.806674 64218 layer_factory.hpp:77] Creating layer inception_2a/3x3/bn1
I0122 16:59:12.806695 64218 net.cpp:94] Creating Layer inception_2a/3x3/bn1
I0122 16:59:12.806701 64218 net.cpp:435] inception_2a/3x3/bn1 <- inception_2a/3x3
I0122 16:59:12.806716 64218 net.cpp:396] inception_2a/3x3/bn1 -> inception_2a/3x3 (in-place)
I0122 16:59:12.807451 64218 net.cpp:144] Setting up inception_2a/3x3/bn1
I0122 16:59:12.807459 64218 net.cpp:151] Top shape: 128 32 32 32 (4194304)
I0122 16:59:12.807462 64218 net.cpp:159] Memory required for data: 337117696
I0122 16:59:12.807476 64218 layer_factory.hpp:77] Creating layer inception_2a/3x3/relu1
I0122 16:59:12.807482 64218 net.cpp:94] Creating Layer inception_2a/3x3/relu1
I0122 16:59:12.807485 64218 net.cpp:435] inception_2a/3x3/relu1 <- inception_2a/3x3
I0122 16:59:12.807492 64218 net.cpp:396] inception_2a/3x3/relu1 -> inception_2a/3x3 (in-place)
I0122 16:59:12.807512 64218 net.cpp:144] Setting up inception_2a/3x3/relu1
I0122 16:59:12.807516 64218 net.cpp:151] Top shape: 128 32 32 32 (4194304)
I0122 16:59:12.807519 64218 net.cpp:159] Memory required for data: 353894912
I0122 16:59:12.807523 64218 layer_factory.hpp:77] Creating layer inception_2a/output
I0122 16:59:12.807528 64218 net.cpp:94] Creating Layer inception_2a/output
I0122 16:59:12.807535 64218 net.cpp:435] inception_2a/output <- inception_2a/1x1
I0122 16:59:12.807539 64218 net.cpp:435] inception_2a/output <- inception_2a/3x3
I0122 16:59:12.807546 64218 net.cpp:409] inception_2a/output -> inception_2a/output
I0122 16:59:12.807566 64218 net.cpp:144] Setting up inception_2a/output
I0122 16:59:12.807572 64218 net.cpp:151] Top shape: 128 64 32 32 (8388608)
I0122 16:59:12.807575 64218 net.cpp:159] Memory required for data: 387449344
I0122 16:59:12.807577 64218 layer_factory.hpp:77] Creating layer inception_2a/output_inception_2a/output_0_split
I0122 16:59:12.807584 64218 net.cpp:94] Creating Layer inception_2a/output_inception_2a/output_0_split
I0122 16:59:12.807587 64218 net.cpp:435] inception_2a/output_inception_2a/output_0_split <- inception_2a/output
I0122 16:59:12.807593 64218 net.cpp:409] inception_2a/output_inception_2a/output_0_split -> inception_2a/output_inception_2a/output_0_split_0
I0122 16:59:12.807601 64218 net.cpp:409] inception_2a/output_inception_2a/output_0_split -> inception_2a/output_inception_2a/output_0_split_1
I0122 16:59:12.807631 64218 net.cpp:144] Setting up inception_2a/output_inception_2a/output_0_split
I0122 16:59:12.807637 64218 net.cpp:151] Top shape: 128 64 32 32 (8388608)
I0122 16:59:12.807642 64218 net.cpp:151] Top shape: 128 64 32 32 (8388608)
I0122 16:59:12.807644 64218 net.cpp:159] Memory required for data: 454558208
I0122 16:59:12.807647 64218 layer_factory.hpp:77] Creating layer inception_3a/1x1
I0122 16:59:12.807657 64218 net.cpp:94] Creating Layer inception_3a/1x1
I0122 16:59:12.807658 64218 net.cpp:435] inception_3a/1x1 <- inception_2a/output_inception_2a/output_0_split_0
I0122 16:59:12.807665 64218 net.cpp:409] inception_3a/1x1 -> inception_3a/1x1
I0122 16:59:12.807904 64218 net.cpp:144] Setting up inception_3a/1x1
I0122 16:59:12.807911 64218 net.cpp:151] Top shape: 128 32 32 32 (4194304)
I0122 16:59:12.807920 64218 net.cpp:159] Memory required for data: 471335424
I0122 16:59:12.807925 64218 layer_factory.hpp:77] Creating layer inception_3a/1x1/bn1
I0122 16:59:12.807934 64218 net.cpp:94] Creating Layer inception_3a/1x1/bn1
I0122 16:59:12.807936 64218 net.cpp:435] inception_3a/1x1/bn1 <- inception_3a/1x1
I0122 16:59:12.807943 64218 net.cpp:396] inception_3a/1x1/bn1 -> inception_3a/1x1 (in-place)
I0122 16:59:12.808595 64218 net.cpp:144] Setting up inception_3a/1x1/bn1
I0122 16:59:12.808603 64218 net.cpp:151] Top shape: 128 32 32 32 (4194304)
I0122 16:59:12.808605 64218 net.cpp:159] Memory required for data: 488112640
I0122 16:59:12.808614 64218 layer_factory.hpp:77] Creating layer inception_3a/1x1/relu1
I0122 16:59:12.808620 64218 net.cpp:94] Creating Layer inception_3a/1x1/relu1
I0122 16:59:12.808622 64218 net.cpp:435] inception_3a/1x1/relu1 <- inception_3a/1x1
I0122 16:59:12.808630 64218 net.cpp:396] inception_3a/1x1/relu1 -> inception_3a/1x1 (in-place)
I0122 16:59:12.808636 64218 net.cpp:144] Setting up inception_3a/1x1/relu1
I0122 16:59:12.808642 64218 net.cpp:151] Top shape: 128 32 32 32 (4194304)
I0122 16:59:12.808645 64218 net.cpp:159] Memory required for data: 504889856
I0122 16:59:12.808650 64218 layer_factory.hpp:77] Creating layer inception_3a/3x3
I0122 16:59:12.808660 64218 net.cpp:94] Creating Layer inception_3a/3x3
I0122 16:59:12.808665 64218 net.cpp:435] inception_3a/3x3 <- inception_2a/output_inception_2a/output_0_split_1
I0122 16:59:12.808670 64218 net.cpp:409] inception_3a/3x3 -> inception_3a/3x3
I0122 16:59:12.809062 64218 net.cpp:144] Setting up inception_3a/3x3
I0122 16:59:12.809068 64218 net.cpp:151] Top shape: 128 48 32 32 (6291456)
I0122 16:59:12.809072 64218 net.cpp:159] Memory required for data: 530055680
I0122 16:59:12.809077 64218 layer_factory.hpp:77] Creating layer inception_3a/3x3/bn1
I0122 16:59:12.809093 64218 net.cpp:94] Creating Layer inception_3a/3x3/bn1
I0122 16:59:12.809098 64218 net.cpp:435] inception_3a/3x3/bn1 <- inception_3a/3x3
I0122 16:59:12.809103 64218 net.cpp:396] inception_3a/3x3/bn1 -> inception_3a/3x3 (in-place)
I0122 16:59:12.810029 64218 net.cpp:144] Setting up inception_3a/3x3/bn1
I0122 16:59:12.810039 64218 net.cpp:151] Top shape: 128 48 32 32 (6291456)
I0122 16:59:12.810041 64218 net.cpp:159] Memory required for data: 555221504
I0122 16:59:12.810055 64218 layer_factory.hpp:77] Creating layer inception_3a/3x3/relu1
I0122 16:59:12.810060 64218 net.cpp:94] Creating Layer inception_3a/3x3/relu1
I0122 16:59:12.810065 64218 net.cpp:435] inception_3a/3x3/relu1 <- inception_3a/3x3
I0122 16:59:12.810072 64218 net.cpp:396] inception_3a/3x3/relu1 -> inception_3a/3x3 (in-place)
I0122 16:59:12.810081 64218 net.cpp:144] Setting up inception_3a/3x3/relu1
I0122 16:59:12.810084 64218 net.cpp:151] Top shape: 128 48 32 32 (6291456)
I0122 16:59:12.810087 64218 net.cpp:159] Memory required for data: 580387328
I0122 16:59:12.810091 64218 layer_factory.hpp:77] Creating layer inception_3a/output
I0122 16:59:12.810096 64218 net.cpp:94] Creating Layer inception_3a/output
I0122 16:59:12.810097 64218 net.cpp:435] inception_3a/output <- inception_3a/1x1
I0122 16:59:12.810108 64218 net.cpp:435] inception_3a/output <- inception_3a/3x3
I0122 16:59:12.810114 64218 net.cpp:409] inception_3a/output -> inception_3a/output
I0122 16:59:12.810133 64218 net.cpp:144] Setting up inception_3a/output
I0122 16:59:12.810142 64218 net.cpp:151] Top shape: 128 80 32 32 (10485760)
I0122 16:59:12.810147 64218 net.cpp:159] Memory required for data: 622330368
I0122 16:59:12.810148 64218 layer_factory.hpp:77] Creating layer inception_3a/output_inception_3a/output_0_split
I0122 16:59:12.810154 64218 net.cpp:94] Creating Layer inception_3a/output_inception_3a/output_0_split
I0122 16:59:12.810158 64218 net.cpp:435] inception_3a/output_inception_3a/output_0_split <- inception_3a/output
I0122 16:59:12.810164 64218 net.cpp:409] inception_3a/output_inception_3a/output_0_split -> inception_3a/output_inception_3a/output_0_split_0
I0122 16:59:12.810171 64218 net.cpp:409] inception_3a/output_inception_3a/output_0_split -> inception_3a/output_inception_3a/output_0_split_1
I0122 16:59:12.810197 64218 net.cpp:144] Setting up inception_3a/output_inception_3a/output_0_split
I0122 16:59:12.810206 64218 net.cpp:151] Top shape: 128 80 32 32 (10485760)
I0122 16:59:12.810210 64218 net.cpp:151] Top shape: 128 80 32 32 (10485760)
I0122 16:59:12.810212 64218 net.cpp:159] Memory required for data: 706216448
I0122 16:59:12.810215 64218 layer_factory.hpp:77] Creating layer downsample_4/3x3_s2
I0122 16:59:12.810225 64218 net.cpp:94] Creating Layer downsample_4/3x3_s2
I0122 16:59:12.810228 64218 net.cpp:435] downsample_4/3x3_s2 <- inception_3a/output_inception_3a/output_0_split_0
I0122 16:59:12.810235 64218 net.cpp:409] downsample_4/3x3_s2 -> downsample_4/3x3_s2
I0122 16:59:12.810788 64218 net.cpp:144] Setting up downsample_4/3x3_s2
I0122 16:59:12.810796 64218 net.cpp:151] Top shape: 128 80 16 16 (2621440)
I0122 16:59:12.810799 64218 net.cpp:159] Memory required for data: 716702208
I0122 16:59:12.810804 64218 layer_factory.hpp:77] Creating layer downsample_4/3x3_s2/bn1
I0122 16:59:12.810814 64218 net.cpp:94] Creating Layer downsample_4/3x3_s2/bn1
I0122 16:59:12.810817 64218 net.cpp:435] downsample_4/3x3_s2/bn1 <- downsample_4/3x3_s2
I0122 16:59:12.810824 64218 net.cpp:396] downsample_4/3x3_s2/bn1 -> downsample_4/3x3_s2 (in-place)
I0122 16:59:12.811467 64218 net.cpp:144] Setting up downsample_4/3x3_s2/bn1
I0122 16:59:12.811475 64218 net.cpp:151] Top shape: 128 80 16 16 (2621440)
I0122 16:59:12.811477 64218 net.cpp:159] Memory required for data: 727187968
I0122 16:59:12.811486 64218 layer_factory.hpp:77] Creating layer downsample_4/3x3_s2/relu1
I0122 16:59:12.811491 64218 net.cpp:94] Creating Layer downsample_4/3x3_s2/relu1
I0122 16:59:12.811493 64218 net.cpp:435] downsample_4/3x3_s2/relu1 <- downsample_4/3x3_s2
I0122 16:59:12.811511 64218 net.cpp:396] downsample_4/3x3_s2/relu1 -> downsample_4/3x3_s2 (in-place)
I0122 16:59:12.811519 64218 net.cpp:144] Setting up downsample_4/3x3_s2/relu1
I0122 16:59:12.811522 64218 net.cpp:151] Top shape: 128 80 16 16 (2621440)
I0122 16:59:12.811525 64218 net.cpp:159] Memory required for data: 737673728
I0122 16:59:12.811528 64218 layer_factory.hpp:77] Creating layer downsample_4/pool_s2
I0122 16:59:12.811535 64218 net.cpp:94] Creating Layer downsample_4/pool_s2
I0122 16:59:12.811538 64218 net.cpp:435] downsample_4/pool_s2 <- inception_3a/output_inception_3a/output_0_split_1
I0122 16:59:12.811545 64218 net.cpp:409] downsample_4/pool_s2 -> downsample_4/pool_s2
I0122 16:59:12.811585 64218 net.cpp:144] Setting up downsample_4/pool_s2
I0122 16:59:12.811591 64218 net.cpp:151] Top shape: 128 80 16 16 (2621440)
I0122 16:59:12.811595 64218 net.cpp:159] Memory required for data: 748159488
I0122 16:59:12.811599 64218 layer_factory.hpp:77] Creating layer downsample_4/output
I0122 16:59:12.811605 64218 net.cpp:94] Creating Layer downsample_4/output
I0122 16:59:12.811609 64218 net.cpp:435] downsample_4/output <- downsample_4/3x3_s2
I0122 16:59:12.811612 64218 net.cpp:435] downsample_4/output <- downsample_4/pool_s2
I0122 16:59:12.811616 64218 net.cpp:409] downsample_4/output -> downsample_4/output
I0122 16:59:12.811635 64218 net.cpp:144] Setting up downsample_4/output
I0122 16:59:12.811640 64218 net.cpp:151] Top shape: 128 160 16 16 (5242880)
I0122 16:59:12.811643 64218 net.cpp:159] Memory required for data: 769131008
I0122 16:59:12.811645 64218 layer_factory.hpp:77] Creating layer downsample_4/output_downsample_4/output_0_split
I0122 16:59:12.811650 64218 net.cpp:94] Creating Layer downsample_4/output_downsample_4/output_0_split
I0122 16:59:12.811655 64218 net.cpp:435] downsample_4/output_downsample_4/output_0_split <- downsample_4/output
I0122 16:59:12.811659 64218 net.cpp:409] downsample_4/output_downsample_4/output_0_split -> downsample_4/output_downsample_4/output_0_split_0
I0122 16:59:12.811666 64218 net.cpp:409] downsample_4/output_downsample_4/output_0_split -> downsample_4/output_downsample_4/output_0_split_1
I0122 16:59:12.811722 64218 net.cpp:144] Setting up downsample_4/output_downsample_4/output_0_split
I0122 16:59:12.811729 64218 net.cpp:151] Top shape: 128 160 16 16 (5242880)
I0122 16:59:12.811733 64218 net.cpp:151] Top shape: 128 160 16 16 (5242880)
I0122 16:59:12.811735 64218 net.cpp:159] Memory required for data: 811074048
I0122 16:59:12.811738 64218 layer_factory.hpp:77] Creating layer inception_5a/1x1
I0122 16:59:12.811748 64218 net.cpp:94] Creating Layer inception_5a/1x1
I0122 16:59:12.811754 64218 net.cpp:435] inception_5a/1x1 <- downsample_4/output_downsample_4/output_0_split_0
I0122 16:59:12.811759 64218 net.cpp:409] inception_5a/1x1 -> inception_5a/1x1
I0122 16:59:12.812187 64218 net.cpp:144] Setting up inception_5a/1x1
I0122 16:59:12.812196 64218 net.cpp:151] Top shape: 128 112 16 16 (3670016)
I0122 16:59:12.812198 64218 net.cpp:159] Memory required for data: 825754112
I0122 16:59:12.812203 64218 layer_factory.hpp:77] Creating layer inception_5a/1x1/bn1
I0122 16:59:12.812211 64218 net.cpp:94] Creating Layer inception_5a/1x1/bn1
I0122 16:59:12.812216 64218 net.cpp:435] inception_5a/1x1/bn1 <- inception_5a/1x1
I0122 16:59:12.812222 64218 net.cpp:396] inception_5a/1x1/bn1 -> inception_5a/1x1 (in-place)
I0122 16:59:12.812902 64218 net.cpp:144] Setting up inception_5a/1x1/bn1
I0122 16:59:12.812909 64218 net.cpp:151] Top shape: 128 112 16 16 (3670016)
I0122 16:59:12.812913 64218 net.cpp:159] Memory required for data: 840434176
I0122 16:59:12.812921 64218 layer_factory.hpp:77] Creating layer inception_5a/1x1/relu1
I0122 16:59:12.812927 64218 net.cpp:94] Creating Layer inception_5a/1x1/relu1
I0122 16:59:12.812929 64218 net.cpp:435] inception_5a/1x1/relu1 <- inception_5a/1x1
I0122 16:59:12.812934 64218 net.cpp:396] inception_5a/1x1/relu1 -> inception_5a/1x1 (in-place)
I0122 16:59:12.812940 64218 net.cpp:144] Setting up inception_5a/1x1/relu1
I0122 16:59:12.812944 64218 net.cpp:151] Top shape: 128 112 16 16 (3670016)
I0122 16:59:12.812955 64218 net.cpp:159] Memory required for data: 855114240
I0122 16:59:12.812959 64218 layer_factory.hpp:77] Creating layer inception_5a/3x3
I0122 16:59:12.812970 64218 net.cpp:94] Creating Layer inception_5a/3x3
I0122 16:59:12.812975 64218 net.cpp:435] inception_5a/3x3 <- downsample_4/output_downsample_4/output_0_split_1
I0122 16:59:12.812981 64218 net.cpp:409] inception_5a/3x3 -> inception_5a/3x3
I0122 16:59:12.813623 64218 net.cpp:144] Setting up inception_5a/3x3
I0122 16:59:12.813632 64218 net.cpp:151] Top shape: 128 48 16 16 (1572864)
I0122 16:59:12.813634 64218 net.cpp:159] Memory required for data: 861405696
I0122 16:59:12.813639 64218 layer_factory.hpp:77] Creating layer inception_5a/3x3/bn1
I0122 16:59:12.813647 64218 net.cpp:94] Creating Layer inception_5a/3x3/bn1
I0122 16:59:12.813650 64218 net.cpp:435] inception_5a/3x3/bn1 <- inception_5a/3x3
I0122 16:59:12.813657 64218 net.cpp:396] inception_5a/3x3/bn1 -> inception_5a/3x3 (in-place)
I0122 16:59:12.814419 64218 net.cpp:144] Setting up inception_5a/3x3/bn1
I0122 16:59:12.814426 64218 net.cpp:151] Top shape: 128 48 16 16 (1572864)
I0122 16:59:12.814436 64218 net.cpp:159] Memory required for data: 867697152
I0122 16:59:12.814445 64218 layer_factory.hpp:77] Creating layer inception_5a/3x3/relu1
I0122 16:59:12.814455 64218 net.cpp:94] Creating Layer inception_5a/3x3/relu1
I0122 16:59:12.814461 64218 net.cpp:435] inception_5a/3x3/relu1 <- inception_5a/3x3
I0122 16:59:12.814466 64218 net.cpp:396] inception_5a/3x3/relu1 -> inception_5a/3x3 (in-place)
I0122 16:59:12.814472 64218 net.cpp:144] Setting up inception_5a/3x3/relu1
I0122 16:59:12.814476 64218 net.cpp:151] Top shape: 128 48 16 16 (1572864)
I0122 16:59:12.814479 64218 net.cpp:159] Memory required for data: 873988608
I0122 16:59:12.814482 64218 layer_factory.hpp:77] Creating layer inception_5a/output
I0122 16:59:12.814486 64218 net.cpp:94] Creating Layer inception_5a/output
I0122 16:59:12.814489 64218 net.cpp:435] inception_5a/output <- inception_5a/1x1
I0122 16:59:12.814493 64218 net.cpp:435] inception_5a/output <- inception_5a/3x3
I0122 16:59:12.814498 64218 net.cpp:409] inception_5a/output -> inception_5a/output
I0122 16:59:12.814620 64218 net.cpp:144] Setting up inception_5a/output
I0122 16:59:12.814626 64218 net.cpp:151] Top shape: 128 160 16 16 (5242880)
I0122 16:59:12.814630 64218 net.cpp:159] Memory required for data: 894960128
I0122 16:59:12.814631 64218 layer_factory.hpp:77] Creating layer inception_5a/output_inception_5a/output_0_split
I0122 16:59:12.814638 64218 net.cpp:94] Creating Layer inception_5a/output_inception_5a/output_0_split
I0122 16:59:12.814641 64218 net.cpp:435] inception_5a/output_inception_5a/output_0_split <- inception_5a/output
I0122 16:59:12.814652 64218 net.cpp:409] inception_5a/output_inception_5a/output_0_split -> inception_5a/output_inception_5a/output_0_split_0
I0122 16:59:12.814658 64218 net.cpp:409] inception_5a/output_inception_5a/output_0_split -> inception_5a/output_inception_5a/output_0_split_1
I0122 16:59:12.814695 64218 net.cpp:144] Setting up inception_5a/output_inception_5a/output_0_split
I0122 16:59:12.814702 64218 net.cpp:151] Top shape: 128 160 16 16 (5242880)
I0122 16:59:12.814707 64218 net.cpp:151] Top shape: 128 160 16 16 (5242880)
I0122 16:59:12.814709 64218 net.cpp:159] Memory required for data: 936903168
I0122 16:59:12.814713 64218 layer_factory.hpp:77] Creating layer inception_6a/1x1
I0122 16:59:12.814723 64218 net.cpp:94] Creating Layer inception_6a/1x1
I0122 16:59:12.814734 64218 net.cpp:435] inception_6a/1x1 <- inception_5a/output_inception_5a/output_0_split_0
I0122 16:59:12.814740 64218 net.cpp:409] inception_6a/1x1 -> inception_6a/1x1
I0122 16:59:12.815892 64218 net.cpp:144] Setting up inception_6a/1x1
I0122 16:59:12.815904 64218 net.cpp:151] Top shape: 128 96 16 16 (3145728)
I0122 16:59:12.815907 64218 net.cpp:159] Memory required for data: 949486080
I0122 16:59:12.815913 64218 layer_factory.hpp:77] Creating layer inception_6a/1x1/bn1
I0122 16:59:12.815922 64218 net.cpp:94] Creating Layer inception_6a/1x1/bn1
I0122 16:59:12.815937 64218 net.cpp:435] inception_6a/1x1/bn1 <- inception_6a/1x1
I0122 16:59:12.815946 64218 net.cpp:396] inception_6a/1x1/bn1 -> inception_6a/1x1 (in-place)
I0122 16:59:12.816663 64218 net.cpp:144] Setting up inception_6a/1x1/bn1
I0122 16:59:12.816670 64218 net.cpp:151] Top shape: 128 96 16 16 (3145728)
I0122 16:59:12.816673 64218 net.cpp:159] Memory required for data: 962068992
I0122 16:59:12.816681 64218 layer_factory.hpp:77] Creating layer inception_6a/1x1/relu1
I0122 16:59:12.816686 64218 net.cpp:94] Creating Layer inception_6a/1x1/relu1
I0122 16:59:12.816689 64218 net.cpp:435] inception_6a/1x1/relu1 <- inception_6a/1x1
I0122 16:59:12.816695 64218 net.cpp:396] inception_6a/1x1/relu1 -> inception_6a/1x1 (in-place)
I0122 16:59:12.816704 64218 net.cpp:144] Setting up inception_6a/1x1/relu1
I0122 16:59:12.816709 64218 net.cpp:151] Top shape: 128 96 16 16 (3145728)
I0122 16:59:12.816711 64218 net.cpp:159] Memory required for data: 974651904
I0122 16:59:12.816715 64218 layer_factory.hpp:77] Creating layer inception_6a/3x3
I0122 16:59:12.816725 64218 net.cpp:94] Creating Layer inception_6a/3x3
I0122 16:59:12.816730 64218 net.cpp:435] inception_6a/3x3 <- inception_5a/output_inception_5a/output_0_split_1
I0122 16:59:12.816736 64218 net.cpp:409] inception_6a/3x3 -> inception_6a/3x3
I0122 16:59:12.817507 64218 net.cpp:144] Setting up inception_6a/3x3
I0122 16:59:12.817517 64218 net.cpp:151] Top shape: 128 64 16 16 (2097152)
I0122 16:59:12.817520 64218 net.cpp:159] Memory required for data: 983040512
I0122 16:59:12.817533 64218 layer_factory.hpp:77] Creating layer inception_6a/3x3/bn1
I0122 16:59:12.817543 64218 net.cpp:94] Creating Layer inception_6a/3x3/bn1
I0122 16:59:12.817549 64218 net.cpp:435] inception_6a/3x3/bn1 <- inception_6a/3x3
I0122 16:59:12.817556 64218 net.cpp:396] inception_6a/3x3/bn1 -> inception_6a/3x3 (in-place)
I0122 16:59:12.818243 64218 net.cpp:144] Setting up inception_6a/3x3/bn1
I0122 16:59:12.818250 64218 net.cpp:151] Top shape: 128 64 16 16 (2097152)
I0122 16:59:12.818254 64218 net.cpp:159] Memory required for data: 991429120
I0122 16:59:12.818262 64218 layer_factory.hpp:77] Creating layer inception_6a/3x3/relu1
I0122 16:59:12.818267 64218 net.cpp:94] Creating Layer inception_6a/3x3/relu1
I0122 16:59:12.818270 64218 net.cpp:435] inception_6a/3x3/relu1 <- inception_6a/3x3
I0122 16:59:12.818276 64218 net.cpp:396] inception_6a/3x3/relu1 -> inception_6a/3x3 (in-place)
I0122 16:59:12.818282 64218 net.cpp:144] Setting up inception_6a/3x3/relu1
I0122 16:59:12.818285 64218 net.cpp:151] Top shape: 128 64 16 16 (2097152)
I0122 16:59:12.818289 64218 net.cpp:159] Memory required for data: 999817728
I0122 16:59:12.818292 64218 layer_factory.hpp:77] Creating layer inception_6a/output
I0122 16:59:12.818297 64218 net.cpp:94] Creating Layer inception_6a/output
I0122 16:59:12.818301 64218 net.cpp:435] inception_6a/output <- inception_6a/1x1
I0122 16:59:12.818305 64218 net.cpp:435] inception_6a/output <- inception_6a/3x3
I0122 16:59:12.818310 64218 net.cpp:409] inception_6a/output -> inception_6a/output
I0122 16:59:12.818329 64218 net.cpp:144] Setting up inception_6a/output
I0122 16:59:12.818336 64218 net.cpp:151] Top shape: 128 160 16 16 (5242880)
I0122 16:59:12.818339 64218 net.cpp:159] Memory required for data: 1020789248
I0122 16:59:12.818342 64218 layer_factory.hpp:77] Creating layer inception_6a/output_inception_6a/output_0_split
I0122 16:59:12.818349 64218 net.cpp:94] Creating Layer inception_6a/output_inception_6a/output_0_split
I0122 16:59:12.818354 64218 net.cpp:435] inception_6a/output_inception_6a/output_0_split <- inception_6a/output
I0122 16:59:12.818361 64218 net.cpp:409] inception_6a/output_inception_6a/output_0_split -> inception_6a/output_inception_6a/output_0_split_0
I0122 16:59:12.818367 64218 net.cpp:409] inception_6a/output_inception_6a/output_0_split -> inception_6a/output_inception_6a/output_0_split_1
I0122 16:59:12.818394 64218 net.cpp:144] Setting up inception_6a/output_inception_6a/output_0_split
I0122 16:59:12.818401 64218 net.cpp:151] Top shape: 128 160 16 16 (5242880)
I0122 16:59:12.818418 64218 net.cpp:151] Top shape: 128 160 16 16 (5242880)
I0122 16:59:12.818420 64218 net.cpp:159] Memory required for data: 1062732288
I0122 16:59:12.818423 64218 layer_factory.hpp:77] Creating layer inception_7a/1x1
I0122 16:59:12.818433 64218 net.cpp:94] Creating Layer inception_7a/1x1
I0122 16:59:12.818439 64218 net.cpp:435] inception_7a/1x1 <- inception_6a/output_inception_6a/output_0_split_0
I0122 16:59:12.818445 64218 net.cpp:409] inception_7a/1x1 -> inception_7a/1x1
I0122 16:59:12.818769 64218 net.cpp:144] Setting up inception_7a/1x1
I0122 16:59:12.818775 64218 net.cpp:151] Top shape: 128 80 16 16 (2621440)
I0122 16:59:12.818778 64218 net.cpp:159] Memory required for data: 1073218048
I0122 16:59:12.818784 64218 layer_factory.hpp:77] Creating layer inception_7a/1x1/bn1
I0122 16:59:12.818791 64218 net.cpp:94] Creating Layer inception_7a/1x1/bn1
I0122 16:59:12.818794 64218 net.cpp:435] inception_7a/1x1/bn1 <- inception_7a/1x1
I0122 16:59:12.818800 64218 net.cpp:396] inception_7a/1x1/bn1 -> inception_7a/1x1 (in-place)
I0122 16:59:12.819571 64218 net.cpp:144] Setting up inception_7a/1x1/bn1
I0122 16:59:12.819577 64218 net.cpp:151] Top shape: 128 80 16 16 (2621440)
I0122 16:59:12.819581 64218 net.cpp:159] Memory required for data: 1083703808
I0122 16:59:12.819587 64218 layer_factory.hpp:77] Creating layer inception_7a/1x1/relu1
I0122 16:59:12.819595 64218 net.cpp:94] Creating Layer inception_7a/1x1/relu1
I0122 16:59:12.819598 64218 net.cpp:435] inception_7a/1x1/relu1 <- inception_7a/1x1
I0122 16:59:12.819603 64218 net.cpp:396] inception_7a/1x1/relu1 -> inception_7a/1x1 (in-place)
I0122 16:59:12.819614 64218 net.cpp:144] Setting up inception_7a/1x1/relu1
I0122 16:59:12.819620 64218 net.cpp:151] Top shape: 128 80 16 16 (2621440)
I0122 16:59:12.819622 64218 net.cpp:159] Memory required for data: 1094189568
I0122 16:59:12.819627 64218 layer_factory.hpp:77] Creating layer inception_7a/3x3
I0122 16:59:12.819636 64218 net.cpp:94] Creating Layer inception_7a/3x3
I0122 16:59:12.819641 64218 net.cpp:435] inception_7a/3x3 <- inception_6a/output_inception_6a/output_0_split_1
I0122 16:59:12.819648 64218 net.cpp:409] inception_7a/3x3 -> inception_7a/3x3
I0122 16:59:12.820673 64218 net.cpp:144] Setting up inception_7a/3x3
I0122 16:59:12.820683 64218 net.cpp:151] Top shape: 128 80 16 16 (2621440)
I0122 16:59:12.820686 64218 net.cpp:159] Memory required for data: 1104675328
I0122 16:59:12.820693 64218 layer_factory.hpp:77] Creating layer inception_7a/3x3/bn1
I0122 16:59:12.820701 64218 net.cpp:94] Creating Layer inception_7a/3x3/bn1
I0122 16:59:12.820704 64218 net.cpp:435] inception_7a/3x3/bn1 <- inception_7a/3x3
I0122 16:59:12.820713 64218 net.cpp:396] inception_7a/3x3/bn1 -> inception_7a/3x3 (in-place)
I0122 16:59:12.821383 64218 net.cpp:144] Setting up inception_7a/3x3/bn1
I0122 16:59:12.821390 64218 net.cpp:151] Top shape: 128 80 16 16 (2621440)
I0122 16:59:12.821394 64218 net.cpp:159] Memory required for data: 1115161088
I0122 16:59:12.821403 64218 layer_factory.hpp:77] Creating layer inception_7a/3x3/relu1
I0122 16:59:12.821408 64218 net.cpp:94] Creating Layer inception_7a/3x3/relu1
I0122 16:59:12.821410 64218 net.cpp:435] inception_7a/3x3/relu1 <- inception_7a/3x3
I0122 16:59:12.821416 64218 net.cpp:396] inception_7a/3x3/relu1 -> inception_7a/3x3 (in-place)
I0122 16:59:12.821424 64218 net.cpp:144] Setting up inception_7a/3x3/relu1
I0122 16:59:12.821430 64218 net.cpp:151] Top shape: 128 80 16 16 (2621440)
I0122 16:59:12.821434 64218 net.cpp:159] Memory required for data: 1125646848
I0122 16:59:12.821435 64218 layer_factory.hpp:77] Creating layer inception_7a/output
I0122 16:59:12.821441 64218 net.cpp:94] Creating Layer inception_7a/output
I0122 16:59:12.821444 64218 net.cpp:435] inception_7a/output <- inception_7a/1x1
I0122 16:59:12.821447 64218 net.cpp:435] inception_7a/output <- inception_7a/3x3
I0122 16:59:12.821454 64218 net.cpp:409] inception_7a/output -> inception_7a/output
I0122 16:59:12.821475 64218 net.cpp:144] Setting up inception_7a/output
I0122 16:59:12.821482 64218 net.cpp:151] Top shape: 128 160 16 16 (5242880)
I0122 16:59:12.821494 64218 net.cpp:159] Memory required for data: 1146618368
I0122 16:59:12.821496 64218 layer_factory.hpp:77] Creating layer inception_7a/output_inception_7a/output_0_split
I0122 16:59:12.821503 64218 net.cpp:94] Creating Layer inception_7a/output_inception_7a/output_0_split
I0122 16:59:12.821506 64218 net.cpp:435] inception_7a/output_inception_7a/output_0_split <- inception_7a/output
I0122 16:59:12.821512 64218 net.cpp:409] inception_7a/output_inception_7a/output_0_split -> inception_7a/output_inception_7a/output_0_split_0
I0122 16:59:12.821518 64218 net.cpp:409] inception_7a/output_inception_7a/output_0_split -> inception_7a/output_inception_7a/output_0_split_1
I0122 16:59:12.821555 64218 net.cpp:144] Setting up inception_7a/output_inception_7a/output_0_split
I0122 16:59:12.821560 64218 net.cpp:151] Top shape: 128 160 16 16 (5242880)
I0122 16:59:12.821563 64218 net.cpp:151] Top shape: 128 160 16 16 (5242880)
I0122 16:59:12.821566 64218 net.cpp:159] Memory required for data: 1188561408
I0122 16:59:12.821569 64218 layer_factory.hpp:77] Creating layer inception_8a/1x1
I0122 16:59:12.821578 64218 net.cpp:94] Creating Layer inception_8a/1x1
I0122 16:59:12.821581 64218 net.cpp:435] inception_8a/1x1 <- inception_7a/output_inception_7a/output_0_split_0
I0122 16:59:12.821588 64218 net.cpp:409] inception_8a/1x1 -> inception_8a/1x1
I0122 16:59:12.822021 64218 net.cpp:144] Setting up inception_8a/1x1
I0122 16:59:12.822027 64218 net.cpp:151] Top shape: 128 48 16 16 (1572864)
I0122 16:59:12.822031 64218 net.cpp:159] Memory required for data: 1194852864
I0122 16:59:12.822036 64218 layer_factory.hpp:77] Creating layer inception_8a/1x1/bn1
I0122 16:59:12.822043 64218 net.cpp:94] Creating Layer inception_8a/1x1/bn1
I0122 16:59:12.822048 64218 net.cpp:435] inception_8a/1x1/bn1 <- inception_8a/1x1
I0122 16:59:12.822054 64218 net.cpp:396] inception_8a/1x1/bn1 -> inception_8a/1x1 (in-place)
I0122 16:59:12.822726 64218 net.cpp:144] Setting up inception_8a/1x1/bn1
I0122 16:59:12.822733 64218 net.cpp:151] Top shape: 128 48 16 16 (1572864)
I0122 16:59:12.822736 64218 net.cpp:159] Memory required for data: 1201144320
I0122 16:59:12.822743 64218 layer_factory.hpp:77] Creating layer inception_8a/1x1/relu1
I0122 16:59:12.822748 64218 net.cpp:94] Creating Layer inception_8a/1x1/relu1
I0122 16:59:12.822751 64218 net.cpp:435] inception_8a/1x1/relu1 <- inception_8a/1x1
I0122 16:59:12.822757 64218 net.cpp:396] inception_8a/1x1/relu1 -> inception_8a/1x1 (in-place)
I0122 16:59:12.822765 64218 net.cpp:144] Setting up inception_8a/1x1/relu1
I0122 16:59:12.822768 64218 net.cpp:151] Top shape: 128 48 16 16 (1572864)
I0122 16:59:12.822772 64218 net.cpp:159] Memory required for data: 1207435776
I0122 16:59:12.822774 64218 layer_factory.hpp:77] Creating layer inception_8a/3x3
I0122 16:59:12.822782 64218 net.cpp:94] Creating Layer inception_8a/3x3
I0122 16:59:12.822788 64218 net.cpp:435] inception_8a/3x3 <- inception_7a/output_inception_7a/output_0_split_1
I0122 16:59:12.822794 64218 net.cpp:409] inception_8a/3x3 -> inception_8a/3x3
I0122 16:59:12.824553 64218 net.cpp:144] Setting up inception_8a/3x3
I0122 16:59:12.824566 64218 net.cpp:151] Top shape: 128 96 16 16 (3145728)
I0122 16:59:12.824569 64218 net.cpp:159] Memory required for data: 1220018688
I0122 16:59:12.824586 64218 layer_factory.hpp:77] Creating layer inception_8a/3x3/bn1
I0122 16:59:12.824599 64218 net.cpp:94] Creating Layer inception_8a/3x3/bn1
I0122 16:59:12.824604 64218 net.cpp:435] inception_8a/3x3/bn1 <- inception_8a/3x3
I0122 16:59:12.824609 64218 net.cpp:396] inception_8a/3x3/bn1 -> inception_8a/3x3 (in-place)
I0122 16:59:12.825291 64218 net.cpp:144] Setting up inception_8a/3x3/bn1
I0122 16:59:12.825297 64218 net.cpp:151] Top shape: 128 96 16 16 (3145728)
I0122 16:59:12.825300 64218 net.cpp:159] Memory required for data: 1232601600
I0122 16:59:12.825309 64218 layer_factory.hpp:77] Creating layer inception_8a/3x3/relu1
I0122 16:59:12.825315 64218 net.cpp:94] Creating Layer inception_8a/3x3/relu1
I0122 16:59:12.825320 64218 net.cpp:435] inception_8a/3x3/relu1 <- inception_8a/3x3
I0122 16:59:12.825340 64218 net.cpp:396] inception_8a/3x3/relu1 -> inception_8a/3x3 (in-place)
I0122 16:59:12.825346 64218 net.cpp:144] Setting up inception_8a/3x3/relu1
I0122 16:59:12.825350 64218 net.cpp:151] Top shape: 128 96 16 16 (3145728)
I0122 16:59:12.825353 64218 net.cpp:159] Memory required for data: 1245184512
I0122 16:59:12.825356 64218 layer_factory.hpp:77] Creating layer inception_8a/output
I0122 16:59:12.825362 64218 net.cpp:94] Creating Layer inception_8a/output
I0122 16:59:12.825368 64218 net.cpp:435] inception_8a/output <- inception_8a/1x1
I0122 16:59:12.825371 64218 net.cpp:435] inception_8a/output <- inception_8a/3x3
I0122 16:59:12.825376 64218 net.cpp:409] inception_8a/output -> inception_8a/output
I0122 16:59:12.825397 64218 net.cpp:144] Setting up inception_8a/output
I0122 16:59:12.825402 64218 net.cpp:151] Top shape: 128 144 16 16 (4718592)
I0122 16:59:12.825405 64218 net.cpp:159] Memory required for data: 1264058880
I0122 16:59:12.825407 64218 layer_factory.hpp:77] Creating layer inception_8a/output_inception_8a/output_0_split
I0122 16:59:12.825413 64218 net.cpp:94] Creating Layer inception_8a/output_inception_8a/output_0_split
I0122 16:59:12.825418 64218 net.cpp:435] inception_8a/output_inception_8a/output_0_split <- inception_8a/output
I0122 16:59:12.825423 64218 net.cpp:409] inception_8a/output_inception_8a/output_0_split -> inception_8a/output_inception_8a/output_0_split_0
I0122 16:59:12.825429 64218 net.cpp:409] inception_8a/output_inception_8a/output_0_split -> inception_8a/output_inception_8a/output_0_split_1
I0122 16:59:12.825459 64218 net.cpp:144] Setting up inception_8a/output_inception_8a/output_0_split
I0122 16:59:12.825465 64218 net.cpp:151] Top shape: 128 144 16 16 (4718592)
I0122 16:59:12.825469 64218 net.cpp:151] Top shape: 128 144 16 16 (4718592)
I0122 16:59:12.825471 64218 net.cpp:159] Memory required for data: 1301807616
I0122 16:59:12.825475 64218 layer_factory.hpp:77] Creating layer downsample_9/3x3_s2
I0122 16:59:12.825485 64218 net.cpp:94] Creating Layer downsample_9/3x3_s2
I0122 16:59:12.825490 64218 net.cpp:435] downsample_9/3x3_s2 <- inception_8a/output_inception_8a/output_0_split_0
I0122 16:59:12.825496 64218 net.cpp:409] downsample_9/3x3_s2 -> downsample_9/3x3_s2
I0122 16:59:12.826444 64218 net.cpp:144] Setting up downsample_9/3x3_s2
I0122 16:59:12.826455 64218 net.cpp:151] Top shape: 128 96 8 8 (786432)
I0122 16:59:12.826457 64218 net.cpp:159] Memory required for data: 1304953344
I0122 16:59:12.826463 64218 layer_factory.hpp:77] Creating layer downsample_9/3x3_s2/bn1
I0122 16:59:12.826470 64218 net.cpp:94] Creating Layer downsample_9/3x3_s2/bn1
I0122 16:59:12.826476 64218 net.cpp:435] downsample_9/3x3_s2/bn1 <- downsample_9/3x3_s2
I0122 16:59:12.826484 64218 net.cpp:396] downsample_9/3x3_s2/bn1 -> downsample_9/3x3_s2 (in-place)
I0122 16:59:12.827173 64218 net.cpp:144] Setting up downsample_9/3x3_s2/bn1
I0122 16:59:12.827180 64218 net.cpp:151] Top shape: 128 96 8 8 (786432)
I0122 16:59:12.827183 64218 net.cpp:159] Memory required for data: 1308099072
I0122 16:59:12.827191 64218 layer_factory.hpp:77] Creating layer downsample_9/3x3_s2/relu1
I0122 16:59:12.827198 64218 net.cpp:94] Creating Layer downsample_9/3x3_s2/relu1
I0122 16:59:12.827200 64218 net.cpp:435] downsample_9/3x3_s2/relu1 <- downsample_9/3x3_s2
I0122 16:59:12.827209 64218 net.cpp:396] downsample_9/3x3_s2/relu1 -> downsample_9/3x3_s2 (in-place)
I0122 16:59:12.827215 64218 net.cpp:144] Setting up downsample_9/3x3_s2/relu1
I0122 16:59:12.827221 64218 net.cpp:151] Top shape: 128 96 8 8 (786432)
I0122 16:59:12.827224 64218 net.cpp:159] Memory required for data: 1311244800
I0122 16:59:12.827226 64218 layer_factory.hpp:77] Creating layer downsample_9/pool_s2
I0122 16:59:12.827234 64218 net.cpp:94] Creating Layer downsample_9/pool_s2
I0122 16:59:12.827239 64218 net.cpp:435] downsample_9/pool_s2 <- inception_8a/output_inception_8a/output_0_split_1
I0122 16:59:12.827244 64218 net.cpp:409] downsample_9/pool_s2 -> downsample_9/pool_s2
I0122 16:59:12.827275 64218 net.cpp:144] Setting up downsample_9/pool_s2
I0122 16:59:12.827291 64218 net.cpp:151] Top shape: 128 144 8 8 (1179648)
I0122 16:59:12.827293 64218 net.cpp:159] Memory required for data: 1315963392
I0122 16:59:12.827296 64218 layer_factory.hpp:77] Creating layer downsample_9/output
I0122 16:59:12.827301 64218 net.cpp:94] Creating Layer downsample_9/output
I0122 16:59:12.827304 64218 net.cpp:435] downsample_9/output <- downsample_9/3x3_s2
I0122 16:59:12.827307 64218 net.cpp:435] downsample_9/output <- downsample_9/pool_s2
I0122 16:59:12.827314 64218 net.cpp:409] downsample_9/output -> downsample_9/output
I0122 16:59:12.827333 64218 net.cpp:144] Setting up downsample_9/output
I0122 16:59:12.827338 64218 net.cpp:151] Top shape: 128 240 8 8 (1966080)
I0122 16:59:12.827342 64218 net.cpp:159] Memory required for data: 1323827712
I0122 16:59:12.827343 64218 layer_factory.hpp:77] Creating layer downsample_9/output_downsample_9/output_0_split
I0122 16:59:12.827353 64218 net.cpp:94] Creating Layer downsample_9/output_downsample_9/output_0_split
I0122 16:59:12.827358 64218 net.cpp:435] downsample_9/output_downsample_9/output_0_split <- downsample_9/output
I0122 16:59:12.827363 64218 net.cpp:409] downsample_9/output_downsample_9/output_0_split -> downsample_9/output_downsample_9/output_0_split_0
I0122 16:59:12.827368 64218 net.cpp:409] downsample_9/output_downsample_9/output_0_split -> downsample_9/output_downsample_9/output_0_split_1
I0122 16:59:12.827397 64218 net.cpp:144] Setting up downsample_9/output_downsample_9/output_0_split
I0122 16:59:12.827402 64218 net.cpp:151] Top shape: 128 240 8 8 (1966080)
I0122 16:59:12.827406 64218 net.cpp:151] Top shape: 128 240 8 8 (1966080)
I0122 16:59:12.827409 64218 net.cpp:159] Memory required for data: 1339556352
I0122 16:59:12.827412 64218 layer_factory.hpp:77] Creating layer inception_10a/1x1
I0122 16:59:12.827421 64218 net.cpp:94] Creating Layer inception_10a/1x1
I0122 16:59:12.827425 64218 net.cpp:435] inception_10a/1x1 <- downsample_9/output_downsample_9/output_0_split_0
I0122 16:59:12.827432 64218 net.cpp:409] inception_10a/1x1 -> inception_10a/1x1
I0122 16:59:12.827898 64218 net.cpp:144] Setting up inception_10a/1x1
I0122 16:59:12.827904 64218 net.cpp:151] Top shape: 128 176 8 8 (1441792)
I0122 16:59:12.827908 64218 net.cpp:159] Memory required for data: 1345323520
I0122 16:59:12.827913 64218 layer_factory.hpp:77] Creating layer inception_10a/1x1/bn1
I0122 16:59:12.827920 64218 net.cpp:94] Creating Layer inception_10a/1x1/bn1
I0122 16:59:12.827925 64218 net.cpp:435] inception_10a/1x1/bn1 <- inception_10a/1x1
I0122 16:59:12.827931 64218 net.cpp:396] inception_10a/1x1/bn1 -> inception_10a/1x1 (in-place)
I0122 16:59:12.828604 64218 net.cpp:144] Setting up inception_10a/1x1/bn1
I0122 16:59:12.828611 64218 net.cpp:151] Top shape: 128 176 8 8 (1441792)
I0122 16:59:12.828614 64218 net.cpp:159] Memory required for data: 1351090688
I0122 16:59:12.828622 64218 layer_factory.hpp:77] Creating layer inception_10a/1x1/relu1
I0122 16:59:12.828641 64218 net.cpp:94] Creating Layer inception_10a/1x1/relu1
I0122 16:59:12.828647 64218 net.cpp:435] inception_10a/1x1/relu1 <- inception_10a/1x1
I0122 16:59:12.828652 64218 net.cpp:396] inception_10a/1x1/relu1 -> inception_10a/1x1 (in-place)
I0122 16:59:12.828658 64218 net.cpp:144] Setting up inception_10a/1x1/relu1
I0122 16:59:12.828662 64218 net.cpp:151] Top shape: 128 176 8 8 (1441792)
I0122 16:59:12.828665 64218 net.cpp:159] Memory required for data: 1356857856
I0122 16:59:12.828667 64218 layer_factory.hpp:77] Creating layer inception_10a/3x3
I0122 16:59:12.828678 64218 net.cpp:94] Creating Layer inception_10a/3x3
I0122 16:59:12.828683 64218 net.cpp:435] inception_10a/3x3 <- downsample_9/output_downsample_9/output_0_split_1
I0122 16:59:12.828689 64218 net.cpp:409] inception_10a/3x3 -> inception_10a/3x3
I0122 16:59:12.831926 64218 net.cpp:144] Setting up inception_10a/3x3
I0122 16:59:12.831938 64218 net.cpp:151] Top shape: 128 160 8 8 (1310720)
I0122 16:59:12.831941 64218 net.cpp:159] Memory required for data: 1362100736
I0122 16:59:12.831948 64218 layer_factory.hpp:77] Creating layer inception_10a/3x3/bn1
I0122 16:59:12.831982 64218 net.cpp:94] Creating Layer inception_10a/3x3/bn1
I0122 16:59:12.831987 64218 net.cpp:435] inception_10a/3x3/bn1 <- inception_10a/3x3
I0122 16:59:12.831995 64218 net.cpp:396] inception_10a/3x3/bn1 -> inception_10a/3x3 (in-place)
I0122 16:59:12.832643 64218 net.cpp:144] Setting up inception_10a/3x3/bn1
I0122 16:59:12.832650 64218 net.cpp:151] Top shape: 128 160 8 8 (1310720)
I0122 16:59:12.832653 64218 net.cpp:159] Memory required for data: 1367343616
I0122 16:59:12.832660 64218 layer_factory.hpp:77] Creating layer inception_10a/3x3/relu1
I0122 16:59:12.832669 64218 net.cpp:94] Creating Layer inception_10a/3x3/relu1
I0122 16:59:12.832671 64218 net.cpp:435] inception_10a/3x3/relu1 <- inception_10a/3x3
I0122 16:59:12.832675 64218 net.cpp:396] inception_10a/3x3/relu1 -> inception_10a/3x3 (in-place)
I0122 16:59:12.832684 64218 net.cpp:144] Setting up inception_10a/3x3/relu1
I0122 16:59:12.832691 64218 net.cpp:151] Top shape: 128 160 8 8 (1310720)
I0122 16:59:12.832693 64218 net.cpp:159] Memory required for data: 1372586496
I0122 16:59:12.832696 64218 layer_factory.hpp:77] Creating layer inception_10a/output
I0122 16:59:12.832700 64218 net.cpp:94] Creating Layer inception_10a/output
I0122 16:59:12.832705 64218 net.cpp:435] inception_10a/output <- inception_10a/1x1
I0122 16:59:12.832708 64218 net.cpp:435] inception_10a/output <- inception_10a/3x3
I0122 16:59:12.832715 64218 net.cpp:409] inception_10a/output -> inception_10a/output
I0122 16:59:12.832734 64218 net.cpp:144] Setting up inception_10a/output
I0122 16:59:12.832741 64218 net.cpp:151] Top shape: 128 336 8 8 (2752512)
I0122 16:59:12.832743 64218 net.cpp:159] Memory required for data: 1383596544
I0122 16:59:12.832746 64218 layer_factory.hpp:77] Creating layer inception_10a/output_inception_10a/output_0_split
I0122 16:59:12.832751 64218 net.cpp:94] Creating Layer inception_10a/output_inception_10a/output_0_split
I0122 16:59:12.832756 64218 net.cpp:435] inception_10a/output_inception_10a/output_0_split <- inception_10a/output
I0122 16:59:12.832762 64218 net.cpp:409] inception_10a/output_inception_10a/output_0_split -> inception_10a/output_inception_10a/output_0_split_0
I0122 16:59:12.832768 64218 net.cpp:409] inception_10a/output_inception_10a/output_0_split -> inception_10a/output_inception_10a/output_0_split_1
I0122 16:59:12.832796 64218 net.cpp:144] Setting up inception_10a/output_inception_10a/output_0_split
I0122 16:59:12.832803 64218 net.cpp:151] Top shape: 128 336 8 8 (2752512)
I0122 16:59:12.832806 64218 net.cpp:151] Top shape: 128 336 8 8 (2752512)
I0122 16:59:12.832809 64218 net.cpp:159] Memory required for data: 1405616640
I0122 16:59:12.832811 64218 layer_factory.hpp:77] Creating layer inception_11a/1x1
I0122 16:59:12.832820 64218 net.cpp:94] Creating Layer inception_11a/1x1
I0122 16:59:12.832824 64218 net.cpp:435] inception_11a/1x1 <- inception_10a/output_inception_10a/output_0_split_0
I0122 16:59:12.832830 64218 net.cpp:409] inception_11a/1x1 -> inception_11a/1x1
I0122 16:59:12.833395 64218 net.cpp:144] Setting up inception_11a/1x1
I0122 16:59:12.833403 64218 net.cpp:151] Top shape: 128 176 8 8 (1441792)
I0122 16:59:12.833406 64218 net.cpp:159] Memory required for data: 1411383808
I0122 16:59:12.833411 64218 layer_factory.hpp:77] Creating layer inception_11a/1x1/bn1
I0122 16:59:12.833418 64218 net.cpp:94] Creating Layer inception_11a/1x1/bn1
I0122 16:59:12.833425 64218 net.cpp:435] inception_11a/1x1/bn1 <- inception_11a/1x1
I0122 16:59:12.833431 64218 net.cpp:396] inception_11a/1x1/bn1 -> inception_11a/1x1 (in-place)
I0122 16:59:12.834120 64218 net.cpp:144] Setting up inception_11a/1x1/bn1
I0122 16:59:12.834128 64218 net.cpp:151] Top shape: 128 176 8 8 (1441792)
I0122 16:59:12.834132 64218 net.cpp:159] Memory required for data: 1417150976
I0122 16:59:12.834139 64218 layer_factory.hpp:77] Creating layer inception_11a/1x1/relu1
I0122 16:59:12.834146 64218 net.cpp:94] Creating Layer inception_11a/1x1/relu1
I0122 16:59:12.834149 64218 net.cpp:435] inception_11a/1x1/relu1 <- inception_11a/1x1
I0122 16:59:12.834154 64218 net.cpp:396] inception_11a/1x1/relu1 -> inception_11a/1x1 (in-place)
I0122 16:59:12.834172 64218 net.cpp:144] Setting up inception_11a/1x1/relu1
I0122 16:59:12.834177 64218 net.cpp:151] Top shape: 128 176 8 8 (1441792)
I0122 16:59:12.834179 64218 net.cpp:159] Memory required for data: 1422918144
I0122 16:59:12.834183 64218 layer_factory.hpp:77] Creating layer inception_11a/3x3
I0122 16:59:12.834193 64218 net.cpp:94] Creating Layer inception_11a/3x3
I0122 16:59:12.834197 64218 net.cpp:435] inception_11a/3x3 <- inception_10a/output_inception_10a/output_0_split_1
…
I0122 20:39:38.117424 71044 net.cpp:94] Creating Layer inception_3a/output_inception_3a/output_0_split
I0122 20:39:38.117427 71044 net.cpp:435] inception_3a/output_inception_3a/output_0_split <- inception_3a/output
I0122 20:39:38.117434 71044 net.cpp:409] inception_3a/output_inception_3a/output_0_split -> inception_3a/output_inception_3a/output_0_split_0
I0122 20:39:38.117439 71044 net.cpp:409] inception_3a/output_inception_3a/output_0_split -> inception_3a/output_inception_3a/output_0_split_1
I0122 20:39:38.117446 71044 net.cpp:144] Setting up inception_3a/output_inception_3a/output_0_split
I0122 20:39:38.117451 71044 net.cpp:151] Top shape: 50 80 32 32 (4096000)
I0122 20:39:38.117455 71044 net.cpp:151] Top shape: 50 80 32 32 (4096000)
I0122 20:39:38.117457 71044 net.cpp:159] Memory required for data: 325018600
I0122 20:39:38.117460 71044 layer_factory.hpp:77] Creating layer downsample_4/3x3_s2
I0122 20:39:38.117468 71044 net.cpp:94] Creating Layer downsample_4/3x3_s2
I0122 20:39:38.117473 71044 net.cpp:435] downsample_4/3x3_s2 <- inception_3a/output_inception_3a/output_0_split_0
I0122 20:39:38.117480 71044 net.cpp:409] downsample_4/3x3_s2 -> downsample_4/3x3_s2
I0122 20:39:38.117987 71044 net.cpp:144] Setting up downsample_4/3x3_s2
I0122 20:39:38.117996 71044 net.cpp:151] Top shape: 50 80 16 16 (1024000)
I0122 20:39:38.117998 71044 net.cpp:159] Memory required for data: 329114600
I0122 20:39:38.118003 71044 layer_factory.hpp:77] Creating layer downsample_4/3x3_s2/bn1
I0122 20:39:38.118010 71044 net.cpp:94] Creating Layer downsample_4/3x3_s2/bn1
I0122 20:39:38.118013 71044 net.cpp:435] downsample_4/3x3_s2/bn1 <- downsample_4/3x3_s2
I0122 20:39:38.118021 71044 net.cpp:396] downsample_4/3x3_s2/bn1 -> downsample_4/3x3_s2 (in-place)
I0122 20:39:38.118052 71044 net.cpp:144] Setting up downsample_4/3x3_s2/bn1
I0122 20:39:38.118059 71044 net.cpp:151] Top shape: 50 80 16 16 (1024000)
I0122 20:39:38.118062 71044 net.cpp:159] Memory required for data: 333210600
I0122 20:39:38.118069 71044 layer_factory.hpp:77] Creating layer downsample_4/3x3_s2/scale1
I0122 20:39:38.118073 71044 net.cpp:94] Creating Layer downsample_4/3x3_s2/scale1
I0122 20:39:38.118078 71044 net.cpp:435] downsample_4/3x3_s2/scale1 <- downsample_4/3x3_s2
I0122 20:39:38.118084 71044 net.cpp:396] downsample_4/3x3_s2/scale1 -> downsample_4/3x3_s2 (in-place)
I0122 20:39:38.118093 71044 layer_factory.hpp:77] Creating layer downsample_4/3x3_s2/scale1
I0122 20:39:38.118108 71044 net.cpp:144] Setting up downsample_4/3x3_s2/scale1
I0122 20:39:38.118114 71044 net.cpp:151] Top shape: 50 80 16 16 (1024000)
I0122 20:39:38.118116 71044 net.cpp:159] Memory required for data: 337306600
I0122 20:39:38.118120 71044 layer_factory.hpp:77] Creating layer downsample_4/3x3_s2/relu1
I0122 20:39:38.118126 71044 net.cpp:94] Creating Layer downsample_4/3x3_s2/relu1
I0122 20:39:38.118129 71044 net.cpp:435] downsample_4/3x3_s2/relu1 <- downsample_4/3x3_s2
I0122 20:39:38.118134 71044 net.cpp:396] downsample_4/3x3_s2/relu1 -> downsample_4/3x3_s2 (in-place)
I0122 20:39:38.118147 71044 net.cpp:144] Setting up downsample_4/3x3_s2/relu1
I0122 20:39:38.118150 71044 net.cpp:151] Top shape: 50 80 16 16 (1024000)
I0122 20:39:38.118155 71044 net.cpp:159] Memory required for data: 341402600
I0122 20:39:38.118156 71044 layer_factory.hpp:77] Creating layer downsample_4/pool_s2
I0122 20:39:38.118161 71044 net.cpp:94] Creating Layer downsample_4/pool_s2
I0122 20:39:38.118165 71044 net.cpp:435] downsample_4/pool_s2 <- inception_3a/output_inception_3a/output_0_split_1
I0122 20:39:38.118170 71044 net.cpp:409] downsample_4/pool_s2 -> downsample_4/pool_s2
I0122 20:39:38.118183 71044 net.cpp:144] Setting up downsample_4/pool_s2
I0122 20:39:38.118188 71044 net.cpp:151] Top shape: 50 80 16 16 (1024000)
I0122 20:39:38.118191 71044 net.cpp:159] Memory required for data: 345498600
I0122 20:39:38.118193 71044 layer_factory.hpp:77] Creating layer downsample_4/output
I0122 20:39:38.118201 71044 net.cpp:94] Creating Layer downsample_4/output
I0122 20:39:38.118204 71044 net.cpp:435] downsample_4/output <- downsample_4/3x3_s2
I0122 20:39:38.118208 71044 net.cpp:435] downsample_4/output <- downsample_4/pool_s2
I0122 20:39:38.118213 71044 net.cpp:409] downsample_4/output -> downsample_4/output
I0122 20:39:38.118219 71044 net.cpp:144] Setting up downsample_4/output
I0122 20:39:38.118222 71044 net.cpp:151] Top shape: 50 160 16 16 (2048000)
I0122 20:39:38.118225 71044 net.cpp:159] Memory required for data: 353690600
I0122 20:39:38.118228 71044 layer_factory.hpp:77] Creating layer downsample_4/output_downsample_4/output_0_split
I0122 20:39:38.118232 71044 net.cpp:94] Creating Layer downsample_4/output_downsample_4/output_0_split
I0122 20:39:38.118235 71044 net.cpp:435] downsample_4/output_downsample_4/output_0_split <- downsample_4/output
I0122 20:39:38.118240 71044 net.cpp:409] downsample_4/output_downsample_4/output_0_split -> downsample_4/output_downsample_4/output_0_split_0
I0122 20:39:38.118249 71044 net.cpp:409] downsample_4/output_downsample_4/output_0_split -> downsample_4/output_downsample_4/output_0_split_1
I0122 20:39:38.118255 71044 net.cpp:144] Setting up downsample_4/output_downsample_4/output_0_split
I0122 20:39:38.118258 71044 net.cpp:151] Top shape: 50 160 16 16 (2048000)
I0122 20:39:38.118263 71044 net.cpp:151] Top shape: 50 160 16 16 (2048000)
I0122 20:39:38.118265 71044 net.cpp:159] Memory required for data: 370074600
I0122 20:39:38.118268 71044 layer_factory.hpp:77] Creating layer inception_5a/1x1
I0122 20:39:38.118278 71044 net.cpp:94] Creating Layer inception_5a/1x1
I0122 20:39:38.118283 71044 net.cpp:435] inception_5a/1x1 <- downsample_4/output_downsample_4/output_0_split_0
I0122 20:39:38.118288 71044 net.cpp:409] inception_5a/1x1 -> inception_5a/1x1
I0122 20:39:38.118453 71044 net.cpp:144] Setting up inception_5a/1x1
I0122 20:39:38.118458 71044 net.cpp:151] Top shape: 50 112 16 16 (1433600)
I0122 20:39:38.118460 71044 net.cpp:159] Memory required for data: 375809000
I0122 20:39:38.118465 71044 layer_factory.hpp:77] Creating layer inception_5a/1x1/bn1
I0122 20:39:38.118471 71044 net.cpp:94] Creating Layer inception_5a/1x1/bn1
I0122 20:39:38.118474 71044 net.cpp:435] inception_5a/1x1/bn1 <- inception_5a/1x1
I0122 20:39:38.118481 71044 net.cpp:396] inception_5a/1x1/bn1 -> inception_5a/1x1 (in-place)
I0122 20:39:38.118515 71044 net.cpp:144] Setting up inception_5a/1x1/bn1
I0122 20:39:38.118520 71044 net.cpp:151] Top shape: 50 112 16 16 (1433600)
I0122 20:39:38.118522 71044 net.cpp:159] Memory required for data: 381543400
I0122 20:39:38.118528 71044 layer_factory.hpp:77] Creating layer inception_5a/1x1/scale1
I0122 20:39:38.118535 71044 net.cpp:94] Creating Layer inception_5a/1x1/scale1
I0122 20:39:38.118540 71044 net.cpp:435] inception_5a/1x1/scale1 <- inception_5a/1x1
I0122 20:39:38.118546 71044 net.cpp:396] inception_5a/1x1/scale1 -> inception_5a/1x1 (in-place)
I0122 20:39:38.118552 71044 layer_factory.hpp:77] Creating layer inception_5a/1x1/scale1
I0122 20:39:38.118568 71044 net.cpp:144] Setting up inception_5a/1x1/scale1
I0122 20:39:38.118573 71044 net.cpp:151] Top shape: 50 112 16 16 (1433600)
I0122 20:39:38.118582 71044 net.cpp:159] Memory required for data: 387277800
I0122 20:39:38.118587 71044 layer_factory.hpp:77] Creating layer inception_5a/1x1/relu1
I0122 20:39:38.118590 71044 net.cpp:94] Creating Layer inception_5a/1x1/relu1
I0122 20:39:38.118593 71044 net.cpp:435] inception_5a/1x1/relu1 <- inception_5a/1x1
I0122 20:39:38.118599 71044 net.cpp:396] inception_5a/1x1/relu1 -> inception_5a/1x1 (in-place)
I0122 20:39:38.118604 71044 net.cpp:144] Setting up inception_5a/1x1/relu1
I0122 20:39:38.118608 71044 net.cpp:151] Top shape: 50 112 16 16 (1433600)
I0122 20:39:38.118611 71044 net.cpp:159] Memory required for data: 393012200
I0122 20:39:38.118614 71044 layer_factory.hpp:77] Creating layer inception_5a/3x3
I0122 20:39:38.118621 71044 net.cpp:94] Creating Layer inception_5a/3x3
I0122 20:39:38.118628 71044 net.cpp:435] inception_5a/3x3 <- downsample_4/output_downsample_4/output_0_split_1
I0122 20:39:38.118633 71044 net.cpp:409] inception_5a/3x3 -> inception_5a/3x3
I0122 20:39:38.119217 71044 net.cpp:144] Setting up inception_5a/3x3
I0122 20:39:38.119225 71044 net.cpp:151] Top shape: 50 48 16 16 (614400)
I0122 20:39:38.119227 71044 net.cpp:159] Memory required for data: 395469800
I0122 20:39:38.119240 71044 layer_factory.hpp:77] Creating layer inception_5a/3x3/bn1
I0122 20:39:38.119248 71044 net.cpp:94] Creating Layer inception_5a/3x3/bn1
I0122 20:39:38.119251 71044 net.cpp:435] inception_5a/3x3/bn1 <- inception_5a/3x3
I0122 20:39:38.119256 71044 net.cpp:396] inception_5a/3x3/bn1 -> inception_5a/3x3 (in-place)
I0122 20:39:38.119289 71044 net.cpp:144] Setting up inception_5a/3x3/bn1
I0122 20:39:38.119294 71044 net.cpp:151] Top shape: 50 48 16 16 (614400)
I0122 20:39:38.119297 71044 net.cpp:159] Memory required for data: 397927400
I0122 20:39:38.119304 71044 layer_factory.hpp:77] Creating layer inception_5a/3x3/scale1
I0122 20:39:38.119309 71044 net.cpp:94] Creating Layer inception_5a/3x3/scale1
I0122 20:39:38.119314 71044 net.cpp:435] inception_5a/3x3/scale1 <- inception_5a/3x3
I0122 20:39:38.119320 71044 net.cpp:396] inception_5a/3x3/scale1 -> inception_5a/3x3 (in-place)
I0122 20:39:38.119328 71044 layer_factory.hpp:77] Creating layer inception_5a/3x3/scale1
I0122 20:39:38.119343 71044 net.cpp:144] Setting up inception_5a/3x3/scale1
I0122 20:39:38.119347 71044 net.cpp:151] Top shape: 50 48 16 16 (614400)
I0122 20:39:38.119350 71044 net.cpp:159] Memory required for data: 400385000
I0122 20:39:38.119354 71044 layer_factory.hpp:77] Creating layer inception_5a/3x3/relu1
I0122 20:39:38.119359 71044 net.cpp:94] Creating Layer inception_5a/3x3/relu1
I0122 20:39:38.119362 71044 net.cpp:435] inception_5a/3x3/relu1 <- inception_5a/3x3
I0122 20:39:38.119366 71044 net.cpp:396] inception_5a/3x3/relu1 -> inception_5a/3x3 (in-place)
I0122 20:39:38.119372 71044 net.cpp:144] Setting up inception_5a/3x3/relu1
I0122 20:39:38.119375 71044 net.cpp:151] Top shape: 50 48 16 16 (614400)
I0122 20:39:38.119379 71044 net.cpp:159] Memory required for data: 402842600
I0122 20:39:38.119380 71044 layer_factory.hpp:77] Creating layer inception_5a/output
I0122 20:39:38.119386 71044 net.cpp:94] Creating Layer inception_5a/output
I0122 20:39:38.119390 71044 net.cpp:435] inception_5a/output <- inception_5a/1x1
I0122 20:39:38.119392 71044 net.cpp:435] inception_5a/output <- inception_5a/3x3
I0122 20:39:38.119397 71044 net.cpp:409] inception_5a/output -> inception_5a/output
I0122 20:39:38.119405 71044 net.cpp:144] Setting up inception_5a/output
I0122 20:39:38.119407 71044 net.cpp:151] Top shape: 50 160 16 16 (2048000)
I0122 20:39:38.119410 71044 net.cpp:159] Memory required for data: 411034600
I0122 20:39:38.119412 71044 layer_factory.hpp:77] Creating layer inception_5a/output_inception_5a/output_0_split
I0122 20:39:38.119417 71044 net.cpp:94] Creating Layer inception_5a/output_inception_5a/output_0_split
I0122 20:39:38.119421 71044 net.cpp:435] inception_5a/output_inception_5a/output_0_split <- inception_5a/output
I0122 20:39:38.119426 71044 net.cpp:409] inception_5a/output_inception_5a/output_0_split -> inception_5a/output_inception_5a/output_0_split_0
I0122 20:39:38.119439 71044 net.cpp:409] inception_5a/output_inception_5a/output_0_split -> inception_5a/output_inception_5a/output_0_split_1
I0122 20:39:38.119447 71044 net.cpp:144] Setting up inception_5a/output_inception_5a/output_0_split
I0122 20:39:38.119452 71044 net.cpp:151] Top shape: 50 160 16 16 (2048000)
I0122 20:39:38.119457 71044 net.cpp:151] Top shape: 50 160 16 16 (2048000)
I0122 20:39:38.119458 71044 net.cpp:159] Memory required for data: 427418600
I0122 20:39:38.119462 71044 layer_factory.hpp:77] Creating layer inception_6a/1x1
I0122 20:39:38.119468 71044 net.cpp:94] Creating Layer inception_6a/1x1
I0122 20:39:38.119472 71044 net.cpp:435] inception_6a/1x1 <- inception_5a/output_inception_5a/output_0_split_0
I0122 20:39:38.119477 71044 net.cpp:409] inception_6a/1x1 -> inception_6a/1x1
I0122 20:39:38.119627 71044 net.cpp:144] Setting up inception_6a/1x1
I0122 20:39:38.119633 71044 net.cpp:151] Top shape: 50 96 16 16 (1228800)
I0122 20:39:38.119637 71044 net.cpp:159] Memory required for data: 432333800
I0122 20:39:38.119640 71044 layer_factory.hpp:77] Creating layer inception_6a/1x1/bn1
I0122 20:39:38.119647 71044 net.cpp:94] Creating Layer inception_6a/1x1/bn1
I0122 20:39:38.119650 71044 net.cpp:435] inception_6a/1x1/bn1 <- inception_6a/1x1
I0122 20:39:38.119657 71044 net.cpp:396] inception_6a/1x1/bn1 -> inception_6a/1x1 (in-place)
I0122 20:39:38.119691 71044 net.cpp:144] Setting up inception_6a/1x1/bn1
I0122 20:39:38.119698 71044 net.cpp:151] Top shape: 50 96 16 16 (1228800)
I0122 20:39:38.119700 71044 net.cpp:159] Memory required for data: 437249000
I0122 20:39:38.119709 71044 layer_factory.hpp:77] Creating layer inception_6a/1x1/scale1
I0122 20:39:38.119716 71044 net.cpp:94] Creating Layer inception_6a/1x1/scale1
I0122 20:39:38.119720 71044 net.cpp:435] inception_6a/1x1/scale1 <- inception_6a/1x1
I0122 20:39:38.119725 71044 net.cpp:396] inception_6a/1x1/scale1 -> inception_6a/1x1 (in-place)
I0122 20:39:38.119732 71044 layer_factory.hpp:77] Creating layer inception_6a/1x1/scale1
I0122 20:39:38.119747 71044 net.cpp:144] Setting up inception_6a/1x1/scale1
I0122 20:39:38.119752 71044 net.cpp:151] Top shape: 50 96 16 16 (1228800)
I0122 20:39:38.119755 71044 net.cpp:159] Memory required for data: 442164200
I0122 20:39:38.119760 71044 layer_factory.hpp:77] Creating layer inception_6a/1x1/relu1
I0122 20:39:38.119763 71044 net.cpp:94] Creating Layer inception_6a/1x1/relu1
I0122 20:39:38.119766 71044 net.cpp:435] inception_6a/1x1/relu1 <- inception_6a/1x1
I0122 20:39:38.119771 71044 net.cpp:396] inception_6a/1x1/relu1 -> inception_6a/1x1 (in-place)
I0122 20:39:38.119776 71044 net.cpp:144] Setting up inception_6a/1x1/relu1
I0122 20:39:38.119778 71044 net.cpp:151] Top shape: 50 96 16 16 (1228800)
I0122 20:39:38.119782 71044 net.cpp:159] Memory required for data: 447079400
I0122 20:39:38.119784 71044 layer_factory.hpp:77] Creating layer inception_6a/3x3
I0122 20:39:38.119792 71044 net.cpp:94] Creating Layer inception_6a/3x3
I0122 20:39:38.119796 71044 net.cpp:435] inception_6a/3x3 <- inception_5a/output_inception_5a/output_0_split_1
I0122 20:39:38.119801 71044 net.cpp:409] inception_6a/3x3 -> inception_6a/3x3
I0122 20:39:38.120568 71044 net.cpp:144] Setting up inception_6a/3x3
I0122 20:39:38.120575 71044 net.cpp:151] Top shape: 50 64 16 16 (819200)
I0122 20:39:38.120579 71044 net.cpp:159] Memory required for data: 450356200
I0122 20:39:38.120584 71044 layer_factory.hpp:77] Creating layer inception_6a/3x3/bn1
I0122 20:39:38.120590 71044 net.cpp:94] Creating Layer inception_6a/3x3/bn1
I0122 20:39:38.120595 71044 net.cpp:435] inception_6a/3x3/bn1 <- inception_6a/3x3
I0122 20:39:38.120601 71044 net.cpp:396] inception_6a/3x3/bn1 -> inception_6a/3x3 (in-place)
I0122 20:39:38.120636 71044 net.cpp:144] Setting up inception_6a/3x3/bn1
I0122 20:39:38.120641 71044 net.cpp:151] Top shape: 50 64 16 16 (819200)
I0122 20:39:38.120645 71044 net.cpp:159] Memory required for data: 453633000
I0122 20:39:38.120651 71044 layer_factory.hpp:77] Creating layer inception_6a/3x3/scale1
I0122 20:39:38.120658 71044 net.cpp:94] Creating Layer inception_6a/3x3/scale1
I0122 20:39:38.120669 71044 net.cpp:435] inception_6a/3x3/scale1 <- inception_6a/3x3
I0122 20:39:38.120674 71044 net.cpp:396] inception_6a/3x3/scale1 -> inception_6a/3x3 (in-place)
I0122 20:39:38.120683 71044 layer_factory.hpp:77] Creating layer inception_6a/3x3/scale1
I0122 20:39:38.120699 71044 net.cpp:144] Setting up inception_6a/3x3/scale1
I0122 20:39:38.120707 71044 net.cpp:151] Top shape: 50 64 16 16 (819200)
I0122 20:39:38.120709 71044 net.cpp:159] Memory required for data: 456909800
I0122 20:39:38.120713 71044 layer_factory.hpp:77] Creating layer inception_6a/3x3/relu1
I0122 20:39:38.120718 71044 net.cpp:94] Creating Layer inception_6a/3x3/relu1
I0122 20:39:38.120721 71044 net.cpp:435] inception_6a/3x3/relu1 <- inception_6a/3x3
I0122 20:39:38.120725 71044 net.cpp:396] inception_6a/3x3/relu1 -> inception_6a/3x3 (in-place)
I0122 20:39:38.120730 71044 net.cpp:144] Setting up inception_6a/3x3/relu1
I0122 20:39:38.120734 71044 net.cpp:151] Top shape: 50 64 16 16 (819200)
I0122 20:39:38.120738 71044 net.cpp:159] Memory required for data: 460186600
I0122 20:39:38.120740 71044 layer_factory.hpp:77] Creating layer inception_6a/output
I0122 20:39:38.120745 71044 net.cpp:94] Creating Layer inception_6a/output
I0122 20:39:38.120749 71044 net.cpp:435] inception_6a/output <- inception_6a/1x1
I0122 20:39:38.120752 71044 net.cpp:435] inception_6a/output <- inception_6a/3x3
I0122 20:39:38.120756 71044 net.cpp:409] inception_6a/output -> inception_6a/output
I0122 20:39:38.120764 71044 net.cpp:144] Setting up inception_6a/output
I0122 20:39:38.120767 71044 net.cpp:151] Top shape: 50 160 16 16 (2048000)
I0122 20:39:38.120769 71044 net.cpp:159] Memory required for data: 468378600
I0122 20:39:38.120772 71044 layer_factory.hpp:77] Creating layer inception_6a/output_inception_6a/output_0_split
I0122 20:39:38.120776 71044 net.cpp:94] Creating Layer inception_6a/output_inception_6a/output_0_split
I0122 20:39:38.120779 71044 net.cpp:435] inception_6a/output_inception_6a/output_0_split <- inception_6a/output
I0122 20:39:38.120785 71044 net.cpp:409] inception_6a/output_inception_6a/output_0_split -> inception_6a/output_inception_6a/output_0_split_0
I0122 20:39:38.120793 71044 net.cpp:409] inception_6a/output_inception_6a/output_0_split -> inception_6a/output_inception_6a/output_0_split_1
I0122 20:39:38.120800 71044 net.cpp:144] Setting up inception_6a/output_inception_6a/output_0_split
I0122 20:39:38.120806 71044 net.cpp:151] Top shape: 50 160 16 16 (2048000)
I0122 20:39:38.120810 71044 net.cpp:151] Top shape: 50 160 16 16 (2048000)
I0122 20:39:38.120812 71044 net.cpp:159] Memory required for data: 484762600
I0122 20:39:38.120815 71044 layer_factory.hpp:77] Creating layer inception_7a/1x1
I0122 20:39:38.120823 71044 net.cpp:94] Creating Layer inception_7a/1x1
I0122 20:39:38.120826 71044 net.cpp:435] inception_7a/1x1 <- inception_6a/output_inception_6a/output_0_split_0
I0122 20:39:38.120832 71044 net.cpp:409] inception_7a/1x1 -> inception_7a/1x1
I0122 20:39:38.120954 71044 net.cpp:144] Setting up inception_7a/1x1
I0122 20:39:38.120960 71044 net.cpp:151] Top shape: 50 80 16 16 (1024000)
I0122 20:39:38.120963 71044 net.cpp:159] Memory required for data: 488858600
I0122 20:39:38.120967 71044 layer_factory.hpp:77] Creating layer inception_7a/1x1/bn1
I0122 20:39:38.120973 71044 net.cpp:94] Creating Layer inception_7a/1x1/bn1
I0122 20:39:38.120977 71044 net.cpp:435] inception_7a/1x1/bn1 <- inception_7a/1x1
I0122 20:39:38.120982 71044 net.cpp:396] inception_7a/1x1/bn1 -> inception_7a/1x1 (in-place)
I0122 20:39:38.121013 71044 net.cpp:144] Setting up inception_7a/1x1/bn1
I0122 20:39:38.121019 71044 net.cpp:151] Top shape: 50 80 16 16 (1024000)
I0122 20:39:38.121022 71044 net.cpp:159] Memory required for data: 492954600
I0122 20:39:38.121028 71044 layer_factory.hpp:77] Creating layer inception_7a/1x1/scale1
I0122 20:39:38.121033 71044 net.cpp:94] Creating Layer inception_7a/1x1/scale1
I0122 20:39:38.121038 71044 net.cpp:435] inception_7a/1x1/scale1 <- inception_7a/1x1
I0122 20:39:38.121044 71044 net.cpp:396] inception_7a/1x1/scale1 -> inception_7a/1x1 (in-place)
I0122 20:39:38.121057 71044 layer_factory.hpp:77] Creating layer inception_7a/1x1/scale1
I0122 20:39:38.121071 71044 net.cpp:144] Setting up inception_7a/1x1/scale1
I0122 20:39:38.121078 71044 net.cpp:151] Top shape: 50 80 16 16 (1024000)
I0122 20:39:38.121080 71044 net.cpp:159] Memory required for data: 497050600
I0122 20:39:38.121084 71044 layer_factory.hpp:77] Creating layer inception_7a/1x1/relu1
I0122 20:39:38.121088 71044 net.cpp:94] Creating Layer inception_7a/1x1/relu1
I0122 20:39:38.121090 71044 net.cpp:435] inception_7a/1x1/relu1 <- inception_7a/1x1
I0122 20:39:38.121098 71044 net.cpp:396] inception_7a/1x1/relu1 -> inception_7a/1x1 (in-place)
I0122 20:39:38.121104 71044 net.cpp:144] Setting up inception_7a/1x1/relu1
I0122 20:39:38.121107 71044 net.cpp:151] Top shape: 50 80 16 16 (1024000)
I0122 20:39:38.121109 71044 net.cpp:159] Memory required for data: 501146600
I0122 20:39:38.121112 71044 layer_factory.hpp:77] Creating layer inception_7a/3x3
I0122 20:39:38.121119 71044 net.cpp:94] Creating Layer inception_7a/3x3
I0122 20:39:38.121124 71044 net.cpp:435] inception_7a/3x3 <- inception_6a/output_inception_6a/output_0_split_1
I0122 20:39:38.121130 71044 net.cpp:409] inception_7a/3x3 -> inception_7a/3x3
I0122 20:39:38.122095 71044 net.cpp:144] Setting up inception_7a/3x3
I0122 20:39:38.122105 71044 net.cpp:151] Top shape: 50 80 16 16 (1024000)
I0122 20:39:38.122107 71044 net.cpp:159] Memory required for data: 505242600
I0122 20:39:38.122112 71044 layer_factory.hpp:77] Creating layer inception_7a/3x3/bn1
I0122 20:39:38.122120 71044 net.cpp:94] Creating Layer inception_7a/3x3/bn1
I0122 20:39:38.122126 71044 net.cpp:435] inception_7a/3x3/bn1 <- inception_7a/3x3
I0122 20:39:38.122131 71044 net.cpp:396] inception_7a/3x3/bn1 -> inception_7a/3x3 (in-place)
I0122 20:39:38.122164 71044 net.cpp:144] Setting up inception_7a/3x3/bn1
I0122 20:39:38.122169 71044 net.cpp:151] Top shape: 50 80 16 16 (1024000)
I0122 20:39:38.122172 71044 net.cpp:159] Memory required for data: 509338600
I0122 20:39:38.122179 71044 layer_factory.hpp:77] Creating layer inception_7a/3x3/scale1
I0122 20:39:38.122184 71044 net.cpp:94] Creating Layer inception_7a/3x3/scale1
I0122 20:39:38.122189 71044 net.cpp:435] inception_7a/3x3/scale1 <- inception_7a/3x3
I0122 20:39:38.122195 71044 net.cpp:396] inception_7a/3x3/scale1 -> inception_7a/3x3 (in-place)
I0122 20:39:38.122203 71044 layer_factory.hpp:77] Creating layer inception_7a/3x3/scale1
I0122 20:39:38.122218 71044 net.cpp:144] Setting up inception_7a/3x3/scale1
I0122 20:39:38.122225 71044 net.cpp:151] Top shape: 50 80 16 16 (1024000)
I0122 20:39:38.122227 71044 net.cpp:159] Memory required for data: 513434600
I0122 20:39:38.122231 71044 layer_factory.hpp:77] Creating layer inception_7a/3x3/relu1
I0122 20:39:38.122236 71044 net.cpp:94] Creating Layer inception_7a/3x3/relu1
I0122 20:39:38.122241 71044 net.cpp:435] inception_7a/3x3/relu1 <- inception_7a/3x3
I0122 20:39:38.122243 71044 net.cpp:396] inception_7a/3x3/relu1 -> inception_7a/3x3 (in-place)
I0122 20:39:38.122249 71044 net.cpp:144] Setting up inception_7a/3x3/relu1
I0122 20:39:38.122252 71044 net.cpp:151] Top shape: 50 80 16 16 (1024000)
I0122 20:39:38.122256 71044 net.cpp:159] Memory required for data: 517530600
I0122 20:39:38.122258 71044 layer_factory.hpp:77] Creating layer inception_7a/output
I0122 20:39:38.122262 71044 net.cpp:94] Creating Layer inception_7a/output
I0122 20:39:38.122264 71044 net.cpp:435] inception_7a/output <- inception_7a/1x1
I0122 20:39:38.122269 71044 net.cpp:435] inception_7a/output <- inception_7a/3x3
I0122 20:39:38.122275 71044 net.cpp:409] inception_7a/output -> inception_7a/output
I0122 20:39:38.122282 71044 net.cpp:144] Setting up inception_7a/output
I0122 20:39:38.122287 71044 net.cpp:151] Top shape: 50 160 16 16 (2048000)
I0122 20:39:38.122289 71044 net.cpp:159] Memory required for data: 525722600
I0122 20:39:38.122292 71044 layer_factory.hpp:77] Creating layer inception_7a/output_inception_7a/output_0_split
I0122 20:39:38.122297 71044 net.cpp:94] Creating Layer inception_7a/output_inception_7a/output_0_split
I0122 20:39:38.122310 71044 net.cpp:435] inception_7a/output_inception_7a/output_0_split <- inception_7a/output
I0122 20:39:38.122316 71044 net.cpp:409] inception_7a/output_inception_7a/output_0_split -> inception_7a/output_inception_7a/output_0_split_0
I0122 20:39:38.122321 71044 net.cpp:409] inception_7a/output_inception_7a/output_0_split -> inception_7a/output_inception_7a/output_0_split_1
I0122 20:39:38.122328 71044 net.cpp:144] Setting up inception_7a/output_inception_7a/output_0_split
I0122 20:39:38.122334 71044 net.cpp:151] Top shape: 50 160 16 16 (2048000)
I0122 20:39:38.122337 71044 net.cpp:151] Top shape: 50 160 16 16 (2048000)
I0122 20:39:38.122339 71044 net.cpp:159] Memory required for data: 542106600
I0122 20:39:38.122342 71044 layer_factory.hpp:77] Creating layer inception_8a/1x1
I0122 20:39:38.122354 71044 net.cpp:94] Creating Layer inception_8a/1x1
I0122 20:39:38.122359 71044 net.cpp:435] inception_8a/1x1 <- inception_7a/output_inception_7a/output_0_split_0
I0122 20:39:38.122364 71044 net.cpp:409] inception_8a/1x1 -> inception_8a/1x1
I0122 20:39:38.122445 71044 net.cpp:144] Setting up inception_8a/1x1
I0122 20:39:38.122450 71044 net.cpp:151] Top shape: 50 48 16 16 (614400)
I0122 20:39:38.122453 71044 net.cpp:159] Memory required for data: 544564200
I0122 20:39:38.122458 71044 layer_factory.hpp:77] Creating layer inception_8a/1x1/bn1
I0122 20:39:38.122464 71044 net.cpp:94] Creating Layer inception_8a/1x1/bn1
I0122 20:39:38.122467 71044 net.cpp:435] inception_8a/1x1/bn1 <- inception_8a/1x1
I0122 20:39:38.122474 71044 net.cpp:396] inception_8a/1x1/bn1 -> inception_8a/1x1 (in-place)
I0122 20:39:38.122509 71044 net.cpp:144] Setting up inception_8a/1x1/bn1
I0122 20:39:38.122514 71044 net.cpp:151] Top shape: 50 48 16 16 (614400)
I0122 20:39:38.122516 71044 net.cpp:159] Memory required for data: 547021800
I0122 20:39:38.122524 71044 layer_factory.hpp:77] Creating layer inception_8a/1x1/scale1
I0122 20:39:38.122529 71044 net.cpp:94] Creating Layer inception_8a/1x1/scale1
I0122 20:39:38.122531 71044 net.cpp:435] inception_8a/1x1/scale1 <- inception_8a/1x1
I0122 20:39:38.122536 71044 net.cpp:396] inception_8a/1x1/scale1 -> inception_8a/1x1 (in-place)
I0122 20:39:38.122545 71044 layer_factory.hpp:77] Creating layer inception_8a/1x1/scale1
I0122 20:39:38.122558 71044 net.cpp:144] Setting up inception_8a/1x1/scale1
I0122 20:39:38.122565 71044 net.cpp:151] Top shape: 50 48 16 16 (614400)
I0122 20:39:38.122566 71044 net.cpp:159] Memory required for data: 549479400
I0122 20:39:38.122571 71044 layer_factory.hpp:77] Creating layer inception_8a/1x1/relu1
I0122 20:39:38.122576 71044 net.cpp:94] Creating Layer inception_8a/1x1/relu1
I0122 20:39:38.122578 71044 net.cpp:435] inception_8a/1x1/relu1 <- inception_8a/1x1
I0122 20:39:38.122582 71044 net.cpp:396] inception_8a/1x1/relu1 -> inception_8a/1x1 (in-place)
I0122 20:39:38.122588 71044 net.cpp:144] Setting up inception_8a/1x1/relu1
I0122 20:39:38.122591 71044 net.cpp:151] Top shape: 50 48 16 16 (614400)
I0122 20:39:38.122594 71044 net.cpp:159] Memory required for data: 551937000
I0122 20:39:38.122596 71044 layer_factory.hpp:77] Creating layer inception_8a/3x3
I0122 20:39:38.122611 71044 net.cpp:94] Creating Layer inception_8a/3x3
I0122 20:39:38.122615 71044 net.cpp:435] inception_8a/3x3 <- inception_7a/output_inception_7a/output_0_split_1
I0122 20:39:38.122620 71044 net.cpp:409] inception_8a/3x3 -> inception_8a/3x3
I0122 20:39:38.123759 71044 net.cpp:144] Setting up inception_8a/3x3
I0122 20:39:38.123770 71044 net.cpp:151] Top shape: 50 96 16 16 (1228800)
I0122 20:39:38.123772 71044 net.cpp:159] Memory required for data: 556852200
I0122 20:39:38.123777 71044 layer_factory.hpp:77] Creating layer inception_8a/3x3/bn1
I0122 20:39:38.123785 71044 net.cpp:94] Creating Layer inception_8a/3x3/bn1
I0122 20:39:38.123790 71044 net.cpp:435] inception_8a/3x3/bn1 <- inception_8a/3x3
I0122 20:39:38.123795 71044 net.cpp:396] inception_8a/3x3/bn1 -> inception_8a/3x3 (in-place)
I0122 20:39:38.123828 71044 net.cpp:144] Setting up inception_8a/3x3/bn1
I0122 20:39:38.123842 71044 net.cpp:151] Top shape: 50 96 16 16 (1228800)
I0122 20:39:38.123847 71044 net.cpp:159] Memory required for data: 561767400
I0122 20:39:38.123852 71044 layer_factory.hpp:77] Creating layer inception_8a/3x3/scale1
I0122 20:39:38.123858 71044 net.cpp:94] Creating Layer inception_8a/3x3/scale1
I0122 20:39:38.123862 71044 net.cpp:435] inception_8a/3x3/scale1 <- inception_8a/3x3
I0122 20:39:38.123867 71044 net.cpp:396] inception_8a/3x3/scale1 -> inception_8a/3x3 (in-place)
I0122 20:39:38.123874 71044 layer_factory.hpp:77] Creating layer inception_8a/3x3/scale1
I0122 20:39:38.123891 71044 net.cpp:144] Setting up inception_8a/3x3/scale1
I0122 20:39:38.123896 71044 net.cpp:151] Top shape: 50 96 16 16 (1228800)
I0122 20:39:38.123899 71044 net.cpp:159] Memory required for data: 566682600
I0122 20:39:38.123903 71044 layer_factory.hpp:77] Creating layer inception_8a/3x3/relu1
I0122 20:39:38.123908 71044 net.cpp:94] Creating Layer inception_8a/3x3/relu1
I0122 20:39:38.123911 71044 net.cpp:435] inception_8a/3x3/relu1 <- inception_8a/3x3
I0122 20:39:38.123915 71044 net.cpp:396] inception_8a/3x3/relu1 -> inception_8a/3x3 (in-place)
I0122 20:39:38.123920 71044 net.cpp:144] Setting up inception_8a/3x3/relu1
I0122 20:39:38.123924 71044 net.cpp:151] Top shape: 50 96 16 16 (1228800)
I0122 20:39:38.123926 71044 net.cpp:159] Memory required for data: 571597800
I0122 20:39:38.123929 71044 layer_factory.hpp:77] Creating layer inception_8a/output
I0122 20:39:38.123934 71044 net.cpp:94] Creating Layer inception_8a/output
I0122 20:39:38.123936 71044 net.cpp:435] inception_8a/output <- inception_8a/1x1
I0122 20:39:38.123939 71044 net.cpp:435] inception_8a/output <- inception_8a/3x3
I0122 20:39:38.123945 71044 net.cpp:409] inception_8a/output -> inception_8a/output
I0122 20:39:38.123951 71044 net.cpp:144] Setting up inception_8a/output
I0122 20:39:38.123955 71044 net.cpp:151] Top shape: 50 144 16 16 (1843200)
I0122 20:39:38.123957 71044 net.cpp:159] Memory required for data: 578970600
I0122 20:39:38.123960 71044 layer_factory.hpp:77] Creating layer inception_8a/output_inception_8a/output_0_split
I0122 20:39:38.123966 71044 net.cpp:94] Creating Layer inception_8a/output_inception_8a/output_0_split
I0122 20:39:38.123968 71044 net.cpp:435] inception_8a/output_inception_8a/output_0_split <- inception_8a/output
I0122 20:39:38.123973 71044 net.cpp:409] inception_8a/output_inception_8a/output_0_split -> inception_8a/output_inception_8a/output_0_split_0
I0122 20:39:38.123980 71044 net.cpp:409] inception_8a/output_inception_8a/output_0_split -> inception_8a/output_inception_8a/output_0_split_1
I0122 20:39:38.123986 71044 net.cpp:144] Setting up inception_8a/output_inception_8a/output_0_split
I0122 20:39:38.123989 71044 net.cpp:151] Top shape: 50 144 16 16 (1843200)
I0122 20:39:38.123992 71044 net.cpp:151] Top shape: 50 144 16 16 (1843200)
I0122 20:39:38.123996 71044 net.cpp:159] Memory required for data: 593716200
I0122 20:39:38.123998 71044 layer_factory.hpp:77] Creating layer downsample_9/3x3_s2
I0122 20:39:38.124007 71044 net.cpp:94] Creating Layer downsample_9/3x3_s2
I0122 20:39:38.124011 71044 net.cpp:435] downsample_9/3x3_s2 <- inception_8a/output_inception_8a/output_0_split_0
I0122 20:39:38.124018 71044 net.cpp:409] downsample_9/3x3_s2 -> downsample_9/3x3_s2
I0122 20:39:38.125047 71044 net.cpp:144] Setting up downsample_9/3x3_s2
I0122 20:39:38.125056 71044 net.cpp:151] Top shape: 50 96 8 8 (307200)
I0122 20:39:38.125058 71044 net.cpp:159] Memory required for data: 594945000
I0122 20:39:38.125063 71044 layer_factory.hpp:77] Creating layer downsample_9/3x3_s2/bn1
I0122 20:39:38.125069 71044 net.cpp:94] Creating Layer downsample_9/3x3_s2/bn1
I0122 20:39:38.125075 71044 net.cpp:435] downsample_9/3x3_s2/bn1 <- downsample_9/3x3_s2
I0122 20:39:38.125080 71044 net.cpp:396] downsample_9/3x3_s2/bn1 -> downsample_9/3x3_s2 (in-place)
I0122 20:39:38.125114 71044 net.cpp:144] Setting up downsample_9/3x3_s2/bn1
I0122 20:39:38.125119 71044 net.cpp:151] Top shape: 50 96 8 8 (307200)
I0122 20:39:38.125123 71044 net.cpp:159] Memory required for data: 596173800
I0122 20:39:38.125147 71044 layer_factory.hpp:77] Creating layer downsample_9/3x3_s2/scale1
I0122 20:39:38.125154 71044 net.cpp:94] Creating Layer downsample_9/3x3_s2/scale1
I0122 20:39:38.125157 71044 net.cpp:435] downsample_9/3x3_s2/scale1 <- downsample_9/3x3_s2
I0122 20:39:38.125162 71044 net.cpp:396] downsample_9/3x3_s2/scale1 -> downsample_9/3x3_s2 (in-place)
I0122 20:39:38.125171 71044 layer_factory.hpp:77] Creating layer downsample_9/3x3_s2/scale1
I0122 20:39:38.125185 71044 net.cpp:144] Setting up downsample_9/3x3_s2/scale1
I0122 20:39:38.125190 71044 net.cpp:151] Top shape: 50 96 8 8 (307200)
I0122 20:39:38.125193 71044 net.cpp:159] Memory required for data: 597402600
I0122 20:39:38.125197 71044 layer_factory.hpp:77] Creating layer downsample_9/3x3_s2/relu1
I0122 20:39:38.125203 71044 net.cpp:94] Creating Layer downsample_9/3x3_s2/relu1
I0122 20:39:38.125206 71044 net.cpp:435] downsample_9/3x3_s2/relu1 <- downsample_9/3x3_s2
I0122 20:39:38.125211 71044 net.cpp:396] downsample_9/3x3_s2/relu1 -> downsample_9/3x3_s2 (in-place)
I0122 20:39:38.125216 71044 net.cpp:144] Setting up downsample_9/3x3_s2/relu1
I0122 20:39:38.125219 71044 net.cpp:151] Top shape: 50 96 8 8 (307200)
I0122 20:39:38.125222 71044 net.cpp:159] Memory required for data: 598631400
I0122 20:39:38.125224 71044 layer_factory.hpp:77] Creating layer downsample_9/pool_s2
I0122 20:39:38.125231 71044 net.cpp:94] Creating Layer downsample_9/pool_s2
I0122 20:39:38.125234 71044 net.cpp:435] downsample_9/pool_s2 <- inception_8a/output_inception_8a/output_0_split_1
I0122 20:39:38.125239 71044 net.cpp:409] downsample_9/pool_s2 -> downsample_9/pool_s2
I0122 20:39:38.125247 71044 net.cpp:144] Setting up downsample_9/pool_s2
I0122 20:39:38.125252 71044 net.cpp:151] Top shape: 50 144 8 8 (460800)
I0122 20:39:38.125255 71044 net.cpp:159] Memory required for data: 600474600
I0122 20:39:38.125258 71044 layer_factory.hpp:77] Creating layer downsample_9/output
I0122 20:39:38.125264 71044 net.cpp:94] Creating Layer downsample_9/output
I0122 20:39:38.125267 71044 net.cpp:435] downsample_9/output <- downsample_9/3x3_s2
I0122 20:39:38.125272 71044 net.cpp:435] downsample_9/output <- downsample_9/pool_s2
I0122 20:39:38.125277 71044 net.cpp:409] downsample_9/output -> downsample_9/output
I0122 20:39:38.125285 71044 net.cpp:144] Setting up downsample_9/output
I0122 20:39:38.125288 71044 net.cpp:151] Top shape: 50 240 8 8 (768000)
I0122 20:39:38.125293 71044 net.cpp:159] Memory required for data: 603546600
I0122 20:39:38.125294 71044 layer_factory.hpp:77] Creating layer downsample_9/output_downsample_9/output_0_split
I0122 20:39:38.125298 71044 net.cpp:94] Creating Layer downsample_9/output_downsample_9/output_0_split
I0122 20:39:38.125301 71044 net.cpp:435] downsample_9/output_downsample_9/output_0_split <- downsample_9/output
I0122 20:39:38.125308 71044 net.cpp:409] downsample_9/output_downsample_9/output_0_split -> downsample_9/output_downsample_9/output_0_split_0
I0122 20:39:38.125315 71044 net.cpp:409] downsample_9/output_downsample_9/output_0_split -> downsample_9/output_downsample_9/output_0_split_1
I0122 20:39:38.125321 71044 net.cpp:144] Setting up downsample_9/output_downsample_9/output_0_split
I0122 20:39:38.125325 71044 net.cpp:151] Top shape: 50 240 8 8 (768000)
I0122 20:39:38.125329 71044 net.cpp:151] Top shape: 50 240 8 8 (768000)
I0122 20:39:38.125331 71044 net.cpp:159] Memory required for data: 609690600
I0122 20:39:38.125334 71044 layer_factory.hpp:77] Creating layer inception_10a/1x1
I0122 20:39:38.125342 71044 net.cpp:94] Creating Layer inception_10a/1x1
I0122 20:39:38.125346 71044 net.cpp:435] inception_10a/1x1 <- downsample_9/output_downsample_9/output_0_split_0
I0122 20:39:38.125352 71044 net.cpp:409] inception_10a/1x1 -> inception_10a/1x1
I0122 20:39:38.125713 71044 net.cpp:144] Setting up inception_10a/1x1
I0122 20:39:38.125720 71044 net.cpp:151] Top shape: 50 176 8 8 (563200)
I0122 20:39:38.125722 71044 net.cpp:159] Memory required for data: 611943400
I0122 20:39:38.125727 71044 layer_factory.hpp:77] Creating layer inception_10a/1x1/bn1
I0122 20:39:38.125739 71044 net.cpp:94] Creating Layer inception_10a/1x1/bn1
I0122 20:39:38.125742 71044 net.cpp:435] inception_10a/1x1/bn1 <- inception_10a/1x1
I0122 20:39:38.125748 71044 net.cpp:396] inception_10a/1x1/bn1 -> inception_10a/1x1 (in-place)
I0122 20:39:38.125782 71044 net.cpp:144] Setting up inception_10a/1x1/bn1
I0122 20:39:38.125787 71044 net.cpp:151] Top shape: 50 176 8 8 (563200)
I0122 20:39:38.125789 71044 net.cpp:159] Memory required for data: 614196200
I0122 20:39:38.125797 71044 layer_factory.hpp:77] Creating layer inception_10a/1x1/scale1
I0122 20:39:38.125803 71044 net.cpp:94] Creating Layer inception_10a/1x1/scale1
I0122 20:39:38.125808 71044 net.cpp:435] inception_10a/1x1/scale1 <- inception_10a/1x1
I0122 20:39:38.125811 71044 net.cpp:396] inception_10a/1x1/scale1 -> inception_10a/1x1 (in-place)
I0122 20:39:38.125821 71044 layer_factory.hpp:77] Creating layer inception_10a/1x1/scale1
I0122 20:39:38.125834 71044 net.cpp:144] Setting up inception_10a/1x1/scale1
I0122 20:39:38.125839 71044 net.cpp:151] Top shape: 50 176 8 8 (563200)
I0122 20:39:38.125843 71044 net.cpp:159] Memory required for data: 616449000
I0122 20:39:38.125847 71044 layer_factory.hpp:77] Creating layer inception_10a/1x1/relu1
I0122 20:39:38.125851 71044 net.cpp:94] Creating Layer inception_10a/1x1/relu1
I0122 20:39:38.125854 71044 net.cpp:435] inception_10a/1x1/relu1 <- inception_10a/1x1
I0122 20:39:38.125857 71044 net.cpp:396] inception_10a/1x1/relu1 -> inception_10a/1x1 (in-place)
I0122 20:39:38.125864 71044 net.cpp:144] Setting up inception_10a/1x1/relu1
I0122 20:39:38.125866 71044 net.cpp:151] Top shape: 50 176 8 8 (563200)
I0122 20:39:38.125869 71044 net.cpp:159] Memory required for data: 618701800
I0122 20:39:38.125871 71044 layer_factory.hpp:77] Creating layer inception_10a/3x3
I0122 20:39:38.125880 71044 net.cpp:94] Creating Layer inception_10a/3x3
I0122 20:39:38.125885 71044 net.cpp:435] inception_10a/3x3 <- downsample_9/output_downsample_9/output_0_split_1
I0122 20:39:38.125890 71044 net.cpp:409] inception_10a/3x3 -> inception_10a/3x3
I0122 20:39:38.128512 71044 net.cpp:144] Setting up inception_10a/3x3
I0122 20:39:38.128533 71044 net.cpp:151] Top shape: 50 160 8 8 (512000)
I0122 20:39:38.128536 71044 net.cpp:159] Memory required for data: 620749800
I0122 20:39:38.128541 71044 layer_factory.hpp:77] Creating layer inception_10a/3x3/bn1
I0122 20:39:38.128549 71044 net.cpp:94] Creating Layer inception_10a/3x3/bn1
I0122 20:39:38.128554 71044 net.cpp:435] inception_10a/3x3/bn1 <- inception_10a/3x3
I0122 20:39:38.128559 71044 net.cpp:396] inception_10a/3x3/bn1 -> inception_10a/3x3 (in-place)
I0122 20:39:38.128595 71044 net.cpp:144] Setting up inception_10a/3x3/bn1
I0122 20:39:38.128600 71044 net.cpp:151] Top shape: 50 160 8 8 (512000)
I0122 20:39:38.128603 71044 net.cpp:159] Memory required for data: 622797800
I0122 20:39:38.128610 71044 layer_factory.hpp:77] Creating layer inception_10a/3x3/scale1
I0122 20:39:38.128615 71044 net.cpp:94] Creating Layer inception_10a/3x3/scale1
I0122 20:39:38.128620 71044 net.cpp:435] inception_10a/3x3/scale1 <- inception_10a/3x3
I0122 20:39:38.128626 71044 net.cpp:396] inception_10a/3x3/scale1 -> inception_10a/3x3 (in-place)
I0122 20:39:38.128634 71044 layer_factory.hpp:77] Creating layer inception_10a/3x3/scale1
I0122 20:39:38.128648 71044 net.cpp:144] Setting up inception_10a/3x3/scale1
I0122 20:39:38.128652 71044 net.cpp:151] Top shape: 50 160 8 8 (512000)
I0122 20:39:38.128655 71044 net.cpp:159] Memory required for data: 624845800
I0122 20:39:38.128659 71044 layer_factory.hpp:77] Creating layer inception_10a/3x3/relu1
I0122 20:39:38.128664 71044 net.cpp:94] Creating Layer inception_10a/3x3/relu1
I0122 20:39:38.128667 71044 net.cpp:435] inception_10a/3x3/relu1 <- inception_10a/3x3
I0122 20:39:38.128672 71044 net.cpp:396] inception_10a/3x3/relu1 -> inception_10a/3x3 (in-place)
I0122 20:39:38.128677 71044 net.cpp:144] Setting up inception_10a/3x3/relu1
I0122 20:39:38.128680 71044 net.cpp:151] Top shape: 50 160 8 8 (512000)
I0122 20:39:38.128684 71044 net.cpp:159] Memory required for data: 626893800
I0122 20:39:38.128695 71044 layer_factory.hpp:77] Creating layer inception_10a/output
I0122 20:39:38.128698 71044 net.cpp:94] Creating Layer inception_10a/output
I0122 20:39:38.128701 71044 net.cpp:435] inception_10a/output <- inception_10a/1x1
I0122 20:39:38.128705 71044 net.cpp:435] inception_10a/output <- inception_10a/3x3
I0122 20:39:38.128711 71044 net.cpp:409] inception_10a/output -> inception_10a/output
I0122 20:39:38.128720 71044 net.cpp:144] Setting up inception_10a/output
I0122 20:39:38.128724 71044 net.cpp:151] Top shape: 50 336 8 8 (1075200)
I0122 20:39:38.128727 71044 net.cpp:159] Memory required for data: 631194600
I0122 20:39:38.128731 71044 layer_factory.hpp:77] Creating layer inception_10a/output_inception_10a/output_0_split
I0122 20:39:38.128734 71044 net.cpp:94] Creating Layer inception_10a/output_inception_10a/output_0_split
I0122 20:39:38.128737 71044 net.cpp:435] inception_10a/output_inception_10a/output_0_split <- inception_10a/output
I0122 20:39:38.128742 71044 net.cpp:409] inception_10a/output_inception_10a/output_0_split -> inception_10a/output_inception_10a/output_0_split_0
I0122 20:39:38.128748 71044 net.cpp:409] inception_10a/output_inception_10a/output_0_split -> inception_10a/output_inception_10a/output_0_split_1
I0122 20:39:38.128754 71044 net.cpp:144] Setting up inception_10a/output_inception_10a/output_0_split
I0122 20:39:38.128759 71044 net.cpp:151] Top shape: 50 336 8 8 (1075200)
I0122 20:39:38.128763 71044 net.cpp:151] Top shape: 50 336 8 8 (1075200)
I0122 20:39:38.128767 71044 net.cpp:159] Memory required for data: 639796200
I0122 20:39:38.128769 71044 layer_factory.hpp:77] Creating layer inception_11a/1x1
I0122 20:39:38.128778 71044 net.cpp:94] Creating Layer inception_11a/1x1
I0122 20:39:38.128783 71044 net.cpp:435] inception_11a/1x1 <- inception_10a/output_inception_10a/output_0_split_0
I0122 20:39:38.128789 71044 net.cpp:409] inception_11a/1x1 -> inception_11a/1x1
I0122 20:39:38.129314 71044 net.cpp:144] Setting up inception_11a/1x1
I0122 20:39:38.129321 71044 net.cpp:151] Top shape: 50 176 8 8 (563200)
I0122 20:39:38.129324 71044 net.cpp:159] Memory required for data: 642049000
I0122 20:39:38.129330 71044 layer_factory.hpp:77] Creating layer inception_11a/1x1/bn1
I0122 20:39:38.129338 71044 net.cpp:94] Creating Layer inception_11a/1x1/bn1
I0122 20:39:38.129343 71044 net.cpp:435] inception_11a/1x1/bn1 <- inception_11a/1x1
I0122 20:39:38.129349 71044 net.cpp:396] inception_11a/1x1/bn1 -> inception_11a/1x1 (in-place)
I0122 20:39:38.129384 71044 net.cpp:144] Setting up inception_11a/1x1/bn1
I0122 20:39:38.129390 71044 net.cpp:151] Top shape: 50 176 8 8 (563200)
I0122 20:39:38.129392 71044 net.cpp:159] Memory required for data: 644301800
I0122 20:39:38.129398 71044 layer_factory.hpp:77] Creating layer inception_11a/1x1/scale1
I0122 20:39:38.129403 71044 net.cpp:94] Creating Layer inception_11a/1x1/scale1
I0122 20:39:38.129406 71044 net.cpp:435] inception_11a/1x1/scale1 <- inception_11a/1x1
I0122 20:39:38.129411 71044 net.cpp:396] inception_11a/1x1/scale1 -> inception_11a/1x1 (in-place)
I0122 20:39:38.129420 71044 layer_factory.hpp:77] Creating layer inception_11a/1x1/scale1
I0122 20:39:38.129434 71044 net.cpp:144] Setting up inception_11a/1x1/scale1
I0122 20:39:38.129439 71044 net.cpp:151] Top shape: 50 176 8 8 (563200)
I0122 20:39:38.129442 71044 net.cpp:159] Memory required for data: 646554600
I0122 20:39:38.129446 71044 layer_factory.hpp:77] Creating layer inception_11a/1x1/relu1
I0122 20:39:38.129451 71044 net.cpp:94] Creating Layer inception_11a/1x1/relu1
I0122 20:39:38.129453 71044 net.cpp:435] inception_11a/1x1/relu1 <- inception_11a/1x1
I0122 20:39:38.129458 71044 net.cpp:396] inception_11a/1x1/relu1 -> inception_11a/1x1 (in-place)
I0122 20:39:38.129463 71044 net.cpp:144] Setting up inception_11a/1x1/relu1
I0122 20:39:38.129469 71044 net.cpp:151] Top shape: 50 176 8 8 (563200)
I0122 20:39:38.129472 71044 net.cpp:159] Memory required for data: 648807400
I0122 20:39:38.129474 71044 layer_factory.hpp:77] Creating layer inception_11a/3x3
I0122 20:39:38.129482 71044 net.cpp:94] Creating Layer inception_11a/3x3
I0122 20:39:38.129495 71044 net.cpp:435] inception_11a/3x3 <- inception_10a/output_inception_10a/output_0_split_1
I0122 20:39:38.129503 71044 net.cpp:409] inception_11a/3x3 -> inception_11a/3x3
I0122 20:39:38.133122 71044 net.cpp:144] Setting up inception_11a/3x3
I0122 20:39:38.133131 71044 net.cpp:151] Top shape: 50 160 8 8 (512000)
I0122 20:39:38.133134 71044 net.cpp:159] Memory required for data: 650855400
I0122 20:39:38.133139 71044 layer_factory.hpp:77] Creating layer inception_11a/3x3/bn1
I0122 20:39:38.133148 71044 net.cpp:94] Creating Layer inception_11a/3x3/bn1
I0122 20:39:38.133153 71044 net.cpp:435] inception_11a/3x3/bn1 <- inception_11a/3x3
I0122 20:39:38.133158 71044 net.cpp:396] inception_11a/3x3/bn1 -> inception_11a/3x3 (in-place)
I0122 20:39:38.133200 71044 net.cpp:144] Setting up inception_11a/3x3/bn1
I0122 20:39:38.133206 71044 net.cpp:151] Top shape: 50 160 8 8 (512000)
I0122 20:39:38.133209 71044 net.cpp:159] Memory required for data: 652903400
I0122 20:39:38.133216 71044 layer_factory.hpp:77] Creating layer inception_11a/3x3/scale1
I0122 20:39:38.133222 71044 net.cpp:94] Creating Layer inception_11a/3x3/scale1
I0122 20:39:38.133225 71044 net.cpp:435] inception_11a/3x3/scale1 <- inception_11a/3x3
I0122 20:39:38.133230 71044 net.cpp:396] inception_11a/3x3/scale1 -> inception_11a/3x3 (in-place)
I0122 20:39:38.133239 71044 layer_factory.hpp:77] Creating layer inception_11a/3x3/scale1
I0122 20:39:38.133255 71044 net.cpp:144] Setting up inception_11a/3x3/scale1
I0122 20:39:38.133260 71044 net.cpp:151] Top shape: 50 160 8 8 (512000)
I0122 20:39:38.133261 71044 net.cpp:159] Memory required for data: 654951400
I0122 20:39:38.133266 71044 layer_factory.hpp:77] Creating layer inception_11a/3x3/relu1
I0122 20:39:38.133270 71044 net.cpp:94] Creating Layer inception_11a/3x3/relu1
I0122 20:39:38.133273 71044 net.cpp:435] inception_11a/3x3/relu1 <- inception_11a/3x3
I0122 20:39:38.133276 71044 net.cpp:396] inception_11a/3x3/relu1 -> inception_11a/3x3 (in-place)
I0122 20:39:38.133282 71044 net.cpp:144] Setting up inception_11a/3x3/relu1
I0122 20:39:38.133286 71044 net.cpp:151] Top shape: 50 160 8 8 (512000)
I0122 20:39:38.133288 71044 net.cpp:159] Memory required for data: 656999400
I0122 20:39:38.133291 71044 layer_factory.hpp:77] Creating layer inception_11a/output
I0122 20:39:38.133297 71044 net.cpp:94] Creating Layer inception_11a/output
I0122 20:39:38.133301 71044 net.cpp:435] inception_11a/output <- inception_11a/1x1
I0122 20:39:38.133303 71044 net.cpp:435] inception_11a/output <- inception_11a/3x3
I0122 20:39:38.133308 71044 net.cpp:409] inception_11a/output -> inception_11a/output
I0122 20:39:38.133316 71044 net.cpp:144] Setting up inception_11a/output
I0122 20:39:38.133319 71044 net.cpp:151] Top shape: 50 336 8 8 (1075200)
I0122 20:39:38.133322 71044 net.cpp:159] Memory required for data: 661300200
I0122 20:39:38.133323 71044 layer_factory.hpp:77] Creating layer avg_pool_12/8x8_s1
I0122 20:39:38.133328 71044 net.cpp:94] Creating Layer avg_pool_12/8x8_s1
I0122 20:39:38.133332 71044 net.cpp:435] avg_pool_12/8x8_s1 <- inception_11a/output
I0122 20:39:38.133337 71044 net.cpp:409] avg_pool_12/8x8_s1 -> avg_pool_12/8x8_s1
I0122 20:39:38.133353 71044 net.cpp:144] Setting up avg_pool_12/8x8_s1
I0122 20:39:38.133358 71044 net.cpp:151] Top shape: 50 336 1 1 (16800)
I0122 20:39:38.133361 71044 net.cpp:159] Memory required for data: 661367400
I0122 20:39:38.133363 71044 layer_factory.hpp:77] Creating layer drop_8x8_s1
I0122 20:39:38.133368 71044 net.cpp:94] Creating Layer drop_8x8_s1
I0122 20:39:38.133374 71044 net.cpp:435] drop_8x8_s1 <- avg_pool_12/8x8_s1
I0122 20:39:38.133378 71044 net.cpp:396] drop_8x8_s1 -> avg_pool_12/8x8_s1 (in-place)
I0122 20:39:38.133385 71044 net.cpp:144] Setting up drop_8x8_s1
I0122 20:39:38.133388 71044 net.cpp:151] Top shape: 50 336 1 1 (16800)
I0122 20:39:38.133391 71044 net.cpp:159] Memory required for data: 661434600
I0122 20:39:38.133394 71044 layer_factory.hpp:77] Creating layer loss/classifier
I0122 20:39:38.133401 71044 net.cpp:94] Creating Layer loss/classifier
I0122 20:39:38.133414 71044 net.cpp:435] loss/classifier <- avg_pool_12/8x8_s1
I0122 20:39:38.133420 71044 net.cpp:409] loss/classifier -> loss/classifier
I0122 20:39:38.133455 71044 net.cpp:144] Setting up loss/classifier
I0122 20:39:38.133460 71044 net.cpp:151] Top shape: 50 10 (500)
I0122 20:39:38.133462 71044 net.cpp:159] Memory required for data: 661436600
I0122 20:39:38.133467 71044 layer_factory.hpp:77] Creating layer loss/classifier_loss/classifier_0_split
I0122 20:39:38.133472 71044 net.cpp:94] Creating Layer loss/classifier_loss/classifier_0_split
I0122 20:39:38.133476 71044 net.cpp:435] loss/classifier_loss/classifier_0_split <- loss/classifier
I0122 20:39:38.133481 71044 net.cpp:409] loss/classifier_loss/classifier_0_split -> loss/classifier_loss/classifier_0_split_0
I0122 20:39:38.133488 71044 net.cpp:409] loss/classifier_loss/classifier_0_split -> loss/classifier_loss/classifier_0_split_1
I0122 20:39:38.133493 71044 net.cpp:409] loss/classifier_loss/classifier_0_split -> loss/classifier_loss/classifier_0_split_2
I0122 20:39:38.133500 71044 net.cpp:409] loss/classifier_loss/classifier_0_split -> loss/classifier_loss/classifier_0_split_3
I0122 20:39:38.133508 71044 net.cpp:144] Setting up loss/classifier_loss/classifier_0_split
I0122 20:39:38.133512 71044 net.cpp:151] Top shape: 50 10 (500)
I0122 20:39:38.133515 71044 net.cpp:151] Top shape: 50 10 (500)
I0122 20:39:38.133518 71044 net.cpp:151] Top shape: 50 10 (500)
I0122 20:39:38.133522 71044 net.cpp:151] Top shape: 50 10 (500)
I0122 20:39:38.133524 71044 net.cpp:159] Memory required for data: 661444600
I0122 20:39:38.133527 71044 layer_factory.hpp:77] Creating layer loss
I0122 20:39:38.133532 71044 net.cpp:94] Creating Layer loss
I0122 20:39:38.133534 71044 net.cpp:435] loss <- loss/classifier_loss/classifier_0_split_0
I0122 20:39:38.133540 71044 net.cpp:435] loss <- label_data_1_split_0
I0122 20:39:38.133544 71044 net.cpp:409] loss -> loss
…
