…
I0122 14:50:53.619792  3965 net.cpp:369] The NetState phase (0) differed from the phase (1) specified by a rule in layer accuracy-top5
I0122 14:50:53.620033  3965 net.cpp:98] Initializing net from parameters: 
state {
  phase: TRAIN
}
layer {
  name: "data"
  type: "ImageData"
  top: "data"
  top: "label"
  include {
    phase: TRAIN
  }
  transform_param {
    crop_size: 32
    mean_value: 125
    mean_value: 123
    mean_value: 114
  }
  image_data_param {
    source: "cifar10/deephi/miniVggNet/quantiz/data/calib/calibration.txt"
    batch_size: 10
    shuffle: true
    root_folder: "cifar10/deephi/miniVggNet/quantiz/data/calib/"
  }
}
layer {
  name: "data_fixed"
  type: "FixedNeuron"
  bottom: "data"
  top: "data"
  param {
    lr_mult: 0
    decay_mult: 0
  }
  fixed_param {
    fixed_method: OVER_FLOW
    bit_width: 8
    follow_data_layer: true
  }
}
layer {
  name: "conv1"
  type: "ConvolutionFixed"
  bottom: "data"
  top: "scale1"
  param {
    lr_mult: 1
    decay_mult: 1
  }
  param {
    lr_mult: 1
    decay_mult: 0
  }
  convolution_param {
    num_output: 32
    bias_term: true
    pad: 1
    kernel_size: 3
    stride: 1
    weight_filler {
      type: "xavier"
    }
    bias_filler {
      type: "constant"
      value: 0
    }
  }
  fixed_param {
    fixed_method: DIFF_S
    bit_width: 8
  }
}
layer {
  name: "relu1"
  type: "ReLU"
  bottom: "scale1"
  top: "relu1"
}
layer {
  name: "relu1_fixed"
  type: "FixedNeuron"
  bottom: "relu1"
  top: "relu1"
  param {
    lr_mult: 0
    decay_mult: 0
  }
  fixed_param {
    fixed_method: DIFF_S
    bit_width: 8
  }
}
layer {
  name: "conv2"
  type: "ConvolutionFixed"
  bottom: "relu1"
  top: "scale2"
  param {
    lr_mult: 1
    decay_mult: 1
  }
  param {
    lr_mult: 1
    decay_mult: 0
  }
  convolution_param {
    num_output: 32
    bias_term: true
    pad: 1
    kernel_size: 3
    stride: 1
    weight_filler {
      type: "xavier"
    }
    bias_filler {
      type: "constant"
      value: 0
    }
  }
  fixed_param {
    fixed_method: DIFF_S
    bit_width: 8
  }
}
layer {
  name: "relu2"
  type: "ReLU"
  bottom: "scale2"
  top: "relu2"
}
layer {
  name: "pool1"
  type: "Pooling"
  bottom: "relu2"
  top: "pool1"
  pooling_param {
    pool: MAX
    kernel_size: 2
    stride: 2
  }
}
layer {
  name: "pool1_fixed"
  type: "FixedNeuron"
  bottom: "pool1"
  top: "pool1"
  param {
    lr_mult: 0
    decay_mult: 0
  }
  fixed_param {
    fixed_method: DIFF_S
    bit_width: 8
  }
}
layer {
  name: "conv3"
  type: "ConvolutionFixed"
  bottom: "pool1"
  top: "scale3"
  param {
    lr_mult: 1
    decay_mult: 1
  }
  param {
    lr_mult: 1
    decay_mult: 0
  }
  convolution_param {
    num_output: 64
    bias_term: true
    pad: 1
    kernel_size: 3
    stride: 1
    weight_filler {
      type: "xavier"
    }
    bias_filler {
      type: "constant"
      value: 0
    }
  }
  fixed_param {
    fixed_method: DIFF_S
    bit_width: 8
  }
}
layer {
  name: "relu3"
  type: "ReLU"
  bottom: "scale3"
  top: "relu3"
}
layer {
  name: "relu3_fixed"
  type: "FixedNeuron"
  bottom: "relu3"
  top: "relu3"
  param {
    lr_mult: 0
    decay_mult: 0
  }
  fixed_param {
    fixed_method: DIFF_S
    bit_width: 8
  }
}
layer {
  name: "conv4"
  type: "ConvolutionFixed"
  bottom: "relu3"
  top: "scale4"
  param {
    lr_mult: 1
    decay_mult: 1
  }
  param {
    lr_mult: 1
    decay_mult: 0
  }
  convolution_param {
    num_output: 64
    bias_term: true
    pad: 1
    kernel_size: 3
    stride: 1
    weight_filler {
      type: "xavier"
    }
    bias_filler {
      type: "constant"
      value: 0
    }
  }
  fixed_param {
    fixed_method: DIFF_S
    bit_width: 8
  }
}
layer {
  name: "relu4"
  type: "ReLU"
  bottom: "scale4"
  top: "relu4"
}
layer {
  name: "pool2"
  type: "Pooling"
  bottom: "relu4"
  top: "pool2"
  pooling_param {
    pool: MAX
    kernel_size: 2
    stride: 2
  }
}
layer {
  name: "pool2_fixed"
  type: "FixedNeuron"
  bottom: "pool2"
  top: "pool2"
  param {
    lr_mult: 0
    decay_mult: 0
  }
  fixed_param {
    fixed_method: DIFF_S
    bit_width: 8
  }
}
layer {
  name: "fc1"
  type: "InnerProductFixed"
  bottom: "pool2"
  top: "scale5"
  param {
    lr_mult: 1
    decay_mult: 1
  }
  param {
    lr_mult: 1
    decay_mult: 0
  }
  inner_product_param {
    num_output: 512
    bias_term: true
    weight_filler {
      type: "xavier"
    }
    bias_filler {
      type: "constant"
      value: 1
    }
  }
  fixed_param {
    fixed_method: DIFF_S
    bit_width: 8
  }
}
layer {
  name: "relu5"
  type: "ReLU"
  bottom: "scale5"
  top: "relu5"
}
layer {
  name: "relu5_fixed"
  type: "FixedNeuron"
  bottom: "relu5"
  top: "relu5"
  param {
    lr_mult: 0
    decay_mult: 0
  }
  fixed_param {
    fixed_method: DIFF_S
    bit_width: 8
  }
}
layer {
  name: "fc2"
  type: "InnerProductFixed"
  bottom: "relu5"
  top: "fc2"
  param {
    lr_mult: 1
    decay_mult: 1
  }
  param {
    lr_mult: 2
    decay_mult: 0
  }
  inner_product_param {
    num_output: 10
    weight_filler {
      type: "xavier"
    }
    bias_filler {
      type: "constant"
      value: 1
    }
  }
  fixed_param {
    fixed_method: DIFF_S
    bit_width: 8
  }
}
layer {
  name: "fc2_fixed"
  type: "FixedNeuron"
  bottom: "fc2"
  top: "fc2"
  param {
    lr_mult: 0
    decay_mult: 0
  }
  fixed_param {
    fixed_method: DIFF_S
    bit_width: 8
  }
}
layer {
  name: "loss"
  type: "SoftmaxWithLoss"
  bottom: "fc2"
  bottom: "label"
  top: "loss"
}
I0122 14:50:53.620141  3965 layer_factory.hpp:123] Creating layer data
I0122 14:50:53.620195  3965 net.cpp:140] Creating Layer data
I0122 14:50:53.620213  3965 net.cpp:455] data -> data
I0122 14:50:53.620230  3965 net.cpp:455] data -> label
I0122 14:50:53.620759  3965 image_data_layer.cpp:87] Opening file cifar10/deephi/miniVggNet/quantiz/data/calib/calibration.txt
I0122 14:50:53.621320  3965 image_data_layer.cpp:97] Shuffling data
I0122 14:50:53.621369  3965 image_data_layer.cpp:102] A total of 1000 images.
I0122 14:50:53.621740  3965 image_data_layer.cpp:130] output data size: 10,3,32,32
I0122 14:50:53.623775  3965 internal_thread.cpp:73] Starting internal thread(s) on GPU 0
I0122 14:50:53.623872  3965 net.cpp:190] Setting up data
I0122 14:50:53.623894  3965 net.cpp:197] Top shape: 10 3 32 32 (30720)
I0122 14:50:53.623903  3965 net.cpp:197] Top shape: 10 (10)
I0122 14:50:53.623909  3965 net.cpp:205] Memory required for data: 122920
I0122 14:50:53.623916  3965 layer_factory.hpp:123] Creating layer data_fixed
I0122 14:50:53.623931  3965 net.cpp:140] Creating Layer data_fixed
I0122 14:50:53.623958  3965 net.cpp:481] data_fixed <- data
I0122 14:50:53.623994  3965 net.cpp:442] data_fixed -> data (in-place)
I0122 14:50:53.624177  3965 net.cpp:190] Setting up data_fixed
I0122 14:50:53.624195  3965 net.cpp:197] Top shape: 10 3 32 32 (30720)
I0122 14:50:53.624202  3965 net.cpp:205] Memory required for data: 245800
I0122 14:50:53.624228  3965 layer_factory.hpp:123] Creating layer conv1
I0122 14:50:53.624267  3965 net.cpp:140] Creating Layer conv1
I0122 14:50:53.624284  3965 net.cpp:481] conv1 <- data
I0122 14:50:53.624296  3965 net.cpp:455] conv1 -> scale1
I0122 14:50:53.625383  3965 layer_factory.hpp:123] Creating layer conv1
I0122 14:50:53.626351  3965 net.cpp:190] Setting up conv1
I0122 14:50:53.626374  3965 net.cpp:197] Top shape: 10 32 32 32 (327680)
I0122 14:50:53.626382  3965 net.cpp:205] Memory required for data: 1556520
I0122 14:50:53.626399  3965 layer_factory.hpp:123] Creating layer relu1
I0122 14:50:53.626412  3965 net.cpp:140] Creating Layer relu1
I0122 14:50:53.626437  3965 net.cpp:481] relu1 <- scale1
I0122 14:50:53.626487  3965 net.cpp:455] relu1 -> relu1
I0122 14:50:53.626606  3965 net.cpp:190] Setting up relu1
I0122 14:50:53.626627  3965 net.cpp:197] Top shape: 10 32 32 32 (327680)
I0122 14:50:53.626634  3965 net.cpp:205] Memory required for data: 2867240
I0122 14:50:53.626639  3965 layer_factory.hpp:123] Creating layer relu1_fixed
I0122 14:50:53.626653  3965 net.cpp:140] Creating Layer relu1_fixed
I0122 14:50:53.626678  3965 net.cpp:481] relu1_fixed <- relu1
I0122 14:50:53.626726  3965 net.cpp:442] relu1_fixed -> relu1 (in-place)
I0122 14:50:53.626829  3965 net.cpp:190] Setting up relu1_fixed
I0122 14:50:53.626849  3965 net.cpp:197] Top shape: 10 32 32 32 (327680)
I0122 14:50:53.626857  3965 net.cpp:205] Memory required for data: 4177960
I0122 14:50:53.626865  3965 layer_factory.hpp:123] Creating layer conv2
I0122 14:50:53.626953  3965 net.cpp:140] Creating Layer conv2
I0122 14:50:53.626998  3965 net.cpp:481] conv2 <- relu1
I0122 14:50:53.627053  3965 net.cpp:455] conv2 -> scale2
I0122 14:50:53.628085  3965 layer_factory.hpp:123] Creating layer conv2
I0122 14:50:53.628573  3965 net.cpp:190] Setting up conv2
I0122 14:50:53.628597  3965 net.cpp:197] Top shape: 10 32 32 32 (327680)
I0122 14:50:53.628604  3965 net.cpp:205] Memory required for data: 5488680
I0122 14:50:53.628618  3965 layer_factory.hpp:123] Creating layer relu2
I0122 14:50:53.628628  3965 net.cpp:140] Creating Layer relu2
I0122 14:50:53.628652  3965 net.cpp:481] relu2 <- scale2
I0122 14:50:53.628702  3965 net.cpp:455] relu2 -> relu2
I0122 14:50:53.628783  3965 net.cpp:190] Setting up relu2
I0122 14:50:53.628800  3965 net.cpp:197] Top shape: 10 32 32 32 (327680)
I0122 14:50:53.628806  3965 net.cpp:205] Memory required for data: 6799400
I0122 14:50:53.628813  3965 layer_factory.hpp:123] Creating layer pool1
I0122 14:50:53.628824  3965 net.cpp:140] Creating Layer pool1
I0122 14:50:53.628846  3965 net.cpp:481] pool1 <- relu2
I0122 14:50:53.628892  3965 net.cpp:455] pool1 -> pool1
I0122 14:50:53.629004  3965 net.cpp:190] Setting up pool1
I0122 14:50:53.629030  3965 net.cpp:197] Top shape: 10 32 16 16 (81920)
I0122 14:50:53.629036  3965 net.cpp:205] Memory required for data: 7127080
I0122 14:50:53.629043  3965 layer_factory.hpp:123] Creating layer pool1_fixed
I0122 14:50:53.629056  3965 net.cpp:140] Creating Layer pool1_fixed
I0122 14:50:53.629079  3965 net.cpp:481] pool1_fixed <- pool1
I0122 14:50:53.629127  3965 net.cpp:442] pool1_fixed -> pool1 (in-place)
I0122 14:50:53.629231  3965 net.cpp:190] Setting up pool1_fixed
I0122 14:50:53.629249  3965 net.cpp:197] Top shape: 10 32 16 16 (81920)
I0122 14:50:53.629256  3965 net.cpp:205] Memory required for data: 7454760
I0122 14:50:53.629264  3965 layer_factory.hpp:123] Creating layer conv3
I0122 14:50:53.629281  3965 net.cpp:140] Creating Layer conv3
I0122 14:50:53.629302  3965 net.cpp:481] conv3 <- pool1
I0122 14:50:53.629325  3965 net.cpp:455] conv3 -> scale3
I0122 14:50:53.630437  3965 layer_factory.hpp:123] Creating layer conv3
I0122 14:50:53.630887  3965 net.cpp:190] Setting up conv3
I0122 14:50:53.630908  3965 net.cpp:197] Top shape: 10 64 16 16 (163840)
I0122 14:50:53.630914  3965 net.cpp:205] Memory required for data: 8110120
I0122 14:50:53.630928  3965 layer_factory.hpp:123] Creating layer relu3
I0122 14:50:53.630940  3965 net.cpp:140] Creating Layer relu3
I0122 14:50:53.630975  3965 net.cpp:481] relu3 <- scale3
I0122 14:50:53.630996  3965 net.cpp:455] relu3 -> relu3
I0122 14:50:53.631036  3965 net.cpp:190] Setting up relu3
I0122 14:50:53.631050  3965 net.cpp:197] Top shape: 10 64 16 16 (163840)
I0122 14:50:53.631057  3965 net.cpp:205] Memory required for data: 8765480
I0122 14:50:53.631062  3965 layer_factory.hpp:123] Creating layer relu3_fixed
I0122 14:50:53.631088  3965 net.cpp:140] Creating Layer relu3_fixed
I0122 14:50:53.631105  3965 net.cpp:481] relu3_fixed <- relu3
I0122 14:50:53.631119  3965 net.cpp:442] relu3_fixed -> relu3 (in-place)
I0122 14:50:53.631177  3965 net.cpp:190] Setting up relu3_fixed
I0122 14:50:53.631193  3965 net.cpp:197] Top shape: 10 64 16 16 (163840)
I0122 14:50:53.631201  3965 net.cpp:205] Memory required for data: 9420840
I0122 14:50:53.631208  3965 layer_factory.hpp:123] Creating layer conv4
I0122 14:50:53.631227  3965 net.cpp:140] Creating Layer conv4
I0122 14:50:53.631248  3965 net.cpp:481] conv4 <- relu3
I0122 14:50:53.631273  3965 net.cpp:455] conv4 -> scale4
I0122 14:50:53.631742  3965 layer_factory.hpp:123] Creating layer conv4
I0122 14:50:53.632319  3965 net.cpp:190] Setting up conv4
I0122 14:50:53.632336  3965 net.cpp:197] Top shape: 10 64 16 16 (163840)
I0122 14:50:53.632344  3965 net.cpp:205] Memory required for data: 10076200
I0122 14:50:53.632354  3965 layer_factory.hpp:123] Creating layer relu4
I0122 14:50:53.632364  3965 net.cpp:140] Creating Layer relu4
I0122 14:50:53.632388  3965 net.cpp:481] relu4 <- scale4
I0122 14:50:53.632405  3965 net.cpp:455] relu4 -> relu4
I0122 14:50:53.632438  3965 net.cpp:190] Setting up relu4
I0122 14:50:53.632452  3965 net.cpp:197] Top shape: 10 64 16 16 (163840)
I0122 14:50:53.632457  3965 net.cpp:205] Memory required for data: 10731560
I0122 14:50:53.632463  3965 layer_factory.hpp:123] Creating layer pool2
I0122 14:50:53.632490  3965 net.cpp:140] Creating Layer pool2
I0122 14:50:53.632508  3965 net.cpp:481] pool2 <- relu4
I0122 14:50:53.632519  3965 net.cpp:455] pool2 -> pool2
I0122 14:50:53.632580  3965 net.cpp:190] Setting up pool2
I0122 14:50:53.632594  3965 net.cpp:197] Top shape: 10 64 8 8 (40960)
I0122 14:50:53.632601  3965 net.cpp:205] Memory required for data: 10895400
I0122 14:50:53.632607  3965 layer_factory.hpp:123] Creating layer pool2_fixed
I0122 14:50:53.632620  3965 net.cpp:140] Creating Layer pool2_fixed
I0122 14:50:53.632642  3965 net.cpp:481] pool2_fixed <- pool2
I0122 14:50:53.632668  3965 net.cpp:442] pool2_fixed -> pool2 (in-place)
I0122 14:50:53.632741  3965 net.cpp:190] Setting up pool2_fixed
I0122 14:50:53.632761  3965 net.cpp:197] Top shape: 10 64 8 8 (40960)
I0122 14:50:53.632768  3965 net.cpp:205] Memory required for data: 11059240
I0122 14:50:53.632776  3965 layer_factory.hpp:123] Creating layer fc1
I0122 14:50:53.632794  3965 net.cpp:140] Creating Layer fc1
I0122 14:50:53.632818  3965 net.cpp:481] fc1 <- pool2
I0122 14:50:53.632846  3965 net.cpp:455] fc1 -> scale5
I0122 14:50:53.654955  3965 layer_factory.hpp:123] Creating layer fc1
I0122 14:50:53.676996  3965 net.cpp:190] Setting up fc1
I0122 14:50:53.677042  3965 net.cpp:197] Top shape: 10 512 (5120)
I0122 14:50:53.677049  3965 net.cpp:205] Memory required for data: 11079720
I0122 14:50:53.677067  3965 layer_factory.hpp:123] Creating layer relu5
I0122 14:50:53.677083  3965 net.cpp:140] Creating Layer relu5
I0122 14:50:53.677091  3965 net.cpp:481] relu5 <- scale5
I0122 14:50:53.677110  3965 net.cpp:455] relu5 -> relu5
I0122 14:50:53.677167  3965 net.cpp:190] Setting up relu5
I0122 14:50:53.677182  3965 net.cpp:197] Top shape: 10 512 (5120)
I0122 14:50:53.677189  3965 net.cpp:205] Memory required for data: 11100200
I0122 14:50:53.677194  3965 layer_factory.hpp:123] Creating layer relu5_fixed
I0122 14:50:53.677207  3965 net.cpp:140] Creating Layer relu5_fixed
I0122 14:50:53.677215  3965 net.cpp:481] relu5_fixed <- relu5
I0122 14:50:53.677225  3965 net.cpp:442] relu5_fixed -> relu5 (in-place)
I0122 14:50:53.677278  3965 net.cpp:190] Setting up relu5_fixed
I0122 14:50:53.677292  3965 net.cpp:197] Top shape: 10 512 (5120)
I0122 14:50:53.677299  3965 net.cpp:205] Memory required for data: 11120680
I0122 14:50:53.677307  3965 layer_factory.hpp:123] Creating layer fc2
I0122 14:50:53.677323  3965 net.cpp:140] Creating Layer fc2
I0122 14:50:53.677330  3965 net.cpp:481] fc2 <- relu5
I0122 14:50:53.677340  3965 net.cpp:455] fc2 -> fc2
I0122 14:50:53.677507  3965 layer_factory.hpp:123] Creating layer fc2
I0122 14:50:53.677707  3965 net.cpp:190] Setting up fc2
I0122 14:50:53.677723  3965 net.cpp:197] Top shape: 10 10 (100)
I0122 14:50:53.677731  3965 net.cpp:205] Memory required for data: 11121080
I0122 14:50:53.677748  3965 layer_factory.hpp:123] Creating layer fc2_fixed
I0122 14:50:53.677762  3965 net.cpp:140] Creating Layer fc2_fixed
I0122 14:50:53.677791  3965 net.cpp:481] fc2_fixed <- fc2
I0122 14:50:53.677803  3965 net.cpp:442] fc2_fixed -> fc2 (in-place)
I0122 14:50:53.677857  3965 net.cpp:190] Setting up fc2_fixed
I0122 14:50:53.677873  3965 net.cpp:197] Top shape: 10 10 (100)
I0122 14:50:53.677880  3965 net.cpp:205] Memory required for data: 11121480
I0122 14:50:53.677887  3965 layer_factory.hpp:123] Creating layer loss
I0122 14:50:53.677901  3965 net.cpp:140] Creating Layer loss
I0122 14:50:53.677909  3965 net.cpp:481] loss <- fc2
I0122 14:50:53.677917  3965 net.cpp:481] loss <- label
I0122 14:50:53.677927  3965 net.cpp:455] loss -> loss
I0122 14:50:53.677948  3965 layer_factory.hpp:123] Creating layer loss
…
I0122 14:50:54.501251  3965 net_test.cpp:369] Net type: other
I0122 14:50:54.501349  3965 net.cpp:369] The NetState phase (1) differed from the phase (0) specified by a rule in layer data
I0122 14:50:54.501579  3965 net.cpp:98] Initializing net from parameters: 
layer {
  name: "data"
  type: "Data"
  top: "data"
  top: "label"
  include {
    phase: TEST
  }
  transform_param {
    mirror: false
    crop_size: 32
    mean_value: 125
    mean_value: 123
    mean_value: 114
  }
  data_param {
    source: "cifar10/input/lmdb/valid_lmdb"
    batch_size: 50
    backend: LMDB
  }
}
layer {
  name: "data_fixed"
  type: "FixedNeuron"
  bottom: "data"
  top: "data"
  param {
    lr_mult: 0
    decay_mult: 0
  }
  fixed_param {
    fixed_method: OVER_FLOW
    bit_width: 8
    follow_data_layer: true
  }
}
layer {
  name: "conv1"
  type: "ConvolutionFixed"
  bottom: "data"
  top: "scale1"
  param {
    lr_mult: 1
    decay_mult: 1
  }
  param {
    lr_mult: 1
    decay_mult: 0
  }
  convolution_param {
    num_output: 32
    bias_term: true
    pad: 1
    kernel_size: 3
    stride: 1
    weight_filler {
      type: "xavier"
    }
    bias_filler {
      type: "constant"
      value: 0
    }
  }
  fixed_param {
    fixed_method: DIFF_S
    bit_width: 8
  }
}
layer {
  name: "relu1"
  type: "ReLU"
  bottom: "scale1"
  top: "relu1"
}
layer {
  name: "relu1_fixed"
  type: "FixedNeuron"
  bottom: "relu1"
  top: "relu1"
  param {
    lr_mult: 0
    decay_mult: 0
  }
  fixed_param {
    fixed_method: DIFF_S
    bit_width: 8
  }
}
layer {
  name: "conv2"
  type: "ConvolutionFixed"
  bottom: "relu1"
  top: "scale2"
  param {
    lr_mult: 1
    decay_mult: 1
  }
  param {
    lr_mult: 1
    decay_mult: 0
  }
  convolution_param {
    num_output: 32
    bias_term: true
    pad: 1
    kernel_size: 3
    stride: 1
    weight_filler {
      type: "xavier"
    }
    bias_filler {
      type: "constant"
      value: 0
    }
  }
  fixed_param {
    fixed_method: DIFF_S
    bit_width: 8
  }
}
layer {
  name: "relu2"
  type: "ReLU"
  bottom: "scale2"
  top: "relu2"
}
layer {
  name: "pool1"
  type: "Pooling"
  bottom: "relu2"
  top: "pool1"
  pooling_param {
    pool: MAX
    kernel_size: 2
    stride: 2
  }
}
layer {
  name: "pool1_fixed"
  type: "FixedNeuron"
  bottom: "pool1"
  top: "pool1"
  param {
    lr_mult: 0
    decay_mult: 0
  }
  fixed_param {
    fixed_method: DIFF_S
    bit_width: 8
  }
}
layer {
  name: "conv3"
  type: "ConvolutionFixed"
  bottom: "pool1"
  top: "scale3"
  param {
    lr_mult: 1
    decay_mult: 1
  }
  param {
    lr_mult: 1
    decay_mult: 0
  }
  convolution_param {
    num_output: 64
    bias_term: true
    pad: 1
    kernel_size: 3
    stride: 1
    weight_filler {
      type: "xavier"
    }
    bias_filler {
      type: "constant"
      value: 0
    }
  }
  fixed_param {
    fixed_method: DIFF_S
    bit_width: 8
  }
}
layer {
  name: "relu3"
  type: "ReLU"
  bottom: "scale3"
  top: "relu3"
}
layer {
  name: "relu3_fixed"
  type: "FixedNeuron"
  bottom: "relu3"
  top: "relu3"
  param {
    lr_mult: 0
    decay_mult: 0
  }
  fixed_param {
    fixed_method: DIFF_S
    bit_width: 8
  }
}
layer {
  name: "conv4"
  type: "ConvolutionFixed"
  bottom: "relu3"
  top: "scale4"
  param {
    lr_mult: 1
    decay_mult: 1
  }
  param {
    lr_mult: 1
    decay_mult: 0
  }
  convolution_param {
    num_output: 64
    bias_term: true
    pad: 1
    kernel_size: 3
    stride: 1
    weight_filler {
      type: "xavier"
    }
    bias_filler {
      type: "constant"
      value: 0
    }
  }
  fixed_param {
    fixed_method: DIFF_S
    bit_width: 8
  }
}
layer {
  name: "relu4"
  type: "ReLU"
  bottom: "scale4"
  top: "relu4"
}
layer {
  name: "pool2"
  type: "Pooling"
  bottom: "relu4"
  top: "pool2"
  pooling_param {
    pool: MAX
    kernel_size: 2
    stride: 2
  }
}
layer {
  name: "pool2_fixed"
  type: "FixedNeuron"
  bottom: "pool2"
  top: "pool2"
  param {
    lr_mult: 0
    decay_mult: 0
  }
  fixed_param {
    fixed_method: DIFF_S
    bit_width: 8
  }
}
layer {
  name: "fc1"
  type: "InnerProductFixed"
  bottom: "pool2"
  top: "scale5"
  param {
    lr_mult: 1
    decay_mult: 1
  }
  param {
    lr_mult: 1
    decay_mult: 0
  }
  inner_product_param {
    num_output: 512
    bias_term: true
    weight_filler {
      type: "xavier"
    }
    bias_filler {
      type: "constant"
      value: 1
    }
  }
  fixed_param {
    fixed_method: DIFF_S
    bit_width: 8
  }
}
layer {
  name: "relu5"
  type: "ReLU"
  bottom: "scale5"
  top: "relu5"
}
layer {
  name: "relu5_fixed"
  type: "FixedNeuron"
  bottom: "relu5"
  top: "relu5"
  param {
    lr_mult: 0
    decay_mult: 0
  }
  fixed_param {
    fixed_method: DIFF_S
    bit_width: 8
  }
}
layer {
  name: "fc2"
  type: "InnerProductFixed"
  bottom: "relu5"
  top: "fc2"
  param {
    lr_mult: 1
    decay_mult: 1
  }
  param {
    lr_mult: 2
    decay_mult: 0
  }
  inner_product_param {
    num_output: 10
    weight_filler {
      type: "xavier"
    }
    bias_filler {
      type: "constant"
      value: 1
    }
  }
  fixed_param {
    fixed_method: DIFF_S
    bit_width: 8
  }
}
layer {
  name: "fc2_fixed"
  type: "FixedNeuron"
  bottom: "fc2"
  top: "fc2"
  param {
    lr_mult: 0
    decay_mult: 0
  }
  fixed_param {
    fixed_method: DIFF_S
    bit_width: 8
  }
}
layer {
  name: "loss"
  type: "SoftmaxWithLoss"
  bottom: "fc2"
  bottom: "label"
  top: "loss"
}
layer {
  name: "accuracy"
  type: "Accuracy"
  bottom: "fc2"
  bottom: "label"
  top: "accuracy"
  include {
    phase: TEST
  }
}
layer {
  name: "accuracy-top1"
  type: "Accuracy"
  bottom: "fc2"
  bottom: "label"
  top: "top-1"
  include {
    phase: TEST
  }
}
layer {
  name: "accuracy-top5"
  type: "Accuracy"
  bottom: "fc2"
  bottom: "label"
  top: "top-5"
  include {
    phase: TEST
  }
  accuracy_param {
    top_k: 5
  }
}
I0122 14:50:54.501710  3965 layer_factory.hpp:123] Creating layer data
I0122 14:50:54.501807  3965 internal_thread.cpp:73] Starting internal thread(s) on GPU 0
I0122 14:50:54.503113  3965 net.cpp:140] Creating Layer data
I0122 14:50:54.503136  3965 net.cpp:455] data -> data
I0122 14:50:54.503151  3965 net.cpp:455] data -> label
I0122 14:50:54.503612  3973 db_lmdb.cpp:81] Opened lmdb cifar10/input/lmdb/valid_lmdb
I0122 14:50:54.503710  3973 data_reader.cpp:166] TEST: reading data using 1 channel(s)
I0122 14:50:54.503813  3965 data_layer.cpp:124] ReshapePrefetch 50, 3, 32, 32
I0122 14:50:54.503942  3965 data_layer.cpp:129] output data size: 50,3,32,32
I0122 14:50:54.511739  3965 internal_thread.cpp:73] Starting internal thread(s) on GPU 0
I0122 14:50:54.511803  3965 net.cpp:190] Setting up data
I0122 14:50:54.511852  3965 net.cpp:197] Top shape: 50 3 32 32 (153600)
I0122 14:50:54.511868  3965 net.cpp:197] Top shape: 50 (50)
I0122 14:50:54.511875  3965 net.cpp:205] Memory required for data: 614600
I0122 14:50:54.511883  3965 layer_factory.hpp:123] Creating layer label_data_1_split
I0122 14:50:54.511895  3965 net.cpp:140] Creating Layer label_data_1_split
I0122 14:50:54.511903  3965 net.cpp:481] label_data_1_split <- label
I0122 14:50:54.511911  3965 net.cpp:455] label_data_1_split -> label_data_1_split_0
I0122 14:50:54.511924  3965 net.cpp:455] label_data_1_split -> label_data_1_split_1
I0122 14:50:54.511934  3965 net.cpp:455] label_data_1_split -> label_data_1_split_2
I0122 14:50:54.511950  3965 net.cpp:455] label_data_1_split -> label_data_1_split_3
I0122 14:50:54.512114  3965 net.cpp:190] Setting up label_data_1_split
I0122 14:50:54.512128  3965 net.cpp:197] Top shape: 50 (50)
I0122 14:50:54.512136  3965 net.cpp:197] Top shape: 50 (50)
I0122 14:50:54.512143  3965 net.cpp:197] Top shape: 50 (50)
I0122 14:50:54.512149  3965 net.cpp:197] Top shape: 50 (50)
I0122 14:50:54.512154  3965 net.cpp:205] Memory required for data: 615400
I0122 14:50:54.512162  3965 layer_factory.hpp:123] Creating layer data_fixed
I0122 14:50:54.512173  3965 net.cpp:140] Creating Layer data_fixed
I0122 14:50:54.512181  3965 net.cpp:481] data_fixed <- data
I0122 14:50:54.512188  3965 net.cpp:442] data_fixed -> data (in-place)
I0122 14:50:54.512239  3965 net.cpp:190] Setting up data_fixed
I0122 14:50:54.512274  3965 net.cpp:197] Top shape: 50 3 32 32 (153600)
I0122 14:50:54.512297  3965 net.cpp:205] Memory required for data: 1229800
I0122 14:50:54.512325  3965 layer_factory.hpp:123] Creating layer conv1
I0122 14:50:54.512346  3965 net.cpp:140] Creating Layer conv1
I0122 14:50:54.512353  3965 net.cpp:481] conv1 <- data
I0122 14:50:54.512378  3965 net.cpp:455] conv1 -> scale1
I0122 14:50:54.513685  3965 layer_factory.hpp:123] Creating layer conv1
I0122 14:50:54.514359  3965 net.cpp:190] Setting up conv1
I0122 14:50:54.514380  3965 net.cpp:197] Top shape: 50 32 32 32 (1638400)
I0122 14:50:54.514389  3965 net.cpp:205] Memory required for data: 7783400
I0122 14:50:54.514402  3965 layer_factory.hpp:123] Creating layer relu1
I0122 14:50:54.514415  3965 net.cpp:140] Creating Layer relu1
I0122 14:50:54.514441  3965 net.cpp:481] relu1 <- scale1
I0122 14:50:54.514467  3965 net.cpp:455] relu1 -> relu1
I0122 14:50:54.514529  3965 net.cpp:190] Setting up relu1
I0122 14:50:54.514580  3965 net.cpp:197] Top shape: 50 32 32 32 (1638400)
I0122 14:50:54.514626  3965 net.cpp:205] Memory required for data: 14337000
I0122 14:50:54.514664  3965 layer_factory.hpp:123] Creating layer relu1_fixed
I0122 14:50:54.514716  3965 net.cpp:140] Creating Layer relu1_fixed
I0122 14:50:54.514763  3965 net.cpp:481] relu1_fixed <- relu1
I0122 14:50:54.514812  3965 net.cpp:442] relu1_fixed -> relu1 (in-place)
I0122 14:50:54.514917  3965 net.cpp:190] Setting up relu1_fixed
I0122 14:50:54.514952  3965 net.cpp:197] Top shape: 50 32 32 32 (1638400)
I0122 14:50:54.514981  3965 net.cpp:205] Memory required for data: 20890600
I0122 14:50:54.515005  3965 layer_factory.hpp:123] Creating layer conv2
I0122 14:50:54.515038  3965 net.cpp:140] Creating Layer conv2
I0122 14:50:54.515063  3965 net.cpp:481] conv2 <- relu1
I0122 14:50:54.515090  3965 net.cpp:455] conv2 -> scale2
I0122 14:50:54.516234  3965 layer_factory.hpp:123] Creating layer conv2
I0122 14:50:54.516939  3965 net.cpp:190] Setting up conv2
I0122 14:50:54.516984  3965 net.cpp:197] Top shape: 50 32 32 32 (1638400)
I0122 14:50:54.517012  3965 net.cpp:205] Memory required for data: 27444200
I0122 14:50:54.517045  3965 layer_factory.hpp:123] Creating layer relu2
I0122 14:50:54.517076  3965 net.cpp:140] Creating Layer relu2
I0122 14:50:54.517098  3965 net.cpp:481] relu2 <- scale2
I0122 14:50:54.517127  3965 net.cpp:455] relu2 -> relu2
I0122 14:50:54.517190  3965 net.cpp:190] Setting up relu2
I0122 14:50:54.517220  3965 net.cpp:197] Top shape: 50 32 32 32 (1638400)
I0122 14:50:54.517241  3965 net.cpp:205] Memory required for data: 33997800
I0122 14:50:54.517263  3965 layer_factory.hpp:123] Creating layer pool1
I0122 14:50:54.517292  3965 net.cpp:140] Creating Layer pool1
I0122 14:50:54.517316  3965 net.cpp:481] pool1 <- relu2
I0122 14:50:54.517343  3965 net.cpp:455] pool1 -> pool1
I0122 14:50:54.517532  3965 net.cpp:190] Setting up pool1
I0122 14:50:54.517556  3965 net.cpp:197] Top shape: 50 32 16 16 (409600)
I0122 14:50:54.517565  3965 net.cpp:205] Memory required for data: 35636200
I0122 14:50:54.517570  3965 layer_factory.hpp:123] Creating layer pool1_fixed
I0122 14:50:54.517580  3965 net.cpp:140] Creating Layer pool1_fixed
I0122 14:50:54.517602  3965 net.cpp:481] pool1_fixed <- pool1
I0122 14:50:54.517714  3965 net.cpp:442] pool1_fixed -> pool1 (in-place)
I0122 14:50:54.517904  3965 net.cpp:190] Setting up pool1_fixed
I0122 14:50:54.517958  3965 net.cpp:197] Top shape: 50 32 16 16 (409600)
I0122 14:50:54.518014  3965 net.cpp:205] Memory required for data: 37274600
I0122 14:50:54.518059  3965 layer_factory.hpp:123] Creating layer conv3
I0122 14:50:54.518126  3965 net.cpp:140] Creating Layer conv3
I0122 14:50:54.518167  3965 net.cpp:481] conv3 <- pool1
I0122 14:50:54.518218  3965 net.cpp:455] conv3 -> scale3
I0122 14:50:54.519410  3965 layer_factory.hpp:123] Creating layer conv3
I0122 14:50:54.520236  3965 net.cpp:190] Setting up conv3
I0122 14:50:54.520260  3965 net.cpp:197] Top shape: 50 64 16 16 (819200)
I0122 14:50:54.520267  3965 net.cpp:205] Memory required for data: 40551400
I0122 14:50:54.520334  3965 layer_factory.hpp:123] Creating layer relu3
I0122 14:50:54.520388  3965 net.cpp:140] Creating Layer relu3
I0122 14:50:54.520434  3965 net.cpp:481] relu3 <- scale3
I0122 14:50:54.520484  3965 net.cpp:455] relu3 -> relu3
I0122 14:50:54.520565  3965 net.cpp:190] Setting up relu3
I0122 14:50:54.520598  3965 net.cpp:197] Top shape: 50 64 16 16 (819200)
I0122 14:50:54.520668  3965 net.cpp:205] Memory required for data: 43828200
I0122 14:50:54.520711  3965 layer_factory.hpp:123] Creating layer relu3_fixed
I0122 14:50:54.520758  3965 net.cpp:140] Creating Layer relu3_fixed
I0122 14:50:54.520804  3965 net.cpp:481] relu3_fixed <- relu3
I0122 14:50:54.520845  3965 net.cpp:442] relu3_fixed -> relu3 (in-place)
I0122 14:50:54.520951  3965 net.cpp:190] Setting up relu3_fixed
I0122 14:50:54.520969  3965 net.cpp:197] Top shape: 50 64 16 16 (819200)
I0122 14:50:54.520975  3965 net.cpp:205] Memory required for data: 47105000
I0122 14:50:54.520983  3965 layer_factory.hpp:123] Creating layer conv4
I0122 14:50:54.521080  3965 net.cpp:140] Creating Layer conv4
I0122 14:50:54.521126  3965 net.cpp:481] conv4 <- relu3
I0122 14:50:54.521183  3965 net.cpp:455] conv4 -> scale4
I0122 14:50:54.522004  3965 layer_factory.hpp:123] Creating layer conv4
I0122 14:50:54.522961  3965 net.cpp:190] Setting up conv4
I0122 14:50:54.522982  3965 net.cpp:197] Top shape: 50 64 16 16 (819200)
I0122 14:50:54.522989  3965 net.cpp:205] Memory required for data: 50381800
I0122 14:50:54.523000  3965 layer_factory.hpp:123] Creating layer relu4
I0122 14:50:54.523051  3965 net.cpp:140] Creating Layer relu4
I0122 14:50:54.523061  3965 net.cpp:481] relu4 <- scale4
I0122 14:50:54.523113  3965 net.cpp:455] relu4 -> relu4
I0122 14:50:54.523241  3965 net.cpp:190] Setting up relu4
I0122 14:50:54.523264  3965 net.cpp:197] Top shape: 50 64 16 16 (819200)
I0122 14:50:54.523284  3965 net.cpp:205] Memory required for data: 53658600
I0122 14:50:54.523291  3965 layer_factory.hpp:123] Creating layer pool2
I0122 14:50:54.523304  3965 net.cpp:140] Creating Layer pool2
I0122 14:50:54.523311  3965 net.cpp:481] pool2 <- relu4
I0122 14:50:54.523322  3965 net.cpp:455] pool2 -> pool2
I0122 14:50:54.523387  3965 net.cpp:190] Setting up pool2
I0122 14:50:54.523401  3965 net.cpp:197] Top shape: 50 64 8 8 (204800)
I0122 14:50:54.523417  3965 net.cpp:205] Memory required for data: 54477800
I0122 14:50:54.523425  3965 layer_factory.hpp:123] Creating layer pool2_fixed
I0122 14:50:54.523442  3965 net.cpp:140] Creating Layer pool2_fixed
I0122 14:50:54.523447  3965 net.cpp:481] pool2_fixed <- pool2
I0122 14:50:54.523458  3965 net.cpp:442] pool2_fixed -> pool2 (in-place)
I0122 14:50:54.523524  3965 net.cpp:190] Setting up pool2_fixed
I0122 14:50:54.523542  3965 net.cpp:197] Top shape: 50 64 8 8 (204800)
I0122 14:50:54.523550  3965 net.cpp:205] Memory required for data: 55297000
I0122 14:50:54.523558  3965 layer_factory.hpp:123] Creating layer fc1
I0122 14:50:54.523586  3965 net.cpp:140] Creating Layer fc1
I0122 14:50:54.523594  3965 net.cpp:481] fc1 <- pool2
I0122 14:50:54.523605  3965 net.cpp:455] fc1 -> scale5
I0122 14:50:54.545536  3965 layer_factory.hpp:123] Creating layer fc1
I0122 14:50:54.567400  3965 net.cpp:190] Setting up fc1
I0122 14:50:54.567433  3965 net.cpp:197] Top shape: 50 512 (25600)
I0122 14:50:54.567440  3965 net.cpp:205] Memory required for data: 55399400
I0122 14:50:54.567456  3965 layer_factory.hpp:123] Creating layer relu5
I0122 14:50:54.567471  3965 net.cpp:140] Creating Layer relu5
I0122 14:50:54.567486  3965 net.cpp:481] relu5 <- scale5
I0122 14:50:54.567500  3965 net.cpp:455] relu5 -> relu5
I0122 14:50:54.567543  3965 net.cpp:190] Setting up relu5
I0122 14:50:54.567559  3965 net.cpp:197] Top shape: 50 512 (25600)
I0122 14:50:54.567564  3965 net.cpp:205] Memory required for data: 55501800
I0122 14:50:54.567570  3965 layer_factory.hpp:123] Creating layer relu5_fixed
I0122 14:50:54.567582  3965 net.cpp:140] Creating Layer relu5_fixed
I0122 14:50:54.567596  3965 net.cpp:481] relu5_fixed <- relu5
I0122 14:50:54.567608  3965 net.cpp:442] relu5_fixed -> relu5 (in-place)
I0122 14:50:54.567678  3965 net.cpp:190] Setting up relu5_fixed
I0122 14:50:54.567694  3965 net.cpp:197] Top shape: 50 512 (25600)
I0122 14:50:54.567700  3965 net.cpp:205] Memory required for data: 55604200
I0122 14:50:54.567708  3965 layer_factory.hpp:123] Creating layer fc2
I0122 14:50:54.567724  3965 net.cpp:140] Creating Layer fc2
I0122 14:50:54.567734  3965 net.cpp:481] fc2 <- relu5
I0122 14:50:54.567746  3965 net.cpp:455] fc2 -> fc2
I0122 14:50:54.567915  3965 layer_factory.hpp:123] Creating layer fc2
I0122 14:50:54.568136  3965 net.cpp:190] Setting up fc2
I0122 14:50:54.568153  3965 net.cpp:197] Top shape: 50 10 (500)
I0122 14:50:54.568159  3965 net.cpp:205] Memory required for data: 55606200
I0122 14:50:54.568176  3965 layer_factory.hpp:123] Creating layer fc2_fixed
I0122 14:50:54.568192  3965 net.cpp:140] Creating Layer fc2_fixed
I0122 14:50:54.568200  3965 net.cpp:481] fc2_fixed <- fc2
I0122 14:50:54.568209  3965 net.cpp:442] fc2_fixed -> fc2 (in-place)
I0122 14:50:54.568266  3965 net.cpp:190] Setting up fc2_fixed
I0122 14:50:54.568280  3965 net.cpp:197] Top shape: 50 10 (500)
I0122 14:50:54.568286  3965 net.cpp:205] Memory required for data: 55608200
I0122 14:50:54.568295  3965 layer_factory.hpp:123] Creating layer fc2_fc2_fixed_0_split
I0122 14:50:54.568307  3965 net.cpp:140] Creating Layer fc2_fc2_fixed_0_split
I0122 14:50:54.568318  3965 net.cpp:481] fc2_fc2_fixed_0_split <- fc2
I0122 14:50:54.568331  3965 net.cpp:455] fc2_fc2_fixed_0_split -> fc2_fc2_fixed_0_split_0
I0122 14:50:54.568342  3965 net.cpp:455] fc2_fc2_fixed_0_split -> fc2_fc2_fixed_0_split_1
I0122 14:50:54.568352  3965 net.cpp:455] fc2_fc2_fixed_0_split -> fc2_fc2_fixed_0_split_2
I0122 14:50:54.568362  3965 net.cpp:455] fc2_fc2_fixed_0_split -> fc2_fc2_fixed_0_split_3
I0122 14:50:54.568444  3965 net.cpp:190] Setting up fc2_fc2_fixed_0_split
I0122 14:50:54.568459  3965 net.cpp:197] Top shape: 50 10 (500)
I0122 14:50:54.568467  3965 net.cpp:197] Top shape: 50 10 (500)
I0122 14:50:54.568472  3965 net.cpp:197] Top shape: 50 10 (500)
I0122 14:50:54.568478  3965 net.cpp:197] Top shape: 50 10 (500)
I0122 14:50:54.568483  3965 net.cpp:205] Memory required for data: 55616200
I0122 14:50:54.568490  3965 layer_factory.hpp:123] Creating layer loss
I0122 14:50:54.568513  3965 net.cpp:140] Creating Layer loss
I0122 14:50:54.568521  3965 net.cpp:481] loss <- fc2_fc2_fixed_0_split_0
I0122 14:50:54.568531  3965 net.cpp:481] loss <- label_data_1_split_0
I0122 14:50:54.568572  3965 net.cpp:455] loss -> loss
…
