…
I0716 07:52:02.674772 14264 net.cpp:98] Initializing net from parameters: 
state {
  phase: TRAIN
}
layer {
  name: "data"
  type: "ImageData"
  top: "data"
  top: "label"
  include {
    phase: TRAIN
  }
  transform_param {
    scale: 0.022
    mean_value: 73
    mean_value: 82
    mean_value: 72
    resize_param {
      prob: 1
      resize_mode: WARP
      height: 256
      width: 512
    }
  }
  image_data_param {
    source: "../data/cityscapes/calibration.txt"
    batch_size: 1
    shuffle: true
    new_height: 256
    new_width: 512
    root_folder: "../data/cityscapes/calibration_images/"
  }
}
layer {
  name: "ConvNd_1"
  type: "Convolution"
  bottom: "data"
  top: "ConvNd_1"
  convolution_param {
    num_output: 13
    bias_term: false
    pad: 1
    kernel_size: 3
    group: 1
    stride: 2
    dilation: 1
  }
}
layer {
  name: "MaxPool2d_1"
  type: "Pooling"
  bottom: "data"
  top: "MaxPool2d_1"
  pooling_param {
    pool: MAX
    kernel_size: 3
    stride: 2
    pad: 0
  }
}
layer {
  name: "Concat_1"
  type: "Concat"
  bottom: "ConvNd_1"
  bottom: "MaxPool2d_1"
  top: "Concat_1"
  concat_param {
    axis: 1
  }
}
layer {
  name: "BatchNorm_1"
  type: "BatchNorm"
  bottom: "Concat_1"
  top: "BatchNorm_1"
  param {
    lr_mult: 1
    decay_mult: 0
  }
  param {
    lr_mult: 1
    decay_mult: 0
  }
  param {
    lr_mult: 0
    decay_mult: 0
  }
  param {
    lr_mult: 0
    decay_mult: 0
  }
  batch_norm_param {
    use_global_stats: false
    eps: 1e-05
    scale_filler {
      type: "constant"
      value: 1
    }
    bias_filler {
      type: "constant"
      value: 0
    }
  }
}
layer {
  name: "Threshold_1"
  type: "ReLU"
  bottom: "BatchNorm_1"
  top: "BatchNorm_1"
}
layer {
  name: "MaxPool2d_2"
  type: "Pooling"
  bottom: "BatchNorm_1"
  top: "MaxPool2d_2"
  pooling_param {
    pool: MAX
    kernel_size: 3
    stride: 2
    pad: 0
  }
}
layer {
  name: "ConvNd_2"
  type: "Convolution"
  bottom: "MaxPool2d_2"
  top: "ConvNd_2"
  convolution_param {
    num_output: 64
    bias_term: false
    pad: 0
    kernel_size: 1
    group: 1
    stride: 1
    dilation: 1
  }
}
layer {
  name: "ConvNd_3"
  type: "Convolution"
  bottom: "BatchNorm_1"
  top: "ConvNd_3"
  convolution_param {
    num_output: 16
    bias_term: false
    pad: 0
    kernel_size: 2
    group: 1
    stride: 2
    dilation: 1
  }
}
layer {
  name: "BatchNorm_2"
  type: "BatchNorm"
  bottom: "ConvNd_3"
  top: "BatchNorm_2"
  param {
    lr_mult: 1
    decay_mult: 0
  }
  param {
    lr_mult: 1
    decay_mult: 0
  }
  param {
    lr_mult: 0
    decay_mult: 0
  }
  param {
    lr_mult: 0
    decay_mult: 0
  }
  batch_norm_param {
    use_global_stats: false
    eps: 1e-05
    scale_filler {
      type: "constant"
      value: 1
    }
    bias_filler {
      type: "constant"
      value: 0
    }
  }
}
layer {
  name: "Threshold_2"
  type: "ReLU"
  bottom: "BatchNorm_2"
  top: "BatchNorm_2"
}
layer {
  name: "ConvNd_4"
  type: "Convolution"
  bottom: "BatchNorm_2"
  top: "ConvNd_4"
  convolution_param {
    num_output: 16
    bias_term: false
    pad: 1
    kernel_size: 3
    group: 1
    stride: 1
    dilation: 1
  }
}
layer {
  name: "BatchNorm_3"
  type: "BatchNorm"
  bottom: "ConvNd_4"
  top: "BatchNorm_3"
  param {
    lr_mult: 1
    decay_mult: 0
  }
  param {
    lr_mult: 1
    decay_mult: 0
  }
  param {
    lr_mult: 0
    decay_mult: 0
  }
  param {
    lr_mult: 0
    decay_mult: 0
  }
  batch_norm_param {
    use_global_stats: false
    eps: 1e-05
    scale_filler {
      type: "constant"
      value: 1
    }
    bias_filler {
      type: "constant"
      value: 0
    }
  }
}
layer {
  name: "Threshold_3"
  type: "ReLU"
  bottom: "BatchNorm_3"
  top: "BatchNorm_3"
}
layer {
  name: "ConvNd_5"
  type: "Convolution"
  bottom: "BatchNorm_3"
  top: "ConvNd_5"
  convolution_param {
    num_output: 64
    bias_term: false
    pad: 0
    kernel_size: 1
    group: 1
    stride: 1
    dilation: 1
  }
}
layer {
  name: "BatchNorm_4"
  type: "BatchNorm"
  bottom: "ConvNd_5"
  top: "BatchNorm_4"
  param {
    lr_mult: 1
    decay_mult: 0
  }
  param {
    lr_mult: 1
    decay_mult: 0
  }
  param {
    lr_mult: 0
    decay_mult: 0
  }
  param {
    lr_mult: 0
    decay_mult: 0
  }
  batch_norm_param {
    use_global_stats: false
    eps: 1e-05
    scale_filler {
      type: "constant"
      value: 1
    }
    bias_filler {
      type: "constant"
      value: 0
    }
  }
}
layer {
  name: "Threshold_4"
  type: "ReLU"
  bottom: "BatchNorm_4"
  top: "BatchNorm_4"
}
layer {
  name: "Add_1"
  type: "Eltwise"
  bottom: "ConvNd_2"
  bottom: "BatchNorm_4"
  top: "Add_1"
}
layer {
  name: "Threshold_5"
  type: "ReLU"
  bottom: "Add_1"
  top: "Add_1"
}
layer {
  name: "ConvNd_6"
  type: "Convolution"
  bottom: "Add_1"
  top: "ConvNd_6"
  convolution_param {
    num_output: 16
    bias_term: false
    pad: 0
    kernel_size: 1
    group: 1
    stride: 1
    dilation: 1
  }
}
layer {
  name: "BatchNorm_5"
  type: "BatchNorm"
  bottom: "ConvNd_6"
  top: "BatchNorm_5"
  param {
    lr_mult: 1
    decay_mult: 0
  }
  param {
    lr_mult: 1
    decay_mult: 0
  }
  param {
    lr_mult: 0
    decay_mult: 0
  }
  param {
    lr_mult: 0
    decay_mult: 0
  }
  batch_norm_param {
    use_global_stats: false
    eps: 1e-05
    scale_filler {
      type: "constant"
      value: 1
    }
    bias_filler {
      type: "constant"
      value: 0
    }
  }
}
layer {
  name: "Threshold_6"
  type: "ReLU"
  bottom: "BatchNorm_5"
  top: "BatchNorm_5"
}
layer {
  name: "ConvNd_7"
  type: "Convolution"
  bottom: "BatchNorm_5"
  top: "ConvNd_7"
  convolution_param {
    num_output: 16
    bias_term: false
    pad: 1
    kernel_size: 3
    group: 1
    stride: 1
    dilation: 1
  }
}
layer {
  name: "BatchNorm_6"
  type: "BatchNorm"
  bottom: "ConvNd_7"
  top: "BatchNorm_6"
  param {
    lr_mult: 1
    decay_mult: 0
  }
  param {
    lr_mult: 1
    decay_mult: 0
  }
  param {
    lr_mult: 0
    decay_mult: 0
  }
  param {
    lr_mult: 0
    decay_mult: 0
  }
  batch_norm_param {
    use_global_stats: false
    eps: 1e-05
    scale_filler {
      type: "constant"
      value: 1
    }
    bias_filler {
      type: "constant"
      value: 0
    }
  }
}
layer {
  name: "Threshold_7"
  type: "ReLU"
  bottom: "BatchNorm_6"
  top: "BatchNorm_6"
}
layer {
  name: "ConvNd_8"
  type: "Convolution"
  bottom: "BatchNorm_6"
  top: "ConvNd_8"
  convolution_param {
    num_output: 64
    bias_term: false
    pad: 0
    kernel_size: 1
    group: 1
    stride: 1
    dilation: 1
  }
}
layer {
  name: "BatchNorm_7"
  type: "BatchNorm"
  bottom: "ConvNd_8"
  top: "BatchNorm_7"
  param {
    lr_mult: 1
    decay_mult: 0
  }
  param {
    lr_mult: 1
    decay_mult: 0
  }
  param {
    lr_mult: 0
    decay_mult: 0
  }
  param {
    lr_mult: 0
    decay_mult: 0
  }
  batch_norm_param {
    use_global_stats: false
    eps: 1e-05
    scale_filler {
      type: "constant"
      value: 1
    }
    bias_filler {
      type: "constant"
      value: 0
    }
  }
}
layer {
  name: "Threshold_8"
  type: "ReLU"
  bottom: "BatchNorm_7"
  top: "BatchNorm_7"
}
layer {
  name: "Add_2"
  type: "Eltwise"
  bottom: "Add_1"
  bottom: "BatchNorm_7"
  top: "Add_2"
}
layer {
  name: "Threshold_9"
  type: "ReLU"
  bottom: "Add_2"
  top: "Add_2"
}
layer {
  name: "ConvNd_9"
  type: "Convolution"
  bottom: "Add_2"
  top: "ConvNd_9"
  convolution_param {
    num_output: 16
    bias_term: false
    pad: 0
    kernel_size: 1
    group: 1
    stride: 1
    dilation: 1
  }
}
layer {
  name: "BatchNorm_8"
  type: "BatchNorm"
  bottom: "ConvNd_9"
  top: "BatchNorm_8"
  param {
    lr_mult: 1
    decay_mult: 0
  }
  param {
    lr_mult: 1
    decay_mult: 0
  }
  param {
    lr_mult: 0
    decay_mult: 0
  }
  param {
    lr_mult: 0
    decay_mult: 0
  }
  batch_norm_param {
    use_global_stats: false
    eps: 1e-05
    scale_filler {
      type: "constant"
      value: 1
    }
    bias_filler {
      type: "constant"
      value: 0
    }
  }
}
layer {
  name: "Threshold_10"
  type: "ReLU"
  bottom: "BatchNorm_8"
  top: "BatchNorm_8"
}
layer {
  name: "ConvNd_10"
  type: "Convolution"
  bottom: "BatchNorm_8"
  top: "ConvNd_10"
  convolution_param {
    num_output: 16
    bias_term: false
    pad: 1
    kernel_size: 3
    group: 1
    stride: 1
    dilation: 1
  }
}
layer {
  name: "BatchNorm_9"
  type: "BatchNorm"
  bottom: "ConvNd_10"
  top: "BatchNorm_9"
  param {
    lr_mult: 1
    decay_mult: 0
  }
  param {
    lr_mult: 1
    decay_mult: 0
  }
  param {
    lr_mult: 0
    decay_mult: 0
  }
  param {
    lr_mult: 0
    decay_mult: 0
  }
  batch_norm_param {
    use_global_stats: false
    eps: 1e-05
    scale_filler {
      type: "constant"
      value: 1
    }
    bias_filler {
      type: "constant"
      value: 0
    }
  }
}
layer {
  name: "Threshold_11"
  type: "ReLU"
  bottom: "BatchNorm_9"
  top: "BatchNorm_9"
}
layer {
  name: "ConvNd_11"
  type: "Convolution"
  bottom: "BatchNorm_9"
  top: "ConvNd_11"
  convolution_param {
    num_output: 64
    bias_term: false
    pad: 0
    kernel_size: 1
    group: 1
    stride: 1
    dilation: 1
  }
}
layer {
  name: "BatchNorm_10"
  type: "BatchNorm"
  bottom: "ConvNd_11"
  top: "BatchNorm_10"
  param {
    lr_mult: 1
    decay_mult: 0
  }
  param {
    lr_mult: 1
    decay_mult: 0
  }
  param {
    lr_mult: 0
    decay_mult: 0
  }
  param {
    lr_mult: 0
    decay_mult: 0
  }
  batch_norm_param {
    use_global_stats: false
    eps: 1e-05
    scale_filler {
      type: "constant"
      value: 1
    }
    bias_filler {
      type: "constant"
      value: 0
    }
  }
}
layer {
  name: "Threshold_12"
  type: "ReLU"
  bottom: "BatchNorm_10"
  top: "BatchNorm_10"
}
layer {
  name: "Add_3"
  type: "Eltwise"
  bottom: "Add_2"
  bottom: "BatchNorm_10"
  top: "Add_3"
}
layer {
  name: "Threshold_13"
  type: "ReLU"
  bottom: "Add_3"
  top: "Add_3"
}
layer {
  name: "ConvNd_12"
  type: "Convolution"
  bottom: "Add_3"
  top: "ConvNd_12"
  convolution_param {
    num_output: 16
    bias_term: false
    pad: 0
    kernel_size: 1
    group: 1
    stride: 1
    dilation: 1
  }
}
layer {
  name: "BatchNorm_11"
  type: "BatchNorm"
  bottom: "ConvNd_12"
  top: "BatchNorm_11"
  param {
    lr_mult: 1
    decay_mult: 0
  }
  param {
    lr_mult: 1
    decay_mult: 0
  }
  param {
    lr_mult: 0
    decay_mult: 0
  }
  param {
    lr_mult: 0
    decay_mult: 0
  }
  batch_norm_param {
    use_global_stats: false
    eps: 1e-05
    scale_filler {
      type: "constant"
      value: 1
    }
    bias_filler {
      type: "constant"
      value: 0
    }
  }
}
layer {
  name: "Threshold_14"
  type: "ReLU"
  bottom: "BatchNorm_11"
  top: "BatchNorm_11"
}
layer {
  name: "ConvNd_13"
  type: "Convolution"
  bottom: "BatchNorm_11"
  top: "ConvNd_13"
  convolution_param {
    num_output: 16
    bias_term: false
    pad: 1
    kernel_size: 3
    group: 1
    stride: 1
    dilation: 1
  }
}
layer {
  name: "BatchNorm_12"
  type: "BatchNorm"
  bottom: "ConvNd_13"
  top: "BatchNorm_12"
  param {
    lr_mult: 1
    decay_mult: 0
  }
  param {
    lr_mult: 1
    decay_mult: 0
  }
  param {
    lr_mult: 0
    decay_mult: 0
  }
  param {
    lr_mult: 0
    decay_mult: 0
  }
  batch_norm_param {
    use_global_stats: false
    eps: 1e-05
    scale_filler {
      type: "constant"
      value: 1
    }
    bias_filler {
      type: "constant"
      value: 0
    }
  }
}
layer {
  name: "Threshold_15"
  type: "ReLU"
  bottom: "BatchNorm_12"
  top: "BatchNorm_12"
}
layer {
  name: "ConvNd_14"
  type: "Convolution"
  bottom: "BatchNorm_12"
  top: "ConvNd_14"
  convolution_param {
    num_output: 64
    bias_term: false
    pad: 0
    kernel_size: 1
    group: 1
    stride: 1
    dilation: 1
  }
}
layer {
  name: "BatchNorm_13"
  type: "BatchNorm"
  bottom: "ConvNd_14"
  top: "BatchNorm_13"
  param {
    lr_mult: 1
    decay_mult: 0
  }
  param {
    lr_mult: 1
    decay_mult: 0
  }
  param {
    lr_mult: 0
    decay_mult: 0
  }
  param {
    lr_mult: 0
    decay_mult: 0
  }
  batch_norm_param {
    use_global_stats: false
    eps: 1e-05
    scale_filler {
      type: "constant"
      value: 1
    }
    bias_filler {
      type: "constant"
      value: 0
    }
  }
}
layer {
  name: "Threshold_16"
  type: "ReLU"
  bottom: "BatchNorm_13"
  top: "BatchNorm_13"
}
layer {
  name: "Add_4"
  type: "Eltwise"
  bottom: "Add_3"
  bottom: "BatchNorm_13"
  top: "Add_4"
}
layer {
  name: "Threshold_17"
  type: "ReLU"
  bottom: "Add_4"
  top: "Add_4"
}
layer {
  name: "ConvNd_15"
  type: "Convolution"
  bottom: "Add_4"
  top: "ConvNd_15"
  convolution_param {
    num_output: 16
    bias_term: false
    pad: 0
    kernel_size: 1
    group: 1
    stride: 1
    dilation: 1
  }
}
layer {
  name: "BatchNorm_14"
  type: "BatchNorm"
  bottom: "ConvNd_15"
  top: "BatchNorm_14"
  param {
    lr_mult: 1
    decay_mult: 0
  }
  param {
    lr_mult: 1
    decay_mult: 0
  }
  param {
    lr_mult: 0
    decay_mult: 0
  }
  param {
    lr_mult: 0
    decay_mult: 0
  }
  batch_norm_param {
    use_global_stats: false
    eps: 1e-05
    scale_filler {
      type: "constant"
      value: 1
    }
    bias_filler {
      type: "constant"
      value: 0
    }
  }
}
layer {
  name: "Threshold_18"
  type: "ReLU"
  bottom: "BatchNorm_14"
  top: "BatchNorm_14"
}
layer {
  name: "ConvNd_16"
  type: "Convolution"
  bottom: "BatchNorm_14"
  top: "ConvNd_16"
  convolution_param {
    num_output: 16
    bias_term: false
    pad: 1
    kernel_size: 3
    group: 1
    stride: 1
    dilation: 1
  }
}
layer {
  name: "BatchNorm_15"
  type: "BatchNorm"
  bottom: "ConvNd_16"
  top: "BatchNorm_15"
  param {
    lr_mult: 1
    decay_mult: 0
  }
  param {
    lr_mult: 1
    decay_mult: 0
  }
  param {
    lr_mult: 0
    decay_mult: 0
  }
  param {
    lr_mult: 0
    decay_mult: 0
  }
  batch_norm_param {
    use_global_stats: false
    eps: 1e-05
    scale_filler {
      type: "constant"
      value: 1
    }
    bias_filler {
      type: "constant"
      value: 0
    }
  }
}
layer {
  name: "Threshold_19"
  type: "ReLU"
  bottom: "BatchNorm_15"
  top: "BatchNorm_15"
}
layer {
  name: "ConvNd_17"
  type: "Convolution"
  bottom: "BatchNorm_15"
  top: "ConvNd_17"
  convolution_param {
    num_output: 64
    bias_term: false
    pad: 0
    kernel_size: 1
    group: 1
    stride: 1
    dilation: 1
  }
}
layer {
  name: "BatchNorm_16"
  type: "BatchNorm"
  bottom: "ConvNd_17"
  top: "BatchNorm_16"
  param {
    lr_mult: 1
    decay_mult: 0
  }
  param {
    lr_mult: 1
    decay_mult: 0
  }
  param {
    lr_mult: 0
    decay_mult: 0
  }
  param {
    lr_mult: 0
    decay_mult: 0
  }
  batch_norm_param {
    use_global_stats: false
    eps: 1e-05
    scale_filler {
      type: "constant"
      value: 1
    }
    bias_filler {
      type: "constant"
      value: 0
    }
  }
}
layer {
  name: "Threshold_20"
  type: "ReLU"
  bottom: "BatchNorm_16"
  top: "BatchNorm_16"
}
layer {
  name: "Add_5"
  type: "Eltwise"
  bottom: "Add_4"
  bottom: "BatchNorm_16"
  top: "Add_5"
}
layer {
  name: "Threshold_21"
  type: "ReLU"
  bottom: "Add_5"
  top: "Add_5"
}
layer {
  name: "MaxPool2d_3"
  type: "Pooling"
  bottom: "Add_5"
  top: "MaxPool2d_3"
  pooling_param {
    pool: MAX
    kernel_size: 3
    stride: 2
    pad: 0
  }
}
layer {
  name: "ConvNd_18"
  type: "Convolution"
  bottom: "MaxPool2d_3"
  top: "ConvNd_18"
  convolution_param {
    num_output: 128
    bias_term: false
    pad: 0
    kernel_size: 1
    group: 1
    stride: 1
    dilation: 1
  }
}
layer {
  name: "ConvNd_19"
  type: "Convolution"
  bottom: "Add_5"
  top: "ConvNd_19"
  convolution_param {
    num_output: 32
    bias_term: false
    pad: 0
    kernel_size: 2
    group: 1
    stride: 2
    dilation: 1
  }
}
layer {
  name: "BatchNorm_17"
  type: "BatchNorm"
  bottom: "ConvNd_19"
  top: "BatchNorm_17"
  param {
    lr_mult: 1
    decay_mult: 0
  }
  param {
    lr_mult: 1
    decay_mult: 0
  }
  param {
    lr_mult: 0
    decay_mult: 0
  }
  param {
    lr_mult: 0
    decay_mult: 0
  }
  batch_norm_param {
    use_global_stats: false
    eps: 1e-05
    scale_filler {
      type: "constant"
      value: 1
    }
    bias_filler {
      type: "constant"
      value: 0
    }
  }
}
layer {
  name: "Threshold_22"
  type: "ReLU"
  bottom: "BatchNorm_17"
  top: "BatchNorm_17"
}
layer {
  name: "ConvNd_20"
  type: "Convolution"
  bottom: "BatchNorm_17"
  top: "ConvNd_20"
  convolution_param {
    num_output: 32
    bias_term: false
    pad: 1
    kernel_size: 3
    group: 1
    stride: 1
    dilation: 1
  }
}
layer {
  name: "BatchNorm_18"
  type: "BatchNorm"
  bottom: "ConvNd_20"
  top: "BatchNorm_18"
  param {
    lr_mult: 1
    decay_mult: 0
  }
  param {
    lr_mult: 1
    decay_mult: 0
  }
  param {
    lr_mult: 0
    decay_mult: 0
  }
  param {
    lr_mult: 0
    decay_mult: 0
  }
  batch_norm_param {
    use_global_stats: false
    eps: 1e-05
    scale_filler {
      type: "constant"
      value: 1
    }
    bias_filler {
      type: "constant"
      value: 0
    }
  }
}
layer {
  name: "Threshold_23"
  type: "ReLU"
  bottom: "BatchNorm_18"
  top: "BatchNorm_18"
}
layer {
  name: "ConvNd_21"
  type: "Convolution"
  bottom: "BatchNorm_18"
  top: "ConvNd_21"
  convolution_param {
    num_output: 128
    bias_term: false
    pad: 0
    kernel_size: 1
    group: 1
    stride: 1
    dilation: 1
  }
}
layer {
  name: "BatchNorm_19"
  type: "BatchNorm"
  bottom: "ConvNd_21"
  top: "BatchNorm_19"
  param {
    lr_mult: 1
    decay_mult: 0
  }
  param {
    lr_mult: 1
    decay_mult: 0
  }
  param {
    lr_mult: 0
    decay_mult: 0
  }
  param {
    lr_mult: 0
    decay_mult: 0
  }
  batch_norm_param {
    use_global_stats: false
    eps: 1e-05
    scale_filler {
      type: "constant"
      value: 1
    }
    bias_filler {
      type: "constant"
      value: 0
    }
  }
}
layer {
  name: "Threshold_24"
  type: "ReLU"
  bottom: "BatchNorm_19"
  top: "BatchNorm_19"
}
layer {
  name: "Add_6"
  type: "Eltwise"
  bottom: "ConvNd_18"
  bottom: "BatchNorm_19"
  top: "Add_6"
}
layer {
  name: "Threshold_25"
  type: "ReLU"
  bottom: "Add_6"
  top: "Add_6"
}
layer {
  name: "ConvNd_22"
  type: "Convolution"
  bottom: "Add_6"
  top: "ConvNd_22"
  convolution_param {
    num_output: 32
    bias_term: false
    pad: 0
    kernel_size: 1
    group: 1
    stride: 1
    dilation: 1
  }
}
layer {
  name: "BatchNorm_20"
  type: "BatchNorm"
  bottom: "ConvNd_22"
  top: "BatchNorm_20"
  param {
    lr_mult: 1
    decay_mult: 0
  }
  param {
    lr_mult: 1
    decay_mult: 0
  }
  param {
    lr_mult: 0
    decay_mult: 0
  }
  param {
    lr_mult: 0
    decay_mult: 0
  }
  batch_norm_param {
    use_global_stats: false
    eps: 1e-05
    scale_filler {
      type: "constant"
      value: 1
    }
    bias_filler {
      type: "constant"
      value: 0
    }
  }
}
layer {
  name: "Threshold_26"
  type: "ReLU"
  bottom: "BatchNorm_20"
  top: "BatchNorm_20"
}
layer {
  name: "ConvNd_23"
  type: "Convolution"
  bottom: "BatchNorm_20"
  top: "ConvNd_23"
  convolution_param {
    num_output: 32
    bias_term: false
    pad: 1
    kernel_size: 3
    group: 1
    stride: 1
    dilation: 1
  }
}
layer {
  name: "BatchNorm_21"
  type: "BatchNorm"
  bottom: "ConvNd_23"
  top: "BatchNorm_21"
  param {
    lr_mult: 1
    decay_mult: 0
  }
  param {
    lr_mult: 1
    decay_mult: 0
  }
  param {
    lr_mult: 0
    decay_mult: 0
  }
  param {
    lr_mult: 0
    decay_mult: 0
  }
  batch_norm_param {
    use_global_stats: false
    eps: 1e-05
    scale_filler {
      type: "constant"
      value: 1
    }
    bias_filler {
      type: "constant"
      value: 0
    }
  }
}
layer {
  name: "Threshold_27"
  type: "ReLU"
  bottom: "BatchNorm_21"
  top: "BatchNorm_21"
}
layer {
  name: "ConvNd_24"
  type: "Convolution"
  bottom: "BatchNorm_21"
  top: "ConvNd_24"
  convolution_param {
    num_output: 128
    bias_term: false
    pad: 0
    kernel_size: 1
    group: 1
    stride: 1
    dilation: 1
  }
}
layer {
  name: "BatchNorm_22"
  type: "BatchNorm"
  bottom: "ConvNd_24"
  top: "BatchNorm_22"
  param {
    lr_mult: 1
    decay_mult: 0
  }
  param {
    lr_mult: 1
    decay_mult: 0
  }
  param {
    lr_mult: 0
    decay_mult: 0
  }
  param {
    lr_mult: 0
    decay_mult: 0
  }
  batch_norm_param {
    use_global_stats: false
    eps: 1e-05
    scale_filler {
      type: "constant"
      value: 1
    }
    bias_filler {
      type: "constant"
      value: 0
    }
  }
}
layer {
  name: "Threshold_28"
  type: "ReLU"
  bottom: "BatchNorm_22"
  top: "BatchNorm_22"
}
layer {
  name: "Add_7"
  type: "Eltwise"
  bottom: "Add_6"
  bottom: "BatchNorm_22"
  top: "Add_7"
}
layer {
  name: "Threshold_29"
  type: "ReLU"
  bottom: "Add_7"
  top: "Add_7"
}
layer {
  name: "ConvNd_25"
  type: "Convolution"
  bottom: "Add_7"
  top: "ConvNd_25"
  convolution_param {
    num_output: 32
    bias_term: false
    pad: 0
    kernel_size: 1
    group: 1
    stride: 1
    dilation: 1
  }
}
layer {
  name: "BatchNorm_23"
  type: "BatchNorm"
  bottom: "ConvNd_25"
  top: "BatchNorm_23"
  param {
    lr_mult: 1
    decay_mult: 0
  }
  param {
    lr_mult: 1
    decay_mult: 0
  }
  param {
    lr_mult: 0
    decay_mult: 0
  }
  param {
    lr_mult: 0
    decay_mult: 0
  }
  batch_norm_param {
    use_global_stats: false
    eps: 1e-05
    scale_filler {
      type: "constant"
      value: 1
    }
    bias_filler {
      type: "constant"
      value: 0
    }
  }
}
layer {
  name: "Threshold_30"
  type: "ReLU"
  bottom: "BatchNorm_23"
  top: "BatchNorm_23"
}
layer {
  name: "ConvNd_26"
  type: "Convolution"
  bottom: "BatchNorm_23"
  top: "ConvNd_26"
  convolution_param {
    num_output: 32
    bias_term: false
    pad: 2
    kernel_size: 3
    group: 1
    stride: 1
    dilation: 2
  }
}
layer {
  name: "BatchNorm_24"
  type: "BatchNorm"
  bottom: "ConvNd_26"
  top: "BatchNorm_24"
  param {
    lr_mult: 1
    decay_mult: 0
  }
  param {
    lr_mult: 1
    decay_mult: 0
  }
  param {
    lr_mult: 0
    decay_mult: 0
  }
  param {
    lr_mult: 0
    decay_mult: 0
  }
  batch_norm_param {
    use_global_stats: false
    eps: 1e-05
    scale_filler {
      type: "constant"
      value: 1
    }
    bias_filler {
      type: "constant"
      value: 0
    }
  }
}
layer {
  name: "Threshold_31"
  type: "ReLU"
  bottom: "BatchNorm_24"
  top: "BatchNorm_24"
}
layer {
  name: "ConvNd_27"
  type: "Convolution"
  bottom: "BatchNorm_24"
  top: "ConvNd_27"
  convolution_param {
    num_output: 128
    bias_term: false
    pad: 0
    kernel_size: 1
    group: 1
    stride: 1
    dilation: 1
  }
}
layer {
  name: "BatchNorm_25"
  type: "BatchNorm"
  bottom: "ConvNd_27"
  top: "BatchNorm_25"
  param {
    lr_mult: 1
    decay_mult: 0
  }
  param {
    lr_mult: 1
    decay_mult: 0
  }
  param {
    lr_mult: 0
    decay_mult: 0
  }
  param {
    lr_mult: 0
    decay_mult: 0
  }
  batch_norm_param {
    use_global_stats: false
    eps: 1e-05
    scale_filler {
      type: "constant"
      value: 1
    }
    bias_filler {
      type: "constant"
      value: 0
    }
  }
}
layer {
  name: "Threshold_32"
  type: "ReLU"
  bottom: "BatchNorm_25"
  top: "BatchNorm_25"
}
layer {
  name: "Add_8"
  type: "Eltwise"
  bottom: "Add_7"
  bottom: "BatchNorm_25"
  top: "Add_8"
}
layer {
  name: "Threshold_33"
  type: "ReLU"
  bottom: "Add_8"
  top: "Add_8"
}
layer {
  name: "ConvNd_28"
  type: "Convolution"
  bottom: "Add_8"
  top: "ConvNd_28"
  convolution_param {
    num_output: 32
    bias_term: false
    pad: 0
    kernel_size: 1
    group: 1
    stride: 1
    dilation: 1
  }
}
layer {
  name: "BatchNorm_26"
  type: "BatchNorm"
  bottom: "ConvNd_28"
  top: "BatchNorm_26"
  param {
    lr_mult: 1
    decay_mult: 0
  }
  param {
    lr_mult: 1
    decay_mult: 0
  }
  param {
    lr_mult: 0
    decay_mult: 0
  }
  param {
    lr_mult: 0
    decay_mult: 0
  }
  batch_norm_param {
    use_global_stats: false
    eps: 1e-05
    scale_filler {
      type: "constant"
      value: 1
    }
    bias_filler {
      type: "constant"
      value: 0
    }
  }
}
layer {
  name: "Threshold_34"
  type: "ReLU"
  bottom: "BatchNorm_26"
  top: "BatchNorm_26"
}
layer {
  name: "ConvNd_29"
  type: "Convolution"
  bottom: "BatchNorm_26"
  top: "ConvNd_29"
  convolution_param {
    num_output: 32
    bias_term: false
    group: 1
    stride: 1
    pad_h: 2
    pad_w: 0
    kernel_h: 5
    kernel_w: 1
    dilation: 1
  }
}
layer {
  name: "BatchNorm_27"
  type: "BatchNorm"
  bottom: "ConvNd_29"
  top: "BatchNorm_27"
  param {
    lr_mult: 1
    decay_mult: 0
  }
  param {
    lr_mult: 1
    decay_mult: 0
  }
  param {
    lr_mult: 0
    decay_mult: 0
  }
  param {
    lr_mult: 0
    decay_mult: 0
  }
  batch_norm_param {
    use_global_stats: false
    eps: 1e-05
    scale_filler {
      type: "constant"
      value: 1
    }
    bias_filler {
      type: "constant"
      value: 0
    }
  }
}
layer {
  name: "Threshold_35"
  type: "ReLU"
  bottom: "BatchNorm_27"
  top: "BatchNorm_27"
}
layer {
  name: "ConvNd_30"
  type: "Convolution"
  bottom: "BatchNorm_27"
  top: "ConvNd_30"
  convolution_param {
    num_output: 32
    bias_term: false
    group: 1
    stride: 1
    pad_h: 0
    pad_w: 2
    kernel_h: 1
    kernel_w: 5
    dilation: 1
  }
}
layer {
  name: "BatchNorm_28"
  type: "BatchNorm"
  bottom: "ConvNd_30"
  top: "BatchNorm_28"
  param {
    lr_mult: 1
    decay_mult: 0
  }
  param {
    lr_mult: 1
    decay_mult: 0
  }
  param {
    lr_mult: 0
    decay_mult: 0
  }
  param {
    lr_mult: 0
    decay_mult: 0
  }
  batch_norm_param {
    use_global_stats: false
    eps: 1e-05
    scale_filler {
      type: "constant"
      value: 1
    }
    bias_filler {
      type: "constant"
      value: 0
    }
  }
}
layer {
  name: "Threshold_36"
  type: "ReLU"
  bottom: "BatchNorm_28"
  top: "BatchNorm_28"
}
layer {
  name: "ConvNd_31"
  type: "Convolution"
  bottom: "BatchNorm_28"
  top: "ConvNd_31"
  convolution_param {
    num_output: 128
    bias_term: false
    pad: 0
    kernel_size: 1
    group: 1
    stride: 1
    dilation: 1
  }
}
layer {
  name: "BatchNorm_29"
  type: "BatchNorm"
  bottom: "ConvNd_31"
  top: "BatchNorm_29"
  param {
    lr_mult: 1
    decay_mult: 0
  }
  param {
    lr_mult: 1
    decay_mult: 0
  }
  param {
    lr_mult: 0
    decay_mult: 0
  }
  param {
    lr_mult: 0
    decay_mult: 0
  }
  batch_norm_param {
    use_global_stats: false
    eps: 1e-05
    scale_filler {
      type: "constant"
      value: 1
    }
    bias_filler {
      type: "constant"
      value: 0
    }
  }
}
layer {
  name: "Threshold_37"
  type: "ReLU"
  bottom: "BatchNorm_29"
  top: "BatchNorm_29"
}
layer {
  name: "Add_9"
  type: "Eltwise"
  bottom: "Add_8"
  bottom: "BatchNorm_29"
  top: "Add_9"
}
layer {
  name: "Threshold_38"
  type: "ReLU"
  bottom: "Add_9"
  top: "Add_9"
}
layer {
  name: "ConvNd_32"
  type: "Convolution"
  bottom: "Add_9"
  top: "ConvNd_32"
  convolution_param {
    num_output: 32
    bias_term: false
    pad: 0
    kernel_size: 1
    group: 1
    stride: 1
    dilation: 1
  }
}
layer {
  name: "BatchNorm_30"
  type: "BatchNorm"
  bottom: "ConvNd_32"
  top: "BatchNorm_30"
  param {
    lr_mult: 1
    decay_mult: 0
  }
  param {
    lr_mult: 1
    decay_mult: 0
  }
  param {
    lr_mult: 0
    decay_mult: 0
  }
  param {
    lr_mult: 0
    decay_mult: 0
  }
  batch_norm_param {
    use_global_stats: false
    eps: 1e-05
    scale_filler {
      type: "constant"
      value: 1
    }
    bias_filler {
      type: "constant"
      value: 0
    }
  }
}
layer {
  name: "Threshold_39"
  type: "ReLU"
  bottom: "BatchNorm_30"
  top: "BatchNorm_30"
}
layer {
  name: "ConvNd_33"
  type: "Convolution"
  bottom: "BatchNorm_30"
  top: "ConvNd_33"
  convolution_param {
    num_output: 32
    bias_term: false
    pad: 4
    kernel_size: 3
    group: 1
    stride: 1
    dilation: 4
  }
}
layer {
  name: "BatchNorm_31"
  type: "BatchNorm"
  bottom: "ConvNd_33"
  top: "BatchNorm_31"
  param {
    lr_mult: 1
    decay_mult: 0
  }
  param {
    lr_mult: 1
    decay_mult: 0
  }
  param {
    lr_mult: 0
    decay_mult: 0
  }
  param {
    lr_mult: 0
    decay_mult: 0
  }
  batch_norm_param {
    use_global_stats: false
    eps: 1e-05
    scale_filler {
      type: "constant"
      value: 1
    }
    bias_filler {
      type: "constant"
      value: 0
    }
  }
}
layer {
  name: "Threshold_40"
  type: "ReLU"
  bottom: "BatchNorm_31"
  top: "BatchNorm_31"
}
layer {
  name: "ConvNd_34"
  type: "Convolution"
  bottom: "BatchNorm_31"
  top: "ConvNd_34"
  convolution_param {
    num_output: 128
    bias_term: false
    pad: 0
    kernel_size: 1
    group: 1
    stride: 1
    dilation: 1
  }
}
layer {
  name: "BatchNorm_32"
  type: "BatchNorm"
  bottom: "ConvNd_34"
  top: "BatchNorm_32"
  param {
    lr_mult: 1
    decay_mult: 0
  }
  param {
    lr_mult: 1
    decay_mult: 0
  }
  param {
    lr_mult: 0
    decay_mult: 0
  }
  param {
    lr_mult: 0
    decay_mult: 0
  }
  batch_norm_param {
    use_global_stats: false
    eps: 1e-05
    scale_filler {
      type: "constant"
      value: 1
    }
    bias_filler {
      type: "constant"
      value: 0
    }
  }
}
layer {
  name: "Threshold_41"
  type: "ReLU"
  bottom: "BatchNorm_32"
  top: "BatchNorm_32"
}
layer {
  name: "Add_10"
  type: "Eltwise"
  bottom: "Add_9"
  bottom: "BatchNorm_32"
  top: "Add_10"
}
layer {
  name: "Threshold_42"
  type: "ReLU"
  bottom: "Add_10"
  top: "Add_10"
}
layer {
  name: "ConvNd_35"
  type: "Convolution"
  bottom: "Add_10"
  top: "ConvNd_35"
  convolution_param {
    num_output: 32
    bias_term: false
    pad: 0
    kernel_size: 1
    group: 1
    stride: 1
    dilation: 1
  }
}
layer {
  name: "BatchNorm_33"
  type: "BatchNorm"
  bottom: "ConvNd_35"
  top: "BatchNorm_33"
  param {
    lr_mult: 1
    decay_mult: 0
  }
  param {
    lr_mult: 1
    decay_mult: 0
  }
  param {
    lr_mult: 0
    decay_mult: 0
  }
  param {
    lr_mult: 0
    decay_mult: 0
  }
  batch_norm_param {
    use_global_stats: false
    eps: 1e-05
    scale_filler {
      type: "constant"
      value: 1
    }
    bias_filler {
 
I0716 07:52:02.676256 14264 layer_factory.hpp:123] Creating layer data
I0716 07:52:02.676290 14264 net.cpp:140] Creating Layer data
I0716 07:52:02.676303 14264 net.cpp:455] data -> data
I0716 07:52:02.676316 14264 net.cpp:455] data -> label
I0716 07:52:02.676342 14264 image_data_layer.cpp:87] Opening file ../data/cityscapes/calibration.txt
I0716 07:52:02.676632 14264 image_data_layer.cpp:97] Shuffling data
I0716 07:52:02.676697 14264 image_data_layer.cpp:102] A total of 1000 images.
I0716 07:52:02.754642 14264 image_data_layer.cpp:130] output data size: 1,3,256,512
I0716 07:52:02.764922 14264 internal_thread.cpp:73] Starting internal thread(s) on GPU 0
I0716 07:52:02.764998 14264 net.cpp:190] Setting up data
I0716 07:52:02.765013 14264 net.cpp:197] Top shape: 1 3 256 512 (393216)
I0716 07:52:02.765023 14264 net.cpp:197] Top shape: 1 (1)
I0716 07:52:02.765030 14264 net.cpp:205] Memory required for data: 1572868
I0716 07:52:02.765039 14264 layer_factory.hpp:123] Creating layer data_data_0_split
I0716 07:52:02.765055 14264 net.cpp:140] Creating Layer data_data_0_split
I0716 07:52:02.765063 14264 net.cpp:481] data_data_0_split <- data
I0716 07:52:02.765080 14264 net.cpp:455] data_data_0_split -> data_data_0_split_0
I0716 07:52:02.765095 14264 net.cpp:455] data_data_0_split -> data_data_0_split_1
I0716 07:52:02.765147 14264 net.cpp:190] Setting up data_data_0_split
I0716 07:52:02.765156 14264 net.cpp:197] Top shape: 1 3 256 512 (393216)
I0716 07:52:02.765163 14264 net.cpp:197] Top shape: 1 3 256 512 (393216)
I0716 07:52:02.765168 14264 net.cpp:205] Memory required for data: 4718596
I0716 07:52:02.765173 14264 layer_factory.hpp:123] Creating layer ConvNd_1
I0716 07:52:02.765187 14264 net.cpp:140] Creating Layer ConvNd_1
I0716 07:52:02.765193 14264 net.cpp:481] ConvNd_1 <- data_data_0_split_0
I0716 07:52:02.765202 14264 net.cpp:455] ConvNd_1 -> ConvNd_1
I0716 07:52:02.766436 14264 net.cpp:190] Setting up ConvNd_1
I0716 07:52:02.766449 14264 net.cpp:197] Top shape: 1 13 128 256 (425984)
I0716 07:52:02.766455 14264 net.cpp:205] Memory required for data: 6422532
I0716 07:52:02.766471 14264 layer_factory.hpp:123] Creating layer MaxPool2d_1
I0716 07:52:02.766484 14264 net.cpp:140] Creating Layer MaxPool2d_1
I0716 07:52:02.766490 14264 net.cpp:481] MaxPool2d_1 <- data_data_0_split_1
I0716 07:52:02.766499 14264 net.cpp:455] MaxPool2d_1 -> MaxPool2d_1
I0716 07:52:02.766552 14264 net.cpp:190] Setting up MaxPool2d_1
I0716 07:52:02.766562 14264 net.cpp:197] Top shape: 1 3 128 256 (98304)
I0716 07:52:02.766567 14264 net.cpp:205] Memory required for data: 6815748
I0716 07:52:02.766575 14264 layer_factory.hpp:123] Creating layer Concat_1
I0716 07:52:02.766587 14264 net.cpp:140] Creating Layer Concat_1
I0716 07:52:02.766594 14264 net.cpp:481] Concat_1 <- ConvNd_1
I0716 07:52:02.766602 14264 net.cpp:481] Concat_1 <- MaxPool2d_1
I0716 07:52:02.766611 14264 net.cpp:455] Concat_1 -> Concat_1
I0716 07:52:02.766640 14264 net.cpp:190] Setting up Concat_1
I0716 07:52:02.766649 14264 net.cpp:197] Top shape: 1 16 128 256 (524288)
I0716 07:52:02.766654 14264 net.cpp:205] Memory required for data: 8912900
I0716 07:52:02.766659 14264 layer_factory.hpp:123] Creating layer BatchNorm_1
I0716 07:52:02.766674 14264 net.cpp:140] Creating Layer BatchNorm_1
I0716 07:52:02.766680 14264 net.cpp:481] BatchNorm_1 <- Concat_1
I0716 07:52:02.766688 14264 net.cpp:455] BatchNorm_1 -> BatchNorm_1
I0716 07:52:02.768128 14264 net.cpp:190] Setting up BatchNorm_1
I0716 07:52:02.768142 14264 net.cpp:197] Top shape: 1 16 128 256 (524288)
I0716 07:52:02.768147 14264 net.cpp:205] Memory required for data: 11010052
I0716 07:52:02.768169 14264 layer_factory.hpp:123] Creating layer Threshold_1
I0716 07:52:02.768179 14264 net.cpp:140] Creating Layer Threshold_1
I0716 07:52:02.768187 14264 net.cpp:481] Threshold_1 <- BatchNorm_1
I0716 07:52:02.768193 14264 net.cpp:442] Threshold_1 -> BatchNorm_1 (in-place)
I0716 07:52:02.768209 14264 net.cpp:190] Setting up Threshold_1
I0716 07:52:02.768216 14264 net.cpp:197] Top shape: 1 16 128 256 (524288)
I0716 07:52:02.768221 14264 net.cpp:205] Memory required for data: 13107204
I0716 07:52:02.768226 14264 layer_factory.hpp:123] Creating layer BatchNorm_1_Threshold_1_0_split
I0716 07:52:02.768234 14264 net.cpp:140] Creating Layer BatchNorm_1_Threshold_1_0_split
I0716 07:52:02.768239 14264 net.cpp:481] BatchNorm_1_Threshold_1_0_split <- BatchNorm_1
I0716 07:52:02.768246 14264 net.cpp:455] BatchNorm_1_Threshold_1_0_split -> BatchNorm_1_Threshold_1_0_split_0
I0716 07:52:02.768257 14264 net.cpp:455] BatchNorm_1_Threshold_1_0_split -> BatchNorm_1_Threshold_1_0_split_1
I0716 07:52:02.768294 14264 net.cpp:190] Setting up BatchNorm_1_Threshold_1_0_split
I0716 07:52:02.768303 14264 net.cpp:197] Top shape: 1 16 128 256 (524288)
I0716 07:52:02.768309 14264 net.cpp:197] Top shape: 1 16 128 256 (524288)
I0716 07:52:02.768313 14264 net.cpp:205] Memory required for data: 17301508
I0716 07:52:02.768318 14264 layer_factory.hpp:123] Creating layer MaxPool2d_2
I0716 07:52:02.768328 14264 net.cpp:140] Creating Layer MaxPool2d_2
I0716 07:52:02.768333 14264 net.cpp:481] MaxPool2d_2 <- BatchNorm_1_Threshold_1_0_split_0
I0716 07:52:02.768340 14264 net.cpp:455] MaxPool2d_2 -> MaxPool2d_2
I0716 07:52:02.768376 14264 net.cpp:190] Setting up MaxPool2d_2
I0716 07:52:02.768384 14264 net.cpp:197] Top shape: 1 16 64 128 (131072)
I0716 07:52:02.768388 14264 net.cpp:205] Memory required for data: 17825796
I0716 07:52:02.768393 14264 layer_factory.hpp:123] Creating layer ConvNd_2
I0716 07:52:02.768404 14264 net.cpp:140] Creating Layer ConvNd_2
I0716 07:52:02.768410 14264 net.cpp:481] ConvNd_2 <- MaxPool2d_2
I0716 07:52:02.768419 14264 net.cpp:455] ConvNd_2 -> ConvNd_2
I0716 07:52:02.768584 14264 net.cpp:190] Setting up ConvNd_2
I0716 07:52:02.768592 14264 net.cpp:197] Top shape: 1 64 64 128 (524288)
I0716 07:52:02.768597 14264 net.cpp:205] Memory required for data: 19922948
I0716 07:52:02.768604 14264 layer_factory.hpp:123] Creating layer ConvNd_3
I0716 07:52:02.768615 14264 net.cpp:140] Creating Layer ConvNd_3
I0716 07:52:02.768620 14264 net.cpp:481] ConvNd_3 <- BatchNorm_1_Threshold_1_0_split_1
I0716 07:52:02.768630 14264 net.cpp:455] ConvNd_3 -> ConvNd_3
I0716 07:52:02.768782 14264 net.cpp:190] Setting up ConvNd_3
I0716 07:52:02.768791 14264 net.cpp:197] Top shape: 1 16 64 128 (131072)
I0716 07:52:02.768796 14264 net.cpp:205] Memory required for data: 20447236
I0716 07:52:02.768805 14264 layer_factory.hpp:123] Creating layer BatchNorm_2
I0716 07:52:02.768815 14264 net.cpp:140] Creating Layer BatchNorm_2
I0716 07:52:02.768821 14264 net.cpp:481] BatchNorm_2 <- ConvNd_3
I0716 07:52:02.768829 14264 net.cpp:455] BatchNorm_2 -> BatchNorm_2
I0716 07:52:02.770175 14264 net.cpp:190] Setting up BatchNorm_2
I0716 07:52:02.770189 14264 net.cpp:197] Top shape: 1 16 64 128 (131072)
I0716 07:52:02.770193 14264 net.cpp:205] Memory required for data: 20971524
I0716 07:52:02.770211 14264 layer_factory.hpp:123] Creating layer Threshold_2
I0716 07:52:02.770221 14264 net.cpp:140] Creating Layer Threshold_2
I0716 07:52:02.770226 14264 net.cpp:481] Threshold_2 <- BatchNorm_2
I0716 07:52:02.770234 14264 net.cpp:442] Threshold_2 -> BatchNorm_2 (in-place)
I0716 07:52:02.770244 14264 net.cpp:190] Setting up Threshold_2
I0716 07:52:02.770252 14264 net.cpp:197] Top shape: 1 16 64 128 (131072)
I0716 07:52:02.770257 14264 net.cpp:205] Memory required for data: 21495812
I0716 07:52:02.770262 14264 layer_factory.hpp:123] Creating layer ConvNd_4
I0716 07:52:02.770272 14264 net.cpp:140] Creating Layer ConvNd_4
I0716 07:52:02.770279 14264 net.cpp:481] ConvNd_4 <- BatchNorm_2
I0716 07:52:02.770287 14264 net.cpp:455] ConvNd_4 -> ConvNd_4
I0716 07:52:02.771212 14264 net.cpp:190] Setting up ConvNd_4
I0716 07:52:02.771225 14264 net.cpp:197] Top shape: 1 16 64 128 (131072)
I0716 07:52:02.771231 14264 net.cpp:205] Memory required for data: 22020100
I0716 07:52:02.771239 14264 layer_factory.hpp:123] Creating layer BatchNorm_3
I0716 07:52:02.771250 14264 net.cpp:140] Creating Layer BatchNorm_3
I0716 07:52:02.771257 14264 net.cpp:481] BatchNorm_3 <- ConvNd_4
I0716 07:52:02.771267 14264 net.cpp:455] BatchNorm_3 -> BatchNorm_3
I0716 07:52:02.771857 14264 net.cpp:190] Setting up BatchNorm_3
I0716 07:52:02.771868 14264 net.cpp:197] Top shape: 1 16 64 128 (131072)
I0716 07:52:02.771873 14264 net.cpp:205] Memory required for data: 22544388
I0716 07:52:02.771890 14264 layer_factory.hpp:123] Creating layer Threshold_3
I0716 07:52:02.771899 14264 net.cpp:140] Creating Layer Threshold_3
I0716 07:52:02.771905 14264 net.cpp:481] Threshold_3 <- BatchNorm_3
I0716 07:52:02.771912 14264 net.cpp:442] Threshold_3 -> BatchNorm_3 (in-place)
I0716 07:52:02.771924 14264 net.cpp:190] Setting up Threshold_3
I0716 07:52:02.771931 14264 net.cpp:197] Top shape: 1 16 64 128 (131072)
I0716 07:52:02.771936 14264 net.cpp:205] Memory required for data: 23068676
I0716 07:52:02.771940 14264 layer_factory.hpp:123] Creating layer ConvNd_5
I0716 07:52:02.771953 14264 net.cpp:140] Creating Layer ConvNd_5
I0716 07:52:02.771960 14264 net.cpp:481] ConvNd_5 <- BatchNorm_3
I0716 07:52:02.771967 14264 net.cpp:455] ConvNd_5 -> ConvNd_5
I0716 07:52:02.772132 14264 net.cpp:190] Setting up ConvNd_5
I0716 07:52:02.772142 14264 net.cpp:197] Top shape: 1 64 64 128 (524288)
I0716 07:52:02.772147 14264 net.cpp:205] Memory required for data: 25165828
I0716 07:52:02.772155 14264 layer_factory.hpp:123] Creating layer BatchNorm_4
I0716 07:52:02.772166 14264 net.cpp:140] Creating Layer BatchNorm_4
I0716 07:52:02.772172 14264 net.cpp:481] BatchNorm_4 <- ConvNd_5
I0716 07:52:02.772181 14264 net.cpp:455] BatchNorm_4 -> BatchNorm_4
I0716 07:52:02.772747 14264 net.cpp:190] Setting up BatchNorm_4
I0716 07:52:02.772756 14264 net.cpp:197] Top shape: 1 64 64 128 (524288)
I0716 07:52:02.772763 14264 net.cpp:205] Memory required for data: 27262980
I0716 07:52:02.772775 14264 layer_factory.hpp:123] Creating layer Threshold_4
I0716 07:52:02.772783 14264 net.cpp:140] Creating Layer Threshold_4
I0716 07:52:02.772789 14264 net.cpp:481] Threshold_4 <- BatchNorm_4
I0716 07:52:02.772796 14264 net.cpp:442] Threshold_4 -> BatchNorm_4 (in-place)
I0716 07:52:02.772806 14264 net.cpp:190] Setting up Threshold_4
I0716 07:52:02.772814 14264 net.cpp:197] Top shape: 1 64 64 128 (524288)
I0716 07:52:02.772819 14264 net.cpp:205] Memory required for data: 29360132
I0716 07:52:02.772823 14264 layer_factory.hpp:123] Creating layer Add_1
I0716 07:52:02.772831 14264 net.cpp:140] Creating Layer Add_1
I0716 07:52:02.772836 14264 net.cpp:481] Add_1 <- ConvNd_2
I0716 07:52:02.772842 14264 net.cpp:481] Add_1 <- BatchNorm_4
I0716 07:52:02.772850 14264 net.cpp:455] Add_1 -> Add_1
I0716 07:52:02.772877 14264 net.cpp:190] Setting up Add_1
I0716 07:52:02.772884 14264 net.cpp:197] Top shape: 1 64 64 128 (524288)
I0716 07:52:02.772889 14264 net.cpp:205] Memory required for data: 31457284
I0716 07:52:02.772894 14264 layer_factory.hpp:123] Creating layer Threshold_5
I0716 07:52:02.772902 14264 net.cpp:140] Creating Layer Threshold_5
I0716 07:52:02.772907 14264 net.cpp:481] Threshold_5 <- Add_1
I0716 07:52:02.772913 14264 net.cpp:442] Threshold_5 -> Add_1 (in-place)
I0716 07:52:02.772922 14264 net.cpp:190] Setting up Threshold_5
I0716 07:52:02.772928 14264 net.cpp:197] Top shape: 1 64 64 128 (524288)
I0716 07:52:02.772933 14264 net.cpp:205] Memory required for data: 33554436
I0716 07:52:02.772936 14264 layer_factory.hpp:123] Creating layer Add_1_Threshold_5_0_split
I0716 07:52:02.772944 14264 net.cpp:140] Creating Layer Add_1_Threshold_5_0_split
I0716 07:52:02.772949 14264 net.cpp:481] Add_1_Threshold_5_0_split <- Add_1
I0716 07:52:02.772958 14264 net.cpp:455] Add_1_Threshold_5_0_split -> Add_1_Threshold_5_0_split_0
I0716 07:52:02.772967 14264 net.cpp:455] Add_1_Threshold_5_0_split -> Add_1_Threshold_5_0_split_1
I0716 07:52:02.773002 14264 net.cpp:190] Setting up Add_1_Threshold_5_0_split
I0716 07:52:02.773010 14264 net.cpp:197] Top shape: 1 64 64 128 (524288)
I0716 07:52:02.773016 14264 net.cpp:197] Top shape: 1 64 64 128 (524288)
I0716 07:52:02.773020 14264 net.cpp:205] Memory required for data: 37748740
I0716 07:52:02.773026 14264 layer_factory.hpp:123] Creating layer ConvNd_6
I0716 07:52:02.773036 14264 net.cpp:140] Creating Layer ConvNd_6
I0716 07:52:02.773041 14264 net.cpp:481] ConvNd_6 <- Add_1_Threshold_5_0_split_0
I0716 07:52:02.773049 14264 net.cpp:455] ConvNd_6 -> ConvNd_6
I0716 07:52:02.773211 14264 net.cpp:190] Setting up ConvNd_6
I0716 07:52:02.773219 14264 net.cpp:197] Top shape: 1 16 64 128 (131072)
I0716 07:52:02.773223 14264 net.cpp:205] Memory required for data: 38273028
I0716 07:52:02.773231 14264 layer_factory.hpp:123] Creating layer BatchNorm_5
I0716 07:52:02.773241 14264 net.cpp:140] Creating Layer BatchNorm_5
I0716 07:52:02.773247 14264 net.cpp:481] BatchNorm_5 <- ConvNd_6
I0716 07:52:02.773255 14264 net.cpp:455] BatchNorm_5 -> BatchNorm_5
I0716 07:52:02.773826 14264 net.cpp:190] Setting up BatchNorm_5
I0716 07:52:02.773836 14264 net.cpp:197] Top shape: 1 16 64 128 (131072)
I0716 07:52:02.773840 14264 net.cpp:205] Memory required for data: 38797316
I0716 07:52:02.773854 14264 layer_factory.hpp:123] Creating layer Threshold_6
I0716 07:52:02.773862 14264 net.cpp:140] Creating Layer Threshold_6
I0716 07:52:02.773869 14264 net.cpp:481] Threshold_6 <- BatchNorm_5
I0716 07:52:02.773875 14264 net.cpp:442] Threshold_6 -> BatchNorm_5 (in-place)
I0716 07:52:02.773885 14264 net.cpp:190] Setting up Threshold_6
I0716 07:52:02.773891 14264 net.cpp:197] Top shape: 1 16 64 128 (131072)
I0716 07:52:02.773898 14264 net.cpp:205] Memory required for data: 39321604
I0716 07:52:02.773903 14264 layer_factory.hpp:123] Creating layer ConvNd_7
I0716 07:52:02.773913 14264 net.cpp:140] Creating Layer ConvNd_7
I0716 07:52:02.773917 14264 net.cpp:481] ConvNd_7 <- BatchNorm_5
I0716 07:52:02.773926 14264 net.cpp:455] ConvNd_7 -> ConvNd_7
I0716 07:52:02.774086 14264 net.cpp:190] Setting up ConvNd_7
I0716 07:52:02.774096 14264 net.cpp:197] Top shape: 1 16 64 128 (131072)
I0716 07:52:02.774101 14264 net.cpp:205] Memory required for data: 39845892
I0716 07:52:02.774107 14264 layer_factory.hpp:123] Creating layer BatchNorm_6
I0716 07:52:02.774117 14264 net.cpp:140] Creating Layer BatchNorm_6
I0716 07:52:02.774122 14264 net.cpp:481] BatchNorm_6 <- ConvNd_7
I0716 07:52:02.774130 14264 net.cpp:455] BatchNorm_6 -> BatchNorm_6
I0716 07:52:02.774703 14264 net.cpp:190] Setting up BatchNorm_6
I0716 07:52:02.774713 14264 net.cpp:197] Top shape: 1 16 64 128 (131072)
I0716 07:52:02.774718 14264 net.cpp:205] Memory required for data: 40370180
I0716 07:52:02.774734 14264 layer_factory.hpp:123] Creating layer Threshold_7
I0716 07:52:02.774742 14264 net.cpp:140] Creating Layer Threshold_7
I0716 07:52:02.774747 14264 net.cpp:481] Threshold_7 <- BatchNorm_6
I0716 07:52:02.774755 14264 net.cpp:442] Threshold_7 -> BatchNorm_6 (in-place)
I0716 07:52:02.774765 14264 net.cpp:190] Setting up Threshold_7
I0716 07:52:02.774772 14264 net.cpp:197] Top shape: 1 16 64 128 (131072)
I0716 07:52:02.774777 14264 net.cpp:205] Memory required for data: 40894468
I0716 07:52:02.774781 14264 layer_factory.hpp:123] Creating layer ConvNd_8
I0716 07:52:02.774792 14264 net.cpp:140] Creating Layer ConvNd_8
I0716 07:52:02.774797 14264 net.cpp:481] ConvNd_8 <- BatchNorm_6
I0716 07:52:02.774804 14264 net.cpp:455] ConvNd_8 -> ConvNd_8
I0716 07:52:02.774967 14264 net.cpp:190] Setting up ConvNd_8
I0716 07:52:02.774976 14264 net.cpp:197] Top shape: 1 64 64 128 (524288)
I0716 07:52:02.774981 14264 net.cpp:205] Memory required for data: 42991620
I0716 07:52:02.774987 14264 layer_factory.hpp:123] Creating layer BatchNorm_7
I0716 07:52:02.774997 14264 net.cpp:140] Creating Layer BatchNorm_7
I0716 07:52:02.775002 14264 net.cpp:481] BatchNorm_7 <- ConvNd_8
I0716 07:52:02.775012 14264 net.cpp:455] BatchNorm_7 -> BatchNorm_7
I0716 07:52:02.775583 14264 net.cpp:190] Setting up BatchNorm_7
I0716 07:52:02.775591 14264 net.cpp:197] Top shape: 1 64 64 128 (524288)
I0716 07:52:02.775596 14264 net.cpp:205] Memory required for data: 45088772
I0716 07:52:02.775610 14264 layer_factory.hpp:123] Creating layer Threshold_8
I0716 07:52:02.775619 14264 net.cpp:140] Creating Layer Threshold_8
I0716 07:52:02.775624 14264 net.cpp:481] Threshold_8 <- BatchNorm_7
I0716 07:52:02.775631 14264 net.cpp:442] Threshold_8 -> BatchNorm_7 (in-place)
I0716 07:52:02.775641 14264 net.cpp:190] Setting up Threshold_8
I0716 07:52:02.775648 14264 net.cpp:197] Top shape: 1 64 64 128 (524288)
I0716 07:52:02.775653 14264 net.cpp:205] Memory required for data: 47185924
I0716 07:52:02.775657 14264 layer_factory.hpp:123] Creating layer Add_2
I0716 07:52:02.775665 14264 net.cpp:140] Creating Layer Add_2
I0716 07:52:02.775671 14264 net.cpp:481] Add_2 <- Add_1_Threshold_5_0_split_1
I0716 07:52:02.775676 14264 net.cpp:481] Add_2 <- BatchNorm_7
I0716 07:52:02.775684 14264 net.cpp:455] Add_2 -> Add_2
I0716 07:52:02.775709 14264 net.cpp:190] Setting up Add_2
I0716 07:52:02.775717 14264 net.cpp:197] Top shape: 1 64 64 128 (524288)
I0716 07:52:02.775722 14264 net.cpp:205] Memory required for data: 49283076
I0716 07:52:02.775725 14264 layer_factory.hpp:123] Creating layer Threshold_9
I0716 07:52:02.775735 14264 net.cpp:140] Creating Layer Threshold_9
I0716 07:52:02.775739 14264 net.cpp:481] Threshold_9 <- Add_2
I0716 07:52:02.775746 14264 net.cpp:442] Threshold_9 -> Add_2 (in-place)
I0716 07:52:02.775760 14264 net.cpp:190] Setting up Threshold_9
I0716 07:52:02.775768 14264 net.cpp:197] Top shape: 1 64 64 128 (524288)
I0716 07:52:02.775773 14264 net.cpp:205] Memory required for data: 51380228
I0716 07:52:02.775777 14264 layer_factory.hpp:123] Creating layer Add_2_Threshold_9_0_split
I0716 07:52:02.775785 14264 net.cpp:140] Creating Layer Add_2_Threshold_9_0_split
I0716 07:52:02.775792 14264 net.cpp:481] Add_2_Threshold_9_0_split <- Add_2
I0716 07:52:02.775800 14264 net.cpp:455] Add_2_Threshold_9_0_split -> Add_2_Threshold_9_0_split_0
I0716 07:52:02.775810 14264 net.cpp:455] Add_2_Threshold_9_0_split -> Add_2_Threshold_9_0_split_1
I0716 07:52:02.775847 14264 net.cpp:190] Setting up Add_2_Threshold_9_0_split
I0716 07:52:02.775856 14264 net.cpp:197] Top shape: 1 64 64 128 (524288)
I0716 07:52:02.775861 14264 net.cpp:197] Top shape: 1 64 64 128 (524288)
I0716 07:52:02.775866 14264 net.cpp:205] Memory required for data: 55574532
I0716 07:52:02.775871 14264 layer_factory.hpp:123] Creating layer ConvNd_9
I0716 07:52:02.775882 14264 net.cpp:140] Creating Layer ConvNd_9
I0716 07:52:02.775887 14264 net.cpp:481] ConvNd_9 <- Add_2_Threshold_9_0_split_0
I0716 07:52:02.775895 14264 net.cpp:455] ConvNd_9 -> ConvNd_9
I0716 07:52:02.776057 14264 net.cpp:190] Setting up ConvNd_9
I0716 07:52:02.776065 14264 net.cpp:197] Top shape: 1 16 64 128 (131072)
I0716 07:52:02.776070 14264 net.cpp:205] Memory required for data: 56098820
I0716 07:52:02.776077 14264 layer_factory.hpp:123] Creating layer BatchNorm_8
I0716 07:52:02.776087 14264 net.cpp:140] Creating Layer BatchNorm_8
I0716 07:52:02.776093 14264 net.cpp:481] BatchNorm_8 <- ConvNd_9
I0716 07:52:02.776101 14264 net.cpp:455] BatchNorm_8 -> BatchNorm_8
I0716 07:52:02.776676 14264 net.cpp:190] Setting up BatchNorm_8
I0716 07:52:02.776686 14264 net.cpp:197] Top shape: 1 16 64 128 (131072)
I0716 07:52:02.776692 14264 net.cpp:205] Memory required for data: 56623108
I0716 07:52:02.776705 14264 layer_factory.hpp:123] Creating layer Threshold_10
I0716 07:52:02.776715 14264 net.cpp:140] Creating Layer Threshold_10
I0716 07:52:02.776720 14264 net.cpp:481] Threshold_10 <- BatchNorm_8
I0716 07:52:02.776727 14264 net.cpp:442] Threshold_10 -> BatchNorm_8 (in-place)
I0716 07:52:02.776736 14264 net.cpp:190] Setting up Threshold_10
I0716 07:52:02.776744 14264 net.cpp:197] Top shape: 1 16 64 128 (131072)
I0716 07:52:02.776748 14264 net.cpp:205] Memory required for data: 57147396
I0716 07:52:02.776753 14264 layer_factory.hpp:123] Creating layer ConvNd_10
I0716 07:52:02.776763 14264 net.cpp:140] Creating Layer ConvNd_10
I0716 07:52:02.776768 14264 net.cpp:481] ConvNd_10 <- BatchNorm_8
I0716 07:52:02.776777 14264 net.cpp:455] ConvNd_10 -> ConvNd_10
I0716 07:52:02.776942 14264 net.cpp:190] Setting up ConvNd_10
I0716 07:52:02.776950 14264 net.cpp:197] Top shape: 1 16 64 128 (131072)
I0716 07:52:02.776955 14264 net.cpp:205] Memory required for data: 57671684
I0716 07:52:02.776962 14264 layer_factory.hpp:123] Creating layer BatchNorm_9
I0716 07:52:02.776973 14264 net.cpp:140] Creating Layer BatchNorm_9
I0716 07:52:02.776980 14264 net.cpp:481] BatchNorm_9 <- ConvNd_10
I0716 07:52:02.776989 14264 net.cpp:455] BatchNorm_9 -> BatchNorm_9
I0716 07:52:02.777570 14264 net.cpp:190] Setting up BatchNorm_9
I0716 07:52:02.777581 14264 net.cpp:197] Top shape: 1 16 64 128 (131072)
I0716 07:52:02.777586 14264 net.cpp:205] Memory required for data: 58195972
I0716 07:52:02.777601 14264 layer_factory.hpp:123] Creating layer Threshold_11
I0716 07:52:02.777608 14264 net.cpp:140] Creating Layer Threshold_11
I0716 07:52:02.777614 14264 net.cpp:481] Threshold_11 <- BatchNorm_9
I0716 07:52:02.777621 14264 net.cpp:442] Threshold_11 -> BatchNorm_9 (in-place)
I0716 07:52:02.777631 14264 net.cpp:190] Setting up Threshold_11
I0716 07:52:02.777638 14264 net.cpp:197] Top shape: 1 16 64 128 (131072)
I0716 07:52:02.777643 14264 net.cpp:205] Memory required for data: 58720260
I0716 07:52:02.777648 14264 layer_factory.hpp:123] Creating layer ConvNd_11
I0716 07:52:02.777658 14264 net.cpp:140] Creating Layer ConvNd_11
I0716 07:52:02.777662 14264 net.cpp:481] ConvNd_11 <- BatchNorm_9
I0716 07:52:02.777670 14264 net.cpp:455] ConvNd_11 -> ConvNd_11
I0716 07:52:02.777837 14264 net.cpp:190] Setting up ConvNd_11
I0716 07:52:02.777845 14264 net.cpp:197] Top shape: 1 64 64 128 (524288)
I0716 07:52:02.777849 14264 net.cpp:205] Memory required for data: 60817412
I0716 07:52:02.777856 14264 layer_factory.hpp:123] Creating layer BatchNorm_10
I0716 07:52:02.777868 14264 net.cpp:140] Creating Layer BatchNorm_10
I0716 07:52:02.777873 14264 net.cpp:481] BatchNorm_10 <- ConvNd_11
I0716 07:52:02.777880 14264 net.cpp:455] BatchNorm_10 -> BatchNorm_10
I0716 07:52:02.778468 14264 net.cpp:190] Setting up BatchNorm_10
I0716 07:52:02.778477 14264 net.cpp:197] Top shape: 1 64 64 128 (524288)
I0716 07:52:02.778482 14264 net.cpp:205] Memory required for data: 62914564
I0716 07:52:02.778496 14264 layer_factory.hpp:123] Creating layer Threshold_12
I0716 07:52:02.778504 14264 net.cpp:140] Creating Layer Threshold_12
I0716 07:52:02.778509 14264 net.cpp:481] Threshold_12 <- BatchNorm_10
I0716 07:52:02.778517 14264 net.cpp:442] Threshold_12 -> BatchNorm_10 (in-place)
I0716 07:52:02.778527 14264 net.cpp:190] Setting up Threshold_12
I0716 07:52:02.778534 14264 net.cpp:197] Top shape: 1 64 64 128 (524288)
I0716 07:52:02.778538 14264 net.cpp:205] Memory required for data: 65011716
I0716 07:52:02.778543 14264 layer_factory.hpp:123] Creating layer Add_3
I0716 07:52:02.778551 14264 net.cpp:140] Creating Layer Add_3
I0716 07:52:02.778558 14264 net.cpp:481] Add_3 <- Add_2_Threshold_9_0_split_1
I0716 07:52:02.778563 14264 net.cpp:481] Add_3 <- BatchNorm_10
I0716 07:52:02.778570 14264 net.cpp:455] Add_3 -> Add_3
I0716 07:52:02.778597 14264 net.cpp:190] Setting up Add_3
I0716 07:52:02.778606 14264 net.cpp:197] Top shape: 1 64 64 128 (524288)
I0716 07:52:02.778611 14264 net.cpp:205] Memory required for data: 67108868
I0716 07:52:02.778615 14264 layer_factory.hpp:123] Creating layer Threshold_13
I0716 07:52:02.778623 14264 net.cpp:140] Creating Layer Threshold_13
I0716 07:52:02.778630 14264 net.cpp:481] Threshold_13 <- Add_3
I0716 07:52:02.778637 14264 net.cpp:442] Threshold_13 -> Add_3 (in-place)
I0716 07:52:02.778646 14264 net.cpp:190] Setting up Threshold_13
I0716 07:52:02.778654 14264 net.cpp:197] Top shape: 1 64 64 128 (524288)
I0716 07:52:02.778659 14264 net.cpp:205] Memory required for data: 69206020
I0716 07:52:02.778663 14264 layer_factory.hpp:123] Creating layer Add_3_Threshold_13_0_split
I0716 07:52:02.778671 14264 net.cpp:140] Creating Layer Add_3_Threshold_13_0_split
I0716 07:52:02.778676 14264 net.cpp:481] Add_3_Threshold_13_0_split <- Add_3
I0716 07:52:02.778683 14264 net.cpp:455] Add_3_Threshold_13_0_split -> Add_3_Threshold_13_0_split_0
I0716 07:52:02.778698 14264 net.cpp:455] Add_3_Threshold_13_0_split -> Add_3_Threshold_13_0_split_1
I0716 07:52:02.778735 14264 net.cpp:190] Setting up Add_3_Threshold_13_0_split
I0716 07:52:02.778743 14264 net.cpp:197] Top shape: 1 64 64 128 (524288)
I0716 07:52:02.778750 14264 net.cpp:197] Top shape: 1 64 64 128 (524288)
I0716 07:52:02.778754 14264 net.cpp:205] Memory required for data: 73400324
I0716 07:52:02.778759 14264 layer_factory.hpp:123] Creating layer ConvNd_12
I0716 07:52:02.778769 14264 net.cpp:140] Creating Layer ConvNd_12
I0716 07:52:02.778776 14264 net.cpp:481] ConvNd_12 <- Add_3_Threshold_13_0_split_0
I0716 07:52:02.778784 14264 net.cpp:455] ConvNd_12 -> ConvNd_12
I0716 07:52:02.778949 14264 net.cpp:190] Setting up ConvNd_12
I0716 07:52:02.778959 14264 net.cpp:197] Top shape: 1 16 64 128 (131072)
I0716 07:52:02.778964 14264 net.cpp:205] Memory required for data: 73924612
I0716 07:52:02.778970 14264 layer_factory.hpp:123] Creating layer BatchNorm_11
I0716 07:52:02.778980 14264 net.cpp:140] Creating Layer BatchNorm_11
I0716 07:52:02.778985 14264 net.cpp:481] BatchNorm_11 <- ConvNd_12
I0716 07:52:02.778995 14264 net.cpp:455] BatchNorm_11 -> BatchNorm_11
I0716 07:52:02.779589 14264 net.cpp:190] Setting up BatchNorm_11
I0716 07:52:02.779599 14264 net.cpp:197] Top shape: 1 16 64 128 (131072)
I0716 07:52:02.779604 14264 net.cpp:205] Memory required for data: 74448900
I0716 07:52:02.779623 14264 layer_factory.hpp:123] Creating layer Threshold_14
I0716 07:52:02.779630 14264 net.cpp:140] Creating Layer Threshold_14
I0716 07:52:02.779636 14264 net.cpp:481] Threshold_14 <- BatchNorm_11
I0716 07:52:02.779644 14264 net.cpp:442] Threshold_14 -> BatchNorm_11 (in-place)
I0716 07:52:02.779654 14264 net.cpp:190] Setting up Threshold_14
I0716 07:52:02.779660 14264 net.cpp:197] Top shape: 1 16 64 128 (131072)
I0716 07:52:02.779665 14264 net.cpp:205] Memory required for data: 74973188
I0716 07:52:02.779670 14264 layer_factory.hpp:123] Creating layer ConvNd_13
I0716 07:52:02.779680 14264 net.cpp:140] Creating Layer ConvNd_13
I0716 07:52:02.779685 14264 net.cpp:481] ConvNd_13 <- BatchNorm_11
I0716 07:52:02.779693 14264 net.cpp:455] ConvNd_13 -> ConvNd_13
I0716 07:52:02.779882 14264 net.cpp:190] Setting up ConvNd_13
I0716 07:52:02.779892 14264 net.cpp:197] Top shape: 1 16 64 128 (131072)
I0716 07:52:02.779896 14264 net.cpp:205] Memory required for data: 75497476
I0716 07:52:02.779903 14264 layer_factory.hpp:123] Creating layer BatchNorm_12
I0716 07:52:02.779913 14264 net.cpp:140] Creating Layer BatchNorm_12
I0716 07:52:02.779920 14264 net.cpp:481] BatchNorm_12 <- ConvNd_13
I0716 07:52:02.779928 14264 net.cpp:455] BatchNorm_12 -> BatchNorm_12
I0716 07:52:02.780532 14264 net.cpp:190] Setting up BatchNorm_12
I0716 07:52:02.780542 14264 net.cpp:197] Top shape: 1 16 64 128 (131072)
I0716 07:52:02.780547 14264 net.cpp:205] Memory required for data: 76021764
I0716 07:52:02.780561 14264 layer_factory.hpp:123] Creating layer Threshold_15
I0716 07:52:02.780570 14264 net.cpp:140] Creating Layer Threshold_15
I0716 07:52:02.780575 14264 net.cpp:481] Threshold_15 <- BatchNorm_12
I0716 07:52:02.780583 14264 net.cpp:442] Threshold_15 -> BatchNorm_12 (in-place)
I0716 07:52:02.780592 14264 net.cpp:190] Setting up Threshold_15
I0716 07:52:02.780599 14264 net.cpp:197] Top shape: 1 16 64 128 (131072)
I0716 07:52:02.780604 14264 net.cpp:205] Memory required for data: 76546052
I0716 07:52:02.780609 14264 layer_factory.hpp:123] Creating layer ConvNd_14
I0716 07:52:02.780619 14264 net.cpp:140] Creating Layer ConvNd_14
I0716 07:52:02.780623 14264 net.cpp:481] ConvNd_14 <- BatchNorm_12
I0716 07:52:02.780632 14264 net.cpp:455] ConvNd_14 -> ConvNd_14
I0716 07:52:02.780800 14264 net.cpp:190] Setting up ConvNd_14
I0716 07:52:02.780809 14264 net.cpp:197] Top shape: 1 64 64 128 (524288)
I0716 07:52:02.780814 14264 net.cpp:205] Memory required for data: 78643204
I0716 07:52:02.780822 14264 layer_factory.hpp:123] Creating layer BatchNorm_13
I0716 07:52:02.780831 14264 net.cpp:140] Creating Layer BatchNorm_13
I0716 07:52:02.780838 14264 net.cpp:481] BatchNorm_13 <- ConvNd_14
I0716 07:52:02.780846 14264 net.cpp:455] BatchNorm_13 -> BatchNorm_13
I0716 07:52:02.781445 14264 net.cpp:190] Setting up BatchNorm_13
I0716 07:52:02.781455 14264 net.cpp:197] Top shape: 1 64 64 128 (524288)
I0716 07:52:02.781458 14264 net.cpp:205] Memory required for data: 80740356
I0716 07:52:02.781472 14264 layer_factory.hpp:123] Creating layer Threshold_16
I0716 07:52:02.781481 14264 net.cpp:140] Creating Layer Threshold_16
I0716 07:52:02.781486 14264 net.cpp:481] Threshold_16 <- BatchNorm_13
I0716 07:52:02.781493 14264 net.cpp:442] Threshold_16 -> BatchNorm_13 (in-place)
I0716 07:52:02.781504 14264 net.cpp:190] Setting up Threshold_16
I0716 07:52:02.781512 14264 net.cpp:197] Top shape: 1 64 64 128 (524288)
I0716 07:52:02.781517 14264 net.cpp:205] Memory required for data: 82837508
I0716 07:52:02.781522 14264 layer_factory.hpp:123] Creating layer Add_4
I0716 07:52:02.781529 14264 net.cpp:140] Creating Layer Add_4
I0716 07:52:02.781534 14264 net.cpp:481] Add_4 <- Add_3_Threshold_13_0_split_1
I0716 07:52:02.781541 14264 net.cpp:481] Add_4 <- BatchNorm_13
I0716 07:52:02.781548 14264 net.cpp:455] Add_4 -> Add_4
I0716 07:52:02.781575 14264 net.cpp:190] Setting up Add_4
I0716 07:52:02.781584 14264 net.cpp:197] Top shape: 1 64 64 128 (524288)
I0716 07:52:02.781589 14264 net.cpp:205] Memory required for data: 84934660
I0716 07:52:02.781592 14264 layer_factory.hpp:123] Creating layer Threshold_17
I0716 07:52:02.781600 14264 net.cpp:140] Creating Layer Threshold_17
I0716 07:52:02.781605 14264 net.cpp:481] Threshold_17 <- Add_4
I0716 07:52:02.781612 14264 net.cpp:442] Threshold_17 -> Add_4 (in-place)
I0716 07:52:02.781621 14264 net.cpp:190] Setting up Threshold_17
I0716 07:52:02.781627 14264 net.cpp:197] Top shape: 1 64 64 128 (524288)
I0716 07:52:02.781631 14264 net.cpp:205] Memory required for data: 87031812
I0716 07:52:02.781636 14264 layer_factory.hpp:123] Creating layer Add_4_Threshold_17_0_split
I0716 07:52:02.781644 14264 net.cpp:140] Creating Layer Add_4_Threshold_17_0_split
I0716 07:52:02.781648 14264 net.cpp:481] Add_4_Threshold_17_0_split <- Add_4
I0716 07:52:02.781656 14264 net.cpp:455] Add_4_Threshold_17_0_split -> Add_4_Threshold_17_0_split_0
I0716 07:52:02.781666 14264 net.cpp:455] Add_4_Threshold_17_0_split -> Add_4_Threshold_17_0_split_1
I0716 07:52:02.781702 14264 net.cpp:190] Setting up Add_4_Threshold_17_0_split
I0716 07:52:02.781710 14264 net.cpp:197] Top shape: 1 64 64 128 (524288)
I0716 07:52:02.781716 14264 net.cpp:197] Top shape: 1 64 64 128 (524288)
I0716 07:52:02.781721 14264 net.cpp:205] Memory required for data: 91226116
I0716 07:52:02.781725 14264 layer_factory.hpp:123] Creating layer ConvNd_15
I0716 07:52:02.781736 14264 net.cpp:140] Creating Layer ConvNd_15
I0716 07:52:02.781742 14264 net.cpp:481] ConvNd_15 <- Add_4_Threshold_17_0_split_0
I0716 07:52:02.781750 14264 net.cpp:455] ConvNd_15 -> ConvNd_15
I0716 07:52:02.781921 14264 net.cpp:190] Setting up ConvNd_15
I0716 07:52:02.781929 14264 net.cpp:197] Top shape: 1 16 64 128 (131072)
I0716 07:52:02.781934 14264 net.cpp:205] Memory required for data: 91750404
I0716 07:52:02.781941 14264 layer_factory.hpp:123] Creating layer BatchNorm_14
I0716 07:52:02.781951 14264 net.cpp:140] Creating Layer BatchNorm_14
I0716 07:52:02.781956 14264 net.cpp:481] BatchNorm_14 <- ConvNd_15
I0716 07:52:02.781965 14264 net.cpp:455] BatchNorm_14 -> BatchNorm_14
I0716 07:52:02.782565 14264 net.cpp:190] Setting up BatchNorm_14
I0716 07:52:02.782575 14264 net.cpp:197] Top shape: 1 16 64 128 (131072)
I0716 07:52:02.782579 14264 net.cpp:205] Memory required for data: 92274692
I0716 07:52:02.782593 14264 layer_factory.hpp:123] Creating layer Threshold_18
I0716 07:52:02.782603 14264 net.cpp:140] Creating Layer Threshold_18
I0716 07:52:02.782608 14264 net.cpp:481] Threshold_18 <- BatchNorm_14
I0716 07:52:02.782614 14264 net.cpp:442] Threshold_18 -> BatchNorm_14 (in-place)
I0716 07:52:02.782624 14264 net.cpp:190] Setting up Threshold_18
I0716 07:52:02.782631 14264 net.cpp:197] Top shape: 1 16 64 128 (131072)
I0716 07:52:02.782635 14264 net.cpp:205] Memory required for data: 92798980
I0716 07:52:02.782640 14264 layer_factory.hpp:123] Creating layer ConvNd_16
I0716 07:52:02.782650 14264 net.cpp:140] Creating Layer ConvNd_16
I0716 07:52:02.782655 14264 net.cpp:481] ConvNd_16 <- BatchNorm_14
I0716 07:52:02.782663 14264 net.cpp:455] ConvNd_16 -> ConvNd_16
I0716 07:52:02.782830 14264 net.cpp:190] Setting up ConvNd_16
I0716 07:52:02.782840 14264 net.cpp:197] Top shape: 1 16 64 128 (131072)
I0716 07:52:02.782845 14264 net.cpp:205] Memory required for data: 93323268
I0716 07:52:02.782851 14264 layer_factory.hpp:123] Creating layer BatchNorm_15
I0716 07:52:02.782861 14264 net.cpp:140] Creating Layer BatchNorm_15
I0716 07:52:02.782866 14264 net.cpp:481] BatchNorm_15 <- ConvNd_16
I0716 07:52:02.782876 14264 net.cpp:455] BatchNorm_15 -> BatchNorm_15
I0716 07:52:02.783464 14264 net.cpp:190] Setting up BatchNorm_15
I0716 07:52:02.783474 14264 net.cpp:197] Top shape: 1 16 64 128 (131072)
I0716 07:52:02.783478 14264 net.cpp:205] Memory required for data: 93847556
I0716 07:52:02.783493 14264 layer_factory.hpp:123] Creating layer Threshold_19
I0716 07:52:02.783501 14264 net.cpp:140] Creating Layer Threshold_19
I0716 07:52:02.783509 14264 net.cpp:481] Threshold_19 <- BatchNorm_15
I0716 07:52:02.783515 14264 net.cpp:442] Threshold_19 -> BatchNorm_15 (in-place)
I0716 07:52:02.783525 14264 net.cpp:190] Setting up Threshold_19
I0716 07:52:02.783532 14264 net.cpp:197] Top shape: 1 16 64 128 (131072)
I0716 07:52:02.783537 14264 net.cpp:205] Memory required for data: 94371844
I0716 07:52:02.783542 14264 layer_factory.hpp:123] Creating layer ConvNd_17
I0716 07:52:02.783555 14264 net.cpp:140] Creating Layer ConvNd_17
I0716 07:52:02.783561 14264 net.cpp:481] ConvNd_17 <- BatchNorm_15
I0716 07:52:02.783569 14264 net.cpp:455] ConvNd_17 -> ConvNd_17
I0716 07:52:02.783738 14264 net.cpp:190] Setting up ConvNd_17
I0716 07:52:02.783747 14264 net.cpp:197] Top shape: 1 64 64 128 (524288)
I0716 07:52:02.783751 14264 net.cpp:205] Memory required for data: 96468996
I0716 07:52:02.783766 14264 layer_factory.hpp:123] Creating layer BatchNorm_16
I0716 07:52:02.783777 14264 net.cpp:140] Creating Layer BatchNorm_16
I0716 07:52:02.783784 14264 net.cpp:481] BatchNorm_16 <- ConvNd_17
I0716 07:52:02.783792 14264 net.cpp:455] BatchNorm_16 -> BatchNorm_16
I0716 07:52:02.784385 14264 net.cpp:190] Setting up BatchNorm_16
I0716 07:52:02.784395 14264 net.cpp:197] Top shape: 1 64 64 128 (524288)
I0716 07:52:02.784400 14264 net.cpp:205] Memory required for data: 98566148
I0716 07:52:02.784413 14264 layer_factory.hpp:123] Creating layer Threshold_20
I0716 07:52:02.784421 14264 net.cpp:140] Creating Layer Threshold_20
I0716 07:52:02.784426 14264 net.cpp:481] Threshold_20 <- BatchNorm_16
I0716 07:52:02.784435 14264 net.cpp:442] Threshold_20 -> BatchNorm_16 (in-place)
I0716 07:52:02.784443 14264 net.cpp:190] Setting up Threshold_20
I0716 07:52:02.784451 14264 net.cpp:197] Top shape: 1 64 64 128 (524288)
I0716 07:52:02.784454 14264 net.cpp:205] Memory required for data: 100663300
I0716 07:52:02.784459 14264 layer_factory.hpp:123] Creating layer Add_5
I0716 07:52:02.784467 14264 net.cpp:140] Creating Layer Add_5
I0716 07:52:02.784472 14264 net.cpp:481] Add_5 <- Add_4_Threshold_17_0_split_1
I0716 07:52:02.784478 14264 net.cpp:481] Add_5 <- BatchNorm_16
I0716 07:52:02.784487 14264 net.cpp:455] Add_5 -> Add_5
I0716 07:52:02.784513 14264 net.cpp:190] Setting up Add_5
I0716 07:52:02.784521 14264 net.cpp:197] Top shape: 1 64 64 128 (524288)
I0716 07:52:02.784526 14264 net.cpp:205] Memory required for data: 102760452
I0716 07:52:02.784531 14264 layer_factory.hpp:123] Creating layer Threshold_21
I0716 07:52:02.784538 14264 net.cpp:140] Creating Layer Threshold_21
I0716 07:52:02.784543 14264 net.cpp:481] Threshold_21 <- Add_5
I0716 07:52:02.784549 14264 net.cpp:442] Threshold_21 -> Add_5 (in-place)
I0716 07:52:02.784560 14264 net.cpp:190] Setting up Threshold_21
I0716 07:52:02.784569 14264 net.cpp:197] Top shape: 1 64 64 128 (524288)
I0716 07:52:02.784574 14264 net.cpp:205] Memory required for data: 104857604
I0716 07:52:02.784577 14264 layer_factory.hpp:123] Creating layer Add_5_Threshold_21_0_split
I0716 07:52:02.784586 14264 net.cpp:140] Creating Layer Add_5_Threshold_21_0_split
I0716 07:52:02.784590 14264 net.cpp:481] Add_5_Threshold_21_0_split <- Add_5
I0716 07:52:02.784597 14264 net.cpp:455] Add_5_Threshold_21_0_split -> Add_5_Threshold_21_0_split_0
I0716 07:52:02.784607 14264 net.cpp:455] Add_5_Threshold_21_0_split -> Add_5_Threshold_21_0_split_1
I0716 07:52:02.784643 14264 net.cpp:190] Setting up Add_5_Threshold_21_0_split
I0716 07:52:02.784651 14264 net.cpp:197] Top shape: 1 64 64 128 (524288)
I0716 07:52:02.784658 14264 net.cpp:197] Top shape: 1 64 64 128 (524288)
I0716 07:52:02.784662 14264 net.cpp:205] Memory required for data: 109051908
I0716 07:52:02.784667 14264 layer_factory.hpp:123] Creating layer MaxPool2d_3
I0716 07:52:02.784677 14264 net.cpp:140] Creating Layer MaxPool2d_3
I0716 07:52:02.784682 14264 net.cpp:481] MaxPool2d_3 <- Add_5_Threshold_21_0_split_0
I0716 07:52:02.784689 14264 net.cpp:455] MaxPool2d_3 -> MaxPool2d_3
I0716 07:52:02.784725 14264 net.cpp:190] Setting up MaxPool2d_3
I0716 07:52:02.784734 14264 net.cpp:197] Top shape: 1 64 32 64 (131072)
I0716 07:52:02.784737 14264 net.cpp:205] Memory required for data: 109576196
I0716 07:52:02.784742 14264 layer_factory.hpp:123] Creating layer ConvNd_18
I0716 07:52:02.784754 14264 net.cpp:140] Creating Layer ConvNd_18
I0716 07:52:02.784759 14264 net.cpp:481] ConvNd_18 <- MaxPool2d_3
I0716 07:52:02.784766 14264 net.cpp:455] ConvNd_18 -> ConvNd_18
I0716 07:52:02.784945 14264 net.cpp:190] Setting up ConvNd_18
I0716 07:52:02.784955 14264 net.cpp:197] Top shape: 1 128 32 64 (262144)
I0716 07:52:02.784958 14264 net.cpp:205] Memory required for data: 110624772
I0716 07:52:02.784966 14264 layer_factory.hpp:123] Creating layer ConvNd_19
I0716 07:52:02.784977 14264 net.cpp:140] Creating Layer ConvNd_19
I0716 07:52:02.784984 14264 net.cpp:481] ConvNd_19 <- Add_5_Threshold_21_0_split_1
I0716 07:52:02.784993 14264 net.cpp:455] ConvNd_19 -> ConvNd_19
I0716 07:52:02.785167 14264 net.cpp:190] Setting up ConvNd_19
I0716 07:52:02.785176 14264 net.cpp:197] Top shape: 1 32 32 64 (65536)
I0716 07:52:02.785181 14264 net.cpp:205] Memory required for data: 110886916
I0716 07:52:02.785187 14264 layer_factory.hpp:123] Creating layer BatchNorm_17
I0716 07:52:02.785197 14264 net.cpp:140] Creating Layer BatchNorm_17
I0716 07:52:02.785203 14264 net.cpp:481] BatchNorm_17 <- ConvNd_19
I0716 07:52:02.785212 14264 net.cpp:455] BatchNorm_17 -> BatchNorm_17
I0716 07:52:02.785800 14264 net.cpp:190] Setting up BatchNorm_17
I0716 07:52:02.785809 14264 net.cpp:197] Top shape: 1 32 32 64 (65536)
I0716 07:52:02.785815 14264 net.cpp:205] Memory required for data: 111149060
I0716 07:52:02.785828 14264 layer_factory.hpp:123] Creating layer Threshold_22
I0716 07:52:02.785836 14264 net.cpp:140] Creating Layer Threshold_22
I0716 07:52:02.785841 14264 net.cpp:481] Threshold_22 <- BatchNorm_17
I0716 07:52:02.785848 14264 net.cpp:442] Threshold_22 -> BatchNorm_17 (in-place)
I0716 07:52:02.785858 14264 net.cpp:190] Setting up Threshold_22
I0716 07:52:02.785866 14264 net.cpp:197] Top shape: 1 32 32 64 (65536)
I0716 07:52:02.785871 14264 net.cpp:205] Memory required for data: 111411204
I0716 07:52:02.785874 14264 layer_factory.hpp:123] Creating layer ConvNd_20
I0716 07:52:02.785885 14264 net.cpp:140] Creating Layer ConvNd_20
I0716 07:52:02.785890 14264 net.cpp:481] ConvNd_20 <- BatchNorm_17
I0716 07:52:02.785899 14264 net.cpp:455] ConvNd_20 -> ConvNd_20
I0716 07:52:02.786084 14264 net.cpp:190] Setting up ConvNd_20
I0716 07:52:02.786098 14264 net.cpp:197] Top shape: 1 32 32 64 (65536)
I0716 07:52:02.786103 14264 net.cpp:205] Memory required for data: 111673348
I0716 07:52:02.786109 14264 layer_factory.hpp:123] Creating layer BatchNorm_18
I0716 07:52:02.786118 14264 net.cpp:140] Creating Layer BatchNorm_18
I0716 07:52:02.786124 14264 net.cpp:481] BatchNorm_18 <- ConvNd_20
I0716 07:52:02.786132 14264 net.cpp:455] BatchNorm_18 -> BatchNorm_18
I0716 07:52:02.786737 14264 net.cpp:190] Setting up BatchNorm_18
I0716 07:52:02.786746 14264 net.cpp:197] Top shape: 1 32 32 64 (65536)
I0716 07:52:02.786751 14264 net.cpp:205] Memory required for data: 111935492
I0716 07:52:02.786758 14264 layer_factory.hpp:123] Creating layer Threshold_23
I0716 07:52:02.786763 14264 net.cpp:140] Creating Layer Threshold_23
I0716 07:52:02.786767 14264 net.cpp:481] Threshold_23 <- BatchNorm_18
I0716 07:52:02.786772 14264 net.cpp:442] Threshold_23 -> BatchNorm_18 (in-place)
I0716 07:52:02.786777 14264 net.cpp:190] Setting up Threshold_23
I0716 07:52:02.786782 14264 net.cpp:197] Top shape: 1 32 32 64 (65536)
I0716 07:52:02.786784 14264 net.cpp:205] Memory required for data: 112197636
I0716 07:52:02.786787 14264 layer_factory.hpp:123] Creating layer ConvNd_21
I0716 07:52:02.786793 14264 net.cpp:140] Creating Layer ConvNd_21
I0716 07:52:02.786797 14264 net.cpp:481] ConvNd_21 <- BatchNorm_18
I0716 07:52:02.786801 14264 net.cpp:455] ConvNd_21 -> ConvNd_21
I0716 07:52:02.786967 14264 net.cpp:190] Setting up ConvNd_21
I0716 07:52:02.786974 14264 net.cpp:197] Top shape: 1 128 32 64 (262144)
I0716 07:52:02.786978 14264 net.cpp:205] Memory required for data: 113246212
I0716 07:52:02.786981 14264 layer_factory.hpp:123] Creating layer BatchNorm_19
I0716 07:52:02.786988 14264 net.cpp:140] Creating Layer BatchNorm_19
I0716 07:52:02.786991 14264 net.cpp:481] BatchNorm_19 <- ConvNd_21
I0716 07:52:02.786996 14264 net.cpp:455] BatchNorm_19 -> BatchNorm_19
I0716 07:52:02.787513 14264 net.cpp:190] Setting up BatchNorm_19
I0716 07:52:02.787521 14264 net.cpp:197] Top shape: 1 128 32 64 (262144)
I0716 07:52:02.787524 14264 net.cpp:205] Memory required for data: 114294788
I0716 07:52:02.787533 14264 layer_factory.hpp:123] Creating layer Threshold_24
I0716 07:52:02.787536 14264 net.cpp:140] Creating Layer Threshold_24
I0716 07:52:02.787540 14264 net.cpp:481] Threshold_24 <- BatchNorm_19
I0716 07:52:02.787544 14264 net.cpp:442] Threshold_24 -> BatchNorm_19 (in-place)
I0716 07:52:02.787550 14264 net.cpp:190] Setting up Threshold_24
I0716 07:52:02.787554 14264 net.cpp:197] Top shape: 1 128 32 64 (262144)
I0716 07:52:02.787557 14264 net.cpp:205] Memory required for data: 115343364
I0716 07:52:02.787560 14264 layer_factory.hpp:123] Creating layer Add_6
I0716 07:52:02.787564 14264 net.cpp:140] Creating Layer Add_6
I0716 07:52:02.787567 14264 net.cpp:481] Add_6 <- ConvNd_18
I0716 07:52:02.787571 14264 net.cpp:481] Add_6 <- BatchNorm_19
I0716 07:52:02.787575 14264 net.cpp:455] Add_6 -> Add_6
I0716 07:52:02.787595 14264 net.cpp:190] Setting up Add_6
I0716 07:52:02.787600 14264 net.cpp:197] Top shape: 1 128 32 64 (262144)
I0716 07:52:02.787602 14264 net.cpp:205] Memory required for data: 116391940
I0716 07:52:02.787606 14264 layer_factory.hpp:123] Creating layer Threshold_25
I0716 07:52:02.787609 14264 net.cpp:140] Creating Layer Threshold_25
I0716 07:52:02.787612 14264 net.cpp:481] Threshold_25 <- Add_6
I0716 07:52:02.787616 14264 net.cpp:442] Threshold_25 -> Add_6 (in-place)
I0716 07:52:02.787621 14264 net.cpp:190] Setting up Threshold_25
I0716 07:52:02.787626 14264 net.cpp:197] Top shape: 1 128 32 64 (262144)
I0716 07:52:02.787627 14264 net.cpp:205] Memory required for data: 117440516
I0716 07:52:02.787631 14264 layer_factory.hpp:123] Creating layer Add_6_Threshold_25_0_split
I0716 07:52:02.787636 14264 net.cpp:140] Creating Layer Add_6_Threshold_25_0_split
I0716 07:52:02.787637 14264 net.cpp:481] Add_6_Threshold_25_0_split <- Add_6
I0716 07:52:02.787642 14264 net.cpp:455] Add_6_Threshold_25_0_split -> Add_6_Threshold_25_0_split_0
I0716 07:52:02.787648 14264 net.cpp:455] Add_6_Threshold_25_0_split -> Add_6_Threshold_25_0_split_1
I0716 07:52:02.787675 14264 net.cpp:190] Setting up Add_6_Threshold_25_0_split
I0716 07:52:02.787680 14264 net.cpp:197] Top shape: 1 128 32 64 (262144)
I0716 07:52:02.787683 14264 net.cpp:197] Top shape: 1 128 32 64 (262144)
I0716 07:52:02.787686 14264 net.cpp:205] Memory required for data: 119537668
I0716 07:52:02.787689 14264 layer_factory.hpp:123] Creating layer ConvNd_22
I0716 07:52:02.787695 14264 net.cpp:140] Creating Layer ConvNd_22
I0716 07:52:02.787698 14264 net.cpp:481] ConvNd_22 <- Add_6_Threshold_25_0_split_0
I0716 07:52:02.787703 14264 net.cpp:455] ConvNd_22 -> ConvNd_22
I0716 07:52:02.787883 14264 net.cpp:190] Setting up ConvNd_22
I0716 07:52:02.787890 14264 net.cpp:197] Top shape: 1 32 32 64 (65536)
I0716 07:52:02.787894 14264 net.cpp:205] Memory required for data: 119799812
I0716 07:52:02.787899 14264 layer_factory.hpp:123] Creating layer BatchNorm_20
I0716 07:52:02.787904 14264 net.cpp:140] Creating Layer BatchNorm_20
I0716 07:52:02.787909 14264 net.cpp:481] BatchNorm_20 <- ConvNd_22
I0716 07:52:02.787912 14264 net.cpp:455] BatchNorm_20 -> BatchNorm_20
I0716 07:52:02.788507 14264 net.cpp:190] Setting up BatchNorm_20
I0716 07:52:02.788516 14264 net.cpp:197] Top shape: 1 32 32 64 (65536)
I0716 07:52:02.788518 14264 net.cpp:205] Memory required for data: 120061956
I0716 07:52:02.788525 14264 layer_factory.hpp:123] Creating layer Threshold_26
I0716 07:52:02.788530 14264 net.cpp:140] Creating Layer Threshold_26
I0716 07:52:02.788534 14264 net.cpp:481] Threshold_26 <- BatchNorm_20
I0716 07:52:02.788538 14264 net.cpp:442] Threshold_26 -> BatchNorm_20 (in-place)
I0716 07:52:02.788544 14264 net.cpp:190] Setting up Threshold_26
I0716 07:52:02.788548 14264 net.cpp:197] Top shape: 1 32 32 64 (65536)
I0716 07:52:02.788552 14264 net.cpp:205] Memory required for data: 120324100
I0716 07:52:02.788554 14264 layer_factory.hpp:123] Creating layer ConvNd_23
I0716 07:52:02.788560 14264 net.cpp:140] Creating Layer ConvNd_23
I0716 07:52:02.788563 14264 net.cpp:481] ConvNd_23 <- BatchNorm_20
I0716 07:52:02.788568 14264 net.cpp:455] ConvNd_23 -> ConvNd_23
I0716 07:52:02.788743 14264 net.cpp:190] Setting up ConvNd_23
I0716 07:52:02.788750 14264 net.cpp:197] Top shape: 1 32 32 64 (65536)
I0716 07:52:02.788753 14264 net.cpp:205] Memory required for data: 120586244
I0716 07:52:02.788758 14264 layer_factory.hpp:123] Creating layer BatchNorm_21
I0716 07:52:02.788764 14264 net.cpp:140] Creating Layer BatchNorm_21
I0716 07:52:02.788767 14264 net.cpp:481] BatchNorm_21 <- ConvNd_23
I0716 07:52:02.788772 14264 net.cpp:455] BatchNorm_21 -> BatchNorm_21
I0716 07:52:02.789368 14264 net.cpp:190] Setting up BatchNorm_21
I0716 07:52:02.789376 14264 net.cpp:197] Top shape: 1 32 32 64 (65536)
I0716 07:52:02.789379 14264 net.cpp:205] Memory required for data: 120848388
I0716 07:52:02.789388 14264 layer_factory.hpp:123] Creating layer Threshold_27
I0716 07:52:02.789393 14264 net.cpp:140] Creating Layer Threshold_27
I0716 07:52:02.789397 14264 net.cpp:481] Threshold_27 <- BatchNorm_21
I0716 07:52:02.789400 14264 net.cpp:442] Threshold_27 -> BatchNorm_21 (in-place)
I0716 07:52:02.789407 14264 net.cpp:190] Setting up Threshold_27
I0716 07:52:02.789410 14264 net.cpp:197] Top shape: 1 32 32 64 (65536)
I0716 07:52:02.789413 14264 net.cpp:205] Memory required for data: 121110532
I0716 07:52:02.789417 14264 layer_factory.hpp:123] Creating layer ConvNd_24
I0716 07:52:02.789422 14264 net.cpp:140] Creating Layer ConvNd_24
I0716 07:52:02.789425 14264 net.cpp:481] ConvNd_24 <- BatchNorm_21
I0716 07:52:02.789429 14264 net.cpp:455] ConvNd_24 -> ConvNd_24
I0716 07:52:02.789594 14264 net.cpp:190] Setting up ConvNd_24
I0716 07:52:02.789602 14264 net.cpp:197] Top shape: 1 128 32 64 (262144)
I0716 07:52:02.789604 14264 net.cpp:205] Memory required for data: 122159108
I0716 07:52:02.789615 14264 layer_factory.hpp:123] Creating layer BatchNorm_22
I0716 07:52:02.789623 14264 net.cpp:140] Creating Layer BatchNorm_22
I0716 07:52:02.789625 14264 net.cpp:481] BatchNorm_22 <- ConvNd_24
I0716 07:52:02.789631 14264 net.cpp:455] BatchNorm_22 -> BatchNorm_22
I0716 07:52:02.790156 14264 net.cpp:190] Setting up BatchNorm_22
I0716 07:52:02.790163 14264 net.cpp:197] Top shape: 1 128 32 64 (262144)
I0716 07:52:02.790168 14264 net.cpp:205] Memory required for data: 123207684
I0716 07:52:02.790174 14264 layer_factory.hpp:123] Creating layer Threshold_28
I0716 07:52:02.790179 14264 net.cpp:140] Creating Layer Threshold_28
I0716 07:52:02.790182 14264 net.cpp:481] Threshold_28 <- BatchNorm_22
I0716 07:52:02.790187 14264 net.cpp:442] Threshold_28 -> BatchNorm_22 (in-place)
I0716 07:52:02.790192 14264 net.cpp:190] Setting up Threshold_28
I0716 07:52:02.790196 14264 net.cpp:197] Top shape: 1 128 32 64 (262144)
I0716 07:52:02.790199 14264 net.cpp:205] Memory required for data: 124256260
I0716 07:52:02.790202 14264 layer_factory.hpp:123] Creating layer Add_7
I0716 07:52:02.790207 14264 net.cpp:140] Creating Layer Add_7
I0716 07:52:02.790210 14264 net.cpp:481] Add_7 <- Add_6_Threshold_25_0_split_1
I0716 07:52:02.790215 14264 net.cpp:481] Add_7 <- BatchNorm_22
I0716 07:52:02.790220 14264 net.cpp:455] Add_7 -> Add_7
I0716 07:52:02.790238 14264 net.cpp:190] Setting up Add_7
I0716 07:52:02.790242 14264 net.cpp:197] Top shape: 1 128 32 64 (262144)
I0716 07:52:02.790246 14264 net.cpp:205] Memory required for data: 125304836
I0716 07:52:02.790248 14264 layer_factory.hpp:123] Creating layer Threshold_29
I0716 07:52:02.790252 14264 net.cpp:140] Creating Layer Threshold_29
I0716 07:52:02.790256 14264 net.cpp:481] Threshold_29 <- Add_7
I0716 07:52:02.790259 14264 net.cpp:442] Threshold_29 -> Add_7 (in-place)
I0716 07:52:02.790264 14264 net.cpp:190] Setting up Threshold_29
I0716 07:52:02.790268 14264 net.cpp:197] Top shape: 1 128 32 64 (262144)
I0716 07:52:02.790271 14264 net.cpp:205] Memory required for data: 126353412
I0716 07:52:02.790273 14264 layer_factory.hpp:123] Creating layer Add_7_Threshold_29_0_split
I0716 07:52:02.790278 14264 net.cpp:140] Creating Layer Add_7_Threshold_29_0_split
I0716 07:52:02.790282 14264 net.cpp:481] Add_7_Threshold_29_0_split <- Add_7
I0716 07:52:02.790285 14264 net.cpp:455] Add_7_Threshold_29_0_split -> Add_7_Threshold_29_0_split_0
I0716 07:52:02.790292 14264 net.cpp:455] Add_7_Threshold_29_0_split -> Add_7_Threshold_29_0_split_1
I0716 07:52:02.790319 14264 net.cpp:190] Setting up Add_7_Threshold_29_0_split
I0716 07:52:02.790325 14264 net.cpp:197] Top shape: 1 128 32 64 (262144)
I0716 07:52:02.790329 14264 net.cpp:197] Top shape: 1 128 32 64 (262144)
I0716 07:52:02.790333 14264 net.cpp:205] Memory required for data: 128450564
I0716 07:52:02.790335 14264 layer_factory.hpp:123] Creating layer ConvNd_25
I0716 07:52:02.790343 14264 net.cpp:140] Creating Layer ConvNd_25
I0716 07:52:02.790345 14264 net.cpp:481] ConvNd_25 <- Add_7_Threshold_29_0_split_0
I0716 07:52:02.790350 14264 net.cpp:455] ConvNd_25 -> ConvNd_25
I0716 07:52:02.790515 14264 net.cpp:190] Setting up ConvNd_25
I0716 07:52:02.790522 14264 net.cpp:197] Top shape: 1 32 32 64 (65536)
I0716 07:52:02.790525 14264 net.cpp:205] Memory required for data: 128712708
I0716 07:52:02.790539 14264 layer_factory.hpp:123] Creating layer BatchNorm_23
I0716 07:52:02.790544 14264 net.cpp:140] Creating Layer BatchNorm_23
I0716 07:52:02.790547 14264 net.cpp:481] BatchNorm_23 <- ConvNd_25
I0716 07:52:02.790552 14264 net.cpp:455] BatchNorm_23 -> BatchNorm_23
I0716 07:52:02.791148 14264 net.cpp:190] Setting up BatchNorm_23
I0716 07:52:02.791157 14264 net.cpp:197] Top shape: 1 32 32 64 (65536)
I0716 07:52:02.791159 14264 net.cpp:205] Memory required for data: 128974852
I0716 07:52:02.791167 14264 layer_factory.hpp:123] Creating layer Threshold_30
I0716 07:52:02.791172 14264 net.cpp:140] Creating Layer Threshold_30
I0716 07:52:02.791175 14264 net.cpp:481] Threshold_30 <- BatchNorm_23
I0716 07:52:02.791179 14264 net.cpp:442] Threshold_30 -> BatchNorm_23 (in-place)
I0716 07:52:02.791185 14264 net.cpp:190] Setting up Threshold_30
I0716 07:52:02.791189 14264 net.cpp:197] Top shape: 1 32 32 64 (65536)
I0716 07:52:02.791193 14264 net.cpp:205] Memory required for data: 129236996
I0716 07:52:02.791195 14264 layer_factory.hpp:123] Creating layer ConvNd_26
I0716 07:52:02.791201 14264 net.cpp:140] Creating Layer ConvNd_26
I0716 07:52:02.791204 14264 net.cpp:481] ConvNd_26 <- BatchNorm_23
I0716 07:52:02.791209 14264 net.cpp:455] ConvNd_26 -> ConvNd_26
I0716 07:52:02.791379 14264 net.cpp:190] Setting up ConvNd_26
I0716 07:52:02.791386 14264 net.cpp:197] Top shape: 1 32 32 64 (65536)
I0716 07:52:02.791389 14264 net.cpp:205] Memory required for data: 129499140
I0716 07:52:02.791394 14264 layer_factory.hpp:123] Creating layer BatchNorm_24
I0716 07:52:02.791400 14264 net.cpp:140] Creating Layer BatchNorm_24
I0716 07:52:02.791404 14264 net.cpp:481] BatchNorm_24 <- ConvNd_26
I0716 07:52:02.791409 14264 net.cpp:455] BatchNorm_24 -> BatchNorm_24
I0716 07:52:02.792004 14264 net.cpp:190] Setting up BatchNorm_24
I0716 07:52:02.792012 14264 net.cpp:197] Top shape: 1 32 32 64 (65536)
I0716 07:52:02.792016 14264 net.cpp:205] Memory required for data: 129761284
I0716 07:52:02.792023 14264 layer_factory.hpp:123] Creating layer Threshold_31
I0716 07:52:02.792028 14264 net.cpp:140] Creating Layer Threshold_31
I0716 07:52:02.792032 14264 net.cpp:481] Threshold_31 <- BatchNorm_24
I0716 07:52:02.792035 14264 net.cpp:442] Threshold_31 -> BatchNorm_24 (in-place)
I0716 07:52:02.792042 14264 net.cpp:190] Setting up Threshold_31
I0716 07:52:02.792045 14264 net.cpp:197] Top shape: 1 32 32 64 (65536)
I0716 07:52:02.792048 14264 net.cpp:205] Memory required for data: 130023428
I0716 07:52:02.792052 14264 layer_factory.hpp:123] Creating layer ConvNd_27
I0716 07:52:02.792057 14264 net.cpp:140] Creating Layer ConvNd_27
I0716 07:52:02.792060 14264 net.cpp:481] ConvNd_27 <- BatchNorm_24
I0716 07:52:02.792064 14264 net.cpp:455] ConvNd_27 -> ConvNd_27
I0716 07:52:02.792232 14264 net.cpp:190] Setting up ConvNd_27
I0716 07:52:02.792238 14264 net.cpp:197] Top shape: 1 128 32 64 (262144)
I0716 07:52:02.792241 14264 net.cpp:205] Memory required for data: 131072004
I0716 07:52:02.792246 14264 layer_factory.hpp:123] Creating layer BatchNorm_25
I0716 07:52:02.792253 14264 net.cpp:140] Creating Layer BatchNorm_25
I0716 07:52:02.792255 14264 net.cpp:481] BatchNorm_25 <- ConvNd_27
I0716 07:52:02.792260 14264 net.cpp:455] BatchNorm_25 -> BatchNorm_25
I0716 07:52:02.792793 14264 net.cpp:190] Setting up BatchNorm_25
I0716 07:52:02.792801 14264 net.cpp:197] Top shape: 1 128 32 64 (262144)
I0716 07:52:02.792804 14264 net.cpp:205] Memory required for data: 132120580
I0716 07:52:02.792812 14264 layer_factory.hpp:123] Creating layer Threshold_32
I0716 07:52:02.792817 14264 net.cpp:140] Creating Layer Threshold_32
I0716 07:52:02.792820 14264 net.cpp:481] Threshold_32 <- BatchNorm_25
I0716 07:52:02.792824 14264 net.cpp:442] Threshold_32 -> BatchNorm_25 (in-place)
I0716 07:52:02.792830 14264 net.cpp:190] Setting up Threshold_32
I0716 07:52:02.792834 14264 net.cpp:197] Top shape: 1 128 32 64 (262144)
I0716 07:52:02.792837 14264 net.cpp:205] Memory required for data: 133169156
I0716 07:52:02.792840 14264 layer_factory.hpp:123] Creating layer Add_8
I0716 07:52:02.792845 14264 net.cpp:140] Creating Layer Add_8
I0716 07:52:02.792848 14264 net.cpp:481] Add_8 <- Add_7_Threshold_29_0_split_1
I0716 07:52:02.792852 14264 net.cpp:481] Add_8 <- BatchNorm_25
I0716 07:52:02.792856 14264 net.cpp:455] Add_8 -> Add_8
I0716 07:52:02.792876 14264 net.cpp:190] Setting up Add_8
I0716 07:52:02.792881 14264 net.cpp:197] Top shape: 1 128 32 64 (262144)
I0716 07:52:02.792883 14264 net.cpp:205] Memory required for data: 134217732
I0716 07:52:02.792886 14264 layer_factory.hpp:123] Creating layer Threshold_33
I0716 07:52:02.792891 14264 net.cpp:140] Creating Layer Threshold_33
I0716 07:52:02.792893 14264 net.cpp:481] Threshold_33 <- Add_8
I0716 07:52:02.792897 14264 net.cpp:442] Threshold_33 -> Add_8 (in-place)
I0716 07:52:02.792902 14264 net.cpp:190] Setting up Threshold_33
I0716 07:52:02.792906 14264 net.cpp:197] Top shape: 1 128 32 64 (262144)
I0716 07:52:02.792909 14264 net.cpp:205] Memory required for data: 135266308
I0716 07:52:02.792912 14264 layer_factory.hpp:123] Creating layer Add_8_Threshold_33_0_split
I0716 07:52:02.792917 14264 net.cpp:140] Creating Layer Add_8_Threshold_33_0_split
I0716 07:52:02.792919 14264 net.cpp:481] Add_8_Threshold_33_0_split <- Add_8
I0716 07:52:02.792923 14264 net.cpp:455] Add_8_Threshold_33_0_split -> Add_8_Threshold_33_0_split_0
I0716 07:52:02.792929 14264 net.cpp:455] Add_8_Threshold_33_0_split -> Add_8_Threshold_33_0_split_1
I0716 07:52:02.792958 14264 net.cpp:190] Setting up Add_8_Threshold_33_0_split
I0716 07:52:02.792968 14264 net.cpp:197] Top shape: 1 128 32 64 (262144)
I0716 07:52:02.792971 14264 net.cpp:197] Top shape: 1 128 32 64 (262144)
I0716 07:52:02.792974 14264 net.cpp:205] Memory required for data: 137363460
I0716 07:52:02.792978 14264 layer_factory.hpp:123] Creating layer ConvNd_28
I0716 07:52:02.792984 14264 net.cpp:140] Creating Layer ConvNd_28
I0716 07:52:02.792987 14264 net.cpp:481] ConvNd_28 <- Add_8_Threshold_33_0_split_0
I0716 07:52:02.792992 14264 net.cpp:455] ConvNd_28 -> ConvNd_28
I0716 07:52:02.793157 14264 net.cpp:190] Setting up ConvNd_28
I0716 07:52:02.793166 14264 net.cpp:197] Top shape: 1 32 32 64 (65536)
I0716 07:52:02.793169 14264 net.cpp:205] Memory required for data: 137625604
I0716 07:52:02.793174 14264 layer_factory.hpp:123] Creating layer BatchNorm_26
I0716 07:52:02.793179 14264 net.cpp:140] Creating Layer BatchNorm_26
I0716 07:52:02.793184 14264 net.cpp:481] BatchNorm_26 <- ConvNd_28
I0716 07:52:02.793188 14264 net.cpp:455] BatchNorm_26 -> BatchNorm_26
I0716 07:52:02.793781 14264 net.cpp:190] Setting up BatchNorm_26
I0716 07:52:02.793787 14264 net.cpp:197] Top shape: 1 32 32 64 (65536)
I0716 07:52:02.793792 14264 net.cpp:205] Memory required for data: 137887748
I0716 07:52:02.793799 14264 layer_factory.hpp:123] Creating layer Threshold_34
I0716 07:52:02.793804 14264 net.cpp:140] Creating Layer Threshold_34
I0716 07:52:02.793807 14264 net.cpp:481] Threshold_34 <- BatchNorm_26
I0716 07:52:02.793812 14264 net.cpp:442] Threshold_34 -> BatchNorm_26 (in-place)
I0716 07:52:02.793817 14264 net.cpp:190] Setting up Threshold_34
I0716 07:52:02.793821 14264 net.cpp:197] Top shape: 1 32 32 64 (65536)
I0716 07:52:02.793823 14264 net.cpp:205] Memory required for data: 138149892
I0716 07:52:02.793826 14264 layer_factory.hpp:123] Creating layer ConvNd_29
I0716 07:52:02.793833 14264 net.cpp:140] Creating Layer ConvNd_29
I0716 07:52:02.793835 14264 net.cpp:481] ConvNd_29 <- BatchNorm_26
I0716 07:52:02.793839 14264 net.cpp:455] ConvNd_29 -> ConvNd_29
I0716 07:52:02.794009 14264 net.cpp:190] Setting up ConvNd_29
I0716 07:52:02.794018 14264 net.cpp:197] Top shape: 1 32 32 64 (65536)
I0716 07:52:02.794020 14264 net.cpp:205] Memory required for data: 138412036
I0716 07:52:02.794024 14264 layer_factory.hpp:123] Creating layer BatchNorm_27
I0716 07:52:02.794030 14264 net.cpp:140] Creating Layer BatchNorm_27
I0716 07:52:02.794034 14264 net.cpp:481] BatchNorm_27 <- ConvNd_29
I0716 07:52:02.794039 14264 net.cpp:455] BatchNorm_27 -> BatchNorm_27
I0716 07:52:02.794634 14264 net.cpp:190] Setting up BatchNorm_27
I0716 07:52:02.794642 14264 net.cpp:197] Top shape: 1 32 32 64 (65536)
I0716 07:52:02.794646 14264 net.cpp:205] Memory required for data: 138674180
I0716 07:52:02.794653 14264 layer_factory.hpp:123] Creating layer Threshold_35
I0716 07:52:02.794658 14264 net.cpp:140] Creating Layer Threshold_35
I0716 07:52:02.794661 14264 net.cpp:481] Threshold_35 <- BatchNorm_27
I0716 07:52:02.794665 14264 net.cpp:442] Threshold_35 -> BatchNorm_27 (in-place)
I0716 07:52:02.794672 14264 net.cpp:190] Setting up Threshold_35
I0716 07:52:02.794675 14264 net.cpp:197] Top shape: 1 32 32 64 (65536)
I0716 07:52:02.794679 14264 net.cpp:205] Memory required for data: 138936324
I0716 07:52:02.794682 14264 layer_factory.hpp:123] Creating layer ConvNd_30
I0716 07:52:02.794687 14264 net.cpp:140] Creating Layer ConvNd_30
I0716 07:52:02.794690 14264 net.cpp:481] ConvNd_30 <- BatchNorm_27
I0716 07:52:02.794695 14264 net.cpp:455] ConvNd_30 -> ConvNd_30
I0716 07:52:02.794864 14264 net.cpp:190] Setting up ConvNd_30
I0716 07:52:02.794872 14264 net.cpp:197] Top shape: 1 32 32 64 (65536)
I0716 07:52:02.794874 14264 net.cpp:205] Memory required for data: 139198468
I0716 07:52:02.794879 14264 layer_factory.hpp:123] Creating layer BatchNorm_28
I0716 07:52:02.794885 14264 net.cpp:140] Creating Layer BatchNorm_28
I0716 07:52:02.794888 14264 net.cpp:481] BatchNorm_28 <- ConvNd_30
I0716 07:52:02.794893 14264 net.cpp:455] BatchNorm_28 -> BatchNorm_28
I0716 07:52:02.795492 14264 net.cpp:190] Setting up BatchNorm_28
I0716 07:52:02.795500 14264 net.cpp:197] Top shape: 1 32 32 64 (65536)
I0716 07:52:02.795502 14264 net.cpp:205] Memory required for data: 139460612
I0716 07:52:02.795511 14264 layer_factory.hpp:123] Creating layer Threshold_36
I0716 07:52:02.795516 14264 net.cpp:140] Creating Layer Threshold_36
I0716 07:52:02.795518 14264 net.cpp:481] Threshold_36 <- BatchNorm_28
I0716 07:52:02.795522 14264 net.cpp:442] Threshold_36 -> BatchNorm_28 (in-place)
I0716 07:52:02.795528 14264 net.cpp:190] Setting up Threshold_36
I0716 07:52:02.795532 14264 net.cpp:197] Top shape: 1 32 32 64 (65536)
I0716 07:52:02.795536 14264 net.cpp:205] Memory required for data: 139722756
I0716 07:52:02.795538 14264 layer_factory.hpp:123] Creating layer ConvNd_31
I0716 07:52:02.795544 14264 net.cpp:140] Creating Layer ConvNd_31
I0716 07:52:02.795547 14264 net.cpp:481] ConvNd_31 <- BatchNorm_28
I0716 07:52:02.795552 14264 net.cpp:455] ConvNd_31 -> ConvNd_31
I0716 07:52:02.795717 14264 net.cpp:190] Setting up ConvNd_31
I0716 07:52:02.795724 14264 net.cpp:197] Top shape: 1 128 32 64 (262144)
I0716 07:52:02.795727 14264 net.cpp:205] Memory required for data: 140771332
I0716 07:52:02.795732 14264 layer_factory.hpp:123] Creating layer BatchNorm_29
I0716 07:52:02.795738 14264 net.cpp:140] Creating Layer BatchNorm_29
I0716 07:52:02.795742 14264 net.cpp:481] BatchNorm_29 <- ConvNd_31
I0716 07:52:02.795747 14264 net.cpp:455] BatchNorm_29 -> BatchNorm_29
I0716 07:52:02.796281 14264 net.cpp:190] Setting up BatchNorm_29
I0716 07:52:02.796289 14264 net.cpp:197] Top shape: 1 128 32 64 (262144)
I0716 07:52:02.796293 14264 net.cpp:205] Memory required for data: 141819908
I0716 07:52:02.796301 14264 layer_factory.hpp:123] Creating layer Threshold_37
I0716 07:52:02.796306 14264 net.cpp:140] Creating Layer Threshold_37
I0716 07:52:02.796309 14264 net.cpp:481] Threshold_37 <- BatchNorm_29
I0716 07:52:02.796314 14264 net.cpp:442] Threshold_37 -> BatchNorm_29 (in-place)
I0716 07:52:02.796320 14264 net.cpp:190] Setting up Threshold_37
I0716 07:52:02.796324 14264 net.cpp:197] Top shape: 1 128 32 64 (262144)
I0716 07:52:02.796326 14264 net.cpp:205] Memory required for data: 142868484
I0716 07:52:02.796329 14264 layer_factory.hpp:123] Creating layer Add_9
I0716 07:52:02.796334 14264 net.cpp:140] Creating Layer Add_9
I0716 07:52:02.796337 14264 net.cpp:481] Add_9 <- Add_8_Threshold_33_0_split_1
I0716 07:52:02.796341 14264 net.cpp:481] Add_9 <- BatchNorm_29
I0716 07:52:02.796345 14264 net.cpp:455] Add_9 -> Add_9
I0716 07:52:02.796365 14264 net.cpp:190] Setting up Add_9
I0716 07:52:02.796370 14264 net.cpp:197] Top shape: 1 128 32 64 (262144)
I0716 07:52:02.796373 14264 net.cpp:205] Memory required for data: 143917060
I0716 07:52:02.796375 14264 layer_factory.hpp:123] Creating layer Threshold_38
I0716 07:52:02.796380 14264 net.cpp:140] Creating Layer Threshold_38
I0716 07:52:02.796383 14264 net.cpp:481] Threshold_38 <- Add_9
I0716 07:52:02.796388 14264 net.cpp:442] Threshold_38 -> Add_9 (in-place)
I0716 07:52:02.796392 14264 net.cpp:190] Setting up Threshold_38
I0716 07:52:02.796396 14264 net.cpp:197] Top shape: 1 128 32 64 (262144)
I0716 07:52:02.796399 14264 net.cpp:205] Memory required for data: 144965636
I0716 07:52:02.796402 14264 layer_factory.hpp:123] Creating layer Add_9_Threshold_38_0_split
I0716 07:52:02.796406 14264 net.cpp:140] Creating Layer Add_9_Threshold_38_0_split
I0716 07:52:02.796409 14264 net.cpp:481] Add_9_Threshold_38_0_split <- Add_9
I0716 07:52:02.796413 14264 net.cpp:455] Add_9_Threshold_38_0_split -> Add_9_Threshold_38_0_split_0
I0716 07:52:02.796419 14264 net.cpp:455] Add_9_Threshold_38_0_split -> Add_9_Threshold_38_0_split_1
I0716 07:52:02.796447 14264 net.cpp:190] Setting up Add_9_Threshold_38_0_split
I0716 07:52:02.796458 14264 net.cpp:197] Top shape: 1 128 32 64 (262144)
I0716 07:52:02.796461 14264 net.cpp:197] Top shape: 1 128 32 64 (262144)
I0716 07:52:02.796464 14264 net.cpp:205] Memory required for data: 147062788
I0716 07:52:02.796466 14264 layer_factory.hpp:123] Creating layer ConvNd_32
I0716 07:52:02.796473 14264 net.cpp:140] Creating Layer ConvNd_32
I0716 07:52:02.796476 14264 net.cpp:481] ConvNd_32 <- Add_9_Threshold_38_0_split_0
I0716 07:52:02.796481 14264 net.cpp:455] ConvNd_32 -> ConvNd_32
I0716 07:52:02.796653 14264 net.cpp:190] Setting up ConvNd_32
I0716 07:52:02.796660 14264 net.cpp:197] Top shape: 1 32 32 64 (65536)
I0716 07:52:02.796663 14264 net.cpp:205] Memory required for data: 147324932
I0716 07:52:02.796667 14264 layer_factory.hpp:123] Creating layer BatchNorm_30
I0716 07:52:02.796674 14264 net.cpp:140] Creating Layer BatchNorm_30
I0716 07:52:02.796676 14264 net.cpp:481] BatchNorm_30 <- ConvNd_32
I0716 07:52:02.796681 14264 net.cpp:455] BatchNorm_30 -> BatchNorm_30
I0716 07:52:02.797274 14264 net.cpp:190] Setting up BatchNorm_30
I0716 07:52:02.797281 14264 net.cpp:197] Top shape: 1 32 32 64 (65536)
I0716 07:52:02.797284 14264 net.cpp:205] Memory required for data: 147587076
I0716 07:52:02.797292 14264 layer_factory.hpp:123] Creating layer Threshold_39
I0716 07:52:02.797297 14264 net.cpp:140] Creating Layer Threshold_39
I0716 07:52:02.797300 14264 net.cpp:481] Threshold_39 <- BatchNorm_30
I0716 07:52:02.797305 14264 net.cpp:442] Threshold_39 -> BatchNorm_30 (in-place)
I0716 07:52:02.797310 14264 net.cpp:190] Setting up Threshold_39
I0716 07:52:02.797314 14264 net.cpp:197] Top shape: 1 32 32 64 (65536)
I0716 07:52:02.797317 14264 net.cpp:205] Memory required for data: 147849220
I0716 07:52:02.797320 14264 layer_factory.hpp:123] Creating layer ConvNd_33
I0716 07:52:02.797327 14264 net.cpp:140] Creating Layer ConvNd_33
I0716 07:52:02.797329 14264 net.cpp:481] ConvNd_33 <- BatchNorm_30
I0716 07:52:02.797333 14264 net.cpp:455] ConvNd_33 -> ConvNd_33
I0716 07:52:02.797507 14264 net.cpp:190] Setting up ConvNd_33
I0716 07:52:02.797514 14264 net.cpp:197] Top shape: 1 32 32 64 (65536)
I0716 07:52:02.797518 14264 net.cpp:205] Memory required for data: 148111364
I0716 07:52:02.797521 14264 layer_factory.hpp:123] Creating layer BatchNorm_31
I0716 07:52:02.797528 14264 net.cpp:140] Creating Layer BatchNorm_31
I0716 07:52:02.797531 14264 net.cpp:481] BatchNorm_31 <- ConvNd_33
I0716 07:52:02.797536 14264 net.cpp:455] BatchNorm_31 -> BatchNorm_31
I0716 07:52:02.798130 14264 net.cpp:190] Setting up BatchNorm_31
I0716 07:52:02.798138 14264 net.cpp:197] Top shape: 1 32 32 64 (65536)
I0716 07:52:02.798141 14264 net.cpp:205] Memory required for data: 148373508
I0716 07:52:02.798149 14264 layer_factory.hpp:123] Creating layer Threshold_40
I0716 07:52:02.798157 14264 net.cpp:140] Creating Layer Threshold_40
I0716 07:52:02.798161 14264 net.cpp:481] Threshold_40 <- BatchNorm_31
I0716 07:52:02.798166 14264 net.cpp:442] Threshold_40 -> BatchNorm_31 (in-place)
I0716 07:52:02.798171 14264 net.cpp:190] Setting up Threshold_40
I0716 07:52:02.798175 14264 net.cpp:197] Top shape: 1 32 32 64 (65536)
I0716 07:52:02.798178 14264 net.cpp:205] Memory required for data: 148635652
I0716 07:52:02.798182 14264 layer_factory.hpp:123] Creating layer ConvNd_34
I0716 07:52:02.798188 14264 net.cpp:140] Creating Layer ConvNd_34
I0716 07:52:02.798190 14264 net.cpp:481] ConvNd_34 <- BatchNorm_31
I0716 07:52:02.798195 14264 net.cpp:455] ConvNd_34 -> ConvNd_34
I0716 07:52:02.798362 14264 net.cpp:190] Setting up ConvNd_34
I0716 07:52:02.798370 14264 net.cpp:197] Top shape: 1 128 32 64 (262144)
I0716 07:52:02.798373 14264 net.cpp:205] Memory required for data: 149684228
I0716 07:52:02.798377 14264 layer_factory.hpp:123] Creating layer BatchNorm_32
I0716 07:52:02.798384 14264 net.cpp:140] Creating Layer BatchNorm_32
I0716 07:52:02.798388 14264 net.cpp:481] BatchNorm_32 <- ConvNd_34
I0716 07:52:02.798393 14264 net.cpp:455] BatchNorm_32 -> BatchNorm_32
I0716 07:52:02.798913 14264 net.cpp:190] Setting up BatchNorm_32
I0716 07:52:02.798920 14264 net.cpp:197] Top shape: 1 128 32 64 (262144)
I0716 07:52:02.798923 14264 net.cpp:205] Memory required for data: 150732804
I0716 07:52:02.798930 14264 layer_factory.hpp:123] Creating layer Threshold_41
I0716 07:52:02.798935 14264 net.cpp:140] Creating Layer Threshold_41
I0716 07:52:02.798938 14264 net.cpp:481] Threshold_41 <- BatchNorm_32
I0716 07:52:02.798943 14264 net.cpp:442] Threshold_41 -> BatchNorm_32 (in-place)
I0716 07:52:02.798949 14264 net.cpp:190] Setting up Threshold_41
I0716 07:52:02.798952 14264 net.cpp:197] Top shape: 1 128 32 64 (262144)
I0716 07:52:02.798955 14264 net.cpp:205] Memory required for data: 151781380
I0716 07:52:02.798959 14264 layer_factory.hpp:123] Creating layer Add_10
I0716 07:52:02.798964 14264 net.cpp:140] Creating Layer Add_10
I0716 07:52:02.798966 14264 net.cpp:481] Add_10 <- Add_9_Threshold_38_0_split_1
I0716 07:52:02.798970 14264 net.cpp:481] Add_10 <- BatchNorm_32
I0716 07:52:02.798974 14264 net.cpp:455] Add_10 -> Add_10
I0716 07:52:02.798993 14264 net.cpp:190] Setting up Add_10
I0716 07:52:02.798998 14264 net.cpp:197] Top shape: 1 128 32 64 (262144)
I0716 07:52:02.799001 14264 net.cpp:205] Memory required for data: 152829956
I0716 07:52:02.799005 14264 layer_factory.hpp:123] Creating layer Threshold_42
I0716 07:52:02.799008 14264 net.cpp:140] Creating Layer Threshold_42
I0716 07:52:02.799011 14264 net.cpp:481] Threshold_42 <- Add_10
I0716 07:52:02.799015 14264 net.cpp:442] Threshold_42 -> Add_10 (in-place)
I0716 07:52:02.799021 14264 net.cpp:190] Setting up Threshold_42
I0716 07:52:02.799024 14264 net.cpp:197] Top shape: 1 128 32 64 (262144)
I0716 07:52:02.799027 14264 net.cpp:205] Memory required for data: 153878532
I0716 07:52:02.799031 14264 layer_factory.hpp:123] Creating layer Add_10_Threshold_42_0_split
I0716 07:52:02.799034 14264 net.cpp:140] Creating Layer Add_10_Threshold_42_0_split
I0716 07:52:02.799037 14264 net.cpp:481] Add_10_Threshold_42_0_split <- Add_10
I0716 07:52:02.799041 14264 net.cpp:455] Add_10_Threshold_42_0_split -> Add_10_Threshold_42_0_split_0
I0716 07:52:02.799047 14264 net.cpp:455] Add_10_Threshold_42_0_split -> Add_10_Threshold_42_0_split_1
I0716 07:52:02.799074 14264 net.cpp:190] Setting up Add_10_Threshold_42_0_split
I0716 07:52:02.799080 14264 net.cpp:197] Top shape: 1 128 32 64 (262144)
I0716 07:52:02.799084 14264 net.cpp:197] Top shape: 1 128 32 64 (262144)
I0716 07:52:02.799088 14264 net.cpp:205] Memory required for data: 155975684
I0716 07:52:02.799090 14264 layer_factory.hpp:123] Creating layer ConvNd_35
I0716 07:52:02.799096 14264 net.cpp:140] Creating Layer ConvNd_35
I0716 07:52:02.799099 14264 net.cpp:481] ConvNd_35 <- Add_10_Threshold_42_0_split_0
I0716 07:52:02.799104 14264 net.cpp:455] ConvNd_35 -> ConvNd_35
I0716 07:52:02.799269 14264 net.cpp:190] Setting up ConvNd_35
I0716 07:52:02.799276 14264 net.cpp:197] Top shape: 1 32 32 64 (65536)
I0716 07:52:02.799279 14264 net.cpp:205] Memory required for data: 156237828
I0716 07:52:02.799283 14264 layer_factory.hpp:123] Creating layer BatchNorm_33
I0716 07:52:02.799289 14264 net.cpp:140] Creating Layer BatchNorm_33
I0716 07:52:02.799293 14264 net.cpp:481] BatchNorm_33 <- ConvNd_35
I0716 07:52:02.799299 14264 net.cpp:455] BatchNorm_33 -> BatchNorm_33
I0716 07:52:02.799906 14264 net.cpp:190] Setting up BatchNorm_33
I0716 07:52:02.799916 14264 net.cpp:197] Top shape: 1 32 32 64 (65536)
I0716 07:52:02.799919 14264 net.cpp:205] Memory required for data: 156499972
I0716 07:52:02.799927 14264 layer_factory.hpp:123] Creating layer Threshold_43
I0716 07:52:02.799932 14264 net.cpp:140] Creating Layer Threshold_43
I0716 07:52:02.799935 14264 net.cpp:481] Threshold_43 <- BatchNorm_33
I0716 07:52:02.799940 14264 net.cpp:442] Threshold_43 -> BatchNorm_33 (in-place)
I0716 07:52:02.799947 14264 net.cpp:190] Setting up Threshold_43
I0716 07:52:02.799950 14264 net.cpp:197] Top shape: 1 32 32 64 (65536)
I0716 07:52:02.799953 14264 net.cpp:205] Memory required for data: 156762116
I0716 07:52:02.799957 14264 layer_factory.hpp:123] Creating layer ConvNd_36
I0716 07:52:02.799962 14264 net.cpp:140] Creating Layer ConvNd_36
I0716 07:52:02.799965 14264 net.cpp:481] ConvNd_36 <- BatchNorm_33
I0716 07:52:02.799970 14264 net.cpp:455] ConvNd_36 -> ConvNd_36
I0716 07:52:02.800146 14264 net.cpp:190] Setting up ConvNd_36
I0716 07:52:02.800154 14264 net.cpp:197] Top shape: 1 32 32 64 (65536)
I0716 07:52:02.800158 14264 net.cpp:205] Memory required for data: 157024260
I0716 07:52:02.800161 14264 layer_factory.hpp:123] Creating layer BatchNorm_34
I0716 07:52:02.800168 14264 net.cpp:140] Creating Layer BatchNorm_34
I0716 07:52:02.800171 14264 net.cpp:481] BatchNorm_34 <- ConvNd_36
I0716 07:52:02.800176 14264 net.cpp:455] BatchNorm_34 -> BatchNorm_34
I0716 07:52:02.800773 14264 net.cpp:190] Setting up BatchNorm_34
I0716 07:52:02.800781 14264 net.cpp:197] Top shape: 1 32 32 64 (65536)
I0716 07:52:02.800786 14264 net.cpp:205] Memory required for data: 157286404
I0716 07:52:02.800792 14264 layer_factory.hpp:123] Creating layer Threshold_44
I0716 07:52:02.800797 14264 net.cpp:140] Creating Layer Threshold_44
I0716 07:52:02.800801 14264 net.cpp:481] Threshold_44 <- BatchNorm_34
I0716 07:52:02.800806 14264 net.cpp:442] Threshold_44 -> BatchNorm_34 (in-place)
I0716 07:52:02.800810 14264 net.cpp:190] Setting up Threshold_44
I0716 07:52:02.800814 14264 net.cpp:197] Top shape: 1 32 32 64 (65536)
I0716 07:52:02.800817 14264 net.cpp:205] Memory required for data: 157548548
I0716 07:52:02.800820 14264 layer_factory.hpp:123] Creating layer ConvNd_37
I0716 07:52:02.800827 14264 net.cpp:140] Creating Layer ConvNd_37
I0716 07:52:02.800829 14264 net.cpp:481] ConvNd_37 <- BatchNorm_34
I0716 07:52:02.800833 14264 net.cpp:455] ConvNd_37 -> ConvNd_37
I0716 07:52:02.800997 14264 net.cpp:190] Setting up ConvNd_37
I0716 07:52:02.801005 14264 net.cpp:197] Top shape: 1 128 32 64 (262144)
I0716 07:52:02.801008 14264 net.cpp:205] Memory required for data: 158597124
I0716 07:52:02.801012 14264 layer_factory.hpp:123] Creating layer BatchNorm_35
I0716 07:52:02.801019 14264 net.cpp:140] Creating Layer BatchNorm_35
I0716 07:52:02.801023 14264 net.cpp:481] BatchNorm_35 <- ConvNd_37
I0716 07:52:02.801028 14264 net.cpp:455] BatchNorm_35 -> BatchNorm_35
I0716 07:52:02.801542 14264 net.cpp:190] Setting up BatchNorm_35
I0716 07:52:02.801549 14264 net.cpp:197] Top shape: 1 128 32 64 (262144)
I0716 07:52:02.801553 14264 net.cpp:205] Memory required for data: 159645700
I0716 07:52:02.801560 14264 layer_factory.hpp:123] Creating layer Threshold_45
I0716 07:52:02.801565 14264 net.cpp:140] Creating Layer Threshold_45
I0716 07:52:02.801569 14264 net.cpp:481] Threshold_45 <- BatchNorm_35
I0716 07:52:02.801573 14264 net.cpp:442] Threshold_45 -> BatchNorm_35 (in-place)
I0716 07:52:02.801579 14264 net.cpp:190] Setting up Threshold_45
I0716 07:52:02.801584 14264 net.cpp:197] Top shape: 1 128 32 64 (262144)
I0716 07:52:02.801586 14264 net.cpp:205] Memory required for data: 160694276
I0716 07:52:02.801589 14264 layer_factory.hpp:123] Creating layer Add_11
I0716 07:52:02.801594 14264 net.cpp:140] Creating Layer Add_11
I0716 07:52:02.801596 14264 net.cpp:481] Add_11 <- Add_10_Threshold_42_0_split_1
I0716 07:52:02.801600 14264 net.cpp:481] Add_11 <- BatchNorm_35
I0716 07:52:02.801605 14264 net.cpp:455] Add_11 -> Add_11
I0716 07:52:02.801625 14264 net.cpp:190] Setting up Add_11
I0716 07:52:02.801628 14264 net.cpp:197] Top shape: 1 128 32 64 (262144)
I0716 07:52:02.801631 14264 net.cpp:205] Memory required for data: 161742852
I0716 07:52:02.801635 14264 layer_factory.hpp:123] Creating layer Threshold_46
I0716 07:52:02.801638 14264 net.cpp:140] Creating Layer Threshold_46
I0716 07:52:02.801641 14264 net.cpp:481] Threshold_46 <- Add_11
I0716 07:52:02.801645 14264 net.cpp:442] Threshold_46 -> Add_11 (in-place)
I0716 07:52:02.801651 14264 net.cpp:190] Setting up Threshold_46
I0716 07:52:02.801654 14264 net.cpp:197] Top shape: 1 128 32 64 (262144)
I0716 07:52:02.801656 14264 net.cpp:205] Memory required for data: 162791428
I0716 07:52:02.801659 14264 layer_factory.hpp:123] Creating layer Add_11_Threshold_46_0_split
I0716 07:52:02.801664 14264 net.cpp:140] Creating Layer Add_11_Threshold_46_0_split
I0716 07:52:02.801667 14264 net.cpp:481] Add_11_Threshold_46_0_split <- Add_11
I0716 07:52:02.801671 14264 net.cpp:455] Add_11_Threshold_46_0_split -> Add_11_Threshold_46_0_split_0
I0716 07:52:02.801677 14264 net.cpp:455] Add_11_Threshold_46_0_split -> Add_11_Threshold_46_0_split_1
I0716 07:52:02.801705 14264 net.cpp:190] Setting up Add_11_Threshold_46_0_split
I0716 07:52:02.801710 14264 net.cpp:197] Top shape: 1 128 32 64 (262144)
I0716 07:52:02.801714 14264 net.cpp:197] Top shape: 1 128 32 64 (262144)
I0716 07:52:02.801717 14264 net.cpp:205] Memory required for data: 164888580
I0716 07:52:02.801720 14264 layer_factory.hpp:123] Creating layer ConvNd_38
I0716 07:52:02.801726 14264 net.cpp:140] Creating Layer ConvNd_38
I0716 07:52:02.801730 14264 net.cpp:481] ConvNd_38 <- Add_11_Threshold_46_0_split_0
I0716 07:52:02.801735 14264 net.cpp:455] ConvNd_38 -> ConvNd_38
I0716 07:52:02.801901 14264 net.cpp:190] Setting up ConvNd_38
I0716 07:52:02.801908 14264 net.cpp:197] Top shape: 1 32 32 64 (65536)
I0716 07:52:02.801910 14264 net.cpp:205] Memory required for data: 165150724
I0716 07:52:02.801915 14264 layer_factory.hpp:123] Creating layer BatchNorm_36
I0716 07:52:02.801921 14264 net.cpp:140] Creating Layer BatchNorm_36
I0716 07:52:02.801924 14264 net.cpp:481] BatchNorm_36 <- ConvNd_38
I0716 07:52:02.801929 14264 net.cpp:455] BatchNorm_36 -> BatchNorm_36
I0716 07:52:02.802521 14264 net.cpp:190] Setting up BatchNorm_36
I0716 07:52:02.802528 14264 net.cpp:197] Top shape: 1 32 32 64 (65536)
I0716 07:52:02.802531 14264 net.cpp:205] Memory required for data: 165412868
I0716 07:52:02.802539 14264 layer_factory.hpp:123] Creating layer Threshold_47
I0716 07:52:02.802544 14264 net.cpp:140] Creating Layer Threshold_47
I0716 07:52:02.802548 14264 net.cpp:481] Threshold_47 <- BatchNorm_36
I0716 07:52:02.802552 14264 net.cpp:442] Threshold_47 -> BatchNorm_36 (in-place)
I0716 07:52:02.802558 14264 net.cpp:190] Setting up Threshold_47
I0716 07:52:02.802562 14264 net.cpp:197] Top shape: 1 32 32 64 (65536)
I0716 07:52:02.802564 14264 net.cpp:205] Memory required for data: 165675012
I0716 07:52:02.802567 14264 layer_factory.hpp:123] Creating layer ConvNd_39
I0716 07:52:02.802573 14264 net.cpp:140] Creating Layer ConvNd_39
I0716 07:52:02.802577 14264 net.cpp:481] ConvNd_39 <- BatchNorm_36
I0716 07:52:02.802582 14264 net.cpp:455] ConvNd_39 -> ConvNd_39
I0716 07:52:02.802752 14264 net.cpp:190] Setting up ConvNd_39
I0716 07:52:02.802760 14264 net.cpp:197] Top shape: 1 32 32 64 (65536)
I0716 07:52:02.802763 14264 net.cpp:205] Memory required for data: 165937156
I0716 07:52:02.802767 14264 layer_factory.hpp:123] Creating layer BatchNorm_37
I0716 07:52:02.802774 14264 net.cpp:140] Creating Layer BatchNorm_37
I0716 07:52:02.802778 14264 net.cpp:481] BatchNorm_37 <- ConvNd_39
I0716 07:52:02.802783 14264 net.cpp:455] BatchNorm_37 -> BatchNorm_37
I0716 07:52:02.803375 14264 net.cpp:190] Setting up BatchNorm_37
I0716 07:52:02.803381 14264 net.cpp:197] Top shape: 1 32 32 64 (65536)
I0716 07:52:02.803385 14264 net.cpp:205] Memory required for data: 166199300
I0716 07:52:02.803393 14264 layer_factory.hpp:123] Creating layer Threshold_48
I0716 07:52:02.803397 14264 net.cpp:140] Creating Layer Threshold_48
I0716 07:52:02.803400 14264 net.cpp:481] Threshold_48 <- BatchNorm_37
I0716 07:52:02.803405 14264 net.cpp:442] Threshold_48 -> BatchNorm_37 (in-place)
I0716 07:52:02.803411 14264 net.cpp:190] Setting up Threshold_48
I0716 07:52:02.803414 14264 net.cpp:197] Top shape: 1 32 32 64 (65536)
I0716 07:52:02.803416 14264 net.cpp:205] Memory required for data: 166461444
I0716 07:52:02.803419 14264 layer_factory.hpp:123] Creating layer ConvNd_40
I0716 07:52:02.803426 14264 net.cpp:140] Creating Layer ConvNd_40
I0716 07:52:02.803428 14264 net.cpp:481] ConvNd_40 <- BatchNorm_37
I0716 07:52:02.803433 14264 net.cpp:455] ConvNd_40 -> ConvNd_40
I0716 07:52:02.803597 14264 net.cpp:190] Setting up ConvNd_40
I0716 07:52:02.803604 14264 net.cpp:197] Top shape: 1 128 32 64 (262144)
I0716 07:52:02.803607 14264 net.cpp:205] Memory required for data: 167510020
I0716 07:52:02.803611 14264 layer_factory.hpp:123] Creating layer BatchNorm_38
I0716 07:52:02.803617 14264 net.cpp:140] Creating Layer BatchNorm_38
I0716 07:52:02.803622 14264 net.cpp:481] BatchNorm_38 <- ConvNd_40
I0716 07:52:02.803627 14264 net.cpp:455] BatchNorm_38 -> BatchNorm_38
I0716 07:52:02.804149 14264 net.cpp:190] Setting up BatchNorm_38
I0716 07:52:02.804158 14264 net.cpp:197] Top shape: 1 128 32 64 (262144)
I0716 07:52:02.804162 14264 net.cpp:205] Memory required for data: 168558596
I0716 07:52:02.804169 14264 layer_factory.hpp:123] Creating layer Threshold_49
I0716 07:52:02.804174 14264 net.cpp:140] Creating Layer Threshold_49
I0716 07:52:02.804177 14264 net.cpp:481] Threshold_49 <- BatchNorm_38
I0716 07:52:02.804183 14264 net.cpp:442] Threshold_49 -> BatchNorm_38 (in-place)
I0716 07:52:02.804188 14264 net.cpp:190] Setting up Threshold_49
I0716 07:52:02.804191 14264 net.cpp:197] Top shape: 1 128 32 64 (262144)
I0716 07:52:02.804194 14264 net.cpp:205] Memory required for data: 169607172
I0716 07:52:02.804198 14264 layer_factory.hpp:123] Creating layer Add_12
I0716 07:52:02.804203 14264 net.cpp:140] Creating Layer Add_12
I0716 07:52:02.804205 14264 net.cpp:481] Add_12 <- Add_11_Threshold_46_0_split_1
I0716 07:52:02.804208 14264 net.cpp:481] Add_12 <- BatchNorm_38
I0716 07:52:02.804214 14264 net.cpp:455] Add_12 -> Add_12
I0716 07:52:02.804239 14264 net.cpp:190] Setting up Add_12
I0716 07:52:02.804244 14264 net.cpp:197] Top shape: 1 128 32 64 (262144)
I0716 07:52:02.804246 14264 net.cpp:205] Memory required for data: 170655748
I0716 07:52:02.804250 14264 layer_factory.hpp:123] Creating layer Threshold_50
I0716 07:52:02.804253 14264 net.cpp:140] Creating Layer Threshold_50
I0716 07:52:02.804256 14264 net.cpp:481] Threshold_50 <- Add_12
I0716 07:52:02.804260 14264 net.cpp:442] Threshold_50 -> Add_12 (in-place)
I0716 07:52:02.804265 14264 net.cpp:190] Setting up Threshold_50
I0716 07:52:02.804268 14264 net.cpp:197] Top shape: 1 128 32 64 (262144)
I0716 07:52:02.804271 14264 net.cpp:205] Memory required for data: 171704324
I0716 07:52:02.804275 14264 layer_factory.hpp:123] Creating layer Add_12_Threshold_50_0_split
I0716 07:52:02.804280 14264 net.cpp:140] Creating Layer Add_12_Threshold_50_0_split
I0716 07:52:02.804282 14264 net.cpp:481] Add_12_Threshold_50_0_split <- Add_12
I0716 07:52:02.804286 14264 net.cpp:455] Add_12_Threshold_50_0_split -> Add_12_Threshold_50_0_split_0
I0716 07:52:02.804292 14264 net.cpp:455] Add_12_Threshold_50_0_split -> Add_12_Threshold_50_0_split_1
I0716 07:52:02.804320 14264 net.cpp:190] Setting up Add_12_Threshold_50_0_split
I0716 07:52:02.804327 14264 net.cpp:197] Top shape: 1 128 32 64 (262144)
I0716 07:52:02.804330 14264 net.cpp:197] Top shape: 1 128 32 64 (262144)
I0716 07:52:02.804332 14264 net.cpp:205] Memory required for data: 173801476
I0716 07:52:02.804337 14264 layer_factory.hpp:123] Creating layer ConvNd_41
I0716 07:52:02.804342 14264 net.cpp:140] Creating Layer ConvNd_41
I0716 07:52:02.804345 14264 net.cpp:481] ConvNd_41 <- Add_12_Threshold_50_0_split_0
I0716 07:52:02.804350 14264 net.cpp:455] ConvNd_41 -> ConvNd_41
I0716 07:52:02.804517 14264 net.cpp:190] Setting up ConvNd_41
I0716 07:52:02.804524 14264 net.cpp:197] Top shape: 1 32 32 64 (65536)
I0716 07:52:02.804527 14264 net.cpp:205] Memory required for data: 174063620
I0716 07:52:02.804531 14264 layer_factory.hpp:123] Creating layer BatchNorm_39
I0716 07:52:02.804538 14264 net.cpp:140] Creating Layer BatchNorm_39
I0716 07:52:02.804541 14264 net.cpp:481] BatchNorm_39 <- ConvNd_41
I0716 07:52:02.804546 14264 net.cpp:455] BatchNorm_39 -> BatchNorm_39
I0716 07:52:02.805145 14264 net.cpp:190] Setting up BatchNorm_39
I0716 07:52:02.805153 14264 net.cpp:197] Top shape: 1 32 32 64 (65536)
I0716 07:52:02.805156 14264 net.cpp:205] Memory required for data: 174325764
I0716 07:52:02.805164 14264 layer_factory.hpp:123] Creating layer Threshold_51
I0716 07:52:02.805168 14264 net.cpp:140] Creating Layer Threshold_51
I0716 07:52:02.805172 14264 net.cpp:481] Threshold_51 <- BatchNorm_39
I0716 07:52:02.805176 14264 net.cpp:442] Threshold_51 -> BatchNorm_39 (in-place)
I0716 07:52:02.805182 14264 net.cpp:190] Setting up Threshold_51
I0716 07:52:02.805186 14264 net.cpp:197] Top shape: 1 32 32 64 (65536)
I0716 07:52:02.805188 14264 net.cpp:205] Memory required for data: 174587908
I0716 07:52:02.805191 14264 layer_factory.hpp:123] Creating layer ConvNd_42
I0716 07:52:02.805197 14264 net.cpp:140] Creating Layer ConvNd_42
I0716 07:52:02.805200 14264 net.cpp:481] ConvNd_42 <- BatchNorm_39
I0716 07:52:02.805204 14264 net.cpp:455] ConvNd_42 -> ConvNd_42
I0716 07:52:02.805372 14264 net.cpp:190] Setting up ConvNd_42
I0716 07:52:02.805379 14264 net.cpp:197] Top shape: 1 32 32 64 (65536)
I0716 07:52:02.805382 14264 net.cpp:205] Memory required for data: 174850052
I0716 07:52:02.805387 14264 layer_factory.hpp:123] Creating layer BatchNorm_40
I0716 07:52:02.805393 14264 net.cpp:140] Creating Layer BatchNorm_40
I0716 07:52:02.805397 14264 net.cpp:481] BatchNorm_40 <- ConvNd_42
I0716 07:52:02.805402 14264 net.cpp:455] BatchNorm_40 -> BatchNorm_40
I0716 07:52:02.805994 14264 net.cpp:190] Setting up BatchNorm_40
I0716 07:52:02.806001 14264 net.cpp:197] Top shape: 1 32 32 64 (65536)
I0716 07:52:02.806005 14264 net.cpp:205] Memory required for data: 175112196
I0716 07:52:02.806012 14264 layer_factory.hpp:123] Creating layer Threshold_52
I0716 07:52:02.806017 14264 net.cpp:140] Creating Layer Threshold_52
I0716 07:52:02.806020 14264 net.cpp:481] Threshold_52 <- BatchNorm_40
I0716 07:52:02.806025 14264 net.cpp:442] Threshold_52 -> BatchNorm_40 (in-place)
I0716 07:52:02.806030 14264 net.cpp:190] Setting up Threshold_52
I0716 07:52:02.806033 14264 net.cpp:197] Top shape: 1 32 32 64 (65536)
I0716 07:52:02.806036 14264 net.cpp:205] Memory required for data: 175374340
I0716 07:52:02.806039 14264 layer_factory.hpp:123] Creating layer ConvNd_43
I0716 07:52:02.806046 14264 net.cpp:140] Creating Layer ConvNd_43
I0716 07:52:02.806048 14264 net.cpp:481] ConvNd_43 <- BatchNorm_40
I0716 07:52:02.806052 14264 net.cpp:455] ConvNd_43 -> ConvNd_43
I0716 07:52:02.806223 14264 net.cpp:190] Setting up ConvNd_43
I0716 07:52:02.806231 14264 net.cpp:197] Top shape: 1 32 32 64 (65536)
I0716 07:52:02.806234 14264 net.cpp:205] Memory required for data: 175636484
I0716 07:52:02.806238 14264 layer_factory.hpp:123] Creating layer BatchNorm_41
I0716 07:52:02.806244 14264 net.cpp:140] Creating Layer BatchNorm_41
I0716 07:52:02.806248 14264 net.cpp:481] BatchNorm_41 <- ConvNd_43
I0716 07:52:02.806253 14264 net.cpp:455] BatchNorm_41 -> BatchNorm_41
I0716 07:52:02.806844 14264 net.cpp:190] Setting up BatchNorm_41
I0716 07:52:02.806851 14264 net.cpp:197] Top shape: 1 32 32 64 (65536)
I0716 07:52:02.806854 14264 net.cpp:205] Memory required for data: 175898628
I0716 07:52:02.806864 14264 layer_factory.hpp:123] Creating layer Threshold_53
I0716 07:52:02.806867 14264 net.cpp:140] Creating Layer Threshold_53
I0716 07:52:02.806870 14264 net.cpp:481] Threshold_53 <- BatchNorm_41
I0716 07:52:02.806875 14264 net.cpp:442] Threshold_53 -> BatchNorm_41 (in-place)
I0716 07:52:02.806881 14264 net.cpp:190] Setting up Threshold_53
I0716 07:52:02.806885 14264 net.cpp:197] Top shape: 1 32 32 64 (65536)
I0716 07:52:02.806887 14264 net.cpp:205] Memory required for data: 176160772
I0716 07:52:02.806890 14264 layer_factory.hpp:123] Creating layer ConvNd_44
I0716 07:52:02.806896 14264 net.cpp:140] Creating Layer ConvNd_44
I0716 07:52:02.806900 14264 net.cpp:481] ConvNd_44 <- BatchNorm_41
I0716 07:52:02.806905 14264 net.cpp:455] ConvNd_44 -> ConvNd_44
I0716 07:52:02.807068 14264 net.cpp:190] Setting up ConvNd_44
I0716 07:52:02.807075 14264 net.cpp:197] Top shape: 1 128 32 64 (262144)
I0716 07:52:02.807078 14264 net.cpp:205] Memory required for data: 177209348
I0716 07:52:02.807082 14264 layer_factory.hpp:123] Creating layer BatchNorm_42
I0716 07:52:02.807088 14264 net.cpp:140] Creating Layer BatchNorm_42
I0716 07:52:02.807092 14264 net.cpp:481] BatchNorm_42 <- ConvNd_44
I0716 07:52:02.807097 14264 net.cpp:455] BatchNorm_42 -> BatchNorm_42
I0716 07:52:02.807611 14264 net.cpp:190] Setting up BatchNorm_42
I0716 07:52:02.807618 14264 net.cpp:197] Top shape: 1 128 32 64 (262144)
I0716 07:52:02.807621 14264 net.cpp:205] Memory required for data: 178257924
I0716 07:52:02.807629 14264 layer_factory.hpp:123] Creating layer Threshold_54
I0716 07:52:02.807634 14264 net.cpp:140] Creating Layer Threshold_54
I0716 07:52:02.807637 14264 net.cpp:481] Threshold_54 <- BatchNorm_42
I0716 07:52:02.807642 14264 net.cpp:442] Threshold_54 -> BatchNorm_42 (in-place)
I0716 07:52:02.807647 14264 net.cpp:190] Setting up Threshold_54
I0716 07:52:02.807651 14264 net.cpp:197] Top shape: 1 128 32 64 (262144)
I0716 07:52:02.807654 14264 net.cpp:205] Memory required for data: 179306500
I0716 07:52:02.807657 14264 layer_factory.hpp:123] Creating layer Add_13
I0716 07:52:02.807662 14264 net.cpp:140] Creating Layer Add_13
I0716 07:52:02.807665 14264 net.cpp:481] Add_13 <- Add_12_Threshold_50_0_split_1
I0716 07:52:02.807669 14264 net.cpp:481] Add_13 <- BatchNorm_42
I0716 07:52:02.807673 14264 net.cpp:455] Add_13 -> Add_13
I0716 07:52:02.807693 14264 net.cpp:190] Setting up Add_13
I0716 07:52:02.807700 14264 net.cpp:197] Top shape: 1 128 32 64 (262144)
I0716 07:52:02.807703 14264 net.cpp:205] Memory required for data: 180355076
I0716 07:52:02.807706 14264 layer_factory.hpp:123] Creating layer Threshold_55
I0716 07:52:02.807710 14264 net.cpp:140] Creating Layer Threshold_55
I0716 07:52:02.807714 14264 net.cpp:481] Threshold_55 <- Add_13
I0716 07:52:02.807718 14264 net.cpp:442] Threshold_55 -> Add_13 (in-place)
I0716 07:52:02.807723 14264 net.cpp:190] Setting up Threshold_55
I0716 07:52:02.807726 14264 net.cpp:197] Top shape: 1 128 32 64 (262144)
I0716 07:52:02.807729 14264 net.cpp:205] Memory required for data: 181403652
I0716 07:52:02.807732 14264 layer_factory.hpp:123] Creating layer Add_13_Threshold_55_0_split
I0716 07:52:02.807737 14264 net.cpp:140] Creating Layer Add_13_Threshold_55_0_split
I0716 07:52:02.807740 14264 net.cpp:481] Add_13_Threshold_55_0_split <- Add_13
I0716 07:52:02.807744 14264 net.cpp:455] Add_13_Threshold_55_0_split -> Add_13_Threshold_55_0_split_0
I0716 07:52:02.807749 14264 net.cpp:455] Add_13_Threshold_55_0_split -> Add_13_Threshold_55_0_split_1
I0716 07:52:02.807785 14264 net.cpp:190] Setting up Add_13_Threshold_55_0_split
I0716 07:52:02.807790 14264 net.cpp:197] Top shape: 1 128 32 64 (262144)
I0716 07:52:02.807795 14264 net.cpp:197] Top shape: 1 128 32 64 (262144)
I0716 07:52:02.807796 14264 net.cpp:205] Memory required for data: 183500804
I0716 07:52:02.807801 14264 layer_factory.hpp:123] Creating layer ConvNd_45
I0716 07:52:02.807806 14264 net.cpp:140] Creating Layer ConvNd_45
I0716 07:52:02.807811 14264 net.cpp:481] ConvNd_45 <- Add_13_Threshold_55_0_split_0
I0716 07:52:02.807814 14264 net.cpp:455] ConvNd_45 -> ConvNd_45
I0716 07:52:02.807981 14264 net.cpp:190] Setting up ConvNd_45
I0716 07:52:02.807999 14264 net.cpp:197] Top shape: 1 32 32 64 (65536)
I0716 07:52:02.808002 14264 net.cpp:205] Memory required for data: 183762948
I0716 07:52:02.808007 14264 layer_factory.hpp:123] Creating layer BatchNorm_43
I0716 07:52:02.808012 14264 net.cpp:140] Creating Layer BatchNorm_43
I0716 07:52:02.808017 14264 net.cpp:481] BatchNorm_43 <- ConvNd_45
I0716 07:52:02.808022 14264 net.cpp:455] BatchNorm_43 -> BatchNorm_43
I0716 07:52:02.808612 14264 net.cpp:190] Setting up BatchNorm_43
I0716 07:52:02.808620 14264 net.cpp:197] Top shape: 1 32 32 64 (65536)
I0716 07:52:02.808624 14264 net.cpp:205] Memory required for data: 184025092
I0716 07:52:02.808641 14264 layer_factory.hpp:123] Creating layer Threshold_56
I0716 07:52:02.808646 14264 net.cpp:140] Creating Layer Threshold_56
I0716 07:52:02.808650 14264 net.cpp:481] Threshold_56 <- BatchNorm_43
I0716 07:52:02.808655 14264 net.cpp:442] Threshold_56 -> BatchNorm_43 (in-place)
I0716 07:52:02.808660 14264 net.cpp:190] Setting up Threshold_56
I0716 07:52:02.808665 14264 net.cpp:197] Top shape: 1 32 32 64 (65536)
I0716 07:52:02.808667 14264 net.cpp:205] Memory required for data: 184287236
I0716 07:52:02.808670 14264 layer_factory.hpp:123] Creating layer ConvNd_46
I0716 07:52:02.808676 14264 net.cpp:140] Creating Layer ConvNd_46
I0716 07:52:02.808678 14264 net.cpp:481] ConvNd_46 <- BatchNorm_43
I0716 07:52:02.808683 14264 net.cpp:455] ConvNd_46 -> ConvNd_46
I0716 07:52:02.808856 14264 net.cpp:190] Setting up ConvNd_46
I0716 07:52:02.808863 14264 net.cpp:197] Top shape: 1 32 32 64 (65536)
I0716 07:52:02.808866 14264 net.cpp:205] Memory required for data: 184549380
I0716 07:52:02.808871 14264 layer_factory.hpp:123] Creating layer BatchNorm_44
I0716 07:52:02.808876 14264 net.cpp:140] Creating Layer BatchNorm_44
I0716 07:52:02.808881 14264 net.cpp:481] BatchNorm_44 <- ConvNd_46
I0716 07:52:02.808885 14264 net.cpp:455] BatchNorm_44 -> BatchNorm_44
I0716 07:52:02.809480 14264 net.cpp:190] Setting up BatchNorm_44
I0716 07:52:02.809487 14264 net.cpp:197] Top shape: 1 32 32 64 (65536)
I0716 07:52:02.809490 14264 net.cpp:205] Memory required for data: 184811524
I0716 07:52:02.809499 14264 layer_factory.hpp:123] Creating layer Threshold_57
I0716 07:52:02.809504 14264 net.cpp:140] Creating Layer Threshold_57
I0716 07:52:02.809506 14264 net.cpp:481] Threshold_57 <- BatchNorm_44
I0716 07:52:02.809510 14264 net.cpp:442] Threshold_57 -> BatchNorm_44 (in-place)
I0716 07:52:02.809516 14264 net.cpp:190] Setting up Threshold_57
I0716 07:52:02.809520 14264 net.cpp:197] Top shape: 1 32 32 64 (65536)
I0716 07:52:02.809523 14264 net.cpp:205] Memory required for data: 185073668
I0716 07:52:02.809525 14264 layer_factory.hpp:123] Creating layer ConvNd_47
I0716 07:52:02.809531 14264 net.cpp:140] Creating Layer ConvNd_47
I0716 07:52:02.809535 14264 net.cpp:481] ConvNd_47 <- BatchNorm_44
I0716 07:52:02.809540 14264 net.cpp:455] ConvNd_47 -> ConvNd_47
I0716 07:52:02.809710 14264 net.cpp:190] Setting up ConvNd_47
I0716 07:52:02.809717 14264 net.cpp:197] Top shape: 1 128 32 64 (262144)
I0716 07:52:02.809721 14264 net.cpp:205] Memory required for data: 186122244
I0716 07:52:02.809725 14264 layer_factory.hpp:123] Creating layer BatchNorm_45
I0716 07:52:02.809731 14264 net.cpp:140] Creating Layer BatchNorm_45
I0716 07:52:02.809734 14264 net.cpp:481] BatchNorm_45 <- ConvNd_47
I0716 07:52:02.809741 14264 net.cpp:455] BatchNorm_45 -> BatchNorm_45
I0716 07:52:02.810259 14264 net.cpp:190] Setting up BatchNorm_45
I0716 07:52:02.810266 14264 net.cpp:197] Top shape: 1 128 32 64 (262144)
I0716 07:52:02.810269 14264 net.cpp:205] Memory required for data: 187170820
I0716 07:52:02.810278 14264 layer_factory.hpp:123] Creating layer Threshold_58
I0716 07:52:02.810283 14264 net.cpp:140] Creating Layer Threshold_58
I0716 07:52:02.810286 14264 net.cpp:481] Threshold_58 <- BatchNorm_45
I0716 07:52:02.810290 14264 net.cpp:442] Threshold_58 -> BatchNorm_45 (in-place)
I0716 07:52:02.810297 14264 net.cpp:190] Setting up Threshold_58
I0716 07:52:02.810300 14264 net.cpp:197] Top shape: 1 128 32 64 (262144)
I0716 07:52:02.810302 14264 net.cpp:205] Memory required for data: 188219396
I0716 07:52:02.810305 14264 layer_factory.hpp:123] Creating layer Add_14
I0716 07:52:02.810312 14264 net.cpp:140] Creating Layer Add_14
I0716 07:52:02.810314 14264 net.cpp:481] Add_14 <- Add_13_Threshold_55_0_split_1
I0716 07:52:02.810318 14264 net.cpp:481] Add_14 <- BatchNorm_45
I0716 07:52:02.810322 14264 net.cpp:455] Add_14 -> Add_14
I0716 07:52:02.810343 14264 net.cpp:190] Setting up Add_14
I0716 07:52:02.810348 14264 net.cpp:197] Top shape: 1 128 32 64 (262144)
I0716 07:52:02.810351 14264 net.cpp:205] Memory required for data: 189267972
I0716 07:52:02.810354 14264 layer_factory.hpp:123] Creating layer Threshold_59
I0716 07:52:02.810359 14264 net.cpp:140] Creating Layer Threshold_59
I0716 07:52:02.810361 14264 net.cpp:481] Threshold_59 <- Add_14
I0716 07:52:02.810365 14264 net.cpp:442] Threshold_59 -> Add_14 (in-place)
I0716 07:52:02.810371 14264 net.cpp:190] Setting up Threshold_59
I0716 07:52:02.810374 14264 net.cpp:197] Top shape: 1 128 32 64 (262144)
I0716 07:52:02.810377 14264 net.cpp:205] Memory required for data: 190316548
I0716 07:52:02.810380 14264 layer_factory.hpp:123] Creating layer Add_14_Threshold_59_0_split
I0716 07:52:02.810384 14264 net.cpp:140] Creating Layer Add_14_Threshold_59_0_split
I0716 07:52:02.810387 14264 net.cpp:481] Add_14_Threshold_59_0_split <- Add_14
I0716 07:52:02.810391 14264 net.cpp:455] Add_14_Threshold_59_0_split -> Add_14_Threshold_59_0_split_0
I0716 07:52:02.810397 14264 net.cpp:455] Add_14_Threshold_59_0_split -> Add_14_Threshold_59_0_split_1
I0716 07:52:02.810426 14264 net.cpp:190] Setting up Add_14_Threshold_59_0_split
I0716 07:52:02.810432 14264 net.cpp:197] Top shape: 1 128 32 64 (262144)
I0716 07:52:02.810436 14264 net.cpp:197] Top shape: 1 128 32 64 (262144)
I0716 07:52:02.810439 14264 net.cpp:205] Memory required for data: 192413700
I0716 07:52:02.810441 14264 layer_factory.hpp:123] Creating layer ConvNd_48
I0716 07:52:02.810448 14264 net.cpp:140] Creating Layer ConvNd_48
I0716 07:52:02.810451 14264 net.cpp:481] ConvNd_48 <- Add_14_Threshold_59_0_split_0
I0716 07:52:02.810456 14264 net.cpp:455] ConvNd_48 -> ConvNd_48
I0716 07:52:02.810622 14264 net.cpp:190] Setting up ConvNd_48
I0716 07:52:02.810629 14264 net.cpp:197] Top shape: 1 32 32 64 (65536)
I0716 07:52:02.810632 14264 net.cpp:205] Memory required for data: 192675844
I0716 07:52:02.810637 14264 layer_factory.hpp:123] Creating layer BatchNorm_46
I0716 07:52:02.810643 14264 net.cpp:140] Creating Layer BatchNorm_46
I0716 07:52:02.810647 14264 net.cpp:481] BatchNorm_46 <- ConvNd_48
I0716 07:52:02.810652 14264 net.cpp:455] BatchNorm_46 -> BatchNorm_46
I0716 07:52:02.811242 14264 net.cpp:190] Setting up BatchNorm_46
I0716 07:52:02.811250 14264 net.cpp:197] Top shape: 1 32 32 64 (65536)
I0716 07:52:02.811254 14264 net.cpp:205] Memory required for data: 192937988
I0716 07:52:02.811261 14264 layer_factory.hpp:123] Creating layer Threshold_60
I0716 07:52:02.811266 14264 net.cpp:140] Creating Layer Threshold_60
I0716 07:52:02.811269 14264 net.cpp:481] Threshold_60 <- BatchNorm_46
I0716 07:52:02.811275 14264 net.cpp:442] Threshold_60 -> BatchNorm_46 (in-place)
I0716 07:52:02.811280 14264 net.cpp:190] Setting up Threshold_60
I0716 07:52:02.811285 14264 net.cpp:197] Top shape: 1 32 32 64 (65536)
I0716 07:52:02.811287 14264 net.cpp:205] Memory required for data: 193200132
I0716 07:52:02.811290 14264 layer_factory.hpp:123] Creating layer ConvNd_49
I0716 07:52:02.811296 14264 net.cpp:140] Creating Layer ConvNd_49
I0716 07:52:02.811300 14264 net.cpp:481] ConvNd_49 <- BatchNorm_46
I0716 07:52:02.811305 14264 net.cpp:455] ConvNd_49 -> ConvNd_49
I0716 07:52:02.811480 14264 net.cpp:190] Setting up ConvNd_49
I0716 07:52:02.811487 14264 net.cpp:197] Top shape: 1 32 32 64 (65536)
I0716 07:52:02.811491 14264 net.cpp:205] Memory required for data: 193462276
I0716 07:52:02.811494 14264 layer_factory.hpp:123] Creating layer BatchNorm_47
I0716 07:52:02.811501 14264 net.cpp:140] Creating Layer BatchNorm_47
I0716 07:52:02.811504 14264 net.cpp:481] BatchNorm_47 <- ConvNd_49
I0716 07:52:02.811509 14264 net.cpp:455] BatchNorm_47 -> BatchNorm_47
I0716 07:52:02.812113 14264 net.cpp:190] Setting up BatchNorm_47
I0716 07:52:02.812120 14264 net.cpp:197] Top shape: 1 32 32 64 (65536)
I0716 07:52:02.812124 14264 net.cpp:205] Memory required for data: 193724420
I0716 07:52:02.812131 14264 layer_factory.hpp:123] Creating layer Threshold_61
I0716 07:52:02.812136 14264 net.cpp:140] Creating Layer Threshold_61
I0716 07:52:02.812139 14264 net.cpp:481] Threshold_61 <- BatchNorm_47
I0716 07:52:02.812144 14264 net.cpp:442] Threshold_61 -> BatchNorm_47 (in-place)
I0716 07:52:02.812150 14264 net.cpp:190] Setting up Threshold_61
I0716 07:52:02.812153 14264 net.cpp:197] Top shape: 1 32 32 64 (65536)
I0716 07:52:02.812156 14264 net.cpp:205] Memory required for data: 193986564
I0716 07:52:02.812160 14264 layer_factory.hpp:123] Creating layer ConvNd_50
I0716 07:52:02.812165 14264 net.cpp:140] Creating Layer ConvNd_50
I0716 07:52:02.812168 14264 net.cpp:481] ConvNd_50 <- BatchNorm_47
I0716 07:52:02.812173 14264 net.cpp:455] ConvNd_50 -> ConvNd_50
I0716 07:52:02.812340 14264 net.cpp:190] Setting up ConvNd_50
I0716 07:52:02.812346 14264 net.cpp:197] Top shape: 1 128 32 64 (262144)
I0716 07:52:02.812350 14264 net.cpp:205] Memory required for data: 195035140
I0716 07:52:02.812355 14264 layer_factory.hpp:123] Creating layer BatchNorm_48
I0716 07:52:02.812361 14264 net.cpp:140] Creating Layer BatchNorm_48
I0716 07:52:02.812363 14264 net.cpp:481] BatchNorm_48 <- ConvNd_50
I0716 07:52:02.812368 14264 net.cpp:455] BatchNorm_48 -> BatchNorm_48
I0716 07:52:02.812887 14264 net.cpp:190] Setting up BatchNorm_48
I0716 07:52:02.812894 14264 net.cpp:197] Top shape: 1 128 32 64 (262144)
I0716 07:52:02.812897 14264 net.cpp:205] Memory required for data: 196083716
I0716 07:52:02.812904 14264 layer_factory.hpp:123] Creating layer Threshold_62
I0716 07:52:02.812909 14264 net.cpp:140] Creating Layer Threshold_62
I0716 07:52:02.812912 14264 net.cpp:481] Threshold_62 <- BatchNorm_48
I0716 07:52:02.812917 14264 net.cpp:442] Threshold_62 -> BatchNorm_48 (in-place)
I0716 07:52:02.812922 14264 net.cpp:190] Setting up Threshold_62
I0716 07:52:02.812927 14264 net.cpp:197] Top shape: 1 128 32 64 (262144)
I0716 07:52:02.812930 14264 net.cpp:205] Memory required for data: 197132292
I0716 07:52:02.812932 14264 layer_factory.hpp:123] Creating layer Add_15
I0716 07:52:02.812937 14264 net.cpp:140] Creating Layer Add_15
I0716 07:52:02.812940 14264 net.cpp:481] Add_15 <- Add_14_Threshold_59_0_split_1
I0716 07:52:02.812944 14264 net.cpp:481] Add_15 <- BatchNorm_48
I0716 07:52:02.812948 14264 net.cpp:455] Add_15 -> Add_15
I0716 07:52:02.812968 14264 net.cpp:190] Setting up Add_15
I0716 07:52:02.812973 14264 net.cpp:197] Top shape: 1 128 32 64 (262144)
I0716 07:52:02.812975 14264 net.cpp:205] Memory required for data: 198180868
I0716 07:52:02.812978 14264 layer_factory.hpp:123] Creating layer Threshold_63
I0716 07:52:02.812983 14264 net.cpp:140] Creating Layer Threshold_63
I0716 07:52:02.812985 14264 net.cpp:481] Threshold_63 <- Add_15
I0716 07:52:02.812990 14264 net.cpp:442] Threshold_63 -> Add_15 (in-place)
I0716 07:52:02.812995 14264 net.cpp:190] Setting up Threshold_63
I0716 07:52:02.812999 14264 net.cpp:197] Top shape: 1 128 32 64 (262144)
I0716 07:52:02.813002 14264 net.cpp:205] Memory required for data: 199229444
I0716 07:52:02.813004 14264 layer_factory.hpp:123] Creating layer Add_15_Threshold_63_0_split
I0716 07:52:02.813009 14264 net.cpp:140] Creating Layer Add_15_Threshold_63_0_split
I0716 07:52:02.813012 14264 net.cpp:481] Add_15_Threshold_63_0_split <- Add_15
I0716 07:52:02.813016 14264 net.cpp:455] Add_15_Threshold_63_0_split -> Add_15_Threshold_63_0_split_0
I0716 07:52:02.813022 14264 net.cpp:455] Add_15_Threshold_63_0_split -> Add_15_Threshold_63_0_split_1
I0716 07:52:02.813050 14264 net.cpp:190] Setting up Add_15_Threshold_63_0_split
I0716 07:52:02.813056 14264 net.cpp:197] Top shape: 1 128 32 64 (262144)
I0716 07:52:02.813060 14264 net.cpp:197] Top shape: 1 128 32 64 (262144)
I0716 07:52:02.813063 14264 net.cpp:205] Memory required for data: 201326596
I0716 07:52:02.813066 14264 layer_factory.hpp:123] Creating layer ConvNd_51
I0716 07:52:02.813072 14264 net.cpp:140] Creating Layer ConvNd_51
I0716 07:52:02.813076 14264 net.cpp:481] ConvNd_51 <- Add_15_Threshold_63_0_split_0
I0716 07:52:02.813081 14264 net.cpp:455] ConvNd_51 -> ConvNd_51
I0716 07:52:02.813246 14264 net.cpp:190] Setting up ConvNd_51
I0716 07:52:02.813254 14264 net.cpp:197] Top shape: 1 32 32 64 (65536)
I0716 07:52:02.813257 14264 net.cpp:205] Memory required for data: 201588740
I0716 07:52:02.813261 14264 layer_factory.hpp:123] Creating layer BatchNorm_49
I0716 07:52:02.813267 14264 net.cpp:140] Creating Layer BatchNorm_49
I0716 07:52:02.813271 14264 net.cpp:481] BatchNorm_49 <- ConvNd_51
I0716 07:52:02.813277 14264 net.cpp:455] BatchNorm_49 -> BatchNorm_49
I0716 07:52:02.813870 14264 net.cpp:190] Setting up BatchNorm_49
I0716 07:52:02.813877 14264 net.cpp:197] Top shape: 1 32 32 64 (65536)
I0716 07:52:02.813880 14264 net.cpp:205] Memory required for data: 201850884
I0716 07:52:02.813889 14264 layer_factory.hpp:123] Creating layer Threshold_64
I0716 07:52:02.813894 14264 net.cpp:140] Creating Layer Threshold_64
I0716 07:52:02.813897 14264 net.cpp:481] Threshold_64 <- BatchNorm_49
I0716 07:52:02.813901 14264 net.cpp:442] Threshold_64 -> BatchNorm_49 (in-place)
I0716 07:52:02.813907 14264 net.cpp:190] Setting up Threshold_64
I0716 07:52:02.813911 14264 net.cpp:197] Top shape: 1 32 32 64 (65536)
I0716 07:52:02.813915 14264 net.cpp:205] Memory required for data: 202113028
I0716 07:52:02.813916 14264 layer_factory.hpp:123] Creating layer ConvNd_52
I0716 07:52:02.813923 14264 net.cpp:140] Creating Layer ConvNd_52
I0716 07:52:02.813925 14264 net.cpp:481] ConvNd_52 <- BatchNorm_49
I0716 07:52:02.813930 14264 net.cpp:455] ConvNd_52 -> ConvNd_52
I0716 07:52:02.814101 14264 net.cpp:190] Setting up ConvNd_52
I0716 07:52:02.814108 14264 net.cpp:197] Top shape: 1 32 32 64 (65536)
I0716 07:52:02.814111 14264 net.cpp:205] Memory required for data: 202375172
I0716 07:52:02.814116 14264 layer_factory.hpp:123] Creating layer BatchNorm_50
I0716 07:52:02.814121 14264 net.cpp:140] Creating Layer BatchNorm_50
I0716 07:52:02.814126 14264 net.cpp:481] BatchNorm_50 <- ConvNd_52
I0716 07:52:02.814131 14264 net.cpp:455] BatchNorm_50 -> BatchNorm_50
I0716 07:52:02.814721 14264 net.cpp:190] Setting up BatchNorm_50
I0716 07:52:02.814728 14264 net.cpp:197] Top shape: 1 32 32 64 (65536)
I0716 07:52:02.814731 14264 net.cpp:205] Memory required for data: 202637316
I0716 07:52:02.814739 14264 layer_factory.hpp:123] Creating layer Threshold_65
I0716 07:52:02.814744 14264 net.cpp:140] Creating Layer Threshold_65
I0716 07:52:02.814747 14264 net.cpp:481] Threshold_65 <- BatchNorm_50
I0716 07:52:02.814752 14264 net.cpp:442] Threshold_65 -> BatchNorm_50 (in-place)
I0716 07:52:02.814757 14264 net.cpp:190] Setting up Threshold_65
I0716 07:52:02.814761 14264 net.cpp:197] Top shape: 1 32 32 64 (65536)
I0716 07:52:02.814764 14264 net.cpp:205] Memory required for data: 202899460
I0716 07:52:02.814767 14264 layer_factory.hpp:123] Creating layer ConvNd_53
I0716 07:52:02.814774 14264 net.cpp:140] Creating Layer ConvNd_53
I0716 07:52:02.814776 14264 net.cpp:481] ConvNd_53 <- BatchNorm_50
I0716 07:52:02.814780 14264 net.cpp:455] ConvNd_53 -> ConvNd_53
I0716 07:52:02.814949 14264 net.cpp:190] Setting up ConvNd_53
I0716 07:52:02.814955 14264 net.cpp:197] Top shape: 1 128 32 64 (262144)
I0716 07:52:02.814958 14264 net.cpp:205] Memory required for data: 203948036
I0716 07:52:02.814962 14264 layer_factory.hpp:123] Creating layer BatchNorm_51
I0716 07:52:02.814968 14264 net.cpp:140] Creating Layer BatchNorm_51
I0716 07:52:02.814972 14264 net.cpp:481] BatchNorm_51 <- ConvNd_53
I0716 07:52:02.814977 14264 net.cpp:455] BatchNorm_51 -> BatchNorm_51
I0716 07:52:02.815490 14264 net.cpp:190] Setting up BatchNorm_51
I0716 07:52:02.815497 14264 net.cpp:197] Top shape: 1 128 32 64 (262144)
I0716 07:52:02.815500 14264 net.cpp:205] Memory required for data: 204996612
I0716 07:52:02.815508 14264 layer_factory.hpp:123] Creating layer Threshold_66
I0716 07:52:02.815513 14264 net.cpp:140] Creating Layer Threshold_66
I0716 07:52:02.815517 14264 net.cpp:481] Threshold_66 <- BatchNorm_51
I0716 07:52:02.815521 14264 net.cpp:442] Threshold_66 -> BatchNorm_51 (in-place)
I0716 07:52:02.815527 14264 net.cpp:190] Setting up Threshold_66
I0716 07:52:02.815531 14264 net.cpp:197] Top shape: 1 128 32 64 (262144)
I0716 07:52:02.815534 14264 net.cpp:205] Memory required for data: 206045188
I0716 07:52:02.815537 14264 layer_factory.hpp:123] Creating layer Add_16
I0716 07:52:02.815541 14264 net.cpp:140] Creating Layer Add_16
I0716 07:52:02.815546 14264 net.cpp:481] Add_16 <- Add_15_Threshold_63_0_split_1
I0716 07:52:02.815549 14264 net.cpp:481] Add_16 <- BatchNorm_51
I0716 07:52:02.815553 14264 net.cpp:455] Add_16 -> Add_16
I0716 07:52:02.815573 14264 net.cpp:190] Setting up Add_16
I0716 07:52:02.815578 14264 net.cpp:197] Top shape: 1 128 32 64 (262144)
I0716 07:52:02.815582 14264 net.cpp:205] Memory required for data: 207093764
I0716 07:52:02.815583 14264 layer_factory.hpp:123] Creating layer Threshold_67
I0716 07:52:02.815588 14264 net.cpp:140] Creating Layer Threshold_67
I0716 07:52:02.815591 14264 net.cpp:481] Threshold_67 <- Add_16
I0716 07:52:02.815595 14264 net.cpp:442] Threshold_67 -> Add_16 (in-place)
I0716 07:52:02.815600 14264 net.cpp:190] Setting up Threshold_67
I0716 07:52:02.815604 14264 net.cpp:197] Top shape: 1 128 32 64 (262144)
I0716 07:52:02.815608 14264 net.cpp:205] Memory required for data: 208142340
I0716 07:52:02.815610 14264 layer_factory.hpp:123] Creating layer Add_16_Threshold_67_0_split
I0716 07:52:02.815615 14264 net.cpp:140] Creating Layer Add_16_Threshold_67_0_split
I0716 07:52:02.815618 14264 net.cpp:481] Add_16_Threshold_67_0_split <- Add_16
I0716 07:52:02.815623 14264 net.cpp:455] Add_16_Threshold_67_0_split -> Add_16_Threshold_67_0_split_0
I0716 07:52:02.815629 14264 net.cpp:455] Add_16_Threshold_67_0_split -> Add_16_Threshold_67_0_split_1
I0716 07:52:02.815656 14264 net.cpp:190] Setting up Add_16_Threshold_67_0_split
I0716 07:52:02.815660 14264 net.cpp:197] Top shape: 1 128 32 64 (262144)
I0716 07:52:02.815665 14264 net.cpp:197] Top shape: 1 128 32 64 (262144)
I0716 07:52:02.815667 14264 net.cpp:205] Memory required for data: 210239492
I0716 07:52:02.815670 14264 layer_factory.hpp:123] Creating layer ConvNd_54
I0716 07:52:02.815677 14264 net.cpp:140] Creating Layer ConvNd_54
I0716 07:52:02.815680 14264 net.cpp:481] ConvNd_54 <- Add_16_Threshold_67_0_split_0
I0716 07:52:02.815685 14264 net.cpp:455] ConvNd_54 -> ConvNd_54
I0716 07:52:02.815856 14264 net.cpp:190] Setting up ConvNd_54
I0716 07:52:02.815865 14264 net.cpp:197] Top shape: 1 32 32 64 (65536)
I0716 07:52:02.815867 14264 net.cpp:205] Memory required for data: 210501636
I0716 07:52:02.815872 14264 layer_factory.hpp:123] Creating layer BatchNorm_52
I0716 07:52:02.815878 14264 net.cpp:140] Creating Layer BatchNorm_52
I0716 07:52:02.815882 14264 net.cpp:481] BatchNorm_52 <- ConvNd_54
I0716 07:52:02.815887 14264 net.cpp:455] BatchNorm_52 -> BatchNorm_52
I0716 07:52:02.816483 14264 net.cpp:190] Setting up BatchNorm_52
I0716 07:52:02.816489 14264 net.cpp:197] Top shape: 1 32 32 64 (65536)
I0716 07:52:02.816493 14264 net.cpp:205] Memory required for data: 210763780
I0716 07:52:02.816500 14264 layer_factory.hpp:123] Creating layer Threshold_68
I0716 07:52:02.816506 14264 net.cpp:140] Creating Layer Threshold_68
I0716 07:52:02.816509 14264 net.cpp:481] Threshold_68 <- BatchNorm_52
I0716 07:52:02.816514 14264 net.cpp:442] Threshold_68 -> BatchNorm_52 (in-place)
I0716 07:52:02.816519 14264 net.cpp:190] Setting up Threshold_68
I0716 07:52:02.816524 14264 net.cpp:197] Top shape: 1 32 32 64 (65536)
I0716 07:52:02.816526 14264 net.cpp:205] Memory required for data: 211025924
I0716 07:52:02.816529 14264 layer_factory.hpp:123] Creating layer ConvNd_55
I0716 07:52:02.816534 14264 net.cpp:140] Creating Layer ConvNd_55
I0716 07:52:02.816537 14264 net.cpp:481] ConvNd_55 <- BatchNorm_52
I0716 07:52:02.816541 14264 net.cpp:455] ConvNd_55 -> ConvNd_55
I0716 07:52:02.816714 14264 net.cpp:190] Setting up ConvNd_55
I0716 07:52:02.816720 14264 net.cpp:197] Top shape: 1 32 32 64 (65536)
I0716 07:52:02.816725 14264 net.cpp:205] Memory required for data: 211288068
I0716 07:52:02.816728 14264 layer_factory.hpp:123] Creating layer BatchNorm_53
I0716 07:52:02.816735 14264 net.cpp:140] Creating Layer BatchNorm_53
I0716 07:52:02.816738 14264 net.cpp:481] BatchNorm_53 <- ConvNd_55
I0716 07:52:02.816743 14264 net.cpp:455] BatchNorm_53 -> BatchNorm_53
I0716 07:52:02.817332 14264 net.cpp:190] Setting up BatchNorm_53
I0716 07:52:02.817340 14264 net.cpp:197] Top shape: 1 32 32 64 (65536)
I0716 07:52:02.817343 14264 net.cpp:205] Memory required for data: 211550212
I0716 07:52:02.817351 14264 layer_factory.hpp:123] Creating layer Threshold_69
I0716 07:52:02.817356 14264 net.cpp:140] Creating Layer Threshold_69
I0716 07:52:02.817359 14264 net.cpp:481] Threshold_69 <- BatchNorm_53
I0716 07:52:02.817363 14264 net.cpp:442] Threshold_69 -> BatchNorm_53 (in-place)
I0716 07:52:02.817369 14264 net.cpp:190] Setting up Threshold_69
I0716 07:52:02.817373 14264 net.cpp:197] Top shape: 1 32 32 64 (65536)
I0716 07:52:02.817376 14264 net.cpp:205] Memory required for data: 211812356
I0716 07:52:02.817378 14264 layer_factory.hpp:123] Creating layer ConvNd_56
I0716 07:52:02.817384 14264 net.cpp:140] Creating Layer ConvNd_56
I0716 07:52:02.817387 14264 net.cpp:481] ConvNd_56 <- BatchNorm_53
I0716 07:52:02.817392 14264 net.cpp:455] ConvNd_56 -> ConvNd_56
I0716 07:52:02.817559 14264 net.cpp:190] Setting up ConvNd_56
I0716 07:52:02.817567 14264 net.cpp:197] Top shape: 1 32 32 64 (65536)
I0716 07:52:02.817570 14264 net.cpp:205] Memory required for data: 212074500
I0716 07:52:02.817574 14264 layer_factory.hpp:123] Creating layer BatchNorm_54
I0716 07:52:02.817581 14264 net.cpp:140] Creating Layer BatchNorm_54
I0716 07:52:02.817584 14264 net.cpp:481] BatchNorm_54 <- ConvNd_56
I0716 07:52:02.817589 14264 net.cpp:455] BatchNorm_54 -> BatchNorm_54
I0716 07:52:02.818187 14264 net.cpp:190] Setting up BatchNorm_54
I0716 07:52:02.818194 14264 net.cpp:197] Top shape: 1 32 32 64 (65536)
I0716 07:52:02.818198 14264 net.cpp:205] Memory required for data: 212336644
I0716 07:52:02.818205 14264 layer_factory.hpp:123] Creating layer Threshold_70
I0716 07:52:02.818210 14264 net.cpp:140] Creating Layer Threshold_70
I0716 07:52:02.818213 14264 net.cpp:481] Threshold_70 <- BatchNorm_54
I0716 07:52:02.818218 14264 net.cpp:442] Threshold_70 -> BatchNorm_54 (in-place)
I0716 07:52:02.818223 14264 net.cpp:190] Setting up Threshold_70
I0716 07:52:02.818228 14264 net.cpp:197] Top shape: 1 32 32 64 (65536)
I0716 07:52:02.818230 14264 net.cpp:205] Memory required for data: 212598788
I0716 07:52:02.818233 14264 layer_factory.hpp:123] Creating layer ConvNd_57
I0716 07:52:02.818239 14264 net.cpp:140] Creating Layer ConvNd_57
I0716 07:52:02.818241 14264 net.cpp:481] ConvNd_57 <- BatchNorm_54
I0716 07:52:02.818246 14264 net.cpp:455] ConvNd_57 -> ConvNd_57
I0716 07:52:02.818411 14264 net.cpp:190] Setting up ConvNd_57
I0716 07:52:02.818419 14264 net.cpp:197] Top shape: 1 128 32 64 (262144)
I0716 07:52:02.818423 14264 net.cpp:205] Memory required for data: 213647364
I0716 07:52:02.818426 14264 layer_factory.hpp:123] Creating layer BatchNorm_55
I0716 07:52:02.818433 14264 net.cpp:140] Creating Layer BatchNorm_55
I0716 07:52:02.818435 14264 net.cpp:481] BatchNorm_55 <- ConvNd_57
I0716 07:52:02.818440 14264 net.cpp:455] BatchNorm_55 -> BatchNorm_55
I0716 07:52:02.818959 14264 net.cpp:190] Setting up BatchNorm_55
I0716 07:52:02.818966 14264 net.cpp:197] Top shape: 1 128 32 64 (262144)
I0716 07:52:02.818969 14264 net.cpp:205] Memory required for data: 214695940
I0716 07:52:02.818977 14264 layer_factory.hpp:123] Creating layer Threshold_71
I0716 07:52:02.818981 14264 net.cpp:140] Creating Layer Threshold_71
I0716 07:52:02.818985 14264 net.cpp:481] Threshold_71 <- BatchNorm_55
I0716 07:52:02.818989 14264 net.cpp:442] Threshold_71 -> BatchNorm_55 (in-place)
I0716 07:52:02.818995 14264 net.cpp:190] Setting up Threshold_71
I0716 07:52:02.818998 14264 net.cpp:197] Top shape: 1 128 32 64 (262144)
I0716 07:52:02.819002 14264 net.cpp:205] Memory required for data: 215744516
I0716 07:52:02.819005 14264 layer_factory.hpp:123] Creating layer Add_17
I0716 07:52:02.819010 14264 net.cpp:140] Creating Layer Add_17
I0716 07:52:02.819013 14264 net.cpp:481] Add_17 <- Add_16_Threshold_67_0_split_1
I0716 07:52:02.819017 14264 net.cpp:481] Add_17 <- BatchNorm_55
I0716 07:52:02.819022 14264 net.cpp:455] Add_17 -> Add_17
I0716 07:52:02.819041 14264 net.cpp:190] Setting up Add_17
I0716 07:52:02.819046 14264 net.cpp:197] Top shape: 1 128 32 64 (262144)
I0716 07:52:02.819048 14264 net.cpp:205] Memory required for data: 216793092
I0716 07:52:02.819051 14264 layer_factory.hpp:123] Creating layer Threshold_72
I0716 07:52:02.819056 14264 net.cpp:140] Creating Layer Threshold_72
I0716 07:52:02.819058 14264 net.cpp:481] Threshold_72 <- Add_17
I0716 07:52:02.819062 14264 net.cpp:442] Threshold_72 -> Add_17 (in-place)
I0716 07:52:02.819067 14264 net.cpp:190] Setting up Threshold_72
I0716 07:52:02.819072 14264 net.cpp:197] Top shape: 1 128 32 64 (262144)
I0716 07:52:02.819074 14264 net.cpp:205] Memory required for data: 217841668
I0716 07:52:02.819077 14264 layer_factory.hpp:123] Creating layer Add_17_Threshold_72_0_split
I0716 07:52:02.819082 14264 net.cpp:140] Creating Layer Add_17_Threshold_72_0_split
I0716 07:52:02.819084 14264 net.cpp:481] Add_17_Threshold_72_0_split <- Add_17
I0716 07:52:02.819088 14264 net.cpp:455] Add_17_Threshold_72_0_split -> Add_17_Threshold_72_0_split_0
I0716 07:52:02.819095 14264 net.cpp:455] Add_17_Threshold_72_0_split -> Add_17_Threshold_72_0_split_1
I0716 07:52:02.819123 14264 net.cpp:190] Setting up Add_17_Threshold_72_0_split
I0716 07:52:02.819129 14264 net.cpp:197] Top shape: 1 128 32 64 (262144)
I0716 07:52:02.819133 14264 net.cpp:197] Top shape: 1 128 32 64 (262144)
I0716 07:52:02.819136 14264 net.cpp:205] Memory required for data: 219938820
I0716 07:52:02.819139 14264 layer_factory.hpp:123] Creating layer ConvNd_58
I0716 07:52:02.819144 14264 net.cpp:140] Creating Layer ConvNd_58
I0716 07:52:02.819147 14264 net.cpp:481] ConvNd_58 <- Add_17_Threshold_72_0_split_0
I0716 07:52:02.819154 14264 net.cpp:455] ConvNd_58 -> ConvNd_58
I0716 07:52:02.819317 14264 net.cpp:190] Setting up ConvNd_58
I0716 07:52:02.819324 14264 net.cpp:197] Top shape: 1 32 32 64 (65536)
I0716 07:52:02.819327 14264 net.cpp:205] Memory required for data: 220200964
I0716 07:52:02.819331 14264 layer_factory.hpp:123] Creating layer BatchNorm_56
I0716 07:52:02.819337 14264 net.cpp:140] Creating Layer BatchNorm_56
I0716 07:52:02.819341 14264 net.cpp:481] BatchNorm_56 <- ConvNd_58
I0716 07:52:02.819346 14264 net.cpp:455] BatchNorm_56 -> BatchNorm_56
I0716 07:52:02.819957 14264 net.cpp:190] Setting up BatchNorm_56
I0716 07:52:02.819964 14264 net.cpp:197] Top shape: 1 32 32 64 (65536)
I0716 07:52:02.819967 14264 net.cpp:205] Memory required for data: 220463108
I0716 07:52:02.819975 14264 layer_factory.hpp:123] Creating layer Threshold_73
I0716 07:52:02.819981 14264 net.cpp:140] Creating Layer Threshold_73
I0716 07:52:02.819984 14264 net.cpp:481] Threshold_73 <- BatchNorm_56
I0716 07:52:02.819988 14264 net.cpp:442] Threshold_73 -> BatchNorm_56 (in-place)
I0716 07:52:02.819994 14264 net.cpp:190] Setting up Threshold_73
I0716 07:52:02.819998 14264 net.cpp:197] Top shape: 1 32 32 64 (65536)
I0716 07:52:02.820001 14264 net.cpp:205] Memory required for data: 220725252
I0716 07:52:02.820004 14264 layer_factory.hpp:123] Creating layer ConvNd_59
…
I0716 07:52:03.077050 14264 net.cpp:205] Memory required for data: 290455556
I0716 07:52:03.077054 14264 layer_factory.hpp:123] Creating layer Add_21_Add_21_fixed_0_split
I0716 07:52:03.077059 14264 net.cpp:140] Creating Layer Add_21_Add_21_fixed_0_split
I0716 07:52:03.077062 14264 net.cpp:481] Add_21_Add_21_fixed_0_split <- Add_21
I0716 07:52:03.077066 14264 net.cpp:455] Add_21_Add_21_fixed_0_split -> Add_21_Add_21_fixed_0_split_0
I0716 07:52:03.077073 14264 net.cpp:455] Add_21_Add_21_fixed_0_split -> Add_21_Add_21_fixed_0_split_1
I0716 07:52:03.077102 14264 net.cpp:190] Setting up Add_21_Add_21_fixed_0_split
I0716 07:52:03.077108 14264 net.cpp:197] Top shape: 1 128 32 64 (262144)
I0716 07:52:03.077112 14264 net.cpp:197] Top shape: 1 128 32 64 (262144)
I0716 07:52:03.077116 14264 net.cpp:205] Memory required for data: 292552708
I0716 07:52:03.077118 14264 layer_factory.hpp:123] Creating layer ConvNd_71
I0716 07:52:03.077126 14264 net.cpp:140] Creating Layer ConvNd_71
I0716 07:52:03.077128 14264 net.cpp:481] ConvNd_71 <- Add_21_Add_21_fixed_0_split_0
I0716 07:52:03.077133 14264 net.cpp:455] ConvNd_71 -> BatchNorm_69
I0716 07:52:03.077288 14264 layer_factory.hpp:123] Creating layer ConvNd_71
I0716 07:52:03.077555 14264 net.cpp:190] Setting up ConvNd_71
I0716 07:52:03.077563 14264 net.cpp:197] Top shape: 1 32 32 64 (65536)
I0716 07:52:03.077565 14264 net.cpp:205] Memory required for data: 292814852
I0716 07:52:03.077571 14264 layer_factory.hpp:123] Creating layer Threshold_90
I0716 07:52:03.077575 14264 net.cpp:140] Creating Layer Threshold_90
I0716 07:52:03.077579 14264 net.cpp:481] Threshold_90 <- BatchNorm_69
I0716 07:52:03.077584 14264 net.cpp:442] Threshold_90 -> BatchNorm_69 (in-place)
I0716 07:52:03.077589 14264 net.cpp:190] Setting up Threshold_90
I0716 07:52:03.077594 14264 net.cpp:197] Top shape: 1 32 32 64 (65536)
I0716 07:52:03.077596 14264 net.cpp:205] Memory required for data: 293076996
I0716 07:52:03.077600 14264 layer_factory.hpp:123] Creating layer BatchNorm_69_fixed
I0716 07:52:03.077605 14264 net.cpp:140] Creating Layer BatchNorm_69_fixed
I0716 07:52:03.077607 14264 net.cpp:481] BatchNorm_69_fixed <- BatchNorm_69
I0716 07:52:03.077611 14264 net.cpp:442] BatchNorm_69_fixed -> BatchNorm_69 (in-place)
I0716 07:52:03.077639 14264 net.cpp:190] Setting up BatchNorm_69_fixed
I0716 07:52:03.077646 14264 net.cpp:197] Top shape: 1 32 32 64 (65536)
I0716 07:52:03.077649 14264 net.cpp:205] Memory required for data: 293339140
I0716 07:52:03.077652 14264 layer_factory.hpp:123] Creating layer ConvNd_72
I0716 07:52:03.077658 14264 net.cpp:140] Creating Layer ConvNd_72
I0716 07:52:03.077662 14264 net.cpp:481] ConvNd_72 <- BatchNorm_69
I0716 07:52:03.077666 14264 net.cpp:455] ConvNd_72 -> BatchNorm_70
I0716 07:52:03.077827 14264 layer_factory.hpp:123] Creating layer ConvNd_72
I0716 07:52:03.078102 14264 net.cpp:190] Setting up ConvNd_72
I0716 07:52:03.078109 14264 net.cpp:197] Top shape: 1 32 32 64 (65536)
I0716 07:52:03.078112 14264 net.cpp:205] Memory required for data: 293601284
I0716 07:52:03.078117 14264 layer_factory.hpp:123] Creating layer Threshold_91
I0716 07:52:03.078122 14264 net.cpp:140] Creating Layer Threshold_91
I0716 07:52:03.078125 14264 net.cpp:481] Threshold_91 <- BatchNorm_70
I0716 07:52:03.078130 14264 net.cpp:442] Threshold_91 -> BatchNorm_70 (in-place)
I0716 07:52:03.078135 14264 net.cpp:190] Setting up Threshold_91
I0716 07:52:03.078140 14264 net.cpp:197] Top shape: 1 32 32 64 (65536)
I0716 07:52:03.078142 14264 net.cpp:205] Memory required for data: 293863428
I0716 07:52:03.078145 14264 layer_factory.hpp:123] Creating layer BatchNorm_70_fixed
I0716 07:52:03.078150 14264 net.cpp:140] Creating Layer BatchNorm_70_fixed
I0716 07:52:03.078152 14264 net.cpp:481] BatchNorm_70_fixed <- BatchNorm_70
I0716 07:52:03.078156 14264 net.cpp:442] BatchNorm_70_fixed -> BatchNorm_70 (in-place)
I0716 07:52:03.078186 14264 net.cpp:190] Setting up BatchNorm_70_fixed
I0716 07:52:03.078192 14264 net.cpp:197] Top shape: 1 32 32 64 (65536)
I0716 07:52:03.078195 14264 net.cpp:205] Memory required for data: 294125572
I0716 07:52:03.078198 14264 layer_factory.hpp:123] Creating layer ConvNd_73
I0716 07:52:03.078204 14264 net.cpp:140] Creating Layer ConvNd_73
I0716 07:52:03.078207 14264 net.cpp:481] ConvNd_73 <- BatchNorm_70
I0716 07:52:03.078212 14264 net.cpp:455] ConvNd_73 -> BatchNorm_71
I0716 07:52:03.078361 14264 layer_factory.hpp:123] Creating layer ConvNd_73
I0716 07:52:03.078614 14264 net.cpp:190] Setting up ConvNd_73
I0716 07:52:03.078621 14264 net.cpp:197] Top shape: 1 128 32 64 (262144)
I0716 07:52:03.078624 14264 net.cpp:205] Memory required for data: 295174148
I0716 07:52:03.078629 14264 layer_factory.hpp:123] Creating layer Threshold_92
I0716 07:52:03.078634 14264 net.cpp:140] Creating Layer Threshold_92
I0716 07:52:03.078637 14264 net.cpp:481] Threshold_92 <- BatchNorm_71
I0716 07:52:03.078641 14264 net.cpp:442] Threshold_92 -> BatchNorm_71 (in-place)
I0716 07:52:03.078647 14264 net.cpp:190] Setting up Threshold_92
I0716 07:52:03.078650 14264 net.cpp:197] Top shape: 1 128 32 64 (262144)
I0716 07:52:03.078653 14264 net.cpp:205] Memory required for data: 296222724
I0716 07:52:03.078656 14264 layer_factory.hpp:123] Creating layer BatchNorm_71_fixed
I0716 07:52:03.078661 14264 net.cpp:140] Creating Layer BatchNorm_71_fixed
I0716 07:52:03.078665 14264 net.cpp:481] BatchNorm_71_fixed <- BatchNorm_71
I0716 07:52:03.078668 14264 net.cpp:442] BatchNorm_71_fixed -> BatchNorm_71 (in-place)
I0716 07:52:03.078697 14264 net.cpp:190] Setting up BatchNorm_71_fixed
I0716 07:52:03.078703 14264 net.cpp:197] Top shape: 1 128 32 64 (262144)
I0716 07:52:03.078706 14264 net.cpp:205] Memory required for data: 297271300
I0716 07:52:03.078709 14264 layer_factory.hpp:123] Creating layer Add_22
I0716 07:52:03.078714 14264 net.cpp:140] Creating Layer Add_22
I0716 07:52:03.078718 14264 net.cpp:481] Add_22 <- Add_21_Add_21_fixed_0_split_1
I0716 07:52:03.078722 14264 net.cpp:481] Add_22 <- BatchNorm_71
I0716 07:52:03.078727 14264 net.cpp:455] Add_22 -> Add_22
I0716 07:52:03.078744 14264 net.cpp:190] Setting up Add_22
I0716 07:52:03.078750 14264 net.cpp:197] Top shape: 1 128 32 64 (262144)
I0716 07:52:03.078753 14264 net.cpp:205] Memory required for data: 298319876
I0716 07:52:03.078757 14264 layer_factory.hpp:123] Creating layer Threshold_93
I0716 07:52:03.078760 14264 net.cpp:140] Creating Layer Threshold_93
I0716 07:52:03.078764 14264 net.cpp:481] Threshold_93 <- Add_22
I0716 07:52:03.078768 14264 net.cpp:442] Threshold_93 -> Add_22 (in-place)
I0716 07:52:03.078773 14264 net.cpp:190] Setting up Threshold_93
I0716 07:52:03.078776 14264 net.cpp:197] Top shape: 1 128 32 64 (262144)
I0716 07:52:03.078779 14264 net.cpp:205] Memory required for data: 299368452
I0716 07:52:03.078783 14264 layer_factory.hpp:123] Creating layer Add_22_fixed
I0716 07:52:03.078786 14264 net.cpp:140] Creating Layer Add_22_fixed
I0716 07:52:03.078789 14264 net.cpp:481] Add_22_fixed <- Add_22
I0716 07:52:03.078794 14264 net.cpp:442] Add_22_fixed -> Add_22 (in-place)
I0716 07:52:03.078821 14264 net.cpp:190] Setting up Add_22_fixed
I0716 07:52:03.078827 14264 net.cpp:197] Top shape: 1 128 32 64 (262144)
I0716 07:52:03.078830 14264 net.cpp:205] Memory required for data: 300417028
I0716 07:52:03.078835 14264 layer_factory.hpp:123] Creating layer Add_22_Add_22_fixed_0_split
I0716 07:52:03.078838 14264 net.cpp:140] Creating Layer Add_22_Add_22_fixed_0_split
I0716 07:52:03.078841 14264 net.cpp:481] Add_22_Add_22_fixed_0_split <- Add_22
I0716 07:52:03.078846 14264 net.cpp:455] Add_22_Add_22_fixed_0_split -> Add_22_Add_22_fixed_0_split_0
I0716 07:52:03.078853 14264 net.cpp:455] Add_22_Add_22_fixed_0_split -> Add_22_Add_22_fixed_0_split_1
I0716 07:52:03.078882 14264 net.cpp:190] Setting up Add_22_Add_22_fixed_0_split
I0716 07:52:03.078888 14264 net.cpp:197] Top shape: 1 128 32 64 (262144)
I0716 07:52:03.078892 14264 net.cpp:197] Top shape: 1 128 32 64 (262144)
I0716 07:52:03.078894 14264 net.cpp:205] Memory required for data: 302514180
I0716 07:52:03.078897 14264 layer_factory.hpp:123] Creating layer ConvNd_74
I0716 07:52:03.078904 14264 net.cpp:140] Creating Layer ConvNd_74
I0716 07:52:03.078907 14264 net.cpp:481] ConvNd_74 <- Add_22_Add_22_fixed_0_split_0
I0716 07:52:03.078913 14264 net.cpp:455] ConvNd_74 -> BatchNorm_72
I0716 07:52:03.079078 14264 layer_factory.hpp:123] Creating layer ConvNd_74
I0716 07:52:03.079349 14264 net.cpp:190] Setting up ConvNd_74
I0716 07:52:03.079355 14264 net.cpp:197] Top shape: 1 64 32 64 (131072)
I0716 07:52:03.079358 14264 net.cpp:205] Memory required for data: 303038468
I0716 07:52:03.079363 14264 layer_factory.hpp:123] Creating layer BatchNorm_72_fixed
I0716 07:52:03.079368 14264 net.cpp:140] Creating Layer BatchNorm_72_fixed
I0716 07:52:03.079371 14264 net.cpp:481] BatchNorm_72_fixed <- BatchNorm_72
I0716 07:52:03.079376 14264 net.cpp:442] BatchNorm_72_fixed -> BatchNorm_72 (in-place)
I0716 07:52:03.079406 14264 net.cpp:190] Setting up BatchNorm_72_fixed
I0716 07:52:03.079411 14264 net.cpp:197] Top shape: 1 64 32 64 (131072)
I0716 07:52:03.079413 14264 net.cpp:205] Memory required for data: 303562756
I0716 07:52:03.079417 14264 layer_factory.hpp:123] Creating layer UpsamplingBilinear2d_1
I0716 07:52:03.079423 14264 net.cpp:140] Creating Layer UpsamplingBilinear2d_1
I0716 07:52:03.079427 14264 net.cpp:481] UpsamplingBilinear2d_1 <- BatchNorm_72
I0716 07:52:03.079432 14264 net.cpp:455] UpsamplingBilinear2d_1 -> UpsamplingBilinear2d_1
I0716 07:52:03.079602 14264 layer_factory.hpp:123] Creating layer UpsamplingBilinear2d_1
I0716 07:52:03.079852 14264 net.cpp:190] Setting up UpsamplingBilinear2d_1
I0716 07:52:03.079860 14264 net.cpp:197] Top shape: 1 64 64 128 (524288)
I0716 07:52:03.079864 14264 net.cpp:205] Memory required for data: 305659908
I0716 07:52:03.079867 14264 layer_factory.hpp:123] Creating layer UpsamplingBilinear2d_1_fixed
I0716 07:52:03.079874 14264 net.cpp:140] Creating Layer UpsamplingBilinear2d_1_fixed
I0716 07:52:03.079876 14264 net.cpp:481] UpsamplingBilinear2d_1_fixed <- UpsamplingBilinear2d_1
I0716 07:52:03.079881 14264 net.cpp:442] UpsamplingBilinear2d_1_fixed -> UpsamplingBilinear2d_1 (in-place)
I0716 07:52:03.079912 14264 net.cpp:190] Setting up UpsamplingBilinear2d_1_fixed
I0716 07:52:03.079918 14264 net.cpp:197] Top shape: 1 64 64 128 (524288)
I0716 07:52:03.079921 14264 net.cpp:205] Memory required for data: 307757060
I0716 07:52:03.079926 14264 layer_factory.hpp:123] Creating layer ConvNd_75
I0716 07:52:03.079933 14264 net.cpp:140] Creating Layer ConvNd_75
I0716 07:52:03.079936 14264 net.cpp:481] ConvNd_75 <- Add_22_Add_22_fixed_0_split_1
I0716 07:52:03.079942 14264 net.cpp:455] ConvNd_75 -> BatchNorm_73
I0716 07:52:03.080097 14264 layer_factory.hpp:123] Creating layer ConvNd_75
I0716 07:52:03.080366 14264 net.cpp:190] Setting up ConvNd_75
I0716 07:52:03.080374 14264 net.cpp:197] Top shape: 1 32 32 64 (65536)
I0716 07:52:03.080377 14264 net.cpp:205] Memory required for data: 308019204
I0716 07:52:03.080382 14264 layer_factory.hpp:123] Creating layer Threshold_94
I0716 07:52:03.080387 14264 net.cpp:140] Creating Layer Threshold_94
I0716 07:52:03.080390 14264 net.cpp:481] Threshold_94 <- BatchNorm_73
I0716 07:52:03.080394 14264 net.cpp:442] Threshold_94 -> BatchNorm_73 (in-place)
I0716 07:52:03.080401 14264 net.cpp:190] Setting up Threshold_94
I0716 07:52:03.080405 14264 net.cpp:197] Top shape: 1 32 32 64 (65536)
I0716 07:52:03.080407 14264 net.cpp:205] Memory required for data: 308281348
I0716 07:52:03.080410 14264 layer_factory.hpp:123] Creating layer BatchNorm_73_fixed
I0716 07:52:03.080415 14264 net.cpp:140] Creating Layer BatchNorm_73_fixed
I0716 07:52:03.080418 14264 net.cpp:481] BatchNorm_73_fixed <- BatchNorm_73
I0716 07:52:03.080422 14264 net.cpp:442] BatchNorm_73_fixed -> BatchNorm_73 (in-place)
I0716 07:52:03.080451 14264 net.cpp:190] Setting up BatchNorm_73_fixed
I0716 07:52:03.080457 14264 net.cpp:197] Top shape: 1 32 32 64 (65536)
I0716 07:52:03.080461 14264 net.cpp:205] Memory required for data: 308543492
I0716 07:52:03.080464 14264 layer_factory.hpp:123] Creating layer ConvNd_76
I0716 07:52:03.080471 14264 net.cpp:140] Creating Layer ConvNd_76
I0716 07:52:03.080473 14264 net.cpp:481] ConvNd_76 <- BatchNorm_73
I0716 07:52:03.080478 14264 net.cpp:455] ConvNd_76 -> BatchNorm_74
I0716 07:52:03.080628 14264 layer_factory.hpp:123] Creating layer ConvNd_76
I0716 07:52:03.081722 14264 net.cpp:190] Setting up ConvNd_76
I0716 07:52:03.081733 14264 net.cpp:197] Top shape: 1 32 64 128 (262144)
I0716 07:52:03.081737 14264 net.cpp:205] Memory required for data: 309592068
I0716 07:52:03.081743 14264 layer_factory.hpp:123] Creating layer Threshold_95
I0716 07:52:03.081748 14264 net.cpp:140] Creating Layer Threshold_95
I0716 07:52:03.081753 14264 net.cpp:481] Threshold_95 <- BatchNorm_74
I0716 07:52:03.081758 14264 net.cpp:442] Threshold_95 -> BatchNorm_74 (in-place)
I0716 07:52:03.081764 14264 net.cpp:190] Setting up Threshold_95
I0716 07:52:03.081768 14264 net.cpp:197] Top shape: 1 32 64 128 (262144)
I0716 07:52:03.081770 14264 net.cpp:205] Memory required for data: 310640644
I0716 07:52:03.081773 14264 layer_factory.hpp:123] Creating layer BatchNorm_74_fixed
I0716 07:52:03.081779 14264 net.cpp:140] Creating Layer BatchNorm_74_fixed
I0716 07:52:03.081781 14264 net.cpp:481] BatchNorm_74_fixed <- BatchNorm_74
I0716 07:52:03.081785 14264 net.cpp:442] BatchNorm_74_fixed -> BatchNorm_74 (in-place)
I0716 07:52:03.081817 14264 net.cpp:190] Setting up BatchNorm_74_fixed
I0716 07:52:03.081825 14264 net.cpp:197] Top shape: 1 32 64 128 (262144)
I0716 07:52:03.081826 14264 net.cpp:205] Memory required for data: 311689220
I0716 07:52:03.081830 14264 layer_factory.hpp:123] Creating layer ConvNd_77
I0716 07:52:03.081837 14264 net.cpp:140] Creating Layer ConvNd_77
I0716 07:52:03.081840 14264 net.cpp:481] ConvNd_77 <- BatchNorm_74
I0716 07:52:03.081846 14264 net.cpp:455] ConvNd_77 -> BatchNorm_75
I0716 07:52:03.082005 14264 layer_factory.hpp:123] Creating layer ConvNd_77
I0716 07:52:03.082280 14264 net.cpp:190] Setting up ConvNd_77
I0716 07:52:03.082288 14264 net.cpp:197] Top shape: 1 64 64 128 (524288)
I0716 07:52:03.082291 14264 net.cpp:205] Memory required for data: 313786372
I0716 07:52:03.082296 14264 layer_factory.hpp:123] Creating layer Threshold_96
I0716 07:52:03.082301 14264 net.cpp:140] Creating Layer Threshold_96
I0716 07:52:03.082305 14264 net.cpp:481] Threshold_96 <- BatchNorm_75
I0716 07:52:03.082309 14264 net.cpp:442] Threshold_96 -> BatchNorm_75 (in-place)
I0716 07:52:03.082315 14264 net.cpp:190] Setting up Threshold_96
I0716 07:52:03.082319 14264 net.cpp:197] Top shape: 1 64 64 128 (524288)
I0716 07:52:03.082321 14264 net.cpp:205] Memory required for data: 315883524
I0716 07:52:03.082324 14264 layer_factory.hpp:123] Creating layer BatchNorm_75_fixed
I0716 07:52:03.082329 14264 net.cpp:140] Creating Layer BatchNorm_75_fixed
I0716 07:52:03.082332 14264 net.cpp:481] BatchNorm_75_fixed <- BatchNorm_75
I0716 07:52:03.082337 14264 net.cpp:442] BatchNorm_75_fixed -> BatchNorm_75 (in-place)
I0716 07:52:03.082366 14264 net.cpp:190] Setting up BatchNorm_75_fixed
I0716 07:52:03.082372 14264 net.cpp:197] Top shape: 1 64 64 128 (524288)
I0716 07:52:03.082376 14264 net.cpp:205] Memory required for data: 317980676
I0716 07:52:03.082379 14264 layer_factory.hpp:123] Creating layer Add_23
I0716 07:52:03.082384 14264 net.cpp:140] Creating Layer Add_23
I0716 07:52:03.082387 14264 net.cpp:481] Add_23 <- UpsamplingBilinear2d_1
I0716 07:52:03.082392 14264 net.cpp:481] Add_23 <- BatchNorm_75
I0716 07:52:03.082397 14264 net.cpp:455] Add_23 -> Add_23
I0716 07:52:03.082417 14264 net.cpp:190] Setting up Add_23
I0716 07:52:03.082422 14264 net.cpp:197] Top shape: 1 64 64 128 (524288)
I0716 07:52:03.082425 14264 net.cpp:205] Memory required for data: 320077828
I0716 07:52:03.082428 14264 layer_factory.hpp:123] Creating layer Threshold_97
I0716 07:52:03.082432 14264 net.cpp:140] Creating Layer Threshold_97
I0716 07:52:03.082435 14264 net.cpp:481] Threshold_97 <- Add_23
I0716 07:52:03.082440 14264 net.cpp:442] Threshold_97 -> Add_23 (in-place)
I0716 07:52:03.082445 14264 net.cpp:190] Setting up Threshold_97
I0716 07:52:03.082448 14264 net.cpp:197] Top shape: 1 64 64 128 (524288)
I0716 07:52:03.082451 14264 net.cpp:205] Memory required for data: 322174980
I0716 07:52:03.082454 14264 layer_factory.hpp:123] Creating layer Add_23_fixed
I0716 07:52:03.082458 14264 net.cpp:140] Creating Layer Add_23_fixed
I0716 07:52:03.082461 14264 net.cpp:481] Add_23_fixed <- Add_23
I0716 07:52:03.082465 14264 net.cpp:442] Add_23_fixed -> Add_23 (in-place)
I0716 07:52:03.082496 14264 net.cpp:190] Setting up Add_23_fixed
I0716 07:52:03.082501 14264 net.cpp:197] Top shape: 1 64 64 128 (524288)
I0716 07:52:03.082504 14264 net.cpp:205] Memory required for data: 324272132
I0716 07:52:03.082518 14264 layer_factory.hpp:123] Creating layer Add_23_Add_23_fixed_0_split
I0716 07:52:03.082523 14264 net.cpp:140] Creating Layer Add_23_Add_23_fixed_0_split
I0716 07:52:03.082526 14264 net.cpp:481] Add_23_Add_23_fixed_0_split <- Add_23
I0716 07:52:03.082531 14264 net.cpp:455] Add_23_Add_23_fixed_0_split -> Add_23_Add_23_fixed_0_split_0
I0716 07:52:03.082537 14264 net.cpp:455] Add_23_Add_23_fixed_0_split -> Add_23_Add_23_fixed_0_split_1
I0716 07:52:03.082568 14264 net.cpp:190] Setting up Add_23_Add_23_fixed_0_split
I0716 07:52:03.082574 14264 net.cpp:197] Top shape: 1 64 64 128 (524288)
I0716 07:52:03.082578 14264 net.cpp:197] Top shape: 1 64 64 128 (524288)
I0716 07:52:03.082581 14264 net.cpp:205] Memory required for data: 328466436
I0716 07:52:03.082583 14264 layer_factory.hpp:123] Creating layer ConvNd_78
I0716 07:52:03.082592 14264 net.cpp:140] Creating Layer ConvNd_78
I0716 07:52:03.082594 14264 net.cpp:481] ConvNd_78 <- Add_23_Add_23_fixed_0_split_0
I0716 07:52:03.082600 14264 net.cpp:455] ConvNd_78 -> BatchNorm_76
I0716 07:52:03.082769 14264 layer_factory.hpp:123] Creating layer ConvNd_78
I0716 07:52:03.083053 14264 net.cpp:190] Setting up ConvNd_78
I0716 07:52:03.083061 14264 net.cpp:197] Top shape: 1 16 64 128 (131072)
I0716 07:52:03.083065 14264 net.cpp:205] Memory required for data: 328990724
I0716 07:52:03.083070 14264 layer_factory.hpp:123] Creating layer Threshold_98
I0716 07:52:03.083075 14264 net.cpp:140] Creating Layer Threshold_98
I0716 07:52:03.083077 14264 net.cpp:481] Threshold_98 <- BatchNorm_76
I0716 07:52:03.083082 14264 net.cpp:442] Threshold_98 -> BatchNorm_76 (in-place)
I0716 07:52:03.083088 14264 net.cpp:190] Setting up Threshold_98
I0716 07:52:03.083092 14264 net.cpp:197] Top shape: 1 16 64 128 (131072)
I0716 07:52:03.083094 14264 net.cpp:205] Memory required for data: 329515012
I0716 07:52:03.083097 14264 layer_factory.hpp:123] Creating layer BatchNorm_76_fixed
I0716 07:52:03.083102 14264 net.cpp:140] Creating Layer BatchNorm_76_fixed
I0716 07:52:03.083106 14264 net.cpp:481] BatchNorm_76_fixed <- BatchNorm_76
I0716 07:52:03.083109 14264 net.cpp:442] BatchNorm_76_fixed -> BatchNorm_76 (in-place)
I0716 07:52:03.083138 14264 net.cpp:190] Setting up BatchNorm_76_fixed
I0716 07:52:03.083144 14264 net.cpp:197] Top shape: 1 16 64 128 (131072)
I0716 07:52:03.083148 14264 net.cpp:205] Memory required for data: 330039300
I0716 07:52:03.083151 14264 layer_factory.hpp:123] Creating layer ConvNd_79
I0716 07:52:03.083158 14264 net.cpp:140] Creating Layer ConvNd_79
I0716 07:52:03.083161 14264 net.cpp:481] ConvNd_79 <- BatchNorm_76
I0716 07:52:03.083166 14264 net.cpp:455] ConvNd_79 -> BatchNorm_77
I0716 07:52:03.083320 14264 layer_factory.hpp:123] Creating layer ConvNd_79
I0716 07:52:03.083597 14264 net.cpp:190] Setting up ConvNd_79
I0716 07:52:03.083606 14264 net.cpp:197] Top shape: 1 16 64 128 (131072)
I0716 07:52:03.083608 14264 net.cpp:205] Memory required for data: 330563588
I0716 07:52:03.083613 14264 layer_factory.hpp:123] Creating layer Threshold_99
I0716 07:52:03.083618 14264 net.cpp:140] Creating Layer Threshold_99
I0716 07:52:03.083621 14264 net.cpp:481] Threshold_99 <- BatchNorm_77
I0716 07:52:03.083626 14264 net.cpp:442] Threshold_99 -> BatchNorm_77 (in-place)
I0716 07:52:03.083631 14264 net.cpp:190] Setting up Threshold_99
I0716 07:52:03.083636 14264 net.cpp:197] Top shape: 1 16 64 128 (131072)
I0716 07:52:03.083638 14264 net.cpp:205] Memory required for data: 331087876
I0716 07:52:03.083642 14264 layer_factory.hpp:123] Creating layer BatchNorm_77_fixed
I0716 07:52:03.083647 14264 net.cpp:140] Creating Layer BatchNorm_77_fixed
I0716 07:52:03.083649 14264 net.cpp:481] BatchNorm_77_fixed <- BatchNorm_77
I0716 07:52:03.083653 14264 net.cpp:442] BatchNorm_77_fixed -> BatchNorm_77 (in-place)
I0716 07:52:03.083683 14264 net.cpp:190] Setting up BatchNorm_77_fixed
I0716 07:52:03.083689 14264 net.cpp:197] Top shape: 1 16 64 128 (131072)
I0716 07:52:03.083693 14264 net.cpp:205] Memory required for data: 331612164
I0716 07:52:03.083696 14264 layer_factory.hpp:123] Creating layer ConvNd_80
I0716 07:52:03.083703 14264 net.cpp:140] Creating Layer ConvNd_80
I0716 07:52:03.083705 14264 net.cpp:481] ConvNd_80 <- BatchNorm_77
I0716 07:52:03.083710 14264 net.cpp:455] ConvNd_80 -> BatchNorm_78
I0716 07:52:03.083876 14264 layer_factory.hpp:123] Creating layer ConvNd_80
I0716 07:52:03.084157 14264 net.cpp:190] Setting up ConvNd_80
I0716 07:52:03.084165 14264 net.cpp:197] Top shape: 1 64 64 128 (524288)
I0716 07:52:03.084168 14264 net.cpp:205] Memory required for data: 333709316
I0716 07:52:03.084173 14264 layer_factory.hpp:123] Creating layer Threshold_100
I0716 07:52:03.084178 14264 net.cpp:140] Creating Layer Threshold_100
I0716 07:52:03.084182 14264 net.cpp:481] Threshold_100 <- BatchNorm_78
I0716 07:52:03.084185 14264 net.cpp:442] Threshold_100 -> BatchNorm_78 (in-place)
I0716 07:52:03.084192 14264 net.cpp:190] Setting up Threshold_100
I0716 07:52:03.084195 14264 net.cpp:197] Top shape: 1 64 64 128 (524288)
I0716 07:52:03.084198 14264 net.cpp:205] Memory required for data: 335806468
I0716 07:52:03.084200 14264 layer_factory.hpp:123] Creating layer BatchNorm_78_fixed
I0716 07:52:03.084205 14264 net.cpp:140] Creating Layer BatchNorm_78_fixed
I0716 07:52:03.084208 14264 net.cpp:481] BatchNorm_78_fixed <- BatchNorm_78
I0716 07:52:03.084213 14264 net.cpp:442] BatchNorm_78_fixed -> BatchNorm_78 (in-place)
I0716 07:52:03.084242 14264 net.cpp:190] Setting up BatchNorm_78_fixed
I0716 07:52:03.084249 14264 net.cpp:197] Top shape: 1 64 64 128 (524288)
I0716 07:52:03.084251 14264 net.cpp:205] Memory required for data: 337903620
I0716 07:52:03.084255 14264 layer_factory.hpp:123] Creating layer Add_24
I0716 07:52:03.084260 14264 net.cpp:140] Creating Layer Add_24
I0716 07:52:03.084264 14264 net.cpp:481] Add_24 <- Add_23_Add_23_fixed_0_split_1
I0716 07:52:03.084267 14264 net.cpp:481] Add_24 <- BatchNorm_78
I0716 07:52:03.084272 14264 net.cpp:455] Add_24 -> Add_24
I0716 07:52:03.084291 14264 net.cpp:190] Setting up Add_24
I0716 07:52:03.084297 14264 net.cpp:197] Top shape: 1 64 64 128 (524288)
I0716 07:52:03.084301 14264 net.cpp:205] Memory required for data: 340000772
I0716 07:52:03.084303 14264 layer_factory.hpp:123] Creating layer Threshold_101
I0716 07:52:03.084308 14264 net.cpp:140] Creating Layer Threshold_101
I0716 07:52:03.084311 14264 net.cpp:481] Threshold_101 <- Add_24
I0716 07:52:03.084316 14264 net.cpp:442] Threshold_101 -> Add_24 (in-place)
I0716 07:52:03.084321 14264 net.cpp:190] Setting up Threshold_101
I0716 07:52:03.084324 14264 net.cpp:197] Top shape: 1 64 64 128 (524288)
I0716 07:52:03.084327 14264 net.cpp:205] Memory required for data: 342097924
I0716 07:52:03.084331 14264 layer_factory.hpp:123] Creating layer Add_24_fixed
I0716 07:52:03.084334 14264 net.cpp:140] Creating Layer Add_24_fixed
I0716 07:52:03.084337 14264 net.cpp:481] Add_24_fixed <- Add_24
I0716 07:52:03.084342 14264 net.cpp:442] Add_24_fixed -> Add_24 (in-place)
I0716 07:52:03.084372 14264 net.cpp:190] Setting up Add_24_fixed
I0716 07:52:03.084378 14264 net.cpp:197] Top shape: 1 64 64 128 (524288)
I0716 07:52:03.084380 14264 net.cpp:205] Memory required for data: 344195076
I0716 07:52:03.084384 14264 layer_factory.hpp:123] Creating layer Add_24_Add_24_fixed_0_split
I0716 07:52:03.084390 14264 net.cpp:140] Creating Layer Add_24_Add_24_fixed_0_split
I0716 07:52:03.084393 14264 net.cpp:481] Add_24_Add_24_fixed_0_split <- Add_24
I0716 07:52:03.084398 14264 net.cpp:455] Add_24_Add_24_fixed_0_split -> Add_24_Add_24_fixed_0_split_0
I0716 07:52:03.084404 14264 net.cpp:455] Add_24_Add_24_fixed_0_split -> Add_24_Add_24_fixed_0_split_1
I0716 07:52:03.084434 14264 net.cpp:190] Setting up Add_24_Add_24_fixed_0_split
I0716 07:52:03.084439 14264 net.cpp:197] Top shape: 1 64 64 128 (524288)
I0716 07:52:03.084444 14264 net.cpp:197] Top shape: 1 64 64 128 (524288)
I0716 07:52:03.084446 14264 net.cpp:205] Memory required for data: 348389380
I0716 07:52:03.084448 14264 layer_factory.hpp:123] Creating layer ConvNd_81
I0716 07:52:03.084455 14264 net.cpp:140] Creating Layer ConvNd_81
I0716 07:52:03.084458 14264 net.cpp:481] ConvNd_81 <- Add_24_Add_24_fixed_0_split_0
I0716 07:52:03.084465 14264 net.cpp:455] ConvNd_81 -> BatchNorm_79
I0716 07:52:03.084621 14264 layer_factory.hpp:123] Creating layer ConvNd_81
I0716 07:52:03.084902 14264 net.cpp:190] Setting up ConvNd_81
I0716 07:52:03.084909 14264 net.cpp:197] Top shape: 1 16 64 128 (131072)
I0716 07:52:03.084913 14264 net.cpp:205] Memory required for data: 348913668
I0716 07:52:03.084918 14264 layer_factory.hpp:123] Creating layer Threshold_102
I0716 07:52:03.084923 14264 net.cpp:140] Creating Layer Threshold_102
I0716 07:52:03.084925 14264 net.cpp:481] Threshold_102 <- BatchNorm_79
I0716 07:52:03.084930 14264 net.cpp:442] Threshold_102 -> BatchNorm_79 (in-place)
I0716 07:52:03.084936 14264 net.cpp:190] Setting up Threshold_102
I0716 07:52:03.084939 14264 net.cpp:197] Top shape: 1 16 64 128 (131072)
I0716 07:52:03.084942 14264 net.cpp:205] Memory required for data: 349437956
I0716 07:52:03.084945 14264 layer_factory.hpp:123] Creating layer BatchNorm_79_fixed
I0716 07:52:03.084950 14264 net.cpp:140] Creating Layer BatchNorm_79_fixed
I0716 07:52:03.084954 14264 net.cpp:481] BatchNorm_79_fixed <- BatchNorm_79
I0716 07:52:03.084957 14264 net.cpp:442] BatchNorm_79_fixed -> BatchNorm_79 (in-place)
I0716 07:52:03.084988 14264 net.cpp:190] Setting up BatchNorm_79_fixed
I0716 07:52:03.084995 14264 net.cpp:197] Top shape: 1 16 64 128 (131072)
I0716 07:52:03.084997 14264 net.cpp:205] Memory required for data: 349962244
I0716 07:52:03.085000 14264 layer_factory.hpp:123] Creating layer ConvNd_82
I0716 07:52:03.085007 14264 net.cpp:140] Creating Layer ConvNd_82
I0716 07:52:03.085011 14264 net.cpp:481] ConvNd_82 <- BatchNorm_79
I0716 07:52:03.085016 14264 net.cpp:455] ConvNd_82 -> BatchNorm_80
I0716 07:52:03.085170 14264 layer_factory.hpp:123] Creating layer ConvNd_82
I0716 07:52:03.085444 14264 net.cpp:190] Setting up ConvNd_82
I0716 07:52:03.085453 14264 net.cpp:197] Top shape: 1 16 64 128 (131072)
I0716 07:52:03.085455 14264 net.cpp:205] Memory required for data: 350486532
I0716 07:52:03.085460 14264 layer_factory.hpp:123] Creating layer Threshold_103
I0716 07:52:03.085465 14264 net.cpp:140] Creating Layer Threshold_103
I0716 07:52:03.085469 14264 net.cpp:481] Threshold_103 <- BatchNorm_80
I0716 07:52:03.085472 14264 net.cpp:442] Threshold_103 -> BatchNorm_80 (in-place)
I0716 07:52:03.085479 14264 net.cpp:190] Setting up Threshold_103
I0716 07:52:03.085482 14264 net.cpp:197] Top shape: 1 16 64 128 (131072)
I0716 07:52:03.085485 14264 net.cpp:205] Memory required for data: 351010820
I0716 07:52:03.085487 14264 layer_factory.hpp:123] Creating layer BatchNorm_80_fixed
I0716 07:52:03.085492 14264 net.cpp:140] Creating Layer BatchNorm_80_fixed
I0716 07:52:03.085496 14264 net.cpp:481] BatchNorm_80_fixed <- BatchNorm_80
I0716 07:52:03.085500 14264 net.cpp:442] BatchNorm_80_fixed -> BatchNorm_80 (in-place)
I0716 07:52:03.085528 14264 net.cpp:190] Setting up BatchNorm_80_fixed
I0716 07:52:03.085534 14264 net.cpp:197] Top shape: 1 16 64 128 (131072)
I0716 07:52:03.085537 14264 net.cpp:205] Memory required for data: 351535108
I0716 07:52:03.085541 14264 layer_factory.hpp:123] Creating layer ConvNd_83
I0716 07:52:03.085547 14264 net.cpp:140] Creating Layer ConvNd_83
I0716 07:52:03.085551 14264 net.cpp:481] ConvNd_83 <- BatchNorm_80
I0716 07:52:03.085556 14264 net.cpp:455] ConvNd_83 -> BatchNorm_81
I0716 07:52:03.085711 14264 layer_factory.hpp:123] Creating layer ConvNd_83
I0716 07:52:03.085989 14264 net.cpp:190] Setting up ConvNd_83
I0716 07:52:03.085997 14264 net.cpp:197] Top shape: 1 64 64 128 (524288)
I0716 07:52:03.086000 14264 net.cpp:205] Memory required for data: 353632260
I0716 07:52:03.086005 14264 layer_factory.hpp:123] Creating layer Threshold_104
I0716 07:52:03.086010 14264 net.cpp:140] Creating Layer Threshold_104
I0716 07:52:03.086014 14264 net.cpp:481] Threshold_104 <- BatchNorm_81
I0716 07:52:03.086019 14264 net.cpp:442] Threshold_104 -> BatchNorm_81 (in-place)
I0716 07:52:03.086024 14264 net.cpp:190] Setting up Threshold_104
I0716 07:52:03.086027 14264 net.cpp:197] Top shape: 1 64 64 128 (524288)
I0716 07:52:03.086030 14264 net.cpp:205] Memory required for data: 355729412
I0716 07:52:03.086033 14264 layer_factory.hpp:123] Creating layer BatchNorm_81_fixed
I0716 07:52:03.086038 14264 net.cpp:140] Creating Layer BatchNorm_81_fixed
I0716 07:52:03.086040 14264 net.cpp:481] BatchNorm_81_fixed <- BatchNorm_81
I0716 07:52:03.086045 14264 net.cpp:442] BatchNorm_81_fixed -> BatchNorm_81 (in-place)
I0716 07:52:03.086076 14264 net.cpp:190] Setting up BatchNorm_81_fixed
I0716 07:52:03.086081 14264 net.cpp:197] Top shape: 1 64 64 128 (524288)
I0716 07:52:03.086084 14264 net.cpp:205] Memory required for data: 357826564
I0716 07:52:03.086088 14264 layer_factory.hpp:123] Creating layer Add_25
I0716 07:52:03.086093 14264 net.cpp:140] Creating Layer Add_25
I0716 07:52:03.086097 14264 net.cpp:481] Add_25 <- Add_24_Add_24_fixed_0_split_1
I0716 07:52:03.086100 14264 net.cpp:481] Add_25 <- BatchNorm_81
I0716 07:52:03.086105 14264 net.cpp:455] Add_25 -> Add_25
I0716 07:52:03.086124 14264 net.cpp:190] Setting up Add_25
I0716 07:52:03.086130 14264 net.cpp:197] Top shape: 1 64 64 128 (524288)
I0716 07:52:03.086133 14264 net.cpp:205] Memory required for data: 359923716
I0716 07:52:03.086136 14264 layer_factory.hpp:123] Creating layer Threshold_105
I0716 07:52:03.086140 14264 net.cpp:140] Creating Layer Threshold_105
I0716 07:52:03.086143 14264 net.cpp:481] Threshold_105 <- Add_25
I0716 07:52:03.086148 14264 net.cpp:442] Threshold_105 -> Add_25 (in-place)
I0716 07:52:03.086153 14264 net.cpp:190] Setting up Threshold_105
I0716 07:52:03.086156 14264 net.cpp:197] Top shape: 1 64 64 128 (524288)
I0716 07:52:03.086159 14264 net.cpp:205] Memory required for data: 362020868
I0716 07:52:03.086161 14264 layer_factory.hpp:123] Creating layer Add_25_fixed
I0716 07:52:03.086166 14264 net.cpp:140] Creating Layer Add_25_fixed
I0716 07:52:03.086169 14264 net.cpp:481] Add_25_fixed <- Add_25
I0716 07:52:03.086174 14264 net.cpp:442] Add_25_fixed -> Add_25 (in-place)
I0716 07:52:03.086202 14264 net.cpp:190] Setting up Add_25_fixed
I0716 07:52:03.086208 14264 net.cpp:197] Top shape: 1 64 64 128 (524288)
I0716 07:52:03.086211 14264 net.cpp:205] Memory required for data: 364118020
I0716 07:52:03.086215 14264 layer_factory.hpp:123] Creating layer Add_25_Add_25_fixed_0_split
I0716 07:52:03.086220 14264 net.cpp:140] Creating Layer Add_25_Add_25_fixed_0_split
I0716 07:52:03.086223 14264 net.cpp:481] Add_25_Add_25_fixed_0_split <- Add_25
I0716 07:52:03.086228 14264 net.cpp:455] Add_25_Add_25_fixed_0_split -> Add_25_Add_25_fixed_0_split_0
I0716 07:52:03.086235 14264 net.cpp:455] Add_25_Add_25_fixed_0_split -> Add_25_Add_25_fixed_0_split_1
I0716 07:52:03.086263 14264 net.cpp:190] Setting up Add_25_Add_25_fixed_0_split
I0716 07:52:03.086269 14264 net.cpp:197] Top shape: 1 64 64 128 (524288)
I0716 07:52:03.086274 14264 net.cpp:197] Top shape: 1 64 64 128 (524288)
I0716 07:52:03.086277 14264 net.cpp:205] Memory required for data: 368312324
I0716 07:52:03.086279 14264 layer_factory.hpp:123] Creating layer ConvNd_84
I0716 07:52:03.086287 14264 net.cpp:140] Creating Layer ConvNd_84
I0716 07:52:03.086289 14264 net.cpp:481] ConvNd_84 <- Add_25_Add_25_fixed_0_split_0
I0716 07:52:03.086294 14264 net.cpp:455] ConvNd_84 -> BatchNorm_82
I0716 07:52:03.086452 14264 layer_factory.hpp:123] Creating layer ConvNd_84
I0716 07:52:03.086730 14264 net.cpp:190] Setting up ConvNd_84
I0716 07:52:03.086736 14264 net.cpp:197] Top shape: 1 16 64 128 (131072)
I0716 07:52:03.086740 14264 net.cpp:205] Memory required for data: 368836612
I0716 07:52:03.086745 14264 layer_factory.hpp:123] Creating layer BatchNorm_82_fixed
I0716 07:52:03.086750 14264 net.cpp:140] Creating Layer BatchNorm_82_fixed
I0716 07:52:03.086753 14264 net.cpp:481] BatchNorm_82_fixed <- BatchNorm_82
I0716 07:52:03.086758 14264 net.cpp:442] BatchNorm_82_fixed -> BatchNorm_82 (in-place)
I0716 07:52:03.086787 14264 net.cpp:190] Setting up BatchNorm_82_fixed
I0716 07:52:03.086793 14264 net.cpp:197] Top shape: 1 16 64 128 (131072)
I0716 07:52:03.086797 14264 net.cpp:205] Memory required for data: 369360900
I0716 07:52:03.086800 14264 layer_factory.hpp:123] Creating layer UpsamplingBilinear2d_2
I0716 07:52:03.086807 14264 net.cpp:140] Creating Layer UpsamplingBilinear2d_2
I0716 07:52:03.086810 14264 net.cpp:481] UpsamplingBilinear2d_2 <- BatchNorm_82
I0716 07:52:03.086817 14264 net.cpp:455] UpsamplingBilinear2d_2 -> UpsamplingBilinear2d_2
I0716 07:52:03.086946 14264 layer_factory.hpp:123] Creating layer UpsamplingBilinear2d_2
I0716 07:52:03.087139 14264 net.cpp:190] Setting up UpsamplingBilinear2d_2
I0716 07:52:03.087146 14264 net.cpp:197] Top shape: 1 16 128 256 (524288)
I0716 07:52:03.087149 14264 net.cpp:205] Memory required for data: 371458052
I0716 07:52:03.087153 14264 layer_factory.hpp:123] Creating layer UpsamplingBilinear2d_2_fixed
I0716 07:52:03.087158 14264 net.cpp:140] Creating Layer UpsamplingBilinear2d_2_fixed
I0716 07:52:03.087162 14264 net.cpp:481] UpsamplingBilinear2d_2_fixed <- UpsamplingBilinear2d_2
I0716 07:52:03.087167 14264 net.cpp:442] UpsamplingBilinear2d_2_fixed -> UpsamplingBilinear2d_2 (in-place)
I0716 07:52:03.087198 14264 net.cpp:190] Setting up UpsamplingBilinear2d_2_fixed
I0716 07:52:03.087203 14264 net.cpp:197] Top shape: 1 16 128 256 (524288)
I0716 07:52:03.087204 14264 net.cpp:205] Memory required for data: 373555204
I0716 07:52:03.087208 14264 layer_factory.hpp:123] Creating layer ConvNd_85
I0716 07:52:03.087215 14264 net.cpp:140] Creating Layer ConvNd_85
I0716 07:52:03.087218 14264 net.cpp:481] ConvNd_85 <- Add_25_Add_25_fixed_0_split_1
I0716 07:52:03.087224 14264 net.cpp:455] ConvNd_85 -> BatchNorm_83
I0716 07:52:03.087381 14264 layer_factory.hpp:123] Creating layer ConvNd_85
I0716 07:52:03.087657 14264 net.cpp:190] Setting up ConvNd_85
I0716 07:52:03.087663 14264 net.cpp:197] Top shape: 1 16 64 128 (131072)
I0716 07:52:03.087666 14264 net.cpp:205] Memory required for data: 374079492
I0716 07:52:03.087671 14264 layer_factory.hpp:123] Creating layer Threshold_106
I0716 07:52:03.087676 14264 net.cpp:140] Creating Layer Threshold_106
I0716 07:52:03.087678 14264 net.cpp:481] Threshold_106 <- BatchNorm_83
I0716 07:52:03.087683 14264 net.cpp:442] Threshold_106 -> BatchNorm_83 (in-place)
I0716 07:52:03.087689 14264 net.cpp:190] Setting up Threshold_106
I0716 07:52:03.087692 14264 net.cpp:197] Top shape: 1 16 64 128 (131072)
I0716 07:52:03.087695 14264 net.cpp:205] Memory required for data: 374603780
I0716 07:52:03.087698 14264 layer_factory.hpp:123] Creating layer BatchNorm_83_fixed
I0716 07:52:03.087702 14264 net.cpp:140] Creating Layer BatchNorm_83_fixed
I0716 07:52:03.087705 14264 net.cpp:481] BatchNorm_83_fixed <- BatchNorm_83
I0716 07:52:03.087709 14264 net.cpp:442] BatchNorm_83_fixed -> BatchNorm_83 (in-place)
I0716 07:52:03.087738 14264 net.cpp:190] Setting up BatchNorm_83_fixed
I0716 07:52:03.087743 14264 net.cpp:197] Top shape: 1 16 64 128 (131072)
I0716 07:52:03.087744 14264 net.cpp:205] Memory required for data: 375128068
I0716 07:52:03.087749 14264 layer_factory.hpp:123] Creating layer ConvNd_86
I0716 07:52:03.087759 14264 net.cpp:140] Creating Layer ConvNd_86
I0716 07:52:03.087762 14264 net.cpp:481] ConvNd_86 <- BatchNorm_83
I0716 07:52:03.087767 14264 net.cpp:455] ConvNd_86 -> BatchNorm_84
I0716 07:52:03.087920 14264 layer_factory.hpp:123] Creating layer ConvNd_86
I0716 07:52:03.088243 14264 net.cpp:190] Setting up ConvNd_86
I0716 07:52:03.088248 14264 net.cpp:197] Top shape: 1 16 128 256 (524288)
I0716 07:52:03.088251 14264 net.cpp:205] Memory required for data: 377225220
I0716 07:52:03.088256 14264 layer_factory.hpp:123] Creating layer Threshold_107
I0716 07:52:03.088261 14264 net.cpp:140] Creating Layer Threshold_107
I0716 07:52:03.088264 14264 net.cpp:481] Threshold_107 <- BatchNorm_84
I0716 07:52:03.088268 14264 net.cpp:442] Threshold_107 -> BatchNorm_84 (in-place)
I0716 07:52:03.088274 14264 net.cpp:190] Setting up Threshold_107
I0716 07:52:03.088277 14264 net.cpp:197] Top shape: 1 16 128 256 (524288)
I0716 07:52:03.088280 14264 net.cpp:205] Memory required for data: 379322372
I0716 07:52:03.088284 14264 layer_factory.hpp:123] Creating layer BatchNorm_84_fixed
I0716 07:52:03.088289 14264 net.cpp:140] Creating Layer BatchNorm_84_fixed
I0716 07:52:03.088291 14264 net.cpp:481] BatchNorm_84_fixed <- BatchNorm_84
I0716 07:52:03.088295 14264 net.cpp:442] BatchNorm_84_fixed -> BatchNorm_84 (in-place)
I0716 07:52:03.088327 14264 net.cpp:190] Setting up BatchNorm_84_fixed
I0716 07:52:03.088332 14264 net.cpp:197] Top shape: 1 16 128 256 (524288)
I0716 07:52:03.088335 14264 net.cpp:205] Memory required for data: 381419524
I0716 07:52:03.088338 14264 layer_factory.hpp:123] Creating layer ConvNd_87
I0716 07:52:03.088344 14264 net.cpp:140] Creating Layer ConvNd_87
I0716 07:52:03.088347 14264 net.cpp:481] ConvNd_87 <- BatchNorm_84
I0716 07:52:03.088354 14264 net.cpp:455] ConvNd_87 -> BatchNorm_85
I0716 07:52:03.088506 14264 layer_factory.hpp:123] Creating layer ConvNd_87
I0716 07:52:03.088811 14264 net.cpp:190] Setting up ConvNd_87
I0716 07:52:03.088817 14264 net.cpp:197] Top shape: 1 16 128 256 (524288)
I0716 07:52:03.088820 14264 net.cpp:205] Memory required for data: 383516676
I0716 07:52:03.088825 14264 layer_factory.hpp:123] Creating layer Threshold_108
I0716 07:52:03.088829 14264 net.cpp:140] Creating Layer Threshold_108
I0716 07:52:03.088832 14264 net.cpp:481] Threshold_108 <- BatchNorm_85
I0716 07:52:03.088836 14264 net.cpp:442] Threshold_108 -> BatchNorm_85 (in-place)
I0716 07:52:03.088842 14264 net.cpp:190] Setting up Threshold_108
I0716 07:52:03.088846 14264 net.cpp:197] Top shape: 1 16 128 256 (524288)
I0716 07:52:03.088850 14264 net.cpp:205] Memory required for data: 385613828
I0716 07:52:03.088851 14264 layer_factory.hpp:123] Creating layer BatchNorm_85_fixed
I0716 07:52:03.088856 14264 net.cpp:140] Creating Layer BatchNorm_85_fixed
I0716 07:52:03.088860 14264 net.cpp:481] BatchNorm_85_fixed <- BatchNorm_85
I0716 07:52:03.088863 14264 net.cpp:442] BatchNorm_85_fixed -> BatchNorm_85 (in-place)
I0716 07:52:03.088893 14264 net.cpp:190] Setting up BatchNorm_85_fixed
I0716 07:52:03.088897 14264 net.cpp:197] Top shape: 1 16 128 256 (524288)
I0716 07:52:03.088901 14264 net.cpp:205] Memory required for data: 387710980
I0716 07:52:03.088904 14264 layer_factory.hpp:123] Creating layer Add_26
I0716 07:52:03.088908 14264 net.cpp:140] Creating Layer Add_26
I0716 07:52:03.088912 14264 net.cpp:481] Add_26 <- UpsamplingBilinear2d_2
I0716 07:52:03.088915 14264 net.cpp:481] Add_26 <- BatchNorm_85
I0716 07:52:03.088920 14264 net.cpp:455] Add_26 -> Add_26
I0716 07:52:03.088938 14264 net.cpp:190] Setting up Add_26
I0716 07:52:03.088943 14264 net.cpp:197] Top shape: 1 16 128 256 (524288)
I0716 07:52:03.088945 14264 net.cpp:205] Memory required for data: 389808132
I0716 07:52:03.088948 14264 layer_factory.hpp:123] Creating layer Threshold_109
I0716 07:52:03.088953 14264 net.cpp:140] Creating Layer Threshold_109
I0716 07:52:03.088955 14264 net.cpp:481] Threshold_109 <- Add_26
I0716 07:52:03.088959 14264 net.cpp:442] Threshold_109 -> Add_26 (in-place)
I0716 07:52:03.088964 14264 net.cpp:190] Setting up Threshold_109
I0716 07:52:03.088968 14264 net.cpp:197] Top shape: 1 16 128 256 (524288)
I0716 07:52:03.088970 14264 net.cpp:205] Memory required for data: 391905284
I0716 07:52:03.088973 14264 layer_factory.hpp:123] Creating layer Add_26_fixed
I0716 07:52:03.088977 14264 net.cpp:140] Creating Layer Add_26_fixed
I0716 07:52:03.088980 14264 net.cpp:481] Add_26_fixed <- Add_26
I0716 07:52:03.088984 14264 net.cpp:442] Add_26_fixed -> Add_26 (in-place)
I0716 07:52:03.089012 14264 net.cpp:190] Setting up Add_26_fixed
I0716 07:52:03.089016 14264 net.cpp:197] Top shape: 1 16 128 256 (524288)
I0716 07:52:03.089020 14264 net.cpp:205] Memory required for data: 394002436
I0716 07:52:03.089023 14264 layer_factory.hpp:123] Creating layer Add_26_Add_26_fixed_0_split
I0716 07:52:03.089027 14264 net.cpp:140] Creating Layer Add_26_Add_26_fixed_0_split
I0716 07:52:03.089030 14264 net.cpp:481] Add_26_Add_26_fixed_0_split <- Add_26
I0716 07:52:03.089035 14264 net.cpp:455] Add_26_Add_26_fixed_0_split -> Add_26_Add_26_fixed_0_split_0
I0716 07:52:03.089041 14264 net.cpp:455] Add_26_Add_26_fixed_0_split -> Add_26_Add_26_fixed_0_split_1
I0716 07:52:03.089071 14264 net.cpp:190] Setting up Add_26_Add_26_fixed_0_split
I0716 07:52:03.089074 14264 net.cpp:197] Top shape: 1 16 128 256 (524288)
I0716 07:52:03.089078 14264 net.cpp:197] Top shape: 1 16 128 256 (524288)
I0716 07:52:03.089082 14264 net.cpp:205] Memory required for data: 398196740
I0716 07:52:03.089083 14264 layer_factory.hpp:123] Creating layer ConvNd_88
I0716 07:52:03.089089 14264 net.cpp:140] Creating Layer ConvNd_88
I0716 07:52:03.089093 14264 net.cpp:481] ConvNd_88 <- Add_26_Add_26_fixed_0_split_0
I0716 07:52:03.089098 14264 net.cpp:455] ConvNd_88 -> BatchNorm_86
I0716 07:52:03.089251 14264 layer_factory.hpp:123] Creating layer ConvNd_88
I0716 07:52:03.090348 14264 net.cpp:190] Setting up ConvNd_88
I0716 07:52:03.090358 14264 net.cpp:197] Top shape: 1 4 128 256 (131072)
I0716 07:52:03.090361 14264 net.cpp:205] Memory required for data: 398721028
I0716 07:52:03.090368 14264 layer_factory.hpp:123] Creating layer Threshold_110
I0716 07:52:03.090373 14264 net.cpp:140] Creating Layer Threshold_110
I0716 07:52:03.090376 14264 net.cpp:481] Threshold_110 <- BatchNorm_86
I0716 07:52:03.090381 14264 net.cpp:442] Threshold_110 -> BatchNorm_86 (in-place)
I0716 07:52:03.090389 14264 net.cpp:190] Setting up Threshold_110
I0716 07:52:03.090391 14264 net.cpp:197] Top shape: 1 4 128 256 (131072)
I0716 07:52:03.090394 14264 net.cpp:205] Memory required for data: 399245316
I0716 07:52:03.090397 14264 layer_factory.hpp:123] Creating layer BatchNorm_86_fixed
I0716 07:52:03.090402 14264 net.cpp:140] Creating Layer BatchNorm_86_fixed
I0716 07:52:03.090405 14264 net.cpp:481] BatchNorm_86_fixed <- BatchNorm_86
I0716 07:52:03.090409 14264 net.cpp:442] BatchNorm_86_fixed -> BatchNorm_86 (in-place)
I0716 07:52:03.090447 14264 net.cpp:190] Setting up BatchNorm_86_fixed
I0716 07:52:03.090451 14264 net.cpp:197] Top shape: 1 4 128 256 (131072)
I0716 07:52:03.090454 14264 net.cpp:205] Memory required for data: 399769604
I0716 07:52:03.090457 14264 layer_factory.hpp:123] Creating layer ConvNd_89
I0716 07:52:03.090464 14264 net.cpp:140] Creating Layer ConvNd_89
I0716 07:52:03.090467 14264 net.cpp:481] ConvNd_89 <- BatchNorm_86
I0716 07:52:03.090472 14264 net.cpp:455] ConvNd_89 -> BatchNorm_87
I0716 07:52:03.090633 14264 layer_factory.hpp:123] Creating layer ConvNd_89
I0716 07:52:03.090936 14264 net.cpp:190] Setting up ConvNd_89
I0716 07:52:03.090942 14264 net.cpp:197] Top shape: 1 4 128 256 (131072)
I0716 07:52:03.090945 14264 net.cpp:205] Memory required for data: 400293892
I0716 07:52:03.090950 14264 layer_factory.hpp:123] Creating layer Threshold_111
I0716 07:52:03.090955 14264 net.cpp:140] Creating Layer Threshold_111
I0716 07:52:03.090958 14264 net.cpp:481] Threshold_111 <- BatchNorm_87
I0716 07:52:03.090962 14264 net.cpp:442] Threshold_111 -> BatchNorm_87 (in-place)
I0716 07:52:03.090968 14264 net.cpp:190] Setting up Threshold_111
I0716 07:52:03.090972 14264 net.cpp:197] Top shape: 1 4 128 256 (131072)
I0716 07:52:03.090975 14264 net.cpp:205] Memory required for data: 400818180
I0716 07:52:03.090977 14264 layer_factory.hpp:123] Creating layer BatchNorm_87_fixed
I0716 07:52:03.090982 14264 net.cpp:140] Creating Layer BatchNorm_87_fixed
I0716 07:52:03.090986 14264 net.cpp:481] BatchNorm_87_fixed <- BatchNorm_87
I0716 07:52:03.090989 14264 net.cpp:442] BatchNorm_87_fixed -> BatchNorm_87 (in-place)
I0716 07:52:03.091019 14264 net.cpp:190] Setting up BatchNorm_87_fixed
I0716 07:52:03.091023 14264 net.cpp:197] Top shape: 1 4 128 256 (131072)
I0716 07:52:03.091027 14264 net.cpp:205] Memory required for data: 401342468
I0716 07:52:03.091030 14264 layer_factory.hpp:123] Creating layer ConvNd_90
I0716 07:52:03.091037 14264 net.cpp:140] Creating Layer ConvNd_90
I0716 07:52:03.091039 14264 net.cpp:481] ConvNd_90 <- BatchNorm_87
I0716 07:52:03.091045 14264 net.cpp:455] ConvNd_90 -> BatchNorm_88
I0716 07:52:03.091202 14264 layer_factory.hpp:123] Creating layer ConvNd_90
I0716 07:52:03.091507 14264 net.cpp:190] Setting up ConvNd_90
I0716 07:52:03.091513 14264 net.cpp:197] Top shape: 1 16 128 256 (524288)
I0716 07:52:03.091516 14264 net.cpp:205] Memory required for data: 403439620
I0716 07:52:03.091521 14264 layer_factory.hpp:123] Creating layer Threshold_112
I0716 07:52:03.091526 14264 net.cpp:140] Creating Layer Threshold_112
I0716 07:52:03.091529 14264 net.cpp:481] Threshold_112 <- BatchNorm_88
I0716 07:52:03.091533 14264 net.cpp:442] Threshold_112 -> BatchNorm_88 (in-place)
I0716 07:52:03.091539 14264 net.cpp:190] Setting up Threshold_112
I0716 07:52:03.091543 14264 net.cpp:197] Top shape: 1 16 128 256 (524288)
I0716 07:52:03.091545 14264 net.cpp:205] Memory required for data: 405536772
I0716 07:52:03.091549 14264 layer_factory.hpp:123] Creating layer BatchNorm_88_fixed
I0716 07:52:03.091553 14264 net.cpp:140] Creating Layer BatchNorm_88_fixed
I0716 07:52:03.091557 14264 net.cpp:481] BatchNorm_88_fixed <- BatchNorm_88
I0716 07:52:03.091560 14264 net.cpp:442] BatchNorm_88_fixed -> BatchNorm_88 (in-place)
I0716 07:52:03.091591 14264 net.cpp:190] Setting up BatchNorm_88_fixed
I0716 07:52:03.091595 14264 net.cpp:197] Top shape: 1 16 128 256 (524288)
I0716 07:52:03.091598 14264 net.cpp:205] Memory required for data: 407633924
I0716 07:52:03.091601 14264 layer_factory.hpp:123] Creating layer Add_27
I0716 07:52:03.091606 14264 net.cpp:140] Creating Layer Add_27
I0716 07:52:03.091610 14264 net.cpp:481] Add_27 <- Add_26_Add_26_fixed_0_split_1
I0716 07:52:03.091614 14264 net.cpp:481] Add_27 <- BatchNorm_88
I0716 07:52:03.091619 14264 net.cpp:455] Add_27 -> Add_27
I0716 07:52:03.091637 14264 net.cpp:190] Setting up Add_27
I0716 07:52:03.091641 14264 net.cpp:197] Top shape: 1 16 128 256 (524288)
I0716 07:52:03.091643 14264 net.cpp:205] Memory required for data: 409731076
I0716 07:52:03.091646 14264 layer_factory.hpp:123] Creating layer Threshold_113
I0716 07:52:03.091650 14264 net.cpp:140] Creating Layer Threshold_113
I0716 07:52:03.091653 14264 net.cpp:481] Threshold_113 <- Add_27
I0716 07:52:03.091657 14264 net.cpp:442] Threshold_113 -> Add_27 (in-place)
I0716 07:52:03.091662 14264 net.cpp:190] Setting up Threshold_113
I0716 07:52:03.091666 14264 net.cpp:197] Top shape: 1 16 128 256 (524288)
I0716 07:52:03.091670 14264 net.cpp:205] Memory required for data: 411828228
I0716 07:52:03.091671 14264 layer_factory.hpp:123] Creating layer Add_27_fixed
I0716 07:52:03.091675 14264 net.cpp:140] Creating Layer Add_27_fixed
I0716 07:52:03.091678 14264 net.cpp:481] Add_27_fixed <- Add_27
I0716 07:52:03.091682 14264 net.cpp:442] Add_27_fixed -> Add_27 (in-place)
I0716 07:52:03.091711 14264 net.cpp:190] Setting up Add_27_fixed
I0716 07:52:03.091715 14264 net.cpp:197] Top shape: 1 16 128 256 (524288)
I0716 07:52:03.091717 14264 net.cpp:205] Memory required for data: 413925380
I0716 07:52:03.091722 14264 layer_factory.hpp:123] Creating layer ConvNd_91
I0716 07:52:03.091727 14264 net.cpp:140] Creating Layer ConvNd_91
I0716 07:52:03.091729 14264 net.cpp:481] ConvNd_91 <- Add_27
I0716 07:52:03.091734 14264 net.cpp:455] ConvNd_91 -> ConvNd_91
I0716 07:52:03.091905 14264 layer_factory.hpp:123] Creating layer ConvNd_91
I0716 07:52:03.092391 14264 net.cpp:190] Setting up ConvNd_91
I0716 07:52:03.092396 14264 net.cpp:197] Top shape: 1 19 256 512 (2490368)
I0716 07:52:03.092399 14264 net.cpp:205] Memory required for data: 423886852
I0716 07:52:03.092404 14264 layer_factory.hpp:123] Creating layer ConvNd_91_fixed
I0716 07:52:03.092409 14264 net.cpp:140] Creating Layer ConvNd_91_fixed
I0716 07:52:03.092412 14264 net.cpp:481] ConvNd_91_fixed <- ConvNd_91
I0716 07:52:03.092417 14264 net.cpp:442] ConvNd_91_fixed -> ConvNd_91 (in-place)
I0716 07:52:03.092448 14264 net.cpp:190] Setting up ConvNd_91_fixed
I0716 07:52:03.092453 14264 net.cpp:197] Top shape: 1 19 256 512 (2490368)
I0716 07:52:03.092455 14264 net.cpp:205] Memory required for data: 433848324
I0716 07:52:03.092459 14264 layer_factory.hpp:123] Creating layer score
I0716 07:52:03.092464 14264 net.cpp:140] Creating Layer score
I0716 07:52:03.092466 14264 net.cpp:481] score <- ConvNd_91
I0716 07:52:03.092471 14264 net.cpp:455] score -> score
I0716 07:52:03.092523 14264 net.cpp:190] Setting up score
I0716 07:52:03.092528 14264 net.cpp:197] Top shape: 1 19 256 512 (2490368)
I0716 07:52:03.092530 14264 net.cpp:205] Memory required for data: 443809796
I0716 07:52:03.092533 14264 net.cpp:268] score does not need backward computation.
I0716 07:52:03.092537 14264 net.cpp:268] ConvNd_91_fixed does not need backward computation.
I0716 07:52:03.092540 14264 net.cpp:268] ConvNd_91 does not need backward computation.
I0716 07:52:03.092543 14264 net.cpp:268] Add_27_fixed does not need backward computation.
…
