…
I0716 08:00:28.226754 14827 net.cpp:98] Initializing net from parameters: 
state {
  phase: TRAIN
}
layer {
  name: "data"
  type: "ImageData"
  top: "data"
  top: "label"
  include {
    phase: TRAIN
  }
  transform_param {
    scale: 0.022
    mean_value: 73
    mean_value: 82
    mean_value: 72
    resize_param {
      prob: 1
      resize_mode: WARP
      height: 256
      width: 512
    }
  }
  image_data_param {
    source: "../data/cityscapes/calibration.txt"
    batch_size: 1
    shuffle: true
    new_height: 256
    new_width: 512
    root_folder: "../data/cityscapes/calibration_images/"
  }
}
layer {
  name: "ConvNd_1"
  type: "Convolution"
  bottom: "data"
  top: "ConvNd_1"
  convolution_param {
    num_output: 16
    bias_term: false
    pad: 1
    kernel_size: 3
    group: 1
    stride: 2
    dilation: 1
  }
}
layer {
  name: "BatchNorm_1"
  type: "BatchNorm"
  bottom: "ConvNd_1"
  top: "BatchNorm_1"
  param {
    lr_mult: 1
    decay_mult: 0
  }
  param {
    lr_mult: 1
    decay_mult: 0
  }
  param {
    lr_mult: 0
    decay_mult: 0
  }
  param {
    lr_mult: 0
    decay_mult: 0
  }
  batch_norm_param {
    use_global_stats: true
    eps: 1e-05
    scale_filler {
      type: "constant"
      value: 1
    }
    bias_filler {
      type: "constant"
      value: 0
    }
  }
}
layer {
  name: "Threshold_1"
  type: "ReLU"
  bottom: "BatchNorm_1"
  top: "BatchNorm_1"
}
layer {
  name: "AvgPool2d_1"
  type: "Pooling"
  bottom: "data"
  top: "AvgPool2d_1"
  pooling_param {
    pool: AVE
    kernel_size: 3
    stride: 2
    pad: 0
  }
}
layer {
  name: "Concat_1"
  type: "Concat"
  bottom: "BatchNorm_1"
  bottom: "AvgPool2d_1"
  top: "Concat_1"
  concat_param {
    axis: 1
  }
}
layer {
  name: "BatchNorm_2"
  type: "BatchNorm"
  bottom: "Concat_1"
  top: "BatchNorm_2"
  param {
    lr_mult: 1
    decay_mult: 0
  }
  param {
    lr_mult: 1
    decay_mult: 0
  }
  param {
    lr_mult: 0
    decay_mult: 0
  }
  param {
    lr_mult: 0
    decay_mult: 0
  }
  batch_norm_param {
    use_global_stats: true
    eps: 1e-05
    scale_filler {
      type: "constant"
      value: 1
    }
    bias_filler {
      type: "constant"
      value: 0
    }
  }
}
layer {
  name: "Threshold_2"
  type: "ReLU"
  bottom: "BatchNorm_2"
  top: "BatchNorm_2"
}
layer {
  name: "ConvNd_2"
  type: "Convolution"
  bottom: "BatchNorm_2"
  top: "ConvNd_2"
  convolution_param {
    num_output: 12
    bias_term: false
    pad: 1
    kernel_size: 3
    group: 1
    stride: 2
    weight_filler {
      type: "msra"
    }
    dilation: 1
  }
}
layer {
  name: "ConvNd_3"
  type: "Convolution"
  bottom: "ConvNd_2"
  top: "ConvNd_3"
  convolution_param {
    num_output: 16
    bias_term: false
    pad: 1
    kernel_size: 3
    group: 1
    stride: 1
    weight_filler {
      type: "msra"
    }
    dilation: 1
  }
}
layer {
  name: "ConvNd_4"
  type: "Convolution"
  bottom: "ConvNd_2"
  top: "ConvNd_4"
  convolution_param {
    num_output: 12
    bias_term: false
    pad: 2
    kernel_size: 3
    group: 1
    stride: 1
    weight_filler {
      type: "msra"
    }
    dilation: 2
  }
}
layer {
  name: "ConvNd_5"
  type: "Convolution"
  bottom: "ConvNd_2"
  top: "ConvNd_5"
  convolution_param {
    num_output: 12
    bias_term: false
    pad: 4
    kernel_size: 3
    group: 1
    stride: 1
    weight_filler {
      type: "msra"
    }
    dilation: 4
  }
}
layer {
  name: "Add_1"
  type: "Eltwise"
  bottom: "ConvNd_4"
  bottom: "ConvNd_5"
  top: "Add_1"
}
layer {
  name: "ConvNd_6"
  type: "Convolution"
  bottom: "ConvNd_2"
  top: "ConvNd_6"
  convolution_param {
    num_output: 12
    bias_term: false
    pad: 8
    kernel_size: 3
    group: 1
    stride: 1
    weight_filler {
      type: "msra"
    }
    dilation: 8
  }
}
layer {
  name: "Add_2"
  type: "Eltwise"
  bottom: "Add_1"
  bottom: "ConvNd_6"
  top: "Add_2"
}
layer {
  name: "ConvNd_7"
  type: "Convolution"
  bottom: "ConvNd_2"
  top: "ConvNd_7"
  convolution_param {
    num_output: 12
    bias_term: false
    pad: 16
    kernel_size: 3
    group: 1
    stride: 1
    weight_filler {
      type: "msra"
    }
    dilation: 16
  }
}
layer {
  name: "Add_3"
  type: "Eltwise"
  bottom: "Add_2"
  bottom: "ConvNd_7"
  top: "Add_3"
}
layer {
  name: "Concat_2"
  type: "Concat"
  bottom: "ConvNd_3"
  bottom: "ConvNd_4"
  bottom: "Add_1"
  bottom: "Add_2"
  bottom: "Add_3"
  top: "Concat_2"
  concat_param {
    axis: 1
  }
}
layer {
  name: "BatchNorm_3"
  type: "BatchNorm"
  bottom: "Concat_2"
  top: "BatchNorm_3"
  param {
    lr_mult: 1
    decay_mult: 0
  }
  param {
    lr_mult: 1
    decay_mult: 0
  }
  param {
    lr_mult: 0
    decay_mult: 0
  }
  param {
    lr_mult: 0
    decay_mult: 0
  }
  batch_norm_param {
    use_global_stats: true
    eps: 1e-05
    scale_filler {
      type: "constant"
      value: 1
    }
    bias_filler {
      type: "constant"
      value: 0
    }
  }
}
layer {
  name: "Threshold_3"
  type: "ReLU"
  bottom: "BatchNorm_3"
  top: "BatchNorm_3"
}
layer {
  name: "ConvNd_8"
  type: "Convolution"
  bottom: "BatchNorm_3"
  top: "ConvNd_8"
  convolution_param {
    num_output: 12
    bias_term: false
    pad: 0
    kernel_size: 1
    group: 1
    stride: 1
    weight_filler {
      type: "msra"
    }
    dilation: 1
  }
}
layer {
  name: "ConvNd_9"
  type: "Convolution"
  bottom: "ConvNd_8"
  top: "ConvNd_9"
  convolution_param {
    num_output: 16
    bias_term: false
    pad: 1
    kernel_size: 3
    group: 1
    stride: 1
    weight_filler {
      type: "msra"
    }
    dilation: 1
  }
}
layer {
  name: "ConvNd_10"
  type: "Convolution"
  bottom: "ConvNd_8"
  top: "ConvNd_10"
  convolution_param {
    num_output: 12
    bias_term: false
    pad: 2
    kernel_size: 3
    group: 1
    stride: 1
    weight_filler {
      type: "msra"
    }
    dilation: 2
  }
}
layer {
  name: "ConvNd_11"
  type: "Convolution"
  bottom: "ConvNd_8"
  top: "ConvNd_11"
  convolution_param {
    num_output: 12
    bias_term: false
    pad: 4
    kernel_size: 3
    group: 1
    stride: 1
    weight_filler {
      type: "msra"
    }
    dilation: 4
  }
}
layer {
  name: "Add_4"
  type: "Eltwise"
  bottom: "ConvNd_10"
  bottom: "ConvNd_11"
  top: "Add_4"
}
layer {
  name: "ConvNd_12"
  type: "Convolution"
  bottom: "ConvNd_8"
  top: "ConvNd_12"
  convolution_param {
    num_output: 12
    bias_term: false
    pad: 8
    kernel_size: 3
    group: 1
    stride: 1
    weight_filler {
      type: "msra"
    }
    dilation: 8
  }
}
layer {
  name: "Add_5"
  type: "Eltwise"
  bottom: "Add_4"
  bottom: "ConvNd_12"
  top: "Add_5"
}
layer {
  name: "ConvNd_13"
  type: "Convolution"
  bottom: "ConvNd_8"
  top: "ConvNd_13"
  convolution_param {
    num_output: 12
    bias_term: false
    pad: 16
    kernel_size: 3
    group: 1
    stride: 1
    weight_filler {
      type: "msra"
    }
    dilation: 16
  }
}
layer {
  name: "Add_6"
  type: "Eltwise"
  bottom: "Add_5"
  bottom: "ConvNd_13"
  top: "Add_6"
}
layer {
  name: "Concat_3"
  type: "Concat"
  bottom: "ConvNd_9"
  bottom: "ConvNd_10"
  bottom: "Add_4"
  bottom: "Add_5"
  bottom: "Add_6"
  top: "Concat_3"
  concat_param {
    axis: 1
  }
}
layer {
  name: "Add_7"
  type: "Eltwise"
  bottom: "BatchNorm_3"
  bottom: "Concat_3"
  top: "Add_7"
}
layer {
  name: "BatchNorm_4"
  type: "BatchNorm"
  bottom: "Add_7"
  top: "BatchNorm_4"
  param {
    lr_mult: 1
    decay_mult: 0
  }
  param {
    lr_mult: 1
    decay_mult: 0
  }
  param {
    lr_mult: 0
    decay_mult: 0
  }
  param {
    lr_mult: 0
    decay_mult: 0
  }
  batch_norm_param {
    use_global_stats: true
    eps: 1e-05
    scale_filler {
      type: "constant"
      value: 1
    }
    bias_filler {
      type: "constant"
      value: 0
    }
  }
}
layer {
  name: "Threshold_4"
  type: "ReLU"
  bottom: "BatchNorm_4"
  top: "BatchNorm_4"
}
layer {
  name: "ConvNd_14"
  type: "Convolution"
  bottom: "BatchNorm_4"
  top: "ConvNd_14"
  convolution_param {
    num_output: 12
    bias_term: false
    pad: 0
    kernel_size: 1
    group: 1
    stride: 1
    weight_filler {
      type: "msra"
    }
    dilation: 1
  }
}
layer {
  name: "ConvNd_15"
  type: "Convolution"
  bottom: "ConvNd_14"
  top: "ConvNd_15"
  convolution_param {
    num_output: 16
    bias_term: false
    pad: 1
    kernel_size: 3
    group: 1
    stride: 1
    weight_filler {
      type: "msra"
    }
    dilation: 1
  }
}
layer {
  name: "ConvNd_16"
  type: "Convolution"
  bottom: "ConvNd_14"
  top: "ConvNd_16"
  convolution_param {
    num_output: 12
    bias_term: false
    pad: 2
    kernel_size: 3
    group: 1
    stride: 1
    weight_filler {
      type: "msra"
    }
    dilation: 2
  }
}
layer {
  name: "ConvNd_17"
  type: "Convolution"
  bottom: "ConvNd_14"
  top: "ConvNd_17"
  convolution_param {
    num_output: 12
    bias_term: false
    pad: 4
    kernel_size: 3
    group: 1
    stride: 1
    weight_filler {
      type: "msra"
    }
    dilation: 4
  }
}
layer {
  name: "Add_8"
  type: "Eltwise"
  bottom: "ConvNd_16"
  bottom: "ConvNd_17"
  top: "Add_8"
}
layer {
  name: "ConvNd_18"
  type: "Convolution"
  bottom: "ConvNd_14"
  top: "ConvNd_18"
  convolution_param {
    num_output: 12
    bias_term: false
    pad: 8
    kernel_size: 3
    group: 1
    stride: 1
    weight_filler {
      type: "msra"
    }
    dilation: 8
  }
}
layer {
  name: "Add_9"
  type: "Eltwise"
  bottom: "Add_8"
  bottom: "ConvNd_18"
  top: "Add_9"
}
layer {
  name: "ConvNd_19"
  type: "Convolution"
  bottom: "ConvNd_14"
  top: "ConvNd_19"
  convolution_param {
    num_output: 12
    bias_term: false
    pad: 16
    kernel_size: 3
    group: 1
    stride: 1
    weight_filler {
      type: "msra"
    }
    dilation: 16
  }
}
layer {
  name: "Add_10"
  type: "Eltwise"
  bottom: "Add_9"
  bottom: "ConvNd_19"
  top: "Add_10"
}
layer {
  name: "Concat_4"
  type: "Concat"
  bottom: "ConvNd_15"
  bottom: "ConvNd_16"
  bottom: "Add_8"
  bottom: "Add_9"
  bottom: "Add_10"
  top: "Concat_4"
  concat_param {
    axis: 1
  }
}
layer {
  name: "Add_11"
  type: "Eltwise"
  bottom: "BatchNorm_4"
  bottom: "Concat_4"
  top: "Add_11"
}
layer {
  name: "BatchNorm_5"
  type: "BatchNorm"
  bottom: "Add_11"
  top: "BatchNorm_5"
  param {
    lr_mult: 1
    decay_mult: 0
  }
  param {
    lr_mult: 1
    decay_mult: 0
  }
  param {
    lr_mult: 0
    decay_mult: 0
  }
  param {
    lr_mult: 0
    decay_mult: 0
  }
  batch_norm_param {
    use_global_stats: true
    eps: 1e-05
    scale_filler {
      type: "constant"
      value: 1
    }
    bias_filler {
      type: "constant"
      value: 0
    }
  }
}
layer {
  name: "Threshold_5"
  type: "ReLU"
  bottom: "BatchNorm_5"
  top: "BatchNorm_5"
}
layer {
  name: "AvgPool2d_2"
  type: "Pooling"
  bottom: "data"
  top: "AvgPool2d_2"
  pooling_param {
    pool: AVE
    kernel_size: 3
    stride: 2
    pad: 0
  }
}
layer {
  name: "AvgPool2d_3"
  type: "Pooling"
  bottom: "AvgPool2d_2"
  top: "AvgPool2d_3"
  pooling_param {
    pool: AVE
    kernel_size: 3
    stride: 2
    pad: 0
  }
}
layer {
  name: "Concat_5"
  type: "Concat"
  bottom: "BatchNorm_5"
  bottom: "BatchNorm_3"
  bottom: "AvgPool2d_3"
  top: "Concat_5"
  concat_param {
    axis: 1
  }
}
layer {
  name: "BatchNorm_6"
  type: "BatchNorm"
  bottom: "Concat_5"
  top: "BatchNorm_6"
  param {
    lr_mult: 1
    decay_mult: 0
  }
  param {
    lr_mult: 1
    decay_mult: 0
  }
  param {
    lr_mult: 0
    decay_mult: 0
  }
  param {
    lr_mult: 0
    decay_mult: 0
  }
  batch_norm_param {
    use_global_stats: true
    eps: 1e-05
    scale_filler {
      type: "constant"
      value: 1
    }
    bias_filler {
      type: "constant"
      value: 0
    }
  }
}
layer {
  name: "Threshold_6"
  type: "ReLU"
  bottom: "BatchNorm_6"
  top: "BatchNorm_6"
}
layer {
  name: "ConvNd_20"
  type: "Convolution"
  bottom: "BatchNorm_6"
  top: "ConvNd_20"
  convolution_param {
    num_output: 19
    bias_term: false
    pad: 0
    kernel_size: 1
    group: 1
    stride: 1
    weight_filler {
      type: "msra"
    }
    dilation: 1
  }
}
layer {
  name: "ConvNd_21"
  type: "Convolution"
  bottom: "BatchNorm_6"
  top: "ConvNd_21"
  convolution_param {
    num_output: 25
    bias_term: false
    pad: 1
    kernel_size: 3
    group: 1
    stride: 2
    weight_filler {
      type: "msra"
    }
    dilation: 1
  }
}
layer {
  name: "ConvNd_22"
  type: "Convolution"
  bottom: "ConvNd_21"
  top: "ConvNd_22"
  convolution_param {
    num_output: 28
    bias_term: false
    pad: 1
    kernel_size: 3
    group: 1
    stride: 1
    weight_filler {
      type: "msra"
    }
    dilation: 1
  }
}
layer {
  name: "ConvNd_23"
  type: "Convolution"
  bottom: "ConvNd_21"
  top: "ConvNd_23"
  convolution_param {
    num_output: 25
    bias_term: false
    pad: 2
    kernel_size: 3
    group: 1
    stride: 1
    weight_filler {
      type: "msra"
    }
    dilation: 2
  }
}
layer {
  name: "ConvNd_24"
  type: "Convolution"
  bottom: "ConvNd_21"
  top: "ConvNd_24"
  convolution_param {
    num_output: 25
    bias_term: false
    pad: 4
    kernel_size: 3
    group: 1
    stride: 1
    weight_filler {
      type: "msra"
    }
    dilation: 4
  }
}
layer {
  name: "Add_12"
  type: "Eltwise"
  bottom: "ConvNd_23"
  bottom: "ConvNd_24"
  top: "Add_12"
}
layer {
  name: "ConvNd_25"
  type: "Convolution"
  bottom: "ConvNd_21"
  top: "ConvNd_25"
  convolution_param {
    num_output: 25
    bias_term: false
    pad: 8
    kernel_size: 3
    group: 1
    stride: 1
    weight_filler {
      type: "msra"
    }
    dilation: 8
  }
}
layer {
  name: "Add_13"
  type: "Eltwise"
  bottom: "Add_12"
  bottom: "ConvNd_25"
  top: "Add_13"
}
layer {
  name: "ConvNd_26"
  type: "Convolution"
  bottom: "ConvNd_21"
  top: "ConvNd_26"
  convolution_param {
    num_output: 25
    bias_term: false
    pad: 16
    kernel_size: 3
    group: 1
    stride: 1
    weight_filler {
      type: "msra"
    }
    dilation: 16
  }
}
layer {
  name: "Add_14"
  type: "Eltwise"
  bottom: "Add_13"
  bottom: "ConvNd_26"
  top: "Add_14"
}
layer {
  name: "Concat_6"
  type: "Concat"
  bottom: "ConvNd_22"
  bottom: "ConvNd_23"
  bottom: "Add_12"
  bottom: "Add_13"
  bottom: "Add_14"
  top: "Concat_6"
  concat_param {
    axis: 1
  }
}
layer {
  name: "BatchNorm_7"
  type: "BatchNorm"
  bottom: "Concat_6"
  top: "BatchNorm_7"
  param {
    lr_mult: 1
    decay_mult: 0
  }
  param {
    lr_mult: 1
    decay_mult: 0
  }
  param {
    lr_mult: 0
    decay_mult: 0
  }
  param {
    lr_mult: 0
    decay_mult: 0
  }
  batch_norm_param {
    use_global_stats: true
    eps: 1e-05
    scale_filler {
      type: "constant"
      value: 1
    }
    bias_filler {
      type: "constant"
      value: 0
    }
  }
}
layer {
  name: "Threshold_7"
  type: "ReLU"
  bottom: "BatchNorm_7"
  top: "BatchNorm_7"
}
layer {
  name: "ConvNd_27"
  type: "Convolution"
  bottom: "BatchNorm_7"
  top: "ConvNd_27"
  convolution_param {
    num_output: 25
    bias_term: false
    pad: 0
    kernel_size: 1
    group: 1
    stride: 1
    weight_filler {
      type: "msra"
    }
    dilation: 1
  }
}
layer {
  name: "ConvNd_28"
  type: "Convolution"
  bottom: "ConvNd_27"
  top: "ConvNd_28"
  convolution_param {
    num_output: 28
    bias_term: false
    pad: 1
    kernel_size: 3
    group: 1
    stride: 1
    weight_filler {
      type: "msra"
    }
    dilation: 1
  }
}
layer {
  name: "ConvNd_29"
  type: "Convolution"
  bottom: "ConvNd_27"
  top: "ConvNd_29"
  convolution_param {
    num_output: 25
    bias_term: false
    pad: 2
    kernel_size: 3
    group: 1
    stride: 1
    weight_filler {
      type: "msra"
    }
    dilation: 2
  }
}
layer {
  name: "ConvNd_30"
  type: "Convolution"
  bottom: "ConvNd_27"
  top: "ConvNd_30"
  convolution_param {
    num_output: 25
    bias_term: false
    pad: 4
    kernel_size: 3
    group: 1
    stride: 1
    weight_filler {
      type: "msra"
    }
    dilation: 4
  }
}
layer {
  name: "Add_15"
  type: "Eltwise"
  bottom: "ConvNd_29"
  bottom: "ConvNd_30"
  top: "Add_15"
}
layer {
  name: "ConvNd_31"
  type: "Convolution"
  bottom: "ConvNd_27"
  top: "ConvNd_31"
  convolution_param {
    num_output: 25
    bias_term: false
    pad: 8
    kernel_size: 3
    group: 1
    stride: 1
    weight_filler {
      type: "msra"
    }
    dilation: 8
  }
}
layer {
  name: "Add_16"
  type: "Eltwise"
  bottom: "Add_15"
  bottom: "ConvNd_31"
  top: "Add_16"
}
layer {
  name: "ConvNd_32"
  type: "Convolution"
  bottom: "ConvNd_27"
  top: "ConvNd_32"
  convolution_param {
    num_output: 25
    bias_term: false
    pad: 16
    kernel_size: 3
    group: 1
    stride: 1
    weight_filler {
      type: "msra"
    }
    dilation: 16
  }
}
layer {
  name: "Add_17"
  type: "Eltwise"
  bottom: "Add_16"
  bottom: "ConvNd_32"
  top: "Add_17"
}
layer {
  name: "Concat_7"
  type: "Concat"
  bottom: "ConvNd_28"
  bottom: "ConvNd_29"
  bottom: "Add_15"
  bottom: "Add_16"
  bottom: "Add_17"
  top: "Concat_7"
  concat_param {
    axis: 1
  }
}
layer {
  name: "Add_18"
  type: "Eltwise"
  bottom: "BatchNorm_7"
  bottom: "Concat_7"
  top: "Add_18"
}
layer {
  name: "BatchNorm_8"
  type: "BatchNorm"
  bottom: "Add_18"
  top: "BatchNorm_8"
  param {
    lr_mult: 1
    decay_mult: 0
  }
  param {
    lr_mult: 1
    decay_mult: 0
  }
  param {
    lr_mult: 0
    decay_mult: 0
  }
  param {
    lr_mult: 0
    decay_mult: 0
  }
  batch_norm_param {
    use_global_stats: true
    eps: 1e-05
    scale_filler {
      type: "constant"
      value: 1
    }
    bias_filler {
      type: "constant"
      value: 0
    }
  }
}
layer {
  name: "Threshold_8"
  type: "ReLU"
  bottom: "BatchNorm_8"
  top: "BatchNorm_8"
}
layer {
  name: "ConvNd_33"
  type: "Convolution"
  bottom: "BatchNorm_8"
  top: "ConvNd_33"
  convolution_param {
    num_output: 25
    bias_term: false
    pad: 0
    kernel_size: 1
    group: 1
    stride: 1
    weight_filler {
      type: "msra"
    }
    dilation: 1
  }
}
layer {
  name: "ConvNd_34"
  type: "Convolution"
  bottom: "ConvNd_33"
  top: "ConvNd_34"
  convolution_param {
    num_output: 28
    bias_term: false
    pad: 1
    kernel_size: 3
    group: 1
    stride: 1
    weight_filler {
      type: "msra"
    }
    dilation: 1
  }
}
layer {
  name: "ConvNd_35"
  type: "Convolution"
  bottom: "ConvNd_33"
  top: "ConvNd_35"
  convolution_param {
    num_output: 25
    bias_term: false
    pad: 2
    kernel_size: 3
    group: 1
    stride: 1
    weight_filler {
      type: "msra"
    }
    dilation: 2
  }
}
layer {
  name: "ConvNd_36"
  type: "Convolution"
  bottom: "ConvNd_33"
  top: "ConvNd_36"
  convolution_param {
    num_output: 25
    bias_term: false
    pad: 4
    kernel_size: 3
    group: 1
    stride: 1
    weight_filler {
      type: "msra"
    }
    dilation: 4
  }
}
layer {
  name: "Add_19"
  type: "Eltwise"
  bottom: "ConvNd_35"
  bottom: "ConvNd_36"
  top: "Add_19"
}
layer {
  name: "ConvNd_37"
  type: "Convolution"
  bottom: "ConvNd_33"
  top: "ConvNd_37"
  convolution_param {
    num_output: 25
    bias_term: false
    pad: 8
    kernel_size: 3
    group: 1
    stride: 1
    weight_filler {
      type: "msra"
    }
    dilation: 8
  }
}
layer {
  name: "Add_20"
  type: "Eltwise"
  bottom: "Add_19"
  bottom: "ConvNd_37"
  top: "Add_20"
}
layer {
  name: "ConvNd_38"
  type: "Convolution"
  bottom: "ConvNd_33"
  top: "ConvNd_38"
  convolution_param {
    num_output: 25
    bias_term: false
    pad: 16
    kernel_size: 3
    group: 1
    stride: 1
    weight_filler {
      type: "msra"
    }
    dilation: 16
  }
}
layer {
  name: "Add_21"
  type: "Eltwise"
  bottom: "Add_20"
  bottom: "ConvNd_38"
  top: "Add_21"
}
layer {
  name: "Concat_8"
  type: "Concat"
  bottom: "ConvNd_34"
  bottom: "ConvNd_35"
  bottom: "Add_19"
  bottom: "Add_20"
  bottom: "Add_21"
  top: "Concat_8"
  concat_param {
    axis: 1
  }
}
layer {
  name: "Add_22"
  type: "Eltwise"
  bottom: "BatchNorm_8"
  bottom: "Concat_8"
  top: "Add_22"
}
layer {
  name: "BatchNorm_9"
  type: "BatchNorm"
  bottom: "Add_22"
  top: "BatchNorm_9"
  param {
    lr_mult: 1
    decay_mult: 0
  }
  param {
    lr_mult: 1
    decay_mult: 0
  }
  param {
    lr_mult: 0
    decay_mult: 0
  }
  param {
    lr_mult: 0
    decay_mult: 0
  }
  batch_norm_param {
    use_global_stats: true
    eps: 1e-05
    scale_filler {
      type: "constant"
      value: 1
    }
    bias_filler {
      type: "constant"
      value: 0
    }
  }
}
layer {
  name: "Threshold_9"
  type: "ReLU"
  bottom: "BatchNorm_9"
  top: "BatchNorm_9"
}
layer {
  name: "ConvNd_39"
  type: "Convolution"
  bottom: "BatchNorm_9"
  top: "ConvNd_39"
  convolution_param {
    num_output: 25
    bias_term: false
    pad: 0
    kernel_size: 1
    group: 1
    stride: 1
    weight_filler {
      type: "msra"
    }
    dilation: 1
  }
}
layer {
  name: "ConvNd_40"
  type: "Convolution"
  bottom: "ConvNd_39"
  top: "ConvNd_40"
  convolution_param {
    num_output: 28
    bias_term: false
    pad: 1
    kernel_size: 3
    group: 1
    stride: 1
    weight_filler {
      type: "msra"
    }
    dilation: 1
  }
}
layer {
  name: "ConvNd_41"
  type: "Convolution"
  bottom: "ConvNd_39"
  top: "ConvNd_41"
  convolution_param {
    num_output: 25
    bias_term: false
    pad: 2
    kernel_size: 3
    group: 1
    stride: 1
    weight_filler {
      type: "msra"
    }
    dilation: 2
  }
}
layer {
  name: "ConvNd_42"
  type: "Convolution"
  bottom: "ConvNd_39"
  top: "ConvNd_42"
  convolution_param {
    num_output: 25
    bias_term: false
    pad: 4
    kernel_size: 3
    group: 1
    stride: 1
    weight_filler {
      type: "msra"
    }
    dilation: 4
  }
}
layer {
  name: "Add_23"
  type: "Eltwise"
  bottom: "ConvNd_41"
  bottom: "ConvNd_42"
  top: "Add_23"
}
layer {
  name: "ConvNd_43"
  type: "Convolution"
  bottom: "ConvNd_39"
  top: "ConvNd_43"
  convolution_param {
    num_output: 25
    bias_term: false
    pad: 8
    kernel_size: 3
    group: 1
    stride: 1
    weight_filler {
      type: "msra"
    }
    dilation: 8
  }
}
layer {
  name: "Add_24"
  type: "Eltwise"
  bottom: "Add_23"
  bottom: "ConvNd_43"
  top: "Add_24"
}
layer {
  name: "ConvNd_44"
  type: "Convolution"
  bottom: "ConvNd_39"
  top: "ConvNd_44"
  convolution_param {
    num_output: 25
    bias_term: false
    pad: 16
    kernel_size: 3
    group: 1
    stride: 1
    weight_filler {
      type: "msra"
    }
    dilation: 16
  }
}
layer {
  name: "Add_25"
  type: "Eltwise"
  bottom: "Add_24"
  bottom: "ConvNd_44"
  top: "Add_25"
}
layer {
  name: "Concat_9"
  type: "Concat"
  bottom: "ConvNd_40"
  bottom: "ConvNd_41"
  bottom: "Add_23"
  bottom: "Add_24"
  bottom: "Add_25"
  top: "Concat_9"
  concat_param {
    axis: 1
  }
}
layer {
  name: "Add_26"
  type: "Eltwise"
  bottom: "BatchNorm_9"
  bottom: "Concat_9"
  top: "Add_26"
}
layer {
  name: "BatchNorm_10"
  type: "BatchNorm"
  bottom: "Add_26"
  top: "BatchNorm_10"
  param {
    lr_mult: 1
    decay_mult: 0
  }
  param {
    lr_mult: 1
    decay_mult: 0
  }
  param {
    lr_mult: 0
    decay_mult: 0
  }
  param {
    lr_mult: 0
    decay_mult: 0
  }
  batch_norm_param {
    use_global_stats: true
    eps: 1e-05
    scale_filler {
      type: "constant"
      value: 1
    }
    bias_filler {
      type: "constant"
      value: 0
    }
  }
}
layer {
  name: "Threshold_10"
  type: "ReLU"
  bottom: "BatchNorm_10"
  top: "BatchNorm_10"
}
layer {
  name: "ConvNd_45"
  type: "Convolution"
  bottom: "BatchNorm_10"
  top: "ConvNd_45"
  convolution_param {
    num_output: 25
    bias_term: false
    pad: 0
    kernel_size: 1
    group: 1
    stride: 1
    weight_filler {
      type: "msra"
    }
    dilation: 1
  }
}
layer {
  name: "ConvNd_46"
  type: "Convolution"
  bottom: "ConvNd_45"
  top: "ConvNd_46"
  convolution_param {
    num_output: 28
    bias_term: false
    pad: 1
    kernel_size: 3
    group: 1
    stride: 1
    weight_filler {
      type: "msra"
    }
    dilation: 1
  }
}
layer {
  name: "ConvNd_47"
  type: "Convolution"
  bottom: "ConvNd_45"
  top: "ConvNd_47"
  convolution_param {
    num_output: 25
    bias_term: false
    pad: 2
    kernel_size: 3
    group: 1
    stride: 1
    weight_filler {
      type: "msra"
    }
    dilation: 2
  }
}
layer {
  name: "ConvNd_48"
  type: "Convolution"
  bottom: "ConvNd_45"
  top: "ConvNd_48"
  convolution_param {
    num_output: 25
    bias_term: false
    pad: 4
    kernel_size: 3
    group: 1
    stride: 1
    weight_filler {
      type: "msra"
    }
    dilation: 4
  }
}
layer {
  name: "Add_27"
  type: "Eltwise"
  bottom: "ConvNd_47"
  bottom: "ConvNd_48"
  top: "Add_27"
}
layer {
  name: "ConvNd_49"
  type: "Convolution"
  bottom: "ConvNd_45"
  top: "ConvNd_49"
  convolution_param {
    num_output: 25
    bias_term: false
    pad: 8
    kernel_size: 3
    group: 1
    stride: 1
    weight_filler {
      type: "msra"
    }
    dilation: 8
  }
}
layer {
  name: "Add_28"
  type: "Eltwise"
  bottom: "Add_27"
  bottom: "ConvNd_49"
  top: "Add_28"
}
layer {
  name: "ConvNd_50"
  type: "Convolution"
  bottom: "ConvNd_45"
  top: "ConvNd_50"
  convolution_param {
    num_output: 25
    bias_term: false
    pad: 16
    kernel_size: 3
    group: 1
    stride: 1
    weight_filler {
      type: "msra"
    }
    dilation: 16
  }
}
layer {
  name: "Add_29"
  type: "Eltwise"
  bottom: "Add_28"
  bottom: "ConvNd_50"
  top: "Add_29"
}
layer {
  name: "Concat_10"
  type: "Concat"
  bottom: "ConvNd_46"
  bottom: "ConvNd_47"
  bottom: "Add_27"
  bottom: "Add_28"
  bottom: "Add_29"
  top: "Concat_10"
  concat_param {
    axis: 1
  }
}
layer {
  name: "Add_30"
  type: "Eltwise"
  bottom: "BatchNorm_10"
  bottom: "Concat_10"
  top: "Add_30"
}
layer {
  name: "BatchNorm_11"
  type: "BatchNorm"
  bottom: "Add_30"
  top: "BatchNorm_11"
  param {
    lr_mult: 1
    decay_mult: 0
  }
  param {
    lr_mult: 1
    decay_mult: 0
  }
  param {
    lr_mult: 0
    decay_mult: 0
  }
  param {
    lr_mult: 0
    decay_mult: 0
  }
  batch_norm_param {
    use_global_stats: true
    eps: 1e-05
    scale_filler {
      type: "constant"
      value: 1
    }
    bias_filler {
      type: "constant"
      value: 0
    }
  }
}
layer {
  name: "Threshold_11"
  type: "ReLU"
  bottom: "BatchNorm_11"
  top: "BatchNorm_11"
}
layer {
  name: "ConvNd_51"
  type: "Convolution"
  bottom: "BatchNorm_11"
  top: "ConvNd_51"
  convolution_param {
    num_output: 25
    bias_term: false
    pad: 0
    kernel_size: 1
    group: 1
    stride: 1
    weight_filler {
      type: "msra"
    }
    dilation: 1
  }
}
layer {
  name: "ConvNd_52"
  type: "Convolution"
  bottom: "ConvNd_51"
  top: "ConvNd_52"
  convolution_param {
    num_output: 28
    bias_term: false
    pad: 1
    kernel_size: 3
    group: 1
    stride: 1
    weight_filler {
      type: "msra"
    }
    dilation: 1
  }
}
layer {
  name: "ConvNd_53"
  type: "Convolution"
  bottom: "ConvNd_51"
  top: "ConvNd_53"
  convolution_param {
    num_output: 25
    bias_term: false
    pad: 2
    kernel_size: 3
    group: 1
    stride: 1
    weight_filler {
      type: "msra"
    }
    dilation: 2
  }
}
layer {
  name: "ConvNd_54"
  type: "Convolution"
  bottom: "ConvNd_51"
  top: "ConvNd_54"
  convolution_param {
    num_output: 25
    bias_term: false
    pad: 4
    kernel_size: 3
    group: 1
    stride: 1
    weight_filler {
      type: "msra"
    }
    dilation: 4
  }
}
layer {
  name: "Add_31"
  type: "Eltwise"
  bottom: "ConvNd_53"
  bottom: "ConvNd_54"
  top: "Add_31"
}
layer {
  name: "ConvNd_55"
  type: "Convolution"
  bottom: "ConvNd_51"
  top: "ConvNd_55"
  convolution_param {
    num_output: 25
    bias_term: false
    pad: 8
    kernel_size: 3
    group: 1
    stride: 1
    weight_filler {
      type: "msra"
    }
    dilation: 8
  }
}
layer {
  name: "Add_32"
  type: "Eltwise"
  bottom: "Add_31"
  bottom: "ConvNd_55"
  top: "Add_32"
}
layer {
  name: "ConvNd_56"
  type: "Convolution"
  bottom: "ConvNd_51"
  top: "ConvNd_56"
  convolution_param {
    num_output: 25
    bias_term: false
    pad: 16
    kernel_size: 3
    group: 1
    stride: 1
    weight_filler {
      type: "msra"
    }
    dilation: 16
  }
}
layer {
  name: "Add_33"
  type: "Eltwise"
  bottom: "Add_32"
  bottom: "ConvNd_56"
  top: "Add_33"
}
layer {
  name: "Concat_11"
  type: "Concat"
  bottom: "ConvNd_52"
  bottom: "ConvNd_53"
  bottom: "Add_31"
  bottom: "Add_32"
  bottom: "Add_33"
  top: "Concat_11"
  concat_param {
    axis: 1
  }
}
layer {
  name: "Add_34"
  type: "Eltwise"
  bottom: "BatchNorm_11"
  bottom: "Concat_11"
  top: "Add_34"
}
layer {
  name: "BatchNorm_12"
  type: "BatchNorm"
  bottom: "Add_34"
  top: "BatchNorm_12"
  param {
    lr_mult: 1
    decay_mult: 0
  }
  param {
    lr_mult: 1
    decay_mult: 0
  }
  param {
    lr_mult: 0
    decay_mult: 0
  }
  param {
    lr_mult: 0
    decay_mult: 0
  }
  batch_norm_param {
    use_global_stats: true
    eps: 1e-05
    scale_filler {
      type: "constant"
      value: 1
    }
    bias_filler {
      type: "constant"
      value: 0
    }
  }
}
layer {
  name: "Threshold_12"
  type: "ReLU"
  bottom: "BatchNorm_12"
  top: "BatchNorm_12"
}
layer {
  name: "ConvNd_57"
  type: "Convolution"
  bottom: "BatchNorm_12"
  top: "ConvNd_57"
  convolution_param {
    num_output: 25
    bias_term: false
    pad: 0
    kernel_size: 1
    group: 1
    stride: 1
    weight_filler {
      type: "msra"
    }
    dilation: 1
  }
}
layer {
  name: "ConvNd_58"
  type: "Convolution"
  bottom: "ConvNd_57"
  top: "ConvNd_58"
  convolution_param {
    num_output: 28
    bias_term: false
    pad: 1
    kernel_size: 3
    group: 1
    stride: 1
    weight_filler {
      type: "msra"
    }
    dilation: 1
  }
}
layer {
  name: "ConvNd_59"
  type: "Convolution"
  bottom: "ConvNd_57"
  top: "ConvNd_59"
  convolution_param {
    num_output: 25
    bias_term: false
    pad: 2
    kernel_size: 3
    group: 1
    stride: 1
    weight_filler {
      type: "msra"
    }
    dilation: 2
  }
}
layer {
  name: "ConvNd_60"
  type: "Convolution"
  bottom: "ConvNd_57"
  top: "ConvNd_60"
  convolution_param {
    num_output: 25
    bias_term: false
    pad: 4
    kernel_size: 3
    gr
I0716 08:00:28.228384 14827 layer_factory.hpp:123] Creating layer data
I0716 08:00:28.228418 14827 net.cpp:140] Creating Layer data
I0716 08:00:28.228432 14827 net.cpp:455] data -> data
I0716 08:00:28.228446 14827 net.cpp:455] data -> label
I0716 08:00:28.228474 14827 image_data_layer.cpp:87] Opening file ../data/cityscapes/calibration.txt
I0716 08:00:28.228770 14827 image_data_layer.cpp:97] Shuffling data
I0716 08:00:28.228830 14827 image_data_layer.cpp:102] A total of 1000 images.
I0716 08:00:28.311084 14827 image_data_layer.cpp:130] output data size: 1,3,256,512
I0716 08:00:28.322787 14827 internal_thread.cpp:73] Starting internal thread(s) on GPU 1
I0716 08:00:28.322891 14827 net.cpp:190] Setting up data
I0716 08:00:28.322911 14827 net.cpp:197] Top shape: 1 3 256 512 (393216)
I0716 08:00:28.322919 14827 net.cpp:197] Top shape: 1 (1)
I0716 08:00:28.322926 14827 net.cpp:205] Memory required for data: 1572868
I0716 08:00:28.322932 14827 layer_factory.hpp:123] Creating layer data_data_0_split
I0716 08:00:28.322949 14827 net.cpp:140] Creating Layer data_data_0_split
I0716 08:00:28.322955 14827 net.cpp:481] data_data_0_split <- data
I0716 08:00:28.322975 14827 net.cpp:455] data_data_0_split -> data_data_0_split_0
I0716 08:00:28.322994 14827 net.cpp:455] data_data_0_split -> data_data_0_split_1
I0716 08:00:28.323007 14827 net.cpp:455] data_data_0_split -> data_data_0_split_2
I0716 08:00:28.323099 14827 net.cpp:190] Setting up data_data_0_split
I0716 08:00:28.323112 14827 net.cpp:197] Top shape: 1 3 256 512 (393216)
I0716 08:00:28.323118 14827 net.cpp:197] Top shape: 1 3 256 512 (393216)
I0716 08:00:28.323124 14827 net.cpp:197] Top shape: 1 3 256 512 (393216)
I0716 08:00:28.323128 14827 net.cpp:205] Memory required for data: 6291460
I0716 08:00:28.323134 14827 layer_factory.hpp:123] Creating layer ConvNd_1
I0716 08:00:28.323148 14827 net.cpp:140] Creating Layer ConvNd_1
I0716 08:00:28.323153 14827 net.cpp:481] ConvNd_1 <- data_data_0_split_0
I0716 08:00:28.323163 14827 net.cpp:455] ConvNd_1 -> ConvNd_1
I0716 08:00:28.325019 14827 net.cpp:190] Setting up ConvNd_1
I0716 08:00:28.325037 14827 net.cpp:197] Top shape: 1 16 128 256 (524288)
I0716 08:00:28.325043 14827 net.cpp:205] Memory required for data: 8388612
I0716 08:00:28.325060 14827 layer_factory.hpp:123] Creating layer BatchNorm_1
I0716 08:00:28.325075 14827 net.cpp:140] Creating Layer BatchNorm_1
I0716 08:00:28.325081 14827 net.cpp:481] BatchNorm_1 <- ConvNd_1
I0716 08:00:28.325096 14827 net.cpp:455] BatchNorm_1 -> BatchNorm_1
I0716 08:00:28.327158 14827 net.cpp:190] Setting up BatchNorm_1
I0716 08:00:28.327177 14827 net.cpp:197] Top shape: 1 16 128 256 (524288)
I0716 08:00:28.327181 14827 net.cpp:205] Memory required for data: 10485764
I0716 08:00:28.327211 14827 layer_factory.hpp:123] Creating layer Threshold_1
I0716 08:00:28.327221 14827 net.cpp:140] Creating Layer Threshold_1
I0716 08:00:28.327227 14827 net.cpp:481] Threshold_1 <- BatchNorm_1
I0716 08:00:28.327235 14827 net.cpp:442] Threshold_1 -> BatchNorm_1 (in-place)
I0716 08:00:28.327250 14827 net.cpp:190] Setting up Threshold_1
I0716 08:00:28.327260 14827 net.cpp:197] Top shape: 1 16 128 256 (524288)
I0716 08:00:28.327265 14827 net.cpp:205] Memory required for data: 12582916
I0716 08:00:28.327270 14827 layer_factory.hpp:123] Creating layer BatchNorm_1_Threshold_1_0_split
I0716 08:00:28.327280 14827 net.cpp:140] Creating Layer BatchNorm_1_Threshold_1_0_split
I0716 08:00:28.327283 14827 net.cpp:481] BatchNorm_1_Threshold_1_0_split <- BatchNorm_1
I0716 08:00:28.327292 14827 net.cpp:455] BatchNorm_1_Threshold_1_0_split -> BatchNorm_1_Threshold_1_0_split_0
I0716 08:00:28.327303 14827 net.cpp:455] BatchNorm_1_Threshold_1_0_split -> BatchNorm_1_Threshold_1_0_split_1
I0716 08:00:28.327350 14827 net.cpp:190] Setting up BatchNorm_1_Threshold_1_0_split
I0716 08:00:28.327360 14827 net.cpp:197] Top shape: 1 16 128 256 (524288)
I0716 08:00:28.327368 14827 net.cpp:197] Top shape: 1 16 128 256 (524288)
I0716 08:00:28.327373 14827 net.cpp:205] Memory required for data: 16777220
I0716 08:00:28.327378 14827 layer_factory.hpp:123] Creating layer AvgPool2d_1
I0716 08:00:28.327388 14827 net.cpp:140] Creating Layer AvgPool2d_1
I0716 08:00:28.327392 14827 net.cpp:481] AvgPool2d_1 <- data_data_0_split_1
I0716 08:00:28.327401 14827 net.cpp:455] AvgPool2d_1 -> AvgPool2d_1
I0716 08:00:28.327437 14827 net.cpp:190] Setting up AvgPool2d_1
I0716 08:00:28.327447 14827 net.cpp:197] Top shape: 1 3 128 256 (98304)
I0716 08:00:28.327452 14827 net.cpp:205] Memory required for data: 17170436
I0716 08:00:28.327457 14827 layer_factory.hpp:123] Creating layer Concat_1
I0716 08:00:28.327466 14827 net.cpp:140] Creating Layer Concat_1
I0716 08:00:28.327474 14827 net.cpp:481] Concat_1 <- BatchNorm_1_Threshold_1_0_split_0
I0716 08:00:28.327481 14827 net.cpp:481] Concat_1 <- AvgPool2d_1
I0716 08:00:28.327489 14827 net.cpp:455] Concat_1 -> Concat_1
I0716 08:00:28.327519 14827 net.cpp:190] Setting up Concat_1
I0716 08:00:28.327528 14827 net.cpp:197] Top shape: 1 19 128 256 (622592)
I0716 08:00:28.327533 14827 net.cpp:205] Memory required for data: 19660804
I0716 08:00:28.327538 14827 layer_factory.hpp:123] Creating layer BatchNorm_2
I0716 08:00:28.327549 14827 net.cpp:140] Creating Layer BatchNorm_2
I0716 08:00:28.327555 14827 net.cpp:481] BatchNorm_2 <- Concat_1
I0716 08:00:28.327564 14827 net.cpp:455] BatchNorm_2 -> BatchNorm_2
I0716 08:00:28.328516 14827 net.cpp:190] Setting up BatchNorm_2
I0716 08:00:28.328529 14827 net.cpp:197] Top shape: 1 19 128 256 (622592)
I0716 08:00:28.328534 14827 net.cpp:205] Memory required for data: 22151172
I0716 08:00:28.328552 14827 layer_factory.hpp:123] Creating layer Threshold_2
I0716 08:00:28.328560 14827 net.cpp:140] Creating Layer Threshold_2
I0716 08:00:28.328567 14827 net.cpp:481] Threshold_2 <- BatchNorm_2
I0716 08:00:28.328574 14827 net.cpp:442] Threshold_2 -> BatchNorm_2 (in-place)
I0716 08:00:28.328584 14827 net.cpp:190] Setting up Threshold_2
I0716 08:00:28.328591 14827 net.cpp:197] Top shape: 1 19 128 256 (622592)
I0716 08:00:28.328595 14827 net.cpp:205] Memory required for data: 24641540
I0716 08:00:28.328600 14827 layer_factory.hpp:123] Creating layer ConvNd_2
I0716 08:00:28.328611 14827 net.cpp:140] Creating Layer ConvNd_2
I0716 08:00:28.328616 14827 net.cpp:481] ConvNd_2 <- BatchNorm_2
I0716 08:00:28.328624 14827 net.cpp:455] ConvNd_2 -> ConvNd_2
I0716 08:00:28.330014 14827 net.cpp:190] Setting up ConvNd_2
I0716 08:00:28.330031 14827 net.cpp:197] Top shape: 1 12 64 128 (98304)
I0716 08:00:28.330036 14827 net.cpp:205] Memory required for data: 25034756
I0716 08:00:28.330044 14827 layer_factory.hpp:123] Creating layer ConvNd_2_ConvNd_2_0_split
I0716 08:00:28.330054 14827 net.cpp:140] Creating Layer ConvNd_2_ConvNd_2_0_split
I0716 08:00:28.330061 14827 net.cpp:481] ConvNd_2_ConvNd_2_0_split <- ConvNd_2
I0716 08:00:28.330070 14827 net.cpp:455] ConvNd_2_ConvNd_2_0_split -> ConvNd_2_ConvNd_2_0_split_0
I0716 08:00:28.330083 14827 net.cpp:455] ConvNd_2_ConvNd_2_0_split -> ConvNd_2_ConvNd_2_0_split_1
I0716 08:00:28.330093 14827 net.cpp:455] ConvNd_2_ConvNd_2_0_split -> ConvNd_2_ConvNd_2_0_split_2
I0716 08:00:28.330104 14827 net.cpp:455] ConvNd_2_ConvNd_2_0_split -> ConvNd_2_ConvNd_2_0_split_3
I0716 08:00:28.330116 14827 net.cpp:455] ConvNd_2_ConvNd_2_0_split -> ConvNd_2_ConvNd_2_0_split_4
I0716 08:00:28.330210 14827 net.cpp:190] Setting up ConvNd_2_ConvNd_2_0_split
I0716 08:00:28.330221 14827 net.cpp:197] Top shape: 1 12 64 128 (98304)
I0716 08:00:28.330229 14827 net.cpp:197] Top shape: 1 12 64 128 (98304)
I0716 08:00:28.330235 14827 net.cpp:197] Top shape: 1 12 64 128 (98304)
I0716 08:00:28.330240 14827 net.cpp:197] Top shape: 1 12 64 128 (98304)
I0716 08:00:28.330247 14827 net.cpp:197] Top shape: 1 12 64 128 (98304)
I0716 08:00:28.330253 14827 net.cpp:205] Memory required for data: 27000836
I0716 08:00:28.330258 14827 layer_factory.hpp:123] Creating layer ConvNd_3
I0716 08:00:28.330271 14827 net.cpp:140] Creating Layer ConvNd_3
I0716 08:00:28.330276 14827 net.cpp:481] ConvNd_3 <- ConvNd_2_ConvNd_2_0_split_0
I0716 08:00:28.330286 14827 net.cpp:455] ConvNd_3 -> ConvNd_3
I0716 08:00:28.330585 14827 net.cpp:190] Setting up ConvNd_3
I0716 08:00:28.330598 14827 net.cpp:197] Top shape: 1 16 64 128 (131072)
I0716 08:00:28.330603 14827 net.cpp:205] Memory required for data: 27525124
I0716 08:00:28.330610 14827 layer_factory.hpp:123] Creating layer ConvNd_4
I0716 08:00:28.330622 14827 net.cpp:140] Creating Layer ConvNd_4
I0716 08:00:28.330628 14827 net.cpp:481] ConvNd_4 <- ConvNd_2_ConvNd_2_0_split_1
I0716 08:00:28.330637 14827 net.cpp:455] ConvNd_4 -> ConvNd_4
I0716 08:00:28.330904 14827 net.cpp:190] Setting up ConvNd_4
I0716 08:00:28.330915 14827 net.cpp:197] Top shape: 1 12 64 128 (98304)
I0716 08:00:28.330920 14827 net.cpp:205] Memory required for data: 27918340
I0716 08:00:28.330927 14827 layer_factory.hpp:123] Creating layer ConvNd_4_ConvNd_4_0_split
I0716 08:00:28.330936 14827 net.cpp:140] Creating Layer ConvNd_4_ConvNd_4_0_split
I0716 08:00:28.330941 14827 net.cpp:481] ConvNd_4_ConvNd_4_0_split <- ConvNd_4
I0716 08:00:28.330950 14827 net.cpp:455] ConvNd_4_ConvNd_4_0_split -> ConvNd_4_ConvNd_4_0_split_0
I0716 08:00:28.330960 14827 net.cpp:455] ConvNd_4_ConvNd_4_0_split -> ConvNd_4_ConvNd_4_0_split_1
I0716 08:00:28.331005 14827 net.cpp:190] Setting up ConvNd_4_ConvNd_4_0_split
I0716 08:00:28.331015 14827 net.cpp:197] Top shape: 1 12 64 128 (98304)
I0716 08:00:28.331022 14827 net.cpp:197] Top shape: 1 12 64 128 (98304)
I0716 08:00:28.331027 14827 net.cpp:205] Memory required for data: 28704772
I0716 08:00:28.331032 14827 layer_factory.hpp:123] Creating layer ConvNd_5
I0716 08:00:28.331043 14827 net.cpp:140] Creating Layer ConvNd_5
I0716 08:00:28.331048 14827 net.cpp:481] ConvNd_5 <- ConvNd_2_ConvNd_2_0_split_2
I0716 08:00:28.331056 14827 net.cpp:455] ConvNd_5 -> ConvNd_5
I0716 08:00:28.331321 14827 net.cpp:190] Setting up ConvNd_5
I0716 08:00:28.331332 14827 net.cpp:197] Top shape: 1 12 64 128 (98304)
I0716 08:00:28.331337 14827 net.cpp:205] Memory required for data: 29097988
I0716 08:00:28.331344 14827 layer_factory.hpp:123] Creating layer Add_1
I0716 08:00:28.331355 14827 net.cpp:140] Creating Layer Add_1
I0716 08:00:28.331362 14827 net.cpp:481] Add_1 <- ConvNd_4_ConvNd_4_0_split_0
I0716 08:00:28.331368 14827 net.cpp:481] Add_1 <- ConvNd_5
I0716 08:00:28.331377 14827 net.cpp:455] Add_1 -> Add_1
I0716 08:00:28.331408 14827 net.cpp:190] Setting up Add_1
I0716 08:00:28.331418 14827 net.cpp:197] Top shape: 1 12 64 128 (98304)
I0716 08:00:28.331423 14827 net.cpp:205] Memory required for data: 29491204
I0716 08:00:28.331427 14827 layer_factory.hpp:123] Creating layer Add_1_Add_1_0_split
I0716 08:00:28.331436 14827 net.cpp:140] Creating Layer Add_1_Add_1_0_split
I0716 08:00:28.331440 14827 net.cpp:481] Add_1_Add_1_0_split <- Add_1
I0716 08:00:28.331449 14827 net.cpp:455] Add_1_Add_1_0_split -> Add_1_Add_1_0_split_0
I0716 08:00:28.331459 14827 net.cpp:455] Add_1_Add_1_0_split -> Add_1_Add_1_0_split_1
I0716 08:00:28.331504 14827 net.cpp:190] Setting up Add_1_Add_1_0_split
I0716 08:00:28.331514 14827 net.cpp:197] Top shape: 1 12 64 128 (98304)
I0716 08:00:28.331521 14827 net.cpp:197] Top shape: 1 12 64 128 (98304)
I0716 08:00:28.331526 14827 net.cpp:205] Memory required for data: 30277636
I0716 08:00:28.331532 14827 layer_factory.hpp:123] Creating layer ConvNd_6
I0716 08:00:28.331543 14827 net.cpp:140] Creating Layer ConvNd_6
I0716 08:00:28.331548 14827 net.cpp:481] ConvNd_6 <- ConvNd_2_ConvNd_2_0_split_3
I0716 08:00:28.331557 14827 net.cpp:455] ConvNd_6 -> ConvNd_6
I0716 08:00:28.331830 14827 net.cpp:190] Setting up ConvNd_6
I0716 08:00:28.331842 14827 net.cpp:197] Top shape: 1 12 64 128 (98304)
I0716 08:00:28.331847 14827 net.cpp:205] Memory required for data: 30670852
I0716 08:00:28.331854 14827 layer_factory.hpp:123] Creating layer Add_2
I0716 08:00:28.331863 14827 net.cpp:140] Creating Layer Add_2
I0716 08:00:28.331868 14827 net.cpp:481] Add_2 <- Add_1_Add_1_0_split_0
I0716 08:00:28.331874 14827 net.cpp:481] Add_2 <- ConvNd_6
I0716 08:00:28.331883 14827 net.cpp:455] Add_2 -> Add_2
I0716 08:00:28.331913 14827 net.cpp:190] Setting up Add_2
I0716 08:00:28.331921 14827 net.cpp:197] Top shape: 1 12 64 128 (98304)
I0716 08:00:28.331926 14827 net.cpp:205] Memory required for data: 31064068
I0716 08:00:28.331930 14827 layer_factory.hpp:123] Creating layer Add_2_Add_2_0_split
I0716 08:00:28.331939 14827 net.cpp:140] Creating Layer Add_2_Add_2_0_split
I0716 08:00:28.331944 14827 net.cpp:481] Add_2_Add_2_0_split <- Add_2
I0716 08:00:28.331952 14827 net.cpp:455] Add_2_Add_2_0_split -> Add_2_Add_2_0_split_0
I0716 08:00:28.331962 14827 net.cpp:455] Add_2_Add_2_0_split -> Add_2_Add_2_0_split_1
I0716 08:00:28.332005 14827 net.cpp:190] Setting up Add_2_Add_2_0_split
I0716 08:00:28.332015 14827 net.cpp:197] Top shape: 1 12 64 128 (98304)
I0716 08:00:28.332021 14827 net.cpp:197] Top shape: 1 12 64 128 (98304)
I0716 08:00:28.332026 14827 net.cpp:205] Memory required for data: 31850500
I0716 08:00:28.332031 14827 layer_factory.hpp:123] Creating layer ConvNd_7
I0716 08:00:28.332042 14827 net.cpp:140] Creating Layer ConvNd_7
I0716 08:00:28.332047 14827 net.cpp:481] ConvNd_7 <- ConvNd_2_ConvNd_2_0_split_4
I0716 08:00:28.332056 14827 net.cpp:455] ConvNd_7 -> ConvNd_7
I0716 08:00:28.332325 14827 net.cpp:190] Setting up ConvNd_7
I0716 08:00:28.332336 14827 net.cpp:197] Top shape: 1 12 64 128 (98304)
I0716 08:00:28.332341 14827 net.cpp:205] Memory required for data: 32243716
I0716 08:00:28.332352 14827 layer_factory.hpp:123] Creating layer Add_3
I0716 08:00:28.332360 14827 net.cpp:140] Creating Layer Add_3
I0716 08:00:28.332365 14827 net.cpp:481] Add_3 <- Add_2_Add_2_0_split_0
I0716 08:00:28.332372 14827 net.cpp:481] Add_3 <- ConvNd_7
I0716 08:00:28.332381 14827 net.cpp:455] Add_3 -> Add_3
I0716 08:00:28.332410 14827 net.cpp:190] Setting up Add_3
I0716 08:00:28.332420 14827 net.cpp:197] Top shape: 1 12 64 128 (98304)
I0716 08:00:28.332425 14827 net.cpp:205] Memory required for data: 32636932
I0716 08:00:28.332430 14827 layer_factory.hpp:123] Creating layer Concat_2
I0716 08:00:28.332439 14827 net.cpp:140] Creating Layer Concat_2
I0716 08:00:28.332444 14827 net.cpp:481] Concat_2 <- ConvNd_3
I0716 08:00:28.332451 14827 net.cpp:481] Concat_2 <- ConvNd_4_ConvNd_4_0_split_1
I0716 08:00:28.332458 14827 net.cpp:481] Concat_2 <- Add_1_Add_1_0_split_1
I0716 08:00:28.332465 14827 net.cpp:481] Concat_2 <- Add_2_Add_2_0_split_1
I0716 08:00:28.332471 14827 net.cpp:481] Concat_2 <- Add_3
I0716 08:00:28.332479 14827 net.cpp:455] Concat_2 -> Concat_2
I0716 08:00:28.332512 14827 net.cpp:190] Setting up Concat_2
I0716 08:00:28.332523 14827 net.cpp:197] Top shape: 1 64 64 128 (524288)
I0716 08:00:28.332527 14827 net.cpp:205] Memory required for data: 34734084
I0716 08:00:28.332532 14827 layer_factory.hpp:123] Creating layer BatchNorm_3
I0716 08:00:28.332542 14827 net.cpp:140] Creating Layer BatchNorm_3
I0716 08:00:28.332548 14827 net.cpp:481] BatchNorm_3 <- Concat_2
I0716 08:00:28.332556 14827 net.cpp:455] BatchNorm_3 -> BatchNorm_3
I0716 08:00:28.334779 14827 net.cpp:190] Setting up BatchNorm_3
I0716 08:00:28.334796 14827 net.cpp:197] Top shape: 1 64 64 128 (524288)
I0716 08:00:28.334802 14827 net.cpp:205] Memory required for data: 36831236
I0716 08:00:28.334817 14827 layer_factory.hpp:123] Creating layer Threshold_3
I0716 08:00:28.334827 14827 net.cpp:140] Creating Layer Threshold_3
I0716 08:00:28.334832 14827 net.cpp:481] Threshold_3 <- BatchNorm_3
I0716 08:00:28.334841 14827 net.cpp:442] Threshold_3 -> BatchNorm_3 (in-place)
I0716 08:00:28.334852 14827 net.cpp:190] Setting up Threshold_3
I0716 08:00:28.334861 14827 net.cpp:197] Top shape: 1 64 64 128 (524288)
I0716 08:00:28.334864 14827 net.cpp:205] Memory required for data: 38928388
I0716 08:00:28.334870 14827 layer_factory.hpp:123] Creating layer BatchNorm_3_Threshold_3_0_split
I0716 08:00:28.334877 14827 net.cpp:140] Creating Layer BatchNorm_3_Threshold_3_0_split
I0716 08:00:28.334882 14827 net.cpp:481] BatchNorm_3_Threshold_3_0_split <- BatchNorm_3
I0716 08:00:28.334890 14827 net.cpp:455] BatchNorm_3_Threshold_3_0_split -> BatchNorm_3_Threshold_3_0_split_0
I0716 08:00:28.334903 14827 net.cpp:455] BatchNorm_3_Threshold_3_0_split -> BatchNorm_3_Threshold_3_0_split_1
I0716 08:00:28.334913 14827 net.cpp:455] BatchNorm_3_Threshold_3_0_split -> BatchNorm_3_Threshold_3_0_split_2
I0716 08:00:28.334981 14827 net.cpp:190] Setting up BatchNorm_3_Threshold_3_0_split
I0716 08:00:28.334991 14827 net.cpp:197] Top shape: 1 64 64 128 (524288)
I0716 08:00:28.334998 14827 net.cpp:197] Top shape: 1 64 64 128 (524288)
I0716 08:00:28.335005 14827 net.cpp:197] Top shape: 1 64 64 128 (524288)
I0716 08:00:28.335009 14827 net.cpp:205] Memory required for data: 45219844
I0716 08:00:28.335014 14827 layer_factory.hpp:123] Creating layer ConvNd_8
I0716 08:00:28.335027 14827 net.cpp:140] Creating Layer ConvNd_8
I0716 08:00:28.335033 14827 net.cpp:481] ConvNd_8 <- BatchNorm_3_Threshold_3_0_split_0
I0716 08:00:28.335042 14827 net.cpp:455] ConvNd_8 -> ConvNd_8
I0716 08:00:28.335319 14827 net.cpp:190] Setting up ConvNd_8
I0716 08:00:28.335332 14827 net.cpp:197] Top shape: 1 12 64 128 (98304)
I0716 08:00:28.335337 14827 net.cpp:205] Memory required for data: 45613060
I0716 08:00:28.335345 14827 layer_factory.hpp:123] Creating layer ConvNd_8_ConvNd_8_0_split
I0716 08:00:28.335355 14827 net.cpp:140] Creating Layer ConvNd_8_ConvNd_8_0_split
I0716 08:00:28.335361 14827 net.cpp:481] ConvNd_8_ConvNd_8_0_split <- ConvNd_8
I0716 08:00:28.335369 14827 net.cpp:455] ConvNd_8_ConvNd_8_0_split -> ConvNd_8_ConvNd_8_0_split_0
I0716 08:00:28.335381 14827 net.cpp:455] ConvNd_8_ConvNd_8_0_split -> ConvNd_8_ConvNd_8_0_split_1
I0716 08:00:28.335392 14827 net.cpp:455] ConvNd_8_ConvNd_8_0_split -> ConvNd_8_ConvNd_8_0_split_2
I0716 08:00:28.335402 14827 net.cpp:455] ConvNd_8_ConvNd_8_0_split -> ConvNd_8_ConvNd_8_0_split_3
I0716 08:00:28.335412 14827 net.cpp:455] ConvNd_8_ConvNd_8_0_split -> ConvNd_8_ConvNd_8_0_split_4
I0716 08:00:28.335505 14827 net.cpp:190] Setting up ConvNd_8_ConvNd_8_0_split
I0716 08:00:28.335515 14827 net.cpp:197] Top shape: 1 12 64 128 (98304)
I0716 08:00:28.335522 14827 net.cpp:197] Top shape: 1 12 64 128 (98304)
I0716 08:00:28.335528 14827 net.cpp:197] Top shape: 1 12 64 128 (98304)
I0716 08:00:28.335534 14827 net.cpp:197] Top shape: 1 12 64 128 (98304)
I0716 08:00:28.335541 14827 net.cpp:197] Top shape: 1 12 64 128 (98304)
I0716 08:00:28.335546 14827 net.cpp:205] Memory required for data: 47579140
I0716 08:00:28.335551 14827 layer_factory.hpp:123] Creating layer ConvNd_9
I0716 08:00:28.335563 14827 net.cpp:140] Creating Layer ConvNd_9
I0716 08:00:28.335568 14827 net.cpp:481] ConvNd_9 <- ConvNd_8_ConvNd_8_0_split_0
I0716 08:00:28.335578 14827 net.cpp:455] ConvNd_9 -> ConvNd_9
I0716 08:00:28.335875 14827 net.cpp:190] Setting up ConvNd_9
I0716 08:00:28.335887 14827 net.cpp:197] Top shape: 1 16 64 128 (131072)
I0716 08:00:28.335892 14827 net.cpp:205] Memory required for data: 48103428
I0716 08:00:28.335901 14827 layer_factory.hpp:123] Creating layer ConvNd_10
I0716 08:00:28.335912 14827 net.cpp:140] Creating Layer ConvNd_10
I0716 08:00:28.335918 14827 net.cpp:481] ConvNd_10 <- ConvNd_8_ConvNd_8_0_split_1
I0716 08:00:28.335927 14827 net.cpp:455] ConvNd_10 -> ConvNd_10
I0716 08:00:28.336195 14827 net.cpp:190] Setting up ConvNd_10
I0716 08:00:28.336208 14827 net.cpp:197] Top shape: 1 12 64 128 (98304)
I0716 08:00:28.336213 14827 net.cpp:205] Memory required for data: 48496644
I0716 08:00:28.336221 14827 layer_factory.hpp:123] Creating layer ConvNd_10_ConvNd_10_0_split
I0716 08:00:28.336230 14827 net.cpp:140] Creating Layer ConvNd_10_ConvNd_10_0_split
I0716 08:00:28.336236 14827 net.cpp:481] ConvNd_10_ConvNd_10_0_split <- ConvNd_10
I0716 08:00:28.336244 14827 net.cpp:455] ConvNd_10_ConvNd_10_0_split -> ConvNd_10_ConvNd_10_0_split_0
I0716 08:00:28.336256 14827 net.cpp:455] ConvNd_10_ConvNd_10_0_split -> ConvNd_10_ConvNd_10_0_split_1
I0716 08:00:28.336304 14827 net.cpp:190] Setting up ConvNd_10_ConvNd_10_0_split
I0716 08:00:28.336314 14827 net.cpp:197] Top shape: 1 12 64 128 (98304)
I0716 08:00:28.336321 14827 net.cpp:197] Top shape: 1 12 64 128 (98304)
I0716 08:00:28.336326 14827 net.cpp:205] Memory required for data: 49283076
I0716 08:00:28.336331 14827 layer_factory.hpp:123] Creating layer ConvNd_11
I0716 08:00:28.336345 14827 net.cpp:140] Creating Layer ConvNd_11
I0716 08:00:28.336350 14827 net.cpp:481] ConvNd_11 <- ConvNd_8_ConvNd_8_0_split_2
I0716 08:00:28.336359 14827 net.cpp:455] ConvNd_11 -> ConvNd_11
I0716 08:00:28.336624 14827 net.cpp:190] Setting up ConvNd_11
I0716 08:00:28.336637 14827 net.cpp:197] Top shape: 1 12 64 128 (98304)
I0716 08:00:28.336642 14827 net.cpp:205] Memory required for data: 49676292
I0716 08:00:28.336648 14827 layer_factory.hpp:123] Creating layer Add_4
I0716 08:00:28.336658 14827 net.cpp:140] Creating Layer Add_4
I0716 08:00:28.336663 14827 net.cpp:481] Add_4 <- ConvNd_10_ConvNd_10_0_split_0
I0716 08:00:28.336670 14827 net.cpp:481] Add_4 <- ConvNd_11
I0716 08:00:28.336678 14827 net.cpp:455] Add_4 -> Add_4
I0716 08:00:28.336709 14827 net.cpp:190] Setting up Add_4
I0716 08:00:28.336719 14827 net.cpp:197] Top shape: 1 12 64 128 (98304)
I0716 08:00:28.336724 14827 net.cpp:205] Memory required for data: 50069508
I0716 08:00:28.336730 14827 layer_factory.hpp:123] Creating layer Add_4_Add_4_0_split
I0716 08:00:28.336737 14827 net.cpp:140] Creating Layer Add_4_Add_4_0_split
I0716 08:00:28.336743 14827 net.cpp:481] Add_4_Add_4_0_split <- Add_4
I0716 08:00:28.336752 14827 net.cpp:455] Add_4_Add_4_0_split -> Add_4_Add_4_0_split_0
I0716 08:00:28.336762 14827 net.cpp:455] Add_4_Add_4_0_split -> Add_4_Add_4_0_split_1
I0716 08:00:28.336807 14827 net.cpp:190] Setting up Add_4_Add_4_0_split
I0716 08:00:28.336817 14827 net.cpp:197] Top shape: 1 12 64 128 (98304)
I0716 08:00:28.336824 14827 net.cpp:197] Top shape: 1 12 64 128 (98304)
I0716 08:00:28.336828 14827 net.cpp:205] Memory required for data: 50855940
I0716 08:00:28.336834 14827 layer_factory.hpp:123] Creating layer ConvNd_12
I0716 08:00:28.336846 14827 net.cpp:140] Creating Layer ConvNd_12
I0716 08:00:28.336851 14827 net.cpp:481] ConvNd_12 <- ConvNd_8_ConvNd_8_0_split_3
I0716 08:00:28.336860 14827 net.cpp:455] ConvNd_12 -> ConvNd_12
I0716 08:00:28.337127 14827 net.cpp:190] Setting up ConvNd_12
I0716 08:00:28.337137 14827 net.cpp:197] Top shape: 1 12 64 128 (98304)
I0716 08:00:28.337143 14827 net.cpp:205] Memory required for data: 51249156
I0716 08:00:28.337150 14827 layer_factory.hpp:123] Creating layer Add_5
I0716 08:00:28.337159 14827 net.cpp:140] Creating Layer Add_5
I0716 08:00:28.337164 14827 net.cpp:481] Add_5 <- Add_4_Add_4_0_split_0
I0716 08:00:28.337172 14827 net.cpp:481] Add_5 <- ConvNd_12
I0716 08:00:28.337179 14827 net.cpp:455] Add_5 -> Add_5
I0716 08:00:28.337209 14827 net.cpp:190] Setting up Add_5
I0716 08:00:28.337218 14827 net.cpp:197] Top shape: 1 12 64 128 (98304)
I0716 08:00:28.337224 14827 net.cpp:205] Memory required for data: 51642372
I0716 08:00:28.337229 14827 layer_factory.hpp:123] Creating layer Add_5_Add_5_0_split
I0716 08:00:28.337239 14827 net.cpp:140] Creating Layer Add_5_Add_5_0_split
I0716 08:00:28.337244 14827 net.cpp:481] Add_5_Add_5_0_split <- Add_5
I0716 08:00:28.337251 14827 net.cpp:455] Add_5_Add_5_0_split -> Add_5_Add_5_0_split_0
I0716 08:00:28.337262 14827 net.cpp:455] Add_5_Add_5_0_split -> Add_5_Add_5_0_split_1
I0716 08:00:28.337306 14827 net.cpp:190] Setting up Add_5_Add_5_0_split
I0716 08:00:28.337314 14827 net.cpp:197] Top shape: 1 12 64 128 (98304)
I0716 08:00:28.337321 14827 net.cpp:197] Top shape: 1 12 64 128 (98304)
I0716 08:00:28.337327 14827 net.cpp:205] Memory required for data: 52428804
I0716 08:00:28.337332 14827 layer_factory.hpp:123] Creating layer ConvNd_13
I0716 08:00:28.337343 14827 net.cpp:140] Creating Layer ConvNd_13
I0716 08:00:28.337349 14827 net.cpp:481] ConvNd_13 <- ConvNd_8_ConvNd_8_0_split_4
I0716 08:00:28.337358 14827 net.cpp:455] ConvNd_13 -> ConvNd_13
I0716 08:00:28.337626 14827 net.cpp:190] Setting up ConvNd_13
I0716 08:00:28.337638 14827 net.cpp:197] Top shape: 1 12 64 128 (98304)
I0716 08:00:28.337643 14827 net.cpp:205] Memory required for data: 52822020
I0716 08:00:28.337651 14827 layer_factory.hpp:123] Creating layer Add_6
I0716 08:00:28.337659 14827 net.cpp:140] Creating Layer Add_6
I0716 08:00:28.337664 14827 net.cpp:481] Add_6 <- Add_5_Add_5_0_split_0
I0716 08:00:28.337671 14827 net.cpp:481] Add_6 <- ConvNd_13
I0716 08:00:28.337679 14827 net.cpp:455] Add_6 -> Add_6
I0716 08:00:28.337709 14827 net.cpp:190] Setting up Add_6
I0716 08:00:28.337718 14827 net.cpp:197] Top shape: 1 12 64 128 (98304)
I0716 08:00:28.337723 14827 net.cpp:205] Memory required for data: 53215236
I0716 08:00:28.337728 14827 layer_factory.hpp:123] Creating layer Concat_3
I0716 08:00:28.337738 14827 net.cpp:140] Creating Layer Concat_3
I0716 08:00:28.337743 14827 net.cpp:481] Concat_3 <- ConvNd_9
I0716 08:00:28.337749 14827 net.cpp:481] Concat_3 <- ConvNd_10_ConvNd_10_0_split_1
I0716 08:00:28.337755 14827 net.cpp:481] Concat_3 <- Add_4_Add_4_0_split_1
I0716 08:00:28.337762 14827 net.cpp:481] Concat_3 <- Add_5_Add_5_0_split_1
I0716 08:00:28.337769 14827 net.cpp:481] Concat_3 <- Add_6
I0716 08:00:28.337776 14827 net.cpp:455] Concat_3 -> Concat_3
I0716 08:00:28.337806 14827 net.cpp:190] Setting up Concat_3
I0716 08:00:28.337816 14827 net.cpp:197] Top shape: 1 64 64 128 (524288)
I0716 08:00:28.337821 14827 net.cpp:205] Memory required for data: 55312388
I0716 08:00:28.337826 14827 layer_factory.hpp:123] Creating layer Add_7
I0716 08:00:28.337833 14827 net.cpp:140] Creating Layer Add_7
I0716 08:00:28.337841 14827 net.cpp:481] Add_7 <- BatchNorm_3_Threshold_3_0_split_1
I0716 08:00:28.337846 14827 net.cpp:481] Add_7 <- Concat_3
I0716 08:00:28.337855 14827 net.cpp:455] Add_7 -> Add_7
I0716 08:00:28.337883 14827 net.cpp:190] Setting up Add_7
I0716 08:00:28.337893 14827 net.cpp:197] Top shape: 1 64 64 128 (524288)
I0716 08:00:28.337898 14827 net.cpp:205] Memory required for data: 57409540
I0716 08:00:28.337903 14827 layer_factory.hpp:123] Creating layer BatchNorm_4
I0716 08:00:28.337913 14827 net.cpp:140] Creating Layer BatchNorm_4
I0716 08:00:28.337918 14827 net.cpp:481] BatchNorm_4 <- Add_7
I0716 08:00:28.337927 14827 net.cpp:455] BatchNorm_4 -> BatchNorm_4
I0716 08:00:28.338838 14827 net.cpp:190] Setting up BatchNorm_4
I0716 08:00:28.338851 14827 net.cpp:197] Top shape: 1 64 64 128 (524288)
I0716 08:00:28.338856 14827 net.cpp:205] Memory required for data: 59506692
I0716 08:00:28.338874 14827 layer_factory.hpp:123] Creating layer Threshold_4
I0716 08:00:28.338886 14827 net.cpp:140] Creating Layer Threshold_4
I0716 08:00:28.338891 14827 net.cpp:481] Threshold_4 <- BatchNorm_4
I0716 08:00:28.338899 14827 net.cpp:442] Threshold_4 -> BatchNorm_4 (in-place)
I0716 08:00:28.338912 14827 net.cpp:190] Setting up Threshold_4
I0716 08:00:28.338920 14827 net.cpp:197] Top shape: 1 64 64 128 (524288)
I0716 08:00:28.338925 14827 net.cpp:205] Memory required for data: 61603844
I0716 08:00:28.338930 14827 layer_factory.hpp:123] Creating layer BatchNorm_4_Threshold_4_0_split
I0716 08:00:28.338938 14827 net.cpp:140] Creating Layer BatchNorm_4_Threshold_4_0_split
I0716 08:00:28.338943 14827 net.cpp:481] BatchNorm_4_Threshold_4_0_split <- BatchNorm_4
I0716 08:00:28.338951 14827 net.cpp:455] BatchNorm_4_Threshold_4_0_split -> BatchNorm_4_Threshold_4_0_split_0
I0716 08:00:28.338963 14827 net.cpp:455] BatchNorm_4_Threshold_4_0_split -> BatchNorm_4_Threshold_4_0_split_1
I0716 08:00:28.339011 14827 net.cpp:190] Setting up BatchNorm_4_Threshold_4_0_split
I0716 08:00:28.339021 14827 net.cpp:197] Top shape: 1 64 64 128 (524288)
I0716 08:00:28.339027 14827 net.cpp:197] Top shape: 1 64 64 128 (524288)
I0716 08:00:28.339032 14827 net.cpp:205] Memory required for data: 65798148
I0716 08:00:28.339037 14827 layer_factory.hpp:123] Creating layer ConvNd_14
I0716 08:00:28.339049 14827 net.cpp:140] Creating Layer ConvNd_14
I0716 08:00:28.339056 14827 net.cpp:481] ConvNd_14 <- BatchNorm_4_Threshold_4_0_split_0
I0716 08:00:28.339066 14827 net.cpp:455] ConvNd_14 -> ConvNd_14
I0716 08:00:28.339327 14827 net.cpp:190] Setting up ConvNd_14
I0716 08:00:28.339339 14827 net.cpp:197] Top shape: 1 12 64 128 (98304)
I0716 08:00:28.339344 14827 net.cpp:205] Memory required for data: 66191364
I0716 08:00:28.339352 14827 layer_factory.hpp:123] Creating layer ConvNd_14_ConvNd_14_0_split
I0716 08:00:28.339360 14827 net.cpp:140] Creating Layer ConvNd_14_ConvNd_14_0_split
I0716 08:00:28.339367 14827 net.cpp:481] ConvNd_14_ConvNd_14_0_split <- ConvNd_14
I0716 08:00:28.339376 14827 net.cpp:455] ConvNd_14_ConvNd_14_0_split -> ConvNd_14_ConvNd_14_0_split_0
I0716 08:00:28.339390 14827 net.cpp:455] ConvNd_14_ConvNd_14_0_split -> ConvNd_14_ConvNd_14_0_split_1
I0716 08:00:28.339406 14827 net.cpp:455] ConvNd_14_ConvNd_14_0_split -> ConvNd_14_ConvNd_14_0_split_2
I0716 08:00:28.339418 14827 net.cpp:455] ConvNd_14_ConvNd_14_0_split -> ConvNd_14_ConvNd_14_0_split_3
I0716 08:00:28.339429 14827 net.cpp:455] ConvNd_14_ConvNd_14_0_split -> ConvNd_14_ConvNd_14_0_split_4
I0716 08:00:28.339521 14827 net.cpp:190] Setting up ConvNd_14_ConvNd_14_0_split
I0716 08:00:28.339531 14827 net.cpp:197] Top shape: 1 12 64 128 (98304)
I0716 08:00:28.339538 14827 net.cpp:197] Top shape: 1 12 64 128 (98304)
I0716 08:00:28.339545 14827 net.cpp:197] Top shape: 1 12 64 128 (98304)
I0716 08:00:28.339551 14827 net.cpp:197] Top shape: 1 12 64 128 (98304)
I0716 08:00:28.339558 14827 net.cpp:197] Top shape: 1 12 64 128 (98304)
I0716 08:00:28.339562 14827 net.cpp:205] Memory required for data: 68157444
I0716 08:00:28.339567 14827 layer_factory.hpp:123] Creating layer ConvNd_15
I0716 08:00:28.339579 14827 net.cpp:140] Creating Layer ConvNd_15
I0716 08:00:28.339586 14827 net.cpp:481] ConvNd_15 <- ConvNd_14_ConvNd_14_0_split_0
I0716 08:00:28.339596 14827 net.cpp:455] ConvNd_15 -> ConvNd_15
I0716 08:00:28.339890 14827 net.cpp:190] Setting up ConvNd_15
I0716 08:00:28.339902 14827 net.cpp:197] Top shape: 1 16 64 128 (131072)
I0716 08:00:28.339907 14827 net.cpp:205] Memory required for data: 68681732
I0716 08:00:28.339915 14827 layer_factory.hpp:123] Creating layer ConvNd_16
I0716 08:00:28.339927 14827 net.cpp:140] Creating Layer ConvNd_16
I0716 08:00:28.339936 14827 net.cpp:481] ConvNd_16 <- ConvNd_14_ConvNd_14_0_split_1
I0716 08:00:28.339944 14827 net.cpp:455] ConvNd_16 -> ConvNd_16
I0716 08:00:28.340216 14827 net.cpp:190] Setting up ConvNd_16
I0716 08:00:28.340229 14827 net.cpp:197] Top shape: 1 12 64 128 (98304)
I0716 08:00:28.340234 14827 net.cpp:205] Memory required for data: 69074948
I0716 08:00:28.340240 14827 layer_factory.hpp:123] Creating layer ConvNd_16_ConvNd_16_0_split
I0716 08:00:28.340248 14827 net.cpp:140] Creating Layer ConvNd_16_ConvNd_16_0_split
I0716 08:00:28.340256 14827 net.cpp:481] ConvNd_16_ConvNd_16_0_split <- ConvNd_16
I0716 08:00:28.340266 14827 net.cpp:455] ConvNd_16_ConvNd_16_0_split -> ConvNd_16_ConvNd_16_0_split_0
I0716 08:00:28.340276 14827 net.cpp:455] ConvNd_16_ConvNd_16_0_split -> ConvNd_16_ConvNd_16_0_split_1
I0716 08:00:28.340325 14827 net.cpp:190] Setting up ConvNd_16_ConvNd_16_0_split
I0716 08:00:28.340335 14827 net.cpp:197] Top shape: 1 12 64 128 (98304)
I0716 08:00:28.340342 14827 net.cpp:197] Top shape: 1 12 64 128 (98304)
I0716 08:00:28.340348 14827 net.cpp:205] Memory required for data: 69861380
I0716 08:00:28.340353 14827 layer_factory.hpp:123] Creating layer ConvNd_17
I0716 08:00:28.340363 14827 net.cpp:140] Creating Layer ConvNd_17
I0716 08:00:28.340371 14827 net.cpp:481] ConvNd_17 <- ConvNd_14_ConvNd_14_0_split_2
I0716 08:00:28.340380 14827 net.cpp:455] ConvNd_17 -> ConvNd_17
I0716 08:00:28.340649 14827 net.cpp:190] Setting up ConvNd_17
I0716 08:00:28.340660 14827 net.cpp:197] Top shape: 1 12 64 128 (98304)
I0716 08:00:28.340667 14827 net.cpp:205] Memory required for data: 70254596
I0716 08:00:28.340673 14827 layer_factory.hpp:123] Creating layer Add_8
I0716 08:00:28.340682 14827 net.cpp:140] Creating Layer Add_8
I0716 08:00:28.340687 14827 net.cpp:481] Add_8 <- ConvNd_16_ConvNd_16_0_split_0
I0716 08:00:28.340694 14827 net.cpp:481] Add_8 <- ConvNd_17
I0716 08:00:28.340703 14827 net.cpp:455] Add_8 -> Add_8
I0716 08:00:28.340732 14827 net.cpp:190] Setting up Add_8
I0716 08:00:28.340742 14827 net.cpp:197] Top shape: 1 12 64 128 (98304)
I0716 08:00:28.340749 14827 net.cpp:205] Memory required for data: 70647812
I0716 08:00:28.340754 14827 layer_factory.hpp:123] Creating layer Add_8_Add_8_0_split
I0716 08:00:28.340761 14827 net.cpp:140] Creating Layer Add_8_Add_8_0_split
I0716 08:00:28.340766 14827 net.cpp:481] Add_8_Add_8_0_split <- Add_8
I0716 08:00:28.340775 14827 net.cpp:455] Add_8_Add_8_0_split -> Add_8_Add_8_0_split_0
I0716 08:00:28.340786 14827 net.cpp:455] Add_8_Add_8_0_split -> Add_8_Add_8_0_split_1
I0716 08:00:28.340831 14827 net.cpp:190] Setting up Add_8_Add_8_0_split
I0716 08:00:28.340840 14827 net.cpp:197] Top shape: 1 12 64 128 (98304)
I0716 08:00:28.340847 14827 net.cpp:197] Top shape: 1 12 64 128 (98304)
I0716 08:00:28.340852 14827 net.cpp:205] Memory required for data: 71434244
I0716 08:00:28.340857 14827 layer_factory.hpp:123] Creating layer ConvNd_18
I0716 08:00:28.340869 14827 net.cpp:140] Creating Layer ConvNd_18
I0716 08:00:28.340876 14827 net.cpp:481] ConvNd_18 <- ConvNd_14_ConvNd_14_0_split_3
I0716 08:00:28.340885 14827 net.cpp:455] ConvNd_18 -> ConvNd_18
I0716 08:00:28.341156 14827 net.cpp:190] Setting up ConvNd_18
I0716 08:00:28.341167 14827 net.cpp:197] Top shape: 1 12 64 128 (98304)
I0716 08:00:28.341172 14827 net.cpp:205] Memory required for data: 71827460
I0716 08:00:28.341181 14827 layer_factory.hpp:123] Creating layer Add_9
I0716 08:00:28.341188 14827 net.cpp:140] Creating Layer Add_9
I0716 08:00:28.341195 14827 net.cpp:481] Add_9 <- Add_8_Add_8_0_split_0
I0716 08:00:28.341203 14827 net.cpp:481] Add_9 <- ConvNd_18
I0716 08:00:28.341212 14827 net.cpp:455] Add_9 -> Add_9
I0716 08:00:28.341240 14827 net.cpp:190] Setting up Add_9
I0716 08:00:28.341249 14827 net.cpp:197] Top shape: 1 12 64 128 (98304)
I0716 08:00:28.341255 14827 net.cpp:205] Memory required for data: 72220676
I0716 08:00:28.341260 14827 layer_factory.hpp:123] Creating layer Add_9_Add_9_0_split
I0716 08:00:28.341269 14827 net.cpp:140] Creating Layer Add_9_Add_9_0_split
I0716 08:00:28.341274 14827 net.cpp:481] Add_9_Add_9_0_split <- Add_9
I0716 08:00:28.341282 14827 net.cpp:455] Add_9_Add_9_0_split -> Add_9_Add_9_0_split_0
I0716 08:00:28.341292 14827 net.cpp:455] Add_9_Add_9_0_split -> Add_9_Add_9_0_split_1
I0716 08:00:28.341337 14827 net.cpp:190] Setting up Add_9_Add_9_0_split
I0716 08:00:28.341346 14827 net.cpp:197] Top shape: 1 12 64 128 (98304)
I0716 08:00:28.341353 14827 net.cpp:197] Top shape: 1 12 64 128 (98304)
I0716 08:00:28.341358 14827 net.cpp:205] Memory required for data: 73007108
I0716 08:00:28.341363 14827 layer_factory.hpp:123] Creating layer ConvNd_19
I0716 08:00:28.341375 14827 net.cpp:140] Creating Layer ConvNd_19
I0716 08:00:28.341382 14827 net.cpp:481] ConvNd_19 <- ConvNd_14_ConvNd_14_0_split_4
I0716 08:00:28.341392 14827 net.cpp:455] ConvNd_19 -> ConvNd_19
I0716 08:00:28.341662 14827 net.cpp:190] Setting up ConvNd_19
I0716 08:00:28.341673 14827 net.cpp:197] Top shape: 1 12 64 128 (98304)
I0716 08:00:28.341678 14827 net.cpp:205] Memory required for data: 73400324
I0716 08:00:28.341686 14827 layer_factory.hpp:123] Creating layer Add_10
I0716 08:00:28.341694 14827 net.cpp:140] Creating Layer Add_10
I0716 08:00:28.341702 14827 net.cpp:481] Add_10 <- Add_9_Add_9_0_split_0
I0716 08:00:28.341709 14827 net.cpp:481] Add_10 <- ConvNd_19
I0716 08:00:28.341717 14827 net.cpp:455] Add_10 -> Add_10
I0716 08:00:28.341748 14827 net.cpp:190] Setting up Add_10
I0716 08:00:28.341758 14827 net.cpp:197] Top shape: 1 12 64 128 (98304)
I0716 08:00:28.341763 14827 net.cpp:205] Memory required for data: 73793540
I0716 08:00:28.341768 14827 layer_factory.hpp:123] Creating layer Concat_4
I0716 08:00:28.341778 14827 net.cpp:140] Creating Layer Concat_4
I0716 08:00:28.341783 14827 net.cpp:481] Concat_4 <- ConvNd_15
I0716 08:00:28.341789 14827 net.cpp:481] Concat_4 <- ConvNd_16_ConvNd_16_0_split_1
I0716 08:00:28.341796 14827 net.cpp:481] Concat_4 <- Add_8_Add_8_0_split_1
I0716 08:00:28.341802 14827 net.cpp:481] Concat_4 <- Add_9_Add_9_0_split_1
I0716 08:00:28.341809 14827 net.cpp:481] Concat_4 <- Add_10
I0716 08:00:28.341817 14827 net.cpp:455] Concat_4 -> Concat_4
I0716 08:00:28.341850 14827 net.cpp:190] Setting up Concat_4
I0716 08:00:28.341859 14827 net.cpp:197] Top shape: 1 64 64 128 (524288)
I0716 08:00:28.341863 14827 net.cpp:205] Memory required for data: 75890692
I0716 08:00:28.341869 14827 layer_factory.hpp:123] Creating layer Add_11
I0716 08:00:28.341877 14827 net.cpp:140] Creating Layer Add_11
I0716 08:00:28.341883 14827 net.cpp:481] Add_11 <- BatchNorm_4_Threshold_4_0_split_1
I0716 08:00:28.341889 14827 net.cpp:481] Add_11 <- Concat_4
I0716 08:00:28.341898 14827 net.cpp:455] Add_11 -> Add_11
I0716 08:00:28.341926 14827 net.cpp:190] Setting up Add_11
I0716 08:00:28.341935 14827 net.cpp:197] Top shape: 1 64 64 128 (524288)
I0716 08:00:28.341940 14827 net.cpp:205] Memory required for data: 77987844
I0716 08:00:28.341945 14827 layer_factory.hpp:123] Creating layer BatchNorm_5
I0716 08:00:28.341955 14827 net.cpp:140] Creating Layer BatchNorm_5
I0716 08:00:28.341960 14827 net.cpp:481] BatchNorm_5 <- Add_11
I0716 08:00:28.341969 14827 net.cpp:455] BatchNorm_5 -> BatchNorm_5
I0716 08:00:28.342900 14827 net.cpp:190] Setting up BatchNorm_5
I0716 08:00:28.342912 14827 net.cpp:197] Top shape: 1 64 64 128 (524288)
I0716 08:00:28.342917 14827 net.cpp:205] Memory required for data: 80084996
I0716 08:00:28.342931 14827 layer_factory.hpp:123] Creating layer Threshold_5
I0716 08:00:28.342942 14827 net.cpp:140] Creating Layer Threshold_5
I0716 08:00:28.342947 14827 net.cpp:481] Threshold_5 <- BatchNorm_5
I0716 08:00:28.342955 14827 net.cpp:442] Threshold_5 -> BatchNorm_5 (in-place)
I0716 08:00:28.342968 14827 net.cpp:190] Setting up Threshold_5
I0716 08:00:28.342978 14827 net.cpp:197] Top shape: 1 64 64 128 (524288)
I0716 08:00:28.342983 14827 net.cpp:205] Memory required for data: 82182148
I0716 08:00:28.342988 14827 layer_factory.hpp:123] Creating layer AvgPool2d_2
I0716 08:00:28.342996 14827 net.cpp:140] Creating Layer AvgPool2d_2
I0716 08:00:28.343001 14827 net.cpp:481] AvgPool2d_2 <- data_data_0_split_2
I0716 08:00:28.343009 14827 net.cpp:455] AvgPool2d_2 -> AvgPool2d_2
I0716 08:00:28.343044 14827 net.cpp:190] Setting up AvgPool2d_2
I0716 08:00:28.343052 14827 net.cpp:197] Top shape: 1 3 128 256 (98304)
I0716 08:00:28.343057 14827 net.cpp:205] Memory required for data: 82575364
I0716 08:00:28.343062 14827 layer_factory.hpp:123] Creating layer AvgPool2d_3
I0716 08:00:28.343070 14827 net.cpp:140] Creating Layer AvgPool2d_3
I0716 08:00:28.343076 14827 net.cpp:481] AvgPool2d_3 <- AvgPool2d_2
I0716 08:00:28.343084 14827 net.cpp:455] AvgPool2d_3 -> AvgPool2d_3
I0716 08:00:28.343112 14827 net.cpp:190] Setting up AvgPool2d_3
I0716 08:00:28.343122 14827 net.cpp:197] Top shape: 1 3 64 128 (24576)
I0716 08:00:28.343127 14827 net.cpp:205] Memory required for data: 82673668
I0716 08:00:28.343132 14827 layer_factory.hpp:123] Creating layer Concat_5
I0716 08:00:28.343142 14827 net.cpp:140] Creating Layer Concat_5
I0716 08:00:28.343147 14827 net.cpp:481] Concat_5 <- BatchNorm_5
I0716 08:00:28.343153 14827 net.cpp:481] Concat_5 <- BatchNorm_3_Threshold_3_0_split_2
I0716 08:00:28.343160 14827 net.cpp:481] Concat_5 <- AvgPool2d_3
I0716 08:00:28.343168 14827 net.cpp:455] Concat_5 -> Concat_5
I0716 08:00:28.343199 14827 net.cpp:190] Setting up Concat_5
I0716 08:00:28.343207 14827 net.cpp:197] Top shape: 1 131 64 128 (1073152)
I0716 08:00:28.343212 14827 net.cpp:205] Memory required for data: 86966276
I0716 08:00:28.343217 14827 layer_factory.hpp:123] Creating layer BatchNorm_6
I0716 08:00:28.343227 14827 net.cpp:140] Creating Layer BatchNorm_6
I0716 08:00:28.343232 14827 net.cpp:481] BatchNorm_6 <- Concat_5
I0716 08:00:28.343241 14827 net.cpp:455] BatchNorm_6 -> BatchNorm_6
I0716 08:00:28.344184 14827 net.cpp:190] Setting up BatchNorm_6
I0716 08:00:28.344198 14827 net.cpp:197] Top shape: 1 131 64 128 (1073152)
I0716 08:00:28.344203 14827 net.cpp:205] Memory required for data: 91258884
I0716 08:00:28.344219 14827 layer_factory.hpp:123] Creating layer Threshold_6
I0716 08:00:28.344228 14827 net.cpp:140] Creating Layer Threshold_6
I0716 08:00:28.344234 14827 net.cpp:481] Threshold_6 <- BatchNorm_6
I0716 08:00:28.344241 14827 net.cpp:442] Threshold_6 -> BatchNorm_6 (in-place)
I0716 08:00:28.344252 14827 net.cpp:190] Setting up Threshold_6
I0716 08:00:28.344260 14827 net.cpp:197] Top shape: 1 131 64 128 (1073152)
I0716 08:00:28.344265 14827 net.cpp:205] Memory required for data: 95551492
I0716 08:00:28.344270 14827 layer_factory.hpp:123] Creating layer BatchNorm_6_Threshold_6_0_split
I0716 08:00:28.344278 14827 net.cpp:140] Creating Layer BatchNorm_6_Threshold_6_0_split
I0716 08:00:28.344283 14827 net.cpp:481] BatchNorm_6_Threshold_6_0_split <- BatchNorm_6
I0716 08:00:28.344290 14827 net.cpp:455] BatchNorm_6_Threshold_6_0_split -> BatchNorm_6_Threshold_6_0_split_0
I0716 08:00:28.344301 14827 net.cpp:455] BatchNorm_6_Threshold_6_0_split -> BatchNorm_6_Threshold_6_0_split_1
I0716 08:00:28.344352 14827 net.cpp:190] Setting up BatchNorm_6_Threshold_6_0_split
I0716 08:00:28.344362 14827 net.cpp:197] Top shape: 1 131 64 128 (1073152)
I0716 08:00:28.344367 14827 net.cpp:197] Top shape: 1 131 64 128 (1073152)
I0716 08:00:28.344372 14827 net.cpp:205] Memory required for data: 104136708
I0716 08:00:28.344377 14827 layer_factory.hpp:123] Creating layer ConvNd_20
I0716 08:00:28.344389 14827 net.cpp:140] Creating Layer ConvNd_20
I0716 08:00:28.344395 14827 net.cpp:481] ConvNd_20 <- BatchNorm_6_Threshold_6_0_split_0
I0716 08:00:28.344403 14827 net.cpp:455] ConvNd_20 -> ConvNd_20
I0716 08:00:28.344709 14827 net.cpp:190] Setting up ConvNd_20
I0716 08:00:28.344722 14827 net.cpp:197] Top shape: 1 19 64 128 (155648)
I0716 08:00:28.344728 14827 net.cpp:205] Memory required for data: 104759300
I0716 08:00:28.344735 14827 layer_factory.hpp:123] Creating layer ConvNd_21
I0716 08:00:28.344748 14827 net.cpp:140] Creating Layer ConvNd_21
I0716 08:00:28.344755 14827 net.cpp:481] ConvNd_21 <- BatchNorm_6_Threshold_6_0_split_1
I0716 08:00:28.344764 14827 net.cpp:455] ConvNd_21 -> ConvNd_21
I0716 08:00:28.345499 14827 net.cpp:190] Setting up ConvNd_21
I0716 08:00:28.345511 14827 net.cpp:197] Top shape: 1 25 32 64 (51200)
I0716 08:00:28.345516 14827 net.cpp:205] Memory required for data: 104964100
I0716 08:00:28.345523 14827 layer_factory.hpp:123] Creating layer ConvNd_21_ConvNd_21_0_split
I0716 08:00:28.345533 14827 net.cpp:140] Creating Layer ConvNd_21_ConvNd_21_0_split
I0716 08:00:28.345540 14827 net.cpp:481] ConvNd_21_ConvNd_21_0_split <- ConvNd_21
I0716 08:00:28.345548 14827 net.cpp:455] ConvNd_21_ConvNd_21_0_split -> ConvNd_21_ConvNd_21_0_split_0
I0716 08:00:28.345571 14827 net.cpp:455] ConvNd_21_ConvNd_21_0_split -> ConvNd_21_ConvNd_21_0_split_1
I0716 08:00:28.345582 14827 net.cpp:455] ConvNd_21_ConvNd_21_0_split -> ConvNd_21_ConvNd_21_0_split_2
I0716 08:00:28.345597 14827 net.cpp:455] ConvNd_21_ConvNd_21_0_split -> ConvNd_21_ConvNd_21_0_split_3
I0716 08:00:28.345607 14827 net.cpp:455] ConvNd_21_ConvNd_21_0_split -> ConvNd_21_ConvNd_21_0_split_4
I0716 08:00:28.345701 14827 net.cpp:190] Setting up ConvNd_21_ConvNd_21_0_split
I0716 08:00:28.345711 14827 net.cpp:197] Top shape: 1 25 32 64 (51200)
I0716 08:00:28.345718 14827 net.cpp:197] Top shape: 1 25 32 64 (51200)
I0716 08:00:28.345724 14827 net.cpp:197] Top shape: 1 25 32 64 (51200)
I0716 08:00:28.345731 14827 net.cpp:197] Top shape: 1 25 32 64 (51200)
I0716 08:00:28.345736 14827 net.cpp:197] Top shape: 1 25 32 64 (51200)
I0716 08:00:28.345741 14827 net.cpp:205] Memory required for data: 105988100
I0716 08:00:28.345746 14827 layer_factory.hpp:123] Creating layer ConvNd_22
I0716 08:00:28.345758 14827 net.cpp:140] Creating Layer ConvNd_22
I0716 08:00:28.345764 14827 net.cpp:481] ConvNd_22 <- ConvNd_21_ConvNd_21_0_split_0
I0716 08:00:28.345774 14827 net.cpp:455] ConvNd_22 -> ConvNd_22
I0716 08:00:28.346134 14827 net.cpp:190] Setting up ConvNd_22
I0716 08:00:28.346146 14827 net.cpp:197] Top shape: 1 28 32 64 (57344)
I0716 08:00:28.346151 14827 net.cpp:205] Memory required for data: 106217476
I0716 08:00:28.346158 14827 layer_factory.hpp:123] Creating layer ConvNd_23
I0716 08:00:28.346171 14827 net.cpp:140] Creating Layer ConvNd_23
I0716 08:00:28.346177 14827 net.cpp:481] ConvNd_23 <- ConvNd_21_ConvNd_21_0_split_1
I0716 08:00:28.346186 14827 net.cpp:455] ConvNd_23 -> ConvNd_23
I0716 08:00:28.346534 14827 net.cpp:190] Setting up ConvNd_23
I0716 08:00:28.346546 14827 net.cpp:197] Top shape: 1 25 32 64 (51200)
I0716 08:00:28.346551 14827 net.cpp:205] Memory required for data: 106422276
I0716 08:00:28.346559 14827 layer_factory.hpp:123] Creating layer ConvNd_23_ConvNd_23_0_split
I0716 08:00:28.346567 14827 net.cpp:140] Creating Layer ConvNd_23_ConvNd_23_0_split
I0716 08:00:28.346572 14827 net.cpp:481] ConvNd_23_ConvNd_23_0_split <- ConvNd_23
I0716 08:00:28.346580 14827 net.cpp:455] ConvNd_23_ConvNd_23_0_split -> ConvNd_23_ConvNd_23_0_split_0
I0716 08:00:28.346592 14827 net.cpp:455] ConvNd_23_ConvNd_23_0_split -> ConvNd_23_ConvNd_23_0_split_1
I0716 08:00:28.346642 14827 net.cpp:190] Setting up ConvNd_23_ConvNd_23_0_split
I0716 08:00:28.346650 14827 net.cpp:197] Top shape: 1 25 32 64 (51200)
I0716 08:00:28.346657 14827 net.cpp:197] Top shape: 1 25 32 64 (51200)
I0716 08:00:28.346662 14827 net.cpp:205] Memory required for data: 106831876
I0716 08:00:28.346668 14827 layer_factory.hpp:123] Creating layer ConvNd_24
I0716 08:00:28.346678 14827 net.cpp:140] Creating Layer ConvNd_24
I0716 08:00:28.346684 14827 net.cpp:481] ConvNd_24 <- ConvNd_21_ConvNd_21_0_split_2
I0716 08:00:28.346693 14827 net.cpp:455] ConvNd_24 -> ConvNd_24
I0716 08:00:28.347036 14827 net.cpp:190] Setting up ConvNd_24
I0716 08:00:28.347048 14827 net.cpp:197] Top shape: 1 25 32 64 (51200)
I0716 08:00:28.347052 14827 net.cpp:205] Memory required for data: 107036676
I0716 08:00:28.347059 14827 layer_factory.hpp:123] Creating layer Add_12
I0716 08:00:28.347069 14827 net.cpp:140] Creating Layer Add_12
I0716 08:00:28.347074 14827 net.cpp:481] Add_12 <- ConvNd_23_ConvNd_23_0_split_0
I0716 08:00:28.347080 14827 net.cpp:481] Add_12 <- ConvNd_24
I0716 08:00:28.347088 14827 net.cpp:455] Add_12 -> Add_12
I0716 08:00:28.347120 14827 net.cpp:190] Setting up Add_12
I0716 08:00:28.347129 14827 net.cpp:197] Top shape: 1 25 32 64 (51200)
I0716 08:00:28.347133 14827 net.cpp:205] Memory required for data: 107241476
I0716 08:00:28.347139 14827 layer_factory.hpp:123] Creating layer Add_12_Add_12_0_split
I0716 08:00:28.347147 14827 net.cpp:140] Creating Layer Add_12_Add_12_0_split
I0716 08:00:28.347152 14827 net.cpp:481] Add_12_Add_12_0_split <- Add_12
I0716 08:00:28.347160 14827 net.cpp:455] Add_12_Add_12_0_split -> Add_12_Add_12_0_split_0
I0716 08:00:28.347170 14827 net.cpp:455] Add_12_Add_12_0_split -> Add_12_Add_12_0_split_1
I0716 08:00:28.347215 14827 net.cpp:190] Setting up Add_12_Add_12_0_split
I0716 08:00:28.347225 14827 net.cpp:197] Top shape: 1 25 32 64 (51200)
I0716 08:00:28.347231 14827 net.cpp:197] Top shape: 1 25 32 64 (51200)
I0716 08:00:28.347236 14827 net.cpp:205] Memory required for data: 107651076
I0716 08:00:28.347241 14827 layer_factory.hpp:123] Creating layer ConvNd_25
I0716 08:00:28.347254 14827 net.cpp:140] Creating Layer ConvNd_25
I0716 08:00:28.347259 14827 net.cpp:481] ConvNd_25 <- ConvNd_21_ConvNd_21_0_split_3
I0716 08:00:28.347267 14827 net.cpp:455] ConvNd_25 -> ConvNd_25
I0716 08:00:28.347612 14827 net.cpp:190] Setting up ConvNd_25
I0716 08:00:28.347625 14827 net.cpp:197] Top shape: 1 25 32 64 (51200)
I0716 08:00:28.347630 14827 net.cpp:205] Memory required for data: 107855876
I0716 08:00:28.347636 14827 layer_factory.hpp:123] Creating layer Add_13
I0716 08:00:28.347645 14827 net.cpp:140] Creating Layer Add_13
I0716 08:00:28.347651 14827 net.cpp:481] Add_13 <- Add_12_Add_12_0_split_0
I0716 08:00:28.347658 14827 net.cpp:481] Add_13 <- ConvNd_25
I0716 08:00:28.347666 14827 net.cpp:455] Add_13 -> Add_13
I0716 08:00:28.347695 14827 net.cpp:190] Setting up Add_13
I0716 08:00:28.347705 14827 net.cpp:197] Top shape: 1 25 32 64 (51200)
I0716 08:00:28.347709 14827 net.cpp:205] Memory required for data: 108060676
I0716 08:00:28.347715 14827 layer_factory.hpp:123] Creating layer Add_13_Add_13_0_split
I0716 08:00:28.347723 14827 net.cpp:140] Creating Layer Add_13_Add_13_0_split
I0716 08:00:28.347729 14827 net.cpp:481] Add_13_Add_13_0_split <- Add_13
I0716 08:00:28.347738 14827 net.cpp:455] Add_13_Add_13_0_split -> Add_13_Add_13_0_split_0
I0716 08:00:28.347748 14827 net.cpp:455] Add_13_Add_13_0_split -> Add_13_Add_13_0_split_1
I0716 08:00:28.347824 14827 net.cpp:190] Setting up Add_13_Add_13_0_split
I0716 08:00:28.347836 14827 net.cpp:197] Top shape: 1 25 32 64 (51200)
I0716 08:00:28.347842 14827 net.cpp:197] Top shape: 1 25 32 64 (51200)
I0716 08:00:28.347847 14827 net.cpp:205] Memory required for data: 108470276
I0716 08:00:28.347852 14827 layer_factory.hpp:123] Creating layer ConvNd_26
I0716 08:00:28.347864 14827 net.cpp:140] Creating Layer ConvNd_26
I0716 08:00:28.347870 14827 net.cpp:481] ConvNd_26 <- ConvNd_21_ConvNd_21_0_split_4
I0716 08:00:28.347879 14827 net.cpp:455] ConvNd_26 -> ConvNd_26
I0716 08:00:28.348223 14827 net.cpp:190] Setting up ConvNd_26
I0716 08:00:28.348235 14827 net.cpp:197] Top shape: 1 25 32 64 (51200)
I0716 08:00:28.348240 14827 net.cpp:205] Memory required for data: 108675076
I0716 08:00:28.348248 14827 layer_factory.hpp:123] Creating layer Add_14
I0716 08:00:28.348258 14827 net.cpp:140] Creating Layer Add_14
I0716 08:00:28.348263 14827 net.cpp:481] Add_14 <- Add_13_Add_13_0_split_0
I0716 08:00:28.348269 14827 net.cpp:481] Add_14 <- ConvNd_26
I0716 08:00:28.348278 14827 net.cpp:455] Add_14 -> Add_14
I0716 08:00:28.348307 14827 net.cpp:190] Setting up Add_14
I0716 08:00:28.348317 14827 net.cpp:197] Top shape: 1 25 32 64 (51200)
I0716 08:00:28.348322 14827 net.cpp:205] Memory required for data: 108879876
I0716 08:00:28.348327 14827 layer_factory.hpp:123] Creating layer Concat_6
I0716 08:00:28.348336 14827 net.cpp:140] Creating Layer Concat_6
I0716 08:00:28.348341 14827 net.cpp:481] Concat_6 <- ConvNd_22
I0716 08:00:28.348348 14827 net.cpp:481] Concat_6 <- ConvNd_23_ConvNd_23_0_split_1
I0716 08:00:28.348356 14827 net.cpp:481] Concat_6 <- Add_12_Add_12_0_split_1
I0716 08:00:28.348361 14827 net.cpp:481] Concat_6 <- Add_13_Add_13_0_split_1
I0716 08:00:28.348367 14827 net.cpp:481] Concat_6 <- Add_14
I0716 08:00:28.348376 14827 net.cpp:455] Concat_6 -> Concat_6
I0716 08:00:28.348407 14827 net.cpp:190] Setting up Concat_6
I0716 08:00:28.348417 14827 net.cpp:197] Top shape: 1 128 32 64 (262144)
I0716 08:00:28.348423 14827 net.cpp:205] Memory required for data: 109928452
I0716 08:00:28.348426 14827 layer_factory.hpp:123] Creating layer BatchNorm_7
I0716 08:00:28.348436 14827 net.cpp:140] Creating Layer BatchNorm_7
I0716 08:00:28.348443 14827 net.cpp:481] BatchNorm_7 <- Concat_6
I0716 08:00:28.348450 14827 net.cpp:455] BatchNorm_7 -> BatchNorm_7
I0716 08:00:28.349277 14827 net.cpp:190] Setting up BatchNorm_7
I0716 08:00:28.349289 14827 net.cpp:197] Top shape: 1 128 32 64 (262144)
I0716 08:00:28.349294 14827 net.cpp:205] Memory required for data: 110977028
I0716 08:00:28.349308 14827 layer_factory.hpp:123] Creating layer Threshold_7
I0716 08:00:28.349318 14827 net.cpp:140] Creating Layer Threshold_7
I0716 08:00:28.349323 14827 net.cpp:481] Threshold_7 <- BatchNorm_7
I0716 08:00:28.349330 14827 net.cpp:442] Threshold_7 -> BatchNorm_7 (in-place)
I0716 08:00:28.349339 14827 net.cpp:190] Setting up Threshold_7
I0716 08:00:28.349346 14827 net.cpp:197] Top shape: 1 128 32 64 (262144)
I0716 08:00:28.349351 14827 net.cpp:205] Memory required for data: 112025604
I0716 08:00:28.349356 14827 layer_factory.hpp:123] Creating layer BatchNorm_7_Threshold_7_0_split
I0716 08:00:28.349364 14827 net.cpp:140] Creating Layer BatchNorm_7_Threshold_7_0_split
I0716 08:00:28.349370 14827 net.cpp:481] BatchNorm_7_Threshold_7_0_split <- BatchNorm_7
I0716 08:00:28.349377 14827 net.cpp:455] BatchNorm_7_Threshold_7_0_split -> BatchNorm_7_Threshold_7_0_split_0
I0716 08:00:28.349388 14827 net.cpp:455] BatchNorm_7_Threshold_7_0_split -> BatchNorm_7_Threshold_7_0_split_1
I0716 08:00:28.349402 14827 net.cpp:455] BatchNorm_7_Threshold_7_0_split -> BatchNorm_7_Threshold_7_0_split_2
I0716 08:00:28.349462 14827 net.cpp:190] Setting up BatchNorm_7_Threshold_7_0_split
I0716 08:00:28.349472 14827 net.cpp:197] Top shape: 1 128 32 64 (262144)
I0716 08:00:28.349479 14827 net.cpp:197] Top shape: 1 128 32 64 (262144)
I0716 08:00:28.349486 14827 net.cpp:197] Top shape: 1 128 32 64 (262144)
I0716 08:00:28.349490 14827 net.cpp:205] Memory required for data: 115171332
I0716 08:00:28.349495 14827 layer_factory.hpp:123] Creating layer ConvNd_27
I0716 08:00:28.349508 14827 net.cpp:140] Creating Layer ConvNd_27
I0716 08:00:28.349514 14827 net.cpp:481] ConvNd_27 <- BatchNorm_7_Threshold_7_0_split_0
I0716 08:00:28.349521 14827 net.cpp:455] ConvNd_27 -> ConvNd_27
I0716 08:00:28.349828 14827 net.cpp:190] Setting up ConvNd_27
I0716 08:00:28.349840 14827 net.cpp:197] Top shape: 1 25 32 64 (51200)
I0716 08:00:28.349845 14827 net.cpp:205] Memory required for data: 115376132
I0716 08:00:28.349853 14827 layer_factory.hpp:123] Creating layer ConvNd_27_ConvNd_27_0_split
I0716 08:00:28.349862 14827 net.cpp:140] Creating Layer ConvNd_27_ConvNd_27_0_split
I0716 08:00:28.349869 14827 net.cpp:481] ConvNd_27_ConvNd_27_0_split <- ConvNd_27
I0716 08:00:28.349877 14827 net.cpp:455] ConvNd_27_ConvNd_27_0_split -> ConvNd_27_ConvNd_27_0_split_0
I0716 08:00:28.349889 14827 net.cpp:455] ConvNd_27_ConvNd_27_0_split -> ConvNd_27_ConvNd_27_0_split_1
I0716 08:00:28.349900 14827 net.cpp:455] ConvNd_27_ConvNd_27_0_split -> ConvNd_27_ConvNd_27_0_split_2
I0716 08:00:28.349912 14827 net.cpp:455] ConvNd_27_ConvNd_27_0_split -> ConvNd_27_ConvNd_27_0_split_3
I0716 08:00:28.349922 14827 net.cpp:455] ConvNd_27_ConvNd_27_0_split -> ConvNd_27_ConvNd_27_0_split_4
I0716 08:00:28.350018 14827 net.cpp:190] Setting up ConvNd_27_ConvNd_27_0_split
I0716 08:00:28.350028 14827 net.cpp:197] Top shape: 1 25 32 64 (51200)
I0716 08:00:28.350035 14827 net.cpp:197] Top shape: 1 25 32 64 (51200)
I0716 08:00:28.350041 14827 net.cpp:197] Top shape: 1 25 32 64 (51200)
I0716 08:00:28.350047 14827 net.cpp:197] Top shape: 1 25 32 64 (51200)
I0716 08:00:28.350054 14827 net.cpp:197] Top shape: 1 25 32 64 (51200)
I0716 08:00:28.350059 14827 net.cpp:205] Memory required for data: 116400132
I0716 08:00:28.350064 14827 layer_factory.hpp:123] Creating layer ConvNd_28
I0716 08:00:28.350075 14827 net.cpp:140] Creating Layer ConvNd_28
I0716 08:00:28.350081 14827 net.cpp:481] ConvNd_28 <- ConvNd_27_ConvNd_27_0_split_0
I0716 08:00:28.350090 14827 net.cpp:455] ConvNd_28 -> ConvNd_28
I0716 08:00:28.350455 14827 net.cpp:190] Setting up ConvNd_28
I0716 08:00:28.350467 14827 net.cpp:197] Top shape: 1 28 32 64 (57344)
I0716 08:00:28.350471 14827 net.cpp:205] Memory required for data: 116629508
I0716 08:00:28.350481 14827 layer_factory.hpp:123] Creating layer ConvNd_29
I0716 08:00:28.350492 14827 net.cpp:140] Creating Layer ConvNd_29
I0716 08:00:28.350497 14827 net.cpp:481] ConvNd_29 <- ConvNd_27_ConvNd_27_0_split_1
I0716 08:00:28.350507 14827 net.cpp:455] ConvNd_29 -> ConvNd_29
I0716 08:00:28.350855 14827 net.cpp:190] Setting up ConvNd_29
I0716 08:00:28.350867 14827 net.cpp:197] Top shape: 1 25 32 64 (51200)
I0716 08:00:28.350872 14827 net.cpp:205] Memory required for data: 116834308
I0716 08:00:28.350879 14827 layer_factory.hpp:123] Creating layer ConvNd_29_ConvNd_29_0_split
I0716 08:00:28.350888 14827 net.cpp:140] Creating Layer ConvNd_29_ConvNd_29_0_split
I0716 08:00:28.350893 14827 net.cpp:481] ConvNd_29_ConvNd_29_0_split <- ConvNd_29
I0716 08:00:28.350903 14827 net.cpp:455] ConvNd_29_ConvNd_29_0_split -> ConvNd_29_ConvNd_29_0_split_0
I0716 08:00:28.350914 14827 net.cpp:455] ConvNd_29_ConvNd_29_0_split -> ConvNd_29_ConvNd_29_0_split_1
I0716 08:00:28.350961 14827 net.cpp:190] Setting up ConvNd_29_ConvNd_29_0_split
I0716 08:00:28.350971 14827 net.cpp:197] Top shape: 1 25 32 64 (51200)
I0716 08:00:28.350977 14827 net.cpp:197] Top shape: 1 25 32 64 (51200)
I0716 08:00:28.350981 14827 net.cpp:205] Memory required for data: 117243908
I0716 08:00:28.350987 14827 layer_factory.hpp:123] Creating layer ConvNd_30
I0716 08:00:28.350999 14827 net.cpp:140] Creating Layer ConvNd_30
I0716 08:00:28.351004 14827 net.cpp:481] ConvNd_30 <- ConvNd_27_ConvNd_27_0_split_2
I0716 08:00:28.351013 14827 net.cpp:455] ConvNd_30 -> ConvNd_30
I0716 08:00:28.351361 14827 net.cpp:190] Setting up ConvNd_30
I0716 08:00:28.351372 14827 net.cpp:197] Top shape: 1 25 32 64 (51200)
I0716 08:00:28.351377 14827 net.cpp:205] Memory required for data: 117448708
I0716 08:00:28.351390 14827 layer_factory.hpp:123] Creating layer Add_15
I0716 08:00:28.351400 14827 net.cpp:140] Creating Layer Add_15
I0716 08:00:28.351406 14827 net.cpp:481] Add_15 <- ConvNd_29_ConvNd_29_0_split_0
I0716 08:00:28.351413 14827 net.cpp:481] Add_15 <- ConvNd_30
I0716 08:00:28.351421 14827 net.cpp:455] Add_15 -> Add_15
I0716 08:00:28.351456 14827 net.cpp:190] Setting up Add_15
I0716 08:00:28.351467 14827 net.cpp:197] Top shape: 1 25 32 64 (51200)
I0716 08:00:28.351471 14827 net.cpp:205] Memory required for data: 117653508
I0716 08:00:28.351477 14827 layer_factory.hpp:123] Creating layer Add_15_Add_15_0_split
I0716 08:00:28.351485 14827 net.cpp:140] Creating Layer Add_15_Add_15_0_split
I0716 08:00:28.351490 14827 net.cpp:481] Add_15_Add_15_0_split <- Add_15
I0716 08:00:28.351498 14827 net.cpp:455] Add_15_Add_15_0_split -> Add_15_Add_15_0_split_0
I0716 08:00:28.351510 14827 net.cpp:455] Add_15_Add_15_0_split -> Add_15_Add_15_0_split_1
I0716 08:00:28.351557 14827 net.cpp:190] Setting up Add_15_Add_15_0_split
I0716 08:00:28.351567 14827 net.cpp:197] Top shape: 1 25 32 64 (51200)
I0716 08:00:28.351572 14827 net.cpp:197] Top shape: 1 25 32 64 (51200)
I0716 08:00:28.351577 14827 net.cpp:205] Memory required for data: 118063108
I0716 08:00:28.351583 14827 layer_factory.hpp:123] Creating layer ConvNd_31
I0716 08:00:28.351593 14827 net.cpp:140] Creating Layer ConvNd_31
I0716 08:00:28.351599 14827 net.cpp:481] ConvNd_31 <- ConvNd_27_ConvNd_27_0_split_3
I0716 08:00:28.351608 14827 net.cpp:455] ConvNd_31 -> ConvNd_31
I0716 08:00:28.351965 14827 net.cpp:190] Setting up ConvNd_31
I0716 08:00:28.351977 14827 net.cpp:197] Top shape: 1 25 32 64 (51200)
I0716 08:00:28.351982 14827 net.cpp:205] Memory required for data: 118267908
I0716 08:00:28.351989 14827 layer_factory.hpp:123] Creating layer Add_16
I0716 08:00:28.351999 14827 net.cpp:140] Creating Layer Add_16
I0716 08:00:28.352005 14827 net.cpp:481] Add_16 <- Add_15_Add_15_0_split_0
I0716 08:00:28.352010 14827 net.cpp:481] Add_16 <- ConvNd_31
I0716 08:00:28.352018 14827 net.cpp:455] Add_16 -> Add_16
I0716 08:00:28.352051 14827 net.cpp:190] Setting up Add_16
I0716 08:00:28.352059 14827 net.cpp:197] Top shape: 1 25 32 64 (51200)
I0716 08:00:28.352064 14827 net.cpp:205] Memory required for data: 118472708
I0716 08:00:28.352071 14827 layer_factory.hpp:123] Creating layer Add_16_Add_16_0_split
I0716 08:00:28.352078 14827 net.cpp:140] Creating Layer Add_16_Add_16_0_split
I0716 08:00:28.352083 14827 net.cpp:481] Add_16_Add_16_0_split <- Add_16
I0716 08:00:28.352092 14827 net.cpp:455] Add_16_Add_16_0_split -> Add_16_Add_16_0_split_0
I0716 08:00:28.352102 14827 net.cpp:455] Add_16_Add_16_0_split -> Add_16_Add_16_0_split_1
I0716 08:00:28.352149 14827 net.cpp:190] Setting up Add_16_Add_16_0_split
I0716 08:00:28.352159 14827 net.cpp:197] Top shape: 1 25 32 64 (51200)
I0716 08:00:28.352164 14827 net.cpp:197] Top shape: 1 25 32 64 (51200)
I0716 08:00:28.352169 14827 net.cpp:205] Memory required for data: 118882308
I0716 08:00:28.352174 14827 layer_factory.hpp:123] Creating layer ConvNd_32
I0716 08:00:28.352186 14827 net.cpp:140] Creating Layer ConvNd_32
I0716 08:00:28.352192 14827 net.cpp:481] ConvNd_32 <- ConvNd_27_ConvNd_27_0_split_4
I0716 08:00:28.352200 14827 net.cpp:455] ConvNd_32 -> ConvNd_32
I0716 08:00:28.352550 14827 net.cpp:190] Setting up ConvNd_32
I0716 08:00:28.352561 14827 net.cpp:197] Top shape: 1 25 32 64 (51200)
I0716 08:00:28.352567 14827 net.cpp:205] Memory required for data: 119087108
I0716 08:00:28.352574 14827 layer_factory.hpp:123] Creating layer Add_17
I0716 08:00:28.352583 14827 net.cpp:140] Creating Layer Add_17
I0716 08:00:28.352589 14827 net.cpp:481] Add_17 <- Add_16_Add_16_0_split_0
I0716 08:00:28.352596 14827 net.cpp:481] Add_17 <- ConvNd_32
I0716 08:00:28.352604 14827 net.cpp:455] Add_17 -> Add_17
I0716 08:00:28.352634 14827 net.cpp:190] Setting up Add_17
I0716 08:00:28.352643 14827 net.cpp:197] Top shape: 1 25 32 64 (51200)
I0716 08:00:28.352648 14827 net.cpp:205] Memory required for data: 119291908
I0716 08:00:28.352653 14827 layer_factory.hpp:123] Creating layer Concat_7
I0716 08:00:28.352663 14827 net.cpp:140] Creating Layer Concat_7
I0716 08:00:28.352668 14827 net.cpp:481] Concat_7 <- ConvNd_28
I0716 08:00:28.352674 14827 net.cpp:481] Concat_7 <- ConvNd_29_ConvNd_29_0_split_1
I0716 08:00:28.352680 14827 net.cpp:481] Concat_7 <- Add_15_Add_15_0_split_1
I0716 08:00:28.352687 14827 net.cpp:481] Concat_7 <- Add_16_Add_16_0_split_1
I0716 08:00:28.352694 14827 net.cpp:481] Concat_7 <- Add_17
I0716 08:00:28.352701 14827 net.cpp:455] Concat_7 -> Concat_7
I0716 08:00:28.352735 14827 net.cpp:190] Setting up Concat_7
I0716 08:00:28.352743 14827 net.cpp:197] Top shape: 1 128 32 64 (262144)
I0716 08:00:28.352748 14827 net.cpp:205] Memory required for data: 120340484
I0716 08:00:28.352753 14827 layer_factory.hpp:123] Creating layer Add_18
I0716 08:00:28.352761 14827 net.cpp:140] Creating Layer Add_18
I0716 08:00:28.352766 14827 net.cpp:481] Add_18 <- BatchNorm_7_Threshold_7_0_split_1
I0716 08:00:28.352779 14827 net.cpp:481] Add_18 <- Concat_7
I0716 08:00:28.352787 14827 net.cpp:455] Add_18 -> Add_18
I0716 08:00:28.352816 14827 net.cpp:190] Setting up Add_18
I0716 08:00:28.352826 14827 net.cpp:197] Top shape: 1 128 32 64 (262144)
I0716 08:00:28.352830 14827 net.cpp:205] Memory required for data: 121389060
I0716 08:00:28.352835 14827 layer_factory.hpp:123] Creating layer BatchNorm_8
I0716 08:00:28.352845 14827 net.cpp:140] Creating Layer BatchNorm_8
I0716 08:00:28.352850 14827 net.cpp:481] BatchNorm_8 <- Add_18
I0716 08:00:28.352859 14827 net.cpp:455] BatchNorm_8 -> BatchNorm_8
I0716 08:00:28.353677 14827 net.cpp:190] Setting up BatchNorm_8
I0716 08:00:28.353689 14827 net.cpp:197] Top shape: 1 128 32 64 (262144)
I0716 08:00:28.353694 14827 net.cpp:205] Memory required for data: 122437636
I0716 08:00:28.353709 14827 layer_factory.hpp:123] Creating layer Threshold_8
I0716 08:00:28.353718 14827 net.cpp:140] Creating Layer Threshold_8
I0716 08:00:28.353724 14827 net.cpp:481] Threshold_8 <- BatchNorm_8
I0716 08:00:28.353731 14827 net.cpp:442] Threshold_8 -> BatchNorm_8 (in-place)
I0716 08:00:28.353742 14827 net.cpp:190] Setting up Threshold_8
I0716 08:00:28.353749 14827 net.cpp:197] Top shape: 1 128 32 64 (262144)
I0716 08:00:28.353754 14827 net.cpp:205] Memory required for data: 123486212
I0716 08:00:28.353758 14827 layer_factory.hpp:123] Creating layer BatchNorm_8_Threshold_8_0_split
I0716 08:00:28.353766 14827 net.cpp:140] Creating Layer BatchNorm_8_Threshold_8_0_split
I0716 08:00:28.353771 14827 net.cpp:481] BatchNorm_8_Threshold_8_0_split <- BatchNorm_8
I0716 08:00:28.353778 14827 net.cpp:455] BatchNorm_8_Threshold_8_0_split -> BatchNorm_8_Threshold_8_0_split_0
I0716 08:00:28.353790 14827 net.cpp:455] BatchNorm_8_Threshold_8_0_split -> BatchNorm_8_Threshold_8_0_split_1
I0716 08:00:28.353835 14827 net.cpp:190] Setting up BatchNorm_8_Threshold_8_0_split
I0716 08:00:28.353845 14827 net.cpp:197] Top shape: 1 128 32 64 (262144)
I0716 08:00:28.353852 14827 net.cpp:197] Top shape: 1 128 32 64 (262144)
I0716 08:00:28.353857 14827 net.cpp:205] Memory required for data: 125583364
I0716 08:00:28.353862 14827 layer_factory.hpp:123] Creating layer ConvNd_33
I0716 08:00:28.353873 14827 net.cpp:140] Creating Layer ConvNd_33
I0716 08:00:28.353878 14827 net.cpp:481] ConvNd_33 <- BatchNorm_8_Threshold_8_0_split_0
I0716 08:00:28.353888 14827 net.cpp:455] ConvNd_33 -> ConvNd_33
I0716 08:00:28.354190 14827 net.cpp:190] Setting up ConvNd_33
I0716 08:00:28.354203 14827 net.cpp:197] Top shape: 1 25 32 64 (51200)
I0716 08:00:28.354208 14827 net.cpp:205] Memory required for data: 125788164
I0716 08:00:28.354216 14827 layer_factory.hpp:123] Creating layer ConvNd_33_ConvNd_33_0_split
I0716 08:00:28.354226 14827 net.cpp:140] Creating Layer ConvNd_33_ConvNd_33_0_split
I0716 08:00:28.354231 14827 net.cpp:481] ConvNd_33_ConvNd_33_0_split <- ConvNd_33
I0716 08:00:28.354240 14827 net.cpp:455] ConvNd_33_ConvNd_33_0_split -> ConvNd_33_ConvNd_33_0_split_0
I0716 08:00:28.354252 14827 net.cpp:455] ConvNd_33_ConvNd_33_0_split -> ConvNd_33_ConvNd_33_0_split_1
I0716 08:00:28.354264 14827 net.cpp:455] ConvNd_33_ConvNd_33_0_split -> ConvNd_33_ConvNd_33_0_split_2
I0716 08:00:28.354274 14827 net.cpp:455] ConvNd_33_ConvNd_33_0_split -> ConvNd_33_ConvNd_33_0_split_3
I0716 08:00:28.354284 14827 net.cpp:455] ConvNd_33_ConvNd_33_0_split -> ConvNd_33_ConvNd_33_0_split_4
I0716 08:00:28.354374 14827 net.cpp:190] Setting up ConvNd_33_ConvNd_33_0_split
I0716 08:00:28.354384 14827 net.cpp:197] Top shape: 1 25 32 64 (51200)
I0716 08:00:28.354391 14827 net.cpp:197] Top shape: 1 25 32 64 (51200)
I0716 08:00:28.354398 14827 net.cpp:197] Top shape: 1 25 32 64 (51200)
I0716 08:00:28.354403 14827 net.cpp:197] Top shape: 1 25 32 64 (51200)
I0716 08:00:28.354410 14827 net.cpp:197] Top shape: 1 25 32 64 (51200)
I0716 08:00:28.354415 14827 net.cpp:205] Memory required for data: 126812164
I0716 08:00:28.354420 14827 layer_factory.hpp:123] Creating layer ConvNd_34
I0716 08:00:28.354434 14827 net.cpp:140] Creating Layer ConvNd_34
I0716 08:00:28.354439 14827 net.cpp:481] ConvNd_34 <- ConvNd_33_ConvNd_33_0_split_0
I0716 08:00:28.354447 14827 net.cpp:455] ConvNd_34 -> ConvNd_34
I0716 08:00:28.354815 14827 net.cpp:190] Setting up ConvNd_34
I0716 08:00:28.354826 14827 net.cpp:197] Top shape: 1 28 32 64 (57344)
I0716 08:00:28.354831 14827 net.cpp:205] Memory required for data: 127041540
I0716 08:00:28.354840 14827 layer_factory.hpp:123] Creating layer ConvNd_35
I0716 08:00:28.354851 14827 net.cpp:140] Creating Layer ConvNd_35
I0716 08:00:28.354857 14827 net.cpp:481] ConvNd_35 <- ConvNd_33_ConvNd_33_0_split_1
I0716 08:00:28.354866 14827 net.cpp:455] ConvNd_35 -> ConvNd_35
I0716 08:00:28.355217 14827 net.cpp:190] Setting up ConvNd_35
I0716 08:00:28.355229 14827 net.cpp:197] Top shape: 1 25 32 64 (51200)
I0716 08:00:28.355234 14827 net.cpp:205] Memory required for data: 127246340
I0716 08:00:28.355242 14827 layer_factory.hpp:123] Creating layer ConvNd_35_ConvNd_35_0_split
I0716 08:00:28.355250 14827 net.cpp:140] Creating Layer ConvNd_35_ConvNd_35_0_split
I0716 08:00:28.355255 14827 net.cpp:481] ConvNd_35_ConvNd_35_0_split <- ConvNd_35
I0716 08:00:28.355264 14827 net.cpp:455] ConvNd_35_ConvNd_35_0_split -> ConvNd_35_ConvNd_35_0_split_0
I0716 08:00:28.355275 14827 net.cpp:455] ConvNd_35_ConvNd_35_0_split -> ConvNd_35_ConvNd_35_0_split_1
I0716 08:00:28.355320 14827 net.cpp:190] Setting up ConvNd_35_ConvNd_35_0_split
I0716 08:00:28.355330 14827 net.cpp:197] Top shape: 1 25 32 64 (51200)
I0716 08:00:28.355337 14827 net.cpp:197] Top shape: 1 25 32 64 (51200)
I0716 08:00:28.355342 14827 net.cpp:205] Memory required for data: 127655940
I0716 08:00:28.355347 14827 layer_factory.hpp:123] Creating layer ConvNd_36
I0716 08:00:28.355360 14827 net.cpp:140] Creating Layer ConvNd_36
I0716 08:00:28.355365 14827 net.cpp:481] ConvNd_36 <- ConvNd_33_ConvNd_33_0_split_2
I0716 08:00:28.355373 14827 net.cpp:455] ConvNd_36 -> ConvNd_36
I0716 08:00:28.355720 14827 net.cpp:190] Setting up ConvNd_36
I0716 08:00:28.355732 14827 net.cpp:197] Top shape: 1 25 32 64 (51200)
I0716 08:00:28.355738 14827 net.cpp:205] Memory required for data: 127860740
I0716 08:00:28.355746 14827 layer_factory.hpp:123] Creating layer Add_19
I0716 08:00:28.355760 14827 net.cpp:140] Creating Layer Add_19
I0716 08:00:28.355767 14827 net.cpp:481] Add_19 <- ConvNd_35_ConvNd_35_0_split_0
I0716 08:00:28.355773 14827 net.cpp:481] Add_19 <- ConvNd_36
I0716 08:00:28.355782 14827 net.cpp:455] Add_19 -> Add_19
I0716 08:00:28.355814 14827 net.cpp:190] Setting up Add_19
I0716 08:00:28.355823 14827 net.cpp:197] Top shape: 1 25 32 64 (51200)
I0716 08:00:28.355829 14827 net.cpp:205] Memory required for data: 128065540
I0716 08:00:28.355834 14827 layer_factory.hpp:123] Creating layer Add_19_Add_19_0_split
I0716 08:00:28.355842 14827 net.cpp:140] Creating Layer Add_19_Add_19_0_split
I0716 08:00:28.355849 14827 net.cpp:481] Add_19_Add_19_0_split <- Add_19
I0716 08:00:28.355857 14827 net.cpp:455] Add_19_Add_19_0_split -> Add_19_Add_19_0_split_0
I0716 08:00:28.355868 14827 net.cpp:455] Add_19_Add_19_0_split -> Add_19_Add_19_0_split_1
I0716 08:00:28.355914 14827 net.cpp:190] Setting up Add_19_Add_19_0_split
I0716 08:00:28.355924 14827 net.cpp:197] Top shape: 1 25 32 64 (51200)
I0716 08:00:28.355931 14827 net.cpp:197] Top shape: 1 25 32 64 (51200)
I0716 08:00:28.355935 14827 net.cpp:205] Memory required for data: 128475140
I0716 08:00:28.355940 14827 layer_factory.hpp:123] Creating layer ConvNd_37
I0716 08:00:28.355952 14827 net.cpp:140] Creating Layer ConvNd_37
I0716 08:00:28.355957 14827 net.cpp:481] ConvNd_37 <- ConvNd_33_ConvNd_33_0_split_3
I0716 08:00:28.355967 14827 net.cpp:455] ConvNd_37 -> ConvNd_37
I0716 08:00:28.356317 14827 net.cpp:190] Setting up ConvNd_37
I0716 08:00:28.356328 14827 net.cpp:197] Top shape: 1 25 32 64 (51200)
I0716 08:00:28.356333 14827 net.cpp:205] Memory required for data: 128679940
I0716 08:00:28.356340 14827 layer_factory.hpp:123] Creating layer Add_20
I0716 08:00:28.356348 14827 net.cpp:140] Creating Layer Add_20
I0716 08:00:28.356353 14827 net.cpp:481] Add_20 <- Add_19_Add_19_0_split_0
I0716 08:00:28.356361 14827 net.cpp:481] Add_20 <- ConvNd_37
I0716 08:00:28.356369 14827 net.cpp:455] Add_20 -> Add_20
I0716 08:00:28.356400 14827 net.cpp:190] Setting up Add_20
I0716 08:00:28.356410 14827 net.cpp:197] Top shape: 1 25 32 64 (51200)
I0716 08:00:28.356415 14827 net.cpp:205] Memory required for data: 128884740
I0716 08:00:28.356420 14827 layer_factory.hpp:123] Creating layer Add_20_Add_20_0_split
I0716 08:00:28.356427 14827 net.cpp:140] Creating Layer Add_20_Add_20_0_split
I0716 08:00:28.356432 14827 net.cpp:481] Add_20_Add_20_0_split <- Add_20
I0716 08:00:28.356441 14827 net.cpp:455] Add_20_Add_20_0_split -> Add_20_Add_20_0_split_0
I0716 08:00:28.356451 14827 net.cpp:455] Add_20_Add_20_0_split -> Add_20_Add_20_0_split_1
I0716 08:00:28.356495 14827 net.cpp:190] Setting up Add_20_Add_20_0_split
I0716 08:00:28.356504 14827 net.cpp:197] Top shape: 1 25 32 64 (51200)
I0716 08:00:28.356511 14827 net.cpp:197] Top shape: 1 25 32 64 (51200)
I0716 08:00:28.356515 14827 net.cpp:205] Memory required for data: 129294340
I0716 08:00:28.356521 14827 layer_factory.hpp:123] Creating layer ConvNd_38
I0716 08:00:28.356532 14827 net.cpp:140] Creating Layer ConvNd_38
I0716 08:00:28.356537 14827 net.cpp:481] ConvNd_38 <- ConvNd_33_ConvNd_33_0_split_4
I0716 08:00:28.356546 14827 net.cpp:455] ConvNd_38 -> ConvNd_38
I0716 08:00:28.356892 14827 net.cpp:190] Setting up ConvNd_38
I0716 08:00:28.356905 14827 net.cpp:197] Top shape: 1 25 32 64 (51200)
I0716 08:00:28.356910 14827 net.cpp:205] Memory required for data: 129499140
I0716 08:00:28.356918 14827 layer_factory.hpp:123] Creating layer Add_21
I0716 08:00:28.356926 14827 net.cpp:140] Creating Layer Add_21
I0716 08:00:28.356931 14827 net.cpp:481] Add_21 <- Add_20_Add_20_0_split_0
I0716 08:00:28.356940 14827 net.cpp:481] Add_21 <- ConvNd_38
I0716 08:00:28.356947 14827 net.cpp:455] Add_21 -> Add_21
I0716 08:00:28.356976 14827 net.cpp:190] Setting up Add_21
I0716 08:00:28.356984 14827 net.cpp:197] Top shape: 1 25 32 64 (51200)
I0716 08:00:28.356990 14827 net.cpp:205] Memory required for data: 129703940
I0716 08:00:28.356997 14827 layer_factory.hpp:123] Creating layer Concat_8
I0716 08:00:28.357005 14827 net.cpp:140] Creating Layer Concat_8
I0716 08:00:28.357010 14827 net.cpp:481] Concat_8 <- ConvNd_34
I0716 08:00:28.357017 14827 net.cpp:481] Concat_8 <- ConvNd_35_ConvNd_35_0_split_1
I0716 08:00:28.357024 14827 net.cpp:481] Concat_8 <- Add_19_Add_19_0_split_1
I0716 08:00:28.357030 14827 net.cpp:481] Concat_8 <- Add_20_Add_20_0_split_1
I0716 08:00:28.357036 14827 net.cpp:481] Concat_8 <- Add_21
I0716 08:00:28.357045 14827 net.cpp:455] Concat_8 -> Concat_8
I0716 08:00:28.357076 14827 net.cpp:190] Setting up Concat_8
I0716 08:00:28.357086 14827 net.cpp:197] Top shape: 1 128 32 64 (262144)
I0716 08:00:28.357090 14827 net.cpp:205] Memory required for data: 130752516
I0716 08:00:28.357096 14827 layer_factory.hpp:123] Creating layer Add_22
I0716 08:00:28.357105 14827 net.cpp:140] Creating Layer Add_22
I0716 08:00:28.357110 14827 net.cpp:481] Add_22 <- BatchNorm_8_Threshold_8_0_split_1
I0716 08:00:28.357116 14827 net.cpp:481] Add_22 <- Concat_8
I0716 08:00:28.357125 14827 net.cpp:455] Add_22 -> Add_22
I0716 08:00:28.357153 14827 net.cpp:190] Setting up Add_22
I0716 08:00:28.357162 14827 net.cpp:197] Top shape: 1 128 32 64 (262144)
I0716 08:00:28.357167 14827 net.cpp:205] Memory required for data: 131801092
I0716 08:00:28.357172 14827 layer_factory.hpp:123] Creating layer BatchNorm_9
I0716 08:00:28.357182 14827 net.cpp:140] Creating Layer BatchNorm_9
I0716 08:00:28.357188 14827 net.cpp:481] BatchNorm_9 <- Add_22
I0716 08:00:28.357197 14827 net.cpp:455] BatchNorm_9 -> BatchNorm_9
I0716 08:00:28.358023 14827 net.cpp:190] Setting up BatchNorm_9
I0716 08:00:28.358036 14827 net.cpp:197] Top shape: 1 128 32 64 (262144)
I0716 08:00:28.358042 14827 net.cpp:205] Memory required for data: 132849668
I0716 08:00:28.358057 14827 layer_factory.hpp:123] Creating layer Threshold_9
I0716 08:00:28.358067 14827 net.cpp:140] Creating Layer Threshold_9
I0716 08:00:28.358072 14827 net.cpp:481] Threshold_9 <- BatchNorm_9
I0716 08:00:28.358079 14827 net.cpp:442] Threshold_9 -> BatchNorm_9 (in-place)
I0716 08:00:28.358089 14827 net.cpp:190] Setting up Threshold_9
I0716 08:00:28.358096 14827 net.cpp:197] Top shape: 1 128 32 64 (262144)
I0716 08:00:28.358101 14827 net.cpp:205] Memory required for data: 133898244
I0716 08:00:28.358106 14827 layer_factory.hpp:123] Creating layer BatchNorm_9_Threshold_9_0_split
I0716 08:00:28.358114 14827 net.cpp:140] Creating Layer BatchNorm_9_Threshold_9_0_split
I0716 08:00:28.358119 14827 net.cpp:481] BatchNorm_9_Threshold_9_0_split <- BatchNorm_9
I0716 08:00:28.358126 14827 net.cpp:455] BatchNorm_9_Threshold_9_0_split -> BatchNorm_9_Threshold_9_0_split_0
I0716 08:00:28.358136 14827 net.cpp:455] BatchNorm_9_Threshold_9_0_split -> BatchNorm_9_Threshold_9_0_split_1
I0716 08:00:28.358184 14827 net.cpp:190] Setting up BatchNorm_9_Threshold_9_0_split
I0716 08:00:28.358194 14827 net.cpp:197] Top shape: 1 128 32 64 (262144)
I0716 08:00:28.358201 14827 net.cpp:197] Top shape: 1 128 32 64 (262144)
I0716 08:00:28.358206 14827 net.cpp:205] Memory required for data: 135995396
I0716 08:00:28.358211 14827 layer_factory.hpp:123] Creating layer ConvNd_39
I0716 08:00:28.358222 14827 net.cpp:140] Creating Layer ConvNd_39
I0716 08:00:28.358227 14827 net.cpp:481] ConvNd_39 <- BatchNorm_9_Threshold_9_0_split_0
I0716 08:00:28.358237 14827 net.cpp:455] ConvNd_39 -> ConvNd_39
I0716 08:00:28.358546 14827 net.cpp:190] Setting up ConvNd_39
I0716 08:00:28.358558 14827 net.cpp:197] Top shape: 1 25 32 64 (51200)
I0716 08:00:28.358563 14827 net.cpp:205] Memory required for data: 136200196
I0716 08:00:28.358570 14827 layer_factory.hpp:123] Creating layer ConvNd_39_ConvNd_39_0_split
I0716 08:00:28.358579 14827 net.cpp:140] Creating Layer ConvNd_39_ConvNd_39_0_split
I0716 08:00:28.358585 14827 net.cpp:481] ConvNd_39_ConvNd_39_0_split <- ConvNd_39
I0716 08:00:28.358594 14827 net.cpp:455] ConvNd_39_ConvNd_39_0_split -> ConvNd_39_ConvNd_39_0_split_0
I0716 08:00:28.358606 14827 net.cpp:455] ConvNd_39_ConvNd_39_0_split -> ConvNd_39_ConvNd_39_0_split_1
I0716 08:00:28.358618 14827 net.cpp:455] ConvNd_39_ConvNd_39_0_split -> ConvNd_39_ConvNd_39_0_split_2
I0716 08:00:28.358630 14827 net.cpp:455] ConvNd_39_ConvNd_39_0_split -> ConvNd_39_ConvNd_39_0_split_3
I0716 08:00:28.358640 14827 net.cpp:455] ConvNd_39_ConvNd_39_0_split -> ConvNd_39_ConvNd_39_0_split_4
I0716 08:00:28.358736 14827 net.cpp:190] Setting up ConvNd_39_ConvNd_39_0_split
I0716 08:00:28.358745 14827 net.cpp:197] Top shape: 1 25 32 64 (51200)
I0716 08:00:28.358752 14827 net.cpp:197] Top shape: 1 25 32 64 (51200)
I0716 08:00:28.358758 14827 net.cpp:197] Top shape: 1 25 32 64 (51200)
I0716 08:00:28.358764 14827 net.cpp:197] Top shape: 1 25 32 64 (51200)
I0716 08:00:28.358770 14827 net.cpp:197] Top shape: 1 25 32 64 (51200)
I0716 08:00:28.358775 14827 net.cpp:205] Memory required for data: 137224196
I0716 08:00:28.358780 14827 layer_factory.hpp:123] Creating layer ConvNd_40
I0716 08:00:28.358793 14827 net.cpp:140] Creating Layer ConvNd_40
I0716 08:00:28.358800 14827 net.cpp:481] ConvNd_40 <- ConvNd_39_ConvNd_39_0_split_0
I0716 08:00:28.358809 14827 net.cpp:455] ConvNd_40 -> ConvNd_40
I0716 08:00:28.359180 14827 net.cpp:190] Setting up ConvNd_40
I0716 08:00:28.359194 14827 net.cpp:197] Top shape: 1 28 32 64 (57344)
I0716 08:00:28.359199 14827 net.cpp:205] Memory required for data: 137453572
I0716 08:00:28.359206 14827 layer_factory.hpp:123] Creating layer ConvNd_41
I0716 08:00:28.359218 14827 net.cpp:140] Creating Layer ConvNd_41
I0716 08:00:28.359225 14827 net.cpp:481] ConvNd_41 <- ConvNd_39_ConvNd_39_0_split_1
I0716 08:00:28.359235 14827 net.cpp:455] ConvNd_41 -> ConvNd_41
I0716 08:00:28.359586 14827 net.cpp:190] Setting up ConvNd_41
I0716 08:00:28.359597 14827 net.cpp:197] Top shape: 1 25 32 64 (51200)
I0716 08:00:28.359602 14827 net.cpp:205] Memory required for data: 137658372
I0716 08:00:28.359609 14827 layer_factory.hpp:123] Creating layer ConvNd_41_ConvNd_41_0_split
I0716 08:00:28.359617 14827 net.cpp:140] Creating Layer ConvNd_41_ConvNd_41_0_split
I0716 08:00:28.359623 14827 net.cpp:481] ConvNd_41_ConvNd_41_0_split <- ConvNd_41
I0716 08:00:28.359632 14827 net.cpp:455] ConvNd_41_ConvNd_41_0_split -> ConvNd_41_ConvNd_41_0_split_0
I0716 08:00:28.359642 14827 net.cpp:455] ConvNd_41_ConvNd_41_0_split -> ConvNd_41_ConvNd_41_0_split_1
I0716 08:00:28.359690 14827 net.cpp:190] Setting up ConvNd_41_ConvNd_41_0_split
I0716 08:00:28.359700 14827 net.cpp:197] Top shape: 1 25 32 64 (51200)
I0716 08:00:28.359706 14827 net.cpp:197] Top shape: 1 25 32 64 (51200)
I0716 08:00:28.359711 14827 net.cpp:205] Memory required for data: 138067972
I0716 08:00:28.359716 14827 layer_factory.hpp:123] Creating layer ConvNd_42
I0716 08:00:28.359727 14827 net.cpp:140] Creating Layer ConvNd_42
I0716 08:00:28.359733 14827 net.cpp:481] ConvNd_42 <- ConvNd_39_ConvNd_39_0_split_2
I0716 08:00:28.359742 14827 net.cpp:455] ConvNd_42 -> ConvNd_42
I0716 08:00:28.360101 14827 net.cpp:190] Setting up ConvNd_42
I0716 08:00:28.360113 14827 net.cpp:197] Top shape: 1 25 32 64 (51200)
I0716 08:00:28.360118 14827 net.cpp:205] Memory required for data: 138272772
I0716 08:00:28.360126 14827 layer_factory.hpp:123] Creating layer Add_23
I0716 08:00:28.360138 14827 net.cpp:140] Creating Layer Add_23
I0716 08:00:28.360146 14827 net.cpp:481] Add_23 <- ConvNd_41_ConvNd_41_0_split_0
I0716 08:00:28.360152 14827 net.cpp:481] Add_23 <- ConvNd_42
I0716 08:00:28.360160 14827 net.cpp:455] Add_23 -> Add_23
I0716 08:00:28.360193 14827 net.cpp:190] Setting up Add_23
I0716 08:00:28.360201 14827 net.cpp:197] Top shape: 1 25 32 64 (51200)
I0716 08:00:28.360206 14827 net.cpp:205] Memory required for data: 138477572
I0716 08:00:28.360213 14827 layer_factory.hpp:123] Creating layer Add_23_Add_23_0_split
I0716 08:00:28.360220 14827 net.cpp:140] Creating Layer Add_23_Add_23_0_split
I0716 08:00:28.360225 14827 net.cpp:481] Add_23_Add_23_0_split <- Add_23
I0716 08:00:28.360234 14827 net.cpp:455] Add_23_Add_23_0_split -> Add_23_Add_23_0_split_0
I0716 08:00:28.360244 14827 net.cpp:455] Add_23_Add_23_0_split -> Add_23_Add_23_0_split_1
I0716 08:00:28.360291 14827 net.cpp:190] Setting up Add_23_Add_23_0_split
I0716 08:00:28.360301 14827 net.cpp:197] Top shape: 1 25 32 64 (51200)
I0716 08:00:28.360308 14827 net.cpp:197] Top shape: 1 25 32 64 (51200)
I0716 08:00:28.360312 14827 net.cpp:205] Memory required for data: 138887172
I0716 08:00:28.360318 14827 layer_factory.hpp:123] Creating layer ConvNd_43
I0716 08:00:28.360329 14827 net.cpp:140] Creating Layer ConvNd_43
I0716 08:00:28.360337 14827 net.cpp:481] ConvNd_43 <- ConvNd_39_ConvNd_39_0_split_3
I0716 08:00:28.360344 14827 net.cpp:455] ConvNd_43 -> ConvNd_43
I0716 08:00:28.360692 14827 net.cpp:190] Setting up ConvNd_43
I0716 08:00:28.360704 14827 net.cpp:197] Top shape: 1 25 32 64 (51200)
I0716 08:00:28.360709 14827 net.cpp:205] Memory required for data: 139091972
I0716 08:00:28.360716 14827 layer_factory.hpp:123] Creating layer Add_24
I0716 08:00:28.360726 14827 net.cpp:140] Creating Layer Add_24
I0716 08:00:28.360733 14827 net.cpp:481] Add_24 <- Add_23_Add_23_0_split_0
I0716 08:00:28.360740 14827 net.cpp:481] Add_24 <- ConvNd_43
I0716 08:00:28.360749 14827 net.cpp:455] Add_24 -> Add_24
I0716 08:00:28.360780 14827 net.cpp:190] Setting up Add_24
I0716 08:00:28.360790 14827 net.cpp:197] Top shape: 1 25 32 64 (51200)
I0716 08:00:28.360795 14827 net.cpp:205] Memory required for data: 139296772
I0716 08:00:28.360800 14827 layer_factory.hpp:123] Creating layer Add_24_Add_24_0_split
I0716 08:00:28.360808 14827 net.cpp:140] Creating Layer Add_24_Add_24_0_split
I0716 08:00:28.360815 14827 net.cpp:481] Add_24_Add_24_0_split <- Add_24
I0716 08:00:28.360822 14827 net.cpp:455] Add_24_Add_24_0_split -> Add_24_Add_24_0_split_0
I0716 08:00:28.360832 14827 net.cpp:455] Add_24_Add_24_0_split -> Add_24_Add_24_0_split_1
I0716 08:00:28.360880 14827 net.cpp:190] Setting up Add_24_Add_24_0_split
I0716 08:00:28.360889 14827 net.cpp:197] Top shape: 1 25 32 64 (51200)
I0716 08:00:28.360896 14827 net.cpp:197] Top shape: 1 25 32 64 (51200)
I0716 08:00:28.360900 14827 net.cpp:205] Memory required for data: 139706372
I0716 08:00:28.360905 14827 layer_factory.hpp:123] Creating layer ConvNd_44
I0716 08:00:28.360918 14827 net.cpp:140] Creating Layer ConvNd_44
I0716 08:00:28.360925 14827 net.cpp:481] ConvNd_44 <- ConvNd_39_ConvNd_39_0_split_4
I0716 08:00:28.360934 14827 net.cpp:455] ConvNd_44 -> ConvNd_44
I0716 08:00:28.361282 14827 net.cpp:190] Setting up ConvNd_44
I0716 08:00:28.361294 14827 net.cpp:197] Top shape: 1 25 32 64 (51200)
I0716 08:00:28.361300 14827 net.cpp:205] Memory required for data: 139911172
I0716 08:00:28.361307 14827 layer_factory.hpp:123] Creating layer Add_25
I0716 08:00:28.361315 14827 net.cpp:140] Creating Layer Add_25
I0716 08:00:28.361323 14827 net.cpp:481] Add_25 <- Add_24_Add_24_0_split_0
I0716 08:00:28.361330 14827 net.cpp:481] Add_25 <- ConvNd_44
I0716 08:00:28.361338 14827 net.cpp:455] Add_25 -> Add_25
I0716 08:00:28.361368 14827 net.cpp:190] Setting up Add_25
I0716 08:00:28.361377 14827 net.cpp:197] Top shape: 1 25 32 64 (51200)
I0716 08:00:28.361382 14827 net.cpp:205] Memory required for data: 140115972
I0716 08:00:28.361387 14827 layer_factory.hpp:123] Creating layer Concat_9
I0716 08:00:28.361397 14827 net.cpp:140] Creating Layer Concat_9
I0716 08:00:28.361402 14827 net.cpp:481] Concat_9 <- ConvNd_40
I0716 08:00:28.361408 14827 net.cpp:481] Concat_9 <- ConvNd_41_ConvNd_41_0_split_1
I0716 08:00:28.361415 14827 net.cpp:481] Concat_9 <- Add_23_Add_23_0_split_1
I0716 08:00:28.361421 14827 net.cpp:481] Concat_9 <- Add_24_Add_24_0_split_1
I0716 08:00:28.361428 14827 net.cpp:481] Concat_9 <- Add_25
I0716 08:00:28.361435 14827 net.cpp:455] Concat_9 -> Concat_9
I0716 08:00:28.361469 14827 net.cpp:190] Setting up Concat_9
I0716 08:00:28.361477 14827 net.cpp:197] Top shape: 1 128 32 64 (262144)
I0716 08:00:28.361482 14827 net.cpp:205] Memory required for data: 141164548
I0716 08:00:28.361487 14827 layer_factory.hpp:123] Creating layer Add_26
I0716 08:00:28.361495 14827 net.cpp:140] Creating Layer Add_26
I0716 08:00:28.361501 14827 net.cpp:481] Add_26 <- BatchNorm_9_Threshold_9_0_split_1
I0716 08:00:28.361508 14827 net.cpp:481] Add_26 <- Concat_9
I0716 08:00:28.361516 14827 net.cpp:455] Add_26 -> Add_26
I0716 08:00:28.361546 14827 net.cpp:190] Setting up Add_26
I0716 08:00:28.361554 14827 net.cpp:197] Top shape: 1 128 32 64 (262144)
I0716 08:00:28.361559 14827 net.cpp:205] Memory required for data: 142213124
I0716 08:00:28.361564 14827 layer_factory.hpp:123] Creating layer BatchNorm_10
I0716 08:00:28.361574 14827 net.cpp:140] Creating Layer BatchNorm_10
I0716 08:00:28.361579 14827 net.cpp:481] BatchNorm_10 <- Add_26
I0716 08:00:28.361588 14827 net.cpp:455] BatchNorm_10 -> BatchNorm_10
I0716 08:00:28.362418 14827 net.cpp:190] Setting up BatchNorm_10
I0716 08:00:28.362432 14827 net.cpp:197] Top shape: 1 128 32 64 (262144)
I0716 08:00:28.362437 14827 net.cpp:205] Memory required for data: 143261700
I0716 08:00:28.362452 14827 layer_factory.hpp:123] Creating layer Threshold_10
I0716 08:00:28.362462 14827 net.cpp:140] Creating Layer Threshold_10
I0716 08:00:28.362469 14827 net.cpp:481] Threshold_10 <- BatchNorm_10
I0716 08:00:28.362478 14827 net.cpp:442] Threshold_10 -> BatchNorm_10 (in-place)
I0716 08:00:28.362488 14827 net.cpp:190] Setting up Threshold_10
I0716 08:00:28.362495 14827 net.cpp:197] Top shape: 1 128 32 64 (262144)
I0716 08:00:28.362500 14827 net.cpp:205] Memory required for data: 144310276
I0716 08:00:28.362505 14827 layer_factory.hpp:123] Creating layer BatchNorm_10_Threshold_10_0_split
I0716 08:00:28.362514 14827 net.cpp:140] Creating Layer BatchNorm_10_Threshold_10_0_split
I0716 08:00:28.362519 14827 net.cpp:481] BatchNorm_10_Threshold_10_0_split <- BatchNorm_10
I0716 08:00:28.362526 14827 net.cpp:455] BatchNorm_10_Threshold_10_0_split -> BatchNorm_10_Threshold_10_0_split_0
I0716 08:00:28.362536 14827 net.cpp:455] BatchNorm_10_Threshold_10_0_split -> BatchNorm_10_Threshold_10_0_split_1
I0716 08:00:28.362584 14827 net.cpp:190] Setting up BatchNorm_10_Threshold_10_0_split
I0716 08:00:28.362594 14827 net.cpp:197] Top shape: 1 128 32 64 (262144)
I0716 08:00:28.362601 14827 net.cpp:197] Top shape: 1 128 32 64 (262144)
I0716 08:00:28.362605 14827 net.cpp:205] Memory required for data: 146407428
I0716 08:00:28.362612 14827 layer_factory.hpp:123] Creating layer ConvNd_45
I0716 08:00:28.362622 14827 net.cpp:140] Creating Layer ConvNd_45
I0716 08:00:28.362629 14827 net.cpp:481] ConvNd_45 <- BatchNorm_10_Threshold_10_0_split_0
I0716 08:00:28.362638 14827 net.cpp:455] ConvNd_45 -> ConvNd_45
I0716 08:00:28.362944 14827 net.cpp:190] Setting up ConvNd_45
I0716 08:00:28.362957 14827 net.cpp:197] Top shape: 1 25 32 64 (51200)
I0716 08:00:28.362962 14827 net.cpp:205] Memory required for data: 146612228
I0716 08:00:28.362968 14827 layer_factory.hpp:123] Creating layer ConvNd_45_ConvNd_45_0_split
I0716 08:00:28.362978 14827 net.cpp:140] Creating Layer ConvNd_45_ConvNd_45_0_split
I0716 08:00:28.362985 14827 net.cpp:481] ConvNd_45_ConvNd_45_0_split <- ConvNd_45
I0716 08:00:28.362995 14827 net.cpp:455] ConvNd_45_ConvNd_45_0_split -> ConvNd_45_ConvNd_45_0_split_0
I0716 08:00:28.363008 14827 net.cpp:455] ConvNd_45_ConvNd_45_0_split -> ConvNd_45_ConvNd_45_0_split_1
I0716 08:00:28.363020 14827 net.cpp:455] ConvNd_45_ConvNd_45_0_split -> ConvNd_45_ConvNd_45_0_split_2
I0716 08:00:28.363032 14827 net.cpp:455] ConvNd_45_ConvNd_45_0_split -> ConvNd_45_ConvNd_45_0_split_3
I0716 08:00:28.363044 14827 net.cpp:455] ConvNd_45_ConvNd_45_0_split -> ConvNd_45_ConvNd_45_0_split_4
I0716 08:00:28.363137 14827 net.cpp:190] Setting up ConvNd_45_ConvNd_45_0_split
I0716 08:00:28.363147 14827 net.cpp:197] Top shape: 1 25 32 64 (51200)
I0716 08:00:28.363153 14827 net.cpp:197] Top shape: 1 25 32 64 (51200)
I0716 08:00:28.363159 14827 net.cpp:197] Top shape: 1 25 32 64 (51200)
I0716 08:00:28.363165 14827 net.cpp:197] Top shape: 1 25 32 64 (51200)
I0716 08:00:28.363173 14827 net.cpp:197] Top shape: 1 25 32 64 (51200)
I0716 08:00:28.363178 14827 net.cpp:205] Memory required for data: 147636228
I0716 08:00:28.363183 14827 layer_factory.hpp:123] Creating layer ConvNd_46
I0716 08:00:28.363194 14827 net.cpp:140] Creating Layer ConvNd_46
I0716 08:00:28.363202 14827 net.cpp:481] ConvNd_46 <- ConvNd_45_ConvNd_45_0_split_0
I0716 08:00:28.363211 14827 net.cpp:455] ConvNd_46 -> ConvNd_46
I0716 08:00:28.363574 14827 net.cpp:190] Setting up ConvNd_46
I0716 08:00:28.363584 14827 net.cpp:197] Top shape: 1 28 32 64 (57344)
I0716 08:00:28.363590 14827 net.cpp:205] Memory required for data: 147865604
I0716 08:00:28.363597 14827 layer_factory.hpp:123] Creating layer ConvNd_47
I0716 08:00:28.363610 14827 net.cpp:140] Creating Layer ConvNd_47
I0716 08:00:28.363617 14827 net.cpp:481] ConvNd_47 <- ConvNd_45_ConvNd_45_0_split_1
I0716 08:00:28.363626 14827 net.cpp:455] ConvNd_47 -> ConvNd_47
I0716 08:00:28.363986 14827 net.cpp:190] Setting up ConvNd_47
I0716 08:00:28.363997 14827 net.cpp:197] Top shape: 1 25 32 64 (51200)
I0716 08:00:28.364002 14827 net.cpp:205] Memory required for data: 148070404
I0716 08:00:28.364009 14827 layer_factory.hpp:123] Creating layer ConvNd_47_ConvNd_47_0_split
I0716 08:00:28.364019 14827 net.cpp:140] Creating Layer ConvNd_47_ConvNd_47_0_split
I0716 08:00:28.364027 14827 net.cpp:481] ConvNd_47_ConvNd_47_0_split <- ConvNd_47
I0716 08:00:28.364035 14827 net.cpp:455] ConvNd_47_ConvNd_47_0_split -> ConvNd_47_ConvNd_47_0_split_0
I0716 08:00:28.364048 14827 net.cpp:455] ConvNd_47_ConvNd_47_0_split -> ConvNd_47_ConvNd_47_0_split_1
I0716 08:00:28.364095 14827 net.cpp:190] Setting up ConvNd_47_ConvNd_47_0_split
I0716 08:00:28.364105 14827 net.cpp:197] Top shape: 1 25 32 64 (51200)
I0716 08:00:28.364112 14827 net.cpp:197] Top shape: 1 25 32 64 (51200)
I0716 08:00:28.364117 14827 net.cpp:205] Memory required for data: 148480004
I0716 08:00:28.364122 14827 layer_factory.hpp:123] Creating layer ConvNd_48
I0716 08:00:28.364135 14827 net.cpp:140] Creating Layer ConvNd_48
I0716 08:00:28.364142 14827 net.cpp:481] ConvNd_48 <- ConvNd_45_ConvNd_45_0_split_2
I0716 08:00:28.364151 14827 net.cpp:455] ConvNd_48 -> ConvNd_48
I0716 08:00:28.364496 14827 net.cpp:190] Setting up ConvNd_48
I0716 08:00:28.364508 14827 net.cpp:197] Top shape: 1 25 32 64 (51200)
I0716 08:00:28.364513 14827 net.cpp:205] Memory required for data: 148684804
I0716 08:00:28.364523 14827 layer_factory.hpp:123] Creating layer Add_27
I0716 08:00:28.364533 14827 net.cpp:140] Creating Layer Add_27
I0716 08:00:28.364542 14827 net.cpp:481] Add_27 <- ConvNd_47_ConvNd_47_0_split_0
I0716 08:00:28.364547 14827 net.cpp:481] Add_27 <- ConvNd_48
I0716 08:00:28.364557 14827 net.cpp:455] Add_27 -> Add_27
I0716 08:00:28.364588 14827 net.cpp:190] Setting up Add_27
I0716 08:00:28.364598 14827 net.cpp:197] Top shape: 1 25 32 64 (51200)
I0716 08:00:28.364601 14827 net.cpp:205] Memory required for data: 148889604
I0716 08:00:28.364607 14827 layer_factory.hpp:123] Creating layer Add_27_Add_27_0_split
I0716 08:00:28.364615 14827 net.cpp:140] Creating Layer Add_27_Add_27_0_split
I0716 08:00:28.364620 14827 net.cpp:481] Add_27_Add_27_0_split <- Add_27
I0716 08:00:28.364627 14827 net.cpp:455] Add_27_Add_27_0_split -> Add_27_Add_27_0_split_0
I0716 08:00:28.364639 14827 net.cpp:455] Add_27_Add_27_0_split -> Add_27_Add_27_0_split_1
I0716 08:00:28.364686 14827 net.cpp:190] Setting up Add_27_Add_27_0_split
I0716 08:00:28.364696 14827 net.cpp:197] Top shape: 1 25 32 64 (51200)
I0716 08:00:28.364701 14827 net.cpp:197] Top shape: 1 25 32 64 (51200)
I0716 08:00:28.364706 14827 net.cpp:205] Memory required for data: 149299204
I0716 08:00:28.364711 14827 layer_factory.hpp:123] Creating layer ConvNd_49
I0716 08:00:28.364722 14827 net.cpp:140] Creating Layer ConvNd_49
I0716 08:00:28.364727 14827 net.cpp:481] ConvNd_49 <- ConvNd_45_ConvNd_45_0_split_3
I0716 08:00:28.364737 14827 net.cpp:455] ConvNd_49 -> ConvNd_49
I0716 08:00:28.365087 14827 net.cpp:190] Setting up ConvNd_49
I0716 08:00:28.365097 14827 net.cpp:197] Top shape: 1 25 32 64 (51200)
I0716 08:00:28.365103 14827 net.cpp:205] Memory required for data: 149504004
I0716 08:00:28.365110 14827 layer_factory.hpp:123] Creating layer Add_28
I0716 08:00:28.365118 14827 net.cpp:140] Creating Layer Add_28
I0716 08:00:28.365124 14827 net.cpp:481] Add_28 <- Add_27_Add_27_0_split_0
I0716 08:00:28.365131 14827 net.cpp:481] Add_28 <- ConvNd_49
I0716 08:00:28.365139 14827 net.cpp:455] Add_28 -> Add_28
I0716 08:00:28.365171 14827 net.cpp:190] Setting up Add_28
I0716 08:00:28.365181 14827 net.cpp:197] Top shape: 1 25 32 64 (51200)
I0716 08:00:28.365186 14827 net.cpp:205] Memory required for data: 149708804
I0716 08:00:28.365191 14827 layer_factory.hpp:123] Creating layer Add_28_Add_28_0_split
I0716 08:00:28.365200 14827 net.cpp:140] Creating Layer Add_28_Add_28_0_split
I0716 08:00:28.365206 14827 net.cpp:481] Add_28_Add_28_0_split <- Add_28
I0716 08:00:28.365213 14827 net.cpp:455] Add_28_Add_28_0_split -> Add_28_Add_28_0_split_0
I0716 08:00:28.365224 14827 net.cpp:455] Add_28_Add_28_0_split -> Add_28_Add_28_0_split_1
I0716 08:00:28.365270 14827 net.cpp:190] Setting up Add_28_Add_28_0_split
I0716 08:00:28.365280 14827 net.cpp:197] Top shape: 1 25 32 64 (51200)
I0716 08:00:28.365286 14827 net.cpp:197] Top shape: 1 25 32 64 (51200)
I0716 08:00:28.365291 14827 net.cpp:205] Memory required for data: 150118404
I0716 08:00:28.365296 14827 layer_factory.hpp:123] Creating layer ConvNd_50
I0716 08:00:28.365309 14827 net.cpp:140] Creating Layer ConvNd_50
I0716 08:00:28.365315 14827 net.cpp:481] ConvNd_50 <- ConvNd_45_ConvNd_45_0_split_4
I0716 08:00:28.365324 14827 net.cpp:455] ConvNd_50 -> ConvNd_50
I0716 08:00:28.365674 14827 net.cpp:190] Setting up ConvNd_50
I0716 08:00:28.365685 14827 net.cpp:197] Top shape: 1 25 32 64 (51200)
I0716 08:00:28.365692 14827 net.cpp:205] Memory required for data: 150323204
I0716 08:00:28.365700 14827 layer_factory.hpp:123] Creating layer Add_29
I0716 08:00:28.365710 14827 net.cpp:140] Creating Layer Add_29
I0716 08:00:28.365717 14827 net.cpp:481] Add_29 <- Add_28_Add_28_0_split_0
I0716 08:00:28.365725 14827 net.cpp:481] Add_29 <- ConvNd_50
I0716 08:00:28.365732 14827 net.cpp:455] Add_29 -> Add_29
I0716 08:00:28.365764 14827 net.cpp:190] Setting up Add_29
I0716 08:00:28.365773 14827 net.cpp:197] Top shape: 1 25 32 64 (51200)
I0716 08:00:28.365778 14827 net.cpp:205] Memory required for data: 150528004
I0716 08:00:28.365784 14827 layer_factory.hpp:123] Creating layer Concat_10
I0716 08:00:28.365793 14827 net.cpp:140] Creating Layer Concat_10
I0716 08:00:28.365798 14827 net.cpp:481] Concat_10 <- ConvNd_46
I0716 08:00:28.365804 14827 net.cpp:481] Concat_10 <- ConvNd_47_ConvNd_47_0_split_1
I0716 08:00:28.365815 14827 net.cpp:481] Concat_10 <- Add_27_Add_27_0_split_1
I0716 08:00:28.365823 14827 net.cpp:481] Concat_10 <- Add_28_Add_28_0_split_1
I0716 08:00:28.365828 14827 net.cpp:481] Concat_10 <- Add_29
I0716 08:00:28.365836 14827 net.cpp:455] Concat_10 -> Concat_10
I0716 08:00:28.365867 14827 net.cpp:190] Setting up Concat_10
I0716 08:00:28.365876 14827 net.cpp:197] Top shape: 1 128 32 64 (262144)
I0716 08:00:28.365880 14827 net.cpp:205] Memory required for data: 151576580
I0716 08:00:28.365886 14827 layer_factory.hpp:123] Creating layer Add_30
I0716 08:00:28.365895 14827 net.cpp:140] Creating Layer Add_30
I0716 08:00:28.365900 14827 net.cpp:481] Add_30 <- BatchNorm_10_Threshold_10_0_split_1
I0716 08:00:28.365907 14827 net.cpp:481] Add_30 <- Concat_10
I0716 08:00:28.365914 14827 net.cpp:455] Add_30 -> Add_30
I0716 08:00:28.365945 14827 net.cpp:190] Setting up Add_30
I0716 08:00:28.365955 14827 net.cpp:197] Top shape: 1 128 32 64 (262144)
I0716 08:00:28.365960 14827 net.cpp:205] Memory required for data: 152625156
I0716 08:00:28.365965 14827 layer_factory.hpp:123] Creating layer BatchNorm_11
I0716 08:00:28.365976 14827 net.cpp:140] Creating Layer BatchNorm_11
I0716 08:00:28.365981 14827 net.cpp:481] BatchNorm_11 <- Add_30
I0716 08:00:28.365989 14827 net.cpp:455] BatchNorm_11 -> BatchNorm_11
I0716 08:00:28.366817 14827 net.cpp:190] Setting up BatchNorm_11
I0716 08:00:28.366830 14827 net.cpp:197] Top shape: 1 128 32 64 (262144)
I0716 08:00:28.366835 14827 net.cpp:205] Memory required for data: 153673732
I0716 08:00:28.366850 14827 layer_factory.hpp:123] Creating layer Threshold_11
I0716 08:00:28.366860 14827 net.cpp:140] Creating Layer Threshold_11
I0716 08:00:28.366866 14827 net.cpp:481] Threshold_11 <- BatchNorm_11
I0716 08:00:28.366874 14827 net.cpp:442] Threshold_11 -> BatchNorm_11 (in-place)
I0716 08:00:28.366886 14827 net.cpp:190] Setting up Threshold_11
I0716 08:00:28.366894 14827 net.cpp:197] Top shape: 1 128 32 64 (262144)
I0716 08:00:28.366899 14827 net.cpp:205] Memory required for data: 154722308
I0716 08:00:28.366904 14827 layer_factory.hpp:123] Creating layer BatchNorm_11_Threshold_11_0_split
I0716 08:00:28.366912 14827 net.cpp:140] Creating Layer BatchNorm_11_Threshold_11_0_split
I0716 08:00:28.366917 14827 net.cpp:481] BatchNorm_11_Threshold_11_0_split <- BatchNorm_11
I0716 08:00:28.366926 14827 net.cpp:455] BatchNorm_11_Threshold_11_0_split -> BatchNorm_11_Threshold_11_0_split_0
I0716 08:00:28.366937 14827 net.cpp:455] BatchNorm_11_Threshold_11_0_split -> BatchNorm_11_Threshold_11_0_split_1
I0716 08:00:28.366986 14827 net.cpp:190] Setting up BatchNorm_11_Threshold_11_0_split
I0716 08:00:28.366995 14827 net.cpp:197] Top shape: 1 128 32 64 (262144)
I0716 08:00:28.367002 14827 net.cpp:197] Top shape: 1 128 32 64 (262144)
I0716 08:00:28.367007 14827 net.cpp:205] Memory required for data: 156819460
I0716 08:00:28.367012 14827 layer_factory.hpp:123] Creating layer ConvNd_51
I0716 08:00:28.367023 14827 net.cpp:140] Creating Layer ConvNd_51
I0716 08:00:28.367031 14827 net.cpp:481] ConvNd_51 <- BatchNorm_11_Threshold_11_0_split_0
I0716 08:00:28.367040 14827 net.cpp:455] ConvNd_51 -> ConvNd_51
I0716 08:00:28.367347 14827 net.cpp:190] Setting up ConvNd_51
I0716 08:00:28.367359 14827 net.cpp:197] Top shape: 1 25 32 64 (51200)
I0716 08:00:28.367365 14827 net.cpp:205] Memory required for data: 157024260
I0716 08:00:28.367372 14827 layer_factory.hpp:123] Creating layer ConvNd_51_ConvNd_51_0_split
I0716 08:00:28.367381 14827 net.cpp:140] Creating Layer ConvNd_51_ConvNd_51_0_split
I0716 08:00:28.367388 14827 net.cpp:481] ConvNd_51_ConvNd_51_0_split <- ConvNd_51
I0716 08:00:28.367398 14827 net.cpp:455] ConvNd_51_ConvNd_51_0_split -> ConvNd_51_ConvNd_51_0_split_0
I0716 08:00:28.367411 14827 net.cpp:455] ConvNd_51_ConvNd_51_0_split -> ConvNd_51_ConvNd_51_0_split_1
I0716 08:00:28.367422 14827 net.cpp:455] ConvNd_51_ConvNd_51_0_split -> ConvNd_51_ConvNd_51_0_split_2
I0716 08:00:28.367435 14827 net.cpp:455] ConvNd_51_ConvNd_51_0_split -> ConvNd_51_ConvNd_51_0_split_3
I0716 08:00:28.367447 14827 net.cpp:455] ConvNd_51_ConvNd_51_0_split -> ConvNd_51_ConvNd_51_0_split_4
I0716 08:00:28.367542 14827 net.cpp:190] Setting up ConvNd_51_ConvNd_51_0_split
I0716 08:00:28.367552 14827 net.cpp:197] Top shape: 1 25 32 64 (51200)
I0716 08:00:28.367559 14827 net.cpp:197] Top shape: 1 25 32 64 (51200)
I0716 08:00:28.367565 14827 net.cpp:197] Top shape: 1 25 32 64 (51200)
I0716 08:00:28.367573 14827 net.cpp:197] Top shape: 1 25 32 64 (51200)
I0716 08:00:28.367578 14827 net.cpp:197] Top shape: 1 25 32 64 (51200)
I0716 08:00:28.367583 14827 net.cpp:205] Memory required for data: 158048260
I0716 08:00:28.367588 14827 layer_factory.hpp:123] Creating layer ConvNd_52
I0716 08:00:28.367600 14827 net.cpp:140] Creating Layer ConvNd_52
I0716 08:00:28.367607 14827 net.cpp:481] ConvNd_52 <- ConvNd_51_ConvNd_51_0_split_0
I0716 08:00:28.367616 14827 net.cpp:455] ConvNd_52 -> ConvNd_52
I0716 08:00:28.367998 14827 net.cpp:190] Setting up ConvNd_52
I0716 08:00:28.368010 14827 net.cpp:197] Top shape: 1 28 32 64 (57344)
I0716 08:00:28.368016 14827 net.cpp:205] Memory required for data: 158277636
I0716 08:00:28.368023 14827 layer_factory.hpp:123] Creating layer ConvNd_53
I0716 08:00:28.368036 14827 net.cpp:140] Creating Layer ConvNd_53
I0716 08:00:28.368042 14827 net.cpp:481] ConvNd_53 <- ConvNd_51_ConvNd_51_0_split_1
I0716 08:00:28.368052 14827 net.cpp:455] ConvNd_53 -> ConvNd_53
I0716 08:00:28.368400 14827 net.cpp:190] Setting up ConvNd_53
I0716 08:00:28.368413 14827 net.cpp:197] Top shape: 1 25 32 64 (51200)
I0716 08:00:28.368418 14827 net.cpp:205] Memory required for data: 158482436
I0716 08:00:28.368425 14827 layer_factory.hpp:123] Creating layer ConvNd_53_ConvNd_53_0_split
I0716 08:00:28.368433 14827 net.cpp:140] Creating Layer ConvNd_53_ConvNd_53_0_split
I0716 08:00:28.368439 14827 net.cpp:481] ConvNd_53_ConvNd_53_0_split <- ConvNd_53
I0716 08:00:28.368448 14827 net.cpp:455] ConvNd_53_ConvNd_53_0_split -> ConvNd_53_ConvNd_53_0_split_0
I0716 08:00:28.368458 14827 net.cpp:455] ConvNd_53_ConvNd_53_0_split -> ConvNd_53_ConvNd_53_0_split_1
I0716 08:00:28.368506 14827 net.cpp:190] Setting up ConvNd_53_ConvNd_53_0_split
I0716 08:00:28.368516 14827 net.cpp:197] Top shape: 1 25 32 64 (51200)
I0716 08:00:28.368522 14827 net.cpp:197] Top shape: 1 25 32 64 (51200)
I0716 08:00:28.368527 14827 net.cpp:205] Memory required for data: 158892036
I0716 08:00:28.368532 14827 layer_factory.hpp:123] Creating layer ConvNd_54
I0716 08:00:28.368543 14827 net.cpp:140] Creating Layer ConvNd_54
I0716 08:00:28.368551 14827 net.cpp:481] ConvNd_54 <- ConvNd_51_ConvNd_51_0_split_2
I0716 08:00:28.368558 14827 net.cpp:455] ConvNd_54 -> ConvNd_54
I0716 08:00:28.368903 14827 net.cpp:190] Setting up ConvNd_54
I0716 08:00:28.368916 14827 net.cpp:197] Top shape: 1 25 32 64 (51200)
I0716 08:00:28.368921 14827 net.cpp:205] Memory required for data: 159096836
I0716 08:00:28.368927 14827 layer_factory.hpp:123] Creating layer Add_31
I0716 08:00:28.368937 14827 net.cpp:140] Creating Layer Add_31
I0716 08:00:28.368944 14827 net.cpp:481] Add_31 <- ConvNd_53_ConvNd_53_0_split_0
I0716 08:00:28.368950 14827 net.cpp:481] Add_31 <- ConvNd_54
I0716 08:00:28.368959 14827 net.cpp:455] Add_31 -> Add_31
I0716 08:00:28.368989 14827 net.cpp:190] Setting up Add_31
I0716 08:00:28.368999 14827 net.cpp:197] Top shape: 1 25 32 64 (51200)
I0716 08:00:28.369004 14827 net.cpp:205] Memory required for data: 159301636
I0716 08:00:28.369009 14827 layer_factory.hpp:123] Creating layer Add_31_Add_31_0_split
I0716 08:00:28.369017 14827 net.cpp:140] Creating Layer Add_31_Add_31_0_split
I0716 08:00:28.369022 14827 net.cpp:481] Add_31_Add_31_0_split <- Add_31
I0716 08:00:28.369031 14827 net.cpp:455] Add_31_Add_31_0_split -> Add_31_Add_31_0_split_0
I0716 08:00:28.369041 14827 net.cpp:455] Add_31_Add_31_0_split -> Add_31_Add_31_0_split_1
I0716 08:00:28.369088 14827 net.cpp:190] Setting up Add_31_Add_31_0_split
I0716 08:00:28.369097 14827 net.cpp:197] Top shape: 1 25 32 64 (51200)
I0716 08:00:28.369114 14827 net.cpp:197] Top shape: 1 25 32 64 (51200)
I0716 08:00:28.369119 14827 net.cpp:205] Memory required for data: 159711236
I0716 08:00:28.369124 14827 layer_factory.hpp:123] Creating layer ConvNd_55
I0716 08:00:28.369136 14827 net.cpp:140] Creating Layer ConvNd_55
I0716 08:00:28.369141 14827 net.cpp:481] ConvNd_55 <- ConvNd_51_ConvNd_51_0_split_3
I0716 08:00:28.369150 14827 net.cpp:455] ConvNd_55 -> ConvNd_55
I0716 08:00:28.369503 14827 net.cpp:190] Setting up ConvNd_55
I0716 08:00:28.369516 14827 net.cpp:197] Top shape: 1 25 32 64 (51200)
I0716 08:00:28.369520 14827 net.cpp:205] Memory required for data: 159916036
I0716 08:00:28.369529 14827 layer_factory.hpp:123] Creating layer Add_32
I0716 08:00:28.369536 14827 net.cpp:140] Creating Layer Add_32
I0716 08:00:28.369544 14827 net.cpp:481] Add_32 <- Add_31_Add_31_0_split_0
I0716 08:00:28.369550 14827 net.cpp:481] Add_32 <- ConvNd_55
I0716 08:00:28.369558 14827 net.cpp:455] Add_32 -> Add_32
I0716 08:00:28.369588 14827 net.cpp:190] Setting up Add_32
I0716 08:00:28.369598 14827 net.cpp:197] Top shape: 1 25 32 64 (51200)
I0716 08:00:28.369602 14827 net.cpp:205] Memory required for data: 160120836
I0716 08:00:28.369607 14827 layer_factory.hpp:123] Creating layer Add_32_Add_32_0_split
I0716 08:00:28.369616 14827 net.cpp:140] Creating Layer Add_32_Add_32_0_split
I0716 08:00:28.369621 14827 net.cpp:481] Add_32_Add_32_0_split <- Add_32
I0716 08:00:28.369629 14827 net.cpp:455] Add_32_Add_32_0_split -> Add_32_Add_32_0_split_0
I0716 08:00:28.369640 14827 net.cpp:455] Add_32_Add_32_0_split -> Add_32_Add_32_0_split_1
I0716 08:00:28.369686 14827 net.cpp:190] Setting up Add_32_Add_32_0_split
I0716 08:00:28.369696 14827 net.cpp:197] Top shape: 1 25 32 64 (51200)
I0716 08:00:28.369709 14827 net.cpp:197] Top shape: 1 25 32 64 (51200)
I0716 08:00:28.369714 14827 net.cpp:205] Memory required for data: 160530436
I0716 08:00:28.369719 14827 layer_factory.hpp:123] Creating layer ConvNd_56
I0716 08:00:28.369730 14827 net.cpp:140] Creating Layer ConvNd_56
I0716 08:00:28.369736 14827 net.cpp:481] ConvNd_56 <- ConvNd_51_ConvNd_51_0_split_4
I0716 08:00:28.369745 14827 net.cpp:455] ConvNd_56 -> ConvNd_56
I0716 08:00:28.370093 14827 net.cpp:190] Setting up ConvNd_56
I0716 08:00:28.370105 14827 net.cpp:197] Top shape: 1 25 32 64 (51200)
I0716 08:00:28.370110 14827 net.cpp:205] Memory required for data: 160735236
I0716 08:00:28.370117 14827 layer_factory.hpp:123] Creating layer Add_33
I0716 08:00:28.370126 14827 net.cpp:140] Creating Layer Add_33
I0716 08:00:28.370131 14827 net.cpp:481] Add_33 <- Add_32_Add_32_0_split_0
I0716 08:00:28.370138 14827 net.cpp:481] Add_33 <- ConvNd_56
I0716 08:00:28.370146 14827 net.cpp:455] Add_33 -> Add_33
I0716 08:00:28.370174 14827 net.cpp:190] Setting up Add_33
I0716 08:00:28.370184 14827 net.cpp:197] Top shape: 1 25 32 64 (51200)
I0716 08:00:28.370189 14827 net.cpp:205] Memory required for data: 160940036
I0716 08:00:28.370194 14827 layer_factory.hpp:123] Creating layer Concat_11
I0716 08:00:28.370203 14827 net.cpp:140] Creating Layer Concat_11
I0716 08:00:28.370208 14827 net.cpp:481] Concat_11 <- ConvNd_52
I0716 08:00:28.370215 14827 net.cpp:481] Concat_11 <- ConvNd_53_ConvNd_53_0_split_1
I0716 08:00:28.370223 14827 net.cpp:481] Concat_11 <- Add_31_Add_31_0_split_1
I0716 08:00:28.370229 14827 net.cpp:481] Concat_11 <- Add_32_Add_32_0_split_1
I0716 08:00:28.370234 14827 net.cpp:481] Concat_11 <- Add_33
I0716 08:00:28.370244 14827 net.cpp:455] Concat_11 -> Concat_11
I0716 08:00:28.370273 14827 net.cpp:190] Setting up Concat_11
I0716 08:00:28.370282 14827 net.cpp:197] Top shape: 1 128 32 64 (262144)
I0716 08:00:28.370288 14827 net.cpp:205] Memory required for data: 161988612
I0716 08:00:28.370293 14827 layer_factory.hpp:123] Creating layer Add_34
I0716 08:00:28.370301 14827 net.cpp:140] Creating Layer Add_34
I0716 08:00:28.370306 14827 net.cpp:481] Add_34 <- BatchNorm_11_Threshold_11_0_split_1
I0716 08:00:28.370313 14827 net.cpp:481] Add_34 <- Concat_11
I0716 08:00:28.370321 14827 net.cpp:455] Add_34 -> Add_34
I0716 08:00:28.370350 14827 net.cpp:190] Setting up Add_34
I0716 08:00:28.370359 14827 net.cpp:197] Top shape: 1 128 32 64 (262144)
I0716 08:00:28.370364 14827 net.cpp:205] Memory required for data: 163037188
I0716 08:00:28.370369 14827 layer_factory.hpp:123] Creating layer BatchNorm_12
I0716 08:00:28.370379 14827 net.cpp:140] Creating Layer BatchNorm_12
I0716 08:00:28.370384 14827 net.cpp:481] BatchNorm_12 <- Add_34
I0716 08:00:28.370393 14827 net.cpp:455] BatchNorm_12 -> BatchNorm_12
I0716 08:00:28.371227 14827 net.cpp:190] Setting up BatchNorm_12
I0716 08:00:28.371239 14827 net.cpp:197] Top shape: 1 128 32 64 (262144)
I0716 08:00:28.371245 14827 net.cpp:205] Memory required for data: 164085764
I0716 08:00:28.371260 14827 layer_factory.hpp:123] Creating layer Threshold_12
I0716 08:00:28.371269 14827 net.cpp:140] Creating Layer Threshold_12
I0716 08:00:28.371275 14827 net.cpp:481] Threshold_12 <- BatchNorm_12
I0716 08:00:28.371284 14827 net.cpp:442] Threshold_12 -> BatchNorm_12 (in-place)
I0716 08:00:28.371294 14827 net.cpp:190] Setting up Threshold_12
I0716 08:00:28.371300 14827 net.cpp:197] Top shape: 1 128 32 64 (262144)
I0716 08:00:28.371305 14827 net.cpp:205] Memory required for data: 165134340
I0716 08:00:28.371310 14827 layer_factory.hpp:123] Creating layer BatchNorm_12_Threshold_12_0_split
I0716 08:00:28.371318 14827 net.cpp:140] Creating Layer BatchNorm_12_Threshold_12_0_split
I0716 08:00:28.371323 14827 net.cpp:481] BatchNorm_12_Threshold_12_0_split <- BatchNorm_12
I0716 08:00:28.371331 14827 net.cpp:455] BatchNorm_12_Threshold_12_0_split -> BatchNorm_12_Threshold_12_0_split_0
I0716 08:00:28.371341 14827 net.cpp:455] BatchNorm_12_Threshold_12_0_split -> BatchNorm_12_Threshold_12_0_split_1
I0716 08:00:28.371392 14827 net.cpp:190] Setting up BatchNorm_12_Threshold_12_0_split
I0716 08:00:28.371402 14827 net.cpp:197] Top shape: 1 128 32 64 (262144)
I0716 08:00:28.371407 14827 net.cpp:197] Top shape: 1 128 32 64 (262144)
I0716 08:00:28.371412 14827 net.cpp:205] Memory required for data: 167231492
I0716 08:00:28.371417 14827 layer_factory.hpp:123] Creating layer ConvNd_57
I0716 08:00:28.371429 14827 net.cpp:140] Creating Layer ConvNd_57
I0716 08:00:28.371435 14827 net.cpp:481] ConvNd_57 <- BatchNorm_12_Threshold_12_0_split_0
I0716 08:00:28.371443 14827 net.cpp:455] ConvNd_57 -> ConvNd_57
I0716 08:00:28.371760 14827 net.cpp:190] Setting up ConvNd_57
I0716 08:00:28.371773 14827 net.cpp:197] Top shape: 1 25 32 64 (51200)
I0716 08:00:28.371779 14827 net.cpp:205] Memory required for data: 167436292
I0716 08:00:28.371786 14827 layer_factory.hpp:123] Creating layer ConvNd_57_ConvNd_57_0_split
I0716 08:00:28.371796 14827 net.cpp:140] Creating Layer ConvNd_57_ConvNd_57_0_split
I0716 08:00:28.371801 14827 net.cpp:481] ConvNd_57_ConvNd_57_0_split <- ConvNd_57
I0716 08:00:28.371810 14827 net.cpp:455] ConvNd_57_ConvNd_57_0_split -> ConvNd_57_ConvNd_57_0_split_0
I0716 08:00:28.371822 14827 net.cpp:455] ConvNd_57_ConvNd_57_0_split -> ConvNd_57_ConvNd_57_0_split_1
I0716 08:00:28.371835 14827 net.cpp:455] ConvNd_57_ConvNd_57_0_split -> ConvNd_57_ConvNd_57_0_split_2
I0716 08:00:28.371845 14827 net.cpp:455] ConvNd_57_ConvNd_57_0_split -> ConvNd_57_ConvNd_57_0_split_3
I0716 08:00:28.371856 14827 net.cpp:455] ConvNd_57_ConvNd_57_0_split -> ConvNd_57_ConvNd_57_0_split_4
I0716 08:00:28.371951 14827 net.cpp:190] Setting up ConvNd_57_ConvNd_57_0_split
I0716 08:00:28.371961 14827 net.cpp:197] Top shape: 1 25 32 64 (51200)
I0716 08:00:28.371968 14827 net.cpp:197] Top shape: 1 25 32 64 (51200)
I0716 08:00:28.371973 14827 net.cpp:197] Top shape: 1 25 32 64 (51200)
I0716 08:00:28.371981 14827 net.cpp:197] Top shape: 1 25 32 64 (51200)
I0716 08:00:28.371987 14827 net.cpp:197] Top shape: 1 25 32 64 (51200)
I0716 08:00:28.371992 14827 net.cpp:205] Memory required for data: 168460292
I0716 08:00:28.371997 14827 layer_factory.hpp:123] Creating layer ConvNd_58
I0716 08:00:28.372009 14827 net.cpp:140] Creating Layer ConvNd_58
I0716 08:00:28.372017 14827 net.cpp:481] ConvNd_58 <- ConvNd_57_ConvNd_57_0_split_0
I0716 08:00:28.372026 14827 net.cpp:455] ConvNd_58 -> ConvNd_58
I0716 08:00:28.372396 14827 net.cpp:190] Setting up ConvNd_58
I0716 08:00:28.372408 14827 net.cpp:197] Top shape: 1 28 32 64 (57344)
I0716 08:00:28.372413 14827 net.cpp:205] Memory required for data: 168689668
I0716 08:00:28.372421 14827 layer_factory.hpp:123] Creating layer ConvNd_59
I0716 08:00:28.372433 14827 net.cpp:140] Creating Layer ConvNd_59
I0716 08:00:28.372438 14827 net.cpp:481] ConvNd_59 <- ConvNd_57_ConvNd_57_0_split_1
I0716 08:00:28.372447 14827 net.cpp:455] ConvNd_59 -> ConvNd_59
I0716 08:00:28.372797 14827 net.cpp:190] Setting up ConvNd_59
I0716 08:00:28.372809 14827 net.cpp:197] Top shape: 1 25 32 64 (51200)
I0716 08:00:28.372814 14827 net.cpp:205] Memory required for data: 168894468
I0716 08:00:28.372822 14827 layer_factory.hpp:123] Creating layer ConvNd_59_ConvNd_59_0_split
I0716 08:00:28.372830 14827 net.cpp:140] Creating Layer ConvNd_59_ConvNd_59_0_split
I0716 08:00:28.372835 14827 net.cpp:481] ConvNd_59_ConvNd_59_0_split <- ConvNd_59
I0716 08:00:28.372843 14827 net.cpp:455] ConvNd_59_ConvNd_59_0_split -> ConvNd_59_ConvNd_59_0_split_0
I0716 08:00:28.372855 14827 net.cpp:455] ConvNd_59_ConvNd_59_0_split -> ConvNd_59_ConvNd_59_0_split_1
I0716 08:00:28.372900 14827 net.cpp:190] Setting up ConvNd_59_ConvNd_59_0_split
I0716 08:00:28.372910 14827 net.cpp:197] Top shape: 1 25 32 64 (51200)
I0716 08:00:28.372917 14827 net.cpp:197] Top shape: 1 25 32 64 (51200)
I0716 08:00:28.372922 14827 net.cpp:205] Memory required for data: 169304068
I0716 08:00:28.372927 14827 layer_factory.hpp:123] Creating layer ConvNd_60
I0716 08:00:28.372938 14827 net.cpp:140] Creating Layer ConvNd_60
I0716 08:00:28.372944 14827 net.cpp:481] ConvNd_60 <- ConvNd_57_ConvNd_57_0_split_2
I0716 08:00:28.372953 14827 net.cpp:455] ConvNd_60 -> ConvNd_60
I0716 08:00:28.373311 14827 net.cpp:190] Setting up ConvNd_60
I0716 08:00:28.373322 14827 net.cpp:197] Top shape: 1 25 32 64 (51200)
I0716 08:00:28.373327 14827 net.cpp:205] Memory required for data: 169508868
I0716 08:00:28.373333 14827 layer_factory.hpp:123] Creating layer Add_35
I0716 08:00:28.373342 14827 net.cpp:140] Creating Layer Add_35
I0716 08:00:28.373348 14827 net.cpp:481] Add_35 <- ConvNd_59_ConvNd_59_0_split_0
I0716 08:00:28.373355 14827 net.cpp:481] Add_35 <- ConvNd_60
I0716 08:00:28.373363 14827 net.cpp:455] Add_35 -> Add_35
I0716 08:00:28.373394 14827 net.cpp:190] Setting up Add_35
I0716 08:00:28.373404 14827 net.cpp:197] Top shape: 1 25 32 64 (51200)
I0716 08:00:28.373409 14827 net.cpp:205] Memory required for data: 169713668
I0716 08:00:28.373414 14827 layer_factory.hpp:123] Creating layer Add_35_Add_35_0_split
I0716 08:00:28.373422 14827 net.cpp:140] Creating Layer Add_35_Add_35_0_split
I0716 08:00:28.373428 14827 net.cpp:481] Add_35_Add_35_0_split <- Add_35
I0716 08:00:28.373436 14827 net.cpp:455] Add_35_Add_35_0_split -> Add_35_Add_35_0_split_0
I0716 08:00:28.373447 14827 net.cpp:455] Add_35_Add_35_0_split -> Add_35_Add_35_0_split_1
I0716 08:00:28.373492 14827 net.cpp:190] Setting up Add_35_Add_35_0_split
I0716 08:00:28.373502 14827 net.cpp:197] Top shape: 1 25 32 64 (51200)
I0716 08:00:28.373508 14827 net.cpp:197] Top shape: 1 25 32 64 (51200)
I0716 08:00:28.373513 14827 net.cpp:205] Memory required for data: 170123268
I0716 08:00:28.373519 14827 layer_factory.hpp:123] Creating layer ConvNd_61
I0716 08:00:28.373531 14827 net.cpp:140] Creating Layer ConvNd_61
I0716 08:00:28.373538 14827 net.cpp:481] ConvNd_61 <- ConvNd_57_ConvNd_57_0_split_3
I0716 08:00:28.373548 14827 net.cpp:455] ConvNd_61 -> ConvNd_61
I0716 08:00:28.373906 14827 net.cpp:190] Setting up ConvNd_61
I0716 08:00:28.373919 14827 net.cpp:197] Top shape: 1 25 32 64 (51200)
I0716 08:00:28.373924 14827 net.cpp:205] Memory required for data: 170328068
I0716 08:00:28.373932 14827 layer_factory.hpp:123] Creating layer Add_36
I0716 08:00:28.373940 14827 net.cpp:140] Creating Layer Add_36
I0716 08:00:28.373945 14827 net.cpp:481] Add_36 <- Add_35_Add_35_0_split_0
I0716 08:00:28.373953 14827 net.cpp:481] Add_36 <- ConvNd_61
I0716 08:00:28.373961 14827 net.cpp:455] Add_36 -> Add_36
I0716 08:00:28.373993 14827 net.cpp:190] Setting up Add_36
I0716 08:00:28.374003 14827 net.cpp:197] Top shape: 1 25 32 64 (51200)
I0716 08:00:28.374008 14827 net.cpp:205] Memory required for data: 170532868
I0716 08:00:28.374013 14827 layer_factory.hpp:123] Creating layer Add_36_Add_36_0_split
I0716 08:00:28.374020 14827 net.cpp:140] Creating Layer Add_36_Add_36_0_split
I0716 08:00:28.374027 14827 net.cpp:481] Add_36_Add_36_0_split <- Add_36
I0716 08:00:28.374034 14827 net.cpp:455] Add_36_Add_36_0_split -> Add_36_Add_36_0_split_0
I0716 08:00:28.374045 14827 net.cpp:455] Add_36_Add_36_0_split -> Add_36_Add_36_0_split_1
I0716 08:00:28.374090 14827 net.cpp:190] Setting up Add_36_Add_36_0_split
I0716 08:00:28.374100 14827 net.cpp:197] Top shape: 1 25 32 64 (51200)
I0716 08:00:28.374106 14827 net.cpp:197] Top shape: 1 25 32 64 (51200)
I0716 08:00:28.374111 14827 net.cpp:205] Memory required for data: 170942468
I0716 08:00:28.374116 14827 layer_factory.hpp:123] Creating layer ConvNd_62
I0716 08:00:28.374128 14827 net.cpp:140] Creating Layer ConvNd_62
I0716 08:00:28.374133 14827 net.cpp:481] ConvNd_62 <- ConvNd_57_ConvNd_57_0_split_4
I0716 08:00:28.374143 14827 net.cpp:455] ConvNd_62 -> ConvNd_62
I0716 08:00:28.374495 14827 net.cpp:190] Setting up ConvNd_62
I0716 08:00:28.374506 14827 net.cpp:197] Top shape: 1 25 32 64 (51200)
I0716 08:00:28.374511 14827 net.cpp:205] Memory required for data: 171147268
I0716 08:00:28.374519 14827 layer_factory.hpp:123] Creating layer Add_37
I0716 08:00:28.374527 14827 net.cpp:140] Creating Layer Add_37
I0716 08:00:28.374532 14827 net.cpp:481] Add_37 <- Add_36_Add_36_0_split_0
I0716 08:00:28.374541 14827 net.cpp:481] Add_37 <- ConvNd_62
I0716 08:00:28.374548 14827 net.cpp:455] Add_37 -> Add_37
I0716 08:00:28.374578 14827 net.cpp:190] Setting up Add_37
I0716 08:00:28.374586 14827 net.cpp:197] Top shape: 1 25 32 64 (51200)
I0716 08:00:28.374591 14827 net.cpp:205] Memory required for data: 171352068
I0716 08:00:28.374596 14827 layer_factory.hpp:123] Creating layer Concat_12
I0716 08:00:28.374605 14827 net.cpp:140] Creating Layer Concat_12
I0716 08:00:28.374610 14827 net.cpp:481] Concat_12 <- ConvNd_58
I0716 08:00:28.374617 14827 net.cpp:481] Concat_12 <- ConvNd_59_ConvNd_59_0_split_1
I0716 08:00:28.374624 14827 net.cpp:481] Concat_12 <- Add_35_Add_35_0_split_1
I0716 08:00:28.374630 14827 net.cpp:481] Concat_12 <- Add_36_Add_36_0_split_1
I0716 08:00:28.374637 14827 net.cpp:481] Concat_12 <- Add_37
I0716 08:00:28.374645 14827 net.cpp:455] Concat_12 -> Concat_12
I0716 08:00:28.374677 14827 net.cpp:190] Setting up Concat_12
I0716 08:00:28.374687 14827 net.cpp:197] Top shape: 1 128 32 64 (262144)
I0716 08:00:28.374691 14827 net.cpp:205] Memory required for data: 172400644
I0716 08:00:28.374696 14827 layer_factory.hpp:123] Creating layer Add_38
I0716 08:00:28.374704 14827 net.cpp:140] Creating Layer Add_38
I0716 08:00:28.374711 14827 net.cpp:481] Add_38 <- BatchNorm_12_Threshold_12_0_split_1
I0716 08:00:28.374716 14827 net.cpp:481] Add_38 <- Concat_12
I0716 08:00:28.374724 14827 net.cpp:455] Add_38 -> Add_38
I0716 08:00:28.374754 14827 net.cpp:190] Setting up Add_38
I0716 08:00:28.374764 14827 net.cpp:197] Top shape: 1 128 32 64 (262144)
I0716 08:00:28.374768 14827 net.cpp:205] Memory required for data: 173449220
I0716 08:00:28.374773 14827 layer_factory.hpp:123] Creating layer BatchNorm_13
I0716 08:00:28.374783 14827 net.cpp:140] Creating Layer BatchNorm_13
I0716 08:00:28.374789 14827 net.cpp:481] BatchNorm_13 <- Add_38
I0716 08:00:28.374797 14827 net.cpp:455] BatchNorm_13 -> BatchNorm_13
I0716 08:00:28.375622 14827 net.cpp:190] Setting up BatchNorm_13
I0716 08:00:28.375634 14827 net.cpp:197] Top shape: 1 128 32 64 (262144)
I0716 08:00:28.375639 14827 net.cpp:205] Memory required for data: 174497796
I0716 08:00:28.375654 14827 layer_factory.hpp:123] Creating layer Threshold_13
I0716 08:00:28.375663 14827 net.cpp:140] Creating Layer Threshold_13
I0716 08:00:28.375669 14827 net.cpp:481] Threshold_13 <- BatchNorm_13
I0716 08:00:28.375676 14827 net.cpp:442] Threshold_13 -> BatchNorm_13 (in-place)
I0716 08:00:28.375686 14827 net.cpp:190] Setting up Threshold_13
I0716 08:00:28.375694 14827 net.cpp:197] Top shape: 1 128 32 64 (262144)
I0716 08:00:28.375699 14827 net.cpp:205] Memory required for data: 175546372
I0716 08:00:28.375703 14827 layer_factory.hpp:123] Creating layer BatchNorm_13_Threshold_13_0_split
I0716 08:00:28.375711 14827 net.cpp:140] Creating Layer BatchNorm_13_Threshold_13_0_split
I0716 08:00:28.375716 14827 net.cpp:481] BatchNorm_13_Threshold_13_0_split <- BatchNorm_13
…
I0716 08:00:28.627848 14827 net.cpp:481] Add_41 <- Add_40_Add_40_fixed_0_split_0
I0716 08:00:28.627852 14827 net.cpp:481] Add_41 <- ConvNd_68
I0716 08:00:28.627857 14827 net.cpp:455] Add_41 -> Add_41
I0716 08:00:28.627874 14827 net.cpp:190] Setting up Add_41
I0716 08:00:28.627880 14827 net.cpp:197] Top shape: 1 25 32 64 (51200)
I0716 08:00:28.627883 14827 net.cpp:205] Memory required for data: 252674052
I0716 08:00:28.627885 14827 layer_factory.hpp:123] Creating layer Concat_13
I0716 08:00:28.627892 14827 net.cpp:140] Creating Layer Concat_13
I0716 08:00:28.627895 14827 net.cpp:481] Concat_13 <- ConvNd_64
I0716 08:00:28.627899 14827 net.cpp:481] Concat_13 <- ConvNd_65_ConvNd_65_fixed_0_split_1
I0716 08:00:28.627904 14827 net.cpp:481] Concat_13 <- Add_39_Add_39_fixed_0_split_1
I0716 08:00:28.627907 14827 net.cpp:481] Concat_13 <- Add_40_Add_40_fixed_0_split_1
I0716 08:00:28.627912 14827 net.cpp:481] Concat_13 <- Add_41
I0716 08:00:28.627916 14827 net.cpp:455] Concat_13 -> Concat_13
I0716 08:00:28.627935 14827 net.cpp:190] Setting up Concat_13
I0716 08:00:28.627941 14827 net.cpp:197] Top shape: 1 128 32 64 (262144)
I0716 08:00:28.627944 14827 net.cpp:205] Memory required for data: 253722628
I0716 08:00:28.627948 14827 layer_factory.hpp:123] Creating layer Concat_13_fixed
I0716 08:00:28.627952 14827 net.cpp:140] Creating Layer Concat_13_fixed
I0716 08:00:28.627955 14827 net.cpp:481] Concat_13_fixed <- Concat_13
I0716 08:00:28.627960 14827 net.cpp:442] Concat_13_fixed -> Concat_13 (in-place)
I0716 08:00:28.627987 14827 net.cpp:190] Setting up Concat_13_fixed
I0716 08:00:28.627992 14827 net.cpp:197] Top shape: 1 128 32 64 (262144)
I0716 08:00:28.627995 14827 net.cpp:205] Memory required for data: 254771204
I0716 08:00:28.628000 14827 layer_factory.hpp:123] Creating layer Add_42
I0716 08:00:28.628005 14827 net.cpp:140] Creating Layer Add_42
I0716 08:00:28.628008 14827 net.cpp:481] Add_42 <- BatchNorm_13_BatchNorm_13_fixed_0_split_1
I0716 08:00:28.628011 14827 net.cpp:481] Add_42 <- Concat_13
I0716 08:00:28.628016 14827 net.cpp:455] Add_42 -> Add_42
I0716 08:00:28.628033 14827 net.cpp:190] Setting up Add_42
I0716 08:00:28.628039 14827 net.cpp:197] Top shape: 1 128 32 64 (262144)
I0716 08:00:28.628042 14827 net.cpp:205] Memory required for data: 255819780
I0716 08:00:28.628046 14827 layer_factory.hpp:123] Creating layer Add_42_fixed
I0716 08:00:28.628051 14827 net.cpp:140] Creating Layer Add_42_fixed
I0716 08:00:28.628053 14827 net.cpp:481] Add_42_fixed <- Add_42
I0716 08:00:28.628057 14827 net.cpp:442] Add_42_fixed -> Add_42 (in-place)
I0716 08:00:28.628083 14827 net.cpp:190] Setting up Add_42_fixed
I0716 08:00:28.628089 14827 net.cpp:197] Top shape: 1 128 32 64 (262144)
I0716 08:00:28.628093 14827 net.cpp:205] Memory required for data: 256868356
I0716 08:00:28.628095 14827 layer_factory.hpp:123] Creating layer BatchNorm_14
I0716 08:00:28.628101 14827 net.cpp:140] Creating Layer BatchNorm_14
I0716 08:00:28.628104 14827 net.cpp:481] BatchNorm_14 <- Add_42
I0716 08:00:28.628109 14827 net.cpp:455] BatchNorm_14 -> BatchNorm_14
I0716 08:00:28.628140 14827 layer_factory.hpp:123] Creating layer BatchNorm_14
I0716 08:00:28.628197 14827 layer_factory.hpp:123] Creating layer BatchNorm_14
I0716 08:00:28.628228 14827 layer_factory.hpp:123] Creating layer BatchNorm_14
I0716 08:00:28.628324 14827 net.cpp:190] Setting up BatchNorm_14
I0716 08:00:28.628330 14827 net.cpp:197] Top shape: 1 128 32 64 (262144)
I0716 08:00:28.628334 14827 net.cpp:205] Memory required for data: 257916932
I0716 08:00:28.628338 14827 layer_factory.hpp:123] Creating layer Threshold_14
I0716 08:00:28.628343 14827 net.cpp:140] Creating Layer Threshold_14
I0716 08:00:28.628346 14827 net.cpp:481] Threshold_14 <- BatchNorm_14
I0716 08:00:28.628351 14827 net.cpp:442] Threshold_14 -> BatchNorm_14 (in-place)
I0716 08:00:28.628357 14827 net.cpp:190] Setting up Threshold_14
I0716 08:00:28.628361 14827 net.cpp:197] Top shape: 1 128 32 64 (262144)
I0716 08:00:28.628365 14827 net.cpp:205] Memory required for data: 258965508
I0716 08:00:28.628367 14827 layer_factory.hpp:123] Creating layer BatchNorm_14_fixed
I0716 08:00:28.628372 14827 net.cpp:140] Creating Layer BatchNorm_14_fixed
I0716 08:00:28.628376 14827 net.cpp:481] BatchNorm_14_fixed <- BatchNorm_14
I0716 08:00:28.628379 14827 net.cpp:442] BatchNorm_14_fixed -> BatchNorm_14 (in-place)
I0716 08:00:28.628406 14827 net.cpp:190] Setting up BatchNorm_14_fixed
I0716 08:00:28.628412 14827 net.cpp:197] Top shape: 1 128 32 64 (262144)
I0716 08:00:28.628414 14827 net.cpp:205] Memory required for data: 260014084
I0716 08:00:28.628418 14827 layer_factory.hpp:123] Creating layer BatchNorm_14_BatchNorm_14_fixed_0_split
I0716 08:00:28.628422 14827 net.cpp:140] Creating Layer BatchNorm_14_BatchNorm_14_fixed_0_split
I0716 08:00:28.628427 14827 net.cpp:481] BatchNorm_14_BatchNorm_14_fixed_0_split <- BatchNorm_14
I0716 08:00:28.628430 14827 net.cpp:455] BatchNorm_14_BatchNorm_14_fixed_0_split -> BatchNorm_14_BatchNorm_14_fixed_0_split_0
I0716 08:00:28.628437 14827 net.cpp:455] BatchNorm_14_BatchNorm_14_fixed_0_split -> BatchNorm_14_BatchNorm_14_fixed_0_split_1
I0716 08:00:28.628465 14827 net.cpp:190] Setting up BatchNorm_14_BatchNorm_14_fixed_0_split
I0716 08:00:28.628471 14827 net.cpp:197] Top shape: 1 128 32 64 (262144)
I0716 08:00:28.628475 14827 net.cpp:197] Top shape: 1 128 32 64 (262144)
I0716 08:00:28.628477 14827 net.cpp:205] Memory required for data: 262111236
I0716 08:00:28.628480 14827 layer_factory.hpp:123] Creating layer ConvNd_69
I0716 08:00:28.628489 14827 net.cpp:140] Creating Layer ConvNd_69
I0716 08:00:28.628492 14827 net.cpp:481] ConvNd_69 <- BatchNorm_14_BatchNorm_14_fixed_0_split_0
I0716 08:00:28.628497 14827 net.cpp:455] ConvNd_69 -> ConvNd_69
I0716 08:00:28.628644 14827 layer_factory.hpp:123] Creating layer ConvNd_69
I0716 08:00:28.628867 14827 net.cpp:190] Setting up ConvNd_69
I0716 08:00:28.628875 14827 net.cpp:197] Top shape: 1 25 32 64 (51200)
I0716 08:00:28.628878 14827 net.cpp:205] Memory required for data: 262316036
I0716 08:00:28.628882 14827 layer_factory.hpp:123] Creating layer ConvNd_69_fixed
I0716 08:00:28.628888 14827 net.cpp:140] Creating Layer ConvNd_69_fixed
I0716 08:00:28.628891 14827 net.cpp:481] ConvNd_69_fixed <- ConvNd_69
I0716 08:00:28.628896 14827 net.cpp:442] ConvNd_69_fixed -> ConvNd_69 (in-place)
I0716 08:00:28.628926 14827 net.cpp:190] Setting up ConvNd_69_fixed
I0716 08:00:28.628931 14827 net.cpp:197] Top shape: 1 25 32 64 (51200)
I0716 08:00:28.628934 14827 net.cpp:205] Memory required for data: 262520836
I0716 08:00:28.628937 14827 layer_factory.hpp:123] Creating layer ConvNd_69_ConvNd_69_fixed_0_split
I0716 08:00:28.628943 14827 net.cpp:140] Creating Layer ConvNd_69_ConvNd_69_fixed_0_split
I0716 08:00:28.628947 14827 net.cpp:481] ConvNd_69_ConvNd_69_fixed_0_split <- ConvNd_69
I0716 08:00:28.628952 14827 net.cpp:455] ConvNd_69_ConvNd_69_fixed_0_split -> ConvNd_69_ConvNd_69_fixed_0_split_0
I0716 08:00:28.628959 14827 net.cpp:455] ConvNd_69_ConvNd_69_fixed_0_split -> ConvNd_69_ConvNd_69_fixed_0_split_1
I0716 08:00:28.628967 14827 net.cpp:455] ConvNd_69_ConvNd_69_fixed_0_split -> ConvNd_69_ConvNd_69_fixed_0_split_2
I0716 08:00:28.628973 14827 net.cpp:455] ConvNd_69_ConvNd_69_fixed_0_split -> ConvNd_69_ConvNd_69_fixed_0_split_3
I0716 08:00:28.628978 14827 net.cpp:455] ConvNd_69_ConvNd_69_fixed_0_split -> ConvNd_69_ConvNd_69_fixed_0_split_4
I0716 08:00:28.629031 14827 net.cpp:190] Setting up ConvNd_69_ConvNd_69_fixed_0_split
I0716 08:00:28.629037 14827 net.cpp:197] Top shape: 1 25 32 64 (51200)
I0716 08:00:28.629041 14827 net.cpp:197] Top shape: 1 25 32 64 (51200)
I0716 08:00:28.629045 14827 net.cpp:197] Top shape: 1 25 32 64 (51200)
I0716 08:00:28.629048 14827 net.cpp:197] Top shape: 1 25 32 64 (51200)
I0716 08:00:28.629052 14827 net.cpp:197] Top shape: 1 25 32 64 (51200)
I0716 08:00:28.629055 14827 net.cpp:205] Memory required for data: 263544836
I0716 08:00:28.629058 14827 layer_factory.hpp:123] Creating layer ConvNd_70
I0716 08:00:28.629065 14827 net.cpp:140] Creating Layer ConvNd_70
I0716 08:00:28.629070 14827 net.cpp:481] ConvNd_70 <- ConvNd_69_ConvNd_69_fixed_0_split_0
I0716 08:00:28.629074 14827 net.cpp:455] ConvNd_70 -> ConvNd_70
I0716 08:00:28.629252 14827 layer_factory.hpp:123] Creating layer ConvNd_70
I0716 08:00:28.629509 14827 net.cpp:190] Setting up ConvNd_70
I0716 08:00:28.629518 14827 net.cpp:197] Top shape: 1 28 32 64 (57344)
I0716 08:00:28.629520 14827 net.cpp:205] Memory required for data: 263774212
I0716 08:00:28.629524 14827 layer_factory.hpp:123] Creating layer ConvNd_71
I0716 08:00:28.629532 14827 net.cpp:140] Creating Layer ConvNd_71
I0716 08:00:28.629535 14827 net.cpp:481] ConvNd_71 <- ConvNd_69_ConvNd_69_fixed_0_split_1
I0716 08:00:28.629541 14827 net.cpp:455] ConvNd_71 -> ConvNd_71
I0716 08:00:28.629714 14827 layer_factory.hpp:123] Creating layer ConvNd_71
I0716 08:00:28.629958 14827 net.cpp:190] Setting up ConvNd_71
I0716 08:00:28.629966 14827 net.cpp:197] Top shape: 1 25 32 64 (51200)
I0716 08:00:28.629968 14827 net.cpp:205] Memory required for data: 263979012
I0716 08:00:28.629972 14827 layer_factory.hpp:123] Creating layer ConvNd_71_fixed
I0716 08:00:28.629978 14827 net.cpp:140] Creating Layer ConvNd_71_fixed
I0716 08:00:28.629981 14827 net.cpp:481] ConvNd_71_fixed <- ConvNd_71
I0716 08:00:28.629987 14827 net.cpp:442] ConvNd_71_fixed -> ConvNd_71 (in-place)
I0716 08:00:28.630015 14827 net.cpp:190] Setting up ConvNd_71_fixed
I0716 08:00:28.630021 14827 net.cpp:197] Top shape: 1 25 32 64 (51200)
I0716 08:00:28.630024 14827 net.cpp:205] Memory required for data: 264183812
I0716 08:00:28.630028 14827 layer_factory.hpp:123] Creating layer ConvNd_71_ConvNd_71_fixed_0_split
I0716 08:00:28.630033 14827 net.cpp:140] Creating Layer ConvNd_71_ConvNd_71_fixed_0_split
I0716 08:00:28.630036 14827 net.cpp:481] ConvNd_71_ConvNd_71_fixed_0_split <- ConvNd_71
I0716 08:00:28.630041 14827 net.cpp:455] ConvNd_71_ConvNd_71_fixed_0_split -> ConvNd_71_ConvNd_71_fixed_0_split_0
I0716 08:00:28.630048 14827 net.cpp:455] ConvNd_71_ConvNd_71_fixed_0_split -> ConvNd_71_ConvNd_71_fixed_0_split_1
I0716 08:00:28.630075 14827 net.cpp:190] Setting up ConvNd_71_ConvNd_71_fixed_0_split
I0716 08:00:28.630081 14827 net.cpp:197] Top shape: 1 25 32 64 (51200)
I0716 08:00:28.630085 14827 net.cpp:197] Top shape: 1 25 32 64 (51200)
I0716 08:00:28.630089 14827 net.cpp:205] Memory required for data: 264593412
I0716 08:00:28.630091 14827 layer_factory.hpp:123] Creating layer ConvNd_72
I0716 08:00:28.630098 14827 net.cpp:140] Creating Layer ConvNd_72
I0716 08:00:28.630101 14827 net.cpp:481] ConvNd_72 <- ConvNd_69_ConvNd_69_fixed_0_split_2
I0716 08:00:28.630107 14827 net.cpp:455] ConvNd_72 -> ConvNd_72
I0716 08:00:28.630276 14827 layer_factory.hpp:123] Creating layer ConvNd_72
I0716 08:00:28.630517 14827 net.cpp:190] Setting up ConvNd_72
I0716 08:00:28.630523 14827 net.cpp:197] Top shape: 1 25 32 64 (51200)
I0716 08:00:28.630527 14827 net.cpp:205] Memory required for data: 264798212
I0716 08:00:28.630532 14827 layer_factory.hpp:123] Creating layer ConvNd_72_fixed
I0716 08:00:28.630537 14827 net.cpp:140] Creating Layer ConvNd_72_fixed
I0716 08:00:28.630539 14827 net.cpp:481] ConvNd_72_fixed <- ConvNd_72
I0716 08:00:28.630544 14827 net.cpp:442] ConvNd_72_fixed -> ConvNd_72 (in-place)
I0716 08:00:28.630573 14827 net.cpp:190] Setting up ConvNd_72_fixed
I0716 08:00:28.630578 14827 net.cpp:197] Top shape: 1 25 32 64 (51200)
I0716 08:00:28.630580 14827 net.cpp:205] Memory required for data: 265003012
I0716 08:00:28.630585 14827 layer_factory.hpp:123] Creating layer Add_43
I0716 08:00:28.630589 14827 net.cpp:140] Creating Layer Add_43
I0716 08:00:28.630594 14827 net.cpp:481] Add_43 <- ConvNd_71_ConvNd_71_fixed_0_split_0
I0716 08:00:28.630597 14827 net.cpp:481] Add_43 <- ConvNd_72
I0716 08:00:28.630602 14827 net.cpp:455] Add_43 -> Add_43
I0716 08:00:28.630620 14827 net.cpp:190] Setting up Add_43
I0716 08:00:28.630625 14827 net.cpp:197] Top shape: 1 25 32 64 (51200)
I0716 08:00:28.630627 14827 net.cpp:205] Memory required for data: 265207812
I0716 08:00:28.630630 14827 layer_factory.hpp:123] Creating layer Add_43_fixed
I0716 08:00:28.630635 14827 net.cpp:140] Creating Layer Add_43_fixed
I0716 08:00:28.630638 14827 net.cpp:481] Add_43_fixed <- Add_43
I0716 08:00:28.630643 14827 net.cpp:442] Add_43_fixed -> Add_43 (in-place)
I0716 08:00:28.630671 14827 net.cpp:190] Setting up Add_43_fixed
I0716 08:00:28.630676 14827 net.cpp:197] Top shape: 1 25 32 64 (51200)
I0716 08:00:28.630679 14827 net.cpp:205] Memory required for data: 265412612
I0716 08:00:28.630683 14827 layer_factory.hpp:123] Creating layer Add_43_Add_43_fixed_0_split
I0716 08:00:28.630688 14827 net.cpp:140] Creating Layer Add_43_Add_43_fixed_0_split
I0716 08:00:28.630692 14827 net.cpp:481] Add_43_Add_43_fixed_0_split <- Add_43
I0716 08:00:28.630697 14827 net.cpp:455] Add_43_Add_43_fixed_0_split -> Add_43_Add_43_fixed_0_split_0
I0716 08:00:28.630703 14827 net.cpp:455] Add_43_Add_43_fixed_0_split -> Add_43_Add_43_fixed_0_split_1
I0716 08:00:28.630729 14827 net.cpp:190] Setting up Add_43_Add_43_fixed_0_split
I0716 08:00:28.630735 14827 net.cpp:197] Top shape: 1 25 32 64 (51200)
I0716 08:00:28.630739 14827 net.cpp:197] Top shape: 1 25 32 64 (51200)
I0716 08:00:28.630741 14827 net.cpp:205] Memory required for data: 265822212
I0716 08:00:28.630745 14827 layer_factory.hpp:123] Creating layer ConvNd_73
I0716 08:00:28.630753 14827 net.cpp:140] Creating Layer ConvNd_73
I0716 08:00:28.630755 14827 net.cpp:481] ConvNd_73 <- ConvNd_69_ConvNd_69_fixed_0_split_3
I0716 08:00:28.630761 14827 net.cpp:455] ConvNd_73 -> ConvNd_73
I0716 08:00:28.630930 14827 layer_factory.hpp:123] Creating layer ConvNd_73
I0716 08:00:28.631170 14827 net.cpp:190] Setting up ConvNd_73
I0716 08:00:28.631176 14827 net.cpp:197] Top shape: 1 25 32 64 (51200)
I0716 08:00:28.631180 14827 net.cpp:205] Memory required for data: 266027012
I0716 08:00:28.631184 14827 layer_factory.hpp:123] Creating layer ConvNd_73_fixed
I0716 08:00:28.631189 14827 net.cpp:140] Creating Layer ConvNd_73_fixed
I0716 08:00:28.631192 14827 net.cpp:481] ConvNd_73_fixed <- ConvNd_73
I0716 08:00:28.631197 14827 net.cpp:442] ConvNd_73_fixed -> ConvNd_73 (in-place)
I0716 08:00:28.631225 14827 net.cpp:190] Setting up ConvNd_73_fixed
I0716 08:00:28.631232 14827 net.cpp:197] Top shape: 1 25 32 64 (51200)
I0716 08:00:28.631234 14827 net.cpp:205] Memory required for data: 266231812
I0716 08:00:28.631238 14827 layer_factory.hpp:123] Creating layer Add_44
I0716 08:00:28.631243 14827 net.cpp:140] Creating Layer Add_44
I0716 08:00:28.631247 14827 net.cpp:481] Add_44 <- Add_43_Add_43_fixed_0_split_0
I0716 08:00:28.631251 14827 net.cpp:481] Add_44 <- ConvNd_73
I0716 08:00:28.631255 14827 net.cpp:455] Add_44 -> Add_44
I0716 08:00:28.631273 14827 net.cpp:190] Setting up Add_44
I0716 08:00:28.631279 14827 net.cpp:197] Top shape: 1 25 32 64 (51200)
I0716 08:00:28.631281 14827 net.cpp:205] Memory required for data: 266436612
I0716 08:00:28.631284 14827 layer_factory.hpp:123] Creating layer Add_44_fixed
I0716 08:00:28.631289 14827 net.cpp:140] Creating Layer Add_44_fixed
I0716 08:00:28.631292 14827 net.cpp:481] Add_44_fixed <- Add_44
I0716 08:00:28.631297 14827 net.cpp:442] Add_44_fixed -> Add_44 (in-place)
I0716 08:00:28.631325 14827 net.cpp:190] Setting up Add_44_fixed
I0716 08:00:28.631330 14827 net.cpp:197] Top shape: 1 25 32 64 (51200)
I0716 08:00:28.631332 14827 net.cpp:205] Memory required for data: 266641412
I0716 08:00:28.631337 14827 layer_factory.hpp:123] Creating layer Add_44_Add_44_fixed_0_split
I0716 08:00:28.631342 14827 net.cpp:140] Creating Layer Add_44_Add_44_fixed_0_split
I0716 08:00:28.631345 14827 net.cpp:481] Add_44_Add_44_fixed_0_split <- Add_44
I0716 08:00:28.631350 14827 net.cpp:455] Add_44_Add_44_fixed_0_split -> Add_44_Add_44_fixed_0_split_0
I0716 08:00:28.631356 14827 net.cpp:455] Add_44_Add_44_fixed_0_split -> Add_44_Add_44_fixed_0_split_1
I0716 08:00:28.631383 14827 net.cpp:190] Setting up Add_44_Add_44_fixed_0_split
I0716 08:00:28.631389 14827 net.cpp:197] Top shape: 1 25 32 64 (51200)
I0716 08:00:28.631393 14827 net.cpp:197] Top shape: 1 25 32 64 (51200)
I0716 08:00:28.631397 14827 net.cpp:205] Memory required for data: 267051012
I0716 08:00:28.631399 14827 layer_factory.hpp:123] Creating layer ConvNd_74
I0716 08:00:28.631407 14827 net.cpp:140] Creating Layer ConvNd_74
I0716 08:00:28.631409 14827 net.cpp:481] ConvNd_74 <- ConvNd_69_ConvNd_69_fixed_0_split_4
I0716 08:00:28.631415 14827 net.cpp:455] ConvNd_74 -> ConvNd_74
I0716 08:00:28.631583 14827 layer_factory.hpp:123] Creating layer ConvNd_74
I0716 08:00:28.631834 14827 net.cpp:190] Setting up ConvNd_74
I0716 08:00:28.631840 14827 net.cpp:197] Top shape: 1 25 32 64 (51200)
I0716 08:00:28.631844 14827 net.cpp:205] Memory required for data: 267255812
I0716 08:00:28.631847 14827 layer_factory.hpp:123] Creating layer ConvNd_74_fixed
I0716 08:00:28.631853 14827 net.cpp:140] Creating Layer ConvNd_74_fixed
I0716 08:00:28.631856 14827 net.cpp:481] ConvNd_74_fixed <- ConvNd_74
I0716 08:00:28.631861 14827 net.cpp:442] ConvNd_74_fixed -> ConvNd_74 (in-place)
I0716 08:00:28.631889 14827 net.cpp:190] Setting up ConvNd_74_fixed
I0716 08:00:28.631896 14827 net.cpp:197] Top shape: 1 25 32 64 (51200)
I0716 08:00:28.631898 14827 net.cpp:205] Memory required for data: 267460612
I0716 08:00:28.631902 14827 layer_factory.hpp:123] Creating layer Add_45
I0716 08:00:28.631907 14827 net.cpp:140] Creating Layer Add_45
I0716 08:00:28.631911 14827 net.cpp:481] Add_45 <- Add_44_Add_44_fixed_0_split_0
I0716 08:00:28.631916 14827 net.cpp:481] Add_45 <- ConvNd_74
I0716 08:00:28.631920 14827 net.cpp:455] Add_45 -> Add_45
I0716 08:00:28.631937 14827 net.cpp:190] Setting up Add_45
I0716 08:00:28.631943 14827 net.cpp:197] Top shape: 1 25 32 64 (51200)
I0716 08:00:28.631947 14827 net.cpp:205] Memory required for data: 267665412
I0716 08:00:28.631948 14827 layer_factory.hpp:123] Creating layer Concat_14
I0716 08:00:28.631954 14827 net.cpp:140] Creating Layer Concat_14
I0716 08:00:28.631958 14827 net.cpp:481] Concat_14 <- ConvNd_70
I0716 08:00:28.631961 14827 net.cpp:481] Concat_14 <- ConvNd_71_ConvNd_71_fixed_0_split_1
I0716 08:00:28.631965 14827 net.cpp:481] Concat_14 <- Add_43_Add_43_fixed_0_split_1
I0716 08:00:28.631969 14827 net.cpp:481] Concat_14 <- Add_44_Add_44_fixed_0_split_1
I0716 08:00:28.631973 14827 net.cpp:481] Concat_14 <- Add_45
I0716 08:00:28.631978 14827 net.cpp:455] Concat_14 -> Concat_14
I0716 08:00:28.631999 14827 net.cpp:190] Setting up Concat_14
I0716 08:00:28.632004 14827 net.cpp:197] Top shape: 1 128 32 64 (262144)
I0716 08:00:28.632007 14827 net.cpp:205] Memory required for data: 268713988
I0716 08:00:28.632009 14827 layer_factory.hpp:123] Creating layer Concat_14_fixed
I0716 08:00:28.632014 14827 net.cpp:140] Creating Layer Concat_14_fixed
I0716 08:00:28.632017 14827 net.cpp:481] Concat_14_fixed <- Concat_14
I0716 08:00:28.632022 14827 net.cpp:442] Concat_14_fixed -> Concat_14 (in-place)
I0716 08:00:28.632050 14827 net.cpp:190] Setting up Concat_14_fixed
I0716 08:00:28.632055 14827 net.cpp:197] Top shape: 1 128 32 64 (262144)
I0716 08:00:28.632057 14827 net.cpp:205] Memory required for data: 269762564
I0716 08:00:28.632061 14827 layer_factory.hpp:123] Creating layer Add_46
I0716 08:00:28.632066 14827 net.cpp:140] Creating Layer Add_46
I0716 08:00:28.632069 14827 net.cpp:481] Add_46 <- BatchNorm_14_BatchNorm_14_fixed_0_split_1
I0716 08:00:28.632073 14827 net.cpp:481] Add_46 <- Concat_14
I0716 08:00:28.632078 14827 net.cpp:455] Add_46 -> Add_46
I0716 08:00:28.632094 14827 net.cpp:190] Setting up Add_46
I0716 08:00:28.632100 14827 net.cpp:197] Top shape: 1 128 32 64 (262144)
I0716 08:00:28.632102 14827 net.cpp:205] Memory required for data: 270811140
I0716 08:00:28.632107 14827 layer_factory.hpp:123] Creating layer Add_46_fixed
I0716 08:00:28.632110 14827 net.cpp:140] Creating Layer Add_46_fixed
I0716 08:00:28.632113 14827 net.cpp:481] Add_46_fixed <- Add_46
I0716 08:00:28.632117 14827 net.cpp:442] Add_46_fixed -> Add_46 (in-place)
I0716 08:00:28.632143 14827 net.cpp:190] Setting up Add_46_fixed
I0716 08:00:28.632148 14827 net.cpp:197] Top shape: 1 128 32 64 (262144)
I0716 08:00:28.632151 14827 net.cpp:205] Memory required for data: 271859716
I0716 08:00:28.632155 14827 layer_factory.hpp:123] Creating layer BatchNorm_15
I0716 08:00:28.632161 14827 net.cpp:140] Creating Layer BatchNorm_15
I0716 08:00:28.632164 14827 net.cpp:481] BatchNorm_15 <- Add_46
I0716 08:00:28.632169 14827 net.cpp:455] BatchNorm_15 -> BatchNorm_15
I0716 08:00:28.632200 14827 layer_factory.hpp:123] Creating layer BatchNorm_15
I0716 08:00:28.632256 14827 layer_factory.hpp:123] Creating layer BatchNorm_15
I0716 08:00:28.632287 14827 layer_factory.hpp:123] Creating layer BatchNorm_15
I0716 08:00:28.632386 14827 net.cpp:190] Setting up BatchNorm_15
I0716 08:00:28.632392 14827 net.cpp:197] Top shape: 1 128 32 64 (262144)
I0716 08:00:28.632395 14827 net.cpp:205] Memory required for data: 272908292
I0716 08:00:28.632400 14827 layer_factory.hpp:123] Creating layer Threshold_15
I0716 08:00:28.632405 14827 net.cpp:140] Creating Layer Threshold_15
I0716 08:00:28.632408 14827 net.cpp:481] Threshold_15 <- BatchNorm_15
I0716 08:00:28.632413 14827 net.cpp:442] Threshold_15 -> BatchNorm_15 (in-place)
I0716 08:00:28.632421 14827 net.cpp:190] Setting up Threshold_15
I0716 08:00:28.632424 14827 net.cpp:197] Top shape: 1 128 32 64 (262144)
I0716 08:00:28.632426 14827 net.cpp:205] Memory required for data: 273956868
I0716 08:00:28.632431 14827 layer_factory.hpp:123] Creating layer Concat_15
I0716 08:00:28.632434 14827 net.cpp:140] Creating Layer Concat_15
I0716 08:00:28.632438 14827 net.cpp:481] Concat_15 <- BatchNorm_7_BatchNorm_7_fixed_0_split_2
I0716 08:00:28.632442 14827 net.cpp:481] Concat_15 <- BatchNorm_15
I0716 08:00:28.632448 14827 net.cpp:455] Concat_15 -> Concat_15
I0716 08:00:28.632467 14827 net.cpp:190] Setting up Concat_15
I0716 08:00:28.632472 14827 net.cpp:197] Top shape: 1 256 32 64 (524288)
I0716 08:00:28.632475 14827 net.cpp:205] Memory required for data: 276054020
I0716 08:00:28.632478 14827 layer_factory.hpp:123] Creating layer Concat_15_fixed
I0716 08:00:28.632483 14827 net.cpp:140] Creating Layer Concat_15_fixed
I0716 08:00:28.632486 14827 net.cpp:481] Concat_15_fixed <- Concat_15
I0716 08:00:28.632490 14827 net.cpp:442] Concat_15_fixed -> Concat_15 (in-place)
I0716 08:00:28.632519 14827 net.cpp:190] Setting up Concat_15_fixed
I0716 08:00:28.632524 14827 net.cpp:197] Top shape: 1 256 32 64 (524288)
I0716 08:00:28.632527 14827 net.cpp:205] Memory required for data: 278151172
I0716 08:00:28.632531 14827 layer_factory.hpp:123] Creating layer BatchNorm_16
I0716 08:00:28.632536 14827 net.cpp:140] Creating Layer BatchNorm_16
I0716 08:00:28.632539 14827 net.cpp:481] BatchNorm_16 <- Concat_15
I0716 08:00:28.632544 14827 net.cpp:455] BatchNorm_16 -> BatchNorm_16
I0716 08:00:28.632575 14827 layer_factory.hpp:123] Creating layer BatchNorm_16
I0716 08:00:28.632628 14827 layer_factory.hpp:123] Creating layer BatchNorm_16
I0716 08:00:28.632658 14827 layer_factory.hpp:123] Creating layer BatchNorm_16
I0716 08:00:28.632755 14827 net.cpp:190] Setting up BatchNorm_16
I0716 08:00:28.632761 14827 net.cpp:197] Top shape: 1 256 32 64 (524288)
I0716 08:00:28.632763 14827 net.cpp:205] Memory required for data: 280248324
I0716 08:00:28.632768 14827 layer_factory.hpp:123] Creating layer Threshold_16
I0716 08:00:28.632772 14827 net.cpp:140] Creating Layer Threshold_16
I0716 08:00:28.632776 14827 net.cpp:481] Threshold_16 <- BatchNorm_16
I0716 08:00:28.632781 14827 net.cpp:442] Threshold_16 -> BatchNorm_16 (in-place)
I0716 08:00:28.632786 14827 net.cpp:190] Setting up Threshold_16
I0716 08:00:28.632791 14827 net.cpp:197] Top shape: 1 256 32 64 (524288)
I0716 08:00:28.632793 14827 net.cpp:205] Memory required for data: 282345476
I0716 08:00:28.632797 14827 layer_factory.hpp:123] Creating layer BatchNorm_16_fixed
I0716 08:00:28.632802 14827 net.cpp:140] Creating Layer BatchNorm_16_fixed
I0716 08:00:28.632804 14827 net.cpp:481] BatchNorm_16_fixed <- BatchNorm_16
I0716 08:00:28.632808 14827 net.cpp:442] BatchNorm_16_fixed -> BatchNorm_16 (in-place)
I0716 08:00:28.632834 14827 net.cpp:190] Setting up BatchNorm_16_fixed
I0716 08:00:28.632840 14827 net.cpp:197] Top shape: 1 256 32 64 (524288)
I0716 08:00:28.632843 14827 net.cpp:205] Memory required for data: 284442628
I0716 08:00:28.632848 14827 layer_factory.hpp:123] Creating layer ConvNd_75
I0716 08:00:28.632854 14827 net.cpp:140] Creating Layer ConvNd_75
I0716 08:00:28.632858 14827 net.cpp:481] ConvNd_75 <- BatchNorm_16
I0716 08:00:28.632863 14827 net.cpp:455] ConvNd_75 -> BatchNorm_17
I0716 08:00:28.633066 14827 layer_factory.hpp:123] Creating layer ConvNd_75
I0716 08:00:28.633369 14827 net.cpp:190] Setting up ConvNd_75
I0716 08:00:28.633378 14827 net.cpp:197] Top shape: 1 19 32 64 (38912)
I0716 08:00:28.633380 14827 net.cpp:205] Memory required for data: 284598276
I0716 08:00:28.633385 14827 layer_factory.hpp:123] Creating layer BatchNorm_17_fixed
I0716 08:00:28.633390 14827 net.cpp:140] Creating Layer BatchNorm_17_fixed
I0716 08:00:28.633394 14827 net.cpp:481] BatchNorm_17_fixed <- BatchNorm_17
I0716 08:00:28.633399 14827 net.cpp:442] BatchNorm_17_fixed -> BatchNorm_17 (in-place)
I0716 08:00:28.633427 14827 net.cpp:190] Setting up BatchNorm_17_fixed
I0716 08:00:28.633431 14827 net.cpp:197] Top shape: 1 19 32 64 (38912)
I0716 08:00:28.633435 14827 net.cpp:205] Memory required for data: 284753924
I0716 08:00:28.633438 14827 layer_factory.hpp:123] Creating layer ConvNd_76
I0716 08:00:28.633445 14827 net.cpp:140] Creating Layer ConvNd_76
I0716 08:00:28.633447 14827 net.cpp:481] ConvNd_76 <- BatchNorm_17
I0716 08:00:28.633452 14827 net.cpp:455] ConvNd_76 -> ConvNd_76
I0716 08:00:28.633586 14827 layer_factory.hpp:123] Creating layer ConvNd_76
I0716 08:00:28.633795 14827 net.cpp:190] Setting up ConvNd_76
I0716 08:00:28.633800 14827 net.cpp:197] Top shape: 1 19 64 128 (155648)
I0716 08:00:28.633803 14827 net.cpp:205] Memory required for data: 285376516
I0716 08:00:28.633807 14827 layer_factory.hpp:123] Creating layer 
I0716 08:00:28.633812 14827 net.cpp:140] Creating Layer 
I0716 08:00:28.633816 14827 net.cpp:481]  <- ConvNd_20
I0716 08:00:28.633821 14827 net.cpp:481]  <- ConvNd_76
I0716 08:00:28.633826 14827 net.cpp:455]  -> 
I0716 08:00:28.633843 14827 net.cpp:190] Setting up 
I0716 08:00:28.633848 14827 net.cpp:197] Top shape: 1 38 64 128 (311296)
I0716 08:00:28.633852 14827 net.cpp:205] Memory required for data: 286621700
I0716 08:00:28.633854 14827 layer_factory.hpp:123] Creating layer _fixed
I0716 08:00:28.633859 14827 net.cpp:140] Creating Layer _fixed
I0716 08:00:28.633862 14827 net.cpp:481] _fixed <- 
I0716 08:00:28.633867 14827 net.cpp:442] _fixed ->  (in-place)
I0716 08:00:28.633893 14827 net.cpp:190] Setting up _fixed
I0716 08:00:28.633898 14827 net.cpp:197] Top shape: 1 38 64 128 (311296)
I0716 08:00:28.633901 14827 net.cpp:205] Memory required for data: 287866884
I0716 08:00:28.633905 14827 layer_factory.hpp:123] Creating layer BatchNorm_18
I0716 08:00:28.633910 14827 net.cpp:140] Creating Layer BatchNorm_18
I0716 08:00:28.633913 14827 net.cpp:481] BatchNorm_18 <- 
I0716 08:00:28.633918 14827 net.cpp:455] BatchNorm_18 -> BatchNorm_18
I0716 08:00:28.633951 14827 layer_factory.hpp:123] Creating layer BatchNorm_18
I0716 08:00:28.634018 14827 layer_factory.hpp:123] Creating layer BatchNorm_18
I0716 08:00:28.634047 14827 layer_factory.hpp:123] Creating layer BatchNorm_18
I0716 08:00:28.634161 14827 net.cpp:190] Setting up BatchNorm_18
I0716 08:00:28.634166 14827 net.cpp:197] Top shape: 1 38 64 128 (311296)
I0716 08:00:28.634169 14827 net.cpp:205] Memory required for data: 289112068
I0716 08:00:28.634173 14827 layer_factory.hpp:123] Creating layer Threshold_17
I0716 08:00:28.634178 14827 net.cpp:140] Creating Layer Threshold_17
I0716 08:00:28.634181 14827 net.cpp:481] Threshold_17 <- BatchNorm_18
I0716 08:00:28.634186 14827 net.cpp:442] Threshold_17 -> BatchNorm_18 (in-place)
I0716 08:00:28.634191 14827 net.cpp:190] Setting up Threshold_17
I0716 08:00:28.634196 14827 net.cpp:197] Top shape: 1 38 64 128 (311296)
I0716 08:00:28.634198 14827 net.cpp:205] Memory required for data: 290357252
I0716 08:00:28.634202 14827 layer_factory.hpp:123] Creating layer BatchNorm_18_fixed
I0716 08:00:28.634207 14827 net.cpp:140] Creating Layer BatchNorm_18_fixed
I0716 08:00:28.634209 14827 net.cpp:481] BatchNorm_18_fixed <- BatchNorm_18
I0716 08:00:28.634213 14827 net.cpp:442] BatchNorm_18_fixed -> BatchNorm_18 (in-place)
I0716 08:00:28.634240 14827 net.cpp:190] Setting up BatchNorm_18_fixed
I0716 08:00:28.634244 14827 net.cpp:197] Top shape: 1 38 64 128 (311296)
I0716 08:00:28.634248 14827 net.cpp:205] Memory required for data: 291602436
I0716 08:00:28.634251 14827 layer_factory.hpp:123] Creating layer ConvNd_77
I0716 08:00:28.634258 14827 net.cpp:140] Creating Layer ConvNd_77
I0716 08:00:28.634261 14827 net.cpp:481] ConvNd_77 <- BatchNorm_18
I0716 08:00:28.634266 14827 net.cpp:455] ConvNd_77 -> ConvNd_77
I0716 08:00:28.634388 14827 layer_factory.hpp:123] Creating layer ConvNd_77
I0716 08:00:28.634577 14827 net.cpp:190] Setting up ConvNd_77
I0716 08:00:28.634582 14827 net.cpp:197] Top shape: 1 4 64 128 (32768)
I0716 08:00:28.634585 14827 net.cpp:205] Memory required for data: 291733508
I0716 08:00:28.634589 14827 layer_factory.hpp:123] Creating layer ConvNd_77_fixed
I0716 08:00:28.634594 14827 net.cpp:140] Creating Layer ConvNd_77_fixed
I0716 08:00:28.634598 14827 net.cpp:481] ConvNd_77_fixed <- ConvNd_77
I0716 08:00:28.634603 14827 net.cpp:442] ConvNd_77_fixed -> ConvNd_77 (in-place)
I0716 08:00:28.634630 14827 net.cpp:190] Setting up ConvNd_77_fixed
I0716 08:00:28.634634 14827 net.cpp:197] Top shape: 1 4 64 128 (32768)
I0716 08:00:28.634637 14827 net.cpp:205] Memory required for data: 291864580
I0716 08:00:28.634641 14827 layer_factory.hpp:123] Creating layer ConvNd_77_ConvNd_77_fixed_0_split
I0716 08:00:28.634646 14827 net.cpp:140] Creating Layer ConvNd_77_ConvNd_77_fixed_0_split
I0716 08:00:28.634649 14827 net.cpp:481] ConvNd_77_ConvNd_77_fixed_0_split <- ConvNd_77
I0716 08:00:28.634654 14827 net.cpp:455] ConvNd_77_ConvNd_77_fixed_0_split -> ConvNd_77_ConvNd_77_fixed_0_split_0
I0716 08:00:28.634661 14827 net.cpp:455] ConvNd_77_ConvNd_77_fixed_0_split -> ConvNd_77_ConvNd_77_fixed_0_split_1
I0716 08:00:28.634668 14827 net.cpp:455] ConvNd_77_ConvNd_77_fixed_0_split -> ConvNd_77_ConvNd_77_fixed_0_split_2
I0716 08:00:28.634675 14827 net.cpp:455] ConvNd_77_ConvNd_77_fixed_0_split -> ConvNd_77_ConvNd_77_fixed_0_split_3
I0716 08:00:28.634680 14827 net.cpp:455] ConvNd_77_ConvNd_77_fixed_0_split -> ConvNd_77_ConvNd_77_fixed_0_split_4
I0716 08:00:28.634734 14827 net.cpp:190] Setting up ConvNd_77_ConvNd_77_fixed_0_split
I0716 08:00:28.634738 14827 net.cpp:197] Top shape: 1 4 64 128 (32768)
I0716 08:00:28.634742 14827 net.cpp:197] Top shape: 1 4 64 128 (32768)
I0716 08:00:28.634745 14827 net.cpp:197] Top shape: 1 4 64 128 (32768)
I0716 08:00:28.634749 14827 net.cpp:197] Top shape: 1 4 64 128 (32768)
I0716 08:00:28.634753 14827 net.cpp:197] Top shape: 1 4 64 128 (32768)
I0716 08:00:28.634755 14827 net.cpp:205] Memory required for data: 292519940
I0716 08:00:28.634758 14827 layer_factory.hpp:123] Creating layer ConvNd_78
I0716 08:00:28.634765 14827 net.cpp:140] Creating Layer ConvNd_78
I0716 08:00:28.634769 14827 net.cpp:481] ConvNd_78 <- ConvNd_77_ConvNd_77_fixed_0_split_0
I0716 08:00:28.634774 14827 net.cpp:455] ConvNd_78 -> ConvNd_78
I0716 08:00:28.634897 14827 layer_factory.hpp:123] Creating layer ConvNd_78
I0716 08:00:28.635089 14827 net.cpp:190] Setting up ConvNd_78
I0716 08:00:28.635095 14827 net.cpp:197] Top shape: 1 4 64 128 (32768)
I0716 08:00:28.635098 14827 net.cpp:205] Memory required for data: 292651012
I0716 08:00:28.635102 14827 layer_factory.hpp:123] Creating layer ConvNd_79
I0716 08:00:28.635109 14827 net.cpp:140] Creating Layer ConvNd_79
I0716 08:00:28.635113 14827 net.cpp:481] ConvNd_79 <- ConvNd_77_ConvNd_77_fixed_0_split_1
I0716 08:00:28.635118 14827 net.cpp:455] ConvNd_79 -> ConvNd_79
I0716 08:00:28.635238 14827 layer_factory.hpp:123] Creating layer ConvNd_79
I0716 08:00:28.635422 14827 net.cpp:190] Setting up ConvNd_79
I0716 08:00:28.635427 14827 net.cpp:197] Top shape: 1 4 64 128 (32768)
I0716 08:00:28.635430 14827 net.cpp:205] Memory required for data: 292782084
I0716 08:00:28.635434 14827 layer_factory.hpp:123] Creating layer ConvNd_79_fixed
I0716 08:00:28.635439 14827 net.cpp:140] Creating Layer ConvNd_79_fixed
I0716 08:00:28.635442 14827 net.cpp:481] ConvNd_79_fixed <- ConvNd_79
I0716 08:00:28.635447 14827 net.cpp:442] ConvNd_79_fixed -> ConvNd_79 (in-place)
I0716 08:00:28.635474 14827 net.cpp:190] Setting up ConvNd_79_fixed
I0716 08:00:28.635479 14827 net.cpp:197] Top shape: 1 4 64 128 (32768)
I0716 08:00:28.635483 14827 net.cpp:205] Memory required for data: 292913156
I0716 08:00:28.635486 14827 layer_factory.hpp:123] Creating layer ConvNd_79_ConvNd_79_fixed_0_split
I0716 08:00:28.635491 14827 net.cpp:140] Creating Layer ConvNd_79_ConvNd_79_fixed_0_split
I0716 08:00:28.635495 14827 net.cpp:481] ConvNd_79_ConvNd_79_fixed_0_split <- ConvNd_79
I0716 08:00:28.635499 14827 net.cpp:455] ConvNd_79_ConvNd_79_fixed_0_split -> ConvNd_79_ConvNd_79_fixed_0_split_0
I0716 08:00:28.635506 14827 net.cpp:455] ConvNd_79_ConvNd_79_fixed_0_split -> ConvNd_79_ConvNd_79_fixed_0_split_1
I0716 08:00:28.635535 14827 net.cpp:190] Setting up ConvNd_79_ConvNd_79_fixed_0_split
I0716 08:00:28.635538 14827 net.cpp:197] Top shape: 1 4 64 128 (32768)
I0716 08:00:28.635542 14827 net.cpp:197] Top shape: 1 4 64 128 (32768)
I0716 08:00:28.635545 14827 net.cpp:205] Memory required for data: 293175300
I0716 08:00:28.635547 14827 layer_factory.hpp:123] Creating layer ConvNd_80
I0716 08:00:28.635555 14827 net.cpp:140] Creating Layer ConvNd_80
I0716 08:00:28.635558 14827 net.cpp:481] ConvNd_80 <- ConvNd_77_ConvNd_77_fixed_0_split_2
I0716 08:00:28.635563 14827 net.cpp:455] ConvNd_80 -> ConvNd_80
I0716 08:00:28.635681 14827 layer_factory.hpp:123] Creating layer ConvNd_80
I0716 08:00:28.635874 14827 net.cpp:190] Setting up ConvNd_80
I0716 08:00:28.635880 14827 net.cpp:197] Top shape: 1 4 64 128 (32768)
I0716 08:00:28.635884 14827 net.cpp:205] Memory required for data: 293306372
I0716 08:00:28.635887 14827 layer_factory.hpp:123] Creating layer ConvNd_80_fixed
I0716 08:00:28.635892 14827 net.cpp:140] Creating Layer ConvNd_80_fixed
I0716 08:00:28.635895 14827 net.cpp:481] ConvNd_80_fixed <- ConvNd_80
I0716 08:00:28.635900 14827 net.cpp:442] ConvNd_80_fixed -> ConvNd_80 (in-place)
I0716 08:00:28.635927 14827 net.cpp:190] Setting up ConvNd_80_fixed
I0716 08:00:28.635932 14827 net.cpp:197] Top shape: 1 4 64 128 (32768)
I0716 08:00:28.635936 14827 net.cpp:205] Memory required for data: 293437444
I0716 08:00:28.635938 14827 layer_factory.hpp:123] Creating layer Add_47
I0716 08:00:28.635943 14827 net.cpp:140] Creating Layer Add_47
I0716 08:00:28.635947 14827 net.cpp:481] Add_47 <- ConvNd_79_ConvNd_79_fixed_0_split_0
I0716 08:00:28.635951 14827 net.cpp:481] Add_47 <- ConvNd_80
I0716 08:00:28.635957 14827 net.cpp:455] Add_47 -> Add_47
I0716 08:00:28.635972 14827 net.cpp:190] Setting up Add_47
I0716 08:00:28.635977 14827 net.cpp:197] Top shape: 1 4 64 128 (32768)
I0716 08:00:28.635979 14827 net.cpp:205] Memory required for data: 293568516
I0716 08:00:28.635982 14827 layer_factory.hpp:123] Creating layer Add_47_fixed
I0716 08:00:28.635987 14827 net.cpp:140] Creating Layer Add_47_fixed
I0716 08:00:28.635990 14827 net.cpp:481] Add_47_fixed <- Add_47
I0716 08:00:28.635994 14827 net.cpp:442] Add_47_fixed -> Add_47 (in-place)
I0716 08:00:28.636020 14827 net.cpp:190] Setting up Add_47_fixed
I0716 08:00:28.636024 14827 net.cpp:197] Top shape: 1 4 64 128 (32768)
I0716 08:00:28.636027 14827 net.cpp:205] Memory required for data: 293699588
I0716 08:00:28.636031 14827 layer_factory.hpp:123] Creating layer Add_47_Add_47_fixed_0_split
I0716 08:00:28.636036 14827 net.cpp:140] Creating Layer Add_47_Add_47_fixed_0_split
I0716 08:00:28.636039 14827 net.cpp:481] Add_47_Add_47_fixed_0_split <- Add_47
I0716 08:00:28.636044 14827 net.cpp:455] Add_47_Add_47_fixed_0_split -> Add_47_Add_47_fixed_0_split_0
I0716 08:00:28.636050 14827 net.cpp:455] Add_47_Add_47_fixed_0_split -> Add_47_Add_47_fixed_0_split_1
I0716 08:00:28.636076 14827 net.cpp:190] Setting up Add_47_Add_47_fixed_0_split
I0716 08:00:28.636081 14827 net.cpp:197] Top shape: 1 4 64 128 (32768)
I0716 08:00:28.636085 14827 net.cpp:197] Top shape: 1 4 64 128 (32768)
I0716 08:00:28.636087 14827 net.cpp:205] Memory required for data: 293961732
I0716 08:00:28.636090 14827 layer_factory.hpp:123] Creating layer ConvNd_81
I0716 08:00:28.636097 14827 net.cpp:140] Creating Layer ConvNd_81
I0716 08:00:28.636101 14827 net.cpp:481] ConvNd_81 <- ConvNd_77_ConvNd_77_fixed_0_split_3
I0716 08:00:28.636106 14827 net.cpp:455] ConvNd_81 -> ConvNd_81
I0716 08:00:28.636231 14827 layer_factory.hpp:123] Creating layer ConvNd_81
I0716 08:00:28.636418 14827 net.cpp:190] Setting up ConvNd_81
I0716 08:00:28.636425 14827 net.cpp:197] Top shape: 1 4 64 128 (32768)
I0716 08:00:28.636427 14827 net.cpp:205] Memory required for data: 294092804
I0716 08:00:28.636432 14827 layer_factory.hpp:123] Creating layer ConvNd_81_fixed
I0716 08:00:28.636436 14827 net.cpp:140] Creating Layer ConvNd_81_fixed
I0716 08:00:28.636440 14827 net.cpp:481] ConvNd_81_fixed <- ConvNd_81
I0716 08:00:28.636445 14827 net.cpp:442] ConvNd_81_fixed -> ConvNd_81 (in-place)
I0716 08:00:28.636472 14827 net.cpp:190] Setting up ConvNd_81_fixed
I0716 08:00:28.636476 14827 net.cpp:197] Top shape: 1 4 64 128 (32768)
I0716 08:00:28.636479 14827 net.cpp:205] Memory required for data: 294223876
I0716 08:00:28.636483 14827 layer_factory.hpp:123] Creating layer Add_48
I0716 08:00:28.636488 14827 net.cpp:140] Creating Layer Add_48
I0716 08:00:28.636492 14827 net.cpp:481] Add_48 <- Add_47_Add_47_fixed_0_split_0
I0716 08:00:28.636497 14827 net.cpp:481] Add_48 <- ConvNd_81
I0716 08:00:28.636500 14827 net.cpp:455] Add_48 -> Add_48
I0716 08:00:28.636518 14827 net.cpp:190] Setting up Add_48
I0716 08:00:28.636523 14827 net.cpp:197] Top shape: 1 4 64 128 (32768)
I0716 08:00:28.636525 14827 net.cpp:205] Memory required for data: 294354948
I0716 08:00:28.636528 14827 layer_factory.hpp:123] Creating layer Add_48_fixed
I0716 08:00:28.636533 14827 net.cpp:140] Creating Layer Add_48_fixed
I0716 08:00:28.636535 14827 net.cpp:481] Add_48_fixed <- Add_48
I0716 08:00:28.636540 14827 net.cpp:442] Add_48_fixed -> Add_48 (in-place)
I0716 08:00:28.636566 14827 net.cpp:190] Setting up Add_48_fixed
I0716 08:00:28.636570 14827 net.cpp:197] Top shape: 1 4 64 128 (32768)
I0716 08:00:28.636574 14827 net.cpp:205] Memory required for data: 294486020
I0716 08:00:28.636577 14827 layer_factory.hpp:123] Creating layer Add_48_Add_48_fixed_0_split
I0716 08:00:28.636581 14827 net.cpp:140] Creating Layer Add_48_Add_48_fixed_0_split
I0716 08:00:28.636584 14827 net.cpp:481] Add_48_Add_48_fixed_0_split <- Add_48
I0716 08:00:28.636590 14827 net.cpp:455] Add_48_Add_48_fixed_0_split -> Add_48_Add_48_fixed_0_split_0
I0716 08:00:28.636595 14827 net.cpp:455] Add_48_Add_48_fixed_0_split -> Add_48_Add_48_fixed_0_split_1
I0716 08:00:28.636622 14827 net.cpp:190] Setting up Add_48_Add_48_fixed_0_split
I0716 08:00:28.636626 14827 net.cpp:197] Top shape: 1 4 64 128 (32768)
I0716 08:00:28.636629 14827 net.cpp:197] Top shape: 1 4 64 128 (32768)
I0716 08:00:28.636632 14827 net.cpp:205] Memory required for data: 294748164
I0716 08:00:28.636636 14827 layer_factory.hpp:123] Creating layer ConvNd_82
I0716 08:00:28.636642 14827 net.cpp:140] Creating Layer ConvNd_82
I0716 08:00:28.636646 14827 net.cpp:481] ConvNd_82 <- ConvNd_77_ConvNd_77_fixed_0_split_4
I0716 08:00:28.636651 14827 net.cpp:455] ConvNd_82 -> ConvNd_82
I0716 08:00:28.636767 14827 layer_factory.hpp:123] Creating layer ConvNd_82
I0716 08:00:28.636981 14827 net.cpp:190] Setting up ConvNd_82
I0716 08:00:28.636991 14827 net.cpp:197] Top shape: 1 4 64 128 (32768)
I0716 08:00:28.636997 14827 net.cpp:205] Memory required for data: 294879236
I0716 08:00:28.637004 14827 layer_factory.hpp:123] Creating layer ConvNd_82_fixed
I0716 08:00:28.637013 14827 net.cpp:140] Creating Layer ConvNd_82_fixed
I0716 08:00:28.637019 14827 net.cpp:481] ConvNd_82_fixed <- ConvNd_82
I0716 08:00:28.637028 14827 net.cpp:442] ConvNd_82_fixed -> ConvNd_82 (in-place)
I0716 08:00:28.637078 14827 net.cpp:190] Setting up ConvNd_82_fixed
I0716 08:00:28.637086 14827 net.cpp:197] Top shape: 1 4 64 128 (32768)
I0716 08:00:28.637091 14827 net.cpp:205] Memory required for data: 295010308
I0716 08:00:28.637099 14827 layer_factory.hpp:123] Creating layer Add_49
I0716 08:00:28.637107 14827 net.cpp:140] Creating Layer Add_49
I0716 08:00:28.637112 14827 net.cpp:481] Add_49 <- Add_48_Add_48_fixed_0_split_0
I0716 08:00:28.637118 14827 net.cpp:481] Add_49 <- ConvNd_82
I0716 08:00:28.637126 14827 net.cpp:455] Add_49 -> Add_49
I0716 08:00:28.637148 14827 net.cpp:190] Setting up Add_49
I0716 08:00:28.637153 14827 net.cpp:197] Top shape: 1 4 64 128 (32768)
I0716 08:00:28.637156 14827 net.cpp:205] Memory required for data: 295141380
I0716 08:00:28.637159 14827 layer_factory.hpp:123] Creating layer Concat_17
I0716 08:00:28.637166 14827 net.cpp:140] Creating Layer Concat_17
I0716 08:00:28.637168 14827 net.cpp:481] Concat_17 <- ConvNd_78
I0716 08:00:28.637172 14827 net.cpp:481] Concat_17 <- ConvNd_79_ConvNd_79_fixed_0_split_1
I0716 08:00:28.637176 14827 net.cpp:481] Concat_17 <- Add_47_Add_47_fixed_0_split_1
I0716 08:00:28.637181 14827 net.cpp:481] Concat_17 <- Add_48_Add_48_fixed_0_split_1
I0716 08:00:28.637183 14827 net.cpp:481] Concat_17 <- Add_49
I0716 08:00:28.637189 14827 net.cpp:455] Concat_17 -> Concat_17
I0716 08:00:28.637209 14827 net.cpp:190] Setting up Concat_17
I0716 08:00:28.637213 14827 net.cpp:197] Top shape: 1 20 64 128 (163840)
I0716 08:00:28.637217 14827 net.cpp:205] Memory required for data: 295796740
I0716 08:00:28.637219 14827 layer_factory.hpp:123] Creating layer Concat_17_fixed
I0716 08:00:28.637229 14827 net.cpp:140] Creating Layer Concat_17_fixed
I0716 08:00:28.637233 14827 net.cpp:481] Concat_17_fixed <- Concat_17
I0716 08:00:28.637238 14827 net.cpp:442] Concat_17_fixed -> Concat_17 (in-place)
I0716 08:00:28.637264 14827 net.cpp:190] Setting up Concat_17_fixed
I0716 08:00:28.637269 14827 net.cpp:197] Top shape: 1 20 64 128 (163840)
I0716 08:00:28.637271 14827 net.cpp:205] Memory required for data: 296452100
I0716 08:00:28.637275 14827 layer_factory.hpp:123] Creating layer BatchNorm_19
I0716 08:00:28.637281 14827 net.cpp:140] Creating Layer BatchNorm_19
I0716 08:00:28.637284 14827 net.cpp:481] BatchNorm_19 <- Concat_17
I0716 08:00:28.637290 14827 net.cpp:455] BatchNorm_19 -> BatchNorm_19
I0716 08:00:28.637320 14827 layer_factory.hpp:123] Creating layer BatchNorm_19
I0716 08:00:28.637388 14827 layer_factory.hpp:123] Creating layer BatchNorm_19
I0716 08:00:28.637418 14827 layer_factory.hpp:123] Creating layer BatchNorm_19
I0716 08:00:28.637533 14827 net.cpp:190] Setting up BatchNorm_19
I0716 08:00:28.637538 14827 net.cpp:197] Top shape: 1 20 64 128 (163840)
I0716 08:00:28.637542 14827 net.cpp:205] Memory required for data: 297107460
I0716 08:00:28.637547 14827 layer_factory.hpp:123] Creating layer Threshold_18
I0716 08:00:28.637552 14827 net.cpp:140] Creating Layer Threshold_18
I0716 08:00:28.637554 14827 net.cpp:481] Threshold_18 <- BatchNorm_19
I0716 08:00:28.637558 14827 net.cpp:442] Threshold_18 -> BatchNorm_19 (in-place)
I0716 08:00:28.637564 14827 net.cpp:190] Setting up Threshold_18
I0716 08:00:28.637568 14827 net.cpp:197] Top shape: 1 20 64 128 (163840)
I0716 08:00:28.637571 14827 net.cpp:205] Memory required for data: 297762820
I0716 08:00:28.637573 14827 layer_factory.hpp:123] Creating layer BatchNorm_19_fixed
I0716 08:00:28.637578 14827 net.cpp:140] Creating Layer BatchNorm_19_fixed
I0716 08:00:28.637581 14827 net.cpp:481] BatchNorm_19_fixed <- BatchNorm_19
I0716 08:00:28.637585 14827 net.cpp:442] BatchNorm_19_fixed -> BatchNorm_19 (in-place)
I0716 08:00:28.637612 14827 net.cpp:190] Setting up BatchNorm_19_fixed
I0716 08:00:28.637617 14827 net.cpp:197] Top shape: 1 20 64 128 (163840)
I0716 08:00:28.637619 14827 net.cpp:205] Memory required for data: 298418180
I0716 08:00:28.637624 14827 layer_factory.hpp:123] Creating layer ConvNd_83
I0716 08:00:28.637630 14827 net.cpp:140] Creating Layer ConvNd_83
I0716 08:00:28.637634 14827 net.cpp:481] ConvNd_83 <- BatchNorm_19
I0716 08:00:28.637639 14827 net.cpp:455] ConvNd_83 -> BatchNorm_20
I0716 08:00:28.637815 14827 layer_factory.hpp:123] Creating layer ConvNd_83
I0716 08:00:28.639047 14827 net.cpp:190] Setting up ConvNd_83
I0716 08:00:28.639058 14827 net.cpp:197] Top shape: 1 19 128 256 (622592)
I0716 08:00:28.639061 14827 net.cpp:205] Memory required for data: 300908548
I0716 08:00:28.639076 14827 layer_factory.hpp:123] Creating layer Threshold_19
I0716 08:00:28.639082 14827 net.cpp:140] Creating Layer Threshold_19
I0716 08:00:28.639086 14827 net.cpp:481] Threshold_19 <- BatchNorm_20
I0716 08:00:28.639091 14827 net.cpp:442] Threshold_19 -> BatchNorm_20 (in-place)
I0716 08:00:28.639099 14827 net.cpp:190] Setting up Threshold_19
I0716 08:00:28.639103 14827 net.cpp:197] Top shape: 1 19 128 256 (622592)
I0716 08:00:28.639106 14827 net.cpp:205] Memory required for data: 303398916
I0716 08:00:28.639109 14827 layer_factory.hpp:123] Creating layer Concat_18
I0716 08:00:28.639114 14827 net.cpp:140] Creating Layer Concat_18
I0716 08:00:28.639117 14827 net.cpp:481] Concat_18 <- BatchNorm_20
I0716 08:00:28.639122 14827 net.cpp:481] Concat_18 <- BatchNorm_1_BatchNorm_1_fixed_0_split_1
I0716 08:00:28.639127 14827 net.cpp:455] Concat_18 -> Concat_18
I0716 08:00:28.639150 14827 net.cpp:190] Setting up Concat_18
I0716 08:00:28.639155 14827 net.cpp:197] Top shape: 1 35 128 256 (1146880)
I0716 08:00:28.639158 14827 net.cpp:205] Memory required for data: 307986436
I0716 08:00:28.639161 14827 layer_factory.hpp:123] Creating layer Concat_18_fixed
I0716 08:00:28.639166 14827 net.cpp:140] Creating Layer Concat_18_fixed
I0716 08:00:28.639169 14827 net.cpp:481] Concat_18_fixed <- Concat_18
I0716 08:00:28.639174 14827 net.cpp:442] Concat_18_fixed -> Concat_18 (in-place)
I0716 08:00:28.639204 14827 net.cpp:190] Setting up Concat_18_fixed
I0716 08:00:28.639209 14827 net.cpp:197] Top shape: 1 35 128 256 (1146880)
I0716 08:00:28.639210 14827 net.cpp:205] Memory required for data: 312573956
I0716 08:00:28.639215 14827 layer_factory.hpp:123] Creating layer ConvNd_84
I0716 08:00:28.639223 14827 net.cpp:140] Creating Layer ConvNd_84
I0716 08:00:28.639226 14827 net.cpp:481] ConvNd_84 <- Concat_18
I0716 08:00:28.639231 14827 net.cpp:455] ConvNd_84 -> BatchNorm_21
I0716 08:00:28.639457 14827 layer_factory.hpp:123] Creating layer ConvNd_84
I0716 08:00:28.639829 14827 net.cpp:190] Setting up ConvNd_84
I0716 08:00:28.639837 14827 net.cpp:197] Top shape: 1 19 128 256 (622592)
I0716 08:00:28.639840 14827 net.cpp:205] Memory required for data: 315064324
I0716 08:00:28.639845 14827 layer_factory.hpp:123] Creating layer Threshold_20
I0716 08:00:28.639850 14827 net.cpp:140] Creating Layer Threshold_20
I0716 08:00:28.639854 14827 net.cpp:481] Threshold_20 <- BatchNorm_21
I0716 08:00:28.639858 14827 net.cpp:442] Threshold_20 -> BatchNorm_21 (in-place)
I0716 08:00:28.639865 14827 net.cpp:190] Setting up Threshold_20
I0716 08:00:28.639868 14827 net.cpp:197] Top shape: 1 19 128 256 (622592)
I0716 08:00:28.639871 14827 net.cpp:205] Memory required for data: 317554692
I0716 08:00:28.639874 14827 layer_factory.hpp:123] Creating layer BatchNorm_21_fixed
I0716 08:00:28.639879 14827 net.cpp:140] Creating Layer BatchNorm_21_fixed
I0716 08:00:28.639883 14827 net.cpp:481] BatchNorm_21_fixed <- BatchNorm_21
I0716 08:00:28.639886 14827 net.cpp:442] BatchNorm_21_fixed -> BatchNorm_21 (in-place)
I0716 08:00:28.639917 14827 net.cpp:190] Setting up BatchNorm_21_fixed
I0716 08:00:28.639922 14827 net.cpp:197] Top shape: 1 19 128 256 (622592)
I0716 08:00:28.639925 14827 net.cpp:205] Memory required for data: 320045060
I0716 08:00:28.639928 14827 layer_factory.hpp:123] Creating layer ConvNd_85
I0716 08:00:28.639935 14827 net.cpp:140] Creating Layer ConvNd_85
I0716 08:00:28.639937 14827 net.cpp:481] ConvNd_85 <- BatchNorm_21
I0716 08:00:28.639942 14827 net.cpp:455] ConvNd_85 -> ConvNd_85
I0716 08:00:28.640085 14827 layer_factory.hpp:123] Creating layer ConvNd_85
I0716 08:00:28.640292 14827 net.cpp:190] Setting up ConvNd_85
I0716 08:00:28.640298 14827 net.cpp:197] Top shape: 1 19 256 512 (2490368)
I0716 08:00:28.640301 14827 net.cpp:205] Memory required for data: 330006532
I0716 08:00:28.640305 14827 layer_factory.hpp:123] Creating layer ConvNd_85_fixed
I0716 08:00:28.640311 14827 net.cpp:140] Creating Layer ConvNd_85_fixed
I0716 08:00:28.640313 14827 net.cpp:481] ConvNd_85_fixed <- ConvNd_85
I0716 08:00:28.640318 14827 net.cpp:442] ConvNd_85_fixed -> ConvNd_85 (in-place)
I0716 08:00:28.640347 14827 net.cpp:190] Setting up ConvNd_85_fixed
I0716 08:00:28.640350 14827 net.cpp:197] Top shape: 1 19 256 512 (2490368)
I0716 08:00:28.640353 14827 net.cpp:205] Memory required for data: 339968004
I0716 08:00:28.640357 14827 layer_factory.hpp:123] Creating layer score
I0716 08:00:28.640363 14827 net.cpp:140] Creating Layer score
I0716 08:00:28.640367 14827 net.cpp:481] score <- ConvNd_85
I0716 08:00:28.640372 14827 net.cpp:455] score -> score
I0716 08:00:28.640421 14827 net.cpp:190] Setting up score
I0716 08:00:28.640426 14827 net.cpp:197] Top shape: 1 19 256 512 (2490368)
I0716 08:00:28.640429 14827 net.cpp:205] Memory required for data: 349929476
I0716 08:00:28.640432 14827 net.cpp:268] score does not need backward computation.
I0716 08:00:28.640435 14827 net.cpp:268] ConvNd_85_fixed does not need backward computation.
I0716 08:00:28.640439 14827 net.cpp:268] ConvNd_85 does not need backward computation.
I0716 08:00:28.640441 14827 net.cpp:268] BatchNorm_21_fixed does not need backward computation.
…
