…
I0121 22:32:42.510231  1946 upgrade_proto.cpp:77] Attempting to upgrade batch norm layers using deprecated params: cifar10/caffe/models/miniGoogleNet/m3/deploy_3_miniGoogleNet.prototxt
I0121 22:32:42.510263  1946 upgrade_proto.cpp:80] Successfully upgraded batch norm layers using deprecated params.
I0121 22:32:42.511936  1946 net.cpp:51] Initializing net from parameters: 
name: "miniGoogleNet"
state {
  phase: TEST
  level: 0
}
layer {
  name: "data"
  type: "Input"
  top: "data"
  input_param {
    shape {
      dim: 1
      dim: 3
      dim: 32
      dim: 32
    }
  }
}
layer {
  name: "conv1/3x3_s1"
  type: "Convolution"
  bottom: "data"
  top: "conv1/3x3_s1"
  param {
    lr_mult: 1
    decay_mult: 1
  }
  param {
    lr_mult: 2
    decay_mult: 0
  }
  convolution_param {
    num_output: 96
    pad: 1
    kernel_size: 3
    stride: 1
    weight_filler {
      type: "xavier"
      std: 0.1
    }
    bias_filler {
      type: "constant"
      value: 0.2
    }
  }
}
layer {
  name: "conv1/bn1"
  type: "BatchNorm"
  bottom: "conv1/3x3_s1"
  top: "conv1/3x3_s1"
  param {
    lr_mult: 0
    decay_mult: 0
  }
  param {
    lr_mult: 0
    decay_mult: 0
  }
  param {
    lr_mult: 0
    decay_mult: 0
  }
  batch_norm_param {
    use_global_stats: true
  }
}
layer {
  name: "conv1/scale1"
  type: "Scale"
  bottom: "conv1/3x3_s1"
  top: "conv1/3x3_s1"
  scale_param {
    bias_term: true
  }
}
layer {
  name: "conv1/relu1"
  type: "ReLU"
  bottom: "conv1/3x3_s1"
  top: "conv1/3x3_s1"
}
layer {
  name: "inception_2a/1x1"
  type: "Convolution"
  bottom: "conv1/3x3_s1"
  top: "inception_2a/1x1"
  param {
    lr_mult: 1
    decay_mult: 1
  }
  param {
    lr_mult: 2
    decay_mult: 0
  }
  convolution_param {
    num_output: 32
    kernel_size: 1
    weight_filler {
      type: "xavier"
      std: 0.03
    }
    bias_filler {
      type: "constant"
      value: 0.2
    }
  }
}
layer {
  name: "inception_2a/1x1/bn1"
  type: "BatchNorm"
  bottom: "inception_2a/1x1"
  top: "inception_2a/1x1"
  param {
    lr_mult: 0
    decay_mult: 0
  }
  param {
    lr_mult: 0
    decay_mult: 0
  }
  param {
    lr_mult: 0
    decay_mult: 0
  }
  batch_norm_param {
    use_global_stats: true
  }
}
layer {
  name: "inception_2a/1x1/scale1"
  type: "Scale"
  bottom: "inception_2a/1x1"
  top: "inception_2a/1x1"
  scale_param {
    bias_term: true
  }
}
layer {
  name: "inception_2a/1x1/relu1"
  type: "ReLU"
  bottom: "inception_2a/1x1"
  top: "inception_2a/1x1"
}
layer {
  name: "inception_2a/3x3"
  type: "Convolution"
  bottom: "conv1/3x3_s1"
  top: "inception_2a/3x3"
  param {
    lr_mult: 1
    decay_mult: 1
  }
  param {
    lr_mult: 2
    decay_mult: 0
  }
  convolution_param {
    num_output: 32
    pad: 1
    kernel_size: 3
    weight_filler {
      type: "xavier"
      std: 0.03
    }
    bias_filler {
      type: "constant"
      value: 0.2
    }
  }
}
layer {
  name: "inception_2a/3x3/bn1"
  type: "BatchNorm"
  bottom: "inception_2a/3x3"
  top: "inception_2a/3x3"
  param {
    lr_mult: 0
    decay_mult: 0
  }
  param {
    lr_mult: 0
    decay_mult: 0
  }
  param {
    lr_mult: 0
    decay_mult: 0
  }
  batch_norm_param {
    use_global_stats: true
  }
}
layer {
  name: "inception_2a/3x3/scale1"
  type: "Scale"
  bottom: "inception_2a/3x3"
  top: "inception_2a/3x3"
  scale_param {
    bias_term: true
  }
}
layer {
  name: "inception_2a/3x3/relu1"
  type: "ReLU"
  bottom: "inception_2a/3x3"
  top: "inception_2a/3x3"
}
layer {
  name: "inception_2a/output"
  type: "Concat"
  bottom: "inception_2a/1x1"
  bottom: "inception_2a/3x3"
  top: "inception_2a/output"
}
layer {
  name: "inception_3a/1x1"
  type: "Convolution"
  bottom: "inception_2a/output"
  top: "inception_3a/1x1"
  param {
    lr_mult: 1
    decay_mult: 1
  }
  param {
    lr_mult: 2
    decay_mult: 0
  }
  convolution_param {
    num_output: 32
    kernel_size: 1
    weight_filler {
      type: "xavier"
      std: 0.03
    }
    bias_filler {
      type: "constant"
      value: 0.2
    }
  }
}
layer {
  name: "inception_3a/1x1/bn1"
  type: "BatchNorm"
  bottom: "inception_3a/1x1"
  top: "inception_3a/1x1"
  param {
    lr_mult: 0
    decay_mult: 0
  }
  param {
    lr_mult: 0
    decay_mult: 0
  }
  param {
    lr_mult: 0
    decay_mult: 0
  }
  batch_norm_param {
    use_global_stats: true
  }
}
layer {
  name: "inception_3a/1x1/scale1"
  type: "Scale"
  bottom: "inception_3a/1x1"
  top: "inception_3a/1x1"
  scale_param {
    bias_term: true
  }
}
layer {
  name: "inception_3a/1x1/relu1"
  type: "ReLU"
  bottom: "inception_3a/1x1"
  top: "inception_3a/1x1"
}
layer {
  name: "inception_3a/3x3"
  type: "Convolution"
  bottom: "inception_2a/output"
  top: "inception_3a/3x3"
  param {
    lr_mult: 1
    decay_mult: 1
  }
  param {
    lr_mult: 2
    decay_mult: 0
  }
  convolution_param {
    num_output: 48
    pad: 1
    kernel_size: 3
    weight_filler {
      type: "xavier"
      std: 0.03
    }
    bias_filler {
      type: "constant"
      value: 0.2
    }
  }
}
layer {
  name: "inception_3a/3x3/bn1"
  type: "BatchNorm"
  bottom: "inception_3a/3x3"
  top: "inception_3a/3x3"
  param {
    lr_mult: 0
    decay_mult: 0
  }
  param {
    lr_mult: 0
    decay_mult: 0
  }
  param {
    lr_mult: 0
    decay_mult: 0
  }
  batch_norm_param {
    use_global_stats: true
  }
}
layer {
  name: "inception_3a/3x3/scale1"
  type: "Scale"
  bottom: "inception_3a/3x3"
  top: "inception_3a/3x3"
  scale_param {
    bias_term: true
  }
}
layer {
  name: "inception_3a/3x3/relu1"
  type: "ReLU"
  bottom: "inception_3a/3x3"
  top: "inception_3a/3x3"
}
layer {
  name: "inception_3a/output"
  type: "Concat"
  bottom: "inception_3a/1x1"
  bottom: "inception_3a/3x3"
  top: "inception_3a/output"
}
layer {
  name: "downsample_4/3x3_s2"
  type: "Convolution"
  bottom: "inception_3a/output"
  top: "downsample_4/3x3_s2"
  param {
    lr_mult: 1
    decay_mult: 1
  }
  param {
    lr_mult: 2
    decay_mult: 0
  }
  convolution_param {
    num_output: 80
    pad: 1
    kernel_size: 3
    stride: 2
    weight_filler {
      type: "xavier"
      std: 0.03
    }
    bias_filler {
      type: "constant"
      value: 0.2
    }
  }
}
layer {
  name: "downsample_4/3x3_s2/bn1"
  type: "BatchNorm"
  bottom: "downsample_4/3x3_s2"
  top: "downsample_4/3x3_s2"
  param {
    lr_mult: 0
    decay_mult: 0
  }
  param {
    lr_mult: 0
    decay_mult: 0
  }
  param {
    lr_mult: 0
    decay_mult: 0
  }
  batch_norm_param {
    use_global_stats: true
  }
}
layer {
  name: "downsample_4/3x3_s2/scale1"
  type: "Scale"
  bottom: "downsample_4/3x3_s2"
  top: "downsample_4/3x3_s2"
  scale_param {
    bias_term: true
  }
}
layer {
  name: "downsample_4/3x3_s2/relu1"
  type: "ReLU"
  bottom: "downsample_4/3x3_s2"
  top: "downsample_4/3x3_s2"
}
layer {
  name: "downsample_4/pool_s2"
  type: "Pooling"
  bottom: "inception_3a/output"
  top: "downsample_4/pool_s2"
  pooling_param {
    pool: MAX
    kernel_size: 3
    stride: 2
  }
}
layer {
  name: "downsample_4/output"
  type: "Concat"
  bottom: "downsample_4/3x3_s2"
  bottom: "downsample_4/pool_s2"
  top: "downsample_4/output"
}
layer {
  name: "inception_5a/1x1"
  type: "Convolution"
  bottom: "downsample_4/output"
  top: "inception_5a/1x1"
  param {
    lr_mult: 1
    decay_mult: 1
  }
  param {
    lr_mult: 2
    decay_mult: 0
  }
  convolution_param {
    num_output: 112
    kernel_size: 1
    weight_filler {
      type: "xavier"
      std: 0.03
    }
    bias_filler {
      type: "constant"
      value: 0.2
    }
  }
}
layer {
  name: "inception_5a/1x1/bn1"
  type: "BatchNorm"
  bottom: "inception_5a/1x1"
  top: "inception_5a/1x1"
  param {
    lr_mult: 0
    decay_mult: 0
  }
  param {
    lr_mult: 0
    decay_mult: 0
  }
  param {
    lr_mult: 0
    decay_mult: 0
  }
  batch_norm_param {
    use_global_stats: true
  }
}
layer {
  name: "inception_5a/1x1/scale1"
  type: "Scale"
  bottom: "inception_5a/1x1"
  top: "inception_5a/1x1"
  scale_param {
    bias_term: true
  }
}
layer {
  name: "inception_5a/1x1/relu1"
  type: "ReLU"
  bottom: "inception_5a/1x1"
  top: "inception_5a/1x1"
}
layer {
  name: "inception_5a/3x3"
  type: "Convolution"
  bottom: "downsample_4/output"
  top: "inception_5a/3x3"
  param {
    lr_mult: 1
    decay_mult: 1
  }
  param {
    lr_mult: 2
    decay_mult: 0
  }
  convolution_param {
    num_output: 48
    pad: 1
    kernel_size: 3
    weight_filler {
      type: "xavier"
      std: 0.03
    }
    bias_filler {
      type: "constant"
      value: 0.2
    }
  }
}
layer {
  name: "inception_5a/3x3/bn1"
  type: "BatchNorm"
  bottom: "inception_5a/3x3"
  top: "inception_5a/3x3"
  param {
    lr_mult: 0
    decay_mult: 0
  }
  param {
    lr_mult: 0
    decay_mult: 0
  }
  param {
    lr_mult: 0
    decay_mult: 0
  }
  batch_norm_param {
    use_global_stats: true
  }
}
layer {
  name: "inception_5a/3x3/scale1"
  type: "Scale"
  bottom: "inception_5a/3x3"
  top: "inception_5a/3x3"
  scale_param {
    bias_term: true
  }
}
layer {
  name: "inception_5a/3x3/relu1"
  type: "ReLU"
  bottom: "inception_5a/3x3"
  top: "inception_5a/3x3"
}
layer {
  name: "inception_5a/output"
  type: "Concat"
  bottom: "inception_5a/1x1"
  bottom: "inception_5a/3x3"
  top: "inception_5a/output"
}
layer {
  name: "inception_6a/1x1"
  type: "Convolution"
  bottom: "inception_5a/output"
  top: "inception_6a/1x1"
  param {
    lr_mult: 1
    decay_mult: 1
  }
  param {
    lr_mult: 2
    decay_mult: 0
  }
  convolution_param {
    num_output: 96
    kernel_size: 1
    weight_filler {
      type: "xavier"
      std: 0.03
    }
    bias_filler {
      type: "constant"
      value: 0.2
    }
  }
}
layer {
  name: "inception_6a/1x1/bn1"
  type: "BatchNorm"
  bottom: "inception_6a/1x1"
  top: "inception_6a/1x1"
  param {
    lr_mult: 0
    decay_mult: 0
  }
  param {
    lr_mult: 0
    decay_mult: 0
  }
  param {
    lr_mult: 0
    decay_mult: 0
  }
  batch_norm_param {
    use_global_stats: true
  }
}
layer {
  name: "inception_6a/1x1/scale1"
  type: "Scale"
  bottom: "inception_6a/1x1"
  top: "inception_6a/1x1"
  scale_param {
    bias_term: true
  }
}
layer {
  name: "inception_6a/1x1/relu1"
  type: "ReLU"
  bottom: "inception_6a/1x1"
  top: "inception_6a/1x1"
}
layer {
  name: "inception_6a/3x3"
  type: "Convolution"
  bottom: "inception_5a/output"
  top: "inception_6a/3x3"
  param {
    lr_mult: 1
    decay_mult: 1
  }
  param {
    lr_mult: 2
    decay_mult: 0
  }
  convolution_param {
    num_output: 64
    pad: 1
    kernel_size: 3
    weight_filler {
      type: "xavier"
      std: 0.03
    }
    bias_filler {
      type: "constant"
      value: 0.2
    }
  }
}
layer {
  name: "inception_6a/3x3/bn1"
  type: "BatchNorm"
  bottom: "inception_6a/3x3"
  top: "inception_6a/3x3"
  param {
    lr_mult: 0
    decay_mult: 0
  }
  param {
    lr_mult: 0
    decay_mult: 0
  }
  param {
    lr_mult: 0
    decay_mult: 0
  }
  batch_norm_param {
    use_global_stats: true
  }
}
layer {
  name: "inception_6a/3x3/scale1"
  type: "Scale"
  bottom: "inception_6a/3x3"
  top: "inception_6a/3x3"
  scale_param {
    bias_term: true
  }
}
layer {
  name: "inception_6a/3x3/relu1"
  type: "ReLU"
  bottom: "inception_6a/3x3"
  top: "inception_6a/3x3"
}
layer {
  name: "inception_6a/output"
  type: "Concat"
  bottom: "inception_6a/1x1"
  bottom: "inception_6a/3x3"
  top: "inception_6a/output"
}
layer {
  name: "inception_7a/1x1"
  type: "Convolution"
  bottom: "inception_6a/output"
  top: "inception_7a/1x1"
  param {
    lr_mult: 1
    decay_mult: 1
  }
  param {
    lr_mult: 2
    decay_mult: 0
  }
  convolution_param {
    num_output: 80
    kernel_size: 1
    weight_filler {
      type: "xavier"
      std: 0.03
    }
    bias_filler {
      type: "constant"
      value: 0.2
    }
  }
}
layer {
  name: "inception_7a/1x1/bn1"
  type: "BatchNorm"
  bottom: "inception_7a/1x1"
  top: "inception_7a/1x1"
  param {
    lr_mult: 0
    decay_mult: 0
  }
  param {
    lr_mult: 0
    decay_mult: 0
  }
  param {
    lr_mult: 0
    decay_mult: 0
  }
  batch_norm_param {
    use_global_stats: true
  }
}
layer {
  name: "inception_7a/1x1/scale1"
  type: "Scale"
  bottom: "inception_7a/1x1"
  top: "inception_7a/1x1"
  scale_param {
    bias_term: true
  }
}
layer {
  name: "inception_7a/1x1/relu1"
  type: "ReLU"
  bottom: "inception_7a/1x1"
  top: "inception_7a/1x1"
}
layer {
  name: "inception_7a/3x3"
  type: "Convolution"
  bottom: "inception_6a/output"
  top: "inception_7a/3x3"
  param {
    lr_mult: 1
    decay_mult: 1
  }
  param {
    lr_mult: 2
    decay_mult: 0
  }
  convolution_param {
    num_output: 80
    pad: 1
    kernel_size: 3
    weight_filler {
      type: "xavier"
      std: 0.03
    }
    bias_filler {
      type: "constant"
      value: 0.2
    }
  }
}
layer {
  name: "inception_7a/3x3/bn1"
  type: "BatchNorm"
  bottom: "inception_7a/3x3"
  top: "inception_7a/3x3"
  param {
    lr_mult: 0
    decay_mult: 0
  }
  param {
    lr_mult: 0
    decay_mult: 0
  }
  param {
    lr_mult: 0
    decay_mult: 0
  }
  batch_norm_param {
    use_global_stats: true
  }
}
layer {
  name: "inception_7a/3x3/scale1"
  type: "Scale"
  bottom: "inception_7a/3x3"
  top: "inception_7a/3x3"
  scale_param {
    bias_term: true
  }
}
layer {
  name: "inception_7a/3x3/relu1"
  type: "ReLU"
  bottom: "inception_7a/3x3"
  top: "inception_7a/3x3"
}
layer {
  name: "inception_7a/output"
  type: "Concat"
  bottom: "inception_7a/1x1"
  bottom: "inception_7a/3x3"
  top: "inception_7a/output"
}
layer {
  name: "inception_8a/1x1"
  type: "Convolution"
  bottom: "inception_7a/output"
  top: "inception_8a/1x1"
  param {
    lr_mult: 1
    decay_mult: 1
  }
  param {
    lr_mult: 2
    decay_mult: 0
  }
  convolution_param {
    num_output: 48
    kernel_size: 1
    weight_filler {
      type: "xavier"
      std: 0.03
    }
    bias_filler {
      type: "constant"
      value: 0.2
    }
  }
}
layer {
  name: "inception_8a/1x1/bn1"
  type: "BatchNorm"
  bottom: "inception_8a/1x1"
  top: "inception_8a/1x1"
  param {
    lr_mult: 0
    decay_mult: 0
  }
  param {
    lr_mult: 0
    decay_mult: 0
  }
  param {
    lr_mult: 0
    decay_mult: 0
  }
  batch_norm_param {
    use_global_stats: true
  }
}
layer {
  name: "inception_8a/1x1/scale1"
  type: "Scale"
  bottom: "inception_8a/1x1"
  top: "inception_8a/1x1"
  scale_param {
    bias_term: true
  }
}
layer {
  name: "inception_8a/1x1/relu1"
  type: "ReLU"
  bottom: "inception_8a/1x1"
  top: "inception_8a/1x1"
}
layer {
  name: "inception_8a/3x3"
  type: "Convolution"
  bottom: "inception_7a/output"
  top: "inception_8a/3x3"
  param {
    lr_mult: 1
    decay_mult: 1
  }
  param {
    lr_mult: 2
    decay_mult: 0
  }
  convolution_param {
    num_output: 96
    pad: 1
    kernel_size: 3
    weight_filler {
      type: "xavier"
      std: 0.03
    }
    bias_filler {
      type: "constant"
      value: 0.2
    }
  }
}
layer {
  name: "inception_8a/3x3/bn1"
  type: "BatchNorm"
  bottom: "inception_8a/3x3"
  top: "inception_8a/3x3"
  param {
    lr_mult: 0
    decay_mult: 0
  }
  param {
    lr_mult: 0
    decay_mult: 0
  }
  param {
    lr_mult: 0
    decay_mult: 0
  }
  batch_norm_param {
    use_global_stats: true
  }
}
layer {
  name: "inception_8a/3x3/scale1"
  type: "Scale"
  bottom: "inception_8a/3x3"
  top: "inception_8a/3x3"
  scale_param {
    bias_term: true
  }
}
layer {
  name: "inception_8a/3x3/relu1"
  type: "ReLU"
  bottom: "inception_8a/3x3"
  top: "inception_8a/3x3"
}
layer {
  name: "inception_8a/output"
  type: "Concat"
  bottom: "inception_8a/1x1"
  bottom: "inception_8a/3x3"
  top: "inception_8a/output"
}
layer {
  name: "downsample_9/3x3_s2"
  type: "Convolution"
  bottom: "inception_8a/output"
  top: "downsample_9/3x3_s2"
  param {
    lr_mult: 1
    decay_mult: 1
  }
  param {
    lr_mult: 2
    decay_mult: 0
  }
  convolution_param {
    num_output: 96
    pad: 1
    kernel_size: 3
    stride: 2
    weight_filler {
      type: "xavier"
      std: 0.03
    }
    bias_filler {
      type: "constant"
      value: 0.2
    }
  }
}
layer {
  name: "downsample_9/3x3_s2/bn1"
  type: "BatchNorm"
  bottom: "downsample_9/3x3_s2"
  top: "downsample_9/3x3_s2"
  param {
    lr_mult: 0
    decay_mult: 0
  }
  param {
    lr_mult: 0
    decay_mult: 0
  }
  param {
    lr_mult: 0
    decay_mult: 0
  }
  batch_norm_param {
    use_global_stats: true
  }
}
layer {
  name: "downsample_9/3x3_s2/scale1"
  type: "Scale"
  bottom: "downsample_9/3x3_s2"
  top: "downsample_9/3x3_s2"
  scale_param {
    bias_term: true
  }
}
layer {
  name: "downsample_9/3x3_s2/relu1"
  type: "ReLU"
  bottom: "downsample_9/3x3_s2"
  top: "downsample_9/3x3_s2"
}
layer {
  name: "downsample_9/pool_s2"
  type: "Pooling"
  bottom: "inception_8a/output"
  top: "downsample_9/pool_s2"
  pooling_param {
    pool: MAX
    kernel_size: 3
    stride: 2
  }
}
layer {
  name: "downsample_9/output"
  type: "Concat"
  bottom: "downsample_9/3x3_s2"
  bottom: "downsample_9/pool_s2"
  top: "downsample_9/output"
}
layer {
  name: "inception_10a/1x1"
  type: "Convolution"
  bottom: "downsample_9/output"
  top: "inception_10a/1x1"
  param {
    lr_mult: 1
    decay_mult: 1
  }
  param {
    lr_mult: 2
    decay_mult: 0
  }
  convolution_param {
    num_output: 176
    kernel_size: 1
    weight_filler {
      type: "xavier"
      std: 0.03
    }
    bias_filler {
      type: "constant"
      value: 0.2
    }
  }
}
layer {
  name: "inception_10a/1x1/bn1"
  type: "BatchNorm"
  bottom: "inception_10a/1x1"
  top: "inception_10a/1x1"
  param {
    lr_mult: 0
    decay_mult: 0
  }
  param {
    lr_mult: 0
    decay_mult: 0
  }
  param {
    lr_mult: 0
    decay_mult: 0
  }
  batch_norm_param {
    use_global_stats: true
  }
}
layer {
  name: "inception_10a/1x1/scale1"
  type: "Scale"
  bottom: "inception_10a/1x1"
  top: "inception_10a/1x1"
  scale_param {
    bias_term: true
  }
}
layer {
  name: "inception_10a/1x1/relu1"
  type: "ReLU"
  bottom: "inception_10a/1x1"
  top: "inception_10a/1x1"
}
layer {
  name: "inception_10a/3x3"
  type: "Convolution"
  bottom: "downsample_9/output"
  top: "inception_10a/3x3"
  param {
    lr_mult: 1
    decay_mult: 1
  }
  param {
    lr_mult: 2
    decay_mult: 0
  }
  convolution_param {
    num_output: 160
    pad: 1
    kernel_size: 3
    weight_filler {
      type: "xavier"
      std: 0.03
    }
    bias_filler {
      type: "constant"
      value: 0.2
    }
  }
}
layer {
  name: "inception_10a/3x3/bn1"
  type: "BatchNorm"
  bottom: "inception_10a/3x3"
  top: "inception_10a/3x3"
  param {
    lr_mult: 0
    decay_mult: 0
  }
  param {
    lr_mult: 0
    decay_mult: 0
  }
  param {
    lr_mult: 0
    decay_mult: 0
  }
  batch_norm_param {
    use_global_stats: true
  }
}
layer {
  name: "inception_10a/3x3/scale1"
  type: "Scale"
  bottom: "inception_10a/3x3"
  top: "inception_10a/3x3"
  scale_param {
    bias_term: true
  }
}
layer {
  name: "inception_10a/3x3/relu1"
  type: "ReLU"
  bottom: "inception_10a/3x3"
  top: "inception_10a/3x3"
}
layer {
  name: "inception_10a/output"
  type: "Concat"
  bottom: "inception_10a/1x1"
  bottom: "inception_10a/3x3"
  top: "inception_10a/output"
}
layer {
  name: "inception_11a/1x1"
  type: "Convolution"
  bottom: "inception_10a/output"
  top: "inception_11a/1x1"
  param {
    lr_mult: 1
    decay_mult: 1
  }
  param {
    lr_mult: 2
    decay_mult: 0
  }
  convolution_param {
    num_output: 176
    kernel_size: 1
    weight_filler {
      type: "xavier"
      std: 0.03
    }
    bias_filler {
      type: "constant"
      value: 0.2
    }
  }
}
layer {
  name: "inception_11a/1x1/bn1"
  type: "BatchNorm"
  bottom: "inception_11a/1x1"
  top: "inception_11a/1x1"
  param {
    lr_mult: 0
    decay_mult: 0
  }
  param {
    lr_mult: 0
    decay_mult: 0
  }
  param {
    lr_mult: 0
    decay_mult: 0
  }
  batch_norm_param {
    use_global_stats: true
  }
}
layer {
  name: "inception_11a/1x1/scale1"
  type: "Scale"
  bottom: "inception_11a/1x1"
  top: "inception_11a/1x1"
  scale_param {
    bias_term: true
  }
}
layer {
  name: "inception_11a/1x1/relu1"
  type: "ReLU"
  bottom: "inception_11a/1x1"
  top: "inception_11a/1x1"
}
layer {
  name: "inception_11a/3x3"
  type: "Convolution"
  bottom: "inception_10a/output"
  top: "inception_11a/3x3"
  param {
    lr_mult: 1
    decay_mult: 1
  }
  param {
    lr_mult: 2
    decay_mult: 0
  }
  convolution_param {
    num_output: 160
    pad: 1
    kernel_size: 3
    weight_filler {
      type: "xavier"
      std: 0.03
    }
    bias_filler {
      type: "constant"
      value: 0.2
    }
  }
}
layer {
  name: "inception_11a/3x3/bn1"
  type: "BatchNorm"
  bottom: "inception_11a/3x3"
  top: "inception_11a/3x3"
  param {
    lr_mult: 0
    decay_mult: 0
  }
  param {
    lr_mult: 0
    decay_mult: 0
  }
  param {
    lr_mult: 0
    decay_mult: 0
  }
  batch_norm_param {
    use_global_stats: true
  }
}
layer {
  name: "inception_11a/3x3/scale1"
  type: "Scale"
  bottom: "inception_11a/3x3"
  top: "inception_11a/3x3"
  scale_param {
    bias_term: true
  }
}
layer {
  name: "inception_11a/3x3/relu1"
  type: "ReLU"
  bottom: "inception_11a/3x3"
  top: "inception_11a/3x3"
}
layer {
  name: "inception_11a/output"
  type: "Concat"
  bottom: "inception_11a/1x1"
  bottom: "inception_11a/3x3"
  top: "inception_11a/output"
}
layer {
  name: "avg_pool_12/8x8_s1"
  type: "Pooling"
  bottom: "inception_11a/output"
  top: "avg_pool_12/8x8_s1"
  pooling_param {
    pool: AVE
    kernel_size: 8
    stride: 1
  }
}
layer {
  name: "drop_8x8_s1"
  type: "Dropout"
  bottom: "avg_pool_12/8x8_s1"
  top: "avg_pool_12/8x8_s1"
  dropout_param {
    dropout_ratio: 0.5
  }
}
layer {
  name: "loss/classifier"
  type: "InnerProduct"
  bottom: "avg_pool_12/8x8_s1"
  top: "loss/classifier"
  param {
    lr_mult: 1
    decay_mult: 1
  }
  param {
    lr_mult: 2
    decay_mult: 0
  }
  inner_product_param {
    num_output: 10
    weight_filler {
      type: "xavier"
    }
    bias_filler {
      type: "constant"
      value: 1
    }
  }
}
layer {
  name: "prob"
  type: "Softmax"
  bottom: "loss/classifier"
  top: "prob"
}
I0121 22:32:42.513691  1946 layer_factory.hpp:77] Creating layer data
I0121 22:32:42.513813  1946 net.cpp:84] Creating Layer data
I0121 22:32:42.513825  1946 net.cpp:380] data -> data
I0121 22:32:42.546743  1946 net.cpp:122] Setting up data
I0121 22:32:42.546777  1946 net.cpp:129] Top shape: 1 3 32 32 (3072)
I0121 22:32:42.546782  1946 net.cpp:137] Memory required for data: 12288
I0121 22:32:42.546788  1946 layer_factory.hpp:77] Creating layer conv1/3x3_s1
I0121 22:32:42.546808  1946 net.cpp:84] Creating Layer conv1/3x3_s1
I0121 22:32:42.546816  1946 net.cpp:406] conv1/3x3_s1 <- data
I0121 22:32:42.546826  1946 net.cpp:380] conv1/3x3_s1 -> conv1/3x3_s1
I0121 22:32:42.975030  1946 net.cpp:122] Setting up conv1/3x3_s1
I0121 22:32:42.975085  1946 net.cpp:129] Top shape: 1 96 32 32 (98304)
I0121 22:32:42.975090  1946 net.cpp:137] Memory required for data: 405504
I0121 22:32:42.975111  1946 layer_factory.hpp:77] Creating layer conv1/bn1
I0121 22:32:42.975134  1946 net.cpp:84] Creating Layer conv1/bn1
I0121 22:32:42.975152  1946 net.cpp:406] conv1/bn1 <- conv1/3x3_s1
I0121 22:32:42.975164  1946 net.cpp:367] conv1/bn1 -> conv1/3x3_s1 (in-place)
I0121 22:32:42.975430  1946 net.cpp:122] Setting up conv1/bn1
I0121 22:32:42.975453  1946 net.cpp:129] Top shape: 1 96 32 32 (98304)
I0121 22:32:42.975461  1946 net.cpp:137] Memory required for data: 798720
I0121 22:32:42.975483  1946 layer_factory.hpp:77] Creating layer conv1/scale1
I0121 22:32:42.976831  1946 net.cpp:84] Creating Layer conv1/scale1
I0121 22:32:42.976850  1946 net.cpp:406] conv1/scale1 <- conv1/3x3_s1
I0121 22:32:42.976861  1946 net.cpp:367] conv1/scale1 -> conv1/3x3_s1 (in-place)
I0121 22:32:42.976928  1946 layer_factory.hpp:77] Creating layer conv1/scale1
I0121 22:32:42.978009  1946 net.cpp:122] Setting up conv1/scale1
I0121 22:32:42.978034  1946 net.cpp:129] Top shape: 1 96 32 32 (98304)
I0121 22:32:42.978042  1946 net.cpp:137] Memory required for data: 1191936
I0121 22:32:42.978055  1946 layer_factory.hpp:77] Creating layer conv1/relu1
I0121 22:32:42.978068  1946 net.cpp:84] Creating Layer conv1/relu1
I0121 22:32:42.978076  1946 net.cpp:406] conv1/relu1 <- conv1/3x3_s1
I0121 22:32:42.978085  1946 net.cpp:367] conv1/relu1 -> conv1/3x3_s1 (in-place)
I0121 22:32:42.979233  1946 net.cpp:122] Setting up conv1/relu1
I0121 22:32:42.979254  1946 net.cpp:129] Top shape: 1 96 32 32 (98304)
I0121 22:32:42.979264  1946 net.cpp:137] Memory required for data: 1585152
I0121 22:32:42.979270  1946 layer_factory.hpp:77] Creating layer conv1/3x3_s1_conv1/relu1_0_split
I0121 22:32:42.980008  1946 net.cpp:84] Creating Layer conv1/3x3_s1_conv1/relu1_0_split
I0121 22:32:42.980026  1946 net.cpp:406] conv1/3x3_s1_conv1/relu1_0_split <- conv1/3x3_s1
I0121 22:32:42.980037  1946 net.cpp:380] conv1/3x3_s1_conv1/relu1_0_split -> conv1/3x3_s1_conv1/relu1_0_split_0
I0121 22:32:42.980051  1946 net.cpp:380] conv1/3x3_s1_conv1/relu1_0_split -> conv1/3x3_s1_conv1/relu1_0_split_1
I0121 22:32:42.980113  1946 net.cpp:122] Setting up conv1/3x3_s1_conv1/relu1_0_split
I0121 22:32:42.980134  1946 net.cpp:129] Top shape: 1 96 32 32 (98304)
I0121 22:32:42.980144  1946 net.cpp:129] Top shape: 1 96 32 32 (98304)
I0121 22:32:42.980165  1946 net.cpp:137] Memory required for data: 2371584
I0121 22:32:42.980171  1946 layer_factory.hpp:77] Creating layer inception_2a/1x1
I0121 22:32:42.980190  1946 net.cpp:84] Creating Layer inception_2a/1x1
I0121 22:32:42.980197  1946 net.cpp:406] inception_2a/1x1 <- conv1/3x3_s1_conv1/relu1_0_split_0
I0121 22:32:42.980208  1946 net.cpp:380] inception_2a/1x1 -> inception_2a/1x1
I0121 22:32:42.981261  1946 net.cpp:122] Setting up inception_2a/1x1
I0121 22:32:42.981290  1946 net.cpp:129] Top shape: 1 32 32 32 (32768)
I0121 22:32:42.981298  1946 net.cpp:137] Memory required for data: 2502656
I0121 22:32:42.981317  1946 layer_factory.hpp:77] Creating layer inception_2a/1x1/bn1
I0121 22:32:42.981329  1946 net.cpp:84] Creating Layer inception_2a/1x1/bn1
I0121 22:32:42.981338  1946 net.cpp:406] inception_2a/1x1/bn1 <- inception_2a/1x1
I0121 22:32:42.981348  1946 net.cpp:367] inception_2a/1x1/bn1 -> inception_2a/1x1 (in-place)
I0121 22:32:42.981552  1946 net.cpp:122] Setting up inception_2a/1x1/bn1
I0121 22:32:42.981572  1946 net.cpp:129] Top shape: 1 32 32 32 (32768)
I0121 22:32:42.981580  1946 net.cpp:137] Memory required for data: 2633728
I0121 22:32:42.981593  1946 layer_factory.hpp:77] Creating layer inception_2a/1x1/scale1
I0121 22:32:42.981607  1946 net.cpp:84] Creating Layer inception_2a/1x1/scale1
I0121 22:32:42.981616  1946 net.cpp:406] inception_2a/1x1/scale1 <- inception_2a/1x1
I0121 22:32:42.981624  1946 net.cpp:367] inception_2a/1x1/scale1 -> inception_2a/1x1 (in-place)
I0121 22:32:42.981685  1946 layer_factory.hpp:77] Creating layer inception_2a/1x1/scale1
I0121 22:32:42.981883  1946 net.cpp:122] Setting up inception_2a/1x1/scale1
I0121 22:32:42.981904  1946 net.cpp:129] Top shape: 1 32 32 32 (32768)
I0121 22:32:42.981910  1946 net.cpp:137] Memory required for data: 2764800
I0121 22:32:42.981923  1946 layer_factory.hpp:77] Creating layer inception_2a/1x1/relu1
I0121 22:32:42.981941  1946 net.cpp:84] Creating Layer inception_2a/1x1/relu1
I0121 22:32:42.981948  1946 net.cpp:406] inception_2a/1x1/relu1 <- inception_2a/1x1
I0121 22:32:42.981957  1946 net.cpp:367] inception_2a/1x1/relu1 -> inception_2a/1x1 (in-place)
I0121 22:32:42.982265  1946 net.cpp:122] Setting up inception_2a/1x1/relu1
I0121 22:32:42.982292  1946 net.cpp:129] Top shape: 1 32 32 32 (32768)
I0121 22:32:42.982300  1946 net.cpp:137] Memory required for data: 2895872
I0121 22:32:42.982307  1946 layer_factory.hpp:77] Creating layer inception_2a/3x3
I0121 22:32:42.982323  1946 net.cpp:84] Creating Layer inception_2a/3x3
I0121 22:32:42.982336  1946 net.cpp:406] inception_2a/3x3 <- conv1/3x3_s1_conv1/relu1_0_split_1
I0121 22:32:42.982347  1946 net.cpp:380] inception_2a/3x3 -> inception_2a/3x3
I0121 22:32:42.984076  1946 net.cpp:122] Setting up inception_2a/3x3
I0121 22:32:42.984104  1946 net.cpp:129] Top shape: 1 32 32 32 (32768)
I0121 22:32:42.984110  1946 net.cpp:137] Memory required for data: 3026944
I0121 22:32:42.984119  1946 layer_factory.hpp:77] Creating layer inception_2a/3x3/bn1
I0121 22:32:42.984128  1946 net.cpp:84] Creating Layer inception_2a/3x3/bn1
I0121 22:32:42.984133  1946 net.cpp:406] inception_2a/3x3/bn1 <- inception_2a/3x3
I0121 22:32:42.984140  1946 net.cpp:367] inception_2a/3x3/bn1 -> inception_2a/3x3 (in-place)
I0121 22:32:42.984349  1946 net.cpp:122] Setting up inception_2a/3x3/bn1
I0121 22:32:42.984365  1946 net.cpp:129] Top shape: 1 32 32 32 (32768)
I0121 22:32:42.984370  1946 net.cpp:137] Memory required for data: 3158016
I0121 22:32:42.984383  1946 layer_factory.hpp:77] Creating layer inception_2a/3x3/scale1
I0121 22:32:42.984395  1946 net.cpp:84] Creating Layer inception_2a/3x3/scale1
I0121 22:32:42.984398  1946 net.cpp:406] inception_2a/3x3/scale1 <- inception_2a/3x3
I0121 22:32:42.984406  1946 net.cpp:367] inception_2a/3x3/scale1 -> inception_2a/3x3 (in-place)
I0121 22:32:42.984469  1946 layer_factory.hpp:77] Creating layer inception_2a/3x3/scale1
I0121 22:32:42.984591  1946 net.cpp:122] Setting up inception_2a/3x3/scale1
I0121 22:32:42.984601  1946 net.cpp:129] Top shape: 1 32 32 32 (32768)
I0121 22:32:42.984604  1946 net.cpp:137] Memory required for data: 3289088
I0121 22:32:42.984612  1946 layer_factory.hpp:77] Creating layer inception_2a/3x3/relu1
I0121 22:32:42.984621  1946 net.cpp:84] Creating Layer inception_2a/3x3/relu1
I0121 22:32:42.984624  1946 net.cpp:406] inception_2a/3x3/relu1 <- inception_2a/3x3
I0121 22:32:42.984629  1946 net.cpp:367] inception_2a/3x3/relu1 -> inception_2a/3x3 (in-place)
I0121 22:32:42.984755  1946 net.cpp:122] Setting up inception_2a/3x3/relu1
I0121 22:32:42.984766  1946 net.cpp:129] Top shape: 1 32 32 32 (32768)
I0121 22:32:42.984769  1946 net.cpp:137] Memory required for data: 3420160
I0121 22:32:42.984773  1946 layer_factory.hpp:77] Creating layer inception_2a/output
I0121 22:32:42.984782  1946 net.cpp:84] Creating Layer inception_2a/output
I0121 22:32:42.984786  1946 net.cpp:406] inception_2a/output <- inception_2a/1x1
I0121 22:32:42.984791  1946 net.cpp:406] inception_2a/output <- inception_2a/3x3
I0121 22:32:42.984797  1946 net.cpp:380] inception_2a/output -> inception_2a/output
I0121 22:32:42.984829  1946 net.cpp:122] Setting up inception_2a/output
I0121 22:32:42.984838  1946 net.cpp:129] Top shape: 1 64 32 32 (65536)
I0121 22:32:42.984841  1946 net.cpp:137] Memory required for data: 3682304
I0121 22:32:42.984845  1946 layer_factory.hpp:77] Creating layer inception_2a/output_inception_2a/output_0_split
I0121 22:32:42.984853  1946 net.cpp:84] Creating Layer inception_2a/output_inception_2a/output_0_split
I0121 22:32:42.984856  1946 net.cpp:406] inception_2a/output_inception_2a/output_0_split <- inception_2a/output
I0121 22:32:42.984861  1946 net.cpp:380] inception_2a/output_inception_2a/output_0_split -> inception_2a/output_inception_2a/output_0_split_0
I0121 22:32:42.984867  1946 net.cpp:380] inception_2a/output_inception_2a/output_0_split -> inception_2a/output_inception_2a/output_0_split_1
I0121 22:32:42.984902  1946 net.cpp:122] Setting up inception_2a/output_inception_2a/output_0_split
I0121 22:32:42.984910  1946 net.cpp:129] Top shape: 1 64 32 32 (65536)
I0121 22:32:42.984915  1946 net.cpp:129] Top shape: 1 64 32 32 (65536)
I0121 22:32:42.984918  1946 net.cpp:137] Memory required for data: 4206592
I0121 22:32:42.984922  1946 layer_factory.hpp:77] Creating layer inception_3a/1x1
I0121 22:32:42.984933  1946 net.cpp:84] Creating Layer inception_3a/1x1
I0121 22:32:42.984938  1946 net.cpp:406] inception_3a/1x1 <- inception_2a/output_inception_2a/output_0_split_0
I0121 22:32:42.984944  1946 net.cpp:380] inception_3a/1x1 -> inception_3a/1x1
I0121 22:32:42.985961  1946 net.cpp:122] Setting up inception_3a/1x1
I0121 22:32:42.985991  1946 net.cpp:129] Top shape: 1 32 32 32 (32768)
I0121 22:32:42.985996  1946 net.cpp:137] Memory required for data: 4337664
I0121 22:32:42.986006  1946 layer_factory.hpp:77] Creating layer inception_3a/1x1/bn1
I0121 22:32:42.986014  1946 net.cpp:84] Creating Layer inception_3a/1x1/bn1
I0121 22:32:42.986022  1946 net.cpp:406] inception_3a/1x1/bn1 <- inception_3a/1x1
I0121 22:32:42.986037  1946 net.cpp:367] inception_3a/1x1/bn1 -> inception_3a/1x1 (in-place)
I0121 22:32:42.986281  1946 net.cpp:122] Setting up inception_3a/1x1/bn1
I0121 22:32:42.986302  1946 net.cpp:129] Top shape: 1 32 32 32 (32768)
I0121 22:32:42.986306  1946 net.cpp:137] Memory required for data: 4468736
I0121 22:32:42.986316  1946 layer_factory.hpp:77] Creating layer inception_3a/1x1/scale1
I0121 22:32:42.986325  1946 net.cpp:84] Creating Layer inception_3a/1x1/scale1
I0121 22:32:42.986331  1946 net.cpp:406] inception_3a/1x1/scale1 <- inception_3a/1x1
I0121 22:32:42.986340  1946 net.cpp:367] inception_3a/1x1/scale1 -> inception_3a/1x1 (in-place)
I0121 22:32:42.986410  1946 layer_factory.hpp:77] Creating layer inception_3a/1x1/scale1
I0121 22:32:42.986572  1946 net.cpp:122] Setting up inception_3a/1x1/scale1
I0121 22:32:42.986594  1946 net.cpp:129] Top shape: 1 32 32 32 (32768)
I0121 22:32:42.986601  1946 net.cpp:137] Memory required for data: 4599808
I0121 22:32:42.986613  1946 layer_factory.hpp:77] Creating layer inception_3a/1x1/relu1
I0121 22:32:42.986635  1946 net.cpp:84] Creating Layer inception_3a/1x1/relu1
I0121 22:32:42.986644  1946 net.cpp:406] inception_3a/1x1/relu1 <- inception_3a/1x1
I0121 22:32:42.986660  1946 net.cpp:367] inception_3a/1x1/relu1 -> inception_3a/1x1 (in-place)
I0121 22:32:42.986944  1946 net.cpp:122] Setting up inception_3a/1x1/relu1
I0121 22:32:42.986971  1946 net.cpp:129] Top shape: 1 32 32 32 (32768)
I0121 22:32:42.986979  1946 net.cpp:137] Memory required for data: 4730880
I0121 22:32:42.986986  1946 layer_factory.hpp:77] Creating layer inception_3a/3x3
I0121 22:32:42.987007  1946 net.cpp:84] Creating Layer inception_3a/3x3
I0121 22:32:42.987020  1946 net.cpp:406] inception_3a/3x3 <- inception_2a/output_inception_2a/output_0_split_1
I0121 22:32:42.987033  1946 net.cpp:380] inception_3a/3x3 -> inception_3a/3x3
I0121 22:32:42.988108  1946 net.cpp:122] Setting up inception_3a/3x3
I0121 22:32:42.988137  1946 net.cpp:129] Top shape: 1 48 32 32 (49152)
I0121 22:32:42.988147  1946 net.cpp:137] Memory required for data: 4927488
I0121 22:32:42.988158  1946 layer_factory.hpp:77] Creating layer inception_3a/3x3/bn1
I0121 22:32:42.988175  1946 net.cpp:84] Creating Layer inception_3a/3x3/bn1
I0121 22:32:42.988190  1946 net.cpp:406] inception_3a/3x3/bn1 <- inception_3a/3x3
I0121 22:32:42.988203  1946 net.cpp:367] inception_3a/3x3/bn1 -> inception_3a/3x3 (in-place)
I0121 22:32:42.988420  1946 net.cpp:122] Setting up inception_3a/3x3/bn1
I0121 22:32:42.988440  1946 net.cpp:129] Top shape: 1 48 32 32 (49152)
I0121 22:32:42.988446  1946 net.cpp:137] Memory required for data: 5124096
I0121 22:32:42.988466  1946 layer_factory.hpp:77] Creating layer inception_3a/3x3/scale1
I0121 22:32:42.988488  1946 net.cpp:84] Creating Layer inception_3a/3x3/scale1
I0121 22:32:42.988497  1946 net.cpp:406] inception_3a/3x3/scale1 <- inception_3a/3x3
I0121 22:32:42.988507  1946 net.cpp:367] inception_3a/3x3/scale1 -> inception_3a/3x3 (in-place)
I0121 22:32:42.988569  1946 layer_factory.hpp:77] Creating layer inception_3a/3x3/scale1
I0121 22:32:42.988708  1946 net.cpp:122] Setting up inception_3a/3x3/scale1
I0121 22:32:42.988728  1946 net.cpp:129] Top shape: 1 48 32 32 (49152)
I0121 22:32:42.988734  1946 net.cpp:137] Memory required for data: 5320704
I0121 22:32:42.988745  1946 layer_factory.hpp:77] Creating layer inception_3a/3x3/relu1
I0121 22:32:42.988765  1946 net.cpp:84] Creating Layer inception_3a/3x3/relu1
I0121 22:32:42.988772  1946 net.cpp:406] inception_3a/3x3/relu1 <- inception_3a/3x3
I0121 22:32:42.988780  1946 net.cpp:367] inception_3a/3x3/relu1 -> inception_3a/3x3 (in-place)
I0121 22:32:42.988942  1946 net.cpp:122] Setting up inception_3a/3x3/relu1
I0121 22:32:42.988966  1946 net.cpp:129] Top shape: 1 48 32 32 (49152)
I0121 22:32:42.988973  1946 net.cpp:137] Memory required for data: 5517312
I0121 22:32:42.988981  1946 layer_factory.hpp:77] Creating layer inception_3a/output
I0121 22:32:42.988991  1946 net.cpp:84] Creating Layer inception_3a/output
I0121 22:32:42.989003  1946 net.cpp:406] inception_3a/output <- inception_3a/1x1
I0121 22:32:42.989013  1946 net.cpp:406] inception_3a/output <- inception_3a/3x3
I0121 22:32:42.989027  1946 net.cpp:380] inception_3a/output -> inception_3a/output
I0121 22:32:42.989073  1946 net.cpp:122] Setting up inception_3a/output
I0121 22:32:42.989095  1946 net.cpp:129] Top shape: 1 80 32 32 (81920)
I0121 22:32:42.989104  1946 net.cpp:137] Memory required for data: 5844992
I0121 22:32:42.989109  1946 layer_factory.hpp:77] Creating layer inception_3a/output_inception_3a/output_0_split
I0121 22:32:42.989120  1946 net.cpp:84] Creating Layer inception_3a/output_inception_3a/output_0_split
I0121 22:32:42.989126  1946 net.cpp:406] inception_3a/output_inception_3a/output_0_split <- inception_3a/output
I0121 22:32:42.989135  1946 net.cpp:380] inception_3a/output_inception_3a/output_0_split -> inception_3a/output_inception_3a/output_0_split_0
I0121 22:32:42.989145  1946 net.cpp:380] inception_3a/output_inception_3a/output_0_split -> inception_3a/output_inception_3a/output_0_split_1
I0121 22:32:42.989209  1946 net.cpp:122] Setting up inception_3a/output_inception_3a/output_0_split
I0121 22:32:42.989229  1946 net.cpp:129] Top shape: 1 80 32 32 (81920)
I0121 22:32:42.989238  1946 net.cpp:129] Top shape: 1 80 32 32 (81920)
I0121 22:32:42.989243  1946 net.cpp:137] Memory required for data: 6500352
I0121 22:32:42.989250  1946 layer_factory.hpp:77] Creating layer downsample_4/3x3_s2
I0121 22:32:42.989269  1946 net.cpp:84] Creating Layer downsample_4/3x3_s2
I0121 22:32:42.989284  1946 net.cpp:406] downsample_4/3x3_s2 <- inception_3a/output_inception_3a/output_0_split_0
I0121 22:32:42.989300  1946 net.cpp:380] downsample_4/3x3_s2 -> downsample_4/3x3_s2
I0121 22:32:42.990542  1946 net.cpp:122] Setting up downsample_4/3x3_s2
I0121 22:32:42.990572  1946 net.cpp:129] Top shape: 1 80 16 16 (20480)
I0121 22:32:42.990581  1946 net.cpp:137] Memory required for data: 6582272
I0121 22:32:42.990593  1946 layer_factory.hpp:77] Creating layer downsample_4/3x3_s2/bn1
I0121 22:32:42.990610  1946 net.cpp:84] Creating Layer downsample_4/3x3_s2/bn1
I0121 22:32:42.990625  1946 net.cpp:406] downsample_4/3x3_s2/bn1 <- downsample_4/3x3_s2
I0121 22:32:42.990638  1946 net.cpp:367] downsample_4/3x3_s2/bn1 -> downsample_4/3x3_s2 (in-place)
I0121 22:32:42.990860  1946 net.cpp:122] Setting up downsample_4/3x3_s2/bn1
I0121 22:32:42.990880  1946 net.cpp:129] Top shape: 1 80 16 16 (20480)
I0121 22:32:42.990888  1946 net.cpp:137] Memory required for data: 6664192
I0121 22:32:42.990902  1946 layer_factory.hpp:77] Creating layer downsample_4/3x3_s2/scale1
I0121 22:32:42.990919  1946 net.cpp:84] Creating Layer downsample_4/3x3_s2/scale1
I0121 22:32:42.990927  1946 net.cpp:406] downsample_4/3x3_s2/scale1 <- downsample_4/3x3_s2
I0121 22:32:42.990937  1946 net.cpp:367] downsample_4/3x3_s2/scale1 -> downsample_4/3x3_s2 (in-place)
I0121 22:32:42.990999  1946 layer_factory.hpp:77] Creating layer downsample_4/3x3_s2/scale1
I0121 22:32:42.991142  1946 net.cpp:122] Setting up downsample_4/3x3_s2/scale1
I0121 22:32:42.991160  1946 net.cpp:129] Top shape: 1 80 16 16 (20480)
I0121 22:32:42.991168  1946 net.cpp:137] Memory required for data: 6746112
I0121 22:32:42.991180  1946 layer_factory.hpp:77] Creating layer downsample_4/3x3_s2/relu1
I0121 22:32:42.991197  1946 net.cpp:84] Creating Layer downsample_4/3x3_s2/relu1
I0121 22:32:42.991205  1946 net.cpp:406] downsample_4/3x3_s2/relu1 <- downsample_4/3x3_s2
I0121 22:32:42.991217  1946 net.cpp:367] downsample_4/3x3_s2/relu1 -> downsample_4/3x3_s2 (in-place)
I0121 22:32:42.991509  1946 net.cpp:122] Setting up downsample_4/3x3_s2/relu1
I0121 22:32:42.991535  1946 net.cpp:129] Top shape: 1 80 16 16 (20480)
I0121 22:32:42.991544  1946 net.cpp:137] Memory required for data: 6828032
I0121 22:32:42.991550  1946 layer_factory.hpp:77] Creating layer downsample_4/pool_s2
I0121 22:32:42.991564  1946 net.cpp:84] Creating Layer downsample_4/pool_s2
I0121 22:32:42.991577  1946 net.cpp:406] downsample_4/pool_s2 <- inception_3a/output_inception_3a/output_0_split_1
I0121 22:32:42.991592  1946 net.cpp:380] downsample_4/pool_s2 -> downsample_4/pool_s2
I0121 22:32:42.991662  1946 net.cpp:122] Setting up downsample_4/pool_s2
I0121 22:32:42.991683  1946 net.cpp:129] Top shape: 1 80 16 16 (20480)
I0121 22:32:42.991689  1946 net.cpp:137] Memory required for data: 6909952
I0121 22:32:42.991695  1946 layer_factory.hpp:77] Creating layer downsample_4/output
I0121 22:32:42.991706  1946 net.cpp:84] Creating Layer downsample_4/output
I0121 22:32:42.991719  1946 net.cpp:406] downsample_4/output <- downsample_4/3x3_s2
I0121 22:32:42.991729  1946 net.cpp:406] downsample_4/output <- downsample_4/pool_s2
I0121 22:32:42.991740  1946 net.cpp:380] downsample_4/output -> downsample_4/output
I0121 22:32:42.991793  1946 net.cpp:122] Setting up downsample_4/output
I0121 22:32:42.991811  1946 net.cpp:129] Top shape: 1 160 16 16 (40960)
I0121 22:32:42.991818  1946 net.cpp:137] Memory required for data: 7073792
I0121 22:32:42.991824  1946 layer_factory.hpp:77] Creating layer downsample_4/output_downsample_4/output_0_split
I0121 22:32:42.991842  1946 net.cpp:84] Creating Layer downsample_4/output_downsample_4/output_0_split
I0121 22:32:42.991854  1946 net.cpp:406] downsample_4/output_downsample_4/output_0_split <- downsample_4/output
I0121 22:32:42.991865  1946 net.cpp:380] downsample_4/output_downsample_4/output_0_split -> downsample_4/output_downsample_4/output_0_split_0
I0121 22:32:42.991875  1946 net.cpp:380] downsample_4/output_downsample_4/output_0_split -> downsample_4/output_downsample_4/output_0_split_1
I0121 22:32:42.991941  1946 net.cpp:122] Setting up downsample_4/output_downsample_4/output_0_split
I0121 22:32:42.991961  1946 net.cpp:129] Top shape: 1 160 16 16 (40960)
I0121 22:32:42.991969  1946 net.cpp:129] Top shape: 1 160 16 16 (40960)
I0121 22:32:42.991976  1946 net.cpp:137] Memory required for data: 7401472
I0121 22:32:42.991982  1946 layer_factory.hpp:77] Creating layer inception_5a/1x1
I0121 22:32:42.992007  1946 net.cpp:84] Creating Layer inception_5a/1x1
I0121 22:32:42.992022  1946 net.cpp:406] inception_5a/1x1 <- downsample_4/output_downsample_4/output_0_split_0
I0121 22:32:42.992034  1946 net.cpp:380] inception_5a/1x1 -> inception_5a/1x1
I0121 22:32:42.993083  1946 net.cpp:122] Setting up inception_5a/1x1
I0121 22:32:42.993111  1946 net.cpp:129] Top shape: 1 112 16 16 (28672)
I0121 22:32:42.993119  1946 net.cpp:137] Memory required for data: 7516160
I0121 22:32:42.993132  1946 layer_factory.hpp:77] Creating layer inception_5a/1x1/bn1
I0121 22:32:42.993149  1946 net.cpp:84] Creating Layer inception_5a/1x1/bn1
I0121 22:32:42.993163  1946 net.cpp:406] inception_5a/1x1/bn1 <- inception_5a/1x1
I0121 22:32:42.993180  1946 net.cpp:367] inception_5a/1x1/bn1 -> inception_5a/1x1 (in-place)
I0121 22:32:42.993393  1946 net.cpp:122] Setting up inception_5a/1x1/bn1
I0121 22:32:42.993414  1946 net.cpp:129] Top shape: 1 112 16 16 (28672)
I0121 22:32:42.993422  1946 net.cpp:137] Memory required for data: 7630848
I0121 22:32:42.993434  1946 layer_factory.hpp:77] Creating layer inception_5a/1x1/scale1
I0121 22:32:42.993458  1946 net.cpp:84] Creating Layer inception_5a/1x1/scale1
I0121 22:32:42.993466  1946 net.cpp:406] inception_5a/1x1/scale1 <- inception_5a/1x1
I0121 22:32:42.993475  1946 net.cpp:367] inception_5a/1x1/scale1 -> inception_5a/1x1 (in-place)
I0121 22:32:42.993544  1946 layer_factory.hpp:77] Creating layer inception_5a/1x1/scale1
I0121 22:32:42.993687  1946 net.cpp:122] Setting up inception_5a/1x1/scale1
I0121 22:32:42.993707  1946 net.cpp:129] Top shape: 1 112 16 16 (28672)
I0121 22:32:42.993715  1946 net.cpp:137] Memory required for data: 7745536
I0121 22:32:42.993726  1946 layer_factory.hpp:77] Creating layer inception_5a/1x1/relu1
I0121 22:32:42.993746  1946 net.cpp:84] Creating Layer inception_5a/1x1/relu1
I0121 22:32:42.993754  1946 net.cpp:406] inception_5a/1x1/relu1 <- inception_5a/1x1
I0121 22:32:42.993785  1946 net.cpp:367] inception_5a/1x1/relu1 -> inception_5a/1x1 (in-place)
I0121 22:32:42.993943  1946 net.cpp:122] Setting up inception_5a/1x1/relu1
I0121 22:32:42.993966  1946 net.cpp:129] Top shape: 1 112 16 16 (28672)
I0121 22:32:42.993974  1946 net.cpp:137] Memory required for data: 7860224
I0121 22:32:42.993981  1946 layer_factory.hpp:77] Creating layer inception_5a/3x3
I0121 22:32:42.994000  1946 net.cpp:84] Creating Layer inception_5a/3x3
I0121 22:32:42.994014  1946 net.cpp:406] inception_5a/3x3 <- downsample_4/output_downsample_4/output_0_split_1
I0121 22:32:42.994029  1946 net.cpp:380] inception_5a/3x3 -> inception_5a/3x3
I0121 22:32:42.996016  1946 net.cpp:122] Setting up inception_5a/3x3
I0121 22:32:42.996047  1946 net.cpp:129] Top shape: 1 48 16 16 (12288)
I0121 22:32:42.996055  1946 net.cpp:137] Memory required for data: 7909376
I0121 22:32:42.996068  1946 layer_factory.hpp:77] Creating layer inception_5a/3x3/bn1
I0121 22:32:42.996081  1946 net.cpp:84] Creating Layer inception_5a/3x3/bn1
I0121 22:32:42.996096  1946 net.cpp:406] inception_5a/3x3/bn1 <- inception_5a/3x3
I0121 22:32:42.996112  1946 net.cpp:367] inception_5a/3x3/bn1 -> inception_5a/3x3 (in-place)
I0121 22:32:42.996342  1946 net.cpp:122] Setting up inception_5a/3x3/bn1
I0121 22:32:42.996363  1946 net.cpp:129] Top shape: 1 48 16 16 (12288)
I0121 22:32:42.996371  1946 net.cpp:137] Memory required for data: 7958528
I0121 22:32:42.996385  1946 layer_factory.hpp:77] Creating layer inception_5a/3x3/scale1
I0121 22:32:42.996405  1946 net.cpp:84] Creating Layer inception_5a/3x3/scale1
I0121 22:32:42.996412  1946 net.cpp:406] inception_5a/3x3/scale1 <- inception_5a/3x3
I0121 22:32:42.996421  1946 net.cpp:367] inception_5a/3x3/scale1 -> inception_5a/3x3 (in-place)
I0121 22:32:42.996487  1946 layer_factory.hpp:77] Creating layer inception_5a/3x3/scale1
I0121 22:32:42.996632  1946 net.cpp:122] Setting up inception_5a/3x3/scale1
I0121 22:32:42.996655  1946 net.cpp:129] Top shape: 1 48 16 16 (12288)
I0121 22:32:42.996662  1946 net.cpp:137] Memory required for data: 8007680
I0121 22:32:42.996675  1946 layer_factory.hpp:77] Creating layer inception_5a/3x3/relu1
I0121 22:32:42.996691  1946 net.cpp:84] Creating Layer inception_5a/3x3/relu1
I0121 22:32:42.996700  1946 net.cpp:406] inception_5a/3x3/relu1 <- inception_5a/3x3
I0121 22:32:42.996707  1946 net.cpp:367] inception_5a/3x3/relu1 -> inception_5a/3x3 (in-place)
I0121 22:32:42.997123  1946 net.cpp:122] Setting up inception_5a/3x3/relu1
I0121 22:32:42.997150  1946 net.cpp:129] Top shape: 1 48 16 16 (12288)
I0121 22:32:42.997162  1946 net.cpp:137] Memory required for data: 8056832
I0121 22:32:42.997169  1946 layer_factory.hpp:77] Creating layer inception_5a/output
I0121 22:32:42.997179  1946 net.cpp:84] Creating Layer inception_5a/output
I0121 22:32:42.997195  1946 net.cpp:406] inception_5a/output <- inception_5a/1x1
I0121 22:32:42.997205  1946 net.cpp:406] inception_5a/output <- inception_5a/3x3
I0121 22:32:42.997213  1946 net.cpp:380] inception_5a/output -> inception_5a/output
I0121 22:32:42.997261  1946 net.cpp:122] Setting up inception_5a/output
I0121 22:32:42.997284  1946 net.cpp:129] Top shape: 1 160 16 16 (40960)
I0121 22:32:42.997292  1946 net.cpp:137] Memory required for data: 8220672
I0121 22:32:42.997298  1946 layer_factory.hpp:77] Creating layer inception_5a/output_inception_5a/output_0_split
I0121 22:32:42.997316  1946 net.cpp:84] Creating Layer inception_5a/output_inception_5a/output_0_split
I0121 22:32:42.997324  1946 net.cpp:406] inception_5a/output_inception_5a/output_0_split <- inception_5a/output
I0121 22:32:42.997334  1946 net.cpp:380] inception_5a/output_inception_5a/output_0_split -> inception_5a/output_inception_5a/output_0_split_0
I0121 22:32:42.997354  1946 net.cpp:380] inception_5a/output_inception_5a/output_0_split -> inception_5a/output_inception_5a/output_0_split_1
I0121 22:32:42.997418  1946 net.cpp:122] Setting up inception_5a/output_inception_5a/output_0_split
I0121 22:32:42.997437  1946 net.cpp:129] Top shape: 1 160 16 16 (40960)
I0121 22:32:42.997447  1946 net.cpp:129] Top shape: 1 160 16 16 (40960)
I0121 22:32:42.997452  1946 net.cpp:137] Memory required for data: 8548352
I0121 22:32:42.997459  1946 layer_factory.hpp:77] Creating layer inception_6a/1x1
I0121 22:32:42.997483  1946 net.cpp:84] Creating Layer inception_6a/1x1
I0121 22:32:42.997493  1946 net.cpp:406] inception_6a/1x1 <- inception_5a/output_inception_5a/output_0_split_0
I0121 22:32:42.997514  1946 net.cpp:380] inception_6a/1x1 -> inception_6a/1x1
I0121 22:32:42.999172  1946 net.cpp:122] Setting up inception_6a/1x1
I0121 22:32:42.999202  1946 net.cpp:129] Top shape: 1 96 16 16 (24576)
I0121 22:32:42.999212  1946 net.cpp:137] Memory required for data: 8646656
I0121 22:32:42.999223  1946 layer_factory.hpp:77] Creating layer inception_6a/1x1/bn1
I0121 22:32:42.999243  1946 net.cpp:84] Creating Layer inception_6a/1x1/bn1
I0121 22:32:42.999258  1946 net.cpp:406] inception_6a/1x1/bn1 <- inception_6a/1x1
I0121 22:32:42.999269  1946 net.cpp:367] inception_6a/1x1/bn1 -> inception_6a/1x1 (in-place)
I0121 22:32:42.999497  1946 net.cpp:122] Setting up inception_6a/1x1/bn1
I0121 22:32:42.999517  1946 net.cpp:129] Top shape: 1 96 16 16 (24576)
I0121 22:32:42.999526  1946 net.cpp:137] Memory required for data: 8744960
I0121 22:32:42.999539  1946 layer_factory.hpp:77] Creating layer inception_6a/1x1/scale1
I0121 22:32:42.999557  1946 net.cpp:84] Creating Layer inception_6a/1x1/scale1
I0121 22:32:42.999564  1946 net.cpp:406] inception_6a/1x1/scale1 <- inception_6a/1x1
I0121 22:32:42.999583  1946 net.cpp:367] inception_6a/1x1/scale1 -> inception_6a/1x1 (in-place)
I0121 22:32:42.999652  1946 layer_factory.hpp:77] Creating layer inception_6a/1x1/scale1
I0121 22:32:42.999802  1946 net.cpp:122] Setting up inception_6a/1x1/scale1
I0121 22:32:42.999821  1946 net.cpp:129] Top shape: 1 96 16 16 (24576)
I0121 22:32:42.999828  1946 net.cpp:137] Memory required for data: 8843264
I0121 22:32:42.999840  1946 layer_factory.hpp:77] Creating layer inception_6a/1x1/relu1
I0121 22:32:42.999857  1946 net.cpp:84] Creating Layer inception_6a/1x1/relu1
I0121 22:32:42.999866  1946 net.cpp:406] inception_6a/1x1/relu1 <- inception_6a/1x1
I0121 22:32:42.999878  1946 net.cpp:367] inception_6a/1x1/relu1 -> inception_6a/1x1 (in-place)
I0121 22:32:43.000161  1946 net.cpp:122] Setting up inception_6a/1x1/relu1
I0121 22:32:43.000188  1946 net.cpp:129] Top shape: 1 96 16 16 (24576)
I0121 22:32:43.000195  1946 net.cpp:137] Memory required for data: 8941568
I0121 22:32:43.000202  1946 layer_factory.hpp:77] Creating layer inception_6a/3x3
I0121 22:32:43.000221  1946 net.cpp:84] Creating Layer inception_6a/3x3
I0121 22:32:43.000236  1946 net.cpp:406] inception_6a/3x3 <- inception_5a/output_inception_5a/output_0_split_1
I0121 22:32:43.000252  1946 net.cpp:380] inception_6a/3x3 -> inception_6a/3x3
I0121 22:32:43.001678  1946 net.cpp:122] Setting up inception_6a/3x3
I0121 22:32:43.001708  1946 net.cpp:129] Top shape: 1 64 16 16 (16384)
I0121 22:32:43.001715  1946 net.cpp:137] Memory required for data: 9007104
I0121 22:32:43.001744  1946 layer_factory.hpp:77] Creating layer inception_6a/3x3/bn1
I0121 22:32:43.001806  1946 net.cpp:84] Creating Layer inception_6a/3x3/bn1
I0121 22:32:43.001819  1946 net.cpp:406] inception_6a/3x3/bn1 <- inception_6a/3x3
I0121 22:32:43.001837  1946 net.cpp:367] inception_6a/3x3/bn1 -> inception_6a/3x3 (in-place)
I0121 22:32:43.002050  1946 net.cpp:122] Setting up inception_6a/3x3/bn1
I0121 22:32:43.002060  1946 net.cpp:129] Top shape: 1 64 16 16 (16384)
I0121 22:32:43.002064  1946 net.cpp:137] Memory required for data: 9072640
I0121 22:32:43.002074  1946 layer_factory.hpp:77] Creating layer inception_6a/3x3/scale1
I0121 22:32:43.002081  1946 net.cpp:84] Creating Layer inception_6a/3x3/scale1
I0121 22:32:43.002086  1946 net.cpp:406] inception_6a/3x3/scale1 <- inception_6a/3x3
I0121 22:32:43.002094  1946 net.cpp:367] inception_6a/3x3/scale1 -> inception_6a/3x3 (in-place)
I0121 22:32:43.002135  1946 layer_factory.hpp:77] Creating layer inception_6a/3x3/scale1
I0121 22:32:43.002251  1946 net.cpp:122] Setting up inception_6a/3x3/scale1
I0121 22:32:43.002260  1946 net.cpp:129] Top shape: 1 64 16 16 (16384)
I0121 22:32:43.002264  1946 net.cpp:137] Memory required for data: 9138176
I0121 22:32:43.002270  1946 layer_factory.hpp:77] Creating layer inception_6a/3x3/relu1
I0121 22:32:43.002277  1946 net.cpp:84] Creating Layer inception_6a/3x3/relu1
I0121 22:32:43.002281  1946 net.cpp:406] inception_6a/3x3/relu1 <- inception_6a/3x3
I0121 22:32:43.002288  1946 net.cpp:367] inception_6a/3x3/relu1 -> inception_6a/3x3 (in-place)
I0121 22:32:43.002434  1946 net.cpp:122] Setting up inception_6a/3x3/relu1
I0121 22:32:43.002445  1946 net.cpp:129] Top shape: 1 64 16 16 (16384)
I0121 22:32:43.002449  1946 net.cpp:137] Memory required for data: 9203712
I0121 22:32:43.002454  1946 layer_factory.hpp:77] Creating layer inception_6a/output
I0121 22:32:43.002460  1946 net.cpp:84] Creating Layer inception_6a/output
I0121 22:32:43.002465  1946 net.cpp:406] inception_6a/output <- inception_6a/1x1
I0121 22:32:43.002470  1946 net.cpp:406] inception_6a/output <- inception_6a/3x3
I0121 22:32:43.002480  1946 net.cpp:380] inception_6a/output -> inception_6a/output
I0121 22:32:43.002506  1946 net.cpp:122] Setting up inception_6a/output
I0121 22:32:43.002513  1946 net.cpp:129] Top shape: 1 160 16 16 (40960)
I0121 22:32:43.002517  1946 net.cpp:137] Memory required for data: 9367552
I0121 22:32:43.002521  1946 layer_factory.hpp:77] Creating layer inception_6a/output_inception_6a/output_0_split
I0121 22:32:43.002527  1946 net.cpp:84] Creating Layer inception_6a/output_inception_6a/output_0_split
I0121 22:32:43.002532  1946 net.cpp:406] inception_6a/output_inception_6a/output_0_split <- inception_6a/output
I0121 22:32:43.002537  1946 net.cpp:380] inception_6a/output_inception_6a/output_0_split -> inception_6a/output_inception_6a/output_0_split_0
I0121 22:32:43.002543  1946 net.cpp:380] inception_6a/output_inception_6a/output_0_split -> inception_6a/output_inception_6a/output_0_split_1
I0121 22:32:43.002583  1946 net.cpp:122] Setting up inception_6a/output_inception_6a/output_0_split
I0121 22:32:43.002590  1946 net.cpp:129] Top shape: 1 160 16 16 (40960)
I0121 22:32:43.002595  1946 net.cpp:129] Top shape: 1 160 16 16 (40960)
I0121 22:32:43.002599  1946 net.cpp:137] Memory required for data: 9695232
I0121 22:32:43.002604  1946 layer_factory.hpp:77] Creating layer inception_7a/1x1
I0121 22:32:43.002614  1946 net.cpp:84] Creating Layer inception_7a/1x1
I0121 22:32:43.002619  1946 net.cpp:406] inception_7a/1x1 <- inception_6a/output_inception_6a/output_0_split_0
I0121 22:32:43.002627  1946 net.cpp:380] inception_7a/1x1 -> inception_7a/1x1
I0121 22:32:43.003701  1946 net.cpp:122] Setting up inception_7a/1x1
I0121 22:32:43.003731  1946 net.cpp:129] Top shape: 1 80 16 16 (20480)
I0121 22:32:43.003736  1946 net.cpp:137] Memory required for data: 9777152
I0121 22:32:43.003746  1946 layer_factory.hpp:77] Creating layer inception_7a/1x1/bn1
I0121 22:32:43.003754  1946 net.cpp:84] Creating Layer inception_7a/1x1/bn1
I0121 22:32:43.003762  1946 net.cpp:406] inception_7a/1x1/bn1 <- inception_7a/1x1
I0121 22:32:43.003777  1946 net.cpp:367] inception_7a/1x1/bn1 -> inception_7a/1x1 (in-place)
I0121 22:32:43.004026  1946 net.cpp:122] Setting up inception_7a/1x1/bn1
I0121 22:32:43.004045  1946 net.cpp:129] Top shape: 1 80 16 16 (20480)
I0121 22:32:43.004050  1946 net.cpp:137] Memory required for data: 9859072
I0121 22:32:43.004060  1946 layer_factory.hpp:77] Creating layer inception_7a/1x1/scale1
I0121 22:32:43.004066  1946 net.cpp:84] Creating Layer inception_7a/1x1/scale1
I0121 22:32:43.004073  1946 net.cpp:406] inception_7a/1x1/scale1 <- inception_7a/1x1
I0121 22:32:43.004079  1946 net.cpp:367] inception_7a/1x1/scale1 -> inception_7a/1x1 (in-place)
I0121 22:32:43.004144  1946 layer_factory.hpp:77] Creating layer inception_7a/1x1/scale1
I0121 22:32:43.004297  1946 net.cpp:122] Setting up inception_7a/1x1/scale1
I0121 22:32:43.004315  1946 net.cpp:129] Top shape: 1 80 16 16 (20480)
I0121 22:32:43.004319  1946 net.cpp:137] Memory required for data: 9940992
I0121 22:32:43.004328  1946 layer_factory.hpp:77] Creating layer inception_7a/1x1/relu1
I0121 22:32:43.004338  1946 net.cpp:84] Creating Layer inception_7a/1x1/relu1
I0121 22:32:43.004353  1946 net.cpp:406] inception_7a/1x1/relu1 <- inception_7a/1x1
I0121 22:32:43.004362  1946 net.cpp:367] inception_7a/1x1/relu1 -> inception_7a/1x1 (in-place)
I0121 22:32:43.004657  1946 net.cpp:122] Setting up inception_7a/1x1/relu1
I0121 22:32:43.004680  1946 net.cpp:129] Top shape: 1 80 16 16 (20480)
I0121 22:32:43.004684  1946 net.cpp:137] Memory required for data: 10022912
I0121 22:32:43.004689  1946 layer_factory.hpp:77] Creating layer inception_7a/3x3
I0121 22:32:43.004704  1946 net.cpp:84] Creating Layer inception_7a/3x3
I0121 22:32:43.004711  1946 net.cpp:406] inception_7a/3x3 <- inception_6a/output_inception_6a/output_0_split_1
I0121 22:32:43.004727  1946 net.cpp:380] inception_7a/3x3 -> inception_7a/3x3
I0121 22:32:43.007040  1946 net.cpp:122] Setting up inception_7a/3x3
I0121 22:32:43.007068  1946 net.cpp:129] Top shape: 1 80 16 16 (20480)
I0121 22:32:43.007073  1946 net.cpp:137] Memory required for data: 10104832
I0121 22:32:43.007081  1946 layer_factory.hpp:77] Creating layer inception_7a/3x3/bn1
I0121 22:32:43.007097  1946 net.cpp:84] Creating Layer inception_7a/3x3/bn1
I0121 22:32:43.007114  1946 net.cpp:406] inception_7a/3x3/bn1 <- inception_7a/3x3
I0121 22:32:43.007127  1946 net.cpp:367] inception_7a/3x3/bn1 -> inception_7a/3x3 (in-place)
I0121 22:32:43.007354  1946 net.cpp:122] Setting up inception_7a/3x3/bn1
I0121 22:32:43.007371  1946 net.cpp:129] Top shape: 1 80 16 16 (20480)
I0121 22:32:43.007376  1946 net.cpp:137] Memory required for data: 10186752
I0121 22:32:43.007385  1946 layer_factory.hpp:77] Creating layer inception_7a/3x3/scale1
I0121 22:32:43.007395  1946 net.cpp:84] Creating Layer inception_7a/3x3/scale1
I0121 22:32:43.007400  1946 net.cpp:406] inception_7a/3x3/scale1 <- inception_7a/3x3
I0121 22:32:43.007411  1946 net.cpp:367] inception_7a/3x3/scale1 -> inception_7a/3x3 (in-place)
I0121 22:32:43.007484  1946 layer_factory.hpp:77] Creating layer inception_7a/3x3/scale1
I0121 22:32:43.007637  1946 net.cpp:122] Setting up inception_7a/3x3/scale1
I0121 22:32:43.007654  1946 net.cpp:129] Top shape: 1 80 16 16 (20480)
I0121 22:32:43.007658  1946 net.cpp:137] Memory required for data: 10268672
I0121 22:32:43.007666  1946 layer_factory.hpp:77] Creating layer inception_7a/3x3/relu1
I0121 22:32:43.007674  1946 net.cpp:84] Creating Layer inception_7a/3x3/relu1
I0121 22:32:43.007680  1946 net.cpp:406] inception_7a/3x3/relu1 <- inception_7a/3x3
I0121 22:32:43.007686  1946 net.cpp:367] inception_7a/3x3/relu1 -> inception_7a/3x3 (in-place)
I0121 22:32:43.007848  1946 net.cpp:122] Setting up inception_7a/3x3/relu1
I0121 22:32:43.007869  1946 net.cpp:129] Top shape: 1 80 16 16 (20480)
I0121 22:32:43.007872  1946 net.cpp:137] Memory required for data: 10350592
I0121 22:32:43.007877  1946 layer_factory.hpp:77] Creating layer inception_7a/output
I0121 22:32:43.007885  1946 net.cpp:84] Creating Layer inception_7a/output
I0121 22:32:43.007891  1946 net.cpp:406] inception_7a/output <- inception_7a/1x1
I0121 22:32:43.007896  1946 net.cpp:406] inception_7a/output <- inception_7a/3x3
I0121 22:32:43.007910  1946 net.cpp:380] inception_7a/output -> inception_7a/output
I0121 22:32:43.007952  1946 net.cpp:122] Setting up inception_7a/output
I0121 22:32:43.007968  1946 net.cpp:129] Top shape: 1 160 16 16 (40960)
I0121 22:32:43.007974  1946 net.cpp:137] Memory required for data: 10514432
I0121 22:32:43.007982  1946 layer_factory.hpp:77] Creating layer inception_7a/output_inception_7a/output_0_split
I0121 22:32:43.007990  1946 net.cpp:84] Creating Layer inception_7a/output_inception_7a/output_0_split
I0121 22:32:43.008004  1946 net.cpp:406] inception_7a/output_inception_7a/output_0_split <- inception_7a/output
I0121 22:32:43.008011  1946 net.cpp:380] inception_7a/output_inception_7a/output_0_split -> inception_7a/output_inception_7a/output_0_split_0
I0121 22:32:43.008054  1946 net.cpp:380] inception_7a/output_inception_7a/output_0_split -> inception_7a/output_inception_7a/output_0_split_1
I0121 22:32:43.008155  1946 net.cpp:122] Setting up inception_7a/output_inception_7a/output_0_split
I0121 22:32:43.008177  1946 net.cpp:129] Top shape: 1 160 16 16 (40960)
I0121 22:32:43.008186  1946 net.cpp:129] Top shape: 1 160 16 16 (40960)
I0121 22:32:43.008193  1946 net.cpp:137] Memory required for data: 10842112
I0121 22:32:43.008199  1946 layer_factory.hpp:77] Creating layer inception_8a/1x1
I0121 22:32:43.008217  1946 net.cpp:84] Creating Layer inception_8a/1x1
I0121 22:32:43.008232  1946 net.cpp:406] inception_8a/1x1 <- inception_7a/output_inception_7a/output_0_split_0
I0121 22:32:43.008247  1946 net.cpp:380] inception_8a/1x1 -> inception_8a/1x1
I0121 22:32:43.009275  1946 net.cpp:122] Setting up inception_8a/1x1
I0121 22:32:43.009302  1946 net.cpp:129] Top shape: 1 48 16 16 (12288)
I0121 22:32:43.009308  1946 net.cpp:137] Memory required for data: 10891264
I0121 22:32:43.009320  1946 layer_factory.hpp:77] Creating layer inception_8a/1x1/bn1
I0121 22:32:43.009356  1946 net.cpp:84] Creating Layer inception_8a/1x1/bn1
I0121 22:32:43.009372  1946 net.cpp:406] inception_8a/1x1/bn1 <- inception_8a/1x1
I0121 22:32:43.009383  1946 net.cpp:367] inception_8a/1x1/bn1 -> inception_8a/1x1 (in-place)
I0121 22:32:43.009613  1946 net.cpp:122] Setting up inception_8a/1x1/bn1
I0121 22:32:43.009631  1946 net.cpp:129] Top shape: 1 48 16 16 (12288)
I0121 22:32:43.009635  1946 net.cpp:137] Memory required for data: 10940416
I0121 22:32:43.009645  1946 layer_factory.hpp:77] Creating layer inception_8a/1x1/scale1
I0121 22:32:43.009660  1946 net.cpp:84] Creating Layer inception_8a/1x1/scale1
I0121 22:32:43.009688  1946 net.cpp:406] inception_8a/1x1/scale1 <- inception_8a/1x1
I0121 22:32:43.009706  1946 net.cpp:367] inception_8a/1x1/scale1 -> inception_8a/1x1 (in-place)
I0121 22:32:43.009816  1946 layer_factory.hpp:77] Creating layer inception_8a/1x1/scale1
I0121 22:32:43.009990  1946 net.cpp:122] Setting up inception_8a/1x1/scale1
I0121 22:32:43.010010  1946 net.cpp:129] Top shape: 1 48 16 16 (12288)
I0121 22:32:43.010017  1946 net.cpp:137] Memory required for data: 10989568
I0121 22:32:43.010028  1946 layer_factory.hpp:77] Creating layer inception_8a/1x1/relu1
I0121 22:32:43.010057  1946 net.cpp:84] Creating Layer inception_8a/1x1/relu1
I0121 22:32:43.010066  1946 net.cpp:406] inception_8a/1x1/relu1 <- inception_8a/1x1
I0121 22:32:43.010076  1946 net.cpp:367] inception_8a/1x1/relu1 -> inception_8a/1x1 (in-place)
I0121 22:32:43.010398  1946 net.cpp:122] Setting up inception_8a/1x1/relu1
I0121 22:32:43.010423  1946 net.cpp:129] Top shape: 1 48 16 16 (12288)
I0121 22:32:43.010428  1946 net.cpp:137] Memory required for data: 11038720
I0121 22:32:43.010433  1946 layer_factory.hpp:77] Creating layer inception_8a/3x3
I0121 22:32:43.010444  1946 net.cpp:84] Creating Layer inception_8a/3x3
I0121 22:32:43.010452  1946 net.cpp:406] inception_8a/3x3 <- inception_7a/output_inception_7a/output_0_split_1
I0121 22:32:43.010465  1946 net.cpp:380] inception_8a/3x3 -> inception_8a/3x3
I0121 22:32:43.012161  1946 net.cpp:122] Setting up inception_8a/3x3
I0121 22:32:43.012187  1946 net.cpp:129] Top shape: 1 96 16 16 (24576)
I0121 22:32:43.012192  1946 net.cpp:137] Memory required for data: 11137024
I0121 22:32:43.012202  1946 layer_factory.hpp:77] Creating layer inception_8a/3x3/bn1
I0121 22:32:43.012210  1946 net.cpp:84] Creating Layer inception_8a/3x3/bn1
I0121 22:32:43.012217  1946 net.cpp:406] inception_8a/3x3/bn1 <- inception_8a/3x3
I0121 22:32:43.012230  1946 net.cpp:367] inception_8a/3x3/bn1 -> inception_8a/3x3 (in-place)
I0121 22:32:43.012465  1946 net.cpp:122] Setting up inception_8a/3x3/bn1
I0121 22:32:43.012483  1946 net.cpp:129] Top shape: 1 96 16 16 (24576)
I0121 22:32:43.012488  1946 net.cpp:137] Memory required for data: 11235328
I0121 22:32:43.012498  1946 layer_factory.hpp:77] Creating layer inception_8a/3x3/scale1
I0121 22:32:43.012506  1946 net.cpp:84] Creating Layer inception_8a/3x3/scale1
I0121 22:32:43.012511  1946 net.cpp:406] inception_8a/3x3/scale1 <- inception_8a/3x3
I0121 22:32:43.012518  1946 net.cpp:367] inception_8a/3x3/scale1 -> inception_8a/3x3 (in-place)
I0121 22:32:43.012591  1946 layer_factory.hpp:77] Creating layer inception_8a/3x3/scale1
I0121 22:32:43.012760  1946 net.cpp:122] Setting up inception_8a/3x3/scale1
I0121 22:32:43.012781  1946 net.cpp:129] Top shape: 1 96 16 16 (24576)
I0121 22:32:43.012786  1946 net.cpp:137] Memory required for data: 11333632
I0121 22:32:43.012794  1946 layer_factory.hpp:77] Creating layer inception_8a/3x3/relu1
I0121 22:32:43.012801  1946 net.cpp:84] Creating Layer inception_8a/3x3/relu1
I0121 22:32:43.012806  1946 net.cpp:406] inception_8a/3x3/relu1 <- inception_8a/3x3
I0121 22:32:43.012811  1946 net.cpp:367] inception_8a/3x3/relu1 -> inception_8a/3x3 (in-place)
I0121 22:32:43.012977  1946 net.cpp:122] Setting up inception_8a/3x3/relu1
I0121 22:32:43.012998  1946 net.cpp:129] Top shape: 1 96 16 16 (24576)
I0121 22:32:43.013002  1946 net.cpp:137] Memory required for data: 11431936
I0121 22:32:43.013007  1946 layer_factory.hpp:77] Creating layer inception_8a/output
I0121 22:32:43.013015  1946 net.cpp:84] Creating Layer inception_8a/output
I0121 22:32:43.013020  1946 net.cpp:406] inception_8a/output <- inception_8a/1x1
I0121 22:32:43.013026  1946 net.cpp:406] inception_8a/output <- inception_8a/3x3
I0121 22:32:43.013034  1946 net.cpp:380] inception_8a/output -> inception_8a/output
I0121 22:32:43.013075  1946 net.cpp:122] Setting up inception_8a/output
I0121 22:32:43.013094  1946 net.cpp:129] Top shape: 1 144 16 16 (36864)
I0121 22:32:43.013098  1946 net.cpp:137] Memory required for data: 11579392
I0121 22:32:43.013103  1946 layer_factory.hpp:77] Creating layer inception_8a/output_inception_8a/output_0_split
I0121 22:32:43.013111  1946 net.cpp:84] Creating Layer inception_8a/output_inception_8a/output_0_split
I0121 22:32:43.013115  1946 net.cpp:406] inception_8a/output_inception_8a/output_0_split <- inception_8a/output
I0121 22:32:43.013123  1946 net.cpp:380] inception_8a/output_inception_8a/output_0_split -> inception_8a/output_inception_8a/output_0_split_0
I0121 22:32:43.013134  1946 net.cpp:380] inception_8a/output_inception_8a/output_0_split -> inception_8a/output_inception_8a/output_0_split_1
I0121 22:32:43.013197  1946 net.cpp:122] Setting up inception_8a/output_inception_8a/output_0_split
I0121 22:32:43.013213  1946 net.cpp:129] Top shape: 1 144 16 16 (36864)
I0121 22:32:43.013219  1946 net.cpp:129] Top shape: 1 144 16 16 (36864)
I0121 22:32:43.013223  1946 net.cpp:137] Memory required for data: 11874304
I0121 22:32:43.013227  1946 layer_factory.hpp:77] Creating layer downsample_9/3x3_s2
I0121 22:32:43.013242  1946 net.cpp:84] Creating Layer downsample_9/3x3_s2
I0121 22:32:43.013255  1946 net.cpp:406] downsample_9/3x3_s2 <- inception_8a/output_inception_8a/output_0_split_0
I0121 22:32:43.013268  1946 net.cpp:380] downsample_9/3x3_s2 -> downsample_9/3x3_s2
I0121 22:32:43.015815  1946 net.cpp:122] Setting up downsample_9/3x3_s2
I0121 22:32:43.015843  1946 net.cpp:129] Top shape: 1 96 8 8 (6144)
I0121 22:32:43.015848  1946 net.cpp:137] Memory required for data: 11898880
I0121 22:32:43.015857  1946 layer_factory.hpp:77] Creating layer downsample_9/3x3_s2/bn1
I0121 22:32:43.015871  1946 net.cpp:84] Creating Layer downsample_9/3x3_s2/bn1
I0121 22:32:43.015887  1946 net.cpp:406] downsample_9/3x3_s2/bn1 <- downsample_9/3x3_s2
I0121 22:32:43.015898  1946 net.cpp:367] downsample_9/3x3_s2/bn1 -> downsample_9/3x3_s2 (in-place)
I0121 22:32:43.016149  1946 net.cpp:122] Setting up downsample_9/3x3_s2/bn1
I0121 22:32:43.016167  1946 net.cpp:129] Top shape: 1 96 8 8 (6144)
I0121 22:32:43.016172  1946 net.cpp:137] Memory required for data: 11923456
I0121 22:32:43.016182  1946 layer_factory.hpp:77] Creating layer downsample_9/3x3_s2/scale1
I0121 22:32:43.016189  1946 net.cpp:84] Creating Layer downsample_9/3x3_s2/scale1
I0121 22:32:43.016196  1946 net.cpp:406] downsample_9/3x3_s2/scale1 <- downsample_9/3x3_s2
I0121 22:32:43.016203  1946 net.cpp:367] downsample_9/3x3_s2/scale1 -> downsample_9/3x3_s2 (in-place)
I0121 22:32:43.016280  1946 layer_factory.hpp:77] Creating layer downsample_9/3x3_s2/scale1
I0121 22:32:43.016458  1946 net.cpp:122] Setting up downsample_9/3x3_s2/scale1
I0121 22:32:43.016477  1946 net.cpp:129] Top shape: 1 96 8 8 (6144)
I0121 22:32:43.016484  1946 net.cpp:137] Memory required for data: 11948032
I0121 22:32:43.016496  1946 layer_factory.hpp:77] Creating layer downsample_9/3x3_s2/relu1
I0121 22:32:43.016515  1946 net.cpp:84] Creating Layer downsample_9/3x3_s2/relu1
I0121 22:32:43.016523  1946 net.cpp:406] downsample_9/3x3_s2/relu1 <- downsample_9/3x3_s2
I0121 22:32:43.016532  1946 net.cpp:367] downsample_9/3x3_s2/relu1 -> downsample_9/3x3_s2 (in-place)
I0121 22:32:43.016840  1946 net.cpp:122] Setting up downsample_9/3x3_s2/relu1
I0121 22:32:43.016871  1946 net.cpp:129] Top shape: 1 96 8 8 (6144)
I0121 22:32:43.016880  1946 net.cpp:137] Memory required for data: 11972608
I0121 22:32:43.016886  1946 layer_factory.hpp:77] Creating layer downsample_9/pool_s2
I0121 22:32:43.016897  1946 net.cpp:84] Creating Layer downsample_9/pool_s2
I0121 22:32:43.016912  1946 net.cpp:406] downsample_9/pool_s2 <- inception_8a/output_inception_8a/output_0_split_1
I0121 22:32:43.016925  1946 net.cpp:380] downsample_9/pool_s2 -> downsample_9/pool_s2
I0121 22:32:43.017009  1946 net.cpp:122] Setting up downsample_9/pool_s2
I0121 22:32:43.017030  1946 net.cpp:129] Top shape: 1 144 8 8 (9216)
I0121 22:32:43.017036  1946 net.cpp:137] Memory required for data: 12009472
I0121 22:32:43.017043  1946 layer_factory.hpp:77] Creating layer downsample_9/output
I0121 22:32:43.017056  1946 net.cpp:84] Creating Layer downsample_9/output
I0121 22:32:43.017069  1946 net.cpp:406] downsample_9/output <- downsample_9/3x3_s2
I0121 22:32:43.017079  1946 net.cpp:406] downsample_9/output <- downsample_9/pool_s2
I0121 22:32:43.017088  1946 net.cpp:380] downsample_9/output -> downsample_9/output
I0121 22:32:43.017139  1946 net.cpp:122] Setting up downsample_9/output
I0121 22:32:43.017160  1946 net.cpp:129] Top shape: 1 240 8 8 (15360)
I0121 22:32:43.017168  1946 net.cpp:137] Memory required for data: 12070912
I0121 22:32:43.017174  1946 layer_factory.hpp:77] Creating layer downsample_9/output_downsample_9/output_0_split
I0121 22:32:43.017184  1946 net.cpp:84] Creating Layer downsample_9/output_downsample_9/output_0_split
I0121 22:32:43.017196  1946 net.cpp:406] downsample_9/output_downsample_9/output_0_split <- downsample_9/output
I0121 22:32:43.017210  1946 net.cpp:380] downsample_9/output_downsample_9/output_0_split -> downsample_9/output_downsample_9/output_0_split_0
I0121 22:32:43.017222  1946 net.cpp:380] downsample_9/output_downsample_9/output_0_split -> downsample_9/output_downsample_9/output_0_split_1
I0121 22:32:43.017287  1946 net.cpp:122] Setting up downsample_9/output_downsample_9/output_0_split
I0121 22:32:43.017304  1946 net.cpp:129] Top shape: 1 240 8 8 (15360)
I0121 22:32:43.017313  1946 net.cpp:129] Top shape: 1 240 8 8 (15360)
I0121 22:32:43.017319  1946 net.cpp:137] Memory required for data: 12193792
I0121 22:32:43.017325  1946 layer_factory.hpp:77] Creating layer inception_10a/1x1
I0121 22:32:43.017349  1946 net.cpp:84] Creating Layer inception_10a/1x1
I0121 22:32:43.017365  1946 net.cpp:406] inception_10a/1x1 <- downsample_9/output_downsample_9/output_0_split_0
I0121 22:32:43.017387  1946 net.cpp:380] inception_10a/1x1 -> inception_10a/1x1
I0121 22:32:43.018718  1946 net.cpp:122] Setting up inception_10a/1x1
I0121 22:32:43.018745  1946 net.cpp:129] Top shape: 1 176 8 8 (11264)
I0121 22:32:43.018750  1946 net.cpp:137] Memory required for data: 12238848
I0121 22:32:43.018761  1946 layer_factory.hpp:77] Creating layer inception_10a/1x1/bn1
I0121 22:32:43.018777  1946 net.cpp:84] Creating Layer inception_10a/1x1/bn1
I0121 22:32:43.018788  1946 net.cpp:406] inception_10a/1x1/bn1 <- inception_10a/1x1
I0121 22:32:43.018801  1946 net.cpp:367] inception_10a/1x1/bn1 -> inception_10a/1x1 (in-place)
I0121 22:32:43.019068  1946 net.cpp:122] Setting up inception_10a/1x1/bn1
I0121 22:32:43.019089  1946 net.cpp:129] Top shape: 1 176 8 8 (11264)
I0121 22:32:43.019096  1946 net.cpp:137] Memory required for data: 12283904
I0121 22:32:43.019110  1946 layer_factory.hpp:77] Creating layer inception_10a/1x1/scale1
I0121 22:32:43.019132  1946 net.cpp:84] Creating Layer inception_10a/1x1/scale1
I0121 22:32:43.019141  1946 net.cpp:406] inception_10a/1x1/scale1 <- inception_10a/1x1
I0121 22:32:43.019150  1946 net.cpp:367] inception_10a/1x1/scale1 -> inception_10a/1x1 (in-place)
I0121 22:32:43.019217  1946 layer_factory.hpp:77] Creating layer inception_10a/1x1/scale1
I0121 22:32:43.019381  1946 net.cpp:122] Setting up inception_10a/1x1/scale1
I0121 22:32:43.019402  1946 net.cpp:129] Top shape: 1 176 8 8 (11264)
I0121 22:32:43.019408  1946 net.cpp:137] Memory required for data: 12328960
I0121 22:32:43.019420  1946 layer_factory.hpp:77] Creating layer inception_10a/1x1/relu1
I0121 22:32:43.019444  1946 net.cpp:84] Creating Layer inception_10a/1x1/relu1
I0121 22:32:43.019454  1946 net.cpp:406] inception_10a/1x1/relu1 <- inception_10a/1x1
I0121 22:32:43.019469  1946 net.cpp:367] inception_10a/1x1/relu1 -> inception_10a/1x1 (in-place)
I0121 22:32:43.019886  1946 net.cpp:122] Setting up inception_10a/1x1/relu1
I0121 22:32:43.019913  1946 net.cpp:129] Top shape: 1 176 8 8 (11264)
I0121 22:32:43.019922  1946 net.cpp:137] Memory required for data: 12374016
I0121 22:32:43.019927  1946 layer_factory.hpp:77] Creating layer inception_10a/3x3
I0121 22:32:43.019948  1946 net.cpp:84] Creating Layer inception_10a/3x3
I0121 22:32:43.019963  1946 net.cpp:406] inception_10a/3x3 <- downsample_9/output_downsample_9/output_0_split_1
I0121 22:32:43.019976  1946 net.cpp:380] inception_10a/3x3 -> inception_10a/3x3
I0121 22:32:43.023948  1946 net.cpp:122] Setting up inception_10a/3x3
I0121 22:32:43.023977  1946 net.cpp:129] Top shape: 1 160 8 8 (10240)
I0121 22:32:43.023983  1946 net.cpp:137] Memory required for data: 12414976
I0121 22:32:43.023993  1946 layer_factory.hpp:77] Creating layer inception_10a/3x3/bn1
I0121 22:32:43.024016  1946 net.cpp:84] Creating Layer inception_10a/3x3/bn1
I0121 22:32:43.024034  1946 net.cpp:406] inception_10a/3x3/bn1 <- inception_10a/3x3
I0121 22:32:43.024049  1946 net.cpp:367] inception_10a/3x3/bn1 -> inception_10a/3x3 (in-place)
I0121 22:32:43.024387  1946 net.cpp:122] Setting up inception_10a/3x3/bn1
I0121 22:32:43.024407  1946 net.cpp:129] Top shape: 1 160 8 8 (10240)
I0121 22:32:43.024411  1946 net.cpp:137] Memory required for data: 12455936
I0121 22:32:43.024425  1946 layer_factory.hpp:77] Creating layer inception_10a/3x3/scale1
I0121 22:32:43.024451  1946 net.cpp:84] Creating Layer inception_10a/3x3/scale1
I0121 22:32:43.024487  1946 net.cpp:406] inception_10a/3x3/scale1 <- inception_10a/3x3
I0121 22:32:43.024507  1946 net.cpp:367] inception_10a/3x3/scale1 -> inception_10a/3x3 (in-place)
I0121 22:32:43.024595  1946 layer_factory.hpp:77] Creating layer inception_10a/3x3/scale1
I0121 22:32:43.024770  1946 net.cpp:122] Setting up inception_10a/3x3/scale1
I0121 22:32:43.024791  1946 net.cpp:129] Top shape: 1 160 8 8 (10240)
I0121 22:32:43.024797  1946 net.cpp:137] Memory required for data: 12496896
I0121 22:32:43.024811  1946 layer_factory.hpp:77] Creating layer inception_10a/3x3/relu1
I0121 22:32:43.024832  1946 net.cpp:84] Creating Layer inception_10a/3x3/relu1
I0121 22:32:43.024839  1946 net.cpp:406] inception_10a/3x3/relu1 <- inception_10a/3x3
I0121 22:32:43.024847  1946 net.cpp:367] inception_10a/3x3/relu1 -> inception_10a/3x3 (in-place)
I0121 22:32:43.025017  1946 net.cpp:122] Setting up inception_10a/3x3/relu1
I0121 22:32:43.025039  1946 net.cpp:129] Top shape: 1 160 8 8 (10240)
I0121 22:32:43.025046  1946 net.cpp:137] Memory required for data: 12537856
I0121 22:32:43.025053  1946 layer_factory.hpp:77] Creating layer inception_10a/output
I0121 22:32:43.025071  1946 net.cpp:84] Creating Layer inception_10a/output
I0121 22:32:43.025084  1946 net.cpp:406] inception_10a/output <- inception_10a/1x1
I0121 22:32:43.025094  1946 net.cpp:406] inception_10a/output <- inception_10a/3x3
I0121 22:32:43.025104  1946 net.cpp:380] inception_10a/output -> inception_10a/output
I0121 22:32:43.025151  1946 net.cpp:122] Setting up inception_10a/output
I0121 22:32:43.025171  1946 net.cpp:129] Top shape: 1 336 8 8 (21504)
I0121 22:32:43.025177  1946 net.cpp:137] Memory required for data: 12623872
I0121 22:32:43.025183  1946 layer_factory.hpp:77] Creating layer inception_10a/output_inception_10a/output_0_split
I0121 22:32:43.025193  1946 net.cpp:84] Creating Layer inception_10a/output_inception_10a/output_0_split
I0121 22:32:43.025207  1946 net.cpp:406] inception_10a/output_inception_10a/output_0_split <- inception_10a/output
I0121 22:32:43.025221  1946 net.cpp:380] inception_10a/output_inception_10a/output_0_split -> inception_10a/output_inception_10a/output_0_split_0
I0121 22:32:43.025233  1946 net.cpp:380] inception_10a/output_inception_10a/output_0_split -> inception_10a/output_inception_10a/output_0_split_1
I0121 22:32:43.025303  1946 net.cpp:122] Setting up inception_10a/output_inception_10a/output_0_split
I0121 22:32:43.025328  1946 net.cpp:129] Top shape: 1 336 8 8 (21504)
I0121 22:32:43.025334  1946 net.cpp:129] Top shape: 1 336 8 8 (21504)
I0121 22:32:43.025339  1946 net.cpp:137] Memory required for data: 12795904
I0121 22:32:43.025346  1946 layer_factory.hpp:77] Creating layer inception_11a/1x1
I0121 22:32:43.025377  1946 net.cpp:84] Creating Layer inception_11a/1x1
I0121 22:32:43.025393  1946 net.cpp:406] inception_11a/1x1 <- inception_10a/output_inception_10a/output_0_split_0
I0121 22:32:43.025403  1946 net.cpp:380] inception_11a/1x1 -> inception_11a/1x1
I0121 22:32:43.026823  1946 net.cpp:122] Setting up inception_11a/1x1
I0121 22:32:43.026851  1946 net.cpp:129] Top shape: 1 176 8 8 (11264)
I0121 22:32:43.026856  1946 net.cpp:137] Memory required for data: 12840960
I0121 22:32:43.026865  1946 layer_factory.hpp:77] Creating layer inception_11a/1x1/bn1
I0121 22:32:43.026877  1946 net.cpp:84] Creating Layer inception_11a/1x1/bn1
I0121 22:32:43.026893  1946 net.cpp:406] inception_11a/1x1/bn1 <- inception_11a/1x1
I0121 22:32:43.026909  1946 net.cpp:367] inception_11a/1x1/bn1 -> inception_11a/1x1 (in-place)
I0121 22:32:43.027254  1946 net.cpp:122] Setting up inception_11a/1x1/bn1
I0121 22:32:43.027276  1946 net.cpp:129] Top shape: 1 176 8 8 (11264)
I0121 22:32:43.027281  1946 net.cpp:137] Memory required for data: 12886016
I0121 22:32:43.027292  1946 layer_factory.hpp:77] Creating layer inception_11a/1x1/scale1
I0121 22:32:43.027300  1946 net.cpp:84] Creating Layer inception_11a/1x1/scale1
I0121 22:32:43.027308  1946 net.cpp:406] inception_11a/1x1/scale1 <- inception_11a/1x1
I0121 22:32:43.027318  1946 net.cpp:367] inception_11a/1x1/scale1 -> inception_11a/1x1 (in-place)
I0121 22:32:43.027402  1946 layer_factory.hpp:77] Creating layer inception_11a/1x1/scale1
I0121 22:32:43.027604  1946 net.cpp:122] Setting up inception_11a/1x1/scale1
I0121 22:32:43.027624  1946 net.cpp:129] Top shape: 1 176 8 8 (11264)
I0121 22:32:43.027629  1946 net.cpp:137] Memory required for data: 12931072
I0121 22:32:43.027637  1946 layer_factory.hpp:77] Creating layer inception_11a/1x1/relu1
I0121 22:32:43.027647  1946 net.cpp:84] Creating Layer inception_11a/1x1/relu1
I0121 22:32:43.027653  1946 net.cpp:406] inception_11a/1x1/relu1 <- inception_11a/1x1
I0121 22:32:43.027669  1946 net.cpp:367] inception_11a/1x1/relu1 -> inception_11a/1x1 (in-place)
I0121 22:32:43.027978  1946 net.cpp:122] Setting up inception_11a/1x1/relu1
I0121 22:32:43.028003  1946 net.cpp:129] Top shape: 1 176 8 8 (11264)
I0121 22:32:43.028008  1946 net.cpp:137] Memory required for data: 12976128
I0121 22:32:43.028013  1946 layer_factory.hpp:77] Creating layer inception_11a/3x3
I0121 22:32:43.028026  1946 net.cpp:84] Creating Layer inception_11a/3x3
I0121 22:32:43.028039  1946 net.cpp:406] inception_11a/3x3 <- inception_10a/output_inception_10a/output_0_split_1
I0121 22:32:43.028057  1946 net.cpp:380] inception_11a/3x3 -> inception_11a/3x3
I0121 22:32:43.033043  1946 net.cpp:122] Setting up inception_11a/3x3
I0121 22:32:43.033074  1946 net.cpp:129] Top shape: 1 160 8 8 (10240)
I0121 22:32:43.033082  1946 net.cpp:137] Memory required for data: 13017088
I0121 22:32:43.033100  1946 layer_factory.hpp:77] Creating layer inception_11a/3x3/bn1
I0121 22:32:43.033118  1946 net.cpp:84] Creating Layer inception_11a/3x3/bn1
I0121 22:32:43.033133  1946 net.cpp:406] inception_11a/3x3/bn1 <- inception_11a/3x3
I0121 22:32:43.033149  1946 net.cpp:367] inception_11a/3x3/bn1 -> inception_11a/3x3 (in-place)
I0121 22:32:43.033402  1946 net.cpp:122] Setting up inception_11a/3x3/bn1
I0121 22:32:43.033422  1946 net.cpp:129] Top shape: 1 160 8 8 (10240)
I0121 22:32:43.033429  1946 net.cpp:137] Memory required for data: 13058048
I0121 22:32:43.033468  1946 layer_factory.hpp:77] Creating layer inception_11a/3x3/scale1
I0121 22:32:43.033489  1946 net.cpp:84] Creating Layer inception_11a/3x3/scale1
I0121 22:32:43.033498  1946 net.cpp:406] inception_11a/3x3/scale1 <- inception_11a/3x3
I0121 22:32:43.033527  1946 net.cpp:367] inception_11a/3x3/scale1 -> inception_11a/3x3 (in-place)
I0121 22:32:43.033619  1946 layer_factory.hpp:77] Creating layer inception_11a/3x3/scale1
I0121 22:32:43.033843  1946 net.cpp:122] Setting up inception_11a/3x3/scale1
I0121 22:32:43.033865  1946 net.cpp:129] Top shape: 1 160 8 8 (10240)
I0121 22:32:43.033872  1946 net.cpp:137] Memory required for data: 13099008
I0121 22:32:43.033885  1946 layer_factory.hpp:77] Creating layer inception_11a/3x3/relu1
I0121 22:32:43.033905  1946 net.cpp:84] Creating Layer inception_11a/3x3/relu1
I0121 22:32:43.033913  1946 net.cpp:406] inception_11a/3x3/relu1 <- inception_11a/3x3
I0121 22:32:43.033921  1946 net.cpp:367] inception_11a/3x3/relu1 -> inception_11a/3x3 (in-place)
I0121 22:32:43.034095  1946 net.cpp:122] Setting up inception_11a/3x3/relu1
I0121 22:32:43.034117  1946 net.cpp:129] Top shape: 1 160 8 8 (10240)
I0121 22:32:43.034124  1946 net.cpp:137] Memory required for data: 13139968
I0121 22:32:43.034132  1946 layer_factory.hpp:77] Creating layer inception_11a/output
I0121 22:32:43.034140  1946 net.cpp:84] Creating Layer inception_11a/output
I0121 22:32:43.034154  1946 net.cpp:406] inception_11a/output <- inception_11a/1x1
I0121 22:32:43.034163  1946 net.cpp:406] inception_11a/output <- inception_11a/3x3
I0121 22:32:43.034173  1946 net.cpp:380] inception_11a/output -> inception_11a/output
I0121 22:32:43.034229  1946 net.cpp:122] Setting up inception_11a/output
I0121 22:32:43.034248  1946 net.cpp:129] Top shape: 1 336 8 8 (21504)
I0121 22:32:43.034255  1946 net.cpp:137] Memory required for data: 13225984
I0121 22:32:43.034261  1946 layer_factory.hpp:77] Creating layer avg_pool_12/8x8_s1
I0121 22:32:43.034276  1946 net.cpp:84] Creating Layer avg_pool_12/8x8_s1
I0121 22:32:43.034283  1946 net.cpp:406] avg_pool_12/8x8_s1 <- inception_11a/output
I0121 22:32:43.034308  1946 net.cpp:380] avg_pool_12/8x8_s1 -> avg_pool_12/8x8_s1
I0121 22:32:43.034658  1946 net.cpp:122] Setting up avg_pool_12/8x8_s1
I0121 22:32:43.034685  1946 net.cpp:129] Top shape: 1 336 1 1 (336)
I0121 22:32:43.034694  1946 net.cpp:137] Memory required for data: 13227328
I0121 22:32:43.034700  1946 layer_factory.hpp:77] Creating layer drop_8x8_s1
I0121 22:32:43.034715  1946 net.cpp:84] Creating Layer drop_8x8_s1
I0121 22:32:43.034729  1946 net.cpp:406] drop_8x8_s1 <- avg_pool_12/8x8_s1
I0121 22:32:43.034741  1946 net.cpp:367] drop_8x8_s1 -> avg_pool_12/8x8_s1 (in-place)
I0121 22:32:43.034790  1946 net.cpp:122] Setting up drop_8x8_s1
I0121 22:32:43.034808  1946 net.cpp:129] Top shape: 1 336 1 1 (336)
I0121 22:32:43.034816  1946 net.cpp:137] Memory required for data: 13228672
I0121 22:32:43.034821  1946 layer_factory.hpp:77] Creating layer loss/classifier
I0121 22:32:43.034835  1946 net.cpp:84] Creating Layer loss/classifier
I0121 22:32:43.034847  1946 net.cpp:406] loss/classifier <- avg_pool_12/8x8_s1
I0121 22:32:43.034863  1946 net.cpp:380] loss/classifier -> loss/classifier
I0121 22:32:43.035038  1946 net.cpp:122] Setting up loss/classifier
I0121 22:32:43.035058  1946 net.cpp:129] Top shape: 1 10 (10)
I0121 22:32:43.035064  1946 net.cpp:137] Memory required for data: 13228712
I0121 22:32:43.035076  1946 layer_factory.hpp:77] Creating layer prob
I0121 22:32:43.035095  1946 net.cpp:84] Creating Layer prob
I0121 22:32:43.035104  1946 net.cpp:406] prob <- loss/classifier
I0121 22:32:43.035111  1946 net.cpp:380] prob -> prob
I0121 22:32:43.035343  1946 net.cpp:122] Setting up prob
I0121 22:32:43.035369  1946 net.cpp:129] Top shape: 1 10 (10)
I0121 22:32:43.035377  1946 net.cpp:137] Memory required for data: 13228752
I0121 22:32:43.035384  1946 net.cpp:200] prob does not need backward computation.
I0121 22:32:43.035392  1946 net.cpp:200] loss/classifier does not need backward computation.
I0121 22:32:43.035398  1946 net.cpp:200] drop_8x8_s1 does not need backward computation.
I0121 22:32:43.035403  1946 net.cpp:200] avg_pool_12/8x8_s1 does not need backward computation.
…
