…
2019-07-10 20:49:28.514568: I tensorflow/core/common_runtime/gpu/gpu_device.cc:971] 0:   N 
2019-07-10 20:49:28.515103: I tensorflow/core/common_runtime/gpu/gpu_device.cc:1084] Created TensorFlow device (/job:localhost/replica:0/task:0/device:GPU:0 with 22493 MB memory) -> physical GPU (device: 0, name: Quadro P6000, pci bus id: 0000:65:00.0, compute capability: 6.1)
Using TensorFlow backend.
_________________________________________________________________
Layer (type)                 Output Shape              Param #   
=================================================================
conv2d_1_input (InputLayer)  (None, 32, 32, 3)         0         
_________________________________________________________________
conv2d_2 (Conv2D)            (None, 32, 32, 50)        3800      
_________________________________________________________________
batch_normalization_2 (Batch (None, 32, 32, 50)        200       
_________________________________________________________________
activation_2 (Activation)    (None, 32, 32, 50)        0         
_________________________________________________________________
max_pooling2d_2 (MaxPooling2 (None, 16, 16, 50)        0         
_________________________________________________________________
flatten_1 (Flatten)          (None, 12800)             0         
_________________________________________________________________
dense_1 (Dense)              (None, 500)               6400500   
_________________________________________________________________
activation_3 (Activation)    (None, 500)               0         
_________________________________________________________________
dense_2 (Dense)              (None, 10)                5010      
_________________________________________________________________
activation_4 (Activation)    (None, 10)                0         
=================================================================
Total params: 6,409,510
Trainable params: 6,409,410
Non-trainable params: 100
_________________________________________________________________

 TF input node name:
[<tf.Tensor 'conv2d_1_input:0' shape=(?, 32, 32, 3) dtype=float32>]

 TF output node name:
[<tf.Tensor 'activation_4/Softmax:0' shape=(?, 10) dtype=float32>]

…
