…
I1107 01:50:14.343101 36080 net.cpp:323] The NetState phase (1) differed from the phase (0) specified by a rule in layer data
I1107 01:50:14.343271 36080 net.cpp:52] Initializing net from parameters: 
state {
  phase: TEST
}
layer {
  name: "data"
  type: "Data"
  top: "data"
  top: "label"
  include {
    phase: TEST
  }
  transform_param {
    mirror: false
    crop_size: 227
    mean_value: 106
    mean_value: 116
    mean_value: 124
  }
  data_param {
    source: "/home/danieleb/ML/cats-vs-dogs/input/lmdb/valid_lmdb"
    batch_size: 50
    backend: LMDB
  }
}
layer {
  name: "conv1"
  type: "Convolution"
  bottom: "data"
  top: "conv1"
  param {
    lr_mult: 1
    decay_mult: 1
  }
  param {
    lr_mult: 2
    decay_mult: 0
  }
  convolution_param {
    num_output: 96
    pad: 1
    kernel_size: 11
    stride: 4
    weight_filler {
      type: "gaussian"
      std: 0.01
    }
    bias_filler {
      type: "constant"
      value: 0
    }
  }
}
layer {
  name: "bn1"
  type: "BatchNorm"
  bottom: "conv1"
  top: "scale1"
  param {
    lr_mult: 1
    decay_mult: 0
  }
  param {
    lr_mult: 1
    decay_mult: 0
  }
  param {
    lr_mult: 0
    decay_mult: 0
  }
  param {
    lr_mult: 0
    decay_mult: 0
  }
  batch_norm_param {
    use_global_stats: false
    scale_filler {
      type: "constant"
      value: 1
    }
    bias_filler {
      type: "constant"
      value: 0
    }
  }
}
layer {
  name: "relu1"
  type: "ReLU"
  bottom: "scale1"
  top: "relu1"
}
layer {
  name: "pool1"
  type: "Pooling"
  bottom: "relu1"
  top: "pool1"
  pooling_param {
    pool: MAX
    kernel_size: 3
    stride: 2
  }
}
layer {
  name: "conv2"
  type: "Convolution"
  bottom: "pool1"
  top: "conv2"
  param {
    lr_mult: 1
    decay_mult: 1
  }
  param {
    lr_mult: 2
    decay_mult: 0
  }
  convolution_param {
    num_output: 256
    pad: 2
    kernel_size: 5
    group: 1
    weight_filler {
      type: "gaussian"
      std: 0.01
    }
    bias_filler {
      type: "constant"
      value: 1
    }
  }
}
layer {
  name: "bn2"
  type: "BatchNorm"
  bottom: "conv2"
  top: "scale2"
  param {
    lr_mult: 1
    decay_mult: 0
  }
  param {
    lr_mult: 1
    decay_mult: 0
  }
  param {
    lr_mult: 0
    decay_mult: 0
  }
  param {
    lr_mult: 0
    decay_mult: 0
  }
  batch_norm_param {
    use_global_stats: false
    scale_filler {
      type: "constant"
      value: 1
    }
    bias_filler {
      type: "constant"
      value: 0
    }
  }
}
layer {
  name: "relu2"
  type: "ReLU"
  bottom: "scale2"
  top: "relu2"
}
layer {
  name: "pool2"
  type: "Pooling"
  bottom: "relu2"
  top: "pool2"
  pooling_param {
    pool: MAX
    kernel_size: 3
    stride: 2
  }
}
layer {
  name: "conv3"
  type: "Convolution"
  bottom: "pool2"
  top: "conv3"
  param {
    lr_mult: 1
    decay_mult: 1
  }
  param {
    lr_mult: 2
    decay_mult: 0
  }
  convolution_param {
    num_output: 384
    pad: 1
    kernel_size: 3
    weight_filler {
      type: "gaussian"
      std: 0.01
    }
    bias_filler {
      type: "constant"
      value: 0
    }
  }
}
layer {
  name: "relu3"
  type: "ReLU"
  bottom: "conv3"
  top: "relu3"
}
layer {
  name: "conv4"
  type: "Convolution"
  bottom: "relu3"
  top: "conv4"
  param {
    lr_mult: 1
    decay_mult: 1
  }
  param {
    lr_mult: 2
    decay_mult: 0
  }
  convolution_param {
    num_output: 384
    pad: 1
    kernel_size: 3
    group: 1
    weight_filler {
      type: "gaussian"
      std: 0.01
    }
    bias_filler {
      type: "constant"
      value: 1
    }
  }
}
layer {
  name: "relu4"
  type: "ReLU"
  bottom: "conv4"
  top: "relu4"
}
layer {
  name: "conv5"
  type: "Convolution"
  bottom: "relu4"
  top: "conv5"
  param {
    lr_mult: 1
    decay_mult: 1
  }
  param {
    lr_mult: 2
    decay_mult: 0
  }
  convolution_param {
    num_output: 256
    pad: 1
    kernel_size: 3
    group: 1
    weight_filler {
      type: "gaussian"
      std: 0.01
    }
    bias_filler {
      type: "constant"
      value: 1
    }
  }
}
layer {
  name: "relu5"
  type: "ReLU"
  bottom: "conv5"
  top: "relu5"
}
layer {
  name: "pool5"
  type: "Pooling"
  bottom: "relu5"
  top: "pool5"
  pooling_param {
    pool: MAX
    kernel_size: 3
    stride: 2
  }
}
layer {
  name: "fc6"
  type: "InnerProduct"
  bottom: "pool5"
  top: "fc6"
  param {
    lr_mult: 1
    decay_mult: 1
  }
  param {
    lr_mult: 2
    decay_mult: 0
  }
  inner_product_param {
    num_output: 4096
    weight_filler {
      type: "gaussian"
      std: 0.005
    }
    bias_filler {
      type: "constant"
      value: 1
    }
  }
}
layer {
  name: "relu6"
  type: "ReLU"
  bottom: "fc6"
  top: "relu6"
}
layer {
  name: "drop6"
  type: "Dropout"
  bottom: "relu6"
  top: "drop6"
  dropout_param {
    dropout_ratio: 0.5
  }
}
layer {
  name: "fc7"
  type: "InnerProduct"
  bottom: "drop6"
  top: "fc7"
  param {
    lr_mult: 1
    decay_mult: 1
  }
  param {
    lr_mult: 2
    decay_mult: 0
  }
  inner_product_param {
    num_output: 4096
    weight_filler {
      type: "gaussian"
      std: 0.005
    }
    bias_filler {
      type: "constant"
      value: 1
    }
  }
}
layer {
  name: "bn7"
  type: "BatchNorm"
  bottom: "fc7"
  top: "scale7"
  param {
    lr_mult: 1
    decay_mult: 0
  }
  param {
    lr_mult: 1
    decay_mult: 0
  }
  param {
    lr_mult: 0
    decay_mult: 0
  }
  param {
    lr_mult: 0
    decay_mult: 0
  }
  batch_norm_param {
    use_global_stats: false
    scale_filler {
      type: "constant"
      value: 1
    }
    bias_filler {
      type: "constant"
      value: 0
    }
  }
}
layer {
  name: "relu7"
  type: "ReLU"
  bottom: "scale7"
  top: "relu7"
}
layer {
  name: "drop7"
  type: "Dropout"
  bottom: "relu7"
  top: "drop7"
  dropout_param {
    dropout_ratio: 0.5
  }
}
layer {
  name: "fc8"
  type: "InnerProduct"
  bottom: "drop7"
  top: "fc8"
  param {
    lr_mult: 1
    decay_mult: 1
  }
  param {
    lr_mult: 2
    decay_mult: 0
  }
  inner_product_param {
    num_output: 2
    weight_filler {
      type: "gaussian"
      std: 0.01
    }
    bias_filler {
      type: "constant"
      value: 0
    }
  }
}
layer {
  name: "loss"
  type: "SoftmaxWithLoss"
  bottom: "fc8"
  bottom: "label"
  top: "loss"
}
layer {
  name: "accuracy-top1"
  type: "Accuracy"
  bottom: "fc8"
  bottom: "label"
  top: "top-1"
  include {
    phase: TEST
  }
}
I1107 01:50:14.343386 36080 layer_factory.hpp:77] Creating layer data
I1107 01:50:14.343428 36080 internal_thread.cpp:27] Starting internal thread(s) on GPU 0
I1107 01:50:14.343787 36080 net.cpp:94] Creating Layer data
I1107 01:50:14.343794 36080 net.cpp:409] data -> data
I1107 01:50:14.343803 36080 net.cpp:409] data -> label
I1107 01:50:14.344868 36209 db_lmdb.cpp:35] Opened lmdb /home/danieleb/ML/cats-vs-dogs/input/lmdb/valid_lmdb
I1107 01:50:14.344899 36209 data_reader.cpp:117] TEST: reading data using 1 channel(s)
I1107 01:50:14.345073 36080 data_layer.cpp:78] ReshapePrefetch 50, 3, 227, 227
I1107 01:50:14.345144 36080 data_layer.cpp:83] output data size: 50,3,227,227
I1107 01:50:14.420029 36080 internal_thread.cpp:27] Starting internal thread(s) on GPU 0
I1107 01:50:14.420101 36080 net.cpp:144] Setting up data
I1107 01:50:14.420111 36080 net.cpp:151] Top shape: 50 3 227 227 (7729350)
I1107 01:50:14.420115 36080 net.cpp:151] Top shape: 50 (50)
I1107 01:50:14.420119 36080 net.cpp:159] Memory required for data: 30917600
I1107 01:50:14.420125 36080 layer_factory.hpp:77] Creating layer label_data_1_split
I1107 01:50:14.420136 36080 net.cpp:94] Creating Layer label_data_1_split
I1107 01:50:14.420143 36080 net.cpp:435] label_data_1_split <- label
I1107 01:50:14.420150 36080 net.cpp:409] label_data_1_split -> label_data_1_split_0
I1107 01:50:14.420161 36080 net.cpp:409] label_data_1_split -> label_data_1_split_1
I1107 01:50:14.420289 36080 net.cpp:144] Setting up label_data_1_split
I1107 01:50:14.420295 36080 net.cpp:151] Top shape: 50 (50)
I1107 01:50:14.420298 36080 net.cpp:151] Top shape: 50 (50)
I1107 01:50:14.420301 36080 net.cpp:159] Memory required for data: 30918000
I1107 01:50:14.420318 36080 layer_factory.hpp:77] Creating layer conv1
I1107 01:50:14.420332 36080 net.cpp:94] Creating Layer conv1
I1107 01:50:14.420337 36080 net.cpp:435] conv1 <- data
I1107 01:50:14.420346 36080 net.cpp:409] conv1 -> conv1
I1107 01:50:14.422021 36080 net.cpp:144] Setting up conv1
I1107 01:50:14.422034 36080 net.cpp:151] Top shape: 50 96 55 55 (14520000)
I1107 01:50:14.422036 36080 net.cpp:159] Memory required for data: 88998000
I1107 01:50:14.422062 36080 layer_factory.hpp:77] Creating layer bn1
I1107 01:50:14.422071 36080 net.cpp:94] Creating Layer bn1
I1107 01:50:14.422075 36080 net.cpp:435] bn1 <- conv1
I1107 01:50:14.422080 36080 net.cpp:409] bn1 -> scale1
I1107 01:50:14.422776 36080 net.cpp:144] Setting up bn1
I1107 01:50:14.422783 36080 net.cpp:151] Top shape: 50 96 55 55 (14520000)
I1107 01:50:14.422787 36080 net.cpp:159] Memory required for data: 147078000
I1107 01:50:14.422799 36080 layer_factory.hpp:77] Creating layer relu1
I1107 01:50:14.422809 36080 net.cpp:94] Creating Layer relu1
I1107 01:50:14.422813 36080 net.cpp:435] relu1 <- scale1
I1107 01:50:14.422818 36080 net.cpp:409] relu1 -> relu1
I1107 01:50:14.422855 36080 net.cpp:144] Setting up relu1
I1107 01:50:14.422861 36080 net.cpp:151] Top shape: 50 96 55 55 (14520000)
I1107 01:50:14.422864 36080 net.cpp:159] Memory required for data: 205158000
I1107 01:50:14.422866 36080 layer_factory.hpp:77] Creating layer pool1
I1107 01:50:14.422874 36080 net.cpp:94] Creating Layer pool1
I1107 01:50:14.422880 36080 net.cpp:435] pool1 <- relu1
I1107 01:50:14.422885 36080 net.cpp:409] pool1 -> pool1
I1107 01:50:14.422930 36080 net.cpp:144] Setting up pool1
I1107 01:50:14.422935 36080 net.cpp:151] Top shape: 50 96 27 27 (3499200)
I1107 01:50:14.422937 36080 net.cpp:159] Memory required for data: 219154800
I1107 01:50:14.422940 36080 layer_factory.hpp:77] Creating layer conv2
I1107 01:50:14.422950 36080 net.cpp:94] Creating Layer conv2
I1107 01:50:14.422955 36080 net.cpp:435] conv2 <- pool1
I1107 01:50:14.422961 36080 net.cpp:409] conv2 -> conv2
I1107 01:50:14.430060 36080 net.cpp:144] Setting up conv2
I1107 01:50:14.430081 36080 net.cpp:151] Top shape: 50 256 27 27 (9331200)
I1107 01:50:14.430085 36080 net.cpp:159] Memory required for data: 256479600
I1107 01:50:14.430101 36080 layer_factory.hpp:77] Creating layer bn2
I1107 01:50:14.430127 36080 net.cpp:94] Creating Layer bn2
I1107 01:50:14.430142 36080 net.cpp:435] bn2 <- conv2
I1107 01:50:14.430161 36080 net.cpp:409] bn2 -> scale2
I1107 01:50:14.430783 36080 net.cpp:144] Setting up bn2
I1107 01:50:14.430793 36080 net.cpp:151] Top shape: 50 256 27 27 (9331200)
I1107 01:50:14.430797 36080 net.cpp:159] Memory required for data: 293804400
I1107 01:50:14.430805 36080 layer_factory.hpp:77] Creating layer relu2
I1107 01:50:14.430815 36080 net.cpp:94] Creating Layer relu2
I1107 01:50:14.430819 36080 net.cpp:435] relu2 <- scale2
I1107 01:50:14.430826 36080 net.cpp:409] relu2 -> relu2
I1107 01:50:14.430851 36080 net.cpp:144] Setting up relu2
I1107 01:50:14.430861 36080 net.cpp:151] Top shape: 50 256 27 27 (9331200)
I1107 01:50:14.430865 36080 net.cpp:159] Memory required for data: 331129200
I1107 01:50:14.430868 36080 layer_factory.hpp:77] Creating layer pool2
I1107 01:50:14.430876 36080 net.cpp:94] Creating Layer pool2
I1107 01:50:14.430887 36080 net.cpp:435] pool2 <- relu2
I1107 01:50:14.430893 36080 net.cpp:409] pool2 -> pool2
I1107 01:50:14.430927 36080 net.cpp:144] Setting up pool2
I1107 01:50:14.430932 36080 net.cpp:151] Top shape: 50 256 13 13 (2163200)
I1107 01:50:14.430936 36080 net.cpp:159] Memory required for data: 339782000
I1107 01:50:14.430939 36080 layer_factory.hpp:77] Creating layer conv3
I1107 01:50:14.430950 36080 net.cpp:94] Creating Layer conv3
I1107 01:50:14.430956 36080 net.cpp:435] conv3 <- pool2
I1107 01:50:14.430964 36080 net.cpp:409] conv3 -> conv3
I1107 01:50:14.441447 36080 net.cpp:144] Setting up conv3
I1107 01:50:14.441467 36080 net.cpp:151] Top shape: 50 384 13 13 (3244800)
I1107 01:50:14.441469 36080 net.cpp:159] Memory required for data: 352761200
I1107 01:50:14.441493 36080 layer_factory.hpp:77] Creating layer relu3
I1107 01:50:14.441500 36080 net.cpp:94] Creating Layer relu3
I1107 01:50:14.441504 36080 net.cpp:435] relu3 <- conv3
I1107 01:50:14.441510 36080 net.cpp:409] relu3 -> relu3
I1107 01:50:14.441532 36080 net.cpp:144] Setting up relu3
I1107 01:50:14.441536 36080 net.cpp:151] Top shape: 50 384 13 13 (3244800)
I1107 01:50:14.441540 36080 net.cpp:159] Memory required for data: 365740400
I1107 01:50:14.441541 36080 layer_factory.hpp:77] Creating layer conv4
I1107 01:50:14.441552 36080 net.cpp:94] Creating Layer conv4
I1107 01:50:14.441558 36080 net.cpp:435] conv4 <- relu3
I1107 01:50:14.441565 36080 net.cpp:409] conv4 -> conv4
I1107 01:50:14.457365 36080 net.cpp:144] Setting up conv4
I1107 01:50:14.457430 36080 net.cpp:151] Top shape: 50 384 13 13 (3244800)
I1107 01:50:14.457448 36080 net.cpp:159] Memory required for data: 378719600
I1107 01:50:14.457479 36080 layer_factory.hpp:77] Creating layer relu4
I1107 01:50:14.457502 36080 net.cpp:94] Creating Layer relu4
I1107 01:50:14.457520 36080 net.cpp:435] relu4 <- conv4
I1107 01:50:14.457538 36080 net.cpp:409] relu4 -> relu4
I1107 01:50:14.457597 36080 net.cpp:144] Setting up relu4
I1107 01:50:14.457613 36080 net.cpp:151] Top shape: 50 384 13 13 (3244800)
I1107 01:50:14.457629 36080 net.cpp:159] Memory required for data: 391698800
I1107 01:50:14.457641 36080 layer_factory.hpp:77] Creating layer conv5
I1107 01:50:14.457664 36080 net.cpp:94] Creating Layer conv5
I1107 01:50:14.457679 36080 net.cpp:435] conv5 <- relu4
I1107 01:50:14.457697 36080 net.cpp:409] conv5 -> conv5
I1107 01:50:14.466989 36080 net.cpp:144] Setting up conv5
I1107 01:50:14.467015 36080 net.cpp:151] Top shape: 50 256 13 13 (2163200)
I1107 01:50:14.467016 36080 net.cpp:159] Memory required for data: 400351600
I1107 01:50:14.467026 36080 layer_factory.hpp:77] Creating layer relu5
I1107 01:50:14.467036 36080 net.cpp:94] Creating Layer relu5
I1107 01:50:14.467041 36080 net.cpp:435] relu5 <- conv5
I1107 01:50:14.467058 36080 net.cpp:409] relu5 -> relu5
I1107 01:50:14.467095 36080 net.cpp:144] Setting up relu5
I1107 01:50:14.467103 36080 net.cpp:151] Top shape: 50 256 13 13 (2163200)
I1107 01:50:14.467105 36080 net.cpp:159] Memory required for data: 409004400
I1107 01:50:14.467108 36080 layer_factory.hpp:77] Creating layer pool5
I1107 01:50:14.467119 36080 net.cpp:94] Creating Layer pool5
I1107 01:50:14.467125 36080 net.cpp:435] pool5 <- relu5
I1107 01:50:14.467133 36080 net.cpp:409] pool5 -> pool5
I1107 01:50:14.467169 36080 net.cpp:144] Setting up pool5
I1107 01:50:14.467175 36080 net.cpp:151] Top shape: 50 256 6 6 (460800)
I1107 01:50:14.467178 36080 net.cpp:159] Memory required for data: 410847600
I1107 01:50:14.467181 36080 layer_factory.hpp:77] Creating layer fc6
I1107 01:50:14.467191 36080 net.cpp:94] Creating Layer fc6
I1107 01:50:14.467197 36080 net.cpp:435] fc6 <- pool5
I1107 01:50:14.467206 36080 net.cpp:409] fc6 -> fc6
I1107 01:50:14.778128 36080 net.cpp:144] Setting up fc6
I1107 01:50:14.778152 36080 net.cpp:151] Top shape: 50 4096 (204800)
I1107 01:50:14.778156 36080 net.cpp:159] Memory required for data: 411666800
I1107 01:50:14.778163 36080 layer_factory.hpp:77] Creating layer relu6
I1107 01:50:14.778172 36080 net.cpp:94] Creating Layer relu6
I1107 01:50:14.778187 36080 net.cpp:435] relu6 <- fc6
I1107 01:50:14.778203 36080 net.cpp:409] relu6 -> relu6
I1107 01:50:14.778244 36080 net.cpp:144] Setting up relu6
I1107 01:50:14.778249 36080 net.cpp:151] Top shape: 50 4096 (204800)
I1107 01:50:14.778251 36080 net.cpp:159] Memory required for data: 412486000
I1107 01:50:14.778254 36080 layer_factory.hpp:77] Creating layer drop6
I1107 01:50:14.778261 36080 net.cpp:94] Creating Layer drop6
I1107 01:50:14.778264 36080 net.cpp:435] drop6 <- relu6
I1107 01:50:14.778270 36080 net.cpp:409] drop6 -> drop6
I1107 01:50:14.778301 36080 net.cpp:144] Setting up drop6
I1107 01:50:14.778306 36080 net.cpp:151] Top shape: 50 4096 (204800)
I1107 01:50:14.778307 36080 net.cpp:159] Memory required for data: 413305200
I1107 01:50:14.778311 36080 layer_factory.hpp:77] Creating layer fc7
I1107 01:50:14.778334 36080 net.cpp:94] Creating Layer fc7
I1107 01:50:14.778337 36080 net.cpp:435] fc7 <- drop6
I1107 01:50:14.778344 36080 net.cpp:409] fc7 -> fc7
I1107 01:50:14.912243 36080 net.cpp:144] Setting up fc7
I1107 01:50:14.912269 36080 net.cpp:151] Top shape: 50 4096 (204800)
I1107 01:50:14.912271 36080 net.cpp:159] Memory required for data: 414124400
I1107 01:50:14.912294 36080 layer_factory.hpp:77] Creating layer bn7
I1107 01:50:14.912313 36080 net.cpp:94] Creating Layer bn7
I1107 01:50:14.912319 36080 net.cpp:435] bn7 <- fc7
I1107 01:50:14.912324 36080 net.cpp:409] bn7 -> scale7
I1107 01:50:14.912804 36080 net.cpp:144] Setting up bn7
I1107 01:50:14.912811 36080 net.cpp:151] Top shape: 50 4096 (204800)
I1107 01:50:14.912816 36080 net.cpp:159] Memory required for data: 414943600
I1107 01:50:14.912823 36080 layer_factory.hpp:77] Creating layer relu7
I1107 01:50:14.912830 36080 net.cpp:94] Creating Layer relu7
I1107 01:50:14.912834 36080 net.cpp:435] relu7 <- scale7
I1107 01:50:14.912840 36080 net.cpp:409] relu7 -> relu7
I1107 01:50:14.912878 36080 net.cpp:144] Setting up relu7
I1107 01:50:14.912883 36080 net.cpp:151] Top shape: 50 4096 (204800)
I1107 01:50:14.912884 36080 net.cpp:159] Memory required for data: 415762800
I1107 01:50:14.912887 36080 layer_factory.hpp:77] Creating layer drop7
I1107 01:50:14.912894 36080 net.cpp:94] Creating Layer drop7
I1107 01:50:14.912897 36080 net.cpp:435] drop7 <- relu7
I1107 01:50:14.912902 36080 net.cpp:409] drop7 -> drop7
I1107 01:50:14.912930 36080 net.cpp:144] Setting up drop7
I1107 01:50:14.912935 36080 net.cpp:151] Top shape: 50 4096 (204800)
I1107 01:50:14.912937 36080 net.cpp:159] Memory required for data: 416582000
I1107 01:50:14.912940 36080 layer_factory.hpp:77] Creating layer fc8
I1107 01:50:14.912947 36080 net.cpp:94] Creating Layer fc8
I1107 01:50:14.912950 36080 net.cpp:435] fc8 <- drop7
I1107 01:50:14.912956 36080 net.cpp:409] fc8 -> fc8
I1107 01:50:14.913828 36080 net.cpp:144] Setting up fc8
I1107 01:50:14.913841 36080 net.cpp:151] Top shape: 50 2 (100)
I1107 01:50:14.913843 36080 net.cpp:159] Memory required for data: 416582400
I1107 01:50:14.913851 36080 layer_factory.hpp:77] Creating layer fc8_fc8_0_split
I1107 01:50:14.913858 36080 net.cpp:94] Creating Layer fc8_fc8_0_split
I1107 01:50:14.913864 36080 net.cpp:435] fc8_fc8_0_split <- fc8
I1107 01:50:14.913870 36080 net.cpp:409] fc8_fc8_0_split -> fc8_fc8_0_split_0
I1107 01:50:14.913879 36080 net.cpp:409] fc8_fc8_0_split -> fc8_fc8_0_split_1
I1107 01:50:14.913913 36080 net.cpp:144] Setting up fc8_fc8_0_split
I1107 01:50:14.913918 36080 net.cpp:151] Top shape: 50 2 (100)
I1107 01:50:14.913921 36080 net.cpp:151] Top shape: 50 2 (100)
I1107 01:50:14.913923 36080 net.cpp:159] Memory required for data: 416583200
I1107 01:50:14.913925 36080 layer_factory.hpp:77] Creating layer loss
I1107 01:50:14.913933 36080 net.cpp:94] Creating Layer loss
I1107 01:50:14.913936 36080 net.cpp:435] loss <- fc8_fc8_0_split_0
I1107 01:50:14.913941 36080 net.cpp:435] loss <- label_data_1_split_0
I1107 01:50:14.913947 36080 net.cpp:409] loss -> loss
…
I1107 01:50:17.729109 36240 net.cpp:323] The NetState phase (0) differed from the phase (1) specified by a rule in layer accuracy-top1
I1107 01:50:17.729259 36240 net.cpp:52] Initializing net from parameters: 
state {
  phase: TRAIN
}
layer {
  name: "data"
  type: "Data"
  top: "data"
  top: "label"
  include {
    phase: TRAIN
  }
  transform_param {
    mirror: true
    crop_size: 227
    mean_value: 106
    mean_value: 116
    mean_value: 124
  }
  data_param {
    source: "/home/danieleb/ML/cats-vs-dogs/input/lmdb/train_lmdb"
    batch_size: 256
    backend: LMDB
  }
}
layer {
  name: "conv1"
  type: "Convolution"
  bottom: "data"
  top: "conv1"
  param {
    lr_mult: 1
    decay_mult: 1
    compression: PRUNE
  }
  param {
    lr_mult: 2
    decay_mult: 0
    compression: PRUNE
  }
  convolution_param {
    num_output: 96
    pad: 1
    kernel_size: 11
    stride: 4
    weight_filler {
      type: "gaussian"
      std: 0.01
    }
    bias_filler {
      type: "constant"
      value: 0
    }
  }
}
layer {
  name: "bn1"
  type: "BatchNorm"
  bottom: "conv1"
  top: "scale1"
  param {
    lr_mult: 1
    decay_mult: 0
    compression: PRUNE
  }
  param {
    lr_mult: 1
    decay_mult: 0
    compression: PRUNE
  }
  param {
    lr_mult: 0
    decay_mult: 0
    compression: PRUNE
  }
  param {
    lr_mult: 0
    decay_mult: 0
    compression: PRUNE
  }
  batch_norm_param {
    use_global_stats: false
    scale_filler {
      type: "constant"
      value: 1
    }
    bias_filler {
      type: "constant"
      value: 0
    }
  }
}
layer {
  name: "relu1"
  type: "ReLU"
  bottom: "scale1"
  top: "relu1"
}
layer {
  name: "pool1"
  type: "Pooling"
  bottom: "relu1"
  top: "pool1"
  pooling_param {
    pool: MAX
    kernel_size: 3
    stride: 2
  }
}
layer {
  name: "conv2"
  type: "Convolution"
  bottom: "pool1"
  top: "conv2"
  param {
    lr_mult: 1
    decay_mult: 1
    compression: PRUNE
  }
  param {
    lr_mult: 2
    decay_mult: 0
    compression: PRUNE
  }
  convolution_param {
    num_output: 256
    pad: 2
    kernel_size: 5
    group: 1
    weight_filler {
      type: "gaussian"
      std: 0.01
    }
    bias_filler {
      type: "constant"
      value: 1
    }
  }
}
layer {
  name: "bn2"
  type: "BatchNorm"
  bottom: "conv2"
  top: "scale2"
  param {
    lr_mult: 1
    decay_mult: 0
    compression: PRUNE
  }
  param {
    lr_mult: 1
    decay_mult: 0
    compression: PRUNE
  }
  param {
    lr_mult: 0
    decay_mult: 0
    compression: PRUNE
  }
  param {
    lr_mult: 0
    decay_mult: 0
    compression: PRUNE
  }
  batch_norm_param {
    use_global_stats: false
    scale_filler {
      type: "constant"
      value: 1
    }
    bias_filler {
      type: "constant"
      value: 0
    }
  }
}
layer {
  name: "relu2"
  type: "ReLU"
  bottom: "scale2"
  top: "relu2"
}
layer {
  name: "pool2"
  type: "Pooling"
  bottom: "relu2"
  top: "pool2"
  pooling_param {
    pool: MAX
    kernel_size: 3
    stride: 2
  }
}
layer {
  name: "conv3"
  type: "Convolution"
  bottom: "pool2"
  top: "conv3"
  param {
    lr_mult: 1
    decay_mult: 1
    compression: PRUNE
  }
  param {
    lr_mult: 2
    decay_mult: 0
    compression: PRUNE
  }
  convolution_param {
    num_output: 384
    pad: 1
    kernel_size: 3
    weight_filler {
      type: "gaussian"
      std: 0.01
    }
    bias_filler {
      type: "constant"
      value: 0
    }
  }
}
layer {
  name: "relu3"
  type: "ReLU"
  bottom: "conv3"
  top: "relu3"
}
layer {
  name: "conv4"
  type: "Convolution"
  bottom: "relu3"
  top: "conv4"
  param {
    lr_mult: 1
    decay_mult: 1
    compression: PRUNE
  }
  param {
    lr_mult: 2
    decay_mult: 0
    compression: PRUNE
  }
  convolution_param {
    num_output: 384
    pad: 1
    kernel_size: 3
    group: 1
    weight_filler {
      type: "gaussian"
      std: 0.01
    }
    bias_filler {
      type: "constant"
      value: 1
    }
  }
}
layer {
  name: "relu4"
  type: "ReLU"
  bottom: "conv4"
  top: "relu4"
}
layer {
  name: "conv5"
  type: "Convolution"
  bottom: "relu4"
  top: "conv5"
  param {
    lr_mult: 1
    decay_mult: 1
    compression: PRUNE
  }
  param {
    lr_mult: 2
    decay_mult: 0
    compression: PRUNE
  }
  convolution_param {
    num_output: 256
    pad: 1
    kernel_size: 3
    group: 1
    weight_filler {
      type: "gaussian"
      std: 0.01
    }
    bias_filler {
      type: "constant"
      value: 1
    }
  }
}
layer {
  name: "relu5"
  type: "ReLU"
  bottom: "conv5"
  top: "relu5"
}
layer {
  name: "pool5"
  type: "Pooling"
  bottom: "relu5"
  top: "pool5"
  pooling_param {
    pool: MAX
    kernel_size: 3
    stride: 2
  }
}
layer {
  name: "fc6"
  type: "InnerProduct"
  bottom: "pool5"
  top: "fc6"
  param {
    lr_mult: 1
    decay_mult: 1
  }
  param {
    lr_mult: 2
    decay_mult: 0
  }
  inner_product_param {
    num_output: 4096
    weight_filler {
      type: "gaussian"
      std: 0.005
    }
    bias_filler {
      type: "constant"
      value: 1
    }
  }
}
layer {
  name: "relu6"
  type: "ReLU"
  bottom: "fc6"
  top: "relu6"
}
layer {
  name: "drop6"
  type: "Dropout"
  bottom: "relu6"
  top: "drop6"
  dropout_param {
    dropout_ratio: 0.5
  }
}
layer {
  name: "fc7"
  type: "InnerProduct"
  bottom: "drop6"
  top: "fc7"
  param {
    lr_mult: 1
    decay_mult: 1
  }
  param {
    lr_mult: 2
    decay_mult: 0
  }
  inner_product_param {
    num_output: 4096
    weight_filler {
      type: "gaussian"
      std: 0.005
    }
    bias_filler {
      type: "constant"
      value: 1
    }
  }
}
layer {
  name: "bn7"
  type: "BatchNorm"
  bottom: "fc7"
  top: "scale7"
  param {
    lr_mult: 1
    decay_mult: 0
    compression: PRUNE
  }
  param {
    lr_mult: 1
    decay_mult: 0
    compression: PRUNE
  }
  param {
    lr_mult: 0
    decay_mult: 0
    compression: PRUNE
  }
  param {
    lr_mult: 0
    decay_mult: 0
    compression: PRUNE
  }
  batch_norm_param {
    use_global_stats: false
    scale_filler {
      type: "constant"
      value: 1
    }
    bias_filler {
      type: "constant"
      value: 0
    }
  }
}
layer {
  name: "relu7"
  type: "ReLU"
  bottom: "scale7"
  top: "relu7"
}
layer {
  name: "drop7"
  type: "Dropout"
  bottom: "relu7"
  top: "drop7"
  dropout_param {
    dropout_ratio: 0.5
  }
}
layer {
  name: "fc8"
  type: "InnerProduct"
  bottom: "drop7"
  top: "fc8"
  param {
    lr_mult: 1
    decay_mult: 1
  }
  param {
    lr_mult: 2
    decay_mult: 0
  }
  inner_product_param {
    num_output: 2
    weight_filler {
      type: "gaussian"
      std: 0.01
    }
    bias_filler {
      type: "constant"
      value: 0
    }
  }
}
layer {
  name: "loss"
  type: "SoftmaxWithLoss"
  bottom: "fc8"
  bottom: "label"
  top: "loss"
}
I1107 01:50:17.729331 36240 layer_factory.hpp:77] Creating layer data
I1107 01:50:17.729460 36240 internal_thread.cpp:27] Starting internal thread(s) on GPU 0
I1107 01:50:17.730088 36240 net.cpp:94] Creating Layer data
I1107 01:50:17.730099 36240 net.cpp:409] data -> data
I1107 01:50:17.730113 36240 net.cpp:409] data -> label
I1107 01:50:17.731422 36279 db_lmdb.cpp:35] Opened lmdb /home/danieleb/ML/cats-vs-dogs/input/lmdb/train_lmdb
I1107 01:50:17.731465 36279 data_reader.cpp:117] TRAIN: reading data using 1 channel(s)
I1107 01:50:17.731720 36240 data_layer.cpp:78] ReshapePrefetch 256, 3, 227, 227
I1107 01:50:17.731791 36240 data_layer.cpp:83] output data size: 256,3,227,227
I1107 01:50:18.100697 36240 internal_thread.cpp:27] Starting internal thread(s) on GPU 0
I1107 01:50:18.100772 36240 net.cpp:144] Setting up data
I1107 01:50:18.100782 36240 net.cpp:151] Top shape: 256 3 227 227 (39574272)
I1107 01:50:18.100787 36240 net.cpp:151] Top shape: 256 (256)
I1107 01:50:18.100790 36240 net.cpp:159] Memory required for data: 158298112
I1107 01:50:18.100798 36240 layer_factory.hpp:77] Creating layer conv1
I1107 01:50:18.100831 36240 net.cpp:94] Creating Layer conv1
I1107 01:50:18.100836 36240 net.cpp:435] conv1 <- data
I1107 01:50:18.100857 36240 net.cpp:409] conv1 -> conv1
I1107 01:50:18.102741 36240 net.cpp:144] Setting up conv1
I1107 01:50:18.102754 36240 net.cpp:151] Top shape: 256 96 55 55 (74342400)
I1107 01:50:18.102757 36240 net.cpp:159] Memory required for data: 455667712
I1107 01:50:18.102790 36240 layer_factory.hpp:77] Creating layer bn1
I1107 01:50:18.102803 36240 net.cpp:94] Creating Layer bn1
I1107 01:50:18.102807 36240 net.cpp:435] bn1 <- conv1
I1107 01:50:18.102814 36240 net.cpp:409] bn1 -> scale1
I1107 01:50:18.104099 36240 net.cpp:144] Setting up bn1
I1107 01:50:18.104105 36240 net.cpp:151] Top shape: 256 96 55 55 (74342400)
I1107 01:50:18.104109 36240 net.cpp:159] Memory required for data: 753037312
I1107 01:50:18.104120 36240 layer_factory.hpp:77] Creating layer relu1
I1107 01:50:18.104126 36240 net.cpp:94] Creating Layer relu1
I1107 01:50:18.104131 36240 net.cpp:435] relu1 <- scale1
I1107 01:50:18.104136 36240 net.cpp:409] relu1 -> relu1
I1107 01:50:18.104216 36240 net.cpp:144] Setting up relu1
I1107 01:50:18.104223 36240 net.cpp:151] Top shape: 256 96 55 55 (74342400)
I1107 01:50:18.104226 36240 net.cpp:159] Memory required for data: 1050406912
I1107 01:50:18.104230 36240 layer_factory.hpp:77] Creating layer pool1
I1107 01:50:18.104238 36240 net.cpp:94] Creating Layer pool1
I1107 01:50:18.104241 36240 net.cpp:435] pool1 <- relu1
I1107 01:50:18.104248 36240 net.cpp:409] pool1 -> pool1
I1107 01:50:18.104285 36240 net.cpp:144] Setting up pool1
I1107 01:50:18.104290 36240 net.cpp:151] Top shape: 256 96 27 27 (17915904)
I1107 01:50:18.104293 36240 net.cpp:159] Memory required for data: 1122070528
I1107 01:50:18.104297 36240 layer_factory.hpp:77] Creating layer conv2
I1107 01:50:18.104306 36240 net.cpp:94] Creating Layer conv2
I1107 01:50:18.104310 36240 net.cpp:435] conv2 <- pool1
I1107 01:50:18.104316 36240 net.cpp:409] conv2 -> conv2
I1107 01:50:18.118978 36240 net.cpp:144] Setting up conv2
I1107 01:50:18.119005 36240 net.cpp:151] Top shape: 256 256 27 27 (47775744)
I1107 01:50:18.119010 36240 net.cpp:159] Memory required for data: 1313173504
I1107 01:50:18.119025 36240 layer_factory.hpp:77] Creating layer bn2
I1107 01:50:18.119040 36240 net.cpp:94] Creating Layer bn2
I1107 01:50:18.119045 36240 net.cpp:435] bn2 <- conv2
I1107 01:50:18.119055 36240 net.cpp:409] bn2 -> scale2
I1107 01:50:18.119626 36240 net.cpp:144] Setting up bn2
I1107 01:50:18.119634 36240 net.cpp:151] Top shape: 256 256 27 27 (47775744)
I1107 01:50:18.119638 36240 net.cpp:159] Memory required for data: 1504276480
I1107 01:50:18.119650 36240 layer_factory.hpp:77] Creating layer relu2
I1107 01:50:18.119668 36240 net.cpp:94] Creating Layer relu2
I1107 01:50:18.119673 36240 net.cpp:435] relu2 <- scale2
I1107 01:50:18.119680 36240 net.cpp:409] relu2 -> relu2
I1107 01:50:18.119709 36240 net.cpp:144] Setting up relu2
I1107 01:50:18.119715 36240 net.cpp:151] Top shape: 256 256 27 27 (47775744)
I1107 01:50:18.119720 36240 net.cpp:159] Memory required for data: 1695379456
I1107 01:50:18.119724 36240 layer_factory.hpp:77] Creating layer pool2
I1107 01:50:18.119735 36240 net.cpp:94] Creating Layer pool2
I1107 01:50:18.119738 36240 net.cpp:435] pool2 <- relu2
I1107 01:50:18.119756 36240 net.cpp:409] pool2 -> pool2
I1107 01:50:18.119788 36240 net.cpp:144] Setting up pool2
I1107 01:50:18.119796 36240 net.cpp:151] Top shape: 256 256 13 13 (11075584)
I1107 01:50:18.119801 36240 net.cpp:159] Memory required for data: 1739681792
I1107 01:50:18.119805 36240 layer_factory.hpp:77] Creating layer conv3
I1107 01:50:18.119817 36240 net.cpp:94] Creating Layer conv3
I1107 01:50:18.119822 36240 net.cpp:435] conv3 <- pool2
I1107 01:50:18.119828 36240 net.cpp:409] conv3 -> conv3
I1107 01:50:18.129686 36240 net.cpp:144] Setting up conv3
I1107 01:50:18.129724 36240 net.cpp:151] Top shape: 256 384 13 13 (16613376)
I1107 01:50:18.129729 36240 net.cpp:159] Memory required for data: 1806135296
I1107 01:50:18.129741 36240 layer_factory.hpp:77] Creating layer relu3
I1107 01:50:18.129755 36240 net.cpp:94] Creating Layer relu3
I1107 01:50:18.129760 36240 net.cpp:435] relu3 <- conv3
I1107 01:50:18.129787 36240 net.cpp:409] relu3 -> relu3
I1107 01:50:18.129846 36240 net.cpp:144] Setting up relu3
I1107 01:50:18.129868 36240 net.cpp:151] Top shape: 256 384 13 13 (16613376)
I1107 01:50:18.129886 36240 net.cpp:159] Memory required for data: 1872588800
I1107 01:50:18.129909 36240 layer_factory.hpp:77] Creating layer conv4
I1107 01:50:18.129932 36240 net.cpp:94] Creating Layer conv4
I1107 01:50:18.129946 36240 net.cpp:435] conv4 <- relu3
I1107 01:50:18.129962 36240 net.cpp:409] conv4 -> conv4
I1107 01:50:18.160538 36240 net.cpp:144] Setting up conv4
I1107 01:50:18.160604 36240 net.cpp:151] Top shape: 256 384 13 13 (16613376)
I1107 01:50:18.160617 36240 net.cpp:159] Memory required for data: 1939042304
I1107 01:50:18.160646 36240 layer_factory.hpp:77] Creating layer relu4
I1107 01:50:18.160667 36240 net.cpp:94] Creating Layer relu4
I1107 01:50:18.160681 36240 net.cpp:435] relu4 <- conv4
I1107 01:50:18.160706 36240 net.cpp:409] relu4 -> relu4
I1107 01:50:18.160758 36240 net.cpp:144] Setting up relu4
I1107 01:50:18.160778 36240 net.cpp:151] Top shape: 256 384 13 13 (16613376)
I1107 01:50:18.160790 36240 net.cpp:159] Memory required for data: 2005495808
I1107 01:50:18.160804 36240 layer_factory.hpp:77] Creating layer conv5
I1107 01:50:18.160826 36240 net.cpp:94] Creating Layer conv5
I1107 01:50:18.160841 36240 net.cpp:435] conv5 <- relu4
I1107 01:50:18.160858 36240 net.cpp:409] conv5 -> conv5
I1107 01:50:18.198796 36240 net.cpp:144] Setting up conv5
I1107 01:50:18.198843 36240 net.cpp:151] Top shape: 256 256 13 13 (11075584)
I1107 01:50:18.198858 36240 net.cpp:159] Memory required for data: 2049798144
I1107 01:50:18.198877 36240 layer_factory.hpp:77] Creating layer relu5
I1107 01:50:18.198894 36240 net.cpp:94] Creating Layer relu5
I1107 01:50:18.198905 36240 net.cpp:435] relu5 <- conv5
I1107 01:50:18.198920 36240 net.cpp:409] relu5 -> relu5
I1107 01:50:18.198983 36240 net.cpp:144] Setting up relu5
I1107 01:50:18.198999 36240 net.cpp:151] Top shape: 256 256 13 13 (11075584)
I1107 01:50:18.199007 36240 net.cpp:159] Memory required for data: 2094100480
I1107 01:50:18.199013 36240 layer_factory.hpp:77] Creating layer pool5
I1107 01:50:18.199033 36240 net.cpp:94] Creating Layer pool5
I1107 01:50:18.199041 36240 net.cpp:435] pool5 <- relu5
I1107 01:50:18.199054 36240 net.cpp:409] pool5 -> pool5
I1107 01:50:18.199134 36240 net.cpp:144] Setting up pool5
I1107 01:50:18.199149 36240 net.cpp:151] Top shape: 256 256 6 6 (2359296)
I1107 01:50:18.199156 36240 net.cpp:159] Memory required for data: 2103537664
I1107 01:50:18.199162 36240 layer_factory.hpp:77] Creating layer fc6
I1107 01:50:18.199179 36240 net.cpp:94] Creating Layer fc6
I1107 01:50:18.199187 36240 net.cpp:435] fc6 <- pool5
I1107 01:50:18.199198 36240 net.cpp:409] fc6 -> fc6
I1107 01:50:18.531431 36240 net.cpp:144] Setting up fc6
I1107 01:50:18.531456 36240 net.cpp:151] Top shape: 256 4096 (1048576)
I1107 01:50:18.531460 36240 net.cpp:159] Memory required for data: 2107731968
I1107 01:50:18.531483 36240 layer_factory.hpp:77] Creating layer relu6
I1107 01:50:18.531499 36240 net.cpp:94] Creating Layer relu6
I1107 01:50:18.531503 36240 net.cpp:435] relu6 <- fc6
I1107 01:50:18.531530 36240 net.cpp:409] relu6 -> relu6
I1107 01:50:18.531548 36240 net.cpp:144] Setting up relu6
I1107 01:50:18.531551 36240 net.cpp:151] Top shape: 256 4096 (1048576)
I1107 01:50:18.531554 36240 net.cpp:159] Memory required for data: 2111926272
I1107 01:50:18.531556 36240 layer_factory.hpp:77] Creating layer drop6
I1107 01:50:18.531563 36240 net.cpp:94] Creating Layer drop6
I1107 01:50:18.531564 36240 net.cpp:435] drop6 <- relu6
I1107 01:50:18.531569 36240 net.cpp:409] drop6 -> drop6
I1107 01:50:18.531590 36240 net.cpp:144] Setting up drop6
I1107 01:50:18.531595 36240 net.cpp:151] Top shape: 256 4096 (1048576)
I1107 01:50:18.531597 36240 net.cpp:159] Memory required for data: 2116120576
I1107 01:50:18.531615 36240 layer_factory.hpp:77] Creating layer fc7
I1107 01:50:18.531620 36240 net.cpp:94] Creating Layer fc7
I1107 01:50:18.531623 36240 net.cpp:435] fc7 <- drop6
I1107 01:50:18.531627 36240 net.cpp:409] fc7 -> fc7
I1107 01:50:18.666527 36240 net.cpp:144] Setting up fc7
I1107 01:50:18.666550 36240 net.cpp:151] Top shape: 256 4096 (1048576)
I1107 01:50:18.666569 36240 net.cpp:159] Memory required for data: 2120314880
I1107 01:50:18.666576 36240 layer_factory.hpp:77] Creating layer bn7
I1107 01:50:18.666585 36240 net.cpp:94] Creating Layer bn7
I1107 01:50:18.666589 36240 net.cpp:435] bn7 <- fc7
I1107 01:50:18.666594 36240 net.cpp:409] bn7 -> scale7
I1107 01:50:18.667109 36240 net.cpp:144] Setting up bn7
I1107 01:50:18.667115 36240 net.cpp:151] Top shape: 256 4096 (1048576)
I1107 01:50:18.667117 36240 net.cpp:159] Memory required for data: 2124509184
I1107 01:50:18.667124 36240 layer_factory.hpp:77] Creating layer relu7
I1107 01:50:18.667129 36240 net.cpp:94] Creating Layer relu7
I1107 01:50:18.667131 36240 net.cpp:435] relu7 <- scale7
I1107 01:50:18.667135 36240 net.cpp:409] relu7 -> relu7
I1107 01:50:18.667152 36240 net.cpp:144] Setting up relu7
I1107 01:50:18.667157 36240 net.cpp:151] Top shape: 256 4096 (1048576)
I1107 01:50:18.667160 36240 net.cpp:159] Memory required for data: 2128703488
I1107 01:50:18.667161 36240 layer_factory.hpp:77] Creating layer drop7
I1107 01:50:18.667166 36240 net.cpp:94] Creating Layer drop7
I1107 01:50:18.667170 36240 net.cpp:435] drop7 <- relu7
I1107 01:50:18.667172 36240 net.cpp:409] drop7 -> drop7
I1107 01:50:18.667196 36240 net.cpp:144] Setting up drop7
I1107 01:50:18.667201 36240 net.cpp:151] Top shape: 256 4096 (1048576)
I1107 01:50:18.667202 36240 net.cpp:159] Memory required for data: 2132897792
I1107 01:50:18.667204 36240 layer_factory.hpp:77] Creating layer fc8
I1107 01:50:18.667209 36240 net.cpp:94] Creating Layer fc8
I1107 01:50:18.667212 36240 net.cpp:435] fc8 <- drop7
I1107 01:50:18.667217 36240 net.cpp:409] fc8 -> fc8
I1107 01:50:18.668082 36240 net.cpp:144] Setting up fc8
I1107 01:50:18.668093 36240 net.cpp:151] Top shape: 256 2 (512)
I1107 01:50:18.668097 36240 net.cpp:159] Memory required for data: 2132899840
I1107 01:50:18.668102 36240 layer_factory.hpp:77] Creating layer loss
I1107 01:50:18.668108 36240 net.cpp:94] Creating Layer loss
I1107 01:50:18.668112 36240 net.cpp:435] loss <- fc8
I1107 01:50:18.668115 36240 net.cpp:435] loss <- label
I1107 01:50:18.668119 36240 net.cpp:409] loss -> loss
I1107 01:50:18.668126 36240 layer_factory.hpp:77] Creating layer loss
…
I0131 03:15:58.891110   857 net.cpp:323] The NetState phase (1) differed from the phase (0) specified by a rule in layer data
I0131 03:15:58.893219   857 net.cpp:52] Initializing net from parameters: 
name: "alexnetBNnoLRN m2 (as m3 but less DROP and less BN)"
state {
  phase: TEST
}
layer {
  name: "data"
  type: "Data"
  top: "data"
  top: "label"
  include {
    phase: TEST
  }
  transform_param {
    mirror: false
    crop_size: 227
    mean_value: 106
    mean_value: 116
    mean_value: 124
  }
  data_param {
    source: "cats-vs-dogs/input/lmdb/valid_lmdb"
    batch_size: 50
    backend: LMDB
  }
}
layer {
  name: "conv1"
  type: "Convolution"
  bottom: "data"
  top: "conv1"
  param {
    lr_mult: 1
    decay_mult: 1
  }
  param {
    lr_mult: 2
    decay_mult: 0
  }
  convolution_param {
    num_output: 96
    pad: 1
    kernel_size: 11
    stride: 4
    weight_filler {
      type: "gaussian"
      std: 0.01
    }
    bias_filler {
      type: "constant"
      value: 0
    }
  }
}
layer {
  name: "bn1"
  type: "BatchNorm"
  bottom: "conv1"
  top: "bn1"
  param {
    lr_mult: 0
  }
  param {
    lr_mult: 0
  }
  param {
    lr_mult: 0
  }
  batch_norm_param {
    use_global_stats: false
  }
}
layer {
  name: "scale1"
  type: "Scale"
  bottom: "bn1"
  top: "scale1"
  scale_param {
    bias_term: true
  }
}
layer {
  name: "relu1"
  type: "ReLU"
  bottom: "scale1"
  top: "relu1"
}
layer {
  name: "pool1"
  type: "Pooling"
  bottom: "relu1"
  top: "pool1"
  pooling_param {
    pool: MAX
    kernel_size: 3
    stride: 2
  }
}
layer {
  name: "conv2"
  type: "Convolution"
  bottom: "pool1"
  top: "conv2"
  param {
    lr_mult: 1
    decay_mult: 1
  }
  param {
    lr_mult: 2
    decay_mult: 0
  }
  convolution_param {
    num_output: 256
    pad: 2
    kernel_size: 5
    group: 1
    weight_filler {
      type: "gaussian"
      std: 0.01
    }
    bias_filler {
      type: "constant"
      value: 1
    }
  }
}
layer {
  name: "bn2"
  type: "BatchNorm"
  bottom: "conv2"
  top: "bn2"
  param {
    lr_mult: 0
  }
  param {
    lr_mult: 0
  }
  param {
    lr_mult: 0
  }
  batch_norm_param {
    use_global_stats: false
  }
}
layer {
  name: "scale2"
  type: "Scale"
  bottom: "bn2"
  top: "scale2"
  scale_param {
    bias_term: true
  }
}
layer {
  name: "relu2"
  type: "ReLU"
  bottom: "scale2"
  top: "relu2"
}
layer {
  name: "pool2"
  type: "Pooling"
  bottom: "relu2"
  top: "pool2"
  pooling_param {
    pool: MAX
    kernel_size: 3
    stride: 2
  }
}
layer {
  name: "conv3"
  type: "Convolution"
  bottom: "pool2"
  top: "conv3"
  param {
    lr_mult: 1
    decay_mult: 1
  }
  param {
    lr_mult: 2
    decay_mult: 0
  }
  convolution_param {
    num_output: 384
    pad: 1
    kernel_size: 3
    weight_filler {
      type: "gaussian"
      std: 0.01
    }
    bias_filler {
      type: "constant"
      value: 0
    }
  }
}
layer {
  name: "relu3"
  type: "ReLU"
  bottom: "conv3"
  top: "relu3"
}
layer {
  name: "conv4"
  type: "Convolution"
  bottom: "relu3"
  top: "conv4"
  param {
    lr_mult: 1
    decay_mult: 1
  }
  param {
    lr_mult: 2
    decay_mult: 0
  }
  convolution_param {
    num_output: 384
    pad: 1
    kernel_size: 3
    group: 1
    weight_filler {
      type: "gaussian"
      std: 0.01
    }
    bias_filler {
      type: "constant"
      value: 1
    }
  }
}
layer {
  name: "relu4"
  type: "ReLU"
  bottom: "conv4"
  top: "relu4"
}
layer {
  name: "conv5"
  type: "Convolution"
  bottom: "relu4"
  top: "conv5"
  param {
    lr_mult: 1
    decay_mult: 1
  }
  param {
    lr_mult: 2
    decay_mult: 0
  }
  convolution_param {
    num_output: 256
    pad: 1
    kernel_size: 3
    group: 1
    weight_filler {
      type: "gaussian"
      std: 0.01
    }
    bias_filler {
      type: "constant"
      value: 1
    }
  }
}
layer {
  name: "relu5"
  type: "ReLU"
  bottom: "conv5"
  top: "relu5"
}
layer {
  name: "pool5"
  type: "Pooling"
  bottom: "relu5"
  top: "pool5"
  pooling_param {
    pool: MAX
    kernel_size: 3
    stride: 2
  }
}
layer {
  name: "fc6"
  type: "InnerProduct"
  bottom: "pool5"
  top: "fc6"
  param {
    lr_mult: 1
    decay_mult: 1
  }
  param {
    lr_mult: 2
    decay_mult: 0
  }
  inner_product_param {
    num_output: 4096
    weight_filler {
      type: "gaussian"
      std: 0.005
    }
    bias_filler {
      type: "constant"
      value: 1
    }
  }
}
layer {
  name: "relu6"
  type: "ReLU"
  bottom: "fc6"
  top: "relu6"
}
layer {
  name: "drop6"
  type: "Dropout"
  bottom: "relu6"
  top: "drop6"
  dropout_param {
    dropout_ratio: 0.5
  }
}
layer {
  name: "fc7"
  type: "InnerProduct"
  bottom: "drop6"
  top: "fc7"
  param {
    lr_mult: 1
    decay_mult: 1
  }
  param {
    lr_mult: 2
    decay_mult: 0
  }
  inner_product_param {
    num_output: 4096
    weight_filler {
      type: "gaussian"
      std: 0.005
    }
    bias_filler {
      type: "constant"
      value: 1
    }
  }
}
layer {
  name: "bn7"
  type: "BatchNorm"
  bottom: "fc7"
  top: "bn7"
  param {
    lr_mult: 0
  }
  param {
    lr_mult: 0
  }
  param {
    lr_mult: 0
  }
  batch_norm_param {
    use_global_stats: false
  }
}
layer {
  name: "scale7"
  type: "Scale"
  bottom: "bn7"
  top: "scale7"
  scale_param {
    bias_term: true
  }
}
layer {
  name: "relu7"
  type: "ReLU"
  bottom: "scale7"
  top: "relu7"
}
layer {
  name: "drop7"
  type: "Dropout"
  bottom: "relu7"
  top: "drop7"
  dropout_param {
    dropout_ratio: 0.5
  }
}
layer {
  name: "fc8"
  type: "InnerProduct"
  bottom: "drop7"
  top: "fc8"
  param {
    lr_mult: 1
    decay_mult: 1
  }
  param {
    lr_mult: 2
    decay_mult: 0
  }
  inner_product_param {
    num_output: 2
    weight_filler {
      type: "gaussian"
      std: 0.01
    }
    bias_filler {
      type: "constant"
      value: 0
    }
  }
}
layer {
  name: "loss"
  type: "SoftmaxWithLoss"
  bottom: "fc8"
  bottom: "label"
  top: "loss"
}
layer {
  name: "accuracy-top1"
  type: "Accuracy"
  bottom: "fc8"
  bottom: "label"
  top: "top-1"
  include {
    phase: TEST
  }
}
I0131 03:15:58.893430   857 layer_factory.hpp:77] Creating layer data
I0131 03:15:58.894522   857 internal_thread.cpp:27] Starting internal thread(s) on GPU 0
I0131 03:15:58.895231   857 net.cpp:94] Creating Layer data
I0131 03:15:58.895258   857 net.cpp:409] data -> data
I0131 03:15:58.895283   857 net.cpp:409] data -> label
I0131 03:15:58.897016   892 db_lmdb.cpp:35] Opened lmdb cats-vs-dogs/input/lmdb/valid_lmdb
I0131 03:15:58.897054   892 data_reader.cpp:117] TEST: reading data using 1 channel(s)
I0131 03:15:58.897348   857 data_layer.cpp:78] ReshapePrefetch 50, 3, 227, 227
I0131 03:15:58.897379   857 data_layer.cpp:83] output data size: 50,3,227,227
I0131 03:15:58.984671   857 internal_thread.cpp:27] Starting internal thread(s) on GPU 0
I0131 03:15:58.984735   857 net.cpp:144] Setting up data
I0131 03:15:58.984742   857 net.cpp:151] Top shape: 50 3 227 227 (7729350)
I0131 03:15:58.984745   857 net.cpp:151] Top shape: 50 (50)
I0131 03:15:58.984764   857 net.cpp:159] Memory required for data: 30917600
I0131 03:15:58.984774   857 layer_factory.hpp:77] Creating layer label_data_1_split
I0131 03:15:58.984784   857 net.cpp:94] Creating Layer label_data_1_split
I0131 03:15:58.984788   857 net.cpp:435] label_data_1_split <- label
I0131 03:15:58.984815   857 net.cpp:409] label_data_1_split -> label_data_1_split_0
I0131 03:15:58.984825   857 net.cpp:409] label_data_1_split -> label_data_1_split_1
I0131 03:15:58.984836   857 net.cpp:144] Setting up label_data_1_split
I0131 03:15:58.984839   857 net.cpp:151] Top shape: 50 (50)
I0131 03:15:58.984843   857 net.cpp:151] Top shape: 50 (50)
I0131 03:15:58.984844   857 net.cpp:159] Memory required for data: 30918000
I0131 03:15:58.984848   857 layer_factory.hpp:77] Creating layer conv1
I0131 03:15:58.984856   857 net.cpp:94] Creating Layer conv1
I0131 03:15:58.984859   857 net.cpp:435] conv1 <- data
I0131 03:15:58.984863   857 net.cpp:409] conv1 -> conv1
I0131 03:15:58.985476   857 net.cpp:144] Setting up conv1
I0131 03:15:58.985481   857 net.cpp:151] Top shape: 50 96 55 55 (14520000)
I0131 03:15:58.985484   857 net.cpp:159] Memory required for data: 88998000
I0131 03:15:58.985502   857 layer_factory.hpp:77] Creating layer bn1
I0131 03:15:58.985509   857 net.cpp:94] Creating Layer bn1
I0131 03:15:58.985512   857 net.cpp:435] bn1 <- conv1
I0131 03:15:58.985533   857 net.cpp:409] bn1 -> bn1
I0131 03:15:58.985569   857 net.cpp:144] Setting up bn1
I0131 03:15:58.985574   857 net.cpp:151] Top shape: 50 96 55 55 (14520000)
I0131 03:15:58.985579   857 net.cpp:159] Memory required for data: 147078000
I0131 03:15:58.985589   857 layer_factory.hpp:77] Creating layer scale1
I0131 03:15:58.985595   857 net.cpp:94] Creating Layer scale1
I0131 03:15:58.985599   857 net.cpp:435] scale1 <- bn1
I0131 03:15:58.985602   857 net.cpp:409] scale1 -> scale1
I0131 03:15:58.985611   857 layer_factory.hpp:77] Creating layer scale1
I0131 03:15:58.985628   857 net.cpp:144] Setting up scale1
I0131 03:15:58.985635   857 net.cpp:151] Top shape: 50 96 55 55 (14520000)
I0131 03:15:58.985636   857 net.cpp:159] Memory required for data: 205158000
I0131 03:15:58.985642   857 layer_factory.hpp:77] Creating layer relu1
I0131 03:15:58.985647   857 net.cpp:94] Creating Layer relu1
I0131 03:15:58.985651   857 net.cpp:435] relu1 <- scale1
I0131 03:15:58.985654   857 net.cpp:409] relu1 -> relu1
I0131 03:15:58.985664   857 net.cpp:144] Setting up relu1
I0131 03:15:58.985667   857 net.cpp:151] Top shape: 50 96 55 55 (14520000)
I0131 03:15:58.985671   857 net.cpp:159] Memory required for data: 263238000
I0131 03:15:58.985673   857 layer_factory.hpp:77] Creating layer pool1
I0131 03:15:58.985678   857 net.cpp:94] Creating Layer pool1
I0131 03:15:58.985680   857 net.cpp:435] pool1 <- relu1
I0131 03:15:58.985685   857 net.cpp:409] pool1 -> pool1
I0131 03:15:58.985697   857 net.cpp:144] Setting up pool1
I0131 03:15:58.985700   857 net.cpp:151] Top shape: 50 96 27 27 (3499200)
I0131 03:15:58.985702   857 net.cpp:159] Memory required for data: 277234800
I0131 03:15:58.985705   857 layer_factory.hpp:77] Creating layer conv2
I0131 03:15:58.985713   857 net.cpp:94] Creating Layer conv2
I0131 03:15:58.985715   857 net.cpp:435] conv2 <- pool1
I0131 03:15:58.985720   857 net.cpp:409] conv2 -> conv2
I0131 03:15:58.991394   857 net.cpp:144] Setting up conv2
I0131 03:15:58.991415   857 net.cpp:151] Top shape: 50 256 27 27 (9331200)
I0131 03:15:58.991417   857 net.cpp:159] Memory required for data: 314559600
I0131 03:15:58.991422   857 layer_factory.hpp:77] Creating layer bn2
I0131 03:15:58.991430   857 net.cpp:94] Creating Layer bn2
I0131 03:15:58.991433   857 net.cpp:435] bn2 <- conv2
I0131 03:15:58.991438   857 net.cpp:409] bn2 -> bn2
I0131 03:15:58.991485   857 net.cpp:144] Setting up bn2
I0131 03:15:58.991492   857 net.cpp:151] Top shape: 50 256 27 27 (9331200)
I0131 03:15:58.991493   857 net.cpp:159] Memory required for data: 351884400
I0131 03:15:58.991502   857 layer_factory.hpp:77] Creating layer scale2
I0131 03:15:58.991506   857 net.cpp:94] Creating Layer scale2
I0131 03:15:58.991510   857 net.cpp:435] scale2 <- bn2
I0131 03:15:58.991514   857 net.cpp:409] scale2 -> scale2
I0131 03:15:58.991523   857 layer_factory.hpp:77] Creating layer scale2
I0131 03:15:58.991534   857 net.cpp:144] Setting up scale2
I0131 03:15:58.991540   857 net.cpp:151] Top shape: 50 256 27 27 (9331200)
I0131 03:15:58.991542   857 net.cpp:159] Memory required for data: 389209200
I0131 03:15:58.991550   857 layer_factory.hpp:77] Creating layer relu2
I0131 03:15:58.991554   857 net.cpp:94] Creating Layer relu2
I0131 03:15:58.991557   857 net.cpp:435] relu2 <- scale2
I0131 03:15:58.991562   857 net.cpp:409] relu2 -> relu2
I0131 03:15:58.991569   857 net.cpp:144] Setting up relu2
I0131 03:15:58.991571   857 net.cpp:151] Top shape: 50 256 27 27 (9331200)
I0131 03:15:58.991575   857 net.cpp:159] Memory required for data: 426534000
I0131 03:15:58.991577   857 layer_factory.hpp:77] Creating layer pool2
I0131 03:15:58.991581   857 net.cpp:94] Creating Layer pool2
I0131 03:15:58.991585   857 net.cpp:435] pool2 <- relu2
I0131 03:15:58.991588   857 net.cpp:409] pool2 -> pool2
I0131 03:15:58.991595   857 net.cpp:144] Setting up pool2
I0131 03:15:58.991598   857 net.cpp:151] Top shape: 50 256 13 13 (2163200)
I0131 03:15:58.991600   857 net.cpp:159] Memory required for data: 435186800
I0131 03:15:58.991603   857 layer_factory.hpp:77] Creating layer conv3
I0131 03:15:58.991621   857 net.cpp:94] Creating Layer conv3
I0131 03:15:58.991624   857 net.cpp:435] conv3 <- pool2
I0131 03:15:58.991629   857 net.cpp:409] conv3 -> conv3
I0131 03:15:59.000041   857 net.cpp:144] Setting up conv3
I0131 03:15:59.000062   857 net.cpp:151] Top shape: 50 384 13 13 (3244800)
I0131 03:15:59.000064   857 net.cpp:159] Memory required for data: 448166000
I0131 03:15:59.000069   857 layer_factory.hpp:77] Creating layer relu3
I0131 03:15:59.000075   857 net.cpp:94] Creating Layer relu3
I0131 03:15:59.000077   857 net.cpp:435] relu3 <- conv3
I0131 03:15:59.000082   857 net.cpp:409] relu3 -> relu3
I0131 03:15:59.000087   857 net.cpp:144] Setting up relu3
I0131 03:15:59.000092   857 net.cpp:151] Top shape: 50 384 13 13 (3244800)
I0131 03:15:59.000093   857 net.cpp:159] Memory required for data: 461145200
I0131 03:15:59.000097   857 layer_factory.hpp:77] Creating layer conv4
I0131 03:15:59.000102   857 net.cpp:94] Creating Layer conv4
I0131 03:15:59.000105   857 net.cpp:435] conv4 <- relu3
I0131 03:15:59.000109   857 net.cpp:409] conv4 -> conv4
I0131 03:15:59.013742   857 net.cpp:144] Setting up conv4
I0131 03:15:59.013758   857 net.cpp:151] Top shape: 50 384 13 13 (3244800)
I0131 03:15:59.013761   857 net.cpp:159] Memory required for data: 474124400
I0131 03:15:59.013767   857 layer_factory.hpp:77] Creating layer relu4
I0131 03:15:59.013772   857 net.cpp:94] Creating Layer relu4
I0131 03:15:59.013774   857 net.cpp:435] relu4 <- conv4
I0131 03:15:59.013780   857 net.cpp:409] relu4 -> relu4
I0131 03:15:59.013787   857 net.cpp:144] Setting up relu4
I0131 03:15:59.013789   857 net.cpp:151] Top shape: 50 384 13 13 (3244800)
I0131 03:15:59.013792   857 net.cpp:159] Memory required for data: 487103600
I0131 03:15:59.013794   857 layer_factory.hpp:77] Creating layer conv5
I0131 03:15:59.013803   857 net.cpp:94] Creating Layer conv5
I0131 03:15:59.013804   857 net.cpp:435] conv5 <- relu4
I0131 03:15:59.013808   857 net.cpp:409] conv5 -> conv5
I0131 03:15:59.022120   857 net.cpp:144] Setting up conv5
I0131 03:15:59.022135   857 net.cpp:151] Top shape: 50 256 13 13 (2163200)
I0131 03:15:59.022137   857 net.cpp:159] Memory required for data: 495756400
I0131 03:15:59.022142   857 layer_factory.hpp:77] Creating layer relu5
I0131 03:15:59.022147   857 net.cpp:94] Creating Layer relu5
I0131 03:15:59.022150   857 net.cpp:435] relu5 <- conv5
I0131 03:15:59.022155   857 net.cpp:409] relu5 -> relu5
I0131 03:15:59.022161   857 net.cpp:144] Setting up relu5
I0131 03:15:59.022163   857 net.cpp:151] Top shape: 50 256 13 13 (2163200)
I0131 03:15:59.022166   857 net.cpp:159] Memory required for data: 504409200
I0131 03:15:59.022167   857 layer_factory.hpp:77] Creating layer pool5
I0131 03:15:59.022172   857 net.cpp:94] Creating Layer pool5
I0131 03:15:59.022177   857 net.cpp:435] pool5 <- relu5
I0131 03:15:59.022181   857 net.cpp:409] pool5 -> pool5
I0131 03:15:59.022191   857 net.cpp:144] Setting up pool5
I0131 03:15:59.022194   857 net.cpp:151] Top shape: 50 256 6 6 (460800)
I0131 03:15:59.022197   857 net.cpp:159] Memory required for data: 506252400
I0131 03:15:59.022198   857 layer_factory.hpp:77] Creating layer fc6
I0131 03:15:59.022204   857 net.cpp:94] Creating Layer fc6
I0131 03:15:59.022207   857 net.cpp:435] fc6 <- pool5
I0131 03:15:59.022210   857 net.cpp:409] fc6 -> fc6
I0131 03:15:59.362529   857 net.cpp:144] Setting up fc6
I0131 03:15:59.362550   857 net.cpp:151] Top shape: 50 4096 (204800)
I0131 03:15:59.362553   857 net.cpp:159] Memory required for data: 507071600
I0131 03:15:59.362577   857 layer_factory.hpp:77] Creating layer relu6
I0131 03:15:59.362586   857 net.cpp:94] Creating Layer relu6
I0131 03:15:59.362588   857 net.cpp:435] relu6 <- fc6
I0131 03:15:59.362594   857 net.cpp:409] relu6 -> relu6
I0131 03:15:59.362606   857 net.cpp:144] Setting up relu6
I0131 03:15:59.362608   857 net.cpp:151] Top shape: 50 4096 (204800)
I0131 03:15:59.362612   857 net.cpp:159] Memory required for data: 507890800
I0131 03:15:59.362613   857 layer_factory.hpp:77] Creating layer drop6
I0131 03:15:59.362618   857 net.cpp:94] Creating Layer drop6
I0131 03:15:59.362638   857 net.cpp:435] drop6 <- relu6
I0131 03:15:59.362643   857 net.cpp:409] drop6 -> drop6
I0131 03:15:59.362648   857 net.cpp:144] Setting up drop6
I0131 03:15:59.362651   857 net.cpp:151] Top shape: 50 4096 (204800)
I0131 03:15:59.362653   857 net.cpp:159] Memory required for data: 508710000
I0131 03:15:59.362655   857 layer_factory.hpp:77] Creating layer fc7
I0131 03:15:59.362661   857 net.cpp:94] Creating Layer fc7
I0131 03:15:59.362663   857 net.cpp:435] fc7 <- drop6
I0131 03:15:59.362668   857 net.cpp:409] fc7 -> fc7
I0131 03:15:59.512369   857 net.cpp:144] Setting up fc7
I0131 03:15:59.512392   857 net.cpp:151] Top shape: 50 4096 (204800)
I0131 03:15:59.512395   857 net.cpp:159] Memory required for data: 509529200
I0131 03:15:59.512419   857 layer_factory.hpp:77] Creating layer bn7
I0131 03:15:59.512428   857 net.cpp:94] Creating Layer bn7
I0131 03:15:59.512432   857 net.cpp:435] bn7 <- fc7
I0131 03:15:59.512440   857 net.cpp:409] bn7 -> bn7
I0131 03:15:59.512502   857 net.cpp:144] Setting up bn7
I0131 03:15:59.512507   857 net.cpp:151] Top shape: 50 4096 (204800)
I0131 03:15:59.512509   857 net.cpp:159] Memory required for data: 510348400
I0131 03:15:59.512537   857 layer_factory.hpp:77] Creating layer scale7
I0131 03:15:59.512543   857 net.cpp:94] Creating Layer scale7
I0131 03:15:59.512547   857 net.cpp:435] scale7 <- bn7
I0131 03:15:59.512550   857 net.cpp:409] scale7 -> scale7
I0131 03:15:59.512567   857 layer_factory.hpp:77] Creating layer scale7
I0131 03:15:59.512586   857 net.cpp:144] Setting up scale7
I0131 03:15:59.512590   857 net.cpp:151] Top shape: 50 4096 (204800)
I0131 03:15:59.512593   857 net.cpp:159] Memory required for data: 511167600
I0131 03:15:59.512596   857 layer_factory.hpp:77] Creating layer relu7
I0131 03:15:59.512601   857 net.cpp:94] Creating Layer relu7
I0131 03:15:59.512603   857 net.cpp:435] relu7 <- scale7
I0131 03:15:59.512609   857 net.cpp:409] relu7 -> relu7
I0131 03:15:59.512615   857 net.cpp:144] Setting up relu7
I0131 03:15:59.512619   857 net.cpp:151] Top shape: 50 4096 (204800)
I0131 03:15:59.512620   857 net.cpp:159] Memory required for data: 511986800
I0131 03:15:59.512622   857 layer_factory.hpp:77] Creating layer drop7
I0131 03:15:59.512627   857 net.cpp:94] Creating Layer drop7
I0131 03:15:59.512630   857 net.cpp:435] drop7 <- relu7
I0131 03:15:59.512634   857 net.cpp:409] drop7 -> drop7
I0131 03:15:59.512639   857 net.cpp:144] Setting up drop7
I0131 03:15:59.512641   857 net.cpp:151] Top shape: 50 4096 (204800)
I0131 03:15:59.512643   857 net.cpp:159] Memory required for data: 512806000
I0131 03:15:59.512645   857 layer_factory.hpp:77] Creating layer fc8
I0131 03:15:59.512653   857 net.cpp:94] Creating Layer fc8
I0131 03:15:59.512655   857 net.cpp:435] fc8 <- drop7
I0131 03:15:59.512660   857 net.cpp:409] fc8 -> fc8
I0131 03:15:59.512759   857 net.cpp:144] Setting up fc8
I0131 03:15:59.512763   857 net.cpp:151] Top shape: 50 2 (100)
I0131 03:15:59.512768   857 net.cpp:159] Memory required for data: 512806400
I0131 03:15:59.512771   857 layer_factory.hpp:77] Creating layer fc8_fc8_0_split
I0131 03:15:59.512775   857 net.cpp:94] Creating Layer fc8_fc8_0_split
I0131 03:15:59.512778   857 net.cpp:435] fc8_fc8_0_split <- fc8
I0131 03:15:59.512782   857 net.cpp:409] fc8_fc8_0_split -> fc8_fc8_0_split_0
I0131 03:15:59.512787   857 net.cpp:409] fc8_fc8_0_split -> fc8_fc8_0_split_1
I0131 03:15:59.512792   857 net.cpp:144] Setting up fc8_fc8_0_split
I0131 03:15:59.512795   857 net.cpp:151] Top shape: 50 2 (100)
I0131 03:15:59.512799   857 net.cpp:151] Top shape: 50 2 (100)
I0131 03:15:59.512800   857 net.cpp:159] Memory required for data: 512807200
I0131 03:15:59.512802   857 layer_factory.hpp:77] Creating layer loss
I0131 03:15:59.512809   857 net.cpp:94] Creating Layer loss
I0131 03:15:59.512811   857 net.cpp:435] loss <- fc8_fc8_0_split_0
I0131 03:15:59.512814   857 net.cpp:435] loss <- label_data_1_split_0
I0131 03:15:59.512818   857 net.cpp:409] loss -> loss
…
