…
I0130 15:50:31.294030 101508 net.cpp:323] The NetState phase (0) differed from the phase (1) specified by a rule in layer accuracy-top1
I0130 15:50:31.294173 101508 net.cpp:52] Initializing net from parameters: 
state {
  phase: TRAIN
}
layer {
  name: "data"
  type: "Data"
  top: "data"
  top: "label"
  include {
    phase: TRAIN
  }
  transform_param {
    mirror: true
    crop_size: 227
    mean_value: 106
    mean_value: 116
    mean_value: 124
  }
  data_param {
    source: "cats-vs-dogs/input/lmdb/train_lmdb"
    batch_size: 256
    backend: LMDB
  }
}
layer {
  name: "conv1"
  type: "Convolution"
  bottom: "data"
  top: "conv1"
  param {
    lr_mult: 1
    decay_mult: 1
    compression: PRUNE
  }
  param {
    lr_mult: 2
    decay_mult: 0
    compression: PRUNE
  }
  convolution_param {
    num_output: 96
    pad: 1
    kernel_size: 11
    stride: 4
    weight_filler {
      type: "gaussian"
      std: 0.01
    }
    bias_filler {
      type: "constant"
      value: 0
    }
  }
}
layer {
  name: "bn1"
  type: "BatchNorm"
  bottom: "conv1"
  top: "scale1"
  param {
    lr_mult: 1
    decay_mult: 0
    compression: PRUNE
  }
  param {
    lr_mult: 1
    decay_mult: 0
    compression: PRUNE
  }
  param {
    lr_mult: 0
    decay_mult: 0
    compression: PRUNE
  }
  param {
    lr_mult: 0
    decay_mult: 0
    compression: PRUNE
  }
  batch_norm_param {
    use_global_stats: false
    scale_filler {
      type: "constant"
      value: 1
    }
    bias_filler {
      type: "constant"
      value: 0
    }
  }
}
layer {
  name: "relu1"
  type: "ReLU"
  bottom: "scale1"
  top: "relu1"
}
layer {
  name: "pool1"
  type: "Pooling"
  bottom: "relu1"
  top: "pool1"
  pooling_param {
    pool: MAX
    kernel_size: 3
    stride: 2
  }
}
layer {
  name: "conv2"
  type: "Convolution"
  bottom: "pool1"
  top: "conv2"
  param {
    lr_mult: 1
    decay_mult: 1
    compression: PRUNE
  }
  param {
    lr_mult: 2
    decay_mult: 0
    compression: PRUNE
  }
  convolution_param {
    num_output: 256
    pad: 2
    kernel_size: 5
    group: 1
    weight_filler {
      type: "gaussian"
      std: 0.01
    }
    bias_filler {
      type: "constant"
      value: 1
    }
  }
}
layer {
  name: "bn2"
  type: "BatchNorm"
  bottom: "conv2"
  top: "scale2"
  param {
    lr_mult: 1
    decay_mult: 0
    compression: PRUNE
  }
  param {
    lr_mult: 1
    decay_mult: 0
    compression: PRUNE
  }
  param {
    lr_mult: 0
    decay_mult: 0
    compression: PRUNE
  }
  param {
    lr_mult: 0
    decay_mult: 0
    compression: PRUNE
  }
  batch_norm_param {
    use_global_stats: false
    scale_filler {
      type: "constant"
      value: 1
    }
    bias_filler {
      type: "constant"
      value: 0
    }
  }
}
layer {
  name: "relu2"
  type: "ReLU"
  bottom: "scale2"
  top: "relu2"
}
layer {
  name: "pool2"
  type: "Pooling"
  bottom: "relu2"
  top: "pool2"
  pooling_param {
    pool: MAX
    kernel_size: 3
    stride: 2
  }
}
layer {
  name: "conv3"
  type: "Convolution"
  bottom: "pool2"
  top: "conv3"
  param {
    lr_mult: 1
    decay_mult: 1
    compression: PRUNE
  }
  param {
    lr_mult: 2
    decay_mult: 0
    compression: PRUNE
  }
  convolution_param {
    num_output: 384
    pad: 1
    kernel_size: 3
    weight_filler {
      type: "gaussian"
      std: 0.01
    }
    bias_filler {
      type: "constant"
      value: 0
    }
  }
}
layer {
  name: "relu3"
  type: "ReLU"
  bottom: "conv3"
  top: "relu3"
}
layer {
  name: "conv4"
  type: "Convolution"
  bottom: "relu3"
  top: "conv4"
  param {
    lr_mult: 1
    decay_mult: 1
    compression: PRUNE
  }
  param {
    lr_mult: 2
    decay_mult: 0
    compression: PRUNE
  }
  convolution_param {
    num_output: 384
    pad: 1
    kernel_size: 3
    group: 1
    weight_filler {
      type: "gaussian"
      std: 0.01
    }
    bias_filler {
      type: "constant"
      value: 1
    }
  }
}
layer {
  name: "relu4"
  type: "ReLU"
  bottom: "conv4"
  top: "relu4"
}
layer {
  name: "conv5"
  type: "Convolution"
  bottom: "relu4"
  top: "conv5"
  param {
    lr_mult: 1
    decay_mult: 1
    compression: PRUNE
  }
  param {
    lr_mult: 2
    decay_mult: 0
    compression: PRUNE
  }
  convolution_param {
    num_output: 256
    pad: 1
    kernel_size: 3
    group: 1
    weight_filler {
      type: "gaussian"
      std: 0.01
    }
    bias_filler {
      type: "constant"
      value: 1
    }
  }
}
layer {
  name: "relu5"
  type: "ReLU"
  bottom: "conv5"
  top: "relu5"
}
layer {
  name: "pool5"
  type: "Pooling"
  bottom: "relu5"
  top: "pool5"
  pooling_param {
    pool: MAX
    kernel_size: 3
    stride: 2
  }
}
layer {
  name: "fc6"
  type: "InnerProduct"
  bottom: "pool5"
  top: "fc6"
  param {
    lr_mult: 1
    decay_mult: 1
  }
  param {
    lr_mult: 2
    decay_mult: 0
  }
  inner_product_param {
    num_output: 4096
    weight_filler {
      type: "gaussian"
      std: 0.005
    }
    bias_filler {
      type: "constant"
      value: 1
    }
  }
}
layer {
  name: "relu6"
  type: "ReLU"
  bottom: "fc6"
  top: "relu6"
}
layer {
  name: "drop6"
  type: "Dropout"
  bottom: "relu6"
  top: "drop6"
  dropout_param {
    dropout_ratio: 0.5
  }
}
layer {
  name: "fc7"
  type: "InnerProduct"
  bottom: "drop6"
  top: "fc7"
  param {
    lr_mult: 1
    decay_mult: 1
  }
  param {
    lr_mult: 2
    decay_mult: 0
  }
  inner_product_param {
    num_output: 4096
    weight_filler {
      type: "gaussian"
      std: 0.005
    }
    bias_filler {
      type: "constant"
      value: 1
    }
  }
}
layer {
  name: "bn7"
  type: "BatchNorm"
  bottom: "fc7"
  top: "scale7"
  param {
    lr_mult: 1
    decay_mult: 0
    compression: PRUNE
  }
  param {
    lr_mult: 1
    decay_mult: 0
    compression: PRUNE
  }
  param {
    lr_mult: 0
    decay_mult: 0
    compression: PRUNE
  }
  param {
    lr_mult: 0
    decay_mult: 0
    compression: PRUNE
  }
  batch_norm_param {
    use_global_stats: false
    scale_filler {
      type: "constant"
      value: 1
    }
    bias_filler {
      type: "constant"
      value: 0
    }
  }
}
layer {
  name: "relu7"
  type: "ReLU"
  bottom: "scale7"
  top: "relu7"
}
layer {
  name: "drop7"
  type: "Dropout"
  bottom: "relu7"
  top: "drop7"
  dropout_param {
    dropout_ratio: 0.5
  }
}
layer {
  name: "fc8"
  type: "InnerProduct"
  bottom: "drop7"
  top: "fc8"
  param {
    lr_mult: 1
    decay_mult: 1
  }
  param {
    lr_mult: 2
    decay_mult: 0
  }
  inner_product_param {
    num_output: 2
    weight_filler {
      type: "gaussian"
      std: 0.01
    }
    bias_filler {
      type: "constant"
      value: 0
    }
  }
}
layer {
  name: "loss"
  type: "SoftmaxWithLoss"
  bottom: "fc8"
  bottom: "label"
  top: "loss"
}
I0130 15:50:31.294245 101508 layer_factory.hpp:77] Creating layer data
I0130 15:50:31.294368 101508 internal_thread.cpp:27] Starting internal thread(s) on GPU 0
I0130 15:50:31.294909 101508 net.cpp:94] Creating Layer data
I0130 15:50:31.294919 101508 net.cpp:409] data -> data
I0130 15:50:31.294929 101508 net.cpp:409] data -> label
I0130 15:50:31.296275 101548 db_lmdb.cpp:35] Opened lmdb cats-vs-dogs/input/lmdb/train_lmdb
I0130 15:50:31.296331 101548 data_reader.cpp:117] TRAIN: reading data using 1 channel(s)
I0130 15:50:31.296584 101508 data_layer.cpp:78] ReshapePrefetch 256, 3, 227, 227
I0130 15:50:31.296648 101508 data_layer.cpp:83] output data size: 256,3,227,227
I0130 15:50:31.681705 101508 internal_thread.cpp:27] Starting internal thread(s) on GPU 0
I0130 15:50:31.681764 101508 net.cpp:144] Setting up data
I0130 15:50:31.681773 101508 net.cpp:151] Top shape: 256 3 227 227 (39574272)
I0130 15:50:31.681777 101508 net.cpp:151] Top shape: 256 (256)
I0130 15:50:31.681779 101508 net.cpp:159] Memory required for data: 158298112
I0130 15:50:31.681784 101508 layer_factory.hpp:77] Creating layer conv1
I0130 15:50:31.681799 101508 net.cpp:94] Creating Layer conv1
I0130 15:50:31.681802 101508 net.cpp:435] conv1 <- data
I0130 15:50:31.681818 101508 net.cpp:409] conv1 -> conv1
I0130 15:50:31.683856 101508 net.cpp:144] Setting up conv1
I0130 15:50:31.683868 101508 net.cpp:151] Top shape: 256 96 55 55 (74342400)
I0130 15:50:31.683871 101508 net.cpp:159] Memory required for data: 455667712
I0130 15:50:31.683885 101508 layer_factory.hpp:77] Creating layer bn1
I0130 15:50:31.683894 101508 net.cpp:94] Creating Layer bn1
I0130 15:50:31.683897 101508 net.cpp:435] bn1 <- conv1
I0130 15:50:31.683902 101508 net.cpp:409] bn1 -> scale1
I0130 15:50:31.685070 101508 net.cpp:144] Setting up bn1
I0130 15:50:31.685076 101508 net.cpp:151] Top shape: 256 96 55 55 (74342400)
I0130 15:50:31.685078 101508 net.cpp:159] Memory required for data: 753037312
I0130 15:50:31.685088 101508 layer_factory.hpp:77] Creating layer relu1
I0130 15:50:31.685093 101508 net.cpp:94] Creating Layer relu1
I0130 15:50:31.685097 101508 net.cpp:435] relu1 <- scale1
I0130 15:50:31.685101 101508 net.cpp:409] relu1 -> relu1
I0130 15:50:31.685148 101508 net.cpp:144] Setting up relu1
I0130 15:50:31.685153 101508 net.cpp:151] Top shape: 256 96 55 55 (74342400)
I0130 15:50:31.685158 101508 net.cpp:159] Memory required for data: 1050406912
I0130 15:50:31.685159 101508 layer_factory.hpp:77] Creating layer pool1
I0130 15:50:31.685164 101508 net.cpp:94] Creating Layer pool1
I0130 15:50:31.685168 101508 net.cpp:435] pool1 <- relu1
I0130 15:50:31.685171 101508 net.cpp:409] pool1 -> pool1
I0130 15:50:31.685233 101508 net.cpp:144] Setting up pool1
I0130 15:50:31.685238 101508 net.cpp:151] Top shape: 256 96 27 27 (17915904)
I0130 15:50:31.685240 101508 net.cpp:159] Memory required for data: 1122070528
I0130 15:50:31.685243 101508 layer_factory.hpp:77] Creating layer conv2
I0130 15:50:31.685250 101508 net.cpp:94] Creating Layer conv2
I0130 15:50:31.685252 101508 net.cpp:435] conv2 <- pool1
I0130 15:50:31.685256 101508 net.cpp:409] conv2 -> conv2
I0130 15:50:31.700135 101508 net.cpp:144] Setting up conv2
I0130 15:50:31.700153 101508 net.cpp:151] Top shape: 256 256 27 27 (47775744)
I0130 15:50:31.700156 101508 net.cpp:159] Memory required for data: 1313173504
I0130 15:50:31.700167 101508 layer_factory.hpp:77] Creating layer bn2
I0130 15:50:31.700176 101508 net.cpp:94] Creating Layer bn2
I0130 15:50:31.700181 101508 net.cpp:435] bn2 <- conv2
I0130 15:50:31.700186 101508 net.cpp:409] bn2 -> scale2
I0130 15:50:31.700747 101508 net.cpp:144] Setting up bn2
I0130 15:50:31.700757 101508 net.cpp:151] Top shape: 256 256 27 27 (47775744)
I0130 15:50:31.700762 101508 net.cpp:159] Memory required for data: 1504276480
I0130 15:50:31.700773 101508 layer_factory.hpp:77] Creating layer relu2
I0130 15:50:31.700781 101508 net.cpp:94] Creating Layer relu2
I0130 15:50:31.700786 101508 net.cpp:435] relu2 <- scale2
I0130 15:50:31.700793 101508 net.cpp:409] relu2 -> relu2
I0130 15:50:31.700839 101508 net.cpp:144] Setting up relu2
I0130 15:50:31.700847 101508 net.cpp:151] Top shape: 256 256 27 27 (47775744)
I0130 15:50:31.700851 101508 net.cpp:159] Memory required for data: 1695379456
I0130 15:50:31.700855 101508 layer_factory.hpp:77] Creating layer pool2
I0130 15:50:31.700865 101508 net.cpp:94] Creating Layer pool2
I0130 15:50:31.700868 101508 net.cpp:435] pool2 <- relu2
I0130 15:50:31.700897 101508 net.cpp:409] pool2 -> pool2
I0130 15:50:31.700937 101508 net.cpp:144] Setting up pool2
I0130 15:50:31.700942 101508 net.cpp:151] Top shape: 256 256 13 13 (11075584)
I0130 15:50:31.700947 101508 net.cpp:159] Memory required for data: 1739681792
I0130 15:50:31.700951 101508 layer_factory.hpp:77] Creating layer conv3
I0130 15:50:31.700963 101508 net.cpp:94] Creating Layer conv3
I0130 15:50:31.700968 101508 net.cpp:435] conv3 <- pool2
I0130 15:50:31.700975 101508 net.cpp:409] conv3 -> conv3
I0130 15:50:31.714872 101508 net.cpp:144] Setting up conv3
I0130 15:50:31.714898 101508 net.cpp:151] Top shape: 256 384 13 13 (16613376)
I0130 15:50:31.714901 101508 net.cpp:159] Memory required for data: 1806135296
I0130 15:50:31.714911 101508 layer_factory.hpp:77] Creating layer relu3
I0130 15:50:31.714923 101508 net.cpp:94] Creating Layer relu3
I0130 15:50:31.714928 101508 net.cpp:435] relu3 <- conv3
I0130 15:50:31.714936 101508 net.cpp:409] relu3 -> relu3
I0130 15:50:31.714967 101508 net.cpp:144] Setting up relu3
I0130 15:50:31.714972 101508 net.cpp:151] Top shape: 256 384 13 13 (16613376)
I0130 15:50:31.714975 101508 net.cpp:159] Memory required for data: 1872588800
I0130 15:50:31.714978 101508 layer_factory.hpp:77] Creating layer conv4
I0130 15:50:31.714987 101508 net.cpp:94] Creating Layer conv4
I0130 15:50:31.714992 101508 net.cpp:435] conv4 <- relu3
I0130 15:50:31.714996 101508 net.cpp:409] conv4 -> conv4
I0130 15:50:31.741822 101508 net.cpp:144] Setting up conv4
I0130 15:50:31.741919 101508 net.cpp:151] Top shape: 256 384 13 13 (16613376)
I0130 15:50:31.741940 101508 net.cpp:159] Memory required for data: 1939042304
I0130 15:50:31.741971 101508 layer_factory.hpp:77] Creating layer relu4
I0130 15:50:31.741995 101508 net.cpp:94] Creating Layer relu4
I0130 15:50:31.742013 101508 net.cpp:435] relu4 <- conv4
I0130 15:50:31.742036 101508 net.cpp:409] relu4 -> relu4
I0130 15:50:31.742101 101508 net.cpp:144] Setting up relu4
I0130 15:50:31.742120 101508 net.cpp:151] Top shape: 256 384 13 13 (16613376)
I0130 15:50:31.742136 101508 net.cpp:159] Memory required for data: 2005495808
I0130 15:50:31.742152 101508 layer_factory.hpp:77] Creating layer conv5
I0130 15:50:31.742178 101508 net.cpp:94] Creating Layer conv5
I0130 15:50:31.742213 101508 net.cpp:435] conv5 <- relu4
I0130 15:50:31.742233 101508 net.cpp:409] conv5 -> conv5
I0130 15:50:31.763206 101508 net.cpp:144] Setting up conv5
I0130 15:50:31.763228 101508 net.cpp:151] Top shape: 256 256 13 13 (11075584)
I0130 15:50:31.763231 101508 net.cpp:159] Memory required for data: 2049798144
I0130 15:50:31.763239 101508 layer_factory.hpp:77] Creating layer relu5
I0130 15:50:31.763247 101508 net.cpp:94] Creating Layer relu5
I0130 15:50:31.763252 101508 net.cpp:435] relu5 <- conv5
I0130 15:50:31.763257 101508 net.cpp:409] relu5 -> relu5
I0130 15:50:31.763281 101508 net.cpp:144] Setting up relu5
I0130 15:50:31.763288 101508 net.cpp:151] Top shape: 256 256 13 13 (11075584)
I0130 15:50:31.763290 101508 net.cpp:159] Memory required for data: 2094100480
I0130 15:50:31.763293 101508 layer_factory.hpp:77] Creating layer pool5
I0130 15:50:31.763299 101508 net.cpp:94] Creating Layer pool5
I0130 15:50:31.763303 101508 net.cpp:435] pool5 <- relu5
I0130 15:50:31.763306 101508 net.cpp:409] pool5 -> pool5
I0130 15:50:31.763334 101508 net.cpp:144] Setting up pool5
I0130 15:50:31.763339 101508 net.cpp:151] Top shape: 256 256 6 6 (2359296)
I0130 15:50:31.763342 101508 net.cpp:159] Memory required for data: 2103537664
I0130 15:50:31.763345 101508 layer_factory.hpp:77] Creating layer fc6
I0130 15:50:31.763361 101508 net.cpp:94] Creating Layer fc6
I0130 15:50:31.763366 101508 net.cpp:435] fc6 <- pool5
I0130 15:50:31.763371 101508 net.cpp:409] fc6 -> fc6
I0130 15:50:32.117856 101508 net.cpp:144] Setting up fc6
I0130 15:50:32.117882 101508 net.cpp:151] Top shape: 256 4096 (1048576)
I0130 15:50:32.117884 101508 net.cpp:159] Memory required for data: 2107731968
I0130 15:50:32.117908 101508 layer_factory.hpp:77] Creating layer relu6
I0130 15:50:32.117915 101508 net.cpp:94] Creating Layer relu6
I0130 15:50:32.117940 101508 net.cpp:435] relu6 <- fc6
I0130 15:50:32.117946 101508 net.cpp:409] relu6 -> relu6
I0130 15:50:32.117980 101508 net.cpp:144] Setting up relu6
I0130 15:50:32.117983 101508 net.cpp:151] Top shape: 256 4096 (1048576)
I0130 15:50:32.117985 101508 net.cpp:159] Memory required for data: 2111926272
I0130 15:50:32.117988 101508 layer_factory.hpp:77] Creating layer drop6
I0130 15:50:32.117992 101508 net.cpp:94] Creating Layer drop6
I0130 15:50:32.117995 101508 net.cpp:435] drop6 <- relu6
I0130 15:50:32.117998 101508 net.cpp:409] drop6 -> drop6
I0130 15:50:32.118028 101508 net.cpp:144] Setting up drop6
I0130 15:50:32.118034 101508 net.cpp:151] Top shape: 256 4096 (1048576)
I0130 15:50:32.118036 101508 net.cpp:159] Memory required for data: 2116120576
I0130 15:50:32.118038 101508 layer_factory.hpp:77] Creating layer fc7
I0130 15:50:32.118044 101508 net.cpp:94] Creating Layer fc7
I0130 15:50:32.118048 101508 net.cpp:435] fc7 <- drop6
I0130 15:50:32.118052 101508 net.cpp:409] fc7 -> fc7
I0130 15:50:32.250246 101508 net.cpp:144] Setting up fc7
I0130 15:50:32.250270 101508 net.cpp:151] Top shape: 256 4096 (1048576)
I0130 15:50:32.250272 101508 net.cpp:159] Memory required for data: 2120314880
I0130 15:50:32.250296 101508 layer_factory.hpp:77] Creating layer bn7
I0130 15:50:32.250306 101508 net.cpp:94] Creating Layer bn7
I0130 15:50:32.250309 101508 net.cpp:435] bn7 <- fc7
I0130 15:50:32.250317 101508 net.cpp:409] bn7 -> scale7
I0130 15:50:32.250823 101508 net.cpp:144] Setting up bn7
I0130 15:50:32.250830 101508 net.cpp:151] Top shape: 256 4096 (1048576)
I0130 15:50:32.250833 101508 net.cpp:159] Memory required for data: 2124509184
I0130 15:50:32.250840 101508 layer_factory.hpp:77] Creating layer relu7
I0130 15:50:32.250844 101508 net.cpp:94] Creating Layer relu7
I0130 15:50:32.250846 101508 net.cpp:435] relu7 <- scale7
I0130 15:50:32.250850 101508 net.cpp:409] relu7 -> relu7
I0130 15:50:32.250867 101508 net.cpp:144] Setting up relu7
I0130 15:50:32.250871 101508 net.cpp:151] Top shape: 256 4096 (1048576)
I0130 15:50:32.250874 101508 net.cpp:159] Memory required for data: 2128703488
I0130 15:50:32.250876 101508 layer_factory.hpp:77] Creating layer drop7
I0130 15:50:32.250881 101508 net.cpp:94] Creating Layer drop7
I0130 15:50:32.250883 101508 net.cpp:435] drop7 <- relu7
I0130 15:50:32.250887 101508 net.cpp:409] drop7 -> drop7
I0130 15:50:32.250908 101508 net.cpp:144] Setting up drop7
I0130 15:50:32.250913 101508 net.cpp:151] Top shape: 256 4096 (1048576)
I0130 15:50:32.250916 101508 net.cpp:159] Memory required for data: 2132897792
I0130 15:50:32.250917 101508 layer_factory.hpp:77] Creating layer fc8
I0130 15:50:32.250922 101508 net.cpp:94] Creating Layer fc8
I0130 15:50:32.250926 101508 net.cpp:435] fc8 <- drop7
I0130 15:50:32.250929 101508 net.cpp:409] fc8 -> fc8
I0130 15:50:32.251785 101508 net.cpp:144] Setting up fc8
I0130 15:50:32.251796 101508 net.cpp:151] Top shape: 256 2 (512)
I0130 15:50:32.251799 101508 net.cpp:159] Memory required for data: 2132899840
I0130 15:50:32.251806 101508 layer_factory.hpp:77] Creating layer loss
I0130 15:50:32.251811 101508 net.cpp:94] Creating Layer loss
I0130 15:50:32.251813 101508 net.cpp:435] loss <- fc8
I0130 15:50:32.251818 101508 net.cpp:435] loss <- label
I0130 15:50:32.251821 101508 net.cpp:409] loss -> loss
I0130 15:50:32.251829 101508 layer_factory.hpp:77] Creating layer loss
…
I0130 15:50:32.252286 101508 solver.cpp:189] Creating test net (#0) specified by net file: cats-vs-dogs/deephi/alexnetBNnoLRN/pruning/regular_rate_0/net_finetune.prototxt
I0130 15:50:32.252315 101508 net.cpp:323] The NetState phase (1) differed from the phase (0) specified by a rule in layer data
I0130 15:50:32.252477 101508 net.cpp:52] Initializing net from parameters: 
state {
  phase: TEST
}
layer {
  name: "data"
  type: "Data"
  top: "data"
  top: "label"
  include {
    phase: TEST
  }
  transform_param {
    mirror: false
    crop_size: 227
    mean_value: 106
    mean_value: 116
    mean_value: 124
  }
  data_param {
    source: "cats-vs-dogs/input/lmdb/valid_lmdb"
    batch_size: 50
    backend: LMDB
  }
}
layer {
  name: "conv1"
  type: "Convolution"
  bottom: "data"
  top: "conv1"
  param {
    lr_mult: 1
    decay_mult: 1
    compression: PRUNE
  }
  param {
    lr_mult: 2
    decay_mult: 0
    compression: PRUNE
  }
  convolution_param {
    num_output: 96
    pad: 1
    kernel_size: 11
    stride: 4
    weight_filler {
      type: "gaussian"
      std: 0.01
    }
    bias_filler {
      type: "constant"
      value: 0
    }
  }
}
layer {
  name: "bn1"
  type: "BatchNorm"
  bottom: "conv1"
  top: "scale1"
  param {
    lr_mult: 1
    decay_mult: 0
    compression: PRUNE
  }
  param {
    lr_mult: 1
    decay_mult: 0
    compression: PRUNE
  }
  param {
    lr_mult: 0
    decay_mult: 0
    compression: PRUNE
  }
  param {
    lr_mult: 0
    decay_mult: 0
    compression: PRUNE
  }
  batch_norm_param {
    use_global_stats: false
    scale_filler {
      type: "constant"
      value: 1
    }
    bias_filler {
      type: "constant"
      value: 0
    }
  }
}
layer {
  name: "relu1"
  type: "ReLU"
  bottom: "scale1"
  top: "relu1"
}
layer {
  name: "pool1"
  type: "Pooling"
  bottom: "relu1"
  top: "pool1"
  pooling_param {
    pool: MAX
    kernel_size: 3
    stride: 2
  }
}
layer {
  name: "conv2"
  type: "Convolution"
  bottom: "pool1"
  top: "conv2"
  param {
    lr_mult: 1
    decay_mult: 1
    compression: PRUNE
  }
  param {
    lr_mult: 2
    decay_mult: 0
    compression: PRUNE
  }
  convolution_param {
    num_output: 256
    pad: 2
    kernel_size: 5
    group: 1
    weight_filler {
      type: "gaussian"
      std: 0.01
    }
    bias_filler {
      type: "constant"
      value: 1
    }
  }
}
layer {
  name: "bn2"
  type: "BatchNorm"
  bottom: "conv2"
  top: "scale2"
  param {
    lr_mult: 1
    decay_mult: 0
    compression: PRUNE
  }
  param {
    lr_mult: 1
    decay_mult: 0
    compression: PRUNE
  }
  param {
    lr_mult: 0
    decay_mult: 0
    compression: PRUNE
  }
  param {
    lr_mult: 0
    decay_mult: 0
    compression: PRUNE
  }
  batch_norm_param {
    use_global_stats: false
    scale_filler {
      type: "constant"
      value: 1
    }
    bias_filler {
      type: "constant"
      value: 0
    }
  }
}
layer {
  name: "relu2"
  type: "ReLU"
  bottom: "scale2"
  top: "relu2"
}
layer {
  name: "pool2"
  type: "Pooling"
  bottom: "relu2"
  top: "pool2"
  pooling_param {
    pool: MAX
    kernel_size: 3
    stride: 2
  }
}
layer {
  name: "conv3"
  type: "Convolution"
  bottom: "pool2"
  top: "conv3"
  param {
    lr_mult: 1
    decay_mult: 1
    compression: PRUNE
  }
  param {
    lr_mult: 2
    decay_mult: 0
    compression: PRUNE
  }
  convolution_param {
    num_output: 384
    pad: 1
    kernel_size: 3
    weight_filler {
      type: "gaussian"
      std: 0.01
    }
    bias_filler {
      type: "constant"
      value: 0
    }
  }
}
layer {
  name: "relu3"
  type: "ReLU"
  bottom: "conv3"
  top: "relu3"
}
layer {
  name: "conv4"
  type: "Convolution"
  bottom: "relu3"
  top: "conv4"
  param {
    lr_mult: 1
    decay_mult: 1
    compression: PRUNE
  }
  param {
    lr_mult: 2
    decay_mult: 0
    compression: PRUNE
  }
  convolution_param {
    num_output: 384
    pad: 1
    kernel_size: 3
    group: 1
    weight_filler {
      type: "gaussian"
      std: 0.01
    }
    bias_filler {
      type: "constant"
      value: 1
    }
  }
}
layer {
  name: "relu4"
  type: "ReLU"
  bottom: "conv4"
  top: "relu4"
}
layer {
  name: "conv5"
  type: "Convolution"
  bottom: "relu4"
  top: "conv5"
  param {
    lr_mult: 1
    decay_mult: 1
    compression: PRUNE
  }
  param {
    lr_mult: 2
    decay_mult: 0
    compression: PRUNE
  }
  convolution_param {
    num_output: 256
    pad: 1
    kernel_size: 3
    group: 1
    weight_filler {
      type: "gaussian"
      std: 0.01
    }
    bias_filler {
      type: "constant"
      value: 1
    }
  }
}
layer {
  name: "relu5"
  type: "ReLU"
  bottom: "conv5"
  top: "relu5"
}
layer {
  name: "pool5"
  type: "Pooling"
  bottom: "relu5"
  top: "pool5"
  pooling_param {
    pool: MAX
    kernel_size: 3
    stride: 2
  }
}
layer {
  name: "fc6"
  type: "InnerProduct"
  bottom: "pool5"
  top: "fc6"
  param {
    lr_mult: 1
    decay_mult: 1
  }
  param {
    lr_mult: 2
    decay_mult: 0
  }
  inner_product_param {
    num_output: 4096
    weight_filler {
      type: "gaussian"
      std: 0.005
    }
    bias_filler {
      type: "constant"
      value: 1
    }
  }
}
layer {
  name: "relu6"
  type: "ReLU"
  bottom: "fc6"
  top: "relu6"
}
layer {
  name: "drop6"
  type: "Dropout"
  bottom: "relu6"
  top: "drop6"
  dropout_param {
    dropout_ratio: 0.5
  }
}
layer {
  name: "fc7"
  type: "InnerProduct"
  bottom: "drop6"
  top: "fc7"
  param {
    lr_mult: 1
    decay_mult: 1
  }
  param {
    lr_mult: 2
    decay_mult: 0
  }
  inner_product_param {
    num_output: 4096
    weight_filler {
      type: "gaussian"
      std: 0.005
    }
    bias_filler {
      type: "constant"
      value: 1
    }
  }
}
layer {
  name: "bn7"
  type: "BatchNorm"
  bottom: "fc7"
  top: "scale7"
  param {
    lr_mult: 1
    decay_mult: 0
    compression: PRUNE
  }
  param {
    lr_mult: 1
    decay_mult: 0
    compression: PRUNE
  }
  param {
    lr_mult: 0
    decay_mult: 0
    compression: PRUNE
  }
  param {
    lr_mult: 0
    decay_mult: 0
    compression: PRUNE
  }
  batch_norm_param {
    use_global_stats: false
    scale_filler {
      type: "constant"
      value: 1
    }
    bias_filler {
      type: "constant"
      value: 0
    }
  }
}
layer {
  name: "relu7"
  type: "ReLU"
  bottom: "scale7"
  top: "relu7"
}
layer {
  name: "drop7"
  type: "Dropout"
  bottom: "relu7"
  top: "drop7"
  dropout_param {
    dropout_ratio: 0.5
  }
}
layer {
  name: "fc8"
  type: "InnerProduct"
  bottom: "drop7"
  top: "fc8"
  param {
    lr_mult: 1
    decay_mult: 1
  }
  param {
    lr_mult: 2
    decay_mult: 0
  }
  inner_product_param {
    num_output: 2
    weight_filler {
      type: "gaussian"
      std: 0.01
    }
    bias_filler {
      type: "constant"
      value: 0
    }
  }
}
layer {
  name: "loss"
  type: "SoftmaxWithLoss"
  bottom: "fc8"
  bottom: "label"
  top: "loss"
}
layer {
  name: "accuracy-top1"
  type: "Accuracy"
  bottom: "fc8"
  bottom: "label"
  top: "top-1"
  include {
    phase: TEST
  }
}
I0130 15:50:32.252562 101508 layer_factory.hpp:77] Creating layer data
I0130 15:50:32.252598 101508 internal_thread.cpp:27] Starting internal thread(s) on GPU 0
I0130 15:50:32.253352 101508 net.cpp:94] Creating Layer data
I0130 15:50:32.253360 101508 net.cpp:409] data -> data
I0130 15:50:32.253367 101508 net.cpp:409] data -> label
I0130 15:50:32.255134 101578 db_lmdb.cpp:35] Opened lmdb cats-vs-dogs/input/lmdb/valid_lmdb
I0130 15:50:32.255169 101578 data_reader.cpp:117] TEST: reading data using 1 channel(s)
I0130 15:50:32.255422 101508 data_layer.cpp:78] ReshapePrefetch 50, 3, 227, 227
I0130 15:50:32.255484 101508 data_layer.cpp:83] output data size: 50,3,227,227
I0130 15:50:32.330355 101508 internal_thread.cpp:27] Starting internal thread(s) on GPU 0
I0130 15:50:32.330408 101508 net.cpp:144] Setting up data
I0130 15:50:32.330418 101508 net.cpp:151] Top shape: 50 3 227 227 (7729350)
I0130 15:50:32.330437 101508 net.cpp:151] Top shape: 50 (50)
I0130 15:50:32.330440 101508 net.cpp:159] Memory required for data: 30917600
I0130 15:50:32.330443 101508 layer_factory.hpp:77] Creating layer label_data_1_split
I0130 15:50:32.330452 101508 net.cpp:94] Creating Layer label_data_1_split
I0130 15:50:32.330456 101508 net.cpp:435] label_data_1_split <- label
I0130 15:50:32.330461 101508 net.cpp:409] label_data_1_split -> label_data_1_split_0
I0130 15:50:32.330468 101508 net.cpp:409] label_data_1_split -> label_data_1_split_1
I0130 15:50:32.330533 101508 net.cpp:144] Setting up label_data_1_split
I0130 15:50:32.330538 101508 net.cpp:151] Top shape: 50 (50)
I0130 15:50:32.330541 101508 net.cpp:151] Top shape: 50 (50)
I0130 15:50:32.330543 101508 net.cpp:159] Memory required for data: 30918000
I0130 15:50:32.330546 101508 layer_factory.hpp:77] Creating layer conv1
I0130 15:50:32.330555 101508 net.cpp:94] Creating Layer conv1
I0130 15:50:32.330557 101508 net.cpp:435] conv1 <- data
I0130 15:50:32.330561 101508 net.cpp:409] conv1 -> conv1
I0130 15:50:32.331138 101508 net.cpp:144] Setting up conv1
I0130 15:50:32.331146 101508 net.cpp:151] Top shape: 50 96 55 55 (14520000)
I0130 15:50:32.331147 101508 net.cpp:159] Memory required for data: 88998000
I0130 15:50:32.331156 101508 layer_factory.hpp:77] Creating layer bn1
I0130 15:50:32.331163 101508 net.cpp:94] Creating Layer bn1
I0130 15:50:32.331166 101508 net.cpp:435] bn1 <- conv1
I0130 15:50:32.331171 101508 net.cpp:409] bn1 -> scale1
I0130 15:50:32.332001 101508 net.cpp:144] Setting up bn1
I0130 15:50:32.332007 101508 net.cpp:151] Top shape: 50 96 55 55 (14520000)
I0130 15:50:32.332011 101508 net.cpp:159] Memory required for data: 147078000
I0130 15:50:32.332020 101508 layer_factory.hpp:77] Creating layer relu1
I0130 15:50:32.332026 101508 net.cpp:94] Creating Layer relu1
I0130 15:50:32.332029 101508 net.cpp:435] relu1 <- scale1
I0130 15:50:32.332032 101508 net.cpp:409] relu1 -> relu1
I0130 15:50:32.332070 101508 net.cpp:144] Setting up relu1
I0130 15:50:32.332075 101508 net.cpp:151] Top shape: 50 96 55 55 (14520000)
I0130 15:50:32.332078 101508 net.cpp:159] Memory required for data: 205158000
I0130 15:50:32.332080 101508 layer_factory.hpp:77] Creating layer pool1
I0130 15:50:32.332085 101508 net.cpp:94] Creating Layer pool1
I0130 15:50:32.332087 101508 net.cpp:435] pool1 <- relu1
I0130 15:50:32.332092 101508 net.cpp:409] pool1 -> pool1
I0130 15:50:32.332134 101508 net.cpp:144] Setting up pool1
I0130 15:50:32.332139 101508 net.cpp:151] Top shape: 50 96 27 27 (3499200)
I0130 15:50:32.332141 101508 net.cpp:159] Memory required for data: 219154800
I0130 15:50:32.332144 101508 layer_factory.hpp:77] Creating layer conv2
I0130 15:50:32.332150 101508 net.cpp:94] Creating Layer conv2
I0130 15:50:32.332154 101508 net.cpp:435] conv2 <- pool1
I0130 15:50:32.332173 101508 net.cpp:409] conv2 -> conv2
I0130 15:50:32.338835 101508 net.cpp:144] Setting up conv2
I0130 15:50:32.338856 101508 net.cpp:151] Top shape: 50 256 27 27 (9331200)
I0130 15:50:32.338860 101508 net.cpp:159] Memory required for data: 256479600
I0130 15:50:32.338871 101508 layer_factory.hpp:77] Creating layer bn2
I0130 15:50:32.338881 101508 net.cpp:94] Creating Layer bn2
I0130 15:50:32.338884 101508 net.cpp:435] bn2 <- conv2
I0130 15:50:32.338891 101508 net.cpp:409] bn2 -> scale2
I0130 15:50:32.339504 101508 net.cpp:144] Setting up bn2
I0130 15:50:32.339512 101508 net.cpp:151] Top shape: 50 256 27 27 (9331200)
I0130 15:50:32.339515 101508 net.cpp:159] Memory required for data: 293804400
I0130 15:50:32.339524 101508 layer_factory.hpp:77] Creating layer relu2
I0130 15:50:32.339530 101508 net.cpp:94] Creating Layer relu2
I0130 15:50:32.339534 101508 net.cpp:435] relu2 <- scale2
I0130 15:50:32.339540 101508 net.cpp:409] relu2 -> relu2
I0130 15:50:32.339557 101508 net.cpp:144] Setting up relu2
I0130 15:50:32.339561 101508 net.cpp:151] Top shape: 50 256 27 27 (9331200)
I0130 15:50:32.339565 101508 net.cpp:159] Memory required for data: 331129200
I0130 15:50:32.339567 101508 layer_factory.hpp:77] Creating layer pool2
I0130 15:50:32.339572 101508 net.cpp:94] Creating Layer pool2
I0130 15:50:32.339576 101508 net.cpp:435] pool2 <- relu2
I0130 15:50:32.339579 101508 net.cpp:409] pool2 -> pool2
I0130 15:50:32.339609 101508 net.cpp:144] Setting up pool2
I0130 15:50:32.339612 101508 net.cpp:151] Top shape: 50 256 13 13 (2163200)
I0130 15:50:32.339615 101508 net.cpp:159] Memory required for data: 339782000
I0130 15:50:32.339618 101508 layer_factory.hpp:77] Creating layer conv3
I0130 15:50:32.339625 101508 net.cpp:94] Creating Layer conv3
I0130 15:50:32.339628 101508 net.cpp:435] conv3 <- pool2
I0130 15:50:32.339633 101508 net.cpp:409] conv3 -> conv3
I0130 15:50:32.349943 101508 net.cpp:144] Setting up conv3
I0130 15:50:32.349972 101508 net.cpp:151] Top shape: 50 384 13 13 (3244800)
I0130 15:50:32.349974 101508 net.cpp:159] Memory required for data: 352761200
I0130 15:50:32.349982 101508 layer_factory.hpp:77] Creating layer relu3
I0130 15:50:32.349989 101508 net.cpp:94] Creating Layer relu3
I0130 15:50:32.349994 101508 net.cpp:435] relu3 <- conv3
I0130 15:50:32.350000 101508 net.cpp:409] relu3 -> relu3
I0130 15:50:32.350028 101508 net.cpp:144] Setting up relu3
I0130 15:50:32.350033 101508 net.cpp:151] Top shape: 50 384 13 13 (3244800)
I0130 15:50:32.350036 101508 net.cpp:159] Memory required for data: 365740400
I0130 15:50:32.350039 101508 layer_factory.hpp:77] Creating layer conv4
I0130 15:50:32.350049 101508 net.cpp:94] Creating Layer conv4
I0130 15:50:32.350052 101508 net.cpp:435] conv4 <- relu3
I0130 15:50:32.350057 101508 net.cpp:409] conv4 -> conv4
I0130 15:50:32.364914 101508 net.cpp:144] Setting up conv4
I0130 15:50:32.364938 101508 net.cpp:151] Top shape: 50 384 13 13 (3244800)
I0130 15:50:32.364943 101508 net.cpp:159] Memory required for data: 378719600
I0130 15:50:32.364958 101508 layer_factory.hpp:77] Creating layer relu4
I0130 15:50:32.364969 101508 net.cpp:94] Creating Layer relu4
I0130 15:50:32.364974 101508 net.cpp:435] relu4 <- conv4
I0130 15:50:32.364982 101508 net.cpp:409] relu4 -> relu4
I0130 15:50:32.365038 101508 net.cpp:144] Setting up relu4
I0130 15:50:32.365046 101508 net.cpp:151] Top shape: 50 384 13 13 (3244800)
I0130 15:50:32.365051 101508 net.cpp:159] Memory required for data: 391698800
I0130 15:50:32.365056 101508 layer_factory.hpp:77] Creating layer conv5
I0130 15:50:32.365069 101508 net.cpp:94] Creating Layer conv5
I0130 15:50:32.365073 101508 net.cpp:435] conv5 <- relu4
I0130 15:50:32.365082 101508 net.cpp:409] conv5 -> conv5
I0130 15:50:32.374176 101508 net.cpp:144] Setting up conv5
I0130 15:50:32.374222 101508 net.cpp:151] Top shape: 50 256 13 13 (2163200)
I0130 15:50:32.374225 101508 net.cpp:159] Memory required for data: 400351600
I0130 15:50:32.374235 101508 layer_factory.hpp:77] Creating layer relu5
I0130 15:50:32.374245 101508 net.cpp:94] Creating Layer relu5
I0130 15:50:32.374276 101508 net.cpp:435] relu5 <- conv5
I0130 15:50:32.374285 101508 net.cpp:409] relu5 -> relu5
I0130 15:50:32.374325 101508 net.cpp:144] Setting up relu5
I0130 15:50:32.374333 101508 net.cpp:151] Top shape: 50 256 13 13 (2163200)
I0130 15:50:32.374337 101508 net.cpp:159] Memory required for data: 409004400
I0130 15:50:32.374341 101508 layer_factory.hpp:77] Creating layer pool5
I0130 15:50:32.374351 101508 net.cpp:94] Creating Layer pool5
I0130 15:50:32.374357 101508 net.cpp:435] pool5 <- relu5
I0130 15:50:32.374364 101508 net.cpp:409] pool5 -> pool5
I0130 15:50:32.374406 101508 net.cpp:144] Setting up pool5
I0130 15:50:32.374414 101508 net.cpp:151] Top shape: 50 256 6 6 (460800)
I0130 15:50:32.374418 101508 net.cpp:159] Memory required for data: 410847600
I0130 15:50:32.374423 101508 layer_factory.hpp:77] Creating layer fc6
I0130 15:50:32.374433 101508 net.cpp:94] Creating Layer fc6
I0130 15:50:32.374438 101508 net.cpp:435] fc6 <- pool5
I0130 15:50:32.374445 101508 net.cpp:409] fc6 -> fc6
I0130 15:50:32.683488 101508 net.cpp:144] Setting up fc6
I0130 15:50:32.683516 101508 net.cpp:151] Top shape: 50 4096 (204800)
I0130 15:50:32.683518 101508 net.cpp:159] Memory required for data: 411666800
I0130 15:50:32.683528 101508 layer_factory.hpp:77] Creating layer relu6
I0130 15:50:32.683537 101508 net.cpp:94] Creating Layer relu6
I0130 15:50:32.683542 101508 net.cpp:435] relu6 <- fc6
I0130 15:50:32.683548 101508 net.cpp:409] relu6 -> relu6
I0130 15:50:32.683578 101508 net.cpp:144] Setting up relu6
I0130 15:50:32.683584 101508 net.cpp:151] Top shape: 50 4096 (204800)
I0130 15:50:32.683588 101508 net.cpp:159] Memory required for data: 412486000
I0130 15:50:32.683591 101508 layer_factory.hpp:77] Creating layer drop6
I0130 15:50:32.683598 101508 net.cpp:94] Creating Layer drop6
I0130 15:50:32.683600 101508 net.cpp:435] drop6 <- relu6
I0130 15:50:32.683604 101508 net.cpp:409] drop6 -> drop6
I0130 15:50:32.683643 101508 net.cpp:144] Setting up drop6
I0130 15:50:32.683648 101508 net.cpp:151] Top shape: 50 4096 (204800)
I0130 15:50:32.683650 101508 net.cpp:159] Memory required for data: 413305200
I0130 15:50:32.683652 101508 layer_factory.hpp:77] Creating layer fc7
I0130 15:50:32.683658 101508 net.cpp:94] Creating Layer fc7
I0130 15:50:32.683662 101508 net.cpp:435] fc7 <- drop6
I0130 15:50:32.683667 101508 net.cpp:409] fc7 -> fc7
I0130 15:50:32.820721 101508 net.cpp:144] Setting up fc7
I0130 15:50:32.820747 101508 net.cpp:151] Top shape: 50 4096 (204800)
I0130 15:50:32.820750 101508 net.cpp:159] Memory required for data: 414124400
I0130 15:50:32.820775 101508 layer_factory.hpp:77] Creating layer bn7
I0130 15:50:32.820811 101508 net.cpp:94] Creating Layer bn7
I0130 15:50:32.820816 101508 net.cpp:435] bn7 <- fc7
I0130 15:50:32.820830 101508 net.cpp:409] bn7 -> scale7
I0130 15:50:32.821419 101508 net.cpp:144] Setting up bn7
I0130 15:50:32.821427 101508 net.cpp:151] Top shape: 50 4096 (204800)
I0130 15:50:32.821430 101508 net.cpp:159] Memory required for data: 414943600
I0130 15:50:32.821439 101508 layer_factory.hpp:77] Creating layer relu7
I0130 15:50:32.821444 101508 net.cpp:94] Creating Layer relu7
I0130 15:50:32.821447 101508 net.cpp:435] relu7 <- scale7
I0130 15:50:32.821454 101508 net.cpp:409] relu7 -> relu7
I0130 15:50:32.821480 101508 net.cpp:144] Setting up relu7
I0130 15:50:32.821486 101508 net.cpp:151] Top shape: 50 4096 (204800)
I0130 15:50:32.821489 101508 net.cpp:159] Memory required for data: 415762800
I0130 15:50:32.821491 101508 layer_factory.hpp:77] Creating layer drop7
I0130 15:50:32.821496 101508 net.cpp:94] Creating Layer drop7
I0130 15:50:32.821499 101508 net.cpp:435] drop7 <- relu7
I0130 15:50:32.821509 101508 net.cpp:409] drop7 -> drop7
I0130 15:50:32.821545 101508 net.cpp:144] Setting up drop7
I0130 15:50:32.821552 101508 net.cpp:151] Top shape: 50 4096 (204800)
I0130 15:50:32.821553 101508 net.cpp:159] Memory required for data: 416582000
I0130 15:50:32.821555 101508 layer_factory.hpp:77] Creating layer fc8
I0130 15:50:32.821563 101508 net.cpp:94] Creating Layer fc8
I0130 15:50:32.821588 101508 net.cpp:435] fc8 <- drop7
I0130 15:50:32.821593 101508 net.cpp:409] fc8 -> fc8
I0130 15:50:32.821769 101508 net.cpp:144] Setting up fc8
I0130 15:50:32.821775 101508 net.cpp:151] Top shape: 50 2 (100)
I0130 15:50:32.821779 101508 net.cpp:159] Memory required for data: 416582400
I0130 15:50:32.821784 101508 layer_factory.hpp:77] Creating layer fc8_fc8_0_split
I0130 15:50:32.821789 101508 net.cpp:94] Creating Layer fc8_fc8_0_split
I0130 15:50:32.821791 101508 net.cpp:435] fc8_fc8_0_split <- fc8
I0130 15:50:32.821797 101508 net.cpp:409] fc8_fc8_0_split -> fc8_fc8_0_split_0
I0130 15:50:32.821805 101508 net.cpp:409] fc8_fc8_0_split -> fc8_fc8_0_split_1
I0130 15:50:32.821841 101508 net.cpp:144] Setting up fc8_fc8_0_split
I0130 15:50:32.821846 101508 net.cpp:151] Top shape: 50 2 (100)
I0130 15:50:32.821849 101508 net.cpp:151] Top shape: 50 2 (100)
I0130 15:50:32.821851 101508 net.cpp:159] Memory required for data: 416583200
I0130 15:50:32.821853 101508 layer_factory.hpp:77] Creating layer loss
I0130 15:50:32.821858 101508 net.cpp:94] Creating Layer loss
I0130 15:50:32.821862 101508 net.cpp:435] loss <- fc8_fc8_0_split_0
I0130 15:50:32.821867 101508 net.cpp:435] loss <- label_data_1_split_0
I0130 15:50:32.821874 101508 net.cpp:409] loss -> loss
…
