…
I0130 17:36:46.588079 105575 net.cpp:323] The NetState phase (0) differed from the phase (1) specified by a rule in layer accuracy-top1
I0130 17:36:46.588222 105575 net.cpp:52] Initializing net from parameters: 
state {
  phase: TRAIN
}
layer {
  name: "data"
  type: "Data"
  top: "data"
  top: "label"
  include {
    phase: TRAIN
  }
  transform_param {
    mirror: true
    crop_size: 227
    mean_value: 106
    mean_value: 116
    mean_value: 124
  }
  data_param {
    source: "cats-vs-dogs/input/lmdb/train_lmdb"
    batch_size: 256
    backend: LMDB
  }
}
layer {
  name: "conv1"
  type: "Convolution"
  bottom: "data"
  top: "conv1"
  param {
    lr_mult: 1
    decay_mult: 1
    compression: PRUNE
  }
  param {
    lr_mult: 2
    decay_mult: 0
    compression: PRUNE
  }
  convolution_param {
    num_output: 96
    pad: 1
    kernel_size: 11
    stride: 4
    weight_filler {
      type: "gaussian"
      std: 0.01
    }
    bias_filler {
      type: "constant"
      value: 0
    }
  }
}
layer {
  name: "bn1"
  type: "BatchNorm"
  bottom: "conv1"
  top: "scale1"
  param {
    lr_mult: 1
    decay_mult: 0
    compression: PRUNE
  }
  param {
    lr_mult: 1
    decay_mult: 0
    compression: PRUNE
  }
  param {
    lr_mult: 0
    decay_mult: 0
    compression: PRUNE
  }
  param {
    lr_mult: 0
    decay_mult: 0
    compression: PRUNE
  }
  batch_norm_param {
    use_global_stats: false
    scale_filler {
      type: "constant"
      value: 1
    }
    bias_filler {
      type: "constant"
      value: 0
    }
  }
}
layer {
  name: "relu1"
  type: "ReLU"
  bottom: "scale1"
  top: "relu1"
}
layer {
  name: "pool1"
  type: "Pooling"
  bottom: "relu1"
  top: "pool1"
  pooling_param {
    pool: MAX
    kernel_size: 3
    stride: 2
  }
}
layer {
  name: "conv2"
  type: "Convolution"
  bottom: "pool1"
  top: "conv2"
  param {
    lr_mult: 1
    decay_mult: 1
    compression: PRUNE
  }
  param {
    lr_mult: 2
    decay_mult: 0
    compression: PRUNE
  }
  convolution_param {
    num_output: 256
    pad: 2
    kernel_size: 5
    group: 1
    weight_filler {
      type: "gaussian"
      std: 0.01
    }
    bias_filler {
      type: "constant"
      value: 1
    }
  }
}
layer {
  name: "bn2"
  type: "BatchNorm"
  bottom: "conv2"
  top: "scale2"
  param {
    lr_mult: 1
    decay_mult: 0
    compression: PRUNE
  }
  param {
    lr_mult: 1
    decay_mult: 0
    compression: PRUNE
  }
  param {
    lr_mult: 0
    decay_mult: 0
    compression: PRUNE
  }
  param {
    lr_mult: 0
    decay_mult: 0
    compression: PRUNE
  }
  batch_norm_param {
    use_global_stats: false
    scale_filler {
      type: "constant"
      value: 1
    }
    bias_filler {
      type: "constant"
      value: 0
    }
  }
}
layer {
  name: "relu2"
  type: "ReLU"
  bottom: "scale2"
  top: "relu2"
}
layer {
  name: "pool2"
  type: "Pooling"
  bottom: "relu2"
  top: "pool2"
  pooling_param {
    pool: MAX
    kernel_size: 3
    stride: 2
  }
}
layer {
  name: "conv3"
  type: "Convolution"
  bottom: "pool2"
  top: "conv3"
  param {
    lr_mult: 1
    decay_mult: 1
    compression: PRUNE
  }
  param {
    lr_mult: 2
    decay_mult: 0
    compression: PRUNE
  }
  convolution_param {
    num_output: 384
    pad: 1
    kernel_size: 3
    weight_filler {
      type: "gaussian"
      std: 0.01
    }
    bias_filler {
      type: "constant"
      value: 0
    }
  }
}
layer {
  name: "relu3"
  type: "ReLU"
  bottom: "conv3"
  top: "relu3"
}
layer {
  name: "conv4"
  type: "Convolution"
  bottom: "relu3"
  top: "conv4"
  param {
    lr_mult: 1
    decay_mult: 1
    compression: PRUNE
  }
  param {
    lr_mult: 2
    decay_mult: 0
    compression: PRUNE
  }
  convolution_param {
    num_output: 384
    pad: 1
    kernel_size: 3
    group: 1
    weight_filler {
      type: "gaussian"
      std: 0.01
    }
    bias_filler {
      type: "constant"
      value: 1
    }
  }
}
layer {
  name: "relu4"
  type: "ReLU"
  bottom: "conv4"
  top: "relu4"
}
layer {
  name: "conv5"
  type: "Convolution"
  bottom: "relu4"
  top: "conv5"
  param {
    lr_mult: 1
    decay_mult: 1
    compression: PRUNE
  }
  param {
    lr_mult: 2
    decay_mult: 0
    compression: PRUNE
  }
  convolution_param {
    num_output: 256
    pad: 1
    kernel_size: 3
    group: 1
    weight_filler {
      type: "gaussian"
      std: 0.01
    }
    bias_filler {
      type: "constant"
      value: 1
    }
  }
}
layer {
  name: "relu5"
  type: "ReLU"
  bottom: "conv5"
  top: "relu5"
}
layer {
  name: "pool5"
  type: "Pooling"
  bottom: "relu5"
  top: "pool5"
  pooling_param {
    pool: MAX
    kernel_size: 3
    stride: 2
  }
}
layer {
  name: "fc6"
  type: "InnerProduct"
  bottom: "pool5"
  top: "fc6"
  param {
    lr_mult: 1
    decay_mult: 1
  }
  param {
    lr_mult: 2
    decay_mult: 0
  }
  inner_product_param {
    num_output: 4096
    weight_filler {
      type: "gaussian"
      std: 0.005
    }
    bias_filler {
      type: "constant"
      value: 1
    }
  }
}
layer {
  name: "relu6"
  type: "ReLU"
  bottom: "fc6"
  top: "relu6"
}
layer {
  name: "drop6"
  type: "Dropout"
  bottom: "relu6"
  top: "drop6"
  dropout_param {
    dropout_ratio: 0.5
  }
}
layer {
  name: "fc7"
  type: "InnerProduct"
  bottom: "drop6"
  top: "fc7"
  param {
    lr_mult: 1
    decay_mult: 1
  }
  param {
    lr_mult: 2
    decay_mult: 0
  }
  inner_product_param {
    num_output: 4096
    weight_filler {
      type: "gaussian"
      std: 0.005
    }
    bias_filler {
      type: "constant"
      value: 1
    }
  }
}
layer {
  name: "bn7"
  type: "BatchNorm"
  bottom: "fc7"
  top: "scale7"
  param {
    lr_mult: 1
    decay_mult: 0
    compression: PRUNE
  }
  param {
    lr_mult: 1
    decay_mult: 0
    compression: PRUNE
  }
  param {
    lr_mult: 0
    decay_mult: 0
    compression: PRUNE
  }
  param {
    lr_mult: 0
    decay_mult: 0
    compression: PRUNE
  }
  batch_norm_param {
    use_global_stats: false
    scale_filler {
      type: "constant"
      value: 1
    }
    bias_filler {
      type: "constant"
      value: 0
    }
  }
}
layer {
  name: "relu7"
  type: "ReLU"
  bottom: "scale7"
  top: "relu7"
}
layer {
  name: "drop7"
  type: "Dropout"
  bottom: "relu7"
  top: "drop7"
  dropout_param {
    dropout_ratio: 0.5
  }
}
layer {
  name: "fc8"
  type: "InnerProduct"
  bottom: "drop7"
  top: "fc8"
  param {
    lr_mult: 1
    decay_mult: 1
  }
  param {
    lr_mult: 2
    decay_mult: 0
  }
  inner_product_param {
    num_output: 2
    weight_filler {
      type: "gaussian"
      std: 0.01
    }
    bias_filler {
      type: "constant"
      value: 0
    }
  }
}
layer {
  name: "loss"
  type: "SoftmaxWithLoss"
  bottom: "fc8"
  bottom: "label"
  top: "loss"
}
I0130 17:36:46.588286 105575 layer_factory.hpp:77] Creating layer data
I0130 17:36:46.588412 105575 internal_thread.cpp:27] Starting internal thread(s) on GPU 0
I0130 17:36:46.588992 105575 net.cpp:94] Creating Layer data
I0130 17:36:46.589002 105575 net.cpp:409] data -> data
I0130 17:36:46.589011 105575 net.cpp:409] data -> label
I0130 17:36:46.590389 105614 db_lmdb.cpp:35] Opened lmdb cats-vs-dogs/input/lmdb/train_lmdb
I0130 17:36:46.590433 105614 data_reader.cpp:117] TRAIN: reading data using 1 channel(s)
I0130 17:36:46.590783 105575 data_layer.cpp:78] ReshapePrefetch 256, 3, 227, 227
I0130 17:36:46.590862 105575 data_layer.cpp:83] output data size: 256,3,227,227
I0130 17:36:46.975425 105575 internal_thread.cpp:27] Starting internal thread(s) on GPU 0
I0130 17:36:46.975500 105575 net.cpp:144] Setting up data
I0130 17:36:46.975508 105575 net.cpp:151] Top shape: 256 3 227 227 (39574272)
I0130 17:36:46.975512 105575 net.cpp:151] Top shape: 256 (256)
I0130 17:36:46.975514 105575 net.cpp:159] Memory required for data: 158298112
I0130 17:36:46.975519 105575 layer_factory.hpp:77] Creating layer conv1
I0130 17:36:46.975533 105575 net.cpp:94] Creating Layer conv1
I0130 17:36:46.975535 105575 net.cpp:435] conv1 <- data
I0130 17:36:46.975551 105575 net.cpp:409] conv1 -> conv1
I0130 17:36:46.977501 105575 net.cpp:144] Setting up conv1
I0130 17:36:46.977514 105575 net.cpp:151] Top shape: 256 96 55 55 (74342400)
I0130 17:36:46.977517 105575 net.cpp:159] Memory required for data: 455667712
I0130 17:36:46.977530 105575 layer_factory.hpp:77] Creating layer bn1
I0130 17:36:46.977540 105575 net.cpp:94] Creating Layer bn1
I0130 17:36:46.977543 105575 net.cpp:435] bn1 <- conv1
I0130 17:36:46.977548 105575 net.cpp:409] bn1 -> scale1
I0130 17:36:46.978837 105575 net.cpp:144] Setting up bn1
I0130 17:36:46.978845 105575 net.cpp:151] Top shape: 256 96 55 55 (74342400)
I0130 17:36:46.978847 105575 net.cpp:159] Memory required for data: 753037312
I0130 17:36:46.978857 105575 layer_factory.hpp:77] Creating layer relu1
I0130 17:36:46.978863 105575 net.cpp:94] Creating Layer relu1
I0130 17:36:46.978865 105575 net.cpp:435] relu1 <- scale1
I0130 17:36:46.978869 105575 net.cpp:409] relu1 -> relu1
I0130 17:36:46.978935 105575 net.cpp:144] Setting up relu1
I0130 17:36:46.978941 105575 net.cpp:151] Top shape: 256 96 55 55 (74342400)
I0130 17:36:46.978945 105575 net.cpp:159] Memory required for data: 1050406912
I0130 17:36:46.978947 105575 layer_factory.hpp:77] Creating layer pool1
I0130 17:36:46.978953 105575 net.cpp:94] Creating Layer pool1
I0130 17:36:46.978956 105575 net.cpp:435] pool1 <- relu1
I0130 17:36:46.978961 105575 net.cpp:409] pool1 -> pool1
I0130 17:36:46.979001 105575 net.cpp:144] Setting up pool1
I0130 17:36:46.979007 105575 net.cpp:151] Top shape: 256 96 27 27 (17915904)
I0130 17:36:46.979008 105575 net.cpp:159] Memory required for data: 1122070528
I0130 17:36:46.979012 105575 layer_factory.hpp:77] Creating layer conv2
I0130 17:36:46.979020 105575 net.cpp:94] Creating Layer conv2
I0130 17:36:46.979023 105575 net.cpp:435] conv2 <- pool1
I0130 17:36:46.979028 105575 net.cpp:409] conv2 -> conv2
I0130 17:36:46.994298 105575 net.cpp:144] Setting up conv2
I0130 17:36:46.994315 105575 net.cpp:151] Top shape: 256 256 27 27 (47775744)
I0130 17:36:46.994318 105575 net.cpp:159] Memory required for data: 1313173504
I0130 17:36:46.994329 105575 layer_factory.hpp:77] Creating layer bn2
I0130 17:36:46.994343 105575 net.cpp:94] Creating Layer bn2
I0130 17:36:46.994346 105575 net.cpp:435] bn2 <- conv2
I0130 17:36:46.994352 105575 net.cpp:409] bn2 -> scale2
I0130 17:36:46.994935 105575 net.cpp:144] Setting up bn2
I0130 17:36:46.994944 105575 net.cpp:151] Top shape: 256 256 27 27 (47775744)
I0130 17:36:46.994947 105575 net.cpp:159] Memory required for data: 1504276480
I0130 17:36:46.994956 105575 layer_factory.hpp:77] Creating layer relu2
I0130 17:36:46.994961 105575 net.cpp:94] Creating Layer relu2
I0130 17:36:46.994964 105575 net.cpp:435] relu2 <- scale2
I0130 17:36:46.994968 105575 net.cpp:409] relu2 -> relu2
I0130 17:36:46.994988 105575 net.cpp:144] Setting up relu2
I0130 17:36:46.994994 105575 net.cpp:151] Top shape: 256 256 27 27 (47775744)
I0130 17:36:46.994998 105575 net.cpp:159] Memory required for data: 1695379456
I0130 17:36:46.995000 105575 layer_factory.hpp:77] Creating layer pool2
I0130 17:36:46.995007 105575 net.cpp:94] Creating Layer pool2
I0130 17:36:46.995010 105575 net.cpp:435] pool2 <- relu2
I0130 17:36:46.995038 105575 net.cpp:409] pool2 -> pool2
I0130 17:36:46.995070 105575 net.cpp:144] Setting up pool2
I0130 17:36:46.995075 105575 net.cpp:151] Top shape: 256 256 13 13 (11075584)
I0130 17:36:46.995079 105575 net.cpp:159] Memory required for data: 1739681792
I0130 17:36:46.995082 105575 layer_factory.hpp:77] Creating layer conv3
I0130 17:36:46.995092 105575 net.cpp:94] Creating Layer conv3
I0130 17:36:46.995095 105575 net.cpp:435] conv3 <- pool2
I0130 17:36:46.995100 105575 net.cpp:409] conv3 -> conv3
I0130 17:36:47.005225 105575 net.cpp:144] Setting up conv3
I0130 17:36:47.005252 105575 net.cpp:151] Top shape: 256 384 13 13 (16613376)
I0130 17:36:47.005256 105575 net.cpp:159] Memory required for data: 1806135296
I0130 17:36:47.005265 105575 layer_factory.hpp:77] Creating layer relu3
I0130 17:36:47.005275 105575 net.cpp:94] Creating Layer relu3
I0130 17:36:47.005278 105575 net.cpp:435] relu3 <- conv3
I0130 17:36:47.005286 105575 net.cpp:409] relu3 -> relu3
I0130 17:36:47.005316 105575 net.cpp:144] Setting up relu3
I0130 17:36:47.005319 105575 net.cpp:151] Top shape: 256 384 13 13 (16613376)
I0130 17:36:47.005323 105575 net.cpp:159] Memory required for data: 1872588800
I0130 17:36:47.005326 105575 layer_factory.hpp:77] Creating layer conv4
I0130 17:36:47.005336 105575 net.cpp:94] Creating Layer conv4
I0130 17:36:47.005339 105575 net.cpp:435] conv4 <- relu3
I0130 17:36:47.005345 105575 net.cpp:409] conv4 -> conv4
I0130 17:36:47.023130 105575 net.cpp:144] Setting up conv4
I0130 17:36:47.023152 105575 net.cpp:151] Top shape: 256 384 13 13 (16613376)
I0130 17:36:47.023156 105575 net.cpp:159] Memory required for data: 1939042304
I0130 17:36:47.023169 105575 layer_factory.hpp:77] Creating layer relu4
I0130 17:36:47.023177 105575 net.cpp:94] Creating Layer relu4
I0130 17:36:47.023181 105575 net.cpp:435] relu4 <- conv4
I0130 17:36:47.023190 105575 net.cpp:409] relu4 -> relu4
I0130 17:36:47.023214 105575 net.cpp:144] Setting up relu4
I0130 17:36:47.023221 105575 net.cpp:151] Top shape: 256 384 13 13 (16613376)
I0130 17:36:47.023223 105575 net.cpp:159] Memory required for data: 2005495808
I0130 17:36:47.023226 105575 layer_factory.hpp:77] Creating layer conv5
I0130 17:36:47.023238 105575 net.cpp:94] Creating Layer conv5
I0130 17:36:47.023243 105575 net.cpp:435] conv5 <- relu4
I0130 17:36:47.023248 105575 net.cpp:409] conv5 -> conv5
I0130 17:36:47.038339 105575 net.cpp:144] Setting up conv5
I0130 17:36:47.038362 105575 net.cpp:151] Top shape: 256 256 13 13 (11075584)
I0130 17:36:47.038365 105575 net.cpp:159] Memory required for data: 2049798144
I0130 17:36:47.038373 105575 layer_factory.hpp:77] Creating layer relu5
I0130 17:36:47.038381 105575 net.cpp:94] Creating Layer relu5
I0130 17:36:47.038385 105575 net.cpp:435] relu5 <- conv5
I0130 17:36:47.038391 105575 net.cpp:409] relu5 -> relu5
I0130 17:36:47.038427 105575 net.cpp:144] Setting up relu5
I0130 17:36:47.038432 105575 net.cpp:151] Top shape: 256 256 13 13 (11075584)
I0130 17:36:47.038435 105575 net.cpp:159] Memory required for data: 2094100480
I0130 17:36:47.038439 105575 layer_factory.hpp:77] Creating layer pool5
I0130 17:36:47.038445 105575 net.cpp:94] Creating Layer pool5
I0130 17:36:47.038449 105575 net.cpp:435] pool5 <- relu5
I0130 17:36:47.038452 105575 net.cpp:409] pool5 -> pool5
I0130 17:36:47.038487 105575 net.cpp:144] Setting up pool5
I0130 17:36:47.038494 105575 net.cpp:151] Top shape: 256 256 6 6 (2359296)
I0130 17:36:47.038497 105575 net.cpp:159] Memory required for data: 2103537664
I0130 17:36:47.038501 105575 layer_factory.hpp:77] Creating layer fc6
I0130 17:36:47.038511 105575 net.cpp:94] Creating Layer fc6
I0130 17:36:47.038513 105575 net.cpp:435] fc6 <- pool5
I0130 17:36:47.038518 105575 net.cpp:409] fc6 -> fc6
I0130 17:36:47.386865 105575 net.cpp:144] Setting up fc6
I0130 17:36:47.386891 105575 net.cpp:151] Top shape: 256 4096 (1048576)
I0130 17:36:47.386894 105575 net.cpp:159] Memory required for data: 2107731968
I0130 17:36:47.386917 105575 layer_factory.hpp:77] Creating layer relu6
I0130 17:36:47.386925 105575 net.cpp:94] Creating Layer relu6
I0130 17:36:47.386948 105575 net.cpp:435] relu6 <- fc6
I0130 17:36:47.386955 105575 net.cpp:409] relu6 -> relu6
I0130 17:36:47.386981 105575 net.cpp:144] Setting up relu6
I0130 17:36:47.386983 105575 net.cpp:151] Top shape: 256 4096 (1048576)
I0130 17:36:47.386986 105575 net.cpp:159] Memory required for data: 2111926272
I0130 17:36:47.386987 105575 layer_factory.hpp:77] Creating layer drop6
I0130 17:36:47.386992 105575 net.cpp:94] Creating Layer drop6
I0130 17:36:47.386996 105575 net.cpp:435] drop6 <- relu6
I0130 17:36:47.386999 105575 net.cpp:409] drop6 -> drop6
I0130 17:36:47.387042 105575 net.cpp:144] Setting up drop6
I0130 17:36:47.387064 105575 net.cpp:151] Top shape: 256 4096 (1048576)
I0130 17:36:47.387066 105575 net.cpp:159] Memory required for data: 2116120576
I0130 17:36:47.387068 105575 layer_factory.hpp:77] Creating layer fc7
I0130 17:36:47.387073 105575 net.cpp:94] Creating Layer fc7
I0130 17:36:47.387076 105575 net.cpp:435] fc7 <- drop6
I0130 17:36:47.387082 105575 net.cpp:409] fc7 -> fc7
I0130 17:36:47.518944 105575 net.cpp:144] Setting up fc7
I0130 17:36:47.518967 105575 net.cpp:151] Top shape: 256 4096 (1048576)
I0130 17:36:47.518970 105575 net.cpp:159] Memory required for data: 2120314880
I0130 17:36:47.518978 105575 layer_factory.hpp:77] Creating layer bn7
I0130 17:36:47.518987 105575 net.cpp:94] Creating Layer bn7
I0130 17:36:47.518990 105575 net.cpp:435] bn7 <- fc7
I0130 17:36:47.518996 105575 net.cpp:409] bn7 -> scale7
I0130 17:36:47.519520 105575 net.cpp:144] Setting up bn7
I0130 17:36:47.519526 105575 net.cpp:151] Top shape: 256 4096 (1048576)
I0130 17:36:47.519528 105575 net.cpp:159] Memory required for data: 2124509184
I0130 17:36:47.519536 105575 layer_factory.hpp:77] Creating layer relu7
I0130 17:36:47.519541 105575 net.cpp:94] Creating Layer relu7
I0130 17:36:47.519543 105575 net.cpp:435] relu7 <- scale7
I0130 17:36:47.519548 105575 net.cpp:409] relu7 -> relu7
I0130 17:36:47.519565 105575 net.cpp:144] Setting up relu7
I0130 17:36:47.519570 105575 net.cpp:151] Top shape: 256 4096 (1048576)
I0130 17:36:47.519572 105575 net.cpp:159] Memory required for data: 2128703488
I0130 17:36:47.519574 105575 layer_factory.hpp:77] Creating layer drop7
I0130 17:36:47.519579 105575 net.cpp:94] Creating Layer drop7
I0130 17:36:47.519582 105575 net.cpp:435] drop7 <- relu7
I0130 17:36:47.519587 105575 net.cpp:409] drop7 -> drop7
I0130 17:36:47.519610 105575 net.cpp:144] Setting up drop7
I0130 17:36:47.519615 105575 net.cpp:151] Top shape: 256 4096 (1048576)
I0130 17:36:47.519618 105575 net.cpp:159] Memory required for data: 2132897792
I0130 17:36:47.519620 105575 layer_factory.hpp:77] Creating layer fc8
I0130 17:36:47.519625 105575 net.cpp:94] Creating Layer fc8
I0130 17:36:47.519629 105575 net.cpp:435] fc8 <- drop7
I0130 17:36:47.519634 105575 net.cpp:409] fc8 -> fc8
I0130 17:36:47.520498 105575 net.cpp:144] Setting up fc8
I0130 17:36:47.520509 105575 net.cpp:151] Top shape: 256 2 (512)
I0130 17:36:47.520511 105575 net.cpp:159] Memory required for data: 2132899840
I0130 17:36:47.520517 105575 layer_factory.hpp:77] Creating layer loss
I0130 17:36:47.520522 105575 net.cpp:94] Creating Layer loss
I0130 17:36:47.520525 105575 net.cpp:435] loss <- fc8
I0130 17:36:47.520529 105575 net.cpp:435] loss <- label
I0130 17:36:47.520534 105575 net.cpp:409] loss -> loss
I0130 17:36:47.520541 105575 layer_factory.hpp:77] Creating layer loss
…
I0130 17:36:47.521014 105575 solver.cpp:189] Creating test net (#0) specified by net file: cats-vs-dogs/deephi/alexnetBNnoLRN/pruning/regular_rate_0.2/net_finetune.prototxt
I0130 17:36:47.521042 105575 net.cpp:323] The NetState phase (1) differed from the phase (0) specified by a rule in layer data
I0130 17:36:47.521204 105575 net.cpp:52] Initializing net from parameters: 
state {
  phase: TEST
}
layer {
  name: "data"
  type: "Data"
  top: "data"
  top: "label"
  include {
    phase: TEST
  }
  transform_param {
    mirror: false
    crop_size: 227
    mean_value: 106
    mean_value: 116
    mean_value: 124
  }
  data_param {
    source: "cats-vs-dogs/input/lmdb/valid_lmdb"
    batch_size: 50
    backend: LMDB
  }
}
layer {
  name: "conv1"
  type: "Convolution"
  bottom: "data"
  top: "conv1"
  param {
    lr_mult: 1
    decay_mult: 1
    compression: PRUNE
  }
  param {
    lr_mult: 2
    decay_mult: 0
    compression: PRUNE
  }
  convolution_param {
    num_output: 96
    pad: 1
    kernel_size: 11
    stride: 4
    weight_filler {
      type: "gaussian"
      std: 0.01
    }
    bias_filler {
      type: "constant"
      value: 0
    }
  }
}
layer {
  name: "bn1"
  type: "BatchNorm"
  bottom: "conv1"
  top: "scale1"
  param {
    lr_mult: 1
    decay_mult: 0
    compression: PRUNE
  }
  param {
    lr_mult: 1
    decay_mult: 0
    compression: PRUNE
  }
  param {
    lr_mult: 0
    decay_mult: 0
    compression: PRUNE
  }
  param {
    lr_mult: 0
    decay_mult: 0
    compression: PRUNE
  }
  batch_norm_param {
    use_global_stats: false
    scale_filler {
      type: "constant"
      value: 1
    }
    bias_filler {
      type: "constant"
      value: 0
    }
  }
}
layer {
  name: "relu1"
  type: "ReLU"
  bottom: "scale1"
  top: "relu1"
}
layer {
  name: "pool1"
  type: "Pooling"
  bottom: "relu1"
  top: "pool1"
  pooling_param {
    pool: MAX
    kernel_size: 3
    stride: 2
  }
}
layer {
  name: "conv2"
  type: "Convolution"
  bottom: "pool1"
  top: "conv2"
  param {
    lr_mult: 1
    decay_mult: 1
    compression: PRUNE
  }
  param {
    lr_mult: 2
    decay_mult: 0
    compression: PRUNE
  }
  convolution_param {
    num_output: 256
    pad: 2
    kernel_size: 5
    group: 1
    weight_filler {
      type: "gaussian"
      std: 0.01
    }
    bias_filler {
      type: "constant"
      value: 1
    }
  }
}
layer {
  name: "bn2"
  type: "BatchNorm"
  bottom: "conv2"
  top: "scale2"
  param {
    lr_mult: 1
    decay_mult: 0
    compression: PRUNE
  }
  param {
    lr_mult: 1
    decay_mult: 0
    compression: PRUNE
  }
  param {
    lr_mult: 0
    decay_mult: 0
    compression: PRUNE
  }
  param {
    lr_mult: 0
    decay_mult: 0
    compression: PRUNE
  }
  batch_norm_param {
    use_global_stats: false
    scale_filler {
      type: "constant"
      value: 1
    }
    bias_filler {
      type: "constant"
      value: 0
    }
  }
}
layer {
  name: "relu2"
  type: "ReLU"
  bottom: "scale2"
  top: "relu2"
}
layer {
  name: "pool2"
  type: "Pooling"
  bottom: "relu2"
  top: "pool2"
  pooling_param {
    pool: MAX
    kernel_size: 3
    stride: 2
  }
}
layer {
  name: "conv3"
  type: "Convolution"
  bottom: "pool2"
  top: "conv3"
  param {
    lr_mult: 1
    decay_mult: 1
    compression: PRUNE
  }
  param {
    lr_mult: 2
    decay_mult: 0
    compression: PRUNE
  }
  convolution_param {
    num_output: 384
    pad: 1
    kernel_size: 3
    weight_filler {
      type: "gaussian"
      std: 0.01
    }
    bias_filler {
      type: "constant"
      value: 0
    }
  }
}
layer {
  name: "relu3"
  type: "ReLU"
  bottom: "conv3"
  top: "relu3"
}
layer {
  name: "conv4"
  type: "Convolution"
  bottom: "relu3"
  top: "conv4"
  param {
    lr_mult: 1
    decay_mult: 1
    compression: PRUNE
  }
  param {
    lr_mult: 2
    decay_mult: 0
    compression: PRUNE
  }
  convolution_param {
    num_output: 384
    pad: 1
    kernel_size: 3
    group: 1
    weight_filler {
      type: "gaussian"
      std: 0.01
    }
    bias_filler {
      type: "constant"
      value: 1
    }
  }
}
layer {
  name: "relu4"
  type: "ReLU"
  bottom: "conv4"
  top: "relu4"
}
layer {
  name: "conv5"
  type: "Convolution"
  bottom: "relu4"
  top: "conv5"
  param {
    lr_mult: 1
    decay_mult: 1
    compression: PRUNE
  }
  param {
    lr_mult: 2
    decay_mult: 0
    compression: PRUNE
  }
  convolution_param {
    num_output: 256
    pad: 1
    kernel_size: 3
    group: 1
    weight_filler {
      type: "gaussian"
      std: 0.01
    }
    bias_filler {
      type: "constant"
      value: 1
    }
  }
}
layer {
  name: "relu5"
  type: "ReLU"
  bottom: "conv5"
  top: "relu5"
}
layer {
  name: "pool5"
  type: "Pooling"
  bottom: "relu5"
  top: "pool5"
  pooling_param {
    pool: MAX
    kernel_size: 3
    stride: 2
  }
}
layer {
  name: "fc6"
  type: "InnerProduct"
  bottom: "pool5"
  top: "fc6"
  param {
    lr_mult: 1
    decay_mult: 1
  }
  param {
    lr_mult: 2
    decay_mult: 0
  }
  inner_product_param {
    num_output: 4096
    weight_filler {
      type: "gaussian"
      std: 0.005
    }
    bias_filler {
      type: "constant"
      value: 1
    }
  }
}
layer {
  name: "relu6"
  type: "ReLU"
  bottom: "fc6"
  top: "relu6"
}
layer {
  name: "drop6"
  type: "Dropout"
  bottom: "relu6"
  top: "drop6"
  dropout_param {
    dropout_ratio: 0.5
  }
}
layer {
  name: "fc7"
  type: "InnerProduct"
  bottom: "drop6"
  top: "fc7"
  param {
    lr_mult: 1
    decay_mult: 1
  }
  param {
    lr_mult: 2
    decay_mult: 0
  }
  inner_product_param {
    num_output: 4096
    weight_filler {
      type: "gaussian"
      std: 0.005
    }
    bias_filler {
      type: "constant"
      value: 1
    }
  }
}
layer {
  name: "bn7"
  type: "BatchNorm"
  bottom: "fc7"
  top: "scale7"
  param {
    lr_mult: 1
    decay_mult: 0
    compression: PRUNE
  }
  param {
    lr_mult: 1
    decay_mult: 0
    compression: PRUNE
  }
  param {
    lr_mult: 0
    decay_mult: 0
    compression: PRUNE
  }
  param {
    lr_mult: 0
    decay_mult: 0
    compression: PRUNE
  }
  batch_norm_param {
    use_global_stats: false
    scale_filler {
      type: "constant"
      value: 1
    }
    bias_filler {
      type: "constant"
      value: 0
    }
  }
}
layer {
  name: "relu7"
  type: "ReLU"
  bottom: "scale7"
  top: "relu7"
}
layer {
  name: "drop7"
  type: "Dropout"
  bottom: "relu7"
  top: "drop7"
  dropout_param {
    dropout_ratio: 0.5
  }
}
layer {
  name: "fc8"
  type: "InnerProduct"
  bottom: "drop7"
  top: "fc8"
  param {
    lr_mult: 1
    decay_mult: 1
  }
  param {
    lr_mult: 2
    decay_mult: 0
  }
  inner_product_param {
    num_output: 2
    weight_filler {
      type: "gaussian"
      std: 0.01
    }
    bias_filler {
      type: "constant"
      value: 0
    }
  }
}
layer {
  name: "loss"
  type: "SoftmaxWithLoss"
  bottom: "fc8"
  bottom: "label"
  top: "loss"
}
layer {
  name: "accuracy-top1"
  type: "Accuracy"
  bottom: "fc8"
  bottom: "label"
  top: "top-1"
  include {
    phase: TEST
  }
}
I0130 17:36:47.521296 105575 layer_factory.hpp:77] Creating layer data
I0130 17:36:47.521335 105575 internal_thread.cpp:27] Starting internal thread(s) on GPU 0
I0130 17:36:47.522362 105575 net.cpp:94] Creating Layer data
I0130 17:36:47.522384 105575 net.cpp:409] data -> data
I0130 17:36:47.522395 105575 net.cpp:409] data -> label
I0130 17:36:47.523452 105644 db_lmdb.cpp:35] Opened lmdb cats-vs-dogs/input/lmdb/valid_lmdb
I0130 17:36:47.523488 105644 data_reader.cpp:117] TEST: reading data using 1 channel(s)
I0130 17:36:47.523819 105575 data_layer.cpp:78] ReshapePrefetch 50, 3, 227, 227
I0130 17:36:47.523913 105575 data_layer.cpp:83] output data size: 50,3,227,227
I0130 17:36:47.604431 105575 internal_thread.cpp:27] Starting internal thread(s) on GPU 0
I0130 17:36:47.604501 105575 net.cpp:144] Setting up data
I0130 17:36:47.604507 105575 net.cpp:151] Top shape: 50 3 227 227 (7729350)
I0130 17:36:47.604511 105575 net.cpp:151] Top shape: 50 (50)
I0130 17:36:47.604513 105575 net.cpp:159] Memory required for data: 30917600
I0130 17:36:47.604527 105575 layer_factory.hpp:77] Creating layer label_data_1_split
I0130 17:36:47.604538 105575 net.cpp:94] Creating Layer label_data_1_split
I0130 17:36:47.604542 105575 net.cpp:435] label_data_1_split <- label
I0130 17:36:47.604548 105575 net.cpp:409] label_data_1_split -> label_data_1_split_0
I0130 17:36:47.604555 105575 net.cpp:409] label_data_1_split -> label_data_1_split_1
I0130 17:36:47.604615 105575 net.cpp:144] Setting up label_data_1_split
I0130 17:36:47.604620 105575 net.cpp:151] Top shape: 50 (50)
I0130 17:36:47.604624 105575 net.cpp:151] Top shape: 50 (50)
I0130 17:36:47.604625 105575 net.cpp:159] Memory required for data: 30918000
I0130 17:36:47.604627 105575 layer_factory.hpp:77] Creating layer conv1
I0130 17:36:47.604637 105575 net.cpp:94] Creating Layer conv1
I0130 17:36:47.604640 105575 net.cpp:435] conv1 <- data
I0130 17:36:47.604645 105575 net.cpp:409] conv1 -> conv1
I0130 17:36:47.605242 105575 net.cpp:144] Setting up conv1
I0130 17:36:47.605250 105575 net.cpp:151] Top shape: 50 96 55 55 (14520000)
I0130 17:36:47.605252 105575 net.cpp:159] Memory required for data: 88998000
I0130 17:36:47.605260 105575 layer_factory.hpp:77] Creating layer bn1
I0130 17:36:47.605268 105575 net.cpp:94] Creating Layer bn1
I0130 17:36:47.605271 105575 net.cpp:435] bn1 <- conv1
I0130 17:36:47.605275 105575 net.cpp:409] bn1 -> scale1
I0130 17:36:47.605849 105575 net.cpp:144] Setting up bn1
I0130 17:36:47.605856 105575 net.cpp:151] Top shape: 50 96 55 55 (14520000)
I0130 17:36:47.605859 105575 net.cpp:159] Memory required for data: 147078000
I0130 17:36:47.605867 105575 layer_factory.hpp:77] Creating layer relu1
I0130 17:36:47.605872 105575 net.cpp:94] Creating Layer relu1
I0130 17:36:47.605875 105575 net.cpp:435] relu1 <- scale1
I0130 17:36:47.605880 105575 net.cpp:409] relu1 -> relu1
I0130 17:36:47.605895 105575 net.cpp:144] Setting up relu1
I0130 17:36:47.605901 105575 net.cpp:151] Top shape: 50 96 55 55 (14520000)
I0130 17:36:47.605906 105575 net.cpp:159] Memory required for data: 205158000
I0130 17:36:47.605907 105575 layer_factory.hpp:77] Creating layer pool1
I0130 17:36:47.605912 105575 net.cpp:94] Creating Layer pool1
I0130 17:36:47.605914 105575 net.cpp:435] pool1 <- relu1
I0130 17:36:47.605919 105575 net.cpp:409] pool1 -> pool1
I0130 17:36:47.606221 105575 net.cpp:144] Setting up pool1
I0130 17:36:47.606226 105575 net.cpp:151] Top shape: 50 96 27 27 (3499200)
I0130 17:36:47.606228 105575 net.cpp:159] Memory required for data: 219154800
I0130 17:36:47.606231 105575 layer_factory.hpp:77] Creating layer conv2
I0130 17:36:47.606241 105575 net.cpp:94] Creating Layer conv2
I0130 17:36:47.606261 105575 net.cpp:435] conv2 <- pool1
I0130 17:36:47.606266 105575 net.cpp:409] conv2 -> conv2
I0130 17:36:47.612789 105575 net.cpp:144] Setting up conv2
I0130 17:36:47.612812 105575 net.cpp:151] Top shape: 50 256 27 27 (9331200)
I0130 17:36:47.612818 105575 net.cpp:159] Memory required for data: 256479600
I0130 17:36:47.612828 105575 layer_factory.hpp:77] Creating layer bn2
I0130 17:36:47.612840 105575 net.cpp:94] Creating Layer bn2
I0130 17:36:47.612843 105575 net.cpp:435] bn2 <- conv2
I0130 17:36:47.612850 105575 net.cpp:409] bn2 -> scale2
I0130 17:36:47.613497 105575 net.cpp:144] Setting up bn2
I0130 17:36:47.613510 105575 net.cpp:151] Top shape: 50 256 27 27 (9331200)
I0130 17:36:47.613513 105575 net.cpp:159] Memory required for data: 293804400
I0130 17:36:47.613520 105575 layer_factory.hpp:77] Creating layer relu2
I0130 17:36:47.613529 105575 net.cpp:94] Creating Layer relu2
I0130 17:36:47.613533 105575 net.cpp:435] relu2 <- scale2
I0130 17:36:47.613538 105575 net.cpp:409] relu2 -> relu2
I0130 17:36:47.613557 105575 net.cpp:144] Setting up relu2
I0130 17:36:47.613561 105575 net.cpp:151] Top shape: 50 256 27 27 (9331200)
I0130 17:36:47.613565 105575 net.cpp:159] Memory required for data: 331129200
I0130 17:36:47.613567 105575 layer_factory.hpp:77] Creating layer pool2
I0130 17:36:47.613572 105575 net.cpp:94] Creating Layer pool2
I0130 17:36:47.613575 105575 net.cpp:435] pool2 <- relu2
I0130 17:36:47.613581 105575 net.cpp:409] pool2 -> pool2
I0130 17:36:47.613612 105575 net.cpp:144] Setting up pool2
I0130 17:36:47.613620 105575 net.cpp:151] Top shape: 50 256 13 13 (2163200)
I0130 17:36:47.613624 105575 net.cpp:159] Memory required for data: 339782000
I0130 17:36:47.613627 105575 layer_factory.hpp:77] Creating layer conv3
I0130 17:36:47.613636 105575 net.cpp:94] Creating Layer conv3
I0130 17:36:47.613638 105575 net.cpp:435] conv3 <- pool2
I0130 17:36:47.613644 105575 net.cpp:409] conv3 -> conv3
I0130 17:36:47.623546 105575 net.cpp:144] Setting up conv3
I0130 17:36:47.623567 105575 net.cpp:151] Top shape: 50 384 13 13 (3244800)
I0130 17:36:47.623571 105575 net.cpp:159] Memory required for data: 352761200
I0130 17:36:47.623580 105575 layer_factory.hpp:77] Creating layer relu3
I0130 17:36:47.623590 105575 net.cpp:94] Creating Layer relu3
I0130 17:36:47.623594 105575 net.cpp:435] relu3 <- conv3
I0130 17:36:47.623605 105575 net.cpp:409] relu3 -> relu3
I0130 17:36:47.623641 105575 net.cpp:144] Setting up relu3
I0130 17:36:47.623648 105575 net.cpp:151] Top shape: 50 384 13 13 (3244800)
I0130 17:36:47.623651 105575 net.cpp:159] Memory required for data: 365740400
I0130 17:36:47.623656 105575 layer_factory.hpp:77] Creating layer conv4
I0130 17:36:47.623675 105575 net.cpp:94] Creating Layer conv4
I0130 17:36:47.623679 105575 net.cpp:435] conv4 <- relu3
I0130 17:36:47.623687 105575 net.cpp:409] conv4 -> conv4
I0130 17:36:47.639466 105575 net.cpp:144] Setting up conv4
I0130 17:36:47.639504 105575 net.cpp:151] Top shape: 50 384 13 13 (3244800)
I0130 17:36:47.639509 105575 net.cpp:159] Memory required for data: 378719600
I0130 17:36:47.639523 105575 layer_factory.hpp:77] Creating layer relu4
I0130 17:36:47.639536 105575 net.cpp:94] Creating Layer relu4
I0130 17:36:47.639542 105575 net.cpp:435] relu4 <- conv4
I0130 17:36:47.639552 105575 net.cpp:409] relu4 -> relu4
I0130 17:36:47.639606 105575 net.cpp:144] Setting up relu4
I0130 17:36:47.639614 105575 net.cpp:151] Top shape: 50 384 13 13 (3244800)
I0130 17:36:47.639619 105575 net.cpp:159] Memory required for data: 391698800
I0130 17:36:47.639624 105575 layer_factory.hpp:77] Creating layer conv5
I0130 17:36:47.639639 105575 net.cpp:94] Creating Layer conv5
I0130 17:36:47.639644 105575 net.cpp:435] conv5 <- relu4
I0130 17:36:47.639653 105575 net.cpp:409] conv5 -> conv5
I0130 17:36:47.649598 105575 net.cpp:144] Setting up conv5
I0130 17:36:47.649668 105575 net.cpp:151] Top shape: 50 256 13 13 (2163200)
I0130 17:36:47.649686 105575 net.cpp:159] Memory required for data: 400351600
I0130 17:36:47.649718 105575 layer_factory.hpp:77] Creating layer relu5
I0130 17:36:47.649742 105575 net.cpp:94] Creating Layer relu5
I0130 17:36:47.649770 105575 net.cpp:435] relu5 <- conv5
I0130 17:36:47.649791 105575 net.cpp:409] relu5 -> relu5
I0130 17:36:47.649857 105575 net.cpp:144] Setting up relu5
I0130 17:36:47.649878 105575 net.cpp:151] Top shape: 50 256 13 13 (2163200)
I0130 17:36:47.649893 105575 net.cpp:159] Memory required for data: 409004400
I0130 17:36:47.649909 105575 layer_factory.hpp:77] Creating layer pool5
I0130 17:36:47.649932 105575 net.cpp:94] Creating Layer pool5
I0130 17:36:47.649950 105575 net.cpp:435] pool5 <- relu5
I0130 17:36:47.649977 105575 net.cpp:409] pool5 -> pool5
I0130 17:36:47.650050 105575 net.cpp:144] Setting up pool5
I0130 17:36:47.650068 105575 net.cpp:151] Top shape: 50 256 6 6 (460800)
I0130 17:36:47.650087 105575 net.cpp:159] Memory required for data: 410847600
I0130 17:36:47.650104 105575 layer_factory.hpp:77] Creating layer fc6
I0130 17:36:47.650127 105575 net.cpp:94] Creating Layer fc6
I0130 17:36:47.650143 105575 net.cpp:435] fc6 <- pool5
I0130 17:36:47.650168 105575 net.cpp:409] fc6 -> fc6
I0130 17:36:47.960527 105575 net.cpp:144] Setting up fc6
I0130 17:36:47.960551 105575 net.cpp:151] Top shape: 50 4096 (204800)
I0130 17:36:47.960553 105575 net.cpp:159] Memory required for data: 411666800
I0130 17:36:47.960577 105575 layer_factory.hpp:77] Creating layer relu6
I0130 17:36:47.960584 105575 net.cpp:94] Creating Layer relu6
I0130 17:36:47.960587 105575 net.cpp:435] relu6 <- fc6
I0130 17:36:47.960592 105575 net.cpp:409] relu6 -> relu6
I0130 17:36:47.960618 105575 net.cpp:144] Setting up relu6
I0130 17:36:47.960621 105575 net.cpp:151] Top shape: 50 4096 (204800)
I0130 17:36:47.960623 105575 net.cpp:159] Memory required for data: 412486000
I0130 17:36:47.960625 105575 layer_factory.hpp:77] Creating layer drop6
I0130 17:36:47.960630 105575 net.cpp:94] Creating Layer drop6
I0130 17:36:47.960633 105575 net.cpp:435] drop6 <- relu6
I0130 17:36:47.960635 105575 net.cpp:409] drop6 -> drop6
I0130 17:36:47.960657 105575 net.cpp:144] Setting up drop6
I0130 17:36:47.960662 105575 net.cpp:151] Top shape: 50 4096 (204800)
I0130 17:36:47.960664 105575 net.cpp:159] Memory required for data: 413305200
I0130 17:36:47.960666 105575 layer_factory.hpp:77] Creating layer fc7
I0130 17:36:47.960672 105575 net.cpp:94] Creating Layer fc7
I0130 17:36:47.960675 105575 net.cpp:435] fc7 <- drop6
I0130 17:36:47.960695 105575 net.cpp:409] fc7 -> fc7
I0130 17:36:48.096019 105575 net.cpp:144] Setting up fc7
I0130 17:36:48.096042 105575 net.cpp:151] Top shape: 50 4096 (204800)
I0130 17:36:48.096045 105575 net.cpp:159] Memory required for data: 414124400
I0130 17:36:48.096052 105575 layer_factory.hpp:77] Creating layer bn7
I0130 17:36:48.096062 105575 net.cpp:94] Creating Layer bn7
I0130 17:36:48.096065 105575 net.cpp:435] bn7 <- fc7
I0130 17:36:48.096071 105575 net.cpp:409] bn7 -> scale7
I0130 17:36:48.096613 105575 net.cpp:144] Setting up bn7
I0130 17:36:48.096619 105575 net.cpp:151] Top shape: 50 4096 (204800)
I0130 17:36:48.096621 105575 net.cpp:159] Memory required for data: 414943600
I0130 17:36:48.096628 105575 layer_factory.hpp:77] Creating layer relu7
I0130 17:36:48.096633 105575 net.cpp:94] Creating Layer relu7
I0130 17:36:48.096637 105575 net.cpp:435] relu7 <- scale7
I0130 17:36:48.096642 105575 net.cpp:409] relu7 -> relu7
I0130 17:36:48.096658 105575 net.cpp:144] Setting up relu7
I0130 17:36:48.096662 105575 net.cpp:151] Top shape: 50 4096 (204800)
I0130 17:36:48.096664 105575 net.cpp:159] Memory required for data: 415762800
I0130 17:36:48.096666 105575 layer_factory.hpp:77] Creating layer drop7
I0130 17:36:48.096671 105575 net.cpp:94] Creating Layer drop7
I0130 17:36:48.096673 105575 net.cpp:435] drop7 <- relu7
I0130 17:36:48.096678 105575 net.cpp:409] drop7 -> drop7
I0130 17:36:48.096702 105575 net.cpp:144] Setting up drop7
I0130 17:36:48.096709 105575 net.cpp:151] Top shape: 50 4096 (204800)
I0130 17:36:48.096711 105575 net.cpp:159] Memory required for data: 416582000
I0130 17:36:48.096714 105575 layer_factory.hpp:77] Creating layer fc8
I0130 17:36:48.096719 105575 net.cpp:94] Creating Layer fc8
I0130 17:36:48.096738 105575 net.cpp:435] fc8 <- drop7
I0130 17:36:48.096743 105575 net.cpp:409] fc8 -> fc8
I0130 17:36:48.096899 105575 net.cpp:144] Setting up fc8
I0130 17:36:48.096904 105575 net.cpp:151] Top shape: 50 2 (100)
I0130 17:36:48.096906 105575 net.cpp:159] Memory required for data: 416582400
I0130 17:36:48.096910 105575 layer_factory.hpp:77] Creating layer fc8_fc8_0_split
I0130 17:36:48.096915 105575 net.cpp:94] Creating Layer fc8_fc8_0_split
I0130 17:36:48.096916 105575 net.cpp:435] fc8_fc8_0_split <- fc8
I0130 17:36:48.096921 105575 net.cpp:409] fc8_fc8_0_split -> fc8_fc8_0_split_0
I0130 17:36:48.096926 105575 net.cpp:409] fc8_fc8_0_split -> fc8_fc8_0_split_1
I0130 17:36:48.096951 105575 net.cpp:144] Setting up fc8_fc8_0_split
I0130 17:36:48.096954 105575 net.cpp:151] Top shape: 50 2 (100)
I0130 17:36:48.096957 105575 net.cpp:151] Top shape: 50 2 (100)
I0130 17:36:48.096959 105575 net.cpp:159] Memory required for data: 416583200
I0130 17:36:48.096961 105575 layer_factory.hpp:77] Creating layer loss
I0130 17:36:48.096966 105575 net.cpp:94] Creating Layer loss
I0130 17:36:48.096967 105575 net.cpp:435] loss <- fc8_fc8_0_split_0
I0130 17:36:48.096971 105575 net.cpp:435] loss <- label_data_1_split_0
I0130 17:36:48.096974 105575 net.cpp:409] loss -> loss
…
