…
I0131 01:37:54.682727 114666 net.cpp:323] The NetState phase (0) differed from the phase (1) specified by a rule in layer accuracy-top1
I0131 01:37:54.682871 114666 net.cpp:52] Initializing net from parameters: 
state {
  phase: TRAIN
}
layer {
  name: "data"
  type: "Data"
  top: "data"
  top: "label"
  include {
    phase: TRAIN
  }
  transform_param {
    mirror: true
    crop_size: 227
    mean_value: 106
    mean_value: 116
    mean_value: 124
  }
  data_param {
    source: "cats-vs-dogs/input/lmdb/train_lmdb"
    batch_size: 256
    backend: LMDB
  }
}
layer {
  name: "conv1"
  type: "Convolution"
  bottom: "data"
  top: "conv1"
  param {
    lr_mult: 1
    decay_mult: 1
    compression: PRUNE
  }
  param {
    lr_mult: 2
    decay_mult: 0
    compression: PRUNE
  }
  convolution_param {
    num_output: 96
    pad: 1
    kernel_size: 11
    stride: 4
    weight_filler {
      type: "gaussian"
      std: 0.01
    }
    bias_filler {
      type: "constant"
      value: 0
    }
  }
}
layer {
  name: "bn1"
  type: "BatchNorm"
  bottom: "conv1"
  top: "scale1"
  param {
    lr_mult: 1
    decay_mult: 0
    compression: PRUNE
  }
  param {
    lr_mult: 1
    decay_mult: 0
    compression: PRUNE
  }
  param {
    lr_mult: 0
    decay_mult: 0
    compression: PRUNE
  }
  param {
    lr_mult: 0
    decay_mult: 0
    compression: PRUNE
  }
  batch_norm_param {
    use_global_stats: false
    scale_filler {
      type: "constant"
      value: 1
    }
    bias_filler {
      type: "constant"
      value: 0
    }
  }
}
layer {
  name: "relu1"
  type: "ReLU"
  bottom: "scale1"
  top: "relu1"
}
layer {
  name: "pool1"
  type: "Pooling"
  bottom: "relu1"
  top: "pool1"
  pooling_param {
    pool: MAX
    kernel_size: 3
    stride: 2
  }
}
layer {
  name: "conv2"
  type: "Convolution"
  bottom: "pool1"
  top: "conv2"
  param {
    lr_mult: 1
    decay_mult: 1
    compression: PRUNE
  }
  param {
    lr_mult: 2
    decay_mult: 0
    compression: PRUNE
  }
  convolution_param {
    num_output: 256
    pad: 2
    kernel_size: 5
    group: 1
    weight_filler {
      type: "gaussian"
      std: 0.01
    }
    bias_filler {
      type: "constant"
      value: 1
    }
  }
}
layer {
  name: "bn2"
  type: "BatchNorm"
  bottom: "conv2"
  top: "scale2"
  param {
    lr_mult: 1
    decay_mult: 0
    compression: PRUNE
  }
  param {
    lr_mult: 1
    decay_mult: 0
    compression: PRUNE
  }
  param {
    lr_mult: 0
    decay_mult: 0
    compression: PRUNE
  }
  param {
    lr_mult: 0
    decay_mult: 0
    compression: PRUNE
  }
  batch_norm_param {
    use_global_stats: false
    scale_filler {
      type: "constant"
      value: 1
    }
    bias_filler {
      type: "constant"
      value: 0
    }
  }
}
layer {
  name: "relu2"
  type: "ReLU"
  bottom: "scale2"
  top: "relu2"
}
layer {
  name: "pool2"
  type: "Pooling"
  bottom: "relu2"
  top: "pool2"
  pooling_param {
    pool: MAX
    kernel_size: 3
    stride: 2
  }
}
layer {
  name: "conv3"
  type: "Convolution"
  bottom: "pool2"
  top: "conv3"
  param {
    lr_mult: 1
    decay_mult: 1
    compression: PRUNE
  }
  param {
    lr_mult: 2
    decay_mult: 0
    compression: PRUNE
  }
  convolution_param {
    num_output: 384
    pad: 1
    kernel_size: 3
    weight_filler {
      type: "gaussian"
      std: 0.01
    }
    bias_filler {
      type: "constant"
      value: 0
    }
  }
}
layer {
  name: "relu3"
  type: "ReLU"
  bottom: "conv3"
  top: "relu3"
}
layer {
  name: "conv4"
  type: "Convolution"
  bottom: "relu3"
  top: "conv4"
  param {
    lr_mult: 1
    decay_mult: 1
    compression: PRUNE
  }
  param {
    lr_mult: 2
    decay_mult: 0
    compression: PRUNE
  }
  convolution_param {
    num_output: 384
    pad: 1
    kernel_size: 3
    group: 1
    weight_filler {
      type: "gaussian"
      std: 0.01
    }
    bias_filler {
      type: "constant"
      value: 1
    }
  }
}
layer {
  name: "relu4"
  type: "ReLU"
  bottom: "conv4"
  top: "relu4"
}
layer {
  name: "conv5"
  type: "Convolution"
  bottom: "relu4"
  top: "conv5"
  param {
    lr_mult: 1
    decay_mult: 1
    compression: PRUNE
  }
  param {
    lr_mult: 2
    decay_mult: 0
    compression: PRUNE
  }
  convolution_param {
    num_output: 256
    pad: 1
    kernel_size: 3
    group: 1
    weight_filler {
      type: "gaussian"
      std: 0.01
    }
    bias_filler {
      type: "constant"
      value: 1
    }
  }
}
layer {
  name: "relu5"
  type: "ReLU"
  bottom: "conv5"
  top: "relu5"
}
layer {
  name: "pool5"
  type: "Pooling"
  bottom: "relu5"
  top: "pool5"
  pooling_param {
    pool: MAX
    kernel_size: 3
    stride: 2
  }
}
layer {
  name: "fc6"
  type: "InnerProduct"
  bottom: "pool5"
  top: "fc6"
  param {
    lr_mult: 1
    decay_mult: 1
  }
  param {
    lr_mult: 2
    decay_mult: 0
  }
  inner_product_param {
    num_output: 4096
    weight_filler {
      type: "gaussian"
      std: 0.005
    }
    bias_filler {
      type: "constant"
      value: 1
    }
  }
}
layer {
  name: "relu6"
  type: "ReLU"
  bottom: "fc6"
  top: "relu6"
}
layer {
  name: "drop6"
  type: "Dropout"
  bottom: "relu6"
  top: "drop6"
  dropout_param {
    dropout_ratio: 0.5
  }
}
layer {
  name: "fc7"
  type: "InnerProduct"
  bottom: "drop6"
  top: "fc7"
  param {
    lr_mult: 1
    decay_mult: 1
  }
  param {
    lr_mult: 2
    decay_mult: 0
  }
  inner_product_param {
    num_output: 4096
    weight_filler {
      type: "gaussian"
      std: 0.005
    }
    bias_filler {
      type: "constant"
      value: 1
    }
  }
}
layer {
  name: "bn7"
  type: "BatchNorm"
  bottom: "fc7"
  top: "scale7"
  param {
    lr_mult: 1
    decay_mult: 0
    compression: PRUNE
  }
  param {
    lr_mult: 1
    decay_mult: 0
    compression: PRUNE
  }
  param {
    lr_mult: 0
    decay_mult: 0
    compression: PRUNE
  }
  param {
    lr_mult: 0
    decay_mult: 0
    compression: PRUNE
  }
  batch_norm_param {
    use_global_stats: false
    scale_filler {
      type: "constant"
      value: 1
    }
    bias_filler {
      type: "constant"
      value: 0
    }
  }
}
layer {
  name: "relu7"
  type: "ReLU"
  bottom: "scale7"
  top: "relu7"
}
layer {
  name: "drop7"
  type: "Dropout"
  bottom: "relu7"
  top: "drop7"
  dropout_param {
    dropout_ratio: 0.5
  }
}
layer {
  name: "fc8"
  type: "InnerProduct"
  bottom: "drop7"
  top: "fc8"
  param {
    lr_mult: 1
    decay_mult: 1
  }
  param {
    lr_mult: 2
    decay_mult: 0
  }
  inner_product_param {
    num_output: 2
    weight_filler {
      type: "gaussian"
      std: 0.01
    }
    bias_filler {
      type: "constant"
      value: 0
    }
  }
}
layer {
  name: "loss"
  type: "SoftmaxWithLoss"
  bottom: "fc8"
  bottom: "label"
  top: "loss"
}
I0131 01:37:54.682936 114666 layer_factory.hpp:77] Creating layer data
I0131 01:37:54.683092 114666 internal_thread.cpp:27] Starting internal thread(s) on GPU 0
I0131 01:37:54.683538 114666 net.cpp:94] Creating Layer data
I0131 01:37:54.683548 114666 net.cpp:409] data -> data
I0131 01:37:54.683558 114666 net.cpp:409] data -> label
I0131 01:37:54.685871   322 db_lmdb.cpp:35] Opened lmdb cats-vs-dogs/input/lmdb/train_lmdb
I0131 01:37:54.685914   322 data_reader.cpp:117] TRAIN: reading data using 1 channel(s)
I0131 01:37:54.686250 114666 data_layer.cpp:78] ReshapePrefetch 256, 3, 227, 227
I0131 01:37:54.686374 114666 data_layer.cpp:83] output data size: 256,3,227,227
I0131 01:37:55.099743 114666 internal_thread.cpp:27] Starting internal thread(s) on GPU 0
I0131 01:37:55.099813 114666 net.cpp:144] Setting up data
I0131 01:37:55.099822 114666 net.cpp:151] Top shape: 256 3 227 227 (39574272)
I0131 01:37:55.099825 114666 net.cpp:151] Top shape: 256 (256)
I0131 01:37:55.099828 114666 net.cpp:159] Memory required for data: 158298112
I0131 01:37:55.099833 114666 layer_factory.hpp:77] Creating layer conv1
I0131 01:37:55.099846 114666 net.cpp:94] Creating Layer conv1
I0131 01:37:55.099849 114666 net.cpp:435] conv1 <- data
I0131 01:37:55.099865 114666 net.cpp:409] conv1 -> conv1
I0131 01:37:55.101753 114666 net.cpp:144] Setting up conv1
I0131 01:37:55.101766 114666 net.cpp:151] Top shape: 256 96 55 55 (74342400)
I0131 01:37:55.101769 114666 net.cpp:159] Memory required for data: 455667712
I0131 01:37:55.101783 114666 layer_factory.hpp:77] Creating layer bn1
I0131 01:37:55.101792 114666 net.cpp:94] Creating Layer bn1
I0131 01:37:55.101795 114666 net.cpp:435] bn1 <- conv1
I0131 01:37:55.101800 114666 net.cpp:409] bn1 -> scale1
I0131 01:37:55.103041 114666 net.cpp:144] Setting up bn1
I0131 01:37:55.103049 114666 net.cpp:151] Top shape: 256 96 55 55 (74342400)
I0131 01:37:55.103052 114666 net.cpp:159] Memory required for data: 753037312
I0131 01:37:55.103061 114666 layer_factory.hpp:77] Creating layer relu1
I0131 01:37:55.103066 114666 net.cpp:94] Creating Layer relu1
I0131 01:37:55.103070 114666 net.cpp:435] relu1 <- scale1
I0131 01:37:55.103073 114666 net.cpp:409] relu1 -> relu1
I0131 01:37:55.103098 114666 net.cpp:144] Setting up relu1
I0131 01:37:55.103103 114666 net.cpp:151] Top shape: 256 96 55 55 (74342400)
I0131 01:37:55.103106 114666 net.cpp:159] Memory required for data: 1050406912
I0131 01:37:55.103108 114666 layer_factory.hpp:77] Creating layer pool1
I0131 01:37:55.103114 114666 net.cpp:94] Creating Layer pool1
I0131 01:37:55.103116 114666 net.cpp:435] pool1 <- relu1
I0131 01:37:55.103121 114666 net.cpp:409] pool1 -> pool1
I0131 01:37:55.103193 114666 net.cpp:144] Setting up pool1
I0131 01:37:55.103199 114666 net.cpp:151] Top shape: 256 96 27 27 (17915904)
I0131 01:37:55.103202 114666 net.cpp:159] Memory required for data: 1122070528
I0131 01:37:55.103205 114666 layer_factory.hpp:77] Creating layer conv2
I0131 01:37:55.103214 114666 net.cpp:94] Creating Layer conv2
I0131 01:37:55.103216 114666 net.cpp:435] conv2 <- pool1
I0131 01:37:55.103220 114666 net.cpp:409] conv2 -> conv2
I0131 01:37:55.120187 114666 net.cpp:144] Setting up conv2
I0131 01:37:55.120203 114666 net.cpp:151] Top shape: 256 256 27 27 (47775744)
I0131 01:37:55.120208 114666 net.cpp:159] Memory required for data: 1313173504
I0131 01:37:55.120219 114666 layer_factory.hpp:77] Creating layer bn2
I0131 01:37:55.120229 114666 net.cpp:94] Creating Layer bn2
I0131 01:37:55.120234 114666 net.cpp:435] bn2 <- conv2
I0131 01:37:55.120249 114666 net.cpp:409] bn2 -> scale2
I0131 01:37:55.120815 114666 net.cpp:144] Setting up bn2
I0131 01:37:55.120823 114666 net.cpp:151] Top shape: 256 256 27 27 (47775744)
I0131 01:37:55.120826 114666 net.cpp:159] Memory required for data: 1504276480
I0131 01:37:55.120834 114666 layer_factory.hpp:77] Creating layer relu2
I0131 01:37:55.120841 114666 net.cpp:94] Creating Layer relu2
I0131 01:37:55.120844 114666 net.cpp:435] relu2 <- scale2
I0131 01:37:55.120848 114666 net.cpp:409] relu2 -> relu2
I0131 01:37:55.120867 114666 net.cpp:144] Setting up relu2
I0131 01:37:55.120872 114666 net.cpp:151] Top shape: 256 256 27 27 (47775744)
I0131 01:37:55.120874 114666 net.cpp:159] Memory required for data: 1695379456
I0131 01:37:55.120877 114666 layer_factory.hpp:77] Creating layer pool2
I0131 01:37:55.120884 114666 net.cpp:94] Creating Layer pool2
I0131 01:37:55.120887 114666 net.cpp:435] pool2 <- relu2
I0131 01:37:55.120908 114666 net.cpp:409] pool2 -> pool2
I0131 01:37:55.120936 114666 net.cpp:144] Setting up pool2
I0131 01:37:55.120940 114666 net.cpp:151] Top shape: 256 256 13 13 (11075584)
I0131 01:37:55.120944 114666 net.cpp:159] Memory required for data: 1739681792
I0131 01:37:55.120946 114666 layer_factory.hpp:77] Creating layer conv3
I0131 01:37:55.120955 114666 net.cpp:94] Creating Layer conv3
I0131 01:37:55.120959 114666 net.cpp:435] conv3 <- pool2
I0131 01:37:55.120963 114666 net.cpp:409] conv3 -> conv3
I0131 01:37:55.134222 114666 net.cpp:144] Setting up conv3
I0131 01:37:55.134248 114666 net.cpp:151] Top shape: 256 384 13 13 (16613376)
I0131 01:37:55.134253 114666 net.cpp:159] Memory required for data: 1806135296
I0131 01:37:55.134263 114666 layer_factory.hpp:77] Creating layer relu3
I0131 01:37:55.134274 114666 net.cpp:94] Creating Layer relu3
I0131 01:37:55.134279 114666 net.cpp:435] relu3 <- conv3
I0131 01:37:55.134295 114666 net.cpp:409] relu3 -> relu3
I0131 01:37:55.134331 114666 net.cpp:144] Setting up relu3
I0131 01:37:55.134359 114666 net.cpp:151] Top shape: 256 384 13 13 (16613376)
I0131 01:37:55.134374 114666 net.cpp:159] Memory required for data: 1872588800
I0131 01:37:55.134389 114666 layer_factory.hpp:77] Creating layer conv4
I0131 01:37:55.134413 114666 net.cpp:94] Creating Layer conv4
I0131 01:37:55.134429 114666 net.cpp:435] conv4 <- relu3
I0131 01:37:55.134449 114666 net.cpp:409] conv4 -> conv4
I0131 01:37:55.150058 114666 net.cpp:144] Setting up conv4
I0131 01:37:55.150080 114666 net.cpp:151] Top shape: 256 384 13 13 (16613376)
I0131 01:37:55.150084 114666 net.cpp:159] Memory required for data: 1939042304
I0131 01:37:55.150111 114666 layer_factory.hpp:77] Creating layer relu4
I0131 01:37:55.150130 114666 net.cpp:94] Creating Layer relu4
I0131 01:37:55.150135 114666 net.cpp:435] relu4 <- conv4
I0131 01:37:55.150142 114666 net.cpp:409] relu4 -> relu4
I0131 01:37:55.150172 114666 net.cpp:144] Setting up relu4
I0131 01:37:55.150177 114666 net.cpp:151] Top shape: 256 384 13 13 (16613376)
I0131 01:37:55.150182 114666 net.cpp:159] Memory required for data: 2005495808
I0131 01:37:55.150192 114666 layer_factory.hpp:77] Creating layer conv5
I0131 01:37:55.150203 114666 net.cpp:94] Creating Layer conv5
I0131 01:37:55.150211 114666 net.cpp:435] conv5 <- relu4
I0131 01:37:55.150218 114666 net.cpp:409] conv5 -> conv5
I0131 01:37:55.166579 114666 net.cpp:144] Setting up conv5
I0131 01:37:55.166647 114666 net.cpp:151] Top shape: 256 256 13 13 (11075584)
I0131 01:37:55.166664 114666 net.cpp:159] Memory required for data: 2049798144
I0131 01:37:55.166688 114666 layer_factory.hpp:77] Creating layer relu5
I0131 01:37:55.166712 114666 net.cpp:94] Creating Layer relu5
I0131 01:37:55.166729 114666 net.cpp:435] relu5 <- conv5
I0131 01:37:55.166751 114666 net.cpp:409] relu5 -> relu5
I0131 01:37:55.166811 114666 net.cpp:144] Setting up relu5
I0131 01:37:55.166831 114666 net.cpp:151] Top shape: 256 256 13 13 (11075584)
I0131 01:37:55.166846 114666 net.cpp:159] Memory required for data: 2094100480
I0131 01:37:55.166860 114666 layer_factory.hpp:77] Creating layer pool5
I0131 01:37:55.166880 114666 net.cpp:94] Creating Layer pool5
I0131 01:37:55.166898 114666 net.cpp:435] pool5 <- relu5
I0131 01:37:55.166915 114666 net.cpp:409] pool5 -> pool5
I0131 01:37:55.166975 114666 net.cpp:144] Setting up pool5
I0131 01:37:55.166995 114666 net.cpp:151] Top shape: 256 256 6 6 (2359296)
I0131 01:37:55.167011 114666 net.cpp:159] Memory required for data: 2103537664
I0131 01:37:55.167026 114666 layer_factory.hpp:77] Creating layer fc6
I0131 01:37:55.167049 114666 net.cpp:94] Creating Layer fc6
I0131 01:37:55.167065 114666 net.cpp:435] fc6 <- pool5
I0131 01:37:55.167085 114666 net.cpp:409] fc6 -> fc6
I0131 01:37:55.553709 114666 net.cpp:144] Setting up fc6
I0131 01:37:55.553736 114666 net.cpp:151] Top shape: 256 4096 (1048576)
I0131 01:37:55.553738 114666 net.cpp:159] Memory required for data: 2107731968
I0131 01:37:55.553762 114666 layer_factory.hpp:77] Creating layer relu6
I0131 01:37:55.553771 114666 net.cpp:94] Creating Layer relu6
I0131 01:37:55.553794 114666 net.cpp:435] relu6 <- fc6
I0131 01:37:55.553802 114666 net.cpp:409] relu6 -> relu6
I0131 01:37:55.553822 114666 net.cpp:144] Setting up relu6
I0131 01:37:55.553825 114666 net.cpp:151] Top shape: 256 4096 (1048576)
I0131 01:37:55.553828 114666 net.cpp:159] Memory required for data: 2111926272
I0131 01:37:55.553829 114666 layer_factory.hpp:77] Creating layer drop6
I0131 01:37:55.553835 114666 net.cpp:94] Creating Layer drop6
I0131 01:37:55.553838 114666 net.cpp:435] drop6 <- relu6
I0131 01:37:55.553841 114666 net.cpp:409] drop6 -> drop6
I0131 01:37:55.553865 114666 net.cpp:144] Setting up drop6
I0131 01:37:55.553871 114666 net.cpp:151] Top shape: 256 4096 (1048576)
I0131 01:37:55.553872 114666 net.cpp:159] Memory required for data: 2116120576
I0131 01:37:55.553875 114666 layer_factory.hpp:77] Creating layer fc7
I0131 01:37:55.553880 114666 net.cpp:94] Creating Layer fc7
I0131 01:37:55.553884 114666 net.cpp:435] fc7 <- drop6
I0131 01:37:55.553887 114666 net.cpp:409] fc7 -> fc7
I0131 01:37:55.695583 114666 net.cpp:144] Setting up fc7
I0131 01:37:55.695611 114666 net.cpp:151] Top shape: 256 4096 (1048576)
I0131 01:37:55.695613 114666 net.cpp:159] Memory required for data: 2120314880
I0131 01:37:55.695621 114666 layer_factory.hpp:77] Creating layer bn7
I0131 01:37:55.695629 114666 net.cpp:94] Creating Layer bn7
I0131 01:37:55.695632 114666 net.cpp:435] bn7 <- fc7
I0131 01:37:55.695639 114666 net.cpp:409] bn7 -> scale7
I0131 01:37:55.696146 114666 net.cpp:144] Setting up bn7
I0131 01:37:55.696153 114666 net.cpp:151] Top shape: 256 4096 (1048576)
I0131 01:37:55.696156 114666 net.cpp:159] Memory required for data: 2124509184
I0131 01:37:55.696163 114666 layer_factory.hpp:77] Creating layer relu7
I0131 01:37:55.696168 114666 net.cpp:94] Creating Layer relu7
I0131 01:37:55.696171 114666 net.cpp:435] relu7 <- scale7
I0131 01:37:55.696174 114666 net.cpp:409] relu7 -> relu7
I0131 01:37:55.696192 114666 net.cpp:144] Setting up relu7
I0131 01:37:55.696195 114666 net.cpp:151] Top shape: 256 4096 (1048576)
I0131 01:37:55.696198 114666 net.cpp:159] Memory required for data: 2128703488
I0131 01:37:55.696202 114666 layer_factory.hpp:77] Creating layer drop7
I0131 01:37:55.696205 114666 net.cpp:94] Creating Layer drop7
I0131 01:37:55.696208 114666 net.cpp:435] drop7 <- relu7
I0131 01:37:55.696213 114666 net.cpp:409] drop7 -> drop7
I0131 01:37:55.696233 114666 net.cpp:144] Setting up drop7
I0131 01:37:55.696238 114666 net.cpp:151] Top shape: 256 4096 (1048576)
I0131 01:37:55.696240 114666 net.cpp:159] Memory required for data: 2132897792
I0131 01:37:55.696243 114666 layer_factory.hpp:77] Creating layer fc8
I0131 01:37:55.696249 114666 net.cpp:94] Creating Layer fc8
I0131 01:37:55.696250 114666 net.cpp:435] fc8 <- drop7
I0131 01:37:55.696254 114666 net.cpp:409] fc8 -> fc8
I0131 01:37:55.697141 114666 net.cpp:144] Setting up fc8
I0131 01:37:55.697152 114666 net.cpp:151] Top shape: 256 2 (512)
I0131 01:37:55.697155 114666 net.cpp:159] Memory required for data: 2132899840
I0131 01:37:55.697162 114666 layer_factory.hpp:77] Creating layer loss
I0131 01:37:55.697170 114666 net.cpp:94] Creating Layer loss
I0131 01:37:55.697175 114666 net.cpp:435] loss <- fc8
I0131 01:37:55.697180 114666 net.cpp:435] loss <- label
I0131 01:37:55.697183 114666 net.cpp:409] loss -> loss
I0131 01:37:55.697190 114666 layer_factory.hpp:77] Creating layer loss
…
I0131 01:37:55.697667 114666 solver.cpp:189] Creating test net (#0) specified by net file: cats-vs-dogs/deephi/alexnetBNnoLRN/pruning/regular_rate_0.7/net_finetune.prototxt
I0131 01:37:55.697695 114666 net.cpp:323] The NetState phase (1) differed from the phase (0) specified by a rule in layer data
I0131 01:37:55.697857 114666 net.cpp:52] Initializing net from parameters: 
state {
  phase: TEST
}
layer {
  name: "data"
  type: "Data"
  top: "data"
  top: "label"
  include {
    phase: TEST
  }
  transform_param {
    mirror: false
    crop_size: 227
    mean_value: 106
    mean_value: 116
    mean_value: 124
  }
  data_param {
    source: "cats-vs-dogs/input/lmdb/valid_lmdb"
    batch_size: 50
    backend: LMDB
  }
}
layer {
  name: "conv1"
  type: "Convolution"
  bottom: "data"
  top: "conv1"
  param {
    lr_mult: 1
    decay_mult: 1
    compression: PRUNE
  }
  param {
    lr_mult: 2
    decay_mult: 0
    compression: PRUNE
  }
  convolution_param {
    num_output: 96
    pad: 1
    kernel_size: 11
    stride: 4
    weight_filler {
      type: "gaussian"
      std: 0.01
    }
    bias_filler {
      type: "constant"
      value: 0
    }
  }
}
layer {
  name: "bn1"
  type: "BatchNorm"
  bottom: "conv1"
  top: "scale1"
  param {
    lr_mult: 1
    decay_mult: 0
    compression: PRUNE
  }
  param {
    lr_mult: 1
    decay_mult: 0
    compression: PRUNE
  }
  param {
    lr_mult: 0
    decay_mult: 0
    compression: PRUNE
  }
  param {
    lr_mult: 0
    decay_mult: 0
    compression: PRUNE
  }
  batch_norm_param {
    use_global_stats: false
    scale_filler {
      type: "constant"
      value: 1
    }
    bias_filler {
      type: "constant"
      value: 0
    }
  }
}
layer {
  name: "relu1"
  type: "ReLU"
  bottom: "scale1"
  top: "relu1"
}
layer {
  name: "pool1"
  type: "Pooling"
  bottom: "relu1"
  top: "pool1"
  pooling_param {
    pool: MAX
    kernel_size: 3
    stride: 2
  }
}
layer {
  name: "conv2"
  type: "Convolution"
  bottom: "pool1"
  top: "conv2"
  param {
    lr_mult: 1
    decay_mult: 1
    compression: PRUNE
  }
  param {
    lr_mult: 2
    decay_mult: 0
    compression: PRUNE
  }
  convolution_param {
    num_output: 256
    pad: 2
    kernel_size: 5
    group: 1
    weight_filler {
      type: "gaussian"
      std: 0.01
    }
    bias_filler {
      type: "constant"
      value: 1
    }
  }
}
layer {
  name: "bn2"
  type: "BatchNorm"
  bottom: "conv2"
  top: "scale2"
  param {
    lr_mult: 1
    decay_mult: 0
    compression: PRUNE
  }
  param {
    lr_mult: 1
    decay_mult: 0
    compression: PRUNE
  }
  param {
    lr_mult: 0
    decay_mult: 0
    compression: PRUNE
  }
  param {
    lr_mult: 0
    decay_mult: 0
    compression: PRUNE
  }
  batch_norm_param {
    use_global_stats: false
    scale_filler {
      type: "constant"
      value: 1
    }
    bias_filler {
      type: "constant"
      value: 0
    }
  }
}
layer {
  name: "relu2"
  type: "ReLU"
  bottom: "scale2"
  top: "relu2"
}
layer {
  name: "pool2"
  type: "Pooling"
  bottom: "relu2"
  top: "pool2"
  pooling_param {
    pool: MAX
    kernel_size: 3
    stride: 2
  }
}
layer {
  name: "conv3"
  type: "Convolution"
  bottom: "pool2"
  top: "conv3"
  param {
    lr_mult: 1
    decay_mult: 1
    compression: PRUNE
  }
  param {
    lr_mult: 2
    decay_mult: 0
    compression: PRUNE
  }
  convolution_param {
    num_output: 384
    pad: 1
    kernel_size: 3
    weight_filler {
      type: "gaussian"
      std: 0.01
    }
    bias_filler {
      type: "constant"
      value: 0
    }
  }
}
layer {
  name: "relu3"
  type: "ReLU"
  bottom: "conv3"
  top: "relu3"
}
layer {
  name: "conv4"
  type: "Convolution"
  bottom: "relu3"
  top: "conv4"
  param {
    lr_mult: 1
    decay_mult: 1
    compression: PRUNE
  }
  param {
    lr_mult: 2
    decay_mult: 0
    compression: PRUNE
  }
  convolution_param {
    num_output: 384
    pad: 1
    kernel_size: 3
    group: 1
    weight_filler {
      type: "gaussian"
      std: 0.01
    }
    bias_filler {
      type: "constant"
      value: 1
    }
  }
}
layer {
  name: "relu4"
  type: "ReLU"
  bottom: "conv4"
  top: "relu4"
}
layer {
  name: "conv5"
  type: "Convolution"
  bottom: "relu4"
  top: "conv5"
  param {
    lr_mult: 1
    decay_mult: 1
    compression: PRUNE
  }
  param {
    lr_mult: 2
    decay_mult: 0
    compression: PRUNE
  }
  convolution_param {
    num_output: 256
    pad: 1
    kernel_size: 3
    group: 1
    weight_filler {
      type: "gaussian"
      std: 0.01
    }
    bias_filler {
      type: "constant"
      value: 1
    }
  }
}
layer {
  name: "relu5"
  type: "ReLU"
  bottom: "conv5"
  top: "relu5"
}
layer {
  name: "pool5"
  type: "Pooling"
  bottom: "relu5"
  top: "pool5"
  pooling_param {
    pool: MAX
    kernel_size: 3
    stride: 2
  }
}
layer {
  name: "fc6"
  type: "InnerProduct"
  bottom: "pool5"
  top: "fc6"
  param {
    lr_mult: 1
    decay_mult: 1
  }
  param {
    lr_mult: 2
    decay_mult: 0
  }
  inner_product_param {
    num_output: 4096
    weight_filler {
      type: "gaussian"
      std: 0.005
    }
    bias_filler {
      type: "constant"
      value: 1
    }
  }
}
layer {
  name: "relu6"
  type: "ReLU"
  bottom: "fc6"
  top: "relu6"
}
layer {
  name: "drop6"
  type: "Dropout"
  bottom: "relu6"
  top: "drop6"
  dropout_param {
    dropout_ratio: 0.5
  }
}
layer {
  name: "fc7"
  type: "InnerProduct"
  bottom: "drop6"
  top: "fc7"
  param {
    lr_mult: 1
    decay_mult: 1
  }
  param {
    lr_mult: 2
    decay_mult: 0
  }
  inner_product_param {
    num_output: 4096
    weight_filler {
      type: "gaussian"
      std: 0.005
    }
    bias_filler {
      type: "constant"
      value: 1
    }
  }
}
layer {
  name: "bn7"
  type: "BatchNorm"
  bottom: "fc7"
  top: "scale7"
  param {
    lr_mult: 1
    decay_mult: 0
    compression: PRUNE
  }
  param {
    lr_mult: 1
    decay_mult: 0
    compression: PRUNE
  }
  param {
    lr_mult: 0
    decay_mult: 0
    compression: PRUNE
  }
  param {
    lr_mult: 0
    decay_mult: 0
    compression: PRUNE
  }
  batch_norm_param {
    use_global_stats: false
    scale_filler {
      type: "constant"
      value: 1
    }
    bias_filler {
      type: "constant"
      value: 0
    }
  }
}
layer {
  name: "relu7"
  type: "ReLU"
  bottom: "scale7"
  top: "relu7"
}
layer {
  name: "drop7"
  type: "Dropout"
  bottom: "relu7"
  top: "drop7"
  dropout_param {
    dropout_ratio: 0.5
  }
}
layer {
  name: "fc8"
  type: "InnerProduct"
  bottom: "drop7"
  top: "fc8"
  param {
    lr_mult: 1
    decay_mult: 1
  }
  param {
    lr_mult: 2
    decay_mult: 0
  }
  inner_product_param {
    num_output: 2
    weight_filler {
      type: "gaussian"
      std: 0.01
    }
    bias_filler {
      type: "constant"
      value: 0
    }
  }
}
layer {
  name: "loss"
  type: "SoftmaxWithLoss"
  bottom: "fc8"
  bottom: "label"
  top: "loss"
}
layer {
  name: "accuracy-top1"
  type: "Accuracy"
  bottom: "fc8"
  bottom: "label"
  top: "top-1"
  include {
    phase: TEST
  }
}
I0131 01:37:55.697962 114666 layer_factory.hpp:77] Creating layer data
I0131 01:37:55.698006 114666 internal_thread.cpp:27] Starting internal thread(s) on GPU 0
I0131 01:37:55.698913 114666 net.cpp:94] Creating Layer data
I0131 01:37:55.698925 114666 net.cpp:409] data -> data
I0131 01:37:55.698935 114666 net.cpp:409] data -> label
I0131 01:37:55.700183   352 db_lmdb.cpp:35] Opened lmdb cats-vs-dogs/input/lmdb/valid_lmdb
I0131 01:37:55.700218   352 data_reader.cpp:117] TEST: reading data using 1 channel(s)
I0131 01:37:55.700481 114666 data_layer.cpp:78] ReshapePrefetch 50, 3, 227, 227
I0131 01:37:55.700553 114666 data_layer.cpp:83] output data size: 50,3,227,227
I0131 01:37:55.797091 114666 internal_thread.cpp:27] Starting internal thread(s) on GPU 0
I0131 01:37:55.797147 114666 net.cpp:144] Setting up data
I0131 01:37:55.797155 114666 net.cpp:151] Top shape: 50 3 227 227 (7729350)
I0131 01:37:55.797158 114666 net.cpp:151] Top shape: 50 (50)
I0131 01:37:55.797176 114666 net.cpp:159] Memory required for data: 30917600
I0131 01:37:55.797180 114666 layer_factory.hpp:77] Creating layer label_data_1_split
I0131 01:37:55.797189 114666 net.cpp:94] Creating Layer label_data_1_split
I0131 01:37:55.797192 114666 net.cpp:435] label_data_1_split <- label
I0131 01:37:55.797199 114666 net.cpp:409] label_data_1_split -> label_data_1_split_0
I0131 01:37:55.797206 114666 net.cpp:409] label_data_1_split -> label_data_1_split_1
I0131 01:37:55.797276 114666 net.cpp:144] Setting up label_data_1_split
I0131 01:37:55.797281 114666 net.cpp:151] Top shape: 50 (50)
I0131 01:37:55.797282 114666 net.cpp:151] Top shape: 50 (50)
I0131 01:37:55.797284 114666 net.cpp:159] Memory required for data: 30918000
I0131 01:37:55.797287 114666 layer_factory.hpp:77] Creating layer conv1
I0131 01:37:55.797297 114666 net.cpp:94] Creating Layer conv1
I0131 01:37:55.797299 114666 net.cpp:435] conv1 <- data
I0131 01:37:55.797303 114666 net.cpp:409] conv1 -> conv1
I0131 01:37:55.797909 114666 net.cpp:144] Setting up conv1
I0131 01:37:55.797915 114666 net.cpp:151] Top shape: 50 96 55 55 (14520000)
I0131 01:37:55.797917 114666 net.cpp:159] Memory required for data: 88998000
I0131 01:37:55.797926 114666 layer_factory.hpp:77] Creating layer bn1
I0131 01:37:55.797933 114666 net.cpp:94] Creating Layer bn1
I0131 01:37:55.797935 114666 net.cpp:435] bn1 <- conv1
I0131 01:37:55.797940 114666 net.cpp:409] bn1 -> scale1
I0131 01:37:55.799818 114666 net.cpp:144] Setting up bn1
I0131 01:37:55.799824 114666 net.cpp:151] Top shape: 50 96 55 55 (14520000)
I0131 01:37:55.799826 114666 net.cpp:159] Memory required for data: 147078000
I0131 01:37:55.799835 114666 layer_factory.hpp:77] Creating layer relu1
I0131 01:37:55.799855 114666 net.cpp:94] Creating Layer relu1
I0131 01:37:55.799859 114666 net.cpp:435] relu1 <- scale1
I0131 01:37:55.799862 114666 net.cpp:409] relu1 -> relu1
I0131 01:37:55.800117 114666 net.cpp:144] Setting up relu1
I0131 01:37:55.800122 114666 net.cpp:151] Top shape: 50 96 55 55 (14520000)
I0131 01:37:55.800125 114666 net.cpp:159] Memory required for data: 205158000
I0131 01:37:55.800127 114666 layer_factory.hpp:77] Creating layer pool1
I0131 01:37:55.800132 114666 net.cpp:94] Creating Layer pool1
I0131 01:37:55.800134 114666 net.cpp:435] pool1 <- relu1
I0131 01:37:55.800138 114666 net.cpp:409] pool1 -> pool1
I0131 01:37:55.800179 114666 net.cpp:144] Setting up pool1
I0131 01:37:55.800182 114666 net.cpp:151] Top shape: 50 96 27 27 (3499200)
I0131 01:37:55.800185 114666 net.cpp:159] Memory required for data: 219154800
I0131 01:37:55.800187 114666 layer_factory.hpp:77] Creating layer conv2
I0131 01:37:55.800194 114666 net.cpp:94] Creating Layer conv2
I0131 01:37:55.800196 114666 net.cpp:435] conv2 <- pool1
I0131 01:37:55.800218 114666 net.cpp:409] conv2 -> conv2
I0131 01:37:55.806849 114666 net.cpp:144] Setting up conv2
I0131 01:37:55.806869 114666 net.cpp:151] Top shape: 50 256 27 27 (9331200)
I0131 01:37:55.806872 114666 net.cpp:159] Memory required for data: 256479600
I0131 01:37:55.806883 114666 layer_factory.hpp:77] Creating layer bn2
I0131 01:37:55.806895 114666 net.cpp:94] Creating Layer bn2
I0131 01:37:55.806898 114666 net.cpp:435] bn2 <- conv2
I0131 01:37:55.806905 114666 net.cpp:409] bn2 -> scale2
I0131 01:37:55.807539 114666 net.cpp:144] Setting up bn2
I0131 01:37:55.807549 114666 net.cpp:151] Top shape: 50 256 27 27 (9331200)
I0131 01:37:55.807554 114666 net.cpp:159] Memory required for data: 293804400
I0131 01:37:55.807565 114666 layer_factory.hpp:77] Creating layer relu2
I0131 01:37:55.807575 114666 net.cpp:94] Creating Layer relu2
I0131 01:37:55.807580 114666 net.cpp:435] relu2 <- scale2
I0131 01:37:55.807586 114666 net.cpp:409] relu2 -> relu2
I0131 01:37:55.807615 114666 net.cpp:144] Setting up relu2
I0131 01:37:55.807621 114666 net.cpp:151] Top shape: 50 256 27 27 (9331200)
I0131 01:37:55.807626 114666 net.cpp:159] Memory required for data: 331129200
I0131 01:37:55.807631 114666 layer_factory.hpp:77] Creating layer pool2
I0131 01:37:55.807639 114666 net.cpp:94] Creating Layer pool2
I0131 01:37:55.807643 114666 net.cpp:435] pool2 <- relu2
I0131 01:37:55.807651 114666 net.cpp:409] pool2 -> pool2
I0131 01:37:55.807693 114666 net.cpp:144] Setting up pool2
I0131 01:37:55.807699 114666 net.cpp:151] Top shape: 50 256 13 13 (2163200)
I0131 01:37:55.807703 114666 net.cpp:159] Memory required for data: 339782000
I0131 01:37:55.807708 114666 layer_factory.hpp:77] Creating layer conv3
I0131 01:37:55.807721 114666 net.cpp:94] Creating Layer conv3
I0131 01:37:55.807726 114666 net.cpp:435] conv3 <- pool2
I0131 01:37:55.807734 114666 net.cpp:409] conv3 -> conv3
I0131 01:37:55.832695 114666 net.cpp:144] Setting up conv3
I0131 01:37:55.832726 114666 net.cpp:151] Top shape: 50 384 13 13 (3244800)
I0131 01:37:55.832731 114666 net.cpp:159] Memory required for data: 352761200
I0131 01:37:55.832744 114666 layer_factory.hpp:77] Creating layer relu3
I0131 01:37:55.832756 114666 net.cpp:94] Creating Layer relu3
I0131 01:37:55.832764 114666 net.cpp:435] relu3 <- conv3
I0131 01:37:55.832773 114666 net.cpp:409] relu3 -> relu3
I0131 01:37:55.832813 114666 net.cpp:144] Setting up relu3
I0131 01:37:55.832823 114666 net.cpp:151] Top shape: 50 384 13 13 (3244800)
I0131 01:37:55.832828 114666 net.cpp:159] Memory required for data: 365740400
I0131 01:37:55.832831 114666 layer_factory.hpp:77] Creating layer conv4
I0131 01:37:55.832845 114666 net.cpp:94] Creating Layer conv4
I0131 01:37:55.832851 114666 net.cpp:435] conv4 <- relu3
I0131 01:37:55.832859 114666 net.cpp:409] conv4 -> conv4
I0131 01:37:55.850958 114666 net.cpp:144] Setting up conv4
I0131 01:37:55.850989 114666 net.cpp:151] Top shape: 50 384 13 13 (3244800)
I0131 01:37:55.850996 114666 net.cpp:159] Memory required for data: 378719600
I0131 01:37:55.851012 114666 layer_factory.hpp:77] Creating layer relu4
I0131 01:37:55.851023 114666 net.cpp:94] Creating Layer relu4
I0131 01:37:55.851030 114666 net.cpp:435] relu4 <- conv4
I0131 01:37:55.851039 114666 net.cpp:409] relu4 -> relu4
I0131 01:37:55.851080 114666 net.cpp:144] Setting up relu4
I0131 01:37:55.851089 114666 net.cpp:151] Top shape: 50 384 13 13 (3244800)
I0131 01:37:55.851092 114666 net.cpp:159] Memory required for data: 391698800
I0131 01:37:55.851097 114666 layer_factory.hpp:77] Creating layer conv5
I0131 01:37:55.851110 114666 net.cpp:94] Creating Layer conv5
I0131 01:37:55.851117 114666 net.cpp:435] conv5 <- relu4
I0131 01:37:55.851125 114666 net.cpp:409] conv5 -> conv5
I0131 01:37:55.863730 114666 net.cpp:144] Setting up conv5
I0131 01:37:55.863754 114666 net.cpp:151] Top shape: 50 256 13 13 (2163200)
I0131 01:37:55.863756 114666 net.cpp:159] Memory required for data: 400351600
I0131 01:37:55.863764 114666 layer_factory.hpp:77] Creating layer relu5
I0131 01:37:55.863771 114666 net.cpp:94] Creating Layer relu5
I0131 01:37:55.863797 114666 net.cpp:435] relu5 <- conv5
I0131 01:37:55.863803 114666 net.cpp:409] relu5 -> relu5
I0131 01:37:55.863829 114666 net.cpp:144] Setting up relu5
I0131 01:37:55.863833 114666 net.cpp:151] Top shape: 50 256 13 13 (2163200)
I0131 01:37:55.863835 114666 net.cpp:159] Memory required for data: 409004400
I0131 01:37:55.863838 114666 layer_factory.hpp:77] Creating layer pool5
I0131 01:37:55.863844 114666 net.cpp:94] Creating Layer pool5
I0131 01:37:55.863847 114666 net.cpp:435] pool5 <- relu5
I0131 01:37:55.863852 114666 net.cpp:409] pool5 -> pool5
I0131 01:37:55.863878 114666 net.cpp:144] Setting up pool5
I0131 01:37:55.863883 114666 net.cpp:151] Top shape: 50 256 6 6 (460800)
I0131 01:37:55.863885 114666 net.cpp:159] Memory required for data: 410847600
I0131 01:37:55.863888 114666 layer_factory.hpp:77] Creating layer fc6
I0131 01:37:55.863893 114666 net.cpp:94] Creating Layer fc6
I0131 01:37:55.863895 114666 net.cpp:435] fc6 <- pool5
I0131 01:37:55.863900 114666 net.cpp:409] fc6 -> fc6
I0131 01:37:56.189721 114666 net.cpp:144] Setting up fc6
I0131 01:37:56.189748 114666 net.cpp:151] Top shape: 50 4096 (204800)
I0131 01:37:56.189750 114666 net.cpp:159] Memory required for data: 411666800
I0131 01:37:56.189759 114666 layer_factory.hpp:77] Creating layer relu6
I0131 01:37:56.189765 114666 net.cpp:94] Creating Layer relu6
I0131 01:37:56.189769 114666 net.cpp:435] relu6 <- fc6
I0131 01:37:56.189774 114666 net.cpp:409] relu6 -> relu6
I0131 01:37:56.189818 114666 net.cpp:144] Setting up relu6
I0131 01:37:56.189822 114666 net.cpp:151] Top shape: 50 4096 (204800)
I0131 01:37:56.189824 114666 net.cpp:159] Memory required for data: 412486000
I0131 01:37:56.189827 114666 layer_factory.hpp:77] Creating layer drop6
I0131 01:37:56.189834 114666 net.cpp:94] Creating Layer drop6
I0131 01:37:56.189836 114666 net.cpp:435] drop6 <- relu6
I0131 01:37:56.189841 114666 net.cpp:409] drop6 -> drop6
I0131 01:37:56.189872 114666 net.cpp:144] Setting up drop6
I0131 01:37:56.189877 114666 net.cpp:151] Top shape: 50 4096 (204800)
I0131 01:37:56.189880 114666 net.cpp:159] Memory required for data: 413305200
I0131 01:37:56.189882 114666 layer_factory.hpp:77] Creating layer fc7
I0131 01:37:56.189888 114666 net.cpp:94] Creating Layer fc7
I0131 01:37:56.189893 114666 net.cpp:435] fc7 <- drop6
I0131 01:37:56.189898 114666 net.cpp:409] fc7 -> fc7
I0131 01:37:56.345914 114666 net.cpp:144] Setting up fc7
I0131 01:37:56.345947 114666 net.cpp:151] Top shape: 50 4096 (204800)
I0131 01:37:56.345953 114666 net.cpp:159] Memory required for data: 414124400
I0131 01:37:56.345966 114666 layer_factory.hpp:77] Creating layer bn7
I0131 01:37:56.345981 114666 net.cpp:94] Creating Layer bn7
I0131 01:37:56.345988 114666 net.cpp:435] bn7 <- fc7
I0131 01:37:56.346000 114666 net.cpp:409] bn7 -> scale7
I0131 01:37:56.346863 114666 net.cpp:144] Setting up bn7
I0131 01:37:56.346873 114666 net.cpp:151] Top shape: 50 4096 (204800)
I0131 01:37:56.346875 114666 net.cpp:159] Memory required for data: 414943600
I0131 01:37:56.346889 114666 layer_factory.hpp:77] Creating layer relu7
I0131 01:37:56.346894 114666 net.cpp:94] Creating Layer relu7
I0131 01:37:56.346899 114666 net.cpp:435] relu7 <- scale7
I0131 01:37:56.346904 114666 net.cpp:409] relu7 -> relu7
I0131 01:37:56.346931 114666 net.cpp:144] Setting up relu7
I0131 01:37:56.346938 114666 net.cpp:151] Top shape: 50 4096 (204800)
I0131 01:37:56.346941 114666 net.cpp:159] Memory required for data: 415762800
I0131 01:37:56.346945 114666 layer_factory.hpp:77] Creating layer drop7
I0131 01:37:56.346951 114666 net.cpp:94] Creating Layer drop7
I0131 01:37:56.346956 114666 net.cpp:435] drop7 <- relu7
I0131 01:37:56.346961 114666 net.cpp:409] drop7 -> drop7
I0131 01:37:56.346998 114666 net.cpp:144] Setting up drop7
I0131 01:37:56.347005 114666 net.cpp:151] Top shape: 50 4096 (204800)
I0131 01:37:56.347008 114666 net.cpp:159] Memory required for data: 416582000
I0131 01:37:56.347012 114666 layer_factory.hpp:77] Creating layer fc8
I0131 01:37:56.347020 114666 net.cpp:94] Creating Layer fc8
I0131 01:37:56.347048 114666 net.cpp:435] fc8 <- drop7
I0131 01:37:56.347055 114666 net.cpp:409] fc8 -> fc8
I0131 01:37:56.347296 114666 net.cpp:144] Setting up fc8
I0131 01:37:56.347303 114666 net.cpp:151] Top shape: 50 2 (100)
I0131 01:37:56.347307 114666 net.cpp:159] Memory required for data: 416582400
I0131 01:37:56.347313 114666 layer_factory.hpp:77] Creating layer fc8_fc8_0_split
I0131 01:37:56.347319 114666 net.cpp:94] Creating Layer fc8_fc8_0_split
I0131 01:37:56.347323 114666 net.cpp:435] fc8_fc8_0_split <- fc8
I0131 01:37:56.347331 114666 net.cpp:409] fc8_fc8_0_split -> fc8_fc8_0_split_0
I0131 01:37:56.347337 114666 net.cpp:409] fc8_fc8_0_split -> fc8_fc8_0_split_1
I0131 01:37:56.347374 114666 net.cpp:144] Setting up fc8_fc8_0_split
I0131 01:37:56.347380 114666 net.cpp:151] Top shape: 50 2 (100)
I0131 01:37:56.347385 114666 net.cpp:151] Top shape: 50 2 (100)
I0131 01:37:56.347388 114666 net.cpp:159] Memory required for data: 416583200
I0131 01:37:56.347391 114666 layer_factory.hpp:77] Creating layer loss
I0131 01:37:56.347398 114666 net.cpp:94] Creating Layer loss
I0131 01:37:56.347402 114666 net.cpp:435] loss <- fc8_fc8_0_split_0
I0131 01:37:56.347407 114666 net.cpp:435] loss <- label_data_1_split_0
I0131 01:37:56.347414 114666 net.cpp:409] loss -> loss
…
