…
I0130 15:50:27.876296 101347 caffe_interface.cpp:70] GPU device name: Quadro P6000
I0130 15:50:27.876612 101347 net.cpp:323] The NetState phase (1) differed from the phase (0) specified by a rule in layer data
I0130 15:50:27.876777 101347 net.cpp:52] Initializing net from parameters: 
state {
  phase: TEST
}
layer {
  name: "data"
  type: "Data"
  top: "data"
  top: "label"
  include {
    phase: TEST
  }
  transform_param {
    mirror: false
    crop_size: 227
    mean_value: 106
    mean_value: 116
    mean_value: 124
  }
  data_param {
    source: "cats-vs-dogs/input/lmdb/valid_lmdb"
    batch_size: 50
    backend: LMDB
  }
}
layer {
  name: "conv1"
  type: "Convolution"
  bottom: "data"
  top: "conv1"
  param {
    lr_mult: 1
    decay_mult: 1
  }
  param {
    lr_mult: 2
    decay_mult: 0
  }
  convolution_param {
    num_output: 96
    pad: 1
    kernel_size: 11
    stride: 4
    weight_filler {
      type: "gaussian"
      std: 0.01
    }
    bias_filler {
      type: "constant"
      value: 0
    }
  }
}
layer {
  name: "bn1"
  type: "BatchNorm"
  bottom: "conv1"
  top: "scale1"
  param {
    lr_mult: 1
    decay_mult: 0
  }
  param {
    lr_mult: 1
    decay_mult: 0
  }
  param {
    lr_mult: 0
    decay_mult: 0
  }
  param {
    lr_mult: 0
    decay_mult: 0
  }
  batch_norm_param {
    use_global_stats: false
    scale_filler {
      type: "constant"
      value: 1
    }
    bias_filler {
      type: "constant"
      value: 0
    }
  }
}
layer {
  name: "relu1"
  type: "ReLU"
  bottom: "scale1"
  top: "relu1"
}
layer {
  name: "pool1"
  type: "Pooling"
  bottom: "relu1"
  top: "pool1"
  pooling_param {
    pool: MAX
    kernel_size: 3
    stride: 2
  }
}
layer {
  name: "conv2"
  type: "Convolution"
  bottom: "pool1"
  top: "conv2"
  param {
    lr_mult: 1
    decay_mult: 1
  }
  param {
    lr_mult: 2
    decay_mult: 0
  }
  convolution_param {
    num_output: 256
    pad: 2
    kernel_size: 5
    group: 1
    weight_filler {
      type: "gaussian"
      std: 0.01
    }
    bias_filler {
      type: "constant"
      value: 1
    }
  }
}
layer {
  name: "bn2"
  type: "BatchNorm"
  bottom: "conv2"
  top: "scale2"
  param {
    lr_mult: 1
    decay_mult: 0
  }
  param {
    lr_mult: 1
    decay_mult: 0
  }
  param {
    lr_mult: 0
    decay_mult: 0
  }
  param {
    lr_mult: 0
    decay_mult: 0
  }
  batch_norm_param {
    use_global_stats: false
    scale_filler {
      type: "constant"
      value: 1
    }
    bias_filler {
      type: "constant"
      value: 0
    }
  }
}
layer {
  name: "relu2"
  type: "ReLU"
  bottom: "scale2"
  top: "relu2"
}
layer {
  name: "pool2"
  type: "Pooling"
  bottom: "relu2"
  top: "pool2"
  pooling_param {
    pool: MAX
    kernel_size: 3
    stride: 2
  }
}
layer {
  name: "conv3"
  type: "Convolution"
  bottom: "pool2"
  top: "conv3"
  param {
    lr_mult: 1
    decay_mult: 1
  }
  param {
    lr_mult: 2
    decay_mult: 0
  }
  convolution_param {
    num_output: 384
    pad: 1
    kernel_size: 3
    weight_filler {
      type: "gaussian"
      std: 0.01
    }
    bias_filler {
      type: "constant"
      value: 0
    }
  }
}
layer {
  name: "relu3"
  type: "ReLU"
  bottom: "conv3"
  top: "relu3"
}
layer {
  name: "conv4"
  type: "Convolution"
  bottom: "relu3"
  top: "conv4"
  param {
    lr_mult: 1
    decay_mult: 1
  }
  param {
    lr_mult: 2
    decay_mult: 0
  }
  convolution_param {
    num_output: 384
    pad: 1
    kernel_size: 3
    group: 1
    weight_filler {
      type: "gaussian"
      std: 0.01
    }
    bias_filler {
      type: "constant"
      value: 1
    }
  }
}
layer {
  name: "relu4"
  type: "ReLU"
  bottom: "conv4"
  top: "relu4"
}
layer {
  name: "conv5"
  type: "Convolution"
  bottom: "relu4"
  top: "conv5"
  param {
    lr_mult: 1
    decay_mult: 1
  }
  param {
    lr_mult: 2
    decay_mult: 0
  }
  convolution_param {
    num_output: 256
    pad: 1
    kernel_size: 3
    group: 1
    weight_filler {
      type: "gaussian"
      std: 0.01
    }
    bias_filler {
      type: "constant"
      value: 1
    }
  }
}
layer {
  name: "relu5"
  type: "ReLU"
  bottom: "conv5"
  top: "relu5"
}
layer {
  name: "pool5"
  type: "Pooling"
  bottom: "relu5"
  top: "pool5"
  pooling_param {
    pool: MAX
    kernel_size: 3
    stride: 2
  }
}
layer {
  name: "fc6"
  type: "InnerProduct"
  bottom: "pool5"
  top: "fc6"
  param {
    lr_mult: 1
    decay_mult: 1
  }
  param {
    lr_mult: 2
    decay_mult: 0
  }
  inner_product_param {
    num_output: 4096
    weight_filler {
      type: "gaussian"
      std: 0.005
    }
    bias_filler {
      type: "constant"
      value: 1
    }
  }
}
layer {
  name: "relu6"
  type: "ReLU"
  bottom: "fc6"
  top: "relu6"
}
layer {
  name: "drop6"
  type: "Dropout"
  bottom: "relu6"
  top: "drop6"
  dropout_param {
    dropout_ratio: 0.5
  }
}
layer {
  name: "fc7"
  type: "InnerProduct"
  bottom: "drop6"
  top: "fc7"
  param {
    lr_mult: 1
    decay_mult: 1
  }
  param {
    lr_mult: 2
    decay_mult: 0
  }
  inner_product_param {
    num_output: 4096
    weight_filler {
      type: "gaussian"
      std: 0.005
    }
    bias_filler {
      type: "constant"
      value: 1
    }
  }
}
layer {
  name: "bn7"
  type: "BatchNorm"
  bottom: "fc7"
  top: "scale7"
  param {
    lr_mult: 1
    decay_mult: 0
  }
  param {
    lr_mult: 1
    decay_mult: 0
  }
  param {
    lr_mult: 0
    decay_mult: 0
  }
  param {
    lr_mult: 0
    decay_mult: 0
  }
  batch_norm_param {
    use_global_stats: false
    scale_filler {
      type: "constant"
      value: 1
    }
    bias_filler {
      type: "constant"
      value: 0
    }
  }
}
layer {
  name: "relu7"
  type: "ReLU"
  bottom: "scale7"
  top: "relu7"
}
layer {
  name: "drop7"
  type: "Dropout"
  bottom: "relu7"
  top: "drop7"
  dropout_param {
    dropout_ratio: 0.5
  }
}
layer {
  name: "fc8"
  type: "InnerProduct"
  bottom: "drop7"
  top: "fc8"
  param {
    lr_mult: 1
    decay_mult: 1
  }
  param {
    lr_mult: 2
    decay_mult: 0
  }
  inner_product_param {
    num_output: 2
    weight_filler {
      type: "gaussian"
      std: 0.01
    }
    bias_filler {
      type: "constant"
      value: 0
    }
  }
}
layer {
  name: "loss"
  type: "SoftmaxWithLoss"
  bottom: "fc8"
  bottom: "label"
  top: "loss"
}
layer {
  name: "accuracy-top1"
  type: "Accuracy"
  bottom: "fc8"
  bottom: "label"
  top: "top-1"
  include {
    phase: TEST
  }
}
I0130 15:50:27.876873 101347 layer_factory.hpp:77] Creating layer data
I0130 15:50:27.876906 101347 internal_thread.cpp:27] Starting internal thread(s) on GPU 0
I0130 15:50:27.877213 101347 net.cpp:94] Creating Layer data
I0130 15:50:27.877218 101347 net.cpp:409] data -> data
I0130 15:50:27.877225 101347 net.cpp:409] data -> label
I0130 15:50:27.878811 101476 db_lmdb.cpp:35] Opened lmdb cats-vs-dogs/input/lmdb/valid_lmdb
I0130 15:50:27.878844 101476 data_reader.cpp:117] TEST: reading data using 1 channel(s)
I0130 15:50:27.878973 101347 data_layer.cpp:78] ReshapePrefetch 50, 3, 227, 227
I0130 15:50:27.879055 101347 data_layer.cpp:83] output data size: 50,3,227,227
I0130 15:50:27.957108 101347 internal_thread.cpp:27] Starting internal thread(s) on GPU 0
I0130 15:50:27.957166 101347 net.cpp:144] Setting up data
I0130 15:50:27.957175 101347 net.cpp:151] Top shape: 50 3 227 227 (7729350)
I0130 15:50:27.957195 101347 net.cpp:151] Top shape: 50 (50)
I0130 15:50:27.957196 101347 net.cpp:159] Memory required for data: 30917600
I0130 15:50:27.957201 101347 layer_factory.hpp:77] Creating layer label_data_1_split
I0130 15:50:27.957209 101347 net.cpp:94] Creating Layer label_data_1_split
I0130 15:50:27.957212 101347 net.cpp:435] label_data_1_split <- label
I0130 15:50:27.957219 101347 net.cpp:409] label_data_1_split -> label_data_1_split_0
I0130 15:50:27.957226 101347 net.cpp:409] label_data_1_split -> label_data_1_split_1
I0130 15:50:27.957271 101347 net.cpp:144] Setting up label_data_1_split
I0130 15:50:27.957275 101347 net.cpp:151] Top shape: 50 (50)
I0130 15:50:27.957278 101347 net.cpp:151] Top shape: 50 (50)
I0130 15:50:27.957280 101347 net.cpp:159] Memory required for data: 30918000
I0130 15:50:27.957298 101347 layer_factory.hpp:77] Creating layer conv1
I0130 15:50:27.957306 101347 net.cpp:94] Creating Layer conv1
I0130 15:50:27.957309 101347 net.cpp:435] conv1 <- data
I0130 15:50:27.957314 101347 net.cpp:409] conv1 -> conv1
I0130 15:50:27.959041 101347 net.cpp:144] Setting up conv1
I0130 15:50:27.959054 101347 net.cpp:151] Top shape: 50 96 55 55 (14520000)
I0130 15:50:27.959056 101347 net.cpp:159] Memory required for data: 88998000
I0130 15:50:27.959067 101347 layer_factory.hpp:77] Creating layer bn1
I0130 15:50:27.959075 101347 net.cpp:94] Creating Layer bn1
I0130 15:50:27.959079 101347 net.cpp:435] bn1 <- conv1
I0130 15:50:27.959082 101347 net.cpp:409] bn1 -> scale1
I0130 15:50:27.959728 101347 net.cpp:144] Setting up bn1
I0130 15:50:27.959735 101347 net.cpp:151] Top shape: 50 96 55 55 (14520000)
I0130 15:50:27.959738 101347 net.cpp:159] Memory required for data: 147078000
I0130 15:50:27.959748 101347 layer_factory.hpp:77] Creating layer relu1
I0130 15:50:27.959753 101347 net.cpp:94] Creating Layer relu1
I0130 15:50:27.959755 101347 net.cpp:435] relu1 <- scale1
I0130 15:50:27.959759 101347 net.cpp:409] relu1 -> relu1
I0130 15:50:27.959789 101347 net.cpp:144] Setting up relu1
I0130 15:50:27.959794 101347 net.cpp:151] Top shape: 50 96 55 55 (14520000)
I0130 15:50:27.959797 101347 net.cpp:159] Memory required for data: 205158000
I0130 15:50:27.959800 101347 layer_factory.hpp:77] Creating layer pool1
I0130 15:50:27.959805 101347 net.cpp:94] Creating Layer pool1
I0130 15:50:27.959808 101347 net.cpp:435] pool1 <- relu1
I0130 15:50:27.959811 101347 net.cpp:409] pool1 -> pool1
I0130 15:50:27.959873 101347 net.cpp:144] Setting up pool1
I0130 15:50:27.959878 101347 net.cpp:151] Top shape: 50 96 27 27 (3499200)
I0130 15:50:27.959882 101347 net.cpp:159] Memory required for data: 219154800
I0130 15:50:27.959883 101347 layer_factory.hpp:77] Creating layer conv2
I0130 15:50:27.959890 101347 net.cpp:94] Creating Layer conv2
I0130 15:50:27.959892 101347 net.cpp:435] conv2 <- pool1
I0130 15:50:27.959897 101347 net.cpp:409] conv2 -> conv2
I0130 15:50:27.966873 101347 net.cpp:144] Setting up conv2
I0130 15:50:27.966892 101347 net.cpp:151] Top shape: 50 256 27 27 (9331200)
I0130 15:50:27.966895 101347 net.cpp:159] Memory required for data: 256479600
I0130 15:50:27.966907 101347 layer_factory.hpp:77] Creating layer bn2
I0130 15:50:27.966917 101347 net.cpp:94] Creating Layer bn2
I0130 15:50:27.966920 101347 net.cpp:435] bn2 <- conv2
I0130 15:50:27.966928 101347 net.cpp:409] bn2 -> scale2
I0130 15:50:27.967628 101347 net.cpp:144] Setting up bn2
I0130 15:50:27.967634 101347 net.cpp:151] Top shape: 50 256 27 27 (9331200)
I0130 15:50:27.967638 101347 net.cpp:159] Memory required for data: 293804400
I0130 15:50:27.967645 101347 layer_factory.hpp:77] Creating layer relu2
I0130 15:50:27.967653 101347 net.cpp:94] Creating Layer relu2
I0130 15:50:27.967655 101347 net.cpp:435] relu2 <- scale2
I0130 15:50:27.967659 101347 net.cpp:409] relu2 -> relu2
I0130 15:50:27.967677 101347 net.cpp:144] Setting up relu2
I0130 15:50:27.967684 101347 net.cpp:151] Top shape: 50 256 27 27 (9331200)
I0130 15:50:27.967686 101347 net.cpp:159] Memory required for data: 331129200
I0130 15:50:27.967689 101347 layer_factory.hpp:77] Creating layer pool2
I0130 15:50:27.967694 101347 net.cpp:94] Creating Layer pool2
I0130 15:50:27.967697 101347 net.cpp:435] pool2 <- relu2
I0130 15:50:27.967702 101347 net.cpp:409] pool2 -> pool2
I0130 15:50:27.967730 101347 net.cpp:144] Setting up pool2
I0130 15:50:27.967734 101347 net.cpp:151] Top shape: 50 256 13 13 (2163200)
I0130 15:50:27.967738 101347 net.cpp:159] Memory required for data: 339782000
I0130 15:50:27.967741 101347 layer_factory.hpp:77] Creating layer conv3
I0130 15:50:27.967749 101347 net.cpp:94] Creating Layer conv3
I0130 15:50:27.967752 101347 net.cpp:435] conv3 <- pool2
I0130 15:50:27.967757 101347 net.cpp:409] conv3 -> conv3
I0130 15:50:27.981184 101347 net.cpp:144] Setting up conv3
I0130 15:50:27.981225 101347 net.cpp:151] Top shape: 50 384 13 13 (3244800)
I0130 15:50:27.981248 101347 net.cpp:159] Memory required for data: 352761200
I0130 15:50:27.981259 101347 layer_factory.hpp:77] Creating layer relu3
I0130 15:50:27.981267 101347 net.cpp:94] Creating Layer relu3
I0130 15:50:27.981271 101347 net.cpp:435] relu3 <- conv3
I0130 15:50:27.981281 101347 net.cpp:409] relu3 -> relu3
I0130 15:50:27.981307 101347 net.cpp:144] Setting up relu3
I0130 15:50:27.981312 101347 net.cpp:151] Top shape: 50 384 13 13 (3244800)
I0130 15:50:27.981313 101347 net.cpp:159] Memory required for data: 365740400
I0130 15:50:27.981317 101347 layer_factory.hpp:77] Creating layer conv4
I0130 15:50:27.981328 101347 net.cpp:94] Creating Layer conv4
I0130 15:50:27.981330 101347 net.cpp:435] conv4 <- relu3
I0130 15:50:27.981335 101347 net.cpp:409] conv4 -> conv4
I0130 15:50:27.994781 101347 net.cpp:144] Setting up conv4
I0130 15:50:27.994802 101347 net.cpp:151] Top shape: 50 384 13 13 (3244800)
I0130 15:50:27.994804 101347 net.cpp:159] Memory required for data: 378719600
I0130 15:50:27.994832 101347 layer_factory.hpp:77] Creating layer relu4
I0130 15:50:27.994837 101347 net.cpp:94] Creating Layer relu4
I0130 15:50:27.994841 101347 net.cpp:435] relu4 <- conv4
I0130 15:50:27.994848 101347 net.cpp:409] relu4 -> relu4
I0130 15:50:27.994868 101347 net.cpp:144] Setting up relu4
I0130 15:50:27.994870 101347 net.cpp:151] Top shape: 50 384 13 13 (3244800)
I0130 15:50:27.994873 101347 net.cpp:159] Memory required for data: 391698800
I0130 15:50:27.994874 101347 layer_factory.hpp:77] Creating layer conv5
I0130 15:50:27.994881 101347 net.cpp:94] Creating Layer conv5
I0130 15:50:27.994884 101347 net.cpp:435] conv5 <- relu4
I0130 15:50:27.994887 101347 net.cpp:409] conv5 -> conv5
I0130 15:50:28.007347 101347 net.cpp:144] Setting up conv5
I0130 15:50:28.007388 101347 net.cpp:151] Top shape: 50 256 13 13 (2163200)
I0130 15:50:28.007391 101347 net.cpp:159] Memory required for data: 400351600
I0130 15:50:28.007400 101347 layer_factory.hpp:77] Creating layer relu5
I0130 15:50:28.007409 101347 net.cpp:94] Creating Layer relu5
I0130 15:50:28.007413 101347 net.cpp:435] relu5 <- conv5
I0130 15:50:28.007436 101347 net.cpp:409] relu5 -> relu5
I0130 15:50:28.007462 101347 net.cpp:144] Setting up relu5
I0130 15:50:28.007467 101347 net.cpp:151] Top shape: 50 256 13 13 (2163200)
I0130 15:50:28.007469 101347 net.cpp:159] Memory required for data: 409004400
I0130 15:50:28.007472 101347 layer_factory.hpp:77] Creating layer pool5
I0130 15:50:28.007480 101347 net.cpp:94] Creating Layer pool5
I0130 15:50:28.007483 101347 net.cpp:435] pool5 <- relu5
I0130 15:50:28.007488 101347 net.cpp:409] pool5 -> pool5
I0130 15:50:28.007516 101347 net.cpp:144] Setting up pool5
I0130 15:50:28.007521 101347 net.cpp:151] Top shape: 50 256 6 6 (460800)
I0130 15:50:28.007524 101347 net.cpp:159] Memory required for data: 410847600
I0130 15:50:28.007526 101347 layer_factory.hpp:77] Creating layer fc6
I0130 15:50:28.007534 101347 net.cpp:94] Creating Layer fc6
I0130 15:50:28.007537 101347 net.cpp:435] fc6 <- pool5
I0130 15:50:28.007541 101347 net.cpp:409] fc6 -> fc6
I0130 15:50:28.324276 101347 net.cpp:144] Setting up fc6
I0130 15:50:28.324301 101347 net.cpp:151] Top shape: 50 4096 (204800)
I0130 15:50:28.324304 101347 net.cpp:159] Memory required for data: 411666800
I0130 15:50:28.324311 101347 layer_factory.hpp:77] Creating layer relu6
I0130 15:50:28.324318 101347 net.cpp:94] Creating Layer relu6
I0130 15:50:28.324321 101347 net.cpp:435] relu6 <- fc6
I0130 15:50:28.324326 101347 net.cpp:409] relu6 -> relu6
I0130 15:50:28.324349 101347 net.cpp:144] Setting up relu6
I0130 15:50:28.324352 101347 net.cpp:151] Top shape: 50 4096 (204800)
I0130 15:50:28.324354 101347 net.cpp:159] Memory required for data: 412486000
I0130 15:50:28.324357 101347 layer_factory.hpp:77] Creating layer drop6
I0130 15:50:28.324362 101347 net.cpp:94] Creating Layer drop6
I0130 15:50:28.324362 101347 net.cpp:435] drop6 <- relu6
I0130 15:50:28.324365 101347 net.cpp:409] drop6 -> drop6
I0130 15:50:28.324403 101347 net.cpp:144] Setting up drop6
I0130 15:50:28.324405 101347 net.cpp:151] Top shape: 50 4096 (204800)
I0130 15:50:28.324427 101347 net.cpp:159] Memory required for data: 413305200
I0130 15:50:28.324429 101347 layer_factory.hpp:77] Creating layer fc7
I0130 15:50:28.324435 101347 net.cpp:94] Creating Layer fc7
I0130 15:50:28.324437 101347 net.cpp:435] fc7 <- drop6
I0130 15:50:28.324440 101347 net.cpp:409] fc7 -> fc7
I0130 15:50:28.455651 101347 net.cpp:144] Setting up fc7
I0130 15:50:28.455675 101347 net.cpp:151] Top shape: 50 4096 (204800)
I0130 15:50:28.455677 101347 net.cpp:159] Memory required for data: 414124400
I0130 15:50:28.455684 101347 layer_factory.hpp:77] Creating layer bn7
I0130 15:50:28.455693 101347 net.cpp:94] Creating Layer bn7
I0130 15:50:28.455698 101347 net.cpp:435] bn7 <- fc7
I0130 15:50:28.455703 101347 net.cpp:409] bn7 -> scale7
I0130 15:50:28.456176 101347 net.cpp:144] Setting up bn7
I0130 15:50:28.456182 101347 net.cpp:151] Top shape: 50 4096 (204800)
I0130 15:50:28.456185 101347 net.cpp:159] Memory required for data: 414943600
I0130 15:50:28.456192 101347 layer_factory.hpp:77] Creating layer relu7
I0130 15:50:28.456197 101347 net.cpp:94] Creating Layer relu7
I0130 15:50:28.456198 101347 net.cpp:435] relu7 <- scale7
I0130 15:50:28.456202 101347 net.cpp:409] relu7 -> relu7
I0130 15:50:28.456218 101347 net.cpp:144] Setting up relu7
I0130 15:50:28.456223 101347 net.cpp:151] Top shape: 50 4096 (204800)
I0130 15:50:28.456224 101347 net.cpp:159] Memory required for data: 415762800
I0130 15:50:28.456228 101347 layer_factory.hpp:77] Creating layer drop7
I0130 15:50:28.456231 101347 net.cpp:94] Creating Layer drop7
I0130 15:50:28.456233 101347 net.cpp:435] drop7 <- relu7
I0130 15:50:28.456238 101347 net.cpp:409] drop7 -> drop7
I0130 15:50:28.456260 101347 net.cpp:144] Setting up drop7
I0130 15:50:28.456264 101347 net.cpp:151] Top shape: 50 4096 (204800)
I0130 15:50:28.456266 101347 net.cpp:159] Memory required for data: 416582000
I0130 15:50:28.456269 101347 layer_factory.hpp:77] Creating layer fc8
I0130 15:50:28.456274 101347 net.cpp:94] Creating Layer fc8
I0130 15:50:28.456276 101347 net.cpp:435] fc8 <- drop7
I0130 15:50:28.456279 101347 net.cpp:409] fc8 -> fc8
I0130 15:50:28.457119 101347 net.cpp:144] Setting up fc8
I0130 15:50:28.457131 101347 net.cpp:151] Top shape: 50 2 (100)
I0130 15:50:28.457134 101347 net.cpp:159] Memory required for data: 416582400
I0130 15:50:28.457139 101347 layer_factory.hpp:77] Creating layer fc8_fc8_0_split
I0130 15:50:28.457145 101347 net.cpp:94] Creating Layer fc8_fc8_0_split
I0130 15:50:28.457149 101347 net.cpp:435] fc8_fc8_0_split <- fc8
I0130 15:50:28.457152 101347 net.cpp:409] fc8_fc8_0_split -> fc8_fc8_0_split_0
I0130 15:50:28.457157 101347 net.cpp:409] fc8_fc8_0_split -> fc8_fc8_0_split_1
I0130 15:50:28.457182 101347 net.cpp:144] Setting up fc8_fc8_0_split
I0130 15:50:28.457187 101347 net.cpp:151] Top shape: 50 2 (100)
I0130 15:50:28.457190 101347 net.cpp:151] Top shape: 50 2 (100)
I0130 15:50:28.457191 101347 net.cpp:159] Memory required for data: 416583200
I0130 15:50:28.457193 101347 layer_factory.hpp:77] Creating layer loss
I0130 15:50:28.457197 101347 net.cpp:94] Creating Layer loss
I0130 15:50:28.457201 101347 net.cpp:435] loss <- fc8_fc8_0_split_0
I0130 15:50:28.457203 101347 net.cpp:435] loss <- label_data_1_split_0
I0130 15:50:28.457207 101347 net.cpp:409] loss -> loss
…
