…
I0130 16:44:23.699692 103958 net.cpp:323] The NetState phase (0) differed from the phase (1) specified by a rule in layer accuracy-top1
I0130 16:44:23.699823 103958 net.cpp:52] Initializing net from parameters: 
state {
  phase: TRAIN
}
layer {
  name: "data"
  type: "Data"
  top: "data"
  top: "label"
  include {
    phase: TRAIN
  }
  transform_param {
    mirror: true
    crop_size: 227
    mean_value: 106
    mean_value: 116
    mean_value: 124
  }
  data_param {
    source: "cats-vs-dogs/input/lmdb/train_lmdb"
    batch_size: 256
    backend: LMDB
  }
}
layer {
  name: "conv1"
  type: "Convolution"
  bottom: "data"
  top: "conv1"
  param {
    lr_mult: 1
    decay_mult: 1
    compression: PRUNE
  }
  param {
    lr_mult: 2
    decay_mult: 0
    compression: PRUNE
  }
  convolution_param {
    num_output: 96
    pad: 1
    kernel_size: 11
    stride: 4
    weight_filler {
      type: "gaussian"
      std: 0.01
    }
    bias_filler {
      type: "constant"
      value: 0
    }
  }
}
layer {
  name: "bn1"
  type: "BatchNorm"
  bottom: "conv1"
  top: "scale1"
  param {
    lr_mult: 1
    decay_mult: 0
    compression: PRUNE
  }
  param {
    lr_mult: 1
    decay_mult: 0
    compression: PRUNE
  }
  param {
    lr_mult: 0
    decay_mult: 0
    compression: PRUNE
  }
  param {
    lr_mult: 0
    decay_mult: 0
    compression: PRUNE
  }
  batch_norm_param {
    use_global_stats: false
    scale_filler {
      type: "constant"
      value: 1
    }
    bias_filler {
      type: "constant"
      value: 0
    }
  }
}
layer {
  name: "relu1"
  type: "ReLU"
  bottom: "scale1"
  top: "relu1"
}
layer {
  name: "pool1"
  type: "Pooling"
  bottom: "relu1"
  top: "pool1"
  pooling_param {
    pool: MAX
    kernel_size: 3
    stride: 2
  }
}
layer {
  name: "conv2"
  type: "Convolution"
  bottom: "pool1"
  top: "conv2"
  param {
    lr_mult: 1
    decay_mult: 1
    compression: PRUNE
  }
  param {
    lr_mult: 2
    decay_mult: 0
    compression: PRUNE
  }
  convolution_param {
    num_output: 256
    pad: 2
    kernel_size: 5
    group: 1
    weight_filler {
      type: "gaussian"
      std: 0.01
    }
    bias_filler {
      type: "constant"
      value: 1
    }
  }
}
layer {
  name: "bn2"
  type: "BatchNorm"
  bottom: "conv2"
  top: "scale2"
  param {
    lr_mult: 1
    decay_mult: 0
    compression: PRUNE
  }
  param {
    lr_mult: 1
    decay_mult: 0
    compression: PRUNE
  }
  param {
    lr_mult: 0
    decay_mult: 0
    compression: PRUNE
  }
  param {
    lr_mult: 0
    decay_mult: 0
    compression: PRUNE
  }
  batch_norm_param {
    use_global_stats: false
    scale_filler {
      type: "constant"
      value: 1
    }
    bias_filler {
      type: "constant"
      value: 0
    }
  }
}
layer {
  name: "relu2"
  type: "ReLU"
  bottom: "scale2"
  top: "relu2"
}
layer {
  name: "pool2"
  type: "Pooling"
  bottom: "relu2"
  top: "pool2"
  pooling_param {
    pool: MAX
    kernel_size: 3
    stride: 2
  }
}
layer {
  name: "conv3"
  type: "Convolution"
  bottom: "pool2"
  top: "conv3"
  param {
    lr_mult: 1
    decay_mult: 1
    compression: PRUNE
  }
  param {
    lr_mult: 2
    decay_mult: 0
    compression: PRUNE
  }
  convolution_param {
    num_output: 384
    pad: 1
    kernel_size: 3
    weight_filler {
      type: "gaussian"
      std: 0.01
    }
    bias_filler {
      type: "constant"
      value: 0
    }
  }
}
layer {
  name: "relu3"
  type: "ReLU"
  bottom: "conv3"
  top: "relu3"
}
layer {
  name: "conv4"
  type: "Convolution"
  bottom: "relu3"
  top: "conv4"
  param {
    lr_mult: 1
    decay_mult: 1
    compression: PRUNE
  }
  param {
    lr_mult: 2
    decay_mult: 0
    compression: PRUNE
  }
  convolution_param {
    num_output: 384
    pad: 1
    kernel_size: 3
    group: 1
    weight_filler {
      type: "gaussian"
      std: 0.01
    }
    bias_filler {
      type: "constant"
      value: 1
    }
  }
}
layer {
  name: "relu4"
  type: "ReLU"
  bottom: "conv4"
  top: "relu4"
}
layer {
  name: "conv5"
  type: "Convolution"
  bottom: "relu4"
  top: "conv5"
  param {
    lr_mult: 1
    decay_mult: 1
    compression: PRUNE
  }
  param {
    lr_mult: 2
    decay_mult: 0
    compression: PRUNE
  }
  convolution_param {
    num_output: 256
    pad: 1
    kernel_size: 3
    group: 1
    weight_filler {
      type: "gaussian"
      std: 0.01
    }
    bias_filler {
      type: "constant"
      value: 1
    }
  }
}
layer {
  name: "relu5"
  type: "ReLU"
  bottom: "conv5"
  top: "relu5"
}
layer {
  name: "pool5"
  type: "Pooling"
  bottom: "relu5"
  top: "pool5"
  pooling_param {
    pool: MAX
    kernel_size: 3
    stride: 2
  }
}
layer {
  name: "fc6"
  type: "InnerProduct"
  bottom: "pool5"
  top: "fc6"
  param {
    lr_mult: 1
    decay_mult: 1
  }
  param {
    lr_mult: 2
    decay_mult: 0
  }
  inner_product_param {
    num_output: 4096
    weight_filler {
      type: "gaussian"
      std: 0.005
    }
    bias_filler {
      type: "constant"
      value: 1
    }
  }
}
layer {
  name: "relu6"
  type: "ReLU"
  bottom: "fc6"
  top: "relu6"
}
layer {
  name: "drop6"
  type: "Dropout"
  bottom: "relu6"
  top: "drop6"
  dropout_param {
    dropout_ratio: 0.5
  }
}
layer {
  name: "fc7"
  type: "InnerProduct"
  bottom: "drop6"
  top: "fc7"
  param {
    lr_mult: 1
    decay_mult: 1
  }
  param {
    lr_mult: 2
    decay_mult: 0
  }
  inner_product_param {
    num_output: 4096
    weight_filler {
      type: "gaussian"
      std: 0.005
    }
    bias_filler {
      type: "constant"
      value: 1
    }
  }
}
layer {
  name: "bn7"
  type: "BatchNorm"
  bottom: "fc7"
  top: "scale7"
  param {
    lr_mult: 1
    decay_mult: 0
    compression: PRUNE
  }
  param {
    lr_mult: 1
    decay_mult: 0
    compression: PRUNE
  }
  param {
    lr_mult: 0
    decay_mult: 0
    compression: PRUNE
  }
  param {
    lr_mult: 0
    decay_mult: 0
    compression: PRUNE
  }
  batch_norm_param {
    use_global_stats: false
    scale_filler {
      type: "constant"
      value: 1
    }
    bias_filler {
      type: "constant"
      value: 0
    }
  }
}
layer {
  name: "relu7"
  type: "ReLU"
  bottom: "scale7"
  top: "relu7"
}
layer {
  name: "drop7"
  type: "Dropout"
  bottom: "relu7"
  top: "drop7"
  dropout_param {
    dropout_ratio: 0.5
  }
}
layer {
  name: "fc8"
  type: "InnerProduct"
  bottom: "drop7"
  top: "fc8"
  param {
    lr_mult: 1
    decay_mult: 1
  }
  param {
    lr_mult: 2
    decay_mult: 0
  }
  inner_product_param {
    num_output: 2
    weight_filler {
      type: "gaussian"
      std: 0.01
    }
    bias_filler {
      type: "constant"
      value: 0
    }
  }
}
layer {
  name: "loss"
  type: "SoftmaxWithLoss"
  bottom: "fc8"
  bottom: "label"
  top: "loss"
}
I0130 16:44:23.699901 103958 layer_factory.hpp:77] Creating layer data
I0130 16:44:23.700026 103958 internal_thread.cpp:27] Starting internal thread(s) on GPU 0
I0130 16:44:23.700419 103958 net.cpp:94] Creating Layer data
I0130 16:44:23.700425 103958 net.cpp:409] data -> data
I0130 16:44:23.700434 103958 net.cpp:409] data -> label
I0130 16:44:23.701910 103997 db_lmdb.cpp:35] Opened lmdb cats-vs-dogs/input/lmdb/train_lmdb
I0130 16:44:23.701952 103997 data_reader.cpp:117] TRAIN: reading data using 1 channel(s)
I0130 16:44:23.702205 103958 data_layer.cpp:78] ReshapePrefetch 256, 3, 227, 227
I0130 16:44:23.702275 103958 data_layer.cpp:83] output data size: 256,3,227,227
I0130 16:44:24.071530 103958 internal_thread.cpp:27] Starting internal thread(s) on GPU 0
I0130 16:44:24.071599 103958 net.cpp:144] Setting up data
I0130 16:44:24.071606 103958 net.cpp:151] Top shape: 256 3 227 227 (39574272)
I0130 16:44:24.071610 103958 net.cpp:151] Top shape: 256 (256)
I0130 16:44:24.071612 103958 net.cpp:159] Memory required for data: 158298112
I0130 16:44:24.071617 103958 layer_factory.hpp:77] Creating layer conv1
I0130 16:44:24.071632 103958 net.cpp:94] Creating Layer conv1
I0130 16:44:24.071635 103958 net.cpp:435] conv1 <- data
I0130 16:44:24.071650 103958 net.cpp:409] conv1 -> conv1
I0130 16:44:24.073591 103958 net.cpp:144] Setting up conv1
I0130 16:44:24.073602 103958 net.cpp:151] Top shape: 256 96 55 55 (74342400)
I0130 16:44:24.073606 103958 net.cpp:159] Memory required for data: 455667712
I0130 16:44:24.073618 103958 layer_factory.hpp:77] Creating layer bn1
I0130 16:44:24.073627 103958 net.cpp:94] Creating Layer bn1
I0130 16:44:24.073629 103958 net.cpp:435] bn1 <- conv1
I0130 16:44:24.073634 103958 net.cpp:409] bn1 -> scale1
I0130 16:44:24.074851 103958 net.cpp:144] Setting up bn1
I0130 16:44:24.074857 103958 net.cpp:151] Top shape: 256 96 55 55 (74342400)
I0130 16:44:24.074860 103958 net.cpp:159] Memory required for data: 753037312
I0130 16:44:24.074870 103958 layer_factory.hpp:77] Creating layer relu1
I0130 16:44:24.074875 103958 net.cpp:94] Creating Layer relu1
I0130 16:44:24.074878 103958 net.cpp:435] relu1 <- scale1
I0130 16:44:24.074882 103958 net.cpp:409] relu1 -> relu1
I0130 16:44:24.074908 103958 net.cpp:144] Setting up relu1
I0130 16:44:24.074913 103958 net.cpp:151] Top shape: 256 96 55 55 (74342400)
I0130 16:44:24.074915 103958 net.cpp:159] Memory required for data: 1050406912
I0130 16:44:24.074918 103958 layer_factory.hpp:77] Creating layer pool1
I0130 16:44:24.074923 103958 net.cpp:94] Creating Layer pool1
I0130 16:44:24.074925 103958 net.cpp:435] pool1 <- relu1
I0130 16:44:24.074929 103958 net.cpp:409] pool1 -> pool1
I0130 16:44:24.074985 103958 net.cpp:144] Setting up pool1
I0130 16:44:24.074990 103958 net.cpp:151] Top shape: 256 96 27 27 (17915904)
I0130 16:44:24.074992 103958 net.cpp:159] Memory required for data: 1122070528
I0130 16:44:24.074995 103958 layer_factory.hpp:77] Creating layer conv2
I0130 16:44:24.075001 103958 net.cpp:94] Creating Layer conv2
I0130 16:44:24.075004 103958 net.cpp:435] conv2 <- pool1
I0130 16:44:24.075008 103958 net.cpp:409] conv2 -> conv2
I0130 16:44:24.089916 103958 net.cpp:144] Setting up conv2
I0130 16:44:24.089934 103958 net.cpp:151] Top shape: 256 256 27 27 (47775744)
I0130 16:44:24.089938 103958 net.cpp:159] Memory required for data: 1313173504
I0130 16:44:24.089948 103958 layer_factory.hpp:77] Creating layer bn2
I0130 16:44:24.089959 103958 net.cpp:94] Creating Layer bn2
I0130 16:44:24.089967 103958 net.cpp:435] bn2 <- conv2
I0130 16:44:24.089973 103958 net.cpp:409] bn2 -> scale2
I0130 16:44:24.090549 103958 net.cpp:144] Setting up bn2
I0130 16:44:24.090559 103958 net.cpp:151] Top shape: 256 256 27 27 (47775744)
I0130 16:44:24.090564 103958 net.cpp:159] Memory required for data: 1504276480
I0130 16:44:24.090572 103958 layer_factory.hpp:77] Creating layer relu2
I0130 16:44:24.090577 103958 net.cpp:94] Creating Layer relu2
I0130 16:44:24.090581 103958 net.cpp:435] relu2 <- scale2
I0130 16:44:24.090586 103958 net.cpp:409] relu2 -> relu2
I0130 16:44:24.090606 103958 net.cpp:144] Setting up relu2
I0130 16:44:24.090617 103958 net.cpp:151] Top shape: 256 256 27 27 (47775744)
I0130 16:44:24.090620 103958 net.cpp:159] Memory required for data: 1695379456
I0130 16:44:24.090623 103958 layer_factory.hpp:77] Creating layer pool2
I0130 16:44:24.090629 103958 net.cpp:94] Creating Layer pool2
I0130 16:44:24.090632 103958 net.cpp:435] pool2 <- relu2
I0130 16:44:24.090654 103958 net.cpp:409] pool2 -> pool2
I0130 16:44:24.090683 103958 net.cpp:144] Setting up pool2
I0130 16:44:24.090692 103958 net.cpp:151] Top shape: 256 256 13 13 (11075584)
I0130 16:44:24.090694 103958 net.cpp:159] Memory required for data: 1739681792
I0130 16:44:24.090698 103958 layer_factory.hpp:77] Creating layer conv3
I0130 16:44:24.090705 103958 net.cpp:94] Creating Layer conv3
I0130 16:44:24.090708 103958 net.cpp:435] conv3 <- pool2
I0130 16:44:24.090713 103958 net.cpp:409] conv3 -> conv3
I0130 16:44:24.114791 103958 net.cpp:144] Setting up conv3
I0130 16:44:24.114814 103958 net.cpp:151] Top shape: 256 384 13 13 (16613376)
I0130 16:44:24.114828 103958 net.cpp:159] Memory required for data: 1806135296
I0130 16:44:24.114836 103958 layer_factory.hpp:77] Creating layer relu3
I0130 16:44:24.114845 103958 net.cpp:94] Creating Layer relu3
I0130 16:44:24.114850 103958 net.cpp:435] relu3 <- conv3
I0130 16:44:24.114856 103958 net.cpp:409] relu3 -> relu3
I0130 16:44:24.114881 103958 net.cpp:144] Setting up relu3
I0130 16:44:24.114886 103958 net.cpp:151] Top shape: 256 384 13 13 (16613376)
I0130 16:44:24.114889 103958 net.cpp:159] Memory required for data: 1872588800
I0130 16:44:24.114892 103958 layer_factory.hpp:77] Creating layer conv4
I0130 16:44:24.114902 103958 net.cpp:94] Creating Layer conv4
I0130 16:44:24.114907 103958 net.cpp:435] conv4 <- relu3
I0130 16:44:24.114912 103958 net.cpp:409] conv4 -> conv4
I0130 16:44:24.132254 103958 net.cpp:144] Setting up conv4
I0130 16:44:24.132288 103958 net.cpp:151] Top shape: 256 384 13 13 (16613376)
I0130 16:44:24.132294 103958 net.cpp:159] Memory required for data: 1939042304
I0130 16:44:24.132310 103958 layer_factory.hpp:77] Creating layer relu4
I0130 16:44:24.132320 103958 net.cpp:94] Creating Layer relu4
I0130 16:44:24.132325 103958 net.cpp:435] relu4 <- conv4
I0130 16:44:24.132335 103958 net.cpp:409] relu4 -> relu4
I0130 16:44:24.132366 103958 net.cpp:144] Setting up relu4
I0130 16:44:24.132371 103958 net.cpp:151] Top shape: 256 384 13 13 (16613376)
I0130 16:44:24.132375 103958 net.cpp:159] Memory required for data: 2005495808
I0130 16:44:24.132380 103958 layer_factory.hpp:77] Creating layer conv5
I0130 16:44:24.132390 103958 net.cpp:94] Creating Layer conv5
I0130 16:44:24.132395 103958 net.cpp:435] conv5 <- relu4
I0130 16:44:24.132400 103958 net.cpp:409] conv5 -> conv5
I0130 16:44:24.150282 103958 net.cpp:144] Setting up conv5
I0130 16:44:24.150302 103958 net.cpp:151] Top shape: 256 256 13 13 (11075584)
I0130 16:44:24.150305 103958 net.cpp:159] Memory required for data: 2049798144
I0130 16:44:24.150312 103958 layer_factory.hpp:77] Creating layer relu5
I0130 16:44:24.150321 103958 net.cpp:94] Creating Layer relu5
I0130 16:44:24.150324 103958 net.cpp:435] relu5 <- conv5
I0130 16:44:24.150331 103958 net.cpp:409] relu5 -> relu5
I0130 16:44:24.150367 103958 net.cpp:144] Setting up relu5
I0130 16:44:24.150372 103958 net.cpp:151] Top shape: 256 256 13 13 (11075584)
I0130 16:44:24.150374 103958 net.cpp:159] Memory required for data: 2094100480
I0130 16:44:24.150377 103958 layer_factory.hpp:77] Creating layer pool5
I0130 16:44:24.150383 103958 net.cpp:94] Creating Layer pool5
I0130 16:44:24.150387 103958 net.cpp:435] pool5 <- relu5
I0130 16:44:24.150390 103958 net.cpp:409] pool5 -> pool5
I0130 16:44:24.150421 103958 net.cpp:144] Setting up pool5
I0130 16:44:24.150426 103958 net.cpp:151] Top shape: 256 256 6 6 (2359296)
I0130 16:44:24.150429 103958 net.cpp:159] Memory required for data: 2103537664
I0130 16:44:24.150432 103958 layer_factory.hpp:77] Creating layer fc6
I0130 16:44:24.150440 103958 net.cpp:94] Creating Layer fc6
I0130 16:44:24.150442 103958 net.cpp:435] fc6 <- pool5
I0130 16:44:24.150449 103958 net.cpp:409] fc6 -> fc6
I0130 16:44:24.517005 103958 net.cpp:144] Setting up fc6
I0130 16:44:24.517030 103958 net.cpp:151] Top shape: 256 4096 (1048576)
I0130 16:44:24.517032 103958 net.cpp:159] Memory required for data: 2107731968
I0130 16:44:24.517040 103958 layer_factory.hpp:77] Creating layer relu6
I0130 16:44:24.517046 103958 net.cpp:94] Creating Layer relu6
I0130 16:44:24.517071 103958 net.cpp:435] relu6 <- fc6
I0130 16:44:24.517077 103958 net.cpp:409] relu6 -> relu6
I0130 16:44:24.517092 103958 net.cpp:144] Setting up relu6
I0130 16:44:24.517096 103958 net.cpp:151] Top shape: 256 4096 (1048576)
I0130 16:44:24.517097 103958 net.cpp:159] Memory required for data: 2111926272
I0130 16:44:24.517099 103958 layer_factory.hpp:77] Creating layer drop6
I0130 16:44:24.517119 103958 net.cpp:94] Creating Layer drop6
I0130 16:44:24.517122 103958 net.cpp:435] drop6 <- relu6
I0130 16:44:24.517124 103958 net.cpp:409] drop6 -> drop6
I0130 16:44:24.517155 103958 net.cpp:144] Setting up drop6
I0130 16:44:24.517177 103958 net.cpp:151] Top shape: 256 4096 (1048576)
I0130 16:44:24.517179 103958 net.cpp:159] Memory required for data: 2116120576
I0130 16:44:24.517181 103958 layer_factory.hpp:77] Creating layer fc7
I0130 16:44:24.517187 103958 net.cpp:94] Creating Layer fc7
I0130 16:44:24.517190 103958 net.cpp:435] fc7 <- drop6
I0130 16:44:24.517194 103958 net.cpp:409] fc7 -> fc7
I0130 16:44:24.647637 103958 net.cpp:144] Setting up fc7
I0130 16:44:24.647662 103958 net.cpp:151] Top shape: 256 4096 (1048576)
I0130 16:44:24.647665 103958 net.cpp:159] Memory required for data: 2120314880
I0130 16:44:24.647672 103958 layer_factory.hpp:77] Creating layer bn7
I0130 16:44:24.647681 103958 net.cpp:94] Creating Layer bn7
I0130 16:44:24.647684 103958 net.cpp:435] bn7 <- fc7
I0130 16:44:24.647691 103958 net.cpp:409] bn7 -> scale7
I0130 16:44:24.648171 103958 net.cpp:144] Setting up bn7
I0130 16:44:24.648177 103958 net.cpp:151] Top shape: 256 4096 (1048576)
I0130 16:44:24.648180 103958 net.cpp:159] Memory required for data: 2124509184
I0130 16:44:24.648187 103958 layer_factory.hpp:77] Creating layer relu7
I0130 16:44:24.648191 103958 net.cpp:94] Creating Layer relu7
I0130 16:44:24.648193 103958 net.cpp:435] relu7 <- scale7
I0130 16:44:24.648197 103958 net.cpp:409] relu7 -> relu7
I0130 16:44:24.648212 103958 net.cpp:144] Setting up relu7
I0130 16:44:24.648217 103958 net.cpp:151] Top shape: 256 4096 (1048576)
I0130 16:44:24.648219 103958 net.cpp:159] Memory required for data: 2128703488
I0130 16:44:24.648221 103958 layer_factory.hpp:77] Creating layer drop7
I0130 16:44:24.648226 103958 net.cpp:94] Creating Layer drop7
I0130 16:44:24.648228 103958 net.cpp:435] drop7 <- relu7
I0130 16:44:24.648231 103958 net.cpp:409] drop7 -> drop7
I0130 16:44:24.648252 103958 net.cpp:144] Setting up drop7
I0130 16:44:24.648257 103958 net.cpp:151] Top shape: 256 4096 (1048576)
I0130 16:44:24.648259 103958 net.cpp:159] Memory required for data: 2132897792
I0130 16:44:24.648262 103958 layer_factory.hpp:77] Creating layer fc8
I0130 16:44:24.648267 103958 net.cpp:94] Creating Layer fc8
I0130 16:44:24.648269 103958 net.cpp:435] fc8 <- drop7
I0130 16:44:24.648273 103958 net.cpp:409] fc8 -> fc8
I0130 16:44:24.649144 103958 net.cpp:144] Setting up fc8
I0130 16:44:24.649157 103958 net.cpp:151] Top shape: 256 2 (512)
I0130 16:44:24.649158 103958 net.cpp:159] Memory required for data: 2132899840
I0130 16:44:24.649164 103958 layer_factory.hpp:77] Creating layer loss
I0130 16:44:24.649170 103958 net.cpp:94] Creating Layer loss
I0130 16:44:24.649173 103958 net.cpp:435] loss <- fc8
I0130 16:44:24.649178 103958 net.cpp:435] loss <- label
I0130 16:44:24.649181 103958 net.cpp:409] loss -> loss
I0130 16:44:24.649188 103958 layer_factory.hpp:77] Creating layer loss
…
I0130 16:44:24.649648 103958 solver.cpp:189] Creating test net (#0) specified by net file: cats-vs-dogs/deephi/alexnetBNnoLRN/pruning/regular_rate_0.1/net_finetune.prototxt
I0130 16:44:24.649677 103958 net.cpp:323] The NetState phase (1) differed from the phase (0) specified by a rule in layer data
I0130 16:44:24.649839 103958 net.cpp:52] Initializing net from parameters: 
state {
  phase: TEST
}
layer {
  name: "data"
  type: "Data"
  top: "data"
  top: "label"
  include {
    phase: TEST
  }
  transform_param {
    mirror: false
    crop_size: 227
    mean_value: 106
    mean_value: 116
    mean_value: 124
  }
  data_param {
    source: "cats-vs-dogs/input/lmdb/valid_lmdb"
    batch_size: 50
    backend: LMDB
  }
}
layer {
  name: "conv1"
  type: "Convolution"
  bottom: "data"
  top: "conv1"
  param {
    lr_mult: 1
    decay_mult: 1
    compression: PRUNE
  }
  param {
    lr_mult: 2
    decay_mult: 0
    compression: PRUNE
  }
  convolution_param {
    num_output: 96
    pad: 1
    kernel_size: 11
    stride: 4
    weight_filler {
      type: "gaussian"
      std: 0.01
    }
    bias_filler {
      type: "constant"
      value: 0
    }
  }
}
layer {
  name: "bn1"
  type: "BatchNorm"
  bottom: "conv1"
  top: "scale1"
  param {
    lr_mult: 1
    decay_mult: 0
    compression: PRUNE
  }
  param {
    lr_mult: 1
    decay_mult: 0
    compression: PRUNE
  }
  param {
    lr_mult: 0
    decay_mult: 0
    compression: PRUNE
  }
  param {
    lr_mult: 0
    decay_mult: 0
    compression: PRUNE
  }
  batch_norm_param {
    use_global_stats: false
    scale_filler {
      type: "constant"
      value: 1
    }
    bias_filler {
      type: "constant"
      value: 0
    }
  }
}
layer {
  name: "relu1"
  type: "ReLU"
  bottom: "scale1"
  top: "relu1"
}
layer {
  name: "pool1"
  type: "Pooling"
  bottom: "relu1"
  top: "pool1"
  pooling_param {
    pool: MAX
    kernel_size: 3
    stride: 2
  }
}
layer {
  name: "conv2"
  type: "Convolution"
  bottom: "pool1"
  top: "conv2"
  param {
    lr_mult: 1
    decay_mult: 1
    compression: PRUNE
  }
  param {
    lr_mult: 2
    decay_mult: 0
    compression: PRUNE
  }
  convolution_param {
    num_output: 256
    pad: 2
    kernel_size: 5
    group: 1
    weight_filler {
      type: "gaussian"
      std: 0.01
    }
    bias_filler {
      type: "constant"
      value: 1
    }
  }
}
layer {
  name: "bn2"
  type: "BatchNorm"
  bottom: "conv2"
  top: "scale2"
  param {
    lr_mult: 1
    decay_mult: 0
    compression: PRUNE
  }
  param {
    lr_mult: 1
    decay_mult: 0
    compression: PRUNE
  }
  param {
    lr_mult: 0
    decay_mult: 0
    compression: PRUNE
  }
  param {
    lr_mult: 0
    decay_mult: 0
    compression: PRUNE
  }
  batch_norm_param {
    use_global_stats: false
    scale_filler {
      type: "constant"
      value: 1
    }
    bias_filler {
      type: "constant"
      value: 0
    }
  }
}
layer {
  name: "relu2"
  type: "ReLU"
  bottom: "scale2"
  top: "relu2"
}
layer {
  name: "pool2"
  type: "Pooling"
  bottom: "relu2"
  top: "pool2"
  pooling_param {
    pool: MAX
    kernel_size: 3
    stride: 2
  }
}
layer {
  name: "conv3"
  type: "Convolution"
  bottom: "pool2"
  top: "conv3"
  param {
    lr_mult: 1
    decay_mult: 1
    compression: PRUNE
  }
  param {
    lr_mult: 2
    decay_mult: 0
    compression: PRUNE
  }
  convolution_param {
    num_output: 384
    pad: 1
    kernel_size: 3
    weight_filler {
      type: "gaussian"
      std: 0.01
    }
    bias_filler {
      type: "constant"
      value: 0
    }
  }
}
layer {
  name: "relu3"
  type: "ReLU"
  bottom: "conv3"
  top: "relu3"
}
layer {
  name: "conv4"
  type: "Convolution"
  bottom: "relu3"
  top: "conv4"
  param {
    lr_mult: 1
    decay_mult: 1
    compression: PRUNE
  }
  param {
    lr_mult: 2
    decay_mult: 0
    compression: PRUNE
  }
  convolution_param {
    num_output: 384
    pad: 1
    kernel_size: 3
    group: 1
    weight_filler {
      type: "gaussian"
      std: 0.01
    }
    bias_filler {
      type: "constant"
      value: 1
    }
  }
}
layer {
  name: "relu4"
  type: "ReLU"
  bottom: "conv4"
  top: "relu4"
}
layer {
  name: "conv5"
  type: "Convolution"
  bottom: "relu4"
  top: "conv5"
  param {
    lr_mult: 1
    decay_mult: 1
    compression: PRUNE
  }
  param {
    lr_mult: 2
    decay_mult: 0
    compression: PRUNE
  }
  convolution_param {
    num_output: 256
    pad: 1
    kernel_size: 3
    group: 1
    weight_filler {
      type: "gaussian"
      std: 0.01
    }
    bias_filler {
      type: "constant"
      value: 1
    }
  }
}
layer {
  name: "relu5"
  type: "ReLU"
  bottom: "conv5"
  top: "relu5"
}
layer {
  name: "pool5"
  type: "Pooling"
  bottom: "relu5"
  top: "pool5"
  pooling_param {
    pool: MAX
    kernel_size: 3
    stride: 2
  }
}
layer {
  name: "fc6"
  type: "InnerProduct"
  bottom: "pool5"
  top: "fc6"
  param {
    lr_mult: 1
    decay_mult: 1
  }
  param {
    lr_mult: 2
    decay_mult: 0
  }
  inner_product_param {
    num_output: 4096
    weight_filler {
      type: "gaussian"
      std: 0.005
    }
    bias_filler {
      type: "constant"
      value: 1
    }
  }
}
layer {
  name: "relu6"
  type: "ReLU"
  bottom: "fc6"
  top: "relu6"
}
layer {
  name: "drop6"
  type: "Dropout"
  bottom: "relu6"
  top: "drop6"
  dropout_param {
    dropout_ratio: 0.5
  }
}
layer {
  name: "fc7"
  type: "InnerProduct"
  bottom: "drop6"
  top: "fc7"
  param {
    lr_mult: 1
    decay_mult: 1
  }
  param {
    lr_mult: 2
    decay_mult: 0
  }
  inner_product_param {
    num_output: 4096
    weight_filler {
      type: "gaussian"
      std: 0.005
    }
    bias_filler {
      type: "constant"
      value: 1
    }
  }
}
layer {
  name: "bn7"
  type: "BatchNorm"
  bottom: "fc7"
  top: "scale7"
  param {
    lr_mult: 1
    decay_mult: 0
    compression: PRUNE
  }
  param {
    lr_mult: 1
    decay_mult: 0
    compression: PRUNE
  }
  param {
    lr_mult: 0
    decay_mult: 0
    compression: PRUNE
  }
  param {
    lr_mult: 0
    decay_mult: 0
    compression: PRUNE
  }
  batch_norm_param {
    use_global_stats: false
    scale_filler {
      type: "constant"
      value: 1
    }
    bias_filler {
      type: "constant"
      value: 0
    }
  }
}
layer {
  name: "relu7"
  type: "ReLU"
  bottom: "scale7"
  top: "relu7"
}
layer {
  name: "drop7"
  type: "Dropout"
  bottom: "relu7"
  top: "drop7"
  dropout_param {
    dropout_ratio: 0.5
  }
}
layer {
  name: "fc8"
  type: "InnerProduct"
  bottom: "drop7"
  top: "fc8"
  param {
    lr_mult: 1
    decay_mult: 1
  }
  param {
    lr_mult: 2
    decay_mult: 0
  }
  inner_product_param {
    num_output: 2
    weight_filler {
      type: "gaussian"
      std: 0.01
    }
    bias_filler {
      type: "constant"
      value: 0
    }
  }
}
layer {
  name: "loss"
  type: "SoftmaxWithLoss"
  bottom: "fc8"
  bottom: "label"
  top: "loss"
}
layer {
  name: "accuracy-top1"
  type: "Accuracy"
  bottom: "fc8"
  bottom: "label"
  top: "top-1"
  include {
    phase: TEST
  }
}
I0130 16:44:24.649922 103958 layer_factory.hpp:77] Creating layer data
I0130 16:44:24.649957 103958 internal_thread.cpp:27] Starting internal thread(s) on GPU 0
I0130 16:44:24.650866 103958 net.cpp:94] Creating Layer data
I0130 16:44:24.650878 103958 net.cpp:409] data -> data
I0130 16:44:24.650887 103958 net.cpp:409] data -> label
I0130 16:44:24.651446 104027 db_lmdb.cpp:35] Opened lmdb cats-vs-dogs/input/lmdb/valid_lmdb
I0130 16:44:24.651468 104027 data_reader.cpp:117] TEST: reading data using 1 channel(s)
I0130 16:44:24.651659 103958 data_layer.cpp:78] ReshapePrefetch 50, 3, 227, 227
I0130 16:44:24.651741 103958 data_layer.cpp:83] output data size: 50,3,227,227
I0130 16:44:24.729419 103958 internal_thread.cpp:27] Starting internal thread(s) on GPU 0
I0130 16:44:24.729475 103958 net.cpp:144] Setting up data
I0130 16:44:24.729482 103958 net.cpp:151] Top shape: 50 3 227 227 (7729350)
I0130 16:44:24.729486 103958 net.cpp:151] Top shape: 50 (50)
I0130 16:44:24.729487 103958 net.cpp:159] Memory required for data: 30917600
I0130 16:44:24.729491 103958 layer_factory.hpp:77] Creating layer label_data_1_split
I0130 16:44:24.729503 103958 net.cpp:94] Creating Layer label_data_1_split
I0130 16:44:24.729507 103958 net.cpp:435] label_data_1_split <- label
I0130 16:44:24.729511 103958 net.cpp:409] label_data_1_split -> label_data_1_split_0
I0130 16:44:24.729518 103958 net.cpp:409] label_data_1_split -> label_data_1_split_1
I0130 16:44:24.729590 103958 net.cpp:144] Setting up label_data_1_split
I0130 16:44:24.729595 103958 net.cpp:151] Top shape: 50 (50)
I0130 16:44:24.729598 103958 net.cpp:151] Top shape: 50 (50)
I0130 16:44:24.729600 103958 net.cpp:159] Memory required for data: 30918000
I0130 16:44:24.729604 103958 layer_factory.hpp:77] Creating layer conv1
I0130 16:44:24.729611 103958 net.cpp:94] Creating Layer conv1
I0130 16:44:24.729614 103958 net.cpp:435] conv1 <- data
I0130 16:44:24.729619 103958 net.cpp:409] conv1 -> conv1
I0130 16:44:24.730218 103958 net.cpp:144] Setting up conv1
I0130 16:44:24.730226 103958 net.cpp:151] Top shape: 50 96 55 55 (14520000)
I0130 16:44:24.730229 103958 net.cpp:159] Memory required for data: 88998000
I0130 16:44:24.730238 103958 layer_factory.hpp:77] Creating layer bn1
I0130 16:44:24.730245 103958 net.cpp:94] Creating Layer bn1
I0130 16:44:24.730248 103958 net.cpp:435] bn1 <- conv1
I0130 16:44:24.730252 103958 net.cpp:409] bn1 -> scale1
I0130 16:44:24.730814 103958 net.cpp:144] Setting up bn1
I0130 16:44:24.730821 103958 net.cpp:151] Top shape: 50 96 55 55 (14520000)
I0130 16:44:24.730824 103958 net.cpp:159] Memory required for data: 147078000
I0130 16:44:24.730834 103958 layer_factory.hpp:77] Creating layer relu1
I0130 16:44:24.730839 103958 net.cpp:94] Creating Layer relu1
I0130 16:44:24.730842 103958 net.cpp:435] relu1 <- scale1
I0130 16:44:24.730845 103958 net.cpp:409] relu1 -> relu1
I0130 16:44:24.730862 103958 net.cpp:144] Setting up relu1
I0130 16:44:24.730867 103958 net.cpp:151] Top shape: 50 96 55 55 (14520000)
I0130 16:44:24.730870 103958 net.cpp:159] Memory required for data: 205158000
I0130 16:44:24.730872 103958 layer_factory.hpp:77] Creating layer pool1
I0130 16:44:24.730876 103958 net.cpp:94] Creating Layer pool1
I0130 16:44:24.730880 103958 net.cpp:435] pool1 <- relu1
I0130 16:44:24.730883 103958 net.cpp:409] pool1 -> pool1
I0130 16:44:24.730907 103958 net.cpp:144] Setting up pool1
I0130 16:44:24.730912 103958 net.cpp:151] Top shape: 50 96 27 27 (3499200)
I0130 16:44:24.730914 103958 net.cpp:159] Memory required for data: 219154800
I0130 16:44:24.730917 103958 layer_factory.hpp:77] Creating layer conv2
I0130 16:44:24.730922 103958 net.cpp:94] Creating Layer conv2
I0130 16:44:24.730940 103958 net.cpp:435] conv2 <- pool1
I0130 16:44:24.730944 103958 net.cpp:409] conv2 -> conv2
I0130 16:44:24.737596 103958 net.cpp:144] Setting up conv2
I0130 16:44:24.737617 103958 net.cpp:151] Top shape: 50 256 27 27 (9331200)
I0130 16:44:24.737618 103958 net.cpp:159] Memory required for data: 256479600
I0130 16:44:24.737628 103958 layer_factory.hpp:77] Creating layer bn2
I0130 16:44:24.737640 103958 net.cpp:94] Creating Layer bn2
I0130 16:44:24.737643 103958 net.cpp:435] bn2 <- conv2
I0130 16:44:24.737649 103958 net.cpp:409] bn2 -> scale2
I0130 16:44:24.738257 103958 net.cpp:144] Setting up bn2
I0130 16:44:24.738266 103958 net.cpp:151] Top shape: 50 256 27 27 (9331200)
I0130 16:44:24.738268 103958 net.cpp:159] Memory required for data: 293804400
I0130 16:44:24.738278 103958 layer_factory.hpp:77] Creating layer relu2
I0130 16:44:24.738284 103958 net.cpp:94] Creating Layer relu2
I0130 16:44:24.738287 103958 net.cpp:435] relu2 <- scale2
I0130 16:44:24.738292 103958 net.cpp:409] relu2 -> relu2
I0130 16:44:24.738310 103958 net.cpp:144] Setting up relu2
I0130 16:44:24.738314 103958 net.cpp:151] Top shape: 50 256 27 27 (9331200)
I0130 16:44:24.738318 103958 net.cpp:159] Memory required for data: 331129200
I0130 16:44:24.738320 103958 layer_factory.hpp:77] Creating layer pool2
I0130 16:44:24.738325 103958 net.cpp:94] Creating Layer pool2
I0130 16:44:24.738328 103958 net.cpp:435] pool2 <- relu2
I0130 16:44:24.738333 103958 net.cpp:409] pool2 -> pool2
I0130 16:44:24.738363 103958 net.cpp:144] Setting up pool2
I0130 16:44:24.738368 103958 net.cpp:151] Top shape: 50 256 13 13 (2163200)
I0130 16:44:24.738371 103958 net.cpp:159] Memory required for data: 339782000
I0130 16:44:24.738374 103958 layer_factory.hpp:77] Creating layer conv3
I0130 16:44:24.738382 103958 net.cpp:94] Creating Layer conv3
I0130 16:44:24.738384 103958 net.cpp:435] conv3 <- pool2
I0130 16:44:24.738389 103958 net.cpp:409] conv3 -> conv3
I0130 16:44:24.749213 103958 net.cpp:144] Setting up conv3
I0130 16:44:24.749234 103958 net.cpp:151] Top shape: 50 384 13 13 (3244800)
I0130 16:44:24.749238 103958 net.cpp:159] Memory required for data: 352761200
I0130 16:44:24.749245 103958 layer_factory.hpp:77] Creating layer relu3
I0130 16:44:24.749254 103958 net.cpp:94] Creating Layer relu3
I0130 16:44:24.749258 103958 net.cpp:435] relu3 <- conv3
I0130 16:44:24.749264 103958 net.cpp:409] relu3 -> relu3
I0130 16:44:24.749289 103958 net.cpp:144] Setting up relu3
I0130 16:44:24.749295 103958 net.cpp:151] Top shape: 50 384 13 13 (3244800)
I0130 16:44:24.749297 103958 net.cpp:159] Memory required for data: 365740400
I0130 16:44:24.749300 103958 layer_factory.hpp:77] Creating layer conv4
I0130 16:44:24.749308 103958 net.cpp:94] Creating Layer conv4
I0130 16:44:24.749311 103958 net.cpp:435] conv4 <- relu3
I0130 16:44:24.749315 103958 net.cpp:409] conv4 -> conv4
I0130 16:44:24.765256 103958 net.cpp:144] Setting up conv4
I0130 16:44:24.765296 103958 net.cpp:151] Top shape: 50 384 13 13 (3244800)
I0130 16:44:24.765301 103958 net.cpp:159] Memory required for data: 378719600
I0130 16:44:24.765319 103958 layer_factory.hpp:77] Creating layer relu4
I0130 16:44:24.765331 103958 net.cpp:94] Creating Layer relu4
I0130 16:44:24.765336 103958 net.cpp:435] relu4 <- conv4
I0130 16:44:24.765347 103958 net.cpp:409] relu4 -> relu4
I0130 16:44:24.765386 103958 net.cpp:144] Setting up relu4
I0130 16:44:24.765393 103958 net.cpp:151] Top shape: 50 384 13 13 (3244800)
I0130 16:44:24.765396 103958 net.cpp:159] Memory required for data: 391698800
I0130 16:44:24.765401 103958 layer_factory.hpp:77] Creating layer conv5
I0130 16:44:24.765413 103958 net.cpp:94] Creating Layer conv5
I0130 16:44:24.765419 103958 net.cpp:435] conv5 <- relu4
I0130 16:44:24.765425 103958 net.cpp:409] conv5 -> conv5
I0130 16:44:24.775085 103958 net.cpp:144] Setting up conv5
I0130 16:44:24.775110 103958 net.cpp:151] Top shape: 50 256 13 13 (2163200)
I0130 16:44:24.775112 103958 net.cpp:159] Memory required for data: 400351600
I0130 16:44:24.775120 103958 layer_factory.hpp:77] Creating layer relu5
I0130 16:44:24.775127 103958 net.cpp:94] Creating Layer relu5
I0130 16:44:24.775147 103958 net.cpp:435] relu5 <- conv5
I0130 16:44:24.775153 103958 net.cpp:409] relu5 -> relu5
I0130 16:44:24.775179 103958 net.cpp:144] Setting up relu5
I0130 16:44:24.775185 103958 net.cpp:151] Top shape: 50 256 13 13 (2163200)
I0130 16:44:24.775188 103958 net.cpp:159] Memory required for data: 409004400
I0130 16:44:24.775190 103958 layer_factory.hpp:77] Creating layer pool5
I0130 16:44:24.775197 103958 net.cpp:94] Creating Layer pool5
I0130 16:44:24.775200 103958 net.cpp:435] pool5 <- relu5
I0130 16:44:24.775204 103958 net.cpp:409] pool5 -> pool5
I0130 16:44:24.775245 103958 net.cpp:144] Setting up pool5
I0130 16:44:24.775250 103958 net.cpp:151] Top shape: 50 256 6 6 (460800)
I0130 16:44:24.775254 103958 net.cpp:159] Memory required for data: 410847600
I0130 16:44:24.775256 103958 layer_factory.hpp:77] Creating layer fc6
I0130 16:44:24.775264 103958 net.cpp:94] Creating Layer fc6
I0130 16:44:24.775265 103958 net.cpp:435] fc6 <- pool5
I0130 16:44:24.775270 103958 net.cpp:409] fc6 -> fc6
I0130 16:44:25.086555 103958 net.cpp:144] Setting up fc6
I0130 16:44:25.086580 103958 net.cpp:151] Top shape: 50 4096 (204800)
I0130 16:44:25.086582 103958 net.cpp:159] Memory required for data: 411666800
I0130 16:44:25.086589 103958 layer_factory.hpp:77] Creating layer relu6
I0130 16:44:25.086596 103958 net.cpp:94] Creating Layer relu6
I0130 16:44:25.086601 103958 net.cpp:435] relu6 <- fc6
I0130 16:44:25.086606 103958 net.cpp:409] relu6 -> relu6
I0130 16:44:25.086629 103958 net.cpp:144] Setting up relu6
I0130 16:44:25.086632 103958 net.cpp:151] Top shape: 50 4096 (204800)
I0130 16:44:25.086634 103958 net.cpp:159] Memory required for data: 412486000
I0130 16:44:25.086637 103958 layer_factory.hpp:77] Creating layer drop6
I0130 16:44:25.086642 103958 net.cpp:94] Creating Layer drop6
I0130 16:44:25.086643 103958 net.cpp:435] drop6 <- relu6
I0130 16:44:25.086647 103958 net.cpp:409] drop6 -> drop6
I0130 16:44:25.086684 103958 net.cpp:144] Setting up drop6
I0130 16:44:25.086688 103958 net.cpp:151] Top shape: 50 4096 (204800)
I0130 16:44:25.086689 103958 net.cpp:159] Memory required for data: 413305200
I0130 16:44:25.086691 103958 layer_factory.hpp:77] Creating layer fc7
I0130 16:44:25.086696 103958 net.cpp:94] Creating Layer fc7
I0130 16:44:25.086699 103958 net.cpp:435] fc7 <- drop6
I0130 16:44:25.086712 103958 net.cpp:409] fc7 -> fc7
I0130 16:44:25.218880 103958 net.cpp:144] Setting up fc7
I0130 16:44:25.218904 103958 net.cpp:151] Top shape: 50 4096 (204800)
I0130 16:44:25.218905 103958 net.cpp:159] Memory required for data: 414124400
I0130 16:44:25.218914 103958 layer_factory.hpp:77] Creating layer bn7
I0130 16:44:25.218922 103958 net.cpp:94] Creating Layer bn7
I0130 16:44:25.218925 103958 net.cpp:435] bn7 <- fc7
I0130 16:44:25.218932 103958 net.cpp:409] bn7 -> scale7
I0130 16:44:25.219493 103958 net.cpp:144] Setting up bn7
I0130 16:44:25.219501 103958 net.cpp:151] Top shape: 50 4096 (204800)
I0130 16:44:25.219503 103958 net.cpp:159] Memory required for data: 414943600
I0130 16:44:25.219511 103958 layer_factory.hpp:77] Creating layer relu7
I0130 16:44:25.219516 103958 net.cpp:94] Creating Layer relu7
I0130 16:44:25.219518 103958 net.cpp:435] relu7 <- scale7
I0130 16:44:25.219521 103958 net.cpp:409] relu7 -> relu7
I0130 16:44:25.219538 103958 net.cpp:144] Setting up relu7
I0130 16:44:25.219542 103958 net.cpp:151] Top shape: 50 4096 (204800)
I0130 16:44:25.219544 103958 net.cpp:159] Memory required for data: 415762800
I0130 16:44:25.219547 103958 layer_factory.hpp:77] Creating layer drop7
I0130 16:44:25.219552 103958 net.cpp:94] Creating Layer drop7
I0130 16:44:25.219554 103958 net.cpp:435] drop7 <- relu7
I0130 16:44:25.219558 103958 net.cpp:409] drop7 -> drop7
I0130 16:44:25.219581 103958 net.cpp:144] Setting up drop7
I0130 16:44:25.219588 103958 net.cpp:151] Top shape: 50 4096 (204800)
I0130 16:44:25.219589 103958 net.cpp:159] Memory required for data: 416582000
I0130 16:44:25.219591 103958 layer_factory.hpp:77] Creating layer fc8
I0130 16:44:25.219596 103958 net.cpp:94] Creating Layer fc8
I0130 16:44:25.219619 103958 net.cpp:435] fc8 <- drop7
I0130 16:44:25.219622 103958 net.cpp:409] fc8 -> fc8
I0130 16:44:25.219785 103958 net.cpp:144] Setting up fc8
I0130 16:44:25.219790 103958 net.cpp:151] Top shape: 50 2 (100)
I0130 16:44:25.219794 103958 net.cpp:159] Memory required for data: 416582400
I0130 16:44:25.219799 103958 layer_factory.hpp:77] Creating layer fc8_fc8_0_split
I0130 16:44:25.219802 103958 net.cpp:94] Creating Layer fc8_fc8_0_split
I0130 16:44:25.219805 103958 net.cpp:435] fc8_fc8_0_split <- fc8
I0130 16:44:25.219810 103958 net.cpp:409] fc8_fc8_0_split -> fc8_fc8_0_split_0
I0130 16:44:25.219813 103958 net.cpp:409] fc8_fc8_0_split -> fc8_fc8_0_split_1
I0130 16:44:25.219839 103958 net.cpp:144] Setting up fc8_fc8_0_split
I0130 16:44:25.219843 103958 net.cpp:151] Top shape: 50 2 (100)
I0130 16:44:25.219846 103958 net.cpp:151] Top shape: 50 2 (100)
I0130 16:44:25.219848 103958 net.cpp:159] Memory required for data: 416583200
I0130 16:44:25.219851 103958 layer_factory.hpp:77] Creating layer loss
I0130 16:44:25.219856 103958 net.cpp:94] Creating Layer loss
I0130 16:44:25.219858 103958 net.cpp:435] loss <- fc8_fc8_0_split_0
I0130 16:44:25.219861 103958 net.cpp:435] loss <- label_data_1_split_0
I0130 16:44:25.219866 103958 net.cpp:409] loss -> loss
…
