…
I0130 23:57:22.312376 110996 caffe_interface.cpp:70] GPU device name: Quadro P6000
I0130 23:57:22.312719 110996 net.cpp:323] The NetState phase (1) differed from the phase (0) specified by a rule in layer data
I0130 23:57:22.312880 110996 net.cpp:52] Initializing net from parameters: 
state {
  phase: TEST
}
layer {
  name: "data"
  type: "Data"
  top: "data"
  top: "label"
  include {
    phase: TEST
  }
  transform_param {
    mirror: false
    crop_size: 227
    mean_value: 106
    mean_value: 116
    mean_value: 124
  }
  data_param {
    source: "cats-vs-dogs/input/lmdb/valid_lmdb"
    batch_size: 50
    backend: LMDB
  }
}
layer {
  name: "conv1"
  type: "Convolution"
  bottom: "data"
  top: "conv1"
  param {
    lr_mult: 1
    decay_mult: 1
  }
  param {
    lr_mult: 2
    decay_mult: 0
  }
  convolution_param {
    num_output: 96
    pad: 1
    kernel_size: 11
    stride: 4
    weight_filler {
      type: "gaussian"
      std: 0.01
    }
    bias_filler {
      type: "constant"
      value: 0
    }
  }
}
layer {
  name: "bn1"
  type: "BatchNorm"
  bottom: "conv1"
  top: "scale1"
  param {
    lr_mult: 1
    decay_mult: 0
  }
  param {
    lr_mult: 1
    decay_mult: 0
  }
  param {
    lr_mult: 0
    decay_mult: 0
  }
  param {
    lr_mult: 0
    decay_mult: 0
  }
  batch_norm_param {
    use_global_stats: false
    scale_filler {
      type: "constant"
      value: 1
    }
    bias_filler {
      type: "constant"
      value: 0
    }
  }
}
layer {
  name: "relu1"
  type: "ReLU"
  bottom: "scale1"
  top: "relu1"
}
layer {
  name: "pool1"
  type: "Pooling"
  bottom: "relu1"
  top: "pool1"
  pooling_param {
    pool: MAX
    kernel_size: 3
    stride: 2
  }
}
layer {
  name: "conv2"
  type: "Convolution"
  bottom: "pool1"
  top: "conv2"
  param {
    lr_mult: 1
    decay_mult: 1
  }
  param {
    lr_mult: 2
    decay_mult: 0
  }
  convolution_param {
    num_output: 256
    pad: 2
    kernel_size: 5
    group: 1
    weight_filler {
      type: "gaussian"
      std: 0.01
    }
    bias_filler {
      type: "constant"
      value: 1
    }
  }
}
layer {
  name: "bn2"
  type: "BatchNorm"
  bottom: "conv2"
  top: "scale2"
  param {
    lr_mult: 1
    decay_mult: 0
  }
  param {
    lr_mult: 1
    decay_mult: 0
  }
  param {
    lr_mult: 0
    decay_mult: 0
  }
  param {
    lr_mult: 0
    decay_mult: 0
  }
  batch_norm_param {
    use_global_stats: false
    scale_filler {
      type: "constant"
      value: 1
    }
    bias_filler {
      type: "constant"
      value: 0
    }
  }
}
layer {
  name: "relu2"
  type: "ReLU"
  bottom: "scale2"
  top: "relu2"
}
layer {
  name: "pool2"
  type: "Pooling"
  bottom: "relu2"
  top: "pool2"
  pooling_param {
    pool: MAX
    kernel_size: 3
    stride: 2
  }
}
layer {
  name: "conv3"
  type: "Convolution"
  bottom: "pool2"
  top: "conv3"
  param {
    lr_mult: 1
    decay_mult: 1
  }
  param {
    lr_mult: 2
    decay_mult: 0
  }
  convolution_param {
    num_output: 384
    pad: 1
    kernel_size: 3
    weight_filler {
      type: "gaussian"
      std: 0.01
    }
    bias_filler {
      type: "constant"
      value: 0
    }
  }
}
layer {
  name: "relu3"
  type: "ReLU"
  bottom: "conv3"
  top: "relu3"
}
layer {
  name: "conv4"
  type: "Convolution"
  bottom: "relu3"
  top: "conv4"
  param {
    lr_mult: 1
    decay_mult: 1
  }
  param {
    lr_mult: 2
    decay_mult: 0
  }
  convolution_param {
    num_output: 384
    pad: 1
    kernel_size: 3
    group: 1
    weight_filler {
      type: "gaussian"
      std: 0.01
    }
    bias_filler {
      type: "constant"
      value: 1
    }
  }
}
layer {
  name: "relu4"
  type: "ReLU"
  bottom: "conv4"
  top: "relu4"
}
layer {
  name: "conv5"
  type: "Convolution"
  bottom: "relu4"
  top: "conv5"
  param {
    lr_mult: 1
    decay_mult: 1
  }
  param {
    lr_mult: 2
    decay_mult: 0
  }
  convolution_param {
    num_output: 256
    pad: 1
    kernel_size: 3
    group: 1
    weight_filler {
      type: "gaussian"
      std: 0.01
    }
    bias_filler {
      type: "constant"
      value: 1
    }
  }
}
layer {
  name: "relu5"
  type: "ReLU"
  bottom: "conv5"
  top: "relu5"
}
layer {
  name: "pool5"
  type: "Pooling"
  bottom: "relu5"
  top: "pool5"
  pooling_param {
    pool: MAX
    kernel_size: 3
    stride: 2
  }
}
layer {
  name: "fc6"
  type: "InnerProduct"
  bottom: "pool5"
  top: "fc6"
  param {
    lr_mult: 1
    decay_mult: 1
  }
  param {
    lr_mult: 2
    decay_mult: 0
  }
  inner_product_param {
    num_output: 4096
    weight_filler {
      type: "gaussian"
      std: 0.005
    }
    bias_filler {
      type: "constant"
      value: 1
    }
  }
}
layer {
  name: "relu6"
  type: "ReLU"
  bottom: "fc6"
  top: "relu6"
}
layer {
  name: "drop6"
  type: "Dropout"
  bottom: "relu6"
  top: "drop6"
  dropout_param {
    dropout_ratio: 0.5
  }
}
layer {
  name: "fc7"
  type: "InnerProduct"
  bottom: "drop6"
  top: "fc7"
  param {
    lr_mult: 1
    decay_mult: 1
  }
  param {
    lr_mult: 2
    decay_mult: 0
  }
  inner_product_param {
    num_output: 4096
    weight_filler {
      type: "gaussian"
      std: 0.005
    }
    bias_filler {
      type: "constant"
      value: 1
    }
  }
}
layer {
  name: "bn7"
  type: "BatchNorm"
  bottom: "fc7"
  top: "scale7"
  param {
    lr_mult: 1
    decay_mult: 0
  }
  param {
    lr_mult: 1
    decay_mult: 0
  }
  param {
    lr_mult: 0
    decay_mult: 0
  }
  param {
    lr_mult: 0
    decay_mult: 0
  }
  batch_norm_param {
    use_global_stats: false
    scale_filler {
      type: "constant"
      value: 1
    }
    bias_filler {
      type: "constant"
      value: 0
    }
  }
}
layer {
  name: "relu7"
  type: "ReLU"
  bottom: "scale7"
  top: "relu7"
}
layer {
  name: "drop7"
  type: "Dropout"
  bottom: "relu7"
  top: "drop7"
  dropout_param {
    dropout_ratio: 0.5
  }
}
layer {
  name: "fc8"
  type: "InnerProduct"
  bottom: "drop7"
  top: "fc8"
  param {
    lr_mult: 1
    decay_mult: 1
  }
  param {
    lr_mult: 2
    decay_mult: 0
  }
  inner_product_param {
    num_output: 2
    weight_filler {
      type: "gaussian"
      std: 0.01
    }
    bias_filler {
      type: "constant"
      value: 0
    }
  }
}
layer {
  name: "loss"
  type: "SoftmaxWithLoss"
  bottom: "fc8"
  bottom: "label"
  top: "loss"
}
layer {
  name: "accuracy-top1"
  type: "Accuracy"
  bottom: "fc8"
  bottom: "label"
  top: "top-1"
  include {
    phase: TEST
  }
}
I0130 23:57:22.312983 110996 layer_factory.hpp:77] Creating layer data
I0130 23:57:22.313019 110996 internal_thread.cpp:27] Starting internal thread(s) on GPU 0
I0130 23:57:22.313418 110996 net.cpp:94] Creating Layer data
I0130 23:57:22.313426 110996 net.cpp:409] data -> data
I0130 23:57:22.313433 110996 net.cpp:409] data -> label
I0130 23:57:22.314939 112207 db_lmdb.cpp:35] Opened lmdb cats-vs-dogs/input/lmdb/valid_lmdb
I0130 23:57:22.314973 112207 data_reader.cpp:117] TEST: reading data using 1 channel(s)
I0130 23:57:22.315131 110996 data_layer.cpp:78] ReshapePrefetch 50, 3, 227, 227
I0130 23:57:22.315198 110996 data_layer.cpp:83] output data size: 50,3,227,227
I0130 23:57:22.407054 110996 internal_thread.cpp:27] Starting internal thread(s) on GPU 0
I0130 23:57:22.407124 110996 net.cpp:144] Setting up data
I0130 23:57:22.407130 110996 net.cpp:151] Top shape: 50 3 227 227 (7729350)
I0130 23:57:22.407133 110996 net.cpp:151] Top shape: 50 (50)
I0130 23:57:22.407135 110996 net.cpp:159] Memory required for data: 30917600
I0130 23:57:22.407140 110996 layer_factory.hpp:77] Creating layer label_data_1_split
I0130 23:57:22.407150 110996 net.cpp:94] Creating Layer label_data_1_split
I0130 23:57:22.407152 110996 net.cpp:435] label_data_1_split <- label
I0130 23:57:22.407157 110996 net.cpp:409] label_data_1_split -> label_data_1_split_0
I0130 23:57:22.407181 110996 net.cpp:409] label_data_1_split -> label_data_1_split_1
I0130 23:57:22.407238 110996 net.cpp:144] Setting up label_data_1_split
I0130 23:57:22.407243 110996 net.cpp:151] Top shape: 50 (50)
I0130 23:57:22.407245 110996 net.cpp:151] Top shape: 50 (50)
I0130 23:57:22.407266 110996 net.cpp:159] Memory required for data: 30918000
I0130 23:57:22.407269 110996 layer_factory.hpp:77] Creating layer conv1
I0130 23:57:22.407279 110996 net.cpp:94] Creating Layer conv1
I0130 23:57:22.407281 110996 net.cpp:435] conv1 <- data
I0130 23:57:22.407286 110996 net.cpp:409] conv1 -> conv1
I0130 23:57:22.408942 110996 net.cpp:144] Setting up conv1
I0130 23:57:22.408953 110996 net.cpp:151] Top shape: 50 96 55 55 (14520000)
I0130 23:57:22.408957 110996 net.cpp:159] Memory required for data: 88998000
I0130 23:57:22.408982 110996 layer_factory.hpp:77] Creating layer bn1
I0130 23:57:22.408991 110996 net.cpp:94] Creating Layer bn1
I0130 23:57:22.408993 110996 net.cpp:435] bn1 <- conv1
I0130 23:57:22.408999 110996 net.cpp:409] bn1 -> scale1
I0130 23:57:22.409785 110996 net.cpp:144] Setting up bn1
I0130 23:57:22.409791 110996 net.cpp:151] Top shape: 50 96 55 55 (14520000)
I0130 23:57:22.409795 110996 net.cpp:159] Memory required for data: 147078000
I0130 23:57:22.409803 110996 layer_factory.hpp:77] Creating layer relu1
I0130 23:57:22.409809 110996 net.cpp:94] Creating Layer relu1
I0130 23:57:22.409812 110996 net.cpp:435] relu1 <- scale1
I0130 23:57:22.409816 110996 net.cpp:409] relu1 -> relu1
I0130 23:57:22.409843 110996 net.cpp:144] Setting up relu1
I0130 23:57:22.409848 110996 net.cpp:151] Top shape: 50 96 55 55 (14520000)
I0130 23:57:22.409850 110996 net.cpp:159] Memory required for data: 205158000
I0130 23:57:22.409853 110996 layer_factory.hpp:77] Creating layer pool1
I0130 23:57:22.409858 110996 net.cpp:94] Creating Layer pool1
I0130 23:57:22.409862 110996 net.cpp:435] pool1 <- relu1
I0130 23:57:22.409865 110996 net.cpp:409] pool1 -> pool1
I0130 23:57:22.409932 110996 net.cpp:144] Setting up pool1
I0130 23:57:22.409937 110996 net.cpp:151] Top shape: 50 96 27 27 (3499200)
I0130 23:57:22.409941 110996 net.cpp:159] Memory required for data: 219154800
I0130 23:57:22.409943 110996 layer_factory.hpp:77] Creating layer conv2
I0130 23:57:22.409950 110996 net.cpp:94] Creating Layer conv2
I0130 23:57:22.409952 110996 net.cpp:435] conv2 <- pool1
I0130 23:57:22.409956 110996 net.cpp:409] conv2 -> conv2
I0130 23:57:22.418179 110996 net.cpp:144] Setting up conv2
I0130 23:57:22.418205 110996 net.cpp:151] Top shape: 50 256 27 27 (9331200)
I0130 23:57:22.418207 110996 net.cpp:159] Memory required for data: 256479600
I0130 23:57:22.418220 110996 layer_factory.hpp:77] Creating layer bn2
I0130 23:57:22.418231 110996 net.cpp:94] Creating Layer bn2
I0130 23:57:22.418236 110996 net.cpp:435] bn2 <- conv2
I0130 23:57:22.418241 110996 net.cpp:409] bn2 -> scale2
I0130 23:57:22.418857 110996 net.cpp:144] Setting up bn2
I0130 23:57:22.418864 110996 net.cpp:151] Top shape: 50 256 27 27 (9331200)
I0130 23:57:22.418867 110996 net.cpp:159] Memory required for data: 293804400
I0130 23:57:22.418875 110996 layer_factory.hpp:77] Creating layer relu2
I0130 23:57:22.418882 110996 net.cpp:94] Creating Layer relu2
I0130 23:57:22.418885 110996 net.cpp:435] relu2 <- scale2
I0130 23:57:22.418889 110996 net.cpp:409] relu2 -> relu2
I0130 23:57:22.418907 110996 net.cpp:144] Setting up relu2
I0130 23:57:22.418911 110996 net.cpp:151] Top shape: 50 256 27 27 (9331200)
I0130 23:57:22.418915 110996 net.cpp:159] Memory required for data: 331129200
I0130 23:57:22.418917 110996 layer_factory.hpp:77] Creating layer pool2
I0130 23:57:22.418922 110996 net.cpp:94] Creating Layer pool2
I0130 23:57:22.418926 110996 net.cpp:435] pool2 <- relu2
I0130 23:57:22.418929 110996 net.cpp:409] pool2 -> pool2
I0130 23:57:22.418956 110996 net.cpp:144] Setting up pool2
I0130 23:57:22.418961 110996 net.cpp:151] Top shape: 50 256 13 13 (2163200)
I0130 23:57:22.418964 110996 net.cpp:159] Memory required for data: 339782000
I0130 23:57:22.418967 110996 layer_factory.hpp:77] Creating layer conv3
I0130 23:57:22.418974 110996 net.cpp:94] Creating Layer conv3
I0130 23:57:22.418977 110996 net.cpp:435] conv3 <- pool2
I0130 23:57:22.418983 110996 net.cpp:409] conv3 -> conv3
I0130 23:57:22.433590 110996 net.cpp:144] Setting up conv3
I0130 23:57:22.433640 110996 net.cpp:151] Top shape: 50 384 13 13 (3244800)
I0130 23:57:22.433645 110996 net.cpp:159] Memory required for data: 352761200
I0130 23:57:22.433657 110996 layer_factory.hpp:77] Creating layer relu3
I0130 23:57:22.433670 110996 net.cpp:94] Creating Layer relu3
I0130 23:57:22.433676 110996 net.cpp:435] relu3 <- conv3
I0130 23:57:22.433686 110996 net.cpp:409] relu3 -> relu3
I0130 23:57:22.433718 110996 net.cpp:144] Setting up relu3
I0130 23:57:22.433745 110996 net.cpp:151] Top shape: 50 384 13 13 (3244800)
I0130 23:57:22.433769 110996 net.cpp:159] Memory required for data: 365740400
I0130 23:57:22.433787 110996 layer_factory.hpp:77] Creating layer conv4
I0130 23:57:22.433812 110996 net.cpp:94] Creating Layer conv4
I0130 23:57:22.433827 110996 net.cpp:435] conv4 <- relu3
I0130 23:57:22.433845 110996 net.cpp:409] conv4 -> conv4
I0130 23:57:22.448984 110996 net.cpp:144] Setting up conv4
I0130 23:57:22.449007 110996 net.cpp:151] Top shape: 50 384 13 13 (3244800)
I0130 23:57:22.449009 110996 net.cpp:159] Memory required for data: 378719600
I0130 23:57:22.449035 110996 layer_factory.hpp:77] Creating layer relu4
I0130 23:57:22.449041 110996 net.cpp:94] Creating Layer relu4
I0130 23:57:22.449045 110996 net.cpp:435] relu4 <- conv4
I0130 23:57:22.449062 110996 net.cpp:409] relu4 -> relu4
I0130 23:57:22.449086 110996 net.cpp:144] Setting up relu4
I0130 23:57:22.449090 110996 net.cpp:151] Top shape: 50 384 13 13 (3244800)
I0130 23:57:22.449095 110996 net.cpp:159] Memory required for data: 391698800
I0130 23:57:22.449097 110996 layer_factory.hpp:77] Creating layer conv5
I0130 23:57:22.449108 110996 net.cpp:94] Creating Layer conv5
I0130 23:57:22.449116 110996 net.cpp:435] conv5 <- relu4
I0130 23:57:22.449122 110996 net.cpp:409] conv5 -> conv5
I0130 23:57:22.459805 110996 net.cpp:144] Setting up conv5
I0130 23:57:22.459826 110996 net.cpp:151] Top shape: 50 256 13 13 (2163200)
I0130 23:57:22.459828 110996 net.cpp:159] Memory required for data: 400351600
I0130 23:57:22.459836 110996 layer_factory.hpp:77] Creating layer relu5
I0130 23:57:22.459843 110996 net.cpp:94] Creating Layer relu5
I0130 23:57:22.459847 110996 net.cpp:435] relu5 <- conv5
I0130 23:57:22.459853 110996 net.cpp:409] relu5 -> relu5
I0130 23:57:22.459885 110996 net.cpp:144] Setting up relu5
I0130 23:57:22.459892 110996 net.cpp:151] Top shape: 50 256 13 13 (2163200)
I0130 23:57:22.459894 110996 net.cpp:159] Memory required for data: 409004400
I0130 23:57:22.459898 110996 layer_factory.hpp:77] Creating layer pool5
I0130 23:57:22.459908 110996 net.cpp:94] Creating Layer pool5
I0130 23:57:22.459911 110996 net.cpp:435] pool5 <- relu5
I0130 23:57:22.459916 110996 net.cpp:409] pool5 -> pool5
I0130 23:57:22.459947 110996 net.cpp:144] Setting up pool5
I0130 23:57:22.459954 110996 net.cpp:151] Top shape: 50 256 6 6 (460800)
I0130 23:57:22.459956 110996 net.cpp:159] Memory required for data: 410847600
I0130 23:57:22.459959 110996 layer_factory.hpp:77] Creating layer fc6
I0130 23:57:22.459965 110996 net.cpp:94] Creating Layer fc6
I0130 23:57:22.459969 110996 net.cpp:435] fc6 <- pool5
I0130 23:57:22.459973 110996 net.cpp:409] fc6 -> fc6
I0130 23:57:22.785017 110996 net.cpp:144] Setting up fc6
I0130 23:57:22.785043 110996 net.cpp:151] Top shape: 50 4096 (204800)
I0130 23:57:22.785045 110996 net.cpp:159] Memory required for data: 411666800
I0130 23:57:22.785051 110996 layer_factory.hpp:77] Creating layer relu6
I0130 23:57:22.785058 110996 net.cpp:94] Creating Layer relu6
I0130 23:57:22.785061 110996 net.cpp:435] relu6 <- fc6
I0130 23:57:22.785068 110996 net.cpp:409] relu6 -> relu6
I0130 23:57:22.785089 110996 net.cpp:144] Setting up relu6
I0130 23:57:22.785091 110996 net.cpp:151] Top shape: 50 4096 (204800)
I0130 23:57:22.785094 110996 net.cpp:159] Memory required for data: 412486000
I0130 23:57:22.785095 110996 layer_factory.hpp:77] Creating layer drop6
I0130 23:57:22.785100 110996 net.cpp:94] Creating Layer drop6
I0130 23:57:22.785102 110996 net.cpp:435] drop6 <- relu6
I0130 23:57:22.785105 110996 net.cpp:409] drop6 -> drop6
I0130 23:57:22.785152 110996 net.cpp:144] Setting up drop6
I0130 23:57:22.785176 110996 net.cpp:151] Top shape: 50 4096 (204800)
I0130 23:57:22.785178 110996 net.cpp:159] Memory required for data: 413305200
I0130 23:57:22.785181 110996 layer_factory.hpp:77] Creating layer fc7
I0130 23:57:22.785187 110996 net.cpp:94] Creating Layer fc7
I0130 23:57:22.785189 110996 net.cpp:435] fc7 <- drop6
I0130 23:57:22.785193 110996 net.cpp:409] fc7 -> fc7
I0130 23:57:22.927306 110996 net.cpp:144] Setting up fc7
I0130 23:57:22.927330 110996 net.cpp:151] Top shape: 50 4096 (204800)
I0130 23:57:22.927332 110996 net.cpp:159] Memory required for data: 414124400
I0130 23:57:22.927356 110996 layer_factory.hpp:77] Creating layer bn7
I0130 23:57:22.927364 110996 net.cpp:94] Creating Layer bn7
I0130 23:57:22.927367 110996 net.cpp:435] bn7 <- fc7
I0130 23:57:22.927373 110996 net.cpp:409] bn7 -> scale7
I0130 23:57:22.927891 110996 net.cpp:144] Setting up bn7
I0130 23:57:22.927897 110996 net.cpp:151] Top shape: 50 4096 (204800)
I0130 23:57:22.927901 110996 net.cpp:159] Memory required for data: 414943600
I0130 23:57:22.927907 110996 layer_factory.hpp:77] Creating layer relu7
I0130 23:57:22.927911 110996 net.cpp:94] Creating Layer relu7
I0130 23:57:22.927914 110996 net.cpp:435] relu7 <- scale7
I0130 23:57:22.927918 110996 net.cpp:409] relu7 -> relu7
I0130 23:57:22.927934 110996 net.cpp:144] Setting up relu7
I0130 23:57:22.927939 110996 net.cpp:151] Top shape: 50 4096 (204800)
I0130 23:57:22.927942 110996 net.cpp:159] Memory required for data: 415762800
I0130 23:57:22.927944 110996 layer_factory.hpp:77] Creating layer drop7
I0130 23:57:22.927948 110996 net.cpp:94] Creating Layer drop7
I0130 23:57:22.927950 110996 net.cpp:435] drop7 <- relu7
I0130 23:57:22.927954 110996 net.cpp:409] drop7 -> drop7
I0130 23:57:22.927983 110996 net.cpp:144] Setting up drop7
I0130 23:57:22.927987 110996 net.cpp:151] Top shape: 50 4096 (204800)
I0130 23:57:22.927989 110996 net.cpp:159] Memory required for data: 416582000
I0130 23:57:22.927992 110996 layer_factory.hpp:77] Creating layer fc8
I0130 23:57:22.927999 110996 net.cpp:94] Creating Layer fc8
I0130 23:57:22.928002 110996 net.cpp:435] fc8 <- drop7
I0130 23:57:22.928009 110996 net.cpp:409] fc8 -> fc8
I0130 23:57:22.928892 110996 net.cpp:144] Setting up fc8
I0130 23:57:22.928905 110996 net.cpp:151] Top shape: 50 2 (100)
I0130 23:57:22.928906 110996 net.cpp:159] Memory required for data: 416582400
I0130 23:57:22.928913 110996 layer_factory.hpp:77] Creating layer fc8_fc8_0_split
I0130 23:57:22.928920 110996 net.cpp:94] Creating Layer fc8_fc8_0_split
I0130 23:57:22.928925 110996 net.cpp:435] fc8_fc8_0_split <- fc8
I0130 23:57:22.928930 110996 net.cpp:409] fc8_fc8_0_split -> fc8_fc8_0_split_0
I0130 23:57:22.928938 110996 net.cpp:409] fc8_fc8_0_split -> fc8_fc8_0_split_1
I0130 23:57:22.928966 110996 net.cpp:144] Setting up fc8_fc8_0_split
I0130 23:57:22.928972 110996 net.cpp:151] Top shape: 50 2 (100)
I0130 23:57:22.928974 110996 net.cpp:151] Top shape: 50 2 (100)
I0130 23:57:22.928977 110996 net.cpp:159] Memory required for data: 416583200
I0130 23:57:22.928978 110996 layer_factory.hpp:77] Creating layer loss
I0130 23:57:22.928984 110996 net.cpp:94] Creating Layer loss
I0130 23:57:22.928987 110996 net.cpp:435] loss <- fc8_fc8_0_split_0
I0130 23:57:22.928989 110996 net.cpp:435] loss <- label_data_1_split_0
I0130 23:57:22.928994 110996 net.cpp:409] loss -> loss
…
