…
I0130 18:59:41.893375 106833 caffe_interface.cpp:70] GPU device name: Quadro P6000
I0130 18:59:41.893683 106833 net.cpp:323] The NetState phase (1) differed from the phase (0) specified by a rule in layer data
I0130 18:59:41.893857 106833 net.cpp:52] Initializing net from parameters: 
state {
  phase: TEST
}
layer {
  name: "data"
  type: "Data"
  top: "data"
  top: "label"
  include {
    phase: TEST
  }
  transform_param {
    mirror: false
    crop_size: 227
    mean_value: 106
    mean_value: 116
    mean_value: 124
  }
  data_param {
    source: "cats-vs-dogs/input/lmdb/valid_lmdb"
    batch_size: 50
    backend: LMDB
  }
}
layer {
  name: "conv1"
  type: "Convolution"
  bottom: "data"
  top: "conv1"
  param {
    lr_mult: 1
    decay_mult: 1
  }
  param {
    lr_mult: 2
    decay_mult: 0
  }
  convolution_param {
    num_output: 96
    pad: 1
    kernel_size: 11
    stride: 4
    weight_filler {
      type: "gaussian"
      std: 0.01
    }
    bias_filler {
      type: "constant"
      value: 0
    }
  }
}
layer {
  name: "bn1"
  type: "BatchNorm"
  bottom: "conv1"
  top: "scale1"
  param {
    lr_mult: 1
    decay_mult: 0
  }
  param {
    lr_mult: 1
    decay_mult: 0
  }
  param {
    lr_mult: 0
    decay_mult: 0
  }
  param {
    lr_mult: 0
    decay_mult: 0
  }
  batch_norm_param {
    use_global_stats: false
    scale_filler {
      type: "constant"
      value: 1
    }
    bias_filler {
      type: "constant"
      value: 0
    }
  }
}
layer {
  name: "relu1"
  type: "ReLU"
  bottom: "scale1"
  top: "relu1"
}
layer {
  name: "pool1"
  type: "Pooling"
  bottom: "relu1"
  top: "pool1"
  pooling_param {
    pool: MAX
    kernel_size: 3
    stride: 2
  }
}
layer {
  name: "conv2"
  type: "Convolution"
  bottom: "pool1"
  top: "conv2"
  param {
    lr_mult: 1
    decay_mult: 1
  }
  param {
    lr_mult: 2
    decay_mult: 0
  }
  convolution_param {
    num_output: 256
    pad: 2
    kernel_size: 5
    group: 1
    weight_filler {
      type: "gaussian"
      std: 0.01
    }
    bias_filler {
      type: "constant"
      value: 1
    }
  }
}
layer {
  name: "bn2"
  type: "BatchNorm"
  bottom: "conv2"
  top: "scale2"
  param {
    lr_mult: 1
    decay_mult: 0
  }
  param {
    lr_mult: 1
    decay_mult: 0
  }
  param {
    lr_mult: 0
    decay_mult: 0
  }
  param {
    lr_mult: 0
    decay_mult: 0
  }
  batch_norm_param {
    use_global_stats: false
    scale_filler {
      type: "constant"
      value: 1
    }
    bias_filler {
      type: "constant"
      value: 0
    }
  }
}
layer {
  name: "relu2"
  type: "ReLU"
  bottom: "scale2"
  top: "relu2"
}
layer {
  name: "pool2"
  type: "Pooling"
  bottom: "relu2"
  top: "pool2"
  pooling_param {
    pool: MAX
    kernel_size: 3
    stride: 2
  }
}
layer {
  name: "conv3"
  type: "Convolution"
  bottom: "pool2"
  top: "conv3"
  param {
    lr_mult: 1
    decay_mult: 1
  }
  param {
    lr_mult: 2
    decay_mult: 0
  }
  convolution_param {
    num_output: 384
    pad: 1
    kernel_size: 3
    weight_filler {
      type: "gaussian"
      std: 0.01
    }
    bias_filler {
      type: "constant"
      value: 0
    }
  }
}
layer {
  name: "relu3"
  type: "ReLU"
  bottom: "conv3"
  top: "relu3"
}
layer {
  name: "conv4"
  type: "Convolution"
  bottom: "relu3"
  top: "conv4"
  param {
    lr_mult: 1
    decay_mult: 1
  }
  param {
    lr_mult: 2
    decay_mult: 0
  }
  convolution_param {
    num_output: 384
    pad: 1
    kernel_size: 3
    group: 1
    weight_filler {
      type: "gaussian"
      std: 0.01
    }
    bias_filler {
      type: "constant"
      value: 1
    }
  }
}
layer {
  name: "relu4"
  type: "ReLU"
  bottom: "conv4"
  top: "relu4"
}
layer {
  name: "conv5"
  type: "Convolution"
  bottom: "relu4"
  top: "conv5"
  param {
    lr_mult: 1
    decay_mult: 1
  }
  param {
    lr_mult: 2
    decay_mult: 0
  }
  convolution_param {
    num_output: 256
    pad: 1
    kernel_size: 3
    group: 1
    weight_filler {
      type: "gaussian"
      std: 0.01
    }
    bias_filler {
      type: "constant"
      value: 1
    }
  }
}
layer {
  name: "relu5"
  type: "ReLU"
  bottom: "conv5"
  top: "relu5"
}
layer {
  name: "pool5"
  type: "Pooling"
  bottom: "relu5"
  top: "pool5"
  pooling_param {
    pool: MAX
    kernel_size: 3
    stride: 2
  }
}
layer {
  name: "fc6"
  type: "InnerProduct"
  bottom: "pool5"
  top: "fc6"
  param {
    lr_mult: 1
    decay_mult: 1
  }
  param {
    lr_mult: 2
    decay_mult: 0
  }
  inner_product_param {
    num_output: 4096
    weight_filler {
      type: "gaussian"
      std: 0.005
    }
    bias_filler {
      type: "constant"
      value: 1
    }
  }
}
layer {
  name: "relu6"
  type: "ReLU"
  bottom: "fc6"
  top: "relu6"
}
layer {
  name: "drop6"
  type: "Dropout"
  bottom: "relu6"
  top: "drop6"
  dropout_param {
    dropout_ratio: 0.5
  }
}
layer {
  name: "fc7"
  type: "InnerProduct"
  bottom: "drop6"
  top: "fc7"
  param {
    lr_mult: 1
    decay_mult: 1
  }
  param {
    lr_mult: 2
    decay_mult: 0
  }
  inner_product_param {
    num_output: 4096
    weight_filler {
      type: "gaussian"
      std: 0.005
    }
    bias_filler {
      type: "constant"
      value: 1
    }
  }
}
layer {
  name: "bn7"
  type: "BatchNorm"
  bottom: "fc7"
  top: "scale7"
  param {
    lr_mult: 1
    decay_mult: 0
  }
  param {
    lr_mult: 1
    decay_mult: 0
  }
  param {
    lr_mult: 0
    decay_mult: 0
  }
  param {
    lr_mult: 0
    decay_mult: 0
  }
  batch_norm_param {
    use_global_stats: false
    scale_filler {
      type: "constant"
      value: 1
    }
    bias_filler {
      type: "constant"
      value: 0
    }
  }
}
layer {
  name: "relu7"
  type: "ReLU"
  bottom: "scale7"
  top: "relu7"
}
layer {
  name: "drop7"
  type: "Dropout"
  bottom: "relu7"
  top: "drop7"
  dropout_param {
    dropout_ratio: 0.5
  }
}
layer {
  name: "fc8"
  type: "InnerProduct"
  bottom: "drop7"
  top: "fc8"
  param {
    lr_mult: 1
    decay_mult: 1
  }
  param {
    lr_mult: 2
    decay_mult: 0
  }
  inner_product_param {
    num_output: 2
    weight_filler {
      type: "gaussian"
      std: 0.01
    }
    bias_filler {
      type: "constant"
      value: 0
    }
  }
}
layer {
  name: "loss"
  type: "SoftmaxWithLoss"
  bottom: "fc8"
  bottom: "label"
  top: "loss"
}
layer {
  name: "accuracy-top1"
  type: "Accuracy"
  bottom: "fc8"
  bottom: "label"
  top: "top-1"
  include {
    phase: TEST
  }
}
I0130 18:59:41.893980 106833 layer_factory.hpp:77] Creating layer data
I0130 18:59:41.894026 106833 internal_thread.cpp:27] Starting internal thread(s) on GPU 0
I0130 18:59:41.894477 106833 net.cpp:94] Creating Layer data
I0130 18:59:41.894486 106833 net.cpp:409] data -> data
I0130 18:59:41.894495 106833 net.cpp:409] data -> label
I0130 18:59:41.895479 108044 db_lmdb.cpp:35] Opened lmdb cats-vs-dogs/input/lmdb/valid_lmdb
I0130 18:59:41.895514 108044 data_reader.cpp:117] TEST: reading data using 1 channel(s)
I0130 18:59:41.895699 106833 data_layer.cpp:78] ReshapePrefetch 50, 3, 227, 227
I0130 18:59:41.895761 106833 data_layer.cpp:83] output data size: 50,3,227,227
I0130 18:59:42.001101 106833 internal_thread.cpp:27] Starting internal thread(s) on GPU 0
I0130 18:59:42.001163 106833 net.cpp:144] Setting up data
I0130 18:59:42.001171 106833 net.cpp:151] Top shape: 50 3 227 227 (7729350)
I0130 18:59:42.001190 106833 net.cpp:151] Top shape: 50 (50)
I0130 18:59:42.001193 106833 net.cpp:159] Memory required for data: 30917600
I0130 18:59:42.001197 106833 layer_factory.hpp:77] Creating layer label_data_1_split
I0130 18:59:42.001207 106833 net.cpp:94] Creating Layer label_data_1_split
I0130 18:59:42.001210 106833 net.cpp:435] label_data_1_split <- label
I0130 18:59:42.001217 106833 net.cpp:409] label_data_1_split -> label_data_1_split_0
I0130 18:59:42.001225 106833 net.cpp:409] label_data_1_split -> label_data_1_split_1
I0130 18:59:42.001271 106833 net.cpp:144] Setting up label_data_1_split
I0130 18:59:42.001276 106833 net.cpp:151] Top shape: 50 (50)
I0130 18:59:42.001277 106833 net.cpp:151] Top shape: 50 (50)
I0130 18:59:42.001294 106833 net.cpp:159] Memory required for data: 30918000
I0130 18:59:42.001297 106833 layer_factory.hpp:77] Creating layer conv1
I0130 18:59:42.001307 106833 net.cpp:94] Creating Layer conv1
I0130 18:59:42.001309 106833 net.cpp:435] conv1 <- data
I0130 18:59:42.001313 106833 net.cpp:409] conv1 -> conv1
I0130 18:59:42.003111 106833 net.cpp:144] Setting up conv1
I0130 18:59:42.003127 106833 net.cpp:151] Top shape: 50 96 55 55 (14520000)
I0130 18:59:42.003130 106833 net.cpp:159] Memory required for data: 88998000
I0130 18:59:42.003140 106833 layer_factory.hpp:77] Creating layer bn1
I0130 18:59:42.003149 106833 net.cpp:94] Creating Layer bn1
I0130 18:59:42.003152 106833 net.cpp:435] bn1 <- conv1
I0130 18:59:42.003157 106833 net.cpp:409] bn1 -> scale1
I0130 18:59:42.003825 106833 net.cpp:144] Setting up bn1
I0130 18:59:42.003834 106833 net.cpp:151] Top shape: 50 96 55 55 (14520000)
I0130 18:59:42.003835 106833 net.cpp:159] Memory required for data: 147078000
I0130 18:59:42.003846 106833 layer_factory.hpp:77] Creating layer relu1
I0130 18:59:42.003851 106833 net.cpp:94] Creating Layer relu1
I0130 18:59:42.003855 106833 net.cpp:435] relu1 <- scale1
I0130 18:59:42.003859 106833 net.cpp:409] relu1 -> relu1
I0130 18:59:42.003886 106833 net.cpp:144] Setting up relu1
I0130 18:59:42.003891 106833 net.cpp:151] Top shape: 50 96 55 55 (14520000)
I0130 18:59:42.003895 106833 net.cpp:159] Memory required for data: 205158000
I0130 18:59:42.003897 106833 layer_factory.hpp:77] Creating layer pool1
I0130 18:59:42.003902 106833 net.cpp:94] Creating Layer pool1
I0130 18:59:42.003906 106833 net.cpp:435] pool1 <- relu1
I0130 18:59:42.003909 106833 net.cpp:409] pool1 -> pool1
I0130 18:59:42.003975 106833 net.cpp:144] Setting up pool1
I0130 18:59:42.003980 106833 net.cpp:151] Top shape: 50 96 27 27 (3499200)
I0130 18:59:42.003983 106833 net.cpp:159] Memory required for data: 219154800
I0130 18:59:42.003985 106833 layer_factory.hpp:77] Creating layer conv2
I0130 18:59:42.003993 106833 net.cpp:94] Creating Layer conv2
I0130 18:59:42.003995 106833 net.cpp:435] conv2 <- pool1
I0130 18:59:42.003999 106833 net.cpp:409] conv2 -> conv2
I0130 18:59:42.010937 106833 net.cpp:144] Setting up conv2
I0130 18:59:42.010960 106833 net.cpp:151] Top shape: 50 256 27 27 (9331200)
I0130 18:59:42.010964 106833 net.cpp:159] Memory required for data: 256479600
I0130 18:59:42.010977 106833 layer_factory.hpp:77] Creating layer bn2
I0130 18:59:42.010989 106833 net.cpp:94] Creating Layer bn2
I0130 18:59:42.010993 106833 net.cpp:435] bn2 <- conv2
I0130 18:59:42.011000 106833 net.cpp:409] bn2 -> scale2
I0130 18:59:42.011597 106833 net.cpp:144] Setting up bn2
I0130 18:59:42.011610 106833 net.cpp:151] Top shape: 50 256 27 27 (9331200)
I0130 18:59:42.011613 106833 net.cpp:159] Memory required for data: 293804400
I0130 18:59:42.011621 106833 layer_factory.hpp:77] Creating layer relu2
I0130 18:59:42.011627 106833 net.cpp:94] Creating Layer relu2
I0130 18:59:42.011631 106833 net.cpp:435] relu2 <- scale2
I0130 18:59:42.011636 106833 net.cpp:409] relu2 -> relu2
I0130 18:59:42.011654 106833 net.cpp:144] Setting up relu2
I0130 18:59:42.011658 106833 net.cpp:151] Top shape: 50 256 27 27 (9331200)
I0130 18:59:42.011662 106833 net.cpp:159] Memory required for data: 331129200
I0130 18:59:42.011664 106833 layer_factory.hpp:77] Creating layer pool2
I0130 18:59:42.011670 106833 net.cpp:94] Creating Layer pool2
I0130 18:59:42.011673 106833 net.cpp:435] pool2 <- relu2
I0130 18:59:42.011678 106833 net.cpp:409] pool2 -> pool2
I0130 18:59:42.011708 106833 net.cpp:144] Setting up pool2
I0130 18:59:42.011711 106833 net.cpp:151] Top shape: 50 256 13 13 (2163200)
I0130 18:59:42.011713 106833 net.cpp:159] Memory required for data: 339782000
I0130 18:59:42.011718 106833 layer_factory.hpp:77] Creating layer conv3
I0130 18:59:42.011725 106833 net.cpp:94] Creating Layer conv3
I0130 18:59:42.011728 106833 net.cpp:435] conv3 <- pool2
I0130 18:59:42.011732 106833 net.cpp:409] conv3 -> conv3
I0130 18:59:42.021785 106833 net.cpp:144] Setting up conv3
I0130 18:59:42.021826 106833 net.cpp:151] Top shape: 50 384 13 13 (3244800)
I0130 18:59:42.021828 106833 net.cpp:159] Memory required for data: 352761200
I0130 18:59:42.021836 106833 layer_factory.hpp:77] Creating layer relu3
I0130 18:59:42.021844 106833 net.cpp:94] Creating Layer relu3
I0130 18:59:42.021848 106833 net.cpp:435] relu3 <- conv3
I0130 18:59:42.021854 106833 net.cpp:409] relu3 -> relu3
I0130 18:59:42.021888 106833 net.cpp:144] Setting up relu3
I0130 18:59:42.021895 106833 net.cpp:151] Top shape: 50 384 13 13 (3244800)
I0130 18:59:42.021898 106833 net.cpp:159] Memory required for data: 365740400
I0130 18:59:42.021900 106833 layer_factory.hpp:77] Creating layer conv4
I0130 18:59:42.021909 106833 net.cpp:94] Creating Layer conv4
I0130 18:59:42.021914 106833 net.cpp:435] conv4 <- relu3
I0130 18:59:42.021919 106833 net.cpp:409] conv4 -> conv4
I0130 18:59:42.039101 106833 net.cpp:144] Setting up conv4
I0130 18:59:42.039127 106833 net.cpp:151] Top shape: 50 384 13 13 (3244800)
I0130 18:59:42.039132 106833 net.cpp:159] Memory required for data: 378719600
I0130 18:59:42.039149 106833 layer_factory.hpp:77] Creating layer relu4
I0130 18:59:42.039160 106833 net.cpp:94] Creating Layer relu4
I0130 18:59:42.039163 106833 net.cpp:435] relu4 <- conv4
I0130 18:59:42.039172 106833 net.cpp:409] relu4 -> relu4
I0130 18:59:42.039197 106833 net.cpp:144] Setting up relu4
I0130 18:59:42.039201 106833 net.cpp:151] Top shape: 50 384 13 13 (3244800)
I0130 18:59:42.039204 106833 net.cpp:159] Memory required for data: 391698800
I0130 18:59:42.039208 106833 layer_factory.hpp:77] Creating layer conv5
I0130 18:59:42.039217 106833 net.cpp:94] Creating Layer conv5
I0130 18:59:42.039221 106833 net.cpp:435] conv5 <- relu4
I0130 18:59:42.039225 106833 net.cpp:409] conv5 -> conv5
I0130 18:59:42.051429 106833 net.cpp:144] Setting up conv5
I0130 18:59:42.051512 106833 net.cpp:151] Top shape: 50 256 13 13 (2163200)
I0130 18:59:42.051529 106833 net.cpp:159] Memory required for data: 400351600
I0130 18:59:42.051553 106833 layer_factory.hpp:77] Creating layer relu5
I0130 18:59:42.051578 106833 net.cpp:94] Creating Layer relu5
I0130 18:59:42.051605 106833 net.cpp:435] relu5 <- conv5
I0130 18:59:42.051626 106833 net.cpp:409] relu5 -> relu5
I0130 18:59:42.051688 106833 net.cpp:144] Setting up relu5
I0130 18:59:42.051709 106833 net.cpp:151] Top shape: 50 256 13 13 (2163200)
I0130 18:59:42.051726 106833 net.cpp:159] Memory required for data: 409004400
I0130 18:59:42.051743 106833 layer_factory.hpp:77] Creating layer pool5
I0130 18:59:42.051769 106833 net.cpp:94] Creating Layer pool5
I0130 18:59:42.051775 106833 net.cpp:435] pool5 <- relu5
I0130 18:59:42.051784 106833 net.cpp:409] pool5 -> pool5
I0130 18:59:42.051829 106833 net.cpp:144] Setting up pool5
I0130 18:59:42.051837 106833 net.cpp:151] Top shape: 50 256 6 6 (460800)
I0130 18:59:42.051842 106833 net.cpp:159] Memory required for data: 410847600
I0130 18:59:42.051846 106833 layer_factory.hpp:77] Creating layer fc6
I0130 18:59:42.051856 106833 net.cpp:94] Creating Layer fc6
I0130 18:59:42.051861 106833 net.cpp:435] fc6 <- pool5
I0130 18:59:42.051868 106833 net.cpp:409] fc6 -> fc6
I0130 18:59:42.378226 106833 net.cpp:144] Setting up fc6
I0130 18:59:42.378249 106833 net.cpp:151] Top shape: 50 4096 (204800)
I0130 18:59:42.378252 106833 net.cpp:159] Memory required for data: 411666800
I0130 18:59:42.378259 106833 layer_factory.hpp:77] Creating layer relu6
I0130 18:59:42.378266 106833 net.cpp:94] Creating Layer relu6
I0130 18:59:42.378270 106833 net.cpp:435] relu6 <- fc6
I0130 18:59:42.378275 106833 net.cpp:409] relu6 -> relu6
I0130 18:59:42.378298 106833 net.cpp:144] Setting up relu6
I0130 18:59:42.378301 106833 net.cpp:151] Top shape: 50 4096 (204800)
I0130 18:59:42.378304 106833 net.cpp:159] Memory required for data: 412486000
I0130 18:59:42.378305 106833 layer_factory.hpp:77] Creating layer drop6
I0130 18:59:42.378310 106833 net.cpp:94] Creating Layer drop6
I0130 18:59:42.378312 106833 net.cpp:435] drop6 <- relu6
I0130 18:59:42.378315 106833 net.cpp:409] drop6 -> drop6
I0130 18:59:42.378352 106833 net.cpp:144] Setting up drop6
I0130 18:59:42.378376 106833 net.cpp:151] Top shape: 50 4096 (204800)
I0130 18:59:42.378377 106833 net.cpp:159] Memory required for data: 413305200
I0130 18:59:42.378379 106833 layer_factory.hpp:77] Creating layer fc7
I0130 18:59:42.378384 106833 net.cpp:94] Creating Layer fc7
I0130 18:59:42.378387 106833 net.cpp:435] fc7 <- drop6
I0130 18:59:42.378391 106833 net.cpp:409] fc7 -> fc7
I0130 18:59:42.515946 106833 net.cpp:144] Setting up fc7
I0130 18:59:42.515970 106833 net.cpp:151] Top shape: 50 4096 (204800)
I0130 18:59:42.515974 106833 net.cpp:159] Memory required for data: 414124400
I0130 18:59:42.515995 106833 layer_factory.hpp:77] Creating layer bn7
I0130 18:59:42.516005 106833 net.cpp:94] Creating Layer bn7
I0130 18:59:42.516008 106833 net.cpp:435] bn7 <- fc7
I0130 18:59:42.516016 106833 net.cpp:409] bn7 -> scale7
I0130 18:59:42.516518 106833 net.cpp:144] Setting up bn7
I0130 18:59:42.516525 106833 net.cpp:151] Top shape: 50 4096 (204800)
I0130 18:59:42.516527 106833 net.cpp:159] Memory required for data: 414943600
I0130 18:59:42.516535 106833 layer_factory.hpp:77] Creating layer relu7
I0130 18:59:42.516539 106833 net.cpp:94] Creating Layer relu7
I0130 18:59:42.516541 106833 net.cpp:435] relu7 <- scale7
I0130 18:59:42.516546 106833 net.cpp:409] relu7 -> relu7
I0130 18:59:42.516563 106833 net.cpp:144] Setting up relu7
I0130 18:59:42.516568 106833 net.cpp:151] Top shape: 50 4096 (204800)
I0130 18:59:42.516571 106833 net.cpp:159] Memory required for data: 415762800
I0130 18:59:42.516573 106833 layer_factory.hpp:77] Creating layer drop7
I0130 18:59:42.516578 106833 net.cpp:94] Creating Layer drop7
I0130 18:59:42.516582 106833 net.cpp:435] drop7 <- relu7
I0130 18:59:42.516584 106833 net.cpp:409] drop7 -> drop7
I0130 18:59:42.516607 106833 net.cpp:144] Setting up drop7
I0130 18:59:42.516613 106833 net.cpp:151] Top shape: 50 4096 (204800)
I0130 18:59:42.516615 106833 net.cpp:159] Memory required for data: 416582000
I0130 18:59:42.516618 106833 layer_factory.hpp:77] Creating layer fc8
I0130 18:59:42.516623 106833 net.cpp:94] Creating Layer fc8
I0130 18:59:42.516625 106833 net.cpp:435] fc8 <- drop7
I0130 18:59:42.516629 106833 net.cpp:409] fc8 -> fc8
I0130 18:59:42.517526 106833 net.cpp:144] Setting up fc8
I0130 18:59:42.517537 106833 net.cpp:151] Top shape: 50 2 (100)
I0130 18:59:42.517540 106833 net.cpp:159] Memory required for data: 416582400
I0130 18:59:42.517546 106833 layer_factory.hpp:77] Creating layer fc8_fc8_0_split
I0130 18:59:42.517552 106833 net.cpp:94] Creating Layer fc8_fc8_0_split
I0130 18:59:42.517556 106833 net.cpp:435] fc8_fc8_0_split <- fc8
I0130 18:59:42.517561 106833 net.cpp:409] fc8_fc8_0_split -> fc8_fc8_0_split_0
I0130 18:59:42.517567 106833 net.cpp:409] fc8_fc8_0_split -> fc8_fc8_0_split_1
I0130 18:59:42.517593 106833 net.cpp:144] Setting up fc8_fc8_0_split
I0130 18:59:42.517598 106833 net.cpp:151] Top shape: 50 2 (100)
I0130 18:59:42.517602 106833 net.cpp:151] Top shape: 50 2 (100)
I0130 18:59:42.517604 106833 net.cpp:159] Memory required for data: 416583200
I0130 18:59:42.517606 106833 layer_factory.hpp:77] Creating layer loss
I0130 18:59:42.517611 106833 net.cpp:94] Creating Layer loss
I0130 18:59:42.517614 106833 net.cpp:435] loss <- fc8_fc8_0_split_0
I0130 18:59:42.517617 106833 net.cpp:435] loss <- label_data_1_split_0
I0130 18:59:42.517622 106833 net.cpp:409] loss -> loss
…
