…
I0130 23:57:28.467195 112238 net.cpp:323] The NetState phase (0) differed from the phase (1) specified by a rule in layer accuracy-top1
I0130 23:57:28.467342 112238 net.cpp:52] Initializing net from parameters: 
state {
  phase: TRAIN
}
layer {
  name: "data"
  type: "Data"
  top: "data"
  top: "label"
  include {
    phase: TRAIN
  }
  transform_param {
    mirror: true
    crop_size: 227
    mean_value: 106
    mean_value: 116
    mean_value: 124
  }
  data_param {
    source: "cats-vs-dogs/input/lmdb/train_lmdb"
    batch_size: 256
    backend: LMDB
  }
}
layer {
  name: "conv1"
  type: "Convolution"
  bottom: "data"
  top: "conv1"
  param {
    lr_mult: 1
    decay_mult: 1
    compression: PRUNE
  }
  param {
    lr_mult: 2
    decay_mult: 0
    compression: PRUNE
  }
  convolution_param {
    num_output: 96
    pad: 1
    kernel_size: 11
    stride: 4
    weight_filler {
      type: "gaussian"
      std: 0.01
    }
    bias_filler {
      type: "constant"
      value: 0
    }
  }
}
layer {
  name: "bn1"
  type: "BatchNorm"
  bottom: "conv1"
  top: "scale1"
  param {
    lr_mult: 1
    decay_mult: 0
    compression: PRUNE
  }
  param {
    lr_mult: 1
    decay_mult: 0
    compression: PRUNE
  }
  param {
    lr_mult: 0
    decay_mult: 0
    compression: PRUNE
  }
  param {
    lr_mult: 0
    decay_mult: 0
    compression: PRUNE
  }
  batch_norm_param {
    use_global_stats: false
    scale_filler {
      type: "constant"
      value: 1
    }
    bias_filler {
      type: "constant"
      value: 0
    }
  }
}
layer {
  name: "relu1"
  type: "ReLU"
  bottom: "scale1"
  top: "relu1"
}
layer {
  name: "pool1"
  type: "Pooling"
  bottom: "relu1"
  top: "pool1"
  pooling_param {
    pool: MAX
    kernel_size: 3
    stride: 2
  }
}
layer {
  name: "conv2"
  type: "Convolution"
  bottom: "pool1"
  top: "conv2"
  param {
    lr_mult: 1
    decay_mult: 1
    compression: PRUNE
  }
  param {
    lr_mult: 2
    decay_mult: 0
    compression: PRUNE
  }
  convolution_param {
    num_output: 256
    pad: 2
    kernel_size: 5
    group: 1
    weight_filler {
      type: "gaussian"
      std: 0.01
    }
    bias_filler {
      type: "constant"
      value: 1
    }
  }
}
layer {
  name: "bn2"
  type: "BatchNorm"
  bottom: "conv2"
  top: "scale2"
  param {
    lr_mult: 1
    decay_mult: 0
    compression: PRUNE
  }
  param {
    lr_mult: 1
    decay_mult: 0
    compression: PRUNE
  }
  param {
    lr_mult: 0
    decay_mult: 0
    compression: PRUNE
  }
  param {
    lr_mult: 0
    decay_mult: 0
    compression: PRUNE
  }
  batch_norm_param {
    use_global_stats: false
    scale_filler {
      type: "constant"
      value: 1
    }
    bias_filler {
      type: "constant"
      value: 0
    }
  }
}
layer {
  name: "relu2"
  type: "ReLU"
  bottom: "scale2"
  top: "relu2"
}
layer {
  name: "pool2"
  type: "Pooling"
  bottom: "relu2"
  top: "pool2"
  pooling_param {
    pool: MAX
    kernel_size: 3
    stride: 2
  }
}
layer {
  name: "conv3"
  type: "Convolution"
  bottom: "pool2"
  top: "conv3"
  param {
    lr_mult: 1
    decay_mult: 1
    compression: PRUNE
  }
  param {
    lr_mult: 2
    decay_mult: 0
    compression: PRUNE
  }
  convolution_param {
    num_output: 384
    pad: 1
    kernel_size: 3
    weight_filler {
      type: "gaussian"
      std: 0.01
    }
    bias_filler {
      type: "constant"
      value: 0
    }
  }
}
layer {
  name: "relu3"
  type: "ReLU"
  bottom: "conv3"
  top: "relu3"
}
layer {
  name: "conv4"
  type: "Convolution"
  bottom: "relu3"
  top: "conv4"
  param {
    lr_mult: 1
    decay_mult: 1
    compression: PRUNE
  }
  param {
    lr_mult: 2
    decay_mult: 0
    compression: PRUNE
  }
  convolution_param {
    num_output: 384
    pad: 1
    kernel_size: 3
    group: 1
    weight_filler {
      type: "gaussian"
      std: 0.01
    }
    bias_filler {
      type: "constant"
      value: 1
    }
  }
}
layer {
  name: "relu4"
  type: "ReLU"
  bottom: "conv4"
  top: "relu4"
}
layer {
  name: "conv5"
  type: "Convolution"
  bottom: "relu4"
  top: "conv5"
  param {
    lr_mult: 1
    decay_mult: 1
    compression: PRUNE
  }
  param {
    lr_mult: 2
    decay_mult: 0
    compression: PRUNE
  }
  convolution_param {
    num_output: 256
    pad: 1
    kernel_size: 3
    group: 1
    weight_filler {
      type: "gaussian"
      std: 0.01
    }
    bias_filler {
      type: "constant"
      value: 1
    }
  }
}
layer {
  name: "relu5"
  type: "ReLU"
  bottom: "conv5"
  top: "relu5"
}
layer {
  name: "pool5"
  type: "Pooling"
  bottom: "relu5"
  top: "pool5"
  pooling_param {
    pool: MAX
    kernel_size: 3
    stride: 2
  }
}
layer {
  name: "fc6"
  type: "InnerProduct"
  bottom: "pool5"
  top: "fc6"
  param {
    lr_mult: 1
    decay_mult: 1
  }
  param {
    lr_mult: 2
    decay_mult: 0
  }
  inner_product_param {
    num_output: 4096
    weight_filler {
      type: "gaussian"
      std: 0.005
    }
    bias_filler {
      type: "constant"
      value: 1
    }
  }
}
layer {
  name: "relu6"
  type: "ReLU"
  bottom: "fc6"
  top: "relu6"
}
layer {
  name: "drop6"
  type: "Dropout"
  bottom: "relu6"
  top: "drop6"
  dropout_param {
    dropout_ratio: 0.5
  }
}
layer {
  name: "fc7"
  type: "InnerProduct"
  bottom: "drop6"
  top: "fc7"
  param {
    lr_mult: 1
    decay_mult: 1
  }
  param {
    lr_mult: 2
    decay_mult: 0
  }
  inner_product_param {
    num_output: 4096
    weight_filler {
      type: "gaussian"
      std: 0.005
    }
    bias_filler {
      type: "constant"
      value: 1
    }
  }
}
layer {
  name: "bn7"
  type: "BatchNorm"
  bottom: "fc7"
  top: "scale7"
  param {
    lr_mult: 1
    decay_mult: 0
    compression: PRUNE
  }
  param {
    lr_mult: 1
    decay_mult: 0
    compression: PRUNE
  }
  param {
    lr_mult: 0
    decay_mult: 0
    compression: PRUNE
  }
  param {
    lr_mult: 0
    decay_mult: 0
    compression: PRUNE
  }
  batch_norm_param {
    use_global_stats: false
    scale_filler {
      type: "constant"
      value: 1
    }
    bias_filler {
      type: "constant"
      value: 0
    }
  }
}
layer {
  name: "relu7"
  type: "ReLU"
  bottom: "scale7"
  top: "relu7"
}
layer {
  name: "drop7"
  type: "Dropout"
  bottom: "relu7"
  top: "drop7"
  dropout_param {
    dropout_ratio: 0.5
  }
}
layer {
  name: "fc8"
  type: "InnerProduct"
  bottom: "drop7"
  top: "fc8"
  param {
    lr_mult: 1
    decay_mult: 1
  }
  param {
    lr_mult: 2
    decay_mult: 0
  }
  inner_product_param {
    num_output: 2
    weight_filler {
      type: "gaussian"
      std: 0.01
    }
    bias_filler {
      type: "constant"
      value: 0
    }
  }
}
layer {
  name: "loss"
  type: "SoftmaxWithLoss"
  bottom: "fc8"
  bottom: "label"
  top: "loss"
}
I0130 23:57:28.467420 112238 layer_factory.hpp:77] Creating layer data
I0130 23:57:28.467572 112238 internal_thread.cpp:27] Starting internal thread(s) on GPU 0
I0130 23:57:28.468065 112238 net.cpp:94] Creating Layer data
I0130 23:57:28.468072 112238 net.cpp:409] data -> data
I0130 23:57:28.468081 112238 net.cpp:409] data -> label
I0130 23:57:28.470866 112275 db_lmdb.cpp:35] Opened lmdb cats-vs-dogs/input/lmdb/train_lmdb
I0130 23:57:28.470911 112275 data_reader.cpp:117] TRAIN: reading data using 1 channel(s)
I0130 23:57:28.471187 112238 data_layer.cpp:78] ReshapePrefetch 256, 3, 227, 227
I0130 23:57:28.471268 112238 data_layer.cpp:83] output data size: 256,3,227,227
I0130 23:57:28.896344 112238 internal_thread.cpp:27] Starting internal thread(s) on GPU 0
I0130 23:57:28.896399 112238 net.cpp:144] Setting up data
I0130 23:57:28.896406 112238 net.cpp:151] Top shape: 256 3 227 227 (39574272)
I0130 23:57:28.896410 112238 net.cpp:151] Top shape: 256 (256)
I0130 23:57:28.896428 112238 net.cpp:159] Memory required for data: 158298112
I0130 23:57:28.896433 112238 layer_factory.hpp:77] Creating layer conv1
I0130 23:57:28.896446 112238 net.cpp:94] Creating Layer conv1
I0130 23:57:28.896450 112238 net.cpp:435] conv1 <- data
I0130 23:57:28.896466 112238 net.cpp:409] conv1 -> conv1
I0130 23:57:28.898381 112238 net.cpp:144] Setting up conv1
I0130 23:57:28.898394 112238 net.cpp:151] Top shape: 256 96 55 55 (74342400)
I0130 23:57:28.898397 112238 net.cpp:159] Memory required for data: 455667712
I0130 23:57:28.898413 112238 layer_factory.hpp:77] Creating layer bn1
I0130 23:57:28.898422 112238 net.cpp:94] Creating Layer bn1
I0130 23:57:28.898425 112238 net.cpp:435] bn1 <- conv1
I0130 23:57:28.898432 112238 net.cpp:409] bn1 -> scale1
I0130 23:57:28.899714 112238 net.cpp:144] Setting up bn1
I0130 23:57:28.899721 112238 net.cpp:151] Top shape: 256 96 55 55 (74342400)
I0130 23:57:28.899724 112238 net.cpp:159] Memory required for data: 753037312
I0130 23:57:28.899734 112238 layer_factory.hpp:77] Creating layer relu1
I0130 23:57:28.899754 112238 net.cpp:94] Creating Layer relu1
I0130 23:57:28.899756 112238 net.cpp:435] relu1 <- scale1
I0130 23:57:28.899760 112238 net.cpp:409] relu1 -> relu1
I0130 23:57:28.899804 112238 net.cpp:144] Setting up relu1
I0130 23:57:28.899809 112238 net.cpp:151] Top shape: 256 96 55 55 (74342400)
I0130 23:57:28.899812 112238 net.cpp:159] Memory required for data: 1050406912
I0130 23:57:28.899814 112238 layer_factory.hpp:77] Creating layer pool1
I0130 23:57:28.899819 112238 net.cpp:94] Creating Layer pool1
I0130 23:57:28.899822 112238 net.cpp:435] pool1 <- relu1
I0130 23:57:28.899827 112238 net.cpp:409] pool1 -> pool1
I0130 23:57:28.899860 112238 net.cpp:144] Setting up pool1
I0130 23:57:28.899865 112238 net.cpp:151] Top shape: 256 96 27 27 (17915904)
I0130 23:57:28.899868 112238 net.cpp:159] Memory required for data: 1122070528
I0130 23:57:28.899870 112238 layer_factory.hpp:77] Creating layer conv2
I0130 23:57:28.899876 112238 net.cpp:94] Creating Layer conv2
I0130 23:57:28.899879 112238 net.cpp:435] conv2 <- pool1
I0130 23:57:28.899883 112238 net.cpp:409] conv2 -> conv2
I0130 23:57:28.915469 112238 net.cpp:144] Setting up conv2
I0130 23:57:28.915486 112238 net.cpp:151] Top shape: 256 256 27 27 (47775744)
I0130 23:57:28.915489 112238 net.cpp:159] Memory required for data: 1313173504
I0130 23:57:28.915500 112238 layer_factory.hpp:77] Creating layer bn2
I0130 23:57:28.915511 112238 net.cpp:94] Creating Layer bn2
I0130 23:57:28.915515 112238 net.cpp:435] bn2 <- conv2
I0130 23:57:28.915521 112238 net.cpp:409] bn2 -> scale2
I0130 23:57:28.916085 112238 net.cpp:144] Setting up bn2
I0130 23:57:28.916095 112238 net.cpp:151] Top shape: 256 256 27 27 (47775744)
I0130 23:57:28.916100 112238 net.cpp:159] Memory required for data: 1504276480
I0130 23:57:28.916111 112238 layer_factory.hpp:77] Creating layer relu2
I0130 23:57:28.916119 112238 net.cpp:94] Creating Layer relu2
I0130 23:57:28.916124 112238 net.cpp:435] relu2 <- scale2
I0130 23:57:28.916131 112238 net.cpp:409] relu2 -> relu2
I0130 23:57:28.916155 112238 net.cpp:144] Setting up relu2
I0130 23:57:28.916162 112238 net.cpp:151] Top shape: 256 256 27 27 (47775744)
I0130 23:57:28.916167 112238 net.cpp:159] Memory required for data: 1695379456
I0130 23:57:28.916172 112238 layer_factory.hpp:77] Creating layer pool2
I0130 23:57:28.916179 112238 net.cpp:94] Creating Layer pool2
I0130 23:57:28.916183 112238 net.cpp:435] pool2 <- relu2
I0130 23:57:28.916204 112238 net.cpp:409] pool2 -> pool2
I0130 23:57:28.916239 112238 net.cpp:144] Setting up pool2
I0130 23:57:28.916245 112238 net.cpp:151] Top shape: 256 256 13 13 (11075584)
I0130 23:57:28.916249 112238 net.cpp:159] Memory required for data: 1739681792
I0130 23:57:28.916254 112238 layer_factory.hpp:77] Creating layer conv3
I0130 23:57:28.916265 112238 net.cpp:94] Creating Layer conv3
I0130 23:57:28.916270 112238 net.cpp:435] conv3 <- pool2
I0130 23:57:28.916276 112238 net.cpp:409] conv3 -> conv3
I0130 23:57:28.928320 112238 net.cpp:144] Setting up conv3
I0130 23:57:28.928359 112238 net.cpp:151] Top shape: 256 384 13 13 (16613376)
I0130 23:57:28.928364 112238 net.cpp:159] Memory required for data: 1806135296
I0130 23:57:28.928375 112238 layer_factory.hpp:77] Creating layer relu3
I0130 23:57:28.928386 112238 net.cpp:94] Creating Layer relu3
I0130 23:57:28.928391 112238 net.cpp:435] relu3 <- conv3
I0130 23:57:28.928400 112238 net.cpp:409] relu3 -> relu3
I0130 23:57:28.928436 112238 net.cpp:144] Setting up relu3
I0130 23:57:28.928447 112238 net.cpp:151] Top shape: 256 384 13 13 (16613376)
I0130 23:57:28.928452 112238 net.cpp:159] Memory required for data: 1872588800
I0130 23:57:28.928455 112238 layer_factory.hpp:77] Creating layer conv4
I0130 23:57:28.928472 112238 net.cpp:94] Creating Layer conv4
I0130 23:57:28.928477 112238 net.cpp:435] conv4 <- relu3
I0130 23:57:28.928483 112238 net.cpp:409] conv4 -> conv4
I0130 23:57:28.945353 112238 net.cpp:144] Setting up conv4
I0130 23:57:28.945372 112238 net.cpp:151] Top shape: 256 384 13 13 (16613376)
I0130 23:57:28.945376 112238 net.cpp:159] Memory required for data: 1939042304
I0130 23:57:28.945390 112238 layer_factory.hpp:77] Creating layer relu4
I0130 23:57:28.945415 112238 net.cpp:94] Creating Layer relu4
I0130 23:57:28.945420 112238 net.cpp:435] relu4 <- conv4
I0130 23:57:28.945428 112238 net.cpp:409] relu4 -> relu4
I0130 23:57:28.945452 112238 net.cpp:144] Setting up relu4
I0130 23:57:28.945456 112238 net.cpp:151] Top shape: 256 384 13 13 (16613376)
I0130 23:57:28.945459 112238 net.cpp:159] Memory required for data: 2005495808
I0130 23:57:28.945462 112238 layer_factory.hpp:77] Creating layer conv5
I0130 23:57:28.945472 112238 net.cpp:94] Creating Layer conv5
I0130 23:57:28.945475 112238 net.cpp:435] conv5 <- relu4
I0130 23:57:28.945482 112238 net.cpp:409] conv5 -> conv5
I0130 23:57:28.961834 112238 net.cpp:144] Setting up conv5
I0130 23:57:28.961858 112238 net.cpp:151] Top shape: 256 256 13 13 (11075584)
I0130 23:57:28.961863 112238 net.cpp:159] Memory required for data: 2049798144
I0130 23:57:28.961871 112238 layer_factory.hpp:77] Creating layer relu5
I0130 23:57:28.961882 112238 net.cpp:94] Creating Layer relu5
I0130 23:57:28.961889 112238 net.cpp:435] relu5 <- conv5
I0130 23:57:28.961906 112238 net.cpp:409] relu5 -> relu5
I0130 23:57:28.961942 112238 net.cpp:144] Setting up relu5
I0130 23:57:28.961954 112238 net.cpp:151] Top shape: 256 256 13 13 (11075584)
I0130 23:57:28.961959 112238 net.cpp:159] Memory required for data: 2094100480
I0130 23:57:28.961963 112238 layer_factory.hpp:77] Creating layer pool5
I0130 23:57:28.961972 112238 net.cpp:94] Creating Layer pool5
I0130 23:57:28.961977 112238 net.cpp:435] pool5 <- relu5
I0130 23:57:28.961984 112238 net.cpp:409] pool5 -> pool5
I0130 23:57:28.962038 112238 net.cpp:144] Setting up pool5
I0130 23:57:28.962062 112238 net.cpp:151] Top shape: 256 256 6 6 (2359296)
I0130 23:57:28.962080 112238 net.cpp:159] Memory required for data: 2103537664
I0130 23:57:28.962095 112238 layer_factory.hpp:77] Creating layer fc6
I0130 23:57:28.962117 112238 net.cpp:94] Creating Layer fc6
I0130 23:57:28.962133 112238 net.cpp:435] fc6 <- pool5
I0130 23:57:28.962153 112238 net.cpp:409] fc6 -> fc6
I0130 23:57:29.354056 112238 net.cpp:144] Setting up fc6
I0130 23:57:29.354081 112238 net.cpp:151] Top shape: 256 4096 (1048576)
I0130 23:57:29.354084 112238 net.cpp:159] Memory required for data: 2107731968
I0130 23:57:29.354109 112238 layer_factory.hpp:77] Creating layer relu6
I0130 23:57:29.354125 112238 net.cpp:94] Creating Layer relu6
I0130 23:57:29.354151 112238 net.cpp:435] relu6 <- fc6
I0130 23:57:29.354168 112238 net.cpp:409] relu6 -> relu6
I0130 23:57:29.354193 112238 net.cpp:144] Setting up relu6
I0130 23:57:29.354197 112238 net.cpp:151] Top shape: 256 4096 (1048576)
I0130 23:57:29.354198 112238 net.cpp:159] Memory required for data: 2111926272
I0130 23:57:29.354202 112238 layer_factory.hpp:77] Creating layer drop6
I0130 23:57:29.354207 112238 net.cpp:94] Creating Layer drop6
I0130 23:57:29.354209 112238 net.cpp:435] drop6 <- relu6
I0130 23:57:29.354213 112238 net.cpp:409] drop6 -> drop6
I0130 23:57:29.354249 112238 net.cpp:144] Setting up drop6
I0130 23:57:29.354254 112238 net.cpp:151] Top shape: 256 4096 (1048576)
I0130 23:57:29.354255 112238 net.cpp:159] Memory required for data: 2116120576
I0130 23:57:29.354259 112238 layer_factory.hpp:77] Creating layer fc7
I0130 23:57:29.354265 112238 net.cpp:94] Creating Layer fc7
I0130 23:57:29.354269 112238 net.cpp:435] fc7 <- drop6
I0130 23:57:29.354274 112238 net.cpp:409] fc7 -> fc7
I0130 23:57:29.496258 112238 net.cpp:144] Setting up fc7
I0130 23:57:29.496279 112238 net.cpp:151] Top shape: 256 4096 (1048576)
I0130 23:57:29.496281 112238 net.cpp:159] Memory required for data: 2120314880
I0130 23:57:29.496289 112238 layer_factory.hpp:77] Creating layer bn7
I0130 23:57:29.496299 112238 net.cpp:94] Creating Layer bn7
I0130 23:57:29.496302 112238 net.cpp:435] bn7 <- fc7
I0130 23:57:29.496318 112238 net.cpp:409] bn7 -> scale7
I0130 23:57:29.496836 112238 net.cpp:144] Setting up bn7
I0130 23:57:29.496842 112238 net.cpp:151] Top shape: 256 4096 (1048576)
I0130 23:57:29.496845 112238 net.cpp:159] Memory required for data: 2124509184
I0130 23:57:29.496852 112238 layer_factory.hpp:77] Creating layer relu7
I0130 23:57:29.496856 112238 net.cpp:94] Creating Layer relu7
I0130 23:57:29.496860 112238 net.cpp:435] relu7 <- scale7
I0130 23:57:29.496863 112238 net.cpp:409] relu7 -> relu7
I0130 23:57:29.496883 112238 net.cpp:144] Setting up relu7
I0130 23:57:29.496888 112238 net.cpp:151] Top shape: 256 4096 (1048576)
I0130 23:57:29.496891 112238 net.cpp:159] Memory required for data: 2128703488
I0130 23:57:29.496896 112238 layer_factory.hpp:77] Creating layer drop7
I0130 23:57:29.496901 112238 net.cpp:94] Creating Layer drop7
I0130 23:57:29.496906 112238 net.cpp:435] drop7 <- relu7
I0130 23:57:29.496909 112238 net.cpp:409] drop7 -> drop7
I0130 23:57:29.496937 112238 net.cpp:144] Setting up drop7
I0130 23:57:29.496942 112238 net.cpp:151] Top shape: 256 4096 (1048576)
I0130 23:57:29.496944 112238 net.cpp:159] Memory required for data: 2132897792
I0130 23:57:29.496948 112238 layer_factory.hpp:77] Creating layer fc8
I0130 23:57:29.496953 112238 net.cpp:94] Creating Layer fc8
I0130 23:57:29.496956 112238 net.cpp:435] fc8 <- drop7
I0130 23:57:29.496961 112238 net.cpp:409] fc8 -> fc8
I0130 23:57:29.497833 112238 net.cpp:144] Setting up fc8
I0130 23:57:29.497843 112238 net.cpp:151] Top shape: 256 2 (512)
I0130 23:57:29.497845 112238 net.cpp:159] Memory required for data: 2132899840
I0130 23:57:29.497851 112238 layer_factory.hpp:77] Creating layer loss
I0130 23:57:29.497858 112238 net.cpp:94] Creating Layer loss
I0130 23:57:29.497860 112238 net.cpp:435] loss <- fc8
I0130 23:57:29.497864 112238 net.cpp:435] loss <- label
I0130 23:57:29.497871 112238 net.cpp:409] loss -> loss
I0130 23:57:29.497882 112238 layer_factory.hpp:77] Creating layer loss
…
I0130 23:57:29.498375 112238 solver.cpp:189] Creating test net (#0) specified by net file: cats-vs-dogs/deephi/alexnetBNnoLRN/pruning/regular_rate_0.6/net_finetune.prototxt
I0130 23:57:29.498409 112238 net.cpp:323] The NetState phase (1) differed from the phase (0) specified by a rule in layer data
I0130 23:57:29.498574 112238 net.cpp:52] Initializing net from parameters: 
state {
  phase: TEST
}
layer {
  name: "data"
  type: "Data"
  top: "data"
  top: "label"
  include {
    phase: TEST
  }
  transform_param {
    mirror: false
    crop_size: 227
    mean_value: 106
    mean_value: 116
    mean_value: 124
  }
  data_param {
    source: "cats-vs-dogs/input/lmdb/valid_lmdb"
    batch_size: 50
    backend: LMDB
  }
}
layer {
  name: "conv1"
  type: "Convolution"
  bottom: "data"
  top: "conv1"
  param {
    lr_mult: 1
    decay_mult: 1
    compression: PRUNE
  }
  param {
    lr_mult: 2
    decay_mult: 0
    compression: PRUNE
  }
  convolution_param {
    num_output: 96
    pad: 1
    kernel_size: 11
    stride: 4
    weight_filler {
      type: "gaussian"
      std: 0.01
    }
    bias_filler {
      type: "constant"
      value: 0
    }
  }
}
layer {
  name: "bn1"
  type: "BatchNorm"
  bottom: "conv1"
  top: "scale1"
  param {
    lr_mult: 1
    decay_mult: 0
    compression: PRUNE
  }
  param {
    lr_mult: 1
    decay_mult: 0
    compression: PRUNE
  }
  param {
    lr_mult: 0
    decay_mult: 0
    compression: PRUNE
  }
  param {
    lr_mult: 0
    decay_mult: 0
    compression: PRUNE
  }
  batch_norm_param {
    use_global_stats: false
    scale_filler {
      type: "constant"
      value: 1
    }
    bias_filler {
      type: "constant"
      value: 0
    }
  }
}
layer {
  name: "relu1"
  type: "ReLU"
  bottom: "scale1"
  top: "relu1"
}
layer {
  name: "pool1"
  type: "Pooling"
  bottom: "relu1"
  top: "pool1"
  pooling_param {
    pool: MAX
    kernel_size: 3
    stride: 2
  }
}
layer {
  name: "conv2"
  type: "Convolution"
  bottom: "pool1"
  top: "conv2"
  param {
    lr_mult: 1
    decay_mult: 1
    compression: PRUNE
  }
  param {
    lr_mult: 2
    decay_mult: 0
    compression: PRUNE
  }
  convolution_param {
    num_output: 256
    pad: 2
    kernel_size: 5
    group: 1
    weight_filler {
      type: "gaussian"
      std: 0.01
    }
    bias_filler {
      type: "constant"
      value: 1
    }
  }
}
layer {
  name: "bn2"
  type: "BatchNorm"
  bottom: "conv2"
  top: "scale2"
  param {
    lr_mult: 1
    decay_mult: 0
    compression: PRUNE
  }
  param {
    lr_mult: 1
    decay_mult: 0
    compression: PRUNE
  }
  param {
    lr_mult: 0
    decay_mult: 0
    compression: PRUNE
  }
  param {
    lr_mult: 0
    decay_mult: 0
    compression: PRUNE
  }
  batch_norm_param {
    use_global_stats: false
    scale_filler {
      type: "constant"
      value: 1
    }
    bias_filler {
      type: "constant"
      value: 0
    }
  }
}
layer {
  name: "relu2"
  type: "ReLU"
  bottom: "scale2"
  top: "relu2"
}
layer {
  name: "pool2"
  type: "Pooling"
  bottom: "relu2"
  top: "pool2"
  pooling_param {
    pool: MAX
    kernel_size: 3
    stride: 2
  }
}
layer {
  name: "conv3"
  type: "Convolution"
  bottom: "pool2"
  top: "conv3"
  param {
    lr_mult: 1
    decay_mult: 1
    compression: PRUNE
  }
  param {
    lr_mult: 2
    decay_mult: 0
    compression: PRUNE
  }
  convolution_param {
    num_output: 384
    pad: 1
    kernel_size: 3
    weight_filler {
      type: "gaussian"
      std: 0.01
    }
    bias_filler {
      type: "constant"
      value: 0
    }
  }
}
layer {
  name: "relu3"
  type: "ReLU"
  bottom: "conv3"
  top: "relu3"
}
layer {
  name: "conv4"
  type: "Convolution"
  bottom: "relu3"
  top: "conv4"
  param {
    lr_mult: 1
    decay_mult: 1
    compression: PRUNE
  }
  param {
    lr_mult: 2
    decay_mult: 0
    compression: PRUNE
  }
  convolution_param {
    num_output: 384
    pad: 1
    kernel_size: 3
    group: 1
    weight_filler {
      type: "gaussian"
      std: 0.01
    }
    bias_filler {
      type: "constant"
      value: 1
    }
  }
}
layer {
  name: "relu4"
  type: "ReLU"
  bottom: "conv4"
  top: "relu4"
}
layer {
  name: "conv5"
  type: "Convolution"
  bottom: "relu4"
  top: "conv5"
  param {
    lr_mult: 1
    decay_mult: 1
    compression: PRUNE
  }
  param {
    lr_mult: 2
    decay_mult: 0
    compression: PRUNE
  }
  convolution_param {
    num_output: 256
    pad: 1
    kernel_size: 3
    group: 1
    weight_filler {
      type: "gaussian"
      std: 0.01
    }
    bias_filler {
      type: "constant"
      value: 1
    }
  }
}
layer {
  name: "relu5"
  type: "ReLU"
  bottom: "conv5"
  top: "relu5"
}
layer {
  name: "pool5"
  type: "Pooling"
  bottom: "relu5"
  top: "pool5"
  pooling_param {
    pool: MAX
    kernel_size: 3
    stride: 2
  }
}
layer {
  name: "fc6"
  type: "InnerProduct"
  bottom: "pool5"
  top: "fc6"
  param {
    lr_mult: 1
    decay_mult: 1
  }
  param {
    lr_mult: 2
    decay_mult: 0
  }
  inner_product_param {
    num_output: 4096
    weight_filler {
      type: "gaussian"
      std: 0.005
    }
    bias_filler {
      type: "constant"
      value: 1
    }
  }
}
layer {
  name: "relu6"
  type: "ReLU"
  bottom: "fc6"
  top: "relu6"
}
layer {
  name: "drop6"
  type: "Dropout"
  bottom: "relu6"
  top: "drop6"
  dropout_param {
    dropout_ratio: 0.5
  }
}
layer {
  name: "fc7"
  type: "InnerProduct"
  bottom: "drop6"
  top: "fc7"
  param {
    lr_mult: 1
    decay_mult: 1
  }
  param {
    lr_mult: 2
    decay_mult: 0
  }
  inner_product_param {
    num_output: 4096
    weight_filler {
      type: "gaussian"
      std: 0.005
    }
    bias_filler {
      type: "constant"
      value: 1
    }
  }
}
layer {
  name: "bn7"
  type: "BatchNorm"
  bottom: "fc7"
  top: "scale7"
  param {
    lr_mult: 1
    decay_mult: 0
    compression: PRUNE
  }
  param {
    lr_mult: 1
    decay_mult: 0
    compression: PRUNE
  }
  param {
    lr_mult: 0
    decay_mult: 0
    compression: PRUNE
  }
  param {
    lr_mult: 0
    decay_mult: 0
    compression: PRUNE
  }
  batch_norm_param {
    use_global_stats: false
    scale_filler {
      type: "constant"
      value: 1
    }
    bias_filler {
      type: "constant"
      value: 0
    }
  }
}
layer {
  name: "relu7"
  type: "ReLU"
  bottom: "scale7"
  top: "relu7"
}
layer {
  name: "drop7"
  type: "Dropout"
  bottom: "relu7"
  top: "drop7"
  dropout_param {
    dropout_ratio: 0.5
  }
}
layer {
  name: "fc8"
  type: "InnerProduct"
  bottom: "drop7"
  top: "fc8"
  param {
    lr_mult: 1
    decay_mult: 1
  }
  param {
    lr_mult: 2
    decay_mult: 0
  }
  inner_product_param {
    num_output: 2
    weight_filler {
      type: "gaussian"
      std: 0.01
    }
    bias_filler {
      type: "constant"
      value: 0
    }
  }
}
layer {
  name: "loss"
  type: "SoftmaxWithLoss"
  bottom: "fc8"
  bottom: "label"
  top: "loss"
}
layer {
  name: "accuracy-top1"
  type: "Accuracy"
  bottom: "fc8"
  bottom: "label"
  top: "top-1"
  include {
    phase: TEST
  }
}
I0130 23:57:29.498677 112238 layer_factory.hpp:77] Creating layer data
I0130 23:57:29.498714 112238 internal_thread.cpp:27] Starting internal thread(s) on GPU 0
I0130 23:57:29.499593 112238 net.cpp:94] Creating Layer data
I0130 23:57:29.499603 112238 net.cpp:409] data -> data
I0130 23:57:29.499611 112238 net.cpp:409] data -> label
I0130 23:57:29.501392 112305 db_lmdb.cpp:35] Opened lmdb cats-vs-dogs/input/lmdb/valid_lmdb
I0130 23:57:29.501425 112305 data_reader.cpp:117] TEST: reading data using 1 channel(s)
I0130 23:57:29.501750 112238 data_layer.cpp:78] ReshapePrefetch 50, 3, 227, 227
I0130 23:57:29.501848 112238 data_layer.cpp:83] output data size: 50,3,227,227
I0130 23:57:29.596139 112238 internal_thread.cpp:27] Starting internal thread(s) on GPU 0
I0130 23:57:29.596207 112238 net.cpp:144] Setting up data
I0130 23:57:29.596215 112238 net.cpp:151] Top shape: 50 3 227 227 (7729350)
I0130 23:57:29.596218 112238 net.cpp:151] Top shape: 50 (50)
I0130 23:57:29.596220 112238 net.cpp:159] Memory required for data: 30917600
I0130 23:57:29.596235 112238 layer_factory.hpp:77] Creating layer label_data_1_split
I0130 23:57:29.596247 112238 net.cpp:94] Creating Layer label_data_1_split
I0130 23:57:29.596252 112238 net.cpp:435] label_data_1_split <- label
I0130 23:57:29.596261 112238 net.cpp:409] label_data_1_split -> label_data_1_split_0
I0130 23:57:29.596271 112238 net.cpp:409] label_data_1_split -> label_data_1_split_1
I0130 23:57:29.596328 112238 net.cpp:144] Setting up label_data_1_split
I0130 23:57:29.596333 112238 net.cpp:151] Top shape: 50 (50)
I0130 23:57:29.596335 112238 net.cpp:151] Top shape: 50 (50)
I0130 23:57:29.596338 112238 net.cpp:159] Memory required for data: 30918000
I0130 23:57:29.596339 112238 layer_factory.hpp:77] Creating layer conv1
I0130 23:57:29.596350 112238 net.cpp:94] Creating Layer conv1
I0130 23:57:29.596354 112238 net.cpp:435] conv1 <- data
I0130 23:57:29.596357 112238 net.cpp:409] conv1 -> conv1
I0130 23:57:29.596899 112238 net.cpp:144] Setting up conv1
I0130 23:57:29.596905 112238 net.cpp:151] Top shape: 50 96 55 55 (14520000)
I0130 23:57:29.596909 112238 net.cpp:159] Memory required for data: 88998000
I0130 23:57:29.596917 112238 layer_factory.hpp:77] Creating layer bn1
I0130 23:57:29.596925 112238 net.cpp:94] Creating Layer bn1
I0130 23:57:29.596927 112238 net.cpp:435] bn1 <- conv1
I0130 23:57:29.596932 112238 net.cpp:409] bn1 -> scale1
I0130 23:57:29.599122 112238 net.cpp:144] Setting up bn1
I0130 23:57:29.599128 112238 net.cpp:151] Top shape: 50 96 55 55 (14520000)
I0130 23:57:29.599130 112238 net.cpp:159] Memory required for data: 147078000
I0130 23:57:29.599139 112238 layer_factory.hpp:77] Creating layer relu1
I0130 23:57:29.599162 112238 net.cpp:94] Creating Layer relu1
I0130 23:57:29.599165 112238 net.cpp:435] relu1 <- scale1
I0130 23:57:29.599169 112238 net.cpp:409] relu1 -> relu1
I0130 23:57:29.599208 112238 net.cpp:144] Setting up relu1
I0130 23:57:29.599213 112238 net.cpp:151] Top shape: 50 96 55 55 (14520000)
I0130 23:57:29.599216 112238 net.cpp:159] Memory required for data: 205158000
I0130 23:57:29.599218 112238 layer_factory.hpp:77] Creating layer pool1
I0130 23:57:29.599223 112238 net.cpp:94] Creating Layer pool1
I0130 23:57:29.599226 112238 net.cpp:435] pool1 <- relu1
I0130 23:57:29.599232 112238 net.cpp:409] pool1 -> pool1
I0130 23:57:29.599309 112238 net.cpp:144] Setting up pool1
I0130 23:57:29.599314 112238 net.cpp:151] Top shape: 50 96 27 27 (3499200)
I0130 23:57:29.599316 112238 net.cpp:159] Memory required for data: 219154800
I0130 23:57:29.599318 112238 layer_factory.hpp:77] Creating layer conv2
I0130 23:57:29.599326 112238 net.cpp:94] Creating Layer conv2
I0130 23:57:29.599342 112238 net.cpp:435] conv2 <- pool1
I0130 23:57:29.599349 112238 net.cpp:409] conv2 -> conv2
I0130 23:57:29.608158 112238 net.cpp:144] Setting up conv2
I0130 23:57:29.608194 112238 net.cpp:151] Top shape: 50 256 27 27 (9331200)
I0130 23:57:29.608201 112238 net.cpp:159] Memory required for data: 256479600
I0130 23:57:29.608222 112238 layer_factory.hpp:77] Creating layer bn2
I0130 23:57:29.608242 112238 net.cpp:94] Creating Layer bn2
I0130 23:57:29.608248 112238 net.cpp:435] bn2 <- conv2
I0130 23:57:29.608261 112238 net.cpp:409] bn2 -> scale2
I0130 23:57:29.609472 112238 net.cpp:144] Setting up bn2
I0130 23:57:29.609488 112238 net.cpp:151] Top shape: 50 256 27 27 (9331200)
I0130 23:57:29.609493 112238 net.cpp:159] Memory required for data: 293804400
I0130 23:57:29.609508 112238 layer_factory.hpp:77] Creating layer relu2
I0130 23:57:29.609524 112238 net.cpp:94] Creating Layer relu2
I0130 23:57:29.609532 112238 net.cpp:435] relu2 <- scale2
I0130 23:57:29.609541 112238 net.cpp:409] relu2 -> relu2
I0130 23:57:29.609580 112238 net.cpp:144] Setting up relu2
I0130 23:57:29.609589 112238 net.cpp:151] Top shape: 50 256 27 27 (9331200)
I0130 23:57:29.609596 112238 net.cpp:159] Memory required for data: 331129200
I0130 23:57:29.609601 112238 layer_factory.hpp:77] Creating layer pool2
I0130 23:57:29.609612 112238 net.cpp:94] Creating Layer pool2
I0130 23:57:29.609619 112238 net.cpp:435] pool2 <- relu2
I0130 23:57:29.609628 112238 net.cpp:409] pool2 -> pool2
I0130 23:57:29.609690 112238 net.cpp:144] Setting up pool2
I0130 23:57:29.609699 112238 net.cpp:151] Top shape: 50 256 13 13 (2163200)
I0130 23:57:29.609704 112238 net.cpp:159] Memory required for data: 339782000
I0130 23:57:29.609710 112238 layer_factory.hpp:77] Creating layer conv3
I0130 23:57:29.609727 112238 net.cpp:94] Creating Layer conv3
I0130 23:57:29.609735 112238 net.cpp:435] conv3 <- pool2
I0130 23:57:29.609745 112238 net.cpp:409] conv3 -> conv3
I0130 23:57:29.630928 112238 net.cpp:144] Setting up conv3
I0130 23:57:29.630950 112238 net.cpp:151] Top shape: 50 384 13 13 (3244800)
I0130 23:57:29.630952 112238 net.cpp:159] Memory required for data: 352761200
I0130 23:57:29.630971 112238 layer_factory.hpp:77] Creating layer relu3
I0130 23:57:29.630981 112238 net.cpp:94] Creating Layer relu3
I0130 23:57:29.630985 112238 net.cpp:435] relu3 <- conv3
I0130 23:57:29.630995 112238 net.cpp:409] relu3 -> relu3
I0130 23:57:29.631026 112238 net.cpp:144] Setting up relu3
I0130 23:57:29.631029 112238 net.cpp:151] Top shape: 50 384 13 13 (3244800)
I0130 23:57:29.631032 112238 net.cpp:159] Memory required for data: 365740400
I0130 23:57:29.631036 112238 layer_factory.hpp:77] Creating layer conv4
I0130 23:57:29.631047 112238 net.cpp:94] Creating Layer conv4
I0130 23:57:29.631050 112238 net.cpp:435] conv4 <- relu3
I0130 23:57:29.631057 112238 net.cpp:409] conv4 -> conv4
I0130 23:57:29.644726 112238 net.cpp:144] Setting up conv4
I0130 23:57:29.644757 112238 net.cpp:151] Top shape: 50 384 13 13 (3244800)
I0130 23:57:29.644762 112238 net.cpp:159] Memory required for data: 378719600
I0130 23:57:29.644775 112238 layer_factory.hpp:77] Creating layer relu4
I0130 23:57:29.644783 112238 net.cpp:94] Creating Layer relu4
I0130 23:57:29.644788 112238 net.cpp:435] relu4 <- conv4
I0130 23:57:29.644794 112238 net.cpp:409] relu4 -> relu4
I0130 23:57:29.644822 112238 net.cpp:144] Setting up relu4
I0130 23:57:29.644826 112238 net.cpp:151] Top shape: 50 384 13 13 (3244800)
I0130 23:57:29.644829 112238 net.cpp:159] Memory required for data: 391698800
I0130 23:57:29.644832 112238 layer_factory.hpp:77] Creating layer conv5
I0130 23:57:29.644845 112238 net.cpp:94] Creating Layer conv5
I0130 23:57:29.644847 112238 net.cpp:435] conv5 <- relu4
I0130 23:57:29.644852 112238 net.cpp:409] conv5 -> conv5
I0130 23:57:29.659417 112238 net.cpp:144] Setting up conv5
I0130 23:57:29.659443 112238 net.cpp:151] Top shape: 50 256 13 13 (2163200)
I0130 23:57:29.659448 112238 net.cpp:159] Memory required for data: 400351600
I0130 23:57:29.659457 112238 layer_factory.hpp:77] Creating layer relu5
I0130 23:57:29.659467 112238 net.cpp:94] Creating Layer relu5
I0130 23:57:29.659504 112238 net.cpp:435] relu5 <- conv5
I0130 23:57:29.659512 112238 net.cpp:409] relu5 -> relu5
I0130 23:57:29.659549 112238 net.cpp:144] Setting up relu5
I0130 23:57:29.659559 112238 net.cpp:151] Top shape: 50 256 13 13 (2163200)
I0130 23:57:29.659561 112238 net.cpp:159] Memory required for data: 409004400
I0130 23:57:29.659564 112238 layer_factory.hpp:77] Creating layer pool5
I0130 23:57:29.659574 112238 net.cpp:94] Creating Layer pool5
I0130 23:57:29.659577 112238 net.cpp:435] pool5 <- relu5
I0130 23:57:29.659581 112238 net.cpp:409] pool5 -> pool5
I0130 23:57:29.659617 112238 net.cpp:144] Setting up pool5
I0130 23:57:29.659623 112238 net.cpp:151] Top shape: 50 256 6 6 (460800)
I0130 23:57:29.659626 112238 net.cpp:159] Memory required for data: 410847600
I0130 23:57:29.659629 112238 layer_factory.hpp:77] Creating layer fc6
I0130 23:57:29.659637 112238 net.cpp:94] Creating Layer fc6
I0130 23:57:29.659641 112238 net.cpp:435] fc6 <- pool5
I0130 23:57:29.659646 112238 net.cpp:409] fc6 -> fc6
I0130 23:57:30.001261 112238 net.cpp:144] Setting up fc6
I0130 23:57:30.001286 112238 net.cpp:151] Top shape: 50 4096 (204800)
I0130 23:57:30.001288 112238 net.cpp:159] Memory required for data: 411666800
I0130 23:57:30.001297 112238 layer_factory.hpp:77] Creating layer relu6
I0130 23:57:30.001307 112238 net.cpp:94] Creating Layer relu6
I0130 23:57:30.001312 112238 net.cpp:435] relu6 <- fc6
I0130 23:57:30.001327 112238 net.cpp:409] relu6 -> relu6
I0130 23:57:30.001356 112238 net.cpp:144] Setting up relu6
I0130 23:57:30.001361 112238 net.cpp:151] Top shape: 50 4096 (204800)
I0130 23:57:30.001364 112238 net.cpp:159] Memory required for data: 412486000
I0130 23:57:30.001368 112238 layer_factory.hpp:77] Creating layer drop6
I0130 23:57:30.001374 112238 net.cpp:94] Creating Layer drop6
I0130 23:57:30.001377 112238 net.cpp:435] drop6 <- relu6
I0130 23:57:30.001381 112238 net.cpp:409] drop6 -> drop6
I0130 23:57:30.001411 112238 net.cpp:144] Setting up drop6
I0130 23:57:30.001417 112238 net.cpp:151] Top shape: 50 4096 (204800)
I0130 23:57:30.001420 112238 net.cpp:159] Memory required for data: 413305200
I0130 23:57:30.001422 112238 layer_factory.hpp:77] Creating layer fc7
I0130 23:57:30.001428 112238 net.cpp:94] Creating Layer fc7
I0130 23:57:30.001432 112238 net.cpp:435] fc7 <- drop6
I0130 23:57:30.001436 112238 net.cpp:409] fc7 -> fc7
I0130 23:57:30.143069 112238 net.cpp:144] Setting up fc7
I0130 23:57:30.143090 112238 net.cpp:151] Top shape: 50 4096 (204800)
I0130 23:57:30.143093 112238 net.cpp:159] Memory required for data: 414124400
I0130 23:57:30.143101 112238 layer_factory.hpp:77] Creating layer bn7
I0130 23:57:30.143111 112238 net.cpp:94] Creating Layer bn7
I0130 23:57:30.143115 112238 net.cpp:435] bn7 <- fc7
I0130 23:57:30.143121 112238 net.cpp:409] bn7 -> scale7
I0130 23:57:30.143688 112238 net.cpp:144] Setting up bn7
I0130 23:57:30.143697 112238 net.cpp:151] Top shape: 50 4096 (204800)
I0130 23:57:30.143700 112238 net.cpp:159] Memory required for data: 414943600
I0130 23:57:30.143707 112238 layer_factory.hpp:77] Creating layer relu7
I0130 23:57:30.143712 112238 net.cpp:94] Creating Layer relu7
I0130 23:57:30.143715 112238 net.cpp:435] relu7 <- scale7
I0130 23:57:30.143720 112238 net.cpp:409] relu7 -> relu7
I0130 23:57:30.143739 112238 net.cpp:144] Setting up relu7
I0130 23:57:30.143743 112238 net.cpp:151] Top shape: 50 4096 (204800)
I0130 23:57:30.143746 112238 net.cpp:159] Memory required for data: 415762800
I0130 23:57:30.143748 112238 layer_factory.hpp:77] Creating layer drop7
I0130 23:57:30.143754 112238 net.cpp:94] Creating Layer drop7
I0130 23:57:30.143755 112238 net.cpp:435] drop7 <- relu7
I0130 23:57:30.143760 112238 net.cpp:409] drop7 -> drop7
I0130 23:57:30.143787 112238 net.cpp:144] Setting up drop7
I0130 23:57:30.143792 112238 net.cpp:151] Top shape: 50 4096 (204800)
I0130 23:57:30.143795 112238 net.cpp:159] Memory required for data: 416582000
I0130 23:57:30.143796 112238 layer_factory.hpp:77] Creating layer fc8
I0130 23:57:30.143801 112238 net.cpp:94] Creating Layer fc8
I0130 23:57:30.143823 112238 net.cpp:435] fc8 <- drop7
I0130 23:57:30.143827 112238 net.cpp:409] fc8 -> fc8
I0130 23:57:30.143996 112238 net.cpp:144] Setting up fc8
I0130 23:57:30.144001 112238 net.cpp:151] Top shape: 50 2 (100)
I0130 23:57:30.144002 112238 net.cpp:159] Memory required for data: 416582400
I0130 23:57:30.144007 112238 layer_factory.hpp:77] Creating layer fc8_fc8_0_split
I0130 23:57:30.144011 112238 net.cpp:94] Creating Layer fc8_fc8_0_split
I0130 23:57:30.144013 112238 net.cpp:435] fc8_fc8_0_split <- fc8
I0130 23:57:30.144018 112238 net.cpp:409] fc8_fc8_0_split -> fc8_fc8_0_split_0
I0130 23:57:30.144024 112238 net.cpp:409] fc8_fc8_0_split -> fc8_fc8_0_split_1
I0130 23:57:30.144048 112238 net.cpp:144] Setting up fc8_fc8_0_split
I0130 23:57:30.144052 112238 net.cpp:151] Top shape: 50 2 (100)
I0130 23:57:30.144055 112238 net.cpp:151] Top shape: 50 2 (100)
I0130 23:57:30.144057 112238 net.cpp:159] Memory required for data: 416583200
I0130 23:57:30.144059 112238 layer_factory.hpp:77] Creating layer loss
I0130 23:57:30.144065 112238 net.cpp:94] Creating Layer loss
I0130 23:57:30.144068 112238 net.cpp:435] loss <- fc8_fc8_0_split_0
I0130 23:57:30.144071 112238 net.cpp:435] loss <- label_data_1_split_0
I0130 23:57:30.144075 112238 net.cpp:409] loss -> loss
…
