…
I0130 20:38:46.476097 108554 caffe_interface.cpp:70] GPU device name: Quadro P6000
I0130 20:38:46.476418 108554 net.cpp:323] The NetState phase (1) differed from the phase (0) specified by a rule in layer data
I0130 20:38:46.476581 108554 net.cpp:52] Initializing net from parameters: 
state {
  phase: TEST
}
layer {
  name: "data"
  type: "Data"
  top: "data"
  top: "label"
  include {
    phase: TEST
  }
  transform_param {
    mirror: false
    crop_size: 227
    mean_value: 106
    mean_value: 116
    mean_value: 124
  }
  data_param {
    source: "cats-vs-dogs/input/lmdb/valid_lmdb"
    batch_size: 50
    backend: LMDB
  }
}
layer {
  name: "conv1"
  type: "Convolution"
  bottom: "data"
  top: "conv1"
  param {
    lr_mult: 1
    decay_mult: 1
  }
  param {
    lr_mult: 2
    decay_mult: 0
  }
  convolution_param {
    num_output: 96
    pad: 1
    kernel_size: 11
    stride: 4
    weight_filler {
      type: "gaussian"
      std: 0.01
    }
    bias_filler {
      type: "constant"
      value: 0
    }
  }
}
layer {
  name: "bn1"
  type: "BatchNorm"
  bottom: "conv1"
  top: "scale1"
  param {
    lr_mult: 1
    decay_mult: 0
  }
  param {
    lr_mult: 1
    decay_mult: 0
  }
  param {
    lr_mult: 0
    decay_mult: 0
  }
  param {
    lr_mult: 0
    decay_mult: 0
  }
  batch_norm_param {
    use_global_stats: false
    scale_filler {
      type: "constant"
      value: 1
    }
    bias_filler {
      type: "constant"
      value: 0
    }
  }
}
layer {
  name: "relu1"
  type: "ReLU"
  bottom: "scale1"
  top: "relu1"
}
layer {
  name: "pool1"
  type: "Pooling"
  bottom: "relu1"
  top: "pool1"
  pooling_param {
    pool: MAX
    kernel_size: 3
    stride: 2
  }
}
layer {
  name: "conv2"
  type: "Convolution"
  bottom: "pool1"
  top: "conv2"
  param {
    lr_mult: 1
    decay_mult: 1
  }
  param {
    lr_mult: 2
    decay_mult: 0
  }
  convolution_param {
    num_output: 256
    pad: 2
    kernel_size: 5
    group: 1
    weight_filler {
      type: "gaussian"
      std: 0.01
    }
    bias_filler {
      type: "constant"
      value: 1
    }
  }
}
layer {
  name: "bn2"
  type: "BatchNorm"
  bottom: "conv2"
  top: "scale2"
  param {
    lr_mult: 1
    decay_mult: 0
  }
  param {
    lr_mult: 1
    decay_mult: 0
  }
  param {
    lr_mult: 0
    decay_mult: 0
  }
  param {
    lr_mult: 0
    decay_mult: 0
  }
  batch_norm_param {
    use_global_stats: false
    scale_filler {
      type: "constant"
      value: 1
    }
    bias_filler {
      type: "constant"
      value: 0
    }
  }
}
layer {
  name: "relu2"
  type: "ReLU"
  bottom: "scale2"
  top: "relu2"
}
layer {
  name: "pool2"
  type: "Pooling"
  bottom: "relu2"
  top: "pool2"
  pooling_param {
    pool: MAX
    kernel_size: 3
    stride: 2
  }
}
layer {
  name: "conv3"
  type: "Convolution"
  bottom: "pool2"
  top: "conv3"
  param {
    lr_mult: 1
    decay_mult: 1
  }
  param {
    lr_mult: 2
    decay_mult: 0
  }
  convolution_param {
    num_output: 384
    pad: 1
    kernel_size: 3
    weight_filler {
      type: "gaussian"
      std: 0.01
    }
    bias_filler {
      type: "constant"
      value: 0
    }
  }
}
layer {
  name: "relu3"
  type: "ReLU"
  bottom: "conv3"
  top: "relu3"
}
layer {
  name: "conv4"
  type: "Convolution"
  bottom: "relu3"
  top: "conv4"
  param {
    lr_mult: 1
    decay_mult: 1
  }
  param {
    lr_mult: 2
    decay_mult: 0
  }
  convolution_param {
    num_output: 384
    pad: 1
    kernel_size: 3
    group: 1
    weight_filler {
      type: "gaussian"
      std: 0.01
    }
    bias_filler {
      type: "constant"
      value: 1
    }
  }
}
layer {
  name: "relu4"
  type: "ReLU"
  bottom: "conv4"
  top: "relu4"
}
layer {
  name: "conv5"
  type: "Convolution"
  bottom: "relu4"
  top: "conv5"
  param {
    lr_mult: 1
    decay_mult: 1
  }
  param {
    lr_mult: 2
    decay_mult: 0
  }
  convolution_param {
    num_output: 256
    pad: 1
    kernel_size: 3
    group: 1
    weight_filler {
      type: "gaussian"
      std: 0.01
    }
    bias_filler {
      type: "constant"
      value: 1
    }
  }
}
layer {
  name: "relu5"
  type: "ReLU"
  bottom: "conv5"
  top: "relu5"
}
layer {
  name: "pool5"
  type: "Pooling"
  bottom: "relu5"
  top: "pool5"
  pooling_param {
    pool: MAX
    kernel_size: 3
    stride: 2
  }
}
layer {
  name: "fc6"
  type: "InnerProduct"
  bottom: "pool5"
  top: "fc6"
  param {
    lr_mult: 1
    decay_mult: 1
  }
  param {
    lr_mult: 2
    decay_mult: 0
  }
  inner_product_param {
    num_output: 4096
    weight_filler {
      type: "gaussian"
      std: 0.005
    }
    bias_filler {
      type: "constant"
      value: 1
    }
  }
}
layer {
  name: "relu6"
  type: "ReLU"
  bottom: "fc6"
  top: "relu6"
}
layer {
  name: "drop6"
  type: "Dropout"
  bottom: "relu6"
  top: "drop6"
  dropout_param {
    dropout_ratio: 0.5
  }
}
layer {
  name: "fc7"
  type: "InnerProduct"
  bottom: "drop6"
  top: "fc7"
  param {
    lr_mult: 1
    decay_mult: 1
  }
  param {
    lr_mult: 2
    decay_mult: 0
  }
  inner_product_param {
    num_output: 4096
    weight_filler {
      type: "gaussian"
      std: 0.005
    }
    bias_filler {
      type: "constant"
      value: 1
    }
  }
}
layer {
  name: "bn7"
  type: "BatchNorm"
  bottom: "fc7"
  top: "scale7"
  param {
    lr_mult: 1
    decay_mult: 0
  }
  param {
    lr_mult: 1
    decay_mult: 0
  }
  param {
    lr_mult: 0
    decay_mult: 0
  }
  param {
    lr_mult: 0
    decay_mult: 0
  }
  batch_norm_param {
    use_global_stats: false
    scale_filler {
      type: "constant"
      value: 1
    }
    bias_filler {
      type: "constant"
      value: 0
    }
  }
}
layer {
  name: "relu7"
  type: "ReLU"
  bottom: "scale7"
  top: "relu7"
}
layer {
  name: "drop7"
  type: "Dropout"
  bottom: "relu7"
  top: "drop7"
  dropout_param {
    dropout_ratio: 0.5
  }
}
layer {
  name: "fc8"
  type: "InnerProduct"
  bottom: "drop7"
  top: "fc8"
  param {
    lr_mult: 1
    decay_mult: 1
  }
  param {
    lr_mult: 2
    decay_mult: 0
  }
  inner_product_param {
    num_output: 2
    weight_filler {
      type: "gaussian"
      std: 0.01
    }
    bias_filler {
      type: "constant"
      value: 0
    }
  }
}
layer {
  name: "loss"
  type: "SoftmaxWithLoss"
  bottom: "fc8"
  bottom: "label"
  top: "loss"
}
layer {
  name: "accuracy-top1"
  type: "Accuracy"
  bottom: "fc8"
  bottom: "label"
  top: "top-1"
  include {
    phase: TEST
  }
}
I0130 20:38:46.476681 108554 layer_factory.hpp:77] Creating layer data
I0130 20:38:46.476716 108554 internal_thread.cpp:27] Starting internal thread(s) on GPU 0
I0130 20:38:46.477097 108554 net.cpp:94] Creating Layer data
I0130 20:38:46.477102 108554 net.cpp:409] data -> data
I0130 20:38:46.477111 108554 net.cpp:409] data -> label
I0130 20:38:46.478777 108771 db_lmdb.cpp:35] Opened lmdb cats-vs-dogs/input/lmdb/valid_lmdb
I0130 20:38:46.478809 108771 data_reader.cpp:117] TEST: reading data using 1 channel(s)
I0130 20:38:46.478978 108554 data_layer.cpp:78] ReshapePrefetch 50, 3, 227, 227
I0130 20:38:46.479038 108554 data_layer.cpp:83] output data size: 50,3,227,227
I0130 20:38:46.574573 108554 internal_thread.cpp:27] Starting internal thread(s) on GPU 0
I0130 20:38:46.574633 108554 net.cpp:144] Setting up data
I0130 20:38:46.574641 108554 net.cpp:151] Top shape: 50 3 227 227 (7729350)
I0130 20:38:46.574645 108554 net.cpp:151] Top shape: 50 (50)
I0130 20:38:46.574662 108554 net.cpp:159] Memory required for data: 30917600
I0130 20:38:46.574667 108554 layer_factory.hpp:77] Creating layer label_data_1_split
I0130 20:38:46.574677 108554 net.cpp:94] Creating Layer label_data_1_split
I0130 20:38:46.574681 108554 net.cpp:435] label_data_1_split <- label
I0130 20:38:46.574688 108554 net.cpp:409] label_data_1_split -> label_data_1_split_0
I0130 20:38:46.574695 108554 net.cpp:409] label_data_1_split -> label_data_1_split_1
I0130 20:38:46.574744 108554 net.cpp:144] Setting up label_data_1_split
I0130 20:38:46.574749 108554 net.cpp:151] Top shape: 50 (50)
I0130 20:38:46.574767 108554 net.cpp:151] Top shape: 50 (50)
I0130 20:38:46.574769 108554 net.cpp:159] Memory required for data: 30918000
I0130 20:38:46.574771 108554 layer_factory.hpp:77] Creating layer conv1
I0130 20:38:46.574780 108554 net.cpp:94] Creating Layer conv1
I0130 20:38:46.574784 108554 net.cpp:435] conv1 <- data
I0130 20:38:46.574787 108554 net.cpp:409] conv1 -> conv1
I0130 20:38:46.576525 108554 net.cpp:144] Setting up conv1
I0130 20:38:46.576539 108554 net.cpp:151] Top shape: 50 96 55 55 (14520000)
I0130 20:38:46.576542 108554 net.cpp:159] Memory required for data: 88998000
I0130 20:38:46.576568 108554 layer_factory.hpp:77] Creating layer bn1
I0130 20:38:46.576577 108554 net.cpp:94] Creating Layer bn1
I0130 20:38:46.576581 108554 net.cpp:435] bn1 <- conv1
I0130 20:38:46.576587 108554 net.cpp:409] bn1 -> scale1
I0130 20:38:46.577297 108554 net.cpp:144] Setting up bn1
I0130 20:38:46.577303 108554 net.cpp:151] Top shape: 50 96 55 55 (14520000)
I0130 20:38:46.577306 108554 net.cpp:159] Memory required for data: 147078000
I0130 20:38:46.577317 108554 layer_factory.hpp:77] Creating layer relu1
I0130 20:38:46.577323 108554 net.cpp:94] Creating Layer relu1
I0130 20:38:46.577325 108554 net.cpp:435] relu1 <- scale1
I0130 20:38:46.577329 108554 net.cpp:409] relu1 -> relu1
I0130 20:38:46.577353 108554 net.cpp:144] Setting up relu1
I0130 20:38:46.577356 108554 net.cpp:151] Top shape: 50 96 55 55 (14520000)
I0130 20:38:46.577359 108554 net.cpp:159] Memory required for data: 205158000
I0130 20:38:46.577361 108554 layer_factory.hpp:77] Creating layer pool1
I0130 20:38:46.577368 108554 net.cpp:94] Creating Layer pool1
I0130 20:38:46.577369 108554 net.cpp:435] pool1 <- relu1
I0130 20:38:46.577373 108554 net.cpp:409] pool1 -> pool1
I0130 20:38:46.577440 108554 net.cpp:144] Setting up pool1
I0130 20:38:46.577445 108554 net.cpp:151] Top shape: 50 96 27 27 (3499200)
I0130 20:38:46.577447 108554 net.cpp:159] Memory required for data: 219154800
I0130 20:38:46.577450 108554 layer_factory.hpp:77] Creating layer conv2
I0130 20:38:46.577456 108554 net.cpp:94] Creating Layer conv2
I0130 20:38:46.577459 108554 net.cpp:435] conv2 <- pool1
I0130 20:38:46.577463 108554 net.cpp:409] conv2 -> conv2
I0130 20:38:46.584466 108554 net.cpp:144] Setting up conv2
I0130 20:38:46.584483 108554 net.cpp:151] Top shape: 50 256 27 27 (9331200)
I0130 20:38:46.584486 108554 net.cpp:159] Memory required for data: 256479600
I0130 20:38:46.584497 108554 layer_factory.hpp:77] Creating layer bn2
I0130 20:38:46.584506 108554 net.cpp:94] Creating Layer bn2
I0130 20:38:46.584509 108554 net.cpp:435] bn2 <- conv2
I0130 20:38:46.584516 108554 net.cpp:409] bn2 -> scale2
I0130 20:38:46.585055 108554 net.cpp:144] Setting up bn2
I0130 20:38:46.585063 108554 net.cpp:151] Top shape: 50 256 27 27 (9331200)
I0130 20:38:46.585067 108554 net.cpp:159] Memory required for data: 293804400
I0130 20:38:46.585075 108554 layer_factory.hpp:77] Creating layer relu2
I0130 20:38:46.585081 108554 net.cpp:94] Creating Layer relu2
I0130 20:38:46.585084 108554 net.cpp:435] relu2 <- scale2
I0130 20:38:46.585089 108554 net.cpp:409] relu2 -> relu2
I0130 20:38:46.585108 108554 net.cpp:144] Setting up relu2
I0130 20:38:46.585114 108554 net.cpp:151] Top shape: 50 256 27 27 (9331200)
I0130 20:38:46.585116 108554 net.cpp:159] Memory required for data: 331129200
I0130 20:38:46.585119 108554 layer_factory.hpp:77] Creating layer pool2
I0130 20:38:46.585126 108554 net.cpp:94] Creating Layer pool2
I0130 20:38:46.585129 108554 net.cpp:435] pool2 <- relu2
I0130 20:38:46.585134 108554 net.cpp:409] pool2 -> pool2
I0130 20:38:46.585161 108554 net.cpp:144] Setting up pool2
I0130 20:38:46.585166 108554 net.cpp:151] Top shape: 50 256 13 13 (2163200)
I0130 20:38:46.585168 108554 net.cpp:159] Memory required for data: 339782000
I0130 20:38:46.585171 108554 layer_factory.hpp:77] Creating layer conv3
I0130 20:38:46.585181 108554 net.cpp:94] Creating Layer conv3
I0130 20:38:46.585184 108554 net.cpp:435] conv3 <- pool2
I0130 20:38:46.585189 108554 net.cpp:409] conv3 -> conv3
I0130 20:38:46.594787 108554 net.cpp:144] Setting up conv3
I0130 20:38:46.594826 108554 net.cpp:151] Top shape: 50 384 13 13 (3244800)
I0130 20:38:46.594831 108554 net.cpp:159] Memory required for data: 352761200
I0130 20:38:46.594841 108554 layer_factory.hpp:77] Creating layer relu3
I0130 20:38:46.594851 108554 net.cpp:94] Creating Layer relu3
I0130 20:38:46.594856 108554 net.cpp:435] relu3 <- conv3
I0130 20:38:46.594864 108554 net.cpp:409] relu3 -> relu3
I0130 20:38:46.594894 108554 net.cpp:144] Setting up relu3
I0130 20:38:46.594902 108554 net.cpp:151] Top shape: 50 384 13 13 (3244800)
I0130 20:38:46.594905 108554 net.cpp:159] Memory required for data: 365740400
I0130 20:38:46.594909 108554 layer_factory.hpp:77] Creating layer conv4
I0130 20:38:46.594921 108554 net.cpp:94] Creating Layer conv4
I0130 20:38:46.594925 108554 net.cpp:435] conv4 <- relu3
I0130 20:38:46.594933 108554 net.cpp:409] conv4 -> conv4
I0130 20:38:46.613225 108554 net.cpp:144] Setting up conv4
I0130 20:38:46.613255 108554 net.cpp:151] Top shape: 50 384 13 13 (3244800)
I0130 20:38:46.613260 108554 net.cpp:159] Memory required for data: 378719600
I0130 20:38:46.613276 108554 layer_factory.hpp:77] Creating layer relu4
I0130 20:38:46.613286 108554 net.cpp:94] Creating Layer relu4
I0130 20:38:46.613291 108554 net.cpp:435] relu4 <- conv4
I0130 20:38:46.613299 108554 net.cpp:409] relu4 -> relu4
I0130 20:38:46.613329 108554 net.cpp:144] Setting up relu4
I0130 20:38:46.613338 108554 net.cpp:151] Top shape: 50 384 13 13 (3244800)
I0130 20:38:46.613343 108554 net.cpp:159] Memory required for data: 391698800
I0130 20:38:46.613345 108554 layer_factory.hpp:77] Creating layer conv5
I0130 20:38:46.613356 108554 net.cpp:94] Creating Layer conv5
I0130 20:38:46.613361 108554 net.cpp:435] conv5 <- relu4
I0130 20:38:46.613368 108554 net.cpp:409] conv5 -> conv5
I0130 20:38:46.624964 108554 net.cpp:144] Setting up conv5
I0130 20:38:46.625038 108554 net.cpp:151] Top shape: 50 256 13 13 (2163200)
I0130 20:38:46.625054 108554 net.cpp:159] Memory required for data: 400351600
I0130 20:38:46.625078 108554 layer_factory.hpp:77] Creating layer relu5
I0130 20:38:46.625100 108554 net.cpp:94] Creating Layer relu5
I0130 20:38:46.625118 108554 net.cpp:435] relu5 <- conv5
I0130 20:38:46.625138 108554 net.cpp:409] relu5 -> relu5
I0130 20:38:46.625195 108554 net.cpp:144] Setting up relu5
I0130 20:38:46.625211 108554 net.cpp:151] Top shape: 50 256 13 13 (2163200)
I0130 20:38:46.625226 108554 net.cpp:159] Memory required for data: 409004400
I0130 20:38:46.625239 108554 layer_factory.hpp:77] Creating layer pool5
I0130 20:38:46.625262 108554 net.cpp:94] Creating Layer pool5
I0130 20:38:46.625275 108554 net.cpp:435] pool5 <- relu5
I0130 20:38:46.625293 108554 net.cpp:409] pool5 -> pool5
I0130 20:38:46.625347 108554 net.cpp:144] Setting up pool5
I0130 20:38:46.625365 108554 net.cpp:151] Top shape: 50 256 6 6 (460800)
I0130 20:38:46.625380 108554 net.cpp:159] Memory required for data: 410847600
I0130 20:38:46.625394 108554 layer_factory.hpp:77] Creating layer fc6
I0130 20:38:46.625414 108554 net.cpp:94] Creating Layer fc6
I0130 20:38:46.625430 108554 net.cpp:435] fc6 <- pool5
I0130 20:38:46.625452 108554 net.cpp:409] fc6 -> fc6
I0130 20:38:46.959611 108554 net.cpp:144] Setting up fc6
I0130 20:38:46.959636 108554 net.cpp:151] Top shape: 50 4096 (204800)
I0130 20:38:46.959640 108554 net.cpp:159] Memory required for data: 411666800
I0130 20:38:46.959661 108554 layer_factory.hpp:77] Creating layer relu6
I0130 20:38:46.959669 108554 net.cpp:94] Creating Layer relu6
I0130 20:38:46.959672 108554 net.cpp:435] relu6 <- fc6
I0130 20:38:46.959678 108554 net.cpp:409] relu6 -> relu6
I0130 20:38:46.959702 108554 net.cpp:144] Setting up relu6
I0130 20:38:46.959707 108554 net.cpp:151] Top shape: 50 4096 (204800)
I0130 20:38:46.959708 108554 net.cpp:159] Memory required for data: 412486000
I0130 20:38:46.959712 108554 layer_factory.hpp:77] Creating layer drop6
I0130 20:38:46.959717 108554 net.cpp:94] Creating Layer drop6
I0130 20:38:46.959719 108554 net.cpp:435] drop6 <- relu6
I0130 20:38:46.959722 108554 net.cpp:409] drop6 -> drop6
I0130 20:38:46.959748 108554 net.cpp:144] Setting up drop6
I0130 20:38:46.959770 108554 net.cpp:151] Top shape: 50 4096 (204800)
I0130 20:38:46.959772 108554 net.cpp:159] Memory required for data: 413305200
I0130 20:38:46.959774 108554 layer_factory.hpp:77] Creating layer fc7
I0130 20:38:46.959780 108554 net.cpp:94] Creating Layer fc7
I0130 20:38:46.959782 108554 net.cpp:435] fc7 <- drop6
I0130 20:38:46.959786 108554 net.cpp:409] fc7 -> fc7
I0130 20:38:47.100003 108554 net.cpp:144] Setting up fc7
I0130 20:38:47.100025 108554 net.cpp:151] Top shape: 50 4096 (204800)
I0130 20:38:47.100028 108554 net.cpp:159] Memory required for data: 414124400
I0130 20:38:47.100034 108554 layer_factory.hpp:77] Creating layer bn7
I0130 20:38:47.100044 108554 net.cpp:94] Creating Layer bn7
I0130 20:38:47.100047 108554 net.cpp:435] bn7 <- fc7
I0130 20:38:47.100052 108554 net.cpp:409] bn7 -> scale7
I0130 20:38:47.100574 108554 net.cpp:144] Setting up bn7
I0130 20:38:47.100579 108554 net.cpp:151] Top shape: 50 4096 (204800)
I0130 20:38:47.100582 108554 net.cpp:159] Memory required for data: 414943600
I0130 20:38:47.100589 108554 layer_factory.hpp:77] Creating layer relu7
I0130 20:38:47.100594 108554 net.cpp:94] Creating Layer relu7
I0130 20:38:47.100596 108554 net.cpp:435] relu7 <- scale7
I0130 20:38:47.100601 108554 net.cpp:409] relu7 -> relu7
I0130 20:38:47.100618 108554 net.cpp:144] Setting up relu7
I0130 20:38:47.100625 108554 net.cpp:151] Top shape: 50 4096 (204800)
I0130 20:38:47.100628 108554 net.cpp:159] Memory required for data: 415762800
I0130 20:38:47.100631 108554 layer_factory.hpp:77] Creating layer drop7
I0130 20:38:47.100637 108554 net.cpp:94] Creating Layer drop7
I0130 20:38:47.100641 108554 net.cpp:435] drop7 <- relu7
I0130 20:38:47.100646 108554 net.cpp:409] drop7 -> drop7
I0130 20:38:47.100672 108554 net.cpp:144] Setting up drop7
I0130 20:38:47.100677 108554 net.cpp:151] Top shape: 50 4096 (204800)
I0130 20:38:47.100678 108554 net.cpp:159] Memory required for data: 416582000
I0130 20:38:47.100680 108554 layer_factory.hpp:77] Creating layer fc8
I0130 20:38:47.100687 108554 net.cpp:94] Creating Layer fc8
I0130 20:38:47.100689 108554 net.cpp:435] fc8 <- drop7
I0130 20:38:47.100692 108554 net.cpp:409] fc8 -> fc8
I0130 20:38:47.101481 108554 net.cpp:144] Setting up fc8
I0130 20:38:47.101492 108554 net.cpp:151] Top shape: 50 2 (100)
I0130 20:38:47.101495 108554 net.cpp:159] Memory required for data: 416582400
I0130 20:38:47.101500 108554 layer_factory.hpp:77] Creating layer fc8_fc8_0_split
I0130 20:38:47.101506 108554 net.cpp:94] Creating Layer fc8_fc8_0_split
I0130 20:38:47.101510 108554 net.cpp:435] fc8_fc8_0_split <- fc8
I0130 20:38:47.101514 108554 net.cpp:409] fc8_fc8_0_split -> fc8_fc8_0_split_0
I0130 20:38:47.101521 108554 net.cpp:409] fc8_fc8_0_split -> fc8_fc8_0_split_1
I0130 20:38:47.101546 108554 net.cpp:144] Setting up fc8_fc8_0_split
I0130 20:38:47.101550 108554 net.cpp:151] Top shape: 50 2 (100)
I0130 20:38:47.101553 108554 net.cpp:151] Top shape: 50 2 (100)
I0130 20:38:47.101555 108554 net.cpp:159] Memory required for data: 416583200
I0130 20:38:47.101558 108554 layer_factory.hpp:77] Creating layer loss
I0130 20:38:47.101563 108554 net.cpp:94] Creating Layer loss
I0130 20:38:47.101567 108554 net.cpp:435] loss <- fc8_fc8_0_split_0
I0130 20:38:47.101569 108554 net.cpp:435] loss <- label_data_1_split_0
I0130 20:38:47.101574 108554 net.cpp:409] loss -> loss
…
