…
I0131 01:37:48.691679 112883 caffe_interface.cpp:70] GPU device name: Quadro P6000
I0131 01:37:48.692016 112883 net.cpp:323] The NetState phase (1) differed from the phase (0) specified by a rule in layer data
I0131 01:37:48.692185 112883 net.cpp:52] Initializing net from parameters: 
state {
  phase: TEST
}
layer {
  name: "data"
  type: "Data"
  top: "data"
  top: "label"
  include {
    phase: TEST
  }
  transform_param {
    mirror: false
    crop_size: 227
    mean_value: 106
    mean_value: 116
    mean_value: 124
  }
  data_param {
    source: "cats-vs-dogs/input/lmdb/valid_lmdb"
    batch_size: 50
    backend: LMDB
  }
}
layer {
  name: "conv1"
  type: "Convolution"
  bottom: "data"
  top: "conv1"
  param {
    lr_mult: 1
    decay_mult: 1
  }
  param {
    lr_mult: 2
    decay_mult: 0
  }
  convolution_param {
    num_output: 96
    pad: 1
    kernel_size: 11
    stride: 4
    weight_filler {
      type: "gaussian"
      std: 0.01
    }
    bias_filler {
      type: "constant"
      value: 0
    }
  }
}
layer {
  name: "bn1"
  type: "BatchNorm"
  bottom: "conv1"
  top: "scale1"
  param {
    lr_mult: 1
    decay_mult: 0
  }
  param {
    lr_mult: 1
    decay_mult: 0
  }
  param {
    lr_mult: 0
    decay_mult: 0
  }
  param {
    lr_mult: 0
    decay_mult: 0
  }
  batch_norm_param {
    use_global_stats: false
    scale_filler {
      type: "constant"
      value: 1
    }
    bias_filler {
      type: "constant"
      value: 0
    }
  }
}
layer {
  name: "relu1"
  type: "ReLU"
  bottom: "scale1"
  top: "relu1"
}
layer {
  name: "pool1"
  type: "Pooling"
  bottom: "relu1"
  top: "pool1"
  pooling_param {
    pool: MAX
    kernel_size: 3
    stride: 2
  }
}
layer {
  name: "conv2"
  type: "Convolution"
  bottom: "pool1"
  top: "conv2"
  param {
    lr_mult: 1
    decay_mult: 1
  }
  param {
    lr_mult: 2
    decay_mult: 0
  }
  convolution_param {
    num_output: 256
    pad: 2
    kernel_size: 5
    group: 1
    weight_filler {
      type: "gaussian"
      std: 0.01
    }
    bias_filler {
      type: "constant"
      value: 1
    }
  }
}
layer {
  name: "bn2"
  type: "BatchNorm"
  bottom: "conv2"
  top: "scale2"
  param {
    lr_mult: 1
    decay_mult: 0
  }
  param {
    lr_mult: 1
    decay_mult: 0
  }
  param {
    lr_mult: 0
    decay_mult: 0
  }
  param {
    lr_mult: 0
    decay_mult: 0
  }
  batch_norm_param {
    use_global_stats: false
    scale_filler {
      type: "constant"
      value: 1
    }
    bias_filler {
      type: "constant"
      value: 0
    }
  }
}
layer {
  name: "relu2"
  type: "ReLU"
  bottom: "scale2"
  top: "relu2"
}
layer {
  name: "pool2"
  type: "Pooling"
  bottom: "relu2"
  top: "pool2"
  pooling_param {
    pool: MAX
    kernel_size: 3
    stride: 2
  }
}
layer {
  name: "conv3"
  type: "Convolution"
  bottom: "pool2"
  top: "conv3"
  param {
    lr_mult: 1
    decay_mult: 1
  }
  param {
    lr_mult: 2
    decay_mult: 0
  }
  convolution_param {
    num_output: 384
    pad: 1
    kernel_size: 3
    weight_filler {
      type: "gaussian"
      std: 0.01
    }
    bias_filler {
      type: "constant"
      value: 0
    }
  }
}
layer {
  name: "relu3"
  type: "ReLU"
  bottom: "conv3"
  top: "relu3"
}
layer {
  name: "conv4"
  type: "Convolution"
  bottom: "relu3"
  top: "conv4"
  param {
    lr_mult: 1
    decay_mult: 1
  }
  param {
    lr_mult: 2
    decay_mult: 0
  }
  convolution_param {
    num_output: 384
    pad: 1
    kernel_size: 3
    group: 1
    weight_filler {
      type: "gaussian"
      std: 0.01
    }
    bias_filler {
      type: "constant"
      value: 1
    }
  }
}
layer {
  name: "relu4"
  type: "ReLU"
  bottom: "conv4"
  top: "relu4"
}
layer {
  name: "conv5"
  type: "Convolution"
  bottom: "relu4"
  top: "conv5"
  param {
    lr_mult: 1
    decay_mult: 1
  }
  param {
    lr_mult: 2
    decay_mult: 0
  }
  convolution_param {
    num_output: 256
    pad: 1
    kernel_size: 3
    group: 1
    weight_filler {
      type: "gaussian"
      std: 0.01
    }
    bias_filler {
      type: "constant"
      value: 1
    }
  }
}
layer {
  name: "relu5"
  type: "ReLU"
  bottom: "conv5"
  top: "relu5"
}
layer {
  name: "pool5"
  type: "Pooling"
  bottom: "relu5"
  top: "pool5"
  pooling_param {
    pool: MAX
    kernel_size: 3
    stride: 2
  }
}
layer {
  name: "fc6"
  type: "InnerProduct"
  bottom: "pool5"
  top: "fc6"
  param {
    lr_mult: 1
    decay_mult: 1
  }
  param {
    lr_mult: 2
    decay_mult: 0
  }
  inner_product_param {
    num_output: 4096
    weight_filler {
      type: "gaussian"
      std: 0.005
    }
    bias_filler {
      type: "constant"
      value: 1
    }
  }
}
layer {
  name: "relu6"
  type: "ReLU"
  bottom: "fc6"
  top: "relu6"
}
layer {
  name: "drop6"
  type: "Dropout"
  bottom: "relu6"
  top: "drop6"
  dropout_param {
    dropout_ratio: 0.5
  }
}
layer {
  name: "fc7"
  type: "InnerProduct"
  bottom: "drop6"
  top: "fc7"
  param {
    lr_mult: 1
    decay_mult: 1
  }
  param {
    lr_mult: 2
    decay_mult: 0
  }
  inner_product_param {
    num_output: 4096
    weight_filler {
      type: "gaussian"
      std: 0.005
    }
    bias_filler {
      type: "constant"
      value: 1
    }
  }
}
layer {
  name: "bn7"
  type: "BatchNorm"
  bottom: "fc7"
  top: "scale7"
  param {
    lr_mult: 1
    decay_mult: 0
  }
  param {
    lr_mult: 1
    decay_mult: 0
  }
  param {
    lr_mult: 0
    decay_mult: 0
  }
  param {
    lr_mult: 0
    decay_mult: 0
  }
  batch_norm_param {
    use_global_stats: false
    scale_filler {
      type: "constant"
      value: 1
    }
    bias_filler {
      type: "constant"
      value: 0
    }
  }
}
layer {
  name: "relu7"
  type: "ReLU"
  bottom: "scale7"
  top: "relu7"
}
layer {
  name: "drop7"
  type: "Dropout"
  bottom: "relu7"
  top: "drop7"
  dropout_param {
    dropout_ratio: 0.5
  }
}
layer {
  name: "fc8"
  type: "InnerProduct"
  bottom: "drop7"
  top: "fc8"
  param {
    lr_mult: 1
    decay_mult: 1
  }
  param {
    lr_mult: 2
    decay_mult: 0
  }
  inner_product_param {
    num_output: 2
    weight_filler {
      type: "gaussian"
      std: 0.01
    }
    bias_filler {
      type: "constant"
      value: 0
    }
  }
}
layer {
  name: "loss"
  type: "SoftmaxWithLoss"
  bottom: "fc8"
  bottom: "label"
  top: "loss"
}
layer {
  name: "accuracy-top1"
  type: "Accuracy"
  bottom: "fc8"
  bottom: "label"
  top: "top-1"
  include {
    phase: TEST
  }
}
I0131 01:37:48.692308 112883 layer_factory.hpp:77] Creating layer data
I0131 01:37:48.692354 112883 internal_thread.cpp:27] Starting internal thread(s) on GPU 0
I0131 01:37:48.692761 112883 net.cpp:94] Creating Layer data
I0131 01:37:48.692770 112883 net.cpp:409] data -> data
I0131 01:37:48.692782 112883 net.cpp:409] data -> label
I0131 01:37:48.694336 114635 db_lmdb.cpp:35] Opened lmdb cats-vs-dogs/input/lmdb/valid_lmdb
I0131 01:37:48.694370 114635 data_reader.cpp:117] TEST: reading data using 1 channel(s)
I0131 01:37:48.694548 112883 data_layer.cpp:78] ReshapePrefetch 50, 3, 227, 227
I0131 01:37:48.694639 112883 data_layer.cpp:83] output data size: 50,3,227,227
I0131 01:37:48.779057 112883 internal_thread.cpp:27] Starting internal thread(s) on GPU 0
I0131 01:37:48.779134 112883 net.cpp:144] Setting up data
I0131 01:37:48.779142 112883 net.cpp:151] Top shape: 50 3 227 227 (7729350)
I0131 01:37:48.779146 112883 net.cpp:151] Top shape: 50 (50)
I0131 01:37:48.779150 112883 net.cpp:159] Memory required for data: 30917600
I0131 01:37:48.779155 112883 layer_factory.hpp:77] Creating layer label_data_1_split
I0131 01:37:48.779165 112883 net.cpp:94] Creating Layer label_data_1_split
I0131 01:37:48.779170 112883 net.cpp:435] label_data_1_split <- label
I0131 01:37:48.779177 112883 net.cpp:409] label_data_1_split -> label_data_1_split_0
I0131 01:37:48.779187 112883 net.cpp:409] label_data_1_split -> label_data_1_split_1
I0131 01:37:48.779284 112883 net.cpp:144] Setting up label_data_1_split
I0131 01:37:48.779307 112883 net.cpp:151] Top shape: 50 (50)
I0131 01:37:48.779311 112883 net.cpp:151] Top shape: 50 (50)
I0131 01:37:48.779314 112883 net.cpp:159] Memory required for data: 30918000
I0131 01:37:48.779315 112883 layer_factory.hpp:77] Creating layer conv1
I0131 01:37:48.779330 112883 net.cpp:94] Creating Layer conv1
I0131 01:37:48.779335 112883 net.cpp:435] conv1 <- data
I0131 01:37:48.779340 112883 net.cpp:409] conv1 -> conv1
I0131 01:37:48.781018 112883 net.cpp:144] Setting up conv1
I0131 01:37:48.781033 112883 net.cpp:151] Top shape: 50 96 55 55 (14520000)
I0131 01:37:48.781035 112883 net.cpp:159] Memory required for data: 88998000
I0131 01:37:48.781061 112883 layer_factory.hpp:77] Creating layer bn1
I0131 01:37:48.781069 112883 net.cpp:94] Creating Layer bn1
I0131 01:37:48.781074 112883 net.cpp:435] bn1 <- conv1
I0131 01:37:48.781078 112883 net.cpp:409] bn1 -> scale1
I0131 01:37:48.781744 112883 net.cpp:144] Setting up bn1
I0131 01:37:48.781750 112883 net.cpp:151] Top shape: 50 96 55 55 (14520000)
I0131 01:37:48.781754 112883 net.cpp:159] Memory required for data: 147078000
I0131 01:37:48.781764 112883 layer_factory.hpp:77] Creating layer relu1
I0131 01:37:48.781769 112883 net.cpp:94] Creating Layer relu1
I0131 01:37:48.781774 112883 net.cpp:435] relu1 <- scale1
I0131 01:37:48.781777 112883 net.cpp:409] relu1 -> relu1
I0131 01:37:48.781807 112883 net.cpp:144] Setting up relu1
I0131 01:37:48.781812 112883 net.cpp:151] Top shape: 50 96 55 55 (14520000)
I0131 01:37:48.781814 112883 net.cpp:159] Memory required for data: 205158000
I0131 01:37:48.781817 112883 layer_factory.hpp:77] Creating layer pool1
I0131 01:37:48.781822 112883 net.cpp:94] Creating Layer pool1
I0131 01:37:48.781826 112883 net.cpp:435] pool1 <- relu1
I0131 01:37:48.781828 112883 net.cpp:409] pool1 -> pool1
I0131 01:37:48.781884 112883 net.cpp:144] Setting up pool1
I0131 01:37:48.781888 112883 net.cpp:151] Top shape: 50 96 27 27 (3499200)
I0131 01:37:48.781891 112883 net.cpp:159] Memory required for data: 219154800
I0131 01:37:48.781893 112883 layer_factory.hpp:77] Creating layer conv2
I0131 01:37:48.781901 112883 net.cpp:94] Creating Layer conv2
I0131 01:37:48.781903 112883 net.cpp:435] conv2 <- pool1
I0131 01:37:48.781908 112883 net.cpp:409] conv2 -> conv2
I0131 01:37:48.790184 112883 net.cpp:144] Setting up conv2
I0131 01:37:48.790213 112883 net.cpp:151] Top shape: 50 256 27 27 (9331200)
I0131 01:37:48.790216 112883 net.cpp:159] Memory required for data: 256479600
I0131 01:37:48.790242 112883 layer_factory.hpp:77] Creating layer bn2
I0131 01:37:48.790253 112883 net.cpp:94] Creating Layer bn2
I0131 01:37:48.790258 112883 net.cpp:435] bn2 <- conv2
I0131 01:37:48.790266 112883 net.cpp:409] bn2 -> scale2
I0131 01:37:48.793185 112883 net.cpp:144] Setting up bn2
I0131 01:37:48.793192 112883 net.cpp:151] Top shape: 50 256 27 27 (9331200)
I0131 01:37:48.793195 112883 net.cpp:159] Memory required for data: 293804400
I0131 01:37:48.793201 112883 layer_factory.hpp:77] Creating layer relu2
I0131 01:37:48.793206 112883 net.cpp:94] Creating Layer relu2
I0131 01:37:48.793208 112883 net.cpp:435] relu2 <- scale2
I0131 01:37:48.793212 112883 net.cpp:409] relu2 -> relu2
I0131 01:37:48.793226 112883 net.cpp:144] Setting up relu2
I0131 01:37:48.793231 112883 net.cpp:151] Top shape: 50 256 27 27 (9331200)
I0131 01:37:48.793233 112883 net.cpp:159] Memory required for data: 331129200
I0131 01:37:48.793237 112883 layer_factory.hpp:77] Creating layer pool2
I0131 01:37:48.793242 112883 net.cpp:94] Creating Layer pool2
I0131 01:37:48.793246 112883 net.cpp:435] pool2 <- relu2
I0131 01:37:48.793265 112883 net.cpp:409] pool2 -> pool2
I0131 01:37:48.795667 112883 net.cpp:144] Setting up pool2
I0131 01:37:48.795675 112883 net.cpp:151] Top shape: 50 256 13 13 (2163200)
I0131 01:37:48.795676 112883 net.cpp:159] Memory required for data: 339782000
I0131 01:37:48.795678 112883 layer_factory.hpp:77] Creating layer conv3
I0131 01:37:48.795686 112883 net.cpp:94] Creating Layer conv3
I0131 01:37:48.795689 112883 net.cpp:435] conv3 <- pool2
I0131 01:37:48.795704 112883 net.cpp:409] conv3 -> conv3
I0131 01:37:48.808054 112883 net.cpp:144] Setting up conv3
I0131 01:37:48.808079 112883 net.cpp:151] Top shape: 50 384 13 13 (3244800)
I0131 01:37:48.808081 112883 net.cpp:159] Memory required for data: 352761200
I0131 01:37:48.808089 112883 layer_factory.hpp:77] Creating layer relu3
I0131 01:37:48.808097 112883 net.cpp:94] Creating Layer relu3
I0131 01:37:48.808101 112883 net.cpp:435] relu3 <- conv3
I0131 01:37:48.808118 112883 net.cpp:409] relu3 -> relu3
I0131 01:37:48.808149 112883 net.cpp:144] Setting up relu3
I0131 01:37:48.808156 112883 net.cpp:151] Top shape: 50 384 13 13 (3244800)
I0131 01:37:48.808158 112883 net.cpp:159] Memory required for data: 365740400
I0131 01:37:48.808161 112883 layer_factory.hpp:77] Creating layer conv4
I0131 01:37:48.808173 112883 net.cpp:94] Creating Layer conv4
I0131 01:37:48.808182 112883 net.cpp:435] conv4 <- relu3
I0131 01:37:48.808188 112883 net.cpp:409] conv4 -> conv4
I0131 01:37:48.824987 112883 net.cpp:144] Setting up conv4
I0131 01:37:48.825011 112883 net.cpp:151] Top shape: 50 384 13 13 (3244800)
I0131 01:37:48.825013 112883 net.cpp:159] Memory required for data: 378719600
I0131 01:37:48.825029 112883 layer_factory.hpp:77] Creating layer relu4
I0131 01:37:48.825042 112883 net.cpp:94] Creating Layer relu4
I0131 01:37:48.825047 112883 net.cpp:435] relu4 <- conv4
I0131 01:37:48.825057 112883 net.cpp:409] relu4 -> relu4
I0131 01:37:48.825109 112883 net.cpp:144] Setting up relu4
I0131 01:37:48.825114 112883 net.cpp:151] Top shape: 50 384 13 13 (3244800)
I0131 01:37:48.825117 112883 net.cpp:159] Memory required for data: 391698800
I0131 01:37:48.825120 112883 layer_factory.hpp:77] Creating layer conv5
I0131 01:37:48.825134 112883 net.cpp:94] Creating Layer conv5
I0131 01:37:48.825137 112883 net.cpp:435] conv5 <- relu4
I0131 01:37:48.825145 112883 net.cpp:409] conv5 -> conv5
I0131 01:37:48.843428 112883 net.cpp:144] Setting up conv5
I0131 01:37:48.843454 112883 net.cpp:151] Top shape: 50 256 13 13 (2163200)
I0131 01:37:48.843457 112883 net.cpp:159] Memory required for data: 400351600
I0131 01:37:48.843466 112883 layer_factory.hpp:77] Creating layer relu5
I0131 01:37:48.843474 112883 net.cpp:94] Creating Layer relu5
I0131 01:37:48.843479 112883 net.cpp:435] relu5 <- conv5
I0131 01:37:48.843485 112883 net.cpp:409] relu5 -> relu5
I0131 01:37:48.843513 112883 net.cpp:144] Setting up relu5
I0131 01:37:48.843519 112883 net.cpp:151] Top shape: 50 256 13 13 (2163200)
I0131 01:37:48.843523 112883 net.cpp:159] Memory required for data: 409004400
I0131 01:37:48.843525 112883 layer_factory.hpp:77] Creating layer pool5
I0131 01:37:48.843533 112883 net.cpp:94] Creating Layer pool5
I0131 01:37:48.843535 112883 net.cpp:435] pool5 <- relu5
I0131 01:37:48.843541 112883 net.cpp:409] pool5 -> pool5
I0131 01:37:48.843569 112883 net.cpp:144] Setting up pool5
I0131 01:37:48.843574 112883 net.cpp:151] Top shape: 50 256 6 6 (460800)
I0131 01:37:48.843576 112883 net.cpp:159] Memory required for data: 410847600
I0131 01:37:48.843580 112883 layer_factory.hpp:77] Creating layer fc6
I0131 01:37:48.843587 112883 net.cpp:94] Creating Layer fc6
I0131 01:37:48.843590 112883 net.cpp:435] fc6 <- pool5
I0131 01:37:48.843595 112883 net.cpp:409] fc6 -> fc6
I0131 01:37:49.176190 112883 net.cpp:144] Setting up fc6
I0131 01:37:49.176214 112883 net.cpp:151] Top shape: 50 4096 (204800)
I0131 01:37:49.176218 112883 net.cpp:159] Memory required for data: 411666800
I0131 01:37:49.176224 112883 layer_factory.hpp:77] Creating layer relu6
I0131 01:37:49.176232 112883 net.cpp:94] Creating Layer relu6
I0131 01:37:49.176236 112883 net.cpp:435] relu6 <- fc6
I0131 01:37:49.176242 112883 net.cpp:409] relu6 -> relu6
I0131 01:37:49.176275 112883 net.cpp:144] Setting up relu6
I0131 01:37:49.176280 112883 net.cpp:151] Top shape: 50 4096 (204800)
I0131 01:37:49.176281 112883 net.cpp:159] Memory required for data: 412486000
I0131 01:37:49.176283 112883 layer_factory.hpp:77] Creating layer drop6
I0131 01:37:49.176288 112883 net.cpp:94] Creating Layer drop6
I0131 01:37:49.176291 112883 net.cpp:435] drop6 <- relu6
I0131 01:37:49.176316 112883 net.cpp:409] drop6 -> drop6
I0131 01:37:49.176342 112883 net.cpp:144] Setting up drop6
I0131 01:37:49.176347 112883 net.cpp:151] Top shape: 50 4096 (204800)
I0131 01:37:49.176350 112883 net.cpp:159] Memory required for data: 413305200
I0131 01:37:49.176352 112883 layer_factory.hpp:77] Creating layer fc7
I0131 01:37:49.176359 112883 net.cpp:94] Creating Layer fc7
I0131 01:37:49.176362 112883 net.cpp:435] fc7 <- drop6
I0131 01:37:49.176368 112883 net.cpp:409] fc7 -> fc7
I0131 01:37:49.318352 112883 net.cpp:144] Setting up fc7
I0131 01:37:49.318375 112883 net.cpp:151] Top shape: 50 4096 (204800)
I0131 01:37:49.318378 112883 net.cpp:159] Memory required for data: 414124400
I0131 01:37:49.318387 112883 layer_factory.hpp:77] Creating layer bn7
I0131 01:37:49.318397 112883 net.cpp:94] Creating Layer bn7
I0131 01:37:49.318399 112883 net.cpp:435] bn7 <- fc7
I0131 01:37:49.318405 112883 net.cpp:409] bn7 -> scale7
I0131 01:37:49.318928 112883 net.cpp:144] Setting up bn7
I0131 01:37:49.318934 112883 net.cpp:151] Top shape: 50 4096 (204800)
I0131 01:37:49.318938 112883 net.cpp:159] Memory required for data: 414943600
I0131 01:37:49.318944 112883 layer_factory.hpp:77] Creating layer relu7
I0131 01:37:49.318951 112883 net.cpp:94] Creating Layer relu7
I0131 01:37:49.318954 112883 net.cpp:435] relu7 <- scale7
I0131 01:37:49.318960 112883 net.cpp:409] relu7 -> relu7
I0131 01:37:49.318980 112883 net.cpp:144] Setting up relu7
I0131 01:37:49.318985 112883 net.cpp:151] Top shape: 50 4096 (204800)
I0131 01:37:49.318989 112883 net.cpp:159] Memory required for data: 415762800
I0131 01:37:49.318990 112883 layer_factory.hpp:77] Creating layer drop7
I0131 01:37:49.318996 112883 net.cpp:94] Creating Layer drop7
I0131 01:37:49.319000 112883 net.cpp:435] drop7 <- relu7
I0131 01:37:49.319005 112883 net.cpp:409] drop7 -> drop7
I0131 01:37:49.319031 112883 net.cpp:144] Setting up drop7
I0131 01:37:49.319036 112883 net.cpp:151] Top shape: 50 4096 (204800)
I0131 01:37:49.319038 112883 net.cpp:159] Memory required for data: 416582000
I0131 01:37:49.319041 112883 layer_factory.hpp:77] Creating layer fc8
I0131 01:37:49.319047 112883 net.cpp:94] Creating Layer fc8
I0131 01:37:49.319051 112883 net.cpp:435] fc8 <- drop7
I0131 01:37:49.319057 112883 net.cpp:409] fc8 -> fc8
I0131 01:37:49.319936 112883 net.cpp:144] Setting up fc8
I0131 01:37:49.319948 112883 net.cpp:151] Top shape: 50 2 (100)
I0131 01:37:49.319950 112883 net.cpp:159] Memory required for data: 416582400
I0131 01:37:49.319957 112883 layer_factory.hpp:77] Creating layer fc8_fc8_0_split
I0131 01:37:49.319962 112883 net.cpp:94] Creating Layer fc8_fc8_0_split
I0131 01:37:49.319965 112883 net.cpp:435] fc8_fc8_0_split <- fc8
I0131 01:37:49.319969 112883 net.cpp:409] fc8_fc8_0_split -> fc8_fc8_0_split_0
I0131 01:37:49.319977 112883 net.cpp:409] fc8_fc8_0_split -> fc8_fc8_0_split_1
I0131 01:37:49.320006 112883 net.cpp:144] Setting up fc8_fc8_0_split
I0131 01:37:49.320011 112883 net.cpp:151] Top shape: 50 2 (100)
I0131 01:37:49.320014 112883 net.cpp:151] Top shape: 50 2 (100)
I0131 01:37:49.320016 112883 net.cpp:159] Memory required for data: 416583200
I0131 01:37:49.320019 112883 layer_factory.hpp:77] Creating layer loss
I0131 01:37:49.320024 112883 net.cpp:94] Creating Layer loss
I0131 01:37:49.320027 112883 net.cpp:435] loss <- fc8_fc8_0_split_0
I0131 01:37:49.320034 112883 net.cpp:435] loss <- label_data_1_split_0
I0131 01:37:49.320039 112883 net.cpp:409] loss -> loss
…
