…
I0130 20:38:52.918993 108802 net.cpp:323] The NetState phase (0) differed from the phase (1) specified by a rule in layer accuracy-top1
I0130 20:38:52.919159 108802 net.cpp:52] Initializing net from parameters: 
state {
  phase: TRAIN
}
layer {
  name: "data"
  type: "Data"
  top: "data"
  top: "label"
  include {
    phase: TRAIN
  }
  transform_param {
    mirror: true
    crop_size: 227
    mean_value: 106
    mean_value: 116
    mean_value: 124
  }
  data_param {
    source: "cats-vs-dogs/input/lmdb/train_lmdb"
    batch_size: 256
    backend: LMDB
  }
}
layer {
  name: "conv1"
  type: "Convolution"
  bottom: "data"
  top: "conv1"
  param {
    lr_mult: 1
    decay_mult: 1
    compression: PRUNE
  }
  param {
    lr_mult: 2
    decay_mult: 0
    compression: PRUNE
  }
  convolution_param {
    num_output: 96
    pad: 1
    kernel_size: 11
    stride: 4
    weight_filler {
      type: "gaussian"
      std: 0.01
    }
    bias_filler {
      type: "constant"
      value: 0
    }
  }
}
layer {
  name: "bn1"
  type: "BatchNorm"
  bottom: "conv1"
  top: "scale1"
  param {
    lr_mult: 1
    decay_mult: 0
    compression: PRUNE
  }
  param {
    lr_mult: 1
    decay_mult: 0
    compression: PRUNE
  }
  param {
    lr_mult: 0
    decay_mult: 0
    compression: PRUNE
  }
  param {
    lr_mult: 0
    decay_mult: 0
    compression: PRUNE
  }
  batch_norm_param {
    use_global_stats: false
    scale_filler {
      type: "constant"
      value: 1
    }
    bias_filler {
      type: "constant"
      value: 0
    }
  }
}
layer {
  name: "relu1"
  type: "ReLU"
  bottom: "scale1"
  top: "relu1"
}
layer {
  name: "pool1"
  type: "Pooling"
  bottom: "relu1"
  top: "pool1"
  pooling_param {
    pool: MAX
    kernel_size: 3
    stride: 2
  }
}
layer {
  name: "conv2"
  type: "Convolution"
  bottom: "pool1"
  top: "conv2"
  param {
    lr_mult: 1
    decay_mult: 1
    compression: PRUNE
  }
  param {
    lr_mult: 2
    decay_mult: 0
    compression: PRUNE
  }
  convolution_param {
    num_output: 256
    pad: 2
    kernel_size: 5
    group: 1
    weight_filler {
      type: "gaussian"
      std: 0.01
    }
    bias_filler {
      type: "constant"
      value: 1
    }
  }
}
layer {
  name: "bn2"
  type: "BatchNorm"
  bottom: "conv2"
  top: "scale2"
  param {
    lr_mult: 1
    decay_mult: 0
    compression: PRUNE
  }
  param {
    lr_mult: 1
    decay_mult: 0
    compression: PRUNE
  }
  param {
    lr_mult: 0
    decay_mult: 0
    compression: PRUNE
  }
  param {
    lr_mult: 0
    decay_mult: 0
    compression: PRUNE
  }
  batch_norm_param {
    use_global_stats: false
    scale_filler {
      type: "constant"
      value: 1
    }
    bias_filler {
      type: "constant"
      value: 0
    }
  }
}
layer {
  name: "relu2"
  type: "ReLU"
  bottom: "scale2"
  top: "relu2"
}
layer {
  name: "pool2"
  type: "Pooling"
  bottom: "relu2"
  top: "pool2"
  pooling_param {
    pool: MAX
    kernel_size: 3
    stride: 2
  }
}
layer {
  name: "conv3"
  type: "Convolution"
  bottom: "pool2"
  top: "conv3"
  param {
    lr_mult: 1
    decay_mult: 1
    compression: PRUNE
  }
  param {
    lr_mult: 2
    decay_mult: 0
    compression: PRUNE
  }
  convolution_param {
    num_output: 384
    pad: 1
    kernel_size: 3
    weight_filler {
      type: "gaussian"
      std: 0.01
    }
    bias_filler {
      type: "constant"
      value: 0
    }
  }
}
layer {
  name: "relu3"
  type: "ReLU"
  bottom: "conv3"
  top: "relu3"
}
layer {
  name: "conv4"
  type: "Convolution"
  bottom: "relu3"
  top: "conv4"
  param {
    lr_mult: 1
    decay_mult: 1
    compression: PRUNE
  }
  param {
    lr_mult: 2
    decay_mult: 0
    compression: PRUNE
  }
  convolution_param {
    num_output: 384
    pad: 1
    kernel_size: 3
    group: 1
    weight_filler {
      type: "gaussian"
      std: 0.01
    }
    bias_filler {
      type: "constant"
      value: 1
    }
  }
}
layer {
  name: "relu4"
  type: "ReLU"
  bottom: "conv4"
  top: "relu4"
}
layer {
  name: "conv5"
  type: "Convolution"
  bottom: "relu4"
  top: "conv5"
  param {
    lr_mult: 1
    decay_mult: 1
    compression: PRUNE
  }
  param {
    lr_mult: 2
    decay_mult: 0
    compression: PRUNE
  }
  convolution_param {
    num_output: 256
    pad: 1
    kernel_size: 3
    group: 1
    weight_filler {
      type: "gaussian"
      std: 0.01
    }
    bias_filler {
      type: "constant"
      value: 1
    }
  }
}
layer {
  name: "relu5"
  type: "ReLU"
  bottom: "conv5"
  top: "relu5"
}
layer {
  name: "pool5"
  type: "Pooling"
  bottom: "relu5"
  top: "pool5"
  pooling_param {
    pool: MAX
    kernel_size: 3
    stride: 2
  }
}
layer {
  name: "fc6"
  type: "InnerProduct"
  bottom: "pool5"
  top: "fc6"
  param {
    lr_mult: 1
    decay_mult: 1
  }
  param {
    lr_mult: 2
    decay_mult: 0
  }
  inner_product_param {
    num_output: 4096
    weight_filler {
      type: "gaussian"
      std: 0.005
    }
    bias_filler {
      type: "constant"
      value: 1
    }
  }
}
layer {
  name: "relu6"
  type: "ReLU"
  bottom: "fc6"
  top: "relu6"
}
layer {
  name: "drop6"
  type: "Dropout"
  bottom: "relu6"
  top: "drop6"
  dropout_param {
    dropout_ratio: 0.5
  }
}
layer {
  name: "fc7"
  type: "InnerProduct"
  bottom: "drop6"
  top: "fc7"
  param {
    lr_mult: 1
    decay_mult: 1
  }
  param {
    lr_mult: 2
    decay_mult: 0
  }
  inner_product_param {
    num_output: 4096
    weight_filler {
      type: "gaussian"
      std: 0.005
    }
    bias_filler {
      type: "constant"
      value: 1
    }
  }
}
layer {
  name: "bn7"
  type: "BatchNorm"
  bottom: "fc7"
  top: "scale7"
  param {
    lr_mult: 1
    decay_mult: 0
    compression: PRUNE
  }
  param {
    lr_mult: 1
    decay_mult: 0
    compression: PRUNE
  }
  param {
    lr_mult: 0
    decay_mult: 0
    compression: PRUNE
  }
  param {
    lr_mult: 0
    decay_mult: 0
    compression: PRUNE
  }
  batch_norm_param {
    use_global_stats: false
    scale_filler {
      type: "constant"
      value: 1
    }
    bias_filler {
      type: "constant"
      value: 0
    }
  }
}
layer {
  name: "relu7"
  type: "ReLU"
  bottom: "scale7"
  top: "relu7"
}
layer {
  name: "drop7"
  type: "Dropout"
  bottom: "relu7"
  top: "drop7"
  dropout_param {
    dropout_ratio: 0.5
  }
}
layer {
  name: "fc8"
  type: "InnerProduct"
  bottom: "drop7"
  top: "fc8"
  param {
    lr_mult: 1
    decay_mult: 1
  }
  param {
    lr_mult: 2
    decay_mult: 0
  }
  inner_product_param {
    num_output: 2
    weight_filler {
      type: "gaussian"
      std: 0.01
    }
    bias_filler {
      type: "constant"
      value: 0
    }
  }
}
layer {
  name: "loss"
  type: "SoftmaxWithLoss"
  bottom: "fc8"
  bottom: "label"
  top: "loss"
}
I0130 20:38:52.919252 108802 layer_factory.hpp:77] Creating layer data
I0130 20:38:52.919433 108802 internal_thread.cpp:27] Starting internal thread(s) on GPU 0
I0130 20:38:52.920092 108802 net.cpp:94] Creating Layer data
I0130 20:38:52.920104 108802 net.cpp:409] data -> data
I0130 20:38:52.920114 108802 net.cpp:409] data -> label
I0130 20:38:52.922202 108839 db_lmdb.cpp:35] Opened lmdb cats-vs-dogs/input/lmdb/train_lmdb
I0130 20:38:52.922256 108839 data_reader.cpp:117] TRAIN: reading data using 1 channel(s)
I0130 20:38:52.922521 108802 data_layer.cpp:78] ReshapePrefetch 256, 3, 227, 227
I0130 20:38:52.922601 108802 data_layer.cpp:83] output data size: 256,3,227,227
I0130 20:38:53.332233 108802 internal_thread.cpp:27] Starting internal thread(s) on GPU 0
I0130 20:38:53.332309 108802 net.cpp:144] Setting up data
I0130 20:38:53.332317 108802 net.cpp:151] Top shape: 256 3 227 227 (39574272)
I0130 20:38:53.332320 108802 net.cpp:151] Top shape: 256 (256)
I0130 20:38:53.332322 108802 net.cpp:159] Memory required for data: 158298112
I0130 20:38:53.332327 108802 layer_factory.hpp:77] Creating layer conv1
I0130 20:38:53.332341 108802 net.cpp:94] Creating Layer conv1
I0130 20:38:53.332345 108802 net.cpp:435] conv1 <- data
I0130 20:38:53.332362 108802 net.cpp:409] conv1 -> conv1
I0130 20:38:53.334321 108802 net.cpp:144] Setting up conv1
I0130 20:38:53.334336 108802 net.cpp:151] Top shape: 256 96 55 55 (74342400)
I0130 20:38:53.334339 108802 net.cpp:159] Memory required for data: 455667712
I0130 20:38:53.334353 108802 layer_factory.hpp:77] Creating layer bn1
I0130 20:38:53.334363 108802 net.cpp:94] Creating Layer bn1
I0130 20:38:53.334367 108802 net.cpp:435] bn1 <- conv1
I0130 20:38:53.334372 108802 net.cpp:409] bn1 -> scale1
I0130 20:38:53.335676 108802 net.cpp:144] Setting up bn1
I0130 20:38:53.335685 108802 net.cpp:151] Top shape: 256 96 55 55 (74342400)
I0130 20:38:53.335688 108802 net.cpp:159] Memory required for data: 753037312
I0130 20:38:53.335697 108802 layer_factory.hpp:77] Creating layer relu1
I0130 20:38:53.335702 108802 net.cpp:94] Creating Layer relu1
I0130 20:38:53.335705 108802 net.cpp:435] relu1 <- scale1
I0130 20:38:53.335710 108802 net.cpp:409] relu1 -> relu1
I0130 20:38:53.335732 108802 net.cpp:144] Setting up relu1
I0130 20:38:53.335737 108802 net.cpp:151] Top shape: 256 96 55 55 (74342400)
I0130 20:38:53.335741 108802 net.cpp:159] Memory required for data: 1050406912
I0130 20:38:53.335743 108802 layer_factory.hpp:77] Creating layer pool1
I0130 20:38:53.335748 108802 net.cpp:94] Creating Layer pool1
I0130 20:38:53.335750 108802 net.cpp:435] pool1 <- relu1
I0130 20:38:53.335754 108802 net.cpp:409] pool1 -> pool1
I0130 20:38:53.335809 108802 net.cpp:144] Setting up pool1
I0130 20:38:53.335814 108802 net.cpp:151] Top shape: 256 96 27 27 (17915904)
I0130 20:38:53.335816 108802 net.cpp:159] Memory required for data: 1122070528
I0130 20:38:53.335819 108802 layer_factory.hpp:77] Creating layer conv2
I0130 20:38:53.335825 108802 net.cpp:94] Creating Layer conv2
I0130 20:38:53.335827 108802 net.cpp:435] conv2 <- pool1
I0130 20:38:53.335832 108802 net.cpp:409] conv2 -> conv2
I0130 20:38:53.353340 108802 net.cpp:144] Setting up conv2
I0130 20:38:53.353360 108802 net.cpp:151] Top shape: 256 256 27 27 (47775744)
I0130 20:38:53.353364 108802 net.cpp:159] Memory required for data: 1313173504
I0130 20:38:53.353375 108802 layer_factory.hpp:77] Creating layer bn2
I0130 20:38:53.353386 108802 net.cpp:94] Creating Layer bn2
I0130 20:38:53.353390 108802 net.cpp:435] bn2 <- conv2
I0130 20:38:53.353396 108802 net.cpp:409] bn2 -> scale2
I0130 20:38:53.353965 108802 net.cpp:144] Setting up bn2
I0130 20:38:53.353973 108802 net.cpp:151] Top shape: 256 256 27 27 (47775744)
I0130 20:38:53.353976 108802 net.cpp:159] Memory required for data: 1504276480
I0130 20:38:53.353984 108802 layer_factory.hpp:77] Creating layer relu2
I0130 20:38:53.353991 108802 net.cpp:94] Creating Layer relu2
I0130 20:38:53.353993 108802 net.cpp:435] relu2 <- scale2
I0130 20:38:53.353998 108802 net.cpp:409] relu2 -> relu2
I0130 20:38:53.354017 108802 net.cpp:144] Setting up relu2
I0130 20:38:53.354023 108802 net.cpp:151] Top shape: 256 256 27 27 (47775744)
I0130 20:38:53.354027 108802 net.cpp:159] Memory required for data: 1695379456
I0130 20:38:53.354029 108802 layer_factory.hpp:77] Creating layer pool2
I0130 20:38:53.354035 108802 net.cpp:94] Creating Layer pool2
I0130 20:38:53.354038 108802 net.cpp:435] pool2 <- relu2
I0130 20:38:53.354063 108802 net.cpp:409] pool2 -> pool2
I0130 20:38:53.354090 108802 net.cpp:144] Setting up pool2
I0130 20:38:53.354095 108802 net.cpp:151] Top shape: 256 256 13 13 (11075584)
I0130 20:38:53.354097 108802 net.cpp:159] Memory required for data: 1739681792
I0130 20:38:53.354101 108802 layer_factory.hpp:77] Creating layer conv3
I0130 20:38:53.354110 108802 net.cpp:94] Creating Layer conv3
I0130 20:38:53.354113 108802 net.cpp:435] conv3 <- pool2
I0130 20:38:53.354117 108802 net.cpp:409] conv3 -> conv3
I0130 20:38:53.367554 108802 net.cpp:144] Setting up conv3
I0130 20:38:53.367624 108802 net.cpp:151] Top shape: 256 384 13 13 (16613376)
I0130 20:38:53.367642 108802 net.cpp:159] Memory required for data: 1806135296
I0130 20:38:53.367666 108802 layer_factory.hpp:77] Creating layer relu3
I0130 20:38:53.367691 108802 net.cpp:94] Creating Layer relu3
I0130 20:38:53.367707 108802 net.cpp:435] relu3 <- conv3
I0130 20:38:53.367728 108802 net.cpp:409] relu3 -> relu3
I0130 20:38:53.367784 108802 net.cpp:144] Setting up relu3
I0130 20:38:53.367803 108802 net.cpp:151] Top shape: 256 384 13 13 (16613376)
I0130 20:38:53.367820 108802 net.cpp:159] Memory required for data: 1872588800
I0130 20:38:53.367836 108802 layer_factory.hpp:77] Creating layer conv4
I0130 20:38:53.367861 108802 net.cpp:94] Creating Layer conv4
I0130 20:38:53.367880 108802 net.cpp:435] conv4 <- relu3
I0130 20:38:53.367899 108802 net.cpp:409] conv4 -> conv4
I0130 20:38:53.384156 108802 net.cpp:144] Setting up conv4
I0130 20:38:53.384191 108802 net.cpp:151] Top shape: 256 384 13 13 (16613376)
I0130 20:38:53.384194 108802 net.cpp:159] Memory required for data: 1939042304
I0130 20:38:53.384207 108802 layer_factory.hpp:77] Creating layer relu4
I0130 20:38:53.384215 108802 net.cpp:94] Creating Layer relu4
I0130 20:38:53.384219 108802 net.cpp:435] relu4 <- conv4
I0130 20:38:53.384227 108802 net.cpp:409] relu4 -> relu4
I0130 20:38:53.384250 108802 net.cpp:144] Setting up relu4
I0130 20:38:53.384256 108802 net.cpp:151] Top shape: 256 384 13 13 (16613376)
I0130 20:38:53.384259 108802 net.cpp:159] Memory required for data: 2005495808
I0130 20:38:53.384263 108802 layer_factory.hpp:77] Creating layer conv5
I0130 20:38:53.384272 108802 net.cpp:94] Creating Layer conv5
I0130 20:38:53.384275 108802 net.cpp:435] conv5 <- relu4
I0130 20:38:53.384279 108802 net.cpp:409] conv5 -> conv5
I0130 20:38:53.402763 108802 net.cpp:144] Setting up conv5
I0130 20:38:53.402828 108802 net.cpp:151] Top shape: 256 256 13 13 (11075584)
I0130 20:38:53.402845 108802 net.cpp:159] Memory required for data: 2049798144
I0130 20:38:53.402869 108802 layer_factory.hpp:77] Creating layer relu5
I0130 20:38:53.402892 108802 net.cpp:94] Creating Layer relu5
I0130 20:38:53.402910 108802 net.cpp:435] relu5 <- conv5
I0130 20:38:53.402930 108802 net.cpp:409] relu5 -> relu5
I0130 20:38:53.402983 108802 net.cpp:144] Setting up relu5
I0130 20:38:53.403002 108802 net.cpp:151] Top shape: 256 256 13 13 (11075584)
I0130 20:38:53.403020 108802 net.cpp:159] Memory required for data: 2094100480
I0130 20:38:53.403036 108802 layer_factory.hpp:77] Creating layer pool5
I0130 20:38:53.403056 108802 net.cpp:94] Creating Layer pool5
I0130 20:38:53.403082 108802 net.cpp:435] pool5 <- relu5
I0130 20:38:53.403103 108802 net.cpp:409] pool5 -> pool5
I0130 20:38:53.403168 108802 net.cpp:144] Setting up pool5
I0130 20:38:53.403187 108802 net.cpp:151] Top shape: 256 256 6 6 (2359296)
I0130 20:38:53.403203 108802 net.cpp:159] Memory required for data: 2103537664
I0130 20:38:53.403218 108802 layer_factory.hpp:77] Creating layer fc6
I0130 20:38:53.403242 108802 net.cpp:94] Creating Layer fc6
I0130 20:38:53.403257 108802 net.cpp:435] fc6 <- pool5
I0130 20:38:53.403277 108802 net.cpp:409] fc6 -> fc6
I0130 20:38:53.753422 108802 net.cpp:144] Setting up fc6
I0130 20:38:53.753450 108802 net.cpp:151] Top shape: 256 4096 (1048576)
I0130 20:38:53.753454 108802 net.cpp:159] Memory required for data: 2107731968
I0130 20:38:53.753479 108802 layer_factory.hpp:77] Creating layer relu6
I0130 20:38:53.753487 108802 net.cpp:94] Creating Layer relu6
I0130 20:38:53.753523 108802 net.cpp:435] relu6 <- fc6
I0130 20:38:53.753545 108802 net.cpp:409] relu6 -> relu6
I0130 20:38:53.753566 108802 net.cpp:144] Setting up relu6
I0130 20:38:53.753572 108802 net.cpp:151] Top shape: 256 4096 (1048576)
I0130 20:38:53.753576 108802 net.cpp:159] Memory required for data: 2111926272
I0130 20:38:53.753578 108802 layer_factory.hpp:77] Creating layer drop6
I0130 20:38:53.753584 108802 net.cpp:94] Creating Layer drop6
I0130 20:38:53.753587 108802 net.cpp:435] drop6 <- relu6
I0130 20:38:53.753592 108802 net.cpp:409] drop6 -> drop6
I0130 20:38:53.753617 108802 net.cpp:144] Setting up drop6
I0130 20:38:53.753621 108802 net.cpp:151] Top shape: 256 4096 (1048576)
I0130 20:38:53.753623 108802 net.cpp:159] Memory required for data: 2116120576
I0130 20:38:53.753626 108802 layer_factory.hpp:77] Creating layer fc7
I0130 20:38:53.753633 108802 net.cpp:94] Creating Layer fc7
I0130 20:38:53.753635 108802 net.cpp:435] fc7 <- drop6
I0130 20:38:53.753640 108802 net.cpp:409] fc7 -> fc7
I0130 20:38:53.896631 108802 net.cpp:144] Setting up fc7
I0130 20:38:53.896659 108802 net.cpp:151] Top shape: 256 4096 (1048576)
I0130 20:38:53.896662 108802 net.cpp:159] Memory required for data: 2120314880
I0130 20:38:53.896685 108802 layer_factory.hpp:77] Creating layer bn7
I0130 20:38:53.896704 108802 net.cpp:94] Creating Layer bn7
I0130 20:38:53.896708 108802 net.cpp:435] bn7 <- fc7
I0130 20:38:53.896715 108802 net.cpp:409] bn7 -> scale7
I0130 20:38:53.897200 108802 net.cpp:144] Setting up bn7
I0130 20:38:53.897207 108802 net.cpp:151] Top shape: 256 4096 (1048576)
I0130 20:38:53.897209 108802 net.cpp:159] Memory required for data: 2124509184
I0130 20:38:53.897217 108802 layer_factory.hpp:77] Creating layer relu7
I0130 20:38:53.897220 108802 net.cpp:94] Creating Layer relu7
I0130 20:38:53.897223 108802 net.cpp:435] relu7 <- scale7
I0130 20:38:53.897228 108802 net.cpp:409] relu7 -> relu7
I0130 20:38:53.897245 108802 net.cpp:144] Setting up relu7
I0130 20:38:53.897249 108802 net.cpp:151] Top shape: 256 4096 (1048576)
I0130 20:38:53.897253 108802 net.cpp:159] Memory required for data: 2128703488
I0130 20:38:53.897254 108802 layer_factory.hpp:77] Creating layer drop7
I0130 20:38:53.897259 108802 net.cpp:94] Creating Layer drop7
I0130 20:38:53.897261 108802 net.cpp:435] drop7 <- relu7
I0130 20:38:53.897265 108802 net.cpp:409] drop7 -> drop7
I0130 20:38:53.897287 108802 net.cpp:144] Setting up drop7
I0130 20:38:53.897292 108802 net.cpp:151] Top shape: 256 4096 (1048576)
I0130 20:38:53.897294 108802 net.cpp:159] Memory required for data: 2132897792
I0130 20:38:53.897296 108802 layer_factory.hpp:77] Creating layer fc8
I0130 20:38:53.897301 108802 net.cpp:94] Creating Layer fc8
I0130 20:38:53.897305 108802 net.cpp:435] fc8 <- drop7
I0130 20:38:53.897308 108802 net.cpp:409] fc8 -> fc8
I0130 20:38:53.898180 108802 net.cpp:144] Setting up fc8
I0130 20:38:53.898198 108802 net.cpp:151] Top shape: 256 2 (512)
I0130 20:38:53.898201 108802 net.cpp:159] Memory required for data: 2132899840
I0130 20:38:53.898206 108802 layer_factory.hpp:77] Creating layer loss
I0130 20:38:53.898211 108802 net.cpp:94] Creating Layer loss
I0130 20:38:53.898214 108802 net.cpp:435] loss <- fc8
I0130 20:38:53.898218 108802 net.cpp:435] loss <- label
I0130 20:38:53.898222 108802 net.cpp:409] loss -> loss
I0130 20:38:53.898229 108802 layer_factory.hpp:77] Creating layer loss
…
I0130 20:38:53.898737 108802 solver.cpp:189] Creating test net (#0) specified by net file: cats-vs-dogs/deephi/alexnetBNnoLRN/pruning/regular_rate_0.4/net_finetune.prototxt
I0130 20:38:53.898771 108802 net.cpp:323] The NetState phase (1) differed from the phase (0) specified by a rule in layer data
I0130 20:38:53.898955 108802 net.cpp:52] Initializing net from parameters: 
state {
  phase: TEST
}
layer {
  name: "data"
  type: "Data"
  top: "data"
  top: "label"
  include {
    phase: TEST
  }
  transform_param {
    mirror: false
    crop_size: 227
    mean_value: 106
    mean_value: 116
    mean_value: 124
  }
  data_param {
    source: "cats-vs-dogs/input/lmdb/valid_lmdb"
    batch_size: 50
    backend: LMDB
  }
}
layer {
  name: "conv1"
  type: "Convolution"
  bottom: "data"
  top: "conv1"
  param {
    lr_mult: 1
    decay_mult: 1
    compression: PRUNE
  }
  param {
    lr_mult: 2
    decay_mult: 0
    compression: PRUNE
  }
  convolution_param {
    num_output: 96
    pad: 1
    kernel_size: 11
    stride: 4
    weight_filler {
      type: "gaussian"
      std: 0.01
    }
    bias_filler {
      type: "constant"
      value: 0
    }
  }
}
layer {
  name: "bn1"
  type: "BatchNorm"
  bottom: "conv1"
  top: "scale1"
  param {
    lr_mult: 1
    decay_mult: 0
    compression: PRUNE
  }
  param {
    lr_mult: 1
    decay_mult: 0
    compression: PRUNE
  }
  param {
    lr_mult: 0
    decay_mult: 0
    compression: PRUNE
  }
  param {
    lr_mult: 0
    decay_mult: 0
    compression: PRUNE
  }
  batch_norm_param {
    use_global_stats: false
    scale_filler {
      type: "constant"
      value: 1
    }
    bias_filler {
      type: "constant"
      value: 0
    }
  }
}
layer {
  name: "relu1"
  type: "ReLU"
  bottom: "scale1"
  top: "relu1"
}
layer {
  name: "pool1"
  type: "Pooling"
  bottom: "relu1"
  top: "pool1"
  pooling_param {
    pool: MAX
    kernel_size: 3
    stride: 2
  }
}
layer {
  name: "conv2"
  type: "Convolution"
  bottom: "pool1"
  top: "conv2"
  param {
    lr_mult: 1
    decay_mult: 1
    compression: PRUNE
  }
  param {
    lr_mult: 2
    decay_mult: 0
    compression: PRUNE
  }
  convolution_param {
    num_output: 256
    pad: 2
    kernel_size: 5
    group: 1
    weight_filler {
      type: "gaussian"
      std: 0.01
    }
    bias_filler {
      type: "constant"
      value: 1
    }
  }
}
layer {
  name: "bn2"
  type: "BatchNorm"
  bottom: "conv2"
  top: "scale2"
  param {
    lr_mult: 1
    decay_mult: 0
    compression: PRUNE
  }
  param {
    lr_mult: 1
    decay_mult: 0
    compression: PRUNE
  }
  param {
    lr_mult: 0
    decay_mult: 0
    compression: PRUNE
  }
  param {
    lr_mult: 0
    decay_mult: 0
    compression: PRUNE
  }
  batch_norm_param {
    use_global_stats: false
    scale_filler {
      type: "constant"
      value: 1
    }
    bias_filler {
      type: "constant"
      value: 0
    }
  }
}
layer {
  name: "relu2"
  type: "ReLU"
  bottom: "scale2"
  top: "relu2"
}
layer {
  name: "pool2"
  type: "Pooling"
  bottom: "relu2"
  top: "pool2"
  pooling_param {
    pool: MAX
    kernel_size: 3
    stride: 2
  }
}
layer {
  name: "conv3"
  type: "Convolution"
  bottom: "pool2"
  top: "conv3"
  param {
    lr_mult: 1
    decay_mult: 1
    compression: PRUNE
  }
  param {
    lr_mult: 2
    decay_mult: 0
    compression: PRUNE
  }
  convolution_param {
    num_output: 384
    pad: 1
    kernel_size: 3
    weight_filler {
      type: "gaussian"
      std: 0.01
    }
    bias_filler {
      type: "constant"
      value: 0
    }
  }
}
layer {
  name: "relu3"
  type: "ReLU"
  bottom: "conv3"
  top: "relu3"
}
layer {
  name: "conv4"
  type: "Convolution"
  bottom: "relu3"
  top: "conv4"
  param {
    lr_mult: 1
    decay_mult: 1
    compression: PRUNE
  }
  param {
    lr_mult: 2
    decay_mult: 0
    compression: PRUNE
  }
  convolution_param {
    num_output: 384
    pad: 1
    kernel_size: 3
    group: 1
    weight_filler {
      type: "gaussian"
      std: 0.01
    }
    bias_filler {
      type: "constant"
      value: 1
    }
  }
}
layer {
  name: "relu4"
  type: "ReLU"
  bottom: "conv4"
  top: "relu4"
}
layer {
  name: "conv5"
  type: "Convolution"
  bottom: "relu4"
  top: "conv5"
  param {
    lr_mult: 1
    decay_mult: 1
    compression: PRUNE
  }
  param {
    lr_mult: 2
    decay_mult: 0
    compression: PRUNE
  }
  convolution_param {
    num_output: 256
    pad: 1
    kernel_size: 3
    group: 1
    weight_filler {
      type: "gaussian"
      std: 0.01
    }
    bias_filler {
      type: "constant"
      value: 1
    }
  }
}
layer {
  name: "relu5"
  type: "ReLU"
  bottom: "conv5"
  top: "relu5"
}
layer {
  name: "pool5"
  type: "Pooling"
  bottom: "relu5"
  top: "pool5"
  pooling_param {
    pool: MAX
    kernel_size: 3
    stride: 2
  }
}
layer {
  name: "fc6"
  type: "InnerProduct"
  bottom: "pool5"
  top: "fc6"
  param {
    lr_mult: 1
    decay_mult: 1
  }
  param {
    lr_mult: 2
    decay_mult: 0
  }
  inner_product_param {
    num_output: 4096
    weight_filler {
      type: "gaussian"
      std: 0.005
    }
    bias_filler {
      type: "constant"
      value: 1
    }
  }
}
layer {
  name: "relu6"
  type: "ReLU"
  bottom: "fc6"
  top: "relu6"
}
layer {
  name: "drop6"
  type: "Dropout"
  bottom: "relu6"
  top: "drop6"
  dropout_param {
    dropout_ratio: 0.5
  }
}
layer {
  name: "fc7"
  type: "InnerProduct"
  bottom: "drop6"
  top: "fc7"
  param {
    lr_mult: 1
    decay_mult: 1
  }
  param {
    lr_mult: 2
    decay_mult: 0
  }
  inner_product_param {
    num_output: 4096
    weight_filler {
      type: "gaussian"
      std: 0.005
    }
    bias_filler {
      type: "constant"
      value: 1
    }
  }
}
layer {
  name: "bn7"
  type: "BatchNorm"
  bottom: "fc7"
  top: "scale7"
  param {
    lr_mult: 1
    decay_mult: 0
    compression: PRUNE
  }
  param {
    lr_mult: 1
    decay_mult: 0
    compression: PRUNE
  }
  param {
    lr_mult: 0
    decay_mult: 0
    compression: PRUNE
  }
  param {
    lr_mult: 0
    decay_mult: 0
    compression: PRUNE
  }
  batch_norm_param {
    use_global_stats: false
    scale_filler {
      type: "constant"
      value: 1
    }
    bias_filler {
      type: "constant"
      value: 0
    }
  }
}
layer {
  name: "relu7"
  type: "ReLU"
  bottom: "scale7"
  top: "relu7"
}
layer {
  name: "drop7"
  type: "Dropout"
  bottom: "relu7"
  top: "drop7"
  dropout_param {
    dropout_ratio: 0.5
  }
}
layer {
  name: "fc8"
  type: "InnerProduct"
  bottom: "drop7"
  top: "fc8"
  param {
    lr_mult: 1
    decay_mult: 1
  }
  param {
    lr_mult: 2
    decay_mult: 0
  }
  inner_product_param {
    num_output: 2
    weight_filler {
      type: "gaussian"
      std: 0.01
    }
    bias_filler {
      type: "constant"
      value: 0
    }
  }
}
layer {
  name: "loss"
  type: "SoftmaxWithLoss"
  bottom: "fc8"
  bottom: "label"
  top: "loss"
}
layer {
  name: "accuracy-top1"
  type: "Accuracy"
  bottom: "fc8"
  bottom: "label"
  top: "top-1"
  include {
    phase: TEST
  }
}
I0130 20:38:53.899049 108802 layer_factory.hpp:77] Creating layer data
I0130 20:38:53.899089 108802 internal_thread.cpp:27] Starting internal thread(s) on GPU 0
I0130 20:38:53.899957 108802 net.cpp:94] Creating Layer data
I0130 20:38:53.899967 108802 net.cpp:409] data -> data
I0130 20:38:53.899978 108802 net.cpp:409] data -> label
I0130 20:38:53.901098 108869 db_lmdb.cpp:35] Opened lmdb cats-vs-dogs/input/lmdb/valid_lmdb
I0130 20:38:53.901134 108869 data_reader.cpp:117] TEST: reading data using 1 channel(s)
I0130 20:38:53.901396 108802 data_layer.cpp:78] ReshapePrefetch 50, 3, 227, 227
I0130 20:38:53.901468 108802 data_layer.cpp:83] output data size: 50,3,227,227
I0130 20:38:53.982208 108802 internal_thread.cpp:27] Starting internal thread(s) on GPU 0
I0130 20:38:53.982260 108802 net.cpp:144] Setting up data
I0130 20:38:53.982269 108802 net.cpp:151] Top shape: 50 3 227 227 (7729350)
I0130 20:38:53.982272 108802 net.cpp:151] Top shape: 50 (50)
I0130 20:38:53.982275 108802 net.cpp:159] Memory required for data: 30917600
I0130 20:38:53.982278 108802 layer_factory.hpp:77] Creating layer label_data_1_split
I0130 20:38:53.982287 108802 net.cpp:94] Creating Layer label_data_1_split
I0130 20:38:53.982290 108802 net.cpp:435] label_data_1_split <- label
I0130 20:38:53.982311 108802 net.cpp:409] label_data_1_split -> label_data_1_split_0
I0130 20:38:53.982319 108802 net.cpp:409] label_data_1_split -> label_data_1_split_1
I0130 20:38:53.982393 108802 net.cpp:144] Setting up label_data_1_split
I0130 20:38:53.982398 108802 net.cpp:151] Top shape: 50 (50)
I0130 20:38:53.982401 108802 net.cpp:151] Top shape: 50 (50)
I0130 20:38:53.982405 108802 net.cpp:159] Memory required for data: 30918000
I0130 20:38:53.982409 108802 layer_factory.hpp:77] Creating layer conv1
I0130 20:38:53.982419 108802 net.cpp:94] Creating Layer conv1
I0130 20:38:53.982424 108802 net.cpp:435] conv1 <- data
I0130 20:38:53.982429 108802 net.cpp:409] conv1 -> conv1
I0130 20:38:53.983119 108802 net.cpp:144] Setting up conv1
I0130 20:38:53.983127 108802 net.cpp:151] Top shape: 50 96 55 55 (14520000)
I0130 20:38:53.983130 108802 net.cpp:159] Memory required for data: 88998000
I0130 20:38:53.983140 108802 layer_factory.hpp:77] Creating layer bn1
I0130 20:38:53.983147 108802 net.cpp:94] Creating Layer bn1
I0130 20:38:53.983150 108802 net.cpp:435] bn1 <- conv1
I0130 20:38:53.983156 108802 net.cpp:409] bn1 -> scale1
I0130 20:38:53.983806 108802 net.cpp:144] Setting up bn1
I0130 20:38:53.983814 108802 net.cpp:151] Top shape: 50 96 55 55 (14520000)
I0130 20:38:53.983816 108802 net.cpp:159] Memory required for data: 147078000
I0130 20:38:53.983825 108802 layer_factory.hpp:77] Creating layer relu1
I0130 20:38:53.983831 108802 net.cpp:94] Creating Layer relu1
I0130 20:38:53.983834 108802 net.cpp:435] relu1 <- scale1
I0130 20:38:53.983839 108802 net.cpp:409] relu1 -> relu1
I0130 20:38:53.984081 108802 net.cpp:144] Setting up relu1
I0130 20:38:53.984086 108802 net.cpp:151] Top shape: 50 96 55 55 (14520000)
I0130 20:38:53.984089 108802 net.cpp:159] Memory required for data: 205158000
I0130 20:38:53.984091 108802 layer_factory.hpp:77] Creating layer pool1
I0130 20:38:53.984097 108802 net.cpp:94] Creating Layer pool1
I0130 20:38:53.984098 108802 net.cpp:435] pool1 <- relu1
I0130 20:38:53.984102 108802 net.cpp:409] pool1 -> pool1
I0130 20:38:53.984134 108802 net.cpp:144] Setting up pool1
I0130 20:38:53.984138 108802 net.cpp:151] Top shape: 50 96 27 27 (3499200)
I0130 20:38:53.984140 108802 net.cpp:159] Memory required for data: 219154800
I0130 20:38:53.984143 108802 layer_factory.hpp:77] Creating layer conv2
I0130 20:38:53.984149 108802 net.cpp:94] Creating Layer conv2
I0130 20:38:53.984169 108802 net.cpp:435] conv2 <- pool1
I0130 20:38:53.984172 108802 net.cpp:409] conv2 -> conv2
I0130 20:38:53.991662 108802 net.cpp:144] Setting up conv2
I0130 20:38:53.991722 108802 net.cpp:151] Top shape: 50 256 27 27 (9331200)
I0130 20:38:53.991741 108802 net.cpp:159] Memory required for data: 256479600
I0130 20:38:53.991775 108802 layer_factory.hpp:77] Creating layer bn2
I0130 20:38:53.991806 108802 net.cpp:94] Creating Layer bn2
I0130 20:38:53.991822 108802 net.cpp:435] bn2 <- conv2
I0130 20:38:53.991843 108802 net.cpp:409] bn2 -> scale2
I0130 20:38:53.992661 108802 net.cpp:144] Setting up bn2
I0130 20:38:53.992676 108802 net.cpp:151] Top shape: 50 256 27 27 (9331200)
I0130 20:38:53.992681 108802 net.cpp:159] Memory required for data: 293804400
I0130 20:38:53.992691 108802 layer_factory.hpp:77] Creating layer relu2
I0130 20:38:53.992698 108802 net.cpp:94] Creating Layer relu2
I0130 20:38:53.992712 108802 net.cpp:435] relu2 <- scale2
I0130 20:38:53.992715 108802 net.cpp:409] relu2 -> relu2
I0130 20:38:53.992744 108802 net.cpp:144] Setting up relu2
I0130 20:38:53.992750 108802 net.cpp:151] Top shape: 50 256 27 27 (9331200)
I0130 20:38:53.992753 108802 net.cpp:159] Memory required for data: 331129200
I0130 20:38:53.992756 108802 layer_factory.hpp:77] Creating layer pool2
I0130 20:38:53.992761 108802 net.cpp:94] Creating Layer pool2
I0130 20:38:53.992764 108802 net.cpp:435] pool2 <- relu2
I0130 20:38:53.992769 108802 net.cpp:409] pool2 -> pool2
I0130 20:38:53.992799 108802 net.cpp:144] Setting up pool2
I0130 20:38:53.992805 108802 net.cpp:151] Top shape: 50 256 13 13 (2163200)
I0130 20:38:53.992806 108802 net.cpp:159] Memory required for data: 339782000
I0130 20:38:53.992811 108802 layer_factory.hpp:77] Creating layer conv3
I0130 20:38:53.992820 108802 net.cpp:94] Creating Layer conv3
I0130 20:38:53.992825 108802 net.cpp:435] conv3 <- pool2
I0130 20:38:53.992830 108802 net.cpp:409] conv3 -> conv3
I0130 20:38:54.005707 108802 net.cpp:144] Setting up conv3
I0130 20:38:54.005728 108802 net.cpp:151] Top shape: 50 384 13 13 (3244800)
I0130 20:38:54.005729 108802 net.cpp:159] Memory required for data: 352761200
I0130 20:38:54.005736 108802 layer_factory.hpp:77] Creating layer relu3
I0130 20:38:54.005743 108802 net.cpp:94] Creating Layer relu3
I0130 20:38:54.005748 108802 net.cpp:435] relu3 <- conv3
I0130 20:38:54.005753 108802 net.cpp:409] relu3 -> relu3
I0130 20:38:54.005774 108802 net.cpp:144] Setting up relu3
I0130 20:38:54.005779 108802 net.cpp:151] Top shape: 50 384 13 13 (3244800)
I0130 20:38:54.005780 108802 net.cpp:159] Memory required for data: 365740400
I0130 20:38:54.005782 108802 layer_factory.hpp:77] Creating layer conv4
I0130 20:38:54.005800 108802 net.cpp:94] Creating Layer conv4
I0130 20:38:54.005802 108802 net.cpp:435] conv4 <- relu3
I0130 20:38:54.005806 108802 net.cpp:409] conv4 -> conv4
I0130 20:38:54.023778 108802 net.cpp:144] Setting up conv4
I0130 20:38:54.023802 108802 net.cpp:151] Top shape: 50 384 13 13 (3244800)
I0130 20:38:54.023807 108802 net.cpp:159] Memory required for data: 378719600
I0130 20:38:54.023819 108802 layer_factory.hpp:77] Creating layer relu4
I0130 20:38:54.023828 108802 net.cpp:94] Creating Layer relu4
I0130 20:38:54.023833 108802 net.cpp:435] relu4 <- conv4
I0130 20:38:54.023849 108802 net.cpp:409] relu4 -> relu4
I0130 20:38:54.023880 108802 net.cpp:144] Setting up relu4
I0130 20:38:54.023895 108802 net.cpp:151] Top shape: 50 384 13 13 (3244800)
I0130 20:38:54.023897 108802 net.cpp:159] Memory required for data: 391698800
I0130 20:38:54.023900 108802 layer_factory.hpp:77] Creating layer conv5
I0130 20:38:54.023910 108802 net.cpp:94] Creating Layer conv5
I0130 20:38:54.023913 108802 net.cpp:435] conv5 <- relu4
I0130 20:38:54.023918 108802 net.cpp:409] conv5 -> conv5
I0130 20:38:54.034788 108802 net.cpp:144] Setting up conv5
I0130 20:38:54.034812 108802 net.cpp:151] Top shape: 50 256 13 13 (2163200)
I0130 20:38:54.034816 108802 net.cpp:159] Memory required for data: 400351600
I0130 20:38:54.034822 108802 layer_factory.hpp:77] Creating layer relu5
I0130 20:38:54.034831 108802 net.cpp:94] Creating Layer relu5
I0130 20:38:54.034857 108802 net.cpp:435] relu5 <- conv5
I0130 20:38:54.034862 108802 net.cpp:409] relu5 -> relu5
I0130 20:38:54.034888 108802 net.cpp:144] Setting up relu5
I0130 20:38:54.034891 108802 net.cpp:151] Top shape: 50 256 13 13 (2163200)
I0130 20:38:54.034893 108802 net.cpp:159] Memory required for data: 409004400
I0130 20:38:54.034896 108802 layer_factory.hpp:77] Creating layer pool5
I0130 20:38:54.034902 108802 net.cpp:94] Creating Layer pool5
I0130 20:38:54.034905 108802 net.cpp:435] pool5 <- relu5
I0130 20:38:54.034909 108802 net.cpp:409] pool5 -> pool5
I0130 20:38:54.034935 108802 net.cpp:144] Setting up pool5
I0130 20:38:54.034940 108802 net.cpp:151] Top shape: 50 256 6 6 (460800)
I0130 20:38:54.034943 108802 net.cpp:159] Memory required for data: 410847600
I0130 20:38:54.034945 108802 layer_factory.hpp:77] Creating layer fc6
I0130 20:38:54.034950 108802 net.cpp:94] Creating Layer fc6
I0130 20:38:54.034953 108802 net.cpp:435] fc6 <- pool5
I0130 20:38:54.034957 108802 net.cpp:409] fc6 -> fc6
I0130 20:38:54.361524 108802 net.cpp:144] Setting up fc6
I0130 20:38:54.361549 108802 net.cpp:151] Top shape: 50 4096 (204800)
I0130 20:38:54.361552 108802 net.cpp:159] Memory required for data: 411666800
I0130 20:38:54.361559 108802 layer_factory.hpp:77] Creating layer relu6
I0130 20:38:54.361567 108802 net.cpp:94] Creating Layer relu6
I0130 20:38:54.361569 108802 net.cpp:435] relu6 <- fc6
I0130 20:38:54.361575 108802 net.cpp:409] relu6 -> relu6
I0130 20:38:54.361599 108802 net.cpp:144] Setting up relu6
I0130 20:38:54.361603 108802 net.cpp:151] Top shape: 50 4096 (204800)
I0130 20:38:54.361604 108802 net.cpp:159] Memory required for data: 412486000
I0130 20:38:54.361606 108802 layer_factory.hpp:77] Creating layer drop6
I0130 20:38:54.361611 108802 net.cpp:94] Creating Layer drop6
I0130 20:38:54.361613 108802 net.cpp:435] drop6 <- relu6
I0130 20:38:54.361616 108802 net.cpp:409] drop6 -> drop6
I0130 20:38:54.361654 108802 net.cpp:144] Setting up drop6
I0130 20:38:54.361658 108802 net.cpp:151] Top shape: 50 4096 (204800)
I0130 20:38:54.361660 108802 net.cpp:159] Memory required for data: 413305200
I0130 20:38:54.361663 108802 layer_factory.hpp:77] Creating layer fc7
I0130 20:38:54.361668 108802 net.cpp:94] Creating Layer fc7
I0130 20:38:54.361671 108802 net.cpp:435] fc7 <- drop6
I0130 20:38:54.361675 108802 net.cpp:409] fc7 -> fc7
I0130 20:38:54.511507 108802 net.cpp:144] Setting up fc7
I0130 20:38:54.511534 108802 net.cpp:151] Top shape: 50 4096 (204800)
I0130 20:38:54.511536 108802 net.cpp:159] Memory required for data: 414124400
I0130 20:38:54.511544 108802 layer_factory.hpp:77] Creating layer bn7
I0130 20:38:54.511554 108802 net.cpp:94] Creating Layer bn7
I0130 20:38:54.511557 108802 net.cpp:435] bn7 <- fc7
I0130 20:38:54.511562 108802 net.cpp:409] bn7 -> scale7
I0130 20:38:54.512138 108802 net.cpp:144] Setting up bn7
I0130 20:38:54.512146 108802 net.cpp:151] Top shape: 50 4096 (204800)
I0130 20:38:54.512151 108802 net.cpp:159] Memory required for data: 414943600
I0130 20:38:54.512158 108802 layer_factory.hpp:77] Creating layer relu7
I0130 20:38:54.512164 108802 net.cpp:94] Creating Layer relu7
I0130 20:38:54.512167 108802 net.cpp:435] relu7 <- scale7
I0130 20:38:54.512171 108802 net.cpp:409] relu7 -> relu7
I0130 20:38:54.512189 108802 net.cpp:144] Setting up relu7
I0130 20:38:54.512193 108802 net.cpp:151] Top shape: 50 4096 (204800)
I0130 20:38:54.512195 108802 net.cpp:159] Memory required for data: 415762800
I0130 20:38:54.512198 108802 layer_factory.hpp:77] Creating layer drop7
I0130 20:38:54.512203 108802 net.cpp:94] Creating Layer drop7
I0130 20:38:54.512205 108802 net.cpp:435] drop7 <- relu7
I0130 20:38:54.512209 108802 net.cpp:409] drop7 -> drop7
I0130 20:38:54.512233 108802 net.cpp:144] Setting up drop7
I0130 20:38:54.512238 108802 net.cpp:151] Top shape: 50 4096 (204800)
I0130 20:38:54.512240 108802 net.cpp:159] Memory required for data: 416582000
I0130 20:38:54.512243 108802 layer_factory.hpp:77] Creating layer fc8
I0130 20:38:54.512248 108802 net.cpp:94] Creating Layer fc8
I0130 20:38:54.512270 108802 net.cpp:435] fc8 <- drop7
I0130 20:38:54.512274 108802 net.cpp:409] fc8 -> fc8
I0130 20:38:54.512436 108802 net.cpp:144] Setting up fc8
I0130 20:38:54.512441 108802 net.cpp:151] Top shape: 50 2 (100)
I0130 20:38:54.512445 108802 net.cpp:159] Memory required for data: 416582400
I0130 20:38:54.512449 108802 layer_factory.hpp:77] Creating layer fc8_fc8_0_split
I0130 20:38:54.512454 108802 net.cpp:94] Creating Layer fc8_fc8_0_split
I0130 20:38:54.512455 108802 net.cpp:435] fc8_fc8_0_split <- fc8
I0130 20:38:54.512459 108802 net.cpp:409] fc8_fc8_0_split -> fc8_fc8_0_split_0
I0130 20:38:54.512465 108802 net.cpp:409] fc8_fc8_0_split -> fc8_fc8_0_split_1
I0130 20:38:54.512490 108802 net.cpp:144] Setting up fc8_fc8_0_split
I0130 20:38:54.512493 108802 net.cpp:151] Top shape: 50 2 (100)
I0130 20:38:54.512497 108802 net.cpp:151] Top shape: 50 2 (100)
I0130 20:38:54.512500 108802 net.cpp:159] Memory required for data: 416583200
I0130 20:38:54.512501 108802 layer_factory.hpp:77] Creating layer loss
I0130 20:38:54.512506 108802 net.cpp:94] Creating Layer loss
I0130 20:38:54.512509 108802 net.cpp:435] loss <- fc8_fc8_0_split_0
I0130 20:38:54.512512 108802 net.cpp:435] loss <- label_data_1_split_0
I0130 20:38:54.512516 108802 net.cpp:409] loss -> loss
…
