…
I0130 22:18:42.327216 110538 net.cpp:323] The NetState phase (0) differed from the phase (1) specified by a rule in layer accuracy-top1
I0130 22:18:42.327358 110538 net.cpp:52] Initializing net from parameters: 
state {
  phase: TRAIN
}
layer {
  name: "data"
  type: "Data"
  top: "data"
  top: "label"
  include {
    phase: TRAIN
  }
  transform_param {
    mirror: true
    crop_size: 227
    mean_value: 106
    mean_value: 116
    mean_value: 124
  }
  data_param {
    source: "cats-vs-dogs/input/lmdb/train_lmdb"
    batch_size: 256
    backend: LMDB
  }
}
layer {
  name: "conv1"
  type: "Convolution"
  bottom: "data"
  top: "conv1"
  param {
    lr_mult: 1
    decay_mult: 1
    compression: PRUNE
  }
  param {
    lr_mult: 2
    decay_mult: 0
    compression: PRUNE
  }
  convolution_param {
    num_output: 96
    pad: 1
    kernel_size: 11
    stride: 4
    weight_filler {
      type: "gaussian"
      std: 0.01
    }
    bias_filler {
      type: "constant"
      value: 0
    }
  }
}
layer {
  name: "bn1"
  type: "BatchNorm"
  bottom: "conv1"
  top: "scale1"
  param {
    lr_mult: 1
    decay_mult: 0
    compression: PRUNE
  }
  param {
    lr_mult: 1
    decay_mult: 0
    compression: PRUNE
  }
  param {
    lr_mult: 0
    decay_mult: 0
    compression: PRUNE
  }
  param {
    lr_mult: 0
    decay_mult: 0
    compression: PRUNE
  }
  batch_norm_param {
    use_global_stats: false
    scale_filler {
      type: "constant"
      value: 1
    }
    bias_filler {
      type: "constant"
      value: 0
    }
  }
}
layer {
  name: "relu1"
  type: "ReLU"
  bottom: "scale1"
  top: "relu1"
}
layer {
  name: "pool1"
  type: "Pooling"
  bottom: "relu1"
  top: "pool1"
  pooling_param {
    pool: MAX
    kernel_size: 3
    stride: 2
  }
}
layer {
  name: "conv2"
  type: "Convolution"
  bottom: "pool1"
  top: "conv2"
  param {
    lr_mult: 1
    decay_mult: 1
    compression: PRUNE
  }
  param {
    lr_mult: 2
    decay_mult: 0
    compression: PRUNE
  }
  convolution_param {
    num_output: 256
    pad: 2
    kernel_size: 5
    group: 1
    weight_filler {
      type: "gaussian"
      std: 0.01
    }
    bias_filler {
      type: "constant"
      value: 1
    }
  }
}
layer {
  name: "bn2"
  type: "BatchNorm"
  bottom: "conv2"
  top: "scale2"
  param {
    lr_mult: 1
    decay_mult: 0
    compression: PRUNE
  }
  param {
    lr_mult: 1
    decay_mult: 0
    compression: PRUNE
  }
  param {
    lr_mult: 0
    decay_mult: 0
    compression: PRUNE
  }
  param {
    lr_mult: 0
    decay_mult: 0
    compression: PRUNE
  }
  batch_norm_param {
    use_global_stats: false
    scale_filler {
      type: "constant"
      value: 1
    }
    bias_filler {
      type: "constant"
      value: 0
    }
  }
}
layer {
  name: "relu2"
  type: "ReLU"
  bottom: "scale2"
  top: "relu2"
}
layer {
  name: "pool2"
  type: "Pooling"
  bottom: "relu2"
  top: "pool2"
  pooling_param {
    pool: MAX
    kernel_size: 3
    stride: 2
  }
}
layer {
  name: "conv3"
  type: "Convolution"
  bottom: "pool2"
  top: "conv3"
  param {
    lr_mult: 1
    decay_mult: 1
    compression: PRUNE
  }
  param {
    lr_mult: 2
    decay_mult: 0
    compression: PRUNE
  }
  convolution_param {
    num_output: 384
    pad: 1
    kernel_size: 3
    weight_filler {
      type: "gaussian"
      std: 0.01
    }
    bias_filler {
      type: "constant"
      value: 0
    }
  }
}
layer {
  name: "relu3"
  type: "ReLU"
  bottom: "conv3"
  top: "relu3"
}
layer {
  name: "conv4"
  type: "Convolution"
  bottom: "relu3"
  top: "conv4"
  param {
    lr_mult: 1
    decay_mult: 1
    compression: PRUNE
  }
  param {
    lr_mult: 2
    decay_mult: 0
    compression: PRUNE
  }
  convolution_param {
    num_output: 384
    pad: 1
    kernel_size: 3
    group: 1
    weight_filler {
      type: "gaussian"
      std: 0.01
    }
    bias_filler {
      type: "constant"
      value: 1
    }
  }
}
layer {
  name: "relu4"
  type: "ReLU"
  bottom: "conv4"
  top: "relu4"
}
layer {
  name: "conv5"
  type: "Convolution"
  bottom: "relu4"
  top: "conv5"
  param {
    lr_mult: 1
    decay_mult: 1
    compression: PRUNE
  }
  param {
    lr_mult: 2
    decay_mult: 0
    compression: PRUNE
  }
  convolution_param {
    num_output: 256
    pad: 1
    kernel_size: 3
    group: 1
    weight_filler {
      type: "gaussian"
      std: 0.01
    }
    bias_filler {
      type: "constant"
      value: 1
    }
  }
}
layer {
  name: "relu5"
  type: "ReLU"
  bottom: "conv5"
  top: "relu5"
}
layer {
  name: "pool5"
  type: "Pooling"
  bottom: "relu5"
  top: "pool5"
  pooling_param {
    pool: MAX
    kernel_size: 3
    stride: 2
  }
}
layer {
  name: "fc6"
  type: "InnerProduct"
  bottom: "pool5"
  top: "fc6"
  param {
    lr_mult: 1
    decay_mult: 1
  }
  param {
    lr_mult: 2
    decay_mult: 0
  }
  inner_product_param {
    num_output: 4096
    weight_filler {
      type: "gaussian"
      std: 0.005
    }
    bias_filler {
      type: "constant"
      value: 1
    }
  }
}
layer {
  name: "relu6"
  type: "ReLU"
  bottom: "fc6"
  top: "relu6"
}
layer {
  name: "drop6"
  type: "Dropout"
  bottom: "relu6"
  top: "drop6"
  dropout_param {
    dropout_ratio: 0.5
  }
}
layer {
  name: "fc7"
  type: "InnerProduct"
  bottom: "drop6"
  top: "fc7"
  param {
    lr_mult: 1
    decay_mult: 1
  }
  param {
    lr_mult: 2
    decay_mult: 0
  }
  inner_product_param {
    num_output: 4096
    weight_filler {
      type: "gaussian"
      std: 0.005
    }
    bias_filler {
      type: "constant"
      value: 1
    }
  }
}
layer {
  name: "bn7"
  type: "BatchNorm"
  bottom: "fc7"
  top: "scale7"
  param {
    lr_mult: 1
    decay_mult: 0
    compression: PRUNE
  }
  param {
    lr_mult: 1
    decay_mult: 0
    compression: PRUNE
  }
  param {
    lr_mult: 0
    decay_mult: 0
    compression: PRUNE
  }
  param {
    lr_mult: 0
    decay_mult: 0
    compression: PRUNE
  }
  batch_norm_param {
    use_global_stats: false
    scale_filler {
      type: "constant"
      value: 1
    }
    bias_filler {
      type: "constant"
      value: 0
    }
  }
}
layer {
  name: "relu7"
  type: "ReLU"
  bottom: "scale7"
  top: "relu7"
}
layer {
  name: "drop7"
  type: "Dropout"
  bottom: "relu7"
  top: "drop7"
  dropout_param {
    dropout_ratio: 0.5
  }
}
layer {
  name: "fc8"
  type: "InnerProduct"
  bottom: "drop7"
  top: "fc8"
  param {
    lr_mult: 1
    decay_mult: 1
  }
  param {
    lr_mult: 2
    decay_mult: 0
  }
  inner_product_param {
    num_output: 2
    weight_filler {
      type: "gaussian"
      std: 0.01
    }
    bias_filler {
      type: "constant"
      value: 0
    }
  }
}
layer {
  name: "loss"
  type: "SoftmaxWithLoss"
  bottom: "fc8"
  bottom: "label"
  top: "loss"
}
I0130 22:18:42.327422 110538 layer_factory.hpp:77] Creating layer data
I0130 22:18:42.327574 110538 internal_thread.cpp:27] Starting internal thread(s) on GPU 0
I0130 22:18:42.328044 110538 net.cpp:94] Creating Layer data
I0130 22:18:42.328052 110538 net.cpp:409] data -> data
I0130 22:18:42.328061 110538 net.cpp:409] data -> label
I0130 22:18:42.330431 110575 db_lmdb.cpp:35] Opened lmdb cats-vs-dogs/input/lmdb/train_lmdb
I0130 22:18:42.330473 110575 data_reader.cpp:117] TRAIN: reading data using 1 channel(s)
I0130 22:18:42.330759 110538 data_layer.cpp:78] ReshapePrefetch 256, 3, 227, 227
I0130 22:18:42.330845 110538 data_layer.cpp:83] output data size: 256,3,227,227
I0130 22:18:42.729589 110538 internal_thread.cpp:27] Starting internal thread(s) on GPU 0
I0130 22:18:42.729645 110538 net.cpp:144] Setting up data
I0130 22:18:42.729653 110538 net.cpp:151] Top shape: 256 3 227 227 (39574272)
I0130 22:18:42.729656 110538 net.cpp:151] Top shape: 256 (256)
I0130 22:18:42.729674 110538 net.cpp:159] Memory required for data: 158298112
I0130 22:18:42.729679 110538 layer_factory.hpp:77] Creating layer conv1
I0130 22:18:42.729693 110538 net.cpp:94] Creating Layer conv1
I0130 22:18:42.729697 110538 net.cpp:435] conv1 <- data
I0130 22:18:42.729713 110538 net.cpp:409] conv1 -> conv1
I0130 22:18:42.731614 110538 net.cpp:144] Setting up conv1
I0130 22:18:42.731627 110538 net.cpp:151] Top shape: 256 96 55 55 (74342400)
I0130 22:18:42.731629 110538 net.cpp:159] Memory required for data: 455667712
I0130 22:18:42.731658 110538 layer_factory.hpp:77] Creating layer bn1
I0130 22:18:42.731667 110538 net.cpp:94] Creating Layer bn1
I0130 22:18:42.731672 110538 net.cpp:435] bn1 <- conv1
I0130 22:18:42.731676 110538 net.cpp:409] bn1 -> scale1
I0130 22:18:42.732916 110538 net.cpp:144] Setting up bn1
I0130 22:18:42.732923 110538 net.cpp:151] Top shape: 256 96 55 55 (74342400)
I0130 22:18:42.732924 110538 net.cpp:159] Memory required for data: 753037312
I0130 22:18:42.732933 110538 layer_factory.hpp:77] Creating layer relu1
I0130 22:18:42.732954 110538 net.cpp:94] Creating Layer relu1
I0130 22:18:42.732956 110538 net.cpp:435] relu1 <- scale1
I0130 22:18:42.732960 110538 net.cpp:409] relu1 -> relu1
I0130 22:18:42.732985 110538 net.cpp:144] Setting up relu1
I0130 22:18:42.732987 110538 net.cpp:151] Top shape: 256 96 55 55 (74342400)
I0130 22:18:42.732990 110538 net.cpp:159] Memory required for data: 1050406912
I0130 22:18:42.732992 110538 layer_factory.hpp:77] Creating layer pool1
I0130 22:18:42.732998 110538 net.cpp:94] Creating Layer pool1
I0130 22:18:42.733000 110538 net.cpp:435] pool1 <- relu1
I0130 22:18:42.733005 110538 net.cpp:409] pool1 -> pool1
I0130 22:18:42.733064 110538 net.cpp:144] Setting up pool1
I0130 22:18:42.733068 110538 net.cpp:151] Top shape: 256 96 27 27 (17915904)
I0130 22:18:42.733070 110538 net.cpp:159] Memory required for data: 1122070528
I0130 22:18:42.733073 110538 layer_factory.hpp:77] Creating layer conv2
I0130 22:18:42.733080 110538 net.cpp:94] Creating Layer conv2
I0130 22:18:42.733083 110538 net.cpp:435] conv2 <- pool1
I0130 22:18:42.733086 110538 net.cpp:409] conv2 -> conv2
I0130 22:18:42.750083 110538 net.cpp:144] Setting up conv2
I0130 22:18:42.750104 110538 net.cpp:151] Top shape: 256 256 27 27 (47775744)
I0130 22:18:42.750108 110538 net.cpp:159] Memory required for data: 1313173504
I0130 22:18:42.750123 110538 layer_factory.hpp:77] Creating layer bn2
I0130 22:18:42.750136 110538 net.cpp:94] Creating Layer bn2
I0130 22:18:42.750141 110538 net.cpp:435] bn2 <- conv2
I0130 22:18:42.750149 110538 net.cpp:409] bn2 -> scale2
I0130 22:18:42.750919 110538 net.cpp:144] Setting up bn2
I0130 22:18:42.750936 110538 net.cpp:151] Top shape: 256 256 27 27 (47775744)
I0130 22:18:42.750941 110538 net.cpp:159] Memory required for data: 1504276480
I0130 22:18:42.750957 110538 layer_factory.hpp:77] Creating layer relu2
I0130 22:18:42.750965 110538 net.cpp:94] Creating Layer relu2
I0130 22:18:42.750970 110538 net.cpp:435] relu2 <- scale2
I0130 22:18:42.750978 110538 net.cpp:409] relu2 -> relu2
I0130 22:18:42.751005 110538 net.cpp:144] Setting up relu2
I0130 22:18:42.751011 110538 net.cpp:151] Top shape: 256 256 27 27 (47775744)
I0130 22:18:42.751016 110538 net.cpp:159] Memory required for data: 1695379456
I0130 22:18:42.751020 110538 layer_factory.hpp:77] Creating layer pool2
I0130 22:18:42.751029 110538 net.cpp:94] Creating Layer pool2
I0130 22:18:42.751034 110538 net.cpp:435] pool2 <- relu2
I0130 22:18:42.751061 110538 net.cpp:409] pool2 -> pool2
I0130 22:18:42.751099 110538 net.cpp:144] Setting up pool2
I0130 22:18:42.751106 110538 net.cpp:151] Top shape: 256 256 13 13 (11075584)
I0130 22:18:42.751109 110538 net.cpp:159] Memory required for data: 1739681792
I0130 22:18:42.751113 110538 layer_factory.hpp:77] Creating layer conv3
I0130 22:18:42.751125 110538 net.cpp:94] Creating Layer conv3
I0130 22:18:42.751129 110538 net.cpp:435] conv3 <- pool2
I0130 22:18:42.751137 110538 net.cpp:409] conv3 -> conv3
I0130 22:18:42.770274 110538 net.cpp:144] Setting up conv3
I0130 22:18:42.770298 110538 net.cpp:151] Top shape: 256 384 13 13 (16613376)
I0130 22:18:42.770301 110538 net.cpp:159] Memory required for data: 1806135296
I0130 22:18:42.770309 110538 layer_factory.hpp:77] Creating layer relu3
I0130 22:18:42.770318 110538 net.cpp:94] Creating Layer relu3
I0130 22:18:42.770323 110538 net.cpp:435] relu3 <- conv3
I0130 22:18:42.770329 110538 net.cpp:409] relu3 -> relu3
I0130 22:18:42.770354 110538 net.cpp:144] Setting up relu3
I0130 22:18:42.770360 110538 net.cpp:151] Top shape: 256 384 13 13 (16613376)
I0130 22:18:42.770362 110538 net.cpp:159] Memory required for data: 1872588800
I0130 22:18:42.770365 110538 layer_factory.hpp:77] Creating layer conv4
I0130 22:18:42.770375 110538 net.cpp:94] Creating Layer conv4
I0130 22:18:42.770380 110538 net.cpp:435] conv4 <- relu3
I0130 22:18:42.770385 110538 net.cpp:409] conv4 -> conv4
I0130 22:18:42.798003 110538 net.cpp:144] Setting up conv4
I0130 22:18:42.798048 110538 net.cpp:151] Top shape: 256 384 13 13 (16613376)
I0130 22:18:42.798055 110538 net.cpp:159] Memory required for data: 1939042304
I0130 22:18:42.798076 110538 layer_factory.hpp:77] Creating layer relu4
I0130 22:18:42.798089 110538 net.cpp:94] Creating Layer relu4
I0130 22:18:42.798095 110538 net.cpp:435] relu4 <- conv4
I0130 22:18:42.798106 110538 net.cpp:409] relu4 -> relu4
I0130 22:18:42.798159 110538 net.cpp:144] Setting up relu4
I0130 22:18:42.798168 110538 net.cpp:151] Top shape: 256 384 13 13 (16613376)
I0130 22:18:42.798173 110538 net.cpp:159] Memory required for data: 2005495808
I0130 22:18:42.798179 110538 layer_factory.hpp:77] Creating layer conv5
I0130 22:18:42.798214 110538 net.cpp:94] Creating Layer conv5
I0130 22:18:42.798221 110538 net.cpp:435] conv5 <- relu4
I0130 22:18:42.798230 110538 net.cpp:409] conv5 -> conv5
I0130 22:18:42.814419 110538 net.cpp:144] Setting up conv5
I0130 22:18:42.814441 110538 net.cpp:151] Top shape: 256 256 13 13 (11075584)
I0130 22:18:42.814445 110538 net.cpp:159] Memory required for data: 2049798144
I0130 22:18:42.814451 110538 layer_factory.hpp:77] Creating layer relu5
I0130 22:18:42.814460 110538 net.cpp:94] Creating Layer relu5
I0130 22:18:42.814465 110538 net.cpp:435] relu5 <- conv5
I0130 22:18:42.814469 110538 net.cpp:409] relu5 -> relu5
I0130 22:18:42.814492 110538 net.cpp:144] Setting up relu5
I0130 22:18:42.814497 110538 net.cpp:151] Top shape: 256 256 13 13 (11075584)
I0130 22:18:42.814501 110538 net.cpp:159] Memory required for data: 2094100480
I0130 22:18:42.814502 110538 layer_factory.hpp:77] Creating layer pool5
I0130 22:18:42.814507 110538 net.cpp:94] Creating Layer pool5
I0130 22:18:42.814509 110538 net.cpp:435] pool5 <- relu5
I0130 22:18:42.814514 110538 net.cpp:409] pool5 -> pool5
I0130 22:18:42.814546 110538 net.cpp:144] Setting up pool5
I0130 22:18:42.814553 110538 net.cpp:151] Top shape: 256 256 6 6 (2359296)
I0130 22:18:42.814558 110538 net.cpp:159] Memory required for data: 2103537664
I0130 22:18:42.814560 110538 layer_factory.hpp:77] Creating layer fc6
I0130 22:18:42.814569 110538 net.cpp:94] Creating Layer fc6
I0130 22:18:42.814574 110538 net.cpp:435] fc6 <- pool5
I0130 22:18:42.814580 110538 net.cpp:409] fc6 -> fc6
I0130 22:18:43.157691 110538 net.cpp:144] Setting up fc6
I0130 22:18:43.157718 110538 net.cpp:151] Top shape: 256 4096 (1048576)
I0130 22:18:43.157721 110538 net.cpp:159] Memory required for data: 2107731968
I0130 22:18:43.157730 110538 layer_factory.hpp:77] Creating layer relu6
I0130 22:18:43.157750 110538 net.cpp:94] Creating Layer relu6
I0130 22:18:43.157788 110538 net.cpp:435] relu6 <- fc6
I0130 22:18:43.157797 110538 net.cpp:409] relu6 -> relu6
I0130 22:18:43.157825 110538 net.cpp:144] Setting up relu6
I0130 22:18:43.157835 110538 net.cpp:151] Top shape: 256 4096 (1048576)
I0130 22:18:43.157837 110538 net.cpp:159] Memory required for data: 2111926272
I0130 22:18:43.157840 110538 layer_factory.hpp:77] Creating layer drop6
I0130 22:18:43.157848 110538 net.cpp:94] Creating Layer drop6
I0130 22:18:43.157852 110538 net.cpp:435] drop6 <- relu6
I0130 22:18:43.157858 110538 net.cpp:409] drop6 -> drop6
I0130 22:18:43.157896 110538 net.cpp:144] Setting up drop6
I0130 22:18:43.157904 110538 net.cpp:151] Top shape: 256 4096 (1048576)
I0130 22:18:43.157907 110538 net.cpp:159] Memory required for data: 2116120576
I0130 22:18:43.157910 110538 layer_factory.hpp:77] Creating layer fc7
I0130 22:18:43.157917 110538 net.cpp:94] Creating Layer fc7
I0130 22:18:43.157922 110538 net.cpp:435] fc7 <- drop6
I0130 22:18:43.157929 110538 net.cpp:409] fc7 -> fc7
I0130 22:18:43.300093 110538 net.cpp:144] Setting up fc7
I0130 22:18:43.300119 110538 net.cpp:151] Top shape: 256 4096 (1048576)
I0130 22:18:43.300122 110538 net.cpp:159] Memory required for data: 2120314880
I0130 22:18:43.300130 110538 layer_factory.hpp:77] Creating layer bn7
I0130 22:18:43.300139 110538 net.cpp:94] Creating Layer bn7
I0130 22:18:43.300143 110538 net.cpp:435] bn7 <- fc7
I0130 22:18:43.300158 110538 net.cpp:409] bn7 -> scale7
I0130 22:18:43.300680 110538 net.cpp:144] Setting up bn7
I0130 22:18:43.300688 110538 net.cpp:151] Top shape: 256 4096 (1048576)
I0130 22:18:43.300691 110538 net.cpp:159] Memory required for data: 2124509184
I0130 22:18:43.300698 110538 layer_factory.hpp:77] Creating layer relu7
I0130 22:18:43.300704 110538 net.cpp:94] Creating Layer relu7
I0130 22:18:43.300709 110538 net.cpp:435] relu7 <- scale7
I0130 22:18:43.300714 110538 net.cpp:409] relu7 -> relu7
I0130 22:18:43.300736 110538 net.cpp:144] Setting up relu7
I0130 22:18:43.300742 110538 net.cpp:151] Top shape: 256 4096 (1048576)
I0130 22:18:43.300745 110538 net.cpp:159] Memory required for data: 2128703488
I0130 22:18:43.300748 110538 layer_factory.hpp:77] Creating layer drop7
I0130 22:18:43.300753 110538 net.cpp:94] Creating Layer drop7
I0130 22:18:43.300756 110538 net.cpp:435] drop7 <- relu7
I0130 22:18:43.300761 110538 net.cpp:409] drop7 -> drop7
I0130 22:18:43.300793 110538 net.cpp:144] Setting up drop7
I0130 22:18:43.300799 110538 net.cpp:151] Top shape: 256 4096 (1048576)
I0130 22:18:43.300801 110538 net.cpp:159] Memory required for data: 2132897792
I0130 22:18:43.300803 110538 layer_factory.hpp:77] Creating layer fc8
I0130 22:18:43.300809 110538 net.cpp:94] Creating Layer fc8
I0130 22:18:43.300813 110538 net.cpp:435] fc8 <- drop7
I0130 22:18:43.300818 110538 net.cpp:409] fc8 -> fc8
I0130 22:18:43.301715 110538 net.cpp:144] Setting up fc8
I0130 22:18:43.301728 110538 net.cpp:151] Top shape: 256 2 (512)
I0130 22:18:43.301730 110538 net.cpp:159] Memory required for data: 2132899840
I0130 22:18:43.301736 110538 layer_factory.hpp:77] Creating layer loss
I0130 22:18:43.301743 110538 net.cpp:94] Creating Layer loss
I0130 22:18:43.301746 110538 net.cpp:435] loss <- fc8
I0130 22:18:43.301751 110538 net.cpp:435] loss <- label
I0130 22:18:43.301757 110538 net.cpp:409] loss -> loss
I0130 22:18:43.301766 110538 layer_factory.hpp:77] Creating layer loss
…
I0130 22:18:43.302289 110538 solver.cpp:189] Creating test net (#0) specified by net file: cats-vs-dogs/deephi/alexnetBNnoLRN/pruning/regular_rate_0.5/net_finetune.prototxt
I0130 22:18:43.302325 110538 net.cpp:323] The NetState phase (1) differed from the phase (0) specified by a rule in layer data
I0130 22:18:43.302494 110538 net.cpp:52] Initializing net from parameters: 
state {
  phase: TEST
}
layer {
  name: "data"
  type: "Data"
  top: "data"
  top: "label"
  include {
    phase: TEST
  }
  transform_param {
    mirror: false
    crop_size: 227
    mean_value: 106
    mean_value: 116
    mean_value: 124
  }
  data_param {
    source: "cats-vs-dogs/input/lmdb/valid_lmdb"
    batch_size: 50
    backend: LMDB
  }
}
layer {
  name: "conv1"
  type: "Convolution"
  bottom: "data"
  top: "conv1"
  param {
    lr_mult: 1
    decay_mult: 1
    compression: PRUNE
  }
  param {
    lr_mult: 2
    decay_mult: 0
    compression: PRUNE
  }
  convolution_param {
    num_output: 96
    pad: 1
    kernel_size: 11
    stride: 4
    weight_filler {
      type: "gaussian"
      std: 0.01
    }
    bias_filler {
      type: "constant"
      value: 0
    }
  }
}
layer {
  name: "bn1"
  type: "BatchNorm"
  bottom: "conv1"
  top: "scale1"
  param {
    lr_mult: 1
    decay_mult: 0
    compression: PRUNE
  }
  param {
    lr_mult: 1
    decay_mult: 0
    compression: PRUNE
  }
  param {
    lr_mult: 0
    decay_mult: 0
    compression: PRUNE
  }
  param {
    lr_mult: 0
    decay_mult: 0
    compression: PRUNE
  }
  batch_norm_param {
    use_global_stats: false
    scale_filler {
      type: "constant"
      value: 1
    }
    bias_filler {
      type: "constant"
      value: 0
    }
  }
}
layer {
  name: "relu1"
  type: "ReLU"
  bottom: "scale1"
  top: "relu1"
}
layer {
  name: "pool1"
  type: "Pooling"
  bottom: "relu1"
  top: "pool1"
  pooling_param {
    pool: MAX
    kernel_size: 3
    stride: 2
  }
}
layer {
  name: "conv2"
  type: "Convolution"
  bottom: "pool1"
  top: "conv2"
  param {
    lr_mult: 1
    decay_mult: 1
    compression: PRUNE
  }
  param {
    lr_mult: 2
    decay_mult: 0
    compression: PRUNE
  }
  convolution_param {
    num_output: 256
    pad: 2
    kernel_size: 5
    group: 1
    weight_filler {
      type: "gaussian"
      std: 0.01
    }
    bias_filler {
      type: "constant"
      value: 1
    }
  }
}
layer {
  name: "bn2"
  type: "BatchNorm"
  bottom: "conv2"
  top: "scale2"
  param {
    lr_mult: 1
    decay_mult: 0
    compression: PRUNE
  }
  param {
    lr_mult: 1
    decay_mult: 0
    compression: PRUNE
  }
  param {
    lr_mult: 0
    decay_mult: 0
    compression: PRUNE
  }
  param {
    lr_mult: 0
    decay_mult: 0
    compression: PRUNE
  }
  batch_norm_param {
    use_global_stats: false
    scale_filler {
      type: "constant"
      value: 1
    }
    bias_filler {
      type: "constant"
      value: 0
    }
  }
}
layer {
  name: "relu2"
  type: "ReLU"
  bottom: "scale2"
  top: "relu2"
}
layer {
  name: "pool2"
  type: "Pooling"
  bottom: "relu2"
  top: "pool2"
  pooling_param {
    pool: MAX
    kernel_size: 3
    stride: 2
  }
}
layer {
  name: "conv3"
  type: "Convolution"
  bottom: "pool2"
  top: "conv3"
  param {
    lr_mult: 1
    decay_mult: 1
    compression: PRUNE
  }
  param {
    lr_mult: 2
    decay_mult: 0
    compression: PRUNE
  }
  convolution_param {
    num_output: 384
    pad: 1
    kernel_size: 3
    weight_filler {
      type: "gaussian"
      std: 0.01
    }
    bias_filler {
      type: "constant"
      value: 0
    }
  }
}
layer {
  name: "relu3"
  type: "ReLU"
  bottom: "conv3"
  top: "relu3"
}
layer {
  name: "conv4"
  type: "Convolution"
  bottom: "relu3"
  top: "conv4"
  param {
    lr_mult: 1
    decay_mult: 1
    compression: PRUNE
  }
  param {
    lr_mult: 2
    decay_mult: 0
    compression: PRUNE
  }
  convolution_param {
    num_output: 384
    pad: 1
    kernel_size: 3
    group: 1
    weight_filler {
      type: "gaussian"
      std: 0.01
    }
    bias_filler {
      type: "constant"
      value: 1
    }
  }
}
layer {
  name: "relu4"
  type: "ReLU"
  bottom: "conv4"
  top: "relu4"
}
layer {
  name: "conv5"
  type: "Convolution"
  bottom: "relu4"
  top: "conv5"
  param {
    lr_mult: 1
    decay_mult: 1
    compression: PRUNE
  }
  param {
    lr_mult: 2
    decay_mult: 0
    compression: PRUNE
  }
  convolution_param {
    num_output: 256
    pad: 1
    kernel_size: 3
    group: 1
    weight_filler {
      type: "gaussian"
      std: 0.01
    }
    bias_filler {
      type: "constant"
      value: 1
    }
  }
}
layer {
  name: "relu5"
  type: "ReLU"
  bottom: "conv5"
  top: "relu5"
}
layer {
  name: "pool5"
  type: "Pooling"
  bottom: "relu5"
  top: "pool5"
  pooling_param {
    pool: MAX
    kernel_size: 3
    stride: 2
  }
}
layer {
  name: "fc6"
  type: "InnerProduct"
  bottom: "pool5"
  top: "fc6"
  param {
    lr_mult: 1
    decay_mult: 1
  }
  param {
    lr_mult: 2
    decay_mult: 0
  }
  inner_product_param {
    num_output: 4096
    weight_filler {
      type: "gaussian"
      std: 0.005
    }
    bias_filler {
      type: "constant"
      value: 1
    }
  }
}
layer {
  name: "relu6"
  type: "ReLU"
  bottom: "fc6"
  top: "relu6"
}
layer {
  name: "drop6"
  type: "Dropout"
  bottom: "relu6"
  top: "drop6"
  dropout_param {
    dropout_ratio: 0.5
  }
}
layer {
  name: "fc7"
  type: "InnerProduct"
  bottom: "drop6"
  top: "fc7"
  param {
    lr_mult: 1
    decay_mult: 1
  }
  param {
    lr_mult: 2
    decay_mult: 0
  }
  inner_product_param {
    num_output: 4096
    weight_filler {
      type: "gaussian"
      std: 0.005
    }
    bias_filler {
      type: "constant"
      value: 1
    }
  }
}
layer {
  name: "bn7"
  type: "BatchNorm"
  bottom: "fc7"
  top: "scale7"
  param {
    lr_mult: 1
    decay_mult: 0
    compression: PRUNE
  }
  param {
    lr_mult: 1
    decay_mult: 0
    compression: PRUNE
  }
  param {
    lr_mult: 0
    decay_mult: 0
    compression: PRUNE
  }
  param {
    lr_mult: 0
    decay_mult: 0
    compression: PRUNE
  }
  batch_norm_param {
    use_global_stats: false
    scale_filler {
      type: "constant"
      value: 1
    }
    bias_filler {
      type: "constant"
      value: 0
    }
  }
}
layer {
  name: "relu7"
  type: "ReLU"
  bottom: "scale7"
  top: "relu7"
}
layer {
  name: "drop7"
  type: "Dropout"
  bottom: "relu7"
  top: "drop7"
  dropout_param {
    dropout_ratio: 0.5
  }
}
layer {
  name: "fc8"
  type: "InnerProduct"
  bottom: "drop7"
  top: "fc8"
  param {
    lr_mult: 1
    decay_mult: 1
  }
  param {
    lr_mult: 2
    decay_mult: 0
  }
  inner_product_param {
    num_output: 2
    weight_filler {
      type: "gaussian"
      std: 0.01
    }
    bias_filler {
      type: "constant"
      value: 0
    }
  }
}
layer {
  name: "loss"
  type: "SoftmaxWithLoss"
  bottom: "fc8"
  bottom: "label"
  top: "loss"
}
layer {
  name: "accuracy-top1"
  type: "Accuracy"
  bottom: "fc8"
  bottom: "label"
  top: "top-1"
  include {
    phase: TEST
  }
}
I0130 22:18:43.302600 110538 layer_factory.hpp:77] Creating layer data
I0130 22:18:43.302644 110538 internal_thread.cpp:27] Starting internal thread(s) on GPU 0
I0130 22:18:43.303568 110538 net.cpp:94] Creating Layer data
I0130 22:18:43.303580 110538 net.cpp:409] data -> data
I0130 22:18:43.303591 110538 net.cpp:409] data -> label
I0130 22:18:43.305222 110605 db_lmdb.cpp:35] Opened lmdb cats-vs-dogs/input/lmdb/valid_lmdb
I0130 22:18:43.305256 110605 data_reader.cpp:117] TEST: reading data using 1 channel(s)
I0130 22:18:43.305514 110538 data_layer.cpp:78] ReshapePrefetch 50, 3, 227, 227
I0130 22:18:43.305593 110538 data_layer.cpp:83] output data size: 50,3,227,227
I0130 22:18:43.399768 110538 internal_thread.cpp:27] Starting internal thread(s) on GPU 0
I0130 22:18:43.399838 110538 net.cpp:144] Setting up data
I0130 22:18:43.399845 110538 net.cpp:151] Top shape: 50 3 227 227 (7729350)
I0130 22:18:43.399849 110538 net.cpp:151] Top shape: 50 (50)
I0130 22:18:43.399850 110538 net.cpp:159] Memory required for data: 30917600
I0130 22:18:43.399855 110538 layer_factory.hpp:77] Creating layer label_data_1_split
I0130 22:18:43.399863 110538 net.cpp:94] Creating Layer label_data_1_split
I0130 22:18:43.399866 110538 net.cpp:435] label_data_1_split <- label
I0130 22:18:43.399871 110538 net.cpp:409] label_data_1_split -> label_data_1_split_0
I0130 22:18:43.399878 110538 net.cpp:409] label_data_1_split -> label_data_1_split_1
I0130 22:18:43.399955 110538 net.cpp:144] Setting up label_data_1_split
I0130 22:18:43.399962 110538 net.cpp:151] Top shape: 50 (50)
I0130 22:18:43.399966 110538 net.cpp:151] Top shape: 50 (50)
I0130 22:18:43.399968 110538 net.cpp:159] Memory required for data: 30918000
I0130 22:18:43.399972 110538 layer_factory.hpp:77] Creating layer conv1
I0130 22:18:43.399986 110538 net.cpp:94] Creating Layer conv1
I0130 22:18:43.399991 110538 net.cpp:435] conv1 <- data
I0130 22:18:43.399997 110538 net.cpp:409] conv1 -> conv1
I0130 22:18:43.400580 110538 net.cpp:144] Setting up conv1
I0130 22:18:43.400588 110538 net.cpp:151] Top shape: 50 96 55 55 (14520000)
I0130 22:18:43.400590 110538 net.cpp:159] Memory required for data: 88998000
I0130 22:18:43.400600 110538 layer_factory.hpp:77] Creating layer bn1
I0130 22:18:43.400610 110538 net.cpp:94] Creating Layer bn1
I0130 22:18:43.400614 110538 net.cpp:435] bn1 <- conv1
I0130 22:18:43.400620 110538 net.cpp:409] bn1 -> scale1
I0130 22:18:43.402477 110538 net.cpp:144] Setting up bn1
I0130 22:18:43.402483 110538 net.cpp:151] Top shape: 50 96 55 55 (14520000)
I0130 22:18:43.402487 110538 net.cpp:159] Memory required for data: 147078000
I0130 22:18:43.402495 110538 layer_factory.hpp:77] Creating layer relu1
I0130 22:18:43.402501 110538 net.cpp:94] Creating Layer relu1
I0130 22:18:43.402504 110538 net.cpp:435] relu1 <- scale1
I0130 22:18:43.402508 110538 net.cpp:409] relu1 -> relu1
I0130 22:18:43.402758 110538 net.cpp:144] Setting up relu1
I0130 22:18:43.402765 110538 net.cpp:151] Top shape: 50 96 55 55 (14520000)
I0130 22:18:43.402767 110538 net.cpp:159] Memory required for data: 205158000
I0130 22:18:43.402770 110538 layer_factory.hpp:77] Creating layer pool1
I0130 22:18:43.402774 110538 net.cpp:94] Creating Layer pool1
I0130 22:18:43.402778 110538 net.cpp:435] pool1 <- relu1
I0130 22:18:43.402784 110538 net.cpp:409] pool1 -> pool1
I0130 22:18:43.402845 110538 net.cpp:144] Setting up pool1
I0130 22:18:43.402850 110538 net.cpp:151] Top shape: 50 96 27 27 (3499200)
I0130 22:18:43.402853 110538 net.cpp:159] Memory required for data: 219154800
I0130 22:18:43.402855 110538 layer_factory.hpp:77] Creating layer conv2
I0130 22:18:43.402863 110538 net.cpp:94] Creating Layer conv2
I0130 22:18:43.402885 110538 net.cpp:435] conv2 <- pool1
I0130 22:18:43.402890 110538 net.cpp:409] conv2 -> conv2
I0130 22:18:43.409154 110538 net.cpp:144] Setting up conv2
I0130 22:18:43.409175 110538 net.cpp:151] Top shape: 50 256 27 27 (9331200)
I0130 22:18:43.409178 110538 net.cpp:159] Memory required for data: 256479600
I0130 22:18:43.409191 110538 layer_factory.hpp:77] Creating layer bn2
I0130 22:18:43.409204 110538 net.cpp:94] Creating Layer bn2
I0130 22:18:43.409209 110538 net.cpp:435] bn2 <- conv2
I0130 22:18:43.409216 110538 net.cpp:409] bn2 -> scale2
I0130 22:18:43.409847 110538 net.cpp:144] Setting up bn2
I0130 22:18:43.409855 110538 net.cpp:151] Top shape: 50 256 27 27 (9331200)
I0130 22:18:43.409859 110538 net.cpp:159] Memory required for data: 293804400
I0130 22:18:43.409873 110538 layer_factory.hpp:77] Creating layer relu2
I0130 22:18:43.409881 110538 net.cpp:94] Creating Layer relu2
I0130 22:18:43.409889 110538 net.cpp:435] relu2 <- scale2
I0130 22:18:43.409895 110538 net.cpp:409] relu2 -> relu2
I0130 22:18:43.409920 110538 net.cpp:144] Setting up relu2
I0130 22:18:43.409926 110538 net.cpp:151] Top shape: 50 256 27 27 (9331200)
I0130 22:18:43.409930 110538 net.cpp:159] Memory required for data: 331129200
I0130 22:18:43.409934 110538 layer_factory.hpp:77] Creating layer pool2
I0130 22:18:43.409942 110538 net.cpp:94] Creating Layer pool2
I0130 22:18:43.409946 110538 net.cpp:435] pool2 <- relu2
I0130 22:18:43.409952 110538 net.cpp:409] pool2 -> pool2
I0130 22:18:43.409987 110538 net.cpp:144] Setting up pool2
I0130 22:18:43.409993 110538 net.cpp:151] Top shape: 50 256 13 13 (2163200)
I0130 22:18:43.409997 110538 net.cpp:159] Memory required for data: 339782000
I0130 22:18:43.410001 110538 layer_factory.hpp:77] Creating layer conv3
I0130 22:18:43.410012 110538 net.cpp:94] Creating Layer conv3
I0130 22:18:43.410022 110538 net.cpp:435] conv3 <- pool2
I0130 22:18:43.410028 110538 net.cpp:409] conv3 -> conv3
I0130 22:18:43.421699 110538 net.cpp:144] Setting up conv3
I0130 22:18:43.421722 110538 net.cpp:151] Top shape: 50 384 13 13 (3244800)
I0130 22:18:43.421725 110538 net.cpp:159] Memory required for data: 352761200
I0130 22:18:43.421735 110538 layer_factory.hpp:77] Creating layer relu3
I0130 22:18:43.421746 110538 net.cpp:94] Creating Layer relu3
I0130 22:18:43.421749 110538 net.cpp:435] relu3 <- conv3
I0130 22:18:43.421756 110538 net.cpp:409] relu3 -> relu3
I0130 22:18:43.421788 110538 net.cpp:144] Setting up relu3
I0130 22:18:43.421802 110538 net.cpp:151] Top shape: 50 384 13 13 (3244800)
I0130 22:18:43.421805 110538 net.cpp:159] Memory required for data: 365740400
I0130 22:18:43.421808 110538 layer_factory.hpp:77] Creating layer conv4
I0130 22:18:43.421819 110538 net.cpp:94] Creating Layer conv4
I0130 22:18:43.421823 110538 net.cpp:435] conv4 <- relu3
I0130 22:18:43.421830 110538 net.cpp:409] conv4 -> conv4
I0130 22:18:43.435998 110538 net.cpp:144] Setting up conv4
I0130 22:18:43.436022 110538 net.cpp:151] Top shape: 50 384 13 13 (3244800)
I0130 22:18:43.436025 110538 net.cpp:159] Memory required for data: 378719600
I0130 22:18:43.436039 110538 layer_factory.hpp:77] Creating layer relu4
I0130 22:18:43.436048 110538 net.cpp:94] Creating Layer relu4
I0130 22:18:43.436053 110538 net.cpp:435] relu4 <- conv4
I0130 22:18:43.436061 110538 net.cpp:409] relu4 -> relu4
I0130 22:18:43.436089 110538 net.cpp:144] Setting up relu4
I0130 22:18:43.436095 110538 net.cpp:151] Top shape: 50 384 13 13 (3244800)
I0130 22:18:43.436098 110538 net.cpp:159] Memory required for data: 391698800
I0130 22:18:43.436102 110538 layer_factory.hpp:77] Creating layer conv5
I0130 22:18:43.436112 110538 net.cpp:94] Creating Layer conv5
I0130 22:18:43.436117 110538 net.cpp:435] conv5 <- relu4
I0130 22:18:43.436123 110538 net.cpp:409] conv5 -> conv5
I0130 22:18:43.446449 110538 net.cpp:144] Setting up conv5
I0130 22:18:43.446472 110538 net.cpp:151] Top shape: 50 256 13 13 (2163200)
I0130 22:18:43.446476 110538 net.cpp:159] Memory required for data: 400351600
I0130 22:18:43.446485 110538 layer_factory.hpp:77] Creating layer relu5
I0130 22:18:43.446496 110538 net.cpp:94] Creating Layer relu5
I0130 22:18:43.446513 110538 net.cpp:435] relu5 <- conv5
I0130 22:18:43.446525 110538 net.cpp:409] relu5 -> relu5
I0130 22:18:43.446557 110538 net.cpp:144] Setting up relu5
I0130 22:18:43.446563 110538 net.cpp:151] Top shape: 50 256 13 13 (2163200)
I0130 22:18:43.446565 110538 net.cpp:159] Memory required for data: 409004400
I0130 22:18:43.446568 110538 layer_factory.hpp:77] Creating layer pool5
I0130 22:18:43.446578 110538 net.cpp:94] Creating Layer pool5
I0130 22:18:43.446583 110538 net.cpp:435] pool5 <- relu5
I0130 22:18:43.446588 110538 net.cpp:409] pool5 -> pool5
I0130 22:18:43.446620 110538 net.cpp:144] Setting up pool5
I0130 22:18:43.446625 110538 net.cpp:151] Top shape: 50 256 6 6 (460800)
I0130 22:18:43.446630 110538 net.cpp:159] Memory required for data: 410847600
I0130 22:18:43.446633 110538 layer_factory.hpp:77] Creating layer fc6
I0130 22:18:43.446651 110538 net.cpp:94] Creating Layer fc6
I0130 22:18:43.446655 110538 net.cpp:435] fc6 <- pool5
I0130 22:18:43.446663 110538 net.cpp:409] fc6 -> fc6
I0130 22:18:43.782232 110538 net.cpp:144] Setting up fc6
I0130 22:18:43.782258 110538 net.cpp:151] Top shape: 50 4096 (204800)
I0130 22:18:43.782261 110538 net.cpp:159] Memory required for data: 411666800
I0130 22:18:43.782271 110538 layer_factory.hpp:77] Creating layer relu6
I0130 22:18:43.782280 110538 net.cpp:94] Creating Layer relu6
I0130 22:18:43.782284 110538 net.cpp:435] relu6 <- fc6
I0130 22:18:43.782291 110538 net.cpp:409] relu6 -> relu6
I0130 22:18:43.782318 110538 net.cpp:144] Setting up relu6
I0130 22:18:43.782322 110538 net.cpp:151] Top shape: 50 4096 (204800)
I0130 22:18:43.782325 110538 net.cpp:159] Memory required for data: 412486000
I0130 22:18:43.782328 110538 layer_factory.hpp:77] Creating layer drop6
I0130 22:18:43.782349 110538 net.cpp:94] Creating Layer drop6
I0130 22:18:43.782352 110538 net.cpp:435] drop6 <- relu6
I0130 22:18:43.782356 110538 net.cpp:409] drop6 -> drop6
I0130 22:18:43.782382 110538 net.cpp:144] Setting up drop6
I0130 22:18:43.782387 110538 net.cpp:151] Top shape: 50 4096 (204800)
I0130 22:18:43.782389 110538 net.cpp:159] Memory required for data: 413305200
I0130 22:18:43.782392 110538 layer_factory.hpp:77] Creating layer fc7
I0130 22:18:43.782398 110538 net.cpp:94] Creating Layer fc7
I0130 22:18:43.782402 110538 net.cpp:435] fc7 <- drop6
I0130 22:18:43.782407 110538 net.cpp:409] fc7 -> fc7
I0130 22:18:43.920859 110538 net.cpp:144] Setting up fc7
I0130 22:18:43.920886 110538 net.cpp:151] Top shape: 50 4096 (204800)
I0130 22:18:43.920888 110538 net.cpp:159] Memory required for data: 414124400
I0130 22:18:43.920897 110538 layer_factory.hpp:77] Creating layer bn7
I0130 22:18:43.920908 110538 net.cpp:94] Creating Layer bn7
I0130 22:18:43.920912 110538 net.cpp:435] bn7 <- fc7
I0130 22:18:43.920920 110538 net.cpp:409] bn7 -> scale7
I0130 22:18:43.921466 110538 net.cpp:144] Setting up bn7
I0130 22:18:43.921473 110538 net.cpp:151] Top shape: 50 4096 (204800)
I0130 22:18:43.921476 110538 net.cpp:159] Memory required for data: 414943600
I0130 22:18:43.921489 110538 layer_factory.hpp:77] Creating layer relu7
I0130 22:18:43.921492 110538 net.cpp:94] Creating Layer relu7
I0130 22:18:43.921495 110538 net.cpp:435] relu7 <- scale7
I0130 22:18:43.921499 110538 net.cpp:409] relu7 -> relu7
I0130 22:18:43.921517 110538 net.cpp:144] Setting up relu7
I0130 22:18:43.921520 110538 net.cpp:151] Top shape: 50 4096 (204800)
I0130 22:18:43.921522 110538 net.cpp:159] Memory required for data: 415762800
I0130 22:18:43.921525 110538 layer_factory.hpp:77] Creating layer drop7
I0130 22:18:43.921530 110538 net.cpp:94] Creating Layer drop7
I0130 22:18:43.921532 110538 net.cpp:435] drop7 <- relu7
I0130 22:18:43.921536 110538 net.cpp:409] drop7 -> drop7
I0130 22:18:43.921561 110538 net.cpp:144] Setting up drop7
I0130 22:18:43.921563 110538 net.cpp:151] Top shape: 50 4096 (204800)
I0130 22:18:43.921566 110538 net.cpp:159] Memory required for data: 416582000
I0130 22:18:43.921567 110538 layer_factory.hpp:77] Creating layer fc8
I0130 22:18:43.921573 110538 net.cpp:94] Creating Layer fc8
I0130 22:18:43.922441 110538 net.cpp:435] fc8 <- drop7
I0130 22:18:43.922446 110538 net.cpp:409] fc8 -> fc8
I0130 22:18:43.922654 110538 net.cpp:144] Setting up fc8
I0130 22:18:43.922660 110538 net.cpp:151] Top shape: 50 2 (100)
I0130 22:18:43.922663 110538 net.cpp:159] Memory required for data: 416582400
I0130 22:18:43.922668 110538 layer_factory.hpp:77] Creating layer fc8_fc8_0_split
I0130 22:18:43.922673 110538 net.cpp:94] Creating Layer fc8_fc8_0_split
I0130 22:18:43.922677 110538 net.cpp:435] fc8_fc8_0_split <- fc8
I0130 22:18:43.922682 110538 net.cpp:409] fc8_fc8_0_split -> fc8_fc8_0_split_0
I0130 22:18:43.922686 110538 net.cpp:409] fc8_fc8_0_split -> fc8_fc8_0_split_1
I0130 22:18:43.922716 110538 net.cpp:144] Setting up fc8_fc8_0_split
I0130 22:18:43.922721 110538 net.cpp:151] Top shape: 50 2 (100)
I0130 22:18:43.922726 110538 net.cpp:151] Top shape: 50 2 (100)
I0130 22:18:43.922729 110538 net.cpp:159] Memory required for data: 416583200
I0130 22:18:43.922731 110538 layer_factory.hpp:77] Creating layer loss
I0130 22:18:43.922736 110538 net.cpp:94] Creating Layer loss
I0130 22:18:43.922740 110538 net.cpp:435] loss <- fc8_fc8_0_split_0
I0130 22:18:43.922744 110538 net.cpp:435] loss <- label_data_1_split_0
I0130 22:18:43.922749 110538 net.cpp:409] loss -> loss
…
