…
I0130 18:59:47.829726 108075 net.cpp:323] The NetState phase (0) differed from the phase (1) specified by a rule in layer accuracy-top1
I0130 18:59:47.829866 108075 net.cpp:52] Initializing net from parameters: 
state {
  phase: TRAIN
}
layer {
  name: "data"
  type: "Data"
  top: "data"
  top: "label"
  include {
    phase: TRAIN
  }
  transform_param {
    mirror: true
    crop_size: 227
    mean_value: 106
    mean_value: 116
    mean_value: 124
  }
  data_param {
    source: "cats-vs-dogs/input/lmdb/train_lmdb"
    batch_size: 256
    backend: LMDB
  }
}
layer {
  name: "conv1"
  type: "Convolution"
  bottom: "data"
  top: "conv1"
  param {
    lr_mult: 1
    decay_mult: 1
    compression: PRUNE
  }
  param {
    lr_mult: 2
    decay_mult: 0
    compression: PRUNE
  }
  convolution_param {
    num_output: 96
    pad: 1
    kernel_size: 11
    stride: 4
    weight_filler {
      type: "gaussian"
      std: 0.01
    }
    bias_filler {
      type: "constant"
      value: 0
    }
  }
}
layer {
  name: "bn1"
  type: "BatchNorm"
  bottom: "conv1"
  top: "scale1"
  param {
    lr_mult: 1
    decay_mult: 0
    compression: PRUNE
  }
  param {
    lr_mult: 1
    decay_mult: 0
    compression: PRUNE
  }
  param {
    lr_mult: 0
    decay_mult: 0
    compression: PRUNE
  }
  param {
    lr_mult: 0
    decay_mult: 0
    compression: PRUNE
  }
  batch_norm_param {
    use_global_stats: false
    scale_filler {
      type: "constant"
      value: 1
    }
    bias_filler {
      type: "constant"
      value: 0
    }
  }
}
layer {
  name: "relu1"
  type: "ReLU"
  bottom: "scale1"
  top: "relu1"
}
layer {
  name: "pool1"
  type: "Pooling"
  bottom: "relu1"
  top: "pool1"
  pooling_param {
    pool: MAX
    kernel_size: 3
    stride: 2
  }
}
layer {
  name: "conv2"
  type: "Convolution"
  bottom: "pool1"
  top: "conv2"
  param {
    lr_mult: 1
    decay_mult: 1
    compression: PRUNE
  }
  param {
    lr_mult: 2
    decay_mult: 0
    compression: PRUNE
  }
  convolution_param {
    num_output: 256
    pad: 2
    kernel_size: 5
    group: 1
    weight_filler {
      type: "gaussian"
      std: 0.01
    }
    bias_filler {
      type: "constant"
      value: 1
    }
  }
}
layer {
  name: "bn2"
  type: "BatchNorm"
  bottom: "conv2"
  top: "scale2"
  param {
    lr_mult: 1
    decay_mult: 0
    compression: PRUNE
  }
  param {
    lr_mult: 1
    decay_mult: 0
    compression: PRUNE
  }
  param {
    lr_mult: 0
    decay_mult: 0
    compression: PRUNE
  }
  param {
    lr_mult: 0
    decay_mult: 0
    compression: PRUNE
  }
  batch_norm_param {
    use_global_stats: false
    scale_filler {
      type: "constant"
      value: 1
    }
    bias_filler {
      type: "constant"
      value: 0
    }
  }
}
layer {
  name: "relu2"
  type: "ReLU"
  bottom: "scale2"
  top: "relu2"
}
layer {
  name: "pool2"
  type: "Pooling"
  bottom: "relu2"
  top: "pool2"
  pooling_param {
    pool: MAX
    kernel_size: 3
    stride: 2
  }
}
layer {
  name: "conv3"
  type: "Convolution"
  bottom: "pool2"
  top: "conv3"
  param {
    lr_mult: 1
    decay_mult: 1
    compression: PRUNE
  }
  param {
    lr_mult: 2
    decay_mult: 0
    compression: PRUNE
  }
  convolution_param {
    num_output: 384
    pad: 1
    kernel_size: 3
    weight_filler {
      type: "gaussian"
      std: 0.01
    }
    bias_filler {
      type: "constant"
      value: 0
    }
  }
}
layer {
  name: "relu3"
  type: "ReLU"
  bottom: "conv3"
  top: "relu3"
}
layer {
  name: "conv4"
  type: "Convolution"
  bottom: "relu3"
  top: "conv4"
  param {
    lr_mult: 1
    decay_mult: 1
    compression: PRUNE
  }
  param {
    lr_mult: 2
    decay_mult: 0
    compression: PRUNE
  }
  convolution_param {
    num_output: 384
    pad: 1
    kernel_size: 3
    group: 1
    weight_filler {
      type: "gaussian"
      std: 0.01
    }
    bias_filler {
      type: "constant"
      value: 1
    }
  }
}
layer {
  name: "relu4"
  type: "ReLU"
  bottom: "conv4"
  top: "relu4"
}
layer {
  name: "conv5"
  type: "Convolution"
  bottom: "relu4"
  top: "conv5"
  param {
    lr_mult: 1
    decay_mult: 1
    compression: PRUNE
  }
  param {
    lr_mult: 2
    decay_mult: 0
    compression: PRUNE
  }
  convolution_param {
    num_output: 256
    pad: 1
    kernel_size: 3
    group: 1
    weight_filler {
      type: "gaussian"
      std: 0.01
    }
    bias_filler {
      type: "constant"
      value: 1
    }
  }
}
layer {
  name: "relu5"
  type: "ReLU"
  bottom: "conv5"
  top: "relu5"
}
layer {
  name: "pool5"
  type: "Pooling"
  bottom: "relu5"
  top: "pool5"
  pooling_param {
    pool: MAX
    kernel_size: 3
    stride: 2
  }
}
layer {
  name: "fc6"
  type: "InnerProduct"
  bottom: "pool5"
  top: "fc6"
  param {
    lr_mult: 1
    decay_mult: 1
  }
  param {
    lr_mult: 2
    decay_mult: 0
  }
  inner_product_param {
    num_output: 4096
    weight_filler {
      type: "gaussian"
      std: 0.005
    }
    bias_filler {
      type: "constant"
      value: 1
    }
  }
}
layer {
  name: "relu6"
  type: "ReLU"
  bottom: "fc6"
  top: "relu6"
}
layer {
  name: "drop6"
  type: "Dropout"
  bottom: "relu6"
  top: "drop6"
  dropout_param {
    dropout_ratio: 0.5
  }
}
layer {
  name: "fc7"
  type: "InnerProduct"
  bottom: "drop6"
  top: "fc7"
  param {
    lr_mult: 1
    decay_mult: 1
  }
  param {
    lr_mult: 2
    decay_mult: 0
  }
  inner_product_param {
    num_output: 4096
    weight_filler {
      type: "gaussian"
      std: 0.005
    }
    bias_filler {
      type: "constant"
      value: 1
    }
  }
}
layer {
  name: "bn7"
  type: "BatchNorm"
  bottom: "fc7"
  top: "scale7"
  param {
    lr_mult: 1
    decay_mult: 0
    compression: PRUNE
  }
  param {
    lr_mult: 1
    decay_mult: 0
    compression: PRUNE
  }
  param {
    lr_mult: 0
    decay_mult: 0
    compression: PRUNE
  }
  param {
    lr_mult: 0
    decay_mult: 0
    compression: PRUNE
  }
  batch_norm_param {
    use_global_stats: false
    scale_filler {
      type: "constant"
      value: 1
    }
    bias_filler {
      type: "constant"
      value: 0
    }
  }
}
layer {
  name: "relu7"
  type: "ReLU"
  bottom: "scale7"
  top: "relu7"
}
layer {
  name: "drop7"
  type: "Dropout"
  bottom: "relu7"
  top: "drop7"
  dropout_param {
    dropout_ratio: 0.5
  }
}
layer {
  name: "fc8"
  type: "InnerProduct"
  bottom: "drop7"
  top: "fc8"
  param {
    lr_mult: 1
    decay_mult: 1
  }
  param {
    lr_mult: 2
    decay_mult: 0
  }
  inner_product_param {
    num_output: 2
    weight_filler {
      type: "gaussian"
      std: 0.01
    }
    bias_filler {
      type: "constant"
      value: 0
    }
  }
}
layer {
  name: "loss"
  type: "SoftmaxWithLoss"
  bottom: "fc8"
  bottom: "label"
  top: "loss"
}
I0130 18:59:47.829951 108075 layer_factory.hpp:77] Creating layer data
I0130 18:59:47.830090 108075 internal_thread.cpp:27] Starting internal thread(s) on GPU 0
I0130 18:59:47.830551 108075 net.cpp:94] Creating Layer data
I0130 18:59:47.830564 108075 net.cpp:409] data -> data
I0130 18:59:47.830574 108075 net.cpp:409] data -> label
I0130 18:59:47.831995 108112 db_lmdb.cpp:35] Opened lmdb cats-vs-dogs/input/lmdb/train_lmdb
I0130 18:59:47.832036 108112 data_reader.cpp:117] TRAIN: reading data using 1 channel(s)
I0130 18:59:47.832362 108075 data_layer.cpp:78] ReshapePrefetch 256, 3, 227, 227
I0130 18:59:47.832450 108075 data_layer.cpp:83] output data size: 256,3,227,227
I0130 18:59:48.244824 108075 internal_thread.cpp:27] Starting internal thread(s) on GPU 0
I0130 18:59:48.244894 108075 net.cpp:144] Setting up data
I0130 18:59:48.244902 108075 net.cpp:151] Top shape: 256 3 227 227 (39574272)
I0130 18:59:48.244906 108075 net.cpp:151] Top shape: 256 (256)
I0130 18:59:48.244909 108075 net.cpp:159] Memory required for data: 158298112
I0130 18:59:48.244913 108075 layer_factory.hpp:77] Creating layer conv1
I0130 18:59:48.244928 108075 net.cpp:94] Creating Layer conv1
I0130 18:59:48.244931 108075 net.cpp:435] conv1 <- data
I0130 18:59:48.244947 108075 net.cpp:409] conv1 -> conv1
I0130 18:59:48.248536 108075 net.cpp:144] Setting up conv1
I0130 18:59:48.248549 108075 net.cpp:151] Top shape: 256 96 55 55 (74342400)
I0130 18:59:48.248551 108075 net.cpp:159] Memory required for data: 455667712
I0130 18:59:48.248582 108075 layer_factory.hpp:77] Creating layer bn1
I0130 18:59:48.248591 108075 net.cpp:94] Creating Layer bn1
I0130 18:59:48.248594 108075 net.cpp:435] bn1 <- conv1
I0130 18:59:48.248600 108075 net.cpp:409] bn1 -> scale1
I0130 18:59:48.249827 108075 net.cpp:144] Setting up bn1
I0130 18:59:48.249835 108075 net.cpp:151] Top shape: 256 96 55 55 (74342400)
I0130 18:59:48.249836 108075 net.cpp:159] Memory required for data: 753037312
I0130 18:59:48.249846 108075 layer_factory.hpp:77] Creating layer relu1
I0130 18:59:48.249867 108075 net.cpp:94] Creating Layer relu1
I0130 18:59:48.249871 108075 net.cpp:435] relu1 <- scale1
I0130 18:59:48.249874 108075 net.cpp:409] relu1 -> relu1
I0130 18:59:48.249943 108075 net.cpp:144] Setting up relu1
I0130 18:59:48.249951 108075 net.cpp:151] Top shape: 256 96 55 55 (74342400)
I0130 18:59:48.249955 108075 net.cpp:159] Memory required for data: 1050406912
I0130 18:59:48.249958 108075 layer_factory.hpp:77] Creating layer pool1
I0130 18:59:48.249966 108075 net.cpp:94] Creating Layer pool1
I0130 18:59:48.249969 108075 net.cpp:435] pool1 <- relu1
I0130 18:59:48.249975 108075 net.cpp:409] pool1 -> pool1
I0130 18:59:48.250044 108075 net.cpp:144] Setting up pool1
I0130 18:59:48.250049 108075 net.cpp:151] Top shape: 256 96 27 27 (17915904)
I0130 18:59:48.250051 108075 net.cpp:159] Memory required for data: 1122070528
I0130 18:59:48.250054 108075 layer_factory.hpp:77] Creating layer conv2
I0130 18:59:48.250061 108075 net.cpp:94] Creating Layer conv2
I0130 18:59:48.250064 108075 net.cpp:435] conv2 <- pool1
I0130 18:59:48.250071 108075 net.cpp:409] conv2 -> conv2
I0130 18:59:48.267201 108075 net.cpp:144] Setting up conv2
I0130 18:59:48.267220 108075 net.cpp:151] Top shape: 256 256 27 27 (47775744)
I0130 18:59:48.267223 108075 net.cpp:159] Memory required for data: 1313173504
I0130 18:59:48.267235 108075 layer_factory.hpp:77] Creating layer bn2
I0130 18:59:48.267244 108075 net.cpp:94] Creating Layer bn2
I0130 18:59:48.267248 108075 net.cpp:435] bn2 <- conv2
I0130 18:59:48.267257 108075 net.cpp:409] bn2 -> scale2
I0130 18:59:48.267838 108075 net.cpp:144] Setting up bn2
I0130 18:59:48.267846 108075 net.cpp:151] Top shape: 256 256 27 27 (47775744)
I0130 18:59:48.267849 108075 net.cpp:159] Memory required for data: 1504276480
I0130 18:59:48.267858 108075 layer_factory.hpp:77] Creating layer relu2
I0130 18:59:48.267863 108075 net.cpp:94] Creating Layer relu2
I0130 18:59:48.267868 108075 net.cpp:435] relu2 <- scale2
I0130 18:59:48.267875 108075 net.cpp:409] relu2 -> relu2
I0130 18:59:48.267902 108075 net.cpp:144] Setting up relu2
I0130 18:59:48.267911 108075 net.cpp:151] Top shape: 256 256 27 27 (47775744)
I0130 18:59:48.267915 108075 net.cpp:159] Memory required for data: 1695379456
I0130 18:59:48.267918 108075 layer_factory.hpp:77] Creating layer pool2
I0130 18:59:48.267926 108075 net.cpp:94] Creating Layer pool2
I0130 18:59:48.267931 108075 net.cpp:435] pool2 <- relu2
I0130 18:59:48.267958 108075 net.cpp:409] pool2 -> pool2
I0130 18:59:48.268007 108075 net.cpp:144] Setting up pool2
I0130 18:59:48.268013 108075 net.cpp:151] Top shape: 256 256 13 13 (11075584)
I0130 18:59:48.268018 108075 net.cpp:159] Memory required for data: 1739681792
I0130 18:59:48.268021 108075 layer_factory.hpp:77] Creating layer conv3
I0130 18:59:48.268029 108075 net.cpp:94] Creating Layer conv3
I0130 18:59:48.268033 108075 net.cpp:435] conv3 <- pool2
I0130 18:59:48.268038 108075 net.cpp:409] conv3 -> conv3
I0130 18:59:48.283574 108075 net.cpp:144] Setting up conv3
I0130 18:59:48.283605 108075 net.cpp:151] Top shape: 256 384 13 13 (16613376)
I0130 18:59:48.283608 108075 net.cpp:159] Memory required for data: 1806135296
I0130 18:59:48.283619 108075 layer_factory.hpp:77] Creating layer relu3
I0130 18:59:48.283632 108075 net.cpp:94] Creating Layer relu3
I0130 18:59:48.283637 108075 net.cpp:435] relu3 <- conv3
I0130 18:59:48.283644 108075 net.cpp:409] relu3 -> relu3
I0130 18:59:48.283668 108075 net.cpp:144] Setting up relu3
I0130 18:59:48.283674 108075 net.cpp:151] Top shape: 256 384 13 13 (16613376)
I0130 18:59:48.283676 108075 net.cpp:159] Memory required for data: 1872588800
I0130 18:59:48.283679 108075 layer_factory.hpp:77] Creating layer conv4
I0130 18:59:48.283689 108075 net.cpp:94] Creating Layer conv4
I0130 18:59:48.283691 108075 net.cpp:435] conv4 <- relu3
I0130 18:59:48.283696 108075 net.cpp:409] conv4 -> conv4
I0130 18:59:48.298846 108075 net.cpp:144] Setting up conv4
I0130 18:59:48.298867 108075 net.cpp:151] Top shape: 256 384 13 13 (16613376)
I0130 18:59:48.298871 108075 net.cpp:159] Memory required for data: 1939042304
I0130 18:59:48.298882 108075 layer_factory.hpp:77] Creating layer relu4
I0130 18:59:48.298890 108075 net.cpp:94] Creating Layer relu4
I0130 18:59:48.298894 108075 net.cpp:435] relu4 <- conv4
I0130 18:59:48.298900 108075 net.cpp:409] relu4 -> relu4
I0130 18:59:48.298933 108075 net.cpp:144] Setting up relu4
I0130 18:59:48.298939 108075 net.cpp:151] Top shape: 256 384 13 13 (16613376)
I0130 18:59:48.298941 108075 net.cpp:159] Memory required for data: 2005495808
I0130 18:59:48.298945 108075 layer_factory.hpp:77] Creating layer conv5
I0130 18:59:48.298954 108075 net.cpp:94] Creating Layer conv5
I0130 18:59:48.298957 108075 net.cpp:435] conv5 <- relu4
I0130 18:59:48.298962 108075 net.cpp:409] conv5 -> conv5
I0130 18:59:48.315780 108075 net.cpp:144] Setting up conv5
I0130 18:59:48.315805 108075 net.cpp:151] Top shape: 256 256 13 13 (11075584)
I0130 18:59:48.315809 108075 net.cpp:159] Memory required for data: 2049798144
I0130 18:59:48.315819 108075 layer_factory.hpp:77] Creating layer relu5
I0130 18:59:48.315831 108075 net.cpp:94] Creating Layer relu5
I0130 18:59:48.315835 108075 net.cpp:435] relu5 <- conv5
I0130 18:59:48.315842 108075 net.cpp:409] relu5 -> relu5
I0130 18:59:48.315874 108075 net.cpp:144] Setting up relu5
I0130 18:59:48.315907 108075 net.cpp:151] Top shape: 256 256 13 13 (11075584)
I0130 18:59:48.315922 108075 net.cpp:159] Memory required for data: 2094100480
I0130 18:59:48.315938 108075 layer_factory.hpp:77] Creating layer pool5
I0130 18:59:48.315959 108075 net.cpp:94] Creating Layer pool5
I0130 18:59:48.315975 108075 net.cpp:435] pool5 <- relu5
I0130 18:59:48.315994 108075 net.cpp:409] pool5 -> pool5
I0130 18:59:48.316048 108075 net.cpp:144] Setting up pool5
I0130 18:59:48.316057 108075 net.cpp:151] Top shape: 256 256 6 6 (2359296)
I0130 18:59:48.316062 108075 net.cpp:159] Memory required for data: 2103537664
I0130 18:59:48.316066 108075 layer_factory.hpp:77] Creating layer fc6
I0130 18:59:48.316077 108075 net.cpp:94] Creating Layer fc6
I0130 18:59:48.316082 108075 net.cpp:435] fc6 <- pool5
I0130 18:59:48.316092 108075 net.cpp:409] fc6 -> fc6
I0130 18:59:48.679991 108075 net.cpp:144] Setting up fc6
I0130 18:59:48.680018 108075 net.cpp:151] Top shape: 256 4096 (1048576)
I0130 18:59:48.680022 108075 net.cpp:159] Memory required for data: 2107731968
I0130 18:59:48.680032 108075 layer_factory.hpp:77] Creating layer relu6
I0130 18:59:48.680040 108075 net.cpp:94] Creating Layer relu6
I0130 18:59:48.680061 108075 net.cpp:435] relu6 <- fc6
I0130 18:59:48.680069 108075 net.cpp:409] relu6 -> relu6
I0130 18:59:48.680089 108075 net.cpp:144] Setting up relu6
I0130 18:59:48.680109 108075 net.cpp:151] Top shape: 256 4096 (1048576)
I0130 18:59:48.680112 108075 net.cpp:159] Memory required for data: 2111926272
I0130 18:59:48.680115 108075 layer_factory.hpp:77] Creating layer drop6
I0130 18:59:48.680121 108075 net.cpp:94] Creating Layer drop6
I0130 18:59:48.680130 108075 net.cpp:435] drop6 <- relu6
I0130 18:59:48.680135 108075 net.cpp:409] drop6 -> drop6
I0130 18:59:48.680171 108075 net.cpp:144] Setting up drop6
I0130 18:59:48.680176 108075 net.cpp:151] Top shape: 256 4096 (1048576)
I0130 18:59:48.680178 108075 net.cpp:159] Memory required for data: 2116120576
I0130 18:59:48.680181 108075 layer_factory.hpp:77] Creating layer fc7
I0130 18:59:48.680189 108075 net.cpp:94] Creating Layer fc7
I0130 18:59:48.680194 108075 net.cpp:435] fc7 <- drop6
I0130 18:59:48.680200 108075 net.cpp:409] fc7 -> fc7
I0130 18:59:48.827535 108075 net.cpp:144] Setting up fc7
I0130 18:59:48.827560 108075 net.cpp:151] Top shape: 256 4096 (1048576)
I0130 18:59:48.827564 108075 net.cpp:159] Memory required for data: 2120314880
I0130 18:59:48.827574 108075 layer_factory.hpp:77] Creating layer bn7
I0130 18:59:48.827585 108075 net.cpp:94] Creating Layer bn7
I0130 18:59:48.827590 108075 net.cpp:435] bn7 <- fc7
I0130 18:59:48.827600 108075 net.cpp:409] bn7 -> scale7
I0130 18:59:48.828112 108075 net.cpp:144] Setting up bn7
I0130 18:59:48.828119 108075 net.cpp:151] Top shape: 256 4096 (1048576)
I0130 18:59:48.828124 108075 net.cpp:159] Memory required for data: 2124509184
I0130 18:59:48.828135 108075 layer_factory.hpp:77] Creating layer relu7
I0130 18:59:48.828142 108075 net.cpp:94] Creating Layer relu7
I0130 18:59:48.828145 108075 net.cpp:435] relu7 <- scale7
I0130 18:59:48.828151 108075 net.cpp:409] relu7 -> relu7
I0130 18:59:48.828171 108075 net.cpp:144] Setting up relu7
I0130 18:59:48.828176 108075 net.cpp:151] Top shape: 256 4096 (1048576)
I0130 18:59:48.828181 108075 net.cpp:159] Memory required for data: 2128703488
I0130 18:59:48.828183 108075 layer_factory.hpp:77] Creating layer drop7
I0130 18:59:48.828191 108075 net.cpp:94] Creating Layer drop7
I0130 18:59:48.828193 108075 net.cpp:435] drop7 <- relu7
I0130 18:59:48.828199 108075 net.cpp:409] drop7 -> drop7
I0130 18:59:48.828225 108075 net.cpp:144] Setting up drop7
I0130 18:59:48.828230 108075 net.cpp:151] Top shape: 256 4096 (1048576)
I0130 18:59:48.828233 108075 net.cpp:159] Memory required for data: 2132897792
I0130 18:59:48.828236 108075 layer_factory.hpp:77] Creating layer fc8
I0130 18:59:48.828244 108075 net.cpp:94] Creating Layer fc8
I0130 18:59:48.828249 108075 net.cpp:435] fc8 <- drop7
I0130 18:59:48.828254 108075 net.cpp:409] fc8 -> fc8
I0130 18:59:48.829144 108075 net.cpp:144] Setting up fc8
I0130 18:59:48.829157 108075 net.cpp:151] Top shape: 256 2 (512)
I0130 18:59:48.829161 108075 net.cpp:159] Memory required for data: 2132899840
I0130 18:59:48.829169 108075 layer_factory.hpp:77] Creating layer loss
I0130 18:59:48.829176 108075 net.cpp:94] Creating Layer loss
I0130 18:59:48.829180 108075 net.cpp:435] loss <- fc8
I0130 18:59:48.829186 108075 net.cpp:435] loss <- label
I0130 18:59:48.829192 108075 net.cpp:409] loss -> loss
I0130 18:59:48.829202 108075 layer_factory.hpp:77] Creating layer loss
…
I0130 18:59:48.829707 108075 solver.cpp:189] Creating test net (#0) specified by net file: cats-vs-dogs/deephi/alexnetBNnoLRN/pruning/regular_rate_0.3/net_finetune.prototxt
I0130 18:59:48.829740 108075 net.cpp:323] The NetState phase (1) differed from the phase (0) specified by a rule in layer data
I0130 18:59:48.829906 108075 net.cpp:52] Initializing net from parameters: 
state {
  phase: TEST
}
layer {
  name: "data"
  type: "Data"
  top: "data"
  top: "label"
  include {
    phase: TEST
  }
  transform_param {
    mirror: false
    crop_size: 227
    mean_value: 106
    mean_value: 116
    mean_value: 124
  }
  data_param {
    source: "cats-vs-dogs/input/lmdb/valid_lmdb"
    batch_size: 50
    backend: LMDB
  }
}
layer {
  name: "conv1"
  type: "Convolution"
  bottom: "data"
  top: "conv1"
  param {
    lr_mult: 1
    decay_mult: 1
    compression: PRUNE
  }
  param {
    lr_mult: 2
    decay_mult: 0
    compression: PRUNE
  }
  convolution_param {
    num_output: 96
    pad: 1
    kernel_size: 11
    stride: 4
    weight_filler {
      type: "gaussian"
      std: 0.01
    }
    bias_filler {
      type: "constant"
      value: 0
    }
  }
}
layer {
  name: "bn1"
  type: "BatchNorm"
  bottom: "conv1"
  top: "scale1"
  param {
    lr_mult: 1
    decay_mult: 0
    compression: PRUNE
  }
  param {
    lr_mult: 1
    decay_mult: 0
    compression: PRUNE
  }
  param {
    lr_mult: 0
    decay_mult: 0
    compression: PRUNE
  }
  param {
    lr_mult: 0
    decay_mult: 0
    compression: PRUNE
  }
  batch_norm_param {
    use_global_stats: false
    scale_filler {
      type: "constant"
      value: 1
    }
    bias_filler {
      type: "constant"
      value: 0
    }
  }
}
layer {
  name: "relu1"
  type: "ReLU"
  bottom: "scale1"
  top: "relu1"
}
layer {
  name: "pool1"
  type: "Pooling"
  bottom: "relu1"
  top: "pool1"
  pooling_param {
    pool: MAX
    kernel_size: 3
    stride: 2
  }
}
layer {
  name: "conv2"
  type: "Convolution"
  bottom: "pool1"
  top: "conv2"
  param {
    lr_mult: 1
    decay_mult: 1
    compression: PRUNE
  }
  param {
    lr_mult: 2
    decay_mult: 0
    compression: PRUNE
  }
  convolution_param {
    num_output: 256
    pad: 2
    kernel_size: 5
    group: 1
    weight_filler {
      type: "gaussian"
      std: 0.01
    }
    bias_filler {
      type: "constant"
      value: 1
    }
  }
}
layer {
  name: "bn2"
  type: "BatchNorm"
  bottom: "conv2"
  top: "scale2"
  param {
    lr_mult: 1
    decay_mult: 0
    compression: PRUNE
  }
  param {
    lr_mult: 1
    decay_mult: 0
    compression: PRUNE
  }
  param {
    lr_mult: 0
    decay_mult: 0
    compression: PRUNE
  }
  param {
    lr_mult: 0
    decay_mult: 0
    compression: PRUNE
  }
  batch_norm_param {
    use_global_stats: false
    scale_filler {
      type: "constant"
      value: 1
    }
    bias_filler {
      type: "constant"
      value: 0
    }
  }
}
layer {
  name: "relu2"
  type: "ReLU"
  bottom: "scale2"
  top: "relu2"
}
layer {
  name: "pool2"
  type: "Pooling"
  bottom: "relu2"
  top: "pool2"
  pooling_param {
    pool: MAX
    kernel_size: 3
    stride: 2
  }
}
layer {
  name: "conv3"
  type: "Convolution"
  bottom: "pool2"
  top: "conv3"
  param {
    lr_mult: 1
    decay_mult: 1
    compression: PRUNE
  }
  param {
    lr_mult: 2
    decay_mult: 0
    compression: PRUNE
  }
  convolution_param {
    num_output: 384
    pad: 1
    kernel_size: 3
    weight_filler {
      type: "gaussian"
      std: 0.01
    }
    bias_filler {
      type: "constant"
      value: 0
    }
  }
}
layer {
  name: "relu3"
  type: "ReLU"
  bottom: "conv3"
  top: "relu3"
}
layer {
  name: "conv4"
  type: "Convolution"
  bottom: "relu3"
  top: "conv4"
  param {
    lr_mult: 1
    decay_mult: 1
    compression: PRUNE
  }
  param {
    lr_mult: 2
    decay_mult: 0
    compression: PRUNE
  }
  convolution_param {
    num_output: 384
    pad: 1
    kernel_size: 3
    group: 1
    weight_filler {
      type: "gaussian"
      std: 0.01
    }
    bias_filler {
      type: "constant"
      value: 1
    }
  }
}
layer {
  name: "relu4"
  type: "ReLU"
  bottom: "conv4"
  top: "relu4"
}
layer {
  name: "conv5"
  type: "Convolution"
  bottom: "relu4"
  top: "conv5"
  param {
    lr_mult: 1
    decay_mult: 1
    compression: PRUNE
  }
  param {
    lr_mult: 2
    decay_mult: 0
    compression: PRUNE
  }
  convolution_param {
    num_output: 256
    pad: 1
    kernel_size: 3
    group: 1
    weight_filler {
      type: "gaussian"
      std: 0.01
    }
    bias_filler {
      type: "constant"
      value: 1
    }
  }
}
layer {
  name: "relu5"
  type: "ReLU"
  bottom: "conv5"
  top: "relu5"
}
layer {
  name: "pool5"
  type: "Pooling"
  bottom: "relu5"
  top: "pool5"
  pooling_param {
    pool: MAX
    kernel_size: 3
    stride: 2
  }
}
layer {
  name: "fc6"
  type: "InnerProduct"
  bottom: "pool5"
  top: "fc6"
  param {
    lr_mult: 1
    decay_mult: 1
  }
  param {
    lr_mult: 2
    decay_mult: 0
  }
  inner_product_param {
    num_output: 4096
    weight_filler {
      type: "gaussian"
      std: 0.005
    }
    bias_filler {
      type: "constant"
      value: 1
    }
  }
}
layer {
  name: "relu6"
  type: "ReLU"
  bottom: "fc6"
  top: "relu6"
}
layer {
  name: "drop6"
  type: "Dropout"
  bottom: "relu6"
  top: "drop6"
  dropout_param {
    dropout_ratio: 0.5
  }
}
layer {
  name: "fc7"
  type: "InnerProduct"
  bottom: "drop6"
  top: "fc7"
  param {
    lr_mult: 1
    decay_mult: 1
  }
  param {
    lr_mult: 2
    decay_mult: 0
  }
  inner_product_param {
    num_output: 4096
    weight_filler {
      type: "gaussian"
      std: 0.005
    }
    bias_filler {
      type: "constant"
      value: 1
    }
  }
}
layer {
  name: "bn7"
  type: "BatchNorm"
  bottom: "fc7"
  top: "scale7"
  param {
    lr_mult: 1
    decay_mult: 0
    compression: PRUNE
  }
  param {
    lr_mult: 1
    decay_mult: 0
    compression: PRUNE
  }
  param {
    lr_mult: 0
    decay_mult: 0
    compression: PRUNE
  }
  param {
    lr_mult: 0
    decay_mult: 0
    compression: PRUNE
  }
  batch_norm_param {
    use_global_stats: false
    scale_filler {
      type: "constant"
      value: 1
    }
    bias_filler {
      type: "constant"
      value: 0
    }
  }
}
layer {
  name: "relu7"
  type: "ReLU"
  bottom: "scale7"
  top: "relu7"
}
layer {
  name: "drop7"
  type: "Dropout"
  bottom: "relu7"
  top: "drop7"
  dropout_param {
    dropout_ratio: 0.5
  }
}
layer {
  name: "fc8"
  type: "InnerProduct"
  bottom: "drop7"
  top: "fc8"
  param {
    lr_mult: 1
    decay_mult: 1
  }
  param {
    lr_mult: 2
    decay_mult: 0
  }
  inner_product_param {
    num_output: 2
    weight_filler {
      type: "gaussian"
      std: 0.01
    }
    bias_filler {
      type: "constant"
      value: 0
    }
  }
}
layer {
  name: "loss"
  type: "SoftmaxWithLoss"
  bottom: "fc8"
  bottom: "label"
  top: "loss"
}
layer {
  name: "accuracy-top1"
  type: "Accuracy"
  bottom: "fc8"
  bottom: "label"
  top: "top-1"
  include {
    phase: TEST
  }
}
I0130 18:59:48.830015 108075 layer_factory.hpp:77] Creating layer data
I0130 18:59:48.830060 108075 internal_thread.cpp:27] Starting internal thread(s) on GPU 0
I0130 18:59:48.830891 108075 net.cpp:94] Creating Layer data
I0130 18:59:48.830904 108075 net.cpp:409] data -> data
I0130 18:59:48.830915 108075 net.cpp:409] data -> label
I0130 18:59:48.832006 108142 db_lmdb.cpp:35] Opened lmdb cats-vs-dogs/input/lmdb/valid_lmdb
I0130 18:59:48.832044 108142 data_reader.cpp:117] TEST: reading data using 1 channel(s)
I0130 18:59:48.832298 108075 data_layer.cpp:78] ReshapePrefetch 50, 3, 227, 227
I0130 18:59:48.832365 108075 data_layer.cpp:83] output data size: 50,3,227,227
I0130 18:59:48.934118 108075 internal_thread.cpp:27] Starting internal thread(s) on GPU 0
I0130 18:59:48.934170 108075 net.cpp:144] Setting up data
I0130 18:59:48.934178 108075 net.cpp:151] Top shape: 50 3 227 227 (7729350)
I0130 18:59:48.934181 108075 net.cpp:151] Top shape: 50 (50)
I0130 18:59:48.934183 108075 net.cpp:159] Memory required for data: 30917600
I0130 18:59:48.934206 108075 layer_factory.hpp:77] Creating layer label_data_1_split
I0130 18:59:48.934216 108075 net.cpp:94] Creating Layer label_data_1_split
I0130 18:59:48.934218 108075 net.cpp:435] label_data_1_split <- label
I0130 18:59:48.934234 108075 net.cpp:409] label_data_1_split -> label_data_1_split_0
I0130 18:59:48.934243 108075 net.cpp:409] label_data_1_split -> label_data_1_split_1
I0130 18:59:48.934298 108075 net.cpp:144] Setting up label_data_1_split
I0130 18:59:48.934303 108075 net.cpp:151] Top shape: 50 (50)
I0130 18:59:48.934306 108075 net.cpp:151] Top shape: 50 (50)
I0130 18:59:48.934309 108075 net.cpp:159] Memory required for data: 30918000
I0130 18:59:48.934311 108075 layer_factory.hpp:77] Creating layer conv1
I0130 18:59:48.934321 108075 net.cpp:94] Creating Layer conv1
I0130 18:59:48.934324 108075 net.cpp:435] conv1 <- data
I0130 18:59:48.934329 108075 net.cpp:409] conv1 -> conv1
I0130 18:59:48.934938 108075 net.cpp:144] Setting up conv1
I0130 18:59:48.934945 108075 net.cpp:151] Top shape: 50 96 55 55 (14520000)
I0130 18:59:48.934948 108075 net.cpp:159] Memory required for data: 88998000
I0130 18:59:48.934957 108075 layer_factory.hpp:77] Creating layer bn1
I0130 18:59:48.934965 108075 net.cpp:94] Creating Layer bn1
I0130 18:59:48.934967 108075 net.cpp:435] bn1 <- conv1
I0130 18:59:48.934972 108075 net.cpp:409] bn1 -> scale1
I0130 18:59:48.936836 108075 net.cpp:144] Setting up bn1
I0130 18:59:48.936842 108075 net.cpp:151] Top shape: 50 96 55 55 (14520000)
I0130 18:59:48.936844 108075 net.cpp:159] Memory required for data: 147078000
I0130 18:59:48.936853 108075 layer_factory.hpp:77] Creating layer relu1
I0130 18:59:48.936874 108075 net.cpp:94] Creating Layer relu1
I0130 18:59:48.936877 108075 net.cpp:435] relu1 <- scale1
I0130 18:59:48.936882 108075 net.cpp:409] relu1 -> relu1
I0130 18:59:48.937147 108075 net.cpp:144] Setting up relu1
I0130 18:59:48.937153 108075 net.cpp:151] Top shape: 50 96 55 55 (14520000)
I0130 18:59:48.937156 108075 net.cpp:159] Memory required for data: 205158000
I0130 18:59:48.937160 108075 layer_factory.hpp:77] Creating layer pool1
I0130 18:59:48.937163 108075 net.cpp:94] Creating Layer pool1
I0130 18:59:48.937166 108075 net.cpp:435] pool1 <- relu1
I0130 18:59:48.937170 108075 net.cpp:409] pool1 -> pool1
I0130 18:59:48.937202 108075 net.cpp:144] Setting up pool1
I0130 18:59:48.937206 108075 net.cpp:151] Top shape: 50 96 27 27 (3499200)
I0130 18:59:48.937208 108075 net.cpp:159] Memory required for data: 219154800
I0130 18:59:48.937211 108075 layer_factory.hpp:77] Creating layer conv2
I0130 18:59:48.937217 108075 net.cpp:94] Creating Layer conv2
I0130 18:59:48.937237 108075 net.cpp:435] conv2 <- pool1
I0130 18:59:48.937242 108075 net.cpp:409] conv2 -> conv2
I0130 18:59:48.944272 108075 net.cpp:144] Setting up conv2
I0130 18:59:48.944294 108075 net.cpp:151] Top shape: 50 256 27 27 (9331200)
I0130 18:59:48.944298 108075 net.cpp:159] Memory required for data: 256479600
I0130 18:59:48.944314 108075 layer_factory.hpp:77] Creating layer bn2
I0130 18:59:48.944337 108075 net.cpp:94] Creating Layer bn2
I0130 18:59:48.944347 108075 net.cpp:435] bn2 <- conv2
I0130 18:59:48.944357 108075 net.cpp:409] bn2 -> scale2
I0130 18:59:48.944994 108075 net.cpp:144] Setting up bn2
I0130 18:59:48.945003 108075 net.cpp:151] Top shape: 50 256 27 27 (9331200)
I0130 18:59:48.945008 108075 net.cpp:159] Memory required for data: 293804400
I0130 18:59:48.945026 108075 layer_factory.hpp:77] Creating layer relu2
I0130 18:59:48.945035 108075 net.cpp:94] Creating Layer relu2
I0130 18:59:48.945041 108075 net.cpp:435] relu2 <- scale2
I0130 18:59:48.945047 108075 net.cpp:409] relu2 -> relu2
I0130 18:59:48.945072 108075 net.cpp:144] Setting up relu2
I0130 18:59:48.945078 108075 net.cpp:151] Top shape: 50 256 27 27 (9331200)
I0130 18:59:48.945083 108075 net.cpp:159] Memory required for data: 331129200
I0130 18:59:48.945086 108075 layer_factory.hpp:77] Creating layer pool2
I0130 18:59:48.945094 108075 net.cpp:94] Creating Layer pool2
I0130 18:59:48.945098 108075 net.cpp:435] pool2 <- relu2
I0130 18:59:48.945106 108075 net.cpp:409] pool2 -> pool2
I0130 18:59:48.945142 108075 net.cpp:144] Setting up pool2
I0130 18:59:48.945147 108075 net.cpp:151] Top shape: 50 256 13 13 (2163200)
I0130 18:59:48.945150 108075 net.cpp:159] Memory required for data: 339782000
I0130 18:59:48.945155 108075 layer_factory.hpp:77] Creating layer conv3
I0130 18:59:48.945168 108075 net.cpp:94] Creating Layer conv3
I0130 18:59:48.945174 108075 net.cpp:435] conv3 <- pool2
I0130 18:59:48.945183 108075 net.cpp:409] conv3 -> conv3
I0130 18:59:48.957515 108075 net.cpp:144] Setting up conv3
I0130 18:59:48.957538 108075 net.cpp:151] Top shape: 50 384 13 13 (3244800)
I0130 18:59:48.957542 108075 net.cpp:159] Memory required for data: 352761200
I0130 18:59:48.957552 108075 layer_factory.hpp:77] Creating layer relu3
I0130 18:59:48.957563 108075 net.cpp:94] Creating Layer relu3
I0130 18:59:48.957568 108075 net.cpp:435] relu3 <- conv3
I0130 18:59:48.957577 108075 net.cpp:409] relu3 -> relu3
I0130 18:59:48.957612 108075 net.cpp:144] Setting up relu3
I0130 18:59:48.957617 108075 net.cpp:151] Top shape: 50 384 13 13 (3244800)
I0130 18:59:48.957621 108075 net.cpp:159] Memory required for data: 365740400
I0130 18:59:48.957625 108075 layer_factory.hpp:77] Creating layer conv4
I0130 18:59:48.957638 108075 net.cpp:94] Creating Layer conv4
I0130 18:59:48.957643 108075 net.cpp:435] conv4 <- relu3
I0130 18:59:48.957649 108075 net.cpp:409] conv4 -> conv4
I0130 18:59:48.975203 108075 net.cpp:144] Setting up conv4
I0130 18:59:48.975230 108075 net.cpp:151] Top shape: 50 384 13 13 (3244800)
I0130 18:59:48.975234 108075 net.cpp:159] Memory required for data: 378719600
I0130 18:59:48.975251 108075 layer_factory.hpp:77] Creating layer relu4
I0130 18:59:48.975262 108075 net.cpp:94] Creating Layer relu4
I0130 18:59:48.975273 108075 net.cpp:435] relu4 <- conv4
I0130 18:59:48.975283 108075 net.cpp:409] relu4 -> relu4
I0130 18:59:48.975324 108075 net.cpp:144] Setting up relu4
I0130 18:59:48.975330 108075 net.cpp:151] Top shape: 50 384 13 13 (3244800)
I0130 18:59:48.975334 108075 net.cpp:159] Memory required for data: 391698800
I0130 18:59:48.975339 108075 layer_factory.hpp:77] Creating layer conv5
I0130 18:59:48.975352 108075 net.cpp:94] Creating Layer conv5
I0130 18:59:48.975354 108075 net.cpp:435] conv5 <- relu4
I0130 18:59:48.975361 108075 net.cpp:409] conv5 -> conv5
I0130 18:59:48.985707 108075 net.cpp:144] Setting up conv5
I0130 18:59:48.985736 108075 net.cpp:151] Top shape: 50 256 13 13 (2163200)
I0130 18:59:48.985741 108075 net.cpp:159] Memory required for data: 400351600
I0130 18:59:48.985752 108075 layer_factory.hpp:77] Creating layer relu5
I0130 18:59:48.985764 108075 net.cpp:94] Creating Layer relu5
I0130 18:59:48.985791 108075 net.cpp:435] relu5 <- conv5
I0130 18:59:48.985800 108075 net.cpp:409] relu5 -> relu5
I0130 18:59:48.985838 108075 net.cpp:144] Setting up relu5
I0130 18:59:48.985847 108075 net.cpp:151] Top shape: 50 256 13 13 (2163200)
I0130 18:59:48.985852 108075 net.cpp:159] Memory required for data: 409004400
I0130 18:59:48.985855 108075 layer_factory.hpp:77] Creating layer pool5
I0130 18:59:48.985865 108075 net.cpp:94] Creating Layer pool5
I0130 18:59:48.985870 108075 net.cpp:435] pool5 <- relu5
I0130 18:59:48.985874 108075 net.cpp:409] pool5 -> pool5
I0130 18:59:48.985908 108075 net.cpp:144] Setting up pool5
I0130 18:59:48.985913 108075 net.cpp:151] Top shape: 50 256 6 6 (460800)
I0130 18:59:48.985916 108075 net.cpp:159] Memory required for data: 410847600
I0130 18:59:48.985918 108075 layer_factory.hpp:77] Creating layer fc6
I0130 18:59:48.985925 108075 net.cpp:94] Creating Layer fc6
I0130 18:59:48.985929 108075 net.cpp:435] fc6 <- pool5
I0130 18:59:48.985934 108075 net.cpp:409] fc6 -> fc6
I0130 18:59:49.325064 108075 net.cpp:144] Setting up fc6
I0130 18:59:49.325088 108075 net.cpp:151] Top shape: 50 4096 (204800)
I0130 18:59:49.325090 108075 net.cpp:159] Memory required for data: 411666800
I0130 18:59:49.325114 108075 layer_factory.hpp:77] Creating layer relu6
I0130 18:59:49.325121 108075 net.cpp:94] Creating Layer relu6
I0130 18:59:49.325124 108075 net.cpp:435] relu6 <- fc6
I0130 18:59:49.325139 108075 net.cpp:409] relu6 -> relu6
I0130 18:59:49.325165 108075 net.cpp:144] Setting up relu6
I0130 18:59:49.325167 108075 net.cpp:151] Top shape: 50 4096 (204800)
I0130 18:59:49.325170 108075 net.cpp:159] Memory required for data: 412486000
I0130 18:59:49.325172 108075 layer_factory.hpp:77] Creating layer drop6
I0130 18:59:49.325177 108075 net.cpp:94] Creating Layer drop6
I0130 18:59:49.325179 108075 net.cpp:435] drop6 <- relu6
I0130 18:59:49.325183 108075 net.cpp:409] drop6 -> drop6
I0130 18:59:49.325206 108075 net.cpp:144] Setting up drop6
I0130 18:59:49.325211 108075 net.cpp:151] Top shape: 50 4096 (204800)
I0130 18:59:49.325212 108075 net.cpp:159] Memory required for data: 413305200
I0130 18:59:49.325230 108075 layer_factory.hpp:77] Creating layer fc7
I0130 18:59:49.325237 108075 net.cpp:94] Creating Layer fc7
I0130 18:59:49.325238 108075 net.cpp:435] fc7 <- drop6
I0130 18:59:49.325242 108075 net.cpp:409] fc7 -> fc7
I0130 18:59:49.476948 108075 net.cpp:144] Setting up fc7
I0130 18:59:49.476970 108075 net.cpp:151] Top shape: 50 4096 (204800)
I0130 18:59:49.476974 108075 net.cpp:159] Memory required for data: 414124400
I0130 18:59:49.476981 108075 layer_factory.hpp:77] Creating layer bn7
I0130 18:59:49.476989 108075 net.cpp:94] Creating Layer bn7
I0130 18:59:49.476994 108075 net.cpp:435] bn7 <- fc7
I0130 18:59:49.477000 108075 net.cpp:409] bn7 -> scale7
I0130 18:59:49.477571 108075 net.cpp:144] Setting up bn7
I0130 18:59:49.477577 108075 net.cpp:151] Top shape: 50 4096 (204800)
I0130 18:59:49.477581 108075 net.cpp:159] Memory required for data: 414943600
I0130 18:59:49.477589 108075 layer_factory.hpp:77] Creating layer relu7
I0130 18:59:49.477594 108075 net.cpp:94] Creating Layer relu7
I0130 18:59:49.477596 108075 net.cpp:435] relu7 <- scale7
I0130 18:59:49.477600 108075 net.cpp:409] relu7 -> relu7
I0130 18:59:49.477619 108075 net.cpp:144] Setting up relu7
I0130 18:59:49.477624 108075 net.cpp:151] Top shape: 50 4096 (204800)
I0130 18:59:49.477627 108075 net.cpp:159] Memory required for data: 415762800
I0130 18:59:49.477628 108075 layer_factory.hpp:77] Creating layer drop7
I0130 18:59:49.477633 108075 net.cpp:94] Creating Layer drop7
I0130 18:59:49.477636 108075 net.cpp:435] drop7 <- relu7
I0130 18:59:49.477640 108075 net.cpp:409] drop7 -> drop7
I0130 18:59:49.477663 108075 net.cpp:144] Setting up drop7
I0130 18:59:49.477669 108075 net.cpp:151] Top shape: 50 4096 (204800)
I0130 18:59:49.477671 108075 net.cpp:159] Memory required for data: 416582000
I0130 18:59:49.477674 108075 layer_factory.hpp:77] Creating layer fc8
I0130 18:59:49.477679 108075 net.cpp:94] Creating Layer fc8
I0130 18:59:49.477702 108075 net.cpp:435] fc8 <- drop7
I0130 18:59:49.477706 108075 net.cpp:409] fc8 -> fc8
I0130 18:59:49.477870 108075 net.cpp:144] Setting up fc8
I0130 18:59:49.477875 108075 net.cpp:151] Top shape: 50 2 (100)
I0130 18:59:49.477880 108075 net.cpp:159] Memory required for data: 416582400
I0130 18:59:49.477883 108075 layer_factory.hpp:77] Creating layer fc8_fc8_0_split
I0130 18:59:49.477887 108075 net.cpp:94] Creating Layer fc8_fc8_0_split
I0130 18:59:49.477890 108075 net.cpp:435] fc8_fc8_0_split <- fc8
I0130 18:59:49.477895 108075 net.cpp:409] fc8_fc8_0_split -> fc8_fc8_0_split_0
I0130 18:59:49.477900 108075 net.cpp:409] fc8_fc8_0_split -> fc8_fc8_0_split_1
I0130 18:59:49.477923 108075 net.cpp:144] Setting up fc8_fc8_0_split
I0130 18:59:49.477928 108075 net.cpp:151] Top shape: 50 2 (100)
I0130 18:59:49.477931 108075 net.cpp:151] Top shape: 50 2 (100)
I0130 18:59:49.477933 108075 net.cpp:159] Memory required for data: 416583200
I0130 18:59:49.477936 108075 layer_factory.hpp:77] Creating layer loss
I0130 18:59:49.477939 108075 net.cpp:94] Creating Layer loss
I0130 18:59:49.477942 108075 net.cpp:435] loss <- fc8_fc8_0_split_0
I0130 18:59:49.477946 108075 net.cpp:435] loss <- label_data_1_split_0
I0130 18:59:49.477950 108075 net.cpp:409] loss -> loss
…
