…
I0130 17:36:43.159657 104332 caffe_interface.cpp:70] GPU device name: Quadro P6000
I0130 17:36:43.159970 104332 net.cpp:323] The NetState phase (1) differed from the phase (0) specified by a rule in layer data
I0130 17:36:43.160120 104332 net.cpp:52] Initializing net from parameters: 
state {
  phase: TEST
}
layer {
  name: "data"
  type: "Data"
  top: "data"
  top: "label"
  include {
    phase: TEST
  }
  transform_param {
    mirror: false
    crop_size: 227
    mean_value: 106
    mean_value: 116
    mean_value: 124
  }
  data_param {
    source: "cats-vs-dogs/input/lmdb/valid_lmdb"
    batch_size: 50
    backend: LMDB
  }
}
layer {
  name: "conv1"
  type: "Convolution"
  bottom: "data"
  top: "conv1"
  param {
    lr_mult: 1
    decay_mult: 1
  }
  param {
    lr_mult: 2
    decay_mult: 0
  }
  convolution_param {
    num_output: 96
    pad: 1
    kernel_size: 11
    stride: 4
    weight_filler {
      type: "gaussian"
      std: 0.01
    }
    bias_filler {
      type: "constant"
      value: 0
    }
  }
}
layer {
  name: "bn1"
  type: "BatchNorm"
  bottom: "conv1"
  top: "scale1"
  param {
    lr_mult: 1
    decay_mult: 0
  }
  param {
    lr_mult: 1
    decay_mult: 0
  }
  param {
    lr_mult: 0
    decay_mult: 0
  }
  param {
    lr_mult: 0
    decay_mult: 0
  }
  batch_norm_param {
    use_global_stats: false
    scale_filler {
      type: "constant"
      value: 1
    }
    bias_filler {
      type: "constant"
      value: 0
    }
  }
}
layer {
  name: "relu1"
  type: "ReLU"
  bottom: "scale1"
  top: "relu1"
}
layer {
  name: "pool1"
  type: "Pooling"
  bottom: "relu1"
  top: "pool1"
  pooling_param {
    pool: MAX
    kernel_size: 3
    stride: 2
  }
}
layer {
  name: "conv2"
  type: "Convolution"
  bottom: "pool1"
  top: "conv2"
  param {
    lr_mult: 1
    decay_mult: 1
  }
  param {
    lr_mult: 2
    decay_mult: 0
  }
  convolution_param {
    num_output: 256
    pad: 2
    kernel_size: 5
    group: 1
    weight_filler {
      type: "gaussian"
      std: 0.01
    }
    bias_filler {
      type: "constant"
      value: 1
    }
  }
}
layer {
  name: "bn2"
  type: "BatchNorm"
  bottom: "conv2"
  top: "scale2"
  param {
    lr_mult: 1
    decay_mult: 0
  }
  param {
    lr_mult: 1
    decay_mult: 0
  }
  param {
    lr_mult: 0
    decay_mult: 0
  }
  param {
    lr_mult: 0
    decay_mult: 0
  }
  batch_norm_param {
    use_global_stats: false
    scale_filler {
      type: "constant"
      value: 1
    }
    bias_filler {
      type: "constant"
      value: 0
    }
  }
}
layer {
  name: "relu2"
  type: "ReLU"
  bottom: "scale2"
  top: "relu2"
}
layer {
  name: "pool2"
  type: "Pooling"
  bottom: "relu2"
  top: "pool2"
  pooling_param {
    pool: MAX
    kernel_size: 3
    stride: 2
  }
}
layer {
  name: "conv3"
  type: "Convolution"
  bottom: "pool2"
  top: "conv3"
  param {
    lr_mult: 1
    decay_mult: 1
  }
  param {
    lr_mult: 2
    decay_mult: 0
  }
  convolution_param {
    num_output: 384
    pad: 1
    kernel_size: 3
    weight_filler {
      type: "gaussian"
      std: 0.01
    }
    bias_filler {
      type: "constant"
      value: 0
    }
  }
}
layer {
  name: "relu3"
  type: "ReLU"
  bottom: "conv3"
  top: "relu3"
}
layer {
  name: "conv4"
  type: "Convolution"
  bottom: "relu3"
  top: "conv4"
  param {
    lr_mult: 1
    decay_mult: 1
  }
  param {
    lr_mult: 2
    decay_mult: 0
  }
  convolution_param {
    num_output: 384
    pad: 1
    kernel_size: 3
    group: 1
    weight_filler {
      type: "gaussian"
      std: 0.01
    }
    bias_filler {
      type: "constant"
      value: 1
    }
  }
}
layer {
  name: "relu4"
  type: "ReLU"
  bottom: "conv4"
  top: "relu4"
}
layer {
  name: "conv5"
  type: "Convolution"
  bottom: "relu4"
  top: "conv5"
  param {
    lr_mult: 1
    decay_mult: 1
  }
  param {
    lr_mult: 2
    decay_mult: 0
  }
  convolution_param {
    num_output: 256
    pad: 1
    kernel_size: 3
    group: 1
    weight_filler {
      type: "gaussian"
      std: 0.01
    }
    bias_filler {
      type: "constant"
      value: 1
    }
  }
}
layer {
  name: "relu5"
  type: "ReLU"
  bottom: "conv5"
  top: "relu5"
}
layer {
  name: "pool5"
  type: "Pooling"
  bottom: "relu5"
  top: "pool5"
  pooling_param {
    pool: MAX
    kernel_size: 3
    stride: 2
  }
}
layer {
  name: "fc6"
  type: "InnerProduct"
  bottom: "pool5"
  top: "fc6"
  param {
    lr_mult: 1
    decay_mult: 1
  }
  param {
    lr_mult: 2
    decay_mult: 0
  }
  inner_product_param {
    num_output: 4096
    weight_filler {
      type: "gaussian"
      std: 0.005
    }
    bias_filler {
      type: "constant"
      value: 1
    }
  }
}
layer {
  name: "relu6"
  type: "ReLU"
  bottom: "fc6"
  top: "relu6"
}
layer {
  name: "drop6"
  type: "Dropout"
  bottom: "relu6"
  top: "drop6"
  dropout_param {
    dropout_ratio: 0.5
  }
}
layer {
  name: "fc7"
  type: "InnerProduct"
  bottom: "drop6"
  top: "fc7"
  param {
    lr_mult: 1
    decay_mult: 1
  }
  param {
    lr_mult: 2
    decay_mult: 0
  }
  inner_product_param {
    num_output: 4096
    weight_filler {
      type: "gaussian"
      std: 0.005
    }
    bias_filler {
      type: "constant"
      value: 1
    }
  }
}
layer {
  name: "bn7"
  type: "BatchNorm"
  bottom: "fc7"
  top: "scale7"
  param {
    lr_mult: 1
    decay_mult: 0
  }
  param {
    lr_mult: 1
    decay_mult: 0
  }
  param {
    lr_mult: 0
    decay_mult: 0
  }
  param {
    lr_mult: 0
    decay_mult: 0
  }
  batch_norm_param {
    use_global_stats: false
    scale_filler {
      type: "constant"
      value: 1
    }
    bias_filler {
      type: "constant"
      value: 0
    }
  }
}
layer {
  name: "relu7"
  type: "ReLU"
  bottom: "scale7"
  top: "relu7"
}
layer {
  name: "drop7"
  type: "Dropout"
  bottom: "relu7"
  top: "drop7"
  dropout_param {
    dropout_ratio: 0.5
  }
}
layer {
  name: "fc8"
  type: "InnerProduct"
  bottom: "drop7"
  top: "fc8"
  param {
    lr_mult: 1
    decay_mult: 1
  }
  param {
    lr_mult: 2
    decay_mult: 0
  }
  inner_product_param {
    num_output: 2
    weight_filler {
      type: "gaussian"
      std: 0.01
    }
    bias_filler {
      type: "constant"
      value: 0
    }
  }
}
layer {
  name: "loss"
  type: "SoftmaxWithLoss"
  bottom: "fc8"
  bottom: "label"
  top: "loss"
}
layer {
  name: "accuracy-top1"
  type: "Accuracy"
  bottom: "fc8"
  bottom: "label"
  top: "top-1"
  include {
    phase: TEST
  }
}
I0130 17:36:43.160233 104332 layer_factory.hpp:77] Creating layer data
I0130 17:36:43.160267 104332 internal_thread.cpp:27] Starting internal thread(s) on GPU 0
I0130 17:36:43.160578 104332 net.cpp:94] Creating Layer data
I0130 17:36:43.160583 104332 net.cpp:409] data -> data
I0130 17:36:43.160591 104332 net.cpp:409] data -> label
I0130 17:36:43.162108 105543 db_lmdb.cpp:35] Opened lmdb cats-vs-dogs/input/lmdb/valid_lmdb
I0130 17:36:43.162138 105543 data_reader.cpp:117] TEST: reading data using 1 channel(s)
I0130 17:36:43.162431 104332 data_layer.cpp:78] ReshapePrefetch 50, 3, 227, 227
I0130 17:36:43.162497 104332 data_layer.cpp:83] output data size: 50,3,227,227
I0130 17:36:43.237601 104332 internal_thread.cpp:27] Starting internal thread(s) on GPU 0
I0130 17:36:43.237666 104332 net.cpp:144] Setting up data
I0130 17:36:43.237675 104332 net.cpp:151] Top shape: 50 3 227 227 (7729350)
I0130 17:36:43.237679 104332 net.cpp:151] Top shape: 50 (50)
I0130 17:36:43.237681 104332 net.cpp:159] Memory required for data: 30917600
I0130 17:36:43.237685 104332 layer_factory.hpp:77] Creating layer label_data_1_split
I0130 17:36:43.237695 104332 net.cpp:94] Creating Layer label_data_1_split
I0130 17:36:43.237699 104332 net.cpp:435] label_data_1_split <- label
I0130 17:36:43.237704 104332 net.cpp:409] label_data_1_split -> label_data_1_split_0
I0130 17:36:43.237728 104332 net.cpp:409] label_data_1_split -> label_data_1_split_1
I0130 17:36:43.237834 104332 net.cpp:144] Setting up label_data_1_split
I0130 17:36:43.237839 104332 net.cpp:151] Top shape: 50 (50)
I0130 17:36:43.237843 104332 net.cpp:151] Top shape: 50 (50)
I0130 17:36:43.237862 104332 net.cpp:159] Memory required for data: 30918000
I0130 17:36:43.237865 104332 layer_factory.hpp:77] Creating layer conv1
I0130 17:36:43.237875 104332 net.cpp:94] Creating Layer conv1
I0130 17:36:43.237879 104332 net.cpp:435] conv1 <- data
I0130 17:36:43.237884 104332 net.cpp:409] conv1 -> conv1
I0130 17:36:43.239573 104332 net.cpp:144] Setting up conv1
I0130 17:36:43.239584 104332 net.cpp:151] Top shape: 50 96 55 55 (14520000)
I0130 17:36:43.239586 104332 net.cpp:159] Memory required for data: 88998000
I0130 17:36:43.239612 104332 layer_factory.hpp:77] Creating layer bn1
I0130 17:36:43.239620 104332 net.cpp:94] Creating Layer bn1
I0130 17:36:43.239624 104332 net.cpp:435] bn1 <- conv1
I0130 17:36:43.239629 104332 net.cpp:409] bn1 -> scale1
I0130 17:36:43.240309 104332 net.cpp:144] Setting up bn1
I0130 17:36:43.240315 104332 net.cpp:151] Top shape: 50 96 55 55 (14520000)
I0130 17:36:43.240317 104332 net.cpp:159] Memory required for data: 147078000
I0130 17:36:43.240327 104332 layer_factory.hpp:77] Creating layer relu1
I0130 17:36:43.240332 104332 net.cpp:94] Creating Layer relu1
I0130 17:36:43.240335 104332 net.cpp:435] relu1 <- scale1
I0130 17:36:43.240339 104332 net.cpp:409] relu1 -> relu1
I0130 17:36:43.240362 104332 net.cpp:144] Setting up relu1
I0130 17:36:43.240366 104332 net.cpp:151] Top shape: 50 96 55 55 (14520000)
I0130 17:36:43.240370 104332 net.cpp:159] Memory required for data: 205158000
I0130 17:36:43.240372 104332 layer_factory.hpp:77] Creating layer pool1
I0130 17:36:43.240377 104332 net.cpp:94] Creating Layer pool1
I0130 17:36:43.240380 104332 net.cpp:435] pool1 <- relu1
I0130 17:36:43.240383 104332 net.cpp:409] pool1 -> pool1
I0130 17:36:43.240449 104332 net.cpp:144] Setting up pool1
I0130 17:36:43.240454 104332 net.cpp:151] Top shape: 50 96 27 27 (3499200)
I0130 17:36:43.240456 104332 net.cpp:159] Memory required for data: 219154800
I0130 17:36:43.240459 104332 layer_factory.hpp:77] Creating layer conv2
I0130 17:36:43.240466 104332 net.cpp:94] Creating Layer conv2
I0130 17:36:43.240468 104332 net.cpp:435] conv2 <- pool1
I0130 17:36:43.240473 104332 net.cpp:409] conv2 -> conv2
I0130 17:36:43.247570 104332 net.cpp:144] Setting up conv2
I0130 17:36:43.247589 104332 net.cpp:151] Top shape: 50 256 27 27 (9331200)
I0130 17:36:43.247592 104332 net.cpp:159] Memory required for data: 256479600
I0130 17:36:43.247606 104332 layer_factory.hpp:77] Creating layer bn2
I0130 17:36:43.247615 104332 net.cpp:94] Creating Layer bn2
I0130 17:36:43.247618 104332 net.cpp:435] bn2 <- conv2
I0130 17:36:43.247625 104332 net.cpp:409] bn2 -> scale2
I0130 17:36:43.248201 104332 net.cpp:144] Setting up bn2
I0130 17:36:43.248209 104332 net.cpp:151] Top shape: 50 256 27 27 (9331200)
I0130 17:36:43.248212 104332 net.cpp:159] Memory required for data: 293804400
I0130 17:36:43.248220 104332 layer_factory.hpp:77] Creating layer relu2
I0130 17:36:43.248226 104332 net.cpp:94] Creating Layer relu2
I0130 17:36:43.248230 104332 net.cpp:435] relu2 <- scale2
I0130 17:36:43.248234 104332 net.cpp:409] relu2 -> relu2
I0130 17:36:43.248251 104332 net.cpp:144] Setting up relu2
I0130 17:36:43.248257 104332 net.cpp:151] Top shape: 50 256 27 27 (9331200)
I0130 17:36:43.248261 104332 net.cpp:159] Memory required for data: 331129200
I0130 17:36:43.248263 104332 layer_factory.hpp:77] Creating layer pool2
I0130 17:36:43.248268 104332 net.cpp:94] Creating Layer pool2
I0130 17:36:43.248271 104332 net.cpp:435] pool2 <- relu2
I0130 17:36:43.248276 104332 net.cpp:409] pool2 -> pool2
I0130 17:36:43.248315 104332 net.cpp:144] Setting up pool2
I0130 17:36:43.248320 104332 net.cpp:151] Top shape: 50 256 13 13 (2163200)
I0130 17:36:43.248324 104332 net.cpp:159] Memory required for data: 339782000
I0130 17:36:43.248327 104332 layer_factory.hpp:77] Creating layer conv3
I0130 17:36:43.248335 104332 net.cpp:94] Creating Layer conv3
I0130 17:36:43.248338 104332 net.cpp:435] conv3 <- pool2
I0130 17:36:43.248343 104332 net.cpp:409] conv3 -> conv3
I0130 17:36:43.258848 104332 net.cpp:144] Setting up conv3
I0130 17:36:43.258888 104332 net.cpp:151] Top shape: 50 384 13 13 (3244800)
I0130 17:36:43.258889 104332 net.cpp:159] Memory required for data: 352761200
I0130 17:36:43.258896 104332 layer_factory.hpp:77] Creating layer relu3
I0130 17:36:43.258903 104332 net.cpp:94] Creating Layer relu3
I0130 17:36:43.258906 104332 net.cpp:435] relu3 <- conv3
I0130 17:36:43.258913 104332 net.cpp:409] relu3 -> relu3
I0130 17:36:43.258932 104332 net.cpp:144] Setting up relu3
I0130 17:36:43.258936 104332 net.cpp:151] Top shape: 50 384 13 13 (3244800)
I0130 17:36:43.258939 104332 net.cpp:159] Memory required for data: 365740400
I0130 17:36:43.258941 104332 layer_factory.hpp:77] Creating layer conv4
I0130 17:36:43.258949 104332 net.cpp:94] Creating Layer conv4
I0130 17:36:43.258951 104332 net.cpp:435] conv4 <- relu3
I0130 17:36:43.258955 104332 net.cpp:409] conv4 -> conv4
I0130 17:36:43.274268 104332 net.cpp:144] Setting up conv4
I0130 17:36:43.274292 104332 net.cpp:151] Top shape: 50 384 13 13 (3244800)
I0130 17:36:43.274296 104332 net.cpp:159] Memory required for data: 378719600
I0130 17:36:43.274312 104332 layer_factory.hpp:77] Creating layer relu4
I0130 17:36:43.274323 104332 net.cpp:94] Creating Layer relu4
I0130 17:36:43.274328 104332 net.cpp:435] relu4 <- conv4
I0130 17:36:43.274348 104332 net.cpp:409] relu4 -> relu4
I0130 17:36:43.274380 104332 net.cpp:144] Setting up relu4
I0130 17:36:43.274401 104332 net.cpp:151] Top shape: 50 384 13 13 (3244800)
I0130 17:36:43.274416 104332 net.cpp:159] Memory required for data: 391698800
I0130 17:36:43.274431 104332 layer_factory.hpp:77] Creating layer conv5
I0130 17:36:43.274457 104332 net.cpp:94] Creating Layer conv5
I0130 17:36:43.274472 104332 net.cpp:435] conv5 <- relu4
I0130 17:36:43.274492 104332 net.cpp:409] conv5 -> conv5
I0130 17:36:43.283273 104332 net.cpp:144] Setting up conv5
I0130 17:36:43.283298 104332 net.cpp:151] Top shape: 50 256 13 13 (2163200)
I0130 17:36:43.283300 104332 net.cpp:159] Memory required for data: 400351600
I0130 17:36:43.283310 104332 layer_factory.hpp:77] Creating layer relu5
I0130 17:36:43.283322 104332 net.cpp:94] Creating Layer relu5
I0130 17:36:43.283327 104332 net.cpp:435] relu5 <- conv5
I0130 17:36:43.283345 104332 net.cpp:409] relu5 -> relu5
I0130 17:36:43.283378 104332 net.cpp:144] Setting up relu5
I0130 17:36:43.283401 104332 net.cpp:151] Top shape: 50 256 13 13 (2163200)
I0130 17:36:43.283416 104332 net.cpp:159] Memory required for data: 409004400
I0130 17:36:43.283430 104332 layer_factory.hpp:77] Creating layer pool5
I0130 17:36:43.283452 104332 net.cpp:94] Creating Layer pool5
I0130 17:36:43.283468 104332 net.cpp:435] pool5 <- relu5
I0130 17:36:43.283488 104332 net.cpp:409] pool5 -> pool5
I0130 17:36:43.283555 104332 net.cpp:144] Setting up pool5
I0130 17:36:43.283576 104332 net.cpp:151] Top shape: 50 256 6 6 (460800)
I0130 17:36:43.283591 104332 net.cpp:159] Memory required for data: 410847600
I0130 17:36:43.283605 104332 layer_factory.hpp:77] Creating layer fc6
I0130 17:36:43.283627 104332 net.cpp:94] Creating Layer fc6
I0130 17:36:43.283641 104332 net.cpp:435] fc6 <- pool5
I0130 17:36:43.283661 104332 net.cpp:409] fc6 -> fc6
I0130 17:36:43.588182 104332 net.cpp:144] Setting up fc6
I0130 17:36:43.588209 104332 net.cpp:151] Top shape: 50 4096 (204800)
I0130 17:36:43.588212 104332 net.cpp:159] Memory required for data: 411666800
I0130 17:36:43.588219 104332 layer_factory.hpp:77] Creating layer relu6
I0130 17:36:43.588227 104332 net.cpp:94] Creating Layer relu6
I0130 17:36:43.588229 104332 net.cpp:435] relu6 <- fc6
I0130 17:36:43.588234 104332 net.cpp:409] relu6 -> relu6
I0130 17:36:43.588274 104332 net.cpp:144] Setting up relu6
I0130 17:36:43.588276 104332 net.cpp:151] Top shape: 50 4096 (204800)
I0130 17:36:43.588279 104332 net.cpp:159] Memory required for data: 412486000
I0130 17:36:43.588280 104332 layer_factory.hpp:77] Creating layer drop6
I0130 17:36:43.588289 104332 net.cpp:94] Creating Layer drop6
I0130 17:36:43.588290 104332 net.cpp:435] drop6 <- relu6
I0130 17:36:43.588295 104332 net.cpp:409] drop6 -> drop6
I0130 17:36:43.588320 104332 net.cpp:144] Setting up drop6
I0130 17:36:43.588351 104332 net.cpp:151] Top shape: 50 4096 (204800)
I0130 17:36:43.588352 104332 net.cpp:159] Memory required for data: 413305200
I0130 17:36:43.588354 104332 layer_factory.hpp:77] Creating layer fc7
I0130 17:36:43.588361 104332 net.cpp:94] Creating Layer fc7
I0130 17:36:43.588364 104332 net.cpp:435] fc7 <- drop6
I0130 17:36:43.588368 104332 net.cpp:409] fc7 -> fc7
I0130 17:36:43.725538 104332 net.cpp:144] Setting up fc7
I0130 17:36:43.725564 104332 net.cpp:151] Top shape: 50 4096 (204800)
I0130 17:36:43.725566 104332 net.cpp:159] Memory required for data: 414124400
I0130 17:36:43.725574 104332 layer_factory.hpp:77] Creating layer bn7
I0130 17:36:43.725582 104332 net.cpp:94] Creating Layer bn7
I0130 17:36:43.725585 104332 net.cpp:435] bn7 <- fc7
I0130 17:36:43.725591 104332 net.cpp:409] bn7 -> scale7
I0130 17:36:43.726078 104332 net.cpp:144] Setting up bn7
I0130 17:36:43.726085 104332 net.cpp:151] Top shape: 50 4096 (204800)
I0130 17:36:43.726088 104332 net.cpp:159] Memory required for data: 414943600
I0130 17:36:43.726094 104332 layer_factory.hpp:77] Creating layer relu7
I0130 17:36:43.726100 104332 net.cpp:94] Creating Layer relu7
I0130 17:36:43.726104 104332 net.cpp:435] relu7 <- scale7
I0130 17:36:43.726109 104332 net.cpp:409] relu7 -> relu7
I0130 17:36:43.726127 104332 net.cpp:144] Setting up relu7
I0130 17:36:43.726131 104332 net.cpp:151] Top shape: 50 4096 (204800)
I0130 17:36:43.726133 104332 net.cpp:159] Memory required for data: 415762800
I0130 17:36:43.726135 104332 layer_factory.hpp:77] Creating layer drop7
I0130 17:36:43.726141 104332 net.cpp:94] Creating Layer drop7
I0130 17:36:43.726145 104332 net.cpp:435] drop7 <- relu7
I0130 17:36:43.726150 104332 net.cpp:409] drop7 -> drop7
I0130 17:36:43.726174 104332 net.cpp:144] Setting up drop7
I0130 17:36:43.726179 104332 net.cpp:151] Top shape: 50 4096 (204800)
I0130 17:36:43.726181 104332 net.cpp:159] Memory required for data: 416582000
I0130 17:36:43.726183 104332 layer_factory.hpp:77] Creating layer fc8
I0130 17:36:43.726194 104332 net.cpp:94] Creating Layer fc8
I0130 17:36:43.726197 104332 net.cpp:435] fc8 <- drop7
I0130 17:36:43.726202 104332 net.cpp:409] fc8 -> fc8
I0130 17:36:43.727071 104332 net.cpp:144] Setting up fc8
I0130 17:36:43.727082 104332 net.cpp:151] Top shape: 50 2 (100)
I0130 17:36:43.727084 104332 net.cpp:159] Memory required for data: 416582400
I0130 17:36:43.727090 104332 layer_factory.hpp:77] Creating layer fc8_fc8_0_split
I0130 17:36:43.727097 104332 net.cpp:94] Creating Layer fc8_fc8_0_split
I0130 17:36:43.727099 104332 net.cpp:435] fc8_fc8_0_split <- fc8
I0130 17:36:43.727104 104332 net.cpp:409] fc8_fc8_0_split -> fc8_fc8_0_split_0
I0130 17:36:43.727109 104332 net.cpp:409] fc8_fc8_0_split -> fc8_fc8_0_split_1
I0130 17:36:43.727136 104332 net.cpp:144] Setting up fc8_fc8_0_split
I0130 17:36:43.727141 104332 net.cpp:151] Top shape: 50 2 (100)
I0130 17:36:43.727145 104332 net.cpp:151] Top shape: 50 2 (100)
I0130 17:36:43.727147 104332 net.cpp:159] Memory required for data: 416583200
I0130 17:36:43.727150 104332 layer_factory.hpp:77] Creating layer loss
I0130 17:36:43.727156 104332 net.cpp:94] Creating Layer loss
I0130 17:36:43.727160 104332 net.cpp:435] loss <- fc8_fc8_0_split_0
I0130 17:36:43.727165 104332 net.cpp:435] loss <- label_data_1_split_0
I0130 17:36:43.727170 104332 net.cpp:409] loss -> loss
…
