…
I0130 16:44:20.299921 102716 caffe_interface.cpp:70] GPU device name: Quadro P6000
I0130 16:44:20.300242 102716 net.cpp:323] The NetState phase (1) differed from the phase (0) specified by a rule in layer data
I0130 16:44:20.300406 102716 net.cpp:52] Initializing net from parameters: 
state {
  phase: TEST
}
layer {
  name: "data"
  type: "Data"
  top: "data"
  top: "label"
  include {
    phase: TEST
  }
  transform_param {
    mirror: false
    crop_size: 227
    mean_value: 106
    mean_value: 116
    mean_value: 124
  }
  data_param {
    source: "cats-vs-dogs/input/lmdb/valid_lmdb"
    batch_size: 50
    backend: LMDB
  }
}
layer {
  name: "conv1"
  type: "Convolution"
  bottom: "data"
  top: "conv1"
  param {
    lr_mult: 1
    decay_mult: 1
  }
  param {
    lr_mult: 2
    decay_mult: 0
  }
  convolution_param {
    num_output: 96
    pad: 1
    kernel_size: 11
    stride: 4
    weight_filler {
      type: "gaussian"
      std: 0.01
    }
    bias_filler {
      type: "constant"
      value: 0
    }
  }
}
layer {
  name: "bn1"
  type: "BatchNorm"
  bottom: "conv1"
  top: "scale1"
  param {
    lr_mult: 1
    decay_mult: 0
  }
  param {
    lr_mult: 1
    decay_mult: 0
  }
  param {
    lr_mult: 0
    decay_mult: 0
  }
  param {
    lr_mult: 0
    decay_mult: 0
  }
  batch_norm_param {
    use_global_stats: false
    scale_filler {
      type: "constant"
      value: 1
    }
    bias_filler {
      type: "constant"
      value: 0
    }
  }
}
layer {
  name: "relu1"
  type: "ReLU"
  bottom: "scale1"
  top: "relu1"
}
layer {
  name: "pool1"
  type: "Pooling"
  bottom: "relu1"
  top: "pool1"
  pooling_param {
    pool: MAX
    kernel_size: 3
    stride: 2
  }
}
layer {
  name: "conv2"
  type: "Convolution"
  bottom: "pool1"
  top: "conv2"
  param {
    lr_mult: 1
    decay_mult: 1
  }
  param {
    lr_mult: 2
    decay_mult: 0
  }
  convolution_param {
    num_output: 256
    pad: 2
    kernel_size: 5
    group: 1
    weight_filler {
      type: "gaussian"
      std: 0.01
    }
    bias_filler {
      type: "constant"
      value: 1
    }
  }
}
layer {
  name: "bn2"
  type: "BatchNorm"
  bottom: "conv2"
  top: "scale2"
  param {
    lr_mult: 1
    decay_mult: 0
  }
  param {
    lr_mult: 1
    decay_mult: 0
  }
  param {
    lr_mult: 0
    decay_mult: 0
  }
  param {
    lr_mult: 0
    decay_mult: 0
  }
  batch_norm_param {
    use_global_stats: false
    scale_filler {
      type: "constant"
      value: 1
    }
    bias_filler {
      type: "constant"
      value: 0
    }
  }
}
layer {
  name: "relu2"
  type: "ReLU"
  bottom: "scale2"
  top: "relu2"
}
layer {
  name: "pool2"
  type: "Pooling"
  bottom: "relu2"
  top: "pool2"
  pooling_param {
    pool: MAX
    kernel_size: 3
    stride: 2
  }
}
layer {
  name: "conv3"
  type: "Convolution"
  bottom: "pool2"
  top: "conv3"
  param {
    lr_mult: 1
    decay_mult: 1
  }
  param {
    lr_mult: 2
    decay_mult: 0
  }
  convolution_param {
    num_output: 384
    pad: 1
    kernel_size: 3
    weight_filler {
      type: "gaussian"
      std: 0.01
    }
    bias_filler {
      type: "constant"
      value: 0
    }
  }
}
layer {
  name: "relu3"
  type: "ReLU"
  bottom: "conv3"
  top: "relu3"
}
layer {
  name: "conv4"
  type: "Convolution"
  bottom: "relu3"
  top: "conv4"
  param {
    lr_mult: 1
    decay_mult: 1
  }
  param {
    lr_mult: 2
    decay_mult: 0
  }
  convolution_param {
    num_output: 384
    pad: 1
    kernel_size: 3
    group: 1
    weight_filler {
      type: "gaussian"
      std: 0.01
    }
    bias_filler {
      type: "constant"
      value: 1
    }
  }
}
layer {
  name: "relu4"
  type: "ReLU"
  bottom: "conv4"
  top: "relu4"
}
layer {
  name: "conv5"
  type: "Convolution"
  bottom: "relu4"
  top: "conv5"
  param {
    lr_mult: 1
    decay_mult: 1
  }
  param {
    lr_mult: 2
    decay_mult: 0
  }
  convolution_param {
    num_output: 256
    pad: 1
    kernel_size: 3
    group: 1
    weight_filler {
      type: "gaussian"
      std: 0.01
    }
    bias_filler {
      type: "constant"
      value: 1
    }
  }
}
layer {
  name: "relu5"
  type: "ReLU"
  bottom: "conv5"
  top: "relu5"
}
layer {
  name: "pool5"
  type: "Pooling"
  bottom: "relu5"
  top: "pool5"
  pooling_param {
    pool: MAX
    kernel_size: 3
    stride: 2
  }
}
layer {
  name: "fc6"
  type: "InnerProduct"
  bottom: "pool5"
  top: "fc6"
  param {
    lr_mult: 1
    decay_mult: 1
  }
  param {
    lr_mult: 2
    decay_mult: 0
  }
  inner_product_param {
    num_output: 4096
    weight_filler {
      type: "gaussian"
      std: 0.005
    }
    bias_filler {
      type: "constant"
      value: 1
    }
  }
}
layer {
  name: "relu6"
  type: "ReLU"
  bottom: "fc6"
  top: "relu6"
}
layer {
  name: "drop6"
  type: "Dropout"
  bottom: "relu6"
  top: "drop6"
  dropout_param {
    dropout_ratio: 0.5
  }
}
layer {
  name: "fc7"
  type: "InnerProduct"
  bottom: "drop6"
  top: "fc7"
  param {
    lr_mult: 1
    decay_mult: 1
  }
  param {
    lr_mult: 2
    decay_mult: 0
  }
  inner_product_param {
    num_output: 4096
    weight_filler {
      type: "gaussian"
      std: 0.005
    }
    bias_filler {
      type: "constant"
      value: 1
    }
  }
}
layer {
  name: "bn7"
  type: "BatchNorm"
  bottom: "fc7"
  top: "scale7"
  param {
    lr_mult: 1
    decay_mult: 0
  }
  param {
    lr_mult: 1
    decay_mult: 0
  }
  param {
    lr_mult: 0
    decay_mult: 0
  }
  param {
    lr_mult: 0
    decay_mult: 0
  }
  batch_norm_param {
    use_global_stats: false
    scale_filler {
      type: "constant"
      value: 1
    }
    bias_filler {
      type: "constant"
      value: 0
    }
  }
}
layer {
  name: "relu7"
  type: "ReLU"
  bottom: "scale7"
  top: "relu7"
}
layer {
  name: "drop7"
  type: "Dropout"
  bottom: "relu7"
  top: "drop7"
  dropout_param {
    dropout_ratio: 0.5
  }
}
layer {
  name: "fc8"
  type: "InnerProduct"
  bottom: "drop7"
  top: "fc8"
  param {
    lr_mult: 1
    decay_mult: 1
  }
  param {
    lr_mult: 2
    decay_mult: 0
  }
  inner_product_param {
    num_output: 2
    weight_filler {
      type: "gaussian"
      std: 0.01
    }
    bias_filler {
      type: "constant"
      value: 0
    }
  }
}
layer {
  name: "loss"
  type: "SoftmaxWithLoss"
  bottom: "fc8"
  bottom: "label"
  top: "loss"
}
layer {
  name: "accuracy-top1"
  type: "Accuracy"
  bottom: "fc8"
  bottom: "label"
  top: "top-1"
  include {
    phase: TEST
  }
}
I0130 16:44:20.300509 102716 layer_factory.hpp:77] Creating layer data
I0130 16:44:20.300544 102716 internal_thread.cpp:27] Starting internal thread(s) on GPU 0
I0130 16:44:20.300875 102716 net.cpp:94] Creating Layer data
I0130 16:44:20.300882 102716 net.cpp:409] data -> data
I0130 16:44:20.300890 102716 net.cpp:409] data -> label
I0130 16:44:20.301988 103926 db_lmdb.cpp:35] Opened lmdb cats-vs-dogs/input/lmdb/valid_lmdb
I0130 16:44:20.302018 103926 data_reader.cpp:117] TEST: reading data using 1 channel(s)
I0130 16:44:20.302242 102716 data_layer.cpp:78] ReshapePrefetch 50, 3, 227, 227
I0130 16:44:20.302368 102716 data_layer.cpp:83] output data size: 50,3,227,227
I0130 16:44:20.377634 102716 internal_thread.cpp:27] Starting internal thread(s) on GPU 0
I0130 16:44:20.377689 102716 net.cpp:144] Setting up data
I0130 16:44:20.377697 102716 net.cpp:151] Top shape: 50 3 227 227 (7729350)
I0130 16:44:20.377702 102716 net.cpp:151] Top shape: 50 (50)
I0130 16:44:20.377703 102716 net.cpp:159] Memory required for data: 30917600
I0130 16:44:20.377708 102716 layer_factory.hpp:77] Creating layer label_data_1_split
I0130 16:44:20.377717 102716 net.cpp:94] Creating Layer label_data_1_split
I0130 16:44:20.377720 102716 net.cpp:435] label_data_1_split <- label
I0130 16:44:20.377727 102716 net.cpp:409] label_data_1_split -> label_data_1_split_0
I0130 16:44:20.377749 102716 net.cpp:409] label_data_1_split -> label_data_1_split_1
I0130 16:44:20.377852 102716 net.cpp:144] Setting up label_data_1_split
I0130 16:44:20.377857 102716 net.cpp:151] Top shape: 50 (50)
I0130 16:44:20.377859 102716 net.cpp:151] Top shape: 50 (50)
I0130 16:44:20.377878 102716 net.cpp:159] Memory required for data: 30918000
I0130 16:44:20.377882 102716 layer_factory.hpp:77] Creating layer conv1
I0130 16:44:20.377892 102716 net.cpp:94] Creating Layer conv1
I0130 16:44:20.377894 102716 net.cpp:435] conv1 <- data
I0130 16:44:20.377898 102716 net.cpp:409] conv1 -> conv1
I0130 16:44:20.379585 102716 net.cpp:144] Setting up conv1
I0130 16:44:20.379596 102716 net.cpp:151] Top shape: 50 96 55 55 (14520000)
I0130 16:44:20.379600 102716 net.cpp:159] Memory required for data: 88998000
I0130 16:44:20.379609 102716 layer_factory.hpp:77] Creating layer bn1
I0130 16:44:20.379616 102716 net.cpp:94] Creating Layer bn1
I0130 16:44:20.379619 102716 net.cpp:435] bn1 <- conv1
I0130 16:44:20.379624 102716 net.cpp:409] bn1 -> scale1
I0130 16:44:20.380300 102716 net.cpp:144] Setting up bn1
I0130 16:44:20.380306 102716 net.cpp:151] Top shape: 50 96 55 55 (14520000)
I0130 16:44:20.380309 102716 net.cpp:159] Memory required for data: 147078000
I0130 16:44:20.380318 102716 layer_factory.hpp:77] Creating layer relu1
I0130 16:44:20.380324 102716 net.cpp:94] Creating Layer relu1
I0130 16:44:20.380327 102716 net.cpp:435] relu1 <- scale1
I0130 16:44:20.380331 102716 net.cpp:409] relu1 -> relu1
I0130 16:44:20.380359 102716 net.cpp:144] Setting up relu1
I0130 16:44:20.380364 102716 net.cpp:151] Top shape: 50 96 55 55 (14520000)
I0130 16:44:20.380367 102716 net.cpp:159] Memory required for data: 205158000
I0130 16:44:20.380370 102716 layer_factory.hpp:77] Creating layer pool1
I0130 16:44:20.380375 102716 net.cpp:94] Creating Layer pool1
I0130 16:44:20.380378 102716 net.cpp:435] pool1 <- relu1
I0130 16:44:20.380383 102716 net.cpp:409] pool1 -> pool1
I0130 16:44:20.380445 102716 net.cpp:144] Setting up pool1
I0130 16:44:20.380450 102716 net.cpp:151] Top shape: 50 96 27 27 (3499200)
I0130 16:44:20.380453 102716 net.cpp:159] Memory required for data: 219154800
I0130 16:44:20.380455 102716 layer_factory.hpp:77] Creating layer conv2
I0130 16:44:20.380463 102716 net.cpp:94] Creating Layer conv2
I0130 16:44:20.380465 102716 net.cpp:435] conv2 <- pool1
I0130 16:44:20.380470 102716 net.cpp:409] conv2 -> conv2
I0130 16:44:20.387323 102716 net.cpp:144] Setting up conv2
I0130 16:44:20.387341 102716 net.cpp:151] Top shape: 50 256 27 27 (9331200)
I0130 16:44:20.387343 102716 net.cpp:159] Memory required for data: 256479600
I0130 16:44:20.387354 102716 layer_factory.hpp:77] Creating layer bn2
I0130 16:44:20.387363 102716 net.cpp:94] Creating Layer bn2
I0130 16:44:20.387367 102716 net.cpp:435] bn2 <- conv2
I0130 16:44:20.387374 102716 net.cpp:409] bn2 -> scale2
I0130 16:44:20.388046 102716 net.cpp:144] Setting up bn2
I0130 16:44:20.388052 102716 net.cpp:151] Top shape: 50 256 27 27 (9331200)
I0130 16:44:20.388056 102716 net.cpp:159] Memory required for data: 293804400
I0130 16:44:20.388063 102716 layer_factory.hpp:77] Creating layer relu2
I0130 16:44:20.388082 102716 net.cpp:94] Creating Layer relu2
I0130 16:44:20.388084 102716 net.cpp:435] relu2 <- scale2
I0130 16:44:20.388088 102716 net.cpp:409] relu2 -> relu2
I0130 16:44:20.388114 102716 net.cpp:144] Setting up relu2
I0130 16:44:20.388119 102716 net.cpp:151] Top shape: 50 256 27 27 (9331200)
I0130 16:44:20.388123 102716 net.cpp:159] Memory required for data: 331129200
I0130 16:44:20.388125 102716 layer_factory.hpp:77] Creating layer pool2
I0130 16:44:20.388129 102716 net.cpp:94] Creating Layer pool2
I0130 16:44:20.388133 102716 net.cpp:435] pool2 <- relu2
I0130 16:44:20.388135 102716 net.cpp:409] pool2 -> pool2
I0130 16:44:20.388159 102716 net.cpp:144] Setting up pool2
I0130 16:44:20.388164 102716 net.cpp:151] Top shape: 50 256 13 13 (2163200)
I0130 16:44:20.388165 102716 net.cpp:159] Memory required for data: 339782000
I0130 16:44:20.388167 102716 layer_factory.hpp:77] Creating layer conv3
I0130 16:44:20.388175 102716 net.cpp:94] Creating Layer conv3
I0130 16:44:20.388178 102716 net.cpp:435] conv3 <- pool2
I0130 16:44:20.388182 102716 net.cpp:409] conv3 -> conv3
I0130 16:44:20.402281 102716 net.cpp:144] Setting up conv3
I0130 16:44:20.402323 102716 net.cpp:151] Top shape: 50 384 13 13 (3244800)
I0130 16:44:20.402324 102716 net.cpp:159] Memory required for data: 352761200
I0130 16:44:20.402333 102716 layer_factory.hpp:77] Creating layer relu3
I0130 16:44:20.402341 102716 net.cpp:94] Creating Layer relu3
I0130 16:44:20.402361 102716 net.cpp:435] relu3 <- conv3
I0130 16:44:20.402367 102716 net.cpp:409] relu3 -> relu3
I0130 16:44:20.402391 102716 net.cpp:144] Setting up relu3
I0130 16:44:20.402395 102716 net.cpp:151] Top shape: 50 384 13 13 (3244800)
I0130 16:44:20.402398 102716 net.cpp:159] Memory required for data: 365740400
I0130 16:44:20.402400 102716 layer_factory.hpp:77] Creating layer conv4
I0130 16:44:20.402408 102716 net.cpp:94] Creating Layer conv4
I0130 16:44:20.402421 102716 net.cpp:435] conv4 <- relu3
I0130 16:44:20.402427 102716 net.cpp:409] conv4 -> conv4
I0130 16:44:20.415710 102716 net.cpp:144] Setting up conv4
I0130 16:44:20.415740 102716 net.cpp:151] Top shape: 50 384 13 13 (3244800)
I0130 16:44:20.415742 102716 net.cpp:159] Memory required for data: 378719600
I0130 16:44:20.415769 102716 layer_factory.hpp:77] Creating layer relu4
I0130 16:44:20.415776 102716 net.cpp:94] Creating Layer relu4
I0130 16:44:20.415779 102716 net.cpp:435] relu4 <- conv4
I0130 16:44:20.415787 102716 net.cpp:409] relu4 -> relu4
I0130 16:44:20.415807 102716 net.cpp:144] Setting up relu4
I0130 16:44:20.415810 102716 net.cpp:151] Top shape: 50 384 13 13 (3244800)
I0130 16:44:20.415812 102716 net.cpp:159] Memory required for data: 391698800
I0130 16:44:20.415814 102716 layer_factory.hpp:77] Creating layer conv5
I0130 16:44:20.415823 102716 net.cpp:94] Creating Layer conv5
I0130 16:44:20.415825 102716 net.cpp:435] conv5 <- relu4
I0130 16:44:20.415829 102716 net.cpp:409] conv5 -> conv5
I0130 16:44:20.428511 102716 net.cpp:144] Setting up conv5
I0130 16:44:20.428544 102716 net.cpp:151] Top shape: 50 256 13 13 (2163200)
I0130 16:44:20.428547 102716 net.cpp:159] Memory required for data: 400351600
I0130 16:44:20.428556 102716 layer_factory.hpp:77] Creating layer relu5
I0130 16:44:20.428565 102716 net.cpp:94] Creating Layer relu5
I0130 16:44:20.428570 102716 net.cpp:435] relu5 <- conv5
I0130 16:44:20.428576 102716 net.cpp:409] relu5 -> relu5
I0130 16:44:20.428601 102716 net.cpp:144] Setting up relu5
I0130 16:44:20.428606 102716 net.cpp:151] Top shape: 50 256 13 13 (2163200)
I0130 16:44:20.428609 102716 net.cpp:159] Memory required for data: 409004400
I0130 16:44:20.428611 102716 layer_factory.hpp:77] Creating layer pool5
I0130 16:44:20.428619 102716 net.cpp:94] Creating Layer pool5
I0130 16:44:20.428622 102716 net.cpp:435] pool5 <- relu5
I0130 16:44:20.428627 102716 net.cpp:409] pool5 -> pool5
I0130 16:44:20.428673 102716 net.cpp:144] Setting up pool5
I0130 16:44:20.428676 102716 net.cpp:151] Top shape: 50 256 6 6 (460800)
I0130 16:44:20.428679 102716 net.cpp:159] Memory required for data: 410847600
I0130 16:44:20.428683 102716 layer_factory.hpp:77] Creating layer fc6
I0130 16:44:20.428689 102716 net.cpp:94] Creating Layer fc6
I0130 16:44:20.428692 102716 net.cpp:435] fc6 <- pool5
I0130 16:44:20.428696 102716 net.cpp:409] fc6 -> fc6
I0130 16:44:20.736954 102716 net.cpp:144] Setting up fc6
I0130 16:44:20.736979 102716 net.cpp:151] Top shape: 50 4096 (204800)
I0130 16:44:20.736981 102716 net.cpp:159] Memory required for data: 411666800
I0130 16:44:20.736989 102716 layer_factory.hpp:77] Creating layer relu6
I0130 16:44:20.736996 102716 net.cpp:94] Creating Layer relu6
I0130 16:44:20.736999 102716 net.cpp:435] relu6 <- fc6
I0130 16:44:20.737004 102716 net.cpp:409] relu6 -> relu6
I0130 16:44:20.737042 102716 net.cpp:144] Setting up relu6
I0130 16:44:20.737047 102716 net.cpp:151] Top shape: 50 4096 (204800)
I0130 16:44:20.737049 102716 net.cpp:159] Memory required for data: 412486000
I0130 16:44:20.737051 102716 layer_factory.hpp:77] Creating layer drop6
I0130 16:44:20.737056 102716 net.cpp:94] Creating Layer drop6
I0130 16:44:20.737058 102716 net.cpp:435] drop6 <- relu6
I0130 16:44:20.737061 102716 net.cpp:409] drop6 -> drop6
I0130 16:44:20.737093 102716 net.cpp:144] Setting up drop6
I0130 16:44:20.737118 102716 net.cpp:151] Top shape: 50 4096 (204800)
I0130 16:44:20.737121 102716 net.cpp:159] Memory required for data: 413305200
I0130 16:44:20.737123 102716 layer_factory.hpp:77] Creating layer fc7
I0130 16:44:20.737129 102716 net.cpp:94] Creating Layer fc7
I0130 16:44:20.737131 102716 net.cpp:435] fc7 <- drop6
I0130 16:44:20.737136 102716 net.cpp:409] fc7 -> fc7
I0130 16:44:20.873286 102716 net.cpp:144] Setting up fc7
I0130 16:44:20.873311 102716 net.cpp:151] Top shape: 50 4096 (204800)
I0130 16:44:20.873314 102716 net.cpp:159] Memory required for data: 414124400
I0130 16:44:20.873338 102716 layer_factory.hpp:77] Creating layer bn7
I0130 16:44:20.873347 102716 net.cpp:94] Creating Layer bn7
I0130 16:44:20.873350 102716 net.cpp:435] bn7 <- fc7
I0130 16:44:20.873358 102716 net.cpp:409] bn7 -> scale7
I0130 16:44:20.873867 102716 net.cpp:144] Setting up bn7
I0130 16:44:20.873873 102716 net.cpp:151] Top shape: 50 4096 (204800)
I0130 16:44:20.873877 102716 net.cpp:159] Memory required for data: 414943600
I0130 16:44:20.873883 102716 layer_factory.hpp:77] Creating layer relu7
I0130 16:44:20.873888 102716 net.cpp:94] Creating Layer relu7
I0130 16:44:20.873889 102716 net.cpp:435] relu7 <- scale7
I0130 16:44:20.873893 102716 net.cpp:409] relu7 -> relu7
I0130 16:44:20.873910 102716 net.cpp:144] Setting up relu7
I0130 16:44:20.873915 102716 net.cpp:151] Top shape: 50 4096 (204800)
I0130 16:44:20.873917 102716 net.cpp:159] Memory required for data: 415762800
I0130 16:44:20.873919 102716 layer_factory.hpp:77] Creating layer drop7
I0130 16:44:20.873924 102716 net.cpp:94] Creating Layer drop7
I0130 16:44:20.873927 102716 net.cpp:435] drop7 <- relu7
I0130 16:44:20.873930 102716 net.cpp:409] drop7 -> drop7
I0130 16:44:20.873953 102716 net.cpp:144] Setting up drop7
I0130 16:44:20.873957 102716 net.cpp:151] Top shape: 50 4096 (204800)
I0130 16:44:20.873960 102716 net.cpp:159] Memory required for data: 416582000
I0130 16:44:20.873962 102716 layer_factory.hpp:77] Creating layer fc8
I0130 16:44:20.873967 102716 net.cpp:94] Creating Layer fc8
I0130 16:44:20.873970 102716 net.cpp:435] fc8 <- drop7
I0130 16:44:20.873975 102716 net.cpp:409] fc8 -> fc8
I0130 16:44:20.874843 102716 net.cpp:144] Setting up fc8
I0130 16:44:20.874855 102716 net.cpp:151] Top shape: 50 2 (100)
I0130 16:44:20.874857 102716 net.cpp:159] Memory required for data: 416582400
I0130 16:44:20.874863 102716 layer_factory.hpp:77] Creating layer fc8_fc8_0_split
I0130 16:44:20.874869 102716 net.cpp:94] Creating Layer fc8_fc8_0_split
I0130 16:44:20.874872 102716 net.cpp:435] fc8_fc8_0_split <- fc8
I0130 16:44:20.874876 102716 net.cpp:409] fc8_fc8_0_split -> fc8_fc8_0_split_0
I0130 16:44:20.874882 102716 net.cpp:409] fc8_fc8_0_split -> fc8_fc8_0_split_1
I0130 16:44:20.874908 102716 net.cpp:144] Setting up fc8_fc8_0_split
I0130 16:44:20.874912 102716 net.cpp:151] Top shape: 50 2 (100)
I0130 16:44:20.874915 102716 net.cpp:151] Top shape: 50 2 (100)
I0130 16:44:20.874918 102716 net.cpp:159] Memory required for data: 416583200
I0130 16:44:20.874920 102716 layer_factory.hpp:77] Creating layer loss
I0130 16:44:20.874925 102716 net.cpp:94] Creating Layer loss
I0130 16:44:20.874927 102716 net.cpp:435] loss <- fc8_fc8_0_split_0
I0130 16:44:20.874931 102716 net.cpp:435] loss <- label_data_1_split_0
I0130 16:44:20.874936 102716 net.cpp:409] loss -> loss
…
