…
I0130 22:18:36.398090 109299 caffe_interface.cpp:70] GPU device name: Quadro P6000
I0130 22:18:36.398398 109299 net.cpp:323] The NetState phase (1) differed from the phase (0) specified by a rule in layer data
I0130 22:18:36.398568 109299 net.cpp:52] Initializing net from parameters: 
state {
  phase: TEST
}
layer {
  name: "data"
  type: "Data"
  top: "data"
  top: "label"
  include {
    phase: TEST
  }
  transform_param {
    mirror: false
    crop_size: 227
    mean_value: 106
    mean_value: 116
    mean_value: 124
  }
  data_param {
    source: "cats-vs-dogs/input/lmdb/valid_lmdb"
    batch_size: 50
    backend: LMDB
  }
}
layer {
  name: "conv1"
  type: "Convolution"
  bottom: "data"
  top: "conv1"
  param {
    lr_mult: 1
    decay_mult: 1
  }
  param {
    lr_mult: 2
    decay_mult: 0
  }
  convolution_param {
    num_output: 96
    pad: 1
    kernel_size: 11
    stride: 4
    weight_filler {
      type: "gaussian"
      std: 0.01
    }
    bias_filler {
      type: "constant"
      value: 0
    }
  }
}
layer {
  name: "bn1"
  type: "BatchNorm"
  bottom: "conv1"
  top: "scale1"
  param {
    lr_mult: 1
    decay_mult: 0
  }
  param {
    lr_mult: 1
    decay_mult: 0
  }
  param {
    lr_mult: 0
    decay_mult: 0
  }
  param {
    lr_mult: 0
    decay_mult: 0
  }
  batch_norm_param {
    use_global_stats: false
    scale_filler {
      type: "constant"
      value: 1
    }
    bias_filler {
      type: "constant"
      value: 0
    }
  }
}
layer {
  name: "relu1"
  type: "ReLU"
  bottom: "scale1"
  top: "relu1"
}
layer {
  name: "pool1"
  type: "Pooling"
  bottom: "relu1"
  top: "pool1"
  pooling_param {
    pool: MAX
    kernel_size: 3
    stride: 2
  }
}
layer {
  name: "conv2"
  type: "Convolution"
  bottom: "pool1"
  top: "conv2"
  param {
    lr_mult: 1
    decay_mult: 1
  }
  param {
    lr_mult: 2
    decay_mult: 0
  }
  convolution_param {
    num_output: 256
    pad: 2
    kernel_size: 5
    group: 1
    weight_filler {
      type: "gaussian"
      std: 0.01
    }
    bias_filler {
      type: "constant"
      value: 1
    }
  }
}
layer {
  name: "bn2"
  type: "BatchNorm"
  bottom: "conv2"
  top: "scale2"
  param {
    lr_mult: 1
    decay_mult: 0
  }
  param {
    lr_mult: 1
    decay_mult: 0
  }
  param {
    lr_mult: 0
    decay_mult: 0
  }
  param {
    lr_mult: 0
    decay_mult: 0
  }
  batch_norm_param {
    use_global_stats: false
    scale_filler {
      type: "constant"
      value: 1
    }
    bias_filler {
      type: "constant"
      value: 0
    }
  }
}
layer {
  name: "relu2"
  type: "ReLU"
  bottom: "scale2"
  top: "relu2"
}
layer {
  name: "pool2"
  type: "Pooling"
  bottom: "relu2"
  top: "pool2"
  pooling_param {
    pool: MAX
    kernel_size: 3
    stride: 2
  }
}
layer {
  name: "conv3"
  type: "Convolution"
  bottom: "pool2"
  top: "conv3"
  param {
    lr_mult: 1
    decay_mult: 1
  }
  param {
    lr_mult: 2
    decay_mult: 0
  }
  convolution_param {
    num_output: 384
    pad: 1
    kernel_size: 3
    weight_filler {
      type: "gaussian"
      std: 0.01
    }
    bias_filler {
      type: "constant"
      value: 0
    }
  }
}
layer {
  name: "relu3"
  type: "ReLU"
  bottom: "conv3"
  top: "relu3"
}
layer {
  name: "conv4"
  type: "Convolution"
  bottom: "relu3"
  top: "conv4"
  param {
    lr_mult: 1
    decay_mult: 1
  }
  param {
    lr_mult: 2
    decay_mult: 0
  }
  convolution_param {
    num_output: 384
    pad: 1
    kernel_size: 3
    group: 1
    weight_filler {
      type: "gaussian"
      std: 0.01
    }
    bias_filler {
      type: "constant"
      value: 1
    }
  }
}
layer {
  name: "relu4"
  type: "ReLU"
  bottom: "conv4"
  top: "relu4"
}
layer {
  name: "conv5"
  type: "Convolution"
  bottom: "relu4"
  top: "conv5"
  param {
    lr_mult: 1
    decay_mult: 1
  }
  param {
    lr_mult: 2
    decay_mult: 0
  }
  convolution_param {
    num_output: 256
    pad: 1
    kernel_size: 3
    group: 1
    weight_filler {
      type: "gaussian"
      std: 0.01
    }
    bias_filler {
      type: "constant"
      value: 1
    }
  }
}
layer {
  name: "relu5"
  type: "ReLU"
  bottom: "conv5"
  top: "relu5"
}
layer {
  name: "pool5"
  type: "Pooling"
  bottom: "relu5"
  top: "pool5"
  pooling_param {
    pool: MAX
    kernel_size: 3
    stride: 2
  }
}
layer {
  name: "fc6"
  type: "InnerProduct"
  bottom: "pool5"
  top: "fc6"
  param {
    lr_mult: 1
    decay_mult: 1
  }
  param {
    lr_mult: 2
    decay_mult: 0
  }
  inner_product_param {
    num_output: 4096
    weight_filler {
      type: "gaussian"
      std: 0.005
    }
    bias_filler {
      type: "constant"
      value: 1
    }
  }
}
layer {
  name: "relu6"
  type: "ReLU"
  bottom: "fc6"
  top: "relu6"
}
layer {
  name: "drop6"
  type: "Dropout"
  bottom: "relu6"
  top: "drop6"
  dropout_param {
    dropout_ratio: 0.5
  }
}
layer {
  name: "fc7"
  type: "InnerProduct"
  bottom: "drop6"
  top: "fc7"
  param {
    lr_mult: 1
    decay_mult: 1
  }
  param {
    lr_mult: 2
    decay_mult: 0
  }
  inner_product_param {
    num_output: 4096
    weight_filler {
      type: "gaussian"
      std: 0.005
    }
    bias_filler {
      type: "constant"
      value: 1
    }
  }
}
layer {
  name: "bn7"
  type: "BatchNorm"
  bottom: "fc7"
  top: "scale7"
  param {
    lr_mult: 1
    decay_mult: 0
  }
  param {
    lr_mult: 1
    decay_mult: 0
  }
  param {
    lr_mult: 0
    decay_mult: 0
  }
  param {
    lr_mult: 0
    decay_mult: 0
  }
  batch_norm_param {
    use_global_stats: false
    scale_filler {
      type: "constant"
      value: 1
    }
    bias_filler {
      type: "constant"
      value: 0
    }
  }
}
layer {
  name: "relu7"
  type: "ReLU"
  bottom: "scale7"
  top: "relu7"
}
layer {
  name: "drop7"
  type: "Dropout"
  bottom: "relu7"
  top: "drop7"
  dropout_param {
    dropout_ratio: 0.5
  }
}
layer {
  name: "fc8"
  type: "InnerProduct"
  bottom: "drop7"
  top: "fc8"
  param {
    lr_mult: 1
    decay_mult: 1
  }
  param {
    lr_mult: 2
    decay_mult: 0
  }
  inner_product_param {
    num_output: 2
    weight_filler {
      type: "gaussian"
      std: 0.01
    }
    bias_filler {
      type: "constant"
      value: 0
    }
  }
}
layer {
  name: "loss"
  type: "SoftmaxWithLoss"
  bottom: "fc8"
  bottom: "label"
  top: "loss"
}
layer {
  name: "accuracy-top1"
  type: "Accuracy"
  bottom: "fc8"
  bottom: "label"
  top: "top-1"
  include {
    phase: TEST
  }
}
I0130 22:18:36.398689 109299 layer_factory.hpp:77] Creating layer data
I0130 22:18:36.398725 109299 internal_thread.cpp:27] Starting internal thread(s) on GPU 0
I0130 22:18:36.399117 109299 net.cpp:94] Creating Layer data
I0130 22:18:36.399124 109299 net.cpp:409] data -> data
I0130 22:18:36.399149 109299 net.cpp:409] data -> label
I0130 22:18:36.400667 110507 db_lmdb.cpp:35] Opened lmdb cats-vs-dogs/input/lmdb/valid_lmdb
I0130 22:18:36.400698 110507 data_reader.cpp:117] TEST: reading data using 1 channel(s)
I0130 22:18:36.400868 109299 data_layer.cpp:78] ReshapePrefetch 50, 3, 227, 227
I0130 22:18:36.400933 109299 data_layer.cpp:83] output data size: 50,3,227,227
I0130 22:18:36.484789 109299 internal_thread.cpp:27] Starting internal thread(s) on GPU 0
I0130 22:18:36.484858 109299 net.cpp:144] Setting up data
I0130 22:18:36.484865 109299 net.cpp:151] Top shape: 50 3 227 227 (7729350)
I0130 22:18:36.484870 109299 net.cpp:151] Top shape: 50 (50)
I0130 22:18:36.484874 109299 net.cpp:159] Memory required for data: 30917600
I0130 22:18:36.484879 109299 layer_factory.hpp:77] Creating layer label_data_1_split
I0130 22:18:36.484889 109299 net.cpp:94] Creating Layer label_data_1_split
I0130 22:18:36.484891 109299 net.cpp:435] label_data_1_split <- label
I0130 22:18:36.484899 109299 net.cpp:409] label_data_1_split -> label_data_1_split_0
I0130 22:18:36.484910 109299 net.cpp:409] label_data_1_split -> label_data_1_split_1
I0130 22:18:36.485011 109299 net.cpp:144] Setting up label_data_1_split
I0130 22:18:36.485016 109299 net.cpp:151] Top shape: 50 (50)
I0130 22:18:36.485036 109299 net.cpp:151] Top shape: 50 (50)
I0130 22:18:36.485039 109299 net.cpp:159] Memory required for data: 30918000
I0130 22:18:36.485041 109299 layer_factory.hpp:77] Creating layer conv1
I0130 22:18:36.485051 109299 net.cpp:94] Creating Layer conv1
I0130 22:18:36.485054 109299 net.cpp:435] conv1 <- data
I0130 22:18:36.485059 109299 net.cpp:409] conv1 -> conv1
I0130 22:18:36.486773 109299 net.cpp:144] Setting up conv1
I0130 22:18:36.486784 109299 net.cpp:151] Top shape: 50 96 55 55 (14520000)
I0130 22:18:36.486789 109299 net.cpp:159] Memory required for data: 88998000
I0130 22:18:36.486800 109299 layer_factory.hpp:77] Creating layer bn1
I0130 22:18:36.486809 109299 net.cpp:94] Creating Layer bn1
I0130 22:18:36.486811 109299 net.cpp:435] bn1 <- conv1
I0130 22:18:36.486816 109299 net.cpp:409] bn1 -> scale1
I0130 22:18:36.487493 109299 net.cpp:144] Setting up bn1
I0130 22:18:36.487499 109299 net.cpp:151] Top shape: 50 96 55 55 (14520000)
I0130 22:18:36.487501 109299 net.cpp:159] Memory required for data: 147078000
I0130 22:18:36.487510 109299 layer_factory.hpp:77] Creating layer relu1
I0130 22:18:36.487516 109299 net.cpp:94] Creating Layer relu1
I0130 22:18:36.487519 109299 net.cpp:435] relu1 <- scale1
I0130 22:18:36.487524 109299 net.cpp:409] relu1 -> relu1
I0130 22:18:36.487556 109299 net.cpp:144] Setting up relu1
I0130 22:18:36.487562 109299 net.cpp:151] Top shape: 50 96 55 55 (14520000)
I0130 22:18:36.487565 109299 net.cpp:159] Memory required for data: 205158000
I0130 22:18:36.487567 109299 layer_factory.hpp:77] Creating layer pool1
I0130 22:18:36.487572 109299 net.cpp:94] Creating Layer pool1
I0130 22:18:36.487576 109299 net.cpp:435] pool1 <- relu1
I0130 22:18:36.487582 109299 net.cpp:409] pool1 -> pool1
I0130 22:18:36.487634 109299 net.cpp:144] Setting up pool1
I0130 22:18:36.487639 109299 net.cpp:151] Top shape: 50 96 27 27 (3499200)
I0130 22:18:36.487643 109299 net.cpp:159] Memory required for data: 219154800
I0130 22:18:36.487645 109299 layer_factory.hpp:77] Creating layer conv2
I0130 22:18:36.487654 109299 net.cpp:94] Creating Layer conv2
I0130 22:18:36.487658 109299 net.cpp:435] conv2 <- pool1
I0130 22:18:36.487663 109299 net.cpp:409] conv2 -> conv2
I0130 22:18:36.494596 109299 net.cpp:144] Setting up conv2
I0130 22:18:36.494616 109299 net.cpp:151] Top shape: 50 256 27 27 (9331200)
I0130 22:18:36.494618 109299 net.cpp:159] Memory required for data: 256479600
I0130 22:18:36.494632 109299 layer_factory.hpp:77] Creating layer bn2
I0130 22:18:36.494643 109299 net.cpp:94] Creating Layer bn2
I0130 22:18:36.494647 109299 net.cpp:435] bn2 <- conv2
I0130 22:18:36.494655 109299 net.cpp:409] bn2 -> scale2
I0130 22:18:36.495277 109299 net.cpp:144] Setting up bn2
I0130 22:18:36.495285 109299 net.cpp:151] Top shape: 50 256 27 27 (9331200)
I0130 22:18:36.495288 109299 net.cpp:159] Memory required for data: 293804400
I0130 22:18:36.495297 109299 layer_factory.hpp:77] Creating layer relu2
I0130 22:18:36.495306 109299 net.cpp:94] Creating Layer relu2
I0130 22:18:36.495311 109299 net.cpp:435] relu2 <- scale2
I0130 22:18:36.495317 109299 net.cpp:409] relu2 -> relu2
I0130 22:18:36.495342 109299 net.cpp:144] Setting up relu2
I0130 22:18:36.495350 109299 net.cpp:151] Top shape: 50 256 27 27 (9331200)
I0130 22:18:36.495354 109299 net.cpp:159] Memory required for data: 331129200
I0130 22:18:36.495357 109299 layer_factory.hpp:77] Creating layer pool2
I0130 22:18:36.495365 109299 net.cpp:94] Creating Layer pool2
I0130 22:18:36.495370 109299 net.cpp:435] pool2 <- relu2
I0130 22:18:36.495378 109299 net.cpp:409] pool2 -> pool2
I0130 22:18:36.495416 109299 net.cpp:144] Setting up pool2
I0130 22:18:36.495424 109299 net.cpp:151] Top shape: 50 256 13 13 (2163200)
I0130 22:18:36.495429 109299 net.cpp:159] Memory required for data: 339782000
I0130 22:18:36.495432 109299 layer_factory.hpp:77] Creating layer conv3
I0130 22:18:36.495445 109299 net.cpp:94] Creating Layer conv3
I0130 22:18:36.495450 109299 net.cpp:435] conv3 <- pool2
I0130 22:18:36.495457 109299 net.cpp:409] conv3 -> conv3
I0130 22:18:36.505923 109299 net.cpp:144] Setting up conv3
I0130 22:18:36.505964 109299 net.cpp:151] Top shape: 50 384 13 13 (3244800)
I0130 22:18:36.505966 109299 net.cpp:159] Memory required for data: 352761200
I0130 22:18:36.505975 109299 layer_factory.hpp:77] Creating layer relu3
I0130 22:18:36.505982 109299 net.cpp:94] Creating Layer relu3
I0130 22:18:36.505996 109299 net.cpp:435] relu3 <- conv3
I0130 22:18:36.506005 109299 net.cpp:409] relu3 -> relu3
I0130 22:18:36.506036 109299 net.cpp:144] Setting up relu3
I0130 22:18:36.506043 109299 net.cpp:151] Top shape: 50 384 13 13 (3244800)
I0130 22:18:36.506047 109299 net.cpp:159] Memory required for data: 365740400
I0130 22:18:36.506052 109299 layer_factory.hpp:77] Creating layer conv4
I0130 22:18:36.506063 109299 net.cpp:94] Creating Layer conv4
I0130 22:18:36.506068 109299 net.cpp:435] conv4 <- relu3
I0130 22:18:36.506075 109299 net.cpp:409] conv4 -> conv4
I0130 22:18:36.522624 109299 net.cpp:144] Setting up conv4
I0130 22:18:36.522663 109299 net.cpp:151] Top shape: 50 384 13 13 (3244800)
I0130 22:18:36.522666 109299 net.cpp:159] Memory required for data: 378719600
I0130 22:18:36.522681 109299 layer_factory.hpp:77] Creating layer relu4
I0130 22:18:36.522691 109299 net.cpp:94] Creating Layer relu4
I0130 22:18:36.522696 109299 net.cpp:435] relu4 <- conv4
I0130 22:18:36.522706 109299 net.cpp:409] relu4 -> relu4
I0130 22:18:36.522737 109299 net.cpp:144] Setting up relu4
I0130 22:18:36.522773 109299 net.cpp:151] Top shape: 50 384 13 13 (3244800)
I0130 22:18:36.522791 109299 net.cpp:159] Memory required for data: 391698800
I0130 22:18:36.522810 109299 layer_factory.hpp:77] Creating layer conv5
I0130 22:18:36.522836 109299 net.cpp:94] Creating Layer conv5
I0130 22:18:36.522855 109299 net.cpp:435] conv5 <- relu4
I0130 22:18:36.522877 109299 net.cpp:409] conv5 -> conv5
I0130 22:18:36.532634 109299 net.cpp:144] Setting up conv5
I0130 22:18:36.532660 109299 net.cpp:151] Top shape: 50 256 13 13 (2163200)
I0130 22:18:36.532665 109299 net.cpp:159] Memory required for data: 400351600
I0130 22:18:36.532676 109299 layer_factory.hpp:77] Creating layer relu5
I0130 22:18:36.532688 109299 net.cpp:94] Creating Layer relu5
I0130 22:18:36.532694 109299 net.cpp:435] relu5 <- conv5
I0130 22:18:36.532703 109299 net.cpp:409] relu5 -> relu5
I0130 22:18:36.532737 109299 net.cpp:144] Setting up relu5
I0130 22:18:36.532758 109299 net.cpp:151] Top shape: 50 256 13 13 (2163200)
I0130 22:18:36.532773 109299 net.cpp:159] Memory required for data: 409004400
I0130 22:18:36.532788 109299 layer_factory.hpp:77] Creating layer pool5
I0130 22:18:36.532810 109299 net.cpp:94] Creating Layer pool5
I0130 22:18:36.532826 109299 net.cpp:435] pool5 <- relu5
I0130 22:18:36.532845 109299 net.cpp:409] pool5 -> pool5
I0130 22:18:36.532899 109299 net.cpp:144] Setting up pool5
I0130 22:18:36.532907 109299 net.cpp:151] Top shape: 50 256 6 6 (460800)
I0130 22:18:36.532912 109299 net.cpp:159] Memory required for data: 410847600
I0130 22:18:36.532915 109299 layer_factory.hpp:77] Creating layer fc6
I0130 22:18:36.532925 109299 net.cpp:94] Creating Layer fc6
I0130 22:18:36.532930 109299 net.cpp:435] fc6 <- pool5
I0130 22:18:36.532938 109299 net.cpp:409] fc6 -> fc6
I0130 22:18:36.853209 109299 net.cpp:144] Setting up fc6
I0130 22:18:36.853235 109299 net.cpp:151] Top shape: 50 4096 (204800)
I0130 22:18:36.853237 109299 net.cpp:159] Memory required for data: 411666800
I0130 22:18:36.853246 109299 layer_factory.hpp:77] Creating layer relu6
I0130 22:18:36.853256 109299 net.cpp:94] Creating Layer relu6
I0130 22:18:36.853260 109299 net.cpp:435] relu6 <- fc6
I0130 22:18:36.853269 109299 net.cpp:409] relu6 -> relu6
I0130 22:18:36.853296 109299 net.cpp:144] Setting up relu6
I0130 22:18:36.853302 109299 net.cpp:151] Top shape: 50 4096 (204800)
I0130 22:18:36.853304 109299 net.cpp:159] Memory required for data: 412486000
I0130 22:18:36.853307 109299 layer_factory.hpp:77] Creating layer drop6
I0130 22:18:36.853313 109299 net.cpp:94] Creating Layer drop6
I0130 22:18:36.853317 109299 net.cpp:435] drop6 <- relu6
I0130 22:18:36.853320 109299 net.cpp:409] drop6 -> drop6
I0130 22:18:36.853359 109299 net.cpp:144] Setting up drop6
I0130 22:18:36.853379 109299 net.cpp:151] Top shape: 50 4096 (204800)
I0130 22:18:36.853381 109299 net.cpp:159] Memory required for data: 413305200
I0130 22:18:36.853384 109299 layer_factory.hpp:77] Creating layer fc7
I0130 22:18:36.853391 109299 net.cpp:94] Creating Layer fc7
I0130 22:18:36.853394 109299 net.cpp:435] fc7 <- drop6
I0130 22:18:36.853399 109299 net.cpp:409] fc7 -> fc7
I0130 22:18:36.986058 109299 net.cpp:144] Setting up fc7
I0130 22:18:36.986083 109299 net.cpp:151] Top shape: 50 4096 (204800)
I0130 22:18:36.986085 109299 net.cpp:159] Memory required for data: 414124400
I0130 22:18:36.986093 109299 layer_factory.hpp:77] Creating layer bn7
I0130 22:18:36.986101 109299 net.cpp:94] Creating Layer bn7
I0130 22:18:36.986105 109299 net.cpp:435] bn7 <- fc7
I0130 22:18:36.986121 109299 net.cpp:409] bn7 -> scale7
I0130 22:18:36.986676 109299 net.cpp:144] Setting up bn7
I0130 22:18:36.986685 109299 net.cpp:151] Top shape: 50 4096 (204800)
I0130 22:18:36.986690 109299 net.cpp:159] Memory required for data: 414943600
I0130 22:18:36.986696 109299 layer_factory.hpp:77] Creating layer relu7
I0130 22:18:36.986701 109299 net.cpp:94] Creating Layer relu7
I0130 22:18:36.986706 109299 net.cpp:435] relu7 <- scale7
I0130 22:18:36.986711 109299 net.cpp:409] relu7 -> relu7
I0130 22:18:36.986734 109299 net.cpp:144] Setting up relu7
I0130 22:18:36.986742 109299 net.cpp:151] Top shape: 50 4096 (204800)
I0130 22:18:36.986744 109299 net.cpp:159] Memory required for data: 415762800
I0130 22:18:36.986747 109299 layer_factory.hpp:77] Creating layer drop7
I0130 22:18:36.986752 109299 net.cpp:94] Creating Layer drop7
I0130 22:18:36.986755 109299 net.cpp:435] drop7 <- relu7
I0130 22:18:36.986760 109299 net.cpp:409] drop7 -> drop7
I0130 22:18:36.986793 109299 net.cpp:144] Setting up drop7
I0130 22:18:36.986799 109299 net.cpp:151] Top shape: 50 4096 (204800)
I0130 22:18:36.986801 109299 net.cpp:159] Memory required for data: 416582000
I0130 22:18:36.986804 109299 layer_factory.hpp:77] Creating layer fc8
I0130 22:18:36.986809 109299 net.cpp:94] Creating Layer fc8
I0130 22:18:36.986812 109299 net.cpp:435] fc8 <- drop7
I0130 22:18:36.986819 109299 net.cpp:409] fc8 -> fc8
I0130 22:18:36.987696 109299 net.cpp:144] Setting up fc8
I0130 22:18:36.987709 109299 net.cpp:151] Top shape: 50 2 (100)
I0130 22:18:36.987710 109299 net.cpp:159] Memory required for data: 416582400
I0130 22:18:36.987716 109299 layer_factory.hpp:77] Creating layer fc8_fc8_0_split
I0130 22:18:36.987723 109299 net.cpp:94] Creating Layer fc8_fc8_0_split
I0130 22:18:36.987727 109299 net.cpp:435] fc8_fc8_0_split <- fc8
I0130 22:18:36.987733 109299 net.cpp:409] fc8_fc8_0_split -> fc8_fc8_0_split_0
I0130 22:18:36.987740 109299 net.cpp:409] fc8_fc8_0_split -> fc8_fc8_0_split_1
I0130 22:18:36.987776 109299 net.cpp:144] Setting up fc8_fc8_0_split
I0130 22:18:36.987784 109299 net.cpp:151] Top shape: 50 2 (100)
I0130 22:18:36.987787 109299 net.cpp:151] Top shape: 50 2 (100)
I0130 22:18:36.987789 109299 net.cpp:159] Memory required for data: 416583200
I0130 22:18:36.987792 109299 layer_factory.hpp:77] Creating layer loss
I0130 22:18:36.987797 109299 net.cpp:94] Creating Layer loss
I0130 22:18:36.987802 109299 net.cpp:435] loss <- fc8_fc8_0_split_0
I0130 22:18:36.987805 109299 net.cpp:435] loss <- label_data_1_split_0
I0130 22:18:36.987812 109299 net.cpp:409] loss -> loss
…
