…
I0109 19:09:10.566453  2801 caffe_interface.cpp:70] GPU device name: Tesla K80
I0109 19:09:10.566833  2801 net.cpp:323] The NetState phase (1) differed from the phase (0) specified by a rule in layer data
I0109 19:09:10.567052  2801 net.cpp:52] Initializing net from parameters: 
state {
  phase: TEST
}
layer {
  name: "data"
  type: "Data"
  top: "data"
  top: "label"
  include {
    phase: TEST
  }
  transform_param {
    mirror: false
    mean_value: 125
    mean_value: 123
    mean_value: 114
  }
  data_param {
    source: "/home/ML/cifar10/input/lmdb/valid_lmdb"
    batch_size: 50
    backend: LMDB
  }
}
layer {
  name: "conv1"
  type: "Convolution"
  bottom: "data"
  top: "conv1"
  param {
    lr_mult: 1
    decay_mult: 1
  }
  param {
    lr_mult: 2
    decay_mult: 0
  }
  convolution_param {
    num_output: 32
    pad: 1
    kernel_size: 3
    stride: 1
    weight_filler {
      type: "xavier"
    }
    bias_filler {
      type: "constant"
      value: 0
    }
  }
}
layer {
  name: "bn1"
  type: "BatchNorm"
  bottom: "conv1"
  top: "scale1"
  param {
    lr_mult: 1
    decay_mult: 0
  }
  param {
    lr_mult: 1
    decay_mult: 0
  }
  param {
    lr_mult: 0
    decay_mult: 0
  }
  param {
    lr_mult: 0
    decay_mult: 0
  }
  batch_norm_param {
    use_global_stats: false
    scale_filler {
      type: "constant"
      value: 1
    }
    bias_filler {
      type: "constant"
      value: 0
    }
  }
}
layer {
  name: "relu1"
  type: "ReLU"
  bottom: "scale1"
  top: "relu1"
}
layer {
  name: "conv2"
  type: "Convolution"
  bottom: "relu1"
  top: "conv2"
  param {
    lr_mult: 1
    decay_mult: 1
  }
  param {
    lr_mult: 2
    decay_mult: 0
  }
  convolution_param {
    num_output: 32
    pad: 1
    kernel_size: 3
    stride: 1
    weight_filler {
      type: "xavier"
    }
    bias_filler {
      type: "constant"
      value: 0
    }
  }
}
layer {
  name: "bn2"
  type: "BatchNorm"
  bottom: "conv2"
  top: "scale2"
  param {
    lr_mult: 1
    decay_mult: 0
  }
  param {
    lr_mult: 1
    decay_mult: 0
  }
  param {
    lr_mult: 0
    decay_mult: 0
  }
  param {
    lr_mult: 0
    decay_mult: 0
  }
  batch_norm_param {
    use_global_stats: false
    scale_filler {
      type: "constant"
      value: 1
    }
    bias_filler {
      type: "constant"
      value: 0
    }
  }
}
layer {
  name: "relu2"
  type: "ReLU"
  bottom: "scale2"
  top: "relu2"
}
layer {
  name: "pool1"
  type: "Pooling"
  bottom: "relu2"
  top: "pool1"
  pooling_param {
    pool: MAX
    kernel_size: 2
    stride: 2
  }
}
layer {
  name: "drop1"
  type: "Dropout"
  bottom: "pool1"
  top: "drop1"
  dropout_param {
    dropout_ratio: 0.25
  }
}
layer {
  name: "conv3"
  type: "Convolution"
  bottom: "drop1"
  top: "conv3"
  param {
    lr_mult: 1
    decay_mult: 1
  }
  param {
    lr_mult: 2
    decay_mult: 0
  }
  convolution_param {
    num_output: 64
    pad: 1
    kernel_size: 3
    stride: 1
    weight_filler {
      type: "xavier"
    }
    bias_filler {
      type: "constant"
      value: 0
    }
  }
}
layer {
  name: "bn3"
  type: "BatchNorm"
  bottom: "conv3"
  top: "scale3"
  param {
    lr_mult: 1
    decay_mult: 0
  }
  param {
    lr_mult: 1
    decay_mult: 0
  }
  param {
    lr_mult: 0
    decay_mult: 0
  }
  param {
    lr_mult: 0
    decay_mult: 0
  }
  batch_norm_param {
    use_global_stats: false
    scale_filler {
      type: "constant"
      value: 1
    }
    bias_filler {
      type: "constant"
      value: 0
    }
  }
}
layer {
  name: "relu3"
  type: "ReLU"
  bottom: "scale3"
  top: "relu3"
}
layer {
  name: "conv4"
  type: "Convolution"
  bottom: "relu3"
  top: "conv4"
  param {
    lr_mult: 1
    decay_mult: 1
  }
  param {
    lr_mult: 2
    decay_mult: 0
  }
  convolution_param {
    num_output: 64
    pad: 1
    kernel_size: 3
    stride: 1
    weight_filler {
      type: "xavier"
    }
    bias_filler {
      type: "constant"
      value: 0
    }
  }
}
layer {
  name: "bn4"
  type: "BatchNorm"
  bottom: "conv4"
  top: "scale4"
  param {
    lr_mult: 1
    decay_mult: 0
  }
  param {
    lr_mult: 1
    decay_mult: 0
  }
  param {
    lr_mult: 0
    decay_mult: 0
  }
  param {
    lr_mult: 0
    decay_mult: 0
  }
  batch_norm_param {
    use_global_stats: false
    scale_filler {
      type: "constant"
      value: 1
    }
    bias_filler {
      type: "constant"
      value: 0
    }
  }
}
layer {
  name: "relu4"
  type: "ReLU"
  bottom: "scale4"
  top: "relu4"
}
layer {
  name: "pool2"
  type: "Pooling"
  bottom: "relu4"
  top: "pool2"
  pooling_param {
    pool: MAX
    kernel_size: 2
    stride: 2
  }
}
layer {
  name: "drop2"
  type: "Dropout"
  bottom: "pool2"
  top: "drop2"
  dropout_param {
    dropout_ratio: 0.25
  }
}
layer {
  name: "fc1"
  type: "InnerProduct"
  bottom: "drop2"
  top: "fc1"
  param {
    lr_mult: 1
    decay_mult: 1
  }
  param {
    lr_mult: 2
    decay_mult: 0
  }
  inner_product_param {
    num_output: 512
    weight_filler {
      type: "xavier"
    }
    bias_filler {
      type: "constant"
      value: 1
    }
  }
}
layer {
  name: "bn5"
  type: "BatchNorm"
  bottom: "fc1"
  top: "scale5"
  param {
    lr_mult: 1
    decay_mult: 0
  }
  param {
    lr_mult: 1
    decay_mult: 0
  }
  param {
    lr_mult: 0
    decay_mult: 0
  }
  param {
    lr_mult: 0
    decay_mult: 0
  }
  batch_norm_param {
    use_global_stats: false
    scale_filler {
      type: "constant"
      value: 1
    }
    bias_filler {
      type: "constant"
      value: 0
    }
  }
}
layer {
  name: "relu5"
  type: "ReLU"
  bottom: "scale5"
  top: "relu5"
}
layer {
  name: "drop3"
  type: "Dropout"
  bottom: "relu5"
  top: "drop3"
  dropout_param {
    dropout_ratio: 0.5
  }
}
layer {
  name: "fc2"
  type: "InnerProduct"
  bottom: "drop3"
  top: "fc2"
  param {
    lr_mult: 1
    decay_mult: 1
  }
  param {
    lr_mult: 2
    decay_mult: 0
  }
  inner_product_param {
    num_output: 10
    weight_filler {
      type: "xavier"
    }
    bias_filler {
      type: "constant"
      value: 1
    }
  }
}
layer {
  name: "loss"
  type: "SoftmaxWithLoss"
  bottom: "fc2"
  bottom: "label"
  top: "loss"
}
layer {
  name: "accuracy-top1"
  type: "Accuracy"
  bottom: "fc2"
  bottom: "label"
  top: "top-1"
  include {
    phase: TEST
  }
}
layer {
  name: "accuracy-top5"
  type: "Accuracy"
  bottom: "fc2"
  bottom: "label"
  top: "top-5"
  include {
    phase: TEST
  }
  accuracy_param {
    top_k: 5
  }
}
I0109 19:09:10.567184  2801 layer_factory.hpp:77] Creating layer data
I0109 19:09:10.567301  2801 internal_thread.cpp:27] Starting internal thread(s) on GPU 0
I0109 19:09:10.567400  2801 net.cpp:94] Creating Layer data
I0109 19:09:10.567420  2801 net.cpp:409] data -> data
I0109 19:09:10.567435  2801 net.cpp:409] data -> label
I0109 19:09:10.568363  2828 db_lmdb.cpp:35] Opened lmdb /home/ML/cifar10/input/lmdb/valid_lmdb
I0109 19:09:10.568403  2828 data_reader.cpp:117] TEST: reading data using 1 channel(s)
I0109 19:09:10.568476  2801 data_layer.cpp:78] ReshapePrefetch 50, 3, 32, 32
I0109 19:09:10.568572  2801 data_layer.cpp:83] output data size: 50,3,32,32
I0109 19:09:10.573971  2801 internal_thread.cpp:27] Starting internal thread(s) on GPU 0
I0109 19:09:10.574030  2801 net.cpp:144] Setting up data
I0109 19:09:10.574049  2801 net.cpp:151] Top shape: 50 3 32 32 (153600)
I0109 19:09:10.574059  2801 net.cpp:151] Top shape: 50 (50)
I0109 19:09:10.574064  2801 net.cpp:159] Memory required for data: 614600
I0109 19:09:10.574084  2801 layer_factory.hpp:77] Creating layer label_data_1_split
I0109 19:09:10.574098  2801 net.cpp:94] Creating Layer label_data_1_split
I0109 19:09:10.574112  2801 net.cpp:435] label_data_1_split <- label
I0109 19:09:10.574124  2801 net.cpp:409] label_data_1_split -> label_data_1_split_0
I0109 19:09:10.574146  2801 net.cpp:409] label_data_1_split -> label_data_1_split_1
I0109 19:09:10.574158  2801 net.cpp:409] label_data_1_split -> label_data_1_split_2
I0109 19:09:10.574240  2801 net.cpp:144] Setting up label_data_1_split
I0109 19:09:10.574256  2801 net.cpp:151] Top shape: 50 (50)
I0109 19:09:10.574283  2801 net.cpp:151] Top shape: 50 (50)
I0109 19:09:10.574292  2801 net.cpp:151] Top shape: 50 (50)
I0109 19:09:10.574298  2801 net.cpp:159] Memory required for data: 615200
I0109 19:09:10.574304  2801 layer_factory.hpp:77] Creating layer conv1
I0109 19:09:10.574322  2801 net.cpp:94] Creating Layer conv1
I0109 19:09:10.574331  2801 net.cpp:435] conv1 <- data
I0109 19:09:10.574340  2801 net.cpp:409] conv1 -> conv1
I0109 19:09:10.575222  2801 net.cpp:144] Setting up conv1
I0109 19:09:10.575244  2801 net.cpp:151] Top shape: 50 32 32 32 (1638400)
I0109 19:09:10.575253  2801 net.cpp:159] Memory required for data: 7168800
I0109 19:09:10.575268  2801 layer_factory.hpp:77] Creating layer bn1
I0109 19:09:10.575282  2801 net.cpp:94] Creating Layer bn1
I0109 19:09:10.575292  2801 net.cpp:435] bn1 <- conv1
I0109 19:09:10.575302  2801 net.cpp:409] bn1 -> scale1
I0109 19:09:10.576287  2801 net.cpp:144] Setting up bn1
I0109 19:09:10.576304  2801 net.cpp:151] Top shape: 50 32 32 32 (1638400)
I0109 19:09:10.576313  2801 net.cpp:159] Memory required for data: 13722400
I0109 19:09:10.576333  2801 layer_factory.hpp:77] Creating layer relu1
I0109 19:09:10.576346  2801 net.cpp:94] Creating Layer relu1
I0109 19:09:10.576354  2801 net.cpp:435] relu1 <- scale1
I0109 19:09:10.576364  2801 net.cpp:409] relu1 -> relu1
I0109 19:09:10.576452  2801 net.cpp:144] Setting up relu1
I0109 19:09:10.576469  2801 net.cpp:151] Top shape: 50 32 32 32 (1638400)
I0109 19:09:10.576478  2801 net.cpp:159] Memory required for data: 20276000
I0109 19:09:10.576485  2801 layer_factory.hpp:77] Creating layer conv2
I0109 19:09:10.576501  2801 net.cpp:94] Creating Layer conv2
I0109 19:09:10.576509  2801 net.cpp:435] conv2 <- relu1
I0109 19:09:10.576521  2801 net.cpp:409] conv2 -> conv2
I0109 19:09:10.577394  2801 net.cpp:144] Setting up conv2
I0109 19:09:10.577420  2801 net.cpp:151] Top shape: 50 32 32 32 (1638400)
I0109 19:09:10.577428  2801 net.cpp:159] Memory required for data: 26829600
I0109 19:09:10.577442  2801 layer_factory.hpp:77] Creating layer bn2
I0109 19:09:10.577458  2801 net.cpp:94] Creating Layer bn2
I0109 19:09:10.577466  2801 net.cpp:435] bn2 <- conv2
I0109 19:09:10.577476  2801 net.cpp:409] bn2 -> scale2
I0109 19:09:10.578379  2801 net.cpp:144] Setting up bn2
I0109 19:09:10.578399  2801 net.cpp:151] Top shape: 50 32 32 32 (1638400)
I0109 19:09:10.578408  2801 net.cpp:159] Memory required for data: 33383200
I0109 19:09:10.578423  2801 layer_factory.hpp:77] Creating layer relu2
I0109 19:09:10.578435  2801 net.cpp:94] Creating Layer relu2
I0109 19:09:10.578444  2801 net.cpp:435] relu2 <- scale2
I0109 19:09:10.578454  2801 net.cpp:409] relu2 -> relu2
I0109 19:09:10.578500  2801 net.cpp:144] Setting up relu2
I0109 19:09:10.578519  2801 net.cpp:151] Top shape: 50 32 32 32 (1638400)
I0109 19:09:10.578528  2801 net.cpp:159] Memory required for data: 39936800
I0109 19:09:10.578534  2801 layer_factory.hpp:77] Creating layer pool1
I0109 19:09:10.578549  2801 net.cpp:94] Creating Layer pool1
I0109 19:09:10.578557  2801 net.cpp:435] pool1 <- relu2
I0109 19:09:10.578567  2801 net.cpp:409] pool1 -> pool1
I0109 19:09:10.578667  2801 net.cpp:144] Setting up pool1
I0109 19:09:10.578686  2801 net.cpp:151] Top shape: 50 32 16 16 (409600)
I0109 19:09:10.578694  2801 net.cpp:159] Memory required for data: 41575200
I0109 19:09:10.578702  2801 layer_factory.hpp:77] Creating layer drop1
I0109 19:09:10.578713  2801 net.cpp:94] Creating Layer drop1
I0109 19:09:10.578722  2801 net.cpp:435] drop1 <- pool1
I0109 19:09:10.578730  2801 net.cpp:409] drop1 -> drop1
I0109 19:09:10.578783  2801 net.cpp:144] Setting up drop1
I0109 19:09:10.578799  2801 net.cpp:151] Top shape: 50 32 16 16 (409600)
I0109 19:09:10.578805  2801 net.cpp:159] Memory required for data: 43213600
I0109 19:09:10.578811  2801 layer_factory.hpp:77] Creating layer conv3
I0109 19:09:10.578830  2801 net.cpp:94] Creating Layer conv3
I0109 19:09:10.578836  2801 net.cpp:435] conv3 <- drop1
I0109 19:09:10.578846  2801 net.cpp:409] conv3 -> conv3
I0109 19:09:10.579798  2801 net.cpp:144] Setting up conv3
I0109 19:09:10.579854  2801 net.cpp:151] Top shape: 50 64 16 16 (819200)
I0109 19:09:10.579862  2801 net.cpp:159] Memory required for data: 46490400
I0109 19:09:10.579874  2801 layer_factory.hpp:77] Creating layer bn3
I0109 19:09:10.579890  2801 net.cpp:94] Creating Layer bn3
I0109 19:09:10.579900  2801 net.cpp:435] bn3 <- conv3
I0109 19:09:10.579910  2801 net.cpp:409] bn3 -> scale3
I0109 19:09:10.580569  2801 net.cpp:144] Setting up bn3
I0109 19:09:10.580590  2801 net.cpp:151] Top shape: 50 64 16 16 (819200)
I0109 19:09:10.580600  2801 net.cpp:159] Memory required for data: 49767200
I0109 19:09:10.580621  2801 layer_factory.hpp:77] Creating layer relu3
I0109 19:09:10.580632  2801 net.cpp:94] Creating Layer relu3
I0109 19:09:10.580639  2801 net.cpp:435] relu3 <- scale3
I0109 19:09:10.580651  2801 net.cpp:409] relu3 -> relu3
I0109 19:09:10.580688  2801 net.cpp:144] Setting up relu3
I0109 19:09:10.580705  2801 net.cpp:151] Top shape: 50 64 16 16 (819200)
I0109 19:09:10.580721  2801 net.cpp:159] Memory required for data: 53044000
I0109 19:09:10.580730  2801 layer_factory.hpp:77] Creating layer conv4
I0109 19:09:10.580745  2801 net.cpp:94] Creating Layer conv4
I0109 19:09:10.580754  2801 net.cpp:435] conv4 <- relu3
I0109 19:09:10.580765  2801 net.cpp:409] conv4 -> conv4
I0109 19:09:10.581270  2801 net.cpp:144] Setting up conv4
I0109 19:09:10.581321  2801 net.cpp:151] Top shape: 50 64 16 16 (819200)
I0109 19:09:10.581362  2801 net.cpp:159] Memory required for data: 56320800
I0109 19:09:10.581406  2801 layer_factory.hpp:77] Creating layer bn4
I0109 19:09:10.581455  2801 net.cpp:94] Creating Layer bn4
I0109 19:09:10.581496  2801 net.cpp:435] bn4 <- conv4
I0109 19:09:10.581538  2801 net.cpp:409] bn4 -> scale4
I0109 19:09:10.582728  2801 net.cpp:144] Setting up bn4
I0109 19:09:10.582754  2801 net.cpp:151] Top shape: 50 64 16 16 (819200)
I0109 19:09:10.582815  2801 net.cpp:159] Memory required for data: 59597600
I0109 19:09:10.582864  2801 layer_factory.hpp:77] Creating layer relu4
I0109 19:09:10.582911  2801 net.cpp:94] Creating Layer relu4
I0109 19:09:10.582957  2801 net.cpp:435] relu4 <- scale4
I0109 19:09:10.583000  2801 net.cpp:409] relu4 -> relu4
I0109 19:09:10.583076  2801 net.cpp:144] Setting up relu4
I0109 19:09:10.583118  2801 net.cpp:151] Top shape: 50 64 16 16 (819200)
I0109 19:09:10.583158  2801 net.cpp:159] Memory required for data: 62874400
I0109 19:09:10.583204  2801 layer_factory.hpp:77] Creating layer pool2
I0109 19:09:10.583254  2801 net.cpp:94] Creating Layer pool2
I0109 19:09:10.583297  2801 net.cpp:435] pool2 <- relu4
I0109 19:09:10.583340  2801 net.cpp:409] pool2 -> pool2
I0109 19:09:10.583434  2801 net.cpp:144] Setting up pool2
I0109 19:09:10.583474  2801 net.cpp:151] Top shape: 50 64 8 8 (204800)
I0109 19:09:10.583513  2801 net.cpp:159] Memory required for data: 63693600
I0109 19:09:10.583564  2801 layer_factory.hpp:77] Creating layer drop2
I0109 19:09:10.583606  2801 net.cpp:94] Creating Layer drop2
I0109 19:09:10.583652  2801 net.cpp:435] drop2 <- pool2
I0109 19:09:10.583696  2801 net.cpp:409] drop2 -> drop2
I0109 19:09:10.583791  2801 net.cpp:144] Setting up drop2
I0109 19:09:10.583839  2801 net.cpp:151] Top shape: 50 64 8 8 (204800)
I0109 19:09:10.583858  2801 net.cpp:159] Memory required for data: 64512800
I0109 19:09:10.583865  2801 layer_factory.hpp:77] Creating layer fc1
I0109 19:09:10.583942  2801 net.cpp:94] Creating Layer fc1
I0109 19:09:10.583974  2801 net.cpp:435] fc1 <- drop2
I0109 19:09:10.584012  2801 net.cpp:409] fc1 -> fc1
I0109 19:09:10.604933  2801 net.cpp:144] Setting up fc1
I0109 19:09:10.604960  2801 net.cpp:151] Top shape: 50 512 (25600)
I0109 19:09:10.604965  2801 net.cpp:159] Memory required for data: 64615200
I0109 19:09:10.604974  2801 layer_factory.hpp:77] Creating layer bn5
I0109 19:09:10.604988  2801 net.cpp:94] Creating Layer bn5
I0109 19:09:10.605006  2801 net.cpp:435] bn5 <- fc1
I0109 19:09:10.605020  2801 net.cpp:409] bn5 -> scale5
I0109 19:09:10.605655  2801 net.cpp:144] Setting up bn5
I0109 19:09:10.605674  2801 net.cpp:151] Top shape: 50 512 (25600)
I0109 19:09:10.605679  2801 net.cpp:159] Memory required for data: 64717600
I0109 19:09:10.605722  2801 layer_factory.hpp:77] Creating layer relu5
I0109 19:09:10.605744  2801 net.cpp:94] Creating Layer relu5
I0109 19:09:10.605752  2801 net.cpp:435] relu5 <- scale5
I0109 19:09:10.605764  2801 net.cpp:409] relu5 -> relu5
I0109 19:09:10.605813  2801 net.cpp:144] Setting up relu5
I0109 19:09:10.605831  2801 net.cpp:151] Top shape: 50 512 (25600)
I0109 19:09:10.605837  2801 net.cpp:159] Memory required for data: 64820000
I0109 19:09:10.605842  2801 layer_factory.hpp:77] Creating layer drop3
I0109 19:09:10.605854  2801 net.cpp:94] Creating Layer drop3
I0109 19:09:10.605870  2801 net.cpp:435] drop3 <- relu5
I0109 19:09:10.605880  2801 net.cpp:409] drop3 -> drop3
I0109 19:09:10.605932  2801 net.cpp:144] Setting up drop3
I0109 19:09:10.605947  2801 net.cpp:151] Top shape: 50 512 (25600)
I0109 19:09:10.605952  2801 net.cpp:159] Memory required for data: 64922400
I0109 19:09:10.605955  2801 layer_factory.hpp:77] Creating layer fc2
I0109 19:09:10.605968  2801 net.cpp:94] Creating Layer fc2
I0109 19:09:10.605983  2801 net.cpp:435] fc2 <- drop3
I0109 19:09:10.605995  2801 net.cpp:409] fc2 -> fc2
I0109 19:09:10.606161  2801 net.cpp:144] Setting up fc2
I0109 19:09:10.606178  2801 net.cpp:151] Top shape: 50 10 (500)
I0109 19:09:10.606181  2801 net.cpp:159] Memory required for data: 64924400
I0109 19:09:10.606189  2801 layer_factory.hpp:77] Creating layer fc2_fc2_0_split
I0109 19:09:10.606200  2801 net.cpp:94] Creating Layer fc2_fc2_0_split
I0109 19:09:10.606228  2801 net.cpp:435] fc2_fc2_0_split <- fc2
I0109 19:09:10.606248  2801 net.cpp:409] fc2_fc2_0_split -> fc2_fc2_0_split_0
I0109 19:09:10.606262  2801 net.cpp:409] fc2_fc2_0_split -> fc2_fc2_0_split_1
I0109 19:09:10.606272  2801 net.cpp:409] fc2_fc2_0_split -> fc2_fc2_0_split_2
I0109 19:09:10.606346  2801 net.cpp:144] Setting up fc2_fc2_0_split
I0109 19:09:10.606362  2801 net.cpp:151] Top shape: 50 10 (500)
I0109 19:09:10.606371  2801 net.cpp:151] Top shape: 50 10 (500)
I0109 19:09:10.606379  2801 net.cpp:151] Top shape: 50 10 (500)
I0109 19:09:10.606384  2801 net.cpp:159] Memory required for data: 64930400
I0109 19:09:10.606396  2801 layer_factory.hpp:77] Creating layer loss
I0109 19:09:10.606408  2801 net.cpp:94] Creating Layer loss
I0109 19:09:10.606417  2801 net.cpp:435] loss <- fc2_fc2_0_split_0
I0109 19:09:10.606432  2801 net.cpp:435] loss <- label_data_1_split_0
I0109 19:09:10.606444  2801 net.cpp:409] loss -> loss
…
I0109 19:09:12.338047  2836 net.cpp:323] The NetState phase (0) differed from the phase (1) specified by a rule in layer accuracy-top1
I0109 19:09:12.338052  2836 net.cpp:323] The NetState phase (0) differed from the phase (1) specified by a rule in layer accuracy-top5
I0109 19:09:12.338227  2836 net.cpp:52] Initializing net from parameters: 
state {
  phase: TRAIN
}
layer {
  name: "data"
  type: "Data"
  top: "data"
  top: "label"
  include {
    phase: TRAIN
  }
  transform_param {
    mirror: true
    mean_value: 125
    mean_value: 123
    mean_value: 114
  }
  data_param {
    source: "/home/ML/cifar10/input/lmdb/train_lmdb"
    batch_size: 128
    backend: LMDB
  }
}
layer {
  name: "conv1"
  type: "Convolution"
  bottom: "data"
  top: "conv1"
  param {
    lr_mult: 1
    decay_mult: 1
    compression: PRUNE
  }
  param {
    lr_mult: 2
    decay_mult: 0
    compression: PRUNE
  }
  convolution_param {
    num_output: 32
    pad: 1
    kernel_size: 3
    stride: 1
    weight_filler {
      type: "xavier"
    }
    bias_filler {
      type: "constant"
      value: 0
    }
  }
}
layer {
  name: "bn1"
  type: "BatchNorm"
  bottom: "conv1"
  top: "scale1"
  param {
    lr_mult: 1
    decay_mult: 0
    compression: PRUNE
  }
  param {
    lr_mult: 1
    decay_mult: 0
    compression: PRUNE
  }
  param {
    lr_mult: 0
    decay_mult: 0
    compression: PRUNE
  }
  param {
    lr_mult: 0
    decay_mult: 0
    compression: PRUNE
  }
  batch_norm_param {
    use_global_stats: false
    scale_filler {
      type: "constant"
      value: 1
    }
    bias_filler {
      type: "constant"
      value: 0
    }
  }
}
layer {
  name: "relu1"
  type: "ReLU"
  bottom: "scale1"
  top: "relu1"
}
layer {
  name: "conv2"
  type: "Convolution"
  bottom: "relu1"
  top: "conv2"
  param {
    lr_mult: 1
    decay_mult: 1
    compression: PRUNE
  }
  param {
    lr_mult: 2
    decay_mult: 0
    compression: PRUNE
  }
  convolution_param {
    num_output: 32
    pad: 1
    kernel_size: 3
    stride: 1
    weight_filler {
      type: "xavier"
    }
    bias_filler {
      type: "constant"
      value: 0
    }
  }
}
layer {
  name: "bn2"
  type: "BatchNorm"
  bottom: "conv2"
  top: "scale2"
  param {
    lr_mult: 1
    decay_mult: 0
    compression: PRUNE
  }
  param {
    lr_mult: 1
    decay_mult: 0
    compression: PRUNE
  }
  param {
    lr_mult: 0
    decay_mult: 0
    compression: PRUNE
  }
  param {
    lr_mult: 0
    decay_mult: 0
    compression: PRUNE
  }
  batch_norm_param {
    use_global_stats: false
    scale_filler {
      type: "constant"
      value: 1
    }
    bias_filler {
      type: "constant"
      value: 0
    }
  }
}
layer {
  name: "relu2"
  type: "ReLU"
  bottom: "scale2"
  top: "relu2"
}
layer {
  name: "pool1"
  type: "Pooling"
  bottom: "relu2"
  top: "pool1"
  pooling_param {
    pool: MAX
    kernel_size: 2
    stride: 2
  }
}
layer {
  name: "drop1"
  type: "Dropout"
  bottom: "pool1"
  top: "drop1"
  dropout_param {
    dropout_ratio: 0.25
  }
}
layer {
  name: "conv3"
  type: "Convolution"
  bottom: "drop1"
  top: "conv3"
  param {
    lr_mult: 1
    decay_mult: 1
    compression: PRUNE
  }
  param {
    lr_mult: 2
    decay_mult: 0
    compression: PRUNE
  }
  convolution_param {
    num_output: 64
    pad: 1
    kernel_size: 3
    stride: 1
    weight_filler {
      type: "xavier"
    }
    bias_filler {
      type: "constant"
      value: 0
    }
  }
}
layer {
  name: "bn3"
  type: "BatchNorm"
  bottom: "conv3"
  top: "scale3"
  param {
    lr_mult: 1
    decay_mult: 0
    compression: PRUNE
  }
  param {
    lr_mult: 1
    decay_mult: 0
    compression: PRUNE
  }
  param {
    lr_mult: 0
    decay_mult: 0
    compression: PRUNE
  }
  param {
    lr_mult: 0
    decay_mult: 0
    compression: PRUNE
  }
  batch_norm_param {
    use_global_stats: false
    scale_filler {
      type: "constant"
      value: 1
    }
    bias_filler {
      type: "constant"
      value: 0
    }
  }
}
layer {
  name: "relu3"
  type: "ReLU"
  bottom: "scale3"
  top: "relu3"
}
layer {
  name: "conv4"
  type: "Convolution"
  bottom: "relu3"
  top: "conv4"
  param {
    lr_mult: 1
    decay_mult: 1
    compression: PRUNE
  }
  param {
    lr_mult: 2
    decay_mult: 0
    compression: PRUNE
  }
  convolution_param {
    num_output: 64
    pad: 1
    kernel_size: 3
    stride: 1
    weight_filler {
      type: "xavier"
    }
    bias_filler {
      type: "constant"
      value: 0
    }
  }
}
layer {
  name: "bn4"
  type: "BatchNorm"
  bottom: "conv4"
  top: "scale4"
  param {
    lr_mult: 1
    decay_mult: 0
    compression: PRUNE
  }
  param {
    lr_mult: 1
    decay_mult: 0
    compression: PRUNE
  }
  param {
    lr_mult: 0
    decay_mult: 0
    compression: PRUNE
  }
  param {
    lr_mult: 0
    decay_mult: 0
    compression: PRUNE
  }
  batch_norm_param {
    use_global_stats: false
    scale_filler {
      type: "constant"
      value: 1
    }
    bias_filler {
      type: "constant"
      value: 0
    }
  }
}
layer {
  name: "relu4"
  type: "ReLU"
  bottom: "scale4"
  top: "relu4"
}
layer {
  name: "pool2"
  type: "Pooling"
  bottom: "relu4"
  top: "pool2"
  pooling_param {
    pool: MAX
    kernel_size: 2
    stride: 2
  }
}
layer {
  name: "drop2"
  type: "Dropout"
  bottom: "pool2"
  top: "drop2"
  dropout_param {
    dropout_ratio: 0.25
  }
}
layer {
  name: "fc1"
  type: "InnerProduct"
  bottom: "drop2"
  top: "fc1"
  param {
    lr_mult: 1
    decay_mult: 1
  }
  param {
    lr_mult: 2
    decay_mult: 0
  }
  inner_product_param {
    num_output: 512
    weight_filler {
      type: "xavier"
    }
    bias_filler {
      type: "constant"
      value: 1
    }
  }
}
layer {
  name: "bn5"
  type: "BatchNorm"
  bottom: "fc1"
  top: "scale5"
  param {
    lr_mult: 1
    decay_mult: 0
    compression: PRUNE
  }
  param {
    lr_mult: 1
    decay_mult: 0
    compression: PRUNE
  }
  param {
    lr_mult: 0
    decay_mult: 0
    compression: PRUNE
  }
  param {
    lr_mult: 0
    decay_mult: 0
    compression: PRUNE
  }
  batch_norm_param {
    use_global_stats: false
    scale_filler {
      type: "constant"
      value: 1
    }
    bias_filler {
      type: "constant"
      value: 0
    }
  }
}
layer {
  name: "relu5"
  type: "ReLU"
  bottom: "scale5"
  top: "relu5"
}
layer {
  name: "drop3"
  type: "Dropout"
  bottom: "relu5"
  top: "drop3"
  dropout_param {
    dropout_ratio: 0.5
  }
}
layer {
  name: "fc2"
  type: "InnerProduct"
  bottom: "drop3"
  top: "fc2"
  param {
    lr_mult: 1
    decay_mult: 1
  }
  param {
    lr_mult: 2
    decay_mult: 0
  }
  inner_product_param {
    num_output: 10
    weight_filler {
      type: "xavier"
    }
    bias_filler {
      type: "constant"
      value: 1
    }
  }
}
layer {
  name: "loss"
  type: "SoftmaxWithLoss"
  bottom: "fc2"
  bottom: "label"
  top: "loss"
}
I0109 19:09:12.338321  2836 layer_factory.hpp:77] Creating layer data
I0109 19:09:12.338452  2836 internal_thread.cpp:27] Starting internal thread(s) on GPU 0
I0109 19:09:12.338677  2836 net.cpp:94] Creating Layer data
I0109 19:09:12.338718  2836 net.cpp:409] data -> data
I0109 19:09:12.338781  2836 net.cpp:409] data -> label
I0109 19:09:12.339913  2848 db_lmdb.cpp:35] Opened lmdb /home/ML/cifar10/input/lmdb/train_lmdb
I0109 19:09:12.339963  2848 data_reader.cpp:117] TRAIN: reading data using 1 channel(s)
I0109 19:09:12.340134  2836 data_layer.cpp:78] ReshapePrefetch 128, 3, 32, 32
I0109 19:09:12.340241  2836 data_layer.cpp:83] output data size: 128,3,32,32
I0109 19:09:12.351236  2836 internal_thread.cpp:27] Starting internal thread(s) on GPU 0
I0109 19:09:12.351935  2836 net.cpp:144] Setting up data
I0109 19:09:12.351953  2836 net.cpp:151] Top shape: 128 3 32 32 (393216)
I0109 19:09:12.351959  2836 net.cpp:151] Top shape: 128 (128)
I0109 19:09:12.351963  2836 net.cpp:159] Memory required for data: 1573376
I0109 19:09:12.351969  2836 layer_factory.hpp:77] Creating layer conv1
I0109 19:09:12.351994  2836 net.cpp:94] Creating Layer conv1
I0109 19:09:12.352003  2836 net.cpp:435] conv1 <- data
I0109 19:09:12.352078  2836 net.cpp:409] conv1 -> conv1
I0109 19:09:12.353631  2836 net.cpp:144] Setting up conv1
I0109 19:09:12.353654  2836 net.cpp:151] Top shape: 128 32 32 32 (4194304)
I0109 19:09:12.353662  2836 net.cpp:159] Memory required for data: 18350592
I0109 19:09:12.353760  2836 layer_factory.hpp:77] Creating layer bn1
I0109 19:09:12.353786  2836 net.cpp:94] Creating Layer bn1
I0109 19:09:12.353828  2836 net.cpp:435] bn1 <- conv1
I0109 19:09:12.353910  2836 net.cpp:409] bn1 -> scale1
I0109 19:09:12.354915  2836 net.cpp:144] Setting up bn1
I0109 19:09:12.354969  2836 net.cpp:151] Top shape: 128 32 32 32 (4194304)
I0109 19:09:12.355020  2836 net.cpp:159] Memory required for data: 35127808
I0109 19:09:12.355077  2836 layer_factory.hpp:77] Creating layer relu1
I0109 19:09:12.355119  2836 net.cpp:94] Creating Layer relu1
I0109 19:09:12.355162  2836 net.cpp:435] relu1 <- scale1
I0109 19:09:12.355209  2836 net.cpp:409] relu1 -> relu1
I0109 19:09:12.355298  2836 net.cpp:144] Setting up relu1
I0109 19:09:12.355350  2836 net.cpp:151] Top shape: 128 32 32 32 (4194304)
I0109 19:09:12.355392  2836 net.cpp:159] Memory required for data: 51905024
I0109 19:09:12.355443  2836 layer_factory.hpp:77] Creating layer conv2
I0109 19:09:12.355496  2836 net.cpp:94] Creating Layer conv2
I0109 19:09:12.355516  2836 net.cpp:435] conv2 <- relu1
I0109 19:09:12.355528  2836 net.cpp:409] conv2 -> conv2
I0109 19:09:12.356688  2836 net.cpp:144] Setting up conv2
I0109 19:09:12.356717  2836 net.cpp:151] Top shape: 128 32 32 32 (4194304)
I0109 19:09:12.356727  2836 net.cpp:159] Memory required for data: 68682240
I0109 19:09:12.356775  2836 layer_factory.hpp:77] Creating layer bn2
I0109 19:09:12.356832  2836 net.cpp:94] Creating Layer bn2
I0109 19:09:12.356878  2836 net.cpp:435] bn2 <- conv2
I0109 19:09:12.356923  2836 net.cpp:409] bn2 -> scale2
I0109 19:09:12.357933  2836 net.cpp:144] Setting up bn2
I0109 19:09:12.357990  2836 net.cpp:151] Top shape: 128 32 32 32 (4194304)
I0109 19:09:12.358034  2836 net.cpp:159] Memory required for data: 85459456
I0109 19:09:12.358086  2836 layer_factory.hpp:77] Creating layer relu2
I0109 19:09:12.358132  2836 net.cpp:94] Creating Layer relu2
I0109 19:09:12.358151  2836 net.cpp:435] relu2 <- scale2
I0109 19:09:12.358163  2836 net.cpp:409] relu2 -> relu2
I0109 19:09:12.358271  2836 net.cpp:144] Setting up relu2
I0109 19:09:12.358319  2836 net.cpp:151] Top shape: 128 32 32 32 (4194304)
I0109 19:09:12.358358  2836 net.cpp:159] Memory required for data: 102236672
I0109 19:09:12.358377  2836 layer_factory.hpp:77] Creating layer pool1
I0109 19:09:12.358425  2836 net.cpp:94] Creating Layer pool1
I0109 19:09:12.358469  2836 net.cpp:435] pool1 <- relu2
I0109 19:09:12.358512  2836 net.cpp:409] pool1 -> pool1
I0109 19:09:12.358618  2836 net.cpp:144] Setting up pool1
I0109 19:09:12.358635  2836 net.cpp:151] Top shape: 128 32 16 16 (1048576)
I0109 19:09:12.358642  2836 net.cpp:159] Memory required for data: 106430976
I0109 19:09:12.358711  2836 layer_factory.hpp:77] Creating layer drop1
I0109 19:09:12.358753  2836 net.cpp:94] Creating Layer drop1
I0109 19:09:12.358796  2836 net.cpp:435] drop1 <- pool1
I0109 19:09:12.358832  2836 net.cpp:409] drop1 -> drop1
I0109 19:09:12.359052  2836 net.cpp:144] Setting up drop1
I0109 19:09:12.359133  2836 net.cpp:151] Top shape: 128 32 16 16 (1048576)
I0109 19:09:12.359205  2836 net.cpp:159] Memory required for data: 110625280
I0109 19:09:12.359277  2836 layer_factory.hpp:77] Creating layer conv3
I0109 19:09:12.359351  2836 net.cpp:94] Creating Layer conv3
I0109 19:09:12.359433  2836 net.cpp:435] conv3 <- drop1
I0109 19:09:12.359477  2836 net.cpp:409] conv3 -> conv3
I0109 19:09:12.361007  2836 net.cpp:144] Setting up conv3
I0109 19:09:12.361029  2836 net.cpp:151] Top shape: 128 64 16 16 (2097152)
I0109 19:09:12.361037  2836 net.cpp:159] Memory required for data: 119013888
I0109 19:09:12.361052  2836 layer_factory.hpp:77] Creating layer bn3
I0109 19:09:12.361140  2836 net.cpp:94] Creating Layer bn3
I0109 19:09:12.361150  2836 net.cpp:435] bn3 <- conv3
I0109 19:09:12.361227  2836 net.cpp:409] bn3 -> scale3
I0109 19:09:12.362305  2836 net.cpp:144] Setting up bn3
I0109 19:09:12.362385  2836 net.cpp:151] Top shape: 128 64 16 16 (2097152)
I0109 19:09:12.362432  2836 net.cpp:159] Memory required for data: 127402496
I0109 19:09:12.362552  2836 layer_factory.hpp:77] Creating layer relu3
I0109 19:09:12.362627  2836 net.cpp:94] Creating Layer relu3
I0109 19:09:12.362699  2836 net.cpp:435] relu3 <- scale3
I0109 19:09:12.362768  2836 net.cpp:409] relu3 -> relu3
I0109 19:09:12.362869  2836 net.cpp:144] Setting up relu3
I0109 19:09:12.362951  2836 net.cpp:151] Top shape: 128 64 16 16 (2097152)
I0109 19:09:12.362989  2836 net.cpp:159] Memory required for data: 135791104
I0109 19:09:12.363093  2836 layer_factory.hpp:77] Creating layer conv4
I0109 19:09:12.363122  2836 net.cpp:94] Creating Layer conv4
I0109 19:09:12.363131  2836 net.cpp:435] conv4 <- relu3
I0109 19:09:12.363216  2836 net.cpp:409] conv4 -> conv4
I0109 19:09:12.364217  2836 net.cpp:144] Setting up conv4
I0109 19:09:12.364306  2836 net.cpp:151] Top shape: 128 64 16 16 (2097152)
I0109 19:09:12.364379  2836 net.cpp:159] Memory required for data: 144179712
I0109 19:09:12.364459  2836 layer_factory.hpp:77] Creating layer bn4
I0109 19:09:12.364537  2836 net.cpp:94] Creating Layer bn4
I0109 19:09:12.364552  2836 net.cpp:435] bn4 <- conv4
I0109 19:09:12.364564  2836 net.cpp:409] bn4 -> scale4
I0109 19:09:12.365703  2836 net.cpp:144] Setting up bn4
I0109 19:09:12.365725  2836 net.cpp:151] Top shape: 128 64 16 16 (2097152)
I0109 19:09:12.365733  2836 net.cpp:159] Memory required for data: 152568320
I0109 19:09:12.365814  2836 layer_factory.hpp:77] Creating layer relu4
I0109 19:09:12.365836  2836 net.cpp:94] Creating Layer relu4
I0109 19:09:12.365844  2836 net.cpp:435] relu4 <- scale4
I0109 19:09:12.365914  2836 net.cpp:409] relu4 -> relu4
I0109 19:09:12.366030  2836 net.cpp:144] Setting up relu4
I0109 19:09:12.366116  2836 net.cpp:151] Top shape: 128 64 16 16 (2097152)
I0109 19:09:12.366190  2836 net.cpp:159] Memory required for data: 160956928
I0109 19:09:12.366258  2836 layer_factory.hpp:77] Creating layer pool2
I0109 19:09:12.366330  2836 net.cpp:94] Creating Layer pool2
I0109 19:09:12.366394  2836 net.cpp:435] pool2 <- relu4
I0109 19:09:12.366462  2836 net.cpp:409] pool2 -> pool2
I0109 19:09:12.366583  2836 net.cpp:144] Setting up pool2
I0109 19:09:12.366663  2836 net.cpp:151] Top shape: 128 64 8 8 (524288)
I0109 19:09:12.366729  2836 net.cpp:159] Memory required for data: 163054080
I0109 19:09:12.366792  2836 layer_factory.hpp:77] Creating layer drop2
I0109 19:09:12.366863  2836 net.cpp:94] Creating Layer drop2
I0109 19:09:12.366930  2836 net.cpp:435] drop2 <- pool2
I0109 19:09:12.366952  2836 net.cpp:409] drop2 -> drop2
I0109 19:09:12.367044  2836 net.cpp:144] Setting up drop2
I0109 19:09:12.367065  2836 net.cpp:151] Top shape: 128 64 8 8 (524288)
I0109 19:09:12.367074  2836 net.cpp:159] Memory required for data: 165151232
I0109 19:09:12.367080  2836 layer_factory.hpp:77] Creating layer fc1
I0109 19:09:12.367158  2836 net.cpp:94] Creating Layer fc1
I0109 19:09:12.367172  2836 net.cpp:435] fc1 <- drop2
I0109 19:09:12.367247  2836 net.cpp:409] fc1 -> fc1
I0109 19:09:12.389827  2836 net.cpp:144] Setting up fc1
I0109 19:09:12.389860  2836 net.cpp:151] Top shape: 128 512 (65536)
I0109 19:09:12.389868  2836 net.cpp:159] Memory required for data: 165413376
I0109 19:09:12.389884  2836 layer_factory.hpp:77] Creating layer bn5
I0109 19:09:12.389905  2836 net.cpp:94] Creating Layer bn5
I0109 19:09:12.389914  2836 net.cpp:435] bn5 <- fc1
I0109 19:09:12.389927  2836 net.cpp:409] bn5 -> scale5
I0109 19:09:12.390578  2836 net.cpp:144] Setting up bn5
I0109 19:09:12.390600  2836 net.cpp:151] Top shape: 128 512 (65536)
I0109 19:09:12.390609  2836 net.cpp:159] Memory required for data: 165675520
I0109 19:09:12.390635  2836 layer_factory.hpp:77] Creating layer relu5
I0109 19:09:12.390655  2836 net.cpp:94] Creating Layer relu5
I0109 19:09:12.390662  2836 net.cpp:435] relu5 <- scale5
I0109 19:09:12.390674  2836 net.cpp:409] relu5 -> relu5
I0109 19:09:12.390730  2836 net.cpp:144] Setting up relu5
I0109 19:09:12.390748  2836 net.cpp:151] Top shape: 128 512 (65536)
I0109 19:09:12.390753  2836 net.cpp:159] Memory required for data: 165937664
I0109 19:09:12.390758  2836 layer_factory.hpp:77] Creating layer drop3
I0109 19:09:12.390769  2836 net.cpp:94] Creating Layer drop3
I0109 19:09:12.390784  2836 net.cpp:435] drop3 <- relu5
I0109 19:09:12.390795  2836 net.cpp:409] drop3 -> drop3
I0109 19:09:12.390847  2836 net.cpp:144] Setting up drop3
I0109 19:09:12.390861  2836 net.cpp:151] Top shape: 128 512 (65536)
I0109 19:09:12.390866  2836 net.cpp:159] Memory required for data: 166199808
I0109 19:09:12.390871  2836 layer_factory.hpp:77] Creating layer fc2
I0109 19:09:12.390884  2836 net.cpp:94] Creating Layer fc2
I0109 19:09:12.390898  2836 net.cpp:435] fc2 <- drop3
I0109 19:09:12.390911  2836 net.cpp:409] fc2 -> fc2
I0109 19:09:12.391090  2836 net.cpp:144] Setting up fc2
I0109 19:09:12.391105  2836 net.cpp:151] Top shape: 128 10 (1280)
I0109 19:09:12.391109  2836 net.cpp:159] Memory required for data: 166204928
I0109 19:09:12.391119  2836 layer_factory.hpp:77] Creating layer loss
I0109 19:09:12.391137  2836 net.cpp:94] Creating Layer loss
I0109 19:09:12.391152  2836 net.cpp:435] loss <- fc2
I0109 19:09:12.391160  2836 net.cpp:435] loss <- label
I0109 19:09:12.391170  2836 net.cpp:409] loss -> loss
I0109 19:09:12.391193  2836 layer_factory.hpp:77] Creating layer loss
…
I0109 20:40:07.745821  4508 net.cpp:323] The NetState phase (1) differed from the phase (0) specified by a rule in layer data
I0109 20:40:07.746358  4508 net.cpp:52] Initializing net from parameters: 
name: "miniVggNet on Cifar10 m3 NO-inPlace"
state {
  phase: TEST
}
layer {
  name: "data"
  type: "Data"
  top: "data"
  top: "label"
  include {
    phase: TEST
  }
  transform_param {
    mirror: false
    mean_value: 125
    mean_value: 123
    mean_value: 114
  }
  data_param {
    source: "/home/ML/cifar10/input/lmdb/valid_lmdb"
    batch_size: 50
    backend: LMDB
  }
}
layer {
  name: "conv1"
  type: "Convolution"
  bottom: "data"
  top: "conv1"
  param {
    lr_mult: 1
    decay_mult: 1
  }
  param {
    lr_mult: 2
    decay_mult: 0
  }
  convolution_param {
    num_output: 32
    pad: 1
    kernel_size: 3
    stride: 1
    weight_filler {
      type: "xavier"
    }
    bias_filler {
      type: "constant"
      value: 0
    }
  }
}
layer {
  name: "bn1"
  type: "BatchNorm"
  bottom: "conv1"
  top: "bn1"
  param {
    lr_mult: 0
  }
  param {
    lr_mult: 0
  }
  param {
    lr_mult: 0
  }
  batch_norm_param {
    use_global_stats: false
  }
}
layer {
  name: "scale1"
  type: "Scale"
  bottom: "bn1"
  top: "scale1"
  scale_param {
    bias_term: true
  }
}
layer {
  name: "relu1"
  type: "ReLU"
  bottom: "scale1"
  top: "relu1"
}
layer {
  name: "conv2"
  type: "Convolution"
  bottom: "relu1"
  top: "conv2"
  param {
    lr_mult: 1
    decay_mult: 1
  }
  param {
    lr_mult: 2
    decay_mult: 0
  }
  convolution_param {
    num_output: 32
    pad: 1
    kernel_size: 3
    stride: 1
    weight_filler {
      type: "xavier"
    }
    bias_filler {
      type: "constant"
      value: 0
    }
  }
}
layer {
  name: "bn2"
  type: "BatchNorm"
  bottom: "conv2"
  top: "bn2"
  param {
    lr_mult: 0
  }
  param {
    lr_mult: 0
  }
  param {
    lr_mult: 0
  }
  batch_norm_param {
    use_global_stats: false
  }
}
layer {
  name: "scale2"
  type: "Scale"
  bottom: "bn2"
  top: "scale2"
  scale_param {
    bias_term: true
  }
}
layer {
  name: "relu2"
  type: "ReLU"
  bottom: "scale2"
  top: "relu2"
}
layer {
  name: "pool1"
  type: "Pooling"
  bottom: "relu2"
  top: "pool1"
  pooling_param {
    pool: MAX
    kernel_size: 2
    stride: 2
  }
}
layer {
  name: "drop1"
  type: "Dropout"
  bottom: "pool1"
  top: "drop1"
  dropout_param {
    dropout_ratio: 0.25
  }
}
layer {
  name: "conv3"
  type: "Convolution"
  bottom: "drop1"
  top: "conv3"
  param {
    lr_mult: 1
    decay_mult: 1
  }
  param {
    lr_mult: 2
    decay_mult: 0
  }
  convolution_param {
    num_output: 64
    pad: 1
    kernel_size: 3
    stride: 1
    weight_filler {
      type: "xavier"
    }
    bias_filler {
      type: "constant"
      value: 0
    }
  }
}
layer {
  name: "bn3"
  type: "BatchNorm"
  bottom: "conv3"
  top: "bn3"
  param {
    lr_mult: 0
  }
  param {
    lr_mult: 0
  }
  param {
    lr_mult: 0
  }
  batch_norm_param {
    use_global_stats: false
  }
}
layer {
  name: "scale3"
  type: "Scale"
  bottom: "bn3"
  top: "scale3"
  scale_param {
    bias_term: true
  }
}
layer {
  name: "relu3"
  type: "ReLU"
  bottom: "scale3"
  top: "relu3"
}
layer {
  name: "conv4"
  type: "Convolution"
  bottom: "relu3"
  top: "conv4"
  param {
    lr_mult: 1
    decay_mult: 1
  }
  param {
    lr_mult: 2
    decay_mult: 0
  }
  convolution_param {
    num_output: 64
    pad: 1
    kernel_size: 3
    stride: 1
    weight_filler {
      type: "xavier"
    }
    bias_filler {
      type: "constant"
      value: 0
    }
  }
}
layer {
  name: "bn4"
  type: "BatchNorm"
  bottom: "conv4"
  top: "bn4"
  param {
    lr_mult: 0
  }
  param {
    lr_mult: 0
  }
  param {
    lr_mult: 0
  }
  batch_norm_param {
    use_global_stats: false
  }
}
layer {
  name: "scale4"
  type: "Scale"
  bottom: "bn4"
  top: "scale4"
  scale_param {
    bias_term: true
  }
}
layer {
  name: "relu4"
  type: "ReLU"
  bottom: "scale4"
  top: "relu4"
}
layer {
  name: "pool2"
  type: "Pooling"
  bottom: "relu4"
  top: "pool2"
  pooling_param {
    pool: MAX
    kernel_size: 2
    stride: 2
  }
}
layer {
  name: "drop2"
  type: "Dropout"
  bottom: "pool2"
  top: "drop2"
  dropout_param {
    dropout_ratio: 0.25
  }
}
layer {
  name: "fc1"
  type: "InnerProduct"
  bottom: "drop2"
  top: "fc1"
  param {
    lr_mult: 1
    decay_mult: 1
  }
  param {
    lr_mult: 2
    decay_mult: 0
  }
  inner_product_param {
    num_output: 512
    weight_filler {
      type: "xavier"
    }
    bias_filler {
      type: "constant"
      value: 1
    }
  }
}
layer {
  name: "bn5"
  type: "BatchNorm"
  bottom: "fc1"
  top: "bn5"
  param {
    lr_mult: 0
  }
  param {
    lr_mult: 0
  }
  param {
    lr_mult: 0
  }
  batch_norm_param {
    use_global_stats: false
  }
}
layer {
  name: "scale5"
  type: "Scale"
  bottom: "bn5"
  top: "scale5"
  scale_param {
    bias_term: true
  }
}
layer {
  name: "relu5"
  type: "ReLU"
  bottom: "scale5"
  top: "relu5"
}
layer {
  name: "drop3"
  type: "Dropout"
  bottom: "relu5"
  top: "drop3"
  dropout_param {
    dropout_ratio: 0.5
  }
}
layer {
  name: "fc2"
  type: "InnerProduct"
  bottom: "drop3"
  top: "fc2"
  param {
    lr_mult: 1
    decay_mult: 1
  }
  param {
    lr_mult: 2
    decay_mult: 0
  }
  inner_product_param {
    num_output: 10
    weight_filler {
      type: "xavier"
    }
    bias_filler {
      type: "constant"
      value: 1
    }
  }
}
layer {
  name: "loss"
  type: "SoftmaxWithLoss"
  bottom: "fc2"
  bottom: "label"
  top: "loss"
}
layer {
  name: "accuracy-top1"
  type: "Accuracy"
  bottom: "fc2"
  bottom: "label"
  top: "top-1"
  include {
    phase: TEST
  }
}
layer {
  name: "accuracy-top5"
  type: "Accuracy"
  bottom: "fc2"
  bottom: "label"
  top: "top-5"
  include {
    phase: TEST
  }
  accuracy_param {
    top_k: 5
  }
}
I0109 20:40:07.746527  4508 layer_factory.hpp:77] Creating layer data
I0109 20:40:07.747459  4508 internal_thread.cpp:27] Starting internal thread(s) on GPU 0
I0109 20:40:07.747936  4508 net.cpp:94] Creating Layer data
I0109 20:40:07.747958  4508 net.cpp:409] data -> data
I0109 20:40:07.747990  4508 net.cpp:409] data -> label
I0109 20:40:07.749040  4515 db_lmdb.cpp:35] Opened lmdb /home/ML/cifar10/input/lmdb/valid_lmdb
I0109 20:40:07.749086  4515 data_reader.cpp:117] TEST: reading data using 1 channel(s)
I0109 20:40:07.749162  4508 data_layer.cpp:78] ReshapePrefetch 50, 3, 32, 32
I0109 20:40:07.749187  4508 data_layer.cpp:83] output data size: 50,3,32,32
I0109 20:40:07.755828  4508 internal_thread.cpp:27] Starting internal thread(s) on GPU 0
I0109 20:40:07.755892  4508 net.cpp:144] Setting up data
I0109 20:40:07.755918  4508 net.cpp:151] Top shape: 50 3 32 32 (153600)
I0109 20:40:07.755928  4508 net.cpp:151] Top shape: 50 (50)
I0109 20:40:07.755934  4508 net.cpp:159] Memory required for data: 614600
I0109 20:40:07.755952  4508 layer_factory.hpp:77] Creating layer label_data_1_split
I0109 20:40:07.755969  4508 net.cpp:94] Creating Layer label_data_1_split
I0109 20:40:07.755982  4508 net.cpp:435] label_data_1_split <- label
I0109 20:40:07.756009  4508 net.cpp:409] label_data_1_split -> label_data_1_split_0
I0109 20:40:07.756034  4508 net.cpp:409] label_data_1_split -> label_data_1_split_1
I0109 20:40:07.756055  4508 net.cpp:409] label_data_1_split -> label_data_1_split_2
I0109 20:40:07.756072  4508 net.cpp:144] Setting up label_data_1_split
I0109 20:40:07.756088  4508 net.cpp:151] Top shape: 50 (50)
I0109 20:40:07.756095  4508 net.cpp:151] Top shape: 50 (50)
I0109 20:40:07.756103  4508 net.cpp:151] Top shape: 50 (50)
I0109 20:40:07.756114  4508 net.cpp:159] Memory required for data: 615200
I0109 20:40:07.756121  4508 layer_factory.hpp:77] Creating layer conv1
I0109 20:40:07.756137  4508 net.cpp:94] Creating Layer conv1
I0109 20:40:07.756153  4508 net.cpp:435] conv1 <- data
I0109 20:40:07.756165  4508 net.cpp:409] conv1 -> conv1
I0109 20:40:07.756275  4508 net.cpp:144] Setting up conv1
I0109 20:40:07.756300  4508 net.cpp:151] Top shape: 50 32 32 32 (1638400)
I0109 20:40:07.756309  4508 net.cpp:159] Memory required for data: 7168800
I0109 20:40:07.756337  4508 layer_factory.hpp:77] Creating layer bn1
I0109 20:40:07.756359  4508 net.cpp:94] Creating Layer bn1
I0109 20:40:07.756367  4508 net.cpp:435] bn1 <- conv1
I0109 20:40:07.756378  4508 net.cpp:409] bn1 -> bn1
I0109 20:40:07.756455  4508 net.cpp:144] Setting up bn1
I0109 20:40:07.756494  4508 net.cpp:151] Top shape: 50 32 32 32 (1638400)
I0109 20:40:07.756501  4508 net.cpp:159] Memory required for data: 13722400
I0109 20:40:07.756523  4508 layer_factory.hpp:77] Creating layer scale1
I0109 20:40:07.756575  4508 net.cpp:94] Creating Layer scale1
I0109 20:40:07.756616  4508 net.cpp:435] scale1 <- bn1
I0109 20:40:07.756664  4508 net.cpp:409] scale1 -> scale1
I0109 20:40:07.756706  4508 layer_factory.hpp:77] Creating layer scale1
I0109 20:40:07.756765  4508 net.cpp:144] Setting up scale1
I0109 20:40:07.756783  4508 net.cpp:151] Top shape: 50 32 32 32 (1638400)
I0109 20:40:07.756789  4508 net.cpp:159] Memory required for data: 20276000
I0109 20:40:07.756803  4508 layer_factory.hpp:77] Creating layer relu1
I0109 20:40:07.756829  4508 net.cpp:94] Creating Layer relu1
I0109 20:40:07.756853  4508 net.cpp:435] relu1 <- scale1
I0109 20:40:07.756875  4508 net.cpp:409] relu1 -> relu1
I0109 20:40:07.756916  4508 net.cpp:144] Setting up relu1
I0109 20:40:07.756947  4508 net.cpp:151] Top shape: 50 32 32 32 (1638400)
I0109 20:40:07.756971  4508 net.cpp:159] Memory required for data: 26829600
I0109 20:40:07.756989  4508 layer_factory.hpp:77] Creating layer conv2
I0109 20:40:07.757015  4508 net.cpp:94] Creating Layer conv2
I0109 20:40:07.757040  4508 net.cpp:435] conv2 <- relu1
I0109 20:40:07.757071  4508 net.cpp:409] conv2 -> conv2
I0109 20:40:07.757274  4508 net.cpp:144] Setting up conv2
I0109 20:40:07.757302  4508 net.cpp:151] Top shape: 50 32 32 32 (1638400)
I0109 20:40:07.757308  4508 net.cpp:159] Memory required for data: 33383200
I0109 20:40:07.757319  4508 layer_factory.hpp:77] Creating layer bn2
I0109 20:40:07.757360  4508 net.cpp:94] Creating Layer bn2
I0109 20:40:07.757387  4508 net.cpp:435] bn2 <- conv2
I0109 20:40:07.757427  4508 net.cpp:409] bn2 -> bn2
I0109 20:40:07.757521  4508 net.cpp:144] Setting up bn2
I0109 20:40:07.757550  4508 net.cpp:151] Top shape: 50 32 32 32 (1638400)
I0109 20:40:07.757560  4508 net.cpp:159] Memory required for data: 39936800
I0109 20:40:07.757583  4508 layer_factory.hpp:77] Creating layer scale2
I0109 20:40:07.757616  4508 net.cpp:94] Creating Layer scale2
I0109 20:40:07.757643  4508 net.cpp:435] scale2 <- bn2
I0109 20:40:07.757673  4508 net.cpp:409] scale2 -> scale2
I0109 20:40:07.757709  4508 layer_factory.hpp:77] Creating layer scale2
I0109 20:40:07.757747  4508 net.cpp:144] Setting up scale2
I0109 20:40:07.757766  4508 net.cpp:151] Top shape: 50 32 32 32 (1638400)
I0109 20:40:07.757774  4508 net.cpp:159] Memory required for data: 46490400
I0109 20:40:07.757791  4508 layer_factory.hpp:77] Creating layer relu2
I0109 20:40:07.757804  4508 net.cpp:94] Creating Layer relu2
I0109 20:40:07.757810  4508 net.cpp:435] relu2 <- scale2
I0109 20:40:07.757827  4508 net.cpp:409] relu2 -> relu2
I0109 20:40:07.757840  4508 net.cpp:144] Setting up relu2
I0109 20:40:07.757850  4508 net.cpp:151] Top shape: 50 32 32 32 (1638400)
I0109 20:40:07.757856  4508 net.cpp:159] Memory required for data: 53044000
I0109 20:40:07.757863  4508 layer_factory.hpp:77] Creating layer pool1
I0109 20:40:07.757874  4508 net.cpp:94] Creating Layer pool1
I0109 20:40:07.757880  4508 net.cpp:435] pool1 <- relu2
I0109 20:40:07.757892  4508 net.cpp:409] pool1 -> pool1
I0109 20:40:07.757916  4508 net.cpp:144] Setting up pool1
I0109 20:40:07.757933  4508 net.cpp:151] Top shape: 50 32 16 16 (409600)
I0109 20:40:07.757939  4508 net.cpp:159] Memory required for data: 54682400
I0109 20:40:07.757946  4508 layer_factory.hpp:77] Creating layer drop1
I0109 20:40:07.757962  4508 net.cpp:94] Creating Layer drop1
I0109 20:40:07.757969  4508 net.cpp:435] drop1 <- pool1
I0109 20:40:07.757978  4508 net.cpp:409] drop1 -> drop1
I0109 20:40:07.757992  4508 net.cpp:144] Setting up drop1
I0109 20:40:07.758006  4508 net.cpp:151] Top shape: 50 32 16 16 (409600)
I0109 20:40:07.758013  4508 net.cpp:159] Memory required for data: 56320800
I0109 20:40:07.758020  4508 layer_factory.hpp:77] Creating layer conv3
I0109 20:40:07.758036  4508 net.cpp:94] Creating Layer conv3
I0109 20:40:07.758047  4508 net.cpp:435] conv3 <- drop1
I0109 20:40:07.758070  4508 net.cpp:409] conv3 -> conv3
I0109 20:40:07.758352  4508 net.cpp:144] Setting up conv3
I0109 20:40:07.758371  4508 net.cpp:151] Top shape: 50 64 16 16 (819200)
I0109 20:40:07.758379  4508 net.cpp:159] Memory required for data: 59597600
I0109 20:40:07.758389  4508 layer_factory.hpp:77] Creating layer bn3
I0109 20:40:07.758409  4508 net.cpp:94] Creating Layer bn3
I0109 20:40:07.758417  4508 net.cpp:435] bn3 <- conv3
I0109 20:40:07.758430  4508 net.cpp:409] bn3 -> bn3
I0109 20:40:07.758484  4508 net.cpp:144] Setting up bn3
I0109 20:40:07.758500  4508 net.cpp:151] Top shape: 50 64 16 16 (819200)
I0109 20:40:07.758507  4508 net.cpp:159] Memory required for data: 62874400
I0109 20:40:07.758522  4508 layer_factory.hpp:77] Creating layer scale3
I0109 20:40:07.758538  4508 net.cpp:94] Creating Layer scale3
I0109 20:40:07.758545  4508 net.cpp:435] scale3 <- bn3
I0109 20:40:07.758554  4508 net.cpp:409] scale3 -> scale3
I0109 20:40:07.758575  4508 layer_factory.hpp:77] Creating layer scale3
I0109 20:40:07.758612  4508 net.cpp:144] Setting up scale3
I0109 20:40:07.758630  4508 net.cpp:151] Top shape: 50 64 16 16 (819200)
I0109 20:40:07.758637  4508 net.cpp:159] Memory required for data: 66151200
I0109 20:40:07.758647  4508 layer_factory.hpp:77] Creating layer relu3
I0109 20:40:07.758657  4508 net.cpp:94] Creating Layer relu3
I0109 20:40:07.758664  4508 net.cpp:435] relu3 <- scale3
I0109 20:40:07.758672  4508 net.cpp:409] relu3 -> relu3
I0109 20:40:07.758687  4508 net.cpp:144] Setting up relu3
I0109 20:40:07.758695  4508 net.cpp:151] Top shape: 50 64 16 16 (819200)
I0109 20:40:07.758700  4508 net.cpp:159] Memory required for data: 69428000
I0109 20:40:07.758708  4508 layer_factory.hpp:77] Creating layer conv4
I0109 20:40:07.758726  4508 net.cpp:94] Creating Layer conv4
I0109 20:40:07.758735  4508 net.cpp:435] conv4 <- relu3
I0109 20:40:07.758746  4508 net.cpp:409] conv4 -> conv4
I0109 20:40:07.759165  4508 net.cpp:144] Setting up conv4
I0109 20:40:07.759187  4508 net.cpp:151] Top shape: 50 64 16 16 (819200)
I0109 20:40:07.759196  4508 net.cpp:159] Memory required for data: 72704800
I0109 20:40:07.759205  4508 layer_factory.hpp:77] Creating layer bn4
I0109 20:40:07.759217  4508 net.cpp:94] Creating Layer bn4
I0109 20:40:07.759225  4508 net.cpp:435] bn4 <- conv4
I0109 20:40:07.759238  4508 net.cpp:409] bn4 -> bn4
I0109 20:40:07.759294  4508 net.cpp:144] Setting up bn4
I0109 20:40:07.759310  4508 net.cpp:151] Top shape: 50 64 16 16 (819200)
I0109 20:40:07.759318  4508 net.cpp:159] Memory required for data: 75981600
I0109 20:40:07.759342  4508 layer_factory.hpp:77] Creating layer scale4
I0109 20:40:07.759358  4508 net.cpp:94] Creating Layer scale4
I0109 20:40:07.759367  4508 net.cpp:435] scale4 <- bn4
I0109 20:40:07.759377  4508 net.cpp:409] scale4 -> scale4
I0109 20:40:07.759397  4508 layer_factory.hpp:77] Creating layer scale4
I0109 20:40:07.759426  4508 net.cpp:144] Setting up scale4
I0109 20:40:07.759443  4508 net.cpp:151] Top shape: 50 64 16 16 (819200)
I0109 20:40:07.759451  4508 net.cpp:159] Memory required for data: 79258400
I0109 20:40:07.759461  4508 layer_factory.hpp:77] Creating layer relu4
I0109 20:40:07.759474  4508 net.cpp:94] Creating Layer relu4
I0109 20:40:07.759481  4508 net.cpp:435] relu4 <- scale4
I0109 20:40:07.759491  4508 net.cpp:409] relu4 -> relu4
I0109 20:40:07.759505  4508 net.cpp:144] Setting up relu4
I0109 20:40:07.759513  4508 net.cpp:151] Top shape: 50 64 16 16 (819200)
I0109 20:40:07.759519  4508 net.cpp:159] Memory required for data: 82535200
I0109 20:40:07.759526  4508 layer_factory.hpp:77] Creating layer pool2
I0109 20:40:07.759536  4508 net.cpp:94] Creating Layer pool2
I0109 20:40:07.759542  4508 net.cpp:435] pool2 <- relu4
I0109 20:40:07.759553  4508 net.cpp:409] pool2 -> pool2
I0109 20:40:07.759568  4508 net.cpp:144] Setting up pool2
I0109 20:40:07.759577  4508 net.cpp:151] Top shape: 50 64 8 8 (204800)
I0109 20:40:07.759583  4508 net.cpp:159] Memory required for data: 83354400
I0109 20:40:07.759588  4508 layer_factory.hpp:77] Creating layer drop2
I0109 20:40:07.759610  4508 net.cpp:94] Creating Layer drop2
I0109 20:40:07.759618  4508 net.cpp:435] drop2 <- pool2
I0109 20:40:07.759624  4508 net.cpp:409] drop2 -> drop2
I0109 20:40:07.759635  4508 net.cpp:144] Setting up drop2
I0109 20:40:07.759646  4508 net.cpp:151] Top shape: 50 64 8 8 (204800)
I0109 20:40:07.759652  4508 net.cpp:159] Memory required for data: 84173600
I0109 20:40:07.759657  4508 layer_factory.hpp:77] Creating layer fc1
I0109 20:40:07.759672  4508 net.cpp:94] Creating Layer fc1
I0109 20:40:07.759682  4508 net.cpp:435] fc1 <- drop2
I0109 20:40:07.759696  4508 net.cpp:409] fc1 -> fc1
I0109 20:40:07.778686  4508 net.cpp:144] Setting up fc1
I0109 20:40:07.778712  4508 net.cpp:151] Top shape: 50 512 (25600)
I0109 20:40:07.778719  4508 net.cpp:159] Memory required for data: 84276000
I0109 20:40:07.778730  4508 layer_factory.hpp:77] Creating layer bn5
I0109 20:40:07.778746  4508 net.cpp:94] Creating Layer bn5
I0109 20:40:07.778760  4508 net.cpp:435] bn5 <- fc1
I0109 20:40:07.778779  4508 net.cpp:409] bn5 -> bn5
I0109 20:40:07.778851  4508 net.cpp:144] Setting up bn5
I0109 20:40:07.778867  4508 net.cpp:151] Top shape: 50 512 (25600)
I0109 20:40:07.778874  4508 net.cpp:159] Memory required for data: 84378400
I0109 20:40:07.778889  4508 layer_factory.hpp:77] Creating layer scale5
I0109 20:40:07.778905  4508 net.cpp:94] Creating Layer scale5
I0109 20:40:07.778918  4508 net.cpp:435] scale5 <- bn5
I0109 20:40:07.778928  4508 net.cpp:409] scale5 -> scale5
I0109 20:40:07.778954  4508 layer_factory.hpp:77] Creating layer scale5
I0109 20:40:07.778985  4508 net.cpp:144] Setting up scale5
I0109 20:40:07.779002  4508 net.cpp:151] Top shape: 50 512 (25600)
I0109 20:40:07.779008  4508 net.cpp:159] Memory required for data: 84480800
I0109 20:40:07.779019  4508 layer_factory.hpp:77] Creating layer relu5
I0109 20:40:07.779028  4508 net.cpp:94] Creating Layer relu5
I0109 20:40:07.779040  4508 net.cpp:435] relu5 <- scale5
I0109 20:40:07.779055  4508 net.cpp:409] relu5 -> relu5
I0109 20:40:07.779072  4508 net.cpp:144] Setting up relu5
I0109 20:40:07.779085  4508 net.cpp:151] Top shape: 50 512 (25600)
I0109 20:40:07.779093  4508 net.cpp:159] Memory required for data: 84583200
I0109 20:40:07.779098  4508 layer_factory.hpp:77] Creating layer drop3
I0109 20:40:07.779120  4508 net.cpp:94] Creating Layer drop3
I0109 20:40:07.779129  4508 net.cpp:435] drop3 <- relu5
I0109 20:40:07.779139  4508 net.cpp:409] drop3 -> drop3
I0109 20:40:07.779151  4508 net.cpp:144] Setting up drop3
I0109 20:40:07.779160  4508 net.cpp:151] Top shape: 50 512 (25600)
I0109 20:40:07.779168  4508 net.cpp:159] Memory required for data: 84685600
I0109 20:40:07.779175  4508 layer_factory.hpp:77] Creating layer fc2
I0109 20:40:07.779188  4508 net.cpp:94] Creating Layer fc2
I0109 20:40:07.779198  4508 net.cpp:435] fc2 <- drop3
I0109 20:40:07.779211  4508 net.cpp:409] fc2 -> fc2
I0109 20:40:07.779285  4508 net.cpp:144] Setting up fc2
I0109 20:40:07.779301  4508 net.cpp:151] Top shape: 50 10 (500)
I0109 20:40:07.779309  4508 net.cpp:159] Memory required for data: 84687600
I0109 20:40:07.779320  4508 layer_factory.hpp:77] Creating layer fc2_fc2_0_split
I0109 20:40:07.779330  4508 net.cpp:94] Creating Layer fc2_fc2_0_split
I0109 20:40:07.779341  4508 net.cpp:435] fc2_fc2_0_split <- fc2
I0109 20:40:07.779357  4508 net.cpp:409] fc2_fc2_0_split -> fc2_fc2_0_split_0
I0109 20:40:07.779377  4508 net.cpp:409] fc2_fc2_0_split -> fc2_fc2_0_split_1
I0109 20:40:07.779398  4508 net.cpp:409] fc2_fc2_0_split -> fc2_fc2_0_split_2
I0109 20:40:07.779417  4508 net.cpp:144] Setting up fc2_fc2_0_split
I0109 20:40:07.779428  4508 net.cpp:151] Top shape: 50 10 (500)
I0109 20:40:07.779438  4508 net.cpp:151] Top shape: 50 10 (500)
I0109 20:40:07.779443  4508 net.cpp:151] Top shape: 50 10 (500)
I0109 20:40:07.779449  4508 net.cpp:159] Memory required for data: 84693600
I0109 20:40:07.779456  4508 layer_factory.hpp:77] Creating layer loss
I0109 20:40:07.779466  4508 net.cpp:94] Creating Layer loss
I0109 20:40:07.779474  4508 net.cpp:435] loss <- fc2_fc2_0_split_0
I0109 20:40:07.779482  4508 net.cpp:435] loss <- label_data_1_split_0
I0109 20:40:07.779515  4508 net.cpp:409] loss -> loss
…
