…
I0122 16:46:40.544320 58065 caffe_interface.cpp:70] GPU device name: Quadro P6000
I0122 16:46:40.544752 58065 net.cpp:323] The NetState phase (1) differed from the phase (0) specified by a rule in layer data
I0122 16:46:40.544991 58065 net.cpp:52] Initializing net from parameters: 
state {
  phase: TEST
}
layer {
  name: "data"
  type: "Data"
  top: "data"
  top: "label"
  include {
    phase: TEST
  }
  transform_param {
    mirror: false
    mean_value: 125
    mean_value: 123
    mean_value: 114
  }
  data_param {
    source: "cifar10/input/lmdb/valid_lmdb"
    batch_size: 50
    backend: LMDB
  }
}
layer {
  name: "conv1"
  type: "Convolution"
  bottom: "data"
  top: "conv1"
  param {
    lr_mult: 1
    decay_mult: 1
  }
  param {
    lr_mult: 2
    decay_mult: 0
  }
  convolution_param {
    num_output: 32
    pad: 1
    kernel_size: 3
    stride: 1
    weight_filler {
      type: "xavier"
    }
    bias_filler {
      type: "constant"
      value: 0
    }
  }
}
layer {
  name: "bn1"
  type: "BatchNorm"
  bottom: "conv1"
  top: "scale1"
  param {
    lr_mult: 1
    decay_mult: 0
  }
  param {
    lr_mult: 1
    decay_mult: 0
  }
  param {
    lr_mult: 0
    decay_mult: 0
  }
  param {
    lr_mult: 0
    decay_mult: 0
  }
  batch_norm_param {
    use_global_stats: false
    scale_filler {
      type: "constant"
      value: 1
    }
    bias_filler {
      type: "constant"
      value: 0
    }
  }
}
layer {
  name: "relu1"
  type: "ReLU"
  bottom: "scale1"
  top: "relu1"
}
layer {
  name: "conv2"
  type: "Convolution"
  bottom: "relu1"
  top: "conv2"
  param {
    lr_mult: 1
    decay_mult: 1
  }
  param {
    lr_mult: 2
    decay_mult: 0
  }
  convolution_param {
    num_output: 32
    pad: 1
    kernel_size: 3
    stride: 1
    weight_filler {
      type: "xavier"
    }
    bias_filler {
      type: "constant"
      value: 0
    }
  }
}
layer {
  name: "bn2"
  type: "BatchNorm"
  bottom: "conv2"
  top: "scale2"
  param {
    lr_mult: 1
    decay_mult: 0
  }
  param {
    lr_mult: 1
    decay_mult: 0
  }
  param {
    lr_mult: 0
    decay_mult: 0
  }
  param {
    lr_mult: 0
    decay_mult: 0
  }
  batch_norm_param {
    use_global_stats: false
    scale_filler {
      type: "constant"
      value: 1
    }
    bias_filler {
      type: "constant"
      value: 0
    }
  }
}
layer {
  name: "relu2"
  type: "ReLU"
  bottom: "scale2"
  top: "relu2"
}
layer {
  name: "pool1"
  type: "Pooling"
  bottom: "relu2"
  top: "pool1"
  pooling_param {
    pool: MAX
    kernel_size: 2
    stride: 2
  }
}
layer {
  name: "drop1"
  type: "Dropout"
  bottom: "pool1"
  top: "drop1"
  dropout_param {
    dropout_ratio: 0.25
  }
}
layer {
  name: "conv3"
  type: "Convolution"
  bottom: "drop1"
  top: "conv3"
  param {
    lr_mult: 1
    decay_mult: 1
  }
  param {
    lr_mult: 2
    decay_mult: 0
  }
  convolution_param {
    num_output: 64
    pad: 1
    kernel_size: 3
    stride: 1
    weight_filler {
      type: "xavier"
    }
    bias_filler {
      type: "constant"
      value: 0
    }
  }
}
layer {
  name: "bn3"
  type: "BatchNorm"
  bottom: "conv3"
  top: "scale3"
  param {
    lr_mult: 1
    decay_mult: 0
  }
  param {
    lr_mult: 1
    decay_mult: 0
  }
  param {
    lr_mult: 0
    decay_mult: 0
  }
  param {
    lr_mult: 0
    decay_mult: 0
  }
  batch_norm_param {
    use_global_stats: false
    scale_filler {
      type: "constant"
      value: 1
    }
    bias_filler {
      type: "constant"
      value: 0
    }
  }
}
layer {
  name: "relu3"
  type: "ReLU"
  bottom: "scale3"
  top: "relu3"
}
layer {
  name: "conv4"
  type: "Convolution"
  bottom: "relu3"
  top: "conv4"
  param {
    lr_mult: 1
    decay_mult: 1
  }
  param {
    lr_mult: 2
    decay_mult: 0
  }
  convolution_param {
    num_output: 64
    pad: 1
    kernel_size: 3
    stride: 1
    weight_filler {
      type: "xavier"
    }
    bias_filler {
      type: "constant"
      value: 0
    }
  }
}
layer {
  name: "bn4"
  type: "BatchNorm"
  bottom: "conv4"
  top: "scale4"
  param {
    lr_mult: 1
    decay_mult: 0
  }
  param {
    lr_mult: 1
    decay_mult: 0
  }
  param {
    lr_mult: 0
    decay_mult: 0
  }
  param {
    lr_mult: 0
    decay_mult: 0
  }
  batch_norm_param {
    use_global_stats: false
    scale_filler {
      type: "constant"
      value: 1
    }
    bias_filler {
      type: "constant"
      value: 0
    }
  }
}
layer {
  name: "relu4"
  type: "ReLU"
  bottom: "scale4"
  top: "relu4"
}
layer {
  name: "pool2"
  type: "Pooling"
  bottom: "relu4"
  top: "pool2"
  pooling_param {
    pool: MAX
    kernel_size: 2
    stride: 2
  }
}
layer {
  name: "drop2"
  type: "Dropout"
  bottom: "pool2"
  top: "drop2"
  dropout_param {
    dropout_ratio: 0.25
  }
}
layer {
  name: "fc1"
  type: "InnerProduct"
  bottom: "drop2"
  top: "fc1"
  param {
    lr_mult: 1
    decay_mult: 1
  }
  param {
    lr_mult: 2
    decay_mult: 0
  }
  inner_product_param {
    num_output: 512
    weight_filler {
      type: "xavier"
    }
    bias_filler {
      type: "constant"
      value: 1
    }
  }
}
layer {
  name: "bn5"
  type: "BatchNorm"
  bottom: "fc1"
  top: "scale5"
  param {
    lr_mult: 1
    decay_mult: 0
  }
  param {
    lr_mult: 1
    decay_mult: 0
  }
  param {
    lr_mult: 0
    decay_mult: 0
  }
  param {
    lr_mult: 0
    decay_mult: 0
  }
  batch_norm_param {
    use_global_stats: false
    scale_filler {
      type: "constant"
      value: 1
    }
    bias_filler {
      type: "constant"
      value: 0
    }
  }
}
layer {
  name: "relu5"
  type: "ReLU"
  bottom: "scale5"
  top: "relu5"
}
layer {
  name: "drop3"
  type: "Dropout"
  bottom: "relu5"
  top: "drop3"
  dropout_param {
    dropout_ratio: 0.5
  }
}
layer {
  name: "fc2"
  type: "InnerProduct"
  bottom: "drop3"
  top: "fc2"
  param {
    lr_mult: 1
    decay_mult: 1
  }
  param {
    lr_mult: 2
    decay_mult: 0
  }
  inner_product_param {
    num_output: 10
    weight_filler {
      type: "xavier"
    }
    bias_filler {
      type: "constant"
      value: 1
    }
  }
}
layer {
  name: "loss"
  type: "SoftmaxWithLoss"
  bottom: "fc2"
  bottom: "label"
  top: "loss"
}
layer {
  name: "accuracy-top1"
  type: "Accuracy"
  bottom: "fc2"
  bottom: "label"
  top: "top-1"
  include {
    phase: TEST
  }
}
layer {
  name: "accuracy-top5"
  type: "Accuracy"
  bottom: "fc2"
  bottom: "label"
  top: "top-5"
  include {
    phase: TEST
  }
  accuracy_param {
    top_k: 5
  }
}
I0122 16:46:40.545130 58065 layer_factory.hpp:77] Creating layer data
I0122 16:46:40.545179 58065 internal_thread.cpp:27] Starting internal thread(s) on GPU 0
I0122 16:46:40.545579 58065 net.cpp:94] Creating Layer data
I0122 16:46:40.545588 58065 net.cpp:409] data -> data
I0122 16:46:40.545598 58065 net.cpp:409] data -> label
I0122 16:46:40.546564 58281 db_lmdb.cpp:35] Opened lmdb cifar10/input/lmdb/valid_lmdb
I0122 16:46:40.546602 58281 data_reader.cpp:117] TEST: reading data using 1 channel(s)
I0122 16:46:40.546677 58065 data_layer.cpp:78] ReshapePrefetch 50, 3, 32, 32
I0122 16:46:40.546775 58065 data_layer.cpp:83] output data size: 50,3,32,32
I0122 16:46:40.549935 58065 internal_thread.cpp:27] Starting internal thread(s) on GPU 0
I0122 16:46:40.549978 58065 net.cpp:144] Setting up data
I0122 16:46:40.549988 58065 net.cpp:151] Top shape: 50 3 32 32 (153600)
I0122 16:46:40.549993 58065 net.cpp:151] Top shape: 50 (50)
I0122 16:46:40.549998 58065 net.cpp:159] Memory required for data: 614600
I0122 16:46:40.550002 58065 layer_factory.hpp:77] Creating layer label_data_1_split
I0122 16:46:40.550011 58065 net.cpp:94] Creating Layer label_data_1_split
I0122 16:46:40.550015 58065 net.cpp:435] label_data_1_split <- label
I0122 16:46:40.550024 58065 net.cpp:409] label_data_1_split -> label_data_1_split_0
I0122 16:46:40.550037 58065 net.cpp:409] label_data_1_split -> label_data_1_split_1
I0122 16:46:40.550045 58065 net.cpp:409] label_data_1_split -> label_data_1_split_2
I0122 16:46:40.550107 58065 net.cpp:144] Setting up label_data_1_split
I0122 16:46:40.550127 58065 net.cpp:151] Top shape: 50 (50)
I0122 16:46:40.550132 58065 net.cpp:151] Top shape: 50 (50)
I0122 16:46:40.550135 58065 net.cpp:151] Top shape: 50 (50)
I0122 16:46:40.550138 58065 net.cpp:159] Memory required for data: 615200
I0122 16:46:40.550143 58065 layer_factory.hpp:77] Creating layer conv1
I0122 16:46:40.550154 58065 net.cpp:94] Creating Layer conv1
I0122 16:46:40.550160 58065 net.cpp:435] conv1 <- data
I0122 16:46:40.550168 58065 net.cpp:409] conv1 -> conv1
I0122 16:46:40.551226 58065 net.cpp:144] Setting up conv1
I0122 16:46:40.551239 58065 net.cpp:151] Top shape: 50 32 32 32 (1638400)
I0122 16:46:40.551242 58065 net.cpp:159] Memory required for data: 7168800
I0122 16:46:40.551255 58065 layer_factory.hpp:77] Creating layer bn1
I0122 16:46:40.551265 58065 net.cpp:94] Creating Layer bn1
I0122 16:46:40.551268 58065 net.cpp:435] bn1 <- conv1
I0122 16:46:40.551275 58065 net.cpp:409] bn1 -> scale1
I0122 16:46:40.551992 58065 net.cpp:144] Setting up bn1
I0122 16:46:40.552001 58065 net.cpp:151] Top shape: 50 32 32 32 (1638400)
I0122 16:46:40.552006 58065 net.cpp:159] Memory required for data: 13722400
I0122 16:46:40.552019 58065 layer_factory.hpp:77] Creating layer relu1
I0122 16:46:40.552027 58065 net.cpp:94] Creating Layer relu1
I0122 16:46:40.552032 58065 net.cpp:435] relu1 <- scale1
I0122 16:46:40.552038 58065 net.cpp:409] relu1 -> relu1
I0122 16:46:40.552078 58065 net.cpp:144] Setting up relu1
I0122 16:46:40.552085 58065 net.cpp:151] Top shape: 50 32 32 32 (1638400)
I0122 16:46:40.552090 58065 net.cpp:159] Memory required for data: 20276000
I0122 16:46:40.552093 58065 layer_factory.hpp:77] Creating layer conv2
I0122 16:46:40.552103 58065 net.cpp:94] Creating Layer conv2
I0122 16:46:40.552109 58065 net.cpp:435] conv2 <- relu1
I0122 16:46:40.552116 58065 net.cpp:409] conv2 -> conv2
I0122 16:46:40.553301 58065 net.cpp:144] Setting up conv2
I0122 16:46:40.553311 58065 net.cpp:151] Top shape: 50 32 32 32 (1638400)
I0122 16:46:40.553314 58065 net.cpp:159] Memory required for data: 26829600
I0122 16:46:40.553323 58065 layer_factory.hpp:77] Creating layer bn2
I0122 16:46:40.553330 58065 net.cpp:94] Creating Layer bn2
I0122 16:46:40.553333 58065 net.cpp:435] bn2 <- conv2
I0122 16:46:40.553339 58065 net.cpp:409] bn2 -> scale2
I0122 16:46:40.554095 58065 net.cpp:144] Setting up bn2
I0122 16:46:40.554102 58065 net.cpp:151] Top shape: 50 32 32 32 (1638400)
I0122 16:46:40.554106 58065 net.cpp:159] Memory required for data: 33383200
I0122 16:46:40.554114 58065 layer_factory.hpp:77] Creating layer relu2
I0122 16:46:40.554119 58065 net.cpp:94] Creating Layer relu2
I0122 16:46:40.554123 58065 net.cpp:435] relu2 <- scale2
I0122 16:46:40.554127 58065 net.cpp:409] relu2 -> relu2
I0122 16:46:40.554144 58065 net.cpp:144] Setting up relu2
I0122 16:46:40.554150 58065 net.cpp:151] Top shape: 50 32 32 32 (1638400)
I0122 16:46:40.554153 58065 net.cpp:159] Memory required for data: 39936800
I0122 16:46:40.554157 58065 layer_factory.hpp:77] Creating layer pool1
I0122 16:46:40.554178 58065 net.cpp:94] Creating Layer pool1
I0122 16:46:40.554183 58065 net.cpp:435] pool1 <- relu2
I0122 16:46:40.554189 58065 net.cpp:409] pool1 -> pool1
I0122 16:46:40.554217 58065 net.cpp:144] Setting up pool1
I0122 16:46:40.554224 58065 net.cpp:151] Top shape: 50 32 16 16 (409600)
I0122 16:46:40.554226 58065 net.cpp:159] Memory required for data: 41575200
I0122 16:46:40.554229 58065 layer_factory.hpp:77] Creating layer drop1
I0122 16:46:40.554234 58065 net.cpp:94] Creating Layer drop1
I0122 16:46:40.554236 58065 net.cpp:435] drop1 <- pool1
I0122 16:46:40.554240 58065 net.cpp:409] drop1 -> drop1
I0122 16:46:40.554265 58065 net.cpp:144] Setting up drop1
I0122 16:46:40.554270 58065 net.cpp:151] Top shape: 50 32 16 16 (409600)
I0122 16:46:40.554273 58065 net.cpp:159] Memory required for data: 43213600
I0122 16:46:40.554276 58065 layer_factory.hpp:77] Creating layer conv3
I0122 16:46:40.554284 58065 net.cpp:94] Creating Layer conv3
I0122 16:46:40.554296 58065 net.cpp:435] conv3 <- drop1
I0122 16:46:40.554301 58065 net.cpp:409] conv3 -> conv3
I0122 16:46:40.555367 58065 net.cpp:144] Setting up conv3
I0122 16:46:40.555378 58065 net.cpp:151] Top shape: 50 64 16 16 (819200)
I0122 16:46:40.555382 58065 net.cpp:159] Memory required for data: 46490400
I0122 16:46:40.555388 58065 layer_factory.hpp:77] Creating layer bn3
I0122 16:46:40.555397 58065 net.cpp:94] Creating Layer bn3
I0122 16:46:40.555399 58065 net.cpp:435] bn3 <- conv3
I0122 16:46:40.555405 58065 net.cpp:409] bn3 -> scale3
I0122 16:46:40.556031 58065 net.cpp:144] Setting up bn3
I0122 16:46:40.556040 58065 net.cpp:151] Top shape: 50 64 16 16 (819200)
I0122 16:46:40.556042 58065 net.cpp:159] Memory required for data: 49767200
I0122 16:46:40.556053 58065 layer_factory.hpp:77] Creating layer relu3
I0122 16:46:40.556061 58065 net.cpp:94] Creating Layer relu3
I0122 16:46:40.556064 58065 net.cpp:435] relu3 <- scale3
I0122 16:46:40.556069 58065 net.cpp:409] relu3 -> relu3
I0122 16:46:40.556088 58065 net.cpp:144] Setting up relu3
I0122 16:46:40.556094 58065 net.cpp:151] Top shape: 50 64 16 16 (819200)
I0122 16:46:40.556098 58065 net.cpp:159] Memory required for data: 53044000
I0122 16:46:40.556100 58065 layer_factory.hpp:77] Creating layer conv4
I0122 16:46:40.556109 58065 net.cpp:94] Creating Layer conv4
I0122 16:46:40.556113 58065 net.cpp:435] conv4 <- relu3
I0122 16:46:40.556119 58065 net.cpp:409] conv4 -> conv4
I0122 16:46:40.556591 58065 net.cpp:144] Setting up conv4
I0122 16:46:40.556599 58065 net.cpp:151] Top shape: 50 64 16 16 (819200)
I0122 16:46:40.556602 58065 net.cpp:159] Memory required for data: 56320800
I0122 16:46:40.556607 58065 layer_factory.hpp:77] Creating layer bn4
I0122 16:46:40.556614 58065 net.cpp:94] Creating Layer bn4
I0122 16:46:40.556617 58065 net.cpp:435] bn4 <- conv4
I0122 16:46:40.556622 58065 net.cpp:409] bn4 -> scale4
I0122 16:46:40.557267 58065 net.cpp:144] Setting up bn4
I0122 16:46:40.557273 58065 net.cpp:151] Top shape: 50 64 16 16 (819200)
I0122 16:46:40.557277 58065 net.cpp:159] Memory required for data: 59597600
I0122 16:46:40.557284 58065 layer_factory.hpp:77] Creating layer relu4
I0122 16:46:40.557289 58065 net.cpp:94] Creating Layer relu4
I0122 16:46:40.557292 58065 net.cpp:435] relu4 <- scale4
I0122 16:46:40.557297 58065 net.cpp:409] relu4 -> relu4
I0122 16:46:40.557314 58065 net.cpp:144] Setting up relu4
I0122 16:46:40.557320 58065 net.cpp:151] Top shape: 50 64 16 16 (819200)
I0122 16:46:40.557323 58065 net.cpp:159] Memory required for data: 62874400
I0122 16:46:40.557327 58065 layer_factory.hpp:77] Creating layer pool2
I0122 16:46:40.557332 58065 net.cpp:94] Creating Layer pool2
I0122 16:46:40.557337 58065 net.cpp:435] pool2 <- relu4
I0122 16:46:40.557340 58065 net.cpp:409] pool2 -> pool2
I0122 16:46:40.557369 58065 net.cpp:144] Setting up pool2
I0122 16:46:40.557375 58065 net.cpp:151] Top shape: 50 64 8 8 (204800)
I0122 16:46:40.557379 58065 net.cpp:159] Memory required for data: 63693600
I0122 16:46:40.557380 58065 layer_factory.hpp:77] Creating layer drop2
I0122 16:46:40.557385 58065 net.cpp:94] Creating Layer drop2
I0122 16:46:40.557389 58065 net.cpp:435] drop2 <- pool2
I0122 16:46:40.557392 58065 net.cpp:409] drop2 -> drop2
I0122 16:46:40.557466 58065 net.cpp:144] Setting up drop2
I0122 16:46:40.557471 58065 net.cpp:151] Top shape: 50 64 8 8 (204800)
I0122 16:46:40.557473 58065 net.cpp:159] Memory required for data: 64512800
I0122 16:46:40.557476 58065 layer_factory.hpp:77] Creating layer fc1
I0122 16:46:40.557483 58065 net.cpp:94] Creating Layer fc1
I0122 16:46:40.557487 58065 net.cpp:435] fc1 <- drop2
I0122 16:46:40.557492 58065 net.cpp:409] fc1 -> fc1
I0122 16:46:40.574487 58065 net.cpp:144] Setting up fc1
I0122 16:46:40.574504 58065 net.cpp:151] Top shape: 50 512 (25600)
I0122 16:46:40.574506 58065 net.cpp:159] Memory required for data: 64615200
I0122 16:46:40.574513 58065 layer_factory.hpp:77] Creating layer bn5
I0122 16:46:40.574522 58065 net.cpp:94] Creating Layer bn5
I0122 16:46:40.574524 58065 net.cpp:435] bn5 <- fc1
I0122 16:46:40.574530 58065 net.cpp:409] bn5 -> scale5
I0122 16:46:40.575065 58065 net.cpp:144] Setting up bn5
I0122 16:46:40.575073 58065 net.cpp:151] Top shape: 50 512 (25600)
I0122 16:46:40.575088 58065 net.cpp:159] Memory required for data: 64717600
I0122 16:46:40.575100 58065 layer_factory.hpp:77] Creating layer relu5
I0122 16:46:40.575109 58065 net.cpp:94] Creating Layer relu5
I0122 16:46:40.575112 58065 net.cpp:435] relu5 <- scale5
I0122 16:46:40.575117 58065 net.cpp:409] relu5 -> relu5
I0122 16:46:40.575135 58065 net.cpp:144] Setting up relu5
I0122 16:46:40.575140 58065 net.cpp:151] Top shape: 50 512 (25600)
I0122 16:46:40.575143 58065 net.cpp:159] Memory required for data: 64820000
I0122 16:46:40.575146 58065 layer_factory.hpp:77] Creating layer drop3
I0122 16:46:40.575151 58065 net.cpp:94] Creating Layer drop3
I0122 16:46:40.575155 58065 net.cpp:435] drop3 <- relu5
I0122 16:46:40.575160 58065 net.cpp:409] drop3 -> drop3
I0122 16:46:40.575184 58065 net.cpp:144] Setting up drop3
I0122 16:46:40.575189 58065 net.cpp:151] Top shape: 50 512 (25600)
I0122 16:46:40.575191 58065 net.cpp:159] Memory required for data: 64922400
I0122 16:46:40.575196 58065 layer_factory.hpp:77] Creating layer fc2
I0122 16:46:40.575201 58065 net.cpp:94] Creating Layer fc2
I0122 16:46:40.575204 58065 net.cpp:435] fc2 <- drop3
I0122 16:46:40.575209 58065 net.cpp:409] fc2 -> fc2
I0122 16:46:40.575337 58065 net.cpp:144] Setting up fc2
I0122 16:46:40.575342 58065 net.cpp:151] Top shape: 50 10 (500)
I0122 16:46:40.575345 58065 net.cpp:159] Memory required for data: 64924400
I0122 16:46:40.575350 58065 layer_factory.hpp:77] Creating layer fc2_fc2_0_split
I0122 16:46:40.575356 58065 net.cpp:94] Creating Layer fc2_fc2_0_split
I0122 16:46:40.575358 58065 net.cpp:435] fc2_fc2_0_split <- fc2
I0122 16:46:40.575362 58065 net.cpp:409] fc2_fc2_0_split -> fc2_fc2_0_split_0
I0122 16:46:40.575368 58065 net.cpp:409] fc2_fc2_0_split -> fc2_fc2_0_split_1
I0122 16:46:40.575374 58065 net.cpp:409] fc2_fc2_0_split -> fc2_fc2_0_split_2
I0122 16:46:40.575409 58065 net.cpp:144] Setting up fc2_fc2_0_split
I0122 16:46:40.575413 58065 net.cpp:151] Top shape: 50 10 (500)
I0122 16:46:40.575417 58065 net.cpp:151] Top shape: 50 10 (500)
I0122 16:46:40.575420 58065 net.cpp:151] Top shape: 50 10 (500)
I0122 16:46:40.575423 58065 net.cpp:159] Memory required for data: 64930400
I0122 16:46:40.575425 58065 layer_factory.hpp:77] Creating layer loss
I0122 16:46:40.575430 58065 net.cpp:94] Creating Layer loss
I0122 16:46:40.575436 58065 net.cpp:435] loss <- fc2_fc2_0_split_0
I0122 16:46:40.575440 58065 net.cpp:435] loss <- label_data_1_split_0
I0122 16:46:40.575445 58065 net.cpp:409] loss -> loss
…
