…
I0122 16:46:42.351555 58312 net.cpp:323] The NetState phase (0) differed from the phase (1) specified by a rule in layer accuracy-top1
I0122 16:46:42.351559 58312 net.cpp:323] The NetState phase (0) differed from the phase (1) specified by a rule in layer accuracy-top5
I0122 16:46:42.351722 58312 net.cpp:52] Initializing net from parameters: 
state {
  phase: TRAIN
}
layer {
  name: "data"
  type: "Data"
  top: "data"
  top: "label"
  include {
    phase: TRAIN
  }
  transform_param {
    mirror: true
    mean_value: 125
    mean_value: 123
    mean_value: 114
  }
  data_param {
    source: "cifar10/input/lmdb/train_lmdb"
    batch_size: 128
    backend: LMDB
  }
}
layer {
  name: "conv1"
  type: "Convolution"
  bottom: "data"
  top: "conv1"
  param {
    lr_mult: 1
    decay_mult: 1
    compression: PRUNE
  }
  param {
    lr_mult: 2
    decay_mult: 0
    compression: PRUNE
  }
  convolution_param {
    num_output: 32
    pad: 1
    kernel_size: 3
    stride: 1
    weight_filler {
      type: "xavier"
    }
    bias_filler {
      type: "constant"
      value: 0
    }
  }
}
layer {
  name: "bn1"
  type: "BatchNorm"
  bottom: "conv1"
  top: "scale1"
  param {
    lr_mult: 1
    decay_mult: 0
    compression: PRUNE
  }
  param {
    lr_mult: 1
    decay_mult: 0
    compression: PRUNE
  }
  param {
    lr_mult: 0
    decay_mult: 0
    compression: PRUNE
  }
  param {
    lr_mult: 0
    decay_mult: 0
    compression: PRUNE
  }
  batch_norm_param {
    use_global_stats: false
    scale_filler {
      type: "constant"
      value: 1
    }
    bias_filler {
      type: "constant"
      value: 0
    }
  }
}
layer {
  name: "relu1"
  type: "ReLU"
  bottom: "scale1"
  top: "relu1"
}
layer {
  name: "conv2"
  type: "Convolution"
  bottom: "relu1"
  top: "conv2"
  param {
    lr_mult: 1
    decay_mult: 1
    compression: PRUNE
  }
  param {
    lr_mult: 2
    decay_mult: 0
    compression: PRUNE
  }
  convolution_param {
    num_output: 32
    pad: 1
    kernel_size: 3
    stride: 1
    weight_filler {
      type: "xavier"
    }
    bias_filler {
      type: "constant"
      value: 0
    }
  }
}
layer {
  name: "bn2"
  type: "BatchNorm"
  bottom: "conv2"
  top: "scale2"
  param {
    lr_mult: 1
    decay_mult: 0
    compression: PRUNE
  }
  param {
    lr_mult: 1
    decay_mult: 0
    compression: PRUNE
  }
  param {
    lr_mult: 0
    decay_mult: 0
    compression: PRUNE
  }
  param {
    lr_mult: 0
    decay_mult: 0
    compression: PRUNE
  }
  batch_norm_param {
    use_global_stats: false
    scale_filler {
      type: "constant"
      value: 1
    }
    bias_filler {
      type: "constant"
      value: 0
    }
  }
}
layer {
  name: "relu2"
  type: "ReLU"
  bottom: "scale2"
  top: "relu2"
}
layer {
  name: "pool1"
  type: "Pooling"
  bottom: "relu2"
  top: "pool1"
  pooling_param {
    pool: MAX
    kernel_size: 2
    stride: 2
  }
}
layer {
  name: "drop1"
  type: "Dropout"
  bottom: "pool1"
  top: "drop1"
  dropout_param {
    dropout_ratio: 0.25
  }
}
layer {
  name: "conv3"
  type: "Convolution"
  bottom: "drop1"
  top: "conv3"
  param {
    lr_mult: 1
    decay_mult: 1
    compression: PRUNE
  }
  param {
    lr_mult: 2
    decay_mult: 0
    compression: PRUNE
  }
  convolution_param {
    num_output: 64
    pad: 1
    kernel_size: 3
    stride: 1
    weight_filler {
      type: "xavier"
    }
    bias_filler {
      type: "constant"
      value: 0
    }
  }
}
layer {
  name: "bn3"
  type: "BatchNorm"
  bottom: "conv3"
  top: "scale3"
  param {
    lr_mult: 1
    decay_mult: 0
    compression: PRUNE
  }
  param {
    lr_mult: 1
    decay_mult: 0
    compression: PRUNE
  }
  param {
    lr_mult: 0
    decay_mult: 0
    compression: PRUNE
  }
  param {
    lr_mult: 0
    decay_mult: 0
    compression: PRUNE
  }
  batch_norm_param {
    use_global_stats: false
    scale_filler {
      type: "constant"
      value: 1
    }
    bias_filler {
      type: "constant"
      value: 0
    }
  }
}
layer {
  name: "relu3"
  type: "ReLU"
  bottom: "scale3"
  top: "relu3"
}
layer {
  name: "conv4"
  type: "Convolution"
  bottom: "relu3"
  top: "conv4"
  param {
    lr_mult: 1
    decay_mult: 1
    compression: PRUNE
  }
  param {
    lr_mult: 2
    decay_mult: 0
    compression: PRUNE
  }
  convolution_param {
    num_output: 64
    pad: 1
    kernel_size: 3
    stride: 1
    weight_filler {
      type: "xavier"
    }
    bias_filler {
      type: "constant"
      value: 0
    }
  }
}
layer {
  name: "bn4"
  type: "BatchNorm"
  bottom: "conv4"
  top: "scale4"
  param {
    lr_mult: 1
    decay_mult: 0
    compression: PRUNE
  }
  param {
    lr_mult: 1
    decay_mult: 0
    compression: PRUNE
  }
  param {
    lr_mult: 0
    decay_mult: 0
    compression: PRUNE
  }
  param {
    lr_mult: 0
    decay_mult: 0
    compression: PRUNE
  }
  batch_norm_param {
    use_global_stats: false
    scale_filler {
      type: "constant"
      value: 1
    }
    bias_filler {
      type: "constant"
      value: 0
    }
  }
}
layer {
  name: "relu4"
  type: "ReLU"
  bottom: "scale4"
  top: "relu4"
}
layer {
  name: "pool2"
  type: "Pooling"
  bottom: "relu4"
  top: "pool2"
  pooling_param {
    pool: MAX
    kernel_size: 2
    stride: 2
  }
}
layer {
  name: "drop2"
  type: "Dropout"
  bottom: "pool2"
  top: "drop2"
  dropout_param {
    dropout_ratio: 0.25
  }
}
layer {
  name: "fc1"
  type: "InnerProduct"
  bottom: "drop2"
  top: "fc1"
  param {
    lr_mult: 1
    decay_mult: 1
  }
  param {
    lr_mult: 2
    decay_mult: 0
  }
  inner_product_param {
    num_output: 512
    weight_filler {
      type: "xavier"
    }
    bias_filler {
      type: "constant"
      value: 1
    }
  }
}
layer {
  name: "bn5"
  type: "BatchNorm"
  bottom: "fc1"
  top: "scale5"
  param {
    lr_mult: 1
    decay_mult: 0
    compression: PRUNE
  }
  param {
    lr_mult: 1
    decay_mult: 0
    compression: PRUNE
  }
  param {
    lr_mult: 0
    decay_mult: 0
    compression: PRUNE
  }
  param {
    lr_mult: 0
    decay_mult: 0
    compression: PRUNE
  }
  batch_norm_param {
    use_global_stats: false
    scale_filler {
      type: "constant"
      value: 1
    }
    bias_filler {
      type: "constant"
      value: 0
    }
  }
}
layer {
  name: "relu5"
  type: "ReLU"
  bottom: "scale5"
  top: "relu5"
}
layer {
  name: "drop3"
  type: "Dropout"
  bottom: "relu5"
  top: "drop3"
  dropout_param {
    dropout_ratio: 0.5
  }
}
layer {
  name: "fc2"
  type: "InnerProduct"
  bottom: "drop3"
  top: "fc2"
  param {
    lr_mult: 1
    decay_mult: 1
  }
  param {
    lr_mult: 2
    decay_mult: 0
  }
  inner_product_param {
    num_output: 10
    weight_filler {
      type: "xavier"
    }
    bias_filler {
      type: "constant"
      value: 1
    }
  }
}
layer {
  name: "loss"
  type: "SoftmaxWithLoss"
  bottom: "fc2"
  bottom: "label"
  top: "loss"
}
I0122 16:46:42.351797 58312 layer_factory.hpp:77] Creating layer data
I0122 16:46:42.351891 58312 internal_thread.cpp:27] Starting internal thread(s) on GPU 0
I0122 16:46:42.352509 58312 net.cpp:94] Creating Layer data
I0122 16:46:42.352522 58312 net.cpp:409] data -> data
I0122 16:46:42.352545 58312 net.cpp:409] data -> label
I0122 16:46:42.354089 58349 db_lmdb.cpp:35] Opened lmdb cifar10/input/lmdb/train_lmdb
I0122 16:46:42.354148 58349 data_reader.cpp:117] TRAIN: reading data using 1 channel(s)
I0122 16:46:42.354254 58312 data_layer.cpp:78] ReshapePrefetch 128, 3, 32, 32
I0122 16:46:42.354339 58312 data_layer.cpp:83] output data size: 128,3,32,32
I0122 16:46:42.376992 58312 internal_thread.cpp:27] Starting internal thread(s) on GPU 0
I0122 16:46:42.377058 58312 net.cpp:144] Setting up data
I0122 16:46:42.377068 58312 net.cpp:151] Top shape: 128 3 32 32 (393216)
I0122 16:46:42.377070 58312 net.cpp:151] Top shape: 128 (128)
I0122 16:46:42.377074 58312 net.cpp:159] Memory required for data: 1573376
I0122 16:46:42.377079 58312 layer_factory.hpp:77] Creating layer conv1
I0122 16:46:42.377092 58312 net.cpp:94] Creating Layer conv1
I0122 16:46:42.377096 58312 net.cpp:435] conv1 <- data
I0122 16:46:42.377113 58312 net.cpp:409] conv1 -> conv1
I0122 16:46:42.378201 58312 net.cpp:144] Setting up conv1
I0122 16:46:42.378211 58312 net.cpp:151] Top shape: 128 32 32 32 (4194304)
I0122 16:46:42.378213 58312 net.cpp:159] Memory required for data: 18350592
I0122 16:46:42.378228 58312 layer_factory.hpp:77] Creating layer bn1
I0122 16:46:42.378237 58312 net.cpp:94] Creating Layer bn1
I0122 16:46:42.378238 58312 net.cpp:435] bn1 <- conv1
I0122 16:46:42.378243 58312 net.cpp:409] bn1 -> scale1
I0122 16:46:42.379772 58312 net.cpp:144] Setting up bn1
I0122 16:46:42.379778 58312 net.cpp:151] Top shape: 128 32 32 32 (4194304)
I0122 16:46:42.379781 58312 net.cpp:159] Memory required for data: 35127808
I0122 16:46:42.379789 58312 layer_factory.hpp:77] Creating layer relu1
I0122 16:46:42.379812 58312 net.cpp:94] Creating Layer relu1
I0122 16:46:42.379814 58312 net.cpp:435] relu1 <- scale1
I0122 16:46:42.379819 58312 net.cpp:409] relu1 -> relu1
I0122 16:46:42.380386 58312 net.cpp:144] Setting up relu1
I0122 16:46:42.380393 58312 net.cpp:151] Top shape: 128 32 32 32 (4194304)
I0122 16:46:42.380396 58312 net.cpp:159] Memory required for data: 51905024
I0122 16:46:42.380399 58312 layer_factory.hpp:77] Creating layer conv2
I0122 16:46:42.380409 58312 net.cpp:94] Creating Layer conv2
I0122 16:46:42.380414 58312 net.cpp:435] conv2 <- relu1
I0122 16:46:42.380419 58312 net.cpp:409] conv2 -> conv2
I0122 16:46:42.381484 58312 net.cpp:144] Setting up conv2
I0122 16:46:42.381494 58312 net.cpp:151] Top shape: 128 32 32 32 (4194304)
I0122 16:46:42.381496 58312 net.cpp:159] Memory required for data: 68682240
I0122 16:46:42.381505 58312 layer_factory.hpp:77] Creating layer bn2
I0122 16:46:42.381510 58312 net.cpp:94] Creating Layer bn2
I0122 16:46:42.381513 58312 net.cpp:435] bn2 <- conv2
I0122 16:46:42.381520 58312 net.cpp:409] bn2 -> scale2
I0122 16:46:42.382570 58312 net.cpp:144] Setting up bn2
I0122 16:46:42.382577 58312 net.cpp:151] Top shape: 128 32 32 32 (4194304)
I0122 16:46:42.382580 58312 net.cpp:159] Memory required for data: 85459456
I0122 16:46:42.382589 58312 layer_factory.hpp:77] Creating layer relu2
I0122 16:46:42.382594 58312 net.cpp:94] Creating Layer relu2
I0122 16:46:42.382597 58312 net.cpp:435] relu2 <- scale2
I0122 16:46:42.382601 58312 net.cpp:409] relu2 -> relu2
I0122 16:46:42.382726 58312 net.cpp:144] Setting up relu2
I0122 16:46:42.382732 58312 net.cpp:151] Top shape: 128 32 32 32 (4194304)
I0122 16:46:42.382736 58312 net.cpp:159] Memory required for data: 102236672
I0122 16:46:42.382738 58312 layer_factory.hpp:77] Creating layer pool1
I0122 16:46:42.382746 58312 net.cpp:94] Creating Layer pool1
I0122 16:46:42.382750 58312 net.cpp:435] pool1 <- relu2
I0122 16:46:42.382753 58312 net.cpp:409] pool1 -> pool1
I0122 16:46:42.382788 58312 net.cpp:144] Setting up pool1
I0122 16:46:42.382794 58312 net.cpp:151] Top shape: 128 32 16 16 (1048576)
I0122 16:46:42.382797 58312 net.cpp:159] Memory required for data: 106430976
I0122 16:46:42.382800 58312 layer_factory.hpp:77] Creating layer drop1
I0122 16:46:42.382805 58312 net.cpp:94] Creating Layer drop1
I0122 16:46:42.382809 58312 net.cpp:435] drop1 <- pool1
I0122 16:46:42.382824 58312 net.cpp:409] drop1 -> drop1
I0122 16:46:42.382869 58312 net.cpp:144] Setting up drop1
I0122 16:46:42.382874 58312 net.cpp:151] Top shape: 128 32 16 16 (1048576)
I0122 16:46:42.382879 58312 net.cpp:159] Memory required for data: 110625280
I0122 16:46:42.382880 58312 layer_factory.hpp:77] Creating layer conv3
I0122 16:46:42.382889 58312 net.cpp:94] Creating Layer conv3
I0122 16:46:42.382894 58312 net.cpp:435] conv3 <- drop1
I0122 16:46:42.382899 58312 net.cpp:409] conv3 -> conv3
I0122 16:46:42.383886 58312 net.cpp:144] Setting up conv3
I0122 16:46:42.383898 58312 net.cpp:151] Top shape: 128 64 16 16 (2097152)
I0122 16:46:42.383900 58312 net.cpp:159] Memory required for data: 119013888
I0122 16:46:42.383908 58312 layer_factory.hpp:77] Creating layer bn3
I0122 16:46:42.383914 58312 net.cpp:94] Creating Layer bn3
I0122 16:46:42.383921 58312 net.cpp:435] bn3 <- conv3
I0122 16:46:42.383927 58312 net.cpp:409] bn3 -> scale3
I0122 16:46:42.384541 58312 net.cpp:144] Setting up bn3
I0122 16:46:42.384547 58312 net.cpp:151] Top shape: 128 64 16 16 (2097152)
I0122 16:46:42.384551 58312 net.cpp:159] Memory required for data: 127402496
I0122 16:46:42.384562 58312 layer_factory.hpp:77] Creating layer relu3
I0122 16:46:42.384569 58312 net.cpp:94] Creating Layer relu3
I0122 16:46:42.384572 58312 net.cpp:435] relu3 <- scale3
I0122 16:46:42.384577 58312 net.cpp:409] relu3 -> relu3
I0122 16:46:42.384594 58312 net.cpp:144] Setting up relu3
I0122 16:46:42.384601 58312 net.cpp:151] Top shape: 128 64 16 16 (2097152)
I0122 16:46:42.384604 58312 net.cpp:159] Memory required for data: 135791104
I0122 16:46:42.384608 58312 layer_factory.hpp:77] Creating layer conv4
I0122 16:46:42.384614 58312 net.cpp:94] Creating Layer conv4
I0122 16:46:42.384618 58312 net.cpp:435] conv4 <- relu3
I0122 16:46:42.384624 58312 net.cpp:409] conv4 -> conv4
I0122 16:46:42.385040 58312 net.cpp:144] Setting up conv4
I0122 16:46:42.385046 58312 net.cpp:151] Top shape: 128 64 16 16 (2097152)
I0122 16:46:42.385051 58312 net.cpp:159] Memory required for data: 144179712
I0122 16:46:42.385056 58312 layer_factory.hpp:77] Creating layer bn4
I0122 16:46:42.385061 58312 net.cpp:94] Creating Layer bn4
I0122 16:46:42.385064 58312 net.cpp:435] bn4 <- conv4
I0122 16:46:42.385069 58312 net.cpp:409] bn4 -> scale4
I0122 16:46:42.385736 58312 net.cpp:144] Setting up bn4
I0122 16:46:42.385743 58312 net.cpp:151] Top shape: 128 64 16 16 (2097152)
I0122 16:46:42.385746 58312 net.cpp:159] Memory required for data: 152568320
I0122 16:46:42.385756 58312 layer_factory.hpp:77] Creating layer relu4
I0122 16:46:42.385759 58312 net.cpp:94] Creating Layer relu4
I0122 16:46:42.385762 58312 net.cpp:435] relu4 <- scale4
I0122 16:46:42.385767 58312 net.cpp:409] relu4 -> relu4
I0122 16:46:42.385798 58312 net.cpp:144] Setting up relu4
I0122 16:46:42.385804 58312 net.cpp:151] Top shape: 128 64 16 16 (2097152)
I0122 16:46:42.385807 58312 net.cpp:159] Memory required for data: 160956928
I0122 16:46:42.385809 58312 layer_factory.hpp:77] Creating layer pool2
I0122 16:46:42.385815 58312 net.cpp:94] Creating Layer pool2
I0122 16:46:42.385818 58312 net.cpp:435] pool2 <- relu4
I0122 16:46:42.385823 58312 net.cpp:409] pool2 -> pool2
I0122 16:46:42.385850 58312 net.cpp:144] Setting up pool2
I0122 16:46:42.385857 58312 net.cpp:151] Top shape: 128 64 8 8 (524288)
I0122 16:46:42.385860 58312 net.cpp:159] Memory required for data: 163054080
I0122 16:46:42.385862 58312 layer_factory.hpp:77] Creating layer drop2
I0122 16:46:42.385869 58312 net.cpp:94] Creating Layer drop2
I0122 16:46:42.385872 58312 net.cpp:435] drop2 <- pool2
I0122 16:46:42.385876 58312 net.cpp:409] drop2 -> drop2
I0122 16:46:42.385912 58312 net.cpp:144] Setting up drop2
I0122 16:46:42.385918 58312 net.cpp:151] Top shape: 128 64 8 8 (524288)
I0122 16:46:42.385922 58312 net.cpp:159] Memory required for data: 165151232
I0122 16:46:42.385926 58312 layer_factory.hpp:77] Creating layer fc1
I0122 16:46:42.385932 58312 net.cpp:94] Creating Layer fc1
I0122 16:46:42.385936 58312 net.cpp:435] fc1 <- drop2
I0122 16:46:42.385941 58312 net.cpp:409] fc1 -> fc1
I0122 16:46:42.400333 58312 net.cpp:144] Setting up fc1
I0122 16:46:42.400352 58312 net.cpp:151] Top shape: 128 512 (65536)
I0122 16:46:42.400354 58312 net.cpp:159] Memory required for data: 165413376
I0122 16:46:42.400362 58312 layer_factory.hpp:77] Creating layer bn5
I0122 16:46:42.400372 58312 net.cpp:94] Creating Layer bn5
I0122 16:46:42.400374 58312 net.cpp:435] bn5 <- fc1
I0122 16:46:42.400382 58312 net.cpp:409] bn5 -> scale5
I0122 16:46:42.400892 58312 net.cpp:144] Setting up bn5
I0122 16:46:42.400899 58312 net.cpp:151] Top shape: 128 512 (65536)
I0122 16:46:42.400903 58312 net.cpp:159] Memory required for data: 165675520
I0122 16:46:42.400915 58312 layer_factory.hpp:77] Creating layer relu5
I0122 16:46:42.400925 58312 net.cpp:94] Creating Layer relu5
I0122 16:46:42.400928 58312 net.cpp:435] relu5 <- scale5
I0122 16:46:42.400933 58312 net.cpp:409] relu5 -> relu5
I0122 16:46:42.400950 58312 net.cpp:144] Setting up relu5
I0122 16:46:42.400957 58312 net.cpp:151] Top shape: 128 512 (65536)
I0122 16:46:42.400961 58312 net.cpp:159] Memory required for data: 165937664
I0122 16:46:42.400964 58312 layer_factory.hpp:77] Creating layer drop3
I0122 16:46:42.400969 58312 net.cpp:94] Creating Layer drop3
I0122 16:46:42.400972 58312 net.cpp:435] drop3 <- relu5
I0122 16:46:42.400976 58312 net.cpp:409] drop3 -> drop3
I0122 16:46:42.401007 58312 net.cpp:144] Setting up drop3
I0122 16:46:42.401012 58312 net.cpp:151] Top shape: 128 512 (65536)
I0122 16:46:42.401016 58312 net.cpp:159] Memory required for data: 166199808
I0122 16:46:42.401018 58312 layer_factory.hpp:77] Creating layer fc2
I0122 16:46:42.401024 58312 net.cpp:94] Creating Layer fc2
I0122 16:46:42.401029 58312 net.cpp:435] fc2 <- drop3
I0122 16:46:42.401034 58312 net.cpp:409] fc2 -> fc2
I0122 16:46:42.401170 58312 net.cpp:144] Setting up fc2
I0122 16:46:42.401176 58312 net.cpp:151] Top shape: 128 10 (1280)
I0122 16:46:42.401178 58312 net.cpp:159] Memory required for data: 166204928
I0122 16:46:42.401183 58312 layer_factory.hpp:77] Creating layer loss
I0122 16:46:42.401190 58312 net.cpp:94] Creating Layer loss
I0122 16:46:42.401191 58312 net.cpp:435] loss <- fc2
I0122 16:46:42.401196 58312 net.cpp:435] loss <- label
I0122 16:46:42.401201 58312 net.cpp:409] loss -> loss
I0122 16:46:42.401207 58312 layer_factory.hpp:77] Creating layer loss
…
I0122 16:46:42.402427 58312 solver.cpp:189] Creating test net (#0) specified by net file: cifar10/deephi/miniVggNet/pruning/regular_rate_0.7/net_finetune.prototxt
I0122 16:46:42.402460 58312 net.cpp:323] The NetState phase (1) differed from the phase (0) specified by a rule in layer data
I0122 16:46:42.402648 58312 net.cpp:52] Initializing net from parameters: 
state {
  phase: TEST
}
layer {
  name: "data"
  type: "Data"
  top: "data"
  top: "label"
  include {
    phase: TEST
  }
  transform_param {
    mirror: false
    mean_value: 125
    mean_value: 123
    mean_value: 114
  }
  data_param {
    source: "cifar10/input/lmdb/valid_lmdb"
    batch_size: 50
    backend: LMDB
  }
}
layer {
  name: "conv1"
  type: "Convolution"
  bottom: "data"
  top: "conv1"
  param {
    lr_mult: 1
    decay_mult: 1
    compression: PRUNE
  }
  param {
    lr_mult: 2
    decay_mult: 0
    compression: PRUNE
  }
  convolution_param {
    num_output: 32
    pad: 1
    kernel_size: 3
    stride: 1
    weight_filler {
      type: "xavier"
    }
    bias_filler {
      type: "constant"
      value: 0
    }
  }
}
layer {
  name: "bn1"
  type: "BatchNorm"
  bottom: "conv1"
  top: "scale1"
  param {
    lr_mult: 1
    decay_mult: 0
    compression: PRUNE
  }
  param {
    lr_mult: 1
    decay_mult: 0
    compression: PRUNE
  }
  param {
    lr_mult: 0
    decay_mult: 0
    compression: PRUNE
  }
  param {
    lr_mult: 0
    decay_mult: 0
    compression: PRUNE
  }
  batch_norm_param {
    use_global_stats: false
    scale_filler {
      type: "constant"
      value: 1
    }
    bias_filler {
      type: "constant"
      value: 0
    }
  }
}
layer {
  name: "relu1"
  type: "ReLU"
  bottom: "scale1"
  top: "relu1"
}
layer {
  name: "conv2"
  type: "Convolution"
  bottom: "relu1"
  top: "conv2"
  param {
    lr_mult: 1
    decay_mult: 1
    compression: PRUNE
  }
  param {
    lr_mult: 2
    decay_mult: 0
    compression: PRUNE
  }
  convolution_param {
    num_output: 32
    pad: 1
    kernel_size: 3
    stride: 1
    weight_filler {
      type: "xavier"
    }
    bias_filler {
      type: "constant"
      value: 0
    }
  }
}
layer {
  name: "bn2"
  type: "BatchNorm"
  bottom: "conv2"
  top: "scale2"
  param {
    lr_mult: 1
    decay_mult: 0
    compression: PRUNE
  }
  param {
    lr_mult: 1
    decay_mult: 0
    compression: PRUNE
  }
  param {
    lr_mult: 0
    decay_mult: 0
    compression: PRUNE
  }
  param {
    lr_mult: 0
    decay_mult: 0
    compression: PRUNE
  }
  batch_norm_param {
    use_global_stats: false
    scale_filler {
      type: "constant"
      value: 1
    }
    bias_filler {
      type: "constant"
      value: 0
    }
  }
}
layer {
  name: "relu2"
  type: "ReLU"
  bottom: "scale2"
  top: "relu2"
}
layer {
  name: "pool1"
  type: "Pooling"
  bottom: "relu2"
  top: "pool1"
  pooling_param {
    pool: MAX
    kernel_size: 2
    stride: 2
  }
}
layer {
  name: "drop1"
  type: "Dropout"
  bottom: "pool1"
  top: "drop1"
  dropout_param {
    dropout_ratio: 0.25
  }
}
layer {
  name: "conv3"
  type: "Convolution"
  bottom: "drop1"
  top: "conv3"
  param {
    lr_mult: 1
    decay_mult: 1
    compression: PRUNE
  }
  param {
    lr_mult: 2
    decay_mult: 0
    compression: PRUNE
  }
  convolution_param {
    num_output: 64
    pad: 1
    kernel_size: 3
    stride: 1
    weight_filler {
      type: "xavier"
    }
    bias_filler {
      type: "constant"
      value: 0
    }
  }
}
layer {
  name: "bn3"
  type: "BatchNorm"
  bottom: "conv3"
  top: "scale3"
  param {
    lr_mult: 1
    decay_mult: 0
    compression: PRUNE
  }
  param {
    lr_mult: 1
    decay_mult: 0
    compression: PRUNE
  }
  param {
    lr_mult: 0
    decay_mult: 0
    compression: PRUNE
  }
  param {
    lr_mult: 0
    decay_mult: 0
    compression: PRUNE
  }
  batch_norm_param {
    use_global_stats: false
    scale_filler {
      type: "constant"
      value: 1
    }
    bias_filler {
      type: "constant"
      value: 0
    }
  }
}
layer {
  name: "relu3"
  type: "ReLU"
  bottom: "scale3"
  top: "relu3"
}
layer {
  name: "conv4"
  type: "Convolution"
  bottom: "relu3"
  top: "conv4"
  param {
    lr_mult: 1
    decay_mult: 1
    compression: PRUNE
  }
  param {
    lr_mult: 2
    decay_mult: 0
    compression: PRUNE
  }
  convolution_param {
    num_output: 64
    pad: 1
    kernel_size: 3
    stride: 1
    weight_filler {
      type: "xavier"
    }
    bias_filler {
      type: "constant"
      value: 0
    }
  }
}
layer {
  name: "bn4"
  type: "BatchNorm"
  bottom: "conv4"
  top: "scale4"
  param {
    lr_mult: 1
    decay_mult: 0
    compression: PRUNE
  }
  param {
    lr_mult: 1
    decay_mult: 0
    compression: PRUNE
  }
  param {
    lr_mult: 0
    decay_mult: 0
    compression: PRUNE
  }
  param {
    lr_mult: 0
    decay_mult: 0
    compression: PRUNE
  }
  batch_norm_param {
    use_global_stats: false
    scale_filler {
      type: "constant"
      value: 1
    }
    bias_filler {
      type: "constant"
      value: 0
    }
  }
}
layer {
  name: "relu4"
  type: "ReLU"
  bottom: "scale4"
  top: "relu4"
}
layer {
  name: "pool2"
  type: "Pooling"
  bottom: "relu4"
  top: "pool2"
  pooling_param {
    pool: MAX
    kernel_size: 2
    stride: 2
  }
}
layer {
  name: "drop2"
  type: "Dropout"
  bottom: "pool2"
  top: "drop2"
  dropout_param {
    dropout_ratio: 0.25
  }
}
layer {
  name: "fc1"
  type: "InnerProduct"
  bottom: "drop2"
  top: "fc1"
  param {
    lr_mult: 1
    decay_mult: 1
  }
  param {
    lr_mult: 2
    decay_mult: 0
  }
  inner_product_param {
    num_output: 512
    weight_filler {
      type: "xavier"
    }
    bias_filler {
      type: "constant"
      value: 1
    }
  }
}
layer {
  name: "bn5"
  type: "BatchNorm"
  bottom: "fc1"
  top: "scale5"
  param {
    lr_mult: 1
    decay_mult: 0
    compression: PRUNE
  }
  param {
    lr_mult: 1
    decay_mult: 0
    compression: PRUNE
  }
  param {
    lr_mult: 0
    decay_mult: 0
    compression: PRUNE
  }
  param {
    lr_mult: 0
    decay_mult: 0
    compression: PRUNE
  }
  batch_norm_param {
    use_global_stats: false
    scale_filler {
      type: "constant"
      value: 1
    }
    bias_filler {
      type: "constant"
      value: 0
    }
  }
}
layer {
  name: "relu5"
  type: "ReLU"
  bottom: "scale5"
  top: "relu5"
}
layer {
  name: "drop3"
  type: "Dropout"
  bottom: "relu5"
  top: "drop3"
  dropout_param {
    dropout_ratio: 0.5
  }
}
layer {
  name: "fc2"
  type: "InnerProduct"
  bottom: "drop3"
  top: "fc2"
  param {
    lr_mult: 1
    decay_mult: 1
  }
  param {
    lr_mult: 2
    decay_mult: 0
  }
  inner_product_param {
    num_output: 10
    weight_filler {
      type: "xavier"
    }
    bias_filler {
      type: "constant"
      value: 1
    }
  }
}
layer {
  name: "loss"
  type: "SoftmaxWithLoss"
  bottom: "fc2"
  bottom: "label"
  top: "loss"
}
layer {
  name: "accuracy-top1"
  type: "Accuracy"
  bottom: "fc2"
  bottom: "label"
  top: "top-1"
  include {
    phase: TEST
  }
}
layer {
  name: "accuracy-top5"
  type: "Accuracy"
  bottom: "fc2"
  bottom: "label"
  top: "top-5"
  include {
    phase: TEST
  }
  accuracy_param {
    top_k: 5
  }
}
I0122 16:46:42.402743 58312 layer_factory.hpp:77] Creating layer data
I0122 16:46:42.402783 58312 internal_thread.cpp:27] Starting internal thread(s) on GPU 0
I0122 16:46:42.403620 58312 net.cpp:94] Creating Layer data
I0122 16:46:42.403628 58312 net.cpp:409] data -> data
I0122 16:46:42.403637 58312 net.cpp:409] data -> label
I0122 16:46:42.404538 58379 db_lmdb.cpp:35] Opened lmdb cifar10/input/lmdb/valid_lmdb
I0122 16:46:42.404572 58379 data_reader.cpp:117] TEST: reading data using 1 channel(s)
I0122 16:46:42.404659 58312 data_layer.cpp:78] ReshapePrefetch 50, 3, 32, 32
I0122 16:46:42.404747 58312 data_layer.cpp:83] output data size: 50,3,32,32
I0122 16:46:42.408411 58312 internal_thread.cpp:27] Starting internal thread(s) on GPU 0
I0122 16:46:42.408466 58312 net.cpp:144] Setting up data
I0122 16:46:42.408473 58312 net.cpp:151] Top shape: 50 3 32 32 (153600)
I0122 16:46:42.408478 58312 net.cpp:151] Top shape: 50 (50)
I0122 16:46:42.408483 58312 net.cpp:159] Memory required for data: 614600
I0122 16:46:42.408488 58312 layer_factory.hpp:77] Creating layer label_data_1_split
I0122 16:46:42.408495 58312 net.cpp:94] Creating Layer label_data_1_split
I0122 16:46:42.408499 58312 net.cpp:435] label_data_1_split <- label
I0122 16:46:42.408506 58312 net.cpp:409] label_data_1_split -> label_data_1_split_0
I0122 16:46:42.408525 58312 net.cpp:409] label_data_1_split -> label_data_1_split_1
I0122 16:46:42.408531 58312 net.cpp:409] label_data_1_split -> label_data_1_split_2
I0122 16:46:42.408643 58312 net.cpp:144] Setting up label_data_1_split
I0122 16:46:42.408648 58312 net.cpp:151] Top shape: 50 (50)
I0122 16:46:42.408653 58312 net.cpp:151] Top shape: 50 (50)
I0122 16:46:42.408655 58312 net.cpp:151] Top shape: 50 (50)
I0122 16:46:42.408658 58312 net.cpp:159] Memory required for data: 615200
I0122 16:46:42.408661 58312 layer_factory.hpp:77] Creating layer conv1
I0122 16:46:42.408671 58312 net.cpp:94] Creating Layer conv1
I0122 16:46:42.408674 58312 net.cpp:435] conv1 <- data
I0122 16:46:42.408680 58312 net.cpp:409] conv1 -> conv1
I0122 16:46:42.409039 58312 net.cpp:144] Setting up conv1
I0122 16:46:42.409045 58312 net.cpp:151] Top shape: 50 32 32 32 (1638400)
I0122 16:46:42.409049 58312 net.cpp:159] Memory required for data: 7168800
I0122 16:46:42.409059 58312 layer_factory.hpp:77] Creating layer bn1
I0122 16:46:42.409066 58312 net.cpp:94] Creating Layer bn1
I0122 16:46:42.409070 58312 net.cpp:435] bn1 <- conv1
I0122 16:46:42.409075 58312 net.cpp:409] bn1 -> scale1
I0122 16:46:42.409714 58312 net.cpp:144] Setting up bn1
I0122 16:46:42.409721 58312 net.cpp:151] Top shape: 50 32 32 32 (1638400)
I0122 16:46:42.409724 58312 net.cpp:159] Memory required for data: 13722400
I0122 16:46:42.409735 58312 layer_factory.hpp:77] Creating layer relu1
I0122 16:46:42.409744 58312 net.cpp:94] Creating Layer relu1
I0122 16:46:42.409746 58312 net.cpp:435] relu1 <- scale1
I0122 16:46:42.409750 58312 net.cpp:409] relu1 -> relu1
I0122 16:46:42.409768 58312 net.cpp:144] Setting up relu1
I0122 16:46:42.409773 58312 net.cpp:151] Top shape: 50 32 32 32 (1638400)
I0122 16:46:42.409777 58312 net.cpp:159] Memory required for data: 20276000
I0122 16:46:42.409780 58312 layer_factory.hpp:77] Creating layer conv2
I0122 16:46:42.409787 58312 net.cpp:94] Creating Layer conv2
I0122 16:46:42.409792 58312 net.cpp:435] conv2 <- relu1
I0122 16:46:42.409796 58312 net.cpp:409] conv2 -> conv2
I0122 16:46:42.410387 58312 net.cpp:144] Setting up conv2
I0122 16:46:42.410395 58312 net.cpp:151] Top shape: 50 32 32 32 (1638400)
I0122 16:46:42.410398 58312 net.cpp:159] Memory required for data: 26829600
I0122 16:46:42.410405 58312 layer_factory.hpp:77] Creating layer bn2
I0122 16:46:42.410411 58312 net.cpp:94] Creating Layer bn2
I0122 16:46:42.410414 58312 net.cpp:435] bn2 <- conv2
I0122 16:46:42.410420 58312 net.cpp:409] bn2 -> scale2
I0122 16:46:42.411198 58312 net.cpp:144] Setting up bn2
I0122 16:46:42.411206 58312 net.cpp:151] Top shape: 50 32 32 32 (1638400)
I0122 16:46:42.411209 58312 net.cpp:159] Memory required for data: 33383200
I0122 16:46:42.411217 58312 layer_factory.hpp:77] Creating layer relu2
I0122 16:46:42.411221 58312 net.cpp:94] Creating Layer relu2
I0122 16:46:42.411226 58312 net.cpp:435] relu2 <- scale2
I0122 16:46:42.411231 58312 net.cpp:409] relu2 -> relu2
I0122 16:46:42.411252 58312 net.cpp:144] Setting up relu2
I0122 16:46:42.411257 58312 net.cpp:151] Top shape: 50 32 32 32 (1638400)
I0122 16:46:42.411260 58312 net.cpp:159] Memory required for data: 39936800
I0122 16:46:42.411263 58312 layer_factory.hpp:77] Creating layer pool1
I0122 16:46:42.411268 58312 net.cpp:94] Creating Layer pool1
I0122 16:46:42.411272 58312 net.cpp:435] pool1 <- relu2
I0122 16:46:42.411276 58312 net.cpp:409] pool1 -> pool1
I0122 16:46:42.411309 58312 net.cpp:144] Setting up pool1
I0122 16:46:42.411324 58312 net.cpp:151] Top shape: 50 32 16 16 (409600)
I0122 16:46:42.411327 58312 net.cpp:159] Memory required for data: 41575200
I0122 16:46:42.411330 58312 layer_factory.hpp:77] Creating layer drop1
I0122 16:46:42.411335 58312 net.cpp:94] Creating Layer drop1
I0122 16:46:42.411339 58312 net.cpp:435] drop1 <- pool1
I0122 16:46:42.411343 58312 net.cpp:409] drop1 -> drop1
I0122 16:46:42.411378 58312 net.cpp:144] Setting up drop1
I0122 16:46:42.411383 58312 net.cpp:151] Top shape: 50 32 16 16 (409600)
I0122 16:46:42.411387 58312 net.cpp:159] Memory required for data: 43213600
I0122 16:46:42.411389 58312 layer_factory.hpp:77] Creating layer conv3
I0122 16:46:42.411397 58312 net.cpp:94] Creating Layer conv3
I0122 16:46:42.411401 58312 net.cpp:435] conv3 <- drop1
I0122 16:46:42.411406 58312 net.cpp:409] conv3 -> conv3
I0122 16:46:42.411809 58312 net.cpp:144] Setting up conv3
I0122 16:46:42.411818 58312 net.cpp:151] Top shape: 50 64 16 16 (819200)
I0122 16:46:42.411820 58312 net.cpp:159] Memory required for data: 46490400
I0122 16:46:42.411825 58312 layer_factory.hpp:77] Creating layer bn3
I0122 16:46:42.411831 58312 net.cpp:94] Creating Layer bn3
I0122 16:46:42.411835 58312 net.cpp:435] bn3 <- conv3
I0122 16:46:42.411840 58312 net.cpp:409] bn3 -> scale3
I0122 16:46:42.412494 58312 net.cpp:144] Setting up bn3
I0122 16:46:42.412501 58312 net.cpp:151] Top shape: 50 64 16 16 (819200)
I0122 16:46:42.412504 58312 net.cpp:159] Memory required for data: 49767200
I0122 16:46:42.412515 58312 layer_factory.hpp:77] Creating layer relu3
I0122 16:46:42.412523 58312 net.cpp:94] Creating Layer relu3
I0122 16:46:42.412526 58312 net.cpp:435] relu3 <- scale3
I0122 16:46:42.412530 58312 net.cpp:409] relu3 -> relu3
I0122 16:46:42.412547 58312 net.cpp:144] Setting up relu3
I0122 16:46:42.412554 58312 net.cpp:151] Top shape: 50 64 16 16 (819200)
I0122 16:46:42.412555 58312 net.cpp:159] Memory required for data: 53044000
I0122 16:46:42.412559 58312 layer_factory.hpp:77] Creating layer conv4
I0122 16:46:42.412566 58312 net.cpp:94] Creating Layer conv4
I0122 16:46:42.412569 58312 net.cpp:435] conv4 <- relu3
I0122 16:46:42.412575 58312 net.cpp:409] conv4 -> conv4
I0122 16:46:42.413028 58312 net.cpp:144] Setting up conv4
I0122 16:46:42.413034 58312 net.cpp:151] Top shape: 50 64 16 16 (819200)
I0122 16:46:42.413038 58312 net.cpp:159] Memory required for data: 56320800
I0122 16:46:42.413043 58312 layer_factory.hpp:77] Creating layer bn4
I0122 16:46:42.413049 58312 net.cpp:94] Creating Layer bn4
I0122 16:46:42.413053 58312 net.cpp:435] bn4 <- conv4
I0122 16:46:42.413058 58312 net.cpp:409] bn4 -> scale4
I0122 16:46:42.413753 58312 net.cpp:144] Setting up bn4
I0122 16:46:42.413759 58312 net.cpp:151] Top shape: 50 64 16 16 (819200)
I0122 16:46:42.413763 58312 net.cpp:159] Memory required for data: 59597600
I0122 16:46:42.413770 58312 layer_factory.hpp:77] Creating layer relu4
I0122 16:46:42.413775 58312 net.cpp:94] Creating Layer relu4
I0122 16:46:42.413779 58312 net.cpp:435] relu4 <- scale4
I0122 16:46:42.413784 58312 net.cpp:409] relu4 -> relu4
I0122 16:46:42.413800 58312 net.cpp:144] Setting up relu4
I0122 16:46:42.413806 58312 net.cpp:151] Top shape: 50 64 16 16 (819200)
I0122 16:46:42.413810 58312 net.cpp:159] Memory required for data: 62874400
I0122 16:46:42.413813 58312 layer_factory.hpp:77] Creating layer pool2
I0122 16:46:42.413818 58312 net.cpp:94] Creating Layer pool2
I0122 16:46:42.413822 58312 net.cpp:435] pool2 <- relu4
I0122 16:46:42.413827 58312 net.cpp:409] pool2 -> pool2
I0122 16:46:42.413859 58312 net.cpp:144] Setting up pool2
I0122 16:46:42.413864 58312 net.cpp:151] Top shape: 50 64 8 8 (204800)
I0122 16:46:42.413867 58312 net.cpp:159] Memory required for data: 63693600
I0122 16:46:42.413870 58312 layer_factory.hpp:77] Creating layer drop2
I0122 16:46:42.413875 58312 net.cpp:94] Creating Layer drop2
I0122 16:46:42.413878 58312 net.cpp:435] drop2 <- pool2
I0122 16:46:42.413882 58312 net.cpp:409] drop2 -> drop2
I0122 16:46:42.413965 58312 net.cpp:144] Setting up drop2
I0122 16:46:42.413971 58312 net.cpp:151] Top shape: 50 64 8 8 (204800)
I0122 16:46:42.413983 58312 net.cpp:159] Memory required for data: 64512800
I0122 16:46:42.413986 58312 layer_factory.hpp:77] Creating layer fc1
I0122 16:46:42.413993 58312 net.cpp:94] Creating Layer fc1
I0122 16:46:42.413997 58312 net.cpp:435] fc1 <- drop2
I0122 16:46:42.414001 58312 net.cpp:409] fc1 -> fc1
I0122 16:46:42.427992 58312 net.cpp:144] Setting up fc1
I0122 16:46:42.428012 58312 net.cpp:151] Top shape: 50 512 (25600)
I0122 16:46:42.428015 58312 net.cpp:159] Memory required for data: 64615200
I0122 16:46:42.428023 58312 layer_factory.hpp:77] Creating layer bn5
I0122 16:46:42.428032 58312 net.cpp:94] Creating Layer bn5
I0122 16:46:42.428036 58312 net.cpp:435] bn5 <- fc1
I0122 16:46:42.428043 58312 net.cpp:409] bn5 -> scale5
I0122 16:46:42.428656 58312 net.cpp:144] Setting up bn5
I0122 16:46:42.428663 58312 net.cpp:151] Top shape: 50 512 (25600)
I0122 16:46:42.428666 58312 net.cpp:159] Memory required for data: 64717600
I0122 16:46:42.428678 58312 layer_factory.hpp:77] Creating layer relu5
I0122 16:46:42.428685 58312 net.cpp:94] Creating Layer relu5
I0122 16:46:42.428689 58312 net.cpp:435] relu5 <- scale5
I0122 16:46:42.428694 58312 net.cpp:409] relu5 -> relu5
I0122 16:46:42.428712 58312 net.cpp:144] Setting up relu5
I0122 16:46:42.428719 58312 net.cpp:151] Top shape: 50 512 (25600)
I0122 16:46:42.428721 58312 net.cpp:159] Memory required for data: 64820000
I0122 16:46:42.428725 58312 layer_factory.hpp:77] Creating layer drop3
I0122 16:46:42.428730 58312 net.cpp:94] Creating Layer drop3
I0122 16:46:42.428732 58312 net.cpp:435] drop3 <- relu5
I0122 16:46:42.428736 58312 net.cpp:409] drop3 -> drop3
I0122 16:46:42.428764 58312 net.cpp:144] Setting up drop3
I0122 16:46:42.428769 58312 net.cpp:151] Top shape: 50 512 (25600)
I0122 16:46:42.428772 58312 net.cpp:159] Memory required for data: 64922400
I0122 16:46:42.428774 58312 layer_factory.hpp:77] Creating layer fc2
I0122 16:46:42.428781 58312 net.cpp:94] Creating Layer fc2
I0122 16:46:42.428784 58312 net.cpp:435] fc2 <- drop3
I0122 16:46:42.428789 58312 net.cpp:409] fc2 -> fc2
I0122 16:46:42.428930 58312 net.cpp:144] Setting up fc2
I0122 16:46:42.428936 58312 net.cpp:151] Top shape: 50 10 (500)
I0122 16:46:42.428941 58312 net.cpp:159] Memory required for data: 64924400
I0122 16:46:42.428944 58312 layer_factory.hpp:77] Creating layer fc2_fc2_0_split
I0122 16:46:42.428951 58312 net.cpp:94] Creating Layer fc2_fc2_0_split
I0122 16:46:42.428953 58312 net.cpp:435] fc2_fc2_0_split <- fc2
I0122 16:46:42.428957 58312 net.cpp:409] fc2_fc2_0_split -> fc2_fc2_0_split_0
I0122 16:46:42.428964 58312 net.cpp:409] fc2_fc2_0_split -> fc2_fc2_0_split_1
I0122 16:46:42.428972 58312 net.cpp:409] fc2_fc2_0_split -> fc2_fc2_0_split_2
I0122 16:46:42.429013 58312 net.cpp:144] Setting up fc2_fc2_0_split
I0122 16:46:42.429018 58312 net.cpp:151] Top shape: 50 10 (500)
I0122 16:46:42.429021 58312 net.cpp:151] Top shape: 50 10 (500)
I0122 16:46:42.429024 58312 net.cpp:151] Top shape: 50 10 (500)
I0122 16:46:42.429028 58312 net.cpp:159] Memory required for data: 64930400
I0122 16:46:42.429029 58312 layer_factory.hpp:77] Creating layer loss
I0122 16:46:42.429035 58312 net.cpp:94] Creating Layer loss
I0122 16:46:42.429039 58312 net.cpp:435] loss <- fc2_fc2_0_split_0
I0122 16:46:42.429044 58312 net.cpp:435] loss <- label_data_1_split_0
I0122 16:46:42.429049 58312 net.cpp:409] loss -> loss
…
