…
I0122 16:32:17.710346 50515 caffe_interface.cpp:70] GPU device name: Quadro P6000
I0122 16:32:17.710821 50515 net.cpp:323] The NetState phase (1) differed from the phase (0) specified by a rule in layer data
I0122 16:32:17.711074 50515 net.cpp:52] Initializing net from parameters: 
state {
  phase: TEST
}
layer {
  name: "data"
  type: "Data"
  top: "data"
  top: "label"
  include {
    phase: TEST
  }
  transform_param {
    mirror: false
    mean_value: 125
    mean_value: 123
    mean_value: 114
  }
  data_param {
    source: "cifar10/input/lmdb/valid_lmdb"
    batch_size: 50
    backend: LMDB
  }
}
layer {
  name: "conv1"
  type: "Convolution"
  bottom: "data"
  top: "conv1"
  param {
    lr_mult: 1
    decay_mult: 1
  }
  param {
    lr_mult: 2
    decay_mult: 0
  }
  convolution_param {
    num_output: 32
    pad: 1
    kernel_size: 3
    stride: 1
    weight_filler {
      type: "xavier"
    }
    bias_filler {
      type: "constant"
      value: 0
    }
  }
}
layer {
  name: "bn1"
  type: "BatchNorm"
  bottom: "conv1"
  top: "scale1"
  param {
    lr_mult: 1
    decay_mult: 0
  }
  param {
    lr_mult: 1
    decay_mult: 0
  }
  param {
    lr_mult: 0
    decay_mult: 0
  }
  param {
    lr_mult: 0
    decay_mult: 0
  }
  batch_norm_param {
    use_global_stats: false
    scale_filler {
      type: "constant"
      value: 1
    }
    bias_filler {
      type: "constant"
      value: 0
    }
  }
}
layer {
  name: "relu1"
  type: "ReLU"
  bottom: "scale1"
  top: "relu1"
}
layer {
  name: "conv2"
  type: "Convolution"
  bottom: "relu1"
  top: "conv2"
  param {
    lr_mult: 1
    decay_mult: 1
  }
  param {
    lr_mult: 2
    decay_mult: 0
  }
  convolution_param {
    num_output: 32
    pad: 1
    kernel_size: 3
    stride: 1
    weight_filler {
      type: "xavier"
    }
    bias_filler {
      type: "constant"
      value: 0
    }
  }
}
layer {
  name: "bn2"
  type: "BatchNorm"
  bottom: "conv2"
  top: "scale2"
  param {
    lr_mult: 1
    decay_mult: 0
  }
  param {
    lr_mult: 1
    decay_mult: 0
  }
  param {
    lr_mult: 0
    decay_mult: 0
  }
  param {
    lr_mult: 0
    decay_mult: 0
  }
  batch_norm_param {
    use_global_stats: false
    scale_filler {
      type: "constant"
      value: 1
    }
    bias_filler {
      type: "constant"
      value: 0
    }
  }
}
layer {
  name: "relu2"
  type: "ReLU"
  bottom: "scale2"
  top: "relu2"
}
layer {
  name: "pool1"
  type: "Pooling"
  bottom: "relu2"
  top: "pool1"
  pooling_param {
    pool: MAX
    kernel_size: 2
    stride: 2
  }
}
layer {
  name: "drop1"
  type: "Dropout"
  bottom: "pool1"
  top: "drop1"
  dropout_param {
    dropout_ratio: 0.25
  }
}
layer {
  name: "conv3"
  type: "Convolution"
  bottom: "drop1"
  top: "conv3"
  param {
    lr_mult: 1
    decay_mult: 1
  }
  param {
    lr_mult: 2
    decay_mult: 0
  }
  convolution_param {
    num_output: 64
    pad: 1
    kernel_size: 3
    stride: 1
    weight_filler {
      type: "xavier"
    }
    bias_filler {
      type: "constant"
      value: 0
    }
  }
}
layer {
  name: "bn3"
  type: "BatchNorm"
  bottom: "conv3"
  top: "scale3"
  param {
    lr_mult: 1
    decay_mult: 0
  }
  param {
    lr_mult: 1
    decay_mult: 0
  }
  param {
    lr_mult: 0
    decay_mult: 0
  }
  param {
    lr_mult: 0
    decay_mult: 0
  }
  batch_norm_param {
    use_global_stats: false
    scale_filler {
      type: "constant"
      value: 1
    }
    bias_filler {
      type: "constant"
      value: 0
    }
  }
}
layer {
  name: "relu3"
  type: "ReLU"
  bottom: "scale3"
  top: "relu3"
}
layer {
  name: "conv4"
  type: "Convolution"
  bottom: "relu3"
  top: "conv4"
  param {
    lr_mult: 1
    decay_mult: 1
  }
  param {
    lr_mult: 2
    decay_mult: 0
  }
  convolution_param {
    num_output: 64
    pad: 1
    kernel_size: 3
    stride: 1
    weight_filler {
      type: "xavier"
    }
    bias_filler {
      type: "constant"
      value: 0
    }
  }
}
layer {
  name: "bn4"
  type: "BatchNorm"
  bottom: "conv4"
  top: "scale4"
  param {
    lr_mult: 1
    decay_mult: 0
  }
  param {
    lr_mult: 1
    decay_mult: 0
  }
  param {
    lr_mult: 0
    decay_mult: 0
  }
  param {
    lr_mult: 0
    decay_mult: 0
  }
  batch_norm_param {
    use_global_stats: false
    scale_filler {
      type: "constant"
      value: 1
    }
    bias_filler {
      type: "constant"
      value: 0
    }
  }
}
layer {
  name: "relu4"
  type: "ReLU"
  bottom: "scale4"
  top: "relu4"
}
layer {
  name: "pool2"
  type: "Pooling"
  bottom: "relu4"
  top: "pool2"
  pooling_param {
    pool: MAX
    kernel_size: 2
    stride: 2
  }
}
layer {
  name: "drop2"
  type: "Dropout"
  bottom: "pool2"
  top: "drop2"
  dropout_param {
    dropout_ratio: 0.25
  }
}
layer {
  name: "fc1"
  type: "InnerProduct"
  bottom: "drop2"
  top: "fc1"
  param {
    lr_mult: 1
    decay_mult: 1
  }
  param {
    lr_mult: 2
    decay_mult: 0
  }
  inner_product_param {
    num_output: 512
    weight_filler {
      type: "xavier"
    }
    bias_filler {
      type: "constant"
      value: 1
    }
  }
}
layer {
  name: "bn5"
  type: "BatchNorm"
  bottom: "fc1"
  top: "scale5"
  param {
    lr_mult: 1
    decay_mult: 0
  }
  param {
    lr_mult: 1
    decay_mult: 0
  }
  param {
    lr_mult: 0
    decay_mult: 0
  }
  param {
    lr_mult: 0
    decay_mult: 0
  }
  batch_norm_param {
    use_global_stats: false
    scale_filler {
      type: "constant"
      value: 1
    }
    bias_filler {
      type: "constant"
      value: 0
    }
  }
}
layer {
  name: "relu5"
  type: "ReLU"
  bottom: "scale5"
  top: "relu5"
}
layer {
  name: "drop3"
  type: "Dropout"
  bottom: "relu5"
  top: "drop3"
  dropout_param {
    dropout_ratio: 0.5
  }
}
layer {
  name: "fc2"
  type: "InnerProduct"
  bottom: "drop3"
  top: "fc2"
  param {
    lr_mult: 1
    decay_mult: 1
  }
  param {
    lr_mult: 2
    decay_mult: 0
  }
  inner_product_param {
    num_output: 10
    weight_filler {
      type: "xavier"
    }
    bias_filler {
      type: "constant"
      value: 1
    }
  }
}
layer {
  name: "loss"
  type: "SoftmaxWithLoss"
  bottom: "fc2"
  bottom: "label"
  top: "loss"
}
layer {
  name: "accuracy-top1"
  type: "Accuracy"
  bottom: "fc2"
  bottom: "label"
  top: "top-1"
  include {
    phase: TEST
  }
}
layer {
  name: "accuracy-top5"
  type: "Accuracy"
  bottom: "fc2"
  bottom: "label"
  top: "top-5"
  include {
    phase: TEST
  }
  accuracy_param {
    top_k: 5
  }
}
I0122 16:32:17.711225 50515 layer_factory.hpp:77] Creating layer data
I0122 16:32:17.711279 50515 internal_thread.cpp:27] Starting internal thread(s) on GPU 0
I0122 16:32:17.711740 50515 net.cpp:94] Creating Layer data
I0122 16:32:17.711750 50515 net.cpp:409] data -> data
I0122 16:32:17.711762 50515 net.cpp:409] data -> label
I0122 16:32:17.712786 51903 db_lmdb.cpp:35] Opened lmdb cifar10/input/lmdb/valid_lmdb
I0122 16:32:17.712817 51903 data_reader.cpp:117] TEST: reading data using 1 channel(s)
I0122 16:32:17.712954 50515 data_layer.cpp:78] ReshapePrefetch 50, 3, 32, 32
I0122 16:32:17.713070 50515 data_layer.cpp:83] output data size: 50,3,32,32
I0122 16:32:17.716480 50515 internal_thread.cpp:27] Starting internal thread(s) on GPU 0
I0122 16:32:17.716527 50515 net.cpp:144] Setting up data
I0122 16:32:17.716537 50515 net.cpp:151] Top shape: 50 3 32 32 (153600)
I0122 16:32:17.716544 50515 net.cpp:151] Top shape: 50 (50)
I0122 16:32:17.716547 50515 net.cpp:159] Memory required for data: 614600
I0122 16:32:17.716552 50515 layer_factory.hpp:77] Creating layer label_data_1_split
I0122 16:32:17.716562 50515 net.cpp:94] Creating Layer label_data_1_split
I0122 16:32:17.716586 50515 net.cpp:435] label_data_1_split <- label
I0122 16:32:17.716594 50515 net.cpp:409] label_data_1_split -> label_data_1_split_0
I0122 16:32:17.716606 50515 net.cpp:409] label_data_1_split -> label_data_1_split_1
I0122 16:32:17.716615 50515 net.cpp:409] label_data_1_split -> label_data_1_split_2
I0122 16:32:17.716714 50515 net.cpp:144] Setting up label_data_1_split
I0122 16:32:17.716722 50515 net.cpp:151] Top shape: 50 (50)
I0122 16:32:17.716727 50515 net.cpp:151] Top shape: 50 (50)
I0122 16:32:17.716732 50515 net.cpp:151] Top shape: 50 (50)
I0122 16:32:17.716735 50515 net.cpp:159] Memory required for data: 615200
I0122 16:32:17.716739 50515 layer_factory.hpp:77] Creating layer conv1
I0122 16:32:17.716753 50515 net.cpp:94] Creating Layer conv1
I0122 16:32:17.716758 50515 net.cpp:435] conv1 <- data
I0122 16:32:17.716766 50515 net.cpp:409] conv1 -> conv1
I0122 16:32:17.717936 50515 net.cpp:144] Setting up conv1
I0122 16:32:17.717950 50515 net.cpp:151] Top shape: 50 32 32 32 (1638400)
I0122 16:32:17.717954 50515 net.cpp:159] Memory required for data: 7168800
I0122 16:32:17.717968 50515 layer_factory.hpp:77] Creating layer bn1
I0122 16:32:17.717979 50515 net.cpp:94] Creating Layer bn1
I0122 16:32:17.717986 50515 net.cpp:435] bn1 <- conv1
I0122 16:32:17.717993 50515 net.cpp:409] bn1 -> scale1
I0122 16:32:17.718664 50515 net.cpp:144] Setting up bn1
I0122 16:32:17.718672 50515 net.cpp:151] Top shape: 50 32 32 32 (1638400)
I0122 16:32:17.718674 50515 net.cpp:159] Memory required for data: 13722400
I0122 16:32:17.718686 50515 layer_factory.hpp:77] Creating layer relu1
I0122 16:32:17.718694 50515 net.cpp:94] Creating Layer relu1
I0122 16:32:17.718698 50515 net.cpp:435] relu1 <- scale1
I0122 16:32:17.718701 50515 net.cpp:409] relu1 -> relu1
I0122 16:32:17.718719 50515 net.cpp:144] Setting up relu1
I0122 16:32:17.718725 50515 net.cpp:151] Top shape: 50 32 32 32 (1638400)
I0122 16:32:17.718729 50515 net.cpp:159] Memory required for data: 20276000
I0122 16:32:17.718730 50515 layer_factory.hpp:77] Creating layer conv2
I0122 16:32:17.718739 50515 net.cpp:94] Creating Layer conv2
I0122 16:32:17.718744 50515 net.cpp:435] conv2 <- relu1
I0122 16:32:17.718750 50515 net.cpp:409] conv2 -> conv2
I0122 16:32:17.719682 50515 net.cpp:144] Setting up conv2
I0122 16:32:17.719694 50515 net.cpp:151] Top shape: 50 32 32 32 (1638400)
I0122 16:32:17.719697 50515 net.cpp:159] Memory required for data: 26829600
I0122 16:32:17.719707 50515 layer_factory.hpp:77] Creating layer bn2
I0122 16:32:17.719715 50515 net.cpp:94] Creating Layer bn2
I0122 16:32:17.719718 50515 net.cpp:435] bn2 <- conv2
I0122 16:32:17.719725 50515 net.cpp:409] bn2 -> scale2
I0122 16:32:17.720464 50515 net.cpp:144] Setting up bn2
I0122 16:32:17.720471 50515 net.cpp:151] Top shape: 50 32 32 32 (1638400)
I0122 16:32:17.720474 50515 net.cpp:159] Memory required for data: 33383200
I0122 16:32:17.720484 50515 layer_factory.hpp:77] Creating layer relu2
I0122 16:32:17.720489 50515 net.cpp:94] Creating Layer relu2
I0122 16:32:17.720494 50515 net.cpp:435] relu2 <- scale2
I0122 16:32:17.720497 50515 net.cpp:409] relu2 -> relu2
I0122 16:32:17.720522 50515 net.cpp:144] Setting up relu2
I0122 16:32:17.720528 50515 net.cpp:151] Top shape: 50 32 32 32 (1638400)
I0122 16:32:17.720531 50515 net.cpp:159] Memory required for data: 39936800
I0122 16:32:17.720535 50515 layer_factory.hpp:77] Creating layer pool1
I0122 16:32:17.720553 50515 net.cpp:94] Creating Layer pool1
I0122 16:32:17.720556 50515 net.cpp:435] pool1 <- relu2
I0122 16:32:17.720561 50515 net.cpp:409] pool1 -> pool1
I0122 16:32:17.720597 50515 net.cpp:144] Setting up pool1
I0122 16:32:17.720603 50515 net.cpp:151] Top shape: 50 32 16 16 (409600)
I0122 16:32:17.720607 50515 net.cpp:159] Memory required for data: 41575200
I0122 16:32:17.720610 50515 layer_factory.hpp:77] Creating layer drop1
I0122 16:32:17.720614 50515 net.cpp:94] Creating Layer drop1
I0122 16:32:17.720618 50515 net.cpp:435] drop1 <- pool1
I0122 16:32:17.720623 50515 net.cpp:409] drop1 -> drop1
I0122 16:32:17.720686 50515 net.cpp:144] Setting up drop1
I0122 16:32:17.720692 50515 net.cpp:151] Top shape: 50 32 16 16 (409600)
I0122 16:32:17.720696 50515 net.cpp:159] Memory required for data: 43213600
I0122 16:32:17.720698 50515 layer_factory.hpp:77] Creating layer conv3
I0122 16:32:17.720708 50515 net.cpp:94] Creating Layer conv3
I0122 16:32:17.720712 50515 net.cpp:435] conv3 <- drop1
I0122 16:32:17.720718 50515 net.cpp:409] conv3 -> conv3
I0122 16:32:17.721693 50515 net.cpp:144] Setting up conv3
I0122 16:32:17.721704 50515 net.cpp:151] Top shape: 50 64 16 16 (819200)
I0122 16:32:17.721706 50515 net.cpp:159] Memory required for data: 46490400
I0122 16:32:17.721714 50515 layer_factory.hpp:77] Creating layer bn3
I0122 16:32:17.721720 50515 net.cpp:94] Creating Layer bn3
I0122 16:32:17.721725 50515 net.cpp:435] bn3 <- conv3
I0122 16:32:17.721731 50515 net.cpp:409] bn3 -> scale3
I0122 16:32:17.722419 50515 net.cpp:144] Setting up bn3
I0122 16:32:17.722427 50515 net.cpp:151] Top shape: 50 64 16 16 (819200)
I0122 16:32:17.722431 50515 net.cpp:159] Memory required for data: 49767200
I0122 16:32:17.722442 50515 layer_factory.hpp:77] Creating layer relu3
I0122 16:32:17.722450 50515 net.cpp:94] Creating Layer relu3
I0122 16:32:17.722453 50515 net.cpp:435] relu3 <- scale3
I0122 16:32:17.722458 50515 net.cpp:409] relu3 -> relu3
I0122 16:32:17.722476 50515 net.cpp:144] Setting up relu3
I0122 16:32:17.722483 50515 net.cpp:151] Top shape: 50 64 16 16 (819200)
I0122 16:32:17.722486 50515 net.cpp:159] Memory required for data: 53044000
I0122 16:32:17.722489 50515 layer_factory.hpp:77] Creating layer conv4
I0122 16:32:17.722497 50515 net.cpp:94] Creating Layer conv4
I0122 16:32:17.722503 50515 net.cpp:435] conv4 <- relu3
I0122 16:32:17.722508 50515 net.cpp:409] conv4 -> conv4
I0122 16:32:17.722954 50515 net.cpp:144] Setting up conv4
I0122 16:32:17.722962 50515 net.cpp:151] Top shape: 50 64 16 16 (819200)
I0122 16:32:17.722966 50515 net.cpp:159] Memory required for data: 56320800
I0122 16:32:17.722971 50515 layer_factory.hpp:77] Creating layer bn4
I0122 16:32:17.722977 50515 net.cpp:94] Creating Layer bn4
I0122 16:32:17.722982 50515 net.cpp:435] bn4 <- conv4
I0122 16:32:17.722988 50515 net.cpp:409] bn4 -> scale4
I0122 16:32:17.723645 50515 net.cpp:144] Setting up bn4
I0122 16:32:17.723651 50515 net.cpp:151] Top shape: 50 64 16 16 (819200)
I0122 16:32:17.723655 50515 net.cpp:159] Memory required for data: 59597600
I0122 16:32:17.723664 50515 layer_factory.hpp:77] Creating layer relu4
I0122 16:32:17.723668 50515 net.cpp:94] Creating Layer relu4
I0122 16:32:17.723671 50515 net.cpp:435] relu4 <- scale4
I0122 16:32:17.723676 50515 net.cpp:409] relu4 -> relu4
I0122 16:32:17.723693 50515 net.cpp:144] Setting up relu4
I0122 16:32:17.723700 50515 net.cpp:151] Top shape: 50 64 16 16 (819200)
I0122 16:32:17.723702 50515 net.cpp:159] Memory required for data: 62874400
I0122 16:32:17.723706 50515 layer_factory.hpp:77] Creating layer pool2
I0122 16:32:17.723713 50515 net.cpp:94] Creating Layer pool2
I0122 16:32:17.723716 50515 net.cpp:435] pool2 <- relu4
I0122 16:32:17.723721 50515 net.cpp:409] pool2 -> pool2
I0122 16:32:17.723752 50515 net.cpp:144] Setting up pool2
I0122 16:32:17.723758 50515 net.cpp:151] Top shape: 50 64 8 8 (204800)
I0122 16:32:17.723762 50515 net.cpp:159] Memory required for data: 63693600
I0122 16:32:17.723764 50515 layer_factory.hpp:77] Creating layer drop2
I0122 16:32:17.723769 50515 net.cpp:94] Creating Layer drop2
I0122 16:32:17.723784 50515 net.cpp:435] drop2 <- pool2
I0122 16:32:17.723788 50515 net.cpp:409] drop2 -> drop2
I0122 16:32:17.723850 50515 net.cpp:144] Setting up drop2
I0122 16:32:17.723856 50515 net.cpp:151] Top shape: 50 64 8 8 (204800)
I0122 16:32:17.723860 50515 net.cpp:159] Memory required for data: 64512800
I0122 16:32:17.723862 50515 layer_factory.hpp:77] Creating layer fc1
I0122 16:32:17.723870 50515 net.cpp:94] Creating Layer fc1
I0122 16:32:17.723875 50515 net.cpp:435] fc1 <- drop2
I0122 16:32:17.723881 50515 net.cpp:409] fc1 -> fc1
I0122 16:32:17.737828 50515 net.cpp:144] Setting up fc1
I0122 16:32:17.737862 50515 net.cpp:151] Top shape: 50 512 (25600)
I0122 16:32:17.737865 50515 net.cpp:159] Memory required for data: 64615200
I0122 16:32:17.737874 50515 layer_factory.hpp:77] Creating layer bn5
I0122 16:32:17.737881 50515 net.cpp:94] Creating Layer bn5
I0122 16:32:17.737885 50515 net.cpp:435] bn5 <- fc1
I0122 16:32:17.737891 50515 net.cpp:409] bn5 -> scale5
I0122 16:32:17.738445 50515 net.cpp:144] Setting up bn5
I0122 16:32:17.738452 50515 net.cpp:151] Top shape: 50 512 (25600)
I0122 16:32:17.738456 50515 net.cpp:159] Memory required for data: 64717600
I0122 16:32:17.738467 50515 layer_factory.hpp:77] Creating layer relu5
I0122 16:32:17.738474 50515 net.cpp:94] Creating Layer relu5
I0122 16:32:17.738478 50515 net.cpp:435] relu5 <- scale5
I0122 16:32:17.738482 50515 net.cpp:409] relu5 -> relu5
I0122 16:32:17.738500 50515 net.cpp:144] Setting up relu5
I0122 16:32:17.738507 50515 net.cpp:151] Top shape: 50 512 (25600)
I0122 16:32:17.738509 50515 net.cpp:159] Memory required for data: 64820000
I0122 16:32:17.738512 50515 layer_factory.hpp:77] Creating layer drop3
I0122 16:32:17.738517 50515 net.cpp:94] Creating Layer drop3
I0122 16:32:17.738521 50515 net.cpp:435] drop3 <- relu5
I0122 16:32:17.738525 50515 net.cpp:409] drop3 -> drop3
I0122 16:32:17.738550 50515 net.cpp:144] Setting up drop3
I0122 16:32:17.738555 50515 net.cpp:151] Top shape: 50 512 (25600)
I0122 16:32:17.738559 50515 net.cpp:159] Memory required for data: 64922400
I0122 16:32:17.738561 50515 layer_factory.hpp:77] Creating layer fc2
I0122 16:32:17.738567 50515 net.cpp:94] Creating Layer fc2
I0122 16:32:17.738570 50515 net.cpp:435] fc2 <- drop3
I0122 16:32:17.738575 50515 net.cpp:409] fc2 -> fc2
I0122 16:32:17.738701 50515 net.cpp:144] Setting up fc2
I0122 16:32:17.738706 50515 net.cpp:151] Top shape: 50 10 (500)
I0122 16:32:17.738710 50515 net.cpp:159] Memory required for data: 64924400
I0122 16:32:17.738715 50515 layer_factory.hpp:77] Creating layer fc2_fc2_0_split
I0122 16:32:17.738720 50515 net.cpp:94] Creating Layer fc2_fc2_0_split
I0122 16:32:17.738723 50515 net.cpp:435] fc2_fc2_0_split <- fc2
I0122 16:32:17.738729 50515 net.cpp:409] fc2_fc2_0_split -> fc2_fc2_0_split_0
I0122 16:32:17.738737 50515 net.cpp:409] fc2_fc2_0_split -> fc2_fc2_0_split_1
I0122 16:32:17.738742 50515 net.cpp:409] fc2_fc2_0_split -> fc2_fc2_0_split_2
I0122 16:32:17.738777 50515 net.cpp:144] Setting up fc2_fc2_0_split
I0122 16:32:17.738782 50515 net.cpp:151] Top shape: 50 10 (500)
I0122 16:32:17.738787 50515 net.cpp:151] Top shape: 50 10 (500)
I0122 16:32:17.738790 50515 net.cpp:151] Top shape: 50 10 (500)
I0122 16:32:17.738792 50515 net.cpp:159] Memory required for data: 64930400
I0122 16:32:17.738795 50515 layer_factory.hpp:77] Creating layer loss
I0122 16:32:17.738801 50515 net.cpp:94] Creating Layer loss
I0122 16:32:17.738804 50515 net.cpp:435] loss <- fc2_fc2_0_split_0
I0122 16:32:17.738808 50515 net.cpp:435] loss <- label_data_1_split_0
I0122 16:32:17.738812 50515 net.cpp:409] loss -> loss
…
