…
I0122 16:38:50.331481 56358 net.cpp:323] The NetState phase (0) differed from the phase (1) specified by a rule in layer accuracy-top1
I0122 16:38:50.331488 56358 net.cpp:323] The NetState phase (0) differed from the phase (1) specified by a rule in layer accuracy-top5
I0122 16:38:50.331861 56358 net.cpp:52] Initializing net from parameters: 
state {
  phase: TRAIN
}
layer {
  name: "data"
  type: "Data"
  top: "data"
  top: "label"
  include {
    phase: TRAIN
  }
  transform_param {
    mirror: true
    mean_value: 125
    mean_value: 123
    mean_value: 114
  }
  data_param {
    source: "cifar10/input/lmdb/train_lmdb"
    batch_size: 128
    backend: LMDB
  }
}
layer {
  name: "conv1"
  type: "Convolution"
  bottom: "data"
  top: "conv1"
  param {
    lr_mult: 1
    decay_mult: 1
    compression: PRUNE
  }
  param {
    lr_mult: 2
    decay_mult: 0
    compression: PRUNE
  }
  convolution_param {
    num_output: 32
    pad: 1
    kernel_size: 3
    stride: 1
    weight_filler {
      type: "xavier"
    }
    bias_filler {
      type: "constant"
      value: 0
    }
  }
}
layer {
  name: "bn1"
  type: "BatchNorm"
  bottom: "conv1"
  top: "scale1"
  param {
    lr_mult: 1
    decay_mult: 0
    compression: PRUNE
  }
  param {
    lr_mult: 1
    decay_mult: 0
    compression: PRUNE
  }
  param {
    lr_mult: 0
    decay_mult: 0
    compression: PRUNE
  }
  param {
    lr_mult: 0
    decay_mult: 0
    compression: PRUNE
  }
  batch_norm_param {
    use_global_stats: false
    scale_filler {
      type: "constant"
      value: 1
    }
    bias_filler {
      type: "constant"
      value: 0
    }
  }
}
layer {
  name: "relu1"
  type: "ReLU"
  bottom: "scale1"
  top: "relu1"
}
layer {
  name: "conv2"
  type: "Convolution"
  bottom: "relu1"
  top: "conv2"
  param {
    lr_mult: 1
    decay_mult: 1
    compression: PRUNE
  }
  param {
    lr_mult: 2
    decay_mult: 0
    compression: PRUNE
  }
  convolution_param {
    num_output: 32
    pad: 1
    kernel_size: 3
    stride: 1
    weight_filler {
      type: "xavier"
    }
    bias_filler {
      type: "constant"
      value: 0
    }
  }
}
layer {
  name: "bn2"
  type: "BatchNorm"
  bottom: "conv2"
  top: "scale2"
  param {
    lr_mult: 1
    decay_mult: 0
    compression: PRUNE
  }
  param {
    lr_mult: 1
    decay_mult: 0
    compression: PRUNE
  }
  param {
    lr_mult: 0
    decay_mult: 0
    compression: PRUNE
  }
  param {
    lr_mult: 0
    decay_mult: 0
    compression: PRUNE
  }
  batch_norm_param {
    use_global_stats: false
    scale_filler {
      type: "constant"
      value: 1
    }
    bias_filler {
      type: "constant"
      value: 0
    }
  }
}
layer {
  name: "relu2"
  type: "ReLU"
  bottom: "scale2"
  top: "relu2"
}
layer {
  name: "pool1"
  type: "Pooling"
  bottom: "relu2"
  top: "pool1"
  pooling_param {
    pool: MAX
    kernel_size: 2
    stride: 2
  }
}
layer {
  name: "drop1"
  type: "Dropout"
  bottom: "pool1"
  top: "drop1"
  dropout_param {
    dropout_ratio: 0.25
  }
}
layer {
  name: "conv3"
  type: "Convolution"
  bottom: "drop1"
  top: "conv3"
  param {
    lr_mult: 1
    decay_mult: 1
    compression: PRUNE
  }
  param {
    lr_mult: 2
    decay_mult: 0
    compression: PRUNE
  }
  convolution_param {
    num_output: 64
    pad: 1
    kernel_size: 3
    stride: 1
    weight_filler {
      type: "xavier"
    }
    bias_filler {
      type: "constant"
      value: 0
    }
  }
}
layer {
  name: "bn3"
  type: "BatchNorm"
  bottom: "conv3"
  top: "scale3"
  param {
    lr_mult: 1
    decay_mult: 0
    compression: PRUNE
  }
  param {
    lr_mult: 1
    decay_mult: 0
    compression: PRUNE
  }
  param {
    lr_mult: 0
    decay_mult: 0
    compression: PRUNE
  }
  param {
    lr_mult: 0
    decay_mult: 0
    compression: PRUNE
  }
  batch_norm_param {
    use_global_stats: false
    scale_filler {
      type: "constant"
      value: 1
    }
    bias_filler {
      type: "constant"
      value: 0
    }
  }
}
layer {
  name: "relu3"
  type: "ReLU"
  bottom: "scale3"
  top: "relu3"
}
layer {
  name: "conv4"
  type: "Convolution"
  bottom: "relu3"
  top: "conv4"
  param {
    lr_mult: 1
    decay_mult: 1
    compression: PRUNE
  }
  param {
    lr_mult: 2
    decay_mult: 0
    compression: PRUNE
  }
  convolution_param {
    num_output: 64
    pad: 1
    kernel_size: 3
    stride: 1
    weight_filler {
      type: "xavier"
    }
    bias_filler {
      type: "constant"
      value: 0
    }
  }
}
layer {
  name: "bn4"
  type: "BatchNorm"
  bottom: "conv4"
  top: "scale4"
  param {
    lr_mult: 1
    decay_mult: 0
    compression: PRUNE
  }
  param {
    lr_mult: 1
    decay_mult: 0
    compression: PRUNE
  }
  param {
    lr_mult: 0
    decay_mult: 0
    compression: PRUNE
  }
  param {
    lr_mult: 0
    decay_mult: 0
    compression: PRUNE
  }
  batch_norm_param {
    use_global_stats: false
    scale_filler {
      type: "constant"
      value: 1
    }
    bias_filler {
      type: "constant"
      value: 0
    }
  }
}
layer {
  name: "relu4"
  type: "ReLU"
  bottom: "scale4"
  top: "relu4"
}
layer {
  name: "pool2"
  type: "Pooling"
  bottom: "relu4"
  top: "pool2"
  pooling_param {
    pool: MAX
    kernel_size: 2
    stride: 2
  }
}
layer {
  name: "drop2"
  type: "Dropout"
  bottom: "pool2"
  top: "drop2"
  dropout_param {
    dropout_ratio: 0.25
  }
}
layer {
  name: "fc1"
  type: "InnerProduct"
  bottom: "drop2"
  top: "fc1"
  param {
    lr_mult: 1
    decay_mult: 1
  }
  param {
    lr_mult: 2
    decay_mult: 0
  }
  inner_product_param {
    num_output: 512
    weight_filler {
      type: "xavier"
    }
    bias_filler {
      type: "constant"
      value: 1
    }
  }
}
layer {
  name: "bn5"
  type: "BatchNorm"
  bottom: "fc1"
  top: "scale5"
  param {
    lr_mult: 1
    decay_mult: 0
    compression: PRUNE
  }
  param {
    lr_mult: 1
    decay_mult: 0
    compression: PRUNE
  }
  param {
    lr_mult: 0
    decay_mult: 0
    compression: PRUNE
  }
  param {
    lr_mult: 0
    decay_mult: 0
    compression: PRUNE
  }
  batch_norm_param {
    use_global_stats: false
    scale_filler {
      type: "constant"
      value: 1
    }
    bias_filler {
      type: "constant"
      value: 0
    }
  }
}
layer {
  name: "relu5"
  type: "ReLU"
  bottom: "scale5"
  top: "relu5"
}
layer {
  name: "drop3"
  type: "Dropout"
  bottom: "relu5"
  top: "drop3"
  dropout_param {
    dropout_ratio: 0.5
  }
}
layer {
  name: "fc2"
  type: "InnerProduct"
  bottom: "drop3"
  top: "fc2"
  param {
    lr_mult: 1
    decay_mult: 1
  }
  param {
    lr_mult: 2
    decay_mult: 0
  }
  inner_product_param {
    num_output: 10
    weight_filler {
      type: "xavier"
    }
    bias_filler {
      type: "constant"
      value: 1
    }
  }
}
layer {
  name: "loss"
  type: "SoftmaxWithLoss"
  bottom: "fc2"
  bottom: "label"
  top: "loss"
}
I0122 16:38:50.331996 56358 layer_factory.hpp:77] Creating layer data
I0122 16:38:50.332164 56358 internal_thread.cpp:27] Starting internal thread(s) on GPU 0
I0122 16:38:50.332998 56358 net.cpp:94] Creating Layer data
I0122 16:38:50.333016 56358 net.cpp:409] data -> data
I0122 16:38:50.333050 56358 net.cpp:409] data -> label
I0122 16:38:50.334228 56397 db_lmdb.cpp:35] Opened lmdb cifar10/input/lmdb/train_lmdb
I0122 16:38:50.334273 56397 data_reader.cpp:117] TRAIN: reading data using 1 channel(s)
I0122 16:38:50.334406 56358 data_layer.cpp:78] ReshapePrefetch 128, 3, 32, 32
I0122 16:38:50.334558 56358 data_layer.cpp:83] output data size: 128,3,32,32
I0122 16:38:50.346828 56358 internal_thread.cpp:27] Starting internal thread(s) on GPU 0
I0122 16:38:50.346886 56358 net.cpp:144] Setting up data
I0122 16:38:50.346896 56358 net.cpp:151] Top shape: 128 3 32 32 (393216)
I0122 16:38:50.346902 56358 net.cpp:151] Top shape: 128 (128)
I0122 16:38:50.346907 56358 net.cpp:159] Memory required for data: 1573376
I0122 16:38:50.346913 56358 layer_factory.hpp:77] Creating layer conv1
I0122 16:38:50.346931 56358 net.cpp:94] Creating Layer conv1
I0122 16:38:50.346938 56358 net.cpp:435] conv1 <- data
I0122 16:38:50.346957 56358 net.cpp:409] conv1 -> conv1
I0122 16:38:50.348379 56358 net.cpp:144] Setting up conv1
I0122 16:38:50.348394 56358 net.cpp:151] Top shape: 128 32 32 32 (4194304)
I0122 16:38:50.348398 56358 net.cpp:159] Memory required for data: 18350592
I0122 16:38:50.348419 56358 layer_factory.hpp:77] Creating layer bn1
I0122 16:38:50.348431 56358 net.cpp:94] Creating Layer bn1
I0122 16:38:50.348436 56358 net.cpp:435] bn1 <- conv1
I0122 16:38:50.348443 56358 net.cpp:409] bn1 -> scale1
I0122 16:38:50.349334 56358 net.cpp:144] Setting up bn1
I0122 16:38:50.349344 56358 net.cpp:151] Top shape: 128 32 32 32 (4194304)
I0122 16:38:50.349347 56358 net.cpp:159] Memory required for data: 35127808
I0122 16:38:50.349364 56358 layer_factory.hpp:77] Creating layer relu1
I0122 16:38:50.349372 56358 net.cpp:94] Creating Layer relu1
I0122 16:38:50.349381 56358 net.cpp:435] relu1 <- scale1
I0122 16:38:50.349387 56358 net.cpp:409] relu1 -> relu1
I0122 16:38:50.349954 56358 net.cpp:144] Setting up relu1
I0122 16:38:50.349964 56358 net.cpp:151] Top shape: 128 32 32 32 (4194304)
I0122 16:38:50.349968 56358 net.cpp:159] Memory required for data: 51905024
I0122 16:38:50.349972 56358 layer_factory.hpp:77] Creating layer conv2
I0122 16:38:50.349984 56358 net.cpp:94] Creating Layer conv2
I0122 16:38:50.349989 56358 net.cpp:435] conv2 <- relu1
I0122 16:38:50.349997 56358 net.cpp:409] conv2 -> conv2
I0122 16:38:50.351444 56358 net.cpp:144] Setting up conv2
I0122 16:38:50.351459 56358 net.cpp:151] Top shape: 128 32 32 32 (4194304)
I0122 16:38:50.351464 56358 net.cpp:159] Memory required for data: 68682240
I0122 16:38:50.351475 56358 layer_factory.hpp:77] Creating layer bn2
I0122 16:38:50.351486 56358 net.cpp:94] Creating Layer bn2
I0122 16:38:50.351490 56358 net.cpp:435] bn2 <- conv2
I0122 16:38:50.351500 56358 net.cpp:409] bn2 -> scale2
I0122 16:38:50.352522 56358 net.cpp:144] Setting up bn2
I0122 16:38:50.352533 56358 net.cpp:151] Top shape: 128 32 32 32 (4194304)
I0122 16:38:50.352537 56358 net.cpp:159] Memory required for data: 85459456
I0122 16:38:50.352551 56358 layer_factory.hpp:77] Creating layer relu2
I0122 16:38:50.352560 56358 net.cpp:94] Creating Layer relu2
I0122 16:38:50.352566 56358 net.cpp:435] relu2 <- scale2
I0122 16:38:50.352572 56358 net.cpp:409] relu2 -> relu2
I0122 16:38:50.352598 56358 net.cpp:144] Setting up relu2
I0122 16:38:50.352607 56358 net.cpp:151] Top shape: 128 32 32 32 (4194304)
I0122 16:38:50.352610 56358 net.cpp:159] Memory required for data: 102236672
I0122 16:38:50.352614 56358 layer_factory.hpp:77] Creating layer pool1
I0122 16:38:50.352623 56358 net.cpp:94] Creating Layer pool1
I0122 16:38:50.352628 56358 net.cpp:435] pool1 <- relu2
I0122 16:38:50.352634 56358 net.cpp:409] pool1 -> pool1
I0122 16:38:50.352679 56358 net.cpp:144] Setting up pool1
I0122 16:38:50.352694 56358 net.cpp:151] Top shape: 128 32 16 16 (1048576)
I0122 16:38:50.352699 56358 net.cpp:159] Memory required for data: 106430976
I0122 16:38:50.352702 56358 layer_factory.hpp:77] Creating layer drop1
I0122 16:38:50.352710 56358 net.cpp:94] Creating Layer drop1
I0122 16:38:50.352715 56358 net.cpp:435] drop1 <- pool1
I0122 16:38:50.352739 56358 net.cpp:409] drop1 -> drop1
I0122 16:38:50.352784 56358 net.cpp:144] Setting up drop1
I0122 16:38:50.352792 56358 net.cpp:151] Top shape: 128 32 16 16 (1048576)
I0122 16:38:50.352797 56358 net.cpp:159] Memory required for data: 110625280
I0122 16:38:50.352802 56358 layer_factory.hpp:77] Creating layer conv3
I0122 16:38:50.352813 56358 net.cpp:94] Creating Layer conv3
I0122 16:38:50.352819 56358 net.cpp:435] conv3 <- drop1
I0122 16:38:50.352828 56358 net.cpp:409] conv3 -> conv3
I0122 16:38:50.354102 56358 net.cpp:144] Setting up conv3
I0122 16:38:50.354115 56358 net.cpp:151] Top shape: 128 64 16 16 (2097152)
I0122 16:38:50.354117 56358 net.cpp:159] Memory required for data: 119013888
I0122 16:38:50.354125 56358 layer_factory.hpp:77] Creating layer bn3
I0122 16:38:50.354131 56358 net.cpp:94] Creating Layer bn3
I0122 16:38:50.354137 56358 net.cpp:435] bn3 <- conv3
I0122 16:38:50.354143 56358 net.cpp:409] bn3 -> scale3
I0122 16:38:50.354840 56358 net.cpp:144] Setting up bn3
I0122 16:38:50.354847 56358 net.cpp:151] Top shape: 128 64 16 16 (2097152)
I0122 16:38:50.354851 56358 net.cpp:159] Memory required for data: 127402496
I0122 16:38:50.354861 56358 layer_factory.hpp:77] Creating layer relu3
I0122 16:38:50.354868 56358 net.cpp:94] Creating Layer relu3
I0122 16:38:50.354872 56358 net.cpp:435] relu3 <- scale3
I0122 16:38:50.354876 56358 net.cpp:409] relu3 -> relu3
I0122 16:38:50.354894 56358 net.cpp:144] Setting up relu3
I0122 16:38:50.354902 56358 net.cpp:151] Top shape: 128 64 16 16 (2097152)
I0122 16:38:50.354905 56358 net.cpp:159] Memory required for data: 135791104
I0122 16:38:50.354907 56358 layer_factory.hpp:77] Creating layer conv4
I0122 16:38:50.354916 56358 net.cpp:94] Creating Layer conv4
I0122 16:38:50.354921 56358 net.cpp:435] conv4 <- relu3
I0122 16:38:50.354926 56358 net.cpp:409] conv4 -> conv4
I0122 16:38:50.355394 56358 net.cpp:144] Setting up conv4
I0122 16:38:50.355402 56358 net.cpp:151] Top shape: 128 64 16 16 (2097152)
I0122 16:38:50.355406 56358 net.cpp:159] Memory required for data: 144179712
I0122 16:38:50.355412 56358 layer_factory.hpp:77] Creating layer bn4
I0122 16:38:50.355418 56358 net.cpp:94] Creating Layer bn4
I0122 16:38:50.355422 56358 net.cpp:435] bn4 <- conv4
I0122 16:38:50.355427 56358 net.cpp:409] bn4 -> scale4
I0122 16:38:50.356070 56358 net.cpp:144] Setting up bn4
I0122 16:38:50.356076 56358 net.cpp:151] Top shape: 128 64 16 16 (2097152)
I0122 16:38:50.356079 56358 net.cpp:159] Memory required for data: 152568320
I0122 16:38:50.356088 56358 layer_factory.hpp:77] Creating layer relu4
I0122 16:38:50.356093 56358 net.cpp:94] Creating Layer relu4
I0122 16:38:50.356096 56358 net.cpp:435] relu4 <- scale4
I0122 16:38:50.356101 56358 net.cpp:409] relu4 -> relu4
I0122 16:38:50.356119 56358 net.cpp:144] Setting up relu4
I0122 16:38:50.356127 56358 net.cpp:151] Top shape: 128 64 16 16 (2097152)
I0122 16:38:50.356130 56358 net.cpp:159] Memory required for data: 160956928
I0122 16:38:50.356133 56358 layer_factory.hpp:77] Creating layer pool2
I0122 16:38:50.356139 56358 net.cpp:94] Creating Layer pool2
I0122 16:38:50.356142 56358 net.cpp:435] pool2 <- relu4
I0122 16:38:50.356146 56358 net.cpp:409] pool2 -> pool2
I0122 16:38:50.356178 56358 net.cpp:144] Setting up pool2
I0122 16:38:50.356184 56358 net.cpp:151] Top shape: 128 64 8 8 (524288)
I0122 16:38:50.356186 56358 net.cpp:159] Memory required for data: 163054080
I0122 16:38:50.356189 56358 layer_factory.hpp:77] Creating layer drop2
I0122 16:38:50.356195 56358 net.cpp:94] Creating Layer drop2
I0122 16:38:50.356201 56358 net.cpp:435] drop2 <- pool2
I0122 16:38:50.356205 56358 net.cpp:409] drop2 -> drop2
I0122 16:38:50.356232 56358 net.cpp:144] Setting up drop2
I0122 16:38:50.356238 56358 net.cpp:151] Top shape: 128 64 8 8 (524288)
I0122 16:38:50.356242 56358 net.cpp:159] Memory required for data: 165151232
I0122 16:38:50.356245 56358 layer_factory.hpp:77] Creating layer fc1
I0122 16:38:50.356251 56358 net.cpp:94] Creating Layer fc1
I0122 16:38:50.356253 56358 net.cpp:435] fc1 <- drop2
I0122 16:38:50.356258 56358 net.cpp:409] fc1 -> fc1
I0122 16:38:50.371639 56358 net.cpp:144] Setting up fc1
I0122 16:38:50.371655 56358 net.cpp:151] Top shape: 128 512 (65536)
I0122 16:38:50.371657 56358 net.cpp:159] Memory required for data: 165413376
I0122 16:38:50.371665 56358 layer_factory.hpp:77] Creating layer bn5
I0122 16:38:50.371675 56358 net.cpp:94] Creating Layer bn5
I0122 16:38:50.371678 56358 net.cpp:435] bn5 <- fc1
I0122 16:38:50.371685 56358 net.cpp:409] bn5 -> scale5
I0122 16:38:50.372210 56358 net.cpp:144] Setting up bn5
I0122 16:38:50.372217 56358 net.cpp:151] Top shape: 128 512 (65536)
I0122 16:38:50.372220 56358 net.cpp:159] Memory required for data: 165675520
I0122 16:38:50.372231 56358 layer_factory.hpp:77] Creating layer relu5
I0122 16:38:50.372238 56358 net.cpp:94] Creating Layer relu5
I0122 16:38:50.372241 56358 net.cpp:435] relu5 <- scale5
I0122 16:38:50.372246 56358 net.cpp:409] relu5 -> relu5
I0122 16:38:50.372263 56358 net.cpp:144] Setting up relu5
I0122 16:38:50.372269 56358 net.cpp:151] Top shape: 128 512 (65536)
I0122 16:38:50.372272 56358 net.cpp:159] Memory required for data: 165937664
I0122 16:38:50.372274 56358 layer_factory.hpp:77] Creating layer drop3
I0122 16:38:50.372279 56358 net.cpp:94] Creating Layer drop3
I0122 16:38:50.372283 56358 net.cpp:435] drop3 <- relu5
I0122 16:38:50.372287 56358 net.cpp:409] drop3 -> drop3
I0122 16:38:50.372313 56358 net.cpp:144] Setting up drop3
I0122 16:38:50.372318 56358 net.cpp:151] Top shape: 128 512 (65536)
I0122 16:38:50.372321 56358 net.cpp:159] Memory required for data: 166199808
I0122 16:38:50.372323 56358 layer_factory.hpp:77] Creating layer fc2
I0122 16:38:50.372330 56358 net.cpp:94] Creating Layer fc2
I0122 16:38:50.372334 56358 net.cpp:435] fc2 <- drop3
I0122 16:38:50.372340 56358 net.cpp:409] fc2 -> fc2
I0122 16:38:50.372470 56358 net.cpp:144] Setting up fc2
I0122 16:38:50.372475 56358 net.cpp:151] Top shape: 128 10 (1280)
I0122 16:38:50.372478 56358 net.cpp:159] Memory required for data: 166204928
I0122 16:38:50.372483 56358 layer_factory.hpp:77] Creating layer loss
I0122 16:38:50.372488 56358 net.cpp:94] Creating Layer loss
I0122 16:38:50.372490 56358 net.cpp:435] loss <- fc2
I0122 16:38:50.372494 56358 net.cpp:435] loss <- label
I0122 16:38:50.372500 56358 net.cpp:409] loss -> loss
I0122 16:38:50.372506 56358 layer_factory.hpp:77] Creating layer loss
…
I0122 16:38:50.373677 56358 solver.cpp:189] Creating test net (#0) specified by net file: cifar10/deephi/miniVggNet/pruning/regular_rate_0.5/net_finetune.prototxt
I0122 16:38:50.373709 56358 net.cpp:323] The NetState phase (1) differed from the phase (0) specified by a rule in layer data
I0122 16:38:50.373898 56358 net.cpp:52] Initializing net from parameters: 
state {
  phase: TEST
}
layer {
  name: "data"
  type: "Data"
  top: "data"
  top: "label"
  include {
    phase: TEST
  }
  transform_param {
    mirror: false
    mean_value: 125
    mean_value: 123
    mean_value: 114
  }
  data_param {
    source: "cifar10/input/lmdb/valid_lmdb"
    batch_size: 50
    backend: LMDB
  }
}
layer {
  name: "conv1"
  type: "Convolution"
  bottom: "data"
  top: "conv1"
  param {
    lr_mult: 1
    decay_mult: 1
    compression: PRUNE
  }
  param {
    lr_mult: 2
    decay_mult: 0
    compression: PRUNE
  }
  convolution_param {
    num_output: 32
    pad: 1
    kernel_size: 3
    stride: 1
    weight_filler {
      type: "xavier"
    }
    bias_filler {
      type: "constant"
      value: 0
    }
  }
}
layer {
  name: "bn1"
  type: "BatchNorm"
  bottom: "conv1"
  top: "scale1"
  param {
    lr_mult: 1
    decay_mult: 0
    compression: PRUNE
  }
  param {
    lr_mult: 1
    decay_mult: 0
    compression: PRUNE
  }
  param {
    lr_mult: 0
    decay_mult: 0
    compression: PRUNE
  }
  param {
    lr_mult: 0
    decay_mult: 0
    compression: PRUNE
  }
  batch_norm_param {
    use_global_stats: false
    scale_filler {
      type: "constant"
      value: 1
    }
    bias_filler {
      type: "constant"
      value: 0
    }
  }
}
layer {
  name: "relu1"
  type: "ReLU"
  bottom: "scale1"
  top: "relu1"
}
layer {
  name: "conv2"
  type: "Convolution"
  bottom: "relu1"
  top: "conv2"
  param {
    lr_mult: 1
    decay_mult: 1
    compression: PRUNE
  }
  param {
    lr_mult: 2
    decay_mult: 0
    compression: PRUNE
  }
  convolution_param {
    num_output: 32
    pad: 1
    kernel_size: 3
    stride: 1
    weight_filler {
      type: "xavier"
    }
    bias_filler {
      type: "constant"
      value: 0
    }
  }
}
layer {
  name: "bn2"
  type: "BatchNorm"
  bottom: "conv2"
  top: "scale2"
  param {
    lr_mult: 1
    decay_mult: 0
    compression: PRUNE
  }
  param {
    lr_mult: 1
    decay_mult: 0
    compression: PRUNE
  }
  param {
    lr_mult: 0
    decay_mult: 0
    compression: PRUNE
  }
  param {
    lr_mult: 0
    decay_mult: 0
    compression: PRUNE
  }
  batch_norm_param {
    use_global_stats: false
    scale_filler {
      type: "constant"
      value: 1
    }
    bias_filler {
      type: "constant"
      value: 0
    }
  }
}
layer {
  name: "relu2"
  type: "ReLU"
  bottom: "scale2"
  top: "relu2"
}
layer {
  name: "pool1"
  type: "Pooling"
  bottom: "relu2"
  top: "pool1"
  pooling_param {
    pool: MAX
    kernel_size: 2
    stride: 2
  }
}
layer {
  name: "drop1"
  type: "Dropout"
  bottom: "pool1"
  top: "drop1"
  dropout_param {
    dropout_ratio: 0.25
  }
}
layer {
  name: "conv3"
  type: "Convolution"
  bottom: "drop1"
  top: "conv3"
  param {
    lr_mult: 1
    decay_mult: 1
    compression: PRUNE
  }
  param {
    lr_mult: 2
    decay_mult: 0
    compression: PRUNE
  }
  convolution_param {
    num_output: 64
    pad: 1
    kernel_size: 3
    stride: 1
    weight_filler {
      type: "xavier"
    }
    bias_filler {
      type: "constant"
      value: 0
    }
  }
}
layer {
  name: "bn3"
  type: "BatchNorm"
  bottom: "conv3"
  top: "scale3"
  param {
    lr_mult: 1
    decay_mult: 0
    compression: PRUNE
  }
  param {
    lr_mult: 1
    decay_mult: 0
    compression: PRUNE
  }
  param {
    lr_mult: 0
    decay_mult: 0
    compression: PRUNE
  }
  param {
    lr_mult: 0
    decay_mult: 0
    compression: PRUNE
  }
  batch_norm_param {
    use_global_stats: false
    scale_filler {
      type: "constant"
      value: 1
    }
    bias_filler {
      type: "constant"
      value: 0
    }
  }
}
layer {
  name: "relu3"
  type: "ReLU"
  bottom: "scale3"
  top: "relu3"
}
layer {
  name: "conv4"
  type: "Convolution"
  bottom: "relu3"
  top: "conv4"
  param {
    lr_mult: 1
    decay_mult: 1
    compression: PRUNE
  }
  param {
    lr_mult: 2
    decay_mult: 0
    compression: PRUNE
  }
  convolution_param {
    num_output: 64
    pad: 1
    kernel_size: 3
    stride: 1
    weight_filler {
      type: "xavier"
    }
    bias_filler {
      type: "constant"
      value: 0
    }
  }
}
layer {
  name: "bn4"
  type: "BatchNorm"
  bottom: "conv4"
  top: "scale4"
  param {
    lr_mult: 1
    decay_mult: 0
    compression: PRUNE
  }
  param {
    lr_mult: 1
    decay_mult: 0
    compression: PRUNE
  }
  param {
    lr_mult: 0
    decay_mult: 0
    compression: PRUNE
  }
  param {
    lr_mult: 0
    decay_mult: 0
    compression: PRUNE
  }
  batch_norm_param {
    use_global_stats: false
    scale_filler {
      type: "constant"
      value: 1
    }
    bias_filler {
      type: "constant"
      value: 0
    }
  }
}
layer {
  name: "relu4"
  type: "ReLU"
  bottom: "scale4"
  top: "relu4"
}
layer {
  name: "pool2"
  type: "Pooling"
  bottom: "relu4"
  top: "pool2"
  pooling_param {
    pool: MAX
    kernel_size: 2
    stride: 2
  }
}
layer {
  name: "drop2"
  type: "Dropout"
  bottom: "pool2"
  top: "drop2"
  dropout_param {
    dropout_ratio: 0.25
  }
}
layer {
  name: "fc1"
  type: "InnerProduct"
  bottom: "drop2"
  top: "fc1"
  param {
    lr_mult: 1
    decay_mult: 1
  }
  param {
    lr_mult: 2
    decay_mult: 0
  }
  inner_product_param {
    num_output: 512
    weight_filler {
      type: "xavier"
    }
    bias_filler {
      type: "constant"
      value: 1
    }
  }
}
layer {
  name: "bn5"
  type: "BatchNorm"
  bottom: "fc1"
  top: "scale5"
  param {
    lr_mult: 1
    decay_mult: 0
    compression: PRUNE
  }
  param {
    lr_mult: 1
    decay_mult: 0
    compression: PRUNE
  }
  param {
    lr_mult: 0
    decay_mult: 0
    compression: PRUNE
  }
  param {
    lr_mult: 0
    decay_mult: 0
    compression: PRUNE
  }
  batch_norm_param {
    use_global_stats: false
    scale_filler {
      type: "constant"
      value: 1
    }
    bias_filler {
      type: "constant"
      value: 0
    }
  }
}
layer {
  name: "relu5"
  type: "ReLU"
  bottom: "scale5"
  top: "relu5"
}
layer {
  name: "drop3"
  type: "Dropout"
  bottom: "relu5"
  top: "drop3"
  dropout_param {
    dropout_ratio: 0.5
  }
}
layer {
  name: "fc2"
  type: "InnerProduct"
  bottom: "drop3"
  top: "fc2"
  param {
    lr_mult: 1
    decay_mult: 1
  }
  param {
    lr_mult: 2
    decay_mult: 0
  }
  inner_product_param {
    num_output: 10
    weight_filler {
      type: "xavier"
    }
    bias_filler {
      type: "constant"
      value: 1
    }
  }
}
layer {
  name: "loss"
  type: "SoftmaxWithLoss"
  bottom: "fc2"
  bottom: "label"
  top: "loss"
}
layer {
  name: "accuracy-top1"
  type: "Accuracy"
  bottom: "fc2"
  bottom: "label"
  top: "top-1"
  include {
    phase: TEST
  }
}
layer {
  name: "accuracy-top5"
  type: "Accuracy"
  bottom: "fc2"
  bottom: "label"
  top: "top-5"
  include {
    phase: TEST
  }
  accuracy_param {
    top_k: 5
  }
}
I0122 16:38:50.374002 56358 layer_factory.hpp:77] Creating layer data
I0122 16:38:50.374042 56358 internal_thread.cpp:27] Starting internal thread(s) on GPU 0
I0122 16:38:50.374891 56358 net.cpp:94] Creating Layer data
I0122 16:38:50.374902 56358 net.cpp:409] data -> data
I0122 16:38:50.374910 56358 net.cpp:409] data -> label
I0122 16:38:50.376050 56427 db_lmdb.cpp:35] Opened lmdb cifar10/input/lmdb/valid_lmdb
I0122 16:38:50.376085 56427 data_reader.cpp:117] TEST: reading data using 1 channel(s)
I0122 16:38:50.376188 56358 data_layer.cpp:78] ReshapePrefetch 50, 3, 32, 32
I0122 16:38:50.376274 56358 data_layer.cpp:83] output data size: 50,3,32,32
I0122 16:38:50.379904 56358 internal_thread.cpp:27] Starting internal thread(s) on GPU 0
I0122 16:38:50.379956 56358 net.cpp:144] Setting up data
I0122 16:38:50.379963 56358 net.cpp:151] Top shape: 50 3 32 32 (153600)
I0122 16:38:50.379967 56358 net.cpp:151] Top shape: 50 (50)
I0122 16:38:50.379971 56358 net.cpp:159] Memory required for data: 614600
I0122 16:38:50.379974 56358 layer_factory.hpp:77] Creating layer label_data_1_split
I0122 16:38:50.379986 56358 net.cpp:94] Creating Layer label_data_1_split
I0122 16:38:50.379990 56358 net.cpp:435] label_data_1_split <- label
I0122 16:38:50.379995 56358 net.cpp:409] label_data_1_split -> label_data_1_split_0
I0122 16:38:50.380022 56358 net.cpp:409] label_data_1_split -> label_data_1_split_1
I0122 16:38:50.380028 56358 net.cpp:409] label_data_1_split -> label_data_1_split_2
I0122 16:38:50.380173 56358 net.cpp:144] Setting up label_data_1_split
I0122 16:38:50.380178 56358 net.cpp:151] Top shape: 50 (50)
I0122 16:38:50.380182 56358 net.cpp:151] Top shape: 50 (50)
I0122 16:38:50.380187 56358 net.cpp:151] Top shape: 50 (50)
I0122 16:38:50.380188 56358 net.cpp:159] Memory required for data: 615200
I0122 16:38:50.380192 56358 layer_factory.hpp:77] Creating layer conv1
I0122 16:38:50.380201 56358 net.cpp:94] Creating Layer conv1
I0122 16:38:50.380205 56358 net.cpp:435] conv1 <- data
I0122 16:38:50.380210 56358 net.cpp:409] conv1 -> conv1
I0122 16:38:50.380525 56358 net.cpp:144] Setting up conv1
I0122 16:38:50.380532 56358 net.cpp:151] Top shape: 50 32 32 32 (1638400)
I0122 16:38:50.380535 56358 net.cpp:159] Memory required for data: 7168800
I0122 16:38:50.380544 56358 layer_factory.hpp:77] Creating layer bn1
I0122 16:38:50.380553 56358 net.cpp:94] Creating Layer bn1
I0122 16:38:50.380556 56358 net.cpp:435] bn1 <- conv1
I0122 16:38:50.380561 56358 net.cpp:409] bn1 -> scale1
I0122 16:38:50.381202 56358 net.cpp:144] Setting up bn1
I0122 16:38:50.381209 56358 net.cpp:151] Top shape: 50 32 32 32 (1638400)
I0122 16:38:50.381212 56358 net.cpp:159] Memory required for data: 13722400
I0122 16:38:50.381223 56358 layer_factory.hpp:77] Creating layer relu1
I0122 16:38:50.381230 56358 net.cpp:94] Creating Layer relu1
I0122 16:38:50.381233 56358 net.cpp:435] relu1 <- scale1
I0122 16:38:50.381238 56358 net.cpp:409] relu1 -> relu1
I0122 16:38:50.381255 56358 net.cpp:144] Setting up relu1
I0122 16:38:50.381261 56358 net.cpp:151] Top shape: 50 32 32 32 (1638400)
I0122 16:38:50.381264 56358 net.cpp:159] Memory required for data: 20276000
I0122 16:38:50.381268 56358 layer_factory.hpp:77] Creating layer conv2
I0122 16:38:50.381275 56358 net.cpp:94] Creating Layer conv2
I0122 16:38:50.381279 56358 net.cpp:435] conv2 <- relu1
I0122 16:38:50.381283 56358 net.cpp:409] conv2 -> conv2
I0122 16:38:50.381862 56358 net.cpp:144] Setting up conv2
I0122 16:38:50.381868 56358 net.cpp:151] Top shape: 50 32 32 32 (1638400)
I0122 16:38:50.381871 56358 net.cpp:159] Memory required for data: 26829600
I0122 16:38:50.381878 56358 layer_factory.hpp:77] Creating layer bn2
I0122 16:38:50.381884 56358 net.cpp:94] Creating Layer bn2
I0122 16:38:50.381888 56358 net.cpp:435] bn2 <- conv2
I0122 16:38:50.381893 56358 net.cpp:409] bn2 -> scale2
I0122 16:38:50.382683 56358 net.cpp:144] Setting up bn2
I0122 16:38:50.382691 56358 net.cpp:151] Top shape: 50 32 32 32 (1638400)
I0122 16:38:50.382694 56358 net.cpp:159] Memory required for data: 33383200
I0122 16:38:50.382702 56358 layer_factory.hpp:77] Creating layer relu2
I0122 16:38:50.382706 56358 net.cpp:94] Creating Layer relu2
I0122 16:38:50.382710 56358 net.cpp:435] relu2 <- scale2
I0122 16:38:50.382714 56358 net.cpp:409] relu2 -> relu2
I0122 16:38:50.382737 56358 net.cpp:144] Setting up relu2
I0122 16:38:50.382742 56358 net.cpp:151] Top shape: 50 32 32 32 (1638400)
I0122 16:38:50.382745 56358 net.cpp:159] Memory required for data: 39936800
I0122 16:38:50.382748 56358 layer_factory.hpp:77] Creating layer pool1
I0122 16:38:50.382755 56358 net.cpp:94] Creating Layer pool1
I0122 16:38:50.382760 56358 net.cpp:435] pool1 <- relu2
I0122 16:38:50.382764 56358 net.cpp:409] pool1 -> pool1
I0122 16:38:50.382798 56358 net.cpp:144] Setting up pool1
I0122 16:38:50.382814 56358 net.cpp:151] Top shape: 50 32 16 16 (409600)
I0122 16:38:50.382817 56358 net.cpp:159] Memory required for data: 41575200
I0122 16:38:50.382820 56358 layer_factory.hpp:77] Creating layer drop1
I0122 16:38:50.382825 56358 net.cpp:94] Creating Layer drop1
I0122 16:38:50.382827 56358 net.cpp:435] drop1 <- pool1
I0122 16:38:50.382836 56358 net.cpp:409] drop1 -> drop1
I0122 16:38:50.382874 56358 net.cpp:144] Setting up drop1
I0122 16:38:50.382879 56358 net.cpp:151] Top shape: 50 32 16 16 (409600)
I0122 16:38:50.382881 56358 net.cpp:159] Memory required for data: 43213600
I0122 16:38:50.382884 56358 layer_factory.hpp:77] Creating layer conv3
I0122 16:38:50.382894 56358 net.cpp:94] Creating Layer conv3
I0122 16:38:50.382895 56358 net.cpp:435] conv3 <- drop1
I0122 16:38:50.382900 56358 net.cpp:409] conv3 -> conv3
I0122 16:38:50.383316 56358 net.cpp:144] Setting up conv3
I0122 16:38:50.383323 56358 net.cpp:151] Top shape: 50 64 16 16 (819200)
I0122 16:38:50.383327 56358 net.cpp:159] Memory required for data: 46490400
I0122 16:38:50.383332 56358 layer_factory.hpp:77] Creating layer bn3
I0122 16:38:50.383344 56358 net.cpp:94] Creating Layer bn3
I0122 16:38:50.383350 56358 net.cpp:435] bn3 <- conv3
I0122 16:38:50.383357 56358 net.cpp:409] bn3 -> scale3
I0122 16:38:50.384027 56358 net.cpp:144] Setting up bn3
I0122 16:38:50.384034 56358 net.cpp:151] Top shape: 50 64 16 16 (819200)
I0122 16:38:50.384038 56358 net.cpp:159] Memory required for data: 49767200
I0122 16:38:50.384052 56358 layer_factory.hpp:77] Creating layer relu3
I0122 16:38:50.384057 56358 net.cpp:94] Creating Layer relu3
I0122 16:38:50.384061 56358 net.cpp:435] relu3 <- scale3
I0122 16:38:50.384066 56358 net.cpp:409] relu3 -> relu3
I0122 16:38:50.384085 56358 net.cpp:144] Setting up relu3
I0122 16:38:50.384091 56358 net.cpp:151] Top shape: 50 64 16 16 (819200)
I0122 16:38:50.384094 56358 net.cpp:159] Memory required for data: 53044000
I0122 16:38:50.384097 56358 layer_factory.hpp:77] Creating layer conv4
I0122 16:38:50.384105 56358 net.cpp:94] Creating Layer conv4
I0122 16:38:50.384110 56358 net.cpp:435] conv4 <- relu3
I0122 16:38:50.384116 56358 net.cpp:409] conv4 -> conv4
I0122 16:38:50.384609 56358 net.cpp:144] Setting up conv4
I0122 16:38:50.384616 56358 net.cpp:151] Top shape: 50 64 16 16 (819200)
I0122 16:38:50.384619 56358 net.cpp:159] Memory required for data: 56320800
I0122 16:38:50.384624 56358 layer_factory.hpp:77] Creating layer bn4
I0122 16:38:50.384632 56358 net.cpp:94] Creating Layer bn4
I0122 16:38:50.384635 56358 net.cpp:435] bn4 <- conv4
I0122 16:38:50.384649 56358 net.cpp:409] bn4 -> scale4
I0122 16:38:50.385354 56358 net.cpp:144] Setting up bn4
I0122 16:38:50.385361 56358 net.cpp:151] Top shape: 50 64 16 16 (819200)
I0122 16:38:50.385365 56358 net.cpp:159] Memory required for data: 59597600
I0122 16:38:50.385371 56358 layer_factory.hpp:77] Creating layer relu4
I0122 16:38:50.385380 56358 net.cpp:94] Creating Layer relu4
I0122 16:38:50.385383 56358 net.cpp:435] relu4 <- scale4
I0122 16:38:50.385387 56358 net.cpp:409] relu4 -> relu4
I0122 16:38:50.385416 56358 net.cpp:144] Setting up relu4
I0122 16:38:50.385422 56358 net.cpp:151] Top shape: 50 64 16 16 (819200)
I0122 16:38:50.385426 56358 net.cpp:159] Memory required for data: 62874400
I0122 16:38:50.385427 56358 layer_factory.hpp:77] Creating layer pool2
I0122 16:38:50.385435 56358 net.cpp:94] Creating Layer pool2
I0122 16:38:50.385439 56358 net.cpp:435] pool2 <- relu4
I0122 16:38:50.385445 56358 net.cpp:409] pool2 -> pool2
I0122 16:38:50.385479 56358 net.cpp:144] Setting up pool2
I0122 16:38:50.385484 56358 net.cpp:151] Top shape: 50 64 8 8 (204800)
I0122 16:38:50.385486 56358 net.cpp:159] Memory required for data: 63693600
I0122 16:38:50.385489 56358 layer_factory.hpp:77] Creating layer drop2
I0122 16:38:50.385495 56358 net.cpp:94] Creating Layer drop2
I0122 16:38:50.385498 56358 net.cpp:435] drop2 <- pool2
I0122 16:38:50.385501 56358 net.cpp:409] drop2 -> drop2
I0122 16:38:50.385573 56358 net.cpp:144] Setting up drop2
I0122 16:38:50.385579 56358 net.cpp:151] Top shape: 50 64 8 8 (204800)
I0122 16:38:50.385592 56358 net.cpp:159] Memory required for data: 64512800
I0122 16:38:50.385596 56358 layer_factory.hpp:77] Creating layer fc1
I0122 16:38:50.385603 56358 net.cpp:94] Creating Layer fc1
I0122 16:38:50.385607 56358 net.cpp:435] fc1 <- drop2
I0122 16:38:50.385612 56358 net.cpp:409] fc1 -> fc1
I0122 16:38:50.399791 56358 net.cpp:144] Setting up fc1
I0122 16:38:50.399809 56358 net.cpp:151] Top shape: 50 512 (25600)
I0122 16:38:50.399811 56358 net.cpp:159] Memory required for data: 64615200
I0122 16:38:50.399818 56358 layer_factory.hpp:77] Creating layer bn5
I0122 16:38:50.399827 56358 net.cpp:94] Creating Layer bn5
I0122 16:38:50.399832 56358 net.cpp:435] bn5 <- fc1
I0122 16:38:50.399838 56358 net.cpp:409] bn5 -> scale5
I0122 16:38:50.400457 56358 net.cpp:144] Setting up bn5
I0122 16:38:50.400463 56358 net.cpp:151] Top shape: 50 512 (25600)
I0122 16:38:50.400466 56358 net.cpp:159] Memory required for data: 64717600
I0122 16:38:50.400480 56358 layer_factory.hpp:77] Creating layer relu5
I0122 16:38:50.400496 56358 net.cpp:94] Creating Layer relu5
I0122 16:38:50.400499 56358 net.cpp:435] relu5 <- scale5
I0122 16:38:50.400506 56358 net.cpp:409] relu5 -> relu5
I0122 16:38:50.400524 56358 net.cpp:144] Setting up relu5
I0122 16:38:50.400530 56358 net.cpp:151] Top shape: 50 512 (25600)
I0122 16:38:50.400532 56358 net.cpp:159] Memory required for data: 64820000
I0122 16:38:50.400535 56358 layer_factory.hpp:77] Creating layer drop3
I0122 16:38:50.400540 56358 net.cpp:94] Creating Layer drop3
I0122 16:38:50.400543 56358 net.cpp:435] drop3 <- relu5
I0122 16:38:50.400547 56358 net.cpp:409] drop3 -> drop3
I0122 16:38:50.400576 56358 net.cpp:144] Setting up drop3
I0122 16:38:50.400581 56358 net.cpp:151] Top shape: 50 512 (25600)
I0122 16:38:50.400584 56358 net.cpp:159] Memory required for data: 64922400
I0122 16:38:50.400586 56358 layer_factory.hpp:77] Creating layer fc2
I0122 16:38:50.400594 56358 net.cpp:94] Creating Layer fc2
I0122 16:38:50.400599 56358 net.cpp:435] fc2 <- drop3
I0122 16:38:50.400604 56358 net.cpp:409] fc2 -> fc2
I0122 16:38:50.400743 56358 net.cpp:144] Setting up fc2
I0122 16:38:50.400749 56358 net.cpp:151] Top shape: 50 10 (500)
I0122 16:38:50.400753 56358 net.cpp:159] Memory required for data: 64924400
I0122 16:38:50.400756 56358 layer_factory.hpp:77] Creating layer fc2_fc2_0_split
I0122 16:38:50.400763 56358 net.cpp:94] Creating Layer fc2_fc2_0_split
I0122 16:38:50.400766 56358 net.cpp:435] fc2_fc2_0_split <- fc2
I0122 16:38:50.400770 56358 net.cpp:409] fc2_fc2_0_split -> fc2_fc2_0_split_0
I0122 16:38:50.400776 56358 net.cpp:409] fc2_fc2_0_split -> fc2_fc2_0_split_1
I0122 16:38:50.400784 56358 net.cpp:409] fc2_fc2_0_split -> fc2_fc2_0_split_2
I0122 16:38:50.400825 56358 net.cpp:144] Setting up fc2_fc2_0_split
I0122 16:38:50.400830 56358 net.cpp:151] Top shape: 50 10 (500)
I0122 16:38:50.400833 56358 net.cpp:151] Top shape: 50 10 (500)
I0122 16:38:50.400836 56358 net.cpp:151] Top shape: 50 10 (500)
I0122 16:38:50.400840 56358 net.cpp:159] Memory required for data: 64930400
I0122 16:38:50.400842 56358 layer_factory.hpp:77] Creating layer loss
I0122 16:38:50.400846 56358 net.cpp:94] Creating Layer loss
I0122 16:38:50.400849 56358 net.cpp:435] loss <- fc2_fc2_0_split_0
I0122 16:38:50.400853 56358 net.cpp:435] loss <- label_data_1_split_0
I0122 16:38:50.400858 56358 net.cpp:409] loss -> loss
…
