…
I0122 16:22:31.863281 45359 caffe_interface.cpp:70] GPU device name: Quadro P6000
I0122 16:22:31.863745 45359 net.cpp:323] The NetState phase (1) differed from the phase (0) specified by a rule in layer data
I0122 16:22:31.863979 45359 net.cpp:52] Initializing net from parameters: 
state {
  phase: TEST
}
layer {
  name: "data"
  type: "Data"
  top: "data"
  top: "label"
  include {
    phase: TEST
  }
  transform_param {
    mirror: false
    mean_value: 125
    mean_value: 123
    mean_value: 114
  }
  data_param {
    source: "cifar10/input/lmdb/valid_lmdb"
    batch_size: 50
    backend: LMDB
  }
}
layer {
  name: "conv1"
  type: "Convolution"
  bottom: "data"
  top: "conv1"
  param {
    lr_mult: 1
    decay_mult: 1
  }
  param {
    lr_mult: 2
    decay_mult: 0
  }
  convolution_param {
    num_output: 32
    pad: 1
    kernel_size: 3
    stride: 1
    weight_filler {
      type: "xavier"
    }
    bias_filler {
      type: "constant"
      value: 0
    }
  }
}
layer {
  name: "bn1"
  type: "BatchNorm"
  bottom: "conv1"
  top: "scale1"
  param {
    lr_mult: 1
    decay_mult: 0
  }
  param {
    lr_mult: 1
    decay_mult: 0
  }
  param {
    lr_mult: 0
    decay_mult: 0
  }
  param {
    lr_mult: 0
    decay_mult: 0
  }
  batch_norm_param {
    use_global_stats: false
    scale_filler {
      type: "constant"
      value: 1
    }
    bias_filler {
      type: "constant"
      value: 0
    }
  }
}
layer {
  name: "relu1"
  type: "ReLU"
  bottom: "scale1"
  top: "relu1"
}
layer {
  name: "conv2"
  type: "Convolution"
  bottom: "relu1"
  top: "conv2"
  param {
    lr_mult: 1
    decay_mult: 1
  }
  param {
    lr_mult: 2
    decay_mult: 0
  }
  convolution_param {
    num_output: 32
    pad: 1
    kernel_size: 3
    stride: 1
    weight_filler {
      type: "xavier"
    }
    bias_filler {
      type: "constant"
      value: 0
    }
  }
}
layer {
  name: "bn2"
  type: "BatchNorm"
  bottom: "conv2"
  top: "scale2"
  param {
    lr_mult: 1
    decay_mult: 0
  }
  param {
    lr_mult: 1
    decay_mult: 0
  }
  param {
    lr_mult: 0
    decay_mult: 0
  }
  param {
    lr_mult: 0
    decay_mult: 0
  }
  batch_norm_param {
    use_global_stats: false
    scale_filler {
      type: "constant"
      value: 1
    }
    bias_filler {
      type: "constant"
      value: 0
    }
  }
}
layer {
  name: "relu2"
  type: "ReLU"
  bottom: "scale2"
  top: "relu2"
}
layer {
  name: "pool1"
  type: "Pooling"
  bottom: "relu2"
  top: "pool1"
  pooling_param {
    pool: MAX
    kernel_size: 2
    stride: 2
  }
}
layer {
  name: "drop1"
  type: "Dropout"
  bottom: "pool1"
  top: "drop1"
  dropout_param {
    dropout_ratio: 0.25
  }
}
layer {
  name: "conv3"
  type: "Convolution"
  bottom: "drop1"
  top: "conv3"
  param {
    lr_mult: 1
    decay_mult: 1
  }
  param {
    lr_mult: 2
    decay_mult: 0
  }
  convolution_param {
    num_output: 64
    pad: 1
    kernel_size: 3
    stride: 1
    weight_filler {
      type: "xavier"
    }
    bias_filler {
      type: "constant"
      value: 0
    }
  }
}
layer {
  name: "bn3"
  type: "BatchNorm"
  bottom: "conv3"
  top: "scale3"
  param {
    lr_mult: 1
    decay_mult: 0
  }
  param {
    lr_mult: 1
    decay_mult: 0
  }
  param {
    lr_mult: 0
    decay_mult: 0
  }
  param {
    lr_mult: 0
    decay_mult: 0
  }
  batch_norm_param {
    use_global_stats: false
    scale_filler {
      type: "constant"
      value: 1
    }
    bias_filler {
      type: "constant"
      value: 0
    }
  }
}
layer {
  name: "relu3"
  type: "ReLU"
  bottom: "scale3"
  top: "relu3"
}
layer {
  name: "conv4"
  type: "Convolution"
  bottom: "relu3"
  top: "conv4"
  param {
    lr_mult: 1
    decay_mult: 1
  }
  param {
    lr_mult: 2
    decay_mult: 0
  }
  convolution_param {
    num_output: 64
    pad: 1
    kernel_size: 3
    stride: 1
    weight_filler {
      type: "xavier"
    }
    bias_filler {
      type: "constant"
      value: 0
    }
  }
}
layer {
  name: "bn4"
  type: "BatchNorm"
  bottom: "conv4"
  top: "scale4"
  param {
    lr_mult: 1
    decay_mult: 0
  }
  param {
    lr_mult: 1
    decay_mult: 0
  }
  param {
    lr_mult: 0
    decay_mult: 0
  }
  param {
    lr_mult: 0
    decay_mult: 0
  }
  batch_norm_param {
    use_global_stats: false
    scale_filler {
      type: "constant"
      value: 1
    }
    bias_filler {
      type: "constant"
      value: 0
    }
  }
}
layer {
  name: "relu4"
  type: "ReLU"
  bottom: "scale4"
  top: "relu4"
}
layer {
  name: "pool2"
  type: "Pooling"
  bottom: "relu4"
  top: "pool2"
  pooling_param {
    pool: MAX
    kernel_size: 2
    stride: 2
  }
}
layer {
  name: "drop2"
  type: "Dropout"
  bottom: "pool2"
  top: "drop2"
  dropout_param {
    dropout_ratio: 0.25
  }
}
layer {
  name: "fc1"
  type: "InnerProduct"
  bottom: "drop2"
  top: "fc1"
  param {
    lr_mult: 1
    decay_mult: 1
  }
  param {
    lr_mult: 2
    decay_mult: 0
  }
  inner_product_param {
    num_output: 512
    weight_filler {
      type: "xavier"
    }
    bias_filler {
      type: "constant"
      value: 1
    }
  }
}
layer {
  name: "bn5"
  type: "BatchNorm"
  bottom: "fc1"
  top: "scale5"
  param {
    lr_mult: 1
    decay_mult: 0
  }
  param {
    lr_mult: 1
    decay_mult: 0
  }
  param {
    lr_mult: 0
    decay_mult: 0
  }
  param {
    lr_mult: 0
    decay_mult: 0
  }
  batch_norm_param {
    use_global_stats: false
    scale_filler {
      type: "constant"
      value: 1
    }
    bias_filler {
      type: "constant"
      value: 0
    }
  }
}
layer {
  name: "relu5"
  type: "ReLU"
  bottom: "scale5"
  top: "relu5"
}
layer {
  name: "drop3"
  type: "Dropout"
  bottom: "relu5"
  top: "drop3"
  dropout_param {
    dropout_ratio: 0.5
  }
}
layer {
  name: "fc2"
  type: "InnerProduct"
  bottom: "drop3"
  top: "fc2"
  param {
    lr_mult: 1
    decay_mult: 1
  }
  param {
    lr_mult: 2
    decay_mult: 0
  }
  inner_product_param {
    num_output: 10
    weight_filler {
      type: "xavier"
    }
    bias_filler {
      type: "constant"
      value: 1
    }
  }
}
layer {
  name: "loss"
  type: "SoftmaxWithLoss"
  bottom: "fc2"
  bottom: "label"
  top: "loss"
}
layer {
  name: "accuracy-top1"
  type: "Accuracy"
  bottom: "fc2"
  bottom: "label"
  top: "top-1"
  include {
    phase: TEST
  }
}
layer {
  name: "accuracy-top5"
  type: "Accuracy"
  bottom: "fc2"
  bottom: "label"
  top: "top-5"
  include {
    phase: TEST
  }
  accuracy_param {
    top_k: 5
  }
}
I0122 16:22:31.864115 45359 layer_factory.hpp:77] Creating layer data
I0122 16:22:31.864164 45359 internal_thread.cpp:27] Starting internal thread(s) on GPU 0
I0122 16:22:31.864564 45359 net.cpp:94] Creating Layer data
I0122 16:22:31.864574 45359 net.cpp:409] data -> data
I0122 16:22:31.864584 45359 net.cpp:409] data -> label
I0122 16:22:31.865618 45486 db_lmdb.cpp:35] Opened lmdb cifar10/input/lmdb/valid_lmdb
I0122 16:22:31.865648 45486 data_reader.cpp:117] TEST: reading data using 1 channel(s)
I0122 16:22:31.865766 45359 data_layer.cpp:78] ReshapePrefetch 50, 3, 32, 32
I0122 16:22:31.865877 45359 data_layer.cpp:83] output data size: 50,3,32,32
I0122 16:22:31.869055 45359 internal_thread.cpp:27] Starting internal thread(s) on GPU 0
I0122 16:22:31.869102 45359 net.cpp:144] Setting up data
I0122 16:22:31.869110 45359 net.cpp:151] Top shape: 50 3 32 32 (153600)
I0122 16:22:31.869115 45359 net.cpp:151] Top shape: 50 (50)
I0122 16:22:31.869118 45359 net.cpp:159] Memory required for data: 614600
I0122 16:22:31.869124 45359 layer_factory.hpp:77] Creating layer label_data_1_split
I0122 16:22:31.869134 45359 net.cpp:94] Creating Layer label_data_1_split
I0122 16:22:31.869140 45359 net.cpp:435] label_data_1_split <- label
I0122 16:22:31.869148 45359 net.cpp:409] label_data_1_split -> label_data_1_split_0
I0122 16:22:31.869163 45359 net.cpp:409] label_data_1_split -> label_data_1_split_1
I0122 16:22:31.869171 45359 net.cpp:409] label_data_1_split -> label_data_1_split_2
I0122 16:22:31.869276 45359 net.cpp:144] Setting up label_data_1_split
I0122 16:22:31.869283 45359 net.cpp:151] Top shape: 50 (50)
I0122 16:22:31.869300 45359 net.cpp:151] Top shape: 50 (50)
I0122 16:22:31.869305 45359 net.cpp:151] Top shape: 50 (50)
I0122 16:22:31.869308 45359 net.cpp:159] Memory required for data: 615200
I0122 16:22:31.869313 45359 layer_factory.hpp:77] Creating layer conv1
I0122 16:22:31.869325 45359 net.cpp:94] Creating Layer conv1
I0122 16:22:31.869330 45359 net.cpp:435] conv1 <- data
I0122 16:22:31.869338 45359 net.cpp:409] conv1 -> conv1
I0122 16:22:31.870457 45359 net.cpp:144] Setting up conv1
I0122 16:22:31.870471 45359 net.cpp:151] Top shape: 50 32 32 32 (1638400)
I0122 16:22:31.870474 45359 net.cpp:159] Memory required for data: 7168800
I0122 16:22:31.870486 45359 layer_factory.hpp:77] Creating layer bn1
I0122 16:22:31.870496 45359 net.cpp:94] Creating Layer bn1
I0122 16:22:31.870501 45359 net.cpp:435] bn1 <- conv1
I0122 16:22:31.870507 45359 net.cpp:409] bn1 -> scale1
I0122 16:22:31.871227 45359 net.cpp:144] Setting up bn1
I0122 16:22:31.871235 45359 net.cpp:151] Top shape: 50 32 32 32 (1638400)
I0122 16:22:31.871239 45359 net.cpp:159] Memory required for data: 13722400
I0122 16:22:31.871253 45359 layer_factory.hpp:77] Creating layer relu1
I0122 16:22:31.871261 45359 net.cpp:94] Creating Layer relu1
I0122 16:22:31.871265 45359 net.cpp:435] relu1 <- scale1
I0122 16:22:31.871271 45359 net.cpp:409] relu1 -> relu1
I0122 16:22:31.871292 45359 net.cpp:144] Setting up relu1
I0122 16:22:31.871299 45359 net.cpp:151] Top shape: 50 32 32 32 (1638400)
I0122 16:22:31.871302 45359 net.cpp:159] Memory required for data: 20276000
I0122 16:22:31.871306 45359 layer_factory.hpp:77] Creating layer conv2
I0122 16:22:31.871316 45359 net.cpp:94] Creating Layer conv2
I0122 16:22:31.871321 45359 net.cpp:435] conv2 <- relu1
I0122 16:22:31.871327 45359 net.cpp:409] conv2 -> conv2
I0122 16:22:31.872467 45359 net.cpp:144] Setting up conv2
I0122 16:22:31.872476 45359 net.cpp:151] Top shape: 50 32 32 32 (1638400)
I0122 16:22:31.872479 45359 net.cpp:159] Memory required for data: 26829600
I0122 16:22:31.872486 45359 layer_factory.hpp:77] Creating layer bn2
I0122 16:22:31.872494 45359 net.cpp:94] Creating Layer bn2
I0122 16:22:31.872498 45359 net.cpp:435] bn2 <- conv2
I0122 16:22:31.872503 45359 net.cpp:409] bn2 -> scale2
I0122 16:22:31.873173 45359 net.cpp:144] Setting up bn2
I0122 16:22:31.873180 45359 net.cpp:151] Top shape: 50 32 32 32 (1638400)
I0122 16:22:31.873183 45359 net.cpp:159] Memory required for data: 33383200
I0122 16:22:31.873191 45359 layer_factory.hpp:77] Creating layer relu2
I0122 16:22:31.873195 45359 net.cpp:94] Creating Layer relu2
I0122 16:22:31.873199 45359 net.cpp:435] relu2 <- scale2
I0122 16:22:31.873204 45359 net.cpp:409] relu2 -> relu2
I0122 16:22:31.873222 45359 net.cpp:144] Setting up relu2
I0122 16:22:31.873227 45359 net.cpp:151] Top shape: 50 32 32 32 (1638400)
I0122 16:22:31.873230 45359 net.cpp:159] Memory required for data: 39936800
I0122 16:22:31.873234 45359 layer_factory.hpp:77] Creating layer pool1
I0122 16:22:31.873239 45359 net.cpp:94] Creating Layer pool1
I0122 16:22:31.873241 45359 net.cpp:435] pool1 <- relu2
I0122 16:22:31.873245 45359 net.cpp:409] pool1 -> pool1
I0122 16:22:31.873311 45359 net.cpp:144] Setting up pool1
I0122 16:22:31.873317 45359 net.cpp:151] Top shape: 50 32 16 16 (409600)
I0122 16:22:31.873318 45359 net.cpp:159] Memory required for data: 41575200
I0122 16:22:31.873322 45359 layer_factory.hpp:77] Creating layer drop1
I0122 16:22:31.873327 45359 net.cpp:94] Creating Layer drop1
I0122 16:22:31.873328 45359 net.cpp:435] drop1 <- pool1
I0122 16:22:31.873332 45359 net.cpp:409] drop1 -> drop1
I0122 16:22:31.873358 45359 net.cpp:144] Setting up drop1
I0122 16:22:31.873381 45359 net.cpp:151] Top shape: 50 32 16 16 (409600)
I0122 16:22:31.873383 45359 net.cpp:159] Memory required for data: 43213600
I0122 16:22:31.873386 45359 layer_factory.hpp:77] Creating layer conv3
I0122 16:22:31.873394 45359 net.cpp:94] Creating Layer conv3
I0122 16:22:31.873396 45359 net.cpp:435] conv3 <- drop1
I0122 16:22:31.873401 45359 net.cpp:409] conv3 -> conv3
I0122 16:22:31.874442 45359 net.cpp:144] Setting up conv3
I0122 16:22:31.874454 45359 net.cpp:151] Top shape: 50 64 16 16 (819200)
I0122 16:22:31.874469 45359 net.cpp:159] Memory required for data: 46490400
I0122 16:22:31.874475 45359 layer_factory.hpp:77] Creating layer bn3
I0122 16:22:31.874482 45359 net.cpp:94] Creating Layer bn3
I0122 16:22:31.874488 45359 net.cpp:435] bn3 <- conv3
I0122 16:22:31.874495 45359 net.cpp:409] bn3 -> scale3
I0122 16:22:31.875120 45359 net.cpp:144] Setting up bn3
I0122 16:22:31.875128 45359 net.cpp:151] Top shape: 50 64 16 16 (819200)
I0122 16:22:31.875133 45359 net.cpp:159] Memory required for data: 49767200
I0122 16:22:31.875144 45359 layer_factory.hpp:77] Creating layer relu3
I0122 16:22:31.875147 45359 net.cpp:94] Creating Layer relu3
I0122 16:22:31.875151 45359 net.cpp:435] relu3 <- scale3
I0122 16:22:31.875156 45359 net.cpp:409] relu3 -> relu3
I0122 16:22:31.875174 45359 net.cpp:144] Setting up relu3
I0122 16:22:31.875180 45359 net.cpp:151] Top shape: 50 64 16 16 (819200)
I0122 16:22:31.875182 45359 net.cpp:159] Memory required for data: 53044000
I0122 16:22:31.875185 45359 layer_factory.hpp:77] Creating layer conv4
I0122 16:22:31.875193 45359 net.cpp:94] Creating Layer conv4
I0122 16:22:31.875201 45359 net.cpp:435] conv4 <- relu3
I0122 16:22:31.875205 45359 net.cpp:409] conv4 -> conv4
I0122 16:22:31.875634 45359 net.cpp:144] Setting up conv4
I0122 16:22:31.875641 45359 net.cpp:151] Top shape: 50 64 16 16 (819200)
I0122 16:22:31.875644 45359 net.cpp:159] Memory required for data: 56320800
I0122 16:22:31.875649 45359 layer_factory.hpp:77] Creating layer bn4
I0122 16:22:31.875656 45359 net.cpp:94] Creating Layer bn4
I0122 16:22:31.875660 45359 net.cpp:435] bn4 <- conv4
I0122 16:22:31.875666 45359 net.cpp:409] bn4 -> scale4
I0122 16:22:31.876320 45359 net.cpp:144] Setting up bn4
I0122 16:22:31.876330 45359 net.cpp:151] Top shape: 50 64 16 16 (819200)
I0122 16:22:31.876332 45359 net.cpp:159] Memory required for data: 59597600
I0122 16:22:31.876341 45359 layer_factory.hpp:77] Creating layer relu4
I0122 16:22:31.876348 45359 net.cpp:94] Creating Layer relu4
I0122 16:22:31.876351 45359 net.cpp:435] relu4 <- scale4
I0122 16:22:31.876355 45359 net.cpp:409] relu4 -> relu4
I0122 16:22:31.876374 45359 net.cpp:144] Setting up relu4
I0122 16:22:31.876379 45359 net.cpp:151] Top shape: 50 64 16 16 (819200)
I0122 16:22:31.876382 45359 net.cpp:159] Memory required for data: 62874400
I0122 16:22:31.876385 45359 layer_factory.hpp:77] Creating layer pool2
I0122 16:22:31.876391 45359 net.cpp:94] Creating Layer pool2
I0122 16:22:31.876394 45359 net.cpp:435] pool2 <- relu4
I0122 16:22:31.876399 45359 net.cpp:409] pool2 -> pool2
I0122 16:22:31.876488 45359 net.cpp:144] Setting up pool2
I0122 16:22:31.876494 45359 net.cpp:151] Top shape: 50 64 8 8 (204800)
I0122 16:22:31.876497 45359 net.cpp:159] Memory required for data: 63693600
I0122 16:22:31.876500 45359 layer_factory.hpp:77] Creating layer drop2
I0122 16:22:31.876505 45359 net.cpp:94] Creating Layer drop2
I0122 16:22:31.876509 45359 net.cpp:435] drop2 <- pool2
I0122 16:22:31.876513 45359 net.cpp:409] drop2 -> drop2
I0122 16:22:31.876540 45359 net.cpp:144] Setting up drop2
I0122 16:22:31.876545 45359 net.cpp:151] Top shape: 50 64 8 8 (204800)
I0122 16:22:31.876549 45359 net.cpp:159] Memory required for data: 64512800
I0122 16:22:31.876550 45359 layer_factory.hpp:77] Creating layer fc1
I0122 16:22:31.876557 45359 net.cpp:94] Creating Layer fc1
I0122 16:22:31.876560 45359 net.cpp:435] fc1 <- drop2
I0122 16:22:31.876565 45359 net.cpp:409] fc1 -> fc1
I0122 16:22:31.890420 45359 net.cpp:144] Setting up fc1
I0122 16:22:31.890439 45359 net.cpp:151] Top shape: 50 512 (25600)
I0122 16:22:31.890440 45359 net.cpp:159] Memory required for data: 64615200
I0122 16:22:31.890447 45359 layer_factory.hpp:77] Creating layer bn5
I0122 16:22:31.890455 45359 net.cpp:94] Creating Layer bn5
I0122 16:22:31.890460 45359 net.cpp:435] bn5 <- fc1
I0122 16:22:31.890465 45359 net.cpp:409] bn5 -> scale5
I0122 16:22:31.891047 45359 net.cpp:144] Setting up bn5
I0122 16:22:31.891057 45359 net.cpp:151] Top shape: 50 512 (25600)
I0122 16:22:31.891060 45359 net.cpp:159] Memory required for data: 64717600
I0122 16:22:31.891088 45359 layer_factory.hpp:77] Creating layer relu5
I0122 16:22:31.891095 45359 net.cpp:94] Creating Layer relu5
I0122 16:22:31.891098 45359 net.cpp:435] relu5 <- scale5
I0122 16:22:31.891104 45359 net.cpp:409] relu5 -> relu5
I0122 16:22:31.891124 45359 net.cpp:144] Setting up relu5
I0122 16:22:31.891129 45359 net.cpp:151] Top shape: 50 512 (25600)
I0122 16:22:31.891131 45359 net.cpp:159] Memory required for data: 64820000
I0122 16:22:31.891135 45359 layer_factory.hpp:77] Creating layer drop3
I0122 16:22:31.891140 45359 net.cpp:94] Creating Layer drop3
I0122 16:22:31.891144 45359 net.cpp:435] drop3 <- relu5
I0122 16:22:31.891147 45359 net.cpp:409] drop3 -> drop3
I0122 16:22:31.891173 45359 net.cpp:144] Setting up drop3
I0122 16:22:31.891178 45359 net.cpp:151] Top shape: 50 512 (25600)
I0122 16:22:31.891180 45359 net.cpp:159] Memory required for data: 64922400
I0122 16:22:31.891183 45359 layer_factory.hpp:77] Creating layer fc2
I0122 16:22:31.891191 45359 net.cpp:94] Creating Layer fc2
I0122 16:22:31.891193 45359 net.cpp:435] fc2 <- drop3
I0122 16:22:31.891198 45359 net.cpp:409] fc2 -> fc2
I0122 16:22:31.891328 45359 net.cpp:144] Setting up fc2
I0122 16:22:31.891335 45359 net.cpp:151] Top shape: 50 10 (500)
I0122 16:22:31.891337 45359 net.cpp:159] Memory required for data: 64924400
I0122 16:22:31.891342 45359 layer_factory.hpp:77] Creating layer fc2_fc2_0_split
I0122 16:22:31.891346 45359 net.cpp:94] Creating Layer fc2_fc2_0_split
I0122 16:22:31.891352 45359 net.cpp:435] fc2_fc2_0_split <- fc2
I0122 16:22:31.891357 45359 net.cpp:409] fc2_fc2_0_split -> fc2_fc2_0_split_0
I0122 16:22:31.891363 45359 net.cpp:409] fc2_fc2_0_split -> fc2_fc2_0_split_1
I0122 16:22:31.891371 45359 net.cpp:409] fc2_fc2_0_split -> fc2_fc2_0_split_2
I0122 16:22:31.891407 45359 net.cpp:144] Setting up fc2_fc2_0_split
I0122 16:22:31.891412 45359 net.cpp:151] Top shape: 50 10 (500)
I0122 16:22:31.891415 45359 net.cpp:151] Top shape: 50 10 (500)
I0122 16:22:31.891418 45359 net.cpp:151] Top shape: 50 10 (500)
I0122 16:22:31.891422 45359 net.cpp:159] Memory required for data: 64930400
I0122 16:22:31.891423 45359 layer_factory.hpp:77] Creating layer loss
I0122 16:22:31.891429 45359 net.cpp:94] Creating Layer loss
I0122 16:22:31.891434 45359 net.cpp:435] loss <- fc2_fc2_0_split_0
I0122 16:22:31.891439 45359 net.cpp:435] loss <- label_data_1_split_0
I0122 16:22:31.891444 45359 net.cpp:409] loss -> loss
…
I0122 16:22:33.296450 45517 net.cpp:323] The NetState phase (0) differed from the phase (1) specified by a rule in layer accuracy-top1
I0122 16:22:33.296452 45517 net.cpp:323] The NetState phase (0) differed from the phase (1) specified by a rule in layer accuracy-top5
I0122 16:22:33.296615 45517 net.cpp:52] Initializing net from parameters: 
state {
  phase: TRAIN
}
layer {
  name: "data"
  type: "Data"
  top: "data"
  top: "label"
  include {
    phase: TRAIN
  }
  transform_param {
    mirror: true
    mean_value: 125
    mean_value: 123
    mean_value: 114
  }
  data_param {
    source: "cifar10/input/lmdb/train_lmdb"
    batch_size: 128
    backend: LMDB
  }
}
layer {
  name: "conv1"
  type: "Convolution"
  bottom: "data"
  top: "conv1"
  param {
    lr_mult: 1
    decay_mult: 1
    compression: PRUNE
  }
  param {
    lr_mult: 2
    decay_mult: 0
    compression: PRUNE
  }
  convolution_param {
    num_output: 32
    pad: 1
    kernel_size: 3
    stride: 1
    weight_filler {
      type: "xavier"
    }
    bias_filler {
      type: "constant"
      value: 0
    }
  }
}
layer {
  name: "bn1"
  type: "BatchNorm"
  bottom: "conv1"
  top: "scale1"
  param {
    lr_mult: 1
    decay_mult: 0
    compression: PRUNE
  }
  param {
    lr_mult: 1
    decay_mult: 0
    compression: PRUNE
  }
  param {
    lr_mult: 0
    decay_mult: 0
    compression: PRUNE
  }
  param {
    lr_mult: 0
    decay_mult: 0
    compression: PRUNE
  }
  batch_norm_param {
    use_global_stats: false
    scale_filler {
      type: "constant"
      value: 1
    }
    bias_filler {
      type: "constant"
      value: 0
    }
  }
}
layer {
  name: "relu1"
  type: "ReLU"
  bottom: "scale1"
  top: "relu1"
}
layer {
  name: "conv2"
  type: "Convolution"
  bottom: "relu1"
  top: "conv2"
  param {
    lr_mult: 1
    decay_mult: 1
    compression: PRUNE
  }
  param {
    lr_mult: 2
    decay_mult: 0
    compression: PRUNE
  }
  convolution_param {
    num_output: 32
    pad: 1
    kernel_size: 3
    stride: 1
    weight_filler {
      type: "xavier"
    }
    bias_filler {
      type: "constant"
      value: 0
    }
  }
}
layer {
  name: "bn2"
  type: "BatchNorm"
  bottom: "conv2"
  top: "scale2"
  param {
    lr_mult: 1
    decay_mult: 0
    compression: PRUNE
  }
  param {
    lr_mult: 1
    decay_mult: 0
    compression: PRUNE
  }
  param {
    lr_mult: 0
    decay_mult: 0
    compression: PRUNE
  }
  param {
    lr_mult: 0
    decay_mult: 0
    compression: PRUNE
  }
  batch_norm_param {
    use_global_stats: false
    scale_filler {
      type: "constant"
      value: 1
    }
    bias_filler {
      type: "constant"
      value: 0
    }
  }
}
layer {
  name: "relu2"
  type: "ReLU"
  bottom: "scale2"
  top: "relu2"
}
layer {
  name: "pool1"
  type: "Pooling"
  bottom: "relu2"
  top: "pool1"
  pooling_param {
    pool: MAX
    kernel_size: 2
    stride: 2
  }
}
layer {
  name: "drop1"
  type: "Dropout"
  bottom: "pool1"
  top: "drop1"
  dropout_param {
    dropout_ratio: 0.25
  }
}
layer {
  name: "conv3"
  type: "Convolution"
  bottom: "drop1"
  top: "conv3"
  param {
    lr_mult: 1
    decay_mult: 1
    compression: PRUNE
  }
  param {
    lr_mult: 2
    decay_mult: 0
    compression: PRUNE
  }
  convolution_param {
    num_output: 64
    pad: 1
    kernel_size: 3
    stride: 1
    weight_filler {
      type: "xavier"
    }
    bias_filler {
      type: "constant"
      value: 0
    }
  }
}
layer {
  name: "bn3"
  type: "BatchNorm"
  bottom: "conv3"
  top: "scale3"
  param {
    lr_mult: 1
    decay_mult: 0
    compression: PRUNE
  }
  param {
    lr_mult: 1
    decay_mult: 0
    compression: PRUNE
  }
  param {
    lr_mult: 0
    decay_mult: 0
    compression: PRUNE
  }
  param {
    lr_mult: 0
    decay_mult: 0
    compression: PRUNE
  }
  batch_norm_param {
    use_global_stats: false
    scale_filler {
      type: "constant"
      value: 1
    }
    bias_filler {
      type: "constant"
      value: 0
    }
  }
}
layer {
  name: "relu3"
  type: "ReLU"
  bottom: "scale3"
  top: "relu3"
}
layer {
  name: "conv4"
  type: "Convolution"
  bottom: "relu3"
  top: "conv4"
  param {
    lr_mult: 1
    decay_mult: 1
    compression: PRUNE
  }
  param {
    lr_mult: 2
    decay_mult: 0
    compression: PRUNE
  }
  convolution_param {
    num_output: 64
    pad: 1
    kernel_size: 3
    stride: 1
    weight_filler {
      type: "xavier"
    }
    bias_filler {
      type: "constant"
      value: 0
    }
  }
}
layer {
  name: "bn4"
  type: "BatchNorm"
  bottom: "conv4"
  top: "scale4"
  param {
    lr_mult: 1
    decay_mult: 0
    compression: PRUNE
  }
  param {
    lr_mult: 1
    decay_mult: 0
    compression: PRUNE
  }
  param {
    lr_mult: 0
    decay_mult: 0
    compression: PRUNE
  }
  param {
    lr_mult: 0
    decay_mult: 0
    compression: PRUNE
  }
  batch_norm_param {
    use_global_stats: false
    scale_filler {
      type: "constant"
      value: 1
    }
    bias_filler {
      type: "constant"
      value: 0
    }
  }
}
layer {
  name: "relu4"
  type: "ReLU"
  bottom: "scale4"
  top: "relu4"
}
layer {
  name: "pool2"
  type: "Pooling"
  bottom: "relu4"
  top: "pool2"
  pooling_param {
    pool: MAX
    kernel_size: 2
    stride: 2
  }
}
layer {
  name: "drop2"
  type: "Dropout"
  bottom: "pool2"
  top: "drop2"
  dropout_param {
    dropout_ratio: 0.25
  }
}
layer {
  name: "fc1"
  type: "InnerProduct"
  bottom: "drop2"
  top: "fc1"
  param {
    lr_mult: 1
    decay_mult: 1
  }
  param {
    lr_mult: 2
    decay_mult: 0
  }
  inner_product_param {
    num_output: 512
    weight_filler {
      type: "xavier"
    }
    bias_filler {
      type: "constant"
      value: 1
    }
  }
}
layer {
  name: "bn5"
  type: "BatchNorm"
  bottom: "fc1"
  top: "scale5"
  param {
    lr_mult: 1
    decay_mult: 0
    compression: PRUNE
  }
  param {
    lr_mult: 1
    decay_mult: 0
    compression: PRUNE
  }
  param {
    lr_mult: 0
    decay_mult: 0
    compression: PRUNE
  }
  param {
    lr_mult: 0
    decay_mult: 0
    compression: PRUNE
  }
  batch_norm_param {
    use_global_stats: false
    scale_filler {
      type: "constant"
      value: 1
    }
    bias_filler {
      type: "constant"
      value: 0
    }
  }
}
layer {
  name: "relu5"
  type: "ReLU"
  bottom: "scale5"
  top: "relu5"
}
layer {
  name: "drop3"
  type: "Dropout"
  bottom: "relu5"
  top: "drop3"
  dropout_param {
    dropout_ratio: 0.5
  }
}
layer {
  name: "fc2"
  type: "InnerProduct"
  bottom: "drop3"
  top: "fc2"
  param {
    lr_mult: 1
    decay_mult: 1
  }
  param {
    lr_mult: 2
    decay_mult: 0
  }
  inner_product_param {
    num_output: 10
    weight_filler {
      type: "xavier"
    }
    bias_filler {
      type: "constant"
      value: 1
    }
  }
}
layer {
  name: "loss"
  type: "SoftmaxWithLoss"
  bottom: "fc2"
  bottom: "label"
  top: "loss"
}
I0122 16:22:33.296685 45517 layer_factory.hpp:77] Creating layer data
I0122 16:22:33.296774 45517 internal_thread.cpp:27] Starting internal thread(s) on GPU 0
I0122 16:22:33.297201 45517 net.cpp:94] Creating Layer data
I0122 16:22:33.297211 45517 net.cpp:409] data -> data
I0122 16:22:33.297236 45517 net.cpp:409] data -> label
I0122 16:22:33.298705 45556 db_lmdb.cpp:35] Opened lmdb cifar10/input/lmdb/train_lmdb
I0122 16:22:33.298753 45556 data_reader.cpp:117] TRAIN: reading data using 1 channel(s)
I0122 16:22:33.298840 45517 data_layer.cpp:78] ReshapePrefetch 128, 3, 32, 32
I0122 16:22:33.298921 45517 data_layer.cpp:83] output data size: 128,3,32,32
I0122 16:22:33.306414 45517 internal_thread.cpp:27] Starting internal thread(s) on GPU 0
I0122 16:22:33.306481 45517 net.cpp:144] Setting up data
I0122 16:22:33.306489 45517 net.cpp:151] Top shape: 128 3 32 32 (393216)
I0122 16:22:33.306493 45517 net.cpp:151] Top shape: 128 (128)
I0122 16:22:33.306496 45517 net.cpp:159] Memory required for data: 1573376
I0122 16:22:33.306501 45517 layer_factory.hpp:77] Creating layer conv1
I0122 16:22:33.306515 45517 net.cpp:94] Creating Layer conv1
I0122 16:22:33.306521 45517 net.cpp:435] conv1 <- data
I0122 16:22:33.306537 45517 net.cpp:409] conv1 -> conv1
I0122 16:22:33.307565 45517 net.cpp:144] Setting up conv1
I0122 16:22:33.307576 45517 net.cpp:151] Top shape: 128 32 32 32 (4194304)
I0122 16:22:33.307579 45517 net.cpp:159] Memory required for data: 18350592
I0122 16:22:33.307595 45517 layer_factory.hpp:77] Creating layer bn1
I0122 16:22:33.307605 45517 net.cpp:94] Creating Layer bn1
I0122 16:22:33.307608 45517 net.cpp:435] bn1 <- conv1
I0122 16:22:33.307613 45517 net.cpp:409] bn1 -> scale1
I0122 16:22:33.308192 45517 net.cpp:144] Setting up bn1
I0122 16:22:33.308199 45517 net.cpp:151] Top shape: 128 32 32 32 (4194304)
I0122 16:22:33.308202 45517 net.cpp:159] Memory required for data: 35127808
I0122 16:22:33.308212 45517 layer_factory.hpp:77] Creating layer relu1
I0122 16:22:33.308220 45517 net.cpp:94] Creating Layer relu1
I0122 16:22:33.308223 45517 net.cpp:435] relu1 <- scale1
I0122 16:22:33.308228 45517 net.cpp:409] relu1 -> relu1
I0122 16:22:33.308248 45517 net.cpp:144] Setting up relu1
I0122 16:22:33.308254 45517 net.cpp:151] Top shape: 128 32 32 32 (4194304)
I0122 16:22:33.308257 45517 net.cpp:159] Memory required for data: 51905024
I0122 16:22:33.308259 45517 layer_factory.hpp:77] Creating layer conv2
I0122 16:22:33.308267 45517 net.cpp:94] Creating Layer conv2
I0122 16:22:33.308272 45517 net.cpp:435] conv2 <- relu1
I0122 16:22:33.308277 45517 net.cpp:409] conv2 -> conv2
I0122 16:22:33.309762 45517 net.cpp:144] Setting up conv2
I0122 16:22:33.309772 45517 net.cpp:151] Top shape: 128 32 32 32 (4194304)
I0122 16:22:33.309777 45517 net.cpp:159] Memory required for data: 68682240
I0122 16:22:33.309783 45517 layer_factory.hpp:77] Creating layer bn2
I0122 16:22:33.309792 45517 net.cpp:94] Creating Layer bn2
I0122 16:22:33.309795 45517 net.cpp:435] bn2 <- conv2
I0122 16:22:33.309803 45517 net.cpp:409] bn2 -> scale2
I0122 16:22:33.310590 45517 net.cpp:144] Setting up bn2
I0122 16:22:33.310597 45517 net.cpp:151] Top shape: 128 32 32 32 (4194304)
I0122 16:22:33.310600 45517 net.cpp:159] Memory required for data: 85459456
I0122 16:22:33.310609 45517 layer_factory.hpp:77] Creating layer relu2
I0122 16:22:33.310614 45517 net.cpp:94] Creating Layer relu2
I0122 16:22:33.310617 45517 net.cpp:435] relu2 <- scale2
I0122 16:22:33.310621 45517 net.cpp:409] relu2 -> relu2
I0122 16:22:33.310659 45517 net.cpp:144] Setting up relu2
I0122 16:22:33.310665 45517 net.cpp:151] Top shape: 128 32 32 32 (4194304)
I0122 16:22:33.310668 45517 net.cpp:159] Memory required for data: 102236672
I0122 16:22:33.310672 45517 layer_factory.hpp:77] Creating layer pool1
I0122 16:22:33.310678 45517 net.cpp:94] Creating Layer pool1
I0122 16:22:33.310680 45517 net.cpp:435] pool1 <- relu2
I0122 16:22:33.310684 45517 net.cpp:409] pool1 -> pool1
I0122 16:22:33.310722 45517 net.cpp:144] Setting up pool1
I0122 16:22:33.310729 45517 net.cpp:151] Top shape: 128 32 16 16 (1048576)
I0122 16:22:33.310731 45517 net.cpp:159] Memory required for data: 106430976
I0122 16:22:33.310734 45517 layer_factory.hpp:77] Creating layer drop1
I0122 16:22:33.310739 45517 net.cpp:94] Creating Layer drop1
I0122 16:22:33.310748 45517 net.cpp:435] drop1 <- pool1
I0122 16:22:33.310766 45517 net.cpp:409] drop1 -> drop1
I0122 16:22:33.310927 45517 net.cpp:144] Setting up drop1
I0122 16:22:33.310933 45517 net.cpp:151] Top shape: 128 32 16 16 (1048576)
I0122 16:22:33.310936 45517 net.cpp:159] Memory required for data: 110625280
I0122 16:22:33.310940 45517 layer_factory.hpp:77] Creating layer conv3
I0122 16:22:33.310946 45517 net.cpp:94] Creating Layer conv3
I0122 16:22:33.310950 45517 net.cpp:435] conv3 <- drop1
I0122 16:22:33.310955 45517 net.cpp:409] conv3 -> conv3
I0122 16:22:33.311975 45517 net.cpp:144] Setting up conv3
I0122 16:22:33.311987 45517 net.cpp:151] Top shape: 128 64 16 16 (2097152)
I0122 16:22:33.311990 45517 net.cpp:159] Memory required for data: 119013888
I0122 16:22:33.311997 45517 layer_factory.hpp:77] Creating layer bn3
I0122 16:22:33.312005 45517 net.cpp:94] Creating Layer bn3
I0122 16:22:33.312021 45517 net.cpp:435] bn3 <- conv3
I0122 16:22:33.312026 45517 net.cpp:409] bn3 -> scale3
I0122 16:22:33.312649 45517 net.cpp:144] Setting up bn3
I0122 16:22:33.312656 45517 net.cpp:151] Top shape: 128 64 16 16 (2097152)
I0122 16:22:33.312659 45517 net.cpp:159] Memory required for data: 127402496
I0122 16:22:33.312670 45517 layer_factory.hpp:77] Creating layer relu3
I0122 16:22:33.312678 45517 net.cpp:94] Creating Layer relu3
I0122 16:22:33.312681 45517 net.cpp:435] relu3 <- scale3
I0122 16:22:33.312687 45517 net.cpp:409] relu3 -> relu3
I0122 16:22:33.312705 45517 net.cpp:144] Setting up relu3
I0122 16:22:33.312711 45517 net.cpp:151] Top shape: 128 64 16 16 (2097152)
I0122 16:22:33.312714 45517 net.cpp:159] Memory required for data: 135791104
I0122 16:22:33.312717 45517 layer_factory.hpp:77] Creating layer conv4
I0122 16:22:33.312724 45517 net.cpp:94] Creating Layer conv4
I0122 16:22:33.312731 45517 net.cpp:435] conv4 <- relu3
I0122 16:22:33.312736 45517 net.cpp:409] conv4 -> conv4
I0122 16:22:33.313149 45517 net.cpp:144] Setting up conv4
I0122 16:22:33.313156 45517 net.cpp:151] Top shape: 128 64 16 16 (2097152)
I0122 16:22:33.313159 45517 net.cpp:159] Memory required for data: 144179712
I0122 16:22:33.313164 45517 layer_factory.hpp:77] Creating layer bn4
I0122 16:22:33.313170 45517 net.cpp:94] Creating Layer bn4
I0122 16:22:33.313174 45517 net.cpp:435] bn4 <- conv4
I0122 16:22:33.313179 45517 net.cpp:409] bn4 -> scale4
I0122 16:22:33.313822 45517 net.cpp:144] Setting up bn4
I0122 16:22:33.313827 45517 net.cpp:151] Top shape: 128 64 16 16 (2097152)
I0122 16:22:33.313830 45517 net.cpp:159] Memory required for data: 152568320
I0122 16:22:33.313839 45517 layer_factory.hpp:77] Creating layer relu4
I0122 16:22:33.313844 45517 net.cpp:94] Creating Layer relu4
I0122 16:22:33.313848 45517 net.cpp:435] relu4 <- scale4
I0122 16:22:33.313851 45517 net.cpp:409] relu4 -> relu4
I0122 16:22:33.313884 45517 net.cpp:144] Setting up relu4
I0122 16:22:33.313890 45517 net.cpp:151] Top shape: 128 64 16 16 (2097152)
I0122 16:22:33.313892 45517 net.cpp:159] Memory required for data: 160956928
I0122 16:22:33.313895 45517 layer_factory.hpp:77] Creating layer pool2
I0122 16:22:33.313901 45517 net.cpp:94] Creating Layer pool2
I0122 16:22:33.313910 45517 net.cpp:435] pool2 <- relu4
I0122 16:22:33.313915 45517 net.cpp:409] pool2 -> pool2
I0122 16:22:33.313944 45517 net.cpp:144] Setting up pool2
I0122 16:22:33.313951 45517 net.cpp:151] Top shape: 128 64 8 8 (524288)
I0122 16:22:33.313954 45517 net.cpp:159] Memory required for data: 163054080
I0122 16:22:33.313956 45517 layer_factory.hpp:77] Creating layer drop2
I0122 16:22:33.313963 45517 net.cpp:94] Creating Layer drop2
I0122 16:22:33.313966 45517 net.cpp:435] drop2 <- pool2
I0122 16:22:33.313972 45517 net.cpp:409] drop2 -> drop2
I0122 16:22:33.313997 45517 net.cpp:144] Setting up drop2
I0122 16:22:33.314002 45517 net.cpp:151] Top shape: 128 64 8 8 (524288)
I0122 16:22:33.314007 45517 net.cpp:159] Memory required for data: 165151232
I0122 16:22:33.314008 45517 layer_factory.hpp:77] Creating layer fc1
I0122 16:22:33.314015 45517 net.cpp:94] Creating Layer fc1
I0122 16:22:33.314018 45517 net.cpp:435] fc1 <- drop2
I0122 16:22:33.314023 45517 net.cpp:409] fc1 -> fc1
I0122 16:22:33.328212 45517 net.cpp:144] Setting up fc1
I0122 16:22:33.328229 45517 net.cpp:151] Top shape: 128 512 (65536)
I0122 16:22:33.328243 45517 net.cpp:159] Memory required for data: 165413376
I0122 16:22:33.328253 45517 layer_factory.hpp:77] Creating layer bn5
I0122 16:22:33.328260 45517 net.cpp:94] Creating Layer bn5
I0122 16:22:33.328264 45517 net.cpp:435] bn5 <- fc1
I0122 16:22:33.328271 45517 net.cpp:409] bn5 -> scale5
I0122 16:22:33.328819 45517 net.cpp:144] Setting up bn5
I0122 16:22:33.328824 45517 net.cpp:151] Top shape: 128 512 (65536)
I0122 16:22:33.328828 45517 net.cpp:159] Memory required for data: 165675520
I0122 16:22:33.328840 45517 layer_factory.hpp:77] Creating layer relu5
I0122 16:22:33.328848 45517 net.cpp:94] Creating Layer relu5
I0122 16:22:33.328851 45517 net.cpp:435] relu5 <- scale5
I0122 16:22:33.328856 45517 net.cpp:409] relu5 -> relu5
I0122 16:22:33.328874 45517 net.cpp:144] Setting up relu5
I0122 16:22:33.328881 45517 net.cpp:151] Top shape: 128 512 (65536)
I0122 16:22:33.328883 45517 net.cpp:159] Memory required for data: 165937664
I0122 16:22:33.328886 45517 layer_factory.hpp:77] Creating layer drop3
I0122 16:22:33.328891 45517 net.cpp:94] Creating Layer drop3
I0122 16:22:33.328896 45517 net.cpp:435] drop3 <- relu5
I0122 16:22:33.328900 45517 net.cpp:409] drop3 -> drop3
I0122 16:22:33.328928 45517 net.cpp:144] Setting up drop3
I0122 16:22:33.328934 45517 net.cpp:151] Top shape: 128 512 (65536)
I0122 16:22:33.328938 45517 net.cpp:159] Memory required for data: 166199808
I0122 16:22:33.328939 45517 layer_factory.hpp:77] Creating layer fc2
I0122 16:22:33.328945 45517 net.cpp:94] Creating Layer fc2
I0122 16:22:33.328948 45517 net.cpp:435] fc2 <- drop3
I0122 16:22:33.328953 45517 net.cpp:409] fc2 -> fc2
I0122 16:22:33.329108 45517 net.cpp:144] Setting up fc2
I0122 16:22:33.329114 45517 net.cpp:151] Top shape: 128 10 (1280)
I0122 16:22:33.329116 45517 net.cpp:159] Memory required for data: 166204928
I0122 16:22:33.329123 45517 layer_factory.hpp:77] Creating layer loss
I0122 16:22:33.329128 45517 net.cpp:94] Creating Layer loss
I0122 16:22:33.329130 45517 net.cpp:435] loss <- fc2
I0122 16:22:33.329134 45517 net.cpp:435] loss <- label
I0122 16:22:33.329139 45517 net.cpp:409] loss -> loss
I0122 16:22:33.329147 45517 layer_factory.hpp:77] Creating layer loss
…
I0122 16:51:39.702880 58494 net.cpp:323] The NetState phase (1) differed from the phase (0) specified by a rule in layer data
I0122 16:51:39.703292 58494 net.cpp:52] Initializing net from parameters: 
name: "miniVggNet on Cifar10 m3 NO-inPlace"
state {
  phase: TEST
}
layer {
  name: "data"
  type: "Data"
  top: "data"
  top: "label"
  include {
    phase: TEST
  }
  transform_param {
    mirror: false
    mean_value: 125
    mean_value: 123
    mean_value: 114
  }
  data_param {
    source: "cifar10/input/lmdb/valid_lmdb"
    batch_size: 50
    backend: LMDB
  }
}
layer {
  name: "conv1"
  type: "Convolution"
  bottom: "data"
  top: "conv1"
  param {
    lr_mult: 1
    decay_mult: 1
  }
  param {
    lr_mult: 2
    decay_mult: 0
  }
  convolution_param {
    num_output: 32
    pad: 1
    kernel_size: 3
    stride: 1
    weight_filler {
      type: "xavier"
    }
    bias_filler {
      type: "constant"
      value: 0
    }
  }
}
layer {
  name: "bn1"
  type: "BatchNorm"
  bottom: "conv1"
  top: "bn1"
  param {
    lr_mult: 0
  }
  param {
    lr_mult: 0
  }
  param {
    lr_mult: 0
  }
  batch_norm_param {
    use_global_stats: false
  }
}
layer {
  name: "scale1"
  type: "Scale"
  bottom: "bn1"
  top: "scale1"
  scale_param {
    bias_term: true
  }
}
layer {
  name: "relu1"
  type: "ReLU"
  bottom: "scale1"
  top: "relu1"
}
layer {
  name: "conv2"
  type: "Convolution"
  bottom: "relu1"
  top: "conv2"
  param {
    lr_mult: 1
    decay_mult: 1
  }
  param {
    lr_mult: 2
    decay_mult: 0
  }
  convolution_param {
    num_output: 32
    pad: 1
    kernel_size: 3
    stride: 1
    weight_filler {
      type: "xavier"
    }
    bias_filler {
      type: "constant"
      value: 0
    }
  }
}
layer {
  name: "bn2"
  type: "BatchNorm"
  bottom: "conv2"
  top: "bn2"
  param {
    lr_mult: 0
  }
  param {
    lr_mult: 0
  }
  param {
    lr_mult: 0
  }
  batch_norm_param {
    use_global_stats: false
  }
}
layer {
  name: "scale2"
  type: "Scale"
  bottom: "bn2"
  top: "scale2"
  scale_param {
    bias_term: true
  }
}
layer {
  name: "relu2"
  type: "ReLU"
  bottom: "scale2"
  top: "relu2"
}
layer {
  name: "pool1"
  type: "Pooling"
  bottom: "relu2"
  top: "pool1"
  pooling_param {
    pool: MAX
    kernel_size: 2
    stride: 2
  }
}
layer {
  name: "drop1"
  type: "Dropout"
  bottom: "pool1"
  top: "drop1"
  dropout_param {
    dropout_ratio: 0.25
  }
}
layer {
  name: "conv3"
  type: "Convolution"
  bottom: "drop1"
  top: "conv3"
  param {
    lr_mult: 1
    decay_mult: 1
  }
  param {
    lr_mult: 2
    decay_mult: 0
  }
  convolution_param {
    num_output: 64
    pad: 1
    kernel_size: 3
    stride: 1
    weight_filler {
      type: "xavier"
    }
    bias_filler {
      type: "constant"
      value: 0
    }
  }
}
layer {
  name: "bn3"
  type: "BatchNorm"
  bottom: "conv3"
  top: "bn3"
  param {
    lr_mult: 0
  }
  param {
    lr_mult: 0
  }
  param {
    lr_mult: 0
  }
  batch_norm_param {
    use_global_stats: false
  }
}
layer {
  name: "scale3"
  type: "Scale"
  bottom: "bn3"
  top: "scale3"
  scale_param {
    bias_term: true
  }
}
layer {
  name: "relu3"
  type: "ReLU"
  bottom: "scale3"
  top: "relu3"
}
layer {
  name: "conv4"
  type: "Convolution"
  bottom: "relu3"
  top: "conv4"
  param {
    lr_mult: 1
    decay_mult: 1
  }
  param {
    lr_mult: 2
    decay_mult: 0
  }
  convolution_param {
    num_output: 64
    pad: 1
    kernel_size: 3
    stride: 1
    weight_filler {
      type: "xavier"
    }
    bias_filler {
      type: "constant"
      value: 0
    }
  }
}
layer {
  name: "bn4"
  type: "BatchNorm"
  bottom: "conv4"
  top: "bn4"
  param {
    lr_mult: 0
  }
  param {
    lr_mult: 0
  }
  param {
    lr_mult: 0
  }
  batch_norm_param {
    use_global_stats: false
  }
}
layer {
  name: "scale4"
  type: "Scale"
  bottom: "bn4"
  top: "scale4"
  scale_param {
    bias_term: true
  }
}
layer {
  name: "relu4"
  type: "ReLU"
  bottom: "scale4"
  top: "relu4"
}
layer {
  name: "pool2"
  type: "Pooling"
  bottom: "relu4"
  top: "pool2"
  pooling_param {
    pool: MAX
    kernel_size: 2
    stride: 2
  }
}
layer {
  name: "drop2"
  type: "Dropout"
  bottom: "pool2"
  top: "drop2"
  dropout_param {
    dropout_ratio: 0.25
  }
}
layer {
  name: "fc1"
  type: "InnerProduct"
  bottom: "drop2"
  top: "fc1"
  param {
    lr_mult: 1
    decay_mult: 1
  }
  param {
    lr_mult: 2
    decay_mult: 0
  }
  inner_product_param {
    num_output: 512
    weight_filler {
      type: "xavier"
    }
    bias_filler {
      type: "constant"
      value: 1
    }
  }
}
layer {
  name: "bn5"
  type: "BatchNorm"
  bottom: "fc1"
  top: "bn5"
  param {
    lr_mult: 0
  }
  param {
    lr_mult: 0
  }
  param {
    lr_mult: 0
  }
  batch_norm_param {
    use_global_stats: false
  }
}
layer {
  name: "scale5"
  type: "Scale"
  bottom: "bn5"
  top: "scale5"
  scale_param {
    bias_term: true
  }
}
layer {
  name: "relu5"
  type: "ReLU"
  bottom: "scale5"
  top: "relu5"
}
layer {
  name: "drop3"
  type: "Dropout"
  bottom: "relu5"
  top: "drop3"
  dropout_param {
    dropout_ratio: 0.5
  }
}
layer {
  name: "fc2"
  type: "InnerProduct"
  bottom: "drop3"
  top: "fc2"
  param {
    lr_mult: 1
    decay_mult: 1
  }
  param {
    lr_mult: 2
    decay_mult: 0
  }
  inner_product_param {
    num_output: 10
    weight_filler {
      type: "xavier"
    }
    bias_filler {
      type: "constant"
      value: 1
    }
  }
}
layer {
  name: "loss"
  type: "SoftmaxWithLoss"
  bottom: "fc2"
  bottom: "label"
  top: "loss"
}
layer {
  name: "accuracy-top1"
  type: "Accuracy"
  bottom: "fc2"
  bottom: "label"
  top: "top-1"
  include {
    phase: TEST
  }
}
layer {
  name: "accuracy-top5"
  type: "Accuracy"
  bottom: "fc2"
  bottom: "label"
  top: "top-5"
  include {
    phase: TEST
  }
  accuracy_param {
    top_k: 5
  }
}
I0122 16:51:39.703406 58494 layer_factory.hpp:77] Creating layer data
I0122 16:51:39.704141 58494 internal_thread.cpp:27] Starting internal thread(s) on GPU 0
I0122 16:51:39.704593 58494 net.cpp:94] Creating Layer data
I0122 16:51:39.704604 58494 net.cpp:409] data -> data
I0122 16:51:39.704619 58494 net.cpp:409] data -> label
I0122 16:51:39.706388 58528 db_lmdb.cpp:35] Opened lmdb cifar10/input/lmdb/valid_lmdb
I0122 16:51:39.706427 58528 data_reader.cpp:117] TEST: reading data using 1 channel(s)
I0122 16:51:39.706467 58494 data_layer.cpp:78] ReshapePrefetch 50, 3, 32, 32
I0122 16:51:39.706487 58494 data_layer.cpp:83] output data size: 50,3,32,32
I0122 16:51:39.708323 58494 internal_thread.cpp:27] Starting internal thread(s) on GPU 0
I0122 16:51:39.708348 58494 net.cpp:144] Setting up data
I0122 16:51:39.708357 58494 net.cpp:151] Top shape: 50 3 32 32 (153600)
I0122 16:51:39.708361 58494 net.cpp:151] Top shape: 50 (50)
I0122 16:51:39.708364 58494 net.cpp:159] Memory required for data: 614600
I0122 16:51:39.708371 58494 layer_factory.hpp:77] Creating layer label_data_1_split
I0122 16:51:39.708380 58494 net.cpp:94] Creating Layer label_data_1_split
I0122 16:51:39.708385 58494 net.cpp:435] label_data_1_split <- label
I0122 16:51:39.708400 58494 net.cpp:409] label_data_1_split -> label_data_1_split_0
I0122 16:51:39.708410 58494 net.cpp:409] label_data_1_split -> label_data_1_split_1
I0122 16:51:39.708415 58494 net.cpp:409] label_data_1_split -> label_data_1_split_2
I0122 16:51:39.708425 58494 net.cpp:144] Setting up label_data_1_split
I0122 16:51:39.708429 58494 net.cpp:151] Top shape: 50 (50)
I0122 16:51:39.708432 58494 net.cpp:151] Top shape: 50 (50)
I0122 16:51:39.708436 58494 net.cpp:151] Top shape: 50 (50)
I0122 16:51:39.708438 58494 net.cpp:159] Memory required for data: 615200
I0122 16:51:39.708441 58494 layer_factory.hpp:77] Creating layer conv1
I0122 16:51:39.708451 58494 net.cpp:94] Creating Layer conv1
I0122 16:51:39.708456 58494 net.cpp:435] conv1 <- data
I0122 16:51:39.708461 58494 net.cpp:409] conv1 -> conv1
I0122 16:51:39.708528 58494 net.cpp:144] Setting up conv1
I0122 16:51:39.708534 58494 net.cpp:151] Top shape: 50 32 32 32 (1638400)
I0122 16:51:39.708537 58494 net.cpp:159] Memory required for data: 7168800
I0122 16:51:39.708552 58494 layer_factory.hpp:77] Creating layer bn1
I0122 16:51:39.708559 58494 net.cpp:94] Creating Layer bn1
I0122 16:51:39.708562 58494 net.cpp:435] bn1 <- conv1
I0122 16:51:39.708567 58494 net.cpp:409] bn1 -> bn1
I0122 16:51:39.708598 58494 net.cpp:144] Setting up bn1
I0122 16:51:39.708614 58494 net.cpp:151] Top shape: 50 32 32 32 (1638400)
I0122 16:51:39.708617 58494 net.cpp:159] Memory required for data: 13722400
I0122 16:51:39.708628 58494 layer_factory.hpp:77] Creating layer scale1
I0122 16:51:39.708636 58494 net.cpp:94] Creating Layer scale1
I0122 16:51:39.708639 58494 net.cpp:435] scale1 <- bn1
I0122 16:51:39.708643 58494 net.cpp:409] scale1 -> scale1
I0122 16:51:39.708653 58494 layer_factory.hpp:77] Creating layer scale1
I0122 16:51:39.708669 58494 net.cpp:144] Setting up scale1
I0122 16:51:39.708674 58494 net.cpp:151] Top shape: 50 32 32 32 (1638400)
I0122 16:51:39.708676 58494 net.cpp:159] Memory required for data: 20276000
I0122 16:51:39.708683 58494 layer_factory.hpp:77] Creating layer relu1
I0122 16:51:39.708688 58494 net.cpp:94] Creating Layer relu1
I0122 16:51:39.708691 58494 net.cpp:435] relu1 <- scale1
I0122 16:51:39.708695 58494 net.cpp:409] relu1 -> relu1
I0122 16:51:39.708705 58494 net.cpp:144] Setting up relu1
I0122 16:51:39.708711 58494 net.cpp:151] Top shape: 50 32 32 32 (1638400)
I0122 16:51:39.708714 58494 net.cpp:159] Memory required for data: 26829600
I0122 16:51:39.708716 58494 layer_factory.hpp:77] Creating layer conv2
I0122 16:51:39.708724 58494 net.cpp:94] Creating Layer conv2
I0122 16:51:39.708727 58494 net.cpp:435] conv2 <- relu1
I0122 16:51:39.708732 58494 net.cpp:409] conv2 -> conv2
I0122 16:51:39.708804 58494 net.cpp:144] Setting up conv2
I0122 16:51:39.708811 58494 net.cpp:151] Top shape: 50 32 32 32 (1638400)
I0122 16:51:39.708813 58494 net.cpp:159] Memory required for data: 33383200
I0122 16:51:39.708817 58494 layer_factory.hpp:77] Creating layer bn2
I0122 16:51:39.708822 58494 net.cpp:94] Creating Layer bn2
I0122 16:51:39.708827 58494 net.cpp:435] bn2 <- conv2
I0122 16:51:39.708830 58494 net.cpp:409] bn2 -> bn2
I0122 16:51:39.708858 58494 net.cpp:144] Setting up bn2
I0122 16:51:39.708863 58494 net.cpp:151] Top shape: 50 32 32 32 (1638400)
I0122 16:51:39.708866 58494 net.cpp:159] Memory required for data: 39936800
I0122 16:51:39.708873 58494 layer_factory.hpp:77] Creating layer scale2
I0122 16:51:39.708878 58494 net.cpp:94] Creating Layer scale2
I0122 16:51:39.708881 58494 net.cpp:435] scale2 <- bn2
I0122 16:51:39.708886 58494 net.cpp:409] scale2 -> scale2
I0122 16:51:39.708894 58494 layer_factory.hpp:77] Creating layer scale2
I0122 16:51:39.708907 58494 net.cpp:144] Setting up scale2
I0122 16:51:39.708912 58494 net.cpp:151] Top shape: 50 32 32 32 (1638400)
I0122 16:51:39.708915 58494 net.cpp:159] Memory required for data: 46490400
I0122 16:51:39.708921 58494 layer_factory.hpp:77] Creating layer relu2
I0122 16:51:39.708925 58494 net.cpp:94] Creating Layer relu2
I0122 16:51:39.708928 58494 net.cpp:435] relu2 <- scale2
I0122 16:51:39.708932 58494 net.cpp:409] relu2 -> relu2
I0122 16:51:39.708938 58494 net.cpp:144] Setting up relu2
I0122 16:51:39.708942 58494 net.cpp:151] Top shape: 50 32 32 32 (1638400)
I0122 16:51:39.708945 58494 net.cpp:159] Memory required for data: 53044000
I0122 16:51:39.708948 58494 layer_factory.hpp:77] Creating layer pool1
I0122 16:51:39.708953 58494 net.cpp:94] Creating Layer pool1
I0122 16:51:39.708956 58494 net.cpp:435] pool1 <- relu2
I0122 16:51:39.708959 58494 net.cpp:409] pool1 -> pool1
I0122 16:51:39.708971 58494 net.cpp:144] Setting up pool1
I0122 16:51:39.708976 58494 net.cpp:151] Top shape: 50 32 16 16 (409600)
I0122 16:51:39.708978 58494 net.cpp:159] Memory required for data: 54682400
I0122 16:51:39.708981 58494 layer_factory.hpp:77] Creating layer drop1
I0122 16:51:39.708986 58494 net.cpp:94] Creating Layer drop1
I0122 16:51:39.708988 58494 net.cpp:435] drop1 <- pool1
I0122 16:51:39.708992 58494 net.cpp:409] drop1 -> drop1
I0122 16:51:39.708998 58494 net.cpp:144] Setting up drop1
I0122 16:51:39.709002 58494 net.cpp:151] Top shape: 50 32 16 16 (409600)
I0122 16:51:39.709005 58494 net.cpp:159] Memory required for data: 56320800
I0122 16:51:39.709008 58494 layer_factory.hpp:77] Creating layer conv3
I0122 16:51:39.709014 58494 net.cpp:94] Creating Layer conv3
I0122 16:51:39.709018 58494 net.cpp:435] conv3 <- drop1
I0122 16:51:39.709028 58494 net.cpp:409] conv3 -> conv3
I0122 16:51:39.709200 58494 net.cpp:144] Setting up conv3
I0122 16:51:39.709208 58494 net.cpp:151] Top shape: 50 64 16 16 (819200)
I0122 16:51:39.709210 58494 net.cpp:159] Memory required for data: 59597600
I0122 16:51:39.709214 58494 layer_factory.hpp:77] Creating layer bn3
I0122 16:51:39.709221 58494 net.cpp:94] Creating Layer bn3
I0122 16:51:39.709224 58494 net.cpp:435] bn3 <- conv3
I0122 16:51:39.709229 58494 net.cpp:409] bn3 -> bn3
I0122 16:51:39.709257 58494 net.cpp:144] Setting up bn3
I0122 16:51:39.709262 58494 net.cpp:151] Top shape: 50 64 16 16 (819200)
I0122 16:51:39.709265 58494 net.cpp:159] Memory required for data: 62874400
I0122 16:51:39.709272 58494 layer_factory.hpp:77] Creating layer scale3
I0122 16:51:39.709276 58494 net.cpp:94] Creating Layer scale3
I0122 16:51:39.709280 58494 net.cpp:435] scale3 <- bn3
I0122 16:51:39.709283 58494 net.cpp:409] scale3 -> scale3
I0122 16:51:39.709292 58494 layer_factory.hpp:77] Creating layer scale3
I0122 16:51:39.709306 58494 net.cpp:144] Setting up scale3
I0122 16:51:39.709311 58494 net.cpp:151] Top shape: 50 64 16 16 (819200)
I0122 16:51:39.709313 58494 net.cpp:159] Memory required for data: 66151200
I0122 16:51:39.709317 58494 layer_factory.hpp:77] Creating layer relu3
I0122 16:51:39.709321 58494 net.cpp:94] Creating Layer relu3
I0122 16:51:39.709324 58494 net.cpp:435] relu3 <- scale3
I0122 16:51:39.709328 58494 net.cpp:409] relu3 -> relu3
I0122 16:51:39.709334 58494 net.cpp:144] Setting up relu3
I0122 16:51:39.709338 58494 net.cpp:151] Top shape: 50 64 16 16 (819200)
I0122 16:51:39.709342 58494 net.cpp:159] Memory required for data: 69428000
I0122 16:51:39.709343 58494 layer_factory.hpp:77] Creating layer conv4
I0122 16:51:39.709352 58494 net.cpp:94] Creating Layer conv4
I0122 16:51:39.709357 58494 net.cpp:435] conv4 <- relu3
I0122 16:51:39.709362 58494 net.cpp:409] conv4 -> conv4
I0122 16:51:39.709686 58494 net.cpp:144] Setting up conv4
I0122 16:51:39.709693 58494 net.cpp:151] Top shape: 50 64 16 16 (819200)
I0122 16:51:39.709695 58494 net.cpp:159] Memory required for data: 72704800
I0122 16:51:39.709700 58494 layer_factory.hpp:77] Creating layer bn4
I0122 16:51:39.709707 58494 net.cpp:94] Creating Layer bn4
I0122 16:51:39.709710 58494 net.cpp:435] bn4 <- conv4
I0122 16:51:39.709714 58494 net.cpp:409] bn4 -> bn4
I0122 16:51:39.709746 58494 net.cpp:144] Setting up bn4
I0122 16:51:39.709751 58494 net.cpp:151] Top shape: 50 64 16 16 (819200)
I0122 16:51:39.709755 58494 net.cpp:159] Memory required for data: 75981600
I0122 16:51:39.709765 58494 layer_factory.hpp:77] Creating layer scale4
I0122 16:51:39.709774 58494 net.cpp:94] Creating Layer scale4
I0122 16:51:39.709776 58494 net.cpp:435] scale4 <- bn4
I0122 16:51:39.709781 58494 net.cpp:409] scale4 -> scale4
I0122 16:51:39.709789 58494 layer_factory.hpp:77] Creating layer scale4
I0122 16:51:39.709803 58494 net.cpp:144] Setting up scale4
I0122 16:51:39.709808 58494 net.cpp:151] Top shape: 50 64 16 16 (819200)
I0122 16:51:39.709811 58494 net.cpp:159] Memory required for data: 79258400
I0122 16:51:39.709816 58494 layer_factory.hpp:77] Creating layer relu4
I0122 16:51:39.709820 58494 net.cpp:94] Creating Layer relu4
I0122 16:51:39.709822 58494 net.cpp:435] relu4 <- scale4
I0122 16:51:39.709827 58494 net.cpp:409] relu4 -> relu4
I0122 16:51:39.709833 58494 net.cpp:144] Setting up relu4
I0122 16:51:39.709839 58494 net.cpp:151] Top shape: 50 64 16 16 (819200)
I0122 16:51:39.709841 58494 net.cpp:159] Memory required for data: 82535200
I0122 16:51:39.709846 58494 layer_factory.hpp:77] Creating layer pool2
I0122 16:51:39.709849 58494 net.cpp:94] Creating Layer pool2
I0122 16:51:39.709852 58494 net.cpp:435] pool2 <- relu4
I0122 16:51:39.709856 58494 net.cpp:409] pool2 -> pool2
I0122 16:51:39.709863 58494 net.cpp:144] Setting up pool2
I0122 16:51:39.709867 58494 net.cpp:151] Top shape: 50 64 8 8 (204800)
I0122 16:51:39.709869 58494 net.cpp:159] Memory required for data: 83354400
I0122 16:51:39.709872 58494 layer_factory.hpp:77] Creating layer drop2
I0122 16:51:39.709885 58494 net.cpp:94] Creating Layer drop2
I0122 16:51:39.709887 58494 net.cpp:435] drop2 <- pool2
I0122 16:51:39.709892 58494 net.cpp:409] drop2 -> drop2
I0122 16:51:39.709898 58494 net.cpp:144] Setting up drop2
I0122 16:51:39.709903 58494 net.cpp:151] Top shape: 50 64 8 8 (204800)
I0122 16:51:39.709913 58494 net.cpp:159] Memory required for data: 84173600
I0122 16:51:39.709916 58494 layer_factory.hpp:77] Creating layer fc1
I0122 16:51:39.709923 58494 net.cpp:94] Creating Layer fc1
I0122 16:51:39.709928 58494 net.cpp:435] fc1 <- drop2
I0122 16:51:39.709934 58494 net.cpp:409] fc1 -> fc1
I0122 16:51:39.724983 58494 net.cpp:144] Setting up fc1
I0122 16:51:39.725008 58494 net.cpp:151] Top shape: 50 512 (25600)
I0122 16:51:39.725013 58494 net.cpp:159] Memory required for data: 84276000
I0122 16:51:39.725020 58494 layer_factory.hpp:77] Creating layer bn5
I0122 16:51:39.725033 58494 net.cpp:94] Creating Layer bn5
I0122 16:51:39.725037 58494 net.cpp:435] bn5 <- fc1
I0122 16:51:39.725044 58494 net.cpp:409] bn5 -> bn5
I0122 16:51:39.725088 58494 net.cpp:144] Setting up bn5
I0122 16:51:39.725093 58494 net.cpp:151] Top shape: 50 512 (25600)
I0122 16:51:39.725096 58494 net.cpp:159] Memory required for data: 84378400
I0122 16:51:39.725105 58494 layer_factory.hpp:77] Creating layer scale5
I0122 16:51:39.725108 58494 net.cpp:94] Creating Layer scale5
I0122 16:51:39.725111 58494 net.cpp:435] scale5 <- bn5
I0122 16:51:39.725116 58494 net.cpp:409] scale5 -> scale5
I0122 16:51:39.725126 58494 layer_factory.hpp:77] Creating layer scale5
I0122 16:51:39.725144 58494 net.cpp:144] Setting up scale5
I0122 16:51:39.725149 58494 net.cpp:151] Top shape: 50 512 (25600)
I0122 16:51:39.725152 58494 net.cpp:159] Memory required for data: 84480800
I0122 16:51:39.725157 58494 layer_factory.hpp:77] Creating layer relu5
I0122 16:51:39.725162 58494 net.cpp:94] Creating Layer relu5
I0122 16:51:39.725165 58494 net.cpp:435] relu5 <- scale5
I0122 16:51:39.725169 58494 net.cpp:409] relu5 -> relu5
I0122 16:51:39.725175 58494 net.cpp:144] Setting up relu5
I0122 16:51:39.725181 58494 net.cpp:151] Top shape: 50 512 (25600)
I0122 16:51:39.725184 58494 net.cpp:159] Memory required for data: 84583200
I0122 16:51:39.725186 58494 layer_factory.hpp:77] Creating layer drop3
I0122 16:51:39.725191 58494 net.cpp:94] Creating Layer drop3
I0122 16:51:39.725194 58494 net.cpp:435] drop3 <- relu5
I0122 16:51:39.725198 58494 net.cpp:409] drop3 -> drop3
I0122 16:51:39.725205 58494 net.cpp:144] Setting up drop3
I0122 16:51:39.725208 58494 net.cpp:151] Top shape: 50 512 (25600)
I0122 16:51:39.725211 58494 net.cpp:159] Memory required for data: 84685600
I0122 16:51:39.725214 58494 layer_factory.hpp:77] Creating layer fc2
I0122 16:51:39.725219 58494 net.cpp:94] Creating Layer fc2
I0122 16:51:39.725222 58494 net.cpp:435] fc2 <- drop3
I0122 16:51:39.725227 58494 net.cpp:409] fc2 -> fc2
I0122 16:51:39.725271 58494 net.cpp:144] Setting up fc2
I0122 16:51:39.725276 58494 net.cpp:151] Top shape: 50 10 (500)
I0122 16:51:39.725280 58494 net.cpp:159] Memory required for data: 84687600
I0122 16:51:39.725283 58494 layer_factory.hpp:77] Creating layer fc2_fc2_0_split
I0122 16:51:39.725289 58494 net.cpp:94] Creating Layer fc2_fc2_0_split
I0122 16:51:39.725292 58494 net.cpp:435] fc2_fc2_0_split <- fc2
I0122 16:51:39.725297 58494 net.cpp:409] fc2_fc2_0_split -> fc2_fc2_0_split_0
I0122 16:51:39.725302 58494 net.cpp:409] fc2_fc2_0_split -> fc2_fc2_0_split_1
I0122 16:51:39.725312 58494 net.cpp:409] fc2_fc2_0_split -> fc2_fc2_0_split_2
I0122 16:51:39.725320 58494 net.cpp:144] Setting up fc2_fc2_0_split
I0122 16:51:39.725324 58494 net.cpp:151] Top shape: 50 10 (500)
I0122 16:51:39.725327 58494 net.cpp:151] Top shape: 50 10 (500)
I0122 16:51:39.725330 58494 net.cpp:151] Top shape: 50 10 (500)
I0122 16:51:39.725333 58494 net.cpp:159] Memory required for data: 84693600
I0122 16:51:39.725337 58494 layer_factory.hpp:77] Creating layer loss
I0122 16:51:39.725340 58494 net.cpp:94] Creating Layer loss
I0122 16:51:39.725343 58494 net.cpp:435] loss <- fc2_fc2_0_split_0
I0122 16:51:39.725347 58494 net.cpp:435] loss <- label_data_1_split_0
I0122 16:51:39.725368 58494 net.cpp:409] loss -> loss
…
