…
I0122 16:35:36.614967 52522 caffe_interface.cpp:70] GPU device name: Quadro P6000
I0122 16:35:36.615407 52522 net.cpp:323] The NetState phase (1) differed from the phase (0) specified by a rule in layer data
I0122 16:35:36.615645 52522 net.cpp:52] Initializing net from parameters: 
state {
  phase: TEST
}
layer {
  name: "data"
  type: "Data"
  top: "data"
  top: "label"
  include {
    phase: TEST
  }
  transform_param {
    mirror: false
    mean_value: 125
    mean_value: 123
    mean_value: 114
  }
  data_param {
    source: "cifar10/input/lmdb/valid_lmdb"
    batch_size: 50
    backend: LMDB
  }
}
layer {
  name: "conv1"
  type: "Convolution"
  bottom: "data"
  top: "conv1"
  param {
    lr_mult: 1
    decay_mult: 1
  }
  param {
    lr_mult: 2
    decay_mult: 0
  }
  convolution_param {
    num_output: 32
    pad: 1
    kernel_size: 3
    stride: 1
    weight_filler {
      type: "xavier"
    }
    bias_filler {
      type: "constant"
      value: 0
    }
  }
}
layer {
  name: "bn1"
  type: "BatchNorm"
  bottom: "conv1"
  top: "scale1"
  param {
    lr_mult: 1
    decay_mult: 0
  }
  param {
    lr_mult: 1
    decay_mult: 0
  }
  param {
    lr_mult: 0
    decay_mult: 0
  }
  param {
    lr_mult: 0
    decay_mult: 0
  }
  batch_norm_param {
    use_global_stats: false
    scale_filler {
      type: "constant"
      value: 1
    }
    bias_filler {
      type: "constant"
      value: 0
    }
  }
}
layer {
  name: "relu1"
  type: "ReLU"
  bottom: "scale1"
  top: "relu1"
}
layer {
  name: "conv2"
  type: "Convolution"
  bottom: "relu1"
  top: "conv2"
  param {
    lr_mult: 1
    decay_mult: 1
  }
  param {
    lr_mult: 2
    decay_mult: 0
  }
  convolution_param {
    num_output: 32
    pad: 1
    kernel_size: 3
    stride: 1
    weight_filler {
      type: "xavier"
    }
    bias_filler {
      type: "constant"
      value: 0
    }
  }
}
layer {
  name: "bn2"
  type: "BatchNorm"
  bottom: "conv2"
  top: "scale2"
  param {
    lr_mult: 1
    decay_mult: 0
  }
  param {
    lr_mult: 1
    decay_mult: 0
  }
  param {
    lr_mult: 0
    decay_mult: 0
  }
  param {
    lr_mult: 0
    decay_mult: 0
  }
  batch_norm_param {
    use_global_stats: false
    scale_filler {
      type: "constant"
      value: 1
    }
    bias_filler {
      type: "constant"
      value: 0
    }
  }
}
layer {
  name: "relu2"
  type: "ReLU"
  bottom: "scale2"
  top: "relu2"
}
layer {
  name: "pool1"
  type: "Pooling"
  bottom: "relu2"
  top: "pool1"
  pooling_param {
    pool: MAX
    kernel_size: 2
    stride: 2
  }
}
layer {
  name: "drop1"
  type: "Dropout"
  bottom: "pool1"
  top: "drop1"
  dropout_param {
    dropout_ratio: 0.25
  }
}
layer {
  name: "conv3"
  type: "Convolution"
  bottom: "drop1"
  top: "conv3"
  param {
    lr_mult: 1
    decay_mult: 1
  }
  param {
    lr_mult: 2
    decay_mult: 0
  }
  convolution_param {
    num_output: 64
    pad: 1
    kernel_size: 3
    stride: 1
    weight_filler {
      type: "xavier"
    }
    bias_filler {
      type: "constant"
      value: 0
    }
  }
}
layer {
  name: "bn3"
  type: "BatchNorm"
  bottom: "conv3"
  top: "scale3"
  param {
    lr_mult: 1
    decay_mult: 0
  }
  param {
    lr_mult: 1
    decay_mult: 0
  }
  param {
    lr_mult: 0
    decay_mult: 0
  }
  param {
    lr_mult: 0
    decay_mult: 0
  }
  batch_norm_param {
    use_global_stats: false
    scale_filler {
      type: "constant"
      value: 1
    }
    bias_filler {
      type: "constant"
      value: 0
    }
  }
}
layer {
  name: "relu3"
  type: "ReLU"
  bottom: "scale3"
  top: "relu3"
}
layer {
  name: "conv4"
  type: "Convolution"
  bottom: "relu3"
  top: "conv4"
  param {
    lr_mult: 1
    decay_mult: 1
  }
  param {
    lr_mult: 2
    decay_mult: 0
  }
  convolution_param {
    num_output: 64
    pad: 1
    kernel_size: 3
    stride: 1
    weight_filler {
      type: "xavier"
    }
    bias_filler {
      type: "constant"
      value: 0
    }
  }
}
layer {
  name: "bn4"
  type: "BatchNorm"
  bottom: "conv4"
  top: "scale4"
  param {
    lr_mult: 1
    decay_mult: 0
  }
  param {
    lr_mult: 1
    decay_mult: 0
  }
  param {
    lr_mult: 0
    decay_mult: 0
  }
  param {
    lr_mult: 0
    decay_mult: 0
  }
  batch_norm_param {
    use_global_stats: false
    scale_filler {
      type: "constant"
      value: 1
    }
    bias_filler {
      type: "constant"
      value: 0
    }
  }
}
layer {
  name: "relu4"
  type: "ReLU"
  bottom: "scale4"
  top: "relu4"
}
layer {
  name: "pool2"
  type: "Pooling"
  bottom: "relu4"
  top: "pool2"
  pooling_param {
    pool: MAX
    kernel_size: 2
    stride: 2
  }
}
layer {
  name: "drop2"
  type: "Dropout"
  bottom: "pool2"
  top: "drop2"
  dropout_param {
    dropout_ratio: 0.25
  }
}
layer {
  name: "fc1"
  type: "InnerProduct"
  bottom: "drop2"
  top: "fc1"
  param {
    lr_mult: 1
    decay_mult: 1
  }
  param {
    lr_mult: 2
    decay_mult: 0
  }
  inner_product_param {
    num_output: 512
    weight_filler {
      type: "xavier"
    }
    bias_filler {
      type: "constant"
      value: 1
    }
  }
}
layer {
  name: "bn5"
  type: "BatchNorm"
  bottom: "fc1"
  top: "scale5"
  param {
    lr_mult: 1
    decay_mult: 0
  }
  param {
    lr_mult: 1
    decay_mult: 0
  }
  param {
    lr_mult: 0
    decay_mult: 0
  }
  param {
    lr_mult: 0
    decay_mult: 0
  }
  batch_norm_param {
    use_global_stats: false
    scale_filler {
      type: "constant"
      value: 1
    }
    bias_filler {
      type: "constant"
      value: 0
    }
  }
}
layer {
  name: "relu5"
  type: "ReLU"
  bottom: "scale5"
  top: "relu5"
}
layer {
  name: "drop3"
  type: "Dropout"
  bottom: "relu5"
  top: "drop3"
  dropout_param {
    dropout_ratio: 0.5
  }
}
layer {
  name: "fc2"
  type: "InnerProduct"
  bottom: "drop3"
  top: "fc2"
  param {
    lr_mult: 1
    decay_mult: 1
  }
  param {
    lr_mult: 2
    decay_mult: 0
  }
  inner_product_param {
    num_output: 10
    weight_filler {
      type: "xavier"
    }
    bias_filler {
      type: "constant"
      value: 1
    }
  }
}
layer {
  name: "loss"
  type: "SoftmaxWithLoss"
  bottom: "fc2"
  bottom: "label"
  top: "loss"
}
layer {
  name: "accuracy-top1"
  type: "Accuracy"
  bottom: "fc2"
  bottom: "label"
  top: "top-1"
  include {
    phase: TEST
  }
}
layer {
  name: "accuracy-top5"
  type: "Accuracy"
  bottom: "fc2"
  bottom: "label"
  top: "top-5"
  include {
    phase: TEST
  }
  accuracy_param {
    top_k: 5
  }
}
I0122 16:35:36.615792 52522 layer_factory.hpp:77] Creating layer data
I0122 16:35:36.615839 52522 internal_thread.cpp:27] Starting internal thread(s) on GPU 0
I0122 16:35:36.616255 52522 net.cpp:94] Creating Layer data
I0122 16:35:36.616263 52522 net.cpp:409] data -> data
I0122 16:35:36.616273 52522 net.cpp:409] data -> label
I0122 16:35:36.617218 54549 db_lmdb.cpp:35] Opened lmdb cifar10/input/lmdb/valid_lmdb
I0122 16:35:36.617249 54549 data_reader.cpp:117] TEST: reading data using 1 channel(s)
I0122 16:35:36.617323 52522 data_layer.cpp:78] ReshapePrefetch 50, 3, 32, 32
I0122 16:35:36.617425 52522 data_layer.cpp:83] output data size: 50,3,32,32
I0122 16:35:36.620630 52522 internal_thread.cpp:27] Starting internal thread(s) on GPU 0
I0122 16:35:36.620678 52522 net.cpp:144] Setting up data
I0122 16:35:36.620687 52522 net.cpp:151] Top shape: 50 3 32 32 (153600)
I0122 16:35:36.620692 52522 net.cpp:151] Top shape: 50 (50)
I0122 16:35:36.620697 52522 net.cpp:159] Memory required for data: 614600
I0122 16:35:36.620700 52522 layer_factory.hpp:77] Creating layer label_data_1_split
I0122 16:35:36.620709 52522 net.cpp:94] Creating Layer label_data_1_split
I0122 16:35:36.620714 52522 net.cpp:435] label_data_1_split <- label
I0122 16:35:36.620723 52522 net.cpp:409] label_data_1_split -> label_data_1_split_0
I0122 16:35:36.620734 52522 net.cpp:409] label_data_1_split -> label_data_1_split_1
I0122 16:35:36.620744 52522 net.cpp:409] label_data_1_split -> label_data_1_split_2
I0122 16:35:36.620857 52522 net.cpp:144] Setting up label_data_1_split
I0122 16:35:36.620867 52522 net.cpp:151] Top shape: 50 (50)
I0122 16:35:36.620870 52522 net.cpp:151] Top shape: 50 (50)
I0122 16:35:36.620874 52522 net.cpp:151] Top shape: 50 (50)
I0122 16:35:36.620877 52522 net.cpp:159] Memory required for data: 615200
I0122 16:35:36.620882 52522 layer_factory.hpp:77] Creating layer conv1
I0122 16:35:36.620893 52522 net.cpp:94] Creating Layer conv1
I0122 16:35:36.620898 52522 net.cpp:435] conv1 <- data
I0122 16:35:36.620904 52522 net.cpp:409] conv1 -> conv1
I0122 16:35:36.622035 52522 net.cpp:144] Setting up conv1
I0122 16:35:36.622047 52522 net.cpp:151] Top shape: 50 32 32 32 (1638400)
I0122 16:35:36.622051 52522 net.cpp:159] Memory required for data: 7168800
I0122 16:35:36.622063 52522 layer_factory.hpp:77] Creating layer bn1
I0122 16:35:36.622072 52522 net.cpp:94] Creating Layer bn1
I0122 16:35:36.622076 52522 net.cpp:435] bn1 <- conv1
I0122 16:35:36.622083 52522 net.cpp:409] bn1 -> scale1
I0122 16:35:36.622830 52522 net.cpp:144] Setting up bn1
I0122 16:35:36.622839 52522 net.cpp:151] Top shape: 50 32 32 32 (1638400)
I0122 16:35:36.622843 52522 net.cpp:159] Memory required for data: 13722400
I0122 16:35:36.622858 52522 layer_factory.hpp:77] Creating layer relu1
I0122 16:35:36.622865 52522 net.cpp:94] Creating Layer relu1
I0122 16:35:36.622870 52522 net.cpp:435] relu1 <- scale1
I0122 16:35:36.622875 52522 net.cpp:409] relu1 -> relu1
I0122 16:35:36.622898 52522 net.cpp:144] Setting up relu1
I0122 16:35:36.622905 52522 net.cpp:151] Top shape: 50 32 32 32 (1638400)
I0122 16:35:36.622908 52522 net.cpp:159] Memory required for data: 20276000
I0122 16:35:36.622911 52522 layer_factory.hpp:77] Creating layer conv2
I0122 16:35:36.622921 52522 net.cpp:94] Creating Layer conv2
I0122 16:35:36.622925 52522 net.cpp:435] conv2 <- relu1
I0122 16:35:36.622932 52522 net.cpp:409] conv2 -> conv2
I0122 16:35:36.624114 52522 net.cpp:144] Setting up conv2
I0122 16:35:36.624125 52522 net.cpp:151] Top shape: 50 32 32 32 (1638400)
I0122 16:35:36.624126 52522 net.cpp:159] Memory required for data: 26829600
I0122 16:35:36.624135 52522 layer_factory.hpp:77] Creating layer bn2
I0122 16:35:36.624142 52522 net.cpp:94] Creating Layer bn2
I0122 16:35:36.624145 52522 net.cpp:435] bn2 <- conv2
I0122 16:35:36.624150 52522 net.cpp:409] bn2 -> scale2
I0122 16:35:36.624811 52522 net.cpp:144] Setting up bn2
I0122 16:35:36.624817 52522 net.cpp:151] Top shape: 50 32 32 32 (1638400)
I0122 16:35:36.624820 52522 net.cpp:159] Memory required for data: 33383200
I0122 16:35:36.624840 52522 layer_factory.hpp:77] Creating layer relu2
I0122 16:35:36.624845 52522 net.cpp:94] Creating Layer relu2
I0122 16:35:36.624847 52522 net.cpp:435] relu2 <- scale2
I0122 16:35:36.624852 52522 net.cpp:409] relu2 -> relu2
I0122 16:35:36.624889 52522 net.cpp:144] Setting up relu2
I0122 16:35:36.624895 52522 net.cpp:151] Top shape: 50 32 32 32 (1638400)
I0122 16:35:36.624898 52522 net.cpp:159] Memory required for data: 39936800
I0122 16:35:36.624900 52522 layer_factory.hpp:77] Creating layer pool1
I0122 16:35:36.624907 52522 net.cpp:94] Creating Layer pool1
I0122 16:35:36.624909 52522 net.cpp:435] pool1 <- relu2
I0122 16:35:36.624913 52522 net.cpp:409] pool1 -> pool1
I0122 16:35:36.624956 52522 net.cpp:144] Setting up pool1
I0122 16:35:36.624963 52522 net.cpp:151] Top shape: 50 32 16 16 (409600)
I0122 16:35:36.624965 52522 net.cpp:159] Memory required for data: 41575200
I0122 16:35:36.624969 52522 layer_factory.hpp:77] Creating layer drop1
I0122 16:35:36.624972 52522 net.cpp:94] Creating Layer drop1
I0122 16:35:36.624975 52522 net.cpp:435] drop1 <- pool1
I0122 16:35:36.624980 52522 net.cpp:409] drop1 -> drop1
I0122 16:35:36.625005 52522 net.cpp:144] Setting up drop1
I0122 16:35:36.625010 52522 net.cpp:151] Top shape: 50 32 16 16 (409600)
I0122 16:35:36.625012 52522 net.cpp:159] Memory required for data: 43213600
I0122 16:35:36.625015 52522 layer_factory.hpp:77] Creating layer conv3
I0122 16:35:36.625023 52522 net.cpp:94] Creating Layer conv3
I0122 16:35:36.625028 52522 net.cpp:435] conv3 <- drop1
I0122 16:35:36.625033 52522 net.cpp:409] conv3 -> conv3
I0122 16:35:36.626067 52522 net.cpp:144] Setting up conv3
I0122 16:35:36.626080 52522 net.cpp:151] Top shape: 50 64 16 16 (819200)
I0122 16:35:36.626082 52522 net.cpp:159] Memory required for data: 46490400
I0122 16:35:36.626088 52522 layer_factory.hpp:77] Creating layer bn3
I0122 16:35:36.626097 52522 net.cpp:94] Creating Layer bn3
I0122 16:35:36.626101 52522 net.cpp:435] bn3 <- conv3
I0122 16:35:36.626107 52522 net.cpp:409] bn3 -> scale3
I0122 16:35:36.626761 52522 net.cpp:144] Setting up bn3
I0122 16:35:36.626768 52522 net.cpp:151] Top shape: 50 64 16 16 (819200)
I0122 16:35:36.626772 52522 net.cpp:159] Memory required for data: 49767200
I0122 16:35:36.626783 52522 layer_factory.hpp:77] Creating layer relu3
I0122 16:35:36.626790 52522 net.cpp:94] Creating Layer relu3
I0122 16:35:36.626792 52522 net.cpp:435] relu3 <- scale3
I0122 16:35:36.626797 52522 net.cpp:409] relu3 -> relu3
I0122 16:35:36.626814 52522 net.cpp:144] Setting up relu3
I0122 16:35:36.626821 52522 net.cpp:151] Top shape: 50 64 16 16 (819200)
I0122 16:35:36.626824 52522 net.cpp:159] Memory required for data: 53044000
I0122 16:35:36.626827 52522 layer_factory.hpp:77] Creating layer conv4
I0122 16:35:36.626834 52522 net.cpp:94] Creating Layer conv4
I0122 16:35:36.626837 52522 net.cpp:435] conv4 <- relu3
I0122 16:35:36.626842 52522 net.cpp:409] conv4 -> conv4
I0122 16:35:36.627332 52522 net.cpp:144] Setting up conv4
I0122 16:35:36.627341 52522 net.cpp:151] Top shape: 50 64 16 16 (819200)
I0122 16:35:36.627343 52522 net.cpp:159] Memory required for data: 56320800
I0122 16:35:36.627348 52522 layer_factory.hpp:77] Creating layer bn4
I0122 16:35:36.627354 52522 net.cpp:94] Creating Layer bn4
I0122 16:35:36.627357 52522 net.cpp:435] bn4 <- conv4
I0122 16:35:36.627362 52522 net.cpp:409] bn4 -> scale4
I0122 16:35:36.628021 52522 net.cpp:144] Setting up bn4
I0122 16:35:36.628026 52522 net.cpp:151] Top shape: 50 64 16 16 (819200)
I0122 16:35:36.628029 52522 net.cpp:159] Memory required for data: 59597600
I0122 16:35:36.628036 52522 layer_factory.hpp:77] Creating layer relu4
I0122 16:35:36.628041 52522 net.cpp:94] Creating Layer relu4
I0122 16:35:36.628044 52522 net.cpp:435] relu4 <- scale4
I0122 16:35:36.628048 52522 net.cpp:409] relu4 -> relu4
I0122 16:35:36.628082 52522 net.cpp:144] Setting up relu4
I0122 16:35:36.628089 52522 net.cpp:151] Top shape: 50 64 16 16 (819200)
I0122 16:35:36.628091 52522 net.cpp:159] Memory required for data: 62874400
I0122 16:35:36.628108 52522 layer_factory.hpp:77] Creating layer pool2
I0122 16:35:36.628113 52522 net.cpp:94] Creating Layer pool2
I0122 16:35:36.628116 52522 net.cpp:435] pool2 <- relu4
I0122 16:35:36.628123 52522 net.cpp:409] pool2 -> pool2
I0122 16:35:36.628211 52522 net.cpp:144] Setting up pool2
I0122 16:35:36.628217 52522 net.cpp:151] Top shape: 50 64 8 8 (204800)
I0122 16:35:36.628221 52522 net.cpp:159] Memory required for data: 63693600
I0122 16:35:36.628222 52522 layer_factory.hpp:77] Creating layer drop2
I0122 16:35:36.628228 52522 net.cpp:94] Creating Layer drop2
I0122 16:35:36.628232 52522 net.cpp:435] drop2 <- pool2
I0122 16:35:36.628235 52522 net.cpp:409] drop2 -> drop2
I0122 16:35:36.628262 52522 net.cpp:144] Setting up drop2
I0122 16:35:36.628268 52522 net.cpp:151] Top shape: 50 64 8 8 (204800)
I0122 16:35:36.628270 52522 net.cpp:159] Memory required for data: 64512800
I0122 16:35:36.628273 52522 layer_factory.hpp:77] Creating layer fc1
I0122 16:35:36.628279 52522 net.cpp:94] Creating Layer fc1
I0122 16:35:36.628283 52522 net.cpp:435] fc1 <- drop2
I0122 16:35:36.628288 52522 net.cpp:409] fc1 -> fc1
I0122 16:35:36.642514 52522 net.cpp:144] Setting up fc1
I0122 16:35:36.642531 52522 net.cpp:151] Top shape: 50 512 (25600)
I0122 16:35:36.642534 52522 net.cpp:159] Memory required for data: 64615200
I0122 16:35:36.642542 52522 layer_factory.hpp:77] Creating layer bn5
I0122 16:35:36.642551 52522 net.cpp:94] Creating Layer bn5
I0122 16:35:36.642556 52522 net.cpp:435] bn5 <- fc1
I0122 16:35:36.642562 52522 net.cpp:409] bn5 -> scale5
I0122 16:35:36.643107 52522 net.cpp:144] Setting up bn5
I0122 16:35:36.643115 52522 net.cpp:151] Top shape: 50 512 (25600)
I0122 16:35:36.643117 52522 net.cpp:159] Memory required for data: 64717600
I0122 16:35:36.643129 52522 layer_factory.hpp:77] Creating layer relu5
I0122 16:35:36.643136 52522 net.cpp:94] Creating Layer relu5
I0122 16:35:36.643139 52522 net.cpp:435] relu5 <- scale5
I0122 16:35:36.643144 52522 net.cpp:409] relu5 -> relu5
I0122 16:35:36.643162 52522 net.cpp:144] Setting up relu5
I0122 16:35:36.643167 52522 net.cpp:151] Top shape: 50 512 (25600)
I0122 16:35:36.643170 52522 net.cpp:159] Memory required for data: 64820000
I0122 16:35:36.643172 52522 layer_factory.hpp:77] Creating layer drop3
I0122 16:35:36.643177 52522 net.cpp:94] Creating Layer drop3
I0122 16:35:36.643182 52522 net.cpp:435] drop3 <- relu5
I0122 16:35:36.643187 52522 net.cpp:409] drop3 -> drop3
I0122 16:35:36.643213 52522 net.cpp:144] Setting up drop3
I0122 16:35:36.643218 52522 net.cpp:151] Top shape: 50 512 (25600)
I0122 16:35:36.643220 52522 net.cpp:159] Memory required for data: 64922400
I0122 16:35:36.643224 52522 layer_factory.hpp:77] Creating layer fc2
I0122 16:35:36.643230 52522 net.cpp:94] Creating Layer fc2
I0122 16:35:36.643234 52522 net.cpp:435] fc2 <- drop3
I0122 16:35:36.643239 52522 net.cpp:409] fc2 -> fc2
I0122 16:35:36.643370 52522 net.cpp:144] Setting up fc2
I0122 16:35:36.643376 52522 net.cpp:151] Top shape: 50 10 (500)
I0122 16:35:36.643378 52522 net.cpp:159] Memory required for data: 64924400
I0122 16:35:36.643383 52522 layer_factory.hpp:77] Creating layer fc2_fc2_0_split
I0122 16:35:36.643389 52522 net.cpp:94] Creating Layer fc2_fc2_0_split
I0122 16:35:36.643391 52522 net.cpp:435] fc2_fc2_0_split <- fc2
I0122 16:35:36.643396 52522 net.cpp:409] fc2_fc2_0_split -> fc2_fc2_0_split_0
I0122 16:35:36.643402 52522 net.cpp:409] fc2_fc2_0_split -> fc2_fc2_0_split_1
I0122 16:35:36.643411 52522 net.cpp:409] fc2_fc2_0_split -> fc2_fc2_0_split_2
I0122 16:35:36.643446 52522 net.cpp:144] Setting up fc2_fc2_0_split
I0122 16:35:36.643451 52522 net.cpp:151] Top shape: 50 10 (500)
I0122 16:35:36.643455 52522 net.cpp:151] Top shape: 50 10 (500)
I0122 16:35:36.643458 52522 net.cpp:151] Top shape: 50 10 (500)
I0122 16:35:36.643460 52522 net.cpp:159] Memory required for data: 64930400
I0122 16:35:36.643463 52522 layer_factory.hpp:77] Creating layer loss
I0122 16:35:36.643468 52522 net.cpp:94] Creating Layer loss
I0122 16:35:36.643472 52522 net.cpp:435] loss <- fc2_fc2_0_split_0
I0122 16:35:36.643476 52522 net.cpp:435] loss <- label_data_1_split_0
I0122 16:35:36.643494 52522 net.cpp:409] loss -> loss
…
