…
I0122 16:38:48.901437 54759 caffe_interface.cpp:70] GPU device name: Quadro P6000
I0122 16:38:48.901985 54759 net.cpp:323] The NetState phase (1) differed from the phase (0) specified by a rule in layer data
I0122 16:38:48.902279 54759 net.cpp:52] Initializing net from parameters: 
state {
  phase: TEST
}
layer {
  name: "data"
  type: "Data"
  top: "data"
  top: "label"
  include {
    phase: TEST
  }
  transform_param {
    mirror: false
    mean_value: 125
    mean_value: 123
    mean_value: 114
  }
  data_param {
    source: "cifar10/input/lmdb/valid_lmdb"
    batch_size: 50
    backend: LMDB
  }
}
layer {
  name: "conv1"
  type: "Convolution"
  bottom: "data"
  top: "conv1"
  param {
    lr_mult: 1
    decay_mult: 1
  }
  param {
    lr_mult: 2
    decay_mult: 0
  }
  convolution_param {
    num_output: 32
    pad: 1
    kernel_size: 3
    stride: 1
    weight_filler {
      type: "xavier"
    }
    bias_filler {
      type: "constant"
      value: 0
    }
  }
}
layer {
  name: "bn1"
  type: "BatchNorm"
  bottom: "conv1"
  top: "scale1"
  param {
    lr_mult: 1
    decay_mult: 0
  }
  param {
    lr_mult: 1
    decay_mult: 0
  }
  param {
    lr_mult: 0
    decay_mult: 0
  }
  param {
    lr_mult: 0
    decay_mult: 0
  }
  batch_norm_param {
    use_global_stats: false
    scale_filler {
      type: "constant"
      value: 1
    }
    bias_filler {
      type: "constant"
      value: 0
    }
  }
}
layer {
  name: "relu1"
  type: "ReLU"
  bottom: "scale1"
  top: "relu1"
}
layer {
  name: "conv2"
  type: "Convolution"
  bottom: "relu1"
  top: "conv2"
  param {
    lr_mult: 1
    decay_mult: 1
  }
  param {
    lr_mult: 2
    decay_mult: 0
  }
  convolution_param {
    num_output: 32
    pad: 1
    kernel_size: 3
    stride: 1
    weight_filler {
      type: "xavier"
    }
    bias_filler {
      type: "constant"
      value: 0
    }
  }
}
layer {
  name: "bn2"
  type: "BatchNorm"
  bottom: "conv2"
  top: "scale2"
  param {
    lr_mult: 1
    decay_mult: 0
  }
  param {
    lr_mult: 1
    decay_mult: 0
  }
  param {
    lr_mult: 0
    decay_mult: 0
  }
  param {
    lr_mult: 0
    decay_mult: 0
  }
  batch_norm_param {
    use_global_stats: false
    scale_filler {
      type: "constant"
      value: 1
    }
    bias_filler {
      type: "constant"
      value: 0
    }
  }
}
layer {
  name: "relu2"
  type: "ReLU"
  bottom: "scale2"
  top: "relu2"
}
layer {
  name: "pool1"
  type: "Pooling"
  bottom: "relu2"
  top: "pool1"
  pooling_param {
    pool: MAX
    kernel_size: 2
    stride: 2
  }
}
layer {
  name: "drop1"
  type: "Dropout"
  bottom: "pool1"
  top: "drop1"
  dropout_param {
    dropout_ratio: 0.25
  }
}
layer {
  name: "conv3"
  type: "Convolution"
  bottom: "drop1"
  top: "conv3"
  param {
    lr_mult: 1
    decay_mult: 1
  }
  param {
    lr_mult: 2
    decay_mult: 0
  }
  convolution_param {
    num_output: 64
    pad: 1
    kernel_size: 3
    stride: 1
    weight_filler {
      type: "xavier"
    }
    bias_filler {
      type: "constant"
      value: 0
    }
  }
}
layer {
  name: "bn3"
  type: "BatchNorm"
  bottom: "conv3"
  top: "scale3"
  param {
    lr_mult: 1
    decay_mult: 0
  }
  param {
    lr_mult: 1
    decay_mult: 0
  }
  param {
    lr_mult: 0
    decay_mult: 0
  }
  param {
    lr_mult: 0
    decay_mult: 0
  }
  batch_norm_param {
    use_global_stats: false
    scale_filler {
      type: "constant"
      value: 1
    }
    bias_filler {
      type: "constant"
      value: 0
    }
  }
}
layer {
  name: "relu3"
  type: "ReLU"
  bottom: "scale3"
  top: "relu3"
}
layer {
  name: "conv4"
  type: "Convolution"
  bottom: "relu3"
  top: "conv4"
  param {
    lr_mult: 1
    decay_mult: 1
  }
  param {
    lr_mult: 2
    decay_mult: 0
  }
  convolution_param {
    num_output: 64
    pad: 1
    kernel_size: 3
    stride: 1
    weight_filler {
      type: "xavier"
    }
    bias_filler {
      type: "constant"
      value: 0
    }
  }
}
layer {
  name: "bn4"
  type: "BatchNorm"
  bottom: "conv4"
  top: "scale4"
  param {
    lr_mult: 1
    decay_mult: 0
  }
  param {
    lr_mult: 1
    decay_mult: 0
  }
  param {
    lr_mult: 0
    decay_mult: 0
  }
  param {
    lr_mult: 0
    decay_mult: 0
  }
  batch_norm_param {
    use_global_stats: false
    scale_filler {
      type: "constant"
      value: 1
    }
    bias_filler {
      type: "constant"
      value: 0
    }
  }
}
layer {
  name: "relu4"
  type: "ReLU"
  bottom: "scale4"
  top: "relu4"
}
layer {
  name: "pool2"
  type: "Pooling"
  bottom: "relu4"
  top: "pool2"
  pooling_param {
    pool: MAX
    kernel_size: 2
    stride: 2
  }
}
layer {
  name: "drop2"
  type: "Dropout"
  bottom: "pool2"
  top: "drop2"
  dropout_param {
    dropout_ratio: 0.25
  }
}
layer {
  name: "fc1"
  type: "InnerProduct"
  bottom: "drop2"
  top: "fc1"
  param {
    lr_mult: 1
    decay_mult: 1
  }
  param {
    lr_mult: 2
    decay_mult: 0
  }
  inner_product_param {
    num_output: 512
    weight_filler {
      type: "xavier"
    }
    bias_filler {
      type: "constant"
      value: 1
    }
  }
}
layer {
  name: "bn5"
  type: "BatchNorm"
  bottom: "fc1"
  top: "scale5"
  param {
    lr_mult: 1
    decay_mult: 0
  }
  param {
    lr_mult: 1
    decay_mult: 0
  }
  param {
    lr_mult: 0
    decay_mult: 0
  }
  param {
    lr_mult: 0
    decay_mult: 0
  }
  batch_norm_param {
    use_global_stats: false
    scale_filler {
      type: "constant"
      value: 1
    }
    bias_filler {
      type: "constant"
      value: 0
    }
  }
}
layer {
  name: "relu5"
  type: "ReLU"
  bottom: "scale5"
  top: "relu5"
}
layer {
  name: "drop3"
  type: "Dropout"
  bottom: "relu5"
  top: "drop3"
  dropout_param {
    dropout_ratio: 0.5
  }
}
layer {
  name: "fc2"
  type: "InnerProduct"
  bottom: "drop3"
  top: "fc2"
  param {
    lr_mult: 1
    decay_mult: 1
  }
  param {
    lr_mult: 2
    decay_mult: 0
  }
  inner_product_param {
    num_output: 10
    weight_filler {
      type: "xavier"
    }
    bias_filler {
      type: "constant"
      value: 1
    }
  }
}
layer {
  name: "loss"
  type: "SoftmaxWithLoss"
  bottom: "fc2"
  bottom: "label"
  top: "loss"
}
layer {
  name: "accuracy-top1"
  type: "Accuracy"
  bottom: "fc2"
  bottom: "label"
  top: "top-1"
  include {
    phase: TEST
  }
}
layer {
  name: "accuracy-top5"
  type: "Accuracy"
  bottom: "fc2"
  bottom: "label"
  top: "top-5"
  include {
    phase: TEST
  }
  accuracy_param {
    top_k: 5
  }
}
I0122 16:38:48.902449 54759 layer_factory.hpp:77] Creating layer data
I0122 16:38:48.902508 54759 internal_thread.cpp:27] Starting internal thread(s) on GPU 0
I0122 16:38:48.903005 54759 net.cpp:94] Creating Layer data
I0122 16:38:48.903017 54759 net.cpp:409] data -> data
I0122 16:38:48.903030 54759 net.cpp:409] data -> label
I0122 16:38:48.903931 56326 db_lmdb.cpp:35] Opened lmdb cifar10/input/lmdb/valid_lmdb
I0122 16:38:48.903962 56326 data_reader.cpp:117] TEST: reading data using 1 channel(s)
I0122 16:38:48.904129 54759 data_layer.cpp:78] ReshapePrefetch 50, 3, 32, 32
I0122 16:38:48.904294 54759 data_layer.cpp:83] output data size: 50,3,32,32
I0122 16:38:48.908627 54759 internal_thread.cpp:27] Starting internal thread(s) on GPU 0
I0122 16:38:48.908695 54759 net.cpp:144] Setting up data
I0122 16:38:48.908707 54759 net.cpp:151] Top shape: 50 3 32 32 (153600)
I0122 16:38:48.908717 54759 net.cpp:151] Top shape: 50 (50)
I0122 16:38:48.908725 54759 net.cpp:159] Memory required for data: 614600
I0122 16:38:48.908735 54759 layer_factory.hpp:77] Creating layer label_data_1_split
I0122 16:38:48.908749 54759 net.cpp:94] Creating Layer label_data_1_split
I0122 16:38:48.908757 54759 net.cpp:435] label_data_1_split <- label
I0122 16:38:48.908778 54759 net.cpp:409] label_data_1_split -> label_data_1_split_0
I0122 16:38:48.908797 54759 net.cpp:409] label_data_1_split -> label_data_1_split_1
I0122 16:38:48.908823 54759 net.cpp:409] label_data_1_split -> label_data_1_split_2
I0122 16:38:48.908983 54759 net.cpp:144] Setting up label_data_1_split
I0122 16:38:48.908994 54759 net.cpp:151] Top shape: 50 (50)
I0122 16:38:48.909003 54759 net.cpp:151] Top shape: 50 (50)
I0122 16:38:48.909009 54759 net.cpp:151] Top shape: 50 (50)
I0122 16:38:48.909016 54759 net.cpp:159] Memory required for data: 615200
I0122 16:38:48.909021 54759 layer_factory.hpp:77] Creating layer conv1
I0122 16:38:48.909041 54759 net.cpp:94] Creating Layer conv1
I0122 16:38:48.909049 54759 net.cpp:435] conv1 <- data
I0122 16:38:48.909059 54759 net.cpp:409] conv1 -> conv1
I0122 16:38:48.910629 54759 net.cpp:144] Setting up conv1
I0122 16:38:48.910648 54759 net.cpp:151] Top shape: 50 32 32 32 (1638400)
I0122 16:38:48.910655 54759 net.cpp:159] Memory required for data: 7168800
I0122 16:38:48.910672 54759 layer_factory.hpp:77] Creating layer bn1
I0122 16:38:48.910687 54759 net.cpp:94] Creating Layer bn1
I0122 16:38:48.910696 54759 net.cpp:435] bn1 <- conv1
I0122 16:38:48.910706 54759 net.cpp:409] bn1 -> scale1
I0122 16:38:48.912106 54759 net.cpp:144] Setting up bn1
I0122 16:38:48.912118 54759 net.cpp:151] Top shape: 50 32 32 32 (1638400)
I0122 16:38:48.912127 54759 net.cpp:159] Memory required for data: 13722400
I0122 16:38:48.912149 54759 layer_factory.hpp:77] Creating layer relu1
I0122 16:38:48.912163 54759 net.cpp:94] Creating Layer relu1
I0122 16:38:48.912170 54759 net.cpp:435] relu1 <- scale1
I0122 16:38:48.912180 54759 net.cpp:409] relu1 -> relu1
I0122 16:38:48.912212 54759 net.cpp:144] Setting up relu1
I0122 16:38:48.912222 54759 net.cpp:151] Top shape: 50 32 32 32 (1638400)
I0122 16:38:48.912227 54759 net.cpp:159] Memory required for data: 20276000
I0122 16:38:48.912235 54759 layer_factory.hpp:77] Creating layer conv2
I0122 16:38:48.912250 54759 net.cpp:94] Creating Layer conv2
I0122 16:38:48.912256 54759 net.cpp:435] conv2 <- relu1
I0122 16:38:48.912267 54759 net.cpp:409] conv2 -> conv2
I0122 16:38:48.913882 54759 net.cpp:144] Setting up conv2
I0122 16:38:48.913902 54759 net.cpp:151] Top shape: 50 32 32 32 (1638400)
I0122 16:38:48.913924 54759 net.cpp:159] Memory required for data: 26829600
I0122 16:38:48.913942 54759 layer_factory.hpp:77] Creating layer bn2
I0122 16:38:48.913959 54759 net.cpp:94] Creating Layer bn2
I0122 16:38:48.913965 54759 net.cpp:435] bn2 <- conv2
I0122 16:38:48.913976 54759 net.cpp:409] bn2 -> scale2
I0122 16:38:48.915213 54759 net.cpp:144] Setting up bn2
I0122 16:38:48.915225 54759 net.cpp:151] Top shape: 50 32 32 32 (1638400)
I0122 16:38:48.915227 54759 net.cpp:159] Memory required for data: 33383200
I0122 16:38:48.915238 54759 layer_factory.hpp:77] Creating layer relu2
I0122 16:38:48.915246 54759 net.cpp:94] Creating Layer relu2
I0122 16:38:48.915251 54759 net.cpp:435] relu2 <- scale2
I0122 16:38:48.915256 54759 net.cpp:409] relu2 -> relu2
I0122 16:38:48.915277 54759 net.cpp:144] Setting up relu2
I0122 16:38:48.915284 54759 net.cpp:151] Top shape: 50 32 32 32 (1638400)
I0122 16:38:48.915302 54759 net.cpp:159] Memory required for data: 39936800
I0122 16:38:48.915307 54759 layer_factory.hpp:77] Creating layer pool1
I0122 16:38:48.915314 54759 net.cpp:94] Creating Layer pool1
I0122 16:38:48.915319 54759 net.cpp:435] pool1 <- relu2
I0122 16:38:48.915325 54759 net.cpp:409] pool1 -> pool1
I0122 16:38:48.915397 54759 net.cpp:144] Setting up pool1
I0122 16:38:48.915405 54759 net.cpp:151] Top shape: 50 32 16 16 (409600)
I0122 16:38:48.915407 54759 net.cpp:159] Memory required for data: 41575200
I0122 16:38:48.915411 54759 layer_factory.hpp:77] Creating layer drop1
I0122 16:38:48.915417 54759 net.cpp:94] Creating Layer drop1
I0122 16:38:48.915421 54759 net.cpp:435] drop1 <- pool1
I0122 16:38:48.915426 54759 net.cpp:409] drop1 -> drop1
I0122 16:38:48.915459 54759 net.cpp:144] Setting up drop1
I0122 16:38:48.915465 54759 net.cpp:151] Top shape: 50 32 16 16 (409600)
I0122 16:38:48.915469 54759 net.cpp:159] Memory required for data: 43213600
I0122 16:38:48.915472 54759 layer_factory.hpp:77] Creating layer conv3
I0122 16:38:48.915482 54759 net.cpp:94] Creating Layer conv3
I0122 16:38:48.915486 54759 net.cpp:435] conv3 <- drop1
I0122 16:38:48.915493 54759 net.cpp:409] conv3 -> conv3
I0122 16:38:48.916671 54759 net.cpp:144] Setting up conv3
I0122 16:38:48.916684 54759 net.cpp:151] Top shape: 50 64 16 16 (819200)
I0122 16:38:48.916688 54759 net.cpp:159] Memory required for data: 46490400
I0122 16:38:48.916697 54759 layer_factory.hpp:77] Creating layer bn3
I0122 16:38:48.916704 54759 net.cpp:94] Creating Layer bn3
I0122 16:38:48.916709 54759 net.cpp:435] bn3 <- conv3
I0122 16:38:48.916718 54759 net.cpp:409] bn3 -> scale3
I0122 16:38:48.917517 54759 net.cpp:144] Setting up bn3
I0122 16:38:48.917526 54759 net.cpp:151] Top shape: 50 64 16 16 (819200)
I0122 16:38:48.917531 54759 net.cpp:159] Memory required for data: 49767200
I0122 16:38:48.917542 54759 layer_factory.hpp:77] Creating layer relu3
I0122 16:38:48.917551 54759 net.cpp:94] Creating Layer relu3
I0122 16:38:48.917556 54759 net.cpp:435] relu3 <- scale3
I0122 16:38:48.917562 54759 net.cpp:409] relu3 -> relu3
I0122 16:38:48.917583 54759 net.cpp:144] Setting up relu3
I0122 16:38:48.917589 54759 net.cpp:151] Top shape: 50 64 16 16 (819200)
I0122 16:38:48.917593 54759 net.cpp:159] Memory required for data: 53044000
I0122 16:38:48.917598 54759 layer_factory.hpp:77] Creating layer conv4
I0122 16:38:48.917608 54759 net.cpp:94] Creating Layer conv4
I0122 16:38:48.917613 54759 net.cpp:435] conv4 <- relu3
I0122 16:38:48.917619 54759 net.cpp:409] conv4 -> conv4
I0122 16:38:48.918210 54759 net.cpp:144] Setting up conv4
I0122 16:38:48.918220 54759 net.cpp:151] Top shape: 50 64 16 16 (819200)
I0122 16:38:48.918224 54759 net.cpp:159] Memory required for data: 56320800
I0122 16:38:48.918231 54759 layer_factory.hpp:77] Creating layer bn4
I0122 16:38:48.918239 54759 net.cpp:94] Creating Layer bn4
I0122 16:38:48.918243 54759 net.cpp:435] bn4 <- conv4
I0122 16:38:48.918251 54759 net.cpp:409] bn4 -> scale4
I0122 16:38:48.919085 54759 net.cpp:144] Setting up bn4
I0122 16:38:48.919093 54759 net.cpp:151] Top shape: 50 64 16 16 (819200)
I0122 16:38:48.919097 54759 net.cpp:159] Memory required for data: 59597600
I0122 16:38:48.919106 54759 layer_factory.hpp:77] Creating layer relu4
I0122 16:38:48.919113 54759 net.cpp:94] Creating Layer relu4
I0122 16:38:48.919118 54759 net.cpp:435] relu4 <- scale4
I0122 16:38:48.919123 54759 net.cpp:409] relu4 -> relu4
I0122 16:38:48.919147 54759 net.cpp:144] Setting up relu4
I0122 16:38:48.919152 54759 net.cpp:151] Top shape: 50 64 16 16 (819200)
I0122 16:38:48.919158 54759 net.cpp:159] Memory required for data: 62874400
I0122 16:38:48.919162 54759 layer_factory.hpp:77] Creating layer pool2
I0122 16:38:48.919169 54759 net.cpp:94] Creating Layer pool2
I0122 16:38:48.919175 54759 net.cpp:435] pool2 <- relu4
I0122 16:38:48.919183 54759 net.cpp:409] pool2 -> pool2
I0122 16:38:48.919219 54759 net.cpp:144] Setting up pool2
I0122 16:38:48.919225 54759 net.cpp:151] Top shape: 50 64 8 8 (204800)
I0122 16:38:48.919229 54759 net.cpp:159] Memory required for data: 63693600
I0122 16:38:48.919246 54759 layer_factory.hpp:77] Creating layer drop2
I0122 16:38:48.919252 54759 net.cpp:94] Creating Layer drop2
I0122 16:38:48.919255 54759 net.cpp:435] drop2 <- pool2
I0122 16:38:48.919261 54759 net.cpp:409] drop2 -> drop2
I0122 16:38:48.919332 54759 net.cpp:144] Setting up drop2
I0122 16:38:48.919338 54759 net.cpp:151] Top shape: 50 64 8 8 (204800)
I0122 16:38:48.919342 54759 net.cpp:159] Memory required for data: 64512800
I0122 16:38:48.919345 54759 layer_factory.hpp:77] Creating layer fc1
I0122 16:38:48.919354 54759 net.cpp:94] Creating Layer fc1
I0122 16:38:48.919359 54759 net.cpp:435] fc1 <- drop2
I0122 16:38:48.919365 54759 net.cpp:409] fc1 -> fc1
I0122 16:38:48.934758 54759 net.cpp:144] Setting up fc1
I0122 16:38:48.934778 54759 net.cpp:151] Top shape: 50 512 (25600)
I0122 16:38:48.934780 54759 net.cpp:159] Memory required for data: 64615200
I0122 16:38:48.934788 54759 layer_factory.hpp:77] Creating layer bn5
I0122 16:38:48.934806 54759 net.cpp:94] Creating Layer bn5
I0122 16:38:48.934813 54759 net.cpp:435] bn5 <- fc1
I0122 16:38:48.934818 54759 net.cpp:409] bn5 -> scale5
I0122 16:38:48.935354 54759 net.cpp:144] Setting up bn5
I0122 16:38:48.935361 54759 net.cpp:151] Top shape: 50 512 (25600)
I0122 16:38:48.935364 54759 net.cpp:159] Memory required for data: 64717600
I0122 16:38:48.935376 54759 layer_factory.hpp:77] Creating layer relu5
I0122 16:38:48.935382 54759 net.cpp:94] Creating Layer relu5
I0122 16:38:48.935385 54759 net.cpp:435] relu5 <- scale5
I0122 16:38:48.935391 54759 net.cpp:409] relu5 -> relu5
I0122 16:38:48.935408 54759 net.cpp:144] Setting up relu5
I0122 16:38:48.935413 54759 net.cpp:151] Top shape: 50 512 (25600)
I0122 16:38:48.935416 54759 net.cpp:159] Memory required for data: 64820000
I0122 16:38:48.935420 54759 layer_factory.hpp:77] Creating layer drop3
I0122 16:38:48.935425 54759 net.cpp:94] Creating Layer drop3
I0122 16:38:48.935427 54759 net.cpp:435] drop3 <- relu5
I0122 16:38:48.935431 54759 net.cpp:409] drop3 -> drop3
I0122 16:38:48.935457 54759 net.cpp:144] Setting up drop3
I0122 16:38:48.935461 54759 net.cpp:151] Top shape: 50 512 (25600)
I0122 16:38:48.935464 54759 net.cpp:159] Memory required for data: 64922400
I0122 16:38:48.935467 54759 layer_factory.hpp:77] Creating layer fc2
I0122 16:38:48.935473 54759 net.cpp:94] Creating Layer fc2
I0122 16:38:48.935477 54759 net.cpp:435] fc2 <- drop3
I0122 16:38:48.935480 54759 net.cpp:409] fc2 -> fc2
I0122 16:38:48.935601 54759 net.cpp:144] Setting up fc2
I0122 16:38:48.935607 54759 net.cpp:151] Top shape: 50 10 (500)
I0122 16:38:48.935611 54759 net.cpp:159] Memory required for data: 64924400
I0122 16:38:48.935616 54759 layer_factory.hpp:77] Creating layer fc2_fc2_0_split
I0122 16:38:48.935621 54759 net.cpp:94] Creating Layer fc2_fc2_0_split
I0122 16:38:48.935623 54759 net.cpp:435] fc2_fc2_0_split <- fc2
I0122 16:38:48.935628 54759 net.cpp:409] fc2_fc2_0_split -> fc2_fc2_0_split_0
I0122 16:38:48.935634 54759 net.cpp:409] fc2_fc2_0_split -> fc2_fc2_0_split_1
I0122 16:38:48.935640 54759 net.cpp:409] fc2_fc2_0_split -> fc2_fc2_0_split_2
I0122 16:38:48.935674 54759 net.cpp:144] Setting up fc2_fc2_0_split
I0122 16:38:48.935679 54759 net.cpp:151] Top shape: 50 10 (500)
I0122 16:38:48.935683 54759 net.cpp:151] Top shape: 50 10 (500)
I0122 16:38:48.935685 54759 net.cpp:151] Top shape: 50 10 (500)
I0122 16:38:48.935688 54759 net.cpp:159] Memory required for data: 64930400
I0122 16:38:48.935690 54759 layer_factory.hpp:77] Creating layer loss
I0122 16:38:48.935695 54759 net.cpp:94] Creating Layer loss
I0122 16:38:48.935698 54759 net.cpp:435] loss <- fc2_fc2_0_split_0
I0122 16:38:48.935703 54759 net.cpp:435] loss <- label_data_1_split_0
I0122 16:38:48.935708 54759 net.cpp:409] loss -> loss
…
