…
I0122 16:29:01.825203 48361 caffe_interface.cpp:70] GPU device name: Quadro P6000
I0122 16:29:01.825641 48361 net.cpp:323] The NetState phase (1) differed from the phase (0) specified by a rule in layer data
I0122 16:29:01.825876 48361 net.cpp:52] Initializing net from parameters: 
state {
  phase: TEST
}
layer {
  name: "data"
  type: "Data"
  top: "data"
  top: "label"
  include {
    phase: TEST
  }
  transform_param {
    mirror: false
    mean_value: 125
    mean_value: 123
    mean_value: 114
  }
  data_param {
    source: "cifar10/input/lmdb/valid_lmdb"
    batch_size: 50
    backend: LMDB
  }
}
layer {
  name: "conv1"
  type: "Convolution"
  bottom: "data"
  top: "conv1"
  param {
    lr_mult: 1
    decay_mult: 1
  }
  param {
    lr_mult: 2
    decay_mult: 0
  }
  convolution_param {
    num_output: 32
    pad: 1
    kernel_size: 3
    stride: 1
    weight_filler {
      type: "xavier"
    }
    bias_filler {
      type: "constant"
      value: 0
    }
  }
}
layer {
  name: "bn1"
  type: "BatchNorm"
  bottom: "conv1"
  top: "scale1"
  param {
    lr_mult: 1
    decay_mult: 0
  }
  param {
    lr_mult: 1
    decay_mult: 0
  }
  param {
    lr_mult: 0
    decay_mult: 0
  }
  param {
    lr_mult: 0
    decay_mult: 0
  }
  batch_norm_param {
    use_global_stats: false
    scale_filler {
      type: "constant"
      value: 1
    }
    bias_filler {
      type: "constant"
      value: 0
    }
  }
}
layer {
  name: "relu1"
  type: "ReLU"
  bottom: "scale1"
  top: "relu1"
}
layer {
  name: "conv2"
  type: "Convolution"
  bottom: "relu1"
  top: "conv2"
  param {
    lr_mult: 1
    decay_mult: 1
  }
  param {
    lr_mult: 2
    decay_mult: 0
  }
  convolution_param {
    num_output: 32
    pad: 1
    kernel_size: 3
    stride: 1
    weight_filler {
      type: "xavier"
    }
    bias_filler {
      type: "constant"
      value: 0
    }
  }
}
layer {
  name: "bn2"
  type: "BatchNorm"
  bottom: "conv2"
  top: "scale2"
  param {
    lr_mult: 1
    decay_mult: 0
  }
  param {
    lr_mult: 1
    decay_mult: 0
  }
  param {
    lr_mult: 0
    decay_mult: 0
  }
  param {
    lr_mult: 0
    decay_mult: 0
  }
  batch_norm_param {
    use_global_stats: false
    scale_filler {
      type: "constant"
      value: 1
    }
    bias_filler {
      type: "constant"
      value: 0
    }
  }
}
layer {
  name: "relu2"
  type: "ReLU"
  bottom: "scale2"
  top: "relu2"
}
layer {
  name: "pool1"
  type: "Pooling"
  bottom: "relu2"
  top: "pool1"
  pooling_param {
    pool: MAX
    kernel_size: 2
    stride: 2
  }
}
layer {
  name: "drop1"
  type: "Dropout"
  bottom: "pool1"
  top: "drop1"
  dropout_param {
    dropout_ratio: 0.25
  }
}
layer {
  name: "conv3"
  type: "Convolution"
  bottom: "drop1"
  top: "conv3"
  param {
    lr_mult: 1
    decay_mult: 1
  }
  param {
    lr_mult: 2
    decay_mult: 0
  }
  convolution_param {
    num_output: 64
    pad: 1
    kernel_size: 3
    stride: 1
    weight_filler {
      type: "xavier"
    }
    bias_filler {
      type: "constant"
      value: 0
    }
  }
}
layer {
  name: "bn3"
  type: "BatchNorm"
  bottom: "conv3"
  top: "scale3"
  param {
    lr_mult: 1
    decay_mult: 0
  }
  param {
    lr_mult: 1
    decay_mult: 0
  }
  param {
    lr_mult: 0
    decay_mult: 0
  }
  param {
    lr_mult: 0
    decay_mult: 0
  }
  batch_norm_param {
    use_global_stats: false
    scale_filler {
      type: "constant"
      value: 1
    }
    bias_filler {
      type: "constant"
      value: 0
    }
  }
}
layer {
  name: "relu3"
  type: "ReLU"
  bottom: "scale3"
  top: "relu3"
}
layer {
  name: "conv4"
  type: "Convolution"
  bottom: "relu3"
  top: "conv4"
  param {
    lr_mult: 1
    decay_mult: 1
  }
  param {
    lr_mult: 2
    decay_mult: 0
  }
  convolution_param {
    num_output: 64
    pad: 1
    kernel_size: 3
    stride: 1
    weight_filler {
      type: "xavier"
    }
    bias_filler {
      type: "constant"
      value: 0
    }
  }
}
layer {
  name: "bn4"
  type: "BatchNorm"
  bottom: "conv4"
  top: "scale4"
  param {
    lr_mult: 1
    decay_mult: 0
  }
  param {
    lr_mult: 1
    decay_mult: 0
  }
  param {
    lr_mult: 0
    decay_mult: 0
  }
  param {
    lr_mult: 0
    decay_mult: 0
  }
  batch_norm_param {
    use_global_stats: false
    scale_filler {
      type: "constant"
      value: 1
    }
    bias_filler {
      type: "constant"
      value: 0
    }
  }
}
layer {
  name: "relu4"
  type: "ReLU"
  bottom: "scale4"
  top: "relu4"
}
layer {
  name: "pool2"
  type: "Pooling"
  bottom: "relu4"
  top: "pool2"
  pooling_param {
    pool: MAX
    kernel_size: 2
    stride: 2
  }
}
layer {
  name: "drop2"
  type: "Dropout"
  bottom: "pool2"
  top: "drop2"
  dropout_param {
    dropout_ratio: 0.25
  }
}
layer {
  name: "fc1"
  type: "InnerProduct"
  bottom: "drop2"
  top: "fc1"
  param {
    lr_mult: 1
    decay_mult: 1
  }
  param {
    lr_mult: 2
    decay_mult: 0
  }
  inner_product_param {
    num_output: 512
    weight_filler {
      type: "xavier"
    }
    bias_filler {
      type: "constant"
      value: 1
    }
  }
}
layer {
  name: "bn5"
  type: "BatchNorm"
  bottom: "fc1"
  top: "scale5"
  param {
    lr_mult: 1
    decay_mult: 0
  }
  param {
    lr_mult: 1
    decay_mult: 0
  }
  param {
    lr_mult: 0
    decay_mult: 0
  }
  param {
    lr_mult: 0
    decay_mult: 0
  }
  batch_norm_param {
    use_global_stats: false
    scale_filler {
      type: "constant"
      value: 1
    }
    bias_filler {
      type: "constant"
      value: 0
    }
  }
}
layer {
  name: "relu5"
  type: "ReLU"
  bottom: "scale5"
  top: "relu5"
}
layer {
  name: "drop3"
  type: "Dropout"
  bottom: "relu5"
  top: "drop3"
  dropout_param {
    dropout_ratio: 0.5
  }
}
layer {
  name: "fc2"
  type: "InnerProduct"
  bottom: "drop3"
  top: "fc2"
  param {
    lr_mult: 1
    decay_mult: 1
  }
  param {
    lr_mult: 2
    decay_mult: 0
  }
  inner_product_param {
    num_output: 10
    weight_filler {
      type: "xavier"
    }
    bias_filler {
      type: "constant"
      value: 1
    }
  }
}
layer {
  name: "loss"
  type: "SoftmaxWithLoss"
  bottom: "fc2"
  bottom: "label"
  top: "loss"
}
layer {
  name: "accuracy-top1"
  type: "Accuracy"
  bottom: "fc2"
  bottom: "label"
  top: "top-1"
  include {
    phase: TEST
  }
}
layer {
  name: "accuracy-top5"
  type: "Accuracy"
  bottom: "fc2"
  bottom: "label"
  top: "top-5"
  include {
    phase: TEST
  }
  accuracy_param {
    top_k: 5
  }
}
I0122 16:29:01.826025 48361 layer_factory.hpp:77] Creating layer data
I0122 16:29:01.826076 48361 internal_thread.cpp:27] Starting internal thread(s) on GPU 0
I0122 16:29:01.826467 48361 net.cpp:94] Creating Layer data
I0122 16:29:01.826478 48361 net.cpp:409] data -> data
I0122 16:29:01.826488 48361 net.cpp:409] data -> label
I0122 16:29:01.827491 49840 db_lmdb.cpp:35] Opened lmdb cifar10/input/lmdb/valid_lmdb
I0122 16:29:01.827538 49840 data_reader.cpp:117] TEST: reading data using 1 channel(s)
I0122 16:29:01.827675 48361 data_layer.cpp:78] ReshapePrefetch 50, 3, 32, 32
I0122 16:29:01.827786 48361 data_layer.cpp:83] output data size: 50,3,32,32
I0122 16:29:01.831012 48361 internal_thread.cpp:27] Starting internal thread(s) on GPU 0
I0122 16:29:01.831058 48361 net.cpp:144] Setting up data
I0122 16:29:01.831066 48361 net.cpp:151] Top shape: 50 3 32 32 (153600)
I0122 16:29:01.831071 48361 net.cpp:151] Top shape: 50 (50)
I0122 16:29:01.831074 48361 net.cpp:159] Memory required for data: 614600
I0122 16:29:01.831079 48361 layer_factory.hpp:77] Creating layer label_data_1_split
I0122 16:29:01.831090 48361 net.cpp:94] Creating Layer label_data_1_split
I0122 16:29:01.831096 48361 net.cpp:435] label_data_1_split <- label
I0122 16:29:01.831106 48361 net.cpp:409] label_data_1_split -> label_data_1_split_0
I0122 16:29:01.831118 48361 net.cpp:409] label_data_1_split -> label_data_1_split_1
I0122 16:29:01.831130 48361 net.cpp:409] label_data_1_split -> label_data_1_split_2
I0122 16:29:01.831231 48361 net.cpp:144] Setting up label_data_1_split
I0122 16:29:01.831239 48361 net.cpp:151] Top shape: 50 (50)
I0122 16:29:01.831243 48361 net.cpp:151] Top shape: 50 (50)
I0122 16:29:01.831248 48361 net.cpp:151] Top shape: 50 (50)
I0122 16:29:01.831251 48361 net.cpp:159] Memory required for data: 615200
I0122 16:29:01.831255 48361 layer_factory.hpp:77] Creating layer conv1
I0122 16:29:01.831267 48361 net.cpp:94] Creating Layer conv1
I0122 16:29:01.831274 48361 net.cpp:435] conv1 <- data
I0122 16:29:01.831280 48361 net.cpp:409] conv1 -> conv1
I0122 16:29:01.832407 48361 net.cpp:144] Setting up conv1
I0122 16:29:01.832419 48361 net.cpp:151] Top shape: 50 32 32 32 (1638400)
I0122 16:29:01.832424 48361 net.cpp:159] Memory required for data: 7168800
I0122 16:29:01.832437 48361 layer_factory.hpp:77] Creating layer bn1
I0122 16:29:01.832446 48361 net.cpp:94] Creating Layer bn1
I0122 16:29:01.832450 48361 net.cpp:435] bn1 <- conv1
I0122 16:29:01.832458 48361 net.cpp:409] bn1 -> scale1
I0122 16:29:01.833186 48361 net.cpp:144] Setting up bn1
I0122 16:29:01.833194 48361 net.cpp:151] Top shape: 50 32 32 32 (1638400)
I0122 16:29:01.833199 48361 net.cpp:159] Memory required for data: 13722400
I0122 16:29:01.833212 48361 layer_factory.hpp:77] Creating layer relu1
I0122 16:29:01.833220 48361 net.cpp:94] Creating Layer relu1
I0122 16:29:01.833225 48361 net.cpp:435] relu1 <- scale1
I0122 16:29:01.833230 48361 net.cpp:409] relu1 -> relu1
I0122 16:29:01.833252 48361 net.cpp:144] Setting up relu1
I0122 16:29:01.833257 48361 net.cpp:151] Top shape: 50 32 32 32 (1638400)
I0122 16:29:01.833261 48361 net.cpp:159] Memory required for data: 20276000
I0122 16:29:01.833264 48361 layer_factory.hpp:77] Creating layer conv2
I0122 16:29:01.833276 48361 net.cpp:94] Creating Layer conv2
I0122 16:29:01.833281 48361 net.cpp:435] conv2 <- relu1
I0122 16:29:01.833287 48361 net.cpp:409] conv2 -> conv2
I0122 16:29:01.834301 48361 net.cpp:144] Setting up conv2
I0122 16:29:01.834314 48361 net.cpp:151] Top shape: 50 32 32 32 (1638400)
I0122 16:29:01.834316 48361 net.cpp:159] Memory required for data: 26829600
I0122 16:29:01.834324 48361 layer_factory.hpp:77] Creating layer bn2
I0122 16:29:01.834332 48361 net.cpp:94] Creating Layer bn2
I0122 16:29:01.834337 48361 net.cpp:435] bn2 <- conv2
I0122 16:29:01.834343 48361 net.cpp:409] bn2 -> scale2
I0122 16:29:01.835043 48361 net.cpp:144] Setting up bn2
I0122 16:29:01.835050 48361 net.cpp:151] Top shape: 50 32 32 32 (1638400)
I0122 16:29:01.835053 48361 net.cpp:159] Memory required for data: 33383200
I0122 16:29:01.835062 48361 layer_factory.hpp:77] Creating layer relu2
I0122 16:29:01.835069 48361 net.cpp:94] Creating Layer relu2
I0122 16:29:01.835072 48361 net.cpp:435] relu2 <- scale2
I0122 16:29:01.835078 48361 net.cpp:409] relu2 -> relu2
I0122 16:29:01.835158 48361 net.cpp:144] Setting up relu2
I0122 16:29:01.835165 48361 net.cpp:151] Top shape: 50 32 32 32 (1638400)
I0122 16:29:01.835167 48361 net.cpp:159] Memory required for data: 39936800
I0122 16:29:01.835182 48361 layer_factory.hpp:77] Creating layer pool1
I0122 16:29:01.835189 48361 net.cpp:94] Creating Layer pool1
I0122 16:29:01.835192 48361 net.cpp:435] pool1 <- relu2
I0122 16:29:01.835196 48361 net.cpp:409] pool1 -> pool1
I0122 16:29:01.835224 48361 net.cpp:144] Setting up pool1
I0122 16:29:01.835229 48361 net.cpp:151] Top shape: 50 32 16 16 (409600)
I0122 16:29:01.835233 48361 net.cpp:159] Memory required for data: 41575200
I0122 16:29:01.835235 48361 layer_factory.hpp:77] Creating layer drop1
I0122 16:29:01.835242 48361 net.cpp:94] Creating Layer drop1
I0122 16:29:01.835245 48361 net.cpp:435] drop1 <- pool1
I0122 16:29:01.835249 48361 net.cpp:409] drop1 -> drop1
I0122 16:29:01.835273 48361 net.cpp:144] Setting up drop1
I0122 16:29:01.835279 48361 net.cpp:151] Top shape: 50 32 16 16 (409600)
I0122 16:29:01.835283 48361 net.cpp:159] Memory required for data: 43213600
I0122 16:29:01.835285 48361 layer_factory.hpp:77] Creating layer conv3
I0122 16:29:01.835294 48361 net.cpp:94] Creating Layer conv3
I0122 16:29:01.835297 48361 net.cpp:435] conv3 <- drop1
I0122 16:29:01.835302 48361 net.cpp:409] conv3 -> conv3
I0122 16:29:01.836341 48361 net.cpp:144] Setting up conv3
I0122 16:29:01.836352 48361 net.cpp:151] Top shape: 50 64 16 16 (819200)
I0122 16:29:01.836356 48361 net.cpp:159] Memory required for data: 46490400
I0122 16:29:01.836362 48361 layer_factory.hpp:77] Creating layer bn3
I0122 16:29:01.836369 48361 net.cpp:94] Creating Layer bn3
I0122 16:29:01.836376 48361 net.cpp:435] bn3 <- conv3
I0122 16:29:01.836383 48361 net.cpp:409] bn3 -> scale3
I0122 16:29:01.836990 48361 net.cpp:144] Setting up bn3
I0122 16:29:01.836997 48361 net.cpp:151] Top shape: 50 64 16 16 (819200)
I0122 16:29:01.837000 48361 net.cpp:159] Memory required for data: 49767200
I0122 16:29:01.837013 48361 layer_factory.hpp:77] Creating layer relu3
I0122 16:29:01.837019 48361 net.cpp:94] Creating Layer relu3
I0122 16:29:01.837023 48361 net.cpp:435] relu3 <- scale3
I0122 16:29:01.837028 48361 net.cpp:409] relu3 -> relu3
I0122 16:29:01.837046 48361 net.cpp:144] Setting up relu3
I0122 16:29:01.837052 48361 net.cpp:151] Top shape: 50 64 16 16 (819200)
I0122 16:29:01.837055 48361 net.cpp:159] Memory required for data: 53044000
I0122 16:29:01.837059 48361 layer_factory.hpp:77] Creating layer conv4
I0122 16:29:01.837066 48361 net.cpp:94] Creating Layer conv4
I0122 16:29:01.837071 48361 net.cpp:435] conv4 <- relu3
I0122 16:29:01.837076 48361 net.cpp:409] conv4 -> conv4
I0122 16:29:01.837553 48361 net.cpp:144] Setting up conv4
I0122 16:29:01.837561 48361 net.cpp:151] Top shape: 50 64 16 16 (819200)
I0122 16:29:01.837565 48361 net.cpp:159] Memory required for data: 56320800
I0122 16:29:01.837570 48361 layer_factory.hpp:77] Creating layer bn4
I0122 16:29:01.837577 48361 net.cpp:94] Creating Layer bn4
I0122 16:29:01.837580 48361 net.cpp:435] bn4 <- conv4
I0122 16:29:01.837586 48361 net.cpp:409] bn4 -> scale4
I0122 16:29:01.838239 48361 net.cpp:144] Setting up bn4
I0122 16:29:01.838246 48361 net.cpp:151] Top shape: 50 64 16 16 (819200)
I0122 16:29:01.838249 48361 net.cpp:159] Memory required for data: 59597600
I0122 16:29:01.838258 48361 layer_factory.hpp:77] Creating layer relu4
I0122 16:29:01.838263 48361 net.cpp:94] Creating Layer relu4
I0122 16:29:01.838266 48361 net.cpp:435] relu4 <- scale4
I0122 16:29:01.838271 48361 net.cpp:409] relu4 -> relu4
I0122 16:29:01.838289 48361 net.cpp:144] Setting up relu4
I0122 16:29:01.838294 48361 net.cpp:151] Top shape: 50 64 16 16 (819200)
I0122 16:29:01.838297 48361 net.cpp:159] Memory required for data: 62874400
I0122 16:29:01.838301 48361 layer_factory.hpp:77] Creating layer pool2
I0122 16:29:01.838307 48361 net.cpp:94] Creating Layer pool2
I0122 16:29:01.838311 48361 net.cpp:435] pool2 <- relu4
I0122 16:29:01.838315 48361 net.cpp:409] pool2 -> pool2
I0122 16:29:01.838408 48361 net.cpp:144] Setting up pool2
I0122 16:29:01.838414 48361 net.cpp:151] Top shape: 50 64 8 8 (204800)
I0122 16:29:01.838418 48361 net.cpp:159] Memory required for data: 63693600
I0122 16:29:01.838419 48361 layer_factory.hpp:77] Creating layer drop2
I0122 16:29:01.838436 48361 net.cpp:94] Creating Layer drop2
I0122 16:29:01.838439 48361 net.cpp:435] drop2 <- pool2
I0122 16:29:01.838444 48361 net.cpp:409] drop2 -> drop2
I0122 16:29:01.838471 48361 net.cpp:144] Setting up drop2
I0122 16:29:01.838477 48361 net.cpp:151] Top shape: 50 64 8 8 (204800)
I0122 16:29:01.838480 48361 net.cpp:159] Memory required for data: 64512800
I0122 16:29:01.838484 48361 layer_factory.hpp:77] Creating layer fc1
I0122 16:29:01.838490 48361 net.cpp:94] Creating Layer fc1
I0122 16:29:01.838493 48361 net.cpp:435] fc1 <- drop2
I0122 16:29:01.838500 48361 net.cpp:409] fc1 -> fc1
I0122 16:29:01.852630 48361 net.cpp:144] Setting up fc1
I0122 16:29:01.852649 48361 net.cpp:151] Top shape: 50 512 (25600)
I0122 16:29:01.852653 48361 net.cpp:159] Memory required for data: 64615200
I0122 16:29:01.852659 48361 layer_factory.hpp:77] Creating layer bn5
I0122 16:29:01.852668 48361 net.cpp:94] Creating Layer bn5
I0122 16:29:01.852670 48361 net.cpp:435] bn5 <- fc1
I0122 16:29:01.852677 48361 net.cpp:409] bn5 -> scale5
I0122 16:29:01.853226 48361 net.cpp:144] Setting up bn5
I0122 16:29:01.853233 48361 net.cpp:151] Top shape: 50 512 (25600)
I0122 16:29:01.853236 48361 net.cpp:159] Memory required for data: 64717600
I0122 16:29:01.853250 48361 layer_factory.hpp:77] Creating layer relu5
I0122 16:29:01.853257 48361 net.cpp:94] Creating Layer relu5
I0122 16:29:01.853260 48361 net.cpp:435] relu5 <- scale5
I0122 16:29:01.853266 48361 net.cpp:409] relu5 -> relu5
I0122 16:29:01.853284 48361 net.cpp:144] Setting up relu5
I0122 16:29:01.853289 48361 net.cpp:151] Top shape: 50 512 (25600)
I0122 16:29:01.853292 48361 net.cpp:159] Memory required for data: 64820000
I0122 16:29:01.853296 48361 layer_factory.hpp:77] Creating layer drop3
I0122 16:29:01.853302 48361 net.cpp:94] Creating Layer drop3
I0122 16:29:01.853304 48361 net.cpp:435] drop3 <- relu5
I0122 16:29:01.853309 48361 net.cpp:409] drop3 -> drop3
I0122 16:29:01.853334 48361 net.cpp:144] Setting up drop3
I0122 16:29:01.853340 48361 net.cpp:151] Top shape: 50 512 (25600)
I0122 16:29:01.853343 48361 net.cpp:159] Memory required for data: 64922400
I0122 16:29:01.853346 48361 layer_factory.hpp:77] Creating layer fc2
I0122 16:29:01.853353 48361 net.cpp:94] Creating Layer fc2
I0122 16:29:01.853358 48361 net.cpp:435] fc2 <- drop3
I0122 16:29:01.853363 48361 net.cpp:409] fc2 -> fc2
I0122 16:29:01.853490 48361 net.cpp:144] Setting up fc2
I0122 16:29:01.853497 48361 net.cpp:151] Top shape: 50 10 (500)
I0122 16:29:01.853499 48361 net.cpp:159] Memory required for data: 64924400
I0122 16:29:01.853504 48361 layer_factory.hpp:77] Creating layer fc2_fc2_0_split
I0122 16:29:01.853509 48361 net.cpp:94] Creating Layer fc2_fc2_0_split
I0122 16:29:01.853513 48361 net.cpp:435] fc2_fc2_0_split <- fc2
I0122 16:29:01.853518 48361 net.cpp:409] fc2_fc2_0_split -> fc2_fc2_0_split_0
I0122 16:29:01.853524 48361 net.cpp:409] fc2_fc2_0_split -> fc2_fc2_0_split_1
I0122 16:29:01.853530 48361 net.cpp:409] fc2_fc2_0_split -> fc2_fc2_0_split_2
I0122 16:29:01.853565 48361 net.cpp:144] Setting up fc2_fc2_0_split
I0122 16:29:01.853571 48361 net.cpp:151] Top shape: 50 10 (500)
I0122 16:29:01.853574 48361 net.cpp:151] Top shape: 50 10 (500)
I0122 16:29:01.853579 48361 net.cpp:151] Top shape: 50 10 (500)
I0122 16:29:01.853580 48361 net.cpp:159] Memory required for data: 64930400
I0122 16:29:01.853583 48361 layer_factory.hpp:77] Creating layer loss
I0122 16:29:01.853588 48361 net.cpp:94] Creating Layer loss
I0122 16:29:01.853591 48361 net.cpp:435] loss <- fc2_fc2_0_split_0
I0122 16:29:01.853596 48361 net.cpp:435] loss <- label_data_1_split_0
I0122 16:29:01.853601 48361 net.cpp:409] loss -> loss
…
