…
I0122 16:29:03.244354 49871 net.cpp:323] The NetState phase (0) differed from the phase (1) specified by a rule in layer accuracy-top1
I0122 16:29:03.244356 49871 net.cpp:323] The NetState phase (0) differed from the phase (1) specified by a rule in layer accuracy-top5
I0122 16:29:03.244498 49871 net.cpp:52] Initializing net from parameters: 
state {
  phase: TRAIN
}
layer {
  name: "data"
  type: "Data"
  top: "data"
  top: "label"
  include {
    phase: TRAIN
  }
  transform_param {
    mirror: true
    mean_value: 125
    mean_value: 123
    mean_value: 114
  }
  data_param {
    source: "cifar10/input/lmdb/train_lmdb"
    batch_size: 128
    backend: LMDB
  }
}
layer {
  name: "conv1"
  type: "Convolution"
  bottom: "data"
  top: "conv1"
  param {
    lr_mult: 1
    decay_mult: 1
    compression: PRUNE
  }
  param {
    lr_mult: 2
    decay_mult: 0
    compression: PRUNE
  }
  convolution_param {
    num_output: 32
    pad: 1
    kernel_size: 3
    stride: 1
    weight_filler {
      type: "xavier"
    }
    bias_filler {
      type: "constant"
      value: 0
    }
  }
}
layer {
  name: "bn1"
  type: "BatchNorm"
  bottom: "conv1"
  top: "scale1"
  param {
    lr_mult: 1
    decay_mult: 0
    compression: PRUNE
  }
  param {
    lr_mult: 1
    decay_mult: 0
    compression: PRUNE
  }
  param {
    lr_mult: 0
    decay_mult: 0
    compression: PRUNE
  }
  param {
    lr_mult: 0
    decay_mult: 0
    compression: PRUNE
  }
  batch_norm_param {
    use_global_stats: false
    scale_filler {
      type: "constant"
      value: 1
    }
    bias_filler {
      type: "constant"
      value: 0
    }
  }
}
layer {
  name: "relu1"
  type: "ReLU"
  bottom: "scale1"
  top: "relu1"
}
layer {
  name: "conv2"
  type: "Convolution"
  bottom: "relu1"
  top: "conv2"
  param {
    lr_mult: 1
    decay_mult: 1
    compression: PRUNE
  }
  param {
    lr_mult: 2
    decay_mult: 0
    compression: PRUNE
  }
  convolution_param {
    num_output: 32
    pad: 1
    kernel_size: 3
    stride: 1
    weight_filler {
      type: "xavier"
    }
    bias_filler {
      type: "constant"
      value: 0
    }
  }
}
layer {
  name: "bn2"
  type: "BatchNorm"
  bottom: "conv2"
  top: "scale2"
  param {
    lr_mult: 1
    decay_mult: 0
    compression: PRUNE
  }
  param {
    lr_mult: 1
    decay_mult: 0
    compression: PRUNE
  }
  param {
    lr_mult: 0
    decay_mult: 0
    compression: PRUNE
  }
  param {
    lr_mult: 0
    decay_mult: 0
    compression: PRUNE
  }
  batch_norm_param {
    use_global_stats: false
    scale_filler {
      type: "constant"
      value: 1
    }
    bias_filler {
      type: "constant"
      value: 0
    }
  }
}
layer {
  name: "relu2"
  type: "ReLU"
  bottom: "scale2"
  top: "relu2"
}
layer {
  name: "pool1"
  type: "Pooling"
  bottom: "relu2"
  top: "pool1"
  pooling_param {
    pool: MAX
    kernel_size: 2
    stride: 2
  }
}
layer {
  name: "drop1"
  type: "Dropout"
  bottom: "pool1"
  top: "drop1"
  dropout_param {
    dropout_ratio: 0.25
  }
}
layer {
  name: "conv3"
  type: "Convolution"
  bottom: "drop1"
  top: "conv3"
  param {
    lr_mult: 1
    decay_mult: 1
    compression: PRUNE
  }
  param {
    lr_mult: 2
    decay_mult: 0
    compression: PRUNE
  }
  convolution_param {
    num_output: 64
    pad: 1
    kernel_size: 3
    stride: 1
    weight_filler {
      type: "xavier"
    }
    bias_filler {
      type: "constant"
      value: 0
    }
  }
}
layer {
  name: "bn3"
  type: "BatchNorm"
  bottom: "conv3"
  top: "scale3"
  param {
    lr_mult: 1
    decay_mult: 0
    compression: PRUNE
  }
  param {
    lr_mult: 1
    decay_mult: 0
    compression: PRUNE
  }
  param {
    lr_mult: 0
    decay_mult: 0
    compression: PRUNE
  }
  param {
    lr_mult: 0
    decay_mult: 0
    compression: PRUNE
  }
  batch_norm_param {
    use_global_stats: false
    scale_filler {
      type: "constant"
      value: 1
    }
    bias_filler {
      type: "constant"
      value: 0
    }
  }
}
layer {
  name: "relu3"
  type: "ReLU"
  bottom: "scale3"
  top: "relu3"
}
layer {
  name: "conv4"
  type: "Convolution"
  bottom: "relu3"
  top: "conv4"
  param {
    lr_mult: 1
    decay_mult: 1
    compression: PRUNE
  }
  param {
    lr_mult: 2
    decay_mult: 0
    compression: PRUNE
  }
  convolution_param {
    num_output: 64
    pad: 1
    kernel_size: 3
    stride: 1
    weight_filler {
      type: "xavier"
    }
    bias_filler {
      type: "constant"
      value: 0
    }
  }
}
layer {
  name: "bn4"
  type: "BatchNorm"
  bottom: "conv4"
  top: "scale4"
  param {
    lr_mult: 1
    decay_mult: 0
    compression: PRUNE
  }
  param {
    lr_mult: 1
    decay_mult: 0
    compression: PRUNE
  }
  param {
    lr_mult: 0
    decay_mult: 0
    compression: PRUNE
  }
  param {
    lr_mult: 0
    decay_mult: 0
    compression: PRUNE
  }
  batch_norm_param {
    use_global_stats: false
    scale_filler {
      type: "constant"
      value: 1
    }
    bias_filler {
      type: "constant"
      value: 0
    }
  }
}
layer {
  name: "relu4"
  type: "ReLU"
  bottom: "scale4"
  top: "relu4"
}
layer {
  name: "pool2"
  type: "Pooling"
  bottom: "relu4"
  top: "pool2"
  pooling_param {
    pool: MAX
    kernel_size: 2
    stride: 2
  }
}
layer {
  name: "drop2"
  type: "Dropout"
  bottom: "pool2"
  top: "drop2"
  dropout_param {
    dropout_ratio: 0.25
  }
}
layer {
  name: "fc1"
  type: "InnerProduct"
  bottom: "drop2"
  top: "fc1"
  param {
    lr_mult: 1
    decay_mult: 1
  }
  param {
    lr_mult: 2
    decay_mult: 0
  }
  inner_product_param {
    num_output: 512
    weight_filler {
      type: "xavier"
    }
    bias_filler {
      type: "constant"
      value: 1
    }
  }
}
layer {
  name: "bn5"
  type: "BatchNorm"
  bottom: "fc1"
  top: "scale5"
  param {
    lr_mult: 1
    decay_mult: 0
    compression: PRUNE
  }
  param {
    lr_mult: 1
    decay_mult: 0
    compression: PRUNE
  }
  param {
    lr_mult: 0
    decay_mult: 0
    compression: PRUNE
  }
  param {
    lr_mult: 0
    decay_mult: 0
    compression: PRUNE
  }
  batch_norm_param {
    use_global_stats: false
    scale_filler {
      type: "constant"
      value: 1
    }
    bias_filler {
      type: "constant"
      value: 0
    }
  }
}
layer {
  name: "relu5"
  type: "ReLU"
  bottom: "scale5"
  top: "relu5"
}
layer {
  name: "drop3"
  type: "Dropout"
  bottom: "relu5"
  top: "drop3"
  dropout_param {
    dropout_ratio: 0.5
  }
}
layer {
  name: "fc2"
  type: "InnerProduct"
  bottom: "drop3"
  top: "fc2"
  param {
    lr_mult: 1
    decay_mult: 1
  }
  param {
    lr_mult: 2
    decay_mult: 0
  }
  inner_product_param {
    num_output: 10
    weight_filler {
      type: "xavier"
    }
    bias_filler {
      type: "constant"
      value: 1
    }
  }
}
layer {
  name: "loss"
  type: "SoftmaxWithLoss"
  bottom: "fc2"
  bottom: "label"
  top: "loss"
}
I0122 16:29:03.244558 49871 layer_factory.hpp:77] Creating layer data
I0122 16:29:03.244638 49871 internal_thread.cpp:27] Starting internal thread(s) on GPU 0
I0122 16:29:03.245144 49871 net.cpp:94] Creating Layer data
I0122 16:29:03.245153 49871 net.cpp:409] data -> data
I0122 16:29:03.245177 49871 net.cpp:409] data -> label
I0122 16:29:03.246697 49910 db_lmdb.cpp:35] Opened lmdb cifar10/input/lmdb/train_lmdb
I0122 16:29:03.246750 49910 data_reader.cpp:117] TRAIN: reading data using 1 channel(s)
I0122 16:29:03.246836 49871 data_layer.cpp:78] ReshapePrefetch 128, 3, 32, 32
I0122 16:29:03.246913 49871 data_layer.cpp:83] output data size: 128,3,32,32
I0122 16:29:03.254438 49871 internal_thread.cpp:27] Starting internal thread(s) on GPU 0
I0122 16:29:03.254482 49871 net.cpp:144] Setting up data
I0122 16:29:03.254490 49871 net.cpp:151] Top shape: 128 3 32 32 (393216)
I0122 16:29:03.254493 49871 net.cpp:151] Top shape: 128 (128)
I0122 16:29:03.254496 49871 net.cpp:159] Memory required for data: 1573376
I0122 16:29:03.254501 49871 layer_factory.hpp:77] Creating layer conv1
I0122 16:29:03.254513 49871 net.cpp:94] Creating Layer conv1
I0122 16:29:03.254518 49871 net.cpp:435] conv1 <- data
I0122 16:29:03.254532 49871 net.cpp:409] conv1 -> conv1
I0122 16:29:03.255542 49871 net.cpp:144] Setting up conv1
I0122 16:29:03.255554 49871 net.cpp:151] Top shape: 128 32 32 32 (4194304)
I0122 16:29:03.255558 49871 net.cpp:159] Memory required for data: 18350592
I0122 16:29:03.255573 49871 layer_factory.hpp:77] Creating layer bn1
I0122 16:29:03.255583 49871 net.cpp:94] Creating Layer bn1
I0122 16:29:03.255586 49871 net.cpp:435] bn1 <- conv1
I0122 16:29:03.255591 49871 net.cpp:409] bn1 -> scale1
I0122 16:29:03.256173 49871 net.cpp:144] Setting up bn1
I0122 16:29:03.256181 49871 net.cpp:151] Top shape: 128 32 32 32 (4194304)
I0122 16:29:03.256183 49871 net.cpp:159] Memory required for data: 35127808
I0122 16:29:03.256193 49871 layer_factory.hpp:77] Creating layer relu1
I0122 16:29:03.256201 49871 net.cpp:94] Creating Layer relu1
I0122 16:29:03.256204 49871 net.cpp:435] relu1 <- scale1
I0122 16:29:03.256208 49871 net.cpp:409] relu1 -> relu1
I0122 16:29:03.256228 49871 net.cpp:144] Setting up relu1
I0122 16:29:03.256234 49871 net.cpp:151] Top shape: 128 32 32 32 (4194304)
I0122 16:29:03.256237 49871 net.cpp:159] Memory required for data: 51905024
I0122 16:29:03.256239 49871 layer_factory.hpp:77] Creating layer conv2
I0122 16:29:03.256247 49871 net.cpp:94] Creating Layer conv2
I0122 16:29:03.256253 49871 net.cpp:435] conv2 <- relu1
I0122 16:29:03.256258 49871 net.cpp:409] conv2 -> conv2
I0122 16:29:03.257793 49871 net.cpp:144] Setting up conv2
I0122 16:29:03.257804 49871 net.cpp:151] Top shape: 128 32 32 32 (4194304)
I0122 16:29:03.257807 49871 net.cpp:159] Memory required for data: 68682240
I0122 16:29:03.257817 49871 layer_factory.hpp:77] Creating layer bn2
I0122 16:29:03.257825 49871 net.cpp:94] Creating Layer bn2
I0122 16:29:03.257831 49871 net.cpp:435] bn2 <- conv2
I0122 16:29:03.257838 49871 net.cpp:409] bn2 -> scale2
I0122 16:29:03.258617 49871 net.cpp:144] Setting up bn2
I0122 16:29:03.258625 49871 net.cpp:151] Top shape: 128 32 32 32 (4194304)
I0122 16:29:03.258627 49871 net.cpp:159] Memory required for data: 85459456
I0122 16:29:03.258636 49871 layer_factory.hpp:77] Creating layer relu2
I0122 16:29:03.258641 49871 net.cpp:94] Creating Layer relu2
I0122 16:29:03.258644 49871 net.cpp:435] relu2 <- scale2
I0122 16:29:03.258649 49871 net.cpp:409] relu2 -> relu2
I0122 16:29:03.258671 49871 net.cpp:144] Setting up relu2
I0122 16:29:03.258677 49871 net.cpp:151] Top shape: 128 32 32 32 (4194304)
I0122 16:29:03.258680 49871 net.cpp:159] Memory required for data: 102236672
I0122 16:29:03.258682 49871 layer_factory.hpp:77] Creating layer pool1
I0122 16:29:03.258688 49871 net.cpp:94] Creating Layer pool1
I0122 16:29:03.258699 49871 net.cpp:435] pool1 <- relu2
I0122 16:29:03.258703 49871 net.cpp:409] pool1 -> pool1
I0122 16:29:03.258874 49871 net.cpp:144] Setting up pool1
I0122 16:29:03.258882 49871 net.cpp:151] Top shape: 128 32 16 16 (1048576)
I0122 16:29:03.258884 49871 net.cpp:159] Memory required for data: 106430976
I0122 16:29:03.258888 49871 layer_factory.hpp:77] Creating layer drop1
I0122 16:29:03.258893 49871 net.cpp:94] Creating Layer drop1
I0122 16:29:03.258896 49871 net.cpp:435] drop1 <- pool1
I0122 16:29:03.258913 49871 net.cpp:409] drop1 -> drop1
I0122 16:29:03.258957 49871 net.cpp:144] Setting up drop1
I0122 16:29:03.258962 49871 net.cpp:151] Top shape: 128 32 16 16 (1048576)
I0122 16:29:03.258965 49871 net.cpp:159] Memory required for data: 110625280
I0122 16:29:03.258968 49871 layer_factory.hpp:77] Creating layer conv3
I0122 16:29:03.258976 49871 net.cpp:94] Creating Layer conv3
I0122 16:29:03.258980 49871 net.cpp:435] conv3 <- drop1
I0122 16:29:03.258986 49871 net.cpp:409] conv3 -> conv3
I0122 16:29:03.259958 49871 net.cpp:144] Setting up conv3
I0122 16:29:03.259969 49871 net.cpp:151] Top shape: 128 64 16 16 (2097152)
I0122 16:29:03.259972 49871 net.cpp:159] Memory required for data: 119013888
I0122 16:29:03.259979 49871 layer_factory.hpp:77] Creating layer bn3
I0122 16:29:03.259985 49871 net.cpp:94] Creating Layer bn3
I0122 16:29:03.259990 49871 net.cpp:435] bn3 <- conv3
I0122 16:29:03.259996 49871 net.cpp:409] bn3 -> scale3
I0122 16:29:03.260612 49871 net.cpp:144] Setting up bn3
I0122 16:29:03.260617 49871 net.cpp:151] Top shape: 128 64 16 16 (2097152)
I0122 16:29:03.260622 49871 net.cpp:159] Memory required for data: 127402496
I0122 16:29:03.260632 49871 layer_factory.hpp:77] Creating layer relu3
I0122 16:29:03.260638 49871 net.cpp:94] Creating Layer relu3
I0122 16:29:03.260641 49871 net.cpp:435] relu3 <- scale3
I0122 16:29:03.260645 49871 net.cpp:409] relu3 -> relu3
I0122 16:29:03.260663 49871 net.cpp:144] Setting up relu3
I0122 16:29:03.260669 49871 net.cpp:151] Top shape: 128 64 16 16 (2097152)
I0122 16:29:03.260673 49871 net.cpp:159] Memory required for data: 135791104
I0122 16:29:03.260676 49871 layer_factory.hpp:77] Creating layer conv4
I0122 16:29:03.260684 49871 net.cpp:94] Creating Layer conv4
I0122 16:29:03.260689 49871 net.cpp:435] conv4 <- relu3
I0122 16:29:03.260694 49871 net.cpp:409] conv4 -> conv4
I0122 16:29:03.261106 49871 net.cpp:144] Setting up conv4
I0122 16:29:03.261113 49871 net.cpp:151] Top shape: 128 64 16 16 (2097152)
I0122 16:29:03.261117 49871 net.cpp:159] Memory required for data: 144179712
I0122 16:29:03.261122 49871 layer_factory.hpp:77] Creating layer bn4
I0122 16:29:03.261128 49871 net.cpp:94] Creating Layer bn4
I0122 16:29:03.261132 49871 net.cpp:435] bn4 <- conv4
I0122 16:29:03.261137 49871 net.cpp:409] bn4 -> scale4
I0122 16:29:03.261783 49871 net.cpp:144] Setting up bn4
I0122 16:29:03.261790 49871 net.cpp:151] Top shape: 128 64 16 16 (2097152)
I0122 16:29:03.261792 49871 net.cpp:159] Memory required for data: 152568320
I0122 16:29:03.261801 49871 layer_factory.hpp:77] Creating layer relu4
I0122 16:29:03.261806 49871 net.cpp:94] Creating Layer relu4
I0122 16:29:03.261808 49871 net.cpp:435] relu4 <- scale4
I0122 16:29:03.261812 49871 net.cpp:409] relu4 -> relu4
I0122 16:29:03.261839 49871 net.cpp:144] Setting up relu4
I0122 16:29:03.261845 49871 net.cpp:151] Top shape: 128 64 16 16 (2097152)
I0122 16:29:03.261848 49871 net.cpp:159] Memory required for data: 160956928
I0122 16:29:03.261850 49871 layer_factory.hpp:77] Creating layer pool2
I0122 16:29:03.261857 49871 net.cpp:94] Creating Layer pool2
I0122 16:29:03.261859 49871 net.cpp:435] pool2 <- relu4
I0122 16:29:03.261864 49871 net.cpp:409] pool2 -> pool2
I0122 16:29:03.261893 49871 net.cpp:144] Setting up pool2
I0122 16:29:03.261899 49871 net.cpp:151] Top shape: 128 64 8 8 (524288)
I0122 16:29:03.261904 49871 net.cpp:159] Memory required for data: 163054080
I0122 16:29:03.261914 49871 layer_factory.hpp:77] Creating layer drop2
I0122 16:29:03.261919 49871 net.cpp:94] Creating Layer drop2
I0122 16:29:03.261922 49871 net.cpp:435] drop2 <- pool2
I0122 16:29:03.261926 49871 net.cpp:409] drop2 -> drop2
I0122 16:29:03.261952 49871 net.cpp:144] Setting up drop2
I0122 16:29:03.261957 49871 net.cpp:151] Top shape: 128 64 8 8 (524288)
I0122 16:29:03.261960 49871 net.cpp:159] Memory required for data: 165151232
I0122 16:29:03.261963 49871 layer_factory.hpp:77] Creating layer fc1
I0122 16:29:03.261970 49871 net.cpp:94] Creating Layer fc1
I0122 16:29:03.261974 49871 net.cpp:435] fc1 <- drop2
I0122 16:29:03.261979 49871 net.cpp:409] fc1 -> fc1
I0122 16:29:03.276142 49871 net.cpp:144] Setting up fc1
I0122 16:29:03.276160 49871 net.cpp:151] Top shape: 128 512 (65536)
I0122 16:29:03.276165 49871 net.cpp:159] Memory required for data: 165413376
I0122 16:29:03.276172 49871 layer_factory.hpp:77] Creating layer bn5
I0122 16:29:03.276180 49871 net.cpp:94] Creating Layer bn5
I0122 16:29:03.276183 49871 net.cpp:435] bn5 <- fc1
I0122 16:29:03.276190 49871 net.cpp:409] bn5 -> scale5
I0122 16:29:03.276747 49871 net.cpp:144] Setting up bn5
I0122 16:29:03.276754 49871 net.cpp:151] Top shape: 128 512 (65536)
I0122 16:29:03.276757 49871 net.cpp:159] Memory required for data: 165675520
I0122 16:29:03.276769 49871 layer_factory.hpp:77] Creating layer relu5
I0122 16:29:03.276777 49871 net.cpp:94] Creating Layer relu5
I0122 16:29:03.276779 49871 net.cpp:435] relu5 <- scale5
I0122 16:29:03.276785 49871 net.cpp:409] relu5 -> relu5
I0122 16:29:03.276804 49871 net.cpp:144] Setting up relu5
I0122 16:29:03.276813 49871 net.cpp:151] Top shape: 128 512 (65536)
I0122 16:29:03.276815 49871 net.cpp:159] Memory required for data: 165937664
I0122 16:29:03.276818 49871 layer_factory.hpp:77] Creating layer drop3
I0122 16:29:03.276823 49871 net.cpp:94] Creating Layer drop3
I0122 16:29:03.276826 49871 net.cpp:435] drop3 <- relu5
I0122 16:29:03.276830 49871 net.cpp:409] drop3 -> drop3
I0122 16:29:03.276856 49871 net.cpp:144] Setting up drop3
I0122 16:29:03.276861 49871 net.cpp:151] Top shape: 128 512 (65536)
I0122 16:29:03.276865 49871 net.cpp:159] Memory required for data: 166199808
I0122 16:29:03.276867 49871 layer_factory.hpp:77] Creating layer fc2
I0122 16:29:03.276872 49871 net.cpp:94] Creating Layer fc2
I0122 16:29:03.276875 49871 net.cpp:435] fc2 <- drop3
I0122 16:29:03.276881 49871 net.cpp:409] fc2 -> fc2
I0122 16:29:03.277034 49871 net.cpp:144] Setting up fc2
I0122 16:29:03.277040 49871 net.cpp:151] Top shape: 128 10 (1280)
I0122 16:29:03.277043 49871 net.cpp:159] Memory required for data: 166204928
I0122 16:29:03.277048 49871 layer_factory.hpp:77] Creating layer loss
I0122 16:29:03.277055 49871 net.cpp:94] Creating Layer loss
I0122 16:29:03.277058 49871 net.cpp:435] loss <- fc2
I0122 16:29:03.277061 49871 net.cpp:435] loss <- label
I0122 16:29:03.277066 49871 net.cpp:409] loss -> loss
I0122 16:29:03.277073 49871 layer_factory.hpp:77] Creating layer loss
…
I0122 16:29:03.278470 49871 solver.cpp:189] Creating test net (#0) specified by net file: cifar10/deephi/miniVggNet/pruning/regular_rate_0.2/net_finetune.prototxt
I0122 16:29:03.278504 49871 net.cpp:323] The NetState phase (1) differed from the phase (0) specified by a rule in layer data
I0122 16:29:03.278702 49871 net.cpp:52] Initializing net from parameters: 
state {
  phase: TEST
}
layer {
  name: "data"
  type: "Data"
  top: "data"
  top: "label"
  include {
    phase: TEST
  }
  transform_param {
    mirror: false
    mean_value: 125
    mean_value: 123
    mean_value: 114
  }
  data_param {
    source: "cifar10/input/lmdb/valid_lmdb"
    batch_size: 50
    backend: LMDB
  }
}
layer {
  name: "conv1"
  type: "Convolution"
  bottom: "data"
  top: "conv1"
  param {
    lr_mult: 1
    decay_mult: 1
    compression: PRUNE
  }
  param {
    lr_mult: 2
    decay_mult: 0
    compression: PRUNE
  }
  convolution_param {
    num_output: 32
    pad: 1
    kernel_size: 3
    stride: 1
    weight_filler {
      type: "xavier"
    }
    bias_filler {
      type: "constant"
      value: 0
    }
  }
}
layer {
  name: "bn1"
  type: "BatchNorm"
  bottom: "conv1"
  top: "scale1"
  param {
    lr_mult: 1
    decay_mult: 0
    compression: PRUNE
  }
  param {
    lr_mult: 1
    decay_mult: 0
    compression: PRUNE
  }
  param {
    lr_mult: 0
    decay_mult: 0
    compression: PRUNE
  }
  param {
    lr_mult: 0
    decay_mult: 0
    compression: PRUNE
  }
  batch_norm_param {
    use_global_stats: false
    scale_filler {
      type: "constant"
      value: 1
    }
    bias_filler {
      type: "constant"
      value: 0
    }
  }
}
layer {
  name: "relu1"
  type: "ReLU"
  bottom: "scale1"
  top: "relu1"
}
layer {
  name: "conv2"
  type: "Convolution"
  bottom: "relu1"
  top: "conv2"
  param {
    lr_mult: 1
    decay_mult: 1
    compression: PRUNE
  }
  param {
    lr_mult: 2
    decay_mult: 0
    compression: PRUNE
  }
  convolution_param {
    num_output: 32
    pad: 1
    kernel_size: 3
    stride: 1
    weight_filler {
      type: "xavier"
    }
    bias_filler {
      type: "constant"
      value: 0
    }
  }
}
layer {
  name: "bn2"
  type: "BatchNorm"
  bottom: "conv2"
  top: "scale2"
  param {
    lr_mult: 1
    decay_mult: 0
    compression: PRUNE
  }
  param {
    lr_mult: 1
    decay_mult: 0
    compression: PRUNE
  }
  param {
    lr_mult: 0
    decay_mult: 0
    compression: PRUNE
  }
  param {
    lr_mult: 0
    decay_mult: 0
    compression: PRUNE
  }
  batch_norm_param {
    use_global_stats: false
    scale_filler {
      type: "constant"
      value: 1
    }
    bias_filler {
      type: "constant"
      value: 0
    }
  }
}
layer {
  name: "relu2"
  type: "ReLU"
  bottom: "scale2"
  top: "relu2"
}
layer {
  name: "pool1"
  type: "Pooling"
  bottom: "relu2"
  top: "pool1"
  pooling_param {
    pool: MAX
    kernel_size: 2
    stride: 2
  }
}
layer {
  name: "drop1"
  type: "Dropout"
  bottom: "pool1"
  top: "drop1"
  dropout_param {
    dropout_ratio: 0.25
  }
}
layer {
  name: "conv3"
  type: "Convolution"
  bottom: "drop1"
  top: "conv3"
  param {
    lr_mult: 1
    decay_mult: 1
    compression: PRUNE
  }
  param {
    lr_mult: 2
    decay_mult: 0
    compression: PRUNE
  }
  convolution_param {
    num_output: 64
    pad: 1
    kernel_size: 3
    stride: 1
    weight_filler {
      type: "xavier"
    }
    bias_filler {
      type: "constant"
      value: 0
    }
  }
}
layer {
  name: "bn3"
  type: "BatchNorm"
  bottom: "conv3"
  top: "scale3"
  param {
    lr_mult: 1
    decay_mult: 0
    compression: PRUNE
  }
  param {
    lr_mult: 1
    decay_mult: 0
    compression: PRUNE
  }
  param {
    lr_mult: 0
    decay_mult: 0
    compression: PRUNE
  }
  param {
    lr_mult: 0
    decay_mult: 0
    compression: PRUNE
  }
  batch_norm_param {
    use_global_stats: false
    scale_filler {
      type: "constant"
      value: 1
    }
    bias_filler {
      type: "constant"
      value: 0
    }
  }
}
layer {
  name: "relu3"
  type: "ReLU"
  bottom: "scale3"
  top: "relu3"
}
layer {
  name: "conv4"
  type: "Convolution"
  bottom: "relu3"
  top: "conv4"
  param {
    lr_mult: 1
    decay_mult: 1
    compression: PRUNE
  }
  param {
    lr_mult: 2
    decay_mult: 0
    compression: PRUNE
  }
  convolution_param {
    num_output: 64
    pad: 1
    kernel_size: 3
    stride: 1
    weight_filler {
      type: "xavier"
    }
    bias_filler {
      type: "constant"
      value: 0
    }
  }
}
layer {
  name: "bn4"
  type: "BatchNorm"
  bottom: "conv4"
  top: "scale4"
  param {
    lr_mult: 1
    decay_mult: 0
    compression: PRUNE
  }
  param {
    lr_mult: 1
    decay_mult: 0
    compression: PRUNE
  }
  param {
    lr_mult: 0
    decay_mult: 0
    compression: PRUNE
  }
  param {
    lr_mult: 0
    decay_mult: 0
    compression: PRUNE
  }
  batch_norm_param {
    use_global_stats: false
    scale_filler {
      type: "constant"
      value: 1
    }
    bias_filler {
      type: "constant"
      value: 0
    }
  }
}
layer {
  name: "relu4"
  type: "ReLU"
  bottom: "scale4"
  top: "relu4"
}
layer {
  name: "pool2"
  type: "Pooling"
  bottom: "relu4"
  top: "pool2"
  pooling_param {
    pool: MAX
    kernel_size: 2
    stride: 2
  }
}
layer {
  name: "drop2"
  type: "Dropout"
  bottom: "pool2"
  top: "drop2"
  dropout_param {
    dropout_ratio: 0.25
  }
}
layer {
  name: "fc1"
  type: "InnerProduct"
  bottom: "drop2"
  top: "fc1"
  param {
    lr_mult: 1
    decay_mult: 1
  }
  param {
    lr_mult: 2
    decay_mult: 0
  }
  inner_product_param {
    num_output: 512
    weight_filler {
      type: "xavier"
    }
    bias_filler {
      type: "constant"
      value: 1
    }
  }
}
layer {
  name: "bn5"
  type: "BatchNorm"
  bottom: "fc1"
  top: "scale5"
  param {
    lr_mult: 1
    decay_mult: 0
    compression: PRUNE
  }
  param {
    lr_mult: 1
    decay_mult: 0
    compression: PRUNE
  }
  param {
    lr_mult: 0
    decay_mult: 0
    compression: PRUNE
  }
  param {
    lr_mult: 0
    decay_mult: 0
    compression: PRUNE
  }
  batch_norm_param {
    use_global_stats: false
    scale_filler {
      type: "constant"
      value: 1
    }
    bias_filler {
      type: "constant"
      value: 0
    }
  }
}
layer {
  name: "relu5"
  type: "ReLU"
  bottom: "scale5"
  top: "relu5"
}
layer {
  name: "drop3"
  type: "Dropout"
  bottom: "relu5"
  top: "drop3"
  dropout_param {
    dropout_ratio: 0.5
  }
}
layer {
  name: "fc2"
  type: "InnerProduct"
  bottom: "drop3"
  top: "fc2"
  param {
    lr_mult: 1
    decay_mult: 1
  }
  param {
    lr_mult: 2
    decay_mult: 0
  }
  inner_product_param {
    num_output: 10
    weight_filler {
      type: "xavier"
    }
    bias_filler {
      type: "constant"
      value: 1
    }
  }
}
layer {
  name: "loss"
  type: "SoftmaxWithLoss"
  bottom: "fc2"
  bottom: "label"
  top: "loss"
}
layer {
  name: "accuracy-top1"
  type: "Accuracy"
  bottom: "fc2"
  bottom: "label"
  top: "top-1"
  include {
    phase: TEST
  }
}
layer {
  name: "accuracy-top5"
  type: "Accuracy"
  bottom: "fc2"
  bottom: "label"
  top: "top-5"
  include {
    phase: TEST
  }
  accuracy_param {
    top_k: 5
  }
}
I0122 16:29:03.278800 49871 layer_factory.hpp:77] Creating layer data
I0122 16:29:03.278841 49871 internal_thread.cpp:27] Starting internal thread(s) on GPU 0
I0122 16:29:03.279732 49871 net.cpp:94] Creating Layer data
I0122 16:29:03.279742 49871 net.cpp:409] data -> data
I0122 16:29:03.279753 49871 net.cpp:409] data -> label
I0122 16:29:03.280740 49940 db_lmdb.cpp:35] Opened lmdb cifar10/input/lmdb/valid_lmdb
I0122 16:29:03.280774 49940 data_reader.cpp:117] TEST: reading data using 1 channel(s)
I0122 16:29:03.280846 49871 data_layer.cpp:78] ReshapePrefetch 50, 3, 32, 32
I0122 16:29:03.280925 49871 data_layer.cpp:83] output data size: 50,3,32,32
I0122 16:29:03.284464 49871 internal_thread.cpp:27] Starting internal thread(s) on GPU 0
I0122 16:29:03.284518 49871 net.cpp:144] Setting up data
I0122 16:29:03.284525 49871 net.cpp:151] Top shape: 50 3 32 32 (153600)
I0122 16:29:03.284529 49871 net.cpp:151] Top shape: 50 (50)
I0122 16:29:03.284533 49871 net.cpp:159] Memory required for data: 614600
I0122 16:29:03.284536 49871 layer_factory.hpp:77] Creating layer label_data_1_split
I0122 16:29:03.284546 49871 net.cpp:94] Creating Layer label_data_1_split
I0122 16:29:03.284551 49871 net.cpp:435] label_data_1_split <- label
I0122 16:29:03.284559 49871 net.cpp:409] label_data_1_split -> label_data_1_split_0
I0122 16:29:03.284566 49871 net.cpp:409] label_data_1_split -> label_data_1_split_1
I0122 16:29:03.284571 49871 net.cpp:409] label_data_1_split -> label_data_1_split_2
I0122 16:29:03.284693 49871 net.cpp:144] Setting up label_data_1_split
I0122 16:29:03.284699 49871 net.cpp:151] Top shape: 50 (50)
I0122 16:29:03.284703 49871 net.cpp:151] Top shape: 50 (50)
I0122 16:29:03.284708 49871 net.cpp:151] Top shape: 50 (50)
I0122 16:29:03.284709 49871 net.cpp:159] Memory required for data: 615200
I0122 16:29:03.284713 49871 layer_factory.hpp:77] Creating layer conv1
I0122 16:29:03.284723 49871 net.cpp:94] Creating Layer conv1
I0122 16:29:03.284727 49871 net.cpp:435] conv1 <- data
I0122 16:29:03.284734 49871 net.cpp:409] conv1 -> conv1
I0122 16:29:03.285063 49871 net.cpp:144] Setting up conv1
I0122 16:29:03.285069 49871 net.cpp:151] Top shape: 50 32 32 32 (1638400)
I0122 16:29:03.285073 49871 net.cpp:159] Memory required for data: 7168800
I0122 16:29:03.285081 49871 layer_factory.hpp:77] Creating layer bn1
I0122 16:29:03.285089 49871 net.cpp:94] Creating Layer bn1
I0122 16:29:03.285094 49871 net.cpp:435] bn1 <- conv1
I0122 16:29:03.285099 49871 net.cpp:409] bn1 -> scale1
I0122 16:29:03.285749 49871 net.cpp:144] Setting up bn1
I0122 16:29:03.285756 49871 net.cpp:151] Top shape: 50 32 32 32 (1638400)
I0122 16:29:03.285759 49871 net.cpp:159] Memory required for data: 13722400
I0122 16:29:03.285770 49871 layer_factory.hpp:77] Creating layer relu1
I0122 16:29:03.285778 49871 net.cpp:94] Creating Layer relu1
I0122 16:29:03.285780 49871 net.cpp:435] relu1 <- scale1
I0122 16:29:03.285785 49871 net.cpp:409] relu1 -> relu1
I0122 16:29:03.285804 49871 net.cpp:144] Setting up relu1
I0122 16:29:03.285809 49871 net.cpp:151] Top shape: 50 32 32 32 (1638400)
I0122 16:29:03.285811 49871 net.cpp:159] Memory required for data: 20276000
I0122 16:29:03.285815 49871 layer_factory.hpp:77] Creating layer conv2
I0122 16:29:03.285821 49871 net.cpp:94] Creating Layer conv2
I0122 16:29:03.285826 49871 net.cpp:435] conv2 <- relu1
I0122 16:29:03.285831 49871 net.cpp:409] conv2 -> conv2
I0122 16:29:03.286118 49871 net.cpp:144] Setting up conv2
I0122 16:29:03.286124 49871 net.cpp:151] Top shape: 50 32 32 32 (1638400)
I0122 16:29:03.286128 49871 net.cpp:159] Memory required for data: 26829600
I0122 16:29:03.286134 49871 layer_factory.hpp:77] Creating layer bn2
I0122 16:29:03.286140 49871 net.cpp:94] Creating Layer bn2
I0122 16:29:03.286144 49871 net.cpp:435] bn2 <- conv2
I0122 16:29:03.286149 49871 net.cpp:409] bn2 -> scale2
I0122 16:29:03.287142 49871 net.cpp:144] Setting up bn2
I0122 16:29:03.287148 49871 net.cpp:151] Top shape: 50 32 32 32 (1638400)
I0122 16:29:03.287151 49871 net.cpp:159] Memory required for data: 33383200
I0122 16:29:03.287159 49871 layer_factory.hpp:77] Creating layer relu2
I0122 16:29:03.287164 49871 net.cpp:94] Creating Layer relu2
I0122 16:29:03.287170 49871 net.cpp:435] relu2 <- scale2
I0122 16:29:03.287175 49871 net.cpp:409] relu2 -> relu2
I0122 16:29:03.287221 49871 net.cpp:144] Setting up relu2
I0122 16:29:03.287227 49871 net.cpp:151] Top shape: 50 32 32 32 (1638400)
I0122 16:29:03.287230 49871 net.cpp:159] Memory required for data: 39936800
I0122 16:29:03.287233 49871 layer_factory.hpp:77] Creating layer pool1
I0122 16:29:03.287238 49871 net.cpp:94] Creating Layer pool1
I0122 16:29:03.287245 49871 net.cpp:435] pool1 <- relu2
I0122 16:29:03.287250 49871 net.cpp:409] pool1 -> pool1
I0122 16:29:03.287317 49871 net.cpp:144] Setting up pool1
I0122 16:29:03.287331 49871 net.cpp:151] Top shape: 50 32 16 16 (409600)
I0122 16:29:03.287333 49871 net.cpp:159] Memory required for data: 41575200
I0122 16:29:03.287338 49871 layer_factory.hpp:77] Creating layer drop1
I0122 16:29:03.287343 49871 net.cpp:94] Creating Layer drop1
I0122 16:29:03.287345 49871 net.cpp:435] drop1 <- pool1
I0122 16:29:03.287349 49871 net.cpp:409] drop1 -> drop1
I0122 16:29:03.287411 49871 net.cpp:144] Setting up drop1
I0122 16:29:03.287417 49871 net.cpp:151] Top shape: 50 32 16 16 (409600)
I0122 16:29:03.287420 49871 net.cpp:159] Memory required for data: 43213600
I0122 16:29:03.287423 49871 layer_factory.hpp:77] Creating layer conv3
I0122 16:29:03.287431 49871 net.cpp:94] Creating Layer conv3
I0122 16:29:03.287436 49871 net.cpp:435] conv3 <- drop1
I0122 16:29:03.287441 49871 net.cpp:409] conv3 -> conv3
I0122 16:29:03.287811 49871 net.cpp:144] Setting up conv3
I0122 16:29:03.287818 49871 net.cpp:151] Top shape: 50 64 16 16 (819200)
I0122 16:29:03.287822 49871 net.cpp:159] Memory required for data: 46490400
I0122 16:29:03.287825 49871 layer_factory.hpp:77] Creating layer bn3
I0122 16:29:03.287832 49871 net.cpp:94] Creating Layer bn3
I0122 16:29:03.287838 49871 net.cpp:435] bn3 <- conv3
I0122 16:29:03.287843 49871 net.cpp:409] bn3 -> scale3
I0122 16:29:03.288503 49871 net.cpp:144] Setting up bn3
I0122 16:29:03.288511 49871 net.cpp:151] Top shape: 50 64 16 16 (819200)
I0122 16:29:03.288514 49871 net.cpp:159] Memory required for data: 49767200
I0122 16:29:03.288524 49871 layer_factory.hpp:77] Creating layer relu3
I0122 16:29:03.288530 49871 net.cpp:94] Creating Layer relu3
I0122 16:29:03.288533 49871 net.cpp:435] relu3 <- scale3
I0122 16:29:03.288538 49871 net.cpp:409] relu3 -> relu3
I0122 16:29:03.288555 49871 net.cpp:144] Setting up relu3
I0122 16:29:03.288560 49871 net.cpp:151] Top shape: 50 64 16 16 (819200)
I0122 16:29:03.288563 49871 net.cpp:159] Memory required for data: 53044000
I0122 16:29:03.288566 49871 layer_factory.hpp:77] Creating layer conv4
I0122 16:29:03.288574 49871 net.cpp:94] Creating Layer conv4
I0122 16:29:03.288578 49871 net.cpp:435] conv4 <- relu3
I0122 16:29:03.288584 49871 net.cpp:409] conv4 -> conv4
I0122 16:29:03.289022 49871 net.cpp:144] Setting up conv4
I0122 16:29:03.289029 49871 net.cpp:151] Top shape: 50 64 16 16 (819200)
I0122 16:29:03.289032 49871 net.cpp:159] Memory required for data: 56320800
I0122 16:29:03.289036 49871 layer_factory.hpp:77] Creating layer bn4
I0122 16:29:03.289046 49871 net.cpp:94] Creating Layer bn4
I0122 16:29:03.289050 49871 net.cpp:435] bn4 <- conv4
I0122 16:29:03.289057 49871 net.cpp:409] bn4 -> scale4
I0122 16:29:03.289747 49871 net.cpp:144] Setting up bn4
I0122 16:29:03.289754 49871 net.cpp:151] Top shape: 50 64 16 16 (819200)
I0122 16:29:03.289757 49871 net.cpp:159] Memory required for data: 59597600
I0122 16:29:03.289764 49871 layer_factory.hpp:77] Creating layer relu4
I0122 16:29:03.289769 49871 net.cpp:94] Creating Layer relu4
I0122 16:29:03.289772 49871 net.cpp:435] relu4 <- scale4
I0122 16:29:03.289778 49871 net.cpp:409] relu4 -> relu4
I0122 16:29:03.289795 49871 net.cpp:144] Setting up relu4
I0122 16:29:03.289803 49871 net.cpp:151] Top shape: 50 64 16 16 (819200)
I0122 16:29:03.289806 49871 net.cpp:159] Memory required for data: 62874400
I0122 16:29:03.289809 49871 layer_factory.hpp:77] Creating layer pool2
I0122 16:29:03.289815 49871 net.cpp:94] Creating Layer pool2
I0122 16:29:03.289819 49871 net.cpp:435] pool2 <- relu4
I0122 16:29:03.289824 49871 net.cpp:409] pool2 -> pool2
I0122 16:29:03.289924 49871 net.cpp:144] Setting up pool2
I0122 16:29:03.289930 49871 net.cpp:151] Top shape: 50 64 8 8 (204800)
I0122 16:29:03.289934 49871 net.cpp:159] Memory required for data: 63693600
I0122 16:29:03.289937 49871 layer_factory.hpp:77] Creating layer drop2
I0122 16:29:03.289942 49871 net.cpp:94] Creating Layer drop2
I0122 16:29:03.289945 49871 net.cpp:435] drop2 <- pool2
I0122 16:29:03.289950 49871 net.cpp:409] drop2 -> drop2
I0122 16:29:03.289983 49871 net.cpp:144] Setting up drop2
I0122 16:29:03.289989 49871 net.cpp:151] Top shape: 50 64 8 8 (204800)
I0122 16:29:03.290004 49871 net.cpp:159] Memory required for data: 64512800
I0122 16:29:03.290007 49871 layer_factory.hpp:77] Creating layer fc1
I0122 16:29:03.290014 49871 net.cpp:94] Creating Layer fc1
I0122 16:29:03.290017 49871 net.cpp:435] fc1 <- drop2
I0122 16:29:03.290024 49871 net.cpp:409] fc1 -> fc1
I0122 16:29:03.304014 49871 net.cpp:144] Setting up fc1
I0122 16:29:03.304033 49871 net.cpp:151] Top shape: 50 512 (25600)
I0122 16:29:03.304035 49871 net.cpp:159] Memory required for data: 64615200
I0122 16:29:03.304042 49871 layer_factory.hpp:77] Creating layer bn5
I0122 16:29:03.304051 49871 net.cpp:94] Creating Layer bn5
I0122 16:29:03.304056 49871 net.cpp:435] bn5 <- fc1
I0122 16:29:03.304062 49871 net.cpp:409] bn5 -> scale5
I0122 16:29:03.304611 49871 net.cpp:144] Setting up bn5
I0122 16:29:03.304617 49871 net.cpp:151] Top shape: 50 512 (25600)
I0122 16:29:03.304620 49871 net.cpp:159] Memory required for data: 64717600
I0122 16:29:03.304633 49871 layer_factory.hpp:77] Creating layer relu5
I0122 16:29:03.304641 49871 net.cpp:94] Creating Layer relu5
I0122 16:29:03.304643 49871 net.cpp:435] relu5 <- scale5
I0122 16:29:03.304648 49871 net.cpp:409] relu5 -> relu5
I0122 16:29:03.304667 49871 net.cpp:144] Setting up relu5
I0122 16:29:03.304672 49871 net.cpp:151] Top shape: 50 512 (25600)
I0122 16:29:03.304677 49871 net.cpp:159] Memory required for data: 64820000
I0122 16:29:03.304679 49871 layer_factory.hpp:77] Creating layer drop3
I0122 16:29:03.304683 49871 net.cpp:94] Creating Layer drop3
I0122 16:29:03.304687 49871 net.cpp:435] drop3 <- relu5
I0122 16:29:03.304692 49871 net.cpp:409] drop3 -> drop3
I0122 16:29:03.304721 49871 net.cpp:144] Setting up drop3
I0122 16:29:03.304726 49871 net.cpp:151] Top shape: 50 512 (25600)
I0122 16:29:03.304728 49871 net.cpp:159] Memory required for data: 64922400
I0122 16:29:03.304731 49871 layer_factory.hpp:77] Creating layer fc2
I0122 16:29:03.304738 49871 net.cpp:94] Creating Layer fc2
I0122 16:29:03.304742 49871 net.cpp:435] fc2 <- drop3
I0122 16:29:03.304747 49871 net.cpp:409] fc2 -> fc2
I0122 16:29:03.304885 49871 net.cpp:144] Setting up fc2
I0122 16:29:03.304890 49871 net.cpp:151] Top shape: 50 10 (500)
I0122 16:29:03.304893 49871 net.cpp:159] Memory required for data: 64924400
I0122 16:29:03.304898 49871 layer_factory.hpp:77] Creating layer fc2_fc2_0_split
I0122 16:29:03.304903 49871 net.cpp:94] Creating Layer fc2_fc2_0_split
I0122 16:29:03.304906 49871 net.cpp:435] fc2_fc2_0_split <- fc2
I0122 16:29:03.304911 49871 net.cpp:409] fc2_fc2_0_split -> fc2_fc2_0_split_0
I0122 16:29:03.304919 49871 net.cpp:409] fc2_fc2_0_split -> fc2_fc2_0_split_1
I0122 16:29:03.304924 49871 net.cpp:409] fc2_fc2_0_split -> fc2_fc2_0_split_2
I0122 16:29:03.304963 49871 net.cpp:144] Setting up fc2_fc2_0_split
I0122 16:29:03.304968 49871 net.cpp:151] Top shape: 50 10 (500)
I0122 16:29:03.304971 49871 net.cpp:151] Top shape: 50 10 (500)
I0122 16:29:03.304975 49871 net.cpp:151] Top shape: 50 10 (500)
I0122 16:29:03.304977 49871 net.cpp:159] Memory required for data: 64930400
I0122 16:29:03.304980 49871 layer_factory.hpp:77] Creating layer loss
I0122 16:29:03.304985 49871 net.cpp:94] Creating Layer loss
I0122 16:29:03.304987 49871 net.cpp:435] loss <- fc2_fc2_0_split_0
I0122 16:29:03.304991 49871 net.cpp:435] loss <- label_data_1_split_0
I0122 16:29:03.304997 49871 net.cpp:409] loss -> loss
…
