…
I0122 16:22:31.863281 45359 caffe_interface.cpp:70] GPU device name: Quadro P6000
I0122 16:22:31.863745 45359 net.cpp:323] The NetState phase (1) differed from the phase (0) specified by a rule in layer data
I0122 16:22:31.863979 45359 net.cpp:52] Initializing net from parameters: 
state {
  phase: TEST
}
layer {
  name: "data"
  type: "Data"
  top: "data"
  top: "label"
  include {
    phase: TEST
  }
  transform_param {
    mirror: false
    mean_value: 125
    mean_value: 123
    mean_value: 114
  }
  data_param {
    source: "cifar10/input/lmdb/valid_lmdb"
    batch_size: 50
    backend: LMDB
  }
}
layer {
  name: "conv1"
  type: "Convolution"
  bottom: "data"
  top: "conv1"
  param {
    lr_mult: 1
    decay_mult: 1
  }
  param {
    lr_mult: 2
    decay_mult: 0
  }
  convolution_param {
    num_output: 32
    pad: 1
    kernel_size: 3
    stride: 1
    weight_filler {
      type: "xavier"
    }
    bias_filler {
      type: "constant"
      value: 0
    }
  }
}
layer {
  name: "bn1"
  type: "BatchNorm"
  bottom: "conv1"
  top: "scale1"
  param {
    lr_mult: 1
    decay_mult: 0
  }
  param {
    lr_mult: 1
    decay_mult: 0
  }
  param {
    lr_mult: 0
    decay_mult: 0
  }
  param {
    lr_mult: 0
    decay_mult: 0
  }
  batch_norm_param {
    use_global_stats: false
    scale_filler {
      type: "constant"
      value: 1
    }
    bias_filler {
      type: "constant"
      value: 0
    }
  }
}
layer {
  name: "relu1"
  type: "ReLU"
  bottom: "scale1"
  top: "relu1"
}
layer {
  name: "conv2"
  type: "Convolution"
  bottom: "relu1"
  top: "conv2"
  param {
    lr_mult: 1
    decay_mult: 1
  }
  param {
    lr_mult: 2
    decay_mult: 0
  }
  convolution_param {
    num_output: 32
    pad: 1
    kernel_size: 3
    stride: 1
    weight_filler {
      type: "xavier"
    }
    bias_filler {
      type: "constant"
      value: 0
    }
  }
}
layer {
  name: "bn2"
  type: "BatchNorm"
  bottom: "conv2"
  top: "scale2"
  param {
    lr_mult: 1
    decay_mult: 0
  }
  param {
    lr_mult: 1
    decay_mult: 0
  }
  param {
    lr_mult: 0
    decay_mult: 0
  }
  param {
    lr_mult: 0
    decay_mult: 0
  }
  batch_norm_param {
    use_global_stats: false
    scale_filler {
      type: "constant"
      value: 1
    }
    bias_filler {
      type: "constant"
      value: 0
    }
  }
}
layer {
  name: "relu2"
  type: "ReLU"
  bottom: "scale2"
  top: "relu2"
}
layer {
  name: "pool1"
  type: "Pooling"
  bottom: "relu2"
  top: "pool1"
  pooling_param {
    pool: MAX
    kernel_size: 2
    stride: 2
  }
}
layer {
  name: "drop1"
  type: "Dropout"
  bottom: "pool1"
  top: "drop1"
  dropout_param {
    dropout_ratio: 0.25
  }
}
layer {
  name: "conv3"
  type: "Convolution"
  bottom: "drop1"
  top: "conv3"
  param {
    lr_mult: 1
    decay_mult: 1
  }
  param {
    lr_mult: 2
    decay_mult: 0
  }
  convolution_param {
    num_output: 64
    pad: 1
    kernel_size: 3
    stride: 1
    weight_filler {
      type: "xavier"
    }
    bias_filler {
      type: "constant"
      value: 0
    }
  }
}
layer {
  name: "bn3"
  type: "BatchNorm"
  bottom: "conv3"
  top: "scale3"
  param {
    lr_mult: 1
    decay_mult: 0
  }
  param {
    lr_mult: 1
    decay_mult: 0
  }
  param {
    lr_mult: 0
    decay_mult: 0
  }
  param {
    lr_mult: 0
    decay_mult: 0
  }
  batch_norm_param {
    use_global_stats: false
    scale_filler {
      type: "constant"
      value: 1
    }
    bias_filler {
      type: "constant"
      value: 0
    }
  }
}
layer {
  name: "relu3"
  type: "ReLU"
  bottom: "scale3"
  top: "relu3"
}
layer {
  name: "conv4"
  type: "Convolution"
  bottom: "relu3"
  top: "conv4"
  param {
    lr_mult: 1
    decay_mult: 1
  }
  param {
    lr_mult: 2
    decay_mult: 0
  }
  convolution_param {
    num_output: 64
    pad: 1
    kernel_size: 3
    stride: 1
    weight_filler {
      type: "xavier"
    }
    bias_filler {
      type: "constant"
      value: 0
    }
  }
}
layer {
  name: "bn4"
  type: "BatchNorm"
  bottom: "conv4"
  top: "scale4"
  param {
    lr_mult: 1
    decay_mult: 0
  }
  param {
    lr_mult: 1
    decay_mult: 0
  }
  param {
    lr_mult: 0
    decay_mult: 0
  }
  param {
    lr_mult: 0
    decay_mult: 0
  }
  batch_norm_param {
    use_global_stats: false
    scale_filler {
      type: "constant"
      value: 1
    }
    bias_filler {
      type: "constant"
      value: 0
    }
  }
}
layer {
  name: "relu4"
  type: "ReLU"
  bottom: "scale4"
  top: "relu4"
}
layer {
  name: "pool2"
  type: "Pooling"
  bottom: "relu4"
  top: "pool2"
  pooling_param {
    pool: MAX
    kernel_size: 2
    stride: 2
  }
}
layer {
  name: "drop2"
  type: "Dropout"
  bottom: "pool2"
  top: "drop2"
  dropout_param {
    dropout_ratio: 0.25
  }
}
layer {
  name: "fc1"
  type: "InnerProduct"
  bottom: "drop2"
  top: "fc1"
  param {
    lr_mult: 1
    decay_mult: 1
  }
  param {
    lr_mult: 2
    decay_mult: 0
  }
  inner_product_param {
    num_output: 512
    weight_filler {
      type: "xavier"
    }
    bias_filler {
      type: "constant"
      value: 1
    }
  }
}
layer {
  name: "bn5"
  type: "BatchNorm"
  bottom: "fc1"
  top: "scale5"
  param {
    lr_mult: 1
    decay_mult: 0
  }
  param {
    lr_mult: 1
    decay_mult: 0
  }
  param {
    lr_mult: 0
    decay_mult: 0
  }
  param {
    lr_mult: 0
    decay_mult: 0
  }
  batch_norm_param {
    use_global_stats: false
    scale_filler {
      type: "constant"
      value: 1
    }
    bias_filler {
      type: "constant"
      value: 0
    }
  }
}
layer {
  name: "relu5"
  type: "ReLU"
  bottom: "scale5"
  top: "relu5"
}
layer {
  name: "drop3"
  type: "Dropout"
  bottom: "relu5"
  top: "drop3"
  dropout_param {
    dropout_ratio: 0.5
  }
}
layer {
  name: "fc2"
  type: "InnerProduct"
  bottom: "drop3"
  top: "fc2"
  param {
    lr_mult: 1
    decay_mult: 1
  }
  param {
    lr_mult: 2
    decay_mult: 0
  }
  inner_product_param {
    num_output: 10
    weight_filler {
      type: "xavier"
    }
    bias_filler {
      type: "constant"
      value: 1
    }
  }
}
layer {
  name: "loss"
  type: "SoftmaxWithLoss"
  bottom: "fc2"
  bottom: "label"
  top: "loss"
}
layer {
  name: "accuracy-top1"
  type: "Accuracy"
  bottom: "fc2"
  bottom: "label"
  top: "top-1"
  include {
    phase: TEST
  }
}
layer {
  name: "accuracy-top5"
  type: "Accuracy"
  bottom: "fc2"
  bottom: "label"
  top: "top-5"
  include {
    phase: TEST
  }
  accuracy_param {
    top_k: 5
  }
}
I0122 16:22:31.864115 45359 layer_factory.hpp:77] Creating layer data
I0122 16:22:31.864164 45359 internal_thread.cpp:27] Starting internal thread(s) on GPU 0
I0122 16:22:31.864564 45359 net.cpp:94] Creating Layer data
I0122 16:22:31.864574 45359 net.cpp:409] data -> data
I0122 16:22:31.864584 45359 net.cpp:409] data -> label
I0122 16:22:31.865618 45486 db_lmdb.cpp:35] Opened lmdb cifar10/input/lmdb/valid_lmdb
I0122 16:22:31.865648 45486 data_reader.cpp:117] TEST: reading data using 1 channel(s)
I0122 16:22:31.865766 45359 data_layer.cpp:78] ReshapePrefetch 50, 3, 32, 32
I0122 16:22:31.865877 45359 data_layer.cpp:83] output data size: 50,3,32,32
I0122 16:22:31.869055 45359 internal_thread.cpp:27] Starting internal thread(s) on GPU 0
I0122 16:22:31.869102 45359 net.cpp:144] Setting up data
I0122 16:22:31.869110 45359 net.cpp:151] Top shape: 50 3 32 32 (153600)
I0122 16:22:31.869115 45359 net.cpp:151] Top shape: 50 (50)
I0122 16:22:31.869118 45359 net.cpp:159] Memory required for data: 614600
I0122 16:22:31.869124 45359 layer_factory.hpp:77] Creating layer label_data_1_split
I0122 16:22:31.869134 45359 net.cpp:94] Creating Layer label_data_1_split
I0122 16:22:31.869140 45359 net.cpp:435] label_data_1_split <- label
I0122 16:22:31.869148 45359 net.cpp:409] label_data_1_split -> label_data_1_split_0
I0122 16:22:31.869163 45359 net.cpp:409] label_data_1_split -> label_data_1_split_1
I0122 16:22:31.869171 45359 net.cpp:409] label_data_1_split -> label_data_1_split_2
I0122 16:22:31.869276 45359 net.cpp:144] Setting up label_data_1_split
I0122 16:22:31.869283 45359 net.cpp:151] Top shape: 50 (50)
I0122 16:22:31.869300 45359 net.cpp:151] Top shape: 50 (50)
I0122 16:22:31.869305 45359 net.cpp:151] Top shape: 50 (50)
I0122 16:22:31.869308 45359 net.cpp:159] Memory required for data: 615200
I0122 16:22:31.869313 45359 layer_factory.hpp:77] Creating layer conv1
I0122 16:22:31.869325 45359 net.cpp:94] Creating Layer conv1
I0122 16:22:31.869330 45359 net.cpp:435] conv1 <- data
I0122 16:22:31.869338 45359 net.cpp:409] conv1 -> conv1
I0122 16:22:31.870457 45359 net.cpp:144] Setting up conv1
I0122 16:22:31.870471 45359 net.cpp:151] Top shape: 50 32 32 32 (1638400)
I0122 16:22:31.870474 45359 net.cpp:159] Memory required for data: 7168800
I0122 16:22:31.870486 45359 layer_factory.hpp:77] Creating layer bn1
I0122 16:22:31.870496 45359 net.cpp:94] Creating Layer bn1
I0122 16:22:31.870501 45359 net.cpp:435] bn1 <- conv1
I0122 16:22:31.870507 45359 net.cpp:409] bn1 -> scale1
I0122 16:22:31.871227 45359 net.cpp:144] Setting up bn1
I0122 16:22:31.871235 45359 net.cpp:151] Top shape: 50 32 32 32 (1638400)
I0122 16:22:31.871239 45359 net.cpp:159] Memory required for data: 13722400
I0122 16:22:31.871253 45359 layer_factory.hpp:77] Creating layer relu1
I0122 16:22:31.871261 45359 net.cpp:94] Creating Layer relu1
I0122 16:22:31.871265 45359 net.cpp:435] relu1 <- scale1
I0122 16:22:31.871271 45359 net.cpp:409] relu1 -> relu1
I0122 16:22:31.871292 45359 net.cpp:144] Setting up relu1
I0122 16:22:31.871299 45359 net.cpp:151] Top shape: 50 32 32 32 (1638400)
I0122 16:22:31.871302 45359 net.cpp:159] Memory required for data: 20276000
I0122 16:22:31.871306 45359 layer_factory.hpp:77] Creating layer conv2
I0122 16:22:31.871316 45359 net.cpp:94] Creating Layer conv2
I0122 16:22:31.871321 45359 net.cpp:435] conv2 <- relu1
I0122 16:22:31.871327 45359 net.cpp:409] conv2 -> conv2
I0122 16:22:31.872467 45359 net.cpp:144] Setting up conv2
I0122 16:22:31.872476 45359 net.cpp:151] Top shape: 50 32 32 32 (1638400)
I0122 16:22:31.872479 45359 net.cpp:159] Memory required for data: 26829600
I0122 16:22:31.872486 45359 layer_factory.hpp:77] Creating layer bn2
I0122 16:22:31.872494 45359 net.cpp:94] Creating Layer bn2
I0122 16:22:31.872498 45359 net.cpp:435] bn2 <- conv2
I0122 16:22:31.872503 45359 net.cpp:409] bn2 -> scale2
I0122 16:22:31.873173 45359 net.cpp:144] Setting up bn2
I0122 16:22:31.873180 45359 net.cpp:151] Top shape: 50 32 32 32 (1638400)
I0122 16:22:31.873183 45359 net.cpp:159] Memory required for data: 33383200
I0122 16:22:31.873191 45359 layer_factory.hpp:77] Creating layer relu2
I0122 16:22:31.873195 45359 net.cpp:94] Creating Layer relu2
I0122 16:22:31.873199 45359 net.cpp:435] relu2 <- scale2
I0122 16:22:31.873204 45359 net.cpp:409] relu2 -> relu2
I0122 16:22:31.873222 45359 net.cpp:144] Setting up relu2
I0122 16:22:31.873227 45359 net.cpp:151] Top shape: 50 32 32 32 (1638400)
I0122 16:22:31.873230 45359 net.cpp:159] Memory required for data: 39936800
I0122 16:22:31.873234 45359 layer_factory.hpp:77] Creating layer pool1
I0122 16:22:31.873239 45359 net.cpp:94] Creating Layer pool1
I0122 16:22:31.873241 45359 net.cpp:435] pool1 <- relu2
I0122 16:22:31.873245 45359 net.cpp:409] pool1 -> pool1
I0122 16:22:31.873311 45359 net.cpp:144] Setting up pool1
I0122 16:22:31.873317 45359 net.cpp:151] Top shape: 50 32 16 16 (409600)
I0122 16:22:31.873318 45359 net.cpp:159] Memory required for data: 41575200
I0122 16:22:31.873322 45359 layer_factory.hpp:77] Creating layer drop1
I0122 16:22:31.873327 45359 net.cpp:94] Creating Layer drop1
I0122 16:22:31.873328 45359 net.cpp:435] drop1 <- pool1
I0122 16:22:31.873332 45359 net.cpp:409] drop1 -> drop1
I0122 16:22:31.873358 45359 net.cpp:144] Setting up drop1
I0122 16:22:31.873381 45359 net.cpp:151] Top shape: 50 32 16 16 (409600)
I0122 16:22:31.873383 45359 net.cpp:159] Memory required for data: 43213600
I0122 16:22:31.873386 45359 layer_factory.hpp:77] Creating layer conv3
I0122 16:22:31.873394 45359 net.cpp:94] Creating Layer conv3
I0122 16:22:31.873396 45359 net.cpp:435] conv3 <- drop1
I0122 16:22:31.873401 45359 net.cpp:409] conv3 -> conv3
I0122 16:22:31.874442 45359 net.cpp:144] Setting up conv3
I0122 16:22:31.874454 45359 net.cpp:151] Top shape: 50 64 16 16 (819200)
I0122 16:22:31.874469 45359 net.cpp:159] Memory required for data: 46490400
I0122 16:22:31.874475 45359 layer_factory.hpp:77] Creating layer bn3
I0122 16:22:31.874482 45359 net.cpp:94] Creating Layer bn3
I0122 16:22:31.874488 45359 net.cpp:435] bn3 <- conv3
I0122 16:22:31.874495 45359 net.cpp:409] bn3 -> scale3
I0122 16:22:31.875120 45359 net.cpp:144] Setting up bn3
I0122 16:22:31.875128 45359 net.cpp:151] Top shape: 50 64 16 16 (819200)
I0122 16:22:31.875133 45359 net.cpp:159] Memory required for data: 49767200
I0122 16:22:31.875144 45359 layer_factory.hpp:77] Creating layer relu3
I0122 16:22:31.875147 45359 net.cpp:94] Creating Layer relu3
I0122 16:22:31.875151 45359 net.cpp:435] relu3 <- scale3
I0122 16:22:31.875156 45359 net.cpp:409] relu3 -> relu3
I0122 16:22:31.875174 45359 net.cpp:144] Setting up relu3
I0122 16:22:31.875180 45359 net.cpp:151] Top shape: 50 64 16 16 (819200)
I0122 16:22:31.875182 45359 net.cpp:159] Memory required for data: 53044000
I0122 16:22:31.875185 45359 layer_factory.hpp:77] Creating layer conv4
I0122 16:22:31.875193 45359 net.cpp:94] Creating Layer conv4
I0122 16:22:31.875201 45359 net.cpp:435] conv4 <- relu3
I0122 16:22:31.875205 45359 net.cpp:409] conv4 -> conv4
I0122 16:22:31.875634 45359 net.cpp:144] Setting up conv4
I0122 16:22:31.875641 45359 net.cpp:151] Top shape: 50 64 16 16 (819200)
I0122 16:22:31.875644 45359 net.cpp:159] Memory required for data: 56320800
I0122 16:22:31.875649 45359 layer_factory.hpp:77] Creating layer bn4
I0122 16:22:31.875656 45359 net.cpp:94] Creating Layer bn4
I0122 16:22:31.875660 45359 net.cpp:435] bn4 <- conv4
I0122 16:22:31.875666 45359 net.cpp:409] bn4 -> scale4
I0122 16:22:31.876320 45359 net.cpp:144] Setting up bn4
I0122 16:22:31.876330 45359 net.cpp:151] Top shape: 50 64 16 16 (819200)
I0122 16:22:31.876332 45359 net.cpp:159] Memory required for data: 59597600
I0122 16:22:31.876341 45359 layer_factory.hpp:77] Creating layer relu4
I0122 16:22:31.876348 45359 net.cpp:94] Creating Layer relu4
I0122 16:22:31.876351 45359 net.cpp:435] relu4 <- scale4
I0122 16:22:31.876355 45359 net.cpp:409] relu4 -> relu4
I0122 16:22:31.876374 45359 net.cpp:144] Setting up relu4
I0122 16:22:31.876379 45359 net.cpp:151] Top shape: 50 64 16 16 (819200)
I0122 16:22:31.876382 45359 net.cpp:159] Memory required for data: 62874400
I0122 16:22:31.876385 45359 layer_factory.hpp:77] Creating layer pool2
I0122 16:22:31.876391 45359 net.cpp:94] Creating Layer pool2
I0122 16:22:31.876394 45359 net.cpp:435] pool2 <- relu4
I0122 16:22:31.876399 45359 net.cpp:409] pool2 -> pool2
I0122 16:22:31.876488 45359 net.cpp:144] Setting up pool2
I0122 16:22:31.876494 45359 net.cpp:151] Top shape: 50 64 8 8 (204800)
I0122 16:22:31.876497 45359 net.cpp:159] Memory required for data: 63693600
I0122 16:22:31.876500 45359 layer_factory.hpp:77] Creating layer drop2
I0122 16:22:31.876505 45359 net.cpp:94] Creating Layer drop2
I0122 16:22:31.876509 45359 net.cpp:435] drop2 <- pool2
I0122 16:22:31.876513 45359 net.cpp:409] drop2 -> drop2
I0122 16:22:31.876540 45359 net.cpp:144] Setting up drop2
I0122 16:22:31.876545 45359 net.cpp:151] Top shape: 50 64 8 8 (204800)
I0122 16:22:31.876549 45359 net.cpp:159] Memory required for data: 64512800
I0122 16:22:31.876550 45359 layer_factory.hpp:77] Creating layer fc1
I0122 16:22:31.876557 45359 net.cpp:94] Creating Layer fc1
I0122 16:22:31.876560 45359 net.cpp:435] fc1 <- drop2
I0122 16:22:31.876565 45359 net.cpp:409] fc1 -> fc1
I0122 16:22:31.890420 45359 net.cpp:144] Setting up fc1
I0122 16:22:31.890439 45359 net.cpp:151] Top shape: 50 512 (25600)
I0122 16:22:31.890440 45359 net.cpp:159] Memory required for data: 64615200
I0122 16:22:31.890447 45359 layer_factory.hpp:77] Creating layer bn5
I0122 16:22:31.890455 45359 net.cpp:94] Creating Layer bn5
I0122 16:22:31.890460 45359 net.cpp:435] bn5 <- fc1
I0122 16:22:31.890465 45359 net.cpp:409] bn5 -> scale5
I0122 16:22:31.891047 45359 net.cpp:144] Setting up bn5
I0122 16:22:31.891057 45359 net.cpp:151] Top shape: 50 512 (25600)
I0122 16:22:31.891060 45359 net.cpp:159] Memory required for data: 64717600
I0122 16:22:31.891088 45359 layer_factory.hpp:77] Creating layer relu5
I0122 16:22:31.891095 45359 net.cpp:94] Creating Layer relu5
I0122 16:22:31.891098 45359 net.cpp:435] relu5 <- scale5
I0122 16:22:31.891104 45359 net.cpp:409] relu5 -> relu5
I0122 16:22:31.891124 45359 net.cpp:144] Setting up relu5
I0122 16:22:31.891129 45359 net.cpp:151] Top shape: 50 512 (25600)
I0122 16:22:31.891131 45359 net.cpp:159] Memory required for data: 64820000
I0122 16:22:31.891135 45359 layer_factory.hpp:77] Creating layer drop3
I0122 16:22:31.891140 45359 net.cpp:94] Creating Layer drop3
I0122 16:22:31.891144 45359 net.cpp:435] drop3 <- relu5
I0122 16:22:31.891147 45359 net.cpp:409] drop3 -> drop3
I0122 16:22:31.891173 45359 net.cpp:144] Setting up drop3
I0122 16:22:31.891178 45359 net.cpp:151] Top shape: 50 512 (25600)
I0122 16:22:31.891180 45359 net.cpp:159] Memory required for data: 64922400
I0122 16:22:31.891183 45359 layer_factory.hpp:77] Creating layer fc2
I0122 16:22:31.891191 45359 net.cpp:94] Creating Layer fc2
I0122 16:22:31.891193 45359 net.cpp:435] fc2 <- drop3
I0122 16:22:31.891198 45359 net.cpp:409] fc2 -> fc2
I0122 16:22:31.891328 45359 net.cpp:144] Setting up fc2
I0122 16:22:31.891335 45359 net.cpp:151] Top shape: 50 10 (500)
I0122 16:22:31.891337 45359 net.cpp:159] Memory required for data: 64924400
I0122 16:22:31.891342 45359 layer_factory.hpp:77] Creating layer fc2_fc2_0_split
I0122 16:22:31.891346 45359 net.cpp:94] Creating Layer fc2_fc2_0_split
I0122 16:22:31.891352 45359 net.cpp:435] fc2_fc2_0_split <- fc2
I0122 16:22:31.891357 45359 net.cpp:409] fc2_fc2_0_split -> fc2_fc2_0_split_0
I0122 16:22:31.891363 45359 net.cpp:409] fc2_fc2_0_split -> fc2_fc2_0_split_1
I0122 16:22:31.891371 45359 net.cpp:409] fc2_fc2_0_split -> fc2_fc2_0_split_2
I0122 16:22:31.891407 45359 net.cpp:144] Setting up fc2_fc2_0_split
I0122 16:22:31.891412 45359 net.cpp:151] Top shape: 50 10 (500)
I0122 16:22:31.891415 45359 net.cpp:151] Top shape: 50 10 (500)
I0122 16:22:31.891418 45359 net.cpp:151] Top shape: 50 10 (500)
I0122 16:22:31.891422 45359 net.cpp:159] Memory required for data: 64930400
I0122 16:22:31.891423 45359 layer_factory.hpp:77] Creating layer loss
I0122 16:22:31.891429 45359 net.cpp:94] Creating Layer loss
I0122 16:22:31.891434 45359 net.cpp:435] loss <- fc2_fc2_0_split_0
I0122 16:22:31.891439 45359 net.cpp:435] loss <- label_data_1_split_0
I0122 16:22:31.891444 45359 net.cpp:409] loss -> loss
…
