…
I0122 16:41:58.551208 56630 caffe_interface.cpp:70] GPU device name: Quadro P6000
I0122 16:41:58.551719 56630 net.cpp:323] The NetState phase (1) differed from the phase (0) specified by a rule in layer data
I0122 16:41:58.551995 56630 net.cpp:52] Initializing net from parameters: 
state {
  phase: TEST
}
layer {
  name: "data"
  type: "Data"
  top: "data"
  top: "label"
  include {
    phase: TEST
  }
  transform_param {
    mirror: false
    mean_value: 125
    mean_value: 123
    mean_value: 114
  }
  data_param {
    source: "cifar10/input/lmdb/valid_lmdb"
    batch_size: 50
    backend: LMDB
  }
}
layer {
  name: "conv1"
  type: "Convolution"
  bottom: "data"
  top: "conv1"
  param {
    lr_mult: 1
    decay_mult: 1
  }
  param {
    lr_mult: 2
    decay_mult: 0
  }
  convolution_param {
    num_output: 32
    pad: 1
    kernel_size: 3
    stride: 1
    weight_filler {
      type: "xavier"
    }
    bias_filler {
      type: "constant"
      value: 0
    }
  }
}
layer {
  name: "bn1"
  type: "BatchNorm"
  bottom: "conv1"
  top: "scale1"
  param {
    lr_mult: 1
    decay_mult: 0
  }
  param {
    lr_mult: 1
    decay_mult: 0
  }
  param {
    lr_mult: 0
    decay_mult: 0
  }
  param {
    lr_mult: 0
    decay_mult: 0
  }
  batch_norm_param {
    use_global_stats: false
    scale_filler {
      type: "constant"
      value: 1
    }
    bias_filler {
      type: "constant"
      value: 0
    }
  }
}
layer {
  name: "relu1"
  type: "ReLU"
  bottom: "scale1"
  top: "relu1"
}
layer {
  name: "conv2"
  type: "Convolution"
  bottom: "relu1"
  top: "conv2"
  param {
    lr_mult: 1
    decay_mult: 1
  }
  param {
    lr_mult: 2
    decay_mult: 0
  }
  convolution_param {
    num_output: 32
    pad: 1
    kernel_size: 3
    stride: 1
    weight_filler {
      type: "xavier"
    }
    bias_filler {
      type: "constant"
      value: 0
    }
  }
}
layer {
  name: "bn2"
  type: "BatchNorm"
  bottom: "conv2"
  top: "scale2"
  param {
    lr_mult: 1
    decay_mult: 0
  }
  param {
    lr_mult: 1
    decay_mult: 0
  }
  param {
    lr_mult: 0
    decay_mult: 0
  }
  param {
    lr_mult: 0
    decay_mult: 0
  }
  batch_norm_param {
    use_global_stats: false
    scale_filler {
      type: "constant"
      value: 1
    }
    bias_filler {
      type: "constant"
      value: 0
    }
  }
}
layer {
  name: "relu2"
  type: "ReLU"
  bottom: "scale2"
  top: "relu2"
}
layer {
  name: "pool1"
  type: "Pooling"
  bottom: "relu2"
  top: "pool1"
  pooling_param {
    pool: MAX
    kernel_size: 2
    stride: 2
  }
}
layer {
  name: "drop1"
  type: "Dropout"
  bottom: "pool1"
  top: "drop1"
  dropout_param {
    dropout_ratio: 0.25
  }
}
layer {
  name: "conv3"
  type: "Convolution"
  bottom: "drop1"
  top: "conv3"
  param {
    lr_mult: 1
    decay_mult: 1
  }
  param {
    lr_mult: 2
    decay_mult: 0
  }
  convolution_param {
    num_output: 64
    pad: 1
    kernel_size: 3
    stride: 1
    weight_filler {
      type: "xavier"
    }
    bias_filler {
      type: "constant"
      value: 0
    }
  }
}
layer {
  name: "bn3"
  type: "BatchNorm"
  bottom: "conv3"
  top: "scale3"
  param {
    lr_mult: 1
    decay_mult: 0
  }
  param {
    lr_mult: 1
    decay_mult: 0
  }
  param {
    lr_mult: 0
    decay_mult: 0
  }
  param {
    lr_mult: 0
    decay_mult: 0
  }
  batch_norm_param {
    use_global_stats: false
    scale_filler {
      type: "constant"
      value: 1
    }
    bias_filler {
      type: "constant"
      value: 0
    }
  }
}
layer {
  name: "relu3"
  type: "ReLU"
  bottom: "scale3"
  top: "relu3"
}
layer {
  name: "conv4"
  type: "Convolution"
  bottom: "relu3"
  top: "conv4"
  param {
    lr_mult: 1
    decay_mult: 1
  }
  param {
    lr_mult: 2
    decay_mult: 0
  }
  convolution_param {
    num_output: 64
    pad: 1
    kernel_size: 3
    stride: 1
    weight_filler {
      type: "xavier"
    }
    bias_filler {
      type: "constant"
      value: 0
    }
  }
}
layer {
  name: "bn4"
  type: "BatchNorm"
  bottom: "conv4"
  top: "scale4"
  param {
    lr_mult: 1
    decay_mult: 0
  }
  param {
    lr_mult: 1
    decay_mult: 0
  }
  param {
    lr_mult: 0
    decay_mult: 0
  }
  param {
    lr_mult: 0
    decay_mult: 0
  }
  batch_norm_param {
    use_global_stats: false
    scale_filler {
      type: "constant"
      value: 1
    }
    bias_filler {
      type: "constant"
      value: 0
    }
  }
}
layer {
  name: "relu4"
  type: "ReLU"
  bottom: "scale4"
  top: "relu4"
}
layer {
  name: "pool2"
  type: "Pooling"
  bottom: "relu4"
  top: "pool2"
  pooling_param {
    pool: MAX
    kernel_size: 2
    stride: 2
  }
}
layer {
  name: "drop2"
  type: "Dropout"
  bottom: "pool2"
  top: "drop2"
  dropout_param {
    dropout_ratio: 0.25
  }
}
layer {
  name: "fc1"
  type: "InnerProduct"
  bottom: "drop2"
  top: "fc1"
  param {
    lr_mult: 1
    decay_mult: 1
  }
  param {
    lr_mult: 2
    decay_mult: 0
  }
  inner_product_param {
    num_output: 512
    weight_filler {
      type: "xavier"
    }
    bias_filler {
      type: "constant"
      value: 1
    }
  }
}
layer {
  name: "bn5"
  type: "BatchNorm"
  bottom: "fc1"
  top: "scale5"
  param {
    lr_mult: 1
    decay_mult: 0
  }
  param {
    lr_mult: 1
    decay_mult: 0
  }
  param {
    lr_mult: 0
    decay_mult: 0
  }
  param {
    lr_mult: 0
    decay_mult: 0
  }
  batch_norm_param {
    use_global_stats: false
    scale_filler {
      type: "constant"
      value: 1
    }
    bias_filler {
      type: "constant"
      value: 0
    }
  }
}
layer {
  name: "relu5"
  type: "ReLU"
  bottom: "scale5"
  top: "relu5"
}
layer {
  name: "drop3"
  type: "Dropout"
  bottom: "relu5"
  top: "drop3"
  dropout_param {
    dropout_ratio: 0.5
  }
}
layer {
  name: "fc2"
  type: "InnerProduct"
  bottom: "drop3"
  top: "fc2"
  param {
    lr_mult: 1
    decay_mult: 1
  }
  param {
    lr_mult: 2
    decay_mult: 0
  }
  inner_product_param {
    num_output: 10
    weight_filler {
      type: "xavier"
    }
    bias_filler {
      type: "constant"
      value: 1
    }
  }
}
layer {
  name: "loss"
  type: "SoftmaxWithLoss"
  bottom: "fc2"
  bottom: "label"
  top: "loss"
}
layer {
  name: "accuracy-top1"
  type: "Accuracy"
  bottom: "fc2"
  bottom: "label"
  top: "top-1"
  include {
    phase: TEST
  }
}
layer {
  name: "accuracy-top5"
  type: "Accuracy"
  bottom: "fc2"
  bottom: "label"
  top: "top-5"
  include {
    phase: TEST
  }
  accuracy_param {
    top_k: 5
  }
}
I0122 16:41:58.552160 56630 layer_factory.hpp:77] Creating layer data
I0122 16:41:58.552217 56630 internal_thread.cpp:27] Starting internal thread(s) on GPU 0
I0122 16:41:58.552680 56630 net.cpp:94] Creating Layer data
I0122 16:41:58.552690 56630 net.cpp:409] data -> data
I0122 16:41:58.552700 56630 net.cpp:409] data -> label
I0122 16:41:58.553588 57843 db_lmdb.cpp:35] Opened lmdb cifar10/input/lmdb/valid_lmdb
I0122 16:41:58.553619 57843 data_reader.cpp:117] TEST: reading data using 1 channel(s)
I0122 16:41:58.553748 56630 data_layer.cpp:78] ReshapePrefetch 50, 3, 32, 32
I0122 16:41:58.553881 56630 data_layer.cpp:83] output data size: 50,3,32,32
I0122 16:41:58.557157 56630 internal_thread.cpp:27] Starting internal thread(s) on GPU 0
I0122 16:41:58.557201 56630 net.cpp:144] Setting up data
I0122 16:41:58.557209 56630 net.cpp:151] Top shape: 50 3 32 32 (153600)
I0122 16:41:58.557214 56630 net.cpp:151] Top shape: 50 (50)
I0122 16:41:58.557216 56630 net.cpp:159] Memory required for data: 614600
I0122 16:41:58.557222 56630 layer_factory.hpp:77] Creating layer label_data_1_split
I0122 16:41:58.557231 56630 net.cpp:94] Creating Layer label_data_1_split
I0122 16:41:58.557235 56630 net.cpp:435] label_data_1_split <- label
I0122 16:41:58.557241 56630 net.cpp:409] label_data_1_split -> label_data_1_split_0
I0122 16:41:58.557255 56630 net.cpp:409] label_data_1_split -> label_data_1_split_1
I0122 16:41:58.557265 56630 net.cpp:409] label_data_1_split -> label_data_1_split_2
I0122 16:41:58.557324 56630 net.cpp:144] Setting up label_data_1_split
I0122 16:41:58.557330 56630 net.cpp:151] Top shape: 50 (50)
I0122 16:41:58.557335 56630 net.cpp:151] Top shape: 50 (50)
I0122 16:41:58.557338 56630 net.cpp:151] Top shape: 50 (50)
I0122 16:41:58.557341 56630 net.cpp:159] Memory required for data: 615200
I0122 16:41:58.557344 56630 layer_factory.hpp:77] Creating layer conv1
I0122 16:41:58.557356 56630 net.cpp:94] Creating Layer conv1
I0122 16:41:58.557361 56630 net.cpp:435] conv1 <- data
I0122 16:41:58.557368 56630 net.cpp:409] conv1 -> conv1
I0122 16:41:58.558400 56630 net.cpp:144] Setting up conv1
I0122 16:41:58.558413 56630 net.cpp:151] Top shape: 50 32 32 32 (1638400)
I0122 16:41:58.558418 56630 net.cpp:159] Memory required for data: 7168800
I0122 16:41:58.558429 56630 layer_factory.hpp:77] Creating layer bn1
I0122 16:41:58.558439 56630 net.cpp:94] Creating Layer bn1
I0122 16:41:58.558444 56630 net.cpp:435] bn1 <- conv1
I0122 16:41:58.558450 56630 net.cpp:409] bn1 -> scale1
I0122 16:41:58.559124 56630 net.cpp:144] Setting up bn1
I0122 16:41:58.559132 56630 net.cpp:151] Top shape: 50 32 32 32 (1638400)
I0122 16:41:58.559149 56630 net.cpp:159] Memory required for data: 13722400
I0122 16:41:58.559161 56630 layer_factory.hpp:77] Creating layer relu1
I0122 16:41:58.559168 56630 net.cpp:94] Creating Layer relu1
I0122 16:41:58.559172 56630 net.cpp:435] relu1 <- scale1
I0122 16:41:58.559178 56630 net.cpp:409] relu1 -> relu1
I0122 16:41:58.559197 56630 net.cpp:144] Setting up relu1
I0122 16:41:58.559203 56630 net.cpp:151] Top shape: 50 32 32 32 (1638400)
I0122 16:41:58.559206 56630 net.cpp:159] Memory required for data: 20276000
I0122 16:41:58.559211 56630 layer_factory.hpp:77] Creating layer conv2
I0122 16:41:58.559219 56630 net.cpp:94] Creating Layer conv2
I0122 16:41:58.559223 56630 net.cpp:435] conv2 <- relu1
I0122 16:41:58.559228 56630 net.cpp:409] conv2 -> conv2
I0122 16:41:58.560364 56630 net.cpp:144] Setting up conv2
I0122 16:41:58.560377 56630 net.cpp:151] Top shape: 50 32 32 32 (1638400)
I0122 16:41:58.560380 56630 net.cpp:159] Memory required for data: 26829600
I0122 16:41:58.560389 56630 layer_factory.hpp:77] Creating layer bn2
I0122 16:41:58.560400 56630 net.cpp:94] Creating Layer bn2
I0122 16:41:58.560405 56630 net.cpp:435] bn2 <- conv2
I0122 16:41:58.560411 56630 net.cpp:409] bn2 -> scale2
I0122 16:41:58.561211 56630 net.cpp:144] Setting up bn2
I0122 16:41:58.561220 56630 net.cpp:151] Top shape: 50 32 32 32 (1638400)
I0122 16:41:58.561224 56630 net.cpp:159] Memory required for data: 33383200
I0122 16:41:58.561233 56630 layer_factory.hpp:77] Creating layer relu2
I0122 16:41:58.561239 56630 net.cpp:94] Creating Layer relu2
I0122 16:41:58.561242 56630 net.cpp:435] relu2 <- scale2
I0122 16:41:58.561249 56630 net.cpp:409] relu2 -> relu2
I0122 16:41:58.561269 56630 net.cpp:144] Setting up relu2
I0122 16:41:58.561276 56630 net.cpp:151] Top shape: 50 32 32 32 (1638400)
I0122 16:41:58.561281 56630 net.cpp:159] Memory required for data: 39936800
I0122 16:41:58.561285 56630 layer_factory.hpp:77] Creating layer pool1
I0122 16:41:58.561291 56630 net.cpp:94] Creating Layer pool1
I0122 16:41:58.561295 56630 net.cpp:435] pool1 <- relu2
I0122 16:41:58.561300 56630 net.cpp:409] pool1 -> pool1
I0122 16:41:58.561345 56630 net.cpp:144] Setting up pool1
I0122 16:41:58.561358 56630 net.cpp:151] Top shape: 50 32 16 16 (409600)
I0122 16:41:58.561362 56630 net.cpp:159] Memory required for data: 41575200
I0122 16:41:58.561367 56630 layer_factory.hpp:77] Creating layer drop1
I0122 16:41:58.561372 56630 net.cpp:94] Creating Layer drop1
I0122 16:41:58.561374 56630 net.cpp:435] drop1 <- pool1
I0122 16:41:58.561379 56630 net.cpp:409] drop1 -> drop1
I0122 16:41:58.561414 56630 net.cpp:144] Setting up drop1
I0122 16:41:58.561419 56630 net.cpp:151] Top shape: 50 32 16 16 (409600)
I0122 16:41:58.561422 56630 net.cpp:159] Memory required for data: 43213600
I0122 16:41:58.561425 56630 layer_factory.hpp:77] Creating layer conv3
I0122 16:41:58.561434 56630 net.cpp:94] Creating Layer conv3
I0122 16:41:58.561439 56630 net.cpp:435] conv3 <- drop1
I0122 16:41:58.561445 56630 net.cpp:409] conv3 -> conv3
I0122 16:41:58.562505 56630 net.cpp:144] Setting up conv3
I0122 16:41:58.562520 56630 net.cpp:151] Top shape: 50 64 16 16 (819200)
I0122 16:41:58.562523 56630 net.cpp:159] Memory required for data: 46490400
I0122 16:41:58.562536 56630 layer_factory.hpp:77] Creating layer bn3
I0122 16:41:58.562544 56630 net.cpp:94] Creating Layer bn3
I0122 16:41:58.562549 56630 net.cpp:435] bn3 <- conv3
I0122 16:41:58.562556 56630 net.cpp:409] bn3 -> scale3
I0122 16:41:58.563304 56630 net.cpp:144] Setting up bn3
I0122 16:41:58.563311 56630 net.cpp:151] Top shape: 50 64 16 16 (819200)
I0122 16:41:58.563315 56630 net.cpp:159] Memory required for data: 49767200
I0122 16:41:58.563328 56630 layer_factory.hpp:77] Creating layer relu3
I0122 16:41:58.563335 56630 net.cpp:94] Creating Layer relu3
I0122 16:41:58.563339 56630 net.cpp:435] relu3 <- scale3
I0122 16:41:58.563345 56630 net.cpp:409] relu3 -> relu3
I0122 16:41:58.563366 56630 net.cpp:144] Setting up relu3
I0122 16:41:58.563374 56630 net.cpp:151] Top shape: 50 64 16 16 (819200)
I0122 16:41:58.563377 56630 net.cpp:159] Memory required for data: 53044000
I0122 16:41:58.563381 56630 layer_factory.hpp:77] Creating layer conv4
I0122 16:41:58.563390 56630 net.cpp:94] Creating Layer conv4
I0122 16:41:58.563393 56630 net.cpp:435] conv4 <- relu3
I0122 16:41:58.563400 56630 net.cpp:409] conv4 -> conv4
I0122 16:41:58.563943 56630 net.cpp:144] Setting up conv4
I0122 16:41:58.563951 56630 net.cpp:151] Top shape: 50 64 16 16 (819200)
I0122 16:41:58.563954 56630 net.cpp:159] Memory required for data: 56320800
I0122 16:41:58.563959 56630 layer_factory.hpp:77] Creating layer bn4
I0122 16:41:58.563967 56630 net.cpp:94] Creating Layer bn4
I0122 16:41:58.563971 56630 net.cpp:435] bn4 <- conv4
I0122 16:41:58.563977 56630 net.cpp:409] bn4 -> scale4
I0122 16:41:58.564743 56630 net.cpp:144] Setting up bn4
I0122 16:41:58.564750 56630 net.cpp:151] Top shape: 50 64 16 16 (819200)
I0122 16:41:58.564754 56630 net.cpp:159] Memory required for data: 59597600
I0122 16:41:58.564762 56630 layer_factory.hpp:77] Creating layer relu4
I0122 16:41:58.564767 56630 net.cpp:94] Creating Layer relu4
I0122 16:41:58.564774 56630 net.cpp:435] relu4 <- scale4
I0122 16:41:58.564779 56630 net.cpp:409] relu4 -> relu4
I0122 16:41:58.564801 56630 net.cpp:144] Setting up relu4
I0122 16:41:58.564808 56630 net.cpp:151] Top shape: 50 64 16 16 (819200)
I0122 16:41:58.564812 56630 net.cpp:159] Memory required for data: 62874400
I0122 16:41:58.564815 56630 layer_factory.hpp:77] Creating layer pool2
I0122 16:41:58.564821 56630 net.cpp:94] Creating Layer pool2
I0122 16:41:58.564826 56630 net.cpp:435] pool2 <- relu4
I0122 16:41:58.564831 56630 net.cpp:409] pool2 -> pool2
I0122 16:41:58.564920 56630 net.cpp:144] Setting up pool2
I0122 16:41:58.564926 56630 net.cpp:151] Top shape: 50 64 8 8 (204800)
I0122 16:41:58.564929 56630 net.cpp:159] Memory required for data: 63693600
I0122 16:41:58.564934 56630 layer_factory.hpp:77] Creating layer drop2
I0122 16:41:58.564940 56630 net.cpp:94] Creating Layer drop2
I0122 16:41:58.564944 56630 net.cpp:435] drop2 <- pool2
I0122 16:41:58.564949 56630 net.cpp:409] drop2 -> drop2
I0122 16:41:58.564980 56630 net.cpp:144] Setting up drop2
I0122 16:41:58.564996 56630 net.cpp:151] Top shape: 50 64 8 8 (204800)
I0122 16:41:58.565001 56630 net.cpp:159] Memory required for data: 64512800
I0122 16:41:58.565004 56630 layer_factory.hpp:77] Creating layer fc1
I0122 16:41:58.565012 56630 net.cpp:94] Creating Layer fc1
I0122 16:41:58.565016 56630 net.cpp:435] fc1 <- drop2
I0122 16:41:58.565021 56630 net.cpp:409] fc1 -> fc1
I0122 16:41:58.578801 56630 net.cpp:144] Setting up fc1
I0122 16:41:58.578819 56630 net.cpp:151] Top shape: 50 512 (25600)
I0122 16:41:58.578822 56630 net.cpp:159] Memory required for data: 64615200
I0122 16:41:58.578830 56630 layer_factory.hpp:77] Creating layer bn5
I0122 16:41:58.578837 56630 net.cpp:94] Creating Layer bn5
I0122 16:41:58.578841 56630 net.cpp:435] bn5 <- fc1
I0122 16:41:58.578847 56630 net.cpp:409] bn5 -> scale5
I0122 16:41:58.579377 56630 net.cpp:144] Setting up bn5
I0122 16:41:58.579385 56630 net.cpp:151] Top shape: 50 512 (25600)
I0122 16:41:58.579387 56630 net.cpp:159] Memory required for data: 64717600
I0122 16:41:58.579399 56630 layer_factory.hpp:77] Creating layer relu5
I0122 16:41:58.579406 56630 net.cpp:94] Creating Layer relu5
I0122 16:41:58.579409 56630 net.cpp:435] relu5 <- scale5
I0122 16:41:58.579414 56630 net.cpp:409] relu5 -> relu5
I0122 16:41:58.579432 56630 net.cpp:144] Setting up relu5
I0122 16:41:58.579437 56630 net.cpp:151] Top shape: 50 512 (25600)
I0122 16:41:58.579439 56630 net.cpp:159] Memory required for data: 64820000
I0122 16:41:58.579442 56630 layer_factory.hpp:77] Creating layer drop3
I0122 16:41:58.579448 56630 net.cpp:94] Creating Layer drop3
I0122 16:41:58.579452 56630 net.cpp:435] drop3 <- relu5
I0122 16:41:58.579455 56630 net.cpp:409] drop3 -> drop3
I0122 16:41:58.579483 56630 net.cpp:144] Setting up drop3
I0122 16:41:58.579486 56630 net.cpp:151] Top shape: 50 512 (25600)
I0122 16:41:58.579489 56630 net.cpp:159] Memory required for data: 64922400
I0122 16:41:58.579491 56630 layer_factory.hpp:77] Creating layer fc2
I0122 16:41:58.579499 56630 net.cpp:94] Creating Layer fc2
I0122 16:41:58.579504 56630 net.cpp:435] fc2 <- drop3
I0122 16:41:58.579507 56630 net.cpp:409] fc2 -> fc2
I0122 16:41:58.579636 56630 net.cpp:144] Setting up fc2
I0122 16:41:58.579643 56630 net.cpp:151] Top shape: 50 10 (500)
I0122 16:41:58.579644 56630 net.cpp:159] Memory required for data: 64924400
I0122 16:41:58.579649 56630 layer_factory.hpp:77] Creating layer fc2_fc2_0_split
I0122 16:41:58.579654 56630 net.cpp:94] Creating Layer fc2_fc2_0_split
I0122 16:41:58.579658 56630 net.cpp:435] fc2_fc2_0_split <- fc2
I0122 16:41:58.579663 56630 net.cpp:409] fc2_fc2_0_split -> fc2_fc2_0_split_0
I0122 16:41:58.579668 56630 net.cpp:409] fc2_fc2_0_split -> fc2_fc2_0_split_1
I0122 16:41:58.579674 56630 net.cpp:409] fc2_fc2_0_split -> fc2_fc2_0_split_2
I0122 16:41:58.579710 56630 net.cpp:144] Setting up fc2_fc2_0_split
I0122 16:41:58.579715 56630 net.cpp:151] Top shape: 50 10 (500)
I0122 16:41:58.579720 56630 net.cpp:151] Top shape: 50 10 (500)
I0122 16:41:58.579722 56630 net.cpp:151] Top shape: 50 10 (500)
I0122 16:41:58.579725 56630 net.cpp:159] Memory required for data: 64930400
I0122 16:41:58.579728 56630 layer_factory.hpp:77] Creating layer loss
I0122 16:41:58.579733 56630 net.cpp:94] Creating Layer loss
I0122 16:41:58.579737 56630 net.cpp:435] loss <- fc2_fc2_0_split_0
I0122 16:41:58.579741 56630 net.cpp:435] loss <- label_data_1_split_0
I0122 16:41:58.579746 56630 net.cpp:409] loss -> loss
…
