…
I0122 16:22:33.296450 45517 net.cpp:323] The NetState phase (0) differed from the phase (1) specified by a rule in layer accuracy-top1
I0122 16:22:33.296452 45517 net.cpp:323] The NetState phase (0) differed from the phase (1) specified by a rule in layer accuracy-top5
I0122 16:22:33.296615 45517 net.cpp:52] Initializing net from parameters: 
state {
  phase: TRAIN
}
layer {
  name: "data"
  type: "Data"
  top: "data"
  top: "label"
  include {
    phase: TRAIN
  }
  transform_param {
    mirror: true
    mean_value: 125
    mean_value: 123
    mean_value: 114
  }
  data_param {
    source: "cifar10/input/lmdb/train_lmdb"
    batch_size: 128
    backend: LMDB
  }
}
layer {
  name: "conv1"
  type: "Convolution"
  bottom: "data"
  top: "conv1"
  param {
    lr_mult: 1
    decay_mult: 1
    compression: PRUNE
  }
  param {
    lr_mult: 2
    decay_mult: 0
    compression: PRUNE
  }
  convolution_param {
    num_output: 32
    pad: 1
    kernel_size: 3
    stride: 1
    weight_filler {
      type: "xavier"
    }
    bias_filler {
      type: "constant"
      value: 0
    }
  }
}
layer {
  name: "bn1"
  type: "BatchNorm"
  bottom: "conv1"
  top: "scale1"
  param {
    lr_mult: 1
    decay_mult: 0
    compression: PRUNE
  }
  param {
    lr_mult: 1
    decay_mult: 0
    compression: PRUNE
  }
  param {
    lr_mult: 0
    decay_mult: 0
    compression: PRUNE
  }
  param {
    lr_mult: 0
    decay_mult: 0
    compression: PRUNE
  }
  batch_norm_param {
    use_global_stats: false
    scale_filler {
      type: "constant"
      value: 1
    }
    bias_filler {
      type: "constant"
      value: 0
    }
  }
}
layer {
  name: "relu1"
  type: "ReLU"
  bottom: "scale1"
  top: "relu1"
}
layer {
  name: "conv2"
  type: "Convolution"
  bottom: "relu1"
  top: "conv2"
  param {
    lr_mult: 1
    decay_mult: 1
    compression: PRUNE
  }
  param {
    lr_mult: 2
    decay_mult: 0
    compression: PRUNE
  }
  convolution_param {
    num_output: 32
    pad: 1
    kernel_size: 3
    stride: 1
    weight_filler {
      type: "xavier"
    }
    bias_filler {
      type: "constant"
      value: 0
    }
  }
}
layer {
  name: "bn2"
  type: "BatchNorm"
  bottom: "conv2"
  top: "scale2"
  param {
    lr_mult: 1
    decay_mult: 0
    compression: PRUNE
  }
  param {
    lr_mult: 1
    decay_mult: 0
    compression: PRUNE
  }
  param {
    lr_mult: 0
    decay_mult: 0
    compression: PRUNE
  }
  param {
    lr_mult: 0
    decay_mult: 0
    compression: PRUNE
  }
  batch_norm_param {
    use_global_stats: false
    scale_filler {
      type: "constant"
      value: 1
    }
    bias_filler {
      type: "constant"
      value: 0
    }
  }
}
layer {
  name: "relu2"
  type: "ReLU"
  bottom: "scale2"
  top: "relu2"
}
layer {
  name: "pool1"
  type: "Pooling"
  bottom: "relu2"
  top: "pool1"
  pooling_param {
    pool: MAX
    kernel_size: 2
    stride: 2
  }
}
layer {
  name: "drop1"
  type: "Dropout"
  bottom: "pool1"
  top: "drop1"
  dropout_param {
    dropout_ratio: 0.25
  }
}
layer {
  name: "conv3"
  type: "Convolution"
  bottom: "drop1"
  top: "conv3"
  param {
    lr_mult: 1
    decay_mult: 1
    compression: PRUNE
  }
  param {
    lr_mult: 2
    decay_mult: 0
    compression: PRUNE
  }
  convolution_param {
    num_output: 64
    pad: 1
    kernel_size: 3
    stride: 1
    weight_filler {
      type: "xavier"
    }
    bias_filler {
      type: "constant"
      value: 0
    }
  }
}
layer {
  name: "bn3"
  type: "BatchNorm"
  bottom: "conv3"
  top: "scale3"
  param {
    lr_mult: 1
    decay_mult: 0
    compression: PRUNE
  }
  param {
    lr_mult: 1
    decay_mult: 0
    compression: PRUNE
  }
  param {
    lr_mult: 0
    decay_mult: 0
    compression: PRUNE
  }
  param {
    lr_mult: 0
    decay_mult: 0
    compression: PRUNE
  }
  batch_norm_param {
    use_global_stats: false
    scale_filler {
      type: "constant"
      value: 1
    }
    bias_filler {
      type: "constant"
      value: 0
    }
  }
}
layer {
  name: "relu3"
  type: "ReLU"
  bottom: "scale3"
  top: "relu3"
}
layer {
  name: "conv4"
  type: "Convolution"
  bottom: "relu3"
  top: "conv4"
  param {
    lr_mult: 1
    decay_mult: 1
    compression: PRUNE
  }
  param {
    lr_mult: 2
    decay_mult: 0
    compression: PRUNE
  }
  convolution_param {
    num_output: 64
    pad: 1
    kernel_size: 3
    stride: 1
    weight_filler {
      type: "xavier"
    }
    bias_filler {
      type: "constant"
      value: 0
    }
  }
}
layer {
  name: "bn4"
  type: "BatchNorm"
  bottom: "conv4"
  top: "scale4"
  param {
    lr_mult: 1
    decay_mult: 0
    compression: PRUNE
  }
  param {
    lr_mult: 1
    decay_mult: 0
    compression: PRUNE
  }
  param {
    lr_mult: 0
    decay_mult: 0
    compression: PRUNE
  }
  param {
    lr_mult: 0
    decay_mult: 0
    compression: PRUNE
  }
  batch_norm_param {
    use_global_stats: false
    scale_filler {
      type: "constant"
      value: 1
    }
    bias_filler {
      type: "constant"
      value: 0
    }
  }
}
layer {
  name: "relu4"
  type: "ReLU"
  bottom: "scale4"
  top: "relu4"
}
layer {
  name: "pool2"
  type: "Pooling"
  bottom: "relu4"
  top: "pool2"
  pooling_param {
    pool: MAX
    kernel_size: 2
    stride: 2
  }
}
layer {
  name: "drop2"
  type: "Dropout"
  bottom: "pool2"
  top: "drop2"
  dropout_param {
    dropout_ratio: 0.25
  }
}
layer {
  name: "fc1"
  type: "InnerProduct"
  bottom: "drop2"
  top: "fc1"
  param {
    lr_mult: 1
    decay_mult: 1
  }
  param {
    lr_mult: 2
    decay_mult: 0
  }
  inner_product_param {
    num_output: 512
    weight_filler {
      type: "xavier"
    }
    bias_filler {
      type: "constant"
      value: 1
    }
  }
}
layer {
  name: "bn5"
  type: "BatchNorm"
  bottom: "fc1"
  top: "scale5"
  param {
    lr_mult: 1
    decay_mult: 0
    compression: PRUNE
  }
  param {
    lr_mult: 1
    decay_mult: 0
    compression: PRUNE
  }
  param {
    lr_mult: 0
    decay_mult: 0
    compression: PRUNE
  }
  param {
    lr_mult: 0
    decay_mult: 0
    compression: PRUNE
  }
  batch_norm_param {
    use_global_stats: false
    scale_filler {
      type: "constant"
      value: 1
    }
    bias_filler {
      type: "constant"
      value: 0
    }
  }
}
layer {
  name: "relu5"
  type: "ReLU"
  bottom: "scale5"
  top: "relu5"
}
layer {
  name: "drop3"
  type: "Dropout"
  bottom: "relu5"
  top: "drop3"
  dropout_param {
    dropout_ratio: 0.5
  }
}
layer {
  name: "fc2"
  type: "InnerProduct"
  bottom: "drop3"
  top: "fc2"
  param {
    lr_mult: 1
    decay_mult: 1
  }
  param {
    lr_mult: 2
    decay_mult: 0
  }
  inner_product_param {
    num_output: 10
    weight_filler {
      type: "xavier"
    }
    bias_filler {
      type: "constant"
      value: 1
    }
  }
}
layer {
  name: "loss"
  type: "SoftmaxWithLoss"
  bottom: "fc2"
  bottom: "label"
  top: "loss"
}
I0122 16:22:33.296685 45517 layer_factory.hpp:77] Creating layer data
I0122 16:22:33.296774 45517 internal_thread.cpp:27] Starting internal thread(s) on GPU 0
I0122 16:22:33.297201 45517 net.cpp:94] Creating Layer data
I0122 16:22:33.297211 45517 net.cpp:409] data -> data
I0122 16:22:33.297236 45517 net.cpp:409] data -> label
I0122 16:22:33.298705 45556 db_lmdb.cpp:35] Opened lmdb cifar10/input/lmdb/train_lmdb
I0122 16:22:33.298753 45556 data_reader.cpp:117] TRAIN: reading data using 1 channel(s)
I0122 16:22:33.298840 45517 data_layer.cpp:78] ReshapePrefetch 128, 3, 32, 32
I0122 16:22:33.298921 45517 data_layer.cpp:83] output data size: 128,3,32,32
I0122 16:22:33.306414 45517 internal_thread.cpp:27] Starting internal thread(s) on GPU 0
I0122 16:22:33.306481 45517 net.cpp:144] Setting up data
I0122 16:22:33.306489 45517 net.cpp:151] Top shape: 128 3 32 32 (393216)
I0122 16:22:33.306493 45517 net.cpp:151] Top shape: 128 (128)
I0122 16:22:33.306496 45517 net.cpp:159] Memory required for data: 1573376
I0122 16:22:33.306501 45517 layer_factory.hpp:77] Creating layer conv1
I0122 16:22:33.306515 45517 net.cpp:94] Creating Layer conv1
I0122 16:22:33.306521 45517 net.cpp:435] conv1 <- data
I0122 16:22:33.306537 45517 net.cpp:409] conv1 -> conv1
I0122 16:22:33.307565 45517 net.cpp:144] Setting up conv1
I0122 16:22:33.307576 45517 net.cpp:151] Top shape: 128 32 32 32 (4194304)
I0122 16:22:33.307579 45517 net.cpp:159] Memory required for data: 18350592
I0122 16:22:33.307595 45517 layer_factory.hpp:77] Creating layer bn1
I0122 16:22:33.307605 45517 net.cpp:94] Creating Layer bn1
I0122 16:22:33.307608 45517 net.cpp:435] bn1 <- conv1
I0122 16:22:33.307613 45517 net.cpp:409] bn1 -> scale1
I0122 16:22:33.308192 45517 net.cpp:144] Setting up bn1
I0122 16:22:33.308199 45517 net.cpp:151] Top shape: 128 32 32 32 (4194304)
I0122 16:22:33.308202 45517 net.cpp:159] Memory required for data: 35127808
I0122 16:22:33.308212 45517 layer_factory.hpp:77] Creating layer relu1
I0122 16:22:33.308220 45517 net.cpp:94] Creating Layer relu1
I0122 16:22:33.308223 45517 net.cpp:435] relu1 <- scale1
I0122 16:22:33.308228 45517 net.cpp:409] relu1 -> relu1
I0122 16:22:33.308248 45517 net.cpp:144] Setting up relu1
I0122 16:22:33.308254 45517 net.cpp:151] Top shape: 128 32 32 32 (4194304)
I0122 16:22:33.308257 45517 net.cpp:159] Memory required for data: 51905024
I0122 16:22:33.308259 45517 layer_factory.hpp:77] Creating layer conv2
I0122 16:22:33.308267 45517 net.cpp:94] Creating Layer conv2
I0122 16:22:33.308272 45517 net.cpp:435] conv2 <- relu1
I0122 16:22:33.308277 45517 net.cpp:409] conv2 -> conv2
I0122 16:22:33.309762 45517 net.cpp:144] Setting up conv2
I0122 16:22:33.309772 45517 net.cpp:151] Top shape: 128 32 32 32 (4194304)
I0122 16:22:33.309777 45517 net.cpp:159] Memory required for data: 68682240
I0122 16:22:33.309783 45517 layer_factory.hpp:77] Creating layer bn2
I0122 16:22:33.309792 45517 net.cpp:94] Creating Layer bn2
I0122 16:22:33.309795 45517 net.cpp:435] bn2 <- conv2
I0122 16:22:33.309803 45517 net.cpp:409] bn2 -> scale2
I0122 16:22:33.310590 45517 net.cpp:144] Setting up bn2
I0122 16:22:33.310597 45517 net.cpp:151] Top shape: 128 32 32 32 (4194304)
I0122 16:22:33.310600 45517 net.cpp:159] Memory required for data: 85459456
I0122 16:22:33.310609 45517 layer_factory.hpp:77] Creating layer relu2
I0122 16:22:33.310614 45517 net.cpp:94] Creating Layer relu2
I0122 16:22:33.310617 45517 net.cpp:435] relu2 <- scale2
I0122 16:22:33.310621 45517 net.cpp:409] relu2 -> relu2
I0122 16:22:33.310659 45517 net.cpp:144] Setting up relu2
I0122 16:22:33.310665 45517 net.cpp:151] Top shape: 128 32 32 32 (4194304)
I0122 16:22:33.310668 45517 net.cpp:159] Memory required for data: 102236672
I0122 16:22:33.310672 45517 layer_factory.hpp:77] Creating layer pool1
I0122 16:22:33.310678 45517 net.cpp:94] Creating Layer pool1
I0122 16:22:33.310680 45517 net.cpp:435] pool1 <- relu2
I0122 16:22:33.310684 45517 net.cpp:409] pool1 -> pool1
I0122 16:22:33.310722 45517 net.cpp:144] Setting up pool1
I0122 16:22:33.310729 45517 net.cpp:151] Top shape: 128 32 16 16 (1048576)
I0122 16:22:33.310731 45517 net.cpp:159] Memory required for data: 106430976
I0122 16:22:33.310734 45517 layer_factory.hpp:77] Creating layer drop1
I0122 16:22:33.310739 45517 net.cpp:94] Creating Layer drop1
I0122 16:22:33.310748 45517 net.cpp:435] drop1 <- pool1
I0122 16:22:33.310766 45517 net.cpp:409] drop1 -> drop1
I0122 16:22:33.310927 45517 net.cpp:144] Setting up drop1
I0122 16:22:33.310933 45517 net.cpp:151] Top shape: 128 32 16 16 (1048576)
I0122 16:22:33.310936 45517 net.cpp:159] Memory required for data: 110625280
I0122 16:22:33.310940 45517 layer_factory.hpp:77] Creating layer conv3
I0122 16:22:33.310946 45517 net.cpp:94] Creating Layer conv3
I0122 16:22:33.310950 45517 net.cpp:435] conv3 <- drop1
I0122 16:22:33.310955 45517 net.cpp:409] conv3 -> conv3
I0122 16:22:33.311975 45517 net.cpp:144] Setting up conv3
I0122 16:22:33.311987 45517 net.cpp:151] Top shape: 128 64 16 16 (2097152)
I0122 16:22:33.311990 45517 net.cpp:159] Memory required for data: 119013888
I0122 16:22:33.311997 45517 layer_factory.hpp:77] Creating layer bn3
I0122 16:22:33.312005 45517 net.cpp:94] Creating Layer bn3
I0122 16:22:33.312021 45517 net.cpp:435] bn3 <- conv3
I0122 16:22:33.312026 45517 net.cpp:409] bn3 -> scale3
I0122 16:22:33.312649 45517 net.cpp:144] Setting up bn3
I0122 16:22:33.312656 45517 net.cpp:151] Top shape: 128 64 16 16 (2097152)
I0122 16:22:33.312659 45517 net.cpp:159] Memory required for data: 127402496
I0122 16:22:33.312670 45517 layer_factory.hpp:77] Creating layer relu3
I0122 16:22:33.312678 45517 net.cpp:94] Creating Layer relu3
I0122 16:22:33.312681 45517 net.cpp:435] relu3 <- scale3
I0122 16:22:33.312687 45517 net.cpp:409] relu3 -> relu3
I0122 16:22:33.312705 45517 net.cpp:144] Setting up relu3
I0122 16:22:33.312711 45517 net.cpp:151] Top shape: 128 64 16 16 (2097152)
I0122 16:22:33.312714 45517 net.cpp:159] Memory required for data: 135791104
I0122 16:22:33.312717 45517 layer_factory.hpp:77] Creating layer conv4
I0122 16:22:33.312724 45517 net.cpp:94] Creating Layer conv4
I0122 16:22:33.312731 45517 net.cpp:435] conv4 <- relu3
I0122 16:22:33.312736 45517 net.cpp:409] conv4 -> conv4
I0122 16:22:33.313149 45517 net.cpp:144] Setting up conv4
I0122 16:22:33.313156 45517 net.cpp:151] Top shape: 128 64 16 16 (2097152)
I0122 16:22:33.313159 45517 net.cpp:159] Memory required for data: 144179712
I0122 16:22:33.313164 45517 layer_factory.hpp:77] Creating layer bn4
I0122 16:22:33.313170 45517 net.cpp:94] Creating Layer bn4
I0122 16:22:33.313174 45517 net.cpp:435] bn4 <- conv4
I0122 16:22:33.313179 45517 net.cpp:409] bn4 -> scale4
I0122 16:22:33.313822 45517 net.cpp:144] Setting up bn4
I0122 16:22:33.313827 45517 net.cpp:151] Top shape: 128 64 16 16 (2097152)
I0122 16:22:33.313830 45517 net.cpp:159] Memory required for data: 152568320
I0122 16:22:33.313839 45517 layer_factory.hpp:77] Creating layer relu4
I0122 16:22:33.313844 45517 net.cpp:94] Creating Layer relu4
I0122 16:22:33.313848 45517 net.cpp:435] relu4 <- scale4
I0122 16:22:33.313851 45517 net.cpp:409] relu4 -> relu4
I0122 16:22:33.313884 45517 net.cpp:144] Setting up relu4
I0122 16:22:33.313890 45517 net.cpp:151] Top shape: 128 64 16 16 (2097152)
I0122 16:22:33.313892 45517 net.cpp:159] Memory required for data: 160956928
I0122 16:22:33.313895 45517 layer_factory.hpp:77] Creating layer pool2
I0122 16:22:33.313901 45517 net.cpp:94] Creating Layer pool2
I0122 16:22:33.313910 45517 net.cpp:435] pool2 <- relu4
I0122 16:22:33.313915 45517 net.cpp:409] pool2 -> pool2
I0122 16:22:33.313944 45517 net.cpp:144] Setting up pool2
I0122 16:22:33.313951 45517 net.cpp:151] Top shape: 128 64 8 8 (524288)
I0122 16:22:33.313954 45517 net.cpp:159] Memory required for data: 163054080
I0122 16:22:33.313956 45517 layer_factory.hpp:77] Creating layer drop2
I0122 16:22:33.313963 45517 net.cpp:94] Creating Layer drop2
I0122 16:22:33.313966 45517 net.cpp:435] drop2 <- pool2
I0122 16:22:33.313972 45517 net.cpp:409] drop2 -> drop2
I0122 16:22:33.313997 45517 net.cpp:144] Setting up drop2
I0122 16:22:33.314002 45517 net.cpp:151] Top shape: 128 64 8 8 (524288)
I0122 16:22:33.314007 45517 net.cpp:159] Memory required for data: 165151232
I0122 16:22:33.314008 45517 layer_factory.hpp:77] Creating layer fc1
I0122 16:22:33.314015 45517 net.cpp:94] Creating Layer fc1
I0122 16:22:33.314018 45517 net.cpp:435] fc1 <- drop2
I0122 16:22:33.314023 45517 net.cpp:409] fc1 -> fc1
I0122 16:22:33.328212 45517 net.cpp:144] Setting up fc1
I0122 16:22:33.328229 45517 net.cpp:151] Top shape: 128 512 (65536)
I0122 16:22:33.328243 45517 net.cpp:159] Memory required for data: 165413376
I0122 16:22:33.328253 45517 layer_factory.hpp:77] Creating layer bn5
I0122 16:22:33.328260 45517 net.cpp:94] Creating Layer bn5
I0122 16:22:33.328264 45517 net.cpp:435] bn5 <- fc1
I0122 16:22:33.328271 45517 net.cpp:409] bn5 -> scale5
I0122 16:22:33.328819 45517 net.cpp:144] Setting up bn5
I0122 16:22:33.328824 45517 net.cpp:151] Top shape: 128 512 (65536)
I0122 16:22:33.328828 45517 net.cpp:159] Memory required for data: 165675520
I0122 16:22:33.328840 45517 layer_factory.hpp:77] Creating layer relu5
I0122 16:22:33.328848 45517 net.cpp:94] Creating Layer relu5
I0122 16:22:33.328851 45517 net.cpp:435] relu5 <- scale5
I0122 16:22:33.328856 45517 net.cpp:409] relu5 -> relu5
I0122 16:22:33.328874 45517 net.cpp:144] Setting up relu5
I0122 16:22:33.328881 45517 net.cpp:151] Top shape: 128 512 (65536)
I0122 16:22:33.328883 45517 net.cpp:159] Memory required for data: 165937664
I0122 16:22:33.328886 45517 layer_factory.hpp:77] Creating layer drop3
I0122 16:22:33.328891 45517 net.cpp:94] Creating Layer drop3
I0122 16:22:33.328896 45517 net.cpp:435] drop3 <- relu5
I0122 16:22:33.328900 45517 net.cpp:409] drop3 -> drop3
I0122 16:22:33.328928 45517 net.cpp:144] Setting up drop3
I0122 16:22:33.328934 45517 net.cpp:151] Top shape: 128 512 (65536)
I0122 16:22:33.328938 45517 net.cpp:159] Memory required for data: 166199808
I0122 16:22:33.328939 45517 layer_factory.hpp:77] Creating layer fc2
I0122 16:22:33.328945 45517 net.cpp:94] Creating Layer fc2
I0122 16:22:33.328948 45517 net.cpp:435] fc2 <- drop3
I0122 16:22:33.328953 45517 net.cpp:409] fc2 -> fc2
I0122 16:22:33.329108 45517 net.cpp:144] Setting up fc2
I0122 16:22:33.329114 45517 net.cpp:151] Top shape: 128 10 (1280)
I0122 16:22:33.329116 45517 net.cpp:159] Memory required for data: 166204928
I0122 16:22:33.329123 45517 layer_factory.hpp:77] Creating layer loss
I0122 16:22:33.329128 45517 net.cpp:94] Creating Layer loss
I0122 16:22:33.329130 45517 net.cpp:435] loss <- fc2
I0122 16:22:33.329134 45517 net.cpp:435] loss <- label
I0122 16:22:33.329139 45517 net.cpp:409] loss -> loss
I0122 16:22:33.329147 45517 layer_factory.hpp:77] Creating layer loss
…
I0122 16:22:33.330370 45517 solver.cpp:189] Creating test net (#0) specified by net file: cifar10/deephi/miniVggNet/pruning/regular_rate_0/net_finetune.prototxt
I0122 16:22:33.330406 45517 net.cpp:323] The NetState phase (1) differed from the phase (0) specified by a rule in layer data
I0122 16:22:33.330605 45517 net.cpp:52] Initializing net from parameters: 
state {
  phase: TEST
}
layer {
  name: "data"
  type: "Data"
  top: "data"
  top: "label"
  include {
    phase: TEST
  }
  transform_param {
    mirror: false
    mean_value: 125
    mean_value: 123
    mean_value: 114
  }
  data_param {
    source: "cifar10/input/lmdb/valid_lmdb"
    batch_size: 50
    backend: LMDB
  }
}
layer {
  name: "conv1"
  type: "Convolution"
  bottom: "data"
  top: "conv1"
  param {
    lr_mult: 1
    decay_mult: 1
    compression: PRUNE
  }
  param {
    lr_mult: 2
    decay_mult: 0
    compression: PRUNE
  }
  convolution_param {
    num_output: 32
    pad: 1
    kernel_size: 3
    stride: 1
    weight_filler {
      type: "xavier"
    }
    bias_filler {
      type: "constant"
      value: 0
    }
  }
}
layer {
  name: "bn1"
  type: "BatchNorm"
  bottom: "conv1"
  top: "scale1"
  param {
    lr_mult: 1
    decay_mult: 0
    compression: PRUNE
  }
  param {
    lr_mult: 1
    decay_mult: 0
    compression: PRUNE
  }
  param {
    lr_mult: 0
    decay_mult: 0
    compression: PRUNE
  }
  param {
    lr_mult: 0
    decay_mult: 0
    compression: PRUNE
  }
  batch_norm_param {
    use_global_stats: false
    scale_filler {
      type: "constant"
      value: 1
    }
    bias_filler {
      type: "constant"
      value: 0
    }
  }
}
layer {
  name: "relu1"
  type: "ReLU"
  bottom: "scale1"
  top: "relu1"
}
layer {
  name: "conv2"
  type: "Convolution"
  bottom: "relu1"
  top: "conv2"
  param {
    lr_mult: 1
    decay_mult: 1
    compression: PRUNE
  }
  param {
    lr_mult: 2
    decay_mult: 0
    compression: PRUNE
  }
  convolution_param {
    num_output: 32
    pad: 1
    kernel_size: 3
    stride: 1
    weight_filler {
      type: "xavier"
    }
    bias_filler {
      type: "constant"
      value: 0
    }
  }
}
layer {
  name: "bn2"
  type: "BatchNorm"
  bottom: "conv2"
  top: "scale2"
  param {
    lr_mult: 1
    decay_mult: 0
    compression: PRUNE
  }
  param {
    lr_mult: 1
    decay_mult: 0
    compression: PRUNE
  }
  param {
    lr_mult: 0
    decay_mult: 0
    compression: PRUNE
  }
  param {
    lr_mult: 0
    decay_mult: 0
    compression: PRUNE
  }
  batch_norm_param {
    use_global_stats: false
    scale_filler {
      type: "constant"
      value: 1
    }
    bias_filler {
      type: "constant"
      value: 0
    }
  }
}
layer {
  name: "relu2"
  type: "ReLU"
  bottom: "scale2"
  top: "relu2"
}
layer {
  name: "pool1"
  type: "Pooling"
  bottom: "relu2"
  top: "pool1"
  pooling_param {
    pool: MAX
    kernel_size: 2
    stride: 2
  }
}
layer {
  name: "drop1"
  type: "Dropout"
  bottom: "pool1"
  top: "drop1"
  dropout_param {
    dropout_ratio: 0.25
  }
}
layer {
  name: "conv3"
  type: "Convolution"
  bottom: "drop1"
  top: "conv3"
  param {
    lr_mult: 1
    decay_mult: 1
    compression: PRUNE
  }
  param {
    lr_mult: 2
    decay_mult: 0
    compression: PRUNE
  }
  convolution_param {
    num_output: 64
    pad: 1
    kernel_size: 3
    stride: 1
    weight_filler {
      type: "xavier"
    }
    bias_filler {
      type: "constant"
      value: 0
    }
  }
}
layer {
  name: "bn3"
  type: "BatchNorm"
  bottom: "conv3"
  top: "scale3"
  param {
    lr_mult: 1
    decay_mult: 0
    compression: PRUNE
  }
  param {
    lr_mult: 1
    decay_mult: 0
    compression: PRUNE
  }
  param {
    lr_mult: 0
    decay_mult: 0
    compression: PRUNE
  }
  param {
    lr_mult: 0
    decay_mult: 0
    compression: PRUNE
  }
  batch_norm_param {
    use_global_stats: false
    scale_filler {
      type: "constant"
      value: 1
    }
    bias_filler {
      type: "constant"
      value: 0
    }
  }
}
layer {
  name: "relu3"
  type: "ReLU"
  bottom: "scale3"
  top: "relu3"
}
layer {
  name: "conv4"
  type: "Convolution"
  bottom: "relu3"
  top: "conv4"
  param {
    lr_mult: 1
    decay_mult: 1
    compression: PRUNE
  }
  param {
    lr_mult: 2
    decay_mult: 0
    compression: PRUNE
  }
  convolution_param {
    num_output: 64
    pad: 1
    kernel_size: 3
    stride: 1
    weight_filler {
      type: "xavier"
    }
    bias_filler {
      type: "constant"
      value: 0
    }
  }
}
layer {
  name: "bn4"
  type: "BatchNorm"
  bottom: "conv4"
  top: "scale4"
  param {
    lr_mult: 1
    decay_mult: 0
    compression: PRUNE
  }
  param {
    lr_mult: 1
    decay_mult: 0
    compression: PRUNE
  }
  param {
    lr_mult: 0
    decay_mult: 0
    compression: PRUNE
  }
  param {
    lr_mult: 0
    decay_mult: 0
    compression: PRUNE
  }
  batch_norm_param {
    use_global_stats: false
    scale_filler {
      type: "constant"
      value: 1
    }
    bias_filler {
      type: "constant"
      value: 0
    }
  }
}
layer {
  name: "relu4"
  type: "ReLU"
  bottom: "scale4"
  top: "relu4"
}
layer {
  name: "pool2"
  type: "Pooling"
  bottom: "relu4"
  top: "pool2"
  pooling_param {
    pool: MAX
    kernel_size: 2
    stride: 2
  }
}
layer {
  name: "drop2"
  type: "Dropout"
  bottom: "pool2"
  top: "drop2"
  dropout_param {
    dropout_ratio: 0.25
  }
}
layer {
  name: "fc1"
  type: "InnerProduct"
  bottom: "drop2"
  top: "fc1"
  param {
    lr_mult: 1
    decay_mult: 1
  }
  param {
    lr_mult: 2
    decay_mult: 0
  }
  inner_product_param {
    num_output: 512
    weight_filler {
      type: "xavier"
    }
    bias_filler {
      type: "constant"
      value: 1
    }
  }
}
layer {
  name: "bn5"
  type: "BatchNorm"
  bottom: "fc1"
  top: "scale5"
  param {
    lr_mult: 1
    decay_mult: 0
    compression: PRUNE
  }
  param {
    lr_mult: 1
    decay_mult: 0
    compression: PRUNE
  }
  param {
    lr_mult: 0
    decay_mult: 0
    compression: PRUNE
  }
  param {
    lr_mult: 0
    decay_mult: 0
    compression: PRUNE
  }
  batch_norm_param {
    use_global_stats: false
    scale_filler {
      type: "constant"
      value: 1
    }
    bias_filler {
      type: "constant"
      value: 0
    }
  }
}
layer {
  name: "relu5"
  type: "ReLU"
  bottom: "scale5"
  top: "relu5"
}
layer {
  name: "drop3"
  type: "Dropout"
  bottom: "relu5"
  top: "drop3"
  dropout_param {
    dropout_ratio: 0.5
  }
}
layer {
  name: "fc2"
  type: "InnerProduct"
  bottom: "drop3"
  top: "fc2"
  param {
    lr_mult: 1
    decay_mult: 1
  }
  param {
    lr_mult: 2
    decay_mult: 0
  }
  inner_product_param {
    num_output: 10
    weight_filler {
      type: "xavier"
    }
    bias_filler {
      type: "constant"
      value: 1
    }
  }
}
layer {
  name: "loss"
  type: "SoftmaxWithLoss"
  bottom: "fc2"
  bottom: "label"
  top: "loss"
}
layer {
  name: "accuracy-top1"
  type: "Accuracy"
  bottom: "fc2"
  bottom: "label"
  top: "top-1"
  include {
    phase: TEST
  }
}
layer {
  name: "accuracy-top5"
  type: "Accuracy"
  bottom: "fc2"
  bottom: "label"
  top: "top-5"
  include {
    phase: TEST
  }
  accuracy_param {
    top_k: 5
  }
}
I0122 16:22:33.330704 45517 layer_factory.hpp:77] Creating layer data
I0122 16:22:33.330744 45517 internal_thread.cpp:27] Starting internal thread(s) on GPU 0
I0122 16:22:33.332033 45517 net.cpp:94] Creating Layer data
I0122 16:22:33.332059 45517 net.cpp:409] data -> data
I0122 16:22:33.332077 45517 net.cpp:409] data -> label
I0122 16:22:33.332763 45586 db_lmdb.cpp:35] Opened lmdb cifar10/input/lmdb/valid_lmdb
I0122 16:22:33.332806 45586 data_reader.cpp:117] TEST: reading data using 1 channel(s)
I0122 16:22:33.332937 45517 data_layer.cpp:78] ReshapePrefetch 50, 3, 32, 32
I0122 16:22:33.333106 45517 data_layer.cpp:83] output data size: 50,3,32,32
I0122 16:22:33.338877 45517 internal_thread.cpp:27] Starting internal thread(s) on GPU 0
I0122 16:22:33.338958 45517 net.cpp:144] Setting up data
I0122 16:22:33.338973 45517 net.cpp:151] Top shape: 50 3 32 32 (153600)
I0122 16:22:33.338984 45517 net.cpp:151] Top shape: 50 (50)
I0122 16:22:33.338989 45517 net.cpp:159] Memory required for data: 614600
I0122 16:22:33.338999 45517 layer_factory.hpp:77] Creating layer label_data_1_split
I0122 16:22:33.339015 45517 net.cpp:94] Creating Layer label_data_1_split
I0122 16:22:33.339022 45517 net.cpp:435] label_data_1_split <- label
I0122 16:22:33.339033 45517 net.cpp:409] label_data_1_split -> label_data_1_split_0
I0122 16:22:33.339051 45517 net.cpp:409] label_data_1_split -> label_data_1_split_1
I0122 16:22:33.339063 45517 net.cpp:409] label_data_1_split -> label_data_1_split_2
I0122 16:22:33.339241 45517 net.cpp:144] Setting up label_data_1_split
I0122 16:22:33.339251 45517 net.cpp:151] Top shape: 50 (50)
I0122 16:22:33.339259 45517 net.cpp:151] Top shape: 50 (50)
I0122 16:22:33.339265 45517 net.cpp:151] Top shape: 50 (50)
I0122 16:22:33.339272 45517 net.cpp:159] Memory required for data: 615200
I0122 16:22:33.339277 45517 layer_factory.hpp:77] Creating layer conv1
I0122 16:22:33.339294 45517 net.cpp:94] Creating Layer conv1
I0122 16:22:33.339303 45517 net.cpp:435] conv1 <- data
I0122 16:22:33.339311 45517 net.cpp:409] conv1 -> conv1
I0122 16:22:33.339798 45517 net.cpp:144] Setting up conv1
I0122 16:22:33.339812 45517 net.cpp:151] Top shape: 50 32 32 32 (1638400)
I0122 16:22:33.339817 45517 net.cpp:159] Memory required for data: 7168800
I0122 16:22:33.339833 45517 layer_factory.hpp:77] Creating layer bn1
I0122 16:22:33.339846 45517 net.cpp:94] Creating Layer bn1
I0122 16:22:33.339855 45517 net.cpp:435] bn1 <- conv1
I0122 16:22:33.339864 45517 net.cpp:409] bn1 -> scale1
I0122 16:22:33.341538 45517 net.cpp:144] Setting up bn1
I0122 16:22:33.341552 45517 net.cpp:151] Top shape: 50 32 32 32 (1638400)
I0122 16:22:33.341558 45517 net.cpp:159] Memory required for data: 13722400
I0122 16:22:33.341583 45517 layer_factory.hpp:77] Creating layer relu1
I0122 16:22:33.341594 45517 net.cpp:94] Creating Layer relu1
I0122 16:22:33.341600 45517 net.cpp:435] relu1 <- scale1
I0122 16:22:33.341611 45517 net.cpp:409] relu1 -> relu1
I0122 16:22:33.341694 45517 net.cpp:144] Setting up relu1
I0122 16:22:33.341704 45517 net.cpp:151] Top shape: 50 32 32 32 (1638400)
I0122 16:22:33.341709 45517 net.cpp:159] Memory required for data: 20276000
I0122 16:22:33.341717 45517 layer_factory.hpp:77] Creating layer conv2
I0122 16:22:33.341730 45517 net.cpp:94] Creating Layer conv2
I0122 16:22:33.341737 45517 net.cpp:435] conv2 <- relu1
I0122 16:22:33.341747 45517 net.cpp:409] conv2 -> conv2
I0122 16:22:33.342387 45517 net.cpp:144] Setting up conv2
I0122 16:22:33.342411 45517 net.cpp:151] Top shape: 50 32 32 32 (1638400)
I0122 16:22:33.342414 45517 net.cpp:159] Memory required for data: 26829600
I0122 16:22:33.342424 45517 layer_factory.hpp:77] Creating layer bn2
I0122 16:22:33.342437 45517 net.cpp:94] Creating Layer bn2
I0122 16:22:33.342442 45517 net.cpp:435] bn2 <- conv2
I0122 16:22:33.342449 45517 net.cpp:409] bn2 -> scale2
I0122 16:22:33.343504 45517 net.cpp:144] Setting up bn2
I0122 16:22:33.343514 45517 net.cpp:151] Top shape: 50 32 32 32 (1638400)
I0122 16:22:33.343518 45517 net.cpp:159] Memory required for data: 33383200
I0122 16:22:33.343530 45517 layer_factory.hpp:77] Creating layer relu2
I0122 16:22:33.343540 45517 net.cpp:94] Creating Layer relu2
I0122 16:22:33.343546 45517 net.cpp:435] relu2 <- scale2
I0122 16:22:33.343552 45517 net.cpp:409] relu2 -> relu2
I0122 16:22:33.343581 45517 net.cpp:144] Setting up relu2
I0122 16:22:33.343590 45517 net.cpp:151] Top shape: 50 32 32 32 (1638400)
I0122 16:22:33.343595 45517 net.cpp:159] Memory required for data: 39936800
I0122 16:22:33.343597 45517 layer_factory.hpp:77] Creating layer pool1
I0122 16:22:33.343606 45517 net.cpp:94] Creating Layer pool1
I0122 16:22:33.343616 45517 net.cpp:435] pool1 <- relu2
I0122 16:22:33.343623 45517 net.cpp:409] pool1 -> pool1
I0122 16:22:33.343706 45517 net.cpp:144] Setting up pool1
I0122 16:22:33.343731 45517 net.cpp:151] Top shape: 50 32 16 16 (409600)
I0122 16:22:33.343735 45517 net.cpp:159] Memory required for data: 41575200
I0122 16:22:33.343740 45517 layer_factory.hpp:77] Creating layer drop1
I0122 16:22:33.343749 45517 net.cpp:94] Creating Layer drop1
I0122 16:22:33.343752 45517 net.cpp:435] drop1 <- pool1
I0122 16:22:33.343760 45517 net.cpp:409] drop1 -> drop1
I0122 16:22:33.343809 45517 net.cpp:144] Setting up drop1
I0122 16:22:33.343816 45517 net.cpp:151] Top shape: 50 32 16 16 (409600)
I0122 16:22:33.343821 45517 net.cpp:159] Memory required for data: 43213600
I0122 16:22:33.343833 45517 layer_factory.hpp:77] Creating layer conv3
I0122 16:22:33.343845 45517 net.cpp:94] Creating Layer conv3
I0122 16:22:33.343850 45517 net.cpp:435] conv3 <- drop1
I0122 16:22:33.343858 45517 net.cpp:409] conv3 -> conv3
I0122 16:22:33.344360 45517 net.cpp:144] Setting up conv3
I0122 16:22:33.344369 45517 net.cpp:151] Top shape: 50 64 16 16 (819200)
I0122 16:22:33.344373 45517 net.cpp:159] Memory required for data: 46490400
I0122 16:22:33.344382 45517 layer_factory.hpp:77] Creating layer bn3
I0122 16:22:33.344391 45517 net.cpp:94] Creating Layer bn3
I0122 16:22:33.344398 45517 net.cpp:435] bn3 <- conv3
I0122 16:22:33.344408 45517 net.cpp:409] bn3 -> scale3
I0122 16:22:33.345530 45517 net.cpp:144] Setting up bn3
I0122 16:22:33.345541 45517 net.cpp:151] Top shape: 50 64 16 16 (819200)
I0122 16:22:33.345546 45517 net.cpp:159] Memory required for data: 49767200
I0122 16:22:33.345563 45517 layer_factory.hpp:77] Creating layer relu3
I0122 16:22:33.345571 45517 net.cpp:94] Creating Layer relu3
I0122 16:22:33.345577 45517 net.cpp:435] relu3 <- scale3
I0122 16:22:33.345583 45517 net.cpp:409] relu3 -> relu3
I0122 16:22:33.345623 45517 net.cpp:144] Setting up relu3
I0122 16:22:33.345631 45517 net.cpp:151] Top shape: 50 64 16 16 (819200)
I0122 16:22:33.345643 45517 net.cpp:159] Memory required for data: 53044000
I0122 16:22:33.345647 45517 layer_factory.hpp:77] Creating layer conv4
I0122 16:22:33.345659 45517 net.cpp:94] Creating Layer conv4
I0122 16:22:33.345665 45517 net.cpp:435] conv4 <- relu3
I0122 16:22:33.345674 45517 net.cpp:409] conv4 -> conv4
I0122 16:22:33.346362 45517 net.cpp:144] Setting up conv4
I0122 16:22:33.346372 45517 net.cpp:151] Top shape: 50 64 16 16 (819200)
I0122 16:22:33.346377 45517 net.cpp:159] Memory required for data: 56320800
I0122 16:22:33.346385 45517 layer_factory.hpp:77] Creating layer bn4
I0122 16:22:33.346396 45517 net.cpp:94] Creating Layer bn4
I0122 16:22:33.346401 45517 net.cpp:435] bn4 <- conv4
I0122 16:22:33.346410 45517 net.cpp:409] bn4 -> scale4
I0122 16:22:33.347537 45517 net.cpp:144] Setting up bn4
I0122 16:22:33.347548 45517 net.cpp:151] Top shape: 50 64 16 16 (819200)
I0122 16:22:33.347551 45517 net.cpp:159] Memory required for data: 59597600
I0122 16:22:33.347563 45517 layer_factory.hpp:77] Creating layer relu4
I0122 16:22:33.347571 45517 net.cpp:94] Creating Layer relu4
I0122 16:22:33.347578 45517 net.cpp:435] relu4 <- scale4
I0122 16:22:33.347584 45517 net.cpp:409] relu4 -> relu4
I0122 16:22:33.347613 45517 net.cpp:144] Setting up relu4
I0122 16:22:33.347621 45517 net.cpp:151] Top shape: 50 64 16 16 (819200)
I0122 16:22:33.347626 45517 net.cpp:159] Memory required for data: 62874400
I0122 16:22:33.347630 45517 layer_factory.hpp:77] Creating layer pool2
I0122 16:22:33.347638 45517 net.cpp:94] Creating Layer pool2
I0122 16:22:33.347643 45517 net.cpp:435] pool2 <- relu4
I0122 16:22:33.347651 45517 net.cpp:409] pool2 -> pool2
I0122 16:22:33.347698 45517 net.cpp:144] Setting up pool2
I0122 16:22:33.347707 45517 net.cpp:151] Top shape: 50 64 8 8 (204800)
I0122 16:22:33.347710 45517 net.cpp:159] Memory required for data: 63693600
I0122 16:22:33.347714 45517 layer_factory.hpp:77] Creating layer drop2
I0122 16:22:33.347728 45517 net.cpp:94] Creating Layer drop2
I0122 16:22:33.347733 45517 net.cpp:435] drop2 <- pool2
I0122 16:22:33.347738 45517 net.cpp:409] drop2 -> drop2
I0122 16:22:33.347781 45517 net.cpp:144] Setting up drop2
I0122 16:22:33.347790 45517 net.cpp:151] Top shape: 50 64 8 8 (204800)
I0122 16:22:33.347815 45517 net.cpp:159] Memory required for data: 64512800
I0122 16:22:33.347820 45517 layer_factory.hpp:77] Creating layer fc1
I0122 16:22:33.347829 45517 net.cpp:94] Creating Layer fc1
I0122 16:22:33.347836 45517 net.cpp:435] fc1 <- drop2
I0122 16:22:33.347843 45517 net.cpp:409] fc1 -> fc1
I0122 16:22:33.364512 45517 net.cpp:144] Setting up fc1
I0122 16:22:33.364533 45517 net.cpp:151] Top shape: 50 512 (25600)
I0122 16:22:33.364536 45517 net.cpp:159] Memory required for data: 64615200
I0122 16:22:33.364543 45517 layer_factory.hpp:77] Creating layer bn5
I0122 16:22:33.364552 45517 net.cpp:94] Creating Layer bn5
I0122 16:22:33.364557 45517 net.cpp:435] bn5 <- fc1
I0122 16:22:33.364573 45517 net.cpp:409] bn5 -> scale5
I0122 16:22:33.365161 45517 net.cpp:144] Setting up bn5
I0122 16:22:33.365169 45517 net.cpp:151] Top shape: 50 512 (25600)
I0122 16:22:33.365172 45517 net.cpp:159] Memory required for data: 64717600
I0122 16:22:33.365185 45517 layer_factory.hpp:77] Creating layer relu5
I0122 16:22:33.365191 45517 net.cpp:94] Creating Layer relu5
I0122 16:22:33.365195 45517 net.cpp:435] relu5 <- scale5
I0122 16:22:33.365200 45517 net.cpp:409] relu5 -> relu5
I0122 16:22:33.365218 45517 net.cpp:144] Setting up relu5
I0122 16:22:33.365223 45517 net.cpp:151] Top shape: 50 512 (25600)
I0122 16:22:33.365227 45517 net.cpp:159] Memory required for data: 64820000
I0122 16:22:33.365231 45517 layer_factory.hpp:77] Creating layer drop3
I0122 16:22:33.365236 45517 net.cpp:94] Creating Layer drop3
I0122 16:22:33.365238 45517 net.cpp:435] drop3 <- relu5
I0122 16:22:33.365242 45517 net.cpp:409] drop3 -> drop3
I0122 16:22:33.365269 45517 net.cpp:144] Setting up drop3
I0122 16:22:33.365275 45517 net.cpp:151] Top shape: 50 512 (25600)
I0122 16:22:33.365278 45517 net.cpp:159] Memory required for data: 64922400
I0122 16:22:33.365280 45517 layer_factory.hpp:77] Creating layer fc2
I0122 16:22:33.365286 45517 net.cpp:94] Creating Layer fc2
I0122 16:22:33.365289 45517 net.cpp:435] fc2 <- drop3
I0122 16:22:33.365294 45517 net.cpp:409] fc2 -> fc2
I0122 16:22:33.365434 45517 net.cpp:144] Setting up fc2
I0122 16:22:33.365440 45517 net.cpp:151] Top shape: 50 10 (500)
I0122 16:22:33.365442 45517 net.cpp:159] Memory required for data: 64924400
I0122 16:22:33.365447 45517 layer_factory.hpp:77] Creating layer fc2_fc2_0_split
I0122 16:22:33.365453 45517 net.cpp:94] Creating Layer fc2_fc2_0_split
I0122 16:22:33.365458 45517 net.cpp:435] fc2_fc2_0_split <- fc2
I0122 16:22:33.365463 45517 net.cpp:409] fc2_fc2_0_split -> fc2_fc2_0_split_0
I0122 16:22:33.365470 45517 net.cpp:409] fc2_fc2_0_split -> fc2_fc2_0_split_1
I0122 16:22:33.365475 45517 net.cpp:409] fc2_fc2_0_split -> fc2_fc2_0_split_2
I0122 16:22:33.365515 45517 net.cpp:144] Setting up fc2_fc2_0_split
I0122 16:22:33.365520 45517 net.cpp:151] Top shape: 50 10 (500)
I0122 16:22:33.365523 45517 net.cpp:151] Top shape: 50 10 (500)
I0122 16:22:33.365526 45517 net.cpp:151] Top shape: 50 10 (500)
I0122 16:22:33.365530 45517 net.cpp:159] Memory required for data: 64930400
I0122 16:22:33.365532 45517 layer_factory.hpp:77] Creating layer loss
I0122 16:22:33.365537 45517 net.cpp:94] Creating Layer loss
I0122 16:22:33.365540 45517 net.cpp:435] loss <- fc2_fc2_0_split_0
I0122 16:22:33.365545 45517 net.cpp:435] loss <- label_data_1_split_0
I0122 16:22:33.365550 45517 net.cpp:409] loss -> loss
…
