…
I0122 16:25:46.917073 45797 caffe_interface.cpp:70] GPU device name: Quadro P6000
I0122 16:25:46.917655 45797 net.cpp:323] The NetState phase (1) differed from the phase (0) specified by a rule in layer data
I0122 16:25:46.917987 45797 net.cpp:52] Initializing net from parameters: 
state {
  phase: TEST
}
layer {
  name: "data"
  type: "Data"
  top: "data"
  top: "label"
  include {
    phase: TEST
  }
  transform_param {
    mirror: false
    mean_value: 125
    mean_value: 123
    mean_value: 114
  }
  data_param {
    source: "cifar10/input/lmdb/valid_lmdb"
    batch_size: 50
    backend: LMDB
  }
}
layer {
  name: "conv1"
  type: "Convolution"
  bottom: "data"
  top: "conv1"
  param {
    lr_mult: 1
    decay_mult: 1
  }
  param {
    lr_mult: 2
    decay_mult: 0
  }
  convolution_param {
    num_output: 32
    pad: 1
    kernel_size: 3
    stride: 1
    weight_filler {
      type: "xavier"
    }
    bias_filler {
      type: "constant"
      value: 0
    }
  }
}
layer {
  name: "bn1"
  type: "BatchNorm"
  bottom: "conv1"
  top: "scale1"
  param {
    lr_mult: 1
    decay_mult: 0
  }
  param {
    lr_mult: 1
    decay_mult: 0
  }
  param {
    lr_mult: 0
    decay_mult: 0
  }
  param {
    lr_mult: 0
    decay_mult: 0
  }
  batch_norm_param {
    use_global_stats: false
    scale_filler {
      type: "constant"
      value: 1
    }
    bias_filler {
      type: "constant"
      value: 0
    }
  }
}
layer {
  name: "relu1"
  type: "ReLU"
  bottom: "scale1"
  top: "relu1"
}
layer {
  name: "conv2"
  type: "Convolution"
  bottom: "relu1"
  top: "conv2"
  param {
    lr_mult: 1
    decay_mult: 1
  }
  param {
    lr_mult: 2
    decay_mult: 0
  }
  convolution_param {
    num_output: 32
    pad: 1
    kernel_size: 3
    stride: 1
    weight_filler {
      type: "xavier"
    }
    bias_filler {
      type: "constant"
      value: 0
    }
  }
}
layer {
  name: "bn2"
  type: "BatchNorm"
  bottom: "conv2"
  top: "scale2"
  param {
    lr_mult: 1
    decay_mult: 0
  }
  param {
    lr_mult: 1
    decay_mult: 0
  }
  param {
    lr_mult: 0
    decay_mult: 0
  }
  param {
    lr_mult: 0
    decay_mult: 0
  }
  batch_norm_param {
    use_global_stats: false
    scale_filler {
      type: "constant"
      value: 1
    }
    bias_filler {
      type: "constant"
      value: 0
    }
  }
}
layer {
  name: "relu2"
  type: "ReLU"
  bottom: "scale2"
  top: "relu2"
}
layer {
  name: "pool1"
  type: "Pooling"
  bottom: "relu2"
  top: "pool1"
  pooling_param {
    pool: MAX
    kernel_size: 2
    stride: 2
  }
}
layer {
  name: "drop1"
  type: "Dropout"
  bottom: "pool1"
  top: "drop1"
  dropout_param {
    dropout_ratio: 0.25
  }
}
layer {
  name: "conv3"
  type: "Convolution"
  bottom: "drop1"
  top: "conv3"
  param {
    lr_mult: 1
    decay_mult: 1
  }
  param {
    lr_mult: 2
    decay_mult: 0
  }
  convolution_param {
    num_output: 64
    pad: 1
    kernel_size: 3
    stride: 1
    weight_filler {
      type: "xavier"
    }
    bias_filler {
      type: "constant"
      value: 0
    }
  }
}
layer {
  name: "bn3"
  type: "BatchNorm"
  bottom: "conv3"
  top: "scale3"
  param {
    lr_mult: 1
    decay_mult: 0
  }
  param {
    lr_mult: 1
    decay_mult: 0
  }
  param {
    lr_mult: 0
    decay_mult: 0
  }
  param {
    lr_mult: 0
    decay_mult: 0
  }
  batch_norm_param {
    use_global_stats: false
    scale_filler {
      type: "constant"
      value: 1
    }
    bias_filler {
      type: "constant"
      value: 0
    }
  }
}
layer {
  name: "relu3"
  type: "ReLU"
  bottom: "scale3"
  top: "relu3"
}
layer {
  name: "conv4"
  type: "Convolution"
  bottom: "relu3"
  top: "conv4"
  param {
    lr_mult: 1
    decay_mult: 1
  }
  param {
    lr_mult: 2
    decay_mult: 0
  }
  convolution_param {
    num_output: 64
    pad: 1
    kernel_size: 3
    stride: 1
    weight_filler {
      type: "xavier"
    }
    bias_filler {
      type: "constant"
      value: 0
    }
  }
}
layer {
  name: "bn4"
  type: "BatchNorm"
  bottom: "conv4"
  top: "scale4"
  param {
    lr_mult: 1
    decay_mult: 0
  }
  param {
    lr_mult: 1
    decay_mult: 0
  }
  param {
    lr_mult: 0
    decay_mult: 0
  }
  param {
    lr_mult: 0
    decay_mult: 0
  }
  batch_norm_param {
    use_global_stats: false
    scale_filler {
      type: "constant"
      value: 1
    }
    bias_filler {
      type: "constant"
      value: 0
    }
  }
}
layer {
  name: "relu4"
  type: "ReLU"
  bottom: "scale4"
  top: "relu4"
}
layer {
  name: "pool2"
  type: "Pooling"
  bottom: "relu4"
  top: "pool2"
  pooling_param {
    pool: MAX
    kernel_size: 2
    stride: 2
  }
}
layer {
  name: "drop2"
  type: "Dropout"
  bottom: "pool2"
  top: "drop2"
  dropout_param {
    dropout_ratio: 0.25
  }
}
layer {
  name: "fc1"
  type: "InnerProduct"
  bottom: "drop2"
  top: "fc1"
  param {
    lr_mult: 1
    decay_mult: 1
  }
  param {
    lr_mult: 2
    decay_mult: 0
  }
  inner_product_param {
    num_output: 512
    weight_filler {
      type: "xavier"
    }
    bias_filler {
      type: "constant"
      value: 1
    }
  }
}
layer {
  name: "bn5"
  type: "BatchNorm"
  bottom: "fc1"
  top: "scale5"
  param {
    lr_mult: 1
    decay_mult: 0
  }
  param {
    lr_mult: 1
    decay_mult: 0
  }
  param {
    lr_mult: 0
    decay_mult: 0
  }
  param {
    lr_mult: 0
    decay_mult: 0
  }
  batch_norm_param {
    use_global_stats: false
    scale_filler {
      type: "constant"
      value: 1
    }
    bias_filler {
      type: "constant"
      value: 0
    }
  }
}
layer {
  name: "relu5"
  type: "ReLU"
  bottom: "scale5"
  top: "relu5"
}
layer {
  name: "drop3"
  type: "Dropout"
  bottom: "relu5"
  top: "drop3"
  dropout_param {
    dropout_ratio: 0.5
  }
}
layer {
  name: "fc2"
  type: "InnerProduct"
  bottom: "drop3"
  top: "fc2"
  param {
    lr_mult: 1
    decay_mult: 1
  }
  param {
    lr_mult: 2
    decay_mult: 0
  }
  inner_product_param {
    num_output: 10
    weight_filler {
      type: "xavier"
    }
    bias_filler {
      type: "constant"
      value: 1
    }
  }
}
layer {
  name: "loss"
  type: "SoftmaxWithLoss"
  bottom: "fc2"
  bottom: "label"
  top: "loss"
}
layer {
  name: "accuracy-top1"
  type: "Accuracy"
  bottom: "fc2"
  bottom: "label"
  top: "top-1"
  include {
    phase: TEST
  }
}
layer {
  name: "accuracy-top5"
  type: "Accuracy"
  bottom: "fc2"
  bottom: "label"
  top: "top-5"
  include {
    phase: TEST
  }
  accuracy_param {
    top_k: 5
  }
}
I0122 16:25:46.918174 45797 layer_factory.hpp:77] Creating layer data
I0122 16:25:46.918238 45797 internal_thread.cpp:27] Starting internal thread(s) on GPU 0
I0122 16:25:46.918764 45797 net.cpp:94] Creating Layer data
I0122 16:25:46.918776 45797 net.cpp:409] data -> data
I0122 16:25:46.918789 45797 net.cpp:409] data -> label
I0122 16:25:46.919700 47724 db_lmdb.cpp:35] Opened lmdb cifar10/input/lmdb/valid_lmdb
I0122 16:25:46.919734 47724 data_reader.cpp:117] TEST: reading data using 1 channel(s)
I0122 16:25:46.919823 45797 data_layer.cpp:78] ReshapePrefetch 50, 3, 32, 32
I0122 16:25:46.919955 45797 data_layer.cpp:83] output data size: 50,3,32,32
I0122 16:25:46.923185 45797 internal_thread.cpp:27] Starting internal thread(s) on GPU 0
I0122 16:25:46.923230 45797 net.cpp:144] Setting up data
I0122 16:25:46.923238 45797 net.cpp:151] Top shape: 50 3 32 32 (153600)
I0122 16:25:46.923245 45797 net.cpp:151] Top shape: 50 (50)
I0122 16:25:46.923249 45797 net.cpp:159] Memory required for data: 614600
I0122 16:25:46.923254 45797 layer_factory.hpp:77] Creating layer label_data_1_split
I0122 16:25:46.923262 45797 net.cpp:94] Creating Layer label_data_1_split
I0122 16:25:46.923266 45797 net.cpp:435] label_data_1_split <- label
I0122 16:25:46.923274 45797 net.cpp:409] label_data_1_split -> label_data_1_split_0
I0122 16:25:46.923286 45797 net.cpp:409] label_data_1_split -> label_data_1_split_1
I0122 16:25:46.923293 45797 net.cpp:409] label_data_1_split -> label_data_1_split_2
I0122 16:25:46.923372 45797 net.cpp:144] Setting up label_data_1_split
I0122 16:25:46.923380 45797 net.cpp:151] Top shape: 50 (50)
I0122 16:25:46.923385 45797 net.cpp:151] Top shape: 50 (50)
I0122 16:25:46.923388 45797 net.cpp:151] Top shape: 50 (50)
I0122 16:25:46.923391 45797 net.cpp:159] Memory required for data: 615200
I0122 16:25:46.923395 45797 layer_factory.hpp:77] Creating layer conv1
I0122 16:25:46.923406 45797 net.cpp:94] Creating Layer conv1
I0122 16:25:46.923413 45797 net.cpp:435] conv1 <- data
I0122 16:25:46.923418 45797 net.cpp:409] conv1 -> conv1
I0122 16:25:46.924492 45797 net.cpp:144] Setting up conv1
I0122 16:25:46.924504 45797 net.cpp:151] Top shape: 50 32 32 32 (1638400)
I0122 16:25:46.924509 45797 net.cpp:159] Memory required for data: 7168800
I0122 16:25:46.924520 45797 layer_factory.hpp:77] Creating layer bn1
I0122 16:25:46.924527 45797 net.cpp:94] Creating Layer bn1
I0122 16:25:46.924532 45797 net.cpp:435] bn1 <- conv1
I0122 16:25:46.924540 45797 net.cpp:409] bn1 -> scale1
I0122 16:25:46.925226 45797 net.cpp:144] Setting up bn1
I0122 16:25:46.925235 45797 net.cpp:151] Top shape: 50 32 32 32 (1638400)
I0122 16:25:46.925240 45797 net.cpp:159] Memory required for data: 13722400
I0122 16:25:46.925251 45797 layer_factory.hpp:77] Creating layer relu1
I0122 16:25:46.925261 45797 net.cpp:94] Creating Layer relu1
I0122 16:25:46.925264 45797 net.cpp:435] relu1 <- scale1
I0122 16:25:46.925271 45797 net.cpp:409] relu1 -> relu1
I0122 16:25:46.925290 45797 net.cpp:144] Setting up relu1
I0122 16:25:46.925297 45797 net.cpp:151] Top shape: 50 32 32 32 (1638400)
I0122 16:25:46.925299 45797 net.cpp:159] Memory required for data: 20276000
I0122 16:25:46.925303 45797 layer_factory.hpp:77] Creating layer conv2
I0122 16:25:46.925312 45797 net.cpp:94] Creating Layer conv2
I0122 16:25:46.925318 45797 net.cpp:435] conv2 <- relu1
I0122 16:25:46.925323 45797 net.cpp:409] conv2 -> conv2
I0122 16:25:46.926512 45797 net.cpp:144] Setting up conv2
I0122 16:25:46.926525 45797 net.cpp:151] Top shape: 50 32 32 32 (1638400)
I0122 16:25:46.926529 45797 net.cpp:159] Memory required for data: 26829600
I0122 16:25:46.926539 45797 layer_factory.hpp:77] Creating layer bn2
I0122 16:25:46.926548 45797 net.cpp:94] Creating Layer bn2
I0122 16:25:46.926553 45797 net.cpp:435] bn2 <- conv2
I0122 16:25:46.926559 45797 net.cpp:409] bn2 -> scale2
I0122 16:25:46.927399 45797 net.cpp:144] Setting up bn2
I0122 16:25:46.927408 45797 net.cpp:151] Top shape: 50 32 32 32 (1638400)
I0122 16:25:46.927412 45797 net.cpp:159] Memory required for data: 33383200
I0122 16:25:46.927422 45797 layer_factory.hpp:77] Creating layer relu2
I0122 16:25:46.927443 45797 net.cpp:94] Creating Layer relu2
I0122 16:25:46.927448 45797 net.cpp:435] relu2 <- scale2
I0122 16:25:46.927453 45797 net.cpp:409] relu2 -> relu2
I0122 16:25:46.927475 45797 net.cpp:144] Setting up relu2
I0122 16:25:46.927482 45797 net.cpp:151] Top shape: 50 32 32 32 (1638400)
I0122 16:25:46.927486 45797 net.cpp:159] Memory required for data: 39936800
I0122 16:25:46.927489 45797 layer_factory.hpp:77] Creating layer pool1
I0122 16:25:46.927496 45797 net.cpp:94] Creating Layer pool1
I0122 16:25:46.927506 45797 net.cpp:435] pool1 <- relu2
I0122 16:25:46.927512 45797 net.cpp:409] pool1 -> pool1
I0122 16:25:46.927544 45797 net.cpp:144] Setting up pool1
I0122 16:25:46.927548 45797 net.cpp:151] Top shape: 50 32 16 16 (409600)
I0122 16:25:46.927552 45797 net.cpp:159] Memory required for data: 41575200
I0122 16:25:46.927556 45797 layer_factory.hpp:77] Creating layer drop1
I0122 16:25:46.927561 45797 net.cpp:94] Creating Layer drop1
I0122 16:25:46.927567 45797 net.cpp:435] drop1 <- pool1
I0122 16:25:46.927572 45797 net.cpp:409] drop1 -> drop1
I0122 16:25:46.927601 45797 net.cpp:144] Setting up drop1
I0122 16:25:46.927609 45797 net.cpp:151] Top shape: 50 32 16 16 (409600)
I0122 16:25:46.927614 45797 net.cpp:159] Memory required for data: 43213600
I0122 16:25:46.927618 45797 layer_factory.hpp:77] Creating layer conv3
I0122 16:25:46.927626 45797 net.cpp:94] Creating Layer conv3
I0122 16:25:46.927629 45797 net.cpp:435] conv3 <- drop1
I0122 16:25:46.927635 45797 net.cpp:409] conv3 -> conv3
I0122 16:25:46.928789 45797 net.cpp:144] Setting up conv3
I0122 16:25:46.928803 45797 net.cpp:151] Top shape: 50 64 16 16 (819200)
I0122 16:25:46.928807 45797 net.cpp:159] Memory required for data: 46490400
I0122 16:25:46.928815 45797 layer_factory.hpp:77] Creating layer bn3
I0122 16:25:46.928823 45797 net.cpp:94] Creating Layer bn3
I0122 16:25:46.928831 45797 net.cpp:435] bn3 <- conv3
I0122 16:25:46.928838 45797 net.cpp:409] bn3 -> scale3
I0122 16:25:46.929594 45797 net.cpp:144] Setting up bn3
I0122 16:25:46.929600 45797 net.cpp:151] Top shape: 50 64 16 16 (819200)
I0122 16:25:46.929605 45797 net.cpp:159] Memory required for data: 49767200
I0122 16:25:46.929617 45797 layer_factory.hpp:77] Creating layer relu3
I0122 16:25:46.929625 45797 net.cpp:94] Creating Layer relu3
I0122 16:25:46.929630 45797 net.cpp:435] relu3 <- scale3
I0122 16:25:46.929636 45797 net.cpp:409] relu3 -> relu3
I0122 16:25:46.929656 45797 net.cpp:144] Setting up relu3
I0122 16:25:46.929661 45797 net.cpp:151] Top shape: 50 64 16 16 (819200)
I0122 16:25:46.929666 45797 net.cpp:159] Memory required for data: 53044000
I0122 16:25:46.929671 45797 layer_factory.hpp:77] Creating layer conv4
I0122 16:25:46.929679 45797 net.cpp:94] Creating Layer conv4
I0122 16:25:46.929684 45797 net.cpp:435] conv4 <- relu3
I0122 16:25:46.929690 45797 net.cpp:409] conv4 -> conv4
I0122 16:25:46.930192 45797 net.cpp:144] Setting up conv4
I0122 16:25:46.930200 45797 net.cpp:151] Top shape: 50 64 16 16 (819200)
I0122 16:25:46.930203 45797 net.cpp:159] Memory required for data: 56320800
I0122 16:25:46.930208 45797 layer_factory.hpp:77] Creating layer bn4
I0122 16:25:46.930215 45797 net.cpp:94] Creating Layer bn4
I0122 16:25:46.930219 45797 net.cpp:435] bn4 <- conv4
I0122 16:25:46.930227 45797 net.cpp:409] bn4 -> scale4
I0122 16:25:46.930864 45797 net.cpp:144] Setting up bn4
I0122 16:25:46.930872 45797 net.cpp:151] Top shape: 50 64 16 16 (819200)
I0122 16:25:46.930876 45797 net.cpp:159] Memory required for data: 59597600
I0122 16:25:46.930883 45797 layer_factory.hpp:77] Creating layer relu4
I0122 16:25:46.930887 45797 net.cpp:94] Creating Layer relu4
I0122 16:25:46.930891 45797 net.cpp:435] relu4 <- scale4
I0122 16:25:46.930896 45797 net.cpp:409] relu4 -> relu4
I0122 16:25:46.930912 45797 net.cpp:144] Setting up relu4
I0122 16:25:46.930918 45797 net.cpp:151] Top shape: 50 64 16 16 (819200)
I0122 16:25:46.930922 45797 net.cpp:159] Memory required for data: 62874400
I0122 16:25:46.930924 45797 layer_factory.hpp:77] Creating layer pool2
I0122 16:25:46.930930 45797 net.cpp:94] Creating Layer pool2
I0122 16:25:46.930948 45797 net.cpp:435] pool2 <- relu4
I0122 16:25:46.930953 45797 net.cpp:409] pool2 -> pool2
I0122 16:25:46.931040 45797 net.cpp:144] Setting up pool2
I0122 16:25:46.931046 45797 net.cpp:151] Top shape: 50 64 8 8 (204800)
I0122 16:25:46.931048 45797 net.cpp:159] Memory required for data: 63693600
I0122 16:25:46.931051 45797 layer_factory.hpp:77] Creating layer drop2
I0122 16:25:46.931056 45797 net.cpp:94] Creating Layer drop2
I0122 16:25:46.931061 45797 net.cpp:435] drop2 <- pool2
I0122 16:25:46.931066 45797 net.cpp:409] drop2 -> drop2
I0122 16:25:46.931092 45797 net.cpp:144] Setting up drop2
I0122 16:25:46.931099 45797 net.cpp:151] Top shape: 50 64 8 8 (204800)
I0122 16:25:46.931102 45797 net.cpp:159] Memory required for data: 64512800
I0122 16:25:46.931104 45797 layer_factory.hpp:77] Creating layer fc1
I0122 16:25:46.931111 45797 net.cpp:94] Creating Layer fc1
I0122 16:25:46.931115 45797 net.cpp:435] fc1 <- drop2
I0122 16:25:46.931120 45797 net.cpp:409] fc1 -> fc1
I0122 16:25:46.945384 45797 net.cpp:144] Setting up fc1
I0122 16:25:46.945402 45797 net.cpp:151] Top shape: 50 512 (25600)
I0122 16:25:46.945405 45797 net.cpp:159] Memory required for data: 64615200
I0122 16:25:46.945411 45797 layer_factory.hpp:77] Creating layer bn5
I0122 16:25:46.945420 45797 net.cpp:94] Creating Layer bn5
I0122 16:25:46.945425 45797 net.cpp:435] bn5 <- fc1
I0122 16:25:46.945430 45797 net.cpp:409] bn5 -> scale5
I0122 16:25:46.945991 45797 net.cpp:144] Setting up bn5
I0122 16:25:46.945997 45797 net.cpp:151] Top shape: 50 512 (25600)
I0122 16:25:46.946002 45797 net.cpp:159] Memory required for data: 64717600
I0122 16:25:46.946013 45797 layer_factory.hpp:77] Creating layer relu5
I0122 16:25:46.946020 45797 net.cpp:94] Creating Layer relu5
I0122 16:25:46.946023 45797 net.cpp:435] relu5 <- scale5
I0122 16:25:46.946028 45797 net.cpp:409] relu5 -> relu5
I0122 16:25:46.946048 45797 net.cpp:144] Setting up relu5
I0122 16:25:46.946053 45797 net.cpp:151] Top shape: 50 512 (25600)
I0122 16:25:46.946055 45797 net.cpp:159] Memory required for data: 64820000
I0122 16:25:46.946058 45797 layer_factory.hpp:77] Creating layer drop3
I0122 16:25:46.946063 45797 net.cpp:94] Creating Layer drop3
I0122 16:25:46.946066 45797 net.cpp:435] drop3 <- relu5
I0122 16:25:46.946071 45797 net.cpp:409] drop3 -> drop3
I0122 16:25:46.946096 45797 net.cpp:144] Setting up drop3
I0122 16:25:46.946101 45797 net.cpp:151] Top shape: 50 512 (25600)
I0122 16:25:46.946105 45797 net.cpp:159] Memory required for data: 64922400
I0122 16:25:46.946106 45797 layer_factory.hpp:77] Creating layer fc2
I0122 16:25:46.946113 45797 net.cpp:94] Creating Layer fc2
I0122 16:25:46.946116 45797 net.cpp:435] fc2 <- drop3
I0122 16:25:46.946121 45797 net.cpp:409] fc2 -> fc2
I0122 16:25:46.946249 45797 net.cpp:144] Setting up fc2
I0122 16:25:46.946254 45797 net.cpp:151] Top shape: 50 10 (500)
I0122 16:25:46.946257 45797 net.cpp:159] Memory required for data: 64924400
I0122 16:25:46.946261 45797 layer_factory.hpp:77] Creating layer fc2_fc2_0_split
I0122 16:25:46.946267 45797 net.cpp:94] Creating Layer fc2_fc2_0_split
I0122 16:25:46.946272 45797 net.cpp:435] fc2_fc2_0_split <- fc2
I0122 16:25:46.946277 45797 net.cpp:409] fc2_fc2_0_split -> fc2_fc2_0_split_0
I0122 16:25:46.946285 45797 net.cpp:409] fc2_fc2_0_split -> fc2_fc2_0_split_1
I0122 16:25:46.946291 45797 net.cpp:409] fc2_fc2_0_split -> fc2_fc2_0_split_2
I0122 16:25:46.946327 45797 net.cpp:144] Setting up fc2_fc2_0_split
I0122 16:25:46.946333 45797 net.cpp:151] Top shape: 50 10 (500)
I0122 16:25:46.946336 45797 net.cpp:151] Top shape: 50 10 (500)
I0122 16:25:46.946339 45797 net.cpp:151] Top shape: 50 10 (500)
I0122 16:25:46.946342 45797 net.cpp:159] Memory required for data: 64930400
I0122 16:25:46.946346 45797 layer_factory.hpp:77] Creating layer loss
I0122 16:25:46.946350 45797 net.cpp:94] Creating Layer loss
I0122 16:25:46.946357 45797 net.cpp:435] loss <- fc2_fc2_0_split_0
I0122 16:25:46.946360 45797 net.cpp:435] loss <- label_data_1_split_0
I0122 16:25:46.946365 45797 net.cpp:409] loss -> loss
…
