…
I0122 16:35:38.061141 54582 net.cpp:323] The NetState phase (0) differed from the phase (1) specified by a rule in layer accuracy-top1
I0122 16:35:38.061142 54582 net.cpp:323] The NetState phase (0) differed from the phase (1) specified by a rule in layer accuracy-top5
I0122 16:35:38.061280 54582 net.cpp:52] Initializing net from parameters: 
state {
  phase: TRAIN
}
layer {
  name: "data"
  type: "Data"
  top: "data"
  top: "label"
  include {
    phase: TRAIN
  }
  transform_param {
    mirror: true
    mean_value: 125
    mean_value: 123
    mean_value: 114
  }
  data_param {
    source: "cifar10/input/lmdb/train_lmdb"
    batch_size: 128
    backend: LMDB
  }
}
layer {
  name: "conv1"
  type: "Convolution"
  bottom: "data"
  top: "conv1"
  param {
    lr_mult: 1
    decay_mult: 1
    compression: PRUNE
  }
  param {
    lr_mult: 2
    decay_mult: 0
    compression: PRUNE
  }
  convolution_param {
    num_output: 32
    pad: 1
    kernel_size: 3
    stride: 1
    weight_filler {
      type: "xavier"
    }
    bias_filler {
      type: "constant"
      value: 0
    }
  }
}
layer {
  name: "bn1"
  type: "BatchNorm"
  bottom: "conv1"
  top: "scale1"
  param {
    lr_mult: 1
    decay_mult: 0
    compression: PRUNE
  }
  param {
    lr_mult: 1
    decay_mult: 0
    compression: PRUNE
  }
  param {
    lr_mult: 0
    decay_mult: 0
    compression: PRUNE
  }
  param {
    lr_mult: 0
    decay_mult: 0
    compression: PRUNE
  }
  batch_norm_param {
    use_global_stats: false
    scale_filler {
      type: "constant"
      value: 1
    }
    bias_filler {
      type: "constant"
      value: 0
    }
  }
}
layer {
  name: "relu1"
  type: "ReLU"
  bottom: "scale1"
  top: "relu1"
}
layer {
  name: "conv2"
  type: "Convolution"
  bottom: "relu1"
  top: "conv2"
  param {
    lr_mult: 1
    decay_mult: 1
    compression: PRUNE
  }
  param {
    lr_mult: 2
    decay_mult: 0
    compression: PRUNE
  }
  convolution_param {
    num_output: 32
    pad: 1
    kernel_size: 3
    stride: 1
    weight_filler {
      type: "xavier"
    }
    bias_filler {
      type: "constant"
      value: 0
    }
  }
}
layer {
  name: "bn2"
  type: "BatchNorm"
  bottom: "conv2"
  top: "scale2"
  param {
    lr_mult: 1
    decay_mult: 0
    compression: PRUNE
  }
  param {
    lr_mult: 1
    decay_mult: 0
    compression: PRUNE
  }
  param {
    lr_mult: 0
    decay_mult: 0
    compression: PRUNE
  }
  param {
    lr_mult: 0
    decay_mult: 0
    compression: PRUNE
  }
  batch_norm_param {
    use_global_stats: false
    scale_filler {
      type: "constant"
      value: 1
    }
    bias_filler {
      type: "constant"
      value: 0
    }
  }
}
layer {
  name: "relu2"
  type: "ReLU"
  bottom: "scale2"
  top: "relu2"
}
layer {
  name: "pool1"
  type: "Pooling"
  bottom: "relu2"
  top: "pool1"
  pooling_param {
    pool: MAX
    kernel_size: 2
    stride: 2
  }
}
layer {
  name: "drop1"
  type: "Dropout"
  bottom: "pool1"
  top: "drop1"
  dropout_param {
    dropout_ratio: 0.25
  }
}
layer {
  name: "conv3"
  type: "Convolution"
  bottom: "drop1"
  top: "conv3"
  param {
    lr_mult: 1
    decay_mult: 1
    compression: PRUNE
  }
  param {
    lr_mult: 2
    decay_mult: 0
    compression: PRUNE
  }
  convolution_param {
    num_output: 64
    pad: 1
    kernel_size: 3
    stride: 1
    weight_filler {
      type: "xavier"
    }
    bias_filler {
      type: "constant"
      value: 0
    }
  }
}
layer {
  name: "bn3"
  type: "BatchNorm"
  bottom: "conv3"
  top: "scale3"
  param {
    lr_mult: 1
    decay_mult: 0
    compression: PRUNE
  }
  param {
    lr_mult: 1
    decay_mult: 0
    compression: PRUNE
  }
  param {
    lr_mult: 0
    decay_mult: 0
    compression: PRUNE
  }
  param {
    lr_mult: 0
    decay_mult: 0
    compression: PRUNE
  }
  batch_norm_param {
    use_global_stats: false
    scale_filler {
      type: "constant"
      value: 1
    }
    bias_filler {
      type: "constant"
      value: 0
    }
  }
}
layer {
  name: "relu3"
  type: "ReLU"
  bottom: "scale3"
  top: "relu3"
}
layer {
  name: "conv4"
  type: "Convolution"
  bottom: "relu3"
  top: "conv4"
  param {
    lr_mult: 1
    decay_mult: 1
    compression: PRUNE
  }
  param {
    lr_mult: 2
    decay_mult: 0
    compression: PRUNE
  }
  convolution_param {
    num_output: 64
    pad: 1
    kernel_size: 3
    stride: 1
    weight_filler {
      type: "xavier"
    }
    bias_filler {
      type: "constant"
      value: 0
    }
  }
}
layer {
  name: "bn4"
  type: "BatchNorm"
  bottom: "conv4"
  top: "scale4"
  param {
    lr_mult: 1
    decay_mult: 0
    compression: PRUNE
  }
  param {
    lr_mult: 1
    decay_mult: 0
    compression: PRUNE
  }
  param {
    lr_mult: 0
    decay_mult: 0
    compression: PRUNE
  }
  param {
    lr_mult: 0
    decay_mult: 0
    compression: PRUNE
  }
  batch_norm_param {
    use_global_stats: false
    scale_filler {
      type: "constant"
      value: 1
    }
    bias_filler {
      type: "constant"
      value: 0
    }
  }
}
layer {
  name: "relu4"
  type: "ReLU"
  bottom: "scale4"
  top: "relu4"
}
layer {
  name: "pool2"
  type: "Pooling"
  bottom: "relu4"
  top: "pool2"
  pooling_param {
    pool: MAX
    kernel_size: 2
    stride: 2
  }
}
layer {
  name: "drop2"
  type: "Dropout"
  bottom: "pool2"
  top: "drop2"
  dropout_param {
    dropout_ratio: 0.25
  }
}
layer {
  name: "fc1"
  type: "InnerProduct"
  bottom: "drop2"
  top: "fc1"
  param {
    lr_mult: 1
    decay_mult: 1
  }
  param {
    lr_mult: 2
    decay_mult: 0
  }
  inner_product_param {
    num_output: 512
    weight_filler {
      type: "xavier"
    }
    bias_filler {
      type: "constant"
      value: 1
    }
  }
}
layer {
  name: "bn5"
  type: "BatchNorm"
  bottom: "fc1"
  top: "scale5"
  param {
    lr_mult: 1
    decay_mult: 0
    compression: PRUNE
  }
  param {
    lr_mult: 1
    decay_mult: 0
    compression: PRUNE
  }
  param {
    lr_mult: 0
    decay_mult: 0
    compression: PRUNE
  }
  param {
    lr_mult: 0
    decay_mult: 0
    compression: PRUNE
  }
  batch_norm_param {
    use_global_stats: false
    scale_filler {
      type: "constant"
      value: 1
    }
    bias_filler {
      type: "constant"
      value: 0
    }
  }
}
layer {
  name: "relu5"
  type: "ReLU"
  bottom: "scale5"
  top: "relu5"
}
layer {
  name: "drop3"
  type: "Dropout"
  bottom: "relu5"
  top: "drop3"
  dropout_param {
    dropout_ratio: 0.5
  }
}
layer {
  name: "fc2"
  type: "InnerProduct"
  bottom: "drop3"
  top: "fc2"
  param {
    lr_mult: 1
    decay_mult: 1
  }
  param {
    lr_mult: 2
    decay_mult: 0
  }
  inner_product_param {
    num_output: 10
    weight_filler {
      type: "xavier"
    }
    bias_filler {
      type: "constant"
      value: 1
    }
  }
}
layer {
  name: "loss"
  type: "SoftmaxWithLoss"
  bottom: "fc2"
  bottom: "label"
  top: "loss"
}
I0122 16:35:38.061342 54582 layer_factory.hpp:77] Creating layer data
I0122 16:35:38.061448 54582 internal_thread.cpp:27] Starting internal thread(s) on GPU 0
I0122 16:35:38.062091 54582 net.cpp:94] Creating Layer data
I0122 16:35:38.062103 54582 net.cpp:409] data -> data
I0122 16:35:38.062124 54582 net.cpp:409] data -> label
I0122 16:35:38.063462 54623 db_lmdb.cpp:35] Opened lmdb cifar10/input/lmdb/train_lmdb
I0122 16:35:38.063509 54623 data_reader.cpp:117] TRAIN: reading data using 1 channel(s)
I0122 16:35:38.063609 54582 data_layer.cpp:78] ReshapePrefetch 128, 3, 32, 32
I0122 16:35:38.063686 54582 data_layer.cpp:83] output data size: 128,3,32,32
I0122 16:35:38.071395 54582 internal_thread.cpp:27] Starting internal thread(s) on GPU 0
I0122 16:35:38.071441 54582 net.cpp:144] Setting up data
I0122 16:35:38.071449 54582 net.cpp:151] Top shape: 128 3 32 32 (393216)
I0122 16:35:38.071452 54582 net.cpp:151] Top shape: 128 (128)
I0122 16:35:38.071455 54582 net.cpp:159] Memory required for data: 1573376
I0122 16:35:38.071460 54582 layer_factory.hpp:77] Creating layer conv1
I0122 16:35:38.071471 54582 net.cpp:94] Creating Layer conv1
I0122 16:35:38.071475 54582 net.cpp:435] conv1 <- data
I0122 16:35:38.071492 54582 net.cpp:409] conv1 -> conv1
I0122 16:35:38.072542 54582 net.cpp:144] Setting up conv1
I0122 16:35:38.072553 54582 net.cpp:151] Top shape: 128 32 32 32 (4194304)
I0122 16:35:38.072556 54582 net.cpp:159] Memory required for data: 18350592
I0122 16:35:38.072582 54582 layer_factory.hpp:77] Creating layer bn1
I0122 16:35:38.072590 54582 net.cpp:94] Creating Layer bn1
I0122 16:35:38.072593 54582 net.cpp:435] bn1 <- conv1
I0122 16:35:38.072597 54582 net.cpp:409] bn1 -> scale1
I0122 16:35:38.073165 54582 net.cpp:144] Setting up bn1
I0122 16:35:38.073173 54582 net.cpp:151] Top shape: 128 32 32 32 (4194304)
I0122 16:35:38.073176 54582 net.cpp:159] Memory required for data: 35127808
I0122 16:35:38.073186 54582 layer_factory.hpp:77] Creating layer relu1
I0122 16:35:38.073194 54582 net.cpp:94] Creating Layer relu1
I0122 16:35:38.073197 54582 net.cpp:435] relu1 <- scale1
I0122 16:35:38.073201 54582 net.cpp:409] relu1 -> relu1
I0122 16:35:38.073221 54582 net.cpp:144] Setting up relu1
I0122 16:35:38.073227 54582 net.cpp:151] Top shape: 128 32 32 32 (4194304)
I0122 16:35:38.073231 54582 net.cpp:159] Memory required for data: 51905024
I0122 16:35:38.073233 54582 layer_factory.hpp:77] Creating layer conv2
I0122 16:35:38.073241 54582 net.cpp:94] Creating Layer conv2
I0122 16:35:38.073246 54582 net.cpp:435] conv2 <- relu1
I0122 16:35:38.073251 54582 net.cpp:409] conv2 -> conv2
I0122 16:35:38.074793 54582 net.cpp:144] Setting up conv2
I0122 16:35:38.074805 54582 net.cpp:151] Top shape: 128 32 32 32 (4194304)
I0122 16:35:38.074807 54582 net.cpp:159] Memory required for data: 68682240
I0122 16:35:38.074815 54582 layer_factory.hpp:77] Creating layer bn2
I0122 16:35:38.074822 54582 net.cpp:94] Creating Layer bn2
I0122 16:35:38.074826 54582 net.cpp:435] bn2 <- conv2
I0122 16:35:38.074831 54582 net.cpp:409] bn2 -> scale2
I0122 16:35:38.075655 54582 net.cpp:144] Setting up bn2
I0122 16:35:38.075662 54582 net.cpp:151] Top shape: 128 32 32 32 (4194304)
I0122 16:35:38.075666 54582 net.cpp:159] Memory required for data: 85459456
I0122 16:35:38.075675 54582 layer_factory.hpp:77] Creating layer relu2
I0122 16:35:38.075680 54582 net.cpp:94] Creating Layer relu2
I0122 16:35:38.075683 54582 net.cpp:435] relu2 <- scale2
I0122 16:35:38.075687 54582 net.cpp:409] relu2 -> relu2
I0122 16:35:38.075788 54582 net.cpp:144] Setting up relu2
I0122 16:35:38.075812 54582 net.cpp:151] Top shape: 128 32 32 32 (4194304)
I0122 16:35:38.075821 54582 net.cpp:159] Memory required for data: 102236672
I0122 16:35:38.075829 54582 layer_factory.hpp:77] Creating layer pool1
I0122 16:35:38.075845 54582 net.cpp:94] Creating Layer pool1
I0122 16:35:38.075853 54582 net.cpp:435] pool1 <- relu2
I0122 16:35:38.075865 54582 net.cpp:409] pool1 -> pool1
I0122 16:35:38.076041 54582 net.cpp:144] Setting up pool1
I0122 16:35:38.076056 54582 net.cpp:151] Top shape: 128 32 16 16 (1048576)
I0122 16:35:38.076061 54582 net.cpp:159] Memory required for data: 106430976
I0122 16:35:38.076067 54582 layer_factory.hpp:77] Creating layer drop1
I0122 16:35:38.076082 54582 net.cpp:94] Creating Layer drop1
I0122 16:35:38.076089 54582 net.cpp:435] drop1 <- pool1
I0122 16:35:38.076122 54582 net.cpp:409] drop1 -> drop1
I0122 16:35:38.076182 54582 net.cpp:144] Setting up drop1
I0122 16:35:38.076200 54582 net.cpp:151] Top shape: 128 32 16 16 (1048576)
I0122 16:35:38.076206 54582 net.cpp:159] Memory required for data: 110625280
I0122 16:35:38.076211 54582 layer_factory.hpp:77] Creating layer conv3
I0122 16:35:38.076226 54582 net.cpp:94] Creating Layer conv3
I0122 16:35:38.076234 54582 net.cpp:435] conv3 <- drop1
I0122 16:35:38.076244 54582 net.cpp:409] conv3 -> conv3
I0122 16:35:38.078013 54582 net.cpp:144] Setting up conv3
I0122 16:35:38.078034 54582 net.cpp:151] Top shape: 128 64 16 16 (2097152)
I0122 16:35:38.078040 54582 net.cpp:159] Memory required for data: 119013888
I0122 16:35:38.078055 54582 layer_factory.hpp:77] Creating layer bn3
I0122 16:35:38.078068 54582 net.cpp:94] Creating Layer bn3
I0122 16:35:38.078078 54582 net.cpp:435] bn3 <- conv3
I0122 16:35:38.078088 54582 net.cpp:409] bn3 -> scale3
I0122 16:35:38.079344 54582 net.cpp:144] Setting up bn3
I0122 16:35:38.079356 54582 net.cpp:151] Top shape: 128 64 16 16 (2097152)
I0122 16:35:38.079361 54582 net.cpp:159] Memory required for data: 127402496
I0122 16:35:38.079385 54582 layer_factory.hpp:77] Creating layer relu3
I0122 16:35:38.079396 54582 net.cpp:94] Creating Layer relu3
I0122 16:35:38.079403 54582 net.cpp:435] relu3 <- scale3
I0122 16:35:38.079411 54582 net.cpp:409] relu3 -> relu3
I0122 16:35:38.079445 54582 net.cpp:144] Setting up relu3
I0122 16:35:38.079459 54582 net.cpp:151] Top shape: 128 64 16 16 (2097152)
I0122 16:35:38.079464 54582 net.cpp:159] Memory required for data: 135791104
I0122 16:35:38.079470 54582 layer_factory.hpp:77] Creating layer conv4
I0122 16:35:38.079484 54582 net.cpp:94] Creating Layer conv4
I0122 16:35:38.079493 54582 net.cpp:435] conv4 <- relu3
I0122 16:35:38.079502 54582 net.cpp:409] conv4 -> conv4
I0122 16:35:38.080332 54582 net.cpp:144] Setting up conv4
I0122 16:35:38.080343 54582 net.cpp:151] Top shape: 128 64 16 16 (2097152)
I0122 16:35:38.080350 54582 net.cpp:159] Memory required for data: 144179712
I0122 16:35:38.080359 54582 layer_factory.hpp:77] Creating layer bn4
I0122 16:35:38.080373 54582 net.cpp:94] Creating Layer bn4
I0122 16:35:38.080379 54582 net.cpp:435] bn4 <- conv4
I0122 16:35:38.080390 54582 net.cpp:409] bn4 -> scale4
I0122 16:35:38.081591 54582 net.cpp:144] Setting up bn4
I0122 16:35:38.081604 54582 net.cpp:151] Top shape: 128 64 16 16 (2097152)
I0122 16:35:38.081609 54582 net.cpp:159] Memory required for data: 152568320
I0122 16:35:38.081624 54582 layer_factory.hpp:77] Creating layer relu4
I0122 16:35:38.081634 54582 net.cpp:94] Creating Layer relu4
I0122 16:35:38.081640 54582 net.cpp:435] relu4 <- scale4
I0122 16:35:38.081648 54582 net.cpp:409] relu4 -> relu4
I0122 16:35:38.081681 54582 net.cpp:144] Setting up relu4
I0122 16:35:38.081691 54582 net.cpp:151] Top shape: 128 64 16 16 (2097152)
I0122 16:35:38.081696 54582 net.cpp:159] Memory required for data: 160956928
I0122 16:35:38.081701 54582 layer_factory.hpp:77] Creating layer pool2
I0122 16:35:38.081712 54582 net.cpp:94] Creating Layer pool2
I0122 16:35:38.081719 54582 net.cpp:435] pool2 <- relu4
I0122 16:35:38.081728 54582 net.cpp:409] pool2 -> pool2
I0122 16:35:38.081786 54582 net.cpp:144] Setting up pool2
I0122 16:35:38.081797 54582 net.cpp:151] Top shape: 128 64 8 8 (524288)
I0122 16:35:38.081802 54582 net.cpp:159] Memory required for data: 163054080
I0122 16:35:38.081807 54582 layer_factory.hpp:77] Creating layer drop2
I0122 16:35:38.081817 54582 net.cpp:94] Creating Layer drop2
I0122 16:35:38.081826 54582 net.cpp:435] drop2 <- pool2
I0122 16:35:38.081835 54582 net.cpp:409] drop2 -> drop2
I0122 16:35:38.082007 54582 net.cpp:144] Setting up drop2
I0122 16:35:38.082021 54582 net.cpp:151] Top shape: 128 64 8 8 (524288)
I0122 16:35:38.082027 54582 net.cpp:159] Memory required for data: 165151232
I0122 16:35:38.082032 54582 layer_factory.hpp:77] Creating layer fc1
I0122 16:35:38.082044 54582 net.cpp:94] Creating Layer fc1
I0122 16:35:38.082052 54582 net.cpp:435] fc1 <- drop2
I0122 16:35:38.082063 54582 net.cpp:409] fc1 -> fc1
I0122 16:35:38.104075 54582 net.cpp:144] Setting up fc1
I0122 16:35:38.104104 54582 net.cpp:151] Top shape: 128 512 (65536)
I0122 16:35:38.104106 54582 net.cpp:159] Memory required for data: 165413376
I0122 16:35:38.104115 54582 layer_factory.hpp:77] Creating layer bn5
I0122 16:35:38.104123 54582 net.cpp:94] Creating Layer bn5
I0122 16:35:38.104127 54582 net.cpp:435] bn5 <- fc1
I0122 16:35:38.104135 54582 net.cpp:409] bn5 -> scale5
I0122 16:35:38.104707 54582 net.cpp:144] Setting up bn5
I0122 16:35:38.104713 54582 net.cpp:151] Top shape: 128 512 (65536)
I0122 16:35:38.104715 54582 net.cpp:159] Memory required for data: 165675520
I0122 16:35:38.104728 54582 layer_factory.hpp:77] Creating layer relu5
I0122 16:35:38.104737 54582 net.cpp:94] Creating Layer relu5
I0122 16:35:38.104740 54582 net.cpp:435] relu5 <- scale5
I0122 16:35:38.104744 54582 net.cpp:409] relu5 -> relu5
I0122 16:35:38.104764 54582 net.cpp:144] Setting up relu5
I0122 16:35:38.104769 54582 net.cpp:151] Top shape: 128 512 (65536)
I0122 16:35:38.104773 54582 net.cpp:159] Memory required for data: 165937664
I0122 16:35:38.104774 54582 layer_factory.hpp:77] Creating layer drop3
I0122 16:35:38.104779 54582 net.cpp:94] Creating Layer drop3
I0122 16:35:38.104782 54582 net.cpp:435] drop3 <- relu5
I0122 16:35:38.104789 54582 net.cpp:409] drop3 -> drop3
I0122 16:35:38.104815 54582 net.cpp:144] Setting up drop3
I0122 16:35:38.104820 54582 net.cpp:151] Top shape: 128 512 (65536)
I0122 16:35:38.104823 54582 net.cpp:159] Memory required for data: 166199808
I0122 16:35:38.104826 54582 layer_factory.hpp:77] Creating layer fc2
I0122 16:35:38.104833 54582 net.cpp:94] Creating Layer fc2
I0122 16:35:38.104837 54582 net.cpp:435] fc2 <- drop3
I0122 16:35:38.104843 54582 net.cpp:409] fc2 -> fc2
I0122 16:35:38.104979 54582 net.cpp:144] Setting up fc2
I0122 16:35:38.104984 54582 net.cpp:151] Top shape: 128 10 (1280)
I0122 16:35:38.104986 54582 net.cpp:159] Memory required for data: 166204928
I0122 16:35:38.104991 54582 layer_factory.hpp:77] Creating layer loss
I0122 16:35:38.104996 54582 net.cpp:94] Creating Layer loss
I0122 16:35:38.105000 54582 net.cpp:435] loss <- fc2
I0122 16:35:38.105003 54582 net.cpp:435] loss <- label
I0122 16:35:38.105008 54582 net.cpp:409] loss -> loss
I0122 16:35:38.105015 54582 layer_factory.hpp:77] Creating layer loss
…
I0122 16:35:38.106206 54582 solver.cpp:189] Creating test net (#0) specified by net file: cifar10/deephi/miniVggNet/pruning/regular_rate_0.4/net_finetune.prototxt
I0122 16:35:38.106240 54582 net.cpp:323] The NetState phase (1) differed from the phase (0) specified by a rule in layer data
I0122 16:35:38.106427 54582 net.cpp:52] Initializing net from parameters: 
state {
  phase: TEST
}
layer {
  name: "data"
  type: "Data"
  top: "data"
  top: "label"
  include {
    phase: TEST
  }
  transform_param {
    mirror: false
    mean_value: 125
    mean_value: 123
    mean_value: 114
  }
  data_param {
    source: "cifar10/input/lmdb/valid_lmdb"
    batch_size: 50
    backend: LMDB
  }
}
layer {
  name: "conv1"
  type: "Convolution"
  bottom: "data"
  top: "conv1"
  param {
    lr_mult: 1
    decay_mult: 1
    compression: PRUNE
  }
  param {
    lr_mult: 2
    decay_mult: 0
    compression: PRUNE
  }
  convolution_param {
    num_output: 32
    pad: 1
    kernel_size: 3
    stride: 1
    weight_filler {
      type: "xavier"
    }
    bias_filler {
      type: "constant"
      value: 0
    }
  }
}
layer {
  name: "bn1"
  type: "BatchNorm"
  bottom: "conv1"
  top: "scale1"
  param {
    lr_mult: 1
    decay_mult: 0
    compression: PRUNE
  }
  param {
    lr_mult: 1
    decay_mult: 0
    compression: PRUNE
  }
  param {
    lr_mult: 0
    decay_mult: 0
    compression: PRUNE
  }
  param {
    lr_mult: 0
    decay_mult: 0
    compression: PRUNE
  }
  batch_norm_param {
    use_global_stats: false
    scale_filler {
      type: "constant"
      value: 1
    }
    bias_filler {
      type: "constant"
      value: 0
    }
  }
}
layer {
  name: "relu1"
  type: "ReLU"
  bottom: "scale1"
  top: "relu1"
}
layer {
  name: "conv2"
  type: "Convolution"
  bottom: "relu1"
  top: "conv2"
  param {
    lr_mult: 1
    decay_mult: 1
    compression: PRUNE
  }
  param {
    lr_mult: 2
    decay_mult: 0
    compression: PRUNE
  }
  convolution_param {
    num_output: 32
    pad: 1
    kernel_size: 3
    stride: 1
    weight_filler {
      type: "xavier"
    }
    bias_filler {
      type: "constant"
      value: 0
    }
  }
}
layer {
  name: "bn2"
  type: "BatchNorm"
  bottom: "conv2"
  top: "scale2"
  param {
    lr_mult: 1
    decay_mult: 0
    compression: PRUNE
  }
  param {
    lr_mult: 1
    decay_mult: 0
    compression: PRUNE
  }
  param {
    lr_mult: 0
    decay_mult: 0
    compression: PRUNE
  }
  param {
    lr_mult: 0
    decay_mult: 0
    compression: PRUNE
  }
  batch_norm_param {
    use_global_stats: false
    scale_filler {
      type: "constant"
      value: 1
    }
    bias_filler {
      type: "constant"
      value: 0
    }
  }
}
layer {
  name: "relu2"
  type: "ReLU"
  bottom: "scale2"
  top: "relu2"
}
layer {
  name: "pool1"
  type: "Pooling"
  bottom: "relu2"
  top: "pool1"
  pooling_param {
    pool: MAX
    kernel_size: 2
    stride: 2
  }
}
layer {
  name: "drop1"
  type: "Dropout"
  bottom: "pool1"
  top: "drop1"
  dropout_param {
    dropout_ratio: 0.25
  }
}
layer {
  name: "conv3"
  type: "Convolution"
  bottom: "drop1"
  top: "conv3"
  param {
    lr_mult: 1
    decay_mult: 1
    compression: PRUNE
  }
  param {
    lr_mult: 2
    decay_mult: 0
    compression: PRUNE
  }
  convolution_param {
    num_output: 64
    pad: 1
    kernel_size: 3
    stride: 1
    weight_filler {
      type: "xavier"
    }
    bias_filler {
      type: "constant"
      value: 0
    }
  }
}
layer {
  name: "bn3"
  type: "BatchNorm"
  bottom: "conv3"
  top: "scale3"
  param {
    lr_mult: 1
    decay_mult: 0
    compression: PRUNE
  }
  param {
    lr_mult: 1
    decay_mult: 0
    compression: PRUNE
  }
  param {
    lr_mult: 0
    decay_mult: 0
    compression: PRUNE
  }
  param {
    lr_mult: 0
    decay_mult: 0
    compression: PRUNE
  }
  batch_norm_param {
    use_global_stats: false
    scale_filler {
      type: "constant"
      value: 1
    }
    bias_filler {
      type: "constant"
      value: 0
    }
  }
}
layer {
  name: "relu3"
  type: "ReLU"
  bottom: "scale3"
  top: "relu3"
}
layer {
  name: "conv4"
  type: "Convolution"
  bottom: "relu3"
  top: "conv4"
  param {
    lr_mult: 1
    decay_mult: 1
    compression: PRUNE
  }
  param {
    lr_mult: 2
    decay_mult: 0
    compression: PRUNE
  }
  convolution_param {
    num_output: 64
    pad: 1
    kernel_size: 3
    stride: 1
    weight_filler {
      type: "xavier"
    }
    bias_filler {
      type: "constant"
      value: 0
    }
  }
}
layer {
  name: "bn4"
  type: "BatchNorm"
  bottom: "conv4"
  top: "scale4"
  param {
    lr_mult: 1
    decay_mult: 0
    compression: PRUNE
  }
  param {
    lr_mult: 1
    decay_mult: 0
    compression: PRUNE
  }
  param {
    lr_mult: 0
    decay_mult: 0
    compression: PRUNE
  }
  param {
    lr_mult: 0
    decay_mult: 0
    compression: PRUNE
  }
  batch_norm_param {
    use_global_stats: false
    scale_filler {
      type: "constant"
      value: 1
    }
    bias_filler {
      type: "constant"
      value: 0
    }
  }
}
layer {
  name: "relu4"
  type: "ReLU"
  bottom: "scale4"
  top: "relu4"
}
layer {
  name: "pool2"
  type: "Pooling"
  bottom: "relu4"
  top: "pool2"
  pooling_param {
    pool: MAX
    kernel_size: 2
    stride: 2
  }
}
layer {
  name: "drop2"
  type: "Dropout"
  bottom: "pool2"
  top: "drop2"
  dropout_param {
    dropout_ratio: 0.25
  }
}
layer {
  name: "fc1"
  type: "InnerProduct"
  bottom: "drop2"
  top: "fc1"
  param {
    lr_mult: 1
    decay_mult: 1
  }
  param {
    lr_mult: 2
    decay_mult: 0
  }
  inner_product_param {
    num_output: 512
    weight_filler {
      type: "xavier"
    }
    bias_filler {
      type: "constant"
      value: 1
    }
  }
}
layer {
  name: "bn5"
  type: "BatchNorm"
  bottom: "fc1"
  top: "scale5"
  param {
    lr_mult: 1
    decay_mult: 0
    compression: PRUNE
  }
  param {
    lr_mult: 1
    decay_mult: 0
    compression: PRUNE
  }
  param {
    lr_mult: 0
    decay_mult: 0
    compression: PRUNE
  }
  param {
    lr_mult: 0
    decay_mult: 0
    compression: PRUNE
  }
  batch_norm_param {
    use_global_stats: false
    scale_filler {
      type: "constant"
      value: 1
    }
    bias_filler {
      type: "constant"
      value: 0
    }
  }
}
layer {
  name: "relu5"
  type: "ReLU"
  bottom: "scale5"
  top: "relu5"
}
layer {
  name: "drop3"
  type: "Dropout"
  bottom: "relu5"
  top: "drop3"
  dropout_param {
    dropout_ratio: 0.5
  }
}
layer {
  name: "fc2"
  type: "InnerProduct"
  bottom: "drop3"
  top: "fc2"
  param {
    lr_mult: 1
    decay_mult: 1
  }
  param {
    lr_mult: 2
    decay_mult: 0
  }
  inner_product_param {
    num_output: 10
    weight_filler {
      type: "xavier"
    }
    bias_filler {
      type: "constant"
      value: 1
    }
  }
}
layer {
  name: "loss"
  type: "SoftmaxWithLoss"
  bottom: "fc2"
  bottom: "label"
  top: "loss"
}
layer {
  name: "accuracy-top1"
  type: "Accuracy"
  bottom: "fc2"
  bottom: "label"
  top: "top-1"
  include {
    phase: TEST
  }
}
layer {
  name: "accuracy-top5"
  type: "Accuracy"
  bottom: "fc2"
  bottom: "label"
  top: "top-5"
  include {
    phase: TEST
  }
  accuracy_param {
    top_k: 5
  }
}
I0122 16:35:38.106532 54582 layer_factory.hpp:77] Creating layer data
I0122 16:35:38.106576 54582 internal_thread.cpp:27] Starting internal thread(s) on GPU 0
I0122 16:35:38.107393 54582 net.cpp:94] Creating Layer data
I0122 16:35:38.107409 54582 net.cpp:409] data -> data
I0122 16:35:38.107416 54582 net.cpp:409] data -> label
I0122 16:35:38.108531 54653 db_lmdb.cpp:35] Opened lmdb cifar10/input/lmdb/valid_lmdb
I0122 16:35:38.108566 54653 data_reader.cpp:117] TEST: reading data using 1 channel(s)
I0122 16:35:38.108640 54582 data_layer.cpp:78] ReshapePrefetch 50, 3, 32, 32
I0122 16:35:38.108724 54582 data_layer.cpp:83] output data size: 50,3,32,32
I0122 16:35:38.112179 54582 internal_thread.cpp:27] Starting internal thread(s) on GPU 0
I0122 16:35:38.112229 54582 net.cpp:144] Setting up data
I0122 16:35:38.112246 54582 net.cpp:151] Top shape: 50 3 32 32 (153600)
I0122 16:35:38.112251 54582 net.cpp:151] Top shape: 50 (50)
I0122 16:35:38.112252 54582 net.cpp:159] Memory required for data: 614600
I0122 16:35:38.112257 54582 layer_factory.hpp:77] Creating layer label_data_1_split
I0122 16:35:38.112263 54582 net.cpp:94] Creating Layer label_data_1_split
I0122 16:35:38.112268 54582 net.cpp:435] label_data_1_split <- label
I0122 16:35:38.112288 54582 net.cpp:409] label_data_1_split -> label_data_1_split_0
I0122 16:35:38.112298 54582 net.cpp:409] label_data_1_split -> label_data_1_split_1
I0122 16:35:38.112303 54582 net.cpp:409] label_data_1_split -> label_data_1_split_2
I0122 16:35:38.112409 54582 net.cpp:144] Setting up label_data_1_split
I0122 16:35:38.112414 54582 net.cpp:151] Top shape: 50 (50)
I0122 16:35:38.112417 54582 net.cpp:151] Top shape: 50 (50)
I0122 16:35:38.112421 54582 net.cpp:151] Top shape: 50 (50)
I0122 16:35:38.112422 54582 net.cpp:159] Memory required for data: 615200
I0122 16:35:38.112426 54582 layer_factory.hpp:77] Creating layer conv1
I0122 16:35:38.112444 54582 net.cpp:94] Creating Layer conv1
I0122 16:35:38.112449 54582 net.cpp:435] conv1 <- data
I0122 16:35:38.112457 54582 net.cpp:409] conv1 -> conv1
I0122 16:35:38.112788 54582 net.cpp:144] Setting up conv1
I0122 16:35:38.112795 54582 net.cpp:151] Top shape: 50 32 32 32 (1638400)
I0122 16:35:38.112797 54582 net.cpp:159] Memory required for data: 7168800
I0122 16:35:38.112807 54582 layer_factory.hpp:77] Creating layer bn1
I0122 16:35:38.112814 54582 net.cpp:94] Creating Layer bn1
I0122 16:35:38.112819 54582 net.cpp:435] bn1 <- conv1
I0122 16:35:38.112825 54582 net.cpp:409] bn1 -> scale1
I0122 16:35:38.113497 54582 net.cpp:144] Setting up bn1
I0122 16:35:38.113504 54582 net.cpp:151] Top shape: 50 32 32 32 (1638400)
I0122 16:35:38.113508 54582 net.cpp:159] Memory required for data: 13722400
I0122 16:35:38.113519 54582 layer_factory.hpp:77] Creating layer relu1
I0122 16:35:38.113526 54582 net.cpp:94] Creating Layer relu1
I0122 16:35:38.113529 54582 net.cpp:435] relu1 <- scale1
I0122 16:35:38.113534 54582 net.cpp:409] relu1 -> relu1
I0122 16:35:38.113554 54582 net.cpp:144] Setting up relu1
I0122 16:35:38.113559 54582 net.cpp:151] Top shape: 50 32 32 32 (1638400)
I0122 16:35:38.113561 54582 net.cpp:159] Memory required for data: 20276000
I0122 16:35:38.113564 54582 layer_factory.hpp:77] Creating layer conv2
I0122 16:35:38.113574 54582 net.cpp:94] Creating Layer conv2
I0122 16:35:38.113579 54582 net.cpp:435] conv2 <- relu1
I0122 16:35:38.113584 54582 net.cpp:409] conv2 -> conv2
I0122 16:35:38.114156 54582 net.cpp:144] Setting up conv2
I0122 16:35:38.114163 54582 net.cpp:151] Top shape: 50 32 32 32 (1638400)
I0122 16:35:38.114166 54582 net.cpp:159] Memory required for data: 26829600
I0122 16:35:38.114174 54582 layer_factory.hpp:77] Creating layer bn2
I0122 16:35:38.114182 54582 net.cpp:94] Creating Layer bn2
I0122 16:35:38.114187 54582 net.cpp:435] bn2 <- conv2
I0122 16:35:38.114193 54582 net.cpp:409] bn2 -> scale2
I0122 16:35:38.115003 54582 net.cpp:144] Setting up bn2
I0122 16:35:38.115011 54582 net.cpp:151] Top shape: 50 32 32 32 (1638400)
I0122 16:35:38.115015 54582 net.cpp:159] Memory required for data: 33383200
I0122 16:35:38.115021 54582 layer_factory.hpp:77] Creating layer relu2
I0122 16:35:38.115027 54582 net.cpp:94] Creating Layer relu2
I0122 16:35:38.115032 54582 net.cpp:435] relu2 <- scale2
I0122 16:35:38.115037 54582 net.cpp:409] relu2 -> relu2
I0122 16:35:38.115075 54582 net.cpp:144] Setting up relu2
I0122 16:35:38.115087 54582 net.cpp:151] Top shape: 50 32 32 32 (1638400)
I0122 16:35:38.115090 54582 net.cpp:159] Memory required for data: 39936800
I0122 16:35:38.115093 54582 layer_factory.hpp:77] Creating layer pool1
I0122 16:35:38.115100 54582 net.cpp:94] Creating Layer pool1
I0122 16:35:38.115105 54582 net.cpp:435] pool1 <- relu2
I0122 16:35:38.115110 54582 net.cpp:409] pool1 -> pool1
I0122 16:35:38.115162 54582 net.cpp:144] Setting up pool1
I0122 16:35:38.115177 54582 net.cpp:151] Top shape: 50 32 16 16 (409600)
I0122 16:35:38.115180 54582 net.cpp:159] Memory required for data: 41575200
I0122 16:35:38.115183 54582 layer_factory.hpp:77] Creating layer drop1
I0122 16:35:38.115188 54582 net.cpp:94] Creating Layer drop1
I0122 16:35:38.115191 54582 net.cpp:435] drop1 <- pool1
I0122 16:35:38.115196 54582 net.cpp:409] drop1 -> drop1
I0122 16:35:38.115263 54582 net.cpp:144] Setting up drop1
I0122 16:35:38.115269 54582 net.cpp:151] Top shape: 50 32 16 16 (409600)
I0122 16:35:38.115272 54582 net.cpp:159] Memory required for data: 43213600
I0122 16:35:38.115274 54582 layer_factory.hpp:77] Creating layer conv3
I0122 16:35:38.115283 54582 net.cpp:94] Creating Layer conv3
I0122 16:35:38.115288 54582 net.cpp:435] conv3 <- drop1
I0122 16:35:38.115294 54582 net.cpp:409] conv3 -> conv3
I0122 16:35:38.115715 54582 net.cpp:144] Setting up conv3
I0122 16:35:38.115721 54582 net.cpp:151] Top shape: 50 64 16 16 (819200)
I0122 16:35:38.115725 54582 net.cpp:159] Memory required for data: 46490400
I0122 16:35:38.115730 54582 layer_factory.hpp:77] Creating layer bn3
I0122 16:35:38.115741 54582 net.cpp:94] Creating Layer bn3
I0122 16:35:38.115747 54582 net.cpp:435] bn3 <- conv3
I0122 16:35:38.115753 54582 net.cpp:409] bn3 -> scale3
I0122 16:35:38.116430 54582 net.cpp:144] Setting up bn3
I0122 16:35:38.116436 54582 net.cpp:151] Top shape: 50 64 16 16 (819200)
I0122 16:35:38.116439 54582 net.cpp:159] Memory required for data: 49767200
I0122 16:35:38.116451 54582 layer_factory.hpp:77] Creating layer relu3
I0122 16:35:38.116457 54582 net.cpp:94] Creating Layer relu3
I0122 16:35:38.116461 54582 net.cpp:435] relu3 <- scale3
I0122 16:35:38.116467 54582 net.cpp:409] relu3 -> relu3
I0122 16:35:38.116485 54582 net.cpp:144] Setting up relu3
I0122 16:35:38.116492 54582 net.cpp:151] Top shape: 50 64 16 16 (819200)
I0122 16:35:38.116494 54582 net.cpp:159] Memory required for data: 53044000
I0122 16:35:38.116498 54582 layer_factory.hpp:77] Creating layer conv4
I0122 16:35:38.116508 54582 net.cpp:94] Creating Layer conv4
I0122 16:35:38.116511 54582 net.cpp:435] conv4 <- relu3
I0122 16:35:38.116518 54582 net.cpp:409] conv4 -> conv4
I0122 16:35:38.117038 54582 net.cpp:144] Setting up conv4
I0122 16:35:38.117044 54582 net.cpp:151] Top shape: 50 64 16 16 (819200)
I0122 16:35:38.117046 54582 net.cpp:159] Memory required for data: 56320800
I0122 16:35:38.117053 54582 layer_factory.hpp:77] Creating layer bn4
I0122 16:35:38.117061 54582 net.cpp:94] Creating Layer bn4
I0122 16:35:38.117064 54582 net.cpp:435] bn4 <- conv4
I0122 16:35:38.117070 54582 net.cpp:409] bn4 -> scale4
I0122 16:35:38.117772 54582 net.cpp:144] Setting up bn4
I0122 16:35:38.117779 54582 net.cpp:151] Top shape: 50 64 16 16 (819200)
I0122 16:35:38.117784 54582 net.cpp:159] Memory required for data: 59597600
I0122 16:35:38.117790 54582 layer_factory.hpp:77] Creating layer relu4
I0122 16:35:38.117795 54582 net.cpp:94] Creating Layer relu4
I0122 16:35:38.117799 54582 net.cpp:435] relu4 <- scale4
I0122 16:35:38.117805 54582 net.cpp:409] relu4 -> relu4
I0122 16:35:38.117822 54582 net.cpp:144] Setting up relu4
I0122 16:35:38.117830 54582 net.cpp:151] Top shape: 50 64 16 16 (819200)
I0122 16:35:38.117832 54582 net.cpp:159] Memory required for data: 62874400
I0122 16:35:38.117835 54582 layer_factory.hpp:77] Creating layer pool2
I0122 16:35:38.117844 54582 net.cpp:94] Creating Layer pool2
I0122 16:35:38.117846 54582 net.cpp:435] pool2 <- relu4
I0122 16:35:38.117851 54582 net.cpp:409] pool2 -> pool2
I0122 16:35:38.117947 54582 net.cpp:144] Setting up pool2
I0122 16:35:38.117954 54582 net.cpp:151] Top shape: 50 64 8 8 (204800)
I0122 16:35:38.117955 54582 net.cpp:159] Memory required for data: 63693600
I0122 16:35:38.117959 54582 layer_factory.hpp:77] Creating layer drop2
I0122 16:35:38.117964 54582 net.cpp:94] Creating Layer drop2
I0122 16:35:38.117966 54582 net.cpp:435] drop2 <- pool2
I0122 16:35:38.117971 54582 net.cpp:409] drop2 -> drop2
I0122 16:35:38.118003 54582 net.cpp:144] Setting up drop2
I0122 16:35:38.118010 54582 net.cpp:151] Top shape: 50 64 8 8 (204800)
I0122 16:35:38.118021 54582 net.cpp:159] Memory required for data: 64512800
I0122 16:35:38.118024 54582 layer_factory.hpp:77] Creating layer fc1
I0122 16:35:38.118031 54582 net.cpp:94] Creating Layer fc1
I0122 16:35:38.118033 54582 net.cpp:435] fc1 <- drop2
I0122 16:35:38.118039 54582 net.cpp:409] fc1 -> fc1
I0122 16:35:38.132061 54582 net.cpp:144] Setting up fc1
I0122 16:35:38.132078 54582 net.cpp:151] Top shape: 50 512 (25600)
I0122 16:35:38.132081 54582 net.cpp:159] Memory required for data: 64615200
I0122 16:35:38.132087 54582 layer_factory.hpp:77] Creating layer bn5
I0122 16:35:38.132094 54582 net.cpp:94] Creating Layer bn5
I0122 16:35:38.132098 54582 net.cpp:435] bn5 <- fc1
I0122 16:35:38.132105 54582 net.cpp:409] bn5 -> scale5
I0122 16:35:38.132648 54582 net.cpp:144] Setting up bn5
I0122 16:35:38.132654 54582 net.cpp:151] Top shape: 50 512 (25600)
I0122 16:35:38.132658 54582 net.cpp:159] Memory required for data: 64717600
I0122 16:35:38.132670 54582 layer_factory.hpp:77] Creating layer relu5
I0122 16:35:38.132676 54582 net.cpp:94] Creating Layer relu5
I0122 16:35:38.132678 54582 net.cpp:435] relu5 <- scale5
I0122 16:35:38.132683 54582 net.cpp:409] relu5 -> relu5
I0122 16:35:38.132701 54582 net.cpp:144] Setting up relu5
I0122 16:35:38.132706 54582 net.cpp:151] Top shape: 50 512 (25600)
I0122 16:35:38.132709 54582 net.cpp:159] Memory required for data: 64820000
I0122 16:35:38.132711 54582 layer_factory.hpp:77] Creating layer drop3
I0122 16:35:38.132716 54582 net.cpp:94] Creating Layer drop3
I0122 16:35:38.132719 54582 net.cpp:435] drop3 <- relu5
I0122 16:35:38.132722 54582 net.cpp:409] drop3 -> drop3
I0122 16:35:38.132761 54582 net.cpp:144] Setting up drop3
I0122 16:35:38.132766 54582 net.cpp:151] Top shape: 50 512 (25600)
I0122 16:35:38.132769 54582 net.cpp:159] Memory required for data: 64922400
I0122 16:35:38.132771 54582 layer_factory.hpp:77] Creating layer fc2
I0122 16:35:38.132779 54582 net.cpp:94] Creating Layer fc2
I0122 16:35:38.132781 54582 net.cpp:435] fc2 <- drop3
I0122 16:35:38.132786 54582 net.cpp:409] fc2 -> fc2
I0122 16:35:38.132928 54582 net.cpp:144] Setting up fc2
I0122 16:35:38.132935 54582 net.cpp:151] Top shape: 50 10 (500)
I0122 16:35:38.132937 54582 net.cpp:159] Memory required for data: 64924400
I0122 16:35:38.132941 54582 layer_factory.hpp:77] Creating layer fc2_fc2_0_split
I0122 16:35:38.132948 54582 net.cpp:94] Creating Layer fc2_fc2_0_split
I0122 16:35:38.132954 54582 net.cpp:435] fc2_fc2_0_split <- fc2
I0122 16:35:38.132958 54582 net.cpp:409] fc2_fc2_0_split -> fc2_fc2_0_split_0
I0122 16:35:38.132964 54582 net.cpp:409] fc2_fc2_0_split -> fc2_fc2_0_split_1
I0122 16:35:38.132971 54582 net.cpp:409] fc2_fc2_0_split -> fc2_fc2_0_split_2
I0122 16:35:38.133011 54582 net.cpp:144] Setting up fc2_fc2_0_split
I0122 16:35:38.133016 54582 net.cpp:151] Top shape: 50 10 (500)
I0122 16:35:38.133020 54582 net.cpp:151] Top shape: 50 10 (500)
I0122 16:35:38.133023 54582 net.cpp:151] Top shape: 50 10 (500)
I0122 16:35:38.133025 54582 net.cpp:159] Memory required for data: 64930400
I0122 16:35:38.133028 54582 layer_factory.hpp:77] Creating layer loss
I0122 16:35:38.133033 54582 net.cpp:94] Creating Layer loss
I0122 16:35:38.133036 54582 net.cpp:435] loss <- fc2_fc2_0_split_0
I0122 16:35:38.133040 54582 net.cpp:435] loss <- label_data_1_split_0
I0122 16:35:38.133045 54582 net.cpp:409] loss -> loss
…
