…
I0122 16:25:48.326692 47756 net.cpp:323] The NetState phase (0) differed from the phase (1) specified by a rule in layer accuracy-top1
I0122 16:25:48.326695 47756 net.cpp:323] The NetState phase (0) differed from the phase (1) specified by a rule in layer accuracy-top5
I0122 16:25:48.326858 47756 net.cpp:52] Initializing net from parameters: 
state {
  phase: TRAIN
}
layer {
  name: "data"
  type: "Data"
  top: "data"
  top: "label"
  include {
    phase: TRAIN
  }
  transform_param {
    mirror: true
    mean_value: 125
    mean_value: 123
    mean_value: 114
  }
  data_param {
    source: "cifar10/input/lmdb/train_lmdb"
    batch_size: 128
    backend: LMDB
  }
}
layer {
  name: "conv1"
  type: "Convolution"
  bottom: "data"
  top: "conv1"
  param {
    lr_mult: 1
    decay_mult: 1
    compression: PRUNE
  }
  param {
    lr_mult: 2
    decay_mult: 0
    compression: PRUNE
  }
  convolution_param {
    num_output: 32
    pad: 1
    kernel_size: 3
    stride: 1
    weight_filler {
      type: "xavier"
    }
    bias_filler {
      type: "constant"
      value: 0
    }
  }
}
layer {
  name: "bn1"
  type: "BatchNorm"
  bottom: "conv1"
  top: "scale1"
  param {
    lr_mult: 1
    decay_mult: 0
    compression: PRUNE
  }
  param {
    lr_mult: 1
    decay_mult: 0
    compression: PRUNE
  }
  param {
    lr_mult: 0
    decay_mult: 0
    compression: PRUNE
  }
  param {
    lr_mult: 0
    decay_mult: 0
    compression: PRUNE
  }
  batch_norm_param {
    use_global_stats: false
    scale_filler {
      type: "constant"
      value: 1
    }
    bias_filler {
      type: "constant"
      value: 0
    }
  }
}
layer {
  name: "relu1"
  type: "ReLU"
  bottom: "scale1"
  top: "relu1"
}
layer {
  name: "conv2"
  type: "Convolution"
  bottom: "relu1"
  top: "conv2"
  param {
    lr_mult: 1
    decay_mult: 1
    compression: PRUNE
  }
  param {
    lr_mult: 2
    decay_mult: 0
    compression: PRUNE
  }
  convolution_param {
    num_output: 32
    pad: 1
    kernel_size: 3
    stride: 1
    weight_filler {
      type: "xavier"
    }
    bias_filler {
      type: "constant"
      value: 0
    }
  }
}
layer {
  name: "bn2"
  type: "BatchNorm"
  bottom: "conv2"
  top: "scale2"
  param {
    lr_mult: 1
    decay_mult: 0
    compression: PRUNE
  }
  param {
    lr_mult: 1
    decay_mult: 0
    compression: PRUNE
  }
  param {
    lr_mult: 0
    decay_mult: 0
    compression: PRUNE
  }
  param {
    lr_mult: 0
    decay_mult: 0
    compression: PRUNE
  }
  batch_norm_param {
    use_global_stats: false
    scale_filler {
      type: "constant"
      value: 1
    }
    bias_filler {
      type: "constant"
      value: 0
    }
  }
}
layer {
  name: "relu2"
  type: "ReLU"
  bottom: "scale2"
  top: "relu2"
}
layer {
  name: "pool1"
  type: "Pooling"
  bottom: "relu2"
  top: "pool1"
  pooling_param {
    pool: MAX
    kernel_size: 2
    stride: 2
  }
}
layer {
  name: "drop1"
  type: "Dropout"
  bottom: "pool1"
  top: "drop1"
  dropout_param {
    dropout_ratio: 0.25
  }
}
layer {
  name: "conv3"
  type: "Convolution"
  bottom: "drop1"
  top: "conv3"
  param {
    lr_mult: 1
    decay_mult: 1
    compression: PRUNE
  }
  param {
    lr_mult: 2
    decay_mult: 0
    compression: PRUNE
  }
  convolution_param {
    num_output: 64
    pad: 1
    kernel_size: 3
    stride: 1
    weight_filler {
      type: "xavier"
    }
    bias_filler {
      type: "constant"
      value: 0
    }
  }
}
layer {
  name: "bn3"
  type: "BatchNorm"
  bottom: "conv3"
  top: "scale3"
  param {
    lr_mult: 1
    decay_mult: 0
    compression: PRUNE
  }
  param {
    lr_mult: 1
    decay_mult: 0
    compression: PRUNE
  }
  param {
    lr_mult: 0
    decay_mult: 0
    compression: PRUNE
  }
  param {
    lr_mult: 0
    decay_mult: 0
    compression: PRUNE
  }
  batch_norm_param {
    use_global_stats: false
    scale_filler {
      type: "constant"
      value: 1
    }
    bias_filler {
      type: "constant"
      value: 0
    }
  }
}
layer {
  name: "relu3"
  type: "ReLU"
  bottom: "scale3"
  top: "relu3"
}
layer {
  name: "conv4"
  type: "Convolution"
  bottom: "relu3"
  top: "conv4"
  param {
    lr_mult: 1
    decay_mult: 1
    compression: PRUNE
  }
  param {
    lr_mult: 2
    decay_mult: 0
    compression: PRUNE
  }
  convolution_param {
    num_output: 64
    pad: 1
    kernel_size: 3
    stride: 1
    weight_filler {
      type: "xavier"
    }
    bias_filler {
      type: "constant"
      value: 0
    }
  }
}
layer {
  name: "bn4"
  type: "BatchNorm"
  bottom: "conv4"
  top: "scale4"
  param {
    lr_mult: 1
    decay_mult: 0
    compression: PRUNE
  }
  param {
    lr_mult: 1
    decay_mult: 0
    compression: PRUNE
  }
  param {
    lr_mult: 0
    decay_mult: 0
    compression: PRUNE
  }
  param {
    lr_mult: 0
    decay_mult: 0
    compression: PRUNE
  }
  batch_norm_param {
    use_global_stats: false
    scale_filler {
      type: "constant"
      value: 1
    }
    bias_filler {
      type: "constant"
      value: 0
    }
  }
}
layer {
  name: "relu4"
  type: "ReLU"
  bottom: "scale4"
  top: "relu4"
}
layer {
  name: "pool2"
  type: "Pooling"
  bottom: "relu4"
  top: "pool2"
  pooling_param {
    pool: MAX
    kernel_size: 2
    stride: 2
  }
}
layer {
  name: "drop2"
  type: "Dropout"
  bottom: "pool2"
  top: "drop2"
  dropout_param {
    dropout_ratio: 0.25
  }
}
layer {
  name: "fc1"
  type: "InnerProduct"
  bottom: "drop2"
  top: "fc1"
  param {
    lr_mult: 1
    decay_mult: 1
  }
  param {
    lr_mult: 2
    decay_mult: 0
  }
  inner_product_param {
    num_output: 512
    weight_filler {
      type: "xavier"
    }
    bias_filler {
      type: "constant"
      value: 1
    }
  }
}
layer {
  name: "bn5"
  type: "BatchNorm"
  bottom: "fc1"
  top: "scale5"
  param {
    lr_mult: 1
    decay_mult: 0
    compression: PRUNE
  }
  param {
    lr_mult: 1
    decay_mult: 0
    compression: PRUNE
  }
  param {
    lr_mult: 0
    decay_mult: 0
    compression: PRUNE
  }
  param {
    lr_mult: 0
    decay_mult: 0
    compression: PRUNE
  }
  batch_norm_param {
    use_global_stats: false
    scale_filler {
      type: "constant"
      value: 1
    }
    bias_filler {
      type: "constant"
      value: 0
    }
  }
}
layer {
  name: "relu5"
  type: "ReLU"
  bottom: "scale5"
  top: "relu5"
}
layer {
  name: "drop3"
  type: "Dropout"
  bottom: "relu5"
  top: "drop3"
  dropout_param {
    dropout_ratio: 0.5
  }
}
layer {
  name: "fc2"
  type: "InnerProduct"
  bottom: "drop3"
  top: "fc2"
  param {
    lr_mult: 1
    decay_mult: 1
  }
  param {
    lr_mult: 2
    decay_mult: 0
  }
  inner_product_param {
    num_output: 10
    weight_filler {
      type: "xavier"
    }
    bias_filler {
      type: "constant"
      value: 1
    }
  }
}
layer {
  name: "loss"
  type: "SoftmaxWithLoss"
  bottom: "fc2"
  bottom: "label"
  top: "loss"
}
I0122 16:25:48.326925 47756 layer_factory.hpp:77] Creating layer data
I0122 16:25:48.327015 47756 internal_thread.cpp:27] Starting internal thread(s) on GPU 0
I0122 16:25:48.327636 47756 net.cpp:94] Creating Layer data
I0122 16:25:48.327646 47756 net.cpp:409] data -> data
I0122 16:25:48.327670 47756 net.cpp:409] data -> label
I0122 16:25:48.329018 47795 db_lmdb.cpp:35] Opened lmdb cifar10/input/lmdb/train_lmdb
I0122 16:25:48.329069 47795 data_reader.cpp:117] TRAIN: reading data using 1 channel(s)
I0122 16:25:48.329151 47756 data_layer.cpp:78] ReshapePrefetch 128, 3, 32, 32
I0122 16:25:48.329226 47756 data_layer.cpp:83] output data size: 128,3,32,32
I0122 16:25:48.336788 47756 internal_thread.cpp:27] Starting internal thread(s) on GPU 0
I0122 16:25:48.336833 47756 net.cpp:144] Setting up data
I0122 16:25:48.336840 47756 net.cpp:151] Top shape: 128 3 32 32 (393216)
I0122 16:25:48.336844 47756 net.cpp:151] Top shape: 128 (128)
I0122 16:25:48.336848 47756 net.cpp:159] Memory required for data: 1573376
I0122 16:25:48.336851 47756 layer_factory.hpp:77] Creating layer conv1
I0122 16:25:48.336864 47756 net.cpp:94] Creating Layer conv1
I0122 16:25:48.336868 47756 net.cpp:435] conv1 <- data
I0122 16:25:48.336896 47756 net.cpp:409] conv1 -> conv1
I0122 16:25:48.337916 47756 net.cpp:144] Setting up conv1
I0122 16:25:48.337929 47756 net.cpp:151] Top shape: 128 32 32 32 (4194304)
I0122 16:25:48.337931 47756 net.cpp:159] Memory required for data: 18350592
I0122 16:25:48.337947 47756 layer_factory.hpp:77] Creating layer bn1
I0122 16:25:48.337956 47756 net.cpp:94] Creating Layer bn1
I0122 16:25:48.337960 47756 net.cpp:435] bn1 <- conv1
I0122 16:25:48.337965 47756 net.cpp:409] bn1 -> scale1
I0122 16:25:48.338557 47756 net.cpp:144] Setting up bn1
I0122 16:25:48.338563 47756 net.cpp:151] Top shape: 128 32 32 32 (4194304)
I0122 16:25:48.338567 47756 net.cpp:159] Memory required for data: 35127808
I0122 16:25:48.338577 47756 layer_factory.hpp:77] Creating layer relu1
I0122 16:25:48.338584 47756 net.cpp:94] Creating Layer relu1
I0122 16:25:48.338587 47756 net.cpp:435] relu1 <- scale1
I0122 16:25:48.338591 47756 net.cpp:409] relu1 -> relu1
I0122 16:25:48.338613 47756 net.cpp:144] Setting up relu1
I0122 16:25:48.338618 47756 net.cpp:151] Top shape: 128 32 32 32 (4194304)
I0122 16:25:48.338623 47756 net.cpp:159] Memory required for data: 51905024
I0122 16:25:48.338624 47756 layer_factory.hpp:77] Creating layer conv2
I0122 16:25:48.338632 47756 net.cpp:94] Creating Layer conv2
I0122 16:25:48.338637 47756 net.cpp:435] conv2 <- relu1
I0122 16:25:48.338641 47756 net.cpp:409] conv2 -> conv2
I0122 16:25:48.340191 47756 net.cpp:144] Setting up conv2
I0122 16:25:48.340201 47756 net.cpp:151] Top shape: 128 32 32 32 (4194304)
I0122 16:25:48.340204 47756 net.cpp:159] Memory required for data: 68682240
I0122 16:25:48.340212 47756 layer_factory.hpp:77] Creating layer bn2
I0122 16:25:48.340219 47756 net.cpp:94] Creating Layer bn2
I0122 16:25:48.340222 47756 net.cpp:435] bn2 <- conv2
I0122 16:25:48.340227 47756 net.cpp:409] bn2 -> scale2
I0122 16:25:48.340950 47756 net.cpp:144] Setting up bn2
I0122 16:25:48.340956 47756 net.cpp:151] Top shape: 128 32 32 32 (4194304)
I0122 16:25:48.340960 47756 net.cpp:159] Memory required for data: 85459456
I0122 16:25:48.340968 47756 layer_factory.hpp:77] Creating layer relu2
I0122 16:25:48.340973 47756 net.cpp:94] Creating Layer relu2
I0122 16:25:48.340976 47756 net.cpp:435] relu2 <- scale2
I0122 16:25:48.340981 47756 net.cpp:409] relu2 -> relu2
I0122 16:25:48.341011 47756 net.cpp:144] Setting up relu2
I0122 16:25:48.341017 47756 net.cpp:151] Top shape: 128 32 32 32 (4194304)
I0122 16:25:48.341019 47756 net.cpp:159] Memory required for data: 102236672
I0122 16:25:48.341022 47756 layer_factory.hpp:77] Creating layer pool1
I0122 16:25:48.341027 47756 net.cpp:94] Creating Layer pool1
I0122 16:25:48.341030 47756 net.cpp:435] pool1 <- relu2
I0122 16:25:48.341034 47756 net.cpp:409] pool1 -> pool1
I0122 16:25:48.341073 47756 net.cpp:144] Setting up pool1
I0122 16:25:48.341078 47756 net.cpp:151] Top shape: 128 32 16 16 (1048576)
I0122 16:25:48.341081 47756 net.cpp:159] Memory required for data: 106430976
I0122 16:25:48.341084 47756 layer_factory.hpp:77] Creating layer drop1
I0122 16:25:48.341089 47756 net.cpp:94] Creating Layer drop1
I0122 16:25:48.341092 47756 net.cpp:435] drop1 <- pool1
I0122 16:25:48.341109 47756 net.cpp:409] drop1 -> drop1
I0122 16:25:48.341142 47756 net.cpp:144] Setting up drop1
I0122 16:25:48.341147 47756 net.cpp:151] Top shape: 128 32 16 16 (1048576)
I0122 16:25:48.341151 47756 net.cpp:159] Memory required for data: 110625280
I0122 16:25:48.341153 47756 layer_factory.hpp:77] Creating layer conv3
I0122 16:25:48.341161 47756 net.cpp:94] Creating Layer conv3
I0122 16:25:48.341171 47756 net.cpp:435] conv3 <- drop1
I0122 16:25:48.341176 47756 net.cpp:409] conv3 -> conv3
I0122 16:25:48.342288 47756 net.cpp:144] Setting up conv3
I0122 16:25:48.342305 47756 net.cpp:151] Top shape: 128 64 16 16 (2097152)
I0122 16:25:48.342309 47756 net.cpp:159] Memory required for data: 119013888
I0122 16:25:48.342315 47756 layer_factory.hpp:77] Creating layer bn3
I0122 16:25:48.342322 47756 net.cpp:94] Creating Layer bn3
I0122 16:25:48.342325 47756 net.cpp:435] bn3 <- conv3
I0122 16:25:48.342330 47756 net.cpp:409] bn3 -> scale3
I0122 16:25:48.342959 47756 net.cpp:144] Setting up bn3
I0122 16:25:48.342967 47756 net.cpp:151] Top shape: 128 64 16 16 (2097152)
I0122 16:25:48.342970 47756 net.cpp:159] Memory required for data: 127402496
I0122 16:25:48.342983 47756 layer_factory.hpp:77] Creating layer relu3
I0122 16:25:48.342988 47756 net.cpp:94] Creating Layer relu3
I0122 16:25:48.342990 47756 net.cpp:435] relu3 <- scale3
I0122 16:25:48.342995 47756 net.cpp:409] relu3 -> relu3
I0122 16:25:48.343013 47756 net.cpp:144] Setting up relu3
I0122 16:25:48.343019 47756 net.cpp:151] Top shape: 128 64 16 16 (2097152)
I0122 16:25:48.343021 47756 net.cpp:159] Memory required for data: 135791104
I0122 16:25:48.343024 47756 layer_factory.hpp:77] Creating layer conv4
I0122 16:25:48.343031 47756 net.cpp:94] Creating Layer conv4
I0122 16:25:48.343034 47756 net.cpp:435] conv4 <- relu3
I0122 16:25:48.343039 47756 net.cpp:409] conv4 -> conv4
I0122 16:25:48.343451 47756 net.cpp:144] Setting up conv4
I0122 16:25:48.343464 47756 net.cpp:151] Top shape: 128 64 16 16 (2097152)
I0122 16:25:48.343468 47756 net.cpp:159] Memory required for data: 144179712
I0122 16:25:48.343474 47756 layer_factory.hpp:77] Creating layer bn4
I0122 16:25:48.343480 47756 net.cpp:94] Creating Layer bn4
I0122 16:25:48.343483 47756 net.cpp:435] bn4 <- conv4
I0122 16:25:48.343488 47756 net.cpp:409] bn4 -> scale4
I0122 16:25:48.344096 47756 net.cpp:144] Setting up bn4
I0122 16:25:48.344103 47756 net.cpp:151] Top shape: 128 64 16 16 (2097152)
I0122 16:25:48.344107 47756 net.cpp:159] Memory required for data: 152568320
I0122 16:25:48.344116 47756 layer_factory.hpp:77] Creating layer relu4
I0122 16:25:48.344120 47756 net.cpp:94] Creating Layer relu4
I0122 16:25:48.344125 47756 net.cpp:435] relu4 <- scale4
I0122 16:25:48.344128 47756 net.cpp:409] relu4 -> relu4
I0122 16:25:48.344146 47756 net.cpp:144] Setting up relu4
I0122 16:25:48.344151 47756 net.cpp:151] Top shape: 128 64 16 16 (2097152)
I0122 16:25:48.344153 47756 net.cpp:159] Memory required for data: 160956928
I0122 16:25:48.344156 47756 layer_factory.hpp:77] Creating layer pool2
I0122 16:25:48.344161 47756 net.cpp:94] Creating Layer pool2
I0122 16:25:48.344164 47756 net.cpp:435] pool2 <- relu4
I0122 16:25:48.344168 47756 net.cpp:409] pool2 -> pool2
I0122 16:25:48.344195 47756 net.cpp:144] Setting up pool2
I0122 16:25:48.344202 47756 net.cpp:151] Top shape: 128 64 8 8 (524288)
I0122 16:25:48.344207 47756 net.cpp:159] Memory required for data: 163054080
I0122 16:25:48.344208 47756 layer_factory.hpp:77] Creating layer drop2
I0122 16:25:48.344213 47756 net.cpp:94] Creating Layer drop2
I0122 16:25:48.344218 47756 net.cpp:435] drop2 <- pool2
I0122 16:25:48.344221 47756 net.cpp:409] drop2 -> drop2
I0122 16:25:48.344251 47756 net.cpp:144] Setting up drop2
I0122 16:25:48.344256 47756 net.cpp:151] Top shape: 128 64 8 8 (524288)
I0122 16:25:48.344260 47756 net.cpp:159] Memory required for data: 165151232
I0122 16:25:48.344262 47756 layer_factory.hpp:77] Creating layer fc1
I0122 16:25:48.344269 47756 net.cpp:94] Creating Layer fc1
I0122 16:25:48.344271 47756 net.cpp:435] fc1 <- drop2
I0122 16:25:48.344276 47756 net.cpp:409] fc1 -> fc1
I0122 16:25:48.358328 47756 net.cpp:144] Setting up fc1
I0122 16:25:48.358345 47756 net.cpp:151] Top shape: 128 512 (65536)
I0122 16:25:48.358348 47756 net.cpp:159] Memory required for data: 165413376
I0122 16:25:48.358355 47756 layer_factory.hpp:77] Creating layer bn5
I0122 16:25:48.358364 47756 net.cpp:94] Creating Layer bn5
I0122 16:25:48.358367 47756 net.cpp:435] bn5 <- fc1
I0122 16:25:48.358373 47756 net.cpp:409] bn5 -> scale5
I0122 16:25:48.358944 47756 net.cpp:144] Setting up bn5
I0122 16:25:48.358950 47756 net.cpp:151] Top shape: 128 512 (65536)
I0122 16:25:48.358954 47756 net.cpp:159] Memory required for data: 165675520
I0122 16:25:48.358965 47756 layer_factory.hpp:77] Creating layer relu5
I0122 16:25:48.358973 47756 net.cpp:94] Creating Layer relu5
I0122 16:25:48.358976 47756 net.cpp:435] relu5 <- scale5
I0122 16:25:48.358983 47756 net.cpp:409] relu5 -> relu5
I0122 16:25:48.359000 47756 net.cpp:144] Setting up relu5
I0122 16:25:48.359006 47756 net.cpp:151] Top shape: 128 512 (65536)
I0122 16:25:48.359009 47756 net.cpp:159] Memory required for data: 165937664
I0122 16:25:48.359011 47756 layer_factory.hpp:77] Creating layer drop3
I0122 16:25:48.359016 47756 net.cpp:94] Creating Layer drop3
I0122 16:25:48.359022 47756 net.cpp:435] drop3 <- relu5
I0122 16:25:48.359026 47756 net.cpp:409] drop3 -> drop3
I0122 16:25:48.359055 47756 net.cpp:144] Setting up drop3
I0122 16:25:48.359058 47756 net.cpp:151] Top shape: 128 512 (65536)
I0122 16:25:48.359062 47756 net.cpp:159] Memory required for data: 166199808
I0122 16:25:48.359064 47756 layer_factory.hpp:77] Creating layer fc2
I0122 16:25:48.359071 47756 net.cpp:94] Creating Layer fc2
I0122 16:25:48.359074 47756 net.cpp:435] fc2 <- drop3
I0122 16:25:48.359081 47756 net.cpp:409] fc2 -> fc2
I0122 16:25:48.359223 47756 net.cpp:144] Setting up fc2
I0122 16:25:48.359228 47756 net.cpp:151] Top shape: 128 10 (1280)
I0122 16:25:48.359231 47756 net.cpp:159] Memory required for data: 166204928
I0122 16:25:48.359236 47756 layer_factory.hpp:77] Creating layer loss
I0122 16:25:48.359241 47756 net.cpp:94] Creating Layer loss
I0122 16:25:48.359244 47756 net.cpp:435] loss <- fc2
I0122 16:25:48.359248 47756 net.cpp:435] loss <- label
I0122 16:25:48.359253 47756 net.cpp:409] loss -> loss
I0122 16:25:48.359261 47756 layer_factory.hpp:77] Creating layer loss
…
I0122 16:25:48.360469 47756 solver.cpp:189] Creating test net (#0) specified by net file: cifar10/deephi/miniVggNet/pruning/regular_rate_0.1/net_finetune.prototxt
I0122 16:25:48.360505 47756 net.cpp:323] The NetState phase (1) differed from the phase (0) specified by a rule in layer data
I0122 16:25:48.360702 47756 net.cpp:52] Initializing net from parameters: 
state {
  phase: TEST
}
layer {
  name: "data"
  type: "Data"
  top: "data"
  top: "label"
  include {
    phase: TEST
  }
  transform_param {
    mirror: false
    mean_value: 125
    mean_value: 123
    mean_value: 114
  }
  data_param {
    source: "cifar10/input/lmdb/valid_lmdb"
    batch_size: 50
    backend: LMDB
  }
}
layer {
  name: "conv1"
  type: "Convolution"
  bottom: "data"
  top: "conv1"
  param {
    lr_mult: 1
    decay_mult: 1
    compression: PRUNE
  }
  param {
    lr_mult: 2
    decay_mult: 0
    compression: PRUNE
  }
  convolution_param {
    num_output: 32
    pad: 1
    kernel_size: 3
    stride: 1
    weight_filler {
      type: "xavier"
    }
    bias_filler {
      type: "constant"
      value: 0
    }
  }
}
layer {
  name: "bn1"
  type: "BatchNorm"
  bottom: "conv1"
  top: "scale1"
  param {
    lr_mult: 1
    decay_mult: 0
    compression: PRUNE
  }
  param {
    lr_mult: 1
    decay_mult: 0
    compression: PRUNE
  }
  param {
    lr_mult: 0
    decay_mult: 0
    compression: PRUNE
  }
  param {
    lr_mult: 0
    decay_mult: 0
    compression: PRUNE
  }
  batch_norm_param {
    use_global_stats: false
    scale_filler {
      type: "constant"
      value: 1
    }
    bias_filler {
      type: "constant"
      value: 0
    }
  }
}
layer {
  name: "relu1"
  type: "ReLU"
  bottom: "scale1"
  top: "relu1"
}
layer {
  name: "conv2"
  type: "Convolution"
  bottom: "relu1"
  top: "conv2"
  param {
    lr_mult: 1
    decay_mult: 1
    compression: PRUNE
  }
  param {
    lr_mult: 2
    decay_mult: 0
    compression: PRUNE
  }
  convolution_param {
    num_output: 32
    pad: 1
    kernel_size: 3
    stride: 1
    weight_filler {
      type: "xavier"
    }
    bias_filler {
      type: "constant"
      value: 0
    }
  }
}
layer {
  name: "bn2"
  type: "BatchNorm"
  bottom: "conv2"
  top: "scale2"
  param {
    lr_mult: 1
    decay_mult: 0
    compression: PRUNE
  }
  param {
    lr_mult: 1
    decay_mult: 0
    compression: PRUNE
  }
  param {
    lr_mult: 0
    decay_mult: 0
    compression: PRUNE
  }
  param {
    lr_mult: 0
    decay_mult: 0
    compression: PRUNE
  }
  batch_norm_param {
    use_global_stats: false
    scale_filler {
      type: "constant"
      value: 1
    }
    bias_filler {
      type: "constant"
      value: 0
    }
  }
}
layer {
  name: "relu2"
  type: "ReLU"
  bottom: "scale2"
  top: "relu2"
}
layer {
  name: "pool1"
  type: "Pooling"
  bottom: "relu2"
  top: "pool1"
  pooling_param {
    pool: MAX
    kernel_size: 2
    stride: 2
  }
}
layer {
  name: "drop1"
  type: "Dropout"
  bottom: "pool1"
  top: "drop1"
  dropout_param {
    dropout_ratio: 0.25
  }
}
layer {
  name: "conv3"
  type: "Convolution"
  bottom: "drop1"
  top: "conv3"
  param {
    lr_mult: 1
    decay_mult: 1
    compression: PRUNE
  }
  param {
    lr_mult: 2
    decay_mult: 0
    compression: PRUNE
  }
  convolution_param {
    num_output: 64
    pad: 1
    kernel_size: 3
    stride: 1
    weight_filler {
      type: "xavier"
    }
    bias_filler {
      type: "constant"
      value: 0
    }
  }
}
layer {
  name: "bn3"
  type: "BatchNorm"
  bottom: "conv3"
  top: "scale3"
  param {
    lr_mult: 1
    decay_mult: 0
    compression: PRUNE
  }
  param {
    lr_mult: 1
    decay_mult: 0
    compression: PRUNE
  }
  param {
    lr_mult: 0
    decay_mult: 0
    compression: PRUNE
  }
  param {
    lr_mult: 0
    decay_mult: 0
    compression: PRUNE
  }
  batch_norm_param {
    use_global_stats: false
    scale_filler {
      type: "constant"
      value: 1
    }
    bias_filler {
      type: "constant"
      value: 0
    }
  }
}
layer {
  name: "relu3"
  type: "ReLU"
  bottom: "scale3"
  top: "relu3"
}
layer {
  name: "conv4"
  type: "Convolution"
  bottom: "relu3"
  top: "conv4"
  param {
    lr_mult: 1
    decay_mult: 1
    compression: PRUNE
  }
  param {
    lr_mult: 2
    decay_mult: 0
    compression: PRUNE
  }
  convolution_param {
    num_output: 64
    pad: 1
    kernel_size: 3
    stride: 1
    weight_filler {
      type: "xavier"
    }
    bias_filler {
      type: "constant"
      value: 0
    }
  }
}
layer {
  name: "bn4"
  type: "BatchNorm"
  bottom: "conv4"
  top: "scale4"
  param {
    lr_mult: 1
    decay_mult: 0
    compression: PRUNE
  }
  param {
    lr_mult: 1
    decay_mult: 0
    compression: PRUNE
  }
  param {
    lr_mult: 0
    decay_mult: 0
    compression: PRUNE
  }
  param {
    lr_mult: 0
    decay_mult: 0
    compression: PRUNE
  }
  batch_norm_param {
    use_global_stats: false
    scale_filler {
      type: "constant"
      value: 1
    }
    bias_filler {
      type: "constant"
      value: 0
    }
  }
}
layer {
  name: "relu4"
  type: "ReLU"
  bottom: "scale4"
  top: "relu4"
}
layer {
  name: "pool2"
  type: "Pooling"
  bottom: "relu4"
  top: "pool2"
  pooling_param {
    pool: MAX
    kernel_size: 2
    stride: 2
  }
}
layer {
  name: "drop2"
  type: "Dropout"
  bottom: "pool2"
  top: "drop2"
  dropout_param {
    dropout_ratio: 0.25
  }
}
layer {
  name: "fc1"
  type: "InnerProduct"
  bottom: "drop2"
  top: "fc1"
  param {
    lr_mult: 1
    decay_mult: 1
  }
  param {
    lr_mult: 2
    decay_mult: 0
  }
  inner_product_param {
    num_output: 512
    weight_filler {
      type: "xavier"
    }
    bias_filler {
      type: "constant"
      value: 1
    }
  }
}
layer {
  name: "bn5"
  type: "BatchNorm"
  bottom: "fc1"
  top: "scale5"
  param {
    lr_mult: 1
    decay_mult: 0
    compression: PRUNE
  }
  param {
    lr_mult: 1
    decay_mult: 0
    compression: PRUNE
  }
  param {
    lr_mult: 0
    decay_mult: 0
    compression: PRUNE
  }
  param {
    lr_mult: 0
    decay_mult: 0
    compression: PRUNE
  }
  batch_norm_param {
    use_global_stats: false
    scale_filler {
      type: "constant"
      value: 1
    }
    bias_filler {
      type: "constant"
      value: 0
    }
  }
}
layer {
  name: "relu5"
  type: "ReLU"
  bottom: "scale5"
  top: "relu5"
}
layer {
  name: "drop3"
  type: "Dropout"
  bottom: "relu5"
  top: "drop3"
  dropout_param {
    dropout_ratio: 0.5
  }
}
layer {
  name: "fc2"
  type: "InnerProduct"
  bottom: "drop3"
  top: "fc2"
  param {
    lr_mult: 1
    decay_mult: 1
  }
  param {
    lr_mult: 2
    decay_mult: 0
  }
  inner_product_param {
    num_output: 10
    weight_filler {
      type: "xavier"
    }
    bias_filler {
      type: "constant"
      value: 1
    }
  }
}
layer {
  name: "loss"
  type: "SoftmaxWithLoss"
  bottom: "fc2"
  bottom: "label"
  top: "loss"
}
layer {
  name: "accuracy-top1"
  type: "Accuracy"
  bottom: "fc2"
  bottom: "label"
  top: "top-1"
  include {
    phase: TEST
  }
}
layer {
  name: "accuracy-top5"
  type: "Accuracy"
  bottom: "fc2"
  bottom: "label"
  top: "top-5"
  include {
    phase: TEST
  }
  accuracy_param {
    top_k: 5
  }
}
I0122 16:25:48.360801 47756 layer_factory.hpp:77] Creating layer data
I0122 16:25:48.360841 47756 internal_thread.cpp:27] Starting internal thread(s) on GPU 0
I0122 16:25:48.362001 47756 net.cpp:94] Creating Layer data
I0122 16:25:48.362027 47756 net.cpp:409] data -> data
I0122 16:25:48.362048 47756 net.cpp:409] data -> label
I0122 16:25:48.362819 47825 db_lmdb.cpp:35] Opened lmdb cifar10/input/lmdb/valid_lmdb
I0122 16:25:48.362852 47825 data_reader.cpp:117] TEST: reading data using 1 channel(s)
I0122 16:25:48.362978 47756 data_layer.cpp:78] ReshapePrefetch 50, 3, 32, 32
I0122 16:25:48.363152 47756 data_layer.cpp:83] output data size: 50,3,32,32
I0122 16:25:48.368912 47756 internal_thread.cpp:27] Starting internal thread(s) on GPU 0
I0122 16:25:48.368989 47756 net.cpp:144] Setting up data
I0122 16:25:48.369007 47756 net.cpp:151] Top shape: 50 3 32 32 (153600)
I0122 16:25:48.369016 47756 net.cpp:151] Top shape: 50 (50)
I0122 16:25:48.369021 47756 net.cpp:159] Memory required for data: 614600
I0122 16:25:48.369036 47756 layer_factory.hpp:77] Creating layer label_data_1_split
I0122 16:25:48.369052 47756 net.cpp:94] Creating Layer label_data_1_split
I0122 16:25:48.369060 47756 net.cpp:435] label_data_1_split <- label
I0122 16:25:48.369073 47756 net.cpp:409] label_data_1_split -> label_data_1_split_0
I0122 16:25:48.369091 47756 net.cpp:409] label_data_1_split -> label_data_1_split_1
I0122 16:25:48.369103 47756 net.cpp:409] label_data_1_split -> label_data_1_split_2
I0122 16:25:48.369267 47756 net.cpp:144] Setting up label_data_1_split
I0122 16:25:48.369278 47756 net.cpp:151] Top shape: 50 (50)
I0122 16:25:48.369285 47756 net.cpp:151] Top shape: 50 (50)
I0122 16:25:48.369292 47756 net.cpp:151] Top shape: 50 (50)
I0122 16:25:48.369298 47756 net.cpp:159] Memory required for data: 615200
I0122 16:25:48.369303 47756 layer_factory.hpp:77] Creating layer conv1
I0122 16:25:48.369324 47756 net.cpp:94] Creating Layer conv1
I0122 16:25:48.369331 47756 net.cpp:435] conv1 <- data
I0122 16:25:48.369343 47756 net.cpp:409] conv1 -> conv1
I0122 16:25:48.369863 47756 net.cpp:144] Setting up conv1
I0122 16:25:48.369876 47756 net.cpp:151] Top shape: 50 32 32 32 (1638400)
I0122 16:25:48.369881 47756 net.cpp:159] Memory required for data: 7168800
I0122 16:25:48.369897 47756 layer_factory.hpp:77] Creating layer bn1
I0122 16:25:48.369920 47756 net.cpp:94] Creating Layer bn1
I0122 16:25:48.369927 47756 net.cpp:435] bn1 <- conv1
I0122 16:25:48.369943 47756 net.cpp:409] bn1 -> scale1
I0122 16:25:48.371685 47756 net.cpp:144] Setting up bn1
I0122 16:25:48.371698 47756 net.cpp:151] Top shape: 50 32 32 32 (1638400)
I0122 16:25:48.371704 47756 net.cpp:159] Memory required for data: 13722400
I0122 16:25:48.371727 47756 layer_factory.hpp:77] Creating layer relu1
I0122 16:25:48.371740 47756 net.cpp:94] Creating Layer relu1
I0122 16:25:48.371748 47756 net.cpp:435] relu1 <- scale1
I0122 16:25:48.371760 47756 net.cpp:409] relu1 -> relu1
I0122 16:25:48.371829 47756 net.cpp:144] Setting up relu1
I0122 16:25:48.371839 47756 net.cpp:151] Top shape: 50 32 32 32 (1638400)
I0122 16:25:48.371843 47756 net.cpp:159] Memory required for data: 20276000
I0122 16:25:48.371850 47756 layer_factory.hpp:77] Creating layer conv2
I0122 16:25:48.371866 47756 net.cpp:94] Creating Layer conv2
I0122 16:25:48.371873 47756 net.cpp:435] conv2 <- relu1
I0122 16:25:48.371886 47756 net.cpp:409] conv2 -> conv2
I0122 16:25:48.372534 47756 net.cpp:144] Setting up conv2
I0122 16:25:48.372548 47756 net.cpp:151] Top shape: 50 32 32 32 (1638400)
I0122 16:25:48.372553 47756 net.cpp:159] Memory required for data: 26829600
I0122 16:25:48.372566 47756 layer_factory.hpp:77] Creating layer bn2
I0122 16:25:48.372599 47756 net.cpp:94] Creating Layer bn2
I0122 16:25:48.372607 47756 net.cpp:435] bn2 <- conv2
I0122 16:25:48.372619 47756 net.cpp:409] bn2 -> scale2
I0122 16:25:48.374027 47756 net.cpp:144] Setting up bn2
I0122 16:25:48.374043 47756 net.cpp:151] Top shape: 50 32 32 32 (1638400)
I0122 16:25:48.374049 47756 net.cpp:159] Memory required for data: 33383200
I0122 16:25:48.374064 47756 layer_factory.hpp:77] Creating layer relu2
I0122 16:25:48.374078 47756 net.cpp:94] Creating Layer relu2
I0122 16:25:48.374086 47756 net.cpp:435] relu2 <- scale2
I0122 16:25:48.374095 47756 net.cpp:409] relu2 -> relu2
I0122 16:25:48.374150 47756 net.cpp:144] Setting up relu2
I0122 16:25:48.374158 47756 net.cpp:151] Top shape: 50 32 32 32 (1638400)
I0122 16:25:48.374166 47756 net.cpp:159] Memory required for data: 39936800
I0122 16:25:48.374173 47756 layer_factory.hpp:77] Creating layer pool1
I0122 16:25:48.374186 47756 net.cpp:94] Creating Layer pool1
I0122 16:25:48.374194 47756 net.cpp:435] pool1 <- relu2
I0122 16:25:48.374203 47756 net.cpp:409] pool1 -> pool1
I0122 16:25:48.374269 47756 net.cpp:144] Setting up pool1
I0122 16:25:48.374300 47756 net.cpp:151] Top shape: 50 32 16 16 (409600)
I0122 16:25:48.374305 47756 net.cpp:159] Memory required for data: 41575200
I0122 16:25:48.374311 47756 layer_factory.hpp:77] Creating layer drop1
I0122 16:25:48.374320 47756 net.cpp:94] Creating Layer drop1
I0122 16:25:48.374327 47756 net.cpp:435] drop1 <- pool1
I0122 16:25:48.374336 47756 net.cpp:409] drop1 -> drop1
I0122 16:25:48.374393 47756 net.cpp:144] Setting up drop1
I0122 16:25:48.374403 47756 net.cpp:151] Top shape: 50 32 16 16 (409600)
I0122 16:25:48.374408 47756 net.cpp:159] Memory required for data: 43213600
I0122 16:25:48.374413 47756 layer_factory.hpp:77] Creating layer conv3
I0122 16:25:48.374431 47756 net.cpp:94] Creating Layer conv3
I0122 16:25:48.374439 47756 net.cpp:435] conv3 <- drop1
I0122 16:25:48.374449 47756 net.cpp:409] conv3 -> conv3
I0122 16:25:48.375149 47756 net.cpp:144] Setting up conv3
I0122 16:25:48.375162 47756 net.cpp:151] Top shape: 50 64 16 16 (819200)
I0122 16:25:48.375167 47756 net.cpp:159] Memory required for data: 46490400
I0122 16:25:48.375177 47756 layer_factory.hpp:77] Creating layer bn3
I0122 16:25:48.375191 47756 net.cpp:94] Creating Layer bn3
I0122 16:25:48.375200 47756 net.cpp:435] bn3 <- conv3
I0122 16:25:48.375212 47756 net.cpp:409] bn3 -> scale3
I0122 16:25:48.376579 47756 net.cpp:144] Setting up bn3
I0122 16:25:48.376591 47756 net.cpp:151] Top shape: 50 64 16 16 (819200)
I0122 16:25:48.376598 47756 net.cpp:159] Memory required for data: 49767200
I0122 16:25:48.376619 47756 layer_factory.hpp:77] Creating layer relu3
I0122 16:25:48.376631 47756 net.cpp:94] Creating Layer relu3
I0122 16:25:48.376636 47756 net.cpp:435] relu3 <- scale3
I0122 16:25:48.376646 47756 net.cpp:409] relu3 -> relu3
I0122 16:25:48.376744 47756 net.cpp:144] Setting up relu3
I0122 16:25:48.376754 47756 net.cpp:151] Top shape: 50 64 16 16 (819200)
I0122 16:25:48.376760 47756 net.cpp:159] Memory required for data: 53044000
I0122 16:25:48.376765 47756 layer_factory.hpp:77] Creating layer conv4
I0122 16:25:48.376780 47756 net.cpp:94] Creating Layer conv4
I0122 16:25:48.376787 47756 net.cpp:435] conv4 <- relu3
I0122 16:25:48.376799 47756 net.cpp:409] conv4 -> conv4
I0122 16:25:48.377723 47756 net.cpp:144] Setting up conv4
I0122 16:25:48.377737 47756 net.cpp:151] Top shape: 50 64 16 16 (819200)
I0122 16:25:48.377743 47756 net.cpp:159] Memory required for data: 56320800
I0122 16:25:48.377751 47756 layer_factory.hpp:77] Creating layer bn4
I0122 16:25:48.377768 47756 net.cpp:94] Creating Layer bn4
I0122 16:25:48.377775 47756 net.cpp:435] bn4 <- conv4
I0122 16:25:48.377787 47756 net.cpp:409] bn4 -> scale4
I0122 16:25:48.379091 47756 net.cpp:144] Setting up bn4
I0122 16:25:48.379101 47756 net.cpp:151] Top shape: 50 64 16 16 (819200)
I0122 16:25:48.379104 47756 net.cpp:159] Memory required for data: 59597600
I0122 16:25:48.379114 47756 layer_factory.hpp:77] Creating layer relu4
I0122 16:25:48.379122 47756 net.cpp:94] Creating Layer relu4
I0122 16:25:48.379127 47756 net.cpp:435] relu4 <- scale4
I0122 16:25:48.379134 47756 net.cpp:409] relu4 -> relu4
I0122 16:25:48.379160 47756 net.cpp:144] Setting up relu4
I0122 16:25:48.379168 47756 net.cpp:151] Top shape: 50 64 16 16 (819200)
I0122 16:25:48.379171 47756 net.cpp:159] Memory required for data: 62874400
I0122 16:25:48.379175 47756 layer_factory.hpp:77] Creating layer pool2
I0122 16:25:48.379184 47756 net.cpp:94] Creating Layer pool2
I0122 16:25:48.379189 47756 net.cpp:435] pool2 <- relu4
I0122 16:25:48.379195 47756 net.cpp:409] pool2 -> pool2
I0122 16:25:48.379272 47756 net.cpp:144] Setting up pool2
I0122 16:25:48.379281 47756 net.cpp:151] Top shape: 50 64 8 8 (204800)
I0122 16:25:48.379283 47756 net.cpp:159] Memory required for data: 63693600
I0122 16:25:48.379287 47756 layer_factory.hpp:77] Creating layer drop2
I0122 16:25:48.379293 47756 net.cpp:94] Creating Layer drop2
I0122 16:25:48.379297 47756 net.cpp:435] drop2 <- pool2
I0122 16:25:48.379304 47756 net.cpp:409] drop2 -> drop2
I0122 16:25:48.379345 47756 net.cpp:144] Setting up drop2
I0122 16:25:48.379353 47756 net.cpp:151] Top shape: 50 64 8 8 (204800)
I0122 16:25:48.379369 47756 net.cpp:159] Memory required for data: 64512800
I0122 16:25:48.379371 47756 layer_factory.hpp:77] Creating layer fc1
I0122 16:25:48.379381 47756 net.cpp:94] Creating Layer fc1
I0122 16:25:48.379384 47756 net.cpp:435] fc1 <- drop2
I0122 16:25:48.379392 47756 net.cpp:409] fc1 -> fc1
I0122 16:25:48.396109 47756 net.cpp:144] Setting up fc1
I0122 16:25:48.396127 47756 net.cpp:151] Top shape: 50 512 (25600)
I0122 16:25:48.396131 47756 net.cpp:159] Memory required for data: 64615200
I0122 16:25:48.396136 47756 layer_factory.hpp:77] Creating layer bn5
I0122 16:25:48.396145 47756 net.cpp:94] Creating Layer bn5
I0122 16:25:48.396149 47756 net.cpp:435] bn5 <- fc1
I0122 16:25:48.396155 47756 net.cpp:409] bn5 -> scale5
I0122 16:25:48.396745 47756 net.cpp:144] Setting up bn5
I0122 16:25:48.396752 47756 net.cpp:151] Top shape: 50 512 (25600)
I0122 16:25:48.396755 47756 net.cpp:159] Memory required for data: 64717600
I0122 16:25:48.396769 47756 layer_factory.hpp:77] Creating layer relu5
I0122 16:25:48.396775 47756 net.cpp:94] Creating Layer relu5
I0122 16:25:48.396778 47756 net.cpp:435] relu5 <- scale5
I0122 16:25:48.396785 47756 net.cpp:409] relu5 -> relu5
I0122 16:25:48.396805 47756 net.cpp:144] Setting up relu5
I0122 16:25:48.396809 47756 net.cpp:151] Top shape: 50 512 (25600)
I0122 16:25:48.396811 47756 net.cpp:159] Memory required for data: 64820000
I0122 16:25:48.396814 47756 layer_factory.hpp:77] Creating layer drop3
I0122 16:25:48.396821 47756 net.cpp:94] Creating Layer drop3
I0122 16:25:48.396823 47756 net.cpp:435] drop3 <- relu5
I0122 16:25:48.396826 47756 net.cpp:409] drop3 -> drop3
I0122 16:25:48.396857 47756 net.cpp:144] Setting up drop3
I0122 16:25:48.396862 47756 net.cpp:151] Top shape: 50 512 (25600)
I0122 16:25:48.396863 47756 net.cpp:159] Memory required for data: 64922400
I0122 16:25:48.396865 47756 layer_factory.hpp:77] Creating layer fc2
I0122 16:25:48.396873 47756 net.cpp:94] Creating Layer fc2
I0122 16:25:48.396876 47756 net.cpp:435] fc2 <- drop3
I0122 16:25:48.396880 47756 net.cpp:409] fc2 -> fc2
I0122 16:25:48.397022 47756 net.cpp:144] Setting up fc2
I0122 16:25:48.397028 47756 net.cpp:151] Top shape: 50 10 (500)
I0122 16:25:48.397030 47756 net.cpp:159] Memory required for data: 64924400
I0122 16:25:48.397034 47756 layer_factory.hpp:77] Creating layer fc2_fc2_0_split
I0122 16:25:48.397039 47756 net.cpp:94] Creating Layer fc2_fc2_0_split
I0122 16:25:48.397043 47756 net.cpp:435] fc2_fc2_0_split <- fc2
I0122 16:25:48.397049 47756 net.cpp:409] fc2_fc2_0_split -> fc2_fc2_0_split_0
I0122 16:25:48.397055 47756 net.cpp:409] fc2_fc2_0_split -> fc2_fc2_0_split_1
I0122 16:25:48.397063 47756 net.cpp:409] fc2_fc2_0_split -> fc2_fc2_0_split_2
I0122 16:25:48.397102 47756 net.cpp:144] Setting up fc2_fc2_0_split
I0122 16:25:48.397107 47756 net.cpp:151] Top shape: 50 10 (500)
I0122 16:25:48.397110 47756 net.cpp:151] Top shape: 50 10 (500)
I0122 16:25:48.397112 47756 net.cpp:151] Top shape: 50 10 (500)
I0122 16:25:48.397115 47756 net.cpp:159] Memory required for data: 64930400
I0122 16:25:48.397119 47756 layer_factory.hpp:77] Creating layer loss
I0122 16:25:48.397123 47756 net.cpp:94] Creating Layer loss
I0122 16:25:48.397126 47756 net.cpp:435] loss <- fc2_fc2_0_split_0
I0122 16:25:48.397130 47756 net.cpp:435] loss <- label_data_1_split_0
I0122 16:25:48.397136 47756 net.cpp:409] loss -> loss
…
