…
I0122 16:32:19.157881 51935 net.cpp:323] The NetState phase (0) differed from the phase (1) specified by a rule in layer accuracy-top1
I0122 16:32:19.157886 51935 net.cpp:323] The NetState phase (0) differed from the phase (1) specified by a rule in layer accuracy-top5
I0122 16:32:19.158051 51935 net.cpp:52] Initializing net from parameters: 
state {
  phase: TRAIN
}
layer {
  name: "data"
  type: "Data"
  top: "data"
  top: "label"
  include {
    phase: TRAIN
  }
  transform_param {
    mirror: true
    mean_value: 125
    mean_value: 123
    mean_value: 114
  }
  data_param {
    source: "cifar10/input/lmdb/train_lmdb"
    batch_size: 128
    backend: LMDB
  }
}
layer {
  name: "conv1"
  type: "Convolution"
  bottom: "data"
  top: "conv1"
  param {
    lr_mult: 1
    decay_mult: 1
    compression: PRUNE
  }
  param {
    lr_mult: 2
    decay_mult: 0
    compression: PRUNE
  }
  convolution_param {
    num_output: 32
    pad: 1
    kernel_size: 3
    stride: 1
    weight_filler {
      type: "xavier"
    }
    bias_filler {
      type: "constant"
      value: 0
    }
  }
}
layer {
  name: "bn1"
  type: "BatchNorm"
  bottom: "conv1"
  top: "scale1"
  param {
    lr_mult: 1
    decay_mult: 0
    compression: PRUNE
  }
  param {
    lr_mult: 1
    decay_mult: 0
    compression: PRUNE
  }
  param {
    lr_mult: 0
    decay_mult: 0
    compression: PRUNE
  }
  param {
    lr_mult: 0
    decay_mult: 0
    compression: PRUNE
  }
  batch_norm_param {
    use_global_stats: false
    scale_filler {
      type: "constant"
      value: 1
    }
    bias_filler {
      type: "constant"
      value: 0
    }
  }
}
layer {
  name: "relu1"
  type: "ReLU"
  bottom: "scale1"
  top: "relu1"
}
layer {
  name: "conv2"
  type: "Convolution"
  bottom: "relu1"
  top: "conv2"
  param {
    lr_mult: 1
    decay_mult: 1
    compression: PRUNE
  }
  param {
    lr_mult: 2
    decay_mult: 0
    compression: PRUNE
  }
  convolution_param {
    num_output: 32
    pad: 1
    kernel_size: 3
    stride: 1
    weight_filler {
      type: "xavier"
    }
    bias_filler {
      type: "constant"
      value: 0
    }
  }
}
layer {
  name: "bn2"
  type: "BatchNorm"
  bottom: "conv2"
  top: "scale2"
  param {
    lr_mult: 1
    decay_mult: 0
    compression: PRUNE
  }
  param {
    lr_mult: 1
    decay_mult: 0
    compression: PRUNE
  }
  param {
    lr_mult: 0
    decay_mult: 0
    compression: PRUNE
  }
  param {
    lr_mult: 0
    decay_mult: 0
    compression: PRUNE
  }
  batch_norm_param {
    use_global_stats: false
    scale_filler {
      type: "constant"
      value: 1
    }
    bias_filler {
      type: "constant"
      value: 0
    }
  }
}
layer {
  name: "relu2"
  type: "ReLU"
  bottom: "scale2"
  top: "relu2"
}
layer {
  name: "pool1"
  type: "Pooling"
  bottom: "relu2"
  top: "pool1"
  pooling_param {
    pool: MAX
    kernel_size: 2
    stride: 2
  }
}
layer {
  name: "drop1"
  type: "Dropout"
  bottom: "pool1"
  top: "drop1"
  dropout_param {
    dropout_ratio: 0.25
  }
}
layer {
  name: "conv3"
  type: "Convolution"
  bottom: "drop1"
  top: "conv3"
  param {
    lr_mult: 1
    decay_mult: 1
    compression: PRUNE
  }
  param {
    lr_mult: 2
    decay_mult: 0
    compression: PRUNE
  }
  convolution_param {
    num_output: 64
    pad: 1
    kernel_size: 3
    stride: 1
    weight_filler {
      type: "xavier"
    }
    bias_filler {
      type: "constant"
      value: 0
    }
  }
}
layer {
  name: "bn3"
  type: "BatchNorm"
  bottom: "conv3"
  top: "scale3"
  param {
    lr_mult: 1
    decay_mult: 0
    compression: PRUNE
  }
  param {
    lr_mult: 1
    decay_mult: 0
    compression: PRUNE
  }
  param {
    lr_mult: 0
    decay_mult: 0
    compression: PRUNE
  }
  param {
    lr_mult: 0
    decay_mult: 0
    compression: PRUNE
  }
  batch_norm_param {
    use_global_stats: false
    scale_filler {
      type: "constant"
      value: 1
    }
    bias_filler {
      type: "constant"
      value: 0
    }
  }
}
layer {
  name: "relu3"
  type: "ReLU"
  bottom: "scale3"
  top: "relu3"
}
layer {
  name: "conv4"
  type: "Convolution"
  bottom: "relu3"
  top: "conv4"
  param {
    lr_mult: 1
    decay_mult: 1
    compression: PRUNE
  }
  param {
    lr_mult: 2
    decay_mult: 0
    compression: PRUNE
  }
  convolution_param {
    num_output: 64
    pad: 1
    kernel_size: 3
    stride: 1
    weight_filler {
      type: "xavier"
    }
    bias_filler {
      type: "constant"
      value: 0
    }
  }
}
layer {
  name: "bn4"
  type: "BatchNorm"
  bottom: "conv4"
  top: "scale4"
  param {
    lr_mult: 1
    decay_mult: 0
    compression: PRUNE
  }
  param {
    lr_mult: 1
    decay_mult: 0
    compression: PRUNE
  }
  param {
    lr_mult: 0
    decay_mult: 0
    compression: PRUNE
  }
  param {
    lr_mult: 0
    decay_mult: 0
    compression: PRUNE
  }
  batch_norm_param {
    use_global_stats: false
    scale_filler {
      type: "constant"
      value: 1
    }
    bias_filler {
      type: "constant"
      value: 0
    }
  }
}
layer {
  name: "relu4"
  type: "ReLU"
  bottom: "scale4"
  top: "relu4"
}
layer {
  name: "pool2"
  type: "Pooling"
  bottom: "relu4"
  top: "pool2"
  pooling_param {
    pool: MAX
    kernel_size: 2
    stride: 2
  }
}
layer {
  name: "drop2"
  type: "Dropout"
  bottom: "pool2"
  top: "drop2"
  dropout_param {
    dropout_ratio: 0.25
  }
}
layer {
  name: "fc1"
  type: "InnerProduct"
  bottom: "drop2"
  top: "fc1"
  param {
    lr_mult: 1
    decay_mult: 1
  }
  param {
    lr_mult: 2
    decay_mult: 0
  }
  inner_product_param {
    num_output: 512
    weight_filler {
      type: "xavier"
    }
    bias_filler {
      type: "constant"
      value: 1
    }
  }
}
layer {
  name: "bn5"
  type: "BatchNorm"
  bottom: "fc1"
  top: "scale5"
  param {
    lr_mult: 1
    decay_mult: 0
    compression: PRUNE
  }
  param {
    lr_mult: 1
    decay_mult: 0
    compression: PRUNE
  }
  param {
    lr_mult: 0
    decay_mult: 0
    compression: PRUNE
  }
  param {
    lr_mult: 0
    decay_mult: 0
    compression: PRUNE
  }
  batch_norm_param {
    use_global_stats: false
    scale_filler {
      type: "constant"
      value: 1
    }
    bias_filler {
      type: "constant"
      value: 0
    }
  }
}
layer {
  name: "relu5"
  type: "ReLU"
  bottom: "scale5"
  top: "relu5"
}
layer {
  name: "drop3"
  type: "Dropout"
  bottom: "relu5"
  top: "drop3"
  dropout_param {
    dropout_ratio: 0.5
  }
}
layer {
  name: "fc2"
  type: "InnerProduct"
  bottom: "drop3"
  top: "fc2"
  param {
    lr_mult: 1
    decay_mult: 1
  }
  param {
    lr_mult: 2
    decay_mult: 0
  }
  inner_product_param {
    num_output: 10
    weight_filler {
      type: "xavier"
    }
    bias_filler {
      type: "constant"
      value: 1
    }
  }
}
layer {
  name: "loss"
  type: "SoftmaxWithLoss"
  bottom: "fc2"
  bottom: "label"
  top: "loss"
}
I0122 16:32:19.158123 51935 layer_factory.hpp:77] Creating layer data
I0122 16:32:19.158213 51935 internal_thread.cpp:27] Starting internal thread(s) on GPU 0
I0122 16:32:19.158684 51935 net.cpp:94] Creating Layer data
I0122 16:32:19.158692 51935 net.cpp:409] data -> data
I0122 16:32:19.158712 51935 net.cpp:409] data -> label
I0122 16:32:19.160166 51976 db_lmdb.cpp:35] Opened lmdb cifar10/input/lmdb/train_lmdb
I0122 16:32:19.160212 51976 data_reader.cpp:117] TRAIN: reading data using 1 channel(s)
I0122 16:32:19.160372 51935 data_layer.cpp:78] ReshapePrefetch 128, 3, 32, 32
I0122 16:32:19.160465 51935 data_layer.cpp:83] output data size: 128,3,32,32
I0122 16:32:19.168311 51935 internal_thread.cpp:27] Starting internal thread(s) on GPU 0
I0122 16:32:19.168357 51935 net.cpp:144] Setting up data
I0122 16:32:19.168365 51935 net.cpp:151] Top shape: 128 3 32 32 (393216)
I0122 16:32:19.168367 51935 net.cpp:151] Top shape: 128 (128)
I0122 16:32:19.168370 51935 net.cpp:159] Memory required for data: 1573376
I0122 16:32:19.168375 51935 layer_factory.hpp:77] Creating layer conv1
I0122 16:32:19.168387 51935 net.cpp:94] Creating Layer conv1
I0122 16:32:19.168390 51935 net.cpp:435] conv1 <- data
I0122 16:32:19.168403 51935 net.cpp:409] conv1 -> conv1
I0122 16:32:19.169379 51935 net.cpp:144] Setting up conv1
I0122 16:32:19.169391 51935 net.cpp:151] Top shape: 128 32 32 32 (4194304)
I0122 16:32:19.169394 51935 net.cpp:159] Memory required for data: 18350592
I0122 16:32:19.169409 51935 layer_factory.hpp:77] Creating layer bn1
I0122 16:32:19.169420 51935 net.cpp:94] Creating Layer bn1
I0122 16:32:19.169422 51935 net.cpp:435] bn1 <- conv1
I0122 16:32:19.169428 51935 net.cpp:409] bn1 -> scale1
I0122 16:32:19.170015 51935 net.cpp:144] Setting up bn1
I0122 16:32:19.170022 51935 net.cpp:151] Top shape: 128 32 32 32 (4194304)
I0122 16:32:19.170025 51935 net.cpp:159] Memory required for data: 35127808
I0122 16:32:19.170037 51935 layer_factory.hpp:77] Creating layer relu1
I0122 16:32:19.170043 51935 net.cpp:94] Creating Layer relu1
I0122 16:32:19.170047 51935 net.cpp:435] relu1 <- scale1
I0122 16:32:19.170051 51935 net.cpp:409] relu1 -> relu1
I0122 16:32:19.170073 51935 net.cpp:144] Setting up relu1
I0122 16:32:19.170078 51935 net.cpp:151] Top shape: 128 32 32 32 (4194304)
I0122 16:32:19.170081 51935 net.cpp:159] Memory required for data: 51905024
I0122 16:32:19.170084 51935 layer_factory.hpp:77] Creating layer conv2
I0122 16:32:19.170091 51935 net.cpp:94] Creating Layer conv2
I0122 16:32:19.170096 51935 net.cpp:435] conv2 <- relu1
I0122 16:32:19.170101 51935 net.cpp:409] conv2 -> conv2
I0122 16:32:19.171605 51935 net.cpp:144] Setting up conv2
I0122 16:32:19.171614 51935 net.cpp:151] Top shape: 128 32 32 32 (4194304)
I0122 16:32:19.171617 51935 net.cpp:159] Memory required for data: 68682240
I0122 16:32:19.171625 51935 layer_factory.hpp:77] Creating layer bn2
I0122 16:32:19.171631 51935 net.cpp:94] Creating Layer bn2
I0122 16:32:19.171633 51935 net.cpp:435] bn2 <- conv2
I0122 16:32:19.171638 51935 net.cpp:409] bn2 -> scale2
I0122 16:32:19.172361 51935 net.cpp:144] Setting up bn2
I0122 16:32:19.172367 51935 net.cpp:151] Top shape: 128 32 32 32 (4194304)
I0122 16:32:19.172370 51935 net.cpp:159] Memory required for data: 85459456
I0122 16:32:19.172379 51935 layer_factory.hpp:77] Creating layer relu2
I0122 16:32:19.172384 51935 net.cpp:94] Creating Layer relu2
I0122 16:32:19.172386 51935 net.cpp:435] relu2 <- scale2
I0122 16:32:19.172391 51935 net.cpp:409] relu2 -> relu2
I0122 16:32:19.172422 51935 net.cpp:144] Setting up relu2
I0122 16:32:19.172427 51935 net.cpp:151] Top shape: 128 32 32 32 (4194304)
I0122 16:32:19.172430 51935 net.cpp:159] Memory required for data: 102236672
I0122 16:32:19.172433 51935 layer_factory.hpp:77] Creating layer pool1
I0122 16:32:19.172439 51935 net.cpp:94] Creating Layer pool1
I0122 16:32:19.172442 51935 net.cpp:435] pool1 <- relu2
I0122 16:32:19.172446 51935 net.cpp:409] pool1 -> pool1
I0122 16:32:19.172484 51935 net.cpp:144] Setting up pool1
I0122 16:32:19.172490 51935 net.cpp:151] Top shape: 128 32 16 16 (1048576)
I0122 16:32:19.172493 51935 net.cpp:159] Memory required for data: 106430976
I0122 16:32:19.172495 51935 layer_factory.hpp:77] Creating layer drop1
I0122 16:32:19.172502 51935 net.cpp:94] Creating Layer drop1
I0122 16:32:19.172504 51935 net.cpp:435] drop1 <- pool1
I0122 16:32:19.172520 51935 net.cpp:409] drop1 -> drop1
I0122 16:32:19.172557 51935 net.cpp:144] Setting up drop1
I0122 16:32:19.172564 51935 net.cpp:151] Top shape: 128 32 16 16 (1048576)
I0122 16:32:19.172566 51935 net.cpp:159] Memory required for data: 110625280
I0122 16:32:19.172569 51935 layer_factory.hpp:77] Creating layer conv3
I0122 16:32:19.172576 51935 net.cpp:94] Creating Layer conv3
I0122 16:32:19.172580 51935 net.cpp:435] conv3 <- drop1
I0122 16:32:19.172586 51935 net.cpp:409] conv3 -> conv3
I0122 16:32:19.173669 51935 net.cpp:144] Setting up conv3
I0122 16:32:19.173681 51935 net.cpp:151] Top shape: 128 64 16 16 (2097152)
I0122 16:32:19.173686 51935 net.cpp:159] Memory required for data: 119013888
I0122 16:32:19.173691 51935 layer_factory.hpp:77] Creating layer bn3
I0122 16:32:19.173701 51935 net.cpp:94] Creating Layer bn3
I0122 16:32:19.173703 51935 net.cpp:435] bn3 <- conv3
I0122 16:32:19.173708 51935 net.cpp:409] bn3 -> scale3
I0122 16:32:19.174345 51935 net.cpp:144] Setting up bn3
I0122 16:32:19.174353 51935 net.cpp:151] Top shape: 128 64 16 16 (2097152)
I0122 16:32:19.174356 51935 net.cpp:159] Memory required for data: 127402496
I0122 16:32:19.174368 51935 layer_factory.hpp:77] Creating layer relu3
I0122 16:32:19.174374 51935 net.cpp:94] Creating Layer relu3
I0122 16:32:19.174377 51935 net.cpp:435] relu3 <- scale3
I0122 16:32:19.174381 51935 net.cpp:409] relu3 -> relu3
I0122 16:32:19.174399 51935 net.cpp:144] Setting up relu3
I0122 16:32:19.174405 51935 net.cpp:151] Top shape: 128 64 16 16 (2097152)
I0122 16:32:19.174408 51935 net.cpp:159] Memory required for data: 135791104
I0122 16:32:19.174412 51935 layer_factory.hpp:77] Creating layer conv4
I0122 16:32:19.174418 51935 net.cpp:94] Creating Layer conv4
I0122 16:32:19.174424 51935 net.cpp:435] conv4 <- relu3
I0122 16:32:19.174429 51935 net.cpp:409] conv4 -> conv4
I0122 16:32:19.174847 51935 net.cpp:144] Setting up conv4
I0122 16:32:19.174854 51935 net.cpp:151] Top shape: 128 64 16 16 (2097152)
I0122 16:32:19.174857 51935 net.cpp:159] Memory required for data: 144179712
I0122 16:32:19.174862 51935 layer_factory.hpp:77] Creating layer bn4
I0122 16:32:19.174868 51935 net.cpp:94] Creating Layer bn4
I0122 16:32:19.174872 51935 net.cpp:435] bn4 <- conv4
I0122 16:32:19.174878 51935 net.cpp:409] bn4 -> scale4
I0122 16:32:19.175472 51935 net.cpp:144] Setting up bn4
I0122 16:32:19.175480 51935 net.cpp:151] Top shape: 128 64 16 16 (2097152)
I0122 16:32:19.175483 51935 net.cpp:159] Memory required for data: 152568320
I0122 16:32:19.175493 51935 layer_factory.hpp:77] Creating layer relu4
I0122 16:32:19.175496 51935 net.cpp:94] Creating Layer relu4
I0122 16:32:19.175499 51935 net.cpp:435] relu4 <- scale4
I0122 16:32:19.175503 51935 net.cpp:409] relu4 -> relu4
I0122 16:32:19.175520 51935 net.cpp:144] Setting up relu4
I0122 16:32:19.175526 51935 net.cpp:151] Top shape: 128 64 16 16 (2097152)
I0122 16:32:19.175529 51935 net.cpp:159] Memory required for data: 160956928
I0122 16:32:19.175531 51935 layer_factory.hpp:77] Creating layer pool2
I0122 16:32:19.175537 51935 net.cpp:94] Creating Layer pool2
I0122 16:32:19.175539 51935 net.cpp:435] pool2 <- relu4
I0122 16:32:19.175544 51935 net.cpp:409] pool2 -> pool2
I0122 16:32:19.175570 51935 net.cpp:144] Setting up pool2
I0122 16:32:19.175576 51935 net.cpp:151] Top shape: 128 64 8 8 (524288)
I0122 16:32:19.175580 51935 net.cpp:159] Memory required for data: 163054080
I0122 16:32:19.175581 51935 layer_factory.hpp:77] Creating layer drop2
I0122 16:32:19.175587 51935 net.cpp:94] Creating Layer drop2
I0122 16:32:19.175592 51935 net.cpp:435] drop2 <- pool2
I0122 16:32:19.175597 51935 net.cpp:409] drop2 -> drop2
I0122 16:32:19.175621 51935 net.cpp:144] Setting up drop2
I0122 16:32:19.175626 51935 net.cpp:151] Top shape: 128 64 8 8 (524288)
I0122 16:32:19.175629 51935 net.cpp:159] Memory required for data: 165151232
I0122 16:32:19.175632 51935 layer_factory.hpp:77] Creating layer fc1
I0122 16:32:19.175638 51935 net.cpp:94] Creating Layer fc1
I0122 16:32:19.175642 51935 net.cpp:435] fc1 <- drop2
I0122 16:32:19.175647 51935 net.cpp:409] fc1 -> fc1
I0122 16:32:19.189826 51935 net.cpp:144] Setting up fc1
I0122 16:32:19.189844 51935 net.cpp:151] Top shape: 128 512 (65536)
I0122 16:32:19.189846 51935 net.cpp:159] Memory required for data: 165413376
I0122 16:32:19.189855 51935 layer_factory.hpp:77] Creating layer bn5
I0122 16:32:19.189864 51935 net.cpp:94] Creating Layer bn5
I0122 16:32:19.189867 51935 net.cpp:435] bn5 <- fc1
I0122 16:32:19.189874 51935 net.cpp:409] bn5 -> scale5
I0122 16:32:19.190416 51935 net.cpp:144] Setting up bn5
I0122 16:32:19.190423 51935 net.cpp:151] Top shape: 128 512 (65536)
I0122 16:32:19.190426 51935 net.cpp:159] Memory required for data: 165675520
I0122 16:32:19.190439 51935 layer_factory.hpp:77] Creating layer relu5
I0122 16:32:19.190444 51935 net.cpp:94] Creating Layer relu5
I0122 16:32:19.190448 51935 net.cpp:435] relu5 <- scale5
I0122 16:32:19.190452 51935 net.cpp:409] relu5 -> relu5
I0122 16:32:19.190470 51935 net.cpp:144] Setting up relu5
I0122 16:32:19.190477 51935 net.cpp:151] Top shape: 128 512 (65536)
I0122 16:32:19.190479 51935 net.cpp:159] Memory required for data: 165937664
I0122 16:32:19.190482 51935 layer_factory.hpp:77] Creating layer drop3
I0122 16:32:19.190487 51935 net.cpp:94] Creating Layer drop3
I0122 16:32:19.190490 51935 net.cpp:435] drop3 <- relu5
I0122 16:32:19.190495 51935 net.cpp:409] drop3 -> drop3
I0122 16:32:19.190521 51935 net.cpp:144] Setting up drop3
I0122 16:32:19.190528 51935 net.cpp:151] Top shape: 128 512 (65536)
I0122 16:32:19.190531 51935 net.cpp:159] Memory required for data: 166199808
I0122 16:32:19.190534 51935 layer_factory.hpp:77] Creating layer fc2
I0122 16:32:19.190541 51935 net.cpp:94] Creating Layer fc2
I0122 16:32:19.190543 51935 net.cpp:435] fc2 <- drop3
I0122 16:32:19.190548 51935 net.cpp:409] fc2 -> fc2
I0122 16:32:19.190686 51935 net.cpp:144] Setting up fc2
I0122 16:32:19.190691 51935 net.cpp:151] Top shape: 128 10 (1280)
I0122 16:32:19.190695 51935 net.cpp:159] Memory required for data: 166204928
I0122 16:32:19.190699 51935 layer_factory.hpp:77] Creating layer loss
I0122 16:32:19.190706 51935 net.cpp:94] Creating Layer loss
I0122 16:32:19.190708 51935 net.cpp:435] loss <- fc2
I0122 16:32:19.190712 51935 net.cpp:435] loss <- label
I0122 16:32:19.190717 51935 net.cpp:409] loss -> loss
I0122 16:32:19.190726 51935 layer_factory.hpp:77] Creating layer loss
…
I0122 16:32:19.191947 51935 solver.cpp:189] Creating test net (#0) specified by net file: cifar10/deephi/miniVggNet/pruning/regular_rate_0.3/net_finetune.prototxt
I0122 16:32:19.191982 51935 net.cpp:323] The NetState phase (1) differed from the phase (0) specified by a rule in layer data
I0122 16:32:19.192176 51935 net.cpp:52] Initializing net from parameters: 
state {
  phase: TEST
}
layer {
  name: "data"
  type: "Data"
  top: "data"
  top: "label"
  include {
    phase: TEST
  }
  transform_param {
    mirror: false
    mean_value: 125
    mean_value: 123
    mean_value: 114
  }
  data_param {
    source: "cifar10/input/lmdb/valid_lmdb"
    batch_size: 50
    backend: LMDB
  }
}
layer {
  name: "conv1"
  type: "Convolution"
  bottom: "data"
  top: "conv1"
  param {
    lr_mult: 1
    decay_mult: 1
    compression: PRUNE
  }
  param {
    lr_mult: 2
    decay_mult: 0
    compression: PRUNE
  }
  convolution_param {
    num_output: 32
    pad: 1
    kernel_size: 3
    stride: 1
    weight_filler {
      type: "xavier"
    }
    bias_filler {
      type: "constant"
      value: 0
    }
  }
}
layer {
  name: "bn1"
  type: "BatchNorm"
  bottom: "conv1"
  top: "scale1"
  param {
    lr_mult: 1
    decay_mult: 0
    compression: PRUNE
  }
  param {
    lr_mult: 1
    decay_mult: 0
    compression: PRUNE
  }
  param {
    lr_mult: 0
    decay_mult: 0
    compression: PRUNE
  }
  param {
    lr_mult: 0
    decay_mult: 0
    compression: PRUNE
  }
  batch_norm_param {
    use_global_stats: false
    scale_filler {
      type: "constant"
      value: 1
    }
    bias_filler {
      type: "constant"
      value: 0
    }
  }
}
layer {
  name: "relu1"
  type: "ReLU"
  bottom: "scale1"
  top: "relu1"
}
layer {
  name: "conv2"
  type: "Convolution"
  bottom: "relu1"
  top: "conv2"
  param {
    lr_mult: 1
    decay_mult: 1
    compression: PRUNE
  }
  param {
    lr_mult: 2
    decay_mult: 0
    compression: PRUNE
  }
  convolution_param {
    num_output: 32
    pad: 1
    kernel_size: 3
    stride: 1
    weight_filler {
      type: "xavier"
    }
    bias_filler {
      type: "constant"
      value: 0
    }
  }
}
layer {
  name: "bn2"
  type: "BatchNorm"
  bottom: "conv2"
  top: "scale2"
  param {
    lr_mult: 1
    decay_mult: 0
    compression: PRUNE
  }
  param {
    lr_mult: 1
    decay_mult: 0
    compression: PRUNE
  }
  param {
    lr_mult: 0
    decay_mult: 0
    compression: PRUNE
  }
  param {
    lr_mult: 0
    decay_mult: 0
    compression: PRUNE
  }
  batch_norm_param {
    use_global_stats: false
    scale_filler {
      type: "constant"
      value: 1
    }
    bias_filler {
      type: "constant"
      value: 0
    }
  }
}
layer {
  name: "relu2"
  type: "ReLU"
  bottom: "scale2"
  top: "relu2"
}
layer {
  name: "pool1"
  type: "Pooling"
  bottom: "relu2"
  top: "pool1"
  pooling_param {
    pool: MAX
    kernel_size: 2
    stride: 2
  }
}
layer {
  name: "drop1"
  type: "Dropout"
  bottom: "pool1"
  top: "drop1"
  dropout_param {
    dropout_ratio: 0.25
  }
}
layer {
  name: "conv3"
  type: "Convolution"
  bottom: "drop1"
  top: "conv3"
  param {
    lr_mult: 1
    decay_mult: 1
    compression: PRUNE
  }
  param {
    lr_mult: 2
    decay_mult: 0
    compression: PRUNE
  }
  convolution_param {
    num_output: 64
    pad: 1
    kernel_size: 3
    stride: 1
    weight_filler {
      type: "xavier"
    }
    bias_filler {
      type: "constant"
      value: 0
    }
  }
}
layer {
  name: "bn3"
  type: "BatchNorm"
  bottom: "conv3"
  top: "scale3"
  param {
    lr_mult: 1
    decay_mult: 0
    compression: PRUNE
  }
  param {
    lr_mult: 1
    decay_mult: 0
    compression: PRUNE
  }
  param {
    lr_mult: 0
    decay_mult: 0
    compression: PRUNE
  }
  param {
    lr_mult: 0
    decay_mult: 0
    compression: PRUNE
  }
  batch_norm_param {
    use_global_stats: false
    scale_filler {
      type: "constant"
      value: 1
    }
    bias_filler {
      type: "constant"
      value: 0
    }
  }
}
layer {
  name: "relu3"
  type: "ReLU"
  bottom: "scale3"
  top: "relu3"
}
layer {
  name: "conv4"
  type: "Convolution"
  bottom: "relu3"
  top: "conv4"
  param {
    lr_mult: 1
    decay_mult: 1
    compression: PRUNE
  }
  param {
    lr_mult: 2
    decay_mult: 0
    compression: PRUNE
  }
  convolution_param {
    num_output: 64
    pad: 1
    kernel_size: 3
    stride: 1
    weight_filler {
      type: "xavier"
    }
    bias_filler {
      type: "constant"
      value: 0
    }
  }
}
layer {
  name: "bn4"
  type: "BatchNorm"
  bottom: "conv4"
  top: "scale4"
  param {
    lr_mult: 1
    decay_mult: 0
    compression: PRUNE
  }
  param {
    lr_mult: 1
    decay_mult: 0
    compression: PRUNE
  }
  param {
    lr_mult: 0
    decay_mult: 0
    compression: PRUNE
  }
  param {
    lr_mult: 0
    decay_mult: 0
    compression: PRUNE
  }
  batch_norm_param {
    use_global_stats: false
    scale_filler {
      type: "constant"
      value: 1
    }
    bias_filler {
      type: "constant"
      value: 0
    }
  }
}
layer {
  name: "relu4"
  type: "ReLU"
  bottom: "scale4"
  top: "relu4"
}
layer {
  name: "pool2"
  type: "Pooling"
  bottom: "relu4"
  top: "pool2"
  pooling_param {
    pool: MAX
    kernel_size: 2
    stride: 2
  }
}
layer {
  name: "drop2"
  type: "Dropout"
  bottom: "pool2"
  top: "drop2"
  dropout_param {
    dropout_ratio: 0.25
  }
}
layer {
  name: "fc1"
  type: "InnerProduct"
  bottom: "drop2"
  top: "fc1"
  param {
    lr_mult: 1
    decay_mult: 1
  }
  param {
    lr_mult: 2
    decay_mult: 0
  }
  inner_product_param {
    num_output: 512
    weight_filler {
      type: "xavier"
    }
    bias_filler {
      type: "constant"
      value: 1
    }
  }
}
layer {
  name: "bn5"
  type: "BatchNorm"
  bottom: "fc1"
  top: "scale5"
  param {
    lr_mult: 1
    decay_mult: 0
    compression: PRUNE
  }
  param {
    lr_mult: 1
    decay_mult: 0
    compression: PRUNE
  }
  param {
    lr_mult: 0
    decay_mult: 0
    compression: PRUNE
  }
  param {
    lr_mult: 0
    decay_mult: 0
    compression: PRUNE
  }
  batch_norm_param {
    use_global_stats: false
    scale_filler {
      type: "constant"
      value: 1
    }
    bias_filler {
      type: "constant"
      value: 0
    }
  }
}
layer {
  name: "relu5"
  type: "ReLU"
  bottom: "scale5"
  top: "relu5"
}
layer {
  name: "drop3"
  type: "Dropout"
  bottom: "relu5"
  top: "drop3"
  dropout_param {
    dropout_ratio: 0.5
  }
}
layer {
  name: "fc2"
  type: "InnerProduct"
  bottom: "drop3"
  top: "fc2"
  param {
    lr_mult: 1
    decay_mult: 1
  }
  param {
    lr_mult: 2
    decay_mult: 0
  }
  inner_product_param {
    num_output: 10
    weight_filler {
      type: "xavier"
    }
    bias_filler {
      type: "constant"
      value: 1
    }
  }
}
layer {
  name: "loss"
  type: "SoftmaxWithLoss"
  bottom: "fc2"
  bottom: "label"
  top: "loss"
}
layer {
  name: "accuracy-top1"
  type: "Accuracy"
  bottom: "fc2"
  bottom: "label"
  top: "top-1"
  include {
    phase: TEST
  }
}
layer {
  name: "accuracy-top5"
  type: "Accuracy"
  bottom: "fc2"
  bottom: "label"
  top: "top-5"
  include {
    phase: TEST
  }
  accuracy_param {
    top_k: 5
  }
}
I0122 16:32:19.192275 51935 layer_factory.hpp:77] Creating layer data
I0122 16:32:19.192315 51935 internal_thread.cpp:27] Starting internal thread(s) on GPU 0
I0122 16:32:19.193776 51935 net.cpp:94] Creating Layer data
I0122 16:32:19.193807 51935 net.cpp:409] data -> data
I0122 16:32:19.193830 51935 net.cpp:409] data -> label
I0122 16:32:19.194557 52006 db_lmdb.cpp:35] Opened lmdb cifar10/input/lmdb/valid_lmdb
I0122 16:32:19.194586 52006 data_reader.cpp:117] TEST: reading data using 1 channel(s)
I0122 16:32:19.194712 51935 data_layer.cpp:78] ReshapePrefetch 50, 3, 32, 32
I0122 16:32:19.194944 51935 data_layer.cpp:83] output data size: 50,3,32,32
I0122 16:32:19.200752 51935 internal_thread.cpp:27] Starting internal thread(s) on GPU 0
I0122 16:32:19.200839 51935 net.cpp:144] Setting up data
I0122 16:32:19.200850 51935 net.cpp:151] Top shape: 50 3 32 32 (153600)
I0122 16:32:19.200860 51935 net.cpp:151] Top shape: 50 (50)
I0122 16:32:19.200866 51935 net.cpp:159] Memory required for data: 614600
I0122 16:32:19.200875 51935 layer_factory.hpp:77] Creating layer label_data_1_split
I0122 16:32:19.200896 51935 net.cpp:94] Creating Layer label_data_1_split
I0122 16:32:19.200903 51935 net.cpp:435] label_data_1_split <- label
I0122 16:32:19.200913 51935 net.cpp:409] label_data_1_split -> label_data_1_split_0
I0122 16:32:19.200932 51935 net.cpp:409] label_data_1_split -> label_data_1_split_1
I0122 16:32:19.200944 51935 net.cpp:409] label_data_1_split -> label_data_1_split_2
I0122 16:32:19.201083 51935 net.cpp:144] Setting up label_data_1_split
I0122 16:32:19.201093 51935 net.cpp:151] Top shape: 50 (50)
I0122 16:32:19.201100 51935 net.cpp:151] Top shape: 50 (50)
I0122 16:32:19.201107 51935 net.cpp:151] Top shape: 50 (50)
I0122 16:32:19.201112 51935 net.cpp:159] Memory required for data: 615200
I0122 16:32:19.201117 51935 layer_factory.hpp:77] Creating layer conv1
I0122 16:32:19.201134 51935 net.cpp:94] Creating Layer conv1
I0122 16:32:19.201143 51935 net.cpp:435] conv1 <- data
I0122 16:32:19.201151 51935 net.cpp:409] conv1 -> conv1
I0122 16:32:19.201638 51935 net.cpp:144] Setting up conv1
I0122 16:32:19.201651 51935 net.cpp:151] Top shape: 50 32 32 32 (1638400)
I0122 16:32:19.201656 51935 net.cpp:159] Memory required for data: 7168800
I0122 16:32:19.201673 51935 layer_factory.hpp:77] Creating layer bn1
I0122 16:32:19.201686 51935 net.cpp:94] Creating Layer bn1
I0122 16:32:19.201694 51935 net.cpp:435] bn1 <- conv1
I0122 16:32:19.201704 51935 net.cpp:409] bn1 -> scale1
I0122 16:32:19.203375 51935 net.cpp:144] Setting up bn1
I0122 16:32:19.203388 51935 net.cpp:151] Top shape: 50 32 32 32 (1638400)
I0122 16:32:19.203395 51935 net.cpp:159] Memory required for data: 13722400
I0122 16:32:19.203416 51935 layer_factory.hpp:77] Creating layer relu1
I0122 16:32:19.203428 51935 net.cpp:94] Creating Layer relu1
I0122 16:32:19.203438 51935 net.cpp:435] relu1 <- scale1
I0122 16:32:19.203447 51935 net.cpp:409] relu1 -> relu1
I0122 16:32:19.203529 51935 net.cpp:144] Setting up relu1
I0122 16:32:19.203547 51935 net.cpp:151] Top shape: 50 32 32 32 (1638400)
I0122 16:32:19.203552 51935 net.cpp:159] Memory required for data: 20276000
I0122 16:32:19.203558 51935 layer_factory.hpp:77] Creating layer conv2
I0122 16:32:19.203572 51935 net.cpp:94] Creating Layer conv2
I0122 16:32:19.203579 51935 net.cpp:435] conv2 <- relu1
I0122 16:32:19.203588 51935 net.cpp:409] conv2 -> conv2
I0122 16:32:19.204299 51935 net.cpp:144] Setting up conv2
I0122 16:32:19.204314 51935 net.cpp:151] Top shape: 50 32 32 32 (1638400)
I0122 16:32:19.204320 51935 net.cpp:159] Memory required for data: 26829600
I0122 16:32:19.204339 51935 layer_factory.hpp:77] Creating layer bn2
I0122 16:32:19.204355 51935 net.cpp:94] Creating Layer bn2
I0122 16:32:19.204365 51935 net.cpp:435] bn2 <- conv2
I0122 16:32:19.204377 51935 net.cpp:409] bn2 -> scale2
I0122 16:32:19.205835 51935 net.cpp:144] Setting up bn2
I0122 16:32:19.205849 51935 net.cpp:151] Top shape: 50 32 32 32 (1638400)
I0122 16:32:19.205854 51935 net.cpp:159] Memory required for data: 33383200
I0122 16:32:19.205870 51935 layer_factory.hpp:77] Creating layer relu2
I0122 16:32:19.205881 51935 net.cpp:94] Creating Layer relu2
I0122 16:32:19.205888 51935 net.cpp:435] relu2 <- scale2
I0122 16:32:19.205899 51935 net.cpp:409] relu2 -> relu2
I0122 16:32:19.205955 51935 net.cpp:144] Setting up relu2
I0122 16:32:19.205971 51935 net.cpp:151] Top shape: 50 32 32 32 (1638400)
I0122 16:32:19.205979 51935 net.cpp:159] Memory required for data: 39936800
I0122 16:32:19.205986 51935 layer_factory.hpp:77] Creating layer pool1
I0122 16:32:19.206001 51935 net.cpp:94] Creating Layer pool1
I0122 16:32:19.206013 51935 net.cpp:435] pool1 <- relu2
I0122 16:32:19.206037 51935 net.cpp:409] pool1 -> pool1
I0122 16:32:19.206110 51935 net.cpp:144] Setting up pool1
I0122 16:32:19.206146 51935 net.cpp:151] Top shape: 50 32 16 16 (409600)
I0122 16:32:19.206154 51935 net.cpp:159] Memory required for data: 41575200
I0122 16:32:19.206161 51935 layer_factory.hpp:77] Creating layer drop1
I0122 16:32:19.206171 51935 net.cpp:94] Creating Layer drop1
I0122 16:32:19.206176 51935 net.cpp:435] drop1 <- pool1
I0122 16:32:19.206184 51935 net.cpp:409] drop1 -> drop1
I0122 16:32:19.206243 51935 net.cpp:144] Setting up drop1
I0122 16:32:19.206254 51935 net.cpp:151] Top shape: 50 32 16 16 (409600)
I0122 16:32:19.206264 51935 net.cpp:159] Memory required for data: 43213600
I0122 16:32:19.206271 51935 layer_factory.hpp:77] Creating layer conv3
I0122 16:32:19.206305 51935 net.cpp:94] Creating Layer conv3
I0122 16:32:19.206315 51935 net.cpp:435] conv3 <- drop1
I0122 16:32:19.206329 51935 net.cpp:409] conv3 -> conv3
I0122 16:32:19.207082 51935 net.cpp:144] Setting up conv3
I0122 16:32:19.207093 51935 net.cpp:151] Top shape: 50 64 16 16 (819200)
I0122 16:32:19.207095 51935 net.cpp:159] Memory required for data: 46490400
I0122 16:32:19.207103 51935 layer_factory.hpp:77] Creating layer bn3
I0122 16:32:19.207113 51935 net.cpp:94] Creating Layer bn3
I0122 16:32:19.207121 51935 net.cpp:435] bn3 <- conv3
I0122 16:32:19.207132 51935 net.cpp:409] bn3 -> scale3
I0122 16:32:19.208117 51935 net.cpp:144] Setting up bn3
I0122 16:32:19.208125 51935 net.cpp:151] Top shape: 50 64 16 16 (819200)
I0122 16:32:19.208129 51935 net.cpp:159] Memory required for data: 49767200
I0122 16:32:19.208153 51935 layer_factory.hpp:77] Creating layer relu3
I0122 16:32:19.208160 51935 net.cpp:94] Creating Layer relu3
I0122 16:32:19.208164 51935 net.cpp:435] relu3 <- scale3
I0122 16:32:19.208171 51935 net.cpp:409] relu3 -> relu3
I0122 16:32:19.208196 51935 net.cpp:144] Setting up relu3
I0122 16:32:19.208204 51935 net.cpp:151] Top shape: 50 64 16 16 (819200)
I0122 16:32:19.208206 51935 net.cpp:159] Memory required for data: 53044000
I0122 16:32:19.208210 51935 layer_factory.hpp:77] Creating layer conv4
I0122 16:32:19.208220 51935 net.cpp:94] Creating Layer conv4
I0122 16:32:19.208225 51935 net.cpp:435] conv4 <- relu3
I0122 16:32:19.208231 51935 net.cpp:409] conv4 -> conv4
I0122 16:32:19.208973 51935 net.cpp:144] Setting up conv4
I0122 16:32:19.208988 51935 net.cpp:151] Top shape: 50 64 16 16 (819200)
I0122 16:32:19.208992 51935 net.cpp:159] Memory required for data: 56320800
I0122 16:32:19.209003 51935 layer_factory.hpp:77] Creating layer bn4
I0122 16:32:19.209013 51935 net.cpp:94] Creating Layer bn4
I0122 16:32:19.209019 51935 net.cpp:435] bn4 <- conv4
I0122 16:32:19.209029 51935 net.cpp:409] bn4 -> scale4
I0122 16:32:19.210013 51935 net.cpp:144] Setting up bn4
I0122 16:32:19.210023 51935 net.cpp:151] Top shape: 50 64 16 16 (819200)
I0122 16:32:19.210027 51935 net.cpp:159] Memory required for data: 59597600
I0122 16:32:19.210038 51935 layer_factory.hpp:77] Creating layer relu4
I0122 16:32:19.210047 51935 net.cpp:94] Creating Layer relu4
I0122 16:32:19.210052 51935 net.cpp:435] relu4 <- scale4
I0122 16:32:19.210057 51935 net.cpp:409] relu4 -> relu4
I0122 16:32:19.210081 51935 net.cpp:144] Setting up relu4
I0122 16:32:19.210088 51935 net.cpp:151] Top shape: 50 64 16 16 (819200)
I0122 16:32:19.210093 51935 net.cpp:159] Memory required for data: 62874400
I0122 16:32:19.210096 51935 layer_factory.hpp:77] Creating layer pool2
I0122 16:32:19.210103 51935 net.cpp:94] Creating Layer pool2
I0122 16:32:19.210108 51935 net.cpp:435] pool2 <- relu4
I0122 16:32:19.210114 51935 net.cpp:409] pool2 -> pool2
I0122 16:32:19.210193 51935 net.cpp:144] Setting up pool2
I0122 16:32:19.210201 51935 net.cpp:151] Top shape: 50 64 8 8 (204800)
I0122 16:32:19.210203 51935 net.cpp:159] Memory required for data: 63693600
I0122 16:32:19.210207 51935 layer_factory.hpp:77] Creating layer drop2
I0122 16:32:19.210213 51935 net.cpp:94] Creating Layer drop2
I0122 16:32:19.210217 51935 net.cpp:435] drop2 <- pool2
I0122 16:32:19.210223 51935 net.cpp:409] drop2 -> drop2
I0122 16:32:19.210279 51935 net.cpp:144] Setting up drop2
I0122 16:32:19.210289 51935 net.cpp:151] Top shape: 50 64 8 8 (204800)
I0122 16:32:19.210316 51935 net.cpp:159] Memory required for data: 64512800
I0122 16:32:19.210320 51935 layer_factory.hpp:77] Creating layer fc1
I0122 16:32:19.210332 51935 net.cpp:94] Creating Layer fc1
I0122 16:32:19.210336 51935 net.cpp:435] fc1 <- drop2
I0122 16:32:19.210343 51935 net.cpp:409] fc1 -> fc1
I0122 16:32:19.226389 51935 net.cpp:144] Setting up fc1
I0122 16:32:19.226410 51935 net.cpp:151] Top shape: 50 512 (25600)
I0122 16:32:19.226413 51935 net.cpp:159] Memory required for data: 64615200
I0122 16:32:19.226420 51935 layer_factory.hpp:77] Creating layer bn5
I0122 16:32:19.226429 51935 net.cpp:94] Creating Layer bn5
I0122 16:32:19.226433 51935 net.cpp:435] bn5 <- fc1
I0122 16:32:19.226439 51935 net.cpp:409] bn5 -> scale5
I0122 16:32:19.227021 51935 net.cpp:144] Setting up bn5
I0122 16:32:19.227030 51935 net.cpp:151] Top shape: 50 512 (25600)
I0122 16:32:19.227032 51935 net.cpp:159] Memory required for data: 64717600
I0122 16:32:19.227044 51935 layer_factory.hpp:77] Creating layer relu5
I0122 16:32:19.227051 51935 net.cpp:94] Creating Layer relu5
I0122 16:32:19.227054 51935 net.cpp:435] relu5 <- scale5
I0122 16:32:19.227061 51935 net.cpp:409] relu5 -> relu5
I0122 16:32:19.227079 51935 net.cpp:144] Setting up relu5
I0122 16:32:19.227084 51935 net.cpp:151] Top shape: 50 512 (25600)
I0122 16:32:19.227087 51935 net.cpp:159] Memory required for data: 64820000
I0122 16:32:19.227090 51935 layer_factory.hpp:77] Creating layer drop3
I0122 16:32:19.227095 51935 net.cpp:94] Creating Layer drop3
I0122 16:32:19.227098 51935 net.cpp:435] drop3 <- relu5
I0122 16:32:19.227102 51935 net.cpp:409] drop3 -> drop3
I0122 16:32:19.227130 51935 net.cpp:144] Setting up drop3
I0122 16:32:19.227134 51935 net.cpp:151] Top shape: 50 512 (25600)
I0122 16:32:19.227138 51935 net.cpp:159] Memory required for data: 64922400
I0122 16:32:19.227139 51935 layer_factory.hpp:77] Creating layer fc2
I0122 16:32:19.227146 51935 net.cpp:94] Creating Layer fc2
I0122 16:32:19.227149 51935 net.cpp:435] fc2 <- drop3
I0122 16:32:19.227154 51935 net.cpp:409] fc2 -> fc2
I0122 16:32:19.227293 51935 net.cpp:144] Setting up fc2
I0122 16:32:19.227299 51935 net.cpp:151] Top shape: 50 10 (500)
I0122 16:32:19.227301 51935 net.cpp:159] Memory required for data: 64924400
I0122 16:32:19.227306 51935 layer_factory.hpp:77] Creating layer fc2_fc2_0_split
I0122 16:32:19.227311 51935 net.cpp:94] Creating Layer fc2_fc2_0_split
I0122 16:32:19.227314 51935 net.cpp:435] fc2_fc2_0_split <- fc2
I0122 16:32:19.227319 51935 net.cpp:409] fc2_fc2_0_split -> fc2_fc2_0_split_0
I0122 16:32:19.227325 51935 net.cpp:409] fc2_fc2_0_split -> fc2_fc2_0_split_1
I0122 16:32:19.227330 51935 net.cpp:409] fc2_fc2_0_split -> fc2_fc2_0_split_2
I0122 16:32:19.227370 51935 net.cpp:144] Setting up fc2_fc2_0_split
I0122 16:32:19.227375 51935 net.cpp:151] Top shape: 50 10 (500)
I0122 16:32:19.227378 51935 net.cpp:151] Top shape: 50 10 (500)
I0122 16:32:19.227381 51935 net.cpp:151] Top shape: 50 10 (500)
I0122 16:32:19.227385 51935 net.cpp:159] Memory required for data: 64930400
I0122 16:32:19.227387 51935 layer_factory.hpp:77] Creating layer loss
I0122 16:32:19.227391 51935 net.cpp:94] Creating Layer loss
I0122 16:32:19.227394 51935 net.cpp:435] loss <- fc2_fc2_0_split_0
I0122 16:32:19.227399 51935 net.cpp:435] loss <- label_data_1_split_0
I0122 16:32:19.227403 51935 net.cpp:409] loss -> loss
…
