…
I0122 16:41:59.971626 57874 net.cpp:323] The NetState phase (0) differed from the phase (1) specified by a rule in layer accuracy-top1
I0122 16:41:59.971629 57874 net.cpp:323] The NetState phase (0) differed from the phase (1) specified by a rule in layer accuracy-top5
I0122 16:41:59.971789 57874 net.cpp:52] Initializing net from parameters: 
state {
  phase: TRAIN
}
layer {
  name: "data"
  type: "Data"
  top: "data"
  top: "label"
  include {
    phase: TRAIN
  }
  transform_param {
    mirror: true
    mean_value: 125
    mean_value: 123
    mean_value: 114
  }
  data_param {
    source: "cifar10/input/lmdb/train_lmdb"
    batch_size: 128
    backend: LMDB
  }
}
layer {
  name: "conv1"
  type: "Convolution"
  bottom: "data"
  top: "conv1"
  param {
    lr_mult: 1
    decay_mult: 1
    compression: PRUNE
  }
  param {
    lr_mult: 2
    decay_mult: 0
    compression: PRUNE
  }
  convolution_param {
    num_output: 32
    pad: 1
    kernel_size: 3
    stride: 1
    weight_filler {
      type: "xavier"
    }
    bias_filler {
      type: "constant"
      value: 0
    }
  }
}
layer {
  name: "bn1"
  type: "BatchNorm"
  bottom: "conv1"
  top: "scale1"
  param {
    lr_mult: 1
    decay_mult: 0
    compression: PRUNE
  }
  param {
    lr_mult: 1
    decay_mult: 0
    compression: PRUNE
  }
  param {
    lr_mult: 0
    decay_mult: 0
    compression: PRUNE
  }
  param {
    lr_mult: 0
    decay_mult: 0
    compression: PRUNE
  }
  batch_norm_param {
    use_global_stats: false
    scale_filler {
      type: "constant"
      value: 1
    }
    bias_filler {
      type: "constant"
      value: 0
    }
  }
}
layer {
  name: "relu1"
  type: "ReLU"
  bottom: "scale1"
  top: "relu1"
}
layer {
  name: "conv2"
  type: "Convolution"
  bottom: "relu1"
  top: "conv2"
  param {
    lr_mult: 1
    decay_mult: 1
    compression: PRUNE
  }
  param {
    lr_mult: 2
    decay_mult: 0
    compression: PRUNE
  }
  convolution_param {
    num_output: 32
    pad: 1
    kernel_size: 3
    stride: 1
    weight_filler {
      type: "xavier"
    }
    bias_filler {
      type: "constant"
      value: 0
    }
  }
}
layer {
  name: "bn2"
  type: "BatchNorm"
  bottom: "conv2"
  top: "scale2"
  param {
    lr_mult: 1
    decay_mult: 0
    compression: PRUNE
  }
  param {
    lr_mult: 1
    decay_mult: 0
    compression: PRUNE
  }
  param {
    lr_mult: 0
    decay_mult: 0
    compression: PRUNE
  }
  param {
    lr_mult: 0
    decay_mult: 0
    compression: PRUNE
  }
  batch_norm_param {
    use_global_stats: false
    scale_filler {
      type: "constant"
      value: 1
    }
    bias_filler {
      type: "constant"
      value: 0
    }
  }
}
layer {
  name: "relu2"
  type: "ReLU"
  bottom: "scale2"
  top: "relu2"
}
layer {
  name: "pool1"
  type: "Pooling"
  bottom: "relu2"
  top: "pool1"
  pooling_param {
    pool: MAX
    kernel_size: 2
    stride: 2
  }
}
layer {
  name: "drop1"
  type: "Dropout"
  bottom: "pool1"
  top: "drop1"
  dropout_param {
    dropout_ratio: 0.25
  }
}
layer {
  name: "conv3"
  type: "Convolution"
  bottom: "drop1"
  top: "conv3"
  param {
    lr_mult: 1
    decay_mult: 1
    compression: PRUNE
  }
  param {
    lr_mult: 2
    decay_mult: 0
    compression: PRUNE
  }
  convolution_param {
    num_output: 64
    pad: 1
    kernel_size: 3
    stride: 1
    weight_filler {
      type: "xavier"
    }
    bias_filler {
      type: "constant"
      value: 0
    }
  }
}
layer {
  name: "bn3"
  type: "BatchNorm"
  bottom: "conv3"
  top: "scale3"
  param {
    lr_mult: 1
    decay_mult: 0
    compression: PRUNE
  }
  param {
    lr_mult: 1
    decay_mult: 0
    compression: PRUNE
  }
  param {
    lr_mult: 0
    decay_mult: 0
    compression: PRUNE
  }
  param {
    lr_mult: 0
    decay_mult: 0
    compression: PRUNE
  }
  batch_norm_param {
    use_global_stats: false
    scale_filler {
      type: "constant"
      value: 1
    }
    bias_filler {
      type: "constant"
      value: 0
    }
  }
}
layer {
  name: "relu3"
  type: "ReLU"
  bottom: "scale3"
  top: "relu3"
}
layer {
  name: "conv4"
  type: "Convolution"
  bottom: "relu3"
  top: "conv4"
  param {
    lr_mult: 1
    decay_mult: 1
    compression: PRUNE
  }
  param {
    lr_mult: 2
    decay_mult: 0
    compression: PRUNE
  }
  convolution_param {
    num_output: 64
    pad: 1
    kernel_size: 3
    stride: 1
    weight_filler {
      type: "xavier"
    }
    bias_filler {
      type: "constant"
      value: 0
    }
  }
}
layer {
  name: "bn4"
  type: "BatchNorm"
  bottom: "conv4"
  top: "scale4"
  param {
    lr_mult: 1
    decay_mult: 0
    compression: PRUNE
  }
  param {
    lr_mult: 1
    decay_mult: 0
    compression: PRUNE
  }
  param {
    lr_mult: 0
    decay_mult: 0
    compression: PRUNE
  }
  param {
    lr_mult: 0
    decay_mult: 0
    compression: PRUNE
  }
  batch_norm_param {
    use_global_stats: false
    scale_filler {
      type: "constant"
      value: 1
    }
    bias_filler {
      type: "constant"
      value: 0
    }
  }
}
layer {
  name: "relu4"
  type: "ReLU"
  bottom: "scale4"
  top: "relu4"
}
layer {
  name: "pool2"
  type: "Pooling"
  bottom: "relu4"
  top: "pool2"
  pooling_param {
    pool: MAX
    kernel_size: 2
    stride: 2
  }
}
layer {
  name: "drop2"
  type: "Dropout"
  bottom: "pool2"
  top: "drop2"
  dropout_param {
    dropout_ratio: 0.25
  }
}
layer {
  name: "fc1"
  type: "InnerProduct"
  bottom: "drop2"
  top: "fc1"
  param {
    lr_mult: 1
    decay_mult: 1
  }
  param {
    lr_mult: 2
    decay_mult: 0
  }
  inner_product_param {
    num_output: 512
    weight_filler {
      type: "xavier"
    }
    bias_filler {
      type: "constant"
      value: 1
    }
  }
}
layer {
  name: "bn5"
  type: "BatchNorm"
  bottom: "fc1"
  top: "scale5"
  param {
    lr_mult: 1
    decay_mult: 0
    compression: PRUNE
  }
  param {
    lr_mult: 1
    decay_mult: 0
    compression: PRUNE
  }
  param {
    lr_mult: 0
    decay_mult: 0
    compression: PRUNE
  }
  param {
    lr_mult: 0
    decay_mult: 0
    compression: PRUNE
  }
  batch_norm_param {
    use_global_stats: false
    scale_filler {
      type: "constant"
      value: 1
    }
    bias_filler {
      type: "constant"
      value: 0
    }
  }
}
layer {
  name: "relu5"
  type: "ReLU"
  bottom: "scale5"
  top: "relu5"
}
layer {
  name: "drop3"
  type: "Dropout"
  bottom: "relu5"
  top: "drop3"
  dropout_param {
    dropout_ratio: 0.5
  }
}
layer {
  name: "fc2"
  type: "InnerProduct"
  bottom: "drop3"
  top: "fc2"
  param {
    lr_mult: 1
    decay_mult: 1
  }
  param {
    lr_mult: 2
    decay_mult: 0
  }
  inner_product_param {
    num_output: 10
    weight_filler {
      type: "xavier"
    }
    bias_filler {
      type: "constant"
      value: 1
    }
  }
}
layer {
  name: "loss"
  type: "SoftmaxWithLoss"
  bottom: "fc2"
  bottom: "label"
  top: "loss"
}
I0122 16:41:59.971856 57874 layer_factory.hpp:77] Creating layer data
I0122 16:41:59.971947 57874 internal_thread.cpp:27] Starting internal thread(s) on GPU 0
I0122 16:41:59.972347 57874 net.cpp:94] Creating Layer data
I0122 16:41:59.972363 57874 net.cpp:409] data -> data
I0122 16:41:59.972389 57874 net.cpp:409] data -> label
I0122 16:41:59.973819 57913 db_lmdb.cpp:35] Opened lmdb cifar10/input/lmdb/train_lmdb
I0122 16:41:59.973866 57913 data_reader.cpp:117] TRAIN: reading data using 1 channel(s)
I0122 16:41:59.973971 57874 data_layer.cpp:78] ReshapePrefetch 128, 3, 32, 32
I0122 16:41:59.974123 57874 data_layer.cpp:83] output data size: 128,3,32,32
I0122 16:41:59.982205 57874 internal_thread.cpp:27] Starting internal thread(s) on GPU 0
I0122 16:41:59.982254 57874 net.cpp:144] Setting up data
I0122 16:41:59.982264 57874 net.cpp:151] Top shape: 128 3 32 32 (393216)
I0122 16:41:59.982269 57874 net.cpp:151] Top shape: 128 (128)
I0122 16:41:59.982271 57874 net.cpp:159] Memory required for data: 1573376
I0122 16:41:59.982275 57874 layer_factory.hpp:77] Creating layer conv1
I0122 16:41:59.982290 57874 net.cpp:94] Creating Layer conv1
I0122 16:41:59.982295 57874 net.cpp:435] conv1 <- data
I0122 16:41:59.982313 57874 net.cpp:409] conv1 -> conv1
I0122 16:41:59.983382 57874 net.cpp:144] Setting up conv1
I0122 16:41:59.983392 57874 net.cpp:151] Top shape: 128 32 32 32 (4194304)
I0122 16:41:59.983394 57874 net.cpp:159] Memory required for data: 18350592
I0122 16:41:59.983408 57874 layer_factory.hpp:77] Creating layer bn1
I0122 16:41:59.983415 57874 net.cpp:94] Creating Layer bn1
I0122 16:41:59.983418 57874 net.cpp:435] bn1 <- conv1
I0122 16:41:59.983423 57874 net.cpp:409] bn1 -> scale1
I0122 16:41:59.984004 57874 net.cpp:144] Setting up bn1
I0122 16:41:59.984012 57874 net.cpp:151] Top shape: 128 32 32 32 (4194304)
I0122 16:41:59.984014 57874 net.cpp:159] Memory required for data: 35127808
I0122 16:41:59.984025 57874 layer_factory.hpp:77] Creating layer relu1
I0122 16:41:59.984032 57874 net.cpp:94] Creating Layer relu1
I0122 16:41:59.984035 57874 net.cpp:435] relu1 <- scale1
I0122 16:41:59.984040 57874 net.cpp:409] relu1 -> relu1
I0122 16:41:59.984061 57874 net.cpp:144] Setting up relu1
I0122 16:41:59.984066 57874 net.cpp:151] Top shape: 128 32 32 32 (4194304)
I0122 16:41:59.984069 57874 net.cpp:159] Memory required for data: 51905024
I0122 16:41:59.984071 57874 layer_factory.hpp:77] Creating layer conv2
I0122 16:41:59.984079 57874 net.cpp:94] Creating Layer conv2
I0122 16:41:59.984084 57874 net.cpp:435] conv2 <- relu1
I0122 16:41:59.984091 57874 net.cpp:409] conv2 -> conv2
I0122 16:41:59.985594 57874 net.cpp:144] Setting up conv2
I0122 16:41:59.985602 57874 net.cpp:151] Top shape: 128 32 32 32 (4194304)
I0122 16:41:59.985605 57874 net.cpp:159] Memory required for data: 68682240
I0122 16:41:59.985612 57874 layer_factory.hpp:77] Creating layer bn2
I0122 16:41:59.985636 57874 net.cpp:94] Creating Layer bn2
I0122 16:41:59.985638 57874 net.cpp:435] bn2 <- conv2
I0122 16:41:59.985646 57874 net.cpp:409] bn2 -> scale2
I0122 16:41:59.986376 57874 net.cpp:144] Setting up bn2
I0122 16:41:59.986383 57874 net.cpp:151] Top shape: 128 32 32 32 (4194304)
I0122 16:41:59.986387 57874 net.cpp:159] Memory required for data: 85459456
I0122 16:41:59.986395 57874 layer_factory.hpp:77] Creating layer relu2
I0122 16:41:59.986400 57874 net.cpp:94] Creating Layer relu2
I0122 16:41:59.986403 57874 net.cpp:435] relu2 <- scale2
I0122 16:41:59.986408 57874 net.cpp:409] relu2 -> relu2
I0122 16:41:59.986472 57874 net.cpp:144] Setting up relu2
I0122 16:41:59.986477 57874 net.cpp:151] Top shape: 128 32 32 32 (4194304)
I0122 16:41:59.986480 57874 net.cpp:159] Memory required for data: 102236672
I0122 16:41:59.986483 57874 layer_factory.hpp:77] Creating layer pool1
I0122 16:41:59.986490 57874 net.cpp:94] Creating Layer pool1
I0122 16:41:59.986491 57874 net.cpp:435] pool1 <- relu2
I0122 16:41:59.986497 57874 net.cpp:409] pool1 -> pool1
I0122 16:41:59.986539 57874 net.cpp:144] Setting up pool1
I0122 16:41:59.986546 57874 net.cpp:151] Top shape: 128 32 16 16 (1048576)
I0122 16:41:59.986548 57874 net.cpp:159] Memory required for data: 106430976
I0122 16:41:59.986552 57874 layer_factory.hpp:77] Creating layer drop1
I0122 16:41:59.986557 57874 net.cpp:94] Creating Layer drop1
I0122 16:41:59.986560 57874 net.cpp:435] drop1 <- pool1
I0122 16:41:59.986575 57874 net.cpp:409] drop1 -> drop1
I0122 16:41:59.986744 57874 net.cpp:144] Setting up drop1
I0122 16:41:59.986750 57874 net.cpp:151] Top shape: 128 32 16 16 (1048576)
I0122 16:41:59.986753 57874 net.cpp:159] Memory required for data: 110625280
I0122 16:41:59.986755 57874 layer_factory.hpp:77] Creating layer conv3
I0122 16:41:59.986765 57874 net.cpp:94] Creating Layer conv3
I0122 16:41:59.986769 57874 net.cpp:435] conv3 <- drop1
I0122 16:41:59.986776 57874 net.cpp:409] conv3 -> conv3
I0122 16:41:59.987800 57874 net.cpp:144] Setting up conv3
I0122 16:41:59.987812 57874 net.cpp:151] Top shape: 128 64 16 16 (2097152)
I0122 16:41:59.987814 57874 net.cpp:159] Memory required for data: 119013888
I0122 16:41:59.987821 57874 layer_factory.hpp:77] Creating layer bn3
I0122 16:41:59.987829 57874 net.cpp:94] Creating Layer bn3
I0122 16:41:59.987834 57874 net.cpp:435] bn3 <- conv3
I0122 16:41:59.987841 57874 net.cpp:409] bn3 -> scale3
I0122 16:41:59.988466 57874 net.cpp:144] Setting up bn3
I0122 16:41:59.988472 57874 net.cpp:151] Top shape: 128 64 16 16 (2097152)
I0122 16:41:59.988477 57874 net.cpp:159] Memory required for data: 127402496
I0122 16:41:59.988490 57874 layer_factory.hpp:77] Creating layer relu3
I0122 16:41:59.988497 57874 net.cpp:94] Creating Layer relu3
I0122 16:41:59.988499 57874 net.cpp:435] relu3 <- scale3
I0122 16:41:59.988503 57874 net.cpp:409] relu3 -> relu3
I0122 16:41:59.988536 57874 net.cpp:144] Setting up relu3
I0122 16:41:59.988543 57874 net.cpp:151] Top shape: 128 64 16 16 (2097152)
I0122 16:41:59.988545 57874 net.cpp:159] Memory required for data: 135791104
I0122 16:41:59.988548 57874 layer_factory.hpp:77] Creating layer conv4
I0122 16:41:59.988556 57874 net.cpp:94] Creating Layer conv4
I0122 16:41:59.988561 57874 net.cpp:435] conv4 <- relu3
I0122 16:41:59.988567 57874 net.cpp:409] conv4 -> conv4
I0122 16:41:59.988989 57874 net.cpp:144] Setting up conv4
I0122 16:41:59.988996 57874 net.cpp:151] Top shape: 128 64 16 16 (2097152)
I0122 16:41:59.989001 57874 net.cpp:159] Memory required for data: 144179712
I0122 16:41:59.989006 57874 layer_factory.hpp:77] Creating layer bn4
I0122 16:41:59.989013 57874 net.cpp:94] Creating Layer bn4
I0122 16:41:59.989017 57874 net.cpp:435] bn4 <- conv4
I0122 16:41:59.989022 57874 net.cpp:409] bn4 -> scale4
I0122 16:41:59.989706 57874 net.cpp:144] Setting up bn4
I0122 16:41:59.989712 57874 net.cpp:151] Top shape: 128 64 16 16 (2097152)
I0122 16:41:59.989715 57874 net.cpp:159] Memory required for data: 152568320
I0122 16:41:59.989723 57874 layer_factory.hpp:77] Creating layer relu4
I0122 16:41:59.989729 57874 net.cpp:94] Creating Layer relu4
I0122 16:41:59.989732 57874 net.cpp:435] relu4 <- scale4
I0122 16:41:59.989737 57874 net.cpp:409] relu4 -> relu4
I0122 16:41:59.989755 57874 net.cpp:144] Setting up relu4
I0122 16:41:59.989761 57874 net.cpp:151] Top shape: 128 64 16 16 (2097152)
I0122 16:41:59.989763 57874 net.cpp:159] Memory required for data: 160956928
I0122 16:41:59.989766 57874 layer_factory.hpp:77] Creating layer pool2
I0122 16:41:59.989771 57874 net.cpp:94] Creating Layer pool2
I0122 16:41:59.989775 57874 net.cpp:435] pool2 <- relu4
I0122 16:41:59.989780 57874 net.cpp:409] pool2 -> pool2
I0122 16:41:59.989811 57874 net.cpp:144] Setting up pool2
I0122 16:41:59.989817 57874 net.cpp:151] Top shape: 128 64 8 8 (524288)
I0122 16:41:59.989820 57874 net.cpp:159] Memory required for data: 163054080
I0122 16:41:59.989823 57874 layer_factory.hpp:77] Creating layer drop2
I0122 16:41:59.989830 57874 net.cpp:94] Creating Layer drop2
I0122 16:41:59.989835 57874 net.cpp:435] drop2 <- pool2
I0122 16:41:59.989840 57874 net.cpp:409] drop2 -> drop2
I0122 16:41:59.989868 57874 net.cpp:144] Setting up drop2
I0122 16:41:59.989873 57874 net.cpp:151] Top shape: 128 64 8 8 (524288)
I0122 16:41:59.989877 57874 net.cpp:159] Memory required for data: 165151232
I0122 16:41:59.989879 57874 layer_factory.hpp:77] Creating layer fc1
I0122 16:41:59.989886 57874 net.cpp:94] Creating Layer fc1
I0122 16:41:59.989889 57874 net.cpp:435] fc1 <- drop2
I0122 16:41:59.989895 57874 net.cpp:409] fc1 -> fc1
I0122 16:42:00.004231 57874 net.cpp:144] Setting up fc1
I0122 16:42:00.004247 57874 net.cpp:151] Top shape: 128 512 (65536)
I0122 16:42:00.004251 57874 net.cpp:159] Memory required for data: 165413376
I0122 16:42:00.004258 57874 layer_factory.hpp:77] Creating layer bn5
I0122 16:42:00.004267 57874 net.cpp:94] Creating Layer bn5
I0122 16:42:00.004271 57874 net.cpp:435] bn5 <- fc1
I0122 16:42:00.004277 57874 net.cpp:409] bn5 -> scale5
I0122 16:42:00.004835 57874 net.cpp:144] Setting up bn5
I0122 16:42:00.004842 57874 net.cpp:151] Top shape: 128 512 (65536)
I0122 16:42:00.004844 57874 net.cpp:159] Memory required for data: 165675520
I0122 16:42:00.004859 57874 layer_factory.hpp:77] Creating layer relu5
I0122 16:42:00.004866 57874 net.cpp:94] Creating Layer relu5
I0122 16:42:00.004869 57874 net.cpp:435] relu5 <- scale5
I0122 16:42:00.004874 57874 net.cpp:409] relu5 -> relu5
I0122 16:42:00.004894 57874 net.cpp:144] Setting up relu5
I0122 16:42:00.004899 57874 net.cpp:151] Top shape: 128 512 (65536)
I0122 16:42:00.004902 57874 net.cpp:159] Memory required for data: 165937664
I0122 16:42:00.004905 57874 layer_factory.hpp:77] Creating layer drop3
I0122 16:42:00.004909 57874 net.cpp:94] Creating Layer drop3
I0122 16:42:00.004915 57874 net.cpp:435] drop3 <- relu5
I0122 16:42:00.004921 57874 net.cpp:409] drop3 -> drop3
I0122 16:42:00.004951 57874 net.cpp:144] Setting up drop3
I0122 16:42:00.004956 57874 net.cpp:151] Top shape: 128 512 (65536)
I0122 16:42:00.004959 57874 net.cpp:159] Memory required for data: 166199808
I0122 16:42:00.004961 57874 layer_factory.hpp:77] Creating layer fc2
I0122 16:42:00.004967 57874 net.cpp:94] Creating Layer fc2
I0122 16:42:00.004972 57874 net.cpp:435] fc2 <- drop3
I0122 16:42:00.004978 57874 net.cpp:409] fc2 -> fc2
I0122 16:42:00.005146 57874 net.cpp:144] Setting up fc2
I0122 16:42:00.005152 57874 net.cpp:151] Top shape: 128 10 (1280)
I0122 16:42:00.005156 57874 net.cpp:159] Memory required for data: 166204928
I0122 16:42:00.005161 57874 layer_factory.hpp:77] Creating layer loss
I0122 16:42:00.005167 57874 net.cpp:94] Creating Layer loss
I0122 16:42:00.005169 57874 net.cpp:435] loss <- fc2
I0122 16:42:00.005173 57874 net.cpp:435] loss <- label
I0122 16:42:00.005178 57874 net.cpp:409] loss -> loss
I0122 16:42:00.005185 57874 layer_factory.hpp:77] Creating layer loss
…
I0122 16:42:00.006391 57874 solver.cpp:189] Creating test net (#0) specified by net file: cifar10/deephi/miniVggNet/pruning/regular_rate_0.6/net_finetune.prototxt
I0122 16:42:00.006423 57874 net.cpp:323] The NetState phase (1) differed from the phase (0) specified by a rule in layer data
I0122 16:42:00.006610 57874 net.cpp:52] Initializing net from parameters: 
state {
  phase: TEST
}
layer {
  name: "data"
  type: "Data"
  top: "data"
  top: "label"
  include {
    phase: TEST
  }
  transform_param {
    mirror: false
    mean_value: 125
    mean_value: 123
    mean_value: 114
  }
  data_param {
    source: "cifar10/input/lmdb/valid_lmdb"
    batch_size: 50
    backend: LMDB
  }
}
layer {
  name: "conv1"
  type: "Convolution"
  bottom: "data"
  top: "conv1"
  param {
    lr_mult: 1
    decay_mult: 1
    compression: PRUNE
  }
  param {
    lr_mult: 2
    decay_mult: 0
    compression: PRUNE
  }
  convolution_param {
    num_output: 32
    pad: 1
    kernel_size: 3
    stride: 1
    weight_filler {
      type: "xavier"
    }
    bias_filler {
      type: "constant"
      value: 0
    }
  }
}
layer {
  name: "bn1"
  type: "BatchNorm"
  bottom: "conv1"
  top: "scale1"
  param {
    lr_mult: 1
    decay_mult: 0
    compression: PRUNE
  }
  param {
    lr_mult: 1
    decay_mult: 0
    compression: PRUNE
  }
  param {
    lr_mult: 0
    decay_mult: 0
    compression: PRUNE
  }
  param {
    lr_mult: 0
    decay_mult: 0
    compression: PRUNE
  }
  batch_norm_param {
    use_global_stats: false
    scale_filler {
      type: "constant"
      value: 1
    }
    bias_filler {
      type: "constant"
      value: 0
    }
  }
}
layer {
  name: "relu1"
  type: "ReLU"
  bottom: "scale1"
  top: "relu1"
}
layer {
  name: "conv2"
  type: "Convolution"
  bottom: "relu1"
  top: "conv2"
  param {
    lr_mult: 1
    decay_mult: 1
    compression: PRUNE
  }
  param {
    lr_mult: 2
    decay_mult: 0
    compression: PRUNE
  }
  convolution_param {
    num_output: 32
    pad: 1
    kernel_size: 3
    stride: 1
    weight_filler {
      type: "xavier"
    }
    bias_filler {
      type: "constant"
      value: 0
    }
  }
}
layer {
  name: "bn2"
  type: "BatchNorm"
  bottom: "conv2"
  top: "scale2"
  param {
    lr_mult: 1
    decay_mult: 0
    compression: PRUNE
  }
  param {
    lr_mult: 1
    decay_mult: 0
    compression: PRUNE
  }
  param {
    lr_mult: 0
    decay_mult: 0
    compression: PRUNE
  }
  param {
    lr_mult: 0
    decay_mult: 0
    compression: PRUNE
  }
  batch_norm_param {
    use_global_stats: false
    scale_filler {
      type: "constant"
      value: 1
    }
    bias_filler {
      type: "constant"
      value: 0
    }
  }
}
layer {
  name: "relu2"
  type: "ReLU"
  bottom: "scale2"
  top: "relu2"
}
layer {
  name: "pool1"
  type: "Pooling"
  bottom: "relu2"
  top: "pool1"
  pooling_param {
    pool: MAX
    kernel_size: 2
    stride: 2
  }
}
layer {
  name: "drop1"
  type: "Dropout"
  bottom: "pool1"
  top: "drop1"
  dropout_param {
    dropout_ratio: 0.25
  }
}
layer {
  name: "conv3"
  type: "Convolution"
  bottom: "drop1"
  top: "conv3"
  param {
    lr_mult: 1
    decay_mult: 1
    compression: PRUNE
  }
  param {
    lr_mult: 2
    decay_mult: 0
    compression: PRUNE
  }
  convolution_param {
    num_output: 64
    pad: 1
    kernel_size: 3
    stride: 1
    weight_filler {
      type: "xavier"
    }
    bias_filler {
      type: "constant"
      value: 0
    }
  }
}
layer {
  name: "bn3"
  type: "BatchNorm"
  bottom: "conv3"
  top: "scale3"
  param {
    lr_mult: 1
    decay_mult: 0
    compression: PRUNE
  }
  param {
    lr_mult: 1
    decay_mult: 0
    compression: PRUNE
  }
  param {
    lr_mult: 0
    decay_mult: 0
    compression: PRUNE
  }
  param {
    lr_mult: 0
    decay_mult: 0
    compression: PRUNE
  }
  batch_norm_param {
    use_global_stats: false
    scale_filler {
      type: "constant"
      value: 1
    }
    bias_filler {
      type: "constant"
      value: 0
    }
  }
}
layer {
  name: "relu3"
  type: "ReLU"
  bottom: "scale3"
  top: "relu3"
}
layer {
  name: "conv4"
  type: "Convolution"
  bottom: "relu3"
  top: "conv4"
  param {
    lr_mult: 1
    decay_mult: 1
    compression: PRUNE
  }
  param {
    lr_mult: 2
    decay_mult: 0
    compression: PRUNE
  }
  convolution_param {
    num_output: 64
    pad: 1
    kernel_size: 3
    stride: 1
    weight_filler {
      type: "xavier"
    }
    bias_filler {
      type: "constant"
      value: 0
    }
  }
}
layer {
  name: "bn4"
  type: "BatchNorm"
  bottom: "conv4"
  top: "scale4"
  param {
    lr_mult: 1
    decay_mult: 0
    compression: PRUNE
  }
  param {
    lr_mult: 1
    decay_mult: 0
    compression: PRUNE
  }
  param {
    lr_mult: 0
    decay_mult: 0
    compression: PRUNE
  }
  param {
    lr_mult: 0
    decay_mult: 0
    compression: PRUNE
  }
  batch_norm_param {
    use_global_stats: false
    scale_filler {
      type: "constant"
      value: 1
    }
    bias_filler {
      type: "constant"
      value: 0
    }
  }
}
layer {
  name: "relu4"
  type: "ReLU"
  bottom: "scale4"
  top: "relu4"
}
layer {
  name: "pool2"
  type: "Pooling"
  bottom: "relu4"
  top: "pool2"
  pooling_param {
    pool: MAX
    kernel_size: 2
    stride: 2
  }
}
layer {
  name: "drop2"
  type: "Dropout"
  bottom: "pool2"
  top: "drop2"
  dropout_param {
    dropout_ratio: 0.25
  }
}
layer {
  name: "fc1"
  type: "InnerProduct"
  bottom: "drop2"
  top: "fc1"
  param {
    lr_mult: 1
    decay_mult: 1
  }
  param {
    lr_mult: 2
    decay_mult: 0
  }
  inner_product_param {
    num_output: 512
    weight_filler {
      type: "xavier"
    }
    bias_filler {
      type: "constant"
      value: 1
    }
  }
}
layer {
  name: "bn5"
  type: "BatchNorm"
  bottom: "fc1"
  top: "scale5"
  param {
    lr_mult: 1
    decay_mult: 0
    compression: PRUNE
  }
  param {
    lr_mult: 1
    decay_mult: 0
    compression: PRUNE
  }
  param {
    lr_mult: 0
    decay_mult: 0
    compression: PRUNE
  }
  param {
    lr_mult: 0
    decay_mult: 0
    compression: PRUNE
  }
  batch_norm_param {
    use_global_stats: false
    scale_filler {
      type: "constant"
      value: 1
    }
    bias_filler {
      type: "constant"
      value: 0
    }
  }
}
layer {
  name: "relu5"
  type: "ReLU"
  bottom: "scale5"
  top: "relu5"
}
layer {
  name: "drop3"
  type: "Dropout"
  bottom: "relu5"
  top: "drop3"
  dropout_param {
    dropout_ratio: 0.5
  }
}
layer {
  name: "fc2"
  type: "InnerProduct"
  bottom: "drop3"
  top: "fc2"
  param {
    lr_mult: 1
    decay_mult: 1
  }
  param {
    lr_mult: 2
    decay_mult: 0
  }
  inner_product_param {
    num_output: 10
    weight_filler {
      type: "xavier"
    }
    bias_filler {
      type: "constant"
      value: 1
    }
  }
}
layer {
  name: "loss"
  type: "SoftmaxWithLoss"
  bottom: "fc2"
  bottom: "label"
  top: "loss"
}
layer {
  name: "accuracy-top1"
  type: "Accuracy"
  bottom: "fc2"
  bottom: "label"
  top: "top-1"
  include {
    phase: TEST
  }
}
layer {
  name: "accuracy-top5"
  type: "Accuracy"
  bottom: "fc2"
  bottom: "label"
  top: "top-5"
  include {
    phase: TEST
  }
  accuracy_param {
    top_k: 5
  }
}
I0122 16:42:00.006709 57874 layer_factory.hpp:77] Creating layer data
I0122 16:42:00.006752 57874 internal_thread.cpp:27] Starting internal thread(s) on GPU 0
I0122 16:42:00.007163 57874 net.cpp:94] Creating Layer data
I0122 16:42:00.007171 57874 net.cpp:409] data -> data
I0122 16:42:00.007179 57874 net.cpp:409] data -> label
I0122 16:42:00.008355 57943 db_lmdb.cpp:35] Opened lmdb cifar10/input/lmdb/valid_lmdb
I0122 16:42:00.008388 57943 data_reader.cpp:117] TEST: reading data using 1 channel(s)
I0122 16:42:00.008471 57874 data_layer.cpp:78] ReshapePrefetch 50, 3, 32, 32
I0122 16:42:00.008566 57874 data_layer.cpp:83] output data size: 50,3,32,32
I0122 16:42:00.012707 57874 internal_thread.cpp:27] Starting internal thread(s) on GPU 0
I0122 16:42:00.012756 57874 net.cpp:144] Setting up data
I0122 16:42:00.012766 57874 net.cpp:151] Top shape: 50 3 32 32 (153600)
I0122 16:42:00.012771 57874 net.cpp:151] Top shape: 50 (50)
I0122 16:42:00.012774 57874 net.cpp:159] Memory required for data: 614600
I0122 16:42:00.012778 57874 layer_factory.hpp:77] Creating layer label_data_1_split
I0122 16:42:00.012789 57874 net.cpp:94] Creating Layer label_data_1_split
I0122 16:42:00.012794 57874 net.cpp:435] label_data_1_split <- label
I0122 16:42:00.012801 57874 net.cpp:409] label_data_1_split -> label_data_1_split_0
I0122 16:42:00.012811 57874 net.cpp:409] label_data_1_split -> label_data_1_split_1
I0122 16:42:00.012817 57874 net.cpp:409] label_data_1_split -> label_data_1_split_2
I0122 16:42:00.012912 57874 net.cpp:144] Setting up label_data_1_split
I0122 16:42:00.012917 57874 net.cpp:151] Top shape: 50 (50)
I0122 16:42:00.012922 57874 net.cpp:151] Top shape: 50 (50)
I0122 16:42:00.012924 57874 net.cpp:151] Top shape: 50 (50)
I0122 16:42:00.012928 57874 net.cpp:159] Memory required for data: 615200
I0122 16:42:00.012929 57874 layer_factory.hpp:77] Creating layer conv1
I0122 16:42:00.012941 57874 net.cpp:94] Creating Layer conv1
I0122 16:42:00.012945 57874 net.cpp:435] conv1 <- data
I0122 16:42:00.012951 57874 net.cpp:409] conv1 -> conv1
I0122 16:42:00.013296 57874 net.cpp:144] Setting up conv1
I0122 16:42:00.013303 57874 net.cpp:151] Top shape: 50 32 32 32 (1638400)
I0122 16:42:00.013306 57874 net.cpp:159] Memory required for data: 7168800
I0122 16:42:00.013314 57874 layer_factory.hpp:77] Creating layer bn1
I0122 16:42:00.013324 57874 net.cpp:94] Creating Layer bn1
I0122 16:42:00.013330 57874 net.cpp:435] bn1 <- conv1
I0122 16:42:00.013336 57874 net.cpp:409] bn1 -> scale1
I0122 16:42:00.013979 57874 net.cpp:144] Setting up bn1
I0122 16:42:00.013986 57874 net.cpp:151] Top shape: 50 32 32 32 (1638400)
I0122 16:42:00.013990 57874 net.cpp:159] Memory required for data: 13722400
I0122 16:42:00.014003 57874 layer_factory.hpp:77] Creating layer relu1
I0122 16:42:00.014009 57874 net.cpp:94] Creating Layer relu1
I0122 16:42:00.014012 57874 net.cpp:435] relu1 <- scale1
I0122 16:42:00.014019 57874 net.cpp:409] relu1 -> relu1
I0122 16:42:00.014036 57874 net.cpp:144] Setting up relu1
I0122 16:42:00.014041 57874 net.cpp:151] Top shape: 50 32 32 32 (1638400)
I0122 16:42:00.014045 57874 net.cpp:159] Memory required for data: 20276000
I0122 16:42:00.014048 57874 layer_factory.hpp:77] Creating layer conv2
I0122 16:42:00.014056 57874 net.cpp:94] Creating Layer conv2
I0122 16:42:00.014061 57874 net.cpp:435] conv2 <- relu1
I0122 16:42:00.014067 57874 net.cpp:409] conv2 -> conv2
I0122 16:42:00.014343 57874 net.cpp:144] Setting up conv2
I0122 16:42:00.014350 57874 net.cpp:151] Top shape: 50 32 32 32 (1638400)
I0122 16:42:00.014353 57874 net.cpp:159] Memory required for data: 26829600
I0122 16:42:00.014359 57874 layer_factory.hpp:77] Creating layer bn2
I0122 16:42:00.014369 57874 net.cpp:94] Creating Layer bn2
I0122 16:42:00.014372 57874 net.cpp:435] bn2 <- conv2
I0122 16:42:00.014379 57874 net.cpp:409] bn2 -> scale2
I0122 16:42:00.015393 57874 net.cpp:144] Setting up bn2
I0122 16:42:00.015400 57874 net.cpp:151] Top shape: 50 32 32 32 (1638400)
I0122 16:42:00.015403 57874 net.cpp:159] Memory required for data: 33383200
I0122 16:42:00.015411 57874 layer_factory.hpp:77] Creating layer relu2
I0122 16:42:00.015416 57874 net.cpp:94] Creating Layer relu2
I0122 16:42:00.015419 57874 net.cpp:435] relu2 <- scale2
I0122 16:42:00.015424 57874 net.cpp:409] relu2 -> relu2
I0122 16:42:00.015477 57874 net.cpp:144] Setting up relu2
I0122 16:42:00.015482 57874 net.cpp:151] Top shape: 50 32 32 32 (1638400)
I0122 16:42:00.015486 57874 net.cpp:159] Memory required for data: 39936800
I0122 16:42:00.015488 57874 layer_factory.hpp:77] Creating layer pool1
I0122 16:42:00.015496 57874 net.cpp:94] Creating Layer pool1
I0122 16:42:00.015501 57874 net.cpp:435] pool1 <- relu2
I0122 16:42:00.015506 57874 net.cpp:409] pool1 -> pool1
I0122 16:42:00.015549 57874 net.cpp:144] Setting up pool1
I0122 16:42:00.015563 57874 net.cpp:151] Top shape: 50 32 16 16 (409600)
I0122 16:42:00.015566 57874 net.cpp:159] Memory required for data: 41575200
I0122 16:42:00.015569 57874 layer_factory.hpp:77] Creating layer drop1
I0122 16:42:00.015575 57874 net.cpp:94] Creating Layer drop1
I0122 16:42:00.015578 57874 net.cpp:435] drop1 <- pool1
I0122 16:42:00.015583 57874 net.cpp:409] drop1 -> drop1
I0122 16:42:00.015637 57874 net.cpp:144] Setting up drop1
I0122 16:42:00.015643 57874 net.cpp:151] Top shape: 50 32 16 16 (409600)
I0122 16:42:00.015645 57874 net.cpp:159] Memory required for data: 43213600
I0122 16:42:00.015647 57874 layer_factory.hpp:77] Creating layer conv3
I0122 16:42:00.015656 57874 net.cpp:94] Creating Layer conv3
I0122 16:42:00.015661 57874 net.cpp:435] conv3 <- drop1
I0122 16:42:00.015669 57874 net.cpp:409] conv3 -> conv3
I0122 16:42:00.016130 57874 net.cpp:144] Setting up conv3
I0122 16:42:00.016139 57874 net.cpp:151] Top shape: 50 64 16 16 (819200)
I0122 16:42:00.016142 57874 net.cpp:159] Memory required for data: 46490400
I0122 16:42:00.016147 57874 layer_factory.hpp:77] Creating layer bn3
I0122 16:42:00.016160 57874 net.cpp:94] Creating Layer bn3
I0122 16:42:00.016166 57874 net.cpp:435] bn3 <- conv3
I0122 16:42:00.016171 57874 net.cpp:409] bn3 -> scale3
I0122 16:42:00.016885 57874 net.cpp:144] Setting up bn3
I0122 16:42:00.016893 57874 net.cpp:151] Top shape: 50 64 16 16 (819200)
I0122 16:42:00.016896 57874 net.cpp:159] Memory required for data: 49767200
I0122 16:42:00.016907 57874 layer_factory.hpp:77] Creating layer relu3
I0122 16:42:00.016914 57874 net.cpp:94] Creating Layer relu3
I0122 16:42:00.016917 57874 net.cpp:435] relu3 <- scale3
I0122 16:42:00.016923 57874 net.cpp:409] relu3 -> relu3
I0122 16:42:00.016942 57874 net.cpp:144] Setting up relu3
I0122 16:42:00.016948 57874 net.cpp:151] Top shape: 50 64 16 16 (819200)
I0122 16:42:00.016952 57874 net.cpp:159] Memory required for data: 53044000
I0122 16:42:00.016954 57874 layer_factory.hpp:77] Creating layer conv4
I0122 16:42:00.016963 57874 net.cpp:94] Creating Layer conv4
I0122 16:42:00.016968 57874 net.cpp:435] conv4 <- relu3
I0122 16:42:00.016974 57874 net.cpp:409] conv4 -> conv4
I0122 16:42:00.017436 57874 net.cpp:144] Setting up conv4
I0122 16:42:00.017443 57874 net.cpp:151] Top shape: 50 64 16 16 (819200)
I0122 16:42:00.017446 57874 net.cpp:159] Memory required for data: 56320800
I0122 16:42:00.017452 57874 layer_factory.hpp:77] Creating layer bn4
I0122 16:42:00.017462 57874 net.cpp:94] Creating Layer bn4
I0122 16:42:00.017467 57874 net.cpp:435] bn4 <- conv4
I0122 16:42:00.017472 57874 net.cpp:409] bn4 -> scale4
I0122 16:42:00.018216 57874 net.cpp:144] Setting up bn4
I0122 16:42:00.018225 57874 net.cpp:151] Top shape: 50 64 16 16 (819200)
I0122 16:42:00.018229 57874 net.cpp:159] Memory required for data: 59597600
I0122 16:42:00.018236 57874 layer_factory.hpp:77] Creating layer relu4
I0122 16:42:00.018240 57874 net.cpp:94] Creating Layer relu4
I0122 16:42:00.018244 57874 net.cpp:435] relu4 <- scale4
I0122 16:42:00.018250 57874 net.cpp:409] relu4 -> relu4
I0122 16:42:00.018270 57874 net.cpp:144] Setting up relu4
I0122 16:42:00.018275 57874 net.cpp:151] Top shape: 50 64 16 16 (819200)
I0122 16:42:00.018280 57874 net.cpp:159] Memory required for data: 62874400
I0122 16:42:00.018282 57874 layer_factory.hpp:77] Creating layer pool2
I0122 16:42:00.018290 57874 net.cpp:94] Creating Layer pool2
I0122 16:42:00.018292 57874 net.cpp:435] pool2 <- relu4
I0122 16:42:00.018298 57874 net.cpp:409] pool2 -> pool2
I0122 16:42:00.018333 57874 net.cpp:144] Setting up pool2
I0122 16:42:00.018338 57874 net.cpp:151] Top shape: 50 64 8 8 (204800)
I0122 16:42:00.018342 57874 net.cpp:159] Memory required for data: 63693600
I0122 16:42:00.018344 57874 layer_factory.hpp:77] Creating layer drop2
I0122 16:42:00.018350 57874 net.cpp:94] Creating Layer drop2
I0122 16:42:00.018352 57874 net.cpp:435] drop2 <- pool2
I0122 16:42:00.018357 57874 net.cpp:409] drop2 -> drop2
I0122 16:42:00.018425 57874 net.cpp:144] Setting up drop2
I0122 16:42:00.018431 57874 net.cpp:151] Top shape: 50 64 8 8 (204800)
I0122 16:42:00.018443 57874 net.cpp:159] Memory required for data: 64512800
I0122 16:42:00.018446 57874 layer_factory.hpp:77] Creating layer fc1
I0122 16:42:00.018453 57874 net.cpp:94] Creating Layer fc1
I0122 16:42:00.018457 57874 net.cpp:435] fc1 <- drop2
I0122 16:42:00.018463 57874 net.cpp:409] fc1 -> fc1
I0122 16:42:00.033149 57874 net.cpp:144] Setting up fc1
I0122 16:42:00.033167 57874 net.cpp:151] Top shape: 50 512 (25600)
I0122 16:42:00.033170 57874 net.cpp:159] Memory required for data: 64615200
I0122 16:42:00.033176 57874 layer_factory.hpp:77] Creating layer bn5
I0122 16:42:00.033185 57874 net.cpp:94] Creating Layer bn5
I0122 16:42:00.033190 57874 net.cpp:435] bn5 <- fc1
I0122 16:42:00.033195 57874 net.cpp:409] bn5 -> scale5
I0122 16:42:00.033761 57874 net.cpp:144] Setting up bn5
I0122 16:42:00.033767 57874 net.cpp:151] Top shape: 50 512 (25600)
I0122 16:42:00.033771 57874 net.cpp:159] Memory required for data: 64717600
I0122 16:42:00.033784 57874 layer_factory.hpp:77] Creating layer relu5
I0122 16:42:00.033792 57874 net.cpp:94] Creating Layer relu5
I0122 16:42:00.033794 57874 net.cpp:435] relu5 <- scale5
I0122 16:42:00.033799 57874 net.cpp:409] relu5 -> relu5
I0122 16:42:00.033818 57874 net.cpp:144] Setting up relu5
I0122 16:42:00.033823 57874 net.cpp:151] Top shape: 50 512 (25600)
I0122 16:42:00.033825 57874 net.cpp:159] Memory required for data: 64820000
I0122 16:42:00.033829 57874 layer_factory.hpp:77] Creating layer drop3
I0122 16:42:00.033834 57874 net.cpp:94] Creating Layer drop3
I0122 16:42:00.033838 57874 net.cpp:435] drop3 <- relu5
I0122 16:42:00.033843 57874 net.cpp:409] drop3 -> drop3
I0122 16:42:00.033874 57874 net.cpp:144] Setting up drop3
I0122 16:42:00.033881 57874 net.cpp:151] Top shape: 50 512 (25600)
I0122 16:42:00.033884 57874 net.cpp:159] Memory required for data: 64922400
I0122 16:42:00.033886 57874 layer_factory.hpp:77] Creating layer fc2
I0122 16:42:00.033892 57874 net.cpp:94] Creating Layer fc2
I0122 16:42:00.033897 57874 net.cpp:435] fc2 <- drop3
I0122 16:42:00.033910 57874 net.cpp:409] fc2 -> fc2
I0122 16:42:00.034054 57874 net.cpp:144] Setting up fc2
I0122 16:42:00.034060 57874 net.cpp:151] Top shape: 50 10 (500)
I0122 16:42:00.034061 57874 net.cpp:159] Memory required for data: 64924400
I0122 16:42:00.034066 57874 layer_factory.hpp:77] Creating layer fc2_fc2_0_split
I0122 16:42:00.034071 57874 net.cpp:94] Creating Layer fc2_fc2_0_split
I0122 16:42:00.034075 57874 net.cpp:435] fc2_fc2_0_split <- fc2
I0122 16:42:00.034080 57874 net.cpp:409] fc2_fc2_0_split -> fc2_fc2_0_split_0
I0122 16:42:00.034087 57874 net.cpp:409] fc2_fc2_0_split -> fc2_fc2_0_split_1
I0122 16:42:00.034092 57874 net.cpp:409] fc2_fc2_0_split -> fc2_fc2_0_split_2
I0122 16:42:00.034134 57874 net.cpp:144] Setting up fc2_fc2_0_split
I0122 16:42:00.034139 57874 net.cpp:151] Top shape: 50 10 (500)
I0122 16:42:00.034143 57874 net.cpp:151] Top shape: 50 10 (500)
I0122 16:42:00.034145 57874 net.cpp:151] Top shape: 50 10 (500)
I0122 16:42:00.034148 57874 net.cpp:159] Memory required for data: 64930400
I0122 16:42:00.034152 57874 layer_factory.hpp:77] Creating layer loss
I0122 16:42:00.034158 57874 net.cpp:94] Creating Layer loss
I0122 16:42:00.034162 57874 net.cpp:435] loss <- fc2_fc2_0_split_0
I0122 16:42:00.034165 57874 net.cpp:435] loss <- label_data_1_split_0
I0122 16:42:00.034170 57874 net.cpp:409] loss -> loss
…
