…
I0130 14:33:29.930454 65073 net.cpp:294] The NetState phase (0) differed from the phase (1) specified by a rule in layer accuracy-top1
I0130 14:33:29.930812 65073 net.cpp:51] Initializing net from parameters: 
name: "alexnetBNnoLRN m2 (as m3 but less DROP and less BN)"
state {
  phase: TRAIN
  level: 0
  stage: ""
}
layer {
  name: "data"
  type: "Data"
  top: "data"
  top: "label"
  include {
    phase: TRAIN
  }
  transform_param {
    mirror: true
    crop_size: 227
    mean_value: 106
    mean_value: 116
    mean_value: 124
  }
  data_param {
    source: "cats-vs-dogs/input/lmdb/train_lmdb"
    batch_size: 256
    backend: LMDB
  }
}
layer {
  name: "conv1"
  type: "Convolution"
  bottom: "data"
  top: "conv1"
  param {
    lr_mult: 1
    decay_mult: 1
  }
  param {
    lr_mult: 2
    decay_mult: 0
  }
  convolution_param {
    num_output: 96
    pad: 1
    kernel_size: 11
    stride: 4
    weight_filler {
      type: "gaussian"
      std: 0.01
    }
    bias_filler {
      type: "constant"
      value: 0
    }
  }
}
layer {
  name: "bn1"
  type: "BatchNorm"
  bottom: "conv1"
  top: "bn1"
  param {
    lr_mult: 0
    decay_mult: 0
  }
  param {
    lr_mult: 0
    decay_mult: 0
  }
  param {
    lr_mult: 0
    decay_mult: 0
  }
  batch_norm_param {
    use_global_stats: false
  }
}
layer {
  name: "scale1"
  type: "Scale"
  bottom: "bn1"
  top: "scale1"
  scale_param {
    bias_term: true
  }
}
layer {
  name: "relu1"
  type: "ReLU"
  bottom: "scale1"
  top: "relu1"
}
layer {
  name: "pool1"
  type: "Pooling"
  bottom: "relu1"
  top: "pool1"
  pooling_param {
    pool: MAX
    kernel_size: 3
    stride: 2
  }
}
layer {
  name: "conv2"
  type: "Convolution"
  bottom: "pool1"
  top: "conv2"
  param {
    lr_mult: 1
    decay_mult: 1
  }
  param {
    lr_mult: 2
    decay_mult: 0
  }
  convolution_param {
    num_output: 256
    pad: 2
    kernel_size: 5
    group: 1
    weight_filler {
      type: "gaussian"
      std: 0.01
    }
    bias_filler {
      type: "constant"
      value: 1
    }
  }
}
layer {
  name: "bn2"
  type: "BatchNorm"
  bottom: "conv2"
  top: "bn2"
  param {
    lr_mult: 0
    decay_mult: 0
  }
  param {
    lr_mult: 0
    decay_mult: 0
  }
  param {
    lr_mult: 0
    decay_mult: 0
  }
  batch_norm_param {
    use_global_stats: false
  }
}
layer {
  name: "scale2"
  type: "Scale"
  bottom: "bn2"
  top: "scale2"
  scale_param {
    bias_term: true
  }
}
layer {
  name: "relu2"
  type: "ReLU"
  bottom: "scale2"
  top: "relu2"
}
layer {
  name: "pool2"
  type: "Pooling"
  bottom: "relu2"
  top: "pool2"
  pooling_param {
    pool: MAX
    kernel_size: 3
    stride: 2
  }
}
layer {
  name: "conv3"
  type: "Convolution"
  bottom: "pool2"
  top: "conv3"
  param {
    lr_mult: 1
    decay_mult: 1
  }
  param {
    lr_mult: 2
    decay_mult: 0
  }
  convolution_param {
    num_output: 384
    pad: 1
    kernel_size: 3
    weight_filler {
      type: "gaussian"
      std: 0.01
    }
    bias_filler {
      type: "constant"
      value: 0
    }
  }
}
layer {
  name: "relu3"
  type: "ReLU"
  bottom: "conv3"
  top: "relu3"
}
layer {
  name: "conv4"
  type: "Convolution"
  bottom: "relu3"
  top: "conv4"
  param {
    lr_mult: 1
    decay_mult: 1
  }
  param {
    lr_mult: 2
    decay_mult: 0
  }
  convolution_param {
    num_output: 384
    pad: 1
    kernel_size: 3
    group: 1
    weight_filler {
      type: "gaussian"
      std: 0.01
    }
    bias_filler {
      type: "constant"
      value: 1
    }
  }
}
layer {
  name: "relu4"
  type: "ReLU"
  bottom: "conv4"
  top: "relu4"
}
layer {
  name: "conv5"
  type: "Convolution"
  bottom: "relu4"
  top: "conv5"
  param {
    lr_mult: 1
    decay_mult: 1
  }
  param {
    lr_mult: 2
    decay_mult: 0
  }
  convolution_param {
    num_output: 256
    pad: 1
    kernel_size: 3
    group: 1
    weight_filler {
      type: "gaussian"
      std: 0.01
    }
    bias_filler {
      type: "constant"
      value: 1
    }
  }
}
layer {
  name: "relu5"
  type: "ReLU"
  bottom: "conv5"
  top: "relu5"
}
layer {
  name: "pool5"
  type: "Pooling"
  bottom: "relu5"
  top: "pool5"
  pooling_param {
    pool: MAX
    kernel_size: 3
    stride: 2
  }
}
layer {
  name: "fc6"
  type: "InnerProduct"
  bottom: "pool5"
  top: "fc6"
  param {
    lr_mult: 1
    decay_mult: 1
  }
  param {
    lr_mult: 2
    decay_mult: 0
  }
  inner_product_param {
    num_output: 4096
    weight_filler {
      type: "gaussian"
      std: 0.005
    }
    bias_filler {
      type: "constant"
      value: 1
    }
  }
}
layer {
  name: "relu6"
  type: "ReLU"
  bottom: "fc6"
  top: "relu6"
}
layer {
  name: "drop6"
  type: "Dropout"
  bottom: "relu6"
  top: "drop6"
  dropout_param {
    dropout_ratio: 0.5
  }
}
layer {
  name: "fc7"
  type: "InnerProduct"
  bottom: "drop6"
  top: "fc7"
  param {
    lr_mult: 1
    decay_mult: 1
  }
  param {
    lr_mult: 2
    decay_mult: 0
  }
  inner_product_param {
    num_output: 4096
    weight_filler {
      type: "gaussian"
      std: 0.005
    }
    bias_filler {
      type: "constant"
      value: 1
    }
  }
}
layer {
  name: "bn7"
  type: "BatchNorm"
  bottom: "fc7"
  top: "bn7"
  param {
    lr_mult: 0
    decay_mult: 0
  }
  param {
    lr_mult: 0
    decay_mult: 0
  }
  param {
    lr_mult: 0
    decay_mult: 0
  }
  batch_norm_param {
    use_global_stats: false
  }
}
layer {
  name: "scale7"
  type: "Scale"
  bottom: "bn7"
  top: "scale7"
  scale_param {
    bias_term: true
  }
}
layer {
  name: "relu7"
  type: "ReLU"
  bottom: "scale7"
  top: "relu7"
}
layer {
  name: "drop7"
  type: "Dropout"
  bottom: "relu7"
  top: "drop7"
  dropout_param {
    dropout_ratio: 0.5
  }
}
layer {
  name: "fc8"
  type: "InnerProduct"
  bottom: "drop7"
  top: "fc8"
  param {
    lr_mult: 1
    decay_mult: 1
  }
  param {
    lr_mult: 2
    decay_mult: 0
  }
  inner_product_param {
    num_output: 2
    weight_filler {
      type: "gaussian"
      std: 0.01
    }
    bias_filler {
      type: "constant"
      value: 0
    }
  }
}
layer {
  name: "loss"
  type: "SoftmaxWithLoss"
  bottom: "fc8"
  bottom: "label"
  top: "loss"
}
I0130 14:33:29.930997 65073 layer_factory.hpp:77] Creating layer data
I0130 14:33:29.931147 65073 db_lmdb.cpp:35] Opened lmdb cats-vs-dogs/input/lmdb/train_lmdb
I0130 14:33:29.931183 65073 net.cpp:84] Creating Layer data
I0130 14:33:29.931198 65073 net.cpp:380] data -> data
I0130 14:33:29.931233 65073 net.cpp:380] data -> label
I0130 14:33:29.933799 65073 data_layer.cpp:45] output data size: 256,3,227,227
I0130 14:33:30.136653 65073 net.cpp:122] Setting up data
I0130 14:33:30.136682 65073 net.cpp:129] Top shape: 256 3 227 227 (39574272)
I0130 14:33:30.136684 65073 net.cpp:129] Top shape: 256 (256)
I0130 14:33:30.136687 65073 net.cpp:137] Memory required for data: 158298112
I0130 14:33:30.136695 65073 layer_factory.hpp:77] Creating layer conv1
I0130 14:33:30.136716 65073 net.cpp:84] Creating Layer conv1
I0130 14:33:30.136737 65073 net.cpp:406] conv1 <- data
I0130 14:33:30.136754 65073 net.cpp:380] conv1 -> conv1
I0130 14:33:30.708233 65073 net.cpp:122] Setting up conv1
I0130 14:33:30.708271 65073 net.cpp:129] Top shape: 256 96 55 55 (74342400)
I0130 14:33:30.708277 65073 net.cpp:137] Memory required for data: 455667712
I0130 14:33:30.708307 65073 layer_factory.hpp:77] Creating layer bn1
I0130 14:33:30.708325 65073 net.cpp:84] Creating Layer bn1
I0130 14:33:30.708333 65073 net.cpp:406] bn1 <- conv1
I0130 14:33:30.708348 65073 net.cpp:380] bn1 -> bn1
I0130 14:33:30.708747 65073 net.cpp:122] Setting up bn1
I0130 14:33:30.708757 65073 net.cpp:129] Top shape: 256 96 55 55 (74342400)
I0130 14:33:30.708763 65073 net.cpp:137] Memory required for data: 753037312
I0130 14:33:30.708781 65073 layer_factory.hpp:77] Creating layer scale1
I0130 14:33:30.708792 65073 net.cpp:84] Creating Layer scale1
I0130 14:33:30.708797 65073 net.cpp:406] scale1 <- bn1
I0130 14:33:30.708809 65073 net.cpp:380] scale1 -> scale1
I0130 14:33:30.708881 65073 layer_factory.hpp:77] Creating layer scale1
I0130 14:33:30.709089 65073 net.cpp:122] Setting up scale1
I0130 14:33:30.709100 65073 net.cpp:129] Top shape: 256 96 55 55 (74342400)
I0130 14:33:30.709106 65073 net.cpp:137] Memory required for data: 1050406912
I0130 14:33:30.709115 65073 layer_factory.hpp:77] Creating layer relu1
I0130 14:33:30.709126 65073 net.cpp:84] Creating Layer relu1
I0130 14:33:30.709131 65073 net.cpp:406] relu1 <- scale1
I0130 14:33:30.709141 65073 net.cpp:380] relu1 -> relu1
I0130 14:33:30.709568 65073 net.cpp:122] Setting up relu1
I0130 14:33:30.709580 65073 net.cpp:129] Top shape: 256 96 55 55 (74342400)
I0130 14:33:30.709585 65073 net.cpp:137] Memory required for data: 1347776512
I0130 14:33:30.709591 65073 layer_factory.hpp:77] Creating layer pool1
I0130 14:33:30.709600 65073 net.cpp:84] Creating Layer pool1
I0130 14:33:30.709607 65073 net.cpp:406] pool1 <- relu1
I0130 14:33:30.709615 65073 net.cpp:380] pool1 -> pool1
I0130 14:33:30.709684 65073 net.cpp:122] Setting up pool1
I0130 14:33:30.709693 65073 net.cpp:129] Top shape: 256 96 27 27 (17915904)
I0130 14:33:30.709698 65073 net.cpp:137] Memory required for data: 1419440128
I0130 14:33:30.709703 65073 layer_factory.hpp:77] Creating layer conv2
I0130 14:33:30.709719 65073 net.cpp:84] Creating Layer conv2
I0130 14:33:30.709727 65073 net.cpp:406] conv2 <- pool1
I0130 14:33:30.709734 65073 net.cpp:380] conv2 -> conv2
I0130 14:33:30.728674 65073 net.cpp:122] Setting up conv2
I0130 14:33:30.728716 65073 net.cpp:129] Top shape: 256 256 27 27 (47775744)
I0130 14:33:30.728725 65073 net.cpp:137] Memory required for data: 1610543104
I0130 14:33:30.728752 65073 layer_factory.hpp:77] Creating layer bn2
I0130 14:33:30.728773 65073 net.cpp:84] Creating Layer bn2
I0130 14:33:30.728785 65073 net.cpp:406] bn2 <- conv2
I0130 14:33:30.728798 65073 net.cpp:380] bn2 -> bn2
I0130 14:33:30.729235 65073 net.cpp:122] Setting up bn2
I0130 14:33:30.729244 65073 net.cpp:129] Top shape: 256 256 27 27 (47775744)
I0130 14:33:30.729249 65073 net.cpp:137] Memory required for data: 1801646080
I0130 14:33:30.729256 65073 layer_factory.hpp:77] Creating layer scale2
I0130 14:33:30.729266 65073 net.cpp:84] Creating Layer scale2
I0130 14:33:30.729271 65073 net.cpp:406] scale2 <- bn2
I0130 14:33:30.729279 65073 net.cpp:380] scale2 -> scale2
I0130 14:33:30.729315 65073 layer_factory.hpp:77] Creating layer scale2
I0130 14:33:30.729431 65073 net.cpp:122] Setting up scale2
I0130 14:33:30.729439 65073 net.cpp:129] Top shape: 256 256 27 27 (47775744)
I0130 14:33:30.729442 65073 net.cpp:137] Memory required for data: 1992749056
I0130 14:33:30.729449 65073 layer_factory.hpp:77] Creating layer relu2
I0130 14:33:30.729454 65073 net.cpp:84] Creating Layer relu2
I0130 14:33:30.729457 65073 net.cpp:406] relu2 <- scale2
I0130 14:33:30.729463 65073 net.cpp:380] relu2 -> relu2
I0130 14:33:30.729756 65073 net.cpp:122] Setting up relu2
I0130 14:33:30.729766 65073 net.cpp:129] Top shape: 256 256 27 27 (47775744)
I0130 14:33:30.729770 65073 net.cpp:137] Memory required for data: 2183852032
I0130 14:33:30.729790 65073 layer_factory.hpp:77] Creating layer pool2
I0130 14:33:30.729797 65073 net.cpp:84] Creating Layer pool2
I0130 14:33:30.729801 65073 net.cpp:406] pool2 <- relu2
I0130 14:33:30.729806 65073 net.cpp:380] pool2 -> pool2
I0130 14:33:30.729851 65073 net.cpp:122] Setting up pool2
I0130 14:33:30.729858 65073 net.cpp:129] Top shape: 256 256 13 13 (11075584)
I0130 14:33:30.729861 65073 net.cpp:137] Memory required for data: 2228154368
I0130 14:33:30.729864 65073 layer_factory.hpp:77] Creating layer conv3
I0130 14:33:30.729876 65073 net.cpp:84] Creating Layer conv3
I0130 14:33:30.729882 65073 net.cpp:406] conv3 <- pool2
I0130 14:33:30.729888 65073 net.cpp:380] conv3 -> conv3
I0130 14:33:30.744813 65073 net.cpp:122] Setting up conv3
I0130 14:33:30.744830 65073 net.cpp:129] Top shape: 256 384 13 13 (16613376)
I0130 14:33:30.744833 65073 net.cpp:137] Memory required for data: 2294607872
I0130 14:33:30.744840 65073 layer_factory.hpp:77] Creating layer relu3
I0130 14:33:30.744845 65073 net.cpp:84] Creating Layer relu3
I0130 14:33:30.744849 65073 net.cpp:406] relu3 <- conv3
I0130 14:33:30.744855 65073 net.cpp:380] relu3 -> relu3
I0130 14:33:30.745303 65073 net.cpp:122] Setting up relu3
I0130 14:33:30.745314 65073 net.cpp:129] Top shape: 256 384 13 13 (16613376)
I0130 14:33:30.745318 65073 net.cpp:137] Memory required for data: 2361061376
I0130 14:33:30.745321 65073 layer_factory.hpp:77] Creating layer conv4
I0130 14:33:30.745332 65073 net.cpp:84] Creating Layer conv4
I0130 14:33:30.745337 65073 net.cpp:406] conv4 <- relu3
I0130 14:33:30.745344 65073 net.cpp:380] conv4 -> conv4
I0130 14:33:30.757443 65073 net.cpp:122] Setting up conv4
I0130 14:33:30.757457 65073 net.cpp:129] Top shape: 256 384 13 13 (16613376)
I0130 14:33:30.757458 65073 net.cpp:137] Memory required for data: 2427514880
I0130 14:33:30.757468 65073 layer_factory.hpp:77] Creating layer relu4
I0130 14:33:30.757473 65073 net.cpp:84] Creating Layer relu4
I0130 14:33:30.757475 65073 net.cpp:406] relu4 <- conv4
I0130 14:33:30.757479 65073 net.cpp:380] relu4 -> relu4
I0130 14:33:30.757702 65073 net.cpp:122] Setting up relu4
I0130 14:33:30.757709 65073 net.cpp:129] Top shape: 256 384 13 13 (16613376)
I0130 14:33:30.757711 65073 net.cpp:137] Memory required for data: 2493968384
I0130 14:33:30.757714 65073 layer_factory.hpp:77] Creating layer conv5
I0130 14:33:30.757724 65073 net.cpp:84] Creating Layer conv5
I0130 14:33:30.757728 65073 net.cpp:406] conv5 <- relu4
I0130 14:33:30.757735 65073 net.cpp:380] conv5 -> conv5
I0130 14:33:30.765377 65073 net.cpp:122] Setting up conv5
I0130 14:33:30.765390 65073 net.cpp:129] Top shape: 256 256 13 13 (11075584)
I0130 14:33:30.765393 65073 net.cpp:137] Memory required for data: 2538270720
I0130 14:33:30.765398 65073 layer_factory.hpp:77] Creating layer relu5
I0130 14:33:30.765420 65073 net.cpp:84] Creating Layer relu5
I0130 14:33:30.765424 65073 net.cpp:406] relu5 <- conv5
I0130 14:33:30.765427 65073 net.cpp:380] relu5 -> relu5
I0130 14:33:30.765607 65073 net.cpp:122] Setting up relu5
I0130 14:33:30.765614 65073 net.cpp:129] Top shape: 256 256 13 13 (11075584)
I0130 14:33:30.765615 65073 net.cpp:137] Memory required for data: 2582573056
I0130 14:33:30.765617 65073 layer_factory.hpp:77] Creating layer pool5
I0130 14:33:30.765621 65073 net.cpp:84] Creating Layer pool5
I0130 14:33:30.765624 65073 net.cpp:406] pool5 <- relu5
I0130 14:33:30.765630 65073 net.cpp:380] pool5 -> pool5
I0130 14:33:30.765655 65073 net.cpp:122] Setting up pool5
I0130 14:33:30.765658 65073 net.cpp:129] Top shape: 256 256 6 6 (2359296)
I0130 14:33:30.765676 65073 net.cpp:137] Memory required for data: 2592010240
I0130 14:33:30.765679 65073 layer_factory.hpp:77] Creating layer fc6
I0130 14:33:30.765686 65073 net.cpp:84] Creating Layer fc6
I0130 14:33:30.765689 65073 net.cpp:406] fc6 <- pool5
I0130 14:33:30.765694 65073 net.cpp:380] fc6 -> fc6
I0130 14:33:31.020881 65073 net.cpp:122] Setting up fc6
I0130 14:33:31.020902 65073 net.cpp:129] Top shape: 256 4096 (1048576)
I0130 14:33:31.020905 65073 net.cpp:137] Memory required for data: 2596204544
I0130 14:33:31.020944 65073 layer_factory.hpp:77] Creating layer relu6
I0130 14:33:31.020954 65073 net.cpp:84] Creating Layer relu6
I0130 14:33:31.020958 65073 net.cpp:406] relu6 <- fc6
I0130 14:33:31.020963 65073 net.cpp:380] relu6 -> relu6
I0130 14:33:31.021476 65073 net.cpp:122] Setting up relu6
I0130 14:33:31.021487 65073 net.cpp:129] Top shape: 256 4096 (1048576)
I0130 14:33:31.021489 65073 net.cpp:137] Memory required for data: 2600398848
I0130 14:33:31.021492 65073 layer_factory.hpp:77] Creating layer drop6
I0130 14:33:31.021498 65073 net.cpp:84] Creating Layer drop6
I0130 14:33:31.021502 65073 net.cpp:406] drop6 <- relu6
I0130 14:33:31.021507 65073 net.cpp:380] drop6 -> drop6
I0130 14:33:31.021554 65073 net.cpp:122] Setting up drop6
I0130 14:33:31.021559 65073 net.cpp:129] Top shape: 256 4096 (1048576)
I0130 14:33:31.021562 65073 net.cpp:137] Memory required for data: 2604593152
I0130 14:33:31.021565 65073 layer_factory.hpp:77] Creating layer fc7
I0130 14:33:31.021572 65073 net.cpp:84] Creating Layer fc7
I0130 14:33:31.021575 65073 net.cpp:406] fc7 <- drop6
I0130 14:33:31.021581 65073 net.cpp:380] fc7 -> fc7
I0130 14:33:31.137404 65073 net.cpp:122] Setting up fc7
I0130 14:33:31.137424 65073 net.cpp:129] Top shape: 256 4096 (1048576)
I0130 14:33:31.137426 65073 net.cpp:137] Memory required for data: 2608787456
I0130 14:33:31.137449 65073 layer_factory.hpp:77] Creating layer bn7
I0130 14:33:31.137457 65073 net.cpp:84] Creating Layer bn7
I0130 14:33:31.137460 65073 net.cpp:406] bn7 <- fc7
I0130 14:33:31.137468 65073 net.cpp:380] bn7 -> bn7
I0130 14:33:31.137624 65073 net.cpp:122] Setting up bn7
I0130 14:33:31.137627 65073 net.cpp:129] Top shape: 256 4096 (1048576)
I0130 14:33:31.137629 65073 net.cpp:137] Memory required for data: 2612981760
I0130 14:33:31.137634 65073 layer_factory.hpp:77] Creating layer scale7
I0130 14:33:31.137640 65073 net.cpp:84] Creating Layer scale7
I0130 14:33:31.137642 65073 net.cpp:406] scale7 <- bn7
I0130 14:33:31.137645 65073 net.cpp:380] scale7 -> scale7
I0130 14:33:31.137678 65073 layer_factory.hpp:77] Creating layer scale7
I0130 14:33:31.137773 65073 net.cpp:122] Setting up scale7
I0130 14:33:31.137776 65073 net.cpp:129] Top shape: 256 4096 (1048576)
I0130 14:33:31.137779 65073 net.cpp:137] Memory required for data: 2617176064
I0130 14:33:31.137782 65073 layer_factory.hpp:77] Creating layer relu7
I0130 14:33:31.137786 65073 net.cpp:84] Creating Layer relu7
I0130 14:33:31.137789 65073 net.cpp:406] relu7 <- scale7
I0130 14:33:31.137794 65073 net.cpp:380] relu7 -> relu7
I0130 14:33:31.138046 65073 net.cpp:122] Setting up relu7
I0130 14:33:31.138053 65073 net.cpp:129] Top shape: 256 4096 (1048576)
I0130 14:33:31.138056 65073 net.cpp:137] Memory required for data: 2621370368
I0130 14:33:31.138058 65073 layer_factory.hpp:77] Creating layer drop7
I0130 14:33:31.138062 65073 net.cpp:84] Creating Layer drop7
I0130 14:33:31.138065 65073 net.cpp:406] drop7 <- relu7
I0130 14:33:31.138072 65073 net.cpp:380] drop7 -> drop7
I0130 14:33:31.138100 65073 net.cpp:122] Setting up drop7
I0130 14:33:31.138105 65073 net.cpp:129] Top shape: 256 4096 (1048576)
I0130 14:33:31.138108 65073 net.cpp:137] Memory required for data: 2625564672
I0130 14:33:31.138110 65073 layer_factory.hpp:77] Creating layer fc8
I0130 14:33:31.138115 65073 net.cpp:84] Creating Layer fc8
I0130 14:33:31.138118 65073 net.cpp:406] fc8 <- drop7
I0130 14:33:31.138123 65073 net.cpp:380] fc8 -> fc8
I0130 14:33:31.138926 65073 net.cpp:122] Setting up fc8
I0130 14:33:31.138936 65073 net.cpp:129] Top shape: 256 2 (512)
I0130 14:33:31.138937 65073 net.cpp:137] Memory required for data: 2625566720
I0130 14:33:31.138944 65073 layer_factory.hpp:77] Creating layer loss
I0130 14:33:31.138949 65073 net.cpp:84] Creating Layer loss
I0130 14:33:31.138952 65073 net.cpp:406] loss <- fc8
I0130 14:33:31.138955 65073 net.cpp:406] loss <- label
I0130 14:33:31.138963 65073 net.cpp:380] loss -> loss
I0130 14:33:31.138970 65073 layer_factory.hpp:77] Creating layer loss
…
I0130 14:33:31.139711 65073 net.cpp:294] The NetState phase (1) differed from the phase (0) specified by a rule in layer data
I0130 14:33:31.139865 65073 net.cpp:51] Initializing net from parameters: 
name: "alexnetBNnoLRN m2 (as m3 but less DROP and less BN)"
state {
  phase: TEST
}
layer {
  name: "data"
  type: "Data"
  top: "data"
  top: "label"
  include {
    phase: TEST
  }
  transform_param {
    mirror: false
    crop_size: 227
    mean_value: 106
    mean_value: 116
    mean_value: 124
  }
  data_param {
    source: "cats-vs-dogs/input/lmdb/valid_lmdb"
    batch_size: 50
    backend: LMDB
  }
}
layer {
  name: "conv1"
  type: "Convolution"
  bottom: "data"
  top: "conv1"
  param {
    lr_mult: 1
    decay_mult: 1
  }
  param {
    lr_mult: 2
    decay_mult: 0
  }
  convolution_param {
    num_output: 96
    pad: 1
    kernel_size: 11
    stride: 4
    weight_filler {
      type: "gaussian"
      std: 0.01
    }
    bias_filler {
      type: "constant"
      value: 0
    }
  }
}
layer {
  name: "bn1"
  type: "BatchNorm"
  bottom: "conv1"
  top: "bn1"
  param {
    lr_mult: 0
    decay_mult: 0
  }
  param {
    lr_mult: 0
    decay_mult: 0
  }
  param {
    lr_mult: 0
    decay_mult: 0
  }
  batch_norm_param {
    use_global_stats: false
  }
}
layer {
  name: "scale1"
  type: "Scale"
  bottom: "bn1"
  top: "scale1"
  scale_param {
    bias_term: true
  }
}
layer {
  name: "relu1"
  type: "ReLU"
  bottom: "scale1"
  top: "relu1"
}
layer {
  name: "pool1"
  type: "Pooling"
  bottom: "relu1"
  top: "pool1"
  pooling_param {
    pool: MAX
    kernel_size: 3
    stride: 2
  }
}
layer {
  name: "conv2"
  type: "Convolution"
  bottom: "pool1"
  top: "conv2"
  param {
    lr_mult: 1
    decay_mult: 1
  }
  param {
    lr_mult: 2
    decay_mult: 0
  }
  convolution_param {
    num_output: 256
    pad: 2
    kernel_size: 5
    group: 1
    weight_filler {
      type: "gaussian"
      std: 0.01
    }
    bias_filler {
      type: "constant"
      value: 1
    }
  }
}
layer {
  name: "bn2"
  type: "BatchNorm"
  bottom: "conv2"
  top: "bn2"
  param {
    lr_mult: 0
    decay_mult: 0
  }
  param {
    lr_mult: 0
    decay_mult: 0
  }
  param {
    lr_mult: 0
    decay_mult: 0
  }
  batch_norm_param {
    use_global_stats: false
  }
}
layer {
  name: "scale2"
  type: "Scale"
  bottom: "bn2"
  top: "scale2"
  scale_param {
    bias_term: true
  }
}
layer {
  name: "relu2"
  type: "ReLU"
  bottom: "scale2"
  top: "relu2"
}
layer {
  name: "pool2"
  type: "Pooling"
  bottom: "relu2"
  top: "pool2"
  pooling_param {
    pool: MAX
    kernel_size: 3
    stride: 2
  }
}
layer {
  name: "conv3"
  type: "Convolution"
  bottom: "pool2"
  top: "conv3"
  param {
    lr_mult: 1
    decay_mult: 1
  }
  param {
    lr_mult: 2
    decay_mult: 0
  }
  convolution_param {
    num_output: 384
    pad: 1
    kernel_size: 3
    weight_filler {
      type: "gaussian"
      std: 0.01
    }
    bias_filler {
      type: "constant"
      value: 0
    }
  }
}
layer {
  name: "relu3"
  type: "ReLU"
  bottom: "conv3"
  top: "relu3"
}
layer {
  name: "conv4"
  type: "Convolution"
  bottom: "relu3"
  top: "conv4"
  param {
    lr_mult: 1
    decay_mult: 1
  }
  param {
    lr_mult: 2
    decay_mult: 0
  }
  convolution_param {
    num_output: 384
    pad: 1
    kernel_size: 3
    group: 1
    weight_filler {
      type: "gaussian"
      std: 0.01
    }
    bias_filler {
      type: "constant"
      value: 1
    }
  }
}
layer {
  name: "relu4"
  type: "ReLU"
  bottom: "conv4"
  top: "relu4"
}
layer {
  name: "conv5"
  type: "Convolution"
  bottom: "relu4"
  top: "conv5"
  param {
    lr_mult: 1
    decay_mult: 1
  }
  param {
    lr_mult: 2
    decay_mult: 0
  }
  convolution_param {
    num_output: 256
    pad: 1
    kernel_size: 3
    group: 1
    weight_filler {
      type: "gaussian"
      std: 0.01
    }
    bias_filler {
      type: "constant"
      value: 1
    }
  }
}
layer {
  name: "relu5"
  type: "ReLU"
  bottom: "conv5"
  top: "relu5"
}
layer {
  name: "pool5"
  type: "Pooling"
  bottom: "relu5"
  top: "pool5"
  pooling_param {
    pool: MAX
    kernel_size: 3
    stride: 2
  }
}
layer {
  name: "fc6"
  type: "InnerProduct"
  bottom: "pool5"
  top: "fc6"
  param {
    lr_mult: 1
    decay_mult: 1
  }
  param {
    lr_mult: 2
    decay_mult: 0
  }
  inner_product_param {
    num_output: 4096
    weight_filler {
      type: "gaussian"
      std: 0.005
    }
    bias_filler {
      type: "constant"
      value: 1
    }
  }
}
layer {
  name: "relu6"
  type: "ReLU"
  bottom: "fc6"
  top: "relu6"
}
layer {
  name: "drop6"
  type: "Dropout"
  bottom: "relu6"
  top: "drop6"
  dropout_param {
    dropout_ratio: 0.5
  }
}
layer {
  name: "fc7"
  type: "InnerProduct"
  bottom: "drop6"
  top: "fc7"
  param {
    lr_mult: 1
    decay_mult: 1
  }
  param {
    lr_mult: 2
    decay_mult: 0
  }
  inner_product_param {
    num_output: 4096
    weight_filler {
      type: "gaussian"
      std: 0.005
    }
    bias_filler {
      type: "constant"
      value: 1
    }
  }
}
layer {
  name: "bn7"
  type: "BatchNorm"
  bottom: "fc7"
  top: "bn7"
  param {
    lr_mult: 0
    decay_mult: 0
  }
  param {
    lr_mult: 0
    decay_mult: 0
  }
  param {
    lr_mult: 0
    decay_mult: 0
  }
  batch_norm_param {
    use_global_stats: false
  }
}
layer {
  name: "scale7"
  type: "Scale"
  bottom: "bn7"
  top: "scale7"
  scale_param {
    bias_term: true
  }
}
layer {
  name: "relu7"
  type: "ReLU"
  bottom: "scale7"
  top: "relu7"
}
layer {
  name: "drop7"
  type: "Dropout"
  bottom: "relu7"
  top: "drop7"
  dropout_param {
    dropout_ratio: 0.5
  }
}
layer {
  name: "fc8"
  type: "InnerProduct"
  bottom: "drop7"
  top: "fc8"
  param {
    lr_mult: 1
    decay_mult: 1
  }
  param {
    lr_mult: 2
    decay_mult: 0
  }
  inner_product_param {
    num_output: 2
    weight_filler {
      type: "gaussian"
      std: 0.01
    }
    bias_filler {
      type: "constant"
      value: 0
    }
  }
}
layer {
  name: "accuracy"
  type: "Accuracy"
  bottom: "fc8"
  bottom: "label"
  top: "accuracy"
  include {
    phase: TEST
  }
}
layer {
  name: "loss"
  type: "SoftmaxWithLoss"
  bottom: "fc8"
  bottom: "label"
  top: "loss"
}
layer {
  name: "accuracy-top1"
  type: "Accuracy"
  bottom: "fc8"
  bottom: "label"
  top: "top-1"
  include {
    phase: TEST
  }
}
I0130 14:33:31.139968 65073 layer_factory.hpp:77] Creating layer data
I0130 14:33:31.140019 65073 db_lmdb.cpp:35] Opened lmdb cats-vs-dogs/input/lmdb/valid_lmdb
I0130 14:33:31.140031 65073 net.cpp:84] Creating Layer data
I0130 14:33:31.140038 65073 net.cpp:380] data -> data
I0130 14:33:31.140043 65073 net.cpp:380] data -> label
I0130 14:33:31.140314 65073 data_layer.cpp:45] output data size: 50,3,227,227
I0130 14:33:31.180070 65073 net.cpp:122] Setting up data
I0130 14:33:31.180110 65073 net.cpp:129] Top shape: 50 3 227 227 (7729350)
I0130 14:33:31.180114 65073 net.cpp:129] Top shape: 50 (50)
I0130 14:33:31.180115 65073 net.cpp:137] Memory required for data: 30917600
I0130 14:33:31.180120 65073 layer_factory.hpp:77] Creating layer label_data_1_split
I0130 14:33:31.180131 65073 net.cpp:84] Creating Layer label_data_1_split
I0130 14:33:31.180135 65073 net.cpp:406] label_data_1_split <- label
I0130 14:33:31.180140 65073 net.cpp:380] label_data_1_split -> label_data_1_split_0
I0130 14:33:31.180146 65073 net.cpp:380] label_data_1_split -> label_data_1_split_1
I0130 14:33:31.180150 65073 net.cpp:380] label_data_1_split -> label_data_1_split_2
I0130 14:33:31.180214 65073 net.cpp:122] Setting up label_data_1_split
I0130 14:33:31.180218 65073 net.cpp:129] Top shape: 50 (50)
I0130 14:33:31.180220 65073 net.cpp:129] Top shape: 50 (50)
I0130 14:33:31.180223 65073 net.cpp:129] Top shape: 50 (50)
I0130 14:33:31.180225 65073 net.cpp:137] Memory required for data: 30918200
I0130 14:33:31.180227 65073 layer_factory.hpp:77] Creating layer conv1
I0130 14:33:31.180236 65073 net.cpp:84] Creating Layer conv1
I0130 14:33:31.180240 65073 net.cpp:406] conv1 <- data
I0130 14:33:31.180244 65073 net.cpp:380] conv1 -> conv1
I0130 14:33:31.181567 65073 net.cpp:122] Setting up conv1
I0130 14:33:31.181578 65073 net.cpp:129] Top shape: 50 96 55 55 (14520000)
I0130 14:33:31.181581 65073 net.cpp:137] Memory required for data: 88998200
I0130 14:33:31.181589 65073 layer_factory.hpp:77] Creating layer bn1
I0130 14:33:31.181612 65073 net.cpp:84] Creating Layer bn1
I0130 14:33:31.181613 65073 net.cpp:406] bn1 <- conv1
I0130 14:33:31.181627 65073 net.cpp:380] bn1 -> bn1
I0130 14:33:31.181838 65073 net.cpp:122] Setting up bn1
I0130 14:33:31.181843 65073 net.cpp:129] Top shape: 50 96 55 55 (14520000)
I0130 14:33:31.181845 65073 net.cpp:137] Memory required for data: 147078200
I0130 14:33:31.181852 65073 layer_factory.hpp:77] Creating layer scale1
I0130 14:33:31.181859 65073 net.cpp:84] Creating Layer scale1
I0130 14:33:31.181861 65073 net.cpp:406] scale1 <- bn1
I0130 14:33:31.181865 65073 net.cpp:380] scale1 -> scale1
I0130 14:33:31.181936 65073 layer_factory.hpp:77] Creating layer scale1
I0130 14:33:31.182034 65073 net.cpp:122] Setting up scale1
I0130 14:33:31.182039 65073 net.cpp:129] Top shape: 50 96 55 55 (14520000)
I0130 14:33:31.182041 65073 net.cpp:137] Memory required for data: 205158200
I0130 14:33:31.182045 65073 layer_factory.hpp:77] Creating layer relu1
I0130 14:33:31.182049 65073 net.cpp:84] Creating Layer relu1
I0130 14:33:31.182051 65073 net.cpp:406] relu1 <- scale1
I0130 14:33:31.182068 65073 net.cpp:380] relu1 -> relu1
I0130 14:33:31.182277 65073 net.cpp:122] Setting up relu1
I0130 14:33:31.182283 65073 net.cpp:129] Top shape: 50 96 55 55 (14520000)
I0130 14:33:31.182286 65073 net.cpp:137] Memory required for data: 263238200
I0130 14:33:31.182289 65073 layer_factory.hpp:77] Creating layer pool1
I0130 14:33:31.182294 65073 net.cpp:84] Creating Layer pool1
I0130 14:33:31.182297 65073 net.cpp:406] pool1 <- relu1
I0130 14:33:31.182301 65073 net.cpp:380] pool1 -> pool1
I0130 14:33:31.184691 65073 net.cpp:122] Setting up pool1
I0130 14:33:31.184698 65073 net.cpp:129] Top shape: 50 96 27 27 (3499200)
I0130 14:33:31.184700 65073 net.cpp:137] Memory required for data: 277235000
I0130 14:33:31.184702 65073 layer_factory.hpp:77] Creating layer conv2
I0130 14:33:31.184708 65073 net.cpp:84] Creating Layer conv2
I0130 14:33:31.184710 65073 net.cpp:406] conv2 <- pool1
I0130 14:33:31.184729 65073 net.cpp:380] conv2 -> conv2
I0130 14:33:31.190073 65073 net.cpp:122] Setting up conv2
I0130 14:33:31.190084 65073 net.cpp:129] Top shape: 50 256 27 27 (9331200)
I0130 14:33:31.190086 65073 net.cpp:137] Memory required for data: 314559800
I0130 14:33:31.190110 65073 layer_factory.hpp:77] Creating layer bn2
I0130 14:33:31.190119 65073 net.cpp:84] Creating Layer bn2
I0130 14:33:31.190130 65073 net.cpp:406] bn2 <- conv2
I0130 14:33:31.190137 65073 net.cpp:380] bn2 -> bn2
I0130 14:33:31.190320 65073 net.cpp:122] Setting up bn2
I0130 14:33:31.190326 65073 net.cpp:129] Top shape: 50 256 27 27 (9331200)
I0130 14:33:31.190328 65073 net.cpp:137] Memory required for data: 351884600
I0130 14:33:31.190333 65073 layer_factory.hpp:77] Creating layer scale2
I0130 14:33:31.190338 65073 net.cpp:84] Creating Layer scale2
I0130 14:33:31.190340 65073 net.cpp:406] scale2 <- bn2
I0130 14:33:31.190345 65073 net.cpp:380] scale2 -> scale2
I0130 14:33:31.190376 65073 layer_factory.hpp:77] Creating layer scale2
I0130 14:33:31.190465 65073 net.cpp:122] Setting up scale2
I0130 14:33:31.190470 65073 net.cpp:129] Top shape: 50 256 27 27 (9331200)
I0130 14:33:31.190474 65073 net.cpp:137] Memory required for data: 389209400
I0130 14:33:31.190477 65073 layer_factory.hpp:77] Creating layer relu2
I0130 14:33:31.190480 65073 net.cpp:84] Creating Layer relu2
I0130 14:33:31.190484 65073 net.cpp:406] relu2 <- scale2
I0130 14:33:31.190487 65073 net.cpp:380] relu2 -> relu2
I0130 14:33:31.190887 65073 net.cpp:122] Setting up relu2
I0130 14:33:31.190897 65073 net.cpp:129] Top shape: 50 256 27 27 (9331200)
I0130 14:33:31.190901 65073 net.cpp:137] Memory required for data: 426534200
I0130 14:33:31.190903 65073 layer_factory.hpp:77] Creating layer pool2
I0130 14:33:31.190908 65073 net.cpp:84] Creating Layer pool2
I0130 14:33:31.190912 65073 net.cpp:406] pool2 <- relu2
I0130 14:33:31.190915 65073 net.cpp:380] pool2 -> pool2
I0130 14:33:31.190946 65073 net.cpp:122] Setting up pool2
I0130 14:33:31.190951 65073 net.cpp:129] Top shape: 50 256 13 13 (2163200)
I0130 14:33:31.190953 65073 net.cpp:137] Memory required for data: 435187000
I0130 14:33:31.190955 65073 layer_factory.hpp:77] Creating layer conv3
I0130 14:33:31.190963 65073 net.cpp:84] Creating Layer conv3
I0130 14:33:31.190965 65073 net.cpp:406] conv3 <- pool2
I0130 14:33:31.190970 65073 net.cpp:380] conv3 -> conv3
I0130 14:33:31.198637 65073 net.cpp:122] Setting up conv3
I0130 14:33:31.198648 65073 net.cpp:129] Top shape: 50 384 13 13 (3244800)
I0130 14:33:31.198652 65073 net.cpp:137] Memory required for data: 448166200
I0130 14:33:31.198657 65073 layer_factory.hpp:77] Creating layer relu3
I0130 14:33:31.198662 65073 net.cpp:84] Creating Layer relu3
I0130 14:33:31.198665 65073 net.cpp:406] relu3 <- conv3
I0130 14:33:31.198671 65073 net.cpp:380] relu3 -> relu3
I0130 14:33:31.198889 65073 net.cpp:122] Setting up relu3
I0130 14:33:31.198895 65073 net.cpp:129] Top shape: 50 384 13 13 (3244800)
I0130 14:33:31.198899 65073 net.cpp:137] Memory required for data: 461145400
I0130 14:33:31.198901 65073 layer_factory.hpp:77] Creating layer conv4
I0130 14:33:31.198909 65073 net.cpp:84] Creating Layer conv4
I0130 14:33:31.198940 65073 net.cpp:406] conv4 <- relu3
I0130 14:33:31.198945 65073 net.cpp:380] conv4 -> conv4
I0130 14:33:31.209488 65073 net.cpp:122] Setting up conv4
I0130 14:33:31.209501 65073 net.cpp:129] Top shape: 50 384 13 13 (3244800)
I0130 14:33:31.209503 65073 net.cpp:137] Memory required for data: 474124600
I0130 14:33:31.209512 65073 layer_factory.hpp:77] Creating layer relu4
I0130 14:33:31.209517 65073 net.cpp:84] Creating Layer relu4
I0130 14:33:31.209519 65073 net.cpp:406] relu4 <- conv4
I0130 14:33:31.209523 65073 net.cpp:380] relu4 -> relu4
I0130 14:33:31.209745 65073 net.cpp:122] Setting up relu4
I0130 14:33:31.209753 65073 net.cpp:129] Top shape: 50 384 13 13 (3244800)
I0130 14:33:31.209755 65073 net.cpp:137] Memory required for data: 487103800
I0130 14:33:31.209758 65073 layer_factory.hpp:77] Creating layer conv5
I0130 14:33:31.209767 65073 net.cpp:84] Creating Layer conv5
I0130 14:33:31.209772 65073 net.cpp:406] conv5 <- relu4
I0130 14:33:31.209777 65073 net.cpp:380] conv5 -> conv5
I0130 14:33:31.217419 65073 net.cpp:122] Setting up conv5
I0130 14:33:31.217435 65073 net.cpp:129] Top shape: 50 256 13 13 (2163200)
I0130 14:33:31.217437 65073 net.cpp:137] Memory required for data: 495756600
I0130 14:33:31.217443 65073 layer_factory.hpp:77] Creating layer relu5
I0130 14:33:31.217465 65073 net.cpp:84] Creating Layer relu5
I0130 14:33:31.217468 65073 net.cpp:406] relu5 <- conv5
I0130 14:33:31.217473 65073 net.cpp:380] relu5 -> relu5
I0130 14:33:31.217816 65073 net.cpp:122] Setting up relu5
I0130 14:33:31.217824 65073 net.cpp:129] Top shape: 50 256 13 13 (2163200)
I0130 14:33:31.217828 65073 net.cpp:137] Memory required for data: 504409400
I0130 14:33:31.217830 65073 layer_factory.hpp:77] Creating layer pool5
I0130 14:33:31.217835 65073 net.cpp:84] Creating Layer pool5
I0130 14:33:31.217838 65073 net.cpp:406] pool5 <- relu5
I0130 14:33:31.217842 65073 net.cpp:380] pool5 -> pool5
I0130 14:33:31.217870 65073 net.cpp:122] Setting up pool5
I0130 14:33:31.217876 65073 net.cpp:129] Top shape: 50 256 6 6 (460800)
I0130 14:33:31.217878 65073 net.cpp:137] Memory required for data: 506252600
I0130 14:33:31.217880 65073 layer_factory.hpp:77] Creating layer fc6
I0130 14:33:31.217885 65073 net.cpp:84] Creating Layer fc6
I0130 14:33:31.217887 65073 net.cpp:406] fc6 <- pool5
I0130 14:33:31.217891 65073 net.cpp:380] fc6 -> fc6
I0130 14:33:31.479092 65073 net.cpp:122] Setting up fc6
I0130 14:33:31.479115 65073 net.cpp:129] Top shape: 50 4096 (204800)
I0130 14:33:31.479116 65073 net.cpp:137] Memory required for data: 507071800
I0130 14:33:31.479125 65073 layer_factory.hpp:77] Creating layer relu6
I0130 14:33:31.479131 65073 net.cpp:84] Creating Layer relu6
I0130 14:33:31.479135 65073 net.cpp:406] relu6 <- fc6
I0130 14:33:31.479140 65073 net.cpp:380] relu6 -> relu6
I0130 14:33:31.479403 65073 net.cpp:122] Setting up relu6
I0130 14:33:31.479409 65073 net.cpp:129] Top shape: 50 4096 (204800)
I0130 14:33:31.479411 65073 net.cpp:137] Memory required for data: 507891000
I0130 14:33:31.479413 65073 layer_factory.hpp:77] Creating layer drop6
I0130 14:33:31.479418 65073 net.cpp:84] Creating Layer drop6
I0130 14:33:31.479420 65073 net.cpp:406] drop6 <- relu6
I0130 14:33:31.479424 65073 net.cpp:380] drop6 -> drop6
I0130 14:33:31.479454 65073 net.cpp:122] Setting up drop6
I0130 14:33:31.479459 65073 net.cpp:129] Top shape: 50 4096 (204800)
I0130 14:33:31.479460 65073 net.cpp:137] Memory required for data: 508710200
I0130 14:33:31.479463 65073 layer_factory.hpp:77] Creating layer fc7
I0130 14:33:31.479468 65073 net.cpp:84] Creating Layer fc7
I0130 14:33:31.479470 65073 net.cpp:406] fc7 <- drop6
I0130 14:33:31.479475 65073 net.cpp:380] fc7 -> fc7
I0130 14:33:31.596666 65073 net.cpp:122] Setting up fc7
I0130 14:33:31.596688 65073 net.cpp:129] Top shape: 50 4096 (204800)
I0130 14:33:31.596689 65073 net.cpp:137] Memory required for data: 509529400
I0130 14:33:31.596714 65073 layer_factory.hpp:77] Creating layer bn7
I0130 14:33:31.596722 65073 net.cpp:84] Creating Layer bn7
I0130 14:33:31.596725 65073 net.cpp:406] bn7 <- fc7
I0130 14:33:31.596748 65073 net.cpp:380] bn7 -> bn7
I0130 14:33:31.596913 65073 net.cpp:122] Setting up bn7
I0130 14:33:31.596918 65073 net.cpp:129] Top shape: 50 4096 (204800)
I0130 14:33:31.596920 65073 net.cpp:137] Memory required for data: 510348600
I0130 14:33:31.596926 65073 layer_factory.hpp:77] Creating layer scale7
I0130 14:33:31.596930 65073 net.cpp:84] Creating Layer scale7
I0130 14:33:31.596933 65073 net.cpp:406] scale7 <- bn7
I0130 14:33:31.596936 65073 net.cpp:380] scale7 -> scale7
I0130 14:33:31.596963 65073 layer_factory.hpp:77] Creating layer scale7
I0130 14:33:31.597074 65073 net.cpp:122] Setting up scale7
I0130 14:33:31.597079 65073 net.cpp:129] Top shape: 50 4096 (204800)
I0130 14:33:31.597082 65073 net.cpp:137] Memory required for data: 511167800
I0130 14:33:31.597085 65073 layer_factory.hpp:77] Creating layer relu7
I0130 14:33:31.597090 65073 net.cpp:84] Creating Layer relu7
I0130 14:33:31.597093 65073 net.cpp:406] relu7 <- scale7
I0130 14:33:31.597097 65073 net.cpp:380] relu7 -> relu7
I0130 14:33:31.597368 65073 net.cpp:122] Setting up relu7
I0130 14:33:31.597373 65073 net.cpp:129] Top shape: 50 4096 (204800)
I0130 14:33:31.597376 65073 net.cpp:137] Memory required for data: 511987000
I0130 14:33:31.597378 65073 layer_factory.hpp:77] Creating layer drop7
I0130 14:33:31.597384 65073 net.cpp:84] Creating Layer drop7
I0130 14:33:31.597388 65073 net.cpp:406] drop7 <- relu7
I0130 14:33:31.597391 65073 net.cpp:380] drop7 -> drop7
I0130 14:33:31.597422 65073 net.cpp:122] Setting up drop7
I0130 14:33:31.597426 65073 net.cpp:129] Top shape: 50 4096 (204800)
I0130 14:33:31.597429 65073 net.cpp:137] Memory required for data: 512806200
I0130 14:33:31.597431 65073 layer_factory.hpp:77] Creating layer fc8
I0130 14:33:31.597435 65073 net.cpp:84] Creating Layer fc8
I0130 14:33:31.597438 65073 net.cpp:406] fc8 <- drop7
I0130 14:33:31.597442 65073 net.cpp:380] fc8 -> fc8
I0130 14:33:31.597596 65073 net.cpp:122] Setting up fc8
I0130 14:33:31.597601 65073 net.cpp:129] Top shape: 50 2 (100)
I0130 14:33:31.597604 65073 net.cpp:137] Memory required for data: 512806600
I0130 14:33:31.597607 65073 layer_factory.hpp:77] Creating layer fc8_fc8_0_split
I0130 14:33:31.597612 65073 net.cpp:84] Creating Layer fc8_fc8_0_split
I0130 14:33:31.597615 65073 net.cpp:406] fc8_fc8_0_split <- fc8
I0130 14:33:31.597620 65073 net.cpp:380] fc8_fc8_0_split -> fc8_fc8_0_split_0
I0130 14:33:31.597625 65073 net.cpp:380] fc8_fc8_0_split -> fc8_fc8_0_split_1
I0130 14:33:31.597635 65073 net.cpp:380] fc8_fc8_0_split -> fc8_fc8_0_split_2
I0130 14:33:31.597676 65073 net.cpp:122] Setting up fc8_fc8_0_split
I0130 14:33:31.597679 65073 net.cpp:129] Top shape: 50 2 (100)
I0130 14:33:31.597682 65073 net.cpp:129] Top shape: 50 2 (100)
I0130 14:33:31.597685 65073 net.cpp:129] Top shape: 50 2 (100)
I0130 14:33:31.597687 65073 net.cpp:137] Memory required for data: 512807800
I0130 14:33:31.597688 65073 layer_factory.hpp:77] Creating layer accuracy
I0130 14:33:31.597694 65073 net.cpp:84] Creating Layer accuracy
I0130 14:33:31.597697 65073 net.cpp:406] accuracy <- fc8_fc8_0_split_0
I0130 14:33:31.597702 65073 net.cpp:406] accuracy <- label_data_1_split_0
I0130 14:33:31.597705 65073 net.cpp:380] accuracy -> accuracy
…
