…
I0130 15:37:41.914412 99291 upgrade_proto.cpp:79] Attempting to upgrade batch norm layers using deprecated params: cats-vs-dogs/caffe/models/alexnetBNnoLRN/m2/deploy_2_alexnetBNnoLRN.prototxt
I0130 15:37:41.914422 99291 upgrade_proto.cpp:82] Successfully upgraded batch norm layers using deprecated params.
I0130 15:37:41.914583 99291 net.cpp:51] Initializing net from parameters: 
name: "AlexNet_BNnoLRN m2 deploy"
state {
  phase: TEST
  level: 0
}
layer {
  name: "data"
  type: "Input"
  top: "data"
  input_param {
    shape {
      dim: 1
      dim: 3
      dim: 227
      dim: 227
    }
  }
}
layer {
  name: "conv1"
  type: "Convolution"
  bottom: "data"
  top: "conv1"
  param {
    lr_mult: 1
    decay_mult: 1
  }
  param {
    lr_mult: 2
    decay_mult: 0
  }
  convolution_param {
    num_output: 96
    pad: 1
    kernel_size: 11
    stride: 4
    weight_filler {
      type: "gaussian"
      std: 0.01
    }
    bias_filler {
      type: "constant"
      value: 0
    }
  }
}
layer {
  name: "bn1"
  type: "BatchNorm"
  bottom: "conv1"
  top: "bn1"
  param {
    lr_mult: 0
    decay_mult: 0
  }
  param {
    lr_mult: 0
    decay_mult: 0
  }
  param {
    lr_mult: 0
    decay_mult: 0
  }
  batch_norm_param {
    use_global_stats: true
  }
}
layer {
  name: "scale1"
  type: "Scale"
  bottom: "bn1"
  top: "scale1"
  scale_param {
    bias_term: true
  }
}
layer {
  name: "relu1"
  type: "ReLU"
  bottom: "scale1"
  top: "relu1"
}
layer {
  name: "pool1"
  type: "Pooling"
  bottom: "relu1"
  top: "pool1"
  pooling_param {
    pool: MAX
    kernel_size: 3
    stride: 2
  }
}
layer {
  name: "conv2"
  type: "Convolution"
  bottom: "pool1"
  top: "conv2"
  param {
    lr_mult: 1
    decay_mult: 1
  }
  param {
    lr_mult: 2
    decay_mult: 0
  }
  convolution_param {
    num_output: 256
    pad: 2
    kernel_size: 5
    group: 1
    weight_filler {
      type: "gaussian"
      std: 0.01
    }
    bias_filler {
      type: "constant"
      value: 1
    }
  }
}
layer {
  name: "bn2"
  type: "BatchNorm"
  bottom: "conv2"
  top: "bn2"
  param {
    lr_mult: 0
    decay_mult: 0
  }
  param {
    lr_mult: 0
    decay_mult: 0
  }
  param {
    lr_mult: 0
    decay_mult: 0
  }
  batch_norm_param {
    use_global_stats: true
  }
}
layer {
  name: "scale2"
  type: "Scale"
  bottom: "bn2"
  top: "scale2"
  scale_param {
    bias_term: true
  }
}
layer {
  name: "relu2"
  type: "ReLU"
  bottom: "scale2"
  top: "relu2"
}
layer {
  name: "pool2"
  type: "Pooling"
  bottom: "relu2"
  top: "pool2"
  pooling_param {
    pool: MAX
    kernel_size: 3
    stride: 2
  }
}
layer {
  name: "conv3"
  type: "Convolution"
  bottom: "pool2"
  top: "conv3"
  param {
    lr_mult: 1
    decay_mult: 1
  }
  param {
    lr_mult: 2
    decay_mult: 0
  }
  convolution_param {
    num_output: 384
    pad: 1
    kernel_size: 3
    weight_filler {
      type: "gaussian"
      std: 0.01
    }
    bias_filler {
      type: "constant"
      value: 0
    }
  }
}
layer {
  name: "relu3"
  type: "ReLU"
  bottom: "conv3"
  top: "relu3"
}
layer {
  name: "conv4"
  type: "Convolution"
  bottom: "relu3"
  top: "conv4"
  param {
    lr_mult: 1
    decay_mult: 1
  }
  param {
    lr_mult: 2
    decay_mult: 0
  }
  convolution_param {
    num_output: 384
    pad: 1
    kernel_size: 3
    group: 1
    weight_filler {
      type: "gaussian"
      std: 0.01
    }
    bias_filler {
      type: "constant"
      value: 1
    }
  }
}
layer {
  name: "relu4"
  type: "ReLU"
  bottom: "conv4"
  top: "relu4"
}
layer {
  name: "conv5"
  type: "Convolution"
  bottom: "relu4"
  top: "conv5"
  param {
    lr_mult: 1
    decay_mult: 1
  }
  param {
    lr_mult: 2
    decay_mult: 0
  }
  convolution_param {
    num_output: 256
    pad: 1
    kernel_size: 3
    group: 1
    weight_filler {
      type: "gaussian"
      std: 0.01
    }
    bias_filler {
      type: "constant"
      value: 1
    }
  }
}
layer {
  name: "relu5"
  type: "ReLU"
  bottom: "conv5"
  top: "relu5"
}
layer {
  name: "pool5"
  type: "Pooling"
  bottom: "relu5"
  top: "pool5"
  pooling_param {
    pool: MAX
    kernel_size: 3
    stride: 2
  }
}
layer {
  name: "fc6"
  type: "InnerProduct"
  bottom: "pool5"
  top: "fc6"
  param {
    lr_mult: 1
    decay_mult: 1
  }
  param {
    lr_mult: 2
    decay_mult: 0
  }
  inner_product_param {
    num_output: 4096
    weight_filler {
      type: "gaussian"
      std: 0.005
    }
    bias_filler {
      type: "constant"
      value: 1
    }
  }
}
layer {
  name: "relu6"
  type: "ReLU"
  bottom: "fc6"
  top: "relu6"
}
layer {
  name: "drop6"
  type: "Dropout"
  bottom: "relu6"
  top: "drop6"
  dropout_param {
    dropout_ratio: 0.5
  }
}
layer {
  name: "fc7"
  type: "InnerProduct"
  bottom: "drop6"
  top: "fc7"
  param {
    lr_mult: 1
    decay_mult: 1
  }
  param {
    lr_mult: 2
    decay_mult: 0
  }
  inner_product_param {
    num_output: 4096
    weight_filler {
      type: "gaussian"
      std: 0.005
    }
    bias_filler {
      type: "constant"
      value: 1
    }
  }
}
layer {
  name: "bn7"
  type: "BatchNorm"
  bottom: "fc7"
  top: "bn7"
  param {
    lr_mult: 0
    decay_mult: 0
  }
  param {
    lr_mult: 0
    decay_mult: 0
  }
  param {
    lr_mult: 0
    decay_mult: 0
  }
  batch_norm_param {
    use_global_stats: true
  }
}
layer {
  name: "scale7"
  type: "Scale"
  bottom: "bn7"
  top: "scale7"
  scale_param {
    bias_term: true
  }
}
layer {
  name: "relu7"
  type: "ReLU"
  bottom: "scale7"
  top: "relu7"
}
layer {
  name: "drop7"
  type: "Dropout"
  bottom: "relu7"
  top: "drop7"
  dropout_param {
    dropout_ratio: 0.5
  }
}
layer {
  name: "fc8"
  type: "InnerProduct"
  bottom: "drop7"
  top: "fc8"
  param {
    lr_mult: 1
    decay_mult: 1
  }
  param {
    lr_mult: 2
    decay_mult: 0
  }
  inner_product_param {
    num_output: 2
    weight_filler {
      type: "gaussian"
      std: 0.01
    }
    bias_filler {
      type: "constant"
      value: 0
    }
  }
}
layer {
  name: "prob"
  type: "Softmax"
  bottom: "fc8"
  top: "prob"
}
I0130 15:37:41.914636 99291 layer_factory.hpp:77] Creating layer data
I0130 15:37:41.914644 99291 net.cpp:84] Creating Layer data
I0130 15:37:41.914649 99291 net.cpp:380] data -> data
I0130 15:37:41.923926 99291 net.cpp:122] Setting up data
I0130 15:37:41.923941 99291 net.cpp:129] Top shape: 1 3 227 227 (154587)
I0130 15:37:41.923943 99291 net.cpp:137] Memory required for data: 618348
I0130 15:37:41.923947 99291 layer_factory.hpp:77] Creating layer conv1
I0130 15:37:41.923959 99291 net.cpp:84] Creating Layer conv1
I0130 15:37:41.923964 99291 net.cpp:406] conv1 <- data
I0130 15:37:41.923969 99291 net.cpp:380] conv1 -> conv1
I0130 15:37:42.384678 99291 net.cpp:122] Setting up conv1
I0130 15:37:42.384699 99291 net.cpp:129] Top shape: 1 96 55 55 (290400)
I0130 15:37:42.384701 99291 net.cpp:137] Memory required for data: 1779948
I0130 15:37:42.384730 99291 layer_factory.hpp:77] Creating layer bn1
I0130 15:37:42.384742 99291 net.cpp:84] Creating Layer bn1
I0130 15:37:42.384745 99291 net.cpp:406] bn1 <- conv1
I0130 15:37:42.384749 99291 net.cpp:380] bn1 -> bn1
I0130 15:37:42.384920 99291 net.cpp:122] Setting up bn1
I0130 15:37:42.384925 99291 net.cpp:129] Top shape: 1 96 55 55 (290400)
I0130 15:37:42.384927 99291 net.cpp:137] Memory required for data: 2941548
I0130 15:37:42.384934 99291 layer_factory.hpp:77] Creating layer scale1
I0130 15:37:42.384938 99291 net.cpp:84] Creating Layer scale1
I0130 15:37:42.384940 99291 net.cpp:406] scale1 <- bn1
I0130 15:37:42.384944 99291 net.cpp:380] scale1 -> scale1
I0130 15:37:42.384970 99291 layer_factory.hpp:77] Creating layer scale1
I0130 15:37:42.385047 99291 net.cpp:122] Setting up scale1
I0130 15:37:42.385052 99291 net.cpp:129] Top shape: 1 96 55 55 (290400)
I0130 15:37:42.385053 99291 net.cpp:137] Memory required for data: 4103148
I0130 15:37:42.385057 99291 layer_factory.hpp:77] Creating layer relu1
I0130 15:37:42.385061 99291 net.cpp:84] Creating Layer relu1
I0130 15:37:42.385062 99291 net.cpp:406] relu1 <- scale1
I0130 15:37:42.385066 99291 net.cpp:380] relu1 -> relu1
I0130 15:37:42.385232 99291 net.cpp:122] Setting up relu1
I0130 15:37:42.385237 99291 net.cpp:129] Top shape: 1 96 55 55 (290400)
I0130 15:37:42.385239 99291 net.cpp:137] Memory required for data: 5264748
I0130 15:37:42.385241 99291 layer_factory.hpp:77] Creating layer pool1
I0130 15:37:42.385246 99291 net.cpp:84] Creating Layer pool1
I0130 15:37:42.385247 99291 net.cpp:406] pool1 <- relu1
I0130 15:37:42.385251 99291 net.cpp:380] pool1 -> pool1
I0130 15:37:42.385272 99291 net.cpp:122] Setting up pool1
I0130 15:37:42.385277 99291 net.cpp:129] Top shape: 1 96 27 27 (69984)
I0130 15:37:42.385278 99291 net.cpp:137] Memory required for data: 5544684
I0130 15:37:42.385280 99291 layer_factory.hpp:77] Creating layer conv2
I0130 15:37:42.385288 99291 net.cpp:84] Creating Layer conv2
I0130 15:37:42.385289 99291 net.cpp:406] conv2 <- pool1
I0130 15:37:42.385293 99291 net.cpp:380] conv2 -> conv2
I0130 15:37:42.391119 99291 net.cpp:122] Setting up conv2
I0130 15:37:42.391134 99291 net.cpp:129] Top shape: 1 256 27 27 (186624)
I0130 15:37:42.391136 99291 net.cpp:137] Memory required for data: 6291180
I0130 15:37:42.391144 99291 layer_factory.hpp:77] Creating layer bn2
I0130 15:37:42.391151 99291 net.cpp:84] Creating Layer bn2
I0130 15:37:42.391153 99291 net.cpp:406] bn2 <- conv2
I0130 15:37:42.391158 99291 net.cpp:380] bn2 -> bn2
I0130 15:37:42.391300 99291 net.cpp:122] Setting up bn2
I0130 15:37:42.391304 99291 net.cpp:129] Top shape: 1 256 27 27 (186624)
I0130 15:37:42.391306 99291 net.cpp:137] Memory required for data: 7037676
I0130 15:37:42.391310 99291 layer_factory.hpp:77] Creating layer scale2
I0130 15:37:42.391315 99291 net.cpp:84] Creating Layer scale2
I0130 15:37:42.391317 99291 net.cpp:406] scale2 <- bn2
I0130 15:37:42.391321 99291 net.cpp:380] scale2 -> scale2
I0130 15:37:42.391345 99291 layer_factory.hpp:77] Creating layer scale2
I0130 15:37:42.391413 99291 net.cpp:122] Setting up scale2
I0130 15:37:42.391417 99291 net.cpp:129] Top shape: 1 256 27 27 (186624)
I0130 15:37:42.391419 99291 net.cpp:137] Memory required for data: 7784172
I0130 15:37:42.391423 99291 layer_factory.hpp:77] Creating layer relu2
I0130 15:37:42.391425 99291 net.cpp:84] Creating Layer relu2
I0130 15:37:42.391427 99291 net.cpp:406] relu2 <- scale2
I0130 15:37:42.391430 99291 net.cpp:380] relu2 -> relu2
I0130 15:37:42.391594 99291 net.cpp:122] Setting up relu2
I0130 15:37:42.391599 99291 net.cpp:129] Top shape: 1 256 27 27 (186624)
I0130 15:37:42.391602 99291 net.cpp:137] Memory required for data: 8530668
I0130 15:37:42.391603 99291 layer_factory.hpp:77] Creating layer pool2
I0130 15:37:42.391607 99291 net.cpp:84] Creating Layer pool2
I0130 15:37:42.391608 99291 net.cpp:406] pool2 <- relu2
I0130 15:37:42.391611 99291 net.cpp:380] pool2 -> pool2
I0130 15:37:42.391634 99291 net.cpp:122] Setting up pool2
I0130 15:37:42.391638 99291 net.cpp:129] Top shape: 1 256 13 13 (43264)
I0130 15:37:42.391639 99291 net.cpp:137] Memory required for data: 8703724
I0130 15:37:42.391641 99291 layer_factory.hpp:77] Creating layer conv3
I0130 15:37:42.391647 99291 net.cpp:84] Creating Layer conv3
I0130 15:37:42.391649 99291 net.cpp:406] conv3 <- pool2
I0130 15:37:42.391652 99291 net.cpp:380] conv3 -> conv3
I0130 15:37:42.398893 99291 net.cpp:122] Setting up conv3
I0130 15:37:42.398905 99291 net.cpp:129] Top shape: 1 384 13 13 (64896)
I0130 15:37:42.398907 99291 net.cpp:137] Memory required for data: 8963308
I0130 15:37:42.398913 99291 layer_factory.hpp:77] Creating layer relu3
I0130 15:37:42.398918 99291 net.cpp:84] Creating Layer relu3
I0130 15:37:42.398921 99291 net.cpp:406] relu3 <- conv3
I0130 15:37:42.398924 99291 net.cpp:380] relu3 -> relu3
I0130 15:37:42.399230 99291 net.cpp:122] Setting up relu3
I0130 15:37:42.399237 99291 net.cpp:129] Top shape: 1 384 13 13 (64896)
I0130 15:37:42.399240 99291 net.cpp:137] Memory required for data: 9222892
I0130 15:37:42.399242 99291 layer_factory.hpp:77] Creating layer conv4
I0130 15:37:42.399250 99291 net.cpp:84] Creating Layer conv4
I0130 15:37:42.399251 99291 net.cpp:406] conv4 <- relu3
I0130 15:37:42.399255 99291 net.cpp:380] conv4 -> conv4
I0130 15:37:42.409750 99291 net.cpp:122] Setting up conv4
I0130 15:37:42.409763 99291 net.cpp:129] Top shape: 1 384 13 13 (64896)
I0130 15:37:42.409765 99291 net.cpp:137] Memory required for data: 9482476
I0130 15:37:42.409775 99291 layer_factory.hpp:77] Creating layer relu4
I0130 15:37:42.409780 99291 net.cpp:84] Creating Layer relu4
I0130 15:37:42.409781 99291 net.cpp:406] relu4 <- conv4
I0130 15:37:42.409785 99291 net.cpp:380] relu4 -> relu4
I0130 15:37:42.409966 99291 net.cpp:122] Setting up relu4
I0130 15:37:42.409971 99291 net.cpp:129] Top shape: 1 384 13 13 (64896)
I0130 15:37:42.409973 99291 net.cpp:137] Memory required for data: 9742060
I0130 15:37:42.409976 99291 layer_factory.hpp:77] Creating layer conv5
I0130 15:37:42.409982 99291 net.cpp:84] Creating Layer conv5
I0130 15:37:42.409984 99291 net.cpp:406] conv5 <- relu4
I0130 15:37:42.409987 99291 net.cpp:380] conv5 -> conv5
I0130 15:37:42.417441 99291 net.cpp:122] Setting up conv5
I0130 15:37:42.417454 99291 net.cpp:129] Top shape: 1 256 13 13 (43264)
I0130 15:37:42.417455 99291 net.cpp:137] Memory required for data: 9915116
I0130 15:37:42.417460 99291 layer_factory.hpp:77] Creating layer relu5
I0130 15:37:42.417467 99291 net.cpp:84] Creating Layer relu5
I0130 15:37:42.417470 99291 net.cpp:406] relu5 <- conv5
I0130 15:37:42.417474 99291 net.cpp:380] relu5 -> relu5
I0130 15:37:42.417659 99291 net.cpp:122] Setting up relu5
I0130 15:37:42.417665 99291 net.cpp:129] Top shape: 1 256 13 13 (43264)
I0130 15:37:42.417666 99291 net.cpp:137] Memory required for data: 10088172
I0130 15:37:42.417668 99291 layer_factory.hpp:77] Creating layer pool5
I0130 15:37:42.417673 99291 net.cpp:84] Creating Layer pool5
I0130 15:37:42.417675 99291 net.cpp:406] pool5 <- relu5
I0130 15:37:42.417680 99291 net.cpp:380] pool5 -> pool5
I0130 15:37:42.417707 99291 net.cpp:122] Setting up pool5
I0130 15:37:42.417711 99291 net.cpp:129] Top shape: 1 256 6 6 (9216)
I0130 15:37:42.417713 99291 net.cpp:137] Memory required for data: 10125036
I0130 15:37:42.417716 99291 layer_factory.hpp:77] Creating layer fc6
I0130 15:37:42.417721 99291 net.cpp:84] Creating Layer fc6
I0130 15:37:42.417722 99291 net.cpp:406] fc6 <- pool5
I0130 15:37:42.417726 99291 net.cpp:380] fc6 -> fc6
I0130 15:37:42.670292 99291 net.cpp:122] Setting up fc6
I0130 15:37:42.670311 99291 net.cpp:129] Top shape: 1 4096 (4096)
I0130 15:37:42.670315 99291 net.cpp:137] Memory required for data: 10141420
I0130 15:37:42.670338 99291 layer_factory.hpp:77] Creating layer relu6
I0130 15:37:42.670346 99291 net.cpp:84] Creating Layer relu6
I0130 15:37:42.670348 99291 net.cpp:406] relu6 <- fc6
I0130 15:37:42.670353 99291 net.cpp:380] relu6 -> relu6
I0130 15:37:42.670837 99291 net.cpp:122] Setting up relu6
I0130 15:37:42.670845 99291 net.cpp:129] Top shape: 1 4096 (4096)
I0130 15:37:42.670848 99291 net.cpp:137] Memory required for data: 10157804
I0130 15:37:42.670851 99291 layer_factory.hpp:77] Creating layer drop6
I0130 15:37:42.670856 99291 net.cpp:84] Creating Layer drop6
I0130 15:37:42.670859 99291 net.cpp:406] drop6 <- relu6
I0130 15:37:42.670864 99291 net.cpp:380] drop6 -> drop6
I0130 15:37:42.670892 99291 net.cpp:122] Setting up drop6
I0130 15:37:42.670897 99291 net.cpp:129] Top shape: 1 4096 (4096)
I0130 15:37:42.670898 99291 net.cpp:137] Memory required for data: 10174188
I0130 15:37:42.670900 99291 layer_factory.hpp:77] Creating layer fc7
I0130 15:37:42.670905 99291 net.cpp:84] Creating Layer fc7
I0130 15:37:42.670907 99291 net.cpp:406] fc7 <- drop6
I0130 15:37:42.670912 99291 net.cpp:380] fc7 -> fc7
I0130 15:37:42.784735 99291 net.cpp:122] Setting up fc7
I0130 15:37:42.784754 99291 net.cpp:129] Top shape: 1 4096 (4096)
I0130 15:37:42.784755 99291 net.cpp:137] Memory required for data: 10190572
I0130 15:37:42.784763 99291 layer_factory.hpp:77] Creating layer bn7
I0130 15:37:42.784772 99291 net.cpp:84] Creating Layer bn7
I0130 15:37:42.784775 99291 net.cpp:406] bn7 <- fc7
I0130 15:37:42.784780 99291 net.cpp:380] bn7 -> bn7
I0130 15:37:42.784941 99291 net.cpp:122] Setting up bn7
I0130 15:37:42.784945 99291 net.cpp:129] Top shape: 1 4096 (4096)
I0130 15:37:42.784947 99291 net.cpp:137] Memory required for data: 10206956
I0130 15:37:42.784952 99291 layer_factory.hpp:77] Creating layer scale7
I0130 15:37:42.784957 99291 net.cpp:84] Creating Layer scale7
I0130 15:37:42.784960 99291 net.cpp:406] scale7 <- bn7
I0130 15:37:42.784963 99291 net.cpp:380] scale7 -> scale7
I0130 15:37:42.784988 99291 layer_factory.hpp:77] Creating layer scale7
I0130 15:37:42.785075 99291 net.cpp:122] Setting up scale7
I0130 15:37:42.785079 99291 net.cpp:129] Top shape: 1 4096 (4096)
I0130 15:37:42.785081 99291 net.cpp:137] Memory required for data: 10223340
I0130 15:37:42.785085 99291 layer_factory.hpp:77] Creating layer relu7
I0130 15:37:42.785089 99291 net.cpp:84] Creating Layer relu7
I0130 15:37:42.785090 99291 net.cpp:406] relu7 <- scale7
I0130 15:37:42.785094 99291 net.cpp:380] relu7 -> relu7
I0130 15:37:42.785332 99291 net.cpp:122] Setting up relu7
I0130 15:37:42.785338 99291 net.cpp:129] Top shape: 1 4096 (4096)
I0130 15:37:42.785339 99291 net.cpp:137] Memory required for data: 10239724
I0130 15:37:42.785341 99291 layer_factory.hpp:77] Creating layer drop7
I0130 15:37:42.785347 99291 net.cpp:84] Creating Layer drop7
I0130 15:37:42.785351 99291 net.cpp:406] drop7 <- relu7
I0130 15:37:42.785353 99291 net.cpp:380] drop7 -> drop7
I0130 15:37:42.785379 99291 net.cpp:122] Setting up drop7
I0130 15:37:42.785383 99291 net.cpp:129] Top shape: 1 4096 (4096)
I0130 15:37:42.785385 99291 net.cpp:137] Memory required for data: 10256108
I0130 15:37:42.785387 99291 layer_factory.hpp:77] Creating layer fc8
I0130 15:37:42.785392 99291 net.cpp:84] Creating Layer fc8
I0130 15:37:42.785394 99291 net.cpp:406] fc8 <- drop7
I0130 15:37:42.785398 99291 net.cpp:380] fc8 -> fc8
I0130 15:37:42.786146 99291 net.cpp:122] Setting up fc8
I0130 15:37:42.786154 99291 net.cpp:129] Top shape: 1 2 (2)
I0130 15:37:42.786157 99291 net.cpp:137] Memory required for data: 10256116
I0130 15:37:42.786162 99291 layer_factory.hpp:77] Creating layer prob
I0130 15:37:42.786168 99291 net.cpp:84] Creating Layer prob
I0130 15:37:42.786171 99291 net.cpp:406] prob <- fc8
I0130 15:37:42.786175 99291 net.cpp:380] prob -> prob
I0130 15:37:42.786420 99291 net.cpp:122] Setting up prob
I0130 15:37:42.786425 99291 net.cpp:129] Top shape: 1 2 (2)
I0130 15:37:42.786427 99291 net.cpp:137] Memory required for data: 10256124
I0130 15:37:42.786429 99291 net.cpp:200] prob does not need backward computation.
I0130 15:37:42.786432 99291 net.cpp:200] fc8 does not need backward computation.
I0130 15:37:42.786434 99291 net.cpp:200] drop7 does not need backward computation.
I0130 15:37:42.786437 99291 net.cpp:200] relu7 does not need backward computation.
…
