…
W0121 15:45:23.436619  6240 _caffe.cpp:142] Net('cifar10/caffe/models/miniVggNet/m3/deploy_3_miniVggNet.prototxt', 1, weights='cifar10/caffe/models/miniVggNet/m3/snapshot_3_miniVggNet__iter_40000.caffemodel')
I0121 15:45:23.439738  6240 upgrade_proto.cpp:77] Attempting to upgrade batch norm layers using deprecated params: cifar10/caffe/models/miniVggNet/m3/deploy_3_miniVggNet.prototxt
I0121 15:45:23.439759  6240 upgrade_proto.cpp:80] Successfully upgraded batch norm layers using deprecated params.
I0121 15:45:23.440953  6240 net.cpp:51] Initializing net from parameters: 
state {
  phase: TEST
  level: 0
}
layer {
  name: "data"
  type: "Input"
  top: "data"
  input_param {
    shape {
      dim: 1
      dim: 3
      dim: 32
      dim: 32
    }
  }
}
layer {
  name: "conv1"
  type: "Convolution"
  bottom: "data"
  top: "conv1"
  param {
    lr_mult: 1
    decay_mult: 1
  }
  param {
    lr_mult: 2
    decay_mult: 0
  }
  convolution_param {
    num_output: 32
    pad: 1
    kernel_size: 3
    stride: 1
    weight_filler {
      type: "xavier"
    }
    bias_filler {
      type: "constant"
      value: 0
    }
  }
}
layer {
  name: "bn1"
  type: "BatchNorm"
  bottom: "conv1"
  top: "bn1"
  param {
    lr_mult: 0
    decay_mult: 0
  }
  param {
    lr_mult: 0
    decay_mult: 0
  }
  param {
    lr_mult: 0
    decay_mult: 0
  }
  batch_norm_param {
    use_global_stats: true
  }
}
layer {
  name: "scale1"
  type: "Scale"
  bottom: "bn1"
  top: "scale1"
  scale_param {
    bias_term: true
  }
}
layer {
  name: "relu1"
  type: "ReLU"
  bottom: "scale1"
  top: "relu1"
}
layer {
  name: "conv2"
  type: "Convolution"
  bottom: "relu1"
  top: "conv2"
  param {
    lr_mult: 1
    decay_mult: 1
  }
  param {
    lr_mult: 2
    decay_mult: 0
  }
  convolution_param {
    num_output: 32
    pad: 1
    kernel_size: 3
    stride: 1
    weight_filler {
      type: "xavier"
    }
    bias_filler {
      type: "constant"
      value: 0
    }
  }
}
layer {
  name: "bn2"
  type: "BatchNorm"
  bottom: "conv2"
  top: "bn2"
  param {
    lr_mult: 0
    decay_mult: 0
  }
  param {
    lr_mult: 0
    decay_mult: 0
  }
  param {
    lr_mult: 0
    decay_mult: 0
  }
  batch_norm_param {
    use_global_stats: true
  }
}
layer {
  name: "scale2"
  type: "Scale"
  bottom: "bn2"
  top: "scale2"
  scale_param {
    bias_term: true
  }
}
layer {
  name: "relu2"
  type: "ReLU"
  bottom: "scale2"
  top: "relu2"
}
layer {
  name: "pool1"
  type: "Pooling"
  bottom: "relu2"
  top: "pool1"
  pooling_param {
    pool: MAX
    kernel_size: 2
    stride: 2
  }
}
layer {
  name: "drop1"
  type: "Dropout"
  bottom: "pool1"
  top: "drop1"
  dropout_param {
    dropout_ratio: 0.25
  }
}
layer {
  name: "conv3"
  type: "Convolution"
  bottom: "drop1"
  top: "conv3"
  param {
    lr_mult: 1
    decay_mult: 1
  }
  param {
    lr_mult: 2
    decay_mult: 0
  }
  convolution_param {
    num_output: 64
    pad: 1
    kernel_size: 3
    stride: 1
    weight_filler {
      type: "xavier"
    }
    bias_filler {
      type: "constant"
      value: 0
    }
  }
}
layer {
  name: "bn3"
  type: "BatchNorm"
  bottom: "conv3"
  top: "bn3"
  param {
    lr_mult: 0
    decay_mult: 0
  }
  param {
    lr_mult: 0
    decay_mult: 0
  }
  param {
    lr_mult: 0
    decay_mult: 0
  }
  batch_norm_param {
    use_global_stats: true
  }
}
layer {
  name: "scale3"
  type: "Scale"
  bottom: "bn3"
  top: "scale3"
  scale_param {
    bias_term: true
  }
}
layer {
  name: "relu3"
  type: "ReLU"
  bottom: "scale3"
  top: "relu3"
}
layer {
  name: "conv4"
  type: "Convolution"
  bottom: "relu3"
  top: "conv4"
  param {
    lr_mult: 1
    decay_mult: 1
  }
  param {
    lr_mult: 2
    decay_mult: 0
  }
  convolution_param {
    num_output: 64
    pad: 1
    kernel_size: 3
    stride: 1
    weight_filler {
      type: "xavier"
    }
    bias_filler {
      type: "constant"
      value: 0
    }
  }
}
layer {
  name: "bn4"
  type: "BatchNorm"
  bottom: "conv4"
  top: "bn4"
  param {
    lr_mult: 0
    decay_mult: 0
  }
  param {
    lr_mult: 0
    decay_mult: 0
  }
  param {
    lr_mult: 0
    decay_mult: 0
  }
  batch_norm_param {
    use_global_stats: true
  }
}
layer {
  name: "scale4"
  type: "Scale"
  bottom: "bn4"
  top: "scale4"
  scale_param {
    bias_term: true
  }
}
layer {
  name: "relu4"
  type: "ReLU"
  bottom: "scale4"
  top: "relu4"
}
layer {
  name: "pool2"
  type: "Pooling"
  bottom: "relu4"
  top: "pool2"
  pooling_param {
    pool: MAX
    kernel_size: 2
    stride: 2
  }
}
layer {
  name: "drop2"
  type: "Dropout"
  bottom: "pool2"
  top: "drop2"
  dropout_param {
    dropout_ratio: 0.25
  }
}
layer {
  name: "fc1"
  type: "InnerProduct"
  bottom: "drop2"
  top: "fc1"
  param {
    lr_mult: 1
    decay_mult: 1
  }
  param {
    lr_mult: 2
    decay_mult: 0
  }
  inner_product_param {
    num_output: 512
    weight_filler {
      type: "xavier"
    }
    bias_filler {
      type: "constant"
      value: 1
    }
  }
}
layer {
  name: "bn5"
  type: "BatchNorm"
  bottom: "fc1"
  top: "bn5"
  param {
    lr_mult: 0
    decay_mult: 0
  }
  param {
    lr_mult: 0
    decay_mult: 0
  }
  param {
    lr_mult: 0
    decay_mult: 0
  }
  batch_norm_param {
    use_global_stats: true
  }
}
layer {
  name: "scale5"
  type: "Scale"
  bottom: "bn5"
  top: "scale5"
  scale_param {
    bias_term: true
  }
}
layer {
  name: "relu5"
  type: "ReLU"
  bottom: "scale5"
  top: "relu5"
}
layer {
  name: "drop3"
  type: "Dropout"
  bottom: "relu5"
  top: "drop3"
  dropout_param {
    dropout_ratio: 0.5
  }
}
layer {
  name: "fc2"
  type: "InnerProduct"
  bottom: "drop3"
  top: "fc2"
  param {
    lr_mult: 1
    decay_mult: 1
  }
  param {
    lr_mult: 2
    decay_mult: 0
  }
  inner_product_param {
    num_output: 10
    weight_filler {
      type: "xavier"
    }
    bias_filler {
      type: "constant"
      value: 1
    }
  }
}
layer {
  name: "prob"
  type: "Softmax"
  bottom: "fc2"
  top: "prob"
}
I0121 15:45:23.441962  6240 layer_factory.hpp:77] Creating layer data
I0121 15:45:23.441988  6240 net.cpp:84] Creating Layer data
I0121 15:45:23.441994  6240 net.cpp:380] data -> data
I0121 15:45:23.475244  6240 net.cpp:122] Setting up data
I0121 15:45:23.475272  6240 net.cpp:129] Top shape: 1 3 32 32 (3072)
I0121 15:45:23.475277  6240 net.cpp:137] Memory required for data: 12288
I0121 15:45:23.475282  6240 layer_factory.hpp:77] Creating layer conv1
I0121 15:45:23.475306  6240 net.cpp:84] Creating Layer conv1
I0121 15:45:23.475322  6240 net.cpp:406] conv1 <- data
I0121 15:45:23.475337  6240 net.cpp:380] conv1 -> conv1
I0121 15:45:23.870986  6240 net.cpp:122] Setting up conv1
I0121 15:45:23.871033  6240 net.cpp:129] Top shape: 1 32 32 32 (32768)
I0121 15:45:23.871038  6240 net.cpp:137] Memory required for data: 143360
I0121 15:45:23.871055  6240 layer_factory.hpp:77] Creating layer bn1
I0121 15:45:23.871073  6240 net.cpp:84] Creating Layer bn1
I0121 15:45:23.871081  6240 net.cpp:406] bn1 <- conv1
I0121 15:45:23.871089  6240 net.cpp:380] bn1 -> bn1
I0121 15:45:23.871372  6240 net.cpp:122] Setting up bn1
I0121 15:45:23.871402  6240 net.cpp:129] Top shape: 1 32 32 32 (32768)
I0121 15:45:23.871408  6240 net.cpp:137] Memory required for data: 274432
I0121 15:45:23.871423  6240 layer_factory.hpp:77] Creating layer scale1
I0121 15:45:23.872730  6240 net.cpp:84] Creating Layer scale1
I0121 15:45:23.872745  6240 net.cpp:406] scale1 <- bn1
I0121 15:45:23.872751  6240 net.cpp:380] scale1 -> scale1
I0121 15:45:23.872817  6240 layer_factory.hpp:77] Creating layer scale1
I0121 15:45:23.874006  6240 net.cpp:122] Setting up scale1
I0121 15:45:23.874024  6240 net.cpp:129] Top shape: 1 32 32 32 (32768)
I0121 15:45:23.874029  6240 net.cpp:137] Memory required for data: 405504
I0121 15:45:23.874037  6240 layer_factory.hpp:77] Creating layer relu1
I0121 15:45:23.874045  6240 net.cpp:84] Creating Layer relu1
I0121 15:45:23.874052  6240 net.cpp:406] relu1 <- scale1
I0121 15:45:23.874060  6240 net.cpp:380] relu1 -> relu1
I0121 15:45:23.875274  6240 net.cpp:122] Setting up relu1
I0121 15:45:23.875296  6240 net.cpp:129] Top shape: 1 32 32 32 (32768)
I0121 15:45:23.875300  6240 net.cpp:137] Memory required for data: 536576
I0121 15:45:23.875305  6240 layer_factory.hpp:77] Creating layer conv2
I0121 15:45:23.875316  6240 net.cpp:84] Creating Layer conv2
I0121 15:45:23.875329  6240 net.cpp:406] conv2 <- relu1
I0121 15:45:23.875342  6240 net.cpp:380] conv2 -> conv2
I0121 15:45:23.876925  6240 net.cpp:122] Setting up conv2
I0121 15:45:23.876950  6240 net.cpp:129] Top shape: 1 32 32 32 (32768)
I0121 15:45:23.876955  6240 net.cpp:137] Memory required for data: 667648
I0121 15:45:23.876965  6240 layer_factory.hpp:77] Creating layer bn2
I0121 15:45:23.876986  6240 net.cpp:84] Creating Layer bn2
I0121 15:45:23.876993  6240 net.cpp:406] bn2 <- conv2
I0121 15:45:23.877014  6240 net.cpp:380] bn2 -> bn2
I0121 15:45:23.877231  6240 net.cpp:122] Setting up bn2
I0121 15:45:23.877249  6240 net.cpp:129] Top shape: 1 32 32 32 (32768)
I0121 15:45:23.877254  6240 net.cpp:137] Memory required for data: 798720
I0121 15:45:23.877262  6240 layer_factory.hpp:77] Creating layer scale2
I0121 15:45:23.877279  6240 net.cpp:84] Creating Layer scale2
I0121 15:45:23.877287  6240 net.cpp:406] scale2 <- bn2
I0121 15:45:23.877305  6240 net.cpp:380] scale2 -> scale2
I0121 15:45:23.877368  6240 layer_factory.hpp:77] Creating layer scale2
I0121 15:45:23.877501  6240 net.cpp:122] Setting up scale2
I0121 15:45:23.877518  6240 net.cpp:129] Top shape: 1 32 32 32 (32768)
I0121 15:45:23.877522  6240 net.cpp:137] Memory required for data: 929792
I0121 15:45:23.877529  6240 layer_factory.hpp:77] Creating layer relu2
I0121 15:45:23.877542  6240 net.cpp:84] Creating Layer relu2
I0121 15:45:23.877553  6240 net.cpp:406] relu2 <- scale2
I0121 15:45:23.877563  6240 net.cpp:380] relu2 -> relu2
I0121 15:45:23.877857  6240 net.cpp:122] Setting up relu2
I0121 15:45:23.877880  6240 net.cpp:129] Top shape: 1 32 32 32 (32768)
I0121 15:45:23.877885  6240 net.cpp:137] Memory required for data: 1060864
I0121 15:45:23.877890  6240 layer_factory.hpp:77] Creating layer pool1
I0121 15:45:23.877900  6240 net.cpp:84] Creating Layer pool1
I0121 15:45:23.877913  6240 net.cpp:406] pool1 <- relu2
I0121 15:45:23.877924  6240 net.cpp:380] pool1 -> pool1
I0121 15:45:23.877992  6240 net.cpp:122] Setting up pool1
I0121 15:45:23.878010  6240 net.cpp:129] Top shape: 1 32 16 16 (8192)
I0121 15:45:23.878013  6240 net.cpp:137] Memory required for data: 1093632
I0121 15:45:23.878017  6240 layer_factory.hpp:77] Creating layer drop1
I0121 15:45:23.878024  6240 net.cpp:84] Creating Layer drop1
I0121 15:45:23.878029  6240 net.cpp:406] drop1 <- pool1
I0121 15:45:23.878037  6240 net.cpp:380] drop1 -> drop1
I0121 15:45:23.878094  6240 net.cpp:122] Setting up drop1
I0121 15:45:23.878113  6240 net.cpp:129] Top shape: 1 32 16 16 (8192)
I0121 15:45:23.878119  6240 net.cpp:137] Memory required for data: 1126400
I0121 15:45:23.878124  6240 layer_factory.hpp:77] Creating layer conv3
I0121 15:45:23.878144  6240 net.cpp:84] Creating Layer conv3
I0121 15:45:23.878157  6240 net.cpp:406] conv3 <- drop1
I0121 15:45:23.878170  6240 net.cpp:380] conv3 -> conv3
I0121 15:45:23.879760  6240 net.cpp:122] Setting up conv3
I0121 15:45:23.879788  6240 net.cpp:129] Top shape: 1 64 16 16 (16384)
I0121 15:45:23.879796  6240 net.cpp:137] Memory required for data: 1191936
I0121 15:45:23.879808  6240 layer_factory.hpp:77] Creating layer bn3
I0121 15:45:23.879823  6240 net.cpp:84] Creating Layer bn3
I0121 15:45:23.879838  6240 net.cpp:406] bn3 <- conv3
I0121 15:45:23.879853  6240 net.cpp:380] bn3 -> bn3
I0121 15:45:23.880080  6240 net.cpp:122] Setting up bn3
I0121 15:45:23.880098  6240 net.cpp:129] Top shape: 1 64 16 16 (16384)
I0121 15:45:23.880103  6240 net.cpp:137] Memory required for data: 1257472
I0121 15:45:23.880118  6240 layer_factory.hpp:77] Creating layer scale3
I0121 15:45:23.880137  6240 net.cpp:84] Creating Layer scale3
I0121 15:45:23.880144  6240 net.cpp:406] scale3 <- bn3
I0121 15:45:23.880156  6240 net.cpp:380] scale3 -> scale3
I0121 15:45:23.880246  6240 layer_factory.hpp:77] Creating layer scale3
I0121 15:45:23.880388  6240 net.cpp:122] Setting up scale3
I0121 15:45:23.880404  6240 net.cpp:129] Top shape: 1 64 16 16 (16384)
I0121 15:45:23.880409  6240 net.cpp:137] Memory required for data: 1323008
I0121 15:45:23.880416  6240 layer_factory.hpp:77] Creating layer relu3
I0121 15:45:23.880422  6240 net.cpp:84] Creating Layer relu3
I0121 15:45:23.880429  6240 net.cpp:406] relu3 <- scale3
I0121 15:45:23.880434  6240 net.cpp:380] relu3 -> relu3
I0121 15:45:23.880599  6240 net.cpp:122] Setting up relu3
I0121 15:45:23.880620  6240 net.cpp:129] Top shape: 1 64 16 16 (16384)
I0121 15:45:23.880625  6240 net.cpp:137] Memory required for data: 1388544
I0121 15:45:23.880630  6240 layer_factory.hpp:77] Creating layer conv4
I0121 15:45:23.880640  6240 net.cpp:84] Creating Layer conv4
I0121 15:45:23.880651  6240 net.cpp:406] conv4 <- relu3
I0121 15:45:23.880663  6240 net.cpp:380] conv4 -> conv4
I0121 15:45:23.881745  6240 net.cpp:122] Setting up conv4
I0121 15:45:23.881772  6240 net.cpp:129] Top shape: 1 64 16 16 (16384)
I0121 15:45:23.881777  6240 net.cpp:137] Memory required for data: 1454080
I0121 15:45:23.881784  6240 layer_factory.hpp:77] Creating layer bn4
I0121 15:45:23.881796  6240 net.cpp:84] Creating Layer bn4
I0121 15:45:23.881811  6240 net.cpp:406] bn4 <- conv4
I0121 15:45:23.881822  6240 net.cpp:380] bn4 -> bn4
I0121 15:45:23.882042  6240 net.cpp:122] Setting up bn4
I0121 15:45:23.882062  6240 net.cpp:129] Top shape: 1 64 16 16 (16384)
I0121 15:45:23.882067  6240 net.cpp:137] Memory required for data: 1519616
I0121 15:45:23.882076  6240 layer_factory.hpp:77] Creating layer scale4
I0121 15:45:23.882083  6240 net.cpp:84] Creating Layer scale4
I0121 15:45:23.882089  6240 net.cpp:406] scale4 <- bn4
I0121 15:45:23.882097  6240 net.cpp:380] scale4 -> scale4
I0121 15:45:23.882156  6240 layer_factory.hpp:77] Creating layer scale4
I0121 15:45:23.882297  6240 net.cpp:122] Setting up scale4
I0121 15:45:23.882314  6240 net.cpp:129] Top shape: 1 64 16 16 (16384)
I0121 15:45:23.882318  6240 net.cpp:137] Memory required for data: 1585152
I0121 15:45:23.882325  6240 layer_factory.hpp:77] Creating layer relu4
I0121 15:45:23.882331  6240 net.cpp:84] Creating Layer relu4
I0121 15:45:23.882336  6240 net.cpp:406] relu4 <- scale4
I0121 15:45:23.882344  6240 net.cpp:380] relu4 -> relu4
I0121 15:45:23.882620  6240 net.cpp:122] Setting up relu4
I0121 15:45:23.882644  6240 net.cpp:129] Top shape: 1 64 16 16 (16384)
I0121 15:45:23.882650  6240 net.cpp:137] Memory required for data: 1650688
I0121 15:45:23.882654  6240 layer_factory.hpp:77] Creating layer pool2
I0121 15:45:23.882661  6240 net.cpp:84] Creating Layer pool2
I0121 15:45:23.882668  6240 net.cpp:406] pool2 <- relu4
I0121 15:45:23.882674  6240 net.cpp:380] pool2 -> pool2
I0121 15:45:23.882735  6240 net.cpp:122] Setting up pool2
I0121 15:45:23.882750  6240 net.cpp:129] Top shape: 1 64 8 8 (4096)
I0121 15:45:23.882755  6240 net.cpp:137] Memory required for data: 1667072
I0121 15:45:23.882760  6240 layer_factory.hpp:77] Creating layer drop2
I0121 15:45:23.882766  6240 net.cpp:84] Creating Layer drop2
I0121 15:45:23.882803  6240 net.cpp:406] drop2 <- pool2
I0121 15:45:23.882814  6240 net.cpp:380] drop2 -> drop2
I0121 15:45:23.882874  6240 net.cpp:122] Setting up drop2
I0121 15:45:23.882892  6240 net.cpp:129] Top shape: 1 64 8 8 (4096)
I0121 15:45:23.882897  6240 net.cpp:137] Memory required for data: 1683456
I0121 15:45:23.882901  6240 layer_factory.hpp:77] Creating layer fc1
I0121 15:45:23.882910  6240 net.cpp:84] Creating Layer fc1
I0121 15:45:23.882921  6240 net.cpp:406] fc1 <- drop2
I0121 15:45:23.882935  6240 net.cpp:380] fc1 -> fc1
I0121 15:45:23.897557  6240 net.cpp:122] Setting up fc1
I0121 15:45:23.897588  6240 net.cpp:129] Top shape: 1 512 (512)
I0121 15:45:23.897595  6240 net.cpp:137] Memory required for data: 1685504
I0121 15:45:23.897608  6240 layer_factory.hpp:77] Creating layer bn5
I0121 15:45:23.897621  6240 net.cpp:84] Creating Layer bn5
I0121 15:45:23.897635  6240 net.cpp:406] bn5 <- fc1
I0121 15:45:23.897647  6240 net.cpp:380] bn5 -> bn5
I0121 15:45:23.897857  6240 net.cpp:122] Setting up bn5
I0121 15:45:23.897876  6240 net.cpp:129] Top shape: 1 512 (512)
I0121 15:45:23.897884  6240 net.cpp:137] Memory required for data: 1687552
I0121 15:45:23.897909  6240 layer_factory.hpp:77] Creating layer scale5
I0121 15:45:23.897927  6240 net.cpp:84] Creating Layer scale5
I0121 15:45:23.897934  6240 net.cpp:406] scale5 <- bn5
I0121 15:45:23.897943  6240 net.cpp:380] scale5 -> scale5
I0121 15:45:23.897996  6240 layer_factory.hpp:77] Creating layer scale5
I0121 15:45:23.898157  6240 net.cpp:122] Setting up scale5
I0121 15:45:23.898175  6240 net.cpp:129] Top shape: 1 512 (512)
I0121 15:45:23.898180  6240 net.cpp:137] Memory required for data: 1689600
I0121 15:45:23.898187  6240 layer_factory.hpp:77] Creating layer relu5
I0121 15:45:23.898195  6240 net.cpp:84] Creating Layer relu5
I0121 15:45:23.898202  6240 net.cpp:406] relu5 <- scale5
I0121 15:45:23.898208  6240 net.cpp:380] relu5 -> relu5
I0121 15:45:23.898389  6240 net.cpp:122] Setting up relu5
I0121 15:45:23.898408  6240 net.cpp:129] Top shape: 1 512 (512)
I0121 15:45:23.898413  6240 net.cpp:137] Memory required for data: 1691648
I0121 15:45:23.898418  6240 layer_factory.hpp:77] Creating layer drop3
I0121 15:45:23.898424  6240 net.cpp:84] Creating Layer drop3
I0121 15:45:23.898429  6240 net.cpp:406] drop3 <- relu5
I0121 15:45:23.898440  6240 net.cpp:380] drop3 -> drop3
I0121 15:45:23.898490  6240 net.cpp:122] Setting up drop3
I0121 15:45:23.898504  6240 net.cpp:129] Top shape: 1 512 (512)
I0121 15:45:23.898509  6240 net.cpp:137] Memory required for data: 1693696
I0121 15:45:23.898512  6240 layer_factory.hpp:77] Creating layer fc2
I0121 15:45:23.898524  6240 net.cpp:84] Creating Layer fc2
I0121 15:45:23.898535  6240 net.cpp:406] fc2 <- drop3
I0121 15:45:23.898551  6240 net.cpp:380] fc2 -> fc2
I0121 15:45:23.898723  6240 net.cpp:122] Setting up fc2
I0121 15:45:23.898746  6240 net.cpp:129] Top shape: 1 10 (10)
I0121 15:45:23.898753  6240 net.cpp:137] Memory required for data: 1693736
I0121 15:45:23.898764  6240 layer_factory.hpp:77] Creating layer prob
I0121 15:45:23.898790  6240 net.cpp:84] Creating Layer prob
I0121 15:45:23.898799  6240 net.cpp:406] prob <- fc2
I0121 15:45:23.898808  6240 net.cpp:380] prob -> prob
I0121 15:45:23.900177  6240 net.cpp:122] Setting up prob
I0121 15:45:23.900200  6240 net.cpp:129] Top shape: 1 10 (10)
I0121 15:45:23.900208  6240 net.cpp:137] Memory required for data: 1693776
I0121 15:45:23.900215  6240 net.cpp:200] prob does not need backward computation.
I0121 15:45:23.900223  6240 net.cpp:200] fc2 does not need backward computation.
I0121 15:45:23.900228  6240 net.cpp:200] drop3 does not need backward computation.
I0121 15:45:23.900236  6240 net.cpp:200] relu5 does not need backward computation.
…
