…
I0123 15:38:12.097741 88172 net.cpp:294] The NetState phase (0) differed from the phase (1) specified by a rule in layer accuracy-top1
I0123 15:38:12.097892 88172 net.cpp:51] Initializing net from parameters: 
name: "alexnetBNnoLRN m2 (as m3 but less DROP and less BN)"
state {
  phase: TRAIN
  level: 0
  stage: ""
}
layer {
  name: "data"
  type: "Data"
  top: "data"
  top: "label"
  include {
    phase: TRAIN
  }
  transform_param {
    mirror: true
    crop_size: 227
    mean_value: 106
    mean_value: 116
    mean_value: 124
  }
  data_param {
    source: "cats-vs-dogs/input/lmdb/train_lmdb"
    batch_size: 256
    backend: LMDB
  }
}
layer {
  name: "conv1"
  type: "Convolution"
  bottom: "data"
  top: "conv1"
  param {
    lr_mult: 1
    decay_mult: 1
  }
  param {
    lr_mult: 2
    decay_mult: 0
  }
  convolution_param {
    num_output: 96
    pad: 1
    kernel_size: 11
    stride: 4
    weight_filler {
      type: "gaussian"
      std: 0.01
    }
    bias_filler {
      type: "constant"
      value: 0
    }
  }
}
layer {
  name: "bn1"
  type: "BatchNorm"
  bottom: "conv1"
  top: "bn1"
  param {
    lr_mult: 0
    decay_mult: 0
  }
  param {
    lr_mult: 0
    decay_mult: 0
  }
  param {
    lr_mult: 0
    decay_mult: 0
  }
  batch_norm_param {
    use_global_stats: false
  }
}
layer {
  name: "scale1"
  type: "Scale"
  bottom: "bn1"
  top: "scale1"
  scale_param {
    bias_term: true
  }
}
layer {
  name: "relu1"
  type: "ReLU"
  bottom: "scale1"
  top: "relu1"
}
layer {
  name: "pool1"
  type: "Pooling"
  bottom: "relu1"
  top: "pool1"
  pooling_param {
    pool: MAX
    kernel_size: 3
    stride: 2
  }
}
layer {
  name: "conv2"
  type: "Convolution"
  bottom: "pool1"
  top: "conv2"
  param {
    lr_mult: 1
    decay_mult: 1
  }
  param {
    lr_mult: 2
    decay_mult: 0
  }
  convolution_param {
    num_output: 256
    pad: 2
    kernel_size: 5
    group: 1
    weight_filler {
      type: "gaussian"
      std: 0.01
    }
    bias_filler {
      type: "constant"
      value: 1
    }
  }
}
layer {
  name: "bn2"
  type: "BatchNorm"
  bottom: "conv2"
  top: "bn2"
  param {
    lr_mult: 0
    decay_mult: 0
  }
  param {
    lr_mult: 0
    decay_mult: 0
  }
  param {
    lr_mult: 0
    decay_mult: 0
  }
  batch_norm_param {
    use_global_stats: false
  }
}
layer {
  name: "scale2"
  type: "Scale"
  bottom: "bn2"
  top: "scale2"
  scale_param {
    bias_term: true
  }
}
layer {
  name: "relu2"
  type: "ReLU"
  bottom: "scale2"
  top: "relu2"
}
layer {
  name: "pool2"
  type: "Pooling"
  bottom: "relu2"
  top: "pool2"
  pooling_param {
    pool: MAX
    kernel_size: 3
    stride: 2
  }
}
layer {
  name: "conv3"
  type: "Convolution"
  bottom: "pool2"
  top: "conv3"
  param {
    lr_mult: 1
    decay_mult: 1
  }
  param {
    lr_mult: 2
    decay_mult: 0
  }
  convolution_param {
    num_output: 384
    pad: 1
    kernel_size: 3
    weight_filler {
      type: "gaussian"
      std: 0.01
    }
    bias_filler {
      type: "constant"
      value: 0
    }
  }
}
layer {
  name: "relu3"
  type: "ReLU"
  bottom: "conv3"
  top: "relu3"
}
layer {
  name: "conv4"
  type: "Convolution"
  bottom: "relu3"
  top: "conv4"
  param {
    lr_mult: 1
    decay_mult: 1
  }
  param {
    lr_mult: 2
    decay_mult: 0
  }
  convolution_param {
    num_output: 384
    pad: 1
    kernel_size: 3
    group: 1
    weight_filler {
      type: "gaussian"
      std: 0.01
    }
    bias_filler {
      type: "constant"
      value: 1
    }
  }
}
layer {
  name: "relu4"
  type: "ReLU"
  bottom: "conv4"
  top: "relu4"
}
layer {
  name: "conv5"
  type: "Convolution"
  bottom: "relu4"
  top: "conv5"
  param {
    lr_mult: 1
    decay_mult: 1
  }
  param {
    lr_mult: 2
    decay_mult: 0
  }
  convolution_param {
    num_output: 256
    pad: 1
    kernel_size: 3
    group: 1
    weight_filler {
      type: "gaussian"
      std: 0.01
    }
    bias_filler {
      type: "constant"
      value: 1
    }
  }
}
layer {
  name: "relu5"
  type: "ReLU"
  bottom: "conv5"
  top: "relu5"
}
layer {
  name: "pool5"
  type: "Pooling"
  bottom: "relu5"
  top: "pool5"
  pooling_param {
    pool: MAX
    kernel_size: 3
    stride: 2
  }
}
layer {
  name: "fc6"
  type: "InnerProduct"
  bottom: "pool5"
  top: "fc6"
  param {
    lr_mult: 1
    decay_mult: 1
  }
  param {
    lr_mult: 2
    decay_mult: 0
  }
  inner_product_param {
    num_output: 4096
    weight_filler {
      type: "gaussian"
      std: 0.005
    }
    bias_filler {
      type: "constant"
      value: 1
    }
  }
}
layer {
  name: "relu6"
  type: "ReLU"
  bottom: "fc6"
  top: "relu6"
}
layer {
  name: "drop6"
  type: "Dropout"
  bottom: "relu6"
  top: "drop6"
  dropout_param {
    dropout_ratio: 0.5
  }
}
layer {
  name: "fc7"
  type: "InnerProduct"
  bottom: "drop6"
  top: "fc7"
  param {
    lr_mult: 1
    decay_mult: 1
  }
  param {
    lr_mult: 2
    decay_mult: 0
  }
  inner_product_param {
    num_output: 4096
    weight_filler {
      type: "gaussian"
      std: 0.005
    }
    bias_filler {
      type: "constant"
      value: 1
    }
  }
}
layer {
  name: "bn7"
  type: "BatchNorm"
  bottom: "fc7"
  top: "bn7"
  param {
    lr_mult: 0
    decay_mult: 0
  }
  param {
    lr_mult: 0
    decay_mult: 0
  }
  param {
    lr_mult: 0
    decay_mult: 0
  }
  batch_norm_param {
    use_global_stats: false
  }
}
layer {
  name: "scale7"
  type: "Scale"
  bottom: "bn7"
  top: "scale7"
  scale_param {
    bias_term: true
  }
}
layer {
  name: "relu7"
  type: "ReLU"
  bottom: "scale7"
  top: "relu7"
}
layer {
  name: "drop7"
  type: "Dropout"
  bottom: "relu7"
  top: "drop7"
  dropout_param {
    dropout_ratio: 0.5
  }
}
layer {
  name: "fc8"
  type: "InnerProduct"
  bottom: "drop7"
  top: "fc8"
  param {
    lr_mult: 1
    decay_mult: 1
  }
  param {
    lr_mult: 2
    decay_mult: 0
  }
  inner_product_param {
    num_output: 2
    weight_filler {
      type: "gaussian"
      std: 0.01
    }
    bias_filler {
      type: "constant"
      value: 0
    }
  }
}
layer {
  name: "loss"
  type: "SoftmaxWithLoss"
  bottom: "fc8"
  bottom: "label"
  top: "loss"
}
I0123 15:38:12.097992 88172 layer_factory.hpp:77] Creating layer data
I0123 15:38:12.098080 88172 db_lmdb.cpp:35] Opened lmdb cats-vs-dogs/input/lmdb/train_lmdb
I0123 15:38:12.098105 88172 net.cpp:84] Creating Layer data
I0123 15:38:12.098114 88172 net.cpp:380] data -> data
I0123 15:38:12.098134 88172 net.cpp:380] data -> label
I0123 15:38:12.099069 88172 data_layer.cpp:45] output data size: 256,3,227,227
I0123 15:38:12.288043 88172 net.cpp:122] Setting up data
I0123 15:38:12.288069 88172 net.cpp:129] Top shape: 256 3 227 227 (39574272)
I0123 15:38:12.288074 88172 net.cpp:129] Top shape: 256 (256)
I0123 15:38:12.288075 88172 net.cpp:137] Memory required for data: 158298112
I0123 15:38:12.288100 88172 layer_factory.hpp:77] Creating layer conv1
I0123 15:38:12.288120 88172 net.cpp:84] Creating Layer conv1
I0123 15:38:12.288142 88172 net.cpp:406] conv1 <- data
I0123 15:38:12.288154 88172 net.cpp:380] conv1 -> conv1
I0123 15:38:12.845278 88172 net.cpp:122] Setting up conv1
I0123 15:38:12.845301 88172 net.cpp:129] Top shape: 256 96 55 55 (74342400)
I0123 15:38:12.845304 88172 net.cpp:137] Memory required for data: 455667712
I0123 15:38:12.845319 88172 layer_factory.hpp:77] Creating layer bn1
I0123 15:38:12.845329 88172 net.cpp:84] Creating Layer bn1
I0123 15:38:12.845332 88172 net.cpp:406] bn1 <- conv1
I0123 15:38:12.845337 88172 net.cpp:380] bn1 -> bn1
I0123 15:38:12.845531 88172 net.cpp:122] Setting up bn1
I0123 15:38:12.845537 88172 net.cpp:129] Top shape: 256 96 55 55 (74342400)
I0123 15:38:12.845541 88172 net.cpp:137] Memory required for data: 753037312
I0123 15:38:12.845548 88172 layer_factory.hpp:77] Creating layer scale1
I0123 15:38:12.845553 88172 net.cpp:84] Creating Layer scale1
I0123 15:38:12.845556 88172 net.cpp:406] scale1 <- bn1
I0123 15:38:12.845561 88172 net.cpp:380] scale1 -> scale1
I0123 15:38:12.845590 88172 layer_factory.hpp:77] Creating layer scale1
I0123 15:38:12.845710 88172 net.cpp:122] Setting up scale1
I0123 15:38:12.845716 88172 net.cpp:129] Top shape: 256 96 55 55 (74342400)
I0123 15:38:12.845719 88172 net.cpp:137] Memory required for data: 1050406912
I0123 15:38:12.845724 88172 layer_factory.hpp:77] Creating layer relu1
I0123 15:38:12.845729 88172 net.cpp:84] Creating Layer relu1
I0123 15:38:12.845732 88172 net.cpp:406] relu1 <- scale1
I0123 15:38:12.845736 88172 net.cpp:380] relu1 -> relu1
I0123 15:38:12.845971 88172 net.cpp:122] Setting up relu1
I0123 15:38:12.845979 88172 net.cpp:129] Top shape: 256 96 55 55 (74342400)
I0123 15:38:12.845981 88172 net.cpp:137] Memory required for data: 1347776512
I0123 15:38:12.845985 88172 layer_factory.hpp:77] Creating layer pool1
I0123 15:38:12.845990 88172 net.cpp:84] Creating Layer pool1
I0123 15:38:12.845993 88172 net.cpp:406] pool1 <- relu1
I0123 15:38:12.845998 88172 net.cpp:380] pool1 -> pool1
I0123 15:38:12.846035 88172 net.cpp:122] Setting up pool1
I0123 15:38:12.846041 88172 net.cpp:129] Top shape: 256 96 27 27 (17915904)
I0123 15:38:12.846045 88172 net.cpp:137] Memory required for data: 1419440128
I0123 15:38:12.846047 88172 layer_factory.hpp:77] Creating layer conv2
I0123 15:38:12.846055 88172 net.cpp:84] Creating Layer conv2
I0123 15:38:12.846058 88172 net.cpp:406] conv2 <- pool1
I0123 15:38:12.846062 88172 net.cpp:380] conv2 -> conv2
I0123 15:38:12.852139 88172 net.cpp:122] Setting up conv2
I0123 15:38:12.852154 88172 net.cpp:129] Top shape: 256 256 27 27 (47775744)
I0123 15:38:12.852155 88172 net.cpp:137] Memory required for data: 1610543104
I0123 15:38:12.852164 88172 layer_factory.hpp:77] Creating layer bn2
I0123 15:38:12.852170 88172 net.cpp:84] Creating Layer bn2
I0123 15:38:12.852174 88172 net.cpp:406] bn2 <- conv2
I0123 15:38:12.852178 88172 net.cpp:380] bn2 -> bn2
I0123 15:38:12.852329 88172 net.cpp:122] Setting up bn2
I0123 15:38:12.852334 88172 net.cpp:129] Top shape: 256 256 27 27 (47775744)
I0123 15:38:12.852336 88172 net.cpp:137] Memory required for data: 1801646080
I0123 15:38:12.852340 88172 layer_factory.hpp:77] Creating layer scale2
I0123 15:38:12.852346 88172 net.cpp:84] Creating Layer scale2
I0123 15:38:12.852349 88172 net.cpp:406] scale2 <- bn2
I0123 15:38:12.852352 88172 net.cpp:380] scale2 -> scale2
I0123 15:38:12.852375 88172 layer_factory.hpp:77] Creating layer scale2
I0123 15:38:12.852463 88172 net.cpp:122] Setting up scale2
I0123 15:38:12.852468 88172 net.cpp:129] Top shape: 256 256 27 27 (47775744)
I0123 15:38:12.852471 88172 net.cpp:137] Memory required for data: 1992749056
I0123 15:38:12.852474 88172 layer_factory.hpp:77] Creating layer relu2
I0123 15:38:12.852478 88172 net.cpp:84] Creating Layer relu2
I0123 15:38:12.852481 88172 net.cpp:406] relu2 <- scale2
I0123 15:38:12.852486 88172 net.cpp:380] relu2 -> relu2
I0123 15:38:12.852679 88172 net.cpp:122] Setting up relu2
I0123 15:38:12.852684 88172 net.cpp:129] Top shape: 256 256 27 27 (47775744)
I0123 15:38:12.852686 88172 net.cpp:137] Memory required for data: 2183852032
I0123 15:38:12.852699 88172 layer_factory.hpp:77] Creating layer pool2
I0123 15:38:12.852704 88172 net.cpp:84] Creating Layer pool2
I0123 15:38:12.852706 88172 net.cpp:406] pool2 <- relu2
I0123 15:38:12.852711 88172 net.cpp:380] pool2 -> pool2
I0123 15:38:12.852739 88172 net.cpp:122] Setting up pool2
I0123 15:38:12.852746 88172 net.cpp:129] Top shape: 256 256 13 13 (11075584)
I0123 15:38:12.852748 88172 net.cpp:137] Memory required for data: 2228154368
I0123 15:38:12.852751 88172 layer_factory.hpp:77] Creating layer conv3
I0123 15:38:12.852757 88172 net.cpp:84] Creating Layer conv3
I0123 15:38:12.852759 88172 net.cpp:406] conv3 <- pool2
I0123 15:38:12.852763 88172 net.cpp:380] conv3 -> conv3
I0123 15:38:12.860596 88172 net.cpp:122] Setting up conv3
I0123 15:38:12.860611 88172 net.cpp:129] Top shape: 256 384 13 13 (16613376)
I0123 15:38:12.860613 88172 net.cpp:137] Memory required for data: 2294607872
I0123 15:38:12.860620 88172 layer_factory.hpp:77] Creating layer relu3
I0123 15:38:12.860625 88172 net.cpp:84] Creating Layer relu3
I0123 15:38:12.860627 88172 net.cpp:406] relu3 <- conv3
I0123 15:38:12.860632 88172 net.cpp:380] relu3 -> relu3
I0123 15:38:12.860940 88172 net.cpp:122] Setting up relu3
I0123 15:38:12.860949 88172 net.cpp:129] Top shape: 256 384 13 13 (16613376)
I0123 15:38:12.860950 88172 net.cpp:137] Memory required for data: 2361061376
I0123 15:38:12.860954 88172 layer_factory.hpp:77] Creating layer conv4
I0123 15:38:12.860961 88172 net.cpp:84] Creating Layer conv4
I0123 15:38:12.860965 88172 net.cpp:406] conv4 <- relu3
I0123 15:38:12.860968 88172 net.cpp:380] conv4 -> conv4
I0123 15:38:12.871105 88172 net.cpp:122] Setting up conv4
I0123 15:38:12.871117 88172 net.cpp:129] Top shape: 256 384 13 13 (16613376)
I0123 15:38:12.871119 88172 net.cpp:137] Memory required for data: 2427514880
I0123 15:38:12.871145 88172 layer_factory.hpp:77] Creating layer relu4
I0123 15:38:12.871150 88172 net.cpp:84] Creating Layer relu4
I0123 15:38:12.871151 88172 net.cpp:406] relu4 <- conv4
I0123 15:38:12.871166 88172 net.cpp:380] relu4 -> relu4
I0123 15:38:12.871362 88172 net.cpp:122] Setting up relu4
I0123 15:38:12.871369 88172 net.cpp:129] Top shape: 256 384 13 13 (16613376)
I0123 15:38:12.871372 88172 net.cpp:137] Memory required for data: 2493968384
I0123 15:38:12.871374 88172 layer_factory.hpp:77] Creating layer conv5
I0123 15:38:12.871382 88172 net.cpp:84] Creating Layer conv5
I0123 15:38:12.871384 88172 net.cpp:406] conv5 <- relu4
I0123 15:38:12.871389 88172 net.cpp:380] conv5 -> conv5
I0123 15:38:12.879031 88172 net.cpp:122] Setting up conv5
I0123 15:38:12.879043 88172 net.cpp:129] Top shape: 256 256 13 13 (11075584)
I0123 15:38:12.879046 88172 net.cpp:137] Memory required for data: 2538270720
I0123 15:38:12.879050 88172 layer_factory.hpp:77] Creating layer relu5
I0123 15:38:12.879057 88172 net.cpp:84] Creating Layer relu5
I0123 15:38:12.879060 88172 net.cpp:406] relu5 <- conv5
I0123 15:38:12.879065 88172 net.cpp:380] relu5 -> relu5
I0123 15:38:12.879288 88172 net.cpp:122] Setting up relu5
I0123 15:38:12.879295 88172 net.cpp:129] Top shape: 256 256 13 13 (11075584)
I0123 15:38:12.879298 88172 net.cpp:137] Memory required for data: 2582573056
I0123 15:38:12.879302 88172 layer_factory.hpp:77] Creating layer pool5
I0123 15:38:12.879307 88172 net.cpp:84] Creating Layer pool5
I0123 15:38:12.879308 88172 net.cpp:406] pool5 <- relu5
I0123 15:38:12.879312 88172 net.cpp:380] pool5 -> pool5
I0123 15:38:12.879343 88172 net.cpp:122] Setting up pool5
I0123 15:38:12.879348 88172 net.cpp:129] Top shape: 256 256 6 6 (2359296)
I0123 15:38:12.879351 88172 net.cpp:137] Memory required for data: 2592010240
I0123 15:38:12.879354 88172 layer_factory.hpp:77] Creating layer fc6
I0123 15:38:12.879360 88172 net.cpp:84] Creating Layer fc6
I0123 15:38:12.879362 88172 net.cpp:406] fc6 <- pool5
I0123 15:38:12.879367 88172 net.cpp:380] fc6 -> fc6
I0123 15:38:13.134475 88172 net.cpp:122] Setting up fc6
I0123 15:38:13.134495 88172 net.cpp:129] Top shape: 256 4096 (1048576)
I0123 15:38:13.134497 88172 net.cpp:137] Memory required for data: 2596204544
I0123 15:38:13.134536 88172 layer_factory.hpp:77] Creating layer relu6
I0123 15:38:13.134544 88172 net.cpp:84] Creating Layer relu6
I0123 15:38:13.134547 88172 net.cpp:406] relu6 <- fc6
I0123 15:38:13.134553 88172 net.cpp:380] relu6 -> relu6
I0123 15:38:13.135025 88172 net.cpp:122] Setting up relu6
I0123 15:38:13.135035 88172 net.cpp:129] Top shape: 256 4096 (1048576)
I0123 15:38:13.135038 88172 net.cpp:137] Memory required for data: 2600398848
I0123 15:38:13.135040 88172 layer_factory.hpp:77] Creating layer drop6
I0123 15:38:13.135046 88172 net.cpp:84] Creating Layer drop6
I0123 15:38:13.135049 88172 net.cpp:406] drop6 <- relu6
I0123 15:38:13.135053 88172 net.cpp:380] drop6 -> drop6
I0123 15:38:13.135098 88172 net.cpp:122] Setting up drop6
I0123 15:38:13.135102 88172 net.cpp:129] Top shape: 256 4096 (1048576)
I0123 15:38:13.135107 88172 net.cpp:137] Memory required for data: 2604593152
I0123 15:38:13.135108 88172 layer_factory.hpp:77] Creating layer fc7
I0123 15:38:13.135113 88172 net.cpp:84] Creating Layer fc7
I0123 15:38:13.135116 88172 net.cpp:406] fc7 <- drop6
I0123 15:38:13.135123 88172 net.cpp:380] fc7 -> fc7
I0123 15:38:13.250969 88172 net.cpp:122] Setting up fc7
I0123 15:38:13.250989 88172 net.cpp:129] Top shape: 256 4096 (1048576)
I0123 15:38:13.250991 88172 net.cpp:137] Memory required for data: 2608787456
I0123 15:38:13.251016 88172 layer_factory.hpp:77] Creating layer bn7
I0123 15:38:13.251024 88172 net.cpp:84] Creating Layer bn7
I0123 15:38:13.251027 88172 net.cpp:406] bn7 <- fc7
I0123 15:38:13.251034 88172 net.cpp:380] bn7 -> bn7
I0123 15:38:13.251178 88172 net.cpp:122] Setting up bn7
I0123 15:38:13.251181 88172 net.cpp:129] Top shape: 256 4096 (1048576)
I0123 15:38:13.251183 88172 net.cpp:137] Memory required for data: 2612981760
I0123 15:38:13.251188 88172 layer_factory.hpp:77] Creating layer scale7
I0123 15:38:13.251193 88172 net.cpp:84] Creating Layer scale7
I0123 15:38:13.251194 88172 net.cpp:406] scale7 <- bn7
I0123 15:38:13.251199 88172 net.cpp:380] scale7 -> scale7
I0123 15:38:13.251220 88172 layer_factory.hpp:77] Creating layer scale7
I0123 15:38:13.251304 88172 net.cpp:122] Setting up scale7
I0123 15:38:13.251309 88172 net.cpp:129] Top shape: 256 4096 (1048576)
I0123 15:38:13.251312 88172 net.cpp:137] Memory required for data: 2617176064
I0123 15:38:13.251314 88172 layer_factory.hpp:77] Creating layer relu7
I0123 15:38:13.251318 88172 net.cpp:84] Creating Layer relu7
I0123 15:38:13.251320 88172 net.cpp:406] relu7 <- scale7
I0123 15:38:13.251324 88172 net.cpp:380] relu7 -> relu7
I0123 15:38:13.251560 88172 net.cpp:122] Setting up relu7
I0123 15:38:13.251566 88172 net.cpp:129] Top shape: 256 4096 (1048576)
I0123 15:38:13.251569 88172 net.cpp:137] Memory required for data: 2621370368
I0123 15:38:13.251570 88172 layer_factory.hpp:77] Creating layer drop7
I0123 15:38:13.251574 88172 net.cpp:84] Creating Layer drop7
I0123 15:38:13.251576 88172 net.cpp:406] drop7 <- relu7
I0123 15:38:13.251581 88172 net.cpp:380] drop7 -> drop7
I0123 15:38:13.251606 88172 net.cpp:122] Setting up drop7
I0123 15:38:13.251610 88172 net.cpp:129] Top shape: 256 4096 (1048576)
I0123 15:38:13.251613 88172 net.cpp:137] Memory required for data: 2625564672
I0123 15:38:13.251616 88172 layer_factory.hpp:77] Creating layer fc8
I0123 15:38:13.251621 88172 net.cpp:84] Creating Layer fc8
I0123 15:38:13.251622 88172 net.cpp:406] fc8 <- drop7
I0123 15:38:13.251626 88172 net.cpp:380] fc8 -> fc8
I0123 15:38:13.252373 88172 net.cpp:122] Setting up fc8
I0123 15:38:13.252382 88172 net.cpp:129] Top shape: 256 2 (512)
I0123 15:38:13.252384 88172 net.cpp:137] Memory required for data: 2625566720
I0123 15:38:13.252390 88172 layer_factory.hpp:77] Creating layer loss
I0123 15:38:13.252396 88172 net.cpp:84] Creating Layer loss
I0123 15:38:13.252399 88172 net.cpp:406] loss <- fc8
I0123 15:38:13.252403 88172 net.cpp:406] loss <- label
I0123 15:38:13.252408 88172 net.cpp:380] loss -> loss
I0123 15:38:13.252418 88172 layer_factory.hpp:77] Creating layer loss
…
I0123 15:38:13.253161 88172 net.cpp:294] The NetState phase (1) differed from the phase (0) specified by a rule in layer data
I0123 15:38:13.253319 88172 net.cpp:51] Initializing net from parameters: 
name: "alexnetBNnoLRN m2 (as m3 but less DROP and less BN)"
state {
  phase: TEST
}
layer {
  name: "data"
  type: "Data"
  top: "data"
  top: "label"
  include {
    phase: TEST
  }
  transform_param {
    mirror: false
    crop_size: 227
    mean_value: 106
    mean_value: 116
    mean_value: 124
  }
  data_param {
    source: "cats-vs-dogs/input/lmdb/valid_lmdb"
    batch_size: 50
    backend: LMDB
  }
}
layer {
  name: "conv1"
  type: "Convolution"
  bottom: "data"
  top: "conv1"
  param {
    lr_mult: 1
    decay_mult: 1
  }
  param {
    lr_mult: 2
    decay_mult: 0
  }
  convolution_param {
    num_output: 96
    pad: 1
    kernel_size: 11
    stride: 4
    weight_filler {
      type: "gaussian"
      std: 0.01
    }
    bias_filler {
      type: "constant"
      value: 0
    }
  }
}
layer {
  name: "bn1"
  type: "BatchNorm"
  bottom: "conv1"
  top: "bn1"
  param {
    lr_mult: 0
    decay_mult: 0
  }
  param {
    lr_mult: 0
    decay_mult: 0
  }
  param {
    lr_mult: 0
    decay_mult: 0
  }
  batch_norm_param {
    use_global_stats: false
  }
}
layer {
  name: "scale1"
  type: "Scale"
  bottom: "bn1"
  top: "scale1"
  scale_param {
    bias_term: true
  }
}
layer {
  name: "relu1"
  type: "ReLU"
  bottom: "scale1"
  top: "relu1"
}
layer {
  name: "pool1"
  type: "Pooling"
  bottom: "relu1"
  top: "pool1"
  pooling_param {
    pool: MAX
    kernel_size: 3
    stride: 2
  }
}
layer {
  name: "conv2"
  type: "Convolution"
  bottom: "pool1"
  top: "conv2"
  param {
    lr_mult: 1
    decay_mult: 1
  }
  param {
    lr_mult: 2
    decay_mult: 0
  }
  convolution_param {
    num_output: 256
    pad: 2
    kernel_size: 5
    group: 1
    weight_filler {
      type: "gaussian"
      std: 0.01
    }
    bias_filler {
      type: "constant"
      value: 1
    }
  }
}
layer {
  name: "bn2"
  type: "BatchNorm"
  bottom: "conv2"
  top: "bn2"
  param {
    lr_mult: 0
    decay_mult: 0
  }
  param {
    lr_mult: 0
    decay_mult: 0
  }
  param {
    lr_mult: 0
    decay_mult: 0
  }
  batch_norm_param {
    use_global_stats: false
  }
}
layer {
  name: "scale2"
  type: "Scale"
  bottom: "bn2"
  top: "scale2"
  scale_param {
    bias_term: true
  }
}
layer {
  name: "relu2"
  type: "ReLU"
  bottom: "scale2"
  top: "relu2"
}
layer {
  name: "pool2"
  type: "Pooling"
  bottom: "relu2"
  top: "pool2"
  pooling_param {
    pool: MAX
    kernel_size: 3
    stride: 2
  }
}
layer {
  name: "conv3"
  type: "Convolution"
  bottom: "pool2"
  top: "conv3"
  param {
    lr_mult: 1
    decay_mult: 1
  }
  param {
    lr_mult: 2
    decay_mult: 0
  }
  convolution_param {
    num_output: 384
    pad: 1
    kernel_size: 3
    weight_filler {
      type: "gaussian"
      std: 0.01
    }
    bias_filler {
      type: "constant"
      value: 0
    }
  }
}
layer {
  name: "relu3"
  type: "ReLU"
  bottom: "conv3"
  top: "relu3"
}
layer {
  name: "conv4"
  type: "Convolution"
  bottom: "relu3"
  top: "conv4"
  param {
    lr_mult: 1
    decay_mult: 1
  }
  param {
    lr_mult: 2
    decay_mult: 0
  }
  convolution_param {
    num_output: 384
    pad: 1
    kernel_size: 3
    group: 1
    weight_filler {
      type: "gaussian"
      std: 0.01
    }
    bias_filler {
      type: "constant"
      value: 1
    }
  }
}
layer {
  name: "relu4"
  type: "ReLU"
  bottom: "conv4"
  top: "relu4"
}
layer {
  name: "conv5"
  type: "Convolution"
  bottom: "relu4"
  top: "conv5"
  param {
    lr_mult: 1
    decay_mult: 1
  }
  param {
    lr_mult: 2
    decay_mult: 0
  }
  convolution_param {
    num_output: 256
    pad: 1
    kernel_size: 3
    group: 1
    weight_filler {
      type: "gaussian"
      std: 0.01
    }
    bias_filler {
      type: "constant"
      value: 1
    }
  }
}
layer {
  name: "relu5"
  type: "ReLU"
  bottom: "conv5"
  top: "relu5"
}
layer {
  name: "pool5"
  type: "Pooling"
  bottom: "relu5"
  top: "pool5"
  pooling_param {
    pool: MAX
    kernel_size: 3
    stride: 2
  }
}
layer {
  name: "fc6"
  type: "InnerProduct"
  bottom: "pool5"
  top: "fc6"
  param {
    lr_mult: 1
    decay_mult: 1
  }
  param {
    lr_mult: 2
    decay_mult: 0
  }
  inner_product_param {
    num_output: 4096
    weight_filler {
      type: "gaussian"
      std: 0.005
    }
    bias_filler {
      type: "constant"
      value: 1
    }
  }
}
layer {
  name: "relu6"
  type: "ReLU"
  bottom: "fc6"
  top: "relu6"
}
layer {
  name: "drop6"
  type: "Dropout"
  bottom: "relu6"
  top: "drop6"
  dropout_param {
    dropout_ratio: 0.5
  }
}
layer {
  name: "fc7"
  type: "InnerProduct"
  bottom: "drop6"
  top: "fc7"
  param {
    lr_mult: 1
    decay_mult: 1
  }
  param {
    lr_mult: 2
    decay_mult: 0
  }
  inner_product_param {
    num_output: 4096
    weight_filler {
      type: "gaussian"
      std: 0.005
    }
    bias_filler {
      type: "constant"
      value: 1
    }
  }
}
layer {
  name: "bn7"
  type: "BatchNorm"
  bottom: "fc7"
  top: "bn7"
  param {
    lr_mult: 0
    decay_mult: 0
  }
  param {
    lr_mult: 0
    decay_mult: 0
  }
  param {
    lr_mult: 0
    decay_mult: 0
  }
  batch_norm_param {
    use_global_stats: false
  }
}
layer {
  name: "scale7"
  type: "Scale"
  bottom: "bn7"
  top: "scale7"
  scale_param {
    bias_term: true
  }
}
layer {
  name: "relu7"
  type: "ReLU"
  bottom: "scale7"
  top: "relu7"
}
layer {
  name: "drop7"
  type: "Dropout"
  bottom: "relu7"
  top: "drop7"
  dropout_param {
    dropout_ratio: 0.5
  }
}
layer {
  name: "fc8"
  type: "InnerProduct"
  bottom: "drop7"
  top: "fc8"
  param {
    lr_mult: 1
    decay_mult: 1
  }
  param {
    lr_mult: 2
    decay_mult: 0
  }
  inner_product_param {
    num_output: 2
    weight_filler {
      type: "gaussian"
      std: 0.01
    }
    bias_filler {
      type: "constant"
      value: 0
    }
  }
}
layer {
  name: "accuracy"
  type: "Accuracy"
  bottom: "fc8"
  bottom: "label"
  top: "accuracy"
  include {
    phase: TEST
  }
}
layer {
  name: "loss"
  type: "SoftmaxWithLoss"
  bottom: "fc8"
  bottom: "label"
  top: "loss"
}
layer {
  name: "accuracy-top1"
  type: "Accuracy"
  bottom: "fc8"
  bottom: "label"
  top: "top-1"
  include {
    phase: TEST
  }
}
I0123 15:38:13.253422 88172 layer_factory.hpp:77] Creating layer data
I0123 15:38:13.253471 88172 db_lmdb.cpp:35] Opened lmdb cats-vs-dogs/input/lmdb/valid_lmdb
I0123 15:38:13.253484 88172 net.cpp:84] Creating Layer data
I0123 15:38:13.253489 88172 net.cpp:380] data -> data
I0123 15:38:13.253496 88172 net.cpp:380] data -> label
I0123 15:38:13.253768 88172 data_layer.cpp:45] output data size: 50,3,227,227
I0123 15:38:13.293118 88172 net.cpp:122] Setting up data
I0123 15:38:13.293141 88172 net.cpp:129] Top shape: 50 3 227 227 (7729350)
I0123 15:38:13.293144 88172 net.cpp:129] Top shape: 50 (50)
I0123 15:38:13.293146 88172 net.cpp:137] Memory required for data: 30917600
I0123 15:38:13.293153 88172 layer_factory.hpp:77] Creating layer label_data_1_split
I0123 15:38:13.293164 88172 net.cpp:84] Creating Layer label_data_1_split
I0123 15:38:13.293182 88172 net.cpp:406] label_data_1_split <- label
I0123 15:38:13.293187 88172 net.cpp:380] label_data_1_split -> label_data_1_split_0
I0123 15:38:13.293195 88172 net.cpp:380] label_data_1_split -> label_data_1_split_1
I0123 15:38:13.293200 88172 net.cpp:380] label_data_1_split -> label_data_1_split_2
I0123 15:38:13.293256 88172 net.cpp:122] Setting up label_data_1_split
I0123 15:38:13.293260 88172 net.cpp:129] Top shape: 50 (50)
I0123 15:38:13.293263 88172 net.cpp:129] Top shape: 50 (50)
I0123 15:38:13.293265 88172 net.cpp:129] Top shape: 50 (50)
I0123 15:38:13.293267 88172 net.cpp:137] Memory required for data: 30918200
I0123 15:38:13.293269 88172 layer_factory.hpp:77] Creating layer conv1
I0123 15:38:13.293279 88172 net.cpp:84] Creating Layer conv1
I0123 15:38:13.293283 88172 net.cpp:406] conv1 <- data
I0123 15:38:13.293287 88172 net.cpp:380] conv1 -> conv1
I0123 15:38:13.294620 88172 net.cpp:122] Setting up conv1
I0123 15:38:13.294631 88172 net.cpp:129] Top shape: 50 96 55 55 (14520000)
I0123 15:38:13.294633 88172 net.cpp:137] Memory required for data: 88998200
I0123 15:38:13.294642 88172 layer_factory.hpp:77] Creating layer bn1
I0123 15:38:13.294647 88172 net.cpp:84] Creating Layer bn1
I0123 15:38:13.294651 88172 net.cpp:406] bn1 <- conv1
I0123 15:38:13.294654 88172 net.cpp:380] bn1 -> bn1
I0123 15:38:13.294929 88172 net.cpp:122] Setting up bn1
I0123 15:38:13.294934 88172 net.cpp:129] Top shape: 50 96 55 55 (14520000)
I0123 15:38:13.294937 88172 net.cpp:137] Memory required for data: 147078200
I0123 15:38:13.294945 88172 layer_factory.hpp:77] Creating layer scale1
I0123 15:38:13.294951 88172 net.cpp:84] Creating Layer scale1
I0123 15:38:13.294955 88172 net.cpp:406] scale1 <- bn1
I0123 15:38:13.294957 88172 net.cpp:380] scale1 -> scale1
I0123 15:38:13.294989 88172 layer_factory.hpp:77] Creating layer scale1
I0123 15:38:13.295089 88172 net.cpp:122] Setting up scale1
I0123 15:38:13.295094 88172 net.cpp:129] Top shape: 50 96 55 55 (14520000)
I0123 15:38:13.295097 88172 net.cpp:137] Memory required for data: 205158200
I0123 15:38:13.295101 88172 layer_factory.hpp:77] Creating layer relu1
I0123 15:38:13.295105 88172 net.cpp:84] Creating Layer relu1
I0123 15:38:13.295107 88172 net.cpp:406] relu1 <- scale1
I0123 15:38:13.295122 88172 net.cpp:380] relu1 -> relu1
I0123 15:38:13.297698 88172 net.cpp:122] Setting up relu1
I0123 15:38:13.297705 88172 net.cpp:129] Top shape: 50 96 55 55 (14520000)
I0123 15:38:13.297708 88172 net.cpp:137] Memory required for data: 263238200
I0123 15:38:13.297709 88172 layer_factory.hpp:77] Creating layer pool1
I0123 15:38:13.297714 88172 net.cpp:84] Creating Layer pool1
I0123 15:38:13.297716 88172 net.cpp:406] pool1 <- relu1
I0123 15:38:13.297719 88172 net.cpp:380] pool1 -> pool1
I0123 15:38:13.297744 88172 net.cpp:122] Setting up pool1
I0123 15:38:13.297749 88172 net.cpp:129] Top shape: 50 96 27 27 (3499200)
I0123 15:38:13.297750 88172 net.cpp:137] Memory required for data: 277235000
I0123 15:38:13.297752 88172 layer_factory.hpp:77] Creating layer conv2
I0123 15:38:13.297757 88172 net.cpp:84] Creating Layer conv2
I0123 15:38:13.297760 88172 net.cpp:406] conv2 <- pool1
I0123 15:38:13.297763 88172 net.cpp:380] conv2 -> conv2
I0123 15:38:13.303086 88172 net.cpp:122] Setting up conv2
I0123 15:38:13.303097 88172 net.cpp:129] Top shape: 50 256 27 27 (9331200)
I0123 15:38:13.303099 88172 net.cpp:137] Memory required for data: 314559800
I0123 15:38:13.303107 88172 layer_factory.hpp:77] Creating layer bn2
I0123 15:38:13.303130 88172 net.cpp:84] Creating Layer bn2
I0123 15:38:13.303143 88172 net.cpp:406] bn2 <- conv2
I0123 15:38:13.303148 88172 net.cpp:380] bn2 -> bn2
I0123 15:38:13.303339 88172 net.cpp:122] Setting up bn2
I0123 15:38:13.303344 88172 net.cpp:129] Top shape: 50 256 27 27 (9331200)
I0123 15:38:13.303346 88172 net.cpp:137] Memory required for data: 351884600
I0123 15:38:13.303351 88172 layer_factory.hpp:77] Creating layer scale2
I0123 15:38:13.303356 88172 net.cpp:84] Creating Layer scale2
I0123 15:38:13.303359 88172 net.cpp:406] scale2 <- bn2
I0123 15:38:13.303362 88172 net.cpp:380] scale2 -> scale2
I0123 15:38:13.303393 88172 layer_factory.hpp:77] Creating layer scale2
I0123 15:38:13.303483 88172 net.cpp:122] Setting up scale2
I0123 15:38:13.303488 88172 net.cpp:129] Top shape: 50 256 27 27 (9331200)
I0123 15:38:13.303490 88172 net.cpp:137] Memory required for data: 389209400
I0123 15:38:13.303494 88172 layer_factory.hpp:77] Creating layer relu2
I0123 15:38:13.303499 88172 net.cpp:84] Creating Layer relu2
I0123 15:38:13.303501 88172 net.cpp:406] relu2 <- scale2
I0123 15:38:13.303505 88172 net.cpp:380] relu2 -> relu2
I0123 15:38:13.303877 88172 net.cpp:122] Setting up relu2
I0123 15:38:13.303886 88172 net.cpp:129] Top shape: 50 256 27 27 (9331200)
I0123 15:38:13.303889 88172 net.cpp:137] Memory required for data: 426534200
I0123 15:38:13.303891 88172 layer_factory.hpp:77] Creating layer pool2
I0123 15:38:13.303898 88172 net.cpp:84] Creating Layer pool2
I0123 15:38:13.303900 88172 net.cpp:406] pool2 <- relu2
I0123 15:38:13.303905 88172 net.cpp:380] pool2 -> pool2
I0123 15:38:13.303936 88172 net.cpp:122] Setting up pool2
I0123 15:38:13.303941 88172 net.cpp:129] Top shape: 50 256 13 13 (2163200)
I0123 15:38:13.303943 88172 net.cpp:137] Memory required for data: 435187000
I0123 15:38:13.303946 88172 layer_factory.hpp:77] Creating layer conv3
I0123 15:38:13.303953 88172 net.cpp:84] Creating Layer conv3
I0123 15:38:13.303956 88172 net.cpp:406] conv3 <- pool2
I0123 15:38:13.303962 88172 net.cpp:380] conv3 -> conv3
I0123 15:38:13.311810 88172 net.cpp:122] Setting up conv3
I0123 15:38:13.311822 88172 net.cpp:129] Top shape: 50 384 13 13 (3244800)
I0123 15:38:13.311825 88172 net.cpp:137] Memory required for data: 448166200
I0123 15:38:13.311830 88172 layer_factory.hpp:77] Creating layer relu3
I0123 15:38:13.311834 88172 net.cpp:84] Creating Layer relu3
I0123 15:38:13.311837 88172 net.cpp:406] relu3 <- conv3
I0123 15:38:13.311842 88172 net.cpp:380] relu3 -> relu3
I0123 15:38:13.312057 88172 net.cpp:122] Setting up relu3
I0123 15:38:13.312064 88172 net.cpp:129] Top shape: 50 384 13 13 (3244800)
I0123 15:38:13.312067 88172 net.cpp:137] Memory required for data: 461145400
I0123 15:38:13.312070 88172 layer_factory.hpp:77] Creating layer conv4
I0123 15:38:13.312078 88172 net.cpp:84] Creating Layer conv4
I0123 15:38:13.312091 88172 net.cpp:406] conv4 <- relu3
I0123 15:38:13.312098 88172 net.cpp:380] conv4 -> conv4
I0123 15:38:13.322621 88172 net.cpp:122] Setting up conv4
I0123 15:38:13.322633 88172 net.cpp:129] Top shape: 50 384 13 13 (3244800)
I0123 15:38:13.322636 88172 net.cpp:137] Memory required for data: 474124600
I0123 15:38:13.322646 88172 layer_factory.hpp:77] Creating layer relu4
I0123 15:38:13.322651 88172 net.cpp:84] Creating Layer relu4
I0123 15:38:13.322654 88172 net.cpp:406] relu4 <- conv4
I0123 15:38:13.322659 88172 net.cpp:380] relu4 -> relu4
I0123 15:38:13.322877 88172 net.cpp:122] Setting up relu4
I0123 15:38:13.322885 88172 net.cpp:129] Top shape: 50 384 13 13 (3244800)
I0123 15:38:13.322887 88172 net.cpp:137] Memory required for data: 487103800
I0123 15:38:13.322890 88172 layer_factory.hpp:77] Creating layer conv5
I0123 15:38:13.322899 88172 net.cpp:84] Creating Layer conv5
I0123 15:38:13.322902 88172 net.cpp:406] conv5 <- relu4
I0123 15:38:13.322907 88172 net.cpp:380] conv5 -> conv5
I0123 15:38:13.330432 88172 net.cpp:122] Setting up conv5
I0123 15:38:13.330447 88172 net.cpp:129] Top shape: 50 256 13 13 (2163200)
I0123 15:38:13.330451 88172 net.cpp:137] Memory required for data: 495756600
I0123 15:38:13.330456 88172 layer_factory.hpp:77] Creating layer relu5
I0123 15:38:13.330462 88172 net.cpp:84] Creating Layer relu5
I0123 15:38:13.330466 88172 net.cpp:406] relu5 <- conv5
I0123 15:38:13.330471 88172 net.cpp:380] relu5 -> relu5
I0123 15:38:13.330821 88172 net.cpp:122] Setting up relu5
I0123 15:38:13.330829 88172 net.cpp:129] Top shape: 50 256 13 13 (2163200)
I0123 15:38:13.330832 88172 net.cpp:137] Memory required for data: 504409400
I0123 15:38:13.330834 88172 layer_factory.hpp:77] Creating layer pool5
I0123 15:38:13.330839 88172 net.cpp:84] Creating Layer pool5
I0123 15:38:13.330842 88172 net.cpp:406] pool5 <- relu5
I0123 15:38:13.330847 88172 net.cpp:380] pool5 -> pool5
I0123 15:38:13.330878 88172 net.cpp:122] Setting up pool5
I0123 15:38:13.330883 88172 net.cpp:129] Top shape: 50 256 6 6 (460800)
I0123 15:38:13.330885 88172 net.cpp:137] Memory required for data: 506252600
I0123 15:38:13.330888 88172 layer_factory.hpp:77] Creating layer fc6
I0123 15:38:13.330893 88172 net.cpp:84] Creating Layer fc6
I0123 15:38:13.330894 88172 net.cpp:406] fc6 <- pool5
I0123 15:38:13.330899 88172 net.cpp:380] fc6 -> fc6
I0123 15:38:13.584442 88172 net.cpp:122] Setting up fc6
I0123 15:38:13.584461 88172 net.cpp:129] Top shape: 50 4096 (204800)
I0123 15:38:13.584463 88172 net.cpp:137] Memory required for data: 507071800
I0123 15:38:13.584486 88172 layer_factory.hpp:77] Creating layer relu6
I0123 15:38:13.584493 88172 net.cpp:84] Creating Layer relu6
I0123 15:38:13.584496 88172 net.cpp:406] relu6 <- fc6
I0123 15:38:13.584501 88172 net.cpp:380] relu6 -> relu6
I0123 15:38:13.584765 88172 net.cpp:122] Setting up relu6
I0123 15:38:13.584770 88172 net.cpp:129] Top shape: 50 4096 (204800)
I0123 15:38:13.584774 88172 net.cpp:137] Memory required for data: 507891000
I0123 15:38:13.584775 88172 layer_factory.hpp:77] Creating layer drop6
I0123 15:38:13.584779 88172 net.cpp:84] Creating Layer drop6
I0123 15:38:13.584781 88172 net.cpp:406] drop6 <- relu6
I0123 15:38:13.584786 88172 net.cpp:380] drop6 -> drop6
I0123 15:38:13.584815 88172 net.cpp:122] Setting up drop6
I0123 15:38:13.584820 88172 net.cpp:129] Top shape: 50 4096 (204800)
I0123 15:38:13.584823 88172 net.cpp:137] Memory required for data: 508710200
I0123 15:38:13.584825 88172 layer_factory.hpp:77] Creating layer fc7
I0123 15:38:13.584830 88172 net.cpp:84] Creating Layer fc7
I0123 15:38:13.584832 88172 net.cpp:406] fc7 <- drop6
I0123 15:38:13.584837 88172 net.cpp:380] fc7 -> fc7
I0123 15:38:13.701496 88172 net.cpp:122] Setting up fc7
I0123 15:38:13.701517 88172 net.cpp:129] Top shape: 50 4096 (204800)
I0123 15:38:13.701520 88172 net.cpp:137] Memory required for data: 509529400
I0123 15:38:13.701527 88172 layer_factory.hpp:77] Creating layer bn7
I0123 15:38:13.701536 88172 net.cpp:84] Creating Layer bn7
I0123 15:38:13.701540 88172 net.cpp:406] bn7 <- fc7
I0123 15:38:13.701561 88172 net.cpp:380] bn7 -> bn7
I0123 15:38:13.701745 88172 net.cpp:122] Setting up bn7
I0123 15:38:13.701750 88172 net.cpp:129] Top shape: 50 4096 (204800)
I0123 15:38:13.701751 88172 net.cpp:137] Memory required for data: 510348600
I0123 15:38:13.701756 88172 layer_factory.hpp:77] Creating layer scale7
I0123 15:38:13.701761 88172 net.cpp:84] Creating Layer scale7
I0123 15:38:13.701762 88172 net.cpp:406] scale7 <- bn7
I0123 15:38:13.701766 88172 net.cpp:380] scale7 -> scale7
I0123 15:38:13.701793 88172 layer_factory.hpp:77] Creating layer scale7
I0123 15:38:13.701887 88172 net.cpp:122] Setting up scale7
I0123 15:38:13.701892 88172 net.cpp:129] Top shape: 50 4096 (204800)
I0123 15:38:13.701894 88172 net.cpp:137] Memory required for data: 511167800
I0123 15:38:13.701897 88172 layer_factory.hpp:77] Creating layer relu7
I0123 15:38:13.701901 88172 net.cpp:84] Creating Layer relu7
I0123 15:38:13.701908 88172 net.cpp:406] relu7 <- scale7
I0123 15:38:13.701911 88172 net.cpp:380] relu7 -> relu7
I0123 15:38:13.702155 88172 net.cpp:122] Setting up relu7
I0123 15:38:13.702160 88172 net.cpp:129] Top shape: 50 4096 (204800)
I0123 15:38:13.702164 88172 net.cpp:137] Memory required for data: 511987000
I0123 15:38:13.702167 88172 layer_factory.hpp:77] Creating layer drop7
I0123 15:38:13.702172 88172 net.cpp:84] Creating Layer drop7
I0123 15:38:13.702173 88172 net.cpp:406] drop7 <- relu7
I0123 15:38:13.702178 88172 net.cpp:380] drop7 -> drop7
I0123 15:38:13.702204 88172 net.cpp:122] Setting up drop7
I0123 15:38:13.702208 88172 net.cpp:129] Top shape: 50 4096 (204800)
I0123 15:38:13.702210 88172 net.cpp:137] Memory required for data: 512806200
I0123 15:38:13.702213 88172 layer_factory.hpp:77] Creating layer fc8
I0123 15:38:13.702217 88172 net.cpp:84] Creating Layer fc8
I0123 15:38:13.702219 88172 net.cpp:406] fc8 <- drop7
I0123 15:38:13.702224 88172 net.cpp:380] fc8 -> fc8
I0123 15:38:13.702360 88172 net.cpp:122] Setting up fc8
I0123 15:38:13.702364 88172 net.cpp:129] Top shape: 50 2 (100)
I0123 15:38:13.702366 88172 net.cpp:137] Memory required for data: 512806600
I0123 15:38:13.702370 88172 layer_factory.hpp:77] Creating layer fc8_fc8_0_split
I0123 15:38:13.702374 88172 net.cpp:84] Creating Layer fc8_fc8_0_split
I0123 15:38:13.702376 88172 net.cpp:406] fc8_fc8_0_split <- fc8
I0123 15:38:13.702381 88172 net.cpp:380] fc8_fc8_0_split -> fc8_fc8_0_split_0
I0123 15:38:13.702385 88172 net.cpp:380] fc8_fc8_0_split -> fc8_fc8_0_split_1
I0123 15:38:13.702395 88172 net.cpp:380] fc8_fc8_0_split -> fc8_fc8_0_split_2
I0123 15:38:13.702432 88172 net.cpp:122] Setting up fc8_fc8_0_split
I0123 15:38:13.702436 88172 net.cpp:129] Top shape: 50 2 (100)
I0123 15:38:13.702440 88172 net.cpp:129] Top shape: 50 2 (100)
I0123 15:38:13.702441 88172 net.cpp:129] Top shape: 50 2 (100)
I0123 15:38:13.702443 88172 net.cpp:137] Memory required for data: 512807800
I0123 15:38:13.702445 88172 layer_factory.hpp:77] Creating layer accuracy
I0123 15:38:13.702450 88172 net.cpp:84] Creating Layer accuracy
I0123 15:38:13.702452 88172 net.cpp:406] accuracy <- fc8_fc8_0_split_0
I0123 15:38:13.702455 88172 net.cpp:406] accuracy <- label_data_1_split_0
I0123 15:38:13.702458 88172 net.cpp:380] accuracy -> accuracy
…
I0123 17:23:20.918561 89320 upgrade_proto.cpp:79] Attempting to upgrade batch norm layers using deprecated params: cats-vs-dogs/caffe/models/alexnetBNnoLRN/m2/deploy_2_alexnetBNnoLRN.prototxt
I0123 17:23:20.918570 89320 upgrade_proto.cpp:82] Successfully upgraded batch norm layers using deprecated params.
I0123 17:23:20.918778 89320 net.cpp:51] Initializing net from parameters: 
name: "AlexNet_BNnoLRN m2 deploy"
state {
  phase: TEST
  level: 0
}
layer {
  name: "data"
  type: "Input"
  top: "data"
  input_param {
    shape {
      dim: 1
      dim: 3
      dim: 227
      dim: 227
    }
  }
}
layer {
  name: "conv1"
  type: "Convolution"
  bottom: "data"
  top: "conv1"
  param {
    lr_mult: 1
    decay_mult: 1
  }
  param {
    lr_mult: 2
    decay_mult: 0
  }
  convolution_param {
    num_output: 96
    pad: 1
    kernel_size: 11
    stride: 4
    weight_filler {
      type: "gaussian"
      std: 0.01
    }
    bias_filler {
      type: "constant"
      value: 0
    }
  }
}
layer {
  name: "bn1"
  type: "BatchNorm"
  bottom: "conv1"
  top: "bn1"
  param {
    lr_mult: 0
    decay_mult: 0
  }
  param {
    lr_mult: 0
    decay_mult: 0
  }
  param {
    lr_mult: 0
    decay_mult: 0
  }
  batch_norm_param {
    use_global_stats: true
  }
}
layer {
  name: "scale1"
  type: "Scale"
  bottom: "bn1"
  top: "scale1"
  scale_param {
    bias_term: true
  }
}
layer {
  name: "relu1"
  type: "ReLU"
  bottom: "scale1"
  top: "relu1"
}
layer {
  name: "pool1"
  type: "Pooling"
  bottom: "relu1"
  top: "pool1"
  pooling_param {
    pool: MAX
    kernel_size: 3
    stride: 2
  }
}
layer {
  name: "conv2"
  type: "Convolution"
  bottom: "pool1"
  top: "conv2"
  param {
    lr_mult: 1
    decay_mult: 1
  }
  param {
    lr_mult: 2
    decay_mult: 0
  }
  convolution_param {
    num_output: 256
    pad: 2
    kernel_size: 5
    group: 1
    weight_filler {
      type: "gaussian"
      std: 0.01
    }
    bias_filler {
      type: "constant"
      value: 1
    }
  }
}
layer {
  name: "bn2"
  type: "BatchNorm"
  bottom: "conv2"
  top: "bn2"
  param {
    lr_mult: 0
    decay_mult: 0
  }
  param {
    lr_mult: 0
    decay_mult: 0
  }
  param {
    lr_mult: 0
    decay_mult: 0
  }
  batch_norm_param {
    use_global_stats: true
  }
}
layer {
  name: "scale2"
  type: "Scale"
  bottom: "bn2"
  top: "scale2"
  scale_param {
    bias_term: true
  }
}
layer {
  name: "relu2"
  type: "ReLU"
  bottom: "scale2"
  top: "relu2"
}
layer {
  name: "pool2"
  type: "Pooling"
  bottom: "relu2"
  top: "pool2"
  pooling_param {
    pool: MAX
    kernel_size: 3
    stride: 2
  }
}
layer {
  name: "conv3"
  type: "Convolution"
  bottom: "pool2"
  top: "conv3"
  param {
    lr_mult: 1
    decay_mult: 1
  }
  param {
    lr_mult: 2
    decay_mult: 0
  }
  convolution_param {
    num_output: 384
    pad: 1
    kernel_size: 3
    weight_filler {
      type: "gaussian"
      std: 0.01
    }
    bias_filler {
      type: "constant"
      value: 0
    }
  }
}
layer {
  name: "relu3"
  type: "ReLU"
  bottom: "conv3"
  top: "relu3"
}
layer {
  name: "conv4"
  type: "Convolution"
  bottom: "relu3"
  top: "conv4"
  param {
    lr_mult: 1
    decay_mult: 1
  }
  param {
    lr_mult: 2
    decay_mult: 0
  }
  convolution_param {
    num_output: 384
    pad: 1
    kernel_size: 3
    group: 1
    weight_filler {
      type: "gaussian"
      std: 0.01
    }
    bias_filler {
      type: "constant"
      value: 1
    }
  }
}
layer {
  name: "relu4"
  type: "ReLU"
  bottom: "conv4"
  top: "relu4"
}
layer {
  name: "conv5"
  type: "Convolution"
  bottom: "relu4"
  top: "conv5"
  param {
    lr_mult: 1
    decay_mult: 1
  }
  param {
    lr_mult: 2
    decay_mult: 0
  }
  convolution_param {
    num_output: 256
    pad: 1
    kernel_size: 3
    group: 1
    weight_filler {
      type: "gaussian"
      std: 0.01
    }
    bias_filler {
      type: "constant"
      value: 1
    }
  }
}
layer {
  name: "relu5"
  type: "ReLU"
  bottom: "conv5"
  top: "relu5"
}
layer {
  name: "pool5"
  type: "Pooling"
  bottom: "relu5"
  top: "pool5"
  pooling_param {
    pool: MAX
    kernel_size: 3
    stride: 2
  }
}
layer {
  name: "fc6"
  type: "InnerProduct"
  bottom: "pool5"
  top: "fc6"
  param {
    lr_mult: 1
    decay_mult: 1
  }
  param {
    lr_mult: 2
    decay_mult: 0
  }
  inner_product_param {
    num_output: 4096
    weight_filler {
      type: "gaussian"
      std: 0.005
    }
    bias_filler {
      type: "constant"
      value: 1
    }
  }
}
layer {
  name: "relu6"
  type: "ReLU"
  bottom: "fc6"
  top: "relu6"
}
layer {
  name: "drop6"
  type: "Dropout"
  bottom: "relu6"
  top: "drop6"
  dropout_param {
    dropout_ratio: 0.5
  }
}
layer {
  name: "fc7"
  type: "InnerProduct"
  bottom: "drop6"
  top: "fc7"
  param {
    lr_mult: 1
    decay_mult: 1
  }
  param {
    lr_mult: 2
    decay_mult: 0
  }
  inner_product_param {
    num_output: 4096
    weight_filler {
      type: "gaussian"
      std: 0.005
    }
    bias_filler {
      type: "constant"
      value: 1
    }
  }
}
layer {
  name: "bn7"
  type: "BatchNorm"
  bottom: "fc7"
  top: "bn7"
  param {
    lr_mult: 0
    decay_mult: 0
  }
  param {
    lr_mult: 0
    decay_mult: 0
  }
  param {
    lr_mult: 0
    decay_mult: 0
  }
  batch_norm_param {
    use_global_stats: true
  }
}
layer {
  name: "scale7"
  type: "Scale"
  bottom: "bn7"
  top: "scale7"
  scale_param {
    bias_term: true
  }
}
layer {
  name: "relu7"
  type: "ReLU"
  bottom: "scale7"
  top: "relu7"
}
layer {
  name: "drop7"
  type: "Dropout"
  bottom: "relu7"
  top: "drop7"
  dropout_param {
    dropout_ratio: 0.5
  }
}
layer {
  name: "fc8"
  type: "InnerProduct"
  bottom: "drop7"
  top: "fc8"
  param {
    lr_mult: 1
    decay_mult: 1
  }
  param {
    lr_mult: 2
    decay_mult: 0
  }
  inner_product_param {
    num_output: 2
    weight_filler {
      type: "gaussian"
      std: 0.01
    }
    bias_filler {
      type: "constant"
      value: 0
    }
  }
}
layer {
  name: "prob"
  type: "Softmax"
  bottom: "fc8"
  top: "prob"
}
I0123 17:23:20.918865 89320 layer_factory.hpp:77] Creating layer data
I0123 17:23:20.918874 89320 net.cpp:84] Creating Layer data
I0123 17:23:20.918880 89320 net.cpp:380] data -> data
I0123 17:23:20.927047 89320 net.cpp:122] Setting up data
I0123 17:23:20.927062 89320 net.cpp:129] Top shape: 1 3 227 227 (154587)
I0123 17:23:20.927063 89320 net.cpp:137] Memory required for data: 618348
I0123 17:23:20.927068 89320 layer_factory.hpp:77] Creating layer conv1
I0123 17:23:20.927080 89320 net.cpp:84] Creating Layer conv1
I0123 17:23:20.927083 89320 net.cpp:406] conv1 <- data
I0123 17:23:20.927088 89320 net.cpp:380] conv1 -> conv1
I0123 17:23:21.380389 89320 net.cpp:122] Setting up conv1
I0123 17:23:21.380411 89320 net.cpp:129] Top shape: 1 96 55 55 (290400)
I0123 17:23:21.380414 89320 net.cpp:137] Memory required for data: 1779948
I0123 17:23:21.380426 89320 layer_factory.hpp:77] Creating layer bn1
I0123 17:23:21.380436 89320 net.cpp:84] Creating Layer bn1
I0123 17:23:21.380439 89320 net.cpp:406] bn1 <- conv1
I0123 17:23:21.380445 89320 net.cpp:380] bn1 -> bn1
I0123 17:23:21.380612 89320 net.cpp:122] Setting up bn1
I0123 17:23:21.380617 89320 net.cpp:129] Top shape: 1 96 55 55 (290400)
I0123 17:23:21.380620 89320 net.cpp:137] Memory required for data: 2941548
I0123 17:23:21.380642 89320 layer_factory.hpp:77] Creating layer scale1
I0123 17:23:21.380647 89320 net.cpp:84] Creating Layer scale1
I0123 17:23:21.380650 89320 net.cpp:406] scale1 <- bn1
I0123 17:23:21.380653 89320 net.cpp:380] scale1 -> scale1
I0123 17:23:21.380682 89320 layer_factory.hpp:77] Creating layer scale1
I0123 17:23:21.380767 89320 net.cpp:122] Setting up scale1
I0123 17:23:21.380772 89320 net.cpp:129] Top shape: 1 96 55 55 (290400)
I0123 17:23:21.380775 89320 net.cpp:137] Memory required for data: 4103148
I0123 17:23:21.380779 89320 layer_factory.hpp:77] Creating layer relu1
I0123 17:23:21.380784 89320 net.cpp:84] Creating Layer relu1
I0123 17:23:21.380787 89320 net.cpp:406] relu1 <- scale1
I0123 17:23:21.380790 89320 net.cpp:380] relu1 -> relu1
I0123 17:23:21.380975 89320 net.cpp:122] Setting up relu1
I0123 17:23:21.380981 89320 net.cpp:129] Top shape: 1 96 55 55 (290400)
I0123 17:23:21.380983 89320 net.cpp:137] Memory required for data: 5264748
I0123 17:23:21.380985 89320 layer_factory.hpp:77] Creating layer pool1
I0123 17:23:21.380990 89320 net.cpp:84] Creating Layer pool1
I0123 17:23:21.380992 89320 net.cpp:406] pool1 <- relu1
I0123 17:23:21.380995 89320 net.cpp:380] pool1 -> pool1
I0123 17:23:21.381021 89320 net.cpp:122] Setting up pool1
I0123 17:23:21.381026 89320 net.cpp:129] Top shape: 1 96 27 27 (69984)
I0123 17:23:21.381027 89320 net.cpp:137] Memory required for data: 5544684
I0123 17:23:21.381029 89320 layer_factory.hpp:77] Creating layer conv2
I0123 17:23:21.381037 89320 net.cpp:84] Creating Layer conv2
I0123 17:23:21.381039 89320 net.cpp:406] conv2 <- pool1
I0123 17:23:21.381042 89320 net.cpp:380] conv2 -> conv2
I0123 17:23:21.386925 89320 net.cpp:122] Setting up conv2
I0123 17:23:21.386937 89320 net.cpp:129] Top shape: 1 256 27 27 (186624)
I0123 17:23:21.386940 89320 net.cpp:137] Memory required for data: 6291180
I0123 17:23:21.386947 89320 layer_factory.hpp:77] Creating layer bn2
I0123 17:23:21.386953 89320 net.cpp:84] Creating Layer bn2
I0123 17:23:21.386955 89320 net.cpp:406] bn2 <- conv2
I0123 17:23:21.386960 89320 net.cpp:380] bn2 -> bn2
I0123 17:23:21.387122 89320 net.cpp:122] Setting up bn2
I0123 17:23:21.387126 89320 net.cpp:129] Top shape: 1 256 27 27 (186624)
I0123 17:23:21.387130 89320 net.cpp:137] Memory required for data: 7037676
I0123 17:23:21.387133 89320 layer_factory.hpp:77] Creating layer scale2
I0123 17:23:21.387138 89320 net.cpp:84] Creating Layer scale2
I0123 17:23:21.387141 89320 net.cpp:406] scale2 <- bn2
I0123 17:23:21.387145 89320 net.cpp:380] scale2 -> scale2
I0123 17:23:21.387171 89320 layer_factory.hpp:77] Creating layer scale2
I0123 17:23:21.387248 89320 net.cpp:122] Setting up scale2
I0123 17:23:21.387253 89320 net.cpp:129] Top shape: 1 256 27 27 (186624)
I0123 17:23:21.387254 89320 net.cpp:137] Memory required for data: 7784172
I0123 17:23:21.387259 89320 layer_factory.hpp:77] Creating layer relu2
I0123 17:23:21.387261 89320 net.cpp:84] Creating Layer relu2
I0123 17:23:21.387264 89320 net.cpp:406] relu2 <- scale2
I0123 17:23:21.387267 89320 net.cpp:380] relu2 -> relu2
I0123 17:23:21.387459 89320 net.cpp:122] Setting up relu2
I0123 17:23:21.387464 89320 net.cpp:129] Top shape: 1 256 27 27 (186624)
I0123 17:23:21.387465 89320 net.cpp:137] Memory required for data: 8530668
I0123 17:23:21.387467 89320 layer_factory.hpp:77] Creating layer pool2
I0123 17:23:21.387470 89320 net.cpp:84] Creating Layer pool2
I0123 17:23:21.387472 89320 net.cpp:406] pool2 <- relu2
I0123 17:23:21.387475 89320 net.cpp:380] pool2 -> pool2
I0123 17:23:21.387498 89320 net.cpp:122] Setting up pool2
I0123 17:23:21.387502 89320 net.cpp:129] Top shape: 1 256 13 13 (43264)
I0123 17:23:21.387504 89320 net.cpp:137] Memory required for data: 8703724
I0123 17:23:21.387506 89320 layer_factory.hpp:77] Creating layer conv3
I0123 17:23:21.387511 89320 net.cpp:84] Creating Layer conv3
I0123 17:23:21.387512 89320 net.cpp:406] conv3 <- pool2
I0123 17:23:21.387516 89320 net.cpp:380] conv3 -> conv3
I0123 17:23:21.395004 89320 net.cpp:122] Setting up conv3
I0123 17:23:21.395025 89320 net.cpp:129] Top shape: 1 384 13 13 (64896)
I0123 17:23:21.395027 89320 net.cpp:137] Memory required for data: 8963308
I0123 17:23:21.395033 89320 layer_factory.hpp:77] Creating layer relu3
I0123 17:23:21.395040 89320 net.cpp:84] Creating Layer relu3
I0123 17:23:21.395042 89320 net.cpp:406] relu3 <- conv3
I0123 17:23:21.395046 89320 net.cpp:380] relu3 -> relu3
I0123 17:23:21.395366 89320 net.cpp:122] Setting up relu3
I0123 17:23:21.395375 89320 net.cpp:129] Top shape: 1 384 13 13 (64896)
I0123 17:23:21.395377 89320 net.cpp:137] Memory required for data: 9222892
I0123 17:23:21.395380 89320 layer_factory.hpp:77] Creating layer conv4
I0123 17:23:21.395387 89320 net.cpp:84] Creating Layer conv4
I0123 17:23:21.395390 89320 net.cpp:406] conv4 <- relu3
I0123 17:23:21.395393 89320 net.cpp:380] conv4 -> conv4
I0123 17:23:21.405447 89320 net.cpp:122] Setting up conv4
I0123 17:23:21.405458 89320 net.cpp:129] Top shape: 1 384 13 13 (64896)
I0123 17:23:21.405460 89320 net.cpp:137] Memory required for data: 9482476
I0123 17:23:21.405469 89320 layer_factory.hpp:77] Creating layer relu4
I0123 17:23:21.405474 89320 net.cpp:84] Creating Layer relu4
I0123 17:23:21.405477 89320 net.cpp:406] relu4 <- conv4
I0123 17:23:21.405479 89320 net.cpp:380] relu4 -> relu4
I0123 17:23:21.405670 89320 net.cpp:122] Setting up relu4
I0123 17:23:21.405675 89320 net.cpp:129] Top shape: 1 384 13 13 (64896)
I0123 17:23:21.405678 89320 net.cpp:137] Memory required for data: 9742060
I0123 17:23:21.405679 89320 layer_factory.hpp:77] Creating layer conv5
I0123 17:23:21.405686 89320 net.cpp:84] Creating Layer conv5
I0123 17:23:21.405689 89320 net.cpp:406] conv5 <- relu4
I0123 17:23:21.405691 89320 net.cpp:380] conv5 -> conv5
I0123 17:23:21.413208 89320 net.cpp:122] Setting up conv5
I0123 17:23:21.413219 89320 net.cpp:129] Top shape: 1 256 13 13 (43264)
I0123 17:23:21.413223 89320 net.cpp:137] Memory required for data: 9915116
I0123 17:23:21.413228 89320 layer_factory.hpp:77] Creating layer relu5
I0123 17:23:21.413236 89320 net.cpp:84] Creating Layer relu5
I0123 17:23:21.413239 89320 net.cpp:406] relu5 <- conv5
I0123 17:23:21.413244 89320 net.cpp:380] relu5 -> relu5
I0123 17:23:21.413440 89320 net.cpp:122] Setting up relu5
I0123 17:23:21.413449 89320 net.cpp:129] Top shape: 1 256 13 13 (43264)
I0123 17:23:21.413450 89320 net.cpp:137] Memory required for data: 10088172
I0123 17:23:21.413453 89320 layer_factory.hpp:77] Creating layer pool5
I0123 17:23:21.413457 89320 net.cpp:84] Creating Layer pool5
I0123 17:23:21.413460 89320 net.cpp:406] pool5 <- relu5
I0123 17:23:21.413463 89320 net.cpp:380] pool5 -> pool5
I0123 17:23:21.413492 89320 net.cpp:122] Setting up pool5
I0123 17:23:21.413497 89320 net.cpp:129] Top shape: 1 256 6 6 (9216)
I0123 17:23:21.413499 89320 net.cpp:137] Memory required for data: 10125036
I0123 17:23:21.413501 89320 layer_factory.hpp:77] Creating layer fc6
I0123 17:23:21.413507 89320 net.cpp:84] Creating Layer fc6
I0123 17:23:21.413509 89320 net.cpp:406] fc6 <- pool5
I0123 17:23:21.413513 89320 net.cpp:380] fc6 -> fc6
I0123 17:23:21.672731 89320 net.cpp:122] Setting up fc6
I0123 17:23:21.672749 89320 net.cpp:129] Top shape: 1 4096 (4096)
I0123 17:23:21.672751 89320 net.cpp:137] Memory required for data: 10141420
I0123 17:23:21.672760 89320 layer_factory.hpp:77] Creating layer relu6
I0123 17:23:21.672766 89320 net.cpp:84] Creating Layer relu6
I0123 17:23:21.672770 89320 net.cpp:406] relu6 <- fc6
I0123 17:23:21.672775 89320 net.cpp:380] relu6 -> relu6
I0123 17:23:21.673285 89320 net.cpp:122] Setting up relu6
I0123 17:23:21.673296 89320 net.cpp:129] Top shape: 1 4096 (4096)
I0123 17:23:21.673298 89320 net.cpp:137] Memory required for data: 10157804
I0123 17:23:21.673302 89320 layer_factory.hpp:77] Creating layer drop6
I0123 17:23:21.673307 89320 net.cpp:84] Creating Layer drop6
I0123 17:23:21.673310 89320 net.cpp:406] drop6 <- relu6
I0123 17:23:21.673315 89320 net.cpp:380] drop6 -> drop6
I0123 17:23:21.673344 89320 net.cpp:122] Setting up drop6
I0123 17:23:21.673349 89320 net.cpp:129] Top shape: 1 4096 (4096)
I0123 17:23:21.673352 89320 net.cpp:137] Memory required for data: 10174188
I0123 17:23:21.673353 89320 layer_factory.hpp:77] Creating layer fc7
I0123 17:23:21.673359 89320 net.cpp:84] Creating Layer fc7
I0123 17:23:21.673362 89320 net.cpp:406] fc7 <- drop6
I0123 17:23:21.673365 89320 net.cpp:380] fc7 -> fc7
I0123 17:23:21.788215 89320 net.cpp:122] Setting up fc7
I0123 17:23:21.788233 89320 net.cpp:129] Top shape: 1 4096 (4096)
I0123 17:23:21.788234 89320 net.cpp:137] Memory required for data: 10190572
I0123 17:23:21.788242 89320 layer_factory.hpp:77] Creating layer bn7
I0123 17:23:21.788250 89320 net.cpp:84] Creating Layer bn7
I0123 17:23:21.788252 89320 net.cpp:406] bn7 <- fc7
I0123 17:23:21.788259 89320 net.cpp:380] bn7 -> bn7
I0123 17:23:21.788429 89320 net.cpp:122] Setting up bn7
I0123 17:23:21.788434 89320 net.cpp:129] Top shape: 1 4096 (4096)
I0123 17:23:21.788435 89320 net.cpp:137] Memory required for data: 10206956
I0123 17:23:21.788439 89320 layer_factory.hpp:77] Creating layer scale7
I0123 17:23:21.788444 89320 net.cpp:84] Creating Layer scale7
I0123 17:23:21.788446 89320 net.cpp:406] scale7 <- bn7
I0123 17:23:21.788450 89320 net.cpp:380] scale7 -> scale7
I0123 17:23:21.788475 89320 layer_factory.hpp:77] Creating layer scale7
I0123 17:23:21.788558 89320 net.cpp:122] Setting up scale7
I0123 17:23:21.788561 89320 net.cpp:129] Top shape: 1 4096 (4096)
I0123 17:23:21.788563 89320 net.cpp:137] Memory required for data: 10223340
I0123 17:23:21.788568 89320 layer_factory.hpp:77] Creating layer relu7
I0123 17:23:21.788570 89320 net.cpp:84] Creating Layer relu7
I0123 17:23:21.788573 89320 net.cpp:406] relu7 <- scale7
I0123 17:23:21.788575 89320 net.cpp:380] relu7 -> relu7
I0123 17:23:21.788810 89320 net.cpp:122] Setting up relu7
I0123 17:23:21.788815 89320 net.cpp:129] Top shape: 1 4096 (4096)
I0123 17:23:21.788816 89320 net.cpp:137] Memory required for data: 10239724
I0123 17:23:21.788817 89320 layer_factory.hpp:77] Creating layer drop7
I0123 17:23:21.788822 89320 net.cpp:84] Creating Layer drop7
I0123 17:23:21.788825 89320 net.cpp:406] drop7 <- relu7
I0123 17:23:21.788828 89320 net.cpp:380] drop7 -> drop7
I0123 17:23:21.788853 89320 net.cpp:122] Setting up drop7
I0123 17:23:21.788856 89320 net.cpp:129] Top shape: 1 4096 (4096)
I0123 17:23:21.788858 89320 net.cpp:137] Memory required for data: 10256108
I0123 17:23:21.788861 89320 layer_factory.hpp:77] Creating layer fc8
I0123 17:23:21.788866 89320 net.cpp:84] Creating Layer fc8
I0123 17:23:21.788867 89320 net.cpp:406] fc8 <- drop7
I0123 17:23:21.788872 89320 net.cpp:380] fc8 -> fc8
I0123 17:23:21.789608 89320 net.cpp:122] Setting up fc8
I0123 17:23:21.789618 89320 net.cpp:129] Top shape: 1 2 (2)
I0123 17:23:21.789619 89320 net.cpp:137] Memory required for data: 10256116
I0123 17:23:21.789624 89320 layer_factory.hpp:77] Creating layer prob
I0123 17:23:21.789629 89320 net.cpp:84] Creating Layer prob
I0123 17:23:21.789633 89320 net.cpp:406] prob <- fc8
I0123 17:23:21.789636 89320 net.cpp:380] prob -> prob
I0123 17:23:21.789867 89320 net.cpp:122] Setting up prob
I0123 17:23:21.789872 89320 net.cpp:129] Top shape: 1 2 (2)
I0123 17:23:21.789875 89320 net.cpp:137] Memory required for data: 10256124
I0123 17:23:21.789876 89320 net.cpp:200] prob does not need backward computation.
I0123 17:23:21.789880 89320 net.cpp:200] fc8 does not need backward computation.
I0123 17:23:21.789882 89320 net.cpp:200] drop7 does not need backward computation.
I0123 17:23:21.789883 89320 net.cpp:200] relu7 does not need backward computation.
…
