…
I0716 13:53:15.153318 23744 net.cpp:98] Initializing net from parameters: 
state {
  phase: TRAIN
}
layer {
  name: "data"
  type: "ImageData"
  top: "data"
  top: "label"
  include {
    phase: TRAIN
  }
  transform_param {
    scale: 0.022
    mean_value: 73
    mean_value: 82
    mean_value: 72
    resize_param {
      prob: 1
      resize_mode: WARP
      height: 256
      width: 512
    }
  }
  image_data_param {
    source: "../data/cityscapes/calibration.txt"
    batch_size: 1
    shuffle: true
    new_height: 256
    new_width: 512
    root_folder: "../data/cityscapes/calibration_images/"
  }
}
layer {
  name: "conv1/7x7_s2"
  type: "Convolution"
  bottom: "data"
  top: "conv1/7x7_s2_raw"
  param {
    lr_mult: 1
    decay_mult: 1
  }
  convolution_param {
    num_output: 64
    pad: 3
    kernel_size: 7
    stride: 2
    weight_filler {
      type: "msra"
    }
    bias_filler {
      type: "constant"
      value: 0.2
    }
  }
}
layer {
  name: "conv1/7x7_s2_BatchNorm"
  type: "BatchNorm"
  bottom: "conv1/7x7_s2_raw"
  top: "conv1/7x7_s2"
  param {
    lr_mult: 1
    decay_mult: 0
  }
  param {
    lr_mult: 1
    decay_mult: 0
  }
  param {
    lr_mult: 0
    decay_mult: 0
  }
  param {
    lr_mult: 0
    decay_mult: 0
  }
  batch_norm_param {
    use_global_stats: false
    eps: 1e-05
    scale_filler {
      type: "constant"
      value: 1
    }
    bias_filler {
      type: "constant"
      value: 0
    }
  }
}
layer {
  name: "conv1/relu_7x7"
  type: "ReLU"
  bottom: "conv1/7x7_s2"
  top: "conv1/7x7_s2"
}
layer {
  name: "pool1/3x3_s2"
  type: "Pooling"
  bottom: "conv1/7x7_s2"
  top: "pool1/3x3_s2"
  pooling_param {
    pool: MAX
    kernel_size: 3
    stride: 2
  }
}
layer {
  name: "conv2/3x3_reduce"
  type: "Convolution"
  bottom: "pool1/3x3_s2"
  top: "conv2/3x3_reduce_raw"
  param {
    lr_mult: 1
    decay_mult: 1
  }
  convolution_param {
    num_output: 64
    kernel_size: 1
    weight_filler {
      type: "msra"
    }
    bias_filler {
      type: "constant"
      value: 0.2
    }
  }
}
layer {
  name: "conv2/3x3_reduce_BatchNorm"
  type: "BatchNorm"
  bottom: "conv2/3x3_reduce_raw"
  top: "conv2/3x3_reduce"
  param {
    lr_mult: 1
    decay_mult: 0
  }
  param {
    lr_mult: 1
    decay_mult: 0
  }
  param {
    lr_mult: 0
    decay_mult: 0
  }
  param {
    lr_mult: 0
    decay_mult: 0
  }
  batch_norm_param {
    use_global_stats: false
    eps: 1e-05
    scale_filler {
      type: "constant"
      value: 1
    }
    bias_filler {
      type: "constant"
      value: 0
    }
  }
}
layer {
  name: "conv2/relu_3x3_reduce"
  type: "ReLU"
  bottom: "conv2/3x3_reduce"
  top: "conv2/3x3_reduce"
}
layer {
  name: "conv2/3x3"
  type: "Convolution"
  bottom: "conv2/3x3_reduce"
  top: "conv2/3x3_raw"
  param {
    lr_mult: 1
    decay_mult: 1
  }
  convolution_param {
    num_output: 192
    pad: 1
    kernel_size: 3
    weight_filler {
      type: "msra"
    }
    bias_filler {
      type: "constant"
      value: 0.2
    }
  }
}
layer {
  name: "conv2/3x3_BatchNorm"
  type: "BatchNorm"
  bottom: "conv2/3x3_raw"
  top: "conv2/3x3"
  param {
    lr_mult: 1
    decay_mult: 0
  }
  param {
    lr_mult: 1
    decay_mult: 0
  }
  param {
    lr_mult: 0
    decay_mult: 0
  }
  param {
    lr_mult: 0
    decay_mult: 0
  }
  batch_norm_param {
    use_global_stats: false
    eps: 1e-05
    scale_filler {
      type: "constant"
      value: 1
    }
    bias_filler {
      type: "constant"
      value: 0
    }
  }
}
layer {
  name: "conv2/relu_3x3"
  type: "ReLU"
  bottom: "conv2/3x3"
  top: "conv2/3x3"
}
layer {
  name: "pool2/3x3_s2"
  type: "Pooling"
  bottom: "conv2/3x3"
  top: "pool2/3x3_s2"
  pooling_param {
    pool: MAX
    kernel_size: 3
    stride: 2
  }
}
layer {
  name: "inception_3a/1x1"
  type: "Convolution"
  bottom: "pool2/3x3_s2"
  top: "inception_3a/1x1_raw"
  param {
    lr_mult: 1
    decay_mult: 1
  }
  convolution_param {
    num_output: 64
    kernel_size: 1
    weight_filler {
      type: "msra"
    }
    bias_filler {
      type: "constant"
      value: 0.2
    }
  }
}
layer {
  name: "inception_3a/1x1_BatchNorm"
  type: "BatchNorm"
  bottom: "inception_3a/1x1_raw"
  top: "inception_3a/1x1"
  param {
    lr_mult: 1
    decay_mult: 0
  }
  param {
    lr_mult: 1
    decay_mult: 0
  }
  param {
    lr_mult: 0
    decay_mult: 0
  }
  param {
    lr_mult: 0
    decay_mult: 0
  }
  batch_norm_param {
    use_global_stats: false
    eps: 1e-05
    scale_filler {
      type: "constant"
      value: 1
    }
    bias_filler {
      type: "constant"
      value: 0
    }
  }
}
layer {
  name: "inception_3a/relu_1x1"
  type: "ReLU"
  bottom: "inception_3a/1x1"
  top: "inception_3a/1x1"
}
layer {
  name: "inception_3a/3x3_reduce"
  type: "Convolution"
  bottom: "pool2/3x3_s2"
  top: "inception_3a/3x3_reduce_raw"
  param {
    lr_mult: 1
    decay_mult: 1
  }
  convolution_param {
    num_output: 96
    kernel_size: 1
    weight_filler {
      type: "msra"
    }
    bias_filler {
      type: "constant"
      value: 0.2
    }
  }
}
layer {
  name: "inception_3a/3x3_reduce_BatchNorm"
  type: "BatchNorm"
  bottom: "inception_3a/3x3_reduce_raw"
  top: "inception_3a/3x3_reduce"
  param {
    lr_mult: 1
    decay_mult: 0
  }
  param {
    lr_mult: 1
    decay_mult: 0
  }
  param {
    lr_mult: 0
    decay_mult: 0
  }
  param {
    lr_mult: 0
    decay_mult: 0
  }
  batch_norm_param {
    use_global_stats: false
    eps: 1e-05
    scale_filler {
      type: "constant"
      value: 1
    }
    bias_filler {
      type: "constant"
      value: 0
    }
  }
}
layer {
  name: "inception_3a/relu_3x3_reduce"
  type: "ReLU"
  bottom: "inception_3a/3x3_reduce"
  top: "inception_3a/3x3_reduce"
}
layer {
  name: "inception_3a/3x3"
  type: "Convolution"
  bottom: "inception_3a/3x3_reduce"
  top: "inception_3a/3x3_raw"
  param {
    lr_mult: 1
    decay_mult: 1
  }
  convolution_param {
    num_output: 128
    pad: 1
    kernel_size: 3
    weight_filler {
      type: "msra"
    }
    bias_filler {
      type: "constant"
      value: 0.2
    }
  }
}
layer {
  name: "inception_3a/3x3_BatchNorm"
  type: "BatchNorm"
  bottom: "inception_3a/3x3_raw"
  top: "inception_3a/3x3"
  param {
    lr_mult: 1
    decay_mult: 0
  }
  param {
    lr_mult: 1
    decay_mult: 0
  }
  param {
    lr_mult: 0
    decay_mult: 0
  }
  param {
    lr_mult: 0
    decay_mult: 0
  }
  batch_norm_param {
    use_global_stats: false
    eps: 1e-05
    scale_filler {
      type: "constant"
      value: 1
    }
    bias_filler {
      type: "constant"
      value: 0
    }
  }
}
layer {
  name: "inception_3a/relu_3x3"
  type: "ReLU"
  bottom: "inception_3a/3x3"
  top: "inception_3a/3x3"
}
layer {
  name: "inception_3a/5x5_reduce"
  type: "Convolution"
  bottom: "pool2/3x3_s2"
  top: "inception_3a/5x5_reduce_raw"
  param {
    lr_mult: 1
    decay_mult: 1
  }
  convolution_param {
    num_output: 16
    kernel_size: 1
    weight_filler {
      type: "msra"
    }
    bias_filler {
      type: "constant"
      value: 0.2
    }
  }
}
layer {
  name: "inception_3a/5x5_reduce_BatchNorm"
  type: "BatchNorm"
  bottom: "inception_3a/5x5_reduce_raw"
  top: "inception_3a/5x5_reduce"
  param {
    lr_mult: 1
    decay_mult: 0
  }
  param {
    lr_mult: 1
    decay_mult: 0
  }
  param {
    lr_mult: 0
    decay_mult: 0
  }
  param {
    lr_mult: 0
    decay_mult: 0
  }
  batch_norm_param {
    use_global_stats: false
    eps: 1e-05
    scale_filler {
      type: "constant"
      value: 1
    }
    bias_filler {
      type: "constant"
      value: 0
    }
  }
}
layer {
  name: "inception_3a/relu_5x5_reduce"
  type: "ReLU"
  bottom: "inception_3a/5x5_reduce"
  top: "inception_3a/5x5_reduce"
}
layer {
  name: "inception_3a/5x5"
  type: "Convolution"
  bottom: "inception_3a/5x5_reduce"
  top: "inception_3a/5x5_raw"
  param {
    lr_mult: 1
    decay_mult: 1
  }
  convolution_param {
    num_output: 32
    pad: 2
    kernel_size: 5
    weight_filler {
      type: "msra"
    }
    bias_filler {
      type: "constant"
      value: 0.2
    }
  }
}
layer {
  name: "inception_3a/5x5_BatchNorm"
  type: "BatchNorm"
  bottom: "inception_3a/5x5_raw"
  top: "inception_3a/5x5"
  param {
    lr_mult: 1
    decay_mult: 0
  }
  param {
    lr_mult: 1
    decay_mult: 0
  }
  param {
    lr_mult: 0
    decay_mult: 0
  }
  param {
    lr_mult: 0
    decay_mult: 0
  }
  batch_norm_param {
    use_global_stats: false
    eps: 1e-05
    scale_filler {
      type: "constant"
      value: 1
    }
    bias_filler {
      type: "constant"
      value: 0
    }
  }
}
layer {
  name: "inception_3a/relu_5x5"
  type: "ReLU"
  bottom: "inception_3a/5x5"
  top: "inception_3a/5x5"
}
layer {
  name: "inception_3a/pool"
  type: "Pooling"
  bottom: "pool2/3x3_s2"
  top: "inception_3a/pool"
  pooling_param {
    pool: MAX
    kernel_size: 3
    stride: 1
    pad: 1
  }
}
layer {
  name: "inception_3a/pool_proj"
  type: "Convolution"
  bottom: "inception_3a/pool"
  top: "inception_3a/pool_proj_raw"
  param {
    lr_mult: 1
    decay_mult: 1
  }
  convolution_param {
    num_output: 32
    kernel_size: 1
    weight_filler {
      type: "msra"
    }
    bias_filler {
      type: "constant"
      value: 0.2
    }
  }
}
layer {
  name: "inception_3a/pool_proj_BatchNorm"
  type: "BatchNorm"
  bottom: "inception_3a/pool_proj_raw"
  top: "inception_3a/pool_proj"
  param {
    lr_mult: 1
    decay_mult: 0
  }
  param {
    lr_mult: 1
    decay_mult: 0
  }
  param {
    lr_mult: 0
    decay_mult: 0
  }
  param {
    lr_mult: 0
    decay_mult: 0
  }
  batch_norm_param {
    use_global_stats: false
    eps: 1e-05
    scale_filler {
      type: "constant"
      value: 1
    }
    bias_filler {
      type: "constant"
      value: 0
    }
  }
}
layer {
  name: "inception_3a/relu_pool_proj"
  type: "ReLU"
  bottom: "inception_3a/pool_proj"
  top: "inception_3a/pool_proj"
}
layer {
  name: "inception_3a/output"
  type: "Concat"
  bottom: "inception_3a/1x1"
  bottom: "inception_3a/3x3"
  bottom: "inception_3a/5x5"
  bottom: "inception_3a/pool_proj"
  top: "inception_3a/output"
}
layer {
  name: "inception_3b/1x1"
  type: "Convolution"
  bottom: "inception_3a/output"
  top: "inception_3b/1x1_raw"
  param {
    lr_mult: 1
    decay_mult: 1
  }
  convolution_param {
    num_output: 128
    kernel_size: 1
    weight_filler {
      type: "msra"
    }
    bias_filler {
      type: "constant"
      value: 0.2
    }
  }
}
layer {
  name: "inception_3b/1x1_BatchNorm"
  type: "BatchNorm"
  bottom: "inception_3b/1x1_raw"
  top: "inception_3b/1x1"
  param {
    lr_mult: 1
    decay_mult: 0
  }
  param {
    lr_mult: 1
    decay_mult: 0
  }
  param {
    lr_mult: 0
    decay_mult: 0
  }
  param {
    lr_mult: 0
    decay_mult: 0
  }
  batch_norm_param {
    use_global_stats: false
    eps: 1e-05
    scale_filler {
      type: "constant"
      value: 1
    }
    bias_filler {
      type: "constant"
      value: 0
    }
  }
}
layer {
  name: "inception_3b/relu_1x1"
  type: "ReLU"
  bottom: "inception_3b/1x1"
  top: "inception_3b/1x1"
}
layer {
  name: "inception_3b/3x3_reduce"
  type: "Convolution"
  bottom: "inception_3a/output"
  top: "inception_3b/3x3_reduce_raw"
  param {
    lr_mult: 1
    decay_mult: 1
  }
  convolution_param {
    num_output: 128
    kernel_size: 1
    weight_filler {
      type: "msra"
    }
    bias_filler {
      type: "constant"
      value: 0.2
    }
  }
}
layer {
  name: "inception_3b/3x3_reduce_BatchNorm"
  type: "BatchNorm"
  bottom: "inception_3b/3x3_reduce_raw"
  top: "inception_3b/3x3_reduce"
  param {
    lr_mult: 1
    decay_mult: 0
  }
  param {
    lr_mult: 1
    decay_mult: 0
  }
  param {
    lr_mult: 0
    decay_mult: 0
  }
  param {
    lr_mult: 0
    decay_mult: 0
  }
  batch_norm_param {
    use_global_stats: false
    eps: 1e-05
    scale_filler {
      type: "constant"
      value: 1
    }
    bias_filler {
      type: "constant"
      value: 0
    }
  }
}
layer {
  name: "inception_3b/relu_3x3_reduce"
  type: "ReLU"
  bottom: "inception_3b/3x3_reduce"
  top: "inception_3b/3x3_reduce"
}
layer {
  name: "inception_3b/3x3"
  type: "Convolution"
  bottom: "inception_3b/3x3_reduce"
  top: "inception_3b/3x3_raw"
  param {
    lr_mult: 1
    decay_mult: 1
  }
  convolution_param {
    num_output: 192
    pad: 1
    kernel_size: 3
    weight_filler {
      type: "msra"
    }
    bias_filler {
      type: "constant"
      value: 0.2
    }
  }
}
layer {
  name: "inception_3b/3x3_BatchNorm"
  type: "BatchNorm"
  bottom: "inception_3b/3x3_raw"
  top: "inception_3b/3x3"
  param {
    lr_mult: 1
    decay_mult: 0
  }
  param {
    lr_mult: 1
    decay_mult: 0
  }
  param {
    lr_mult: 0
    decay_mult: 0
  }
  param {
    lr_mult: 0
    decay_mult: 0
  }
  batch_norm_param {
    use_global_stats: false
    eps: 1e-05
    scale_filler {
      type: "constant"
      value: 1
    }
    bias_filler {
      type: "constant"
      value: 0
    }
  }
}
layer {
  name: "inception_3b/relu_3x3"
  type: "ReLU"
  bottom: "inception_3b/3x3"
  top: "inception_3b/3x3"
}
layer {
  name: "inception_3b/5x5_reduce"
  type: "Convolution"
  bottom: "inception_3a/output"
  top: "inception_3b/5x5_reduce_raw"
  param {
    lr_mult: 1
    decay_mult: 1
  }
  convolution_param {
    num_output: 32
    kernel_size: 1
    weight_filler {
      type: "msra"
    }
    bias_filler {
      type: "constant"
      value: 0.2
    }
  }
}
layer {
  name: "inception_3b/5x5_reduce_BatchNorm"
  type: "BatchNorm"
  bottom: "inception_3b/5x5_reduce_raw"
  top: "inception_3b/5x5_reduce"
  param {
    lr_mult: 1
    decay_mult: 0
  }
  param {
    lr_mult: 1
    decay_mult: 0
  }
  param {
    lr_mult: 0
    decay_mult: 0
  }
  param {
    lr_mult: 0
    decay_mult: 0
  }
  batch_norm_param {
    use_global_stats: false
    eps: 1e-05
    scale_filler {
      type: "constant"
      value: 1
    }
    bias_filler {
      type: "constant"
      value: 0
    }
  }
}
layer {
  name: "inception_3b/relu_5x5_reduce"
  type: "ReLU"
  bottom: "inception_3b/5x5_reduce"
  top: "inception_3b/5x5_reduce"
}
layer {
  name: "inception_3b/5x5"
  type: "Convolution"
  bottom: "inception_3b/5x5_reduce"
  top: "inception_3b/5x5_raw"
  param {
    lr_mult: 1
    decay_mult: 1
  }
  convolution_param {
    num_output: 96
    pad: 2
    kernel_size: 5
    weight_filler {
      type: "msra"
    }
    bias_filler {
      type: "constant"
      value: 0.2
    }
  }
}
layer {
  name: "inception_3b/5x5_BatchNorm"
  type: "BatchNorm"
  bottom: "inception_3b/5x5_raw"
  top: "inception_3b/5x5"
  param {
    lr_mult: 1
    decay_mult: 0
  }
  param {
    lr_mult: 1
    decay_mult: 0
  }
  param {
    lr_mult: 0
    decay_mult: 0
  }
  param {
    lr_mult: 0
    decay_mult: 0
  }
  batch_norm_param {
    use_global_stats: false
    eps: 1e-05
    scale_filler {
      type: "constant"
      value: 1
    }
    bias_filler {
      type: "constant"
      value: 0
    }
  }
}
layer {
  name: "inception_3b/relu_5x5"
  type: "ReLU"
  bottom: "inception_3b/5x5"
  top: "inception_3b/5x5"
}
layer {
  name: "inception_3b/pool"
  type: "Pooling"
  bottom: "inception_3a/output"
  top: "inception_3b/pool"
  pooling_param {
    pool: MAX
    kernel_size: 3
    stride: 1
    pad: 1
  }
}
layer {
  name: "inception_3b/pool_proj"
  type: "Convolution"
  bottom: "inception_3b/pool"
  top: "inception_3b/pool_proj_raw"
  param {
    lr_mult: 1
    decay_mult: 1
  }
  convolution_param {
    num_output: 64
    kernel_size: 1
    weight_filler {
      type: "msra"
    }
    bias_filler {
      type: "constant"
      value: 0.2
    }
  }
}
layer {
  name: "inception_3b/pool_proj_BatchNorm"
  type: "BatchNorm"
  bottom: "inception_3b/pool_proj_raw"
  top: "inception_3b/pool_proj"
  param {
    lr_mult: 1
    decay_mult: 0
  }
  param {
    lr_mult: 1
    decay_mult: 0
  }
  param {
    lr_mult: 0
    decay_mult: 0
  }
  param {
    lr_mult: 0
    decay_mult: 0
  }
  batch_norm_param {
    use_global_stats: false
    eps: 1e-05
    scale_filler {
      type: "constant"
      value: 1
    }
    bias_filler {
      type: "constant"
      value: 0
    }
  }
}
layer {
  name: "inception_3b/relu_pool_proj"
  type: "ReLU"
  bottom: "inception_3b/pool_proj"
  top: "inception_3b/pool_proj"
}
layer {
  name: "inception_3b/output"
  type: "Concat"
  bottom: "inception_3b/1x1"
  bottom: "inception_3b/3x3"
  bottom: "inception_3b/5x5"
  bottom: "inception_3b/pool_proj"
  top: "inception_3b/output"
}
layer {
  name: "pool3/3x3_s2"
  type: "Pooling"
  bottom: "inception_3b/output"
  top: "pool3/3x3_s2"
  pooling_param {
    pool: MAX
    kernel_size: 3
    stride: 2
  }
}
layer {
  name: "inception_4a/1x1"
  type: "Convolution"
  bottom: "pool3/3x3_s2"
  top: "inception_4a/1x1_raw"
  param {
    lr_mult: 1
    decay_mult: 1
  }
  convolution_param {
    num_output: 192
    kernel_size: 1
    weight_filler {
      type: "msra"
    }
    bias_filler {
      type: "constant"
      value: 0.2
    }
  }
}
layer {
  name: "inception_4a/1x1_BatchNorm"
  type: "BatchNorm"
  bottom: "inception_4a/1x1_raw"
  top: "inception_4a/1x1"
  param {
    lr_mult: 1
    decay_mult: 0
  }
  param {
    lr_mult: 1
    decay_mult: 0
  }
  param {
    lr_mult: 0
    decay_mult: 0
  }
  param {
    lr_mult: 0
    decay_mult: 0
  }
  batch_norm_param {
    use_global_stats: false
    eps: 1e-05
    scale_filler {
      type: "constant"
      value: 1
    }
    bias_filler {
      type: "constant"
      value: 0
    }
  }
}
layer {
  name: "inception_4a/relu_1x1"
  type: "ReLU"
  bottom: "inception_4a/1x1"
  top: "inception_4a/1x1"
}
layer {
  name: "inception_4a/3x3_reduce"
  type: "Convolution"
  bottom: "pool3/3x3_s2"
  top: "inception_4a/3x3_reduce_raw"
  param {
    lr_mult: 1
    decay_mult: 1
  }
  convolution_param {
    num_output: 96
    kernel_size: 1
    weight_filler {
      type: "msra"
    }
    bias_filler {
      type: "constant"
      value: 0.2
    }
  }
}
layer {
  name: "inception_4a/3x3_reduce_BatchNorm"
  type: "BatchNorm"
  bottom: "inception_4a/3x3_reduce_raw"
  top: "inception_4a/3x3_reduce"
  param {
    lr_mult: 1
    decay_mult: 0
  }
  param {
    lr_mult: 1
    decay_mult: 0
  }
  param {
    lr_mult: 0
    decay_mult: 0
  }
  param {
    lr_mult: 0
    decay_mult: 0
  }
  batch_norm_param {
    use_global_stats: false
    eps: 1e-05
    scale_filler {
      type: "constant"
      value: 1
    }
    bias_filler {
      type: "constant"
      value: 0
    }
  }
}
layer {
  name: "inception_4a/relu_3x3_reduce"
  type: "ReLU"
  bottom: "inception_4a/3x3_reduce"
  top: "inception_4a/3x3_reduce"
}
layer {
  name: "inception_4a/3x3"
  type: "Convolution"
  bottom: "inception_4a/3x3_reduce"
  top: "inception_4a/3x3_raw"
  param {
    lr_mult: 1
    decay_mult: 1
  }
  convolution_param {
    num_output: 208
    pad: 1
    kernel_size: 3
    weight_filler {
      type: "msra"
    }
    bias_filler {
      type: "constant"
      value: 0.2
    }
  }
}
layer {
  name: "inception_4a/3x3_BatchNorm"
  type: "BatchNorm"
  bottom: "inception_4a/3x3_raw"
  top: "inception_4a/3x3"
  param {
    lr_mult: 1
    decay_mult: 0
  }
  param {
    lr_mult: 1
    decay_mult: 0
  }
  param {
    lr_mult: 0
    decay_mult: 0
  }
  param {
    lr_mult: 0
    decay_mult: 0
  }
  batch_norm_param {
    use_global_stats: false
    eps: 1e-05
    scale_filler {
      type: "constant"
      value: 1
    }
    bias_filler {
      type: "constant"
      value: 0
    }
  }
}
layer {
  name: "inception_4a/relu_3x3"
  type: "ReLU"
  bottom: "inception_4a/3x3"
  top: "inception_4a/3x3"
}
layer {
  name: "inception_4a/5x5_reduce"
  type: "Convolution"
  bottom: "pool3/3x3_s2"
  top: "inception_4a/5x5_reduce_raw"
  param {
    lr_mult: 1
    decay_mult: 1
  }
  convolution_param {
    num_output: 16
    kernel_size: 1
    weight_filler {
      type: "msra"
    }
    bias_filler {
      type: "constant"
      value: 0.2
    }
  }
}
layer {
  name: "inception_4a/5x5_reduce_BatchNorm"
  type: "BatchNorm"
  bottom: "inception_4a/5x5_reduce_raw"
  top: "inception_4a/5x5_reduce"
  param {
    lr_mult: 1
    decay_mult: 0
  }
  param {
    lr_mult: 1
    decay_mult: 0
  }
  param {
    lr_mult: 0
    decay_mult: 0
  }
  param {
    lr_mult: 0
    decay_mult: 0
  }
  batch_norm_param {
    use_global_stats: false
    eps: 1e-05
    scale_filler {
      type: "constant"
      value: 1
    }
    bias_filler {
      type: "constant"
      value: 0
    }
  }
}
layer {
  name: "inception_4a/relu_5x5_reduce"
  type: "ReLU"
  bottom: "inception_4a/5x5_reduce"
  top: "inception_4a/5x5_reduce"
}
layer {
  name: "inception_4a/5x5"
  type: "Convolution"
  bottom: "inception_4a/5x5_reduce"
  top: "inception_4a/5x5_raw"
  param {
    lr_mult: 1
    decay_mult: 1
  }
  convolution_param {
    num_output: 48
    pad: 2
    kernel_size: 5
    weight_filler {
      type: "msra"
    }
    bias_filler {
      type: "constant"
      value: 0.2
    }
  }
}
layer {
  name: "inception_4a/5x5_BatchNorm"
  type: "BatchNorm"
  bottom: "inception_4a/5x5_raw"
  top: "inception_4a/5x5"
  param {
    lr_mult: 1
    decay_mult: 0
  }
  param {
    lr_mult: 1
    decay_mult: 0
  }
  param {
    lr_mult: 0
    decay_mult: 0
  }
  param {
    lr_mult: 0
    decay_mult: 0
  }
  batch_norm_param {
    use_global_stats: false
    eps: 1e-05
    scale_filler {
      type: "constant"
      value: 1
    }
    bias_filler {
      type: "constant"
      value: 0
    }
  }
}
layer {
  name: "inception_4a/relu_5x5"
  type: "ReLU"
  bottom: "inception_4a/5x5"
  top: "inception_4a/5x5"
}
layer {
  name: "inception_4a/pool"
  type: "Pooling"
  bottom: "pool3/3x3_s2"
  top: "inception_4a/pool"
  pooling_param {
    pool: MAX
    kernel_size: 3
    stride: 1
    pad: 1
  }
}
layer {
  name: "inception_4a/pool_proj"
  type: "Convolution"
  bottom: "inception_4a/pool"
  top: "inception_4a/pool_proj_raw"
  param {
    lr_mult: 1
    decay_mult: 1
  }
  convolution_param {
    num_output: 64
    kernel_size: 1
    weight_filler {
      type: "msra"
    }
    bias_filler {
      type: "constant"
      value: 0.2
    }
  }
}
layer {
  name: "inception_4a/pool_proj_BatchNorm"
  type: "BatchNorm"
  bottom: "inception_4a/pool_proj_raw"
  top: "inception_4a/pool_proj"
  param {
    lr_mult: 1
    decay_mult: 0
  }
  param {
    lr_mult: 1
    decay_mult: 0
  }
  param {
    lr_mult: 0
    decay_mult: 0
  }
  param {
    lr_mult: 0
    decay_mult: 0
  }
  batch_norm_param {
    use_global_stats: false
    eps: 1e-05
    scale_filler {
      type: "constant"
      value: 1
    }
    bias_filler {
      type: "constant"
      value: 0
    }
  }
}
layer {
  name: "inception_4a/relu_pool_proj"
  type: "ReLU"
  bottom: "inception_4a/pool_proj"
  top: "inception_4a/pool_proj"
}
layer {
  name: "inception_4a/output"
  type: "Concat"
  bottom: "inception_4a/1x1"
  bottom: "inception_4a/3x3"
  bottom: "inception_4a/5x5"
  bottom: "inception_4a/pool_proj"
  top: "inception_4a/output"
}
layer {
  name: "inception_4b/1x1"
  type: "Convolution"
  bottom: "inception_4a/output"
  top: "inception_4b/1x1_raw"
  param {
    lr_mult: 1
    decay_mult: 1
  }
  convolution_param {
    num_output: 160
    kernel_size: 1
    weight_filler {
      type: "msra"
    }
    bias_filler {
      type: "constant"
      value: 0.2
    }
  }
}
layer {
  name: "inception_4b/1x1_BatchNorm"
  type: "BatchNorm"
  bottom: "inception_4b/1x1_raw"
  top: "inception_4b/1x1"
  param {
    lr_mult: 1
    decay_mult: 0
  }
  param {
    lr_mult: 1
    decay_mult: 0
  }
  param {
    lr_mult: 0
    decay_mult: 0
  }
  param {
    lr_mult: 0
    decay_mult: 0
  }
  batch_norm_param {
    use_global_stats: false
    eps: 1e-05
    scale_filler {
      type: "constant"
      value: 1
    }
    bias_filler {
      type: "constant"
      value: 0
    }
  }
}
layer {
  name: "inception_4b/relu_1x1"
  type: "ReLU"
  bottom: "inception_4b/1x1"
  top: "inception_4b/1x1"
}
layer {
  name: "inception_4b/3x3_reduce"
  type: "Convolution"
  bottom: "inception_4a/output"
  top: "inception_4b/3x3_reduce_raw"
  param {
    lr_mult: 1
    decay_mult: 1
  }
  convolution_param {
    num_output: 112
    kernel_size: 1
    weight_filler {
      type: "msra"
    }
    bias_filler {
      type: "constant"
      value: 0.2
    }
  }
}
layer {
  name: "inception_4b/3x3_reduce_BatchNorm"
  type: "BatchNorm"
  bottom: "inception_4b/3x3_reduce_raw"
  top: "inception_4b/3x3_reduce"
  param {
    lr_mult: 1
    decay_mult: 0
  }
  param {
    lr_mult: 1
    decay_mult: 0
  }
  param {
    lr_mult: 0
    decay_mult: 0
  }
  param {
    lr_mult: 0
    decay_mult: 0
  }
  batch_norm_param {
    use_global_stats: false
    eps: 1e-05
    scale_filler {
      type: "constant"
      value: 1
    }
    bias_filler {
      type: "constant"
      value: 0
    }
  }
}
layer {
  name: "inception_4b/relu_3x3_reduce"
  type: "ReLU"
  bottom: "inception_4b/3x3_reduce"
  top: "inception_4b/3x3_reduce"
}
layer {
  name: "inception_4b/3x3"
  type: "Convolution"
  bottom: "inception_4b/3x3_reduce"
  top: "inception_4b/3x3_raw"
  param {
    lr_mult: 1
    decay_mult: 1
  }
  convolution_param {
    num_output: 224
    pad: 1
    kernel_size: 3
    weight_filler {
      type: "msra"
    }
    bias_filler {
      type: "constant"
      value: 0.2
    }
  }
}
layer {
  name: "inception_4b/3x3_BatchNorm"
  type: "BatchNorm"
  bottom: "inception_4b/3x3_raw"
  top: "inception_4b/3x3"
  param {
    lr_mult: 1
    decay_mult: 0
  }
  param {
    lr_mult: 1
    decay_mult: 0
  }
  param {
    lr_mult: 0
    decay_mult: 0
  }
  param {
    lr_mult: 0
    decay_mult: 0
  }
  batch_norm_param {
    use_global_stats: false
    eps: 1e-05
    scale_filler {
      type: "constant"
      value: 1
    }
    bias_filler {
      type: "constant"
      value: 0
    }
  }
}
layer {
  name: "inception_4b/relu_3x3"
  type: "ReLU"
  bottom: "inception_4b/3x3"
  top: "inception_4b/3x3"
}
layer {
  name: "inception_4b/5x5_reduce"
  type: "Convolution"
  bottom: "inception_4a/output"
  top: "inception_4b/5x5_reduce_raw"
  param {
    lr_mult: 1
    decay_mult: 1
  }
  convolution_param {
    num_output: 24
    kernel_size: 1
    weight_filler {
      type: "msra"
    }
    bias_filler {
      type: "constant"
      value: 0.2
    }
  }
}
layer {
  name: "inception_4b/5x5_reduce_BatchNorm"
  type: "BatchNorm"
  bottom: "inception_4b/5x5_reduce_raw"
  top: "inception_4b/5x5_reduce"
  param {
    lr_mult: 1
    decay_mult: 0
  }
  param {
    lr_mult: 1
    decay_mult: 0
  }
  param {
    lr_mult: 0
    decay_mult: 0
  }
  param {
    lr_mult: 0
    decay_mult: 0
  }
  batch_norm_param {
    use_global_stats: false
    eps: 1e-05
    scale_filler {
      type: "constant"
      value: 1
    }
    bias_filler {
      type: "constant"
      value: 0
    }
  }
}
layer {
  name: "inception_4b/relu_5x5_reduce"
  type: "ReLU"
  bottom: "inception_4b/5x5_reduce"
  top: "inception_4b/5x5_reduce"
}
layer {
  name: "inception_4b/5x5"
  type: "Convolution"
  bottom: "inception_4b/5x5_reduce"
  top: "inception_4b/5x5_raw"
  param {
    lr_mult: 1
    decay_mult: 1
  }
  convolution_param {
    num_output: 64
    pad: 2
    kernel_size: 5
    weight_filler {
      type: "msra"
    }
    bias_filler {
      type: "constant"
      value: 0.2
    }
  }
}
layer {
  name: "inception_4b/5x5_BatchNorm"
  type: "BatchNorm"
  bottom: "inception_4b/5x5_raw"
  top: "inception_4b/5x5"
  param {
    lr_mult: 1
    decay_mult: 0
  }
  param {
    lr_mult: 1
    decay_mult: 0
  }
  param {
    lr_mult: 0
    decay_mult: 0
  }
  param {
    lr_mult: 0
    decay_mult: 0
  }
  batch_norm_param {
    use_global_stats: false
    eps: 1e-05
    scale_filler {
      type: "constant"
      value: 1
    }
    bias_filler {
      type: "constant"
      value: 0
    }
  }
}
layer {
  name: "inception_4b/relu_5x5"
  type: "ReLU"
  bottom: "inception_4b/5x5"
  top: "inception_4b/5x5"
}
layer {
  name: "inception_4b/pool"
  type: "Pooling"
  bottom: "inception_4a/output"
  top: "inception_4b/pool"
  pooling_param {
    pool: MAX
    kernel_size: 3
    stride: 1
    pad: 1
  }
}
layer {
  name: "inception_4b/pool_proj"
  type: "Convolution"
  bottom: "inception_4b/pool"
  top: "inception_4b/pool_proj_raw"
  param {
    lr_mult: 1
    decay_mult: 1
  }
  convolution_param {
    num_output: 64
    kernel_size: 1
    weight_filler {
      type: "msra"
    }
    bias_filler {
      type: "constant"
      value: 0.2
    }
  }
}
layer {
  name: "inception_4b/pool_proj_BatchNorm"
  type: "BatchNorm"
  bottom: "inception_4b/pool_proj_raw"
  top: "inception_4b/pool_proj"
  param {
    lr_mult: 1
    decay_mult: 0
  }
  param {
    lr_mult: 1
    decay_mult: 0
  }
  param {
    lr_mult: 0
    decay_mult: 0
  }
  param {
    lr_mult: 0
    decay_mult: 0
  }
  batch_norm_param {
    use_global_stats: false
    eps: 1e-05
    scale_filler {
      type: "constant"
      value: 1
    }
    bias_filler {
      type: "constant"
      value: 0
    }
  }
}
layer {
  name: "inception_4b/relu_pool_proj"
  type: "ReLU"
  bottom: "inception_4b/pool_proj"
  top: "inception_4b/pool_proj"
}
layer {
  name: "inception_4b/output"
  type: "Concat"
  bottom: "inception_4b/1x1"
  bottom: "inception_4b/3x3"
  bottom: "inception_4b/5x5"
  bottom: "inception_4b/pool_proj"
  top: "inception_4b/output"
}
layer {
  name: "inception_4c/1x1"
  type: "Convolution"
  bottom: "inception_4b/output"
  top: "inception_4c/1x1_raw"
  param {
    lr_mult: 1
    decay_mult: 1
  }
  convolution_param {
    num_output: 128
    kernel_size: 1
    weight_filler {
      type: "msra"
    }
    bias_filler {
      type: "constant"
      value: 0.2
    }
  }
}
layer {
  name: "inception_4c/1x1_BatchNorm"
  type: "BatchNorm"
  bottom: "inception_4c/1x1_raw"
  top: "inception_4c/1x1"
  param {
    lr_mult: 1
    decay_mult: 0
  }
  param {
    lr_mult: 1
    decay_mult: 0
  }
  param {
    lr_mult: 0
    decay_mult: 0
  }
  param {
    lr_mult: 0
    decay_mult: 0
  }
  batch_norm_param {
    use_global_stats: false
    eps: 1e-05
    sca
I0716 13:53:15.154086 23744 layer_factory.hpp:123] Creating layer data
I0716 13:53:15.154110 23744 net.cpp:140] Creating Layer data
I0716 13:53:15.154119 23744 net.cpp:455] data -> data
I0716 13:53:15.154129 23744 net.cpp:455] data -> label
I0716 13:53:15.154145 23744 image_data_layer.cpp:87] Opening file ../data/cityscapes/calibration.txt
I0716 13:53:15.154404 23744 image_data_layer.cpp:97] Shuffling data
I0716 13:53:15.154464 23744 image_data_layer.cpp:102] A total of 1000 images.
I0716 13:53:15.227895 23744 image_data_layer.cpp:130] output data size: 1,3,256,512
I0716 13:53:15.242262 23744 internal_thread.cpp:73] Starting internal thread(s) on GPU 0
I0716 13:53:15.242313 23744 net.cpp:190] Setting up data
I0716 13:53:15.242323 23744 net.cpp:197] Top shape: 1 3 256 512 (393216)
I0716 13:53:15.242327 23744 net.cpp:197] Top shape: 1 (1)
I0716 13:53:15.242331 23744 net.cpp:205] Memory required for data: 1572868
I0716 13:53:15.242336 23744 layer_factory.hpp:123] Creating layer conv1/7x7_s2
I0716 13:53:15.242352 23744 net.cpp:140] Creating Layer conv1/7x7_s2
I0716 13:53:15.242357 23744 net.cpp:481] conv1/7x7_s2 <- data
I0716 13:53:15.242369 23744 net.cpp:455] conv1/7x7_s2 -> conv1/7x7_s2_raw
I0716 13:53:15.244211 23744 net.cpp:190] Setting up conv1/7x7_s2
I0716 13:53:15.244223 23744 net.cpp:197] Top shape: 1 64 128 256 (2097152)
I0716 13:53:15.244226 23744 net.cpp:205] Memory required for data: 9961476
I0716 13:53:15.244242 23744 layer_factory.hpp:123] Creating layer conv1/7x7_s2_BatchNorm
I0716 13:53:15.244252 23744 net.cpp:140] Creating Layer conv1/7x7_s2_BatchNorm
I0716 13:53:15.244256 23744 net.cpp:481] conv1/7x7_s2_BatchNorm <- conv1/7x7_s2_raw
I0716 13:53:15.244261 23744 net.cpp:455] conv1/7x7_s2_BatchNorm -> conv1/7x7_s2
I0716 13:53:15.245229 23744 net.cpp:190] Setting up conv1/7x7_s2_BatchNorm
I0716 13:53:15.245236 23744 net.cpp:197] Top shape: 1 64 128 256 (2097152)
I0716 13:53:15.245240 23744 net.cpp:205] Memory required for data: 18350084
I0716 13:53:15.245251 23744 layer_factory.hpp:123] Creating layer conv1/relu_7x7
I0716 13:53:15.245259 23744 net.cpp:140] Creating Layer conv1/relu_7x7
I0716 13:53:15.245261 23744 net.cpp:481] conv1/relu_7x7 <- conv1/7x7_s2
I0716 13:53:15.245266 23744 net.cpp:442] conv1/relu_7x7 -> conv1/7x7_s2 (in-place)
I0716 13:53:15.245275 23744 net.cpp:190] Setting up conv1/relu_7x7
I0716 13:53:15.245280 23744 net.cpp:197] Top shape: 1 64 128 256 (2097152)
I0716 13:53:15.245281 23744 net.cpp:205] Memory required for data: 26738692
I0716 13:53:15.245285 23744 layer_factory.hpp:123] Creating layer pool1/3x3_s2
I0716 13:53:15.245291 23744 net.cpp:140] Creating Layer pool1/3x3_s2
I0716 13:53:15.245295 23744 net.cpp:481] pool1/3x3_s2 <- conv1/7x7_s2
I0716 13:53:15.245298 23744 net.cpp:455] pool1/3x3_s2 -> pool1/3x3_s2
I0716 13:53:15.245362 23744 net.cpp:190] Setting up pool1/3x3_s2
I0716 13:53:15.245368 23744 net.cpp:197] Top shape: 1 64 64 128 (524288)
I0716 13:53:15.245371 23744 net.cpp:205] Memory required for data: 28835844
I0716 13:53:15.245374 23744 layer_factory.hpp:123] Creating layer conv2/3x3_reduce
I0716 13:53:15.245383 23744 net.cpp:140] Creating Layer conv2/3x3_reduce
I0716 13:53:15.245386 23744 net.cpp:481] conv2/3x3_reduce <- pool1/3x3_s2
I0716 13:53:15.245391 23744 net.cpp:455] conv2/3x3_reduce -> conv2/3x3_reduce_raw
I0716 13:53:15.246476 23744 net.cpp:190] Setting up conv2/3x3_reduce
I0716 13:53:15.246487 23744 net.cpp:197] Top shape: 1 64 64 128 (524288)
I0716 13:53:15.246490 23744 net.cpp:205] Memory required for data: 30932996
I0716 13:53:15.246498 23744 layer_factory.hpp:123] Creating layer conv2/3x3_reduce_BatchNorm
I0716 13:53:15.246506 23744 net.cpp:140] Creating Layer conv2/3x3_reduce_BatchNorm
I0716 13:53:15.246510 23744 net.cpp:481] conv2/3x3_reduce_BatchNorm <- conv2/3x3_reduce_raw
I0716 13:53:15.246516 23744 net.cpp:455] conv2/3x3_reduce_BatchNorm -> conv2/3x3_reduce
I0716 13:53:15.247212 23744 net.cpp:190] Setting up conv2/3x3_reduce_BatchNorm
I0716 13:53:15.247220 23744 net.cpp:197] Top shape: 1 64 64 128 (524288)
I0716 13:53:15.247223 23744 net.cpp:205] Memory required for data: 33030148
I0716 13:53:15.247232 23744 layer_factory.hpp:123] Creating layer conv2/relu_3x3_reduce
I0716 13:53:15.247238 23744 net.cpp:140] Creating Layer conv2/relu_3x3_reduce
I0716 13:53:15.247241 23744 net.cpp:481] conv2/relu_3x3_reduce <- conv2/3x3_reduce
I0716 13:53:15.247246 23744 net.cpp:442] conv2/relu_3x3_reduce -> conv2/3x3_reduce (in-place)
I0716 13:53:15.247252 23744 net.cpp:190] Setting up conv2/relu_3x3_reduce
I0716 13:53:15.247256 23744 net.cpp:197] Top shape: 1 64 64 128 (524288)
I0716 13:53:15.247259 23744 net.cpp:205] Memory required for data: 35127300
I0716 13:53:15.247262 23744 layer_factory.hpp:123] Creating layer conv2/3x3
I0716 13:53:15.247277 23744 net.cpp:140] Creating Layer conv2/3x3
I0716 13:53:15.247279 23744 net.cpp:481] conv2/3x3 <- conv2/3x3_reduce
I0716 13:53:15.247284 23744 net.cpp:455] conv2/3x3 -> conv2/3x3_raw
I0716 13:53:15.248483 23744 net.cpp:190] Setting up conv2/3x3
I0716 13:53:15.248492 23744 net.cpp:197] Top shape: 1 192 64 128 (1572864)
I0716 13:53:15.248497 23744 net.cpp:205] Memory required for data: 41418756
I0716 13:53:15.248502 23744 layer_factory.hpp:123] Creating layer conv2/3x3_BatchNorm
I0716 13:53:15.248507 23744 net.cpp:140] Creating Layer conv2/3x3_BatchNorm
I0716 13:53:15.248512 23744 net.cpp:481] conv2/3x3_BatchNorm <- conv2/3x3_raw
I0716 13:53:15.248517 23744 net.cpp:455] conv2/3x3_BatchNorm -> conv2/3x3
I0716 13:53:15.249097 23744 net.cpp:190] Setting up conv2/3x3_BatchNorm
I0716 13:53:15.249105 23744 net.cpp:197] Top shape: 1 192 64 128 (1572864)
I0716 13:53:15.249109 23744 net.cpp:205] Memory required for data: 47710212
I0716 13:53:15.249119 23744 layer_factory.hpp:123] Creating layer conv2/relu_3x3
I0716 13:53:15.249125 23744 net.cpp:140] Creating Layer conv2/relu_3x3
I0716 13:53:15.249127 23744 net.cpp:481] conv2/relu_3x3 <- conv2/3x3
I0716 13:53:15.249132 23744 net.cpp:442] conv2/relu_3x3 -> conv2/3x3 (in-place)
I0716 13:53:15.249138 23744 net.cpp:190] Setting up conv2/relu_3x3
I0716 13:53:15.249141 23744 net.cpp:197] Top shape: 1 192 64 128 (1572864)
I0716 13:53:15.249145 23744 net.cpp:205] Memory required for data: 54001668
I0716 13:53:15.249147 23744 layer_factory.hpp:123] Creating layer conv2/3x3_conv2/relu_3x3_0_split
I0716 13:53:15.249152 23744 net.cpp:140] Creating Layer conv2/3x3_conv2/relu_3x3_0_split
I0716 13:53:15.249155 23744 net.cpp:481] conv2/3x3_conv2/relu_3x3_0_split <- conv2/3x3
I0716 13:53:15.249159 23744 net.cpp:455] conv2/3x3_conv2/relu_3x3_0_split -> conv2/3x3_conv2/relu_3x3_0_split_0
I0716 13:53:15.249166 23744 net.cpp:455] conv2/3x3_conv2/relu_3x3_0_split -> conv2/3x3_conv2/relu_3x3_0_split_1
I0716 13:53:15.249192 23744 net.cpp:190] Setting up conv2/3x3_conv2/relu_3x3_0_split
I0716 13:53:15.249197 23744 net.cpp:197] Top shape: 1 192 64 128 (1572864)
I0716 13:53:15.249200 23744 net.cpp:197] Top shape: 1 192 64 128 (1572864)
I0716 13:53:15.249202 23744 net.cpp:205] Memory required for data: 66584580
I0716 13:53:15.249205 23744 layer_factory.hpp:123] Creating layer pool2/3x3_s2
I0716 13:53:15.249212 23744 net.cpp:140] Creating Layer pool2/3x3_s2
I0716 13:53:15.249214 23744 net.cpp:481] pool2/3x3_s2 <- conv2/3x3_conv2/relu_3x3_0_split_0
I0716 13:53:15.249218 23744 net.cpp:455] pool2/3x3_s2 -> pool2/3x3_s2
I0716 13:53:15.249244 23744 net.cpp:190] Setting up pool2/3x3_s2
I0716 13:53:15.249248 23744 net.cpp:197] Top shape: 1 192 32 64 (393216)
I0716 13:53:15.249251 23744 net.cpp:205] Memory required for data: 68157444
I0716 13:53:15.249253 23744 layer_factory.hpp:123] Creating layer pool2/3x3_s2_pool2/3x3_s2_0_split
I0716 13:53:15.249258 23744 net.cpp:140] Creating Layer pool2/3x3_s2_pool2/3x3_s2_0_split
I0716 13:53:15.249261 23744 net.cpp:481] pool2/3x3_s2_pool2/3x3_s2_0_split <- pool2/3x3_s2
I0716 13:53:15.249266 23744 net.cpp:455] pool2/3x3_s2_pool2/3x3_s2_0_split -> pool2/3x3_s2_pool2/3x3_s2_0_split_0
I0716 13:53:15.249271 23744 net.cpp:455] pool2/3x3_s2_pool2/3x3_s2_0_split -> pool2/3x3_s2_pool2/3x3_s2_0_split_1
I0716 13:53:15.249277 23744 net.cpp:455] pool2/3x3_s2_pool2/3x3_s2_0_split -> pool2/3x3_s2_pool2/3x3_s2_0_split_2
I0716 13:53:15.249282 23744 net.cpp:455] pool2/3x3_s2_pool2/3x3_s2_0_split -> pool2/3x3_s2_pool2/3x3_s2_0_split_3
I0716 13:53:15.249325 23744 net.cpp:190] Setting up pool2/3x3_s2_pool2/3x3_s2_0_split
I0716 13:53:15.249330 23744 net.cpp:197] Top shape: 1 192 32 64 (393216)
I0716 13:53:15.249333 23744 net.cpp:197] Top shape: 1 192 32 64 (393216)
I0716 13:53:15.249337 23744 net.cpp:197] Top shape: 1 192 32 64 (393216)
I0716 13:53:15.249341 23744 net.cpp:197] Top shape: 1 192 32 64 (393216)
I0716 13:53:15.249343 23744 net.cpp:205] Memory required for data: 74448900
I0716 13:53:15.249346 23744 layer_factory.hpp:123] Creating layer inception_3a/1x1
I0716 13:53:15.249353 23744 net.cpp:140] Creating Layer inception_3a/1x1
I0716 13:53:15.249356 23744 net.cpp:481] inception_3a/1x1 <- pool2/3x3_s2_pool2/3x3_s2_0_split_0
I0716 13:53:15.249361 23744 net.cpp:455] inception_3a/1x1 -> inception_3a/1x1_raw
I0716 13:53:15.249668 23744 net.cpp:190] Setting up inception_3a/1x1
I0716 13:53:15.249676 23744 net.cpp:197] Top shape: 1 64 32 64 (131072)
I0716 13:53:15.249680 23744 net.cpp:205] Memory required for data: 74973188
I0716 13:53:15.249684 23744 layer_factory.hpp:123] Creating layer inception_3a/1x1_BatchNorm
I0716 13:53:15.249692 23744 net.cpp:140] Creating Layer inception_3a/1x1_BatchNorm
I0716 13:53:15.249696 23744 net.cpp:481] inception_3a/1x1_BatchNorm <- inception_3a/1x1_raw
I0716 13:53:15.249701 23744 net.cpp:455] inception_3a/1x1_BatchNorm -> inception_3a/1x1
I0716 13:53:15.250270 23744 net.cpp:190] Setting up inception_3a/1x1_BatchNorm
I0716 13:53:15.250278 23744 net.cpp:197] Top shape: 1 64 32 64 (131072)
I0716 13:53:15.250283 23744 net.cpp:205] Memory required for data: 75497476
I0716 13:53:15.250290 23744 layer_factory.hpp:123] Creating layer inception_3a/relu_1x1
I0716 13:53:15.250296 23744 net.cpp:140] Creating Layer inception_3a/relu_1x1
I0716 13:53:15.250300 23744 net.cpp:481] inception_3a/relu_1x1 <- inception_3a/1x1
I0716 13:53:15.250304 23744 net.cpp:442] inception_3a/relu_1x1 -> inception_3a/1x1 (in-place)
I0716 13:53:15.250310 23744 net.cpp:190] Setting up inception_3a/relu_1x1
I0716 13:53:15.250314 23744 net.cpp:197] Top shape: 1 64 32 64 (131072)
I0716 13:53:15.250317 23744 net.cpp:205] Memory required for data: 76021764
I0716 13:53:15.250320 23744 layer_factory.hpp:123] Creating layer inception_3a/3x3_reduce
I0716 13:53:15.250327 23744 net.cpp:140] Creating Layer inception_3a/3x3_reduce
I0716 13:53:15.250330 23744 net.cpp:481] inception_3a/3x3_reduce <- pool2/3x3_s2_pool2/3x3_s2_0_split_1
I0716 13:53:15.250336 23744 net.cpp:455] inception_3a/3x3_reduce -> inception_3a/3x3_reduce_raw
I0716 13:53:15.250702 23744 net.cpp:190] Setting up inception_3a/3x3_reduce
I0716 13:53:15.250710 23744 net.cpp:197] Top shape: 1 96 32 64 (196608)
I0716 13:53:15.250713 23744 net.cpp:205] Memory required for data: 76808196
I0716 13:53:15.250718 23744 layer_factory.hpp:123] Creating layer inception_3a/3x3_reduce_BatchNorm
I0716 13:53:15.250725 23744 net.cpp:140] Creating Layer inception_3a/3x3_reduce_BatchNorm
I0716 13:53:15.250730 23744 net.cpp:481] inception_3a/3x3_reduce_BatchNorm <- inception_3a/3x3_reduce_raw
I0716 13:53:15.250735 23744 net.cpp:455] inception_3a/3x3_reduce_BatchNorm -> inception_3a/3x3_reduce
I0716 13:53:15.251313 23744 net.cpp:190] Setting up inception_3a/3x3_reduce_BatchNorm
I0716 13:53:15.251322 23744 net.cpp:197] Top shape: 1 96 32 64 (196608)
I0716 13:53:15.251324 23744 net.cpp:205] Memory required for data: 77594628
I0716 13:53:15.251335 23744 layer_factory.hpp:123] Creating layer inception_3a/relu_3x3_reduce
I0716 13:53:15.251341 23744 net.cpp:140] Creating Layer inception_3a/relu_3x3_reduce
I0716 13:53:15.251344 23744 net.cpp:481] inception_3a/relu_3x3_reduce <- inception_3a/3x3_reduce
I0716 13:53:15.251348 23744 net.cpp:442] inception_3a/relu_3x3_reduce -> inception_3a/3x3_reduce (in-place)
I0716 13:53:15.251354 23744 net.cpp:190] Setting up inception_3a/relu_3x3_reduce
I0716 13:53:15.251358 23744 net.cpp:197] Top shape: 1 96 32 64 (196608)
I0716 13:53:15.251361 23744 net.cpp:205] Memory required for data: 78381060
I0716 13:53:15.251363 23744 layer_factory.hpp:123] Creating layer inception_3a/3x3
I0716 13:53:15.251371 23744 net.cpp:140] Creating Layer inception_3a/3x3
I0716 13:53:15.251374 23744 net.cpp:481] inception_3a/3x3 <- inception_3a/3x3_reduce
I0716 13:53:15.251379 23744 net.cpp:455] inception_3a/3x3 -> inception_3a/3x3_raw
I0716 13:53:15.252552 23744 net.cpp:190] Setting up inception_3a/3x3
I0716 13:53:15.252562 23744 net.cpp:197] Top shape: 1 128 32 64 (262144)
I0716 13:53:15.252565 23744 net.cpp:205] Memory required for data: 79429636
I0716 13:53:15.252570 23744 layer_factory.hpp:123] Creating layer inception_3a/3x3_BatchNorm
I0716 13:53:15.252578 23744 net.cpp:140] Creating Layer inception_3a/3x3_BatchNorm
I0716 13:53:15.252580 23744 net.cpp:481] inception_3a/3x3_BatchNorm <- inception_3a/3x3_raw
I0716 13:53:15.252586 23744 net.cpp:455] inception_3a/3x3_BatchNorm -> inception_3a/3x3
I0716 13:53:15.253090 23744 net.cpp:190] Setting up inception_3a/3x3_BatchNorm
I0716 13:53:15.253098 23744 net.cpp:197] Top shape: 1 128 32 64 (262144)
I0716 13:53:15.253100 23744 net.cpp:205] Memory required for data: 80478212
I0716 13:53:15.253109 23744 layer_factory.hpp:123] Creating layer inception_3a/relu_3x3
I0716 13:53:15.253114 23744 net.cpp:140] Creating Layer inception_3a/relu_3x3
I0716 13:53:15.253118 23744 net.cpp:481] inception_3a/relu_3x3 <- inception_3a/3x3
I0716 13:53:15.253123 23744 net.cpp:442] inception_3a/relu_3x3 -> inception_3a/3x3 (in-place)
I0716 13:53:15.253129 23744 net.cpp:190] Setting up inception_3a/relu_3x3
I0716 13:53:15.253131 23744 net.cpp:197] Top shape: 1 128 32 64 (262144)
I0716 13:53:15.253134 23744 net.cpp:205] Memory required for data: 81526788
I0716 13:53:15.253137 23744 layer_factory.hpp:123] Creating layer inception_3a/5x5_reduce
I0716 13:53:15.253145 23744 net.cpp:140] Creating Layer inception_3a/5x5_reduce
I0716 13:53:15.253149 23744 net.cpp:481] inception_3a/5x5_reduce <- pool2/3x3_s2_pool2/3x3_s2_0_split_2
I0716 13:53:15.253154 23744 net.cpp:455] inception_3a/5x5_reduce -> inception_3a/5x5_reduce_raw
I0716 13:53:15.253381 23744 net.cpp:190] Setting up inception_3a/5x5_reduce
I0716 13:53:15.253388 23744 net.cpp:197] Top shape: 1 16 32 64 (32768)
I0716 13:53:15.253391 23744 net.cpp:205] Memory required for data: 81657860
I0716 13:53:15.253396 23744 layer_factory.hpp:123] Creating layer inception_3a/5x5_reduce_BatchNorm
I0716 13:53:15.253402 23744 net.cpp:140] Creating Layer inception_3a/5x5_reduce_BatchNorm
I0716 13:53:15.253407 23744 net.cpp:481] inception_3a/5x5_reduce_BatchNorm <- inception_3a/5x5_reduce_raw
I0716 13:53:15.253412 23744 net.cpp:455] inception_3a/5x5_reduce_BatchNorm -> inception_3a/5x5_reduce
I0716 13:53:15.253974 23744 net.cpp:190] Setting up inception_3a/5x5_reduce_BatchNorm
I0716 13:53:15.253981 23744 net.cpp:197] Top shape: 1 16 32 64 (32768)
I0716 13:53:15.253985 23744 net.cpp:205] Memory required for data: 81788932
I0716 13:53:15.253993 23744 layer_factory.hpp:123] Creating layer inception_3a/relu_5x5_reduce
I0716 13:53:15.253998 23744 net.cpp:140] Creating Layer inception_3a/relu_5x5_reduce
I0716 13:53:15.254001 23744 net.cpp:481] inception_3a/relu_5x5_reduce <- inception_3a/5x5_reduce
I0716 13:53:15.254006 23744 net.cpp:442] inception_3a/relu_5x5_reduce -> inception_3a/5x5_reduce (in-place)
I0716 13:53:15.254012 23744 net.cpp:190] Setting up inception_3a/relu_5x5_reduce
I0716 13:53:15.254015 23744 net.cpp:197] Top shape: 1 16 32 64 (32768)
I0716 13:53:15.254019 23744 net.cpp:205] Memory required for data: 81920004
I0716 13:53:15.254021 23744 layer_factory.hpp:123] Creating layer inception_3a/5x5
I0716 13:53:15.254029 23744 net.cpp:140] Creating Layer inception_3a/5x5
I0716 13:53:15.254032 23744 net.cpp:481] inception_3a/5x5 <- inception_3a/5x5_reduce
I0716 13:53:15.254037 23744 net.cpp:455] inception_3a/5x5 -> inception_3a/5x5_raw
I0716 13:53:15.254348 23744 net.cpp:190] Setting up inception_3a/5x5
I0716 13:53:15.254356 23744 net.cpp:197] Top shape: 1 32 32 64 (65536)
I0716 13:53:15.254359 23744 net.cpp:205] Memory required for data: 82182148
I0716 13:53:15.254364 23744 layer_factory.hpp:123] Creating layer inception_3a/5x5_BatchNorm
I0716 13:53:15.254371 23744 net.cpp:140] Creating Layer inception_3a/5x5_BatchNorm
I0716 13:53:15.254374 23744 net.cpp:481] inception_3a/5x5_BatchNorm <- inception_3a/5x5_raw
I0716 13:53:15.254379 23744 net.cpp:455] inception_3a/5x5_BatchNorm -> inception_3a/5x5
I0716 13:53:15.254951 23744 net.cpp:190] Setting up inception_3a/5x5_BatchNorm
I0716 13:53:15.254959 23744 net.cpp:197] Top shape: 1 32 32 64 (65536)
I0716 13:53:15.254962 23744 net.cpp:205] Memory required for data: 82444292
I0716 13:53:15.254971 23744 layer_factory.hpp:123] Creating layer inception_3a/relu_5x5
I0716 13:53:15.254976 23744 net.cpp:140] Creating Layer inception_3a/relu_5x5
I0716 13:53:15.254979 23744 net.cpp:481] inception_3a/relu_5x5 <- inception_3a/5x5
I0716 13:53:15.254984 23744 net.cpp:442] inception_3a/relu_5x5 -> inception_3a/5x5 (in-place)
I0716 13:53:15.254989 23744 net.cpp:190] Setting up inception_3a/relu_5x5
I0716 13:53:15.254993 23744 net.cpp:197] Top shape: 1 32 32 64 (65536)
I0716 13:53:15.254997 23744 net.cpp:205] Memory required for data: 82706436
I0716 13:53:15.254998 23744 layer_factory.hpp:123] Creating layer inception_3a/pool
I0716 13:53:15.255003 23744 net.cpp:140] Creating Layer inception_3a/pool
I0716 13:53:15.255007 23744 net.cpp:481] inception_3a/pool <- pool2/3x3_s2_pool2/3x3_s2_0_split_3
I0716 13:53:15.255012 23744 net.cpp:455] inception_3a/pool -> inception_3a/pool
I0716 13:53:15.255040 23744 net.cpp:190] Setting up inception_3a/pool
I0716 13:53:15.255044 23744 net.cpp:197] Top shape: 1 192 32 64 (393216)
I0716 13:53:15.255046 23744 net.cpp:205] Memory required for data: 84279300
I0716 13:53:15.255050 23744 layer_factory.hpp:123] Creating layer inception_3a/pool_proj
I0716 13:53:15.255057 23744 net.cpp:140] Creating Layer inception_3a/pool_proj
I0716 13:53:15.255060 23744 net.cpp:481] inception_3a/pool_proj <- inception_3a/pool
I0716 13:53:15.255065 23744 net.cpp:455] inception_3a/pool_proj -> inception_3a/pool_proj_raw
I0716 13:53:15.255317 23744 net.cpp:190] Setting up inception_3a/pool_proj
I0716 13:53:15.255324 23744 net.cpp:197] Top shape: 1 32 32 64 (65536)
I0716 13:53:15.255327 23744 net.cpp:205] Memory required for data: 84541444
I0716 13:53:15.255332 23744 layer_factory.hpp:123] Creating layer inception_3a/pool_proj_BatchNorm
I0716 13:53:15.255339 23744 net.cpp:140] Creating Layer inception_3a/pool_proj_BatchNorm
I0716 13:53:15.255342 23744 net.cpp:481] inception_3a/pool_proj_BatchNorm <- inception_3a/pool_proj_raw
I0716 13:53:15.255348 23744 net.cpp:455] inception_3a/pool_proj_BatchNorm -> inception_3a/pool_proj
I0716 13:53:15.255930 23744 net.cpp:190] Setting up inception_3a/pool_proj_BatchNorm
I0716 13:53:15.255939 23744 net.cpp:197] Top shape: 1 32 32 64 (65536)
I0716 13:53:15.255941 23744 net.cpp:205] Memory required for data: 84803588
I0716 13:53:15.255949 23744 layer_factory.hpp:123] Creating layer inception_3a/relu_pool_proj
I0716 13:53:15.255956 23744 net.cpp:140] Creating Layer inception_3a/relu_pool_proj
I0716 13:53:15.255959 23744 net.cpp:481] inception_3a/relu_pool_proj <- inception_3a/pool_proj
I0716 13:53:15.255964 23744 net.cpp:442] inception_3a/relu_pool_proj -> inception_3a/pool_proj (in-place)
I0716 13:53:15.255970 23744 net.cpp:190] Setting up inception_3a/relu_pool_proj
I0716 13:53:15.255973 23744 net.cpp:197] Top shape: 1 32 32 64 (65536)
I0716 13:53:15.255976 23744 net.cpp:205] Memory required for data: 85065732
I0716 13:53:15.255980 23744 layer_factory.hpp:123] Creating layer inception_3a/output
I0716 13:53:15.255985 23744 net.cpp:140] Creating Layer inception_3a/output
I0716 13:53:15.255987 23744 net.cpp:481] inception_3a/output <- inception_3a/1x1
I0716 13:53:15.255991 23744 net.cpp:481] inception_3a/output <- inception_3a/3x3
I0716 13:53:15.255995 23744 net.cpp:481] inception_3a/output <- inception_3a/5x5
I0716 13:53:15.255998 23744 net.cpp:481] inception_3a/output <- inception_3a/pool_proj
I0716 13:53:15.256003 23744 net.cpp:455] inception_3a/output -> inception_3a/output
I0716 13:53:15.256023 23744 net.cpp:190] Setting up inception_3a/output
I0716 13:53:15.256027 23744 net.cpp:197] Top shape: 1 256 32 64 (524288)
I0716 13:53:15.256031 23744 net.cpp:205] Memory required for data: 87162884
I0716 13:53:15.256033 23744 layer_factory.hpp:123] Creating layer inception_3a/output_inception_3a/output_0_split
I0716 13:53:15.256038 23744 net.cpp:140] Creating Layer inception_3a/output_inception_3a/output_0_split
I0716 13:53:15.256042 23744 net.cpp:481] inception_3a/output_inception_3a/output_0_split <- inception_3a/output
I0716 13:53:15.256047 23744 net.cpp:455] inception_3a/output_inception_3a/output_0_split -> inception_3a/output_inception_3a/output_0_split_0
I0716 13:53:15.256052 23744 net.cpp:455] inception_3a/output_inception_3a/output_0_split -> inception_3a/output_inception_3a/output_0_split_1
I0716 13:53:15.256058 23744 net.cpp:455] inception_3a/output_inception_3a/output_0_split -> inception_3a/output_inception_3a/output_0_split_2
I0716 13:53:15.256065 23744 net.cpp:455] inception_3a/output_inception_3a/output_0_split -> inception_3a/output_inception_3a/output_0_split_3
I0716 13:53:15.256108 23744 net.cpp:190] Setting up inception_3a/output_inception_3a/output_0_split
I0716 13:53:15.256122 23744 net.cpp:197] Top shape: 1 256 32 64 (524288)
I0716 13:53:15.256126 23744 net.cpp:197] Top shape: 1 256 32 64 (524288)
I0716 13:53:15.256129 23744 net.cpp:197] Top shape: 1 256 32 64 (524288)
I0716 13:53:15.256134 23744 net.cpp:197] Top shape: 1 256 32 64 (524288)
I0716 13:53:15.256135 23744 net.cpp:205] Memory required for data: 95551492
I0716 13:53:15.256139 23744 layer_factory.hpp:123] Creating layer inception_3b/1x1
I0716 13:53:15.256145 23744 net.cpp:140] Creating Layer inception_3b/1x1
I0716 13:53:15.256150 23744 net.cpp:481] inception_3b/1x1 <- inception_3a/output_inception_3a/output_0_split_0
I0716 13:53:15.256155 23744 net.cpp:455] inception_3b/1x1 -> inception_3b/1x1_raw
I0716 13:53:15.256641 23744 net.cpp:190] Setting up inception_3b/1x1
I0716 13:53:15.256649 23744 net.cpp:197] Top shape: 1 128 32 64 (262144)
I0716 13:53:15.256651 23744 net.cpp:205] Memory required for data: 96600068
I0716 13:53:15.256660 23744 layer_factory.hpp:123] Creating layer inception_3b/1x1_BatchNorm
I0716 13:53:15.256669 23744 net.cpp:140] Creating Layer inception_3b/1x1_BatchNorm
I0716 13:53:15.256675 23744 net.cpp:481] inception_3b/1x1_BatchNorm <- inception_3b/1x1_raw
I0716 13:53:15.256680 23744 net.cpp:455] inception_3b/1x1_BatchNorm -> inception_3b/1x1
I0716 13:53:15.257184 23744 net.cpp:190] Setting up inception_3b/1x1_BatchNorm
I0716 13:53:15.257191 23744 net.cpp:197] Top shape: 1 128 32 64 (262144)
I0716 13:53:15.257194 23744 net.cpp:205] Memory required for data: 97648644
I0716 13:53:15.257202 23744 layer_factory.hpp:123] Creating layer inception_3b/relu_1x1
I0716 13:53:15.257207 23744 net.cpp:140] Creating Layer inception_3b/relu_1x1
I0716 13:53:15.257211 23744 net.cpp:481] inception_3b/relu_1x1 <- inception_3b/1x1
I0716 13:53:15.257216 23744 net.cpp:442] inception_3b/relu_1x1 -> inception_3b/1x1 (in-place)
I0716 13:53:15.257222 23744 net.cpp:190] Setting up inception_3b/relu_1x1
I0716 13:53:15.257225 23744 net.cpp:197] Top shape: 1 128 32 64 (262144)
I0716 13:53:15.257230 23744 net.cpp:205] Memory required for data: 98697220
I0716 13:53:15.257231 23744 layer_factory.hpp:123] Creating layer inception_3b/3x3_reduce
I0716 13:53:15.257239 23744 net.cpp:140] Creating Layer inception_3b/3x3_reduce
I0716 13:53:15.257242 23744 net.cpp:481] inception_3b/3x3_reduce <- inception_3a/output_inception_3a/output_0_split_1
I0716 13:53:15.257248 23744 net.cpp:455] inception_3b/3x3_reduce -> inception_3b/3x3_reduce_raw
I0716 13:53:15.257727 23744 net.cpp:190] Setting up inception_3b/3x3_reduce
I0716 13:53:15.257735 23744 net.cpp:197] Top shape: 1 128 32 64 (262144)
I0716 13:53:15.257738 23744 net.cpp:205] Memory required for data: 99745796
I0716 13:53:15.257743 23744 layer_factory.hpp:123] Creating layer inception_3b/3x3_reduce_BatchNorm
I0716 13:53:15.257750 23744 net.cpp:140] Creating Layer inception_3b/3x3_reduce_BatchNorm
I0716 13:53:15.257755 23744 net.cpp:481] inception_3b/3x3_reduce_BatchNorm <- inception_3b/3x3_reduce_raw
I0716 13:53:15.257760 23744 net.cpp:455] inception_3b/3x3_reduce_BatchNorm -> inception_3b/3x3_reduce
I0716 13:53:15.258260 23744 net.cpp:190] Setting up inception_3b/3x3_reduce_BatchNorm
I0716 13:53:15.258266 23744 net.cpp:197] Top shape: 1 128 32 64 (262144)
I0716 13:53:15.258270 23744 net.cpp:205] Memory required for data: 100794372
I0716 13:53:15.258276 23744 layer_factory.hpp:123] Creating layer inception_3b/relu_3x3_reduce
I0716 13:53:15.258282 23744 net.cpp:140] Creating Layer inception_3b/relu_3x3_reduce
I0716 13:53:15.258285 23744 net.cpp:481] inception_3b/relu_3x3_reduce <- inception_3b/3x3_reduce
I0716 13:53:15.258289 23744 net.cpp:442] inception_3b/relu_3x3_reduce -> inception_3b/3x3_reduce (in-place)
I0716 13:53:15.258296 23744 net.cpp:190] Setting up inception_3b/relu_3x3_reduce
I0716 13:53:15.258299 23744 net.cpp:197] Top shape: 1 128 32 64 (262144)
I0716 13:53:15.258302 23744 net.cpp:205] Memory required for data: 101842948
I0716 13:53:15.258306 23744 layer_factory.hpp:123] Creating layer inception_3b/3x3
I0716 13:53:15.258312 23744 net.cpp:140] Creating Layer inception_3b/3x3
I0716 13:53:15.258316 23744 net.cpp:481] inception_3b/3x3 <- inception_3b/3x3_reduce
I0716 13:53:15.258322 23744 net.cpp:455] inception_3b/3x3 -> inception_3b/3x3_raw
I0716 13:53:15.261142 23744 net.cpp:190] Setting up inception_3b/3x3
I0716 13:53:15.261153 23744 net.cpp:197] Top shape: 1 192 32 64 (393216)
I0716 13:53:15.261157 23744 net.cpp:205] Memory required for data: 103415812
I0716 13:53:15.261162 23744 layer_factory.hpp:123] Creating layer inception_3b/3x3_BatchNorm
I0716 13:53:15.261170 23744 net.cpp:140] Creating Layer inception_3b/3x3_BatchNorm
I0716 13:53:15.261174 23744 net.cpp:481] inception_3b/3x3_BatchNorm <- inception_3b/3x3_raw
I0716 13:53:15.261180 23744 net.cpp:455] inception_3b/3x3_BatchNorm -> inception_3b/3x3
I0716 13:53:15.261771 23744 net.cpp:190] Setting up inception_3b/3x3_BatchNorm
I0716 13:53:15.261780 23744 net.cpp:197] Top shape: 1 192 32 64 (393216)
I0716 13:53:15.261783 23744 net.cpp:205] Memory required for data: 104988676
I0716 13:53:15.261791 23744 layer_factory.hpp:123] Creating layer inception_3b/relu_3x3
I0716 13:53:15.261797 23744 net.cpp:140] Creating Layer inception_3b/relu_3x3
I0716 13:53:15.261801 23744 net.cpp:481] inception_3b/relu_3x3 <- inception_3b/3x3
I0716 13:53:15.261806 23744 net.cpp:442] inception_3b/relu_3x3 -> inception_3b/3x3 (in-place)
I0716 13:53:15.261811 23744 net.cpp:190] Setting up inception_3b/relu_3x3
I0716 13:53:15.261816 23744 net.cpp:197] Top shape: 1 192 32 64 (393216)
I0716 13:53:15.261818 23744 net.cpp:205] Memory required for data: 106561540
I0716 13:53:15.261821 23744 layer_factory.hpp:123] Creating layer inception_3b/5x5_reduce
I0716 13:53:15.261828 23744 net.cpp:140] Creating Layer inception_3b/5x5_reduce
I0716 13:53:15.261832 23744 net.cpp:481] inception_3b/5x5_reduce <- inception_3a/output_inception_3a/output_0_split_2
I0716 13:53:15.261837 23744 net.cpp:455] inception_3b/5x5_reduce -> inception_3b/5x5_reduce_raw
I0716 13:53:15.262120 23744 net.cpp:190] Setting up inception_3b/5x5_reduce
I0716 13:53:15.262128 23744 net.cpp:197] Top shape: 1 32 32 64 (65536)
I0716 13:53:15.262131 23744 net.cpp:205] Memory required for data: 106823684
I0716 13:53:15.262136 23744 layer_factory.hpp:123] Creating layer inception_3b/5x5_reduce_BatchNorm
I0716 13:53:15.262143 23744 net.cpp:140] Creating Layer inception_3b/5x5_reduce_BatchNorm
I0716 13:53:15.262146 23744 net.cpp:481] inception_3b/5x5_reduce_BatchNorm <- inception_3b/5x5_reduce_raw
I0716 13:53:15.262152 23744 net.cpp:455] inception_3b/5x5_reduce_BatchNorm -> inception_3b/5x5_reduce
I0716 13:53:15.262740 23744 net.cpp:190] Setting up inception_3b/5x5_reduce_BatchNorm
I0716 13:53:15.262748 23744 net.cpp:197] Top shape: 1 32 32 64 (65536)
I0716 13:53:15.262750 23744 net.cpp:205] Memory required for data: 107085828
I0716 13:53:15.262758 23744 layer_factory.hpp:123] Creating layer inception_3b/relu_5x5_reduce
I0716 13:53:15.262764 23744 net.cpp:140] Creating Layer inception_3b/relu_5x5_reduce
I0716 13:53:15.262768 23744 net.cpp:481] inception_3b/relu_5x5_reduce <- inception_3b/5x5_reduce
I0716 13:53:15.262773 23744 net.cpp:442] inception_3b/relu_5x5_reduce -> inception_3b/5x5_reduce (in-place)
I0716 13:53:15.262778 23744 net.cpp:190] Setting up inception_3b/relu_5x5_reduce
I0716 13:53:15.262782 23744 net.cpp:197] Top shape: 1 32 32 64 (65536)
I0716 13:53:15.262784 23744 net.cpp:205] Memory required for data: 107347972
I0716 13:53:15.262787 23744 layer_factory.hpp:123] Creating layer inception_3b/5x5
I0716 13:53:15.262795 23744 net.cpp:140] Creating Layer inception_3b/5x5
I0716 13:53:15.262799 23744 net.cpp:481] inception_3b/5x5 <- inception_3b/5x5_reduce
I0716 13:53:15.262804 23744 net.cpp:455] inception_3b/5x5 -> inception_3b/5x5_raw
I0716 13:53:15.263698 23744 net.cpp:190] Setting up inception_3b/5x5
I0716 13:53:15.263706 23744 net.cpp:197] Top shape: 1 96 32 64 (196608)
I0716 13:53:15.263710 23744 net.cpp:205] Memory required for data: 108134404
I0716 13:53:15.263715 23744 layer_factory.hpp:123] Creating layer inception_3b/5x5_BatchNorm
I0716 13:53:15.263722 23744 net.cpp:140] Creating Layer inception_3b/5x5_BatchNorm
I0716 13:53:15.263725 23744 net.cpp:481] inception_3b/5x5_BatchNorm <- inception_3b/5x5_raw
I0716 13:53:15.263731 23744 net.cpp:455] inception_3b/5x5_BatchNorm -> inception_3b/5x5
I0716 13:53:15.264340 23744 net.cpp:190] Setting up inception_3b/5x5_BatchNorm
I0716 13:53:15.264348 23744 net.cpp:197] Top shape: 1 96 32 64 (196608)
I0716 13:53:15.264351 23744 net.cpp:205] Memory required for data: 108920836
I0716 13:53:15.264359 23744 layer_factory.hpp:123] Creating layer inception_3b/relu_5x5
I0716 13:53:15.264364 23744 net.cpp:140] Creating Layer inception_3b/relu_5x5
I0716 13:53:15.264369 23744 net.cpp:481] inception_3b/relu_5x5 <- inception_3b/5x5
I0716 13:53:15.264374 23744 net.cpp:442] inception_3b/relu_5x5 -> inception_3b/5x5 (in-place)
I0716 13:53:15.264379 23744 net.cpp:190] Setting up inception_3b/relu_5x5
I0716 13:53:15.264382 23744 net.cpp:197] Top shape: 1 96 32 64 (196608)
I0716 13:53:15.264385 23744 net.cpp:205] Memory required for data: 109707268
I0716 13:53:15.264389 23744 layer_factory.hpp:123] Creating layer inception_3b/pool
I0716 13:53:15.264394 23744 net.cpp:140] Creating Layer inception_3b/pool
I0716 13:53:15.264397 23744 net.cpp:481] inception_3b/pool <- inception_3a/output_inception_3a/output_0_split_3
I0716 13:53:15.264402 23744 net.cpp:455] inception_3b/pool -> inception_3b/pool
I0716 13:53:15.264431 23744 net.cpp:190] Setting up inception_3b/pool
I0716 13:53:15.264437 23744 net.cpp:197] Top shape: 1 256 32 64 (524288)
I0716 13:53:15.264441 23744 net.cpp:205] Memory required for data: 111804420
I0716 13:53:15.264443 23744 layer_factory.hpp:123] Creating layer inception_3b/pool_proj
I0716 13:53:15.264451 23744 net.cpp:140] Creating Layer inception_3b/pool_proj
I0716 13:53:15.264454 23744 net.cpp:481] inception_3b/pool_proj <- inception_3b/pool
I0716 13:53:15.264459 23744 net.cpp:455] inception_3b/pool_proj -> inception_3b/pool_proj_raw
I0716 13:53:15.264822 23744 net.cpp:190] Setting up inception_3b/pool_proj
I0716 13:53:15.264829 23744 net.cpp:197] Top shape: 1 64 32 64 (131072)
I0716 13:53:15.264832 23744 net.cpp:205] Memory required for data: 112328708
I0716 13:53:15.264837 23744 layer_factory.hpp:123] Creating layer inception_3b/pool_proj_BatchNorm
I0716 13:53:15.264844 23744 net.cpp:140] Creating Layer inception_3b/pool_proj_BatchNorm
I0716 13:53:15.264848 23744 net.cpp:481] inception_3b/pool_proj_BatchNorm <- inception_3b/pool_proj_raw
I0716 13:53:15.264854 23744 net.cpp:455] inception_3b/pool_proj_BatchNorm -> inception_3b/pool_proj
I0716 13:53:15.265439 23744 net.cpp:190] Setting up inception_3b/pool_proj_BatchNorm
I0716 13:53:15.265445 23744 net.cpp:197] Top shape: 1 64 32 64 (131072)
I0716 13:53:15.265449 23744 net.cpp:205] Memory required for data: 112852996
I0716 13:53:15.265456 23744 layer_factory.hpp:123] Creating layer inception_3b/relu_pool_proj
I0716 13:53:15.265461 23744 net.cpp:140] Creating Layer inception_3b/relu_pool_proj
I0716 13:53:15.265467 23744 net.cpp:481] inception_3b/relu_pool_proj <- inception_3b/pool_proj
I0716 13:53:15.265471 23744 net.cpp:442] inception_3b/relu_pool_proj -> inception_3b/pool_proj (in-place)
I0716 13:53:15.265477 23744 net.cpp:190] Setting up inception_3b/relu_pool_proj
I0716 13:53:15.265481 23744 net.cpp:197] Top shape: 1 64 32 64 (131072)
I0716 13:53:15.265485 23744 net.cpp:205] Memory required for data: 113377284
I0716 13:53:15.265487 23744 layer_factory.hpp:123] Creating layer inception_3b/output
I0716 13:53:15.265493 23744 net.cpp:140] Creating Layer inception_3b/output
I0716 13:53:15.265496 23744 net.cpp:481] inception_3b/output <- inception_3b/1x1
I0716 13:53:15.265499 23744 net.cpp:481] inception_3b/output <- inception_3b/3x3
I0716 13:53:15.265503 23744 net.cpp:481] inception_3b/output <- inception_3b/5x5
I0716 13:53:15.265507 23744 net.cpp:481] inception_3b/output <- inception_3b/pool_proj
I0716 13:53:15.265511 23744 net.cpp:455] inception_3b/output -> inception_3b/output
I0716 13:53:15.265532 23744 net.cpp:190] Setting up inception_3b/output
I0716 13:53:15.265537 23744 net.cpp:197] Top shape: 1 480 32 64 (983040)
I0716 13:53:15.265539 23744 net.cpp:205] Memory required for data: 117309444
I0716 13:53:15.265542 23744 layer_factory.hpp:123] Creating layer inception_3b/output_inception_3b/output_0_split
I0716 13:53:15.265547 23744 net.cpp:140] Creating Layer inception_3b/output_inception_3b/output_0_split
I0716 13:53:15.265550 23744 net.cpp:481] inception_3b/output_inception_3b/output_0_split <- inception_3b/output
I0716 13:53:15.265555 23744 net.cpp:455] inception_3b/output_inception_3b/output_0_split -> inception_3b/output_inception_3b/output_0_split_0
I0716 13:53:15.265561 23744 net.cpp:455] inception_3b/output_inception_3b/output_0_split -> inception_3b/output_inception_3b/output_0_split_1
I0716 13:53:15.265588 23744 net.cpp:190] Setting up inception_3b/output_inception_3b/output_0_split
I0716 13:53:15.265594 23744 net.cpp:197] Top shape: 1 480 32 64 (983040)
I0716 13:53:15.265597 23744 net.cpp:197] Top shape: 1 480 32 64 (983040)
I0716 13:53:15.265599 23744 net.cpp:205] Memory required for data: 125173764
I0716 13:53:15.265602 23744 layer_factory.hpp:123] Creating layer pool3/3x3_s2
I0716 13:53:15.265609 23744 net.cpp:140] Creating Layer pool3/3x3_s2
I0716 13:53:15.265611 23744 net.cpp:481] pool3/3x3_s2 <- inception_3b/output_inception_3b/output_0_split_0
I0716 13:53:15.265615 23744 net.cpp:455] pool3/3x3_s2 -> pool3/3x3_s2
I0716 13:53:15.265642 23744 net.cpp:190] Setting up pool3/3x3_s2
I0716 13:53:15.265647 23744 net.cpp:197] Top shape: 1 480 16 32 (245760)
I0716 13:53:15.265650 23744 net.cpp:205] Memory required for data: 126156804
I0716 13:53:15.265652 23744 layer_factory.hpp:123] Creating layer pool3/3x3_s2_pool3/3x3_s2_0_split
I0716 13:53:15.265657 23744 net.cpp:140] Creating Layer pool3/3x3_s2_pool3/3x3_s2_0_split
I0716 13:53:15.265661 23744 net.cpp:481] pool3/3x3_s2_pool3/3x3_s2_0_split <- pool3/3x3_s2
I0716 13:53:15.265666 23744 net.cpp:455] pool3/3x3_s2_pool3/3x3_s2_0_split -> pool3/3x3_s2_pool3/3x3_s2_0_split_0
I0716 13:53:15.265671 23744 net.cpp:455] pool3/3x3_s2_pool3/3x3_s2_0_split -> pool3/3x3_s2_pool3/3x3_s2_0_split_1
I0716 13:53:15.265677 23744 net.cpp:455] pool3/3x3_s2_pool3/3x3_s2_0_split -> pool3/3x3_s2_pool3/3x3_s2_0_split_2
I0716 13:53:15.265682 23744 net.cpp:455] pool3/3x3_s2_pool3/3x3_s2_0_split -> pool3/3x3_s2_pool3/3x3_s2_0_split_3
I0716 13:53:15.265735 23744 net.cpp:190] Setting up pool3/3x3_s2_pool3/3x3_s2_0_split
I0716 13:53:15.265740 23744 net.cpp:197] Top shape: 1 480 16 32 (245760)
I0716 13:53:15.265744 23744 net.cpp:197] Top shape: 1 480 16 32 (245760)
I0716 13:53:15.265748 23744 net.cpp:197] Top shape: 1 480 16 32 (245760)
I0716 13:53:15.265751 23744 net.cpp:197] Top shape: 1 480 16 32 (245760)
I0716 13:53:15.265753 23744 net.cpp:205] Memory required for data: 130088964
I0716 13:53:15.265758 23744 layer_factory.hpp:123] Creating layer inception_4a/1x1
I0716 13:53:15.265764 23744 net.cpp:140] Creating Layer inception_4a/1x1
I0716 13:53:15.265767 23744 net.cpp:481] inception_4a/1x1 <- pool3/3x3_s2_pool3/3x3_s2_0_split_0
I0716 13:53:15.265772 23744 net.cpp:455] inception_4a/1x1 -> inception_4a/1x1_raw
I0716 13:53:15.267503 23744 net.cpp:190] Setting up inception_4a/1x1
I0716 13:53:15.267513 23744 net.cpp:197] Top shape: 1 192 16 32 (98304)
I0716 13:53:15.267516 23744 net.cpp:205] Memory required for data: 130482180
I0716 13:53:15.267522 23744 layer_factory.hpp:123] Creating layer inception_4a/1x1_BatchNorm
I0716 13:53:15.267530 23744 net.cpp:140] Creating Layer inception_4a/1x1_BatchNorm
I0716 13:53:15.267534 23744 net.cpp:481] inception_4a/1x1_BatchNorm <- inception_4a/1x1_raw
I0716 13:53:15.267540 23744 net.cpp:455] inception_4a/1x1_BatchNorm -> inception_4a/1x1
I0716 13:53:15.268182 23744 net.cpp:190] Setting up inception_4a/1x1_BatchNorm
I0716 13:53:15.268191 23744 net.cpp:197] Top shape: 1 192 16 32 (98304)
I0716 13:53:15.268194 23744 net.cpp:205] Memory required for data: 130875396
I0716 13:53:15.268203 23744 layer_factory.hpp:123] Creating layer inception_4a/relu_1x1
I0716 13:53:15.268208 23744 net.cpp:140] Creating Layer inception_4a/relu_1x1
I0716 13:53:15.268211 23744 net.cpp:481] inception_4a/relu_1x1 <- inception_4a/1x1
I0716 13:53:15.268216 23744 net.cpp:442] inception_4a/relu_1x1 -> inception_4a/1x1 (in-place)
I0716 13:53:15.268223 23744 net.cpp:190] Setting up inception_4a/relu_1x1
I0716 13:53:15.268226 23744 net.cpp:197] Top shape: 1 192 16 32 (98304)
I0716 13:53:15.268229 23744 net.cpp:205] Memory required for data: 131268612
I0716 13:53:15.268232 23744 layer_factory.hpp:123] Creating layer inception_4a/3x3_reduce
I0716 13:53:15.268240 23744 net.cpp:140] Creating Layer inception_4a/3x3_reduce
I0716 13:53:15.268244 23744 net.cpp:481] inception_4a/3x3_reduce <- pool3/3x3_s2_pool3/3x3_s2_0_split_1
I0716 13:53:15.268249 23744 net.cpp:455] inception_4a/3x3_reduce -> inception_4a/3x3_reduce_raw
I0716 13:53:15.268874 23744 net.cpp:190] Setting up inception_4a/3x3_reduce
I0716 13:53:15.268882 23744 net.cpp:197] Top shape: 1 96 16 32 (49152)
I0716 13:53:15.268885 23744 net.cpp:205] Memory required for data: 131465220
I0716 13:53:15.268890 23744 layer_factory.hpp:123] Creating layer inception_4a/3x3_reduce_BatchNorm
I0716 13:53:15.268898 23744 net.cpp:140] Creating Layer inception_4a/3x3_reduce_BatchNorm
I0716 13:53:15.268900 23744 net.cpp:481] inception_4a/3x3_reduce_BatchNorm <- inception_4a/3x3_reduce_raw
I0716 13:53:15.268906 23744 net.cpp:455] inception_4a/3x3_reduce_BatchNorm -> inception_4a/3x3_reduce
I0716 13:53:15.269511 23744 net.cpp:190] Setting up inception_4a/3x3_reduce_BatchNorm
I0716 13:53:15.269518 23744 net.cpp:197] Top shape: 1 96 16 32 (49152)
I0716 13:53:15.269521 23744 net.cpp:205] Memory required for data: 131661828
I0716 13:53:15.269529 23744 layer_factory.hpp:123] Creating layer inception_4a/relu_3x3_reduce
I0716 13:53:15.269536 23744 net.cpp:140] Creating Layer inception_4a/relu_3x3_reduce
I0716 13:53:15.269538 23744 net.cpp:481] inception_4a/relu_3x3_reduce <- inception_4a/3x3_reduce
I0716 13:53:15.269543 23744 net.cpp:442] inception_4a/relu_3x3_reduce -> inception_4a/3x3_reduce (in-place)
I0716 13:53:15.269549 23744 net.cpp:190] Setting up inception_4a/relu_3x3_reduce
I0716 13:53:15.269553 23744 net.cpp:197] Top shape: 1 96 16 32 (49152)
I0716 13:53:15.269556 23744 net.cpp:205] Memory required for data: 131858436
I0716 13:53:15.269559 23744 layer_factory.hpp:123] Creating layer inception_4a/3x3
I0716 13:53:15.269568 23744 net.cpp:140] Creating Layer inception_4a/3x3
I0716 13:53:15.269572 23744 net.cpp:481] inception_4a/3x3 <- inception_4a/3x3_reduce
I0716 13:53:15.269577 23744 net.cpp:455] inception_4a/3x3 -> inception_4a/3x3_raw
I0716 13:53:15.272035 23744 net.cpp:190] Setting up inception_4a/3x3
I0716 13:53:15.272047 23744 net.cpp:197] Top shape: 1 208 16 32 (106496)
I0716 13:53:15.272051 23744 net.cpp:205] Memory required for data: 132284420
I0716 13:53:15.272058 23744 layer_factory.hpp:123] Creating layer inception_4a/3x3_BatchNorm
I0716 13:53:15.272065 23744 net.cpp:140] Creating Layer inception_4a/3x3_BatchNorm
I0716 13:53:15.272068 23744 net.cpp:481] inception_4a/3x3_BatchNorm <- inception_4a/3x3_raw
I0716 13:53:15.272075 23744 net.cpp:455] inception_4a/3x3_BatchNorm -> inception_4a/3x3
I0716 13:53:15.272680 23744 net.cpp:190] Setting up inception_4a/3x3_BatchNorm
I0716 13:53:15.272688 23744 net.cpp:197] Top shape: 1 208 16 32 (106496)
I0716 13:53:15.272691 23744 net.cpp:205] Memory required for data: 132710404
I0716 13:53:15.272701 23744 layer_factory.hpp:123] Creating layer inception_4a/relu_3x3
I0716 13:53:15.272706 23744 net.cpp:140] Creating Layer inception_4a/relu_3x3
I0716 13:53:15.272709 23744 net.cpp:481] inception_4a/relu_3x3 <- inception_4a/3x3
I0716 13:53:15.272713 23744 net.cpp:442] inception_4a/relu_3x3 -> inception_4a/3x3 (in-place)
I0716 13:53:15.272720 23744 net.cpp:190] Setting up inception_4a/relu_3x3
I0716 13:53:15.272724 23744 net.cpp:197] Top shape: 1 208 16 32 (106496)
I0716 13:53:15.272727 23744 net.cpp:205] Memory required for data: 133136388
I0716 13:53:15.272729 23744 layer_factory.hpp:123] Creating layer inception_4a/5x5_reduce
I0716 13:53:15.272737 23744 net.cpp:140] Creating Layer inception_4a/5x5_reduce
I0716 13:53:15.272740 23744 net.cpp:481] inception_4a/5x5_reduce <- pool3/3x3_s2_pool3/3x3_s2_0_split_2
I0716 13:53:15.272745 23744 net.cpp:455] inception_4a/5x5_reduce -> inception_4a/5x5_reduce_raw
I0716 13:53:15.273033 23744 net.cpp:190] Setting up inception_4a/5x5_reduce
I0716 13:53:15.273041 23744 net.cpp:197] Top shape: 1 16 16 32 (8192)
I0716 13:53:15.273044 23744 net.cpp:205] Memory required for data: 133169156
I0716 13:53:15.273049 23744 layer_factory.hpp:123] Creating layer inception_4a/5x5_reduce_BatchNorm
I0716 13:53:15.273056 23744 net.cpp:140] Creating Layer inception_4a/5x5_reduce_BatchNorm
I0716 13:53:15.273061 23744 net.cpp:481] inception_4a/5x5_reduce_BatchNorm <- inception_4a/5x5_reduce_raw
I0716 13:53:15.273066 23744 net.cpp:455] inception_4a/5x5_reduce_BatchNorm -> inception_4a/5x5_reduce
I0716 13:53:15.273664 23744 net.cpp:190] Setting up inception_4a/5x5_reduce_BatchNorm
I0716 13:53:15.273671 23744 net.cpp:197] Top shape: 1 16 16 32 (8192)
I0716 13:53:15.273675 23744 net.cpp:205] Memory required for data: 133201924
I0716 13:53:15.273689 23744 layer_factory.hpp:123] Creating layer inception_4a/relu_5x5_reduce
I0716 13:53:15.273695 23744 net.cpp:140] Creating Layer inception_4a/relu_5x5_reduce
I0716 13:53:15.273699 23744 net.cpp:481] inception_4a/relu_5x5_reduce <- inception_4a/5x5_reduce
I0716 13:53:15.273705 23744 net.cpp:442] inception_4a/relu_5x5_reduce -> inception_4a/5x5_reduce (in-place)
I0716 13:53:15.273710 23744 net.cpp:190] Setting up inception_4a/relu_5x5_reduce
I0716 13:53:15.273715 23744 net.cpp:197] Top shape: 1 16 16 32 (8192)
I0716 13:53:15.273717 23744 net.cpp:205] Memory required for data: 133234692
I0716 13:53:15.273720 23744 layer_factory.hpp:123] Creating layer inception_4a/5x5
I0716 13:53:15.273727 23744 net.cpp:140] Creating Layer inception_4a/5x5
I0716 13:53:15.273730 23744 net.cpp:481] inception_4a/5x5 <- inception_4a/5x5_reduce
I0716 13:53:15.273736 23744 net.cpp:455] inception_4a/5x5 -> inception_4a/5x5_raw
I0716 13:53:15.274119 23744 net.cpp:190] Setting up inception_4a/5x5
I0716 13:53:15.274127 23744 net.cpp:197] Top shape: 1 48 16 32 (24576)
I0716 13:53:15.274129 23744 net.cpp:205] Memory required for data: 133332996
I0716 13:53:15.274135 23744 layer_factory.hpp:123] Creating layer inception_4a/5x5_BatchNorm
I0716 13:53:15.274142 23744 net.cpp:140] Creating Layer inception_4a/5x5_BatchNorm
I0716 13:53:15.274145 23744 net.cpp:481] inception_4a/5x5_BatchNorm <- inception_4a/5x5_raw
I0716 13:53:15.274150 23744 net.cpp:455] inception_4a/5x5_BatchNorm -> inception_4a/5x5
I0716 13:53:15.274750 23744 net.cpp:190] Setting up inception_4a/5x5_BatchNorm
I0716 13:53:15.274758 23744 net.cpp:197] Top shape: 1 48 16 32 (24576)
I0716 13:53:15.274761 23744 net.cpp:205] Memory required for data: 133431300
I0716 13:53:15.274770 23744 layer_factory.hpp:123] Creating layer inception_4a/relu_5x5
I0716 13:53:15.274775 23744 net.cpp:140] Creating Layer inception_4a/relu_5x5
I0716 13:53:15.274780 23744 net.cpp:481] inception_4a/relu_5x5 <- inception_4a/5x5
I0716 13:53:15.274785 23744 net.cpp:442] inception_4a/relu_5x5 -> inception_4a/5x5 (in-place)
I0716 13:53:15.274791 23744 net.cpp:190] Setting up inception_4a/relu_5x5
I0716 13:53:15.274793 23744 net.cpp:197] Top shape: 1 48 16 32 (24576)
I0716 13:53:15.274796 23744 net.cpp:205] Memory required for data: 133529604
I0716 13:53:15.274799 23744 layer_factory.hpp:123] Creating layer inception_4a/pool
I0716 13:53:15.274804 23744 net.cpp:140] Creating Layer inception_4a/pool
I0716 13:53:15.274808 23744 net.cpp:481] inception_4a/pool <- pool3/3x3_s2_pool3/3x3_s2_0_split_3
I0716 13:53:15.274813 23744 net.cpp:455] inception_4a/pool -> inception_4a/pool
I0716 13:53:15.274843 23744 net.cpp:190] Setting up inception_4a/pool
I0716 13:53:15.274848 23744 net.cpp:197] Top shape: 1 480 16 32 (245760)
I0716 13:53:15.274852 23744 net.cpp:205] Memory required for data: 134512644
I0716 13:53:15.274854 23744 layer_factory.hpp:123] Creating layer inception_4a/pool_proj
I0716 13:53:15.274863 23744 net.cpp:140] Creating Layer inception_4a/pool_proj
I0716 13:53:15.274865 23744 net.cpp:481] inception_4a/pool_proj <- inception_4a/pool
I0716 13:53:15.274870 23744 net.cpp:455] inception_4a/pool_proj -> inception_4a/pool_proj_raw
I0716 13:53:15.275354 23744 net.cpp:190] Setting up inception_4a/pool_proj
I0716 13:53:15.275362 23744 net.cpp:197] Top shape: 1 64 16 32 (32768)
I0716 13:53:15.275365 23744 net.cpp:205] Memory required for data: 134643716
I0716 13:53:15.275370 23744 layer_factory.hpp:123] Creating layer inception_4a/pool_proj_BatchNorm
I0716 13:53:15.275377 23744 net.cpp:140] Creating Layer inception_4a/pool_proj_BatchNorm
I0716 13:53:15.275382 23744 net.cpp:481] inception_4a/pool_proj_BatchNorm <- inception_4a/pool_proj_raw
I0716 13:53:15.275388 23744 net.cpp:455] inception_4a/pool_proj_BatchNorm -> inception_4a/pool_proj
I0716 13:53:15.275991 23744 net.cpp:190] Setting up inception_4a/pool_proj_BatchNorm
I0716 13:53:15.276000 23744 net.cpp:197] Top shape: 1 64 16 32 (32768)
I0716 13:53:15.276002 23744 net.cpp:205] Memory required for data: 134774788
I0716 13:53:15.276010 23744 layer_factory.hpp:123] Creating layer inception_4a/relu_pool_proj
I0716 13:53:15.276016 23744 net.cpp:140] Creating Layer inception_4a/relu_pool_proj
I0716 13:53:15.276021 23744 net.cpp:481] inception_4a/relu_pool_proj <- inception_4a/pool_proj
I0716 13:53:15.276026 23744 net.cpp:442] inception_4a/relu_pool_proj -> inception_4a/pool_proj (in-place)
I0716 13:53:15.276031 23744 net.cpp:190] Setting up inception_4a/relu_pool_proj
I0716 13:53:15.276036 23744 net.cpp:197] Top shape: 1 64 16 32 (32768)
I0716 13:53:15.276038 23744 net.cpp:205] Memory required for data: 134905860
I0716 13:53:15.276041 23744 layer_factory.hpp:123] Creating layer inception_4a/output
I0716 13:53:15.276046 23744 net.cpp:140] Creating Layer inception_4a/output
I0716 13:53:15.276049 23744 net.cpp:481] inception_4a/output <- inception_4a/1x1
I0716 13:53:15.276053 23744 net.cpp:481] inception_4a/output <- inception_4a/3x3
I0716 13:53:15.276057 23744 net.cpp:481] inception_4a/output <- inception_4a/5x5
I0716 13:53:15.276060 23744 net.cpp:481] inception_4a/output <- inception_4a/pool_proj
I0716 13:53:15.276065 23744 net.cpp:455] inception_4a/output -> inception_4a/output
I0716 13:53:15.276085 23744 net.cpp:190] Setting up inception_4a/output
I0716 13:53:15.276091 23744 net.cpp:197] Top shape: 1 512 16 32 (262144)
I0716 13:53:15.276094 23744 net.cpp:205] Memory required for data: 135954436
I0716 13:53:15.276096 23744 layer_factory.hpp:123] Creating layer inception_4a/output_inception_4a/output_0_split
I0716 13:53:15.276103 23744 net.cpp:140] Creating Layer inception_4a/output_inception_4a/output_0_split
I0716 13:53:15.276105 23744 net.cpp:481] inception_4a/output_inception_4a/output_0_split <- inception_4a/output
I0716 13:53:15.276110 23744 net.cpp:455] inception_4a/output_inception_4a/output_0_split -> inception_4a/output_inception_4a/output_0_split_0
I0716 13:53:15.276118 23744 net.cpp:455] inception_4a/output_inception_4a/output_0_split -> inception_4a/output_inception_4a/output_0_split_1
I0716 13:53:15.276124 23744 net.cpp:455] inception_4a/output_inception_4a/output_0_split -> inception_4a/output_inception_4a/output_0_split_2
I0716 13:53:15.276129 23744 net.cpp:455] inception_4a/output_inception_4a/output_0_split -> inception_4a/output_inception_4a/output_0_split_3
I0716 13:53:15.276173 23744 net.cpp:190] Setting up inception_4a/output_inception_4a/output_0_split
I0716 13:53:15.276180 23744 net.cpp:197] Top shape: 1 512 16 32 (262144)
I0716 13:53:15.276183 23744 net.cpp:197] Top shape: 1 512 16 32 (262144)
I0716 13:53:15.276186 23744 net.cpp:197] Top shape: 1 512 16 32 (262144)
I0716 13:53:15.276190 23744 net.cpp:197] Top shape: 1 512 16 32 (262144)
I0716 13:53:15.276192 23744 net.cpp:205] Memory required for data: 140148740
I0716 13:53:15.276196 23744 layer_factory.hpp:123] Creating layer inception_4b/1x1
I0716 13:53:15.276203 23744 net.cpp:140] Creating Layer inception_4b/1x1
I0716 13:53:15.276206 23744 net.cpp:481] inception_4b/1x1 <- inception_4a/output_inception_4a/output_0_split_0
I0716 13:53:15.276211 23744 net.cpp:455] inception_4b/1x1 -> inception_4b/1x1_raw
I0716 13:53:15.277139 23744 net.cpp:190] Setting up inception_4b/1x1
I0716 13:53:15.277148 23744 net.cpp:197] Top shape: 1 160 16 32 (81920)
I0716 13:53:15.277150 23744 net.cpp:205] Memory required for data: 140476420
I0716 13:53:15.277155 23744 layer_factory.hpp:123] Creating layer inception_4b/1x1_BatchNorm
I0716 13:53:15.277163 23744 net.cpp:140] Creating Layer inception_4b/1x1_BatchNorm
I0716 13:53:15.277166 23744 net.cpp:481] inception_4b/1x1_BatchNorm <- inception_4b/1x1_raw
I0716 13:53:15.277173 23744 net.cpp:455] inception_4b/1x1_BatchNorm -> inception_4b/1x1
I0716 13:53:15.277770 23744 net.cpp:190] Setting up inception_4b/1x1_BatchNorm
I0716 13:53:15.277777 23744 net.cpp:197] Top shape: 1 160 16 32 (81920)
I0716 13:53:15.277781 23744 net.cpp:205] Memory required for data: 140804100
I0716 13:53:15.277788 23744 layer_factory.hpp:123] Creating layer inception_4b/relu_1x1
I0716 13:53:15.277794 23744 net.cpp:140] Creating Layer inception_4b/relu_1x1
I0716 13:53:15.277797 23744 net.cpp:481] inception_4b/relu_1x1 <- inception_4b/1x1
I0716 13:53:15.277802 23744 net.cpp:442] inception_4b/relu_1x1 -> inception_4b/1x1 (in-place)
I0716 13:53:15.277808 23744 net.cpp:190] Setting up inception_4b/relu_1x1
I0716 13:53:15.277812 23744 net.cpp:197] Top shape: 1 160 16 32 (81920)
I0716 13:53:15.277815 23744 net.cpp:205] Memory required for data: 141131780
I0716 13:53:15.277818 23744 layer_factory.hpp:123] Creating layer inception_4b/3x3_reduce
I0716 13:53:15.277827 23744 net.cpp:140] Creating Layer inception_4b/3x3_reduce
I0716 13:53:15.277829 23744 net.cpp:481] inception_4b/3x3_reduce <- inception_4a/output_inception_4a/output_0_split_1
I0716 13:53:15.277834 23744 net.cpp:455] inception_4b/3x3_reduce -> inception_4b/3x3_reduce_raw
I0716 13:53:15.279240 23744 net.cpp:190] Setting up inception_4b/3x3_reduce
I0716 13:53:15.279253 23744 net.cpp:197] Top shape: 1 112 16 32 (57344)
I0716 13:53:15.279255 23744 net.cpp:205] Memory required for data: 141361156
I0716 13:53:15.279261 23744 layer_factory.hpp:123] Creating layer inception_4b/3x3_reduce_BatchNorm
I0716 13:53:15.279268 23744 net.cpp:140] Creating Layer inception_4b/3x3_reduce_BatchNorm
I0716 13:53:15.279273 23744 net.cpp:481] inception_4b/3x3_reduce_BatchNorm <- inception_4b/3x3_reduce_raw
I0716 13:53:15.279278 23744 net.cpp:455] inception_4b/3x3_reduce_BatchNorm -> inception_4b/3x3_reduce
I0716 13:53:15.279909 23744 net.cpp:190] Setting up inception_4b/3x3_reduce_BatchNorm
I0716 13:53:15.279918 23744 net.cpp:197] Top shape: 1 112 16 32 (57344)
I0716 13:53:15.279922 23744 net.cpp:205] Memory required for data: 141590532
I0716 13:53:15.279929 23744 layer_factory.hpp:123] Creating layer inception_4b/relu_3x3_reduce
I0716 13:53:15.279935 23744 net.cpp:140] Creating Layer inception_4b/relu_3x3_reduce
I0716 13:53:15.279938 23744 net.cpp:481] inception_4b/relu_3x3_reduce <- inception_4b/3x3_reduce
I0716 13:53:15.279944 23744 net.cpp:442] inception_4b/relu_3x3_reduce -> inception_4b/3x3_reduce (in-place)
I0716 13:53:15.279950 23744 net.cpp:190] Setting up inception_4b/relu_3x3_reduce
I0716 13:53:15.279954 23744 net.cpp:197] Top shape: 1 112 16 32 (57344)
I0716 13:53:15.279958 23744 net.cpp:205] Memory required for data: 141819908
I0716 13:53:15.279960 23744 layer_factory.hpp:123] Creating layer inception_4b/3x3
I0716 13:53:15.279968 23744 net.cpp:140] Creating Layer inception_4b/3x3
I0716 13:53:15.279971 23744 net.cpp:481] inception_4b/3x3 <- inception_4b/3x3_reduce
I0716 13:53:15.279976 23744 net.cpp:455] inception_4b/3x3 -> inception_4b/3x3_raw
I0716 13:53:15.282821 23744 net.cpp:190] Setting up inception_4b/3x3
I0716 13:53:15.282832 23744 net.cpp:197] Top shape: 1 224 16 32 (114688)
I0716 13:53:15.282835 23744 net.cpp:205] Memory required for data: 142278660
I0716 13:53:15.282841 23744 layer_factory.hpp:123] Creating layer inception_4b/3x3_BatchNorm
I0716 13:53:15.282850 23744 net.cpp:140] Creating Layer inception_4b/3x3_BatchNorm
I0716 13:53:15.282853 23744 net.cpp:481] inception_4b/3x3_BatchNorm <- inception_4b/3x3_raw
I0716 13:53:15.282860 23744 net.cpp:455] inception_4b/3x3_BatchNorm -> inception_4b/3x3
I0716 13:53:15.283471 23744 net.cpp:190] Setting up inception_4b/3x3_BatchNorm
I0716 13:53:15.283479 23744 net.cpp:197] Top shape: 1 224 16 32 (114688)
I0716 13:53:15.283483 23744 net.cpp:205] Memory required for data: 142737412
I0716 13:53:15.283490 23744 layer_factory.hpp:123] Creating layer inception_4b/relu_3x3
I0716 13:53:15.283496 23744 net.cpp:140] Creating Layer inception_4b/relu_3x3
I0716 13:53:15.283499 23744 net.cpp:481] inception_4b/relu_3x3 <- inception_4b/3x3
I0716 13:53:15.283504 23744 net.cpp:442] inception_4b/relu_3x3 -> inception_4b/3x3 (in-place)
I0716 13:53:15.283510 23744 net.cpp:190] Setting up inception_4b/relu_3x3
I0716 13:53:15.283514 23744 net.cpp:197] Top shape: 1 224 16 32 (114688)
I0716 13:53:15.283517 23744 net.cpp:205] Memory required for data: 143196164
I0716 13:53:15.283519 23744 layer_factory.hpp:123] Creating layer inception_4b/5x5_reduce
I0716 13:53:15.283527 23744 net.cpp:140] Creating Layer inception_4b/5x5_reduce
I0716 13:53:15.283531 23744 net.cpp:481] inception_4b/5x5_reduce <- inception_4a/output_inception_4a/output_0_split_2
I0716 13:53:15.283536 23744 net.cpp:455] inception_4b/5x5_reduce -> inception_4b/5x5_reduce_raw
I0716 13:53:15.283879 23744 net.cpp:190] Setting up inception_4b/5x5_reduce
I0716 13:53:15.283888 23744 net.cpp:197] Top shape: 1 24 16 32 (12288)
I0716 13:53:15.283891 23744 net.cpp:205] Memory required for data: 143245316
I0716 13:53:15.283897 23744 layer_factory.hpp:123] Creating layer inception_4b/5x5_reduce_BatchNorm
I0716 13:53:15.283903 23744 net.cpp:140] Creating Layer inception_4b/5x5_reduce_BatchNorm
I0716 13:53:15.283907 23744 net.cpp:481] inception_4b/5x5_reduce_BatchNorm <- inception_4b/5x5_reduce_raw
I0716 13:53:15.283913 23744 net.cpp:455] inception_4b/5x5_reduce_BatchNorm -> inception_4b/5x5_reduce
I0716 13:53:15.284515 23744 net.cpp:190] Setting up inception_4b/5x5_reduce_BatchNorm
I0716 13:53:15.284523 23744 net.cpp:197] Top shape: 1 24 16 32 (12288)
I0716 13:53:15.284525 23744 net.cpp:205] Memory required for data: 143294468
I0716 13:53:15.284533 23744 layer_factory.hpp:123] Creating layer inception_4b/relu_5x5_reduce
I0716 13:53:15.284538 23744 net.cpp:140] Creating Layer inception_4b/relu_5x5_reduce
I0716 13:53:15.284543 23744 net.cpp:481] inception_4b/relu_5x5_reduce <- inception_4b/5x5_reduce
I0716 13:53:15.284548 23744 net.cpp:442] inception_4b/relu_5x5_reduce -> inception_4b/5x5_reduce (in-place)
I0716 13:53:15.284554 23744 net.cpp:190] Setting up inception_4b/relu_5x5_reduce
I0716 13:53:15.284557 23744 net.cpp:197] Top shape: 1 24 16 32 (12288)
I0716 13:53:15.284559 23744 net.cpp:205] Memory required for data: 143343620
I0716 13:53:15.284562 23744 layer_factory.hpp:123] Creating layer inception_4b/5x5
I0716 13:53:15.284570 23744 net.cpp:140] Creating Layer inception_4b/5x5
I0716 13:53:15.284574 23744 net.cpp:481] inception_4b/5x5 <- inception_4b/5x5_reduce
I0716 13:53:15.284579 23744 net.cpp:455] inception_4b/5x5 -> inception_4b/5x5_raw
I0716 13:53:15.285127 23744 net.cpp:190] Setting up inception_4b/5x5
I0716 13:53:15.285135 23744 net.cpp:197] Top shape: 1 64 16 32 (32768)
I0716 13:53:15.285138 23744 net.cpp:205] Memory required for data: 143474692
I0716 13:53:15.285143 23744 layer_factory.hpp:123] Creating layer inception_4b/5x5_BatchNorm
I0716 13:53:15.285151 23744 net.cpp:140] Creating Layer inception_4b/5x5_BatchNorm
I0716 13:53:15.285154 23744 net.cpp:481] inception_4b/5x5_BatchNorm <- inception_4b/5x5_raw
I0716 13:53:15.285159 23744 net.cpp:455] inception_4b/5x5_BatchNorm -> inception_4b/5x5
I0716 13:53:15.285765 23744 net.cpp:190] Setting up inception_4b/5x5_BatchNorm
I0716 13:53:15.285773 23744 net.cpp:197] Top shape: 1 64 16 32 (32768)
I0716 13:53:15.285776 23744 net.cpp:205] Memory required for data: 143605764
I0716 13:53:15.285784 23744 layer_factory.hpp:123] Creating layer inception_4b/relu_5x5
I0716 13:53:15.285789 23744 net.cpp:140] Creating Layer inception_4b/relu_5x5
I0716 13:53:15.285794 23744 net.cpp:481] inception_4b/relu_5x5 <- inception_4b/5x5
I0716 13:53:15.285797 23744 net.cpp:442] inception_4b/relu_5x5 -> inception_4b/5x5 (in-place)
I0716 13:53:15.285804 23744 net.cpp:190] Setting up inception_4b/relu_5x5
I0716 13:53:15.285807 23744 net.cpp:197] Top shape: 1 64 16 32 (32768)
I0716 13:53:15.285810 23744 net.cpp:205] Memory required for data: 143736836
I0716 13:53:15.285814 23744 layer_factory.hpp:123] Creating layer inception_4b/pool
I0716 13:53:15.285818 23744 net.cpp:140] Creating Layer inception_4b/pool
I0716 13:53:15.285822 23744 net.cpp:481] inception_4b/pool <- inception_4a/output_inception_4a/output_0_split_3
I0716 13:53:15.285827 23744 net.cpp:455] inception_4b/pool -> inception_4b/pool
I0716 13:53:15.285857 23744 net.cpp:190] Setting up inception_4b/pool
I0716 13:53:15.285862 23744 net.cpp:197] Top shape: 1 512 16 32 (262144)
I0716 13:53:15.285866 23744 net.cpp:205] Memory required for data: 144785412
I0716 13:53:15.285868 23744 layer_factory.hpp:123] Creating layer inception_4b/pool_proj
I0716 13:53:15.285876 23744 net.cpp:140] Creating Layer inception_4b/pool_proj
I0716 13:53:15.285879 23744 net.cpp:481] inception_4b/pool_proj <- inception_4b/pool
I0716 13:53:15.285884 23744 net.cpp:455] inception_4b/pool_proj -> inception_4b/pool_proj_raw
I0716 13:53:15.286387 23744 net.cpp:190] Setting up inception_4b/pool_proj
I0716 13:53:15.286394 23744 net.cpp:197] Top shape: 1 64 16 32 (32768)
I0716 13:53:15.286397 23744 net.cpp:205] Memory required for data: 144916484
I0716 13:53:15.286402 23744 layer_factory.hpp:123] Creating layer inception_4b/pool_proj_BatchNorm
I0716 13:53:15.286409 23744 net.cpp:140] Creating Layer inception_4b/pool_proj_BatchNorm
I0716 13:53:15.286413 23744 net.cpp:481] inception_4b/pool_proj_BatchNorm <- inception_4b/pool_proj_raw
I0716 13:53:15.286418 23744 net.cpp:455] inception_4b/pool_proj_BatchNorm -> inception_4b/pool_proj
I0716 13:53:15.287030 23744 net.cpp:190] Setting up inception_4b/pool_proj_BatchNorm
I0716 13:53:15.287037 23744 net.cpp:197] Top shape: 1 64 16 32 (32768)
I0716 13:53:15.287040 23744 net.cpp:205] Memory required for data: 145047556
I0716 13:53:15.287048 23744 layer_factory.hpp:123] Creating layer inception_4b/relu_pool_proj
I0716 13:53:15.287053 23744 net.cpp:140] Creating Layer inception_4b/relu_pool_proj
I0716 13:53:15.287057 23744 net.cpp:481] inception_4b/relu_pool_proj <- inception_4b/pool_proj
I0716 13:53:15.287062 23744 net.cpp:442] inception_4b/relu_pool_proj -> inception_4b/pool_proj (in-place)
I0716 13:53:15.287068 23744 net.cpp:190] Setting up inception_4b/relu_pool_proj
I0716 13:53:15.287071 23744 net.cpp:197] Top shape: 1 64 16 32 (32768)
I0716 13:53:15.287075 23744 net.cpp:205] Memory required for data: 145178628
I0716 13:53:15.287077 23744 layer_factory.hpp:123] Creating layer inception_4b/output
I0716 13:53:15.287083 23744 net.cpp:140] Creating Layer inception_4b/output
I0716 13:53:15.287086 23744 net.cpp:481] inception_4b/output <- inception_4b/1x1
I0716 13:53:15.287091 23744 net.cpp:481] inception_4b/output <- inception_4b/3x3
I0716 13:53:15.287093 23744 net.cpp:481] inception_4b/output <- inception_4b/5x5
I0716 13:53:15.287097 23744 net.cpp:481] inception_4b/output <- inception_4b/pool_proj
I0716 13:53:15.287101 23744 net.cpp:455] inception_4b/output -> inception_4b/output
I0716 13:53:15.287122 23744 net.cpp:190] Setting up inception_4b/output
I0716 13:53:15.287127 23744 net.cpp:197] Top shape: 1 512 16 32 (262144)
I0716 13:53:15.287130 23744 net.cpp:205] Memory required for data: 146227204
I0716 13:53:15.287133 23744 layer_factory.hpp:123] Creating layer inception_4b/output_inception_4b/output_0_split
I0716 13:53:15.287139 23744 net.cpp:140] Creating Layer inception_4b/output_inception_4b/output_0_split
I0716 13:53:15.287142 23744 net.cpp:481] inception_4b/output_inception_4b/output_0_split <- inception_4b/output
I0716 13:53:15.287147 23744 net.cpp:455] inception_4b/output_inception_4b/output_0_split -> inception_4b/output_inception_4b/output_0_split_0
I0716 13:53:15.287154 23744 net.cpp:455] inception_4b/output_inception_4b/output_0_split -> inception_4b/output_inception_4b/output_0_split_1
I0716 13:53:15.287160 23744 net.cpp:455] inception_4b/output_inception_4b/output_0_split -> inception_4b/output_inception_4b/output_0_split_2
I0716 13:53:15.287166 23744 net.cpp:455] inception_4b/output_inception_4b/output_0_split -> inception_4b/output_inception_4b/output_0_split_3
I0716 13:53:15.287211 23744 net.cpp:190] Setting up inception_4b/output_inception_4b/output_0_split
I0716 13:53:15.287217 23744 net.cpp:197] Top shape: 1 512 16 32 (262144)
I0716 13:53:15.287221 23744 net.cpp:197] Top shape: 1 512 16 32 (262144)
I0716 13:53:15.287225 23744 net.cpp:197] Top shape: 1 512 16 32 (262144)
I0716 13:53:15.287228 23744 net.cpp:197] Top shape: 1 512 16 32 (262144)
I0716 13:53:15.287230 23744 net.cpp:205] Memory required for data: 150421508
I0716 13:53:15.287233 23744 layer_factory.hpp:123] Creating layer inception_4c/1x1
I0716 13:53:15.287241 23744 net.cpp:140] Creating Layer inception_4c/1x1
I0716 13:53:15.287245 23744 net.cpp:481] inception_4c/1x1 <- inception_4b/output_inception_4b/output_0_split_0
I0716 13:53:15.287250 23744 net.cpp:455] inception_4c/1x1 -> inception_4c/1x1_raw
I0716 13:53:15.288038 23744 net.cpp:190] Setting up inception_4c/1x1
I0716 13:53:15.288045 23744 net.cpp:197] Top shape: 1 128 16 32 (65536)
I0716 13:53:15.288048 23744 net.cpp:205] Memory required for data: 150683652
I0716 13:53:15.288054 23744 layer_factory.hpp:123] Creating layer inception_4c/1x1_BatchNorm
I0716 13:53:15.288061 23744 net.cpp:140] Creating Layer inception_4c/1x1_BatchNorm
I0716 13:53:15.288064 23744 net.cpp:481] inception_4c/1x1_BatchNorm <- inception_4c/1x1_raw
I0716 13:53:15.288070 23744 net.cpp:455] inception_4c/1x1_BatchNorm -> inception_4c/1x1
I0716 13:53:15.288600 23744 net.cpp:190] Setting up inception_4c/1x1_BatchNorm
I0716 13:53:15.288609 23744 net.cpp:197] Top shape: 1 128 16 32 (65536)
I0716 13:53:15.288610 23744 net.cpp:205] Memory required for data: 150945796
I0716 13:53:15.288619 23744 layer_factory.hpp:123] Creating layer inception_4c/relu_1x1
I0716 13:53:15.288625 23744 net.cpp:140] Creating Layer inception_4c/relu_1x1
I0716 13:53:15.288630 23744 net.cpp:481] inception_4c/relu_1x1 <- inception_4c/1x1
I0716 13:53:15.288635 23744 net.cpp:442] inception_4c/relu_1x1 -> inception_4c/1x1 (in-place)
I0716 13:53:15.288640 23744 net.cpp:190] Setting up inception_4c/relu_1x1
I0716 13:53:15.288645 23744 net.cpp:197] Top shape: 1 128 16 32 (65536)
I0716 13:53:15.288647 23744 net.cpp:205] Memory required for data: 151207940
I0716 13:53:15.288650 23744 layer_factory.hpp:123] Creating layer inception_4c/3x3_reduce
I0716 13:53:15.288657 23744 net.cpp:140] Creating Layer inception_4c/3x3_reduce
I0716 13:53:15.288661 23744 net.cpp:481] inception_4c/3x3_reduce <- inception_4b/output_inception_4b/output_0_split_1
I0716 13:53:15.288666 23744 net.cpp:455] inception_4c/3x3_reduce -> inception_4c/3x3_reduce_raw
I0716 13:53:15.289456 23744 net.cpp:190] Setting up inception_4c/3x3_reduce
I0716 13:53:15.289464 23744 net.cpp:197] Top shape: 1 128 16 32 (65536)
I0716 13:53:15.289467 23744 net.cpp:205] Memory required for data: 151470084
I0716 13:53:15.289472 23744 layer_factory.hpp:123] Creating layer inception_4c/3x3_reduce_BatchNorm
I0716 13:53:15.289479 23744 net.cpp:140] Creating Layer inception_4c/3x3_reduce_BatchNorm
I0716 13:53:15.289482 23744 net.cpp:481] inception_4c/3x3_reduce_BatchNorm <- inception_4c/3x3_reduce_raw
I0716 13:53:15.289489 23744 net.cpp:455] inception_4c/3x3_reduce_BatchNorm -> inception_4c/3x3_reduce
I0716 13:53:15.290016 23744 net.cpp:190] Setting up inception_4c/3x3_reduce_BatchNorm
I0716 13:53:15.290024 23744 net.cpp:197] Top shape: 1 128 16 32 (65536)
I0716 13:53:15.290026 23744 net.cpp:205] Memory required for data: 151732228
I0716 13:53:15.290035 23744 layer_factory.hpp:123] Creating layer inception_4c/relu_3x3_reduce
I0716 13:53:15.290040 23744 net.cpp:140] Creating Layer inception_4c/relu_3x3_reduce
I0716 13:53:15.290045 23744 net.cpp:481] inception_4c/relu_3x3_reduce <- inception_4c/3x3_reduce
I0716 13:53:15.290048 23744 net.cpp:442] inception_4c/relu_3x3_reduce -> inception_4c/3x3_reduce (in-place)
I0716 13:53:15.290055 23744 net.cpp:190] Setting up inception_4c/relu_3x3_reduce
I0716 13:53:15.290060 23744 net.cpp:197] Top shape: 1 128 16 32 (65536)
I0716 13:53:15.290062 23744 net.cpp:205] Memory required for data: 151994372
I0716 13:53:15.290064 23744 layer_factory.hpp:123] Creating layer inception_4c/3x3
I0716 13:53:15.290072 23744 net.cpp:140] Creating Layer inception_4c/3x3
I0716 13:53:15.290076 23744 net.cpp:481] inception_4c/3x3 <- inception_4c/3x3_reduce
I0716 13:53:15.290081 23744 net.cpp:455] inception_4c/3x3 -> inception_4c/3x3_raw
I0716 13:53:15.294246 23744 net.cpp:190] Setting up inception_4c/3x3
I0716 13:53:15.294260 23744 net.cpp:197] Top shape: 1 256 16 32 (131072)
I0716 13:53:15.294265 23744 net.cpp:205] Memory required for data: 152518660
I0716 13:53:15.294270 23744 layer_factory.hpp:123] Creating layer inception_4c/3x3_BatchNorm
I0716 13:53:15.294278 23744 net.cpp:140] Creating Layer inception_4c/3x3_BatchNorm
I0716 13:53:15.294282 23744 net.cpp:481] inception_4c/3x3_BatchNorm <- inception_4c/3x3_raw
I0716 13:53:15.294289 23744 net.cpp:455] inception_4c/3x3_BatchNorm -> inception_4c/3x3
I0716 13:53:15.294831 23744 net.cpp:190] Setting up inception_4c/3x3_BatchNorm
I0716 13:53:15.294838 23744 net.cpp:197] Top shape: 1 256 16 32 (131072)
I0716 13:53:15.294842 23744 net.cpp:205] Memory required for data: 153042948
I0716 13:53:15.294849 23744 layer_factory.hpp:123] Creating layer inception_4c/relu_3x3
I0716 13:53:15.294855 23744 net.cpp:140] Creating Layer inception_4c/relu_3x3
I0716 13:53:15.294858 23744 net.cpp:481] inception_4c/relu_3x3 <- inception_4c/3x3
I0716 13:53:15.294863 23744 net.cpp:442] inception_4c/relu_3x3 -> inception_4c/3x3 (in-place)
I0716 13:53:15.294869 23744 net.cpp:190] Setting up inception_4c/relu_3x3
I0716 13:53:15.294873 23744 net.cpp:197] Top shape: 1 256 16 32 (131072)
I0716 13:53:15.294876 23744 net.cpp:205] Memory required for data: 153567236
I0716 13:53:15.294879 23744 layer_factory.hpp:123] Creating layer inception_4c/5x5_reduce
I0716 13:53:15.294888 23744 net.cpp:140] Creating Layer inception_4c/5x5_reduce
I0716 13:53:15.294893 23744 net.cpp:481] inception_4c/5x5_reduce <- inception_4b/output_inception_4b/output_0_split_2
I0716 13:53:15.294899 23744 net.cpp:455] inception_4c/5x5_reduce -> inception_4c/5x5_reduce_raw
I0716 13:53:15.295243 23744 net.cpp:190] Setting up inception_4c/5x5_reduce
I0716 13:53:15.295250 23744 net.cpp:197] Top shape: 1 24 16 32 (12288)
I0716 13:53:15.295253 23744 net.cpp:205] Memory required for data: 153616388
I0716 13:53:15.295258 23744 layer_factory.hpp:123] Creating layer inception_4c/5x5_reduce_BatchNorm
I0716 13:53:15.295265 23744 net.cpp:140] Creating Layer inception_4c/5x5_reduce_BatchNorm
I0716 13:53:15.295269 23744 net.cpp:481] inception_4c/5x5_reduce_BatchNorm <- inception_4c/5x5_reduce_raw
I0716 13:53:15.295274 23744 net.cpp:455] inception_4c/5x5_reduce_BatchNorm -> inception_4c/5x5_reduce
I0716 13:53:15.295887 23744 net.cpp:190] Setting up inception_4c/5x5_reduce_BatchNorm
I0716 13:53:15.295895 23744 net.cpp:197] Top shape: 1 24 16 32 (12288)
I0716 13:53:15.295899 23744 net.cpp:205] Memory required for data: 153665540
I0716 13:53:15.295907 23744 layer_factory.hpp:123] Creating layer inception_4c/relu_5x5_reduce
I0716 13:53:15.295912 23744 net.cpp:140] Creating Layer inception_4c/relu_5x5_reduce
I0716 13:53:15.295915 23744 net.cpp:481] inception_4c/relu_5x5_reduce <- inception_4c/5x5_reduce
I0716 13:53:15.295920 23744 net.cpp:442] inception_4c/relu_5x5_reduce -> inception_4c/5x5_reduce (in-place)
I0716 13:53:15.295928 23744 net.cpp:190] Setting up inception_4c/relu_5x5_reduce
I0716 13:53:15.295930 23744 net.cpp:197] Top shape: 1 24 16 32 (12288)
I0716 13:53:15.295933 23744 net.cpp:205] Memory required for data: 153714692
I0716 13:53:15.295936 23744 layer_factory.hpp:123] Creating layer inception_4c/5x5
I0716 13:53:15.295944 23744 net.cpp:140] Creating Layer inception_4c/5x5
I0716 13:53:15.295948 23744 net.cpp:481] inception_4c/5x5 <- inception_4c/5x5_reduce
I0716 13:53:15.295953 23744 net.cpp:455] inception_4c/5x5 -> inception_4c/5x5_raw
I0716 13:53:15.296528 23744 net.cpp:190] Setting up inception_4c/5x5
I0716 13:53:15.296537 23744 net.cpp:197] Top shape: 1 64 16 32 (32768)
I0716 13:53:15.296540 23744 net.cpp:205] Memory required for data: 153845764
I0716 13:53:15.296545 23744 layer_factory.hpp:123] Creating layer inception_4c/5x5_BatchNorm
I0716 13:53:15.296552 23744 net.cpp:140] Creating Layer inception_4c/5x5_BatchNorm
I0716 13:53:15.296556 23744 net.cpp:481] inception_4c/5x5_BatchNorm <- inception_4c/5x5_raw
I0716 13:53:15.296561 23744 net.cpp:455] inception_4c/5x5_BatchNorm -> inception_4c/5x5
I0716 13:53:15.297175 23744 net.cpp:190] Setting up inception_4c/5x5_BatchNorm
I0716 13:53:15.297183 23744 net.cpp:197] Top shape: 1 64 16 32 (32768)
I0716 13:53:15.297186 23744 net.cpp:205] Memory required for data: 153976836
I0716 13:53:15.297194 23744 layer_factory.hpp:123] Creating layer inception_4c/relu_5x5
I0716 13:53:15.297199 23744 net.cpp:140] Creating Layer inception_4c/relu_5x5
I0716 13:53:15.297204 23744 net.cpp:481] inception_4c/relu_5x5 <- inception_4c/5x5
I0716 13:53:15.297207 23744 net.cpp:442] inception_4c/relu_5x5 -> inception_4c/5x5 (in-place)
I0716 13:53:15.297214 23744 net.cpp:190] Setting up inception_4c/relu_5x5
I0716 13:53:15.297217 23744 net.cpp:197] Top shape: 1 64 16 32 (32768)
I0716 13:53:15.297220 23744 net.cpp:205] Memory required for data: 154107908
I0716 13:53:15.297224 23744 layer_factory.hpp:123] Creating layer inception_4c/pool
I0716 13:53:15.297230 23744 net.cpp:140] Creating Layer inception_4c/pool
I0716 13:53:15.297232 23744 net.cpp:481] inception_4c/pool <- inception_4b/output_inception_4b/output_0_split_3
I0716 13:53:15.297237 23744 net.cpp:455] inception_4c/pool -> inception_4c/pool
I0716 13:53:15.297269 23744 net.cpp:190] Setting up inception_4c/pool
I0716 13:53:15.297276 23744 net.cpp:197] Top shape: 1 512 16 32 (262144)
I0716 13:53:15.297277 23744 net.cpp:205] Memory required for data: 155156484
I0716 13:53:15.297281 23744 layer_factory.hpp:123] Creating layer inception_4c/pool_proj
I0716 13:53:15.297288 23744 net.cpp:140] Creating Layer inception_4c/pool_proj
I0716 13:53:15.297291 23744 net.cpp:481] inception_4c/pool_proj <- inception_4c/pool
I0716 13:53:15.297297 23744 net.cpp:455] inception_4c/pool_proj -> inception_4c/pool_proj_raw
I0716 13:53:15.298533 23744 net.cpp:190] Setting up inception_4c/pool_proj
I0716 13:53:15.298544 23744 net.cpp:197] Top shape: 1 64 16 32 (32768)
I0716 13:53:15.298547 23744 net.cpp:205] Memory required for data: 155287556
I0716 13:53:15.298553 23744 layer_factory.hpp:123] Creating layer inception_4c/pool_proj_BatchNorm
I0716 13:53:15.298563 23744 net.cpp:140] Creating Layer inception_4c/pool_proj_BatchNorm
I0716 13:53:15.298565 23744 net.cpp:481] inception_4c/pool_proj_BatchNorm <- inception_4c/pool_proj_raw
I0716 13:53:15.298571 23744 net.cpp:455] inception_4c/pool_proj_BatchNorm -> inception_4c/pool_proj
I0716 13:53:15.299196 23744 net.cpp:190] Setting up inception_4c/pool_proj_BatchNorm
I0716 13:53:15.299204 23744 net.cpp:197] Top shape: 1 64 16 32 (32768)
I0716 13:53:15.299207 23744 net.cpp:205] Memory required for data: 155418628
I0716 13:53:15.299216 23744 layer_factory.hpp:123] Creating layer inception_4c/relu_pool_proj
I0716 13:53:15.299221 23744 net.cpp:140] Creating Layer inception_4c/relu_pool_proj
I0716 13:53:15.299226 23744 net.cpp:481] inception_4c/relu_pool_proj <- inception_4c/pool_proj
I0716 13:53:15.299229 23744 net.cpp:442] inception_4c/relu_pool_proj -> inception_4c/pool_proj (in-place)
I0716 13:53:15.299237 23744 net.cpp:190] Setting up inception_4c/relu_pool_proj
I0716 13:53:15.299239 23744 net.cpp:197] Top shape: 1 64 16 32 (32768)
I0716 13:53:15.299242 23744 net.cpp:205] Memory required for data: 155549700
I0716 13:53:15.299245 23744 layer_factory.hpp:123] Creating layer inception_4c/output
I0716 13:53:15.299250 23744 net.cpp:140] Creating Layer inception_4c/output
I0716 13:53:15.299253 23744 net.cpp:481] inception_4c/output <- inception_4c/1x1
I0716 13:53:15.299258 23744 net.cpp:481] inception_4c/output <- inception_4c/3x3
I0716 13:53:15.299262 23744 net.cpp:481] inception_4c/output <- inception_4c/5x5
I0716 13:53:15.299265 23744 net.cpp:481] inception_4c/output <- inception_4c/pool_proj
I0716 13:53:15.299269 23744 net.cpp:455] inception_4c/output -> inception_4c/output
I0716 13:53:15.299291 23744 net.cpp:190] Setting up inception_4c/output
I0716 13:53:15.299298 23744 net.cpp:197] Top shape: 1 512 16 32 (262144)
I0716 13:53:15.299300 23744 net.cpp:205] Memory required for data: 156598276
I0716 13:53:15.299302 23744 layer_factory.hpp:123] Creating layer inception_4c/output_inception_4c/output_0_split
I0716 13:53:15.299309 23744 net.cpp:140] Creating Layer inception_4c/output_inception_4c/output_0_split
I0716 13:53:15.299312 23744 net.cpp:481] inception_4c/output_inception_4c/output_0_split <- inception_4c/output
I0716 13:53:15.299317 23744 net.cpp:455] inception_4c/output_inception_4c/output_0_split -> inception_4c/output_inception_4c/output_0_split_0
I0716 13:53:15.299324 23744 net.cpp:455] inception_4c/output_inception_4c/output_0_split -> inception_4c/output_inception_4c/output_0_split_1
I0716 13:53:15.299330 23744 net.cpp:455] inception_4c/output_inception_4c/output_0_split -> inception_4c/output_inception_4c/output_0_split_2
I0716 13:53:15.299335 23744 net.cpp:455] inception_4c/output_inception_4c/output_0_split -> inception_4c/output_inception_4c/output_0_split_3
I0716 13:53:15.299382 23744 net.cpp:190] Setting up inception_4c/output_inception_4c/output_0_split
I0716 13:53:15.299388 23744 net.cpp:197] Top shape: 1 512 16 32 (262144)
I0716 13:53:15.299392 23744 net.cpp:197] Top shape: 1 512 16 32 (262144)
I0716 13:53:15.299396 23744 net.cpp:197] Top shape: 1 512 16 32 (262144)
I0716 13:53:15.299399 23744 net.cpp:197] Top shape: 1 512 16 32 (262144)
I0716 13:53:15.299401 23744 net.cpp:205] Memory required for data: 160792580
I0716 13:53:15.299405 23744 layer_factory.hpp:123] Creating layer inception_4d/1x1
I0716 13:53:15.299413 23744 net.cpp:140] Creating Layer inception_4d/1x1
I0716 13:53:15.299417 23744 net.cpp:481] inception_4d/1x1 <- inception_4c/output_inception_4c/output_0_split_0
I0716 13:53:15.299422 23744 net.cpp:455] inception_4d/1x1 -> inception_4d/1x1_raw
I0716 13:53:15.300163 23744 net.cpp:190] Setting up inception_4d/1x1
I0716 13:53:15.300173 23744 net.cpp:197] Top shape: 1 112 16 32 (57344)
I0716 13:53:15.300175 23744 net.cpp:205] Memory required for data: 161021956
I0716 13:53:15.300181 23744 layer_factory.hpp:123] Creating layer inception_4d/1x1_BatchNorm
I0716 13:53:15.300189 23744 net.cpp:140] Creating Layer inception_4d/1x1_BatchNorm
I0716 13:53:15.300191 23744 net.cpp:481] inception_4d/1x1_BatchNorm <- inception_4d/1x1_raw
I0716 13:53:15.300197 23744 net.cpp:455] inception_4d/1x1_BatchNorm -> inception_4d/1x1
I0716 13:53:15.300832 23744 net.cpp:190] Setting up inception_4d/1x1_BatchNorm
I0716 13:53:15.300839 23744 net.cpp:197] Top shape: 1 112 16 32 (57344)
I0716 13:53:15.300843 23744 net.cpp:205] Memory required for data: 161251332
I0716 13:53:15.300850 23744 layer_factory.hpp:123] Creating layer inception_4d/relu_1x1
I0716 13:53:15.300856 23744 net.cpp:140] Creating Layer inception_4d/relu_1x1
I0716 13:53:15.300860 23744 net.cpp:481] inception_4d/relu_1x1 <- inception_4d/1x1
I0716 13:53:15.300865 23744 net.cpp:442] inception_4d/relu_1x1 -> inception_4d/1x1 (in-place)
I0716 13:53:15.300871 23744 net.cpp:190] Setting up inception_4d/relu_1x1
I0716 13:53:15.300874 23744 net.cpp:197] Top shape: 1 112 16 32 (57344)
I0716 13:53:15.300879 23744 net.cpp:205] Memory required for data: 161480708
I0716 13:53:15.300880 23744 layer_factory.hpp:123] Creating layer inception_4d/3x3_reduce
I0716 13:53:15.300889 23744 net.cpp:140] Creating Layer inception_4d/3x3_reduce
I0716 13:53:15.300891 23744 net.cpp:481] inception_4d/3x3_reduce <- inception_4c/output_inception_4c/output_0_split_1
I0716 13:53:15.300897 23744 net.cpp:455] inception_4d/3x3_reduce -> inception_4d/3x3_reduce_raw
I0716 13:53:15.301782 23744 net.cpp:190] Setting up inception_4d/3x3_reduce
I0716 13:53:15.301790 23744 net.cpp:197] Top shape: 1 144 16 32 (73728)
I0716 13:53:15.301792 23744 net.cpp:205] Memory required for data: 161775620
I0716 13:53:15.301798 23744 layer_factory.hpp:123] Creating layer inception_4d/3x3_reduce_BatchNorm
I0716 13:53:15.301805 23744 net.cpp:140] Creating Layer inception_4d/3x3_reduce_BatchNorm
I0716 13:53:15.301808 23744 net.cpp:481] inception_4d/3x3_reduce_BatchNorm <- inception_4d/3x3_reduce_raw
I0716 13:53:15.301815 23744 net.cpp:455] inception_4d/3x3_reduce_BatchNorm -> inception_4d/3x3_reduce
I0716 13:53:15.302426 23744 net.cpp:190] Setting up inception_4d/3x3_reduce_BatchNorm
I0716 13:53:15.302433 23744 net.cpp:197] Top shape: 1 144 16 32 (73728)
I0716 13:53:15.302436 23744 net.cpp:205] Memory required for data: 162070532
I0716 13:53:15.302443 23744 layer_factory.hpp:123] Creating layer inception_4d/relu_3x3_reduce
I0716 13:53:15.302449 23744 net.cpp:140] Creating Layer inception_4d/relu_3x3_reduce
I0716 13:53:15.302453 23744 net.cpp:481] inception_4d/relu_3x3_reduce <- inception_4d/3x3_reduce
I0716 13:53:15.302459 23744 net.cpp:442] inception_4d/relu_3x3_reduce -> inception_4d/3x3_reduce (in-place)
I0716 13:53:15.302464 23744 net.cpp:190] Setting up inception_4d/relu_3x3_reduce
I0716 13:53:15.302469 23744 net.cpp:197] Top shape: 1 144 16 32 (73728)
I0716 13:53:15.302471 23744 net.cpp:205] Memory required for data: 162365444
I0716 13:53:15.302474 23744 layer_factory.hpp:123] Creating layer inception_4d/3x3
I0716 13:53:15.302481 23744 net.cpp:140] Creating Layer inception_4d/3x3
I0716 13:53:15.302484 23744 net.cpp:481] inception_4d/3x3 <- inception_4d/3x3_reduce
I0716 13:53:15.302489 23744 net.cpp:455] inception_4d/3x3 -> inception_4d/3x3_raw
I0716 13:53:15.307371 23744 net.cpp:190] Setting up inception_4d/3x3
I0716 13:53:15.307389 23744 net.cpp:197] Top shape: 1 288 16 32 (147456)
I0716 13:53:15.307392 23744 net.cpp:205] Memory required for data: 162955268
I0716 13:53:15.307399 23744 layer_factory.hpp:123] Creating layer inception_4d/3x3_BatchNorm
I0716 13:53:15.307411 23744 net.cpp:140] Creating Layer inception_4d/3x3_BatchNorm
I0716 13:53:15.307417 23744 net.cpp:481] inception_4d/3x3_BatchNorm <- inception_4d/3x3_raw
I0716 13:53:15.307425 23744 net.cpp:455] inception_4d/3x3_BatchNorm -> inception_4d/3x3
I0716 13:53:15.308058 23744 net.cpp:190] Setting up inception_4d/3x3_BatchNorm
I0716 13:53:15.308068 23744 net.cpp:197] Top shape: 1 288 16 32 (147456)
I0716 13:53:15.308070 23744 net.cpp:205] Memory required for data: 163545092
I0716 13:53:15.308079 23744 layer_factory.hpp:123] Creating layer inception_4d/relu_3x3
I0716 13:53:15.308084 23744 net.cpp:140] Creating Layer inception_4d/relu_3x3
I0716 13:53:15.308087 23744 net.cpp:481] inception_4d/relu_3x3 <- inception_4d/3x3
I0716 13:53:15.308092 23744 net.cpp:442] inception_4d/relu_3x3 -> inception_4d/3x3 (in-place)
I0716 13:53:15.308099 23744 net.cpp:190] Setting up inception_4d/relu_3x3
I0716 13:53:15.308104 23744 net.cpp:197] Top shape: 1 288 16 32 (147456)
I0716 13:53:15.308105 23744 net.cpp:205] Memory required for data: 164134916
I0716 13:53:15.308109 23744 layer_factory.hpp:123] Creating layer inception_4d/5x5_reduce
I0716 13:53:15.308116 23744 net.cpp:140] Creating Layer inception_4d/5x5_reduce
I0716 13:53:15.308120 23744 net.cpp:481] inception_4d/5x5_reduce <- inception_4c/output_inception_4c/output_0_split_2
I0716 13:53:15.308125 23744 net.cpp:455] inception_4d/5x5_reduce -> inception_4d/5x5_reduce_raw
I0716 13:53:15.308513 23744 net.cpp:190] Setting up inception_4d/5x5_reduce
I0716 13:53:15.308521 23744 net.cpp:197] Top shape: 1 32 16 32 (16384)
I0716 13:53:15.308524 23744 net.cpp:205] Memory required for data: 164200452
I0716 13:53:15.308529 23744 layer_factory.hpp:123] Creating layer inception_4d/5x5_reduce_BatchNorm
I0716 13:53:15.308537 23744 net.cpp:140] Creating Layer inception_4d/5x5_reduce_BatchNorm
I0716 13:53:15.308540 23744 net.cpp:481] inception_4d/5x5_reduce_BatchNorm <- inception_4d/5x5_reduce_raw
I0716 13:53:15.308547 23744 net.cpp:455] inception_4d/5x5_reduce_BatchNorm -> inception_4d/5x5_reduce
I0716 13:53:15.309170 23744 net.cpp:190] Setting up inception_4d/5x5_reduce_BatchNorm
I0716 13:53:15.309178 23744 net.cpp:197] Top shape: 1 32 16 32 (16384)
I0716 13:53:15.309181 23744 net.cpp:205] Memory required for data: 164265988
I0716 13:53:15.309200 23744 layer_factory.hpp:123] Creating layer inception_4d/relu_5x5_reduce
I0716 13:53:15.309206 23744 net.cpp:140] Creating Layer inception_4d/relu_5x5_reduce
I0716 13:53:15.309209 23744 net.cpp:481] inception_4d/relu_5x5_reduce <- inception_4d/5x5_reduce
I0716 13:53:15.309216 23744 net.cpp:442] inception_4d/relu_5x5_reduce -> inception_4d/5x5_reduce (in-place)
I0716 13:53:15.309221 23744 net.cpp:190] Setting up inception_4d/relu_5x5_reduce
I0716 13:53:15.309226 23744 net.cpp:197] Top shape: 1 32 16 32 (16384)
I0716 13:53:15.309227 23744 net.cpp:205] Memory required for data: 164331524
I0716 13:53:15.309231 23744 layer_factory.hpp:123] Creating layer inception_4d/5x5
I0716 13:53:15.309238 23744 net.cpp:140] Creating Layer inception_4d/5x5
I0716 13:53:15.309242 23744 net.cpp:481] inception_4d/5x5 <- inception_4d/5x5_reduce
I0716 13:53:15.309247 23744 net.cpp:455] inception_4d/5x5 -> inception_4d/5x5_raw
I0716 13:53:15.309938 23744 net.cpp:190] Setting up inception_4d/5x5
I0716 13:53:15.309947 23744 net.cpp:197] Top shape: 1 64 16 32 (32768)
I0716 13:53:15.309949 23744 net.cpp:205] Memory required for data: 164462596
I0716 13:53:15.309954 23744 layer_factory.hpp:123] Creating layer inception_4d/5x5_BatchNorm
I0716 13:53:15.309962 23744 net.cpp:140] Creating Layer inception_4d/5x5_BatchNorm
I0716 13:53:15.309965 23744 net.cpp:481] inception_4d/5x5_BatchNorm <- inception_4d/5x5_raw
I0716 13:53:15.309970 23744 net.cpp:455] inception_4d/5x5_BatchNorm -> inception_4d/5x5
I0716 13:53:15.310583 23744 net.cpp:190] Setting up inception_4d/5x5_BatchNorm
I0716 13:53:15.310590 23744 net.cpp:197] Top shape: 1 64 16 32 (32768)
I0716 13:53:15.310593 23744 net.cpp:205] Memory required for data: 164593668
I0716 13:53:15.310601 23744 layer_factory.hpp:123] Creating layer inception_4d/relu_5x5
I0716 13:53:15.310606 23744 net.cpp:140] Creating Layer inception_4d/relu_5x5
I0716 13:53:15.310609 23744 net.cpp:481] inception_4d/relu_5x5 <- inception_4d/5x5
I0716 13:53:15.310614 23744 net.cpp:442] inception_4d/relu_5x5 -> inception_4d/5x5 (in-place)
I0716 13:53:15.310621 23744 net.cpp:190] Setting up inception_4d/relu_5x5
I0716 13:53:15.310624 23744 net.cpp:197] Top shape: 1 64 16 32 (32768)
I0716 13:53:15.310627 23744 net.cpp:205] Memory required for data: 164724740
I0716 13:53:15.310629 23744 layer_factory.hpp:123] Creating layer inception_4d/pool
I0716 13:53:15.310636 23744 net.cpp:140] Creating Layer inception_4d/pool
I0716 13:53:15.310639 23744 net.cpp:481] inception_4d/pool <- inception_4c/output_inception_4c/output_0_split_3
I0716 13:53:15.310644 23744 net.cpp:455] inception_4d/pool -> inception_4d/pool
I0716 13:53:15.310675 23744 net.cpp:190] Setting up inception_4d/pool
I0716 13:53:15.310680 23744 net.cpp:197] Top shape: 1 512 16 32 (262144)
I0716 13:53:15.310683 23744 net.cpp:205] Memory required for data: 165773316
I0716 13:53:15.310686 23744 layer_factory.hpp:123] Creating layer inception_4d/pool_proj
I0716 13:53:15.310693 23744 net.cpp:140] Creating Layer inception_4d/pool_proj
I0716 13:53:15.310696 23744 net.cpp:481] inception_4d/pool_proj <- inception_4d/pool
I0716 13:53:15.310701 23744 net.cpp:455] inception_4d/pool_proj -> inception_4d/pool_proj_raw
I0716 13:53:15.311220 23744 net.cpp:190] Setting up inception_4d/pool_proj
I0716 13:53:15.311228 23744 net.cpp:197] Top shape: 1 64 16 32 (32768)
I0716 13:53:15.311231 23744 net.cpp:205] Memory required for data: 165904388
I0716 13:53:15.311236 23744 layer_factory.hpp:123] Creating layer inception_4d/pool_proj_BatchNorm
I0716 13:53:15.311244 23744 net.cpp:140] Creating Layer inception_4d/pool_proj_BatchNorm
I0716 13:53:15.311247 23744 net.cpp:481] inception_4d/pool_proj_BatchNorm <- inception_4d/pool_proj_raw
I0716 13:53:15.311252 23744 net.cpp:455] inception_4d/pool_proj_BatchNorm -> inception_4d/pool_proj
I0716 13:53:15.311874 23744 net.cpp:190] Setting up inception_4d/pool_proj_BatchNorm
I0716 13:53:15.311882 23744 net.cpp:197] Top shape: 1 64 16 32 (32768)
I0716 13:53:15.311885 23744 net.cpp:205] Memory required for data: 166035460
I0716 13:53:15.311893 23744 layer_factory.hpp:123] Creating layer inception_4d/relu_pool_proj
I0716 13:53:15.311898 23744 net.cpp:140] Creating Layer inception_4d/relu_pool_proj
I0716 13:53:15.311902 23744 net.cpp:481] inception_4d/relu_pool_proj <- inception_4d/pool_proj
I0716 13:53:15.311908 23744 net.cpp:442] inception_4d/relu_pool_proj -> inception_4d/pool_proj (in-place)
I0716 13:53:15.311913 23744 net.cpp:190] Setting up inception_4d/relu_pool_proj
I0716 13:53:15.311918 23744 net.cpp:197] Top shape: 1 64 16 32 (32768)
I0716 13:53:15.311920 23744 net.cpp:205] Memory required for data: 166166532
I0716 13:53:15.311923 23744 layer_factory.hpp:123] Creating layer inception_4d/output
I0716 13:53:15.311928 23744 net.cpp:140] Creating Layer inception_4d/output
I0716 13:53:15.311931 23744 net.cpp:481] inception_4d/output <- inception_4d/1x1
I0716 13:53:15.311934 23744 net.cpp:481] inception_4d/output <- inception_4d/3x3
I0716 13:53:15.311939 23744 net.cpp:481] inception_4d/output <- inception_4d/5x5
I0716 13:53:15.311941 23744 net.cpp:481] inception_4d/output <- inception_4d/pool_proj
I0716 13:53:15.311946 23744 net.cpp:455] inception_4d/output -> inception_4d/output
I0716 13:53:15.311967 23744 net.cpp:190] Setting up inception_4d/output
I0716 13:53:15.311973 23744 net.cpp:197] Top shape: 1 528 16 32 (270336)
I0716 13:53:15.311975 23744 net.cpp:205] Memory required for data: 167247876
I0716 13:53:15.311978 23744 layer_factory.hpp:123] Creating layer inception_4d/output_inception_4d/output_0_split
I0716 13:53:15.311985 23744 net.cpp:140] Creating Layer inception_4d/output_inception_4d/output_0_split
I0716 13:53:15.311987 23744 net.cpp:481] inception_4d/output_inception_4d/output_0_split <- inception_4d/output
I0716 13:53:15.311992 23744 net.cpp:455] inception_4d/output_inception_4d/output_0_split -> inception_4d/output_inception_4d/output_0_split_0
I0716 13:53:15.312000 23744 net.cpp:455] inception_4d/output_inception_4d/output_0_split -> inception_4d/output_inception_4d/output_0_split_1
I0716 13:53:15.312005 23744 net.cpp:455] inception_4d/output_inception_4d/output_0_split -> inception_4d/output_inception_4d/output_0_split_2
I0716 13:53:15.312011 23744 net.cpp:455] inception_4d/output_inception_4d/output_0_split -> inception_4d/output_inception_4d/output_0_split_3
I0716 13:53:15.312058 23744 net.cpp:190] Setting up inception_4d/output_inception_4d/output_0_split
I0716 13:53:15.312064 23744 net.cpp:197] Top shape: 1 528 16 32 (270336)
I0716 13:53:15.312068 23744 net.cpp:197] Top shape: 1 528 16 32 (270336)
I0716 13:53:15.312072 23744 net.cpp:197] Top shape: 1 528 16 32 (270336)
I0716 13:53:15.312075 23744 net.cpp:197] Top shape: 1 528 16 32 (270336)
I0716 13:53:15.312077 23744 net.cpp:205] Memory required for data: 171573252
I0716 13:53:15.312080 23744 layer_factory.hpp:123] Creating layer inception_4e/1x1
I0716 13:53:15.312088 23744 net.cpp:140] Creating Layer inception_4e/1x1
I0716 13:53:15.312090 23744 net.cpp:481] inception_4e/1x1 <- inception_4d/output_inception_4d/output_0_split_0
I0716 13:53:15.312095 23744 net.cpp:455] inception_4e/1x1 -> inception_4e/1x1_raw
I0716 13:53:15.313486 23744 net.cpp:190] Setting up inception_4e/1x1
I0716 13:53:15.313495 23744 net.cpp:197] Top shape: 1 256 16 32 (131072)
I0716 13:53:15.313498 23744 net.cpp:205] Memory required for data: 172097540
I0716 13:53:15.313503 23744 layer_factory.hpp:123] Creating layer inception_4e/1x1_BatchNorm
I0716 13:53:15.313510 23744 net.cpp:140] Creating Layer inception_4e/1x1_BatchNorm
I0716 13:53:15.313513 23744 net.cpp:481] inception_4e/1x1_BatchNorm <- inception_4e/1x1_raw
I0716 13:53:15.313519 23744 net.cpp:455] inception_4e/1x1_BatchNorm -> inception_4e/1x1
I0716 13:53:15.314065 23744 net.cpp:190] Setting up inception_4e/1x1_BatchNorm
I0716 13:53:15.314074 23744 net.cpp:197] Top shape: 1 256 16 32 (131072)
I0716 13:53:15.314076 23744 net.cpp:205] Memory required for data: 172621828
I0716 13:53:15.314083 23744 layer_factory.hpp:123] Creating layer inception_4e/relu_1x1
I0716 13:53:15.314090 23744 net.cpp:140] Creating Layer inception_4e/relu_1x1
I0716 13:53:15.314092 23744 net.cpp:481] inception_4e/relu_1x1 <- inception_4e/1x1
I0716 13:53:15.314097 23744 net.cpp:442] inception_4e/relu_1x1 -> inception_4e/1x1 (in-place)
I0716 13:53:15.314103 23744 net.cpp:190] Setting up inception_4e/relu_1x1
I0716 13:53:15.314106 23744 net.cpp:197] Top shape: 1 256 16 32 (131072)
I0716 13:53:15.314110 23744 net.cpp:205] Memory required for data: 173146116
I0716 13:53:15.314112 23744 layer_factory.hpp:123] Creating layer inception_4e/3x3_reduce
I0716 13:53:15.314119 23744 net.cpp:140] Creating Layer inception_4e/3x3_reduce
I0716 13:53:15.314123 23744 net.cpp:481] inception_4e/3x3_reduce <- inception_4d/output_inception_4d/output_0_split_1
I0716 13:53:15.314128 23744 net.cpp:455] inception_4e/3x3_reduce -> inception_4e/3x3_reduce_raw
I0716 13:53:15.315104 23744 net.cpp:190] Setting up inception_4e/3x3_reduce
I0716 13:53:15.315111 23744 net.cpp:197] Top shape: 1 160 16 32 (81920)
I0716 13:53:15.315114 23744 net.cpp:205] Memory required for data: 173473796
I0716 13:53:15.315120 23744 layer_factory.hpp:123] Creating layer inception_4e/3x3_reduce_BatchNorm
I0716 13:53:15.315127 23744 net.cpp:140] Creating Layer inception_4e/3x3_reduce_BatchNorm
I0716 13:53:15.315130 23744 net.cpp:481] inception_4e/3x3_reduce_BatchNorm <- inception_4e/3x3_reduce_raw
I0716 13:53:15.315136 23744 net.cpp:455] inception_4e/3x3_reduce_BatchNorm -> inception_4e/3x3_reduce
I0716 13:53:15.315747 23744 net.cpp:190] Setting up inception_4e/3x3_reduce_BatchNorm
I0716 13:53:15.315766 23744 net.cpp:197] Top shape: 1 160 16 32 (81920)
I0716 13:53:15.315770 23744 net.cpp:205] Memory required for data: 173801476
I0716 13:53:15.315778 23744 layer_factory.hpp:123] Creating layer inception_4e/relu_3x3_reduce
I0716 13:53:15.315783 23744 net.cpp:140] Creating Layer inception_4e/relu_3x3_reduce
I0716 13:53:15.315788 23744 net.cpp:481] inception_4e/relu_3x3_reduce <- inception_4e/3x3_reduce
I0716 13:53:15.315793 23744 net.cpp:442] inception_4e/relu_3x3_reduce -> inception_4e/3x3_reduce (in-place)
I0716 13:53:15.315798 23744 net.cpp:190] Setting up inception_4e/relu_3x3_reduce
I0716 13:53:15.315802 23744 net.cpp:197] Top shape: 1 160 16 32 (81920)
I0716 13:53:15.315805 23744 net.cpp:205] Memory required for data: 174129156
I0716 13:53:15.315809 23744 layer_factory.hpp:123] Creating layer inception_4e/3x3
I0716 13:53:15.315815 23744 net.cpp:140] Creating Layer inception_4e/3x3
I0716 13:53:15.315819 23744 net.cpp:481] inception_4e/3x3 <- inception_4e/3x3_reduce
I0716 13:53:15.315824 23744 net.cpp:455] inception_4e/3x3 -> inception_4e/3x3_raw
I0716 13:53:15.321303 23744 net.cpp:190] Setting up inception_4e/3x3
I0716 13:53:15.321316 23744 net.cpp:197] Top shape: 1 320 16 32 (163840)
I0716 13:53:15.321319 23744 net.cpp:205] Memory required for data: 174784516
I0716 13:53:15.321326 23744 layer_factory.hpp:123] Creating layer inception_4e/3x3_BatchNorm
I0716 13:53:15.321333 23744 net.cpp:140] Creating Layer inception_4e/3x3_BatchNorm
I0716 13:53:15.321337 23744 net.cpp:481] inception_4e/3x3_BatchNorm <- inception_4e/3x3_raw
I0716 13:53:15.321344 23744 net.cpp:455] inception_4e/3x3_BatchNorm -> inception_4e/3x3
I0716 13:53:15.321961 23744 net.cpp:190] Setting up inception_4e/3x3_BatchNorm
I0716 13:53:15.321969 23744 net.cpp:197] Top shape: 1 320 16 32 (163840)
I0716 13:53:15.321972 23744 net.cpp:205] Memory required for data: 175439876
I0716 13:53:15.321981 23744 layer_factory.hpp:123] Creating layer inception_4e/relu_3x3
I0716 13:53:15.321986 23744 net.cpp:140] Creating Layer inception_4e/relu_3x3
I0716 13:53:15.321990 23744 net.cpp:481] inception_4e/relu_3x3 <- inception_4e/3x3
I0716 13:53:15.321995 23744 net.cpp:442] inception_4e/relu_3x3 -> inception_4e/3x3 (in-place)
I0716 13:53:15.322001 23744 net.cpp:190] Setting up inception_4e/relu_3x3
I0716 13:53:15.322005 23744 net.cpp:197] Top shape: 1 320 16 32 (163840)
I0716 13:53:15.322007 23744 net.cpp:205] Memory required for data: 176095236
I0716 13:53:15.322010 23744 layer_factory.hpp:123] Creating layer inception_4e/5x5_reduce
I0716 13:53:15.322018 23744 net.cpp:140] Creating Layer inception_4e/5x5_reduce
I0716 13:53:15.322022 23744 net.cpp:481] inception_4e/5x5_reduce <- inception_4d/output_inception_4d/output_0_split_2
I0716 13:53:15.322027 23744 net.cpp:455] inception_4e/5x5_reduce -> inception_4e/5x5_reduce_raw
I0716 13:53:15.322404 23744 net.cpp:190] Setting up inception_4e/5x5_reduce
I0716 13:53:15.322412 23744 net.cpp:197] Top shape: 1 32 16 32 (16384)
I0716 13:53:15.322414 23744 net.cpp:205] Memory required for data: 176160772
I0716 13:53:15.322420 23744 layer_factory.hpp:123] Creating layer inception_4e/5x5_reduce_BatchNorm
I0716 13:53:15.322427 23744 net.cpp:140] Creating Layer inception_4e/5x5_reduce_BatchNorm
I0716 13:53:15.322430 23744 net.cpp:481] inception_4e/5x5_reduce_BatchNorm <- inception_4e/5x5_reduce_raw
I0716 13:53:15.322437 23744 net.cpp:455] inception_4e/5x5_reduce_BatchNorm -> inception_4e/5x5_reduce
I0716 13:53:15.323065 23744 net.cpp:190] Setting up inception_4e/5x5_reduce_BatchNorm
I0716 13:53:15.323072 23744 net.cpp:197] Top shape: 1 32 16 32 (16384)
I0716 13:53:15.323076 23744 net.cpp:205] Memory required for data: 176226308
I0716 13:53:15.323083 23744 layer_factory.hpp:123] Creating layer inception_4e/relu_5x5_reduce
I0716 13:53:15.323088 23744 net.cpp:140] Creating Layer inception_4e/relu_5x5_reduce
I0716 13:53:15.323092 23744 net.cpp:481] inception_4e/relu_5x5_reduce <- inception_4e/5x5_reduce
I0716 13:53:15.323097 23744 net.cpp:442] inception_4e/relu_5x5_reduce -> inception_4e/5x5_reduce (in-place)
I0716 13:53:15.323103 23744 net.cpp:190] Setting up inception_4e/relu_5x5_reduce
I0716 13:53:15.323107 23744 net.cpp:197] Top shape: 1 32 16 32 (16384)
I0716 13:53:15.323109 23744 net.cpp:205] Memory required for data: 176291844
I0716 13:53:15.323112 23744 layer_factory.hpp:123] Creating layer inception_4e/5x5
I0716 13:53:15.323120 23744 net.cpp:140] Creating Layer inception_4e/5x5
I0716 13:53:15.323123 23744 net.cpp:481] inception_4e/5x5 <- inception_4e/5x5_reduce
I0716 13:53:15.323128 23744 net.cpp:455] inception_4e/5x5 -> inception_4e/5x5_raw
I0716 13:53:15.324893 23744 net.cpp:190] Setting up inception_4e/5x5
I0716 13:53:15.324906 23744 net.cpp:197] Top shape: 1 128 16 32 (65536)
I0716 13:53:15.324909 23744 net.cpp:205] Memory required for data: 176553988
I0716 13:53:15.324915 23744 layer_factory.hpp:123] Creating layer inception_4e/5x5_BatchNorm
I0716 13:53:15.324923 23744 net.cpp:140] Creating Layer inception_4e/5x5_BatchNorm
I0716 13:53:15.324926 23744 net.cpp:481] inception_4e/5x5_BatchNorm <- inception_4e/5x5_raw
I0716 13:53:15.324934 23744 net.cpp:455] inception_4e/5x5_BatchNorm -> inception_4e/5x5
I0716 13:53:15.325484 23744 net.cpp:190] Setting up inception_4e/5x5_BatchNorm
I0716 13:53:15.325492 23744 net.cpp:197] Top shape: 1 128 16 32 (65536)
I0716 13:53:15.325495 23744 net.cpp:205] Memory required for data: 176816132
I0716 13:53:15.325503 23744 layer_factory.hpp:123] Creating layer inception_4e/relu_5x5
I0716 13:53:15.325510 23744 net.cpp:140] Creating Layer inception_4e/relu_5x5
I0716 13:53:15.325513 23744 net.cpp:481] inception_4e/relu_5x5 <- inception_4e/5x5
I0716 13:53:15.325517 23744 net.cpp:442] inception_4e/relu_5x5 -> inception_4e/5x5 (in-place)
I0716 13:53:15.325523 23744 net.cpp:190] Setting up inception_4e/relu_5x5
I0716 13:53:15.325527 23744 net.cpp:197] Top shape: 1 128 16 32 (65536)
I0716 13:53:15.325531 23744 net.cpp:205] Memory required for data: 177078276
I0716 13:53:15.325533 23744 layer_factory.hpp:123] Creating layer inception_4e/pool
I0716 13:53:15.325538 23744 net.cpp:140] Creating Layer inception_4e/pool
I0716 13:53:15.325542 23744 net.cpp:481] inception_4e/pool <- inception_4d/output_inception_4d/output_0_split_3
I0716 13:53:15.325547 23744 net.cpp:455] inception_4e/pool -> inception_4e/pool
I0716 13:53:15.325579 23744 net.cpp:190] Setting up inception_4e/pool
I0716 13:53:15.325584 23744 net.cpp:197] Top shape: 1 528 16 32 (270336)
I0716 13:53:15.325587 23744 net.cpp:205] Memory required for data: 178159620
I0716 13:53:15.325590 23744 layer_factory.hpp:123] Creating layer inception_4e/pool_proj
I0716 13:53:15.325598 23744 net.cpp:140] Creating Layer inception_4e/pool_proj
I0716 13:53:15.325603 23744 net.cpp:481] inception_4e/pool_proj <- inception_4e/pool
I0716 13:53:15.325608 23744 net.cpp:455] inception_4e/pool_proj -> inception_4e/pool_proj_raw
I0716 13:53:15.326416 23744 net.cpp:190] Setting up inception_4e/pool_proj
I0716 13:53:15.326423 23744 net.cpp:197] Top shape: 1 128 16 32 (65536)
I0716 13:53:15.326426 23744 net.cpp:205] Memory required for data: 178421764
I0716 13:53:15.326431 23744 layer_factory.hpp:123] Creating layer inception_4e/pool_proj_BatchNorm
I0716 13:53:15.326438 23744 net.cpp:140] Creating Layer inception_4e/pool_proj_BatchNorm
I0716 13:53:15.326442 23744 net.cpp:481] inception_4e/pool_proj_BatchNorm <- inception_4e/pool_proj_raw
I0716 13:53:15.326447 23744 net.cpp:455] inception_4e/pool_proj_BatchNorm -> inception_4e/pool_proj
I0716 13:53:15.327131 23744 net.cpp:190] Setting up inception_4e/pool_proj_BatchNorm
I0716 13:53:15.327139 23744 net.cpp:197] Top shape: 1 128 16 32 (65536)
I0716 13:53:15.327142 23744 net.cpp:205] Memory required for data: 178683908
I0716 13:53:15.327150 23744 layer_factory.hpp:123] Creating layer inception_4e/relu_pool_proj
I0716 13:53:15.327155 23744 net.cpp:140] Creating Layer inception_4e/relu_pool_proj
I0716 13:53:15.327159 23744 net.cpp:481] inception_4e/relu_pool_proj <- inception_4e/pool_proj
I0716 13:53:15.327164 23744 net.cpp:442] inception_4e/relu_pool_proj -> inception_4e/pool_proj (in-place)
I0716 13:53:15.327172 23744 net.cpp:190] Setting up inception_4e/relu_pool_proj
I0716 13:53:15.327175 23744 net.cpp:197] Top shape: 1 128 16 32 (65536)
I0716 13:53:15.327178 23744 net.cpp:205] Memory required for data: 178946052
I0716 13:53:15.327181 23744 layer_factory.hpp:123] Creating layer inception_4e/output
I0716 13:53:15.327186 23744 net.cpp:140] Creating Layer inception_4e/output
I0716 13:53:15.327189 23744 net.cpp:481] inception_4e/output <- inception_4e/1x1
I0716 13:53:15.327193 23744 net.cpp:481] inception_4e/output <- inception_4e/3x3
I0716 13:53:15.327198 23744 net.cpp:481] inception_4e/output <- inception_4e/5x5
I0716 13:53:15.327200 23744 net.cpp:481] inception_4e/output <- inception_4e/pool_proj
I0716 13:53:15.327209 23744 net.cpp:455] inception_4e/output -> inception_4e/output
I0716 13:53:15.327244 23744 net.cpp:190] Setting up inception_4e/output
I0716 13:53:15.327248 23744 net.cpp:197] Top shape: 1 832 16 32 (425984)
I0716 13:53:15.327251 23744 net.cpp:205] Memory required for data: 180649988
I0716 13:53:15.327255 23744 layer_factory.hpp:123] Creating layer inception_4e/output_inception_4e/output_0_split
I0716 13:53:15.327260 23744 net.cpp:140] Creating Layer inception_4e/output_inception_4e/output_0_split
I0716 13:53:15.327262 23744 net.cpp:481] inception_4e/output_inception_4e/output_0_split <- inception_4e/output
I0716 13:53:15.327267 23744 net.cpp:455] inception_4e/output_inception_4e/output_0_split -> inception_4e/output_inception_4e/output_0_split_0
I0716 13:53:15.327273 23744 net.cpp:455] inception_4e/output_inception_4e/output_0_split -> inception_4e/output_inception_4e/output_0_split_1
I0716 13:53:15.327303 23744 net.cpp:190] Setting up inception_4e/output_inception_4e/output_0_split
I0716 13:53:15.327308 23744 net.cpp:197] Top shape: 1 832 16 32 (425984)
I0716 13:53:15.327312 23744 net.cpp:197] Top shape: 1 832 16 32 (425984)
I0716 13:53:15.327316 23744 net.cpp:205] Memory required for data: 184057860
I0716 13:53:15.327318 23744 layer_factory.hpp:123] Creating layer pool4/3x3_s2
I0716 13:53:15.327323 23744 net.cpp:140] Creating Layer pool4/3x3_s2
I0716 13:53:15.327327 23744 net.cpp:481] pool4/3x3_s2 <- inception_4e/output_inception_4e/output_0_split_0
I0716 13:53:15.327332 23744 net.cpp:455] pool4/3x3_s2 -> pool4/3x3_s2
I0716 13:53:15.327360 23744 net.cpp:190] Setting up pool4/3x3_s2
I0716 13:53:15.327366 23744 net.cpp:197] Top shape: 1 832 8 16 (106496)
I0716 13:53:15.327368 23744 net.cpp:205] Memory required for data: 184483844
I0716 13:53:15.327371 23744 layer_factory.hpp:123] Creating layer pool4/3x3_s2_pool4/3x3_s2_0_split
I0716 13:53:15.327378 23744 net.cpp:140] Creating Layer pool4/3x3_s2_pool4/3x3_s2_0_split
I0716 13:53:15.327380 23744 net.cpp:481] pool4/3x3_s2_pool4/3x3_s2_0_split <- pool4/3x3_s2
I0716 13:53:15.327384 23744 net.cpp:455] pool4/3x3_s2_pool4/3x3_s2_0_split -> pool4/3x3_s2_pool4/3x3_s2_0_split_0
I0716 13:53:15.327390 23744 net.cpp:455] pool4/3x3_s2_pool4/3x3_s2_0_split -> pool4/3x3_s2_pool4/3x3_s2_0_split_1
I0716 13:53:15.327396 23744 net.cpp:455] pool4/3x3_s2_pool4/3x3_s2_0_split -> pool4/3x3_s2_pool4/3x3_s2_0_split_2
I0716 13:53:15.327402 23744 net.cpp:455] pool4/3x3_s2_pool4/3x3_s2_0_split -> pool4/3x3_s2_pool4/3x3_s2_0_split_3
I0716 13:53:15.327450 23744 net.cpp:190] Setting up pool4/3x3_s2_pool4/3x3_s2_0_split
I0716 13:53:15.327455 23744 net.cpp:197] Top shape: 1 832 8 16 (106496)
I0716 13:53:15.327458 23744 net.cpp:197] Top shape: 1 832 8 16 (106496)
I0716 13:53:15.327461 23744 net.cpp:197] Top shape: 1 832 8 16 (106496)
I0716 13:53:15.327466 23744 net.cpp:197] Top shape: 1 832 8 16 (106496)
I0716 13:53:15.327467 23744 net.cpp:205] Memory required for data: 186187780
I0716 13:53:15.327471 23744 layer_factory.hpp:123] Creating layer inception_5a/1x1
I0716 13:53:15.327478 23744 net.cpp:140] Creating Layer inception_5a/1x1
I0716 13:53:15.327481 23744 net.cpp:481] inception_5a/1x1 <- pool4/3x3_s2_pool4/3x3_s2_0_split_0
I0716 13:53:15.327486 23744 net.cpp:455] inception_5a/1x1 -> inception_5a/1x1_raw
I0716 13:53:15.330235 23744 net.cpp:190] Setting up inception_5a/1x1
I0716 13:53:15.330247 23744 net.cpp:197] Top shape: 1 256 8 16 (32768)
I0716 13:53:15.330250 23744 net.cpp:205] Memory required for data: 186318852
I0716 13:53:15.330257 23744 layer_factory.hpp:123] Creating layer inception_5a/1x1_BatchNorm
I0716 13:53:15.330265 23744 net.cpp:140] Creating Layer inception_5a/1x1_BatchNorm
I0716 13:53:15.330268 23744 net.cpp:481] inception_5a/1x1_BatchNorm <- inception_5a/1x1_raw
I0716 13:53:15.330274 23744 net.cpp:455] inception_5a/1x1_BatchNorm -> inception_5a/1x1
I0716 13:53:15.330821 23744 net.cpp:190] Setting up inception_5a/1x1_BatchNorm
I0716 13:53:15.330829 23744 net.cpp:197] Top shape: 1 256 8 16 (32768)
I0716 13:53:15.330832 23744 net.cpp:205] Memory required for data: 186449924
I0716 13:53:15.330840 23744 layer_factory.hpp:123] Creating layer inception_5a/relu_1x1
I0716 13:53:15.330847 23744 net.cpp:140] Creating Layer inception_5a/relu_1x1
I0716 13:53:15.330850 23744 net.cpp:481] inception_5a/relu_1x1 <- inception_5a/1x1
I0716 13:53:15.330855 23744 net.cpp:442] inception_5a/relu_1x1 -> inception_5a/1x1 (in-place)
I0716 13:53:15.330862 23744 net.cpp:190] Setting up inception_5a/relu_1x1
I0716 13:53:15.330865 23744 net.cpp:197] Top shape: 1 256 8 16 (32768)
I0716 13:53:15.330868 23744 net.cpp:205] Memory required for data: 186580996
I0716 13:53:15.330871 23744 layer_factory.hpp:123] Creating layer inception_5a/3x3_reduce
I0716 13:53:15.330879 23744 net.cpp:140] Creating Layer inception_5a/3x3_reduce
I0716 13:53:15.330883 23744 net.cpp:481] inception_5a/3x3_reduce <- pool4/3x3_s2_pool4/3x3_s2_0_split_1
I0716 13:53:15.330888 23744 net.cpp:455] inception_5a/3x3_reduce -> inception_5a/3x3_reduce_raw
I0716 13:53:15.332279 23744 net.cpp:190] Setting up inception_5a/3x3_reduce
I0716 13:53:15.332288 23744 net.cpp:197] Top shape: 1 160 8 16 (20480)
I0716 13:53:15.332290 23744 net.cpp:205] Memory required for data: 186662916
I0716 13:53:15.332296 23744 layer_factory.hpp:123] Creating layer inception_5a/3x3_reduce_BatchNorm
I0716 13:53:15.332304 23744 net.cpp:140] Creating Layer inception_5a/3x3_reduce_BatchNorm
I0716 13:53:15.332307 23744 net.cpp:481] inception_5a/3x3_reduce_BatchNorm <- inception_5a/3x3_reduce_raw
I0716 13:53:15.332314 23744 net.cpp:455] inception_5a/3x3_reduce_BatchNorm -> inception_5a/3x3_reduce
I0716 13:53:15.332939 23744 net.cpp:190] Setting up inception_5a/3x3_reduce_BatchNorm
I0716 13:53:15.332947 23744 net.cpp:197] Top shape: 1 160 8 16 (20480)
I0716 13:53:15.332949 23744 net.cpp:205] Memory required for data: 186744836
I0716 13:53:15.332957 23744 layer_factory.hpp:123] Creating layer inception_5a/relu_3x3_reduce
I0716 13:53:15.332963 23744 net.cpp:140] Creating Layer inception_5a/relu_3x3_reduce
I0716 13:53:15.332967 23744 net.cpp:481] inception_5a/relu_3x3_reduce <- inception_5a/3x3_reduce
I0716 13:53:15.332971 23744 net.cpp:442] inception_5a/relu_3x3_reduce -> inception_5a/3x3_reduce (in-place)
I0716 13:53:15.332978 23744 net.cpp:190] Setting up inception_5a/relu_3x3_reduce
I0716 13:53:15.332983 23744 net.cpp:197] Top shape: 1 160 8 16 (20480)
I0716 13:53:15.332984 23744 net.cpp:205] Memory required for data: 186826756
I0716 13:53:15.332988 23744 layer_factory.hpp:123] Creating layer inception_5a/3x3
I0716 13:53:15.332995 23744 net.cpp:140] Creating Layer inception_5a/3x3
I0716 13:53:15.332998 23744 net.cpp:481] inception_5a/3x3 <- inception_5a/3x3_reduce
I0716 13:53:15.333003 23744 net.cpp:455] inception_5a/3x3 -> inception_5a/3x3_raw
I0716 13:53:15.338538 23744 net.cpp:190] Setting up inception_5a/3x3
I0716 13:53:15.338551 23744 net.cpp:197] Top shape: 1 320 8 16 (40960)
I0716 13:53:15.338553 23744 net.cpp:205] Memory required for data: 186990596
I0716 13:53:15.338559 23744 layer_factory.hpp:123] Creating layer inception_5a/3x3_BatchNorm
I0716 13:53:15.338567 23744 net.cpp:140] Creating Layer inception_5a/3x3_BatchNorm
I0716 13:53:15.338570 23744 net.cpp:481] inception_5a/3x3_BatchNorm <- inception_5a/3x3_raw
I0716 13:53:15.338577 23744 net.cpp:455] inception_5a/3x3_BatchNorm -> inception_5a/3x3
I0716 13:53:15.339208 23744 net.cpp:190] Setting up inception_5a/3x3_BatchNorm
I0716 13:53:15.339216 23744 net.cpp:197] Top shape: 1 320 8 16 (40960)
I0716 13:53:15.339220 23744 net.cpp:205] Memory required for data: 187154436
I0716 13:53:15.339227 23744 layer_factory.hpp:123] Creating layer inception_5a/relu_3x3
I0716 13:53:15.339233 23744 net.cpp:140] Creating Layer inception_5a/relu_3x3
I0716 13:53:15.339236 23744 net.cpp:481] inception_5a/relu_3x3 <- inception_5a/3x3
I0716 13:53:15.339241 23744 net.cpp:442] inception_5a/relu_3x3 -> inception_5a/3x3 (in-place)
I0716 13:53:15.339247 23744 net.cpp:190] Setting up inception_5a/relu_3x3
I0716 13:53:15.339251 23744 net.cpp:197] Top shape: 1 320 8 16 (40960)
I0716 13:53:15.339254 23744 net.cpp:205] Memory required for data: 187318276
I0716 13:53:15.339257 23744 layer_factory.hpp:123] Creating layer inception_5a/5x5_reduce
I0716 13:53:15.339264 23744 net.cpp:140] Creating Layer inception_5a/5x5_reduce
I0716 13:53:15.339268 23744 net.cpp:481] inception_5a/5x5_reduce <- pool4/3x3_s2_pool4/3x3_s2_0_split_2
I0716 13:53:15.339273 23744 net.cpp:455] inception_5a/5x5_reduce -> inception_5a/5x5_reduce_raw
I0716 13:53:15.339752 23744 net.cpp:190] Setting up inception_5a/5x5_reduce
I0716 13:53:15.339767 23744 net.cpp:197] Top shape: 1 32 8 16 (4096)
I0716 13:53:15.339771 23744 net.cpp:205] Memory required for data: 187334660
I0716 13:53:15.339776 23744 layer_factory.hpp:123] Creating layer inception_5a/5x5_reduce_BatchNorm
I0716 13:53:15.339782 23744 net.cpp:140] Creating Layer inception_5a/5x5_reduce_BatchNorm
I0716 13:53:15.339787 23744 net.cpp:481] inception_5a/5x5_reduce_BatchNorm <- inception_5a/5x5_reduce_raw
I0716 13:53:15.339792 23744 net.cpp:455] inception_5a/5x5_reduce_BatchNorm -> inception_5a/5x5_reduce
I0716 13:53:15.340430 23744 net.cpp:190] Setting up inception_5a/5x5_reduce_BatchNorm
I0716 13:53:15.340437 23744 net.cpp:197] Top shape: 1 32 8 16 (4096)
I0716 13:53:15.340440 23744 net.cpp:205] Memory required for data: 187351044
I0716 13:53:15.340448 23744 layer_factory.hpp:123] Creating layer inception_5a/relu_5x5_reduce
I0716 13:53:15.340453 23744 net.cpp:140] Creating Layer inception_5a/relu_5x5_reduce
I0716 13:53:15.340457 23744 net.cpp:481] inception_5a/relu_5x5_reduce <- inception_5a/5x5_reduce
I0716 13:53:15.340462 23744 net.cpp:442] inception_5a/relu_5x5_reduce -> inception_5a/5x5_reduce (in-place)
I0716 13:53:15.340468 23744 net.cpp:190] Setting up inception_5a/relu_5x5_reduce
I0716 13:53:15.340472 23744 net.cpp:197] Top shape: 1 32 8 16 (4096)
I0716 13:53:15.340474 23744 net.cpp:205] Memory required for data: 187367428
I0716 13:53:15.340477 23744 layer_factory.hpp:123] Creating layer inception_5a/5x5
I0716 13:53:15.340485 23744 net.cpp:140] Creating Layer inception_5a/5x5
I0716 13:53:15.340488 23744 net.cpp:481] inception_5a/5x5 <- inception_5a/5x5_reduce
I0716 13:53:15.340493 23744 net.cpp:455] inception_5a/5x5 -> inception_5a/5x5_raw
I0716 13:53:15.342367 23744 net.cpp:190] Setting up inception_5a/5x5
I0716 13:53:15.342380 23744 net.cpp:197] Top shape: 1 128 8 16 (16384)
I0716 13:53:15.342382 23744 net.cpp:205] Memory required for data: 187432964
I0716 13:53:15.342388 23744 layer_factory.hpp:123] Creating layer inception_5a/5x5_BatchNorm
I0716 13:53:15.342396 23744 net.cpp:140] Creating Layer inception_5a/5x5_BatchNorm
I0716 13:53:15.342401 23744 net.cpp:481] inception_5a/5x5_BatchNorm <- inception_5a/5x5_raw
I0716 13:53:15.342407 23744 net.cpp:455] inception_5a/5x5_BatchNorm -> inception_5a/5x5
I0716 13:53:15.342963 23744 net.cpp:190] Setting up inception_5a/5x5_BatchNorm
I0716 13:53:15.342972 23744 net.cpp:197] Top shape: 1 128 8 16 (16384)
I0716 13:53:15.342974 23744 net.cpp:205] Memory required for data: 187498500
I0716 13:53:15.342983 23744 layer_factory.hpp:123] Creating layer inception_5a/relu_5x5
I0716 13:53:15.342989 23744 net.cpp:140] Creating Layer inception_5a/relu_5x5
I0716 13:53:15.342993 23744 net.cpp:481] inception_5a/relu_5x5 <- inception_5a/5x5
I0716 13:53:15.342998 23744 net.cpp:442] inception_5a/relu_5x5 -> inception_5a/5x5 (in-place)
I0716 13:53:15.343004 23744 net.cpp:190] Setting up inception_5a/relu_5x5
I0716 13:53:15.343008 23744 net.cpp:197] Top shape: 1 128 8 16 (16384)
I0716 13:53:15.343011 23744 net.cpp:205] Memory required for data: 187564036
I0716 13:53:15.343014 23744 layer_factory.hpp:123] Creating layer inception_5a/pool
I0716 13:53:15.343019 23744 net.cpp:140] Creating Layer inception_5a/pool
I0716 13:53:15.343022 23744 net.cpp:481] inception_5a/pool <- pool4/3x3_s2_pool4/3x3_s2_0_split_3
I0716 13:53:15.343027 23744 net.cpp:455] inception_5a/pool -> inception_5a/pool
I0716 13:53:15.343060 23744 net.cpp:190] Setting up inception_5a/pool
I0716 13:53:15.343066 23744 net.cpp:197] Top shape: 1 832 8 16 (106496)
I0716 13:53:15.343068 23744 net.cpp:205] Memory required for data: 187990020
I0716 13:53:15.343071 23744 layer_factory.hpp:123] Creating layer inception_5a/pool_proj
I0716 13:53:15.343080 23744 net.cpp:140] Creating Layer inception_5a/pool_proj
I0716 13:53:15.343083 23744 net.cpp:481] inception_5a/pool_proj <- inception_5a/pool
I0716 13:53:15.343088 23744 net.cpp:455] inception_5a/pool_proj -> inception_5a/pool_proj_raw
I0716 13:53:15.344244 23744 net.cpp:190] Setting up inception_5a/pool_proj
I0716 13:53:15.344252 23744 net.cpp:197] Top shape: 1 128 8 16 (16384)
I0716 13:53:15.344254 23744 net.cpp:205] Memory required for data: 188055556
I0716 13:53:15.344260 23744 layer_factory.hpp:123] Creating layer inception_5a/pool_proj_BatchNorm
I0716 13:53:15.344267 23744 net.cpp:140] Creating Layer inception_5a/pool_proj_BatchNorm
I0716 13:53:15.344271 23744 net.cpp:481] inception_5a/pool_proj_BatchNorm <- inception_5a/pool_proj_raw
I0716 13:53:15.344277 23744 net.cpp:455] inception_5a/pool_proj_BatchNorm -> inception_5a/pool_proj
I0716 13:53:15.344827 23744 net.cpp:190] Setting up inception_5a/pool_proj_BatchNorm
I0716 13:53:15.344835 23744 net.cpp:197] Top shape: 1 128 8 16 (16384)
I0716 13:53:15.344838 23744 net.cpp:205] Memory required for data: 188121092
I0716 13:53:15.344846 23744 layer_factory.hpp:123] Creating layer inception_5a/relu_pool_proj
I0716 13:53:15.344851 23744 net.cpp:140] Creating Layer inception_5a/relu_pool_proj
I0716 13:53:15.344856 23744 net.cpp:481] inception_5a/relu_pool_proj <- inception_5a/pool_proj
I0716 13:53:15.344859 23744 net.cpp:442] inception_5a/relu_pool_proj -> inception_5a/pool_proj (in-place)
I0716 13:53:15.344866 23744 net.cpp:190] Setting up inception_5a/relu_pool_proj
I0716 13:53:15.344869 23744 net.cpp:197] Top shape: 1 128 8 16 (16384)
I0716 13:53:15.344872 23744 net.cpp:205] Memory required for data: 188186628
I0716 13:53:15.344875 23744 layer_factory.hpp:123] Creating layer inception_5a/output
I0716 13:53:15.344880 23744 net.cpp:140] Creating Layer inception_5a/output
I0716 13:53:15.344883 23744 net.cpp:481] inception_5a/output <- inception_5a/1x1
I0716 13:53:15.344887 23744 net.cpp:481] inception_5a/output <- inception_5a/3x3
I0716 13:53:15.344892 23744 net.cpp:481] inception_5a/output <- inception_5a/5x5
I0716 13:53:15.344894 23744 net.cpp:481] inception_5a/output <- inception_5a/pool_proj
I0716 13:53:15.344899 23744 net.cpp:455] inception_5a/output -> inception_5a/output
I0716 13:53:15.344921 23744 net.cpp:190] Setting up inception_5a/output
I0716 13:53:15.344926 23744 net.cpp:197] Top shape: 1 832 8 16 (106496)
I0716 13:53:15.344929 23744 net.cpp:205] Memory required for data: 188612612
I0716 13:53:15.344933 23744 layer_factory.hpp:123] Creating layer inception_5a/output_inception_5a/output_0_split
I0716 13:53:15.344938 23744 net.cpp:140] Creating Layer inception_5a/output_inception_5a/output_0_split
I0716 13:53:15.344941 23744 net.cpp:481] inception_5a/output_inception_5a/output_0_split <- inception_5a/output
I0716 13:53:15.344946 23744 net.cpp:455] inception_5a/output_inception_5a/output_0_split -> inception_5a/output_inception_5a/output_0_split_0
I0716 13:53:15.344952 23744 net.cpp:455] inception_5a/output_inception_5a/output_0_split -> inception_5a/output_inception_5a/output_0_split_1
I0716 13:53:15.344959 23744 net.cpp:455] inception_5a/output_inception_5a/output_0_split -> inception_5a/output_inception_5a/output_0_split_2
I0716 13:53:15.344965 23744 net.cpp:455] inception_5a/output_inception_5a/output_0_split -> inception_5a/output_inception_5a/output_0_split_3
I0716 13:53:15.345013 23744 net.cpp:190] Setting up inception_5a/output_inception_5a/output_0_split
I0716 13:53:15.345019 23744 net.cpp:197] Top shape: 1 832 8 16 (106496)
I0716 13:53:15.345023 23744 net.cpp:197] Top shape: 1 832 8 16 (106496)
I0716 13:53:15.345026 23744 net.cpp:197] Top shape: 1 832 8 16 (106496)
I0716 13:53:15.345029 23744 net.cpp:197] Top shape: 1 832 8 16 (106496)
I0716 13:53:15.345032 23744 net.cpp:205] Memory required for data: 190316548
I0716 13:53:15.345036 23744 layer_factory.hpp:123] Creating layer inception_5b/1x1
I0716 13:53:15.345042 23744 net.cpp:140] Creating Layer inception_5b/1x1
I0716 13:53:15.345046 23744 net.cpp:481] inception_5b/1x1 <- inception_5a/output_inception_5a/output_0_split_0
I0716 13:53:15.345052 23744 net.cpp:455] inception_5b/1x1 -> inception_5b/1x1_raw
I0716 13:53:15.349380 23744 net.cpp:190] Setting up inception_5b/1x1
I0716 13:53:15.349391 23744 net.cpp:197] Top shape: 1 384 8 16 (49152)
I0716 13:53:15.349395 23744 net.cpp:205] Memory required for data: 190513156
I0716 13:53:15.349400 23744 layer_factory.hpp:123] Creating layer inception_5b/1x1_BatchNorm
I0716 13:53:15.349408 23744 net.cpp:140] Creating Layer inception_5b/1x1_BatchNorm
I0716 13:53:15.349412 23744 net.cpp:481] inception_5b/1x1_BatchNorm <- inception_5b/1x1_raw
I0716 13:53:15.349418 23744 net.cpp:455] inception_5b/1x1_BatchNorm -> inception_5b/1x1
I0716 13:53:15.349962 23744 net.cpp:190] Setting up inception_5b/1x1_BatchNorm
I0716 13:53:15.349972 23744 net.cpp:197] Top shape: 1 384 8 16 (49152)
I0716 13:53:15.349973 23744 net.cpp:205] Memory required for data: 190709764
I0716 13:53:15.349982 23744 layer_factory.hpp:123] Creating layer inception_5b/relu_1x1
I0716 13:53:15.349987 23744 net.cpp:140] Creating Layer inception_5b/relu_1x1
I0716 13:53:15.349993 23744 net.cpp:481] inception_5b/relu_1x1 <- inception_5b/1x1
I0716 13:53:15.349997 23744 net.cpp:442] inception_5b/relu_1x1 -> inception_5b/1x1 (in-place)
I0716 13:53:15.350004 23744 net.cpp:190] Setting up inception_5b/relu_1x1
I0716 13:53:15.350008 23744 net.cpp:197] Top shape: 1 384 8 16 (49152)
I0716 13:53:15.350010 23744 net.cpp:205] Memory required for data: 190906372
I0716 13:53:15.350013 23744 layer_factory.hpp:123] Creating layer inception_5b/3x3_reduce
I0716 13:53:15.350021 23744 net.cpp:140] Creating Layer inception_5b/3x3_reduce
I0716 13:53:15.350024 23744 net.cpp:481] inception_5b/3x3_reduce <- inception_5a/output_inception_5a/output_0_split_1
…
I0716 13:53:15.812647 23744 net.cpp:481] inception_4e/relu_1x1 <- inception_4e/1x1
I0716 13:53:15.812655 23744 net.cpp:442] inception_4e/relu_1x1 -> inception_4e/1x1 (in-place)
I0716 13:53:15.812667 23744 net.cpp:190] Setting up inception_4e/relu_1x1
I0716 13:53:15.812675 23744 net.cpp:197] Top shape: 1 256 16 32 (131072)
I0716 13:53:15.812680 23744 net.cpp:205] Memory required for data: 167903236
I0716 13:53:15.812683 23744 layer_factory.hpp:123] Creating layer inception_4e/3x3_reduce
I0716 13:53:15.812696 23744 net.cpp:140] Creating Layer inception_4e/3x3_reduce
I0716 13:53:15.812703 23744 net.cpp:481] inception_4e/3x3_reduce <- inception_4d/output_inception_4d/output_fixed_0_split_1
I0716 13:53:15.812712 23744 net.cpp:455] inception_4e/3x3_reduce -> inception_4e/3x3_reduce
I0716 13:53:15.814211 23744 layer_factory.hpp:123] Creating layer inception_4e/3x3_reduce
I0716 13:53:15.815908 23744 net.cpp:190] Setting up inception_4e/3x3_reduce
I0716 13:53:15.815920 23744 net.cpp:197] Top shape: 1 160 16 32 (81920)
I0716 13:53:15.815925 23744 net.cpp:205] Memory required for data: 168230916
I0716 13:53:15.815934 23744 layer_factory.hpp:123] Creating layer inception_4e/relu_3x3_reduce
I0716 13:53:15.815948 23744 net.cpp:140] Creating Layer inception_4e/relu_3x3_reduce
I0716 13:53:15.815955 23744 net.cpp:481] inception_4e/relu_3x3_reduce <- inception_4e/3x3_reduce
I0716 13:53:15.815963 23744 net.cpp:442] inception_4e/relu_3x3_reduce -> inception_4e/3x3_reduce (in-place)
I0716 13:53:15.815973 23744 net.cpp:190] Setting up inception_4e/relu_3x3_reduce
I0716 13:53:15.815980 23744 net.cpp:197] Top shape: 1 160 16 32 (81920)
I0716 13:53:15.815984 23744 net.cpp:205] Memory required for data: 168558596
I0716 13:53:15.815989 23744 layer_factory.hpp:123] Creating layer inception_4e/3x3_reduce_fixed
I0716 13:53:15.815997 23744 net.cpp:140] Creating Layer inception_4e/3x3_reduce_fixed
I0716 13:53:15.816002 23744 net.cpp:481] inception_4e/3x3_reduce_fixed <- inception_4e/3x3_reduce
I0716 13:53:15.816010 23744 net.cpp:442] inception_4e/3x3_reduce_fixed -> inception_4e/3x3_reduce (in-place)
I0716 13:53:15.816053 23744 net.cpp:190] Setting up inception_4e/3x3_reduce_fixed
I0716 13:53:15.816062 23744 net.cpp:197] Top shape: 1 160 16 32 (81920)
I0716 13:53:15.816067 23744 net.cpp:205] Memory required for data: 168886276
I0716 13:53:15.816073 23744 layer_factory.hpp:123] Creating layer inception_4e/3x3
I0716 13:53:15.816087 23744 net.cpp:140] Creating Layer inception_4e/3x3
I0716 13:53:15.816092 23744 net.cpp:481] inception_4e/3x3 <- inception_4e/3x3_reduce
I0716 13:53:15.816102 23744 net.cpp:455] inception_4e/3x3 -> inception_4e/3x3
I0716 13:53:15.826431 23744 layer_factory.hpp:123] Creating layer inception_4e/3x3
I0716 13:53:15.833708 23744 net.cpp:190] Setting up inception_4e/3x3
I0716 13:53:15.833726 23744 net.cpp:197] Top shape: 1 320 16 32 (163840)
I0716 13:53:15.833730 23744 net.cpp:205] Memory required for data: 169541636
I0716 13:53:15.833739 23744 layer_factory.hpp:123] Creating layer inception_4e/relu_3x3
I0716 13:53:15.833748 23744 net.cpp:140] Creating Layer inception_4e/relu_3x3
I0716 13:53:15.833756 23744 net.cpp:481] inception_4e/relu_3x3 <- inception_4e/3x3
I0716 13:53:15.833765 23744 net.cpp:442] inception_4e/relu_3x3 -> inception_4e/3x3 (in-place)
I0716 13:53:15.833775 23744 net.cpp:190] Setting up inception_4e/relu_3x3
I0716 13:53:15.833782 23744 net.cpp:197] Top shape: 1 320 16 32 (163840)
I0716 13:53:15.833786 23744 net.cpp:205] Memory required for data: 170196996
I0716 13:53:15.833789 23744 layer_factory.hpp:123] Creating layer inception_4e/5x5_reduce
I0716 13:53:15.833801 23744 net.cpp:140] Creating Layer inception_4e/5x5_reduce
I0716 13:53:15.833807 23744 net.cpp:481] inception_4e/5x5_reduce <- inception_4d/output_inception_4d/output_fixed_0_split_2
I0716 13:53:15.833815 23744 net.cpp:455] inception_4e/5x5_reduce -> inception_4e/5x5_reduce
I0716 13:53:15.834226 23744 layer_factory.hpp:123] Creating layer inception_4e/5x5_reduce
I0716 13:53:15.834765 23744 net.cpp:190] Setting up inception_4e/5x5_reduce
I0716 13:53:15.834775 23744 net.cpp:197] Top shape: 1 32 16 32 (16384)
I0716 13:53:15.834779 23744 net.cpp:205] Memory required for data: 170262532
I0716 13:53:15.834786 23744 layer_factory.hpp:123] Creating layer inception_4e/relu_5x5_reduce
I0716 13:53:15.834792 23744 net.cpp:140] Creating Layer inception_4e/relu_5x5_reduce
I0716 13:53:15.834798 23744 net.cpp:481] inception_4e/relu_5x5_reduce <- inception_4e/5x5_reduce
I0716 13:53:15.834805 23744 net.cpp:442] inception_4e/relu_5x5_reduce -> inception_4e/5x5_reduce (in-place)
I0716 13:53:15.834815 23744 net.cpp:190] Setting up inception_4e/relu_5x5_reduce
I0716 13:53:15.834821 23744 net.cpp:197] Top shape: 1 32 16 32 (16384)
I0716 13:53:15.834825 23744 net.cpp:205] Memory required for data: 170328068
I0716 13:53:15.834828 23744 layer_factory.hpp:123] Creating layer inception_4e/5x5_reduce_fixed
I0716 13:53:15.834836 23744 net.cpp:140] Creating Layer inception_4e/5x5_reduce_fixed
I0716 13:53:15.834839 23744 net.cpp:481] inception_4e/5x5_reduce_fixed <- inception_4e/5x5_reduce
I0716 13:53:15.834844 23744 net.cpp:442] inception_4e/5x5_reduce_fixed -> inception_4e/5x5_reduce (in-place)
I0716 13:53:15.834883 23744 net.cpp:190] Setting up inception_4e/5x5_reduce_fixed
I0716 13:53:15.834890 23744 net.cpp:197] Top shape: 1 32 16 32 (16384)
I0716 13:53:15.834893 23744 net.cpp:205] Memory required for data: 170393604
I0716 13:53:15.834898 23744 layer_factory.hpp:123] Creating layer inception_4e/5x5
I0716 13:53:15.834908 23744 net.cpp:140] Creating Layer inception_4e/5x5
I0716 13:53:15.834913 23744 net.cpp:481] inception_4e/5x5 <- inception_4e/5x5_reduce
I0716 13:53:15.834920 23744 net.cpp:455] inception_4e/5x5 -> inception_4e/5x5
I0716 13:53:15.836946 23744 layer_factory.hpp:123] Creating layer inception_4e/5x5
I0716 13:53:15.838119 23744 net.cpp:190] Setting up inception_4e/5x5
I0716 13:53:15.838129 23744 net.cpp:197] Top shape: 1 128 16 32 (65536)
I0716 13:53:15.838131 23744 net.cpp:205] Memory required for data: 170655748
I0716 13:53:15.838137 23744 layer_factory.hpp:123] Creating layer inception_4e/relu_5x5
I0716 13:53:15.838142 23744 net.cpp:140] Creating Layer inception_4e/relu_5x5
I0716 13:53:15.838147 23744 net.cpp:481] inception_4e/relu_5x5 <- inception_4e/5x5
I0716 13:53:15.838152 23744 net.cpp:442] inception_4e/relu_5x5 -> inception_4e/5x5 (in-place)
I0716 13:53:15.838158 23744 net.cpp:190] Setting up inception_4e/relu_5x5
I0716 13:53:15.838165 23744 net.cpp:197] Top shape: 1 128 16 32 (65536)
I0716 13:53:15.838167 23744 net.cpp:205] Memory required for data: 170917892
I0716 13:53:15.838171 23744 layer_factory.hpp:123] Creating layer inception_4e/pool
I0716 13:53:15.838176 23744 net.cpp:140] Creating Layer inception_4e/pool
I0716 13:53:15.838181 23744 net.cpp:481] inception_4e/pool <- inception_4d/output_inception_4d/output_fixed_0_split_3
I0716 13:53:15.838186 23744 net.cpp:455] inception_4e/pool -> inception_4e/pool
I0716 13:53:15.838222 23744 net.cpp:190] Setting up inception_4e/pool
I0716 13:53:15.838228 23744 net.cpp:197] Top shape: 1 528 16 32 (270336)
I0716 13:53:15.838230 23744 net.cpp:205] Memory required for data: 171999236
I0716 13:53:15.838234 23744 layer_factory.hpp:123] Creating layer inception_4e/pool_proj
I0716 13:53:15.838243 23744 net.cpp:140] Creating Layer inception_4e/pool_proj
I0716 13:53:15.838245 23744 net.cpp:481] inception_4e/pool_proj <- inception_4e/pool
I0716 13:53:15.838251 23744 net.cpp:455] inception_4e/pool_proj -> inception_4e/pool_proj
I0716 13:53:15.838994 23744 layer_factory.hpp:123] Creating layer inception_4e/pool_proj
I0716 13:53:15.839876 23744 net.cpp:190] Setting up inception_4e/pool_proj
I0716 13:53:15.839885 23744 net.cpp:197] Top shape: 1 128 16 32 (65536)
I0716 13:53:15.839888 23744 net.cpp:205] Memory required for data: 172261380
I0716 13:53:15.839893 23744 layer_factory.hpp:123] Creating layer inception_4e/relu_pool_proj
I0716 13:53:15.839900 23744 net.cpp:140] Creating Layer inception_4e/relu_pool_proj
I0716 13:53:15.839903 23744 net.cpp:481] inception_4e/relu_pool_proj <- inception_4e/pool_proj
I0716 13:53:15.839908 23744 net.cpp:442] inception_4e/relu_pool_proj -> inception_4e/pool_proj (in-place)
I0716 13:53:15.839915 23744 net.cpp:190] Setting up inception_4e/relu_pool_proj
I0716 13:53:15.839920 23744 net.cpp:197] Top shape: 1 128 16 32 (65536)
I0716 13:53:15.839921 23744 net.cpp:205] Memory required for data: 172523524
I0716 13:53:15.839924 23744 layer_factory.hpp:123] Creating layer inception_4e/output
I0716 13:53:15.839931 23744 net.cpp:140] Creating Layer inception_4e/output
I0716 13:53:15.839933 23744 net.cpp:481] inception_4e/output <- inception_4e/1x1
I0716 13:53:15.839937 23744 net.cpp:481] inception_4e/output <- inception_4e/3x3
I0716 13:53:15.839941 23744 net.cpp:481] inception_4e/output <- inception_4e/5x5
I0716 13:53:15.839944 23744 net.cpp:481] inception_4e/output <- inception_4e/pool_proj
I0716 13:53:15.839949 23744 net.cpp:455] inception_4e/output -> inception_4e/output
I0716 13:53:15.839972 23744 net.cpp:190] Setting up inception_4e/output
I0716 13:53:15.839978 23744 net.cpp:197] Top shape: 1 832 16 32 (425984)
I0716 13:53:15.839982 23744 net.cpp:205] Memory required for data: 174227460
I0716 13:53:15.839984 23744 layer_factory.hpp:123] Creating layer inception_4e/output_fixed
I0716 13:53:15.839989 23744 net.cpp:140] Creating Layer inception_4e/output_fixed
I0716 13:53:15.839993 23744 net.cpp:481] inception_4e/output_fixed <- inception_4e/output
I0716 13:53:15.839998 23744 net.cpp:442] inception_4e/output_fixed -> inception_4e/output (in-place)
I0716 13:53:15.840029 23744 net.cpp:190] Setting up inception_4e/output_fixed
I0716 13:53:15.840034 23744 net.cpp:197] Top shape: 1 832 16 32 (425984)
I0716 13:53:15.840036 23744 net.cpp:205] Memory required for data: 175931396
I0716 13:53:15.840040 23744 layer_factory.hpp:123] Creating layer inception_4e/output_inception_4e/output_fixed_0_split
I0716 13:53:15.840046 23744 net.cpp:140] Creating Layer inception_4e/output_inception_4e/output_fixed_0_split
I0716 13:53:15.840049 23744 net.cpp:481] inception_4e/output_inception_4e/output_fixed_0_split <- inception_4e/output
I0716 13:53:15.840054 23744 net.cpp:455] inception_4e/output_inception_4e/output_fixed_0_split -> inception_4e/output_inception_4e/output_fixed_0_split_0
I0716 13:53:15.840061 23744 net.cpp:455] inception_4e/output_inception_4e/output_fixed_0_split -> inception_4e/output_inception_4e/output_fixed_0_split_1
I0716 13:53:15.840090 23744 net.cpp:190] Setting up inception_4e/output_inception_4e/output_fixed_0_split
I0716 13:53:15.840096 23744 net.cpp:197] Top shape: 1 832 16 32 (425984)
I0716 13:53:15.840101 23744 net.cpp:197] Top shape: 1 832 16 32 (425984)
I0716 13:53:15.840103 23744 net.cpp:205] Memory required for data: 179339268
I0716 13:53:15.840106 23744 layer_factory.hpp:123] Creating layer pool4/3x3_s2
I0716 13:53:15.840111 23744 net.cpp:140] Creating Layer pool4/3x3_s2
I0716 13:53:15.840114 23744 net.cpp:481] pool4/3x3_s2 <- inception_4e/output_inception_4e/output_fixed_0_split_0
I0716 13:53:15.840121 23744 net.cpp:455] pool4/3x3_s2 -> pool4/3x3_s2
I0716 13:53:15.840148 23744 net.cpp:190] Setting up pool4/3x3_s2
I0716 13:53:15.840154 23744 net.cpp:197] Top shape: 1 832 8 16 (106496)
I0716 13:53:15.840157 23744 net.cpp:205] Memory required for data: 179765252
I0716 13:53:15.840159 23744 layer_factory.hpp:123] Creating layer pool4/3x3_s2_pool4/3x3_s2_0_split
I0716 13:53:15.840164 23744 net.cpp:140] Creating Layer pool4/3x3_s2_pool4/3x3_s2_0_split
I0716 13:53:15.840168 23744 net.cpp:481] pool4/3x3_s2_pool4/3x3_s2_0_split <- pool4/3x3_s2
I0716 13:53:15.840173 23744 net.cpp:455] pool4/3x3_s2_pool4/3x3_s2_0_split -> pool4/3x3_s2_pool4/3x3_s2_0_split_0
I0716 13:53:15.840179 23744 net.cpp:455] pool4/3x3_s2_pool4/3x3_s2_0_split -> pool4/3x3_s2_pool4/3x3_s2_0_split_1
I0716 13:53:15.840185 23744 net.cpp:455] pool4/3x3_s2_pool4/3x3_s2_0_split -> pool4/3x3_s2_pool4/3x3_s2_0_split_2
I0716 13:53:15.840190 23744 net.cpp:455] pool4/3x3_s2_pool4/3x3_s2_0_split -> pool4/3x3_s2_pool4/3x3_s2_0_split_3
I0716 13:53:15.840235 23744 net.cpp:190] Setting up pool4/3x3_s2_pool4/3x3_s2_0_split
I0716 13:53:15.840241 23744 net.cpp:197] Top shape: 1 832 8 16 (106496)
I0716 13:53:15.840245 23744 net.cpp:197] Top shape: 1 832 8 16 (106496)
I0716 13:53:15.840248 23744 net.cpp:197] Top shape: 1 832 8 16 (106496)
I0716 13:53:15.840251 23744 net.cpp:197] Top shape: 1 832 8 16 (106496)
I0716 13:53:15.840255 23744 net.cpp:205] Memory required for data: 181469188
I0716 13:53:15.840257 23744 layer_factory.hpp:123] Creating layer inception_5a/1x1
I0716 13:53:15.840265 23744 net.cpp:140] Creating Layer inception_5a/1x1
I0716 13:53:15.840268 23744 net.cpp:481] inception_5a/1x1 <- pool4/3x3_s2_pool4/3x3_s2_0_split_0
I0716 13:53:15.840274 23744 net.cpp:455] inception_5a/1x1 -> inception_5a/1x1
I0716 13:53:15.842972 23744 layer_factory.hpp:123] Creating layer inception_5a/1x1
I0716 13:53:15.845930 23744 net.cpp:190] Setting up inception_5a/1x1
I0716 13:53:15.845944 23744 net.cpp:197] Top shape: 1 256 8 16 (32768)
I0716 13:53:15.845948 23744 net.cpp:205] Memory required for data: 181600260
I0716 13:53:15.845954 23744 layer_factory.hpp:123] Creating layer inception_5a/relu_1x1
I0716 13:53:15.845960 23744 net.cpp:140] Creating Layer inception_5a/relu_1x1
I0716 13:53:15.845966 23744 net.cpp:481] inception_5a/relu_1x1 <- inception_5a/1x1
I0716 13:53:15.845973 23744 net.cpp:442] inception_5a/relu_1x1 -> inception_5a/1x1 (in-place)
I0716 13:53:15.845979 23744 net.cpp:190] Setting up inception_5a/relu_1x1
I0716 13:53:15.845983 23744 net.cpp:197] Top shape: 1 256 8 16 (32768)
I0716 13:53:15.845986 23744 net.cpp:205] Memory required for data: 181731332
I0716 13:53:15.845989 23744 layer_factory.hpp:123] Creating layer inception_5a/3x3_reduce
I0716 13:53:15.845997 23744 net.cpp:140] Creating Layer inception_5a/3x3_reduce
I0716 13:53:15.846001 23744 net.cpp:481] inception_5a/3x3_reduce <- pool4/3x3_s2_pool4/3x3_s2_0_split_1
I0716 13:53:15.846007 23744 net.cpp:455] inception_5a/3x3_reduce -> inception_5a/3x3_reduce
I0716 13:53:15.848129 23744 layer_factory.hpp:123] Creating layer inception_5a/3x3_reduce
I0716 13:53:15.850275 23744 net.cpp:190] Setting up inception_5a/3x3_reduce
I0716 13:53:15.850287 23744 net.cpp:197] Top shape: 1 160 8 16 (20480)
I0716 13:53:15.850291 23744 net.cpp:205] Memory required for data: 181813252
I0716 13:53:15.850296 23744 layer_factory.hpp:123] Creating layer inception_5a/relu_3x3_reduce
I0716 13:53:15.850302 23744 net.cpp:140] Creating Layer inception_5a/relu_3x3_reduce
I0716 13:53:15.850306 23744 net.cpp:481] inception_5a/relu_3x3_reduce <- inception_5a/3x3_reduce
I0716 13:53:15.850311 23744 net.cpp:442] inception_5a/relu_3x3_reduce -> inception_5a/3x3_reduce (in-place)
I0716 13:53:15.850318 23744 net.cpp:190] Setting up inception_5a/relu_3x3_reduce
I0716 13:53:15.850322 23744 net.cpp:197] Top shape: 1 160 8 16 (20480)
I0716 13:53:15.850325 23744 net.cpp:205] Memory required for data: 181895172
I0716 13:53:15.850328 23744 layer_factory.hpp:123] Creating layer inception_5a/3x3_reduce_fixed
I0716 13:53:15.850334 23744 net.cpp:140] Creating Layer inception_5a/3x3_reduce_fixed
I0716 13:53:15.850337 23744 net.cpp:481] inception_5a/3x3_reduce_fixed <- inception_5a/3x3_reduce
I0716 13:53:15.850342 23744 net.cpp:442] inception_5a/3x3_reduce_fixed -> inception_5a/3x3_reduce (in-place)
I0716 13:53:15.850369 23744 net.cpp:190] Setting up inception_5a/3x3_reduce_fixed
I0716 13:53:15.850376 23744 net.cpp:197] Top shape: 1 160 8 16 (20480)
I0716 13:53:15.850378 23744 net.cpp:205] Memory required for data: 181977092
I0716 13:53:15.850383 23744 layer_factory.hpp:123] Creating layer inception_5a/3x3
I0716 13:53:15.850391 23744 net.cpp:140] Creating Layer inception_5a/3x3
I0716 13:53:15.850396 23744 net.cpp:481] inception_5a/3x3 <- inception_5a/3x3_reduce
I0716 13:53:15.850402 23744 net.cpp:455] inception_5a/3x3 -> inception_5a/3x3
I0716 13:53:15.856218 23744 layer_factory.hpp:123] Creating layer inception_5a/3x3
I0716 13:53:15.861927 23744 net.cpp:190] Setting up inception_5a/3x3
I0716 13:53:15.861941 23744 net.cpp:197] Top shape: 1 320 8 16 (40960)
I0716 13:53:15.861944 23744 net.cpp:205] Memory required for data: 182140932
I0716 13:53:15.861951 23744 layer_factory.hpp:123] Creating layer inception_5a/relu_3x3
I0716 13:53:15.861958 23744 net.cpp:140] Creating Layer inception_5a/relu_3x3
I0716 13:53:15.861963 23744 net.cpp:481] inception_5a/relu_3x3 <- inception_5a/3x3
I0716 13:53:15.861968 23744 net.cpp:442] inception_5a/relu_3x3 -> inception_5a/3x3 (in-place)
I0716 13:53:15.861975 23744 net.cpp:190] Setting up inception_5a/relu_3x3
I0716 13:53:15.861982 23744 net.cpp:197] Top shape: 1 320 8 16 (40960)
I0716 13:53:15.861985 23744 net.cpp:205] Memory required for data: 182304772
I0716 13:53:15.861989 23744 layer_factory.hpp:123] Creating layer inception_5a/5x5_reduce
I0716 13:53:15.861997 23744 net.cpp:140] Creating Layer inception_5a/5x5_reduce
I0716 13:53:15.862000 23744 net.cpp:481] inception_5a/5x5_reduce <- pool4/3x3_s2_pool4/3x3_s2_0_split_2
I0716 13:53:15.862007 23744 net.cpp:455] inception_5a/5x5_reduce -> inception_5a/5x5_reduce
I0716 13:53:15.862426 23744 layer_factory.hpp:123] Creating layer inception_5a/5x5_reduce
I0716 13:53:15.862952 23744 net.cpp:190] Setting up inception_5a/5x5_reduce
I0716 13:53:15.862962 23744 net.cpp:197] Top shape: 1 32 8 16 (4096)
I0716 13:53:15.862964 23744 net.cpp:205] Memory required for data: 182321156
I0716 13:53:15.862969 23744 layer_factory.hpp:123] Creating layer inception_5a/relu_5x5_reduce
I0716 13:53:15.862974 23744 net.cpp:140] Creating Layer inception_5a/relu_5x5_reduce
I0716 13:53:15.862978 23744 net.cpp:481] inception_5a/relu_5x5_reduce <- inception_5a/5x5_reduce
I0716 13:53:15.862983 23744 net.cpp:442] inception_5a/relu_5x5_reduce -> inception_5a/5x5_reduce (in-place)
I0716 13:53:15.862989 23744 net.cpp:190] Setting up inception_5a/relu_5x5_reduce
I0716 13:53:15.862995 23744 net.cpp:197] Top shape: 1 32 8 16 (4096)
I0716 13:53:15.862998 23744 net.cpp:205] Memory required for data: 182337540
I0716 13:53:15.863001 23744 layer_factory.hpp:123] Creating layer inception_5a/5x5_reduce_fixed
I0716 13:53:15.863006 23744 net.cpp:140] Creating Layer inception_5a/5x5_reduce_fixed
I0716 13:53:15.863009 23744 net.cpp:481] inception_5a/5x5_reduce_fixed <- inception_5a/5x5_reduce
I0716 13:53:15.863014 23744 net.cpp:442] inception_5a/5x5_reduce_fixed -> inception_5a/5x5_reduce (in-place)
I0716 13:53:15.863042 23744 net.cpp:190] Setting up inception_5a/5x5_reduce_fixed
I0716 13:53:15.863049 23744 net.cpp:197] Top shape: 1 32 8 16 (4096)
I0716 13:53:15.863050 23744 net.cpp:205] Memory required for data: 182353924
I0716 13:53:15.863054 23744 layer_factory.hpp:123] Creating layer inception_5a/5x5
I0716 13:53:15.863063 23744 net.cpp:140] Creating Layer inception_5a/5x5
I0716 13:53:15.863066 23744 net.cpp:481] inception_5a/5x5 <- inception_5a/5x5_reduce
I0716 13:53:15.863071 23744 net.cpp:455] inception_5a/5x5 -> inception_5a/5x5
I0716 13:53:15.864145 23744 layer_factory.hpp:123] Creating layer inception_5a/5x5
I0716 13:53:15.865329 23744 net.cpp:190] Setting up inception_5a/5x5
I0716 13:53:15.865339 23744 net.cpp:197] Top shape: 1 128 8 16 (16384)
I0716 13:53:15.865341 23744 net.cpp:205] Memory required for data: 182419460
I0716 13:53:15.865346 23744 layer_factory.hpp:123] Creating layer inception_5a/relu_5x5
I0716 13:53:15.865351 23744 net.cpp:140] Creating Layer inception_5a/relu_5x5
I0716 13:53:15.865355 23744 net.cpp:481] inception_5a/relu_5x5 <- inception_5a/5x5
I0716 13:53:15.865360 23744 net.cpp:442] inception_5a/relu_5x5 -> inception_5a/5x5 (in-place)
I0716 13:53:15.865366 23744 net.cpp:190] Setting up inception_5a/relu_5x5
I0716 13:53:15.865370 23744 net.cpp:197] Top shape: 1 128 8 16 (16384)
I0716 13:53:15.865373 23744 net.cpp:205] Memory required for data: 182484996
I0716 13:53:15.865376 23744 layer_factory.hpp:123] Creating layer inception_5a/pool
I0716 13:53:15.865382 23744 net.cpp:140] Creating Layer inception_5a/pool
I0716 13:53:15.865386 23744 net.cpp:481] inception_5a/pool <- pool4/3x3_s2_pool4/3x3_s2_0_split_3
I0716 13:53:15.865391 23744 net.cpp:455] inception_5a/pool -> inception_5a/pool
I0716 13:53:15.865422 23744 net.cpp:190] Setting up inception_5a/pool
I0716 13:53:15.865427 23744 net.cpp:197] Top shape: 1 832 8 16 (106496)
I0716 13:53:15.865430 23744 net.cpp:205] Memory required for data: 182910980
I0716 13:53:15.865433 23744 layer_factory.hpp:123] Creating layer inception_5a/pool_proj
I0716 13:53:15.865440 23744 net.cpp:140] Creating Layer inception_5a/pool_proj
I0716 13:53:15.865443 23744 net.cpp:481] inception_5a/pool_proj <- inception_5a/pool
I0716 13:53:15.865449 23744 net.cpp:455] inception_5a/pool_proj -> inception_5a/pool_proj
I0716 13:53:15.867219 23744 layer_factory.hpp:123] Creating layer inception_5a/pool_proj
I0716 13:53:15.868444 23744 net.cpp:190] Setting up inception_5a/pool_proj
I0716 13:53:15.868454 23744 net.cpp:197] Top shape: 1 128 8 16 (16384)
I0716 13:53:15.868458 23744 net.cpp:205] Memory required for data: 182976516
I0716 13:53:15.868471 23744 layer_factory.hpp:123] Creating layer inception_5a/relu_pool_proj
I0716 13:53:15.868479 23744 net.cpp:140] Creating Layer inception_5a/relu_pool_proj
I0716 13:53:15.868482 23744 net.cpp:481] inception_5a/relu_pool_proj <- inception_5a/pool_proj
I0716 13:53:15.868487 23744 net.cpp:442] inception_5a/relu_pool_proj -> inception_5a/pool_proj (in-place)
I0716 13:53:15.868494 23744 net.cpp:190] Setting up inception_5a/relu_pool_proj
I0716 13:53:15.868497 23744 net.cpp:197] Top shape: 1 128 8 16 (16384)
I0716 13:53:15.868500 23744 net.cpp:205] Memory required for data: 183042052
I0716 13:53:15.868504 23744 layer_factory.hpp:123] Creating layer inception_5a/output
I0716 13:53:15.868510 23744 net.cpp:140] Creating Layer inception_5a/output
I0716 13:53:15.868512 23744 net.cpp:481] inception_5a/output <- inception_5a/1x1
I0716 13:53:15.868516 23744 net.cpp:481] inception_5a/output <- inception_5a/3x3
I0716 13:53:15.868520 23744 net.cpp:481] inception_5a/output <- inception_5a/5x5
I0716 13:53:15.868523 23744 net.cpp:481] inception_5a/output <- inception_5a/pool_proj
I0716 13:53:15.868528 23744 net.cpp:455] inception_5a/output -> inception_5a/output
I0716 13:53:15.868548 23744 net.cpp:190] Setting up inception_5a/output
I0716 13:53:15.868554 23744 net.cpp:197] Top shape: 1 832 8 16 (106496)
I0716 13:53:15.868557 23744 net.cpp:205] Memory required for data: 183468036
I0716 13:53:15.868561 23744 layer_factory.hpp:123] Creating layer inception_5a/output_fixed
I0716 13:53:15.868566 23744 net.cpp:140] Creating Layer inception_5a/output_fixed
I0716 13:53:15.868568 23744 net.cpp:481] inception_5a/output_fixed <- inception_5a/output
I0716 13:53:15.868573 23744 net.cpp:442] inception_5a/output_fixed -> inception_5a/output (in-place)
I0716 13:53:15.868604 23744 net.cpp:190] Setting up inception_5a/output_fixed
I0716 13:53:15.868610 23744 net.cpp:197] Top shape: 1 832 8 16 (106496)
I0716 13:53:15.868613 23744 net.cpp:205] Memory required for data: 183894020
I0716 13:53:15.868618 23744 layer_factory.hpp:123] Creating layer inception_5a/output_inception_5a/output_fixed_0_split
I0716 13:53:15.868623 23744 net.cpp:140] Creating Layer inception_5a/output_inception_5a/output_fixed_0_split
I0716 13:53:15.868628 23744 net.cpp:481] inception_5a/output_inception_5a/output_fixed_0_split <- inception_5a/output
I0716 13:53:15.868633 23744 net.cpp:455] inception_5a/output_inception_5a/output_fixed_0_split -> inception_5a/output_inception_5a/output_fixed_0_split_0
I0716 13:53:15.868638 23744 net.cpp:455] inception_5a/output_inception_5a/output_fixed_0_split -> inception_5a/output_inception_5a/output_fixed_0_split_1
I0716 13:53:15.868645 23744 net.cpp:455] inception_5a/output_inception_5a/output_fixed_0_split -> inception_5a/output_inception_5a/output_fixed_0_split_2
I0716 13:53:15.868650 23744 net.cpp:455] inception_5a/output_inception_5a/output_fixed_0_split -> inception_5a/output_inception_5a/output_fixed_0_split_3
I0716 13:53:15.868701 23744 net.cpp:190] Setting up inception_5a/output_inception_5a/output_fixed_0_split
I0716 13:53:15.868706 23744 net.cpp:197] Top shape: 1 832 8 16 (106496)
I0716 13:53:15.868710 23744 net.cpp:197] Top shape: 1 832 8 16 (106496)
I0716 13:53:15.868713 23744 net.cpp:197] Top shape: 1 832 8 16 (106496)
I0716 13:53:15.868717 23744 net.cpp:197] Top shape: 1 832 8 16 (106496)
I0716 13:53:15.868721 23744 net.cpp:205] Memory required for data: 185597956
I0716 13:53:15.868722 23744 layer_factory.hpp:123] Creating layer inception_5b/1x1
I0716 13:53:15.868731 23744 net.cpp:140] Creating Layer inception_5b/1x1
I0716 13:53:15.868736 23744 net.cpp:481] inception_5b/1x1 <- inception_5a/output_inception_5a/output_fixed_0_split_0
I0716 13:53:15.868741 23744 net.cpp:455] inception_5b/1x1 -> inception_5b/1x1
I0716 13:53:15.873033 23744 layer_factory.hpp:123] Creating layer inception_5b/1x1
I0716 13:53:15.877463 23744 net.cpp:190] Setting up inception_5b/1x1
I0716 13:53:15.877476 23744 net.cpp:197] Top shape: 1 384 8 16 (49152)
I0716 13:53:15.877480 23744 net.cpp:205] Memory required for data: 185794564
I0716 13:53:15.877486 23744 layer_factory.hpp:123] Creating layer inception_5b/relu_1x1
I0716 13:53:15.877492 23744 net.cpp:140] Creating Layer inception_5b/relu_1x1
I0716 13:53:15.877496 23744 net.cpp:481] inception_5b/relu_1x1 <- inception_5b/1x1
I0716 13:53:15.877502 23744 net.cpp:442] inception_5b/relu_1x1 -> inception_5b/1x1 (in-place)
I0716 13:53:15.877508 23744 net.cpp:190] Setting up inception_5b/relu_1x1
I0716 13:53:15.877512 23744 net.cpp:197] Top shape: 1 384 8 16 (49152)
I0716 13:53:15.877516 23744 net.cpp:205] Memory required for data: 185991172
I0716 13:53:15.877519 23744 layer_factory.hpp:123] Creating layer inception_5b/3x3_reduce
I0716 13:53:15.877527 23744 net.cpp:140] Creating Layer inception_5b/3x3_reduce
I0716 13:53:15.877533 23744 net.cpp:481] inception_5b/3x3_reduce <- inception_5a/output_inception_5a/output_fixed_0_split_1
I0716 13:53:15.877540 23744 net.cpp:455] inception_5b/3x3_reduce -> inception_5b/3x3_reduce
I0716 13:53:15.879101 23744 layer_factory.hpp:123] Creating layer inception_5b/3x3_reduce
I0716 13:53:15.880946 23744 net.cpp:190] Setting up inception_5b/3x3_reduce
I0716 13:53:15.880959 23744 net.cpp:197] Top shape: 1 192 8 16 (24576)
I0716 13:53:15.880962 23744 net.cpp:205] Memory required for data: 186089476
I0716 13:53:15.880969 23744 layer_factory.hpp:123] Creating layer inception_5b/relu_3x3_reduce
I0716 13:53:15.880975 23744 net.cpp:140] Creating Layer inception_5b/relu_3x3_reduce
I0716 13:53:15.880978 23744 net.cpp:481] inception_5b/relu_3x3_reduce <- inception_5b/3x3_reduce
I0716 13:53:15.880985 23744 net.cpp:442] inception_5b/relu_3x3_reduce -> inception_5b/3x3_reduce (in-place)
I0716 13:53:15.880992 23744 net.cpp:190] Setting up inception_5b/relu_3x3_reduce
I0716 13:53:15.880996 23744 net.cpp:197] Top shape: 1 192 8 16 (24576)
I0716 13:53:15.880998 23744 net.cpp:205] Memory required for data: 186187780
I0716 13:53:15.881002 23744 layer_factory.hpp:123] Creating layer inception_5b/3x3_reduce_fixed
I0716 13:53:15.881007 23744 net.cpp:140] Creating Layer inception_5b/3x3_reduce_fixed
I0716 13:53:15.881011 23744 net.cpp:481] inception_5b/3x3_reduce_fixed <- inception_5b/3x3_reduce
I0716 13:53:15.881014 23744 net.cpp:442] inception_5b/3x3_reduce_fixed -> inception_5b/3x3_reduce (in-place)
I0716 13:53:15.881044 23744 net.cpp:190] Setting up inception_5b/3x3_reduce_fixed
I0716 13:53:15.881050 23744 net.cpp:197] Top shape: 1 192 8 16 (24576)
I0716 13:53:15.881053 23744 net.cpp:205] Memory required for data: 186286084
I0716 13:53:15.881057 23744 layer_factory.hpp:123] Creating layer inception_5b/3x3
I0716 13:53:15.881067 23744 net.cpp:140] Creating Layer inception_5b/3x3
I0716 13:53:15.881069 23744 net.cpp:481] inception_5b/3x3 <- inception_5b/3x3_reduce
I0716 13:53:15.881074 23744 net.cpp:455] inception_5b/3x3 -> inception_5b/3x3
I0716 13:53:15.901839 23744 layer_factory.hpp:123] Creating layer inception_5b/3x3
I0716 13:53:15.912140 23744 net.cpp:190] Setting up inception_5b/3x3
I0716 13:53:15.912164 23744 net.cpp:197] Top shape: 1 384 8 16 (49152)
I0716 13:53:15.912168 23744 net.cpp:205] Memory required for data: 186482692
I0716 13:53:15.912175 23744 layer_factory.hpp:123] Creating layer inception_5b/relu_3x3
I0716 13:53:15.912185 23744 net.cpp:140] Creating Layer inception_5b/relu_3x3
I0716 13:53:15.912191 23744 net.cpp:481] inception_5b/relu_3x3 <- inception_5b/3x3
I0716 13:53:15.912199 23744 net.cpp:442] inception_5b/relu_3x3 -> inception_5b/3x3 (in-place)
I0716 13:53:15.912209 23744 net.cpp:190] Setting up inception_5b/relu_3x3
I0716 13:53:15.912217 23744 net.cpp:197] Top shape: 1 384 8 16 (49152)
I0716 13:53:15.912221 23744 net.cpp:205] Memory required for data: 186679300
I0716 13:53:15.912225 23744 layer_factory.hpp:123] Creating layer inception_5b/5x5_reduce
I0716 13:53:15.912242 23744 net.cpp:140] Creating Layer inception_5b/5x5_reduce
I0716 13:53:15.912250 23744 net.cpp:481] inception_5b/5x5_reduce <- inception_5a/output_inception_5a/output_fixed_0_split_2
I0716 13:53:15.912259 23744 net.cpp:455] inception_5b/5x5_reduce -> inception_5b/5x5_reduce
I0716 13:53:15.914202 23744 layer_factory.hpp:123] Creating layer inception_5b/5x5_reduce
I0716 13:53:15.914868 23744 net.cpp:190] Setting up inception_5b/5x5_reduce
I0716 13:53:15.914880 23744 net.cpp:197] Top shape: 1 48 8 16 (6144)
I0716 13:53:15.914882 23744 net.cpp:205] Memory required for data: 186703876
I0716 13:53:15.914888 23744 layer_factory.hpp:123] Creating layer inception_5b/relu_5x5_reduce
I0716 13:53:15.914894 23744 net.cpp:140] Creating Layer inception_5b/relu_5x5_reduce
I0716 13:53:15.914899 23744 net.cpp:481] inception_5b/relu_5x5_reduce <- inception_5b/5x5_reduce
I0716 13:53:15.914904 23744 net.cpp:442] inception_5b/relu_5x5_reduce -> inception_5b/5x5_reduce (in-place)
I0716 13:53:15.914911 23744 net.cpp:190] Setting up inception_5b/relu_5x5_reduce
I0716 13:53:15.914916 23744 net.cpp:197] Top shape: 1 48 8 16 (6144)
I0716 13:53:15.914918 23744 net.cpp:205] Memory required for data: 186728452
I0716 13:53:15.914921 23744 layer_factory.hpp:123] Creating layer inception_5b/5x5_reduce_fixed
I0716 13:53:15.914927 23744 net.cpp:140] Creating Layer inception_5b/5x5_reduce_fixed
I0716 13:53:15.914929 23744 net.cpp:481] inception_5b/5x5_reduce_fixed <- inception_5b/5x5_reduce
I0716 13:53:15.914935 23744 net.cpp:442] inception_5b/5x5_reduce_fixed -> inception_5b/5x5_reduce (in-place)
I0716 13:53:15.914964 23744 net.cpp:190] Setting up inception_5b/5x5_reduce_fixed
I0716 13:53:15.914970 23744 net.cpp:197] Top shape: 1 48 8 16 (6144)
I0716 13:53:15.914973 23744 net.cpp:205] Memory required for data: 186753028
I0716 13:53:15.914978 23744 layer_factory.hpp:123] Creating layer inception_5b/5x5
I0716 13:53:15.914986 23744 net.cpp:140] Creating Layer inception_5b/5x5
I0716 13:53:15.914989 23744 net.cpp:481] inception_5b/5x5 <- inception_5b/5x5_reduce
I0716 13:53:15.914995 23744 net.cpp:455] inception_5b/5x5 -> inception_5b/5x5
I0716 13:53:15.917237 23744 layer_factory.hpp:123] Creating layer inception_5b/5x5
I0716 13:53:15.921350 23744 net.cpp:190] Setting up inception_5b/5x5
I0716 13:53:15.921365 23744 net.cpp:197] Top shape: 1 128 8 16 (16384)
I0716 13:53:15.921368 23744 net.cpp:205] Memory required for data: 186818564
I0716 13:53:15.921375 23744 layer_factory.hpp:123] Creating layer inception_5b/relu_5x5
I0716 13:53:15.921386 23744 net.cpp:140] Creating Layer inception_5b/relu_5x5
I0716 13:53:15.921391 23744 net.cpp:481] inception_5b/relu_5x5 <- inception_5b/5x5
I0716 13:53:15.921397 23744 net.cpp:442] inception_5b/relu_5x5 -> inception_5b/5x5 (in-place)
I0716 13:53:15.921404 23744 net.cpp:190] Setting up inception_5b/relu_5x5
I0716 13:53:15.921408 23744 net.cpp:197] Top shape: 1 128 8 16 (16384)
I0716 13:53:15.921411 23744 net.cpp:205] Memory required for data: 186884100
I0716 13:53:15.921414 23744 layer_factory.hpp:123] Creating layer inception_5b/pool
I0716 13:53:15.921422 23744 net.cpp:140] Creating Layer inception_5b/pool
I0716 13:53:15.921425 23744 net.cpp:481] inception_5b/pool <- inception_5a/output_inception_5a/output_fixed_0_split_3
I0716 13:53:15.921430 23744 net.cpp:455] inception_5b/pool -> inception_5b/pool
I0716 13:53:15.921465 23744 net.cpp:190] Setting up inception_5b/pool
I0716 13:53:15.921471 23744 net.cpp:197] Top shape: 1 832 8 16 (106496)
I0716 13:53:15.921474 23744 net.cpp:205] Memory required for data: 187310084
I0716 13:53:15.921478 23744 layer_factory.hpp:123] Creating layer inception_5b/pool_proj
I0716 13:53:15.921486 23744 net.cpp:140] Creating Layer inception_5b/pool_proj
I0716 13:53:15.921490 23744 net.cpp:481] inception_5b/pool_proj <- inception_5b/pool
I0716 13:53:15.921496 23744 net.cpp:455] inception_5b/pool_proj -> inception_5b/pool_proj
I0716 13:53:15.922588 23744 layer_factory.hpp:123] Creating layer inception_5b/pool_proj
I0716 13:53:15.928516 23744 net.cpp:190] Setting up inception_5b/pool_proj
I0716 13:53:15.928529 23744 net.cpp:197] Top shape: 1 128 8 16 (16384)
I0716 13:53:15.928532 23744 net.cpp:205] Memory required for data: 187375620
I0716 13:53:15.928539 23744 layer_factory.hpp:123] Creating layer inception_5b/relu_pool_proj
I0716 13:53:15.928544 23744 net.cpp:140] Creating Layer inception_5b/relu_pool_proj
I0716 13:53:15.928552 23744 net.cpp:481] inception_5b/relu_pool_proj <- inception_5b/pool_proj
I0716 13:53:15.928557 23744 net.cpp:442] inception_5b/relu_pool_proj -> inception_5b/pool_proj (in-place)
I0716 13:53:15.928565 23744 net.cpp:190] Setting up inception_5b/relu_pool_proj
I0716 13:53:15.928570 23744 net.cpp:197] Top shape: 1 128 8 16 (16384)
I0716 13:53:15.928573 23744 net.cpp:205] Memory required for data: 187441156
I0716 13:53:15.928575 23744 layer_factory.hpp:123] Creating layer inception_5b/output
I0716 13:53:15.928581 23744 net.cpp:140] Creating Layer inception_5b/output
I0716 13:53:15.928584 23744 net.cpp:481] inception_5b/output <- inception_5b/1x1
I0716 13:53:15.928589 23744 net.cpp:481] inception_5b/output <- inception_5b/3x3
I0716 13:53:15.928593 23744 net.cpp:481] inception_5b/output <- inception_5b/5x5
I0716 13:53:15.928597 23744 net.cpp:481] inception_5b/output <- inception_5b/pool_proj
I0716 13:53:15.928601 23744 net.cpp:455] inception_5b/output -> inception_5b/output
I0716 13:53:15.928623 23744 net.cpp:190] Setting up inception_5b/output
I0716 13:53:15.928629 23744 net.cpp:197] Top shape: 1 1024 8 16 (131072)
I0716 13:53:15.928632 23744 net.cpp:205] Memory required for data: 187965444
I0716 13:53:15.928634 23744 layer_factory.hpp:123] Creating layer inception_5b/output_fixed
I0716 13:53:15.928640 23744 net.cpp:140] Creating Layer inception_5b/output_fixed
I0716 13:53:15.928643 23744 net.cpp:481] inception_5b/output_fixed <- inception_5b/output
I0716 13:53:15.928648 23744 net.cpp:442] inception_5b/output_fixed -> inception_5b/output (in-place)
I0716 13:53:15.928681 23744 net.cpp:190] Setting up inception_5b/output_fixed
I0716 13:53:15.928689 23744 net.cpp:197] Top shape: 1 1024 8 16 (131072)
I0716 13:53:15.928690 23744 net.cpp:205] Memory required for data: 188489732
I0716 13:53:15.928694 23744 layer_factory.hpp:123] Creating layer p5
I0716 13:53:15.928704 23744 net.cpp:140] Creating Layer p5
I0716 13:53:15.928707 23744 net.cpp:481] p5 <- inception_5b/output
I0716 13:53:15.928712 23744 net.cpp:455] p5 -> p5
I0716 13:53:15.929188 23744 layer_factory.hpp:123] Creating layer p5
I0716 13:53:15.929787 23744 net.cpp:190] Setting up p5
I0716 13:53:15.929796 23744 net.cpp:197] Top shape: 1 32 8 16 (4096)
I0716 13:53:15.929800 23744 net.cpp:205] Memory required for data: 188506116
I0716 13:53:15.929805 23744 layer_factory.hpp:123] Creating layer p5_fixed
I0716 13:53:15.929811 23744 net.cpp:140] Creating Layer p5_fixed
I0716 13:53:15.929813 23744 net.cpp:481] p5_fixed <- p5
I0716 13:53:15.929818 23744 net.cpp:442] p5_fixed -> p5 (in-place)
I0716 13:53:15.929847 23744 net.cpp:190] Setting up p5_fixed
I0716 13:53:15.929853 23744 net.cpp:197] Top shape: 1 32 8 16 (4096)
I0716 13:53:15.929857 23744 net.cpp:205] Memory required for data: 188522500
I0716 13:53:15.929860 23744 layer_factory.hpp:123] Creating layer latlayer_4f
I0716 13:53:15.929868 23744 net.cpp:140] Creating Layer latlayer_4f
I0716 13:53:15.929872 23744 net.cpp:481] latlayer_4f <- inception_4e/output_inception_4e/output_fixed_0_split_1
I0716 13:53:15.929877 23744 net.cpp:455] latlayer_4f -> latlayer_4f
I0716 13:53:15.930282 23744 layer_factory.hpp:123] Creating layer latlayer_4f
I0716 13:53:15.930830 23744 net.cpp:190] Setting up latlayer_4f
I0716 13:53:15.930838 23744 net.cpp:197] Top shape: 1 32 16 32 (16384)
I0716 13:53:15.930841 23744 net.cpp:205] Memory required for data: 188588036
I0716 13:53:15.930846 23744 layer_factory.hpp:123] Creating layer latlayer_4f_fixed
I0716 13:53:15.930852 23744 net.cpp:140] Creating Layer latlayer_4f_fixed
I0716 13:53:15.930858 23744 net.cpp:481] latlayer_4f_fixed <- latlayer_4f
I0716 13:53:15.930863 23744 net.cpp:442] latlayer_4f_fixed -> latlayer_4f (in-place)
I0716 13:53:15.930896 23744 net.cpp:190] Setting up latlayer_4f_fixed
I0716 13:53:15.930902 23744 net.cpp:197] Top shape: 1 32 16 32 (16384)
I0716 13:53:15.930905 23744 net.cpp:205] Memory required for data: 188653572
I0716 13:53:15.930909 23744 layer_factory.hpp:123] Creating layer upsample_p5
I0716 13:53:15.930917 23744 net.cpp:140] Creating Layer upsample_p5
I0716 13:53:15.930919 23744 net.cpp:481] upsample_p5 <- p5
I0716 13:53:15.930924 23744 net.cpp:455] upsample_p5 -> upsample_p5
I0716 13:53:15.931207 23744 layer_factory.hpp:123] Creating layer upsample_p5
I0716 13:53:15.931574 23744 net.cpp:190] Setting up upsample_p5
I0716 13:53:15.931582 23744 net.cpp:197] Top shape: 1 32 16 32 (16384)
I0716 13:53:15.931586 23744 net.cpp:205] Memory required for data: 188719108
I0716 13:53:15.931589 23744 layer_factory.hpp:123] Creating layer upsample_p5_fixed
I0716 13:53:15.931594 23744 net.cpp:140] Creating Layer upsample_p5_fixed
I0716 13:53:15.931598 23744 net.cpp:481] upsample_p5_fixed <- upsample_p5
I0716 13:53:15.931603 23744 net.cpp:442] upsample_p5_fixed -> upsample_p5 (in-place)
I0716 13:53:15.931634 23744 net.cpp:190] Setting up upsample_p5_fixed
I0716 13:53:15.931640 23744 net.cpp:197] Top shape: 1 32 16 32 (16384)
I0716 13:53:15.931643 23744 net.cpp:205] Memory required for data: 188784644
I0716 13:53:15.931648 23744 layer_factory.hpp:123] Creating layer add_p4
I0716 13:53:15.931653 23744 net.cpp:140] Creating Layer add_p4
I0716 13:53:15.931656 23744 net.cpp:481] add_p4 <- upsample_p5
I0716 13:53:15.931659 23744 net.cpp:481] add_p4 <- latlayer_4f
I0716 13:53:15.931665 23744 net.cpp:455] add_p4 -> add_p4
I0716 13:53:15.931685 23744 net.cpp:190] Setting up add_p4
I0716 13:53:15.931691 23744 net.cpp:197] Top shape: 1 32 16 32 (16384)
I0716 13:53:15.931694 23744 net.cpp:205] Memory required for data: 188850180
I0716 13:53:15.931697 23744 layer_factory.hpp:123] Creating layer add_p4_fixed
I0716 13:53:15.931702 23744 net.cpp:140] Creating Layer add_p4_fixed
I0716 13:53:15.931705 23744 net.cpp:481] add_p4_fixed <- add_p4
I0716 13:53:15.931710 23744 net.cpp:442] add_p4_fixed -> add_p4 (in-place)
I0716 13:53:15.931740 23744 net.cpp:190] Setting up add_p4_fixed
I0716 13:53:15.931746 23744 net.cpp:197] Top shape: 1 32 16 32 (16384)
I0716 13:53:15.931748 23744 net.cpp:205] Memory required for data: 188915716
I0716 13:53:15.931752 23744 layer_factory.hpp:123] Creating layer toplayer_p4
I0716 13:53:15.931766 23744 net.cpp:140] Creating Layer toplayer_p4
I0716 13:53:15.931769 23744 net.cpp:481] toplayer_p4 <- add_p4
I0716 13:53:15.931774 23744 net.cpp:455] toplayer_p4 -> p4
I0716 13:53:15.932031 23744 layer_factory.hpp:123] Creating layer toplayer_p4
I0716 13:53:15.933125 23744 net.cpp:190] Setting up toplayer_p4
I0716 13:53:15.933138 23744 net.cpp:197] Top shape: 1 32 16 32 (16384)
I0716 13:53:15.933140 23744 net.cpp:205] Memory required for data: 188981252
I0716 13:53:15.933146 23744 layer_factory.hpp:123] Creating layer p4_fixed
I0716 13:53:15.933153 23744 net.cpp:140] Creating Layer p4_fixed
I0716 13:53:15.933157 23744 net.cpp:481] p4_fixed <- p4
I0716 13:53:15.933162 23744 net.cpp:442] p4_fixed -> p4 (in-place)
I0716 13:53:15.933197 23744 net.cpp:190] Setting up p4_fixed
I0716 13:53:15.933202 23744 net.cpp:197] Top shape: 1 32 16 32 (16384)
I0716 13:53:15.933207 23744 net.cpp:205] Memory required for data: 189046788
I0716 13:53:15.933210 23744 layer_factory.hpp:123] Creating layer latlayer_3d
I0716 13:53:15.933218 23744 net.cpp:140] Creating Layer latlayer_3d
I0716 13:53:15.933223 23744 net.cpp:481] latlayer_3d <- inception_3b/output_inception_3b/output_fixed_0_split_1
I0716 13:53:15.933228 23744 net.cpp:455] latlayer_3d -> latlayer_3d
I0716 13:53:15.933535 23744 layer_factory.hpp:123] Creating layer latlayer_3d
I0716 13:53:15.933982 23744 net.cpp:190] Setting up latlayer_3d
I0716 13:53:15.933991 23744 net.cpp:197] Top shape: 1 32 32 64 (65536)
I0716 13:53:15.933995 23744 net.cpp:205] Memory required for data: 189308932
I0716 13:53:15.934000 23744 layer_factory.hpp:123] Creating layer latlayer_3d_fixed
I0716 13:53:15.934006 23744 net.cpp:140] Creating Layer latlayer_3d_fixed
I0716 13:53:15.934010 23744 net.cpp:481] latlayer_3d_fixed <- latlayer_3d
I0716 13:53:15.934015 23744 net.cpp:442] latlayer_3d_fixed -> latlayer_3d (in-place)
I0716 13:53:15.934048 23744 net.cpp:190] Setting up latlayer_3d_fixed
I0716 13:53:15.934054 23744 net.cpp:197] Top shape: 1 32 32 64 (65536)
I0716 13:53:15.934057 23744 net.cpp:205] Memory required for data: 189571076
I0716 13:53:15.934062 23744 layer_factory.hpp:123] Creating layer upsample_p4
I0716 13:53:15.934068 23744 net.cpp:140] Creating Layer upsample_p4
I0716 13:53:15.934072 23744 net.cpp:481] upsample_p4 <- p4
I0716 13:53:15.934077 23744 net.cpp:455] upsample_p4 -> upsample_p4
I0716 13:53:15.934345 23744 layer_factory.hpp:123] Creating layer upsample_p4
I0716 13:53:15.934706 23744 net.cpp:190] Setting up upsample_p4
I0716 13:53:15.934715 23744 net.cpp:197] Top shape: 1 32 32 64 (65536)
I0716 13:53:15.934717 23744 net.cpp:205] Memory required for data: 189833220
I0716 13:53:15.934721 23744 layer_factory.hpp:123] Creating layer upsample_p4_fixed
I0716 13:53:15.934726 23744 net.cpp:140] Creating Layer upsample_p4_fixed
I0716 13:53:15.934731 23744 net.cpp:481] upsample_p4_fixed <- upsample_p4
I0716 13:53:15.934734 23744 net.cpp:442] upsample_p4_fixed -> upsample_p4 (in-place)
I0716 13:53:15.934767 23744 net.cpp:190] Setting up upsample_p4_fixed
I0716 13:53:15.934773 23744 net.cpp:197] Top shape: 1 32 32 64 (65536)
I0716 13:53:15.934775 23744 net.cpp:205] Memory required for data: 190095364
I0716 13:53:15.934779 23744 layer_factory.hpp:123] Creating layer add_p3
I0716 13:53:15.934785 23744 net.cpp:140] Creating Layer add_p3
I0716 13:53:15.934788 23744 net.cpp:481] add_p3 <- upsample_p4
I0716 13:53:15.934792 23744 net.cpp:481] add_p3 <- latlayer_3d
I0716 13:53:15.934796 23744 net.cpp:455] add_p3 -> add_p3
I0716 13:53:15.934816 23744 net.cpp:190] Setting up add_p3
I0716 13:53:15.934823 23744 net.cpp:197] Top shape: 1 32 32 64 (65536)
I0716 13:53:15.934824 23744 net.cpp:205] Memory required for data: 190357508
I0716 13:53:15.934828 23744 layer_factory.hpp:123] Creating layer add_p3_fixed
I0716 13:53:15.934832 23744 net.cpp:140] Creating Layer add_p3_fixed
I0716 13:53:15.934835 23744 net.cpp:481] add_p3_fixed <- add_p3
I0716 13:53:15.934839 23744 net.cpp:442] add_p3_fixed -> add_p3 (in-place)
I0716 13:53:15.934870 23744 net.cpp:190] Setting up add_p3_fixed
I0716 13:53:15.934876 23744 net.cpp:197] Top shape: 1 32 32 64 (65536)
I0716 13:53:15.934880 23744 net.cpp:205] Memory required for data: 190619652
I0716 13:53:15.934883 23744 layer_factory.hpp:123] Creating layer toplayer_p3
I0716 13:53:15.934890 23744 net.cpp:140] Creating Layer toplayer_p3
I0716 13:53:15.934893 23744 net.cpp:481] toplayer_p3 <- add_p3
I0716 13:53:15.934898 23744 net.cpp:455] toplayer_p3 -> p3
I0716 13:53:15.935148 23744 layer_factory.hpp:123] Creating layer toplayer_p3
I0716 13:53:15.935533 23744 net.cpp:190] Setting up toplayer_p3
I0716 13:53:15.935540 23744 net.cpp:197] Top shape: 1 32 32 64 (65536)
I0716 13:53:15.935544 23744 net.cpp:205] Memory required for data: 190881796
I0716 13:53:15.935549 23744 layer_factory.hpp:123] Creating layer p3_fixed
I0716 13:53:15.935554 23744 net.cpp:140] Creating Layer p3_fixed
I0716 13:53:15.935557 23744 net.cpp:481] p3_fixed <- p3
I0716 13:53:15.935561 23744 net.cpp:442] p3_fixed -> p3 (in-place)
I0716 13:53:15.935595 23744 net.cpp:190] Setting up p3_fixed
I0716 13:53:15.935600 23744 net.cpp:197] Top shape: 1 32 32 64 (65536)
I0716 13:53:15.935604 23744 net.cpp:205] Memory required for data: 191143940
I0716 13:53:15.935607 23744 layer_factory.hpp:123] Creating layer latlayer_2c
I0716 13:53:15.935616 23744 net.cpp:140] Creating Layer latlayer_2c
I0716 13:53:15.935619 23744 net.cpp:481] latlayer_2c <- conv2/3x3_conv2/3x3_fixed_0_split_1
I0716 13:53:15.935626 23744 net.cpp:455] latlayer_2c -> latlayer_2c
I0716 13:53:15.935855 23744 layer_factory.hpp:123] Creating layer latlayer_2c
I0716 13:53:15.936205 23744 net.cpp:190] Setting up latlayer_2c
I0716 13:53:15.936214 23744 net.cpp:197] Top shape: 1 32 64 128 (262144)
I0716 13:53:15.936218 23744 net.cpp:205] Memory required for data: 192192516
I0716 13:53:15.936223 23744 layer_factory.hpp:123] Creating layer latlayer_2c_fixed
I0716 13:53:15.936228 23744 net.cpp:140] Creating Layer latlayer_2c_fixed
I0716 13:53:15.936231 23744 net.cpp:481] latlayer_2c_fixed <- latlayer_2c
I0716 13:53:15.936236 23744 net.cpp:442] latlayer_2c_fixed -> latlayer_2c (in-place)
I0716 13:53:15.936269 23744 net.cpp:190] Setting up latlayer_2c_fixed
I0716 13:53:15.936275 23744 net.cpp:197] Top shape: 1 32 64 128 (262144)
I0716 13:53:15.936278 23744 net.cpp:205] Memory required for data: 193241092
I0716 13:53:15.936282 23744 layer_factory.hpp:123] Creating layer upsample_p3
I0716 13:53:15.936288 23744 net.cpp:140] Creating Layer upsample_p3
I0716 13:53:15.936291 23744 net.cpp:481] upsample_p3 <- p3
I0716 13:53:15.936296 23744 net.cpp:455] upsample_p3 -> upsample_p3
I0716 13:53:15.936561 23744 layer_factory.hpp:123] Creating layer upsample_p3
I0716 13:53:15.936923 23744 net.cpp:190] Setting up upsample_p3
I0716 13:53:15.936931 23744 net.cpp:197] Top shape: 1 32 64 128 (262144)
I0716 13:53:15.936934 23744 net.cpp:205] Memory required for data: 194289668
I0716 13:53:15.936939 23744 layer_factory.hpp:123] Creating layer upsample_p3_fixed
I0716 13:53:15.936944 23744 net.cpp:140] Creating Layer upsample_p3_fixed
I0716 13:53:15.936947 23744 net.cpp:481] upsample_p3_fixed <- upsample_p3
I0716 13:53:15.936951 23744 net.cpp:442] upsample_p3_fixed -> upsample_p3 (in-place)
I0716 13:53:15.936983 23744 net.cpp:190] Setting up upsample_p3_fixed
I0716 13:53:15.936990 23744 net.cpp:197] Top shape: 1 32 64 128 (262144)
I0716 13:53:15.936992 23744 net.cpp:205] Memory required for data: 195338244
I0716 13:53:15.936996 23744 layer_factory.hpp:123] Creating layer add_p2
I0716 13:53:15.937001 23744 net.cpp:140] Creating Layer add_p2
I0716 13:53:15.937005 23744 net.cpp:481] add_p2 <- upsample_p3
I0716 13:53:15.937008 23744 net.cpp:481] add_p2 <- latlayer_2c
I0716 13:53:15.937012 23744 net.cpp:455] add_p2 -> add_p2
I0716 13:53:15.937032 23744 net.cpp:190] Setting up add_p2
I0716 13:53:15.937038 23744 net.cpp:197] Top shape: 1 32 64 128 (262144)
I0716 13:53:15.937041 23744 net.cpp:205] Memory required for data: 196386820
I0716 13:53:15.937043 23744 layer_factory.hpp:123] Creating layer add_p2_fixed
I0716 13:53:15.937048 23744 net.cpp:140] Creating Layer add_p2_fixed
I0716 13:53:15.937052 23744 net.cpp:481] add_p2_fixed <- add_p2
I0716 13:53:15.937055 23744 net.cpp:442] add_p2_fixed -> add_p2 (in-place)
I0716 13:53:15.937085 23744 net.cpp:190] Setting up add_p2_fixed
I0716 13:53:15.937091 23744 net.cpp:197] Top shape: 1 32 64 128 (262144)
I0716 13:53:15.937094 23744 net.cpp:205] Memory required for data: 197435396
I0716 13:53:15.937098 23744 layer_factory.hpp:123] Creating layer toplayer_p2
I0716 13:53:15.937109 23744 net.cpp:140] Creating Layer toplayer_p2
I0716 13:53:15.937114 23744 net.cpp:481] toplayer_p2 <- add_p2
I0716 13:53:15.937119 23744 net.cpp:455] toplayer_p2 -> pred
I0716 13:53:15.937376 23744 layer_factory.hpp:123] Creating layer toplayer_p2
I0716 13:53:15.937948 23744 net.cpp:190] Setting up toplayer_p2
I0716 13:53:15.937958 23744 net.cpp:197] Top shape: 1 19 256 512 (2490368)
I0716 13:53:15.937960 23744 net.cpp:205] Memory required for data: 207396868
I0716 13:53:15.937965 23744 layer_factory.hpp:123] Creating layer pred_fixed
I0716 13:53:15.937970 23744 net.cpp:140] Creating Layer pred_fixed
I0716 13:53:15.937974 23744 net.cpp:481] pred_fixed <- pred
I0716 13:53:15.937978 23744 net.cpp:442] pred_fixed -> pred (in-place)
I0716 13:53:15.938014 23744 net.cpp:190] Setting up pred_fixed
I0716 13:53:15.938020 23744 net.cpp:197] Top shape: 1 19 256 512 (2490368)
I0716 13:53:15.938024 23744 net.cpp:205] Memory required for data: 217358340
I0716 13:53:15.938027 23744 layer_factory.hpp:123] Creating layer score
I0716 13:53:15.938033 23744 net.cpp:140] Creating Layer score
I0716 13:53:15.938036 23744 net.cpp:481] score <- pred
I0716 13:53:15.938041 23744 net.cpp:455] score -> score
I0716 13:53:15.938099 23744 net.cpp:190] Setting up score
I0716 13:53:15.938105 23744 net.cpp:197] Top shape: 1 19 256 512 (2490368)
I0716 13:53:15.938108 23744 net.cpp:205] Memory required for data: 227319812
I0716 13:53:15.938112 23744 net.cpp:268] score does not need backward computation.
I0716 13:53:15.938115 23744 net.cpp:268] pred_fixed does not need backward computation.
I0716 13:53:15.938117 23744 net.cpp:268] toplayer_p2 does not need backward computation.
I0716 13:53:15.938120 23744 net.cpp:268] add_p2_fixed does not need backward computation.
…
