…
I0123 08:09:15.228924 81047 net.cpp:369] The NetState phase (0) differed from the phase (1) specified by a rule in layer accuracy-top5
I0123 08:09:15.229418 81047 net.cpp:98] Initializing net from parameters: 
state {
  phase: TRAIN
}
layer {
  name: "data"
  type: "ImageData"
  top: "data"
  top: "label"
  include {
    phase: TRAIN
  }
  transform_param {
    crop_size: 32
    mean_value: 125
    mean_value: 123
    mean_value: 114
  }
  image_data_param {
    source: "cifar10/deephi/miniGoogleNet/pruning/quantiz/data/calib/calibration.txt"
    batch_size: 10
    shuffle: true
    root_folder: "cifar10/deephi/miniGoogleNet/pruning/quantiz/data/calib/"
  }
}
layer {
  name: "data_fixed"
  type: "FixedNeuron"
  bottom: "data"
  top: "data"
  param {
    lr_mult: 0
    decay_mult: 0
  }
  fixed_param {
    fixed_method: OVER_FLOW
    bit_width: 8
    follow_data_layer: true
  }
}
layer {
  name: "conv1/3x3_s1"
  type: "ConvolutionFixed"
  bottom: "data"
  top: "conv1/3x3_s1"
  param {
    lr_mult: 1
    decay_mult: 1
  }
  param {
    lr_mult: 1
    decay_mult: 0
  }
  convolution_param {
    num_output: 30
    bias_term: true
    pad: 1
    kernel_size: 3
    stride: 1
    weight_filler {
      type: "xavier"
      std: 0.1
    }
    bias_filler {
      type: "constant"
      value: 0.2
    }
  }
  fixed_param {
    fixed_method: DIFF_S
    bit_width: 8
  }
}
layer {
  name: "conv1/relu1"
  type: "ReLU"
  bottom: "conv1/3x3_s1"
  top: "conv1/3x3_s1"
}
layer {
  name: "conv1/3x3_s1_fixed"
  type: "FixedNeuron"
  bottom: "conv1/3x3_s1"
  top: "conv1/3x3_s1"
  param {
    lr_mult: 0
    decay_mult: 0
  }
  fixed_param {
    fixed_method: DIFF_S
    bit_width: 8
  }
}
layer {
  name: "inception_2a/1x1"
  type: "ConvolutionFixed"
  bottom: "conv1/3x3_s1"
  top: "inception_2a/1x1"
  param {
    lr_mult: 1
    decay_mult: 1
  }
  param {
    lr_mult: 1
    decay_mult: 0
  }
  convolution_param {
    num_output: 24
    bias_term: true
    kernel_size: 1
    weight_filler {
      type: "xavier"
      std: 0.03
    }
    bias_filler {
      type: "constant"
      value: 0.2
    }
  }
  fixed_param {
    fixed_method: DIFF_S
    bit_width: 8
  }
}
layer {
  name: "inception_2a/1x1/relu1"
  type: "ReLU"
  bottom: "inception_2a/1x1"
  top: "inception_2a/1x1"
}
layer {
  name: "inception_2a/3x3"
  type: "ConvolutionFixed"
  bottom: "conv1/3x3_s1"
  top: "inception_2a/3x3"
  param {
    lr_mult: 1
    decay_mult: 1
  }
  param {
    lr_mult: 1
    decay_mult: 0
  }
  convolution_param {
    num_output: 20
    bias_term: true
    pad: 1
    kernel_size: 3
    weight_filler {
      type: "xavier"
      std: 0.03
    }
    bias_filler {
      type: "constant"
      value: 0.2
    }
  }
  fixed_param {
    fixed_method: DIFF_S
    bit_width: 8
  }
}
layer {
  name: "inception_2a/3x3/relu1"
  type: "ReLU"
  bottom: "inception_2a/3x3"
  top: "inception_2a/3x3"
}
layer {
  name: "inception_2a/output"
  type: "Concat"
  bottom: "inception_2a/1x1"
  bottom: "inception_2a/3x3"
  top: "inception_2a/output"
}
layer {
  name: "inception_2a/output_fixed"
  type: "FixedNeuron"
  bottom: "inception_2a/output"
  top: "inception_2a/output"
  param {
    lr_mult: 0
    decay_mult: 0
  }
  fixed_param {
    fixed_method: DIFF_S
    bit_width: 8
  }
}
layer {
  name: "inception_3a/1x1"
  type: "ConvolutionFixed"
  bottom: "inception_2a/output"
  top: "inception_3a/1x1"
  param {
    lr_mult: 1
    decay_mult: 1
  }
  param {
    lr_mult: 1
    decay_mult: 0
  }
  convolution_param {
    num_output: 20
    bias_term: true
    kernel_size: 1
    weight_filler {
      type: "xavier"
      std: 0.03
    }
    bias_filler {
      type: "constant"
      value: 0.2
    }
  }
  fixed_param {
    fixed_method: DIFF_S
    bit_width: 8
  }
}
layer {
  name: "inception_3a/1x1/relu1"
  type: "ReLU"
  bottom: "inception_3a/1x1"
  top: "inception_3a/1x1"
}
layer {
  name: "inception_3a/3x3"
  type: "ConvolutionFixed"
  bottom: "inception_2a/output"
  top: "inception_3a/3x3"
  param {
    lr_mult: 1
    decay_mult: 1
  }
  param {
    lr_mult: 1
    decay_mult: 0
  }
  convolution_param {
    num_output: 48
    bias_term: true
    pad: 1
    kernel_size: 3
    weight_filler {
      type: "xavier"
      std: 0.03
    }
    bias_filler {
      type: "constant"
      value: 0.2
    }
  }
  fixed_param {
    fixed_method: DIFF_S
    bit_width: 8
  }
}
layer {
  name: "inception_3a/3x3/relu1"
  type: "ReLU"
  bottom: "inception_3a/3x3"
  top: "inception_3a/3x3"
}
layer {
  name: "inception_3a/output"
  type: "Concat"
  bottom: "inception_3a/1x1"
  bottom: "inception_3a/3x3"
  top: "inception_3a/output"
}
layer {
  name: "inception_3a/output_fixed"
  type: "FixedNeuron"
  bottom: "inception_3a/output"
  top: "inception_3a/output"
  param {
    lr_mult: 0
    decay_mult: 0
  }
  fixed_param {
    fixed_method: DIFF_S
    bit_width: 8
  }
}
layer {
  name: "downsample_4/3x3_s2"
  type: "ConvolutionFixed"
  bottom: "inception_3a/output"
  top: "downsample_4/3x3_s2"
  param {
    lr_mult: 1
    decay_mult: 1
  }
  param {
    lr_mult: 1
    decay_mult: 0
  }
  convolution_param {
    num_output: 24
    bias_term: true
    pad: 1
    kernel_size: 3
    stride: 2
    weight_filler {
      type: "xavier"
      std: 0.03
    }
    bias_filler {
      type: "constant"
      value: 0.2
    }
  }
  fixed_param {
    fixed_method: DIFF_S
    bit_width: 8
  }
}
layer {
  name: "downsample_4/3x3_s2/relu1"
  type: "ReLU"
  bottom: "downsample_4/3x3_s2"
  top: "downsample_4/3x3_s2"
}
layer {
  name: "downsample_4/pool_s2"
  type: "Pooling"
  bottom: "inception_3a/output"
  top: "downsample_4/pool_s2"
  pooling_param {
    pool: MAX
    kernel_size: 3
    stride: 2
  }
}
layer {
  name: "downsample_4/output"
  type: "Concat"
  bottom: "downsample_4/3x3_s2"
  bottom: "downsample_4/pool_s2"
  top: "downsample_4/output"
}
layer {
  name: "downsample_4/output_fixed"
  type: "FixedNeuron"
  bottom: "downsample_4/output"
  top: "downsample_4/output"
  param {
    lr_mult: 0
    decay_mult: 0
  }
  fixed_param {
    fixed_method: DIFF_S
    bit_width: 8
  }
}
layer {
  name: "inception_5a/1x1"
  type: "ConvolutionFixed"
  bottom: "downsample_4/output"
  top: "inception_5a/1x1"
  param {
    lr_mult: 1
    decay_mult: 1
  }
  param {
    lr_mult: 1
    decay_mult: 0
  }
  convolution_param {
    num_output: 90
    bias_term: true
    kernel_size: 1
    weight_filler {
      type: "xavier"
      std: 0.03
    }
    bias_filler {
      type: "constant"
      value: 0.2
    }
  }
  fixed_param {
    fixed_method: DIFF_S
    bit_width: 8
  }
}
layer {
  name: "inception_5a/1x1/relu1"
  type: "ReLU"
  bottom: "inception_5a/1x1"
  top: "inception_5a/1x1"
}
layer {
  name: "inception_5a/3x3"
  type: "ConvolutionFixed"
  bottom: "downsample_4/output"
  top: "inception_5a/3x3"
  param {
    lr_mult: 1
    decay_mult: 1
  }
  param {
    lr_mult: 1
    decay_mult: 0
  }
  convolution_param {
    num_output: 40
    bias_term: true
    pad: 1
    kernel_size: 3
    weight_filler {
      type: "xavier"
      std: 0.03
    }
    bias_filler {
      type: "constant"
      value: 0.2
    }
  }
  fixed_param {
    fixed_method: DIFF_S
    bit_width: 8
  }
}
layer {
  name: "inception_5a/3x3/relu1"
  type: "ReLU"
  bottom: "inception_5a/3x3"
  top: "inception_5a/3x3"
}
layer {
  name: "inception_5a/output"
  type: "Concat"
  bottom: "inception_5a/1x1"
  bottom: "inception_5a/3x3"
  top: "inception_5a/output"
}
layer {
  name: "inception_5a/output_fixed"
  type: "FixedNeuron"
  bottom: "inception_5a/output"
  top: "inception_5a/output"
  param {
    lr_mult: 0
    decay_mult: 0
  }
  fixed_param {
    fixed_method: DIFF_S
    bit_width: 8
  }
}
layer {
  name: "inception_6a/1x1"
  type: "ConvolutionFixed"
  bottom: "inception_5a/output"
  top: "inception_6a/1x1"
  param {
    lr_mult: 1
    decay_mult: 1
  }
  param {
    lr_mult: 1
    decay_mult: 0
  }
  convolution_param {
    num_output: 88
    bias_term: true
    kernel_size: 1
    weight_filler {
      type: "xavier"
      std: 0.03
    }
    bias_filler {
      type: "constant"
      value: 0.2
    }
  }
  fixed_param {
    fixed_method: DIFF_S
    bit_width: 8
  }
}
layer {
  name: "inception_6a/1x1/relu1"
  type: "ReLU"
  bottom: "inception_6a/1x1"
  top: "inception_6a/1x1"
}
layer {
  name: "inception_6a/3x3"
  type: "ConvolutionFixed"
  bottom: "inception_5a/output"
  top: "inception_6a/3x3"
  param {
    lr_mult: 1
    decay_mult: 1
  }
  param {
    lr_mult: 1
    decay_mult: 0
  }
  convolution_param {
    num_output: 58
    bias_term: true
    pad: 1
    kernel_size: 3
    weight_filler {
      type: "xavier"
      std: 0.03
    }
    bias_filler {
      type: "constant"
      value: 0.2
    }
  }
  fixed_param {
    fixed_method: DIFF_S
    bit_width: 8
  }
}
layer {
  name: "inception_6a/3x3/relu1"
  type: "ReLU"
  bottom: "inception_6a/3x3"
  top: "inception_6a/3x3"
}
layer {
  name: "inception_6a/output"
  type: "Concat"
  bottom: "inception_6a/1x1"
  bottom: "inception_6a/3x3"
  top: "inception_6a/output"
}
layer {
  name: "inception_6a/output_fixed"
  type: "FixedNeuron"
  bottom: "inception_6a/output"
  top: "inception_6a/output"
  param {
    lr_mult: 0
    decay_mult: 0
  }
  fixed_param {
    fixed_method: DIFF_S
    bit_width: 8
  }
}
layer {
  name: "inception_7a/1x1"
  type: "ConvolutionFixed"
  bottom: "inception_6a/output"
  top: "inception_7a/1x1"
  param {
    lr_mult: 1
    decay_mult: 1
  }
  param {
    lr_mult: 1
    decay_mult: 0
  }
  convolution_param {
    num_output: 56
    bias_term: true
    kernel_size: 1
    weight_filler {
      type: "xavier"
      std: 0.03
    }
    bias_filler {
      type: "constant"
      value: 0.2
    }
  }
  fixed_param {
    fixed_method: DIFF_S
    bit_width: 8
  }
}
layer {
  name: "inception_7a/1x1/relu1"
  type: "ReLU"
  bottom: "inception_7a/1x1"
  top: "inception_7a/1x1"
}
layer {
  name: "inception_7a/3x3"
  type: "ConvolutionFixed"
  bottom: "inception_6a/output"
  top: "inception_7a/3x3"
  param {
    lr_mult: 1
    decay_mult: 1
  }
  param {
    lr_mult: 1
    decay_mult: 0
  }
  convolution_param {
    num_output: 80
    bias_term: true
    pad: 1
    kernel_size: 3
    weight_filler {
      type: "xavier"
      std: 0.03
    }
    bias_filler {
      type: "constant"
      value: 0.2
    }
  }
  fixed_param {
    fixed_method: DIFF_S
    bit_width: 8
  }
}
layer {
  name: "inception_7a/3x3/relu1"
  type: "ReLU"
  bottom: "inception_7a/3x3"
  top: "inception_7a/3x3"
}
layer {
  name: "inception_7a/output"
  type: "Concat"
  bottom: "inception_7a/1x1"
  bottom: "inception_7a/3x3"
  top: "inception_7a/output"
}
layer {
  name: "inception_7a/output_fixed"
  type: "FixedNeuron"
  bottom: "inception_7a/output"
  top: "inception_7a/output"
  param {
    lr_mult: 0
    decay_mult: 0
  }
  fixed_param {
    fixed_method: DIFF_S
    bit_width: 8
  }
}
layer {
  name: "inception_8a/1x1"
  type: "ConvolutionFixed"
  bottom: "inception_7a/output"
  top: "inception_8a/1x1"
  param {
    lr_mult: 1
    decay_mult: 1
  }
  param {
    lr_mult: 1
    decay_mult: 0
  }
  convolution_param {
    num_output: 40
    bias_term: true
    kernel_size: 1
    weight_filler {
      type: "xavier"
      std: 0.03
    }
    bias_filler {
      type: "constant"
      value: 0.2
    }
  }
  fixed_param {
    fixed_method: DIFF_S
    bit_width: 8
  }
}
layer {
  name: "inception_8a/1x1/relu1"
  type: "ReLU"
  bottom: "inception_8a/1x1"
  top: "inception_8a/1x1"
}
layer {
  name: "inception_8a/3x3"
  type: "ConvolutionFixed"
  bottom: "inception_7a/output"
  top: "inception_8a/3x3"
  param {
    lr_mult: 1
    decay_mult: 1
  }
  param {
    lr_mult: 1
    decay_mult: 0
  }
  convolution_param {
    num_output: 96
    bias_term: true
    pad: 1
    kernel_size: 3
    weight_filler {
      type: "xavier"
      std: 0.03
    }
    bias_filler {
      type: "constant"
      value: 0.2
    }
  }
  fixed_param {
    fixed_method: DIFF_S
    bit_width: 8
  }
}
layer {
  name: "inception_8a/3x3/relu1"
  type: "ReLU"
  bottom: "inception_8a/3x3"
  top: "inception_8a/3x3"
}
layer {
  name: "inception_8a/output"
  type: "Concat"
  bottom: "inception_8a/1x1"
  bottom: "inception_8a/3x3"
  top: "inception_8a/output"
}
layer {
  name: "inception_8a/output_fixed"
  type: "FixedNeuron"
  bottom: "inception_8a/output"
  top: "inception_8a/output"
  param {
    lr_mult: 0
    decay_mult: 0
  }
  fixed_param {
    fixed_method: DIFF_S
    bit_width: 8
  }
}
layer {
  name: "downsample_9/3x3_s2"
  type: "ConvolutionFixed"
  bottom: "inception_8a/output"
  top: "downsample_9/3x3_s2"
  param {
    lr_mult: 1
    decay_mult: 1
  }
  param {
    lr_mult: 1
    decay_mult: 0
  }
  convolution_param {
    num_output: 78
    bias_term: true
    pad: 1
    kernel_size: 3
    stride: 2
    weight_filler {
      type: "xavier"
      std: 0.03
    }
    bias_filler {
      type: "constant"
      value: 0.2
    }
  }
  fixed_param {
    fixed_method: DIFF_S
    bit_width: 8
  }
}
layer {
  name: "downsample_9/3x3_s2/relu1"
  type: "ReLU"
  bottom: "downsample_9/3x3_s2"
  top: "downsample_9/3x3_s2"
}
layer {
  name: "downsample_9/pool_s2"
  type: "Pooling"
  bottom: "inception_8a/output"
  top: "downsample_9/pool_s2"
  pooling_param {
    pool: MAX
    kernel_size: 3
    stride: 2
  }
}
layer {
  name: "downsample_9/output"
  type: "Concat"
  bottom: "downsample_9/3x3_s2"
  bottom: "downsample_9/pool_s2"
  top: "downsample_9/output"
}
layer {
  name: "downsample_9/output_fixed"
  type: "FixedNeuron"
  bottom: "downsample_9/output"
  top: "downsample_9/output"
  param {
    lr_mult: 0
    decay_mult: 0
  }
  fixed_param {
    fixed_method: DIFF_S
    bit_width: 8
  }
}
layer {
  name: "inception_10a/1x1"
  type: "ConvolutionFixed"
  bottom: "downsample_9/output"
  top: "inception_10a/1x1"
  param {
    lr_mult: 1
    decay_mult: 1
  }
  param {
    lr_mult: 1
    decay_mult: 0
  }
  convolution_param {
    num_output: 18
    bias_term: true
    kernel_size: 1
    weight_filler {
      type: "xavier"
      std: 0.03
    }
    bias_filler {
      type: "constant"
      value: 0.2
    }
  }
  fixed_param {
    fixed_method: DIFF_S
    bit_width: 8
  }
}
layer {
  name: "inception_10a/1x1/relu1"
  type: "ReLU"
  bottom: "inception_10a/1x1"
  top: "inception_10a/1x1"
}
layer {
  name: "inception_10a/3x3"
  type: "ConvolutionFixed"
  bottom: "downsample_9/output"
  top: "inception_10a/3x3"
  param {
    lr_mult: 1
    decay_mult: 1
  }
  param {
    lr_mult: 1
    decay_mult: 0
  }
  convolution_param {
    num_output: 144
    bias_term: true
    pad: 1
    kernel_size: 3
    weight_filler {
      type: "xavier"
      std: 0.03
    }
    bias_filler {
      type: "constant"
      value: 0.2
    }
  }
  fixed_param {
    fixed_method: DIFF_S
    bit_width: 8
  }
}
layer {
  name: "inception_10a/3x3/relu1"
  type: "ReLU"
  bottom: "inception_10a/3x3"
  top: "inception_10a/3x3"
}
layer {
  name: "inception_10a/output"
  type: "Concat"
  bottom: "inception_10a/1x1"
  bottom: "inception_10a/3x3"
  top: "inception_10a/output"
}
layer {
  name: "inception_10a/output_fixed"
  type: "FixedNeuron"
  bottom: "inception_10a/output"
  top: "inception_10a/output"
  param {
    lr_mult: 0
    decay_mult: 0
  }
  fixed_param {
    fixed_method: DIFF_S
    bit_width: 8
  }
}
layer {
  name: "inception_11a/1x1"
  type: "ConvolutionFixed"
  bottom: "inception_10a/output"
  top: "inception_11a/1x1"
  param {
    lr_mult: 1
    decay_mult: 1
  }
  param {
    lr_mult: 1
    decay_mult: 0
  }
  convolution_param {
    num_output: 106
    bias_term: true
    kernel_size: 1
    weight_filler {
      type: "xavier"
      std: 0.03
    }
    bias_filler {
      type: "constant"
      value: 0.2
    }
  }
  fixed_param {
    fixed_method: DIFF_S
    bit_width: 8
  }
}
layer {
  name: "inception_11a/1x1/relu1"
  type: "ReLU"
  bottom: "inception_11a/1x1"
  top: "inception_11a/1x1"
}
layer {
  name: "inception_11a/3x3"
  type: "ConvolutionFixed"
  bottom: "inception_10a/output"
  top: "inception_11a/3x3"
  param {
    lr_mult: 1
    decay_mult: 1
  }
  param {
    lr_mult: 1
    decay_mult: 0
  }
  convolution_param {
    num_output: 144
    bias_term: true
    pad: 1
    kernel_size: 3
    weight_filler {
      type: "xavier"
      std: 0.03
    }
    bias_filler {
      type: "constant"
      value: 0.2
    }
  }
  fixed_param {
    fixed_method: DIFF_S
    bit_width: 8
  }
}
layer {
  name: "inception_11a/3x3/relu1"
  type: "ReLU"
  bottom: "inception_11a/3x3"
  top: "inception_11a/3x3"
}
layer {
  name: "inception_11a/output"
  type: "Concat"
  bottom: "inception_11a/1x1"
  bottom: "inception_11a/3x3"
  top: "inception_11a/output"
}
layer {
  name: "inception_11a/output_fixed"
  type: "FixedNeuron"
  bottom: "inception_11a/output"
  top: "inception_11a/output"
  param {
    lr_mult: 0
    decay_mult: 0
  }
  fixed_param {
    fixed_method: DIFF_S
    bit_width: 8
  }
}
layer {
  name: "avg_pool_12/8x8_s1"
  type: "Pooling"
  bottom: "inception_11a/output"
  top: "avg_pool_12/8x8_s1"
  pooling_param {
    pool: AVE
    kernel_size: 8
    stride: 1
  }
}
layer {
  name: "avg_pool_12/8x8_s1_fixed"
  type: "FixedNeuron"
  bottom: "avg_pool_12/8x8_s1"
  top: "avg_pool_12/8x8_s1"
  param {
    lr_mult: 0
    decay_mult: 0
  }
  fixed_param {
    fixed_method: DIFF_S
    bit_width: 8
  }
}
layer {
  name: "loss/classifier"
  type: "InnerProductFixed"
  bottom: "avg_pool_12/8x8_s1"
  top: "loss/classifier"
  param {
    lr_mult: 1
    decay_mult: 1
  }
  param {
    lr_mult: 2
    decay_mult: 0
  }
  inner_product_param {
    num_output: 10
    weight_filler {
      type: "xavier"
    }
    bias_filler {
      type: "constant"
      value: 1
    }
  }
  fixed_param {
    fixed_method: DIFF_S
    bit_width: 8
  }
}
layer {
  name: "loss/classifier_fixed"
  type: "FixedNeuron"
  bottom: "loss/classifier"
  top: "loss/classifier"
  param {
    lr_mult: 0
    decay_mult: 0
  }
  fixed_param {
    fixed_method: DIFF_S
    bit_width: 8
  }
}
layer {
  name: "loss"
  type: "SoftmaxWithLoss"
  bottom: "loss/classifier"
  bottom: "label"
  top: "loss"
}
I0123 08:09:15.229712 81047 layer_factory.hpp:123] Creating layer data
I0123 08:09:15.229738 81047 net.cpp:140] Creating Layer data
I0123 08:09:15.229748 81047 net.cpp:455] data -> data
I0123 08:09:15.229759 81047 net.cpp:455] data -> label
I0123 08:09:15.230178 81047 image_data_layer.cpp:87] Opening file cifar10/deephi/miniGoogleNet/pruning/quantiz/data/calib/calibration.txt
I0123 08:09:15.230451 81047 image_data_layer.cpp:97] Shuffling data
I0123 08:09:15.230479 81047 image_data_layer.cpp:102] A total of 1000 images.
I0123 08:09:15.230685 81047 image_data_layer.cpp:130] output data size: 10,3,32,32
I0123 08:09:15.232269 81047 internal_thread.cpp:73] Starting internal thread(s) on GPU 0
I0123 08:09:15.232314 81047 net.cpp:190] Setting up data
I0123 08:09:15.232323 81047 net.cpp:197] Top shape: 10 3 32 32 (30720)
I0123 08:09:15.232326 81047 net.cpp:197] Top shape: 10 (10)
I0123 08:09:15.232329 81047 net.cpp:205] Memory required for data: 122920
I0123 08:09:15.232332 81047 layer_factory.hpp:123] Creating layer data_fixed
I0123 08:09:15.232342 81047 net.cpp:140] Creating Layer data_fixed
I0123 08:09:15.232343 81047 net.cpp:481] data_fixed <- data
I0123 08:09:15.232354 81047 net.cpp:442] data_fixed -> data (in-place)
I0123 08:09:15.232394 81047 net.cpp:190] Setting up data_fixed
I0123 08:09:15.232400 81047 net.cpp:197] Top shape: 10 3 32 32 (30720)
I0123 08:09:15.232403 81047 net.cpp:205] Memory required for data: 245800
I0123 08:09:15.232414 81047 layer_factory.hpp:123] Creating layer conv1/3x3_s1
I0123 08:09:15.232429 81047 net.cpp:140] Creating Layer conv1/3x3_s1
I0123 08:09:15.232434 81047 net.cpp:481] conv1/3x3_s1 <- data
I0123 08:09:15.232441 81047 net.cpp:455] conv1/3x3_s1 -> conv1/3x3_s1
I0123 08:09:15.233394 81047 layer_factory.hpp:123] Creating layer conv1/3x3_s1
I0123 08:09:15.233709 81047 net.cpp:190] Setting up conv1/3x3_s1
I0123 08:09:15.233718 81047 net.cpp:197] Top shape: 10 30 32 32 (307200)
I0123 08:09:15.233721 81047 net.cpp:205] Memory required for data: 1474600
I0123 08:09:15.233729 81047 layer_factory.hpp:123] Creating layer conv1/relu1
I0123 08:09:15.233737 81047 net.cpp:140] Creating Layer conv1/relu1
I0123 08:09:15.233742 81047 net.cpp:481] conv1/relu1 <- conv1/3x3_s1
I0123 08:09:15.233748 81047 net.cpp:442] conv1/relu1 -> conv1/3x3_s1 (in-place)
I0123 08:09:15.233758 81047 net.cpp:190] Setting up conv1/relu1
I0123 08:09:15.233765 81047 net.cpp:197] Top shape: 10 30 32 32 (307200)
I0123 08:09:15.233768 81047 net.cpp:205] Memory required for data: 2703400
I0123 08:09:15.233772 81047 layer_factory.hpp:123] Creating layer conv1/3x3_s1_fixed
I0123 08:09:15.233777 81047 net.cpp:140] Creating Layer conv1/3x3_s1_fixed
I0123 08:09:15.233780 81047 net.cpp:481] conv1/3x3_s1_fixed <- conv1/3x3_s1
I0123 08:09:15.233786 81047 net.cpp:442] conv1/3x3_s1_fixed -> conv1/3x3_s1 (in-place)
I0123 08:09:15.233814 81047 net.cpp:190] Setting up conv1/3x3_s1_fixed
I0123 08:09:15.233820 81047 net.cpp:197] Top shape: 10 30 32 32 (307200)
I0123 08:09:15.233822 81047 net.cpp:205] Memory required for data: 3932200
I0123 08:09:15.233826 81047 layer_factory.hpp:123] Creating layer conv1/3x3_s1_conv1/3x3_s1_fixed_0_split
I0123 08:09:15.233830 81047 net.cpp:140] Creating Layer conv1/3x3_s1_conv1/3x3_s1_fixed_0_split
I0123 08:09:15.233834 81047 net.cpp:481] conv1/3x3_s1_conv1/3x3_s1_fixed_0_split <- conv1/3x3_s1
I0123 08:09:15.233839 81047 net.cpp:455] conv1/3x3_s1_conv1/3x3_s1_fixed_0_split -> conv1/3x3_s1_conv1/3x3_s1_fixed_0_split_0
I0123 08:09:15.233850 81047 net.cpp:455] conv1/3x3_s1_conv1/3x3_s1_fixed_0_split -> conv1/3x3_s1_conv1/3x3_s1_fixed_0_split_1
I0123 08:09:15.233877 81047 net.cpp:190] Setting up conv1/3x3_s1_conv1/3x3_s1_fixed_0_split
I0123 08:09:15.233882 81047 net.cpp:197] Top shape: 10 30 32 32 (307200)
I0123 08:09:15.233886 81047 net.cpp:197] Top shape: 10 30 32 32 (307200)
I0123 08:09:15.233888 81047 net.cpp:205] Memory required for data: 6389800
I0123 08:09:15.233891 81047 layer_factory.hpp:123] Creating layer inception_2a/1x1
I0123 08:09:15.233897 81047 net.cpp:140] Creating Layer inception_2a/1x1
I0123 08:09:15.233901 81047 net.cpp:481] inception_2a/1x1 <- conv1/3x3_s1_conv1/3x3_s1_fixed_0_split_0
I0123 08:09:15.233912 81047 net.cpp:455] inception_2a/1x1 -> inception_2a/1x1
I0123 08:09:15.234058 81047 layer_factory.hpp:123] Creating layer inception_2a/1x1
I0123 08:09:15.234300 81047 net.cpp:190] Setting up inception_2a/1x1
I0123 08:09:15.234306 81047 net.cpp:197] Top shape: 10 24 32 32 (245760)
I0123 08:09:15.234309 81047 net.cpp:205] Memory required for data: 7372840
I0123 08:09:15.234315 81047 layer_factory.hpp:123] Creating layer inception_2a/1x1/relu1
I0123 08:09:15.234319 81047 net.cpp:140] Creating Layer inception_2a/1x1/relu1
I0123 08:09:15.234323 81047 net.cpp:481] inception_2a/1x1/relu1 <- inception_2a/1x1
I0123 08:09:15.234328 81047 net.cpp:442] inception_2a/1x1/relu1 -> inception_2a/1x1 (in-place)
I0123 08:09:15.234335 81047 net.cpp:190] Setting up inception_2a/1x1/relu1
I0123 08:09:15.234339 81047 net.cpp:197] Top shape: 10 24 32 32 (245760)
I0123 08:09:15.234342 81047 net.cpp:205] Memory required for data: 8355880
I0123 08:09:15.234346 81047 layer_factory.hpp:123] Creating layer inception_2a/3x3
I0123 08:09:15.234356 81047 net.cpp:140] Creating Layer inception_2a/3x3
I0123 08:09:15.234361 81047 net.cpp:481] inception_2a/3x3 <- conv1/3x3_s1_conv1/3x3_s1_fixed_0_split_1
I0123 08:09:15.234369 81047 net.cpp:455] inception_2a/3x3 -> inception_2a/3x3
I0123 08:09:15.235548 81047 layer_factory.hpp:123] Creating layer inception_2a/3x3
I0123 08:09:15.236009 81047 net.cpp:190] Setting up inception_2a/3x3
I0123 08:09:15.236017 81047 net.cpp:197] Top shape: 10 20 32 32 (204800)
I0123 08:09:15.236019 81047 net.cpp:205] Memory required for data: 9175080
I0123 08:09:15.236026 81047 layer_factory.hpp:123] Creating layer inception_2a/3x3/relu1
I0123 08:09:15.236030 81047 net.cpp:140] Creating Layer inception_2a/3x3/relu1
I0123 08:09:15.236034 81047 net.cpp:481] inception_2a/3x3/relu1 <- inception_2a/3x3
I0123 08:09:15.236040 81047 net.cpp:442] inception_2a/3x3/relu1 -> inception_2a/3x3 (in-place)
I0123 08:09:15.236052 81047 net.cpp:190] Setting up inception_2a/3x3/relu1
I0123 08:09:15.236055 81047 net.cpp:197] Top shape: 10 20 32 32 (204800)
I0123 08:09:15.236057 81047 net.cpp:205] Memory required for data: 9994280
I0123 08:09:15.236060 81047 layer_factory.hpp:123] Creating layer inception_2a/output
I0123 08:09:15.236064 81047 net.cpp:140] Creating Layer inception_2a/output
I0123 08:09:15.236068 81047 net.cpp:481] inception_2a/output <- inception_2a/1x1
I0123 08:09:15.236070 81047 net.cpp:481] inception_2a/output <- inception_2a/3x3
I0123 08:09:15.236075 81047 net.cpp:455] inception_2a/output -> inception_2a/output
I0123 08:09:15.236093 81047 net.cpp:190] Setting up inception_2a/output
I0123 08:09:15.236099 81047 net.cpp:197] Top shape: 10 44 32 32 (450560)
I0123 08:09:15.236100 81047 net.cpp:205] Memory required for data: 11796520
I0123 08:09:15.236104 81047 layer_factory.hpp:123] Creating layer inception_2a/output_fixed
I0123 08:09:15.236107 81047 net.cpp:140] Creating Layer inception_2a/output_fixed
I0123 08:09:15.236110 81047 net.cpp:481] inception_2a/output_fixed <- inception_2a/output
I0123 08:09:15.236114 81047 net.cpp:442] inception_2a/output_fixed -> inception_2a/output (in-place)
I0123 08:09:15.236140 81047 net.cpp:190] Setting up inception_2a/output_fixed
I0123 08:09:15.236145 81047 net.cpp:197] Top shape: 10 44 32 32 (450560)
I0123 08:09:15.236148 81047 net.cpp:205] Memory required for data: 13598760
I0123 08:09:15.236155 81047 layer_factory.hpp:123] Creating layer inception_2a/output_inception_2a/output_fixed_0_split
I0123 08:09:15.236158 81047 net.cpp:140] Creating Layer inception_2a/output_inception_2a/output_fixed_0_split
I0123 08:09:15.236161 81047 net.cpp:481] inception_2a/output_inception_2a/output_fixed_0_split <- inception_2a/output
I0123 08:09:15.236166 81047 net.cpp:455] inception_2a/output_inception_2a/output_fixed_0_split -> inception_2a/output_inception_2a/output_fixed_0_split_0
I0123 08:09:15.236172 81047 net.cpp:455] inception_2a/output_inception_2a/output_fixed_0_split -> inception_2a/output_inception_2a/output_fixed_0_split_1
I0123 08:09:15.236204 81047 net.cpp:190] Setting up inception_2a/output_inception_2a/output_fixed_0_split
I0123 08:09:15.236209 81047 net.cpp:197] Top shape: 10 44 32 32 (450560)
I0123 08:09:15.236213 81047 net.cpp:197] Top shape: 10 44 32 32 (450560)
I0123 08:09:15.236215 81047 net.cpp:205] Memory required for data: 17203240
I0123 08:09:15.236218 81047 layer_factory.hpp:123] Creating layer inception_3a/1x1
I0123 08:09:15.236227 81047 net.cpp:140] Creating Layer inception_3a/1x1
I0123 08:09:15.236233 81047 net.cpp:481] inception_3a/1x1 <- inception_2a/output_inception_2a/output_fixed_0_split_0
I0123 08:09:15.236240 81047 net.cpp:455] inception_3a/1x1 -> inception_3a/1x1
I0123 08:09:15.236389 81047 layer_factory.hpp:123] Creating layer inception_3a/1x1
I0123 08:09:15.236639 81047 net.cpp:190] Setting up inception_3a/1x1
I0123 08:09:15.236645 81047 net.cpp:197] Top shape: 10 20 32 32 (204800)
I0123 08:09:15.236649 81047 net.cpp:205] Memory required for data: 18022440
I0123 08:09:15.236654 81047 layer_factory.hpp:123] Creating layer inception_3a/1x1/relu1
I0123 08:09:15.236658 81047 net.cpp:140] Creating Layer inception_3a/1x1/relu1
I0123 08:09:15.236662 81047 net.cpp:481] inception_3a/1x1/relu1 <- inception_3a/1x1
I0123 08:09:15.236668 81047 net.cpp:442] inception_3a/1x1/relu1 -> inception_3a/1x1 (in-place)
I0123 08:09:15.236677 81047 net.cpp:190] Setting up inception_3a/1x1/relu1
I0123 08:09:15.236681 81047 net.cpp:197] Top shape: 10 20 32 32 (204800)
I0123 08:09:15.236683 81047 net.cpp:205] Memory required for data: 18841640
I0123 08:09:15.236685 81047 layer_factory.hpp:123] Creating layer inception_3a/3x3
I0123 08:09:15.236692 81047 net.cpp:140] Creating Layer inception_3a/3x3
I0123 08:09:15.236696 81047 net.cpp:481] inception_3a/3x3 <- inception_2a/output_inception_2a/output_fixed_0_split_1
I0123 08:09:15.236701 81047 net.cpp:455] inception_3a/3x3 -> inception_3a/3x3
I0123 08:09:15.236946 81047 layer_factory.hpp:123] Creating layer inception_3a/3x3
I0123 08:09:15.237313 81047 net.cpp:190] Setting up inception_3a/3x3
I0123 08:09:15.237319 81047 net.cpp:197] Top shape: 10 48 32 32 (491520)
I0123 08:09:15.237323 81047 net.cpp:205] Memory required for data: 20807720
I0123 08:09:15.237327 81047 layer_factory.hpp:123] Creating layer inception_3a/3x3/relu1
I0123 08:09:15.237332 81047 net.cpp:140] Creating Layer inception_3a/3x3/relu1
I0123 08:09:15.237341 81047 net.cpp:481] inception_3a/3x3/relu1 <- inception_3a/3x3
I0123 08:09:15.237345 81047 net.cpp:442] inception_3a/3x3/relu1 -> inception_3a/3x3 (in-place)
I0123 08:09:15.237351 81047 net.cpp:190] Setting up inception_3a/3x3/relu1
I0123 08:09:15.237354 81047 net.cpp:197] Top shape: 10 48 32 32 (491520)
I0123 08:09:15.237357 81047 net.cpp:205] Memory required for data: 22773800
I0123 08:09:15.237360 81047 layer_factory.hpp:123] Creating layer inception_3a/output
I0123 08:09:15.237363 81047 net.cpp:140] Creating Layer inception_3a/output
I0123 08:09:15.237366 81047 net.cpp:481] inception_3a/output <- inception_3a/1x1
I0123 08:09:15.237370 81047 net.cpp:481] inception_3a/output <- inception_3a/3x3
I0123 08:09:15.237375 81047 net.cpp:455] inception_3a/output -> inception_3a/output
I0123 08:09:15.237393 81047 net.cpp:190] Setting up inception_3a/output
I0123 08:09:15.237398 81047 net.cpp:197] Top shape: 10 68 32 32 (696320)
I0123 08:09:15.237401 81047 net.cpp:205] Memory required for data: 25559080
I0123 08:09:15.237404 81047 layer_factory.hpp:123] Creating layer inception_3a/output_fixed
I0123 08:09:15.237408 81047 net.cpp:140] Creating Layer inception_3a/output_fixed
I0123 08:09:15.237411 81047 net.cpp:481] inception_3a/output_fixed <- inception_3a/output
I0123 08:09:15.237416 81047 net.cpp:442] inception_3a/output_fixed -> inception_3a/output (in-place)
I0123 08:09:15.237449 81047 net.cpp:190] Setting up inception_3a/output_fixed
I0123 08:09:15.237454 81047 net.cpp:197] Top shape: 10 68 32 32 (696320)
I0123 08:09:15.237457 81047 net.cpp:205] Memory required for data: 28344360
I0123 08:09:15.237462 81047 layer_factory.hpp:123] Creating layer inception_3a/output_inception_3a/output_fixed_0_split
I0123 08:09:15.237465 81047 net.cpp:140] Creating Layer inception_3a/output_inception_3a/output_fixed_0_split
I0123 08:09:15.237468 81047 net.cpp:481] inception_3a/output_inception_3a/output_fixed_0_split <- inception_3a/output
I0123 08:09:15.237473 81047 net.cpp:455] inception_3a/output_inception_3a/output_fixed_0_split -> inception_3a/output_inception_3a/output_fixed_0_split_0
I0123 08:09:15.237481 81047 net.cpp:455] inception_3a/output_inception_3a/output_fixed_0_split -> inception_3a/output_inception_3a/output_fixed_0_split_1
I0123 08:09:15.237509 81047 net.cpp:190] Setting up inception_3a/output_inception_3a/output_fixed_0_split
I0123 08:09:15.237515 81047 net.cpp:197] Top shape: 10 68 32 32 (696320)
I0123 08:09:15.237519 81047 net.cpp:197] Top shape: 10 68 32 32 (696320)
I0123 08:09:15.237520 81047 net.cpp:205] Memory required for data: 33914920
I0123 08:09:15.237524 81047 layer_factory.hpp:123] Creating layer downsample_4/3x3_s2
I0123 08:09:15.237530 81047 net.cpp:140] Creating Layer downsample_4/3x3_s2
I0123 08:09:15.237532 81047 net.cpp:481] downsample_4/3x3_s2 <- inception_3a/output_inception_3a/output_fixed_0_split_0
I0123 08:09:15.237538 81047 net.cpp:455] downsample_4/3x3_s2 -> downsample_4/3x3_s2
I0123 08:09:15.237768 81047 layer_factory.hpp:123] Creating layer downsample_4/3x3_s2
I0123 08:09:15.238143 81047 net.cpp:190] Setting up downsample_4/3x3_s2
I0123 08:09:15.238150 81047 net.cpp:197] Top shape: 10 24 16 16 (61440)
I0123 08:09:15.238154 81047 net.cpp:205] Memory required for data: 34160680
I0123 08:09:15.238159 81047 layer_factory.hpp:123] Creating layer downsample_4/3x3_s2/relu1
I0123 08:09:15.238163 81047 net.cpp:140] Creating Layer downsample_4/3x3_s2/relu1
I0123 08:09:15.238168 81047 net.cpp:481] downsample_4/3x3_s2/relu1 <- downsample_4/3x3_s2
I0123 08:09:15.238173 81047 net.cpp:442] downsample_4/3x3_s2/relu1 -> downsample_4/3x3_s2 (in-place)
I0123 08:09:15.238183 81047 net.cpp:190] Setting up downsample_4/3x3_s2/relu1
I0123 08:09:15.238188 81047 net.cpp:197] Top shape: 10 24 16 16 (61440)
I0123 08:09:15.238190 81047 net.cpp:205] Memory required for data: 34406440
I0123 08:09:15.238193 81047 layer_factory.hpp:123] Creating layer downsample_4/pool_s2
I0123 08:09:15.238198 81047 net.cpp:140] Creating Layer downsample_4/pool_s2
I0123 08:09:15.238200 81047 net.cpp:481] downsample_4/pool_s2 <- inception_3a/output_inception_3a/output_fixed_0_split_1
I0123 08:09:15.238204 81047 net.cpp:455] downsample_4/pool_s2 -> downsample_4/pool_s2
I0123 08:09:15.238240 81047 net.cpp:190] Setting up downsample_4/pool_s2
I0123 08:09:15.238245 81047 net.cpp:197] Top shape: 10 68 16 16 (174080)
I0123 08:09:15.238248 81047 net.cpp:205] Memory required for data: 35102760
I0123 08:09:15.238250 81047 layer_factory.hpp:123] Creating layer downsample_4/output
I0123 08:09:15.238255 81047 net.cpp:140] Creating Layer downsample_4/output
I0123 08:09:15.238257 81047 net.cpp:481] downsample_4/output <- downsample_4/3x3_s2
I0123 08:09:15.238261 81047 net.cpp:481] downsample_4/output <- downsample_4/pool_s2
I0123 08:09:15.238267 81047 net.cpp:455] downsample_4/output -> downsample_4/output
I0123 08:09:15.238286 81047 net.cpp:190] Setting up downsample_4/output
I0123 08:09:15.238291 81047 net.cpp:197] Top shape: 10 92 16 16 (235520)
I0123 08:09:15.238293 81047 net.cpp:205] Memory required for data: 36044840
I0123 08:09:15.238296 81047 layer_factory.hpp:123] Creating layer downsample_4/output_fixed
I0123 08:09:15.238301 81047 net.cpp:140] Creating Layer downsample_4/output_fixed
I0123 08:09:15.238302 81047 net.cpp:481] downsample_4/output_fixed <- downsample_4/output
I0123 08:09:15.238307 81047 net.cpp:442] downsample_4/output_fixed -> downsample_4/output (in-place)
I0123 08:09:15.238330 81047 net.cpp:190] Setting up downsample_4/output_fixed
I0123 08:09:15.238335 81047 net.cpp:197] Top shape: 10 92 16 16 (235520)
I0123 08:09:15.238338 81047 net.cpp:205] Memory required for data: 36986920
I0123 08:09:15.238344 81047 layer_factory.hpp:123] Creating layer downsample_4/output_downsample_4/output_fixed_0_split
I0123 08:09:15.238348 81047 net.cpp:140] Creating Layer downsample_4/output_downsample_4/output_fixed_0_split
I0123 08:09:15.238351 81047 net.cpp:481] downsample_4/output_downsample_4/output_fixed_0_split <- downsample_4/output
I0123 08:09:15.238355 81047 net.cpp:455] downsample_4/output_downsample_4/output_fixed_0_split -> downsample_4/output_downsample_4/output_fixed_0_split_0
I0123 08:09:15.238360 81047 net.cpp:455] downsample_4/output_downsample_4/output_fixed_0_split -> downsample_4/output_downsample_4/output_fixed_0_split_1
I0123 08:09:15.238389 81047 net.cpp:190] Setting up downsample_4/output_downsample_4/output_fixed_0_split
I0123 08:09:15.238394 81047 net.cpp:197] Top shape: 10 92 16 16 (235520)
I0123 08:09:15.238399 81047 net.cpp:197] Top shape: 10 92 16 16 (235520)
I0123 08:09:15.238400 81047 net.cpp:205] Memory required for data: 38871080
I0123 08:09:15.238402 81047 layer_factory.hpp:123] Creating layer inception_5a/1x1
I0123 08:09:15.238411 81047 net.cpp:140] Creating Layer inception_5a/1x1
I0123 08:09:15.238417 81047 net.cpp:481] inception_5a/1x1 <- downsample_4/output_downsample_4/output_fixed_0_split_0
I0123 08:09:15.238425 81047 net.cpp:455] inception_5a/1x1 -> inception_5a/1x1
I0123 08:09:15.238663 81047 layer_factory.hpp:123] Creating layer inception_5a/1x1
I0123 08:09:15.238988 81047 net.cpp:190] Setting up inception_5a/1x1
I0123 08:09:15.238996 81047 net.cpp:197] Top shape: 10 90 16 16 (230400)
I0123 08:09:15.238997 81047 net.cpp:205] Memory required for data: 39792680
I0123 08:09:15.239002 81047 layer_factory.hpp:123] Creating layer inception_5a/1x1/relu1
I0123 08:09:15.239007 81047 net.cpp:140] Creating Layer inception_5a/1x1/relu1
I0123 08:09:15.239012 81047 net.cpp:481] inception_5a/1x1/relu1 <- inception_5a/1x1
I0123 08:09:15.239017 81047 net.cpp:442] inception_5a/1x1/relu1 -> inception_5a/1x1 (in-place)
I0123 08:09:15.239023 81047 net.cpp:190] Setting up inception_5a/1x1/relu1
I0123 08:09:15.239028 81047 net.cpp:197] Top shape: 10 90 16 16 (230400)
I0123 08:09:15.239032 81047 net.cpp:205] Memory required for data: 40714280
I0123 08:09:15.239035 81047 layer_factory.hpp:123] Creating layer inception_5a/3x3
I0123 08:09:15.239043 81047 net.cpp:140] Creating Layer inception_5a/3x3
I0123 08:09:15.239050 81047 net.cpp:481] inception_5a/3x3 <- downsample_4/output_downsample_4/output_fixed_0_split_1
I0123 08:09:15.239055 81047 net.cpp:455] inception_5a/3x3 -> inception_5a/3x3
I0123 08:09:15.239382 81047 layer_factory.hpp:123] Creating layer inception_5a/3x3
I0123 08:09:15.239828 81047 net.cpp:190] Setting up inception_5a/3x3
I0123 08:09:15.239835 81047 net.cpp:197] Top shape: 10 40 16 16 (102400)
I0123 08:09:15.239838 81047 net.cpp:205] Memory required for data: 41123880
I0123 08:09:15.239843 81047 layer_factory.hpp:123] Creating layer inception_5a/3x3/relu1
I0123 08:09:15.239848 81047 net.cpp:140] Creating Layer inception_5a/3x3/relu1
I0123 08:09:15.239851 81047 net.cpp:481] inception_5a/3x3/relu1 <- inception_5a/3x3
I0123 08:09:15.239856 81047 net.cpp:442] inception_5a/3x3/relu1 -> inception_5a/3x3 (in-place)
I0123 08:09:15.239864 81047 net.cpp:190] Setting up inception_5a/3x3/relu1
I0123 08:09:15.239871 81047 net.cpp:197] Top shape: 10 40 16 16 (102400)
I0123 08:09:15.239876 81047 net.cpp:205] Memory required for data: 41533480
I0123 08:09:15.239877 81047 layer_factory.hpp:123] Creating layer inception_5a/output
I0123 08:09:15.239883 81047 net.cpp:140] Creating Layer inception_5a/output
I0123 08:09:15.239887 81047 net.cpp:481] inception_5a/output <- inception_5a/1x1
I0123 08:09:15.239892 81047 net.cpp:481] inception_5a/output <- inception_5a/3x3
I0123 08:09:15.239897 81047 net.cpp:455] inception_5a/output -> inception_5a/output
I0123 08:09:15.239914 81047 net.cpp:190] Setting up inception_5a/output
I0123 08:09:15.239919 81047 net.cpp:197] Top shape: 10 130 16 16 (332800)
I0123 08:09:15.239923 81047 net.cpp:205] Memory required for data: 42864680
I0123 08:09:15.239925 81047 layer_factory.hpp:123] Creating layer inception_5a/output_fixed
I0123 08:09:15.239929 81047 net.cpp:140] Creating Layer inception_5a/output_fixed
I0123 08:09:15.239933 81047 net.cpp:481] inception_5a/output_fixed <- inception_5a/output
I0123 08:09:15.239938 81047 net.cpp:442] inception_5a/output_fixed -> inception_5a/output (in-place)
I0123 08:09:15.239989 81047 net.cpp:190] Setting up inception_5a/output_fixed
I0123 08:09:15.239994 81047 net.cpp:197] Top shape: 10 130 16 16 (332800)
I0123 08:09:15.239996 81047 net.cpp:205] Memory required for data: 44195880
I0123 08:09:15.240000 81047 layer_factory.hpp:123] Creating layer inception_5a/output_inception_5a/output_fixed_0_split
I0123 08:09:15.240007 81047 net.cpp:140] Creating Layer inception_5a/output_inception_5a/output_fixed_0_split
I0123 08:09:15.240010 81047 net.cpp:481] inception_5a/output_inception_5a/output_fixed_0_split <- inception_5a/output
I0123 08:09:15.240015 81047 net.cpp:455] inception_5a/output_inception_5a/output_fixed_0_split -> inception_5a/output_inception_5a/output_fixed_0_split_0
I0123 08:09:15.240021 81047 net.cpp:455] inception_5a/output_inception_5a/output_fixed_0_split -> inception_5a/output_inception_5a/output_fixed_0_split_1
I0123 08:09:15.240047 81047 net.cpp:190] Setting up inception_5a/output_inception_5a/output_fixed_0_split
I0123 08:09:15.240052 81047 net.cpp:197] Top shape: 10 130 16 16 (332800)
I0123 08:09:15.240056 81047 net.cpp:197] Top shape: 10 130 16 16 (332800)
I0123 08:09:15.240057 81047 net.cpp:205] Memory required for data: 46858280
I0123 08:09:15.240061 81047 layer_factory.hpp:123] Creating layer inception_6a/1x1
I0123 08:09:15.240067 81047 net.cpp:140] Creating Layer inception_6a/1x1
I0123 08:09:15.240069 81047 net.cpp:481] inception_6a/1x1 <- inception_5a/output_inception_5a/output_fixed_0_split_0
I0123 08:09:15.240075 81047 net.cpp:455] inception_6a/1x1 -> inception_6a/1x1
I0123 08:09:15.240285 81047 layer_factory.hpp:123] Creating layer inception_6a/1x1
I0123 08:09:15.240592 81047 net.cpp:190] Setting up inception_6a/1x1
I0123 08:09:15.240598 81047 net.cpp:197] Top shape: 10 88 16 16 (225280)
I0123 08:09:15.240600 81047 net.cpp:205] Memory required for data: 47759400
I0123 08:09:15.240605 81047 layer_factory.hpp:123] Creating layer inception_6a/1x1/relu1
I0123 08:09:15.240609 81047 net.cpp:140] Creating Layer inception_6a/1x1/relu1
I0123 08:09:15.240613 81047 net.cpp:481] inception_6a/1x1/relu1 <- inception_6a/1x1
I0123 08:09:15.240619 81047 net.cpp:442] inception_6a/1x1/relu1 -> inception_6a/1x1 (in-place)
I0123 08:09:15.240628 81047 net.cpp:190] Setting up inception_6a/1x1/relu1
I0123 08:09:15.240633 81047 net.cpp:197] Top shape: 10 88 16 16 (225280)
I0123 08:09:15.240635 81047 net.cpp:205] Memory required for data: 48660520
I0123 08:09:15.240639 81047 layer_factory.hpp:123] Creating layer inception_6a/3x3
I0123 08:09:15.240649 81047 net.cpp:140] Creating Layer inception_6a/3x3
I0123 08:09:15.240655 81047 net.cpp:481] inception_6a/3x3 <- inception_5a/output_inception_5a/output_fixed_0_split_1
I0123 08:09:15.240661 81047 net.cpp:455] inception_6a/3x3 -> inception_6a/3x3
I0123 08:09:15.241796 81047 layer_factory.hpp:123] Creating layer inception_6a/3x3
I0123 08:09:15.242429 81047 net.cpp:190] Setting up inception_6a/3x3
I0123 08:09:15.242439 81047 net.cpp:197] Top shape: 10 58 16 16 (148480)
I0123 08:09:15.242441 81047 net.cpp:205] Memory required for data: 49254440
I0123 08:09:15.242446 81047 layer_factory.hpp:123] Creating layer inception_6a/3x3/relu1
I0123 08:09:15.242451 81047 net.cpp:140] Creating Layer inception_6a/3x3/relu1
I0123 08:09:15.242456 81047 net.cpp:481] inception_6a/3x3/relu1 <- inception_6a/3x3
I0123 08:09:15.242463 81047 net.cpp:442] inception_6a/3x3/relu1 -> inception_6a/3x3 (in-place)
I0123 08:09:15.242475 81047 net.cpp:190] Setting up inception_6a/3x3/relu1
I0123 08:09:15.242480 81047 net.cpp:197] Top shape: 10 58 16 16 (148480)
I0123 08:09:15.242482 81047 net.cpp:205] Memory required for data: 49848360
I0123 08:09:15.242486 81047 layer_factory.hpp:123] Creating layer inception_6a/output
I0123 08:09:15.242492 81047 net.cpp:140] Creating Layer inception_6a/output
I0123 08:09:15.242496 81047 net.cpp:481] inception_6a/output <- inception_6a/1x1
I0123 08:09:15.242501 81047 net.cpp:481] inception_6a/output <- inception_6a/3x3
I0123 08:09:15.242506 81047 net.cpp:455] inception_6a/output -> inception_6a/output
I0123 08:09:15.242524 81047 net.cpp:190] Setting up inception_6a/output
I0123 08:09:15.242529 81047 net.cpp:197] Top shape: 10 146 16 16 (373760)
I0123 08:09:15.242532 81047 net.cpp:205] Memory required for data: 51343400
I0123 08:09:15.242534 81047 layer_factory.hpp:123] Creating layer inception_6a/output_fixed
I0123 08:09:15.242539 81047 net.cpp:140] Creating Layer inception_6a/output_fixed
I0123 08:09:15.242542 81047 net.cpp:481] inception_6a/output_fixed <- inception_6a/output
I0123 08:09:15.242547 81047 net.cpp:442] inception_6a/output_fixed -> inception_6a/output (in-place)
I0123 08:09:15.242599 81047 net.cpp:190] Setting up inception_6a/output_fixed
I0123 08:09:15.242604 81047 net.cpp:197] Top shape: 10 146 16 16 (373760)
I0123 08:09:15.242606 81047 net.cpp:205] Memory required for data: 52838440
I0123 08:09:15.242609 81047 layer_factory.hpp:123] Creating layer inception_6a/output_inception_6a/output_fixed_0_split
I0123 08:09:15.242615 81047 net.cpp:140] Creating Layer inception_6a/output_inception_6a/output_fixed_0_split
I0123 08:09:15.242619 81047 net.cpp:481] inception_6a/output_inception_6a/output_fixed_0_split <- inception_6a/output
I0123 08:09:15.242622 81047 net.cpp:455] inception_6a/output_inception_6a/output_fixed_0_split -> inception_6a/output_inception_6a/output_fixed_0_split_0
I0123 08:09:15.242628 81047 net.cpp:455] inception_6a/output_inception_6a/output_fixed_0_split -> inception_6a/output_inception_6a/output_fixed_0_split_1
I0123 08:09:15.242655 81047 net.cpp:190] Setting up inception_6a/output_inception_6a/output_fixed_0_split
I0123 08:09:15.242660 81047 net.cpp:197] Top shape: 10 146 16 16 (373760)
I0123 08:09:15.242663 81047 net.cpp:197] Top shape: 10 146 16 16 (373760)
I0123 08:09:15.242666 81047 net.cpp:205] Memory required for data: 55828520
I0123 08:09:15.242667 81047 layer_factory.hpp:123] Creating layer inception_7a/1x1
I0123 08:09:15.242676 81047 net.cpp:140] Creating Layer inception_7a/1x1
I0123 08:09:15.242678 81047 net.cpp:481] inception_7a/1x1 <- inception_6a/output_inception_6a/output_fixed_0_split_0
I0123 08:09:15.242683 81047 net.cpp:455] inception_7a/1x1 -> inception_7a/1x1
I0123 08:09:15.242883 81047 layer_factory.hpp:123] Creating layer inception_7a/1x1
I0123 08:09:15.243177 81047 net.cpp:190] Setting up inception_7a/1x1
I0123 08:09:15.243183 81047 net.cpp:197] Top shape: 10 56 16 16 (143360)
I0123 08:09:15.243186 81047 net.cpp:205] Memory required for data: 56401960
I0123 08:09:15.243191 81047 layer_factory.hpp:123] Creating layer inception_7a/1x1/relu1
I0123 08:09:15.243196 81047 net.cpp:140] Creating Layer inception_7a/1x1/relu1
I0123 08:09:15.243201 81047 net.cpp:481] inception_7a/1x1/relu1 <- inception_7a/1x1
I0123 08:09:15.243206 81047 net.cpp:442] inception_7a/1x1/relu1 -> inception_7a/1x1 (in-place)
I0123 08:09:15.243216 81047 net.cpp:190] Setting up inception_7a/1x1/relu1
I0123 08:09:15.243221 81047 net.cpp:197] Top shape: 10 56 16 16 (143360)
I0123 08:09:15.243223 81047 net.cpp:205] Memory required for data: 56975400
I0123 08:09:15.243227 81047 layer_factory.hpp:123] Creating layer inception_7a/3x3
I0123 08:09:15.243235 81047 net.cpp:140] Creating Layer inception_7a/3x3
I0123 08:09:15.243242 81047 net.cpp:481] inception_7a/3x3 <- inception_6a/output_inception_6a/output_fixed_0_split_1
I0123 08:09:15.243249 81047 net.cpp:455] inception_7a/3x3 -> inception_7a/3x3
I0123 08:09:15.243957 81047 layer_factory.hpp:123] Creating layer inception_7a/3x3
I0123 08:09:15.245393 81047 net.cpp:190] Setting up inception_7a/3x3
I0123 08:09:15.245404 81047 net.cpp:197] Top shape: 10 80 16 16 (204800)
I0123 08:09:15.245405 81047 net.cpp:205] Memory required for data: 57794600
I0123 08:09:15.245411 81047 layer_factory.hpp:123] Creating layer inception_7a/3x3/relu1
I0123 08:09:15.245416 81047 net.cpp:140] Creating Layer inception_7a/3x3/relu1
I0123 08:09:15.245421 81047 net.cpp:481] inception_7a/3x3/relu1 <- inception_7a/3x3
I0123 08:09:15.245429 81047 net.cpp:442] inception_7a/3x3/relu1 -> inception_7a/3x3 (in-place)
I0123 08:09:15.245438 81047 net.cpp:190] Setting up inception_7a/3x3/relu1
I0123 08:09:15.245441 81047 net.cpp:197] Top shape: 10 80 16 16 (204800)
I0123 08:09:15.245445 81047 net.cpp:205] Memory required for data: 58613800
I0123 08:09:15.245447 81047 layer_factory.hpp:123] Creating layer inception_7a/output
I0123 08:09:15.245451 81047 net.cpp:140] Creating Layer inception_7a/output
I0123 08:09:15.245455 81047 net.cpp:481] inception_7a/output <- inception_7a/1x1
I0123 08:09:15.245458 81047 net.cpp:481] inception_7a/output <- inception_7a/3x3
I0123 08:09:15.245462 81047 net.cpp:455] inception_7a/output -> inception_7a/output
I0123 08:09:15.245479 81047 net.cpp:190] Setting up inception_7a/output
I0123 08:09:15.245486 81047 net.cpp:197] Top shape: 10 136 16 16 (348160)
I0123 08:09:15.245487 81047 net.cpp:205] Memory required for data: 60006440
I0123 08:09:15.245491 81047 layer_factory.hpp:123] Creating layer inception_7a/output_fixed
I0123 08:09:15.245494 81047 net.cpp:140] Creating Layer inception_7a/output_fixed
I0123 08:09:15.245497 81047 net.cpp:481] inception_7a/output_fixed <- inception_7a/output
I0123 08:09:15.245501 81047 net.cpp:442] inception_7a/output_fixed -> inception_7a/output (in-place)
I0123 08:09:15.245527 81047 net.cpp:190] Setting up inception_7a/output_fixed
I0123 08:09:15.245532 81047 net.cpp:197] Top shape: 10 136 16 16 (348160)
I0123 08:09:15.245534 81047 net.cpp:205] Memory required for data: 61399080
I0123 08:09:15.245538 81047 layer_factory.hpp:123] Creating layer inception_7a/output_inception_7a/output_fixed_0_split
I0123 08:09:15.245543 81047 net.cpp:140] Creating Layer inception_7a/output_inception_7a/output_fixed_0_split
I0123 08:09:15.245544 81047 net.cpp:481] inception_7a/output_inception_7a/output_fixed_0_split <- inception_7a/output
I0123 08:09:15.245549 81047 net.cpp:455] inception_7a/output_inception_7a/output_fixed_0_split -> inception_7a/output_inception_7a/output_fixed_0_split_0
I0123 08:09:15.245555 81047 net.cpp:455] inception_7a/output_inception_7a/output_fixed_0_split -> inception_7a/output_inception_7a/output_fixed_0_split_1
I0123 08:09:15.245584 81047 net.cpp:190] Setting up inception_7a/output_inception_7a/output_fixed_0_split
I0123 08:09:15.245589 81047 net.cpp:197] Top shape: 10 136 16 16 (348160)
I0123 08:09:15.245592 81047 net.cpp:197] Top shape: 10 136 16 16 (348160)
I0123 08:09:15.245595 81047 net.cpp:205] Memory required for data: 64184360
I0123 08:09:15.245597 81047 layer_factory.hpp:123] Creating layer inception_8a/1x1
I0123 08:09:15.245605 81047 net.cpp:140] Creating Layer inception_8a/1x1
I0123 08:09:15.245609 81047 net.cpp:481] inception_8a/1x1 <- inception_7a/output_inception_7a/output_fixed_0_split_0
I0123 08:09:15.245616 81047 net.cpp:455] inception_8a/1x1 -> inception_8a/1x1
I0123 08:09:15.245807 81047 layer_factory.hpp:123] Creating layer inception_8a/1x1
I0123 08:09:15.246091 81047 net.cpp:190] Setting up inception_8a/1x1
I0123 08:09:15.246098 81047 net.cpp:197] Top shape: 10 40 16 16 (102400)
I0123 08:09:15.246101 81047 net.cpp:205] Memory required for data: 64593960
I0123 08:09:15.246109 81047 layer_factory.hpp:123] Creating layer inception_8a/1x1/relu1
I0123 08:09:15.246112 81047 net.cpp:140] Creating Layer inception_8a/1x1/relu1
I0123 08:09:15.246115 81047 net.cpp:481] inception_8a/1x1/relu1 <- inception_8a/1x1
I0123 08:09:15.246120 81047 net.cpp:442] inception_8a/1x1/relu1 -> inception_8a/1x1 (in-place)
I0123 08:09:15.246125 81047 net.cpp:190] Setting up inception_8a/1x1/relu1
I0123 08:09:15.246131 81047 net.cpp:197] Top shape: 10 40 16 16 (102400)
I0123 08:09:15.246134 81047 net.cpp:205] Memory required for data: 65003560
I0123 08:09:15.246136 81047 layer_factory.hpp:123] Creating layer inception_8a/3x3
I0123 08:09:15.246143 81047 net.cpp:140] Creating Layer inception_8a/3x3
I0123 08:09:15.246145 81047 net.cpp:481] inception_8a/3x3 <- inception_7a/output_inception_7a/output_fixed_0_split_1
I0123 08:09:15.246152 81047 net.cpp:455] inception_8a/3x3 -> inception_8a/3x3
I0123 08:09:15.246927 81047 layer_factory.hpp:123] Creating layer inception_8a/3x3
I0123 08:09:15.248421 81047 net.cpp:190] Setting up inception_8a/3x3
I0123 08:09:15.248432 81047 net.cpp:197] Top shape: 10 96 16 16 (245760)
I0123 08:09:15.248435 81047 net.cpp:205] Memory required for data: 65986600
I0123 08:09:15.248440 81047 layer_factory.hpp:123] Creating layer inception_8a/3x3/relu1
I0123 08:09:15.248446 81047 net.cpp:140] Creating Layer inception_8a/3x3/relu1
I0123 08:09:15.248450 81047 net.cpp:481] inception_8a/3x3/relu1 <- inception_8a/3x3
I0123 08:09:15.248456 81047 net.cpp:442] inception_8a/3x3/relu1 -> inception_8a/3x3 (in-place)
I0123 08:09:15.248464 81047 net.cpp:190] Setting up inception_8a/3x3/relu1
I0123 08:09:15.248468 81047 net.cpp:197] Top shape: 10 96 16 16 (245760)
I0123 08:09:15.248471 81047 net.cpp:205] Memory required for data: 66969640
I0123 08:09:15.248473 81047 layer_factory.hpp:123] Creating layer inception_8a/output
I0123 08:09:15.248477 81047 net.cpp:140] Creating Layer inception_8a/output
I0123 08:09:15.248481 81047 net.cpp:481] inception_8a/output <- inception_8a/1x1
I0123 08:09:15.248483 81047 net.cpp:481] inception_8a/output <- inception_8a/3x3
I0123 08:09:15.248487 81047 net.cpp:455] inception_8a/output -> inception_8a/output
I0123 08:09:15.248502 81047 net.cpp:190] Setting up inception_8a/output
I0123 08:09:15.248507 81047 net.cpp:197] Top shape: 10 136 16 16 (348160)
I0123 08:09:15.248509 81047 net.cpp:205] Memory required for data: 68362280
I0123 08:09:15.248512 81047 layer_factory.hpp:123] Creating layer inception_8a/output_fixed
I0123 08:09:15.248517 81047 net.cpp:140] Creating Layer inception_8a/output_fixed
I0123 08:09:15.248518 81047 net.cpp:481] inception_8a/output_fixed <- inception_8a/output
I0123 08:09:15.248522 81047 net.cpp:442] inception_8a/output_fixed -> inception_8a/output (in-place)
I0123 08:09:15.248550 81047 net.cpp:190] Setting up inception_8a/output_fixed
I0123 08:09:15.248555 81047 net.cpp:197] Top shape: 10 136 16 16 (348160)
I0123 08:09:15.248558 81047 net.cpp:205] Memory required for data: 69754920
I0123 08:09:15.248561 81047 layer_factory.hpp:123] Creating layer inception_8a/output_inception_8a/output_fixed_0_split
I0123 08:09:15.248566 81047 net.cpp:140] Creating Layer inception_8a/output_inception_8a/output_fixed_0_split
I0123 08:09:15.248569 81047 net.cpp:481] inception_8a/output_inception_8a/output_fixed_0_split <- inception_8a/output
I0123 08:09:15.248574 81047 net.cpp:455] inception_8a/output_inception_8a/output_fixed_0_split -> inception_8a/output_inception_8a/output_fixed_0_split_0
I0123 08:09:15.248581 81047 net.cpp:455] inception_8a/output_inception_8a/output_fixed_0_split -> inception_8a/output_inception_8a/output_fixed_0_split_1
I0123 08:09:15.248612 81047 net.cpp:190] Setting up inception_8a/output_inception_8a/output_fixed_0_split
I0123 08:09:15.248617 81047 net.cpp:197] Top shape: 10 136 16 16 (348160)
I0123 08:09:15.248620 81047 net.cpp:197] Top shape: 10 136 16 16 (348160)
I0123 08:09:15.248622 81047 net.cpp:205] Memory required for data: 72540200
I0123 08:09:15.248625 81047 layer_factory.hpp:123] Creating layer downsample_9/3x3_s2
I0123 08:09:15.248633 81047 net.cpp:140] Creating Layer downsample_9/3x3_s2
I0123 08:09:15.248636 81047 net.cpp:481] downsample_9/3x3_s2 <- inception_8a/output_inception_8a/output_fixed_0_split_0
I0123 08:09:15.248641 81047 net.cpp:455] downsample_9/3x3_s2 -> downsample_9/3x3_s2
I0123 08:09:15.249300 81047 layer_factory.hpp:123] Creating layer downsample_9/3x3_s2
I0123 08:09:15.250741 81047 net.cpp:190] Setting up downsample_9/3x3_s2
I0123 08:09:15.250753 81047 net.cpp:197] Top shape: 10 78 8 8 (49920)
I0123 08:09:15.250756 81047 net.cpp:205] Memory required for data: 72739880
I0123 08:09:15.250761 81047 layer_factory.hpp:123] Creating layer downsample_9/3x3_s2/relu1
I0123 08:09:15.250768 81047 net.cpp:140] Creating Layer downsample_9/3x3_s2/relu1
I0123 08:09:15.250772 81047 net.cpp:481] downsample_9/3x3_s2/relu1 <- downsample_9/3x3_s2
I0123 08:09:15.250779 81047 net.cpp:442] downsample_9/3x3_s2/relu1 -> downsample_9/3x3_s2 (in-place)
I0123 08:09:15.250789 81047 net.cpp:190] Setting up downsample_9/3x3_s2/relu1
I0123 08:09:15.250797 81047 net.cpp:197] Top shape: 10 78 8 8 (49920)
I0123 08:09:15.250800 81047 net.cpp:205] Memory required for data: 72939560
I0123 08:09:15.250803 81047 layer_factory.hpp:123] Creating layer downsample_9/pool_s2
I0123 08:09:15.250808 81047 net.cpp:140] Creating Layer downsample_9/pool_s2
I0123 08:09:15.250813 81047 net.cpp:481] downsample_9/pool_s2 <- inception_8a/output_inception_8a/output_fixed_0_split_1
I0123 08:09:15.250818 81047 net.cpp:455] downsample_9/pool_s2 -> downsample_9/pool_s2
I0123 08:09:15.250849 81047 net.cpp:190] Setting up downsample_9/pool_s2
I0123 08:09:15.250855 81047 net.cpp:197] Top shape: 10 136 8 8 (87040)
I0123 08:09:15.250859 81047 net.cpp:205] Memory required for data: 73287720
I0123 08:09:15.250860 81047 layer_factory.hpp:123] Creating layer downsample_9/output
I0123 08:09:15.250865 81047 net.cpp:140] Creating Layer downsample_9/output
I0123 08:09:15.250867 81047 net.cpp:481] downsample_9/output <- downsample_9/3x3_s2
I0123 08:09:15.250871 81047 net.cpp:481] downsample_9/output <- downsample_9/pool_s2
I0123 08:09:15.250876 81047 net.cpp:455] downsample_9/output -> downsample_9/output
I0123 08:09:15.250895 81047 net.cpp:190] Setting up downsample_9/output
I0123 08:09:15.250900 81047 net.cpp:197] Top shape: 10 214 8 8 (136960)
I0123 08:09:15.250903 81047 net.cpp:205] Memory required for data: 73835560
I0123 08:09:15.250906 81047 layer_factory.hpp:123] Creating layer downsample_9/output_fixed
I0123 08:09:15.250910 81047 net.cpp:140] Creating Layer downsample_9/output_fixed
I0123 08:09:15.250913 81047 net.cpp:481] downsample_9/output_fixed <- downsample_9/output
I0123 08:09:15.250919 81047 net.cpp:442] downsample_9/output_fixed -> downsample_9/output (in-place)
I0123 08:09:15.250948 81047 net.cpp:190] Setting up downsample_9/output_fixed
I0123 08:09:15.250953 81047 net.cpp:197] Top shape: 10 214 8 8 (136960)
I0123 08:09:15.250955 81047 net.cpp:205] Memory required for data: 74383400
I0123 08:09:15.250959 81047 layer_factory.hpp:123] Creating layer downsample_9/output_downsample_9/output_fixed_0_split
I0123 08:09:15.250964 81047 net.cpp:140] Creating Layer downsample_9/output_downsample_9/output_fixed_0_split
I0123 08:09:15.250967 81047 net.cpp:481] downsample_9/output_downsample_9/output_fixed_0_split <- downsample_9/output
I0123 08:09:15.250972 81047 net.cpp:455] downsample_9/output_downsample_9/output_fixed_0_split -> downsample_9/output_downsample_9/output_fixed_0_split_0
I0123 08:09:15.250977 81047 net.cpp:455] downsample_9/output_downsample_9/output_fixed_0_split -> downsample_9/output_downsample_9/output_fixed_0_split_1
I0123 08:09:15.251018 81047 net.cpp:190] Setting up downsample_9/output_downsample_9/output_fixed_0_split
I0123 08:09:15.251022 81047 net.cpp:197] Top shape: 10 214 8 8 (136960)
I0123 08:09:15.251025 81047 net.cpp:197] Top shape: 10 214 8 8 (136960)
I0123 08:09:15.251029 81047 net.cpp:205] Memory required for data: 75479080
I0123 08:09:15.251030 81047 layer_factory.hpp:123] Creating layer inception_10a/1x1
I0123 08:09:15.251039 81047 net.cpp:140] Creating Layer inception_10a/1x1
I0123 08:09:15.251042 81047 net.cpp:481] inception_10a/1x1 <- downsample_9/output_downsample_9/output_fixed_0_split_0
I0123 08:09:15.251049 81047 net.cpp:455] inception_10a/1x1 -> inception_10a/1x1
I0123 08:09:15.251829 81047 layer_factory.hpp:123] Creating layer inception_10a/1x1
I0123 08:09:15.252115 81047 net.cpp:190] Setting up inception_10a/1x1
I0123 08:09:15.252121 81047 net.cpp:197] Top shape: 10 18 8 8 (11520)
I0123 08:09:15.252125 81047 net.cpp:205] Memory required for data: 75525160
I0123 08:09:15.252130 81047 layer_factory.hpp:123] Creating layer inception_10a/1x1/relu1
I0123 08:09:15.252135 81047 net.cpp:140] Creating Layer inception_10a/1x1/relu1
I0123 08:09:15.252137 81047 net.cpp:481] inception_10a/1x1/relu1 <- inception_10a/1x1
I0123 08:09:15.252141 81047 net.cpp:442] inception_10a/1x1/relu1 -> inception_10a/1x1 (in-place)
I0123 08:09:15.252147 81047 net.cpp:190] Setting up inception_10a/1x1/relu1
I0123 08:09:15.252151 81047 net.cpp:197] Top shape: 10 18 8 8 (11520)
I0123 08:09:15.252153 81047 net.cpp:205] Memory required for data: 75571240
I0123 08:09:15.252156 81047 layer_factory.hpp:123] Creating layer inception_10a/3x3
I0123 08:09:15.252163 81047 net.cpp:140] Creating Layer inception_10a/3x3
I0123 08:09:15.252168 81047 net.cpp:481] inception_10a/3x3 <- downsample_9/output_downsample_9/output_fixed_0_split_1
I0123 08:09:15.252173 81047 net.cpp:455] inception_10a/3x3 -> inception_10a/3x3
I0123 08:09:15.254336 81047 layer_factory.hpp:123] Creating layer inception_10a/3x3
I0123 08:09:15.257192 81047 net.cpp:190] Setting up inception_10a/3x3
I0123 08:09:15.257205 81047 net.cpp:197] Top shape: 10 144 8 8 (92160)
I0123 08:09:15.257207 81047 net.cpp:205] Memory required for data: 75939880
I0123 08:09:15.257213 81047 layer_factory.hpp:123] Creating layer inception_10a/3x3/relu1
I0123 08:09:15.257218 81047 net.cpp:140] Creating Layer inception_10a/3x3/relu1
I0123 08:09:15.257222 81047 net.cpp:481] inception_10a/3x3/relu1 <- inception_10a/3x3
I0123 08:09:15.257227 81047 net.cpp:442] inception_10a/3x3/relu1 -> inception_10a/3x3 (in-place)
I0123 08:09:15.257234 81047 net.cpp:190] Setting up inception_10a/3x3/relu1
I0123 08:09:15.257237 81047 net.cpp:197] Top shape: 10 144 8 8 (92160)
I0123 08:09:15.257239 81047 net.cpp:205] Memory required for data: 76308520
I0123 08:09:15.257242 81047 layer_factory.hpp:123] Creating layer inception_10a/output
I0123 08:09:15.257248 81047 net.cpp:140] Creating Layer inception_10a/output
I0123 08:09:15.257251 81047 net.cpp:481] inception_10a/output <- inception_10a/1x1
I0123 08:09:15.257254 81047 net.cpp:481] inception_10a/output <- inception_10a/3x3
I0123 08:09:15.257259 81047 net.cpp:455] inception_10a/output -> inception_10a/output
I0123 08:09:15.257279 81047 net.cpp:190] Setting up inception_10a/output
I0123 08:09:15.257284 81047 net.cpp:197] Top shape: 10 162 8 8 (103680)
I0123 08:09:15.257287 81047 net.cpp:205] Memory required for data: 76723240
I0123 08:09:15.257289 81047 layer_factory.hpp:123] Creating layer inception_10a/output_fixed
I0123 08:09:15.257294 81047 net.cpp:140] Creating Layer inception_10a/output_fixed
I0123 08:09:15.257297 81047 net.cpp:481] inception_10a/output_fixed <- inception_10a/output
I0123 08:09:15.257302 81047 net.cpp:442] inception_10a/output_fixed -> inception_10a/output (in-place)
I0123 08:09:15.257328 81047 net.cpp:190] Setting up inception_10a/output_fixed
I0123 08:09:15.257333 81047 net.cpp:197] Top shape: 10 162 8 8 (103680)
I0123 08:09:15.257335 81047 net.cpp:205] Memory required for data: 77137960
I0123 08:09:15.257339 81047 layer_factory.hpp:123] Creating layer inception_10a/output_inception_10a/output_fixed_0_split
I0123 08:09:15.257342 81047 net.cpp:140] Creating Layer inception_10a/output_inception_10a/output_fixed_0_split
I0123 08:09:15.257345 81047 net.cpp:481] inception_10a/output_inception_10a/output_fixed_0_split <- inception_10a/output
I0123 08:09:15.257350 81047 net.cpp:455] inception_10a/output_inception_10a/output_fixed_0_split -> inception_10a/output_inception_10a/output_fixed_0_split_0
I0123 08:09:15.257356 81047 net.cpp:455] inception_10a/output_inception_10a/output_fixed_0_split -> inception_10a/output_inception_10a/output_fixed_0_split_1
I0123 08:09:15.257385 81047 net.cpp:190] Setting up inception_10a/output_inception_10a/output_fixed_0_split
I0123 08:09:15.257391 81047 net.cpp:197] Top shape: 10 162 8 8 (103680)
I0123 08:09:15.257395 81047 net.cpp:197] Top shape: 10 162 8 8 (103680)
I0123 08:09:15.257397 81047 net.cpp:205] Memory required for data: 77967400
I0123 08:09:15.257400 81047 layer_factory.hpp:123] Creating layer inception_11a/1x1
I0123 08:09:15.257409 81047 net.cpp:140] Creating Layer inception_11a/1x1
I0123 08:09:15.257414 81047 net.cpp:481] inception_11a/1x1 <- inception_10a/output_inception_10a/output_fixed_0_split_0
I0123 08:09:15.257421 81047 net.cpp:455] inception_11a/1x1 -> inception_11a/1x1
I0123 08:09:15.257673 81047 layer_factory.hpp:123] Creating layer inception_11a/1x1
I0123 08:09:15.258033 81047 net.cpp:190] Setting up inception_11a/1x1
I0123 08:09:15.258039 81047 net.cpp:197] Top shape: 10 106 8 8 (67840)
I0123 08:09:15.258042 81047 net.cpp:205] Memory required for data: 78238760
I0123 08:09:15.258047 81047 layer_factory.hpp:123] Creating layer inception_11a/1x1/relu1
I0123 08:09:15.258051 81047 net.cpp:140] Creating Layer inception_11a/1x1/relu1
I0123 08:09:15.258054 81047 net.cpp:481] inception_11a/1x1/relu1 <- inception_11a/1x1
I0123 08:09:15.258059 81047 net.cpp:442] inception_11a/1x1/relu1 -> inception_11a/1x1 (in-place)
I0123 08:09:15.258064 81047 net.cpp:190] Setting up inception_11a/1x1/relu1
I0123 08:09:15.258067 81047 net.cpp:197] Top shape: 10 106 8 8 (67840)
I0123 08:09:15.258070 81047 net.cpp:205] Memory required for data: 78510120
I0123 08:09:15.258074 81047 layer_factory.hpp:123] Creating layer inception_11a/3x3
I0123 08:09:15.258083 81047 net.cpp:140] Creating Layer inception_11a/3x3
I0123 08:09:15.258090 81047 net.cpp:481] inception_11a/3x3 <- inception_10a/output_inception_10a/output_fixed_0_split_1
I0123 08:09:15.258095 81047 net.cpp:455] inception_11a/3x3 -> inception_11a/3x3
I0123 08:09:15.259325 81047 layer_factory.hpp:123] Creating layer inception_11a/3x3
I0123 08:09:15.261220 81047 net.cpp:190] Setting up inception_11a/3x3
I0123 08:09:15.261231 81047 net.cpp:197] Top shape: 10 144 8 8 (92160)
I0123 08:09:15.261234 81047 net.cpp:205] Memory required for data: 78878760
I0123 08:09:15.261237 81047 layer_factory.hpp:123] Creating layer inception_11a/3x3/relu1
I0123 08:09:15.261242 81047 net.cpp:140] Creating Layer inception_11a/3x3/relu1
I0123 08:09:15.261247 81047 net.cpp:481] inception_11a/3x3/relu1 <- inception_11a/3x3
I0123 08:09:15.261262 81047 net.cpp:442] inception_11a/3x3/relu1 -> inception_11a/3x3 (in-place)
I0123 08:09:15.261273 81047 net.cpp:190] Setting up inception_11a/3x3/relu1
I0123 08:09:15.261281 81047 net.cpp:197] Top shape: 10 144 8 8 (92160)
I0123 08:09:15.261283 81047 net.cpp:205] Memory required for data: 79247400
I0123 08:09:15.261286 81047 layer_factory.hpp:123] Creating layer inception_11a/output
I0123 08:09:15.261291 81047 net.cpp:140] Creating Layer inception_11a/output
I0123 08:09:15.261294 81047 net.cpp:481] inception_11a/output <- inception_11a/1x1
I0123 08:09:15.261299 81047 net.cpp:481] inception_11a/output <- inception_11a/3x3
I0123 08:09:15.261304 81047 net.cpp:455] inception_11a/output -> inception_11a/output
I0123 08:09:15.261322 81047 net.cpp:190] Setting up inception_11a/output
I0123 08:09:15.261327 81047 net.cpp:197] Top shape: 10 250 8 8 (160000)
I0123 08:09:15.261330 81047 net.cpp:205] Memory required for data: 79887400
I0123 08:09:15.261332 81047 layer_factory.hpp:123] Creating layer inception_11a/output_fixed
I0123 08:09:15.261337 81047 net.cpp:140] Creating Layer inception_11a/output_fixed
I0123 08:09:15.261340 81047 net.cpp:481] inception_11a/output_fixed <- inception_11a/output
I0123 08:09:15.261344 81047 net.cpp:442] inception_11a/output_fixed -> inception_11a/output (in-place)
I0123 08:09:15.261370 81047 net.cpp:190] Setting up inception_11a/output_fixed
I0123 08:09:15.261375 81047 net.cpp:197] Top shape: 10 250 8 8 (160000)
I0123 08:09:15.261377 81047 net.cpp:205] Memory required for data: 80527400
I0123 08:09:15.261381 81047 layer_factory.hpp:123] Creating layer avg_pool_12/8x8_s1
I0123 08:09:15.261387 81047 net.cpp:140] Creating Layer avg_pool_12/8x8_s1
I0123 08:09:15.261389 81047 net.cpp:481] avg_pool_12/8x8_s1 <- inception_11a/output
I0123 08:09:15.261394 81047 net.cpp:455] avg_pool_12/8x8_s1 -> avg_pool_12/8x8_s1
I0123 08:09:15.261416 81047 net.cpp:190] Setting up avg_pool_12/8x8_s1
I0123 08:09:15.261421 81047 net.cpp:197] Top shape: 10 250 1 1 (2500)
I0123 08:09:15.261425 81047 net.cpp:205] Memory required for data: 80537400
I0123 08:09:15.261426 81047 layer_factory.hpp:123] Creating layer avg_pool_12/8x8_s1_fixed
I0123 08:09:15.261430 81047 net.cpp:140] Creating Layer avg_pool_12/8x8_s1_fixed
I0123 08:09:15.261432 81047 net.cpp:481] avg_pool_12/8x8_s1_fixed <- avg_pool_12/8x8_s1
I0123 08:09:15.261436 81047 net.cpp:442] avg_pool_12/8x8_s1_fixed -> avg_pool_12/8x8_s1 (in-place)
I0123 08:09:15.261466 81047 net.cpp:190] Setting up avg_pool_12/8x8_s1_fixed
I0123 08:09:15.261471 81047 net.cpp:197] Top shape: 10 250 1 1 (2500)
I0123 08:09:15.261473 81047 net.cpp:205] Memory required for data: 80547400
I0123 08:09:15.261476 81047 layer_factory.hpp:123] Creating layer loss/classifier
I0123 08:09:15.261483 81047 net.cpp:140] Creating Layer loss/classifier
I0123 08:09:15.261487 81047 net.cpp:481] loss/classifier <- avg_pool_12/8x8_s1
I0123 08:09:15.261493 81047 net.cpp:455] loss/classifier -> loss/classifier
I0123 08:09:15.261600 81047 layer_factory.hpp:123] Creating layer loss/classifier
I0123 08:09:15.261736 81047 net.cpp:190] Setting up loss/classifier
I0123 08:09:15.261742 81047 net.cpp:197] Top shape: 10 10 (100)
I0123 08:09:15.261744 81047 net.cpp:205] Memory required for data: 80547800
I0123 08:09:15.261749 81047 layer_factory.hpp:123] Creating layer loss/classifier_fixed
I0123 08:09:15.261754 81047 net.cpp:140] Creating Layer loss/classifier_fixed
I0123 08:09:15.261757 81047 net.cpp:481] loss/classifier_fixed <- loss/classifier
I0123 08:09:15.261763 81047 net.cpp:442] loss/classifier_fixed -> loss/classifier (in-place)
I0123 08:09:15.261792 81047 net.cpp:190] Setting up loss/classifier_fixed
I0123 08:09:15.261798 81047 net.cpp:197] Top shape: 10 10 (100)
I0123 08:09:15.261801 81047 net.cpp:205] Memory required for data: 80548200
I0123 08:09:15.261803 81047 layer_factory.hpp:123] Creating layer loss
I0123 08:09:15.261808 81047 net.cpp:140] Creating Layer loss
I0123 08:09:15.261811 81047 net.cpp:481] loss <- loss/classifier
I0123 08:09:15.261816 81047 net.cpp:481] loss <- label
I0123 08:09:15.261821 81047 net.cpp:455] loss -> loss
I0123 08:09:15.261831 81047 layer_factory.hpp:123] Creating layer loss
…
I0123 08:09:16.488577 81047 net_test.cpp:369] Net type: other
I0123 08:09:16.488679 81047 net.cpp:369] The NetState phase (1) differed from the phase (0) specified by a rule in layer data
I0123 08:09:16.489192 81047 net.cpp:98] Initializing net from parameters: 
layer {
  name: "data"
  type: "Data"
  top: "data"
  top: "label"
  include {
    phase: TEST
  }
  transform_param {
    mirror: false
    mean_value: 104
    mean_value: 117
    mean_value: 123
  }
  data_param {
    source: "cifar10/input/lmdb/valid_lmdb"
    batch_size: 50
    backend: LMDB
  }
}
layer {
  name: "data_fixed"
  type: "FixedNeuron"
  bottom: "data"
  top: "data"
  param {
    lr_mult: 0
    decay_mult: 0
  }
  fixed_param {
    fixed_method: OVER_FLOW
    bit_width: 8
    follow_data_layer: true
  }
}
layer {
  name: "conv1/3x3_s1"
  type: "ConvolutionFixed"
  bottom: "data"
  top: "conv1/3x3_s1"
  param {
    lr_mult: 1
    decay_mult: 1
  }
  param {
    lr_mult: 1
    decay_mult: 0
  }
  convolution_param {
    num_output: 30
    bias_term: true
    pad: 1
    kernel_size: 3
    stride: 1
    weight_filler {
      type: "xavier"
      std: 0.1
    }
    bias_filler {
      type: "constant"
      value: 0.2
    }
  }
  fixed_param {
    fixed_method: DIFF_S
    bit_width: 8
  }
}
layer {
  name: "conv1/relu1"
  type: "ReLU"
  bottom: "conv1/3x3_s1"
  top: "conv1/3x3_s1"
}
layer {
  name: "conv1/3x3_s1_fixed"
  type: "FixedNeuron"
  bottom: "conv1/3x3_s1"
  top: "conv1/3x3_s1"
  param {
    lr_mult: 0
    decay_mult: 0
  }
  fixed_param {
    fixed_method: DIFF_S
    bit_width: 8
  }
}
layer {
  name: "inception_2a/1x1"
  type: "ConvolutionFixed"
  bottom: "conv1/3x3_s1"
  top: "inception_2a/1x1"
  param {
    lr_mult: 1
    decay_mult: 1
  }
  param {
    lr_mult: 1
    decay_mult: 0
  }
  convolution_param {
    num_output: 24
    bias_term: true
    kernel_size: 1
    weight_filler {
      type: "xavier"
      std: 0.03
    }
    bias_filler {
      type: "constant"
      value: 0.2
    }
  }
  fixed_param {
    fixed_method: DIFF_S
    bit_width: 8
  }
}
layer {
  name: "inception_2a/1x1/relu1"
  type: "ReLU"
  bottom: "inception_2a/1x1"
  top: "inception_2a/1x1"
}
layer {
  name: "inception_2a/3x3"
  type: "ConvolutionFixed"
  bottom: "conv1/3x3_s1"
  top: "inception_2a/3x3"
  param {
    lr_mult: 1
    decay_mult: 1
  }
  param {
    lr_mult: 1
    decay_mult: 0
  }
  convolution_param {
    num_output: 20
    bias_term: true
    pad: 1
    kernel_size: 3
    weight_filler {
      type: "xavier"
      std: 0.03
    }
    bias_filler {
      type: "constant"
      value: 0.2
    }
  }
  fixed_param {
    fixed_method: DIFF_S
    bit_width: 8
  }
}
layer {
  name: "inception_2a/3x3/relu1"
  type: "ReLU"
  bottom: "inception_2a/3x3"
  top: "inception_2a/3x3"
}
layer {
  name: "inception_2a/output"
  type: "Concat"
  bottom: "inception_2a/1x1"
  bottom: "inception_2a/3x3"
  top: "inception_2a/output"
}
layer {
  name: "inception_2a/output_fixed"
  type: "FixedNeuron"
  bottom: "inception_2a/output"
  top: "inception_2a/output"
  param {
    lr_mult: 0
    decay_mult: 0
  }
  fixed_param {
    fixed_method: DIFF_S
    bit_width: 8
  }
}
layer {
  name: "inception_3a/1x1"
  type: "ConvolutionFixed"
  bottom: "inception_2a/output"
  top: "inception_3a/1x1"
  param {
    lr_mult: 1
    decay_mult: 1
  }
  param {
    lr_mult: 1
    decay_mult: 0
  }
  convolution_param {
    num_output: 20
    bias_term: true
    kernel_size: 1
    weight_filler {
      type: "xavier"
      std: 0.03
    }
    bias_filler {
      type: "constant"
      value: 0.2
    }
  }
  fixed_param {
    fixed_method: DIFF_S
    bit_width: 8
  }
}
layer {
  name: "inception_3a/1x1/relu1"
  type: "ReLU"
  bottom: "inception_3a/1x1"
  top: "inception_3a/1x1"
}
layer {
  name: "inception_3a/3x3"
  type: "ConvolutionFixed"
  bottom: "inception_2a/output"
  top: "inception_3a/3x3"
  param {
    lr_mult: 1
    decay_mult: 1
  }
  param {
    lr_mult: 1
    decay_mult: 0
  }
  convolution_param {
    num_output: 48
    bias_term: true
    pad: 1
    kernel_size: 3
    weight_filler {
      type: "xavier"
      std: 0.03
    }
    bias_filler {
      type: "constant"
      value: 0.2
    }
  }
  fixed_param {
    fixed_method: DIFF_S
    bit_width: 8
  }
}
layer {
  name: "inception_3a/3x3/relu1"
  type: "ReLU"
  bottom: "inception_3a/3x3"
  top: "inception_3a/3x3"
}
layer {
  name: "inception_3a/output"
  type: "Concat"
  bottom: "inception_3a/1x1"
  bottom: "inception_3a/3x3"
  top: "inception_3a/output"
}
layer {
  name: "inception_3a/output_fixed"
  type: "FixedNeuron"
  bottom: "inception_3a/output"
  top: "inception_3a/output"
  param {
    lr_mult: 0
    decay_mult: 0
  }
  fixed_param {
    fixed_method: DIFF_S
    bit_width: 8
  }
}
layer {
  name: "downsample_4/3x3_s2"
  type: "ConvolutionFixed"
  bottom: "inception_3a/output"
  top: "downsample_4/3x3_s2"
  param {
    lr_mult: 1
    decay_mult: 1
  }
  param {
    lr_mult: 1
    decay_mult: 0
  }
  convolution_param {
    num_output: 24
    bias_term: true
    pad: 1
    kernel_size: 3
    stride: 2
    weight_filler {
      type: "xavier"
      std: 0.03
    }
    bias_filler {
      type: "constant"
      value: 0.2
    }
  }
  fixed_param {
    fixed_method: DIFF_S
    bit_width: 8
  }
}
layer {
  name: "downsample_4/3x3_s2/relu1"
  type: "ReLU"
  bottom: "downsample_4/3x3_s2"
  top: "downsample_4/3x3_s2"
}
layer {
  name: "downsample_4/pool_s2"
  type: "Pooling"
  bottom: "inception_3a/output"
  top: "downsample_4/pool_s2"
  pooling_param {
    pool: MAX
    kernel_size: 3
    stride: 2
  }
}
layer {
  name: "downsample_4/output"
  type: "Concat"
  bottom: "downsample_4/3x3_s2"
  bottom: "downsample_4/pool_s2"
  top: "downsample_4/output"
}
layer {
  name: "downsample_4/output_fixed"
  type: "FixedNeuron"
  bottom: "downsample_4/output"
  top: "downsample_4/output"
  param {
    lr_mult: 0
    decay_mult: 0
  }
  fixed_param {
    fixed_method: DIFF_S
    bit_width: 8
  }
}
layer {
  name: "inception_5a/1x1"
  type: "ConvolutionFixed"
  bottom: "downsample_4/output"
  top: "inception_5a/1x1"
  param {
    lr_mult: 1
    decay_mult: 1
  }
  param {
    lr_mult: 1
    decay_mult: 0
  }
  convolution_param {
    num_output: 90
    bias_term: true
    kernel_size: 1
    weight_filler {
      type: "xavier"
      std: 0.03
    }
    bias_filler {
      type: "constant"
      value: 0.2
    }
  }
  fixed_param {
    fixed_method: DIFF_S
    bit_width: 8
  }
}
layer {
  name: "inception_5a/1x1/relu1"
  type: "ReLU"
  bottom: "inception_5a/1x1"
  top: "inception_5a/1x1"
}
layer {
  name: "inception_5a/3x3"
  type: "ConvolutionFixed"
  bottom: "downsample_4/output"
  top: "inception_5a/3x3"
  param {
    lr_mult: 1
    decay_mult: 1
  }
  param {
    lr_mult: 1
    decay_mult: 0
  }
  convolution_param {
    num_output: 40
    bias_term: true
    pad: 1
    kernel_size: 3
    weight_filler {
      type: "xavier"
      std: 0.03
    }
    bias_filler {
      type: "constant"
      value: 0.2
    }
  }
  fixed_param {
    fixed_method: DIFF_S
    bit_width: 8
  }
}
layer {
  name: "inception_5a/3x3/relu1"
  type: "ReLU"
  bottom: "inception_5a/3x3"
  top: "inception_5a/3x3"
}
layer {
  name: "inception_5a/output"
  type: "Concat"
  bottom: "inception_5a/1x1"
  bottom: "inception_5a/3x3"
  top: "inception_5a/output"
}
layer {
  name: "inception_5a/output_fixed"
  type: "FixedNeuron"
  bottom: "inception_5a/output"
  top: "inception_5a/output"
  param {
    lr_mult: 0
    decay_mult: 0
  }
  fixed_param {
    fixed_method: DIFF_S
    bit_width: 8
  }
}
layer {
  name: "inception_6a/1x1"
  type: "ConvolutionFixed"
  bottom: "inception_5a/output"
  top: "inception_6a/1x1"
  param {
    lr_mult: 1
    decay_mult: 1
  }
  param {
    lr_mult: 1
    decay_mult: 0
  }
  convolution_param {
    num_output: 88
    bias_term: true
    kernel_size: 1
    weight_filler {
      type: "xavier"
      std: 0.03
    }
    bias_filler {
      type: "constant"
      value: 0.2
    }
  }
  fixed_param {
    fixed_method: DIFF_S
    bit_width: 8
  }
}
layer {
  name: "inception_6a/1x1/relu1"
  type: "ReLU"
  bottom: "inception_6a/1x1"
  top: "inception_6a/1x1"
}
layer {
  name: "inception_6a/3x3"
  type: "ConvolutionFixed"
  bottom: "inception_5a/output"
  top: "inception_6a/3x3"
  param {
    lr_mult: 1
    decay_mult: 1
  }
  param {
    lr_mult: 1
    decay_mult: 0
  }
  convolution_param {
    num_output: 58
    bias_term: true
    pad: 1
    kernel_size: 3
    weight_filler {
      type: "xavier"
      std: 0.03
    }
    bias_filler {
      type: "constant"
      value: 0.2
    }
  }
  fixed_param {
    fixed_method: DIFF_S
    bit_width: 8
  }
}
layer {
  name: "inception_6a/3x3/relu1"
  type: "ReLU"
  bottom: "inception_6a/3x3"
  top: "inception_6a/3x3"
}
layer {
  name: "inception_6a/output"
  type: "Concat"
  bottom: "inception_6a/1x1"
  bottom: "inception_6a/3x3"
  top: "inception_6a/output"
}
layer {
  name: "inception_6a/output_fixed"
  type: "FixedNeuron"
  bottom: "inception_6a/output"
  top: "inception_6a/output"
  param {
    lr_mult: 0
    decay_mult: 0
  }
  fixed_param {
    fixed_method: DIFF_S
    bit_width: 8
  }
}
layer {
  name: "inception_7a/1x1"
  type: "ConvolutionFixed"
  bottom: "inception_6a/output"
  top: "inception_7a/1x1"
  param {
    lr_mult: 1
    decay_mult: 1
  }
  param {
    lr_mult: 1
    decay_mult: 0
  }
  convolution_param {
    num_output: 56
    bias_term: true
    kernel_size: 1
    weight_filler {
      type: "xavier"
      std: 0.03
    }
    bias_filler {
      type: "constant"
      value: 0.2
    }
  }
  fixed_param {
    fixed_method: DIFF_S
    bit_width: 8
  }
}
layer {
  name: "inception_7a/1x1/relu1"
  type: "ReLU"
  bottom: "inception_7a/1x1"
  top: "inception_7a/1x1"
}
layer {
  name: "inception_7a/3x3"
  type: "ConvolutionFixed"
  bottom: "inception_6a/output"
  top: "inception_7a/3x3"
  param {
    lr_mult: 1
    decay_mult: 1
  }
  param {
    lr_mult: 1
    decay_mult: 0
  }
  convolution_param {
    num_output: 80
    bias_term: true
    pad: 1
    kernel_size: 3
    weight_filler {
      type: "xavier"
      std: 0.03
    }
    bias_filler {
      type: "constant"
      value: 0.2
    }
  }
  fixed_param {
    fixed_method: DIFF_S
    bit_width: 8
  }
}
layer {
  name: "inception_7a/3x3/relu1"
  type: "ReLU"
  bottom: "inception_7a/3x3"
  top: "inception_7a/3x3"
}
layer {
  name: "inception_7a/output"
  type: "Concat"
  bottom: "inception_7a/1x1"
  bottom: "inception_7a/3x3"
  top: "inception_7a/output"
}
layer {
  name: "inception_7a/output_fixed"
  type: "FixedNeuron"
  bottom: "inception_7a/output"
  top: "inception_7a/output"
  param {
    lr_mult: 0
    decay_mult: 0
  }
  fixed_param {
    fixed_method: DIFF_S
    bit_width: 8
  }
}
layer {
  name: "inception_8a/1x1"
  type: "ConvolutionFixed"
  bottom: "inception_7a/output"
  top: "inception_8a/1x1"
  param {
    lr_mult: 1
    decay_mult: 1
  }
  param {
    lr_mult: 1
    decay_mult: 0
  }
  convolution_param {
    num_output: 40
    bias_term: true
    kernel_size: 1
    weight_filler {
      type: "xavier"
      std: 0.03
    }
    bias_filler {
      type: "constant"
      value: 0.2
    }
  }
  fixed_param {
    fixed_method: DIFF_S
    bit_width: 8
  }
}
layer {
  name: "inception_8a/1x1/relu1"
  type: "ReLU"
  bottom: "inception_8a/1x1"
  top: "inception_8a/1x1"
}
layer {
  name: "inception_8a/3x3"
  type: "ConvolutionFixed"
  bottom: "inception_7a/output"
  top: "inception_8a/3x3"
  param {
    lr_mult: 1
    decay_mult: 1
  }
  param {
    lr_mult: 1
    decay_mult: 0
  }
  convolution_param {
    num_output: 96
    bias_term: true
    pad: 1
    kernel_size: 3
    weight_filler {
      type: "xavier"
      std: 0.03
    }
    bias_filler {
      type: "constant"
      value: 0.2
    }
  }
  fixed_param {
    fixed_method: DIFF_S
    bit_width: 8
  }
}
layer {
  name: "inception_8a/3x3/relu1"
  type: "ReLU"
  bottom: "inception_8a/3x3"
  top: "inception_8a/3x3"
}
layer {
  name: "inception_8a/output"
  type: "Concat"
  bottom: "inception_8a/1x1"
  bottom: "inception_8a/3x3"
  top: "inception_8a/output"
}
layer {
  name: "inception_8a/output_fixed"
  type: "FixedNeuron"
  bottom: "inception_8a/output"
  top: "inception_8a/output"
  param {
    lr_mult: 0
    decay_mult: 0
  }
  fixed_param {
    fixed_method: DIFF_S
    bit_width: 8
  }
}
layer {
  name: "downsample_9/3x3_s2"
  type: "ConvolutionFixed"
  bottom: "inception_8a/output"
  top: "downsample_9/3x3_s2"
  param {
    lr_mult: 1
    decay_mult: 1
  }
  param {
    lr_mult: 1
    decay_mult: 0
  }
  convolution_param {
    num_output: 78
    bias_term: true
    pad: 1
    kernel_size: 3
    stride: 2
    weight_filler {
      type: "xavier"
      std: 0.03
    }
    bias_filler {
      type: "constant"
      value: 0.2
    }
  }
  fixed_param {
    fixed_method: DIFF_S
    bit_width: 8
  }
}
layer {
  name: "downsample_9/3x3_s2/relu1"
  type: "ReLU"
  bottom: "downsample_9/3x3_s2"
  top: "downsample_9/3x3_s2"
}
layer {
  name: "downsample_9/pool_s2"
  type: "Pooling"
  bottom: "inception_8a/output"
  top: "downsample_9/pool_s2"
  pooling_param {
    pool: MAX
    kernel_size: 3
    stride: 2
  }
}
layer {
  name: "downsample_9/output"
  type: "Concat"
  bottom: "downsample_9/3x3_s2"
  bottom: "downsample_9/pool_s2"
  top: "downsample_9/output"
}
layer {
  name: "downsample_9/output_fixed"
  type: "FixedNeuron"
  bottom: "downsample_9/output"
  top: "downsample_9/output"
  param {
    lr_mult: 0
    decay_mult: 0
  }
  fixed_param {
    fixed_method: DIFF_S
    bit_width: 8
  }
}
layer {
  name: "inception_10a/1x1"
  type: "ConvolutionFixed"
  bottom: "downsample_9/output"
  top: "inception_10a/1x1"
  param {
    lr_mult: 1
    decay_mult: 1
  }
  param {
    lr_mult: 1
    decay_mult: 0
  }
  convolution_param {
    num_output: 18
    bias_term: true
    kernel_size: 1
    weight_filler {
      type: "xavier"
      std: 0.03
    }
    bias_filler {
      type: "constant"
      value: 0.2
    }
  }
  fixed_param {
    fixed_method: DIFF_S
    bit_width: 8
  }
}
layer {
  name: "inception_10a/1x1/relu1"
  type: "ReLU"
  bottom: "inception_10a/1x1"
  top: "inception_10a/1x1"
}
layer {
  name: "inception_10a/3x3"
  type: "ConvolutionFixed"
  bottom: "downsample_9/output"
  top: "inception_10a/3x3"
  param {
    lr_mult: 1
    decay_mult: 1
  }
  param {
    lr_mult: 1
    decay_mult: 0
  }
  convolution_param {
    num_output: 144
    bias_term: true
    pad: 1
    kernel_size: 3
    weight_filler {
      type: "xavier"
      std: 0.03
    }
    bias_filler {
      type: "constant"
      value: 0.2
    }
  }
  fixed_param {
    fixed_method: DIFF_S
    bit_width: 8
  }
}
layer {
  name: "inception_10a/3x3/relu1"
  type: "ReLU"
  bottom: "inception_10a/3x3"
  top: "inception_10a/3x3"
}
layer {
  name: "inception_10a/output"
  type: "Concat"
  bottom: "inception_10a/1x1"
  bottom: "inception_10a/3x3"
  top: "inception_10a/output"
}
layer {
  name: "inception_10a/output_fixed"
  type: "FixedNeuron"
  bottom: "inception_10a/output"
  top: "inception_10a/output"
  param {
    lr_mult: 0
    decay_mult: 0
  }
  fixed_param {
    fixed_method: DIFF_S
    bit_width: 8
  }
}
layer {
  name: "inception_11a/1x1"
  type: "ConvolutionFixed"
  bottom: "inception_10a/output"
  top: "inception_11a/1x1"
  param {
    lr_mult: 1
    decay_mult: 1
  }
  param {
    lr_mult: 1
    decay_mult: 0
  }
  convolution_param {
    num_output: 106
    bias_term: true
    kernel_size: 1
    weight_filler {
      type: "xavier"
      std: 0.03
    }
    bias_filler {
      type: "constant"
      value: 0.2
    }
  }
  fixed_param {
    fixed_method: DIFF_S
    bit_width: 8
  }
}
layer {
  name: "inception_11a/1x1/relu1"
  type: "ReLU"
  bottom: "inception_11a/1x1"
  top: "inception_11a/1x1"
}
layer {
  name: "inception_11a/3x3"
  type: "ConvolutionFixed"
  bottom: "inception_10a/output"
  top: "inception_11a/3x3"
  param {
    lr_mult: 1
    decay_mult: 1
  }
  param {
    lr_mult: 1
    decay_mult: 0
  }
  convolution_param {
    num_output: 144
    bias_term: true
    pad: 1
    kernel_size: 3
    weight_filler {
      type: "xavier"
      std: 0.03
    }
    bias_filler {
      type: "constant"
      value: 0.2
    }
  }
  fixed_param {
    fixed_method: DIFF_S
    bit_width: 8
  }
}
layer {
  name: "inception_11a/3x3/relu1"
  type: "ReLU"
  bottom: "inception_11a/3x3"
  top: "inception_11a/3x3"
}
layer {
  name: "inception_11a/output"
  type: "Concat"
  bottom: "inception_11a/1x1"
  bottom: "inception_11a/3x3"
  top: "inception_11a/output"
}
layer {
  name: "inception_11a/output_fixed"
  type: "FixedNeuron"
  bottom: "inception_11a/output"
  top: "inception_11a/output"
  param {
    lr_mult: 0
    decay_mult: 0
  }
  fixed_param {
    fixed_method: DIFF_S
    bit_width: 8
  }
}
layer {
  name: "avg_pool_12/8x8_s1"
  type: "Pooling"
  bottom: "inception_11a/output"
  top: "avg_pool_12/8x8_s1"
  pooling_param {
    pool: AVE
    kernel_size: 8
    stride: 1
  }
}
layer {
  name: "avg_pool_12/8x8_s1_fixed"
  type: "FixedNeuron"
  bottom: "avg_pool_12/8x8_s1"
  top: "avg_pool_12/8x8_s1"
  param {
    lr_mult: 0
    decay_mult: 0
  }
  fixed_param {
    fixed_method: DIFF_S
    bit_width: 8
  }
}
layer {
  name: "loss/classifier"
  type: "InnerProductFixed"
  bottom: "avg_pool_12/8x8_s1"
  top: "loss/classifier"
  param {
    lr_mult: 1
    decay_mult: 1
  }
  param {
    lr_mult: 2
    decay_mult: 0
  }
  inner_product_param {
    num_output: 10
    weight_filler {
      type: "xavier"
    }
    bias_filler {
      type: "constant"
      value: 1
    }
  }
  fixed_param {
    fixed_method: DIFF_S
    bit_width: 8
  }
}
layer {
  name: "loss/classifier_fixed"
  type: "FixedNeuron"
  bottom: "loss/classifier"
  top: "loss/classifier"
  param {
    lr_mult: 0
    decay_mult: 0
  }
  fixed_param {
    fixed_method: DIFF_S
    bit_width: 8
  }
}
layer {
  name: "loss"
  type: "SoftmaxWithLoss"
  bottom: "loss/classifier"
  bottom: "label"
  top: "loss"
}
layer {
  name: "accuracy"
  type: "Accuracy"
  bottom: "loss/classifier"
  bottom: "label"
  top: "accuracy"
  include {
    phase: TEST
  }
}
layer {
  name: "accuracy-top1"
  type: "Accuracy"
  bottom: "loss/classifier"
  bottom: "label"
  top: "top-1"
  include {
    phase: TEST
  }
}
layer {
  name: "accuracy-top5"
  type: "Accuracy"
  bottom: "loss/classifier"
  bottom: "label"
  top: "top-5"
  include {
    phase: TEST
  }
  accuracy_param {
    top_k: 5
  }
}
I0123 08:09:16.489439 81047 layer_factory.hpp:123] Creating layer data
I0123 08:09:16.489477 81047 internal_thread.cpp:73] Starting internal thread(s) on GPU 0
I0123 08:09:16.489872 81047 net.cpp:140] Creating Layer data
I0123 08:09:16.489879 81047 net.cpp:455] data -> data
I0123 08:09:16.489886 81047 net.cpp:455] data -> label
I0123 08:09:16.491031 81085 db_lmdb.cpp:81] Opened lmdb cifar10/input/lmdb/valid_lmdb
I0123 08:09:16.491081 81085 data_reader.cpp:166] TEST: reading data using 1 channel(s)
I0123 08:09:16.491154 81047 data_layer.cpp:124] ReshapePrefetch 50, 3, 32, 32
I0123 08:09:16.491252 81047 data_layer.cpp:129] output data size: 50,3,32,32
I0123 08:09:16.494542 81047 internal_thread.cpp:73] Starting internal thread(s) on GPU 0
I0123 08:09:16.494576 81047 net.cpp:190] Setting up data
I0123 08:09:16.494581 81047 net.cpp:197] Top shape: 50 3 32 32 (153600)
I0123 08:09:16.494585 81047 net.cpp:197] Top shape: 50 (50)
I0123 08:09:16.494586 81047 net.cpp:205] Memory required for data: 614600
I0123 08:09:16.494590 81047 layer_factory.hpp:123] Creating layer label_data_1_split
I0123 08:09:16.494597 81047 net.cpp:140] Creating Layer label_data_1_split
I0123 08:09:16.494601 81047 net.cpp:481] label_data_1_split <- label
I0123 08:09:16.494604 81047 net.cpp:455] label_data_1_split -> label_data_1_split_0
I0123 08:09:16.494611 81047 net.cpp:455] label_data_1_split -> label_data_1_split_1
I0123 08:09:16.494616 81047 net.cpp:455] label_data_1_split -> label_data_1_split_2
I0123 08:09:16.494621 81047 net.cpp:455] label_data_1_split -> label_data_1_split_3
I0123 08:09:16.494674 81047 net.cpp:190] Setting up label_data_1_split
I0123 08:09:16.494679 81047 net.cpp:197] Top shape: 50 (50)
I0123 08:09:16.494683 81047 net.cpp:197] Top shape: 50 (50)
I0123 08:09:16.494684 81047 net.cpp:197] Top shape: 50 (50)
I0123 08:09:16.494688 81047 net.cpp:197] Top shape: 50 (50)
I0123 08:09:16.494689 81047 net.cpp:205] Memory required for data: 615400
I0123 08:09:16.494691 81047 layer_factory.hpp:123] Creating layer data_fixed
I0123 08:09:16.494695 81047 net.cpp:140] Creating Layer data_fixed
I0123 08:09:16.494699 81047 net.cpp:481] data_fixed <- data
I0123 08:09:16.494702 81047 net.cpp:442] data_fixed -> data (in-place)
I0123 08:09:16.494760 81047 net.cpp:190] Setting up data_fixed
I0123 08:09:16.494765 81047 net.cpp:197] Top shape: 50 3 32 32 (153600)
I0123 08:09:16.494767 81047 net.cpp:205] Memory required for data: 1229800
I0123 08:09:16.494773 81047 layer_factory.hpp:123] Creating layer conv1/3x3_s1
I0123 08:09:16.494779 81047 net.cpp:140] Creating Layer conv1/3x3_s1
I0123 08:09:16.494781 81047 net.cpp:481] conv1/3x3_s1 <- data
I0123 08:09:16.494786 81047 net.cpp:455] conv1/3x3_s1 -> conv1/3x3_s1
I0123 08:09:16.495534 81047 layer_factory.hpp:123] Creating layer conv1/3x3_s1
I0123 08:09:16.495759 81047 net.cpp:190] Setting up conv1/3x3_s1
I0123 08:09:16.495765 81047 net.cpp:197] Top shape: 50 30 32 32 (1536000)
I0123 08:09:16.495767 81047 net.cpp:205] Memory required for data: 7373800
I0123 08:09:16.495774 81047 layer_factory.hpp:123] Creating layer conv1/relu1
I0123 08:09:16.495779 81047 net.cpp:140] Creating Layer conv1/relu1
I0123 08:09:16.495780 81047 net.cpp:481] conv1/relu1 <- conv1/3x3_s1
I0123 08:09:16.495784 81047 net.cpp:442] conv1/relu1 -> conv1/3x3_s1 (in-place)
I0123 08:09:16.495790 81047 net.cpp:190] Setting up conv1/relu1
I0123 08:09:16.495792 81047 net.cpp:197] Top shape: 50 30 32 32 (1536000)
I0123 08:09:16.495795 81047 net.cpp:205] Memory required for data: 13517800
I0123 08:09:16.495796 81047 layer_factory.hpp:123] Creating layer conv1/3x3_s1_fixed
I0123 08:09:16.495801 81047 net.cpp:140] Creating Layer conv1/3x3_s1_fixed
I0123 08:09:16.495805 81047 net.cpp:481] conv1/3x3_s1_fixed <- conv1/3x3_s1
I0123 08:09:16.495810 81047 net.cpp:442] conv1/3x3_s1_fixed -> conv1/3x3_s1 (in-place)
I0123 08:09:16.495831 81047 net.cpp:190] Setting up conv1/3x3_s1_fixed
I0123 08:09:16.495836 81047 net.cpp:197] Top shape: 50 30 32 32 (1536000)
I0123 08:09:16.495838 81047 net.cpp:205] Memory required for data: 19661800
I0123 08:09:16.495841 81047 layer_factory.hpp:123] Creating layer conv1/3x3_s1_conv1/3x3_s1_fixed_0_split
I0123 08:09:16.495846 81047 net.cpp:140] Creating Layer conv1/3x3_s1_conv1/3x3_s1_fixed_0_split
I0123 08:09:16.495847 81047 net.cpp:481] conv1/3x3_s1_conv1/3x3_s1_fixed_0_split <- conv1/3x3_s1
I0123 08:09:16.495851 81047 net.cpp:455] conv1/3x3_s1_conv1/3x3_s1_fixed_0_split -> conv1/3x3_s1_conv1/3x3_s1_fixed_0_split_0
I0123 08:09:16.495857 81047 net.cpp:455] conv1/3x3_s1_conv1/3x3_s1_fixed_0_split -> conv1/3x3_s1_conv1/3x3_s1_fixed_0_split_1
I0123 08:09:16.495880 81047 net.cpp:190] Setting up conv1/3x3_s1_conv1/3x3_s1_fixed_0_split
I0123 08:09:16.495885 81047 net.cpp:197] Top shape: 50 30 32 32 (1536000)
I0123 08:09:16.495888 81047 net.cpp:197] Top shape: 50 30 32 32 (1536000)
I0123 08:09:16.495890 81047 net.cpp:205] Memory required for data: 31949800
I0123 08:09:16.495893 81047 layer_factory.hpp:123] Creating layer inception_2a/1x1
I0123 08:09:16.495898 81047 net.cpp:140] Creating Layer inception_2a/1x1
I0123 08:09:16.495903 81047 net.cpp:481] inception_2a/1x1 <- conv1/3x3_s1_conv1/3x3_s1_fixed_0_split_0
I0123 08:09:16.495908 81047 net.cpp:455] inception_2a/1x1 -> inception_2a/1x1
I0123 08:09:16.496039 81047 layer_factory.hpp:123] Creating layer inception_2a/1x1
I0123 08:09:16.496255 81047 net.cpp:190] Setting up inception_2a/1x1
I0123 08:09:16.496260 81047 net.cpp:197] Top shape: 50 24 32 32 (1228800)
I0123 08:09:16.496264 81047 net.cpp:205] Memory required for data: 36865000
I0123 08:09:16.496269 81047 layer_factory.hpp:123] Creating layer inception_2a/1x1/relu1
I0123 08:09:16.496273 81047 net.cpp:140] Creating Layer inception_2a/1x1/relu1
I0123 08:09:16.496276 81047 net.cpp:481] inception_2a/1x1/relu1 <- inception_2a/1x1
I0123 08:09:16.496281 81047 net.cpp:442] inception_2a/1x1/relu1 -> inception_2a/1x1 (in-place)
I0123 08:09:16.496287 81047 net.cpp:190] Setting up inception_2a/1x1/relu1
I0123 08:09:16.496294 81047 net.cpp:197] Top shape: 50 24 32 32 (1228800)
I0123 08:09:16.496296 81047 net.cpp:205] Memory required for data: 41780200
I0123 08:09:16.496299 81047 layer_factory.hpp:123] Creating layer inception_2a/3x3
I0123 08:09:16.496304 81047 net.cpp:140] Creating Layer inception_2a/3x3
I0123 08:09:16.496307 81047 net.cpp:481] inception_2a/3x3 <- conv1/3x3_s1_conv1/3x3_s1_fixed_0_split_1
I0123 08:09:16.496311 81047 net.cpp:455] inception_2a/3x3 -> inception_2a/3x3
I0123 08:09:16.497625 81047 layer_factory.hpp:123] Creating layer inception_2a/3x3
I0123 08:09:16.498044 81047 net.cpp:190] Setting up inception_2a/3x3
I0123 08:09:16.498052 81047 net.cpp:197] Top shape: 50 20 32 32 (1024000)
I0123 08:09:16.498055 81047 net.cpp:205] Memory required for data: 45876200
I0123 08:09:16.498060 81047 layer_factory.hpp:123] Creating layer inception_2a/3x3/relu1
I0123 08:09:16.498064 81047 net.cpp:140] Creating Layer inception_2a/3x3/relu1
I0123 08:09:16.498067 81047 net.cpp:481] inception_2a/3x3/relu1 <- inception_2a/3x3
I0123 08:09:16.498071 81047 net.cpp:442] inception_2a/3x3/relu1 -> inception_2a/3x3 (in-place)
I0123 08:09:16.498076 81047 net.cpp:190] Setting up inception_2a/3x3/relu1
I0123 08:09:16.498080 81047 net.cpp:197] Top shape: 50 20 32 32 (1024000)
I0123 08:09:16.498082 81047 net.cpp:205] Memory required for data: 49972200
I0123 08:09:16.498085 81047 layer_factory.hpp:123] Creating layer inception_2a/output
I0123 08:09:16.498090 81047 net.cpp:140] Creating Layer inception_2a/output
I0123 08:09:16.498092 81047 net.cpp:481] inception_2a/output <- inception_2a/1x1
I0123 08:09:16.498096 81047 net.cpp:481] inception_2a/output <- inception_2a/3x3
I0123 08:09:16.498101 81047 net.cpp:455] inception_2a/output -> inception_2a/output
I0123 08:09:16.498126 81047 net.cpp:190] Setting up inception_2a/output
I0123 08:09:16.498131 81047 net.cpp:197] Top shape: 50 44 32 32 (2252800)
I0123 08:09:16.498136 81047 net.cpp:205] Memory required for data: 58983400
I0123 08:09:16.498137 81047 layer_factory.hpp:123] Creating layer inception_2a/output_fixed
I0123 08:09:16.498142 81047 net.cpp:140] Creating Layer inception_2a/output_fixed
I0123 08:09:16.498143 81047 net.cpp:481] inception_2a/output_fixed <- inception_2a/output
I0123 08:09:16.498147 81047 net.cpp:442] inception_2a/output_fixed -> inception_2a/output (in-place)
I0123 08:09:16.498232 81047 net.cpp:190] Setting up inception_2a/output_fixed
I0123 08:09:16.498237 81047 net.cpp:197] Top shape: 50 44 32 32 (2252800)
I0123 08:09:16.498239 81047 net.cpp:205] Memory required for data: 67994600
I0123 08:09:16.498245 81047 layer_factory.hpp:123] Creating layer inception_2a/output_inception_2a/output_fixed_0_split
I0123 08:09:16.498250 81047 net.cpp:140] Creating Layer inception_2a/output_inception_2a/output_fixed_0_split
I0123 08:09:16.498252 81047 net.cpp:481] inception_2a/output_inception_2a/output_fixed_0_split <- inception_2a/output
I0123 08:09:16.498255 81047 net.cpp:455] inception_2a/output_inception_2a/output_fixed_0_split -> inception_2a/output_inception_2a/output_fixed_0_split_0
I0123 08:09:16.498261 81047 net.cpp:455] inception_2a/output_inception_2a/output_fixed_0_split -> inception_2a/output_inception_2a/output_fixed_0_split_1
I0123 08:09:16.498303 81047 net.cpp:190] Setting up inception_2a/output_inception_2a/output_fixed_0_split
I0123 08:09:16.498308 81047 net.cpp:197] Top shape: 50 44 32 32 (2252800)
I0123 08:09:16.498312 81047 net.cpp:197] Top shape: 50 44 32 32 (2252800)
I0123 08:09:16.498315 81047 net.cpp:205] Memory required for data: 86017000
I0123 08:09:16.498317 81047 layer_factory.hpp:123] Creating layer inception_3a/1x1
I0123 08:09:16.498327 81047 net.cpp:140] Creating Layer inception_3a/1x1
I0123 08:09:16.498330 81047 net.cpp:481] inception_3a/1x1 <- inception_2a/output_inception_2a/output_fixed_0_split_0
I0123 08:09:16.498337 81047 net.cpp:455] inception_3a/1x1 -> inception_3a/1x1
I0123 08:09:16.498499 81047 layer_factory.hpp:123] Creating layer inception_3a/1x1
I0123 08:09:16.498782 81047 net.cpp:190] Setting up inception_3a/1x1
I0123 08:09:16.498790 81047 net.cpp:197] Top shape: 50 20 32 32 (1024000)
I0123 08:09:16.498792 81047 net.cpp:205] Memory required for data: 90113000
I0123 08:09:16.498797 81047 layer_factory.hpp:123] Creating layer inception_3a/1x1/relu1
I0123 08:09:16.498802 81047 net.cpp:140] Creating Layer inception_3a/1x1/relu1
I0123 08:09:16.498805 81047 net.cpp:481] inception_3a/1x1/relu1 <- inception_3a/1x1
I0123 08:09:16.498811 81047 net.cpp:442] inception_3a/1x1/relu1 -> inception_3a/1x1 (in-place)
I0123 08:09:16.498816 81047 net.cpp:190] Setting up inception_3a/1x1/relu1
I0123 08:09:16.498819 81047 net.cpp:197] Top shape: 50 20 32 32 (1024000)
I0123 08:09:16.498821 81047 net.cpp:205] Memory required for data: 94209000
I0123 08:09:16.498824 81047 layer_factory.hpp:123] Creating layer inception_3a/3x3
I0123 08:09:16.498832 81047 net.cpp:140] Creating Layer inception_3a/3x3
I0123 08:09:16.498844 81047 net.cpp:481] inception_3a/3x3 <- inception_2a/output_inception_2a/output_fixed_0_split_1
I0123 08:09:16.498850 81047 net.cpp:455] inception_3a/3x3 -> inception_3a/3x3
I0123 08:09:16.499727 81047 layer_factory.hpp:123] Creating layer inception_3a/3x3
I0123 08:09:16.500141 81047 net.cpp:190] Setting up inception_3a/3x3
I0123 08:09:16.500149 81047 net.cpp:197] Top shape: 50 48 32 32 (2457600)
I0123 08:09:16.500151 81047 net.cpp:205] Memory required for data: 104039400
I0123 08:09:16.500157 81047 layer_factory.hpp:123] Creating layer inception_3a/3x3/relu1
I0123 08:09:16.500162 81047 net.cpp:140] Creating Layer inception_3a/3x3/relu1
I0123 08:09:16.500166 81047 net.cpp:481] inception_3a/3x3/relu1 <- inception_3a/3x3
I0123 08:09:16.500171 81047 net.cpp:442] inception_3a/3x3/relu1 -> inception_3a/3x3 (in-place)
I0123 08:09:16.500178 81047 net.cpp:190] Setting up inception_3a/3x3/relu1
I0123 08:09:16.500181 81047 net.cpp:197] Top shape: 50 48 32 32 (2457600)
I0123 08:09:16.500185 81047 net.cpp:205] Memory required for data: 113869800
I0123 08:09:16.500186 81047 layer_factory.hpp:123] Creating layer inception_3a/output
I0123 08:09:16.500191 81047 net.cpp:140] Creating Layer inception_3a/output
I0123 08:09:16.500193 81047 net.cpp:481] inception_3a/output <- inception_3a/1x1
I0123 08:09:16.500197 81047 net.cpp:481] inception_3a/output <- inception_3a/3x3
I0123 08:09:16.500201 81047 net.cpp:455] inception_3a/output -> inception_3a/output
I0123 08:09:16.500222 81047 net.cpp:190] Setting up inception_3a/output
I0123 08:09:16.500228 81047 net.cpp:197] Top shape: 50 68 32 32 (3481600)
I0123 08:09:16.500231 81047 net.cpp:205] Memory required for data: 127796200
I0123 08:09:16.500233 81047 layer_factory.hpp:123] Creating layer inception_3a/output_fixed
I0123 08:09:16.500238 81047 net.cpp:140] Creating Layer inception_3a/output_fixed
I0123 08:09:16.500241 81047 net.cpp:481] inception_3a/output_fixed <- inception_3a/output
I0123 08:09:16.500246 81047 net.cpp:442] inception_3a/output_fixed -> inception_3a/output (in-place)
I0123 08:09:16.500272 81047 net.cpp:190] Setting up inception_3a/output_fixed
I0123 08:09:16.500277 81047 net.cpp:197] Top shape: 50 68 32 32 (3481600)
I0123 08:09:16.500279 81047 net.cpp:205] Memory required for data: 141722600
I0123 08:09:16.500283 81047 layer_factory.hpp:123] Creating layer inception_3a/output_inception_3a/output_fixed_0_split
I0123 08:09:16.500288 81047 net.cpp:140] Creating Layer inception_3a/output_inception_3a/output_fixed_0_split
I0123 08:09:16.500293 81047 net.cpp:481] inception_3a/output_inception_3a/output_fixed_0_split <- inception_3a/output
I0123 08:09:16.500296 81047 net.cpp:455] inception_3a/output_inception_3a/output_fixed_0_split -> inception_3a/output_inception_3a/output_fixed_0_split_0
I0123 08:09:16.500303 81047 net.cpp:455] inception_3a/output_inception_3a/output_fixed_0_split -> inception_3a/output_inception_3a/output_fixed_0_split_1
I0123 08:09:16.500330 81047 net.cpp:190] Setting up inception_3a/output_inception_3a/output_fixed_0_split
I0123 08:09:16.500335 81047 net.cpp:197] Top shape: 50 68 32 32 (3481600)
I0123 08:09:16.500339 81047 net.cpp:197] Top shape: 50 68 32 32 (3481600)
I0123 08:09:16.500341 81047 net.cpp:205] Memory required for data: 169575400
I0123 08:09:16.500344 81047 layer_factory.hpp:123] Creating layer downsample_4/3x3_s2
I0123 08:09:16.500351 81047 net.cpp:140] Creating Layer downsample_4/3x3_s2
I0123 08:09:16.500355 81047 net.cpp:481] downsample_4/3x3_s2 <- inception_3a/output_inception_3a/output_fixed_0_split_0
I0123 08:09:16.500361 81047 net.cpp:455] downsample_4/3x3_s2 -> downsample_4/3x3_s2
I0123 08:09:16.500604 81047 layer_factory.hpp:123] Creating layer downsample_4/3x3_s2
I0123 08:09:16.500988 81047 net.cpp:190] Setting up downsample_4/3x3_s2
I0123 08:09:16.500995 81047 net.cpp:197] Top shape: 50 24 16 16 (307200)
I0123 08:09:16.500998 81047 net.cpp:205] Memory required for data: 170804200
I0123 08:09:16.501003 81047 layer_factory.hpp:123] Creating layer downsample_4/3x3_s2/relu1
I0123 08:09:16.501008 81047 net.cpp:140] Creating Layer downsample_4/3x3_s2/relu1
I0123 08:09:16.501011 81047 net.cpp:481] downsample_4/3x3_s2/relu1 <- downsample_4/3x3_s2
I0123 08:09:16.501015 81047 net.cpp:442] downsample_4/3x3_s2/relu1 -> downsample_4/3x3_s2 (in-place)
I0123 08:09:16.501024 81047 net.cpp:190] Setting up downsample_4/3x3_s2/relu1
I0123 08:09:16.501030 81047 net.cpp:197] Top shape: 50 24 16 16 (307200)
I0123 08:09:16.501034 81047 net.cpp:205] Memory required for data: 172033000
I0123 08:09:16.501039 81047 layer_factory.hpp:123] Creating layer downsample_4/pool_s2
I0123 08:09:16.501044 81047 net.cpp:140] Creating Layer downsample_4/pool_s2
I0123 08:09:16.501051 81047 net.cpp:481] downsample_4/pool_s2 <- inception_3a/output_inception_3a/output_fixed_0_split_1
I0123 08:09:16.501058 81047 net.cpp:455] downsample_4/pool_s2 -> downsample_4/pool_s2
I0123 08:09:16.501098 81047 net.cpp:190] Setting up downsample_4/pool_s2
I0123 08:09:16.501104 81047 net.cpp:197] Top shape: 50 68 16 16 (870400)
I0123 08:09:16.501106 81047 net.cpp:205] Memory required for data: 175514600
I0123 08:09:16.501109 81047 layer_factory.hpp:123] Creating layer downsample_4/output
I0123 08:09:16.501113 81047 net.cpp:140] Creating Layer downsample_4/output
I0123 08:09:16.501121 81047 net.cpp:481] downsample_4/output <- downsample_4/3x3_s2
I0123 08:09:16.501127 81047 net.cpp:481] downsample_4/output <- downsample_4/pool_s2
I0123 08:09:16.501132 81047 net.cpp:455] downsample_4/output -> downsample_4/output
I0123 08:09:16.501188 81047 net.cpp:190] Setting up downsample_4/output
I0123 08:09:16.501193 81047 net.cpp:197] Top shape: 50 92 16 16 (1177600)
I0123 08:09:16.501195 81047 net.cpp:205] Memory required for data: 180225000
I0123 08:09:16.501197 81047 layer_factory.hpp:123] Creating layer downsample_4/output_fixed
I0123 08:09:16.501202 81047 net.cpp:140] Creating Layer downsample_4/output_fixed
I0123 08:09:16.501209 81047 net.cpp:481] downsample_4/output_fixed <- downsample_4/output
I0123 08:09:16.501215 81047 net.cpp:442] downsample_4/output_fixed -> downsample_4/output (in-place)
I0123 08:09:16.501246 81047 net.cpp:190] Setting up downsample_4/output_fixed
I0123 08:09:16.501251 81047 net.cpp:197] Top shape: 50 92 16 16 (1177600)
I0123 08:09:16.501255 81047 net.cpp:205] Memory required for data: 184935400
I0123 08:09:16.501262 81047 layer_factory.hpp:123] Creating layer downsample_4/output_downsample_4/output_fixed_0_split
I0123 08:09:16.501266 81047 net.cpp:140] Creating Layer downsample_4/output_downsample_4/output_fixed_0_split
I0123 08:09:16.501269 81047 net.cpp:481] downsample_4/output_downsample_4/output_fixed_0_split <- downsample_4/output
I0123 08:09:16.501276 81047 net.cpp:455] downsample_4/output_downsample_4/output_fixed_0_split -> downsample_4/output_downsample_4/output_fixed_0_split_0
I0123 08:09:16.501287 81047 net.cpp:455] downsample_4/output_downsample_4/output_fixed_0_split -> downsample_4/output_downsample_4/output_fixed_0_split_1
I0123 08:09:16.501315 81047 net.cpp:190] Setting up downsample_4/output_downsample_4/output_fixed_0_split
I0123 08:09:16.501319 81047 net.cpp:197] Top shape: 50 92 16 16 (1177600)
I0123 08:09:16.501322 81047 net.cpp:197] Top shape: 50 92 16 16 (1177600)
I0123 08:09:16.501325 81047 net.cpp:205] Memory required for data: 194356200
I0123 08:09:16.501327 81047 layer_factory.hpp:123] Creating layer inception_5a/1x1
I0123 08:09:16.501334 81047 net.cpp:140] Creating Layer inception_5a/1x1
I0123 08:09:16.501338 81047 net.cpp:481] inception_5a/1x1 <- downsample_4/output_downsample_4/output_fixed_0_split_0
I0123 08:09:16.501344 81047 net.cpp:455] inception_5a/1x1 -> inception_5a/1x1
I0123 08:09:16.501557 81047 layer_factory.hpp:123] Creating layer inception_5a/1x1
I0123 08:09:16.501896 81047 net.cpp:190] Setting up inception_5a/1x1
I0123 08:09:16.501902 81047 net.cpp:197] Top shape: 50 90 16 16 (1152000)
I0123 08:09:16.501912 81047 net.cpp:205] Memory required for data: 198964200
I0123 08:09:16.501917 81047 layer_factory.hpp:123] Creating layer inception_5a/1x1/relu1
I0123 08:09:16.501921 81047 net.cpp:140] Creating Layer inception_5a/1x1/relu1
I0123 08:09:16.501925 81047 net.cpp:481] inception_5a/1x1/relu1 <- inception_5a/1x1
I0123 08:09:16.501930 81047 net.cpp:442] inception_5a/1x1/relu1 -> inception_5a/1x1 (in-place)
I0123 08:09:16.501938 81047 net.cpp:190] Setting up inception_5a/1x1/relu1
I0123 08:09:16.501943 81047 net.cpp:197] Top shape: 50 90 16 16 (1152000)
I0123 08:09:16.501946 81047 net.cpp:205] Memory required for data: 203572200
I0123 08:09:16.501950 81047 layer_factory.hpp:123] Creating layer inception_5a/3x3
I0123 08:09:16.501957 81047 net.cpp:140] Creating Layer inception_5a/3x3
I0123 08:09:16.501965 81047 net.cpp:481] inception_5a/3x3 <- downsample_4/output_downsample_4/output_fixed_0_split_1
I0123 08:09:16.501973 81047 net.cpp:455] inception_5a/3x3 -> inception_5a/3x3
I0123 08:09:16.502337 81047 layer_factory.hpp:123] Creating layer inception_5a/3x3
I0123 08:09:16.502796 81047 net.cpp:190] Setting up inception_5a/3x3
I0123 08:09:16.502804 81047 net.cpp:197] Top shape: 50 40 16 16 (512000)
I0123 08:09:16.502806 81047 net.cpp:205] Memory required for data: 205620200
I0123 08:09:16.502811 81047 layer_factory.hpp:123] Creating layer inception_5a/3x3/relu1
I0123 08:09:16.502816 81047 net.cpp:140] Creating Layer inception_5a/3x3/relu1
I0123 08:09:16.502820 81047 net.cpp:481] inception_5a/3x3/relu1 <- inception_5a/3x3
I0123 08:09:16.502826 81047 net.cpp:442] inception_5a/3x3/relu1 -> inception_5a/3x3 (in-place)
I0123 08:09:16.502838 81047 net.cpp:190] Setting up inception_5a/3x3/relu1
I0123 08:09:16.502843 81047 net.cpp:197] Top shape: 50 40 16 16 (512000)
I0123 08:09:16.502846 81047 net.cpp:205] Memory required for data: 207668200
I0123 08:09:16.502849 81047 layer_factory.hpp:123] Creating layer inception_5a/output
I0123 08:09:16.502853 81047 net.cpp:140] Creating Layer inception_5a/output
I0123 08:09:16.502856 81047 net.cpp:481] inception_5a/output <- inception_5a/1x1
I0123 08:09:16.502859 81047 net.cpp:481] inception_5a/output <- inception_5a/3x3
I0123 08:09:16.502864 81047 net.cpp:455] inception_5a/output -> inception_5a/output
I0123 08:09:16.502885 81047 net.cpp:190] Setting up inception_5a/output
I0123 08:09:16.502892 81047 net.cpp:197] Top shape: 50 130 16 16 (1664000)
I0123 08:09:16.502893 81047 net.cpp:205] Memory required for data: 214324200
I0123 08:09:16.502895 81047 layer_factory.hpp:123] Creating layer inception_5a/output_fixed
I0123 08:09:16.502902 81047 net.cpp:140] Creating Layer inception_5a/output_fixed
I0123 08:09:16.502907 81047 net.cpp:481] inception_5a/output_fixed <- inception_5a/output
I0123 08:09:16.502913 81047 net.cpp:442] inception_5a/output_fixed -> inception_5a/output (in-place)
I0123 08:09:16.502971 81047 net.cpp:190] Setting up inception_5a/output_fixed
I0123 08:09:16.502976 81047 net.cpp:197] Top shape: 50 130 16 16 (1664000)
I0123 08:09:16.502979 81047 net.cpp:205] Memory required for data: 220980200
I0123 08:09:16.502982 81047 layer_factory.hpp:123] Creating layer inception_5a/output_inception_5a/output_fixed_0_split
I0123 08:09:16.502987 81047 net.cpp:140] Creating Layer inception_5a/output_inception_5a/output_fixed_0_split
I0123 08:09:16.502990 81047 net.cpp:481] inception_5a/output_inception_5a/output_fixed_0_split <- inception_5a/output
I0123 08:09:16.502995 81047 net.cpp:455] inception_5a/output_inception_5a/output_fixed_0_split -> inception_5a/output_inception_5a/output_fixed_0_split_0
I0123 08:09:16.503000 81047 net.cpp:455] inception_5a/output_inception_5a/output_fixed_0_split -> inception_5a/output_inception_5a/output_fixed_0_split_1
I0123 08:09:16.503037 81047 net.cpp:190] Setting up inception_5a/output_inception_5a/output_fixed_0_split
I0123 08:09:16.503043 81047 net.cpp:197] Top shape: 50 130 16 16 (1664000)
I0123 08:09:16.503047 81047 net.cpp:197] Top shape: 50 130 16 16 (1664000)
I0123 08:09:16.503051 81047 net.cpp:205] Memory required for data: 234292200
I0123 08:09:16.503053 81047 layer_factory.hpp:123] Creating layer inception_6a/1x1
I0123 08:09:16.503062 81047 net.cpp:140] Creating Layer inception_6a/1x1
I0123 08:09:16.503068 81047 net.cpp:481] inception_6a/1x1 <- inception_5a/output_inception_5a/output_fixed_0_split_0
I0123 08:09:16.503075 81047 net.cpp:455] inception_6a/1x1 -> inception_6a/1x1
I0123 08:09:16.503299 81047 layer_factory.hpp:123] Creating layer inception_6a/1x1
I0123 08:09:16.503651 81047 net.cpp:190] Setting up inception_6a/1x1
I0123 08:09:16.503657 81047 net.cpp:197] Top shape: 50 88 16 16 (1126400)
I0123 08:09:16.503661 81047 net.cpp:205] Memory required for data: 238797800
I0123 08:09:16.503665 81047 layer_factory.hpp:123] Creating layer inception_6a/1x1/relu1
I0123 08:09:16.503670 81047 net.cpp:140] Creating Layer inception_6a/1x1/relu1
I0123 08:09:16.503674 81047 net.cpp:481] inception_6a/1x1/relu1 <- inception_6a/1x1
I0123 08:09:16.503677 81047 net.cpp:442] inception_6a/1x1/relu1 -> inception_6a/1x1 (in-place)
I0123 08:09:16.503682 81047 net.cpp:190] Setting up inception_6a/1x1/relu1
I0123 08:09:16.503686 81047 net.cpp:197] Top shape: 50 88 16 16 (1126400)
I0123 08:09:16.503690 81047 net.cpp:205] Memory required for data: 243303400
I0123 08:09:16.503692 81047 layer_factory.hpp:123] Creating layer inception_6a/3x3
I0123 08:09:16.503700 81047 net.cpp:140] Creating Layer inception_6a/3x3
I0123 08:09:16.503708 81047 net.cpp:481] inception_6a/3x3 <- inception_5a/output_inception_5a/output_fixed_0_split_1
I0123 08:09:16.503716 81047 net.cpp:455] inception_6a/3x3 -> inception_6a/3x3
I0123 08:09:16.504276 81047 layer_factory.hpp:123] Creating layer inception_6a/3x3
I0123 08:09:16.505614 81047 net.cpp:190] Setting up inception_6a/3x3
I0123 08:09:16.505625 81047 net.cpp:197] Top shape: 50 58 16 16 (742400)
I0123 08:09:16.505628 81047 net.cpp:205] Memory required for data: 246273000
I0123 08:09:16.505635 81047 layer_factory.hpp:123] Creating layer inception_6a/3x3/relu1
I0123 08:09:16.505640 81047 net.cpp:140] Creating Layer inception_6a/3x3/relu1
I0123 08:09:16.505645 81047 net.cpp:481] inception_6a/3x3/relu1 <- inception_6a/3x3
I0123 08:09:16.505652 81047 net.cpp:442] inception_6a/3x3/relu1 -> inception_6a/3x3 (in-place)
I0123 08:09:16.505662 81047 net.cpp:190] Setting up inception_6a/3x3/relu1
I0123 08:09:16.505667 81047 net.cpp:197] Top shape: 50 58 16 16 (742400)
I0123 08:09:16.505671 81047 net.cpp:205] Memory required for data: 249242600
I0123 08:09:16.505674 81047 layer_factory.hpp:123] Creating layer inception_6a/output
I0123 08:09:16.505681 81047 net.cpp:140] Creating Layer inception_6a/output
I0123 08:09:16.505683 81047 net.cpp:481] inception_6a/output <- inception_6a/1x1
I0123 08:09:16.505689 81047 net.cpp:481] inception_6a/output <- inception_6a/3x3
I0123 08:09:16.505695 81047 net.cpp:455] inception_6a/output -> inception_6a/output
I0123 08:09:16.505717 81047 net.cpp:190] Setting up inception_6a/output
I0123 08:09:16.505723 81047 net.cpp:197] Top shape: 50 146 16 16 (1868800)
I0123 08:09:16.505726 81047 net.cpp:205] Memory required for data: 256717800
I0123 08:09:16.505728 81047 layer_factory.hpp:123] Creating layer inception_6a/output_fixed
I0123 08:09:16.505735 81047 net.cpp:140] Creating Layer inception_6a/output_fixed
I0123 08:09:16.505738 81047 net.cpp:481] inception_6a/output_fixed <- inception_6a/output
I0123 08:09:16.505743 81047 net.cpp:442] inception_6a/output_fixed -> inception_6a/output (in-place)
I0123 08:09:16.505770 81047 net.cpp:190] Setting up inception_6a/output_fixed
I0123 08:09:16.505776 81047 net.cpp:197] Top shape: 50 146 16 16 (1868800)
I0123 08:09:16.505779 81047 net.cpp:205] Memory required for data: 264193000
I0123 08:09:16.505782 81047 layer_factory.hpp:123] Creating layer inception_6a/output_inception_6a/output_fixed_0_split
I0123 08:09:16.505787 81047 net.cpp:140] Creating Layer inception_6a/output_inception_6a/output_fixed_0_split
I0123 08:09:16.505790 81047 net.cpp:481] inception_6a/output_inception_6a/output_fixed_0_split <- inception_6a/output
I0123 08:09:16.505795 81047 net.cpp:455] inception_6a/output_inception_6a/output_fixed_0_split -> inception_6a/output_inception_6a/output_fixed_0_split_0
I0123 08:09:16.505802 81047 net.cpp:455] inception_6a/output_inception_6a/output_fixed_0_split -> inception_6a/output_inception_6a/output_fixed_0_split_1
I0123 08:09:16.505836 81047 net.cpp:190] Setting up inception_6a/output_inception_6a/output_fixed_0_split
I0123 08:09:16.505841 81047 net.cpp:197] Top shape: 50 146 16 16 (1868800)
I0123 08:09:16.505844 81047 net.cpp:197] Top shape: 50 146 16 16 (1868800)
I0123 08:09:16.505847 81047 net.cpp:205] Memory required for data: 279143400
I0123 08:09:16.505849 81047 layer_factory.hpp:123] Creating layer inception_7a/1x1
I0123 08:09:16.505856 81047 net.cpp:140] Creating Layer inception_7a/1x1
I0123 08:09:16.505861 81047 net.cpp:481] inception_7a/1x1 <- inception_6a/output_inception_6a/output_fixed_0_split_0
I0123 08:09:16.505867 81047 net.cpp:455] inception_7a/1x1 -> inception_7a/1x1
I0123 08:09:16.506095 81047 layer_factory.hpp:123] Creating layer inception_7a/1x1
I0123 08:09:16.506450 81047 net.cpp:190] Setting up inception_7a/1x1
I0123 08:09:16.506458 81047 net.cpp:197] Top shape: 50 56 16 16 (716800)
I0123 08:09:16.506460 81047 net.cpp:205] Memory required for data: 282010600
I0123 08:09:16.506465 81047 layer_factory.hpp:123] Creating layer inception_7a/1x1/relu1
I0123 08:09:16.506469 81047 net.cpp:140] Creating Layer inception_7a/1x1/relu1
I0123 08:09:16.506472 81047 net.cpp:481] inception_7a/1x1/relu1 <- inception_7a/1x1
I0123 08:09:16.506477 81047 net.cpp:442] inception_7a/1x1/relu1 -> inception_7a/1x1 (in-place)
I0123 08:09:16.506484 81047 net.cpp:190] Setting up inception_7a/1x1/relu1
I0123 08:09:16.506486 81047 net.cpp:197] Top shape: 50 56 16 16 (716800)
I0123 08:09:16.506489 81047 net.cpp:205] Memory required for data: 284877800
I0123 08:09:16.506492 81047 layer_factory.hpp:123] Creating layer inception_7a/3x3
I0123 08:09:16.506501 81047 net.cpp:140] Creating Layer inception_7a/3x3
I0123 08:09:16.506508 81047 net.cpp:481] inception_7a/3x3 <- inception_6a/output_inception_6a/output_fixed_0_split_1
I0123 08:09:16.506518 81047 net.cpp:455] inception_7a/3x3 -> inception_7a/3x3
I0123 08:09:16.507258 81047 layer_factory.hpp:123] Creating layer inception_7a/3x3
I0123 08:09:16.508116 81047 net.cpp:190] Setting up inception_7a/3x3
I0123 08:09:16.508123 81047 net.cpp:197] Top shape: 50 80 16 16 (1024000)
I0123 08:09:16.508126 81047 net.cpp:205] Memory required for data: 288973800
I0123 08:09:16.508132 81047 layer_factory.hpp:123] Creating layer inception_7a/3x3/relu1
I0123 08:09:16.508137 81047 net.cpp:140] Creating Layer inception_7a/3x3/relu1
I0123 08:09:16.508141 81047 net.cpp:481] inception_7a/3x3/relu1 <- inception_7a/3x3
I0123 08:09:16.508146 81047 net.cpp:442] inception_7a/3x3/relu1 -> inception_7a/3x3 (in-place)
I0123 08:09:16.508152 81047 net.cpp:190] Setting up inception_7a/3x3/relu1
I0123 08:09:16.508157 81047 net.cpp:197] Top shape: 50 80 16 16 (1024000)
I0123 08:09:16.508159 81047 net.cpp:205] Memory required for data: 293069800
I0123 08:09:16.508163 81047 layer_factory.hpp:123] Creating layer inception_7a/output
I0123 08:09:16.508169 81047 net.cpp:140] Creating Layer inception_7a/output
I0123 08:09:16.508172 81047 net.cpp:481] inception_7a/output <- inception_7a/1x1
I0123 08:09:16.508177 81047 net.cpp:481] inception_7a/output <- inception_7a/3x3
I0123 08:09:16.508183 81047 net.cpp:455] inception_7a/output -> inception_7a/output
I0123 08:09:16.508201 81047 net.cpp:190] Setting up inception_7a/output
I0123 08:09:16.508206 81047 net.cpp:197] Top shape: 50 136 16 16 (1740800)
I0123 08:09:16.508209 81047 net.cpp:205] Memory required for data: 300033000
I0123 08:09:16.508211 81047 layer_factory.hpp:123] Creating layer inception_7a/output_fixed
I0123 08:09:16.508216 81047 net.cpp:140] Creating Layer inception_7a/output_fixed
I0123 08:09:16.508219 81047 net.cpp:481] inception_7a/output_fixed <- inception_7a/output
I0123 08:09:16.508224 81047 net.cpp:442] inception_7a/output_fixed -> inception_7a/output (in-place)
I0123 08:09:16.508253 81047 net.cpp:190] Setting up inception_7a/output_fixed
I0123 08:09:16.508258 81047 net.cpp:197] Top shape: 50 136 16 16 (1740800)
I0123 08:09:16.508261 81047 net.cpp:205] Memory required for data: 306996200
I0123 08:09:16.508265 81047 layer_factory.hpp:123] Creating layer inception_7a/output_inception_7a/output_fixed_0_split
I0123 08:09:16.508270 81047 net.cpp:140] Creating Layer inception_7a/output_inception_7a/output_fixed_0_split
I0123 08:09:16.508272 81047 net.cpp:481] inception_7a/output_inception_7a/output_fixed_0_split <- inception_7a/output
I0123 08:09:16.508277 81047 net.cpp:455] inception_7a/output_inception_7a/output_fixed_0_split -> inception_7a/output_inception_7a/output_fixed_0_split_0
I0123 08:09:16.508285 81047 net.cpp:455] inception_7a/output_inception_7a/output_fixed_0_split -> inception_7a/output_inception_7a/output_fixed_0_split_1
I0123 08:09:16.508317 81047 net.cpp:190] Setting up inception_7a/output_inception_7a/output_fixed_0_split
I0123 08:09:16.508322 81047 net.cpp:197] Top shape: 50 136 16 16 (1740800)
I0123 08:09:16.508327 81047 net.cpp:197] Top shape: 50 136 16 16 (1740800)
I0123 08:09:16.508328 81047 net.cpp:205] Memory required for data: 320922600
I0123 08:09:16.508330 81047 layer_factory.hpp:123] Creating layer inception_8a/1x1
I0123 08:09:16.508339 81047 net.cpp:140] Creating Layer inception_8a/1x1
I0123 08:09:16.508345 81047 net.cpp:481] inception_8a/1x1 <- inception_7a/output_inception_7a/output_fixed_0_split_0
I0123 08:09:16.508352 81047 net.cpp:455] inception_8a/1x1 -> inception_8a/1x1
I0123 08:09:16.508550 81047 layer_factory.hpp:123] Creating layer inception_8a/1x1
I0123 08:09:16.508855 81047 net.cpp:190] Setting up inception_8a/1x1
I0123 08:09:16.508862 81047 net.cpp:197] Top shape: 50 40 16 16 (512000)
I0123 08:09:16.508864 81047 net.cpp:205] Memory required for data: 322970600
I0123 08:09:16.508872 81047 layer_factory.hpp:123] Creating layer inception_8a/1x1/relu1
I0123 08:09:16.508878 81047 net.cpp:140] Creating Layer inception_8a/1x1/relu1
I0123 08:09:16.508884 81047 net.cpp:481] inception_8a/1x1/relu1 <- inception_8a/1x1
I0123 08:09:16.508890 81047 net.cpp:442] inception_8a/1x1/relu1 -> inception_8a/1x1 (in-place)
I0123 08:09:16.508898 81047 net.cpp:190] Setting up inception_8a/1x1/relu1
I0123 08:09:16.508905 81047 net.cpp:197] Top shape: 50 40 16 16 (512000)
I0123 08:09:16.508909 81047 net.cpp:205] Memory required for data: 325018600
I0123 08:09:16.508911 81047 layer_factory.hpp:123] Creating layer inception_8a/3x3
I0123 08:09:16.508919 81047 net.cpp:140] Creating Layer inception_8a/3x3
I0123 08:09:16.508924 81047 net.cpp:481] inception_8a/3x3 <- inception_7a/output_inception_7a/output_fixed_0_split_1
I0123 08:09:16.508932 81047 net.cpp:455] inception_8a/3x3 -> inception_8a/3x3
I0123 08:09:16.510376 81047 layer_factory.hpp:123] Creating layer inception_8a/3x3
I0123 08:09:16.511309 81047 net.cpp:190] Setting up inception_8a/3x3
I0123 08:09:16.511319 81047 net.cpp:197] Top shape: 50 96 16 16 (1228800)
I0123 08:09:16.511322 81047 net.cpp:205] Memory required for data: 329933800
I0123 08:09:16.511327 81047 layer_factory.hpp:123] Creating layer inception_8a/3x3/relu1
I0123 08:09:16.511333 81047 net.cpp:140] Creating Layer inception_8a/3x3/relu1
I0123 08:09:16.511338 81047 net.cpp:481] inception_8a/3x3/relu1 <- inception_8a/3x3
I0123 08:09:16.511344 81047 net.cpp:442] inception_8a/3x3/relu1 -> inception_8a/3x3 (in-place)
I0123 08:09:16.511358 81047 net.cpp:190] Setting up inception_8a/3x3/relu1
I0123 08:09:16.511363 81047 net.cpp:197] Top shape: 50 96 16 16 (1228800)
I0123 08:09:16.511366 81047 net.cpp:205] Memory required for data: 334849000
I0123 08:09:16.511368 81047 layer_factory.hpp:123] Creating layer inception_8a/output
I0123 08:09:16.511373 81047 net.cpp:140] Creating Layer inception_8a/output
I0123 08:09:16.511375 81047 net.cpp:481] inception_8a/output <- inception_8a/1x1
I0123 08:09:16.511379 81047 net.cpp:481] inception_8a/output <- inception_8a/3x3
I0123 08:09:16.511384 81047 net.cpp:455] inception_8a/output -> inception_8a/output
I0123 08:09:16.511399 81047 net.cpp:190] Setting up inception_8a/output
I0123 08:09:16.511404 81047 net.cpp:197] Top shape: 50 136 16 16 (1740800)
I0123 08:09:16.511407 81047 net.cpp:205] Memory required for data: 341812200
I0123 08:09:16.511409 81047 layer_factory.hpp:123] Creating layer inception_8a/output_fixed
I0123 08:09:16.511413 81047 net.cpp:140] Creating Layer inception_8a/output_fixed
I0123 08:09:16.511416 81047 net.cpp:481] inception_8a/output_fixed <- inception_8a/output
I0123 08:09:16.511420 81047 net.cpp:442] inception_8a/output_fixed -> inception_8a/output (in-place)
I0123 08:09:16.511451 81047 net.cpp:190] Setting up inception_8a/output_fixed
I0123 08:09:16.511456 81047 net.cpp:197] Top shape: 50 136 16 16 (1740800)
I0123 08:09:16.511459 81047 net.cpp:205] Memory required for data: 348775400
I0123 08:09:16.511463 81047 layer_factory.hpp:123] Creating layer inception_8a/output_inception_8a/output_fixed_0_split
I0123 08:09:16.511467 81047 net.cpp:140] Creating Layer inception_8a/output_inception_8a/output_fixed_0_split
I0123 08:09:16.511471 81047 net.cpp:481] inception_8a/output_inception_8a/output_fixed_0_split <- inception_8a/output
I0123 08:09:16.511474 81047 net.cpp:455] inception_8a/output_inception_8a/output_fixed_0_split -> inception_8a/output_inception_8a/output_fixed_0_split_0
I0123 08:09:16.511481 81047 net.cpp:455] inception_8a/output_inception_8a/output_fixed_0_split -> inception_8a/output_inception_8a/output_fixed_0_split_1
I0123 08:09:16.511513 81047 net.cpp:190] Setting up inception_8a/output_inception_8a/output_fixed_0_split
I0123 08:09:16.511519 81047 net.cpp:197] Top shape: 50 136 16 16 (1740800)
I0123 08:09:16.511523 81047 net.cpp:197] Top shape: 50 136 16 16 (1740800)
I0123 08:09:16.511525 81047 net.cpp:205] Memory required for data: 362701800
I0123 08:09:16.511528 81047 layer_factory.hpp:123] Creating layer downsample_9/3x3_s2
I0123 08:09:16.511535 81047 net.cpp:140] Creating Layer downsample_9/3x3_s2
I0123 08:09:16.511539 81047 net.cpp:481] downsample_9/3x3_s2 <- inception_8a/output_inception_8a/output_fixed_0_split_0
I0123 08:09:16.511544 81047 net.cpp:455] downsample_9/3x3_s2 -> downsample_9/3x3_s2
I0123 08:09:16.512862 81047 layer_factory.hpp:123] Creating layer downsample_9/3x3_s2
I0123 08:09:16.513684 81047 net.cpp:190] Setting up downsample_9/3x3_s2
I0123 08:09:16.513695 81047 net.cpp:197] Top shape: 50 78 8 8 (249600)
I0123 08:09:16.513697 81047 net.cpp:205] Memory required for data: 363700200
I0123 08:09:16.513702 81047 layer_factory.hpp:123] Creating layer downsample_9/3x3_s2/relu1
I0123 08:09:16.513707 81047 net.cpp:140] Creating Layer downsample_9/3x3_s2/relu1
I0123 08:09:16.513711 81047 net.cpp:481] downsample_9/3x3_s2/relu1 <- downsample_9/3x3_s2
I0123 08:09:16.513717 81047 net.cpp:442] downsample_9/3x3_s2/relu1 -> downsample_9/3x3_s2 (in-place)
I0123 08:09:16.513725 81047 net.cpp:190] Setting up downsample_9/3x3_s2/relu1
I0123 08:09:16.513730 81047 net.cpp:197] Top shape: 50 78 8 8 (249600)
I0123 08:09:16.513733 81047 net.cpp:205] Memory required for data: 364698600
I0123 08:09:16.513737 81047 layer_factory.hpp:123] Creating layer downsample_9/pool_s2
I0123 08:09:16.513744 81047 net.cpp:140] Creating Layer downsample_9/pool_s2
I0123 08:09:16.513749 81047 net.cpp:481] downsample_9/pool_s2 <- inception_8a/output_inception_8a/output_fixed_0_split_1
I0123 08:09:16.513754 81047 net.cpp:455] downsample_9/pool_s2 -> downsample_9/pool_s2
I0123 08:09:16.513788 81047 net.cpp:190] Setting up downsample_9/pool_s2
I0123 08:09:16.513793 81047 net.cpp:197] Top shape: 50 136 8 8 (435200)
I0123 08:09:16.513797 81047 net.cpp:205] Memory required for data: 366439400
I0123 08:09:16.513798 81047 layer_factory.hpp:123] Creating layer downsample_9/output
I0123 08:09:16.513803 81047 net.cpp:140] Creating Layer downsample_9/output
I0123 08:09:16.513805 81047 net.cpp:481] downsample_9/output <- downsample_9/3x3_s2
I0123 08:09:16.513809 81047 net.cpp:481] downsample_9/output <- downsample_9/pool_s2
I0123 08:09:16.513816 81047 net.cpp:455] downsample_9/output -> downsample_9/output
I0123 08:09:16.513839 81047 net.cpp:190] Setting up downsample_9/output
I0123 08:09:16.513844 81047 net.cpp:197] Top shape: 50 214 8 8 (684800)
I0123 08:09:16.513849 81047 net.cpp:205] Memory required for data: 369178600
I0123 08:09:16.513850 81047 layer_factory.hpp:123] Creating layer downsample_9/output_fixed
I0123 08:09:16.513855 81047 net.cpp:140] Creating Layer downsample_9/output_fixed
I0123 08:09:16.513857 81047 net.cpp:481] downsample_9/output_fixed <- downsample_9/output
I0123 08:09:16.513861 81047 net.cpp:442] downsample_9/output_fixed -> downsample_9/output (in-place)
I0123 08:09:16.513893 81047 net.cpp:190] Setting up downsample_9/output_fixed
I0123 08:09:16.513900 81047 net.cpp:197] Top shape: 50 214 8 8 (684800)
I0123 08:09:16.513902 81047 net.cpp:205] Memory required for data: 371917800
I0123 08:09:16.513911 81047 layer_factory.hpp:123] Creating layer downsample_9/output_downsample_9/output_fixed_0_split
I0123 08:09:16.513916 81047 net.cpp:140] Creating Layer downsample_9/output_downsample_9/output_fixed_0_split
I0123 08:09:16.513918 81047 net.cpp:481] downsample_9/output_downsample_9/output_fixed_0_split <- downsample_9/output
I0123 08:09:16.513922 81047 net.cpp:455] downsample_9/output_downsample_9/output_fixed_0_split -> downsample_9/output_downsample_9/output_fixed_0_split_0
I0123 08:09:16.513929 81047 net.cpp:455] downsample_9/output_downsample_9/output_fixed_0_split -> downsample_9/output_downsample_9/output_fixed_0_split_1
I0123 08:09:16.513962 81047 net.cpp:190] Setting up downsample_9/output_downsample_9/output_fixed_0_split
I0123 08:09:16.513967 81047 net.cpp:197] Top shape: 50 214 8 8 (684800)
I0123 08:09:16.513970 81047 net.cpp:197] Top shape: 50 214 8 8 (684800)
I0123 08:09:16.513972 81047 net.cpp:205] Memory required for data: 377396200
I0123 08:09:16.513974 81047 layer_factory.hpp:123] Creating layer inception_10a/1x1
I0123 08:09:16.513983 81047 net.cpp:140] Creating Layer inception_10a/1x1
I0123 08:09:16.513988 81047 net.cpp:481] inception_10a/1x1 <- downsample_9/output_downsample_9/output_fixed_0_split_0
I0123 08:09:16.513993 81047 net.cpp:455] inception_10a/1x1 -> inception_10a/1x1
I0123 08:09:16.514794 81047 layer_factory.hpp:123] Creating layer inception_10a/1x1
I0123 08:09:16.515113 81047 net.cpp:190] Setting up inception_10a/1x1
I0123 08:09:16.515121 81047 net.cpp:197] Top shape: 50 18 8 8 (57600)
I0123 08:09:16.515123 81047 net.cpp:205] Memory required for data: 377626600
I0123 08:09:16.515130 81047 layer_factory.hpp:123] Creating layer inception_10a/1x1/relu1
I0123 08:09:16.515134 81047 net.cpp:140] Creating Layer inception_10a/1x1/relu1
I0123 08:09:16.515139 81047 net.cpp:481] inception_10a/1x1/relu1 <- inception_10a/1x1
I0123 08:09:16.515146 81047 net.cpp:442] inception_10a/1x1/relu1 -> inception_10a/1x1 (in-place)
I0123 08:09:16.515156 81047 net.cpp:190] Setting up inception_10a/1x1/relu1
I0123 08:09:16.515163 81047 net.cpp:197] Top shape: 50 18 8 8 (57600)
I0123 08:09:16.515167 81047 net.cpp:205] Memory required for data: 377857000
I0123 08:09:16.515170 81047 layer_factory.hpp:123] Creating layer inception_10a/3x3
I0123 08:09:16.515182 81047 net.cpp:140] Creating Layer inception_10a/3x3
I0123 08:09:16.515187 81047 net.cpp:481] inception_10a/3x3 <- downsample_9/output_downsample_9/output_fixed_0_split_1
I0123 08:09:16.515194 81047 net.cpp:455] inception_10a/3x3 -> inception_10a/3x3
I0123 08:09:16.517951 81047 layer_factory.hpp:123] Creating layer inception_10a/3x3
I0123 08:09:16.520803 81047 net.cpp:190] Setting up inception_10a/3x3
I0123 08:09:16.520815 81047 net.cpp:197] Top shape: 50 144 8 8 (460800)
I0123 08:09:16.520818 81047 net.cpp:205] Memory required for data: 379700200
I0123 08:09:16.520823 81047 layer_factory.hpp:123] Creating layer inception_10a/3x3/relu1
I0123 08:09:16.520848 81047 net.cpp:140] Creating Layer inception_10a/3x3/relu1
I0123 08:09:16.520851 81047 net.cpp:481] inception_10a/3x3/relu1 <- inception_10a/3x3
I0123 08:09:16.520856 81047 net.cpp:442] inception_10a/3x3/relu1 -> inception_10a/3x3 (in-place)
I0123 08:09:16.520862 81047 net.cpp:190] Setting up inception_10a/3x3/relu1
I0123 08:09:16.520866 81047 net.cpp:197] Top shape: 50 144 8 8 (460800)
I0123 08:09:16.520869 81047 net.cpp:205] Memory required for data: 381543400
I0123 08:09:16.520872 81047 layer_factory.hpp:123] Creating layer inception_10a/output
I0123 08:09:16.520877 81047 net.cpp:140] Creating Layer inception_10a/output
I0123 08:09:16.520881 81047 net.cpp:481] inception_10a/output <- inception_10a/1x1
I0123 08:09:16.520886 81047 net.cpp:481] inception_10a/output <- inception_10a/3x3
I0123 08:09:16.520892 81047 net.cpp:455] inception_10a/output -> inception_10a/output
I0123 08:09:16.520917 81047 net.cpp:190] Setting up inception_10a/output
I0123 08:09:16.520923 81047 net.cpp:197] Top shape: 50 162 8 8 (518400)
I0123 08:09:16.520926 81047 net.cpp:205] Memory required for data: 383617000
I0123 08:09:16.520929 81047 layer_factory.hpp:123] Creating layer inception_10a/output_fixed
I0123 08:09:16.520933 81047 net.cpp:140] Creating Layer inception_10a/output_fixed
I0123 08:09:16.520936 81047 net.cpp:481] inception_10a/output_fixed <- inception_10a/output
I0123 08:09:16.520943 81047 net.cpp:442] inception_10a/output_fixed -> inception_10a/output (in-place)
I0123 08:09:16.520975 81047 net.cpp:190] Setting up inception_10a/output_fixed
I0123 08:09:16.520980 81047 net.cpp:197] Top shape: 50 162 8 8 (518400)
I0123 08:09:16.520983 81047 net.cpp:205] Memory required for data: 385690600
I0123 08:09:16.520987 81047 layer_factory.hpp:123] Creating layer inception_10a/output_inception_10a/output_fixed_0_split
I0123 08:09:16.520992 81047 net.cpp:140] Creating Layer inception_10a/output_inception_10a/output_fixed_0_split
I0123 08:09:16.520994 81047 net.cpp:481] inception_10a/output_inception_10a/output_fixed_0_split <- inception_10a/output
I0123 08:09:16.520998 81047 net.cpp:455] inception_10a/output_inception_10a/output_fixed_0_split -> inception_10a/output_inception_10a/output_fixed_0_split_0
I0123 08:09:16.521005 81047 net.cpp:455] inception_10a/output_inception_10a/output_fixed_0_split -> inception_10a/output_inception_10a/output_fixed_0_split_1
I0123 08:09:16.521034 81047 net.cpp:190] Setting up inception_10a/output_inception_10a/output_fixed_0_split
I0123 08:09:16.521039 81047 net.cpp:197] Top shape: 50 162 8 8 (518400)
I0123 08:09:16.521041 81047 net.cpp:197] Top shape: 50 162 8 8 (518400)
I0123 08:09:16.521044 81047 net.cpp:205] Memory required for data: 389837800
I0123 08:09:16.521046 81047 layer_factory.hpp:123] Creating layer inception_11a/1x1
I0123 08:09:16.521054 81047 net.cpp:140] Creating Layer inception_11a/1x1
I0123 08:09:16.521057 81047 net.cpp:481] inception_11a/1x1 <- inception_10a/output_inception_10a/output_fixed_0_split_0
I0123 08:09:16.521062 81047 net.cpp:455] inception_11a/1x1 -> inception_11a/1x1
I0123 08:09:16.521330 81047 layer_factory.hpp:123] Creating layer inception_11a/1x1
I0123 08:09:16.521710 81047 net.cpp:190] Setting up inception_11a/1x1
I0123 08:09:16.521716 81047 net.cpp:197] Top shape: 50 106 8 8 (339200)
I0123 08:09:16.521719 81047 net.cpp:205] Memory required for data: 391194600
I0123 08:09:16.521724 81047 layer_factory.hpp:123] Creating layer inception_11a/1x1/relu1
I0123 08:09:16.521729 81047 net.cpp:140] Creating Layer inception_11a/1x1/relu1
I0123 08:09:16.521733 81047 net.cpp:481] inception_11a/1x1/relu1 <- inception_11a/1x1
I0123 08:09:16.521737 81047 net.cpp:442] inception_11a/1x1/relu1 -> inception_11a/1x1 (in-place)
I0123 08:09:16.521742 81047 net.cpp:190] Setting up inception_11a/1x1/relu1
I0123 08:09:16.521746 81047 net.cpp:197] Top shape: 50 106 8 8 (339200)
I0123 08:09:16.521749 81047 net.cpp:205] Memory required for data: 392551400
I0123 08:09:16.521752 81047 layer_factory.hpp:123] Creating layer inception_11a/3x3
I0123 08:09:16.521759 81047 net.cpp:140] Creating Layer inception_11a/3x3
I0123 08:09:16.521765 81047 net.cpp:481] inception_11a/3x3 <- inception_10a/output_inception_10a/output_fixed_0_split_1
I0123 08:09:16.521771 81047 net.cpp:455] inception_11a/3x3 -> inception_11a/3x3
I0123 08:09:16.523077 81047 layer_factory.hpp:123] Creating layer inception_11a/3x3
I0123 08:09:16.524502 81047 net.cpp:190] Setting up inception_11a/3x3
I0123 08:09:16.524510 81047 net.cpp:197] Top shape: 50 144 8 8 (460800)
I0123 08:09:16.524513 81047 net.cpp:205] Memory required for data: 394394600
I0123 08:09:16.524518 81047 layer_factory.hpp:123] Creating layer inception_11a/3x3/relu1
I0123 08:09:16.524539 81047 net.cpp:140] Creating Layer inception_11a/3x3/relu1
I0123 08:09:16.524543 81047 net.cpp:481] inception_11a/3x3/relu1 <- inception_11a/3x3
I0123 08:09:16.524547 81047 net.cpp:442] inception_11a/3x3/relu1 -> inception_11a/3x3 (in-place)
I0123 08:09:16.524554 81047 net.cpp:190] Setting up inception_11a/3x3/relu1
I0123 08:09:16.524557 81047 net.cpp:197] Top shape: 50 144 8 8 (460800)
I0123 08:09:16.524559 81047 net.cpp:205] Memory required for data: 396237800
I0123 08:09:16.524562 81047 layer_factory.hpp:123] Creating layer inception_11a/output
I0123 08:09:16.524566 81047 net.cpp:140] Creating Layer inception_11a/output
I0123 08:09:16.524569 81047 net.cpp:481] inception_11a/output <- inception_11a/1x1
I0123 08:09:16.524572 81047 net.cpp:481] inception_11a/output <- inception_11a/3x3
I0123 08:09:16.524576 81047 net.cpp:455] inception_11a/output -> inception_11a/output
I0123 08:09:16.524595 81047 net.cpp:190] Setting up inception_11a/output
I0123 08:09:16.524600 81047 net.cpp:197] Top shape: 50 250 8 8 (800000)
I0123 08:09:16.524603 81047 net.cpp:205] Memory required for data: 399437800
I0123 08:09:16.524605 81047 layer_factory.hpp:123] Creating layer inception_11a/output_fixed
I0123 08:09:16.524610 81047 net.cpp:140] Creating Layer inception_11a/output_fixed
I0123 08:09:16.524613 81047 net.cpp:481] inception_11a/output_fixed <- inception_11a/output
I0123 08:09:16.524617 81047 net.cpp:442] inception_11a/output_fixed -> inception_11a/output (in-place)
I0123 08:09:16.524652 81047 net.cpp:190] Setting up inception_11a/output_fixed
I0123 08:09:16.524658 81047 net.cpp:197] Top shape: 50 250 8 8 (800000)
I0123 08:09:16.524662 81047 net.cpp:205] Memory required for data: 402637800
I0123 08:09:16.524665 81047 layer_factory.hpp:123] Creating layer avg_pool_12/8x8_s1
I0123 08:09:16.524670 81047 net.cpp:140] Creating Layer avg_pool_12/8x8_s1
I0123 08:09:16.524673 81047 net.cpp:481] avg_pool_12/8x8_s1 <- inception_11a/output
I0123 08:09:16.524678 81047 net.cpp:455] avg_pool_12/8x8_s1 -> avg_pool_12/8x8_s1
I0123 08:09:16.524701 81047 net.cpp:190] Setting up avg_pool_12/8x8_s1
I0123 08:09:16.524708 81047 net.cpp:197] Top shape: 50 250 1 1 (12500)
I0123 08:09:16.524711 81047 net.cpp:205] Memory required for data: 402687800
I0123 08:09:16.524715 81047 layer_factory.hpp:123] Creating layer avg_pool_12/8x8_s1_fixed
I0123 08:09:16.524719 81047 net.cpp:140] Creating Layer avg_pool_12/8x8_s1_fixed
I0123 08:09:16.524722 81047 net.cpp:481] avg_pool_12/8x8_s1_fixed <- avg_pool_12/8x8_s1
I0123 08:09:16.524726 81047 net.cpp:442] avg_pool_12/8x8_s1_fixed -> avg_pool_12/8x8_s1 (in-place)
I0123 08:09:16.524757 81047 net.cpp:190] Setting up avg_pool_12/8x8_s1_fixed
I0123 08:09:16.524762 81047 net.cpp:197] Top shape: 50 250 1 1 (12500)
I0123 08:09:16.524765 81047 net.cpp:205] Memory required for data: 402737800
I0123 08:09:16.524768 81047 layer_factory.hpp:123] Creating layer loss/classifier
I0123 08:09:16.524775 81047 net.cpp:140] Creating Layer loss/classifier
I0123 08:09:16.524778 81047 net.cpp:481] loss/classifier <- avg_pool_12/8x8_s1
I0123 08:09:16.524785 81047 net.cpp:455] loss/classifier -> loss/classifier
I0123 08:09:16.524893 81047 layer_factory.hpp:123] Creating layer loss/classifier
I0123 08:09:16.525039 81047 net.cpp:190] Setting up loss/classifier
I0123 08:09:16.525045 81047 net.cpp:197] Top shape: 50 10 (500)
I0123 08:09:16.525048 81047 net.cpp:205] Memory required for data: 402739800
I0123 08:09:16.525053 81047 layer_factory.hpp:123] Creating layer loss/classifier_fixed
I0123 08:09:16.525058 81047 net.cpp:140] Creating Layer loss/classifier_fixed
I0123 08:09:16.525060 81047 net.cpp:481] loss/classifier_fixed <- loss/classifier
I0123 08:09:16.525065 81047 net.cpp:442] loss/classifier_fixed -> loss/classifier (in-place)
I0123 08:09:16.525095 81047 net.cpp:190] Setting up loss/classifier_fixed
I0123 08:09:16.525100 81047 net.cpp:197] Top shape: 50 10 (500)
I0123 08:09:16.525104 81047 net.cpp:205] Memory required for data: 402741800
I0123 08:09:16.525106 81047 layer_factory.hpp:123] Creating layer loss/classifier_loss/classifier_fixed_0_split
I0123 08:09:16.525111 81047 net.cpp:140] Creating Layer loss/classifier_loss/classifier_fixed_0_split
I0123 08:09:16.525115 81047 net.cpp:481] loss/classifier_loss/classifier_fixed_0_split <- loss/classifier
I0123 08:09:16.525120 81047 net.cpp:455] loss/classifier_loss/classifier_fixed_0_split -> loss/classifier_loss/classifier_fixed_0_split_0
I0123 08:09:16.525128 81047 net.cpp:455] loss/classifier_loss/classifier_fixed_0_split -> loss/classifier_loss/classifier_fixed_0_split_1
I0123 08:09:16.525138 81047 net.cpp:455] loss/classifier_loss/classifier_fixed_0_split -> loss/classifier_loss/classifier_fixed_0_split_2
I0123 08:09:16.525144 81047 net.cpp:455] loss/classifier_loss/classifier_fixed_0_split -> loss/classifier_loss/classifier_fixed_0_split_3
I0123 08:09:16.525197 81047 net.cpp:190] Setting up loss/classifier_loss/classifier_fixed_0_split
I0123 08:09:16.525202 81047 net.cpp:197] Top shape: 50 10 (500)
I0123 08:09:16.525207 81047 net.cpp:197] Top shape: 50 10 (500)
I0123 08:09:16.525209 81047 net.cpp:197] Top shape: 50 10 (500)
I0123 08:09:16.525213 81047 net.cpp:197] Top shape: 50 10 (500)
I0123 08:09:16.525215 81047 net.cpp:205] Memory required for data: 402749800
I0123 08:09:16.525218 81047 layer_factory.hpp:123] Creating layer loss
I0123 08:09:16.525225 81047 net.cpp:140] Creating Layer loss
I0123 08:09:16.525229 81047 net.cpp:481] loss <- loss/classifier_loss/classifier_fixed_0_split_0
I0123 08:09:16.525234 81047 net.cpp:481] loss <- label_data_1_split_0
I0123 08:09:16.525240 81047 net.cpp:455] loss -> loss
…
