…
I0122 14:49:20.132210  3908 net.cpp:369] The NetState phase (0) differed from the phase (1) specified by a rule in layer accuracy-top5
I0122 14:49:20.132743  3908 net.cpp:98] Initializing net from parameters: 
state {
  phase: TRAIN
}
layer {
  name: "data"
  type: "ImageData"
  top: "data"
  top: "label"
  include {
    phase: TRAIN
  }
  transform_param {
    crop_size: 32
    mean_value: 125
    mean_value: 123
    mean_value: 114
  }
  image_data_param {
    source: "cifar10/deephi/miniGoogleNet/quantiz/data/calib/calibration.txt"
    batch_size: 10
    shuffle: true
    root_folder: "cifar10/deephi/miniGoogleNet/quantiz/data/calib/"
  }
}
layer {
  name: "data_fixed"
  type: "FixedNeuron"
  bottom: "data"
  top: "data"
  param {
    lr_mult: 0
    decay_mult: 0
  }
  fixed_param {
    fixed_method: OVER_FLOW
    bit_width: 8
    follow_data_layer: true
  }
}
layer {
  name: "conv1/3x3_s1"
  type: "ConvolutionFixed"
  bottom: "data"
  top: "conv1/3x3_s1"
  param {
    lr_mult: 1
    decay_mult: 1
  }
  param {
    lr_mult: 1
    decay_mult: 0
  }
  convolution_param {
    num_output: 96
    bias_term: true
    pad: 1
    kernel_size: 3
    stride: 1
    weight_filler {
      type: "xavier"
      std: 0.1
    }
    bias_filler {
      type: "constant"
      value: 0.2
    }
  }
  fixed_param {
    fixed_method: DIFF_S
    bit_width: 8
  }
}
layer {
  name: "conv1/relu1"
  type: "ReLU"
  bottom: "conv1/3x3_s1"
  top: "conv1/3x3_s1"
}
layer {
  name: "conv1/3x3_s1_fixed"
  type: "FixedNeuron"
  bottom: "conv1/3x3_s1"
  top: "conv1/3x3_s1"
  param {
    lr_mult: 0
    decay_mult: 0
  }
  fixed_param {
    fixed_method: DIFF_S
    bit_width: 8
  }
}
layer {
  name: "inception_2a/1x1"
  type: "ConvolutionFixed"
  bottom: "conv1/3x3_s1"
  top: "inception_2a/1x1"
  param {
    lr_mult: 1
    decay_mult: 1
  }
  param {
    lr_mult: 1
    decay_mult: 0
  }
  convolution_param {
    num_output: 32
    bias_term: true
    kernel_size: 1
    weight_filler {
      type: "xavier"
      std: 0.03
    }
    bias_filler {
      type: "constant"
      value: 0.2
    }
  }
  fixed_param {
    fixed_method: DIFF_S
    bit_width: 8
  }
}
layer {
  name: "inception_2a/1x1/relu1"
  type: "ReLU"
  bottom: "inception_2a/1x1"
  top: "inception_2a/1x1"
}
layer {
  name: "inception_2a/3x3"
  type: "ConvolutionFixed"
  bottom: "conv1/3x3_s1"
  top: "inception_2a/3x3"
  param {
    lr_mult: 1
    decay_mult: 1
  }
  param {
    lr_mult: 1
    decay_mult: 0
  }
  convolution_param {
    num_output: 32
    bias_term: true
    pad: 1
    kernel_size: 3
    weight_filler {
      type: "xavier"
      std: 0.03
    }
    bias_filler {
      type: "constant"
      value: 0.2
    }
  }
  fixed_param {
    fixed_method: DIFF_S
    bit_width: 8
  }
}
layer {
  name: "inception_2a/3x3/relu1"
  type: "ReLU"
  bottom: "inception_2a/3x3"
  top: "inception_2a/3x3"
}
layer {
  name: "inception_2a/output"
  type: "Concat"
  bottom: "inception_2a/1x1"
  bottom: "inception_2a/3x3"
  top: "inception_2a/output"
}
layer {
  name: "inception_2a/output_fixed"
  type: "FixedNeuron"
  bottom: "inception_2a/output"
  top: "inception_2a/output"
  param {
    lr_mult: 0
    decay_mult: 0
  }
  fixed_param {
    fixed_method: DIFF_S
    bit_width: 8
  }
}
layer {
  name: "inception_3a/1x1"
  type: "ConvolutionFixed"
  bottom: "inception_2a/output"
  top: "inception_3a/1x1"
  param {
    lr_mult: 1
    decay_mult: 1
  }
  param {
    lr_mult: 1
    decay_mult: 0
  }
  convolution_param {
    num_output: 32
    bias_term: true
    kernel_size: 1
    weight_filler {
      type: "xavier"
      std: 0.03
    }
    bias_filler {
      type: "constant"
      value: 0.2
    }
  }
  fixed_param {
    fixed_method: DIFF_S
    bit_width: 8
  }
}
layer {
  name: "inception_3a/1x1/relu1"
  type: "ReLU"
  bottom: "inception_3a/1x1"
  top: "inception_3a/1x1"
}
layer {
  name: "inception_3a/3x3"
  type: "ConvolutionFixed"
  bottom: "inception_2a/output"
  top: "inception_3a/3x3"
  param {
    lr_mult: 1
    decay_mult: 1
  }
  param {
    lr_mult: 1
    decay_mult: 0
  }
  convolution_param {
    num_output: 48
    bias_term: true
    pad: 1
    kernel_size: 3
    weight_filler {
      type: "xavier"
      std: 0.03
    }
    bias_filler {
      type: "constant"
      value: 0.2
    }
  }
  fixed_param {
    fixed_method: DIFF_S
    bit_width: 8
  }
}
layer {
  name: "inception_3a/3x3/relu1"
  type: "ReLU"
  bottom: "inception_3a/3x3"
  top: "inception_3a/3x3"
}
layer {
  name: "inception_3a/output"
  type: "Concat"
  bottom: "inception_3a/1x1"
  bottom: "inception_3a/3x3"
  top: "inception_3a/output"
}
layer {
  name: "inception_3a/output_fixed"
  type: "FixedNeuron"
  bottom: "inception_3a/output"
  top: "inception_3a/output"
  param {
    lr_mult: 0
    decay_mult: 0
  }
  fixed_param {
    fixed_method: DIFF_S
    bit_width: 8
  }
}
layer {
  name: "downsample_4/3x3_s2"
  type: "ConvolutionFixed"
  bottom: "inception_3a/output"
  top: "downsample_4/3x3_s2"
  param {
    lr_mult: 1
    decay_mult: 1
  }
  param {
    lr_mult: 1
    decay_mult: 0
  }
  convolution_param {
    num_output: 80
    bias_term: true
    pad: 1
    kernel_size: 3
    stride: 2
    weight_filler {
      type: "xavier"
      std: 0.03
    }
    bias_filler {
      type: "constant"
      value: 0.2
    }
  }
  fixed_param {
    fixed_method: DIFF_S
    bit_width: 8
  }
}
layer {
  name: "downsample_4/3x3_s2/relu1"
  type: "ReLU"
  bottom: "downsample_4/3x3_s2"
  top: "downsample_4/3x3_s2"
}
layer {
  name: "downsample_4/pool_s2"
  type: "Pooling"
  bottom: "inception_3a/output"
  top: "downsample_4/pool_s2"
  pooling_param {
    pool: MAX
    kernel_size: 3
    stride: 2
  }
}
layer {
  name: "downsample_4/output"
  type: "Concat"
  bottom: "downsample_4/3x3_s2"
  bottom: "downsample_4/pool_s2"
  top: "downsample_4/output"
}
layer {
  name: "downsample_4/output_fixed"
  type: "FixedNeuron"
  bottom: "downsample_4/output"
  top: "downsample_4/output"
  param {
    lr_mult: 0
    decay_mult: 0
  }
  fixed_param {
    fixed_method: DIFF_S
    bit_width: 8
  }
}
layer {
  name: "inception_5a/1x1"
  type: "ConvolutionFixed"
  bottom: "downsample_4/output"
  top: "inception_5a/1x1"
  param {
    lr_mult: 1
    decay_mult: 1
  }
  param {
    lr_mult: 1
    decay_mult: 0
  }
  convolution_param {
    num_output: 112
    bias_term: true
    kernel_size: 1
    weight_filler {
      type: "xavier"
      std: 0.03
    }
    bias_filler {
      type: "constant"
      value: 0.2
    }
  }
  fixed_param {
    fixed_method: DIFF_S
    bit_width: 8
  }
}
layer {
  name: "inception_5a/1x1/relu1"
  type: "ReLU"
  bottom: "inception_5a/1x1"
  top: "inception_5a/1x1"
}
layer {
  name: "inception_5a/3x3"
  type: "ConvolutionFixed"
  bottom: "downsample_4/output"
  top: "inception_5a/3x3"
  param {
    lr_mult: 1
    decay_mult: 1
  }
  param {
    lr_mult: 1
    decay_mult: 0
  }
  convolution_param {
    num_output: 48
    bias_term: true
    pad: 1
    kernel_size: 3
    weight_filler {
      type: "xavier"
      std: 0.03
    }
    bias_filler {
      type: "constant"
      value: 0.2
    }
  }
  fixed_param {
    fixed_method: DIFF_S
    bit_width: 8
  }
}
layer {
  name: "inception_5a/3x3/relu1"
  type: "ReLU"
  bottom: "inception_5a/3x3"
  top: "inception_5a/3x3"
}
layer {
  name: "inception_5a/output"
  type: "Concat"
  bottom: "inception_5a/1x1"
  bottom: "inception_5a/3x3"
  top: "inception_5a/output"
}
layer {
  name: "inception_5a/output_fixed"
  type: "FixedNeuron"
  bottom: "inception_5a/output"
  top: "inception_5a/output"
  param {
    lr_mult: 0
    decay_mult: 0
  }
  fixed_param {
    fixed_method: DIFF_S
    bit_width: 8
  }
}
layer {
  name: "inception_6a/1x1"
  type: "ConvolutionFixed"
  bottom: "inception_5a/output"
  top: "inception_6a/1x1"
  param {
    lr_mult: 1
    decay_mult: 1
  }
  param {
    lr_mult: 1
    decay_mult: 0
  }
  convolution_param {
    num_output: 96
    bias_term: true
    kernel_size: 1
    weight_filler {
      type: "xavier"
      std: 0.03
    }
    bias_filler {
      type: "constant"
      value: 0.2
    }
  }
  fixed_param {
    fixed_method: DIFF_S
    bit_width: 8
  }
}
layer {
  name: "inception_6a/1x1/relu1"
  type: "ReLU"
  bottom: "inception_6a/1x1"
  top: "inception_6a/1x1"
}
layer {
  name: "inception_6a/3x3"
  type: "ConvolutionFixed"
  bottom: "inception_5a/output"
  top: "inception_6a/3x3"
  param {
    lr_mult: 1
    decay_mult: 1
  }
  param {
    lr_mult: 1
    decay_mult: 0
  }
  convolution_param {
    num_output: 64
    bias_term: true
    pad: 1
    kernel_size: 3
    weight_filler {
      type: "xavier"
      std: 0.03
    }
    bias_filler {
      type: "constant"
      value: 0.2
    }
  }
  fixed_param {
    fixed_method: DIFF_S
    bit_width: 8
  }
}
layer {
  name: "inception_6a/3x3/relu1"
  type: "ReLU"
  bottom: "inception_6a/3x3"
  top: "inception_6a/3x3"
}
layer {
  name: "inception_6a/output"
  type: "Concat"
  bottom: "inception_6a/1x1"
  bottom: "inception_6a/3x3"
  top: "inception_6a/output"
}
layer {
  name: "inception_6a/output_fixed"
  type: "FixedNeuron"
  bottom: "inception_6a/output"
  top: "inception_6a/output"
  param {
    lr_mult: 0
    decay_mult: 0
  }
  fixed_param {
    fixed_method: DIFF_S
    bit_width: 8
  }
}
layer {
  name: "inception_7a/1x1"
  type: "ConvolutionFixed"
  bottom: "inception_6a/output"
  top: "inception_7a/1x1"
  param {
    lr_mult: 1
    decay_mult: 1
  }
  param {
    lr_mult: 1
    decay_mult: 0
  }
  convolution_param {
    num_output: 80
    bias_term: true
    kernel_size: 1
    weight_filler {
      type: "xavier"
      std: 0.03
    }
    bias_filler {
      type: "constant"
      value: 0.2
    }
  }
  fixed_param {
    fixed_method: DIFF_S
    bit_width: 8
  }
}
layer {
  name: "inception_7a/1x1/relu1"
  type: "ReLU"
  bottom: "inception_7a/1x1"
  top: "inception_7a/1x1"
}
layer {
  name: "inception_7a/3x3"
  type: "ConvolutionFixed"
  bottom: "inception_6a/output"
  top: "inception_7a/3x3"
  param {
    lr_mult: 1
    decay_mult: 1
  }
  param {
    lr_mult: 1
    decay_mult: 0
  }
  convolution_param {
    num_output: 80
    bias_term: true
    pad: 1
    kernel_size: 3
    weight_filler {
      type: "xavier"
      std: 0.03
    }
    bias_filler {
      type: "constant"
      value: 0.2
    }
  }
  fixed_param {
    fixed_method: DIFF_S
    bit_width: 8
  }
}
layer {
  name: "inception_7a/3x3/relu1"
  type: "ReLU"
  bottom: "inception_7a/3x3"
  top: "inception_7a/3x3"
}
layer {
  name: "inception_7a/output"
  type: "Concat"
  bottom: "inception_7a/1x1"
  bottom: "inception_7a/3x3"
  top: "inception_7a/output"
}
layer {
  name: "inception_7a/output_fixed"
  type: "FixedNeuron"
  bottom: "inception_7a/output"
  top: "inception_7a/output"
  param {
    lr_mult: 0
    decay_mult: 0
  }
  fixed_param {
    fixed_method: DIFF_S
    bit_width: 8
  }
}
layer {
  name: "inception_8a/1x1"
  type: "ConvolutionFixed"
  bottom: "inception_7a/output"
  top: "inception_8a/1x1"
  param {
    lr_mult: 1
    decay_mult: 1
  }
  param {
    lr_mult: 1
    decay_mult: 0
  }
  convolution_param {
    num_output: 48
    bias_term: true
    kernel_size: 1
    weight_filler {
      type: "xavier"
      std: 0.03
    }
    bias_filler {
      type: "constant"
      value: 0.2
    }
  }
  fixed_param {
    fixed_method: DIFF_S
    bit_width: 8
  }
}
layer {
  name: "inception_8a/1x1/relu1"
  type: "ReLU"
  bottom: "inception_8a/1x1"
  top: "inception_8a/1x1"
}
layer {
  name: "inception_8a/3x3"
  type: "ConvolutionFixed"
  bottom: "inception_7a/output"
  top: "inception_8a/3x3"
  param {
    lr_mult: 1
    decay_mult: 1
  }
  param {
    lr_mult: 1
    decay_mult: 0
  }
  convolution_param {
    num_output: 96
    bias_term: true
    pad: 1
    kernel_size: 3
    weight_filler {
      type: "xavier"
      std: 0.03
    }
    bias_filler {
      type: "constant"
      value: 0.2
    }
  }
  fixed_param {
    fixed_method: DIFF_S
    bit_width: 8
  }
}
layer {
  name: "inception_8a/3x3/relu1"
  type: "ReLU"
  bottom: "inception_8a/3x3"
  top: "inception_8a/3x3"
}
layer {
  name: "inception_8a/output"
  type: "Concat"
  bottom: "inception_8a/1x1"
  bottom: "inception_8a/3x3"
  top: "inception_8a/output"
}
layer {
  name: "inception_8a/output_fixed"
  type: "FixedNeuron"
  bottom: "inception_8a/output"
  top: "inception_8a/output"
  param {
    lr_mult: 0
    decay_mult: 0
  }
  fixed_param {
    fixed_method: DIFF_S
    bit_width: 8
  }
}
layer {
  name: "downsample_9/3x3_s2"
  type: "ConvolutionFixed"
  bottom: "inception_8a/output"
  top: "downsample_9/3x3_s2"
  param {
    lr_mult: 1
    decay_mult: 1
  }
  param {
    lr_mult: 1
    decay_mult: 0
  }
  convolution_param {
    num_output: 96
    bias_term: true
    pad: 1
    kernel_size: 3
    stride: 2
    weight_filler {
      type: "xavier"
      std: 0.03
    }
    bias_filler {
      type: "constant"
      value: 0.2
    }
  }
  fixed_param {
    fixed_method: DIFF_S
    bit_width: 8
  }
}
layer {
  name: "downsample_9/3x3_s2/relu1"
  type: "ReLU"
  bottom: "downsample_9/3x3_s2"
  top: "downsample_9/3x3_s2"
}
layer {
  name: "downsample_9/pool_s2"
  type: "Pooling"
  bottom: "inception_8a/output"
  top: "downsample_9/pool_s2"
  pooling_param {
    pool: MAX
    kernel_size: 3
    stride: 2
  }
}
layer {
  name: "downsample_9/output"
  type: "Concat"
  bottom: "downsample_9/3x3_s2"
  bottom: "downsample_9/pool_s2"
  top: "downsample_9/output"
}
layer {
  name: "downsample_9/output_fixed"
  type: "FixedNeuron"
  bottom: "downsample_9/output"
  top: "downsample_9/output"
  param {
    lr_mult: 0
    decay_mult: 0
  }
  fixed_param {
    fixed_method: DIFF_S
    bit_width: 8
  }
}
layer {
  name: "inception_10a/1x1"
  type: "ConvolutionFixed"
  bottom: "downsample_9/output"
  top: "inception_10a/1x1"
  param {
    lr_mult: 1
    decay_mult: 1
  }
  param {
    lr_mult: 1
    decay_mult: 0
  }
  convolution_param {
    num_output: 176
    bias_term: true
    kernel_size: 1
    weight_filler {
      type: "xavier"
      std: 0.03
    }
    bias_filler {
      type: "constant"
      value: 0.2
    }
  }
  fixed_param {
    fixed_method: DIFF_S
    bit_width: 8
  }
}
layer {
  name: "inception_10a/1x1/relu1"
  type: "ReLU"
  bottom: "inception_10a/1x1"
  top: "inception_10a/1x1"
}
layer {
  name: "inception_10a/3x3"
  type: "ConvolutionFixed"
  bottom: "downsample_9/output"
  top: "inception_10a/3x3"
  param {
    lr_mult: 1
    decay_mult: 1
  }
  param {
    lr_mult: 1
    decay_mult: 0
  }
  convolution_param {
    num_output: 160
    bias_term: true
    pad: 1
    kernel_size: 3
    weight_filler {
      type: "xavier"
      std: 0.03
    }
    bias_filler {
      type: "constant"
      value: 0.2
    }
  }
  fixed_param {
    fixed_method: DIFF_S
    bit_width: 8
  }
}
layer {
  name: "inception_10a/3x3/relu1"
  type: "ReLU"
  bottom: "inception_10a/3x3"
  top: "inception_10a/3x3"
}
layer {
  name: "inception_10a/output"
  type: "Concat"
  bottom: "inception_10a/1x1"
  bottom: "inception_10a/3x3"
  top: "inception_10a/output"
}
layer {
  name: "inception_10a/output_fixed"
  type: "FixedNeuron"
  bottom: "inception_10a/output"
  top: "inception_10a/output"
  param {
    lr_mult: 0
    decay_mult: 0
  }
  fixed_param {
    fixed_method: DIFF_S
    bit_width: 8
  }
}
layer {
  name: "inception_11a/1x1"
  type: "ConvolutionFixed"
  bottom: "inception_10a/output"
  top: "inception_11a/1x1"
  param {
    lr_mult: 1
    decay_mult: 1
  }
  param {
    lr_mult: 1
    decay_mult: 0
  }
  convolution_param {
    num_output: 176
    bias_term: true
    kernel_size: 1
    weight_filler {
      type: "xavier"
      std: 0.03
    }
    bias_filler {
      type: "constant"
      value: 0.2
    }
  }
  fixed_param {
    fixed_method: DIFF_S
    bit_width: 8
  }
}
layer {
  name: "inception_11a/1x1/relu1"
  type: "ReLU"
  bottom: "inception_11a/1x1"
  top: "inception_11a/1x1"
}
layer {
  name: "inception_11a/3x3"
  type: "ConvolutionFixed"
  bottom: "inception_10a/output"
  top: "inception_11a/3x3"
  param {
    lr_mult: 1
    decay_mult: 1
  }
  param {
    lr_mult: 1
    decay_mult: 0
  }
  convolution_param {
    num_output: 160
    bias_term: true
    pad: 1
    kernel_size: 3
    weight_filler {
      type: "xavier"
      std: 0.03
    }
    bias_filler {
      type: "constant"
      value: 0.2
    }
  }
  fixed_param {
    fixed_method: DIFF_S
    bit_width: 8
  }
}
layer {
  name: "inception_11a/3x3/relu1"
  type: "ReLU"
  bottom: "inception_11a/3x3"
  top: "inception_11a/3x3"
}
layer {
  name: "inception_11a/output"
  type: "Concat"
  bottom: "inception_11a/1x1"
  bottom: "inception_11a/3x3"
  top: "inception_11a/output"
}
layer {
  name: "inception_11a/output_fixed"
  type: "FixedNeuron"
  bottom: "inception_11a/output"
  top: "inception_11a/output"
  param {
    lr_mult: 0
    decay_mult: 0
  }
  fixed_param {
    fixed_method: DIFF_S
    bit_width: 8
  }
}
layer {
  name: "avg_pool_12/8x8_s1"
  type: "Pooling"
  bottom: "inception_11a/output"
  top: "avg_pool_12/8x8_s1"
  pooling_param {
    pool: AVE
    kernel_size: 8
    stride: 1
  }
}
layer {
  name: "avg_pool_12/8x8_s1_fixed"
  type: "FixedNeuron"
  bottom: "avg_pool_12/8x8_s1"
  top: "avg_pool_12/8x8_s1"
  param {
    lr_mult: 0
    decay_mult: 0
  }
  fixed_param {
    fixed_method: DIFF_S
    bit_width: 8
  }
}
layer {
  name: "loss/classifier"
  type: "InnerProductFixed"
  bottom: "avg_pool_12/8x8_s1"
  top: "loss/classifier"
  param {
    lr_mult: 1
    decay_mult: 1
  }
  param {
    lr_mult: 2
    decay_mult: 0
  }
  inner_product_param {
    num_output: 10
    weight_filler {
      type: "xavier"
    }
    bias_filler {
      type: "constant"
      value: 1
    }
  }
  fixed_param {
    fixed_method: DIFF_S
    bit_width: 8
  }
}
layer {
  name: "loss/classifier_fixed"
  type: "FixedNeuron"
  bottom: "loss/classifier"
  top: "loss/classifier"
  param {
    lr_mult: 0
    decay_mult: 0
  }
  fixed_param {
    fixed_method: DIFF_S
    bit_width: 8
  }
}
layer {
  name: "loss"
  type: "SoftmaxWithLoss"
  bottom: "loss/classifier"
  bottom: "label"
  top: "loss"
}
I0122 14:49:20.133087  3908 layer_factory.hpp:123] Creating layer data
I0122 14:49:20.133144  3908 net.cpp:140] Creating Layer data
I0122 14:49:20.133163  3908 net.cpp:455] data -> data
I0122 14:49:20.133183  3908 net.cpp:455] data -> label
I0122 14:49:20.133574  3908 image_data_layer.cpp:87] Opening file cifar10/deephi/miniGoogleNet/quantiz/data/calib/calibration.txt
I0122 14:49:20.134009  3908 image_data_layer.cpp:97] Shuffling data
I0122 14:49:20.134055  3908 image_data_layer.cpp:102] A total of 1000 images.
I0122 14:49:20.134364  3908 image_data_layer.cpp:130] output data size: 10,3,32,32
I0122 14:49:20.136463  3908 internal_thread.cpp:73] Starting internal thread(s) on GPU 0
I0122 14:49:20.136555  3908 net.cpp:190] Setting up data
I0122 14:49:20.136576  3908 net.cpp:197] Top shape: 10 3 32 32 (30720)
I0122 14:49:20.136586  3908 net.cpp:197] Top shape: 10 (10)
I0122 14:49:20.136591  3908 net.cpp:205] Memory required for data: 122920
I0122 14:49:20.136626  3908 layer_factory.hpp:123] Creating layer data_fixed
I0122 14:49:20.136672  3908 net.cpp:140] Creating Layer data_fixed
I0122 14:49:20.136696  3908 net.cpp:481] data_fixed <- data
I0122 14:49:20.136737  3908 net.cpp:442] data_fixed -> data (in-place)
I0122 14:49:20.136858  3908 net.cpp:190] Setting up data_fixed
I0122 14:49:20.136893  3908 net.cpp:197] Top shape: 10 3 32 32 (30720)
I0122 14:49:20.136917  3908 net.cpp:205] Memory required for data: 245800
I0122 14:49:20.136960  3908 layer_factory.hpp:123] Creating layer conv1/3x3_s1
I0122 14:49:20.136997  3908 net.cpp:140] Creating Layer conv1/3x3_s1
I0122 14:49:20.137020  3908 net.cpp:481] conv1/3x3_s1 <- data
I0122 14:49:20.137046  3908 net.cpp:455] conv1/3x3_s1 -> conv1/3x3_s1
I0122 14:49:20.138336  3908 layer_factory.hpp:123] Creating layer conv1/3x3_s1
I0122 14:49:20.140300  3908 net.cpp:190] Setting up conv1/3x3_s1
I0122 14:49:20.140329  3908 net.cpp:197] Top shape: 10 96 32 32 (983040)
I0122 14:49:20.140336  3908 net.cpp:205] Memory required for data: 4177960
I0122 14:49:20.140352  3908 layer_factory.hpp:123] Creating layer conv1/relu1
I0122 14:49:20.140389  3908 net.cpp:140] Creating Layer conv1/relu1
I0122 14:49:20.140411  3908 net.cpp:481] conv1/relu1 <- conv1/3x3_s1
I0122 14:49:20.140424  3908 net.cpp:442] conv1/relu1 -> conv1/3x3_s1 (in-place)
I0122 14:49:20.140447  3908 net.cpp:190] Setting up conv1/relu1
I0122 14:49:20.140506  3908 net.cpp:197] Top shape: 10 96 32 32 (983040)
I0122 14:49:20.140542  3908 net.cpp:205] Memory required for data: 8110120
I0122 14:49:20.140565  3908 layer_factory.hpp:123] Creating layer conv1/3x3_s1_fixed
I0122 14:49:20.140621  3908 net.cpp:140] Creating Layer conv1/3x3_s1_fixed
I0122 14:49:20.140666  3908 net.cpp:481] conv1/3x3_s1_fixed <- conv1/3x3_s1
I0122 14:49:20.140717  3908 net.cpp:442] conv1/3x3_s1_fixed -> conv1/3x3_s1 (in-place)
I0122 14:49:20.140820  3908 net.cpp:190] Setting up conv1/3x3_s1_fixed
I0122 14:49:20.140844  3908 net.cpp:197] Top shape: 10 96 32 32 (983040)
I0122 14:49:20.140851  3908 net.cpp:205] Memory required for data: 12042280
I0122 14:49:20.140930  3908 layer_factory.hpp:123] Creating layer conv1/3x3_s1_conv1/3x3_s1_fixed_0_split
I0122 14:49:20.140980  3908 net.cpp:140] Creating Layer conv1/3x3_s1_conv1/3x3_s1_fixed_0_split
I0122 14:49:20.141024  3908 net.cpp:481] conv1/3x3_s1_conv1/3x3_s1_fixed_0_split <- conv1/3x3_s1
I0122 14:49:20.141072  3908 net.cpp:455] conv1/3x3_s1_conv1/3x3_s1_fixed_0_split -> conv1/3x3_s1_conv1/3x3_s1_fixed_0_split_0
I0122 14:49:20.141124  3908 net.cpp:455] conv1/3x3_s1_conv1/3x3_s1_fixed_0_split -> conv1/3x3_s1_conv1/3x3_s1_fixed_0_split_1
I0122 14:49:20.141227  3908 net.cpp:190] Setting up conv1/3x3_s1_conv1/3x3_s1_fixed_0_split
I0122 14:49:20.141255  3908 net.cpp:197] Top shape: 10 96 32 32 (983040)
I0122 14:49:20.141340  3908 net.cpp:197] Top shape: 10 96 32 32 (983040)
I0122 14:49:20.141381  3908 net.cpp:205] Memory required for data: 19906600
I0122 14:49:20.141422  3908 layer_factory.hpp:123] Creating layer inception_2a/1x1
I0122 14:49:20.141477  3908 net.cpp:140] Creating Layer inception_2a/1x1
I0122 14:49:20.141510  3908 net.cpp:481] inception_2a/1x1 <- conv1/3x3_s1_conv1/3x3_s1_fixed_0_split_0
I0122 14:49:20.141551  3908 net.cpp:455] inception_2a/1x1 -> inception_2a/1x1
I0122 14:49:20.141989  3908 layer_factory.hpp:123] Creating layer inception_2a/1x1
I0122 14:49:20.142601  3908 net.cpp:190] Setting up inception_2a/1x1
I0122 14:49:20.142626  3908 net.cpp:197] Top shape: 10 32 32 32 (327680)
I0122 14:49:20.142632  3908 net.cpp:205] Memory required for data: 21217320
I0122 14:49:20.142647  3908 layer_factory.hpp:123] Creating layer inception_2a/1x1/relu1
I0122 14:49:20.142681  3908 net.cpp:140] Creating Layer inception_2a/1x1/relu1
I0122 14:49:20.142716  3908 net.cpp:481] inception_2a/1x1/relu1 <- inception_2a/1x1
I0122 14:49:20.142746  3908 net.cpp:442] inception_2a/1x1/relu1 -> inception_2a/1x1 (in-place)
I0122 14:49:20.142777  3908 net.cpp:190] Setting up inception_2a/1x1/relu1
I0122 14:49:20.142813  3908 net.cpp:197] Top shape: 10 32 32 32 (327680)
I0122 14:49:20.142858  3908 net.cpp:205] Memory required for data: 22528040
I0122 14:49:20.142916  3908 layer_factory.hpp:123] Creating layer inception_2a/3x3
I0122 14:49:20.142971  3908 net.cpp:140] Creating Layer inception_2a/3x3
I0122 14:49:20.143005  3908 net.cpp:481] inception_2a/3x3 <- conv1/3x3_s1_conv1/3x3_s1_fixed_0_split_1
I0122 14:49:20.143046  3908 net.cpp:455] inception_2a/3x3 -> inception_2a/3x3
I0122 14:49:20.144448  3908 layer_factory.hpp:123] Creating layer inception_2a/3x3
I0122 14:49:20.145265  3908 net.cpp:190] Setting up inception_2a/3x3
I0122 14:49:20.145290  3908 net.cpp:197] Top shape: 10 32 32 32 (327680)
I0122 14:49:20.145296  3908 net.cpp:205] Memory required for data: 23838760
I0122 14:49:20.145308  3908 layer_factory.hpp:123] Creating layer inception_2a/3x3/relu1
I0122 14:49:20.145325  3908 net.cpp:140] Creating Layer inception_2a/3x3/relu1
I0122 14:49:20.145332  3908 net.cpp:481] inception_2a/3x3/relu1 <- inception_2a/3x3
I0122 14:49:20.145344  3908 net.cpp:442] inception_2a/3x3/relu1 -> inception_2a/3x3 (in-place)
I0122 14:49:20.145385  3908 net.cpp:190] Setting up inception_2a/3x3/relu1
I0122 14:49:20.145426  3908 net.cpp:197] Top shape: 10 32 32 32 (327680)
I0122 14:49:20.145473  3908 net.cpp:205] Memory required for data: 25149480
I0122 14:49:20.145519  3908 layer_factory.hpp:123] Creating layer inception_2a/output
I0122 14:49:20.145570  3908 net.cpp:140] Creating Layer inception_2a/output
I0122 14:49:20.145613  3908 net.cpp:481] inception_2a/output <- inception_2a/1x1
I0122 14:49:20.145663  3908 net.cpp:481] inception_2a/output <- inception_2a/3x3
I0122 14:49:20.145699  3908 net.cpp:455] inception_2a/output -> inception_2a/output
I0122 14:49:20.145799  3908 net.cpp:190] Setting up inception_2a/output
I0122 14:49:20.145823  3908 net.cpp:197] Top shape: 10 64 32 32 (655360)
I0122 14:49:20.145829  3908 net.cpp:205] Memory required for data: 27770920
I0122 14:49:20.145835  3908 layer_factory.hpp:123] Creating layer inception_2a/output_fixed
I0122 14:49:20.145848  3908 net.cpp:140] Creating Layer inception_2a/output_fixed
I0122 14:49:20.145882  3908 net.cpp:481] inception_2a/output_fixed <- inception_2a/output
I0122 14:49:20.145933  3908 net.cpp:442] inception_2a/output_fixed -> inception_2a/output (in-place)
I0122 14:49:20.146035  3908 net.cpp:190] Setting up inception_2a/output_fixed
I0122 14:49:20.146059  3908 net.cpp:197] Top shape: 10 64 32 32 (655360)
I0122 14:49:20.146065  3908 net.cpp:205] Memory required for data: 30392360
I0122 14:49:20.146077  3908 layer_factory.hpp:123] Creating layer inception_2a/output_inception_2a/output_fixed_0_split
I0122 14:49:20.146092  3908 net.cpp:140] Creating Layer inception_2a/output_inception_2a/output_fixed_0_split
I0122 14:49:20.146098  3908 net.cpp:481] inception_2a/output_inception_2a/output_fixed_0_split <- inception_2a/output
I0122 14:49:20.146108  3908 net.cpp:455] inception_2a/output_inception_2a/output_fixed_0_split -> inception_2a/output_inception_2a/output_fixed_0_split_0
I0122 14:49:20.146144  3908 net.cpp:455] inception_2a/output_inception_2a/output_fixed_0_split -> inception_2a/output_inception_2a/output_fixed_0_split_1
I0122 14:49:20.146236  3908 net.cpp:190] Setting up inception_2a/output_inception_2a/output_fixed_0_split
I0122 14:49:20.146258  3908 net.cpp:197] Top shape: 10 64 32 32 (655360)
I0122 14:49:20.146267  3908 net.cpp:197] Top shape: 10 64 32 32 (655360)
I0122 14:49:20.146272  3908 net.cpp:205] Memory required for data: 35635240
I0122 14:49:20.146277  3908 layer_factory.hpp:123] Creating layer inception_3a/1x1
I0122 14:49:20.146297  3908 net.cpp:140] Creating Layer inception_3a/1x1
I0122 14:49:20.146323  3908 net.cpp:481] inception_3a/1x1 <- inception_2a/output_inception_2a/output_fixed_0_split_0
I0122 14:49:20.146360  3908 net.cpp:455] inception_3a/1x1 -> inception_3a/1x1
I0122 14:49:20.146718  3908 layer_factory.hpp:123] Creating layer inception_3a/1x1
I0122 14:49:20.147404  3908 net.cpp:190] Setting up inception_3a/1x1
I0122 14:49:20.147428  3908 net.cpp:197] Top shape: 10 32 32 32 (327680)
I0122 14:49:20.147435  3908 net.cpp:205] Memory required for data: 36945960
I0122 14:49:20.147446  3908 layer_factory.hpp:123] Creating layer inception_3a/1x1/relu1
I0122 14:49:20.147459  3908 net.cpp:140] Creating Layer inception_3a/1x1/relu1
I0122 14:49:20.147464  3908 net.cpp:481] inception_3a/1x1/relu1 <- inception_3a/1x1
I0122 14:49:20.147475  3908 net.cpp:442] inception_3a/1x1/relu1 -> inception_3a/1x1 (in-place)
I0122 14:49:20.147485  3908 net.cpp:190] Setting up inception_3a/1x1/relu1
I0122 14:49:20.147493  3908 net.cpp:197] Top shape: 10 32 32 32 (327680)
I0122 14:49:20.147498  3908 net.cpp:205] Memory required for data: 38256680
I0122 14:49:20.147505  3908 layer_factory.hpp:123] Creating layer inception_3a/3x3
I0122 14:49:20.147545  3908 net.cpp:140] Creating Layer inception_3a/3x3
I0122 14:49:20.147581  3908 net.cpp:481] inception_3a/3x3 <- inception_2a/output_inception_2a/output_fixed_0_split_1
I0122 14:49:20.147619  3908 net.cpp:455] inception_3a/3x3 -> inception_3a/3x3
I0122 14:49:20.148241  3908 layer_factory.hpp:123] Creating layer inception_3a/3x3
I0122 14:49:20.149057  3908 net.cpp:190] Setting up inception_3a/3x3
I0122 14:49:20.149083  3908 net.cpp:197] Top shape: 10 48 32 32 (491520)
I0122 14:49:20.149091  3908 net.cpp:205] Memory required for data: 40222760
I0122 14:49:20.149101  3908 layer_factory.hpp:123] Creating layer inception_3a/3x3/relu1
I0122 14:49:20.149119  3908 net.cpp:140] Creating Layer inception_3a/3x3/relu1
I0122 14:49:20.149127  3908 net.cpp:481] inception_3a/3x3/relu1 <- inception_3a/3x3
I0122 14:49:20.149137  3908 net.cpp:442] inception_3a/3x3/relu1 -> inception_3a/3x3 (in-place)
I0122 14:49:20.149174  3908 net.cpp:190] Setting up inception_3a/3x3/relu1
I0122 14:49:20.149202  3908 net.cpp:197] Top shape: 10 48 32 32 (491520)
I0122 14:49:20.149224  3908 net.cpp:205] Memory required for data: 42188840
I0122 14:49:20.149245  3908 layer_factory.hpp:123] Creating layer inception_3a/output
I0122 14:49:20.149273  3908 net.cpp:140] Creating Layer inception_3a/output
I0122 14:49:20.149296  3908 net.cpp:481] inception_3a/output <- inception_3a/1x1
I0122 14:49:20.149318  3908 net.cpp:481] inception_3a/output <- inception_3a/3x3
I0122 14:49:20.149346  3908 net.cpp:455] inception_3a/output -> inception_3a/output
I0122 14:49:20.149418  3908 net.cpp:190] Setting up inception_3a/output
I0122 14:49:20.149435  3908 net.cpp:197] Top shape: 10 80 32 32 (819200)
I0122 14:49:20.149441  3908 net.cpp:205] Memory required for data: 45465640
I0122 14:49:20.149446  3908 layer_factory.hpp:123] Creating layer inception_3a/output_fixed
I0122 14:49:20.149458  3908 net.cpp:140] Creating Layer inception_3a/output_fixed
I0122 14:49:20.149508  3908 net.cpp:481] inception_3a/output_fixed <- inception_3a/output
I0122 14:49:20.149556  3908 net.cpp:442] inception_3a/output_fixed -> inception_3a/output (in-place)
I0122 14:49:20.149657  3908 net.cpp:190] Setting up inception_3a/output_fixed
I0122 14:49:20.149678  3908 net.cpp:197] Top shape: 10 80 32 32 (819200)
I0122 14:49:20.149684  3908 net.cpp:205] Memory required for data: 48742440
I0122 14:49:20.149693  3908 layer_factory.hpp:123] Creating layer inception_3a/output_inception_3a/output_fixed_0_split
I0122 14:49:20.149705  3908 net.cpp:140] Creating Layer inception_3a/output_inception_3a/output_fixed_0_split
I0122 14:49:20.149754  3908 net.cpp:481] inception_3a/output_inception_3a/output_fixed_0_split <- inception_3a/output
I0122 14:49:20.149842  3908 net.cpp:455] inception_3a/output_inception_3a/output_fixed_0_split -> inception_3a/output_inception_3a/output_fixed_0_split_0
I0122 14:49:20.149869  3908 net.cpp:455] inception_3a/output_inception_3a/output_fixed_0_split -> inception_3a/output_inception_3a/output_fixed_0_split_1
I0122 14:49:20.149932  3908 net.cpp:190] Setting up inception_3a/output_inception_3a/output_fixed_0_split
I0122 14:49:20.149953  3908 net.cpp:197] Top shape: 10 80 32 32 (819200)
I0122 14:49:20.149962  3908 net.cpp:197] Top shape: 10 80 32 32 (819200)
I0122 14:49:20.149968  3908 net.cpp:205] Memory required for data: 55296040
I0122 14:49:20.149982  3908 layer_factory.hpp:123] Creating layer downsample_4/3x3_s2
I0122 14:49:20.150002  3908 net.cpp:140] Creating Layer downsample_4/3x3_s2
I0122 14:49:20.150029  3908 net.cpp:481] downsample_4/3x3_s2 <- inception_3a/output_inception_3a/output_fixed_0_split_0
I0122 14:49:20.150071  3908 net.cpp:455] downsample_4/3x3_s2 -> downsample_4/3x3_s2
I0122 14:49:20.151926  3908 layer_factory.hpp:123] Creating layer downsample_4/3x3_s2
I0122 14:49:20.152915  3908 net.cpp:190] Setting up downsample_4/3x3_s2
I0122 14:49:20.152938  3908 net.cpp:197] Top shape: 10 80 16 16 (204800)
I0122 14:49:20.152943  3908 net.cpp:205] Memory required for data: 56115240
I0122 14:49:20.152951  3908 layer_factory.hpp:123] Creating layer downsample_4/3x3_s2/relu1
I0122 14:49:20.152971  3908 net.cpp:140] Creating Layer downsample_4/3x3_s2/relu1
I0122 14:49:20.152987  3908 net.cpp:481] downsample_4/3x3_s2/relu1 <- downsample_4/3x3_s2
I0122 14:49:20.152997  3908 net.cpp:442] downsample_4/3x3_s2/relu1 -> downsample_4/3x3_s2 (in-place)
I0122 14:49:20.153021  3908 net.cpp:190] Setting up downsample_4/3x3_s2/relu1
I0122 14:49:20.153030  3908 net.cpp:197] Top shape: 10 80 16 16 (204800)
I0122 14:49:20.153035  3908 net.cpp:205] Memory required for data: 56934440
I0122 14:49:20.153041  3908 layer_factory.hpp:123] Creating layer downsample_4/pool_s2
I0122 14:49:20.153053  3908 net.cpp:140] Creating Layer downsample_4/pool_s2
I0122 14:49:20.153065  3908 net.cpp:481] downsample_4/pool_s2 <- inception_3a/output_inception_3a/output_fixed_0_split_1
I0122 14:49:20.153076  3908 net.cpp:455] downsample_4/pool_s2 -> downsample_4/pool_s2
I0122 14:49:20.153144  3908 net.cpp:190] Setting up downsample_4/pool_s2
I0122 14:49:20.153162  3908 net.cpp:197] Top shape: 10 80 16 16 (204800)
I0122 14:49:20.153167  3908 net.cpp:205] Memory required for data: 57753640
I0122 14:49:20.153172  3908 layer_factory.hpp:123] Creating layer downsample_4/output
I0122 14:49:20.153184  3908 net.cpp:140] Creating Layer downsample_4/output
I0122 14:49:20.153196  3908 net.cpp:481] downsample_4/output <- downsample_4/3x3_s2
I0122 14:49:20.153204  3908 net.cpp:481] downsample_4/output <- downsample_4/pool_s2
I0122 14:49:20.153214  3908 net.cpp:455] downsample_4/output -> downsample_4/output
I0122 14:49:20.153257  3908 net.cpp:190] Setting up downsample_4/output
I0122 14:49:20.153271  3908 net.cpp:197] Top shape: 10 160 16 16 (409600)
I0122 14:49:20.153278  3908 net.cpp:205] Memory required for data: 59392040
I0122 14:49:20.153283  3908 layer_factory.hpp:123] Creating layer downsample_4/output_fixed
I0122 14:49:20.153295  3908 net.cpp:140] Creating Layer downsample_4/output_fixed
I0122 14:49:20.153308  3908 net.cpp:481] downsample_4/output_fixed <- downsample_4/output
I0122 14:49:20.153321  3908 net.cpp:442] downsample_4/output_fixed -> downsample_4/output (in-place)
I0122 14:49:20.153374  3908 net.cpp:190] Setting up downsample_4/output_fixed
I0122 14:49:20.153390  3908 net.cpp:197] Top shape: 10 160 16 16 (409600)
I0122 14:49:20.153396  3908 net.cpp:205] Memory required for data: 61030440
I0122 14:49:20.153410  3908 layer_factory.hpp:123] Creating layer downsample_4/output_downsample_4/output_fixed_0_split
I0122 14:49:20.153427  3908 net.cpp:140] Creating Layer downsample_4/output_downsample_4/output_fixed_0_split
I0122 14:49:20.153434  3908 net.cpp:481] downsample_4/output_downsample_4/output_fixed_0_split <- downsample_4/output
I0122 14:49:20.153445  3908 net.cpp:455] downsample_4/output_downsample_4/output_fixed_0_split -> downsample_4/output_downsample_4/output_fixed_0_split_0
I0122 14:49:20.153463  3908 net.cpp:455] downsample_4/output_downsample_4/output_fixed_0_split -> downsample_4/output_downsample_4/output_fixed_0_split_1
I0122 14:49:20.153508  3908 net.cpp:190] Setting up downsample_4/output_downsample_4/output_fixed_0_split
I0122 14:49:20.153523  3908 net.cpp:197] Top shape: 10 160 16 16 (409600)
I0122 14:49:20.153532  3908 net.cpp:197] Top shape: 10 160 16 16 (409600)
I0122 14:49:20.153537  3908 net.cpp:205] Memory required for data: 64307240
I0122 14:49:20.153542  3908 layer_factory.hpp:123] Creating layer inception_5a/1x1
I0122 14:49:20.153569  3908 net.cpp:140] Creating Layer inception_5a/1x1
I0122 14:49:20.153578  3908 net.cpp:481] inception_5a/1x1 <- downsample_4/output_downsample_4/output_fixed_0_split_0
I0122 14:49:20.153589  3908 net.cpp:455] inception_5a/1x1 -> inception_5a/1x1
I0122 14:49:20.153928  3908 layer_factory.hpp:123] Creating layer inception_5a/1x1
I0122 14:49:20.155050  3908 net.cpp:190] Setting up inception_5a/1x1
I0122 14:49:20.155076  3908 net.cpp:197] Top shape: 10 112 16 16 (286720)
I0122 14:49:20.155082  3908 net.cpp:205] Memory required for data: 65454120
I0122 14:49:20.155093  3908 layer_factory.hpp:123] Creating layer inception_5a/1x1/relu1
I0122 14:49:20.155104  3908 net.cpp:140] Creating Layer inception_5a/1x1/relu1
I0122 14:49:20.155119  3908 net.cpp:481] inception_5a/1x1/relu1 <- inception_5a/1x1
I0122 14:49:20.155130  3908 net.cpp:442] inception_5a/1x1/relu1 -> inception_5a/1x1 (in-place)
I0122 14:49:20.155143  3908 net.cpp:190] Setting up inception_5a/1x1/relu1
I0122 14:49:20.155158  3908 net.cpp:197] Top shape: 10 112 16 16 (286720)
I0122 14:49:20.155165  3908 net.cpp:205] Memory required for data: 66601000
I0122 14:49:20.155170  3908 layer_factory.hpp:123] Creating layer inception_5a/3x3
I0122 14:49:20.155196  3908 net.cpp:140] Creating Layer inception_5a/3x3
I0122 14:49:20.155210  3908 net.cpp:481] inception_5a/3x3 <- downsample_4/output_downsample_4/output_fixed_0_split_1
I0122 14:49:20.155225  3908 net.cpp:455] inception_5a/3x3 -> inception_5a/3x3
I0122 14:49:20.156558  3908 layer_factory.hpp:123] Creating layer inception_5a/3x3
I0122 14:49:20.158053  3908 net.cpp:190] Setting up inception_5a/3x3
I0122 14:49:20.158078  3908 net.cpp:197] Top shape: 10 48 16 16 (122880)
I0122 14:49:20.158084  3908 net.cpp:205] Memory required for data: 67092520
I0122 14:49:20.158095  3908 layer_factory.hpp:123] Creating layer inception_5a/3x3/relu1
I0122 14:49:20.158107  3908 net.cpp:140] Creating Layer inception_5a/3x3/relu1
I0122 14:49:20.158120  3908 net.cpp:481] inception_5a/3x3/relu1 <- inception_5a/3x3
I0122 14:49:20.158133  3908 net.cpp:442] inception_5a/3x3/relu1 -> inception_5a/3x3 (in-place)
I0122 14:49:20.158145  3908 net.cpp:190] Setting up inception_5a/3x3/relu1
I0122 14:49:20.158161  3908 net.cpp:197] Top shape: 10 48 16 16 (122880)
I0122 14:49:20.158169  3908 net.cpp:205] Memory required for data: 67584040
I0122 14:49:20.158174  3908 layer_factory.hpp:123] Creating layer inception_5a/output
I0122 14:49:20.158192  3908 net.cpp:140] Creating Layer inception_5a/output
I0122 14:49:20.158200  3908 net.cpp:481] inception_5a/output <- inception_5a/1x1
I0122 14:49:20.158206  3908 net.cpp:481] inception_5a/output <- inception_5a/3x3
I0122 14:49:20.158216  3908 net.cpp:455] inception_5a/output -> inception_5a/output
I0122 14:49:20.158253  3908 net.cpp:190] Setting up inception_5a/output
I0122 14:49:20.158268  3908 net.cpp:197] Top shape: 10 160 16 16 (409600)
I0122 14:49:20.158275  3908 net.cpp:205] Memory required for data: 69222440
I0122 14:49:20.158280  3908 layer_factory.hpp:123] Creating layer inception_5a/output_fixed
I0122 14:49:20.158293  3908 net.cpp:140] Creating Layer inception_5a/output_fixed
I0122 14:49:20.158304  3908 net.cpp:481] inception_5a/output_fixed <- inception_5a/output
I0122 14:49:20.158316  3908 net.cpp:442] inception_5a/output_fixed -> inception_5a/output (in-place)
I0122 14:49:20.158361  3908 net.cpp:190] Setting up inception_5a/output_fixed
I0122 14:49:20.158376  3908 net.cpp:197] Top shape: 10 160 16 16 (409600)
I0122 14:49:20.158383  3908 net.cpp:205] Memory required for data: 70860840
I0122 14:49:20.158391  3908 layer_factory.hpp:123] Creating layer inception_5a/output_inception_5a/output_fixed_0_split
I0122 14:49:20.158408  3908 net.cpp:140] Creating Layer inception_5a/output_inception_5a/output_fixed_0_split
I0122 14:49:20.158418  3908 net.cpp:481] inception_5a/output_inception_5a/output_fixed_0_split <- inception_5a/output
I0122 14:49:20.158429  3908 net.cpp:455] inception_5a/output_inception_5a/output_fixed_0_split -> inception_5a/output_inception_5a/output_fixed_0_split_0
I0122 14:49:20.158442  3908 net.cpp:455] inception_5a/output_inception_5a/output_fixed_0_split -> inception_5a/output_inception_5a/output_fixed_0_split_1
I0122 14:49:20.158502  3908 net.cpp:190] Setting up inception_5a/output_inception_5a/output_fixed_0_split
I0122 14:49:20.158519  3908 net.cpp:197] Top shape: 10 160 16 16 (409600)
I0122 14:49:20.158527  3908 net.cpp:197] Top shape: 10 160 16 16 (409600)
I0122 14:49:20.158533  3908 net.cpp:205] Memory required for data: 74137640
I0122 14:49:20.158538  3908 layer_factory.hpp:123] Creating layer inception_6a/1x1
I0122 14:49:20.158565  3908 net.cpp:140] Creating Layer inception_6a/1x1
I0122 14:49:20.158572  3908 net.cpp:481] inception_6a/1x1 <- inception_5a/output_inception_5a/output_fixed_0_split_0
I0122 14:49:20.158593  3908 net.cpp:455] inception_6a/1x1 -> inception_6a/1x1
I0122 14:49:20.159587  3908 layer_factory.hpp:123] Creating layer inception_6a/1x1
I0122 14:49:20.160027  3908 net.cpp:190] Setting up inception_6a/1x1
I0122 14:49:20.160048  3908 net.cpp:197] Top shape: 10 96 16 16 (245760)
I0122 14:49:20.160054  3908 net.cpp:205] Memory required for data: 75120680
I0122 14:49:20.160065  3908 layer_factory.hpp:123] Creating layer inception_6a/1x1/relu1
I0122 14:49:20.160075  3908 net.cpp:140] Creating Layer inception_6a/1x1/relu1
I0122 14:49:20.160089  3908 net.cpp:481] inception_6a/1x1/relu1 <- inception_6a/1x1
I0122 14:49:20.160101  3908 net.cpp:442] inception_6a/1x1/relu1 -> inception_6a/1x1 (in-place)
I0122 14:49:20.160113  3908 net.cpp:190] Setting up inception_6a/1x1/relu1
I0122 14:49:20.160128  3908 net.cpp:197] Top shape: 10 96 16 16 (245760)
I0122 14:49:20.160135  3908 net.cpp:205] Memory required for data: 76103720
I0122 14:49:20.160140  3908 layer_factory.hpp:123] Creating layer inception_6a/3x3
I0122 14:49:20.160158  3908 net.cpp:140] Creating Layer inception_6a/3x3
I0122 14:49:20.160169  3908 net.cpp:481] inception_6a/3x3 <- inception_5a/output_inception_5a/output_fixed_0_split_1
I0122 14:49:20.160182  3908 net.cpp:455] inception_6a/3x3 -> inception_6a/3x3
I0122 14:49:20.160948  3908 layer_factory.hpp:123] Creating layer inception_6a/3x3
I0122 14:49:20.162611  3908 net.cpp:190] Setting up inception_6a/3x3
I0122 14:49:20.162636  3908 net.cpp:197] Top shape: 10 64 16 16 (163840)
I0122 14:49:20.162642  3908 net.cpp:205] Memory required for data: 76759080
I0122 14:49:20.162653  3908 layer_factory.hpp:123] Creating layer inception_6a/3x3/relu1
I0122 14:49:20.162664  3908 net.cpp:140] Creating Layer inception_6a/3x3/relu1
I0122 14:49:20.162678  3908 net.cpp:481] inception_6a/3x3/relu1 <- inception_6a/3x3
I0122 14:49:20.162690  3908 net.cpp:442] inception_6a/3x3/relu1 -> inception_6a/3x3 (in-place)
I0122 14:49:20.162703  3908 net.cpp:190] Setting up inception_6a/3x3/relu1
I0122 14:49:20.162717  3908 net.cpp:197] Top shape: 10 64 16 16 (163840)
I0122 14:49:20.162724  3908 net.cpp:205] Memory required for data: 77414440
I0122 14:49:20.162729  3908 layer_factory.hpp:123] Creating layer inception_6a/output
I0122 14:49:20.162745  3908 net.cpp:140] Creating Layer inception_6a/output
I0122 14:49:20.162752  3908 net.cpp:481] inception_6a/output <- inception_6a/1x1
I0122 14:49:20.162758  3908 net.cpp:481] inception_6a/output <- inception_6a/3x3
I0122 14:49:20.162775  3908 net.cpp:455] inception_6a/output -> inception_6a/output
I0122 14:49:20.162806  3908 net.cpp:190] Setting up inception_6a/output
I0122 14:49:20.162822  3908 net.cpp:197] Top shape: 10 160 16 16 (409600)
I0122 14:49:20.162827  3908 net.cpp:205] Memory required for data: 79052840
I0122 14:49:20.162833  3908 layer_factory.hpp:123] Creating layer inception_6a/output_fixed
I0122 14:49:20.162844  3908 net.cpp:140] Creating Layer inception_6a/output_fixed
I0122 14:49:20.162856  3908 net.cpp:481] inception_6a/output_fixed <- inception_6a/output
I0122 14:49:20.162868  3908 net.cpp:442] inception_6a/output_fixed -> inception_6a/output (in-place)
I0122 14:49:20.162927  3908 net.cpp:190] Setting up inception_6a/output_fixed
I0122 14:49:20.162943  3908 net.cpp:197] Top shape: 10 160 16 16 (409600)
I0122 14:49:20.162950  3908 net.cpp:205] Memory required for data: 80691240
I0122 14:49:20.162957  3908 layer_factory.hpp:123] Creating layer inception_6a/output_inception_6a/output_fixed_0_split
I0122 14:49:20.162968  3908 net.cpp:140] Creating Layer inception_6a/output_inception_6a/output_fixed_0_split
I0122 14:49:20.162974  3908 net.cpp:481] inception_6a/output_inception_6a/output_fixed_0_split <- inception_6a/output
I0122 14:49:20.162984  3908 net.cpp:455] inception_6a/output_inception_6a/output_fixed_0_split -> inception_6a/output_inception_6a/output_fixed_0_split_0
I0122 14:49:20.163003  3908 net.cpp:455] inception_6a/output_inception_6a/output_fixed_0_split -> inception_6a/output_inception_6a/output_fixed_0_split_1
I0122 14:49:20.163051  3908 net.cpp:190] Setting up inception_6a/output_inception_6a/output_fixed_0_split
I0122 14:49:20.163067  3908 net.cpp:197] Top shape: 10 160 16 16 (409600)
I0122 14:49:20.163075  3908 net.cpp:197] Top shape: 10 160 16 16 (409600)
I0122 14:49:20.163080  3908 net.cpp:205] Memory required for data: 83968040
I0122 14:49:20.163085  3908 layer_factory.hpp:123] Creating layer inception_7a/1x1
I0122 14:49:20.163112  3908 net.cpp:140] Creating Layer inception_7a/1x1
I0122 14:49:20.163120  3908 net.cpp:481] inception_7a/1x1 <- inception_6a/output_inception_6a/output_fixed_0_split_0
I0122 14:49:20.163131  3908 net.cpp:455] inception_7a/1x1 -> inception_7a/1x1
I0122 14:49:20.163409  3908 layer_factory.hpp:123] Creating layer inception_7a/1x1
I0122 14:49:20.163817  3908 net.cpp:190] Setting up inception_7a/1x1
I0122 14:49:20.163836  3908 net.cpp:197] Top shape: 10 80 16 16 (204800)
I0122 14:49:20.163843  3908 net.cpp:205] Memory required for data: 84787240
I0122 14:49:20.163853  3908 layer_factory.hpp:123] Creating layer inception_7a/1x1/relu1
I0122 14:49:20.163864  3908 net.cpp:140] Creating Layer inception_7a/1x1/relu1
I0122 14:49:20.163877  3908 net.cpp:481] inception_7a/1x1/relu1 <- inception_7a/1x1
I0122 14:49:20.163888  3908 net.cpp:442] inception_7a/1x1/relu1 -> inception_7a/1x1 (in-place)
I0122 14:49:20.163899  3908 net.cpp:190] Setting up inception_7a/1x1/relu1
I0122 14:49:20.163915  3908 net.cpp:197] Top shape: 10 80 16 16 (204800)
I0122 14:49:20.163921  3908 net.cpp:205] Memory required for data: 85606440
I0122 14:49:20.163926  3908 layer_factory.hpp:123] Creating layer inception_7a/3x3
I0122 14:49:20.163954  3908 net.cpp:140] Creating Layer inception_7a/3x3
I0122 14:49:20.163961  3908 net.cpp:481] inception_7a/3x3 <- inception_6a/output_inception_6a/output_fixed_0_split_1
I0122 14:49:20.163975  3908 net.cpp:455] inception_7a/3x3 -> inception_7a/3x3
I0122 14:49:20.165593  3908 layer_factory.hpp:123] Creating layer inception_7a/3x3
I0122 14:49:20.167368  3908 net.cpp:190] Setting up inception_7a/3x3
I0122 14:49:20.167394  3908 net.cpp:197] Top shape: 10 80 16 16 (204800)
I0122 14:49:20.167402  3908 net.cpp:205] Memory required for data: 86425640
I0122 14:49:20.167412  3908 layer_factory.hpp:123] Creating layer inception_7a/3x3/relu1
I0122 14:49:20.167423  3908 net.cpp:140] Creating Layer inception_7a/3x3/relu1
I0122 14:49:20.167439  3908 net.cpp:481] inception_7a/3x3/relu1 <- inception_7a/3x3
I0122 14:49:20.167451  3908 net.cpp:442] inception_7a/3x3/relu1 -> inception_7a/3x3 (in-place)
I0122 14:49:20.167464  3908 net.cpp:190] Setting up inception_7a/3x3/relu1
I0122 14:49:20.167479  3908 net.cpp:197] Top shape: 10 80 16 16 (204800)
I0122 14:49:20.167486  3908 net.cpp:205] Memory required for data: 87244840
I0122 14:49:20.167491  3908 layer_factory.hpp:123] Creating layer inception_7a/output
I0122 14:49:20.167502  3908 net.cpp:140] Creating Layer inception_7a/output
I0122 14:49:20.167515  3908 net.cpp:481] inception_7a/output <- inception_7a/1x1
I0122 14:49:20.167522  3908 net.cpp:481] inception_7a/output <- inception_7a/3x3
I0122 14:49:20.167541  3908 net.cpp:455] inception_7a/output -> inception_7a/output
I0122 14:49:20.167579  3908 net.cpp:190] Setting up inception_7a/output
I0122 14:49:20.167595  3908 net.cpp:197] Top shape: 10 160 16 16 (409600)
I0122 14:49:20.167603  3908 net.cpp:205] Memory required for data: 88883240
I0122 14:49:20.167608  3908 layer_factory.hpp:123] Creating layer inception_7a/output_fixed
I0122 14:49:20.167618  3908 net.cpp:140] Creating Layer inception_7a/output_fixed
I0122 14:49:20.167624  3908 net.cpp:481] inception_7a/output_fixed <- inception_7a/output
I0122 14:49:20.167644  3908 net.cpp:442] inception_7a/output_fixed -> inception_7a/output (in-place)
I0122 14:49:20.167693  3908 net.cpp:190] Setting up inception_7a/output_fixed
I0122 14:49:20.167711  3908 net.cpp:197] Top shape: 10 160 16 16 (409600)
I0122 14:49:20.167716  3908 net.cpp:205] Memory required for data: 90521640
I0122 14:49:20.167726  3908 layer_factory.hpp:123] Creating layer inception_7a/output_inception_7a/output_fixed_0_split
I0122 14:49:20.167737  3908 net.cpp:140] Creating Layer inception_7a/output_inception_7a/output_fixed_0_split
I0122 14:49:20.167748  3908 net.cpp:481] inception_7a/output_inception_7a/output_fixed_0_split <- inception_7a/output
I0122 14:49:20.167760  3908 net.cpp:455] inception_7a/output_inception_7a/output_fixed_0_split -> inception_7a/output_inception_7a/output_fixed_0_split_0
I0122 14:49:20.167781  3908 net.cpp:455] inception_7a/output_inception_7a/output_fixed_0_split -> inception_7a/output_inception_7a/output_fixed_0_split_1
I0122 14:49:20.167829  3908 net.cpp:190] Setting up inception_7a/output_inception_7a/output_fixed_0_split
I0122 14:49:20.167845  3908 net.cpp:197] Top shape: 10 160 16 16 (409600)
I0122 14:49:20.167852  3908 net.cpp:197] Top shape: 10 160 16 16 (409600)
I0122 14:49:20.167857  3908 net.cpp:205] Memory required for data: 93798440
I0122 14:49:20.167863  3908 layer_factory.hpp:123] Creating layer inception_8a/1x1
I0122 14:49:20.167886  3908 net.cpp:140] Creating Layer inception_8a/1x1
I0122 14:49:20.167894  3908 net.cpp:481] inception_8a/1x1 <- inception_7a/output_inception_7a/output_fixed_0_split_0
I0122 14:49:20.167906  3908 net.cpp:455] inception_8a/1x1 -> inception_8a/1x1
I0122 14:49:20.168154  3908 layer_factory.hpp:123] Creating layer inception_8a/1x1
I0122 14:49:20.168534  3908 net.cpp:190] Setting up inception_8a/1x1
I0122 14:49:20.168552  3908 net.cpp:197] Top shape: 10 48 16 16 (122880)
I0122 14:49:20.168560  3908 net.cpp:205] Memory required for data: 94289960
I0122 14:49:20.168581  3908 layer_factory.hpp:123] Creating layer inception_8a/1x1/relu1
I0122 14:49:20.168597  3908 net.cpp:140] Creating Layer inception_8a/1x1/relu1
I0122 14:49:20.168606  3908 net.cpp:481] inception_8a/1x1/relu1 <- inception_8a/1x1
I0122 14:49:20.168615  3908 net.cpp:442] inception_8a/1x1/relu1 -> inception_8a/1x1 (in-place)
I0122 14:49:20.168632  3908 net.cpp:190] Setting up inception_8a/1x1/relu1
I0122 14:49:20.168642  3908 net.cpp:197] Top shape: 10 48 16 16 (122880)
I0122 14:49:20.168654  3908 net.cpp:205] Memory required for data: 94781480
I0122 14:49:20.168661  3908 layer_factory.hpp:123] Creating layer inception_8a/3x3
I0122 14:49:20.168678  3908 net.cpp:140] Creating Layer inception_8a/3x3
I0122 14:49:20.168691  3908 net.cpp:481] inception_8a/3x3 <- inception_7a/output_inception_7a/output_fixed_0_split_1
I0122 14:49:20.168705  3908 net.cpp:455] inception_8a/3x3 -> inception_8a/3x3
I0122 14:49:20.171216  3908 layer_factory.hpp:123] Creating layer inception_8a/3x3
I0122 14:49:20.173910  3908 net.cpp:190] Setting up inception_8a/3x3
I0122 14:49:20.173935  3908 net.cpp:197] Top shape: 10 96 16 16 (245760)
I0122 14:49:20.173943  3908 net.cpp:205] Memory required for data: 95764520
I0122 14:49:20.173954  3908 layer_factory.hpp:123] Creating layer inception_8a/3x3/relu1
I0122 14:49:20.173966  3908 net.cpp:140] Creating Layer inception_8a/3x3/relu1
I0122 14:49:20.173975  3908 net.cpp:481] inception_8a/3x3/relu1 <- inception_8a/3x3
I0122 14:49:20.173986  3908 net.cpp:442] inception_8a/3x3/relu1 -> inception_8a/3x3 (in-place)
I0122 14:49:20.174001  3908 net.cpp:190] Setting up inception_8a/3x3/relu1
I0122 14:49:20.174010  3908 net.cpp:197] Top shape: 10 96 16 16 (245760)
I0122 14:49:20.174015  3908 net.cpp:205] Memory required for data: 96747560
I0122 14:49:20.174019  3908 layer_factory.hpp:123] Creating layer inception_8a/output
I0122 14:49:20.174034  3908 net.cpp:140] Creating Layer inception_8a/output
I0122 14:49:20.174041  3908 net.cpp:481] inception_8a/output <- inception_8a/1x1
I0122 14:49:20.174047  3908 net.cpp:481] inception_8a/output <- inception_8a/3x3
I0122 14:49:20.174059  3908 net.cpp:455] inception_8a/output -> inception_8a/output
I0122 14:49:20.174091  3908 net.cpp:190] Setting up inception_8a/output
I0122 14:49:20.174106  3908 net.cpp:197] Top shape: 10 144 16 16 (368640)
I0122 14:49:20.174113  3908 net.cpp:205] Memory required for data: 98222120
I0122 14:49:20.174118  3908 layer_factory.hpp:123] Creating layer inception_8a/output_fixed
I0122 14:49:20.174132  3908 net.cpp:140] Creating Layer inception_8a/output_fixed
I0122 14:49:20.174139  3908 net.cpp:481] inception_8a/output_fixed <- inception_8a/output
I0122 14:49:20.174150  3908 net.cpp:442] inception_8a/output_fixed -> inception_8a/output (in-place)
I0122 14:49:20.174213  3908 net.cpp:190] Setting up inception_8a/output_fixed
I0122 14:49:20.174230  3908 net.cpp:197] Top shape: 10 144 16 16 (368640)
I0122 14:49:20.174237  3908 net.cpp:205] Memory required for data: 99696680
I0122 14:49:20.174244  3908 layer_factory.hpp:123] Creating layer inception_8a/output_inception_8a/output_fixed_0_split
I0122 14:49:20.174257  3908 net.cpp:140] Creating Layer inception_8a/output_inception_8a/output_fixed_0_split
I0122 14:49:20.174269  3908 net.cpp:481] inception_8a/output_inception_8a/output_fixed_0_split <- inception_8a/output
I0122 14:49:20.174281  3908 net.cpp:455] inception_8a/output_inception_8a/output_fixed_0_split -> inception_8a/output_inception_8a/output_fixed_0_split_0
I0122 14:49:20.174293  3908 net.cpp:455] inception_8a/output_inception_8a/output_fixed_0_split -> inception_8a/output_inception_8a/output_fixed_0_split_1
I0122 14:49:20.174345  3908 net.cpp:190] Setting up inception_8a/output_inception_8a/output_fixed_0_split
I0122 14:49:20.174361  3908 net.cpp:197] Top shape: 10 144 16 16 (368640)
I0122 14:49:20.174369  3908 net.cpp:197] Top shape: 10 144 16 16 (368640)
I0122 14:49:20.174374  3908 net.cpp:205] Memory required for data: 102645800
I0122 14:49:20.174381  3908 layer_factory.hpp:123] Creating layer downsample_9/3x3_s2
I0122 14:49:20.174401  3908 net.cpp:140] Creating Layer downsample_9/3x3_s2
I0122 14:49:20.174412  3908 net.cpp:481] downsample_9/3x3_s2 <- inception_8a/output_inception_8a/output_fixed_0_split_0
I0122 14:49:20.174427  3908 net.cpp:455] downsample_9/3x3_s2 -> downsample_9/3x3_s2
I0122 14:49:20.176120  3908 layer_factory.hpp:123] Creating layer downsample_9/3x3_s2
I0122 14:49:20.178017  3908 net.cpp:190] Setting up downsample_9/3x3_s2
I0122 14:49:20.178041  3908 net.cpp:197] Top shape: 10 96 8 8 (61440)
I0122 14:49:20.178048  3908 net.cpp:205] Memory required for data: 102891560
I0122 14:49:20.178059  3908 layer_factory.hpp:123] Creating layer downsample_9/3x3_s2/relu1
I0122 14:49:20.178073  3908 net.cpp:140] Creating Layer downsample_9/3x3_s2/relu1
I0122 14:49:20.178087  3908 net.cpp:481] downsample_9/3x3_s2/relu1 <- downsample_9/3x3_s2
I0122 14:49:20.178098  3908 net.cpp:442] downsample_9/3x3_s2/relu1 -> downsample_9/3x3_s2 (in-place)
I0122 14:49:20.178110  3908 net.cpp:190] Setting up downsample_9/3x3_s2/relu1
I0122 14:49:20.178120  3908 net.cpp:197] Top shape: 10 96 8 8 (61440)
I0122 14:49:20.178126  3908 net.cpp:205] Memory required for data: 103137320
I0122 14:49:20.178131  3908 layer_factory.hpp:123] Creating layer downsample_9/pool_s2
I0122 14:49:20.178144  3908 net.cpp:140] Creating Layer downsample_9/pool_s2
I0122 14:49:20.178158  3908 net.cpp:481] downsample_9/pool_s2 <- inception_8a/output_inception_8a/output_fixed_0_split_1
I0122 14:49:20.178169  3908 net.cpp:455] downsample_9/pool_s2 -> downsample_9/pool_s2
I0122 14:49:20.178230  3908 net.cpp:190] Setting up downsample_9/pool_s2
I0122 14:49:20.178246  3908 net.cpp:197] Top shape: 10 144 8 8 (92160)
I0122 14:49:20.178252  3908 net.cpp:205] Memory required for data: 103505960
I0122 14:49:20.178257  3908 layer_factory.hpp:123] Creating layer downsample_9/output
I0122 14:49:20.178269  3908 net.cpp:140] Creating Layer downsample_9/output
I0122 14:49:20.178277  3908 net.cpp:481] downsample_9/output <- downsample_9/3x3_s2
I0122 14:49:20.178284  3908 net.cpp:481] downsample_9/output <- downsample_9/pool_s2
I0122 14:49:20.178295  3908 net.cpp:455] downsample_9/output -> downsample_9/output
I0122 14:49:20.178336  3908 net.cpp:190] Setting up downsample_9/output
I0122 14:49:20.178354  3908 net.cpp:197] Top shape: 10 240 8 8 (153600)
I0122 14:49:20.178360  3908 net.cpp:205] Memory required for data: 104120360
I0122 14:49:20.178365  3908 layer_factory.hpp:123] Creating layer downsample_9/output_fixed
I0122 14:49:20.178378  3908 net.cpp:140] Creating Layer downsample_9/output_fixed
I0122 14:49:20.178385  3908 net.cpp:481] downsample_9/output_fixed <- downsample_9/output
I0122 14:49:20.178395  3908 net.cpp:442] downsample_9/output_fixed -> downsample_9/output (in-place)
I0122 14:49:20.178447  3908 net.cpp:190] Setting up downsample_9/output_fixed
I0122 14:49:20.178462  3908 net.cpp:197] Top shape: 10 240 8 8 (153600)
I0122 14:49:20.178469  3908 net.cpp:205] Memory required for data: 104734760
I0122 14:49:20.178478  3908 layer_factory.hpp:123] Creating layer downsample_9/output_downsample_9/output_fixed_0_split
I0122 14:49:20.178489  3908 net.cpp:140] Creating Layer downsample_9/output_downsample_9/output_fixed_0_split
I0122 14:49:20.178503  3908 net.cpp:481] downsample_9/output_downsample_9/output_fixed_0_split <- downsample_9/output
I0122 14:49:20.178514  3908 net.cpp:455] downsample_9/output_downsample_9/output_fixed_0_split -> downsample_9/output_downsample_9/output_fixed_0_split_0
I0122 14:49:20.178527  3908 net.cpp:455] downsample_9/output_downsample_9/output_fixed_0_split -> downsample_9/output_downsample_9/output_fixed_0_split_1
I0122 14:49:20.178578  3908 net.cpp:190] Setting up downsample_9/output_downsample_9/output_fixed_0_split
I0122 14:49:20.178594  3908 net.cpp:197] Top shape: 10 240 8 8 (153600)
I0122 14:49:20.178603  3908 net.cpp:197] Top shape: 10 240 8 8 (153600)
I0122 14:49:20.178608  3908 net.cpp:205] Memory required for data: 105963560
I0122 14:49:20.178613  3908 layer_factory.hpp:123] Creating layer inception_10a/1x1
I0122 14:49:20.178632  3908 net.cpp:140] Creating Layer inception_10a/1x1
I0122 14:49:20.178644  3908 net.cpp:481] inception_10a/1x1 <- downsample_9/output_downsample_9/output_fixed_0_split_0
I0122 14:49:20.178659  3908 net.cpp:455] inception_10a/1x1 -> inception_10a/1x1
I0122 14:49:20.179165  3908 layer_factory.hpp:123] Creating layer inception_10a/1x1
I0122 14:49:20.179834  3908 net.cpp:190] Setting up inception_10a/1x1
I0122 14:49:20.179853  3908 net.cpp:197] Top shape: 10 176 8 8 (112640)
I0122 14:49:20.179860  3908 net.cpp:205] Memory required for data: 106414120
I0122 14:49:20.179870  3908 layer_factory.hpp:123] Creating layer inception_10a/1x1/relu1
I0122 14:49:20.179881  3908 net.cpp:140] Creating Layer inception_10a/1x1/relu1
I0122 14:49:20.179889  3908 net.cpp:481] inception_10a/1x1/relu1 <- inception_10a/1x1
I0122 14:49:20.179900  3908 net.cpp:442] inception_10a/1x1/relu1 -> inception_10a/1x1 (in-place)
I0122 14:49:20.179921  3908 net.cpp:190] Setting up inception_10a/1x1/relu1
I0122 14:49:20.179931  3908 net.cpp:197] Top shape: 10 176 8 8 (112640)
I0122 14:49:20.179936  3908 net.cpp:205] Memory required for data: 106864680
I0122 14:49:20.179942  3908 layer_factory.hpp:123] Creating layer inception_10a/3x3
I0122 14:49:20.179960  3908 net.cpp:140] Creating Layer inception_10a/3x3
I0122 14:49:20.179975  3908 net.cpp:481] inception_10a/3x3 <- downsample_9/output_downsample_9/output_fixed_0_split_1
I0122 14:49:20.179988  3908 net.cpp:455] inception_10a/3x3 -> inception_10a/3x3
I0122 14:49:20.184162  3908 layer_factory.hpp:123] Creating layer inception_10a/3x3
I0122 14:49:20.188477  3908 net.cpp:190] Setting up inception_10a/3x3
I0122 14:49:20.188508  3908 net.cpp:197] Top shape: 10 160 8 8 (102400)
I0122 14:49:20.188515  3908 net.cpp:205] Memory required for data: 107274280
I0122 14:49:20.188530  3908 layer_factory.hpp:123] Creating layer inception_10a/3x3/relu1
I0122 14:49:20.188544  3908 net.cpp:140] Creating Layer inception_10a/3x3/relu1
I0122 14:49:20.188551  3908 net.cpp:481] inception_10a/3x3/relu1 <- inception_10a/3x3
I0122 14:49:20.188563  3908 net.cpp:442] inception_10a/3x3/relu1 -> inception_10a/3x3 (in-place)
I0122 14:49:20.188580  3908 net.cpp:190] Setting up inception_10a/3x3/relu1
I0122 14:49:20.188589  3908 net.cpp:197] Top shape: 10 160 8 8 (102400)
I0122 14:49:20.188596  3908 net.cpp:205] Memory required for data: 107683880
I0122 14:49:20.188602  3908 layer_factory.hpp:123] Creating layer inception_10a/output
I0122 14:49:20.188623  3908 net.cpp:140] Creating Layer inception_10a/output
I0122 14:49:20.188637  3908 net.cpp:481] inception_10a/output <- inception_10a/1x1
I0122 14:49:20.188645  3908 net.cpp:481] inception_10a/output <- inception_10a/3x3
I0122 14:49:20.188655  3908 net.cpp:455] inception_10a/output -> inception_10a/output
I0122 14:49:20.188695  3908 net.cpp:190] Setting up inception_10a/output
I0122 14:49:20.188710  3908 net.cpp:197] Top shape: 10 336 8 8 (215040)
I0122 14:49:20.188717  3908 net.cpp:205] Memory required for data: 108544040
I0122 14:49:20.188724  3908 layer_factory.hpp:123] Creating layer inception_10a/output_fixed
I0122 14:49:20.188735  3908 net.cpp:140] Creating Layer inception_10a/output_fixed
I0122 14:49:20.188740  3908 net.cpp:481] inception_10a/output_fixed <- inception_10a/output
I0122 14:49:20.188755  3908 net.cpp:442] inception_10a/output_fixed -> inception_10a/output (in-place)
I0122 14:49:20.188807  3908 net.cpp:190] Setting up inception_10a/output_fixed
I0122 14:49:20.188824  3908 net.cpp:197] Top shape: 10 336 8 8 (215040)
I0122 14:49:20.188830  3908 net.cpp:205] Memory required for data: 109404200
I0122 14:49:20.188838  3908 layer_factory.hpp:123] Creating layer inception_10a/output_inception_10a/output_fixed_0_split
I0122 14:49:20.188850  3908 net.cpp:140] Creating Layer inception_10a/output_inception_10a/output_fixed_0_split
I0122 14:49:20.188858  3908 net.cpp:481] inception_10a/output_inception_10a/output_fixed_0_split <- inception_10a/output
I0122 14:49:20.188868  3908 net.cpp:455] inception_10a/output_inception_10a/output_fixed_0_split -> inception_10a/output_inception_10a/output_fixed_0_split_0
I0122 14:49:20.188881  3908 net.cpp:455] inception_10a/output_inception_10a/output_fixed_0_split -> inception_10a/output_inception_10a/output_fixed_0_split_1
I0122 14:49:20.188936  3908 net.cpp:190] Setting up inception_10a/output_inception_10a/output_fixed_0_split
I0122 14:49:20.188953  3908 net.cpp:197] Top shape: 10 336 8 8 (215040)
I0122 14:49:20.188961  3908 net.cpp:197] Top shape: 10 336 8 8 (215040)
I0122 14:49:20.188966  3908 net.cpp:205] Memory required for data: 111124520
I0122 14:49:20.188971  3908 layer_factory.hpp:123] Creating layer inception_11a/1x1
I0122 14:49:20.188992  3908 net.cpp:140] Creating Layer inception_11a/1x1
I0122 14:49:20.189003  3908 net.cpp:481] inception_11a/1x1 <- inception_10a/output_inception_10a/output_fixed_0_split_0
I0122 14:49:20.189016  3908 net.cpp:455] inception_11a/1x1 -> inception_11a/1x1
I0122 14:49:20.190461  3908 layer_factory.hpp:123] Creating layer inception_11a/1x1
I0122 14:49:20.191210  3908 net.cpp:190] Setting up inception_11a/1x1
I0122 14:49:20.191231  3908 net.cpp:197] Top shape: 10 176 8 8 (112640)
I0122 14:49:20.191237  3908 net.cpp:205] Memory required for data: 111575080
I0122 14:49:20.191248  3908 layer_factory.hpp:123] Creating layer inception_11a/1x1/relu1
I0122 14:49:20.191262  3908 net.cpp:140] Creating Layer inception_11a/1x1/relu1
I0122 14:49:20.191267  3908 net.cpp:481] inception_11a/1x1/relu1 <- inception_11a/1x1
I0122 14:49:20.191280  3908 net.cpp:442] inception_11a/1x1/relu1 -> inception_11a/1x1 (in-place)
I0122 14:49:20.191293  3908 net.cpp:190] Setting up inception_11a/1x1/relu1
I0122 14:49:20.191310  3908 net.cpp:197] Top shape: 10 176 8 8 (112640)
I0122 14:49:20.191318  3908 net.cpp:205] Memory required for data: 112025640
I0122 14:49:20.191323  3908 layer_factory.hpp:123] Creating layer inception_11a/3x3
I0122 14:49:20.191341  3908 net.cpp:140] Creating Layer inception_11a/3x3
I0122 14:49:20.191350  3908 net.cpp:481] inception_11a/3x3 <- inception_10a/output_inception_10a/output_fixed_0_split_1
I0122 14:49:20.191362  3908 net.cpp:455] inception_11a/3x3 -> inception_11a/3x3
I0122 14:49:20.196877  3908 layer_factory.hpp:123] Creating layer inception_11a/3x3
I0122 14:49:20.202606  3908 net.cpp:190] Setting up inception_11a/3x3
I0122 14:49:20.202637  3908 net.cpp:197] Top shape: 10 160 8 8 (102400)
I0122 14:49:20.202646  3908 net.cpp:205] Memory required for data: 112435240
I0122 14:49:20.202659  3908 layer_factory.hpp:123] Creating layer inception_11a/3x3/relu1
I0122 14:49:20.202672  3908 net.cpp:140] Creating Layer inception_11a/3x3/relu1
I0122 14:49:20.202683  3908 net.cpp:481] inception_11a/3x3/relu1 <- inception_11a/3x3
I0122 14:49:20.202695  3908 net.cpp:442] inception_11a/3x3/relu1 -> inception_11a/3x3 (in-place)
I0122 14:49:20.202713  3908 net.cpp:190] Setting up inception_11a/3x3/relu1
I0122 14:49:20.202721  3908 net.cpp:197] Top shape: 10 160 8 8 (102400)
I0122 14:49:20.202728  3908 net.cpp:205] Memory required for data: 112844840
I0122 14:49:20.202734  3908 layer_factory.hpp:123] Creating layer inception_11a/output
I0122 14:49:20.202746  3908 net.cpp:140] Creating Layer inception_11a/output
I0122 14:49:20.202759  3908 net.cpp:481] inception_11a/output <- inception_11a/1x1
I0122 14:49:20.202769  3908 net.cpp:481] inception_11a/output <- inception_11a/3x3
I0122 14:49:20.202780  3908 net.cpp:455] inception_11a/output -> inception_11a/output
I0122 14:49:20.202822  3908 net.cpp:190] Setting up inception_11a/output
I0122 14:49:20.202838  3908 net.cpp:197] Top shape: 10 336 8 8 (215040)
I0122 14:49:20.202845  3908 net.cpp:205] Memory required for data: 113705000
I0122 14:49:20.202850  3908 layer_factory.hpp:123] Creating layer inception_11a/output_fixed
I0122 14:49:20.202862  3908 net.cpp:140] Creating Layer inception_11a/output_fixed
I0122 14:49:20.202870  3908 net.cpp:481] inception_11a/output_fixed <- inception_11a/output
I0122 14:49:20.202883  3908 net.cpp:442] inception_11a/output_fixed -> inception_11a/output (in-place)
I0122 14:49:20.202947  3908 net.cpp:190] Setting up inception_11a/output_fixed
I0122 14:49:20.202965  3908 net.cpp:197] Top shape: 10 336 8 8 (215040)
I0122 14:49:20.202970  3908 net.cpp:205] Memory required for data: 114565160
I0122 14:49:20.202978  3908 layer_factory.hpp:123] Creating layer avg_pool_12/8x8_s1
I0122 14:49:20.202992  3908 net.cpp:140] Creating Layer avg_pool_12/8x8_s1
I0122 14:49:20.203006  3908 net.cpp:481] avg_pool_12/8x8_s1 <- inception_11a/output
I0122 14:49:20.203018  3908 net.cpp:455] avg_pool_12/8x8_s1 -> avg_pool_12/8x8_s1
I0122 14:49:20.203081  3908 net.cpp:190] Setting up avg_pool_12/8x8_s1
I0122 14:49:20.203097  3908 net.cpp:197] Top shape: 10 336 1 1 (3360)
I0122 14:49:20.203104  3908 net.cpp:205] Memory required for data: 114578600
I0122 14:49:20.203109  3908 layer_factory.hpp:123] Creating layer avg_pool_12/8x8_s1_fixed
I0122 14:49:20.203121  3908 net.cpp:140] Creating Layer avg_pool_12/8x8_s1_fixed
I0122 14:49:20.203128  3908 net.cpp:481] avg_pool_12/8x8_s1_fixed <- avg_pool_12/8x8_s1
I0122 14:49:20.203140  3908 net.cpp:442] avg_pool_12/8x8_s1_fixed -> avg_pool_12/8x8_s1 (in-place)
I0122 14:49:20.203192  3908 net.cpp:190] Setting up avg_pool_12/8x8_s1_fixed
I0122 14:49:20.203209  3908 net.cpp:197] Top shape: 10 336 1 1 (3360)
I0122 14:49:20.203215  3908 net.cpp:205] Memory required for data: 114592040
I0122 14:49:20.203223  3908 layer_factory.hpp:123] Creating layer loss/classifier
I0122 14:49:20.203238  3908 net.cpp:140] Creating Layer loss/classifier
I0122 14:49:20.203251  3908 net.cpp:481] loss/classifier <- avg_pool_12/8x8_s1
I0122 14:49:20.203265  3908 net.cpp:455] loss/classifier -> loss/classifier
I0122 14:49:20.203423  3908 layer_factory.hpp:123] Creating layer loss/classifier
I0122 14:49:20.203634  3908 net.cpp:190] Setting up loss/classifier
I0122 14:49:20.203651  3908 net.cpp:197] Top shape: 10 10 (100)
I0122 14:49:20.203657  3908 net.cpp:205] Memory required for data: 114592440
I0122 14:49:20.203668  3908 layer_factory.hpp:123] Creating layer loss/classifier_fixed
I0122 14:49:20.203680  3908 net.cpp:140] Creating Layer loss/classifier_fixed
I0122 14:49:20.203685  3908 net.cpp:481] loss/classifier_fixed <- loss/classifier
I0122 14:49:20.203696  3908 net.cpp:442] loss/classifier_fixed -> loss/classifier (in-place)
I0122 14:49:20.203748  3908 net.cpp:190] Setting up loss/classifier_fixed
I0122 14:49:20.203763  3908 net.cpp:197] Top shape: 10 10 (100)
I0122 14:49:20.203770  3908 net.cpp:205] Memory required for data: 114592840
I0122 14:49:20.203778  3908 layer_factory.hpp:123] Creating layer loss
I0122 14:49:20.203790  3908 net.cpp:140] Creating Layer loss
I0122 14:49:20.203797  3908 net.cpp:481] loss <- loss/classifier
I0122 14:49:20.203804  3908 net.cpp:481] loss <- label
I0122 14:49:20.203814  3908 net.cpp:455] loss -> loss
I0122 14:49:20.203835  3908 layer_factory.hpp:123] Creating layer loss
…
I0122 14:49:22.889111  3908 net_test.cpp:369] Net type: other
I0122 14:49:22.889287  3908 net.cpp:369] The NetState phase (1) differed from the phase (0) specified by a rule in layer data
I0122 14:49:22.889873  3908 net.cpp:98] Initializing net from parameters: 
layer {
  name: "data"
  type: "Data"
  top: "data"
  top: "label"
  include {
    phase: TEST
  }
  transform_param {
    mirror: false
    mean_value: 125
    mean_value: 123
    mean_value: 114
  }
  data_param {
    source: "cifar10/input/lmdb/valid_lmdb"
    batch_size: 50
    backend: LMDB
  }
}
layer {
  name: "data_fixed"
  type: "FixedNeuron"
  bottom: "data"
  top: "data"
  param {
    lr_mult: 0
    decay_mult: 0
  }
  fixed_param {
    fixed_method: OVER_FLOW
    bit_width: 8
    follow_data_layer: true
  }
}
layer {
  name: "conv1/3x3_s1"
  type: "ConvolutionFixed"
  bottom: "data"
  top: "conv1/3x3_s1"
  param {
    lr_mult: 1
    decay_mult: 1
  }
  param {
    lr_mult: 1
    decay_mult: 0
  }
  convolution_param {
    num_output: 96
    bias_term: true
    pad: 1
    kernel_size: 3
    stride: 1
    weight_filler {
      type: "xavier"
      std: 0.1
    }
    bias_filler {
      type: "constant"
      value: 0.2
    }
  }
  fixed_param {
    fixed_method: DIFF_S
    bit_width: 8
  }
}
layer {
  name: "conv1/relu1"
  type: "ReLU"
  bottom: "conv1/3x3_s1"
  top: "conv1/3x3_s1"
}
layer {
  name: "conv1/3x3_s1_fixed"
  type: "FixedNeuron"
  bottom: "conv1/3x3_s1"
  top: "conv1/3x3_s1"
  param {
    lr_mult: 0
    decay_mult: 0
  }
  fixed_param {
    fixed_method: DIFF_S
    bit_width: 8
  }
}
layer {
  name: "inception_2a/1x1"
  type: "ConvolutionFixed"
  bottom: "conv1/3x3_s1"
  top: "inception_2a/1x1"
  param {
    lr_mult: 1
    decay_mult: 1
  }
  param {
    lr_mult: 1
    decay_mult: 0
  }
  convolution_param {
    num_output: 32
    bias_term: true
    kernel_size: 1
    weight_filler {
      type: "xavier"
      std: 0.03
    }
    bias_filler {
      type: "constant"
      value: 0.2
    }
  }
  fixed_param {
    fixed_method: DIFF_S
    bit_width: 8
  }
}
layer {
  name: "inception_2a/1x1/relu1"
  type: "ReLU"
  bottom: "inception_2a/1x1"
  top: "inception_2a/1x1"
}
layer {
  name: "inception_2a/3x3"
  type: "ConvolutionFixed"
  bottom: "conv1/3x3_s1"
  top: "inception_2a/3x3"
  param {
    lr_mult: 1
    decay_mult: 1
  }
  param {
    lr_mult: 1
    decay_mult: 0
  }
  convolution_param {
    num_output: 32
    bias_term: true
    pad: 1
    kernel_size: 3
    weight_filler {
      type: "xavier"
      std: 0.03
    }
    bias_filler {
      type: "constant"
      value: 0.2
    }
  }
  fixed_param {
    fixed_method: DIFF_S
    bit_width: 8
  }
}
layer {
  name: "inception_2a/3x3/relu1"
  type: "ReLU"
  bottom: "inception_2a/3x3"
  top: "inception_2a/3x3"
}
layer {
  name: "inception_2a/output"
  type: "Concat"
  bottom: "inception_2a/1x1"
  bottom: "inception_2a/3x3"
  top: "inception_2a/output"
}
layer {
  name: "inception_2a/output_fixed"
  type: "FixedNeuron"
  bottom: "inception_2a/output"
  top: "inception_2a/output"
  param {
    lr_mult: 0
    decay_mult: 0
  }
  fixed_param {
    fixed_method: DIFF_S
    bit_width: 8
  }
}
layer {
  name: "inception_3a/1x1"
  type: "ConvolutionFixed"
  bottom: "inception_2a/output"
  top: "inception_3a/1x1"
  param {
    lr_mult: 1
    decay_mult: 1
  }
  param {
    lr_mult: 1
    decay_mult: 0
  }
  convolution_param {
    num_output: 32
    bias_term: true
    kernel_size: 1
    weight_filler {
      type: "xavier"
      std: 0.03
    }
    bias_filler {
      type: "constant"
      value: 0.2
    }
  }
  fixed_param {
    fixed_method: DIFF_S
    bit_width: 8
  }
}
layer {
  name: "inception_3a/1x1/relu1"
  type: "ReLU"
  bottom: "inception_3a/1x1"
  top: "inception_3a/1x1"
}
layer {
  name: "inception_3a/3x3"
  type: "ConvolutionFixed"
  bottom: "inception_2a/output"
  top: "inception_3a/3x3"
  param {
    lr_mult: 1
    decay_mult: 1
  }
  param {
    lr_mult: 1
    decay_mult: 0
  }
  convolution_param {
    num_output: 48
    bias_term: true
    pad: 1
    kernel_size: 3
    weight_filler {
      type: "xavier"
      std: 0.03
    }
    bias_filler {
      type: "constant"
      value: 0.2
    }
  }
  fixed_param {
    fixed_method: DIFF_S
    bit_width: 8
  }
}
layer {
  name: "inception_3a/3x3/relu1"
  type: "ReLU"
  bottom: "inception_3a/3x3"
  top: "inception_3a/3x3"
}
layer {
  name: "inception_3a/output"
  type: "Concat"
  bottom: "inception_3a/1x1"
  bottom: "inception_3a/3x3"
  top: "inception_3a/output"
}
layer {
  name: "inception_3a/output_fixed"
  type: "FixedNeuron"
  bottom: "inception_3a/output"
  top: "inception_3a/output"
  param {
    lr_mult: 0
    decay_mult: 0
  }
  fixed_param {
    fixed_method: DIFF_S
    bit_width: 8
  }
}
layer {
  name: "downsample_4/3x3_s2"
  type: "ConvolutionFixed"
  bottom: "inception_3a/output"
  top: "downsample_4/3x3_s2"
  param {
    lr_mult: 1
    decay_mult: 1
  }
  param {
    lr_mult: 1
    decay_mult: 0
  }
  convolution_param {
    num_output: 80
    bias_term: true
    pad: 1
    kernel_size: 3
    stride: 2
    weight_filler {
      type: "xavier"
      std: 0.03
    }
    bias_filler {
      type: "constant"
      value: 0.2
    }
  }
  fixed_param {
    fixed_method: DIFF_S
    bit_width: 8
  }
}
layer {
  name: "downsample_4/3x3_s2/relu1"
  type: "ReLU"
  bottom: "downsample_4/3x3_s2"
  top: "downsample_4/3x3_s2"
}
layer {
  name: "downsample_4/pool_s2"
  type: "Pooling"
  bottom: "inception_3a/output"
  top: "downsample_4/pool_s2"
  pooling_param {
    pool: MAX
    kernel_size: 3
    stride: 2
  }
}
layer {
  name: "downsample_4/output"
  type: "Concat"
  bottom: "downsample_4/3x3_s2"
  bottom: "downsample_4/pool_s2"
  top: "downsample_4/output"
}
layer {
  name: "downsample_4/output_fixed"
  type: "FixedNeuron"
  bottom: "downsample_4/output"
  top: "downsample_4/output"
  param {
    lr_mult: 0
    decay_mult: 0
  }
  fixed_param {
    fixed_method: DIFF_S
    bit_width: 8
  }
}
layer {
  name: "inception_5a/1x1"
  type: "ConvolutionFixed"
  bottom: "downsample_4/output"
  top: "inception_5a/1x1"
  param {
    lr_mult: 1
    decay_mult: 1
  }
  param {
    lr_mult: 1
    decay_mult: 0
  }
  convolution_param {
    num_output: 112
    bias_term: true
    kernel_size: 1
    weight_filler {
      type: "xavier"
      std: 0.03
    }
    bias_filler {
      type: "constant"
      value: 0.2
    }
  }
  fixed_param {
    fixed_method: DIFF_S
    bit_width: 8
  }
}
layer {
  name: "inception_5a/1x1/relu1"
  type: "ReLU"
  bottom: "inception_5a/1x1"
  top: "inception_5a/1x1"
}
layer {
  name: "inception_5a/3x3"
  type: "ConvolutionFixed"
  bottom: "downsample_4/output"
  top: "inception_5a/3x3"
  param {
    lr_mult: 1
    decay_mult: 1
  }
  param {
    lr_mult: 1
    decay_mult: 0
  }
  convolution_param {
    num_output: 48
    bias_term: true
    pad: 1
    kernel_size: 3
    weight_filler {
      type: "xavier"
      std: 0.03
    }
    bias_filler {
      type: "constant"
      value: 0.2
    }
  }
  fixed_param {
    fixed_method: DIFF_S
    bit_width: 8
  }
}
layer {
  name: "inception_5a/3x3/relu1"
  type: "ReLU"
  bottom: "inception_5a/3x3"
  top: "inception_5a/3x3"
}
layer {
  name: "inception_5a/output"
  type: "Concat"
  bottom: "inception_5a/1x1"
  bottom: "inception_5a/3x3"
  top: "inception_5a/output"
}
layer {
  name: "inception_5a/output_fixed"
  type: "FixedNeuron"
  bottom: "inception_5a/output"
  top: "inception_5a/output"
  param {
    lr_mult: 0
    decay_mult: 0
  }
  fixed_param {
    fixed_method: DIFF_S
    bit_width: 8
  }
}
layer {
  name: "inception_6a/1x1"
  type: "ConvolutionFixed"
  bottom: "inception_5a/output"
  top: "inception_6a/1x1"
  param {
    lr_mult: 1
    decay_mult: 1
  }
  param {
    lr_mult: 1
    decay_mult: 0
  }
  convolution_param {
    num_output: 96
    bias_term: true
    kernel_size: 1
    weight_filler {
      type: "xavier"
      std: 0.03
    }
    bias_filler {
      type: "constant"
      value: 0.2
    }
  }
  fixed_param {
    fixed_method: DIFF_S
    bit_width: 8
  }
}
layer {
  name: "inception_6a/1x1/relu1"
  type: "ReLU"
  bottom: "inception_6a/1x1"
  top: "inception_6a/1x1"
}
layer {
  name: "inception_6a/3x3"
  type: "ConvolutionFixed"
  bottom: "inception_5a/output"
  top: "inception_6a/3x3"
  param {
    lr_mult: 1
    decay_mult: 1
  }
  param {
    lr_mult: 1
    decay_mult: 0
  }
  convolution_param {
    num_output: 64
    bias_term: true
    pad: 1
    kernel_size: 3
    weight_filler {
      type: "xavier"
      std: 0.03
    }
    bias_filler {
      type: "constant"
      value: 0.2
    }
  }
  fixed_param {
    fixed_method: DIFF_S
    bit_width: 8
  }
}
layer {
  name: "inception_6a/3x3/relu1"
  type: "ReLU"
  bottom: "inception_6a/3x3"
  top: "inception_6a/3x3"
}
layer {
  name: "inception_6a/output"
  type: "Concat"
  bottom: "inception_6a/1x1"
  bottom: "inception_6a/3x3"
  top: "inception_6a/output"
}
layer {
  name: "inception_6a/output_fixed"
  type: "FixedNeuron"
  bottom: "inception_6a/output"
  top: "inception_6a/output"
  param {
    lr_mult: 0
    decay_mult: 0
  }
  fixed_param {
    fixed_method: DIFF_S
    bit_width: 8
  }
}
layer {
  name: "inception_7a/1x1"
  type: "ConvolutionFixed"
  bottom: "inception_6a/output"
  top: "inception_7a/1x1"
  param {
    lr_mult: 1
    decay_mult: 1
  }
  param {
    lr_mult: 1
    decay_mult: 0
  }
  convolution_param {
    num_output: 80
    bias_term: true
    kernel_size: 1
    weight_filler {
      type: "xavier"
      std: 0.03
    }
    bias_filler {
      type: "constant"
      value: 0.2
    }
  }
  fixed_param {
    fixed_method: DIFF_S
    bit_width: 8
  }
}
layer {
  name: "inception_7a/1x1/relu1"
  type: "ReLU"
  bottom: "inception_7a/1x1"
  top: "inception_7a/1x1"
}
layer {
  name: "inception_7a/3x3"
  type: "ConvolutionFixed"
  bottom: "inception_6a/output"
  top: "inception_7a/3x3"
  param {
    lr_mult: 1
    decay_mult: 1
  }
  param {
    lr_mult: 1
    decay_mult: 0
  }
  convolution_param {
    num_output: 80
    bias_term: true
    pad: 1
    kernel_size: 3
    weight_filler {
      type: "xavier"
      std: 0.03
    }
    bias_filler {
      type: "constant"
      value: 0.2
    }
  }
  fixed_param {
    fixed_method: DIFF_S
    bit_width: 8
  }
}
layer {
  name: "inception_7a/3x3/relu1"
  type: "ReLU"
  bottom: "inception_7a/3x3"
  top: "inception_7a/3x3"
}
layer {
  name: "inception_7a/output"
  type: "Concat"
  bottom: "inception_7a/1x1"
  bottom: "inception_7a/3x3"
  top: "inception_7a/output"
}
layer {
  name: "inception_7a/output_fixed"
  type: "FixedNeuron"
  bottom: "inception_7a/output"
  top: "inception_7a/output"
  param {
    lr_mult: 0
    decay_mult: 0
  }
  fixed_param {
    fixed_method: DIFF_S
    bit_width: 8
  }
}
layer {
  name: "inception_8a/1x1"
  type: "ConvolutionFixed"
  bottom: "inception_7a/output"
  top: "inception_8a/1x1"
  param {
    lr_mult: 1
    decay_mult: 1
  }
  param {
    lr_mult: 1
    decay_mult: 0
  }
  convolution_param {
    num_output: 48
    bias_term: true
    kernel_size: 1
    weight_filler {
      type: "xavier"
      std: 0.03
    }
    bias_filler {
      type: "constant"
      value: 0.2
    }
  }
  fixed_param {
    fixed_method: DIFF_S
    bit_width: 8
  }
}
layer {
  name: "inception_8a/1x1/relu1"
  type: "ReLU"
  bottom: "inception_8a/1x1"
  top: "inception_8a/1x1"
}
layer {
  name: "inception_8a/3x3"
  type: "ConvolutionFixed"
  bottom: "inception_7a/output"
  top: "inception_8a/3x3"
  param {
    lr_mult: 1
    decay_mult: 1
  }
  param {
    lr_mult: 1
    decay_mult: 0
  }
  convolution_param {
    num_output: 96
    bias_term: true
    pad: 1
    kernel_size: 3
    weight_filler {
      type: "xavier"
      std: 0.03
    }
    bias_filler {
      type: "constant"
      value: 0.2
    }
  }
  fixed_param {
    fixed_method: DIFF_S
    bit_width: 8
  }
}
layer {
  name: "inception_8a/3x3/relu1"
  type: "ReLU"
  bottom: "inception_8a/3x3"
  top: "inception_8a/3x3"
}
layer {
  name: "inception_8a/output"
  type: "Concat"
  bottom: "inception_8a/1x1"
  bottom: "inception_8a/3x3"
  top: "inception_8a/output"
}
layer {
  name: "inception_8a/output_fixed"
  type: "FixedNeuron"
  bottom: "inception_8a/output"
  top: "inception_8a/output"
  param {
    lr_mult: 0
    decay_mult: 0
  }
  fixed_param {
    fixed_method: DIFF_S
    bit_width: 8
  }
}
layer {
  name: "downsample_9/3x3_s2"
  type: "ConvolutionFixed"
  bottom: "inception_8a/output"
  top: "downsample_9/3x3_s2"
  param {
    lr_mult: 1
    decay_mult: 1
  }
  param {
    lr_mult: 1
    decay_mult: 0
  }
  convolution_param {
    num_output: 96
    bias_term: true
    pad: 1
    kernel_size: 3
    stride: 2
    weight_filler {
      type: "xavier"
      std: 0.03
    }
    bias_filler {
      type: "constant"
      value: 0.2
    }
  }
  fixed_param {
    fixed_method: DIFF_S
    bit_width: 8
  }
}
layer {
  name: "downsample_9/3x3_s2/relu1"
  type: "ReLU"
  bottom: "downsample_9/3x3_s2"
  top: "downsample_9/3x3_s2"
}
layer {
  name: "downsample_9/pool_s2"
  type: "Pooling"
  bottom: "inception_8a/output"
  top: "downsample_9/pool_s2"
  pooling_param {
    pool: MAX
    kernel_size: 3
    stride: 2
  }
}
layer {
  name: "downsample_9/output"
  type: "Concat"
  bottom: "downsample_9/3x3_s2"
  bottom: "downsample_9/pool_s2"
  top: "downsample_9/output"
}
layer {
  name: "downsample_9/output_fixed"
  type: "FixedNeuron"
  bottom: "downsample_9/output"
  top: "downsample_9/output"
  param {
    lr_mult: 0
    decay_mult: 0
  }
  fixed_param {
    fixed_method: DIFF_S
    bit_width: 8
  }
}
layer {
  name: "inception_10a/1x1"
  type: "ConvolutionFixed"
  bottom: "downsample_9/output"
  top: "inception_10a/1x1"
  param {
    lr_mult: 1
    decay_mult: 1
  }
  param {
    lr_mult: 1
    decay_mult: 0
  }
  convolution_param {
    num_output: 176
    bias_term: true
    kernel_size: 1
    weight_filler {
      type: "xavier"
      std: 0.03
    }
    bias_filler {
      type: "constant"
      value: 0.2
    }
  }
  fixed_param {
    fixed_method: DIFF_S
    bit_width: 8
  }
}
layer {
  name: "inception_10a/1x1/relu1"
  type: "ReLU"
  bottom: "inception_10a/1x1"
  top: "inception_10a/1x1"
}
layer {
  name: "inception_10a/3x3"
  type: "ConvolutionFixed"
  bottom: "downsample_9/output"
  top: "inception_10a/3x3"
  param {
    lr_mult: 1
    decay_mult: 1
  }
  param {
    lr_mult: 1
    decay_mult: 0
  }
  convolution_param {
    num_output: 160
    bias_term: true
    pad: 1
    kernel_size: 3
    weight_filler {
      type: "xavier"
      std: 0.03
    }
    bias_filler {
      type: "constant"
      value: 0.2
    }
  }
  fixed_param {
    fixed_method: DIFF_S
    bit_width: 8
  }
}
layer {
  name: "inception_10a/3x3/relu1"
  type: "ReLU"
  bottom: "inception_10a/3x3"
  top: "inception_10a/3x3"
}
layer {
  name: "inception_10a/output"
  type: "Concat"
  bottom: "inception_10a/1x1"
  bottom: "inception_10a/3x3"
  top: "inception_10a/output"
}
layer {
  name: "inception_10a/output_fixed"
  type: "FixedNeuron"
  bottom: "inception_10a/output"
  top: "inception_10a/output"
  param {
    lr_mult: 0
    decay_mult: 0
  }
  fixed_param {
    fixed_method: DIFF_S
    bit_width: 8
  }
}
layer {
  name: "inception_11a/1x1"
  type: "ConvolutionFixed"
  bottom: "inception_10a/output"
  top: "inception_11a/1x1"
  param {
    lr_mult: 1
    decay_mult: 1
  }
  param {
    lr_mult: 1
    decay_mult: 0
  }
  convolution_param {
    num_output: 176
    bias_term: true
    kernel_size: 1
    weight_filler {
      type: "xavier"
      std: 0.03
    }
    bias_filler {
      type: "constant"
      value: 0.2
    }
  }
  fixed_param {
    fixed_method: DIFF_S
    bit_width: 8
  }
}
layer {
  name: "inception_11a/1x1/relu1"
  type: "ReLU"
  bottom: "inception_11a/1x1"
  top: "inception_11a/1x1"
}
layer {
  name: "inception_11a/3x3"
  type: "ConvolutionFixed"
  bottom: "inception_10a/output"
  top: "inception_11a/3x3"
  param {
    lr_mult: 1
    decay_mult: 1
  }
  param {
    lr_mult: 1
    decay_mult: 0
  }
  convolution_param {
    num_output: 160
    bias_term: true
    pad: 1
    kernel_size: 3
    weight_filler {
      type: "xavier"
      std: 0.03
    }
    bias_filler {
      type: "constant"
      value: 0.2
    }
  }
  fixed_param {
    fixed_method: DIFF_S
    bit_width: 8
  }
}
layer {
  name: "inception_11a/3x3/relu1"
  type: "ReLU"
  bottom: "inception_11a/3x3"
  top: "inception_11a/3x3"
}
layer {
  name: "inception_11a/output"
  type: "Concat"
  bottom: "inception_11a/1x1"
  bottom: "inception_11a/3x3"
  top: "inception_11a/output"
}
layer {
  name: "inception_11a/output_fixed"
  type: "FixedNeuron"
  bottom: "inception_11a/output"
  top: "inception_11a/output"
  param {
    lr_mult: 0
    decay_mult: 0
  }
  fixed_param {
    fixed_method: DIFF_S
    bit_width: 8
  }
}
layer {
  name: "avg_pool_12/8x8_s1"
  type: "Pooling"
  bottom: "inception_11a/output"
  top: "avg_pool_12/8x8_s1"
  pooling_param {
    pool: AVE
    kernel_size: 8
    stride: 1
  }
}
layer {
  name: "avg_pool_12/8x8_s1_fixed"
  type: "FixedNeuron"
  bottom: "avg_pool_12/8x8_s1"
  top: "avg_pool_12/8x8_s1"
  param {
    lr_mult: 0
    decay_mult: 0
  }
  fixed_param {
    fixed_method: DIFF_S
    bit_width: 8
  }
}
layer {
  name: "loss/classifier"
  type: "InnerProductFixed"
  bottom: "avg_pool_12/8x8_s1"
  top: "loss/classifier"
  param {
    lr_mult: 1
    decay_mult: 1
  }
  param {
    lr_mult: 2
    decay_mult: 0
  }
  inner_product_param {
    num_output: 10
    weight_filler {
      type: "xavier"
    }
    bias_filler {
      type: "constant"
      value: 1
    }
  }
  fixed_param {
    fixed_method: DIFF_S
    bit_width: 8
  }
}
layer {
  name: "loss/classifier_fixed"
  type: "FixedNeuron"
  bottom: "loss/classifier"
  top: "loss/classifier"
  param {
    lr_mult: 0
    decay_mult: 0
  }
  fixed_param {
    fixed_method: DIFF_S
    bit_width: 8
  }
}
layer {
  name: "loss"
  type: "SoftmaxWithLoss"
  bottom: "loss/classifier"
  bottom: "label"
  top: "loss"
}
layer {
  name: "accuracy"
  type: "Accuracy"
  bottom: "loss/classifier"
  bottom: "label"
  top: "accuracy"
  include {
    phase: TEST
  }
}
layer {
  name: "accuracy-top1"
  type: "Accuracy"
  bottom: "loss/classifier"
  bottom: "label"
  top: "top-1"
  include {
    phase: TEST
  }
}
layer {
  name: "accuracy-top5"
  type: "Accuracy"
  bottom: "loss/classifier"
  bottom: "label"
  top: "top-5"
  include {
    phase: TEST
  }
  accuracy_param {
    top_k: 5
  }
}
I0122 14:49:22.890331  3908 layer_factory.hpp:123] Creating layer data
I0122 14:49:22.890409  3908 internal_thread.cpp:73] Starting internal thread(s) on GPU 0
I0122 14:49:22.891268  3908 net.cpp:140] Creating Layer data
I0122 14:49:22.891288  3908 net.cpp:455] data -> data
I0122 14:49:22.891305  3908 net.cpp:455] data -> label
I0122 14:49:22.892848  3916 db_lmdb.cpp:81] Opened lmdb cifar10/input/lmdb/valid_lmdb
I0122 14:49:22.892891  3916 data_reader.cpp:166] TEST: reading data using 1 channel(s)
I0122 14:49:22.893005  3908 data_layer.cpp:124] ReshapePrefetch 50, 3, 32, 32
I0122 14:49:22.893146  3908 data_layer.cpp:129] output data size: 50,3,32,32
I0122 14:49:22.899868  3908 internal_thread.cpp:73] Starting internal thread(s) on GPU 0
I0122 14:49:22.899930  3908 net.cpp:190] Setting up data
I0122 14:49:22.899947  3908 net.cpp:197] Top shape: 50 3 32 32 (153600)
I0122 14:49:22.899956  3908 net.cpp:197] Top shape: 50 (50)
I0122 14:49:22.899961  3908 net.cpp:205] Memory required for data: 614600
I0122 14:49:22.899967  3908 layer_factory.hpp:123] Creating layer label_data_1_split
I0122 14:49:22.899981  3908 net.cpp:140] Creating Layer label_data_1_split
I0122 14:49:22.899994  3908 net.cpp:481] label_data_1_split <- label
I0122 14:49:22.900004  3908 net.cpp:455] label_data_1_split -> label_data_1_split_0
I0122 14:49:22.900017  3908 net.cpp:455] label_data_1_split -> label_data_1_split_1
I0122 14:49:22.900032  3908 net.cpp:455] label_data_1_split -> label_data_1_split_2
I0122 14:49:22.900043  3908 net.cpp:455] label_data_1_split -> label_data_1_split_3
I0122 14:49:22.900235  3908 net.cpp:190] Setting up label_data_1_split
I0122 14:49:22.900252  3908 net.cpp:197] Top shape: 50 (50)
I0122 14:49:22.900261  3908 net.cpp:197] Top shape: 50 (50)
I0122 14:49:22.900269  3908 net.cpp:197] Top shape: 50 (50)
I0122 14:49:22.900274  3908 net.cpp:197] Top shape: 50 (50)
I0122 14:49:22.900279  3908 net.cpp:205] Memory required for data: 615400
I0122 14:49:22.900285  3908 layer_factory.hpp:123] Creating layer data_fixed
I0122 14:49:22.900295  3908 net.cpp:140] Creating Layer data_fixed
I0122 14:49:22.900302  3908 net.cpp:481] data_fixed <- data
I0122 14:49:22.900312  3908 net.cpp:442] data_fixed -> data (in-place)
I0122 14:49:22.900369  3908 net.cpp:190] Setting up data_fixed
I0122 14:49:22.900383  3908 net.cpp:197] Top shape: 50 3 32 32 (153600)
I0122 14:49:22.900388  3908 net.cpp:205] Memory required for data: 1229800
I0122 14:49:22.900401  3908 layer_factory.hpp:123] Creating layer conv1/3x3_s1
I0122 14:49:22.900419  3908 net.cpp:140] Creating Layer conv1/3x3_s1
I0122 14:49:22.900426  3908 net.cpp:481] conv1/3x3_s1 <- data
I0122 14:49:22.900436  3908 net.cpp:455] conv1/3x3_s1 -> conv1/3x3_s1
I0122 14:49:22.901748  3908 layer_factory.hpp:123] Creating layer conv1/3x3_s1
I0122 14:49:22.903182  3908 net.cpp:190] Setting up conv1/3x3_s1
I0122 14:49:22.903204  3908 net.cpp:197] Top shape: 50 96 32 32 (4915200)
I0122 14:49:22.903211  3908 net.cpp:205] Memory required for data: 20890600
I0122 14:49:22.903225  3908 layer_factory.hpp:123] Creating layer conv1/relu1
I0122 14:49:22.903239  3908 net.cpp:140] Creating Layer conv1/relu1
I0122 14:49:22.903251  3908 net.cpp:481] conv1/relu1 <- conv1/3x3_s1
I0122 14:49:22.903261  3908 net.cpp:442] conv1/relu1 -> conv1/3x3_s1 (in-place)
I0122 14:49:22.903277  3908 net.cpp:190] Setting up conv1/relu1
I0122 14:49:22.903286  3908 net.cpp:197] Top shape: 50 96 32 32 (4915200)
I0122 14:49:22.903291  3908 net.cpp:205] Memory required for data: 40551400
I0122 14:49:22.903296  3908 layer_factory.hpp:123] Creating layer conv1/3x3_s1_fixed
I0122 14:49:22.903304  3908 net.cpp:140] Creating Layer conv1/3x3_s1_fixed
I0122 14:49:22.903311  3908 net.cpp:481] conv1/3x3_s1_fixed <- conv1/3x3_s1
I0122 14:49:22.903319  3908 net.cpp:442] conv1/3x3_s1_fixed -> conv1/3x3_s1 (in-place)
I0122 14:49:22.903412  3908 net.cpp:190] Setting up conv1/3x3_s1_fixed
I0122 14:49:22.903431  3908 net.cpp:197] Top shape: 50 96 32 32 (4915200)
I0122 14:49:22.903436  3908 net.cpp:205] Memory required for data: 60212200
I0122 14:49:22.903445  3908 layer_factory.hpp:123] Creating layer conv1/3x3_s1_conv1/3x3_s1_fixed_0_split
I0122 14:49:22.903462  3908 net.cpp:140] Creating Layer conv1/3x3_s1_conv1/3x3_s1_fixed_0_split
I0122 14:49:22.903468  3908 net.cpp:481] conv1/3x3_s1_conv1/3x3_s1_fixed_0_split <- conv1/3x3_s1
I0122 14:49:22.903478  3908 net.cpp:455] conv1/3x3_s1_conv1/3x3_s1_fixed_0_split -> conv1/3x3_s1_conv1/3x3_s1_fixed_0_split_0
I0122 14:49:22.903489  3908 net.cpp:455] conv1/3x3_s1_conv1/3x3_s1_fixed_0_split -> conv1/3x3_s1_conv1/3x3_s1_fixed_0_split_1
I0122 14:49:22.903553  3908 net.cpp:190] Setting up conv1/3x3_s1_conv1/3x3_s1_fixed_0_split
I0122 14:49:22.903573  3908 net.cpp:197] Top shape: 50 96 32 32 (4915200)
I0122 14:49:22.903582  3908 net.cpp:197] Top shape: 50 96 32 32 (4915200)
I0122 14:49:22.903587  3908 net.cpp:205] Memory required for data: 99533800
I0122 14:49:22.903594  3908 layer_factory.hpp:123] Creating layer inception_2a/1x1
I0122 14:49:22.903612  3908 net.cpp:140] Creating Layer inception_2a/1x1
I0122 14:49:22.903620  3908 net.cpp:481] inception_2a/1x1 <- conv1/3x3_s1_conv1/3x3_s1_fixed_0_split_0
I0122 14:49:22.903631  3908 net.cpp:455] inception_2a/1x1 -> inception_2a/1x1
I0122 14:49:22.903971  3908 layer_factory.hpp:123] Creating layer inception_2a/1x1
I0122 14:49:22.904567  3908 net.cpp:190] Setting up inception_2a/1x1
I0122 14:49:22.904592  3908 net.cpp:197] Top shape: 50 32 32 32 (1638400)
I0122 14:49:22.904598  3908 net.cpp:205] Memory required for data: 106087400
I0122 14:49:22.904611  3908 layer_factory.hpp:123] Creating layer inception_2a/1x1/relu1
I0122 14:49:22.904624  3908 net.cpp:140] Creating Layer inception_2a/1x1/relu1
I0122 14:49:22.904633  3908 net.cpp:481] inception_2a/1x1/relu1 <- inception_2a/1x1
I0122 14:49:22.904641  3908 net.cpp:442] inception_2a/1x1/relu1 -> inception_2a/1x1 (in-place)
I0122 14:49:22.904654  3908 net.cpp:190] Setting up inception_2a/1x1/relu1
I0122 14:49:22.904660  3908 net.cpp:197] Top shape: 50 32 32 32 (1638400)
I0122 14:49:22.904666  3908 net.cpp:205] Memory required for data: 112641000
I0122 14:49:22.904670  3908 layer_factory.hpp:123] Creating layer inception_2a/3x3
I0122 14:49:22.904685  3908 net.cpp:140] Creating Layer inception_2a/3x3
I0122 14:49:22.904701  3908 net.cpp:481] inception_2a/3x3 <- conv1/3x3_s1_conv1/3x3_s1_fixed_0_split_1
I0122 14:49:22.904714  3908 net.cpp:455] inception_2a/3x3 -> inception_2a/3x3
I0122 14:49:22.906117  3908 layer_factory.hpp:123] Creating layer inception_2a/3x3
I0122 14:49:22.907037  3908 net.cpp:190] Setting up inception_2a/3x3
I0122 14:49:22.907061  3908 net.cpp:197] Top shape: 50 32 32 32 (1638400)
I0122 14:49:22.907068  3908 net.cpp:205] Memory required for data: 119194600
I0122 14:49:22.907078  3908 layer_factory.hpp:123] Creating layer inception_2a/3x3/relu1
I0122 14:49:22.907097  3908 net.cpp:140] Creating Layer inception_2a/3x3/relu1
I0122 14:49:22.907104  3908 net.cpp:481] inception_2a/3x3/relu1 <- inception_2a/3x3
I0122 14:49:22.907114  3908 net.cpp:442] inception_2a/3x3/relu1 -> inception_2a/3x3 (in-place)
I0122 14:49:22.907131  3908 net.cpp:190] Setting up inception_2a/3x3/relu1
I0122 14:49:22.907140  3908 net.cpp:197] Top shape: 50 32 32 32 (1638400)
I0122 14:49:22.907145  3908 net.cpp:205] Memory required for data: 125748200
I0122 14:49:22.907150  3908 layer_factory.hpp:123] Creating layer inception_2a/output
I0122 14:49:22.907160  3908 net.cpp:140] Creating Layer inception_2a/output
I0122 14:49:22.907164  3908 net.cpp:481] inception_2a/output <- inception_2a/1x1
I0122 14:49:22.907171  3908 net.cpp:481] inception_2a/output <- inception_2a/3x3
I0122 14:49:22.907181  3908 net.cpp:455] inception_2a/output -> inception_2a/output
I0122 14:49:22.907230  3908 net.cpp:190] Setting up inception_2a/output
I0122 14:49:22.907243  3908 net.cpp:197] Top shape: 50 64 32 32 (3276800)
I0122 14:49:22.907248  3908 net.cpp:205] Memory required for data: 138855400
I0122 14:49:22.907254  3908 layer_factory.hpp:123] Creating layer inception_2a/output_fixed
I0122 14:49:22.907264  3908 net.cpp:140] Creating Layer inception_2a/output_fixed
I0122 14:49:22.907269  3908 net.cpp:481] inception_2a/output_fixed <- inception_2a/output
I0122 14:49:22.907277  3908 net.cpp:442] inception_2a/output_fixed -> inception_2a/output (in-place)
I0122 14:49:22.907333  3908 net.cpp:190] Setting up inception_2a/output_fixed
I0122 14:49:22.907351  3908 net.cpp:197] Top shape: 50 64 32 32 (3276800)
I0122 14:49:22.907356  3908 net.cpp:205] Memory required for data: 151962600
I0122 14:49:22.907366  3908 layer_factory.hpp:123] Creating layer inception_2a/output_inception_2a/output_fixed_0_split
I0122 14:49:22.907382  3908 net.cpp:140] Creating Layer inception_2a/output_inception_2a/output_fixed_0_split
I0122 14:49:22.907387  3908 net.cpp:481] inception_2a/output_inception_2a/output_fixed_0_split <- inception_2a/output
I0122 14:49:22.907397  3908 net.cpp:455] inception_2a/output_inception_2a/output_fixed_0_split -> inception_2a/output_inception_2a/output_fixed_0_split_0
I0122 14:49:22.907407  3908 net.cpp:455] inception_2a/output_inception_2a/output_fixed_0_split -> inception_2a/output_inception_2a/output_fixed_0_split_1
I0122 14:49:22.907461  3908 net.cpp:190] Setting up inception_2a/output_inception_2a/output_fixed_0_split
I0122 14:49:22.907472  3908 net.cpp:197] Top shape: 50 64 32 32 (3276800)
I0122 14:49:22.907480  3908 net.cpp:197] Top shape: 50 64 32 32 (3276800)
I0122 14:49:22.907483  3908 net.cpp:205] Memory required for data: 178177000
I0122 14:49:22.907490  3908 layer_factory.hpp:123] Creating layer inception_3a/1x1
I0122 14:49:22.907503  3908 net.cpp:140] Creating Layer inception_3a/1x1
I0122 14:49:22.907507  3908 net.cpp:481] inception_3a/1x1 <- inception_2a/output_inception_2a/output_fixed_0_split_0
I0122 14:49:22.907515  3908 net.cpp:455] inception_3a/1x1 -> inception_3a/1x1
I0122 14:49:22.907795  3908 layer_factory.hpp:123] Creating layer inception_3a/1x1
I0122 14:49:22.908396  3908 net.cpp:190] Setting up inception_3a/1x1
I0122 14:49:22.908417  3908 net.cpp:197] Top shape: 50 32 32 32 (1638400)
I0122 14:49:22.908423  3908 net.cpp:205] Memory required for data: 184730600
I0122 14:49:22.908435  3908 layer_factory.hpp:123] Creating layer inception_3a/1x1/relu1
I0122 14:49:22.908452  3908 net.cpp:140] Creating Layer inception_3a/1x1/relu1
I0122 14:49:22.908458  3908 net.cpp:481] inception_3a/1x1/relu1 <- inception_3a/1x1
I0122 14:49:22.908468  3908 net.cpp:442] inception_3a/1x1/relu1 -> inception_3a/1x1 (in-place)
I0122 14:49:22.908478  3908 net.cpp:190] Setting up inception_3a/1x1/relu1
I0122 14:49:22.908488  3908 net.cpp:197] Top shape: 50 32 32 32 (1638400)
I0122 14:49:22.908493  3908 net.cpp:205] Memory required for data: 191284200
I0122 14:49:22.908499  3908 layer_factory.hpp:123] Creating layer inception_3a/3x3
I0122 14:49:22.908516  3908 net.cpp:140] Creating Layer inception_3a/3x3
I0122 14:49:22.908529  3908 net.cpp:481] inception_3a/3x3 <- inception_2a/output_inception_2a/output_fixed_0_split_1
I0122 14:49:22.908540  3908 net.cpp:455] inception_3a/3x3 -> inception_3a/3x3
I0122 14:49:22.909204  3908 layer_factory.hpp:123] Creating layer inception_3a/3x3
I0122 14:49:22.910043  3908 net.cpp:190] Setting up inception_3a/3x3
I0122 14:49:22.910060  3908 net.cpp:197] Top shape: 50 48 32 32 (2457600)
I0122 14:49:22.910066  3908 net.cpp:205] Memory required for data: 201114600
I0122 14:49:22.910076  3908 layer_factory.hpp:123] Creating layer inception_3a/3x3/relu1
I0122 14:49:22.910086  3908 net.cpp:140] Creating Layer inception_3a/3x3/relu1
I0122 14:49:22.910094  3908 net.cpp:481] inception_3a/3x3/relu1 <- inception_3a/3x3
I0122 14:49:22.910104  3908 net.cpp:442] inception_3a/3x3/relu1 -> inception_3a/3x3 (in-place)
I0122 14:49:22.910113  3908 net.cpp:190] Setting up inception_3a/3x3/relu1
I0122 14:49:22.910121  3908 net.cpp:197] Top shape: 50 48 32 32 (2457600)
I0122 14:49:22.910126  3908 net.cpp:205] Memory required for data: 210945000
I0122 14:49:22.910131  3908 layer_factory.hpp:123] Creating layer inception_3a/output
I0122 14:49:22.910138  3908 net.cpp:140] Creating Layer inception_3a/output
I0122 14:49:22.910145  3908 net.cpp:481] inception_3a/output <- inception_3a/1x1
I0122 14:49:22.910149  3908 net.cpp:481] inception_3a/output <- inception_3a/3x3
I0122 14:49:22.910157  3908 net.cpp:455] inception_3a/output -> inception_3a/output
I0122 14:49:22.910197  3908 net.cpp:190] Setting up inception_3a/output
I0122 14:49:22.910210  3908 net.cpp:197] Top shape: 50 80 32 32 (4096000)
I0122 14:49:22.910215  3908 net.cpp:205] Memory required for data: 227329000
I0122 14:49:22.910220  3908 layer_factory.hpp:123] Creating layer inception_3a/output_fixed
I0122 14:49:22.910229  3908 net.cpp:140] Creating Layer inception_3a/output_fixed
I0122 14:49:22.910234  3908 net.cpp:481] inception_3a/output_fixed <- inception_3a/output
I0122 14:49:22.910243  3908 net.cpp:442] inception_3a/output_fixed -> inception_3a/output (in-place)
I0122 14:49:22.910298  3908 net.cpp:190] Setting up inception_3a/output_fixed
I0122 14:49:22.910311  3908 net.cpp:197] Top shape: 50 80 32 32 (4096000)
I0122 14:49:22.910317  3908 net.cpp:205] Memory required for data: 243713000
I0122 14:49:22.910322  3908 layer_factory.hpp:123] Creating layer inception_3a/output_inception_3a/output_fixed_0_split
I0122 14:49:22.910331  3908 net.cpp:140] Creating Layer inception_3a/output_inception_3a/output_fixed_0_split
I0122 14:49:22.910334  3908 net.cpp:481] inception_3a/output_inception_3a/output_fixed_0_split <- inception_3a/output
I0122 14:49:22.910342  3908 net.cpp:455] inception_3a/output_inception_3a/output_fixed_0_split -> inception_3a/output_inception_3a/output_fixed_0_split_0
I0122 14:49:22.910352  3908 net.cpp:455] inception_3a/output_inception_3a/output_fixed_0_split -> inception_3a/output_inception_3a/output_fixed_0_split_1
I0122 14:49:22.910394  3908 net.cpp:190] Setting up inception_3a/output_inception_3a/output_fixed_0_split
I0122 14:49:22.910409  3908 net.cpp:197] Top shape: 50 80 32 32 (4096000)
I0122 14:49:22.910414  3908 net.cpp:197] Top shape: 50 80 32 32 (4096000)
I0122 14:49:22.910418  3908 net.cpp:205] Memory required for data: 276481000
I0122 14:49:22.910420  3908 layer_factory.hpp:123] Creating layer downsample_4/3x3_s2
I0122 14:49:22.910431  3908 net.cpp:140] Creating Layer downsample_4/3x3_s2
I0122 14:49:22.910435  3908 net.cpp:481] downsample_4/3x3_s2 <- inception_3a/output_inception_3a/output_fixed_0_split_0
I0122 14:49:22.910442  3908 net.cpp:455] downsample_4/3x3_s2 -> downsample_4/3x3_s2
I0122 14:49:22.912184  3908 layer_factory.hpp:123] Creating layer downsample_4/3x3_s2
I0122 14:49:22.913492  3908 net.cpp:190] Setting up downsample_4/3x3_s2
I0122 14:49:22.913518  3908 net.cpp:197] Top shape: 50 80 16 16 (1024000)
I0122 14:49:22.913525  3908 net.cpp:205] Memory required for data: 280577000
I0122 14:49:22.913535  3908 layer_factory.hpp:123] Creating layer downsample_4/3x3_s2/relu1
I0122 14:49:22.913553  3908 net.cpp:140] Creating Layer downsample_4/3x3_s2/relu1
I0122 14:49:22.913560  3908 net.cpp:481] downsample_4/3x3_s2/relu1 <- downsample_4/3x3_s2
I0122 14:49:22.913569  3908 net.cpp:442] downsample_4/3x3_s2/relu1 -> downsample_4/3x3_s2 (in-place)
I0122 14:49:22.913584  3908 net.cpp:190] Setting up downsample_4/3x3_s2/relu1
I0122 14:49:22.913592  3908 net.cpp:197] Top shape: 50 80 16 16 (1024000)
I0122 14:49:22.913606  3908 net.cpp:205] Memory required for data: 284673000
I0122 14:49:22.913612  3908 layer_factory.hpp:123] Creating layer downsample_4/pool_s2
I0122 14:49:22.913624  3908 net.cpp:140] Creating Layer downsample_4/pool_s2
I0122 14:49:22.913636  3908 net.cpp:481] downsample_4/pool_s2 <- inception_3a/output_inception_3a/output_fixed_0_split_1
I0122 14:49:22.913646  3908 net.cpp:455] downsample_4/pool_s2 -> downsample_4/pool_s2
I0122 14:49:22.913746  3908 net.cpp:190] Setting up downsample_4/pool_s2
I0122 14:49:22.913780  3908 net.cpp:197] Top shape: 50 80 16 16 (1024000)
I0122 14:49:22.913787  3908 net.cpp:205] Memory required for data: 288769000
I0122 14:49:22.913794  3908 layer_factory.hpp:123] Creating layer downsample_4/output
I0122 14:49:22.913811  3908 net.cpp:140] Creating Layer downsample_4/output
I0122 14:49:22.913817  3908 net.cpp:481] downsample_4/output <- downsample_4/3x3_s2
I0122 14:49:22.913831  3908 net.cpp:481] downsample_4/output <- downsample_4/pool_s2
I0122 14:49:22.913842  3908 net.cpp:455] downsample_4/output -> downsample_4/output
I0122 14:49:22.913887  3908 net.cpp:190] Setting up downsample_4/output
I0122 14:49:22.913898  3908 net.cpp:197] Top shape: 50 160 16 16 (2048000)
I0122 14:49:22.913904  3908 net.cpp:205] Memory required for data: 296961000
I0122 14:49:22.913910  3908 layer_factory.hpp:123] Creating layer downsample_4/output_fixed
I0122 14:49:22.913921  3908 net.cpp:140] Creating Layer downsample_4/output_fixed
I0122 14:49:22.913926  3908 net.cpp:481] downsample_4/output_fixed <- downsample_4/output
I0122 14:49:22.913934  3908 net.cpp:442] downsample_4/output_fixed -> downsample_4/output (in-place)
I0122 14:49:22.913992  3908 net.cpp:190] Setting up downsample_4/output_fixed
I0122 14:49:22.914011  3908 net.cpp:197] Top shape: 50 160 16 16 (2048000)
I0122 14:49:22.914016  3908 net.cpp:205] Memory required for data: 305153000
I0122 14:49:22.914028  3908 layer_factory.hpp:123] Creating layer downsample_4/output_downsample_4/output_fixed_0_split
I0122 14:49:22.914042  3908 net.cpp:140] Creating Layer downsample_4/output_downsample_4/output_fixed_0_split
I0122 14:49:22.914048  3908 net.cpp:481] downsample_4/output_downsample_4/output_fixed_0_split <- downsample_4/output
I0122 14:49:22.914058  3908 net.cpp:455] downsample_4/output_downsample_4/output_fixed_0_split -> downsample_4/output_downsample_4/output_fixed_0_split_0
I0122 14:49:22.914068  3908 net.cpp:455] downsample_4/output_downsample_4/output_fixed_0_split -> downsample_4/output_downsample_4/output_fixed_0_split_1
I0122 14:49:22.914134  3908 net.cpp:190] Setting up downsample_4/output_downsample_4/output_fixed_0_split
I0122 14:49:22.914151  3908 net.cpp:197] Top shape: 50 160 16 16 (2048000)
I0122 14:49:22.914158  3908 net.cpp:197] Top shape: 50 160 16 16 (2048000)
I0122 14:49:22.914162  3908 net.cpp:205] Memory required for data: 321537000
I0122 14:49:22.914168  3908 layer_factory.hpp:123] Creating layer inception_5a/1x1
I0122 14:49:22.914183  3908 net.cpp:140] Creating Layer inception_5a/1x1
I0122 14:49:22.914189  3908 net.cpp:481] inception_5a/1x1 <- downsample_4/output_downsample_4/output_fixed_0_split_0
I0122 14:49:22.914199  3908 net.cpp:455] inception_5a/1x1 -> inception_5a/1x1
I0122 14:49:22.914711  3908 layer_factory.hpp:123] Creating layer inception_5a/1x1
I0122 14:49:22.915928  3908 net.cpp:190] Setting up inception_5a/1x1
I0122 14:49:22.915951  3908 net.cpp:197] Top shape: 50 112 16 16 (1433600)
I0122 14:49:22.915954  3908 net.cpp:205] Memory required for data: 327271400
I0122 14:49:22.915962  3908 layer_factory.hpp:123] Creating layer inception_5a/1x1/relu1
I0122 14:49:22.915969  3908 net.cpp:140] Creating Layer inception_5a/1x1/relu1
I0122 14:49:22.915982  3908 net.cpp:481] inception_5a/1x1/relu1 <- inception_5a/1x1
I0122 14:49:22.915988  3908 net.cpp:442] inception_5a/1x1/relu1 -> inception_5a/1x1 (in-place)
I0122 14:49:22.915997  3908 net.cpp:190] Setting up inception_5a/1x1/relu1
I0122 14:49:22.916002  3908 net.cpp:197] Top shape: 50 112 16 16 (1433600)
I0122 14:49:22.916007  3908 net.cpp:205] Memory required for data: 333005800
I0122 14:49:22.916009  3908 layer_factory.hpp:123] Creating layer inception_5a/3x3
I0122 14:49:22.916020  3908 net.cpp:140] Creating Layer inception_5a/3x3
I0122 14:49:22.916024  3908 net.cpp:481] inception_5a/3x3 <- downsample_4/output_downsample_4/output_fixed_0_split_1
I0122 14:49:22.916033  3908 net.cpp:455] inception_5a/3x3 -> inception_5a/3x3
I0122 14:49:22.916672  3908 layer_factory.hpp:123] Creating layer inception_5a/3x3
I0122 14:49:22.917476  3908 net.cpp:190] Setting up inception_5a/3x3
I0122 14:49:22.917493  3908 net.cpp:197] Top shape: 50 48 16 16 (614400)
I0122 14:49:22.917497  3908 net.cpp:205] Memory required for data: 335463400
I0122 14:49:22.917503  3908 layer_factory.hpp:123] Creating layer inception_5a/3x3/relu1
I0122 14:49:22.917510  3908 net.cpp:140] Creating Layer inception_5a/3x3/relu1
I0122 14:49:22.917515  3908 net.cpp:481] inception_5a/3x3/relu1 <- inception_5a/3x3
I0122 14:49:22.917521  3908 net.cpp:442] inception_5a/3x3/relu1 -> inception_5a/3x3 (in-place)
I0122 14:49:22.917538  3908 net.cpp:190] Setting up inception_5a/3x3/relu1
I0122 14:49:22.917548  3908 net.cpp:197] Top shape: 50 48 16 16 (614400)
I0122 14:49:22.917553  3908 net.cpp:205] Memory required for data: 337921000
I0122 14:49:22.917563  3908 layer_factory.hpp:123] Creating layer inception_5a/output
I0122 14:49:22.917573  3908 net.cpp:140] Creating Layer inception_5a/output
I0122 14:49:22.917579  3908 net.cpp:481] inception_5a/output <- inception_5a/1x1
I0122 14:49:22.917587  3908 net.cpp:481] inception_5a/output <- inception_5a/3x3
I0122 14:49:22.917593  3908 net.cpp:455] inception_5a/output -> inception_5a/output
I0122 14:49:22.917618  3908 net.cpp:190] Setting up inception_5a/output
I0122 14:49:22.917631  3908 net.cpp:197] Top shape: 50 160 16 16 (2048000)
I0122 14:49:22.917637  3908 net.cpp:205] Memory required for data: 346113000
I0122 14:49:22.917642  3908 layer_factory.hpp:123] Creating layer inception_5a/output_fixed
I0122 14:49:22.917663  3908 net.cpp:140] Creating Layer inception_5a/output_fixed
I0122 14:49:22.917670  3908 net.cpp:481] inception_5a/output_fixed <- inception_5a/output
I0122 14:49:22.917675  3908 net.cpp:442] inception_5a/output_fixed -> inception_5a/output (in-place)
I0122 14:49:22.917738  3908 net.cpp:190] Setting up inception_5a/output_fixed
I0122 14:49:22.917757  3908 net.cpp:197] Top shape: 50 160 16 16 (2048000)
I0122 14:49:22.917762  3908 net.cpp:205] Memory required for data: 354305000
I0122 14:49:22.917793  3908 layer_factory.hpp:123] Creating layer inception_5a/output_inception_5a/output_fixed_0_split
I0122 14:49:22.917811  3908 net.cpp:140] Creating Layer inception_5a/output_inception_5a/output_fixed_0_split
I0122 14:49:22.917819  3908 net.cpp:481] inception_5a/output_inception_5a/output_fixed_0_split <- inception_5a/output
I0122 14:49:22.917829  3908 net.cpp:455] inception_5a/output_inception_5a/output_fixed_0_split -> inception_5a/output_inception_5a/output_fixed_0_split_0
I0122 14:49:22.917840  3908 net.cpp:455] inception_5a/output_inception_5a/output_fixed_0_split -> inception_5a/output_inception_5a/output_fixed_0_split_1
I0122 14:49:22.917904  3908 net.cpp:190] Setting up inception_5a/output_inception_5a/output_fixed_0_split
I0122 14:49:22.917922  3908 net.cpp:197] Top shape: 50 160 16 16 (2048000)
I0122 14:49:22.917927  3908 net.cpp:197] Top shape: 50 160 16 16 (2048000)
I0122 14:49:22.917930  3908 net.cpp:205] Memory required for data: 370689000
I0122 14:49:22.917933  3908 layer_factory.hpp:123] Creating layer inception_6a/1x1
I0122 14:49:22.917943  3908 net.cpp:140] Creating Layer inception_6a/1x1
I0122 14:49:22.917948  3908 net.cpp:481] inception_6a/1x1 <- inception_5a/output_inception_5a/output_fixed_0_split_0
I0122 14:49:22.917960  3908 net.cpp:455] inception_6a/1x1 -> inception_6a/1x1
I0122 14:49:22.918974  3908 layer_factory.hpp:123] Creating layer inception_6a/1x1
I0122 14:49:22.919450  3908 net.cpp:190] Setting up inception_6a/1x1
I0122 14:49:22.919467  3908 net.cpp:197] Top shape: 50 96 16 16 (1228800)
I0122 14:49:22.919471  3908 net.cpp:205] Memory required for data: 375604200
I0122 14:49:22.919478  3908 layer_factory.hpp:123] Creating layer inception_6a/1x1/relu1
I0122 14:49:22.919486  3908 net.cpp:140] Creating Layer inception_6a/1x1/relu1
I0122 14:49:22.919489  3908 net.cpp:481] inception_6a/1x1/relu1 <- inception_6a/1x1
I0122 14:49:22.919495  3908 net.cpp:442] inception_6a/1x1/relu1 -> inception_6a/1x1 (in-place)
I0122 14:49:22.919507  3908 net.cpp:190] Setting up inception_6a/1x1/relu1
I0122 14:49:22.919517  3908 net.cpp:197] Top shape: 50 96 16 16 (1228800)
I0122 14:49:22.919523  3908 net.cpp:205] Memory required for data: 380519400
I0122 14:49:22.919528  3908 layer_factory.hpp:123] Creating layer inception_6a/3x3
I0122 14:49:22.919543  3908 net.cpp:140] Creating Layer inception_6a/3x3
I0122 14:49:22.919548  3908 net.cpp:481] inception_6a/3x3 <- inception_5a/output_inception_5a/output_fixed_0_split_1
I0122 14:49:22.919560  3908 net.cpp:455] inception_6a/3x3 -> inception_6a/3x3
I0122 14:49:22.920354  3908 layer_factory.hpp:123] Creating layer inception_6a/3x3
I0122 14:49:22.921303  3908 net.cpp:190] Setting up inception_6a/3x3
I0122 14:49:22.921319  3908 net.cpp:197] Top shape: 50 64 16 16 (819200)
I0122 14:49:22.921322  3908 net.cpp:205] Memory required for data: 383796200
I0122 14:49:22.921329  3908 layer_factory.hpp:123] Creating layer inception_6a/3x3/relu1
I0122 14:49:22.921336  3908 net.cpp:140] Creating Layer inception_6a/3x3/relu1
I0122 14:49:22.921340  3908 net.cpp:481] inception_6a/3x3/relu1 <- inception_6a/3x3
I0122 14:49:22.921347  3908 net.cpp:442] inception_6a/3x3/relu1 -> inception_6a/3x3 (in-place)
I0122 14:49:22.921357  3908 net.cpp:190] Setting up inception_6a/3x3/relu1
I0122 14:49:22.921367  3908 net.cpp:197] Top shape: 50 64 16 16 (819200)
I0122 14:49:22.921375  3908 net.cpp:205] Memory required for data: 387073000
I0122 14:49:22.921380  3908 layer_factory.hpp:123] Creating layer inception_6a/output
I0122 14:49:22.921391  3908 net.cpp:140] Creating Layer inception_6a/output
I0122 14:49:22.921396  3908 net.cpp:481] inception_6a/output <- inception_6a/1x1
I0122 14:49:22.921401  3908 net.cpp:481] inception_6a/output <- inception_6a/3x3
I0122 14:49:22.921406  3908 net.cpp:455] inception_6a/output -> inception_6a/output
I0122 14:49:22.921432  3908 net.cpp:190] Setting up inception_6a/output
I0122 14:49:22.921449  3908 net.cpp:197] Top shape: 50 160 16 16 (2048000)
I0122 14:49:22.921455  3908 net.cpp:205] Memory required for data: 395265000
I0122 14:49:22.921461  3908 layer_factory.hpp:123] Creating layer inception_6a/output_fixed
I0122 14:49:22.921473  3908 net.cpp:140] Creating Layer inception_6a/output_fixed
I0122 14:49:22.921480  3908 net.cpp:481] inception_6a/output_fixed <- inception_6a/output
I0122 14:49:22.921490  3908 net.cpp:442] inception_6a/output_fixed -> inception_6a/output (in-place)
I0122 14:49:22.921545  3908 net.cpp:190] Setting up inception_6a/output_fixed
I0122 14:49:22.921562  3908 net.cpp:197] Top shape: 50 160 16 16 (2048000)
I0122 14:49:22.921566  3908 net.cpp:205] Memory required for data: 403457000
I0122 14:49:22.921571  3908 layer_factory.hpp:123] Creating layer inception_6a/output_inception_6a/output_fixed_0_split
I0122 14:49:22.921581  3908 net.cpp:140] Creating Layer inception_6a/output_inception_6a/output_fixed_0_split
I0122 14:49:22.921584  3908 net.cpp:481] inception_6a/output_inception_6a/output_fixed_0_split <- inception_6a/output
I0122 14:49:22.921591  3908 net.cpp:455] inception_6a/output_inception_6a/output_fixed_0_split -> inception_6a/output_inception_6a/output_fixed_0_split_0
I0122 14:49:22.921607  3908 net.cpp:455] inception_6a/output_inception_6a/output_fixed_0_split -> inception_6a/output_inception_6a/output_fixed_0_split_1
I0122 14:49:22.921667  3908 net.cpp:190] Setting up inception_6a/output_inception_6a/output_fixed_0_split
I0122 14:49:22.921681  3908 net.cpp:197] Top shape: 50 160 16 16 (2048000)
I0122 14:49:22.921685  3908 net.cpp:197] Top shape: 50 160 16 16 (2048000)
I0122 14:49:22.921689  3908 net.cpp:205] Memory required for data: 419841000
I0122 14:49:22.921692  3908 layer_factory.hpp:123] Creating layer inception_7a/1x1
I0122 14:49:22.921703  3908 net.cpp:140] Creating Layer inception_7a/1x1
I0122 14:49:22.921708  3908 net.cpp:481] inception_7a/1x1 <- inception_6a/output_inception_6a/output_fixed_0_split_0
I0122 14:49:22.921717  3908 net.cpp:455] inception_7a/1x1 -> inception_7a/1x1
I0122 14:49:22.922021  3908 layer_factory.hpp:123] Creating layer inception_7a/1x1
I0122 14:49:22.922466  3908 net.cpp:190] Setting up inception_7a/1x1
I0122 14:49:22.922482  3908 net.cpp:197] Top shape: 50 80 16 16 (1024000)
I0122 14:49:22.922485  3908 net.cpp:205] Memory required for data: 423937000
I0122 14:49:22.922492  3908 layer_factory.hpp:123] Creating layer inception_7a/1x1/relu1
I0122 14:49:22.922499  3908 net.cpp:140] Creating Layer inception_7a/1x1/relu1
I0122 14:49:22.922508  3908 net.cpp:481] inception_7a/1x1/relu1 <- inception_7a/1x1
I0122 14:49:22.922515  3908 net.cpp:442] inception_7a/1x1/relu1 -> inception_7a/1x1 (in-place)
I0122 14:49:22.922535  3908 net.cpp:190] Setting up inception_7a/1x1/relu1
I0122 14:49:22.922545  3908 net.cpp:197] Top shape: 50 80 16 16 (1024000)
I0122 14:49:22.922550  3908 net.cpp:205] Memory required for data: 428033000
I0122 14:49:22.922554  3908 layer_factory.hpp:123] Creating layer inception_7a/3x3
I0122 14:49:22.922564  3908 net.cpp:140] Creating Layer inception_7a/3x3
I0122 14:49:22.922569  3908 net.cpp:481] inception_7a/3x3 <- inception_6a/output_inception_6a/output_fixed_0_split_1
I0122 14:49:22.922576  3908 net.cpp:455] inception_7a/3x3 -> inception_7a/3x3
I0122 14:49:22.924188  3908 layer_factory.hpp:123] Creating layer inception_7a/3x3
I0122 14:49:22.926000  3908 net.cpp:190] Setting up inception_7a/3x3
I0122 14:49:22.926021  3908 net.cpp:197] Top shape: 50 80 16 16 (1024000)
I0122 14:49:22.926025  3908 net.cpp:205] Memory required for data: 432129000
I0122 14:49:22.926033  3908 layer_factory.hpp:123] Creating layer inception_7a/3x3/relu1
I0122 14:49:22.926040  3908 net.cpp:140] Creating Layer inception_7a/3x3/relu1
I0122 14:49:22.926053  3908 net.cpp:481] inception_7a/3x3/relu1 <- inception_7a/3x3
I0122 14:49:22.926064  3908 net.cpp:442] inception_7a/3x3/relu1 -> inception_7a/3x3 (in-place)
I0122 14:49:22.926084  3908 net.cpp:190] Setting up inception_7a/3x3/relu1
I0122 14:49:22.926093  3908 net.cpp:197] Top shape: 50 80 16 16 (1024000)
I0122 14:49:22.926106  3908 net.cpp:205] Memory required for data: 436225000
I0122 14:49:22.926111  3908 layer_factory.hpp:123] Creating layer inception_7a/output
I0122 14:49:22.926122  3908 net.cpp:140] Creating Layer inception_7a/output
I0122 14:49:22.926137  3908 net.cpp:481] inception_7a/output <- inception_7a/1x1
I0122 14:49:22.926146  3908 net.cpp:481] inception_7a/output <- inception_7a/3x3
I0122 14:49:22.926163  3908 net.cpp:455] inception_7a/output -> inception_7a/output
I0122 14:49:22.926203  3908 net.cpp:190] Setting up inception_7a/output
I0122 14:49:22.926223  3908 net.cpp:197] Top shape: 50 160 16 16 (2048000)
I0122 14:49:22.926229  3908 net.cpp:205] Memory required for data: 444417000
I0122 14:49:22.926234  3908 layer_factory.hpp:123] Creating layer inception_7a/output_fixed
I0122 14:49:22.926242  3908 net.cpp:140] Creating Layer inception_7a/output_fixed
I0122 14:49:22.926256  3908 net.cpp:481] inception_7a/output_fixed <- inception_7a/output
I0122 14:49:22.926267  3908 net.cpp:442] inception_7a/output_fixed -> inception_7a/output (in-place)
I0122 14:49:22.926342  3908 net.cpp:190] Setting up inception_7a/output_fixed
I0122 14:49:22.926355  3908 net.cpp:197] Top shape: 50 160 16 16 (2048000)
I0122 14:49:22.926359  3908 net.cpp:205] Memory required for data: 452609000
I0122 14:49:22.926364  3908 layer_factory.hpp:123] Creating layer inception_7a/output_inception_7a/output_fixed_0_split
I0122 14:49:22.926373  3908 net.cpp:140] Creating Layer inception_7a/output_inception_7a/output_fixed_0_split
I0122 14:49:22.926383  3908 net.cpp:481] inception_7a/output_inception_7a/output_fixed_0_split <- inception_7a/output
I0122 14:49:22.926394  3908 net.cpp:455] inception_7a/output_inception_7a/output_fixed_0_split -> inception_7a/output_inception_7a/output_fixed_0_split_0
I0122 14:49:22.926412  3908 net.cpp:455] inception_7a/output_inception_7a/output_fixed_0_split -> inception_7a/output_inception_7a/output_fixed_0_split_1
I0122 14:49:22.926476  3908 net.cpp:190] Setting up inception_7a/output_inception_7a/output_fixed_0_split
I0122 14:49:22.926491  3908 net.cpp:197] Top shape: 50 160 16 16 (2048000)
I0122 14:49:22.926496  3908 net.cpp:197] Top shape: 50 160 16 16 (2048000)
I0122 14:49:22.926499  3908 net.cpp:205] Memory required for data: 468993000
I0122 14:49:22.926502  3908 layer_factory.hpp:123] Creating layer inception_8a/1x1
I0122 14:49:22.926514  3908 net.cpp:140] Creating Layer inception_8a/1x1
I0122 14:49:22.926527  3908 net.cpp:481] inception_8a/1x1 <- inception_7a/output_inception_7a/output_fixed_0_split_0
I0122 14:49:22.926540  3908 net.cpp:455] inception_8a/1x1 -> inception_8a/1x1
I0122 14:49:22.926817  3908 layer_factory.hpp:123] Creating layer inception_8a/1x1
I0122 14:49:22.927244  3908 net.cpp:190] Setting up inception_8a/1x1
I0122 14:49:22.927261  3908 net.cpp:197] Top shape: 50 48 16 16 (614400)
I0122 14:49:22.927265  3908 net.cpp:205] Memory required for data: 471450600
I0122 14:49:22.927278  3908 layer_factory.hpp:123] Creating layer inception_8a/1x1/relu1
I0122 14:49:22.927292  3908 net.cpp:140] Creating Layer inception_8a/1x1/relu1
I0122 14:49:22.927299  3908 net.cpp:481] inception_8a/1x1/relu1 <- inception_8a/1x1
I0122 14:49:22.927316  3908 net.cpp:442] inception_8a/1x1/relu1 -> inception_8a/1x1 (in-place)
I0122 14:49:22.927330  3908 net.cpp:190] Setting up inception_8a/1x1/relu1
I0122 14:49:22.927342  3908 net.cpp:197] Top shape: 50 48 16 16 (614400)
I0122 14:49:22.927350  3908 net.cpp:205] Memory required for data: 473908200
I0122 14:49:22.927356  3908 layer_factory.hpp:123] Creating layer inception_8a/3x3
I0122 14:49:22.927376  3908 net.cpp:140] Creating Layer inception_8a/3x3
I0122 14:49:22.927381  3908 net.cpp:481] inception_8a/3x3 <- inception_7a/output_inception_7a/output_fixed_0_split_1
I0122 14:49:22.927389  3908 net.cpp:455] inception_8a/3x3 -> inception_8a/3x3
I0122 14:49:22.929850  3908 layer_factory.hpp:123] Creating layer inception_8a/3x3
I0122 14:49:22.932425  3908 net.cpp:190] Setting up inception_8a/3x3
I0122 14:49:22.932448  3908 net.cpp:197] Top shape: 50 96 16 16 (1228800)
I0122 14:49:22.932452  3908 net.cpp:205] Memory required for data: 478823400
I0122 14:49:22.932459  3908 layer_factory.hpp:123] Creating layer inception_8a/3x3/relu1
I0122 14:49:22.932466  3908 net.cpp:140] Creating Layer inception_8a/3x3/relu1
I0122 14:49:22.932476  3908 net.cpp:481] inception_8a/3x3/relu1 <- inception_8a/3x3
I0122 14:49:22.932487  3908 net.cpp:442] inception_8a/3x3/relu1 -> inception_8a/3x3 (in-place)
I0122 14:49:22.932508  3908 net.cpp:190] Setting up inception_8a/3x3/relu1
I0122 14:49:22.932518  3908 net.cpp:197] Top shape: 50 96 16 16 (1228800)
I0122 14:49:22.932523  3908 net.cpp:205] Memory required for data: 483738600
I0122 14:49:22.932528  3908 layer_factory.hpp:123] Creating layer inception_8a/output
I0122 14:49:22.932548  3908 net.cpp:140] Creating Layer inception_8a/output
I0122 14:49:22.932554  3908 net.cpp:481] inception_8a/output <- inception_8a/1x1
I0122 14:49:22.932561  3908 net.cpp:481] inception_8a/output <- inception_8a/3x3
I0122 14:49:22.932581  3908 net.cpp:455] inception_8a/output -> inception_8a/output
I0122 14:49:22.932622  3908 net.cpp:190] Setting up inception_8a/output
I0122 14:49:22.932642  3908 net.cpp:197] Top shape: 50 144 16 16 (1843200)
I0122 14:49:22.932647  3908 net.cpp:205] Memory required for data: 491111400
I0122 14:49:22.932653  3908 layer_factory.hpp:123] Creating layer inception_8a/output_fixed
I0122 14:49:22.932664  3908 net.cpp:140] Creating Layer inception_8a/output_fixed
I0122 14:49:22.932678  3908 net.cpp:481] inception_8a/output_fixed <- inception_8a/output
I0122 14:49:22.932689  3908 net.cpp:442] inception_8a/output_fixed -> inception_8a/output (in-place)
I0122 14:49:22.932762  3908 net.cpp:190] Setting up inception_8a/output_fixed
I0122 14:49:22.932782  3908 net.cpp:197] Top shape: 50 144 16 16 (1843200)
I0122 14:49:22.932786  3908 net.cpp:205] Memory required for data: 498484200
I0122 14:49:22.932792  3908 layer_factory.hpp:123] Creating layer inception_8a/output_inception_8a/output_fixed_0_split
I0122 14:49:22.932801  3908 net.cpp:140] Creating Layer inception_8a/output_inception_8a/output_fixed_0_split
I0122 14:49:22.932809  3908 net.cpp:481] inception_8a/output_inception_8a/output_fixed_0_split <- inception_8a/output
I0122 14:49:22.932817  3908 net.cpp:455] inception_8a/output_inception_8a/output_fixed_0_split -> inception_8a/output_inception_8a/output_fixed_0_split_0
I0122 14:49:22.932828  3908 net.cpp:455] inception_8a/output_inception_8a/output_fixed_0_split -> inception_8a/output_inception_8a/output_fixed_0_split_1
I0122 14:49:22.932904  3908 net.cpp:190] Setting up inception_8a/output_inception_8a/output_fixed_0_split
I0122 14:49:22.932924  3908 net.cpp:197] Top shape: 50 144 16 16 (1843200)
I0122 14:49:22.932929  3908 net.cpp:197] Top shape: 50 144 16 16 (1843200)
I0122 14:49:22.932932  3908 net.cpp:205] Memory required for data: 513229800
I0122 14:49:22.932936  3908 layer_factory.hpp:123] Creating layer downsample_9/3x3_s2
I0122 14:49:22.932950  3908 net.cpp:140] Creating Layer downsample_9/3x3_s2
I0122 14:49:22.932962  3908 net.cpp:481] downsample_9/3x3_s2 <- inception_8a/output_inception_8a/output_fixed_0_split_0
I0122 14:49:22.932976  3908 net.cpp:455] downsample_9/3x3_s2 -> downsample_9/3x3_s2
I0122 14:49:22.934732  3908 layer_factory.hpp:123] Creating layer downsample_9/3x3_s2
I0122 14:49:22.936619  3908 net.cpp:190] Setting up downsample_9/3x3_s2
I0122 14:49:22.936641  3908 net.cpp:197] Top shape: 50 96 8 8 (307200)
I0122 14:49:22.936645  3908 net.cpp:205] Memory required for data: 514458600
I0122 14:49:22.936652  3908 layer_factory.hpp:123] Creating layer downsample_9/3x3_s2/relu1
I0122 14:49:22.936661  3908 net.cpp:140] Creating Layer downsample_9/3x3_s2/relu1
I0122 14:49:22.936671  3908 net.cpp:481] downsample_9/3x3_s2/relu1 <- downsample_9/3x3_s2
I0122 14:49:22.936681  3908 net.cpp:442] downsample_9/3x3_s2/relu1 -> downsample_9/3x3_s2 (in-place)
I0122 14:49:22.936702  3908 net.cpp:190] Setting up downsample_9/3x3_s2/relu1
I0122 14:49:22.936712  3908 net.cpp:197] Top shape: 50 96 8 8 (307200)
I0122 14:49:22.936724  3908 net.cpp:205] Memory required for data: 515687400
I0122 14:49:22.936730  3908 layer_factory.hpp:123] Creating layer downsample_9/pool_s2
I0122 14:49:22.936743  3908 net.cpp:140] Creating Layer downsample_9/pool_s2
I0122 14:49:22.936758  3908 net.cpp:481] downsample_9/pool_s2 <- inception_8a/output_inception_8a/output_fixed_0_split_1
I0122 14:49:22.936769  3908 net.cpp:455] downsample_9/pool_s2 -> downsample_9/pool_s2
I0122 14:49:22.936844  3908 net.cpp:190] Setting up downsample_9/pool_s2
I0122 14:49:22.936863  3908 net.cpp:197] Top shape: 50 144 8 8 (460800)
I0122 14:49:22.936867  3908 net.cpp:205] Memory required for data: 517530600
I0122 14:49:22.936872  3908 layer_factory.hpp:123] Creating layer downsample_9/output
I0122 14:49:22.936879  3908 net.cpp:140] Creating Layer downsample_9/output
I0122 14:49:22.936883  3908 net.cpp:481] downsample_9/output <- downsample_9/3x3_s2
I0122 14:49:22.936888  3908 net.cpp:481] downsample_9/output <- downsample_9/pool_s2
I0122 14:49:22.936895  3908 net.cpp:455] downsample_9/output -> downsample_9/output
I0122 14:49:22.936947  3908 net.cpp:190] Setting up downsample_9/output
I0122 14:49:22.936967  3908 net.cpp:197] Top shape: 50 240 8 8 (768000)
I0122 14:49:22.936975  3908 net.cpp:205] Memory required for data: 520602600
I0122 14:49:22.936980  3908 layer_factory.hpp:123] Creating layer downsample_9/output_fixed
I0122 14:49:22.936991  3908 net.cpp:140] Creating Layer downsample_9/output_fixed
I0122 14:49:22.937002  3908 net.cpp:481] downsample_9/output_fixed <- downsample_9/output
I0122 14:49:22.937009  3908 net.cpp:442] downsample_9/output_fixed -> downsample_9/output (in-place)
I0122 14:49:22.937072  3908 net.cpp:190] Setting up downsample_9/output_fixed
I0122 14:49:22.937085  3908 net.cpp:197] Top shape: 50 240 8 8 (768000)
I0122 14:49:22.937089  3908 net.cpp:205] Memory required for data: 523674600
I0122 14:49:22.937095  3908 layer_factory.hpp:123] Creating layer downsample_9/output_downsample_9/output_fixed_0_split
I0122 14:49:22.937103  3908 net.cpp:140] Creating Layer downsample_9/output_downsample_9/output_fixed_0_split
I0122 14:49:22.937114  3908 net.cpp:481] downsample_9/output_downsample_9/output_fixed_0_split <- downsample_9/output
I0122 14:49:22.937122  3908 net.cpp:455] downsample_9/output_downsample_9/output_fixed_0_split -> downsample_9/output_downsample_9/output_fixed_0_split_0
I0122 14:49:22.937144  3908 net.cpp:455] downsample_9/output_downsample_9/output_fixed_0_split -> downsample_9/output_downsample_9/output_fixed_0_split_1
I0122 14:49:22.937203  3908 net.cpp:190] Setting up downsample_9/output_downsample_9/output_fixed_0_split
I0122 14:49:22.937219  3908 net.cpp:197] Top shape: 50 240 8 8 (768000)
I0122 14:49:22.937224  3908 net.cpp:197] Top shape: 50 240 8 8 (768000)
I0122 14:49:22.937227  3908 net.cpp:205] Memory required for data: 529818600
I0122 14:49:22.937230  3908 layer_factory.hpp:123] Creating layer inception_10a/1x1
I0122 14:49:22.937243  3908 net.cpp:140] Creating Layer inception_10a/1x1
I0122 14:49:22.937258  3908 net.cpp:481] inception_10a/1x1 <- downsample_9/output_downsample_9/output_fixed_0_split_0
I0122 14:49:22.937271  3908 net.cpp:455] inception_10a/1x1 -> inception_10a/1x1
I0122 14:49:22.937809  3908 layer_factory.hpp:123] Creating layer inception_10a/1x1
I0122 14:49:22.938493  3908 net.cpp:190] Setting up inception_10a/1x1
I0122 14:49:22.938509  3908 net.cpp:197] Top shape: 50 176 8 8 (563200)
I0122 14:49:22.938513  3908 net.cpp:205] Memory required for data: 532071400
I0122 14:49:22.938519  3908 layer_factory.hpp:123] Creating layer inception_10a/1x1/relu1
I0122 14:49:22.938527  3908 net.cpp:140] Creating Layer inception_10a/1x1/relu1
I0122 14:49:22.938531  3908 net.cpp:481] inception_10a/1x1/relu1 <- inception_10a/1x1
I0122 14:49:22.938539  3908 net.cpp:442] inception_10a/1x1/relu1 -> inception_10a/1x1 (in-place)
I0122 14:49:22.938557  3908 net.cpp:190] Setting up inception_10a/1x1/relu1
I0122 14:49:22.938566  3908 net.cpp:197] Top shape: 50 176 8 8 (563200)
I0122 14:49:22.938572  3908 net.cpp:205] Memory required for data: 534324200
I0122 14:49:22.938585  3908 layer_factory.hpp:123] Creating layer inception_10a/3x3
I0122 14:49:22.938596  3908 net.cpp:140] Creating Layer inception_10a/3x3
I0122 14:49:22.938606  3908 net.cpp:481] inception_10a/3x3 <- downsample_9/output_downsample_9/output_fixed_0_split_1
I0122 14:49:22.938614  3908 net.cpp:455] inception_10a/3x3 -> inception_10a/3x3
I0122 14:49:22.942656  3908 layer_factory.hpp:123] Creating layer inception_10a/3x3
I0122 14:49:22.946892  3908 net.cpp:190] Setting up inception_10a/3x3
I0122 14:49:22.946913  3908 net.cpp:197] Top shape: 50 160 8 8 (512000)
I0122 14:49:22.946918  3908 net.cpp:205] Memory required for data: 536372200
I0122 14:49:22.946925  3908 layer_factory.hpp:123] Creating layer inception_10a/3x3/relu1
I0122 14:49:22.946938  3908 net.cpp:140] Creating Layer inception_10a/3x3/relu1
I0122 14:49:22.946954  3908 net.cpp:481] inception_10a/3x3/relu1 <- inception_10a/3x3
I0122 14:49:22.946965  3908 net.cpp:442] inception_10a/3x3/relu1 -> inception_10a/3x3 (in-place)
I0122 14:49:22.946977  3908 net.cpp:190] Setting up inception_10a/3x3/relu1
I0122 14:49:22.946993  3908 net.cpp:197] Top shape: 50 160 8 8 (512000)
I0122 14:49:22.947000  3908 net.cpp:205] Memory required for data: 538420200
I0122 14:49:22.947006  3908 layer_factory.hpp:123] Creating layer inception_10a/output
I0122 14:49:22.947016  3908 net.cpp:140] Creating Layer inception_10a/output
I0122 14:49:22.947029  3908 net.cpp:481] inception_10a/output <- inception_10a/1x1
I0122 14:49:22.947036  3908 net.cpp:481] inception_10a/output <- inception_10a/3x3
I0122 14:49:22.947046  3908 net.cpp:455] inception_10a/output -> inception_10a/output
I0122 14:49:22.947103  3908 net.cpp:190] Setting up inception_10a/output
I0122 14:49:22.947124  3908 net.cpp:197] Top shape: 50 336 8 8 (1075200)
I0122 14:49:22.947130  3908 net.cpp:205] Memory required for data: 542721000
I0122 14:49:22.947136  3908 layer_factory.hpp:123] Creating layer inception_10a/output_fixed
I0122 14:49:22.947147  3908 net.cpp:140] Creating Layer inception_10a/output_fixed
I0122 14:49:22.947156  3908 net.cpp:481] inception_10a/output_fixed <- inception_10a/output
I0122 14:49:22.947163  3908 net.cpp:442] inception_10a/output_fixed -> inception_10a/output (in-place)
I0122 14:49:22.947237  3908 net.cpp:190] Setting up inception_10a/output_fixed
I0122 14:49:22.947252  3908 net.cpp:197] Top shape: 50 336 8 8 (1075200)
I0122 14:49:22.947255  3908 net.cpp:205] Memory required for data: 547021800
I0122 14:49:22.947262  3908 layer_factory.hpp:123] Creating layer inception_10a/output_inception_10a/output_fixed_0_split
I0122 14:49:22.947271  3908 net.cpp:140] Creating Layer inception_10a/output_inception_10a/output_fixed_0_split
I0122 14:49:22.947283  3908 net.cpp:481] inception_10a/output_inception_10a/output_fixed_0_split <- inception_10a/output
I0122 14:49:22.947294  3908 net.cpp:455] inception_10a/output_inception_10a/output_fixed_0_split -> inception_10a/output_inception_10a/output_fixed_0_split_0
I0122 14:49:22.947315  3908 net.cpp:455] inception_10a/output_inception_10a/output_fixed_0_split -> inception_10a/output_inception_10a/output_fixed_0_split_1
I0122 14:49:22.947387  3908 net.cpp:190] Setting up inception_10a/output_inception_10a/output_fixed_0_split
I0122 14:49:22.947403  3908 net.cpp:197] Top shape: 50 336 8 8 (1075200)
I0122 14:49:22.947408  3908 net.cpp:197] Top shape: 50 336 8 8 (1075200)
I0122 14:49:22.947412  3908 net.cpp:205] Memory required for data: 555623400
I0122 14:49:22.947415  3908 layer_factory.hpp:123] Creating layer inception_11a/1x1
I0122 14:49:22.947430  3908 net.cpp:140] Creating Layer inception_11a/1x1
I0122 14:49:22.947444  3908 net.cpp:481] inception_11a/1x1 <- inception_10a/output_inception_10a/output_fixed_0_split_0
I0122 14:49:22.947458  3908 net.cpp:455] inception_11a/1x1 -> inception_11a/1x1
I0122 14:49:22.948825  3908 layer_factory.hpp:123] Creating layer inception_11a/1x1
I0122 14:49:22.949616  3908 net.cpp:190] Setting up inception_11a/1x1
I0122 14:49:22.949635  3908 net.cpp:197] Top shape: 50 176 8 8 (563200)
I0122 14:49:22.949638  3908 net.cpp:205] Memory required for data: 557876200
I0122 14:49:22.949646  3908 layer_factory.hpp:123] Creating layer inception_11a/1x1/relu1
I0122 14:49:22.949654  3908 net.cpp:140] Creating Layer inception_11a/1x1/relu1
I0122 14:49:22.949667  3908 net.cpp:481] inception_11a/1x1/relu1 <- inception_11a/1x1
I0122 14:49:22.949678  3908 net.cpp:442] inception_11a/1x1/relu1 -> inception_11a/1x1 (in-place)
I0122 14:49:22.949692  3908 net.cpp:190] Setting up inception_11a/1x1/relu1
I0122 14:49:22.949708  3908 net.cpp:197] Top shape: 50 176 8 8 (563200)
I0122 14:49:22.949715  3908 net.cpp:205] Memory required for data: 560129000
I0122 14:49:22.949720  3908 layer_factory.hpp:123] Creating layer inception_11a/3x3
I0122 14:49:22.949736  3908 net.cpp:140] Creating Layer inception_11a/3x3
I0122 14:49:22.949751  3908 net.cpp:481] inception_11a/3x3 <- inception_10a/output_inception_10a/output_fixed_0_split_1
I0122 14:49:22.949789  3908 net.cpp:455] inception_11a/3x3 -> inception_11a/3x3
I0122 14:49:22.955241  3908 layer_factory.hpp:123] Creating layer inception_11a/3x3
I0122 14:49:22.960845  3908 net.cpp:190] Setting up inception_11a/3x3
I0122 14:49:22.960868  3908 net.cpp:197] Top shape: 50 160 8 8 (512000)
I0122 14:49:22.960872  3908 net.cpp:205] Memory required for data: 562177000
I0122 14:49:22.960880  3908 layer_factory.hpp:123] Creating layer inception_11a/3x3/relu1
I0122 14:49:22.960888  3908 net.cpp:140] Creating Layer inception_11a/3x3/relu1
I0122 14:49:22.960899  3908 net.cpp:481] inception_11a/3x3/relu1 <- inception_11a/3x3
I0122 14:49:22.960908  3908 net.cpp:442] inception_11a/3x3/relu1 -> inception_11a/3x3 (in-place)
I0122 14:49:22.960928  3908 net.cpp:190] Setting up inception_11a/3x3/relu1
I0122 14:49:22.960938  3908 net.cpp:197] Top shape: 50 160 8 8 (512000)
I0122 14:49:22.960955  3908 net.cpp:205] Memory required for data: 564225000
I0122 14:49:22.960961  3908 layer_factory.hpp:123] Creating layer inception_11a/output
I0122 14:49:22.960973  3908 net.cpp:140] Creating Layer inception_11a/output
I0122 14:49:22.960986  3908 net.cpp:481] inception_11a/output <- inception_11a/1x1
I0122 14:49:22.960994  3908 net.cpp:481] inception_11a/output <- inception_11a/3x3
I0122 14:49:22.961004  3908 net.cpp:455] inception_11a/output -> inception_11a/output
I0122 14:49:22.961061  3908 net.cpp:190] Setting up inception_11a/output
I0122 14:49:22.961081  3908 net.cpp:197] Top shape: 50 336 8 8 (1075200)
I0122 14:49:22.961087  3908 net.cpp:205] Memory required for data: 568525800
I0122 14:49:22.961092  3908 layer_factory.hpp:123] Creating layer inception_11a/output_fixed
I0122 14:49:22.961104  3908 net.cpp:140] Creating Layer inception_11a/output_fixed
I0122 14:49:22.961109  3908 net.cpp:481] inception_11a/output_fixed <- inception_11a/output
I0122 14:49:22.961117  3908 net.cpp:442] inception_11a/output_fixed -> inception_11a/output (in-place)
I0122 14:49:22.961190  3908 net.cpp:190] Setting up inception_11a/output_fixed
I0122 14:49:22.961205  3908 net.cpp:197] Top shape: 50 336 8 8 (1075200)
I0122 14:49:22.961208  3908 net.cpp:205] Memory required for data: 572826600
I0122 14:49:22.961215  3908 layer_factory.hpp:123] Creating layer avg_pool_12/8x8_s1
I0122 14:49:22.961223  3908 net.cpp:140] Creating Layer avg_pool_12/8x8_s1
I0122 14:49:22.961232  3908 net.cpp:481] avg_pool_12/8x8_s1 <- inception_11a/output
I0122 14:49:22.961241  3908 net.cpp:455] avg_pool_12/8x8_s1 -> avg_pool_12/8x8_s1
I0122 14:49:22.961288  3908 net.cpp:190] Setting up avg_pool_12/8x8_s1
I0122 14:49:22.961302  3908 net.cpp:197] Top shape: 50 336 1 1 (16800)
I0122 14:49:22.961304  3908 net.cpp:205] Memory required for data: 572893800
I0122 14:49:22.961308  3908 layer_factory.hpp:123] Creating layer avg_pool_12/8x8_s1_fixed
I0122 14:49:22.961318  3908 net.cpp:140] Creating Layer avg_pool_12/8x8_s1_fixed
I0122 14:49:22.961321  3908 net.cpp:481] avg_pool_12/8x8_s1_fixed <- avg_pool_12/8x8_s1
I0122 14:49:22.961328  3908 net.cpp:442] avg_pool_12/8x8_s1_fixed -> avg_pool_12/8x8_s1 (in-place)
I0122 14:49:22.961393  3908 net.cpp:190] Setting up avg_pool_12/8x8_s1_fixed
I0122 14:49:22.961411  3908 net.cpp:197] Top shape: 50 336 1 1 (16800)
I0122 14:49:22.961418  3908 net.cpp:205] Memory required for data: 572961000
I0122 14:49:22.961427  3908 layer_factory.hpp:123] Creating layer loss/classifier
I0122 14:49:22.961447  3908 net.cpp:140] Creating Layer loss/classifier
I0122 14:49:22.961452  3908 net.cpp:481] loss/classifier <- avg_pool_12/8x8_s1
I0122 14:49:22.961460  3908 net.cpp:455] loss/classifier -> loss/classifier
I0122 14:49:22.961628  3908 layer_factory.hpp:123] Creating layer loss/classifier
I0122 14:49:22.961902  3908 net.cpp:190] Setting up loss/classifier
I0122 14:49:22.961918  3908 net.cpp:197] Top shape: 50 10 (500)
I0122 14:49:22.961921  3908 net.cpp:205] Memory required for data: 572963000
I0122 14:49:22.961928  3908 layer_factory.hpp:123] Creating layer loss/classifier_fixed
I0122 14:49:22.961936  3908 net.cpp:140] Creating Layer loss/classifier_fixed
I0122 14:49:22.961941  3908 net.cpp:481] loss/classifier_fixed <- loss/classifier
I0122 14:49:22.961947  3908 net.cpp:442] loss/classifier_fixed -> loss/classifier (in-place)
I0122 14:49:22.962013  3908 net.cpp:190] Setting up loss/classifier_fixed
I0122 14:49:22.962025  3908 net.cpp:197] Top shape: 50 10 (500)
I0122 14:49:22.962028  3908 net.cpp:205] Memory required for data: 572965000
I0122 14:49:22.962033  3908 layer_factory.hpp:123] Creating layer loss/classifier_loss/classifier_fixed_0_split
I0122 14:49:22.962041  3908 net.cpp:140] Creating Layer loss/classifier_loss/classifier_fixed_0_split
I0122 14:49:22.962045  3908 net.cpp:481] loss/classifier_loss/classifier_fixed_0_split <- loss/classifier
I0122 14:49:22.962051  3908 net.cpp:455] loss/classifier_loss/classifier_fixed_0_split -> loss/classifier_loss/classifier_fixed_0_split_0
I0122 14:49:22.962059  3908 net.cpp:455] loss/classifier_loss/classifier_fixed_0_split -> loss/classifier_loss/classifier_fixed_0_split_1
I0122 14:49:22.962077  3908 net.cpp:455] loss/classifier_loss/classifier_fixed_0_split -> loss/classifier_loss/classifier_fixed_0_split_2
I0122 14:49:22.962097  3908 net.cpp:455] loss/classifier_loss/classifier_fixed_0_split -> loss/classifier_loss/classifier_fixed_0_split_3
I0122 14:49:22.962208  3908 net.cpp:190] Setting up loss/classifier_loss/classifier_fixed_0_split
I0122 14:49:22.962224  3908 net.cpp:197] Top shape: 50 10 (500)
I0122 14:49:22.962227  3908 net.cpp:197] Top shape: 50 10 (500)
I0122 14:49:22.962231  3908 net.cpp:197] Top shape: 50 10 (500)
I0122 14:49:22.962235  3908 net.cpp:197] Top shape: 50 10 (500)
I0122 14:49:22.962239  3908 net.cpp:205] Memory required for data: 572973000
I0122 14:49:22.962242  3908 layer_factory.hpp:123] Creating layer loss
I0122 14:49:22.962258  3908 net.cpp:140] Creating Layer loss
I0122 14:49:22.962265  3908 net.cpp:481] loss <- loss/classifier_loss/classifier_fixed_0_split_0
I0122 14:49:22.962275  3908 net.cpp:481] loss <- label_data_1_split_0
I0122 14:49:22.962291  3908 net.cpp:455] loss -> loss
…
