…
I0712 13:55:30.968508   874 net.cpp:98] Initializing net from parameters: 
state {
  phase: TRAIN
}
layer {
  name: "data"
  type: "ImageData"
  top: "data"
  top: "label"
  include {
    phase: TRAIN
  }
  transform_param {
    scale: 0.022
    mean_value: 73
    mean_value: 82
    mean_value: 72
    resize_param {
      prob: 1
      resize_mode: WARP
      height: 256
      width: 512
    }
  }
  image_data_param {
    source: "../data/cityscapes/calibration.txt"
    batch_size: 1
    shuffle: true
    new_height: 256
    new_width: 512
    root_folder: "../data/cityscapes/calibration_images/"
  }
}
layer {
  name: "conv_d0a-b"
  type: "Convolution"
  bottom: "data"
  top: "d0b"
  param {
    lr_mult: 1
    decay_mult: 1
  }
  param {
    lr_mult: 2
    decay_mult: 0
  }
  convolution_param {
    num_output: 64
    pad: 1
    kernel_size: 3
    stride: 1
    weight_filler {
      type: "msra"
    }
  }
}
layer {
  name: "relu_d0b"
  type: "ReLU"
  bottom: "d0b"
  top: "relu_d0b"
}
layer {
  name: "conv_d0b-c"
  type: "Convolution"
  bottom: "relu_d0b"
  top: "d0c"
  param {
    lr_mult: 1
    decay_mult: 1
  }
  param {
    lr_mult: 2
    decay_mult: 0
  }
  convolution_param {
    num_output: 64
    pad: 1
    kernel_size: 3
    weight_filler {
      type: "msra"
    }
  }
}
layer {
  name: "BatchNorm_d0c"
  type: "BatchNorm"
  bottom: "d0c"
  top: "BatchNorm_d0c"
  param {
    lr_mult: 1
    decay_mult: 0
  }
  param {
    lr_mult: 1
    decay_mult: 0
  }
  param {
    lr_mult: 0
    decay_mult: 0
  }
  param {
    lr_mult: 0
    decay_mult: 0
  }
  batch_norm_param {
    use_global_stats: true
    eps: 1e-05
    scale_filler {
      type: "constant"
      value: 1
    }
    bias_filler {
      type: "constant"
      value: 0
    }
  }
}
layer {
  name: "relu_d0c"
  type: "ReLU"
  bottom: "BatchNorm_d0c"
  top: "relu_d0c"
}
layer {
  name: "pool_d0c-1a"
  type: "Pooling"
  bottom: "relu_d0c"
  top: "d1a"
  pooling_param {
    pool: MAX
    kernel_size: 2
    stride: 2
  }
}
layer {
  name: "conv_d1a-b"
  type: "Convolution"
  bottom: "d1a"
  top: "d1b"
  param {
    lr_mult: 1
    decay_mult: 1
  }
  param {
    lr_mult: 2
    decay_mult: 0
  }
  convolution_param {
    num_output: 128
    pad: 1
    kernel_size: 3
    weight_filler {
      type: "msra"
    }
  }
}
layer {
  name: "relu_d1b"
  type: "ReLU"
  bottom: "d1b"
  top: "relu_d1b"
}
layer {
  name: "conv_d1b-c"
  type: "Convolution"
  bottom: "relu_d1b"
  top: "d1c"
  param {
    lr_mult: 1
    decay_mult: 1
  }
  param {
    lr_mult: 2
    decay_mult: 0
  }
  convolution_param {
    num_output: 128
    pad: 1
    kernel_size: 3
    weight_filler {
      type: "msra"
    }
  }
}
layer {
  name: "BatchNorm_d1c"
  type: "BatchNorm"
  bottom: "d1c"
  top: "BatchNorm_d1c"
  param {
    lr_mult: 1
    decay_mult: 0
  }
  param {
    lr_mult: 1
    decay_mult: 0
  }
  param {
    lr_mult: 0
    decay_mult: 0
  }
  param {
    lr_mult: 0
    decay_mult: 0
  }
  batch_norm_param {
    use_global_stats: true
    eps: 1e-05
    scale_filler {
      type: "constant"
      value: 1
    }
    bias_filler {
      type: "constant"
      value: 0
    }
  }
}
layer {
  name: "relu_d1c"
  type: "ReLU"
  bottom: "BatchNorm_d1c"
  top: "relu_d1c"
}
layer {
  name: "pool_d1c-2a"
  type: "Pooling"
  bottom: "relu_d1c"
  top: "d2a"
  pooling_param {
    pool: MAX
    kernel_size: 2
    stride: 2
  }
}
layer {
  name: "conv_d2a-b"
  type: "Convolution"
  bottom: "d2a"
  top: "d2b"
  param {
    lr_mult: 1
    decay_mult: 1
  }
  param {
    lr_mult: 2
    decay_mult: 0
  }
  convolution_param {
    num_output: 256
    pad: 1
    kernel_size: 3
    weight_filler {
      type: "msra"
    }
  }
}
layer {
  name: "relu_d2b"
  type: "ReLU"
  bottom: "d2b"
  top: "relu_d2b"
}
layer {
  name: "conv_d2b-c"
  type: "Convolution"
  bottom: "relu_d2b"
  top: "d2c"
  param {
    lr_mult: 1
    decay_mult: 1
  }
  param {
    lr_mult: 2
    decay_mult: 0
  }
  convolution_param {
    num_output: 256
    pad: 1
    kernel_size: 3
    weight_filler {
      type: "msra"
    }
  }
}
layer {
  name: "BatchNorm_d2c"
  type: "BatchNorm"
  bottom: "d2c"
  top: "BatchNorm_d2c"
  param {
    lr_mult: 1
    decay_mult: 0
  }
  param {
    lr_mult: 1
    decay_mult: 0
  }
  param {
    lr_mult: 0
    decay_mult: 0
  }
  param {
    lr_mult: 0
    decay_mult: 0
  }
  batch_norm_param {
    use_global_stats: true
    eps: 1e-05
    scale_filler {
      type: "constant"
      value: 1
    }
    bias_filler {
      type: "constant"
      value: 0
    }
  }
}
layer {
  name: "relu_d2c"
  type: "ReLU"
  bottom: "BatchNorm_d2c"
  top: "relu_d2c"
}
layer {
  name: "pool_d2c-3a"
  type: "Pooling"
  bottom: "relu_d2c"
  top: "d3a"
  pooling_param {
    pool: MAX
    kernel_size: 2
    stride: 2
  }
}
layer {
  name: "conv_d3a-b"
  type: "Convolution"
  bottom: "d3a"
  top: "d3b"
  param {
    lr_mult: 1
    decay_mult: 1
  }
  param {
    lr_mult: 2
    decay_mult: 0
  }
  convolution_param {
    num_output: 512
    pad: 1
    kernel_size: 3
    weight_filler {
      type: "msra"
    }
  }
}
layer {
  name: "relu_d3b"
  type: "ReLU"
  bottom: "d3b"
  top: "relu_d3b"
}
layer {
  name: "conv_d3b-c"
  type: "Convolution"
  bottom: "relu_d3b"
  top: "d3c"
  param {
    lr_mult: 1
    decay_mult: 1
  }
  param {
    lr_mult: 2
    decay_mult: 0
  }
  convolution_param {
    num_output: 512
    pad: 1
    kernel_size: 3
    weight_filler {
      type: "msra"
    }
  }
}
layer {
  name: "BatchNorm_1"
  type: "BatchNorm"
  bottom: "d3c"
  top: "BatchNorm_1"
  param {
    lr_mult: 1
    decay_mult: 0
  }
  param {
    lr_mult: 1
    decay_mult: 0
  }
  param {
    lr_mult: 0
    decay_mult: 0
  }
  param {
    lr_mult: 0
    decay_mult: 0
  }
  batch_norm_param {
    use_global_stats: true
    eps: 1e-05
    scale_filler {
      type: "constant"
      value: 1
    }
    bias_filler {
      type: "constant"
      value: 0
    }
  }
}
layer {
  name: "relu_d3c"
  type: "ReLU"
  bottom: "BatchNorm_1"
  top: "relu_d3c"
}
layer {
  name: "pool_d3c-4a"
  type: "Pooling"
  bottom: "relu_d3c"
  top: "d4a"
  pooling_param {
    pool: MAX
    kernel_size: 2
    stride: 2
  }
}
layer {
  name: "conv_d4a-b"
  type: "Convolution"
  bottom: "d4a"
  top: "d4b"
  param {
    lr_mult: 1
    decay_mult: 1
  }
  param {
    lr_mult: 2
    decay_mult: 0
  }
  convolution_param {
    num_output: 1024
    pad: 1
    kernel_size: 3
    weight_filler {
      type: "msra"
    }
  }
}
layer {
  name: "BatchNorm_2"
  type: "BatchNorm"
  bottom: "d4b"
  top: "BatchNorm_2"
  param {
    lr_mult: 1
    decay_mult: 0
  }
  param {
    lr_mult: 1
    decay_mult: 0
  }
  param {
    lr_mult: 0
    decay_mult: 0
  }
  param {
    lr_mult: 0
    decay_mult: 0
  }
  batch_norm_param {
    use_global_stats: true
    eps: 1e-05
    scale_filler {
      type: "constant"
      value: 1
    }
    bias_filler {
      type: "constant"
      value: 0
    }
  }
}
layer {
  name: "relu_d4b"
  type: "ReLU"
  bottom: "BatchNorm_2"
  top: "relu_d4b"
}
layer {
  name: "conv_d4b-c"
  type: "Convolution"
  bottom: "relu_d4b"
  top: "d4c"
  param {
    lr_mult: 1
    decay_mult: 1
  }
  param {
    lr_mult: 2
    decay_mult: 0
  }
  convolution_param {
    num_output: 1024
    pad: 1
    kernel_size: 3
    weight_filler {
      type: "msra"
    }
  }
}
layer {
  name: "relu_d4c"
  type: "ReLU"
  bottom: "d4c"
  top: "relu_d4c"
}
layer {
  name: "upconv_d4c_u3a"
  type: "Deconvolution"
  bottom: "relu_d4c"
  top: "u3a"
  param {
    lr_mult: 1
    decay_mult: 1
  }
  param {
    lr_mult: 2
    decay_mult: 0
  }
  convolution_param {
    num_output: 512
    pad: 0
    kernel_size: 2
    stride: 2
    weight_filler {
      type: "msra"
    }
  }
}
layer {
  name: "relu_u3a"
  type: "ReLU"
  bottom: "u3a"
  top: "u3a"
}
layer {
  name: "concat_d3cc_u3a-b"
  type: "Concat"
  bottom: "u3a"
  bottom: "d3c"
  top: "u3b"
}
layer {
  name: "conv_u3b-c"
  type: "Convolution"
  bottom: "u3b"
  top: "u3c"
  param {
    lr_mult: 1
    decay_mult: 1
  }
  param {
    lr_mult: 2
    decay_mult: 0
  }
  convolution_param {
    num_output: 512
    pad: 1
    kernel_size: 3
    weight_filler {
      type: "msra"
    }
  }
}
layer {
  name: "relu_u3c"
  type: "ReLU"
  bottom: "u3c"
  top: "u3c"
}
layer {
  name: "conv_u3c-d"
  type: "Convolution"
  bottom: "u3c"
  top: "u3d"
  param {
    lr_mult: 1
    decay_mult: 1
  }
  param {
    lr_mult: 2
    decay_mult: 0
  }
  convolution_param {
    num_output: 512
    pad: 1
    kernel_size: 3
    weight_filler {
      type: "msra"
    }
  }
}
layer {
  name: "relu_u3d"
  type: "ReLU"
  bottom: "u3d"
  top: "u3d"
}
layer {
  name: "upconv_u3d_u2a"
  type: "Deconvolution"
  bottom: "u3d"
  top: "u2a"
  param {
    lr_mult: 1
    decay_mult: 1
  }
  param {
    lr_mult: 2
    decay_mult: 0
  }
  convolution_param {
    num_output: 512
    pad: 0
    kernel_size: 2
    stride: 2
    weight_filler {
      type: "msra"
    }
  }
}
layer {
  name: "relu_u2a"
  type: "ReLU"
  bottom: "u2a"
  top: "u2a"
}
layer {
  name: "concat_d2cc_u2a-b"
  type: "Concat"
  bottom: "u2a"
  bottom: "d2c"
  top: "u2b"
}
layer {
  name: "conv_u2b-c"
  type: "Convolution"
  bottom: "u2b"
  top: "u2c"
  param {
    lr_mult: 1
    decay_mult: 1
  }
  param {
    lr_mult: 2
    decay_mult: 0
  }
  convolution_param {
    num_output: 256
    pad: 1
    kernel_size: 3
    weight_filler {
      type: "msra"
    }
  }
}
layer {
  name: "relu_u2c"
  type: "ReLU"
  bottom: "u2c"
  top: "u2c"
}
layer {
  name: "conv_u2c-d"
  type: "Convolution"
  bottom: "u2c"
  top: "u2d"
  param {
    lr_mult: 1
    decay_mult: 1
  }
  param {
    lr_mult: 2
    decay_mult: 0
  }
  convolution_param {
    num_output: 256
    pad: 1
    kernel_size: 3
    weight_filler {
      type: "msra"
    }
  }
}
layer {
  name: "relu_u2d"
  type: "ReLU"
  bottom: "u2d"
  top: "u2d"
}
layer {
  name: "upconv_u2d_u1a"
  type: "Deconvolution"
  bottom: "u2d"
  top: "u1a"
  param {
    lr_mult: 1
    decay_mult: 1
  }
  param {
    lr_mult: 2
    decay_mult: 0
  }
  convolution_param {
    num_output: 128
    pad: 0
    kernel_size: 2
    stride: 2
    weight_filler {
      type: "msra"
    }
  }
}
layer {
  name: "relu_u1a"
  type: "ReLU"
  bottom: "u1a"
  top: "u1a"
}
layer {
  name: "concat_d1cc_u1a-b"
  type: "Concat"
  bottom: "u1a"
  bottom: "d1c"
  top: "u1b"
}
layer {
  name: "conv_u1b-c"
  type: "Convolution"
  bottom: "u1b"
  top: "u1c"
  param {
    lr_mult: 1
    decay_mult: 1
  }
  param {
    lr_mult: 2
    decay_mult: 0
  }
  convolution_param {
    num_output: 128
    pad: 1
    kernel_size: 3
    weight_filler {
      type: "msra"
    }
  }
}
layer {
  name: "relu_u1c"
  type: "ReLU"
  bottom: "u1c"
  top: "u1c"
}
layer {
  name: "conv_u1c-d"
  type: "Convolution"
  bottom: "u1c"
  top: "u1d"
  param {
    lr_mult: 1
    decay_mult: 1
  }
  param {
    lr_mult: 2
    decay_mult: 0
  }
  convolution_param {
    num_output: 128
    pad: 1
    kernel_size: 3
    weight_filler {
      type: "msra"
    }
  }
}
layer {
  name: "relu_u1d"
  type: "ReLU"
  bottom: "u1d"
  top: "u1d"
}
layer {
  name: "upconv_u1d_u0a_NEW"
  type: "Deconvolution"
  bottom: "u1d"
  top: "u0a"
  param {
    lr_mult: 1
    decay_mult: 1
  }
  param {
    lr_mult: 2
    decay_mult: 0
  }
  convolution_param {
    num_output: 64
    pad: 0
    kernel_size: 2
    stride: 2
    weight_filler {
      type: "msra"
    }
  }
}
layer {
  name: "relu_u0a"
  type: "ReLU"
  bottom: "u0a"
  top: "u0a"
}
layer {
  name: "concat_d0cc_u0a-b"
  type: "Concat"
  bottom: "u0a"
  bottom: "d0c"
  top: "u0b"
}
layer {
  name: "conv_u0b-c_New"
  type: "Convolution"
  bottom: "u0b"
  top: "u0c"
  param {
    lr_mult: 1
    decay_mult: 1
  }
  param {
    lr_mult: 2
    decay_mult: 0
  }
  convolution_param {
    num_output: 64
    pad: 1
    kernel_size: 3
    weight_filler {
      type: "msra"
    }
  }
}
layer {
  name: "relu_u0c"
  type: "ReLU"
  bottom: "u0c"
  top: "u0c"
}
layer {
  name: "conv_u0c-d_New"
  type: "Convolution"
  bottom: "u0c"
  top: "u0d"
  param {
    lr_mult: 1
    decay_mult: 1
  }
  param {
    lr_mult: 2
    decay_mult: 0
  }
  convolution_param {
    num_output: 64
    pad: 1
    kernel_size: 3
    weight_filler {
      type: "msra"
    }
  }
}
layer {
  name: "relu_u0d"
  type: "ReLU"
  bottom: "u0d"
  top: "u0d"
}
layer {
  name: "conv_u0d-score_New"
  type: "Convolution"
  bottom: "u0d"
  top: "conv_u0d-score_New"
  param {
    lr_mult: 1
    decay_mult: 1
  }
  param {
    lr_mult: 2
    decay_mult: 0
  }
  convolution_param {
    num_output: 19
    pad: 0
    kernel_size: 1
    weight_filler {
      type: "msra"
    }
  }
}
layer {
  name: "score"
  type: "Softmax"
  bottom: "conv_u0d-score_New"
  top: "score"
}
I0712 13:55:30.968693   874 layer_factory.hpp:123] Creating layer data
I0712 13:55:30.968719   874 net.cpp:140] Creating Layer data
I0712 13:55:30.968727   874 net.cpp:455] data -> data
I0712 13:55:30.968736   874 net.cpp:455] data -> label
I0712 13:55:30.968755   874 image_data_layer.cpp:87] Opening file ../data/cityscapes/calibration.txt
I0712 13:55:30.969017   874 image_data_layer.cpp:97] Shuffling data
I0712 13:55:30.969074   874 image_data_layer.cpp:102] A total of 1000 images.
I0712 13:55:31.040871   874 image_data_layer.cpp:130] output data size: 1,3,256,512
I0712 13:55:31.053670   874 internal_thread.cpp:73] Starting internal thread(s) on GPU 1
I0712 13:55:31.053732   874 net.cpp:190] Setting up data
I0712 13:55:31.053742   874 net.cpp:197] Top shape: 1 3 256 512 (393216)
I0712 13:55:31.053747   874 net.cpp:197] Top shape: 1 (1)
I0712 13:55:31.053750   874 net.cpp:205] Memory required for data: 1572868
I0712 13:55:31.053755   874 layer_factory.hpp:123] Creating layer conv_d0a-b
I0712 13:55:31.053769   874 net.cpp:140] Creating Layer conv_d0a-b
I0712 13:55:31.053773   874 net.cpp:481] conv_d0a-b <- data
I0712 13:55:31.053787   874 net.cpp:455] conv_d0a-b -> d0b
I0712 13:55:31.055096   874 net.cpp:190] Setting up conv_d0a-b
I0712 13:55:31.055109   874 net.cpp:197] Top shape: 1 64 256 512 (8388608)
I0712 13:55:31.055111   874 net.cpp:205] Memory required for data: 35127300
I0712 13:55:31.055126   874 layer_factory.hpp:123] Creating layer relu_d0b
I0712 13:55:31.055133   874 net.cpp:140] Creating Layer relu_d0b
I0712 13:55:31.055136   874 net.cpp:481] relu_d0b <- d0b
I0712 13:55:31.055141   874 net.cpp:455] relu_d0b -> relu_d0b
I0712 13:55:31.055168   874 net.cpp:190] Setting up relu_d0b
I0712 13:55:31.055173   874 net.cpp:197] Top shape: 1 64 256 512 (8388608)
I0712 13:55:31.055176   874 net.cpp:205] Memory required for data: 68681732
I0712 13:55:31.055178   874 layer_factory.hpp:123] Creating layer conv_d0b-c
I0712 13:55:31.055187   874 net.cpp:140] Creating Layer conv_d0b-c
I0712 13:55:31.055191   874 net.cpp:481] conv_d0b-c <- relu_d0b
I0712 13:55:31.055194   874 net.cpp:455] conv_d0b-c -> d0c
I0712 13:55:31.056818   874 net.cpp:190] Setting up conv_d0b-c
I0712 13:55:31.056831   874 net.cpp:197] Top shape: 1 64 256 512 (8388608)
I0712 13:55:31.056834   874 net.cpp:205] Memory required for data: 102236164
I0712 13:55:31.056843   874 layer_factory.hpp:123] Creating layer d0c_conv_d0b-c_0_split
I0712 13:55:31.056849   874 net.cpp:140] Creating Layer d0c_conv_d0b-c_0_split
I0712 13:55:31.056854   874 net.cpp:481] d0c_conv_d0b-c_0_split <- d0c
I0712 13:55:31.056859   874 net.cpp:455] d0c_conv_d0b-c_0_split -> d0c_conv_d0b-c_0_split_0
I0712 13:55:31.056865   874 net.cpp:455] d0c_conv_d0b-c_0_split -> d0c_conv_d0b-c_0_split_1
I0712 13:55:31.056921   874 net.cpp:190] Setting up d0c_conv_d0b-c_0_split
I0712 13:55:31.056928   874 net.cpp:197] Top shape: 1 64 256 512 (8388608)
I0712 13:55:31.056932   874 net.cpp:197] Top shape: 1 64 256 512 (8388608)
I0712 13:55:31.056936   874 net.cpp:205] Memory required for data: 169345028
I0712 13:55:31.056938   874 layer_factory.hpp:123] Creating layer BatchNorm_d0c
I0712 13:55:31.056947   874 net.cpp:140] Creating Layer BatchNorm_d0c
I0712 13:55:31.056951   874 net.cpp:481] BatchNorm_d0c <- d0c_conv_d0b-c_0_split_0
I0712 13:55:31.056957   874 net.cpp:455] BatchNorm_d0c -> BatchNorm_d0c
I0712 13:55:31.057749   874 net.cpp:190] Setting up BatchNorm_d0c
I0712 13:55:31.057757   874 net.cpp:197] Top shape: 1 64 256 512 (8388608)
I0712 13:55:31.057760   874 net.cpp:205] Memory required for data: 202899460
I0712 13:55:31.057773   874 layer_factory.hpp:123] Creating layer relu_d0c
I0712 13:55:31.057780   874 net.cpp:140] Creating Layer relu_d0c
I0712 13:55:31.057782   874 net.cpp:481] relu_d0c <- BatchNorm_d0c
I0712 13:55:31.057788   874 net.cpp:455] relu_d0c -> relu_d0c
I0712 13:55:31.057811   874 net.cpp:190] Setting up relu_d0c
I0712 13:55:31.057817   874 net.cpp:197] Top shape: 1 64 256 512 (8388608)
I0712 13:55:31.057821   874 net.cpp:205] Memory required for data: 236453892
I0712 13:55:31.057823   874 layer_factory.hpp:123] Creating layer pool_d0c-1a
I0712 13:55:31.057832   874 net.cpp:140] Creating Layer pool_d0c-1a
I0712 13:55:31.057834   874 net.cpp:481] pool_d0c-1a <- relu_d0c
I0712 13:55:31.057839   874 net.cpp:455] pool_d0c-1a -> d1a
I0712 13:55:31.057869   874 net.cpp:190] Setting up pool_d0c-1a
I0712 13:55:31.057875   874 net.cpp:197] Top shape: 1 64 128 256 (2097152)
I0712 13:55:31.057878   874 net.cpp:205] Memory required for data: 244842500
I0712 13:55:31.057881   874 layer_factory.hpp:123] Creating layer conv_d1a-b
I0712 13:55:31.057889   874 net.cpp:140] Creating Layer conv_d1a-b
I0712 13:55:31.057893   874 net.cpp:481] conv_d1a-b <- d1a
I0712 13:55:31.057898   874 net.cpp:455] conv_d1a-b -> d1b
I0712 13:55:31.058773   874 net.cpp:190] Setting up conv_d1a-b
I0712 13:55:31.058782   874 net.cpp:197] Top shape: 1 128 128 256 (4194304)
I0712 13:55:31.058785   874 net.cpp:205] Memory required for data: 261619716
I0712 13:55:31.058790   874 layer_factory.hpp:123] Creating layer relu_d1b
I0712 13:55:31.058795   874 net.cpp:140] Creating Layer relu_d1b
I0712 13:55:31.058799   874 net.cpp:481] relu_d1b <- d1b
I0712 13:55:31.058804   874 net.cpp:455] relu_d1b -> relu_d1b
I0712 13:55:31.058823   874 net.cpp:190] Setting up relu_d1b
I0712 13:55:31.058828   874 net.cpp:197] Top shape: 1 128 128 256 (4194304)
I0712 13:55:31.058831   874 net.cpp:205] Memory required for data: 278396932
I0712 13:55:31.058835   874 layer_factory.hpp:123] Creating layer conv_d1b-c
I0712 13:55:31.058840   874 net.cpp:140] Creating Layer conv_d1b-c
I0712 13:55:31.058845   874 net.cpp:481] conv_d1b-c <- relu_d1b
I0712 13:55:31.058848   874 net.cpp:455] conv_d1b-c -> d1c
I0712 13:55:31.061115   874 net.cpp:190] Setting up conv_d1b-c
I0712 13:55:31.061127   874 net.cpp:197] Top shape: 1 128 128 256 (4194304)
I0712 13:55:31.061131   874 net.cpp:205] Memory required for data: 295174148
I0712 13:55:31.061136   874 layer_factory.hpp:123] Creating layer d1c_conv_d1b-c_0_split
I0712 13:55:31.061142   874 net.cpp:140] Creating Layer d1c_conv_d1b-c_0_split
I0712 13:55:31.061146   874 net.cpp:481] d1c_conv_d1b-c_0_split <- d1c
I0712 13:55:31.061151   874 net.cpp:455] d1c_conv_d1b-c_0_split -> d1c_conv_d1b-c_0_split_0
I0712 13:55:31.061158   874 net.cpp:455] d1c_conv_d1b-c_0_split -> d1c_conv_d1b-c_0_split_1
I0712 13:55:31.061190   874 net.cpp:190] Setting up d1c_conv_d1b-c_0_split
I0712 13:55:31.061197   874 net.cpp:197] Top shape: 1 128 128 256 (4194304)
I0712 13:55:31.061200   874 net.cpp:197] Top shape: 1 128 128 256 (4194304)
I0712 13:55:31.061203   874 net.cpp:205] Memory required for data: 328728580
I0712 13:55:31.061205   874 layer_factory.hpp:123] Creating layer BatchNorm_d1c
I0712 13:55:31.061213   874 net.cpp:140] Creating Layer BatchNorm_d1c
I0712 13:55:31.061216   874 net.cpp:481] BatchNorm_d1c <- d1c_conv_d1b-c_0_split_0
I0712 13:55:31.061223   874 net.cpp:455] BatchNorm_d1c -> BatchNorm_d1c
I0712 13:55:31.061730   874 net.cpp:190] Setting up BatchNorm_d1c
I0712 13:55:31.061739   874 net.cpp:197] Top shape: 1 128 128 256 (4194304)
I0712 13:55:31.061743   874 net.cpp:205] Memory required for data: 345505796
I0712 13:55:31.061753   874 layer_factory.hpp:123] Creating layer relu_d1c
I0712 13:55:31.061758   874 net.cpp:140] Creating Layer relu_d1c
I0712 13:55:31.061761   874 net.cpp:481] relu_d1c <- BatchNorm_d1c
I0712 13:55:31.061766   874 net.cpp:455] relu_d1c -> relu_d1c
I0712 13:55:31.061786   874 net.cpp:190] Setting up relu_d1c
I0712 13:55:31.061791   874 net.cpp:197] Top shape: 1 128 128 256 (4194304)
I0712 13:55:31.061794   874 net.cpp:205] Memory required for data: 362283012
I0712 13:55:31.061797   874 layer_factory.hpp:123] Creating layer pool_d1c-2a
I0712 13:55:31.061805   874 net.cpp:140] Creating Layer pool_d1c-2a
I0712 13:55:31.061807   874 net.cpp:481] pool_d1c-2a <- relu_d1c
I0712 13:55:31.061811   874 net.cpp:455] pool_d1c-2a -> d2a
I0712 13:55:31.061838   874 net.cpp:190] Setting up pool_d1c-2a
I0712 13:55:31.061844   874 net.cpp:197] Top shape: 1 128 64 128 (1048576)
I0712 13:55:31.061847   874 net.cpp:205] Memory required for data: 366477316
I0712 13:55:31.061851   874 layer_factory.hpp:123] Creating layer conv_d2a-b
I0712 13:55:31.061858   874 net.cpp:140] Creating Layer conv_d2a-b
I0712 13:55:31.061861   874 net.cpp:481] conv_d2a-b <- d2a
I0712 13:55:31.061866   874 net.cpp:455] conv_d2a-b -> d2b
I0712 13:55:31.066893   874 net.cpp:190] Setting up conv_d2a-b
I0712 13:55:31.066906   874 net.cpp:197] Top shape: 1 256 64 128 (2097152)
I0712 13:55:31.066910   874 net.cpp:205] Memory required for data: 374865924
I0712 13:55:31.066916   874 layer_factory.hpp:123] Creating layer relu_d2b
I0712 13:55:31.066922   874 net.cpp:140] Creating Layer relu_d2b
I0712 13:55:31.066926   874 net.cpp:481] relu_d2b <- d2b
I0712 13:55:31.066932   874 net.cpp:455] relu_d2b -> relu_d2b
I0712 13:55:31.066958   874 net.cpp:190] Setting up relu_d2b
I0712 13:55:31.066965   874 net.cpp:197] Top shape: 1 256 64 128 (2097152)
I0712 13:55:31.066968   874 net.cpp:205] Memory required for data: 383254532
I0712 13:55:31.066972   874 layer_factory.hpp:123] Creating layer conv_d2b-c
I0712 13:55:31.066978   874 net.cpp:140] Creating Layer conv_d2b-c
I0712 13:55:31.066982   874 net.cpp:481] conv_d2b-c <- relu_d2b
I0712 13:55:31.066987   874 net.cpp:455] conv_d2b-c -> d2c
I0712 13:55:31.073972   874 net.cpp:190] Setting up conv_d2b-c
I0712 13:55:31.073987   874 net.cpp:197] Top shape: 1 256 64 128 (2097152)
I0712 13:55:31.073989   874 net.cpp:205] Memory required for data: 391643140
I0712 13:55:31.073995   874 layer_factory.hpp:123] Creating layer d2c_conv_d2b-c_0_split
I0712 13:55:31.074002   874 net.cpp:140] Creating Layer d2c_conv_d2b-c_0_split
I0712 13:55:31.074005   874 net.cpp:481] d2c_conv_d2b-c_0_split <- d2c
I0712 13:55:31.074010   874 net.cpp:455] d2c_conv_d2b-c_0_split -> d2c_conv_d2b-c_0_split_0
I0712 13:55:31.074018   874 net.cpp:455] d2c_conv_d2b-c_0_split -> d2c_conv_d2b-c_0_split_1
I0712 13:55:31.074050   874 net.cpp:190] Setting up d2c_conv_d2b-c_0_split
I0712 13:55:31.074054   874 net.cpp:197] Top shape: 1 256 64 128 (2097152)
I0712 13:55:31.074059   874 net.cpp:197] Top shape: 1 256 64 128 (2097152)
I0712 13:55:31.074061   874 net.cpp:205] Memory required for data: 408420356
I0712 13:55:31.074064   874 layer_factory.hpp:123] Creating layer BatchNorm_d2c
I0712 13:55:31.074071   874 net.cpp:140] Creating Layer BatchNorm_d2c
I0712 13:55:31.074074   874 net.cpp:481] BatchNorm_d2c <- d2c_conv_d2b-c_0_split_0
I0712 13:55:31.074080   874 net.cpp:455] BatchNorm_d2c -> BatchNorm_d2c
I0712 13:55:31.074604   874 net.cpp:190] Setting up BatchNorm_d2c
I0712 13:55:31.074612   874 net.cpp:197] Top shape: 1 256 64 128 (2097152)
I0712 13:55:31.074615   874 net.cpp:205] Memory required for data: 416808964
I0712 13:55:31.074625   874 layer_factory.hpp:123] Creating layer relu_d2c
I0712 13:55:31.074630   874 net.cpp:140] Creating Layer relu_d2c
I0712 13:55:31.074632   874 net.cpp:481] relu_d2c <- BatchNorm_d2c
I0712 13:55:31.074637   874 net.cpp:455] relu_d2c -> relu_d2c
I0712 13:55:31.074656   874 net.cpp:190] Setting up relu_d2c
I0712 13:55:31.074661   874 net.cpp:197] Top shape: 1 256 64 128 (2097152)
I0712 13:55:31.074664   874 net.cpp:205] Memory required for data: 425197572
I0712 13:55:31.074667   874 layer_factory.hpp:123] Creating layer pool_d2c-3a
I0712 13:55:31.074672   874 net.cpp:140] Creating Layer pool_d2c-3a
I0712 13:55:31.074676   874 net.cpp:481] pool_d2c-3a <- relu_d2c
I0712 13:55:31.074681   874 net.cpp:455] pool_d2c-3a -> d3a
I0712 13:55:31.074707   874 net.cpp:190] Setting up pool_d2c-3a
I0712 13:55:31.074712   874 net.cpp:197] Top shape: 1 256 32 64 (524288)
I0712 13:55:31.074714   874 net.cpp:205] Memory required for data: 427294724
I0712 13:55:31.074717   874 layer_factory.hpp:123] Creating layer conv_d3a-b
I0712 13:55:31.074723   874 net.cpp:140] Creating Layer conv_d3a-b
I0712 13:55:31.074728   874 net.cpp:481] conv_d3a-b <- d3a
I0712 13:55:31.074733   874 net.cpp:455] conv_d3a-b -> d3b
I0712 13:55:31.088876   874 net.cpp:190] Setting up conv_d3a-b
I0712 13:55:31.088896   874 net.cpp:197] Top shape: 1 512 32 64 (1048576)
I0712 13:55:31.088899   874 net.cpp:205] Memory required for data: 431489028
I0712 13:55:31.088907   874 layer_factory.hpp:123] Creating layer relu_d3b
I0712 13:55:31.088917   874 net.cpp:140] Creating Layer relu_d3b
I0712 13:55:31.088920   874 net.cpp:481] relu_d3b <- d3b
I0712 13:55:31.088927   874 net.cpp:455] relu_d3b -> relu_d3b
I0712 13:55:31.088953   874 net.cpp:190] Setting up relu_d3b
I0712 13:55:31.088958   874 net.cpp:197] Top shape: 1 512 32 64 (1048576)
I0712 13:55:31.088960   874 net.cpp:205] Memory required for data: 435683332
I0712 13:55:31.088963   874 layer_factory.hpp:123] Creating layer conv_d3b-c
I0712 13:55:31.088973   874 net.cpp:140] Creating Layer conv_d3b-c
I0712 13:55:31.088976   874 net.cpp:481] conv_d3b-c <- relu_d3b
I0712 13:55:31.088982   874 net.cpp:455] conv_d3b-c -> d3c
I0712 13:55:31.115595   874 net.cpp:190] Setting up conv_d3b-c
I0712 13:55:31.115619   874 net.cpp:197] Top shape: 1 512 32 64 (1048576)
I0712 13:55:31.115622   874 net.cpp:205] Memory required for data: 439877636
I0712 13:55:31.115631   874 layer_factory.hpp:123] Creating layer d3c_conv_d3b-c_0_split
I0712 13:55:31.115640   874 net.cpp:140] Creating Layer d3c_conv_d3b-c_0_split
I0712 13:55:31.115644   874 net.cpp:481] d3c_conv_d3b-c_0_split <- d3c
I0712 13:55:31.115651   874 net.cpp:455] d3c_conv_d3b-c_0_split -> d3c_conv_d3b-c_0_split_0
I0712 13:55:31.115660   874 net.cpp:455] d3c_conv_d3b-c_0_split -> d3c_conv_d3b-c_0_split_1
I0712 13:55:31.115694   874 net.cpp:190] Setting up d3c_conv_d3b-c_0_split
I0712 13:55:31.115700   874 net.cpp:197] Top shape: 1 512 32 64 (1048576)
I0712 13:55:31.115703   874 net.cpp:197] Top shape: 1 512 32 64 (1048576)
I0712 13:55:31.115706   874 net.cpp:205] Memory required for data: 448266244
I0712 13:55:31.115710   874 layer_factory.hpp:123] Creating layer BatchNorm_1
I0712 13:55:31.115720   874 net.cpp:140] Creating Layer BatchNorm_1
I0712 13:55:31.115722   874 net.cpp:481] BatchNorm_1 <- d3c_conv_d3b-c_0_split_0
I0712 13:55:31.115728   874 net.cpp:455] BatchNorm_1 -> BatchNorm_1
I0712 13:55:31.116258   874 net.cpp:190] Setting up BatchNorm_1
I0712 13:55:31.116267   874 net.cpp:197] Top shape: 1 512 32 64 (1048576)
I0712 13:55:31.116271   874 net.cpp:205] Memory required for data: 452460548
I0712 13:55:31.116284   874 layer_factory.hpp:123] Creating layer relu_d3c
I0712 13:55:31.116291   874 net.cpp:140] Creating Layer relu_d3c
I0712 13:55:31.116293   874 net.cpp:481] relu_d3c <- BatchNorm_1
I0712 13:55:31.116298   874 net.cpp:455] relu_d3c -> relu_d3c
I0712 13:55:31.116323   874 net.cpp:190] Setting up relu_d3c
I0712 13:55:31.116328   874 net.cpp:197] Top shape: 1 512 32 64 (1048576)
I0712 13:55:31.116331   874 net.cpp:205] Memory required for data: 456654852
I0712 13:55:31.116333   874 layer_factory.hpp:123] Creating layer pool_d3c-4a
I0712 13:55:31.116339   874 net.cpp:140] Creating Layer pool_d3c-4a
I0712 13:55:31.116343   874 net.cpp:481] pool_d3c-4a <- relu_d3c
I0712 13:55:31.116348   874 net.cpp:455] pool_d3c-4a -> d4a
I0712 13:55:31.116375   874 net.cpp:190] Setting up pool_d3c-4a
I0712 13:55:31.116381   874 net.cpp:197] Top shape: 1 512 16 32 (262144)
I0712 13:55:31.116384   874 net.cpp:205] Memory required for data: 457703428
I0712 13:55:31.116387   874 layer_factory.hpp:123] Creating layer conv_d4a-b
I0712 13:55:31.116395   874 net.cpp:140] Creating Layer conv_d4a-b
I0712 13:55:31.116400   874 net.cpp:481] conv_d4a-b <- d4a
I0712 13:55:31.116405   874 net.cpp:455] conv_d4a-b -> d4b
I0712 13:55:31.169189   874 net.cpp:190] Setting up conv_d4a-b
I0712 13:55:31.169216   874 net.cpp:197] Top shape: 1 1024 16 32 (524288)
I0712 13:55:31.169219   874 net.cpp:205] Memory required for data: 459800580
I0712 13:55:31.169227   874 layer_factory.hpp:123] Creating layer BatchNorm_2
I0712 13:55:31.169239   874 net.cpp:140] Creating Layer BatchNorm_2
I0712 13:55:31.169243   874 net.cpp:481] BatchNorm_2 <- d4b
I0712 13:55:31.169251   874 net.cpp:455] BatchNorm_2 -> BatchNorm_2
I0712 13:55:31.169782   874 net.cpp:190] Setting up BatchNorm_2
I0712 13:55:31.169791   874 net.cpp:197] Top shape: 1 1024 16 32 (524288)
I0712 13:55:31.169795   874 net.cpp:205] Memory required for data: 461897732
I0712 13:55:31.169802   874 layer_factory.hpp:123] Creating layer relu_d4b
I0712 13:55:31.169808   874 net.cpp:140] Creating Layer relu_d4b
I0712 13:55:31.169811   874 net.cpp:481] relu_d4b <- BatchNorm_2
I0712 13:55:31.169816   874 net.cpp:455] relu_d4b -> relu_d4b
I0712 13:55:31.169837   874 net.cpp:190] Setting up relu_d4b
I0712 13:55:31.169842   874 net.cpp:197] Top shape: 1 1024 16 32 (524288)
I0712 13:55:31.169844   874 net.cpp:205] Memory required for data: 463994884
I0712 13:55:31.169847   874 layer_factory.hpp:123] Creating layer conv_d4b-c
I0712 13:55:31.169857   874 net.cpp:140] Creating Layer conv_d4b-c
I0712 13:55:31.169862   874 net.cpp:481] conv_d4b-c <- relu_d4b
I0712 13:55:31.169867   874 net.cpp:455] conv_d4b-c -> d4c
I0712 13:55:31.276870   874 net.cpp:190] Setting up conv_d4b-c
I0712 13:55:31.276890   874 net.cpp:197] Top shape: 1 1024 16 32 (524288)
I0712 13:55:31.276895   874 net.cpp:205] Memory required for data: 466092036
I0712 13:55:31.276901   874 layer_factory.hpp:123] Creating layer relu_d4c
I0712 13:55:31.276911   874 net.cpp:140] Creating Layer relu_d4c
I0712 13:55:31.276914   874 net.cpp:481] relu_d4c <- d4c
I0712 13:55:31.276921   874 net.cpp:455] relu_d4c -> relu_d4c
I0712 13:55:31.276948   874 net.cpp:190] Setting up relu_d4c
I0712 13:55:31.276953   874 net.cpp:197] Top shape: 1 1024 16 32 (524288)
I0712 13:55:31.276957   874 net.cpp:205] Memory required for data: 468189188
I0712 13:55:31.276959   874 layer_factory.hpp:123] Creating layer upconv_d4c_u3a
I0712 13:55:31.276968   874 net.cpp:140] Creating Layer upconv_d4c_u3a
I0712 13:55:31.276970   874 net.cpp:481] upconv_d4c_u3a <- relu_d4c
I0712 13:55:31.276976   874 net.cpp:455] upconv_d4c_u3a -> u3a
I0712 13:55:31.300571   874 net.cpp:190] Setting up upconv_d4c_u3a
I0712 13:55:31.300595   874 net.cpp:197] Top shape: 1 512 32 64 (1048576)
I0712 13:55:31.300598   874 net.cpp:205] Memory required for data: 472383492
I0712 13:55:31.300606   874 layer_factory.hpp:123] Creating layer relu_u3a
I0712 13:55:31.300616   874 net.cpp:140] Creating Layer relu_u3a
I0712 13:55:31.300621   874 net.cpp:481] relu_u3a <- u3a
I0712 13:55:31.300627   874 net.cpp:442] relu_u3a -> u3a (in-place)
I0712 13:55:31.300637   874 net.cpp:190] Setting up relu_u3a
I0712 13:55:31.300640   874 net.cpp:197] Top shape: 1 512 32 64 (1048576)
I0712 13:55:31.300643   874 net.cpp:205] Memory required for data: 476577796
I0712 13:55:31.300645   874 layer_factory.hpp:123] Creating layer concat_d3cc_u3a-b
I0712 13:55:31.300652   874 net.cpp:140] Creating Layer concat_d3cc_u3a-b
I0712 13:55:31.300654   874 net.cpp:481] concat_d3cc_u3a-b <- u3a
I0712 13:55:31.300658   874 net.cpp:481] concat_d3cc_u3a-b <- d3c_conv_d3b-c_0_split_1
I0712 13:55:31.300663   874 net.cpp:455] concat_d3cc_u3a-b -> u3b
I0712 13:55:31.300688   874 net.cpp:190] Setting up concat_d3cc_u3a-b
I0712 13:55:31.300693   874 net.cpp:197] Top shape: 1 1024 32 64 (2097152)
I0712 13:55:31.300695   874 net.cpp:205] Memory required for data: 484966404
I0712 13:55:31.300698   874 layer_factory.hpp:123] Creating layer conv_u3b-c
I0712 13:55:31.300705   874 net.cpp:140] Creating Layer conv_u3b-c
I0712 13:55:31.300709   874 net.cpp:481] conv_u3b-c <- u3b
I0712 13:55:31.300714   874 net.cpp:455] conv_u3b-c -> u3c
I0712 13:55:31.354327   874 net.cpp:190] Setting up conv_u3b-c
I0712 13:55:31.354352   874 net.cpp:197] Top shape: 1 512 32 64 (1048576)
I0712 13:55:31.354357   874 net.cpp:205] Memory required for data: 489160708
I0712 13:55:31.354364   874 layer_factory.hpp:123] Creating layer relu_u3c
I0712 13:55:31.354373   874 net.cpp:140] Creating Layer relu_u3c
I0712 13:55:31.354378   874 net.cpp:481] relu_u3c <- u3c
I0712 13:55:31.354384   874 net.cpp:442] relu_u3c -> u3c (in-place)
I0712 13:55:31.354393   874 net.cpp:190] Setting up relu_u3c
I0712 13:55:31.354398   874 net.cpp:197] Top shape: 1 512 32 64 (1048576)
I0712 13:55:31.354400   874 net.cpp:205] Memory required for data: 493355012
I0712 13:55:31.354403   874 layer_factory.hpp:123] Creating layer conv_u3c-d
I0712 13:55:31.354413   874 net.cpp:140] Creating Layer conv_u3c-d
I0712 13:55:31.354415   874 net.cpp:481] conv_u3c-d <- u3c
I0712 13:55:31.354419   874 net.cpp:455] conv_u3c-d -> u3d
I0712 13:55:31.380888   874 net.cpp:190] Setting up conv_u3c-d
I0712 13:55:31.380908   874 net.cpp:197] Top shape: 1 512 32 64 (1048576)
I0712 13:55:31.380911   874 net.cpp:205] Memory required for data: 497549316
I0712 13:55:31.380919   874 layer_factory.hpp:123] Creating layer relu_u3d
I0712 13:55:31.380928   874 net.cpp:140] Creating Layer relu_u3d
I0712 13:55:31.380933   874 net.cpp:481] relu_u3d <- u3d
I0712 13:55:31.380937   874 net.cpp:442] relu_u3d -> u3d (in-place)
I0712 13:55:31.380946   874 net.cpp:190] Setting up relu_u3d
I0712 13:55:31.380951   874 net.cpp:197] Top shape: 1 512 32 64 (1048576)
I0712 13:55:31.380954   874 net.cpp:205] Memory required for data: 501743620
I0712 13:55:31.380956   874 layer_factory.hpp:123] Creating layer upconv_u3d_u2a
I0712 13:55:31.380964   874 net.cpp:140] Creating Layer upconv_u3d_u2a
I0712 13:55:31.380969   874 net.cpp:481] upconv_u3d_u2a <- u3d
I0712 13:55:31.380973   874 net.cpp:455] upconv_u3d_u2a -> u2a
I0712 13:55:31.392976   874 net.cpp:190] Setting up upconv_u3d_u2a
I0712 13:55:31.392992   874 net.cpp:197] Top shape: 1 512 64 128 (4194304)
I0712 13:55:31.392997   874 net.cpp:205] Memory required for data: 518520836
I0712 13:55:31.393002   874 layer_factory.hpp:123] Creating layer relu_u2a
I0712 13:55:31.393009   874 net.cpp:140] Creating Layer relu_u2a
I0712 13:55:31.393013   874 net.cpp:481] relu_u2a <- u2a
I0712 13:55:31.393018   874 net.cpp:442] relu_u2a -> u2a (in-place)
I0712 13:55:31.393026   874 net.cpp:190] Setting up relu_u2a
I0712 13:55:31.393030   874 net.cpp:197] Top shape: 1 512 64 128 (4194304)
I0712 13:55:31.393033   874 net.cpp:205] Memory required for data: 535298052
I0712 13:55:31.393035   874 layer_factory.hpp:123] Creating layer concat_d2cc_u2a-b
I0712 13:55:31.393040   874 net.cpp:140] Creating Layer concat_d2cc_u2a-b
I0712 13:55:31.393043   874 net.cpp:481] concat_d2cc_u2a-b <- u2a
I0712 13:55:31.393048   874 net.cpp:481] concat_d2cc_u2a-b <- d2c_conv_d2b-c_0_split_1
I0712 13:55:31.393052   874 net.cpp:455] concat_d2cc_u2a-b -> u2b
I0712 13:55:31.393076   874 net.cpp:190] Setting up concat_d2cc_u2a-b
I0712 13:55:31.393081   874 net.cpp:197] Top shape: 1 768 64 128 (6291456)
I0712 13:55:31.393085   874 net.cpp:205] Memory required for data: 560463876
I0712 13:55:31.393087   874 layer_factory.hpp:123] Creating layer conv_u2b-c
I0712 13:55:31.393095   874 net.cpp:140] Creating Layer conv_u2b-c
I0712 13:55:31.393098   874 net.cpp:481] conv_u2b-c <- u2b
I0712 13:55:31.393103   874 net.cpp:455] conv_u2b-c -> u2c
I0712 13:55:31.413190   874 net.cpp:190] Setting up conv_u2b-c
I0712 13:55:31.413208   874 net.cpp:197] Top shape: 1 256 64 128 (2097152)
I0712 13:55:31.413213   874 net.cpp:205] Memory required for data: 568852484
I0712 13:55:31.413219   874 layer_factory.hpp:123] Creating layer relu_u2c
I0712 13:55:31.413228   874 net.cpp:140] Creating Layer relu_u2c
I0712 13:55:31.413233   874 net.cpp:481] relu_u2c <- u2c
I0712 13:55:31.413237   874 net.cpp:442] relu_u2c -> u2c (in-place)
I0712 13:55:31.413245   874 net.cpp:190] Setting up relu_u2c
I0712 13:55:31.413250   874 net.cpp:197] Top shape: 1 256 64 128 (2097152)
I0712 13:55:31.413252   874 net.cpp:205] Memory required for data: 577241092
I0712 13:55:31.413255   874 layer_factory.hpp:123] Creating layer conv_u2c-d
I0712 13:55:31.413264   874 net.cpp:140] Creating Layer conv_u2c-d
I0712 13:55:31.413266   874 net.cpp:481] conv_u2c-d <- u2c
I0712 13:55:31.413271   874 net.cpp:455] conv_u2c-d -> u2d
I0712 13:55:31.420423   874 net.cpp:190] Setting up conv_u2c-d
I0712 13:55:31.420435   874 net.cpp:197] Top shape: 1 256 64 128 (2097152)
I0712 13:55:31.420439   874 net.cpp:205] Memory required for data: 585629700
I0712 13:55:31.420445   874 layer_factory.hpp:123] Creating layer relu_u2d
I0712 13:55:31.420450   874 net.cpp:140] Creating Layer relu_u2d
I0712 13:55:31.420454   874 net.cpp:481] relu_u2d <- u2d
I0712 13:55:31.420459   874 net.cpp:442] relu_u2d -> u2d (in-place)
I0712 13:55:31.420466   874 net.cpp:190] Setting up relu_u2d
I0712 13:55:31.420470   874 net.cpp:197] Top shape: 1 256 64 128 (2097152)
I0712 13:55:31.420473   874 net.cpp:205] Memory required for data: 594018308
I0712 13:55:31.420476   874 layer_factory.hpp:123] Creating layer upconv_u2d_u1a
I0712 13:55:31.420483   874 net.cpp:140] Creating Layer upconv_u2d_u1a
I0712 13:55:31.420486   874 net.cpp:481] upconv_u2d_u1a <- u2d
I0712 13:55:31.420491   874 net.cpp:455] upconv_u2d_u1a -> u1a
I0712 13:55:31.421903   874 net.cpp:190] Setting up upconv_u2d_u1a
I0712 13:55:31.421912   874 net.cpp:197] Top shape: 1 128 128 256 (4194304)
I0712 13:55:31.421914   874 net.cpp:205] Memory required for data: 610795524
I0712 13:55:31.421919   874 layer_factory.hpp:123] Creating layer relu_u1a
I0712 13:55:31.421926   874 net.cpp:140] Creating Layer relu_u1a
I0712 13:55:31.421928   874 net.cpp:481] relu_u1a <- u1a
I0712 13:55:31.421932   874 net.cpp:442] relu_u1a -> u1a (in-place)
I0712 13:55:31.421938   874 net.cpp:190] Setting up relu_u1a
I0712 13:55:31.421941   874 net.cpp:197] Top shape: 1 128 128 256 (4194304)
I0712 13:55:31.421944   874 net.cpp:205] Memory required for data: 627572740
I0712 13:55:31.421947   874 layer_factory.hpp:123] Creating layer concat_d1cc_u1a-b
I0712 13:55:31.421952   874 net.cpp:140] Creating Layer concat_d1cc_u1a-b
I0712 13:55:31.421955   874 net.cpp:481] concat_d1cc_u1a-b <- u1a
I0712 13:55:31.421958   874 net.cpp:481] concat_d1cc_u1a-b <- d1c_conv_d1b-c_0_split_1
I0712 13:55:31.421963   874 net.cpp:455] concat_d1cc_u1a-b -> u1b
I0712 13:55:31.421988   874 net.cpp:190] Setting up concat_d1cc_u1a-b
I0712 13:55:31.421993   874 net.cpp:197] Top shape: 1 256 128 256 (8388608)
I0712 13:55:31.421994   874 net.cpp:205] Memory required for data: 661127172
I0712 13:55:31.421998   874 layer_factory.hpp:123] Creating layer conv_u1b-c
I0712 13:55:31.422004   874 net.cpp:140] Creating Layer conv_u1b-c
I0712 13:55:31.422008   874 net.cpp:481] conv_u1b-c <- u1b
I0712 13:55:31.422013   874 net.cpp:455] conv_u1b-c -> u1c
I0712 13:55:31.426278   874 net.cpp:190] Setting up conv_u1b-c
I0712 13:55:31.426291   874 net.cpp:197] Top shape: 1 128 128 256 (4194304)
I0712 13:55:31.426295   874 net.cpp:205] Memory required for data: 677904388
I0712 13:55:31.426301   874 layer_factory.hpp:123] Creating layer relu_u1c
I0712 13:55:31.426306   874 net.cpp:140] Creating Layer relu_u1c
I0712 13:55:31.426309   874 net.cpp:481] relu_u1c <- u1c
I0712 13:55:31.426313   874 net.cpp:442] relu_u1c -> u1c (in-place)
I0712 13:55:31.426321   874 net.cpp:190] Setting up relu_u1c
I0712 13:55:31.426324   874 net.cpp:197] Top shape: 1 128 128 256 (4194304)
I0712 13:55:31.426326   874 net.cpp:205] Memory required for data: 694681604
I0712 13:55:31.426331   874 layer_factory.hpp:123] Creating layer conv_u1c-d
I0712 13:55:31.426337   874 net.cpp:140] Creating Layer conv_u1c-d
I0712 13:55:31.426339   874 net.cpp:481] conv_u1c-d <- u1c
I0712 13:55:31.426344   874 net.cpp:455] conv_u1c-d -> u1d
I0712 13:55:31.427882   874 net.cpp:190] Setting up conv_u1c-d
I0712 13:55:31.427891   874 net.cpp:197] Top shape: 1 128 128 256 (4194304)
I0712 13:55:31.427894   874 net.cpp:205] Memory required for data: 711458820
I0712 13:55:31.427899   874 layer_factory.hpp:123] Creating layer relu_u1d
I0712 13:55:31.427904   874 net.cpp:140] Creating Layer relu_u1d
I0712 13:55:31.427908   874 net.cpp:481] relu_u1d <- u1d
I0712 13:55:31.427912   874 net.cpp:442] relu_u1d -> u1d (in-place)
I0712 13:55:31.427917   874 net.cpp:190] Setting up relu_u1d
I0712 13:55:31.427922   874 net.cpp:197] Top shape: 1 128 128 256 (4194304)
I0712 13:55:31.427924   874 net.cpp:205] Memory required for data: 728236036
I0712 13:55:31.427927   874 layer_factory.hpp:123] Creating layer upconv_u1d_u0a_NEW
I0712 13:55:31.427933   874 net.cpp:140] Creating Layer upconv_u1d_u0a_NEW
I0712 13:55:31.427937   874 net.cpp:481] upconv_u1d_u0a_NEW <- u1d
I0712 13:55:31.427942   874 net.cpp:455] upconv_u1d_u0a_NEW -> u0a
I0712 13:55:31.428547   874 net.cpp:190] Setting up upconv_u1d_u0a_NEW
I0712 13:55:31.428555   874 net.cpp:197] Top shape: 1 64 256 512 (8388608)
I0712 13:55:31.428558   874 net.cpp:205] Memory required for data: 761790468
I0712 13:55:31.428570   874 layer_factory.hpp:123] Creating layer relu_u0a
I0712 13:55:31.428575   874 net.cpp:140] Creating Layer relu_u0a
I0712 13:55:31.428577   874 net.cpp:481] relu_u0a <- u0a
I0712 13:55:31.428582   874 net.cpp:442] relu_u0a -> u0a (in-place)
I0712 13:55:31.428587   874 net.cpp:190] Setting up relu_u0a
I0712 13:55:31.428591   874 net.cpp:197] Top shape: 1 64 256 512 (8388608)
I0712 13:55:31.428593   874 net.cpp:205] Memory required for data: 795344900
I0712 13:55:31.428596   874 layer_factory.hpp:123] Creating layer concat_d0cc_u0a-b
I0712 13:55:31.428601   874 net.cpp:140] Creating Layer concat_d0cc_u0a-b
I0712 13:55:31.428604   874 net.cpp:481] concat_d0cc_u0a-b <- u0a
I0712 13:55:31.428607   874 net.cpp:481] concat_d0cc_u0a-b <- d0c_conv_d0b-c_0_split_1
I0712 13:55:31.428612   874 net.cpp:455] concat_d0cc_u0a-b -> u0b
I0712 13:55:31.428637   874 net.cpp:190] Setting up concat_d0cc_u0a-b
I0712 13:55:31.428640   874 net.cpp:197] Top shape: 1 128 256 512 (16777216)
I0712 13:55:31.428643   874 net.cpp:205] Memory required for data: 862453764
I0712 13:55:31.428647   874 layer_factory.hpp:123] Creating layer conv_u0b-c_New
I0712 13:55:31.428653   874 net.cpp:140] Creating Layer conv_u0b-c_New
I0712 13:55:31.428656   874 net.cpp:481] conv_u0b-c_New <- u0b
I0712 13:55:31.428661   874 net.cpp:455] conv_u0b-c_New -> u0c
I0712 13:55:31.429610   874 net.cpp:190] Setting up conv_u0b-c_New
I0712 13:55:31.429620   874 net.cpp:197] Top shape: 1 64 256 512 (8388608)
I0712 13:55:31.429622   874 net.cpp:205] Memory required for data: 896008196
I0712 13:55:31.429627   874 layer_factory.hpp:123] Creating layer relu_u0c
I0712 13:55:31.429632   874 net.cpp:140] Creating Layer relu_u0c
I0712 13:55:31.429636   874 net.cpp:481] relu_u0c <- u0c
I0712 13:55:31.429639   874 net.cpp:442] relu_u0c -> u0c (in-place)
I0712 13:55:31.429644   874 net.cpp:190] Setting up relu_u0c
I0712 13:55:31.429648   874 net.cpp:197] Top shape: 1 64 256 512 (8388608)
I0712 13:55:31.429651   874 net.cpp:205] Memory required for data: 929562628
I0712 13:55:31.429654   874 layer_factory.hpp:123] Creating layer conv_u0c-d_New
I0712 13:55:31.429661   874 net.cpp:140] Creating Layer conv_u0c-d_New
I0712 13:55:31.429664   874 net.cpp:481] conv_u0c-d_New <- u0c
I0712 13:55:31.429669   874 net.cpp:455] conv_u0c-d_New -> u0d
I0712 13:55:31.430306   874 net.cpp:190] Setting up conv_u0c-d_New
I0712 13:55:31.430315   874 net.cpp:197] Top shape: 1 64 256 512 (8388608)
I0712 13:55:31.430317   874 net.cpp:205] Memory required for data: 963117060
I0712 13:55:31.430322   874 layer_factory.hpp:123] Creating layer relu_u0d
I0712 13:55:31.430327   874 net.cpp:140] Creating Layer relu_u0d
I0712 13:55:31.430330   874 net.cpp:481] relu_u0d <- u0d
I0712 13:55:31.430335   874 net.cpp:442] relu_u0d -> u0d (in-place)
I0712 13:55:31.430341   874 net.cpp:190] Setting up relu_u0d
I0712 13:55:31.430343   874 net.cpp:197] Top shape: 1 64 256 512 (8388608)
I0712 13:55:31.430346   874 net.cpp:205] Memory required for data: 996671492
I0712 13:55:31.430349   874 layer_factory.hpp:123] Creating layer conv_u0d-score_New
I0712 13:55:31.430356   874 net.cpp:140] Creating Layer conv_u0d-score_New
I0712 13:55:31.430358   874 net.cpp:481] conv_u0d-score_New <- u0d
I0712 13:55:31.430363   874 net.cpp:455] conv_u0d-score_New -> conv_u0d-score_New
I0712 13:55:31.430696   874 net.cpp:190] Setting up conv_u0d-score_New
I0712 13:55:31.430704   874 net.cpp:197] Top shape: 1 19 256 512 (2490368)
I0712 13:55:31.430707   874 net.cpp:205] Memory required for data: 1006632964
I0712 13:55:31.430712   874 layer_factory.hpp:123] Creating layer score
I0712 13:55:31.430718   874 net.cpp:140] Creating Layer score
I0712 13:55:31.430721   874 net.cpp:481] score <- conv_u0d-score_New
I0712 13:55:31.430725   874 net.cpp:455] score -> score
I0712 13:55:31.430783   874 net.cpp:190] Setting up score
I0712 13:55:31.430789   874 net.cpp:197] Top shape: 1 19 256 512 (2490368)
I0712 13:55:31.430793   874 net.cpp:205] Memory required for data: 1016594436
I0712 13:55:31.430795   874 net.cpp:268] score does not need backward computation.
I0712 13:55:31.430809   874 net.cpp:268] conv_u0d-score_New does not need backward computation.
I0712 13:55:31.430811   874 net.cpp:268] relu_u0d does not need backward computation.
I0712 13:55:31.430814   874 net.cpp:268] conv_u0c-d_New does not need backward computation.
…
I0712 13:55:32.111321   874 net.cpp:98] Initializing net from parameters: 
state {
  phase: TRAIN
}
layer {
  name: "data"
  type: "ImageData"
  top: "data"
  top: "label"
  include {
    phase: TRAIN
  }
  transform_param {
    scale: 0.022
    mean_value: 73
    mean_value: 82
    mean_value: 72
    resize_param {
      prob: 1
      resize_mode: WARP
      height: 256
      width: 512
    }
  }
  image_data_param {
    source: "../data/cityscapes/calibration.txt"
    batch_size: 1
    shuffle: true
    new_height: 256
    new_width: 512
    root_folder: "../data/cityscapes/calibration_images/"
  }
}
layer {
  name: "data_fixed"
  type: "FixedNeuron"
  bottom: "data"
  top: "data"
  param {
    lr_mult: 0
    decay_mult: 0
  }
  fixed_param {
    fixed_method: OVER_FLOW
    bit_width: 8
    follow_data_layer: true
  }
}
layer {
  name: "conv_d0a-b"
  type: "ConvolutionFixed"
  bottom: "data"
  top: "d0b"
  param {
    lr_mult: 1
    decay_mult: 1
  }
  param {
    lr_mult: 2
    decay_mult: 0
  }
  convolution_param {
    num_output: 64
    pad: 1
    kernel_size: 3
    stride: 1
    weight_filler {
      type: "msra"
    }
  }
  fixed_param {
    fixed_method: DIFF_S
    bit_width: 8
  }
}
layer {
  name: "relu_d0b"
  type: "ReLU"
  bottom: "d0b"
  top: "relu_d0b"
}
layer {
  name: "relu_d0b_fixed"
  type: "FixedNeuron"
  bottom: "relu_d0b"
  top: "relu_d0b"
  param {
    lr_mult: 0
    decay_mult: 0
  }
  fixed_param {
    fixed_method: DIFF_S
    bit_width: 8
  }
}
layer {
  name: "conv_d0b-c"
  type: "ConvolutionFixed"
  bottom: "relu_d0b"
  top: "d0c"
  param {
    lr_mult: 1
    decay_mult: 1
  }
  param {
    lr_mult: 2
    decay_mult: 0
  }
  convolution_param {
    num_output: 64
    pad: 1
    kernel_size: 3
    weight_filler {
      type: "msra"
    }
  }
  fixed_param {
    fixed_method: DIFF_S
    bit_width: 8
  }
}
layer {
  name: "d0c_fixed"
  type: "FixedNeuron"
  bottom: "d0c"
  top: "d0c"
  param {
    lr_mult: 0
    decay_mult: 0
  }
  fixed_param {
    fixed_method: DIFF_S
    bit_width: 8
  }
}
layer {
  name: "BatchNorm_d0c"
  type: "ScaleFixed"
  bottom: "d0c"
  top: "BatchNorm_d0c"
  param {
    lr_mult: 1
    decay_mult: 1
  }
  param {
    lr_mult: 1
    decay_mult: 0
  }
  scale_param {
    bias_term: true
  }
  fixed_param {
    fixed_method: DIFF_S
    bit_width: 8
  }
}
layer {
  name: "relu_d0c"
  type: "ReLU"
  bottom: "BatchNorm_d0c"
  top: "relu_d0c"
}
layer {
  name: "pool_d0c-1a"
  type: "Pooling"
  bottom: "relu_d0c"
  top: "d1a"
  pooling_param {
    pool: MAX
    kernel_size: 2
    stride: 2
  }
}
layer {
  name: "d1a_fixed"
  type: "FixedNeuron"
  bottom: "d1a"
  top: "d1a"
  param {
    lr_mult: 0
    decay_mult: 0
  }
  fixed_param {
    fixed_method: DIFF_S
    bit_width: 8
  }
}
layer {
  name: "conv_d1a-b"
  type: "ConvolutionFixed"
  bottom: "d1a"
  top: "d1b"
  param {
    lr_mult: 1
    decay_mult: 1
  }
  param {
    lr_mult: 2
    decay_mult: 0
  }
  convolution_param {
    num_output: 128
    pad: 1
    kernel_size: 3
    weight_filler {
      type: "msra"
    }
  }
  fixed_param {
    fixed_method: DIFF_S
    bit_width: 8
  }
}
layer {
  name: "relu_d1b"
  type: "ReLU"
  bottom: "d1b"
  top: "relu_d1b"
}
layer {
  name: "relu_d1b_fixed"
  type: "FixedNeuron"
  bottom: "relu_d1b"
  top: "relu_d1b"
  param {
    lr_mult: 0
    decay_mult: 0
  }
  fixed_param {
    fixed_method: DIFF_S
    bit_width: 8
  }
}
layer {
  name: "conv_d1b-c"
  type: "ConvolutionFixed"
  bottom: "relu_d1b"
  top: "d1c"
  param {
    lr_mult: 1
    decay_mult: 1
  }
  param {
    lr_mult: 2
    decay_mult: 0
  }
  convolution_param {
    num_output: 128
    pad: 1
    kernel_size: 3
    weight_filler {
      type: "msra"
    }
  }
  fixed_param {
    fixed_method: DIFF_S
    bit_width: 8
  }
}
layer {
  name: "d1c_fixed"
  type: "FixedNeuron"
  bottom: "d1c"
  top: "d1c"
  param {
    lr_mult: 0
    decay_mult: 0
  }
  fixed_param {
    fixed_method: DIFF_S
    bit_width: 8
  }
}
layer {
  name: "BatchNorm_d1c"
  type: "ScaleFixed"
  bottom: "d1c"
  top: "BatchNorm_d1c"
  param {
    lr_mult: 1
    decay_mult: 1
  }
  param {
    lr_mult: 1
    decay_mult: 0
  }
  scale_param {
    bias_term: true
  }
  fixed_param {
    fixed_method: DIFF_S
    bit_width: 8
  }
}
layer {
  name: "relu_d1c"
  type: "ReLU"
  bottom: "BatchNorm_d1c"
  top: "relu_d1c"
}
layer {
  name: "pool_d1c-2a"
  type: "Pooling"
  bottom: "relu_d1c"
  top: "d2a"
  pooling_param {
    pool: MAX
    kernel_size: 2
    stride: 2
  }
}
layer {
  name: "d2a_fixed"
  type: "FixedNeuron"
  bottom: "d2a"
  top: "d2a"
  param {
    lr_mult: 0
    decay_mult: 0
  }
  fixed_param {
    fixed_method: DIFF_S
    bit_width: 8
  }
}
layer {
  name: "conv_d2a-b"
  type: "ConvolutionFixed"
  bottom: "d2a"
  top: "d2b"
  param {
    lr_mult: 1
    decay_mult: 1
  }
  param {
    lr_mult: 2
    decay_mult: 0
  }
  convolution_param {
    num_output: 256
    pad: 1
    kernel_size: 3
    weight_filler {
      type: "msra"
    }
  }
  fixed_param {
    fixed_method: DIFF_S
    bit_width: 8
  }
}
layer {
  name: "relu_d2b"
  type: "ReLU"
  bottom: "d2b"
  top: "relu_d2b"
}
layer {
  name: "relu_d2b_fixed"
  type: "FixedNeuron"
  bottom: "relu_d2b"
  top: "relu_d2b"
  param {
    lr_mult: 0
    decay_mult: 0
  }
  fixed_param {
    fixed_method: DIFF_S
    bit_width: 8
  }
}
layer {
  name: "conv_d2b-c"
  type: "ConvolutionFixed"
  bottom: "relu_d2b"
  top: "d2c"
  param {
    lr_mult: 1
    decay_mult: 1
  }
  param {
    lr_mult: 2
    decay_mult: 0
  }
  convolution_param {
    num_output: 256
    pad: 1
    kernel_size: 3
    weight_filler {
      type: "msra"
    }
  }
  fixed_param {
    fixed_method: DIFF_S
    bit_width: 8
  }
}
layer {
  name: "d2c_fixed"
  type: "FixedNeuron"
  bottom: "d2c"
  top: "d2c"
  param {
    lr_mult: 0
    decay_mult: 0
  }
  fixed_param {
    fixed_method: DIFF_S
    bit_width: 8
  }
}
layer {
  name: "BatchNorm_d2c"
  type: "ScaleFixed"
  bottom: "d2c"
  top: "BatchNorm_d2c"
  param {
    lr_mult: 1
    decay_mult: 1
  }
  param {
    lr_mult: 1
    decay_mult: 0
  }
  scale_param {
    bias_term: true
  }
  fixed_param {
    fixed_method: DIFF_S
    bit_width: 8
  }
}
layer {
  name: "relu_d2c"
  type: "ReLU"
  bottom: "BatchNorm_d2c"
  top: "relu_d2c"
}
layer {
  name: "pool_d2c-3a"
  type: "Pooling"
  bottom: "relu_d2c"
  top: "d3a"
  pooling_param {
    pool: MAX
    kernel_size: 2
    stride: 2
  }
}
layer {
  name: "d3a_fixed"
  type: "FixedNeuron"
  bottom: "d3a"
  top: "d3a"
  param {
    lr_mult: 0
    decay_mult: 0
  }
  fixed_param {
    fixed_method: DIFF_S
    bit_width: 8
  }
}
layer {
  name: "conv_d3a-b"
  type: "ConvolutionFixed"
  bottom: "d3a"
  top: "d3b"
  param {
    lr_mult: 1
    decay_mult: 1
  }
  param {
    lr_mult: 2
    decay_mult: 0
  }
  convolution_param {
    num_output: 512
    pad: 1
    kernel_size: 3
    weight_filler {
      type: "msra"
    }
  }
  fixed_param {
    fixed_method: DIFF_S
    bit_width: 8
  }
}
layer {
  name: "relu_d3b"
  type: "ReLU"
  bottom: "d3b"
  top: "relu_d3b"
}
layer {
  name: "relu_d3b_fixed"
  type: "FixedNeuron"
  bottom: "relu_d3b"
  top: "relu_d3b"
  param {
    lr_mult: 0
    decay_mult: 0
  }
  fixed_param {
    fixed_method: DIFF_S
    bit_width: 8
  }
}
layer {
  name: "conv_d3b-c"
  type: "ConvolutionFixed"
  bottom: "relu_d3b"
  top: "d3c"
  param {
    lr_mult: 1
    decay_mult: 1
  }
  param {
    lr_mult: 2
    decay_mult: 0
  }
  convolution_param {
    num_output: 512
    pad: 1
    kernel_size: 3
    weight_filler {
      type: "msra"
    }
  }
  fixed_param {
    fixed_method: DIFF_S
    bit_width: 8
  }
}
layer {
  name: "d3c_fixed"
  type: "FixedNeuron"
  bottom: "d3c"
  top: "d3c"
  param {
    lr_mult: 0
    decay_mult: 0
  }
  fixed_param {
    fixed_method: DIFF_S
    bit_width: 8
  }
}
layer {
  name: "BatchNorm_1"
  type: "ScaleFixed"
  bottom: "d3c"
  top: "BatchNorm_1"
  param {
    lr_mult: 1
    decay_mult: 1
  }
  param {
    lr_mult: 1
    decay_mult: 0
  }
  scale_param {
    bias_term: true
  }
  fixed_param {
    fixed_method: DIFF_S
    bit_width: 8
  }
}
layer {
  name: "relu_d3c"
  type: "ReLU"
  bottom: "BatchNorm_1"
  top: "relu_d3c"
}
layer {
  name: "pool_d3c-4a"
  type: "Pooling"
  bottom: "relu_d3c"
  top: "d4a"
  pooling_param {
    pool: MAX
    kernel_size: 2
    stride: 2
  }
}
layer {
  name: "d4a_fixed"
  type: "FixedNeuron"
  bottom: "d4a"
  top: "d4a"
  param {
    lr_mult: 0
    decay_mult: 0
  }
  fixed_param {
    fixed_method: DIFF_S
    bit_width: 8
  }
}
layer {
  name: "conv_d4a-b"
  type: "ConvolutionFixed"
  bottom: "d4a"
  top: "BatchNorm_2"
  param {
    lr_mult: 1
    decay_mult: 1
  }
  param {
    lr_mult: 1
    decay_mult: 0
  }
  convolution_param {
    num_output: 1024
    bias_term: true
    pad: 1
    kernel_size: 3
    weight_filler {
      type: "msra"
    }
  }
  fixed_param {
    fixed_method: DIFF_S
    bit_width: 8
  }
}
layer {
  name: "relu_d4b"
  type: "ReLU"
  bottom: "BatchNorm_2"
  top: "relu_d4b"
}
layer {
  name: "relu_d4b_fixed"
  type: "FixedNeuron"
  bottom: "relu_d4b"
  top: "relu_d4b"
  param {
    lr_mult: 0
    decay_mult: 0
  }
  fixed_param {
    fixed_method: DIFF_S
    bit_width: 8
  }
}
layer {
  name: "conv_d4b-c"
  type: "ConvolutionFixed"
  bottom: "relu_d4b"
  top: "d4c"
  param {
    lr_mult: 1
    decay_mult: 1
  }
  param {
    lr_mult: 2
    decay_mult: 0
  }
  convolution_param {
    num_output: 1024
    pad: 1
    kernel_size: 3
    weight_filler {
      type: "msra"
    }
  }
  fixed_param {
    fixed_method: DIFF_S
    bit_width: 8
  }
}
layer {
  name: "relu_d4c"
  type: "ReLU"
  bottom: "d4c"
  top: "relu_d4c"
}
layer {
  name: "relu_d4c_fixed"
  type: "FixedNeuron"
  bottom: "relu_d4c"
  top: "relu_d4c"
  param {
    lr_mult: 0
    decay_mult: 0
  }
  fixed_param {
    fixed_method: DIFF_S
    bit_width: 8
  }
}
layer {
  name: "upconv_d4c_u3a"
  type: "DeconvolutionFixed"
  bottom: "relu_d4c"
  top: "u3a"
  param {
    lr_mult: 1
    decay_mult: 1
  }
  param {
    lr_mult: 2
    decay_mult: 0
  }
  convolution_param {
    num_output: 512
    pad: 0
    kernel_size: 2
    stride: 2
    weight_filler {
      type: "msra"
    }
  }
  fixed_param {
    fixed_method: DIFF_S
    bit_width: 8
  }
}
layer {
  name: "relu_u3a"
  type: "ReLU"
  bottom: "u3a"
  top: "u3a"
}
layer {
  name: "concat_d3cc_u3a-b"
  type: "Concat"
  bottom: "u3a"
  bottom: "d3c"
  top: "u3b"
}
layer {
  name: "u3b_fixed"
  type: "FixedNeuron"
  bottom: "u3b"
  top: "u3b"
  param {
    lr_mult: 0
    decay_mult: 0
  }
  fixed_param {
    fixed_method: DIFF_S
    bit_width: 8
  }
}
layer {
  name: "conv_u3b-c"
  type: "ConvolutionFixed"
  bottom: "u3b"
  top: "u3c"
  param {
    lr_mult: 1
    decay_mult: 1
  }
  param {
    lr_mult: 2
    decay_mult: 0
  }
  convolution_param {
    num_output: 512
    pad: 1
    kernel_size: 3
    weight_filler {
      type: "msra"
    }
  }
  fixed_param {
    fixed_method: DIFF_S
    bit_width: 8
  }
}
layer {
  name: "relu_u3c"
  type: "ReLU"
  bottom: "u3c"
  top: "u3c"
}
layer {
  name: "u3c_fixed"
  type: "FixedNeuron"
  bottom: "u3c"
  top: "u3c"
  param {
    lr_mult: 0
    decay_mult: 0
  }
  fixed_param {
    fixed_method: DIFF_S
    bit_width: 8
  }
}
layer {
  name: "conv_u3c-d"
  type: "ConvolutionFixed"
  bottom: "u3c"
  top: "u3d"
  param {
    lr_mult: 1
    decay_mult: 1
  }
  param {
    lr_mult: 2
    decay_mult: 0
  }
  convolution_param {
    num_output: 512
    pad: 1
    kernel_size: 3
    weight_filler {
      type: "msra"
    }
  }
  fixed_param {
    fixed_method: DIFF_S
    bit_width: 8
  }
}
layer {
  name: "relu_u3d"
  type: "ReLU"
  bottom: "u3d"
  top: "u3d"
}
layer {
  name: "u3d_fixed"
  type: "FixedNeuron"
  bottom: "u3d"
  top: "u3d"
  param {
    lr_mult: 0
    decay_mult: 0
  }
  fixed_param {
    fixed_method: DIFF_S
    bit_width: 8
  }
}
layer {
  name: "upconv_u3d_u2a"
  type: "DeconvolutionFixed"
  bottom: "u3d"
  top: "u2a"
  param {
    lr_mult: 1
    decay_mult: 1
  }
  param {
    lr_mult: 2
    decay_mult: 0
  }
  convolution_param {
    num_output: 512
    pad: 0
    kernel_size: 2
    stride: 2
    weight_filler {
      type: "msra"
    }
  }
  fixed_param {
    fixed_method: DIFF_S
    bit_width: 8
  }
}
layer {
  name: "relu_u2a"
  type: "ReLU"
  bottom: "u2a"
  top: "u2a"
}
layer {
  name: "concat_d2cc_u2a-b"
  type: "Concat"
  bottom: "u2a"
  bottom: "d2c"
  top: "u2b"
}
layer {
  name: "u2b_fixed"
  type: "FixedNeuron"
  bottom: "u2b"
  top: "u2b"
  param {
    lr_mult: 0
    decay_mult: 0
  }
  fixed_param {
    fixed_method: DIFF_S
    bit_width: 8
  }
}
layer {
  name: "conv_u2b-c"
  type: "ConvolutionFixed"
  bottom: "u2b"
  top: "u2c"
  param {
    lr_mult: 1
    decay_mult: 1
  }
  param {
    lr_mult: 2
    decay_mult: 0
  }
  convolution_param {
    num_output: 256
    pad: 1
    kernel_size: 3
    weight_filler {
      type: "msra"
    }
  }
  fixed_param {
    fixed_method: DIFF_S
    bit_width: 8
  }
}
layer {
  name: "relu_u2c"
  type: "ReLU"
  bottom: "u2c"
  top: "u2c"
}
layer {
  name: "u2c_fixed"
  type: "FixedNeuron"
  bottom: "u2c"
  top: "u2c"
  param {
    lr_mult: 0
    decay_mult: 0
  }
  fixed_param {
    fixed_method: DIFF_S
    bit_width: 8
  }
}
layer {
  name: "conv_u2c-d"
  type: "ConvolutionFixed"
  bottom: "u2c"
  top: "u2d"
  param {
    lr_mult: 1
    decay_mult: 1
  }
  param {
    lr_mult: 2
    decay_mult: 0
  }
  convolution_param {
    num_output: 256
    pad: 1
    kernel_size: 3
    weight_filler {
      type: "msra"
    }
  }
  fixed_param {
    fixed_method: DIFF_S
    bit_width: 8
  }
}
layer {
  name: "relu_u2d"
  type: "ReLU"
  bottom: "u2d"
  top: "u2d"
}
layer {
  name: "u2d_fixed"
  type: "FixedNeuron"
  bottom: "u2d"
  top: "u2d"
  param {
    lr_mult: 0
    decay_mult: 0
  }
  fixed_param {
    fixed_method: DIFF_S
    bit_width: 8
  }
}
layer {
  name: "upconv_u2d_u1a"
  type: "DeconvolutionFixed"
  bottom: "u2d"
  top: "u1a"
  param {
    lr_mult: 1
    decay_mult: 1
  }
  param {
    lr_mult: 2
    decay_mult: 0
  }
  convolution_param {
    num_output: 128
    pad: 0
    kernel_size: 2
    stride: 2
    weight_filler {
      type: "msra"
    }
  }
  fixed_param {
    fixed_method: DIFF_S
    bit_width: 8
  }
}
layer {
  name: "relu_u1a"
  type: "ReLU"
  bottom: "u1a"
  top: "u1a"
}
layer {
  name: "concat_d1cc_u1a-b"
  type: "Concat"
  bottom: "u1a"
  bottom: "d1c"
  top: "u1b"
}
layer {
  name: "u1b_fixed"
  type: "FixedNeuron"
  bottom: "u1b"
  top: "u1b"
  param {
    lr_mult: 0
    decay_mult: 0
  }
  fixed_param {
    fixed_method: DIFF_S
    bit_width: 8
  }
}
layer {
  name: "conv_u1b-c"
  type: "ConvolutionFixed"
  bottom: "u1b"
  top: "u1c"
  param {
    lr_mult: 1
    decay_mult: 1
  }
  param {
    lr_mult: 2
    decay_mult: 0
  }
  convolution_param {
    num_output: 128
    pad: 1
    kernel_size: 3
    weight_filler {
      type: "msra"
    }
  }
  fixed_param {
    fixed_method: DIFF_S
    bit_width: 8
  }
}
layer {
  name: "relu_u1c"
  type: "ReLU"
  bottom: "u1c"
  top: "u1c"
}
layer {
  name: "u1c_fixed"
  type: "FixedNeuron"
  bottom: "u1c"
  top: "u1c"
  param {
    lr_mult: 0
    decay_mult: 0
  }
  fixed_param {
    fixed_method: DIFF_S
    bit_width: 8
  }
}
layer {
  name: "conv_u1c-d"
  type: "ConvolutionFixed"
  bottom: "u1c"
  top: "u1d"
  param {
    lr_mult: 1
    decay_mult: 1
  }
  param {
    lr_mult: 2
    decay_mult: 0
  }
  convolution_param {
    num_output: 128
    pad: 1
    kernel_size: 3
    weight_filler {
      type: "msra"
    }
  }
  fixed_param {
    fixed_method: DIFF_S
    bit_width: 8
  }
}
layer {
  name: "relu_u1d"
  type: "ReLU"
  bottom: "u1d"
  top: "u1d"
}
layer {
  name: "u1d_fixed"
  type: "FixedNeuron"
  bottom: "u1d"
  top: "u1d"
  param {
    lr_mult: 0
    decay_mult: 0
  }
  fixed_param {
    fixed_method: DIFF_S
    bit_width: 8
  }
}
layer {
  name: "upconv_u1d_u0a_NEW"
  type: "DeconvolutionFixed"
  bottom: "u1d"
  top: "u0a"
  param {
    lr_mult: 1
    decay_mult: 1
  }
  param {
    lr_mult: 2
    decay_mult: 0
  }
  convolution_param {
    num_output: 64
    pad: 0
    kernel_size: 2
    stride: 2
    weight_filler {
      type: "msra"
    }
  }
  fixed_param {
    fixed_method: DIFF_S
    bit_width: 8
  }
}
layer {
  name: "relu_u0a"
  type: "ReLU"
  bottom: "u0a"
  top: "u0a"
}
layer {
  name: "concat_d0cc_u0a-b"
  type: "Concat"
  bottom: "u0a"
  bottom: "d0c"
  top: "u0b"
}
layer {
  name: "u0b_fixed"
  type: "FixedNeuron"
  bottom: "u0b"
  top: "u0b"
  param {
    lr_mult: 0
    decay_mult: 0
  }
  fixed_param {
    fixed_method: DIFF_S
    bit_width: 8
  }
}
layer {
  name: "conv_u0b-c_New"
  type: "ConvolutionFixed"
  bottom: "u0b"
  top: "u0c"
  param {
    lr_mult: 1
    decay_mult: 1
  }
  param {
    lr_mult: 2
    decay_mult: 0
  }
  convolution_param {
    num_output: 64
    pad: 1
    kernel_size: 3
    weight_filler {
      type: "msra"
    }
  }
  fixed_param {
    fixed_method: DIFF_S
    bit_width: 8
  }
}
layer {
  name: "relu_u0c"
  type: "ReLU"
  bottom: "u0c"
  top: "u0c"
}
layer {
  name: "u0c_fixed"
  type: "FixedNeuron"
  bottom: "u0c"
  top: "u0c"
  param {
    lr_mult: 0
    decay_mult: 0
  }
  fixed_param {
    fixed_method: DIFF_S
    bit_width: 8
  }
}
layer {
  name: "conv_u0c-d_New"
  type: "ConvolutionFixed"
  bottom: "u0c"
  top: "u0d"
  param {
    lr_mult: 1
    decay_mult: 1
  }
  param {
    lr_mult: 2
    decay_mult: 0
  }
  convolution_param {
    num_output: 64
    pad: 1
    kernel_size: 3
    weight_filler {
      type: "msra"
    }
  }
  fixed_param {
    fixed_method: DIFF_S
    bit_width: 8
  }
}
layer {
  name: "relu_u0d"
  type: "ReLU"
  bottom: "u0d"
  top: "u0d"
}
layer {
  name: "u0d_fixed"
  type: "FixedNeuron"
  bottom: "u0d"
  top: "u0d"
  param {
    lr_mult: 0
    decay_mult: 0
  }
  fixed_param {
    fixed_method: DIFF_S
    bit_width: 8
  }
}
layer {
  name: "conv_u0d-score_New"
  type: "ConvolutionFixed"
  bottom: "u0d"
  top: "conv_u0d-score_New"
  param {
    lr_mult: 1
    decay_mult: 1
  }
  param {
    lr_mult: 2
    decay_mult: 0
  }
  convolution_param {
    num_output: 19
    pad: 0
    kernel_size: 1
    weight_filler {
      type: "msra"
    }
  }
  fixed_param {
    fixed_method: DIFF_S
    bit_width: 8
  }
}
layer {
  name: "conv_u0d-score_New_fixed"
  type: "FixedNeuron"
  bottom: "conv_u0d-score_New"
  top: "conv_u0d-score_New"
  param {
    lr_mult: 0
    decay_mult: 0
  }
  fixed_param {
    fixed_method: DIFF_S
    bit_width: 8
  }
}
layer {
  name: "score"
  type: "Softmax"
  bottom: "conv_u0d-score_New"
  top: "score"
}
I0712 13:55:32.111536   874 layer_factory.hpp:123] Creating layer data
I0712 13:55:32.111552   874 net.cpp:140] Creating Layer data
I0712 13:55:32.111557   874 net.cpp:455] data -> data
I0712 13:55:32.111567   874 net.cpp:455] data -> label
I0712 13:55:32.111575   874 image_data_layer.cpp:87] Opening file ../data/cityscapes/calibration.txt
I0712 13:55:32.111943   874 image_data_layer.cpp:97] Shuffling data
I0712 13:55:32.111965   874 image_data_layer.cpp:102] A total of 1000 images.
I0712 13:55:32.182294   874 image_data_layer.cpp:130] output data size: 1,3,256,512
I0712 13:55:32.194370   874 internal_thread.cpp:73] Starting internal thread(s) on GPU 1
I0712 13:55:32.194551   874 net.cpp:190] Setting up data
I0712 13:55:32.194562   874 net.cpp:197] Top shape: 1 3 256 512 (393216)
I0712 13:55:32.194568   874 net.cpp:197] Top shape: 1 (1)
I0712 13:55:32.194571   874 net.cpp:205] Memory required for data: 1572868
I0712 13:55:32.194576   874 layer_factory.hpp:123] Creating layer data_fixed
I0712 13:55:32.194587   874 net.cpp:140] Creating Layer data_fixed
I0712 13:55:32.194592   874 net.cpp:481] data_fixed <- data
I0712 13:55:32.194599   874 net.cpp:442] data_fixed -> data (in-place)
I0712 13:55:32.194649   874 net.cpp:190] Setting up data_fixed
I0712 13:55:32.194655   874 net.cpp:197] Top shape: 1 3 256 512 (393216)
I0712 13:55:32.194658   874 net.cpp:205] Memory required for data: 3145732
I0712 13:55:32.194667   874 layer_factory.hpp:123] Creating layer conv_d0a-b
I0712 13:55:32.194679   874 net.cpp:140] Creating Layer conv_d0a-b
I0712 13:55:32.194684   874 net.cpp:481] conv_d0a-b <- data
I0712 13:55:32.194689   874 net.cpp:455] conv_d0a-b -> d0b
I0712 13:55:32.194999   874 layer_factory.hpp:123] Creating layer conv_d0a-b
I0712 13:55:32.195557   874 net.cpp:190] Setting up conv_d0a-b
I0712 13:55:32.195566   874 net.cpp:197] Top shape: 1 64 256 512 (8388608)
I0712 13:55:32.195569   874 net.cpp:205] Memory required for data: 36700164
I0712 13:55:32.195577   874 layer_factory.hpp:123] Creating layer relu_d0b
I0712 13:55:32.195583   874 net.cpp:140] Creating Layer relu_d0b
I0712 13:55:32.195586   874 net.cpp:481] relu_d0b <- d0b
I0712 13:55:32.195591   874 net.cpp:455] relu_d0b -> relu_d0b
I0712 13:55:32.195617   874 net.cpp:190] Setting up relu_d0b
I0712 13:55:32.195624   874 net.cpp:197] Top shape: 1 64 256 512 (8388608)
I0712 13:55:32.195627   874 net.cpp:205] Memory required for data: 70254596
I0712 13:55:32.195631   874 layer_factory.hpp:123] Creating layer relu_d0b_fixed
I0712 13:55:32.195636   874 net.cpp:140] Creating Layer relu_d0b_fixed
I0712 13:55:32.195638   874 net.cpp:481] relu_d0b_fixed <- relu_d0b
I0712 13:55:32.195643   874 net.cpp:442] relu_d0b_fixed -> relu_d0b (in-place)
I0712 13:55:32.195675   874 net.cpp:190] Setting up relu_d0b_fixed
I0712 13:55:32.195681   874 net.cpp:197] Top shape: 1 64 256 512 (8388608)
I0712 13:55:32.195684   874 net.cpp:205] Memory required for data: 103809028
I0712 13:55:32.195689   874 layer_factory.hpp:123] Creating layer conv_d0b-c
I0712 13:55:32.195696   874 net.cpp:140] Creating Layer conv_d0b-c
I0712 13:55:32.195699   874 net.cpp:481] conv_d0b-c <- relu_d0b
I0712 13:55:32.195704   874 net.cpp:455] conv_d0b-c -> d0c
I0712 13:55:32.197036   874 layer_factory.hpp:123] Creating layer conv_d0b-c
I0712 13:55:32.198781   874 net.cpp:190] Setting up conv_d0b-c
I0712 13:55:32.198793   874 net.cpp:197] Top shape: 1 64 256 512 (8388608)
I0712 13:55:32.198796   874 net.cpp:205] Memory required for data: 137363460
I0712 13:55:32.198806   874 layer_factory.hpp:123] Creating layer d0c_fixed
I0712 13:55:32.198812   874 net.cpp:140] Creating Layer d0c_fixed
I0712 13:55:32.198815   874 net.cpp:481] d0c_fixed <- d0c
I0712 13:55:32.198822   874 net.cpp:442] d0c_fixed -> d0c (in-place)
I0712 13:55:32.198858   874 net.cpp:190] Setting up d0c_fixed
I0712 13:55:32.198863   874 net.cpp:197] Top shape: 1 64 256 512 (8388608)
I0712 13:55:32.198868   874 net.cpp:205] Memory required for data: 170917892
I0712 13:55:32.198871   874 layer_factory.hpp:123] Creating layer d0c_d0c_fixed_0_split
I0712 13:55:32.198879   874 net.cpp:140] Creating Layer d0c_d0c_fixed_0_split
I0712 13:55:32.198881   874 net.cpp:481] d0c_d0c_fixed_0_split <- d0c
I0712 13:55:32.198885   874 net.cpp:455] d0c_d0c_fixed_0_split -> d0c_d0c_fixed_0_split_0
I0712 13:55:32.198894   874 net.cpp:455] d0c_d0c_fixed_0_split -> d0c_d0c_fixed_0_split_1
I0712 13:55:32.198928   874 net.cpp:190] Setting up d0c_d0c_fixed_0_split
I0712 13:55:32.198936   874 net.cpp:197] Top shape: 1 64 256 512 (8388608)
I0712 13:55:32.198940   874 net.cpp:197] Top shape: 1 64 256 512 (8388608)
I0712 13:55:32.198942   874 net.cpp:205] Memory required for data: 238026756
I0712 13:55:32.198945   874 layer_factory.hpp:123] Creating layer BatchNorm_d0c
I0712 13:55:32.198953   874 net.cpp:140] Creating Layer BatchNorm_d0c
I0712 13:55:32.198956   874 net.cpp:481] BatchNorm_d0c <- d0c_d0c_fixed_0_split_0
I0712 13:55:32.198961   874 net.cpp:455] BatchNorm_d0c -> BatchNorm_d0c
I0712 13:55:32.198999   874 layer_factory.hpp:123] Creating layer BatchNorm_d0c
I0712 13:55:32.199162   874 layer_factory.hpp:123] Creating layer BatchNorm_d0c
I0712 13:55:32.199201   874 layer_factory.hpp:123] Creating layer BatchNorm_d0c
I0712 13:55:32.199575   874 net.cpp:190] Setting up BatchNorm_d0c
I0712 13:55:32.199584   874 net.cpp:197] Top shape: 1 64 256 512 (8388608)
I0712 13:55:32.199585   874 net.cpp:205] Memory required for data: 271581188
I0712 13:55:32.199594   874 layer_factory.hpp:123] Creating layer relu_d0c
I0712 13:55:32.199599   874 net.cpp:140] Creating Layer relu_d0c
I0712 13:55:32.199601   874 net.cpp:481] relu_d0c <- BatchNorm_d0c
I0712 13:55:32.199606   874 net.cpp:455] relu_d0c -> relu_d0c
I0712 13:55:32.199632   874 net.cpp:190] Setting up relu_d0c
I0712 13:55:32.199638   874 net.cpp:197] Top shape: 1 64 256 512 (8388608)
I0712 13:55:32.199641   874 net.cpp:205] Memory required for data: 305135620
I0712 13:55:32.199645   874 layer_factory.hpp:123] Creating layer pool_d0c-1a
I0712 13:55:32.199651   874 net.cpp:140] Creating Layer pool_d0c-1a
I0712 13:55:32.199656   874 net.cpp:481] pool_d0c-1a <- relu_d0c
I0712 13:55:32.199661   874 net.cpp:455] pool_d0c-1a -> d1a
I0712 13:55:32.199693   874 net.cpp:190] Setting up pool_d0c-1a
I0712 13:55:32.199699   874 net.cpp:197] Top shape: 1 64 128 256 (2097152)
I0712 13:55:32.199702   874 net.cpp:205] Memory required for data: 313524228
I0712 13:55:32.199705   874 layer_factory.hpp:123] Creating layer d1a_fixed
I0712 13:55:32.199709   874 net.cpp:140] Creating Layer d1a_fixed
I0712 13:55:32.199712   874 net.cpp:481] d1a_fixed <- d1a
I0712 13:55:32.199717   874 net.cpp:442] d1a_fixed -> d1a (in-place)
I0712 13:55:32.199748   874 net.cpp:190] Setting up d1a_fixed
I0712 13:55:32.199753   874 net.cpp:197] Top shape: 1 64 128 256 (2097152)
I0712 13:55:32.199764   874 net.cpp:205] Memory required for data: 321912836
I0712 13:55:32.199767   874 layer_factory.hpp:123] Creating layer conv_d1a-b
I0712 13:55:32.199776   874 net.cpp:140] Creating Layer conv_d1a-b
I0712 13:55:32.199779   874 net.cpp:481] conv_d1a-b <- d1a
I0712 13:55:32.199784   874 net.cpp:455] conv_d1a-b -> d1b
I0712 13:55:32.200613   874 layer_factory.hpp:123] Creating layer conv_d1a-b
I0712 13:55:32.202363   874 net.cpp:190] Setting up conv_d1a-b
I0712 13:55:32.202374   874 net.cpp:197] Top shape: 1 128 128 256 (4194304)
I0712 13:55:32.202378   874 net.cpp:205] Memory required for data: 338690052
I0712 13:55:32.202383   874 layer_factory.hpp:123] Creating layer relu_d1b
I0712 13:55:32.202389   874 net.cpp:140] Creating Layer relu_d1b
I0712 13:55:32.202392   874 net.cpp:481] relu_d1b <- d1b
I0712 13:55:32.202397   874 net.cpp:455] relu_d1b -> relu_d1b
I0712 13:55:32.202425   874 net.cpp:190] Setting up relu_d1b
I0712 13:55:32.202431   874 net.cpp:197] Top shape: 1 128 128 256 (4194304)
I0712 13:55:32.202433   874 net.cpp:205] Memory required for data: 355467268
I0712 13:55:32.202436   874 layer_factory.hpp:123] Creating layer relu_d1b_fixed
I0712 13:55:32.202442   874 net.cpp:140] Creating Layer relu_d1b_fixed
I0712 13:55:32.202445   874 net.cpp:481] relu_d1b_fixed <- relu_d1b
I0712 13:55:32.202450   874 net.cpp:442] relu_d1b_fixed -> relu_d1b (in-place)
I0712 13:55:32.202482   874 net.cpp:190] Setting up relu_d1b_fixed
I0712 13:55:32.202488   874 net.cpp:197] Top shape: 1 128 128 256 (4194304)
I0712 13:55:32.202491   874 net.cpp:205] Memory required for data: 372244484
I0712 13:55:32.202495   874 layer_factory.hpp:123] Creating layer conv_d1b-c
I0712 13:55:32.202502   874 net.cpp:140] Creating Layer conv_d1b-c
I0712 13:55:32.202505   874 net.cpp:481] conv_d1b-c <- relu_d1b
I0712 13:55:32.202510   874 net.cpp:455] conv_d1b-c -> d1c
I0712 13:55:32.203958   874 layer_factory.hpp:123] Creating layer conv_d1b-c
I0712 13:55:32.206321   874 net.cpp:190] Setting up conv_d1b-c
I0712 13:55:32.206331   874 net.cpp:197] Top shape: 1 128 128 256 (4194304)
I0712 13:55:32.206336   874 net.cpp:205] Memory required for data: 389021700
I0712 13:55:32.206341   874 layer_factory.hpp:123] Creating layer d1c_fixed
I0712 13:55:32.206347   874 net.cpp:140] Creating Layer d1c_fixed
I0712 13:55:32.206351   874 net.cpp:481] d1c_fixed <- d1c
I0712 13:55:32.206355   874 net.cpp:442] d1c_fixed -> d1c (in-place)
I0712 13:55:32.206393   874 net.cpp:190] Setting up d1c_fixed
I0712 13:55:32.206399   874 net.cpp:197] Top shape: 1 128 128 256 (4194304)
I0712 13:55:32.206403   874 net.cpp:205] Memory required for data: 405798916
I0712 13:55:32.206406   874 layer_factory.hpp:123] Creating layer d1c_d1c_fixed_0_split
I0712 13:55:32.206411   874 net.cpp:140] Creating Layer d1c_d1c_fixed_0_split
I0712 13:55:32.206414   874 net.cpp:481] d1c_d1c_fixed_0_split <- d1c
I0712 13:55:32.206419   874 net.cpp:455] d1c_d1c_fixed_0_split -> d1c_d1c_fixed_0_split_0
I0712 13:55:32.206425   874 net.cpp:455] d1c_d1c_fixed_0_split -> d1c_d1c_fixed_0_split_1
I0712 13:55:32.206459   874 net.cpp:190] Setting up d1c_d1c_fixed_0_split
I0712 13:55:32.206465   874 net.cpp:197] Top shape: 1 128 128 256 (4194304)
I0712 13:55:32.206468   874 net.cpp:197] Top shape: 1 128 128 256 (4194304)
I0712 13:55:32.206471   874 net.cpp:205] Memory required for data: 439353348
I0712 13:55:32.206475   874 layer_factory.hpp:123] Creating layer BatchNorm_d1c
I0712 13:55:32.206480   874 net.cpp:140] Creating Layer BatchNorm_d1c
I0712 13:55:32.206483   874 net.cpp:481] BatchNorm_d1c <- d1c_d1c_fixed_0_split_0
I0712 13:55:32.206488   874 net.cpp:455] BatchNorm_d1c -> BatchNorm_d1c
I0712 13:55:32.206526   874 layer_factory.hpp:123] Creating layer BatchNorm_d1c
I0712 13:55:32.206604   874 layer_factory.hpp:123] Creating layer BatchNorm_d1c
I0712 13:55:32.206642   874 layer_factory.hpp:123] Creating layer BatchNorm_d1c
I0712 13:55:32.206806   874 net.cpp:190] Setting up BatchNorm_d1c
I0712 13:55:32.206813   874 net.cpp:197] Top shape: 1 128 128 256 (4194304)
I0712 13:55:32.206816   874 net.cpp:205] Memory required for data: 456130564
I0712 13:55:32.206825   874 layer_factory.hpp:123] Creating layer relu_d1c
I0712 13:55:32.206831   874 net.cpp:140] Creating Layer relu_d1c
I0712 13:55:32.206835   874 net.cpp:481] relu_d1c <- BatchNorm_d1c
I0712 13:55:32.206840   874 net.cpp:455] relu_d1c -> relu_d1c
I0712 13:55:32.206864   874 net.cpp:190] Setting up relu_d1c
I0712 13:55:32.206874   874 net.cpp:197] Top shape: 1 128 128 256 (4194304)
I0712 13:55:32.206877   874 net.cpp:205] Memory required for data: 472907780
I0712 13:55:32.206881   874 layer_factory.hpp:123] Creating layer pool_d1c-2a
I0712 13:55:32.206885   874 net.cpp:140] Creating Layer pool_d1c-2a
I0712 13:55:32.206888   874 net.cpp:481] pool_d1c-2a <- relu_d1c
I0712 13:55:32.206893   874 net.cpp:455] pool_d1c-2a -> d2a
I0712 13:55:32.206928   874 net.cpp:190] Setting up pool_d1c-2a
I0712 13:55:32.206933   874 net.cpp:197] Top shape: 1 128 64 128 (1048576)
I0712 13:55:32.206936   874 net.cpp:205] Memory required for data: 477102084
I0712 13:55:32.206939   874 layer_factory.hpp:123] Creating layer d2a_fixed
I0712 13:55:32.206944   874 net.cpp:140] Creating Layer d2a_fixed
I0712 13:55:32.206948   874 net.cpp:481] d2a_fixed <- d2a
I0712 13:55:32.206952   874 net.cpp:442] d2a_fixed -> d2a (in-place)
I0712 13:55:32.206984   874 net.cpp:190] Setting up d2a_fixed
I0712 13:55:32.206988   874 net.cpp:197] Top shape: 1 128 64 128 (1048576)
I0712 13:55:32.206991   874 net.cpp:205] Memory required for data: 481296388
I0712 13:55:32.206995   874 layer_factory.hpp:123] Creating layer conv_d2a-b
I0712 13:55:32.207002   874 net.cpp:140] Creating Layer conv_d2a-b
I0712 13:55:32.207005   874 net.cpp:481] conv_d2a-b <- d2a
I0712 13:55:32.207010   874 net.cpp:455] conv_d2a-b -> d2b
I0712 13:55:32.210489   874 layer_factory.hpp:123] Creating layer conv_d2a-b
I0712 13:55:32.214900   874 net.cpp:190] Setting up conv_d2a-b
I0712 13:55:32.214913   874 net.cpp:197] Top shape: 1 256 64 128 (2097152)
I0712 13:55:32.214916   874 net.cpp:205] Memory required for data: 489684996
I0712 13:55:32.214923   874 layer_factory.hpp:123] Creating layer relu_d2b
I0712 13:55:32.214929   874 net.cpp:140] Creating Layer relu_d2b
I0712 13:55:32.214933   874 net.cpp:481] relu_d2b <- d2b
I0712 13:55:32.214939   874 net.cpp:455] relu_d2b -> relu_d2b
I0712 13:55:32.214965   874 net.cpp:190] Setting up relu_d2b
I0712 13:55:32.214970   874 net.cpp:197] Top shape: 1 256 64 128 (2097152)
I0712 13:55:32.214973   874 net.cpp:205] Memory required for data: 498073604
I0712 13:55:32.214975   874 layer_factory.hpp:123] Creating layer relu_d2b_fixed
I0712 13:55:32.214982   874 net.cpp:140] Creating Layer relu_d2b_fixed
I0712 13:55:32.214984   874 net.cpp:481] relu_d2b_fixed <- relu_d2b
I0712 13:55:32.214989   874 net.cpp:442] relu_d2b_fixed -> relu_d2b (in-place)
I0712 13:55:32.215021   874 net.cpp:190] Setting up relu_d2b_fixed
I0712 13:55:32.215029   874 net.cpp:197] Top shape: 1 256 64 128 (2097152)
I0712 13:55:32.215031   874 net.cpp:205] Memory required for data: 506462212
I0712 13:55:32.215035   874 layer_factory.hpp:123] Creating layer conv_d2b-c
I0712 13:55:32.215044   874 net.cpp:140] Creating Layer conv_d2b-c
I0712 13:55:32.215047   874 net.cpp:481] conv_d2b-c <- relu_d2b
I0712 13:55:32.215052   874 net.cpp:455] conv_d2b-c -> d2c
I0712 13:55:32.222050   874 layer_factory.hpp:123] Creating layer conv_d2b-c
I0712 13:55:32.229223   874 net.cpp:190] Setting up conv_d2b-c
I0712 13:55:32.229243   874 net.cpp:197] Top shape: 1 256 64 128 (2097152)
I0712 13:55:32.229246   874 net.cpp:205] Memory required for data: 514850820
I0712 13:55:32.229254   874 layer_factory.hpp:123] Creating layer d2c_fixed
I0712 13:55:32.229261   874 net.cpp:140] Creating Layer d2c_fixed
I0712 13:55:32.229266   874 net.cpp:481] d2c_fixed <- d2c
I0712 13:55:32.229272   874 net.cpp:442] d2c_fixed -> d2c (in-place)
I0712 13:55:32.229310   874 net.cpp:190] Setting up d2c_fixed
I0712 13:55:32.229315   874 net.cpp:197] Top shape: 1 256 64 128 (2097152)
I0712 13:55:32.229318   874 net.cpp:205] Memory required for data: 523239428
I0712 13:55:32.229322   874 layer_factory.hpp:123] Creating layer d2c_d2c_fixed_0_split
I0712 13:55:32.229328   874 net.cpp:140] Creating Layer d2c_d2c_fixed_0_split
I0712 13:55:32.229331   874 net.cpp:481] d2c_d2c_fixed_0_split <- d2c
I0712 13:55:32.229337   874 net.cpp:455] d2c_d2c_fixed_0_split -> d2c_d2c_fixed_0_split_0
I0712 13:55:32.229344   874 net.cpp:455] d2c_d2c_fixed_0_split -> d2c_d2c_fixed_0_split_1
I0712 13:55:32.229378   874 net.cpp:190] Setting up d2c_d2c_fixed_0_split
I0712 13:55:32.229384   874 net.cpp:197] Top shape: 1 256 64 128 (2097152)
I0712 13:55:32.229388   874 net.cpp:197] Top shape: 1 256 64 128 (2097152)
I0712 13:55:32.229391   874 net.cpp:205] Memory required for data: 540016644
I0712 13:55:32.229394   874 layer_factory.hpp:123] Creating layer BatchNorm_d2c
I0712 13:55:32.229401   874 net.cpp:140] Creating Layer BatchNorm_d2c
I0712 13:55:32.229404   874 net.cpp:481] BatchNorm_d2c <- d2c_d2c_fixed_0_split_0
I0712 13:55:32.229410   874 net.cpp:455] BatchNorm_d2c -> BatchNorm_d2c
I0712 13:55:32.229449   874 layer_factory.hpp:123] Creating layer BatchNorm_d2c
I0712 13:55:32.229522   874 layer_factory.hpp:123] Creating layer BatchNorm_d2c
I0712 13:55:32.229559   874 layer_factory.hpp:123] Creating layer BatchNorm_d2c
I0712 13:55:32.229687   874 net.cpp:190] Setting up BatchNorm_d2c
I0712 13:55:32.229694   874 net.cpp:197] Top shape: 1 256 64 128 (2097152)
I0712 13:55:32.229697   874 net.cpp:205] Memory required for data: 548405252
I0712 13:55:32.229703   874 layer_factory.hpp:123] Creating layer relu_d2c
I0712 13:55:32.229708   874 net.cpp:140] Creating Layer relu_d2c
I0712 13:55:32.229712   874 net.cpp:481] relu_d2c <- BatchNorm_d2c
I0712 13:55:32.229717   874 net.cpp:455] relu_d2c -> relu_d2c
I0712 13:55:32.229740   874 net.cpp:190] Setting up relu_d2c
I0712 13:55:32.229746   874 net.cpp:197] Top shape: 1 256 64 128 (2097152)
I0712 13:55:32.229749   874 net.cpp:205] Memory required for data: 556793860
I0712 13:55:32.229753   874 layer_factory.hpp:123] Creating layer pool_d2c-3a
I0712 13:55:32.229758   874 net.cpp:140] Creating Layer pool_d2c-3a
I0712 13:55:32.229761   874 net.cpp:481] pool_d2c-3a <- relu_d2c
I0712 13:55:32.229766   874 net.cpp:455] pool_d2c-3a -> d3a
I0712 13:55:32.229805   874 net.cpp:190] Setting up pool_d2c-3a
I0712 13:55:32.229811   874 net.cpp:197] Top shape: 1 256 32 64 (524288)
I0712 13:55:32.229815   874 net.cpp:205] Memory required for data: 558891012
I0712 13:55:32.229816   874 layer_factory.hpp:123] Creating layer d3a_fixed
I0712 13:55:32.229821   874 net.cpp:140] Creating Layer d3a_fixed
I0712 13:55:32.229825   874 net.cpp:481] d3a_fixed <- d3a
I0712 13:55:32.229830   874 net.cpp:442] d3a_fixed -> d3a (in-place)
I0712 13:55:32.229861   874 net.cpp:190] Setting up d3a_fixed
I0712 13:55:32.229866   874 net.cpp:197] Top shape: 1 256 32 64 (524288)
I0712 13:55:32.229869   874 net.cpp:205] Memory required for data: 560988164
I0712 13:55:32.229873   874 layer_factory.hpp:123] Creating layer conv_d3a-b
I0712 13:55:32.229883   874 net.cpp:140] Creating Layer conv_d3a-b
I0712 13:55:32.229887   874 net.cpp:481] conv_d3a-b <- d3a
I0712 13:55:32.229892   874 net.cpp:455] conv_d3a-b -> d3b
I0712 13:55:32.243355   874 layer_factory.hpp:123] Creating layer conv_d3a-b
I0712 13:55:32.256860   874 net.cpp:190] Setting up conv_d3a-b
I0712 13:55:32.256880   874 net.cpp:197] Top shape: 1 512 32 64 (1048576)
I0712 13:55:32.256884   874 net.cpp:205] Memory required for data: 565182468
I0712 13:55:32.256891   874 layer_factory.hpp:123] Creating layer relu_d3b
I0712 13:55:32.256901   874 net.cpp:140] Creating Layer relu_d3b
I0712 13:55:32.256904   874 net.cpp:481] relu_d3b <- d3b
I0712 13:55:32.256911   874 net.cpp:455] relu_d3b -> relu_d3b
I0712 13:55:32.256939   874 net.cpp:190] Setting up relu_d3b
I0712 13:55:32.256945   874 net.cpp:197] Top shape: 1 512 32 64 (1048576)
I0712 13:55:32.256948   874 net.cpp:205] Memory required for data: 569376772
I0712 13:55:32.256953   874 layer_factory.hpp:123] Creating layer relu_d3b_fixed
I0712 13:55:32.256958   874 net.cpp:140] Creating Layer relu_d3b_fixed
I0712 13:55:32.256960   874 net.cpp:481] relu_d3b_fixed <- relu_d3b
I0712 13:55:32.256965   874 net.cpp:442] relu_d3b_fixed -> relu_d3b (in-place)
I0712 13:55:32.257000   874 net.cpp:190] Setting up relu_d3b_fixed
I0712 13:55:32.257006   874 net.cpp:197] Top shape: 1 512 32 64 (1048576)
I0712 13:55:32.257009   874 net.cpp:205] Memory required for data: 573571076
I0712 13:55:32.257014   874 layer_factory.hpp:123] Creating layer conv_d3b-c
I0712 13:55:32.257023   874 net.cpp:140] Creating Layer conv_d3b-c
I0712 13:55:32.257026   874 net.cpp:481] conv_d3b-c <- relu_d3b
I0712 13:55:32.257031   874 net.cpp:455] conv_d3b-c -> d3c
I0712 13:55:32.283432   874 layer_factory.hpp:123] Creating layer conv_d3b-c
I0712 13:55:32.309718   874 net.cpp:190] Setting up conv_d3b-c
I0712 13:55:32.309741   874 net.cpp:197] Top shape: 1 512 32 64 (1048576)
I0712 13:55:32.309744   874 net.cpp:205] Memory required for data: 577765380
I0712 13:55:32.309757   874 layer_factory.hpp:123] Creating layer d3c_fixed
I0712 13:55:32.309765   874 net.cpp:140] Creating Layer d3c_fixed
I0712 13:55:32.309769   874 net.cpp:481] d3c_fixed <- d3c
I0712 13:55:32.309777   874 net.cpp:442] d3c_fixed -> d3c (in-place)
I0712 13:55:32.309818   874 net.cpp:190] Setting up d3c_fixed
I0712 13:55:32.309828   874 net.cpp:197] Top shape: 1 512 32 64 (1048576)
I0712 13:55:32.309831   874 net.cpp:205] Memory required for data: 581959684
I0712 13:55:32.309835   874 layer_factory.hpp:123] Creating layer d3c_d3c_fixed_0_split
I0712 13:55:32.309841   874 net.cpp:140] Creating Layer d3c_d3c_fixed_0_split
I0712 13:55:32.309854   874 net.cpp:481] d3c_d3c_fixed_0_split <- d3c
I0712 13:55:32.309859   874 net.cpp:455] d3c_d3c_fixed_0_split -> d3c_d3c_fixed_0_split_0
I0712 13:55:32.309865   874 net.cpp:455] d3c_d3c_fixed_0_split -> d3c_d3c_fixed_0_split_1
I0712 13:55:32.309902   874 net.cpp:190] Setting up d3c_d3c_fixed_0_split
I0712 13:55:32.309908   874 net.cpp:197] Top shape: 1 512 32 64 (1048576)
I0712 13:55:32.309912   874 net.cpp:197] Top shape: 1 512 32 64 (1048576)
I0712 13:55:32.309914   874 net.cpp:205] Memory required for data: 590348292
I0712 13:55:32.309918   874 layer_factory.hpp:123] Creating layer BatchNorm_1
I0712 13:55:32.309926   874 net.cpp:140] Creating Layer BatchNorm_1
I0712 13:55:32.309929   874 net.cpp:481] BatchNorm_1 <- d3c_d3c_fixed_0_split_0
I0712 13:55:32.309934   874 net.cpp:455] BatchNorm_1 -> BatchNorm_1
I0712 13:55:32.309972   874 layer_factory.hpp:123] Creating layer BatchNorm_1
I0712 13:55:32.310048   874 layer_factory.hpp:123] Creating layer BatchNorm_1
I0712 13:55:32.310084   874 layer_factory.hpp:123] Creating layer BatchNorm_1
I0712 13:55:32.310207   874 net.cpp:190] Setting up BatchNorm_1
I0712 13:55:32.310214   874 net.cpp:197] Top shape: 1 512 32 64 (1048576)
I0712 13:55:32.310217   874 net.cpp:205] Memory required for data: 594542596
I0712 13:55:32.310223   874 layer_factory.hpp:123] Creating layer relu_d3c
I0712 13:55:32.310228   874 net.cpp:140] Creating Layer relu_d3c
I0712 13:55:32.310231   874 net.cpp:481] relu_d3c <- BatchNorm_1
I0712 13:55:32.310237   874 net.cpp:455] relu_d3c -> relu_d3c
I0712 13:55:32.310262   874 net.cpp:190] Setting up relu_d3c
I0712 13:55:32.310268   874 net.cpp:197] Top shape: 1 512 32 64 (1048576)
I0712 13:55:32.310271   874 net.cpp:205] Memory required for data: 598736900
I0712 13:55:32.310274   874 layer_factory.hpp:123] Creating layer pool_d3c-4a
I0712 13:55:32.310281   874 net.cpp:140] Creating Layer pool_d3c-4a
I0712 13:55:32.310284   874 net.cpp:481] pool_d3c-4a <- relu_d3c
I0712 13:55:32.310289   874 net.cpp:455] pool_d3c-4a -> d4a
I0712 13:55:32.310325   874 net.cpp:190] Setting up pool_d3c-4a
I0712 13:55:32.310331   874 net.cpp:197] Top shape: 1 512 16 32 (262144)
I0712 13:55:32.310334   874 net.cpp:205] Memory required for data: 599785476
I0712 13:55:32.310338   874 layer_factory.hpp:123] Creating layer d4a_fixed
I0712 13:55:32.310343   874 net.cpp:140] Creating Layer d4a_fixed
I0712 13:55:32.310345   874 net.cpp:481] d4a_fixed <- d4a
I0712 13:55:32.310349   874 net.cpp:442] d4a_fixed -> d4a (in-place)
I0712 13:55:32.310392   874 net.cpp:190] Setting up d4a_fixed
I0712 13:55:32.310398   874 net.cpp:197] Top shape: 1 512 16 32 (262144)
I0712 13:55:32.310401   874 net.cpp:205] Memory required for data: 600834052
I0712 13:55:32.310405   874 layer_factory.hpp:123] Creating layer conv_d4a-b
I0712 13:55:32.310415   874 net.cpp:140] Creating Layer conv_d4a-b
I0712 13:55:32.310417   874 net.cpp:481] conv_d4a-b <- d4a
I0712 13:55:32.310422   874 net.cpp:455] conv_d4a-b -> BatchNorm_2
I0712 13:55:32.363173   874 layer_factory.hpp:123] Creating layer conv_d4a-b
I0712 13:55:32.416043   874 net.cpp:190] Setting up conv_d4a-b
I0712 13:55:32.416069   874 net.cpp:197] Top shape: 1 1024 16 32 (524288)
I0712 13:55:32.416072   874 net.cpp:205] Memory required for data: 602931204
I0712 13:55:32.416080   874 layer_factory.hpp:123] Creating layer relu_d4b
I0712 13:55:32.416088   874 net.cpp:140] Creating Layer relu_d4b
I0712 13:55:32.416093   874 net.cpp:481] relu_d4b <- BatchNorm_2
I0712 13:55:32.416100   874 net.cpp:455] relu_d4b -> relu_d4b
I0712 13:55:32.416134   874 net.cpp:190] Setting up relu_d4b
I0712 13:55:32.416141   874 net.cpp:197] Top shape: 1 1024 16 32 (524288)
I0712 13:55:32.416143   874 net.cpp:205] Memory required for data: 605028356
I0712 13:55:32.416146   874 layer_factory.hpp:123] Creating layer relu_d4b_fixed
I0712 13:55:32.416152   874 net.cpp:140] Creating Layer relu_d4b_fixed
I0712 13:55:32.416154   874 net.cpp:481] relu_d4b_fixed <- relu_d4b
I0712 13:55:32.416159   874 net.cpp:442] relu_d4b_fixed -> relu_d4b (in-place)
I0712 13:55:32.416194   874 net.cpp:190] Setting up relu_d4b_fixed
I0712 13:55:32.416201   874 net.cpp:197] Top shape: 1 1024 16 32 (524288)
I0712 13:55:32.416203   874 net.cpp:205] Memory required for data: 607125508
I0712 13:55:32.416208   874 layer_factory.hpp:123] Creating layer conv_d4b-c
I0712 13:55:32.416218   874 net.cpp:140] Creating Layer conv_d4b-c
I0712 13:55:32.416220   874 net.cpp:481] conv_d4b-c <- relu_d4b
I0712 13:55:32.416225   874 net.cpp:455] conv_d4b-c -> d4c
I0712 13:55:32.522889   874 layer_factory.hpp:123] Creating layer conv_d4b-c
I0712 13:55:32.630048   874 net.cpp:190] Setting up conv_d4b-c
I0712 13:55:32.630075   874 net.cpp:197] Top shape: 1 1024 16 32 (524288)
I0712 13:55:32.630079   874 net.cpp:205] Memory required for data: 609222660
I0712 13:55:32.630087   874 layer_factory.hpp:123] Creating layer relu_d4c
I0712 13:55:32.630096   874 net.cpp:140] Creating Layer relu_d4c
I0712 13:55:32.630100   874 net.cpp:481] relu_d4c <- d4c
I0712 13:55:32.630108   874 net.cpp:455] relu_d4c -> relu_d4c
I0712 13:55:32.630137   874 net.cpp:190] Setting up relu_d4c
I0712 13:55:32.630142   874 net.cpp:197] Top shape: 1 1024 16 32 (524288)
I0712 13:55:32.630146   874 net.cpp:205] Memory required for data: 611319812
I0712 13:55:32.630148   874 layer_factory.hpp:123] Creating layer relu_d4c_fixed
I0712 13:55:32.630154   874 net.cpp:140] Creating Layer relu_d4c_fixed
I0712 13:55:32.630158   874 net.cpp:481] relu_d4c_fixed <- relu_d4c
I0712 13:55:32.630163   874 net.cpp:442] relu_d4c_fixed -> relu_d4c (in-place)
I0712 13:55:32.630198   874 net.cpp:190] Setting up relu_d4c_fixed
I0712 13:55:32.630205   874 net.cpp:197] Top shape: 1 1024 16 32 (524288)
I0712 13:55:32.630208   874 net.cpp:205] Memory required for data: 613416964
I0712 13:55:32.630213   874 layer_factory.hpp:123] Creating layer upconv_d4c_u3a
I0712 13:55:32.630220   874 net.cpp:140] Creating Layer upconv_d4c_u3a
I0712 13:55:32.630223   874 net.cpp:481] upconv_d4c_u3a <- relu_d4c
I0712 13:55:32.630229   874 net.cpp:455] upconv_d4c_u3a -> u3a
I0712 13:55:32.653781   874 layer_factory.hpp:123] Creating layer upconv_d4c_u3a
I0712 13:55:32.677095   874 net.cpp:190] Setting up upconv_d4c_u3a
I0712 13:55:32.677116   874 net.cpp:197] Top shape: 1 512 32 64 (1048576)
I0712 13:55:32.677119   874 net.cpp:205] Memory required for data: 617611268
I0712 13:55:32.677127   874 layer_factory.hpp:123] Creating layer relu_u3a
I0712 13:55:32.677135   874 net.cpp:140] Creating Layer relu_u3a
I0712 13:55:32.677140   874 net.cpp:481] relu_u3a <- u3a
I0712 13:55:32.677146   874 net.cpp:442] relu_u3a -> u3a (in-place)
I0712 13:55:32.677156   874 net.cpp:190] Setting up relu_u3a
I0712 13:55:32.677160   874 net.cpp:197] Top shape: 1 512 32 64 (1048576)
I0712 13:55:32.677162   874 net.cpp:205] Memory required for data: 621805572
I0712 13:55:32.677165   874 layer_factory.hpp:123] Creating layer concat_d3cc_u3a-b
I0712 13:55:32.677171   874 net.cpp:140] Creating Layer concat_d3cc_u3a-b
I0712 13:55:32.677173   874 net.cpp:481] concat_d3cc_u3a-b <- u3a
I0712 13:55:32.677178   874 net.cpp:481] concat_d3cc_u3a-b <- d3c_d3c_fixed_0_split_1
I0712 13:55:32.677183   874 net.cpp:455] concat_d3cc_u3a-b -> u3b
I0712 13:55:32.677211   874 net.cpp:190] Setting up concat_d3cc_u3a-b
I0712 13:55:32.677215   874 net.cpp:197] Top shape: 1 1024 32 64 (2097152)
I0712 13:55:32.677218   874 net.cpp:205] Memory required for data: 630194180
I0712 13:55:32.677222   874 layer_factory.hpp:123] Creating layer u3b_fixed
I0712 13:55:32.677227   874 net.cpp:140] Creating Layer u3b_fixed
I0712 13:55:32.677229   874 net.cpp:481] u3b_fixed <- u3b
I0712 13:55:32.677234   874 net.cpp:442] u3b_fixed -> u3b (in-place)
I0712 13:55:32.677269   874 net.cpp:190] Setting up u3b_fixed
I0712 13:55:32.677276   874 net.cpp:197] Top shape: 1 1024 32 64 (2097152)
I0712 13:55:32.677279   874 net.cpp:205] Memory required for data: 638582788
I0712 13:55:32.677284   874 layer_factory.hpp:123] Creating layer conv_u3b-c
I0712 13:55:32.677294   874 net.cpp:140] Creating Layer conv_u3b-c
I0712 13:55:32.677296   874 net.cpp:481] conv_u3b-c <- u3b
I0712 13:55:32.677300   874 net.cpp:455] conv_u3b-c -> u3c
I0712 13:55:32.730041   874 layer_factory.hpp:123] Creating layer conv_u3b-c
I0712 13:55:32.782318   874 net.cpp:190] Setting up conv_u3b-c
I0712 13:55:32.782341   874 net.cpp:197] Top shape: 1 512 32 64 (1048576)
I0712 13:55:32.782343   874 net.cpp:205] Memory required for data: 642777092
I0712 13:55:32.782351   874 layer_factory.hpp:123] Creating layer relu_u3c
I0712 13:55:32.782359   874 net.cpp:140] Creating Layer relu_u3c
I0712 13:55:32.782363   874 net.cpp:481] relu_u3c <- u3c
I0712 13:55:32.782369   874 net.cpp:442] relu_u3c -> u3c (in-place)
I0712 13:55:32.782378   874 net.cpp:190] Setting up relu_u3c
I0712 13:55:32.782382   874 net.cpp:197] Top shape: 1 512 32 64 (1048576)
I0712 13:55:32.782384   874 net.cpp:205] Memory required for data: 646971396
I0712 13:55:32.782387   874 layer_factory.hpp:123] Creating layer u3c_fixed
I0712 13:55:32.782393   874 net.cpp:140] Creating Layer u3c_fixed
I0712 13:55:32.782397   874 net.cpp:481] u3c_fixed <- u3c
I0712 13:55:32.782400   874 net.cpp:442] u3c_fixed -> u3c (in-place)
I0712 13:55:32.782438   874 net.cpp:190] Setting up u3c_fixed
I0712 13:55:32.782445   874 net.cpp:197] Top shape: 1 512 32 64 (1048576)
I0712 13:55:32.782449   874 net.cpp:205] Memory required for data: 651165700
I0712 13:55:32.782452   874 layer_factory.hpp:123] Creating layer conv_u3c-d
I0712 13:55:32.782461   874 net.cpp:140] Creating Layer conv_u3c-d
I0712 13:55:32.782465   874 net.cpp:481] conv_u3c-d <- u3c
I0712 13:55:32.782470   874 net.cpp:455] conv_u3c-d -> u3d
I0712 13:55:32.808549   874 layer_factory.hpp:123] Creating layer conv_u3c-d
I0712 13:55:32.834826   874 net.cpp:190] Setting up conv_u3c-d
I0712 13:55:32.834847   874 net.cpp:197] Top shape: 1 512 32 64 (1048576)
I0712 13:55:32.834851   874 net.cpp:205] Memory required for data: 655360004
I0712 13:55:32.834861   874 layer_factory.hpp:123] Creating layer relu_u3d
I0712 13:55:32.834868   874 net.cpp:140] Creating Layer relu_u3d
I0712 13:55:32.834873   874 net.cpp:481] relu_u3d <- u3d
I0712 13:55:32.834879   874 net.cpp:442] relu_u3d -> u3d (in-place)
I0712 13:55:32.834887   874 net.cpp:190] Setting up relu_u3d
I0712 13:55:32.834892   874 net.cpp:197] Top shape: 1 512 32 64 (1048576)
I0712 13:55:32.834894   874 net.cpp:205] Memory required for data: 659554308
I0712 13:55:32.834897   874 layer_factory.hpp:123] Creating layer u3d_fixed
I0712 13:55:32.834903   874 net.cpp:140] Creating Layer u3d_fixed
I0712 13:55:32.834905   874 net.cpp:481] u3d_fixed <- u3d
I0712 13:55:32.834909   874 net.cpp:442] u3d_fixed -> u3d (in-place)
I0712 13:55:32.834949   874 net.cpp:190] Setting up u3d_fixed
I0712 13:55:32.834954   874 net.cpp:197] Top shape: 1 512 32 64 (1048576)
I0712 13:55:32.834956   874 net.cpp:205] Memory required for data: 663748612
I0712 13:55:32.834960   874 layer_factory.hpp:123] Creating layer upconv_u3d_u2a
I0712 13:55:32.834967   874 net.cpp:140] Creating Layer upconv_u3d_u2a
I0712 13:55:32.834971   874 net.cpp:481] upconv_u3d_u2a <- u3d
I0712 13:55:32.834976   874 net.cpp:455] upconv_u3d_u2a -> u2a
I0712 13:55:32.846943   874 layer_factory.hpp:123] Creating layer upconv_u3d_u2a
I0712 13:55:32.859016   874 net.cpp:190] Setting up upconv_u3d_u2a
I0712 13:55:32.859038   874 net.cpp:197] Top shape: 1 512 64 128 (4194304)
I0712 13:55:32.859041   874 net.cpp:205] Memory required for data: 680525828
I0712 13:55:32.859050   874 layer_factory.hpp:123] Creating layer relu_u2a
I0712 13:55:32.859058   874 net.cpp:140] Creating Layer relu_u2a
I0712 13:55:32.859062   874 net.cpp:481] relu_u2a <- u2a
I0712 13:55:32.859068   874 net.cpp:442] relu_u2a -> u2a (in-place)
I0712 13:55:32.859079   874 net.cpp:190] Setting up relu_u2a
I0712 13:55:32.859084   874 net.cpp:197] Top shape: 1 512 64 128 (4194304)
I0712 13:55:32.859087   874 net.cpp:205] Memory required for data: 697303044
I0712 13:55:32.859091   874 layer_factory.hpp:123] Creating layer concat_d2cc_u2a-b
I0712 13:55:32.859095   874 net.cpp:140] Creating Layer concat_d2cc_u2a-b
I0712 13:55:32.859098   874 net.cpp:481] concat_d2cc_u2a-b <- u2a
I0712 13:55:32.859102   874 net.cpp:481] concat_d2cc_u2a-b <- d2c_d2c_fixed_0_split_1
I0712 13:55:32.859108   874 net.cpp:455] concat_d2cc_u2a-b -> u2b
I0712 13:55:32.859138   874 net.cpp:190] Setting up concat_d2cc_u2a-b
I0712 13:55:32.859143   874 net.cpp:197] Top shape: 1 768 64 128 (6291456)
I0712 13:55:32.859146   874 net.cpp:205] Memory required for data: 722468868
I0712 13:55:32.859149   874 layer_factory.hpp:123] Creating layer u2b_fixed
I0712 13:55:32.859154   874 net.cpp:140] Creating Layer u2b_fixed
I0712 13:55:32.859158   874 net.cpp:481] u2b_fixed <- u2b
I0712 13:55:32.859163   874 net.cpp:442] u2b_fixed -> u2b (in-place)
I0712 13:55:32.859200   874 net.cpp:190] Setting up u2b_fixed
I0712 13:55:32.859206   874 net.cpp:197] Top shape: 1 768 64 128 (6291456)
I0712 13:55:32.859210   874 net.cpp:205] Memory required for data: 747634692
I0712 13:55:32.859213   874 layer_factory.hpp:123] Creating layer conv_u2b-c
I0712 13:55:32.859221   874 net.cpp:140] Creating Layer conv_u2b-c
I0712 13:55:32.859225   874 net.cpp:481] conv_u2b-c <- u2b
I0712 13:55:32.859230   874 net.cpp:455] conv_u2b-c -> u2c
I0712 13:55:32.879858   874 layer_factory.hpp:123] Creating layer conv_u2b-c
I0712 13:55:32.899686   874 net.cpp:190] Setting up conv_u2b-c
I0712 13:55:32.899706   874 net.cpp:197] Top shape: 1 256 64 128 (2097152)
I0712 13:55:32.899709   874 net.cpp:205] Memory required for data: 756023300
I0712 13:55:32.899716   874 layer_factory.hpp:123] Creating layer relu_u2c
I0712 13:55:32.899724   874 net.cpp:140] Creating Layer relu_u2c
I0712 13:55:32.899729   874 net.cpp:481] relu_u2c <- u2c
I0712 13:55:32.899734   874 net.cpp:442] relu_u2c -> u2c (in-place)
I0712 13:55:32.899741   874 net.cpp:190] Setting up relu_u2c
I0712 13:55:32.899745   874 net.cpp:197] Top shape: 1 256 64 128 (2097152)
I0712 13:55:32.899749   874 net.cpp:205] Memory required for data: 764411908
I0712 13:55:32.899751   874 layer_factory.hpp:123] Creating layer u2c_fixed
I0712 13:55:32.899765   874 net.cpp:140] Creating Layer u2c_fixed
I0712 13:55:32.899770   874 net.cpp:481] u2c_fixed <- u2c
I0712 13:55:32.899775   874 net.cpp:442] u2c_fixed -> u2c (in-place)
I0712 13:55:32.899816   874 net.cpp:190] Setting up u2c_fixed
I0712 13:55:32.899821   874 net.cpp:197] Top shape: 1 256 64 128 (2097152)
I0712 13:55:32.899824   874 net.cpp:205] Memory required for data: 772800516
I0712 13:55:32.899829   874 layer_factory.hpp:123] Creating layer conv_u2c-d
I0712 13:55:32.899838   874 net.cpp:140] Creating Layer conv_u2c-d
I0712 13:55:32.899842   874 net.cpp:481] conv_u2c-d <- u2c
I0712 13:55:32.899848   874 net.cpp:455] conv_u2c-d -> u2d
I0712 13:55:32.906764   874 layer_factory.hpp:123] Creating layer conv_u2c-d
I0712 13:55:32.913796   874 net.cpp:190] Setting up conv_u2c-d
I0712 13:55:32.913810   874 net.cpp:197] Top shape: 1 256 64 128 (2097152)
I0712 13:55:32.913812   874 net.cpp:205] Memory required for data: 781189124
I0712 13:55:32.913820   874 layer_factory.hpp:123] Creating layer relu_u2d
I0712 13:55:32.913825   874 net.cpp:140] Creating Layer relu_u2d
I0712 13:55:32.913830   874 net.cpp:481] relu_u2d <- u2d
I0712 13:55:32.913834   874 net.cpp:442] relu_u2d -> u2d (in-place)
I0712 13:55:32.913841   874 net.cpp:190] Setting up relu_u2d
I0712 13:55:32.913846   874 net.cpp:197] Top shape: 1 256 64 128 (2097152)
I0712 13:55:32.913847   874 net.cpp:205] Memory required for data: 789577732
I0712 13:55:32.913851   874 layer_factory.hpp:123] Creating layer u2d_fixed
I0712 13:55:32.913856   874 net.cpp:140] Creating Layer u2d_fixed
I0712 13:55:32.913861   874 net.cpp:481] u2d_fixed <- u2d
I0712 13:55:32.913864   874 net.cpp:442] u2d_fixed -> u2d (in-place)
I0712 13:55:32.913904   874 net.cpp:190] Setting up u2d_fixed
I0712 13:55:32.913911   874 net.cpp:197] Top shape: 1 256 64 128 (2097152)
I0712 13:55:32.913914   874 net.cpp:205] Memory required for data: 797966340
I0712 13:55:32.913918   874 layer_factory.hpp:123] Creating layer upconv_u2d_u1a
I0712 13:55:32.913926   874 net.cpp:140] Creating Layer upconv_u2d_u1a
I0712 13:55:32.913929   874 net.cpp:481] upconv_u2d_u1a <- u2d
I0712 13:55:32.913934   874 net.cpp:455] upconv_u2d_u1a -> u1a
I0712 13:55:32.915299   874 layer_factory.hpp:123] Creating layer upconv_u2d_u1a
I0712 13:55:32.917572   874 net.cpp:190] Setting up upconv_u2d_u1a
I0712 13:55:32.917584   874 net.cpp:197] Top shape: 1 128 128 256 (4194304)
I0712 13:55:32.917587   874 net.cpp:205] Memory required for data: 814743556
I0712 13:55:32.917593   874 layer_factory.hpp:123] Creating layer relu_u1a
I0712 13:55:32.917598   874 net.cpp:140] Creating Layer relu_u1a
I0712 13:55:32.917601   874 net.cpp:481] relu_u1a <- u1a
I0712 13:55:32.917606   874 net.cpp:442] relu_u1a -> u1a (in-place)
I0712 13:55:32.917613   874 net.cpp:190] Setting up relu_u1a
I0712 13:55:32.917616   874 net.cpp:197] Top shape: 1 128 128 256 (4194304)
I0712 13:55:32.917619   874 net.cpp:205] Memory required for data: 831520772
I0712 13:55:32.917623   874 layer_factory.hpp:123] Creating layer concat_d1cc_u1a-b
I0712 13:55:32.917629   874 net.cpp:140] Creating Layer concat_d1cc_u1a-b
I0712 13:55:32.917630   874 net.cpp:481] concat_d1cc_u1a-b <- u1a
I0712 13:55:32.917635   874 net.cpp:481] concat_d1cc_u1a-b <- d1c_d1c_fixed_0_split_1
I0712 13:55:32.917639   874 net.cpp:455] concat_d1cc_u1a-b -> u1b
I0712 13:55:32.917671   874 net.cpp:190] Setting up concat_d1cc_u1a-b
I0712 13:55:32.917677   874 net.cpp:197] Top shape: 1 256 128 256 (8388608)
I0712 13:55:32.917680   874 net.cpp:205] Memory required for data: 865075204
I0712 13:55:32.917683   874 layer_factory.hpp:123] Creating layer u1b_fixed
I0712 13:55:32.917688   874 net.cpp:140] Creating Layer u1b_fixed
I0712 13:55:32.917691   874 net.cpp:481] u1b_fixed <- u1b
I0712 13:55:32.917696   874 net.cpp:442] u1b_fixed -> u1b (in-place)
I0712 13:55:32.917734   874 net.cpp:190] Setting up u1b_fixed
I0712 13:55:32.917740   874 net.cpp:197] Top shape: 1 256 128 256 (8388608)
I0712 13:55:32.917743   874 net.cpp:205] Memory required for data: 898629636
I0712 13:55:32.917747   874 layer_factory.hpp:123] Creating layer conv_u1b-c
I0712 13:55:32.917755   874 net.cpp:140] Creating Layer conv_u1b-c
I0712 13:55:32.917758   874 net.cpp:481] conv_u1b-c <- u1b
I0712 13:55:32.917763   874 net.cpp:455] conv_u1b-c -> u1c
I0712 13:55:32.921226   874 layer_factory.hpp:123] Creating layer conv_u1b-c
I0712 13:55:32.925576   874 net.cpp:190] Setting up conv_u1b-c
I0712 13:55:32.925588   874 net.cpp:197] Top shape: 1 128 128 256 (4194304)
I0712 13:55:32.925591   874 net.cpp:205] Memory required for data: 915406852
I0712 13:55:32.925603   874 layer_factory.hpp:123] Creating layer relu_u1c
I0712 13:55:32.925609   874 net.cpp:140] Creating Layer relu_u1c
I0712 13:55:32.925613   874 net.cpp:481] relu_u1c <- u1c
I0712 13:55:32.925617   874 net.cpp:442] relu_u1c -> u1c (in-place)
I0712 13:55:32.925624   874 net.cpp:190] Setting up relu_u1c
I0712 13:55:32.925628   874 net.cpp:197] Top shape: 1 128 128 256 (4194304)
I0712 13:55:32.925631   874 net.cpp:205] Memory required for data: 932184068
I0712 13:55:32.925633   874 layer_factory.hpp:123] Creating layer u1c_fixed
I0712 13:55:32.925638   874 net.cpp:140] Creating Layer u1c_fixed
I0712 13:55:32.925642   874 net.cpp:481] u1c_fixed <- u1c
I0712 13:55:32.925645   874 net.cpp:442] u1c_fixed -> u1c (in-place)
I0712 13:55:32.925685   874 net.cpp:190] Setting up u1c_fixed
I0712 13:55:32.925693   874 net.cpp:197] Top shape: 1 128 128 256 (4194304)
I0712 13:55:32.925695   874 net.cpp:205] Memory required for data: 948961284
I0712 13:55:32.925699   874 layer_factory.hpp:123] Creating layer conv_u1c-d
I0712 13:55:32.925706   874 net.cpp:140] Creating Layer conv_u1c-d
I0712 13:55:32.925711   874 net.cpp:481] conv_u1c-d <- u1c
I0712 13:55:32.925716   874 net.cpp:455] conv_u1c-d -> u1d
I0712 13:55:32.927181   874 layer_factory.hpp:123] Creating layer conv_u1c-d
I0712 13:55:32.929575   874 net.cpp:190] Setting up conv_u1c-d
I0712 13:55:32.929587   874 net.cpp:197] Top shape: 1 128 128 256 (4194304)
I0712 13:55:32.929590   874 net.cpp:205] Memory required for data: 965738500
I0712 13:55:32.929596   874 layer_factory.hpp:123] Creating layer relu_u1d
I0712 13:55:32.929601   874 net.cpp:140] Creating Layer relu_u1d
I0712 13:55:32.929605   874 net.cpp:481] relu_u1d <- u1d
I0712 13:55:32.929610   874 net.cpp:442] relu_u1d -> u1d (in-place)
I0712 13:55:32.929616   874 net.cpp:190] Setting up relu_u1d
I0712 13:55:32.929620   874 net.cpp:197] Top shape: 1 128 128 256 (4194304)
I0712 13:55:32.929623   874 net.cpp:205] Memory required for data: 982515716
I0712 13:55:32.929625   874 layer_factory.hpp:123] Creating layer u1d_fixed
I0712 13:55:32.929630   874 net.cpp:140] Creating Layer u1d_fixed
I0712 13:55:32.929633   874 net.cpp:481] u1d_fixed <- u1d
I0712 13:55:32.929637   874 net.cpp:442] u1d_fixed -> u1d (in-place)
I0712 13:55:32.929678   874 net.cpp:190] Setting up u1d_fixed
I0712 13:55:32.929684   874 net.cpp:197] Top shape: 1 128 128 256 (4194304)
I0712 13:55:32.929687   874 net.cpp:205] Memory required for data: 999292932
I0712 13:55:32.929692   874 layer_factory.hpp:123] Creating layer upconv_u1d_u0a_NEW
I0712 13:55:32.929698   874 net.cpp:140] Creating Layer upconv_u1d_u0a_NEW
I0712 13:55:32.929702   874 net.cpp:481] upconv_u1d_u0a_NEW <- u1d
I0712 13:55:32.929708   874 net.cpp:455] upconv_u1d_u0a_NEW -> u0a
I0712 13:55:32.930922   874 layer_factory.hpp:123] Creating layer upconv_u1d_u0a_NEW
I0712 13:55:32.931742   874 net.cpp:190] Setting up upconv_u1d_u0a_NEW
I0712 13:55:32.931751   874 net.cpp:197] Top shape: 1 64 256 512 (8388608)
I0712 13:55:32.931759   874 net.cpp:205] Memory required for data: 1032847364
I0712 13:55:32.931766   874 layer_factory.hpp:123] Creating layer relu_u0a
I0712 13:55:32.931771   874 net.cpp:140] Creating Layer relu_u0a
I0712 13:55:32.931773   874 net.cpp:481] relu_u0a <- u0a
I0712 13:55:32.931778   874 net.cpp:442] relu_u0a -> u0a (in-place)
I0712 13:55:32.931785   874 net.cpp:190] Setting up relu_u0a
I0712 13:55:32.931789   874 net.cpp:197] Top shape: 1 64 256 512 (8388608)
I0712 13:55:32.931792   874 net.cpp:205] Memory required for data: 1066401796
I0712 13:55:32.931794   874 layer_factory.hpp:123] Creating layer concat_d0cc_u0a-b
I0712 13:55:32.931799   874 net.cpp:140] Creating Layer concat_d0cc_u0a-b
I0712 13:55:32.931802   874 net.cpp:481] concat_d0cc_u0a-b <- u0a
I0712 13:55:32.931805   874 net.cpp:481] concat_d0cc_u0a-b <- d0c_d0c_fixed_0_split_1
I0712 13:55:32.931810   874 net.cpp:455] concat_d0cc_u0a-b -> u0b
I0712 13:55:32.931840   874 net.cpp:190] Setting up concat_d0cc_u0a-b
I0712 13:55:32.931846   874 net.cpp:197] Top shape: 1 128 256 512 (16777216)
I0712 13:55:32.931849   874 net.cpp:205] Memory required for data: 1133510660
I0712 13:55:32.931852   874 layer_factory.hpp:123] Creating layer u0b_fixed
I0712 13:55:32.931857   874 net.cpp:140] Creating Layer u0b_fixed
I0712 13:55:32.931860   874 net.cpp:481] u0b_fixed <- u0b
I0712 13:55:32.931864   874 net.cpp:442] u0b_fixed -> u0b (in-place)
I0712 13:55:32.931902   874 net.cpp:190] Setting up u0b_fixed
I0712 13:55:32.931908   874 net.cpp:197] Top shape: 1 128 256 512 (16777216)
I0712 13:55:32.931911   874 net.cpp:205] Memory required for data: 1200619524
I0712 13:55:32.931915   874 layer_factory.hpp:123] Creating layer conv_u0b-c_New
I0712 13:55:32.931922   874 net.cpp:140] Creating Layer conv_u0b-c_New
I0712 13:55:32.931926   874 net.cpp:481] conv_u0b-c_New <- u0b
I0712 13:55:32.931941   874 net.cpp:455] conv_u0b-c_New -> u0c
I0712 13:55:32.932777   874 layer_factory.hpp:123] Creating layer conv_u0b-c_New
I0712 13:55:32.934772   874 net.cpp:190] Setting up conv_u0b-c_New
I0712 13:55:32.934784   874 net.cpp:197] Top shape: 1 64 256 512 (8388608)
I0712 13:55:32.934788   874 net.cpp:205] Memory required for data: 1234173956
I0712 13:55:32.934794   874 layer_factory.hpp:123] Creating layer relu_u0c
I0712 13:55:32.934799   874 net.cpp:140] Creating Layer relu_u0c
I0712 13:55:32.934803   874 net.cpp:481] relu_u0c <- u0c
I0712 13:55:32.934808   874 net.cpp:442] relu_u0c -> u0c (in-place)
I0712 13:55:32.934814   874 net.cpp:190] Setting up relu_u0c
I0712 13:55:32.934818   874 net.cpp:197] Top shape: 1 64 256 512 (8388608)
I0712 13:55:32.934821   874 net.cpp:205] Memory required for data: 1267728388
I0712 13:55:32.934824   874 layer_factory.hpp:123] Creating layer u0c_fixed
I0712 13:55:32.934829   874 net.cpp:140] Creating Layer u0c_fixed
I0712 13:55:32.934832   874 net.cpp:481] u0c_fixed <- u0c
I0712 13:55:32.934836   874 net.cpp:442] u0c_fixed -> u0c (in-place)
I0712 13:55:32.934878   874 net.cpp:190] Setting up u0c_fixed
I0712 13:55:32.934885   874 net.cpp:197] Top shape: 1 64 256 512 (8388608)
I0712 13:55:32.934887   874 net.cpp:205] Memory required for data: 1301282820
I0712 13:55:32.934892   874 layer_factory.hpp:123] Creating layer conv_u0c-d_New
I0712 13:55:32.934900   874 net.cpp:140] Creating Layer conv_u0c-d_New
I0712 13:55:32.934904   874 net.cpp:481] conv_u0c-d_New <- u0c
I0712 13:55:32.934909   874 net.cpp:455] conv_u0c-d_New -> u0d
I0712 13:55:32.935434   874 layer_factory.hpp:123] Creating layer conv_u0c-d_New
I0712 13:55:32.936250   874 net.cpp:190] Setting up conv_u0c-d_New
I0712 13:55:32.936260   874 net.cpp:197] Top shape: 1 64 256 512 (8388608)
I0712 13:55:32.936262   874 net.cpp:205] Memory required for data: 1334837252
I0712 13:55:32.936269   874 layer_factory.hpp:123] Creating layer relu_u0d
I0712 13:55:32.936273   874 net.cpp:140] Creating Layer relu_u0d
I0712 13:55:32.936276   874 net.cpp:481] relu_u0d <- u0d
I0712 13:55:32.936280   874 net.cpp:442] relu_u0d -> u0d (in-place)
I0712 13:55:32.936286   874 net.cpp:190] Setting up relu_u0d
I0712 13:55:32.936291   874 net.cpp:197] Top shape: 1 64 256 512 (8388608)
I0712 13:55:32.936293   874 net.cpp:205] Memory required for data: 1368391684
I0712 13:55:32.936296   874 layer_factory.hpp:123] Creating layer u0d_fixed
I0712 13:55:32.936301   874 net.cpp:140] Creating Layer u0d_fixed
I0712 13:55:32.936307   874 net.cpp:481] u0d_fixed <- u0d
I0712 13:55:32.936311   874 net.cpp:442] u0d_fixed -> u0d (in-place)
I0712 13:55:32.936352   874 net.cpp:190] Setting up u0d_fixed
I0712 13:55:32.936357   874 net.cpp:197] Top shape: 1 64 256 512 (8388608)
I0712 13:55:32.936362   874 net.cpp:205] Memory required for data: 1401946116
I0712 13:55:32.936365   874 layer_factory.hpp:123] Creating layer conv_u0d-score_New
I0712 13:55:32.936372   874 net.cpp:140] Creating Layer conv_u0d-score_New
I0712 13:55:32.936375   874 net.cpp:481] conv_u0d-score_New <- u0d
I0712 13:55:32.936381   874 net.cpp:455] conv_u0d-score_New -> conv_u0d-score_New
I0712 13:55:32.936609   874 layer_factory.hpp:123] Creating layer conv_u0d-score_New
I0712 13:55:32.937839   874 net.cpp:190] Setting up conv_u0d-score_New
I0712 13:55:32.937850   874 net.cpp:197] Top shape: 1 19 256 512 (2490368)
I0712 13:55:32.937853   874 net.cpp:205] Memory required for data: 1411907588
I0712 13:55:32.937860   874 layer_factory.hpp:123] Creating layer conv_u0d-score_New_fixed
I0712 13:55:32.937865   874 net.cpp:140] Creating Layer conv_u0d-score_New_fixed
I0712 13:55:32.937868   874 net.cpp:481] conv_u0d-score_New_fixed <- conv_u0d-score_New
I0712 13:55:32.937875   874 net.cpp:442] conv_u0d-score_New_fixed -> conv_u0d-score_New (in-place)
I0712 13:55:32.937917   874 net.cpp:190] Setting up conv_u0d-score_New_fixed
I0712 13:55:32.937923   874 net.cpp:197] Top shape: 1 19 256 512 (2490368)
I0712 13:55:32.937927   874 net.cpp:205] Memory required for data: 1421869060
I0712 13:55:32.937932   874 layer_factory.hpp:123] Creating layer score
I0712 13:55:32.937950   874 net.cpp:140] Creating Layer score
I0712 13:55:32.937953   874 net.cpp:481] score <- conv_u0d-score_New
I0712 13:55:32.937958   874 net.cpp:455] score -> score
I0712 13:55:32.938028   874 net.cpp:190] Setting up score
I0712 13:55:32.938035   874 net.cpp:197] Top shape: 1 19 256 512 (2490368)
I0712 13:55:32.938037   874 net.cpp:205] Memory required for data: 1431830532
I0712 13:55:32.938040   874 net.cpp:268] score does not need backward computation.
I0712 13:55:32.938045   874 net.cpp:268] conv_u0d-score_New_fixed does not need backward computation.
I0712 13:55:32.938047   874 net.cpp:268] conv_u0d-score_New does not need backward computation.
I0712 13:55:32.938050   874 net.cpp:268] u0d_fixed does not need backward computation.
…
