…
I0131 10:20:20.689826  3933 net.cpp:369] The NetState phase (0) differed from the phase (1) specified by a rule in layer accuracy-top1
I0131 10:20:20.690019  3933 net.cpp:98] Initializing net from parameters: 
state {
  phase: TRAIN
}
layer {
  name: "data"
  type: "ImageData"
  top: "data"
  top: "label"
  include {
    phase: TRAIN
  }
  transform_param {
    crop_size: 227
    mean_value: 106
    mean_value: 116
    mean_value: 124
  }
  image_data_param {
    source: "cats-vs-dogs/deephi/alexnetBNnoLRN/quantiz/data/calib/calibration.txt"
    batch_size: 10
    shuffle: true
    root_folder: "cats-vs-dogs/deephi/alexnetBNnoLRN/quantiz/data/calib/"
  }
}
layer {
  name: "data_fixed"
  type: "FixedNeuron"
  bottom: "data"
  top: "data"
  param {
    lr_mult: 0
    decay_mult: 0
  }
  fixed_param {
    fixed_method: OVER_FLOW
    bit_width: 8
    follow_data_layer: true
  }
}
layer {
  name: "conv1"
  type: "ConvolutionFixed"
  bottom: "data"
  top: "scale1"
  param {
    lr_mult: 1
    decay_mult: 1
  }
  param {
    lr_mult: 1
    decay_mult: 0
  }
  convolution_param {
    num_output: 96
    bias_term: true
    pad: 1
    kernel_size: 11
    stride: 4
    weight_filler {
      type: "gaussian"
      std: 0.01
    }
    bias_filler {
      type: "constant"
      value: 0
    }
  }
  fixed_param {
    fixed_method: DIFF_S
    bit_width: 8
  }
}
layer {
  name: "relu1"
  type: "ReLU"
  bottom: "scale1"
  top: "relu1"
}
layer {
  name: "pool1"
  type: "Pooling"
  bottom: "relu1"
  top: "pool1"
  pooling_param {
    pool: MAX
    kernel_size: 3
    stride: 2
  }
}
layer {
  name: "pool1_fixed"
  type: "FixedNeuron"
  bottom: "pool1"
  top: "pool1"
  param {
    lr_mult: 0
    decay_mult: 0
  }
  fixed_param {
    fixed_method: DIFF_S
    bit_width: 8
  }
}
layer {
  name: "conv2"
  type: "ConvolutionFixed"
  bottom: "pool1"
  top: "scale2"
  param {
    lr_mult: 1
    decay_mult: 1
  }
  param {
    lr_mult: 1
    decay_mult: 0
  }
  convolution_param {
    num_output: 256
    bias_term: true
    pad: 2
    kernel_size: 5
    group: 1
    weight_filler {
      type: "gaussian"
      std: 0.01
    }
    bias_filler {
      type: "constant"
      value: 1
    }
  }
  fixed_param {
    fixed_method: DIFF_S
    bit_width: 8
  }
}
layer {
  name: "relu2"
  type: "ReLU"
  bottom: "scale2"
  top: "relu2"
}
layer {
  name: "pool2"
  type: "Pooling"
  bottom: "relu2"
  top: "pool2"
  pooling_param {
    pool: MAX
    kernel_size: 3
    stride: 2
  }
}
layer {
  name: "pool2_fixed"
  type: "FixedNeuron"
  bottom: "pool2"
  top: "pool2"
  param {
    lr_mult: 0
    decay_mult: 0
  }
  fixed_param {
    fixed_method: DIFF_S
    bit_width: 8
  }
}
layer {
  name: "conv3"
  type: "ConvolutionFixed"
  bottom: "pool2"
  top: "conv3"
  param {
    lr_mult: 1
    decay_mult: 1
  }
  param {
    lr_mult: 2
    decay_mult: 0
  }
  convolution_param {
    num_output: 384
    pad: 1
    kernel_size: 3
    weight_filler {
      type: "gaussian"
      std: 0.01
    }
    bias_filler {
      type: "constant"
      value: 0
    }
  }
  fixed_param {
    fixed_method: DIFF_S
    bit_width: 8
  }
}
layer {
  name: "relu3"
  type: "ReLU"
  bottom: "conv3"
  top: "relu3"
}
layer {
  name: "relu3_fixed"
  type: "FixedNeuron"
  bottom: "relu3"
  top: "relu3"
  param {
    lr_mult: 0
    decay_mult: 0
  }
  fixed_param {
    fixed_method: DIFF_S
    bit_width: 8
  }
}
layer {
  name: "conv4"
  type: "ConvolutionFixed"
  bottom: "relu3"
  top: "conv4"
  param {
    lr_mult: 1
    decay_mult: 1
  }
  param {
    lr_mult: 2
    decay_mult: 0
  }
  convolution_param {
    num_output: 384
    pad: 1
    kernel_size: 3
    group: 1
    weight_filler {
      type: "gaussian"
      std: 0.01
    }
    bias_filler {
      type: "constant"
      value: 1
    }
  }
  fixed_param {
    fixed_method: DIFF_S
    bit_width: 8
  }
}
layer {
  name: "relu4"
  type: "ReLU"
  bottom: "conv4"
  top: "relu4"
}
layer {
  name: "relu4_fixed"
  type: "FixedNeuron"
  bottom: "relu4"
  top: "relu4"
  param {
    lr_mult: 0
    decay_mult: 0
  }
  fixed_param {
    fixed_method: DIFF_S
    bit_width: 8
  }
}
layer {
  name: "conv5"
  type: "ConvolutionFixed"
  bottom: "relu4"
  top: "conv5"
  param {
    lr_mult: 1
    decay_mult: 1
  }
  param {
    lr_mult: 2
    decay_mult: 0
  }
  convolution_param {
    num_output: 256
    pad: 1
    kernel_size: 3
    group: 1
    weight_filler {
      type: "gaussian"
      std: 0.01
    }
    bias_filler {
      type: "constant"
      value: 1
    }
  }
  fixed_param {
    fixed_method: DIFF_S
    bit_width: 8
  }
}
layer {
  name: "relu5"
  type: "ReLU"
  bottom: "conv5"
  top: "relu5"
}
layer {
  name: "pool5"
  type: "Pooling"
  bottom: "relu5"
  top: "pool5"
  pooling_param {
    pool: MAX
    kernel_size: 3
    stride: 2
  }
}
layer {
  name: "pool5_fixed"
  type: "FixedNeuron"
  bottom: "pool5"
  top: "pool5"
  param {
    lr_mult: 0
    decay_mult: 0
  }
  fixed_param {
    fixed_method: DIFF_S
    bit_width: 8
  }
}
layer {
  name: "fc6"
  type: "InnerProductFixed"
  bottom: "pool5"
  top: "fc6"
  param {
    lr_mult: 1
    decay_mult: 1
  }
  param {
    lr_mult: 2
    decay_mult: 0
  }
  inner_product_param {
    num_output: 4096
    weight_filler {
      type: "gaussian"
      std: 0.005
    }
    bias_filler {
      type: "constant"
      value: 1
    }
  }
  fixed_param {
    fixed_method: DIFF_S
    bit_width: 8
  }
}
layer {
  name: "relu6"
  type: "ReLU"
  bottom: "fc6"
  top: "relu6"
}
layer {
  name: "relu6_fixed"
  type: "FixedNeuron"
  bottom: "relu6"
  top: "relu6"
  param {
    lr_mult: 0
    decay_mult: 0
  }
  fixed_param {
    fixed_method: DIFF_S
    bit_width: 8
  }
}
layer {
  name: "fc7"
  type: "InnerProductFixed"
  bottom: "relu6"
  top: "scale7"
  param {
    lr_mult: 1
    decay_mult: 1
  }
  param {
    lr_mult: 1
    decay_mult: 0
  }
  inner_product_param {
    num_output: 4096
    bias_term: true
    weight_filler {
      type: "gaussian"
      std: 0.005
    }
    bias_filler {
      type: "constant"
      value: 1
    }
  }
  fixed_param {
    fixed_method: DIFF_S
    bit_width: 8
  }
}
layer {
  name: "relu7"
  type: "ReLU"
  bottom: "scale7"
  top: "relu7"
}
layer {
  name: "relu7_fixed"
  type: "FixedNeuron"
  bottom: "relu7"
  top: "relu7"
  param {
    lr_mult: 0
    decay_mult: 0
  }
  fixed_param {
    fixed_method: DIFF_S
    bit_width: 8
  }
}
layer {
  name: "fc8"
  type: "InnerProductFixed"
  bottom: "relu7"
  top: "fc8"
  param {
    lr_mult: 1
    decay_mult: 1
  }
  param {
    lr_mult: 2
    decay_mult: 0
  }
  inner_product_param {
    num_output: 2
    weight_filler {
      type: "gaussian"
      std: 0.01
    }
    bias_filler {
      type: "constant"
      value: 0
    }
  }
  fixed_param {
    fixed_method: DIFF_S
    bit_width: 8
  }
}
layer {
  name: "fc8_fixed"
  type: "FixedNeuron"
  bottom: "fc8"
  top: "fc8"
  param {
    lr_mult: 0
    decay_mult: 0
  }
  fixed_param {
    fixed_method: DIFF_S
    bit_width: 8
  }
}
layer {
  name: "loss"
  type: "SoftmaxWithLoss"
  bottom: "fc8"
  bottom: "label"
  top: "loss"
}
I0131 10:20:20.690083  3933 layer_factory.hpp:123] Creating layer data
I0131 10:20:20.690541  3933 net.cpp:140] Creating Layer data
I0131 10:20:20.690546  3933 net.cpp:455] data -> data
I0131 10:20:20.690554  3933 net.cpp:455] data -> label
I0131 10:20:20.691323  3933 image_data_layer.cpp:87] Opening file cats-vs-dogs/deephi/alexnetBNnoLRN/quantiz/data/calib/calibration.txt
I0131 10:20:20.691395  3933 image_data_layer.cpp:97] Shuffling data
I0131 10:20:20.691406  3933 image_data_layer.cpp:102] A total of 200 images.
I0131 10:20:20.692135  3933 image_data_layer.cpp:130] output data size: 10,3,227,227
I0131 10:20:20.718860  3933 internal_thread.cpp:73] Starting internal thread(s) on GPU 0
I0131 10:20:20.718919  3933 net.cpp:190] Setting up data
I0131 10:20:20.718925  3933 net.cpp:197] Top shape: 10 3 227 227 (1545870)
I0131 10:20:20.718930  3933 net.cpp:197] Top shape: 10 (10)
I0131 10:20:20.718931  3933 net.cpp:205] Memory required for data: 6183520
I0131 10:20:20.718935  3933 layer_factory.hpp:123] Creating layer data_fixed
I0131 10:20:20.718945  3933 net.cpp:140] Creating Layer data_fixed
I0131 10:20:20.718946  3933 net.cpp:481] data_fixed <- data
I0131 10:20:20.718957  3933 net.cpp:442] data_fixed -> data (in-place)
I0131 10:20:20.719003  3933 net.cpp:190] Setting up data_fixed
I0131 10:20:20.719008  3933 net.cpp:197] Top shape: 10 3 227 227 (1545870)
I0131 10:20:20.719010  3933 net.cpp:205] Memory required for data: 12367000
I0131 10:20:20.719023  3933 layer_factory.hpp:123] Creating layer conv1
I0131 10:20:20.719167  3933 net.cpp:140] Creating Layer conv1
I0131 10:20:20.719172  3933 net.cpp:481] conv1 <- data
I0131 10:20:20.719177  3933 net.cpp:455] conv1 -> scale1
I0131 10:20:20.720672  3933 layer_factory.hpp:123] Creating layer conv1
I0131 10:20:20.722025  3933 net.cpp:190] Setting up conv1
I0131 10:20:20.722038  3933 net.cpp:197] Top shape: 10 96 55 55 (2904000)
I0131 10:20:20.722040  3933 net.cpp:205] Memory required for data: 23983000
I0131 10:20:20.722050  3933 layer_factory.hpp:123] Creating layer relu1
I0131 10:20:20.722056  3933 net.cpp:140] Creating Layer relu1
I0131 10:20:20.722059  3933 net.cpp:481] relu1 <- scale1
I0131 10:20:20.722064  3933 net.cpp:455] relu1 -> relu1
I0131 10:20:20.722087  3933 net.cpp:190] Setting up relu1
I0131 10:20:20.722093  3933 net.cpp:197] Top shape: 10 96 55 55 (2904000)
I0131 10:20:20.722095  3933 net.cpp:205] Memory required for data: 35599000
I0131 10:20:20.722098  3933 layer_factory.hpp:123] Creating layer pool1
I0131 10:20:20.722105  3933 net.cpp:140] Creating Layer pool1
I0131 10:20:20.722107  3933 net.cpp:481] pool1 <- relu1
I0131 10:20:20.722111  3933 net.cpp:455] pool1 -> pool1
I0131 10:20:20.722143  3933 net.cpp:190] Setting up pool1
I0131 10:20:20.722148  3933 net.cpp:197] Top shape: 10 96 27 27 (699840)
I0131 10:20:20.722151  3933 net.cpp:205] Memory required for data: 38398360
I0131 10:20:20.722154  3933 layer_factory.hpp:123] Creating layer pool1_fixed
I0131 10:20:20.722159  3933 net.cpp:140] Creating Layer pool1_fixed
I0131 10:20:20.722162  3933 net.cpp:481] pool1_fixed <- pool1
I0131 10:20:20.722167  3933 net.cpp:442] pool1_fixed -> pool1 (in-place)
I0131 10:20:20.722199  3933 net.cpp:190] Setting up pool1_fixed
I0131 10:20:20.722204  3933 net.cpp:197] Top shape: 10 96 27 27 (699840)
I0131 10:20:20.722206  3933 net.cpp:205] Memory required for data: 41197720
I0131 10:20:20.722210  3933 layer_factory.hpp:123] Creating layer conv2
I0131 10:20:20.722218  3933 net.cpp:140] Creating Layer conv2
I0131 10:20:20.722221  3933 net.cpp:481] conv2 <- pool1
I0131 10:20:20.722226  3933 net.cpp:455] conv2 -> scale2
I0131 10:20:20.728013  3933 layer_factory.hpp:123] Creating layer conv2
I0131 10:20:20.734570  3933 net.cpp:190] Setting up conv2
I0131 10:20:20.734593  3933 net.cpp:197] Top shape: 10 256 27 27 (1866240)
I0131 10:20:20.734596  3933 net.cpp:205] Memory required for data: 48662680
I0131 10:20:20.734606  3933 layer_factory.hpp:123] Creating layer relu2
I0131 10:20:20.734612  3933 net.cpp:140] Creating Layer relu2
I0131 10:20:20.734616  3933 net.cpp:481] relu2 <- scale2
I0131 10:20:20.734621  3933 net.cpp:455] relu2 -> relu2
I0131 10:20:20.734638  3933 net.cpp:190] Setting up relu2
I0131 10:20:20.734642  3933 net.cpp:197] Top shape: 10 256 27 27 (1866240)
I0131 10:20:20.734644  3933 net.cpp:205] Memory required for data: 56127640
I0131 10:20:20.734647  3933 layer_factory.hpp:123] Creating layer pool2
I0131 10:20:20.734652  3933 net.cpp:140] Creating Layer pool2
I0131 10:20:20.734655  3933 net.cpp:481] pool2 <- relu2
I0131 10:20:20.734658  3933 net.cpp:455] pool2 -> pool2
I0131 10:20:20.734683  3933 net.cpp:190] Setting up pool2
I0131 10:20:20.734688  3933 net.cpp:197] Top shape: 10 256 13 13 (432640)
I0131 10:20:20.734690  3933 net.cpp:205] Memory required for data: 57858200
I0131 10:20:20.734694  3933 layer_factory.hpp:123] Creating layer pool2_fixed
I0131 10:20:20.734697  3933 net.cpp:140] Creating Layer pool2_fixed
I0131 10:20:20.734700  3933 net.cpp:481] pool2_fixed <- pool2
I0131 10:20:20.734704  3933 net.cpp:442] pool2_fixed -> pool2 (in-place)
I0131 10:20:20.734727  3933 net.cpp:190] Setting up pool2_fixed
I0131 10:20:20.734733  3933 net.cpp:197] Top shape: 10 256 13 13 (432640)
I0131 10:20:20.734735  3933 net.cpp:205] Memory required for data: 59588760
I0131 10:20:20.734738  3933 layer_factory.hpp:123] Creating layer conv3
I0131 10:20:20.734747  3933 net.cpp:140] Creating Layer conv3
I0131 10:20:20.734750  3933 net.cpp:481] conv3 <- pool2
I0131 10:20:20.734753  3933 net.cpp:455] conv3 -> conv3
I0131 10:20:20.742501  3933 layer_factory.hpp:123] Creating layer conv3
I0131 10:20:20.750403  3933 net.cpp:190] Setting up conv3
I0131 10:20:20.750422  3933 net.cpp:197] Top shape: 10 384 13 13 (648960)
I0131 10:20:20.750424  3933 net.cpp:205] Memory required for data: 62184600
I0131 10:20:20.750435  3933 layer_factory.hpp:123] Creating layer relu3
I0131 10:20:20.750442  3933 net.cpp:140] Creating Layer relu3
I0131 10:20:20.750445  3933 net.cpp:481] relu3 <- conv3
I0131 10:20:20.750452  3933 net.cpp:455] relu3 -> relu3
I0131 10:20:20.750471  3933 net.cpp:190] Setting up relu3
I0131 10:20:20.750476  3933 net.cpp:197] Top shape: 10 384 13 13 (648960)
I0131 10:20:20.750479  3933 net.cpp:205] Memory required for data: 64780440
I0131 10:20:20.750494  3933 layer_factory.hpp:123] Creating layer relu3_fixed
I0131 10:20:20.750499  3933 net.cpp:140] Creating Layer relu3_fixed
I0131 10:20:20.750500  3933 net.cpp:481] relu3_fixed <- relu3
I0131 10:20:20.750504  3933 net.cpp:442] relu3_fixed -> relu3 (in-place)
I0131 10:20:20.750527  3933 net.cpp:190] Setting up relu3_fixed
I0131 10:20:20.750530  3933 net.cpp:197] Top shape: 10 384 13 13 (648960)
I0131 10:20:20.750532  3933 net.cpp:205] Memory required for data: 67376280
I0131 10:20:20.750535  3933 layer_factory.hpp:123] Creating layer conv4
I0131 10:20:20.750545  3933 net.cpp:140] Creating Layer conv4
I0131 10:20:20.750547  3933 net.cpp:481] conv4 <- relu3
I0131 10:20:20.750550  3933 net.cpp:455] conv4 -> conv4
I0131 10:20:20.762109  3933 layer_factory.hpp:123] Creating layer conv4
I0131 10:20:20.774549  3933 net.cpp:190] Setting up conv4
I0131 10:20:20.774567  3933 net.cpp:197] Top shape: 10 384 13 13 (648960)
I0131 10:20:20.774569  3933 net.cpp:205] Memory required for data: 69972120
I0131 10:20:20.774575  3933 layer_factory.hpp:123] Creating layer relu4
I0131 10:20:20.774581  3933 net.cpp:140] Creating Layer relu4
I0131 10:20:20.774595  3933 net.cpp:481] relu4 <- conv4
I0131 10:20:20.774600  3933 net.cpp:455] relu4 -> relu4
I0131 10:20:20.774618  3933 net.cpp:190] Setting up relu4
I0131 10:20:20.774622  3933 net.cpp:197] Top shape: 10 384 13 13 (648960)
I0131 10:20:20.774624  3933 net.cpp:205] Memory required for data: 72567960
I0131 10:20:20.774626  3933 layer_factory.hpp:123] Creating layer relu4_fixed
I0131 10:20:20.774631  3933 net.cpp:140] Creating Layer relu4_fixed
I0131 10:20:20.774634  3933 net.cpp:481] relu4_fixed <- relu4
I0131 10:20:20.774638  3933 net.cpp:442] relu4_fixed -> relu4 (in-place)
I0131 10:20:20.774660  3933 net.cpp:190] Setting up relu4_fixed
I0131 10:20:20.774664  3933 net.cpp:197] Top shape: 10 384 13 13 (648960)
I0131 10:20:20.774667  3933 net.cpp:205] Memory required for data: 75163800
I0131 10:20:20.774669  3933 layer_factory.hpp:123] Creating layer conv5
I0131 10:20:20.774679  3933 net.cpp:140] Creating Layer conv5
I0131 10:20:20.774682  3933 net.cpp:481] conv5 <- relu4
I0131 10:20:20.774685  3933 net.cpp:455] conv5 -> conv5
I0131 10:20:20.782573  3933 layer_factory.hpp:123] Creating layer conv5
I0131 10:20:20.793334  3933 net.cpp:190] Setting up conv5
I0131 10:20:20.793349  3933 net.cpp:197] Top shape: 10 256 13 13 (432640)
I0131 10:20:20.793352  3933 net.cpp:205] Memory required for data: 76894360
I0131 10:20:20.793359  3933 layer_factory.hpp:123] Creating layer relu5
I0131 10:20:20.793365  3933 net.cpp:140] Creating Layer relu5
I0131 10:20:20.793368  3933 net.cpp:481] relu5 <- conv5
I0131 10:20:20.793373  3933 net.cpp:455] relu5 -> relu5
I0131 10:20:20.793392  3933 net.cpp:190] Setting up relu5
I0131 10:20:20.793396  3933 net.cpp:197] Top shape: 10 256 13 13 (432640)
I0131 10:20:20.793398  3933 net.cpp:205] Memory required for data: 78624920
I0131 10:20:20.793401  3933 layer_factory.hpp:123] Creating layer pool5
I0131 10:20:20.793406  3933 net.cpp:140] Creating Layer pool5
I0131 10:20:20.793408  3933 net.cpp:481] pool5 <- relu5
I0131 10:20:20.793411  3933 net.cpp:455] pool5 -> pool5
I0131 10:20:20.793437  3933 net.cpp:190] Setting up pool5
I0131 10:20:20.793440  3933 net.cpp:197] Top shape: 10 256 6 6 (92160)
I0131 10:20:20.793442  3933 net.cpp:205] Memory required for data: 78993560
I0131 10:20:20.793444  3933 layer_factory.hpp:123] Creating layer pool5_fixed
I0131 10:20:20.793449  3933 net.cpp:140] Creating Layer pool5_fixed
I0131 10:20:20.793452  3933 net.cpp:481] pool5_fixed <- pool5
I0131 10:20:20.793454  3933 net.cpp:442] pool5_fixed -> pool5 (in-place)
I0131 10:20:20.793478  3933 net.cpp:190] Setting up pool5_fixed
I0131 10:20:20.793483  3933 net.cpp:197] Top shape: 10 256 6 6 (92160)
I0131 10:20:20.793484  3933 net.cpp:205] Memory required for data: 79362200
I0131 10:20:20.793488  3933 layer_factory.hpp:123] Creating layer fc6
I0131 10:20:20.793493  3933 net.cpp:140] Creating Layer fc6
I0131 10:20:20.793495  3933 net.cpp:481] fc6 <- pool5
I0131 10:20:20.793498  3933 net.cpp:455] fc6 -> fc6
I0131 10:20:21.107455  3933 layer_factory.hpp:123] Creating layer fc6
I0131 10:20:21.425717  3933 net.cpp:190] Setting up fc6
I0131 10:20:21.425743  3933 net.cpp:197] Top shape: 10 4096 (40960)
I0131 10:20:21.425745  3933 net.cpp:205] Memory required for data: 79526040
I0131 10:20:21.425756  3933 layer_factory.hpp:123] Creating layer relu6
I0131 10:20:21.425765  3933 net.cpp:140] Creating Layer relu6
I0131 10:20:21.425767  3933 net.cpp:481] relu6 <- fc6
I0131 10:20:21.425772  3933 net.cpp:455] relu6 -> relu6
I0131 10:20:21.425789  3933 net.cpp:190] Setting up relu6
I0131 10:20:21.425802  3933 net.cpp:197] Top shape: 10 4096 (40960)
I0131 10:20:21.425804  3933 net.cpp:205] Memory required for data: 79689880
I0131 10:20:21.425806  3933 layer_factory.hpp:123] Creating layer relu6_fixed
I0131 10:20:21.425812  3933 net.cpp:140] Creating Layer relu6_fixed
I0131 10:20:21.425813  3933 net.cpp:481] relu6_fixed <- relu6
I0131 10:20:21.425817  3933 net.cpp:442] relu6_fixed -> relu6 (in-place)
I0131 10:20:21.425858  3933 net.cpp:190] Setting up relu6_fixed
I0131 10:20:21.425861  3933 net.cpp:197] Top shape: 10 4096 (40960)
I0131 10:20:21.425863  3933 net.cpp:205] Memory required for data: 79853720
I0131 10:20:21.425868  3933 layer_factory.hpp:123] Creating layer fc7
I0131 10:20:21.425873  3933 net.cpp:140] Creating Layer fc7
I0131 10:20:21.425875  3933 net.cpp:481] fc7 <- relu6
I0131 10:20:21.425879  3933 net.cpp:455] fc7 -> scale7
I0131 10:20:21.565482  3933 layer_factory.hpp:123] Creating layer fc7
I0131 10:20:21.705801  3933 net.cpp:190] Setting up fc7
I0131 10:20:21.705826  3933 net.cpp:197] Top shape: 10 4096 (40960)
I0131 10:20:21.705827  3933 net.cpp:205] Memory required for data: 80017560
I0131 10:20:21.705850  3933 layer_factory.hpp:123] Creating layer relu7
I0131 10:20:21.705858  3933 net.cpp:140] Creating Layer relu7
I0131 10:20:21.705862  3933 net.cpp:481] relu7 <- scale7
I0131 10:20:21.705866  3933 net.cpp:455] relu7 -> relu7
I0131 10:20:21.705883  3933 net.cpp:190] Setting up relu7
I0131 10:20:21.705886  3933 net.cpp:197] Top shape: 10 4096 (40960)
I0131 10:20:21.705888  3933 net.cpp:205] Memory required for data: 80181400
I0131 10:20:21.705890  3933 layer_factory.hpp:123] Creating layer relu7_fixed
I0131 10:20:21.705894  3933 net.cpp:140] Creating Layer relu7_fixed
I0131 10:20:21.705896  3933 net.cpp:481] relu7_fixed <- relu7
I0131 10:20:21.705899  3933 net.cpp:442] relu7_fixed -> relu7 (in-place)
I0131 10:20:21.705931  3933 net.cpp:190] Setting up relu7_fixed
I0131 10:20:21.705935  3933 net.cpp:197] Top shape: 10 4096 (40960)
I0131 10:20:21.705938  3933 net.cpp:205] Memory required for data: 80345240
I0131 10:20:21.705941  3933 layer_factory.hpp:123] Creating layer fc8
I0131 10:20:21.705947  3933 net.cpp:140] Creating Layer fc8
I0131 10:20:21.705950  3933 net.cpp:481] fc8 <- relu7
I0131 10:20:21.705953  3933 net.cpp:455] fc8 -> fc8
I0131 10:20:21.706832  3933 layer_factory.hpp:123] Creating layer fc8
I0131 10:20:21.707015  3933 net.cpp:190] Setting up fc8
I0131 10:20:21.707020  3933 net.cpp:197] Top shape: 10 2 (20)
I0131 10:20:21.707022  3933 net.cpp:205] Memory required for data: 80345320
I0131 10:20:21.707028  3933 layer_factory.hpp:123] Creating layer fc8_fixed
I0131 10:20:21.707032  3933 net.cpp:140] Creating Layer fc8_fixed
I0131 10:20:21.707036  3933 net.cpp:481] fc8_fixed <- fc8
I0131 10:20:21.707039  3933 net.cpp:442] fc8_fixed -> fc8 (in-place)
I0131 10:20:21.707062  3933 net.cpp:190] Setting up fc8_fixed
I0131 10:20:21.707067  3933 net.cpp:197] Top shape: 10 2 (20)
I0131 10:20:21.707069  3933 net.cpp:205] Memory required for data: 80345400
I0131 10:20:21.707072  3933 layer_factory.hpp:123] Creating layer loss
I0131 10:20:21.707077  3933 net.cpp:140] Creating Layer loss
I0131 10:20:21.707079  3933 net.cpp:481] loss <- fc8
I0131 10:20:21.707082  3933 net.cpp:481] loss <- label
I0131 10:20:21.707087  3933 net.cpp:455] loss -> loss
I0131 10:20:21.707093  3933 layer_factory.hpp:123] Creating layer loss
…
I0131 10:20:30.743762  3933 net_test.cpp:369] Net type: other
I0131 10:20:30.743824  3933 net.cpp:369] The NetState phase (1) differed from the phase (0) specified by a rule in layer data
I0131 10:20:30.744027  3933 net.cpp:98] Initializing net from parameters: 
layer {
  name: "data"
  type: "Data"
  top: "data"
  top: "label"
  include {
    phase: TEST
  }
  transform_param {
    mirror: false
    crop_size: 227
    mean_value: 106
    mean_value: 116
    mean_value: 124
  }
  data_param {
    source: "cats-vs-dogs/input/lmdb/valid_lmdb"
    batch_size: 50
    backend: LMDB
  }
}
layer {
  name: "data_fixed"
  type: "FixedNeuron"
  bottom: "data"
  top: "data"
  param {
    lr_mult: 0
    decay_mult: 0
  }
  fixed_param {
    fixed_method: OVER_FLOW
    bit_width: 8
    follow_data_layer: true
  }
}
layer {
  name: "conv1"
  type: "ConvolutionFixed"
  bottom: "data"
  top: "scale1"
  param {
    lr_mult: 1
    decay_mult: 1
  }
  param {
    lr_mult: 1
    decay_mult: 0
  }
  convolution_param {
    num_output: 96
    bias_term: true
    pad: 1
    kernel_size: 11
    stride: 4
    weight_filler {
      type: "gaussian"
      std: 0.01
    }
    bias_filler {
      type: "constant"
      value: 0
    }
  }
  fixed_param {
    fixed_method: DIFF_S
    bit_width: 8
  }
}
layer {
  name: "relu1"
  type: "ReLU"
  bottom: "scale1"
  top: "relu1"
}
layer {
  name: "pool1"
  type: "Pooling"
  bottom: "relu1"
  top: "pool1"
  pooling_param {
    pool: MAX
    kernel_size: 3
    stride: 2
  }
}
layer {
  name: "pool1_fixed"
  type: "FixedNeuron"
  bottom: "pool1"
  top: "pool1"
  param {
    lr_mult: 0
    decay_mult: 0
  }
  fixed_param {
    fixed_method: DIFF_S
    bit_width: 8
  }
}
layer {
  name: "conv2"
  type: "ConvolutionFixed"
  bottom: "pool1"
  top: "scale2"
  param {
    lr_mult: 1
    decay_mult: 1
  }
  param {
    lr_mult: 1
    decay_mult: 0
  }
  convolution_param {
    num_output: 256
    bias_term: true
    pad: 2
    kernel_size: 5
    group: 1
    weight_filler {
      type: "gaussian"
      std: 0.01
    }
    bias_filler {
      type: "constant"
      value: 1
    }
  }
  fixed_param {
    fixed_method: DIFF_S
    bit_width: 8
  }
}
layer {
  name: "relu2"
  type: "ReLU"
  bottom: "scale2"
  top: "relu2"
}
layer {
  name: "pool2"
  type: "Pooling"
  bottom: "relu2"
  top: "pool2"
  pooling_param {
    pool: MAX
    kernel_size: 3
    stride: 2
  }
}
layer {
  name: "pool2_fixed"
  type: "FixedNeuron"
  bottom: "pool2"
  top: "pool2"
  param {
    lr_mult: 0
    decay_mult: 0
  }
  fixed_param {
    fixed_method: DIFF_S
    bit_width: 8
  }
}
layer {
  name: "conv3"
  type: "ConvolutionFixed"
  bottom: "pool2"
  top: "conv3"
  param {
    lr_mult: 1
    decay_mult: 1
  }
  param {
    lr_mult: 2
    decay_mult: 0
  }
  convolution_param {
    num_output: 384
    pad: 1
    kernel_size: 3
    weight_filler {
      type: "gaussian"
      std: 0.01
    }
    bias_filler {
      type: "constant"
      value: 0
    }
  }
  fixed_param {
    fixed_method: DIFF_S
    bit_width: 8
  }
}
layer {
  name: "relu3"
  type: "ReLU"
  bottom: "conv3"
  top: "relu3"
}
layer {
  name: "relu3_fixed"
  type: "FixedNeuron"
  bottom: "relu3"
  top: "relu3"
  param {
    lr_mult: 0
    decay_mult: 0
  }
  fixed_param {
    fixed_method: DIFF_S
    bit_width: 8
  }
}
layer {
  name: "conv4"
  type: "ConvolutionFixed"
  bottom: "relu3"
  top: "conv4"
  param {
    lr_mult: 1
    decay_mult: 1
  }
  param {
    lr_mult: 2
    decay_mult: 0
  }
  convolution_param {
    num_output: 384
    pad: 1
    kernel_size: 3
    group: 1
    weight_filler {
      type: "gaussian"
      std: 0.01
    }
    bias_filler {
      type: "constant"
      value: 1
    }
  }
  fixed_param {
    fixed_method: DIFF_S
    bit_width: 8
  }
}
layer {
  name: "relu4"
  type: "ReLU"
  bottom: "conv4"
  top: "relu4"
}
layer {
  name: "relu4_fixed"
  type: "FixedNeuron"
  bottom: "relu4"
  top: "relu4"
  param {
    lr_mult: 0
    decay_mult: 0
  }
  fixed_param {
    fixed_method: DIFF_S
    bit_width: 8
  }
}
layer {
  name: "conv5"
  type: "ConvolutionFixed"
  bottom: "relu4"
  top: "conv5"
  param {
    lr_mult: 1
    decay_mult: 1
  }
  param {
    lr_mult: 2
    decay_mult: 0
  }
  convolution_param {
    num_output: 256
    pad: 1
    kernel_size: 3
    group: 1
    weight_filler {
      type: "gaussian"
      std: 0.01
    }
    bias_filler {
      type: "constant"
      value: 1
    }
  }
  fixed_param {
    fixed_method: DIFF_S
    bit_width: 8
  }
}
layer {
  name: "relu5"
  type: "ReLU"
  bottom: "conv5"
  top: "relu5"
}
layer {
  name: "pool5"
  type: "Pooling"
  bottom: "relu5"
  top: "pool5"
  pooling_param {
    pool: MAX
    kernel_size: 3
    stride: 2
  }
}
layer {
  name: "pool5_fixed"
  type: "FixedNeuron"
  bottom: "pool5"
  top: "pool5"
  param {
    lr_mult: 0
    decay_mult: 0
  }
  fixed_param {
    fixed_method: DIFF_S
    bit_width: 8
  }
}
layer {
  name: "fc6"
  type: "InnerProductFixed"
  bottom: "pool5"
  top: "fc6"
  param {
    lr_mult: 1
    decay_mult: 1
  }
  param {
    lr_mult: 2
    decay_mult: 0
  }
  inner_product_param {
    num_output: 4096
    weight_filler {
      type: "gaussian"
      std: 0.005
    }
    bias_filler {
      type: "constant"
      value: 1
    }
  }
  fixed_param {
    fixed_method: DIFF_S
    bit_width: 8
  }
}
layer {
  name: "relu6"
  type: "ReLU"
  bottom: "fc6"
  top: "relu6"
}
layer {
  name: "relu6_fixed"
  type: "FixedNeuron"
  bottom: "relu6"
  top: "relu6"
  param {
    lr_mult: 0
    decay_mult: 0
  }
  fixed_param {
    fixed_method: DIFF_S
    bit_width: 8
  }
}
layer {
  name: "fc7"
  type: "InnerProductFixed"
  bottom: "relu6"
  top: "scale7"
  param {
    lr_mult: 1
    decay_mult: 1
  }
  param {
    lr_mult: 1
    decay_mult: 0
  }
  inner_product_param {
    num_output: 4096
    bias_term: true
    weight_filler {
      type: "gaussian"
      std: 0.005
    }
    bias_filler {
      type: "constant"
      value: 1
    }
  }
  fixed_param {
    fixed_method: DIFF_S
    bit_width: 8
  }
}
layer {
  name: "relu7"
  type: "ReLU"
  bottom: "scale7"
  top: "relu7"
}
layer {
  name: "relu7_fixed"
  type: "FixedNeuron"
  bottom: "relu7"
  top: "relu7"
  param {
    lr_mult: 0
    decay_mult: 0
  }
  fixed_param {
    fixed_method: DIFF_S
    bit_width: 8
  }
}
layer {
  name: "fc8"
  type: "InnerProductFixed"
  bottom: "relu7"
  top: "fc8"
  param {
    lr_mult: 1
    decay_mult: 1
  }
  param {
    lr_mult: 2
    decay_mult: 0
  }
  inner_product_param {
    num_output: 2
    weight_filler {
      type: "gaussian"
      std: 0.01
    }
    bias_filler {
      type: "constant"
      value: 0
    }
  }
  fixed_param {
    fixed_method: DIFF_S
    bit_width: 8
  }
}
layer {
  name: "fc8_fixed"
  type: "FixedNeuron"
  bottom: "fc8"
  top: "fc8"
  param {
    lr_mult: 0
    decay_mult: 0
  }
  fixed_param {
    fixed_method: DIFF_S
    bit_width: 8
  }
}
layer {
  name: "accuracy"
  type: "Accuracy"
  bottom: "fc8"
  bottom: "label"
  top: "accuracy"
  include {
    phase: TEST
  }
}
layer {
  name: "loss"
  type: "SoftmaxWithLoss"
  bottom: "fc8"
  bottom: "label"
  top: "loss"
}
layer {
  name: "accuracy-top1"
  type: "Accuracy"
  bottom: "fc8"
  bottom: "label"
  top: "top-1"
  include {
    phase: TEST
  }
}
I0131 10:20:30.744119  3933 layer_factory.hpp:123] Creating layer data
I0131 10:20:30.744159  3933 internal_thread.cpp:73] Starting internal thread(s) on GPU 0
I0131 10:20:30.745141  3933 net.cpp:140] Creating Layer data
I0131 10:20:30.745151  3933 net.cpp:455] data -> data
I0131 10:20:30.745160  3933 net.cpp:455] data -> label
I0131 10:20:30.748035  3969 db_lmdb.cpp:81] Opened lmdb cats-vs-dogs/input/lmdb/valid_lmdb
I0131 10:20:30.748055  3969 data_reader.cpp:166] TEST: reading data using 1 channel(s)
I0131 10:20:30.748308  3933 data_layer.cpp:124] ReshapePrefetch 50, 3, 227, 227
I0131 10:20:30.748469  3933 data_layer.cpp:129] output data size: 50,3,227,227
I0131 10:20:30.849607  3933 internal_thread.cpp:73] Starting internal thread(s) on GPU 0
I0131 10:20:30.849660  3933 net.cpp:190] Setting up data
I0131 10:20:30.849668  3933 net.cpp:197] Top shape: 50 3 227 227 (7729350)
I0131 10:20:30.849670  3933 net.cpp:197] Top shape: 50 (50)
I0131 10:20:30.849673  3933 net.cpp:205] Memory required for data: 30917600
I0131 10:20:30.849676  3933 layer_factory.hpp:123] Creating layer label_data_1_split
I0131 10:20:30.849685  3933 net.cpp:140] Creating Layer label_data_1_split
I0131 10:20:30.849689  3933 net.cpp:481] label_data_1_split <- label
I0131 10:20:30.849704  3933 net.cpp:455] label_data_1_split -> label_data_1_split_0
I0131 10:20:30.849727  3933 net.cpp:455] label_data_1_split -> label_data_1_split_1
I0131 10:20:30.849735  3933 net.cpp:455] label_data_1_split -> label_data_1_split_2
I0131 10:20:30.849793  3933 net.cpp:190] Setting up label_data_1_split
I0131 10:20:30.849797  3933 net.cpp:197] Top shape: 50 (50)
I0131 10:20:30.849799  3933 net.cpp:197] Top shape: 50 (50)
I0131 10:20:30.849802  3933 net.cpp:197] Top shape: 50 (50)
I0131 10:20:30.849804  3933 net.cpp:205] Memory required for data: 30918200
I0131 10:20:30.849807  3933 layer_factory.hpp:123] Creating layer data_fixed
I0131 10:20:30.849812  3933 net.cpp:140] Creating Layer data_fixed
I0131 10:20:30.849813  3933 net.cpp:481] data_fixed <- data
I0131 10:20:30.849817  3933 net.cpp:442] data_fixed -> data (in-place)
I0131 10:20:30.849912  3933 net.cpp:190] Setting up data_fixed
I0131 10:20:30.849917  3933 net.cpp:197] Top shape: 50 3 227 227 (7729350)
I0131 10:20:30.849920  3933 net.cpp:205] Memory required for data: 61835600
I0131 10:20:30.849926  3933 layer_factory.hpp:123] Creating layer conv1
I0131 10:20:30.849936  3933 net.cpp:140] Creating Layer conv1
I0131 10:20:30.849937  3933 net.cpp:481] conv1 <- data
I0131 10:20:30.849941  3933 net.cpp:455] conv1 -> scale1
I0131 10:20:30.851020  3933 layer_factory.hpp:123] Creating layer conv1
I0131 10:20:30.852694  3933 net.cpp:190] Setting up conv1
I0131 10:20:30.852704  3933 net.cpp:197] Top shape: 50 96 55 55 (14520000)
I0131 10:20:30.852706  3933 net.cpp:205] Memory required for data: 119915600
I0131 10:20:30.852713  3933 layer_factory.hpp:123] Creating layer relu1
I0131 10:20:30.852720  3933 net.cpp:140] Creating Layer relu1
I0131 10:20:30.852722  3933 net.cpp:481] relu1 <- scale1
I0131 10:20:30.852726  3933 net.cpp:455] relu1 -> relu1
I0131 10:20:30.852766  3933 net.cpp:190] Setting up relu1
I0131 10:20:30.852769  3933 net.cpp:197] Top shape: 50 96 55 55 (14520000)
I0131 10:20:30.852771  3933 net.cpp:205] Memory required for data: 177995600
I0131 10:20:30.852773  3933 layer_factory.hpp:123] Creating layer pool1
I0131 10:20:30.852778  3933 net.cpp:140] Creating Layer pool1
I0131 10:20:30.852780  3933 net.cpp:481] pool1 <- relu1
I0131 10:20:30.852784  3933 net.cpp:455] pool1 -> pool1
I0131 10:20:30.852872  3933 net.cpp:190] Setting up pool1
I0131 10:20:30.852877  3933 net.cpp:197] Top shape: 50 96 27 27 (3499200)
I0131 10:20:30.852880  3933 net.cpp:205] Memory required for data: 191992400
I0131 10:20:30.852881  3933 layer_factory.hpp:123] Creating layer pool1_fixed
I0131 10:20:30.852885  3933 net.cpp:140] Creating Layer pool1_fixed
I0131 10:20:30.852887  3933 net.cpp:481] pool1_fixed <- pool1
I0131 10:20:30.852891  3933 net.cpp:442] pool1_fixed -> pool1 (in-place)
I0131 10:20:30.852931  3933 net.cpp:190] Setting up pool1_fixed
I0131 10:20:30.852936  3933 net.cpp:197] Top shape: 50 96 27 27 (3499200)
I0131 10:20:30.852937  3933 net.cpp:205] Memory required for data: 205989200
I0131 10:20:30.852941  3933 layer_factory.hpp:123] Creating layer conv2
I0131 10:20:30.852949  3933 net.cpp:140] Creating Layer conv2
I0131 10:20:30.852952  3933 net.cpp:481] conv2 <- pool1
I0131 10:20:30.852955  3933 net.cpp:455] conv2 -> scale2
I0131 10:20:30.859143  3933 layer_factory.hpp:123] Creating layer conv2
I0131 10:20:30.870077  3933 net.cpp:190] Setting up conv2
I0131 10:20:30.870100  3933 net.cpp:197] Top shape: 50 256 27 27 (9331200)
I0131 10:20:30.870103  3933 net.cpp:205] Memory required for data: 243314000
I0131 10:20:30.870118  3933 layer_factory.hpp:123] Creating layer relu2
I0131 10:20:30.870131  3933 net.cpp:140] Creating Layer relu2
I0131 10:20:30.870142  3933 net.cpp:481] relu2 <- scale2
I0131 10:20:30.870151  3933 net.cpp:455] relu2 -> relu2
I0131 10:20:30.870196  3933 net.cpp:190] Setting up relu2
I0131 10:20:30.870204  3933 net.cpp:197] Top shape: 50 256 27 27 (9331200)
I0131 10:20:30.870208  3933 net.cpp:205] Memory required for data: 280638800
I0131 10:20:30.870211  3933 layer_factory.hpp:123] Creating layer pool2
I0131 10:20:30.870219  3933 net.cpp:140] Creating Layer pool2
I0131 10:20:30.870223  3933 net.cpp:481] pool2 <- relu2
I0131 10:20:30.870230  3933 net.cpp:455] pool2 -> pool2
I0131 10:20:30.870271  3933 net.cpp:190] Setting up pool2
I0131 10:20:30.870277  3933 net.cpp:197] Top shape: 50 256 13 13 (2163200)
I0131 10:20:30.870281  3933 net.cpp:205] Memory required for data: 289291600
I0131 10:20:30.870285  3933 layer_factory.hpp:123] Creating layer pool2_fixed
I0131 10:20:30.870293  3933 net.cpp:140] Creating Layer pool2_fixed
I0131 10:20:30.870297  3933 net.cpp:481] pool2_fixed <- pool2
I0131 10:20:30.870304  3933 net.cpp:442] pool2_fixed -> pool2 (in-place)
I0131 10:20:30.870343  3933 net.cpp:190] Setting up pool2_fixed
I0131 10:20:30.870349  3933 net.cpp:197] Top shape: 50 256 13 13 (2163200)
I0131 10:20:30.870353  3933 net.cpp:205] Memory required for data: 297944400
I0131 10:20:30.870365  3933 layer_factory.hpp:123] Creating layer conv3
I0131 10:20:30.870379  3933 net.cpp:140] Creating Layer conv3
I0131 10:20:30.870398  3933 net.cpp:481] conv3 <- pool2
I0131 10:20:30.870406  3933 net.cpp:455] conv3 -> conv3
I0131 10:20:30.879853  3933 layer_factory.hpp:123] Creating layer conv3
I0131 10:20:30.889842  3933 net.cpp:190] Setting up conv3
I0131 10:20:30.889910  3933 net.cpp:197] Top shape: 50 384 13 13 (3244800)
I0131 10:20:30.889927  3933 net.cpp:205] Memory required for data: 310923600
I0131 10:20:30.889956  3933 layer_factory.hpp:123] Creating layer relu3
I0131 10:20:30.889978  3933 net.cpp:140] Creating Layer relu3
I0131 10:20:30.889995  3933 net.cpp:481] relu3 <- conv3
I0131 10:20:30.890017  3933 net.cpp:455] relu3 -> relu3
I0131 10:20:30.890071  3933 net.cpp:190] Setting up relu3
I0131 10:20:30.890089  3933 net.cpp:197] Top shape: 50 384 13 13 (3244800)
I0131 10:20:30.890105  3933 net.cpp:205] Memory required for data: 323902800
I0131 10:20:30.890121  3933 layer_factory.hpp:123] Creating layer relu3_fixed
I0131 10:20:30.890151  3933 net.cpp:140] Creating Layer relu3_fixed
I0131 10:20:30.890166  3933 net.cpp:481] relu3_fixed <- relu3
I0131 10:20:30.890209  3933 net.cpp:442] relu3_fixed -> relu3 (in-place)
I0131 10:20:30.890275  3933 net.cpp:190] Setting up relu3_fixed
I0131 10:20:30.890295  3933 net.cpp:197] Top shape: 50 384 13 13 (3244800)
I0131 10:20:30.890319  3933 net.cpp:205] Memory required for data: 336882000
I0131 10:20:30.890341  3933 layer_factory.hpp:123] Creating layer conv4
I0131 10:20:30.890367  3933 net.cpp:140] Creating Layer conv4
I0131 10:20:30.890384  3933 net.cpp:481] conv4 <- relu3
I0131 10:20:30.890404  3933 net.cpp:455] conv4 -> conv4
I0131 10:20:30.908008  3933 layer_factory.hpp:123] Creating layer conv4
I0131 10:20:30.926656  3933 net.cpp:190] Setting up conv4
I0131 10:20:30.926724  3933 net.cpp:197] Top shape: 50 384 13 13 (3244800)
I0131 10:20:30.926743  3933 net.cpp:205] Memory required for data: 349861200
I0131 10:20:30.926764  3933 layer_factory.hpp:123] Creating layer relu4
I0131 10:20:30.926787  3933 net.cpp:140] Creating Layer relu4
I0131 10:20:30.926805  3933 net.cpp:481] relu4 <- conv4
I0131 10:20:30.926843  3933 net.cpp:455] relu4 -> relu4
I0131 10:20:30.926898  3933 net.cpp:190] Setting up relu4
I0131 10:20:30.926915  3933 net.cpp:197] Top shape: 50 384 13 13 (3244800)
I0131 10:20:30.926930  3933 net.cpp:205] Memory required for data: 362840400
I0131 10:20:30.926946  3933 layer_factory.hpp:123] Creating layer relu4_fixed
I0131 10:20:30.926968  3933 net.cpp:140] Creating Layer relu4_fixed
I0131 10:20:30.926983  3933 net.cpp:481] relu4_fixed <- relu4
I0131 10:20:30.927002  3933 net.cpp:442] relu4_fixed -> relu4 (in-place)
I0131 10:20:30.927062  3933 net.cpp:190] Setting up relu4_fixed
I0131 10:20:30.927078  3933 net.cpp:197] Top shape: 50 384 13 13 (3244800)
I0131 10:20:30.927093  3933 net.cpp:205] Memory required for data: 375819600
I0131 10:20:30.927111  3933 layer_factory.hpp:123] Creating layer conv5
I0131 10:20:30.927137  3933 net.cpp:140] Creating Layer conv5
I0131 10:20:30.927165  3933 net.cpp:481] conv5 <- relu4
I0131 10:20:30.927184  3933 net.cpp:455] conv5 -> conv5
I0131 10:20:30.940462  3933 layer_factory.hpp:123] Creating layer conv5
I0131 10:20:30.950299  3933 net.cpp:190] Setting up conv5
I0131 10:20:30.950315  3933 net.cpp:197] Top shape: 50 256 13 13 (2163200)
I0131 10:20:30.950328  3933 net.cpp:205] Memory required for data: 384472400
I0131 10:20:30.950336  3933 layer_factory.hpp:123] Creating layer relu5
I0131 10:20:30.950345  3933 net.cpp:140] Creating Layer relu5
I0131 10:20:30.950350  3933 net.cpp:481] relu5 <- conv5
I0131 10:20:30.950356  3933 net.cpp:455] relu5 -> relu5
I0131 10:20:30.950381  3933 net.cpp:190] Setting up relu5
I0131 10:20:30.950387  3933 net.cpp:197] Top shape: 50 256 13 13 (2163200)
I0131 10:20:30.950388  3933 net.cpp:205] Memory required for data: 393125200
I0131 10:20:30.950390  3933 layer_factory.hpp:123] Creating layer pool5
I0131 10:20:30.950397  3933 net.cpp:140] Creating Layer pool5
I0131 10:20:30.950399  3933 net.cpp:481] pool5 <- relu5
I0131 10:20:30.950403  3933 net.cpp:455] pool5 -> pool5
I0131 10:20:30.950433  3933 net.cpp:190] Setting up pool5
I0131 10:20:30.950438  3933 net.cpp:197] Top shape: 50 256 6 6 (460800)
I0131 10:20:30.950440  3933 net.cpp:205] Memory required for data: 394968400
I0131 10:20:30.950443  3933 layer_factory.hpp:123] Creating layer pool5_fixed
I0131 10:20:30.950448  3933 net.cpp:140] Creating Layer pool5_fixed
I0131 10:20:30.950451  3933 net.cpp:481] pool5_fixed <- pool5
I0131 10:20:30.950455  3933 net.cpp:442] pool5_fixed -> pool5 (in-place)
I0131 10:20:30.950482  3933 net.cpp:190] Setting up pool5_fixed
I0131 10:20:30.950487  3933 net.cpp:197] Top shape: 50 256 6 6 (460800)
I0131 10:20:30.950491  3933 net.cpp:205] Memory required for data: 396811600
I0131 10:20:30.950495  3933 layer_factory.hpp:123] Creating layer fc6
I0131 10:20:30.950501  3933 net.cpp:140] Creating Layer fc6
I0131 10:20:30.950505  3933 net.cpp:481] fc6 <- pool5
I0131 10:20:30.950508  3933 net.cpp:455] fc6 -> fc6
I0131 10:20:31.268757  3933 layer_factory.hpp:123] Creating layer fc6
I0131 10:20:31.586027  3933 net.cpp:190] Setting up fc6
I0131 10:20:31.586050  3933 net.cpp:197] Top shape: 50 4096 (204800)
I0131 10:20:31.586052  3933 net.cpp:205] Memory required for data: 397630800
I0131 10:20:31.586063  3933 layer_factory.hpp:123] Creating layer relu6
I0131 10:20:31.586071  3933 net.cpp:140] Creating Layer relu6
I0131 10:20:31.586073  3933 net.cpp:481] relu6 <- fc6
I0131 10:20:31.586078  3933 net.cpp:455] relu6 -> relu6
I0131 10:20:31.586107  3933 net.cpp:190] Setting up relu6
I0131 10:20:31.586109  3933 net.cpp:197] Top shape: 50 4096 (204800)
I0131 10:20:31.586112  3933 net.cpp:205] Memory required for data: 398450000
I0131 10:20:31.586113  3933 layer_factory.hpp:123] Creating layer relu6_fixed
I0131 10:20:31.586117  3933 net.cpp:140] Creating Layer relu6_fixed
I0131 10:20:31.586119  3933 net.cpp:481] relu6_fixed <- relu6
I0131 10:20:31.586122  3933 net.cpp:442] relu6_fixed -> relu6 (in-place)
I0131 10:20:31.586163  3933 net.cpp:190] Setting up relu6_fixed
I0131 10:20:31.586165  3933 net.cpp:197] Top shape: 50 4096 (204800)
I0131 10:20:31.586167  3933 net.cpp:205] Memory required for data: 399269200
I0131 10:20:31.586170  3933 layer_factory.hpp:123] Creating layer fc7
I0131 10:20:31.586176  3933 net.cpp:140] Creating Layer fc7
I0131 10:20:31.586179  3933 net.cpp:481] fc7 <- relu6
I0131 10:20:31.586182  3933 net.cpp:455] fc7 -> scale7
I0131 10:20:31.726668  3933 layer_factory.hpp:123] Creating layer fc7
I0131 10:20:31.868377  3933 net.cpp:190] Setting up fc7
I0131 10:20:31.868412  3933 net.cpp:197] Top shape: 50 4096 (204800)
I0131 10:20:31.868414  3933 net.cpp:205] Memory required for data: 400088400
I0131 10:20:31.868422  3933 layer_factory.hpp:123] Creating layer relu7
I0131 10:20:31.868429  3933 net.cpp:140] Creating Layer relu7
I0131 10:20:31.868432  3933 net.cpp:481] relu7 <- scale7
I0131 10:20:31.868438  3933 net.cpp:455] relu7 -> relu7
I0131 10:20:31.868456  3933 net.cpp:190] Setting up relu7
I0131 10:20:31.868459  3933 net.cpp:197] Top shape: 50 4096 (204800)
I0131 10:20:31.868461  3933 net.cpp:205] Memory required for data: 400907600
I0131 10:20:31.868463  3933 layer_factory.hpp:123] Creating layer relu7_fixed
I0131 10:20:31.868468  3933 net.cpp:140] Creating Layer relu7_fixed
I0131 10:20:31.868470  3933 net.cpp:481] relu7_fixed <- relu7
I0131 10:20:31.868474  3933 net.cpp:442] relu7_fixed -> relu7 (in-place)
I0131 10:20:31.868513  3933 net.cpp:190] Setting up relu7_fixed
I0131 10:20:31.868518  3933 net.cpp:197] Top shape: 50 4096 (204800)
I0131 10:20:31.868520  3933 net.cpp:205] Memory required for data: 401726800
I0131 10:20:31.868523  3933 layer_factory.hpp:123] Creating layer fc8
I0131 10:20:31.868530  3933 net.cpp:140] Creating Layer fc8
I0131 10:20:31.868531  3933 net.cpp:481] fc8 <- relu7
I0131 10:20:31.868535  3933 net.cpp:455] fc8 -> fc8
I0131 10:20:31.869400  3933 layer_factory.hpp:123] Creating layer fc8
I0131 10:20:31.869582  3933 net.cpp:190] Setting up fc8
I0131 10:20:31.869588  3933 net.cpp:197] Top shape: 50 2 (100)
I0131 10:20:31.869591  3933 net.cpp:205] Memory required for data: 401727200
I0131 10:20:31.869596  3933 layer_factory.hpp:123] Creating layer fc8_fixed
I0131 10:20:31.869601  3933 net.cpp:140] Creating Layer fc8_fixed
I0131 10:20:31.869603  3933 net.cpp:481] fc8_fixed <- fc8
I0131 10:20:31.869608  3933 net.cpp:442] fc8_fixed -> fc8 (in-place)
I0131 10:20:31.869632  3933 net.cpp:190] Setting up fc8_fixed
I0131 10:20:31.869637  3933 net.cpp:197] Top shape: 50 2 (100)
I0131 10:20:31.869638  3933 net.cpp:205] Memory required for data: 401727600
I0131 10:20:31.869642  3933 layer_factory.hpp:123] Creating layer fc8_fc8_fixed_0_split
I0131 10:20:31.869647  3933 net.cpp:140] Creating Layer fc8_fc8_fixed_0_split
I0131 10:20:31.869648  3933 net.cpp:481] fc8_fc8_fixed_0_split <- fc8
I0131 10:20:31.869652  3933 net.cpp:455] fc8_fc8_fixed_0_split -> fc8_fc8_fixed_0_split_0
I0131 10:20:31.869657  3933 net.cpp:455] fc8_fc8_fixed_0_split -> fc8_fc8_fixed_0_split_1
I0131 10:20:31.869663  3933 net.cpp:455] fc8_fc8_fixed_0_split -> fc8_fc8_fixed_0_split_2
I0131 10:20:31.869695  3933 net.cpp:190] Setting up fc8_fc8_fixed_0_split
I0131 10:20:31.869700  3933 net.cpp:197] Top shape: 50 2 (100)
I0131 10:20:31.869702  3933 net.cpp:197] Top shape: 50 2 (100)
I0131 10:20:31.869705  3933 net.cpp:197] Top shape: 50 2 (100)
I0131 10:20:31.869706  3933 net.cpp:205] Memory required for data: 401728800
I0131 10:20:31.869709  3933 layer_factory.hpp:123] Creating layer accuracy
I0131 10:20:31.869714  3933 net.cpp:140] Creating Layer accuracy
I0131 10:20:31.869716  3933 net.cpp:481] accuracy <- fc8_fc8_fixed_0_split_0
I0131 10:20:31.869719  3933 net.cpp:481] accuracy <- label_data_1_split_0
I0131 10:20:31.869724  3933 net.cpp:455] accuracy -> accuracy
…
