…
I0131 10:35:27.331987  4417 net.cpp:369] The NetState phase (0) differed from the phase (1) specified by a rule in layer accuracy-top1
I0131 10:35:27.332190  4417 net.cpp:98] Initializing net from parameters: 
state {
  phase: TRAIN
}
layer {
  name: "data"
  type: "ImageData"
  top: "data"
  top: "label"
  include {
    phase: TRAIN
  }
  transform_param {
    crop_size: 227
    mean_value: 106
    mean_value: 116
    mean_value: 124
  }
  image_data_param {
    source: "cats-vs-dogs/deephi/alexnetBNnoLRN/quantiz/data/calib/calibration.txt"
    batch_size: 10
    shuffle: true
    root_folder: "cats-vs-dogs/deephi/alexnetBNnoLRN/quantiz/data/calib/"
  }
}
layer {
  name: "data_fixed"
  type: "FixedNeuron"
  bottom: "data"
  top: "data"
  param {
    lr_mult: 0
    decay_mult: 0
  }
  fixed_param {
    fixed_method: OVER_FLOW
    bit_width: 8
    follow_data_layer: true
  }
}
layer {
  name: "conv1"
  type: "ConvolutionFixed"
  bottom: "data"
  top: "scale1"
  param {
    lr_mult: 1
    decay_mult: 1
  }
  param {
    lr_mult: 1
    decay_mult: 0
  }
  convolution_param {
    num_output: 78
    bias_term: true
    pad: 1
    kernel_size: 11
    stride: 4
    weight_filler {
      type: "gaussian"
      std: 0.01
    }
    bias_filler {
      type: "constant"
      value: 0
    }
  }
  fixed_param {
    fixed_method: DIFF_S
    bit_width: 8
  }
}
layer {
  name: "relu1"
  type: "ReLU"
  bottom: "scale1"
  top: "relu1"
}
layer {
  name: "pool1"
  type: "Pooling"
  bottom: "relu1"
  top: "pool1"
  pooling_param {
    pool: MAX
    kernel_size: 3
    stride: 2
  }
}
layer {
  name: "pool1_fixed"
  type: "FixedNeuron"
  bottom: "pool1"
  top: "pool1"
  param {
    lr_mult: 0
    decay_mult: 0
  }
  fixed_param {
    fixed_method: DIFF_S
    bit_width: 8
  }
}
layer {
  name: "conv2"
  type: "ConvolutionFixed"
  bottom: "pool1"
  top: "scale2"
  param {
    lr_mult: 1
    decay_mult: 1
  }
  param {
    lr_mult: 1
    decay_mult: 0
  }
  convolution_param {
    num_output: 180
    bias_term: true
    pad: 2
    kernel_size: 5
    group: 1
    weight_filler {
      type: "gaussian"
      std: 0.01
    }
    bias_filler {
      type: "constant"
      value: 1
    }
  }
  fixed_param {
    fixed_method: DIFF_S
    bit_width: 8
  }
}
layer {
  name: "relu2"
  type: "ReLU"
  bottom: "scale2"
  top: "relu2"
}
layer {
  name: "pool2"
  type: "Pooling"
  bottom: "relu2"
  top: "pool2"
  pooling_param {
    pool: MAX
    kernel_size: 3
    stride: 2
  }
}
layer {
  name: "pool2_fixed"
  type: "FixedNeuron"
  bottom: "pool2"
  top: "pool2"
  param {
    lr_mult: 0
    decay_mult: 0
  }
  fixed_param {
    fixed_method: DIFF_S
    bit_width: 8
  }
}
layer {
  name: "conv3"
  type: "ConvolutionFixed"
  bottom: "pool2"
  top: "conv3"
  param {
    lr_mult: 1
    decay_mult: 1
  }
  param {
    lr_mult: 2
    decay_mult: 0
  }
  convolution_param {
    num_output: 40
    pad: 1
    kernel_size: 3
    weight_filler {
      type: "gaussian"
      std: 0.01
    }
    bias_filler {
      type: "constant"
      value: 0
    }
  }
  fixed_param {
    fixed_method: DIFF_S
    bit_width: 8
  }
}
layer {
  name: "relu3"
  type: "ReLU"
  bottom: "conv3"
  top: "relu3"
}
layer {
  name: "relu3_fixed"
  type: "FixedNeuron"
  bottom: "relu3"
  top: "relu3"
  param {
    lr_mult: 0
    decay_mult: 0
  }
  fixed_param {
    fixed_method: DIFF_S
    bit_width: 8
  }
}
layer {
  name: "conv4"
  type: "ConvolutionFixed"
  bottom: "relu3"
  top: "conv4"
  param {
    lr_mult: 1
    decay_mult: 1
  }
  param {
    lr_mult: 2
    decay_mult: 0
  }
  convolution_param {
    num_output: 116
    pad: 1
    kernel_size: 3
    group: 1
    weight_filler {
      type: "gaussian"
      std: 0.01
    }
    bias_filler {
      type: "constant"
      value: 1
    }
  }
  fixed_param {
    fixed_method: DIFF_S
    bit_width: 8
  }
}
layer {
  name: "relu4"
  type: "ReLU"
  bottom: "conv4"
  top: "relu4"
}
layer {
  name: "relu4_fixed"
  type: "FixedNeuron"
  bottom: "relu4"
  top: "relu4"
  param {
    lr_mult: 0
    decay_mult: 0
  }
  fixed_param {
    fixed_method: DIFF_S
    bit_width: 8
  }
}
layer {
  name: "conv5"
  type: "ConvolutionFixed"
  bottom: "relu4"
  top: "conv5"
  param {
    lr_mult: 1
    decay_mult: 1
  }
  param {
    lr_mult: 2
    decay_mult: 0
  }
  convolution_param {
    num_output: 26
    pad: 1
    kernel_size: 3
    group: 1
    weight_filler {
      type: "gaussian"
      std: 0.01
    }
    bias_filler {
      type: "constant"
      value: 1
    }
  }
  fixed_param {
    fixed_method: DIFF_S
    bit_width: 8
  }
}
layer {
  name: "relu5"
  type: "ReLU"
  bottom: "conv5"
  top: "relu5"
}
layer {
  name: "pool5"
  type: "Pooling"
  bottom: "relu5"
  top: "pool5"
  pooling_param {
    pool: MAX
    kernel_size: 3
    stride: 2
  }
}
layer {
  name: "pool5_fixed"
  type: "FixedNeuron"
  bottom: "pool5"
  top: "pool5"
  param {
    lr_mult: 0
    decay_mult: 0
  }
  fixed_param {
    fixed_method: DIFF_S
    bit_width: 8
  }
}
layer {
  name: "fc6"
  type: "InnerProductFixed"
  bottom: "pool5"
  top: "fc6"
  param {
    lr_mult: 1
    decay_mult: 1
  }
  param {
    lr_mult: 2
    decay_mult: 0
  }
  inner_product_param {
    num_output: 4096
    weight_filler {
      type: "gaussian"
      std: 0.005
    }
    bias_filler {
      type: "constant"
      value: 1
    }
  }
  fixed_param {
    fixed_method: DIFF_S
    bit_width: 8
  }
}
layer {
  name: "relu6"
  type: "ReLU"
  bottom: "fc6"
  top: "relu6"
}
layer {
  name: "relu6_fixed"
  type: "FixedNeuron"
  bottom: "relu6"
  top: "relu6"
  param {
    lr_mult: 0
    decay_mult: 0
  }
  fixed_param {
    fixed_method: DIFF_S
    bit_width: 8
  }
}
layer {
  name: "fc7"
  type: "InnerProductFixed"
  bottom: "relu6"
  top: "scale7"
  param {
    lr_mult: 1
    decay_mult: 1
  }
  param {
    lr_mult: 1
    decay_mult: 0
  }
  inner_product_param {
    num_output: 4096
    bias_term: true
    weight_filler {
      type: "gaussian"
      std: 0.005
    }
    bias_filler {
      type: "constant"
      value: 1
    }
  }
  fixed_param {
    fixed_method: DIFF_S
    bit_width: 8
  }
}
layer {
  name: "relu7"
  type: "ReLU"
  bottom: "scale7"
  top: "relu7"
}
layer {
  name: "relu7_fixed"
  type: "FixedNeuron"
  bottom: "relu7"
  top: "relu7"
  param {
    lr_mult: 0
    decay_mult: 0
  }
  fixed_param {
    fixed_method: DIFF_S
    bit_width: 8
  }
}
layer {
  name: "fc8"
  type: "InnerProductFixed"
  bottom: "relu7"
  top: "fc8"
  param {
    lr_mult: 1
    decay_mult: 1
  }
  param {
    lr_mult: 2
    decay_mult: 0
  }
  inner_product_param {
    num_output: 2
    weight_filler {
      type: "gaussian"
      std: 0.01
    }
    bias_filler {
      type: "constant"
      value: 0
    }
  }
  fixed_param {
    fixed_method: DIFF_S
    bit_width: 8
  }
}
layer {
  name: "fc8_fixed"
  type: "FixedNeuron"
  bottom: "fc8"
  top: "fc8"
  param {
    lr_mult: 0
    decay_mult: 0
  }
  fixed_param {
    fixed_method: DIFF_S
    bit_width: 8
  }
}
layer {
  name: "loss"
  type: "SoftmaxWithLoss"
  bottom: "fc8"
  bottom: "label"
  top: "loss"
}
I0131 10:35:27.332252  4417 layer_factory.hpp:123] Creating layer data
I0131 10:35:27.332273  4417 net.cpp:140] Creating Layer data
I0131 10:35:27.332276  4417 net.cpp:455] data -> data
I0131 10:35:27.332284  4417 net.cpp:455] data -> label
I0131 10:35:27.332677  4417 image_data_layer.cpp:87] Opening file cats-vs-dogs/deephi/alexnetBNnoLRN/quantiz/data/calib/calibration.txt
I0131 10:35:27.332747  4417 image_data_layer.cpp:97] Shuffling data
I0131 10:35:27.332757  4417 image_data_layer.cpp:102] A total of 200 images.
I0131 10:35:27.333649  4417 image_data_layer.cpp:130] output data size: 10,3,227,227
I0131 10:35:27.368338  4417 internal_thread.cpp:73] Starting internal thread(s) on GPU 0
I0131 10:35:27.368388  4417 net.cpp:190] Setting up data
I0131 10:35:27.368397  4417 net.cpp:197] Top shape: 10 3 227 227 (1545870)
I0131 10:35:27.368400  4417 net.cpp:197] Top shape: 10 (10)
I0131 10:35:27.368402  4417 net.cpp:205] Memory required for data: 6183520
I0131 10:35:27.368407  4417 layer_factory.hpp:123] Creating layer data_fixed
I0131 10:35:27.368417  4417 net.cpp:140] Creating Layer data_fixed
I0131 10:35:27.368419  4417 net.cpp:481] data_fixed <- data
I0131 10:35:27.368446  4417 net.cpp:442] data_fixed -> data (in-place)
I0131 10:35:27.368494  4417 net.cpp:190] Setting up data_fixed
I0131 10:35:27.368500  4417 net.cpp:197] Top shape: 10 3 227 227 (1545870)
I0131 10:35:27.368510  4417 net.cpp:205] Memory required for data: 12367000
I0131 10:35:27.368523  4417 layer_factory.hpp:123] Creating layer conv1
I0131 10:35:27.368535  4417 net.cpp:140] Creating Layer conv1
I0131 10:35:27.368541  4417 net.cpp:481] conv1 <- data
I0131 10:35:27.368546  4417 net.cpp:455] conv1 -> scale1
I0131 10:35:27.369851  4417 layer_factory.hpp:123] Creating layer conv1
I0131 10:35:27.371352  4417 net.cpp:190] Setting up conv1
I0131 10:35:27.371366  4417 net.cpp:197] Top shape: 10 78 55 55 (2359500)
I0131 10:35:27.371368  4417 net.cpp:205] Memory required for data: 21805000
I0131 10:35:27.371377  4417 layer_factory.hpp:123] Creating layer relu1
I0131 10:35:27.371400  4417 net.cpp:140] Creating Layer relu1
I0131 10:35:27.371404  4417 net.cpp:481] relu1 <- scale1
I0131 10:35:27.371409  4417 net.cpp:455] relu1 -> relu1
I0131 10:35:27.371448  4417 net.cpp:190] Setting up relu1
I0131 10:35:27.371453  4417 net.cpp:197] Top shape: 10 78 55 55 (2359500)
I0131 10:35:27.371455  4417 net.cpp:205] Memory required for data: 31243000
I0131 10:35:27.371459  4417 layer_factory.hpp:123] Creating layer pool1
I0131 10:35:27.371464  4417 net.cpp:140] Creating Layer pool1
I0131 10:35:27.371467  4417 net.cpp:481] pool1 <- relu1
I0131 10:35:27.371471  4417 net.cpp:455] pool1 -> pool1
I0131 10:35:27.371609  4417 net.cpp:190] Setting up pool1
I0131 10:35:27.371615  4417 net.cpp:197] Top shape: 10 78 27 27 (568620)
I0131 10:35:27.371618  4417 net.cpp:205] Memory required for data: 33517480
I0131 10:35:27.371621  4417 layer_factory.hpp:123] Creating layer pool1_fixed
I0131 10:35:27.371628  4417 net.cpp:140] Creating Layer pool1_fixed
I0131 10:35:27.371629  4417 net.cpp:481] pool1_fixed <- pool1
I0131 10:35:27.371634  4417 net.cpp:442] pool1_fixed -> pool1 (in-place)
I0131 10:35:27.371680  4417 net.cpp:190] Setting up pool1_fixed
I0131 10:35:27.371686  4417 net.cpp:197] Top shape: 10 78 27 27 (568620)
I0131 10:35:27.371690  4417 net.cpp:205] Memory required for data: 35791960
I0131 10:35:27.371695  4417 layer_factory.hpp:123] Creating layer conv2
I0131 10:35:27.371706  4417 net.cpp:140] Creating Layer conv2
I0131 10:35:27.371708  4417 net.cpp:481] conv2 <- pool1
I0131 10:35:27.371716  4417 net.cpp:455] conv2 -> scale2
I0131 10:35:27.375979  4417 layer_factory.hpp:123] Creating layer conv2
I0131 10:35:27.380223  4417 net.cpp:190] Setting up conv2
I0131 10:35:27.380236  4417 net.cpp:197] Top shape: 10 180 27 27 (1312200)
I0131 10:35:27.380239  4417 net.cpp:205] Memory required for data: 41040760
I0131 10:35:27.380246  4417 layer_factory.hpp:123] Creating layer relu2
I0131 10:35:27.380252  4417 net.cpp:140] Creating Layer relu2
I0131 10:35:27.380255  4417 net.cpp:481] relu2 <- scale2
I0131 10:35:27.380259  4417 net.cpp:455] relu2 -> relu2
I0131 10:35:27.380285  4417 net.cpp:190] Setting up relu2
I0131 10:35:27.380290  4417 net.cpp:197] Top shape: 10 180 27 27 (1312200)
I0131 10:35:27.380291  4417 net.cpp:205] Memory required for data: 46289560
I0131 10:35:27.380293  4417 layer_factory.hpp:123] Creating layer pool2
I0131 10:35:27.380298  4417 net.cpp:140] Creating Layer pool2
I0131 10:35:27.380301  4417 net.cpp:481] pool2 <- relu2
I0131 10:35:27.380306  4417 net.cpp:455] pool2 -> pool2
I0131 10:35:27.380336  4417 net.cpp:190] Setting up pool2
I0131 10:35:27.380343  4417 net.cpp:197] Top shape: 10 180 13 13 (304200)
I0131 10:35:27.380347  4417 net.cpp:205] Memory required for data: 47506360
I0131 10:35:27.380349  4417 layer_factory.hpp:123] Creating layer pool2_fixed
I0131 10:35:27.380355  4417 net.cpp:140] Creating Layer pool2_fixed
I0131 10:35:27.380358  4417 net.cpp:481] pool2_fixed <- pool2
I0131 10:35:27.380363  4417 net.cpp:442] pool2_fixed -> pool2 (in-place)
I0131 10:35:27.380393  4417 net.cpp:190] Setting up pool2_fixed
I0131 10:35:27.380401  4417 net.cpp:197] Top shape: 10 180 13 13 (304200)
I0131 10:35:27.380404  4417 net.cpp:205] Memory required for data: 48723160
I0131 10:35:27.380409  4417 layer_factory.hpp:123] Creating layer conv3
I0131 10:35:27.380416  4417 net.cpp:140] Creating Layer conv3
I0131 10:35:27.380419  4417 net.cpp:481] conv3 <- pool2
I0131 10:35:27.380424  4417 net.cpp:455] conv3 -> conv3
I0131 10:35:27.381083  4417 layer_factory.hpp:123] Creating layer conv3
I0131 10:35:27.381836  4417 net.cpp:190] Setting up conv3
I0131 10:35:27.381845  4417 net.cpp:197] Top shape: 10 40 13 13 (67600)
I0131 10:35:27.381847  4417 net.cpp:205] Memory required for data: 48993560
I0131 10:35:27.381855  4417 layer_factory.hpp:123] Creating layer relu3
I0131 10:35:27.381861  4417 net.cpp:140] Creating Layer relu3
I0131 10:35:27.381865  4417 net.cpp:481] relu3 <- conv3
I0131 10:35:27.381870  4417 net.cpp:455] relu3 -> relu3
I0131 10:35:27.381892  4417 net.cpp:190] Setting up relu3
I0131 10:35:27.381899  4417 net.cpp:197] Top shape: 10 40 13 13 (67600)
I0131 10:35:27.381902  4417 net.cpp:205] Memory required for data: 49263960
I0131 10:35:27.381906  4417 layer_factory.hpp:123] Creating layer relu3_fixed
I0131 10:35:27.381911  4417 net.cpp:140] Creating Layer relu3_fixed
I0131 10:35:27.381913  4417 net.cpp:481] relu3_fixed <- relu3
I0131 10:35:27.381918  4417 net.cpp:442] relu3_fixed -> relu3 (in-place)
I0131 10:35:27.381947  4417 net.cpp:190] Setting up relu3_fixed
I0131 10:35:27.381953  4417 net.cpp:197] Top shape: 10 40 13 13 (67600)
I0131 10:35:27.381956  4417 net.cpp:205] Memory required for data: 49534360
I0131 10:35:27.381959  4417 layer_factory.hpp:123] Creating layer conv4
I0131 10:35:27.381968  4417 net.cpp:140] Creating Layer conv4
I0131 10:35:27.381970  4417 net.cpp:481] conv4 <- relu3
I0131 10:35:27.381976  4417 net.cpp:455] conv4 -> conv4
I0131 10:35:27.382457  4417 layer_factory.hpp:123] Creating layer conv4
I0131 10:35:27.383607  4417 net.cpp:190] Setting up conv4
I0131 10:35:27.383617  4417 net.cpp:197] Top shape: 10 116 13 13 (196040)
I0131 10:35:27.383620  4417 net.cpp:205] Memory required for data: 50318520
I0131 10:35:27.383625  4417 layer_factory.hpp:123] Creating layer relu4
I0131 10:35:27.383630  4417 net.cpp:140] Creating Layer relu4
I0131 10:35:27.383633  4417 net.cpp:481] relu4 <- conv4
I0131 10:35:27.383639  4417 net.cpp:455] relu4 -> relu4
I0131 10:35:27.383659  4417 net.cpp:190] Setting up relu4
I0131 10:35:27.383664  4417 net.cpp:197] Top shape: 10 116 13 13 (196040)
I0131 10:35:27.383667  4417 net.cpp:205] Memory required for data: 51102680
I0131 10:35:27.383671  4417 layer_factory.hpp:123] Creating layer relu4_fixed
I0131 10:35:27.383677  4417 net.cpp:140] Creating Layer relu4_fixed
I0131 10:35:27.383680  4417 net.cpp:481] relu4_fixed <- relu4
I0131 10:35:27.383685  4417 net.cpp:442] relu4_fixed -> relu4 (in-place)
I0131 10:35:27.383714  4417 net.cpp:190] Setting up relu4_fixed
I0131 10:35:27.383721  4417 net.cpp:197] Top shape: 10 116 13 13 (196040)
I0131 10:35:27.383723  4417 net.cpp:205] Memory required for data: 51886840
I0131 10:35:27.383726  4417 layer_factory.hpp:123] Creating layer conv5
I0131 10:35:27.383735  4417 net.cpp:140] Creating Layer conv5
I0131 10:35:27.383738  4417 net.cpp:481] conv5 <- relu4
I0131 10:35:27.383744  4417 net.cpp:455] conv5 -> conv5
I0131 10:35:27.384100  4417 layer_factory.hpp:123] Creating layer conv5
I0131 10:35:27.384546  4417 net.cpp:190] Setting up conv5
I0131 10:35:27.384553  4417 net.cpp:197] Top shape: 10 26 13 13 (43940)
I0131 10:35:27.384557  4417 net.cpp:205] Memory required for data: 52062600
I0131 10:35:27.384560  4417 layer_factory.hpp:123] Creating layer relu5
I0131 10:35:27.384565  4417 net.cpp:140] Creating Layer relu5
I0131 10:35:27.384568  4417 net.cpp:481] relu5 <- conv5
I0131 10:35:27.384573  4417 net.cpp:455] relu5 -> relu5
I0131 10:35:27.384594  4417 net.cpp:190] Setting up relu5
I0131 10:35:27.384601  4417 net.cpp:197] Top shape: 10 26 13 13 (43940)
I0131 10:35:27.384603  4417 net.cpp:205] Memory required for data: 52238360
I0131 10:35:27.384605  4417 layer_factory.hpp:123] Creating layer pool5
I0131 10:35:27.384610  4417 net.cpp:140] Creating Layer pool5
I0131 10:35:27.384613  4417 net.cpp:481] pool5 <- relu5
I0131 10:35:27.384618  4417 net.cpp:455] pool5 -> pool5
I0131 10:35:27.384647  4417 net.cpp:190] Setting up pool5
I0131 10:35:27.384652  4417 net.cpp:197] Top shape: 10 26 6 6 (9360)
I0131 10:35:27.384654  4417 net.cpp:205] Memory required for data: 52275800
I0131 10:35:27.384656  4417 layer_factory.hpp:123] Creating layer pool5_fixed
I0131 10:35:27.384660  4417 net.cpp:140] Creating Layer pool5_fixed
I0131 10:35:27.384663  4417 net.cpp:481] pool5_fixed <- pool5
I0131 10:35:27.384668  4417 net.cpp:442] pool5_fixed -> pool5 (in-place)
I0131 10:35:27.384697  4417 net.cpp:190] Setting up pool5_fixed
I0131 10:35:27.384703  4417 net.cpp:197] Top shape: 10 26 6 6 (9360)
I0131 10:35:27.384706  4417 net.cpp:205] Memory required for data: 52313240
I0131 10:35:27.384709  4417 layer_factory.hpp:123] Creating layer fc6
I0131 10:35:27.384716  4417 net.cpp:140] Creating Layer fc6
I0131 10:35:27.384718  4417 net.cpp:481] fc6 <- pool5
I0131 10:35:27.384724  4417 net.cpp:455] fc6 -> fc6
I0131 10:35:27.420907  4417 layer_factory.hpp:123] Creating layer fc6
I0131 10:35:27.454828  4417 net.cpp:190] Setting up fc6
I0131 10:35:27.454849  4417 net.cpp:197] Top shape: 10 4096 (40960)
I0131 10:35:27.454852  4417 net.cpp:205] Memory required for data: 52477080
I0131 10:35:27.454865  4417 layer_factory.hpp:123] Creating layer relu6
I0131 10:35:27.454874  4417 net.cpp:140] Creating Layer relu6
I0131 10:35:27.454876  4417 net.cpp:481] relu6 <- fc6
I0131 10:35:27.454882  4417 net.cpp:455] relu6 -> relu6
I0131 10:35:27.454901  4417 net.cpp:190] Setting up relu6
I0131 10:35:27.454905  4417 net.cpp:197] Top shape: 10 4096 (40960)
I0131 10:35:27.454907  4417 net.cpp:205] Memory required for data: 52640920
I0131 10:35:27.454910  4417 layer_factory.hpp:123] Creating layer relu6_fixed
I0131 10:35:27.454915  4417 net.cpp:140] Creating Layer relu6_fixed
I0131 10:35:27.454916  4417 net.cpp:481] relu6_fixed <- relu6
I0131 10:35:27.454921  4417 net.cpp:442] relu6_fixed -> relu6 (in-place)
I0131 10:35:27.454949  4417 net.cpp:190] Setting up relu6_fixed
I0131 10:35:27.454953  4417 net.cpp:197] Top shape: 10 4096 (40960)
I0131 10:35:27.454957  4417 net.cpp:205] Memory required for data: 52804760
I0131 10:35:27.454960  4417 layer_factory.hpp:123] Creating layer fc7
I0131 10:35:27.454968  4417 net.cpp:140] Creating Layer fc7
I0131 10:35:27.454972  4417 net.cpp:481] fc7 <- relu6
I0131 10:35:27.454977  4417 net.cpp:455] fc7 -> scale7
I0131 10:35:27.597561  4417 layer_factory.hpp:123] Creating layer fc7
I0131 10:35:27.742902  4417 net.cpp:190] Setting up fc7
I0131 10:35:27.742925  4417 net.cpp:197] Top shape: 10 4096 (40960)
I0131 10:35:27.742928  4417 net.cpp:205] Memory required for data: 52968600
I0131 10:35:27.742950  4417 layer_factory.hpp:123] Creating layer relu7
I0131 10:35:27.742959  4417 net.cpp:140] Creating Layer relu7
I0131 10:35:27.742961  4417 net.cpp:481] relu7 <- scale7
I0131 10:35:27.742966  4417 net.cpp:455] relu7 -> relu7
I0131 10:35:27.742988  4417 net.cpp:190] Setting up relu7
I0131 10:35:27.742991  4417 net.cpp:197] Top shape: 10 4096 (40960)
I0131 10:35:27.742993  4417 net.cpp:205] Memory required for data: 53132440
I0131 10:35:27.742995  4417 layer_factory.hpp:123] Creating layer relu7_fixed
I0131 10:35:27.743000  4417 net.cpp:140] Creating Layer relu7_fixed
I0131 10:35:27.743002  4417 net.cpp:481] relu7_fixed <- relu7
I0131 10:35:27.743005  4417 net.cpp:442] relu7_fixed -> relu7 (in-place)
I0131 10:35:27.743029  4417 net.cpp:190] Setting up relu7_fixed
I0131 10:35:27.743032  4417 net.cpp:197] Top shape: 10 4096 (40960)
I0131 10:35:27.743034  4417 net.cpp:205] Memory required for data: 53296280
I0131 10:35:27.743037  4417 layer_factory.hpp:123] Creating layer fc8
I0131 10:35:27.743043  4417 net.cpp:140] Creating Layer fc8
I0131 10:35:27.743046  4417 net.cpp:481] fc8 <- relu7
I0131 10:35:27.743049  4417 net.cpp:455] fc8 -> fc8
I0131 10:35:27.743969  4417 layer_factory.hpp:123] Creating layer fc8
I0131 10:35:27.744143  4417 net.cpp:190] Setting up fc8
I0131 10:35:27.744149  4417 net.cpp:197] Top shape: 10 2 (20)
I0131 10:35:27.744153  4417 net.cpp:205] Memory required for data: 53296360
I0131 10:35:27.744158  4417 layer_factory.hpp:123] Creating layer fc8_fixed
I0131 10:35:27.744161  4417 net.cpp:140] Creating Layer fc8_fixed
I0131 10:35:27.744164  4417 net.cpp:481] fc8_fixed <- fc8
I0131 10:35:27.744168  4417 net.cpp:442] fc8_fixed -> fc8 (in-place)
I0131 10:35:27.744191  4417 net.cpp:190] Setting up fc8_fixed
I0131 10:35:27.744195  4417 net.cpp:197] Top shape: 10 2 (20)
I0131 10:35:27.744197  4417 net.cpp:205] Memory required for data: 53296440
I0131 10:35:27.744200  4417 layer_factory.hpp:123] Creating layer loss
I0131 10:35:27.744205  4417 net.cpp:140] Creating Layer loss
I0131 10:35:27.744207  4417 net.cpp:481] loss <- fc8
I0131 10:35:27.744210  4417 net.cpp:481] loss <- label
I0131 10:35:27.744213  4417 net.cpp:455] loss -> loss
I0131 10:35:27.744220  4417 layer_factory.hpp:123] Creating layer loss
…
I0131 10:35:35.107269  4417 net_test.cpp:369] Net type: other
I0131 10:35:35.107322  4417 net.cpp:369] The NetState phase (1) differed from the phase (0) specified by a rule in layer data
I0131 10:35:35.107542  4417 net.cpp:98] Initializing net from parameters: 
layer {
  name: "data"
  type: "Data"
  top: "data"
  top: "label"
  include {
    phase: TEST
  }
  transform_param {
    mirror: false
    crop_size: 227
    mean_value: 106
    mean_value: 116
    mean_value: 124
  }
  data_param {
    source: "cats-vs-dogs/input/lmdb/valid_lmdb"
    batch_size: 50
    backend: LMDB
  }
}
layer {
  name: "data_fixed"
  type: "FixedNeuron"
  bottom: "data"
  top: "data"
  param {
    lr_mult: 0
    decay_mult: 0
  }
  fixed_param {
    fixed_method: OVER_FLOW
    bit_width: 8
    follow_data_layer: true
  }
}
layer {
  name: "conv1"
  type: "ConvolutionFixed"
  bottom: "data"
  top: "scale1"
  param {
    lr_mult: 1
    decay_mult: 1
  }
  param {
    lr_mult: 1
    decay_mult: 0
  }
  convolution_param {
    num_output: 78
    bias_term: true
    pad: 1
    kernel_size: 11
    stride: 4
    weight_filler {
      type: "gaussian"
      std: 0.01
    }
    bias_filler {
      type: "constant"
      value: 0
    }
  }
  fixed_param {
    fixed_method: DIFF_S
    bit_width: 8
  }
}
layer {
  name: "relu1"
  type: "ReLU"
  bottom: "scale1"
  top: "relu1"
}
layer {
  name: "pool1"
  type: "Pooling"
  bottom: "relu1"
  top: "pool1"
  pooling_param {
    pool: MAX
    kernel_size: 3
    stride: 2
  }
}
layer {
  name: "pool1_fixed"
  type: "FixedNeuron"
  bottom: "pool1"
  top: "pool1"
  param {
    lr_mult: 0
    decay_mult: 0
  }
  fixed_param {
    fixed_method: DIFF_S
    bit_width: 8
  }
}
layer {
  name: "conv2"
  type: "ConvolutionFixed"
  bottom: "pool1"
  top: "scale2"
  param {
    lr_mult: 1
    decay_mult: 1
  }
  param {
    lr_mult: 1
    decay_mult: 0
  }
  convolution_param {
    num_output: 180
    bias_term: true
    pad: 2
    kernel_size: 5
    group: 1
    weight_filler {
      type: "gaussian"
      std: 0.01
    }
    bias_filler {
      type: "constant"
      value: 1
    }
  }
  fixed_param {
    fixed_method: DIFF_S
    bit_width: 8
  }
}
layer {
  name: "relu2"
  type: "ReLU"
  bottom: "scale2"
  top: "relu2"
}
layer {
  name: "pool2"
  type: "Pooling"
  bottom: "relu2"
  top: "pool2"
  pooling_param {
    pool: MAX
    kernel_size: 3
    stride: 2
  }
}
layer {
  name: "pool2_fixed"
  type: "FixedNeuron"
  bottom: "pool2"
  top: "pool2"
  param {
    lr_mult: 0
    decay_mult: 0
  }
  fixed_param {
    fixed_method: DIFF_S
    bit_width: 8
  }
}
layer {
  name: "conv3"
  type: "ConvolutionFixed"
  bottom: "pool2"
  top: "conv3"
  param {
    lr_mult: 1
    decay_mult: 1
  }
  param {
    lr_mult: 2
    decay_mult: 0
  }
  convolution_param {
    num_output: 40
    pad: 1
    kernel_size: 3
    weight_filler {
      type: "gaussian"
      std: 0.01
    }
    bias_filler {
      type: "constant"
      value: 0
    }
  }
  fixed_param {
    fixed_method: DIFF_S
    bit_width: 8
  }
}
layer {
  name: "relu3"
  type: "ReLU"
  bottom: "conv3"
  top: "relu3"
}
layer {
  name: "relu3_fixed"
  type: "FixedNeuron"
  bottom: "relu3"
  top: "relu3"
  param {
    lr_mult: 0
    decay_mult: 0
  }
  fixed_param {
    fixed_method: DIFF_S
    bit_width: 8
  }
}
layer {
  name: "conv4"
  type: "ConvolutionFixed"
  bottom: "relu3"
  top: "conv4"
  param {
    lr_mult: 1
    decay_mult: 1
  }
  param {
    lr_mult: 2
    decay_mult: 0
  }
  convolution_param {
    num_output: 116
    pad: 1
    kernel_size: 3
    group: 1
    weight_filler {
      type: "gaussian"
      std: 0.01
    }
    bias_filler {
      type: "constant"
      value: 1
    }
  }
  fixed_param {
    fixed_method: DIFF_S
    bit_width: 8
  }
}
layer {
  name: "relu4"
  type: "ReLU"
  bottom: "conv4"
  top: "relu4"
}
layer {
  name: "relu4_fixed"
  type: "FixedNeuron"
  bottom: "relu4"
  top: "relu4"
  param {
    lr_mult: 0
    decay_mult: 0
  }
  fixed_param {
    fixed_method: DIFF_S
    bit_width: 8
  }
}
layer {
  name: "conv5"
  type: "ConvolutionFixed"
  bottom: "relu4"
  top: "conv5"
  param {
    lr_mult: 1
    decay_mult: 1
  }
  param {
    lr_mult: 2
    decay_mult: 0
  }
  convolution_param {
    num_output: 26
    pad: 1
    kernel_size: 3
    group: 1
    weight_filler {
      type: "gaussian"
      std: 0.01
    }
    bias_filler {
      type: "constant"
      value: 1
    }
  }
  fixed_param {
    fixed_method: DIFF_S
    bit_width: 8
  }
}
layer {
  name: "relu5"
  type: "ReLU"
  bottom: "conv5"
  top: "relu5"
}
layer {
  name: "pool5"
  type: "Pooling"
  bottom: "relu5"
  top: "pool5"
  pooling_param {
    pool: MAX
    kernel_size: 3
    stride: 2
  }
}
layer {
  name: "pool5_fixed"
  type: "FixedNeuron"
  bottom: "pool5"
  top: "pool5"
  param {
    lr_mult: 0
    decay_mult: 0
  }
  fixed_param {
    fixed_method: DIFF_S
    bit_width: 8
  }
}
layer {
  name: "fc6"
  type: "InnerProductFixed"
  bottom: "pool5"
  top: "fc6"
  param {
    lr_mult: 1
    decay_mult: 1
  }
  param {
    lr_mult: 2
    decay_mult: 0
  }
  inner_product_param {
    num_output: 4096
    weight_filler {
      type: "gaussian"
      std: 0.005
    }
    bias_filler {
      type: "constant"
      value: 1
    }
  }
  fixed_param {
    fixed_method: DIFF_S
    bit_width: 8
  }
}
layer {
  name: "relu6"
  type: "ReLU"
  bottom: "fc6"
  top: "relu6"
}
layer {
  name: "relu6_fixed"
  type: "FixedNeuron"
  bottom: "relu6"
  top: "relu6"
  param {
    lr_mult: 0
    decay_mult: 0
  }
  fixed_param {
    fixed_method: DIFF_S
    bit_width: 8
  }
}
layer {
  name: "fc7"
  type: "InnerProductFixed"
  bottom: "relu6"
  top: "scale7"
  param {
    lr_mult: 1
    decay_mult: 1
  }
  param {
    lr_mult: 1
    decay_mult: 0
  }
  inner_product_param {
    num_output: 4096
    bias_term: true
    weight_filler {
      type: "gaussian"
      std: 0.005
    }
    bias_filler {
      type: "constant"
      value: 1
    }
  }
  fixed_param {
    fixed_method: DIFF_S
    bit_width: 8
  }
}
layer {
  name: "relu7"
  type: "ReLU"
  bottom: "scale7"
  top: "relu7"
}
layer {
  name: "relu7_fixed"
  type: "FixedNeuron"
  bottom: "relu7"
  top: "relu7"
  param {
    lr_mult: 0
    decay_mult: 0
  }
  fixed_param {
    fixed_method: DIFF_S
    bit_width: 8
  }
}
layer {
  name: "fc8"
  type: "InnerProductFixed"
  bottom: "relu7"
  top: "fc8"
  param {
    lr_mult: 1
    decay_mult: 1
  }
  param {
    lr_mult: 2
    decay_mult: 0
  }
  inner_product_param {
    num_output: 2
    weight_filler {
      type: "gaussian"
      std: 0.01
    }
    bias_filler {
      type: "constant"
      value: 0
    }
  }
  fixed_param {
    fixed_method: DIFF_S
    bit_width: 8
  }
}
layer {
  name: "fc8_fixed"
  type: "FixedNeuron"
  bottom: "fc8"
  top: "fc8"
  param {
    lr_mult: 0
    decay_mult: 0
  }
  fixed_param {
    fixed_method: DIFF_S
    bit_width: 8
  }
}
layer {
  name: "loss"
  type: "SoftmaxWithLoss"
  bottom: "fc8"
  bottom: "label"
  top: "loss"
}
layer {
  name: "accuracy-top1"
  type: "Accuracy"
  bottom: "fc8"
  bottom: "label"
  top: "top-1"
  include {
    phase: TEST
  }
}
I0131 10:35:35.107635  4417 layer_factory.hpp:123] Creating layer data
I0131 10:35:35.107681  4417 internal_thread.cpp:73] Starting internal thread(s) on GPU 0
I0131 10:35:35.108753  4417 net.cpp:140] Creating Layer data
I0131 10:35:35.108763  4417 net.cpp:455] data -> data
I0131 10:35:35.108772  4417 net.cpp:455] data -> label
I0131 10:35:35.110647  4452 db_lmdb.cpp:81] Opened lmdb cats-vs-dogs/input/lmdb/valid_lmdb
I0131 10:35:35.110689  4452 data_reader.cpp:166] TEST: reading data using 1 channel(s)
I0131 10:35:35.110949  4417 data_layer.cpp:124] ReshapePrefetch 50, 3, 227, 227
I0131 10:35:35.111027  4417 data_layer.cpp:129] output data size: 50,3,227,227
I0131 10:35:35.204491  4417 internal_thread.cpp:73] Starting internal thread(s) on GPU 0
I0131 10:35:35.204546  4417 net.cpp:190] Setting up data
I0131 10:35:35.204553  4417 net.cpp:197] Top shape: 50 3 227 227 (7729350)
I0131 10:35:35.204557  4417 net.cpp:197] Top shape: 50 (50)
I0131 10:35:35.204558  4417 net.cpp:205] Memory required for data: 30917600
I0131 10:35:35.204562  4417 layer_factory.hpp:123] Creating layer label_data_1_split
I0131 10:35:35.204571  4417 net.cpp:140] Creating Layer label_data_1_split
I0131 10:35:35.204574  4417 net.cpp:481] label_data_1_split <- label
I0131 10:35:35.204578  4417 net.cpp:455] label_data_1_split -> label_data_1_split_0
I0131 10:35:35.204586  4417 net.cpp:455] label_data_1_split -> label_data_1_split_1
I0131 10:35:35.204648  4417 net.cpp:190] Setting up label_data_1_split
I0131 10:35:35.204654  4417 net.cpp:197] Top shape: 50 (50)
I0131 10:35:35.204658  4417 net.cpp:197] Top shape: 50 (50)
I0131 10:35:35.204659  4417 net.cpp:205] Memory required for data: 30918000
I0131 10:35:35.204661  4417 layer_factory.hpp:123] Creating layer data_fixed
I0131 10:35:35.204670  4417 net.cpp:140] Creating Layer data_fixed
I0131 10:35:35.204674  4417 net.cpp:481] data_fixed <- data
I0131 10:35:35.204677  4417 net.cpp:442] data_fixed -> data (in-place)
I0131 10:35:35.204708  4417 net.cpp:190] Setting up data_fixed
I0131 10:35:35.204715  4417 net.cpp:197] Top shape: 50 3 227 227 (7729350)
I0131 10:35:35.204716  4417 net.cpp:205] Memory required for data: 61835400
I0131 10:35:35.204725  4417 layer_factory.hpp:123] Creating layer conv1
I0131 10:35:35.204735  4417 net.cpp:140] Creating Layer conv1
I0131 10:35:35.204740  4417 net.cpp:481] conv1 <- data
I0131 10:35:35.204743  4417 net.cpp:455] conv1 -> scale1
I0131 10:35:35.205890  4417 layer_factory.hpp:123] Creating layer conv1
I0131 10:35:35.207808  4417 net.cpp:190] Setting up conv1
I0131 10:35:35.207819  4417 net.cpp:197] Top shape: 50 78 55 55 (11797500)
I0131 10:35:35.207821  4417 net.cpp:205] Memory required for data: 109025400
I0131 10:35:35.207829  4417 layer_factory.hpp:123] Creating layer relu1
I0131 10:35:35.207835  4417 net.cpp:140] Creating Layer relu1
I0131 10:35:35.207839  4417 net.cpp:481] relu1 <- scale1
I0131 10:35:35.207844  4417 net.cpp:455] relu1 -> relu1
I0131 10:35:35.207937  4417 net.cpp:190] Setting up relu1
I0131 10:35:35.207942  4417 net.cpp:197] Top shape: 50 78 55 55 (11797500)
I0131 10:35:35.207947  4417 net.cpp:205] Memory required for data: 156215400
I0131 10:35:35.207948  4417 layer_factory.hpp:123] Creating layer pool1
I0131 10:35:35.207955  4417 net.cpp:140] Creating Layer pool1
I0131 10:35:35.207957  4417 net.cpp:481] pool1 <- relu1
I0131 10:35:35.207962  4417 net.cpp:455] pool1 -> pool1
I0131 10:35:35.208020  4417 net.cpp:190] Setting up pool1
I0131 10:35:35.208026  4417 net.cpp:197] Top shape: 50 78 27 27 (2843100)
I0131 10:35:35.208029  4417 net.cpp:205] Memory required for data: 167587800
I0131 10:35:35.208031  4417 layer_factory.hpp:123] Creating layer pool1_fixed
I0131 10:35:35.208036  4417 net.cpp:140] Creating Layer pool1_fixed
I0131 10:35:35.208039  4417 net.cpp:481] pool1_fixed <- pool1
I0131 10:35:35.208042  4417 net.cpp:442] pool1_fixed -> pool1 (in-place)
I0131 10:35:35.208114  4417 net.cpp:190] Setting up pool1_fixed
I0131 10:35:35.208119  4417 net.cpp:197] Top shape: 50 78 27 27 (2843100)
I0131 10:35:35.208122  4417 net.cpp:205] Memory required for data: 178960200
I0131 10:35:35.208125  4417 layer_factory.hpp:123] Creating layer conv2
I0131 10:35:35.208133  4417 net.cpp:140] Creating Layer conv2
I0131 10:35:35.208137  4417 net.cpp:481] conv2 <- pool1
I0131 10:35:35.208140  4417 net.cpp:455] conv2 -> scale2
I0131 10:35:35.215589  4417 layer_factory.hpp:123] Creating layer conv2
I0131 10:35:35.225152  4417 net.cpp:190] Setting up conv2
I0131 10:35:35.225179  4417 net.cpp:197] Top shape: 50 180 27 27 (6561000)
I0131 10:35:35.225185  4417 net.cpp:205] Memory required for data: 205204200
I0131 10:35:35.225208  4417 layer_factory.hpp:123] Creating layer relu2
I0131 10:35:35.225229  4417 net.cpp:140] Creating Layer relu2
I0131 10:35:35.225251  4417 net.cpp:481] relu2 <- scale2
I0131 10:35:35.225263  4417 net.cpp:455] relu2 -> relu2
I0131 10:35:35.227648  4417 net.cpp:190] Setting up relu2
I0131 10:35:35.227669  4417 net.cpp:197] Top shape: 50 180 27 27 (6561000)
I0131 10:35:35.227674  4417 net.cpp:205] Memory required for data: 231448200
I0131 10:35:35.227679  4417 layer_factory.hpp:123] Creating layer pool2
I0131 10:35:35.227689  4417 net.cpp:140] Creating Layer pool2
I0131 10:35:35.227695  4417 net.cpp:481] pool2 <- relu2
I0131 10:35:35.227704  4417 net.cpp:455] pool2 -> pool2
I0131 10:35:35.227794  4417 net.cpp:190] Setting up pool2
I0131 10:35:35.227815  4417 net.cpp:197] Top shape: 50 180 13 13 (1521000)
I0131 10:35:35.227823  4417 net.cpp:205] Memory required for data: 237532200
I0131 10:35:35.227830  4417 layer_factory.hpp:123] Creating layer pool2_fixed
I0131 10:35:35.227845  4417 net.cpp:140] Creating Layer pool2_fixed
I0131 10:35:35.227852  4417 net.cpp:481] pool2_fixed <- pool2
I0131 10:35:35.227864  4417 net.cpp:442] pool2_fixed -> pool2 (in-place)
I0131 10:35:35.227957  4417 net.cpp:190] Setting up pool2_fixed
I0131 10:35:35.227977  4417 net.cpp:197] Top shape: 50 180 13 13 (1521000)
I0131 10:35:35.227983  4417 net.cpp:205] Memory required for data: 243616200
I0131 10:35:35.227998  4417 layer_factory.hpp:123] Creating layer conv3
I0131 10:35:35.228021  4417 net.cpp:140] Creating Layer conv3
I0131 10:35:35.228031  4417 net.cpp:481] conv3 <- pool2
I0131 10:35:35.228046  4417 net.cpp:455] conv3 -> conv3
I0131 10:35:35.230526  4417 layer_factory.hpp:123] Creating layer conv3
I0131 10:35:35.232432  4417 net.cpp:190] Setting up conv3
I0131 10:35:35.232455  4417 net.cpp:197] Top shape: 50 40 13 13 (338000)
I0131 10:35:35.232460  4417 net.cpp:205] Memory required for data: 244968200
I0131 10:35:35.232482  4417 layer_factory.hpp:123] Creating layer relu3
I0131 10:35:35.232499  4417 net.cpp:140] Creating Layer relu3
I0131 10:35:35.232509  4417 net.cpp:481] relu3 <- conv3
I0131 10:35:35.232522  4417 net.cpp:455] relu3 -> relu3
I0131 10:35:35.232568  4417 net.cpp:190] Setting up relu3
I0131 10:35:35.232578  4417 net.cpp:197] Top shape: 50 40 13 13 (338000)
I0131 10:35:35.232584  4417 net.cpp:205] Memory required for data: 246320200
I0131 10:35:35.232590  4417 layer_factory.hpp:123] Creating layer relu3_fixed
I0131 10:35:35.232604  4417 net.cpp:140] Creating Layer relu3_fixed
I0131 10:35:35.232612  4417 net.cpp:481] relu3_fixed <- relu3
I0131 10:35:35.232623  4417 net.cpp:442] relu3_fixed -> relu3 (in-place)
I0131 10:35:35.232681  4417 net.cpp:190] Setting up relu3_fixed
I0131 10:35:35.232692  4417 net.cpp:197] Top shape: 50 40 13 13 (338000)
I0131 10:35:35.232697  4417 net.cpp:205] Memory required for data: 247672200
I0131 10:35:35.232707  4417 layer_factory.hpp:123] Creating layer conv4
I0131 10:35:35.232726  4417 net.cpp:140] Creating Layer conv4
I0131 10:35:35.232736  4417 net.cpp:481] conv4 <- relu3
I0131 10:35:35.232748  4417 net.cpp:455] conv4 -> conv4
I0131 10:35:35.233861  4417 layer_factory.hpp:123] Creating layer conv4
I0131 10:35:35.239308  4417 net.cpp:190] Setting up conv4
I0131 10:35:35.239404  4417 net.cpp:197] Top shape: 50 116 13 13 (980200)
I0131 10:35:35.239439  4417 net.cpp:205] Memory required for data: 251593000
I0131 10:35:35.239480  4417 layer_factory.hpp:123] Creating layer relu4
I0131 10:35:35.239519  4417 net.cpp:140] Creating Layer relu4
I0131 10:35:35.239553  4417 net.cpp:481] relu4 <- conv4
I0131 10:35:35.239589  4417 net.cpp:455] relu4 -> relu4
I0131 10:35:35.239691  4417 net.cpp:190] Setting up relu4
I0131 10:35:35.239727  4417 net.cpp:197] Top shape: 50 116 13 13 (980200)
I0131 10:35:35.239758  4417 net.cpp:205] Memory required for data: 255513800
I0131 10:35:35.239786  4417 layer_factory.hpp:123] Creating layer relu4_fixed
I0131 10:35:35.239827  4417 net.cpp:140] Creating Layer relu4_fixed
I0131 10:35:35.239858  4417 net.cpp:481] relu4_fixed <- relu4
I0131 10:35:35.239894  4417 net.cpp:442] relu4_fixed -> relu4 (in-place)
I0131 10:35:35.240017  4417 net.cpp:190] Setting up relu4_fixed
I0131 10:35:35.240054  4417 net.cpp:197] Top shape: 50 116 13 13 (980200)
I0131 10:35:35.240085  4417 net.cpp:205] Memory required for data: 259434600
I0131 10:35:35.240123  4417 layer_factory.hpp:123] Creating layer conv5
I0131 10:35:35.240156  4417 net.cpp:140] Creating Layer conv5
I0131 10:35:35.240164  4417 net.cpp:481] conv5 <- relu4
I0131 10:35:35.240175  4417 net.cpp:455] conv5 -> conv5
I0131 10:35:35.241164  4417 layer_factory.hpp:123] Creating layer conv5
I0131 10:35:35.242274  4417 net.cpp:190] Setting up conv5
I0131 10:35:35.242288  4417 net.cpp:197] Top shape: 50 26 13 13 (219700)
I0131 10:35:35.242292  4417 net.cpp:205] Memory required for data: 260313400
I0131 10:35:35.242300  4417 layer_factory.hpp:123] Creating layer relu5
I0131 10:35:35.242308  4417 net.cpp:140] Creating Layer relu5
I0131 10:35:35.242312  4417 net.cpp:481] relu5 <- conv5
I0131 10:35:35.242321  4417 net.cpp:455] relu5 -> relu5
I0131 10:35:35.242349  4417 net.cpp:190] Setting up relu5
I0131 10:35:35.242357  4417 net.cpp:197] Top shape: 50 26 13 13 (219700)
I0131 10:35:35.242360  4417 net.cpp:205] Memory required for data: 261192200
I0131 10:35:35.242363  4417 layer_factory.hpp:123] Creating layer pool5
I0131 10:35:35.242372  4417 net.cpp:140] Creating Layer pool5
I0131 10:35:35.242375  4417 net.cpp:481] pool5 <- relu5
I0131 10:35:35.242381  4417 net.cpp:455] pool5 -> pool5
I0131 10:35:35.242432  4417 net.cpp:190] Setting up pool5
I0131 10:35:35.242441  4417 net.cpp:197] Top shape: 50 26 6 6 (46800)
I0131 10:35:35.242445  4417 net.cpp:205] Memory required for data: 261379400
I0131 10:35:35.242450  4417 layer_factory.hpp:123] Creating layer pool5_fixed
I0131 10:35:35.242460  4417 net.cpp:140] Creating Layer pool5_fixed
I0131 10:35:35.242470  4417 net.cpp:481] pool5_fixed <- pool5
I0131 10:35:35.242477  4417 net.cpp:442] pool5_fixed -> pool5 (in-place)
I0131 10:35:35.242522  4417 net.cpp:190] Setting up pool5_fixed
I0131 10:35:35.242528  4417 net.cpp:197] Top shape: 50 26 6 6 (46800)
I0131 10:35:35.242533  4417 net.cpp:205] Memory required for data: 261566600
I0131 10:35:35.242542  4417 layer_factory.hpp:123] Creating layer fc6
I0131 10:35:35.242554  4417 net.cpp:140] Creating Layer fc6
I0131 10:35:35.242560  4417 net.cpp:481] fc6 <- pool5
I0131 10:35:35.242570  4417 net.cpp:455] fc6 -> fc6
I0131 10:35:35.289515  4417 layer_factory.hpp:123] Creating layer fc6
I0131 10:35:35.324513  4417 net.cpp:190] Setting up fc6
I0131 10:35:35.324537  4417 net.cpp:197] Top shape: 50 4096 (204800)
I0131 10:35:35.324539  4417 net.cpp:205] Memory required for data: 262385800
I0131 10:35:35.324550  4417 layer_factory.hpp:123] Creating layer relu6
I0131 10:35:35.324558  4417 net.cpp:140] Creating Layer relu6
I0131 10:35:35.324560  4417 net.cpp:481] relu6 <- fc6
I0131 10:35:35.324565  4417 net.cpp:455] relu6 -> relu6
I0131 10:35:35.324584  4417 net.cpp:190] Setting up relu6
I0131 10:35:35.324585  4417 net.cpp:197] Top shape: 50 4096 (204800)
I0131 10:35:35.324587  4417 net.cpp:205] Memory required for data: 263205000
I0131 10:35:35.324589  4417 layer_factory.hpp:123] Creating layer relu6_fixed
I0131 10:35:35.324594  4417 net.cpp:140] Creating Layer relu6_fixed
I0131 10:35:35.324596  4417 net.cpp:481] relu6_fixed <- relu6
I0131 10:35:35.324599  4417 net.cpp:442] relu6_fixed -> relu6 (in-place)
I0131 10:35:35.324636  4417 net.cpp:190] Setting up relu6_fixed
I0131 10:35:35.324638  4417 net.cpp:197] Top shape: 50 4096 (204800)
I0131 10:35:35.324640  4417 net.cpp:205] Memory required for data: 264024200
I0131 10:35:35.324643  4417 layer_factory.hpp:123] Creating layer fc7
I0131 10:35:35.324648  4417 net.cpp:140] Creating Layer fc7
I0131 10:35:35.324651  4417 net.cpp:481] fc7 <- relu6
I0131 10:35:35.324653  4417 net.cpp:455] fc7 -> scale7
I0131 10:35:35.463474  4417 layer_factory.hpp:123] Creating layer fc7
I0131 10:35:35.602929  4417 net.cpp:190] Setting up fc7
I0131 10:35:35.602955  4417 net.cpp:197] Top shape: 50 4096 (204800)
I0131 10:35:35.602958  4417 net.cpp:205] Memory required for data: 264843400
I0131 10:35:35.602982  4417 layer_factory.hpp:123] Creating layer relu7
I0131 10:35:35.602999  4417 net.cpp:140] Creating Layer relu7
I0131 10:35:35.603005  4417 net.cpp:481] relu7 <- scale7
I0131 10:35:35.603011  4417 net.cpp:455] relu7 -> relu7
I0131 10:35:35.603030  4417 net.cpp:190] Setting up relu7
I0131 10:35:35.603034  4417 net.cpp:197] Top shape: 50 4096 (204800)
I0131 10:35:35.603035  4417 net.cpp:205] Memory required for data: 265662600
I0131 10:35:35.603037  4417 layer_factory.hpp:123] Creating layer relu7_fixed
I0131 10:35:35.603042  4417 net.cpp:140] Creating Layer relu7_fixed
I0131 10:35:35.603045  4417 net.cpp:481] relu7_fixed <- relu7
I0131 10:35:35.603049  4417 net.cpp:442] relu7_fixed -> relu7 (in-place)
I0131 10:35:35.603078  4417 net.cpp:190] Setting up relu7_fixed
I0131 10:35:35.603083  4417 net.cpp:197] Top shape: 50 4096 (204800)
I0131 10:35:35.603086  4417 net.cpp:205] Memory required for data: 266481800
I0131 10:35:35.603091  4417 layer_factory.hpp:123] Creating layer fc8
I0131 10:35:35.603098  4417 net.cpp:140] Creating Layer fc8
I0131 10:35:35.603101  4417 net.cpp:481] fc8 <- relu7
I0131 10:35:35.603107  4417 net.cpp:455] fc8 -> fc8
I0131 10:35:35.603963  4417 layer_factory.hpp:123] Creating layer fc8
I0131 10:35:35.604143  4417 net.cpp:190] Setting up fc8
I0131 10:35:35.604149  4417 net.cpp:197] Top shape: 50 2 (100)
I0131 10:35:35.604152  4417 net.cpp:205] Memory required for data: 266482200
I0131 10:35:35.604157  4417 layer_factory.hpp:123] Creating layer fc8_fixed
I0131 10:35:35.604162  4417 net.cpp:140] Creating Layer fc8_fixed
I0131 10:35:35.604166  4417 net.cpp:481] fc8_fixed <- fc8
I0131 10:35:35.604169  4417 net.cpp:442] fc8_fixed -> fc8 (in-place)
I0131 10:35:35.604193  4417 net.cpp:190] Setting up fc8_fixed
I0131 10:35:35.604197  4417 net.cpp:197] Top shape: 50 2 (100)
I0131 10:35:35.604199  4417 net.cpp:205] Memory required for data: 266482600
I0131 10:35:35.604202  4417 layer_factory.hpp:123] Creating layer fc8_fc8_fixed_0_split
I0131 10:35:35.604207  4417 net.cpp:140] Creating Layer fc8_fc8_fixed_0_split
I0131 10:35:35.604209  4417 net.cpp:481] fc8_fc8_fixed_0_split <- fc8
I0131 10:35:35.604213  4417 net.cpp:455] fc8_fc8_fixed_0_split -> fc8_fc8_fixed_0_split_0
I0131 10:35:35.604218  4417 net.cpp:455] fc8_fc8_fixed_0_split -> fc8_fc8_fixed_0_split_1
I0131 10:35:35.604243  4417 net.cpp:190] Setting up fc8_fc8_fixed_0_split
I0131 10:35:35.604246  4417 net.cpp:197] Top shape: 50 2 (100)
I0131 10:35:35.604249  4417 net.cpp:197] Top shape: 50 2 (100)
I0131 10:35:35.604251  4417 net.cpp:205] Memory required for data: 266483400
I0131 10:35:35.604254  4417 layer_factory.hpp:123] Creating layer loss
I0131 10:35:35.604257  4417 net.cpp:140] Creating Layer loss
I0131 10:35:35.604259  4417 net.cpp:481] loss <- fc8_fc8_fixed_0_split_0
I0131 10:35:35.604264  4417 net.cpp:481] loss <- label_data_1_split_0
I0131 10:35:35.604267  4417 net.cpp:455] loss -> loss
…
