…
I0716 13:31:52.712803 23176 net.cpp:98] Initializing net from parameters: 
state {
  phase: TRAIN
}
layer {
  name: "data"
  type: "ImageData"
  top: "data"
  top: "label"
  include {
    phase: TRAIN
  }
  transform_param {
    scale: 0.022
    mean_value: 73
    mean_value: 82
    mean_value: 72
    resize_param {
      prob: 1
      resize_mode: WARP
      height: 512
      width: 1024
    }
  }
  image_data_param {
    source: "../data/cityscapes/calibration.txt"
    batch_size: 1
    shuffle: true
    new_height: 512
    new_width: 1024
    root_folder: "../data/cityscapes/calibration_images/"
  }
}
layer {
  name: "conv_d0a-b"
  type: "Convolution"
  bottom: "data"
  top: "d0b"
  param {
    lr_mult: 1
    decay_mult: 1
  }
  param {
    lr_mult: 2
    decay_mult: 0
  }
  convolution_param {
    num_output: 32
    pad: 1
    kernel_size: 3
    stride: 1
    weight_filler {
      type: "msra"
    }
  }
}
layer {
  name: "relu_d0b"
  type: "ReLU"
  bottom: "d0b"
  top: "relu_d0b"
}
layer {
  name: "conv_d0b-c"
  type: "Convolution"
  bottom: "relu_d0b"
  top: "d0c"
  param {
    lr_mult: 1
    decay_mult: 1
  }
  param {
    lr_mult: 2
    decay_mult: 0
  }
  convolution_param {
    num_output: 32
    pad: 1
    kernel_size: 3
    weight_filler {
      type: "msra"
    }
  }
}
layer {
  name: "BatchNorm_d0c"
  type: "BatchNorm"
  bottom: "d0c"
  top: "BatchNorm_d0c"
  param {
    lr_mult: 1
    decay_mult: 0
  }
  param {
    lr_mult: 1
    decay_mult: 0
  }
  param {
    lr_mult: 0
    decay_mult: 0
  }
  param {
    lr_mult: 0
    decay_mult: 0
  }
  batch_norm_param {
    use_global_stats: false
    eps: 1e-05
    scale_filler {
      type: "constant"
      value: 1
    }
    bias_filler {
      type: "constant"
      value: 0
    }
  }
}
layer {
  name: "relu_d0c"
  type: "ReLU"
  bottom: "BatchNorm_d0c"
  top: "relu_d0c"
}
layer {
  name: "pool_d0c-1a"
  type: "Pooling"
  bottom: "relu_d0c"
  top: "d1a"
  pooling_param {
    pool: MAX
    kernel_size: 2
    stride: 2
  }
}
layer {
  name: "conv_d1a-b"
  type: "Convolution"
  bottom: "d1a"
  top: "d1b"
  param {
    lr_mult: 1
    decay_mult: 1
  }
  param {
    lr_mult: 2
    decay_mult: 0
  }
  convolution_param {
    num_output: 64
    pad: 1
    kernel_size: 3
    weight_filler {
      type: "msra"
    }
  }
}
layer {
  name: "relu_d1b"
  type: "ReLU"
  bottom: "d1b"
  top: "relu_d1b"
}
layer {
  name: "conv_d1b-c"
  type: "Convolution"
  bottom: "relu_d1b"
  top: "d1c"
  param {
    lr_mult: 1
    decay_mult: 1
  }
  param {
    lr_mult: 2
    decay_mult: 0
  }
  convolution_param {
    num_output: 64
    pad: 1
    kernel_size: 3
    weight_filler {
      type: "msra"
    }
  }
}
layer {
  name: "BatchNorm_d1c"
  type: "BatchNorm"
  bottom: "d1c"
  top: "BatchNorm_d1c"
  param {
    lr_mult: 1
    decay_mult: 0
  }
  param {
    lr_mult: 1
    decay_mult: 0
  }
  param {
    lr_mult: 0
    decay_mult: 0
  }
  param {
    lr_mult: 0
    decay_mult: 0
  }
  batch_norm_param {
    use_global_stats: false
    eps: 1e-05
    scale_filler {
      type: "constant"
      value: 1
    }
    bias_filler {
      type: "constant"
      value: 0
    }
  }
}
layer {
  name: "relu_d1c"
  type: "ReLU"
  bottom: "BatchNorm_d1c"
  top: "relu_d1c"
}
layer {
  name: "pool_d1c-2a"
  type: "Pooling"
  bottom: "relu_d1c"
  top: "d2a"
  pooling_param {
    pool: MAX
    kernel_size: 2
    stride: 2
  }
}
layer {
  name: "conv_d2a-b"
  type: "Convolution"
  bottom: "d2a"
  top: "d2b"
  param {
    lr_mult: 1
    decay_mult: 1
  }
  param {
    lr_mult: 2
    decay_mult: 0
  }
  convolution_param {
    num_output: 128
    pad: 1
    kernel_size: 3
    weight_filler {
      type: "msra"
    }
  }
}
layer {
  name: "relu_d2b"
  type: "ReLU"
  bottom: "d2b"
  top: "relu_d2b"
}
layer {
  name: "conv_d2b-c"
  type: "Convolution"
  bottom: "relu_d2b"
  top: "d2c"
  param {
    lr_mult: 1
    decay_mult: 1
  }
  param {
    lr_mult: 2
    decay_mult: 0
  }
  convolution_param {
    num_output: 128
    pad: 1
    kernel_size: 3
    weight_filler {
      type: "msra"
    }
  }
}
layer {
  name: "BatchNorm_d2c"
  type: "BatchNorm"
  bottom: "d2c"
  top: "BatchNorm_d2c"
  param {
    lr_mult: 1
    decay_mult: 0
  }
  param {
    lr_mult: 1
    decay_mult: 0
  }
  param {
    lr_mult: 0
    decay_mult: 0
  }
  param {
    lr_mult: 0
    decay_mult: 0
  }
  batch_norm_param {
    use_global_stats: false
    eps: 1e-05
    scale_filler {
      type: "constant"
      value: 1
    }
    bias_filler {
      type: "constant"
      value: 0
    }
  }
}
layer {
  name: "relu_d2c"
  type: "ReLU"
  bottom: "BatchNorm_d2c"
  top: "relu_d2c"
}
layer {
  name: "pool_d2c-3a"
  type: "Pooling"
  bottom: "relu_d2c"
  top: "d3a"
  pooling_param {
    pool: MAX
    kernel_size: 2
    stride: 2
  }
}
layer {
  name: "conv_d3a-b"
  type: "Convolution"
  bottom: "d3a"
  top: "d3b"
  param {
    lr_mult: 1
    decay_mult: 1
  }
  param {
    lr_mult: 2
    decay_mult: 0
  }
  convolution_param {
    num_output: 256
    pad: 1
    kernel_size: 3
    weight_filler {
      type: "msra"
    }
  }
}
layer {
  name: "relu_d3b"
  type: "ReLU"
  bottom: "d3b"
  top: "relu_d3b"
}
layer {
  name: "conv_d3b-c"
  type: "Convolution"
  bottom: "relu_d3b"
  top: "d3c"
  param {
    lr_mult: 1
    decay_mult: 1
  }
  param {
    lr_mult: 2
    decay_mult: 0
  }
  convolution_param {
    num_output: 256
    pad: 1
    kernel_size: 3
    weight_filler {
      type: "msra"
    }
  }
}
layer {
  name: "BatchNorm_1"
  type: "BatchNorm"
  bottom: "d3c"
  top: "BatchNorm_1"
  param {
    lr_mult: 1
    decay_mult: 0
  }
  param {
    lr_mult: 1
    decay_mult: 0
  }
  param {
    lr_mult: 0
    decay_mult: 0
  }
  param {
    lr_mult: 0
    decay_mult: 0
  }
  batch_norm_param {
    use_global_stats: false
    eps: 1e-05
    scale_filler {
      type: "constant"
      value: 1
    }
    bias_filler {
      type: "constant"
      value: 0
    }
  }
}
layer {
  name: "relu_d3c"
  type: "ReLU"
  bottom: "BatchNorm_1"
  top: "relu_d3c"
}
layer {
  name: "pool_d3c-4a"
  type: "Pooling"
  bottom: "relu_d3c"
  top: "d4a"
  pooling_param {
    pool: MAX
    kernel_size: 2
    stride: 2
  }
}
layer {
  name: "conv_d4a-b"
  type: "Convolution"
  bottom: "d4a"
  top: "d4b"
  param {
    lr_mult: 1
    decay_mult: 1
  }
  param {
    lr_mult: 2
    decay_mult: 0
  }
  convolution_param {
    num_output: 512
    pad: 1
    kernel_size: 3
    weight_filler {
      type: "msra"
    }
  }
}
layer {
  name: "BatchNorm_2"
  type: "BatchNorm"
  bottom: "d4b"
  top: "BatchNorm_2"
  param {
    lr_mult: 1
    decay_mult: 0
  }
  param {
    lr_mult: 1
    decay_mult: 0
  }
  param {
    lr_mult: 0
    decay_mult: 0
  }
  param {
    lr_mult: 0
    decay_mult: 0
  }
  batch_norm_param {
    use_global_stats: false
    eps: 1e-05
    scale_filler {
      type: "constant"
      value: 1
    }
    bias_filler {
      type: "constant"
      value: 0
    }
  }
}
layer {
  name: "relu_d4b"
  type: "ReLU"
  bottom: "BatchNorm_2"
  top: "relu_d4b"
}
layer {
  name: "conv_d4b-c"
  type: "Convolution"
  bottom: "relu_d4b"
  top: "d4c"
  param {
    lr_mult: 1
    decay_mult: 1
  }
  param {
    lr_mult: 2
    decay_mult: 0
  }
  convolution_param {
    num_output: 512
    pad: 1
    kernel_size: 3
    weight_filler {
      type: "msra"
    }
  }
}
layer {
  name: "relu_d4c"
  type: "ReLU"
  bottom: "d4c"
  top: "relu_d4c"
}
layer {
  name: "upconv_d4c_u3a"
  type: "Deconvolution"
  bottom: "relu_d4c"
  top: "u3a"
  param {
    lr_mult: 1
    decay_mult: 1
  }
  param {
    lr_mult: 2
    decay_mult: 0
  }
  convolution_param {
    num_output: 256
    pad: 0
    kernel_size: 2
    stride: 2
    weight_filler {
      type: "msra"
    }
  }
}
layer {
  name: "relu_u3a"
  type: "ReLU"
  bottom: "u3a"
  top: "u3a"
}
layer {
  name: "concat_d3cc_u3a-b"
  type: "Concat"
  bottom: "u3a"
  bottom: "d3c"
  top: "u3b"
}
layer {
  name: "conv_u3b-c"
  type: "Convolution"
  bottom: "u3b"
  top: "u3c"
  param {
    lr_mult: 1
    decay_mult: 1
  }
  param {
    lr_mult: 2
    decay_mult: 0
  }
  convolution_param {
    num_output: 256
    pad: 1
    kernel_size: 3
    weight_filler {
      type: "msra"
    }
  }
}
layer {
  name: "relu_u3c"
  type: "ReLU"
  bottom: "u3c"
  top: "u3c"
}
layer {
  name: "conv_u3c-d"
  type: "Convolution"
  bottom: "u3c"
  top: "u3d"
  param {
    lr_mult: 1
    decay_mult: 1
  }
  param {
    lr_mult: 2
    decay_mult: 0
  }
  convolution_param {
    num_output: 256
    pad: 1
    kernel_size: 3
    weight_filler {
      type: "msra"
    }
  }
}
layer {
  name: "relu_u3d"
  type: "ReLU"
  bottom: "u3d"
  top: "u3d"
}
layer {
  name: "upconv_u3d_u2a"
  type: "Deconvolution"
  bottom: "u3d"
  top: "u2a"
  param {
    lr_mult: 1
    decay_mult: 1
  }
  param {
    lr_mult: 2
    decay_mult: 0
  }
  convolution_param {
    num_output: 128
    pad: 0
    kernel_size: 2
    stride: 2
    weight_filler {
      type: "msra"
    }
  }
}
layer {
  name: "relu_u2a"
  type: "ReLU"
  bottom: "u2a"
  top: "u2a"
}
layer {
  name: "concat_d2cc_u2a-b"
  type: "Concat"
  bottom: "u2a"
  bottom: "d2c"
  top: "u2b"
}
layer {
  name: "conv_u2b-c"
  type: "Convolution"
  bottom: "u2b"
  top: "u2c"
  param {
    lr_mult: 1
    decay_mult: 1
  }
  param {
    lr_mult: 2
    decay_mult: 0
  }
  convolution_param {
    num_output: 128
    pad: 1
    kernel_size: 3
    weight_filler {
      type: "msra"
    }
  }
}
layer {
  name: "relu_u2c"
  type: "ReLU"
  bottom: "u2c"
  top: "u2c"
}
layer {
  name: "conv_u2c-d"
  type: "Convolution"
  bottom: "u2c"
  top: "u2d"
  param {
    lr_mult: 1
    decay_mult: 1
  }
  param {
    lr_mult: 2
    decay_mult: 0
  }
  convolution_param {
    num_output: 128
    pad: 1
    kernel_size: 3
    weight_filler {
      type: "msra"
    }
  }
}
layer {
  name: "relu_u2d"
  type: "ReLU"
  bottom: "u2d"
  top: "u2d"
}
layer {
  name: "upconv_u2d_u1a"
  type: "Deconvolution"
  bottom: "u2d"
  top: "u1a"
  param {
    lr_mult: 1
    decay_mult: 1
  }
  param {
    lr_mult: 2
    decay_mult: 0
  }
  convolution_param {
    num_output: 64
    pad: 0
    kernel_size: 2
    stride: 2
    weight_filler {
      type: "msra"
    }
  }
}
layer {
  name: "relu_u1a"
  type: "ReLU"
  bottom: "u1a"
  top: "u1a"
}
layer {
  name: "concat_d1cc_u1a-b"
  type: "Concat"
  bottom: "u1a"
  bottom: "d1c"
  top: "u1b"
}
layer {
  name: "conv_u1b-c"
  type: "Convolution"
  bottom: "u1b"
  top: "u1c"
  param {
    lr_mult: 1
    decay_mult: 1
  }
  param {
    lr_mult: 2
    decay_mult: 0
  }
  convolution_param {
    num_output: 64
    pad: 1
    kernel_size: 3
    weight_filler {
      type: "msra"
    }
  }
}
layer {
  name: "relu_u1c"
  type: "ReLU"
  bottom: "u1c"
  top: "u1c"
}
layer {
  name: "conv_u1c-d"
  type: "Convolution"
  bottom: "u1c"
  top: "u1d"
  param {
    lr_mult: 1
    decay_mult: 1
  }
  param {
    lr_mult: 2
    decay_mult: 0
  }
  convolution_param {
    num_output: 64
    pad: 1
    kernel_size: 3
    weight_filler {
      type: "msra"
    }
  }
}
layer {
  name: "relu_u1d"
  type: "ReLU"
  bottom: "u1d"
  top: "u1d"
}
layer {
  name: "upconv_u1d_u0a_NEW"
  type: "Deconvolution"
  bottom: "u1d"
  top: "u0a"
  param {
    lr_mult: 1
    decay_mult: 1
  }
  param {
    lr_mult: 2
    decay_mult: 0
  }
  convolution_param {
    num_output: 32
    pad: 0
    kernel_size: 2
    stride: 2
    weight_filler {
      type: "msra"
    }
  }
}
layer {
  name: "relu_u0a"
  type: "ReLU"
  bottom: "u0a"
  top: "u0a"
}
layer {
  name: "concat_d0cc_u0a-b"
  type: "Concat"
  bottom: "u0a"
  bottom: "d0c"
  top: "u0b"
}
layer {
  name: "conv_u0b-c_New"
  type: "Convolution"
  bottom: "u0b"
  top: "u0c"
  param {
    lr_mult: 1
    decay_mult: 1
  }
  param {
    lr_mult: 2
    decay_mult: 0
  }
  convolution_param {
    num_output: 32
    pad: 1
    kernel_size: 3
    weight_filler {
      type: "msra"
    }
  }
}
layer {
  name: "relu_u0c"
  type: "ReLU"
  bottom: "u0c"
  top: "u0c"
}
layer {
  name: "conv_u0c-d_New"
  type: "Convolution"
  bottom: "u0c"
  top: "u0d"
  param {
    lr_mult: 1
    decay_mult: 1
  }
  param {
    lr_mult: 2
    decay_mult: 0
  }
  convolution_param {
    num_output: 32
    pad: 1
    kernel_size: 3
    weight_filler {
      type: "msra"
    }
  }
}
layer {
  name: "relu_u0d"
  type: "ReLU"
  bottom: "u0d"
  top: "u0d"
}
layer {
  name: "conv_u0d-score_New"
  type: "Convolution"
  bottom: "u0d"
  top: "conv_u0d-score_New"
  param {
    lr_mult: 1
    decay_mult: 1
  }
  param {
    lr_mult: 2
    decay_mult: 0
  }
  convolution_param {
    num_output: 19
    pad: 0
    kernel_size: 1
    weight_filler {
      type: "msra"
    }
  }
}
layer {
  name: "score"
  type: "Softmax"
  bottom: "conv_u0d-score_New"
  top: "score"
}
I0716 13:31:52.712990 23176 layer_factory.hpp:123] Creating layer data
I0716 13:31:52.713014 23176 net.cpp:140] Creating Layer data
I0716 13:31:52.713022 23176 net.cpp:455] data -> data
I0716 13:31:52.713032 23176 net.cpp:455] data -> label
I0716 13:31:52.713049 23176 image_data_layer.cpp:87] Opening file ../data/cityscapes/calibration.txt
I0716 13:31:52.713310 23176 image_data_layer.cpp:97] Shuffling data
I0716 13:31:52.713371 23176 image_data_layer.cpp:102] A total of 1000 images.
I0716 13:31:52.788144 23176 image_data_layer.cpp:130] output data size: 1,3,512,1024
I0716 13:31:52.814111 23176 internal_thread.cpp:73] Starting internal thread(s) on GPU 1
I0716 13:31:52.814180 23176 net.cpp:190] Setting up data
I0716 13:31:52.814191 23176 net.cpp:197] Top shape: 1 3 512 1024 (1572864)
I0716 13:31:52.814196 23176 net.cpp:197] Top shape: 1 (1)
I0716 13:31:52.814199 23176 net.cpp:205] Memory required for data: 6291460
I0716 13:31:52.814204 23176 layer_factory.hpp:123] Creating layer conv_d0a-b
I0716 13:31:52.814219 23176 net.cpp:140] Creating Layer conv_d0a-b
I0716 13:31:52.814224 23176 net.cpp:481] conv_d0a-b <- data
I0716 13:31:52.814239 23176 net.cpp:455] conv_d0a-b -> d0b
I0716 13:31:52.816309 23176 net.cpp:190] Setting up conv_d0a-b
I0716 13:31:52.816321 23176 net.cpp:197] Top shape: 1 32 512 1024 (16777216)
I0716 13:31:52.816324 23176 net.cpp:205] Memory required for data: 73400324
I0716 13:31:52.816349 23176 layer_factory.hpp:123] Creating layer relu_d0b
I0716 13:31:52.816359 23176 net.cpp:140] Creating Layer relu_d0b
I0716 13:31:52.816362 23176 net.cpp:481] relu_d0b <- d0b
I0716 13:31:52.816367 23176 net.cpp:455] relu_d0b -> relu_d0b
I0716 13:31:52.816397 23176 net.cpp:190] Setting up relu_d0b
I0716 13:31:52.816404 23176 net.cpp:197] Top shape: 1 32 512 1024 (16777216)
I0716 13:31:52.816407 23176 net.cpp:205] Memory required for data: 140509188
I0716 13:31:52.816411 23176 layer_factory.hpp:123] Creating layer conv_d0b-c
I0716 13:31:52.816418 23176 net.cpp:140] Creating Layer conv_d0b-c
I0716 13:31:52.816421 23176 net.cpp:481] conv_d0b-c <- relu_d0b
I0716 13:31:52.816426 23176 net.cpp:455] conv_d0b-c -> d0c
I0716 13:31:52.818917 23176 net.cpp:190] Setting up conv_d0b-c
I0716 13:31:52.818931 23176 net.cpp:197] Top shape: 1 32 512 1024 (16777216)
I0716 13:31:52.818934 23176 net.cpp:205] Memory required for data: 207618052
I0716 13:31:52.818943 23176 layer_factory.hpp:123] Creating layer d0c_conv_d0b-c_0_split
I0716 13:31:52.818951 23176 net.cpp:140] Creating Layer d0c_conv_d0b-c_0_split
I0716 13:31:52.818954 23176 net.cpp:481] d0c_conv_d0b-c_0_split <- d0c
I0716 13:31:52.818960 23176 net.cpp:455] d0c_conv_d0b-c_0_split -> d0c_conv_d0b-c_0_split_0
I0716 13:31:52.818967 23176 net.cpp:455] d0c_conv_d0b-c_0_split -> d0c_conv_d0b-c_0_split_1
I0716 13:31:52.819005 23176 net.cpp:190] Setting up d0c_conv_d0b-c_0_split
I0716 13:31:52.819013 23176 net.cpp:197] Top shape: 1 32 512 1024 (16777216)
I0716 13:31:52.819016 23176 net.cpp:197] Top shape: 1 32 512 1024 (16777216)
I0716 13:31:52.819020 23176 net.cpp:205] Memory required for data: 341835780
I0716 13:31:52.819022 23176 layer_factory.hpp:123] Creating layer BatchNorm_d0c
I0716 13:31:52.819031 23176 net.cpp:140] Creating Layer BatchNorm_d0c
I0716 13:31:52.819036 23176 net.cpp:481] BatchNorm_d0c <- d0c_conv_d0b-c_0_split_0
I0716 13:31:52.819041 23176 net.cpp:455] BatchNorm_d0c -> BatchNorm_d0c
I0716 13:31:52.820587 23176 net.cpp:190] Setting up BatchNorm_d0c
I0716 13:31:52.820600 23176 net.cpp:197] Top shape: 1 32 512 1024 (16777216)
I0716 13:31:52.820603 23176 net.cpp:205] Memory required for data: 408944644
I0716 13:31:52.820616 23176 layer_factory.hpp:123] Creating layer relu_d0c
I0716 13:31:52.820622 23176 net.cpp:140] Creating Layer relu_d0c
I0716 13:31:52.820626 23176 net.cpp:481] relu_d0c <- BatchNorm_d0c
I0716 13:31:52.820631 23176 net.cpp:455] relu_d0c -> relu_d0c
I0716 13:31:52.820653 23176 net.cpp:190] Setting up relu_d0c
I0716 13:31:52.820659 23176 net.cpp:197] Top shape: 1 32 512 1024 (16777216)
I0716 13:31:52.820663 23176 net.cpp:205] Memory required for data: 476053508
I0716 13:31:52.820667 23176 layer_factory.hpp:123] Creating layer pool_d0c-1a
I0716 13:31:52.820672 23176 net.cpp:140] Creating Layer pool_d0c-1a
I0716 13:31:52.820675 23176 net.cpp:481] pool_d0c-1a <- relu_d0c
I0716 13:31:52.820679 23176 net.cpp:455] pool_d0c-1a -> d1a
I0716 13:31:52.820708 23176 net.cpp:190] Setting up pool_d0c-1a
I0716 13:31:52.820713 23176 net.cpp:197] Top shape: 1 32 256 512 (4194304)
I0716 13:31:52.820715 23176 net.cpp:205] Memory required for data: 492830724
I0716 13:31:52.820719 23176 layer_factory.hpp:123] Creating layer conv_d1a-b
I0716 13:31:52.820726 23176 net.cpp:140] Creating Layer conv_d1a-b
I0716 13:31:52.820730 23176 net.cpp:481] conv_d1a-b <- d1a
I0716 13:31:52.820734 23176 net.cpp:455] conv_d1a-b -> d1b
I0716 13:31:52.822517 23176 net.cpp:190] Setting up conv_d1a-b
I0716 13:31:52.822530 23176 net.cpp:197] Top shape: 1 64 256 512 (8388608)
I0716 13:31:52.822532 23176 net.cpp:205] Memory required for data: 526385156
I0716 13:31:52.822538 23176 layer_factory.hpp:123] Creating layer relu_d1b
I0716 13:31:52.822546 23176 net.cpp:140] Creating Layer relu_d1b
I0716 13:31:52.822548 23176 net.cpp:481] relu_d1b <- d1b
I0716 13:31:52.822553 23176 net.cpp:455] relu_d1b -> relu_d1b
I0716 13:31:52.822578 23176 net.cpp:190] Setting up relu_d1b
I0716 13:31:52.822585 23176 net.cpp:197] Top shape: 1 64 256 512 (8388608)
I0716 13:31:52.822587 23176 net.cpp:205] Memory required for data: 559939588
I0716 13:31:52.822590 23176 layer_factory.hpp:123] Creating layer conv_d1b-c
I0716 13:31:52.822598 23176 net.cpp:140] Creating Layer conv_d1b-c
I0716 13:31:52.822612 23176 net.cpp:481] conv_d1b-c <- relu_d1b
I0716 13:31:52.822616 23176 net.cpp:455] conv_d1b-c -> d1c
I0716 13:31:52.823207 23176 net.cpp:190] Setting up conv_d1b-c
I0716 13:31:52.823215 23176 net.cpp:197] Top shape: 1 64 256 512 (8388608)
I0716 13:31:52.823220 23176 net.cpp:205] Memory required for data: 593494020
I0716 13:31:52.823225 23176 layer_factory.hpp:123] Creating layer d1c_conv_d1b-c_0_split
I0716 13:31:52.823230 23176 net.cpp:140] Creating Layer d1c_conv_d1b-c_0_split
I0716 13:31:52.823233 23176 net.cpp:481] d1c_conv_d1b-c_0_split <- d1c
I0716 13:31:52.823238 23176 net.cpp:455] d1c_conv_d1b-c_0_split -> d1c_conv_d1b-c_0_split_0
I0716 13:31:52.823244 23176 net.cpp:455] d1c_conv_d1b-c_0_split -> d1c_conv_d1b-c_0_split_1
I0716 13:31:52.823276 23176 net.cpp:190] Setting up d1c_conv_d1b-c_0_split
I0716 13:31:52.823282 23176 net.cpp:197] Top shape: 1 64 256 512 (8388608)
I0716 13:31:52.823285 23176 net.cpp:197] Top shape: 1 64 256 512 (8388608)
I0716 13:31:52.823288 23176 net.cpp:205] Memory required for data: 660602884
I0716 13:31:52.823292 23176 layer_factory.hpp:123] Creating layer BatchNorm_d1c
I0716 13:31:52.823298 23176 net.cpp:140] Creating Layer BatchNorm_d1c
I0716 13:31:52.823302 23176 net.cpp:481] BatchNorm_d1c <- d1c_conv_d1b-c_0_split_0
I0716 13:31:52.823307 23176 net.cpp:455] BatchNorm_d1c -> BatchNorm_d1c
I0716 13:31:52.823976 23176 net.cpp:190] Setting up BatchNorm_d1c
I0716 13:31:52.823987 23176 net.cpp:197] Top shape: 1 64 256 512 (8388608)
I0716 13:31:52.823989 23176 net.cpp:205] Memory required for data: 694157316
I0716 13:31:52.824002 23176 layer_factory.hpp:123] Creating layer relu_d1c
I0716 13:31:52.824007 23176 net.cpp:140] Creating Layer relu_d1c
I0716 13:31:52.824012 23176 net.cpp:481] relu_d1c <- BatchNorm_d1c
I0716 13:31:52.824017 23176 net.cpp:455] relu_d1c -> relu_d1c
I0716 13:31:52.824038 23176 net.cpp:190] Setting up relu_d1c
I0716 13:31:52.824043 23176 net.cpp:197] Top shape: 1 64 256 512 (8388608)
I0716 13:31:52.824046 23176 net.cpp:205] Memory required for data: 727711748
I0716 13:31:52.824049 23176 layer_factory.hpp:123] Creating layer pool_d1c-2a
I0716 13:31:52.824055 23176 net.cpp:140] Creating Layer pool_d1c-2a
I0716 13:31:52.824059 23176 net.cpp:481] pool_d1c-2a <- relu_d1c
I0716 13:31:52.824064 23176 net.cpp:455] pool_d1c-2a -> d2a
I0716 13:31:52.824090 23176 net.cpp:190] Setting up pool_d1c-2a
I0716 13:31:52.824096 23176 net.cpp:197] Top shape: 1 64 128 256 (2097152)
I0716 13:31:52.824100 23176 net.cpp:205] Memory required for data: 736100356
I0716 13:31:52.824102 23176 layer_factory.hpp:123] Creating layer conv_d2a-b
I0716 13:31:52.824110 23176 net.cpp:140] Creating Layer conv_d2a-b
I0716 13:31:52.824113 23176 net.cpp:481] conv_d2a-b <- d2a
I0716 13:31:52.824117 23176 net.cpp:455] conv_d2a-b -> d2b
I0716 13:31:52.825654 23176 net.cpp:190] Setting up conv_d2a-b
I0716 13:31:52.825666 23176 net.cpp:197] Top shape: 1 128 128 256 (4194304)
I0716 13:31:52.825670 23176 net.cpp:205] Memory required for data: 752877572
I0716 13:31:52.825675 23176 layer_factory.hpp:123] Creating layer relu_d2b
I0716 13:31:52.825682 23176 net.cpp:140] Creating Layer relu_d2b
I0716 13:31:52.825687 23176 net.cpp:481] relu_d2b <- d2b
I0716 13:31:52.825692 23176 net.cpp:455] relu_d2b -> relu_d2b
I0716 13:31:52.825716 23176 net.cpp:190] Setting up relu_d2b
I0716 13:31:52.825721 23176 net.cpp:197] Top shape: 1 128 128 256 (4194304)
I0716 13:31:52.825726 23176 net.cpp:205] Memory required for data: 769654788
I0716 13:31:52.825728 23176 layer_factory.hpp:123] Creating layer conv_d2b-c
I0716 13:31:52.825736 23176 net.cpp:140] Creating Layer conv_d2b-c
I0716 13:31:52.825739 23176 net.cpp:481] conv_d2b-c <- relu_d2b
I0716 13:31:52.825744 23176 net.cpp:455] conv_d2b-c -> d2c
I0716 13:31:52.827229 23176 net.cpp:190] Setting up conv_d2b-c
I0716 13:31:52.827237 23176 net.cpp:197] Top shape: 1 128 128 256 (4194304)
I0716 13:31:52.827240 23176 net.cpp:205] Memory required for data: 786432004
I0716 13:31:52.827246 23176 layer_factory.hpp:123] Creating layer d2c_conv_d2b-c_0_split
I0716 13:31:52.827252 23176 net.cpp:140] Creating Layer d2c_conv_d2b-c_0_split
I0716 13:31:52.827255 23176 net.cpp:481] d2c_conv_d2b-c_0_split <- d2c
I0716 13:31:52.827260 23176 net.cpp:455] d2c_conv_d2b-c_0_split -> d2c_conv_d2b-c_0_split_0
I0716 13:31:52.827266 23176 net.cpp:455] d2c_conv_d2b-c_0_split -> d2c_conv_d2b-c_0_split_1
I0716 13:31:52.827298 23176 net.cpp:190] Setting up d2c_conv_d2b-c_0_split
I0716 13:31:52.827304 23176 net.cpp:197] Top shape: 1 128 128 256 (4194304)
I0716 13:31:52.827307 23176 net.cpp:197] Top shape: 1 128 128 256 (4194304)
I0716 13:31:52.827311 23176 net.cpp:205] Memory required for data: 819986436
I0716 13:31:52.827314 23176 layer_factory.hpp:123] Creating layer BatchNorm_d2c
I0716 13:31:52.827322 23176 net.cpp:140] Creating Layer BatchNorm_d2c
I0716 13:31:52.827325 23176 net.cpp:481] BatchNorm_d2c <- d2c_conv_d2b-c_0_split_0
I0716 13:31:52.827330 23176 net.cpp:455] BatchNorm_d2c -> BatchNorm_d2c
I0716 13:31:52.827853 23176 net.cpp:190] Setting up BatchNorm_d2c
I0716 13:31:52.827862 23176 net.cpp:197] Top shape: 1 128 128 256 (4194304)
I0716 13:31:52.827865 23176 net.cpp:205] Memory required for data: 836763652
I0716 13:31:52.827874 23176 layer_factory.hpp:123] Creating layer relu_d2c
I0716 13:31:52.827881 23176 net.cpp:140] Creating Layer relu_d2c
I0716 13:31:52.827884 23176 net.cpp:481] relu_d2c <- BatchNorm_d2c
I0716 13:31:52.827889 23176 net.cpp:455] relu_d2c -> relu_d2c
I0716 13:31:52.827909 23176 net.cpp:190] Setting up relu_d2c
I0716 13:31:52.827915 23176 net.cpp:197] Top shape: 1 128 128 256 (4194304)
I0716 13:31:52.827917 23176 net.cpp:205] Memory required for data: 853540868
I0716 13:31:52.827921 23176 layer_factory.hpp:123] Creating layer pool_d2c-3a
I0716 13:31:52.827926 23176 net.cpp:140] Creating Layer pool_d2c-3a
I0716 13:31:52.827929 23176 net.cpp:481] pool_d2c-3a <- relu_d2c
I0716 13:31:52.827934 23176 net.cpp:455] pool_d2c-3a -> d3a
I0716 13:31:52.827960 23176 net.cpp:190] Setting up pool_d2c-3a
I0716 13:31:52.827966 23176 net.cpp:197] Top shape: 1 128 64 128 (1048576)
I0716 13:31:52.827970 23176 net.cpp:205] Memory required for data: 857735172
I0716 13:31:52.827972 23176 layer_factory.hpp:123] Creating layer conv_d3a-b
I0716 13:31:52.827980 23176 net.cpp:140] Creating Layer conv_d3a-b
I0716 13:31:52.827983 23176 net.cpp:481] conv_d3a-b <- d3a
I0716 13:31:52.827987 23176 net.cpp:455] conv_d3a-b -> d3b
I0716 13:31:52.832118 23176 net.cpp:190] Setting up conv_d3a-b
I0716 13:31:52.832130 23176 net.cpp:197] Top shape: 1 256 64 128 (2097152)
I0716 13:31:52.832134 23176 net.cpp:205] Memory required for data: 866123780
I0716 13:31:52.832140 23176 layer_factory.hpp:123] Creating layer relu_d3b
I0716 13:31:52.832145 23176 net.cpp:140] Creating Layer relu_d3b
I0716 13:31:52.832150 23176 net.cpp:481] relu_d3b <- d3b
I0716 13:31:52.832156 23176 net.cpp:455] relu_d3b -> relu_d3b
I0716 13:31:52.832178 23176 net.cpp:190] Setting up relu_d3b
I0716 13:31:52.832185 23176 net.cpp:197] Top shape: 1 256 64 128 (2097152)
I0716 13:31:52.832187 23176 net.cpp:205] Memory required for data: 874512388
I0716 13:31:52.832191 23176 layer_factory.hpp:123] Creating layer conv_d3b-c
I0716 13:31:52.832198 23176 net.cpp:140] Creating Layer conv_d3b-c
I0716 13:31:52.832201 23176 net.cpp:481] conv_d3b-c <- relu_d3b
I0716 13:31:52.832206 23176 net.cpp:455] conv_d3b-c -> d3c
I0716 13:31:52.838976 23176 net.cpp:190] Setting up conv_d3b-c
I0716 13:31:52.838989 23176 net.cpp:197] Top shape: 1 256 64 128 (2097152)
I0716 13:31:52.838992 23176 net.cpp:205] Memory required for data: 882900996
I0716 13:31:52.838999 23176 layer_factory.hpp:123] Creating layer d3c_conv_d3b-c_0_split
I0716 13:31:52.839004 23176 net.cpp:140] Creating Layer d3c_conv_d3b-c_0_split
I0716 13:31:52.839010 23176 net.cpp:481] d3c_conv_d3b-c_0_split <- d3c
I0716 13:31:52.839015 23176 net.cpp:455] d3c_conv_d3b-c_0_split -> d3c_conv_d3b-c_0_split_0
I0716 13:31:52.839022 23176 net.cpp:455] d3c_conv_d3b-c_0_split -> d3c_conv_d3b-c_0_split_1
I0716 13:31:52.839056 23176 net.cpp:190] Setting up d3c_conv_d3b-c_0_split
I0716 13:31:52.839062 23176 net.cpp:197] Top shape: 1 256 64 128 (2097152)
I0716 13:31:52.839066 23176 net.cpp:197] Top shape: 1 256 64 128 (2097152)
I0716 13:31:52.839068 23176 net.cpp:205] Memory required for data: 899678212
I0716 13:31:52.839072 23176 layer_factory.hpp:123] Creating layer BatchNorm_1
I0716 13:31:52.839079 23176 net.cpp:140] Creating Layer BatchNorm_1
I0716 13:31:52.839082 23176 net.cpp:481] BatchNorm_1 <- d3c_conv_d3b-c_0_split_0
I0716 13:31:52.839087 23176 net.cpp:455] BatchNorm_1 -> BatchNorm_1
I0716 13:31:52.839614 23176 net.cpp:190] Setting up BatchNorm_1
I0716 13:31:52.839622 23176 net.cpp:197] Top shape: 1 256 64 128 (2097152)
I0716 13:31:52.839625 23176 net.cpp:205] Memory required for data: 908066820
I0716 13:31:52.839637 23176 layer_factory.hpp:123] Creating layer relu_d3c
I0716 13:31:52.839644 23176 net.cpp:140] Creating Layer relu_d3c
I0716 13:31:52.839648 23176 net.cpp:481] relu_d3c <- BatchNorm_1
I0716 13:31:52.839653 23176 net.cpp:455] relu_d3c -> relu_d3c
I0716 13:31:52.839674 23176 net.cpp:190] Setting up relu_d3c
I0716 13:31:52.839680 23176 net.cpp:197] Top shape: 1 256 64 128 (2097152)
I0716 13:31:52.839684 23176 net.cpp:205] Memory required for data: 916455428
I0716 13:31:52.839686 23176 layer_factory.hpp:123] Creating layer pool_d3c-4a
I0716 13:31:52.839692 23176 net.cpp:140] Creating Layer pool_d3c-4a
I0716 13:31:52.839695 23176 net.cpp:481] pool_d3c-4a <- relu_d3c
I0716 13:31:52.839700 23176 net.cpp:455] pool_d3c-4a -> d4a
I0716 13:31:52.839730 23176 net.cpp:190] Setting up pool_d3c-4a
I0716 13:31:52.839735 23176 net.cpp:197] Top shape: 1 256 32 64 (524288)
I0716 13:31:52.839738 23176 net.cpp:205] Memory required for data: 918552580
I0716 13:31:52.839740 23176 layer_factory.hpp:123] Creating layer conv_d4a-b
I0716 13:31:52.839748 23176 net.cpp:140] Creating Layer conv_d4a-b
I0716 13:31:52.839751 23176 net.cpp:481] conv_d4a-b <- d4a
I0716 13:31:52.839761 23176 net.cpp:455] conv_d4a-b -> d4b
I0716 13:31:52.853404 23176 net.cpp:190] Setting up conv_d4a-b
I0716 13:31:52.853418 23176 net.cpp:197] Top shape: 1 512 32 64 (1048576)
I0716 13:31:52.853421 23176 net.cpp:205] Memory required for data: 922746884
I0716 13:31:52.853430 23176 layer_factory.hpp:123] Creating layer BatchNorm_2
I0716 13:31:52.853437 23176 net.cpp:140] Creating Layer BatchNorm_2
I0716 13:31:52.853441 23176 net.cpp:481] BatchNorm_2 <- d4b
I0716 13:31:52.853447 23176 net.cpp:455] BatchNorm_2 -> BatchNorm_2
I0716 13:31:52.853978 23176 net.cpp:190] Setting up BatchNorm_2
I0716 13:31:52.853987 23176 net.cpp:197] Top shape: 1 512 32 64 (1048576)
I0716 13:31:52.853991 23176 net.cpp:205] Memory required for data: 926941188
I0716 13:31:52.853998 23176 layer_factory.hpp:123] Creating layer relu_d4b
I0716 13:31:52.854005 23176 net.cpp:140] Creating Layer relu_d4b
I0716 13:31:52.854009 23176 net.cpp:481] relu_d4b <- BatchNorm_2
I0716 13:31:52.854013 23176 net.cpp:455] relu_d4b -> relu_d4b
I0716 13:31:52.854034 23176 net.cpp:190] Setting up relu_d4b
I0716 13:31:52.854040 23176 net.cpp:197] Top shape: 1 512 32 64 (1048576)
I0716 13:31:52.854043 23176 net.cpp:205] Memory required for data: 931135492
I0716 13:31:52.854046 23176 layer_factory.hpp:123] Creating layer conv_d4b-c
I0716 13:31:52.854055 23176 net.cpp:140] Creating Layer conv_d4b-c
I0716 13:31:52.854059 23176 net.cpp:481] conv_d4b-c <- relu_d4b
I0716 13:31:52.854064 23176 net.cpp:455] conv_d4b-c -> d4c
I0716 13:31:52.879613 23176 net.cpp:190] Setting up conv_d4b-c
I0716 13:31:52.879635 23176 net.cpp:197] Top shape: 1 512 32 64 (1048576)
I0716 13:31:52.879639 23176 net.cpp:205] Memory required for data: 935329796
I0716 13:31:52.879647 23176 layer_factory.hpp:123] Creating layer relu_d4c
I0716 13:31:52.879657 23176 net.cpp:140] Creating Layer relu_d4c
I0716 13:31:52.879662 23176 net.cpp:481] relu_d4c <- d4c
I0716 13:31:52.879669 23176 net.cpp:455] relu_d4c -> relu_d4c
I0716 13:31:52.879695 23176 net.cpp:190] Setting up relu_d4c
I0716 13:31:52.879703 23176 net.cpp:197] Top shape: 1 512 32 64 (1048576)
I0716 13:31:52.879705 23176 net.cpp:205] Memory required for data: 939524100
I0716 13:31:52.879709 23176 layer_factory.hpp:123] Creating layer upconv_d4c_u3a
I0716 13:31:52.879716 23176 net.cpp:140] Creating Layer upconv_d4c_u3a
I0716 13:31:52.879719 23176 net.cpp:481] upconv_d4c_u3a <- relu_d4c
I0716 13:31:52.879724 23176 net.cpp:455] upconv_d4c_u3a -> u3a
I0716 13:31:52.886003 23176 net.cpp:190] Setting up upconv_d4c_u3a
I0716 13:31:52.886020 23176 net.cpp:197] Top shape: 1 256 64 128 (2097152)
I0716 13:31:52.886023 23176 net.cpp:205] Memory required for data: 947912708
I0716 13:31:52.886030 23176 layer_factory.hpp:123] Creating layer relu_u3a
I0716 13:31:52.886037 23176 net.cpp:140] Creating Layer relu_u3a
I0716 13:31:52.886041 23176 net.cpp:481] relu_u3a <- u3a
I0716 13:31:52.886046 23176 net.cpp:442] relu_u3a -> u3a (in-place)
I0716 13:31:52.886054 23176 net.cpp:190] Setting up relu_u3a
I0716 13:31:52.886059 23176 net.cpp:197] Top shape: 1 256 64 128 (2097152)
I0716 13:31:52.886061 23176 net.cpp:205] Memory required for data: 956301316
I0716 13:31:52.886063 23176 layer_factory.hpp:123] Creating layer concat_d3cc_u3a-b
I0716 13:31:52.886070 23176 net.cpp:140] Creating Layer concat_d3cc_u3a-b
I0716 13:31:52.886072 23176 net.cpp:481] concat_d3cc_u3a-b <- u3a
I0716 13:31:52.886076 23176 net.cpp:481] concat_d3cc_u3a-b <- d3c_conv_d3b-c_0_split_1
I0716 13:31:52.886081 23176 net.cpp:455] concat_d3cc_u3a-b -> u3b
I0716 13:31:52.886106 23176 net.cpp:190] Setting up concat_d3cc_u3a-b
I0716 13:31:52.886111 23176 net.cpp:197] Top shape: 1 512 64 128 (4194304)
I0716 13:31:52.886114 23176 net.cpp:205] Memory required for data: 973078532
I0716 13:31:52.886117 23176 layer_factory.hpp:123] Creating layer conv_u3b-c
I0716 13:31:52.886126 23176 net.cpp:140] Creating Layer conv_u3b-c
I0716 13:31:52.886128 23176 net.cpp:481] conv_u3b-c <- u3b
I0716 13:31:52.886133 23176 net.cpp:455] conv_u3b-c -> u3c
I0716 13:31:52.900099 23176 net.cpp:190] Setting up conv_u3b-c
I0716 13:31:52.900120 23176 net.cpp:197] Top shape: 1 256 64 128 (2097152)
I0716 13:31:52.900123 23176 net.cpp:205] Memory required for data: 981467140
I0716 13:31:52.900131 23176 layer_factory.hpp:123] Creating layer relu_u3c
I0716 13:31:52.900140 23176 net.cpp:140] Creating Layer relu_u3c
I0716 13:31:52.900144 23176 net.cpp:481] relu_u3c <- u3c
I0716 13:31:52.900151 23176 net.cpp:442] relu_u3c -> u3c (in-place)
I0716 13:31:52.900159 23176 net.cpp:190] Setting up relu_u3c
I0716 13:31:52.900166 23176 net.cpp:197] Top shape: 1 256 64 128 (2097152)
I0716 13:31:52.900168 23176 net.cpp:205] Memory required for data: 989855748
I0716 13:31:52.900171 23176 layer_factory.hpp:123] Creating layer conv_u3c-d
I0716 13:31:52.900179 23176 net.cpp:140] Creating Layer conv_u3c-d
I0716 13:31:52.900183 23176 net.cpp:481] conv_u3c-d <- u3c
I0716 13:31:52.900189 23176 net.cpp:455] conv_u3c-d -> u3d
I0716 13:31:52.907169 23176 net.cpp:190] Setting up conv_u3c-d
I0716 13:31:52.907186 23176 net.cpp:197] Top shape: 1 256 64 128 (2097152)
I0716 13:31:52.907191 23176 net.cpp:205] Memory required for data: 998244356
I0716 13:31:52.907197 23176 layer_factory.hpp:123] Creating layer relu_u3d
I0716 13:31:52.907205 23176 net.cpp:140] Creating Layer relu_u3d
I0716 13:31:52.907209 23176 net.cpp:481] relu_u3d <- u3d
I0716 13:31:52.907214 23176 net.cpp:442] relu_u3d -> u3d (in-place)
I0716 13:31:52.907222 23176 net.cpp:190] Setting up relu_u3d
I0716 13:31:52.907227 23176 net.cpp:197] Top shape: 1 256 64 128 (2097152)
I0716 13:31:52.907230 23176 net.cpp:205] Memory required for data: 1006632964
I0716 13:31:52.907233 23176 layer_factory.hpp:123] Creating layer upconv_u3d_u2a
I0716 13:31:52.907240 23176 net.cpp:140] Creating Layer upconv_u3d_u2a
I0716 13:31:52.907243 23176 net.cpp:481] upconv_u3d_u2a <- u3d
I0716 13:31:52.907248 23176 net.cpp:455] upconv_u3d_u2a -> u2a
I0716 13:31:52.908653 23176 net.cpp:190] Setting up upconv_u3d_u2a
I0716 13:31:52.908663 23176 net.cpp:197] Top shape: 1 128 128 256 (4194304)
I0716 13:31:52.908665 23176 net.cpp:205] Memory required for data: 1023410180
I0716 13:31:52.908671 23176 layer_factory.hpp:123] Creating layer relu_u2a
I0716 13:31:52.908675 23176 net.cpp:140] Creating Layer relu_u2a
I0716 13:31:52.908679 23176 net.cpp:481] relu_u2a <- u2a
I0716 13:31:52.908684 23176 net.cpp:442] relu_u2a -> u2a (in-place)
I0716 13:31:52.908689 23176 net.cpp:190] Setting up relu_u2a
I0716 13:31:52.908694 23176 net.cpp:197] Top shape: 1 128 128 256 (4194304)
I0716 13:31:52.908696 23176 net.cpp:205] Memory required for data: 1040187396
I0716 13:31:52.908699 23176 layer_factory.hpp:123] Creating layer concat_d2cc_u2a-b
I0716 13:31:52.908704 23176 net.cpp:140] Creating Layer concat_d2cc_u2a-b
I0716 13:31:52.908707 23176 net.cpp:481] concat_d2cc_u2a-b <- u2a
I0716 13:31:52.908711 23176 net.cpp:481] concat_d2cc_u2a-b <- d2c_conv_d2b-c_0_split_1
I0716 13:31:52.908716 23176 net.cpp:455] concat_d2cc_u2a-b -> u2b
I0716 13:31:52.908740 23176 net.cpp:190] Setting up concat_d2cc_u2a-b
I0716 13:31:52.908746 23176 net.cpp:197] Top shape: 1 256 128 256 (8388608)
I0716 13:31:52.908748 23176 net.cpp:205] Memory required for data: 1073741828
I0716 13:31:52.908752 23176 layer_factory.hpp:123] Creating layer conv_u2b-c
I0716 13:31:52.908761 23176 net.cpp:140] Creating Layer conv_u2b-c
I0716 13:31:52.908763 23176 net.cpp:481] conv_u2b-c <- u2b
I0716 13:31:52.908768 23176 net.cpp:455] conv_u2b-c -> u2c
I0716 13:31:52.915441 23176 net.cpp:190] Setting up conv_u2b-c
I0716 13:31:52.915454 23176 net.cpp:197] Top shape: 1 128 128 256 (4194304)
I0716 13:31:52.915457 23176 net.cpp:205] Memory required for data: 1090519044
I0716 13:31:52.915463 23176 layer_factory.hpp:123] Creating layer relu_u2c
I0716 13:31:52.915469 23176 net.cpp:140] Creating Layer relu_u2c
I0716 13:31:52.915473 23176 net.cpp:481] relu_u2c <- u2c
I0716 13:31:52.915477 23176 net.cpp:442] relu_u2c -> u2c (in-place)
I0716 13:31:52.915484 23176 net.cpp:190] Setting up relu_u2c
I0716 13:31:52.915488 23176 net.cpp:197] Top shape: 1 128 128 256 (4194304)
I0716 13:31:52.915491 23176 net.cpp:205] Memory required for data: 1107296260
I0716 13:31:52.915494 23176 layer_factory.hpp:123] Creating layer conv_u2c-d
I0716 13:31:52.915503 23176 net.cpp:140] Creating Layer conv_u2c-d
I0716 13:31:52.915505 23176 net.cpp:481] conv_u2c-d <- u2c
I0716 13:31:52.915509 23176 net.cpp:455] conv_u2c-d -> u2d
I0716 13:31:52.917024 23176 net.cpp:190] Setting up conv_u2c-d
I0716 13:31:52.917033 23176 net.cpp:197] Top shape: 1 128 128 256 (4194304)
I0716 13:31:52.917037 23176 net.cpp:205] Memory required for data: 1124073476
I0716 13:31:52.917042 23176 layer_factory.hpp:123] Creating layer relu_u2d
I0716 13:31:52.917047 23176 net.cpp:140] Creating Layer relu_u2d
I0716 13:31:52.917050 23176 net.cpp:481] relu_u2d <- u2d
I0716 13:31:52.917055 23176 net.cpp:442] relu_u2d -> u2d (in-place)
I0716 13:31:52.917060 23176 net.cpp:190] Setting up relu_u2d
I0716 13:31:52.917064 23176 net.cpp:197] Top shape: 1 128 128 256 (4194304)
I0716 13:31:52.917068 23176 net.cpp:205] Memory required for data: 1140850692
I0716 13:31:52.917071 23176 layer_factory.hpp:123] Creating layer upconv_u2d_u1a
I0716 13:31:52.917078 23176 net.cpp:140] Creating Layer upconv_u2d_u1a
I0716 13:31:52.917080 23176 net.cpp:481] upconv_u2d_u1a <- u2d
I0716 13:31:52.917085 23176 net.cpp:455] upconv_u2d_u1a -> u1a
I0716 13:31:52.917680 23176 net.cpp:190] Setting up upconv_u2d_u1a
I0716 13:31:52.917687 23176 net.cpp:197] Top shape: 1 64 256 512 (8388608)
I0716 13:31:52.917690 23176 net.cpp:205] Memory required for data: 1174405124
I0716 13:31:52.917695 23176 layer_factory.hpp:123] Creating layer relu_u1a
I0716 13:31:52.917701 23176 net.cpp:140] Creating Layer relu_u1a
I0716 13:31:52.917704 23176 net.cpp:481] relu_u1a <- u1a
I0716 13:31:52.917708 23176 net.cpp:442] relu_u1a -> u1a (in-place)
I0716 13:31:52.917714 23176 net.cpp:190] Setting up relu_u1a
I0716 13:31:52.917718 23176 net.cpp:197] Top shape: 1 64 256 512 (8388608)
I0716 13:31:52.917721 23176 net.cpp:205] Memory required for data: 1207959556
I0716 13:31:52.917724 23176 layer_factory.hpp:123] Creating layer concat_d1cc_u1a-b
I0716 13:31:52.917729 23176 net.cpp:140] Creating Layer concat_d1cc_u1a-b
I0716 13:31:52.917732 23176 net.cpp:481] concat_d1cc_u1a-b <- u1a
I0716 13:31:52.917737 23176 net.cpp:481] concat_d1cc_u1a-b <- d1c_conv_d1b-c_0_split_1
I0716 13:31:52.917742 23176 net.cpp:455] concat_d1cc_u1a-b -> u1b
I0716 13:31:52.917764 23176 net.cpp:190] Setting up concat_d1cc_u1a-b
I0716 13:31:52.917770 23176 net.cpp:197] Top shape: 1 128 256 512 (16777216)
I0716 13:31:52.917773 23176 net.cpp:205] Memory required for data: 1275068420
I0716 13:31:52.917776 23176 layer_factory.hpp:123] Creating layer conv_u1b-c
I0716 13:31:52.917783 23176 net.cpp:140] Creating Layer conv_u1b-c
I0716 13:31:52.917788 23176 net.cpp:481] conv_u1b-c <- u1b
I0716 13:31:52.917791 23176 net.cpp:455] conv_u1b-c -> u1c
I0716 13:31:52.919399 23176 net.cpp:190] Setting up conv_u1b-c
I0716 13:31:52.919410 23176 net.cpp:197] Top shape: 1 64 256 512 (8388608)
I0716 13:31:52.919414 23176 net.cpp:205] Memory required for data: 1308622852
I0716 13:31:52.919420 23176 layer_factory.hpp:123] Creating layer relu_u1c
I0716 13:31:52.919425 23176 net.cpp:140] Creating Layer relu_u1c
I0716 13:31:52.919430 23176 net.cpp:481] relu_u1c <- u1c
I0716 13:31:52.919435 23176 net.cpp:442] relu_u1c -> u1c (in-place)
I0716 13:31:52.919441 23176 net.cpp:190] Setting up relu_u1c
I0716 13:31:52.919445 23176 net.cpp:197] Top shape: 1 64 256 512 (8388608)
I0716 13:31:52.919448 23176 net.cpp:205] Memory required for data: 1342177284
I0716 13:31:52.919451 23176 layer_factory.hpp:123] Creating layer conv_u1c-d
I0716 13:31:52.919458 23176 net.cpp:140] Creating Layer conv_u1c-d
I0716 13:31:52.919461 23176 net.cpp:481] conv_u1c-d <- u1c
I0716 13:31:52.919466 23176 net.cpp:455] conv_u1c-d -> u1d
I0716 13:31:52.920101 23176 net.cpp:190] Setting up conv_u1c-d
I0716 13:31:52.920110 23176 net.cpp:197] Top shape: 1 64 256 512 (8388608)
I0716 13:31:52.920114 23176 net.cpp:205] Memory required for data: 1375731716
I0716 13:31:52.920120 23176 layer_factory.hpp:123] Creating layer relu_u1d
I0716 13:31:52.920125 23176 net.cpp:140] Creating Layer relu_u1d
I0716 13:31:52.920127 23176 net.cpp:481] relu_u1d <- u1d
I0716 13:31:52.920132 23176 net.cpp:442] relu_u1d -> u1d (in-place)
I0716 13:31:52.920138 23176 net.cpp:190] Setting up relu_u1d
I0716 13:31:52.920142 23176 net.cpp:197] Top shape: 1 64 256 512 (8388608)
I0716 13:31:52.920145 23176 net.cpp:205] Memory required for data: 1409286148
I0716 13:31:52.920147 23176 layer_factory.hpp:123] Creating layer upconv_u1d_u0a_NEW
I0716 13:31:52.920155 23176 net.cpp:140] Creating Layer upconv_u1d_u0a_NEW
I0716 13:31:52.920157 23176 net.cpp:481] upconv_u1d_u0a_NEW <- u1d
I0716 13:31:52.920162 23176 net.cpp:455] upconv_u1d_u0a_NEW -> u0a
I0716 13:31:52.921383 23176 net.cpp:190] Setting up upconv_u1d_u0a_NEW
I0716 13:31:52.921396 23176 net.cpp:197] Top shape: 1 32 512 1024 (16777216)
I0716 13:31:52.921398 23176 net.cpp:205] Memory required for data: 1476395012
I0716 13:31:52.921411 23176 layer_factory.hpp:123] Creating layer relu_u0a
I0716 13:31:52.921418 23176 net.cpp:140] Creating Layer relu_u0a
I0716 13:31:52.921422 23176 net.cpp:481] relu_u0a <- u0a
I0716 13:31:52.921427 23176 net.cpp:442] relu_u0a -> u0a (in-place)
I0716 13:31:52.921434 23176 net.cpp:190] Setting up relu_u0a
I0716 13:31:52.921438 23176 net.cpp:197] Top shape: 1 32 512 1024 (16777216)
I0716 13:31:52.921442 23176 net.cpp:205] Memory required for data: 1543503876
I0716 13:31:52.921444 23176 layer_factory.hpp:123] Creating layer concat_d0cc_u0a-b
I0716 13:31:52.921448 23176 net.cpp:140] Creating Layer concat_d0cc_u0a-b
I0716 13:31:52.921452 23176 net.cpp:481] concat_d0cc_u0a-b <- u0a
I0716 13:31:52.921455 23176 net.cpp:481] concat_d0cc_u0a-b <- d0c_conv_d0b-c_0_split_1
I0716 13:31:52.921460 23176 net.cpp:455] concat_d0cc_u0a-b -> u0b
I0716 13:31:52.921488 23176 net.cpp:190] Setting up concat_d0cc_u0a-b
I0716 13:31:52.921494 23176 net.cpp:197] Top shape: 1 64 512 1024 (33554432)
I0716 13:31:52.921497 23176 net.cpp:205] Memory required for data: 1677721604
I0716 13:31:52.921500 23176 layer_factory.hpp:123] Creating layer conv_u0b-c_New
I0716 13:31:52.921507 23176 net.cpp:140] Creating Layer conv_u0b-c_New
I0716 13:31:52.921510 23176 net.cpp:481] conv_u0b-c_New <- u0b
I0716 13:31:52.921515 23176 net.cpp:455] conv_u0b-c_New -> u0c
I0716 13:31:52.922849 23176 net.cpp:190] Setting up conv_u0b-c_New
I0716 13:31:52.922861 23176 net.cpp:197] Top shape: 1 32 512 1024 (16777216)
I0716 13:31:52.922864 23176 net.cpp:205] Memory required for data: 1744830468
I0716 13:31:52.922871 23176 layer_factory.hpp:123] Creating layer relu_u0c
I0716 13:31:52.922878 23176 net.cpp:140] Creating Layer relu_u0c
I0716 13:31:52.922880 23176 net.cpp:481] relu_u0c <- u0c
I0716 13:31:52.922885 23176 net.cpp:442] relu_u0c -> u0c (in-place)
I0716 13:31:52.922893 23176 net.cpp:190] Setting up relu_u0c
I0716 13:31:52.922899 23176 net.cpp:197] Top shape: 1 32 512 1024 (16777216)
I0716 13:31:52.922901 23176 net.cpp:205] Memory required for data: 1811939332
I0716 13:31:52.922904 23176 layer_factory.hpp:123] Creating layer conv_u0c-d_New
I0716 13:31:52.922912 23176 net.cpp:140] Creating Layer conv_u0c-d_New
I0716 13:31:52.922915 23176 net.cpp:481] conv_u0c-d_New <- u0c
I0716 13:31:52.922920 23176 net.cpp:455] conv_u0c-d_New -> u0d
I0716 13:31:52.924190 23176 net.cpp:190] Setting up conv_u0c-d_New
I0716 13:31:52.924201 23176 net.cpp:197] Top shape: 1 32 512 1024 (16777216)
I0716 13:31:52.924206 23176 net.cpp:205] Memory required for data: 1879048196
I0716 13:31:52.924211 23176 layer_factory.hpp:123] Creating layer relu_u0d
I0716 13:31:52.924216 23176 net.cpp:140] Creating Layer relu_u0d
I0716 13:31:52.924221 23176 net.cpp:481] relu_u0d <- u0d
I0716 13:31:52.924226 23176 net.cpp:442] relu_u0d -> u0d (in-place)
I0716 13:31:52.924232 23176 net.cpp:190] Setting up relu_u0d
I0716 13:31:52.924235 23176 net.cpp:197] Top shape: 1 32 512 1024 (16777216)
I0716 13:31:52.924238 23176 net.cpp:205] Memory required for data: 1946157060
I0716 13:31:52.924242 23176 layer_factory.hpp:123] Creating layer conv_u0d-score_New
I0716 13:31:52.924248 23176 net.cpp:140] Creating Layer conv_u0d-score_New
I0716 13:31:52.924252 23176 net.cpp:481] conv_u0d-score_New <- u0d
I0716 13:31:52.924257 23176 net.cpp:455] conv_u0d-score_New -> conv_u0d-score_New
I0716 13:31:52.925433 23176 net.cpp:190] Setting up conv_u0d-score_New
I0716 13:31:52.925444 23176 net.cpp:197] Top shape: 1 19 512 1024 (9961472)
I0716 13:31:52.925447 23176 net.cpp:205] Memory required for data: 1986002948
I0716 13:31:52.925453 23176 layer_factory.hpp:123] Creating layer score
I0716 13:31:52.925460 23176 net.cpp:140] Creating Layer score
I0716 13:31:52.925464 23176 net.cpp:481] score <- conv_u0d-score_New
I0716 13:31:52.925469 23176 net.cpp:455] score -> score
I0716 13:31:52.925534 23176 net.cpp:190] Setting up score
I0716 13:31:52.925540 23176 net.cpp:197] Top shape: 1 19 512 1024 (9961472)
I0716 13:31:52.925544 23176 net.cpp:205] Memory required for data: 2025848836
I0716 13:31:52.925546 23176 net.cpp:268] score does not need backward computation.
I0716 13:31:52.925560 23176 net.cpp:268] conv_u0d-score_New does not need backward computation.
I0716 13:31:52.925563 23176 net.cpp:268] relu_u0d does not need backward computation.
I0716 13:31:52.925566 23176 net.cpp:268] conv_u0c-d_New does not need backward computation.
…
I0716 13:31:53.103669 23176 net.cpp:98] Initializing net from parameters: 
state {
  phase: TRAIN
}
layer {
  name: "data"
  type: "ImageData"
  top: "data"
  top: "label"
  include {
    phase: TRAIN
  }
  transform_param {
    scale: 0.022
    mean_value: 73
    mean_value: 82
    mean_value: 72
    resize_param {
      prob: 1
      resize_mode: WARP
      height: 512
      width: 1024
    }
  }
  image_data_param {
    source: "../data/cityscapes/calibration.txt"
    batch_size: 1
    shuffle: true
    new_height: 512
    new_width: 1024
    root_folder: "../data/cityscapes/calibration_images/"
  }
}
layer {
  name: "data_fixed"
  type: "FixedNeuron"
  bottom: "data"
  top: "data"
  param {
    lr_mult: 0
    decay_mult: 0
  }
  fixed_param {
    fixed_method: OVER_FLOW
    bit_width: 8
    follow_data_layer: true
  }
}
layer {
  name: "conv_d0a-b"
  type: "ConvolutionFixed"
  bottom: "data"
  top: "d0b"
  param {
    lr_mult: 1
    decay_mult: 1
  }
  param {
    lr_mult: 2
    decay_mult: 0
  }
  convolution_param {
    num_output: 32
    pad: 1
    kernel_size: 3
    stride: 1
    weight_filler {
      type: "msra"
    }
  }
  fixed_param {
    fixed_method: DIFF_S
    bit_width: 8
  }
}
layer {
  name: "relu_d0b"
  type: "ReLU"
  bottom: "d0b"
  top: "relu_d0b"
}
layer {
  name: "relu_d0b_fixed"
  type: "FixedNeuron"
  bottom: "relu_d0b"
  top: "relu_d0b"
  param {
    lr_mult: 0
    decay_mult: 0
  }
  fixed_param {
    fixed_method: DIFF_S
    bit_width: 8
  }
}
layer {
  name: "conv_d0b-c"
  type: "ConvolutionFixed"
  bottom: "relu_d0b"
  top: "d0c"
  param {
    lr_mult: 1
    decay_mult: 1
  }
  param {
    lr_mult: 2
    decay_mult: 0
  }
  convolution_param {
    num_output: 32
    pad: 1
    kernel_size: 3
    weight_filler {
      type: "msra"
    }
  }
  fixed_param {
    fixed_method: DIFF_S
    bit_width: 8
  }
}
layer {
  name: "d0c_fixed"
  type: "FixedNeuron"
  bottom: "d0c"
  top: "d0c"
  param {
    lr_mult: 0
    decay_mult: 0
  }
  fixed_param {
    fixed_method: DIFF_S
    bit_width: 8
  }
}
layer {
  name: "BatchNorm_d0c"
  type: "ScaleFixed"
  bottom: "d0c"
  top: "BatchNorm_d0c"
  param {
    lr_mult: 1
    decay_mult: 1
  }
  param {
    lr_mult: 1
    decay_mult: 0
  }
  scale_param {
    bias_term: true
  }
  fixed_param {
    fixed_method: DIFF_S
    bit_width: 8
  }
}
layer {
  name: "relu_d0c"
  type: "ReLU"
  bottom: "BatchNorm_d0c"
  top: "relu_d0c"
}
layer {
  name: "pool_d0c-1a"
  type: "Pooling"
  bottom: "relu_d0c"
  top: "d1a"
  pooling_param {
    pool: MAX
    kernel_size: 2
    stride: 2
  }
}
layer {
  name: "d1a_fixed"
  type: "FixedNeuron"
  bottom: "d1a"
  top: "d1a"
  param {
    lr_mult: 0
    decay_mult: 0
  }
  fixed_param {
    fixed_method: DIFF_S
    bit_width: 8
  }
}
layer {
  name: "conv_d1a-b"
  type: "ConvolutionFixed"
  bottom: "d1a"
  top: "d1b"
  param {
    lr_mult: 1
    decay_mult: 1
  }
  param {
    lr_mult: 2
    decay_mult: 0
  }
  convolution_param {
    num_output: 64
    pad: 1
    kernel_size: 3
    weight_filler {
      type: "msra"
    }
  }
  fixed_param {
    fixed_method: DIFF_S
    bit_width: 8
  }
}
layer {
  name: "relu_d1b"
  type: "ReLU"
  bottom: "d1b"
  top: "relu_d1b"
}
layer {
  name: "relu_d1b_fixed"
  type: "FixedNeuron"
  bottom: "relu_d1b"
  top: "relu_d1b"
  param {
    lr_mult: 0
    decay_mult: 0
  }
  fixed_param {
    fixed_method: DIFF_S
    bit_width: 8
  }
}
layer {
  name: "conv_d1b-c"
  type: "ConvolutionFixed"
  bottom: "relu_d1b"
  top: "d1c"
  param {
    lr_mult: 1
    decay_mult: 1
  }
  param {
    lr_mult: 2
    decay_mult: 0
  }
  convolution_param {
    num_output: 64
    pad: 1
    kernel_size: 3
    weight_filler {
      type: "msra"
    }
  }
  fixed_param {
    fixed_method: DIFF_S
    bit_width: 8
  }
}
layer {
  name: "d1c_fixed"
  type: "FixedNeuron"
  bottom: "d1c"
  top: "d1c"
  param {
    lr_mult: 0
    decay_mult: 0
  }
  fixed_param {
    fixed_method: DIFF_S
    bit_width: 8
  }
}
layer {
  name: "BatchNorm_d1c"
  type: "ScaleFixed"
  bottom: "d1c"
  top: "BatchNorm_d1c"
  param {
    lr_mult: 1
    decay_mult: 1
  }
  param {
    lr_mult: 1
    decay_mult: 0
  }
  scale_param {
    bias_term: true
  }
  fixed_param {
    fixed_method: DIFF_S
    bit_width: 8
  }
}
layer {
  name: "relu_d1c"
  type: "ReLU"
  bottom: "BatchNorm_d1c"
  top: "relu_d1c"
}
layer {
  name: "pool_d1c-2a"
  type: "Pooling"
  bottom: "relu_d1c"
  top: "d2a"
  pooling_param {
    pool: MAX
    kernel_size: 2
    stride: 2
  }
}
layer {
  name: "d2a_fixed"
  type: "FixedNeuron"
  bottom: "d2a"
  top: "d2a"
  param {
    lr_mult: 0
    decay_mult: 0
  }
  fixed_param {
    fixed_method: DIFF_S
    bit_width: 8
  }
}
layer {
  name: "conv_d2a-b"
  type: "ConvolutionFixed"
  bottom: "d2a"
  top: "d2b"
  param {
    lr_mult: 1
    decay_mult: 1
  }
  param {
    lr_mult: 2
    decay_mult: 0
  }
  convolution_param {
    num_output: 128
    pad: 1
    kernel_size: 3
    weight_filler {
      type: "msra"
    }
  }
  fixed_param {
    fixed_method: DIFF_S
    bit_width: 8
  }
}
layer {
  name: "relu_d2b"
  type: "ReLU"
  bottom: "d2b"
  top: "relu_d2b"
}
layer {
  name: "relu_d2b_fixed"
  type: "FixedNeuron"
  bottom: "relu_d2b"
  top: "relu_d2b"
  param {
    lr_mult: 0
    decay_mult: 0
  }
  fixed_param {
    fixed_method: DIFF_S
    bit_width: 8
  }
}
layer {
  name: "conv_d2b-c"
  type: "ConvolutionFixed"
  bottom: "relu_d2b"
  top: "d2c"
  param {
    lr_mult: 1
    decay_mult: 1
  }
  param {
    lr_mult: 2
    decay_mult: 0
  }
  convolution_param {
    num_output: 128
    pad: 1
    kernel_size: 3
    weight_filler {
      type: "msra"
    }
  }
  fixed_param {
    fixed_method: DIFF_S
    bit_width: 8
  }
}
layer {
  name: "d2c_fixed"
  type: "FixedNeuron"
  bottom: "d2c"
  top: "d2c"
  param {
    lr_mult: 0
    decay_mult: 0
  }
  fixed_param {
    fixed_method: DIFF_S
    bit_width: 8
  }
}
layer {
  name: "BatchNorm_d2c"
  type: "ScaleFixed"
  bottom: "d2c"
  top: "BatchNorm_d2c"
  param {
    lr_mult: 1
    decay_mult: 1
  }
  param {
    lr_mult: 1
    decay_mult: 0
  }
  scale_param {
    bias_term: true
  }
  fixed_param {
    fixed_method: DIFF_S
    bit_width: 8
  }
}
layer {
  name: "relu_d2c"
  type: "ReLU"
  bottom: "BatchNorm_d2c"
  top: "relu_d2c"
}
layer {
  name: "pool_d2c-3a"
  type: "Pooling"
  bottom: "relu_d2c"
  top: "d3a"
  pooling_param {
    pool: MAX
    kernel_size: 2
    stride: 2
  }
}
layer {
  name: "d3a_fixed"
  type: "FixedNeuron"
  bottom: "d3a"
  top: "d3a"
  param {
    lr_mult: 0
    decay_mult: 0
  }
  fixed_param {
    fixed_method: DIFF_S
    bit_width: 8
  }
}
layer {
  name: "conv_d3a-b"
  type: "ConvolutionFixed"
  bottom: "d3a"
  top: "d3b"
  param {
    lr_mult: 1
    decay_mult: 1
  }
  param {
    lr_mult: 2
    decay_mult: 0
  }
  convolution_param {
    num_output: 256
    pad: 1
    kernel_size: 3
    weight_filler {
      type: "msra"
    }
  }
  fixed_param {
    fixed_method: DIFF_S
    bit_width: 8
  }
}
layer {
  name: "relu_d3b"
  type: "ReLU"
  bottom: "d3b"
  top: "relu_d3b"
}
layer {
  name: "relu_d3b_fixed"
  type: "FixedNeuron"
  bottom: "relu_d3b"
  top: "relu_d3b"
  param {
    lr_mult: 0
    decay_mult: 0
  }
  fixed_param {
    fixed_method: DIFF_S
    bit_width: 8
  }
}
layer {
  name: "conv_d3b-c"
  type: "ConvolutionFixed"
  bottom: "relu_d3b"
  top: "d3c"
  param {
    lr_mult: 1
    decay_mult: 1
  }
  param {
    lr_mult: 2
    decay_mult: 0
  }
  convolution_param {
    num_output: 256
    pad: 1
    kernel_size: 3
    weight_filler {
      type: "msra"
    }
  }
  fixed_param {
    fixed_method: DIFF_S
    bit_width: 8
  }
}
layer {
  name: "d3c_fixed"
  type: "FixedNeuron"
  bottom: "d3c"
  top: "d3c"
  param {
    lr_mult: 0
    decay_mult: 0
  }
  fixed_param {
    fixed_method: DIFF_S
    bit_width: 8
  }
}
layer {
  name: "BatchNorm_1"
  type: "ScaleFixed"
  bottom: "d3c"
  top: "BatchNorm_1"
  param {
    lr_mult: 1
    decay_mult: 1
  }
  param {
    lr_mult: 1
    decay_mult: 0
  }
  scale_param {
    bias_term: true
  }
  fixed_param {
    fixed_method: DIFF_S
    bit_width: 8
  }
}
layer {
  name: "relu_d3c"
  type: "ReLU"
  bottom: "BatchNorm_1"
  top: "relu_d3c"
}
layer {
  name: "pool_d3c-4a"
  type: "Pooling"
  bottom: "relu_d3c"
  top: "d4a"
  pooling_param {
    pool: MAX
    kernel_size: 2
    stride: 2
  }
}
layer {
  name: "d4a_fixed"
  type: "FixedNeuron"
  bottom: "d4a"
  top: "d4a"
  param {
    lr_mult: 0
    decay_mult: 0
  }
  fixed_param {
    fixed_method: DIFF_S
    bit_width: 8
  }
}
layer {
  name: "conv_d4a-b"
  type: "ConvolutionFixed"
  bottom: "d4a"
  top: "BatchNorm_2"
  param {
    lr_mult: 1
    decay_mult: 1
  }
  param {
    lr_mult: 1
    decay_mult: 0
  }
  convolution_param {
    num_output: 512
    bias_term: true
    pad: 1
    kernel_size: 3
    weight_filler {
      type: "msra"
    }
  }
  fixed_param {
    fixed_method: DIFF_S
    bit_width: 8
  }
}
layer {
  name: "relu_d4b"
  type: "ReLU"
  bottom: "BatchNorm_2"
  top: "relu_d4b"
}
layer {
  name: "relu_d4b_fixed"
  type: "FixedNeuron"
  bottom: "relu_d4b"
  top: "relu_d4b"
  param {
    lr_mult: 0
    decay_mult: 0
  }
  fixed_param {
    fixed_method: DIFF_S
    bit_width: 8
  }
}
layer {
  name: "conv_d4b-c"
  type: "ConvolutionFixed"
  bottom: "relu_d4b"
  top: "d4c"
  param {
    lr_mult: 1
    decay_mult: 1
  }
  param {
    lr_mult: 2
    decay_mult: 0
  }
  convolution_param {
    num_output: 512
    pad: 1
    kernel_size: 3
    weight_filler {
      type: "msra"
    }
  }
  fixed_param {
    fixed_method: DIFF_S
    bit_width: 8
  }
}
layer {
  name: "relu_d4c"
  type: "ReLU"
  bottom: "d4c"
  top: "relu_d4c"
}
layer {
  name: "relu_d4c_fixed"
  type: "FixedNeuron"
  bottom: "relu_d4c"
  top: "relu_d4c"
  param {
    lr_mult: 0
    decay_mult: 0
  }
  fixed_param {
    fixed_method: DIFF_S
    bit_width: 8
  }
}
layer {
  name: "upconv_d4c_u3a"
  type: "DeconvolutionFixed"
  bottom: "relu_d4c"
  top: "u3a"
  param {
    lr_mult: 1
    decay_mult: 1
  }
  param {
    lr_mult: 2
    decay_mult: 0
  }
  convolution_param {
    num_output: 256
    pad: 0
    kernel_size: 2
    stride: 2
    weight_filler {
      type: "msra"
    }
  }
  fixed_param {
    fixed_method: DIFF_S
    bit_width: 8
  }
}
layer {
  name: "relu_u3a"
  type: "ReLU"
  bottom: "u3a"
  top: "u3a"
}
layer {
  name: "concat_d3cc_u3a-b"
  type: "Concat"
  bottom: "u3a"
  bottom: "d3c"
  top: "u3b"
}
layer {
  name: "u3b_fixed"
  type: "FixedNeuron"
  bottom: "u3b"
  top: "u3b"
  param {
    lr_mult: 0
    decay_mult: 0
  }
  fixed_param {
    fixed_method: DIFF_S
    bit_width: 8
  }
}
layer {
  name: "conv_u3b-c"
  type: "ConvolutionFixed"
  bottom: "u3b"
  top: "u3c"
  param {
    lr_mult: 1
    decay_mult: 1
  }
  param {
    lr_mult: 2
    decay_mult: 0
  }
  convolution_param {
    num_output: 256
    pad: 1
    kernel_size: 3
    weight_filler {
      type: "msra"
    }
  }
  fixed_param {
    fixed_method: DIFF_S
    bit_width: 8
  }
}
layer {
  name: "relu_u3c"
  type: "ReLU"
  bottom: "u3c"
  top: "u3c"
}
layer {
  name: "u3c_fixed"
  type: "FixedNeuron"
  bottom: "u3c"
  top: "u3c"
  param {
    lr_mult: 0
    decay_mult: 0
  }
  fixed_param {
    fixed_method: DIFF_S
    bit_width: 8
  }
}
layer {
  name: "conv_u3c-d"
  type: "ConvolutionFixed"
  bottom: "u3c"
  top: "u3d"
  param {
    lr_mult: 1
    decay_mult: 1
  }
  param {
    lr_mult: 2
    decay_mult: 0
  }
  convolution_param {
    num_output: 256
    pad: 1
    kernel_size: 3
    weight_filler {
      type: "msra"
    }
  }
  fixed_param {
    fixed_method: DIFF_S
    bit_width: 8
  }
}
layer {
  name: "relu_u3d"
  type: "ReLU"
  bottom: "u3d"
  top: "u3d"
}
layer {
  name: "u3d_fixed"
  type: "FixedNeuron"
  bottom: "u3d"
  top: "u3d"
  param {
    lr_mult: 0
    decay_mult: 0
  }
  fixed_param {
    fixed_method: DIFF_S
    bit_width: 8
  }
}
layer {
  name: "upconv_u3d_u2a"
  type: "DeconvolutionFixed"
  bottom: "u3d"
  top: "u2a"
  param {
    lr_mult: 1
    decay_mult: 1
  }
  param {
    lr_mult: 2
    decay_mult: 0
  }
  convolution_param {
    num_output: 128
    pad: 0
    kernel_size: 2
    stride: 2
    weight_filler {
      type: "msra"
    }
  }
  fixed_param {
    fixed_method: DIFF_S
    bit_width: 8
  }
}
layer {
  name: "relu_u2a"
  type: "ReLU"
  bottom: "u2a"
  top: "u2a"
}
layer {
  name: "concat_d2cc_u2a-b"
  type: "Concat"
  bottom: "u2a"
  bottom: "d2c"
  top: "u2b"
}
layer {
  name: "u2b_fixed"
  type: "FixedNeuron"
  bottom: "u2b"
  top: "u2b"
  param {
    lr_mult: 0
    decay_mult: 0
  }
  fixed_param {
    fixed_method: DIFF_S
    bit_width: 8
  }
}
layer {
  name: "conv_u2b-c"
  type: "ConvolutionFixed"
  bottom: "u2b"
  top: "u2c"
  param {
    lr_mult: 1
    decay_mult: 1
  }
  param {
    lr_mult: 2
    decay_mult: 0
  }
  convolution_param {
    num_output: 128
    pad: 1
    kernel_size: 3
    weight_filler {
      type: "msra"
    }
  }
  fixed_param {
    fixed_method: DIFF_S
    bit_width: 8
  }
}
layer {
  name: "relu_u2c"
  type: "ReLU"
  bottom: "u2c"
  top: "u2c"
}
layer {
  name: "u2c_fixed"
  type: "FixedNeuron"
  bottom: "u2c"
  top: "u2c"
  param {
    lr_mult: 0
    decay_mult: 0
  }
  fixed_param {
    fixed_method: DIFF_S
    bit_width: 8
  }
}
layer {
  name: "conv_u2c-d"
  type: "ConvolutionFixed"
  bottom: "u2c"
  top: "u2d"
  param {
    lr_mult: 1
    decay_mult: 1
  }
  param {
    lr_mult: 2
    decay_mult: 0
  }
  convolution_param {
    num_output: 128
    pad: 1
    kernel_size: 3
    weight_filler {
      type: "msra"
    }
  }
  fixed_param {
    fixed_method: DIFF_S
    bit_width: 8
  }
}
layer {
  name: "relu_u2d"
  type: "ReLU"
  bottom: "u2d"
  top: "u2d"
}
layer {
  name: "u2d_fixed"
  type: "FixedNeuron"
  bottom: "u2d"
  top: "u2d"
  param {
    lr_mult: 0
    decay_mult: 0
  }
  fixed_param {
    fixed_method: DIFF_S
    bit_width: 8
  }
}
layer {
  name: "upconv_u2d_u1a"
  type: "DeconvolutionFixed"
  bottom: "u2d"
  top: "u1a"
  param {
    lr_mult: 1
    decay_mult: 1
  }
  param {
    lr_mult: 2
    decay_mult: 0
  }
  convolution_param {
    num_output: 64
    pad: 0
    kernel_size: 2
    stride: 2
    weight_filler {
      type: "msra"
    }
  }
  fixed_param {
    fixed_method: DIFF_S
    bit_width: 8
  }
}
layer {
  name: "relu_u1a"
  type: "ReLU"
  bottom: "u1a"
  top: "u1a"
}
layer {
  name: "concat_d1cc_u1a-b"
  type: "Concat"
  bottom: "u1a"
  bottom: "d1c"
  top: "u1b"
}
layer {
  name: "u1b_fixed"
  type: "FixedNeuron"
  bottom: "u1b"
  top: "u1b"
  param {
    lr_mult: 0
    decay_mult: 0
  }
  fixed_param {
    fixed_method: DIFF_S
    bit_width: 8
  }
}
layer {
  name: "conv_u1b-c"
  type: "ConvolutionFixed"
  bottom: "u1b"
  top: "u1c"
  param {
    lr_mult: 1
    decay_mult: 1
  }
  param {
    lr_mult: 2
    decay_mult: 0
  }
  convolution_param {
    num_output: 64
    pad: 1
    kernel_size: 3
    weight_filler {
      type: "msra"
    }
  }
  fixed_param {
    fixed_method: DIFF_S
    bit_width: 8
  }
}
layer {
  name: "relu_u1c"
  type: "ReLU"
  bottom: "u1c"
  top: "u1c"
}
layer {
  name: "u1c_fixed"
  type: "FixedNeuron"
  bottom: "u1c"
  top: "u1c"
  param {
    lr_mult: 0
    decay_mult: 0
  }
  fixed_param {
    fixed_method: DIFF_S
    bit_width: 8
  }
}
layer {
  name: "conv_u1c-d"
  type: "ConvolutionFixed"
  bottom: "u1c"
  top: "u1d"
  param {
    lr_mult: 1
    decay_mult: 1
  }
  param {
    lr_mult: 2
    decay_mult: 0
  }
  convolution_param {
    num_output: 64
    pad: 1
    kernel_size: 3
    weight_filler {
      type: "msra"
    }
  }
  fixed_param {
    fixed_method: DIFF_S
    bit_width: 8
  }
}
layer {
  name: "relu_u1d"
  type: "ReLU"
  bottom: "u1d"
  top: "u1d"
}
layer {
  name: "u1d_fixed"
  type: "FixedNeuron"
  bottom: "u1d"
  top: "u1d"
  param {
    lr_mult: 0
    decay_mult: 0
  }
  fixed_param {
    fixed_method: DIFF_S
    bit_width: 8
  }
}
layer {
  name: "upconv_u1d_u0a_NEW"
  type: "DeconvolutionFixed"
  bottom: "u1d"
  top: "u0a"
  param {
    lr_mult: 1
    decay_mult: 1
  }
  param {
    lr_mult: 2
    decay_mult: 0
  }
  convolution_param {
    num_output: 32
    pad: 0
    kernel_size: 2
    stride: 2
    weight_filler {
      type: "msra"
    }
  }
  fixed_param {
    fixed_method: DIFF_S
    bit_width: 8
  }
}
layer {
  name: "relu_u0a"
  type: "ReLU"
  bottom: "u0a"
  top: "u0a"
}
layer {
  name: "concat_d0cc_u0a-b"
  type: "Concat"
  bottom: "u0a"
  bottom: "d0c"
  top: "u0b"
}
layer {
  name: "u0b_fixed"
  type: "FixedNeuron"
  bottom: "u0b"
  top: "u0b"
  param {
    lr_mult: 0
    decay_mult: 0
  }
  fixed_param {
    fixed_method: DIFF_S
    bit_width: 8
  }
}
layer {
  name: "conv_u0b-c_New"
  type: "ConvolutionFixed"
  bottom: "u0b"
  top: "u0c"
  param {
    lr_mult: 1
    decay_mult: 1
  }
  param {
    lr_mult: 2
    decay_mult: 0
  }
  convolution_param {
    num_output: 32
    pad: 1
    kernel_size: 3
    weight_filler {
      type: "msra"
    }
  }
  fixed_param {
    fixed_method: DIFF_S
    bit_width: 8
  }
}
layer {
  name: "relu_u0c"
  type: "ReLU"
  bottom: "u0c"
  top: "u0c"
}
layer {
  name: "u0c_fixed"
  type: "FixedNeuron"
  bottom: "u0c"
  top: "u0c"
  param {
    lr_mult: 0
    decay_mult: 0
  }
  fixed_param {
    fixed_method: DIFF_S
    bit_width: 8
  }
}
layer {
  name: "conv_u0c-d_New"
  type: "ConvolutionFixed"
  bottom: "u0c"
  top: "u0d"
  param {
    lr_mult: 1
    decay_mult: 1
  }
  param {
    lr_mult: 2
    decay_mult: 0
  }
  convolution_param {
    num_output: 32
    pad: 1
    kernel_size: 3
    weight_filler {
      type: "msra"
    }
  }
  fixed_param {
    fixed_method: DIFF_S
    bit_width: 8
  }
}
layer {
  name: "relu_u0d"
  type: "ReLU"
  bottom: "u0d"
  top: "u0d"
}
layer {
  name: "u0d_fixed"
  type: "FixedNeuron"
  bottom: "u0d"
  top: "u0d"
  param {
    lr_mult: 0
    decay_mult: 0
  }
  fixed_param {
    fixed_method: DIFF_S
    bit_width: 8
  }
}
layer {
  name: "conv_u0d-score_New"
  type: "ConvolutionFixed"
  bottom: "u0d"
  top: "conv_u0d-score_New"
  param {
    lr_mult: 1
    decay_mult: 1
  }
  param {
    lr_mult: 2
    decay_mult: 0
  }
  convolution_param {
    num_output: 19
    pad: 0
    kernel_size: 1
    weight_filler {
      type: "msra"
    }
  }
  fixed_param {
    fixed_method: DIFF_S
    bit_width: 8
  }
}
layer {
  name: "conv_u0d-score_New_fixed"
  type: "FixedNeuron"
  bottom: "conv_u0d-score_New"
  top: "conv_u0d-score_New"
  param {
    lr_mult: 0
    decay_mult: 0
  }
  fixed_param {
    fixed_method: DIFF_S
    bit_width: 8
  }
}
layer {
  name: "score"
  type: "Softmax"
  bottom: "conv_u0d-score_New"
  top: "score"
}
I0716 13:31:53.103891 23176 layer_factory.hpp:123] Creating layer data
I0716 13:31:53.103906 23176 net.cpp:140] Creating Layer data
I0716 13:31:53.103912 23176 net.cpp:455] data -> data
I0716 13:31:53.103921 23176 net.cpp:455] data -> label
I0716 13:31:53.103930 23176 image_data_layer.cpp:87] Opening file ../data/cityscapes/calibration.txt
I0716 13:31:53.104162 23176 image_data_layer.cpp:97] Shuffling data
I0716 13:31:53.104183 23176 image_data_layer.cpp:102] A total of 1000 images.
I0716 13:31:53.171401 23176 image_data_layer.cpp:130] output data size: 1,3,512,1024
I0716 13:31:53.204394 23176 internal_thread.cpp:73] Starting internal thread(s) on GPU 1
I0716 13:31:53.204542 23176 net.cpp:190] Setting up data
I0716 13:31:53.204555 23176 net.cpp:197] Top shape: 1 3 512 1024 (1572864)
I0716 13:31:53.204558 23176 net.cpp:197] Top shape: 1 (1)
I0716 13:31:53.204561 23176 net.cpp:205] Memory required for data: 6291460
I0716 13:31:53.204566 23176 layer_factory.hpp:123] Creating layer data_fixed
I0716 13:31:53.204579 23176 net.cpp:140] Creating Layer data_fixed
I0716 13:31:53.204586 23176 net.cpp:481] data_fixed <- data
I0716 13:31:53.204592 23176 net.cpp:442] data_fixed -> data (in-place)
I0716 13:31:53.204658 23176 net.cpp:190] Setting up data_fixed
I0716 13:31:53.204663 23176 net.cpp:197] Top shape: 1 3 512 1024 (1572864)
I0716 13:31:53.204666 23176 net.cpp:205] Memory required for data: 12582916
I0716 13:31:53.204675 23176 layer_factory.hpp:123] Creating layer conv_d0a-b
I0716 13:31:53.204686 23176 net.cpp:140] Creating Layer conv_d0a-b
I0716 13:31:53.204689 23176 net.cpp:481] conv_d0a-b <- data
I0716 13:31:53.204695 23176 net.cpp:455] conv_d0a-b -> d0b
I0716 13:31:53.205008 23176 layer_factory.hpp:123] Creating layer conv_d0a-b
I0716 13:31:53.207403 23176 net.cpp:190] Setting up conv_d0a-b
I0716 13:31:53.207415 23176 net.cpp:197] Top shape: 1 32 512 1024 (16777216)
I0716 13:31:53.207418 23176 net.cpp:205] Memory required for data: 79691780
I0716 13:31:53.207429 23176 layer_factory.hpp:123] Creating layer relu_d0b
I0716 13:31:53.207435 23176 net.cpp:140] Creating Layer relu_d0b
I0716 13:31:53.207439 23176 net.cpp:481] relu_d0b <- d0b
I0716 13:31:53.207444 23176 net.cpp:455] relu_d0b -> relu_d0b
I0716 13:31:53.208001 23176 net.cpp:190] Setting up relu_d0b
I0716 13:31:53.208009 23176 net.cpp:197] Top shape: 1 32 512 1024 (16777216)
I0716 13:31:53.208012 23176 net.cpp:205] Memory required for data: 146800644
I0716 13:31:53.208015 23176 layer_factory.hpp:123] Creating layer relu_d0b_fixed
I0716 13:31:53.208022 23176 net.cpp:140] Creating Layer relu_d0b_fixed
I0716 13:31:53.208025 23176 net.cpp:481] relu_d0b_fixed <- relu_d0b
I0716 13:31:53.208030 23176 net.cpp:442] relu_d0b_fixed -> relu_d0b (in-place)
I0716 13:31:53.208096 23176 net.cpp:190] Setting up relu_d0b_fixed
I0716 13:31:53.208102 23176 net.cpp:197] Top shape: 1 32 512 1024 (16777216)
I0716 13:31:53.208106 23176 net.cpp:205] Memory required for data: 213909508
I0716 13:31:53.208111 23176 layer_factory.hpp:123] Creating layer conv_d0b-c
I0716 13:31:53.208118 23176 net.cpp:140] Creating Layer conv_d0b-c
I0716 13:31:53.208122 23176 net.cpp:481] conv_d0b-c <- relu_d0b
I0716 13:31:53.208127 23176 net.cpp:455] conv_d0b-c -> d0c
I0716 13:31:53.208498 23176 layer_factory.hpp:123] Creating layer conv_d0b-c
I0716 13:31:53.211093 23176 net.cpp:190] Setting up conv_d0b-c
I0716 13:31:53.211105 23176 net.cpp:197] Top shape: 1 32 512 1024 (16777216)
I0716 13:31:53.211108 23176 net.cpp:205] Memory required for data: 281018372
I0716 13:31:53.211118 23176 layer_factory.hpp:123] Creating layer d0c_fixed
I0716 13:31:53.211124 23176 net.cpp:140] Creating Layer d0c_fixed
I0716 13:31:53.211128 23176 net.cpp:481] d0c_fixed <- d0c
I0716 13:31:53.211133 23176 net.cpp:442] d0c_fixed -> d0c (in-place)
I0716 13:31:53.211174 23176 net.cpp:190] Setting up d0c_fixed
I0716 13:31:53.211181 23176 net.cpp:197] Top shape: 1 32 512 1024 (16777216)
I0716 13:31:53.211184 23176 net.cpp:205] Memory required for data: 348127236
I0716 13:31:53.211189 23176 layer_factory.hpp:123] Creating layer d0c_d0c_fixed_0_split
I0716 13:31:53.211194 23176 net.cpp:140] Creating Layer d0c_d0c_fixed_0_split
I0716 13:31:53.211199 23176 net.cpp:481] d0c_d0c_fixed_0_split <- d0c
I0716 13:31:53.211202 23176 net.cpp:455] d0c_d0c_fixed_0_split -> d0c_d0c_fixed_0_split_0
I0716 13:31:53.211210 23176 net.cpp:455] d0c_d0c_fixed_0_split -> d0c_d0c_fixed_0_split_1
I0716 13:31:53.211246 23176 net.cpp:190] Setting up d0c_d0c_fixed_0_split
I0716 13:31:53.211251 23176 net.cpp:197] Top shape: 1 32 512 1024 (16777216)
I0716 13:31:53.211254 23176 net.cpp:197] Top shape: 1 32 512 1024 (16777216)
I0716 13:31:53.211257 23176 net.cpp:205] Memory required for data: 482344964
I0716 13:31:53.211261 23176 layer_factory.hpp:123] Creating layer BatchNorm_d0c
I0716 13:31:53.211269 23176 net.cpp:140] Creating Layer BatchNorm_d0c
I0716 13:31:53.211272 23176 net.cpp:481] BatchNorm_d0c <- d0c_d0c_fixed_0_split_0
I0716 13:31:53.211277 23176 net.cpp:455] BatchNorm_d0c -> BatchNorm_d0c
I0716 13:31:53.211315 23176 layer_factory.hpp:123] Creating layer BatchNorm_d0c
I0716 13:31:53.212347 23176 layer_factory.hpp:123] Creating layer BatchNorm_d0c
I0716 13:31:53.212397 23176 layer_factory.hpp:123] Creating layer BatchNorm_d0c
I0716 13:31:53.215343 23176 net.cpp:190] Setting up BatchNorm_d0c
I0716 13:31:53.215356 23176 net.cpp:197] Top shape: 1 32 512 1024 (16777216)
I0716 13:31:53.215359 23176 net.cpp:205] Memory required for data: 549453828
I0716 13:31:53.215368 23176 layer_factory.hpp:123] Creating layer relu_d0c
I0716 13:31:53.215374 23176 net.cpp:140] Creating Layer relu_d0c
I0716 13:31:53.215378 23176 net.cpp:481] relu_d0c <- BatchNorm_d0c
I0716 13:31:53.215384 23176 net.cpp:455] relu_d0c -> relu_d0c
I0716 13:31:53.215415 23176 net.cpp:190] Setting up relu_d0c
I0716 13:31:53.215422 23176 net.cpp:197] Top shape: 1 32 512 1024 (16777216)
I0716 13:31:53.215425 23176 net.cpp:205] Memory required for data: 616562692
I0716 13:31:53.215428 23176 layer_factory.hpp:123] Creating layer pool_d0c-1a
I0716 13:31:53.215435 23176 net.cpp:140] Creating Layer pool_d0c-1a
I0716 13:31:53.215437 23176 net.cpp:481] pool_d0c-1a <- relu_d0c
I0716 13:31:53.215442 23176 net.cpp:455] pool_d0c-1a -> d1a
I0716 13:31:53.215479 23176 net.cpp:190] Setting up pool_d0c-1a
I0716 13:31:53.215485 23176 net.cpp:197] Top shape: 1 32 256 512 (4194304)
I0716 13:31:53.215488 23176 net.cpp:205] Memory required for data: 633339908
I0716 13:31:53.215492 23176 layer_factory.hpp:123] Creating layer d1a_fixed
I0716 13:31:53.215497 23176 net.cpp:140] Creating Layer d1a_fixed
I0716 13:31:53.215499 23176 net.cpp:481] d1a_fixed <- d1a
I0716 13:31:53.215504 23176 net.cpp:442] d1a_fixed -> d1a (in-place)
I0716 13:31:53.215538 23176 net.cpp:190] Setting up d1a_fixed
I0716 13:31:53.215543 23176 net.cpp:197] Top shape: 1 32 256 512 (4194304)
I0716 13:31:53.215546 23176 net.cpp:205] Memory required for data: 650117124
I0716 13:31:53.215550 23176 layer_factory.hpp:123] Creating layer conv_d1a-b
I0716 13:31:53.215559 23176 net.cpp:140] Creating Layer conv_d1a-b
I0716 13:31:53.215562 23176 net.cpp:481] conv_d1a-b <- d1a
I0716 13:31:53.215567 23176 net.cpp:455] conv_d1a-b -> d1b
I0716 13:31:53.215920 23176 layer_factory.hpp:123] Creating layer conv_d1a-b
I0716 13:31:53.217245 23176 net.cpp:190] Setting up conv_d1a-b
I0716 13:31:53.217257 23176 net.cpp:197] Top shape: 1 64 256 512 (8388608)
I0716 13:31:53.217260 23176 net.cpp:205] Memory required for data: 683671556
I0716 13:31:53.217267 23176 layer_factory.hpp:123] Creating layer relu_d1b
I0716 13:31:53.217272 23176 net.cpp:140] Creating Layer relu_d1b
I0716 13:31:53.217275 23176 net.cpp:481] relu_d1b <- d1b
I0716 13:31:53.217281 23176 net.cpp:455] relu_d1b -> relu_d1b
I0716 13:31:53.217308 23176 net.cpp:190] Setting up relu_d1b
I0716 13:31:53.217314 23176 net.cpp:197] Top shape: 1 64 256 512 (8388608)
I0716 13:31:53.217316 23176 net.cpp:205] Memory required for data: 717225988
I0716 13:31:53.217319 23176 layer_factory.hpp:123] Creating layer relu_d1b_fixed
I0716 13:31:53.217325 23176 net.cpp:140] Creating Layer relu_d1b_fixed
I0716 13:31:53.217329 23176 net.cpp:481] relu_d1b_fixed <- relu_d1b
I0716 13:31:53.217334 23176 net.cpp:442] relu_d1b_fixed -> relu_d1b (in-place)
I0716 13:31:53.217365 23176 net.cpp:190] Setting up relu_d1b_fixed
I0716 13:31:53.217371 23176 net.cpp:197] Top shape: 1 64 256 512 (8388608)
I0716 13:31:53.217375 23176 net.cpp:205] Memory required for data: 750780420
I0716 13:31:53.217378 23176 layer_factory.hpp:123] Creating layer conv_d1b-c
I0716 13:31:53.217386 23176 net.cpp:140] Creating Layer conv_d1b-c
I0716 13:31:53.217389 23176 net.cpp:481] conv_d1b-c <- relu_d1b
I0716 13:31:53.217396 23176 net.cpp:455] conv_d1b-c -> d1c
I0716 13:31:53.217885 23176 layer_factory.hpp:123] Creating layer conv_d1b-c
I0716 13:31:53.219326 23176 net.cpp:190] Setting up conv_d1b-c
I0716 13:31:53.219338 23176 net.cpp:197] Top shape: 1 64 256 512 (8388608)
I0716 13:31:53.219341 23176 net.cpp:205] Memory required for data: 784334852
I0716 13:31:53.219347 23176 layer_factory.hpp:123] Creating layer d1c_fixed
I0716 13:31:53.219354 23176 net.cpp:140] Creating Layer d1c_fixed
I0716 13:31:53.219358 23176 net.cpp:481] d1c_fixed <- d1c
I0716 13:31:53.219363 23176 net.cpp:442] d1c_fixed -> d1c (in-place)
I0716 13:31:53.219400 23176 net.cpp:190] Setting up d1c_fixed
I0716 13:31:53.219408 23176 net.cpp:197] Top shape: 1 64 256 512 (8388608)
I0716 13:31:53.219410 23176 net.cpp:205] Memory required for data: 817889284
I0716 13:31:53.219414 23176 layer_factory.hpp:123] Creating layer d1c_d1c_fixed_0_split
I0716 13:31:53.219420 23176 net.cpp:140] Creating Layer d1c_d1c_fixed_0_split
I0716 13:31:53.219424 23176 net.cpp:481] d1c_d1c_fixed_0_split <- d1c
I0716 13:31:53.219429 23176 net.cpp:455] d1c_d1c_fixed_0_split -> d1c_d1c_fixed_0_split_0
I0716 13:31:53.219435 23176 net.cpp:455] d1c_d1c_fixed_0_split -> d1c_d1c_fixed_0_split_1
I0716 13:31:53.219473 23176 net.cpp:190] Setting up d1c_d1c_fixed_0_split
I0716 13:31:53.219482 23176 net.cpp:197] Top shape: 1 64 256 512 (8388608)
I0716 13:31:53.219488 23176 net.cpp:197] Top shape: 1 64 256 512 (8388608)
I0716 13:31:53.219493 23176 net.cpp:205] Memory required for data: 884998148
I0716 13:31:53.219497 23176 layer_factory.hpp:123] Creating layer BatchNorm_d1c
I0716 13:31:53.219506 23176 net.cpp:140] Creating Layer BatchNorm_d1c
I0716 13:31:53.219509 23176 net.cpp:481] BatchNorm_d1c <- d1c_d1c_fixed_0_split_0
I0716 13:31:53.219517 23176 net.cpp:455] BatchNorm_d1c -> BatchNorm_d1c
I0716 13:31:53.219571 23176 layer_factory.hpp:123] Creating layer BatchNorm_d1c
I0716 13:31:53.219777 23176 layer_factory.hpp:123] Creating layer BatchNorm_d1c
I0716 13:31:53.219847 23176 layer_factory.hpp:123] Creating layer BatchNorm_d1c
I0716 13:31:53.221117 23176 net.cpp:190] Setting up BatchNorm_d1c
I0716 13:31:53.221129 23176 net.cpp:197] Top shape: 1 64 256 512 (8388608)
I0716 13:31:53.221132 23176 net.cpp:205] Memory required for data: 918552580
I0716 13:31:53.221143 23176 layer_factory.hpp:123] Creating layer relu_d1c
I0716 13:31:53.221153 23176 net.cpp:140] Creating Layer relu_d1c
I0716 13:31:53.221155 23176 net.cpp:481] relu_d1c <- BatchNorm_d1c
I0716 13:31:53.221161 23176 net.cpp:455] relu_d1c -> relu_d1c
I0716 13:31:53.221190 23176 net.cpp:190] Setting up relu_d1c
I0716 13:31:53.221197 23176 net.cpp:197] Top shape: 1 64 256 512 (8388608)
I0716 13:31:53.221200 23176 net.cpp:205] Memory required for data: 952107012
I0716 13:31:53.221204 23176 layer_factory.hpp:123] Creating layer pool_d1c-2a
I0716 13:31:53.221210 23176 net.cpp:140] Creating Layer pool_d1c-2a
I0716 13:31:53.221213 23176 net.cpp:481] pool_d1c-2a <- relu_d1c
I0716 13:31:53.221218 23176 net.cpp:455] pool_d1c-2a -> d2a
I0716 13:31:53.221254 23176 net.cpp:190] Setting up pool_d1c-2a
I0716 13:31:53.221261 23176 net.cpp:197] Top shape: 1 64 128 256 (2097152)
I0716 13:31:53.221263 23176 net.cpp:205] Memory required for data: 960495620
I0716 13:31:53.221266 23176 layer_factory.hpp:123] Creating layer d2a_fixed
I0716 13:31:53.221272 23176 net.cpp:140] Creating Layer d2a_fixed
I0716 13:31:53.221276 23176 net.cpp:481] d2a_fixed <- d2a
I0716 13:31:53.221280 23176 net.cpp:442] d2a_fixed -> d2a (in-place)
I0716 13:31:53.221312 23176 net.cpp:190] Setting up d2a_fixed
I0716 13:31:53.221318 23176 net.cpp:197] Top shape: 1 64 128 256 (2097152)
I0716 13:31:53.221321 23176 net.cpp:205] Memory required for data: 968884228
I0716 13:31:53.221326 23176 layer_factory.hpp:123] Creating layer conv_d2a-b
I0716 13:31:53.221333 23176 net.cpp:140] Creating Layer conv_d2a-b
I0716 13:31:53.221338 23176 net.cpp:481] conv_d2a-b <- d2a
I0716 13:31:53.221343 23176 net.cpp:455] conv_d2a-b -> d2b
I0716 13:31:53.222151 23176 layer_factory.hpp:123] Creating layer conv_d2a-b
I0716 13:31:53.223582 23176 net.cpp:190] Setting up conv_d2a-b
I0716 13:31:53.223596 23176 net.cpp:197] Top shape: 1 128 128 256 (4194304)
I0716 13:31:53.223600 23176 net.cpp:205] Memory required for data: 985661444
I0716 13:31:53.223609 23176 layer_factory.hpp:123] Creating layer relu_d2b
I0716 13:31:53.223618 23176 net.cpp:140] Creating Layer relu_d2b
I0716 13:31:53.223623 23176 net.cpp:481] relu_d2b <- d2b
I0716 13:31:53.223630 23176 net.cpp:455] relu_d2b -> relu_d2b
I0716 13:31:53.223664 23176 net.cpp:190] Setting up relu_d2b
I0716 13:31:53.223673 23176 net.cpp:197] Top shape: 1 128 128 256 (4194304)
I0716 13:31:53.223677 23176 net.cpp:205] Memory required for data: 1002438660
I0716 13:31:53.223681 23176 layer_factory.hpp:123] Creating layer relu_d2b_fixed
I0716 13:31:53.223690 23176 net.cpp:140] Creating Layer relu_d2b_fixed
I0716 13:31:53.223695 23176 net.cpp:481] relu_d2b_fixed <- relu_d2b
I0716 13:31:53.223701 23176 net.cpp:442] relu_d2b_fixed -> relu_d2b (in-place)
I0716 13:31:53.223747 23176 net.cpp:190] Setting up relu_d2b_fixed
I0716 13:31:53.223762 23176 net.cpp:197] Top shape: 1 128 128 256 (4194304)
I0716 13:31:53.223767 23176 net.cpp:205] Memory required for data: 1019215876
I0716 13:31:53.223773 23176 layer_factory.hpp:123] Creating layer conv_d2b-c
I0716 13:31:53.223783 23176 net.cpp:140] Creating Layer conv_d2b-c
I0716 13:31:53.223790 23176 net.cpp:481] conv_d2b-c <- relu_d2b
I0716 13:31:53.223798 23176 net.cpp:455] conv_d2b-c -> d2c
I0716 13:31:53.227622 23176 layer_factory.hpp:123] Creating layer conv_d2b-c
I0716 13:31:53.229964 23176 net.cpp:190] Setting up conv_d2b-c
I0716 13:31:53.229977 23176 net.cpp:197] Top shape: 1 128 128 256 (4194304)
I0716 13:31:53.229981 23176 net.cpp:205] Memory required for data: 1035993092
I0716 13:31:53.229987 23176 layer_factory.hpp:123] Creating layer d2c_fixed
I0716 13:31:53.229993 23176 net.cpp:140] Creating Layer d2c_fixed
I0716 13:31:53.229997 23176 net.cpp:481] d2c_fixed <- d2c
I0716 13:31:53.230003 23176 net.cpp:442] d2c_fixed -> d2c (in-place)
I0716 13:31:53.230041 23176 net.cpp:190] Setting up d2c_fixed
I0716 13:31:53.230047 23176 net.cpp:197] Top shape: 1 128 128 256 (4194304)
I0716 13:31:53.230051 23176 net.cpp:205] Memory required for data: 1052770308
I0716 13:31:53.230054 23176 layer_factory.hpp:123] Creating layer d2c_d2c_fixed_0_split
I0716 13:31:53.230060 23176 net.cpp:140] Creating Layer d2c_d2c_fixed_0_split
I0716 13:31:53.230063 23176 net.cpp:481] d2c_d2c_fixed_0_split <- d2c
I0716 13:31:53.230068 23176 net.cpp:455] d2c_d2c_fixed_0_split -> d2c_d2c_fixed_0_split_0
I0716 13:31:53.230075 23176 net.cpp:455] d2c_d2c_fixed_0_split -> d2c_d2c_fixed_0_split_1
I0716 13:31:53.230109 23176 net.cpp:190] Setting up d2c_d2c_fixed_0_split
I0716 13:31:53.230115 23176 net.cpp:197] Top shape: 1 128 128 256 (4194304)
I0716 13:31:53.230119 23176 net.cpp:197] Top shape: 1 128 128 256 (4194304)
I0716 13:31:53.230123 23176 net.cpp:205] Memory required for data: 1086324740
I0716 13:31:53.230125 23176 layer_factory.hpp:123] Creating layer BatchNorm_d2c
I0716 13:31:53.230131 23176 net.cpp:140] Creating Layer BatchNorm_d2c
I0716 13:31:53.230135 23176 net.cpp:481] BatchNorm_d2c <- d2c_d2c_fixed_0_split_0
I0716 13:31:53.230140 23176 net.cpp:455] BatchNorm_d2c -> BatchNorm_d2c
I0716 13:31:53.230176 23176 layer_factory.hpp:123] Creating layer BatchNorm_d2c
I0716 13:31:53.230259 23176 layer_factory.hpp:123] Creating layer BatchNorm_d2c
I0716 13:31:53.230298 23176 layer_factory.hpp:123] Creating layer BatchNorm_d2c
I0716 13:31:53.230474 23176 net.cpp:190] Setting up BatchNorm_d2c
I0716 13:31:53.230481 23176 net.cpp:197] Top shape: 1 128 128 256 (4194304)
I0716 13:31:53.230484 23176 net.cpp:205] Memory required for data: 1103101956
I0716 13:31:53.230490 23176 layer_factory.hpp:123] Creating layer relu_d2c
I0716 13:31:53.230496 23176 net.cpp:140] Creating Layer relu_d2c
I0716 13:31:53.230499 23176 net.cpp:481] relu_d2c <- BatchNorm_d2c
I0716 13:31:53.230504 23176 net.cpp:455] relu_d2c -> relu_d2c
I0716 13:31:53.230530 23176 net.cpp:190] Setting up relu_d2c
I0716 13:31:53.230536 23176 net.cpp:197] Top shape: 1 128 128 256 (4194304)
I0716 13:31:53.230540 23176 net.cpp:205] Memory required for data: 1119879172
I0716 13:31:53.230542 23176 layer_factory.hpp:123] Creating layer pool_d2c-3a
I0716 13:31:53.230548 23176 net.cpp:140] Creating Layer pool_d2c-3a
I0716 13:31:53.230551 23176 net.cpp:481] pool_d2c-3a <- relu_d2c
I0716 13:31:53.230556 23176 net.cpp:455] pool_d2c-3a -> d3a
I0716 13:31:53.230590 23176 net.cpp:190] Setting up pool_d2c-3a
I0716 13:31:53.230597 23176 net.cpp:197] Top shape: 1 128 64 128 (1048576)
I0716 13:31:53.230599 23176 net.cpp:205] Memory required for data: 1124073476
I0716 13:31:53.230602 23176 layer_factory.hpp:123] Creating layer d3a_fixed
I0716 13:31:53.230607 23176 net.cpp:140] Creating Layer d3a_fixed
I0716 13:31:53.230610 23176 net.cpp:481] d3a_fixed <- d3a
I0716 13:31:53.230614 23176 net.cpp:442] d3a_fixed -> d3a (in-place)
I0716 13:31:53.230646 23176 net.cpp:190] Setting up d3a_fixed
I0716 13:31:53.230653 23176 net.cpp:197] Top shape: 1 128 64 128 (1048576)
I0716 13:31:53.230655 23176 net.cpp:205] Memory required for data: 1128267780
I0716 13:31:53.230659 23176 layer_factory.hpp:123] Creating layer conv_d3a-b
I0716 13:31:53.230669 23176 net.cpp:140] Creating Layer conv_d3a-b
I0716 13:31:53.230674 23176 net.cpp:481] conv_d3a-b <- d3a
I0716 13:31:53.230679 23176 net.cpp:455] conv_d3a-b -> d3b
I0716 13:31:53.234117 23176 layer_factory.hpp:123] Creating layer conv_d3a-b
I0716 13:31:53.238425 23176 net.cpp:190] Setting up conv_d3a-b
I0716 13:31:53.238438 23176 net.cpp:197] Top shape: 1 256 64 128 (2097152)
I0716 13:31:53.238442 23176 net.cpp:205] Memory required for data: 1136656388
I0716 13:31:53.238451 23176 layer_factory.hpp:123] Creating layer relu_d3b
I0716 13:31:53.238457 23176 net.cpp:140] Creating Layer relu_d3b
I0716 13:31:53.238461 23176 net.cpp:481] relu_d3b <- d3b
I0716 13:31:53.238467 23176 net.cpp:455] relu_d3b -> relu_d3b
I0716 13:31:53.238494 23176 net.cpp:190] Setting up relu_d3b
I0716 13:31:53.238502 23176 net.cpp:197] Top shape: 1 256 64 128 (2097152)
I0716 13:31:53.238504 23176 net.cpp:205] Memory required for data: 1145044996
I0716 13:31:53.238508 23176 layer_factory.hpp:123] Creating layer relu_d3b_fixed
I0716 13:31:53.238513 23176 net.cpp:140] Creating Layer relu_d3b_fixed
I0716 13:31:53.238517 23176 net.cpp:481] relu_d3b_fixed <- relu_d3b
I0716 13:31:53.238521 23176 net.cpp:442] relu_d3b_fixed -> relu_d3b (in-place)
I0716 13:31:53.238555 23176 net.cpp:190] Setting up relu_d3b_fixed
I0716 13:31:53.238561 23176 net.cpp:197] Top shape: 1 256 64 128 (2097152)
I0716 13:31:53.238564 23176 net.cpp:205] Memory required for data: 1153433604
I0716 13:31:53.238569 23176 layer_factory.hpp:123] Creating layer conv_d3b-c
I0716 13:31:53.238577 23176 net.cpp:140] Creating Layer conv_d3b-c
I0716 13:31:53.238581 23176 net.cpp:481] conv_d3b-c <- relu_d3b
I0716 13:31:53.238585 23176 net.cpp:455] conv_d3b-c -> d3c
I0716 13:31:53.245875 23176 layer_factory.hpp:123] Creating layer conv_d3b-c
I0716 13:31:53.253031 23176 net.cpp:190] Setting up conv_d3b-c
I0716 13:31:53.253051 23176 net.cpp:197] Top shape: 1 256 64 128 (2097152)
I0716 13:31:53.253053 23176 net.cpp:205] Memory required for data: 1161822212
I0716 13:31:53.253067 23176 layer_factory.hpp:123] Creating layer d3c_fixed
I0716 13:31:53.253075 23176 net.cpp:140] Creating Layer d3c_fixed
I0716 13:31:53.253082 23176 net.cpp:481] d3c_fixed <- d3c
I0716 13:31:53.253088 23176 net.cpp:442] d3c_fixed -> d3c (in-place)
I0716 13:31:53.253127 23176 net.cpp:190] Setting up d3c_fixed
I0716 13:31:53.253134 23176 net.cpp:197] Top shape: 1 256 64 128 (2097152)
I0716 13:31:53.253137 23176 net.cpp:205] Memory required for data: 1170210820
I0716 13:31:53.253141 23176 layer_factory.hpp:123] Creating layer d3c_d3c_fixed_0_split
I0716 13:31:53.253147 23176 net.cpp:140] Creating Layer d3c_d3c_fixed_0_split
I0716 13:31:53.253151 23176 net.cpp:481] d3c_d3c_fixed_0_split <- d3c
I0716 13:31:53.253156 23176 net.cpp:455] d3c_d3c_fixed_0_split -> d3c_d3c_fixed_0_split_0
I0716 13:31:53.253163 23176 net.cpp:455] d3c_d3c_fixed_0_split -> d3c_d3c_fixed_0_split_1
I0716 13:31:53.253198 23176 net.cpp:190] Setting up d3c_d3c_fixed_0_split
I0716 13:31:53.253206 23176 net.cpp:197] Top shape: 1 256 64 128 (2097152)
I0716 13:31:53.253208 23176 net.cpp:197] Top shape: 1 256 64 128 (2097152)
I0716 13:31:53.253211 23176 net.cpp:205] Memory required for data: 1186988036
I0716 13:31:53.253214 23176 layer_factory.hpp:123] Creating layer BatchNorm_1
I0716 13:31:53.253222 23176 net.cpp:140] Creating Layer BatchNorm_1
I0716 13:31:53.253227 23176 net.cpp:481] BatchNorm_1 <- d3c_d3c_fixed_0_split_0
I0716 13:31:53.253232 23176 net.cpp:455] BatchNorm_1 -> BatchNorm_1
I0716 13:31:53.253270 23176 layer_factory.hpp:123] Creating layer BatchNorm_1
I0716 13:31:53.253343 23176 layer_factory.hpp:123] Creating layer BatchNorm_1
I0716 13:31:53.253381 23176 layer_factory.hpp:123] Creating layer BatchNorm_1
I0716 13:31:53.253515 23176 net.cpp:190] Setting up BatchNorm_1
I0716 13:31:53.253521 23176 net.cpp:197] Top shape: 1 256 64 128 (2097152)
I0716 13:31:53.253525 23176 net.cpp:205] Memory required for data: 1195376644
I0716 13:31:53.253531 23176 layer_factory.hpp:123] Creating layer relu_d3c
I0716 13:31:53.253536 23176 net.cpp:140] Creating Layer relu_d3c
I0716 13:31:53.253540 23176 net.cpp:481] relu_d3c <- BatchNorm_1
I0716 13:31:53.253546 23176 net.cpp:455] relu_d3c -> relu_d3c
I0716 13:31:53.253572 23176 net.cpp:190] Setting up relu_d3c
I0716 13:31:53.253579 23176 net.cpp:197] Top shape: 1 256 64 128 (2097152)
I0716 13:31:53.253582 23176 net.cpp:205] Memory required for data: 1203765252
I0716 13:31:53.253585 23176 layer_factory.hpp:123] Creating layer pool_d3c-4a
I0716 13:31:53.253592 23176 net.cpp:140] Creating Layer pool_d3c-4a
I0716 13:31:53.253594 23176 net.cpp:481] pool_d3c-4a <- relu_d3c
I0716 13:31:53.253599 23176 net.cpp:455] pool_d3c-4a -> d4a
I0716 13:31:53.253636 23176 net.cpp:190] Setting up pool_d3c-4a
I0716 13:31:53.253643 23176 net.cpp:197] Top shape: 1 256 32 64 (524288)
I0716 13:31:53.253645 23176 net.cpp:205] Memory required for data: 1205862404
I0716 13:31:53.253648 23176 layer_factory.hpp:123] Creating layer d4a_fixed
I0716 13:31:53.253654 23176 net.cpp:140] Creating Layer d4a_fixed
I0716 13:31:53.253656 23176 net.cpp:481] d4a_fixed <- d4a
I0716 13:31:53.253660 23176 net.cpp:442] d4a_fixed -> d4a (in-place)
I0716 13:31:53.253693 23176 net.cpp:190] Setting up d4a_fixed
I0716 13:31:53.253700 23176 net.cpp:197] Top shape: 1 256 32 64 (524288)
I0716 13:31:53.253702 23176 net.cpp:205] Memory required for data: 1207959556
I0716 13:31:53.253706 23176 layer_factory.hpp:123] Creating layer conv_d4a-b
I0716 13:31:53.253715 23176 net.cpp:140] Creating Layer conv_d4a-b
I0716 13:31:53.253718 23176 net.cpp:481] conv_d4a-b <- d4a
I0716 13:31:53.253723 23176 net.cpp:455] conv_d4a-b -> BatchNorm_2
I0716 13:31:53.267069 23176 layer_factory.hpp:123] Creating layer conv_d4a-b
I0716 13:31:53.284198 23176 net.cpp:190] Setting up conv_d4a-b
I0716 13:31:53.284215 23176 net.cpp:197] Top shape: 1 512 32 64 (1048576)
I0716 13:31:53.284219 23176 net.cpp:205] Memory required for data: 1212153860
I0716 13:31:53.284227 23176 layer_factory.hpp:123] Creating layer relu_d4b
I0716 13:31:53.284235 23176 net.cpp:140] Creating Layer relu_d4b
I0716 13:31:53.284240 23176 net.cpp:481] relu_d4b <- BatchNorm_2
I0716 13:31:53.284246 23176 net.cpp:455] relu_d4b -> relu_d4b
I0716 13:31:53.284276 23176 net.cpp:190] Setting up relu_d4b
I0716 13:31:53.284281 23176 net.cpp:197] Top shape: 1 512 32 64 (1048576)
I0716 13:31:53.284286 23176 net.cpp:205] Memory required for data: 1216348164
I0716 13:31:53.284288 23176 layer_factory.hpp:123] Creating layer relu_d4b_fixed
I0716 13:31:53.284294 23176 net.cpp:140] Creating Layer relu_d4b_fixed
I0716 13:31:53.284297 23176 net.cpp:481] relu_d4b_fixed <- relu_d4b
I0716 13:31:53.284303 23176 net.cpp:442] relu_d4b_fixed -> relu_d4b (in-place)
I0716 13:31:53.284338 23176 net.cpp:190] Setting up relu_d4b_fixed
I0716 13:31:53.284344 23176 net.cpp:197] Top shape: 1 512 32 64 (1048576)
I0716 13:31:53.284348 23176 net.cpp:205] Memory required for data: 1220542468
I0716 13:31:53.284351 23176 layer_factory.hpp:123] Creating layer conv_d4b-c
I0716 13:31:53.284360 23176 net.cpp:140] Creating Layer conv_d4b-c
I0716 13:31:53.284363 23176 net.cpp:481] conv_d4b-c <- relu_d4b
I0716 13:31:53.284369 23176 net.cpp:455] conv_d4b-c -> d4c
I0716 13:31:53.311141 23176 layer_factory.hpp:123] Creating layer conv_d4b-c
I0716 13:31:53.337261 23176 net.cpp:190] Setting up conv_d4b-c
I0716 13:31:53.337288 23176 net.cpp:197] Top shape: 1 512 32 64 (1048576)
I0716 13:31:53.337292 23176 net.cpp:205] Memory required for data: 1224736772
I0716 13:31:53.337301 23176 layer_factory.hpp:123] Creating layer relu_d4c
I0716 13:31:53.337311 23176 net.cpp:140] Creating Layer relu_d4c
I0716 13:31:53.337316 23176 net.cpp:481] relu_d4c <- d4c
I0716 13:31:53.337327 23176 net.cpp:455] relu_d4c -> relu_d4c
I0716 13:31:53.337358 23176 net.cpp:190] Setting up relu_d4c
I0716 13:31:53.337364 23176 net.cpp:197] Top shape: 1 512 32 64 (1048576)
I0716 13:31:53.337368 23176 net.cpp:205] Memory required for data: 1228931076
I0716 13:31:53.337370 23176 layer_factory.hpp:123] Creating layer relu_d4c_fixed
I0716 13:31:53.337378 23176 net.cpp:140] Creating Layer relu_d4c_fixed
I0716 13:31:53.337380 23176 net.cpp:481] relu_d4c_fixed <- relu_d4c
I0716 13:31:53.337385 23176 net.cpp:442] relu_d4c_fixed -> relu_d4c (in-place)
I0716 13:31:53.337421 23176 net.cpp:190] Setting up relu_d4c_fixed
I0716 13:31:53.337429 23176 net.cpp:197] Top shape: 1 512 32 64 (1048576)
I0716 13:31:53.337431 23176 net.cpp:205] Memory required for data: 1233125380
I0716 13:31:53.337435 23176 layer_factory.hpp:123] Creating layer upconv_d4c_u3a
I0716 13:31:53.337445 23176 net.cpp:140] Creating Layer upconv_d4c_u3a
I0716 13:31:53.337448 23176 net.cpp:481] upconv_d4c_u3a <- relu_d4c
I0716 13:31:53.337453 23176 net.cpp:455] upconv_d4c_u3a -> u3a
I0716 13:31:53.343843 23176 layer_factory.hpp:123] Creating layer upconv_d4c_u3a
I0716 13:31:53.350267 23176 net.cpp:190] Setting up upconv_d4c_u3a
I0716 13:31:53.350288 23176 net.cpp:197] Top shape: 1 256 64 128 (2097152)
I0716 13:31:53.350292 23176 net.cpp:205] Memory required for data: 1241513988
I0716 13:31:53.350301 23176 layer_factory.hpp:123] Creating layer relu_u3a
I0716 13:31:53.350309 23176 net.cpp:140] Creating Layer relu_u3a
I0716 13:31:53.350314 23176 net.cpp:481] relu_u3a <- u3a
I0716 13:31:53.350322 23176 net.cpp:442] relu_u3a -> u3a (in-place)
I0716 13:31:53.350332 23176 net.cpp:190] Setting up relu_u3a
I0716 13:31:53.350337 23176 net.cpp:197] Top shape: 1 256 64 128 (2097152)
I0716 13:31:53.350340 23176 net.cpp:205] Memory required for data: 1249902596
I0716 13:31:53.350343 23176 layer_factory.hpp:123] Creating layer concat_d3cc_u3a-b
I0716 13:31:53.350348 23176 net.cpp:140] Creating Layer concat_d3cc_u3a-b
I0716 13:31:53.350351 23176 net.cpp:481] concat_d3cc_u3a-b <- u3a
I0716 13:31:53.350356 23176 net.cpp:481] concat_d3cc_u3a-b <- d3c_d3c_fixed_0_split_1
I0716 13:31:53.350363 23176 net.cpp:455] concat_d3cc_u3a-b -> u3b
I0716 13:31:53.350390 23176 net.cpp:190] Setting up concat_d3cc_u3a-b
I0716 13:31:53.350396 23176 net.cpp:197] Top shape: 1 512 64 128 (4194304)
I0716 13:31:53.350399 23176 net.cpp:205] Memory required for data: 1266679812
I0716 13:31:53.350402 23176 layer_factory.hpp:123] Creating layer u3b_fixed
I0716 13:31:53.350409 23176 net.cpp:140] Creating Layer u3b_fixed
I0716 13:31:53.350411 23176 net.cpp:481] u3b_fixed <- u3b
I0716 13:31:53.350416 23176 net.cpp:442] u3b_fixed -> u3b (in-place)
I0716 13:31:53.350453 23176 net.cpp:190] Setting up u3b_fixed
I0716 13:31:53.350459 23176 net.cpp:197] Top shape: 1 512 64 128 (4194304)
I0716 13:31:53.350462 23176 net.cpp:205] Memory required for data: 1283457028
I0716 13:31:53.350466 23176 layer_factory.hpp:123] Creating layer conv_u3b-c
I0716 13:31:53.350476 23176 net.cpp:140] Creating Layer conv_u3b-c
I0716 13:31:53.350481 23176 net.cpp:481] conv_u3b-c <- u3b
I0716 13:31:53.350486 23176 net.cpp:455] conv_u3b-c -> u3c
I0716 13:31:53.363729 23176 layer_factory.hpp:123] Creating layer conv_u3b-c
I0716 13:31:53.377228 23176 net.cpp:190] Setting up conv_u3b-c
I0716 13:31:53.377249 23176 net.cpp:197] Top shape: 1 256 64 128 (2097152)
I0716 13:31:53.377251 23176 net.cpp:205] Memory required for data: 1291845636
I0716 13:31:53.377260 23176 layer_factory.hpp:123] Creating layer relu_u3c
I0716 13:31:53.377269 23176 net.cpp:140] Creating Layer relu_u3c
I0716 13:31:53.377272 23176 net.cpp:481] relu_u3c <- u3c
I0716 13:31:53.377279 23176 net.cpp:442] relu_u3c -> u3c (in-place)
I0716 13:31:53.377286 23176 net.cpp:190] Setting up relu_u3c
I0716 13:31:53.377290 23176 net.cpp:197] Top shape: 1 256 64 128 (2097152)
I0716 13:31:53.377293 23176 net.cpp:205] Memory required for data: 1300234244
I0716 13:31:53.377296 23176 layer_factory.hpp:123] Creating layer u3c_fixed
I0716 13:31:53.377302 23176 net.cpp:140] Creating Layer u3c_fixed
I0716 13:31:53.377305 23176 net.cpp:481] u3c_fixed <- u3c
I0716 13:31:53.377310 23176 net.cpp:442] u3c_fixed -> u3c (in-place)
I0716 13:31:53.377347 23176 net.cpp:190] Setting up u3c_fixed
I0716 13:31:53.377354 23176 net.cpp:197] Top shape: 1 256 64 128 (2097152)
I0716 13:31:53.377357 23176 net.cpp:205] Memory required for data: 1308622852
I0716 13:31:53.377362 23176 layer_factory.hpp:123] Creating layer conv_u3c-d
I0716 13:31:53.377370 23176 net.cpp:140] Creating Layer conv_u3c-d
I0716 13:31:53.377374 23176 net.cpp:481] conv_u3c-d <- u3c
I0716 13:31:53.377379 23176 net.cpp:455] conv_u3c-d -> u3d
I0716 13:31:53.384148 23176 layer_factory.hpp:123] Creating layer conv_u3c-d
I0716 13:31:53.391168 23176 net.cpp:190] Setting up conv_u3c-d
I0716 13:31:53.391183 23176 net.cpp:197] Top shape: 1 256 64 128 (2097152)
I0716 13:31:53.391186 23176 net.cpp:205] Memory required for data: 1317011460
I0716 13:31:53.391194 23176 layer_factory.hpp:123] Creating layer relu_u3d
I0716 13:31:53.391201 23176 net.cpp:140] Creating Layer relu_u3d
I0716 13:31:53.391206 23176 net.cpp:481] relu_u3d <- u3d
I0716 13:31:53.391212 23176 net.cpp:442] relu_u3d -> u3d (in-place)
I0716 13:31:53.391219 23176 net.cpp:190] Setting up relu_u3d
I0716 13:31:53.391224 23176 net.cpp:197] Top shape: 1 256 64 128 (2097152)
I0716 13:31:53.391227 23176 net.cpp:205] Memory required for data: 1325400068
I0716 13:31:53.391230 23176 layer_factory.hpp:123] Creating layer u3d_fixed
I0716 13:31:53.391237 23176 net.cpp:140] Creating Layer u3d_fixed
I0716 13:31:53.391239 23176 net.cpp:481] u3d_fixed <- u3d
I0716 13:31:53.391243 23176 net.cpp:442] u3d_fixed -> u3d (in-place)
I0716 13:31:53.391283 23176 net.cpp:190] Setting up u3d_fixed
I0716 13:31:53.391289 23176 net.cpp:197] Top shape: 1 256 64 128 (2097152)
I0716 13:31:53.391291 23176 net.cpp:205] Memory required for data: 1333788676
I0716 13:31:53.391296 23176 layer_factory.hpp:123] Creating layer upconv_u3d_u2a
I0716 13:31:53.391304 23176 net.cpp:140] Creating Layer upconv_u3d_u2a
I0716 13:31:53.391306 23176 net.cpp:481] upconv_u3d_u2a <- u3d
I0716 13:31:53.391312 23176 net.cpp:455] upconv_u3d_u2a -> u2a
I0716 13:31:53.392675 23176 layer_factory.hpp:123] Creating layer upconv_u3d_u2a
I0716 13:31:53.395320 23176 net.cpp:190] Setting up upconv_u3d_u2a
I0716 13:31:53.395332 23176 net.cpp:197] Top shape: 1 128 128 256 (4194304)
I0716 13:31:53.395335 23176 net.cpp:205] Memory required for data: 1350565892
I0716 13:31:53.395342 23176 layer_factory.hpp:123] Creating layer relu_u2a
I0716 13:31:53.395349 23176 net.cpp:140] Creating Layer relu_u2a
I0716 13:31:53.395354 23176 net.cpp:481] relu_u2a <- u2a
I0716 13:31:53.395359 23176 net.cpp:442] relu_u2a -> u2a (in-place)
I0716 13:31:53.395366 23176 net.cpp:190] Setting up relu_u2a
I0716 13:31:53.395371 23176 net.cpp:197] Top shape: 1 128 128 256 (4194304)
I0716 13:31:53.395375 23176 net.cpp:205] Memory required for data: 1367343108
I0716 13:31:53.395377 23176 layer_factory.hpp:123] Creating layer concat_d2cc_u2a-b
I0716 13:31:53.395383 23176 net.cpp:140] Creating Layer concat_d2cc_u2a-b
I0716 13:31:53.395386 23176 net.cpp:481] concat_d2cc_u2a-b <- u2a
I0716 13:31:53.395390 23176 net.cpp:481] concat_d2cc_u2a-b <- d2c_d2c_fixed_0_split_1
I0716 13:31:53.395395 23176 net.cpp:455] concat_d2cc_u2a-b -> u2b
I0716 13:31:53.395424 23176 net.cpp:190] Setting up concat_d2cc_u2a-b
I0716 13:31:53.395431 23176 net.cpp:197] Top shape: 1 256 128 256 (8388608)
I0716 13:31:53.395432 23176 net.cpp:205] Memory required for data: 1400897540
I0716 13:31:53.395435 23176 layer_factory.hpp:123] Creating layer u2b_fixed
I0716 13:31:53.395442 23176 net.cpp:140] Creating Layer u2b_fixed
I0716 13:31:53.395444 23176 net.cpp:481] u2b_fixed <- u2b
I0716 13:31:53.395448 23176 net.cpp:442] u2b_fixed -> u2b (in-place)
I0716 13:31:53.395491 23176 net.cpp:190] Setting up u2b_fixed
I0716 13:31:53.395498 23176 net.cpp:197] Top shape: 1 256 128 256 (8388608)
I0716 13:31:53.395500 23176 net.cpp:205] Memory required for data: 1434451972
I0716 13:31:53.395505 23176 layer_factory.hpp:123] Creating layer conv_u2b-c
I0716 13:31:53.395514 23176 net.cpp:140] Creating Layer conv_u2b-c
I0716 13:31:53.395517 23176 net.cpp:481] conv_u2b-c <- u2b
I0716 13:31:53.395522 23176 net.cpp:455] conv_u2b-c -> u2c
I0716 13:31:53.398923 23176 layer_factory.hpp:123] Creating layer conv_u2b-c
I0716 13:31:53.408239 23176 net.cpp:190] Setting up conv_u2b-c
I0716 13:31:53.408253 23176 net.cpp:197] Top shape: 1 128 128 256 (4194304)
I0716 13:31:53.408257 23176 net.cpp:205] Memory required for data: 1451229188
I0716 13:31:53.408263 23176 layer_factory.hpp:123] Creating layer relu_u2c
I0716 13:31:53.408270 23176 net.cpp:140] Creating Layer relu_u2c
I0716 13:31:53.408274 23176 net.cpp:481] relu_u2c <- u2c
I0716 13:31:53.408279 23176 net.cpp:442] relu_u2c -> u2c (in-place)
I0716 13:31:53.408287 23176 net.cpp:190] Setting up relu_u2c
I0716 13:31:53.408290 23176 net.cpp:197] Top shape: 1 128 128 256 (4194304)
I0716 13:31:53.408293 23176 net.cpp:205] Memory required for data: 1468006404
I0716 13:31:53.408296 23176 layer_factory.hpp:123] Creating layer u2c_fixed
I0716 13:31:53.408304 23176 net.cpp:140] Creating Layer u2c_fixed
I0716 13:31:53.408308 23176 net.cpp:481] u2c_fixed <- u2c
I0716 13:31:53.408313 23176 net.cpp:442] u2c_fixed -> u2c (in-place)
I0716 13:31:53.408352 23176 net.cpp:190] Setting up u2c_fixed
I0716 13:31:53.408358 23176 net.cpp:197] Top shape: 1 128 128 256 (4194304)
I0716 13:31:53.408361 23176 net.cpp:205] Memory required for data: 1484783620
I0716 13:31:53.408366 23176 layer_factory.hpp:123] Creating layer conv_u2c-d
I0716 13:31:53.408375 23176 net.cpp:140] Creating Layer conv_u2c-d
I0716 13:31:53.408380 23176 net.cpp:481] conv_u2c-d <- u2c
I0716 13:31:53.408385 23176 net.cpp:455] conv_u2c-d -> u2d
I0716 13:31:53.409858 23176 layer_factory.hpp:123] Creating layer conv_u2c-d
I0716 13:31:53.412272 23176 net.cpp:190] Setting up conv_u2c-d
I0716 13:31:53.412286 23176 net.cpp:197] Top shape: 1 128 128 256 (4194304)
I0716 13:31:53.412288 23176 net.cpp:205] Memory required for data: 1501560836
I0716 13:31:53.412295 23176 layer_factory.hpp:123] Creating layer relu_u2d
I0716 13:31:53.412302 23176 net.cpp:140] Creating Layer relu_u2d
I0716 13:31:53.412307 23176 net.cpp:481] relu_u2d <- u2d
I0716 13:31:53.412312 23176 net.cpp:442] relu_u2d -> u2d (in-place)
I0716 13:31:53.412319 23176 net.cpp:190] Setting up relu_u2d
I0716 13:31:53.412323 23176 net.cpp:197] Top shape: 1 128 128 256 (4194304)
I0716 13:31:53.412326 23176 net.cpp:205] Memory required for data: 1518338052
I0716 13:31:53.412329 23176 layer_factory.hpp:123] Creating layer u2d_fixed
I0716 13:31:53.412335 23176 net.cpp:140] Creating Layer u2d_fixed
I0716 13:31:53.412338 23176 net.cpp:481] u2d_fixed <- u2d
I0716 13:31:53.412343 23176 net.cpp:442] u2d_fixed -> u2d (in-place)
I0716 13:31:53.412386 23176 net.cpp:190] Setting up u2d_fixed
I0716 13:31:53.412394 23176 net.cpp:197] Top shape: 1 128 128 256 (4194304)
I0716 13:31:53.412397 23176 net.cpp:205] Memory required for data: 1535115268
I0716 13:31:53.412401 23176 layer_factory.hpp:123] Creating layer upconv_u2d_u1a
I0716 13:31:53.412410 23176 net.cpp:140] Creating Layer upconv_u2d_u1a
I0716 13:31:53.412413 23176 net.cpp:481] upconv_u2d_u1a <- u2d
I0716 13:31:53.412418 23176 net.cpp:455] upconv_u2d_u1a -> u1a
I0716 13:31:53.412945 23176 layer_factory.hpp:123] Creating layer upconv_u2d_u1a
I0716 13:31:53.413821 23176 net.cpp:190] Setting up upconv_u2d_u1a
I0716 13:31:53.413830 23176 net.cpp:197] Top shape: 1 64 256 512 (8388608)
I0716 13:31:53.413834 23176 net.cpp:205] Memory required for data: 1568669700
I0716 13:31:53.413839 23176 layer_factory.hpp:123] Creating layer relu_u1a
I0716 13:31:53.413846 23176 net.cpp:140] Creating Layer relu_u1a
I0716 13:31:53.413849 23176 net.cpp:481] relu_u1a <- u1a
I0716 13:31:53.413854 23176 net.cpp:442] relu_u1a -> u1a (in-place)
I0716 13:31:53.413861 23176 net.cpp:190] Setting up relu_u1a
I0716 13:31:53.413864 23176 net.cpp:197] Top shape: 1 64 256 512 (8388608)
I0716 13:31:53.413868 23176 net.cpp:205] Memory required for data: 1602224132
I0716 13:31:53.413872 23176 layer_factory.hpp:123] Creating layer concat_d1cc_u1a-b
I0716 13:31:53.413877 23176 net.cpp:140] Creating Layer concat_d1cc_u1a-b
I0716 13:31:53.413880 23176 net.cpp:481] concat_d1cc_u1a-b <- u1a
I0716 13:31:53.413884 23176 net.cpp:481] concat_d1cc_u1a-b <- d1c_d1c_fixed_0_split_1
I0716 13:31:53.413890 23176 net.cpp:455] concat_d1cc_u1a-b -> u1b
I0716 13:31:53.413920 23176 net.cpp:190] Setting up concat_d1cc_u1a-b
I0716 13:31:53.413926 23176 net.cpp:197] Top shape: 1 128 256 512 (16777216)
I0716 13:31:53.413930 23176 net.cpp:205] Memory required for data: 1669332996
I0716 13:31:53.413933 23176 layer_factory.hpp:123] Creating layer u1b_fixed
I0716 13:31:53.413938 23176 net.cpp:140] Creating Layer u1b_fixed
I0716 13:31:53.413942 23176 net.cpp:481] u1b_fixed <- u1b
I0716 13:31:53.413947 23176 net.cpp:442] u1b_fixed -> u1b (in-place)
I0716 13:31:53.413987 23176 net.cpp:190] Setting up u1b_fixed
I0716 13:31:53.413993 23176 net.cpp:197] Top shape: 1 128 256 512 (16777216)
I0716 13:31:53.413996 23176 net.cpp:205] Memory required for data: 1736441860
I0716 13:31:53.414001 23176 layer_factory.hpp:123] Creating layer conv_u1b-c
I0716 13:31:53.414010 23176 net.cpp:140] Creating Layer conv_u1b-c
I0716 13:31:53.414013 23176 net.cpp:481] conv_u1b-c <- u1b
I0716 13:31:53.414019 23176 net.cpp:455] conv_u1b-c -> u1c
I0716 13:31:53.414937 23176 layer_factory.hpp:123] Creating layer conv_u1b-c
I0716 13:31:53.416909 23176 net.cpp:190] Setting up conv_u1b-c
I0716 13:31:53.416923 23176 net.cpp:197] Top shape: 1 64 256 512 (8388608)
I0716 13:31:53.416926 23176 net.cpp:205] Memory required for data: 1769996292
I0716 13:31:53.416939 23176 layer_factory.hpp:123] Creating layer relu_u1c
I0716 13:31:53.416947 23176 net.cpp:140] Creating Layer relu_u1c
I0716 13:31:53.416950 23176 net.cpp:481] relu_u1c <- u1c
I0716 13:31:53.416956 23176 net.cpp:442] relu_u1c -> u1c (in-place)
I0716 13:31:53.416963 23176 net.cpp:190] Setting up relu_u1c
I0716 13:31:53.416967 23176 net.cpp:197] Top shape: 1 64 256 512 (8388608)
I0716 13:31:53.416971 23176 net.cpp:205] Memory required for data: 1803550724
I0716 13:31:53.416975 23176 layer_factory.hpp:123] Creating layer u1c_fixed
I0716 13:31:53.416980 23176 net.cpp:140] Creating Layer u1c_fixed
I0716 13:31:53.416983 23176 net.cpp:481] u1c_fixed <- u1c
I0716 13:31:53.416987 23176 net.cpp:442] u1c_fixed -> u1c (in-place)
I0716 13:31:53.417032 23176 net.cpp:190] Setting up u1c_fixed
I0716 13:31:53.417038 23176 net.cpp:197] Top shape: 1 64 256 512 (8388608)
I0716 13:31:53.417042 23176 net.cpp:205] Memory required for data: 1837105156
I0716 13:31:53.417047 23176 layer_factory.hpp:123] Creating layer conv_u1c-d
I0716 13:31:53.417055 23176 net.cpp:140] Creating Layer conv_u1c-d
I0716 13:31:53.417060 23176 net.cpp:481] conv_u1c-d <- u1c
I0716 13:31:53.417066 23176 net.cpp:455] conv_u1c-d -> u1d
I0716 13:31:53.417631 23176 layer_factory.hpp:123] Creating layer conv_u1c-d
I0716 13:31:53.418498 23176 net.cpp:190] Setting up conv_u1c-d
I0716 13:31:53.418507 23176 net.cpp:197] Top shape: 1 64 256 512 (8388608)
I0716 13:31:53.418511 23176 net.cpp:205] Memory required for data: 1870659588
I0716 13:31:53.418517 23176 layer_factory.hpp:123] Creating layer relu_u1d
I0716 13:31:53.418524 23176 net.cpp:140] Creating Layer relu_u1d
I0716 13:31:53.418527 23176 net.cpp:481] relu_u1d <- u1d
I0716 13:31:53.418531 23176 net.cpp:442] relu_u1d -> u1d (in-place)
I0716 13:31:53.418539 23176 net.cpp:190] Setting up relu_u1d
I0716 13:31:53.418542 23176 net.cpp:197] Top shape: 1 64 256 512 (8388608)
I0716 13:31:53.418545 23176 net.cpp:205] Memory required for data: 1904214020
I0716 13:31:53.418550 23176 layer_factory.hpp:123] Creating layer u1d_fixed
I0716 13:31:53.418555 23176 net.cpp:140] Creating Layer u1d_fixed
I0716 13:31:53.418557 23176 net.cpp:481] u1d_fixed <- u1d
I0716 13:31:53.418561 23176 net.cpp:442] u1d_fixed -> u1d (in-place)
I0716 13:31:53.418603 23176 net.cpp:190] Setting up u1d_fixed
I0716 13:31:53.418609 23176 net.cpp:197] Top shape: 1 64 256 512 (8388608)
I0716 13:31:53.418612 23176 net.cpp:205] Memory required for data: 1937768452
I0716 13:31:53.418617 23176 layer_factory.hpp:123] Creating layer upconv_u1d_u0a_NEW
I0716 13:31:53.418624 23176 net.cpp:140] Creating Layer upconv_u1d_u0a_NEW
I0716 13:31:53.418628 23176 net.cpp:481] upconv_u1d_u0a_NEW <- u1d
I0716 13:31:53.418633 23176 net.cpp:455] upconv_u1d_u0a_NEW -> u0a
I0716 13:31:53.418938 23176 layer_factory.hpp:123] Creating layer upconv_u1d_u0a_NEW
I0716 13:31:53.421643 23176 net.cpp:190] Setting up upconv_u1d_u0a_NEW
I0716 13:31:53.421656 23176 net.cpp:197] Top shape: 1 32 512 1024 (16777216)
I0716 13:31:53.421660 23176 net.cpp:205] Memory required for data: 2004877316
I0716 13:31:53.421667 23176 layer_factory.hpp:123] Creating layer relu_u0a
I0716 13:31:53.421675 23176 net.cpp:140] Creating Layer relu_u0a
I0716 13:31:53.421679 23176 net.cpp:481] relu_u0a <- u0a
I0716 13:31:53.421684 23176 net.cpp:442] relu_u0a -> u0a (in-place)
I0716 13:31:53.421694 23176 net.cpp:190] Setting up relu_u0a
I0716 13:31:53.421700 23176 net.cpp:197] Top shape: 1 32 512 1024 (16777216)
I0716 13:31:53.421702 23176 net.cpp:205] Memory required for data: 2071986180
I0716 13:31:53.421705 23176 layer_factory.hpp:123] Creating layer concat_d0cc_u0a-b
I0716 13:31:53.421711 23176 net.cpp:140] Creating Layer concat_d0cc_u0a-b
I0716 13:31:53.421715 23176 net.cpp:481] concat_d0cc_u0a-b <- u0a
I0716 13:31:53.421718 23176 net.cpp:481] concat_d0cc_u0a-b <- d0c_d0c_fixed_0_split_1
I0716 13:31:53.421725 23176 net.cpp:455] concat_d0cc_u0a-b -> u0b
I0716 13:31:53.421761 23176 net.cpp:190] Setting up concat_d0cc_u0a-b
I0716 13:31:53.421767 23176 net.cpp:197] Top shape: 1 64 512 1024 (33554432)
I0716 13:31:53.421770 23176 net.cpp:205] Memory required for data: 2206203908
I0716 13:31:53.421773 23176 layer_factory.hpp:123] Creating layer u0b_fixed
I0716 13:31:53.421780 23176 net.cpp:140] Creating Layer u0b_fixed
I0716 13:31:53.421783 23176 net.cpp:481] u0b_fixed <- u0b
I0716 13:31:53.421788 23176 net.cpp:442] u0b_fixed -> u0b (in-place)
I0716 13:31:53.421829 23176 net.cpp:190] Setting up u0b_fixed
I0716 13:31:53.421836 23176 net.cpp:197] Top shape: 1 64 512 1024 (33554432)
I0716 13:31:53.421839 23176 net.cpp:205] Memory required for data: 2340421636
I0716 13:31:53.421844 23176 layer_factory.hpp:123] Creating layer conv_u0b-c_New
I0716 13:31:53.421852 23176 net.cpp:140] Creating Layer conv_u0b-c_New
I0716 13:31:53.421856 23176 net.cpp:481] conv_u0b-c_New <- u0b
I0716 13:31:53.421861 23176 net.cpp:455] conv_u0b-c_New -> u0c
I0716 13:31:53.422256 23176 layer_factory.hpp:123] Creating layer conv_u0b-c_New
I0716 13:31:53.424830 23176 net.cpp:190] Setting up conv_u0b-c_New
I0716 13:31:53.424844 23176 net.cpp:197] Top shape: 1 32 512 1024 (16777216)
I0716 13:31:53.424846 23176 net.cpp:205] Memory required for data: 2407530500
I0716 13:31:53.424852 23176 layer_factory.hpp:123] Creating layer relu_u0c
I0716 13:31:53.424859 23176 net.cpp:140] Creating Layer relu_u0c
I0716 13:31:53.424863 23176 net.cpp:481] relu_u0c <- u0c
I0716 13:31:53.424868 23176 net.cpp:442] relu_u0c -> u0c (in-place)
I0716 13:31:53.424875 23176 net.cpp:190] Setting up relu_u0c
I0716 13:31:53.424878 23176 net.cpp:197] Top shape: 1 32 512 1024 (16777216)
I0716 13:31:53.424882 23176 net.cpp:205] Memory required for data: 2474639364
I0716 13:31:53.424885 23176 layer_factory.hpp:123] Creating layer u0c_fixed
I0716 13:31:53.424890 23176 net.cpp:140] Creating Layer u0c_fixed
I0716 13:31:53.424896 23176 net.cpp:481] u0c_fixed <- u0c
I0716 13:31:53.424899 23176 net.cpp:442] u0c_fixed -> u0c (in-place)
I0716 13:31:53.424943 23176 net.cpp:190] Setting up u0c_fixed
I0716 13:31:53.424950 23176 net.cpp:197] Top shape: 1 32 512 1024 (16777216)
I0716 13:31:53.424953 23176 net.cpp:205] Memory required for data: 2541748228
I0716 13:31:53.424957 23176 layer_factory.hpp:123] Creating layer conv_u0c-d_New
I0716 13:31:53.424966 23176 net.cpp:140] Creating Layer conv_u0c-d_New
I0716 13:31:53.424969 23176 net.cpp:481] conv_u0c-d_New <- u0c
I0716 13:31:53.424974 23176 net.cpp:455] conv_u0c-d_New -> u0d
I0716 13:31:53.425263 23176 layer_factory.hpp:123] Creating layer conv_u0c-d_New
I0716 13:31:53.427603 23176 net.cpp:190] Setting up conv_u0c-d_New
I0716 13:31:53.427615 23176 net.cpp:197] Top shape: 1 32 512 1024 (16777216)
I0716 13:31:53.427618 23176 net.cpp:205] Memory required for data: 2608857092
I0716 13:31:53.427624 23176 layer_factory.hpp:123] Creating layer relu_u0d
I0716 13:31:53.427630 23176 net.cpp:140] Creating Layer relu_u0d
I0716 13:31:53.427635 23176 net.cpp:481] relu_u0d <- u0d
I0716 13:31:53.427640 23176 net.cpp:442] relu_u0d -> u0d (in-place)
I0716 13:31:53.427647 23176 net.cpp:190] Setting up relu_u0d
I0716 13:31:53.427654 23176 net.cpp:197] Top shape: 1 32 512 1024 (16777216)
I0716 13:31:53.427655 23176 net.cpp:205] Memory required for data: 2675965956
I0716 13:31:53.427659 23176 layer_factory.hpp:123] Creating layer u0d_fixed
I0716 13:31:53.427664 23176 net.cpp:140] Creating Layer u0d_fixed
I0716 13:31:53.427667 23176 net.cpp:481] u0d_fixed <- u0d
I0716 13:31:53.427671 23176 net.cpp:442] u0d_fixed -> u0d (in-place)
I0716 13:31:53.427716 23176 net.cpp:190] Setting up u0d_fixed
I0716 13:31:53.427722 23176 net.cpp:197] Top shape: 1 32 512 1024 (16777216)
I0716 13:31:53.427726 23176 net.cpp:205] Memory required for data: 2743074820
I0716 13:31:53.427729 23176 layer_factory.hpp:123] Creating layer conv_u0d-score_New
I0716 13:31:53.427737 23176 net.cpp:140] Creating Layer conv_u0d-score_New
I0716 13:31:53.427742 23176 net.cpp:481] conv_u0d-score_New <- u0d
I0716 13:31:53.427747 23176 net.cpp:455] conv_u0d-score_New -> conv_u0d-score_New
I0716 13:31:53.427976 23176 layer_factory.hpp:123] Creating layer conv_u0d-score_New
I0716 13:31:53.430249 23176 net.cpp:190] Setting up conv_u0d-score_New
I0716 13:31:53.430261 23176 net.cpp:197] Top shape: 1 19 512 1024 (9961472)
I0716 13:31:53.430264 23176 net.cpp:205] Memory required for data: 2782920708
I0716 13:31:53.430271 23176 layer_factory.hpp:123] Creating layer conv_u0d-score_New_fixed
I0716 13:31:53.430277 23176 net.cpp:140] Creating Layer conv_u0d-score_New_fixed
I0716 13:31:53.430281 23176 net.cpp:481] conv_u0d-score_New_fixed <- conv_u0d-score_New
I0716 13:31:53.430287 23176 net.cpp:442] conv_u0d-score_New_fixed -> conv_u0d-score_New (in-place)
I0716 13:31:53.430333 23176 net.cpp:190] Setting up conv_u0d-score_New_fixed
I0716 13:31:53.430341 23176 net.cpp:197] Top shape: 1 19 512 1024 (9961472)
I0716 13:31:53.430343 23176 net.cpp:205] Memory required for data: 2822766596
I0716 13:31:53.430347 23176 layer_factory.hpp:123] Creating layer score
I0716 13:31:53.430353 23176 net.cpp:140] Creating Layer score
I0716 13:31:53.430357 23176 net.cpp:481] score <- conv_u0d-score_New
I0716 13:31:53.430362 23176 net.cpp:455] score -> score
I0716 13:31:53.430433 23176 net.cpp:190] Setting up score
I0716 13:31:53.430439 23176 net.cpp:197] Top shape: 1 19 512 1024 (9961472)
I0716 13:31:53.430442 23176 net.cpp:205] Memory required for data: 2862612484
I0716 13:31:53.430445 23176 net.cpp:268] score does not need backward computation.
I0716 13:31:53.430449 23176 net.cpp:268] conv_u0d-score_New_fixed does not need backward computation.
I0716 13:31:53.430452 23176 net.cpp:268] conv_u0d-score_New does not need backward computation.
I0716 13:31:53.430455 23176 net.cpp:268] u0d_fixed does not need backward computation.
…
