…
I1014 14:03:15.667968  1719 net.cpp:323] The NetState phase (0) differed from the phase (1) specified by a rule in layer accuracy-top5
I1014 14:03:15.668203  1719 net.cpp:52] Initializing net from parameters: 
state {
  phase: TRAIN
}
layer {
  name: "data"
  type: "ImageData"
  top: "data"
  top: "label"
  include {
    phase: TRAIN
  }
  transform_param {
    mean_value: 125
    mean_value: 123
    mean_value: 114
  }
  image_data_param {
    source: "./data/calib/calibration.txt"
    batch_size: 10
    shuffle: true
    root_folder: "./data/calib/"
  }
}
layer {
  name: "data_fixed"
  type: "FixedNeuron"
  bottom: "data"
  top: "data"
  param {
    lr_mult: 0
    decay_mult: 0
  }
  fixed_param {
    fixed_method: OVER_FLOW
    bit_width: 8
    follow_data_layer: true
  }
}
layer {
  name: "conv1"
  type: "ConvolutionFixed"
  bottom: "data"
  top: "scale1"
  param {
    lr_mult: 1
    decay_mult: 1
  }
  param {
    lr_mult: 1
    decay_mult: 0
  }
  convolution_param {
    num_output: 14
    bias_term: true
    pad: 1
    kernel_size: 3
    stride: 1
    weight_filler {
      type: "xavier"
    }
    bias_filler {
      type: "constant"
      value: 0
    }
  }
  fixed_param {
    fixed_method: DIFF_S
    bit_width: 8
  }
}
layer {
  name: "relu1"
  type: "ReLU"
  bottom: "scale1"
  top: "relu1"
}
layer {
  name: "relu1_fixed"
  type: "FixedNeuron"
  bottom: "relu1"
  top: "relu1"
  param {
    lr_mult: 0
    decay_mult: 0
  }
  fixed_param {
    fixed_method: DIFF_S
    bit_width: 8
  }
}
layer {
  name: "conv2"
  type: "ConvolutionFixed"
  bottom: "relu1"
  top: "scale2"
  param {
    lr_mult: 1
    decay_mult: 1
  }
  param {
    lr_mult: 1
    decay_mult: 0
  }
  convolution_param {
    num_output: 20
    bias_term: true
    pad: 1
    kernel_size: 3
    stride: 1
    weight_filler {
      type: "xavier"
    }
    bias_filler {
      type: "constant"
      value: 0
    }
  }
  fixed_param {
    fixed_method: DIFF_S
    bit_width: 8
  }
}
layer {
  name: "relu2"
  type: "ReLU"
  bottom: "scale2"
  top: "relu2"
}
layer {
  name: "relu2_fixed"
  type: "FixedNeuron"
  bottom: "relu2"
  top: "relu2"
  param {
    lr_mult: 0
    decay_mult: 0
  }
  fixed_param {
    fixed_method: DIFF_S
    bit_width: 8
  }
}
layer {
  name: "pool1"
  type: "Pooling"
  bottom: "relu2"
  top: "pool1"
  pooling_param {
    pool: MAX
    kernel_size: 2
    stride: 2
  }
}
layer {
  name: "conv3"
  type: "ConvolutionFixed"
  bottom: "pool1"
  top: "scale3"
  param {
    lr_mult: 1
    decay_mult: 1
  }
  param {
    lr_mult: 1
    decay_mult: 0
  }
  convolution_param {
    num_output: 40
    bias_term: true
    pad: 1
    kernel_size: 3
    stride: 1
    weight_filler {
      type: "xavier"
    }
    bias_filler {
      type: "constant"
      value: 0
    }
  }
  fixed_param {
    fixed_method: DIFF_S
    bit_width: 8
  }
}
layer {
  name: "relu3"
  type: "ReLU"
  bottom: "scale3"
  top: "relu3"
}
layer {
  name: "relu3_fixed"
  type: "FixedNeuron"
  bottom: "relu3"
  top: "relu3"
  param {
    lr_mult: 0
    decay_mult: 0
  }
  fixed_param {
    fixed_method: DIFF_S
    bit_width: 8
  }
}
layer {
  name: "conv4"
  type: "ConvolutionFixed"
  bottom: "relu3"
  top: "scale4"
  param {
    lr_mult: 1
    decay_mult: 1
  }
  param {
    lr_mult: 1
    decay_mult: 0
  }
  convolution_param {
    num_output: 32
    bias_term: true
    pad: 1
    kernel_size: 3
    stride: 1
    weight_filler {
      type: "xavier"
    }
    bias_filler {
      type: "constant"
      value: 0
    }
  }
  fixed_param {
    fixed_method: DIFF_S
    bit_width: 8
  }
}
layer {
  name: "relu4"
  type: "ReLU"
  bottom: "scale4"
  top: "relu4"
}
layer {
  name: "relu4_fixed"
  type: "FixedNeuron"
  bottom: "relu4"
  top: "relu4"
  param {
    lr_mult: 0
    decay_mult: 0
  }
  fixed_param {
    fixed_method: DIFF_S
    bit_width: 8
  }
}
layer {
  name: "pool2"
  type: "Pooling"
  bottom: "relu4"
  top: "pool2"
  pooling_param {
    pool: MAX
    kernel_size: 2
    stride: 2
  }
}
layer {
  name: "fc1"
  type: "InnerProductFixed"
  bottom: "pool2"
  top: "scale5"
  param {
    lr_mult: 1
    decay_mult: 1
  }
  param {
    lr_mult: 1
    decay_mult: 0
  }
  inner_product_param {
    num_output: 512
    bias_term: true
    weight_filler {
      type: "xavier"
    }
    bias_filler {
      type: "constant"
      value: 1
    }
  }
  fixed_param {
    fixed_method: DIFF_S
    bit_width: 8
  }
}
layer {
  name: "relu5"
  type: "ReLU"
  bottom: "scale5"
  top: "relu5"
}
layer {
  name: "relu5_fixed"
  type: "FixedNeuron"
  bottom: "relu5"
  top: "relu5"
  param {
    lr_mult: 0
    decay_mult: 0
  }
  fixed_param {
    fixed_method: DIFF_S
    bit_width: 8
  }
}
layer {
  name: "fc2"
  type: "InnerProductFixed"
  bottom: "relu5"
  top: "fc2"
  param {
    lr_mult: 1
    decay_mult: 1
  }
  param {
    lr_mult: 2
    decay_mult: 0
  }
  inner_product_param {
    num_output: 10
    weight_filler {
      type: "xavier"
    }
    bias_filler {
      type: "constant"
      value: 1
    }
  }
  fixed_param {
    fixed_method: DIFF_S
    bit_width: 8
  }
}
layer {
  name: "fc2_fixed"
  type: "FixedNeuron"
  bottom: "fc2"
  top: "fc2"
  param {
    lr_mult: 0
    decay_mult: 0
  }
  fixed_param {
    fixed_method: DIFF_S
    bit_width: 8
  }
}
layer {
  name: "loss"
  type: "SoftmaxWithLoss"
  bottom: "fc2"
  bottom: "label"
  top: "loss"
}
I1014 14:03:15.668293  1719 layer_factory.hpp:77] Creating layer data
I1014 14:03:15.668337  1719 net.cpp:94] Creating Layer data
I1014 14:03:15.668349  1719 net.cpp:409] data -> data
I1014 14:03:15.668366  1719 net.cpp:409] data -> label
I1014 14:03:15.668386  1719 image_data_layer.cpp:41] Opening file ./data/calib/calibration.txt
I1014 14:03:15.668764  1719 image_data_layer.cpp:51] Shuffling data
I1014 14:03:15.669142  1719 image_data_layer.cpp:56] A total of 1000 images.
I1014 14:03:15.671630  1719 image_data_layer.cpp:84] output data size: 10,3,32,32
I1014 14:03:15.673409  1719 internal_thread.cpp:27] Starting internal thread(s) on GPU 0
I1014 14:03:15.673496  1719 net.cpp:144] Setting up data
I1014 14:03:15.673548  1719 net.cpp:151] Top shape: 10 3 32 32 (30720)
I1014 14:03:15.673585  1719 net.cpp:151] Top shape: 10 (10)
I1014 14:03:15.673617  1719 net.cpp:159] Memory required for data: 122920
I1014 14:03:15.673651  1719 layer_factory.hpp:77] Creating layer data_fixed
I1014 14:03:15.673699  1719 net.cpp:94] Creating Layer data_fixed
I1014 14:03:15.673727  1719 net.cpp:435] data_fixed <- data
I1014 14:03:15.673774  1719 net.cpp:396] data_fixed -> data (in-place)
I1014 14:03:15.673857  1719 net.cpp:144] Setting up data_fixed
I1014 14:03:15.673876  1719 net.cpp:151] Top shape: 10 3 32 32 (30720)
I1014 14:03:15.673882  1719 net.cpp:159] Memory required for data: 245800
I1014 14:03:15.673905  1719 layer_factory.hpp:77] Creating layer conv1
I1014 14:03:15.673928  1719 net.cpp:94] Creating Layer conv1
I1014 14:03:15.673957  1719 net.cpp:435] conv1 <- data
I1014 14:03:15.673988  1719 net.cpp:409] conv1 -> scale1
I1014 14:03:15.675698  1719 layer_factory.hpp:77] Creating layer conv1
I1014 14:03:15.676035  1719 net.cpp:144] Setting up conv1
I1014 14:03:15.676054  1719 net.cpp:151] Top shape: 10 14 32 32 (143360)
I1014 14:03:15.676057  1719 net.cpp:159] Memory required for data: 819240
I1014 14:03:15.676067  1719 layer_factory.hpp:77] Creating layer relu1
I1014 14:03:15.676079  1719 net.cpp:94] Creating Layer relu1
I1014 14:03:15.676092  1719 net.cpp:435] relu1 <- scale1
I1014 14:03:15.676101  1719 net.cpp:409] relu1 -> relu1
I1014 14:03:15.676141  1719 net.cpp:144] Setting up relu1
I1014 14:03:15.676159  1719 net.cpp:151] Top shape: 10 14 32 32 (143360)
I1014 14:03:15.676163  1719 net.cpp:159] Memory required for data: 1392680
I1014 14:03:15.676167  1719 layer_factory.hpp:77] Creating layer relu1_fixed
I1014 14:03:15.676179  1719 net.cpp:94] Creating Layer relu1_fixed
I1014 14:03:15.676216  1719 net.cpp:435] relu1_fixed <- relu1
I1014 14:03:15.676234  1719 net.cpp:396] relu1_fixed -> relu1 (in-place)
I1014 14:03:15.676283  1719 net.cpp:144] Setting up relu1_fixed
I1014 14:03:15.676298  1719 net.cpp:151] Top shape: 10 14 32 32 (143360)
I1014 14:03:15.676306  1719 net.cpp:159] Memory required for data: 1966120
I1014 14:03:15.676313  1719 layer_factory.hpp:77] Creating layer conv2
I1014 14:03:15.676329  1719 net.cpp:94] Creating Layer conv2
I1014 14:03:15.676342  1719 net.cpp:435] conv2 <- relu1
I1014 14:03:15.676353  1719 net.cpp:409] conv2 -> scale2
I1014 14:03:15.677148  1719 layer_factory.hpp:77] Creating layer conv2
I1014 14:03:15.677476  1719 net.cpp:144] Setting up conv2
I1014 14:03:15.677495  1719 net.cpp:151] Top shape: 10 20 32 32 (204800)
I1014 14:03:15.677502  1719 net.cpp:159] Memory required for data: 2785320
I1014 14:03:15.677515  1719 layer_factory.hpp:77] Creating layer relu2
I1014 14:03:15.677525  1719 net.cpp:94] Creating Layer relu2
I1014 14:03:15.677531  1719 net.cpp:435] relu2 <- scale2
I1014 14:03:15.677541  1719 net.cpp:409] relu2 -> relu2
I1014 14:03:15.677573  1719 net.cpp:144] Setting up relu2
I1014 14:03:15.677588  1719 net.cpp:151] Top shape: 10 20 32 32 (204800)
I1014 14:03:15.677594  1719 net.cpp:159] Memory required for data: 3604520
I1014 14:03:15.677600  1719 layer_factory.hpp:77] Creating layer relu2_fixed
I1014 14:03:15.677609  1719 net.cpp:94] Creating Layer relu2_fixed
I1014 14:03:15.677615  1719 net.cpp:435] relu2_fixed <- relu2
I1014 14:03:15.677623  1719 net.cpp:396] relu2_fixed -> relu2 (in-place)
I1014 14:03:15.677669  1719 net.cpp:144] Setting up relu2_fixed
I1014 14:03:15.677683  1719 net.cpp:151] Top shape: 10 20 32 32 (204800)
I1014 14:03:15.677690  1719 net.cpp:159] Memory required for data: 4423720
I1014 14:03:15.677696  1719 layer_factory.hpp:77] Creating layer pool1
I1014 14:03:15.677711  1719 net.cpp:94] Creating Layer pool1
I1014 14:03:15.677716  1719 net.cpp:435] pool1 <- relu2
I1014 14:03:15.677726  1719 net.cpp:409] pool1 -> pool1
I1014 14:03:15.677780  1719 net.cpp:144] Setting up pool1
I1014 14:03:15.677796  1719 net.cpp:151] Top shape: 10 20 16 16 (51200)
I1014 14:03:15.677803  1719 net.cpp:159] Memory required for data: 4628520
I1014 14:03:15.677808  1719 layer_factory.hpp:77] Creating layer conv3
I1014 14:03:15.677822  1719 net.cpp:94] Creating Layer conv3
I1014 14:03:15.677829  1719 net.cpp:435] conv3 <- pool1
I1014 14:03:15.677839  1719 net.cpp:409] conv3 -> scale3
I1014 14:03:15.678668  1719 layer_factory.hpp:77] Creating layer conv3
I1014 14:03:15.679023  1719 net.cpp:144] Setting up conv3
I1014 14:03:15.679042  1719 net.cpp:151] Top shape: 10 40 16 16 (102400)
I1014 14:03:15.679049  1719 net.cpp:159] Memory required for data: 5038120
I1014 14:03:15.679062  1719 layer_factory.hpp:77] Creating layer relu3
I1014 14:03:15.679074  1719 net.cpp:94] Creating Layer relu3
I1014 14:03:15.679082  1719 net.cpp:435] relu3 <- scale3
I1014 14:03:15.679091  1719 net.cpp:409] relu3 -> relu3
I1014 14:03:15.679119  1719 net.cpp:144] Setting up relu3
I1014 14:03:15.679134  1719 net.cpp:151] Top shape: 10 40 16 16 (102400)
I1014 14:03:15.679141  1719 net.cpp:159] Memory required for data: 5447720
I1014 14:03:15.679147  1719 layer_factory.hpp:77] Creating layer relu3_fixed
I1014 14:03:15.679157  1719 net.cpp:94] Creating Layer relu3_fixed
I1014 14:03:15.679162  1719 net.cpp:435] relu3_fixed <- relu3
I1014 14:03:15.679172  1719 net.cpp:396] relu3_fixed -> relu3 (in-place)
I1014 14:03:15.679215  1719 net.cpp:144] Setting up relu3_fixed
I1014 14:03:15.679230  1719 net.cpp:151] Top shape: 10 40 16 16 (102400)
I1014 14:03:15.679236  1719 net.cpp:159] Memory required for data: 5857320
I1014 14:03:15.679244  1719 layer_factory.hpp:77] Creating layer conv4
I1014 14:03:15.679260  1719 net.cpp:94] Creating Layer conv4
I1014 14:03:15.679271  1719 net.cpp:435] conv4 <- relu3
I1014 14:03:15.679283  1719 net.cpp:409] conv4 -> scale4
I1014 14:03:15.679523  1719 layer_factory.hpp:77] Creating layer conv4
I1014 14:03:15.679883  1719 net.cpp:144] Setting up conv4
I1014 14:03:15.679899  1719 net.cpp:151] Top shape: 10 32 16 16 (81920)
I1014 14:03:15.679906  1719 net.cpp:159] Memory required for data: 6185000
I1014 14:03:15.679916  1719 layer_factory.hpp:77] Creating layer relu4
I1014 14:03:15.679926  1719 net.cpp:94] Creating Layer relu4
I1014 14:03:15.679934  1719 net.cpp:435] relu4 <- scale4
I1014 14:03:15.679942  1719 net.cpp:409] relu4 -> relu4
I1014 14:03:15.679967  1719 net.cpp:144] Setting up relu4
I1014 14:03:15.679981  1719 net.cpp:151] Top shape: 10 32 16 16 (81920)
I1014 14:03:15.679994  1719 net.cpp:159] Memory required for data: 6512680
I1014 14:03:15.679999  1719 layer_factory.hpp:77] Creating layer relu4_fixed
I1014 14:03:15.680009  1719 net.cpp:94] Creating Layer relu4_fixed
I1014 14:03:15.680016  1719 net.cpp:435] relu4_fixed <- relu4
I1014 14:03:15.680024  1719 net.cpp:396] relu4_fixed -> relu4 (in-place)
I1014 14:03:15.680066  1719 net.cpp:144] Setting up relu4_fixed
I1014 14:03:15.680081  1719 net.cpp:151] Top shape: 10 32 16 16 (81920)
I1014 14:03:15.680088  1719 net.cpp:159] Memory required for data: 6840360
I1014 14:03:15.680094  1719 layer_factory.hpp:77] Creating layer pool2
I1014 14:03:15.680104  1719 net.cpp:94] Creating Layer pool2
I1014 14:03:15.680111  1719 net.cpp:435] pool2 <- relu4
I1014 14:03:15.680120  1719 net.cpp:409] pool2 -> pool2
I1014 14:03:15.680164  1719 net.cpp:144] Setting up pool2
I1014 14:03:15.680178  1719 net.cpp:151] Top shape: 10 32 8 8 (20480)
I1014 14:03:15.680186  1719 net.cpp:159] Memory required for data: 6922280
I1014 14:03:15.680191  1719 layer_factory.hpp:77] Creating layer fc1
I1014 14:03:15.680207  1719 net.cpp:94] Creating Layer fc1
I1014 14:03:15.680213  1719 net.cpp:435] fc1 <- pool2
I1014 14:03:15.680224  1719 net.cpp:409] fc1 -> scale5
I1014 14:03:15.690279  1719 layer_factory.hpp:77] Creating layer fc1
I1014 14:03:15.700420  1719 net.cpp:144] Setting up fc1
I1014 14:03:15.700449  1719 net.cpp:151] Top shape: 10 512 (5120)
I1014 14:03:15.700456  1719 net.cpp:159] Memory required for data: 6942760
I1014 14:03:15.700471  1719 layer_factory.hpp:77] Creating layer relu5
I1014 14:03:15.700482  1719 net.cpp:94] Creating Layer relu5
I1014 14:03:15.700489  1719 net.cpp:435] relu5 <- scale5
I1014 14:03:15.700502  1719 net.cpp:409] relu5 -> relu5
I1014 14:03:15.700541  1719 net.cpp:144] Setting up relu5
I1014 14:03:15.700557  1719 net.cpp:151] Top shape: 10 512 (5120)
I1014 14:03:15.700563  1719 net.cpp:159] Memory required for data: 6963240
I1014 14:03:15.700569  1719 layer_factory.hpp:77] Creating layer relu5_fixed
I1014 14:03:15.700580  1719 net.cpp:94] Creating Layer relu5_fixed
I1014 14:03:15.700585  1719 net.cpp:435] relu5_fixed <- relu5
I1014 14:03:15.700594  1719 net.cpp:396] relu5_fixed -> relu5 (in-place)
I1014 14:03:15.700642  1719 net.cpp:144] Setting up relu5_fixed
I1014 14:03:15.700657  1719 net.cpp:151] Top shape: 10 512 (5120)
I1014 14:03:15.700664  1719 net.cpp:159] Memory required for data: 6983720
I1014 14:03:15.700670  1719 layer_factory.hpp:77] Creating layer fc2
I1014 14:03:15.700685  1719 net.cpp:94] Creating Layer fc2
I1014 14:03:15.700692  1719 net.cpp:435] fc2 <- relu5
I1014 14:03:15.700703  1719 net.cpp:409] fc2 -> fc2
I1014 14:03:15.700881  1719 layer_factory.hpp:77] Creating layer fc2
I1014 14:03:15.701067  1719 net.cpp:144] Setting up fc2
I1014 14:03:15.701083  1719 net.cpp:151] Top shape: 10 10 (100)
I1014 14:03:15.701088  1719 net.cpp:159] Memory required for data: 6984120
I1014 14:03:15.701105  1719 layer_factory.hpp:77] Creating layer fc2_fixed
I1014 14:03:15.701118  1719 net.cpp:94] Creating Layer fc2_fixed
I1014 14:03:15.701124  1719 net.cpp:435] fc2_fixed <- fc2
I1014 14:03:15.701134  1719 net.cpp:396] fc2_fixed -> fc2 (in-place)
I1014 14:03:15.701180  1719 net.cpp:144] Setting up fc2_fixed
I1014 14:03:15.701195  1719 net.cpp:151] Top shape: 10 10 (100)
I1014 14:03:15.701200  1719 net.cpp:159] Memory required for data: 6984520
I1014 14:03:15.701207  1719 layer_factory.hpp:77] Creating layer loss
I1014 14:03:15.701218  1719 net.cpp:94] Creating Layer loss
I1014 14:03:15.701225  1719 net.cpp:435] loss <- fc2
I1014 14:03:15.701231  1719 net.cpp:435] loss <- label
I1014 14:03:15.701239  1719 net.cpp:409] loss -> loss
I1014 14:03:15.701252  1719 layer_factory.hpp:77] Creating layer loss
…
I1014 14:03:16.630728  1719 net.cpp:284] Network initialization done.
I1014 14:03:16.637296  1719 net.cpp:323] The NetState phase (1) differed from the phase (0) specified by a rule in layer data
I1014 14:03:16.637511  1719 net.cpp:52] Initializing net from parameters: 
layer {
  name: "data"
  type: "Data"
  top: "data"
  top: "label"
  include {
    phase: TEST
  }
  transform_param {
    mirror: false
    mean_value: 125
    mean_value: 123
    mean_value: 114
  }
  data_param {
    source: "/home/danieleb/ML/cifar10/input/lmdb/valid_lmdb"
    batch_size: 50
    backend: LMDB
  }
}
layer {
  name: "data_fixed"
  type: "FixedNeuron"
  bottom: "data"
  top: "data"
  param {
    lr_mult: 0
    decay_mult: 0
  }
  fixed_param {
    fixed_method: OVER_FLOW
    bit_width: 8
    follow_data_layer: true
  }
}
layer {
  name: "conv1"
  type: "ConvolutionFixed"
  bottom: "data"
  top: "scale1"
  param {
    lr_mult: 1
    decay_mult: 1
  }
  param {
    lr_mult: 1
    decay_mult: 0
  }
  convolution_param {
    num_output: 14
    bias_term: true
    pad: 1
    kernel_size: 3
    stride: 1
    weight_filler {
      type: "xavier"
    }
    bias_filler {
      type: "constant"
      value: 0
    }
  }
  fixed_param {
    fixed_method: DIFF_S
    bit_width: 8
  }
}
layer {
  name: "relu1"
  type: "ReLU"
  bottom: "scale1"
  top: "relu1"
}
layer {
  name: "relu1_fixed"
  type: "FixedNeuron"
  bottom: "relu1"
  top: "relu1"
  param {
    lr_mult: 0
    decay_mult: 0
  }
  fixed_param {
    fixed_method: DIFF_S
    bit_width: 8
  }
}
layer {
  name: "conv2"
  type: "ConvolutionFixed"
  bottom: "relu1"
  top: "scale2"
  param {
    lr_mult: 1
    decay_mult: 1
  }
  param {
    lr_mult: 1
    decay_mult: 0
  }
  convolution_param {
    num_output: 20
    bias_term: true
    pad: 1
    kernel_size: 3
    stride: 1
    weight_filler {
      type: "xavier"
    }
    bias_filler {
      type: "constant"
      value: 0
    }
  }
  fixed_param {
    fixed_method: DIFF_S
    bit_width: 8
  }
}
layer {
  name: "relu2"
  type: "ReLU"
  bottom: "scale2"
  top: "relu2"
}
layer {
  name: "relu2_fixed"
  type: "FixedNeuron"
  bottom: "relu2"
  top: "relu2"
  param {
    lr_mult: 0
    decay_mult: 0
  }
  fixed_param {
    fixed_method: DIFF_S
    bit_width: 8
  }
}
layer {
  name: "pool1"
  type: "Pooling"
  bottom: "relu2"
  top: "pool1"
  pooling_param {
    pool: MAX
    kernel_size: 2
    stride: 2
  }
}
layer {
  name: "conv3"
  type: "ConvolutionFixed"
  bottom: "pool1"
  top: "scale3"
  param {
    lr_mult: 1
    decay_mult: 1
  }
  param {
    lr_mult: 1
    decay_mult: 0
  }
  convolution_param {
    num_output: 40
    bias_term: true
    pad: 1
    kernel_size: 3
    stride: 1
    weight_filler {
      type: "xavier"
    }
    bias_filler {
      type: "constant"
      value: 0
    }
  }
  fixed_param {
    fixed_method: DIFF_S
    bit_width: 8
  }
}
layer {
  name: "relu3"
  type: "ReLU"
  bottom: "scale3"
  top: "relu3"
}
layer {
  name: "relu3_fixed"
  type: "FixedNeuron"
  bottom: "relu3"
  top: "relu3"
  param {
    lr_mult: 0
    decay_mult: 0
  }
  fixed_param {
    fixed_method: DIFF_S
    bit_width: 8
  }
}
layer {
  name: "conv4"
  type: "ConvolutionFixed"
  bottom: "relu3"
  top: "scale4"
  param {
    lr_mult: 1
    decay_mult: 1
  }
  param {
    lr_mult: 1
    decay_mult: 0
  }
  convolution_param {
    num_output: 32
    bias_term: true
    pad: 1
    kernel_size: 3
    stride: 1
    weight_filler {
      type: "xavier"
    }
    bias_filler {
      type: "constant"
      value: 0
    }
  }
  fixed_param {
    fixed_method: DIFF_S
    bit_width: 8
  }
}
layer {
  name: "relu4"
  type: "ReLU"
  bottom: "scale4"
  top: "relu4"
}
layer {
  name: "relu4_fixed"
  type: "FixedNeuron"
  bottom: "relu4"
  top: "relu4"
  param {
    lr_mult: 0
    decay_mult: 0
  }
  fixed_param {
    fixed_method: DIFF_S
    bit_width: 8
  }
}
layer {
  name: "pool2"
  type: "Pooling"
  bottom: "relu4"
  top: "pool2"
  pooling_param {
    pool: MAX
    kernel_size: 2
    stride: 2
  }
}
layer {
  name: "fc1"
  type: "InnerProductFixed"
  bottom: "pool2"
  top: "scale5"
  param {
    lr_mult: 1
    decay_mult: 1
  }
  param {
    lr_mult: 1
    decay_mult: 0
  }
  inner_product_param {
    num_output: 512
    bias_term: true
    weight_filler {
      type: "xavier"
    }
    bias_filler {
      type: "constant"
      value: 1
    }
  }
  fixed_param {
    fixed_method: DIFF_S
    bit_width: 8
  }
}
layer {
  name: "relu5"
  type: "ReLU"
  bottom: "scale5"
  top: "relu5"
}
layer {
  name: "relu5_fixed"
  type: "FixedNeuron"
  bottom: "relu5"
  top: "relu5"
  param {
    lr_mult: 0
    decay_mult: 0
  }
  fixed_param {
    fixed_method: DIFF_S
    bit_width: 8
  }
}
layer {
  name: "fc2"
  type: "InnerProductFixed"
  bottom: "relu5"
  top: "fc2"
  param {
    lr_mult: 1
    decay_mult: 1
  }
  param {
    lr_mult: 2
    decay_mult: 0
  }
  inner_product_param {
    num_output: 10
    weight_filler {
      type: "xavier"
    }
    bias_filler {
      type: "constant"
      value: 1
    }
  }
  fixed_param {
    fixed_method: DIFF_S
    bit_width: 8
  }
}
layer {
  name: "fc2_fixed"
  type: "FixedNeuron"
  bottom: "fc2"
  top: "fc2"
  param {
    lr_mult: 0
    decay_mult: 0
  }
  fixed_param {
    fixed_method: DIFF_S
    bit_width: 8
  }
}
layer {
  name: "loss"
  type: "SoftmaxWithLoss"
  bottom: "fc2"
  bottom: "label"
  top: "loss"
}
layer {
  name: "accuracy-top1"
  type: "Accuracy"
  bottom: "fc2"
  bottom: "label"
  top: "top-1"
  include {
    phase: TEST
  }
}
layer {
  name: "accuracy-top5"
  type: "Accuracy"
  bottom: "fc2"
  bottom: "label"
  top: "top-5"
  include {
    phase: TEST
  }
  accuracy_param {
    top_k: 5
  }
}
I1014 14:03:16.637646  1719 layer_factory.hpp:77] Creating layer data
I1014 14:03:16.637712  1719 internal_thread.cpp:27] Starting internal thread(s) on GPU 0
I1014 14:03:16.637858  1719 net.cpp:94] Creating Layer data
I1014 14:03:16.637884  1719 net.cpp:409] data -> data
I1014 14:03:16.637897  1719 net.cpp:409] data -> label
I1014 14:03:16.640702  1737 db_lmdb.cpp:35] Opened lmdb /home/danieleb/ML/cifar10/input/lmdb/valid_lmdb
I1014 14:03:16.642185  1737 data_reader.cpp:120] TEST: reading data using 1 channel(s)
I1014 14:03:16.642282  1719 data_layer.cpp:78] ReshapePrefetch 50, 3, 32, 32
I1014 14:03:16.642382  1719 data_layer.cpp:83] output data size: 50,3,32,32
I1014 14:03:16.647941  1719 internal_thread.cpp:27] Starting internal thread(s) on GPU 0
I1014 14:03:16.647987  1719 net.cpp:144] Setting up data
I1014 14:03:16.648005  1719 net.cpp:151] Top shape: 50 3 32 32 (153600)
I1014 14:03:16.648015  1719 net.cpp:151] Top shape: 50 (50)
I1014 14:03:16.648018  1719 net.cpp:159] Memory required for data: 614600
I1014 14:03:16.648025  1719 layer_factory.hpp:77] Creating layer label_data_1_split
I1014 14:03:16.648036  1719 net.cpp:94] Creating Layer label_data_1_split
I1014 14:03:16.648043  1719 net.cpp:435] label_data_1_split <- label
I1014 14:03:16.648052  1719 net.cpp:409] label_data_1_split -> label_data_1_split_0
I1014 14:03:16.648066  1719 net.cpp:409] label_data_1_split -> label_data_1_split_1
I1014 14:03:16.648075  1719 net.cpp:409] label_data_1_split -> label_data_1_split_2
I1014 14:03:16.648241  1719 net.cpp:144] Setting up label_data_1_split
I1014 14:03:16.648258  1719 net.cpp:151] Top shape: 50 (50)
I1014 14:03:16.648265  1719 net.cpp:151] Top shape: 50 (50)
I1014 14:03:16.648272  1719 net.cpp:151] Top shape: 50 (50)
I1014 14:03:16.648277  1719 net.cpp:159] Memory required for data: 615200
I1014 14:03:16.648283  1719 layer_factory.hpp:77] Creating layer data_fixed
I1014 14:03:16.648293  1719 net.cpp:94] Creating Layer data_fixed
I1014 14:03:16.648299  1719 net.cpp:435] data_fixed <- data
I1014 14:03:16.648308  1719 net.cpp:396] data_fixed -> data (in-place)
I1014 14:03:16.648350  1719 net.cpp:144] Setting up data_fixed
I1014 14:03:16.648365  1719 net.cpp:151] Top shape: 50 3 32 32 (153600)
I1014 14:03:16.648372  1719 net.cpp:159] Memory required for data: 1229600
I1014 14:03:16.648382  1719 layer_factory.hpp:77] Creating layer conv1
I1014 14:03:16.648397  1719 net.cpp:94] Creating Layer conv1
I1014 14:03:16.648409  1719 net.cpp:435] conv1 <- data
I1014 14:03:16.648421  1719 net.cpp:409] conv1 -> scale1
I1014 14:03:16.649062  1719 layer_factory.hpp:77] Creating layer conv1
I1014 14:03:16.649811  1719 net.cpp:144] Setting up conv1
I1014 14:03:16.649828  1719 net.cpp:151] Top shape: 50 14 32 32 (716800)
I1014 14:03:16.649835  1719 net.cpp:159] Memory required for data: 4096800
I1014 14:03:16.649849  1719 layer_factory.hpp:77] Creating layer relu1
I1014 14:03:16.649860  1719 net.cpp:94] Creating Layer relu1
I1014 14:03:16.649868  1719 net.cpp:435] relu1 <- scale1
I1014 14:03:16.649878  1719 net.cpp:409] relu1 -> relu1
I1014 14:03:16.649921  1719 net.cpp:144] Setting up relu1
I1014 14:03:16.649935  1719 net.cpp:151] Top shape: 50 14 32 32 (716800)
I1014 14:03:16.649942  1719 net.cpp:159] Memory required for data: 6964000
I1014 14:03:16.649948  1719 layer_factory.hpp:77] Creating layer relu1_fixed
I1014 14:03:16.649956  1719 net.cpp:94] Creating Layer relu1_fixed
I1014 14:03:16.649968  1719 net.cpp:435] relu1_fixed <- relu1
I1014 14:03:16.649978  1719 net.cpp:396] relu1_fixed -> relu1 (in-place)
I1014 14:03:16.650090  1719 net.cpp:144] Setting up relu1_fixed
I1014 14:03:16.650106  1719 net.cpp:151] Top shape: 50 14 32 32 (716800)
I1014 14:03:16.650112  1719 net.cpp:159] Memory required for data: 9831200
I1014 14:03:16.650120  1719 layer_factory.hpp:77] Creating layer conv2
I1014 14:03:16.650135  1719 net.cpp:94] Creating Layer conv2
I1014 14:03:16.650141  1719 net.cpp:435] conv2 <- relu1
I1014 14:03:16.650149  1719 net.cpp:409] conv2 -> scale2
I1014 14:03:16.651044  1719 layer_factory.hpp:77] Creating layer conv2
I1014 14:03:16.651623  1719 net.cpp:144] Setting up conv2
I1014 14:03:16.651670  1719 net.cpp:151] Top shape: 50 20 32 32 (1024000)
I1014 14:03:16.651711  1719 net.cpp:159] Memory required for data: 13927200
I1014 14:03:16.651752  1719 layer_factory.hpp:77] Creating layer relu2
I1014 14:03:16.651772  1719 net.cpp:94] Creating Layer relu2
I1014 14:03:16.651779  1719 net.cpp:435] relu2 <- scale2
I1014 14:03:16.651788  1719 net.cpp:409] relu2 -> relu2
I1014 14:03:16.651921  1719 net.cpp:144] Setting up relu2
I1014 14:03:16.651967  1719 net.cpp:151] Top shape: 50 20 32 32 (1024000)
I1014 14:03:16.651998  1719 net.cpp:159] Memory required for data: 18023200
I1014 14:03:16.652030  1719 layer_factory.hpp:77] Creating layer relu2_fixed
I1014 14:03:16.652065  1719 net.cpp:94] Creating Layer relu2_fixed
I1014 14:03:16.652124  1719 net.cpp:435] relu2_fixed <- relu2
I1014 14:03:16.652173  1719 net.cpp:396] relu2_fixed -> relu2 (in-place)
I1014 14:03:16.652268  1719 net.cpp:144] Setting up relu2_fixed
I1014 14:03:16.652305  1719 net.cpp:151] Top shape: 50 20 32 32 (1024000)
I1014 14:03:16.652336  1719 net.cpp:159] Memory required for data: 22119200
I1014 14:03:16.652379  1719 layer_factory.hpp:77] Creating layer pool1
I1014 14:03:16.652413  1719 net.cpp:94] Creating Layer pool1
I1014 14:03:16.652431  1719 net.cpp:435] pool1 <- relu2
I1014 14:03:16.652483  1719 net.cpp:409] pool1 -> pool1
I1014 14:03:16.652570  1719 net.cpp:144] Setting up pool1
I1014 14:03:16.652604  1719 net.cpp:151] Top shape: 50 20 16 16 (256000)
I1014 14:03:16.652631  1719 net.cpp:159] Memory required for data: 23143200
I1014 14:03:16.652647  1719 layer_factory.hpp:77] Creating layer conv3
I1014 14:03:16.652663  1719 net.cpp:94] Creating Layer conv3
I1014 14:03:16.652669  1719 net.cpp:435] conv3 <- pool1
I1014 14:03:16.652679  1719 net.cpp:409] conv3 -> scale3
I1014 14:03:16.653472  1719 layer_factory.hpp:77] Creating layer conv3
I1014 14:03:16.654116  1719 net.cpp:144] Setting up conv3
I1014 14:03:16.654134  1719 net.cpp:151] Top shape: 50 40 16 16 (512000)
I1014 14:03:16.654141  1719 net.cpp:159] Memory required for data: 25191200
I1014 14:03:16.654155  1719 layer_factory.hpp:77] Creating layer relu3
I1014 14:03:16.654165  1719 net.cpp:94] Creating Layer relu3
I1014 14:03:16.654171  1719 net.cpp:435] relu3 <- scale3
I1014 14:03:16.654181  1719 net.cpp:409] relu3 -> relu3
I1014 14:03:16.654220  1719 net.cpp:144] Setting up relu3
I1014 14:03:16.654238  1719 net.cpp:151] Top shape: 50 40 16 16 (512000)
I1014 14:03:16.654245  1719 net.cpp:159] Memory required for data: 27239200
I1014 14:03:16.654250  1719 layer_factory.hpp:77] Creating layer relu3_fixed
I1014 14:03:16.654259  1719 net.cpp:94] Creating Layer relu3_fixed
I1014 14:03:16.654265  1719 net.cpp:435] relu3_fixed <- relu3
I1014 14:03:16.654274  1719 net.cpp:396] relu3_fixed -> relu3 (in-place)
I1014 14:03:16.654373  1719 net.cpp:144] Setting up relu3_fixed
I1014 14:03:16.654395  1719 net.cpp:151] Top shape: 50 40 16 16 (512000)
I1014 14:03:16.654402  1719 net.cpp:159] Memory required for data: 29287200
I1014 14:03:16.654410  1719 layer_factory.hpp:77] Creating layer conv4
I1014 14:03:16.654423  1719 net.cpp:94] Creating Layer conv4
I1014 14:03:16.654430  1719 net.cpp:435] conv4 <- relu3
I1014 14:03:16.654440  1719 net.cpp:409] conv4 -> scale4
I1014 14:03:16.654841  1719 layer_factory.hpp:77] Creating layer conv4
I1014 14:03:16.655447  1719 net.cpp:144] Setting up conv4
I1014 14:03:16.655467  1719 net.cpp:151] Top shape: 50 32 16 16 (409600)
I1014 14:03:16.655473  1719 net.cpp:159] Memory required for data: 30925600
I1014 14:03:16.655483  1719 layer_factory.hpp:77] Creating layer relu4
I1014 14:03:16.655493  1719 net.cpp:94] Creating Layer relu4
I1014 14:03:16.655499  1719 net.cpp:435] relu4 <- scale4
I1014 14:03:16.655508  1719 net.cpp:409] relu4 -> relu4
I1014 14:03:16.655584  1719 net.cpp:144] Setting up relu4
I1014 14:03:16.655632  1719 net.cpp:151] Top shape: 50 32 16 16 (409600)
I1014 14:03:16.655669  1719 net.cpp:159] Memory required for data: 32564000
I1014 14:03:16.655704  1719 layer_factory.hpp:77] Creating layer relu4_fixed
I1014 14:03:16.655743  1719 net.cpp:94] Creating Layer relu4_fixed
I1014 14:03:16.655779  1719 net.cpp:435] relu4_fixed <- relu4
I1014 14:03:16.655818  1719 net.cpp:396] relu4_fixed -> relu4 (in-place)
I1014 14:03:16.655899  1719 net.cpp:144] Setting up relu4_fixed
I1014 14:03:16.655928  1719 net.cpp:151] Top shape: 50 32 16 16 (409600)
I1014 14:03:16.655947  1719 net.cpp:159] Memory required for data: 34202400
I1014 14:03:16.655970  1719 layer_factory.hpp:77] Creating layer pool2
I1014 14:03:16.656005  1719 net.cpp:94] Creating Layer pool2
I1014 14:03:16.656035  1719 net.cpp:435] pool2 <- relu4
I1014 14:03:16.656070  1719 net.cpp:409] pool2 -> pool2
I1014 14:03:16.656172  1719 net.cpp:144] Setting up pool2
I1014 14:03:16.656193  1719 net.cpp:151] Top shape: 50 32 8 8 (102400)
I1014 14:03:16.656199  1719 net.cpp:159] Memory required for data: 34612000
I1014 14:03:16.656205  1719 layer_factory.hpp:77] Creating layer fc1
I1014 14:03:16.656216  1719 net.cpp:94] Creating Layer fc1
I1014 14:03:16.656224  1719 net.cpp:435] fc1 <- pool2
I1014 14:03:16.656232  1719 net.cpp:409] fc1 -> scale5
I1014 14:03:16.665940  1719 layer_factory.hpp:77] Creating layer fc1
I1014 14:03:16.675981  1719 net.cpp:144] Setting up fc1
I1014 14:03:16.676005  1719 net.cpp:151] Top shape: 50 512 (25600)
I1014 14:03:16.676012  1719 net.cpp:159] Memory required for data: 34714400
I1014 14:03:16.676023  1719 layer_factory.hpp:77] Creating layer relu5
I1014 14:03:16.676033  1719 net.cpp:94] Creating Layer relu5
I1014 14:03:16.676040  1719 net.cpp:435] relu5 <- scale5
I1014 14:03:16.676049  1719 net.cpp:409] relu5 -> relu5
I1014 14:03:16.676087  1719 net.cpp:144] Setting up relu5
I1014 14:03:16.676105  1719 net.cpp:151] Top shape: 50 512 (25600)
I1014 14:03:16.676111  1719 net.cpp:159] Memory required for data: 34816800
I1014 14:03:16.676116  1719 layer_factory.hpp:77] Creating layer relu5_fixed
I1014 14:03:16.676126  1719 net.cpp:94] Creating Layer relu5_fixed
I1014 14:03:16.676132  1719 net.cpp:435] relu5_fixed <- relu5
I1014 14:03:16.676141  1719 net.cpp:396] relu5_fixed -> relu5 (in-place)
I1014 14:03:16.676187  1719 net.cpp:144] Setting up relu5_fixed
I1014 14:03:16.676201  1719 net.cpp:151] Top shape: 50 512 (25600)
I1014 14:03:16.676208  1719 net.cpp:159] Memory required for data: 34919200
I1014 14:03:16.676215  1719 layer_factory.hpp:77] Creating layer fc2
I1014 14:03:16.676226  1719 net.cpp:94] Creating Layer fc2
I1014 14:03:16.676232  1719 net.cpp:435] fc2 <- relu5
I1014 14:03:16.676241  1719 net.cpp:409] fc2 -> fc2
I1014 14:03:16.676364  1719 layer_factory.hpp:77] Creating layer fc2
I1014 14:03:16.676553  1719 net.cpp:144] Setting up fc2
I1014 14:03:16.676569  1719 net.cpp:151] Top shape: 50 10 (500)
I1014 14:03:16.676576  1719 net.cpp:159] Memory required for data: 34921200
I1014 14:03:16.676589  1719 layer_factory.hpp:77] Creating layer fc2_fixed
I1014 14:03:16.676599  1719 net.cpp:94] Creating Layer fc2_fixed
I1014 14:03:16.676604  1719 net.cpp:435] fc2_fixed <- fc2
I1014 14:03:16.676614  1719 net.cpp:396] fc2_fixed -> fc2 (in-place)
I1014 14:03:16.676666  1719 net.cpp:144] Setting up fc2_fixed
I1014 14:03:16.676681  1719 net.cpp:151] Top shape: 50 10 (500)
I1014 14:03:16.676686  1719 net.cpp:159] Memory required for data: 34923200
I1014 14:03:16.676694  1719 layer_factory.hpp:77] Creating layer fc2_fc2_fixed_0_split
I1014 14:03:16.676703  1719 net.cpp:94] Creating Layer fc2_fc2_fixed_0_split
I1014 14:03:16.676709  1719 net.cpp:435] fc2_fc2_fixed_0_split <- fc2
I1014 14:03:16.676717  1719 net.cpp:409] fc2_fc2_fixed_0_split -> fc2_fc2_fixed_0_split_0
I1014 14:03:16.676728  1719 net.cpp:409] fc2_fc2_fixed_0_split -> fc2_fc2_fixed_0_split_1
I1014 14:03:16.676738  1719 net.cpp:409] fc2_fc2_fixed_0_split -> fc2_fc2_fixed_0_split_2
I1014 14:03:16.676798  1719 net.cpp:144] Setting up fc2_fc2_fixed_0_split
I1014 14:03:16.676812  1719 net.cpp:151] Top shape: 50 10 (500)
I1014 14:03:16.676820  1719 net.cpp:151] Top shape: 50 10 (500)
I1014 14:03:16.676826  1719 net.cpp:151] Top shape: 50 10 (500)
I1014 14:03:16.676831  1719 net.cpp:159] Memory required for data: 34929200
I1014 14:03:16.676836  1719 layer_factory.hpp:77] Creating layer loss
I1014 14:03:16.676846  1719 net.cpp:94] Creating Layer loss
I1014 14:03:16.676851  1719 net.cpp:435] loss <- fc2_fc2_fixed_0_split_0
I1014 14:03:16.676859  1719 net.cpp:435] loss <- label_data_1_split_0
I1014 14:03:16.676868  1719 net.cpp:409] loss -> loss
…
