…
I0123 08:09:11.621889 80965 net.cpp:369] The NetState phase (0) differed from the phase (1) specified by a rule in layer accuracy-top5
I0123 08:09:11.622045 80965 net.cpp:98] Initializing net from parameters: 
state {
  phase: TRAIN
}
layer {
  name: "data"
  type: "ImageData"
  top: "data"
  top: "label"
  include {
    phase: TRAIN
  }
  transform_param {
    crop_size: 32
    mean_value: 125
    mean_value: 123
    mean_value: 114
  }
  image_data_param {
    source: "cifar10/deephi/miniVggNet/pruning/quantiz/data/calib/calibration.txt"
    batch_size: 10
    shuffle: true
    root_folder: "cifar10/deephi/miniVggNet/pruning/quantiz/data/calib/"
  }
}
layer {
  name: "data_fixed"
  type: "FixedNeuron"
  bottom: "data"
  top: "data"
  param {
    lr_mult: 0
    decay_mult: 0
  }
  fixed_param {
    fixed_method: OVER_FLOW
    bit_width: 8
    follow_data_layer: true
  }
}
layer {
  name: "conv1"
  type: "ConvolutionFixed"
  bottom: "data"
  top: "scale1"
  param {
    lr_mult: 1
    decay_mult: 1
  }
  param {
    lr_mult: 1
    decay_mult: 0
  }
  convolution_param {
    num_output: 14
    bias_term: true
    pad: 1
    kernel_size: 3
    stride: 1
    weight_filler {
      type: "xavier"
    }
    bias_filler {
      type: "constant"
      value: 0
    }
  }
  fixed_param {
    fixed_method: DIFF_S
    bit_width: 8
  }
}
layer {
  name: "relu1"
  type: "ReLU"
  bottom: "scale1"
  top: "relu1"
}
layer {
  name: "relu1_fixed"
  type: "FixedNeuron"
  bottom: "relu1"
  top: "relu1"
  param {
    lr_mult: 0
    decay_mult: 0
  }
  fixed_param {
    fixed_method: DIFF_S
    bit_width: 8
  }
}
layer {
  name: "conv2"
  type: "ConvolutionFixed"
  bottom: "relu1"
  top: "scale2"
  param {
    lr_mult: 1
    decay_mult: 1
  }
  param {
    lr_mult: 1
    decay_mult: 0
  }
  convolution_param {
    num_output: 20
    bias_term: true
    pad: 1
    kernel_size: 3
    stride: 1
    weight_filler {
      type: "xavier"
    }
    bias_filler {
      type: "constant"
      value: 0
    }
  }
  fixed_param {
    fixed_method: DIFF_S
    bit_width: 8
  }
}
layer {
  name: "relu2"
  type: "ReLU"
  bottom: "scale2"
  top: "relu2"
}
layer {
  name: "pool1"
  type: "Pooling"
  bottom: "relu2"
  top: "pool1"
  pooling_param {
    pool: MAX
    kernel_size: 2
    stride: 2
  }
}
layer {
  name: "pool1_fixed"
  type: "FixedNeuron"
  bottom: "pool1"
  top: "pool1"
  param {
    lr_mult: 0
    decay_mult: 0
  }
  fixed_param {
    fixed_method: DIFF_S
    bit_width: 8
  }
}
layer {
  name: "conv3"
  type: "ConvolutionFixed"
  bottom: "pool1"
  top: "scale3"
  param {
    lr_mult: 1
    decay_mult: 1
  }
  param {
    lr_mult: 1
    decay_mult: 0
  }
  convolution_param {
    num_output: 32
    bias_term: true
    pad: 1
    kernel_size: 3
    stride: 1
    weight_filler {
      type: "xavier"
    }
    bias_filler {
      type: "constant"
      value: 0
    }
  }
  fixed_param {
    fixed_method: DIFF_S
    bit_width: 8
  }
}
layer {
  name: "relu3"
  type: "ReLU"
  bottom: "scale3"
  top: "relu3"
}
layer {
  name: "relu3_fixed"
  type: "FixedNeuron"
  bottom: "relu3"
  top: "relu3"
  param {
    lr_mult: 0
    decay_mult: 0
  }
  fixed_param {
    fixed_method: DIFF_S
    bit_width: 8
  }
}
layer {
  name: "conv4"
  type: "ConvolutionFixed"
  bottom: "relu3"
  top: "scale4"
  param {
    lr_mult: 1
    decay_mult: 1
  }
  param {
    lr_mult: 1
    decay_mult: 0
  }
  convolution_param {
    num_output: 40
    bias_term: true
    pad: 1
    kernel_size: 3
    stride: 1
    weight_filler {
      type: "xavier"
    }
    bias_filler {
      type: "constant"
      value: 0
    }
  }
  fixed_param {
    fixed_method: DIFF_S
    bit_width: 8
  }
}
layer {
  name: "relu4"
  type: "ReLU"
  bottom: "scale4"
  top: "relu4"
}
layer {
  name: "pool2"
  type: "Pooling"
  bottom: "relu4"
  top: "pool2"
  pooling_param {
    pool: MAX
    kernel_size: 2
    stride: 2
  }
}
layer {
  name: "pool2_fixed"
  type: "FixedNeuron"
  bottom: "pool2"
  top: "pool2"
  param {
    lr_mult: 0
    decay_mult: 0
  }
  fixed_param {
    fixed_method: DIFF_S
    bit_width: 8
  }
}
layer {
  name: "fc1"
  type: "InnerProductFixed"
  bottom: "pool2"
  top: "scale5"
  param {
    lr_mult: 1
    decay_mult: 1
  }
  param {
    lr_mult: 1
    decay_mult: 0
  }
  inner_product_param {
    num_output: 512
    bias_term: true
    weight_filler {
      type: "xavier"
    }
    bias_filler {
      type: "constant"
      value: 1
    }
  }
  fixed_param {
    fixed_method: DIFF_S
    bit_width: 8
  }
}
layer {
  name: "relu5"
  type: "ReLU"
  bottom: "scale5"
  top: "relu5"
}
layer {
  name: "relu5_fixed"
  type: "FixedNeuron"
  bottom: "relu5"
  top: "relu5"
  param {
    lr_mult: 0
    decay_mult: 0
  }
  fixed_param {
    fixed_method: DIFF_S
    bit_width: 8
  }
}
layer {
  name: "fc2"
  type: "InnerProductFixed"
  bottom: "relu5"
  top: "fc2"
  param {
    lr_mult: 1
    decay_mult: 1
  }
  param {
    lr_mult: 2
    decay_mult: 0
  }
  inner_product_param {
    num_output: 10
    weight_filler {
      type: "xavier"
    }
    bias_filler {
      type: "constant"
      value: 1
    }
  }
  fixed_param {
    fixed_method: DIFF_S
    bit_width: 8
  }
}
layer {
  name: "fc2_fixed"
  type: "FixedNeuron"
  bottom: "fc2"
  top: "fc2"
  param {
    lr_mult: 0
    decay_mult: 0
  }
  fixed_param {
    fixed_method: DIFF_S
    bit_width: 8
  }
}
layer {
  name: "loss"
  type: "SoftmaxWithLoss"
  bottom: "fc2"
  bottom: "label"
  top: "loss"
}
I0123 08:09:11.622093 80965 layer_factory.hpp:123] Creating layer data
I0123 08:09:11.622114 80965 net.cpp:140] Creating Layer data
I0123 08:09:11.622120 80965 net.cpp:455] data -> data
I0123 08:09:11.622128 80965 net.cpp:455] data -> label
I0123 08:09:11.622501 80965 image_data_layer.cpp:87] Opening file cifar10/deephi/miniVggNet/pruning/quantiz/data/calib/calibration.txt
I0123 08:09:11.622727 80965 image_data_layer.cpp:97] Shuffling data
I0123 08:09:11.622746 80965 image_data_layer.cpp:102] A total of 1000 images.
I0123 08:09:11.622916 80965 image_data_layer.cpp:130] output data size: 10,3,32,32
I0123 08:09:11.624362 80965 internal_thread.cpp:73] Starting internal thread(s) on GPU 0
I0123 08:09:11.624418 80965 net.cpp:190] Setting up data
I0123 08:09:11.624424 80965 net.cpp:197] Top shape: 10 3 32 32 (30720)
I0123 08:09:11.624429 80965 net.cpp:197] Top shape: 10 (10)
I0123 08:09:11.624431 80965 net.cpp:205] Memory required for data: 122920
I0123 08:09:11.624435 80965 layer_factory.hpp:123] Creating layer data_fixed
I0123 08:09:11.624442 80965 net.cpp:140] Creating Layer data_fixed
I0123 08:09:11.624445 80965 net.cpp:481] data_fixed <- data
I0123 08:09:11.624454 80965 net.cpp:442] data_fixed -> data (in-place)
I0123 08:09:11.624486 80965 net.cpp:190] Setting up data_fixed
I0123 08:09:11.624492 80965 net.cpp:197] Top shape: 10 3 32 32 (30720)
I0123 08:09:11.624495 80965 net.cpp:205] Memory required for data: 245800
I0123 08:09:11.624506 80965 layer_factory.hpp:123] Creating layer conv1
I0123 08:09:11.624516 80965 net.cpp:140] Creating Layer conv1
I0123 08:09:11.624518 80965 net.cpp:481] conv1 <- data
I0123 08:09:11.624523 80965 net.cpp:455] conv1 -> scale1
I0123 08:09:11.625367 80965 layer_factory.hpp:123] Creating layer conv1
I0123 08:09:11.625746 80965 net.cpp:190] Setting up conv1
I0123 08:09:11.625752 80965 net.cpp:197] Top shape: 10 14 32 32 (143360)
I0123 08:09:11.625756 80965 net.cpp:205] Memory required for data: 819240
I0123 08:09:11.625763 80965 layer_factory.hpp:123] Creating layer relu1
I0123 08:09:11.625769 80965 net.cpp:140] Creating Layer relu1
I0123 08:09:11.625774 80965 net.cpp:481] relu1 <- scale1
I0123 08:09:11.625778 80965 net.cpp:455] relu1 -> relu1
I0123 08:09:11.625797 80965 net.cpp:190] Setting up relu1
I0123 08:09:11.625802 80965 net.cpp:197] Top shape: 10 14 32 32 (143360)
I0123 08:09:11.625804 80965 net.cpp:205] Memory required for data: 1392680
I0123 08:09:11.625808 80965 layer_factory.hpp:123] Creating layer relu1_fixed
I0123 08:09:11.625813 80965 net.cpp:140] Creating Layer relu1_fixed
I0123 08:09:11.625815 80965 net.cpp:481] relu1_fixed <- relu1
I0123 08:09:11.625819 80965 net.cpp:442] relu1_fixed -> relu1 (in-place)
I0123 08:09:11.625843 80965 net.cpp:190] Setting up relu1_fixed
I0123 08:09:11.625847 80965 net.cpp:197] Top shape: 10 14 32 32 (143360)
I0123 08:09:11.625850 80965 net.cpp:205] Memory required for data: 1966120
I0123 08:09:11.625854 80965 layer_factory.hpp:123] Creating layer conv2
I0123 08:09:11.625860 80965 net.cpp:140] Creating Layer conv2
I0123 08:09:11.625864 80965 net.cpp:481] conv2 <- relu1
I0123 08:09:11.625869 80965 net.cpp:455] conv2 -> scale2
I0123 08:09:11.626708 80965 layer_factory.hpp:123] Creating layer conv2
I0123 08:09:11.627475 80965 net.cpp:190] Setting up conv2
I0123 08:09:11.627482 80965 net.cpp:197] Top shape: 10 20 32 32 (204800)
I0123 08:09:11.627485 80965 net.cpp:205] Memory required for data: 2785320
I0123 08:09:11.627492 80965 layer_factory.hpp:123] Creating layer relu2
I0123 08:09:11.627497 80965 net.cpp:140] Creating Layer relu2
I0123 08:09:11.627501 80965 net.cpp:481] relu2 <- scale2
I0123 08:09:11.627504 80965 net.cpp:455] relu2 -> relu2
I0123 08:09:11.627554 80965 net.cpp:190] Setting up relu2
I0123 08:09:11.627559 80965 net.cpp:197] Top shape: 10 20 32 32 (204800)
I0123 08:09:11.627563 80965 net.cpp:205] Memory required for data: 3604520
I0123 08:09:11.627565 80965 layer_factory.hpp:123] Creating layer pool1
I0123 08:09:11.627570 80965 net.cpp:140] Creating Layer pool1
I0123 08:09:11.627573 80965 net.cpp:481] pool1 <- relu2
I0123 08:09:11.627578 80965 net.cpp:455] pool1 -> pool1
I0123 08:09:11.627614 80965 net.cpp:190] Setting up pool1
I0123 08:09:11.627619 80965 net.cpp:197] Top shape: 10 20 16 16 (51200)
I0123 08:09:11.627620 80965 net.cpp:205] Memory required for data: 3809320
I0123 08:09:11.627622 80965 layer_factory.hpp:123] Creating layer pool1_fixed
I0123 08:09:11.627629 80965 net.cpp:140] Creating Layer pool1_fixed
I0123 08:09:11.627630 80965 net.cpp:481] pool1_fixed <- pool1
I0123 08:09:11.627642 80965 net.cpp:442] pool1_fixed -> pool1 (in-place)
I0123 08:09:11.627667 80965 net.cpp:190] Setting up pool1_fixed
I0123 08:09:11.627712 80965 net.cpp:197] Top shape: 10 20 16 16 (51200)
I0123 08:09:11.627717 80965 net.cpp:205] Memory required for data: 4014120
I0123 08:09:11.627720 80965 layer_factory.hpp:123] Creating layer conv3
I0123 08:09:11.627728 80965 net.cpp:140] Creating Layer conv3
I0123 08:09:11.627732 80965 net.cpp:481] conv3 <- pool1
I0123 08:09:11.627735 80965 net.cpp:455] conv3 -> scale3
I0123 08:09:11.628546 80965 layer_factory.hpp:123] Creating layer conv3
I0123 08:09:11.628830 80965 net.cpp:190] Setting up conv3
I0123 08:09:11.628837 80965 net.cpp:197] Top shape: 10 32 16 16 (81920)
I0123 08:09:11.628841 80965 net.cpp:205] Memory required for data: 4341800
I0123 08:09:11.628849 80965 layer_factory.hpp:123] Creating layer relu3
I0123 08:09:11.628854 80965 net.cpp:140] Creating Layer relu3
I0123 08:09:11.628856 80965 net.cpp:481] relu3 <- scale3
I0123 08:09:11.628861 80965 net.cpp:455] relu3 -> relu3
I0123 08:09:11.628875 80965 net.cpp:190] Setting up relu3
I0123 08:09:11.628880 80965 net.cpp:197] Top shape: 10 32 16 16 (81920)
I0123 08:09:11.628883 80965 net.cpp:205] Memory required for data: 4669480
I0123 08:09:11.628886 80965 layer_factory.hpp:123] Creating layer relu3_fixed
I0123 08:09:11.628890 80965 net.cpp:140] Creating Layer relu3_fixed
I0123 08:09:11.628892 80965 net.cpp:481] relu3_fixed <- relu3
I0123 08:09:11.628896 80965 net.cpp:442] relu3_fixed -> relu3 (in-place)
I0123 08:09:11.628921 80965 net.cpp:190] Setting up relu3_fixed
I0123 08:09:11.628926 80965 net.cpp:197] Top shape: 10 32 16 16 (81920)
I0123 08:09:11.628928 80965 net.cpp:205] Memory required for data: 4997160
I0123 08:09:11.628931 80965 layer_factory.hpp:123] Creating layer conv4
I0123 08:09:11.628938 80965 net.cpp:140] Creating Layer conv4
I0123 08:09:11.628944 80965 net.cpp:481] conv4 <- relu3
I0123 08:09:11.628948 80965 net.cpp:455] conv4 -> scale4
I0123 08:09:11.629143 80965 layer_factory.hpp:123] Creating layer conv4
I0123 08:09:11.629437 80965 net.cpp:190] Setting up conv4
I0123 08:09:11.629443 80965 net.cpp:197] Top shape: 10 40 16 16 (102400)
I0123 08:09:11.629446 80965 net.cpp:205] Memory required for data: 5406760
I0123 08:09:11.629451 80965 layer_factory.hpp:123] Creating layer relu4
I0123 08:09:11.629456 80965 net.cpp:140] Creating Layer relu4
I0123 08:09:11.629457 80965 net.cpp:481] relu4 <- scale4
I0123 08:09:11.629462 80965 net.cpp:455] relu4 -> relu4
I0123 08:09:11.629480 80965 net.cpp:190] Setting up relu4
I0123 08:09:11.629485 80965 net.cpp:197] Top shape: 10 40 16 16 (102400)
I0123 08:09:11.629487 80965 net.cpp:205] Memory required for data: 5816360
I0123 08:09:11.629489 80965 layer_factory.hpp:123] Creating layer pool2
I0123 08:09:11.629494 80965 net.cpp:140] Creating Layer pool2
I0123 08:09:11.629498 80965 net.cpp:481] pool2 <- relu4
I0123 08:09:11.629500 80965 net.cpp:455] pool2 -> pool2
I0123 08:09:11.629526 80965 net.cpp:190] Setting up pool2
I0123 08:09:11.629532 80965 net.cpp:197] Top shape: 10 40 8 8 (25600)
I0123 08:09:11.629534 80965 net.cpp:205] Memory required for data: 5918760
I0123 08:09:11.629536 80965 layer_factory.hpp:123] Creating layer pool2_fixed
I0123 08:09:11.629540 80965 net.cpp:140] Creating Layer pool2_fixed
I0123 08:09:11.629544 80965 net.cpp:481] pool2_fixed <- pool2
I0123 08:09:11.629546 80965 net.cpp:442] pool2_fixed -> pool2 (in-place)
I0123 08:09:11.629570 80965 net.cpp:190] Setting up pool2_fixed
I0123 08:09:11.629573 80965 net.cpp:197] Top shape: 10 40 8 8 (25600)
I0123 08:09:11.629576 80965 net.cpp:205] Memory required for data: 6021160
I0123 08:09:11.629580 80965 layer_factory.hpp:123] Creating layer fc1
I0123 08:09:11.629586 80965 net.cpp:140] Creating Layer fc1
I0123 08:09:11.629588 80965 net.cpp:481] fc1 <- pool2
I0123 08:09:11.629593 80965 net.cpp:455] fc1 -> scale5
I0123 08:09:11.637516 80965 layer_factory.hpp:123] Creating layer fc1
I0123 08:09:11.645310 80965 net.cpp:190] Setting up fc1
I0123 08:09:11.645336 80965 net.cpp:197] Top shape: 10 512 (5120)
I0123 08:09:11.645339 80965 net.cpp:205] Memory required for data: 6041640
I0123 08:09:11.645344 80965 layer_factory.hpp:123] Creating layer relu5
I0123 08:09:11.645350 80965 net.cpp:140] Creating Layer relu5
I0123 08:09:11.645354 80965 net.cpp:481] relu5 <- scale5
I0123 08:09:11.645359 80965 net.cpp:455] relu5 -> relu5
I0123 08:09:11.645375 80965 net.cpp:190] Setting up relu5
I0123 08:09:11.645378 80965 net.cpp:197] Top shape: 10 512 (5120)
I0123 08:09:11.645380 80965 net.cpp:205] Memory required for data: 6062120
I0123 08:09:11.645383 80965 layer_factory.hpp:123] Creating layer relu5_fixed
I0123 08:09:11.645387 80965 net.cpp:140] Creating Layer relu5_fixed
I0123 08:09:11.645390 80965 net.cpp:481] relu5_fixed <- relu5
I0123 08:09:11.645393 80965 net.cpp:442] relu5_fixed -> relu5 (in-place)
I0123 08:09:11.645434 80965 net.cpp:190] Setting up relu5_fixed
I0123 08:09:11.645439 80965 net.cpp:197] Top shape: 10 512 (5120)
I0123 08:09:11.645442 80965 net.cpp:205] Memory required for data: 6082600
I0123 08:09:11.645444 80965 layer_factory.hpp:123] Creating layer fc2
I0123 08:09:11.645450 80965 net.cpp:140] Creating Layer fc2
I0123 08:09:11.645452 80965 net.cpp:481] fc2 <- relu5
I0123 08:09:11.645457 80965 net.cpp:455] fc2 -> fc2
I0123 08:09:11.645550 80965 layer_factory.hpp:123] Creating layer fc2
I0123 08:09:11.645684 80965 net.cpp:190] Setting up fc2
I0123 08:09:11.645689 80965 net.cpp:197] Top shape: 10 10 (100)
I0123 08:09:11.645690 80965 net.cpp:205] Memory required for data: 6083000
I0123 08:09:11.645699 80965 layer_factory.hpp:123] Creating layer fc2_fixed
I0123 08:09:11.645702 80965 net.cpp:140] Creating Layer fc2_fixed
I0123 08:09:11.645705 80965 net.cpp:481] fc2_fixed <- fc2
I0123 08:09:11.645709 80965 net.cpp:442] fc2_fixed -> fc2 (in-place)
I0123 08:09:11.645732 80965 net.cpp:190] Setting up fc2_fixed
I0123 08:09:11.645737 80965 net.cpp:197] Top shape: 10 10 (100)
I0123 08:09:11.645740 80965 net.cpp:205] Memory required for data: 6083400
I0123 08:09:11.645742 80965 layer_factory.hpp:123] Creating layer loss
I0123 08:09:11.645747 80965 net.cpp:140] Creating Layer loss
I0123 08:09:11.645750 80965 net.cpp:481] loss <- fc2
I0123 08:09:11.645753 80965 net.cpp:481] loss <- label
I0123 08:09:11.645758 80965 net.cpp:455] loss -> loss
I0123 08:09:11.645764 80965 layer_factory.hpp:123] Creating layer loss
…
I0123 08:09:12.070744 80965 net_test.cpp:369] Net type: other
I0123 08:09:12.070799 80965 net.cpp:369] The NetState phase (1) differed from the phase (0) specified by a rule in layer data
I0123 08:09:12.070955 80965 net.cpp:98] Initializing net from parameters: 
layer {
  name: "data"
  type: "Data"
  top: "data"
  top: "label"
  include {
    phase: TEST
  }
  transform_param {
    mirror: false
    mean_value: 125
    mean_value: 123
    mean_value: 114
  }
  data_param {
    source: "cifar10/input/lmdb/valid_lmdb"
    batch_size: 50
    backend: LMDB
  }
}
layer {
  name: "data_fixed"
  type: "FixedNeuron"
  bottom: "data"
  top: "data"
  param {
    lr_mult: 0
    decay_mult: 0
  }
  fixed_param {
    fixed_method: OVER_FLOW
    bit_width: 8
    follow_data_layer: true
  }
}
layer {
  name: "conv1"
  type: "ConvolutionFixed"
  bottom: "data"
  top: "scale1"
  param {
    lr_mult: 1
    decay_mult: 1
  }
  param {
    lr_mult: 1
    decay_mult: 0
  }
  convolution_param {
    num_output: 14
    bias_term: true
    pad: 1
    kernel_size: 3
    stride: 1
    weight_filler {
      type: "xavier"
    }
    bias_filler {
      type: "constant"
      value: 0
    }
  }
  fixed_param {
    fixed_method: DIFF_S
    bit_width: 8
  }
}
layer {
  name: "relu1"
  type: "ReLU"
  bottom: "scale1"
  top: "relu1"
}
layer {
  name: "relu1_fixed"
  type: "FixedNeuron"
  bottom: "relu1"
  top: "relu1"
  param {
    lr_mult: 0
    decay_mult: 0
  }
  fixed_param {
    fixed_method: DIFF_S
    bit_width: 8
  }
}
layer {
  name: "conv2"
  type: "ConvolutionFixed"
  bottom: "relu1"
  top: "scale2"
  param {
    lr_mult: 1
    decay_mult: 1
  }
  param {
    lr_mult: 1
    decay_mult: 0
  }
  convolution_param {
    num_output: 20
    bias_term: true
    pad: 1
    kernel_size: 3
    stride: 1
    weight_filler {
      type: "xavier"
    }
    bias_filler {
      type: "constant"
      value: 0
    }
  }
  fixed_param {
    fixed_method: DIFF_S
    bit_width: 8
  }
}
layer {
  name: "relu2"
  type: "ReLU"
  bottom: "scale2"
  top: "relu2"
}
layer {
  name: "pool1"
  type: "Pooling"
  bottom: "relu2"
  top: "pool1"
  pooling_param {
    pool: MAX
    kernel_size: 2
    stride: 2
  }
}
layer {
  name: "pool1_fixed"
  type: "FixedNeuron"
  bottom: "pool1"
  top: "pool1"
  param {
    lr_mult: 0
    decay_mult: 0
  }
  fixed_param {
    fixed_method: DIFF_S
    bit_width: 8
  }
}
layer {
  name: "conv3"
  type: "ConvolutionFixed"
  bottom: "pool1"
  top: "scale3"
  param {
    lr_mult: 1
    decay_mult: 1
  }
  param {
    lr_mult: 1
    decay_mult: 0
  }
  convolution_param {
    num_output: 32
    bias_term: true
    pad: 1
    kernel_size: 3
    stride: 1
    weight_filler {
      type: "xavier"
    }
    bias_filler {
      type: "constant"
      value: 0
    }
  }
  fixed_param {
    fixed_method: DIFF_S
    bit_width: 8
  }
}
layer {
  name: "relu3"
  type: "ReLU"
  bottom: "scale3"
  top: "relu3"
}
layer {
  name: "relu3_fixed"
  type: "FixedNeuron"
  bottom: "relu3"
  top: "relu3"
  param {
    lr_mult: 0
    decay_mult: 0
  }
  fixed_param {
    fixed_method: DIFF_S
    bit_width: 8
  }
}
layer {
  name: "conv4"
  type: "ConvolutionFixed"
  bottom: "relu3"
  top: "scale4"
  param {
    lr_mult: 1
    decay_mult: 1
  }
  param {
    lr_mult: 1
    decay_mult: 0
  }
  convolution_param {
    num_output: 40
    bias_term: true
    pad: 1
    kernel_size: 3
    stride: 1
    weight_filler {
      type: "xavier"
    }
    bias_filler {
      type: "constant"
      value: 0
    }
  }
  fixed_param {
    fixed_method: DIFF_S
    bit_width: 8
  }
}
layer {
  name: "relu4"
  type: "ReLU"
  bottom: "scale4"
  top: "relu4"
}
layer {
  name: "pool2"
  type: "Pooling"
  bottom: "relu4"
  top: "pool2"
  pooling_param {
    pool: MAX
    kernel_size: 2
    stride: 2
  }
}
layer {
  name: "pool2_fixed"
  type: "FixedNeuron"
  bottom: "pool2"
  top: "pool2"
  param {
    lr_mult: 0
    decay_mult: 0
  }
  fixed_param {
    fixed_method: DIFF_S
    bit_width: 8
  }
}
layer {
  name: "fc1"
  type: "InnerProductFixed"
  bottom: "pool2"
  top: "scale5"
  param {
    lr_mult: 1
    decay_mult: 1
  }
  param {
    lr_mult: 1
    decay_mult: 0
  }
  inner_product_param {
    num_output: 512
    bias_term: true
    weight_filler {
      type: "xavier"
    }
    bias_filler {
      type: "constant"
      value: 1
    }
  }
  fixed_param {
    fixed_method: DIFF_S
    bit_width: 8
  }
}
layer {
  name: "relu5"
  type: "ReLU"
  bottom: "scale5"
  top: "relu5"
}
layer {
  name: "relu5_fixed"
  type: "FixedNeuron"
  bottom: "relu5"
  top: "relu5"
  param {
    lr_mult: 0
    decay_mult: 0
  }
  fixed_param {
    fixed_method: DIFF_S
    bit_width: 8
  }
}
layer {
  name: "fc2"
  type: "InnerProductFixed"
  bottom: "relu5"
  top: "fc2"
  param {
    lr_mult: 1
    decay_mult: 1
  }
  param {
    lr_mult: 2
    decay_mult: 0
  }
  inner_product_param {
    num_output: 10
    weight_filler {
      type: "xavier"
    }
    bias_filler {
      type: "constant"
      value: 1
    }
  }
  fixed_param {
    fixed_method: DIFF_S
    bit_width: 8
  }
}
layer {
  name: "fc2_fixed"
  type: "FixedNeuron"
  bottom: "fc2"
  top: "fc2"
  param {
    lr_mult: 0
    decay_mult: 0
  }
  fixed_param {
    fixed_method: DIFF_S
    bit_width: 8
  }
}
layer {
  name: "loss"
  type: "SoftmaxWithLoss"
  bottom: "fc2"
  bottom: "label"
  top: "loss"
}
layer {
  name: "accuracy-top1"
  type: "Accuracy"
  bottom: "fc2"
  bottom: "label"
  top: "top-1"
  include {
    phase: TEST
  }
}
layer {
  name: "accuracy-top5"
  type: "Accuracy"
  bottom: "fc2"
  bottom: "label"
  top: "top-5"
  include {
    phase: TEST
  }
  accuracy_param {
    top_k: 5
  }
}
I0123 08:09:12.071050 80965 layer_factory.hpp:123] Creating layer data
I0123 08:09:12.071100 80965 internal_thread.cpp:73] Starting internal thread(s) on GPU 0
I0123 08:09:12.071897 80965 net.cpp:140] Creating Layer data
I0123 08:09:12.071907 80965 net.cpp:455] data -> data
I0123 08:09:12.071915 80965 net.cpp:455] data -> label
I0123 08:09:12.072542 81002 db_lmdb.cpp:81] Opened lmdb cifar10/input/lmdb/valid_lmdb
I0123 08:09:12.072595 81002 data_reader.cpp:166] TEST: reading data using 1 channel(s)
I0123 08:09:12.072661 80965 data_layer.cpp:124] ReshapePrefetch 50, 3, 32, 32
I0123 08:09:12.072743 80965 data_layer.cpp:129] output data size: 50,3,32,32
I0123 08:09:12.075682 80965 internal_thread.cpp:73] Starting internal thread(s) on GPU 0
I0123 08:09:12.075719 80965 net.cpp:190] Setting up data
I0123 08:09:12.075726 80965 net.cpp:197] Top shape: 50 3 32 32 (153600)
I0123 08:09:12.075728 80965 net.cpp:197] Top shape: 50 (50)
I0123 08:09:12.075731 80965 net.cpp:205] Memory required for data: 614600
I0123 08:09:12.075733 80965 layer_factory.hpp:123] Creating layer label_data_1_split
I0123 08:09:12.075740 80965 net.cpp:140] Creating Layer label_data_1_split
I0123 08:09:12.075743 80965 net.cpp:481] label_data_1_split <- label
I0123 08:09:12.075748 80965 net.cpp:455] label_data_1_split -> label_data_1_split_0
I0123 08:09:12.075758 80965 net.cpp:455] label_data_1_split -> label_data_1_split_1
I0123 08:09:12.075772 80965 net.cpp:455] label_data_1_split -> label_data_1_split_2
I0123 08:09:12.075820 80965 net.cpp:190] Setting up label_data_1_split
I0123 08:09:12.075825 80965 net.cpp:197] Top shape: 50 (50)
I0123 08:09:12.075829 80965 net.cpp:197] Top shape: 50 (50)
I0123 08:09:12.075832 80965 net.cpp:197] Top shape: 50 (50)
I0123 08:09:12.075834 80965 net.cpp:205] Memory required for data: 615200
I0123 08:09:12.075837 80965 layer_factory.hpp:123] Creating layer data_fixed
I0123 08:09:12.075845 80965 net.cpp:140] Creating Layer data_fixed
I0123 08:09:12.075848 80965 net.cpp:481] data_fixed <- data
I0123 08:09:12.075853 80965 net.cpp:442] data_fixed -> data (in-place)
I0123 08:09:12.075902 80965 net.cpp:190] Setting up data_fixed
I0123 08:09:12.075907 80965 net.cpp:197] Top shape: 50 3 32 32 (153600)
I0123 08:09:12.075911 80965 net.cpp:205] Memory required for data: 1229600
I0123 08:09:12.075917 80965 layer_factory.hpp:123] Creating layer conv1
I0123 08:09:12.075928 80965 net.cpp:140] Creating Layer conv1
I0123 08:09:12.075933 80965 net.cpp:481] conv1 <- data
I0123 08:09:12.075939 80965 net.cpp:455] conv1 -> scale1
I0123 08:09:12.076670 80965 layer_factory.hpp:123] Creating layer conv1
I0123 08:09:12.076958 80965 net.cpp:190] Setting up conv1
I0123 08:09:12.076964 80965 net.cpp:197] Top shape: 50 14 32 32 (716800)
I0123 08:09:12.076967 80965 net.cpp:205] Memory required for data: 4096800
I0123 08:09:12.076977 80965 layer_factory.hpp:123] Creating layer relu1
I0123 08:09:12.076985 80965 net.cpp:140] Creating Layer relu1
I0123 08:09:12.076989 80965 net.cpp:481] relu1 <- scale1
I0123 08:09:12.076994 80965 net.cpp:455] relu1 -> relu1
I0123 08:09:12.077018 80965 net.cpp:190] Setting up relu1
I0123 08:09:12.077023 80965 net.cpp:197] Top shape: 50 14 32 32 (716800)
I0123 08:09:12.077024 80965 net.cpp:205] Memory required for data: 6964000
I0123 08:09:12.077026 80965 layer_factory.hpp:123] Creating layer relu1_fixed
I0123 08:09:12.077031 80965 net.cpp:140] Creating Layer relu1_fixed
I0123 08:09:12.077035 80965 net.cpp:481] relu1_fixed <- relu1
I0123 08:09:12.077040 80965 net.cpp:442] relu1_fixed -> relu1 (in-place)
I0123 08:09:12.077067 80965 net.cpp:190] Setting up relu1_fixed
I0123 08:09:12.077071 80965 net.cpp:197] Top shape: 50 14 32 32 (716800)
I0123 08:09:12.077073 80965 net.cpp:205] Memory required for data: 9831200
I0123 08:09:12.077077 80965 layer_factory.hpp:123] Creating layer conv2
I0123 08:09:12.077086 80965 net.cpp:140] Creating Layer conv2
I0123 08:09:12.077090 80965 net.cpp:481] conv2 <- relu1
I0123 08:09:12.077095 80965 net.cpp:455] conv2 -> scale2
I0123 08:09:12.077780 80965 layer_factory.hpp:123] Creating layer conv2
I0123 08:09:12.078677 80965 net.cpp:190] Setting up conv2
I0123 08:09:12.078685 80965 net.cpp:197] Top shape: 50 20 32 32 (1024000)
I0123 08:09:12.078687 80965 net.cpp:205] Memory required for data: 13927200
I0123 08:09:12.078696 80965 layer_factory.hpp:123] Creating layer relu2
I0123 08:09:12.078701 80965 net.cpp:140] Creating Layer relu2
I0123 08:09:12.078704 80965 net.cpp:481] relu2 <- scale2
I0123 08:09:12.078711 80965 net.cpp:455] relu2 -> relu2
I0123 08:09:12.078769 80965 net.cpp:190] Setting up relu2
I0123 08:09:12.078774 80965 net.cpp:197] Top shape: 50 20 32 32 (1024000)
I0123 08:09:12.078776 80965 net.cpp:205] Memory required for data: 18023200
I0123 08:09:12.078778 80965 layer_factory.hpp:123] Creating layer pool1
I0123 08:09:12.078786 80965 net.cpp:140] Creating Layer pool1
I0123 08:09:12.078791 80965 net.cpp:481] pool1 <- relu2
I0123 08:09:12.078796 80965 net.cpp:455] pool1 -> pool1
I0123 08:09:12.078838 80965 net.cpp:190] Setting up pool1
I0123 08:09:12.078843 80965 net.cpp:197] Top shape: 50 20 16 16 (256000)
I0123 08:09:12.078845 80965 net.cpp:205] Memory required for data: 19047200
I0123 08:09:12.078847 80965 layer_factory.hpp:123] Creating layer pool1_fixed
I0123 08:09:12.078852 80965 net.cpp:140] Creating Layer pool1_fixed
I0123 08:09:12.078856 80965 net.cpp:481] pool1_fixed <- pool1
I0123 08:09:12.078861 80965 net.cpp:442] pool1_fixed -> pool1 (in-place)
I0123 08:09:12.078898 80965 net.cpp:190] Setting up pool1_fixed
I0123 08:09:12.078903 80965 net.cpp:197] Top shape: 50 20 16 16 (256000)
I0123 08:09:12.078907 80965 net.cpp:205] Memory required for data: 20071200
I0123 08:09:12.078909 80965 layer_factory.hpp:123] Creating layer conv3
I0123 08:09:12.078918 80965 net.cpp:140] Creating Layer conv3
I0123 08:09:12.078922 80965 net.cpp:481] conv3 <- pool1
I0123 08:09:12.078929 80965 net.cpp:455] conv3 -> scale3
I0123 08:09:12.079766 80965 layer_factory.hpp:123] Creating layer conv3
I0123 08:09:12.080060 80965 net.cpp:190] Setting up conv3
I0123 08:09:12.080068 80965 net.cpp:197] Top shape: 50 32 16 16 (409600)
I0123 08:09:12.080071 80965 net.cpp:205] Memory required for data: 21709600
I0123 08:09:12.080081 80965 layer_factory.hpp:123] Creating layer relu3
I0123 08:09:12.080090 80965 net.cpp:140] Creating Layer relu3
I0123 08:09:12.080093 80965 net.cpp:481] relu3 <- scale3
I0123 08:09:12.080101 80965 net.cpp:455] relu3 -> relu3
I0123 08:09:12.080122 80965 net.cpp:190] Setting up relu3
I0123 08:09:12.080130 80965 net.cpp:197] Top shape: 50 32 16 16 (409600)
I0123 08:09:12.080134 80965 net.cpp:205] Memory required for data: 23348000
I0123 08:09:12.080137 80965 layer_factory.hpp:123] Creating layer relu3_fixed
I0123 08:09:12.080142 80965 net.cpp:140] Creating Layer relu3_fixed
I0123 08:09:12.080145 80965 net.cpp:481] relu3_fixed <- relu3
I0123 08:09:12.080152 80965 net.cpp:442] relu3_fixed -> relu3 (in-place)
I0123 08:09:12.080183 80965 net.cpp:190] Setting up relu3_fixed
I0123 08:09:12.080188 80965 net.cpp:197] Top shape: 50 32 16 16 (409600)
I0123 08:09:12.080191 80965 net.cpp:205] Memory required for data: 24986400
I0123 08:09:12.080195 80965 layer_factory.hpp:123] Creating layer conv4
I0123 08:09:12.080206 80965 net.cpp:140] Creating Layer conv4
I0123 08:09:12.080212 80965 net.cpp:481] conv4 <- relu3
I0123 08:09:12.080238 80965 net.cpp:455] conv4 -> scale4
I0123 08:09:12.080457 80965 layer_factory.hpp:123] Creating layer conv4
I0123 08:09:12.080782 80965 net.cpp:190] Setting up conv4
I0123 08:09:12.080790 80965 net.cpp:197] Top shape: 50 40 16 16 (512000)
I0123 08:09:12.080791 80965 net.cpp:205] Memory required for data: 27034400
I0123 08:09:12.080797 80965 layer_factory.hpp:123] Creating layer relu4
I0123 08:09:12.080804 80965 net.cpp:140] Creating Layer relu4
I0123 08:09:12.080811 80965 net.cpp:481] relu4 <- scale4
I0123 08:09:12.080816 80965 net.cpp:455] relu4 -> relu4
I0123 08:09:12.080834 80965 net.cpp:190] Setting up relu4
I0123 08:09:12.080842 80965 net.cpp:197] Top shape: 50 40 16 16 (512000)
I0123 08:09:12.080845 80965 net.cpp:205] Memory required for data: 29082400
I0123 08:09:12.080848 80965 layer_factory.hpp:123] Creating layer pool2
I0123 08:09:12.080855 80965 net.cpp:140] Creating Layer pool2
I0123 08:09:12.080862 80965 net.cpp:481] pool2 <- relu4
I0123 08:09:12.080868 80965 net.cpp:455] pool2 -> pool2
I0123 08:09:12.080900 80965 net.cpp:190] Setting up pool2
I0123 08:09:12.080906 80965 net.cpp:197] Top shape: 50 40 8 8 (128000)
I0123 08:09:12.080909 80965 net.cpp:205] Memory required for data: 29594400
I0123 08:09:12.080912 80965 layer_factory.hpp:123] Creating layer pool2_fixed
I0123 08:09:12.080919 80965 net.cpp:140] Creating Layer pool2_fixed
I0123 08:09:12.080924 80965 net.cpp:481] pool2_fixed <- pool2
I0123 08:09:12.080929 80965 net.cpp:442] pool2_fixed -> pool2 (in-place)
I0123 08:09:12.080960 80965 net.cpp:190] Setting up pool2_fixed
I0123 08:09:12.080965 80965 net.cpp:197] Top shape: 50 40 8 8 (128000)
I0123 08:09:12.080968 80965 net.cpp:205] Memory required for data: 30106400
I0123 08:09:12.080973 80965 layer_factory.hpp:123] Creating layer fc1
I0123 08:09:12.080982 80965 net.cpp:140] Creating Layer fc1
I0123 08:09:12.080987 80965 net.cpp:481] fc1 <- pool2
I0123 08:09:12.080994 80965 net.cpp:455] fc1 -> scale5
I0123 08:09:12.089948 80965 layer_factory.hpp:123] Creating layer fc1
I0123 08:09:12.098790 80965 net.cpp:190] Setting up fc1
I0123 08:09:12.098809 80965 net.cpp:197] Top shape: 50 512 (25600)
I0123 08:09:12.098811 80965 net.cpp:205] Memory required for data: 30208800
I0123 08:09:12.098820 80965 layer_factory.hpp:123] Creating layer relu5
I0123 08:09:12.098827 80965 net.cpp:140] Creating Layer relu5
I0123 08:09:12.098832 80965 net.cpp:481] relu5 <- scale5
I0123 08:09:12.098839 80965 net.cpp:455] relu5 -> relu5
I0123 08:09:12.098868 80965 net.cpp:190] Setting up relu5
I0123 08:09:12.098875 80965 net.cpp:197] Top shape: 50 512 (25600)
I0123 08:09:12.098877 80965 net.cpp:205] Memory required for data: 30311200
I0123 08:09:12.098879 80965 layer_factory.hpp:123] Creating layer relu5_fixed
I0123 08:09:12.098886 80965 net.cpp:140] Creating Layer relu5_fixed
I0123 08:09:12.098892 80965 net.cpp:481] relu5_fixed <- relu5
I0123 08:09:12.098897 80965 net.cpp:442] relu5_fixed -> relu5 (in-place)
I0123 08:09:12.098927 80965 net.cpp:190] Setting up relu5_fixed
I0123 08:09:12.098932 80965 net.cpp:197] Top shape: 50 512 (25600)
I0123 08:09:12.098933 80965 net.cpp:205] Memory required for data: 30413600
I0123 08:09:12.098937 80965 layer_factory.hpp:123] Creating layer fc2
I0123 08:09:12.098944 80965 net.cpp:140] Creating Layer fc2
I0123 08:09:12.098950 80965 net.cpp:481] fc2 <- relu5
I0123 08:09:12.098956 80965 net.cpp:455] fc2 -> fc2
I0123 08:09:12.099056 80965 layer_factory.hpp:123] Creating layer fc2
I0123 08:09:12.099197 80965 net.cpp:190] Setting up fc2
I0123 08:09:12.099203 80965 net.cpp:197] Top shape: 50 10 (500)
I0123 08:09:12.099205 80965 net.cpp:205] Memory required for data: 30415600
I0123 08:09:12.099216 80965 layer_factory.hpp:123] Creating layer fc2_fixed
I0123 08:09:12.099225 80965 net.cpp:140] Creating Layer fc2_fixed
I0123 08:09:12.099229 80965 net.cpp:481] fc2_fixed <- fc2
I0123 08:09:12.099234 80965 net.cpp:442] fc2_fixed -> fc2 (in-place)
I0123 08:09:12.099267 80965 net.cpp:190] Setting up fc2_fixed
I0123 08:09:12.099273 80965 net.cpp:197] Top shape: 50 10 (500)
I0123 08:09:12.099275 80965 net.cpp:205] Memory required for data: 30417600
I0123 08:09:12.099280 80965 layer_factory.hpp:123] Creating layer fc2_fc2_fixed_0_split
I0123 08:09:12.099287 80965 net.cpp:140] Creating Layer fc2_fc2_fixed_0_split
I0123 08:09:12.099293 80965 net.cpp:481] fc2_fc2_fixed_0_split <- fc2
I0123 08:09:12.099299 80965 net.cpp:455] fc2_fc2_fixed_0_split -> fc2_fc2_fixed_0_split_0
I0123 08:09:12.099308 80965 net.cpp:455] fc2_fc2_fixed_0_split -> fc2_fc2_fixed_0_split_1
I0123 08:09:12.099318 80965 net.cpp:455] fc2_fc2_fixed_0_split -> fc2_fc2_fixed_0_split_2
I0123 08:09:12.099361 80965 net.cpp:190] Setting up fc2_fc2_fixed_0_split
I0123 08:09:12.099367 80965 net.cpp:197] Top shape: 50 10 (500)
I0123 08:09:12.099370 80965 net.cpp:197] Top shape: 50 10 (500)
I0123 08:09:12.099375 80965 net.cpp:197] Top shape: 50 10 (500)
I0123 08:09:12.099377 80965 net.cpp:205] Memory required for data: 30423600
I0123 08:09:12.099382 80965 layer_factory.hpp:123] Creating layer loss
I0123 08:09:12.099390 80965 net.cpp:140] Creating Layer loss
I0123 08:09:12.099395 80965 net.cpp:481] loss <- fc2_fc2_fixed_0_split_0
I0123 08:09:12.099400 80965 net.cpp:481] loss <- label_data_1_split_0
I0123 08:09:12.099407 80965 net.cpp:455] loss -> loss
…
