…
      sampler {
        min_scale: 0.3
        max_scale: 1
        min_aspect_ratio: 0.5
        max_aspect_ratio: 2
      }
      sample_constraint {
        min_jaccard_overlap: 0.9
      }
      max_sample: 1
      max_trials: 50
    }
    batch_sampler {
      sampler {
        min_scale: 0.3
        max_scale: 1
        min_aspect_ratio: 0.5
        max_aspect_ratio: 2
      }
      sample_constraint {
        max_jaccard_overlap: 1
      }
      max_sample: 1
      max_trials: 50
    }
    label_map_file: "data/VOC0712/labelmap_voc.prototxt"
  }
}
layer {
  name: "conv1_1"
  type: "Convolution"
  bottom: "data"
  top: "conv1_1"
  param {
    lr_mult: 1
    decay_mult: 1
  }
  param {
    lr_mult: 2
    decay_mult: 0
  }
  convolution_param {
    num_output: 64
    pad: 1
    kernel_size: 3
    weight_filler {
      type: "xavier"
    }
    bias_filler {
      type: "constant"
      value: 0
    }
  }
}
layer {
  name: "relu1_1"
  type: "ReLU"
  bottom: "conv1_1"
  top: "conv1_1"
}
layer {
  name: "conv1_2"
  type: "Convolution"
  bottom: "conv1_1"
  top: "conv1_2"
  param {
    lr_mult: 1
    decay_mult: 1
  }
  param {
    lr_mult: 2
    decay_mult: 0
  }
  convolution_param {
    num_output: 64
    pad: 1
    kernel_size: 3
    weight_filler {
      type: "xavier"
    }
    bias_filler {
      type: "constant"
      value: 0
    }
  }
}
layer {
  name: "relu1_2"
  type: "ReLU"
  bottom: "conv1_2"
  top: "conv1_2"
}
layer {
  name: "pool1"
  type: "Pooling"
  bottom: "conv1_2"
  top: "pool1"
  pooling_param {
    pool: MAX
    kernel_size: 2
    stride: 2
  }
}
layer {
  name: "conv2_1"
  type: "Convolution"
  bottom: "pool1"
  top: "conv2_1"
  param {
    lr_mult: 1
    decay_mult: 1
  }
  param {
    lr_mult: 2
    decay_mult: 0
  }
  convolution_param {
    num_output: 128
    pad: 1
    kernel_size: 3
    weight_filler {
      type: "xavier"
    }
    bias_filler {
      type: "constant"
      value: 0
    }
  }
}
layer {
  name: "relu2_1"
  type: "ReLU"
  bottom: "conv2_1"
  top: "conv2_1"
}
layer {
  name: "conv2_2"
  type: "Convolution"
  bottom: "conv2_1"
  top: "conv2_2"
  param {
    lr_mult: 1
    decay_mult: 1
  }
  param {
    lr_mult: 2
    decay_mult: 0
  }
  convolution_param {
    num_output: 128
    pad: 1
    kernel_size: 3
    weight_filler {
      type: "xavier"
    }
    bias_filler {
      type: "constant"
      value: 0
    }
  }
}
layer {
  name: "relu2_2"
  type: "ReLU"
  bottom: "conv2_2"
  top: "conv2_2"
}
layer {
  name: "pool2"
  type: "Pooling"
  bottom: "conv2_2"
  top: "pool2"
  pooling_param {
    pool: MAX
    kernel_size: 2
    stride: 2
  }
}
layer {
  name: "conv3_1"
  type: "Convolution"
  bottom: "pool2"
  top: "conv3_1"
  param {
    lr_mult: 1
    decay_mult: 1
  }
  param {
    lr_mult: 2
    decay_mult: 0
  }
  convolution_param {
    num_output: 256
    pad: 1
    kernel_size: 3
    weight_filler {
      type: "xavier"
    }
    bias_filler {
      type: "constant"
      value: 0
    }
  }
}
layer {
  name: "relu3_1"
  type: "ReLU"
  bottom: "conv3_1"
  top: "conv3_1"
}
layer {
  name: "conv3_2"
  type: "Convolution"
  bottom: "conv3_1"
  top: "conv3_2"
  param {
    lr_mult: 1
    decay_mult: 1
  }
  param {
    lr_mult: 2
    decay_mult: 0
  }
  convolution_param {
    num_output: 256
    pad: 1
    kernel_size: 3
    weight_filler {
      type: "xavier"
    }
    bias_filler {
      type: "constant"
      value: 0
    }
  }
}
layer {
  name: "relu3_2"
  type: "ReLU"
  bottom: "conv3_2"
  top: "conv3_2"
}
layer {
  name: "conv3_3"
  type: "Convolution"
  bottom: "conv3_2"
  top: "conv3_3"
  param {
    lr_mult: 1
    decay_mult: 1
  }
  param {
    lr_mult: 2
    decay_mult: 0
  }
  convolution_param {
    num_output: 256
    pad: 1
    kernel_size: 3
    weight_filler {
      type: "xavier"
    }
    bias_filler {
      type: "constant"
      value: 0
    }
  }
}
layer {
  name: "relu3_3"
  type: "ReLU"
  bottom: "conv3_3"
  top: "conv3_3"
}
layer {
  name: "pool3"
  type: "Pooling"
  bottom: "conv3_3"
  top: "pool3"
  pooling_param {
    pool: MAX
    kernel_size: 2
    stride: 2
  }
}
layer {
  name: "conv4_1"
  type: "Convolution"
  bottom: "pool3"
  top: "conv4_1"
  param {
    lr_mult: 1
    decay_mult: 1
  }
  param {
    lr_mult: 2
    decay_mult: 0
  }
  convolution_param {
    num_output: 512
    pad: 1
    kernel_size: 3
    weight_filler {
      type: "xavier"
    }
    bias_filler {
      type: "constant"
      value: 0
    }
  }
}
layer {
  name: "relu4_1"
  type: "ReLU"
  bottom: "conv4_1"
  top: "conv4_1"
}
layer {
  name: "conv4_2"
  type: "Convolution"
  bottom: "conv4_1"
  top: "conv4_2"
  param {
    lr_mult: 1
    decay_mult: 1
  }
  param {
    lr_mult: 2
    decay_mult: 0
  }
  convolution_param {
    num_output: 512
    pad: 1
    kernel_size: 3
    weight_filler {
      type: "xavier"
    }
    bias_filler {
      type: "constant"
      value: 0
    }
  }
}
layer {
  name: "relu4_2"
  type: "ReLU"
  bottom: "conv4_2"
  top: "conv4_2"
}
layer {
  name: "conv4_3"
  type: "Convolution"
  bottom: "conv4_2"
  top: "conv4_3"
  param {
    lr_mult: 1
    decay_mult: 1
  }
  param {
    lr_mult: 2
    decay_mult: 0
  }
  convolution_param {
    num_output: 512
    pad: 1
    kernel_size: 3
    weight_filler {
      type: "xavier"
    }
    bias_filler {
      type: "constant"
      value: 0
    }
  }
}
layer {
  name: "conv4_3_bn"
  type: "BatchNorm"
  bottom: "conv4_3"
  top: "conv4_3"
}
layer {
  name: "conv4_3_scale"
  type: "Scale"
  bottom: "conv4_3"
  top: "conv4_3"
  param {
    lr_mult: 0
    decay_mult: 0
  }
  scale_param {
    bias_term: true
  }
}
layer {
  name: "relu4_3"
  type: "ReLU"
  bottom: "conv4_3"
  top: "conv4_3"
}
layer {
  name: "pool4"
  type: "Pooling"
  bottom: "conv4_3"
  top: "pool4"
  pooling_param {
    pool: MAX
    kernel_size: 2
    stride: 2
  }
}
layer {
  name: "conv5_1"
  type: "Convolution"
  bottom: "pool4"
  top: "conv5_1"
  param {
    lr_mult: 1
    decay_mult: 1
  }
  param {
    lr_mult: 2
    decay_mult: 0
  }
  convolution_param {
    num_output: 512
    pad: 1
    kernel_size: 3
    weight_filler {
      type: "xavier"
    }
    bias_filler {
      type: "constant"
      value: 0
    }
    dilation: 1
  }
}
layer {
  name: "relu5_1"
  type: "ReLU"
  bottom: "conv5_1"
  top: "conv5_1"
}
layer {
  name: "conv5_2"
  type: "Convolution"
  bottom: "conv5_1"
  top: "conv5_2"
  param {
    lr_mult: 1
    decay_mult: 1
  }
  param {
    lr_mult: 2
    decay_mult: 0
  }
  convolution_param {
    num_output: 512
    pad: 1
    kernel_size: 3
    weight_filler {
      type: "xavier"
    }
    bias_filler {
      type: "constant"
      value: 0
    }
    dilation: 1
  }
}
layer {
  name: "relu5_2"
  type: "ReLU"
  bottom: "conv5_2"
  top: "conv5_2"
}
layer {
  name: "conv5_3"
  type: "Convolution"
  bottom: "conv5_2"
  top: "conv5_3"
  param {
    lr_mult: 1
    decay_mult: 1
  }
  param {
    lr_mult: 2
    decay_mult: 0
  }
  convolution_param {
    num_output: 512
    pad: 1
    kernel_size: 3
    weight_filler {
      type: "xavier"
    }
    bias_filler {
      type: "constant"
      value: 0
    }
    dilation: 1
  }
}
layer {
  name: "relu5_3"
  type: "ReLU"
  bottom: "conv5_3"
  top: "conv5_3"
}
layer {
  name: "pool5"
  type: "Pooling"
  bottom: "conv5_3"
  top: "pool5"
  pooling_param {
    pool: MAX
    kernel_size: 3
    stride: 1
    pad: 1
  }
}
layer {
  name: "fc6_682"
  type: "Convolution"
  bottom: "pool5"
  top: "fc6_682"
  param {
    lr_mult: 1
    decay_mult: 1
  }
  param {
    lr_mult: 2
    decay_mult: 0
  }
  convolution_param {
    num_output: 682
    pad: 6
    kernel_size: 3
    weight_filler {
      type: "xavier"
    }
    bias_filler {
      type: "constant"
      value: 0
    }
    dilation: 6
  }
}
layer {
  name: "relu6"
  type: "ReLU"
  bottom: "fc6_682"
  top: "fc6_682"
}
layer {
  name: "fc7_682"
  type: "Convolution"
  bottom: "fc6_682"
  top: "fc7_682"
  param {
    lr_mult: 1
    decay_mult: 1
  }
  param {
    lr_mult: 2
    decay_mult: 0
  }
  convolution_param {
    num_output: 682
    kernel_size: 1
    weight_filler {
      type: "xavier"
    }
    bias_filler {
      type: "constant"
      value: 0
    }
  }
}
layer {
  name: "relu7"
  type: "ReLU"
  bottom: "fc7_682"
  top: "fc7_682"
}
layer {
  name: "conv6_1"
  type: "Convolution"
  bottom: "fc7_682"
  top: "conv6_1"
  param {
    lr_mult: 1
    decay_mult: 1
  }
  param {
    lr_mult: 2
    decay_mult: 0
  }
  convolution_param {
    num_output: 256
    pad: 0
    kernel_size: 1
    stride: 1
    weight_filler {
      type: "xavier"
    }
    bias_filler {
      type: "constant"
      value: 0
    }
  }
}
layer {
  name: "conv6_1_relu"
  type: "ReLU"
  bottom: "conv6_1"
  top: "conv6_1"
}
layer {
  name: "conv6_2"
  type: "Convolution"
  bottom: "conv6_1"
  top: "conv6_2"
  param {
    lr_mult: 1
    decay_mult: 1
  }
  param {
    lr_mult: 2
    decay_mult: 0
  }
  convolution_param {
    num_output: 512
    pad: 1
    kernel_size: 3
    stride: 2
    weight_filler {
      type: "xavier"
    }
    bias_filler {
      type: "constant"
      value: 0
    }
  }
}
layer {
  name: "conv6_2_relu"
  type: "ReLU"
  bottom: "conv6_2"
  top: "conv6_2"
}
layer {
  name: "conv7_1"
  type: "Convolution"
  bottom: "conv6_2"
  top: "conv7_1"
  param {
    lr_mult: 1
    decay_mult: 1
  }
  param {
    lr_mult: 2
    decay_mult: 0
  }
  convolution_param {
    num_output: 128
    pad: 0
    kernel_size: 1
    stride: 1
    weight_filler {
      type: "xavier"
    }
    bias_filler {
      type: "constant"
      value: 0
    }
  }
}
layer {
  name: "conv7_1_relu"
  type: "ReLU"
  bottom: "conv7_1"
  top: "conv7_1"
}
layer {
  name: "conv7_2"
  type: "Convolution"
  bottom: "conv7_1"
  top: "conv7_2"
  param {
    lr_mult: 1
    decay_mult: 1
  }
  param {
    lr_mult: 2
    decay_mult: 0
  }
  convolution_param {
    num_output: 256
    pad: 1
    kernel_size: 3
    stride: 2
    weight_filler {
      type: "xavier"
    }
    bias_filler {
      type: "constant"
      value: 0
    }
  }
}
layer {
  name: "conv7_2_relu"
  type: "ReLU"
  bottom: "conv7_2"
  top: "conv7_2"
}
layer {
  name: "conv8_1"
  type: "Convolution"
  bottom: "conv7_2"
  top: "conv8_1"
  param {
    lr_mult: 1
    decay_mult: 1
  }
  param {
    lr_mult: 2
    decay_mult: 0
  }
  convolution_param {
    num_output: 128
    pad: 0
    kernel_size: 1
    stride: 1
    weight_filler {
      type: "xavier"
    }
    bias_filler {
      type: "constant"
      value: 0
    }
  }
}
layer {
  name: "conv8_1_relu"
  type: "ReLU"
  bottom: "conv8_1"
  top: "conv8_1"
}
layer {
  name: "conv8_2"
  type: "Convolution"
  bottom: "conv8_1"
  top: "conv8_2"
  param {
    lr_mult: 1
    decay_mult: 1
  }
  param {
    lr_mult: 2
    decay_mult: 0
  }
  convolution_param {
    num_output: 256
    pad: 0
    kernel_size: 3
    stride: 1
    weight_filler {
      type: "xavier"
    }
    bias_filler {
      type: "constant"
      value: 0
    }
  }
}
layer {
  name: "conv8_2_relu"
  type: "ReLU"
  bottom: "conv8_2"
  top: "conv8_2"
}
layer {
  name: "conv9_1"
  type: "Convolution"
  bottom: "conv8_2"
  top: "conv9_1"
  param {
    lr_mult: 1
    decay_mult: 1
  }
  param {
    lr_mult: 2
    decay_mult: 0
  }
  convolution_param {
    num_output: 128
    pad: 0
    kernel_size: 1
    stride: 1
    weight_filler {
      type: "xavier"
    }
    bias_filler {
      type: "constant"
      value: 0
    }
  }
}
layer {
  name: "conv9_1_relu"
  type: "ReLU"
  bottom: "conv9_1"
  top: "conv9_1"
}
layer {
  name: "conv9_2"
  type: "Convolution"
  bottom: "conv9_1"
  top: "conv9_2"
  param {
    lr_mult: 1
    decay_mult: 1
  }
  param {
    lr_mult: 2
    decay_mult: 0
  }
  convolution_param {
    num_output: 256
    pad: 0
    kernel_size: 3
    stride: 1
    weight_filler {
      type: "xavier"
    }
    bias_filler {
      type: "constant"
      value: 0
    }
  }
}
layer {
  name: "conv9_2_relu"
  type: "ReLU"
  bottom: "conv9_2"
  top: "conv9_2"
}
layer {
  name: "conv4_3_norm_mbox_loc"
  type: "Convolution"
  bottom: "conv4_3"
  top: "conv4_3_norm_mbox_loc"
  param {
    lr_mult: 1
    decay_mult: 1
  }
  param {
    lr_mult: 2
    decay_mult: 0
  }
  convolution_param {
    num_output: 16
    pad: 1
    kernel_size: 3
    stride: 1
    weight_filler {
      type: "xavier"
    }
    bias_filler {
      type: "constant"
      value: 0
    }
  }
}
layer {
  name: "conv4_3_norm_mbox_loc_perm"
  type: "Permute"
  bottom: "conv4_3_norm_mbox_loc"
  top: "conv4_3_norm_mbox_loc_perm"
  permute_param {
    order: 0
    order: 2
    order: 3
    order: 1
  }
}
layer {
  name: "conv4_3_norm_mbox_loc_flat"
  type: "Flatten"
  bottom: "conv4_3_norm_mbox_loc_perm"
  top: "conv4_3_norm_mbox_loc_flat"
  flatten_param {
    axis: 1
  }
}
layer {
  name: "conv4_3_norm_mbox_conf"
  type: "Convolution"
  bottom: "conv4_3"
  top: "conv4_3_norm_mbox_conf"
  param {
    lr_mult: 1
    decay_mult: 1
  }
  param {
    lr_mult: 2
    decay_mult: 0
  }
  convolution_param {
    num_output: 84
    pad: 1
    kernel_size: 3
    stride: 1
    weight_filler {
      type: "xavier"
    }
    bias_filler {
      type: "constant"
      value: 0
    }
  }
}
layer {
  name: "conv4_3_norm_mbox_conf_perm"
  type: "Permute"
  bottom: "conv4_3_norm_mbox_conf"
  top: "conv4_3_norm_mbox_conf_perm"
  permute_param {
    order: 0
    order: 2
    order: 3
    order: 1
  }
}
layer {
  name: "conv4_3_norm_mbox_conf_flat"
  type: "Flatten"
  bottom: "conv4_3_norm_mbox_conf_perm"
  top: "conv4_3_norm_mbox_conf_flat"
  flatten_param {
    axis: 1
  }
}
layer {
  name: "conv4_3_norm_mbox_priorbox"
  type: "PriorBox"
  bottom: "conv4_3"
  bottom: "data"
  top: "conv4_3_norm_mbox_priorbox"
  prior_box_param {
    min_size: 30
    max_size: 60
    aspect_ratio: 2
    flip: true
    clip: false
    variance: 0.1
    variance: 0.1
    variance: 0.2
    variance: 0.2
    step: 8
    offset: 0.5
  }
}
layer {
  name: "fc7_mbox_loc"
  type: "Convolution"
  bottom: "fc7_682"
  top: "fc7_mbox_loc"
  param {
    lr_mult: 1
    decay_mult: 1
  }
  param {
    lr_mult: 2
    decay_mult: 0
  }
  convolution_param {
    num_output: 24
    pad: 1
    kernel_size: 3
    stride: 1
    weight_filler {
      type: "xavier"
    }
    bias_filler {
      type: "constant"
      value: 0
    }
  }
}
layer {
  name: "fc7_mbox_loc_perm"
  type: "Permute"
  bottom: "fc7_mbox_loc"
  top: "fc7_mbox_loc_perm"
  permute_param {
    order: 0
    order: 2
    order: 3
    order: 1
  }
}
layer {
  name: "fc7_mbox_loc_flat"
  type: "Flatten"
  bottom: "fc7_mbox_loc_perm"
  top: "fc7_mbox_loc_flat"
  flatten_param {
    axis: 1
  }
}
layer {
  name: "fc7_mbox_conf"
  type: "Convolution"
  bottom: "fc7_682"
  top: "fc7_mbox_conf"
  param {
    lr_mult: 1
    decay_mult: 1
  }
  param {
    lr_mult: 2
    decay_mult: 0
  }
  convolution_param {
    num_output: 126
    pad: 1
    kernel_size: 3
    stride: 1
    weight_filler {
      type: "xavier"
    }
    bias_filler {
      type: "constant"
      value: 0
    }
  }
}
layer {
  name: "fc7_mbox_conf_perm"
  type: "Permute"
  bottom: "fc7_mbox_conf"
  top: "fc7_mbox_conf_perm"
  permute_param {
    order: 0
    order: 2
    order: 3
    order: 1
  }
}
layer {
  name: "fc7_mbox_conf_flat"
  type: "Flatten"
  bottom: "fc7_mbox_conf_perm"
  top: "fc7_mbox_conf_flat"
  flatten_param {
    axis: 1
  }
}
layer {
  name: "fc7_mbox_priorbox"
  type: "PriorBox"
  bottom: "fc7_682"
  bottom: "data"
  top: "fc7_mbox_priorbox"
  prior_box_param {
    min_size: 60
    max_size: 111
    aspect_ratio: 2
    aspect_ratio: 3
    flip: true
    clip: false
    variance: 0.1
    variance: 0.1
    variance: 0.2
    variance: 0.2
    step: 16
    offset: 0.5
  }
}
layer {
  name: "conv6_2_mbox_loc"
  type: "Convolution"
  bottom: "conv6_2"
  top: "conv6_2_mbox_loc"
  param {
    lr_mult: 1
    decay_mult: 1
  }
  param {
    lr_mult: 2
    decay_mult: 0
  }
  convolution_param {
    num_output: 24
    pad: 1
    kernel_size: 3
    stride: 1
    weight_filler {
      type: "xavier"
    }
    bias_filler {
      type: "constant"
      value: 0
    }
  }
}
layer {
  name: "conv6_2_mbox_loc_perm"
  type: "Permute"
  bottom: "conv6_2_mbox_loc"
  top: "conv6_2_mbox_loc_perm"
  permute_param {
    order: 0
    order: 2
    order: 3
    order: 1
  }
}
layer {
  name: "conv6_2_mbox_loc_flat"
  type: "Flatten"
  bottom: "conv6_2_mbox_loc_perm"
  top: "conv6_2_mbox_loc_flat"
  flatten_param {
    axis: 1
  }
}
layer {
  name: "conv6_2_mbox_conf"
  type: "Convolution"
  bottom: "conv6_2"
  top: "conv6_2_mbox_conf"
  param {
    lr_mult: 1
    decay_mult: 1
  }
  param {
    lr_mult: 2
    decay_mult: 0
  }
  convolution_param {
    num_output: 126
    pad: 1
    kernel_size: 3
    stride: 1
    weight_filler {
      type: "xavier"
    }
    bias_filler {
      type: "constant"
      value: 0
    }
  }
}
layer {
  name: "conv6_2_mbox_conf_perm"
  type: "Permute"
  bottom: "conv6_2_mbox_conf"
  top: "conv6_2_mbox_conf_perm"
  permute_param {
    order: 0
    order: 2
    order: 3
    order: 1
  }
}
layer {
  name: "conv6_2_mbox_conf_flat"
  type: "Flatten"
  bottom: "conv6_2_mbox_conf_perm"
  top: "conv6_2_mbox_conf_flat"
  flatten_param {
    axis: 1
  }
}
layer {
  name: "conv6_2_mbox_priorbox"
  type: "PriorBox"
  bottom: "conv6_2"
  bottom: "data"
  top: "conv6_2_mbox_priorbox"
  prior_box_param {
    min_size: 111
    max_size: 162
    aspect_ratio: 2
    aspect_ratio: 3
    flip: true
    clip: false
    variance: 0.1
    variance: 0.1
    variance: 0.2
    variance: 0.2
    step: 32
    offset: 0.5
  }
}
layer {
  name: "conv7_2_mbox_loc"
  type: "Convolution"
  bottom: "conv7_2"
  top: "conv7_2_mbox_loc"
  param {
    lr_mult: 1
    decay_mult: 1
  }
  param {
    lr_mult: 2
    decay_mult: 0
  }
  convolution_param {
    num_output: 24
    pad: 1
    kernel_size: 3
    stride: 1
    weight_filler {
      type: "xavier"
    }
    bias_filler {
      type: "constant"
      value: 0
    }
  }
}
layer {
  name: "conv7_2_mbox_loc_perm"
  type: "Permute"
  bottom: "conv7_2_mbox_loc"
  top: "conv7_2_mbox_loc_perm"
  permute_param {
    order: 0
    order: 2
    order: 3
    order: 1
  }
}
layer {
  name: "conv7_2_mbox_loc_flat"
  type: "Flatten"
  bottom: "conv7_2_mbox_loc_perm"
  top: "conv7_2_mbox_loc_flat"
  flatten_param {
    axis: 1
  }
}
layer {
  name: "conv7_2_mbox_conf"
  type: "Convolution"
  bottom: "conv7_2"
  top: "conv7_2_mbox_conf"
  param {
    lr_mult: 1
    decay_mult: 1
  }
  param {
    lr_mult: 2
    decay_mult: 0
  }
  convolution_param {
    num_output: 126
    pad: 1
    kernel_size: 3
    stride: 1
    weight_filler {
      type: "xavier"
    }
    bias_filler {
      type: "constant"
      value: 0
    }
  }
}
layer {
  name: "conv7_2_mbox_conf_perm"
  type: "Permute"
  bottom: "conv7_2_mbox_conf"
  top: "conv7_2_mbox_conf_perm"
  permute_param {
    order: 0
    order: 2
    order: 3
    order: 1
  }
}
layer {
  name: "conv7_2_mbox_conf_flat"
  type: "Flatten"
  bottom: "conv7_2_mbox_conf_perm"
  top: "conv7_2_mbox_conf_flat"
  flatten_param {
    axis: 1
  }
}
layer {
  name: "conv7_2_mbox_priorbox"
  type: "PriorBox"
  bottom: "conv7_2"
  bottom: "data"
  top: "conv7_2_mbox_priorbox"
  prior_box_param {
    min_size: 162
    max_size: 213
    aspect_ratio: 2
    aspect_ratio: 3
    flip: true
    clip: false
    variance: 0.1
    variance: 0.1
    variance: 0.2
    variance: 0.2
    step: 64
    offset: 0.5
  }
}
layer {
  name: "conv8_2_mbox_loc"
  type: "Convolution"
  bottom: "conv8_2"
  top: "conv8_2_mbox_loc"
  param {
    lr_mult: 1
    decay_mult: 1
  }
  param {
    lr_mult: 2
    decay_mult: 0
  }
  convolution_param {
    num_output: 16
    pad: 1
    kernel_size: 3
    stride: 1
    weight_filler {
      type: "xavier"
    }
    bias_filler {
      type: "constant"
      value: 0
    }
  }
}
layer {
  name: "conv8_2_mbox_loc_perm"
  type: "Permute"
  bottom: "conv8_2_mbox_loc"
  top: "conv8_2_mbox_loc_perm"
  permute_param {
    order: 0
    order: 2
    order: 3
    order: 1
  }
}
layer {
  name: "conv8_2_mbox_loc_flat"
  type: "Flatten"
  bottom: "conv8_2_mbox_loc_perm"
  top: "conv8_2_mbox_loc_flat"
  flatten_param {
    axis: 1
  }
}
layer {
  name: "conv8_2_mbox_conf"
  type: "Convolution"
  bottom: "conv8_2"
  top: "conv8_2_mbox_conf"
  param {
    lr_mult: 1
    decay_mult: 1
  }
  param {
    lr_mult: 2
    decay_mult: 0
  }
  convolution_param {
    num_output: 84
    pad: 1
    kernel_size: 3
    stride: 1
    weight_filler {
      type: "xavier"
    }
    bias_filler {
      type: "constant"
      value: 0
    }
  }
}
layer {
  name: "conv8_2_mbox_conf_perm"
  type: "Permute"
  bottom: "conv8_2_mbox_conf"
  top: "conv8_2_mbox_conf_perm"
  permute_param {
    order: 0
    order: 2
    order: 3
    order: 1
  }
}
layer {
  name: "conv8_2_mbox_conf_flat"
  type: "Flatten"
  bottom: "conv8_2_mbox_conf_perm"
  top: "conv8_2_mbox_conf_flat"
  flatten_param {
    axis: 1
  }
}
layer {
  name: "conv8_2_mbox_priorbox"
  type: "PriorBox"
  bottom: "conv8_2"
  bottom: "data"
  top: "conv8_2_mbox_priorbox"
  prior_box_param {
    min_size: 213
    max_size: 264
    aspect_ratio: 2
    flip: true
    clip: false
    variance: 0.1
    variance: 0.1
    variance: 0.2
    variance: 0.2
    step: 100
    offset: 0.5
  }
}
layer {
  name: "conv9_2_mbox_loc"
  type: "Convolution"
  bottom: "conv9_2"
  top: "conv9_2_mbox_loc"
  param {
    lr_mult: 1
    decay_mult: 1
  }
  param {
    lr_mult: 2
    decay_mult: 0
  }
  convolution_param {
    num_output: 16
    pad: 1
    kernel_size: 3
    stride: 1
    weight_filler {
      type: "xavier"
    }
    bias_filler {
      type: "constant"
      value: 0
    }
  }
}
layer {
  name: "conv9_2_mbox_loc_perm"
  type: "Permute"
  bottom: "conv9_2_mbox_loc"
  top: "conv9_2_mbox_loc_perm"
  permute_param {
    order: 0
    order: 2
    order: 3
    order: 1
  }
}
layer {
  name: "conv9_2_mbox_loc_flat"
  type: "Flatten"
  bottom: "conv9_2_mbox_loc_perm"
  top: "conv9_2_mbox_loc_flat"
  flatten_param {
    axis: 1
  }
}
layer {
  name: "conv9_2_mbox_conf"
  type: "Convolution"
  bottom: "conv9_2"
  top: "conv9_2_mbox_conf"
  param {
    lr_mult: 1
    decay_mult: 1
  }
  param {
    lr_mult: 2
    decay_mult: 0
  }
  convolution_param {
    num_output: 84
    pad: 1
    kernel_size: 3
    stride: 1
    weight_filler {
      type: "xavier"
    }
    bias_filler {
      type: "constant"
      value: 0
    }
  }
}
layer {
  name: "conv9_2_mbox_conf_perm"
  type: "Permute"
  bottom: "conv9_2_mbox_conf"
  top: "conv9_2_mbox_conf_perm"
  permute_param {
    order: 0
    order: 2
    order: 3
    order: 1
  }
}
layer {
  name: "conv9_2_mbox_conf_flat"
  type: "Flatten"
  bottom: "conv9_2_mbox_conf_perm"
  top: "conv9_2_mbox_conf_flat"
  flatten_param {
    axis: 1
  }
}
layer {
  name: "conv9_2_mbox_priorbox"
  type: "PriorBox"
  bottom: "conv9_2"
  bottom: "data"
  top: "conv9_2_mbox_priorbox"
  prior_box_param {
    min_size: 264
    max_size: 315
    aspect_ratio: 2
    flip: true
    clip: false
    variance: 0.1
    variance: 0.1
    variance: 0.2
    variance: 0.2
    step: 300
    offset: 0.5
  }
}
layer {
  name: "mbox_loc"
  type: "Concat"
  bottom: "conv4_3_norm_mbox_loc_flat"
  bottom: "fc7_mbox_loc_flat"
  bottom: "conv6_2_mbox_loc_flat"
  bottom: "conv7_2_mbox_loc_flat"
  bottom: "conv8_2_mbox_loc_flat"
  bottom: "conv9_2_mbox_loc_flat"
  top: "mbox_loc"
  concat_param {
    axis: 1
  }
}
layer {
  name: "mbox_conf"
  type: "Concat"
  bottom: "conv4_3_norm_mbox_conf_flat"
  bottom: "fc7_mbox_conf_flat"
  bottom: "conv6_2_mbox_conf_flat"
  bottom: "conv7_2_mbox_conf_flat"
  bottom: "conv8_2_mbox_conf_flat"
  bottom: "conv9_2_mbox_conf_flat"
  top: "mbox_conf"
  concat_param {
    axis: 1
  }
}
layer {
  name: "mbox_priorbox"
  type: "Concat"
  bottom: "conv4_3_norm_mbox_priorbox"
  bottom: "fc7_mbox_priorbox"
  bottom: "conv6_2_mbox_priorbox"
  bottom: "conv7_2_mbox_priorbox"
  bottom: "conv8_2_mbox_priorbox"
  bottom: "conv9_2_mbox_priorbox"
  top: "mbox_priorbox"
  concat_param {
    axis: 2
  }
}
layer {
  name: "mbox_loss"
  type: "MultiBoxLoss"
  bottom: "mbox_loc"
  bottom: "mbox_conf"
  bottom: "mbox_priorbox"
  bottom: "label"
  top: "mbox_loss"
  include {
    phase: TRAIN
  }
  propagate_down: true
  propagate_down: true
  propagate_down: false
  propagate_down: false
  loss_param {
    normalization: VALID
  }
  multibox_loss_param {
    loc_loss_type: SMOOTH_L1
    conf_loss_type: SOFTMAX
    loc_weight: 1
    num_classes: 21
    share_location: true
    match_type: PER_PREDICTION
    overlap_threshold: 0.5
    use_prior_for_matching: true
    background_label_id: 0
    use_difficult_gt: true
    neg_pos_ratio: 3
    neg_overlap: 0.5
    code_type: CENTER_SIZE
    ignore_cross_boundary_bbox: false
    mining_type: MAX_NEGATIVE
  }
}
I1208 17:42:23.573904  7265 layer_factory.hpp:77] Creating layer data
I1208 17:42:23.574344  7265 net.cpp:100] Creating Layer data
I1208 17:42:23.574383  7265 net.cpp:454] data -> data
I1208 17:42:23.574426  7265 net.cpp:454] data -> label
I1208 17:42:23.575923  7271 db_lmdb.cpp:35] Opened lmdb examples/VOC0712/VOC0712_trainval_lmdb
I1208 17:42:23.672374  7265 annotated_data_layer.cpp:62] output data size: 32,3,300,300
I1208 17:42:23.709444  7265 net.cpp:150] Setting up data
I1208 17:42:23.709470  7265 net.cpp:157] Top shape: 32 3 300 300 (8640000)
I1208 17:42:23.709473  7265 net.cpp:157] Top shape: 1 1 1 8 (8)
I1208 17:42:23.709475  7265 net.cpp:165] Memory required for data: 34560032
I1208 17:42:23.709484  7265 layer_factory.hpp:77] Creating layer data_data_0_split
I1208 17:42:23.709512  7265 net.cpp:100] Creating Layer data_data_0_split
I1208 17:42:23.709534  7265 net.cpp:480] data_data_0_split <- data
I1208 17:42:23.709547  7265 net.cpp:454] data_data_0_split -> data_data_0_split_0
I1208 17:42:23.709556  7265 net.cpp:454] data_data_0_split -> data_data_0_split_1
I1208 17:42:23.709604  7265 net.cpp:454] data_data_0_split -> data_data_0_split_2
I1208 17:42:23.709612  7265 net.cpp:454] data_data_0_split -> data_data_0_split_3
I1208 17:42:23.709617  7265 net.cpp:454] data_data_0_split -> data_data_0_split_4
I1208 17:42:23.709622  7265 net.cpp:454] data_data_0_split -> data_data_0_split_5
I1208 17:42:23.709628  7265 net.cpp:454] data_data_0_split -> data_data_0_split_6
I1208 17:42:23.709762  7265 net.cpp:150] Setting up data_data_0_split
I1208 17:42:23.709767  7265 net.cpp:157] Top shape: 32 3 300 300 (8640000)
I1208 17:42:23.709770  7265 net.cpp:157] Top shape: 32 3 300 300 (8640000)
I1208 17:42:23.709774  7265 net.cpp:157] Top shape: 32 3 300 300 (8640000)
I1208 17:42:23.709776  7265 net.cpp:157] Top shape: 32 3 300 300 (8640000)
I1208 17:42:23.709779  7265 net.cpp:157] Top shape: 32 3 300 300 (8640000)
I1208 17:42:23.709781  7265 net.cpp:157] Top shape: 32 3 300 300 (8640000)
I1208 17:42:23.709785  7265 net.cpp:157] Top shape: 32 3 300 300 (8640000)
I1208 17:42:23.709787  7265 net.cpp:165] Memory required for data: 276480032
I1208 17:42:23.709789  7265 layer_factory.hpp:77] Creating layer conv1_1
I1208 17:42:23.709805  7265 net.cpp:100] Creating Layer conv1_1
I1208 17:42:23.709807  7265 net.cpp:480] conv1_1 <- data_data_0_split_0
I1208 17:42:23.709812  7265 net.cpp:454] conv1_1 -> conv1_1
I1208 17:42:24.482183  7265 net.cpp:150] Setting up conv1_1
I1208 17:42:24.482208  7265 net.cpp:157] Top shape: 32 64 300 300 (184320000)
I1208 17:42:24.482211  7265 net.cpp:165] Memory required for data: 1013760032
I1208 17:42:24.482229  7265 layer_factory.hpp:77] Creating layer relu1_1
I1208 17:42:24.482239  7265 net.cpp:100] Creating Layer relu1_1
I1208 17:42:24.482244  7265 net.cpp:480] relu1_1 <- conv1_1
I1208 17:42:24.482249  7265 net.cpp:441] relu1_1 -> conv1_1 (in-place)
I1208 17:42:24.483131  7265 net.cpp:150] Setting up relu1_1
I1208 17:42:24.483137  7265 net.cpp:157] Top shape: 32 64 300 300 (184320000)
I1208 17:42:24.483139  7265 net.cpp:165] Memory required for data: 1751040032
I1208 17:42:24.483152  7265 layer_factory.hpp:77] Creating layer conv1_2
I1208 17:42:24.483165  7265 net.cpp:100] Creating Layer conv1_2
I1208 17:42:24.483167  7265 net.cpp:480] conv1_2 <- conv1_1
I1208 17:42:24.483172  7265 net.cpp:454] conv1_2 -> conv1_2
I1208 17:42:24.489997  7265 net.cpp:150] Setting up conv1_2
I1208 17:42:24.490016  7265 net.cpp:157] Top shape: 32 64 300 300 (184320000)
I1208 17:42:24.490036  7265 net.cpp:165] Memory required for data: 2488320032
I1208 17:42:24.490064  7265 layer_factory.hpp:77] Creating layer relu1_2
I1208 17:42:24.490072  7265 net.cpp:100] Creating Layer relu1_2
I1208 17:42:24.490077  7265 net.cpp:480] relu1_2 <- conv1_2
I1208 17:42:24.490082  7265 net.cpp:441] relu1_2 -> conv1_2 (in-place)
I1208 17:42:24.492110  7265 net.cpp:150] Setting up relu1_2
I1208 17:42:24.492115  7265 net.cpp:157] Top shape: 32 64 300 300 (184320000)
I1208 17:42:24.492117  7265 net.cpp:165] Memory required for data: 3225600032
I1208 17:42:24.492120  7265 layer_factory.hpp:77] Creating layer pool1
I1208 17:42:24.492125  7265 net.cpp:100] Creating Layer pool1
I1208 17:42:24.492126  7265 net.cpp:480] pool1 <- conv1_2
I1208 17:42:24.492130  7265 net.cpp:454] pool1 -> pool1
I1208 17:42:24.492195  7265 net.cpp:150] Setting up pool1
I1208 17:42:24.492200  7265 net.cpp:157] Top shape: 32 64 150 150 (46080000)
I1208 17:42:24.492202  7265 net.cpp:165] Memory required for data: 3409920032
I1208 17:42:24.492204  7265 layer_factory.hpp:77] Creating layer conv2_1
I1208 17:42:24.492213  7265 net.cpp:100] Creating Layer conv2_1
I1208 17:42:24.492215  7265 net.cpp:480] conv2_1 <- pool1
I1208 17:42:24.492220  7265 net.cpp:454] conv2_1 -> conv2_1
I1208 17:42:24.499245  7265 net.cpp:150] Setting up conv2_1
I1208 17:42:24.499258  7265 net.cpp:157] Top shape: 32 128 150 150 (92160000)
I1208 17:42:24.499260  7265 net.cpp:165] Memory required for data: 3778560032
I1208 17:42:24.499269  7265 layer_factory.hpp:77] Creating layer relu2_1
I1208 17:42:24.499274  7265 net.cpp:100] Creating Layer relu2_1
I1208 17:42:24.499279  7265 net.cpp:480] relu2_1 <- conv2_1
I1208 17:42:24.499284  7265 net.cpp:441] relu2_1 -> conv2_1 (in-place)
I1208 17:42:24.501157  7265 net.cpp:150] Setting up relu2_1
I1208 17:42:24.501164  7265 net.cpp:157] Top shape: 32 128 150 150 (92160000)
I1208 17:42:24.501166  7265 net.cpp:165] Memory required for data: 4147200032
I1208 17:42:24.501168  7265 layer_factory.hpp:77] Creating layer conv2_2
I1208 17:42:24.501178  7265 net.cpp:100] Creating Layer conv2_2
I1208 17:42:24.501180  7265 net.cpp:480] conv2_2 <- conv2_1
I1208 17:42:24.501185  7265 net.cpp:454] conv2_2 -> conv2_2
I1208 17:42:24.508116  7265 net.cpp:150] Setting up conv2_2
I1208 17:42:24.508128  7265 net.cpp:157] Top shape: 32 128 150 150 (92160000)
I1208 17:42:24.508131  7265 net.cpp:165] Memory required for data: 4515840032
I1208 17:42:24.508137  7265 layer_factory.hpp:77] Creating layer relu2_2
I1208 17:42:24.508141  7265 net.cpp:100] Creating Layer relu2_2
I1208 17:42:24.508144  7265 net.cpp:480] relu2_2 <- conv2_2
I1208 17:42:24.508148  7265 net.cpp:441] relu2_2 -> conv2_2 (in-place)
I1208 17:42:24.510079  7265 net.cpp:150] Setting up relu2_2
I1208 17:42:24.510085  7265 net.cpp:157] Top shape: 32 128 150 150 (92160000)
I1208 17:42:24.510088  7265 net.cpp:165] Memory required for data: 4884480032
I1208 17:42:24.510090  7265 layer_factory.hpp:77] Creating layer pool2
I1208 17:42:24.510094  7265 net.cpp:100] Creating Layer pool2
I1208 17:42:24.510097  7265 net.cpp:480] pool2 <- conv2_2
I1208 17:42:24.510102  7265 net.cpp:454] pool2 -> pool2
I1208 17:42:24.510129  7265 net.cpp:150] Setting up pool2
I1208 17:42:24.510134  7265 net.cpp:157] Top shape: 32 128 75 75 (23040000)
I1208 17:42:24.510136  7265 net.cpp:165] Memory required for data: 4976640032
I1208 17:42:24.510138  7265 layer_factory.hpp:77] Creating layer conv3_1
I1208 17:42:24.510145  7265 net.cpp:100] Creating Layer conv3_1
I1208 17:42:24.510149  7265 net.cpp:480] conv3_1 <- pool2
I1208 17:42:24.510152  7265 net.cpp:454] conv3_1 -> conv3_1
I1208 17:42:24.518417  7265 net.cpp:150] Setting up conv3_1
I1208 17:42:24.518432  7265 net.cpp:157] Top shape: 32 256 75 75 (46080000)
I1208 17:42:24.518435  7265 net.cpp:165] Memory required for data: 5160960032
I1208 17:42:24.518445  7265 layer_factory.hpp:77] Creating layer relu3_1
I1208 17:42:24.518450  7265 net.cpp:100] Creating Layer relu3_1
I1208 17:42:24.518453  7265 net.cpp:480] relu3_1 <- conv3_1
I1208 17:42:24.518471  7265 net.cpp:441] relu3_1 -> conv3_1 (in-place)
I1208 17:42:24.520035  7265 net.cpp:150] Setting up relu3_1
I1208 17:42:24.520040  7265 net.cpp:157] Top shape: 32 256 75 75 (46080000)
I1208 17:42:24.520043  7265 net.cpp:165] Memory required for data: 5345280032
I1208 17:42:24.520045  7265 layer_factory.hpp:77] Creating layer conv3_2
I1208 17:42:24.520052  7265 net.cpp:100] Creating Layer conv3_2
I1208 17:42:24.520056  7265 net.cpp:480] conv3_2 <- conv3_1
I1208 17:42:24.520059  7265 net.cpp:454] conv3_2 -> conv3_2
I1208 17:42:24.527055  7265 net.cpp:150] Setting up conv3_2
I1208 17:42:24.527068  7265 net.cpp:157] Top shape: 32 256 75 75 (46080000)
I1208 17:42:24.527071  7265 net.cpp:165] Memory required for data: 5529600032
I1208 17:42:24.527076  7265 layer_factory.hpp:77] Creating layer relu3_2
I1208 17:42:24.527082  7265 net.cpp:100] Creating Layer relu3_2
I1208 17:42:24.527086  7265 net.cpp:480] relu3_2 <- conv3_2
I1208 17:42:24.527091  7265 net.cpp:441] relu3_2 -> conv3_2 (in-place)
I1208 17:42:24.529011  7265 net.cpp:150] Setting up relu3_2
I1208 17:42:24.529019  7265 net.cpp:157] Top shape: 32 256 75 75 (46080000)
I1208 17:42:24.529022  7265 net.cpp:165] Memory required for data: 5713920032
I1208 17:42:24.529026  7265 layer_factory.hpp:77] Creating layer conv3_3
I1208 17:42:24.529036  7265 net.cpp:100] Creating Layer conv3_3
I1208 17:42:24.529039  7265 net.cpp:480] conv3_3 <- conv3_2
I1208 17:42:24.529045  7265 net.cpp:454] conv3_3 -> conv3_3
I1208 17:42:24.536046  7265 net.cpp:150] Setting up conv3_3
I1208 17:42:24.536058  7265 net.cpp:157] Top shape: 32 256 75 75 (46080000)
I1208 17:42:24.536061  7265 net.cpp:165] Memory required for data: 5898240032
I1208 17:42:24.536067  7265 layer_factory.hpp:77] Creating layer relu3_3
I1208 17:42:24.536073  7265 net.cpp:100] Creating Layer relu3_3
I1208 17:42:24.536077  7265 net.cpp:480] relu3_3 <- conv3_3
I1208 17:42:24.536080  7265 net.cpp:441] relu3_3 -> conv3_3 (in-place)
I1208 17:42:24.537998  7265 net.cpp:150] Setting up relu3_3
I1208 17:42:24.538005  7265 net.cpp:157] Top shape: 32 256 75 75 (46080000)
I1208 17:42:24.538008  7265 net.cpp:165] Memory required for data: 6082560032
I1208 17:42:24.538010  7265 layer_factory.hpp:77] Creating layer pool3
I1208 17:42:24.538015  7265 net.cpp:100] Creating Layer pool3
I1208 17:42:24.538018  7265 net.cpp:480] pool3 <- conv3_3
I1208 17:42:24.538023  7265 net.cpp:454] pool3 -> pool3
I1208 17:42:24.538064  7265 net.cpp:150] Setting up pool3
I1208 17:42:24.538069  7265 net.cpp:157] Top shape: 32 256 38 38 (11829248)
I1208 17:42:24.538074  7265 net.cpp:165] Memory required for data: 6129877024
I1208 17:42:24.538075  7265 layer_factory.hpp:77] Creating layer conv4_1
I1208 17:42:24.538082  7265 net.cpp:100] Creating Layer conv4_1
I1208 17:42:24.538084  7265 net.cpp:480] conv4_1 <- pool3
I1208 17:42:24.538089  7265 net.cpp:454] conv4_1 -> conv4_1
I1208 17:42:24.549846  7265 net.cpp:150] Setting up conv4_1
I1208 17:42:24.549859  7265 net.cpp:157] Top shape: 32 512 38 38 (23658496)
I1208 17:42:24.549861  7265 net.cpp:165] Memory required for data: 6224511008
I1208 17:42:24.549868  7265 layer_factory.hpp:77] Creating layer relu4_1
I1208 17:42:24.549873  7265 net.cpp:100] Creating Layer relu4_1
I1208 17:42:24.549875  7265 net.cpp:480] relu4_1 <- conv4_1
I1208 17:42:24.549880  7265 net.cpp:441] relu4_1 -> conv4_1 (in-place)
I1208 17:42:24.551900  7265 net.cpp:150] Setting up relu4_1
I1208 17:42:24.551908  7265 net.cpp:157] Top shape: 32 512 38 38 (23658496)
I1208 17:42:24.551909  7265 net.cpp:165] Memory required for data: 6319144992
I1208 17:42:24.551911  7265 layer_factory.hpp:77] Creating layer conv4_2
I1208 17:42:24.551919  7265 net.cpp:100] Creating Layer conv4_2
I1208 17:42:24.551921  7265 net.cpp:480] conv4_2 <- conv4_1
I1208 17:42:24.551925  7265 net.cpp:454] conv4_2 -> conv4_2
I1208 17:42:24.567456  7265 net.cpp:150] Setting up conv4_2
I1208 17:42:24.567477  7265 net.cpp:157] Top shape: 32 512 38 38 (23658496)
I1208 17:42:24.567479  7265 net.cpp:165] Memory required for data: 6413778976
I1208 17:42:24.567492  7265 layer_factory.hpp:77] Creating layer relu4_2
I1208 17:42:24.567528  7265 net.cpp:100] Creating Layer relu4_2
I1208 17:42:24.567533  7265 net.cpp:480] relu4_2 <- conv4_2
I1208 17:42:24.567548  7265 net.cpp:441] relu4_2 -> conv4_2 (in-place)
I1208 17:42:24.569586  7265 net.cpp:150] Setting up relu4_2
I1208 17:42:24.569591  7265 net.cpp:157] Top shape: 32 512 38 38 (23658496)
I1208 17:42:24.569593  7265 net.cpp:165] Memory required for data: 6508412960
I1208 17:42:24.569597  7265 layer_factory.hpp:77] Creating layer conv4_3
I1208 17:42:24.569604  7265 net.cpp:100] Creating Layer conv4_3
I1208 17:42:24.569607  7265 net.cpp:480] conv4_3 <- conv4_2
I1208 17:42:24.569610  7265 net.cpp:454] conv4_3 -> conv4_3
I1208 17:42:24.585744  7265 net.cpp:150] Setting up conv4_3
I1208 17:42:24.585763  7265 net.cpp:157] Top shape: 32 512 38 38 (23658496)
I1208 17:42:24.585767  7265 net.cpp:165] Memory required for data: 6603046944
I1208 17:42:24.585773  7265 layer_factory.hpp:77] Creating layer conv4_3_bn
I1208 17:42:24.585780  7265 net.cpp:100] Creating Layer conv4_3_bn
I1208 17:42:24.585783  7265 net.cpp:480] conv4_3_bn <- conv4_3
I1208 17:42:24.585789  7265 net.cpp:441] conv4_3_bn -> conv4_3 (in-place)
I1208 17:42:24.585979  7265 net.cpp:150] Setting up conv4_3_bn
I1208 17:42:24.585984  7265 net.cpp:157] Top shape: 32 512 38 38 (23658496)
I1208 17:42:24.585986  7265 net.cpp:165] Memory required for data: 6697680928
I1208 17:42:24.585992  7265 layer_factory.hpp:77] Creating layer conv4_3_scale
I1208 17:42:24.585999  7265 net.cpp:100] Creating Layer conv4_3_scale
I1208 17:42:24.586000  7265 net.cpp:480] conv4_3_scale <- conv4_3
I1208 17:42:24.586004  7265 net.cpp:441] conv4_3_scale -> conv4_3 (in-place)
I1208 17:42:24.586057  7265 layer_factory.hpp:77] Creating layer conv4_3_scale
I1208 17:42:24.586170  7265 net.cpp:150] Setting up conv4_3_scale
I1208 17:42:24.586176  7265 net.cpp:157] Top shape: 32 512 38 38 (23658496)
I1208 17:42:24.586179  7265 net.cpp:165] Memory required for data: 6792314912
I1208 17:42:24.586184  7265 layer_factory.hpp:77] Creating layer relu4_3
I1208 17:42:24.586189  7265 net.cpp:100] Creating Layer relu4_3
I1208 17:42:24.586191  7265 net.cpp:480] relu4_3 <- conv4_3
I1208 17:42:24.586195  7265 net.cpp:441] relu4_3 -> conv4_3 (in-place)
I1208 17:42:24.589990  7265 net.cpp:150] Setting up relu4_3
I1208 17:42:24.590000  7265 net.cpp:157] Top shape: 32 512 38 38 (23658496)
I1208 17:42:24.590003  7265 net.cpp:165] Memory required for data: 6886948896
I1208 17:42:24.590005  7265 layer_factory.hpp:77] Creating layer conv4_3_relu4_3_0_split
I1208 17:42:24.590010  7265 net.cpp:100] Creating Layer conv4_3_relu4_3_0_split
I1208 17:42:24.590014  7265 net.cpp:480] conv4_3_relu4_3_0_split <- conv4_3
I1208 17:42:24.590018  7265 net.cpp:454] conv4_3_relu4_3_0_split -> conv4_3_relu4_3_0_split_0
I1208 17:42:24.590026  7265 net.cpp:454] conv4_3_relu4_3_0_split -> conv4_3_relu4_3_0_split_1
I1208 17:42:24.590031  7265 net.cpp:454] conv4_3_relu4_3_0_split -> conv4_3_relu4_3_0_split_2
I1208 17:42:24.590036  7265 net.cpp:454] conv4_3_relu4_3_0_split -> conv4_3_relu4_3_0_split_3
I1208 17:42:24.590090  7265 net.cpp:150] Setting up conv4_3_relu4_3_0_split
I1208 17:42:24.590093  7265 net.cpp:157] Top shape: 32 512 38 38 (23658496)
I1208 17:42:24.590096  7265 net.cpp:157] Top shape: 32 512 38 38 (23658496)
I1208 17:42:24.590099  7265 net.cpp:157] Top shape: 32 512 38 38 (23658496)
I1208 17:42:24.590101  7265 net.cpp:157] Top shape: 32 512 38 38 (23658496)
I1208 17:42:24.590103  7265 net.cpp:165] Memory required for data: 7265484832
I1208 17:42:24.590106  7265 layer_factory.hpp:77] Creating layer pool4
I1208 17:42:24.590111  7265 net.cpp:100] Creating Layer pool4
I1208 17:42:24.590113  7265 net.cpp:480] pool4 <- conv4_3_relu4_3_0_split_0
I1208 17:42:24.590116  7265 net.cpp:454] pool4 -> pool4
I1208 17:42:24.590140  7265 net.cpp:150] Setting up pool4
I1208 17:42:24.590144  7265 net.cpp:157] Top shape: 32 512 19 19 (5914624)
I1208 17:42:24.590147  7265 net.cpp:165] Memory required for data: 7289143328
I1208 17:42:24.590148  7265 layer_factory.hpp:77] Creating layer conv5_1
I1208 17:42:24.590169  7265 net.cpp:100] Creating Layer conv5_1
I1208 17:42:24.590173  7265 net.cpp:480] conv5_1 <- pool4
I1208 17:42:24.590176  7265 net.cpp:454] conv5_1 -> conv5_1
I1208 17:42:24.605423  7265 net.cpp:150] Setting up conv5_1
I1208 17:42:24.605437  7265 net.cpp:157] Top shape: 32 512 19 19 (5914624)
I1208 17:42:24.605439  7265 net.cpp:165] Memory required for data: 7312801824
I1208 17:42:24.605444  7265 layer_factory.hpp:77] Creating layer relu5_1
I1208 17:42:24.605450  7265 net.cpp:100] Creating Layer relu5_1
I1208 17:42:24.605453  7265 net.cpp:480] relu5_1 <- conv5_1
I1208 17:42:24.605458  7265 net.cpp:441] relu5_1 -> conv5_1 (in-place)
I1208 17:42:24.607570  7265 net.cpp:150] Setting up relu5_1
I1208 17:42:24.607576  7265 net.cpp:157] Top shape: 32 512 19 19 (5914624)
I1208 17:42:24.607595  7265 net.cpp:165] Memory required for data: 7336460320
I1208 17:42:24.607599  7265 layer_factory.hpp:77] Creating layer conv5_2
I1208 17:42:24.607606  7265 net.cpp:100] Creating Layer conv5_2
I1208 17:42:24.607609  7265 net.cpp:480] conv5_2 <- conv5_1
I1208 17:42:24.607614  7265 net.cpp:454] conv5_2 -> conv5_2
I1208 17:42:24.624054  7265 net.cpp:150] Setting up conv5_2
I1208 17:42:24.624073  7265 net.cpp:157] Top shape: 32 512 19 19 (5914624)
I1208 17:42:24.624075  7265 net.cpp:165] Memory required for data: 7360118816
I1208 17:42:24.624083  7265 layer_factory.hpp:77] Creating layer relu5_2
I1208 17:42:24.624092  7265 net.cpp:100] Creating Layer relu5_2
I1208 17:42:24.624095  7265 net.cpp:480] relu5_2 <- conv5_2
I1208 17:42:24.624100  7265 net.cpp:441] relu5_2 -> conv5_2 (in-place)
I1208 17:42:24.626194  7265 net.cpp:150] Setting up relu5_2
I1208 17:42:24.626201  7265 net.cpp:157] Top shape: 32 512 19 19 (5914624)
I1208 17:42:24.626204  7265 net.cpp:165] Memory required for data: 7383777312
I1208 17:42:24.626205  7265 layer_factory.hpp:77] Creating layer conv5_3
I1208 17:42:24.626214  7265 net.cpp:100] Creating Layer conv5_3
I1208 17:42:24.626216  7265 net.cpp:480] conv5_3 <- conv5_2
I1208 17:42:24.626220  7265 net.cpp:454] conv5_3 -> conv5_3
I1208 17:42:24.641692  7265 net.cpp:150] Setting up conv5_3
I1208 17:42:24.641712  7265 net.cpp:157] Top shape: 32 512 19 19 (5914624)
I1208 17:42:24.641716  7265 net.cpp:165] Memory required for data: 7407435808
I1208 17:42:24.641722  7265 layer_factory.hpp:77] Creating layer relu5_3
I1208 17:42:24.641728  7265 net.cpp:100] Creating Layer relu5_3
I1208 17:42:24.641732  7265 net.cpp:480] relu5_3 <- conv5_3
I1208 17:42:24.641737  7265 net.cpp:441] relu5_3 -> conv5_3 (in-place)
I1208 17:42:24.643849  7265 net.cpp:150] Setting up relu5_3
I1208 17:42:24.643858  7265 net.cpp:157] Top shape: 32 512 19 19 (5914624)
I1208 17:42:24.643862  7265 net.cpp:165] Memory required for data: 7431094304
I1208 17:42:24.643863  7265 layer_factory.hpp:77] Creating layer pool5
I1208 17:42:24.643869  7265 net.cpp:100] Creating Layer pool5
I1208 17:42:24.643872  7265 net.cpp:480] pool5 <- conv5_3
I1208 17:42:24.643877  7265 net.cpp:454] pool5 -> pool5
I1208 17:42:24.643909  7265 net.cpp:150] Setting up pool5
I1208 17:42:24.643913  7265 net.cpp:157] Top shape: 32 512 19 19 (5914624)
I1208 17:42:24.643914  7265 net.cpp:165] Memory required for data: 7454752800
I1208 17:42:24.643916  7265 layer_factory.hpp:77] Creating layer fc6_682
I1208 17:42:24.643925  7265 net.cpp:100] Creating Layer fc6_682
I1208 17:42:24.643927  7265 net.cpp:480] fc6_682 <- pool5
I1208 17:42:24.643930  7265 net.cpp:454] fc6_682 -> fc6_682
I1208 17:42:24.661756  7265 net.cpp:150] Setting up fc6_682
I1208 17:42:24.661777  7265 net.cpp:157] Top shape: 32 682 19 19 (7878464)
I1208 17:42:24.661779  7265 net.cpp:165] Memory required for data: 7486266656
I1208 17:42:24.661792  7265 layer_factory.hpp:77] Creating layer relu6
I1208 17:42:24.661798  7265 net.cpp:100] Creating Layer relu6
I1208 17:42:24.661803  7265 net.cpp:480] relu6 <- fc6_682
I1208 17:42:24.661808  7265 net.cpp:441] relu6 -> fc6_682 (in-place)
I1208 17:42:24.662071  7265 net.cpp:150] Setting up relu6
I1208 17:42:24.662079  7265 net.cpp:157] Top shape: 32 682 19 19 (7878464)
I1208 17:42:24.662118  7265 net.cpp:165] Memory required for data: 7517780512
I1208 17:42:24.662122  7265 layer_factory.hpp:77] Creating layer fc7_682
I1208 17:42:24.662135  7265 net.cpp:100] Creating Layer fc7_682
I1208 17:42:24.662144  7265 net.cpp:480] fc7_682 <- fc6_682
I1208 17:42:24.662153  7265 net.cpp:454] fc7_682 -> fc7_682
I1208 17:42:24.668987  7265 net.cpp:150] Setting up fc7_682
I1208 17:42:24.669003  7265 net.cpp:157] Top shape: 32 682 19 19 (7878464)
I1208 17:42:24.669005  7265 net.cpp:165] Memory required for data: 7549294368
I1208 17:42:24.669013  7265 layer_factory.hpp:77] Creating layer relu7
I1208 17:42:24.669018  7265 net.cpp:100] Creating Layer relu7
I1208 17:42:24.669037  7265 net.cpp:480] relu7 <- fc7_682
I1208 17:42:24.669042  7265 net.cpp:441] relu7 -> fc7_682 (in-place)
I1208 17:42:24.671151  7265 net.cpp:150] Setting up relu7
I1208 17:42:24.671159  7265 net.cpp:157] Top shape: 32 682 19 19 (7878464)
I1208 17:42:24.671164  7265 net.cpp:165] Memory required for data: 7580808224
I1208 17:42:24.671165  7265 layer_factory.hpp:77] Creating layer fc7_682_relu7_0_split
I1208 17:42:24.671171  7265 net.cpp:100] Creating Layer fc7_682_relu7_0_split
I1208 17:42:24.671173  7265 net.cpp:480] fc7_682_relu7_0_split <- fc7_682
I1208 17:42:24.671178  7265 net.cpp:454] fc7_682_relu7_0_split -> fc7_682_relu7_0_split_0
I1208 17:42:24.671185  7265 net.cpp:454] fc7_682_relu7_0_split -> fc7_682_relu7_0_split_1
I1208 17:42:24.671190  7265 net.cpp:454] fc7_682_relu7_0_split -> fc7_682_relu7_0_split_2
I1208 17:42:24.671196  7265 net.cpp:454] fc7_682_relu7_0_split -> fc7_682_relu7_0_split_3
I1208 17:42:24.671252  7265 net.cpp:150] Setting up fc7_682_relu7_0_split
I1208 17:42:24.671257  7265 net.cpp:157] Top shape: 32 682 19 19 (7878464)
I1208 17:42:24.671260  7265 net.cpp:157] Top shape: 32 682 19 19 (7878464)
I1208 17:42:24.671263  7265 net.cpp:157] Top shape: 32 682 19 19 (7878464)
I1208 17:42:24.671267  7265 net.cpp:157] Top shape: 32 682 19 19 (7878464)
I1208 17:42:24.671268  7265 net.cpp:165] Memory required for data: 7706863648
I1208 17:42:24.671272  7265 layer_factory.hpp:77] Creating layer conv6_1
I1208 17:42:24.671279  7265 net.cpp:100] Creating Layer conv6_1
I1208 17:42:24.671283  7265 net.cpp:480] conv6_1 <- fc7_682_relu7_0_split_0
I1208 17:42:24.671288  7265 net.cpp:454] conv6_1 -> conv6_1
I1208 17:42:24.678242  7265 net.cpp:150] Setting up conv6_1
I1208 17:42:24.678253  7265 net.cpp:157] Top shape: 32 256 19 19 (2957312)
I1208 17:42:24.678256  7265 net.cpp:165] Memory required for data: 7718692896
I1208 17:42:24.678261  7265 layer_factory.hpp:77] Creating layer conv6_1_relu
I1208 17:42:24.678266  7265 net.cpp:100] Creating Layer conv6_1_relu
I1208 17:42:24.678268  7265 net.cpp:480] conv6_1_relu <- conv6_1
I1208 17:42:24.678272  7265 net.cpp:441] conv6_1_relu -> conv6_1 (in-place)
I1208 17:42:24.680171  7265 net.cpp:150] Setting up conv6_1_relu
I1208 17:42:24.680181  7265 net.cpp:157] Top shape: 32 256 19 19 (2957312)
I1208 17:42:24.680182  7265 net.cpp:165] Memory required for data: 7730522144
I1208 17:42:24.680184  7265 layer_factory.hpp:77] Creating layer conv6_2
I1208 17:42:24.680192  7265 net.cpp:100] Creating Layer conv6_2
I1208 17:42:24.680196  7265 net.cpp:480] conv6_2 <- conv6_1
I1208 17:42:24.680199  7265 net.cpp:454] conv6_2 -> conv6_2
I1208 17:42:24.690122  7265 net.cpp:150] Setting up conv6_2
I1208 17:42:24.690135  7265 net.cpp:157] Top shape: 32 512 10 10 (1638400)
I1208 17:42:24.690137  7265 net.cpp:165] Memory required for data: 7737075744
I1208 17:42:24.690143  7265 layer_factory.hpp:77] Creating layer conv6_2_relu
I1208 17:42:24.690147  7265 net.cpp:100] Creating Layer conv6_2_relu
I1208 17:42:24.690150  7265 net.cpp:480] conv6_2_relu <- conv6_2
I1208 17:42:24.690155  7265 net.cpp:441] conv6_2_relu -> conv6_2 (in-place)
I1208 17:42:24.692463  7265 net.cpp:150] Setting up conv6_2_relu
I1208 17:42:24.692468  7265 net.cpp:157] Top shape: 32 512 10 10 (1638400)
I1208 17:42:24.692471  7265 net.cpp:165] Memory required for data: 7743629344
I1208 17:42:24.692472  7265 layer_factory.hpp:77] Creating layer conv6_2_conv6_2_relu_0_split
I1208 17:42:24.692489  7265 net.cpp:100] Creating Layer conv6_2_conv6_2_relu_0_split
I1208 17:42:24.692492  7265 net.cpp:480] conv6_2_conv6_2_relu_0_split <- conv6_2
I1208 17:42:24.692495  7265 net.cpp:454] conv6_2_conv6_2_relu_0_split -> conv6_2_conv6_2_relu_0_split_0
I1208 17:42:24.692500  7265 net.cpp:454] conv6_2_conv6_2_relu_0_split -> conv6_2_conv6_2_relu_0_split_1
I1208 17:42:24.692505  7265 net.cpp:454] conv6_2_conv6_2_relu_0_split -> conv6_2_conv6_2_relu_0_split_2
I1208 17:42:24.692519  7265 net.cpp:454] conv6_2_conv6_2_relu_0_split -> conv6_2_conv6_2_relu_0_split_3
I1208 17:42:24.692574  7265 net.cpp:150] Setting up conv6_2_conv6_2_relu_0_split
I1208 17:42:24.692579  7265 net.cpp:157] Top shape: 32 512 10 10 (1638400)
I1208 17:42:24.692581  7265 net.cpp:157] Top shape: 32 512 10 10 (1638400)
I1208 17:42:24.692584  7265 net.cpp:157] Top shape: 32 512 10 10 (1638400)
I1208 17:42:24.692587  7265 net.cpp:157] Top shape: 32 512 10 10 (1638400)
I1208 17:42:24.692589  7265 net.cpp:165] Memory required for data: 7769843744
I1208 17:42:24.692591  7265 layer_factory.hpp:77] Creating layer conv7_1
I1208 17:42:24.692598  7265 net.cpp:100] Creating Layer conv7_1
I1208 17:42:24.692601  7265 net.cpp:480] conv7_1 <- conv6_2_conv6_2_relu_0_split_0
I1208 17:42:24.692606  7265 net.cpp:454] conv7_1 -> conv7_1
I1208 17:42:24.699338  7265 net.cpp:150] Setting up conv7_1
I1208 17:42:24.699348  7265 net.cpp:157] Top shape: 32 128 10 10 (409600)
I1208 17:42:24.699350  7265 net.cpp:165] Memory required for data: 7771482144
I1208 17:42:24.699357  7265 layer_factory.hpp:77] Creating layer conv7_1_relu
I1208 17:42:24.699360  7265 net.cpp:100] Creating Layer conv7_1_relu
I1208 17:42:24.699379  7265 net.cpp:480] conv7_1_relu <- conv7_1
I1208 17:42:24.699383  7265 net.cpp:441] conv7_1_relu -> conv7_1 (in-place)
I1208 17:42:24.701562  7265 net.cpp:150] Setting up conv7_1_relu
I1208 17:42:24.701567  7265 net.cpp:157] Top shape: 32 128 10 10 (409600)
I1208 17:42:24.701570  7265 net.cpp:165] Memory required for data: 7773120544
I1208 17:42:24.701571  7265 layer_factory.hpp:77] Creating layer conv7_2
I1208 17:42:24.701577  7265 net.cpp:100] Creating Layer conv7_2
I1208 17:42:24.701581  7265 net.cpp:480] conv7_2 <- conv7_1
I1208 17:42:24.701601  7265 net.cpp:454] conv7_2 -> conv7_2
I1208 17:42:24.708514  7265 net.cpp:150] Setting up conv7_2
I1208 17:42:24.708528  7265 net.cpp:157] Top shape: 32 256 5 5 (204800)
I1208 17:42:24.708529  7265 net.cpp:165] Memory required for data: 7773939744
I1208 17:42:24.708535  7265 layer_factory.hpp:77] Creating layer conv7_2_relu
I1208 17:42:24.708555  7265 net.cpp:100] Creating Layer conv7_2_relu
I1208 17:42:24.708559  7265 net.cpp:480] conv7_2_relu <- conv7_2
I1208 17:42:24.708573  7265 net.cpp:441] conv7_2_relu -> conv7_2 (in-place)
I1208 17:42:24.710705  7265 net.cpp:150] Setting up conv7_2_relu
I1208 17:42:24.710711  7265 net.cpp:157] Top shape: 32 256 5 5 (204800)
I1208 17:42:24.710713  7265 net.cpp:165] Memory required for data: 7774758944
I1208 17:42:24.710716  7265 layer_factory.hpp:77] Creating layer conv7_2_conv7_2_relu_0_split
I1208 17:42:24.710719  7265 net.cpp:100] Creating Layer conv7_2_conv7_2_relu_0_split
I1208 17:42:24.710721  7265 net.cpp:480] conv7_2_conv7_2_relu_0_split <- conv7_2
I1208 17:42:24.710726  7265 net.cpp:454] conv7_2_conv7_2_relu_0_split -> conv7_2_conv7_2_relu_0_split_0
I1208 17:42:24.710731  7265 net.cpp:454] conv7_2_conv7_2_relu_0_split -> conv7_2_conv7_2_relu_0_split_1
I1208 17:42:24.710736  7265 net.cpp:454] conv7_2_conv7_2_relu_0_split -> conv7_2_conv7_2_relu_0_split_2
I1208 17:42:24.710741  7265 net.cpp:454] conv7_2_conv7_2_relu_0_split -> conv7_2_conv7_2_relu_0_split_3
I1208 17:42:24.710786  7265 net.cpp:150] Setting up conv7_2_conv7_2_relu_0_split
I1208 17:42:24.710791  7265 net.cpp:157] Top shape: 32 256 5 5 (204800)
I1208 17:42:24.710794  7265 net.cpp:157] Top shape: 32 256 5 5 (204800)
I1208 17:42:24.710798  7265 net.cpp:157] Top shape: 32 256 5 5 (204800)
I1208 17:42:24.710800  7265 net.cpp:157] Top shape: 32 256 5 5 (204800)
I1208 17:42:24.710814  7265 net.cpp:165] Memory required for data: 7778035744
I1208 17:42:24.710816  7265 layer_factory.hpp:77] Creating layer conv8_1
I1208 17:42:24.710824  7265 net.cpp:100] Creating Layer conv8_1
I1208 17:42:24.710825  7265 net.cpp:480] conv8_1 <- conv7_2_conv7_2_relu_0_split_0
I1208 17:42:24.710830  7265 net.cpp:454] conv8_1 -> conv8_1
I1208 17:42:24.717567  7265 net.cpp:150] Setting up conv8_1
I1208 17:42:24.717581  7265 net.cpp:157] Top shape: 32 128 5 5 (102400)
I1208 17:42:24.717584  7265 net.cpp:165] Memory required for data: 7778445344
I1208 17:42:24.717591  7265 layer_factory.hpp:77] Creating layer conv8_1_relu
I1208 17:42:24.717595  7265 net.cpp:100] Creating Layer conv8_1_relu
I1208 17:42:24.717598  7265 net.cpp:480] conv8_1_relu <- conv8_1
I1208 17:42:24.717602  7265 net.cpp:441] conv8_1_relu -> conv8_1 (in-place)
I1208 17:42:24.719732  7265 net.cpp:150] Setting up conv8_1_relu
I1208 17:42:24.719740  7265 net.cpp:157] Top shape: 32 128 5 5 (102400)
I1208 17:42:24.719743  7265 net.cpp:165] Memory required for data: 7778854944
I1208 17:42:24.719745  7265 layer_factory.hpp:77] Creating layer conv8_2
I1208 17:42:24.719753  7265 net.cpp:100] Creating Layer conv8_2
I1208 17:42:24.719756  7265 net.cpp:480] conv8_2 <- conv8_1
I1208 17:42:24.719761  7265 net.cpp:454] conv8_2 -> conv8_2
I1208 17:42:24.730041  7265 net.cpp:150] Setting up conv8_2
I1208 17:42:24.730060  7265 net.cpp:157] Top shape: 32 256 3 3 (73728)
I1208 17:42:24.730063  7265 net.cpp:165] Memory required for data: 7779149856
I1208 17:42:24.730070  7265 layer_factory.hpp:77] Creating layer conv8_2_relu
I1208 17:42:24.730075  7265 net.cpp:100] Creating Layer conv8_2_relu
I1208 17:42:24.730078  7265 net.cpp:480] conv8_2_relu <- conv8_2
I1208 17:42:24.730082  7265 net.cpp:441] conv8_2_relu -> conv8_2 (in-place)
I1208 17:42:24.730345  7265 net.cpp:150] Setting up conv8_2_relu
I1208 17:42:24.730353  7265 net.cpp:157] Top shape: 32 256 3 3 (73728)
I1208 17:42:24.730356  7265 net.cpp:165] Memory required for data: 7779444768
I1208 17:42:24.730358  7265 layer_factory.hpp:77] Creating layer conv8_2_conv8_2_relu_0_split
I1208 17:42:24.730365  7265 net.cpp:100] Creating Layer conv8_2_conv8_2_relu_0_split
I1208 17:42:24.730368  7265 net.cpp:480] conv8_2_conv8_2_relu_0_split <- conv8_2
I1208 17:42:24.730373  7265 net.cpp:454] conv8_2_conv8_2_relu_0_split -> conv8_2_conv8_2_relu_0_split_0
I1208 17:42:24.730381  7265 net.cpp:454] conv8_2_conv8_2_relu_0_split -> conv8_2_conv8_2_relu_0_split_1
I1208 17:42:24.730386  7265 net.cpp:454] conv8_2_conv8_2_relu_0_split -> conv8_2_conv8_2_relu_0_split_2
I1208 17:42:24.730393  7265 net.cpp:454] conv8_2_conv8_2_relu_0_split -> conv8_2_conv8_2_relu_0_split_3
I1208 17:42:24.730458  7265 net.cpp:150] Setting up conv8_2_conv8_2_relu_0_split
I1208 17:42:24.730463  7265 net.cpp:157] Top shape: 32 256 3 3 (73728)
I1208 17:42:24.730468  7265 net.cpp:157] Top shape: 32 256 3 3 (73728)
I1208 17:42:24.730471  7265 net.cpp:157] Top shape: 32 256 3 3 (73728)
I1208 17:42:24.730474  7265 net.cpp:157] Top shape: 32 256 3 3 (73728)
I1208 17:42:24.730476  7265 net.cpp:165] Memory required for data: 7780624416
I1208 17:42:24.730479  7265 layer_factory.hpp:77] Creating layer conv9_1
I1208 17:42:24.730489  7265 net.cpp:100] Creating Layer conv9_1
I1208 17:42:24.730491  7265 net.cpp:480] conv9_1 <- conv8_2_conv8_2_relu_0_split_0
I1208 17:42:24.730496  7265 net.cpp:454] conv9_1 -> conv9_1
I1208 17:42:24.736812  7265 net.cpp:150] Setting up conv9_1
I1208 17:42:24.736824  7265 net.cpp:157] Top shape: 32 128 3 3 (36864)
I1208 17:42:24.736825  7265 net.cpp:165] Memory required for data: 7780771872
I1208 17:42:24.736830  7265 layer_factory.hpp:77] Creating layer conv9_1_relu
I1208 17:42:24.736835  7265 net.cpp:100] Creating Layer conv9_1_relu
I1208 17:42:24.736838  7265 net.cpp:480] conv9_1_relu <- conv9_1
I1208 17:42:24.736843  7265 net.cpp:441] conv9_1_relu -> conv9_1 (in-place)
I1208 17:42:24.738975  7265 net.cpp:150] Setting up conv9_1_relu
I1208 17:42:24.738979  7265 net.cpp:157] Top shape: 32 128 3 3 (36864)
I1208 17:42:24.738996  7265 net.cpp:165] Memory required for data: 7780919328
I1208 17:42:24.738997  7265 layer_factory.hpp:77] Creating layer conv9_2
I1208 17:42:24.739004  7265 net.cpp:100] Creating Layer conv9_2
I1208 17:42:24.739006  7265 net.cpp:480] conv9_2 <- conv9_1
I1208 17:42:24.739011  7265 net.cpp:454] conv9_2 -> conv9_2
I1208 17:42:24.746040  7265 net.cpp:150] Setting up conv9_2
I1208 17:42:24.746057  7265 net.cpp:157] Top shape: 32 256 1 1 (8192)
I1208 17:42:24.746059  7265 net.cpp:165] Memory required for data: 7780952096
I1208 17:42:24.746065  7265 layer_factory.hpp:77] Creating layer conv9_2_relu
I1208 17:42:24.746070  7265 net.cpp:100] Creating Layer conv9_2_relu
I1208 17:42:24.746073  7265 net.cpp:480] conv9_2_relu <- conv9_2
I1208 17:42:24.746078  7265 net.cpp:441] conv9_2_relu -> conv9_2 (in-place)
I1208 17:42:24.748026  7265 net.cpp:150] Setting up conv9_2_relu
I1208 17:42:24.748035  7265 net.cpp:157] Top shape: 32 256 1 1 (8192)
I1208 17:42:24.748037  7265 net.cpp:165] Memory required for data: 7780984864
I1208 17:42:24.748039  7265 layer_factory.hpp:77] Creating layer conv9_2_conv9_2_relu_0_split
I1208 17:42:24.748045  7265 net.cpp:100] Creating Layer conv9_2_conv9_2_relu_0_split
I1208 17:42:24.748047  7265 net.cpp:480] conv9_2_conv9_2_relu_0_split <- conv9_2
I1208 17:42:24.748052  7265 net.cpp:454] conv9_2_conv9_2_relu_0_split -> conv9_2_conv9_2_relu_0_split_0
I1208 17:42:24.748057  7265 net.cpp:454] conv9_2_conv9_2_relu_0_split -> conv9_2_conv9_2_relu_0_split_1
I1208 17:42:24.748062  7265 net.cpp:454] conv9_2_conv9_2_relu_0_split -> conv9_2_conv9_2_relu_0_split_2
I1208 17:42:24.748103  7265 net.cpp:150] Setting up conv9_2_conv9_2_relu_0_split
I1208 17:42:24.748108  7265 net.cpp:157] Top shape: 32 256 1 1 (8192)
I1208 17:42:24.748111  7265 net.cpp:157] Top shape: 32 256 1 1 (8192)
I1208 17:42:24.748114  7265 net.cpp:157] Top shape: 32 256 1 1 (8192)
I1208 17:42:24.748116  7265 net.cpp:165] Memory required for data: 7781083168
I1208 17:42:24.748118  7265 layer_factory.hpp:77] Creating layer conv4_3_norm_mbox_loc
I1208 17:42:24.748126  7265 net.cpp:100] Creating Layer conv4_3_norm_mbox_loc
I1208 17:42:24.748129  7265 net.cpp:480] conv4_3_norm_mbox_loc <- conv4_3_relu4_3_0_split_1
I1208 17:42:24.748133  7265 net.cpp:454] conv4_3_norm_mbox_loc -> conv4_3_norm_mbox_loc
I1208 17:42:24.755133  7265 net.cpp:150] Setting up conv4_3_norm_mbox_loc
I1208 17:42:24.755144  7265 net.cpp:157] Top shape: 32 16 38 38 (739328)
I1208 17:42:24.755147  7265 net.cpp:165] Memory required for data: 7784040480
I1208 17:42:24.755152  7265 layer_factory.hpp:77] Creating layer conv4_3_norm_mbox_loc_perm
I1208 17:42:24.755158  7265 net.cpp:100] Creating Layer conv4_3_norm_mbox_loc_perm
I1208 17:42:24.755162  7265 net.cpp:480] conv4_3_norm_mbox_loc_perm <- conv4_3_norm_mbox_loc
I1208 17:42:24.755167  7265 net.cpp:454] conv4_3_norm_mbox_loc_perm -> conv4_3_norm_mbox_loc_perm
I1208 17:42:24.755272  7265 net.cpp:150] Setting up conv4_3_norm_mbox_loc_perm
I1208 17:42:24.755278  7265 net.cpp:157] Top shape: 32 38 38 16 (739328)
I1208 17:42:24.755280  7265 net.cpp:165] Memory required for data: 7786997792
I1208 17:42:24.755282  7265 layer_factory.hpp:77] Creating layer conv4_3_norm_mbox_loc_flat
I1208 17:42:24.755287  7265 net.cpp:100] Creating Layer conv4_3_norm_mbox_loc_flat
I1208 17:42:24.755290  7265 net.cpp:480] conv4_3_norm_mbox_loc_flat <- conv4_3_norm_mbox_loc_perm
I1208 17:42:24.755295  7265 net.cpp:454] conv4_3_norm_mbox_loc_flat -> conv4_3_norm_mbox_loc_flat
I1208 17:42:24.755316  7265 net.cpp:150] Setting up conv4_3_norm_mbox_loc_flat
I1208 17:42:24.755319  7265 net.cpp:157] Top shape: 32 23104 (739328)
I1208 17:42:24.755321  7265 net.cpp:165] Memory required for data: 7789955104
I1208 17:42:24.755324  7265 layer_factory.hpp:77] Creating layer conv4_3_norm_mbox_conf
I1208 17:42:24.755338  7265 net.cpp:100] Creating Layer conv4_3_norm_mbox_conf
I1208 17:42:24.755343  7265 net.cpp:480] conv4_3_norm_mbox_conf <- conv4_3_relu4_3_0_split_2
I1208 17:42:24.755347  7265 net.cpp:454] conv4_3_norm_mbox_conf -> conv4_3_norm_mbox_conf
I1208 17:42:24.765352  7265 net.cpp:150] Setting up conv4_3_norm_mbox_conf
I1208 17:42:24.765365  7265 net.cpp:157] Top shape: 32 84 38 38 (3881472)
I1208 17:42:24.765368  7265 net.cpp:165] Memory required for data: 7805480992
I1208 17:42:24.765374  7265 layer_factory.hpp:77] Creating layer conv4_3_norm_mbox_conf_perm
I1208 17:42:24.765381  7265 net.cpp:100] Creating Layer conv4_3_norm_mbox_conf_perm
I1208 17:42:24.765385  7265 net.cpp:480] conv4_3_norm_mbox_conf_perm <- conv4_3_norm_mbox_conf
I1208 17:42:24.765389  7265 net.cpp:454] conv4_3_norm_mbox_conf_perm -> conv4_3_norm_mbox_conf_perm
I1208 17:42:24.765530  7265 net.cpp:150] Setting up conv4_3_norm_mbox_conf_perm
I1208 17:42:24.765537  7265 net.cpp:157] Top shape: 32 38 38 84 (3881472)
I1208 17:42:24.765540  7265 net.cpp:165] Memory required for data: 7821006880
I1208 17:42:24.765542  7265 layer_factory.hpp:77] Creating layer conv4_3_norm_mbox_conf_flat
I1208 17:42:24.765548  7265 net.cpp:100] Creating Layer conv4_3_norm_mbox_conf_flat
I1208 17:42:24.765552  7265 net.cpp:480] conv4_3_norm_mbox_conf_flat <- conv4_3_norm_mbox_conf_perm
I1208 17:42:24.765556  7265 net.cpp:454] conv4_3_norm_mbox_conf_flat -> conv4_3_norm_mbox_conf_flat
I1208 17:42:24.765578  7265 net.cpp:150] Setting up conv4_3_norm_mbox_conf_flat
I1208 17:42:24.765583  7265 net.cpp:157] Top shape: 32 121296 (3881472)
I1208 17:42:24.765585  7265 net.cpp:165] Memory required for data: 7836532768
I1208 17:42:24.765588  7265 layer_factory.hpp:77] Creating layer conv4_3_norm_mbox_priorbox
I1208 17:42:24.765595  7265 net.cpp:100] Creating Layer conv4_3_norm_mbox_priorbox
I1208 17:42:24.765599  7265 net.cpp:480] conv4_3_norm_mbox_priorbox <- conv4_3_relu4_3_0_split_3
I1208 17:42:24.765604  7265 net.cpp:480] conv4_3_norm_mbox_priorbox <- data_data_0_split_1
I1208 17:42:24.765609  7265 net.cpp:454] conv4_3_norm_mbox_priorbox -> conv4_3_norm_mbox_priorbox
I1208 17:42:24.765636  7265 net.cpp:150] Setting up conv4_3_norm_mbox_priorbox
I1208 17:42:24.765641  7265 net.cpp:157] Top shape: 1 2 23104 (46208)
I1208 17:42:24.765645  7265 net.cpp:165] Memory required for data: 7836717600
I1208 17:42:24.765648  7265 layer_factory.hpp:77] Creating layer fc7_mbox_loc
I1208 17:42:24.765656  7265 net.cpp:100] Creating Layer fc7_mbox_loc
I1208 17:42:24.765660  7265 net.cpp:480] fc7_mbox_loc <- fc7_682_relu7_0_split_1
I1208 17:42:24.765666  7265 net.cpp:454] fc7_mbox_loc -> fc7_mbox_loc
I1208 17:42:24.775014  7265 net.cpp:150] Setting up fc7_mbox_loc
I1208 17:42:24.775029  7265 net.cpp:157] Top shape: 32 24 19 19 (277248)
I1208 17:42:24.775032  7265 net.cpp:165] Memory required for data: 7837826592
I1208 17:42:24.775038  7265 layer_factory.hpp:77] Creating layer fc7_mbox_loc_perm
I1208 17:42:24.775046  7265 net.cpp:100] Creating Layer fc7_mbox_loc_perm
I1208 17:42:24.775049  7265 net.cpp:480] fc7_mbox_loc_perm <- fc7_mbox_loc
I1208 17:42:24.775053  7265 net.cpp:454] fc7_mbox_loc_perm -> fc7_mbox_loc_perm
I1208 17:42:24.775144  7265 net.cpp:150] Setting up fc7_mbox_loc_perm
I1208 17:42:24.775149  7265 net.cpp:157] Top shape: 32 19 19 24 (277248)
I1208 17:42:24.775152  7265 net.cpp:165] Memory required for data: 7838935584
I1208 17:42:24.775154  7265 layer_factory.hpp:77] Creating layer fc7_mbox_loc_flat
I1208 17:42:24.775158  7265 net.cpp:100] Creating Layer fc7_mbox_loc_flat
I1208 17:42:24.775161  7265 net.cpp:480] fc7_mbox_loc_flat <- fc7_mbox_loc_perm
I1208 17:42:24.775164  7265 net.cpp:454] fc7_mbox_loc_flat -> fc7_mbox_loc_flat
I1208 17:42:24.775179  7265 net.cpp:150] Setting up fc7_mbox_loc_flat
I1208 17:42:24.775200  7265 net.cpp:157] Top shape: 32 8664 (277248)
I1208 17:42:24.775203  7265 net.cpp:165] Memory required for data: 7840044576
I1208 17:42:24.775205  7265 layer_factory.hpp:77] Creating layer fc7_mbox_conf
I1208 17:42:24.775213  7265 net.cpp:100] Creating Layer fc7_mbox_conf
I1208 17:42:24.775215  7265 net.cpp:480] fc7_mbox_conf <- fc7_682_relu7_0_split_2
I1208 17:42:24.775220  7265 net.cpp:454] fc7_mbox_conf -> fc7_mbox_conf
I1208 17:42:24.783166  7265 net.cpp:150] Setting up fc7_mbox_conf
I1208 17:42:24.783183  7265 net.cpp:157] Top shape: 32 126 19 19 (1455552)
I1208 17:42:24.783201  7265 net.cpp:165] Memory required for data: 7845866784
I1208 17:42:24.783211  7265 layer_factory.hpp:77] Creating layer fc7_mbox_conf_perm
I1208 17:42:24.783218  7265 net.cpp:100] Creating Layer fc7_mbox_conf_perm
I1208 17:42:24.783223  7265 net.cpp:480] fc7_mbox_conf_perm <- fc7_mbox_conf
I1208 17:42:24.783229  7265 net.cpp:454] fc7_mbox_conf_perm -> fc7_mbox_conf_perm
I1208 17:42:24.783350  7265 net.cpp:150] Setting up fc7_mbox_conf_perm
I1208 17:42:24.783357  7265 net.cpp:157] Top shape: 32 19 19 126 (1455552)
I1208 17:42:24.783360  7265 net.cpp:165] Memory required for data: 7851688992
I1208 17:42:24.783362  7265 layer_factory.hpp:77] Creating layer fc7_mbox_conf_flat
I1208 17:42:24.783368  7265 net.cpp:100] Creating Layer fc7_mbox_conf_flat
I1208 17:42:24.783371  7265 net.cpp:480] fc7_mbox_conf_flat <- fc7_mbox_conf_perm
I1208 17:42:24.783376  7265 net.cpp:454] fc7_mbox_conf_flat -> fc7_mbox_conf_flat
I1208 17:42:24.783398  7265 net.cpp:150] Setting up fc7_mbox_conf_flat
I1208 17:42:24.783404  7265 net.cpp:157] Top shape: 32 45486 (1455552)
I1208 17:42:24.783408  7265 net.cpp:165] Memory required for data: 7857511200
I1208 17:42:24.783411  7265 layer_factory.hpp:77] Creating layer fc7_mbox_priorbox
I1208 17:42:24.783421  7265 net.cpp:100] Creating Layer fc7_mbox_priorbox
I1208 17:42:24.783426  7265 net.cpp:480] fc7_mbox_priorbox <- fc7_682_relu7_0_split_3
I1208 17:42:24.783430  7265 net.cpp:480] fc7_mbox_priorbox <- data_data_0_split_2
I1208 17:42:24.783435  7265 net.cpp:454] fc7_mbox_priorbox -> fc7_mbox_priorbox
I1208 17:42:24.783462  7265 net.cpp:150] Setting up fc7_mbox_priorbox
I1208 17:42:24.783468  7265 net.cpp:157] Top shape: 1 2 8664 (17328)
I1208 17:42:24.783471  7265 net.cpp:165] Memory required for data: 7857580512
I1208 17:42:24.783473  7265 layer_factory.hpp:77] Creating layer conv6_2_mbox_loc
I1208 17:42:24.783483  7265 net.cpp:100] Creating Layer conv6_2_mbox_loc
I1208 17:42:24.783488  7265 net.cpp:480] conv6_2_mbox_loc <- conv6_2_conv6_2_relu_0_split_1
I1208 17:42:24.783493  7265 net.cpp:454] conv6_2_mbox_loc -> conv6_2_mbox_loc
I1208 17:42:24.789809  7265 net.cpp:150] Setting up conv6_2_mbox_loc
I1208 17:42:24.789826  7265 net.cpp:157] Top shape: 32 24 10 10 (76800)
I1208 17:42:24.789830  7265 net.cpp:165] Memory required for data: 7857887712
I1208 17:42:24.789837  7265 layer_factory.hpp:77] Creating layer conv6_2_mbox_loc_perm
I1208 17:42:24.789844  7265 net.cpp:100] Creating Layer conv6_2_mbox_loc_perm
I1208 17:42:24.789849  7265 net.cpp:480] conv6_2_mbox_loc_perm <- conv6_2_mbox_loc
I1208 17:42:24.789855  7265 net.cpp:454] conv6_2_mbox_loc_perm -> conv6_2_mbox_loc_perm
I1208 17:42:24.789979  7265 net.cpp:150] Setting up conv6_2_mbox_loc_perm
I1208 17:42:24.789986  7265 net.cpp:157] Top shape: 32 10 10 24 (76800)
I1208 17:42:24.789989  7265 net.cpp:165] Memory required for data: 7858194912
I1208 17:42:24.789994  7265 layer_factory.hpp:77] Creating layer conv6_2_mbox_loc_flat
I1208 17:42:24.789999  7265 net.cpp:100] Creating Layer conv6_2_mbox_loc_flat
I1208 17:42:24.790001  7265 net.cpp:480] conv6_2_mbox_loc_flat <- conv6_2_mbox_loc_perm
I1208 17:42:24.790006  7265 net.cpp:454] conv6_2_mbox_loc_flat -> conv6_2_mbox_loc_flat
I1208 17:42:24.790030  7265 net.cpp:150] Setting up conv6_2_mbox_loc_flat
I1208 17:42:24.790036  7265 net.cpp:157] Top shape: 32 2400 (76800)
I1208 17:42:24.790040  7265 net.cpp:165] Memory required for data: 7858502112
I1208 17:42:24.790046  7265 layer_factory.hpp:77] Creating layer conv6_2_mbox_conf
I1208 17:42:24.790056  7265 net.cpp:100] Creating Layer conv6_2_mbox_conf
I1208 17:42:24.790060  7265 net.cpp:480] conv6_2_mbox_conf <- conv6_2_conv6_2_relu_0_split_2
I1208 17:42:24.790066  7265 net.cpp:454] conv6_2_mbox_conf -> conv6_2_mbox_conf
I1208 17:42:24.797590  7265 net.cpp:150] Setting up conv6_2_mbox_conf
I1208 17:42:24.797605  7265 net.cpp:157] Top shape: 32 126 10 10 (403200)
I1208 17:42:24.797607  7265 net.cpp:165] Memory required for data: 7860114912
I1208 17:42:24.797614  7265 layer_factory.hpp:77] Creating layer conv6_2_mbox_conf_perm
I1208 17:42:24.797636  7265 net.cpp:100] Creating Layer conv6_2_mbox_conf_perm
I1208 17:42:24.797641  7265 net.cpp:480] conv6_2_mbox_conf_perm <- conv6_2_mbox_conf
I1208 17:42:24.797646  7265 net.cpp:454] conv6_2_mbox_conf_perm -> conv6_2_mbox_conf_perm
I1208 17:42:24.797754  7265 net.cpp:150] Setting up conv6_2_mbox_conf_perm
I1208 17:42:24.797758  7265 net.cpp:157] Top shape: 32 10 10 126 (403200)
I1208 17:42:24.797761  7265 net.cpp:165] Memory required for data: 7861727712
I1208 17:42:24.797763  7265 layer_factory.hpp:77] Creating layer conv6_2_mbox_conf_flat
I1208 17:42:24.797767  7265 net.cpp:100] Creating Layer conv6_2_mbox_conf_flat
I1208 17:42:24.797770  7265 net.cpp:480] conv6_2_mbox_conf_flat <- conv6_2_mbox_conf_perm
I1208 17:42:24.797775  7265 net.cpp:454] conv6_2_mbox_conf_flat -> conv6_2_mbox_conf_flat
I1208 17:42:24.797793  7265 net.cpp:150] Setting up conv6_2_mbox_conf_flat
I1208 17:42:24.797797  7265 net.cpp:157] Top shape: 32 12600 (403200)
I1208 17:42:24.797799  7265 net.cpp:165] Memory required for data: 7863340512
I1208 17:42:24.797801  7265 layer_factory.hpp:77] Creating layer conv6_2_mbox_priorbox
I1208 17:42:24.797823  7265 net.cpp:100] Creating Layer conv6_2_mbox_priorbox
I1208 17:42:24.797827  7265 net.cpp:480] conv6_2_mbox_priorbox <- conv6_2_conv6_2_relu_0_split_3
I1208 17:42:24.797830  7265 net.cpp:480] conv6_2_mbox_priorbox <- data_data_0_split_3
I1208 17:42:24.797837  7265 net.cpp:454] conv6_2_mbox_priorbox -> conv6_2_mbox_priorbox
I1208 17:42:24.797860  7265 net.cpp:150] Setting up conv6_2_mbox_priorbox
I1208 17:42:24.797864  7265 net.cpp:157] Top shape: 1 2 2400 (4800)
I1208 17:42:24.797868  7265 net.cpp:165] Memory required for data: 7863359712
I1208 17:42:24.797871  7265 layer_factory.hpp:77] Creating layer conv7_2_mbox_loc
I1208 17:42:24.797883  7265 net.cpp:100] Creating Layer conv7_2_mbox_loc
I1208 17:42:24.797886  7265 net.cpp:480] conv7_2_mbox_loc <- conv7_2_conv7_2_relu_0_split_1
I1208 17:42:24.797894  7265 net.cpp:454] conv7_2_mbox_loc -> conv7_2_mbox_loc
I1208 17:42:24.804214  7265 net.cpp:150] Setting up conv7_2_mbox_loc
I1208 17:42:24.804224  7265 net.cpp:157] Top shape: 32 24 5 5 (19200)
I1208 17:42:24.804226  7265 net.cpp:165] Memory required for data: 7863436512
I1208 17:42:24.804253  7265 layer_factory.hpp:77] Creating layer conv7_2_mbox_loc_perm
I1208 17:42:24.804260  7265 net.cpp:100] Creating Layer conv7_2_mbox_loc_perm
I1208 17:42:24.804275  7265 net.cpp:480] conv7_2_mbox_loc_perm <- conv7_2_mbox_loc
I1208 17:42:24.804280  7265 net.cpp:454] conv7_2_mbox_loc_perm -> conv7_2_mbox_loc_perm
I1208 17:42:24.804371  7265 net.cpp:150] Setting up conv7_2_mbox_loc_perm
I1208 17:42:24.804378  7265 net.cpp:157] Top shape: 32 5 5 24 (19200)
I1208 17:42:24.804379  7265 net.cpp:165] Memory required for data: 7863513312
I1208 17:42:24.804381  7265 layer_factory.hpp:77] Creating layer conv7_2_mbox_loc_flat
I1208 17:42:24.804385  7265 net.cpp:100] Creating Layer conv7_2_mbox_loc_flat
I1208 17:42:24.804389  7265 net.cpp:480] conv7_2_mbox_loc_flat <- conv7_2_mbox_loc_perm
I1208 17:42:24.804392  7265 net.cpp:454] conv7_2_mbox_loc_flat -> conv7_2_mbox_loc_flat
I1208 17:42:24.804410  7265 net.cpp:150] Setting up conv7_2_mbox_loc_flat
I1208 17:42:24.804414  7265 net.cpp:157] Top shape: 32 600 (19200)
I1208 17:42:24.804416  7265 net.cpp:165] Memory required for data: 7863590112
I1208 17:42:24.804419  7265 layer_factory.hpp:77] Creating layer conv7_2_mbox_conf
I1208 17:42:24.804425  7265 net.cpp:100] Creating Layer conv7_2_mbox_conf
I1208 17:42:24.804428  7265 net.cpp:480] conv7_2_mbox_conf <- conv7_2_conv7_2_relu_0_split_2
I1208 17:42:24.804433  7265 net.cpp:454] conv7_2_mbox_conf -> conv7_2_mbox_conf
I1208 17:42:24.810994  7265 net.cpp:150] Setting up conv7_2_mbox_conf
I1208 17:42:24.811007  7265 net.cpp:157] Top shape: 32 126 5 5 (100800)
I1208 17:42:24.811009  7265 net.cpp:165] Memory required for data: 7863993312
I1208 17:42:24.811015  7265 layer_factory.hpp:77] Creating layer conv7_2_mbox_conf_perm
I1208 17:42:24.811020  7265 net.cpp:100] Creating Layer conv7_2_mbox_conf_perm
I1208 17:42:24.811036  7265 net.cpp:480] conv7_2_mbox_conf_perm <- conv7_2_mbox_conf
I1208 17:42:24.811040  7265 net.cpp:454] conv7_2_mbox_conf_perm -> conv7_2_mbox_conf_perm
I1208 17:42:24.811125  7265 net.cpp:150] Setting up conv7_2_mbox_conf_perm
I1208 17:42:24.811128  7265 net.cpp:157] Top shape: 32 5 5 126 (100800)
I1208 17:42:24.811131  7265 net.cpp:165] Memory required for data: 7864396512
I1208 17:42:24.811132  7265 layer_factory.hpp:77] Creating layer conv7_2_mbox_conf_flat
I1208 17:42:24.811136  7265 net.cpp:100] Creating Layer conv7_2_mbox_conf_flat
I1208 17:42:24.811138  7265 net.cpp:480] conv7_2_mbox_conf_flat <- conv7_2_mbox_conf_perm
I1208 17:42:24.811142  7265 net.cpp:454] conv7_2_mbox_conf_flat -> conv7_2_mbox_conf_flat
I1208 17:42:24.811157  7265 net.cpp:150] Setting up conv7_2_mbox_conf_flat
I1208 17:42:24.811161  7265 net.cpp:157] Top shape: 32 3150 (100800)
I1208 17:42:24.811162  7265 net.cpp:165] Memory required for data: 7864799712
I1208 17:42:24.811164  7265 layer_factory.hpp:77] Creating layer conv7_2_mbox_priorbox
I1208 17:42:24.811169  7265 net.cpp:100] Creating Layer conv7_2_mbox_priorbox
I1208 17:42:24.811172  7265 net.cpp:480] conv7_2_mbox_priorbox <- conv7_2_conv7_2_relu_0_split_3
I1208 17:42:24.811177  7265 net.cpp:480] conv7_2_mbox_priorbox <- data_data_0_split_4
I1208 17:42:24.811180  7265 net.cpp:454] conv7_2_mbox_priorbox -> conv7_2_mbox_priorbox
I1208 17:42:24.811199  7265 net.cpp:150] Setting up conv7_2_mbox_priorbox
I1208 17:42:24.811214  7265 net.cpp:157] Top shape: 1 2 600 (1200)
I1208 17:42:24.811216  7265 net.cpp:165] Memory required for data: 7864804512
I1208 17:42:24.811218  7265 layer_factory.hpp:77] Creating layer conv8_2_mbox_loc
I1208 17:42:24.811225  7265 net.cpp:100] Creating Layer conv8_2_mbox_loc
I1208 17:42:24.811228  7265 net.cpp:480] conv8_2_mbox_loc <- conv8_2_conv8_2_relu_0_split_1
I1208 17:42:24.811233  7265 net.cpp:454] conv8_2_mbox_loc -> conv8_2_mbox_loc
I1208 17:42:24.817783  7265 net.cpp:150] Setting up conv8_2_mbox_loc
I1208 17:42:24.817795  7265 net.cpp:157] Top shape: 32 16 3 3 (4608)
I1208 17:42:24.817798  7265 net.cpp:165] Memory required for data: 7864822944
I1208 17:42:24.817803  7265 layer_factory.hpp:77] Creating layer conv8_2_mbox_loc_perm
I1208 17:42:24.817809  7265 net.cpp:100] Creating Layer conv8_2_mbox_loc_perm
I1208 17:42:24.817812  7265 net.cpp:480] conv8_2_mbox_loc_perm <- conv8_2_mbox_loc
I1208 17:42:24.817817  7265 net.cpp:454] conv8_2_mbox_loc_perm -> conv8_2_mbox_loc_perm
I1208 17:42:24.817919  7265 net.cpp:150] Setting up conv8_2_mbox_loc_perm
I1208 17:42:24.817924  7265 net.cpp:157] Top shape: 32 3 3 16 (4608)
I1208 17:42:24.817926  7265 net.cpp:165] Memory required for data: 7864841376
I1208 17:42:24.817929  7265 layer_factory.hpp:77] Creating layer conv8_2_mbox_loc_flat
I1208 17:42:24.817932  7265 net.cpp:100] Creating Layer conv8_2_mbox_loc_flat
I1208 17:42:24.817935  7265 net.cpp:480] conv8_2_mbox_loc_flat <- conv8_2_mbox_loc_perm
I1208 17:42:24.817939  7265 net.cpp:454] conv8_2_mbox_loc_flat -> conv8_2_mbox_loc_flat
I1208 17:42:24.817957  7265 net.cpp:150] Setting up conv8_2_mbox_loc_flat
I1208 17:42:24.817960  7265 net.cpp:157] Top shape: 32 144 (4608)
I1208 17:42:24.817962  7265 net.cpp:165] Memory required for data: 7864859808
I1208 17:42:24.817965  7265 layer_factory.hpp:77] Creating layer conv8_2_mbox_conf
I1208 17:42:24.817971  7265 net.cpp:100] Creating Layer conv8_2_mbox_conf
I1208 17:42:24.817973  7265 net.cpp:480] conv8_2_mbox_conf <- conv8_2_conv8_2_relu_0_split_2
I1208 17:42:24.817978  7265 net.cpp:454] conv8_2_mbox_conf -> conv8_2_mbox_conf
I1208 17:42:24.824592  7265 net.cpp:150] Setting up conv8_2_mbox_conf
I1208 17:42:24.824605  7265 net.cpp:157] Top shape: 32 84 3 3 (24192)
I1208 17:42:24.824609  7265 net.cpp:165] Memory required for data: 7864956576
I1208 17:42:24.824615  7265 layer_factory.hpp:77] Creating layer conv8_2_mbox_conf_perm
I1208 17:42:24.824620  7265 net.cpp:100] Creating Layer conv8_2_mbox_conf_perm
I1208 17:42:24.824630  7265 net.cpp:480] conv8_2_mbox_conf_perm <- conv8_2_mbox_conf
I1208 17:42:24.824646  7265 net.cpp:454] conv8_2_mbox_conf_perm -> conv8_2_mbox_conf_perm
I1208 17:42:24.824740  7265 net.cpp:150] Setting up conv8_2_mbox_conf_perm
I1208 17:42:24.824745  7265 net.cpp:157] Top shape: 32 3 3 84 (24192)
I1208 17:42:24.824748  7265 net.cpp:165] Memory required for data: 7865053344
I1208 17:42:24.824753  7265 layer_factory.hpp:77] Creating layer conv8_2_mbox_conf_flat
I1208 17:42:24.824756  7265 net.cpp:100] Creating Layer conv8_2_mbox_conf_flat
I1208 17:42:24.824759  7265 net.cpp:480] conv8_2_mbox_conf_flat <- conv8_2_mbox_conf_perm
I1208 17:42:24.824764  7265 net.cpp:454] conv8_2_mbox_conf_flat -> conv8_2_mbox_conf_flat
I1208 17:42:24.824781  7265 net.cpp:150] Setting up conv8_2_mbox_conf_flat
I1208 17:42:24.824784  7265 net.cpp:157] Top shape: 32 756 (24192)
I1208 17:42:24.824786  7265 net.cpp:165] Memory required for data: 7865150112
I1208 17:42:24.824789  7265 layer_factory.hpp:77] Creating layer conv8_2_mbox_priorbox
I1208 17:42:24.824793  7265 net.cpp:100] Creating Layer conv8_2_mbox_priorbox
I1208 17:42:24.824795  7265 net.cpp:480] conv8_2_mbox_priorbox <- conv8_2_conv8_2_relu_0_split_3
I1208 17:42:24.824800  7265 net.cpp:480] conv8_2_mbox_priorbox <- data_data_0_split_5
I1208 17:42:24.824805  7265 net.cpp:454] conv8_2_mbox_priorbox -> conv8_2_mbox_priorbox
I1208 17:42:24.824838  7265 net.cpp:150] Setting up conv8_2_mbox_priorbox
I1208 17:42:24.824843  7265 net.cpp:157] Top shape: 1 2 144 (288)
I1208 17:42:24.824846  7265 net.cpp:165] Memory required for data: 7865151264
I1208 17:42:24.824849  7265 layer_factory.hpp:77] Creating layer conv9_2_mbox_loc
I1208 17:42:24.824857  7265 net.cpp:100] Creating Layer conv9_2_mbox_loc
I1208 17:42:24.824862  7265 net.cpp:480] conv9_2_mbox_loc <- conv9_2_conv9_2_relu_0_split_0
I1208 17:42:24.824867  7265 net.cpp:454] conv9_2_mbox_loc -> conv9_2_mbox_loc
I1208 17:42:24.832479  7265 net.cpp:150] Setting up conv9_2_mbox_loc
I1208 17:42:24.832489  7265 net.cpp:157] Top shape: 32 16 1 1 (512)
I1208 17:42:24.832491  7265 net.cpp:165] Memory required for data: 7865153312
I1208 17:42:24.832496  7265 layer_factory.hpp:77] Creating layer conv9_2_mbox_loc_perm
I1208 17:42:24.832502  7265 net.cpp:100] Creating Layer conv9_2_mbox_loc_perm
I1208 17:42:24.832505  7265 net.cpp:480] conv9_2_mbox_loc_perm <- conv9_2_mbox_loc
I1208 17:42:24.832510  7265 net.cpp:454] conv9_2_mbox_loc_perm -> conv9_2_mbox_loc_perm
I1208 17:42:24.832610  7265 net.cpp:150] Setting up conv9_2_mbox_loc_perm
I1208 17:42:24.832615  7265 net.cpp:157] Top shape: 32 1 1 16 (512)
I1208 17:42:24.832617  7265 net.cpp:165] Memory required for data: 7865155360
I1208 17:42:24.832619  7265 layer_factory.hpp:77] Creating layer conv9_2_mbox_loc_flat
I1208 17:42:24.832623  7265 net.cpp:100] Creating Layer conv9_2_mbox_loc_flat
I1208 17:42:24.832626  7265 net.cpp:480] conv9_2_mbox_loc_flat <- conv9_2_mbox_loc_perm
I1208 17:42:24.832630  7265 net.cpp:454] conv9_2_mbox_loc_flat -> conv9_2_mbox_loc_flat
I1208 17:42:24.832648  7265 net.cpp:150] Setting up conv9_2_mbox_loc_flat
I1208 17:42:24.832653  7265 net.cpp:157] Top shape: 32 16 (512)
I1208 17:42:24.832657  7265 net.cpp:165] Memory required for data: 7865157408
I1208 17:42:24.832659  7265 layer_factory.hpp:77] Creating layer conv9_2_mbox_conf
I1208 17:42:24.832666  7265 net.cpp:100] Creating Layer conv9_2_mbox_conf
I1208 17:42:24.832669  7265 net.cpp:480] conv9_2_mbox_conf <- conv9_2_conv9_2_relu_0_split_1
I1208 17:42:24.832675  7265 net.cpp:454] conv9_2_mbox_conf -> conv9_2_mbox_conf
I1208 17:42:24.839316  7265 net.cpp:150] Setting up conv9_2_mbox_conf
I1208 17:42:24.839326  7265 net.cpp:157] Top shape: 32 84 1 1 (2688)
I1208 17:42:24.839329  7265 net.cpp:165] Memory required for data: 7865168160
I1208 17:42:24.839334  7265 layer_factory.hpp:77] Creating layer conv9_2_mbox_conf_perm
I1208 17:42:24.839356  7265 net.cpp:100] Creating Layer conv9_2_mbox_conf_perm
I1208 17:42:24.839359  7265 net.cpp:480] conv9_2_mbox_conf_perm <- conv9_2_mbox_conf
I1208 17:42:24.839365  7265 net.cpp:454] conv9_2_mbox_conf_perm -> conv9_2_mbox_conf_perm
I1208 17:42:24.839454  7265 net.cpp:150] Setting up conv9_2_mbox_conf_perm
I1208 17:42:24.839459  7265 net.cpp:157] Top shape: 32 1 1 84 (2688)
I1208 17:42:24.839462  7265 net.cpp:165] Memory required for data: 7865178912
I1208 17:42:24.839463  7265 layer_factory.hpp:77] Creating layer conv9_2_mbox_conf_flat
I1208 17:42:24.839468  7265 net.cpp:100] Creating Layer conv9_2_mbox_conf_flat
I1208 17:42:24.839470  7265 net.cpp:480] conv9_2_mbox_conf_flat <- conv9_2_mbox_conf_perm
I1208 17:42:24.839474  7265 net.cpp:454] conv9_2_mbox_conf_flat -> conv9_2_mbox_conf_flat
I1208 17:42:24.839490  7265 net.cpp:150] Setting up conv9_2_mbox_conf_flat
I1208 17:42:24.839493  7265 net.cpp:157] Top shape: 32 84 (2688)
I1208 17:42:24.839495  7265 net.cpp:165] Memory required for data: 7865189664
I1208 17:42:24.839498  7265 layer_factory.hpp:77] Creating layer conv9_2_mbox_priorbox
I1208 17:42:24.839501  7265 net.cpp:100] Creating Layer conv9_2_mbox_priorbox
I1208 17:42:24.839504  7265 net.cpp:480] conv9_2_mbox_priorbox <- conv9_2_conv9_2_relu_0_split_2
I1208 17:42:24.839507  7265 net.cpp:480] conv9_2_mbox_priorbox <- data_data_0_split_6
I1208 17:42:24.839511  7265 net.cpp:454] conv9_2_mbox_priorbox -> conv9_2_mbox_priorbox
I1208 17:42:24.839529  7265 net.cpp:150] Setting up conv9_2_mbox_priorbox
I1208 17:42:24.839534  7265 net.cpp:157] Top shape: 1 2 16 (32)
I1208 17:42:24.839536  7265 net.cpp:165] Memory required for data: 7865189792
I1208 17:42:24.839537  7265 layer_factory.hpp:77] Creating layer mbox_loc
I1208 17:42:24.839542  7265 net.cpp:100] Creating Layer mbox_loc
I1208 17:42:24.839546  7265 net.cpp:480] mbox_loc <- conv4_3_norm_mbox_loc_flat
I1208 17:42:24.839550  7265 net.cpp:480] mbox_loc <- fc7_mbox_loc_flat
I1208 17:42:24.839553  7265 net.cpp:480] mbox_loc <- conv6_2_mbox_loc_flat
I1208 17:42:24.839557  7265 net.cpp:480] mbox_loc <- conv7_2_mbox_loc_flat
I1208 17:42:24.839561  7265 net.cpp:480] mbox_loc <- conv8_2_mbox_loc_flat
I1208 17:42:24.839565  7265 net.cpp:480] mbox_loc <- conv9_2_mbox_loc_flat
I1208 17:42:24.839567  7265 net.cpp:454] mbox_loc -> mbox_loc
I1208 17:42:24.839598  7265 net.cpp:150] Setting up mbox_loc
I1208 17:42:24.839603  7265 net.cpp:157] Top shape: 32 34928 (1117696)
I1208 17:42:24.839607  7265 net.cpp:165] Memory required for data: 7869660576
I1208 17:42:24.839609  7265 layer_factory.hpp:77] Creating layer mbox_conf
I1208 17:42:24.839613  7265 net.cpp:100] Creating Layer mbox_conf
I1208 17:42:24.839617  7265 net.cpp:480] mbox_conf <- conv4_3_norm_mbox_conf_flat
I1208 17:42:24.839622  7265 net.cpp:480] mbox_conf <- fc7_mbox_conf_flat
I1208 17:42:24.839624  7265 net.cpp:480] mbox_conf <- conv6_2_mbox_conf_flat
I1208 17:42:24.839627  7265 net.cpp:480] mbox_conf <- conv7_2_mbox_conf_flat
I1208 17:42:24.839632  7265 net.cpp:480] mbox_conf <- conv8_2_mbox_conf_flat
I1208 17:42:24.839634  7265 net.cpp:480] mbox_conf <- conv9_2_mbox_conf_flat
I1208 17:42:24.839637  7265 net.cpp:454] mbox_conf -> mbox_conf
I1208 17:42:24.839655  7265 net.cpp:150] Setting up mbox_conf
I1208 17:42:24.839660  7265 net.cpp:157] Top shape: 32 183372 (5867904)
I1208 17:42:24.839663  7265 net.cpp:165] Memory required for data: 7893132192
I1208 17:42:24.839665  7265 layer_factory.hpp:77] Creating layer mbox_priorbox
I1208 17:42:24.839668  7265 net.cpp:100] Creating Layer mbox_priorbox
I1208 17:42:24.839671  7265 net.cpp:480] mbox_priorbox <- conv4_3_norm_mbox_priorbox
I1208 17:42:24.839675  7265 net.cpp:480] mbox_priorbox <- fc7_mbox_priorbox
I1208 17:42:24.839679  7265 net.cpp:480] mbox_priorbox <- conv6_2_mbox_priorbox
I1208 17:42:24.839681  7265 net.cpp:480] mbox_priorbox <- conv7_2_mbox_priorbox
I1208 17:42:24.839684  7265 net.cpp:480] mbox_priorbox <- conv8_2_mbox_priorbox
I1208 17:42:24.839687  7265 net.cpp:480] mbox_priorbox <- conv9_2_mbox_priorbox
I1208 17:42:24.839691  7265 net.cpp:454] mbox_priorbox -> mbox_priorbox
I1208 17:42:24.839709  7265 net.cpp:150] Setting up mbox_priorbox
I1208 17:42:24.839715  7265 net.cpp:157] Top shape: 1 2 34928 (69856)
I1208 17:42:24.839716  7265 net.cpp:165] Memory required for data: 7893411616
I1208 17:42:24.839725  7265 layer_factory.hpp:77] Creating layer mbox_loss
I1208 17:42:24.839731  7265 net.cpp:100] Creating Layer mbox_loss
I1208 17:42:24.839735  7265 net.cpp:480] mbox_loss <- mbox_loc
I1208 17:42:24.839737  7265 net.cpp:480] mbox_loss <- mbox_conf
I1208 17:42:24.839740  7265 net.cpp:480] mbox_loss <- mbox_priorbox
…
state {
  phase: TEST
}
layer {
  name: "data"
  type: "AnnotatedData"
  top: "data"
  top: "label"
  include {
    phase: TEST
  }
  transform_param {
    mean_value: 104
    mean_value: 117
    mean_value: 123
    resize_param {
      prob: 1
      resize_mode: WARP
      height: 300
      width: 300
      interp_mode: LINEAR
    }
  }
  data_param {
    source: "examples/VOC0712/VOC0712_test_lmdb"
    batch_size: 8
    backend: LMDB
  }
  annotated_data_param {
    batch_sampler {
    }
    label_map_file: "data/VOC0712/labelmap_voc.prototxt"
  }
}
layer {
  name: "conv1_1"
  type: "Convolution"
  bottom: "data"
  top: "conv1_1"
  param {
    lr_mult: 1
    decay_mult: 1
  }
  param {
    lr_mult: 2
    decay_mult: 0
  }
  convolution_param {
    num_output: 64
    pad: 1
    kernel_size: 3
    weight_filler {
      type: "xavier"
    }
    bias_filler {
      type: "constant"
      value: 0
    }
  }
}
layer {
  name: "relu1_1"
  type: "ReLU"
  bottom: "conv1_1"
  top: "conv1_1"
}
layer {
  name: "conv1_2"
  type: "Convolution"
  bottom: "conv1_1"
  top: "conv1_2"
  param {
    lr_mult: 1
    decay_mult: 1
  }
  param {
    lr_mult: 2
    decay_mult: 0
  }
  convolution_param {
    num_output: 64
    pad: 1
    kernel_size: 3
    weight_filler {
      type: "xavier"
    }
    bias_filler {
      type: "constant"
      value: 0
    }
  }
}
layer {
  name: "relu1_2"
  type: "ReLU"
  bottom: "conv1_2"
  top: "conv1_2"
}
layer {
  name: "pool1"
  type: "Pooling"
  bottom: "conv1_2"
  top: "pool1"
  pooling_param {
    pool: MAX
    kernel_size: 2
    stride: 2
  }
}
layer {
  name: "conv2_1"
  type: "Convolution"
  bottom: "pool1"
  top: "conv2_1"
  param {
    lr_mult: 1
    decay_mult: 1
  }
  param {
    lr_mult: 2
    decay_mult: 0
  }
  convolution_param {
    num_output: 128
    pad: 1
    kernel_size: 3
    weight_filler {
      type: "xavier"
    }
    bias_filler {
      type: "constant"
      value: 0
    }
  }
}
layer {
  name: "relu2_1"
  type: "ReLU"
  bottom: "conv2_1"
  top: "conv2_1"
}
layer {
  name: "conv2_2"
  type: "Convolution"
  bottom: "conv2_1"
  top: "conv2_2"
  param {
    lr_mult: 1
    decay_mult: 1
  }
  param {
    lr_mult: 2
    decay_mult: 0
  }
  convolution_param {
    num_output: 128
    pad: 1
    kernel_size: 3
    weight_filler {
      type: "xavier"
    }
    bias_filler {
      type: "constant"
      value: 0
    }
  }
}
layer {
  name: "relu2_2"
  type: "ReLU"
  bottom: "conv2_2"
  top: "conv2_2"
}
layer {
  name: "pool2"
  type: "Pooling"
  bottom: "conv2_2"
  top: "pool2"
  pooling_param {
    pool: MAX
    kernel_size: 2
    stride: 2
  }
}
layer {
  name: "conv3_1"
  type: "Convolution"
  bottom: "pool2"
  top: "conv3_1"
  param {
    lr_mult: 1
    decay_mult: 1
  }
  param {
    lr_mult: 2
    decay_mult: 0
  }
  convolution_param {
    num_output: 256
    pad: 1
    kernel_size: 3
    weight_filler {
      type: "xavier"
    }
    bias_filler {
      type: "constant"
      value: 0
    }
  }
}
layer {
  name: "relu3_1"
  type: "ReLU"
  bottom: "conv3_1"
  top: "conv3_1"
}
layer {
  name: "conv3_2"
  type: "Convolution"
  bottom: "conv3_1"
  top: "conv3_2"
  param {
    lr_mult: 1
    decay_mult: 1
  }
  param {
    lr_mult: 2
    decay_mult: 0
  }
  convolution_param {
    num_output: 256
    pad: 1
    kernel_size: 3
    weight_filler {
      type: "xavier"
    }
    bias_filler {
      type: "constant"
      value: 0
    }
  }
}
layer {
  name: "relu3_2"
  type: "ReLU"
  bottom: "conv3_2"
  top: "conv3_2"
}
layer {
  name: "conv3_3"
  type: "Convolution"
  bottom: "conv3_2"
  top: "conv3_3"
  param {
    lr_mult: 1
    decay_mult: 1
  }
  param {
    lr_mult: 2
    decay_mult: 0
  }
  convolution_param {
    num_output: 256
    pad: 1
    kernel_size: 3
    weight_filler {
      type: "xavier"
    }
    bias_filler {
      type: "constant"
      value: 0
    }
  }
}
layer {
  name: "relu3_3"
  type: "ReLU"
  bottom: "conv3_3"
  top: "conv3_3"
}
layer {
  name: "pool3"
  type: "Pooling"
  bottom: "conv3_3"
  top: "pool3"
  pooling_param {
    pool: MAX
    kernel_size: 2
    stride: 2
  }
}
layer {
  name: "conv4_1"
  type: "Convolution"
  bottom: "pool3"
  top: "conv4_1"
  param {
    lr_mult: 1
    decay_mult: 1
  }
  param {
    lr_mult: 2
    decay_mult: 0
  }
  convolution_param {
    num_output: 512
    pad: 1
    kernel_size: 3
    weight_filler {
      type: "xavier"
    }
    bias_filler {
      type: "constant"
      value: 0
    }
  }
}
layer {
  name: "relu4_1"
  type: "ReLU"
  bottom: "conv4_1"
  top: "conv4_1"
}
layer {
  name: "conv4_2"
  type: "Convolution"
  bottom: "conv4_1"
  top: "conv4_2"
  param {
    lr_mult: 1
    decay_mult: 1
  }
  param {
    lr_mult: 2
    decay_mult: 0
  }
  convolution_param {
    num_output: 512
    pad: 1
    kernel_size: 3
    weight_filler {
      type: "xavier"
    }
    bias_filler {
      type: "constant"
      value: 0
    }
  }
}
layer {
  name: "relu4_2"
  type: "ReLU"
  bottom: "conv4_2"
  top: "conv4_2"
}
layer {
  name: "conv4_3"
  type: "Convolution"
  bottom: "conv4_2"
  top: "conv4_3"
  param {
    lr_mult: 1
    decay_mult: 1
  }
  param {
    lr_mult: 2
    decay_mult: 0
  }
  convolution_param {
    num_output: 512
    pad: 1
    kernel_size: 3
    weight_filler {
      type: "xavier"
    }
    bias_filler {
      type: "constant"
      value: 0
    }
  }
}
layer {
  name: "conv4_3_bn"
  type: "BatchNorm"
  bottom: "conv4_3"
  top: "conv4_3"
}
layer {
  name: "conv4_3_scale"
  type: "Scale"
  bottom: "conv4_3"
  top: "conv4_3"
  param {
    lr_mult: 0
    decay_mult: 0
  }
  scale_param {
    bias_term: true
  }
}
layer {
  name: "relu4_3"
  type: "ReLU"
  bottom: "conv4_3"
  top: "conv4_3"
}
layer {
  name: "pool4"
  type: "Pooling"
  bottom: "conv4_3"
  top: "pool4"
  pooling_param {
    pool: MAX
    kernel_size: 2
    stride: 2
  }
}
layer {
  name: "conv5_1"
  type: "Convolution"
  bottom: "pool4"
  top: "conv5_1"
  param {
    lr_mult: 1
    decay_mult: 1
  }
  param {
    lr_mult: 2
    decay_mult: 0
  }
  convolution_param {
    num_output: 512
    pad: 1
    kernel_size: 3
    weight_filler {
      type: "xavier"
    }
    bias_filler {
      type: "constant"
      value: 0
    }
    dilation: 1
  }
}
layer {
  name: "relu5_1"
  type: "ReLU"
  bottom: "conv5_1"
  top: "conv5_1"
}
layer {
  name: "conv5_2"
  type: "Convolution"
  bottom: "conv5_1"
  top: "conv5_2"
  param {
    lr_mult: 1
    decay_mult: 1
  }
  param {
    lr_mult: 2
    decay_mult: 0
  }
  convolution_param {
    num_output: 512
    pad: 1
    kernel_size: 3
    weight_filler {
      type: "xavier"
    }
    bias_filler {
      type: "constant"
      value: 0
    }
    dilation: 1
  }
}
layer {
  name: "relu5_2"
  type: "ReLU"
  bottom: "conv5_2"
  top: "conv5_2"
}
layer {
  name: "conv5_3"
  type: "Convolution"
  bottom: "conv5_2"
  top: "conv5_3"
  param {
    lr_mult: 1
    decay_mult: 1
  }
  param {
    lr_mult: 2
    decay_mult: 0
  }
  convolution_param {
    num_output: 512
    pad: 1
    kernel_size: 3
    weight_filler {
      type: "xavier"
    }
    bias_filler {
      type: "constant"
      value: 0
    }
    dilation: 1
  }
}
layer {
  name: "relu5_3"
  type: "ReLU"
  bottom: "conv5_3"
  top: "conv5_3"
}
layer {
  name: "pool5"
  type: "Pooling"
  bottom: "conv5_3"
  top: "pool5"
  pooling_param {
    pool: MAX
    kernel_size: 3
    stride: 1
    pad: 1
  }
}
layer {
  name: "fc6_682"
  type: "Convolution"
  bottom: "pool5"
  top: "fc6_682"
  param {
    lr_mult: 1
    decay_mult: 1
  }
  param {
    lr_mult: 2
    decay_mult: 0
  }
  convolution_param {
    num_output: 682
    pad: 6
    kernel_size: 3
    weight_filler {
      type: "xavier"
    }
    bias_filler {
      type: "constant"
      value: 0
    }
    dilation: 6
  }
}
layer {
  name: "relu6"
  type: "ReLU"
  bottom: "fc6_682"
  top: "fc6_682"
}
layer {
  name: "fc7_682"
  type: "Convolution"
  bottom: "fc6_682"
  top: "fc7_682"
  param {
    lr_mult: 1
    decay_mult: 1
  }
  param {
    lr_mult: 2
    decay_mult: 0
  }
  convolution_param {
    num_output: 682
    kernel_size: 1
    weight_filler {
      type: "xavier"
    }
    bias_filler {
      type: "constant"
      value: 0
    }
  }
}
layer {
  name: "relu7"
  type: "ReLU"
  bottom: "fc7_682"
  top: "fc7_682"
}
layer {
  name: "conv6_1"
  type: "Convolution"
  bottom: "fc7_682"
  top: "conv6_1"
  param {
    lr_mult: 1
    decay_mult: 1
  }
  param {
    lr_mult: 2
    decay_mult: 0
  }
  convolution_param {
    num_output: 256
    pad: 0
    kernel_size: 1
    stride: 1
    weight_filler {
      type: "xavier"
    }
    bias_filler {
      type: "constant"
      value: 0
    }
  }
}
layer {
  name: "conv6_1_relu"
  type: "ReLU"
  bottom: "conv6_1"
  top: "conv6_1"
}
layer {
  name: "conv6_2"
  type: "Convolution"
  bottom: "conv6_1"
  top: "conv6_2"
  param {
    lr_mult: 1
    decay_mult: 1
  }
  param {
    lr_mult: 2
    decay_mult: 0
  }
  convolution_param {
    num_output: 512
    pad: 1
    kernel_size: 3
    stride: 2
    weight_filler {
      type: "xavier"
    }
    bias_filler {
      type: "constant"
      value: 0
    }
  }
}
layer {
  name: "conv6_2_relu"
  type: "ReLU"
  bottom: "conv6_2"
  top: "conv6_2"
}
layer {
  name: "conv7_1"
  type: "Convolution"
  bottom: "conv6_2"
  top: "conv7_1"
  param {
    lr_mult: 1
    decay_mult: 1
  }
  param {
    lr_mult: 2
    decay_mult: 0
  }
  convolution_param {
    num_output: 128
    pad: 0
    kernel_size: 1
    stride: 1
    weight_filler {
      type: "xavier"
    }
    bias_filler {
      type: "constant"
      value: 0
    }
  }
}
layer {
  name: "conv7_1_relu"
  type: "ReLU"
  bottom: "conv7_1"
  top: "conv7_1"
}
layer {
  name: "conv7_2"
  type: "Convolution"
  bottom: "conv7_1"
  top: "conv7_2"
  param {
    lr_mult: 1
    decay_mult: 1
  }
  param {
    lr_mult: 2
    decay_mult: 0
  }
  convolution_param {
    num_output: 256
    pad: 1
    kernel_size: 3
    stride: 2
    weight_filler {
      type: "xavier"
    }
    bias_filler {
      type: "constant"
      value: 0
    }
  }
}
layer {
  name: "conv7_2_relu"
  type: "ReLU"
  bottom: "conv7_2"
  top: "conv7_2"
}
layer {
  name: "conv8_1"
  type: "Convolution"
  bottom: "conv7_2"
  top: "conv8_1"
  param {
    lr_mult: 1
    decay_mult: 1
  }
  param {
    lr_mult: 2
    decay_mult: 0
  }
  convolution_param {
    num_output: 128
    pad: 0
    kernel_size: 1
    stride: 1
    weight_filler {
      type: "xavier"
    }
    bias_filler {
      type: "constant"
      value: 0
    }
  }
}
layer {
  name: "conv8_1_relu"
  type: "ReLU"
  bottom: "conv8_1"
  top: "conv8_1"
}
layer {
  name: "conv8_2"
  type: "Convolution"
  bottom: "conv8_1"
  top: "conv8_2"
  param {
    lr_mult: 1
    decay_mult: 1
  }
  param {
    lr_mult: 2
    decay_mult: 0
  }
  convolution_param {
    num_output: 256
    pad: 0
    kernel_size: 3
    stride: 1
    weight_filler {
      type: "xavier"
    }
    bias_filler {
      type: "constant"
      value: 0
    }
  }
}
layer {
  name: "conv8_2_relu"
  type: "ReLU"
  bottom: "conv8_2"
  top: "conv8_2"
}
layer {
  name: "conv9_1"
  type: "Convolution"
  bottom: "conv8_2"
  top: "conv9_1"
  param {
    lr_mult: 1
    decay_mult: 1
  }
  param {
    lr_mult: 2
    decay_mult: 0
  }
  convolution_param {
    num_output: 128
    pad: 0
    kernel_size: 1
    stride: 1
    weight_filler {
      type: "xavier"
    }
    bias_filler {
      type: "constant"
      value: 0
    }
  }
}
layer {
  name: "conv9_1_relu"
  type: "ReLU"
  bottom: "conv9_1"
  top: "conv9_1"
}
layer {
  name: "conv9_2"
  type: "Convolution"
  bottom: "conv9_1"
  top: "conv9_2"
  param {
    lr_mult: 1
    decay_mult: 1
  }
  param {
    lr_mult: 2
    decay_mult: 0
  }
  convolution_param {
    num_output: 256
    pad: 0
    kernel_size: 3
    stride: 1
    weight_filler {
      type: "xavier"
    }
    bias_filler {
      type: "constant"
      value: 0
    }
  }
}
layer {
  name: "conv9_2_relu"
  type: "ReLU"
  bottom: "conv9_2"
  top: "conv9_2"
}
layer {
  name: "conv4_3_norm_mbox_loc"
  type: "Convolution"
  bottom: "conv4_3"
  top: "conv4_3_norm_mbox_loc"
  param {
    lr_mult: 1
    decay_mult: 1
  }
  param {
    lr_mult: 2
    decay_mult: 0
  }
  convolution_param {
    num_output: 16
    pad: 1
    kernel_size: 3
    stride: 1
    weight_filler {
      type: "xavier"
    }
    bias_filler {
      type: "constant"
      value: 0
    }
  }
}
layer {
  name: "conv4_3_norm_mbox_loc_perm"
  type: "Permute"
  bottom: "conv4_3_norm_mbox_loc"
  top: "conv4_3_norm_mbox_loc_perm"
  permute_param {
    order: 0
    order: 2
    order: 3
    order: 1
  }
}
layer {
  name: "conv4_3_norm_mbox_loc_flat"
  type: "Flatten"
  bottom: "conv4_3_norm_mbox_loc_perm"
  top: "conv4_3_norm_mbox_loc_flat"
  flatten_param {
    axis: 1
  }
}
layer {
  name: "conv4_3_norm_mbox_conf"
  type: "Convolution"
  bottom: "conv4_3"
  top: "conv4_3_norm_mbox_conf"
  param {
    lr_mult: 1
    decay_mult: 1
  }
  param {
    lr_mult: 2
    decay_mult: 0
  }
  convolution_param {
    num_output: 84
    pad: 1
    kernel_size: 3
    stride: 1
    weight_filler {
      type: "xavier"
    }
    bias_filler {
      type: "constant"
      value: 0
    }
  }
}
layer {
  name: "conv4_3_norm_mbox_conf_perm"
  type: "Permute"
  bottom: "conv4_3_norm_mbox_conf"
  top: "conv4_3_norm_mbox_conf_perm"
  permute_param {
    order: 0
    order: 2
    order: 3
    order: 1
  }
}
layer {
  name: "conv4_3_norm_mbox_conf_flat"
  type: "Flatten"
  bottom: "conv4_3_norm_mbox_conf_perm"
  top: "conv4_3_norm_mbox_conf_flat"
  flatten_param {
    axis: 1
  }
}
layer {
  name: "conv4_3_norm_mbox_priorbox"
  type: "PriorBox"
  bottom: "conv4_3"
  bottom: "data"
  top: "conv4_3_norm_mbox_priorbox"
  prior_box_param {
    min_size: 30
    max_size: 60
    aspect_ratio: 2
    flip: true
    clip: false
    variance: 0.1
    variance: 0.1
    variance: 0.2
    variance: 0.2
    step: 8
    offset: 0.5
  }
}
layer {
  name: "fc7_mbox_loc"
  type: "Convolution"
  bottom: "fc7_682"
  top: "fc7_mbox_loc"
  param {
    lr_mult: 1
    decay_mult: 1
  }
  param {
    lr_mult: 2
    decay_mult: 0
  }
  convolution_param {
    num_output: 24
    pad: 1
    kernel_size: 3
    stride: 1
    weight_filler {
      type: "xavier"
    }
    bias_filler {
      type: "constant"
      value: 0
    }
  }
}
layer {
  name: "fc7_mbox_loc_perm"
  type: "Permute"
  bottom: "fc7_mbox_loc"
  top: "fc7_mbox_loc_perm"
  permute_param {
    order: 0
    order: 2
    order: 3
    order: 1
  }
}
layer {
  name: "fc7_mbox_loc_flat"
  type: "Flatten"
  bottom: "fc7_mbox_loc_perm"
  top: "fc7_mbox_loc_flat"
  flatten_param {
    axis: 1
  }
}
layer {
  name: "fc7_mbox_conf"
  type: "Convolution"
  bottom: "fc7_682"
  top: "fc7_mbox_conf"
  param {
    lr_mult: 1
    decay_mult: 1
  }
  param {
    lr_mult: 2
    decay_mult: 0
  }
  convolution_param {
    num_output: 126
    pad: 1
    kernel_size: 3
    stride: 1
    weight_filler {
      type: "xavier"
    }
    bias_filler {
      type: "constant"
      value: 0
    }
  }
}
layer {
  name: "fc7_mbox_conf_perm"
  type: "Permute"
  bottom: "fc7_mbox_conf"
  top: "fc7_mbox_conf_perm"
  permute_param {
    order: 0
    order: 2
    order: 3
    order: 1
  }
}
layer {
  name: "fc7_mbox_conf_flat"
  type: "Flatten"
  bottom: "fc7_mbox_conf_perm"
  top: "fc7_mbox_conf_flat"
  flatten_param {
    axis: 1
  }
}
layer {
  name: "fc7_mbox_priorbox"
  type: "PriorBox"
  bottom: "fc7_682"
  bottom: "data"
  top: "fc7_mbox_priorbox"
  prior_box_param {
    min_size: 60
    max_size: 111
    aspect_ratio: 2
    aspect_ratio: 3
    flip: true
    clip: false
    variance: 0.1
    variance: 0.1
    variance: 0.2
    variance: 0.2
    step: 16
    offset: 0.5
  }
}
layer {
  name: "conv6_2_mbox_loc"
  type: "Convolution"
  bottom: "conv6_2"
  top: "conv6_2_mbox_loc"
  param {
    lr_mult: 1
    decay_mult: 1
  }
  param {
    lr_mult: 2
    decay_mult: 0
  }
  convolution_param {
    num_output: 24
    pad: 1
    kernel_size: 3
    stride: 1
    weight_filler {
      type: "xavier"
    }
    bias_filler {
      type: "constant"
      value: 0
    }
  }
}
layer {
  name: "conv6_2_mbox_loc_perm"
  type: "Permute"
  bottom: "conv6_2_mbox_loc"
  top: "conv6_2_mbox_loc_perm"
  permute_param {
    order: 0
    order: 2
    order: 3
    order: 1
  }
}
layer {
  name: "conv6_2_mbox_loc_flat"
  type: "Flatten"
  bottom: "conv6_2_mbox_loc_perm"
  top: "conv6_2_mbox_loc_flat"
  flatten_param {
    axis: 1
  }
}
layer {
  name: "conv6_2_mbox_conf"
  type: "Convolution"
  bottom: "conv6_2"
  top: "conv6_2_mbox_conf"
  param {
    lr_mult: 1
    decay_mult: 1
  }
  param {
    lr_mult: 2
    decay_mult: 0
  }
  convolution_param {
    num_output: 126
    pad: 1
    kernel_size: 3
    stride: 1
    weight_filler {
      type: "xavier"
    }
    bias_filler {
      type: "constant"
      value: 0
    }
  }
}
layer {
  name: "conv6_2_mbox_conf_perm"
  type: "Permute"
  bottom: "conv6_2_mbox_conf"
  top: "conv6_2_mbox_conf_perm"
  permute_param {
    order: 0
    order: 2
    order: 3
    order: 1
  }
}
layer {
  name: "conv6_2_mbox_conf_flat"
  type: "Flatten"
  bottom: "conv6_2_mbox_conf_perm"
  top: "conv6_2_mbox_conf_flat"
  flatten_param {
    axis: 1
  }
}
layer {
  name: "conv6_2_mbox_priorbox"
  type: "PriorBox"
  bottom: "conv6_2"
  bottom: "data"
  top: "conv6_2_mbox_priorbox"
  prior_box_param {
    min_size: 111
    max_size: 162
    aspect_ratio: 2
    aspect_ratio: 3
    flip: true
    clip: false
    variance: 0.1
    variance: 0.1
    variance: 0.2
    variance: 0.2
    step: 32
    offset: 0.5
  }
}
layer {
  name: "conv7_2_mbox_loc"
  type: "Convolution"
  bottom: "conv7_2"
  top: "conv7_2_mbox_loc"
  param {
    lr_mult: 1
    decay_mult: 1
  }
  param {
    lr_mult: 2
    decay_mult: 0
  }
  convolution_param {
    num_output: 24
    pad: 1
    kernel_size: 3
    stride: 1
    weight_filler {
      type: "xavier"
    }
    bias_filler {
      type: "constant"
      value: 0
    }
  }
}
layer {
  name: "conv7_2_mbox_loc_perm"
  type: "Permute"
  bottom: "conv7_2_mbox_loc"
  top: "conv7_2_mbox_loc_perm"
  permute_param {
    order: 0
    order: 2
    order: 3
    order: 1
  }
}
layer {
  name: "conv7_2_mbox_loc_flat"
  type: "Flatten"
  bottom: "conv7_2_mbox_loc_perm"
  top: "conv7_2_mbox_loc_flat"
  flatten_param {
    axis: 1
  }
}
layer {
  name: "conv7_2_mbox_conf"
  type: "Convolution"
  bottom: "conv7_2"
  top: "conv7_2_mbox_conf"
  param {
    lr_mult: 1
    decay_mult: 1
  }
  param {
    lr_mult: 2
    decay_mult: 0
  }
  convolution_param {
    num_output: 126
    pad: 1
    kernel_size: 3
    stride: 1
    weight_filler {
      type: "xavier"
    }
    bias_filler {
      type: "constant"
      value: 0
    }
  }
}
layer {
  name: "conv7_2_mbox_conf_perm"
  type: "Permute"
  bottom: "conv7_2_mbox_conf"
  top: "conv7_2_mbox_conf_perm"
  permute_param {
    order: 0
    order: 2
    order: 3
    order: 1
  }
}
layer {
  name: "conv7_2_mbox_conf_flat"
  type: "Flatten"
  bottom: "conv7_2_mbox_conf_perm"
  top: "conv7_2_mbox_conf_flat"
  flatten_param {
    axis: 1
  }
}
layer {
  name: "conv7_2_mbox_priorbox"
  type: "PriorBox"
  bottom: "conv7_2"
  bottom: "data"
  top: "conv7_2_mbox_priorbox"
  prior_box_param {
    min_size: 162
    max_size: 213
    aspect_ratio: 2
    aspect_ratio: 3
    flip: true
    clip: false
    variance: 0.1
    variance: 0.1
    variance: 0.2
    variance: 0.2
    step: 64
    offset: 0.5
  }
}
layer {
  name: "conv8_2_mbox_loc"
  type: "Convolution"
  bottom: "conv8_2"
  top: "conv8_2_mbox_loc"
  param {
    lr_mult: 1
    decay_mult: 1
  }
  param {
    lr_mult: 2
    decay_mult: 0
  }
  convolution_param {
    num_output: 16
    pad: 1
    kernel_size: 3
    stride: 1
    weight_filler {
      type: "xavier"
    }
    bias_filler {
      type: "constant"
      value: 0
    }
  }
}
layer {
  name: "conv8_2_mbox_loc_perm"
  type: "Permute"
  bottom: "conv8_2_mbox_loc"
  top: "conv8_2_mbox_loc_perm"
  permute_param {
    order: 0
    order: 2
    order: 3
    order: 1
  }
}
layer {
  name: "conv8_2_mbox_loc_flat"
  type: "Flatten"
  bottom: "conv8_2_mbox_loc_perm"
  top: "conv8_2_mbox_loc_flat"
  flatten_param {
    axis: 1
  }
}
layer {
  name: "conv8_2_mbox_conf"
  type: "Convolution"
  bottom: "conv8_2"
  top: "conv8_2_mbox_conf"
  param {
    lr_mult: 1
    decay_mult: 1
  }
  param {
    lr_mult: 2
    decay_mult: 0
  }
  convolution_param {
    num_output: 84
    pad: 1
    kernel_size: 3
    stride: 1
    weight_filler {
      type: "xavier"
    }
    bias_filler {
      type: "constant"
      value: 0
    }
  }
}
layer {
  name: "conv8_2_mbox_conf_perm"
  type: "Permute"
  bottom: "conv8_2_mbox_conf"
  top: "conv8_2_mbox_conf_perm"
  permute_param {
    order: 0
    order: 2
    order: 3
    order: 1
  }
}
layer {
  name: "conv8_2_mbox_conf_flat"
  type: "Flatten"
  bottom: "conv8_2_mbox_conf_perm"
  top: "conv8_2_mbox_conf_flat"
  flatten_param {
    axis: 1
  }
}
layer {
  name: "conv8_2_mbox_priorbox"
  type: "PriorBox"
  bottom: "conv8_2"
  bottom: "data"
  top: "conv8_2_mbox_priorbox"
  prior_box_param {
    min_size: 213
    max_size: 264
    aspect_ratio: 2
    flip: true
    clip: false
    variance: 0.1
    variance: 0.1
    variance: 0.2
    variance: 0.2
    step: 100
    offset: 0.5
  }
}
layer {
  name: "conv9_2_mbox_loc"
  type: "Convolution"
  bottom: "conv9_2"
  top: "conv9_2_mbox_loc"
  param {
    lr_mult: 1
    decay_mult: 1
  }
  param {
    lr_mult: 2
    decay_mult: 0
  }
  convolution_param {
    num_output: 16
    pad: 1
    kernel_size: 3
    stride: 1
    weight_filler {
      type: "xavier"
    }
    bias_filler {
      type: "constant"
      value: 0
    }
  }
}
layer {
  name: "conv9_2_mbox_loc_perm"
  type: "Permute"
  bottom: "conv9_2_mbox_loc"
  top: "conv9_2_mbox_loc_perm"
  permute_param {
    order: 0
    order: 2
    order: 3
    order: 1
  }
}
layer {
  name: "conv9_2_mbox_loc_flat"
  type: "Flatten"
  bottom: "conv9_2_mbox_loc_perm"
  top: "conv9_2_mbox_loc_flat"
  flatten_param {
    axis: 1
  }
}
layer {
  name: "conv9_2_mbox_conf"
  type: "Convolution"
  bottom: "conv9_2"
  top: "conv9_2_mbox_conf"
  param {
    lr_mult: 1
    decay_mult: 1
  }
  param {
    lr_mult: 2
    decay_mult: 0
  }
  convolution_param {
    num_output: 84
    pad: 1
    kernel_size: 3
    stride: 1
    weight_filler {
      type: "xavier"
    }
    bias_filler {
      type: "constant"
      value: 0
    }
  }
}
layer {
  name: "conv9_2_mbox_conf_perm"
  type: "Permute"
  bottom: "conv9_2_mbox_conf"
  top: "conv9_2_mbox_conf_perm"
  permute_param {
    order: 0
    order: 2
    order: 3
    order: 1
  }
}
layer {
  name: "conv9_2_mbox_conf_flat"
  type: "Flatten"
  bottom: "conv9_2_mbox_conf_perm"
  top: "conv9_2_mbox_conf_flat"
  flatten_param {
    axis: 1
  }
}
layer {
  name: "conv9_2_mbox_priorbox"
  type: "PriorBox"
  bottom: "conv9_2"
  bottom: "data"
  top: "conv9_2_mbox_priorbox"
  prior_box_param {
    min_size: 264
    max_size: 315
    aspect_ratio: 2
    flip: true
    clip: false
    variance: 0.1
    variance: 0.1
    variance: 0.2
    variance: 0.2
    step: 300
    offset: 0.5
  }
}
layer {
  name: "mbox_loc"
  type: "Concat"
  bottom: "conv4_3_norm_mbox_loc_flat"
  bottom: "fc7_mbox_loc_flat"
  bottom: "conv6_2_mbox_loc_flat"
  bottom: "conv7_2_mbox_loc_flat"
  bottom: "conv8_2_mbox_loc_flat"
  bottom: "conv9_2_mbox_loc_flat"
  top: "mbox_loc"
  concat_param {
    axis: 1
  }
}
layer {
  name: "mbox_conf"
  type: "Concat"
  bottom: "conv4_3_norm_mbox_conf_flat"
  bottom: "fc7_mbox_conf_flat"
  bottom: "conv6_2_mbox_conf_flat"
  bottom: "conv7_2_mbox_conf_flat"
  bottom: "conv8_2_mbox_conf_flat"
  bottom: "conv9_2_mbox_conf_flat"
  top: "mbox_conf"
  concat_param {
    axis: 1
  }
}
layer {
  name: "mbox_priorbox"
  type: "Concat"
  bottom: "conv4_3_norm_mbox_priorbox"
  bottom: "fc7_mbox_priorbox"
  bottom: "conv6_2_mbox_priorbox"
  bottom: "conv7_2_mbox_priorbox"
  bottom: "conv8_2_mbox_priorbox"
  bottom: "conv9_2_mbox_priorbox"
  top: "mbox_priorbox"
  concat_param {
    axis: 2
  }
}
layer {
  name: "mbox_conf_reshape"
  type: "Reshape"
  bottom: "mbox_conf"
  top: "mbox_conf_reshape"
  include {
    phase: TEST
  }
  reshape_param {
    shape {
      dim: 0
      dim: -1
      dim: 21
    }
  }
}
layer {
  name: "mbox_conf_softmax"
  type: "Softmax"
  bottom: "mbox_conf_reshape"
  top: "mbox_conf_softmax"
  include {
    phase: TEST
  }
  softmax_param {
    axis: 2
  }
}
layer {
  name: "mbox_conf_flatten"
  type: "Flatten"
  bottom: "mbox_conf_softmax"
  top: "mbox_conf_flatten"
  include {
    phase: TEST
  }
  flatten_param {
    axis: 1
  }
}
layer {
  name: "detection_out"
  type: "DetectionOutput"
  bottom: "mbox_loc"
  bottom: "mbox_conf_flatten"
  bottom: "mbox_priorbox"
  top: "detection_out"
  include {
    phase: TEST
  }
  detection_output_param {
    num_classes: 21
    share_location: true
    background_label_id: 0
    nms_param {
      nms_threshold: 0.45
      top_k: 400
    }
    save_output_param {
      output_directory: "/home/danieleb/data/VOCdevkit/results/VOC2007/SSD_300x300/Main"
      output_name_prefix: "comp4_det_test_"
      output_format: "VOC"
      label_map_file: "data/VOC0712/labelmap_voc.prototxt"
      name_size_file: "data/VOC0712/test_name_size.txt"
      num_test_image: 4952
    }
    code_type: CENTER_SIZE
    keep_top_k: 200
    confidence_threshold: 0.01
  }
}
layer {
  name: "detection_eval"
  type: "DetectionEvaluate"
  bottom: "detection_out"
  bottom: "label"
  top: "detection_eval"
  include {
    phase: TEST
  }
  include {
    phase: TEST
  }
  detection_evaluate_param {
    num_classes: 21
    background_label_id: 0
    overlap_threshold: 0.5
    evaluate_difficult_gt: false
    name_size_file: "data/VOC0712/test_name_size.txt"
  }
}
I1208 17:42:24.844058  7265 layer_factory.hpp:77] Creating layer data
I1208 17:42:24.844125  7265 net.cpp:100] Creating Layer data
I1208 17:42:24.844130  7265 net.cpp:454] data -> data
I1208 17:42:24.844139  7265 net.cpp:454] data -> label
I1208 17:42:24.845402  7300 db_lmdb.cpp:35] Opened lmdb examples/VOC0712/VOC0712_test_lmdb
I1208 17:42:24.847854  7265 annotated_data_layer.cpp:62] output data size: 8,3,300,300
I1208 17:42:24.861253  7265 net.cpp:150] Setting up data
I1208 17:42:24.861272  7265 net.cpp:157] Top shape: 8 3 300 300 (2160000)
I1208 17:42:24.861275  7265 net.cpp:157] Top shape: 1 1 2 8 (16)
I1208 17:42:24.861279  7265 net.cpp:165] Memory required for data: 8640064
I1208 17:42:24.861284  7265 layer_factory.hpp:77] Creating layer data_data_0_split
I1208 17:42:24.861294  7265 net.cpp:100] Creating Layer data_data_0_split
I1208 17:42:24.861297  7265 net.cpp:480] data_data_0_split <- data
I1208 17:42:24.861304  7265 net.cpp:454] data_data_0_split -> data_data_0_split_0
I1208 17:42:24.861327  7265 net.cpp:454] data_data_0_split -> data_data_0_split_1
I1208 17:42:24.861332  7265 net.cpp:454] data_data_0_split -> data_data_0_split_2
I1208 17:42:24.861338  7265 net.cpp:454] data_data_0_split -> data_data_0_split_3
I1208 17:42:24.861343  7265 net.cpp:454] data_data_0_split -> data_data_0_split_4
I1208 17:42:24.861348  7265 net.cpp:454] data_data_0_split -> data_data_0_split_5
I1208 17:42:24.861369  7265 net.cpp:454] data_data_0_split -> data_data_0_split_6
I1208 17:42:24.861572  7265 net.cpp:150] Setting up data_data_0_split
I1208 17:42:24.861578  7265 net.cpp:157] Top shape: 8 3 300 300 (2160000)
I1208 17:42:24.861582  7265 net.cpp:157] Top shape: 8 3 300 300 (2160000)
I1208 17:42:24.861585  7265 net.cpp:157] Top shape: 8 3 300 300 (2160000)
I1208 17:42:24.861588  7265 net.cpp:157] Top shape: 8 3 300 300 (2160000)
I1208 17:42:24.861593  7265 net.cpp:157] Top shape: 8 3 300 300 (2160000)
I1208 17:42:24.861595  7265 net.cpp:157] Top shape: 8 3 300 300 (2160000)
I1208 17:42:24.861599  7265 net.cpp:157] Top shape: 8 3 300 300 (2160000)
I1208 17:42:24.861601  7265 net.cpp:165] Memory required for data: 69120064
I1208 17:42:24.861604  7265 layer_factory.hpp:77] Creating layer conv1_1
I1208 17:42:24.861615  7265 net.cpp:100] Creating Layer conv1_1
I1208 17:42:24.861618  7265 net.cpp:480] conv1_1 <- data_data_0_split_0
I1208 17:42:24.861624  7265 net.cpp:454] conv1_1 -> conv1_1
I1208 17:42:24.871767  7265 net.cpp:150] Setting up conv1_1
I1208 17:42:24.871781  7265 net.cpp:157] Top shape: 8 64 300 300 (46080000)
I1208 17:42:24.871783  7265 net.cpp:165] Memory required for data: 253440064
I1208 17:42:24.871793  7265 layer_factory.hpp:77] Creating layer relu1_1
I1208 17:42:24.871816  7265 net.cpp:100] Creating Layer relu1_1
I1208 17:42:24.871819  7265 net.cpp:480] relu1_1 <- conv1_1
I1208 17:42:24.871835  7265 net.cpp:441] relu1_1 -> conv1_1 (in-place)
I1208 17:42:24.872072  7265 net.cpp:150] Setting up relu1_1
I1208 17:42:24.872081  7265 net.cpp:157] Top shape: 8 64 300 300 (46080000)
I1208 17:42:24.872083  7265 net.cpp:165] Memory required for data: 437760064
I1208 17:42:24.872087  7265 layer_factory.hpp:77] Creating layer conv1_2
I1208 17:42:24.872097  7265 net.cpp:100] Creating Layer conv1_2
I1208 17:42:24.872099  7265 net.cpp:480] conv1_2 <- conv1_1
I1208 17:42:24.872105  7265 net.cpp:454] conv1_2 -> conv1_2
I1208 17:42:24.878020  7265 net.cpp:150] Setting up conv1_2
I1208 17:42:24.878033  7265 net.cpp:157] Top shape: 8 64 300 300 (46080000)
I1208 17:42:24.878036  7265 net.cpp:165] Memory required for data: 622080064
I1208 17:42:24.878048  7265 layer_factory.hpp:77] Creating layer relu1_2
I1208 17:42:24.878053  7265 net.cpp:100] Creating Layer relu1_2
I1208 17:42:24.878055  7265 net.cpp:480] relu1_2 <- conv1_2
I1208 17:42:24.878060  7265 net.cpp:441] relu1_2 -> conv1_2 (in-place)
I1208 17:42:24.880128  7265 net.cpp:150] Setting up relu1_2
I1208 17:42:24.880136  7265 net.cpp:157] Top shape: 8 64 300 300 (46080000)
I1208 17:42:24.880138  7265 net.cpp:165] Memory required for data: 806400064
I1208 17:42:24.880141  7265 layer_factory.hpp:77] Creating layer pool1
I1208 17:42:24.880158  7265 net.cpp:100] Creating Layer pool1
I1208 17:42:24.880161  7265 net.cpp:480] pool1 <- conv1_2
I1208 17:42:24.880164  7265 net.cpp:454] pool1 -> pool1
I1208 17:42:24.880203  7265 net.cpp:150] Setting up pool1
I1208 17:42:24.880208  7265 net.cpp:157] Top shape: 8 64 150 150 (11520000)
I1208 17:42:24.880208  7265 net.cpp:165] Memory required for data: 852480064
I1208 17:42:24.880210  7265 layer_factory.hpp:77] Creating layer conv2_1
I1208 17:42:24.880218  7265 net.cpp:100] Creating Layer conv2_1
I1208 17:42:24.880220  7265 net.cpp:480] conv2_1 <- pool1
I1208 17:42:24.880224  7265 net.cpp:454] conv2_1 -> conv2_1
I1208 17:42:24.887089  7265 net.cpp:150] Setting up conv2_1
I1208 17:42:24.887100  7265 net.cpp:157] Top shape: 8 128 150 150 (23040000)
I1208 17:42:24.887102  7265 net.cpp:165] Memory required for data: 944640064
I1208 17:42:24.887110  7265 layer_factory.hpp:77] Creating layer relu2_1
I1208 17:42:24.887117  7265 net.cpp:100] Creating Layer relu2_1
I1208 17:42:24.887120  7265 net.cpp:480] relu2_1 <- conv2_1
I1208 17:42:24.887125  7265 net.cpp:441] relu2_1 -> conv2_1 (in-place)
I1208 17:42:24.889230  7265 net.cpp:150] Setting up relu2_1
I1208 17:42:24.889235  7265 net.cpp:157] Top shape: 8 128 150 150 (23040000)
I1208 17:42:24.889238  7265 net.cpp:165] Memory required for data: 1036800064
I1208 17:42:24.889240  7265 layer_factory.hpp:77] Creating layer conv2_2
I1208 17:42:24.889247  7265 net.cpp:100] Creating Layer conv2_2
I1208 17:42:24.889250  7265 net.cpp:480] conv2_2 <- conv2_1
I1208 17:42:24.889255  7265 net.cpp:454] conv2_2 -> conv2_2
I1208 17:42:24.896350  7265 net.cpp:150] Setting up conv2_2
I1208 17:42:24.896363  7265 net.cpp:157] Top shape: 8 128 150 150 (23040000)
I1208 17:42:24.896365  7265 net.cpp:165] Memory required for data: 1128960064
I1208 17:42:24.896373  7265 layer_factory.hpp:77] Creating layer relu2_2
I1208 17:42:24.896376  7265 net.cpp:100] Creating Layer relu2_2
I1208 17:42:24.896379  7265 net.cpp:480] relu2_2 <- conv2_2
I1208 17:42:24.896384  7265 net.cpp:441] relu2_2 -> conv2_2 (in-place)
I1208 17:42:24.898301  7265 net.cpp:150] Setting up relu2_2
I1208 17:42:24.898308  7265 net.cpp:157] Top shape: 8 128 150 150 (23040000)
I1208 17:42:24.898310  7265 net.cpp:165] Memory required for data: 1221120064
I1208 17:42:24.898313  7265 layer_factory.hpp:77] Creating layer pool2
I1208 17:42:24.898317  7265 net.cpp:100] Creating Layer pool2
I1208 17:42:24.898320  7265 net.cpp:480] pool2 <- conv2_2
I1208 17:42:24.898325  7265 net.cpp:454] pool2 -> pool2
I1208 17:42:24.898365  7265 net.cpp:150] Setting up pool2
I1208 17:42:24.898370  7265 net.cpp:157] Top shape: 8 128 75 75 (5760000)
I1208 17:42:24.898371  7265 net.cpp:165] Memory required for data: 1244160064
I1208 17:42:24.898373  7265 layer_factory.hpp:77] Creating layer conv3_1
I1208 17:42:24.898381  7265 net.cpp:100] Creating Layer conv3_1
I1208 17:42:24.898385  7265 net.cpp:480] conv3_1 <- pool2
I1208 17:42:24.898388  7265 net.cpp:454] conv3_1 -> conv3_1
I1208 17:42:24.907034  7265 net.cpp:150] Setting up conv3_1
I1208 17:42:24.907047  7265 net.cpp:157] Top shape: 8 256 75 75 (11520000)
I1208 17:42:24.907049  7265 net.cpp:165] Memory required for data: 1290240064
I1208 17:42:24.907058  7265 layer_factory.hpp:77] Creating layer relu3_1
I1208 17:42:24.907064  7265 net.cpp:100] Creating Layer relu3_1
I1208 17:42:24.907068  7265 net.cpp:480] relu3_1 <- conv3_1
I1208 17:42:24.907071  7265 net.cpp:441] relu3_1 -> conv3_1 (in-place)
I1208 17:42:24.909159  7265 net.cpp:150] Setting up relu3_1
I1208 17:42:24.909168  7265 net.cpp:157] Top shape: 8 256 75 75 (11520000)
I1208 17:42:24.909169  7265 net.cpp:165] Memory required for data: 1336320064
I1208 17:42:24.909173  7265 layer_factory.hpp:77] Creating layer conv3_2
I1208 17:42:24.909181  7265 net.cpp:100] Creating Layer conv3_2
I1208 17:42:24.909183  7265 net.cpp:480] conv3_2 <- conv3_1
I1208 17:42:24.909190  7265 net.cpp:454] conv3_2 -> conv3_2
I1208 17:42:24.916224  7265 net.cpp:150] Setting up conv3_2
I1208 17:42:24.916237  7265 net.cpp:157] Top shape: 8 256 75 75 (11520000)
I1208 17:42:24.916251  7265 net.cpp:165] Memory required for data: 1382400064
I1208 17:42:24.916257  7265 layer_factory.hpp:77] Creating layer relu3_2
I1208 17:42:24.916263  7265 net.cpp:100] Creating Layer relu3_2
I1208 17:42:24.916266  7265 net.cpp:480] relu3_2 <- conv3_2
I1208 17:42:24.916270  7265 net.cpp:441] relu3_2 -> conv3_2 (in-place)
I1208 17:42:24.918262  7265 net.cpp:150] Setting up relu3_2
I1208 17:42:24.918272  7265 net.cpp:157] Top shape: 8 256 75 75 (11520000)
I1208 17:42:24.918273  7265 net.cpp:165] Memory required for data: 1428480064
I1208 17:42:24.918275  7265 layer_factory.hpp:77] Creating layer conv3_3
I1208 17:42:24.918287  7265 net.cpp:100] Creating Layer conv3_3
I1208 17:42:24.918289  7265 net.cpp:480] conv3_3 <- conv3_2
I1208 17:42:24.918293  7265 net.cpp:454] conv3_3 -> conv3_3
I1208 17:42:24.925372  7265 net.cpp:150] Setting up conv3_3
I1208 17:42:24.925385  7265 net.cpp:157] Top shape: 8 256 75 75 (11520000)
I1208 17:42:24.925388  7265 net.cpp:165] Memory required for data: 1474560064
I1208 17:42:24.925395  7265 layer_factory.hpp:77] Creating layer relu3_3
I1208 17:42:24.925400  7265 net.cpp:100] Creating Layer relu3_3
I1208 17:42:24.925402  7265 net.cpp:480] relu3_3 <- conv3_3
I1208 17:42:24.925408  7265 net.cpp:441] relu3_3 -> conv3_3 (in-place)
I1208 17:42:24.927301  7265 net.cpp:150] Setting up relu3_3
I1208 17:42:24.927309  7265 net.cpp:157] Top shape: 8 256 75 75 (11520000)
I1208 17:42:24.927312  7265 net.cpp:165] Memory required for data: 1520640064
I1208 17:42:24.927315  7265 layer_factory.hpp:77] Creating layer pool3
I1208 17:42:24.927321  7265 net.cpp:100] Creating Layer pool3
I1208 17:42:24.927325  7265 net.cpp:480] pool3 <- conv3_3
I1208 17:42:24.927330  7265 net.cpp:454] pool3 -> pool3
I1208 17:42:24.927373  7265 net.cpp:150] Setting up pool3
I1208 17:42:24.927378  7265 net.cpp:157] Top shape: 8 256 38 38 (2957312)
I1208 17:42:24.927381  7265 net.cpp:165] Memory required for data: 1532469312
I1208 17:42:24.927382  7265 layer_factory.hpp:77] Creating layer conv4_1
I1208 17:42:24.927392  7265 net.cpp:100] Creating Layer conv4_1
I1208 17:42:24.927394  7265 net.cpp:480] conv4_1 <- pool3
I1208 17:42:24.927399  7265 net.cpp:454] conv4_1 -> conv4_1
I1208 17:42:24.939324  7265 net.cpp:150] Setting up conv4_1
I1208 17:42:24.939340  7265 net.cpp:157] Top shape: 8 512 38 38 (5914624)
I1208 17:42:24.939343  7265 net.cpp:165] Memory required for data: 1556127808
I1208 17:42:24.939350  7265 layer_factory.hpp:77] Creating layer relu4_1
I1208 17:42:24.939357  7265 net.cpp:100] Creating Layer relu4_1
I1208 17:42:24.939362  7265 net.cpp:480] relu4_1 <- conv4_1
I1208 17:42:24.939365  7265 net.cpp:441] relu4_1 -> conv4_1 (in-place)
I1208 17:42:24.941352  7265 net.cpp:150] Setting up relu4_1
I1208 17:42:24.941359  7265 net.cpp:157] Top shape: 8 512 38 38 (5914624)
I1208 17:42:24.941360  7265 net.cpp:165] Memory required for data: 1579786304
I1208 17:42:24.941362  7265 layer_factory.hpp:77] Creating layer conv4_2
I1208 17:42:24.941370  7265 net.cpp:100] Creating Layer conv4_2
I1208 17:42:24.941372  7265 net.cpp:480] conv4_2 <- conv4_1
I1208 17:42:24.941378  7265 net.cpp:454] conv4_2 -> conv4_2
I1208 17:42:24.959228  7265 net.cpp:150] Setting up conv4_2
I1208 17:42:24.959247  7265 net.cpp:157] Top shape: 8 512 38 38 (5914624)
I1208 17:42:24.959250  7265 net.cpp:165] Memory required for data: 1603444800
I1208 17:42:24.959264  7265 layer_factory.hpp:77] Creating layer relu4_2
I1208 17:42:24.959271  7265 net.cpp:100] Creating Layer relu4_2
I1208 17:42:24.959275  7265 net.cpp:480] relu4_2 <- conv4_2
I1208 17:42:24.959280  7265 net.cpp:441] relu4_2 -> conv4_2 (in-place)
I1208 17:42:24.961342  7265 net.cpp:150] Setting up relu4_2
I1208 17:42:24.961354  7265 net.cpp:157] Top shape: 8 512 38 38 (5914624)
I1208 17:42:24.961356  7265 net.cpp:165] Memory required for data: 1627103296
I1208 17:42:24.961359  7265 layer_factory.hpp:77] Creating layer conv4_3
I1208 17:42:24.961369  7265 net.cpp:100] Creating Layer conv4_3
I1208 17:42:24.961374  7265 net.cpp:480] conv4_3 <- conv4_2
I1208 17:42:24.961380  7265 net.cpp:454] conv4_3 -> conv4_3
I1208 17:42:24.977600  7265 net.cpp:150] Setting up conv4_3
I1208 17:42:24.977620  7265 net.cpp:157] Top shape: 8 512 38 38 (5914624)
I1208 17:42:24.977623  7265 net.cpp:165] Memory required for data: 1650761792
I1208 17:42:24.977630  7265 layer_factory.hpp:77] Creating layer conv4_3_bn
I1208 17:42:24.977638  7265 net.cpp:100] Creating Layer conv4_3_bn
I1208 17:42:24.977641  7265 net.cpp:480] conv4_3_bn <- conv4_3
I1208 17:42:24.977658  7265 net.cpp:441] conv4_3_bn -> conv4_3 (in-place)
I1208 17:42:24.977908  7265 net.cpp:150] Setting up conv4_3_bn
I1208 17:42:24.977915  7265 net.cpp:157] Top shape: 8 512 38 38 (5914624)
I1208 17:42:24.977918  7265 net.cpp:165] Memory required for data: 1674420288
I1208 17:42:24.977923  7265 layer_factory.hpp:77] Creating layer conv4_3_scale
I1208 17:42:24.977931  7265 net.cpp:100] Creating Layer conv4_3_scale
I1208 17:42:24.977933  7265 net.cpp:480] conv4_3_scale <- conv4_3
I1208 17:42:24.977939  7265 net.cpp:441] conv4_3_scale -> conv4_3 (in-place)
I1208 17:42:24.977978  7265 layer_factory.hpp:77] Creating layer conv4_3_scale
I1208 17:42:24.978127  7265 net.cpp:150] Setting up conv4_3_scale
I1208 17:42:24.978132  7265 net.cpp:157] Top shape: 8 512 38 38 (5914624)
I1208 17:42:24.978135  7265 net.cpp:165] Memory required for data: 1698078784
I1208 17:42:24.978140  7265 layer_factory.hpp:77] Creating layer relu4_3
I1208 17:42:24.978144  7265 net.cpp:100] Creating Layer relu4_3
I1208 17:42:24.978147  7265 net.cpp:480] relu4_3 <- conv4_3
I1208 17:42:24.978152  7265 net.cpp:441] relu4_3 -> conv4_3 (in-place)
I1208 17:42:24.979848  7265 net.cpp:150] Setting up relu4_3
I1208 17:42:24.979856  7265 net.cpp:157] Top shape: 8 512 38 38 (5914624)
I1208 17:42:24.979859  7265 net.cpp:165] Memory required for data: 1721737280
I1208 17:42:24.979862  7265 layer_factory.hpp:77] Creating layer conv4_3_relu4_3_0_split
I1208 17:42:24.979866  7265 net.cpp:100] Creating Layer conv4_3_relu4_3_0_split
I1208 17:42:24.979869  7265 net.cpp:480] conv4_3_relu4_3_0_split <- conv4_3
I1208 17:42:24.979874  7265 net.cpp:454] conv4_3_relu4_3_0_split -> conv4_3_relu4_3_0_split_0
I1208 17:42:24.979882  7265 net.cpp:454] conv4_3_relu4_3_0_split -> conv4_3_relu4_3_0_split_1
I1208 17:42:24.979887  7265 net.cpp:454] conv4_3_relu4_3_0_split -> conv4_3_relu4_3_0_split_2
I1208 17:42:24.979892  7265 net.cpp:454] conv4_3_relu4_3_0_split -> conv4_3_relu4_3_0_split_3
I1208 17:42:24.979970  7265 net.cpp:150] Setting up conv4_3_relu4_3_0_split
I1208 17:42:24.979976  7265 net.cpp:157] Top shape: 8 512 38 38 (5914624)
I1208 17:42:24.979979  7265 net.cpp:157] Top shape: 8 512 38 38 (5914624)
I1208 17:42:24.979981  7265 net.cpp:157] Top shape: 8 512 38 38 (5914624)
I1208 17:42:24.979984  7265 net.cpp:157] Top shape: 8 512 38 38 (5914624)
I1208 17:42:24.979987  7265 net.cpp:165] Memory required for data: 1816371264
I1208 17:42:24.979990  7265 layer_factory.hpp:77] Creating layer pool4
I1208 17:42:24.979993  7265 net.cpp:100] Creating Layer pool4
I1208 17:42:24.979995  7265 net.cpp:480] pool4 <- conv4_3_relu4_3_0_split_0
I1208 17:42:24.980001  7265 net.cpp:454] pool4 -> pool4
I1208 17:42:24.980033  7265 net.cpp:150] Setting up pool4
I1208 17:42:24.980039  7265 net.cpp:157] Top shape: 8 512 19 19 (1478656)
I1208 17:42:24.980041  7265 net.cpp:165] Memory required for data: 1822285888
I1208 17:42:24.980044  7265 layer_factory.hpp:77] Creating layer conv5_1
I1208 17:42:24.980051  7265 net.cpp:100] Creating Layer conv5_1
I1208 17:42:24.980054  7265 net.cpp:480] conv5_1 <- pool4
I1208 17:42:24.980059  7265 net.cpp:454] conv5_1 -> conv5_1
I1208 17:42:24.995275  7265 net.cpp:150] Setting up conv5_1
I1208 17:42:24.995295  7265 net.cpp:157] Top shape: 8 512 19 19 (1478656)
I1208 17:42:24.995298  7265 net.cpp:165] Memory required for data: 1828200512
I1208 17:42:24.995306  7265 layer_factory.hpp:77] Creating layer relu5_1
I1208 17:42:24.995313  7265 net.cpp:100] Creating Layer relu5_1
I1208 17:42:24.995317  7265 net.cpp:480] relu5_1 <- conv5_1
I1208 17:42:24.995323  7265 net.cpp:441] relu5_1 -> conv5_1 (in-place)
I1208 17:42:24.997392  7265 net.cpp:150] Setting up relu5_1
I1208 17:42:24.997411  7265 net.cpp:157] Top shape: 8 512 19 19 (1478656)
I1208 17:42:24.997413  7265 net.cpp:165] Memory required for data: 1834115136
I1208 17:42:24.997416  7265 layer_factory.hpp:77] Creating layer conv5_2
I1208 17:42:24.997426  7265 net.cpp:100] Creating Layer conv5_2
I1208 17:42:24.997428  7265 net.cpp:480] conv5_2 <- conv5_1
I1208 17:42:24.997445  7265 net.cpp:454] conv5_2 -> conv5_2
I1208 17:42:25.014232  7265 net.cpp:150] Setting up conv5_2
I1208 17:42:25.014251  7265 net.cpp:157] Top shape: 8 512 19 19 (1478656)
I1208 17:42:25.014255  7265 net.cpp:165] Memory required for data: 1840029760
I1208 17:42:25.014261  7265 layer_factory.hpp:77] Creating layer relu5_2
I1208 17:42:25.014279  7265 net.cpp:100] Creating Layer relu5_2
I1208 17:42:25.014292  7265 net.cpp:480] relu5_2 <- conv5_2
I1208 17:42:25.014302  7265 net.cpp:441] relu5_2 -> conv5_2 (in-place)
I1208 17:42:25.015910  7265 net.cpp:150] Setting up relu5_2
I1208 17:42:25.015920  7265 net.cpp:157] Top shape: 8 512 19 19 (1478656)
I1208 17:42:25.015923  7265 net.cpp:165] Memory required for data: 1845944384
I1208 17:42:25.015926  7265 layer_factory.hpp:77] Creating layer conv5_3
I1208 17:42:25.015935  7265 net.cpp:100] Creating Layer conv5_3
I1208 17:42:25.015938  7265 net.cpp:480] conv5_3 <- conv5_2
I1208 17:42:25.015944  7265 net.cpp:454] conv5_3 -> conv5_3
I1208 17:42:25.031292  7265 net.cpp:150] Setting up conv5_3
I1208 17:42:25.031308  7265 net.cpp:157] Top shape: 8 512 19 19 (1478656)
I1208 17:42:25.031311  7265 net.cpp:165] Memory required for data: 1851859008
I1208 17:42:25.031317  7265 layer_factory.hpp:77] Creating layer relu5_3
I1208 17:42:25.031325  7265 net.cpp:100] Creating Layer relu5_3
I1208 17:42:25.031328  7265 net.cpp:480] relu5_3 <- conv5_3
I1208 17:42:25.031332  7265 net.cpp:441] relu5_3 -> conv5_3 (in-place)
I1208 17:42:25.033421  7265 net.cpp:150] Setting up relu5_3
I1208 17:42:25.033427  7265 net.cpp:157] Top shape: 8 512 19 19 (1478656)
I1208 17:42:25.033428  7265 net.cpp:165] Memory required for data: 1857773632
I1208 17:42:25.033430  7265 layer_factory.hpp:77] Creating layer pool5
I1208 17:42:25.033435  7265 net.cpp:100] Creating Layer pool5
I1208 17:42:25.033438  7265 net.cpp:480] pool5 <- conv5_3
I1208 17:42:25.033458  7265 net.cpp:454] pool5 -> pool5
I1208 17:42:25.033499  7265 net.cpp:150] Setting up pool5
I1208 17:42:25.033505  7265 net.cpp:157] Top shape: 8 512 19 19 (1478656)
I1208 17:42:25.033509  7265 net.cpp:165] Memory required for data: 1863688256
I1208 17:42:25.033510  7265 layer_factory.hpp:77] Creating layer fc6_682
I1208 17:42:25.033519  7265 net.cpp:100] Creating Layer fc6_682
I1208 17:42:25.033521  7265 net.cpp:480] fc6_682 <- pool5
I1208 17:42:25.033527  7265 net.cpp:454] fc6_682 -> fc6_682
I1208 17:42:25.048641  7265 net.cpp:150] Setting up fc6_682
I1208 17:42:25.048660  7265 net.cpp:157] Top shape: 8 682 19 19 (1969616)
I1208 17:42:25.048663  7265 net.cpp:165] Memory required for data: 1871566720
I1208 17:42:25.048676  7265 layer_factory.hpp:77] Creating layer relu6
I1208 17:42:25.048681  7265 net.cpp:100] Creating Layer relu6
I1208 17:42:25.048684  7265 net.cpp:480] relu6 <- fc6_682
I1208 17:42:25.048689  7265 net.cpp:441] relu6 -> fc6_682 (in-place)
I1208 17:42:25.048988  7265 net.cpp:150] Setting up relu6
I1208 17:42:25.048995  7265 net.cpp:157] Top shape: 8 682 19 19 (1969616)
I1208 17:42:25.048998  7265 net.cpp:165] Memory required for data: 1879445184
I1208 17:42:25.049001  7265 layer_factory.hpp:77] Creating layer fc7_682
I1208 17:42:25.049011  7265 net.cpp:100] Creating Layer fc7_682
I1208 17:42:25.049013  7265 net.cpp:480] fc7_682 <- fc6_682
I1208 17:42:25.049018  7265 net.cpp:454] fc7_682 -> fc7_682
I1208 17:42:25.056730  7265 net.cpp:150] Setting up fc7_682
I1208 17:42:25.056746  7265 net.cpp:157] Top shape: 8 682 19 19 (1969616)
I1208 17:42:25.056749  7265 net.cpp:165] Memory required for data: 1887323648
I1208 17:42:25.056756  7265 layer_factory.hpp:77] Creating layer relu7
I1208 17:42:25.056762  7265 net.cpp:100] Creating Layer relu7
I1208 17:42:25.056792  7265 net.cpp:480] relu7 <- fc7_682
I1208 17:42:25.056799  7265 net.cpp:441] relu7 -> fc7_682 (in-place)
I1208 17:42:25.058904  7265 net.cpp:150] Setting up relu7
I1208 17:42:25.058912  7265 net.cpp:157] Top shape: 8 682 19 19 (1969616)
I1208 17:42:25.058917  7265 net.cpp:165] Memory required for data: 1895202112
I1208 17:42:25.058919  7265 layer_factory.hpp:77] Creating layer fc7_682_relu7_0_split
I1208 17:42:25.058925  7265 net.cpp:100] Creating Layer fc7_682_relu7_0_split
I1208 17:42:25.058928  7265 net.cpp:480] fc7_682_relu7_0_split <- fc7_682
I1208 17:42:25.058933  7265 net.cpp:454] fc7_682_relu7_0_split -> fc7_682_relu7_0_split_0
I1208 17:42:25.058940  7265 net.cpp:454] fc7_682_relu7_0_split -> fc7_682_relu7_0_split_1
I1208 17:42:25.058946  7265 net.cpp:454] fc7_682_relu7_0_split -> fc7_682_relu7_0_split_2
I1208 17:42:25.058951  7265 net.cpp:454] fc7_682_relu7_0_split -> fc7_682_relu7_0_split_3
I1208 17:42:25.059021  7265 net.cpp:150] Setting up fc7_682_relu7_0_split
I1208 17:42:25.059027  7265 net.cpp:157] Top shape: 8 682 19 19 (1969616)
I1208 17:42:25.059031  7265 net.cpp:157] Top shape: 8 682 19 19 (1969616)
I1208 17:42:25.059033  7265 net.cpp:157] Top shape: 8 682 19 19 (1969616)
I1208 17:42:25.059036  7265 net.cpp:157] Top shape: 8 682 19 19 (1969616)
I1208 17:42:25.059038  7265 net.cpp:165] Memory required for data: 1926715968
I1208 17:42:25.059041  7265 layer_factory.hpp:77] Creating layer conv6_1
I1208 17:42:25.059051  7265 net.cpp:100] Creating Layer conv6_1
I1208 17:42:25.059054  7265 net.cpp:480] conv6_1 <- fc7_682_relu7_0_split_0
I1208 17:42:25.059059  7265 net.cpp:454] conv6_1 -> conv6_1
I1208 17:42:25.065958  7265 net.cpp:150] Setting up conv6_1
I1208 17:42:25.065970  7265 net.cpp:157] Top shape: 8 256 19 19 (739328)
I1208 17:42:25.065974  7265 net.cpp:165] Memory required for data: 1929673280
I1208 17:42:25.065979  7265 layer_factory.hpp:77] Creating layer conv6_1_relu
I1208 17:42:25.065984  7265 net.cpp:100] Creating Layer conv6_1_relu
I1208 17:42:25.065987  7265 net.cpp:480] conv6_1_relu <- conv6_1
I1208 17:42:25.065992  7265 net.cpp:441] conv6_1_relu -> conv6_1 (in-place)
I1208 17:42:25.067932  7265 net.cpp:150] Setting up conv6_1_relu
I1208 17:42:25.067942  7265 net.cpp:157] Top shape: 8 256 19 19 (739328)
I1208 17:42:25.067945  7265 net.cpp:165] Memory required for data: 1932630592
I1208 17:42:25.067947  7265 layer_factory.hpp:77] Creating layer conv6_2
I1208 17:42:25.067972  7265 net.cpp:100] Creating Layer conv6_2
I1208 17:42:25.067975  7265 net.cpp:480] conv6_2 <- conv6_1
I1208 17:42:25.067981  7265 net.cpp:454] conv6_2 -> conv6_2
I1208 17:42:25.077895  7265 net.cpp:150] Setting up conv6_2
I1208 17:42:25.077913  7265 net.cpp:157] Top shape: 8 512 10 10 (409600)
I1208 17:42:25.077915  7265 net.cpp:165] Memory required for data: 1934268992
I1208 17:42:25.077922  7265 layer_factory.hpp:77] Creating layer conv6_2_relu
I1208 17:42:25.077929  7265 net.cpp:100] Creating Layer conv6_2_relu
I1208 17:42:25.077932  7265 net.cpp:480] conv6_2_relu <- conv6_2
I1208 17:42:25.077937  7265 net.cpp:441] conv6_2_relu -> conv6_2 (in-place)
I1208 17:42:25.079787  7265 net.cpp:150] Setting up conv6_2_relu
I1208 17:42:25.079795  7265 net.cpp:157] Top shape: 8 512 10 10 (409600)
I1208 17:42:25.079797  7265 net.cpp:165] Memory required for data: 1935907392
I1208 17:42:25.079799  7265 layer_factory.hpp:77] Creating layer conv6_2_conv6_2_relu_0_split
I1208 17:42:25.079805  7265 net.cpp:100] Creating Layer conv6_2_conv6_2_relu_0_split
I1208 17:42:25.079808  7265 net.cpp:480] conv6_2_conv6_2_relu_0_split <- conv6_2
I1208 17:42:25.079813  7265 net.cpp:454] conv6_2_conv6_2_relu_0_split -> conv6_2_conv6_2_relu_0_split_0
I1208 17:42:25.079819  7265 net.cpp:454] conv6_2_conv6_2_relu_0_split -> conv6_2_conv6_2_relu_0_split_1
I1208 17:42:25.079823  7265 net.cpp:454] conv6_2_conv6_2_relu_0_split -> conv6_2_conv6_2_relu_0_split_2
I1208 17:42:25.079838  7265 net.cpp:454] conv6_2_conv6_2_relu_0_split -> conv6_2_conv6_2_relu_0_split_3
I1208 17:42:25.079910  7265 net.cpp:150] Setting up conv6_2_conv6_2_relu_0_split
I1208 17:42:25.079928  7265 net.cpp:157] Top shape: 8 512 10 10 (409600)
I1208 17:42:25.079932  7265 net.cpp:157] Top shape: 8 512 10 10 (409600)
I1208 17:42:25.079936  7265 net.cpp:157] Top shape: 8 512 10 10 (409600)
I1208 17:42:25.079938  7265 net.cpp:157] Top shape: 8 512 10 10 (409600)
I1208 17:42:25.079941  7265 net.cpp:165] Memory required for data: 1942460992
I1208 17:42:25.079942  7265 layer_factory.hpp:77] Creating layer conv7_1
I1208 17:42:25.079953  7265 net.cpp:100] Creating Layer conv7_1
I1208 17:42:25.079955  7265 net.cpp:480] conv7_1 <- conv6_2_conv6_2_relu_0_split_0
I1208 17:42:25.079962  7265 net.cpp:454] conv7_1 -> conv7_1
I1208 17:42:25.087641  7265 net.cpp:150] Setting up conv7_1
I1208 17:42:25.087656  7265 net.cpp:157] Top shape: 8 128 10 10 (102400)
I1208 17:42:25.087657  7265 net.cpp:165] Memory required for data: 1942870592
I1208 17:42:25.087663  7265 layer_factory.hpp:77] Creating layer conv7_1_relu
I1208 17:42:25.087668  7265 net.cpp:100] Creating Layer conv7_1_relu
I1208 17:42:25.087671  7265 net.cpp:480] conv7_1_relu <- conv7_1
I1208 17:42:25.087677  7265 net.cpp:441] conv7_1_relu -> conv7_1 (in-place)
I1208 17:42:25.089733  7265 net.cpp:150] Setting up conv7_1_relu
I1208 17:42:25.089740  7265 net.cpp:157] Top shape: 8 128 10 10 (102400)
I1208 17:42:25.089741  7265 net.cpp:165] Memory required for data: 1943280192
I1208 17:42:25.089743  7265 layer_factory.hpp:77] Creating layer conv7_2
I1208 17:42:25.089752  7265 net.cpp:100] Creating Layer conv7_2
I1208 17:42:25.089754  7265 net.cpp:480] conv7_2 <- conv7_1
I1208 17:42:25.089759  7265 net.cpp:454] conv7_2 -> conv7_2
I1208 17:42:25.096621  7265 net.cpp:150] Setting up conv7_2
I1208 17:42:25.096633  7265 net.cpp:157] Top shape: 8 256 5 5 (51200)
I1208 17:42:25.096635  7265 net.cpp:165] Memory required for data: 1943484992
I1208 17:42:25.096642  7265 layer_factory.hpp:77] Creating layer conv7_2_relu
I1208 17:42:25.096647  7265 net.cpp:100] Creating Layer conv7_2_relu
I1208 17:42:25.096650  7265 net.cpp:480] conv7_2_relu <- conv7_2
I1208 17:42:25.096654  7265 net.cpp:441] conv7_2_relu -> conv7_2 (in-place)
I1208 17:42:25.098745  7265 net.cpp:150] Setting up conv7_2_relu
I1208 17:42:25.098754  7265 net.cpp:157] Top shape: 8 256 5 5 (51200)
I1208 17:42:25.098757  7265 net.cpp:165] Memory required for data: 1943689792
I1208 17:42:25.098758  7265 layer_factory.hpp:77] Creating layer conv7_2_conv7_2_relu_0_split
I1208 17:42:25.098764  7265 net.cpp:100] Creating Layer conv7_2_conv7_2_relu_0_split
I1208 17:42:25.098767  7265 net.cpp:480] conv7_2_conv7_2_relu_0_split <- conv7_2
I1208 17:42:25.098772  7265 net.cpp:454] conv7_2_conv7_2_relu_0_split -> conv7_2_conv7_2_relu_0_split_0
I1208 17:42:25.098778  7265 net.cpp:454] conv7_2_conv7_2_relu_0_split -> conv7_2_conv7_2_relu_0_split_1
I1208 17:42:25.098783  7265 net.cpp:454] conv7_2_conv7_2_relu_0_split -> conv7_2_conv7_2_relu_0_split_2
I1208 17:42:25.098788  7265 net.cpp:454] conv7_2_conv7_2_relu_0_split -> conv7_2_conv7_2_relu_0_split_3
I1208 17:42:25.098847  7265 net.cpp:150] Setting up conv7_2_conv7_2_relu_0_split
I1208 17:42:25.098852  7265 net.cpp:157] Top shape: 8 256 5 5 (51200)
I1208 17:42:25.098855  7265 net.cpp:157] Top shape: 8 256 5 5 (51200)
I1208 17:42:25.098857  7265 net.cpp:157] Top shape: 8 256 5 5 (51200)
I1208 17:42:25.098860  7265 net.cpp:157] Top shape: 8 256 5 5 (51200)
I1208 17:42:25.098861  7265 net.cpp:165] Memory required for data: 1944508992
I1208 17:42:25.098865  7265 layer_factory.hpp:77] Creating layer conv8_1
I1208 17:42:25.098872  7265 net.cpp:100] Creating Layer conv8_1
I1208 17:42:25.098875  7265 net.cpp:480] conv8_1 <- conv7_2_conv7_2_relu_0_split_0
I1208 17:42:25.098881  7265 net.cpp:454] conv8_1 -> conv8_1
I1208 17:42:25.105666  7265 net.cpp:150] Setting up conv8_1
I1208 17:42:25.105676  7265 net.cpp:157] Top shape: 8 128 5 5 (25600)
I1208 17:42:25.105679  7265 net.cpp:165] Memory required for data: 1944611392
I1208 17:42:25.105684  7265 layer_factory.hpp:77] Creating layer conv8_1_relu
I1208 17:42:25.105689  7265 net.cpp:100] Creating Layer conv8_1_relu
I1208 17:42:25.105690  7265 net.cpp:480] conv8_1_relu <- conv8_1
I1208 17:42:25.105707  7265 net.cpp:441] conv8_1_relu -> conv8_1 (in-place)
I1208 17:42:25.107815  7265 net.cpp:150] Setting up conv8_1_relu
I1208 17:42:25.107823  7265 net.cpp:157] Top shape: 8 128 5 5 (25600)
I1208 17:42:25.107826  7265 net.cpp:165] Memory required for data: 1944713792
I1208 17:42:25.107828  7265 layer_factory.hpp:77] Creating layer conv8_2
I1208 17:42:25.107837  7265 net.cpp:100] Creating Layer conv8_2
I1208 17:42:25.107841  7265 net.cpp:480] conv8_2 <- conv8_1
I1208 17:42:25.107846  7265 net.cpp:454] conv8_2 -> conv8_2
I1208 17:42:25.116983  7265 net.cpp:150] Setting up conv8_2
I1208 17:42:25.116995  7265 net.cpp:157] Top shape: 8 256 3 3 (18432)
I1208 17:42:25.116999  7265 net.cpp:165] Memory required for data: 1944787520
I1208 17:42:25.117004  7265 layer_factory.hpp:77] Creating layer conv8_2_relu
I1208 17:42:25.117012  7265 net.cpp:100] Creating Layer conv8_2_relu
I1208 17:42:25.117015  7265 net.cpp:480] conv8_2_relu <- conv8_2
I1208 17:42:25.117028  7265 net.cpp:441] conv8_2_relu -> conv8_2 (in-place)
I1208 17:42:25.117377  7265 net.cpp:150] Setting up conv8_2_relu
I1208 17:42:25.117383  7265 net.cpp:157] Top shape: 8 256 3 3 (18432)
I1208 17:42:25.117385  7265 net.cpp:165] Memory required for data: 1944861248
I1208 17:42:25.117388  7265 layer_factory.hpp:77] Creating layer conv8_2_conv8_2_relu_0_split
I1208 17:42:25.117393  7265 net.cpp:100] Creating Layer conv8_2_conv8_2_relu_0_split
I1208 17:42:25.117396  7265 net.cpp:480] conv8_2_conv8_2_relu_0_split <- conv8_2
I1208 17:42:25.117400  7265 net.cpp:454] conv8_2_conv8_2_relu_0_split -> conv8_2_conv8_2_relu_0_split_0
I1208 17:42:25.117408  7265 net.cpp:454] conv8_2_conv8_2_relu_0_split -> conv8_2_conv8_2_relu_0_split_1
I1208 17:42:25.117413  7265 net.cpp:454] conv8_2_conv8_2_relu_0_split -> conv8_2_conv8_2_relu_0_split_2
I1208 17:42:25.117419  7265 net.cpp:454] conv8_2_conv8_2_relu_0_split -> conv8_2_conv8_2_relu_0_split_3
I1208 17:42:25.117493  7265 net.cpp:150] Setting up conv8_2_conv8_2_relu_0_split
I1208 17:42:25.117501  7265 net.cpp:157] Top shape: 8 256 3 3 (18432)
I1208 17:42:25.117506  7265 net.cpp:157] Top shape: 8 256 3 3 (18432)
I1208 17:42:25.117511  7265 net.cpp:157] Top shape: 8 256 3 3 (18432)
I1208 17:42:25.117514  7265 net.cpp:157] Top shape: 8 256 3 3 (18432)
I1208 17:42:25.117517  7265 net.cpp:165] Memory required for data: 1945156160
I1208 17:42:25.117521  7265 layer_factory.hpp:77] Creating layer conv9_1
I1208 17:42:25.117530  7265 net.cpp:100] Creating Layer conv9_1
I1208 17:42:25.117533  7265 net.cpp:480] conv9_1 <- conv8_2_conv8_2_relu_0_split_0
I1208 17:42:25.117542  7265 net.cpp:454] conv9_1 -> conv9_1
I1208 17:42:25.124759  7265 net.cpp:150] Setting up conv9_1
I1208 17:42:25.124771  7265 net.cpp:157] Top shape: 8 128 3 3 (9216)
I1208 17:42:25.124774  7265 net.cpp:165] Memory required for data: 1945193024
I1208 17:42:25.124780  7265 layer_factory.hpp:77] Creating layer conv9_1_relu
I1208 17:42:25.124785  7265 net.cpp:100] Creating Layer conv9_1_relu
I1208 17:42:25.124788  7265 net.cpp:480] conv9_1_relu <- conv9_1
I1208 17:42:25.124792  7265 net.cpp:441] conv9_1_relu -> conv9_1 (in-place)
I1208 17:42:25.126904  7265 net.cpp:150] Setting up conv9_1_relu
I1208 17:42:25.126915  7265 net.cpp:157] Top shape: 8 128 3 3 (9216)
I1208 17:42:25.126917  7265 net.cpp:165] Memory required for data: 1945229888
I1208 17:42:25.126920  7265 layer_factory.hpp:77] Creating layer conv9_2
I1208 17:42:25.126932  7265 net.cpp:100] Creating Layer conv9_2
I1208 17:42:25.126935  7265 net.cpp:480] conv9_2 <- conv9_1
I1208 17:42:25.126940  7265 net.cpp:454] conv9_2 -> conv9_2
I1208 17:42:25.134030  7265 net.cpp:150] Setting up conv9_2
I1208 17:42:25.134052  7265 net.cpp:157] Top shape: 8 256 1 1 (2048)
I1208 17:42:25.134055  7265 net.cpp:165] Memory required for data: 1945238080
I1208 17:42:25.134060  7265 layer_factory.hpp:77] Creating layer conv9_2_relu
I1208 17:42:25.134068  7265 net.cpp:100] Creating Layer conv9_2_relu
I1208 17:42:25.134071  7265 net.cpp:480] conv9_2_relu <- conv9_2
I1208 17:42:25.134075  7265 net.cpp:441] conv9_2_relu -> conv9_2 (in-place)
I1208 17:42:25.135982  7265 net.cpp:150] Setting up conv9_2_relu
I1208 17:42:25.135987  7265 net.cpp:157] Top shape: 8 256 1 1 (2048)
I1208 17:42:25.135990  7265 net.cpp:165] Memory required for data: 1945246272
I1208 17:42:25.135993  7265 layer_factory.hpp:77] Creating layer conv9_2_conv9_2_relu_0_split
I1208 17:42:25.135996  7265 net.cpp:100] Creating Layer conv9_2_conv9_2_relu_0_split
I1208 17:42:25.135998  7265 net.cpp:480] conv9_2_conv9_2_relu_0_split <- conv9_2
I1208 17:42:25.136004  7265 net.cpp:454] conv9_2_conv9_2_relu_0_split -> conv9_2_conv9_2_relu_0_split_0
I1208 17:42:25.136009  7265 net.cpp:454] conv9_2_conv9_2_relu_0_split -> conv9_2_conv9_2_relu_0_split_1
I1208 17:42:25.136013  7265 net.cpp:454] conv9_2_conv9_2_relu_0_split -> conv9_2_conv9_2_relu_0_split_2
I1208 17:42:25.136061  7265 net.cpp:150] Setting up conv9_2_conv9_2_relu_0_split
I1208 17:42:25.136066  7265 net.cpp:157] Top shape: 8 256 1 1 (2048)
I1208 17:42:25.136068  7265 net.cpp:157] Top shape: 8 256 1 1 (2048)
I1208 17:42:25.136071  7265 net.cpp:157] Top shape: 8 256 1 1 (2048)
I1208 17:42:25.136073  7265 net.cpp:165] Memory required for data: 1945270848
I1208 17:42:25.136075  7265 layer_factory.hpp:77] Creating layer conv4_3_norm_mbox_loc
I1208 17:42:25.136082  7265 net.cpp:100] Creating Layer conv4_3_norm_mbox_loc
I1208 17:42:25.136085  7265 net.cpp:480] conv4_3_norm_mbox_loc <- conv4_3_relu4_3_0_split_1
I1208 17:42:25.136090  7265 net.cpp:454] conv4_3_norm_mbox_loc -> conv4_3_norm_mbox_loc
I1208 17:42:25.143079  7265 net.cpp:150] Setting up conv4_3_norm_mbox_loc
I1208 17:42:25.143090  7265 net.cpp:157] Top shape: 8 16 38 38 (184832)
I1208 17:42:25.143092  7265 net.cpp:165] Memory required for data: 1946010176
I1208 17:42:25.143097  7265 layer_factory.hpp:77] Creating layer conv4_3_norm_mbox_loc_perm
I1208 17:42:25.143105  7265 net.cpp:100] Creating Layer conv4_3_norm_mbox_loc_perm
I1208 17:42:25.143108  7265 net.cpp:480] conv4_3_norm_mbox_loc_perm <- conv4_3_norm_mbox_loc
I1208 17:42:25.143112  7265 net.cpp:454] conv4_3_norm_mbox_loc_perm -> conv4_3_norm_mbox_loc_perm
I1208 17:42:25.143237  7265 net.cpp:150] Setting up conv4_3_norm_mbox_loc_perm
I1208 17:42:25.143244  7265 net.cpp:157] Top shape: 8 38 38 16 (184832)
I1208 17:42:25.143245  7265 net.cpp:165] Memory required for data: 1946749504
I1208 17:42:25.143249  7265 layer_factory.hpp:77] Creating layer conv4_3_norm_mbox_loc_flat
I1208 17:42:25.143254  7265 net.cpp:100] Creating Layer conv4_3_norm_mbox_loc_flat
I1208 17:42:25.143256  7265 net.cpp:480] conv4_3_norm_mbox_loc_flat <- conv4_3_norm_mbox_loc_perm
I1208 17:42:25.143260  7265 net.cpp:454] conv4_3_norm_mbox_loc_flat -> conv4_3_norm_mbox_loc_flat
I1208 17:42:25.143282  7265 net.cpp:150] Setting up conv4_3_norm_mbox_loc_flat
I1208 17:42:25.143288  7265 net.cpp:157] Top shape: 8 23104 (184832)
I1208 17:42:25.143290  7265 net.cpp:165] Memory required for data: 1947488832
I1208 17:42:25.143292  7265 layer_factory.hpp:77] Creating layer conv4_3_norm_mbox_conf
I1208 17:42:25.143309  7265 net.cpp:100] Creating Layer conv4_3_norm_mbox_conf
I1208 17:42:25.143313  7265 net.cpp:480] conv4_3_norm_mbox_conf <- conv4_3_relu4_3_0_split_2
I1208 17:42:25.143319  7265 net.cpp:454] conv4_3_norm_mbox_conf -> conv4_3_norm_mbox_conf
I1208 17:42:25.149763  7265 net.cpp:150] Setting up conv4_3_norm_mbox_conf
I1208 17:42:25.149778  7265 net.cpp:157] Top shape: 8 84 38 38 (970368)
I1208 17:42:25.149780  7265 net.cpp:165] Memory required for data: 1951370304
I1208 17:42:25.149787  7265 layer_factory.hpp:77] Creating layer conv4_3_norm_mbox_conf_perm
I1208 17:42:25.149794  7265 net.cpp:100] Creating Layer conv4_3_norm_mbox_conf_perm
I1208 17:42:25.149797  7265 net.cpp:480] conv4_3_norm_mbox_conf_perm <- conv4_3_norm_mbox_conf
I1208 17:42:25.149802  7265 net.cpp:454] conv4_3_norm_mbox_conf_perm -> conv4_3_norm_mbox_conf_perm
I1208 17:42:25.149919  7265 net.cpp:150] Setting up conv4_3_norm_mbox_conf_perm
I1208 17:42:25.149924  7265 net.cpp:157] Top shape: 8 38 38 84 (970368)
I1208 17:42:25.149926  7265 net.cpp:165] Memory required for data: 1955251776
I1208 17:42:25.149940  7265 layer_factory.hpp:77] Creating layer conv4_3_norm_mbox_conf_flat
I1208 17:42:25.149946  7265 net.cpp:100] Creating Layer conv4_3_norm_mbox_conf_flat
I1208 17:42:25.149948  7265 net.cpp:480] conv4_3_norm_mbox_conf_flat <- conv4_3_norm_mbox_conf_perm
I1208 17:42:25.149952  7265 net.cpp:454] conv4_3_norm_mbox_conf_flat -> conv4_3_norm_mbox_conf_flat
I1208 17:42:25.149972  7265 net.cpp:150] Setting up conv4_3_norm_mbox_conf_flat
I1208 17:42:25.149977  7265 net.cpp:157] Top shape: 8 121296 (970368)
I1208 17:42:25.149979  7265 net.cpp:165] Memory required for data: 1959133248
I1208 17:42:25.149981  7265 layer_factory.hpp:77] Creating layer conv4_3_norm_mbox_priorbox
I1208 17:42:25.149986  7265 net.cpp:100] Creating Layer conv4_3_norm_mbox_priorbox
I1208 17:42:25.149989  7265 net.cpp:480] conv4_3_norm_mbox_priorbox <- conv4_3_relu4_3_0_split_3
I1208 17:42:25.149992  7265 net.cpp:480] conv4_3_norm_mbox_priorbox <- data_data_0_split_1
I1208 17:42:25.149997  7265 net.cpp:454] conv4_3_norm_mbox_priorbox -> conv4_3_norm_mbox_priorbox
I1208 17:42:25.150019  7265 net.cpp:150] Setting up conv4_3_norm_mbox_priorbox
I1208 17:42:25.150023  7265 net.cpp:157] Top shape: 1 2 23104 (46208)
I1208 17:42:25.150025  7265 net.cpp:165] Memory required for data: 1959318080
I1208 17:42:25.150027  7265 layer_factory.hpp:77] Creating layer fc7_mbox_loc
I1208 17:42:25.150034  7265 net.cpp:100] Creating Layer fc7_mbox_loc
I1208 17:42:25.150038  7265 net.cpp:480] fc7_mbox_loc <- fc7_682_relu7_0_split_1
I1208 17:42:25.150048  7265 net.cpp:454] fc7_mbox_loc -> fc7_mbox_loc
I1208 17:42:25.157418  7265 net.cpp:150] Setting up fc7_mbox_loc
I1208 17:42:25.157430  7265 net.cpp:157] Top shape: 8 24 19 19 (69312)
I1208 17:42:25.157433  7265 net.cpp:165] Memory required for data: 1959595328
I1208 17:42:25.157439  7265 layer_factory.hpp:77] Creating layer fc7_mbox_loc_perm
I1208 17:42:25.157445  7265 net.cpp:100] Creating Layer fc7_mbox_loc_perm
I1208 17:42:25.157447  7265 net.cpp:480] fc7_mbox_loc_perm <- fc7_mbox_loc
I1208 17:42:25.157454  7265 net.cpp:454] fc7_mbox_loc_perm -> fc7_mbox_loc_perm
I1208 17:42:25.157608  7265 net.cpp:150] Setting up fc7_mbox_loc_perm
I1208 17:42:25.157615  7265 net.cpp:157] Top shape: 8 19 19 24 (69312)
I1208 17:42:25.157618  7265 net.cpp:165] Memory required for data: 1959872576
I1208 17:42:25.157620  7265 layer_factory.hpp:77] Creating layer fc7_mbox_loc_flat
I1208 17:42:25.157625  7265 net.cpp:100] Creating Layer fc7_mbox_loc_flat
I1208 17:42:25.157629  7265 net.cpp:480] fc7_mbox_loc_flat <- fc7_mbox_loc_perm
I1208 17:42:25.157634  7265 net.cpp:454] fc7_mbox_loc_flat -> fc7_mbox_loc_flat
I1208 17:42:25.157658  7265 net.cpp:150] Setting up fc7_mbox_loc_flat
I1208 17:42:25.157663  7265 net.cpp:157] Top shape: 8 8664 (69312)
I1208 17:42:25.157666  7265 net.cpp:165] Memory required for data: 1960149824
I1208 17:42:25.157668  7265 layer_factory.hpp:77] Creating layer fc7_mbox_conf
I1208 17:42:25.157680  7265 net.cpp:100] Creating Layer fc7_mbox_conf
I1208 17:42:25.157682  7265 net.cpp:480] fc7_mbox_conf <- fc7_682_relu7_0_split_2
I1208 17:42:25.157690  7265 net.cpp:454] fc7_mbox_conf -> fc7_mbox_conf
I1208 17:42:25.166549  7265 net.cpp:150] Setting up fc7_mbox_conf
I1208 17:42:25.166563  7265 net.cpp:157] Top shape: 8 126 19 19 (363888)
I1208 17:42:25.166566  7265 net.cpp:165] Memory required for data: 1961605376
I1208 17:42:25.166573  7265 layer_factory.hpp:77] Creating layer fc7_mbox_conf_perm
I1208 17:42:25.166580  7265 net.cpp:100] Creating Layer fc7_mbox_conf_perm
I1208 17:42:25.166584  7265 net.cpp:480] fc7_mbox_conf_perm <- fc7_mbox_conf
I1208 17:42:25.166589  7265 net.cpp:454] fc7_mbox_conf_perm -> fc7_mbox_conf_perm
I1208 17:42:25.166746  7265 net.cpp:150] Setting up fc7_mbox_conf_perm
I1208 17:42:25.166754  7265 net.cpp:157] Top shape: 8 19 19 126 (363888)
I1208 17:42:25.166756  7265 net.cpp:165] Memory required for data: 1963060928
I1208 17:42:25.166759  7265 layer_factory.hpp:77] Creating layer fc7_mbox_conf_flat
I1208 17:42:25.166764  7265 net.cpp:100] Creating Layer fc7_mbox_conf_flat
I1208 17:42:25.166780  7265 net.cpp:480] fc7_mbox_conf_flat <- fc7_mbox_conf_perm
I1208 17:42:25.166786  7265 net.cpp:454] fc7_mbox_conf_flat -> fc7_mbox_conf_flat
I1208 17:42:25.166812  7265 net.cpp:150] Setting up fc7_mbox_conf_flat
I1208 17:42:25.166818  7265 net.cpp:157] Top shape: 8 45486 (363888)
I1208 17:42:25.166821  7265 net.cpp:165] Memory required for data: 1964516480
I1208 17:42:25.166824  7265 layer_factory.hpp:77] Creating layer fc7_mbox_priorbox
I1208 17:42:25.166831  7265 net.cpp:100] Creating Layer fc7_mbox_priorbox
I1208 17:42:25.166834  7265 net.cpp:480] fc7_mbox_priorbox <- fc7_682_relu7_0_split_3
I1208 17:42:25.166838  7265 net.cpp:480] fc7_mbox_priorbox <- data_data_0_split_2
I1208 17:42:25.166844  7265 net.cpp:454] fc7_mbox_priorbox -> fc7_mbox_priorbox
I1208 17:42:25.166872  7265 net.cpp:150] Setting up fc7_mbox_priorbox
I1208 17:42:25.166877  7265 net.cpp:157] Top shape: 1 2 8664 (17328)
I1208 17:42:25.166880  7265 net.cpp:165] Memory required for data: 1964585792
I1208 17:42:25.166883  7265 layer_factory.hpp:77] Creating layer conv6_2_mbox_loc
I1208 17:42:25.166893  7265 net.cpp:100] Creating Layer conv6_2_mbox_loc
I1208 17:42:25.166895  7265 net.cpp:480] conv6_2_mbox_loc <- conv6_2_conv6_2_relu_0_split_1
I1208 17:42:25.166903  7265 net.cpp:454] conv6_2_mbox_loc -> conv6_2_mbox_loc
I1208 17:42:25.173316  7265 net.cpp:150] Setting up conv6_2_mbox_loc
I1208 17:42:25.173326  7265 net.cpp:157] Top shape: 8 24 10 10 (19200)
I1208 17:42:25.173328  7265 net.cpp:165] Memory required for data: 1964662592
I1208 17:42:25.173333  7265 layer_factory.hpp:77] Creating layer conv6_2_mbox_loc_perm
I1208 17:42:25.173341  7265 net.cpp:100] Creating Layer conv6_2_mbox_loc_perm
I1208 17:42:25.173342  7265 net.cpp:480] conv6_2_mbox_loc_perm <- conv6_2_mbox_loc
I1208 17:42:25.173346  7265 net.cpp:454] conv6_2_mbox_loc_perm -> conv6_2_mbox_loc_perm
I1208 17:42:25.173475  7265 net.cpp:150] Setting up conv6_2_mbox_loc_perm
I1208 17:42:25.173481  7265 net.cpp:157] Top shape: 8 10 10 24 (19200)
I1208 17:42:25.173483  7265 net.cpp:165] Memory required for data: 1964739392
I1208 17:42:25.173486  7265 layer_factory.hpp:77] Creating layer conv6_2_mbox_loc_flat
I1208 17:42:25.173491  7265 net.cpp:100] Creating Layer conv6_2_mbox_loc_flat
I1208 17:42:25.173494  7265 net.cpp:480] conv6_2_mbox_loc_flat <- conv6_2_mbox_loc_perm
I1208 17:42:25.173498  7265 net.cpp:454] conv6_2_mbox_loc_flat -> conv6_2_mbox_loc_flat
I1208 17:42:25.173519  7265 net.cpp:150] Setting up conv6_2_mbox_loc_flat
I1208 17:42:25.173523  7265 net.cpp:157] Top shape: 8 2400 (19200)
I1208 17:42:25.173527  7265 net.cpp:165] Memory required for data: 1964816192
I1208 17:42:25.173528  7265 layer_factory.hpp:77] Creating layer conv6_2_mbox_conf
I1208 17:42:25.173537  7265 net.cpp:100] Creating Layer conv6_2_mbox_conf
I1208 17:42:25.173539  7265 net.cpp:480] conv6_2_mbox_conf <- conv6_2_conv6_2_relu_0_split_2
I1208 17:42:25.173545  7265 net.cpp:454] conv6_2_mbox_conf -> conv6_2_mbox_conf
I1208 17:42:25.180063  7265 net.cpp:150] Setting up conv6_2_mbox_conf
I1208 17:42:25.180073  7265 net.cpp:157] Top shape: 8 126 10 10 (100800)
I1208 17:42:25.180075  7265 net.cpp:165] Memory required for data: 1965219392
I1208 17:42:25.180080  7265 layer_factory.hpp:77] Creating layer conv6_2_mbox_conf_perm
I1208 17:42:25.180102  7265 net.cpp:100] Creating Layer conv6_2_mbox_conf_perm
I1208 17:42:25.180105  7265 net.cpp:480] conv6_2_mbox_conf_perm <- conv6_2_mbox_conf
I1208 17:42:25.180109  7265 net.cpp:454] conv6_2_mbox_conf_perm -> conv6_2_mbox_conf_perm
I1208 17:42:25.180244  7265 net.cpp:150] Setting up conv6_2_mbox_conf_perm
I1208 17:42:25.180249  7265 net.cpp:157] Top shape: 8 10 10 126 (100800)
I1208 17:42:25.180251  7265 net.cpp:165] Memory required for data: 1965622592
I1208 17:42:25.180254  7265 layer_factory.hpp:77] Creating layer conv6_2_mbox_conf_flat
I1208 17:42:25.180258  7265 net.cpp:100] Creating Layer conv6_2_mbox_conf_flat
I1208 17:42:25.180261  7265 net.cpp:480] conv6_2_mbox_conf_flat <- conv6_2_mbox_conf_perm
I1208 17:42:25.180275  7265 net.cpp:454] conv6_2_mbox_conf_flat -> conv6_2_mbox_conf_flat
I1208 17:42:25.180294  7265 net.cpp:150] Setting up conv6_2_mbox_conf_flat
I1208 17:42:25.180297  7265 net.cpp:157] Top shape: 8 12600 (100800)
I1208 17:42:25.180299  7265 net.cpp:165] Memory required for data: 1966025792
I1208 17:42:25.180300  7265 layer_factory.hpp:77] Creating layer conv6_2_mbox_priorbox
I1208 17:42:25.180306  7265 net.cpp:100] Creating Layer conv6_2_mbox_priorbox
I1208 17:42:25.180308  7265 net.cpp:480] conv6_2_mbox_priorbox <- conv6_2_conv6_2_relu_0_split_3
I1208 17:42:25.180312  7265 net.cpp:480] conv6_2_mbox_priorbox <- data_data_0_split_3
I1208 17:42:25.180317  7265 net.cpp:454] conv6_2_mbox_priorbox -> conv6_2_mbox_priorbox
I1208 17:42:25.180347  7265 net.cpp:150] Setting up conv6_2_mbox_priorbox
I1208 17:42:25.180352  7265 net.cpp:157] Top shape: 1 2 2400 (4800)
I1208 17:42:25.180354  7265 net.cpp:165] Memory required for data: 1966044992
I1208 17:42:25.180356  7265 layer_factory.hpp:77] Creating layer conv7_2_mbox_loc
I1208 17:42:25.180366  7265 net.cpp:100] Creating Layer conv7_2_mbox_loc
I1208 17:42:25.180368  7265 net.cpp:480] conv7_2_mbox_loc <- conv7_2_conv7_2_relu_0_split_1
I1208 17:42:25.180373  7265 net.cpp:454] conv7_2_mbox_loc -> conv7_2_mbox_loc
I1208 17:42:25.186667  7265 net.cpp:150] Setting up conv7_2_mbox_loc
I1208 17:42:25.186677  7265 net.cpp:157] Top shape: 8 24 5 5 (4800)
I1208 17:42:25.186681  7265 net.cpp:165] Memory required for data: 1966064192
I1208 17:42:25.186710  7265 layer_factory.hpp:77] Creating layer conv7_2_mbox_loc_perm
I1208 17:42:25.186717  7265 net.cpp:100] Creating Layer conv7_2_mbox_loc_perm
I1208 17:42:25.186720  7265 net.cpp:480] conv7_2_mbox_loc_perm <- conv7_2_mbox_loc
I1208 17:42:25.186738  7265 net.cpp:454] conv7_2_mbox_loc_perm -> conv7_2_mbox_loc_perm
I1208 17:42:25.186857  7265 net.cpp:150] Setting up conv7_2_mbox_loc_perm
I1208 17:42:25.186862  7265 net.cpp:157] Top shape: 8 5 5 24 (4800)
I1208 17:42:25.186864  7265 net.cpp:165] Memory required for data: 1966083392
I1208 17:42:25.186866  7265 layer_factory.hpp:77] Creating layer conv7_2_mbox_loc_flat
I1208 17:42:25.186870  7265 net.cpp:100] Creating Layer conv7_2_mbox_loc_flat
I1208 17:42:25.186872  7265 net.cpp:480] conv7_2_mbox_loc_flat <- conv7_2_mbox_loc_perm
I1208 17:42:25.186878  7265 net.cpp:454] conv7_2_mbox_loc_flat -> conv7_2_mbox_loc_flat
I1208 17:42:25.186899  7265 net.cpp:150] Setting up conv7_2_mbox_loc_flat
I1208 17:42:25.186903  7265 net.cpp:157] Top shape: 8 600 (4800)
I1208 17:42:25.186905  7265 net.cpp:165] Memory required for data: 1966102592
I1208 17:42:25.186908  7265 layer_factory.hpp:77] Creating layer conv7_2_mbox_conf
I1208 17:42:25.186916  7265 net.cpp:100] Creating Layer conv7_2_mbox_conf
I1208 17:42:25.186918  7265 net.cpp:480] conv7_2_mbox_conf <- conv7_2_conv7_2_relu_0_split_2
I1208 17:42:25.186924  7265 net.cpp:454] conv7_2_mbox_conf -> conv7_2_mbox_conf
I1208 17:42:25.196789  7265 net.cpp:150] Setting up conv7_2_mbox_conf
I1208 17:42:25.196802  7265 net.cpp:157] Top shape: 8 126 5 5 (25200)
I1208 17:42:25.196805  7265 net.cpp:165] Memory required for data: 1966203392
I1208 17:42:25.196810  7265 layer_factory.hpp:77] Creating layer conv7_2_mbox_conf_perm
I1208 17:42:25.196816  7265 net.cpp:100] Creating Layer conv7_2_mbox_conf_perm
I1208 17:42:25.196820  7265 net.cpp:480] conv7_2_mbox_conf_perm <- conv7_2_mbox_conf
I1208 17:42:25.196826  7265 net.cpp:454] conv7_2_mbox_conf_perm -> conv7_2_mbox_conf_perm
I1208 17:42:25.196974  7265 net.cpp:150] Setting up conv7_2_mbox_conf_perm
I1208 17:42:25.196979  7265 net.cpp:157] Top shape: 8 5 5 126 (25200)
I1208 17:42:25.196982  7265 net.cpp:165] Memory required for data: 1966304192
I1208 17:42:25.196985  7265 layer_factory.hpp:77] Creating layer conv7_2_mbox_conf_flat
I1208 17:42:25.196990  7265 net.cpp:100] Creating Layer conv7_2_mbox_conf_flat
I1208 17:42:25.196991  7265 net.cpp:480] conv7_2_mbox_conf_flat <- conv7_2_mbox_conf_perm
I1208 17:42:25.196996  7265 net.cpp:454] conv7_2_mbox_conf_flat -> conv7_2_mbox_conf_flat
I1208 17:42:25.197018  7265 net.cpp:150] Setting up conv7_2_mbox_conf_flat
I1208 17:42:25.197032  7265 net.cpp:157] Top shape: 8 3150 (25200)
I1208 17:42:25.197034  7265 net.cpp:165] Memory required for data: 1966404992
I1208 17:42:25.197037  7265 layer_factory.hpp:77] Creating layer conv7_2_mbox_priorbox
I1208 17:42:25.197043  7265 net.cpp:100] Creating Layer conv7_2_mbox_priorbox
I1208 17:42:25.197046  7265 net.cpp:480] conv7_2_mbox_priorbox <- conv7_2_conv7_2_relu_0_split_3
I1208 17:42:25.197049  7265 net.cpp:480] conv7_2_mbox_priorbox <- data_data_0_split_4
I1208 17:42:25.197054  7265 net.cpp:454] conv7_2_mbox_priorbox -> conv7_2_mbox_priorbox
I1208 17:42:25.197079  7265 net.cpp:150] Setting up conv7_2_mbox_priorbox
I1208 17:42:25.197083  7265 net.cpp:157] Top shape: 1 2 600 (1200)
I1208 17:42:25.197086  7265 net.cpp:165] Memory required for data: 1966409792
I1208 17:42:25.197088  7265 layer_factory.hpp:77] Creating layer conv8_2_mbox_loc
I1208 17:42:25.197096  7265 net.cpp:100] Creating Layer conv8_2_mbox_loc
I1208 17:42:25.197098  7265 net.cpp:480] conv8_2_mbox_loc <- conv8_2_conv8_2_relu_0_split_1
I1208 17:42:25.197105  7265 net.cpp:454] conv8_2_mbox_loc -> conv8_2_mbox_loc
I1208 17:42:25.203486  7265 net.cpp:150] Setting up conv8_2_mbox_loc
I1208 17:42:25.203500  7265 net.cpp:157] Top shape: 8 16 3 3 (1152)
I1208 17:42:25.203505  7265 net.cpp:165] Memory required for data: 1966414400
I1208 17:42:25.203511  7265 layer_factory.hpp:77] Creating layer conv8_2_mbox_loc_perm
I1208 17:42:25.203521  7265 net.cpp:100] Creating Layer conv8_2_mbox_loc_perm
I1208 17:42:25.203524  7265 net.cpp:480] conv8_2_mbox_loc_perm <- conv8_2_mbox_loc
I1208 17:42:25.203542  7265 net.cpp:454] conv8_2_mbox_loc_perm -> conv8_2_mbox_loc_perm
I1208 17:42:25.203702  7265 net.cpp:150] Setting up conv8_2_mbox_loc_perm
I1208 17:42:25.203709  7265 net.cpp:157] Top shape: 8 3 3 16 (1152)
I1208 17:42:25.203712  7265 net.cpp:165] Memory required for data: 1966419008
I1208 17:42:25.203714  7265 layer_factory.hpp:77] Creating layer conv8_2_mbox_loc_flat
I1208 17:42:25.203719  7265 net.cpp:100] Creating Layer conv8_2_mbox_loc_flat
I1208 17:42:25.203725  7265 net.cpp:480] conv8_2_mbox_loc_flat <- conv8_2_mbox_loc_perm
I1208 17:42:25.203729  7265 net.cpp:454] conv8_2_mbox_loc_flat -> conv8_2_mbox_loc_flat
I1208 17:42:25.203757  7265 net.cpp:150] Setting up conv8_2_mbox_loc_flat
I1208 17:42:25.203761  7265 net.cpp:157] Top shape: 8 144 (1152)
I1208 17:42:25.203764  7265 net.cpp:165] Memory required for data: 1966423616
I1208 17:42:25.203766  7265 layer_factory.hpp:77] Creating layer conv8_2_mbox_conf
I1208 17:42:25.203776  7265 net.cpp:100] Creating Layer conv8_2_mbox_conf
I1208 17:42:25.203779  7265 net.cpp:480] conv8_2_mbox_conf <- conv8_2_conv8_2_relu_0_split_2
I1208 17:42:25.203786  7265 net.cpp:454] conv8_2_mbox_conf -> conv8_2_mbox_conf
I1208 17:42:25.211936  7265 net.cpp:150] Setting up conv8_2_mbox_conf
I1208 17:42:25.211948  7265 net.cpp:157] Top shape: 8 84 3 3 (6048)
I1208 17:42:25.211951  7265 net.cpp:165] Memory required for data: 1966447808
I1208 17:42:25.211957  7265 layer_factory.hpp:77] Creating layer conv8_2_mbox_conf_perm
I1208 17:42:25.211964  7265 net.cpp:100] Creating Layer conv8_2_mbox_conf_perm
I1208 17:42:25.211967  7265 net.cpp:480] conv8_2_mbox_conf_perm <- conv8_2_mbox_conf
I1208 17:42:25.211972  7265 net.cpp:454] conv8_2_mbox_conf_perm -> conv8_2_mbox_conf_perm
I1208 17:42:25.212147  7265 net.cpp:150] Setting up conv8_2_mbox_conf_perm
I1208 17:42:25.212153  7265 net.cpp:157] Top shape: 8 3 3 84 (6048)
I1208 17:42:25.212155  7265 net.cpp:165] Memory required for data: 1966472000
I1208 17:42:25.212158  7265 layer_factory.hpp:77] Creating layer conv8_2_mbox_conf_flat
I1208 17:42:25.212163  7265 net.cpp:100] Creating Layer conv8_2_mbox_conf_flat
I1208 17:42:25.212167  7265 net.cpp:480] conv8_2_mbox_conf_flat <- conv8_2_mbox_conf_perm
I1208 17:42:25.212172  7265 net.cpp:454] conv8_2_mbox_conf_flat -> conv8_2_mbox_conf_flat
I1208 17:42:25.212198  7265 net.cpp:150] Setting up conv8_2_mbox_conf_flat
I1208 17:42:25.212203  7265 net.cpp:157] Top shape: 8 756 (6048)
I1208 17:42:25.212215  7265 net.cpp:165] Memory required for data: 1966496192
I1208 17:42:25.212218  7265 layer_factory.hpp:77] Creating layer conv8_2_mbox_priorbox
I1208 17:42:25.212224  7265 net.cpp:100] Creating Layer conv8_2_mbox_priorbox
I1208 17:42:25.212229  7265 net.cpp:480] conv8_2_mbox_priorbox <- conv8_2_conv8_2_relu_0_split_3
I1208 17:42:25.212232  7265 net.cpp:480] conv8_2_mbox_priorbox <- data_data_0_split_5
I1208 17:42:25.212239  7265 net.cpp:454] conv8_2_mbox_priorbox -> conv8_2_mbox_priorbox
I1208 17:42:25.212266  7265 net.cpp:150] Setting up conv8_2_mbox_priorbox
I1208 17:42:25.212271  7265 net.cpp:157] Top shape: 1 2 144 (288)
I1208 17:42:25.212275  7265 net.cpp:165] Memory required for data: 1966497344
I1208 17:42:25.212276  7265 layer_factory.hpp:77] Creating layer conv9_2_mbox_loc
I1208 17:42:25.212285  7265 net.cpp:100] Creating Layer conv9_2_mbox_loc
I1208 17:42:25.212290  7265 net.cpp:480] conv9_2_mbox_loc <- conv9_2_conv9_2_relu_0_split_0
I1208 17:42:25.212296  7265 net.cpp:454] conv9_2_mbox_loc -> conv9_2_mbox_loc
I1208 17:42:25.217242  7265 net.cpp:150] Setting up conv9_2_mbox_loc
I1208 17:42:25.217252  7265 net.cpp:157] Top shape: 8 16 1 1 (128)
I1208 17:42:25.217253  7265 net.cpp:165] Memory required for data: 1966497856
I1208 17:42:25.217258  7265 layer_factory.hpp:77] Creating layer conv9_2_mbox_loc_perm
I1208 17:42:25.217263  7265 net.cpp:100] Creating Layer conv9_2_mbox_loc_perm
I1208 17:42:25.217283  7265 net.cpp:480] conv9_2_mbox_loc_perm <- conv9_2_mbox_loc
I1208 17:42:25.217288  7265 net.cpp:454] conv9_2_mbox_loc_perm -> conv9_2_mbox_loc_perm
I1208 17:42:25.217408  7265 net.cpp:150] Setting up conv9_2_mbox_loc_perm
I1208 17:42:25.217412  7265 net.cpp:157] Top shape: 8 1 1 16 (128)
I1208 17:42:25.217414  7265 net.cpp:165] Memory required for data: 1966498368
I1208 17:42:25.217417  7265 layer_factory.hpp:77] Creating layer conv9_2_mbox_loc_flat
I1208 17:42:25.217422  7265 net.cpp:100] Creating Layer conv9_2_mbox_loc_flat
I1208 17:42:25.217424  7265 net.cpp:480] conv9_2_mbox_loc_flat <- conv9_2_mbox_loc_perm
I1208 17:42:25.217429  7265 net.cpp:454] conv9_2_mbox_loc_flat -> conv9_2_mbox_loc_flat
I1208 17:42:25.217458  7265 net.cpp:150] Setting up conv9_2_mbox_loc_flat
I1208 17:42:25.217463  7265 net.cpp:157] Top shape: 8 16 (128)
I1208 17:42:25.217464  7265 net.cpp:165] Memory required for data: 1966498880
I1208 17:42:25.217466  7265 layer_factory.hpp:77] Creating layer conv9_2_mbox_conf
I1208 17:42:25.217474  7265 net.cpp:100] Creating Layer conv9_2_mbox_conf
I1208 17:42:25.217478  7265 net.cpp:480] conv9_2_mbox_conf <- conv9_2_conv9_2_relu_0_split_1
I1208 17:42:25.217483  7265 net.cpp:454] conv9_2_mbox_conf -> conv9_2_mbox_conf
I1208 17:42:25.223994  7265 net.cpp:150] Setting up conv9_2_mbox_conf
I1208 17:42:25.224005  7265 net.cpp:157] Top shape: 8 84 1 1 (672)
I1208 17:42:25.224007  7265 net.cpp:165] Memory required for data: 1966501568
I1208 17:42:25.224012  7265 layer_factory.hpp:77] Creating layer conv9_2_mbox_conf_perm
I1208 17:42:25.224018  7265 net.cpp:100] Creating Layer conv9_2_mbox_conf_perm
I1208 17:42:25.224021  7265 net.cpp:480] conv9_2_mbox_conf_perm <- conv9_2_mbox_conf
I1208 17:42:25.224025  7265 net.cpp:454] conv9_2_mbox_conf_perm -> conv9_2_mbox_conf_perm
I1208 17:42:25.224153  7265 net.cpp:150] Setting up conv9_2_mbox_conf_perm
I1208 17:42:25.224159  7265 net.cpp:157] Top shape: 8 1 1 84 (672)
I1208 17:42:25.224160  7265 net.cpp:165] Memory required for data: 1966504256
I1208 17:42:25.224162  7265 layer_factory.hpp:77] Creating layer conv9_2_mbox_conf_flat
I1208 17:42:25.224167  7265 net.cpp:100] Creating Layer conv9_2_mbox_conf_flat
I1208 17:42:25.224170  7265 net.cpp:480] conv9_2_mbox_conf_flat <- conv9_2_mbox_conf_perm
I1208 17:42:25.224174  7265 net.cpp:454] conv9_2_mbox_conf_flat -> conv9_2_mbox_conf_flat
I1208 17:42:25.224196  7265 net.cpp:150] Setting up conv9_2_mbox_conf_flat
I1208 17:42:25.224200  7265 net.cpp:157] Top shape: 8 84 (672)
I1208 17:42:25.224202  7265 net.cpp:165] Memory required for data: 1966506944
I1208 17:42:25.224205  7265 layer_factory.hpp:77] Creating layer conv9_2_mbox_priorbox
I1208 17:42:25.224221  7265 net.cpp:100] Creating Layer conv9_2_mbox_priorbox
I1208 17:42:25.224225  7265 net.cpp:480] conv9_2_mbox_priorbox <- conv9_2_conv9_2_relu_0_split_2
I1208 17:42:25.224227  7265 net.cpp:480] conv9_2_mbox_priorbox <- data_data_0_split_6
I1208 17:42:25.224232  7265 net.cpp:454] conv9_2_mbox_priorbox -> conv9_2_mbox_priorbox
I1208 17:42:25.224256  7265 net.cpp:150] Setting up conv9_2_mbox_priorbox
I1208 17:42:25.224261  7265 net.cpp:157] Top shape: 1 2 16 (32)
I1208 17:42:25.224263  7265 net.cpp:165] Memory required for data: 1966507072
I1208 17:42:25.224265  7265 layer_factory.hpp:77] Creating layer mbox_loc
I1208 17:42:25.224272  7265 net.cpp:100] Creating Layer mbox_loc
I1208 17:42:25.224277  7265 net.cpp:480] mbox_loc <- conv4_3_norm_mbox_loc_flat
I1208 17:42:25.224280  7265 net.cpp:480] mbox_loc <- fc7_mbox_loc_flat
I1208 17:42:25.224284  7265 net.cpp:480] mbox_loc <- conv6_2_mbox_loc_flat
I1208 17:42:25.224288  7265 net.cpp:480] mbox_loc <- conv7_2_mbox_loc_flat
I1208 17:42:25.224292  7265 net.cpp:480] mbox_loc <- conv8_2_mbox_loc_flat
I1208 17:42:25.224294  7265 net.cpp:480] mbox_loc <- conv9_2_mbox_loc_flat
I1208 17:42:25.224298  7265 net.cpp:454] mbox_loc -> mbox_loc
I1208 17:42:25.224321  7265 net.cpp:150] Setting up mbox_loc
I1208 17:42:25.224326  7265 net.cpp:157] Top shape: 8 34928 (279424)
I1208 17:42:25.224328  7265 net.cpp:165] Memory required for data: 1967624768
I1208 17:42:25.224331  7265 layer_factory.hpp:77] Creating layer mbox_conf
I1208 17:42:25.224335  7265 net.cpp:100] Creating Layer mbox_conf
I1208 17:42:25.224339  7265 net.cpp:480] mbox_conf <- conv4_3_norm_mbox_conf_flat
I1208 17:42:25.224341  7265 net.cpp:480] mbox_conf <- fc7_mbox_conf_flat
I1208 17:42:25.224345  7265 net.cpp:480] mbox_conf <- conv6_2_mbox_conf_flat
I1208 17:42:25.224349  7265 net.cpp:480] mbox_conf <- conv7_2_mbox_conf_flat
I1208 17:42:25.224351  7265 net.cpp:480] mbox_conf <- conv8_2_mbox_conf_flat
I1208 17:42:25.224354  7265 net.cpp:480] mbox_conf <- conv9_2_mbox_conf_flat
I1208 17:42:25.224361  7265 net.cpp:454] mbox_conf -> mbox_conf
I1208 17:42:25.224388  7265 net.cpp:150] Setting up mbox_conf
I1208 17:42:25.224395  7265 net.cpp:157] Top shape: 8 183372 (1466976)
I1208 17:42:25.224398  7265 net.cpp:165] Memory required for data: 1973492672
I1208 17:42:25.224401  7265 layer_factory.hpp:77] Creating layer mbox_priorbox
I1208 17:42:25.224406  7265 net.cpp:100] Creating Layer mbox_priorbox
I1208 17:42:25.224411  7265 net.cpp:480] mbox_priorbox <- conv4_3_norm_mbox_priorbox
I1208 17:42:25.224414  7265 net.cpp:480] mbox_priorbox <- fc7_mbox_priorbox
I1208 17:42:25.224419  7265 net.cpp:480] mbox_priorbox <- conv6_2_mbox_priorbox
I1208 17:42:25.224423  7265 net.cpp:480] mbox_priorbox <- conv7_2_mbox_priorbox
I1208 17:42:25.224426  7265 net.cpp:480] mbox_priorbox <- conv8_2_mbox_priorbox
I1208 17:42:25.224429  7265 net.cpp:480] mbox_priorbox <- conv9_2_mbox_priorbox
I1208 17:42:25.224436  7265 net.cpp:454] mbox_priorbox -> mbox_priorbox
I1208 17:42:25.224459  7265 net.cpp:150] Setting up mbox_priorbox
I1208 17:42:25.224465  7265 net.cpp:157] Top shape: 1 2 34928 (69856)
I1208 17:42:25.224468  7265 net.cpp:165] Memory required for data: 1973772096
I1208 17:42:25.224472  7265 layer_factory.hpp:77] Creating layer mbox_conf_reshape
I1208 17:42:25.224478  7265 net.cpp:100] Creating Layer mbox_conf_reshape
I1208 17:42:25.224480  7265 net.cpp:480] mbox_conf_reshape <- mbox_conf
I1208 17:42:25.224485  7265 net.cpp:454] mbox_conf_reshape -> mbox_conf_reshape
I1208 17:42:25.224510  7265 net.cpp:150] Setting up mbox_conf_reshape
I1208 17:42:25.224515  7265 net.cpp:157] Top shape: 8 8732 21 (1466976)
I1208 17:42:25.224517  7265 net.cpp:165] Memory required for data: 1979640000
I1208 17:42:25.224519  7265 layer_factory.hpp:77] Creating layer mbox_conf_softmax
I1208 17:42:25.224526  7265 net.cpp:100] Creating Layer mbox_conf_softmax
I1208 17:42:25.224529  7265 net.cpp:480] mbox_conf_softmax <- mbox_conf_reshape
I1208 17:42:25.224532  7265 net.cpp:454] mbox_conf_softmax -> mbox_conf_softmax
I1208 17:42:25.226855  7265 net.cpp:150] Setting up mbox_conf_softmax
I1208 17:42:25.226866  7265 net.cpp:157] Top shape: 8 8732 21 (1466976)
I1208 17:42:25.226868  7265 net.cpp:165] Memory required for data: 1985507904
I1208 17:42:25.226871  7265 layer_factory.hpp:77] Creating layer mbox_conf_flatten
I1208 17:42:25.226876  7265 net.cpp:100] Creating Layer mbox_conf_flatten
I1208 17:42:25.226881  7265 net.cpp:480] mbox_conf_flatten <- mbox_conf_softmax
I1208 17:42:25.226886  7265 net.cpp:454] mbox_conf_flatten -> mbox_conf_flatten
I1208 17:42:25.226907  7265 net.cpp:150] Setting up mbox_conf_flatten
I1208 17:42:25.226912  7265 net.cpp:157] Top shape: 8 183372 (1466976)
I1208 17:42:25.226914  7265 net.cpp:165] Memory required for data: 1991375808
I1208 17:42:25.226917  7265 layer_factory.hpp:77] Creating layer detection_out
I1208 17:42:25.226930  7265 net.cpp:100] Creating Layer detection_out
I1208 17:42:25.226934  7265 net.cpp:480] detection_out <- mbox_loc
I1208 17:42:25.226938  7265 net.cpp:480] detection_out <- mbox_conf_flatten
I1208 17:42:25.226951  7265 net.cpp:480] detection_out <- mbox_priorbox
I1208 17:42:25.226956  7265 net.cpp:454] detection_out -> detection_out
I1208 17:42:25.228545  7265 net.cpp:150] Setting up detection_out
I1208 17:42:25.228554  7265 net.cpp:157] Top shape: 1 1 1 7 (7)
I1208 17:42:25.228557  7265 net.cpp:165] Memory required for data: 1991375836
I1208 17:42:25.228560  7265 layer_factory.hpp:77] Creating layer detection_eval
I1208 17:42:25.228566  7265 net.cpp:100] Creating Layer detection_eval
I1208 17:42:25.228569  7265 net.cpp:480] detection_eval <- detection_out
I1208 17:42:25.228574  7265 net.cpp:480] detection_eval <- label
I1208 17:42:25.228579  7265 net.cpp:454] detection_eval -> detection_eval
I1208 17:42:25.229324  7265 net.cpp:150] Setting up detection_eval
I1208 17:42:25.229331  7265 net.cpp:157] Top shape: 1 1 21 5 (105)
I1208 17:42:25.229332  7265 net.cpp:165] Memory required for data: 1991376256
I1208 17:42:25.229334  7265 net.cpp:228] detection_eval does not need backward computation.
I1208 17:42:25.229337  7265 net.cpp:228] detection_out does not need backward computation.
I1208 17:42:25.229341  7265 net.cpp:228] mbox_conf_flatten does not need backward computation.
I1208 17:42:25.229343  7265 net.cpp:228] mbox_conf_softmax does not need backward computation.
…
