…
      sampler {
        min_scale: 0.3
        max_scale: 1
        min_aspect_ratio: 0.5
        max_aspect_ratio: 2
      }
      sample_constraint {
        min_jaccard_overlap: 0.9
      }
      max_sample: 1
      max_trials: 50
    }
    batch_sampler {
      sampler {
        min_scale: 0.3
        max_scale: 1
        min_aspect_ratio: 0.5
        max_aspect_ratio: 2
      }
      sample_constraint {
        max_jaccard_overlap: 1
      }
      max_sample: 1
      max_trials: 50
    }
    label_map_file: "data/VOC0712/labelmap_voc.prototxt"
  }
}
layer {
  name: "conv1_1"
  type: "Convolution"
  bottom: "data"
  top: "conv1_1"
  param {
    lr_mult: 1
    decay_mult: 1
  }
  param {
    lr_mult: 2
    decay_mult: 0
  }
  convolution_param {
    num_output: 64
    pad: 1
    kernel_size: 3
    weight_filler {
      type: "xavier"
    }
    bias_filler {
      type: "constant"
      value: 0
    }
  }
}
layer {
  name: "relu1_1"
  type: "ReLU"
  bottom: "conv1_1"
  top: "conv1_1"
}
layer {
  name: "conv1_2"
  type: "Convolution"
  bottom: "conv1_1"
  top: "conv1_2"
  param {
    lr_mult: 1
    decay_mult: 1
  }
  param {
    lr_mult: 2
    decay_mult: 0
  }
  convolution_param {
    num_output: 64
    pad: 1
    kernel_size: 3
    weight_filler {
      type: "xavier"
    }
    bias_filler {
      type: "constant"
      value: 0
    }
  }
}
layer {
  name: "relu1_2"
  type: "ReLU"
  bottom: "conv1_2"
  top: "conv1_2"
}
layer {
  name: "pool1"
  type: "Pooling"
  bottom: "conv1_2"
  top: "pool1"
  pooling_param {
    pool: MAX
    kernel_size: 2
    stride: 2
  }
}
layer {
  name: "conv2_1"
  type: "Convolution"
  bottom: "pool1"
  top: "conv2_1"
  param {
    lr_mult: 1
    decay_mult: 1
  }
  param {
    lr_mult: 2
    decay_mult: 0
  }
  convolution_param {
    num_output: 128
    pad: 1
    kernel_size: 3
    weight_filler {
      type: "xavier"
    }
    bias_filler {
      type: "constant"
      value: 0
    }
  }
}
layer {
  name: "relu2_1"
  type: "ReLU"
  bottom: "conv2_1"
  top: "conv2_1"
}
layer {
  name: "conv2_2"
  type: "Convolution"
  bottom: "conv2_1"
  top: "conv2_2"
  param {
    lr_mult: 1
    decay_mult: 1
  }
  param {
    lr_mult: 2
    decay_mult: 0
  }
  convolution_param {
    num_output: 128
    pad: 1
    kernel_size: 3
    weight_filler {
      type: "xavier"
    }
    bias_filler {
      type: "constant"
      value: 0
    }
  }
}
layer {
  name: "relu2_2"
  type: "ReLU"
  bottom: "conv2_2"
  top: "conv2_2"
}
layer {
  name: "pool2"
  type: "Pooling"
  bottom: "conv2_2"
  top: "pool2"
  pooling_param {
    pool: MAX
    kernel_size: 2
    stride: 2
  }
}
layer {
  name: "conv3_1"
  type: "Convolution"
  bottom: "pool2"
  top: "conv3_1"
  param {
    lr_mult: 1
    decay_mult: 1
  }
  param {
    lr_mult: 2
    decay_mult: 0
  }
  convolution_param {
    num_output: 256
    pad: 1
    kernel_size: 3
    weight_filler {
      type: "xavier"
    }
    bias_filler {
      type: "constant"
      value: 0
    }
  }
}
layer {
  name: "relu3_1"
  type: "ReLU"
  bottom: "conv3_1"
  top: "conv3_1"
}
layer {
  name: "conv3_2"
  type: "Convolution"
  bottom: "conv3_1"
  top: "conv3_2"
  param {
    lr_mult: 1
    decay_mult: 1
  }
  param {
    lr_mult: 2
    decay_mult: 0
  }
  convolution_param {
    num_output: 256
    pad: 1
    kernel_size: 3
    weight_filler {
      type: "xavier"
    }
    bias_filler {
      type: "constant"
      value: 0
    }
  }
}
layer {
  name: "relu3_2"
  type: "ReLU"
  bottom: "conv3_2"
  top: "conv3_2"
}
layer {
  name: "conv3_3"
  type: "Convolution"
  bottom: "conv3_2"
  top: "conv3_3"
  param {
    lr_mult: 1
    decay_mult: 1
  }
  param {
    lr_mult: 2
    decay_mult: 0
  }
  convolution_param {
    num_output: 256
    pad: 1
    kernel_size: 3
    weight_filler {
      type: "xavier"
    }
    bias_filler {
      type: "constant"
      value: 0
    }
  }
}
layer {
  name: "relu3_3"
  type: "ReLU"
  bottom: "conv3_3"
  top: "conv3_3"
}
layer {
  name: "pool3"
  type: "Pooling"
  bottom: "conv3_3"
  top: "pool3"
  pooling_param {
    pool: MAX
    kernel_size: 2
    stride: 2
  }
}
layer {
  name: "conv4_1"
  type: "Convolution"
  bottom: "pool3"
  top: "conv4_1"
  param {
    lr_mult: 1
    decay_mult: 1
  }
  param {
    lr_mult: 2
    decay_mult: 0
  }
  convolution_param {
    num_output: 512
    pad: 1
    kernel_size: 3
    weight_filler {
      type: "xavier"
    }
    bias_filler {
      type: "constant"
      value: 0
    }
  }
}
layer {
  name: "relu4_1"
  type: "ReLU"
  bottom: "conv4_1"
  top: "conv4_1"
}
layer {
  name: "conv4_2"
  type: "Convolution"
  bottom: "conv4_1"
  top: "conv4_2"
  param {
    lr_mult: 1
    decay_mult: 1
  }
  param {
    lr_mult: 2
    decay_mult: 0
  }
  convolution_param {
    num_output: 512
    pad: 1
    kernel_size: 3
    weight_filler {
      type: "xavier"
    }
    bias_filler {
      type: "constant"
      value: 0
    }
  }
}
layer {
  name: "relu4_2"
  type: "ReLU"
  bottom: "conv4_2"
  top: "conv4_2"
}
layer {
  name: "conv4_3"
  type: "Convolution"
  bottom: "conv4_2"
  top: "conv4_3"
  param {
    lr_mult: 1
    decay_mult: 1
  }
  param {
    lr_mult: 2
    decay_mult: 0
  }
  convolution_param {
    num_output: 512
    pad: 1
    kernel_size: 3
    weight_filler {
      type: "xavier"
    }
    bias_filler {
      type: "constant"
      value: 0
    }
  }
}
layer {
  name: "relu4_3"
  type: "ReLU"
  bottom: "conv4_3"
  top: "conv4_3"
}
layer {
  name: "pool4"
  type: "Pooling"
  bottom: "conv4_3"
  top: "pool4"
  pooling_param {
    pool: MAX
    kernel_size: 2
    stride: 2
  }
}
layer {
  name: "conv5_1"
  type: "Convolution"
  bottom: "pool4"
  top: "conv5_1"
  param {
    lr_mult: 1
    decay_mult: 1
  }
  param {
    lr_mult: 2
    decay_mult: 0
  }
  convolution_param {
    num_output: 512
    pad: 1
    kernel_size: 3
    weight_filler {
      type: "xavier"
    }
    bias_filler {
      type: "constant"
      value: 0
    }
    dilation: 1
  }
}
layer {
  name: "relu5_1"
  type: "ReLU"
  bottom: "conv5_1"
  top: "conv5_1"
}
layer {
  name: "conv5_2"
  type: "Convolution"
  bottom: "conv5_1"
  top: "conv5_2"
  param {
    lr_mult: 1
    decay_mult: 1
  }
  param {
    lr_mult: 2
    decay_mult: 0
  }
  convolution_param {
    num_output: 512
    pad: 1
    kernel_size: 3
    weight_filler {
      type: "xavier"
    }
    bias_filler {
      type: "constant"
      value: 0
    }
    dilation: 1
  }
}
layer {
  name: "relu5_2"
  type: "ReLU"
  bottom: "conv5_2"
  top: "conv5_2"
}
layer {
  name: "conv5_3"
  type: "Convolution"
  bottom: "conv5_2"
  top: "conv5_3"
  param {
    lr_mult: 1
    decay_mult: 1
  }
  param {
    lr_mult: 2
    decay_mult: 0
  }
  convolution_param {
    num_output: 512
    pad: 1
    kernel_size: 3
    weight_filler {
      type: "xavier"
    }
    bias_filler {
      type: "constant"
      value: 0
    }
    dilation: 1
  }
}
layer {
  name: "relu5_3"
  type: "ReLU"
  bottom: "conv5_3"
  top: "conv5_3"
}
layer {
  name: "pool5"
  type: "Pooling"
  bottom: "conv5_3"
  top: "pool5"
  pooling_param {
    pool: MAX
    kernel_size: 3
    stride: 1
    pad: 1
  }
}
layer {
  name: "fc6"
  type: "Convolution"
  bottom: "pool5"
  top: "fc6"
  param {
    lr_mult: 1
    decay_mult: 1
  }
  param {
    lr_mult: 2
    decay_mult: 0
  }
  convolution_param {
    num_output: 1024
    pad: 6
    kernel_size: 3
    weight_filler {
      type: "xavier"
    }
    bias_filler {
      type: "constant"
      value: 0
    }
    dilation: 6
  }
}
layer {
  name: "relu6"
  type: "ReLU"
  bottom: "fc6"
  top: "fc6"
}
layer {
  name: "fc7"
  type: "Convolution"
  bottom: "fc6"
  top: "fc7"
  param {
    lr_mult: 1
    decay_mult: 1
  }
  param {
    lr_mult: 2
    decay_mult: 0
  }
  convolution_param {
    num_output: 1024
    kernel_size: 1
    weight_filler {
      type: "xavier"
    }
    bias_filler {
      type: "constant"
      value: 0
    }
  }
}
layer {
  name: "relu7"
  type: "ReLU"
  bottom: "fc7"
  top: "fc7"
}
layer {
  name: "conv6_1"
  type: "Convolution"
  bottom: "fc7"
  top: "conv6_1"
  param {
    lr_mult: 1
    decay_mult: 1
  }
  param {
    lr_mult: 2
    decay_mult: 0
  }
  convolution_param {
    num_output: 256
    pad: 0
    kernel_size: 1
    stride: 1
    weight_filler {
      type: "xavier"
    }
    bias_filler {
      type: "constant"
      value: 0
    }
  }
}
layer {
  name: "conv6_1_relu"
  type: "ReLU"
  bottom: "conv6_1"
  top: "conv6_1"
}
layer {
  name: "conv6_2"
  type: "Convolution"
  bottom: "conv6_1"
  top: "conv6_2"
  param {
    lr_mult: 1
    decay_mult: 1
  }
  param {
    lr_mult: 2
    decay_mult: 0
  }
  convolution_param {
    num_output: 512
    pad: 1
    kernel_size: 3
    stride: 2
    weight_filler {
      type: "xavier"
    }
    bias_filler {
      type: "constant"
      value: 0
    }
  }
}
layer {
  name: "conv6_2_relu"
  type: "ReLU"
  bottom: "conv6_2"
  top: "conv6_2"
}
layer {
  name: "conv7_1"
  type: "Convolution"
  bottom: "conv6_2"
  top: "conv7_1"
  param {
    lr_mult: 1
    decay_mult: 1
  }
  param {
    lr_mult: 2
    decay_mult: 0
  }
  convolution_param {
    num_output: 128
    pad: 0
    kernel_size: 1
    stride: 1
    weight_filler {
      type: "xavier"
    }
    bias_filler {
      type: "constant"
      value: 0
    }
  }
}
layer {
  name: "conv7_1_relu"
  type: "ReLU"
  bottom: "conv7_1"
  top: "conv7_1"
}
layer {
  name: "conv7_2"
  type: "Convolution"
  bottom: "conv7_1"
  top: "conv7_2"
  param {
    lr_mult: 1
    decay_mult: 1
  }
  param {
    lr_mult: 2
    decay_mult: 0
  }
  convolution_param {
    num_output: 256
    pad: 1
    kernel_size: 3
    stride: 2
    weight_filler {
      type: "xavier"
    }
    bias_filler {
      type: "constant"
      value: 0
    }
  }
}
layer {
  name: "conv7_2_relu"
  type: "ReLU"
  bottom: "conv7_2"
  top: "conv7_2"
}
layer {
  name: "conv8_1"
  type: "Convolution"
  bottom: "conv7_2"
  top: "conv8_1"
  param {
    lr_mult: 1
    decay_mult: 1
  }
  param {
    lr_mult: 2
    decay_mult: 0
  }
  convolution_param {
    num_output: 128
    pad: 0
    kernel_size: 1
    stride: 1
    weight_filler {
      type: "xavier"
    }
    bias_filler {
      type: "constant"
      value: 0
    }
  }
}
layer {
  name: "conv8_1_relu"
  type: "ReLU"
  bottom: "conv8_1"
  top: "conv8_1"
}
layer {
  name: "conv8_2"
  type: "Convolution"
  bottom: "conv8_1"
  top: "conv8_2"
  param {
    lr_mult: 1
    decay_mult: 1
  }
  param {
    lr_mult: 2
    decay_mult: 0
  }
  convolution_param {
    num_output: 256
    pad: 0
    kernel_size: 3
    stride: 1
    weight_filler {
      type: "xavier"
    }
    bias_filler {
      type: "constant"
      value: 0
    }
  }
}
layer {
  name: "conv8_2_relu"
  type: "ReLU"
  bottom: "conv8_2"
  top: "conv8_2"
}
layer {
  name: "conv9_1"
  type: "Convolution"
  bottom: "conv8_2"
  top: "conv9_1"
  param {
    lr_mult: 1
    decay_mult: 1
  }
  param {
    lr_mult: 2
    decay_mult: 0
  }
  convolution_param {
    num_output: 128
    pad: 0
    kernel_size: 1
    stride: 1
    weight_filler {
      type: "xavier"
    }
    bias_filler {
      type: "constant"
      value: 0
    }
  }
}
layer {
  name: "conv9_1_relu"
  type: "ReLU"
  bottom: "conv9_1"
  top: "conv9_1"
}
layer {
  name: "conv9_2"
  type: "Convolution"
  bottom: "conv9_1"
  top: "conv9_2"
  param {
    lr_mult: 1
    decay_mult: 1
  }
  param {
    lr_mult: 2
    decay_mult: 0
  }
  convolution_param {
    num_output: 256
    pad: 0
    kernel_size: 3
    stride: 1
    weight_filler {
      type: "xavier"
    }
    bias_filler {
      type: "constant"
      value: 0
    }
  }
}
layer {
  name: "conv9_2_relu"
  type: "ReLU"
  bottom: "conv9_2"
  top: "conv9_2"
}
layer {
  name: "conv4_3_norm"
  type: "Normalize"
  bottom: "conv4_3"
  top: "conv4_3_norm"
  norm_param {
    across_spatial: false
    scale_filler {
      type: "constant"
      value: 20
    }
    channel_shared: false
  }
}
layer {
  name: "conv4_3_norm_mbox_loc"
  type: "Convolution"
  bottom: "conv4_3_norm"
  top: "conv4_3_norm_mbox_loc"
  param {
    lr_mult: 1
    decay_mult: 1
  }
  param {
    lr_mult: 2
    decay_mult: 0
  }
  convolution_param {
    num_output: 16
    pad: 1
    kernel_size: 3
    stride: 1
    weight_filler {
      type: "xavier"
    }
    bias_filler {
      type: "constant"
      value: 0
    }
  }
}
layer {
  name: "conv4_3_norm_mbox_loc_perm"
  type: "Permute"
  bottom: "conv4_3_norm_mbox_loc"
  top: "conv4_3_norm_mbox_loc_perm"
  permute_param {
    order: 0
    order: 2
    order: 3
    order: 1
  }
}
layer {
  name: "conv4_3_norm_mbox_loc_flat"
  type: "Flatten"
  bottom: "conv4_3_norm_mbox_loc_perm"
  top: "conv4_3_norm_mbox_loc_flat"
  flatten_param {
    axis: 1
  }
}
layer {
  name: "conv4_3_norm_mbox_conf"
  type: "Convolution"
  bottom: "conv4_3_norm"
  top: "conv4_3_norm_mbox_conf"
  param {
    lr_mult: 1
    decay_mult: 1
  }
  param {
    lr_mult: 2
    decay_mult: 0
  }
  convolution_param {
    num_output: 84
    pad: 1
    kernel_size: 3
    stride: 1
    weight_filler {
      type: "xavier"
    }
    bias_filler {
      type: "constant"
      value: 0
    }
  }
}
layer {
  name: "conv4_3_norm_mbox_conf_perm"
  type: "Permute"
  bottom: "conv4_3_norm_mbox_conf"
  top: "conv4_3_norm_mbox_conf_perm"
  permute_param {
    order: 0
    order: 2
    order: 3
    order: 1
  }
}
layer {
  name: "conv4_3_norm_mbox_conf_flat"
  type: "Flatten"
  bottom: "conv4_3_norm_mbox_conf_perm"
  top: "conv4_3_norm_mbox_conf_flat"
  flatten_param {
    axis: 1
  }
}
layer {
  name: "conv4_3_norm_mbox_priorbox"
  type: "PriorBox"
  bottom: "conv4_3_norm"
  bottom: "data"
  top: "conv4_3_norm_mbox_priorbox"
  prior_box_param {
    min_size: 30
    max_size: 60
    aspect_ratio: 2
    flip: true
    clip: false
    variance: 0.1
    variance: 0.1
    variance: 0.2
    variance: 0.2
    step: 8
    offset: 0.5
  }
}
layer {
  name: "fc7_mbox_loc"
  type: "Convolution"
  bottom: "fc7"
  top: "fc7_mbox_loc"
  param {
    lr_mult: 1
    decay_mult: 1
  }
  param {
    lr_mult: 2
    decay_mult: 0
  }
  convolution_param {
    num_output: 24
    pad: 1
    kernel_size: 3
    stride: 1
    weight_filler {
      type: "xavier"
    }
    bias_filler {
      type: "constant"
      value: 0
    }
  }
}
layer {
  name: "fc7_mbox_loc_perm"
  type: "Permute"
  bottom: "fc7_mbox_loc"
  top: "fc7_mbox_loc_perm"
  permute_param {
    order: 0
    order: 2
    order: 3
    order: 1
  }
}
layer {
  name: "fc7_mbox_loc_flat"
  type: "Flatten"
  bottom: "fc7_mbox_loc_perm"
  top: "fc7_mbox_loc_flat"
  flatten_param {
    axis: 1
  }
}
layer {
  name: "fc7_mbox_conf"
  type: "Convolution"
  bottom: "fc7"
  top: "fc7_mbox_conf"
  param {
    lr_mult: 1
    decay_mult: 1
  }
  param {
    lr_mult: 2
    decay_mult: 0
  }
  convolution_param {
    num_output: 126
    pad: 1
    kernel_size: 3
    stride: 1
    weight_filler {
      type: "xavier"
    }
    bias_filler {
      type: "constant"
      value: 0
    }
  }
}
layer {
  name: "fc7_mbox_conf_perm"
  type: "Permute"
  bottom: "fc7_mbox_conf"
  top: "fc7_mbox_conf_perm"
  permute_param {
    order: 0
    order: 2
    order: 3
    order: 1
  }
}
layer {
  name: "fc7_mbox_conf_flat"
  type: "Flatten"
  bottom: "fc7_mbox_conf_perm"
  top: "fc7_mbox_conf_flat"
  flatten_param {
    axis: 1
  }
}
layer {
  name: "fc7_mbox_priorbox"
  type: "PriorBox"
  bottom: "fc7"
  bottom: "data"
  top: "fc7_mbox_priorbox"
  prior_box_param {
    min_size: 60
    max_size: 111
    aspect_ratio: 2
    aspect_ratio: 3
    flip: true
    clip: false
    variance: 0.1
    variance: 0.1
    variance: 0.2
    variance: 0.2
    step: 16
    offset: 0.5
  }
}
layer {
  name: "conv6_2_mbox_loc"
  type: "Convolution"
  bottom: "conv6_2"
  top: "conv6_2_mbox_loc"
  param {
    lr_mult: 1
    decay_mult: 1
  }
  param {
    lr_mult: 2
    decay_mult: 0
  }
  convolution_param {
    num_output: 24
    pad: 1
    kernel_size: 3
    stride: 1
    weight_filler {
      type: "xavier"
    }
    bias_filler {
      type: "constant"
      value: 0
    }
  }
}
layer {
  name: "conv6_2_mbox_loc_perm"
  type: "Permute"
  bottom: "conv6_2_mbox_loc"
  top: "conv6_2_mbox_loc_perm"
  permute_param {
    order: 0
    order: 2
    order: 3
    order: 1
  }
}
layer {
  name: "conv6_2_mbox_loc_flat"
  type: "Flatten"
  bottom: "conv6_2_mbox_loc_perm"
  top: "conv6_2_mbox_loc_flat"
  flatten_param {
    axis: 1
  }
}
layer {
  name: "conv6_2_mbox_conf"
  type: "Convolution"
  bottom: "conv6_2"
  top: "conv6_2_mbox_conf"
  param {
    lr_mult: 1
    decay_mult: 1
  }
  param {
    lr_mult: 2
    decay_mult: 0
  }
  convolution_param {
    num_output: 126
    pad: 1
    kernel_size: 3
    stride: 1
    weight_filler {
      type: "xavier"
    }
    bias_filler {
      type: "constant"
      value: 0
    }
  }
}
layer {
  name: "conv6_2_mbox_conf_perm"
  type: "Permute"
  bottom: "conv6_2_mbox_conf"
  top: "conv6_2_mbox_conf_perm"
  permute_param {
    order: 0
    order: 2
    order: 3
    order: 1
  }
}
layer {
  name: "conv6_2_mbox_conf_flat"
  type: "Flatten"
  bottom: "conv6_2_mbox_conf_perm"
  top: "conv6_2_mbox_conf_flat"
  flatten_param {
    axis: 1
  }
}
layer {
  name: "conv6_2_mbox_priorbox"
  type: "PriorBox"
  bottom: "conv6_2"
  bottom: "data"
  top: "conv6_2_mbox_priorbox"
  prior_box_param {
    min_size: 111
    max_size: 162
    aspect_ratio: 2
    aspect_ratio: 3
    flip: true
    clip: false
    variance: 0.1
    variance: 0.1
    variance: 0.2
    variance: 0.2
    step: 32
    offset: 0.5
  }
}
layer {
  name: "conv7_2_mbox_loc"
  type: "Convolution"
  bottom: "conv7_2"
  top: "conv7_2_mbox_loc"
  param {
    lr_mult: 1
    decay_mult: 1
  }
  param {
    lr_mult: 2
    decay_mult: 0
  }
  convolution_param {
    num_output: 24
    pad: 1
    kernel_size: 3
    stride: 1
    weight_filler {
      type: "xavier"
    }
    bias_filler {
      type: "constant"
      value: 0
    }
  }
}
layer {
  name: "conv7_2_mbox_loc_perm"
  type: "Permute"
  bottom: "conv7_2_mbox_loc"
  top: "conv7_2_mbox_loc_perm"
  permute_param {
    order: 0
    order: 2
    order: 3
    order: 1
  }
}
layer {
  name: "conv7_2_mbox_loc_flat"
  type: "Flatten"
  bottom: "conv7_2_mbox_loc_perm"
  top: "conv7_2_mbox_loc_flat"
  flatten_param {
    axis: 1
  }
}
layer {
  name: "conv7_2_mbox_conf"
  type: "Convolution"
  bottom: "conv7_2"
  top: "conv7_2_mbox_conf"
  param {
    lr_mult: 1
    decay_mult: 1
  }
  param {
    lr_mult: 2
    decay_mult: 0
  }
  convolution_param {
    num_output: 126
    pad: 1
    kernel_size: 3
    stride: 1
    weight_filler {
      type: "xavier"
    }
    bias_filler {
      type: "constant"
      value: 0
    }
  }
}
layer {
  name: "conv7_2_mbox_conf_perm"
  type: "Permute"
  bottom: "conv7_2_mbox_conf"
  top: "conv7_2_mbox_conf_perm"
  permute_param {
    order: 0
    order: 2
    order: 3
    order: 1
  }
}
layer {
  name: "conv7_2_mbox_conf_flat"
  type: "Flatten"
  bottom: "conv7_2_mbox_conf_perm"
  top: "conv7_2_mbox_conf_flat"
  flatten_param {
    axis: 1
  }
}
layer {
  name: "conv7_2_mbox_priorbox"
  type: "PriorBox"
  bottom: "conv7_2"
  bottom: "data"
  top: "conv7_2_mbox_priorbox"
  prior_box_param {
    min_size: 162
    max_size: 213
    aspect_ratio: 2
    aspect_ratio: 3
    flip: true
    clip: false
    variance: 0.1
    variance: 0.1
    variance: 0.2
    variance: 0.2
    step: 64
    offset: 0.5
  }
}
layer {
  name: "conv8_2_mbox_loc"
  type: "Convolution"
  bottom: "conv8_2"
  top: "conv8_2_mbox_loc"
  param {
    lr_mult: 1
    decay_mult: 1
  }
  param {
    lr_mult: 2
    decay_mult: 0
  }
  convolution_param {
    num_output: 16
    pad: 1
    kernel_size: 3
    stride: 1
    weight_filler {
      type: "xavier"
    }
    bias_filler {
      type: "constant"
      value: 0
    }
  }
}
layer {
  name: "conv8_2_mbox_loc_perm"
  type: "Permute"
  bottom: "conv8_2_mbox_loc"
  top: "conv8_2_mbox_loc_perm"
  permute_param {
    order: 0
    order: 2
    order: 3
    order: 1
  }
}
layer {
  name: "conv8_2_mbox_loc_flat"
  type: "Flatten"
  bottom: "conv8_2_mbox_loc_perm"
  top: "conv8_2_mbox_loc_flat"
  flatten_param {
    axis: 1
  }
}
layer {
  name: "conv8_2_mbox_conf"
  type: "Convolution"
  bottom: "conv8_2"
  top: "conv8_2_mbox_conf"
  param {
    lr_mult: 1
    decay_mult: 1
  }
  param {
    lr_mult: 2
    decay_mult: 0
  }
  convolution_param {
    num_output: 84
    pad: 1
    kernel_size: 3
    stride: 1
    weight_filler {
      type: "xavier"
    }
    bias_filler {
      type: "constant"
      value: 0
    }
  }
}
layer {
  name: "conv8_2_mbox_conf_perm"
  type: "Permute"
  bottom: "conv8_2_mbox_conf"
  top: "conv8_2_mbox_conf_perm"
  permute_param {
    order: 0
    order: 2
    order: 3
    order: 1
  }
}
layer {
  name: "conv8_2_mbox_conf_flat"
  type: "Flatten"
  bottom: "conv8_2_mbox_conf_perm"
  top: "conv8_2_mbox_conf_flat"
  flatten_param {
    axis: 1
  }
}
layer {
  name: "conv8_2_mbox_priorbox"
  type: "PriorBox"
  bottom: "conv8_2"
  bottom: "data"
  top: "conv8_2_mbox_priorbox"
  prior_box_param {
    min_size: 213
    max_size: 264
    aspect_ratio: 2
    flip: true
    clip: false
    variance: 0.1
    variance: 0.1
    variance: 0.2
    variance: 0.2
    step: 100
    offset: 0.5
  }
}
layer {
  name: "conv9_2_mbox_loc"
  type: "Convolution"
  bottom: "conv9_2"
  top: "conv9_2_mbox_loc"
  param {
    lr_mult: 1
    decay_mult: 1
  }
  param {
    lr_mult: 2
    decay_mult: 0
  }
  convolution_param {
    num_output: 16
    pad: 1
    kernel_size: 3
    stride: 1
    weight_filler {
      type: "xavier"
    }
    bias_filler {
      type: "constant"
      value: 0
    }
  }
}
layer {
  name: "conv9_2_mbox_loc_perm"
  type: "Permute"
  bottom: "conv9_2_mbox_loc"
  top: "conv9_2_mbox_loc_perm"
  permute_param {
    order: 0
    order: 2
    order: 3
    order: 1
  }
}
layer {
  name: "conv9_2_mbox_loc_flat"
  type: "Flatten"
  bottom: "conv9_2_mbox_loc_perm"
  top: "conv9_2_mbox_loc_flat"
  flatten_param {
    axis: 1
  }
}
layer {
  name: "conv9_2_mbox_conf"
  type: "Convolution"
  bottom: "conv9_2"
  top: "conv9_2_mbox_conf"
  param {
    lr_mult: 1
    decay_mult: 1
  }
  param {
    lr_mult: 2
    decay_mult: 0
  }
  convolution_param {
    num_output: 84
    pad: 1
    kernel_size: 3
    stride: 1
    weight_filler {
      type: "xavier"
    }
    bias_filler {
      type: "constant"
      value: 0
    }
  }
}
layer {
  name: "conv9_2_mbox_conf_perm"
  type: "Permute"
  bottom: "conv9_2_mbox_conf"
  top: "conv9_2_mbox_conf_perm"
  permute_param {
    order: 0
    order: 2
    order: 3
    order: 1
  }
}
layer {
  name: "conv9_2_mbox_conf_flat"
  type: "Flatten"
  bottom: "conv9_2_mbox_conf_perm"
  top: "conv9_2_mbox_conf_flat"
  flatten_param {
    axis: 1
  }
}
layer {
  name: "conv9_2_mbox_priorbox"
  type: "PriorBox"
  bottom: "conv9_2"
  bottom: "data"
  top: "conv9_2_mbox_priorbox"
  prior_box_param {
    min_size: 264
    max_size: 315
    aspect_ratio: 2
    flip: true
    clip: false
    variance: 0.1
    variance: 0.1
    variance: 0.2
    variance: 0.2
    step: 300
    offset: 0.5
  }
}
layer {
  name: "mbox_loc"
  type: "Concat"
  bottom: "conv4_3_norm_mbox_loc_flat"
  bottom: "fc7_mbox_loc_flat"
  bottom: "conv6_2_mbox_loc_flat"
  bottom: "conv7_2_mbox_loc_flat"
  bottom: "conv8_2_mbox_loc_flat"
  bottom: "conv9_2_mbox_loc_flat"
  top: "mbox_loc"
  concat_param {
    axis: 1
  }
}
layer {
  name: "mbox_conf"
  type: "Concat"
  bottom: "conv4_3_norm_mbox_conf_flat"
  bottom: "fc7_mbox_conf_flat"
  bottom: "conv6_2_mbox_conf_flat"
  bottom: "conv7_2_mbox_conf_flat"
  bottom: "conv8_2_mbox_conf_flat"
  bottom: "conv9_2_mbox_conf_flat"
  top: "mbox_conf"
  concat_param {
    axis: 1
  }
}
layer {
  name: "mbox_priorbox"
  type: "Concat"
  bottom: "conv4_3_norm_mbox_priorbox"
  bottom: "fc7_mbox_priorbox"
  bottom: "conv6_2_mbox_priorbox"
  bottom: "conv7_2_mbox_priorbox"
  bottom: "conv8_2_mbox_priorbox"
  bottom: "conv9_2_mbox_priorbox"
  top: "mbox_priorbox"
  concat_param {
    axis: 2
  }
}
layer {
  name: "mbox_loss"
  type: "MultiBoxLoss"
  bottom: "mbox_loc"
  bottom: "mbox_conf"
  bottom: "mbox_priorbox"
  bottom: "label"
  top: "mbox_loss"
  include {
    phase: TRAIN
  }
  propagate_down: true
  propagate_down: true
  propagate_down: false
  propagate_down: false
  loss_param {
    normalization: VALID
  }
  multibox_loss_param {
    loc_loss_type: SMOOTH_L1
    conf_loss_type: SOFTMAX
    loc_weight: 1
    num_classes: 21
    share_location: true
    match_type: PER_PREDICTION
    overlap_threshold: 0.5
    use_prior_for_matching: true
    background_label_id: 0
    use_difficult_gt: true
    neg_pos_ratio: 3
    neg_overlap: 0.5
    code_type: CENTER_SIZE
    ignore_cross_boundary_bbox: false
    mining_type: MAX_NEGATIVE
  }
}
I1208 16:34:48.261709  6409 layer_factory.hpp:77] Creating layer data
I1208 16:34:48.262153  6409 net.cpp:100] Creating Layer data
I1208 16:34:48.262188  6409 net.cpp:454] data -> data
I1208 16:34:48.262233  6409 net.cpp:454] data -> label
I1208 16:34:48.263451  6419 db_lmdb.cpp:35] Opened lmdb examples/VOC0712/VOC0712_trainval_lmdb
I1208 16:34:48.275578  6409 annotated_data_layer.cpp:62] output data size: 32,3,300,300
I1208 16:34:48.307608  6409 net.cpp:150] Setting up data
I1208 16:34:48.307648  6409 net.cpp:157] Top shape: 32 3 300 300 (8640000)
I1208 16:34:48.307652  6409 net.cpp:157] Top shape: 1 1 1 8 (8)
I1208 16:34:48.307654  6409 net.cpp:165] Memory required for data: 34560032
I1208 16:34:48.307680  6409 layer_factory.hpp:77] Creating layer data_data_0_split
I1208 16:34:48.307694  6409 net.cpp:100] Creating Layer data_data_0_split
I1208 16:34:48.307700  6409 net.cpp:480] data_data_0_split <- data
I1208 16:34:48.307749  6409 net.cpp:454] data_data_0_split -> data_data_0_split_0
I1208 16:34:48.307761  6409 net.cpp:454] data_data_0_split -> data_data_0_split_1
I1208 16:34:48.307768  6409 net.cpp:454] data_data_0_split -> data_data_0_split_2
I1208 16:34:48.307775  6409 net.cpp:454] data_data_0_split -> data_data_0_split_3
I1208 16:34:48.307783  6409 net.cpp:454] data_data_0_split -> data_data_0_split_4
I1208 16:34:48.307788  6409 net.cpp:454] data_data_0_split -> data_data_0_split_5
I1208 16:34:48.307793  6409 net.cpp:454] data_data_0_split -> data_data_0_split_6
I1208 16:34:48.307906  6409 net.cpp:150] Setting up data_data_0_split
I1208 16:34:48.307912  6409 net.cpp:157] Top shape: 32 3 300 300 (8640000)
I1208 16:34:48.307915  6409 net.cpp:157] Top shape: 32 3 300 300 (8640000)
I1208 16:34:48.307919  6409 net.cpp:157] Top shape: 32 3 300 300 (8640000)
I1208 16:34:48.307922  6409 net.cpp:157] Top shape: 32 3 300 300 (8640000)
I1208 16:34:48.307924  6409 net.cpp:157] Top shape: 32 3 300 300 (8640000)
I1208 16:34:48.307927  6409 net.cpp:157] Top shape: 32 3 300 300 (8640000)
I1208 16:34:48.307930  6409 net.cpp:157] Top shape: 32 3 300 300 (8640000)
I1208 16:34:48.307934  6409 net.cpp:165] Memory required for data: 276480032
I1208 16:34:48.307935  6409 layer_factory.hpp:77] Creating layer conv1_1
I1208 16:34:48.307951  6409 net.cpp:100] Creating Layer conv1_1
I1208 16:34:48.307955  6409 net.cpp:480] conv1_1 <- data_data_0_split_0
I1208 16:34:48.307960  6409 net.cpp:454] conv1_1 -> conv1_1
I1208 16:34:48.787122  6409 net.cpp:150] Setting up conv1_1
I1208 16:34:48.787145  6409 net.cpp:157] Top shape: 32 64 300 300 (184320000)
I1208 16:34:48.787148  6409 net.cpp:165] Memory required for data: 1013760032
I1208 16:34:48.787164  6409 layer_factory.hpp:77] Creating layer relu1_1
I1208 16:34:48.787173  6409 net.cpp:100] Creating Layer relu1_1
I1208 16:34:48.787176  6409 net.cpp:480] relu1_1 <- conv1_1
I1208 16:34:48.787181  6409 net.cpp:441] relu1_1 -> conv1_1 (in-place)
I1208 16:34:48.787403  6409 net.cpp:150] Setting up relu1_1
I1208 16:34:48.787410  6409 net.cpp:157] Top shape: 32 64 300 300 (184320000)
I1208 16:34:48.787412  6409 net.cpp:165] Memory required for data: 1751040032
I1208 16:34:48.787415  6409 layer_factory.hpp:77] Creating layer conv1_2
I1208 16:34:48.787427  6409 net.cpp:100] Creating Layer conv1_2
I1208 16:34:48.787431  6409 net.cpp:480] conv1_2 <- conv1_1
I1208 16:34:48.787436  6409 net.cpp:454] conv1_2 -> conv1_2
I1208 16:34:48.789057  6409 net.cpp:150] Setting up conv1_2
I1208 16:34:48.789069  6409 net.cpp:157] Top shape: 32 64 300 300 (184320000)
I1208 16:34:48.789072  6409 net.cpp:165] Memory required for data: 2488320032
I1208 16:34:48.789078  6409 layer_factory.hpp:77] Creating layer relu1_2
I1208 16:34:48.789099  6409 net.cpp:100] Creating Layer relu1_2
I1208 16:34:48.789103  6409 net.cpp:480] relu1_2 <- conv1_2
I1208 16:34:48.789106  6409 net.cpp:441] relu1_2 -> conv1_2 (in-place)
I1208 16:34:48.789288  6409 net.cpp:150] Setting up relu1_2
I1208 16:34:48.789294  6409 net.cpp:157] Top shape: 32 64 300 300 (184320000)
I1208 16:34:48.789297  6409 net.cpp:165] Memory required for data: 3225600032
I1208 16:34:48.789300  6409 layer_factory.hpp:77] Creating layer pool1
I1208 16:34:48.789305  6409 net.cpp:100] Creating Layer pool1
I1208 16:34:48.789309  6409 net.cpp:480] pool1 <- conv1_2
I1208 16:34:48.789312  6409 net.cpp:454] pool1 -> pool1
I1208 16:34:48.789352  6409 net.cpp:150] Setting up pool1
I1208 16:34:48.789357  6409 net.cpp:157] Top shape: 32 64 150 150 (46080000)
I1208 16:34:48.789360  6409 net.cpp:165] Memory required for data: 3409920032
I1208 16:34:48.789362  6409 layer_factory.hpp:77] Creating layer conv2_1
I1208 16:34:48.789369  6409 net.cpp:100] Creating Layer conv2_1
I1208 16:34:48.789371  6409 net.cpp:480] conv2_1 <- pool1
I1208 16:34:48.789376  6409 net.cpp:454] conv2_1 -> conv2_1
I1208 16:34:48.790752  6409 net.cpp:150] Setting up conv2_1
I1208 16:34:48.790765  6409 net.cpp:157] Top shape: 32 128 150 150 (92160000)
I1208 16:34:48.790766  6409 net.cpp:165] Memory required for data: 3778560032
I1208 16:34:48.790791  6409 layer_factory.hpp:77] Creating layer relu2_1
I1208 16:34:48.790797  6409 net.cpp:100] Creating Layer relu2_1
I1208 16:34:48.790801  6409 net.cpp:480] relu2_1 <- conv2_1
I1208 16:34:48.790804  6409 net.cpp:441] relu2_1 -> conv2_1 (in-place)
I1208 16:34:48.791133  6409 net.cpp:150] Setting up relu2_1
I1208 16:34:48.791141  6409 net.cpp:157] Top shape: 32 128 150 150 (92160000)
I1208 16:34:48.791144  6409 net.cpp:165] Memory required for data: 4147200032
I1208 16:34:48.791147  6409 layer_factory.hpp:77] Creating layer conv2_2
I1208 16:34:48.791155  6409 net.cpp:100] Creating Layer conv2_2
I1208 16:34:48.791160  6409 net.cpp:480] conv2_2 <- conv2_1
I1208 16:34:48.791165  6409 net.cpp:454] conv2_2 -> conv2_2
I1208 16:34:48.792780  6409 net.cpp:150] Setting up conv2_2
I1208 16:34:48.792790  6409 net.cpp:157] Top shape: 32 128 150 150 (92160000)
I1208 16:34:48.792793  6409 net.cpp:165] Memory required for data: 4515840032
I1208 16:34:48.792799  6409 layer_factory.hpp:77] Creating layer relu2_2
I1208 16:34:48.792804  6409 net.cpp:100] Creating Layer relu2_2
I1208 16:34:48.792806  6409 net.cpp:480] relu2_2 <- conv2_2
I1208 16:34:48.792810  6409 net.cpp:441] relu2_2 -> conv2_2 (in-place)
I1208 16:34:48.792994  6409 net.cpp:150] Setting up relu2_2
I1208 16:34:48.793000  6409 net.cpp:157] Top shape: 32 128 150 150 (92160000)
I1208 16:34:48.793004  6409 net.cpp:165] Memory required for data: 4884480032
I1208 16:34:48.793006  6409 layer_factory.hpp:77] Creating layer pool2
I1208 16:34:48.793011  6409 net.cpp:100] Creating Layer pool2
I1208 16:34:48.793013  6409 net.cpp:480] pool2 <- conv2_2
I1208 16:34:48.793017  6409 net.cpp:454] pool2 -> pool2
I1208 16:34:48.793047  6409 net.cpp:150] Setting up pool2
I1208 16:34:48.793052  6409 net.cpp:157] Top shape: 32 128 75 75 (23040000)
I1208 16:34:48.793054  6409 net.cpp:165] Memory required for data: 4976640032
I1208 16:34:48.793057  6409 layer_factory.hpp:77] Creating layer conv3_1
I1208 16:34:48.793064  6409 net.cpp:100] Creating Layer conv3_1
I1208 16:34:48.793067  6409 net.cpp:480] conv3_1 <- pool2
I1208 16:34:48.793071  6409 net.cpp:454] conv3_1 -> conv3_1
I1208 16:34:48.796160  6409 net.cpp:150] Setting up conv3_1
I1208 16:34:48.796171  6409 net.cpp:157] Top shape: 32 256 75 75 (46080000)
I1208 16:34:48.796175  6409 net.cpp:165] Memory required for data: 5160960032
I1208 16:34:48.796181  6409 layer_factory.hpp:77] Creating layer relu3_1
I1208 16:34:48.796202  6409 net.cpp:100] Creating Layer relu3_1
I1208 16:34:48.796205  6409 net.cpp:480] relu3_1 <- conv3_1
I1208 16:34:48.796209  6409 net.cpp:441] relu3_1 -> conv3_1 (in-place)
I1208 16:34:48.796422  6409 net.cpp:150] Setting up relu3_1
I1208 16:34:48.796427  6409 net.cpp:157] Top shape: 32 256 75 75 (46080000)
I1208 16:34:48.796430  6409 net.cpp:165] Memory required for data: 5345280032
I1208 16:34:48.796433  6409 layer_factory.hpp:77] Creating layer conv3_2
I1208 16:34:48.796440  6409 net.cpp:100] Creating Layer conv3_2
I1208 16:34:48.796443  6409 net.cpp:480] conv3_2 <- conv3_1
I1208 16:34:48.796448  6409 net.cpp:454] conv3_2 -> conv3_2
I1208 16:34:48.800228  6409 net.cpp:150] Setting up conv3_2
I1208 16:34:48.800240  6409 net.cpp:157] Top shape: 32 256 75 75 (46080000)
I1208 16:34:48.800242  6409 net.cpp:165] Memory required for data: 5529600032
I1208 16:34:48.800248  6409 layer_factory.hpp:77] Creating layer relu3_2
I1208 16:34:48.800253  6409 net.cpp:100] Creating Layer relu3_2
I1208 16:34:48.800256  6409 net.cpp:480] relu3_2 <- conv3_2
I1208 16:34:48.800259  6409 net.cpp:441] relu3_2 -> conv3_2 (in-place)
I1208 16:34:48.800585  6409 net.cpp:150] Setting up relu3_2
I1208 16:34:48.800601  6409 net.cpp:157] Top shape: 32 256 75 75 (46080000)
I1208 16:34:48.800602  6409 net.cpp:165] Memory required for data: 5713920032
I1208 16:34:48.800604  6409 layer_factory.hpp:77] Creating layer conv3_3
I1208 16:34:48.800624  6409 net.cpp:100] Creating Layer conv3_3
I1208 16:34:48.800627  6409 net.cpp:480] conv3_3 <- conv3_2
I1208 16:34:48.800632  6409 net.cpp:454] conv3_3 -> conv3_3
I1208 16:34:48.804548  6409 net.cpp:150] Setting up conv3_3
I1208 16:34:48.804560  6409 net.cpp:157] Top shape: 32 256 75 75 (46080000)
I1208 16:34:48.804563  6409 net.cpp:165] Memory required for data: 5898240032
I1208 16:34:48.804567  6409 layer_factory.hpp:77] Creating layer relu3_3
I1208 16:34:48.804587  6409 net.cpp:100] Creating Layer relu3_3
I1208 16:34:48.804590  6409 net.cpp:480] relu3_3 <- conv3_3
I1208 16:34:48.804594  6409 net.cpp:441] relu3_3 -> conv3_3 (in-place)
I1208 16:34:48.804795  6409 net.cpp:150] Setting up relu3_3
I1208 16:34:48.804801  6409 net.cpp:157] Top shape: 32 256 75 75 (46080000)
I1208 16:34:48.804805  6409 net.cpp:165] Memory required for data: 6082560032
I1208 16:34:48.804806  6409 layer_factory.hpp:77] Creating layer pool3
I1208 16:34:48.804811  6409 net.cpp:100] Creating Layer pool3
I1208 16:34:48.804813  6409 net.cpp:480] pool3 <- conv3_3
I1208 16:34:48.804818  6409 net.cpp:454] pool3 -> pool3
I1208 16:34:48.804849  6409 net.cpp:150] Setting up pool3
I1208 16:34:48.804854  6409 net.cpp:157] Top shape: 32 256 38 38 (11829248)
I1208 16:34:48.804857  6409 net.cpp:165] Memory required for data: 6129877024
I1208 16:34:48.804859  6409 layer_factory.hpp:77] Creating layer conv4_1
I1208 16:34:48.804867  6409 net.cpp:100] Creating Layer conv4_1
I1208 16:34:48.804870  6409 net.cpp:480] conv4_1 <- pool3
I1208 16:34:48.804875  6409 net.cpp:454] conv4_1 -> conv4_1
I1208 16:34:48.811626  6409 net.cpp:150] Setting up conv4_1
I1208 16:34:48.811637  6409 net.cpp:157] Top shape: 32 512 38 38 (23658496)
I1208 16:34:48.811640  6409 net.cpp:165] Memory required for data: 6224511008
I1208 16:34:48.811645  6409 layer_factory.hpp:77] Creating layer relu4_1
I1208 16:34:48.811650  6409 net.cpp:100] Creating Layer relu4_1
I1208 16:34:48.811652  6409 net.cpp:480] relu4_1 <- conv4_1
I1208 16:34:48.811656  6409 net.cpp:441] relu4_1 -> conv4_1 (in-place)
I1208 16:34:48.811866  6409 net.cpp:150] Setting up relu4_1
I1208 16:34:48.811873  6409 net.cpp:157] Top shape: 32 512 38 38 (23658496)
I1208 16:34:48.811875  6409 net.cpp:165] Memory required for data: 6319144992
I1208 16:34:48.811878  6409 layer_factory.hpp:77] Creating layer conv4_2
I1208 16:34:48.811885  6409 net.cpp:100] Creating Layer conv4_2
I1208 16:34:48.811889  6409 net.cpp:480] conv4_2 <- conv4_1
I1208 16:34:48.811893  6409 net.cpp:454] conv4_2 -> conv4_2
I1208 16:34:48.823355  6409 net.cpp:150] Setting up conv4_2
I1208 16:34:48.823369  6409 net.cpp:157] Top shape: 32 512 38 38 (23658496)
I1208 16:34:48.823370  6409 net.cpp:165] Memory required for data: 6413778976
I1208 16:34:48.823380  6409 layer_factory.hpp:77] Creating layer relu4_2
I1208 16:34:48.823385  6409 net.cpp:100] Creating Layer relu4_2
I1208 16:34:48.823388  6409 net.cpp:480] relu4_2 <- conv4_2
I1208 16:34:48.823392  6409 net.cpp:441] relu4_2 -> conv4_2 (in-place)
I1208 16:34:48.823591  6409 net.cpp:150] Setting up relu4_2
I1208 16:34:48.823597  6409 net.cpp:157] Top shape: 32 512 38 38 (23658496)
I1208 16:34:48.823599  6409 net.cpp:165] Memory required for data: 6508412960
I1208 16:34:48.823602  6409 layer_factory.hpp:77] Creating layer conv4_3
I1208 16:34:48.823611  6409 net.cpp:100] Creating Layer conv4_3
I1208 16:34:48.823612  6409 net.cpp:480] conv4_3 <- conv4_2
I1208 16:34:48.823617  6409 net.cpp:454] conv4_3 -> conv4_3
I1208 16:34:48.835345  6409 net.cpp:150] Setting up conv4_3
I1208 16:34:48.835357  6409 net.cpp:157] Top shape: 32 512 38 38 (23658496)
I1208 16:34:48.835359  6409 net.cpp:165] Memory required for data: 6603046944
I1208 16:34:48.835366  6409 layer_factory.hpp:77] Creating layer relu4_3
I1208 16:34:48.835371  6409 net.cpp:100] Creating Layer relu4_3
I1208 16:34:48.835373  6409 net.cpp:480] relu4_3 <- conv4_3
I1208 16:34:48.835377  6409 net.cpp:441] relu4_3 -> conv4_3 (in-place)
I1208 16:34:48.835779  6409 net.cpp:150] Setting up relu4_3
I1208 16:34:48.835789  6409 net.cpp:157] Top shape: 32 512 38 38 (23658496)
I1208 16:34:48.835806  6409 net.cpp:165] Memory required for data: 6697680928
I1208 16:34:48.835809  6409 layer_factory.hpp:77] Creating layer conv4_3_relu4_3_0_split
I1208 16:34:48.835814  6409 net.cpp:100] Creating Layer conv4_3_relu4_3_0_split
I1208 16:34:48.835819  6409 net.cpp:480] conv4_3_relu4_3_0_split <- conv4_3
I1208 16:34:48.835824  6409 net.cpp:454] conv4_3_relu4_3_0_split -> conv4_3_relu4_3_0_split_0
I1208 16:34:48.835829  6409 net.cpp:454] conv4_3_relu4_3_0_split -> conv4_3_relu4_3_0_split_1
I1208 16:34:48.835862  6409 net.cpp:150] Setting up conv4_3_relu4_3_0_split
I1208 16:34:48.835867  6409 net.cpp:157] Top shape: 32 512 38 38 (23658496)
I1208 16:34:48.835870  6409 net.cpp:157] Top shape: 32 512 38 38 (23658496)
I1208 16:34:48.835872  6409 net.cpp:165] Memory required for data: 6886948896
I1208 16:34:48.835875  6409 layer_factory.hpp:77] Creating layer pool4
I1208 16:34:48.835881  6409 net.cpp:100] Creating Layer pool4
I1208 16:34:48.835883  6409 net.cpp:480] pool4 <- conv4_3_relu4_3_0_split_0
I1208 16:34:48.835887  6409 net.cpp:454] pool4 -> pool4
I1208 16:34:48.835916  6409 net.cpp:150] Setting up pool4
I1208 16:34:48.835922  6409 net.cpp:157] Top shape: 32 512 19 19 (5914624)
I1208 16:34:48.835924  6409 net.cpp:165] Memory required for data: 6910607392
I1208 16:34:48.835927  6409 layer_factory.hpp:77] Creating layer conv5_1
I1208 16:34:48.835934  6409 net.cpp:100] Creating Layer conv5_1
I1208 16:34:48.835939  6409 net.cpp:480] conv5_1 <- pool4
I1208 16:34:48.835943  6409 net.cpp:454] conv5_1 -> conv5_1
I1208 16:34:48.847097  6409 net.cpp:150] Setting up conv5_1
I1208 16:34:48.847116  6409 net.cpp:157] Top shape: 32 512 19 19 (5914624)
I1208 16:34:48.847120  6409 net.cpp:165] Memory required for data: 6934265888
I1208 16:34:48.847126  6409 layer_factory.hpp:77] Creating layer relu5_1
I1208 16:34:48.847132  6409 net.cpp:100] Creating Layer relu5_1
I1208 16:34:48.847136  6409 net.cpp:480] relu5_1 <- conv5_1
I1208 16:34:48.847141  6409 net.cpp:441] relu5_1 -> conv5_1 (in-place)
I1208 16:34:48.847313  6409 net.cpp:150] Setting up relu5_1
I1208 16:34:48.847319  6409 net.cpp:157] Top shape: 32 512 19 19 (5914624)
I1208 16:34:48.847321  6409 net.cpp:165] Memory required for data: 6957924384
I1208 16:34:48.847324  6409 layer_factory.hpp:77] Creating layer conv5_2
I1208 16:34:48.847332  6409 net.cpp:100] Creating Layer conv5_2
I1208 16:34:48.847334  6409 net.cpp:480] conv5_2 <- conv5_1
I1208 16:34:48.847338  6409 net.cpp:454] conv5_2 -> conv5_2
I1208 16:34:48.858630  6409 net.cpp:150] Setting up conv5_2
I1208 16:34:48.858647  6409 net.cpp:157] Top shape: 32 512 19 19 (5914624)
I1208 16:34:48.858649  6409 net.cpp:165] Memory required for data: 6981582880
I1208 16:34:48.858655  6409 layer_factory.hpp:77] Creating layer relu5_2
I1208 16:34:48.858661  6409 net.cpp:100] Creating Layer relu5_2
I1208 16:34:48.858664  6409 net.cpp:480] relu5_2 <- conv5_2
I1208 16:34:48.858669  6409 net.cpp:441] relu5_2 -> conv5_2 (in-place)
I1208 16:34:48.858837  6409 net.cpp:150] Setting up relu5_2
I1208 16:34:48.858844  6409 net.cpp:157] Top shape: 32 512 19 19 (5914624)
I1208 16:34:48.858846  6409 net.cpp:165] Memory required for data: 7005241376
I1208 16:34:48.858849  6409 layer_factory.hpp:77] Creating layer conv5_3
I1208 16:34:48.858856  6409 net.cpp:100] Creating Layer conv5_3
I1208 16:34:48.858862  6409 net.cpp:480] conv5_3 <- conv5_2
I1208 16:34:48.858866  6409 net.cpp:454] conv5_3 -> conv5_3
I1208 16:34:48.869561  6409 net.cpp:150] Setting up conv5_3
I1208 16:34:48.869578  6409 net.cpp:157] Top shape: 32 512 19 19 (5914624)
I1208 16:34:48.869581  6409 net.cpp:165] Memory required for data: 7028899872
I1208 16:34:48.869603  6409 layer_factory.hpp:77] Creating layer relu5_3
I1208 16:34:48.869613  6409 net.cpp:100] Creating Layer relu5_3
I1208 16:34:48.869616  6409 net.cpp:480] relu5_3 <- conv5_3
I1208 16:34:48.869633  6409 net.cpp:441] relu5_3 -> conv5_3 (in-place)
I1208 16:34:48.870012  6409 net.cpp:150] Setting up relu5_3
I1208 16:34:48.870021  6409 net.cpp:157] Top shape: 32 512 19 19 (5914624)
I1208 16:34:48.870036  6409 net.cpp:165] Memory required for data: 7052558368
I1208 16:34:48.870048  6409 layer_factory.hpp:77] Creating layer pool5
I1208 16:34:48.870054  6409 net.cpp:100] Creating Layer pool5
I1208 16:34:48.870057  6409 net.cpp:480] pool5 <- conv5_3
I1208 16:34:48.870062  6409 net.cpp:454] pool5 -> pool5
I1208 16:34:48.870111  6409 net.cpp:150] Setting up pool5
I1208 16:34:48.870116  6409 net.cpp:157] Top shape: 32 512 19 19 (5914624)
I1208 16:34:48.870120  6409 net.cpp:165] Memory required for data: 7076216864
I1208 16:34:48.870121  6409 layer_factory.hpp:77] Creating layer fc6
I1208 16:34:48.870129  6409 net.cpp:100] Creating Layer fc6
I1208 16:34:48.870132  6409 net.cpp:480] fc6 <- pool5
I1208 16:34:48.870136  6409 net.cpp:454] fc6 -> fc6
I1208 16:34:48.891119  6409 net.cpp:150] Setting up fc6
I1208 16:34:48.891135  6409 net.cpp:157] Top shape: 32 1024 19 19 (11829248)
I1208 16:34:48.891137  6409 net.cpp:165] Memory required for data: 7123533856
I1208 16:34:48.891144  6409 layer_factory.hpp:77] Creating layer relu6
I1208 16:34:48.891149  6409 net.cpp:100] Creating Layer relu6
I1208 16:34:48.891152  6409 net.cpp:480] relu6 <- fc6
I1208 16:34:48.891156  6409 net.cpp:441] relu6 -> fc6 (in-place)
I1208 16:34:48.891393  6409 net.cpp:150] Setting up relu6
I1208 16:34:48.891399  6409 net.cpp:157] Top shape: 32 1024 19 19 (11829248)
I1208 16:34:48.891402  6409 net.cpp:165] Memory required for data: 7170850848
I1208 16:34:48.891404  6409 layer_factory.hpp:77] Creating layer fc7
I1208 16:34:48.891412  6409 net.cpp:100] Creating Layer fc7
I1208 16:34:48.891413  6409 net.cpp:480] fc7 <- fc6
I1208 16:34:48.891418  6409 net.cpp:454] fc7 -> fc7
I1208 16:34:48.896843  6409 net.cpp:150] Setting up fc7
I1208 16:34:48.896857  6409 net.cpp:157] Top shape: 32 1024 19 19 (11829248)
I1208 16:34:48.896858  6409 net.cpp:165] Memory required for data: 7218167840
I1208 16:34:48.896864  6409 layer_factory.hpp:77] Creating layer relu7
I1208 16:34:48.896885  6409 net.cpp:100] Creating Layer relu7
I1208 16:34:48.896888  6409 net.cpp:480] relu7 <- fc7
I1208 16:34:48.896893  6409 net.cpp:441] relu7 -> fc7 (in-place)
I1208 16:34:48.897060  6409 net.cpp:150] Setting up relu7
I1208 16:34:48.897066  6409 net.cpp:157] Top shape: 32 1024 19 19 (11829248)
I1208 16:34:48.897068  6409 net.cpp:165] Memory required for data: 7265484832
I1208 16:34:48.897070  6409 layer_factory.hpp:77] Creating layer fc7_relu7_0_split
I1208 16:34:48.897075  6409 net.cpp:100] Creating Layer fc7_relu7_0_split
I1208 16:34:48.897078  6409 net.cpp:480] fc7_relu7_0_split <- fc7
I1208 16:34:48.897080  6409 net.cpp:454] fc7_relu7_0_split -> fc7_relu7_0_split_0
I1208 16:34:48.897086  6409 net.cpp:454] fc7_relu7_0_split -> fc7_relu7_0_split_1
I1208 16:34:48.897096  6409 net.cpp:454] fc7_relu7_0_split -> fc7_relu7_0_split_2
I1208 16:34:48.897101  6409 net.cpp:454] fc7_relu7_0_split -> fc7_relu7_0_split_3
I1208 16:34:48.897147  6409 net.cpp:150] Setting up fc7_relu7_0_split
I1208 16:34:48.897152  6409 net.cpp:157] Top shape: 32 1024 19 19 (11829248)
I1208 16:34:48.897156  6409 net.cpp:157] Top shape: 32 1024 19 19 (11829248)
I1208 16:34:48.897158  6409 net.cpp:157] Top shape: 32 1024 19 19 (11829248)
I1208 16:34:48.897161  6409 net.cpp:157] Top shape: 32 1024 19 19 (11829248)
I1208 16:34:48.897162  6409 net.cpp:165] Memory required for data: 7454752800
I1208 16:34:48.897164  6409 layer_factory.hpp:77] Creating layer conv6_1
I1208 16:34:48.897171  6409 net.cpp:100] Creating Layer conv6_1
I1208 16:34:48.897174  6409 net.cpp:480] conv6_1 <- fc7_relu7_0_split_0
I1208 16:34:48.897179  6409 net.cpp:454] conv6_1 -> conv6_1
I1208 16:34:48.899852  6409 net.cpp:150] Setting up conv6_1
I1208 16:34:48.899866  6409 net.cpp:157] Top shape: 32 256 19 19 (2957312)
I1208 16:34:48.899868  6409 net.cpp:165] Memory required for data: 7466582048
I1208 16:34:48.899874  6409 layer_factory.hpp:77] Creating layer conv6_1_relu
I1208 16:34:48.899880  6409 net.cpp:100] Creating Layer conv6_1_relu
I1208 16:34:48.899884  6409 net.cpp:480] conv6_1_relu <- conv6_1
I1208 16:34:48.899902  6409 net.cpp:441] conv6_1_relu -> conv6_1 (in-place)
I1208 16:34:48.900259  6409 net.cpp:150] Setting up conv6_1_relu
I1208 16:34:48.900269  6409 net.cpp:157] Top shape: 32 256 19 19 (2957312)
I1208 16:34:48.900272  6409 net.cpp:165] Memory required for data: 7478411296
I1208 16:34:48.900275  6409 layer_factory.hpp:77] Creating layer conv6_2
I1208 16:34:48.900283  6409 net.cpp:100] Creating Layer conv6_2
I1208 16:34:48.900290  6409 net.cpp:480] conv6_2 <- conv6_1
I1208 16:34:48.900295  6409 net.cpp:454] conv6_2 -> conv6_2
I1208 16:34:48.906489  6409 net.cpp:150] Setting up conv6_2
I1208 16:34:48.906500  6409 net.cpp:157] Top shape: 32 512 10 10 (1638400)
I1208 16:34:48.906503  6409 net.cpp:165] Memory required for data: 7484964896
I1208 16:34:48.906529  6409 layer_factory.hpp:77] Creating layer conv6_2_relu
I1208 16:34:48.906534  6409 net.cpp:100] Creating Layer conv6_2_relu
I1208 16:34:48.906538  6409 net.cpp:480] conv6_2_relu <- conv6_2
I1208 16:34:48.906543  6409 net.cpp:441] conv6_2_relu -> conv6_2 (in-place)
I1208 16:34:48.906728  6409 net.cpp:150] Setting up conv6_2_relu
I1208 16:34:48.906734  6409 net.cpp:157] Top shape: 32 512 10 10 (1638400)
I1208 16:34:48.906736  6409 net.cpp:165] Memory required for data: 7491518496
I1208 16:34:48.906739  6409 layer_factory.hpp:77] Creating layer conv6_2_conv6_2_relu_0_split
I1208 16:34:48.906744  6409 net.cpp:100] Creating Layer conv6_2_conv6_2_relu_0_split
I1208 16:34:48.906747  6409 net.cpp:480] conv6_2_conv6_2_relu_0_split <- conv6_2
I1208 16:34:48.906752  6409 net.cpp:454] conv6_2_conv6_2_relu_0_split -> conv6_2_conv6_2_relu_0_split_0
I1208 16:34:48.906759  6409 net.cpp:454] conv6_2_conv6_2_relu_0_split -> conv6_2_conv6_2_relu_0_split_1
I1208 16:34:48.906764  6409 net.cpp:454] conv6_2_conv6_2_relu_0_split -> conv6_2_conv6_2_relu_0_split_2
I1208 16:34:48.906769  6409 net.cpp:454] conv6_2_conv6_2_relu_0_split -> conv6_2_conv6_2_relu_0_split_3
I1208 16:34:48.906822  6409 net.cpp:150] Setting up conv6_2_conv6_2_relu_0_split
I1208 16:34:48.906828  6409 net.cpp:157] Top shape: 32 512 10 10 (1638400)
I1208 16:34:48.906831  6409 net.cpp:157] Top shape: 32 512 10 10 (1638400)
I1208 16:34:48.906834  6409 net.cpp:157] Top shape: 32 512 10 10 (1638400)
I1208 16:34:48.906836  6409 net.cpp:157] Top shape: 32 512 10 10 (1638400)
I1208 16:34:48.906839  6409 net.cpp:165] Memory required for data: 7517732896
I1208 16:34:48.906841  6409 layer_factory.hpp:77] Creating layer conv7_1
I1208 16:34:48.906848  6409 net.cpp:100] Creating Layer conv7_1
I1208 16:34:48.906852  6409 net.cpp:480] conv7_1 <- conv6_2_conv6_2_relu_0_split_0
I1208 16:34:48.906857  6409 net.cpp:454] conv7_1 -> conv7_1
I1208 16:34:48.908049  6409 net.cpp:150] Setting up conv7_1
I1208 16:34:48.908059  6409 net.cpp:157] Top shape: 32 128 10 10 (409600)
I1208 16:34:48.908062  6409 net.cpp:165] Memory required for data: 7519371296
I1208 16:34:48.908067  6409 layer_factory.hpp:77] Creating layer conv7_1_relu
I1208 16:34:48.908071  6409 net.cpp:100] Creating Layer conv7_1_relu
I1208 16:34:48.908076  6409 net.cpp:480] conv7_1_relu <- conv7_1
I1208 16:34:48.908078  6409 net.cpp:441] conv7_1_relu -> conv7_1 (in-place)
I1208 16:34:48.908264  6409 net.cpp:150] Setting up conv7_1_relu
I1208 16:34:48.908270  6409 net.cpp:157] Top shape: 32 128 10 10 (409600)
I1208 16:34:48.908273  6409 net.cpp:165] Memory required for data: 7521009696
I1208 16:34:48.908275  6409 layer_factory.hpp:77] Creating layer conv7_2
I1208 16:34:48.908284  6409 net.cpp:100] Creating Layer conv7_2
I1208 16:34:48.908288  6409 net.cpp:480] conv7_2 <- conv7_1
I1208 16:34:48.908293  6409 net.cpp:454] conv7_2 -> conv7_2
I1208 16:34:48.910851  6409 net.cpp:150] Setting up conv7_2
I1208 16:34:48.910863  6409 net.cpp:157] Top shape: 32 256 5 5 (204800)
I1208 16:34:48.910866  6409 net.cpp:165] Memory required for data: 7521828896
I1208 16:34:48.910871  6409 layer_factory.hpp:77] Creating layer conv7_2_relu
I1208 16:34:48.910890  6409 net.cpp:100] Creating Layer conv7_2_relu
I1208 16:34:48.910894  6409 net.cpp:480] conv7_2_relu <- conv7_2
I1208 16:34:48.910897  6409 net.cpp:441] conv7_2_relu -> conv7_2 (in-place)
I1208 16:34:48.911064  6409 net.cpp:150] Setting up conv7_2_relu
I1208 16:34:48.911070  6409 net.cpp:157] Top shape: 32 256 5 5 (204800)
I1208 16:34:48.911074  6409 net.cpp:165] Memory required for data: 7522648096
I1208 16:34:48.911077  6409 layer_factory.hpp:77] Creating layer conv7_2_conv7_2_relu_0_split
I1208 16:34:48.911082  6409 net.cpp:100] Creating Layer conv7_2_conv7_2_relu_0_split
I1208 16:34:48.911084  6409 net.cpp:480] conv7_2_conv7_2_relu_0_split <- conv7_2
I1208 16:34:48.911088  6409 net.cpp:454] conv7_2_conv7_2_relu_0_split -> conv7_2_conv7_2_relu_0_split_0
I1208 16:34:48.911103  6409 net.cpp:454] conv7_2_conv7_2_relu_0_split -> conv7_2_conv7_2_relu_0_split_1
I1208 16:34:48.911110  6409 net.cpp:454] conv7_2_conv7_2_relu_0_split -> conv7_2_conv7_2_relu_0_split_2
I1208 16:34:48.911114  6409 net.cpp:454] conv7_2_conv7_2_relu_0_split -> conv7_2_conv7_2_relu_0_split_3
I1208 16:34:48.911168  6409 net.cpp:150] Setting up conv7_2_conv7_2_relu_0_split
I1208 16:34:48.911172  6409 net.cpp:157] Top shape: 32 256 5 5 (204800)
I1208 16:34:48.911175  6409 net.cpp:157] Top shape: 32 256 5 5 (204800)
I1208 16:34:48.911178  6409 net.cpp:157] Top shape: 32 256 5 5 (204800)
I1208 16:34:48.911182  6409 net.cpp:157] Top shape: 32 256 5 5 (204800)
I1208 16:34:48.911185  6409 net.cpp:165] Memory required for data: 7525924896
I1208 16:34:48.911186  6409 layer_factory.hpp:77] Creating layer conv8_1
I1208 16:34:48.911193  6409 net.cpp:100] Creating Layer conv8_1
I1208 16:34:48.911196  6409 net.cpp:480] conv8_1 <- conv7_2_conv7_2_relu_0_split_0
I1208 16:34:48.911201  6409 net.cpp:454] conv8_1 -> conv8_1
I1208 16:34:48.912272  6409 net.cpp:150] Setting up conv8_1
I1208 16:34:48.912292  6409 net.cpp:157] Top shape: 32 128 5 5 (102400)
I1208 16:34:48.912295  6409 net.cpp:165] Memory required for data: 7526334496
I1208 16:34:48.912302  6409 layer_factory.hpp:77] Creating layer conv8_1_relu
I1208 16:34:48.912322  6409 net.cpp:100] Creating Layer conv8_1_relu
I1208 16:34:48.912325  6409 net.cpp:480] conv8_1_relu <- conv8_1
I1208 16:34:48.912329  6409 net.cpp:441] conv8_1_relu -> conv8_1 (in-place)
I1208 16:34:48.912668  6409 net.cpp:150] Setting up conv8_1_relu
I1208 16:34:48.912678  6409 net.cpp:157] Top shape: 32 128 5 5 (102400)
I1208 16:34:48.912679  6409 net.cpp:165] Memory required for data: 7526744096
I1208 16:34:48.912683  6409 layer_factory.hpp:77] Creating layer conv8_2
I1208 16:34:48.912690  6409 net.cpp:100] Creating Layer conv8_2
I1208 16:34:48.912694  6409 net.cpp:480] conv8_2 <- conv8_1
I1208 16:34:48.912699  6409 net.cpp:454] conv8_2 -> conv8_2
I1208 16:34:48.915386  6409 net.cpp:150] Setting up conv8_2
I1208 16:34:48.915397  6409 net.cpp:157] Top shape: 32 256 3 3 (73728)
I1208 16:34:48.915400  6409 net.cpp:165] Memory required for data: 7527039008
I1208 16:34:48.915405  6409 layer_factory.hpp:77] Creating layer conv8_2_relu
I1208 16:34:48.915426  6409 net.cpp:100] Creating Layer conv8_2_relu
I1208 16:34:48.915428  6409 net.cpp:480] conv8_2_relu <- conv8_2
I1208 16:34:48.915442  6409 net.cpp:441] conv8_2_relu -> conv8_2 (in-place)
I1208 16:34:48.915634  6409 net.cpp:150] Setting up conv8_2_relu
I1208 16:34:48.915642  6409 net.cpp:157] Top shape: 32 256 3 3 (73728)
I1208 16:34:48.915644  6409 net.cpp:165] Memory required for data: 7527333920
I1208 16:34:48.915647  6409 layer_factory.hpp:77] Creating layer conv8_2_conv8_2_relu_0_split
I1208 16:34:48.915652  6409 net.cpp:100] Creating Layer conv8_2_conv8_2_relu_0_split
I1208 16:34:48.915655  6409 net.cpp:480] conv8_2_conv8_2_relu_0_split <- conv8_2
I1208 16:34:48.915659  6409 net.cpp:454] conv8_2_conv8_2_relu_0_split -> conv8_2_conv8_2_relu_0_split_0
I1208 16:34:48.915665  6409 net.cpp:454] conv8_2_conv8_2_relu_0_split -> conv8_2_conv8_2_relu_0_split_1
I1208 16:34:48.915673  6409 net.cpp:454] conv8_2_conv8_2_relu_0_split -> conv8_2_conv8_2_relu_0_split_2
I1208 16:34:48.915678  6409 net.cpp:454] conv8_2_conv8_2_relu_0_split -> conv8_2_conv8_2_relu_0_split_3
I1208 16:34:48.915735  6409 net.cpp:150] Setting up conv8_2_conv8_2_relu_0_split
I1208 16:34:48.915748  6409 net.cpp:157] Top shape: 32 256 3 3 (73728)
I1208 16:34:48.915751  6409 net.cpp:157] Top shape: 32 256 3 3 (73728)
I1208 16:34:48.915755  6409 net.cpp:157] Top shape: 32 256 3 3 (73728)
I1208 16:34:48.915757  6409 net.cpp:157] Top shape: 32 256 3 3 (73728)
I1208 16:34:48.915760  6409 net.cpp:165] Memory required for data: 7528513568
I1208 16:34:48.915762  6409 layer_factory.hpp:77] Creating layer conv9_1
I1208 16:34:48.915771  6409 net.cpp:100] Creating Layer conv9_1
I1208 16:34:48.915773  6409 net.cpp:480] conv9_1 <- conv8_2_conv8_2_relu_0_split_0
I1208 16:34:48.915777  6409 net.cpp:454] conv9_1 -> conv9_1
I1208 16:34:48.916843  6409 net.cpp:150] Setting up conv9_1
I1208 16:34:48.916855  6409 net.cpp:157] Top shape: 32 128 3 3 (36864)
I1208 16:34:48.916857  6409 net.cpp:165] Memory required for data: 7528661024
I1208 16:34:48.916862  6409 layer_factory.hpp:77] Creating layer conv9_1_relu
I1208 16:34:48.916867  6409 net.cpp:100] Creating Layer conv9_1_relu
I1208 16:34:48.916872  6409 net.cpp:480] conv9_1_relu <- conv9_1
I1208 16:34:48.916875  6409 net.cpp:441] conv9_1_relu -> conv9_1 (in-place)
I1208 16:34:48.917069  6409 net.cpp:150] Setting up conv9_1_relu
I1208 16:34:48.917076  6409 net.cpp:157] Top shape: 32 128 3 3 (36864)
I1208 16:34:48.917079  6409 net.cpp:165] Memory required for data: 7528808480
I1208 16:34:48.917083  6409 layer_factory.hpp:77] Creating layer conv9_2
I1208 16:34:48.917090  6409 net.cpp:100] Creating Layer conv9_2
I1208 16:34:48.917094  6409 net.cpp:480] conv9_2 <- conv9_1
I1208 16:34:48.917101  6409 net.cpp:454] conv9_2 -> conv9_2
I1208 16:34:48.920018  6409 net.cpp:150] Setting up conv9_2
I1208 16:34:48.920040  6409 net.cpp:157] Top shape: 32 256 1 1 (8192)
I1208 16:34:48.920042  6409 net.cpp:165] Memory required for data: 7528841248
I1208 16:34:48.920064  6409 layer_factory.hpp:77] Creating layer conv9_2_relu
I1208 16:34:48.920069  6409 net.cpp:100] Creating Layer conv9_2_relu
I1208 16:34:48.920073  6409 net.cpp:480] conv9_2_relu <- conv9_2
I1208 16:34:48.920078  6409 net.cpp:441] conv9_2_relu -> conv9_2 (in-place)
I1208 16:34:48.920526  6409 net.cpp:150] Setting up conv9_2_relu
I1208 16:34:48.920536  6409 net.cpp:157] Top shape: 32 256 1 1 (8192)
I1208 16:34:48.920538  6409 net.cpp:165] Memory required for data: 7528874016
I1208 16:34:48.920542  6409 layer_factory.hpp:77] Creating layer conv9_2_conv9_2_relu_0_split
I1208 16:34:48.920547  6409 net.cpp:100] Creating Layer conv9_2_conv9_2_relu_0_split
I1208 16:34:48.920549  6409 net.cpp:480] conv9_2_conv9_2_relu_0_split <- conv9_2
I1208 16:34:48.920554  6409 net.cpp:454] conv9_2_conv9_2_relu_0_split -> conv9_2_conv9_2_relu_0_split_0
I1208 16:34:48.920572  6409 net.cpp:454] conv9_2_conv9_2_relu_0_split -> conv9_2_conv9_2_relu_0_split_1
I1208 16:34:48.920579  6409 net.cpp:454] conv9_2_conv9_2_relu_0_split -> conv9_2_conv9_2_relu_0_split_2
I1208 16:34:48.920631  6409 net.cpp:150] Setting up conv9_2_conv9_2_relu_0_split
I1208 16:34:48.920636  6409 net.cpp:157] Top shape: 32 256 1 1 (8192)
I1208 16:34:48.920640  6409 net.cpp:157] Top shape: 32 256 1 1 (8192)
I1208 16:34:48.920644  6409 net.cpp:157] Top shape: 32 256 1 1 (8192)
I1208 16:34:48.920646  6409 net.cpp:165] Memory required for data: 7528972320
I1208 16:34:48.920648  6409 layer_factory.hpp:77] Creating layer conv4_3_norm
I1208 16:34:48.920656  6409 net.cpp:100] Creating Layer conv4_3_norm
I1208 16:34:48.920660  6409 net.cpp:480] conv4_3_norm <- conv4_3_relu4_3_0_split_1
I1208 16:34:48.920665  6409 net.cpp:454] conv4_3_norm -> conv4_3_norm
I1208 16:34:48.920826  6409 net.cpp:150] Setting up conv4_3_norm
I1208 16:34:48.920832  6409 net.cpp:157] Top shape: 32 512 38 38 (23658496)
I1208 16:34:48.920835  6409 net.cpp:165] Memory required for data: 7623606304
I1208 16:34:48.920840  6409 layer_factory.hpp:77] Creating layer conv4_3_norm_conv4_3_norm_0_split
I1208 16:34:48.920845  6409 net.cpp:100] Creating Layer conv4_3_norm_conv4_3_norm_0_split
I1208 16:34:48.920848  6409 net.cpp:480] conv4_3_norm_conv4_3_norm_0_split <- conv4_3_norm
I1208 16:34:48.920853  6409 net.cpp:454] conv4_3_norm_conv4_3_norm_0_split -> conv4_3_norm_conv4_3_norm_0_split_0
I1208 16:34:48.920871  6409 net.cpp:454] conv4_3_norm_conv4_3_norm_0_split -> conv4_3_norm_conv4_3_norm_0_split_1
I1208 16:34:48.920877  6409 net.cpp:454] conv4_3_norm_conv4_3_norm_0_split -> conv4_3_norm_conv4_3_norm_0_split_2
I1208 16:34:48.920920  6409 net.cpp:150] Setting up conv4_3_norm_conv4_3_norm_0_split
I1208 16:34:48.920927  6409 net.cpp:157] Top shape: 32 512 38 38 (23658496)
I1208 16:34:48.920931  6409 net.cpp:157] Top shape: 32 512 38 38 (23658496)
I1208 16:34:48.920934  6409 net.cpp:157] Top shape: 32 512 38 38 (23658496)
I1208 16:34:48.920936  6409 net.cpp:165] Memory required for data: 7907508256
I1208 16:34:48.920939  6409 layer_factory.hpp:77] Creating layer conv4_3_norm_mbox_loc
I1208 16:34:48.920948  6409 net.cpp:100] Creating Layer conv4_3_norm_mbox_loc
I1208 16:34:48.920950  6409 net.cpp:480] conv4_3_norm_mbox_loc <- conv4_3_norm_conv4_3_norm_0_split_0
I1208 16:34:48.920955  6409 net.cpp:454] conv4_3_norm_mbox_loc -> conv4_3_norm_mbox_loc
I1208 16:34:48.922554  6409 net.cpp:150] Setting up conv4_3_norm_mbox_loc
I1208 16:34:48.922566  6409 net.cpp:157] Top shape: 32 16 38 38 (739328)
I1208 16:34:48.922569  6409 net.cpp:165] Memory required for data: 7910465568
I1208 16:34:48.922575  6409 layer_factory.hpp:77] Creating layer conv4_3_norm_mbox_loc_perm
I1208 16:34:48.922582  6409 net.cpp:100] Creating Layer conv4_3_norm_mbox_loc_perm
I1208 16:34:48.922586  6409 net.cpp:480] conv4_3_norm_mbox_loc_perm <- conv4_3_norm_mbox_loc
I1208 16:34:48.922591  6409 net.cpp:454] conv4_3_norm_mbox_loc_perm -> conv4_3_norm_mbox_loc_perm
I1208 16:34:48.922688  6409 net.cpp:150] Setting up conv4_3_norm_mbox_loc_perm
I1208 16:34:48.922693  6409 net.cpp:157] Top shape: 32 38 38 16 (739328)
I1208 16:34:48.922695  6409 net.cpp:165] Memory required for data: 7913422880
I1208 16:34:48.922698  6409 layer_factory.hpp:77] Creating layer conv4_3_norm_mbox_loc_flat
I1208 16:34:48.922703  6409 net.cpp:100] Creating Layer conv4_3_norm_mbox_loc_flat
I1208 16:34:48.922706  6409 net.cpp:480] conv4_3_norm_mbox_loc_flat <- conv4_3_norm_mbox_loc_perm
I1208 16:34:48.922710  6409 net.cpp:454] conv4_3_norm_mbox_loc_flat -> conv4_3_norm_mbox_loc_flat
I1208 16:34:48.922739  6409 net.cpp:150] Setting up conv4_3_norm_mbox_loc_flat
I1208 16:34:48.922744  6409 net.cpp:157] Top shape: 32 23104 (739328)
I1208 16:34:48.922747  6409 net.cpp:165] Memory required for data: 7916380192
I1208 16:34:48.922749  6409 layer_factory.hpp:77] Creating layer conv4_3_norm_mbox_conf
I1208 16:34:48.922762  6409 net.cpp:100] Creating Layer conv4_3_norm_mbox_conf
I1208 16:34:48.922766  6409 net.cpp:480] conv4_3_norm_mbox_conf <- conv4_3_norm_conv4_3_norm_0_split_1
I1208 16:34:48.922771  6409 net.cpp:454] conv4_3_norm_mbox_conf -> conv4_3_norm_mbox_conf
I1208 16:34:48.925806  6409 net.cpp:150] Setting up conv4_3_norm_mbox_conf
I1208 16:34:48.925815  6409 net.cpp:157] Top shape: 32 84 38 38 (3881472)
I1208 16:34:48.925818  6409 net.cpp:165] Memory required for data: 7931906080
I1208 16:34:48.925824  6409 layer_factory.hpp:77] Creating layer conv4_3_norm_mbox_conf_perm
I1208 16:34:48.925849  6409 net.cpp:100] Creating Layer conv4_3_norm_mbox_conf_perm
I1208 16:34:48.925853  6409 net.cpp:480] conv4_3_norm_mbox_conf_perm <- conv4_3_norm_mbox_conf
I1208 16:34:48.925868  6409 net.cpp:454] conv4_3_norm_mbox_conf_perm -> conv4_3_norm_mbox_conf_perm
I1208 16:34:48.925963  6409 net.cpp:150] Setting up conv4_3_norm_mbox_conf_perm
I1208 16:34:48.925968  6409 net.cpp:157] Top shape: 32 38 38 84 (3881472)
I1208 16:34:48.925971  6409 net.cpp:165] Memory required for data: 7947431968
I1208 16:34:48.925972  6409 layer_factory.hpp:77] Creating layer conv4_3_norm_mbox_conf_flat
I1208 16:34:48.925977  6409 net.cpp:100] Creating Layer conv4_3_norm_mbox_conf_flat
I1208 16:34:48.925979  6409 net.cpp:480] conv4_3_norm_mbox_conf_flat <- conv4_3_norm_mbox_conf_perm
I1208 16:34:48.925983  6409 net.cpp:454] conv4_3_norm_mbox_conf_flat -> conv4_3_norm_mbox_conf_flat
I1208 16:34:48.926002  6409 net.cpp:150] Setting up conv4_3_norm_mbox_conf_flat
I1208 16:34:48.926017  6409 net.cpp:157] Top shape: 32 121296 (3881472)
I1208 16:34:48.926019  6409 net.cpp:165] Memory required for data: 7962957856
I1208 16:34:48.926021  6409 layer_factory.hpp:77] Creating layer conv4_3_norm_mbox_priorbox
I1208 16:34:48.926026  6409 net.cpp:100] Creating Layer conv4_3_norm_mbox_priorbox
I1208 16:34:48.926029  6409 net.cpp:480] conv4_3_norm_mbox_priorbox <- conv4_3_norm_conv4_3_norm_0_split_2
I1208 16:34:48.926033  6409 net.cpp:480] conv4_3_norm_mbox_priorbox <- data_data_0_split_1
I1208 16:34:48.926038  6409 net.cpp:454] conv4_3_norm_mbox_priorbox -> conv4_3_norm_mbox_priorbox
I1208 16:34:48.926069  6409 net.cpp:150] Setting up conv4_3_norm_mbox_priorbox
I1208 16:34:48.926074  6409 net.cpp:157] Top shape: 1 2 23104 (46208)
I1208 16:34:48.926076  6409 net.cpp:165] Memory required for data: 7963142688
I1208 16:34:48.926079  6409 layer_factory.hpp:77] Creating layer fc7_mbox_loc
I1208 16:34:48.926086  6409 net.cpp:100] Creating Layer fc7_mbox_loc
I1208 16:34:48.926091  6409 net.cpp:480] fc7_mbox_loc <- fc7_relu7_0_split_1
I1208 16:34:48.926095  6409 net.cpp:454] fc7_mbox_loc -> fc7_mbox_loc
I1208 16:34:48.928010  6409 net.cpp:150] Setting up fc7_mbox_loc
I1208 16:34:48.928020  6409 net.cpp:157] Top shape: 32 24 19 19 (277248)
I1208 16:34:48.928023  6409 net.cpp:165] Memory required for data: 7964251680
I1208 16:34:48.928030  6409 layer_factory.hpp:77] Creating layer fc7_mbox_loc_perm
I1208 16:34:48.928037  6409 net.cpp:100] Creating Layer fc7_mbox_loc_perm
I1208 16:34:48.928040  6409 net.cpp:480] fc7_mbox_loc_perm <- fc7_mbox_loc
I1208 16:34:48.928045  6409 net.cpp:454] fc7_mbox_loc_perm -> fc7_mbox_loc_perm
I1208 16:34:48.928145  6409 net.cpp:150] Setting up fc7_mbox_loc_perm
I1208 16:34:48.928150  6409 net.cpp:157] Top shape: 32 19 19 24 (277248)
I1208 16:34:48.928153  6409 net.cpp:165] Memory required for data: 7965360672
I1208 16:34:48.928155  6409 layer_factory.hpp:77] Creating layer fc7_mbox_loc_flat
I1208 16:34:48.928159  6409 net.cpp:100] Creating Layer fc7_mbox_loc_flat
I1208 16:34:48.928161  6409 net.cpp:480] fc7_mbox_loc_flat <- fc7_mbox_loc_perm
I1208 16:34:48.928165  6409 net.cpp:454] fc7_mbox_loc_flat -> fc7_mbox_loc_flat
I1208 16:34:48.928184  6409 net.cpp:150] Setting up fc7_mbox_loc_flat
I1208 16:34:48.928189  6409 net.cpp:157] Top shape: 32 8664 (277248)
I1208 16:34:48.928191  6409 net.cpp:165] Memory required for data: 7966469664
I1208 16:34:48.928194  6409 layer_factory.hpp:77] Creating layer fc7_mbox_conf
I1208 16:34:48.928201  6409 net.cpp:100] Creating Layer fc7_mbox_conf
I1208 16:34:48.928203  6409 net.cpp:480] fc7_mbox_conf <- fc7_relu7_0_split_2
I1208 16:34:48.928208  6409 net.cpp:454] fc7_mbox_conf -> fc7_mbox_conf
I1208 16:34:48.934578  6409 net.cpp:150] Setting up fc7_mbox_conf
I1208 16:34:48.934590  6409 net.cpp:157] Top shape: 32 126 19 19 (1455552)
I1208 16:34:48.934592  6409 net.cpp:165] Memory required for data: 7972291872
I1208 16:34:48.934598  6409 layer_factory.hpp:77] Creating layer fc7_mbox_conf_perm
I1208 16:34:48.934604  6409 net.cpp:100] Creating Layer fc7_mbox_conf_perm
I1208 16:34:48.934608  6409 net.cpp:480] fc7_mbox_conf_perm <- fc7_mbox_conf
I1208 16:34:48.934613  6409 net.cpp:454] fc7_mbox_conf_perm -> fc7_mbox_conf_perm
I1208 16:34:48.934698  6409 net.cpp:150] Setting up fc7_mbox_conf_perm
I1208 16:34:48.934702  6409 net.cpp:157] Top shape: 32 19 19 126 (1455552)
I1208 16:34:48.934705  6409 net.cpp:165] Memory required for data: 7978114080
I1208 16:34:48.934707  6409 layer_factory.hpp:77] Creating layer fc7_mbox_conf_flat
I1208 16:34:48.934710  6409 net.cpp:100] Creating Layer fc7_mbox_conf_flat
I1208 16:34:48.934712  6409 net.cpp:480] fc7_mbox_conf_flat <- fc7_mbox_conf_perm
I1208 16:34:48.934716  6409 net.cpp:454] fc7_mbox_conf_flat -> fc7_mbox_conf_flat
I1208 16:34:48.934733  6409 net.cpp:150] Setting up fc7_mbox_conf_flat
I1208 16:34:48.934737  6409 net.cpp:157] Top shape: 32 45486 (1455552)
I1208 16:34:48.934739  6409 net.cpp:165] Memory required for data: 7983936288
I1208 16:34:48.934741  6409 layer_factory.hpp:77] Creating layer fc7_mbox_priorbox
I1208 16:34:48.934756  6409 net.cpp:100] Creating Layer fc7_mbox_priorbox
I1208 16:34:48.934758  6409 net.cpp:480] fc7_mbox_priorbox <- fc7_relu7_0_split_3
I1208 16:34:48.934762  6409 net.cpp:480] fc7_mbox_priorbox <- data_data_0_split_2
I1208 16:34:48.934767  6409 net.cpp:454] fc7_mbox_priorbox -> fc7_mbox_priorbox
I1208 16:34:48.934787  6409 net.cpp:150] Setting up fc7_mbox_priorbox
I1208 16:34:48.934792  6409 net.cpp:157] Top shape: 1 2 8664 (17328)
I1208 16:34:48.934794  6409 net.cpp:165] Memory required for data: 7984005600
I1208 16:34:48.934797  6409 layer_factory.hpp:77] Creating layer conv6_2_mbox_loc
I1208 16:34:48.934803  6409 net.cpp:100] Creating Layer conv6_2_mbox_loc
I1208 16:34:48.934805  6409 net.cpp:480] conv6_2_mbox_loc <- conv6_2_conv6_2_relu_0_split_1
I1208 16:34:48.934810  6409 net.cpp:454] conv6_2_mbox_loc -> conv6_2_mbox_loc
I1208 16:34:48.936246  6409 net.cpp:150] Setting up conv6_2_mbox_loc
I1208 16:34:48.936257  6409 net.cpp:157] Top shape: 32 24 10 10 (76800)
I1208 16:34:48.936259  6409 net.cpp:165] Memory required for data: 7984312800
I1208 16:34:48.936264  6409 layer_factory.hpp:77] Creating layer conv6_2_mbox_loc_perm
I1208 16:34:48.936270  6409 net.cpp:100] Creating Layer conv6_2_mbox_loc_perm
I1208 16:34:48.936273  6409 net.cpp:480] conv6_2_mbox_loc_perm <- conv6_2_mbox_loc
I1208 16:34:48.936278  6409 net.cpp:454] conv6_2_mbox_loc_perm -> conv6_2_mbox_loc_perm
I1208 16:34:48.936364  6409 net.cpp:150] Setting up conv6_2_mbox_loc_perm
I1208 16:34:48.936369  6409 net.cpp:157] Top shape: 32 10 10 24 (76800)
I1208 16:34:48.936372  6409 net.cpp:165] Memory required for data: 7984620000
I1208 16:34:48.936373  6409 layer_factory.hpp:77] Creating layer conv6_2_mbox_loc_flat
I1208 16:34:48.936377  6409 net.cpp:100] Creating Layer conv6_2_mbox_loc_flat
I1208 16:34:48.936379  6409 net.cpp:480] conv6_2_mbox_loc_flat <- conv6_2_mbox_loc_perm
I1208 16:34:48.936383  6409 net.cpp:454] conv6_2_mbox_loc_flat -> conv6_2_mbox_loc_flat
I1208 16:34:48.936399  6409 net.cpp:150] Setting up conv6_2_mbox_loc_flat
I1208 16:34:48.936403  6409 net.cpp:157] Top shape: 32 2400 (76800)
I1208 16:34:48.936405  6409 net.cpp:165] Memory required for data: 7984927200
I1208 16:34:48.936408  6409 layer_factory.hpp:77] Creating layer conv6_2_mbox_conf
I1208 16:34:48.936414  6409 net.cpp:100] Creating Layer conv6_2_mbox_conf
I1208 16:34:48.936417  6409 net.cpp:480] conv6_2_mbox_conf <- conv6_2_conv6_2_relu_0_split_2
I1208 16:34:48.936424  6409 net.cpp:454] conv6_2_mbox_conf -> conv6_2_mbox_conf
I1208 16:34:48.940078  6409 net.cpp:150] Setting up conv6_2_mbox_conf
I1208 16:34:48.940089  6409 net.cpp:157] Top shape: 32 126 10 10 (403200)
I1208 16:34:48.940091  6409 net.cpp:165] Memory required for data: 7986540000
I1208 16:34:48.940098  6409 layer_factory.hpp:77] Creating layer conv6_2_mbox_conf_perm
I1208 16:34:48.940102  6409 net.cpp:100] Creating Layer conv6_2_mbox_conf_perm
I1208 16:34:48.940106  6409 net.cpp:480] conv6_2_mbox_conf_perm <- conv6_2_mbox_conf
I1208 16:34:48.940110  6409 net.cpp:454] conv6_2_mbox_conf_perm -> conv6_2_mbox_conf_perm
I1208 16:34:48.940217  6409 net.cpp:150] Setting up conv6_2_mbox_conf_perm
I1208 16:34:48.940223  6409 net.cpp:157] Top shape: 32 10 10 126 (403200)
I1208 16:34:48.940225  6409 net.cpp:165] Memory required for data: 7988152800
I1208 16:34:48.940227  6409 layer_factory.hpp:77] Creating layer conv6_2_mbox_conf_flat
I1208 16:34:48.940232  6409 net.cpp:100] Creating Layer conv6_2_mbox_conf_flat
I1208 16:34:48.940234  6409 net.cpp:480] conv6_2_mbox_conf_flat <- conv6_2_mbox_conf_perm
I1208 16:34:48.940238  6409 net.cpp:454] conv6_2_mbox_conf_flat -> conv6_2_mbox_conf_flat
I1208 16:34:48.940258  6409 net.cpp:150] Setting up conv6_2_mbox_conf_flat
I1208 16:34:48.940263  6409 net.cpp:157] Top shape: 32 12600 (403200)
I1208 16:34:48.940265  6409 net.cpp:165] Memory required for data: 7989765600
I1208 16:34:48.940268  6409 layer_factory.hpp:77] Creating layer conv6_2_mbox_priorbox
I1208 16:34:48.940273  6409 net.cpp:100] Creating Layer conv6_2_mbox_priorbox
I1208 16:34:48.940285  6409 net.cpp:480] conv6_2_mbox_priorbox <- conv6_2_conv6_2_relu_0_split_3
I1208 16:34:48.940290  6409 net.cpp:480] conv6_2_mbox_priorbox <- data_data_0_split_3
I1208 16:34:48.940294  6409 net.cpp:454] conv6_2_mbox_priorbox -> conv6_2_mbox_priorbox
I1208 16:34:48.940316  6409 net.cpp:150] Setting up conv6_2_mbox_priorbox
I1208 16:34:48.940321  6409 net.cpp:157] Top shape: 1 2 2400 (4800)
I1208 16:34:48.940325  6409 net.cpp:165] Memory required for data: 7989784800
I1208 16:34:48.940326  6409 layer_factory.hpp:77] Creating layer conv7_2_mbox_loc
I1208 16:34:48.940333  6409 net.cpp:100] Creating Layer conv7_2_mbox_loc
I1208 16:34:48.940338  6409 net.cpp:480] conv7_2_mbox_loc <- conv7_2_conv7_2_relu_0_split_1
I1208 16:34:48.940343  6409 net.cpp:454] conv7_2_mbox_loc -> conv7_2_mbox_loc
I1208 16:34:48.941560  6409 net.cpp:150] Setting up conv7_2_mbox_loc
I1208 16:34:48.941571  6409 net.cpp:157] Top shape: 32 24 5 5 (19200)
I1208 16:34:48.941574  6409 net.cpp:165] Memory required for data: 7989861600
I1208 16:34:48.941581  6409 layer_factory.hpp:77] Creating layer conv7_2_mbox_loc_perm
I1208 16:34:48.941588  6409 net.cpp:100] Creating Layer conv7_2_mbox_loc_perm
I1208 16:34:48.941591  6409 net.cpp:480] conv7_2_mbox_loc_perm <- conv7_2_mbox_loc
I1208 16:34:48.941597  6409 net.cpp:454] conv7_2_mbox_loc_perm -> conv7_2_mbox_loc_perm
I1208 16:34:48.941689  6409 net.cpp:150] Setting up conv7_2_mbox_loc_perm
I1208 16:34:48.941694  6409 net.cpp:157] Top shape: 32 5 5 24 (19200)
I1208 16:34:48.941696  6409 net.cpp:165] Memory required for data: 7989938400
I1208 16:34:48.941699  6409 layer_factory.hpp:77] Creating layer conv7_2_mbox_loc_flat
I1208 16:34:48.941702  6409 net.cpp:100] Creating Layer conv7_2_mbox_loc_flat
I1208 16:34:48.941704  6409 net.cpp:480] conv7_2_mbox_loc_flat <- conv7_2_mbox_loc_perm
I1208 16:34:48.941709  6409 net.cpp:454] conv7_2_mbox_loc_flat -> conv7_2_mbox_loc_flat
I1208 16:34:48.941727  6409 net.cpp:150] Setting up conv7_2_mbox_loc_flat
I1208 16:34:48.941731  6409 net.cpp:157] Top shape: 32 600 (19200)
I1208 16:34:48.941733  6409 net.cpp:165] Memory required for data: 7990015200
I1208 16:34:48.941736  6409 layer_factory.hpp:77] Creating layer conv7_2_mbox_conf
I1208 16:34:48.941743  6409 net.cpp:100] Creating Layer conv7_2_mbox_conf
I1208 16:34:48.941746  6409 net.cpp:480] conv7_2_mbox_conf <- conv7_2_conv7_2_relu_0_split_2
I1208 16:34:48.941751  6409 net.cpp:454] conv7_2_mbox_conf -> conv7_2_mbox_conf
I1208 16:34:48.944442  6409 net.cpp:150] Setting up conv7_2_mbox_conf
I1208 16:34:48.944453  6409 net.cpp:157] Top shape: 32 126 5 5 (100800)
I1208 16:34:48.944454  6409 net.cpp:165] Memory required for data: 7990418400
I1208 16:34:48.944459  6409 layer_factory.hpp:77] Creating layer conv7_2_mbox_conf_perm
I1208 16:34:48.944465  6409 net.cpp:100] Creating Layer conv7_2_mbox_conf_perm
I1208 16:34:48.944468  6409 net.cpp:480] conv7_2_mbox_conf_perm <- conv7_2_mbox_conf
I1208 16:34:48.944473  6409 net.cpp:454] conv7_2_mbox_conf_perm -> conv7_2_mbox_conf_perm
I1208 16:34:48.944573  6409 net.cpp:150] Setting up conv7_2_mbox_conf_perm
I1208 16:34:48.944578  6409 net.cpp:157] Top shape: 32 5 5 126 (100800)
I1208 16:34:48.944581  6409 net.cpp:165] Memory required for data: 7990821600
I1208 16:34:48.944583  6409 layer_factory.hpp:77] Creating layer conv7_2_mbox_conf_flat
I1208 16:34:48.944587  6409 net.cpp:100] Creating Layer conv7_2_mbox_conf_flat
I1208 16:34:48.944589  6409 net.cpp:480] conv7_2_mbox_conf_flat <- conv7_2_mbox_conf_perm
I1208 16:34:48.944594  6409 net.cpp:454] conv7_2_mbox_conf_flat -> conv7_2_mbox_conf_flat
I1208 16:34:48.944612  6409 net.cpp:150] Setting up conv7_2_mbox_conf_flat
I1208 16:34:48.944617  6409 net.cpp:157] Top shape: 32 3150 (100800)
I1208 16:34:48.944618  6409 net.cpp:165] Memory required for data: 7991224800
I1208 16:34:48.944622  6409 layer_factory.hpp:77] Creating layer conv7_2_mbox_priorbox
I1208 16:34:48.944627  6409 net.cpp:100] Creating Layer conv7_2_mbox_priorbox
I1208 16:34:48.944629  6409 net.cpp:480] conv7_2_mbox_priorbox <- conv7_2_conv7_2_relu_0_split_3
I1208 16:34:48.944644  6409 net.cpp:480] conv7_2_mbox_priorbox <- data_data_0_split_4
I1208 16:34:48.944649  6409 net.cpp:454] conv7_2_mbox_priorbox -> conv7_2_mbox_priorbox
I1208 16:34:48.944670  6409 net.cpp:150] Setting up conv7_2_mbox_priorbox
I1208 16:34:48.944675  6409 net.cpp:157] Top shape: 1 2 600 (1200)
I1208 16:34:48.944677  6409 net.cpp:165] Memory required for data: 7991229600
I1208 16:34:48.944679  6409 layer_factory.hpp:77] Creating layer conv8_2_mbox_loc
I1208 16:34:48.944687  6409 net.cpp:100] Creating Layer conv8_2_mbox_loc
I1208 16:34:48.944689  6409 net.cpp:480] conv8_2_mbox_loc <- conv8_2_conv8_2_relu_0_split_1
I1208 16:34:48.944694  6409 net.cpp:454] conv8_2_mbox_loc -> conv8_2_mbox_loc
I1208 16:34:48.945840  6409 net.cpp:150] Setting up conv8_2_mbox_loc
I1208 16:34:48.945852  6409 net.cpp:157] Top shape: 32 16 3 3 (4608)
I1208 16:34:48.945853  6409 net.cpp:165] Memory required for data: 7991248032
I1208 16:34:48.945865  6409 layer_factory.hpp:77] Creating layer conv8_2_mbox_loc_perm
I1208 16:34:48.945873  6409 net.cpp:100] Creating Layer conv8_2_mbox_loc_perm
I1208 16:34:48.945875  6409 net.cpp:480] conv8_2_mbox_loc_perm <- conv8_2_mbox_loc
I1208 16:34:48.945880  6409 net.cpp:454] conv8_2_mbox_loc_perm -> conv8_2_mbox_loc_perm
I1208 16:34:48.945972  6409 net.cpp:150] Setting up conv8_2_mbox_loc_perm
I1208 16:34:48.945977  6409 net.cpp:157] Top shape: 32 3 3 16 (4608)
I1208 16:34:48.945979  6409 net.cpp:165] Memory required for data: 7991266464
I1208 16:34:48.945982  6409 layer_factory.hpp:77] Creating layer conv8_2_mbox_loc_flat
I1208 16:34:48.945986  6409 net.cpp:100] Creating Layer conv8_2_mbox_loc_flat
I1208 16:34:48.945988  6409 net.cpp:480] conv8_2_mbox_loc_flat <- conv8_2_mbox_loc_perm
I1208 16:34:48.945992  6409 net.cpp:454] conv8_2_mbox_loc_flat -> conv8_2_mbox_loc_flat
I1208 16:34:48.946010  6409 net.cpp:150] Setting up conv8_2_mbox_loc_flat
I1208 16:34:48.946015  6409 net.cpp:157] Top shape: 32 144 (4608)
I1208 16:34:48.946017  6409 net.cpp:165] Memory required for data: 7991284896
I1208 16:34:48.946019  6409 layer_factory.hpp:77] Creating layer conv8_2_mbox_conf
I1208 16:34:48.946027  6409 net.cpp:100] Creating Layer conv8_2_mbox_conf
I1208 16:34:48.946029  6409 net.cpp:480] conv8_2_mbox_conf <- conv8_2_conv8_2_relu_0_split_2
I1208 16:34:48.946034  6409 net.cpp:454] conv8_2_mbox_conf -> conv8_2_mbox_conf
I1208 16:34:48.947733  6409 net.cpp:150] Setting up conv8_2_mbox_conf
I1208 16:34:48.947744  6409 net.cpp:157] Top shape: 32 84 3 3 (24192)
I1208 16:34:48.947747  6409 net.cpp:165] Memory required for data: 7991381664
I1208 16:34:48.947752  6409 layer_factory.hpp:77] Creating layer conv8_2_mbox_conf_perm
I1208 16:34:48.947757  6409 net.cpp:100] Creating Layer conv8_2_mbox_conf_perm
I1208 16:34:48.947760  6409 net.cpp:480] conv8_2_mbox_conf_perm <- conv8_2_mbox_conf
I1208 16:34:48.947765  6409 net.cpp:454] conv8_2_mbox_conf_perm -> conv8_2_mbox_conf_perm
I1208 16:34:48.947846  6409 net.cpp:150] Setting up conv8_2_mbox_conf_perm
I1208 16:34:48.947851  6409 net.cpp:157] Top shape: 32 3 3 84 (24192)
I1208 16:34:48.947854  6409 net.cpp:165] Memory required for data: 7991478432
I1208 16:34:48.947855  6409 layer_factory.hpp:77] Creating layer conv8_2_mbox_conf_flat
I1208 16:34:48.947860  6409 net.cpp:100] Creating Layer conv8_2_mbox_conf_flat
I1208 16:34:48.947861  6409 net.cpp:480] conv8_2_mbox_conf_flat <- conv8_2_mbox_conf_perm
I1208 16:34:48.947865  6409 net.cpp:454] conv8_2_mbox_conf_flat -> conv8_2_mbox_conf_flat
I1208 16:34:48.947881  6409 net.cpp:150] Setting up conv8_2_mbox_conf_flat
I1208 16:34:48.947885  6409 net.cpp:157] Top shape: 32 756 (24192)
I1208 16:34:48.947887  6409 net.cpp:165] Memory required for data: 7991575200
I1208 16:34:48.947890  6409 layer_factory.hpp:77] Creating layer conv8_2_mbox_priorbox
I1208 16:34:48.947893  6409 net.cpp:100] Creating Layer conv8_2_mbox_priorbox
I1208 16:34:48.947896  6409 net.cpp:480] conv8_2_mbox_priorbox <- conv8_2_conv8_2_relu_0_split_3
I1208 16:34:48.947899  6409 net.cpp:480] conv8_2_mbox_priorbox <- data_data_0_split_5
I1208 16:34:48.947914  6409 net.cpp:454] conv8_2_mbox_priorbox -> conv8_2_mbox_priorbox
I1208 16:34:48.947933  6409 net.cpp:150] Setting up conv8_2_mbox_priorbox
I1208 16:34:48.947938  6409 net.cpp:157] Top shape: 1 2 144 (288)
I1208 16:34:48.947940  6409 net.cpp:165] Memory required for data: 7991576352
I1208 16:34:48.947942  6409 layer_factory.hpp:77] Creating layer conv9_2_mbox_loc
I1208 16:34:48.947949  6409 net.cpp:100] Creating Layer conv9_2_mbox_loc
I1208 16:34:48.947953  6409 net.cpp:480] conv9_2_mbox_loc <- conv9_2_conv9_2_relu_0_split_0
I1208 16:34:48.947957  6409 net.cpp:454] conv9_2_mbox_loc -> conv9_2_mbox_loc
I1208 16:34:48.948969  6409 net.cpp:150] Setting up conv9_2_mbox_loc
I1208 16:34:48.948979  6409 net.cpp:157] Top shape: 32 16 1 1 (512)
I1208 16:34:48.948982  6409 net.cpp:165] Memory required for data: 7991578400
I1208 16:34:48.948987  6409 layer_factory.hpp:77] Creating layer conv9_2_mbox_loc_perm
I1208 16:34:48.948992  6409 net.cpp:100] Creating Layer conv9_2_mbox_loc_perm
I1208 16:34:48.948995  6409 net.cpp:480] conv9_2_mbox_loc_perm <- conv9_2_mbox_loc
I1208 16:34:48.949000  6409 net.cpp:454] conv9_2_mbox_loc_perm -> conv9_2_mbox_loc_perm
I1208 16:34:48.949081  6409 net.cpp:150] Setting up conv9_2_mbox_loc_perm
I1208 16:34:48.949085  6409 net.cpp:157] Top shape: 32 1 1 16 (512)
I1208 16:34:48.949087  6409 net.cpp:165] Memory required for data: 7991580448
I1208 16:34:48.949090  6409 layer_factory.hpp:77] Creating layer conv9_2_mbox_loc_flat
I1208 16:34:48.949092  6409 net.cpp:100] Creating Layer conv9_2_mbox_loc_flat
I1208 16:34:48.949095  6409 net.cpp:480] conv9_2_mbox_loc_flat <- conv9_2_mbox_loc_perm
I1208 16:34:48.949098  6409 net.cpp:454] conv9_2_mbox_loc_flat -> conv9_2_mbox_loc_flat
I1208 16:34:48.949115  6409 net.cpp:150] Setting up conv9_2_mbox_loc_flat
I1208 16:34:48.949120  6409 net.cpp:157] Top shape: 32 16 (512)
I1208 16:34:48.949120  6409 net.cpp:165] Memory required for data: 7991582496
I1208 16:34:48.949123  6409 layer_factory.hpp:77] Creating layer conv9_2_mbox_conf
I1208 16:34:48.949131  6409 net.cpp:100] Creating Layer conv9_2_mbox_conf
I1208 16:34:48.949132  6409 net.cpp:480] conv9_2_mbox_conf <- conv9_2_conv9_2_relu_0_split_1
I1208 16:34:48.949136  6409 net.cpp:454] conv9_2_mbox_conf -> conv9_2_mbox_conf
I1208 16:34:48.950911  6409 net.cpp:150] Setting up conv9_2_mbox_conf
I1208 16:34:48.950922  6409 net.cpp:157] Top shape: 32 84 1 1 (2688)
I1208 16:34:48.950924  6409 net.cpp:165] Memory required for data: 7991593248
I1208 16:34:48.950929  6409 layer_factory.hpp:77] Creating layer conv9_2_mbox_conf_perm
I1208 16:34:48.950934  6409 net.cpp:100] Creating Layer conv9_2_mbox_conf_perm
I1208 16:34:48.950938  6409 net.cpp:480] conv9_2_mbox_conf_perm <- conv9_2_mbox_conf
I1208 16:34:48.950943  6409 net.cpp:454] conv9_2_mbox_conf_perm -> conv9_2_mbox_conf_perm
I1208 16:34:48.951046  6409 net.cpp:150] Setting up conv9_2_mbox_conf_perm
I1208 16:34:48.951051  6409 net.cpp:157] Top shape: 32 1 1 84 (2688)
I1208 16:34:48.951054  6409 net.cpp:165] Memory required for data: 7991604000
I1208 16:34:48.951056  6409 layer_factory.hpp:77] Creating layer conv9_2_mbox_conf_flat
I1208 16:34:48.951061  6409 net.cpp:100] Creating Layer conv9_2_mbox_conf_flat
I1208 16:34:48.951063  6409 net.cpp:480] conv9_2_mbox_conf_flat <- conv9_2_mbox_conf_perm
I1208 16:34:48.951068  6409 net.cpp:454] conv9_2_mbox_conf_flat -> conv9_2_mbox_conf_flat
I1208 16:34:48.951086  6409 net.cpp:150] Setting up conv9_2_mbox_conf_flat
I1208 16:34:48.951090  6409 net.cpp:157] Top shape: 32 84 (2688)
I1208 16:34:48.951093  6409 net.cpp:165] Memory required for data: 7991614752
I1208 16:34:48.951097  6409 layer_factory.hpp:77] Creating layer conv9_2_mbox_priorbox
I1208 16:34:48.951100  6409 net.cpp:100] Creating Layer conv9_2_mbox_priorbox
I1208 16:34:48.951102  6409 net.cpp:480] conv9_2_mbox_priorbox <- conv9_2_conv9_2_relu_0_split_2
I1208 16:34:48.951107  6409 net.cpp:480] conv9_2_mbox_priorbox <- data_data_0_split_6
I1208 16:34:48.951112  6409 net.cpp:454] conv9_2_mbox_priorbox -> conv9_2_mbox_priorbox
I1208 16:34:48.951143  6409 net.cpp:150] Setting up conv9_2_mbox_priorbox
I1208 16:34:48.951155  6409 net.cpp:157] Top shape: 1 2 16 (32)
I1208 16:34:48.951156  6409 net.cpp:165] Memory required for data: 7991614880
I1208 16:34:48.951159  6409 layer_factory.hpp:77] Creating layer mbox_loc
I1208 16:34:48.951164  6409 net.cpp:100] Creating Layer mbox_loc
I1208 16:34:48.951167  6409 net.cpp:480] mbox_loc <- conv4_3_norm_mbox_loc_flat
I1208 16:34:48.951170  6409 net.cpp:480] mbox_loc <- fc7_mbox_loc_flat
I1208 16:34:48.951174  6409 net.cpp:480] mbox_loc <- conv6_2_mbox_loc_flat
I1208 16:34:48.951177  6409 net.cpp:480] mbox_loc <- conv7_2_mbox_loc_flat
I1208 16:34:48.951180  6409 net.cpp:480] mbox_loc <- conv8_2_mbox_loc_flat
I1208 16:34:48.951182  6409 net.cpp:480] mbox_loc <- conv9_2_mbox_loc_flat
I1208 16:34:48.951186  6409 net.cpp:454] mbox_loc -> mbox_loc
I1208 16:34:48.951217  6409 net.cpp:150] Setting up mbox_loc
I1208 16:34:48.951221  6409 net.cpp:157] Top shape: 32 34928 (1117696)
I1208 16:34:48.951225  6409 net.cpp:165] Memory required for data: 7996085664
I1208 16:34:48.951226  6409 layer_factory.hpp:77] Creating layer mbox_conf
I1208 16:34:48.951231  6409 net.cpp:100] Creating Layer mbox_conf
I1208 16:34:48.951232  6409 net.cpp:480] mbox_conf <- conv4_3_norm_mbox_conf_flat
I1208 16:34:48.951236  6409 net.cpp:480] mbox_conf <- fc7_mbox_conf_flat
I1208 16:34:48.951241  6409 net.cpp:480] mbox_conf <- conv6_2_mbox_conf_flat
I1208 16:34:48.951243  6409 net.cpp:480] mbox_conf <- conv7_2_mbox_conf_flat
I1208 16:34:48.951247  6409 net.cpp:480] mbox_conf <- conv8_2_mbox_conf_flat
I1208 16:34:48.951251  6409 net.cpp:480] mbox_conf <- conv9_2_mbox_conf_flat
I1208 16:34:48.951254  6409 net.cpp:454] mbox_conf -> mbox_conf
I1208 16:34:48.951272  6409 net.cpp:150] Setting up mbox_conf
I1208 16:34:48.951277  6409 net.cpp:157] Top shape: 32 183372 (5867904)
I1208 16:34:48.951279  6409 net.cpp:165] Memory required for data: 8019557280
I1208 16:34:48.951282  6409 layer_factory.hpp:77] Creating layer mbox_priorbox
I1208 16:34:48.951285  6409 net.cpp:100] Creating Layer mbox_priorbox
I1208 16:34:48.951288  6409 net.cpp:480] mbox_priorbox <- conv4_3_norm_mbox_priorbox
I1208 16:34:48.951292  6409 net.cpp:480] mbox_priorbox <- fc7_mbox_priorbox
I1208 16:34:48.951295  6409 net.cpp:480] mbox_priorbox <- conv6_2_mbox_priorbox
I1208 16:34:48.951299  6409 net.cpp:480] mbox_priorbox <- conv7_2_mbox_priorbox
I1208 16:34:48.951301  6409 net.cpp:480] mbox_priorbox <- conv8_2_mbox_priorbox
I1208 16:34:48.951304  6409 net.cpp:480] mbox_priorbox <- conv9_2_mbox_priorbox
I1208 16:34:48.951308  6409 net.cpp:454] mbox_priorbox -> mbox_priorbox
I1208 16:34:48.951325  6409 net.cpp:150] Setting up mbox_priorbox
I1208 16:34:48.951330  6409 net.cpp:157] Top shape: 1 2 34928 (69856)
I1208 16:34:48.951333  6409 net.cpp:165] Memory required for data: 8019836704
I1208 16:34:48.951335  6409 layer_factory.hpp:77] Creating layer mbox_loss
I1208 16:34:48.951342  6409 net.cpp:100] Creating Layer mbox_loss
I1208 16:34:48.951346  6409 net.cpp:480] mbox_loss <- mbox_loc
I1208 16:34:48.951350  6409 net.cpp:480] mbox_loss <- mbox_conf
I1208 16:34:48.951354  6409 net.cpp:480] mbox_loss <- mbox_priorbox
…
state {
  phase: TEST
}
layer {
  name: "data"
  type: "AnnotatedData"
  top: "data"
  top: "label"
  include {
    phase: TEST
  }
  transform_param {
    mean_value: 104
    mean_value: 117
    mean_value: 123
    resize_param {
      prob: 1
      resize_mode: WARP
      height: 300
      width: 300
      interp_mode: LINEAR
    }
  }
  data_param {
    source: "examples/VOC0712/VOC0712_test_lmdb"
    batch_size: 8
    backend: LMDB
  }
  annotated_data_param {
    batch_sampler {
    }
    label_map_file: "data/VOC0712/labelmap_voc.prototxt"
  }
}
layer {
  name: "conv1_1"
  type: "Convolution"
  bottom: "data"
  top: "conv1_1"
  param {
    lr_mult: 1
    decay_mult: 1
  }
  param {
    lr_mult: 2
    decay_mult: 0
  }
  convolution_param {
    num_output: 64
    pad: 1
    kernel_size: 3
    weight_filler {
      type: "xavier"
    }
    bias_filler {
      type: "constant"
      value: 0
    }
  }
}
layer {
  name: "relu1_1"
  type: "ReLU"
  bottom: "conv1_1"
  top: "conv1_1"
}
layer {
  name: "conv1_2"
  type: "Convolution"
  bottom: "conv1_1"
  top: "conv1_2"
  param {
    lr_mult: 1
    decay_mult: 1
  }
  param {
    lr_mult: 2
    decay_mult: 0
  }
  convolution_param {
    num_output: 64
    pad: 1
    kernel_size: 3
    weight_filler {
      type: "xavier"
    }
    bias_filler {
      type: "constant"
      value: 0
    }
  }
}
layer {
  name: "relu1_2"
  type: "ReLU"
  bottom: "conv1_2"
  top: "conv1_2"
}
layer {
  name: "pool1"
  type: "Pooling"
  bottom: "conv1_2"
  top: "pool1"
  pooling_param {
    pool: MAX
    kernel_size: 2
    stride: 2
  }
}
layer {
  name: "conv2_1"
  type: "Convolution"
  bottom: "pool1"
  top: "conv2_1"
  param {
    lr_mult: 1
    decay_mult: 1
  }
  param {
    lr_mult: 2
    decay_mult: 0
  }
  convolution_param {
    num_output: 128
    pad: 1
    kernel_size: 3
    weight_filler {
      type: "xavier"
    }
    bias_filler {
      type: "constant"
      value: 0
    }
  }
}
layer {
  name: "relu2_1"
  type: "ReLU"
  bottom: "conv2_1"
  top: "conv2_1"
}
layer {
  name: "conv2_2"
  type: "Convolution"
  bottom: "conv2_1"
  top: "conv2_2"
  param {
    lr_mult: 1
    decay_mult: 1
  }
  param {
    lr_mult: 2
    decay_mult: 0
  }
  convolution_param {
    num_output: 128
    pad: 1
    kernel_size: 3
    weight_filler {
      type: "xavier"
    }
    bias_filler {
      type: "constant"
      value: 0
    }
  }
}
layer {
  name: "relu2_2"
  type: "ReLU"
  bottom: "conv2_2"
  top: "conv2_2"
}
layer {
  name: "pool2"
  type: "Pooling"
  bottom: "conv2_2"
  top: "pool2"
  pooling_param {
    pool: MAX
    kernel_size: 2
    stride: 2
  }
}
layer {
  name: "conv3_1"
  type: "Convolution"
  bottom: "pool2"
  top: "conv3_1"
  param {
    lr_mult: 1
    decay_mult: 1
  }
  param {
    lr_mult: 2
    decay_mult: 0
  }
  convolution_param {
    num_output: 256
    pad: 1
    kernel_size: 3
    weight_filler {
      type: "xavier"
    }
    bias_filler {
      type: "constant"
      value: 0
    }
  }
}
layer {
  name: "relu3_1"
  type: "ReLU"
  bottom: "conv3_1"
  top: "conv3_1"
}
layer {
  name: "conv3_2"
  type: "Convolution"
  bottom: "conv3_1"
  top: "conv3_2"
  param {
    lr_mult: 1
    decay_mult: 1
  }
  param {
    lr_mult: 2
    decay_mult: 0
  }
  convolution_param {
    num_output: 256
    pad: 1
    kernel_size: 3
    weight_filler {
      type: "xavier"
    }
    bias_filler {
      type: "constant"
      value: 0
    }
  }
}
layer {
  name: "relu3_2"
  type: "ReLU"
  bottom: "conv3_2"
  top: "conv3_2"
}
layer {
  name: "conv3_3"
  type: "Convolution"
  bottom: "conv3_2"
  top: "conv3_3"
  param {
    lr_mult: 1
    decay_mult: 1
  }
  param {
    lr_mult: 2
    decay_mult: 0
  }
  convolution_param {
    num_output: 256
    pad: 1
    kernel_size: 3
    weight_filler {
      type: "xavier"
    }
    bias_filler {
      type: "constant"
      value: 0
    }
  }
}
layer {
  name: "relu3_3"
  type: "ReLU"
  bottom: "conv3_3"
  top: "conv3_3"
}
layer {
  name: "pool3"
  type: "Pooling"
  bottom: "conv3_3"
  top: "pool3"
  pooling_param {
    pool: MAX
    kernel_size: 2
    stride: 2
  }
}
layer {
  name: "conv4_1"
  type: "Convolution"
  bottom: "pool3"
  top: "conv4_1"
  param {
    lr_mult: 1
    decay_mult: 1
  }
  param {
    lr_mult: 2
    decay_mult: 0
  }
  convolution_param {
    num_output: 512
    pad: 1
    kernel_size: 3
    weight_filler {
      type: "xavier"
    }
    bias_filler {
      type: "constant"
      value: 0
    }
  }
}
layer {
  name: "relu4_1"
  type: "ReLU"
  bottom: "conv4_1"
  top: "conv4_1"
}
layer {
  name: "conv4_2"
  type: "Convolution"
  bottom: "conv4_1"
  top: "conv4_2"
  param {
    lr_mult: 1
    decay_mult: 1
  }
  param {
    lr_mult: 2
    decay_mult: 0
  }
  convolution_param {
    num_output: 512
    pad: 1
    kernel_size: 3
    weight_filler {
      type: "xavier"
    }
    bias_filler {
      type: "constant"
      value: 0
    }
  }
}
layer {
  name: "relu4_2"
  type: "ReLU"
  bottom: "conv4_2"
  top: "conv4_2"
}
layer {
  name: "conv4_3"
  type: "Convolution"
  bottom: "conv4_2"
  top: "conv4_3"
  param {
    lr_mult: 1
    decay_mult: 1
  }
  param {
    lr_mult: 2
    decay_mult: 0
  }
  convolution_param {
    num_output: 512
    pad: 1
    kernel_size: 3
    weight_filler {
      type: "xavier"
    }
    bias_filler {
      type: "constant"
      value: 0
    }
  }
}
layer {
  name: "relu4_3"
  type: "ReLU"
  bottom: "conv4_3"
  top: "conv4_3"
}
layer {
  name: "pool4"
  type: "Pooling"
  bottom: "conv4_3"
  top: "pool4"
  pooling_param {
    pool: MAX
    kernel_size: 2
    stride: 2
  }
}
layer {
  name: "conv5_1"
  type: "Convolution"
  bottom: "pool4"
  top: "conv5_1"
  param {
    lr_mult: 1
    decay_mult: 1
  }
  param {
    lr_mult: 2
    decay_mult: 0
  }
  convolution_param {
    num_output: 512
    pad: 1
    kernel_size: 3
    weight_filler {
      type: "xavier"
    }
    bias_filler {
      type: "constant"
      value: 0
    }
    dilation: 1
  }
}
layer {
  name: "relu5_1"
  type: "ReLU"
  bottom: "conv5_1"
  top: "conv5_1"
}
layer {
  name: "conv5_2"
  type: "Convolution"
  bottom: "conv5_1"
  top: "conv5_2"
  param {
    lr_mult: 1
    decay_mult: 1
  }
  param {
    lr_mult: 2
    decay_mult: 0
  }
  convolution_param {
    num_output: 512
    pad: 1
    kernel_size: 3
    weight_filler {
      type: "xavier"
    }
    bias_filler {
      type: "constant"
      value: 0
    }
    dilation: 1
  }
}
layer {
  name: "relu5_2"
  type: "ReLU"
  bottom: "conv5_2"
  top: "conv5_2"
}
layer {
  name: "conv5_3"
  type: "Convolution"
  bottom: "conv5_2"
  top: "conv5_3"
  param {
    lr_mult: 1
    decay_mult: 1
  }
  param {
    lr_mult: 2
    decay_mult: 0
  }
  convolution_param {
    num_output: 512
    pad: 1
    kernel_size: 3
    weight_filler {
      type: "xavier"
    }
    bias_filler {
      type: "constant"
      value: 0
    }
    dilation: 1
  }
}
layer {
  name: "relu5_3"
  type: "ReLU"
  bottom: "conv5_3"
  top: "conv5_3"
}
layer {
  name: "pool5"
  type: "Pooling"
  bottom: "conv5_3"
  top: "pool5"
  pooling_param {
    pool: MAX
    kernel_size: 3
    stride: 1
    pad: 1
  }
}
layer {
  name: "fc6"
  type: "Convolution"
  bottom: "pool5"
  top: "fc6"
  param {
    lr_mult: 1
    decay_mult: 1
  }
  param {
    lr_mult: 2
    decay_mult: 0
  }
  convolution_param {
    num_output: 1024
    pad: 6
    kernel_size: 3
    weight_filler {
      type: "xavier"
    }
    bias_filler {
      type: "constant"
      value: 0
    }
    dilation: 6
  }
}
layer {
  name: "relu6"
  type: "ReLU"
  bottom: "fc6"
  top: "fc6"
}
layer {
  name: "fc7"
  type: "Convolution"
  bottom: "fc6"
  top: "fc7"
  param {
    lr_mult: 1
    decay_mult: 1
  }
  param {
    lr_mult: 2
    decay_mult: 0
  }
  convolution_param {
    num_output: 1024
    kernel_size: 1
    weight_filler {
      type: "xavier"
    }
    bias_filler {
      type: "constant"
      value: 0
    }
  }
}
layer {
  name: "relu7"
  type: "ReLU"
  bottom: "fc7"
  top: "fc7"
}
layer {
  name: "conv6_1"
  type: "Convolution"
  bottom: "fc7"
  top: "conv6_1"
  param {
    lr_mult: 1
    decay_mult: 1
  }
  param {
    lr_mult: 2
    decay_mult: 0
  }
  convolution_param {
    num_output: 256
    pad: 0
    kernel_size: 1
    stride: 1
    weight_filler {
      type: "xavier"
    }
    bias_filler {
      type: "constant"
      value: 0
    }
  }
}
layer {
  name: "conv6_1_relu"
  type: "ReLU"
  bottom: "conv6_1"
  top: "conv6_1"
}
layer {
  name: "conv6_2"
  type: "Convolution"
  bottom: "conv6_1"
  top: "conv6_2"
  param {
    lr_mult: 1
    decay_mult: 1
  }
  param {
    lr_mult: 2
    decay_mult: 0
  }
  convolution_param {
    num_output: 512
    pad: 1
    kernel_size: 3
    stride: 2
    weight_filler {
      type: "xavier"
    }
    bias_filler {
      type: "constant"
      value: 0
    }
  }
}
layer {
  name: "conv6_2_relu"
  type: "ReLU"
  bottom: "conv6_2"
  top: "conv6_2"
}
layer {
  name: "conv7_1"
  type: "Convolution"
  bottom: "conv6_2"
  top: "conv7_1"
  param {
    lr_mult: 1
    decay_mult: 1
  }
  param {
    lr_mult: 2
    decay_mult: 0
  }
  convolution_param {
    num_output: 128
    pad: 0
    kernel_size: 1
    stride: 1
    weight_filler {
      type: "xavier"
    }
    bias_filler {
      type: "constant"
      value: 0
    }
  }
}
layer {
  name: "conv7_1_relu"
  type: "ReLU"
  bottom: "conv7_1"
  top: "conv7_1"
}
layer {
  name: "conv7_2"
  type: "Convolution"
  bottom: "conv7_1"
  top: "conv7_2"
  param {
    lr_mult: 1
    decay_mult: 1
  }
  param {
    lr_mult: 2
    decay_mult: 0
  }
  convolution_param {
    num_output: 256
    pad: 1
    kernel_size: 3
    stride: 2
    weight_filler {
      type: "xavier"
    }
    bias_filler {
      type: "constant"
      value: 0
    }
  }
}
layer {
  name: "conv7_2_relu"
  type: "ReLU"
  bottom: "conv7_2"
  top: "conv7_2"
}
layer {
  name: "conv8_1"
  type: "Convolution"
  bottom: "conv7_2"
  top: "conv8_1"
  param {
    lr_mult: 1
    decay_mult: 1
  }
  param {
    lr_mult: 2
    decay_mult: 0
  }
  convolution_param {
    num_output: 128
    pad: 0
    kernel_size: 1
    stride: 1
    weight_filler {
      type: "xavier"
    }
    bias_filler {
      type: "constant"
      value: 0
    }
  }
}
layer {
  name: "conv8_1_relu"
  type: "ReLU"
  bottom: "conv8_1"
  top: "conv8_1"
}
layer {
  name: "conv8_2"
  type: "Convolution"
  bottom: "conv8_1"
  top: "conv8_2"
  param {
    lr_mult: 1
    decay_mult: 1
  }
  param {
    lr_mult: 2
    decay_mult: 0
  }
  convolution_param {
    num_output: 256
    pad: 0
    kernel_size: 3
    stride: 1
    weight_filler {
      type: "xavier"
    }
    bias_filler {
      type: "constant"
      value: 0
    }
  }
}
layer {
  name: "conv8_2_relu"
  type: "ReLU"
  bottom: "conv8_2"
  top: "conv8_2"
}
layer {
  name: "conv9_1"
  type: "Convolution"
  bottom: "conv8_2"
  top: "conv9_1"
  param {
    lr_mult: 1
    decay_mult: 1
  }
  param {
    lr_mult: 2
    decay_mult: 0
  }
  convolution_param {
    num_output: 128
    pad: 0
    kernel_size: 1
    stride: 1
    weight_filler {
      type: "xavier"
    }
    bias_filler {
      type: "constant"
      value: 0
    }
  }
}
layer {
  name: "conv9_1_relu"
  type: "ReLU"
  bottom: "conv9_1"
  top: "conv9_1"
}
layer {
  name: "conv9_2"
  type: "Convolution"
  bottom: "conv9_1"
  top: "conv9_2"
  param {
    lr_mult: 1
    decay_mult: 1
  }
  param {
    lr_mult: 2
    decay_mult: 0
  }
  convolution_param {
    num_output: 256
    pad: 0
    kernel_size: 3
    stride: 1
    weight_filler {
      type: "xavier"
    }
    bias_filler {
      type: "constant"
      value: 0
    }
  }
}
layer {
  name: "conv9_2_relu"
  type: "ReLU"
  bottom: "conv9_2"
  top: "conv9_2"
}
layer {
  name: "conv4_3_norm"
  type: "Normalize"
  bottom: "conv4_3"
  top: "conv4_3_norm"
  norm_param {
    across_spatial: false
    scale_filler {
      type: "constant"
      value: 20
    }
    channel_shared: false
  }
}
layer {
  name: "conv4_3_norm_mbox_loc"
  type: "Convolution"
  bottom: "conv4_3_norm"
  top: "conv4_3_norm_mbox_loc"
  param {
    lr_mult: 1
    decay_mult: 1
  }
  param {
    lr_mult: 2
    decay_mult: 0
  }
  convolution_param {
    num_output: 16
    pad: 1
    kernel_size: 3
    stride: 1
    weight_filler {
      type: "xavier"
    }
    bias_filler {
      type: "constant"
      value: 0
    }
  }
}
layer {
  name: "conv4_3_norm_mbox_loc_perm"
  type: "Permute"
  bottom: "conv4_3_norm_mbox_loc"
  top: "conv4_3_norm_mbox_loc_perm"
  permute_param {
    order: 0
    order: 2
    order: 3
    order: 1
  }
}
layer {
  name: "conv4_3_norm_mbox_loc_flat"
  type: "Flatten"
  bottom: "conv4_3_norm_mbox_loc_perm"
  top: "conv4_3_norm_mbox_loc_flat"
  flatten_param {
    axis: 1
  }
}
layer {
  name: "conv4_3_norm_mbox_conf"
  type: "Convolution"
  bottom: "conv4_3_norm"
  top: "conv4_3_norm_mbox_conf"
  param {
    lr_mult: 1
    decay_mult: 1
  }
  param {
    lr_mult: 2
    decay_mult: 0
  }
  convolution_param {
    num_output: 84
    pad: 1
    kernel_size: 3
    stride: 1
    weight_filler {
      type: "xavier"
    }
    bias_filler {
      type: "constant"
      value: 0
    }
  }
}
layer {
  name: "conv4_3_norm_mbox_conf_perm"
  type: "Permute"
  bottom: "conv4_3_norm_mbox_conf"
  top: "conv4_3_norm_mbox_conf_perm"
  permute_param {
    order: 0
    order: 2
    order: 3
    order: 1
  }
}
layer {
  name: "conv4_3_norm_mbox_conf_flat"
  type: "Flatten"
  bottom: "conv4_3_norm_mbox_conf_perm"
  top: "conv4_3_norm_mbox_conf_flat"
  flatten_param {
    axis: 1
  }
}
layer {
  name: "conv4_3_norm_mbox_priorbox"
  type: "PriorBox"
  bottom: "conv4_3_norm"
  bottom: "data"
  top: "conv4_3_norm_mbox_priorbox"
  prior_box_param {
    min_size: 30
    max_size: 60
    aspect_ratio: 2
    flip: true
    clip: false
    variance: 0.1
    variance: 0.1
    variance: 0.2
    variance: 0.2
    step: 8
    offset: 0.5
  }
}
layer {
  name: "fc7_mbox_loc"
  type: "Convolution"
  bottom: "fc7"
  top: "fc7_mbox_loc"
  param {
    lr_mult: 1
    decay_mult: 1
  }
  param {
    lr_mult: 2
    decay_mult: 0
  }
  convolution_param {
    num_output: 24
    pad: 1
    kernel_size: 3
    stride: 1
    weight_filler {
      type: "xavier"
    }
    bias_filler {
      type: "constant"
      value: 0
    }
  }
}
layer {
  name: "fc7_mbox_loc_perm"
  type: "Permute"
  bottom: "fc7_mbox_loc"
  top: "fc7_mbox_loc_perm"
  permute_param {
    order: 0
    order: 2
    order: 3
    order: 1
  }
}
layer {
  name: "fc7_mbox_loc_flat"
  type: "Flatten"
  bottom: "fc7_mbox_loc_perm"
  top: "fc7_mbox_loc_flat"
  flatten_param {
    axis: 1
  }
}
layer {
  name: "fc7_mbox_conf"
  type: "Convolution"
  bottom: "fc7"
  top: "fc7_mbox_conf"
  param {
    lr_mult: 1
    decay_mult: 1
  }
  param {
    lr_mult: 2
    decay_mult: 0
  }
  convolution_param {
    num_output: 126
    pad: 1
    kernel_size: 3
    stride: 1
    weight_filler {
      type: "xavier"
    }
    bias_filler {
      type: "constant"
      value: 0
    }
  }
}
layer {
  name: "fc7_mbox_conf_perm"
  type: "Permute"
  bottom: "fc7_mbox_conf"
  top: "fc7_mbox_conf_perm"
  permute_param {
    order: 0
    order: 2
    order: 3
    order: 1
  }
}
layer {
  name: "fc7_mbox_conf_flat"
  type: "Flatten"
  bottom: "fc7_mbox_conf_perm"
  top: "fc7_mbox_conf_flat"
  flatten_param {
    axis: 1
  }
}
layer {
  name: "fc7_mbox_priorbox"
  type: "PriorBox"
  bottom: "fc7"
  bottom: "data"
  top: "fc7_mbox_priorbox"
  prior_box_param {
    min_size: 60
    max_size: 111
    aspect_ratio: 2
    aspect_ratio: 3
    flip: true
    clip: false
    variance: 0.1
    variance: 0.1
    variance: 0.2
    variance: 0.2
    step: 16
    offset: 0.5
  }
}
layer {
  name: "conv6_2_mbox_loc"
  type: "Convolution"
  bottom: "conv6_2"
  top: "conv6_2_mbox_loc"
  param {
    lr_mult: 1
    decay_mult: 1
  }
  param {
    lr_mult: 2
    decay_mult: 0
  }
  convolution_param {
    num_output: 24
    pad: 1
    kernel_size: 3
    stride: 1
    weight_filler {
      type: "xavier"
    }
    bias_filler {
      type: "constant"
      value: 0
    }
  }
}
layer {
  name: "conv6_2_mbox_loc_perm"
  type: "Permute"
  bottom: "conv6_2_mbox_loc"
  top: "conv6_2_mbox_loc_perm"
  permute_param {
    order: 0
    order: 2
    order: 3
    order: 1
  }
}
layer {
  name: "conv6_2_mbox_loc_flat"
  type: "Flatten"
  bottom: "conv6_2_mbox_loc_perm"
  top: "conv6_2_mbox_loc_flat"
  flatten_param {
    axis: 1
  }
}
layer {
  name: "conv6_2_mbox_conf"
  type: "Convolution"
  bottom: "conv6_2"
  top: "conv6_2_mbox_conf"
  param {
    lr_mult: 1
    decay_mult: 1
  }
  param {
    lr_mult: 2
    decay_mult: 0
  }
  convolution_param {
    num_output: 126
    pad: 1
    kernel_size: 3
    stride: 1
    weight_filler {
      type: "xavier"
    }
    bias_filler {
      type: "constant"
      value: 0
    }
  }
}
layer {
  name: "conv6_2_mbox_conf_perm"
  type: "Permute"
  bottom: "conv6_2_mbox_conf"
  top: "conv6_2_mbox_conf_perm"
  permute_param {
    order: 0
    order: 2
    order: 3
    order: 1
  }
}
layer {
  name: "conv6_2_mbox_conf_flat"
  type: "Flatten"
  bottom: "conv6_2_mbox_conf_perm"
  top: "conv6_2_mbox_conf_flat"
  flatten_param {
    axis: 1
  }
}
layer {
  name: "conv6_2_mbox_priorbox"
  type: "PriorBox"
  bottom: "conv6_2"
  bottom: "data"
  top: "conv6_2_mbox_priorbox"
  prior_box_param {
    min_size: 111
    max_size: 162
    aspect_ratio: 2
    aspect_ratio: 3
    flip: true
    clip: false
    variance: 0.1
    variance: 0.1
    variance: 0.2
    variance: 0.2
    step: 32
    offset: 0.5
  }
}
layer {
  name: "conv7_2_mbox_loc"
  type: "Convolution"
  bottom: "conv7_2"
  top: "conv7_2_mbox_loc"
  param {
    lr_mult: 1
    decay_mult: 1
  }
  param {
    lr_mult: 2
    decay_mult: 0
  }
  convolution_param {
    num_output: 24
    pad: 1
    kernel_size: 3
    stride: 1
    weight_filler {
      type: "xavier"
    }
    bias_filler {
      type: "constant"
      value: 0
    }
  }
}
layer {
  name: "conv7_2_mbox_loc_perm"
  type: "Permute"
  bottom: "conv7_2_mbox_loc"
  top: "conv7_2_mbox_loc_perm"
  permute_param {
    order: 0
    order: 2
    order: 3
    order: 1
  }
}
layer {
  name: "conv7_2_mbox_loc_flat"
  type: "Flatten"
  bottom: "conv7_2_mbox_loc_perm"
  top: "conv7_2_mbox_loc_flat"
  flatten_param {
    axis: 1
  }
}
layer {
  name: "conv7_2_mbox_conf"
  type: "Convolution"
  bottom: "conv7_2"
  top: "conv7_2_mbox_conf"
  param {
    lr_mult: 1
    decay_mult: 1
  }
  param {
    lr_mult: 2
    decay_mult: 0
  }
  convolution_param {
    num_output: 126
    pad: 1
    kernel_size: 3
    stride: 1
    weight_filler {
      type: "xavier"
    }
    bias_filler {
      type: "constant"
      value: 0
    }
  }
}
layer {
  name: "conv7_2_mbox_conf_perm"
  type: "Permute"
  bottom: "conv7_2_mbox_conf"
  top: "conv7_2_mbox_conf_perm"
  permute_param {
    order: 0
    order: 2
    order: 3
    order: 1
  }
}
layer {
  name: "conv7_2_mbox_conf_flat"
  type: "Flatten"
  bottom: "conv7_2_mbox_conf_perm"
  top: "conv7_2_mbox_conf_flat"
  flatten_param {
    axis: 1
  }
}
layer {
  name: "conv7_2_mbox_priorbox"
  type: "PriorBox"
  bottom: "conv7_2"
  bottom: "data"
  top: "conv7_2_mbox_priorbox"
  prior_box_param {
    min_size: 162
    max_size: 213
    aspect_ratio: 2
    aspect_ratio: 3
    flip: true
    clip: false
    variance: 0.1
    variance: 0.1
    variance: 0.2
    variance: 0.2
    step: 64
    offset: 0.5
  }
}
layer {
  name: "conv8_2_mbox_loc"
  type: "Convolution"
  bottom: "conv8_2"
  top: "conv8_2_mbox_loc"
  param {
    lr_mult: 1
    decay_mult: 1
  }
  param {
    lr_mult: 2
    decay_mult: 0
  }
  convolution_param {
    num_output: 16
    pad: 1
    kernel_size: 3
    stride: 1
    weight_filler {
      type: "xavier"
    }
    bias_filler {
      type: "constant"
      value: 0
    }
  }
}
layer {
  name: "conv8_2_mbox_loc_perm"
  type: "Permute"
  bottom: "conv8_2_mbox_loc"
  top: "conv8_2_mbox_loc_perm"
  permute_param {
    order: 0
    order: 2
    order: 3
    order: 1
  }
}
layer {
  name: "conv8_2_mbox_loc_flat"
  type: "Flatten"
  bottom: "conv8_2_mbox_loc_perm"
  top: "conv8_2_mbox_loc_flat"
  flatten_param {
    axis: 1
  }
}
layer {
  name: "conv8_2_mbox_conf"
  type: "Convolution"
  bottom: "conv8_2"
  top: "conv8_2_mbox_conf"
  param {
    lr_mult: 1
    decay_mult: 1
  }
  param {
    lr_mult: 2
    decay_mult: 0
  }
  convolution_param {
    num_output: 84
    pad: 1
    kernel_size: 3
    stride: 1
    weight_filler {
      type: "xavier"
    }
    bias_filler {
      type: "constant"
      value: 0
    }
  }
}
layer {
  name: "conv8_2_mbox_conf_perm"
  type: "Permute"
  bottom: "conv8_2_mbox_conf"
  top: "conv8_2_mbox_conf_perm"
  permute_param {
    order: 0
    order: 2
    order: 3
    order: 1
  }
}
layer {
  name: "conv8_2_mbox_conf_flat"
  type: "Flatten"
  bottom: "conv8_2_mbox_conf_perm"
  top: "conv8_2_mbox_conf_flat"
  flatten_param {
    axis: 1
  }
}
layer {
  name: "conv8_2_mbox_priorbox"
  type: "PriorBox"
  bottom: "conv8_2"
  bottom: "data"
  top: "conv8_2_mbox_priorbox"
  prior_box_param {
    min_size: 213
    max_size: 264
    aspect_ratio: 2
    flip: true
    clip: false
    variance: 0.1
    variance: 0.1
    variance: 0.2
    variance: 0.2
    step: 100
    offset: 0.5
  }
}
layer {
  name: "conv9_2_mbox_loc"
  type: "Convolution"
  bottom: "conv9_2"
  top: "conv9_2_mbox_loc"
  param {
    lr_mult: 1
    decay_mult: 1
  }
  param {
    lr_mult: 2
    decay_mult: 0
  }
  convolution_param {
    num_output: 16
    pad: 1
    kernel_size: 3
    stride: 1
    weight_filler {
      type: "xavier"
    }
    bias_filler {
      type: "constant"
      value: 0
    }
  }
}
layer {
  name: "conv9_2_mbox_loc_perm"
  type: "Permute"
  bottom: "conv9_2_mbox_loc"
  top: "conv9_2_mbox_loc_perm"
  permute_param {
    order: 0
    order: 2
    order: 3
    order: 1
  }
}
layer {
  name: "conv9_2_mbox_loc_flat"
  type: "Flatten"
  bottom: "conv9_2_mbox_loc_perm"
  top: "conv9_2_mbox_loc_flat"
  flatten_param {
    axis: 1
  }
}
layer {
  name: "conv9_2_mbox_conf"
  type: "Convolution"
  bottom: "conv9_2"
  top: "conv9_2_mbox_conf"
  param {
    lr_mult: 1
    decay_mult: 1
  }
  param {
    lr_mult: 2
    decay_mult: 0
  }
  convolution_param {
    num_output: 84
    pad: 1
    kernel_size: 3
    stride: 1
    weight_filler {
      type: "xavier"
    }
    bias_filler {
      type: "constant"
      value: 0
    }
  }
}
layer {
  name: "conv9_2_mbox_conf_perm"
  type: "Permute"
  bottom: "conv9_2_mbox_conf"
  top: "conv9_2_mbox_conf_perm"
  permute_param {
    order: 0
    order: 2
    order: 3
    order: 1
  }
}
layer {
  name: "conv9_2_mbox_conf_flat"
  type: "Flatten"
  bottom: "conv9_2_mbox_conf_perm"
  top: "conv9_2_mbox_conf_flat"
  flatten_param {
    axis: 1
  }
}
layer {
  name: "conv9_2_mbox_priorbox"
  type: "PriorBox"
  bottom: "conv9_2"
  bottom: "data"
  top: "conv9_2_mbox_priorbox"
  prior_box_param {
    min_size: 264
    max_size: 315
    aspect_ratio: 2
    flip: true
    clip: false
    variance: 0.1
    variance: 0.1
    variance: 0.2
    variance: 0.2
    step: 300
    offset: 0.5
  }
}
layer {
  name: "mbox_loc"
  type: "Concat"
  bottom: "conv4_3_norm_mbox_loc_flat"
  bottom: "fc7_mbox_loc_flat"
  bottom: "conv6_2_mbox_loc_flat"
  bottom: "conv7_2_mbox_loc_flat"
  bottom: "conv8_2_mbox_loc_flat"
  bottom: "conv9_2_mbox_loc_flat"
  top: "mbox_loc"
  concat_param {
    axis: 1
  }
}
layer {
  name: "mbox_conf"
  type: "Concat"
  bottom: "conv4_3_norm_mbox_conf_flat"
  bottom: "fc7_mbox_conf_flat"
  bottom: "conv6_2_mbox_conf_flat"
  bottom: "conv7_2_mbox_conf_flat"
  bottom: "conv8_2_mbox_conf_flat"
  bottom: "conv9_2_mbox_conf_flat"
  top: "mbox_conf"
  concat_param {
    axis: 1
  }
}
layer {
  name: "mbox_priorbox"
  type: "Concat"
  bottom: "conv4_3_norm_mbox_priorbox"
  bottom: "fc7_mbox_priorbox"
  bottom: "conv6_2_mbox_priorbox"
  bottom: "conv7_2_mbox_priorbox"
  bottom: "conv8_2_mbox_priorbox"
  bottom: "conv9_2_mbox_priorbox"
  top: "mbox_priorbox"
  concat_param {
    axis: 2
  }
}
layer {
  name: "mbox_conf_reshape"
  type: "Reshape"
  bottom: "mbox_conf"
  top: "mbox_conf_reshape"
  reshape_param {
    shape {
      dim: 0
      dim: -1
      dim: 21
    }
  }
}
layer {
  name: "mbox_conf_softmax"
  type: "Softmax"
  bottom: "mbox_conf_reshape"
  top: "mbox_conf_softmax"
  softmax_param {
    axis: 2
  }
}
layer {
  name: "mbox_conf_flatten"
  type: "Flatten"
  bottom: "mbox_conf_softmax"
  top: "mbox_conf_flatten"
  flatten_param {
    axis: 1
  }
}
layer {
  name: "detection_out"
  type: "DetectionOutput"
  bottom: "mbox_loc"
  bottom: "mbox_conf_flatten"
  bottom: "mbox_priorbox"
  top: "detection_out"
  include {
    phase: TEST
  }
  detection_output_param {
    num_classes: 21
    share_location: true
    background_label_id: 0
    nms_param {
      nms_threshold: 0.45
      top_k: 400
    }
    save_output_param {
      output_directory: "/home/danieleb/data/VOCdevkit/results/VOC2007/SSD_300x300/Main"
      output_name_prefix: "comp4_det_test_"
      output_format: "VOC"
      label_map_file: "data/VOC0712/labelmap_voc.prototxt"
      name_size_file: "data/VOC0712/test_name_size.txt"
      num_test_image: 4952
    }
    code_type: CENTER_SIZE
    keep_top_k: 200
    confidence_threshold: 0.01
  }
}
layer {
  name: "detection_eval"
  type: "DetectionEvaluate"
  bottom: "detection_out"
  bottom: "label"
  top: "detection_eval"
  include {
    phase: TEST
  }
  detection_evaluate_param {
    num_classes: 21
    background_label_id: 0
    overlap_threshold: 0.5
    evaluate_difficult_gt: false
    name_size_file: "data/VOC0712/test_name_size.txt"
  }
}
I1208 16:34:48.954227  6409 layer_factory.hpp:77] Creating layer data
I1208 16:34:48.954291  6409 net.cpp:100] Creating Layer data
I1208 16:34:48.954298  6409 net.cpp:454] data -> data
I1208 16:34:48.954308  6409 net.cpp:454] data -> label
I1208 16:34:48.955642  6448 db_lmdb.cpp:35] Opened lmdb examples/VOC0712/VOC0712_test_lmdb
I1208 16:34:48.957475  6409 annotated_data_layer.cpp:62] output data size: 8,3,300,300
I1208 16:34:48.966305  6409 net.cpp:150] Setting up data
I1208 16:34:48.966325  6409 net.cpp:157] Top shape: 8 3 300 300 (2160000)
I1208 16:34:48.966329  6409 net.cpp:157] Top shape: 1 1 2 8 (16)
I1208 16:34:48.966331  6409 net.cpp:165] Memory required for data: 8640064
I1208 16:34:48.966334  6409 layer_factory.hpp:77] Creating layer data_data_0_split
I1208 16:34:48.966347  6409 net.cpp:100] Creating Layer data_data_0_split
I1208 16:34:48.966351  6409 net.cpp:480] data_data_0_split <- data
I1208 16:34:48.966356  6409 net.cpp:454] data_data_0_split -> data_data_0_split_0
I1208 16:34:48.966363  6409 net.cpp:454] data_data_0_split -> data_data_0_split_1
I1208 16:34:48.966385  6409 net.cpp:454] data_data_0_split -> data_data_0_split_2
I1208 16:34:48.966392  6409 net.cpp:454] data_data_0_split -> data_data_0_split_3
I1208 16:34:48.966397  6409 net.cpp:454] data_data_0_split -> data_data_0_split_4
I1208 16:34:48.966401  6409 net.cpp:454] data_data_0_split -> data_data_0_split_5
I1208 16:34:48.966406  6409 net.cpp:454] data_data_0_split -> data_data_0_split_6
I1208 16:34:48.966584  6409 net.cpp:150] Setting up data_data_0_split
I1208 16:34:48.966590  6409 net.cpp:157] Top shape: 8 3 300 300 (2160000)
I1208 16:34:48.966593  6409 net.cpp:157] Top shape: 8 3 300 300 (2160000)
I1208 16:34:48.966598  6409 net.cpp:157] Top shape: 8 3 300 300 (2160000)
I1208 16:34:48.966599  6409 net.cpp:157] Top shape: 8 3 300 300 (2160000)
I1208 16:34:48.966603  6409 net.cpp:157] Top shape: 8 3 300 300 (2160000)
I1208 16:34:48.966606  6409 net.cpp:157] Top shape: 8 3 300 300 (2160000)
I1208 16:34:48.966610  6409 net.cpp:157] Top shape: 8 3 300 300 (2160000)
I1208 16:34:48.966624  6409 net.cpp:165] Memory required for data: 69120064
I1208 16:34:48.966627  6409 layer_factory.hpp:77] Creating layer conv1_1
I1208 16:34:48.966637  6409 net.cpp:100] Creating Layer conv1_1
I1208 16:34:48.966641  6409 net.cpp:480] conv1_1 <- data_data_0_split_0
I1208 16:34:48.966645  6409 net.cpp:454] conv1_1 -> conv1_1
I1208 16:34:48.967936  6409 net.cpp:150] Setting up conv1_1
I1208 16:34:48.967947  6409 net.cpp:157] Top shape: 8 64 300 300 (46080000)
I1208 16:34:48.967950  6409 net.cpp:165] Memory required for data: 253440064
I1208 16:34:48.967975  6409 layer_factory.hpp:77] Creating layer relu1_1
I1208 16:34:48.967980  6409 net.cpp:100] Creating Layer relu1_1
I1208 16:34:48.967983  6409 net.cpp:480] relu1_1 <- conv1_1
I1208 16:34:48.967988  6409 net.cpp:441] relu1_1 -> conv1_1 (in-place)
I1208 16:34:48.968272  6409 net.cpp:150] Setting up relu1_1
I1208 16:34:48.968278  6409 net.cpp:157] Top shape: 8 64 300 300 (46080000)
I1208 16:34:48.968281  6409 net.cpp:165] Memory required for data: 437760064
I1208 16:34:48.968284  6409 layer_factory.hpp:77] Creating layer conv1_2
I1208 16:34:48.968293  6409 net.cpp:100] Creating Layer conv1_2
I1208 16:34:48.968297  6409 net.cpp:480] conv1_2 <- conv1_1
I1208 16:34:48.968302  6409 net.cpp:454] conv1_2 -> conv1_2
I1208 16:34:48.969516  6409 net.cpp:150] Setting up conv1_2
I1208 16:34:48.969527  6409 net.cpp:157] Top shape: 8 64 300 300 (46080000)
I1208 16:34:48.969528  6409 net.cpp:165] Memory required for data: 622080064
I1208 16:34:48.969535  6409 layer_factory.hpp:77] Creating layer relu1_2
I1208 16:34:48.969558  6409 net.cpp:100] Creating Layer relu1_2
I1208 16:34:48.969560  6409 net.cpp:480] relu1_2 <- conv1_2
I1208 16:34:48.969564  6409 net.cpp:441] relu1_2 -> conv1_2 (in-place)
I1208 16:34:48.969940  6409 net.cpp:150] Setting up relu1_2
I1208 16:34:48.969950  6409 net.cpp:157] Top shape: 8 64 300 300 (46080000)
I1208 16:34:48.969952  6409 net.cpp:165] Memory required for data: 806400064
I1208 16:34:48.969955  6409 layer_factory.hpp:77] Creating layer pool1
I1208 16:34:48.969960  6409 net.cpp:100] Creating Layer pool1
I1208 16:34:48.969964  6409 net.cpp:480] pool1 <- conv1_2
I1208 16:34:48.969969  6409 net.cpp:454] pool1 -> pool1
I1208 16:34:48.970007  6409 net.cpp:150] Setting up pool1
I1208 16:34:48.970012  6409 net.cpp:157] Top shape: 8 64 150 150 (11520000)
I1208 16:34:48.970016  6409 net.cpp:165] Memory required for data: 852480064
I1208 16:34:48.970018  6409 layer_factory.hpp:77] Creating layer conv2_1
I1208 16:34:48.970024  6409 net.cpp:100] Creating Layer conv2_1
I1208 16:34:48.970027  6409 net.cpp:480] conv2_1 <- pool1
I1208 16:34:48.970032  6409 net.cpp:454] conv2_1 -> conv2_1
I1208 16:34:48.971460  6409 net.cpp:150] Setting up conv2_1
I1208 16:34:48.971472  6409 net.cpp:157] Top shape: 8 128 150 150 (23040000)
I1208 16:34:48.971473  6409 net.cpp:165] Memory required for data: 944640064
I1208 16:34:48.971482  6409 layer_factory.hpp:77] Creating layer relu2_1
I1208 16:34:48.971488  6409 net.cpp:100] Creating Layer relu2_1
I1208 16:34:48.971491  6409 net.cpp:480] relu2_1 <- conv2_1
I1208 16:34:48.971495  6409 net.cpp:441] relu2_1 -> conv2_1 (in-place)
I1208 16:34:48.971676  6409 net.cpp:150] Setting up relu2_1
I1208 16:34:48.971683  6409 net.cpp:157] Top shape: 8 128 150 150 (23040000)
I1208 16:34:48.971685  6409 net.cpp:165] Memory required for data: 1036800064
I1208 16:34:48.971688  6409 layer_factory.hpp:77] Creating layer conv2_2
I1208 16:34:48.971694  6409 net.cpp:100] Creating Layer conv2_2
I1208 16:34:48.971698  6409 net.cpp:480] conv2_2 <- conv2_1
I1208 16:34:48.971701  6409 net.cpp:454] conv2_2 -> conv2_2
I1208 16:34:48.973834  6409 net.cpp:150] Setting up conv2_2
I1208 16:34:48.973847  6409 net.cpp:157] Top shape: 8 128 150 150 (23040000)
I1208 16:34:48.973850  6409 net.cpp:165] Memory required for data: 1128960064
I1208 16:34:48.973856  6409 layer_factory.hpp:77] Creating layer relu2_2
I1208 16:34:48.973878  6409 net.cpp:100] Creating Layer relu2_2
I1208 16:34:48.973881  6409 net.cpp:480] relu2_2 <- conv2_2
I1208 16:34:48.973898  6409 net.cpp:441] relu2_2 -> conv2_2 (in-place)
I1208 16:34:48.974144  6409 net.cpp:150] Setting up relu2_2
I1208 16:34:48.974153  6409 net.cpp:157] Top shape: 8 128 150 150 (23040000)
I1208 16:34:48.974156  6409 net.cpp:165] Memory required for data: 1221120064
I1208 16:34:48.974159  6409 layer_factory.hpp:77] Creating layer pool2
I1208 16:34:48.974164  6409 net.cpp:100] Creating Layer pool2
I1208 16:34:48.974167  6409 net.cpp:480] pool2 <- conv2_2
I1208 16:34:48.974172  6409 net.cpp:454] pool2 -> pool2
I1208 16:34:48.974217  6409 net.cpp:150] Setting up pool2
I1208 16:34:48.974222  6409 net.cpp:157] Top shape: 8 128 75 75 (5760000)
I1208 16:34:48.974226  6409 net.cpp:165] Memory required for data: 1244160064
I1208 16:34:48.974229  6409 layer_factory.hpp:77] Creating layer conv3_1
I1208 16:34:48.974237  6409 net.cpp:100] Creating Layer conv3_1
I1208 16:34:48.974241  6409 net.cpp:480] conv3_1 <- pool2
I1208 16:34:48.974247  6409 net.cpp:454] conv3_1 -> conv3_1
I1208 16:34:48.977097  6409 net.cpp:150] Setting up conv3_1
I1208 16:34:48.977108  6409 net.cpp:157] Top shape: 8 256 75 75 (11520000)
I1208 16:34:48.977111  6409 net.cpp:165] Memory required for data: 1290240064
I1208 16:34:48.977119  6409 layer_factory.hpp:77] Creating layer relu3_1
I1208 16:34:48.977140  6409 net.cpp:100] Creating Layer relu3_1
I1208 16:34:48.977144  6409 net.cpp:480] relu3_1 <- conv3_1
I1208 16:34:48.977146  6409 net.cpp:441] relu3_1 -> conv3_1 (in-place)
I1208 16:34:48.977329  6409 net.cpp:150] Setting up relu3_1
I1208 16:34:48.977335  6409 net.cpp:157] Top shape: 8 256 75 75 (11520000)
I1208 16:34:48.977337  6409 net.cpp:165] Memory required for data: 1336320064
I1208 16:34:48.977340  6409 layer_factory.hpp:77] Creating layer conv3_2
I1208 16:34:48.977347  6409 net.cpp:100] Creating Layer conv3_2
I1208 16:34:48.977349  6409 net.cpp:480] conv3_2 <- conv3_1
I1208 16:34:48.977355  6409 net.cpp:454] conv3_2 -> conv3_2
I1208 16:34:48.981093  6409 net.cpp:150] Setting up conv3_2
I1208 16:34:48.981106  6409 net.cpp:157] Top shape: 8 256 75 75 (11520000)
I1208 16:34:48.981108  6409 net.cpp:165] Memory required for data: 1382400064
I1208 16:34:48.981113  6409 layer_factory.hpp:77] Creating layer relu3_2
I1208 16:34:48.981133  6409 net.cpp:100] Creating Layer relu3_2
I1208 16:34:48.981137  6409 net.cpp:480] relu3_2 <- conv3_2
I1208 16:34:48.981150  6409 net.cpp:441] relu3_2 -> conv3_2 (in-place)
I1208 16:34:48.981554  6409 net.cpp:150] Setting up relu3_2
I1208 16:34:48.981564  6409 net.cpp:157] Top shape: 8 256 75 75 (11520000)
I1208 16:34:48.981566  6409 net.cpp:165] Memory required for data: 1428480064
I1208 16:34:48.981570  6409 layer_factory.hpp:77] Creating layer conv3_3
I1208 16:34:48.981581  6409 net.cpp:100] Creating Layer conv3_3
I1208 16:34:48.981585  6409 net.cpp:480] conv3_3 <- conv3_2
I1208 16:34:48.981591  6409 net.cpp:454] conv3_3 -> conv3_3
I1208 16:34:48.985616  6409 net.cpp:150] Setting up conv3_3
I1208 16:34:48.985626  6409 net.cpp:157] Top shape: 8 256 75 75 (11520000)
I1208 16:34:48.985628  6409 net.cpp:165] Memory required for data: 1474560064
I1208 16:34:48.985635  6409 layer_factory.hpp:77] Creating layer relu3_3
I1208 16:34:48.985656  6409 net.cpp:100] Creating Layer relu3_3
I1208 16:34:48.985658  6409 net.cpp:480] relu3_3 <- conv3_3
I1208 16:34:48.985671  6409 net.cpp:441] relu3_3 -> conv3_3 (in-place)
I1208 16:34:48.985886  6409 net.cpp:150] Setting up relu3_3
I1208 16:34:48.985893  6409 net.cpp:157] Top shape: 8 256 75 75 (11520000)
I1208 16:34:48.985896  6409 net.cpp:165] Memory required for data: 1520640064
I1208 16:34:48.985898  6409 layer_factory.hpp:77] Creating layer pool3
I1208 16:34:48.985903  6409 net.cpp:100] Creating Layer pool3
I1208 16:34:48.985905  6409 net.cpp:480] pool3 <- conv3_3
I1208 16:34:48.985910  6409 net.cpp:454] pool3 -> pool3
I1208 16:34:48.985950  6409 net.cpp:150] Setting up pool3
I1208 16:34:48.985956  6409 net.cpp:157] Top shape: 8 256 38 38 (2957312)
I1208 16:34:48.985958  6409 net.cpp:165] Memory required for data: 1532469312
I1208 16:34:48.985960  6409 layer_factory.hpp:77] Creating layer conv4_1
I1208 16:34:48.985980  6409 net.cpp:100] Creating Layer conv4_1
I1208 16:34:48.985981  6409 net.cpp:480] conv4_1 <- pool3
I1208 16:34:48.985987  6409 net.cpp:454] conv4_1 -> conv4_1
I1208 16:34:48.992625  6409 net.cpp:150] Setting up conv4_1
I1208 16:34:48.992638  6409 net.cpp:157] Top shape: 8 512 38 38 (5914624)
I1208 16:34:48.992640  6409 net.cpp:165] Memory required for data: 1556127808
I1208 16:34:48.992646  6409 layer_factory.hpp:77] Creating layer relu4_1
I1208 16:34:48.992650  6409 net.cpp:100] Creating Layer relu4_1
I1208 16:34:48.992653  6409 net.cpp:480] relu4_1 <- conv4_1
I1208 16:34:48.992657  6409 net.cpp:441] relu4_1 -> conv4_1 (in-place)
I1208 16:34:48.992842  6409 net.cpp:150] Setting up relu4_1
I1208 16:34:48.992848  6409 net.cpp:157] Top shape: 8 512 38 38 (5914624)
I1208 16:34:48.992851  6409 net.cpp:165] Memory required for data: 1579786304
I1208 16:34:48.992852  6409 layer_factory.hpp:77] Creating layer conv4_2
I1208 16:34:48.992861  6409 net.cpp:100] Creating Layer conv4_2
I1208 16:34:48.992863  6409 net.cpp:480] conv4_2 <- conv4_1
I1208 16:34:48.992867  6409 net.cpp:454] conv4_2 -> conv4_2
I1208 16:34:49.004849  6409 net.cpp:150] Setting up conv4_2
I1208 16:34:49.004863  6409 net.cpp:157] Top shape: 8 512 38 38 (5914624)
I1208 16:34:49.004865  6409 net.cpp:165] Memory required for data: 1603444800
I1208 16:34:49.004876  6409 layer_factory.hpp:77] Creating layer relu4_2
I1208 16:34:49.004881  6409 net.cpp:100] Creating Layer relu4_2
I1208 16:34:49.004884  6409 net.cpp:480] relu4_2 <- conv4_2
I1208 16:34:49.004890  6409 net.cpp:441] relu4_2 -> conv4_2 (in-place)
I1208 16:34:49.005342  6409 net.cpp:150] Setting up relu4_2
I1208 16:34:49.005353  6409 net.cpp:157] Top shape: 8 512 38 38 (5914624)
I1208 16:34:49.005368  6409 net.cpp:165] Memory required for data: 1627103296
I1208 16:34:49.005372  6409 layer_factory.hpp:77] Creating layer conv4_3
I1208 16:34:49.005380  6409 net.cpp:100] Creating Layer conv4_3
I1208 16:34:49.005384  6409 net.cpp:480] conv4_3 <- conv4_2
I1208 16:34:49.005393  6409 net.cpp:454] conv4_3 -> conv4_3
I1208 16:34:49.018079  6409 net.cpp:150] Setting up conv4_3
I1208 16:34:49.018092  6409 net.cpp:157] Top shape: 8 512 38 38 (5914624)
I1208 16:34:49.018095  6409 net.cpp:165] Memory required for data: 1650761792
I1208 16:34:49.018101  6409 layer_factory.hpp:77] Creating layer relu4_3
I1208 16:34:49.018106  6409 net.cpp:100] Creating Layer relu4_3
I1208 16:34:49.018110  6409 net.cpp:480] relu4_3 <- conv4_3
I1208 16:34:49.018112  6409 net.cpp:441] relu4_3 -> conv4_3 (in-place)
I1208 16:34:49.018326  6409 net.cpp:150] Setting up relu4_3
I1208 16:34:49.018333  6409 net.cpp:157] Top shape: 8 512 38 38 (5914624)
I1208 16:34:49.018335  6409 net.cpp:165] Memory required for data: 1674420288
I1208 16:34:49.018338  6409 layer_factory.hpp:77] Creating layer conv4_3_relu4_3_0_split
I1208 16:34:49.018344  6409 net.cpp:100] Creating Layer conv4_3_relu4_3_0_split
I1208 16:34:49.018347  6409 net.cpp:480] conv4_3_relu4_3_0_split <- conv4_3
I1208 16:34:49.018350  6409 net.cpp:454] conv4_3_relu4_3_0_split -> conv4_3_relu4_3_0_split_0
I1208 16:34:49.018357  6409 net.cpp:454] conv4_3_relu4_3_0_split -> conv4_3_relu4_3_0_split_1
I1208 16:34:49.018395  6409 net.cpp:150] Setting up conv4_3_relu4_3_0_split
I1208 16:34:49.018399  6409 net.cpp:157] Top shape: 8 512 38 38 (5914624)
I1208 16:34:49.018404  6409 net.cpp:157] Top shape: 8 512 38 38 (5914624)
I1208 16:34:49.018405  6409 net.cpp:165] Memory required for data: 1721737280
I1208 16:34:49.018409  6409 layer_factory.hpp:77] Creating layer pool4
I1208 16:34:49.018414  6409 net.cpp:100] Creating Layer pool4
I1208 16:34:49.018417  6409 net.cpp:480] pool4 <- conv4_3_relu4_3_0_split_0
I1208 16:34:49.018421  6409 net.cpp:454] pool4 -> pool4
I1208 16:34:49.018458  6409 net.cpp:150] Setting up pool4
I1208 16:34:49.018462  6409 net.cpp:157] Top shape: 8 512 19 19 (1478656)
I1208 16:34:49.018465  6409 net.cpp:165] Memory required for data: 1727651904
I1208 16:34:49.018466  6409 layer_factory.hpp:77] Creating layer conv5_1
I1208 16:34:49.018489  6409 net.cpp:100] Creating Layer conv5_1
I1208 16:34:49.018492  6409 net.cpp:480] conv5_1 <- pool4
I1208 16:34:49.018497  6409 net.cpp:454] conv5_1 -> conv5_1
I1208 16:34:49.029845  6409 net.cpp:150] Setting up conv5_1
I1208 16:34:49.029860  6409 net.cpp:157] Top shape: 8 512 19 19 (1478656)
I1208 16:34:49.029862  6409 net.cpp:165] Memory required for data: 1733566528
I1208 16:34:49.029870  6409 layer_factory.hpp:77] Creating layer relu5_1
I1208 16:34:49.029875  6409 net.cpp:100] Creating Layer relu5_1
I1208 16:34:49.029878  6409 net.cpp:480] relu5_1 <- conv5_1
I1208 16:34:49.029884  6409 net.cpp:441] relu5_1 -> conv5_1 (in-place)
I1208 16:34:49.030320  6409 net.cpp:150] Setting up relu5_1
I1208 16:34:49.030328  6409 net.cpp:157] Top shape: 8 512 19 19 (1478656)
I1208 16:34:49.030331  6409 net.cpp:165] Memory required for data: 1739481152
I1208 16:34:49.030334  6409 layer_factory.hpp:77] Creating layer conv5_2
I1208 16:34:49.030345  6409 net.cpp:100] Creating Layer conv5_2
I1208 16:34:49.030349  6409 net.cpp:480] conv5_2 <- conv5_1
I1208 16:34:49.030355  6409 net.cpp:454] conv5_2 -> conv5_2
I1208 16:34:49.041851  6409 net.cpp:150] Setting up conv5_2
I1208 16:34:49.041867  6409 net.cpp:157] Top shape: 8 512 19 19 (1478656)
I1208 16:34:49.041869  6409 net.cpp:165] Memory required for data: 1745395776
I1208 16:34:49.041877  6409 layer_factory.hpp:77] Creating layer relu5_2
I1208 16:34:49.041880  6409 net.cpp:100] Creating Layer relu5_2
I1208 16:34:49.041883  6409 net.cpp:480] relu5_2 <- conv5_2
I1208 16:34:49.041888  6409 net.cpp:441] relu5_2 -> conv5_2 (in-place)
I1208 16:34:49.042273  6409 net.cpp:150] Setting up relu5_2
I1208 16:34:49.042282  6409 net.cpp:157] Top shape: 8 512 19 19 (1478656)
I1208 16:34:49.042285  6409 net.cpp:165] Memory required for data: 1751310400
I1208 16:34:49.042287  6409 layer_factory.hpp:77] Creating layer conv5_3
I1208 16:34:49.042296  6409 net.cpp:100] Creating Layer conv5_3
I1208 16:34:49.042299  6409 net.cpp:480] conv5_3 <- conv5_2
I1208 16:34:49.042304  6409 net.cpp:454] conv5_3 -> conv5_3
I1208 16:34:49.055477  6409 net.cpp:150] Setting up conv5_3
I1208 16:34:49.055493  6409 net.cpp:157] Top shape: 8 512 19 19 (1478656)
I1208 16:34:49.055495  6409 net.cpp:165] Memory required for data: 1757225024
I1208 16:34:49.055502  6409 layer_factory.hpp:77] Creating layer relu5_3
I1208 16:34:49.055512  6409 net.cpp:100] Creating Layer relu5_3
I1208 16:34:49.055516  6409 net.cpp:480] relu5_3 <- conv5_3
I1208 16:34:49.055521  6409 net.cpp:441] relu5_3 -> conv5_3 (in-place)
I1208 16:34:49.055713  6409 net.cpp:150] Setting up relu5_3
I1208 16:34:49.055719  6409 net.cpp:157] Top shape: 8 512 19 19 (1478656)
I1208 16:34:49.055723  6409 net.cpp:165] Memory required for data: 1763139648
I1208 16:34:49.055725  6409 layer_factory.hpp:77] Creating layer pool5
I1208 16:34:49.055730  6409 net.cpp:100] Creating Layer pool5
I1208 16:34:49.055732  6409 net.cpp:480] pool5 <- conv5_3
I1208 16:34:49.055737  6409 net.cpp:454] pool5 -> pool5
I1208 16:34:49.055773  6409 net.cpp:150] Setting up pool5
I1208 16:34:49.055778  6409 net.cpp:157] Top shape: 8 512 19 19 (1478656)
I1208 16:34:49.055780  6409 net.cpp:165] Memory required for data: 1769054272
I1208 16:34:49.055783  6409 layer_factory.hpp:77] Creating layer fc6
I1208 16:34:49.055789  6409 net.cpp:100] Creating Layer fc6
I1208 16:34:49.055791  6409 net.cpp:480] fc6 <- pool5
I1208 16:34:49.055796  6409 net.cpp:454] fc6 -> fc6
I1208 16:34:49.076397  6409 net.cpp:150] Setting up fc6
I1208 16:34:49.076416  6409 net.cpp:157] Top shape: 8 1024 19 19 (2957312)
I1208 16:34:49.076417  6409 net.cpp:165] Memory required for data: 1780883520
I1208 16:34:49.076424  6409 layer_factory.hpp:77] Creating layer relu6
I1208 16:34:49.076431  6409 net.cpp:100] Creating Layer relu6
I1208 16:34:49.076434  6409 net.cpp:480] relu6 <- fc6
I1208 16:34:49.076439  6409 net.cpp:441] relu6 -> fc6 (in-place)
I1208 16:34:49.076725  6409 net.cpp:150] Setting up relu6
I1208 16:34:49.076731  6409 net.cpp:157] Top shape: 8 1024 19 19 (2957312)
I1208 16:34:49.076733  6409 net.cpp:165] Memory required for data: 1792712768
I1208 16:34:49.076747  6409 layer_factory.hpp:77] Creating layer fc7
I1208 16:34:49.076756  6409 net.cpp:100] Creating Layer fc7
I1208 16:34:49.076758  6409 net.cpp:480] fc7 <- fc6
I1208 16:34:49.076763  6409 net.cpp:454] fc7 -> fc7
I1208 16:34:49.082581  6409 net.cpp:150] Setting up fc7
I1208 16:34:49.082597  6409 net.cpp:157] Top shape: 8 1024 19 19 (2957312)
I1208 16:34:49.082602  6409 net.cpp:165] Memory required for data: 1804542016
I1208 16:34:49.082608  6409 layer_factory.hpp:77] Creating layer relu7
I1208 16:34:49.082614  6409 net.cpp:100] Creating Layer relu7
I1208 16:34:49.082617  6409 net.cpp:480] relu7 <- fc7
I1208 16:34:49.082623  6409 net.cpp:441] relu7 -> fc7 (in-place)
I1208 16:34:49.082845  6409 net.cpp:150] Setting up relu7
I1208 16:34:49.082852  6409 net.cpp:157] Top shape: 8 1024 19 19 (2957312)
I1208 16:34:49.082855  6409 net.cpp:165] Memory required for data: 1816371264
I1208 16:34:49.082859  6409 layer_factory.hpp:77] Creating layer fc7_relu7_0_split
I1208 16:34:49.082865  6409 net.cpp:100] Creating Layer fc7_relu7_0_split
I1208 16:34:49.082867  6409 net.cpp:480] fc7_relu7_0_split <- fc7
I1208 16:34:49.082873  6409 net.cpp:454] fc7_relu7_0_split -> fc7_relu7_0_split_0
I1208 16:34:49.082881  6409 net.cpp:454] fc7_relu7_0_split -> fc7_relu7_0_split_1
I1208 16:34:49.082893  6409 net.cpp:454] fc7_relu7_0_split -> fc7_relu7_0_split_2
I1208 16:34:49.082900  6409 net.cpp:454] fc7_relu7_0_split -> fc7_relu7_0_split_3
I1208 16:34:49.082969  6409 net.cpp:150] Setting up fc7_relu7_0_split
I1208 16:34:49.082975  6409 net.cpp:157] Top shape: 8 1024 19 19 (2957312)
I1208 16:34:49.082980  6409 net.cpp:157] Top shape: 8 1024 19 19 (2957312)
I1208 16:34:49.082983  6409 net.cpp:157] Top shape: 8 1024 19 19 (2957312)
I1208 16:34:49.082986  6409 net.cpp:157] Top shape: 8 1024 19 19 (2957312)
I1208 16:34:49.082989  6409 net.cpp:165] Memory required for data: 1863688256
I1208 16:34:49.082991  6409 layer_factory.hpp:77] Creating layer conv6_1
I1208 16:34:49.083001  6409 net.cpp:100] Creating Layer conv6_1
I1208 16:34:49.083005  6409 net.cpp:480] conv6_1 <- fc7_relu7_0_split_0
I1208 16:34:49.083011  6409 net.cpp:454] conv6_1 -> conv6_1
I1208 16:34:49.085790  6409 net.cpp:150] Setting up conv6_1
I1208 16:34:49.085804  6409 net.cpp:157] Top shape: 8 256 19 19 (739328)
I1208 16:34:49.085808  6409 net.cpp:165] Memory required for data: 1866645568
I1208 16:34:49.085813  6409 layer_factory.hpp:77] Creating layer conv6_1_relu
I1208 16:34:49.085819  6409 net.cpp:100] Creating Layer conv6_1_relu
I1208 16:34:49.085821  6409 net.cpp:480] conv6_1_relu <- conv6_1
I1208 16:34:49.085826  6409 net.cpp:441] conv6_1_relu -> conv6_1 (in-place)
I1208 16:34:49.086215  6409 net.cpp:150] Setting up conv6_1_relu
I1208 16:34:49.086225  6409 net.cpp:157] Top shape: 8 256 19 19 (739328)
I1208 16:34:49.086227  6409 net.cpp:165] Memory required for data: 1869602880
I1208 16:34:49.086230  6409 layer_factory.hpp:77] Creating layer conv6_2
I1208 16:34:49.086241  6409 net.cpp:100] Creating Layer conv6_2
I1208 16:34:49.086244  6409 net.cpp:480] conv6_2 <- conv6_1
I1208 16:34:49.086251  6409 net.cpp:454] conv6_2 -> conv6_2
I1208 16:34:49.093478  6409 net.cpp:150] Setting up conv6_2
I1208 16:34:49.093492  6409 net.cpp:157] Top shape: 8 512 10 10 (409600)
I1208 16:34:49.093493  6409 net.cpp:165] Memory required for data: 1871241280
I1208 16:34:49.093504  6409 layer_factory.hpp:77] Creating layer conv6_2_relu
I1208 16:34:49.093513  6409 net.cpp:100] Creating Layer conv6_2_relu
I1208 16:34:49.093515  6409 net.cpp:480] conv6_2_relu <- conv6_2
I1208 16:34:49.093519  6409 net.cpp:441] conv6_2_relu -> conv6_2 (in-place)
I1208 16:34:49.093745  6409 net.cpp:150] Setting up conv6_2_relu
I1208 16:34:49.093751  6409 net.cpp:157] Top shape: 8 512 10 10 (409600)
I1208 16:34:49.093755  6409 net.cpp:165] Memory required for data: 1872879680
I1208 16:34:49.093756  6409 layer_factory.hpp:77] Creating layer conv6_2_conv6_2_relu_0_split
I1208 16:34:49.093761  6409 net.cpp:100] Creating Layer conv6_2_conv6_2_relu_0_split
I1208 16:34:49.093765  6409 net.cpp:480] conv6_2_conv6_2_relu_0_split <- conv6_2
I1208 16:34:49.093782  6409 net.cpp:454] conv6_2_conv6_2_relu_0_split -> conv6_2_conv6_2_relu_0_split_0
I1208 16:34:49.093791  6409 net.cpp:454] conv6_2_conv6_2_relu_0_split -> conv6_2_conv6_2_relu_0_split_1
I1208 16:34:49.093797  6409 net.cpp:454] conv6_2_conv6_2_relu_0_split -> conv6_2_conv6_2_relu_0_split_2
I1208 16:34:49.093802  6409 net.cpp:454] conv6_2_conv6_2_relu_0_split -> conv6_2_conv6_2_relu_0_split_3
I1208 16:34:49.093873  6409 net.cpp:150] Setting up conv6_2_conv6_2_relu_0_split
I1208 16:34:49.093878  6409 net.cpp:157] Top shape: 8 512 10 10 (409600)
I1208 16:34:49.093881  6409 net.cpp:157] Top shape: 8 512 10 10 (409600)
I1208 16:34:49.093884  6409 net.cpp:157] Top shape: 8 512 10 10 (409600)
I1208 16:34:49.093888  6409 net.cpp:157] Top shape: 8 512 10 10 (409600)
I1208 16:34:49.093889  6409 net.cpp:165] Memory required for data: 1879433280
I1208 16:34:49.093891  6409 layer_factory.hpp:77] Creating layer conv7_1
I1208 16:34:49.093899  6409 net.cpp:100] Creating Layer conv7_1
I1208 16:34:49.093904  6409 net.cpp:480] conv7_1 <- conv6_2_conv6_2_relu_0_split_0
I1208 16:34:49.093910  6409 net.cpp:454] conv7_1 -> conv7_1
I1208 16:34:49.095429  6409 net.cpp:150] Setting up conv7_1
I1208 16:34:49.095440  6409 net.cpp:157] Top shape: 8 128 10 10 (102400)
I1208 16:34:49.095443  6409 net.cpp:165] Memory required for data: 1879842880
I1208 16:34:49.095448  6409 layer_factory.hpp:77] Creating layer conv7_1_relu
I1208 16:34:49.095454  6409 net.cpp:100] Creating Layer conv7_1_relu
I1208 16:34:49.095458  6409 net.cpp:480] conv7_1_relu <- conv7_1
I1208 16:34:49.095461  6409 net.cpp:441] conv7_1_relu -> conv7_1 (in-place)
I1208 16:34:49.095656  6409 net.cpp:150] Setting up conv7_1_relu
I1208 16:34:49.095662  6409 net.cpp:157] Top shape: 8 128 10 10 (102400)
I1208 16:34:49.095665  6409 net.cpp:165] Memory required for data: 1880252480
I1208 16:34:49.095669  6409 layer_factory.hpp:77] Creating layer conv7_2
I1208 16:34:49.095675  6409 net.cpp:100] Creating Layer conv7_2
I1208 16:34:49.095679  6409 net.cpp:480] conv7_2 <- conv7_1
I1208 16:34:49.095683  6409 net.cpp:454] conv7_2 -> conv7_2
I1208 16:34:49.101017  6409 net.cpp:150] Setting up conv7_2
I1208 16:34:49.101029  6409 net.cpp:157] Top shape: 8 256 5 5 (51200)
I1208 16:34:49.101032  6409 net.cpp:165] Memory required for data: 1880457280
I1208 16:34:49.101037  6409 layer_factory.hpp:77] Creating layer conv7_2_relu
I1208 16:34:49.101042  6409 net.cpp:100] Creating Layer conv7_2_relu
I1208 16:34:49.101044  6409 net.cpp:480] conv7_2_relu <- conv7_2
I1208 16:34:49.101048  6409 net.cpp:441] conv7_2_relu -> conv7_2 (in-place)
I1208 16:34:49.101500  6409 net.cpp:150] Setting up conv7_2_relu
I1208 16:34:49.101511  6409 net.cpp:157] Top shape: 8 256 5 5 (51200)
I1208 16:34:49.101513  6409 net.cpp:165] Memory required for data: 1880662080
I1208 16:34:49.101516  6409 layer_factory.hpp:77] Creating layer conv7_2_conv7_2_relu_0_split
I1208 16:34:49.101523  6409 net.cpp:100] Creating Layer conv7_2_conv7_2_relu_0_split
I1208 16:34:49.101528  6409 net.cpp:480] conv7_2_conv7_2_relu_0_split <- conv7_2
I1208 16:34:49.101536  6409 net.cpp:454] conv7_2_conv7_2_relu_0_split -> conv7_2_conv7_2_relu_0_split_0
I1208 16:34:49.101542  6409 net.cpp:454] conv7_2_conv7_2_relu_0_split -> conv7_2_conv7_2_relu_0_split_1
I1208 16:34:49.101552  6409 net.cpp:454] conv7_2_conv7_2_relu_0_split -> conv7_2_conv7_2_relu_0_split_2
I1208 16:34:49.101558  6409 net.cpp:454] conv7_2_conv7_2_relu_0_split -> conv7_2_conv7_2_relu_0_split_3
I1208 16:34:49.101644  6409 net.cpp:150] Setting up conv7_2_conv7_2_relu_0_split
I1208 16:34:49.101649  6409 net.cpp:157] Top shape: 8 256 5 5 (51200)
I1208 16:34:49.101653  6409 net.cpp:157] Top shape: 8 256 5 5 (51200)
I1208 16:34:49.101656  6409 net.cpp:157] Top shape: 8 256 5 5 (51200)
I1208 16:34:49.101660  6409 net.cpp:157] Top shape: 8 256 5 5 (51200)
I1208 16:34:49.101662  6409 net.cpp:165] Memory required for data: 1881481280
I1208 16:34:49.101665  6409 layer_factory.hpp:77] Creating layer conv8_1
I1208 16:34:49.101675  6409 net.cpp:100] Creating Layer conv8_1
I1208 16:34:49.101689  6409 net.cpp:480] conv8_1 <- conv7_2_conv7_2_relu_0_split_0
I1208 16:34:49.101696  6409 net.cpp:454] conv8_1 -> conv8_1
I1208 16:34:49.103204  6409 net.cpp:150] Setting up conv8_1
I1208 16:34:49.103215  6409 net.cpp:157] Top shape: 8 128 5 5 (25600)
I1208 16:34:49.103217  6409 net.cpp:165] Memory required for data: 1881583680
I1208 16:34:49.103224  6409 layer_factory.hpp:77] Creating layer conv8_1_relu
I1208 16:34:49.103227  6409 net.cpp:100] Creating Layer conv8_1_relu
I1208 16:34:49.103231  6409 net.cpp:480] conv8_1_relu <- conv8_1
I1208 16:34:49.103236  6409 net.cpp:441] conv8_1_relu -> conv8_1 (in-place)
I1208 16:34:49.103440  6409 net.cpp:150] Setting up conv8_1_relu
I1208 16:34:49.103447  6409 net.cpp:157] Top shape: 8 128 5 5 (25600)
I1208 16:34:49.103451  6409 net.cpp:165] Memory required for data: 1881686080
I1208 16:34:49.103452  6409 layer_factory.hpp:77] Creating layer conv8_2
I1208 16:34:49.103461  6409 net.cpp:100] Creating Layer conv8_2
I1208 16:34:49.103467  6409 net.cpp:480] conv8_2 <- conv8_1
I1208 16:34:49.103473  6409 net.cpp:454] conv8_2 -> conv8_2
I1208 16:34:49.106863  6409 net.cpp:150] Setting up conv8_2
I1208 16:34:49.106875  6409 net.cpp:157] Top shape: 8 256 3 3 (18432)
I1208 16:34:49.106878  6409 net.cpp:165] Memory required for data: 1881759808
I1208 16:34:49.106884  6409 layer_factory.hpp:77] Creating layer conv8_2_relu
I1208 16:34:49.106889  6409 net.cpp:100] Creating Layer conv8_2_relu
I1208 16:34:49.106890  6409 net.cpp:480] conv8_2_relu <- conv8_2
I1208 16:34:49.106894  6409 net.cpp:441] conv8_2_relu -> conv8_2 (in-place)
I1208 16:34:49.107096  6409 net.cpp:150] Setting up conv8_2_relu
I1208 16:34:49.107102  6409 net.cpp:157] Top shape: 8 256 3 3 (18432)
I1208 16:34:49.107105  6409 net.cpp:165] Memory required for data: 1881833536
I1208 16:34:49.107106  6409 layer_factory.hpp:77] Creating layer conv8_2_conv8_2_relu_0_split
I1208 16:34:49.107112  6409 net.cpp:100] Creating Layer conv8_2_conv8_2_relu_0_split
I1208 16:34:49.107115  6409 net.cpp:480] conv8_2_conv8_2_relu_0_split <- conv8_2
I1208 16:34:49.107118  6409 net.cpp:454] conv8_2_conv8_2_relu_0_split -> conv8_2_conv8_2_relu_0_split_0
I1208 16:34:49.107125  6409 net.cpp:454] conv8_2_conv8_2_relu_0_split -> conv8_2_conv8_2_relu_0_split_1
I1208 16:34:49.107131  6409 net.cpp:454] conv8_2_conv8_2_relu_0_split -> conv8_2_conv8_2_relu_0_split_2
I1208 16:34:49.107134  6409 net.cpp:454] conv8_2_conv8_2_relu_0_split -> conv8_2_conv8_2_relu_0_split_3
I1208 16:34:49.107195  6409 net.cpp:150] Setting up conv8_2_conv8_2_relu_0_split
I1208 16:34:49.107200  6409 net.cpp:157] Top shape: 8 256 3 3 (18432)
I1208 16:34:49.107203  6409 net.cpp:157] Top shape: 8 256 3 3 (18432)
I1208 16:34:49.107206  6409 net.cpp:157] Top shape: 8 256 3 3 (18432)
I1208 16:34:49.107208  6409 net.cpp:157] Top shape: 8 256 3 3 (18432)
I1208 16:34:49.107210  6409 net.cpp:165] Memory required for data: 1882128448
I1208 16:34:49.107213  6409 layer_factory.hpp:77] Creating layer conv9_1
I1208 16:34:49.107220  6409 net.cpp:100] Creating Layer conv9_1
I1208 16:34:49.107224  6409 net.cpp:480] conv9_1 <- conv8_2_conv8_2_relu_0_split_0
I1208 16:34:49.107228  6409 net.cpp:454] conv9_1 -> conv9_1
I1208 16:34:49.109472  6409 net.cpp:150] Setting up conv9_1
I1208 16:34:49.109481  6409 net.cpp:157] Top shape: 8 128 3 3 (9216)
I1208 16:34:49.109483  6409 net.cpp:165] Memory required for data: 1882165312
I1208 16:34:49.109488  6409 layer_factory.hpp:77] Creating layer conv9_1_relu
I1208 16:34:49.109493  6409 net.cpp:100] Creating Layer conv9_1_relu
I1208 16:34:49.109496  6409 net.cpp:480] conv9_1_relu <- conv9_1
I1208 16:34:49.109500  6409 net.cpp:441] conv9_1_relu -> conv9_1 (in-place)
I1208 16:34:49.109895  6409 net.cpp:150] Setting up conv9_1_relu
I1208 16:34:49.109905  6409 net.cpp:157] Top shape: 8 128 3 3 (9216)
I1208 16:34:49.109907  6409 net.cpp:165] Memory required for data: 1882202176
I1208 16:34:49.109910  6409 layer_factory.hpp:77] Creating layer conv9_2
I1208 16:34:49.109920  6409 net.cpp:100] Creating Layer conv9_2
I1208 16:34:49.109933  6409 net.cpp:480] conv9_2 <- conv9_1
I1208 16:34:49.109941  6409 net.cpp:454] conv9_2 -> conv9_2
I1208 16:34:49.112828  6409 net.cpp:150] Setting up conv9_2
I1208 16:34:49.112840  6409 net.cpp:157] Top shape: 8 256 1 1 (2048)
I1208 16:34:49.112843  6409 net.cpp:165] Memory required for data: 1882210368
I1208 16:34:49.112849  6409 layer_factory.hpp:77] Creating layer conv9_2_relu
I1208 16:34:49.112854  6409 net.cpp:100] Creating Layer conv9_2_relu
I1208 16:34:49.112859  6409 net.cpp:480] conv9_2_relu <- conv9_2
I1208 16:34:49.112864  6409 net.cpp:441] conv9_2_relu -> conv9_2 (in-place)
I1208 16:34:49.113109  6409 net.cpp:150] Setting up conv9_2_relu
I1208 16:34:49.113116  6409 net.cpp:157] Top shape: 8 256 1 1 (2048)
I1208 16:34:49.113118  6409 net.cpp:165] Memory required for data: 1882218560
I1208 16:34:49.113121  6409 layer_factory.hpp:77] Creating layer conv9_2_conv9_2_relu_0_split
I1208 16:34:49.113127  6409 net.cpp:100] Creating Layer conv9_2_conv9_2_relu_0_split
I1208 16:34:49.113129  6409 net.cpp:480] conv9_2_conv9_2_relu_0_split <- conv9_2
I1208 16:34:49.113135  6409 net.cpp:454] conv9_2_conv9_2_relu_0_split -> conv9_2_conv9_2_relu_0_split_0
I1208 16:34:49.113143  6409 net.cpp:454] conv9_2_conv9_2_relu_0_split -> conv9_2_conv9_2_relu_0_split_1
I1208 16:34:49.113148  6409 net.cpp:454] conv9_2_conv9_2_relu_0_split -> conv9_2_conv9_2_relu_0_split_2
I1208 16:34:49.113203  6409 net.cpp:150] Setting up conv9_2_conv9_2_relu_0_split
I1208 16:34:49.113207  6409 net.cpp:157] Top shape: 8 256 1 1 (2048)
I1208 16:34:49.113211  6409 net.cpp:157] Top shape: 8 256 1 1 (2048)
I1208 16:34:49.113214  6409 net.cpp:157] Top shape: 8 256 1 1 (2048)
I1208 16:34:49.113216  6409 net.cpp:165] Memory required for data: 1882243136
I1208 16:34:49.113219  6409 layer_factory.hpp:77] Creating layer conv4_3_norm
I1208 16:34:49.113225  6409 net.cpp:100] Creating Layer conv4_3_norm
I1208 16:34:49.113229  6409 net.cpp:480] conv4_3_norm <- conv4_3_relu4_3_0_split_1
I1208 16:34:49.113235  6409 net.cpp:454] conv4_3_norm -> conv4_3_norm
I1208 16:34:49.113402  6409 net.cpp:150] Setting up conv4_3_norm
I1208 16:34:49.113407  6409 net.cpp:157] Top shape: 8 512 38 38 (5914624)
I1208 16:34:49.113409  6409 net.cpp:165] Memory required for data: 1905901632
I1208 16:34:49.113414  6409 layer_factory.hpp:77] Creating layer conv4_3_norm_conv4_3_norm_0_split
I1208 16:34:49.113417  6409 net.cpp:100] Creating Layer conv4_3_norm_conv4_3_norm_0_split
I1208 16:34:49.113420  6409 net.cpp:480] conv4_3_norm_conv4_3_norm_0_split <- conv4_3_norm
I1208 16:34:49.113425  6409 net.cpp:454] conv4_3_norm_conv4_3_norm_0_split -> conv4_3_norm_conv4_3_norm_0_split_0
I1208 16:34:49.113430  6409 net.cpp:454] conv4_3_norm_conv4_3_norm_0_split -> conv4_3_norm_conv4_3_norm_0_split_1
I1208 16:34:49.113435  6409 net.cpp:454] conv4_3_norm_conv4_3_norm_0_split -> conv4_3_norm_conv4_3_norm_0_split_2
I1208 16:34:49.113481  6409 net.cpp:150] Setting up conv4_3_norm_conv4_3_norm_0_split
I1208 16:34:49.113487  6409 net.cpp:157] Top shape: 8 512 38 38 (5914624)
I1208 16:34:49.113488  6409 net.cpp:157] Top shape: 8 512 38 38 (5914624)
I1208 16:34:49.113492  6409 net.cpp:157] Top shape: 8 512 38 38 (5914624)
I1208 16:34:49.113494  6409 net.cpp:165] Memory required for data: 1976877120
I1208 16:34:49.113497  6409 layer_factory.hpp:77] Creating layer conv4_3_norm_mbox_loc
I1208 16:34:49.113502  6409 net.cpp:100] Creating Layer conv4_3_norm_mbox_loc
I1208 16:34:49.113505  6409 net.cpp:480] conv4_3_norm_mbox_loc <- conv4_3_norm_conv4_3_norm_0_split_0
I1208 16:34:49.113512  6409 net.cpp:454] conv4_3_norm_mbox_loc -> conv4_3_norm_mbox_loc
I1208 16:34:49.115077  6409 net.cpp:150] Setting up conv4_3_norm_mbox_loc
I1208 16:34:49.115089  6409 net.cpp:157] Top shape: 8 16 38 38 (184832)
I1208 16:34:49.115092  6409 net.cpp:165] Memory required for data: 1977616448
I1208 16:34:49.115098  6409 layer_factory.hpp:77] Creating layer conv4_3_norm_mbox_loc_perm
I1208 16:34:49.115105  6409 net.cpp:100] Creating Layer conv4_3_norm_mbox_loc_perm
I1208 16:34:49.115108  6409 net.cpp:480] conv4_3_norm_mbox_loc_perm <- conv4_3_norm_mbox_loc
I1208 16:34:49.115123  6409 net.cpp:454] conv4_3_norm_mbox_loc_perm -> conv4_3_norm_mbox_loc_perm
I1208 16:34:49.115243  6409 net.cpp:150] Setting up conv4_3_norm_mbox_loc_perm
I1208 16:34:49.115248  6409 net.cpp:157] Top shape: 8 38 38 16 (184832)
I1208 16:34:49.115250  6409 net.cpp:165] Memory required for data: 1978355776
I1208 16:34:49.115253  6409 layer_factory.hpp:77] Creating layer conv4_3_norm_mbox_loc_flat
I1208 16:34:49.115259  6409 net.cpp:100] Creating Layer conv4_3_norm_mbox_loc_flat
I1208 16:34:49.115262  6409 net.cpp:480] conv4_3_norm_mbox_loc_flat <- conv4_3_norm_mbox_loc_perm
I1208 16:34:49.115267  6409 net.cpp:454] conv4_3_norm_mbox_loc_flat -> conv4_3_norm_mbox_loc_flat
I1208 16:34:49.115299  6409 net.cpp:150] Setting up conv4_3_norm_mbox_loc_flat
I1208 16:34:49.115305  6409 net.cpp:157] Top shape: 8 23104 (184832)
I1208 16:34:49.115308  6409 net.cpp:165] Memory required for data: 1979095104
I1208 16:34:49.115309  6409 layer_factory.hpp:77] Creating layer conv4_3_norm_mbox_conf
I1208 16:34:49.115324  6409 net.cpp:100] Creating Layer conv4_3_norm_mbox_conf
I1208 16:34:49.115329  6409 net.cpp:480] conv4_3_norm_mbox_conf <- conv4_3_norm_conv4_3_norm_0_split_1
I1208 16:34:49.115334  6409 net.cpp:454] conv4_3_norm_mbox_conf -> conv4_3_norm_mbox_conf
I1208 16:34:49.118546  6409 net.cpp:150] Setting up conv4_3_norm_mbox_conf
I1208 16:34:49.118557  6409 net.cpp:157] Top shape: 8 84 38 38 (970368)
I1208 16:34:49.118559  6409 net.cpp:165] Memory required for data: 1982976576
I1208 16:34:49.118566  6409 layer_factory.hpp:77] Creating layer conv4_3_norm_mbox_conf_perm
I1208 16:34:49.118571  6409 net.cpp:100] Creating Layer conv4_3_norm_mbox_conf_perm
I1208 16:34:49.118573  6409 net.cpp:480] conv4_3_norm_mbox_conf_perm <- conv4_3_norm_mbox_conf
I1208 16:34:49.118578  6409 net.cpp:454] conv4_3_norm_mbox_conf_perm -> conv4_3_norm_mbox_conf_perm
I1208 16:34:49.118681  6409 net.cpp:150] Setting up conv4_3_norm_mbox_conf_perm
I1208 16:34:49.118685  6409 net.cpp:157] Top shape: 8 38 38 84 (970368)
I1208 16:34:49.118687  6409 net.cpp:165] Memory required for data: 1986858048
I1208 16:34:49.118690  6409 layer_factory.hpp:77] Creating layer conv4_3_norm_mbox_conf_flat
I1208 16:34:49.118695  6409 net.cpp:100] Creating Layer conv4_3_norm_mbox_conf_flat
I1208 16:34:49.118696  6409 net.cpp:480] conv4_3_norm_mbox_conf_flat <- conv4_3_norm_mbox_conf_perm
I1208 16:34:49.118701  6409 net.cpp:454] conv4_3_norm_mbox_conf_flat -> conv4_3_norm_mbox_conf_flat
I1208 16:34:49.118736  6409 net.cpp:150] Setting up conv4_3_norm_mbox_conf_flat
I1208 16:34:49.118741  6409 net.cpp:157] Top shape: 8 121296 (970368)
I1208 16:34:49.118743  6409 net.cpp:165] Memory required for data: 1990739520
I1208 16:34:49.118746  6409 layer_factory.hpp:77] Creating layer conv4_3_norm_mbox_priorbox
I1208 16:34:49.118752  6409 net.cpp:100] Creating Layer conv4_3_norm_mbox_priorbox
I1208 16:34:49.118754  6409 net.cpp:480] conv4_3_norm_mbox_priorbox <- conv4_3_norm_conv4_3_norm_0_split_2
I1208 16:34:49.118758  6409 net.cpp:480] conv4_3_norm_mbox_priorbox <- data_data_0_split_1
I1208 16:34:49.118763  6409 net.cpp:454] conv4_3_norm_mbox_priorbox -> conv4_3_norm_mbox_priorbox
I1208 16:34:49.118800  6409 net.cpp:150] Setting up conv4_3_norm_mbox_priorbox
I1208 16:34:49.118805  6409 net.cpp:157] Top shape: 1 2 23104 (46208)
I1208 16:34:49.118808  6409 net.cpp:165] Memory required for data: 1990924352
I1208 16:34:49.118810  6409 layer_factory.hpp:77] Creating layer fc7_mbox_loc
I1208 16:34:49.118819  6409 net.cpp:100] Creating Layer fc7_mbox_loc
I1208 16:34:49.118824  6409 net.cpp:480] fc7_mbox_loc <- fc7_relu7_0_split_1
I1208 16:34:49.118829  6409 net.cpp:454] fc7_mbox_loc -> fc7_mbox_loc
I1208 16:34:49.120925  6409 net.cpp:150] Setting up fc7_mbox_loc
I1208 16:34:49.120936  6409 net.cpp:157] Top shape: 8 24 19 19 (69312)
I1208 16:34:49.120940  6409 net.cpp:165] Memory required for data: 1991201600
I1208 16:34:49.120944  6409 layer_factory.hpp:77] Creating layer fc7_mbox_loc_perm
I1208 16:34:49.120950  6409 net.cpp:100] Creating Layer fc7_mbox_loc_perm
I1208 16:34:49.120971  6409 net.cpp:480] fc7_mbox_loc_perm <- fc7_mbox_loc
I1208 16:34:49.120980  6409 net.cpp:454] fc7_mbox_loc_perm -> fc7_mbox_loc_perm
I1208 16:34:49.121096  6409 net.cpp:150] Setting up fc7_mbox_loc_perm
I1208 16:34:49.121101  6409 net.cpp:157] Top shape: 8 19 19 24 (69312)
I1208 16:34:49.121104  6409 net.cpp:165] Memory required for data: 1991478848
I1208 16:34:49.121106  6409 layer_factory.hpp:77] Creating layer fc7_mbox_loc_flat
I1208 16:34:49.121111  6409 net.cpp:100] Creating Layer fc7_mbox_loc_flat
I1208 16:34:49.121114  6409 net.cpp:480] fc7_mbox_loc_flat <- fc7_mbox_loc_perm
I1208 16:34:49.121119  6409 net.cpp:454] fc7_mbox_loc_flat -> fc7_mbox_loc_flat
I1208 16:34:49.121140  6409 net.cpp:150] Setting up fc7_mbox_loc_flat
I1208 16:34:49.121145  6409 net.cpp:157] Top shape: 8 8664 (69312)
I1208 16:34:49.121146  6409 net.cpp:165] Memory required for data: 1991756096
I1208 16:34:49.121150  6409 layer_factory.hpp:77] Creating layer fc7_mbox_conf
I1208 16:34:49.121157  6409 net.cpp:100] Creating Layer fc7_mbox_conf
I1208 16:34:49.121160  6409 net.cpp:480] fc7_mbox_conf <- fc7_relu7_0_split_2
I1208 16:34:49.121165  6409 net.cpp:454] fc7_mbox_conf -> fc7_mbox_conf
I1208 16:34:49.127656  6409 net.cpp:150] Setting up fc7_mbox_conf
I1208 16:34:49.127669  6409 net.cpp:157] Top shape: 8 126 19 19 (363888)
I1208 16:34:49.127671  6409 net.cpp:165] Memory required for data: 1993211648
I1208 16:34:49.127676  6409 layer_factory.hpp:77] Creating layer fc7_mbox_conf_perm
I1208 16:34:49.127682  6409 net.cpp:100] Creating Layer fc7_mbox_conf_perm
I1208 16:34:49.127686  6409 net.cpp:480] fc7_mbox_conf_perm <- fc7_mbox_conf
I1208 16:34:49.127691  6409 net.cpp:454] fc7_mbox_conf_perm -> fc7_mbox_conf_perm
I1208 16:34:49.127813  6409 net.cpp:150] Setting up fc7_mbox_conf_perm
I1208 16:34:49.127820  6409 net.cpp:157] Top shape: 8 19 19 126 (363888)
I1208 16:34:49.127822  6409 net.cpp:165] Memory required for data: 1994667200
I1208 16:34:49.127825  6409 layer_factory.hpp:77] Creating layer fc7_mbox_conf_flat
I1208 16:34:49.127830  6409 net.cpp:100] Creating Layer fc7_mbox_conf_flat
I1208 16:34:49.127832  6409 net.cpp:480] fc7_mbox_conf_flat <- fc7_mbox_conf_perm
I1208 16:34:49.127837  6409 net.cpp:454] fc7_mbox_conf_flat -> fc7_mbox_conf_flat
I1208 16:34:49.127858  6409 net.cpp:150] Setting up fc7_mbox_conf_flat
I1208 16:34:49.127863  6409 net.cpp:157] Top shape: 8 45486 (363888)
I1208 16:34:49.127866  6409 net.cpp:165] Memory required for data: 1996122752
I1208 16:34:49.127868  6409 layer_factory.hpp:77] Creating layer fc7_mbox_priorbox
I1208 16:34:49.127874  6409 net.cpp:100] Creating Layer fc7_mbox_priorbox
I1208 16:34:49.127877  6409 net.cpp:480] fc7_mbox_priorbox <- fc7_relu7_0_split_3
I1208 16:34:49.127882  6409 net.cpp:480] fc7_mbox_priorbox <- data_data_0_split_2
I1208 16:34:49.127887  6409 net.cpp:454] fc7_mbox_priorbox -> fc7_mbox_priorbox
I1208 16:34:49.127909  6409 net.cpp:150] Setting up fc7_mbox_priorbox
I1208 16:34:49.127914  6409 net.cpp:157] Top shape: 1 2 8664 (17328)
I1208 16:34:49.127918  6409 net.cpp:165] Memory required for data: 1996192064
I1208 16:34:49.127919  6409 layer_factory.hpp:77] Creating layer conv6_2_mbox_loc
I1208 16:34:49.127928  6409 net.cpp:100] Creating Layer conv6_2_mbox_loc
I1208 16:34:49.127933  6409 net.cpp:480] conv6_2_mbox_loc <- conv6_2_conv6_2_relu_0_split_1
I1208 16:34:49.127938  6409 net.cpp:454] conv6_2_mbox_loc -> conv6_2_mbox_loc
I1208 16:34:49.129644  6409 net.cpp:150] Setting up conv6_2_mbox_loc
I1208 16:34:49.129657  6409 net.cpp:157] Top shape: 8 24 10 10 (19200)
I1208 16:34:49.129658  6409 net.cpp:165] Memory required for data: 1996268864
I1208 16:34:49.129664  6409 layer_factory.hpp:77] Creating layer conv6_2_mbox_loc_perm
I1208 16:34:49.129669  6409 net.cpp:100] Creating Layer conv6_2_mbox_loc_perm
I1208 16:34:49.129673  6409 net.cpp:480] conv6_2_mbox_loc_perm <- conv6_2_mbox_loc
I1208 16:34:49.129678  6409 net.cpp:454] conv6_2_mbox_loc_perm -> conv6_2_mbox_loc_perm
I1208 16:34:49.129804  6409 net.cpp:150] Setting up conv6_2_mbox_loc_perm
I1208 16:34:49.129818  6409 net.cpp:157] Top shape: 8 10 10 24 (19200)
I1208 16:34:49.129822  6409 net.cpp:165] Memory required for data: 1996345664
I1208 16:34:49.129823  6409 layer_factory.hpp:77] Creating layer conv6_2_mbox_loc_flat
I1208 16:34:49.129828  6409 net.cpp:100] Creating Layer conv6_2_mbox_loc_flat
I1208 16:34:49.129830  6409 net.cpp:480] conv6_2_mbox_loc_flat <- conv6_2_mbox_loc_perm
I1208 16:34:49.129837  6409 net.cpp:454] conv6_2_mbox_loc_flat -> conv6_2_mbox_loc_flat
I1208 16:34:49.129860  6409 net.cpp:150] Setting up conv6_2_mbox_loc_flat
I1208 16:34:49.129866  6409 net.cpp:157] Top shape: 8 2400 (19200)
I1208 16:34:49.129868  6409 net.cpp:165] Memory required for data: 1996422464
I1208 16:34:49.129870  6409 layer_factory.hpp:77] Creating layer conv6_2_mbox_conf
I1208 16:34:49.129878  6409 net.cpp:100] Creating Layer conv6_2_mbox_conf
I1208 16:34:49.129882  6409 net.cpp:480] conv6_2_mbox_conf <- conv6_2_conv6_2_relu_0_split_2
I1208 16:34:49.129889  6409 net.cpp:454] conv6_2_mbox_conf -> conv6_2_mbox_conf
I1208 16:34:49.134133  6409 net.cpp:150] Setting up conv6_2_mbox_conf
I1208 16:34:49.134147  6409 net.cpp:157] Top shape: 8 126 10 10 (100800)
I1208 16:34:49.134151  6409 net.cpp:165] Memory required for data: 1996825664
I1208 16:34:49.134157  6409 layer_factory.hpp:77] Creating layer conv6_2_mbox_conf_perm
I1208 16:34:49.134163  6409 net.cpp:100] Creating Layer conv6_2_mbox_conf_perm
I1208 16:34:49.134166  6409 net.cpp:480] conv6_2_mbox_conf_perm <- conv6_2_mbox_conf
I1208 16:34:49.134173  6409 net.cpp:454] conv6_2_mbox_conf_perm -> conv6_2_mbox_conf_perm
I1208 16:34:49.134321  6409 net.cpp:150] Setting up conv6_2_mbox_conf_perm
I1208 16:34:49.134327  6409 net.cpp:157] Top shape: 8 10 10 126 (100800)
I1208 16:34:49.134330  6409 net.cpp:165] Memory required for data: 1997228864
I1208 16:34:49.134333  6409 layer_factory.hpp:77] Creating layer conv6_2_mbox_conf_flat
I1208 16:34:49.134338  6409 net.cpp:100] Creating Layer conv6_2_mbox_conf_flat
I1208 16:34:49.134341  6409 net.cpp:480] conv6_2_mbox_conf_flat <- conv6_2_mbox_conf_perm
I1208 16:34:49.134347  6409 net.cpp:454] conv6_2_mbox_conf_flat -> conv6_2_mbox_conf_flat
I1208 16:34:49.134371  6409 net.cpp:150] Setting up conv6_2_mbox_conf_flat
I1208 16:34:49.134378  6409 net.cpp:157] Top shape: 8 12600 (100800)
I1208 16:34:49.134382  6409 net.cpp:165] Memory required for data: 1997632064
I1208 16:34:49.134384  6409 layer_factory.hpp:77] Creating layer conv6_2_mbox_priorbox
I1208 16:34:49.134390  6409 net.cpp:100] Creating Layer conv6_2_mbox_priorbox
I1208 16:34:49.134393  6409 net.cpp:480] conv6_2_mbox_priorbox <- conv6_2_conv6_2_relu_0_split_3
I1208 16:34:49.134397  6409 net.cpp:480] conv6_2_mbox_priorbox <- data_data_0_split_3
I1208 16:34:49.134404  6409 net.cpp:454] conv6_2_mbox_priorbox -> conv6_2_mbox_priorbox
I1208 16:34:49.134433  6409 net.cpp:150] Setting up conv6_2_mbox_priorbox
I1208 16:34:49.134438  6409 net.cpp:157] Top shape: 1 2 2400 (4800)
I1208 16:34:49.134439  6409 net.cpp:165] Memory required for data: 1997651264
I1208 16:34:49.134443  6409 layer_factory.hpp:77] Creating layer conv7_2_mbox_loc
I1208 16:34:49.134451  6409 net.cpp:100] Creating Layer conv7_2_mbox_loc
I1208 16:34:49.134455  6409 net.cpp:480] conv7_2_mbox_loc <- conv7_2_conv7_2_relu_0_split_1
I1208 16:34:49.134461  6409 net.cpp:454] conv7_2_mbox_loc -> conv7_2_mbox_loc
I1208 16:34:49.136368  6409 net.cpp:150] Setting up conv7_2_mbox_loc
I1208 16:34:49.136379  6409 net.cpp:157] Top shape: 8 24 5 5 (4800)
I1208 16:34:49.136380  6409 net.cpp:165] Memory required for data: 1997670464
I1208 16:34:49.136386  6409 layer_factory.hpp:77] Creating layer conv7_2_mbox_loc_perm
I1208 16:34:49.136392  6409 net.cpp:100] Creating Layer conv7_2_mbox_loc_perm
I1208 16:34:49.136395  6409 net.cpp:480] conv7_2_mbox_loc_perm <- conv7_2_mbox_loc
I1208 16:34:49.136401  6409 net.cpp:454] conv7_2_mbox_loc_perm -> conv7_2_mbox_loc_perm
I1208 16:34:49.136556  6409 net.cpp:150] Setting up conv7_2_mbox_loc_perm
I1208 16:34:49.136561  6409 net.cpp:157] Top shape: 8 5 5 24 (4800)
I1208 16:34:49.136576  6409 net.cpp:165] Memory required for data: 1997689664
I1208 16:34:49.136579  6409 layer_factory.hpp:77] Creating layer conv7_2_mbox_loc_flat
I1208 16:34:49.136584  6409 net.cpp:100] Creating Layer conv7_2_mbox_loc_flat
I1208 16:34:49.136586  6409 net.cpp:480] conv7_2_mbox_loc_flat <- conv7_2_mbox_loc_perm
I1208 16:34:49.136592  6409 net.cpp:454] conv7_2_mbox_loc_flat -> conv7_2_mbox_loc_flat
I1208 16:34:49.136620  6409 net.cpp:150] Setting up conv7_2_mbox_loc_flat
I1208 16:34:49.136624  6409 net.cpp:157] Top shape: 8 600 (4800)
I1208 16:34:49.136626  6409 net.cpp:165] Memory required for data: 1997708864
I1208 16:34:49.136629  6409 layer_factory.hpp:77] Creating layer conv7_2_mbox_conf
I1208 16:34:49.136638  6409 net.cpp:100] Creating Layer conv7_2_mbox_conf
I1208 16:34:49.136642  6409 net.cpp:480] conv7_2_mbox_conf <- conv7_2_conv7_2_relu_0_split_2
I1208 16:34:49.136649  6409 net.cpp:454] conv7_2_mbox_conf -> conv7_2_mbox_conf
I1208 16:34:49.139638  6409 net.cpp:150] Setting up conv7_2_mbox_conf
I1208 16:34:49.139649  6409 net.cpp:157] Top shape: 8 126 5 5 (25200)
I1208 16:34:49.139652  6409 net.cpp:165] Memory required for data: 1997809664
I1208 16:34:49.139657  6409 layer_factory.hpp:77] Creating layer conv7_2_mbox_conf_perm
I1208 16:34:49.139662  6409 net.cpp:100] Creating Layer conv7_2_mbox_conf_perm
I1208 16:34:49.139665  6409 net.cpp:480] conv7_2_mbox_conf_perm <- conv7_2_mbox_conf
I1208 16:34:49.139669  6409 net.cpp:454] conv7_2_mbox_conf_perm -> conv7_2_mbox_conf_perm
I1208 16:34:49.139776  6409 net.cpp:150] Setting up conv7_2_mbox_conf_perm
I1208 16:34:49.139781  6409 net.cpp:157] Top shape: 8 5 5 126 (25200)
I1208 16:34:49.139783  6409 net.cpp:165] Memory required for data: 1997910464
I1208 16:34:49.139786  6409 layer_factory.hpp:77] Creating layer conv7_2_mbox_conf_flat
I1208 16:34:49.139789  6409 net.cpp:100] Creating Layer conv7_2_mbox_conf_flat
I1208 16:34:49.139792  6409 net.cpp:480] conv7_2_mbox_conf_flat <- conv7_2_mbox_conf_perm
I1208 16:34:49.139796  6409 net.cpp:454] conv7_2_mbox_conf_flat -> conv7_2_mbox_conf_flat
I1208 16:34:49.139832  6409 net.cpp:150] Setting up conv7_2_mbox_conf_flat
I1208 16:34:49.139837  6409 net.cpp:157] Top shape: 8 3150 (25200)
I1208 16:34:49.139838  6409 net.cpp:165] Memory required for data: 1998011264
I1208 16:34:49.139842  6409 layer_factory.hpp:77] Creating layer conv7_2_mbox_priorbox
I1208 16:34:49.139847  6409 net.cpp:100] Creating Layer conv7_2_mbox_priorbox
I1208 16:34:49.139849  6409 net.cpp:480] conv7_2_mbox_priorbox <- conv7_2_conv7_2_relu_0_split_3
I1208 16:34:49.139853  6409 net.cpp:480] conv7_2_mbox_priorbox <- data_data_0_split_4
I1208 16:34:49.139858  6409 net.cpp:454] conv7_2_mbox_priorbox -> conv7_2_mbox_priorbox
I1208 16:34:49.139883  6409 net.cpp:150] Setting up conv7_2_mbox_priorbox
I1208 16:34:49.139886  6409 net.cpp:157] Top shape: 1 2 600 (1200)
I1208 16:34:49.139889  6409 net.cpp:165] Memory required for data: 1998016064
I1208 16:34:49.139891  6409 layer_factory.hpp:77] Creating layer conv8_2_mbox_loc
I1208 16:34:49.139899  6409 net.cpp:100] Creating Layer conv8_2_mbox_loc
I1208 16:34:49.139902  6409 net.cpp:480] conv8_2_mbox_loc <- conv8_2_conv8_2_relu_0_split_1
I1208 16:34:49.139909  6409 net.cpp:454] conv8_2_mbox_loc -> conv8_2_mbox_loc
I1208 16:34:49.141095  6409 net.cpp:150] Setting up conv8_2_mbox_loc
I1208 16:34:49.141105  6409 net.cpp:157] Top shape: 8 16 3 3 (1152)
I1208 16:34:49.141108  6409 net.cpp:165] Memory required for data: 1998020672
I1208 16:34:49.141122  6409 layer_factory.hpp:77] Creating layer conv8_2_mbox_loc_perm
I1208 16:34:49.141127  6409 net.cpp:100] Creating Layer conv8_2_mbox_loc_perm
I1208 16:34:49.141130  6409 net.cpp:480] conv8_2_mbox_loc_perm <- conv8_2_mbox_loc
I1208 16:34:49.141145  6409 net.cpp:454] conv8_2_mbox_loc_perm -> conv8_2_mbox_loc_perm
I1208 16:34:49.141258  6409 net.cpp:150] Setting up conv8_2_mbox_loc_perm
I1208 16:34:49.141264  6409 net.cpp:157] Top shape: 8 3 3 16 (1152)
I1208 16:34:49.141266  6409 net.cpp:165] Memory required for data: 1998025280
I1208 16:34:49.141268  6409 layer_factory.hpp:77] Creating layer conv8_2_mbox_loc_flat
I1208 16:34:49.141283  6409 net.cpp:100] Creating Layer conv8_2_mbox_loc_flat
I1208 16:34:49.141285  6409 net.cpp:480] conv8_2_mbox_loc_flat <- conv8_2_mbox_loc_perm
I1208 16:34:49.141290  6409 net.cpp:454] conv8_2_mbox_loc_flat -> conv8_2_mbox_loc_flat
I1208 16:34:49.141311  6409 net.cpp:150] Setting up conv8_2_mbox_loc_flat
I1208 16:34:49.141316  6409 net.cpp:157] Top shape: 8 144 (1152)
I1208 16:34:49.141319  6409 net.cpp:165] Memory required for data: 1998029888
I1208 16:34:49.141320  6409 layer_factory.hpp:77] Creating layer conv8_2_mbox_conf
I1208 16:34:49.141330  6409 net.cpp:100] Creating Layer conv8_2_mbox_conf
I1208 16:34:49.141335  6409 net.cpp:480] conv8_2_mbox_conf <- conv8_2_conv8_2_relu_0_split_2
I1208 16:34:49.141340  6409 net.cpp:454] conv8_2_mbox_conf -> conv8_2_mbox_conf
I1208 16:34:49.143479  6409 net.cpp:150] Setting up conv8_2_mbox_conf
I1208 16:34:49.143491  6409 net.cpp:157] Top shape: 8 84 3 3 (6048)
I1208 16:34:49.143493  6409 net.cpp:165] Memory required for data: 1998054080
I1208 16:34:49.143498  6409 layer_factory.hpp:77] Creating layer conv8_2_mbox_conf_perm
I1208 16:34:49.143503  6409 net.cpp:100] Creating Layer conv8_2_mbox_conf_perm
I1208 16:34:49.143507  6409 net.cpp:480] conv8_2_mbox_conf_perm <- conv8_2_mbox_conf
I1208 16:34:49.143512  6409 net.cpp:454] conv8_2_mbox_conf_perm -> conv8_2_mbox_conf_perm
I1208 16:34:49.143621  6409 net.cpp:150] Setting up conv8_2_mbox_conf_perm
I1208 16:34:49.143626  6409 net.cpp:157] Top shape: 8 3 3 84 (6048)
I1208 16:34:49.143628  6409 net.cpp:165] Memory required for data: 1998078272
I1208 16:34:49.143630  6409 layer_factory.hpp:77] Creating layer conv8_2_mbox_conf_flat
I1208 16:34:49.143635  6409 net.cpp:100] Creating Layer conv8_2_mbox_conf_flat
I1208 16:34:49.143636  6409 net.cpp:480] conv8_2_mbox_conf_flat <- conv8_2_mbox_conf_perm
I1208 16:34:49.143641  6409 net.cpp:454] conv8_2_mbox_conf_flat -> conv8_2_mbox_conf_flat
I1208 16:34:49.143661  6409 net.cpp:150] Setting up conv8_2_mbox_conf_flat
I1208 16:34:49.143664  6409 net.cpp:157] Top shape: 8 756 (6048)
I1208 16:34:49.143666  6409 net.cpp:165] Memory required for data: 1998102464
I1208 16:34:49.143668  6409 layer_factory.hpp:77] Creating layer conv8_2_mbox_priorbox
I1208 16:34:49.143673  6409 net.cpp:100] Creating Layer conv8_2_mbox_priorbox
I1208 16:34:49.143676  6409 net.cpp:480] conv8_2_mbox_priorbox <- conv8_2_conv8_2_relu_0_split_3
I1208 16:34:49.143679  6409 net.cpp:480] conv8_2_mbox_priorbox <- data_data_0_split_5
I1208 16:34:49.143684  6409 net.cpp:454] conv8_2_mbox_priorbox -> conv8_2_mbox_priorbox
I1208 16:34:49.143707  6409 net.cpp:150] Setting up conv8_2_mbox_priorbox
I1208 16:34:49.143709  6409 net.cpp:157] Top shape: 1 2 144 (288)
I1208 16:34:49.143712  6409 net.cpp:165] Memory required for data: 1998103616
I1208 16:34:49.143713  6409 layer_factory.hpp:77] Creating layer conv9_2_mbox_loc
I1208 16:34:49.143723  6409 net.cpp:100] Creating Layer conv9_2_mbox_loc
I1208 16:34:49.143724  6409 net.cpp:480] conv9_2_mbox_loc <- conv9_2_conv9_2_relu_0_split_0
I1208 16:34:49.143730  6409 net.cpp:454] conv9_2_mbox_loc -> conv9_2_mbox_loc
I1208 16:34:49.145009  6409 net.cpp:150] Setting up conv9_2_mbox_loc
I1208 16:34:49.145018  6409 net.cpp:157] Top shape: 8 16 1 1 (128)
I1208 16:34:49.145020  6409 net.cpp:165] Memory required for data: 1998104128
I1208 16:34:49.145025  6409 layer_factory.hpp:77] Creating layer conv9_2_mbox_loc_perm
I1208 16:34:49.145031  6409 net.cpp:100] Creating Layer conv9_2_mbox_loc_perm
I1208 16:34:49.145035  6409 net.cpp:480] conv9_2_mbox_loc_perm <- conv9_2_mbox_loc
I1208 16:34:49.145040  6409 net.cpp:454] conv9_2_mbox_loc_perm -> conv9_2_mbox_loc_perm
I1208 16:34:49.145159  6409 net.cpp:150] Setting up conv9_2_mbox_loc_perm
I1208 16:34:49.145165  6409 net.cpp:157] Top shape: 8 1 1 16 (128)
I1208 16:34:49.145169  6409 net.cpp:165] Memory required for data: 1998104640
I1208 16:34:49.145170  6409 layer_factory.hpp:77] Creating layer conv9_2_mbox_loc_flat
I1208 16:34:49.145174  6409 net.cpp:100] Creating Layer conv9_2_mbox_loc_flat
I1208 16:34:49.145187  6409 net.cpp:480] conv9_2_mbox_loc_flat <- conv9_2_mbox_loc_perm
I1208 16:34:49.145193  6409 net.cpp:454] conv9_2_mbox_loc_flat -> conv9_2_mbox_loc_flat
I1208 16:34:49.145213  6409 net.cpp:150] Setting up conv9_2_mbox_loc_flat
I1208 16:34:49.145220  6409 net.cpp:157] Top shape: 8 16 (128)
I1208 16:34:49.145221  6409 net.cpp:165] Memory required for data: 1998105152
I1208 16:34:49.145225  6409 layer_factory.hpp:77] Creating layer conv9_2_mbox_conf
I1208 16:34:49.145232  6409 net.cpp:100] Creating Layer conv9_2_mbox_conf
I1208 16:34:49.145236  6409 net.cpp:480] conv9_2_mbox_conf <- conv9_2_conv9_2_relu_0_split_1
I1208 16:34:49.145241  6409 net.cpp:454] conv9_2_mbox_conf -> conv9_2_mbox_conf
I1208 16:34:49.147213  6409 net.cpp:150] Setting up conv9_2_mbox_conf
I1208 16:34:49.147225  6409 net.cpp:157] Top shape: 8 84 1 1 (672)
I1208 16:34:49.147228  6409 net.cpp:165] Memory required for data: 1998107840
I1208 16:34:49.147231  6409 layer_factory.hpp:77] Creating layer conv9_2_mbox_conf_perm
I1208 16:34:49.147253  6409 net.cpp:100] Creating Layer conv9_2_mbox_conf_perm
I1208 16:34:49.147258  6409 net.cpp:480] conv9_2_mbox_conf_perm <- conv9_2_mbox_conf
I1208 16:34:49.147262  6409 net.cpp:454] conv9_2_mbox_conf_perm -> conv9_2_mbox_conf_perm
I1208 16:34:49.147379  6409 net.cpp:150] Setting up conv9_2_mbox_conf_perm
I1208 16:34:49.147385  6409 net.cpp:157] Top shape: 8 1 1 84 (672)
I1208 16:34:49.147387  6409 net.cpp:165] Memory required for data: 1998110528
I1208 16:34:49.147389  6409 layer_factory.hpp:77] Creating layer conv9_2_mbox_conf_flat
I1208 16:34:49.147394  6409 net.cpp:100] Creating Layer conv9_2_mbox_conf_flat
I1208 16:34:49.147397  6409 net.cpp:480] conv9_2_mbox_conf_flat <- conv9_2_mbox_conf_perm
I1208 16:34:49.147403  6409 net.cpp:454] conv9_2_mbox_conf_flat -> conv9_2_mbox_conf_flat
I1208 16:34:49.147423  6409 net.cpp:150] Setting up conv9_2_mbox_conf_flat
I1208 16:34:49.147428  6409 net.cpp:157] Top shape: 8 84 (672)
I1208 16:34:49.147429  6409 net.cpp:165] Memory required for data: 1998113216
I1208 16:34:49.147431  6409 layer_factory.hpp:77] Creating layer conv9_2_mbox_priorbox
I1208 16:34:49.147438  6409 net.cpp:100] Creating Layer conv9_2_mbox_priorbox
I1208 16:34:49.147439  6409 net.cpp:480] conv9_2_mbox_priorbox <- conv9_2_conv9_2_relu_0_split_2
I1208 16:34:49.147444  6409 net.cpp:480] conv9_2_mbox_priorbox <- data_data_0_split_6
I1208 16:34:49.147449  6409 net.cpp:454] conv9_2_mbox_priorbox -> conv9_2_mbox_priorbox
I1208 16:34:49.147473  6409 net.cpp:150] Setting up conv9_2_mbox_priorbox
I1208 16:34:49.147478  6409 net.cpp:157] Top shape: 1 2 16 (32)
I1208 16:34:49.147480  6409 net.cpp:165] Memory required for data: 1998113344
I1208 16:34:49.147482  6409 layer_factory.hpp:77] Creating layer mbox_loc
I1208 16:34:49.147487  6409 net.cpp:100] Creating Layer mbox_loc
I1208 16:34:49.147491  6409 net.cpp:480] mbox_loc <- conv4_3_norm_mbox_loc_flat
I1208 16:34:49.147495  6409 net.cpp:480] mbox_loc <- fc7_mbox_loc_flat
I1208 16:34:49.147500  6409 net.cpp:480] mbox_loc <- conv6_2_mbox_loc_flat
I1208 16:34:49.147502  6409 net.cpp:480] mbox_loc <- conv7_2_mbox_loc_flat
I1208 16:34:49.147506  6409 net.cpp:480] mbox_loc <- conv8_2_mbox_loc_flat
I1208 16:34:49.147509  6409 net.cpp:480] mbox_loc <- conv9_2_mbox_loc_flat
I1208 16:34:49.147516  6409 net.cpp:454] mbox_loc -> mbox_loc
I1208 16:34:49.147536  6409 net.cpp:150] Setting up mbox_loc
I1208 16:34:49.147541  6409 net.cpp:157] Top shape: 8 34928 (279424)
I1208 16:34:49.147544  6409 net.cpp:165] Memory required for data: 1999231040
I1208 16:34:49.147547  6409 layer_factory.hpp:77] Creating layer mbox_conf
I1208 16:34:49.147552  6409 net.cpp:100] Creating Layer mbox_conf
I1208 16:34:49.147554  6409 net.cpp:480] mbox_conf <- conv4_3_norm_mbox_conf_flat
I1208 16:34:49.147558  6409 net.cpp:480] mbox_conf <- fc7_mbox_conf_flat
I1208 16:34:49.147562  6409 net.cpp:480] mbox_conf <- conv6_2_mbox_conf_flat
I1208 16:34:49.147565  6409 net.cpp:480] mbox_conf <- conv7_2_mbox_conf_flat
I1208 16:34:49.147567  6409 net.cpp:480] mbox_conf <- conv8_2_mbox_conf_flat
I1208 16:34:49.147580  6409 net.cpp:480] mbox_conf <- conv9_2_mbox_conf_flat
I1208 16:34:49.147584  6409 net.cpp:454] mbox_conf -> mbox_conf
I1208 16:34:49.147604  6409 net.cpp:150] Setting up mbox_conf
I1208 16:34:49.147609  6409 net.cpp:157] Top shape: 8 183372 (1466976)
I1208 16:34:49.147611  6409 net.cpp:165] Memory required for data: 2005098944
I1208 16:34:49.147614  6409 layer_factory.hpp:77] Creating layer mbox_priorbox
I1208 16:34:49.147619  6409 net.cpp:100] Creating Layer mbox_priorbox
I1208 16:34:49.147621  6409 net.cpp:480] mbox_priorbox <- conv4_3_norm_mbox_priorbox
I1208 16:34:49.147625  6409 net.cpp:480] mbox_priorbox <- fc7_mbox_priorbox
I1208 16:34:49.147629  6409 net.cpp:480] mbox_priorbox <- conv6_2_mbox_priorbox
I1208 16:34:49.147631  6409 net.cpp:480] mbox_priorbox <- conv7_2_mbox_priorbox
I1208 16:34:49.147634  6409 net.cpp:480] mbox_priorbox <- conv8_2_mbox_priorbox
I1208 16:34:49.147637  6409 net.cpp:480] mbox_priorbox <- conv9_2_mbox_priorbox
I1208 16:34:49.147641  6409 net.cpp:454] mbox_priorbox -> mbox_priorbox
I1208 16:34:49.147661  6409 net.cpp:150] Setting up mbox_priorbox
I1208 16:34:49.147665  6409 net.cpp:157] Top shape: 1 2 34928 (69856)
I1208 16:34:49.147668  6409 net.cpp:165] Memory required for data: 2005378368
I1208 16:34:49.147670  6409 layer_factory.hpp:77] Creating layer mbox_conf_reshape
I1208 16:34:49.147675  6409 net.cpp:100] Creating Layer mbox_conf_reshape
I1208 16:34:49.147677  6409 net.cpp:480] mbox_conf_reshape <- mbox_conf
I1208 16:34:49.147683  6409 net.cpp:454] mbox_conf_reshape -> mbox_conf_reshape
I1208 16:34:49.147723  6409 net.cpp:150] Setting up mbox_conf_reshape
I1208 16:34:49.147729  6409 net.cpp:157] Top shape: 8 8732 21 (1466976)
I1208 16:34:49.147732  6409 net.cpp:165] Memory required for data: 2011246272
I1208 16:34:49.147734  6409 layer_factory.hpp:77] Creating layer mbox_conf_softmax
I1208 16:34:49.147739  6409 net.cpp:100] Creating Layer mbox_conf_softmax
I1208 16:34:49.147745  6409 net.cpp:480] mbox_conf_softmax <- mbox_conf_reshape
I1208 16:34:49.147752  6409 net.cpp:454] mbox_conf_softmax -> mbox_conf_softmax
I1208 16:34:49.148077  6409 net.cpp:150] Setting up mbox_conf_softmax
I1208 16:34:49.148084  6409 net.cpp:157] Top shape: 8 8732 21 (1466976)
I1208 16:34:49.148087  6409 net.cpp:165] Memory required for data: 2017114176
I1208 16:34:49.148090  6409 layer_factory.hpp:77] Creating layer mbox_conf_flatten
I1208 16:34:49.148097  6409 net.cpp:100] Creating Layer mbox_conf_flatten
I1208 16:34:49.148100  6409 net.cpp:480] mbox_conf_flatten <- mbox_conf_softmax
I1208 16:34:49.148104  6409 net.cpp:454] mbox_conf_flatten -> mbox_conf_flatten
I1208 16:34:49.148130  6409 net.cpp:150] Setting up mbox_conf_flatten
I1208 16:34:49.148136  6409 net.cpp:157] Top shape: 8 183372 (1466976)
I1208 16:34:49.148138  6409 net.cpp:165] Memory required for data: 2022982080
I1208 16:34:49.148140  6409 layer_factory.hpp:77] Creating layer detection_out
I1208 16:34:49.148152  6409 net.cpp:100] Creating Layer detection_out
I1208 16:34:49.148156  6409 net.cpp:480] detection_out <- mbox_loc
I1208 16:34:49.148161  6409 net.cpp:480] detection_out <- mbox_conf_flatten
I1208 16:34:49.148164  6409 net.cpp:480] detection_out <- mbox_priorbox
I1208 16:34:49.148174  6409 net.cpp:454] detection_out -> detection_out
I1208 16:34:49.149762  6409 net.cpp:150] Setting up detection_out
I1208 16:34:49.149772  6409 net.cpp:157] Top shape: 1 1 1 7 (7)
I1208 16:34:49.149775  6409 net.cpp:165] Memory required for data: 2022982108
I1208 16:34:49.149777  6409 layer_factory.hpp:77] Creating layer detection_eval
I1208 16:34:49.149785  6409 net.cpp:100] Creating Layer detection_eval
I1208 16:34:49.149788  6409 net.cpp:480] detection_eval <- detection_out
I1208 16:34:49.149792  6409 net.cpp:480] detection_eval <- label
I1208 16:34:49.149796  6409 net.cpp:454] detection_eval -> detection_eval
I1208 16:34:49.150646  6409 net.cpp:150] Setting up detection_eval
I1208 16:34:49.150653  6409 net.cpp:157] Top shape: 1 1 21 5 (105)
I1208 16:34:49.150655  6409 net.cpp:165] Memory required for data: 2022982528
I1208 16:34:49.150667  6409 net.cpp:228] detection_eval does not need backward computation.
I1208 16:34:49.150671  6409 net.cpp:228] detection_out does not need backward computation.
I1208 16:34:49.150676  6409 net.cpp:228] mbox_conf_flatten does not need backward computation.
I1208 16:34:49.150678  6409 net.cpp:228] mbox_conf_softmax does not need backward computation.
…
